…
I0116 12:33:24.554538 40338 net.cpp:322] The NetState phase (0) differed from the phase (1) specified by a rule in layer accuracy
I0116 12:33:24.557698 40338 net.cpp:58] Initializing net from parameters: 
name: "AlexNet"
state {
  phase: TRAIN
  level: 0
  stage: ""
}
layer {
  name: "data"
  type: "Data"
  top: "data"
  top: "label"
  include {
    phase: TRAIN
  }
  transform_param {
    mirror: true
    crop_size: 227
    mean_file: "/user/user/CN/caffe/caffe/data/ilsvrc12/imagenet_mean.binaryproto"
  }
  data_param {
    source: "/user/user/CN/caffe/caffe/examples/imagenet/ilsvrc12_train_lmdb"
    batch_size: 256
    backend: LMDB
  }
}
layer {
  name: "conv1"
  type: "Convolution"
  bottom: "data"
  top: "conv1"
  param {
    lr_mult: 1
    decay_mult: 1
  }
  param {
    lr_mult: 2
    decay_mult: 0
  }
  convolution_param {
    num_output: 96
    kernel_size: 11
    stride: 4
    weight_filler {
      type: "gaussian"
      std: 0.01
    }
    bias_filler {
      type: "constant"
      value: 0
    }
  }
}
layer {
  name: "relu1"
  type: "ReLU"
  bottom: "conv1"
  top: "conv1"
}
layer {
  name: "norm1"
  type: "LRN"
  bottom: "conv1"
  top: "norm1"
  lrn_param {
    local_size: 5
    alpha: 0.0001
    beta: 0.75
  }
}
layer {
  name: "pool1"
  type: "Pooling"
  bottom: "norm1"
  top: "pool1"
  pooling_param {
    pool: MAX
    kernel_size: 3
    stride: 2
  }
}
layer {
  name: "conv2"
  type: "Convolution"
  bottom: "pool1"
  top: "conv2"
  param {
    lr_mult: 1
    decay_mult: 1
  }
  param {
    lr_mult: 2
    decay_mult: 0
  }
  convolution_param {
    num_output: 256
    pad: 2
    kernel_size: 5
    group: 2
    weight_filler {
      type: "gaussian"
      std: 0.01
    }
    bias_filler {
      type: "constant"
      value: 0.1
    }
  }
}
layer {
  name: "relu2"
  type: "ReLU"
  bottom: "conv2"
  top: "conv2"
}
layer {
  name: "norm2"
  type: "LRN"
  bottom: "conv2"
  top: "norm2"
  lrn_param {
    local_size: 5
    alpha: 0.0001
    beta: 0.75
  }
}
layer {
  name: "pool2"
  type: "Pooling"
  bottom: "norm2"
  top: "pool2"
  pooling_param {
    pool: MAX
    kernel_size: 3
    stride: 2
  }
}
layer {
  name: "conv3"
  type: "Convolution"
  bottom: "pool2"
  top: "conv3"
  param {
    lr_mult: 1
    decay_mult: 1
  }
  param {
    lr_mult: 2
    decay_mult: 0
  }
  convolution_param {
    num_output: 384
    pad: 1
    kernel_size: 3
    weight_filler {
      type: "gaussian"
      std: 0.01
    }
    bias_filler {
      type: "constant"
      value: 0
    }
  }
}
layer {
  name: "relu3"
  type: "ReLU"
  bottom: "conv3"
  top: "conv3"
}
layer {
  name: "conv4"
  type: "Convolution"
  bottom: "conv3"
  top: "conv4"
  param {
    lr_mult: 1
    decay_mult: 1
  }
  param {
    lr_mult: 2
    decay_mult: 0
  }
  convolution_param {
    num_output: 384
    pad: 1
    kernel_size: 3
    group: 2
    weight_filler {
      type: "gaussian"
      std: 0.01
    }
    bias_filler {
      type: "constant"
      value: 0.1
    }
  }
}
layer {
  name: "relu4"
  type: "ReLU"
  bottom: "conv4"
  top: "conv4"
}
layer {
  name: "conv5"
  type: "Convolution"
  bottom: "conv4"
  top: "conv5"
  param {
    lr_mult: 1
    decay_mult: 1
  }
  param {
    lr_mult: 2
    decay_mult: 0
  }
  convolution_param {
    num_output: 256
    pad: 1
    kernel_size: 3
    group: 2
    weight_filler {
      type: "gaussian"
      std: 0.01
    }
    bias_filler {
      type: "constant"
      value: 0.1
    }
  }
}
layer {
  name: "relu5"
  type: "ReLU"
  bottom: "conv5"
  top: "conv5"
}
layer {
  name: "pool5"
  type: "Pooling"
  bottom: "conv5"
  top: "pool5"
  pooling_param {
    pool: MAX
    kernel_size: 3
    stride: 2
  }
}
layer {
  name: "fc6"
  type: "InnerProduct"
  bottom: "pool5"
  top: "fc6"
  param {
    lr_mult: 1
    decay_mult: 1
  }
  param {
    lr_mult: 2
    decay_mult: 0
  }
  inner_product_param {
    num_output: 4096
    weight_filler {
      type: "gaussian"
      std: 0.005
    }
    bias_filler {
      type: "constant"
      value: 0.1
    }
  }
}
layer {
  name: "relu6"
  type: "ReLU"
  bottom: "fc6"
  top: "fc6"
}
layer {
  name: "drop6"
  type: "Dropout"
  bottom: "fc6"
  top: "fc6"
  dropout_param {
    dropout_ratio: 0.5
  }
}
layer {
  name: "fc7"
  type: "InnerProduct"
  bottom: "fc6"
  top: "fc7"
  param {
    lr_mult: 1
    decay_mult: 1
  }
  param {
    lr_mult: 2
    decay_mult: 0
  }
  inner_product_param {
    num_output: 4096
    weight_filler {
      type: "gaussian"
      std: 0.005
    }
    bias_filler {
      type: "constant"
      value: 0.1
    }
  }
}
layer {
  name: "relu7"
  type: "ReLU"
  bottom: "fc7"
  top: "fc7"
}
layer {
  name: "drop7"
  type: "Dropout"
  bottom: "fc7"
  top: "fc7"
  dropout_param {
    dropout_ratio: 0.5
  }
}
layer {
  name: "fc8"
  type: "InnerProduct"
  bottom: "fc7"
  top: "fc8"
  param {
    lr_mult: 1
    decay_mult: 1
  }
  param {
    lr_mult: 2
    decay_mult: 0
  }
  inner_product_param {
    num_output: 1000
    weight_filler {
      type: "gaussian"
      std: 0.01
    }
    bias_filler {
      type: "constant"
      value: 0
    }
  }
}
layer {
  name: "loss"
  type: "SoftmaxWithLoss"
  bottom: "fc8"
  bottom: "label"
  top: "loss"
}
I0116 12:33:24.558289 40338 layer_factory.hpp:77] Creating layer data
I0116 12:33:24.560994 40338 net.cpp:100] Creating Layer data
I0116 12:33:24.561277 40338 net.cpp:408] data -> data
I0116 12:33:24.561403 40338 net.cpp:408] data -> label
I0116 12:33:24.561493 40338 data_transformer.cpp:25] Loading mean file from: /user/user/CN/caffe/caffe/data/ilsvrc12/imagenet_mean.binaryproto
I0116 12:33:24.568197 40339 db_lmdb.cpp:35] Opened lmdb /user/user/CN/caffe/caffe/examples/imagenet/ilsvrc12_train_lmdb
I0116 12:33:24.695201 40338 data_layer.cpp:41] output data size: 256,3,227,227
I0116 12:33:24.841091 40338 net.cpp:150] Setting up data
I0116 12:33:24.841612 40338 net.cpp:157] Top shape: 256 3 227 227 (39574272)
I0116 12:33:24.841737 40338 net.cpp:157] Top shape: 256 (256)
I0116 12:33:24.841812 40338 net.cpp:165] Memory required for data: 158298112
I0116 12:33:24.841882 40338 layer_factory.hpp:77] Creating layer conv1
I0116 12:33:24.841986 40338 net.cpp:100] Creating Layer conv1
I0116 12:33:24.842026 40338 net.cpp:434] conv1 <- data
I0116 12:33:24.842093 40338 net.cpp:408] conv1 -> conv1
I0116 12:33:24.844092 40338 net.cpp:150] Setting up conv1
I0116 12:33:24.844153 40338 net.cpp:157] Top shape: 256 96 55 55 (74342400)
I0116 12:33:24.844185 40338 net.cpp:165] Memory required for data: 455667712
I0116 12:33:24.844270 40338 layer_factory.hpp:77] Creating layer relu1
I0116 12:33:24.844324 40338 net.cpp:100] Creating Layer relu1
I0116 12:33:24.844357 40338 net.cpp:434] relu1 <- conv1
I0116 12:33:24.844398 40338 net.cpp:395] relu1 -> conv1 (in-place)
I0116 12:33:24.844452 40338 net.cpp:150] Setting up relu1
I0116 12:33:24.844492 40338 net.cpp:157] Top shape: 256 96 55 55 (74342400)
I0116 12:33:24.844523 40338 net.cpp:165] Memory required for data: 753037312
I0116 12:33:24.844555 40338 layer_factory.hpp:77] Creating layer norm1
I0116 12:33:24.844599 40338 net.cpp:100] Creating Layer norm1
I0116 12:33:24.844643 40338 net.cpp:434] norm1 <- conv1
I0116 12:33:24.844686 40338 net.cpp:408] norm1 -> norm1
I0116 12:33:24.844784 40338 net.cpp:150] Setting up norm1
I0116 12:33:24.844825 40338 net.cpp:157] Top shape: 256 96 55 55 (74342400)
I0116 12:33:24.844856 40338 net.cpp:165] Memory required for data: 1050406912
I0116 12:33:24.844888 40338 layer_factory.hpp:77] Creating layer pool1
I0116 12:33:24.845048 40338 net.cpp:100] Creating Layer pool1
I0116 12:33:24.845084 40338 net.cpp:434] pool1 <- norm1
I0116 12:33:24.845129 40338 net.cpp:408] pool1 -> pool1
I0116 12:33:24.845237 40338 net.cpp:150] Setting up pool1
I0116 12:33:24.845283 40338 net.cpp:157] Top shape: 256 96 27 27 (17915904)
I0116 12:33:24.845314 40338 net.cpp:165] Memory required for data: 1122070528
I0116 12:33:24.845347 40338 layer_factory.hpp:77] Creating layer conv2
I0116 12:33:24.845398 40338 net.cpp:100] Creating Layer conv2
I0116 12:33:24.845432 40338 net.cpp:434] conv2 <- pool1
I0116 12:33:24.845474 40338 net.cpp:408] conv2 -> conv2
I0116 12:33:24.860245 40338 net.cpp:150] Setting up conv2
I0116 12:33:24.860355 40338 net.cpp:157] Top shape: 256 256 27 27 (47775744)
I0116 12:33:24.860388 40338 net.cpp:165] Memory required for data: 1313173504
I0116 12:33:24.860455 40338 layer_factory.hpp:77] Creating layer relu2
I0116 12:33:24.860504 40338 net.cpp:100] Creating Layer relu2
I0116 12:33:24.860539 40338 net.cpp:434] relu2 <- conv2
I0116 12:33:24.860584 40338 net.cpp:395] relu2 -> conv2 (in-place)
I0116 12:33:24.860636 40338 net.cpp:150] Setting up relu2
I0116 12:33:24.860677 40338 net.cpp:157] Top shape: 256 256 27 27 (47775744)
I0116 12:33:24.860707 40338 net.cpp:165] Memory required for data: 1504276480
I0116 12:33:24.860738 40338 layer_factory.hpp:77] Creating layer norm2
I0116 12:33:24.860817 40338 net.cpp:100] Creating Layer norm2
I0116 12:33:24.860851 40338 net.cpp:434] norm2 <- conv2
I0116 12:33:24.860891 40338 net.cpp:408] norm2 -> norm2
I0116 12:33:24.860960 40338 net.cpp:150] Setting up norm2
I0116 12:33:24.861001 40338 net.cpp:157] Top shape: 256 256 27 27 (47775744)
I0116 12:33:24.861032 40338 net.cpp:165] Memory required for data: 1695379456
I0116 12:33:24.861063 40338 layer_factory.hpp:77] Creating layer pool2
I0116 12:33:24.861109 40338 net.cpp:100] Creating Layer pool2
I0116 12:33:24.861141 40338 net.cpp:434] pool2 <- norm2
I0116 12:33:24.861182 40338 net.cpp:408] pool2 -> pool2
I0116 12:33:24.861245 40338 net.cpp:150] Setting up pool2
I0116 12:33:24.861287 40338 net.cpp:157] Top shape: 256 256 13 13 (11075584)
I0116 12:33:24.861317 40338 net.cpp:165] Memory required for data: 1739681792
I0116 12:33:24.861349 40338 layer_factory.hpp:77] Creating layer conv3
I0116 12:33:24.861399 40338 net.cpp:100] Creating Layer conv3
I0116 12:33:24.861433 40338 net.cpp:434] conv3 <- pool2
I0116 12:33:24.861476 40338 net.cpp:408] conv3 -> conv3
I0116 12:33:24.903905 40338 net.cpp:150] Setting up conv3
I0116 12:33:24.904021 40338 net.cpp:157] Top shape: 256 384 13 13 (16613376)
I0116 12:33:24.904053 40338 net.cpp:165] Memory required for data: 1806135296
I0116 12:33:24.904124 40338 layer_factory.hpp:77] Creating layer relu3
I0116 12:33:24.904176 40338 net.cpp:100] Creating Layer relu3
I0116 12:33:24.904211 40338 net.cpp:434] relu3 <- conv3
I0116 12:33:24.904260 40338 net.cpp:395] relu3 -> conv3 (in-place)
I0116 12:33:24.904312 40338 net.cpp:150] Setting up relu3
I0116 12:33:24.904353 40338 net.cpp:157] Top shape: 256 384 13 13 (16613376)
I0116 12:33:24.904384 40338 net.cpp:165] Memory required for data: 1872588800
I0116 12:33:24.904418 40338 layer_factory.hpp:77] Creating layer conv4
I0116 12:33:24.904470 40338 net.cpp:100] Creating Layer conv4
I0116 12:33:24.904502 40338 net.cpp:434] conv4 <- conv3
I0116 12:33:24.904546 40338 net.cpp:408] conv4 -> conv4
I0116 12:33:24.936098 40338 net.cpp:150] Setting up conv4
I0116 12:33:24.936210 40338 net.cpp:157] Top shape: 256 384 13 13 (16613376)
I0116 12:33:24.936244 40338 net.cpp:165] Memory required for data: 1939042304
I0116 12:33:24.936300 40338 layer_factory.hpp:77] Creating layer relu4
I0116 12:33:24.936349 40338 net.cpp:100] Creating Layer relu4
I0116 12:33:24.936385 40338 net.cpp:434] relu4 <- conv4
I0116 12:33:24.936430 40338 net.cpp:395] relu4 -> conv4 (in-place)
I0116 12:33:24.936480 40338 net.cpp:150] Setting up relu4
I0116 12:33:24.936522 40338 net.cpp:157] Top shape: 256 384 13 13 (16613376)
I0116 12:33:24.936553 40338 net.cpp:165] Memory required for data: 2005495808
I0116 12:33:24.936702 40338 layer_factory.hpp:77] Creating layer conv5
I0116 12:33:24.936789 40338 net.cpp:100] Creating Layer conv5
I0116 12:33:24.936825 40338 net.cpp:434] conv5 <- conv4
I0116 12:33:24.936872 40338 net.cpp:408] conv5 -> conv5
I0116 12:33:24.957952 40338 net.cpp:150] Setting up conv5
I0116 12:33:24.958065 40338 net.cpp:157] Top shape: 256 256 13 13 (11075584)
I0116 12:33:24.958096 40338 net.cpp:165] Memory required for data: 2049798144
I0116 12:33:24.958173 40338 layer_factory.hpp:77] Creating layer relu5
I0116 12:33:24.958222 40338 net.cpp:100] Creating Layer relu5
I0116 12:33:24.958258 40338 net.cpp:434] relu5 <- conv5
I0116 12:33:24.958305 40338 net.cpp:395] relu5 -> conv5 (in-place)
I0116 12:33:24.958355 40338 net.cpp:150] Setting up relu5
I0116 12:33:24.958395 40338 net.cpp:157] Top shape: 256 256 13 13 (11075584)
I0116 12:33:24.958425 40338 net.cpp:165] Memory required for data: 2094100480
I0116 12:33:24.958456 40338 layer_factory.hpp:77] Creating layer pool5
I0116 12:33:24.958497 40338 net.cpp:100] Creating Layer pool5
I0116 12:33:24.958529 40338 net.cpp:434] pool5 <- conv5
I0116 12:33:24.958571 40338 net.cpp:408] pool5 -> pool5
I0116 12:33:24.958640 40338 net.cpp:150] Setting up pool5
I0116 12:33:24.958681 40338 net.cpp:157] Top shape: 256 256 6 6 (2359296)
I0116 12:33:24.958711 40338 net.cpp:165] Memory required for data: 2103537664
I0116 12:33:24.958745 40338 layer_factory.hpp:77] Creating layer fc6
I0116 12:33:24.958853 40338 net.cpp:100] Creating Layer fc6
I0116 12:33:24.958887 40338 net.cpp:434] fc6 <- pool5
I0116 12:33:24.958930 40338 net.cpp:408] fc6 -> fc6
I0116 12:33:26.718333 40338 net.cpp:150] Setting up fc6
I0116 12:33:26.718458 40338 net.cpp:157] Top shape: 256 4096 (1048576)
I0116 12:33:26.718492 40338 net.cpp:165] Memory required for data: 2107731968
I0116 12:33:26.718549 40338 layer_factory.hpp:77] Creating layer relu6
I0116 12:33:26.718602 40338 net.cpp:100] Creating Layer relu6
I0116 12:33:26.718637 40338 net.cpp:434] relu6 <- fc6
I0116 12:33:26.718683 40338 net.cpp:395] relu6 -> fc6 (in-place)
I0116 12:33:26.718735 40338 net.cpp:150] Setting up relu6
I0116 12:33:26.718811 40338 net.cpp:157] Top shape: 256 4096 (1048576)
I0116 12:33:26.718842 40338 net.cpp:165] Memory required for data: 2111926272
I0116 12:33:26.718874 40338 layer_factory.hpp:77] Creating layer drop6
I0116 12:33:26.718937 40338 net.cpp:100] Creating Layer drop6
I0116 12:33:26.718971 40338 net.cpp:434] drop6 <- fc6
I0116 12:33:26.719010 40338 net.cpp:395] drop6 -> fc6 (in-place)
I0116 12:33:26.719095 40338 net.cpp:150] Setting up drop6
I0116 12:33:26.719136 40338 net.cpp:157] Top shape: 256 4096 (1048576)
I0116 12:33:26.719167 40338 net.cpp:165] Memory required for data: 2116120576
I0116 12:33:26.719200 40338 layer_factory.hpp:77] Creating layer fc7
I0116 12:33:26.719246 40338 net.cpp:100] Creating Layer fc7
I0116 12:33:26.719279 40338 net.cpp:434] fc7 <- fc6
I0116 12:33:26.719322 40338 net.cpp:408] fc7 -> fc7
I0116 12:33:27.500712 40338 net.cpp:150] Setting up fc7
I0116 12:33:27.500859 40338 net.cpp:157] Top shape: 256 4096 (1048576)
I0116 12:33:27.500892 40338 net.cpp:165] Memory required for data: 2120314880
I0116 12:33:27.500949 40338 layer_factory.hpp:77] Creating layer relu7
I0116 12:33:27.501000 40338 net.cpp:100] Creating Layer relu7
I0116 12:33:27.501035 40338 net.cpp:434] relu7 <- fc7
I0116 12:33:27.501080 40338 net.cpp:395] relu7 -> fc7 (in-place)
I0116 12:33:27.501130 40338 net.cpp:150] Setting up relu7
I0116 12:33:27.501169 40338 net.cpp:157] Top shape: 256 4096 (1048576)
I0116 12:33:27.501199 40338 net.cpp:165] Memory required for data: 2124509184
I0116 12:33:27.501231 40338 layer_factory.hpp:77] Creating layer drop7
I0116 12:33:27.501274 40338 net.cpp:100] Creating Layer drop7
I0116 12:33:27.501307 40338 net.cpp:434] drop7 <- fc7
I0116 12:33:27.501346 40338 net.cpp:395] drop7 -> fc7 (in-place)
I0116 12:33:27.501402 40338 net.cpp:150] Setting up drop7
I0116 12:33:27.501442 40338 net.cpp:157] Top shape: 256 4096 (1048576)
I0116 12:33:27.501472 40338 net.cpp:165] Memory required for data: 2128703488
I0116 12:33:27.501621 40338 layer_factory.hpp:77] Creating layer fc8
I0116 12:33:27.501667 40338 net.cpp:100] Creating Layer fc8
I0116 12:33:27.501705 40338 net.cpp:434] fc8 <- fc7
I0116 12:33:27.501751 40338 net.cpp:408] fc8 -> fc8
I0116 12:33:27.693397 40338 net.cpp:150] Setting up fc8
I0116 12:33:27.693507 40338 net.cpp:157] Top shape: 256 1000 (256000)
I0116 12:33:27.693539 40338 net.cpp:165] Memory required for data: 2129727488
I0116 12:33:27.693595 40338 layer_factory.hpp:77] Creating layer loss
I0116 12:33:27.693665 40338 net.cpp:100] Creating Layer loss
I0116 12:33:27.693701 40338 net.cpp:434] loss <- fc8
I0116 12:33:27.693742 40338 net.cpp:434] loss <- label
I0116 12:33:27.693828 40338 net.cpp:408] loss -> loss
I0116 12:33:27.693922 40338 layer_factory.hpp:77] Creating layer loss
…
I0116 12:33:27.703220 40338 net.cpp:322] The NetState phase (1) differed from the phase (0) specified by a rule in layer data
I0116 12:33:27.706341 40338 net.cpp:58] Initializing net from parameters: 
name: "AlexNet"
state {
  phase: TEST
}
layer {
  name: "data"
  type: "Data"
  top: "data"
  top: "label"
  include {
    phase: TEST
  }
  transform_param {
    mirror: false
    crop_size: 227
    mean_file: "/user/user/CN/caffe/caffe/data/ilsvrc12/imagenet_mean.binaryproto"
  }
  data_param {
    source: "/user/user/CN/caffe/caffe/examples/imagenet/ilsvrc12_val_lmdb"
    batch_size: 50
    backend: LMDB
  }
}
layer {
  name: "conv1"
  type: "Convolution"
  bottom: "data"
  top: "conv1"
  param {
    lr_mult: 1
    decay_mult: 1
  }
  param {
    lr_mult: 2
    decay_mult: 0
  }
  convolution_param {
    num_output: 96
    kernel_size: 11
    stride: 4
    weight_filler {
      type: "gaussian"
      std: 0.01
    }
    bias_filler {
      type: "constant"
      value: 0
    }
  }
}
layer {
  name: "relu1"
  type: "ReLU"
  bottom: "conv1"
  top: "conv1"
}
layer {
  name: "norm1"
  type: "LRN"
  bottom: "conv1"
  top: "norm1"
  lrn_param {
    local_size: 5
    alpha: 0.0001
    beta: 0.75
  }
}
layer {
  name: "pool1"
  type: "Pooling"
  bottom: "norm1"
  top: "pool1"
  pooling_param {
    pool: MAX
    kernel_size: 3
    stride: 2
  }
}
layer {
  name: "conv2"
  type: "Convolution"
  bottom: "pool1"
  top: "conv2"
  param {
    lr_mult: 1
    decay_mult: 1
  }
  param {
    lr_mult: 2
    decay_mult: 0
  }
  convolution_param {
    num_output: 256
    pad: 2
    kernel_size: 5
    group: 2
    weight_filler {
      type: "gaussian"
      std: 0.01
    }
    bias_filler {
      type: "constant"
      value: 0.1
    }
  }
}
layer {
  name: "relu2"
  type: "ReLU"
  bottom: "conv2"
  top: "conv2"
}
layer {
  name: "norm2"
  type: "LRN"
  bottom: "conv2"
  top: "norm2"
  lrn_param {
    local_size: 5
    alpha: 0.0001
    beta: 0.75
  }
}
layer {
  name: "pool2"
  type: "Pooling"
  bottom: "norm2"
  top: "pool2"
  pooling_param {
    pool: MAX
    kernel_size: 3
    stride: 2
  }
}
layer {
  name: "conv3"
  type: "Convolution"
  bottom: "pool2"
  top: "conv3"
  param {
    lr_mult: 1
    decay_mult: 1
  }
  param {
    lr_mult: 2
    decay_mult: 0
  }
  convolution_param {
    num_output: 384
    pad: 1
    kernel_size: 3
    weight_filler {
      type: "gaussian"
      std: 0.01
    }
    bias_filler {
      type: "constant"
      value: 0
    }
  }
}
layer {
  name: "relu3"
  type: "ReLU"
  bottom: "conv3"
  top: "conv3"
}
layer {
  name: "conv4"
  type: "Convolution"
  bottom: "conv3"
  top: "conv4"
  param {
    lr_mult: 1
    decay_mult: 1
  }
  param {
    lr_mult: 2
    decay_mult: 0
  }
  convolution_param {
    num_output: 384
    pad: 1
    kernel_size: 3
    group: 2
    weight_filler {
      type: "gaussian"
      std: 0.01
    }
    bias_filler {
      type: "constant"
      value: 0.1
    }
  }
}
layer {
  name: "relu4"
  type: "ReLU"
  bottom: "conv4"
  top: "conv4"
}
layer {
  name: "conv5"
  type: "Convolution"
  bottom: "conv4"
  top: "conv5"
  param {
    lr_mult: 1
    decay_mult: 1
  }
  param {
    lr_mult: 2
    decay_mult: 0
  }
  convolution_param {
    num_output: 256
    pad: 1
    kernel_size: 3
    group: 2
    weight_filler {
      type: "gaussian"
      std: 0.01
    }
    bias_filler {
      type: "constant"
      value: 0.1
    }
  }
}
layer {
  name: "relu5"
  type: "ReLU"
  bottom: "conv5"
  top: "conv5"
}
layer {
  name: "pool5"
  type: "Pooling"
  bottom: "conv5"
  top: "pool5"
  pooling_param {
    pool: MAX
    kernel_size: 3
    stride: 2
  }
}
layer {
  name: "fc6"
  type: "InnerProduct"
  bottom: "pool5"
  top: "fc6"
  param {
    lr_mult: 1
    decay_mult: 1
  }
  param {
    lr_mult: 2
    decay_mult: 0
  }
  inner_product_param {
    num_output: 4096
    weight_filler {
      type: "gaussian"
      std: 0.005
    }
    bias_filler {
      type: "constant"
      value: 0.1
    }
  }
}
layer {
  name: "relu6"
  type: "ReLU"
  bottom: "fc6"
  top: "fc6"
}
layer {
  name: "drop6"
  type: "Dropout"
  bottom: "fc6"
  top: "fc6"
  dropout_param {
    dropout_ratio: 0.5
  }
}
layer {
  name: "fc7"
  type: "InnerProduct"
  bottom: "fc6"
  top: "fc7"
  param {
    lr_mult: 1
    decay_mult: 1
  }
  param {
    lr_mult: 2
    decay_mult: 0
  }
  inner_product_param {
    num_output: 4096
    weight_filler {
      type: "gaussian"
      std: 0.005
    }
    bias_filler {
      type: "constant"
      value: 0.1
    }
  }
}
layer {
  name: "relu7"
  type: "ReLU"
  bottom: "fc7"
  top: "fc7"
}
layer {
  name: "drop7"
  type: "Dropout"
  bottom: "fc7"
  top: "fc7"
  dropout_param {
    dropout_ratio: 0.5
  }
}
layer {
  name: "fc8"
  type: "InnerProduct"
  bottom: "fc7"
  top: "fc8"
  param {
    lr_mult: 1
    decay_mult: 1
  }
  param {
    lr_mult: 2
    decay_mult: 0
  }
  inner_product_param {
    num_output: 1000
    weight_filler {
      type: "gaussian"
      std: 0.01
    }
    bias_filler {
      type: "constant"
      value: 0
    }
  }
}
layer {
  name: "accuracy"
  type: "Accuracy"
  bottom: "fc8"
  bottom: "label"
  top: "accuracy"
  include {
    phase: TEST
  }
}
layer {
  name: "loss"
  type: "SoftmaxWithLoss"
  bottom: "fc8"
  bottom: "label"
  top: "loss"
}
I0116 12:33:27.707041 40338 layer_factory.hpp:77] Creating layer data
I0116 12:33:27.707854 40338 net.cpp:100] Creating Layer data
I0116 12:33:27.707978 40338 net.cpp:408] data -> data
I0116 12:33:27.708068 40338 net.cpp:408] data -> label
I0116 12:33:27.708127 40338 data_transformer.cpp:25] Loading mean file from: /user/user/CN/caffe/caffe/data/ilsvrc12/imagenet_mean.binaryproto
I0116 12:33:27.715435 40341 db_lmdb.cpp:35] Opened lmdb /user/user/CN/caffe/caffe/examples/imagenet/ilsvrc12_val_lmdb
I0116 12:33:27.725718 40338 data_layer.cpp:41] output data size: 50,3,227,227
I0116 12:33:27.755542 40338 net.cpp:150] Setting up data
I0116 12:33:27.755655 40338 net.cpp:157] Top shape: 50 3 227 227 (7729350)
I0116 12:33:27.755699 40338 net.cpp:157] Top shape: 50 (50)
I0116 12:33:27.755731 40338 net.cpp:165] Memory required for data: 30917600
I0116 12:33:27.755909 40338 layer_factory.hpp:77] Creating layer label_data_1_split
I0116 12:33:27.756177 40338 net.cpp:100] Creating Layer label_data_1_split
I0116 12:33:27.756279 40338 net.cpp:434] label_data_1_split <- label
I0116 12:33:27.756340 40338 net.cpp:408] label_data_1_split -> label_data_1_split_0
I0116 12:33:27.756407 40338 net.cpp:408] label_data_1_split -> label_data_1_split_1
I0116 12:33:27.756505 40338 net.cpp:150] Setting up label_data_1_split
I0116 12:33:27.756556 40338 net.cpp:157] Top shape: 50 (50)
I0116 12:33:27.756595 40338 net.cpp:157] Top shape: 50 (50)
I0116 12:33:27.756625 40338 net.cpp:165] Memory required for data: 30918000
I0116 12:33:27.756662 40338 layer_factory.hpp:77] Creating layer conv1
I0116 12:33:27.756722 40338 net.cpp:100] Creating Layer conv1
I0116 12:33:27.756793 40338 net.cpp:434] conv1 <- data
I0116 12:33:27.756839 40338 net.cpp:408] conv1 -> conv1
I0116 12:33:27.758646 40338 net.cpp:150] Setting up conv1
I0116 12:33:27.758702 40338 net.cpp:157] Top shape: 50 96 55 55 (14520000)
I0116 12:33:27.758733 40338 net.cpp:165] Memory required for data: 88998000
I0116 12:33:27.758819 40338 layer_factory.hpp:77] Creating layer relu1
I0116 12:33:27.758862 40338 net.cpp:100] Creating Layer relu1
I0116 12:33:27.758895 40338 net.cpp:434] relu1 <- conv1
I0116 12:33:27.758936 40338 net.cpp:395] relu1 -> conv1 (in-place)
I0116 12:33:27.758980 40338 net.cpp:150] Setting up relu1
I0116 12:33:27.759018 40338 net.cpp:157] Top shape: 50 96 55 55 (14520000)
I0116 12:33:27.759049 40338 net.cpp:165] Memory required for data: 147078000
I0116 12:33:27.759081 40338 layer_factory.hpp:77] Creating layer norm1
I0116 12:33:27.759126 40338 net.cpp:100] Creating Layer norm1
I0116 12:33:27.759158 40338 net.cpp:434] norm1 <- conv1
I0116 12:33:27.759201 40338 net.cpp:408] norm1 -> norm1
I0116 12:33:27.759263 40338 net.cpp:150] Setting up norm1
I0116 12:33:27.759305 40338 net.cpp:157] Top shape: 50 96 55 55 (14520000)
I0116 12:33:27.759335 40338 net.cpp:165] Memory required for data: 205158000
I0116 12:33:27.759366 40338 layer_factory.hpp:77] Creating layer pool1
I0116 12:33:27.759407 40338 net.cpp:100] Creating Layer pool1
I0116 12:33:27.759438 40338 net.cpp:434] pool1 <- norm1
I0116 12:33:27.759477 40338 net.cpp:408] pool1 -> pool1
I0116 12:33:27.759539 40338 net.cpp:150] Setting up pool1
I0116 12:33:27.759580 40338 net.cpp:157] Top shape: 50 96 27 27 (3499200)
I0116 12:33:27.759610 40338 net.cpp:165] Memory required for data: 219154800
I0116 12:33:27.759644 40338 layer_factory.hpp:77] Creating layer conv2
I0116 12:33:27.759690 40338 net.cpp:100] Creating Layer conv2
I0116 12:33:27.759722 40338 net.cpp:434] conv2 <- pool1
I0116 12:33:27.759788 40338 net.cpp:408] conv2 -> conv2
I0116 12:33:27.774600 40338 net.cpp:150] Setting up conv2
I0116 12:33:27.774710 40338 net.cpp:157] Top shape: 50 256 27 27 (9331200)
I0116 12:33:27.774742 40338 net.cpp:165] Memory required for data: 256479600
I0116 12:33:27.774870 40338 layer_factory.hpp:77] Creating layer relu2
I0116 12:33:27.775017 40338 net.cpp:100] Creating Layer relu2
I0116 12:33:27.775053 40338 net.cpp:434] relu2 <- conv2
I0116 12:33:27.775104 40338 net.cpp:395] relu2 -> conv2 (in-place)
I0116 12:33:27.775156 40338 net.cpp:150] Setting up relu2
I0116 12:33:27.775198 40338 net.cpp:157] Top shape: 50 256 27 27 (9331200)
I0116 12:33:27.775230 40338 net.cpp:165] Memory required for data: 293804400
I0116 12:33:27.775264 40338 layer_factory.hpp:77] Creating layer norm2
I0116 12:33:27.775313 40338 net.cpp:100] Creating Layer norm2
I0116 12:33:27.775346 40338 net.cpp:434] norm2 <- conv2
I0116 12:33:27.775388 40338 net.cpp:408] norm2 -> norm2
I0116 12:33:27.775461 40338 net.cpp:150] Setting up norm2
I0116 12:33:27.775506 40338 net.cpp:157] Top shape: 50 256 27 27 (9331200)
I0116 12:33:27.775537 40338 net.cpp:165] Memory required for data: 331129200
I0116 12:33:27.775569 40338 layer_factory.hpp:77] Creating layer pool2
I0116 12:33:27.775609 40338 net.cpp:100] Creating Layer pool2
I0116 12:33:27.775652 40338 net.cpp:434] pool2 <- norm2
I0116 12:33:27.775694 40338 net.cpp:408] pool2 -> pool2
I0116 12:33:27.775785 40338 net.cpp:150] Setting up pool2
I0116 12:33:27.775826 40338 net.cpp:157] Top shape: 50 256 13 13 (2163200)
I0116 12:33:27.775857 40338 net.cpp:165] Memory required for data: 339782000
I0116 12:33:27.775890 40338 layer_factory.hpp:77] Creating layer conv3
I0116 12:33:27.775943 40338 net.cpp:100] Creating Layer conv3
I0116 12:33:27.775974 40338 net.cpp:434] conv3 <- pool2
I0116 12:33:27.776018 40338 net.cpp:408] conv3 -> conv3
I0116 12:33:27.818117 40338 net.cpp:150] Setting up conv3
I0116 12:33:27.818229 40338 net.cpp:157] Top shape: 50 384 13 13 (3244800)
I0116 12:33:27.818260 40338 net.cpp:165] Memory required for data: 352761200
I0116 12:33:27.818333 40338 layer_factory.hpp:77] Creating layer relu3
I0116 12:33:27.818384 40338 net.cpp:100] Creating Layer relu3
I0116 12:33:27.818419 40338 net.cpp:434] relu3 <- conv3
I0116 12:33:27.818464 40338 net.cpp:395] relu3 -> conv3 (in-place)
I0116 12:33:27.818513 40338 net.cpp:150] Setting up relu3
I0116 12:33:27.818553 40338 net.cpp:157] Top shape: 50 384 13 13 (3244800)
I0116 12:33:27.818585 40338 net.cpp:165] Memory required for data: 365740400
I0116 12:33:27.818619 40338 layer_factory.hpp:77] Creating layer conv4
I0116 12:33:27.818670 40338 net.cpp:100] Creating Layer conv4
I0116 12:33:27.818702 40338 net.cpp:434] conv4 <- conv3
I0116 12:33:27.818747 40338 net.cpp:408] conv4 -> conv4
I0116 12:33:27.850252 40338 net.cpp:150] Setting up conv4
I0116 12:33:27.850364 40338 net.cpp:157] Top shape: 50 384 13 13 (3244800)
I0116 12:33:27.850396 40338 net.cpp:165] Memory required for data: 378719600
I0116 12:33:27.850450 40338 layer_factory.hpp:77] Creating layer relu4
I0116 12:33:27.850503 40338 net.cpp:100] Creating Layer relu4
I0116 12:33:27.850538 40338 net.cpp:434] relu4 <- conv4
I0116 12:33:27.850584 40338 net.cpp:395] relu4 -> conv4 (in-place)
I0116 12:33:27.850633 40338 net.cpp:150] Setting up relu4
I0116 12:33:27.850673 40338 net.cpp:157] Top shape: 50 384 13 13 (3244800)
I0116 12:33:27.850703 40338 net.cpp:165] Memory required for data: 391698800
I0116 12:33:27.850738 40338 layer_factory.hpp:77] Creating layer conv5
I0116 12:33:27.850831 40338 net.cpp:100] Creating Layer conv5
I0116 12:33:27.850864 40338 net.cpp:434] conv5 <- conv4
I0116 12:33:27.850909 40338 net.cpp:408] conv5 -> conv5
I0116 12:33:27.872143 40338 net.cpp:150] Setting up conv5
I0116 12:33:27.872262 40338 net.cpp:157] Top shape: 50 256 13 13 (2163200)
I0116 12:33:27.872301 40338 net.cpp:165] Memory required for data: 400351600
I0116 12:33:27.872376 40338 layer_factory.hpp:77] Creating layer relu5
I0116 12:33:27.872427 40338 net.cpp:100] Creating Layer relu5
I0116 12:33:27.872462 40338 net.cpp:434] relu5 <- conv5
I0116 12:33:27.872508 40338 net.cpp:395] relu5 -> conv5 (in-place)
I0116 12:33:27.872558 40338 net.cpp:150] Setting up relu5
I0116 12:33:27.872599 40338 net.cpp:157] Top shape: 50 256 13 13 (2163200)
I0116 12:33:27.872629 40338 net.cpp:165] Memory required for data: 409004400
I0116 12:33:27.872689 40338 layer_factory.hpp:77] Creating layer pool5
I0116 12:33:27.872861 40338 net.cpp:100] Creating Layer pool5
I0116 12:33:27.872895 40338 net.cpp:434] pool5 <- conv5
I0116 12:33:27.872941 40338 net.cpp:408] pool5 -> pool5
I0116 12:33:27.873016 40338 net.cpp:150] Setting up pool5
I0116 12:33:27.873057 40338 net.cpp:157] Top shape: 50 256 6 6 (460800)
I0116 12:33:27.873087 40338 net.cpp:165] Memory required for data: 410847600
I0116 12:33:27.873119 40338 layer_factory.hpp:77] Creating layer fc6
I0116 12:33:27.873165 40338 net.cpp:100] Creating Layer fc6
I0116 12:33:27.873198 40338 net.cpp:434] fc6 <- pool5
I0116 12:33:27.873239 40338 net.cpp:408] fc6 -> fc6
I0116 12:33:29.630548 40338 net.cpp:150] Setting up fc6
I0116 12:33:29.630671 40338 net.cpp:157] Top shape: 50 4096 (204800)
I0116 12:33:29.630703 40338 net.cpp:165] Memory required for data: 411666800
I0116 12:33:29.630796 40338 layer_factory.hpp:77] Creating layer relu6
I0116 12:33:29.630849 40338 net.cpp:100] Creating Layer relu6
I0116 12:33:29.630885 40338 net.cpp:434] relu6 <- fc6
I0116 12:33:29.630930 40338 net.cpp:395] relu6 -> fc6 (in-place)
I0116 12:33:29.630981 40338 net.cpp:150] Setting up relu6
I0116 12:33:29.631019 40338 net.cpp:157] Top shape: 50 4096 (204800)
I0116 12:33:29.631049 40338 net.cpp:165] Memory required for data: 412486000
I0116 12:33:29.631081 40338 layer_factory.hpp:77] Creating layer drop6
I0116 12:33:29.631124 40338 net.cpp:100] Creating Layer drop6
I0116 12:33:29.631155 40338 net.cpp:434] drop6 <- fc6
I0116 12:33:29.631194 40338 net.cpp:395] drop6 -> fc6 (in-place)
I0116 12:33:29.631250 40338 net.cpp:150] Setting up drop6
I0116 12:33:29.631290 40338 net.cpp:157] Top shape: 50 4096 (204800)
I0116 12:33:29.631321 40338 net.cpp:165] Memory required for data: 413305200
I0116 12:33:29.631355 40338 layer_factory.hpp:77] Creating layer fc7
I0116 12:33:29.631400 40338 net.cpp:100] Creating Layer fc7
I0116 12:33:29.631433 40338 net.cpp:434] fc7 <- fc6
I0116 12:33:29.631475 40338 net.cpp:408] fc7 -> fc7
I0116 12:33:30.412138 40338 net.cpp:150] Setting up fc7
I0116 12:33:30.412258 40338 net.cpp:157] Top shape: 50 4096 (204800)
I0116 12:33:30.412293 40338 net.cpp:165] Memory required for data: 414124400
I0116 12:33:30.412351 40338 layer_factory.hpp:77] Creating layer relu7
I0116 12:33:30.412405 40338 net.cpp:100] Creating Layer relu7
I0116 12:33:30.412441 40338 net.cpp:434] relu7 <- fc7
I0116 12:33:30.412487 40338 net.cpp:395] relu7 -> fc7 (in-place)
I0116 12:33:30.412538 40338 net.cpp:150] Setting up relu7
I0116 12:33:30.412576 40338 net.cpp:157] Top shape: 50 4096 (204800)
I0116 12:33:30.412607 40338 net.cpp:165] Memory required for data: 414943600
I0116 12:33:30.412641 40338 layer_factory.hpp:77] Creating layer drop7
I0116 12:33:30.412683 40338 net.cpp:100] Creating Layer drop7
I0116 12:33:30.412715 40338 net.cpp:434] drop7 <- fc7
I0116 12:33:30.412798 40338 net.cpp:395] drop7 -> fc7 (in-place)
I0116 12:33:30.412859 40338 net.cpp:150] Setting up drop7
I0116 12:33:30.412901 40338 net.cpp:157] Top shape: 50 4096 (204800)
I0116 12:33:30.412931 40338 net.cpp:165] Memory required for data: 415762800
I0116 12:33:30.412964 40338 layer_factory.hpp:77] Creating layer fc8
I0116 12:33:30.413009 40338 net.cpp:100] Creating Layer fc8
I0116 12:33:30.413041 40338 net.cpp:434] fc8 <- fc7
I0116 12:33:30.413084 40338 net.cpp:408] fc8 -> fc8
I0116 12:33:30.604960 40338 net.cpp:150] Setting up fc8
I0116 12:33:30.605077 40338 net.cpp:157] Top shape: 50 1000 (50000)
I0116 12:33:30.605109 40338 net.cpp:165] Memory required for data: 415962800
I0116 12:33:30.605166 40338 layer_factory.hpp:77] Creating layer fc8_fc8_0_split
I0116 12:33:30.605216 40338 net.cpp:100] Creating Layer fc8_fc8_0_split
I0116 12:33:30.605252 40338 net.cpp:434] fc8_fc8_0_split <- fc8
I0116 12:33:30.605298 40338 net.cpp:408] fc8_fc8_0_split -> fc8_fc8_0_split_0
I0116 12:33:30.605350 40338 net.cpp:408] fc8_fc8_0_split -> fc8_fc8_0_split_1
I0116 12:33:30.605413 40338 net.cpp:150] Setting up fc8_fc8_0_split
I0116 12:33:30.605454 40338 net.cpp:157] Top shape: 50 1000 (50000)
I0116 12:33:30.605521 40338 net.cpp:157] Top shape: 50 1000 (50000)
I0116 12:33:30.605649 40338 net.cpp:165] Memory required for data: 416362800
I0116 12:33:30.605686 40338 layer_factory.hpp:77] Creating layer accuracy
I0116 12:33:30.605753 40338 net.cpp:100] Creating Layer accuracy
I0116 12:33:30.605825 40338 net.cpp:434] accuracy <- fc8_fc8_0_split_0
I0116 12:33:30.605864 40338 net.cpp:434] accuracy <- label_data_1_split_0
I0116 12:33:30.605907 40338 net.cpp:408] accuracy -> accuracy
…
