…
I0116 13:59:29.669046 22620 net.cpp:484] The NetState phase (0) differed from the phase (1) specified by a rule in layer accuracy
I0116 13:59:29.669829 22620 net.cpp:120] Initializing net from parameters: 
name: "CIFAR10_full"
state {
  phase: TRAIN
  level: 0
  stage: ""
}
layer {
  name: "cifar"
  type: "Data"
  top: "data"
  top: "label"
  include {
    phase: TRAIN
  }
  transform_param {
    mean_file: "/home/user/caffeOMP/caffe_intel/caffe/examples/cifar10/mean.binaryproto"
  }
  data_param {
    source: "/home/user/caffeOMP/caffe_intel/caffe/examples/cifar10/cifar10_train_lmdb"
    batch_size: 128
    backend: LMDB
  }
}
layer {
  name: "conv1"
  type: "Convolution"
  bottom: "data"
  top: "conv1"
  param {
    lr_mult: 1
  }
  param {
    lr_mult: 2
  }
  convolution_param {
    num_output: 32
    pad: 2
    kernel_size: 5
    stride: 1
    weight_filler {
      type: "gaussian"
      std: 0.0001
    }
    bias_filler {
      type: "constant"
    }
  }
}
layer {
  name: "pool1"
  type: "Pooling"
  bottom: "conv1"
  top: "pool1"
  pooling_param {
    pool: MAX
    kernel_size: 3
    stride: 2
  }
}
layer {
  name: "relu1"
  type: "ReLU"
  bottom: "pool1"
  top: "pool1"
}
layer {
  name: "norm1"
  type: "LRN"
  bottom: "pool1"
  top: "norm1"
  lrn_param {
    local_size: 3
    alpha: 5e-05
    beta: 0.75
    norm_region: WITHIN_CHANNEL
  }
}
layer {
  name: "conv2"
  type: "Convolution"
  bottom: "norm1"
  top: "conv2"
  param {
    lr_mult: 1
  }
  param {
    lr_mult: 2
  }
  convolution_param {
    num_output: 32
    pad: 2
    kernel_size: 5
    stride: 1
    weight_filler {
      type: "gaussian"
      std: 0.01
    }
    bias_filler {
      type: "constant"
    }
  }
}
layer {
  name: "relu2"
  type: "ReLU"
  bottom: "conv2"
  top: "conv2"
}
layer {
  name: "pool2"
  type: "Pooling"
  bottom: "conv2"
  top: "pool2"
  pooling_param {
    pool: AVE
    kernel_size: 3
    stride: 2
  }
}
layer {
  name: "norm2"
  type: "LRN"
  bottom: "pool2"
  top: "norm2"
  lrn_param {
    local_size: 3
    alpha: 5e-05
    beta: 0.75
    norm_region: WITHIN_CHANNEL
  }
}
layer {
  name: "conv3"
  type: "Convolution"
  bottom: "norm2"
  top: "conv3"
  convolution_param {
    num_output: 64
    pad: 2
    kernel_size: 5
    stride: 1
    weight_filler {
      type: "gaussian"
      std: 0.01
    }
    bias_filler {
      type: "constant"
    }
  }
}
layer {
  name: "relu3"
  type: "ReLU"
  bottom: "conv3"
  top: "conv3"
}
layer {
  name: "pool3"
  type: "Pooling"
  bottom: "conv3"
  top: "pool3"
  pooling_param {
    pool: AVE
    kernel_size: 3
    stride: 2
  }
}
layer {
  name: "ip1"
  type: "InnerProduct"
  bottom: "pool3"
  top: "ip1"
  param {
    lr_mult: 1
    decay_mult: 250
  }
  param {
    lr_mult: 2
    decay_mult: 0
  }
  inner_product_param {
    num_output: 10
    weight_filler {
      type: "gaussian"
      std: 0.01
    }
    bias_filler {
      type: "constant"
    }
  }
}
layer {
  name: "loss"
  type: "SoftmaxWithLoss"
  bottom: "ip1"
  bottom: "label"
  top: "loss"
}
I0116 13:59:29.669924 22620 layer_factory.hpp:114] Creating layer cifar
I0116 13:59:29.671113 22620 net.cpp:160] Creating Layer cifar
I0116 13:59:29.671196 22620 net.cpp:570] cifar -> data
I0116 13:59:29.671274 22620 net.cpp:570] cifar -> label
I0116 13:59:29.671332 22620 data_transformer.cpp:62] Loading mean file from: /home/user/caffeOMP/caffe_intel/caffe/examples/cifar10/mean.binaryproto
I0116 13:59:29.671440 22621 db_lmdb.cpp:72] Opened lmdb /home/user/caffeOMP/caffe_intel/caffe/examples/cifar10/cifar10_train_lmdb
I0116 13:59:29.671716 22620 data_layer.cpp:80] output data size: 128,3,32,32
I0116 13:59:29.684993 22620 net.cpp:210] Setting up cifar
I0116 13:59:29.685067 22620 net.cpp:217] Top shape: 128 3 32 32 (393216)
I0116 13:59:29.685084 22620 net.cpp:217] Top shape: 128 (128)
I0116 13:59:29.685096 22620 net.cpp:225] Memory required for data: 1573376
I0116 13:59:29.685111 22620 layer_factory.hpp:114] Creating layer conv1
I0116 13:59:29.685144 22620 net.cpp:160] Creating Layer conv1
I0116 13:59:29.685161 22620 net.cpp:596] conv1 <- data
I0116 13:59:29.685180 22620 net.cpp:570] conv1 -> conv1
I0116 13:59:29.687764 22620 net.cpp:210] Setting up conv1
I0116 13:59:29.687793 22620 net.cpp:217] Top shape: 128 32 32 32 (4194304)
I0116 13:59:29.687804 22620 net.cpp:225] Memory required for data: 18350592
I0116 13:59:29.687844 22620 layer_factory.hpp:114] Creating layer pool1
I0116 13:59:29.687922 22620 net.cpp:160] Creating Layer pool1
I0116 13:59:29.687939 22620 net.cpp:596] pool1 <- conv1
I0116 13:59:29.687957 22620 net.cpp:570] pool1 -> pool1
I0116 13:59:29.688002 22620 net.cpp:210] Setting up pool1
I0116 13:59:29.688024 22620 net.cpp:217] Top shape: 128 32 16 16 (1048576)
I0116 13:59:29.688035 22620 net.cpp:225] Memory required for data: 22544896
I0116 13:59:29.688058 22620 layer_factory.hpp:114] Creating layer relu1
I0116 13:59:29.688079 22620 net.cpp:160] Creating Layer relu1
I0116 13:59:29.688091 22620 net.cpp:596] relu1 <- pool1
I0116 13:59:29.688107 22620 net.cpp:557] relu1 -> pool1 (in-place)
I0116 13:59:29.688127 22620 net.cpp:210] Setting up relu1
I0116 13:59:29.688143 22620 net.cpp:217] Top shape: 128 32 16 16 (1048576)
I0116 13:59:29.688153 22620 net.cpp:225] Memory required for data: 26739200
I0116 13:59:29.688165 22620 layer_factory.hpp:114] Creating layer norm1
I0116 13:59:29.688186 22620 net.cpp:160] Creating Layer norm1
I0116 13:59:29.688199 22620 net.cpp:596] norm1 <- pool1
I0116 13:59:29.688213 22620 net.cpp:570] norm1 -> norm1
I0116 13:59:29.688308 22620 net.cpp:210] Setting up norm1
I0116 13:59:29.688329 22620 net.cpp:217] Top shape: 128 32 16 16 (1048576)
I0116 13:59:29.688341 22620 net.cpp:225] Memory required for data: 30933504
I0116 13:59:29.688354 22620 layer_factory.hpp:114] Creating layer conv2
I0116 13:59:29.688377 22620 net.cpp:160] Creating Layer conv2
I0116 13:59:29.688391 22620 net.cpp:596] conv2 <- norm1
I0116 13:59:29.688411 22620 net.cpp:570] conv2 -> conv2
I0116 13:59:29.693872 22620 net.cpp:210] Setting up conv2
I0116 13:59:29.693908 22620 net.cpp:217] Top shape: 128 32 16 16 (1048576)
I0116 13:59:29.693922 22620 net.cpp:225] Memory required for data: 35127808
I0116 13:59:29.693943 22620 layer_factory.hpp:114] Creating layer relu2
I0116 13:59:29.693958 22620 net.cpp:160] Creating Layer relu2
I0116 13:59:29.693970 22620 net.cpp:596] relu2 <- conv2
I0116 13:59:29.693996 22620 net.cpp:557] relu2 -> conv2 (in-place)
I0116 13:59:29.694016 22620 net.cpp:210] Setting up relu2
I0116 13:59:29.694037 22620 net.cpp:217] Top shape: 128 32 16 16 (1048576)
I0116 13:59:29.694043 22620 net.cpp:225] Memory required for data: 39322112
I0116 13:59:29.694059 22620 layer_factory.hpp:114] Creating layer pool2
I0116 13:59:29.694095 22620 net.cpp:160] Creating Layer pool2
I0116 13:59:29.694104 22620 net.cpp:596] pool2 <- conv2
I0116 13:59:29.694115 22620 net.cpp:570] pool2 -> pool2
I0116 13:59:29.694128 22620 net.cpp:210] Setting up pool2
I0116 13:59:29.694138 22620 net.cpp:217] Top shape: 128 32 8 8 (262144)
I0116 13:59:29.694159 22620 net.cpp:225] Memory required for data: 40370688
I0116 13:59:29.694170 22620 layer_factory.hpp:114] Creating layer norm2
I0116 13:59:29.694190 22620 net.cpp:160] Creating Layer norm2
I0116 13:59:29.694202 22620 net.cpp:596] norm2 <- pool2
I0116 13:59:29.694217 22620 net.cpp:570] norm2 -> norm2
I0116 13:59:29.694278 22620 net.cpp:210] Setting up norm2
I0116 13:59:29.694296 22620 net.cpp:217] Top shape: 128 32 8 8 (262144)
I0116 13:59:29.694308 22620 net.cpp:225] Memory required for data: 41419264
I0116 13:59:29.694319 22620 layer_factory.hpp:114] Creating layer conv3
I0116 13:59:29.694340 22620 net.cpp:160] Creating Layer conv3
I0116 13:59:29.694352 22620 net.cpp:596] conv3 <- norm2
I0116 13:59:29.694368 22620 net.cpp:570] conv3 -> conv3
I0116 13:59:29.700296 22620 net.cpp:210] Setting up conv3
I0116 13:59:29.700322 22620 net.cpp:217] Top shape: 128 64 8 8 (524288)
I0116 13:59:29.700333 22620 net.cpp:225] Memory required for data: 43516416
I0116 13:59:29.700353 22620 layer_factory.hpp:114] Creating layer relu3
I0116 13:59:29.700371 22620 net.cpp:160] Creating Layer relu3
I0116 13:59:29.700383 22620 net.cpp:596] relu3 <- conv3
I0116 13:59:29.700397 22620 net.cpp:557] relu3 -> conv3 (in-place)
I0116 13:59:29.700412 22620 net.cpp:210] Setting up relu3
I0116 13:59:29.700425 22620 net.cpp:217] Top shape: 128 64 8 8 (524288)
I0116 13:59:29.700434 22620 net.cpp:225] Memory required for data: 45613568
I0116 13:59:29.700445 22620 layer_factory.hpp:114] Creating layer pool3
I0116 13:59:29.700477 22620 net.cpp:160] Creating Layer pool3
I0116 13:59:29.700490 22620 net.cpp:596] pool3 <- conv3
I0116 13:59:29.700505 22620 net.cpp:570] pool3 -> pool3
I0116 13:59:29.700522 22620 net.cpp:210] Setting up pool3
I0116 13:59:29.700537 22620 net.cpp:217] Top shape: 128 64 4 4 (131072)
I0116 13:59:29.700556 22620 net.cpp:225] Memory required for data: 46137856
I0116 13:59:29.700568 22620 layer_factory.hpp:114] Creating layer ip1
I0116 13:59:29.700592 22620 net.cpp:160] Creating Layer ip1
I0116 13:59:29.700603 22620 net.cpp:596] ip1 <- pool3
I0116 13:59:29.700620 22620 net.cpp:570] ip1 -> ip1
I0116 13:59:29.701256 22620 net.cpp:210] Setting up ip1
I0116 13:59:29.701277 22620 net.cpp:217] Top shape: 128 10 (1280)
I0116 13:59:29.701287 22620 net.cpp:225] Memory required for data: 46142976
I0116 13:59:29.701303 22620 layer_factory.hpp:114] Creating layer loss
I0116 13:59:29.701324 22620 net.cpp:160] Creating Layer loss
I0116 13:59:29.701335 22620 net.cpp:596] loss <- ip1
I0116 13:59:29.701347 22620 net.cpp:596] loss <- label
I0116 13:59:29.701360 22620 net.cpp:570] loss -> loss
I0116 13:59:29.701387 22620 layer_factory.hpp:114] Creating layer loss
…
I0116 13:59:29.702771 22620 net.cpp:484] The NetState phase (1) differed from the phase (0) specified by a rule in layer cifar
I0116 13:59:29.703486 22620 net.cpp:120] Initializing net from parameters: 
name: "CIFAR10_full"
state {
  phase: TEST
}
layer {
  name: "cifar"
  type: "Data"
  top: "data"
  top: "label"
  include {
    phase: TEST
  }
  transform_param {
    mean_file: "/home/user/caffeOMP/caffe_intel/caffe/examples/cifar10/mean.binaryproto"
  }
  data_param {
    source: "/home/user/caffeOMP/caffe_intel/caffe/examples/cifar10/cifar10_test_lmdb"
    batch_size: 100
    backend: LMDB
  }
}
layer {
  name: "label_cifar_1_split"
  type: "Split"
  bottom: "label"
  top: "label_cifar_1_split_0"
  top: "label_cifar_1_split_1"
}
layer {
  name: "conv1"
  type: "Convolution"
  bottom: "data"
  top: "conv1"
  param {
    lr_mult: 1
  }
  param {
    lr_mult: 2
  }
  convolution_param {
    num_output: 32
    pad: 2
    kernel_size: 5
    stride: 1
    weight_filler {
      type: "gaussian"
      std: 0.0001
    }
    bias_filler {
      type: "constant"
    }
  }
}
layer {
  name: "pool1"
  type: "Pooling"
  bottom: "conv1"
  top: "pool1"
  pooling_param {
    pool: MAX
    kernel_size: 3
    stride: 2
  }
}
layer {
  name: "relu1"
  type: "ReLU"
  bottom: "pool1"
  top: "pool1"
}
layer {
  name: "norm1"
  type: "LRN"
  bottom: "pool1"
  top: "norm1"
  lrn_param {
    local_size: 3
    alpha: 5e-05
    beta: 0.75
    norm_region: WITHIN_CHANNEL
  }
}
layer {
  name: "conv2"
  type: "Convolution"
  bottom: "norm1"
  top: "conv2"
  param {
    lr_mult: 1
  }
  param {
    lr_mult: 2
  }
  convolution_param {
    num_output: 32
    pad: 2
    kernel_size: 5
    stride: 1
    weight_filler {
      type: "gaussian"
      std: 0.01
    }
    bias_filler {
      type: "constant"
    }
  }
}
layer {
  name: "relu2"
  type: "ReLU"
  bottom: "conv2"
  top: "conv2"
}
layer {
  name: "pool2"
  type: "Pooling"
  bottom: "conv2"
  top: "pool2"
  pooling_param {
    pool: AVE
    kernel_size: 3
    stride: 2
  }
}
layer {
  name: "norm2"
  type: "LRN"
  bottom: "pool2"
  top: "norm2"
  lrn_param {
    local_size: 3
    alpha: 5e-05
    beta: 0.75
    norm_region: WITHIN_CHANNEL
  }
}
layer {
  name: "conv3"
  type: "Convolution"
  bottom: "norm2"
  top: "conv3"
  convolution_param {
    num_output: 64
    pad: 2
    kernel_size: 5
    stride: 1
    weight_filler {
      type: "gaussian"
      std: 0.01
    }
    bias_filler {
      type: "constant"
    }
  }
}
layer {
  name: "relu3"
  type: "ReLU"
  bottom: "conv3"
  top: "conv3"
}
layer {
  name: "pool3"
  type: "Pooling"
  bottom: "conv3"
  top: "pool3"
  pooling_param {
    pool: AVE
    kernel_size: 3
    stride: 2
  }
}
layer {
  name: "ip1"
  type: "InnerProduct"
  bottom: "pool3"
  top: "ip1"
  param {
    lr_mult: 1
    decay_mult: 250
  }
  param {
    lr_mult: 2
    decay_mult: 0
  }
  inner_product_param {
    num_output: 10
    weight_filler {
      type: "gaussian"
      std: 0.01
    }
    bias_filler {
      type: "constant"
    }
  }
}
layer {
  name: "ip1_ip1_0_split"
  type: "Split"
  bottom: "ip1"
  top: "ip1_ip1_0_split_0"
  top: "ip1_ip1_0_split_1"
}
layer {
  name: "accuracy"
  type: "Accuracy"
  bottom: "ip1_ip1_0_split_0"
  bottom: "label_cifar_1_split_0"
  top: "accuracy"
  include {
    phase: TEST
  }
}
layer {
  name: "loss"
  type: "SoftmaxWithLoss"
  bottom: "ip1_ip1_0_split_1"
  bottom: "label_cifar_1_split_1"
  top: "loss"
}
I0116 13:59:29.703548 22620 layer_factory.hpp:114] Creating layer cifar
I0116 13:59:29.703763 22620 net.cpp:160] Creating Layer cifar
I0116 13:59:29.703794 22620 net.cpp:570] cifar -> data
I0116 13:59:29.703830 22620 net.cpp:570] cifar -> label
I0116 13:59:29.703863 22620 data_transformer.cpp:62] Loading mean file from: /home/user/caffeOMP/caffe_intel/caffe/examples/cifar10/mean.binaryproto
I0116 13:59:29.703896 22622 db_lmdb.cpp:72] Opened lmdb /home/user/caffeOMP/caffe_intel/caffe/examples/cifar10/cifar10_test_lmdb
I0116 13:59:29.704079 22620 data_layer.cpp:80] output data size: 100,3,32,32
I0116 13:59:29.712582 22620 net.cpp:210] Setting up cifar
I0116 13:59:29.712617 22620 net.cpp:217] Top shape: 100 3 32 32 (307200)
I0116 13:59:29.712632 22620 net.cpp:217] Top shape: 100 (100)
I0116 13:59:29.712642 22620 net.cpp:225] Memory required for data: 1229200
I0116 13:59:29.712656 22620 layer_factory.hpp:114] Creating layer label_cifar_1_split
I0116 13:59:29.712677 22620 net.cpp:160] Creating Layer label_cifar_1_split
I0116 13:59:29.712689 22620 net.cpp:596] label_cifar_1_split <- label
I0116 13:59:29.712704 22620 net.cpp:570] label_cifar_1_split -> label_cifar_1_split_0
I0116 13:59:29.712724 22620 net.cpp:570] label_cifar_1_split -> label_cifar_1_split_1
I0116 13:59:29.712744 22620 net.cpp:210] Setting up label_cifar_1_split
I0116 13:59:29.712759 22620 net.cpp:217] Top shape: 100 (100)
I0116 13:59:29.712771 22620 net.cpp:217] Top shape: 100 (100)
I0116 13:59:29.712780 22620 net.cpp:225] Memory required for data: 1230000
I0116 13:59:29.712806 22620 layer_factory.hpp:114] Creating layer conv1
I0116 13:59:29.712832 22620 net.cpp:160] Creating Layer conv1
I0116 13:59:29.712846 22620 net.cpp:596] conv1 <- data
I0116 13:59:29.712862 22620 net.cpp:570] conv1 -> conv1
I0116 13:59:29.715013 22620 net.cpp:210] Setting up conv1
I0116 13:59:29.715040 22620 net.cpp:217] Top shape: 100 32 32 32 (3276800)
I0116 13:59:29.715051 22620 net.cpp:225] Memory required for data: 14337200
I0116 13:59:29.715071 22620 layer_factory.hpp:114] Creating layer pool1
I0116 13:59:29.715108 22620 net.cpp:160] Creating Layer pool1
I0116 13:59:29.715121 22620 net.cpp:596] pool1 <- conv1
I0116 13:59:29.715138 22620 net.cpp:570] pool1 -> pool1
I0116 13:59:29.715158 22620 net.cpp:210] Setting up pool1
I0116 13:59:29.715173 22620 net.cpp:217] Top shape: 100 32 16 16 (819200)
I0116 13:59:29.715181 22620 net.cpp:225] Memory required for data: 17614000
I0116 13:59:29.715191 22620 layer_factory.hpp:114] Creating layer relu1
I0116 13:59:29.715205 22620 net.cpp:160] Creating Layer relu1
I0116 13:59:29.715215 22620 net.cpp:596] relu1 <- pool1
I0116 13:59:29.715231 22620 net.cpp:557] relu1 -> pool1 (in-place)
I0116 13:59:29.715246 22620 net.cpp:210] Setting up relu1
I0116 13:59:29.715258 22620 net.cpp:217] Top shape: 100 32 16 16 (819200)
I0116 13:59:29.715267 22620 net.cpp:225] Memory required for data: 20890800
I0116 13:59:29.715277 22620 layer_factory.hpp:114] Creating layer norm1
I0116 13:59:29.715291 22620 net.cpp:160] Creating Layer norm1
I0116 13:59:29.715301 22620 net.cpp:596] norm1 <- pool1
I0116 13:59:29.715317 22620 net.cpp:570] norm1 -> norm1
I0116 13:59:29.715373 22620 net.cpp:210] Setting up norm1
I0116 13:59:29.715390 22620 net.cpp:217] Top shape: 100 32 16 16 (819200)
I0116 13:59:29.715399 22620 net.cpp:225] Memory required for data: 24167600
I0116 13:59:29.715409 22620 layer_factory.hpp:114] Creating layer conv2
I0116 13:59:29.715428 22620 net.cpp:160] Creating Layer conv2
I0116 13:59:29.715469 22620 net.cpp:596] conv2 <- norm1
I0116 13:59:29.715492 22620 net.cpp:570] conv2 -> conv2
I0116 13:59:29.721063 22620 net.cpp:210] Setting up conv2
I0116 13:59:29.721094 22620 net.cpp:217] Top shape: 100 32 16 16 (819200)
I0116 13:59:29.721104 22620 net.cpp:225] Memory required for data: 27444400
I0116 13:59:29.721122 22620 layer_factory.hpp:114] Creating layer relu2
I0116 13:59:29.721137 22620 net.cpp:160] Creating Layer relu2
I0116 13:59:29.721146 22620 net.cpp:596] relu2 <- conv2
I0116 13:59:29.721163 22620 net.cpp:557] relu2 -> conv2 (in-place)
I0116 13:59:29.721177 22620 net.cpp:210] Setting up relu2
I0116 13:59:29.721189 22620 net.cpp:217] Top shape: 100 32 16 16 (819200)
I0116 13:59:29.721199 22620 net.cpp:225] Memory required for data: 30721200
I0116 13:59:29.721207 22620 layer_factory.hpp:114] Creating layer pool2
I0116 13:59:29.721238 22620 net.cpp:160] Creating Layer pool2
I0116 13:59:29.721251 22620 net.cpp:596] pool2 <- conv2
I0116 13:59:29.721262 22620 net.cpp:570] pool2 -> pool2
I0116 13:59:29.721281 22620 net.cpp:210] Setting up pool2
I0116 13:59:29.721298 22620 net.cpp:217] Top shape: 100 32 8 8 (204800)
I0116 13:59:29.721307 22620 net.cpp:225] Memory required for data: 31540400
I0116 13:59:29.721318 22620 layer_factory.hpp:114] Creating layer norm2
I0116 13:59:29.721329 22620 net.cpp:160] Creating Layer norm2
I0116 13:59:29.721339 22620 net.cpp:596] norm2 <- pool2
I0116 13:59:29.721354 22620 net.cpp:570] norm2 -> norm2
I0116 13:59:29.721407 22620 net.cpp:210] Setting up norm2
I0116 13:59:29.721423 22620 net.cpp:217] Top shape: 100 32 8 8 (204800)
I0116 13:59:29.721432 22620 net.cpp:225] Memory required for data: 32359600
I0116 13:59:29.721442 22620 layer_factory.hpp:114] Creating layer conv3
I0116 13:59:29.721457 22620 net.cpp:160] Creating Layer conv3
I0116 13:59:29.721467 22620 net.cpp:596] conv3 <- norm2
I0116 13:59:29.721483 22620 net.cpp:570] conv3 -> conv3
I0116 13:59:29.726577 22620 net.cpp:210] Setting up conv3
I0116 13:59:29.726621 22620 net.cpp:217] Top shape: 100 64 8 8 (409600)
I0116 13:59:29.726631 22620 net.cpp:225] Memory required for data: 33998000
I0116 13:59:29.726665 22620 layer_factory.hpp:114] Creating layer relu3
I0116 13:59:29.726680 22620 net.cpp:160] Creating Layer relu3
I0116 13:59:29.726689 22620 net.cpp:596] relu3 <- conv3
I0116 13:59:29.726701 22620 net.cpp:557] relu3 -> conv3 (in-place)
I0116 13:59:29.726714 22620 net.cpp:210] Setting up relu3
I0116 13:59:29.726727 22620 net.cpp:217] Top shape: 100 64 8 8 (409600)
I0116 13:59:29.726735 22620 net.cpp:225] Memory required for data: 35636400
I0116 13:59:29.726744 22620 layer_factory.hpp:114] Creating layer pool3
I0116 13:59:29.726773 22620 net.cpp:160] Creating Layer pool3
I0116 13:59:29.726784 22620 net.cpp:596] pool3 <- conv3
I0116 13:59:29.726799 22620 net.cpp:570] pool3 -> pool3
I0116 13:59:29.726817 22620 net.cpp:210] Setting up pool3
I0116 13:59:29.726831 22620 net.cpp:217] Top shape: 100 64 4 4 (102400)
I0116 13:59:29.726840 22620 net.cpp:225] Memory required for data: 36046000
I0116 13:59:29.726850 22620 layer_factory.hpp:114] Creating layer ip1
I0116 13:59:29.726868 22620 net.cpp:160] Creating Layer ip1
I0116 13:59:29.726879 22620 net.cpp:596] ip1 <- pool3
I0116 13:59:29.726893 22620 net.cpp:570] ip1 -> ip1
I0116 13:59:29.727455 22620 net.cpp:210] Setting up ip1
I0116 13:59:29.727476 22620 net.cpp:217] Top shape: 100 10 (1000)
I0116 13:59:29.727485 22620 net.cpp:225] Memory required for data: 36050000
I0116 13:59:29.727501 22620 layer_factory.hpp:114] Creating layer ip1_ip1_0_split
I0116 13:59:29.727515 22620 net.cpp:160] Creating Layer ip1_ip1_0_split
I0116 13:59:29.727527 22620 net.cpp:596] ip1_ip1_0_split <- ip1
I0116 13:59:29.727545 22620 net.cpp:570] ip1_ip1_0_split -> ip1_ip1_0_split_0
I0116 13:59:29.727561 22620 net.cpp:570] ip1_ip1_0_split -> ip1_ip1_0_split_1
I0116 13:59:29.727577 22620 net.cpp:210] Setting up ip1_ip1_0_split
I0116 13:59:29.727589 22620 net.cpp:217] Top shape: 100 10 (1000)
I0116 13:59:29.727599 22620 net.cpp:217] Top shape: 100 10 (1000)
I0116 13:59:29.727622 22620 net.cpp:225] Memory required for data: 36058000
I0116 13:59:29.727632 22620 layer_factory.hpp:114] Creating layer accuracy
I0116 13:59:29.727653 22620 net.cpp:160] Creating Layer accuracy
I0116 13:59:29.727664 22620 net.cpp:596] accuracy <- ip1_ip1_0_split_0
I0116 13:59:29.727675 22620 net.cpp:596] accuracy <- label_cifar_1_split_0
I0116 13:59:29.727689 22620 net.cpp:570] accuracy -> accuracy
…
