…
I0116 13:57:34.629482 22025 net.cpp:484] The NetState phase (0) differed from the phase (1) specified by a rule in layer accuracy
I0116 13:57:34.630262 22025 net.cpp:120] Initializing net from parameters: 
name: "CIFAR10_full"
state {
  phase: TRAIN
  level: 0
  stage: ""
}
layer {
  name: "cifar"
  type: "Data"
  top: "data"
  top: "label"
  include {
    phase: TRAIN
  }
  transform_param {
    mean_file: "/home/user/caffeOMP/caffe_intel/caffe/examples/cifar10/mean.binaryproto"
  }
  data_param {
    source: "/home/user/caffeOMP/caffe_intel/caffe/examples/cifar10/cifar10_train_lmdb"
    batch_size: 128
    backend: LMDB
  }
}
layer {
  name: "conv1"
  type: "Convolution"
  bottom: "data"
  top: "conv1"
  param {
    lr_mult: 1
  }
  param {
    lr_mult: 2
  }
  convolution_param {
    num_output: 32
    pad: 2
    kernel_size: 5
    stride: 1
    weight_filler {
      type: "gaussian"
      std: 0.0001
    }
    bias_filler {
      type: "constant"
    }
  }
}
layer {
  name: "pool1"
  type: "Pooling"
  bottom: "conv1"
  top: "pool1"
  pooling_param {
    pool: MAX
    kernel_size: 3
    stride: 2
  }
}
layer {
  name: "relu1"
  type: "ReLU"
  bottom: "pool1"
  top: "pool1"
}
layer {
  name: "norm1"
  type: "LRN"
  bottom: "pool1"
  top: "norm1"
  lrn_param {
    local_size: 3
    alpha: 5e-05
    beta: 0.75
    norm_region: WITHIN_CHANNEL
  }
}
layer {
  name: "conv2"
  type: "Convolution"
  bottom: "norm1"
  top: "conv2"
  param {
    lr_mult: 1
  }
  param {
    lr_mult: 2
  }
  convolution_param {
    num_output: 32
    pad: 2
    kernel_size: 5
    stride: 1
    weight_filler {
      type: "gaussian"
      std: 0.01
    }
    bias_filler {
      type: "constant"
    }
  }
}
layer {
  name: "relu2"
  type: "ReLU"
  bottom: "conv2"
  top: "conv2"
}
layer {
  name: "pool2"
  type: "Pooling"
  bottom: "conv2"
  top: "pool2"
  pooling_param {
    pool: AVE
    kernel_size: 3
    stride: 2
  }
}
layer {
  name: "norm2"
  type: "LRN"
  bottom: "pool2"
  top: "norm2"
  lrn_param {
    local_size: 3
    alpha: 5e-05
    beta: 0.75
    norm_region: WITHIN_CHANNEL
  }
}
layer {
  name: "conv3"
  type: "Convolution"
  bottom: "norm2"
  top: "conv3"
  convolution_param {
    num_output: 64
    pad: 2
    kernel_size: 5
    stride: 1
    weight_filler {
      type: "gaussian"
      std: 0.01
    }
    bias_filler {
      type: "constant"
    }
  }
}
layer {
  name: "relu3"
  type: "ReLU"
  bottom: "conv3"
  top: "conv3"
}
layer {
  name: "pool3"
  type: "Pooling"
  bottom: "conv3"
  top: "pool3"
  pooling_param {
    pool: AVE
    kernel_size: 3
    stride: 2
  }
}
layer {
  name: "ip1"
  type: "InnerProduct"
  bottom: "pool3"
  top: "ip1"
  param {
    lr_mult: 1
    decay_mult: 250
  }
  param {
    lr_mult: 2
    decay_mult: 0
  }
  inner_product_param {
    num_output: 10
    weight_filler {
      type: "gaussian"
      std: 0.01
    }
    bias_filler {
      type: "constant"
    }
  }
}
layer {
  name: "loss"
  type: "SoftmaxWithLoss"
  bottom: "ip1"
  bottom: "label"
  top: "loss"
}
I0116 13:57:34.630385 22025 layer_factory.hpp:114] Creating layer cifar
I0116 13:57:34.631862 22025 net.cpp:160] Creating Layer cifar
I0116 13:57:34.631927 22025 net.cpp:570] cifar -> data
I0116 13:57:34.631970 22025 net.cpp:570] cifar -> label
I0116 13:57:34.632024 22025 data_transformer.cpp:62] Loading mean file from: /home/user/caffeOMP/caffe_intel/caffe/examples/cifar10/mean.binaryproto
I0116 13:57:34.632226 22026 db_lmdb.cpp:72] Opened lmdb /home/user/caffeOMP/caffe_intel/caffe/examples/cifar10/cifar10_train_lmdb
I0116 13:57:34.632421 22025 data_layer.cpp:80] output data size: 128,3,32,32
I0116 13:57:34.644654 22025 net.cpp:210] Setting up cifar
I0116 13:57:34.644695 22025 net.cpp:217] Top shape: 128 3 32 32 (393216)
I0116 13:57:34.644711 22025 net.cpp:217] Top shape: 128 (128)
I0116 13:57:34.644722 22025 net.cpp:225] Memory required for data: 1573376
I0116 13:57:34.644736 22025 layer_factory.hpp:114] Creating layer conv1
I0116 13:57:34.644769 22025 net.cpp:160] Creating Layer conv1
I0116 13:57:34.644785 22025 net.cpp:596] conv1 <- data
I0116 13:57:34.644804 22025 net.cpp:570] conv1 -> conv1
I0116 13:57:34.651129 22025 net.cpp:210] Setting up conv1
I0116 13:57:34.651154 22025 net.cpp:217] Top shape: 128 32 32 32 (4194304)
I0116 13:57:34.651165 22025 net.cpp:225] Memory required for data: 18350592
I0116 13:57:34.651198 22025 layer_factory.hpp:114] Creating layer pool1
I0116 13:57:34.651280 22025 net.cpp:160] Creating Layer pool1
I0116 13:57:34.651296 22025 net.cpp:596] pool1 <- conv1
I0116 13:57:34.651314 22025 net.cpp:570] pool1 -> pool1
I0116 13:57:34.651342 22025 net.cpp:210] Setting up pool1
I0116 13:57:34.651358 22025 net.cpp:217] Top shape: 128 32 16 16 (1048576)
I0116 13:57:34.651370 22025 net.cpp:225] Memory required for data: 22544896
I0116 13:57:34.651381 22025 layer_factory.hpp:114] Creating layer relu1
I0116 13:57:34.651398 22025 net.cpp:160] Creating Layer relu1
I0116 13:57:34.651409 22025 net.cpp:596] relu1 <- pool1
I0116 13:57:34.651423 22025 net.cpp:557] relu1 -> pool1 (in-place)
I0116 13:57:34.651455 22025 net.cpp:210] Setting up relu1
I0116 13:57:34.651469 22025 net.cpp:217] Top shape: 128 32 16 16 (1048576)
I0116 13:57:34.651480 22025 net.cpp:225] Memory required for data: 26739200
I0116 13:57:34.651490 22025 layer_factory.hpp:114] Creating layer norm1
I0116 13:57:34.651511 22025 net.cpp:160] Creating Layer norm1
I0116 13:57:34.651522 22025 net.cpp:596] norm1 <- pool1
I0116 13:57:34.651536 22025 net.cpp:570] norm1 -> norm1
I0116 13:57:34.651625 22025 net.cpp:210] Setting up norm1
I0116 13:57:34.651644 22025 net.cpp:217] Top shape: 128 32 16 16 (1048576)
I0116 13:57:34.651655 22025 net.cpp:225] Memory required for data: 30933504
I0116 13:57:34.651666 22025 layer_factory.hpp:114] Creating layer conv2
I0116 13:57:34.651695 22025 net.cpp:160] Creating Layer conv2
I0116 13:57:34.651706 22025 net.cpp:596] conv2 <- norm1
I0116 13:57:34.651722 22025 net.cpp:570] conv2 -> conv2
I0116 13:57:34.669090 22025 net.cpp:210] Setting up conv2
I0116 13:57:34.669112 22025 net.cpp:217] Top shape: 128 32 16 16 (1048576)
I0116 13:57:34.669122 22025 net.cpp:225] Memory required for data: 35127808
I0116 13:57:34.669140 22025 layer_factory.hpp:114] Creating layer relu2
I0116 13:57:34.669155 22025 net.cpp:160] Creating Layer relu2
I0116 13:57:34.669165 22025 net.cpp:596] relu2 <- conv2
I0116 13:57:34.669181 22025 net.cpp:557] relu2 -> conv2 (in-place)
I0116 13:57:34.669196 22025 net.cpp:210] Setting up relu2
I0116 13:57:34.669209 22025 net.cpp:217] Top shape: 128 32 16 16 (1048576)
I0116 13:57:34.669217 22025 net.cpp:225] Memory required for data: 39322112
I0116 13:57:34.669250 22025 layer_factory.hpp:114] Creating layer pool2
I0116 13:57:34.669284 22025 net.cpp:160] Creating Layer pool2
I0116 13:57:34.669296 22025 net.cpp:596] pool2 <- conv2
I0116 13:57:34.669309 22025 net.cpp:570] pool2 -> pool2
I0116 13:57:34.669325 22025 net.cpp:210] Setting up pool2
I0116 13:57:34.669339 22025 net.cpp:217] Top shape: 128 32 8 8 (262144)
I0116 13:57:34.669348 22025 net.cpp:225] Memory required for data: 40370688
I0116 13:57:34.669358 22025 layer_factory.hpp:114] Creating layer norm2
I0116 13:57:34.669375 22025 net.cpp:160] Creating Layer norm2
I0116 13:57:34.669386 22025 net.cpp:596] norm2 <- pool2
I0116 13:57:34.669402 22025 net.cpp:570] norm2 -> norm2
I0116 13:57:34.669458 22025 net.cpp:210] Setting up norm2
I0116 13:57:34.669476 22025 net.cpp:217] Top shape: 128 32 8 8 (262144)
I0116 13:57:34.669486 22025 net.cpp:225] Memory required for data: 41419264
I0116 13:57:34.669494 22025 layer_factory.hpp:114] Creating layer conv3
I0116 13:57:34.669510 22025 net.cpp:160] Creating Layer conv3
I0116 13:57:34.669520 22025 net.cpp:596] conv3 <- norm2
I0116 13:57:34.669538 22025 net.cpp:570] conv3 -> conv3
I0116 13:57:34.678851 22025 net.cpp:210] Setting up conv3
I0116 13:57:34.678874 22025 net.cpp:217] Top shape: 128 64 8 8 (524288)
I0116 13:57:34.678884 22025 net.cpp:225] Memory required for data: 43516416
I0116 13:57:34.678900 22025 layer_factory.hpp:114] Creating layer relu3
I0116 13:57:34.678913 22025 net.cpp:160] Creating Layer relu3
I0116 13:57:34.678923 22025 net.cpp:596] relu3 <- conv3
I0116 13:57:34.678936 22025 net.cpp:557] relu3 -> conv3 (in-place)
I0116 13:57:34.678948 22025 net.cpp:210] Setting up relu3
I0116 13:57:34.678961 22025 net.cpp:217] Top shape: 128 64 8 8 (524288)
I0116 13:57:34.678969 22025 net.cpp:225] Memory required for data: 45613568
I0116 13:57:34.678978 22025 layer_factory.hpp:114] Creating layer pool3
I0116 13:57:34.679025 22025 net.cpp:160] Creating Layer pool3
I0116 13:57:34.679038 22025 net.cpp:596] pool3 <- conv3
I0116 13:57:34.679050 22025 net.cpp:570] pool3 -> pool3
I0116 13:57:34.679066 22025 net.cpp:210] Setting up pool3
I0116 13:57:34.679078 22025 net.cpp:217] Top shape: 128 64 4 4 (131072)
I0116 13:57:34.679087 22025 net.cpp:225] Memory required for data: 46137856
I0116 13:57:34.679097 22025 layer_factory.hpp:114] Creating layer ip1
I0116 13:57:34.679117 22025 net.cpp:160] Creating Layer ip1
I0116 13:57:34.679128 22025 net.cpp:596] ip1 <- pool3
I0116 13:57:34.679141 22025 net.cpp:570] ip1 -> ip1
I0116 13:57:34.679669 22025 net.cpp:210] Setting up ip1
I0116 13:57:34.679687 22025 net.cpp:217] Top shape: 128 10 (1280)
I0116 13:57:34.679695 22025 net.cpp:225] Memory required for data: 46142976
I0116 13:57:34.679709 22025 layer_factory.hpp:114] Creating layer loss
I0116 13:57:34.679733 22025 net.cpp:160] Creating Layer loss
I0116 13:57:34.679744 22025 net.cpp:596] loss <- ip1
I0116 13:57:34.679754 22025 net.cpp:596] loss <- label
I0116 13:57:34.679766 22025 net.cpp:570] loss -> loss
I0116 13:57:34.679790 22025 layer_factory.hpp:114] Creating layer loss
…
I0116 13:57:34.681087 22025 net.cpp:484] The NetState phase (1) differed from the phase (0) specified by a rule in layer cifar
I0116 13:57:34.681679 22025 net.cpp:120] Initializing net from parameters: 
name: "CIFAR10_full"
state {
  phase: TEST
}
layer {
  name: "cifar"
  type: "Data"
  top: "data"
  top: "label"
  include {
    phase: TEST
  }
  transform_param {
    mean_file: "/home/user/caffeOMP/caffe_intel/caffe/examples/cifar10/mean.binaryproto"
  }
  data_param {
    source: "/home/user/caffeOMP/caffe_intel/caffe/examples/cifar10/cifar10_test_lmdb"
    batch_size: 100
    backend: LMDB
  }
}
layer {
  name: "label_cifar_1_split"
  type: "Split"
  bottom: "label"
  top: "label_cifar_1_split_0"
  top: "label_cifar_1_split_1"
}
layer {
  name: "conv1"
  type: "Convolution"
  bottom: "data"
  top: "conv1"
  param {
    lr_mult: 1
  }
  param {
    lr_mult: 2
  }
  convolution_param {
    num_output: 32
    pad: 2
    kernel_size: 5
    stride: 1
    weight_filler {
      type: "gaussian"
      std: 0.0001
    }
    bias_filler {
      type: "constant"
    }
  }
}
layer {
  name: "pool1"
  type: "Pooling"
  bottom: "conv1"
  top: "pool1"
  pooling_param {
    pool: MAX
    kernel_size: 3
    stride: 2
  }
}
layer {
  name: "relu1"
  type: "ReLU"
  bottom: "pool1"
  top: "pool1"
}
layer {
  name: "norm1"
  type: "LRN"
  bottom: "pool1"
  top: "norm1"
  lrn_param {
    local_size: 3
    alpha: 5e-05
    beta: 0.75
    norm_region: WITHIN_CHANNEL
  }
}
layer {
  name: "conv2"
  type: "Convolution"
  bottom: "norm1"
  top: "conv2"
  param {
    lr_mult: 1
  }
  param {
    lr_mult: 2
  }
  convolution_param {
    num_output: 32
    pad: 2
    kernel_size: 5
    stride: 1
    weight_filler {
      type: "gaussian"
      std: 0.01
    }
    bias_filler {
      type: "constant"
    }
  }
}
layer {
  name: "relu2"
  type: "ReLU"
  bottom: "conv2"
  top: "conv2"
}
layer {
  name: "pool2"
  type: "Pooling"
  bottom: "conv2"
  top: "pool2"
  pooling_param {
    pool: AVE
    kernel_size: 3
    stride: 2
  }
}
layer {
  name: "norm2"
  type: "LRN"
  bottom: "pool2"
  top: "norm2"
  lrn_param {
    local_size: 3
    alpha: 5e-05
    beta: 0.75
    norm_region: WITHIN_CHANNEL
  }
}
layer {
  name: "conv3"
  type: "Convolution"
  bottom: "norm2"
  top: "conv3"
  convolution_param {
    num_output: 64
    pad: 2
    kernel_size: 5
    stride: 1
    weight_filler {
      type: "gaussian"
      std: 0.01
    }
    bias_filler {
      type: "constant"
    }
  }
}
layer {
  name: "relu3"
  type: "ReLU"
  bottom: "conv3"
  top: "conv3"
}
layer {
  name: "pool3"
  type: "Pooling"
  bottom: "conv3"
  top: "pool3"
  pooling_param {
    pool: AVE
    kernel_size: 3
    stride: 2
  }
}
layer {
  name: "ip1"
  type: "InnerProduct"
  bottom: "pool3"
  top: "ip1"
  param {
    lr_mult: 1
    decay_mult: 250
  }
  param {
    lr_mult: 2
    decay_mult: 0
  }
  inner_product_param {
    num_output: 10
    weight_filler {
      type: "gaussian"
      std: 0.01
    }
    bias_filler {
      type: "constant"
    }
  }
}
layer {
  name: "ip1_ip1_0_split"
  type: "Split"
  bottom: "ip1"
  top: "ip1_ip1_0_split_0"
  top: "ip1_ip1_0_split_1"
}
layer {
  name: "accuracy"
  type: "Accuracy"
  bottom: "ip1_ip1_0_split_0"
  bottom: "label_cifar_1_split_0"
  top: "accuracy"
  include {
    phase: TEST
  }
}
layer {
  name: "loss"
  type: "SoftmaxWithLoss"
  bottom: "ip1_ip1_0_split_1"
  bottom: "label_cifar_1_split_1"
  top: "loss"
}
I0116 13:57:34.681736 22025 layer_factory.hpp:114] Creating layer cifar
I0116 13:57:34.681913 22025 net.cpp:160] Creating Layer cifar
I0116 13:57:34.681951 22025 net.cpp:570] cifar -> data
I0116 13:57:34.682000 22025 net.cpp:570] cifar -> label
I0116 13:57:34.682044 22025 data_transformer.cpp:62] Loading mean file from: /home/user/caffeOMP/caffe_intel/caffe/examples/cifar10/mean.binaryproto
I0116 13:57:34.682057 22027 db_lmdb.cpp:72] Opened lmdb /home/user/caffeOMP/caffe_intel/caffe/examples/cifar10/cifar10_test_lmdb
I0116 13:57:34.682205 22025 data_layer.cpp:80] output data size: 100,3,32,32
I0116 13:57:34.689882 22025 net.cpp:210] Setting up cifar
I0116 13:57:34.689911 22025 net.cpp:217] Top shape: 100 3 32 32 (307200)
I0116 13:57:34.689923 22025 net.cpp:217] Top shape: 100 (100)
I0116 13:57:34.689931 22025 net.cpp:225] Memory required for data: 1229200
I0116 13:57:34.689942 22025 layer_factory.hpp:114] Creating layer label_cifar_1_split
I0116 13:57:34.689960 22025 net.cpp:160] Creating Layer label_cifar_1_split
I0116 13:57:34.689970 22025 net.cpp:596] label_cifar_1_split <- label
I0116 13:57:34.689995 22025 net.cpp:570] label_cifar_1_split -> label_cifar_1_split_0
I0116 13:57:34.690014 22025 net.cpp:570] label_cifar_1_split -> label_cifar_1_split_1
I0116 13:57:34.690032 22025 net.cpp:210] Setting up label_cifar_1_split
I0116 13:57:34.690045 22025 net.cpp:217] Top shape: 100 (100)
I0116 13:57:34.690057 22025 net.cpp:217] Top shape: 100 (100)
I0116 13:57:34.690065 22025 net.cpp:225] Memory required for data: 1230000
I0116 13:57:34.690074 22025 layer_factory.hpp:114] Creating layer conv1
I0116 13:57:34.690091 22025 net.cpp:160] Creating Layer conv1
I0116 13:57:34.690101 22025 net.cpp:596] conv1 <- data
I0116 13:57:34.690114 22025 net.cpp:570] conv1 -> conv1
I0116 13:57:34.694819 22025 net.cpp:210] Setting up conv1
I0116 13:57:34.694841 22025 net.cpp:217] Top shape: 100 32 32 32 (3276800)
I0116 13:57:34.694859 22025 net.cpp:225] Memory required for data: 14337200
I0116 13:57:34.694878 22025 layer_factory.hpp:114] Creating layer pool1
I0116 13:57:34.694908 22025 net.cpp:160] Creating Layer pool1
I0116 13:57:34.694922 22025 net.cpp:596] pool1 <- conv1
I0116 13:57:34.694938 22025 net.cpp:570] pool1 -> pool1
I0116 13:57:34.694957 22025 net.cpp:210] Setting up pool1
I0116 13:57:34.694968 22025 net.cpp:217] Top shape: 100 32 16 16 (819200)
I0116 13:57:34.694977 22025 net.cpp:225] Memory required for data: 17614000
I0116 13:57:34.694995 22025 layer_factory.hpp:114] Creating layer relu1
I0116 13:57:34.695009 22025 net.cpp:160] Creating Layer relu1
I0116 13:57:34.695017 22025 net.cpp:596] relu1 <- pool1
I0116 13:57:34.695029 22025 net.cpp:557] relu1 -> pool1 (in-place)
I0116 13:57:34.695040 22025 net.cpp:210] Setting up relu1
I0116 13:57:34.695050 22025 net.cpp:217] Top shape: 100 32 16 16 (819200)
I0116 13:57:34.695058 22025 net.cpp:225] Memory required for data: 20890800
I0116 13:57:34.695067 22025 layer_factory.hpp:114] Creating layer norm1
I0116 13:57:34.695078 22025 net.cpp:160] Creating Layer norm1
I0116 13:57:34.695086 22025 net.cpp:596] norm1 <- pool1
I0116 13:57:34.695097 22025 net.cpp:570] norm1 -> norm1
I0116 13:57:34.695147 22025 net.cpp:210] Setting up norm1
I0116 13:57:34.695164 22025 net.cpp:217] Top shape: 100 32 16 16 (819200)
I0116 13:57:34.695173 22025 net.cpp:225] Memory required for data: 24167600
I0116 13:57:34.695183 22025 layer_factory.hpp:114] Creating layer conv2
I0116 13:57:34.695196 22025 net.cpp:160] Creating Layer conv2
I0116 13:57:34.695220 22025 net.cpp:596] conv2 <- norm1
I0116 13:57:34.695243 22025 net.cpp:570] conv2 -> conv2
I0116 13:57:34.708933 22025 net.cpp:210] Setting up conv2
I0116 13:57:34.708961 22025 net.cpp:217] Top shape: 100 32 16 16 (819200)
I0116 13:57:34.708971 22025 net.cpp:225] Memory required for data: 27444400
I0116 13:57:34.709004 22025 layer_factory.hpp:114] Creating layer relu2
I0116 13:57:34.709022 22025 net.cpp:160] Creating Layer relu2
I0116 13:57:34.709030 22025 net.cpp:596] relu2 <- conv2
I0116 13:57:34.709040 22025 net.cpp:557] relu2 -> conv2 (in-place)
I0116 13:57:34.709053 22025 net.cpp:210] Setting up relu2
I0116 13:57:34.709064 22025 net.cpp:217] Top shape: 100 32 16 16 (819200)
I0116 13:57:34.709070 22025 net.cpp:225] Memory required for data: 30721200
I0116 13:57:34.709079 22025 layer_factory.hpp:114] Creating layer pool2
I0116 13:57:34.709106 22025 net.cpp:160] Creating Layer pool2
I0116 13:57:34.709117 22025 net.cpp:596] pool2 <- conv2
I0116 13:57:34.709128 22025 net.cpp:570] pool2 -> pool2
I0116 13:57:34.709143 22025 net.cpp:210] Setting up pool2
I0116 13:57:34.709154 22025 net.cpp:217] Top shape: 100 32 8 8 (204800)
I0116 13:57:34.709162 22025 net.cpp:225] Memory required for data: 31540400
I0116 13:57:34.709172 22025 layer_factory.hpp:114] Creating layer norm2
I0116 13:57:34.709188 22025 net.cpp:160] Creating Layer norm2
I0116 13:57:34.709199 22025 net.cpp:596] norm2 <- pool2
I0116 13:57:34.709213 22025 net.cpp:570] norm2 -> norm2
I0116 13:57:34.709257 22025 net.cpp:210] Setting up norm2
I0116 13:57:34.709271 22025 net.cpp:217] Top shape: 100 32 8 8 (204800)
I0116 13:57:34.709280 22025 net.cpp:225] Memory required for data: 32359600
I0116 13:57:34.709287 22025 layer_factory.hpp:114] Creating layer conv3
I0116 13:57:34.709303 22025 net.cpp:160] Creating Layer conv3
I0116 13:57:34.709312 22025 net.cpp:596] conv3 <- norm2
I0116 13:57:34.709323 22025 net.cpp:570] conv3 -> conv3
I0116 13:57:34.717540 22025 net.cpp:210] Setting up conv3
I0116 13:57:34.717561 22025 net.cpp:217] Top shape: 100 64 8 8 (409600)
I0116 13:57:34.717568 22025 net.cpp:225] Memory required for data: 33998000
I0116 13:57:34.717583 22025 layer_factory.hpp:114] Creating layer relu3
I0116 13:57:34.717595 22025 net.cpp:160] Creating Layer relu3
I0116 13:57:34.717603 22025 net.cpp:596] relu3 <- conv3
I0116 13:57:34.717617 22025 net.cpp:557] relu3 -> conv3 (in-place)
I0116 13:57:34.717628 22025 net.cpp:210] Setting up relu3
I0116 13:57:34.717644 22025 net.cpp:217] Top shape: 100 64 8 8 (409600)
I0116 13:57:34.717653 22025 net.cpp:225] Memory required for data: 35636400
I0116 13:57:34.717660 22025 layer_factory.hpp:114] Creating layer pool3
I0116 13:57:34.717684 22025 net.cpp:160] Creating Layer pool3
I0116 13:57:34.717694 22025 net.cpp:596] pool3 <- conv3
I0116 13:57:34.717705 22025 net.cpp:570] pool3 -> pool3
I0116 13:57:34.717720 22025 net.cpp:210] Setting up pool3
I0116 13:57:34.717730 22025 net.cpp:217] Top shape: 100 64 4 4 (102400)
I0116 13:57:34.717737 22025 net.cpp:225] Memory required for data: 36046000
I0116 13:57:34.717746 22025 layer_factory.hpp:114] Creating layer ip1
I0116 13:57:34.717758 22025 net.cpp:160] Creating Layer ip1
I0116 13:57:34.717767 22025 net.cpp:596] ip1 <- pool3
I0116 13:57:34.717778 22025 net.cpp:570] ip1 -> ip1
I0116 13:57:34.718219 22025 net.cpp:210] Setting up ip1
I0116 13:57:34.718235 22025 net.cpp:217] Top shape: 100 10 (1000)
I0116 13:57:34.718242 22025 net.cpp:225] Memory required for data: 36050000
I0116 13:57:34.718253 22025 layer_factory.hpp:114] Creating layer ip1_ip1_0_split
I0116 13:57:34.718266 22025 net.cpp:160] Creating Layer ip1_ip1_0_split
I0116 13:57:34.718276 22025 net.cpp:596] ip1_ip1_0_split <- ip1
I0116 13:57:34.718286 22025 net.cpp:570] ip1_ip1_0_split -> ip1_ip1_0_split_0
I0116 13:57:34.718298 22025 net.cpp:570] ip1_ip1_0_split -> ip1_ip1_0_split_1
I0116 13:57:34.718310 22025 net.cpp:210] Setting up ip1_ip1_0_split
I0116 13:57:34.718320 22025 net.cpp:217] Top shape: 100 10 (1000)
I0116 13:57:34.718329 22025 net.cpp:217] Top shape: 100 10 (1000)
I0116 13:57:34.718348 22025 net.cpp:225] Memory required for data: 36058000
I0116 13:57:34.718355 22025 layer_factory.hpp:114] Creating layer accuracy
I0116 13:57:34.718371 22025 net.cpp:160] Creating Layer accuracy
I0116 13:57:34.718380 22025 net.cpp:596] accuracy <- ip1_ip1_0_split_0
I0116 13:57:34.718389 22025 net.cpp:596] accuracy <- label_cifar_1_split_0
I0116 13:57:34.718402 22025 net.cpp:570] accuracy -> accuracy
…
