…
I0331 19:08:02.012454 136016 net.cpp:484] The NetState phase (0) differed from the phase (1) specified by a rule in layer loss3/top-5
I0331 19:08:02.016888 136016 net.cpp:120] Initializing net from parameters: 
name: "GoogleNet"
state {
  phase: TRAIN
  level: 0
  stage: ""
}
layer {
  name: "data"
  type: "Data"
  top: "data"
  top: "label"
  include {
    phase: TRAIN
  }
  transform_param {
    mirror: true
    crop_size: 224
    mean_value: 104
    mean_value: 117
    mean_value: 123
  }
  data_param {
    source: "/home/proy/LIBRARIES/caffeLibs/caffe/examples/imagenet/ilsvrc12_train_lmdb"
    batch_size: 112
    backend: LMDB
  }
}
layer {
  name: "label_data_1_split"
  type: "Split"
  bottom: "label"
  top: "label_data_1_split_0"
  top: "label_data_1_split_1"
  top: "label_data_1_split_2"
}
layer {
  name: "conv1/7x7_s2"
  type: "Convolution"
  bottom: "data"
  top: "conv1/7x7_s2"
  param {
    lr_mult: 1
    decay_mult: 1
  }
  param {
    lr_mult: 2
    decay_mult: 0
  }
  convolution_param {
    num_output: 64
    pad: 3
    kernel_size: 7
    stride: 2
    weight_filler {
      type: "xavier"
    }
    bias_filler {
      type: "constant"
      value: 0.2
    }
  }
}
layer {
  name: "conv1/relu_7x7"
  type: "ReLU"
  bottom: "conv1/7x7_s2"
  top: "conv1/7x7_s2"
}
layer {
  name: "pool1/3x3_s2"
  type: "Pooling"
  bottom: "conv1/7x7_s2"
  top: "pool1/3x3_s2"
  pooling_param {
    pool: MAX
    kernel_size: 3
    stride: 2
  }
}
layer {
  name: "pool1/norm1"
  type: "LRN"
  bottom: "pool1/3x3_s2"
  top: "pool1/norm1"
  lrn_param {
    local_size: 5
    alpha: 0.0001
    beta: 0.75
  }
}
layer {
  name: "conv2/3x3_reduce"
  type: "Convolution"
  bottom: "pool1/norm1"
  top: "conv2/3x3_reduce"
  param {
    lr_mult: 1
    decay_mult: 1
  }
  param {
    lr_mult: 2
    decay_mult: 0
  }
  convolution_param {
    num_output: 64
    kernel_size: 1
    weight_filler {
      type: "xavier"
    }
    bias_filler {
      type: "constant"
      value: 0.2
    }
  }
}
layer {
  name: "conv2/relu_3x3_reduce"
  type: "ReLU"
  bottom: "conv2/3x3_reduce"
  top: "conv2/3x3_reduce"
}
layer {
  name: "conv2/3x3"
  type: "Convolution"
  bottom: "conv2/3x3_reduce"
  top: "conv2/3x3"
  param {
    lr_mult: 1
    decay_mult: 1
  }
  param {
    lr_mult: 2
    decay_mult: 0
  }
  convolution_param {
    num_output: 192
    pad: 1
    kernel_size: 3
    weight_filler {
      type: "xavier"
    }
    bias_filler {
      type: "constant"
      value: 0.2
    }
  }
}
layer {
  name: "conv2/relu_3x3"
  type: "ReLU"
  bottom: "conv2/3x3"
  top: "conv2/3x3"
}
layer {
  name: "conv2/norm2"
  type: "LRN"
  bottom: "conv2/3x3"
  top: "conv2/norm2"
  lrn_param {
    local_size: 5
    alpha: 0.0001
    beta: 0.75
  }
}
layer {
  name: "pool2/3x3_s2"
  type: "Pooling"
  bottom: "conv2/norm2"
  top: "pool2/3x3_s2"
  pooling_param {
    pool: MAX
    kernel_size: 3
    stride: 2
  }
}
layer {
  name: "pool2/3x3_s2_pool2/3x3_s2_0_split"
  type: "Split"
  bottom: "pool2/3x3_s2"
  top: "pool2/3x3_s2_pool2/3x3_s2_0_split_0"
  top: "pool2/3x3_s2_pool2/3x3_s2_0_split_1"
  top: "pool2/3x3_s2_pool2/3x3_s2_0_split_2"
  top: "pool2/3x3_s2_pool2/3x3_s2_0_split_3"
}
layer {
  name: "inception_3a/1x1"
  type: "Convolution"
  bottom: "pool2/3x3_s2_pool2/3x3_s2_0_split_0"
  top: "inception_3a/1x1"
  param {
    lr_mult: 1
    decay_mult: 1
  }
  param {
    lr_mult: 2
    decay_mult: 0
  }
  convolution_param {
    num_output: 64
    kernel_size: 1
    weight_filler {
      type: "xavier"
    }
    bias_filler {
      type: "constant"
      value: 0.2
    }
  }
}
layer {
  name: "inception_3a/relu_1x1"
  type: "ReLU"
  bottom: "inception_3a/1x1"
  top: "inception_3a/1x1"
}
layer {
  name: "inception_3a/3x3_reduce"
  type: "Convolution"
  bottom: "pool2/3x3_s2_pool2/3x3_s2_0_split_1"
  top: "inception_3a/3x3_reduce"
  param {
    lr_mult: 1
    decay_mult: 1
  }
  param {
    lr_mult: 2
    decay_mult: 0
  }
  convolution_param {
    num_output: 96
    kernel_size: 1
    weight_filler {
      type: "xavier"
    }
    bias_filler {
      type: "constant"
      value: 0.2
    }
  }
}
layer {
  name: "inception_3a/relu_3x3_reduce"
  type: "ReLU"
  bottom: "inception_3a/3x3_reduce"
  top: "inception_3a/3x3_reduce"
}
layer {
  name: "inception_3a/3x3"
  type: "Convolution"
  bottom: "inception_3a/3x3_reduce"
  top: "inception_3a/3x3"
  param {
    lr_mult: 1
    decay_mult: 1
  }
  param {
    lr_mult: 2
    decay_mult: 0
  }
  convolution_param {
    num_output: 128
    pad: 1
    kernel_size: 3
    weight_filler {
      type: "xavier"
    }
    bias_filler {
      type: "constant"
      value: 0.2
    }
  }
}
layer {
  name: "inception_3a/relu_3x3"
  type: "ReLU"
  bottom: "inception_3a/3x3"
  top: "inception_3a/3x3"
}
layer {
  name: "inception_3a/5x5_reduce"
  type: "Convolution"
  bottom: "pool2/3x3_s2_pool2/3x3_s2_0_split_2"
  top: "inception_3a/5x5_reduce"
  param {
    lr_mult: 1
    decay_mult: 1
  }
  param {
    lr_mult: 2
    decay_mult: 0
  }
  convolution_param {
    num_output: 16
    kernel_size: 1
    weight_filler {
      type: "xavier"
    }
    bias_filler {
      type: "constant"
      value: 0.2
    }
  }
}
layer {
  name: "inception_3a/relu_5x5_reduce"
  type: "ReLU"
  bottom: "inception_3a/5x5_reduce"
  top: "inception_3a/5x5_reduce"
}
layer {
  name: "inception_3a/5x5"
  type: "Convolution"
  bottom: "inception_3a/5x5_reduce"
  top: "inception_3a/5x5"
  param {
    lr_mult: 1
    decay_mult: 1
  }
  param {
    lr_mult: 2
    decay_mult: 0
  }
  convolution_param {
    num_output: 32
    pad: 2
    kernel_size: 5
    weight_filler {
      type: "xavier"
    }
    bias_filler {
      type: "constant"
      value: 0.2
    }
  }
}
layer {
  name: "inception_3a/relu_5x5"
  type: "ReLU"
  bottom: "inception_3a/5x5"
  top: "inception_3a/5x5"
}
layer {
  name: "inception_3a/pool"
  type: "Pooling"
  bottom: "pool2/3x3_s2_pool2/3x3_s2_0_split_3"
  top: "inception_3a/pool"
  pooling_param {
    pool: MAX
    kernel_size: 3
    stride: 1
    pad: 1
  }
}
layer {
  name: "inception_3a/pool_proj"
  type: "Convolution"
  bottom: "inception_3a/pool"
  top: "inception_3a/pool_proj"
  param {
    lr_mult: 1
    decay_mult: 1
  }
  param {
    lr_mult: 2
    decay_mult: 0
  }
  convolution_param {
    num_output: 32
    kernel_size: 1
    weight_filler {
      type: "xavier"
    }
    bias_filler {
      type: "constant"
      value: 0.2
    }
  }
}
layer {
  name: "inception_3a/relu_pool_proj"
  type: "ReLU"
  bottom: "inception_3a/pool_proj"
  top: "inception_3a/pool_proj"
}
layer {
  name: "inception_3a/output"
  type: "Concat"
  bottom: "inception_3a/1x1"
  bottom: "inception_3a/3x3"
  bottom: "inception_3a/5x5"
  bottom: "inception_3a/pool_proj"
  top: "inception_3a/output"
}
layer {
  name: "inception_3a/output_inception_3a/output_0_split"
  type: "Split"
  bottom: "inception_3a/output"
  top: "inception_3a/output_inception_3a/output_0_split_0"
  top: "inception_3a/output_inception_3a/output_0_split_1"
  top: "inception_3a/output_inception_3a/output_0_split_2"
  top: "inception_3a/output_inception_3a/output_0_split_3"
}
layer {
  name: "inception_3b/1x1"
  type: "Convolution"
  bottom: "inception_3a/output_inception_3a/output_0_split_0"
  top: "inception_3b/1x1"
  param {
    lr_mult: 1
    decay_mult: 1
  }
  param {
    lr_mult: 2
    decay_mult: 0
  }
  convolution_param {
    num_output: 128
    kernel_size: 1
    weight_filler {
      type: "xavier"
    }
    bias_filler {
      type: "constant"
      value: 0.2
    }
  }
}
layer {
  name: "inception_3b/relu_1x1"
  type: "ReLU"
  bottom: "inception_3b/1x1"
  top: "inception_3b/1x1"
}
layer {
  name: "inception_3b/3x3_reduce"
  type: "Convolution"
  bottom: "inception_3a/output_inception_3a/output_0_split_1"
  top: "inception_3b/3x3_reduce"
  param {
    lr_mult: 1
    decay_mult: 1
  }
  param {
    lr_mult: 2
    decay_mult: 0
  }
  convolution_param {
    num_output: 128
    kernel_size: 1
    weight_filler {
      type: "xavier"
    }
    bias_filler {
      type: "constant"
      value: 0.2
    }
  }
}
layer {
  name: "inception_3b/relu_3x3_reduce"
  type: "ReLU"
  bottom: "inception_3b/3x3_reduce"
  top: "inception_3b/3x3_reduce"
}
layer {
  name: "inception_3b/3x3"
  type: "Convolution"
  bottom: "inception_3b/3x3_reduce"
  top: "inception_3b/3x3"
  param {
    lr_mult: 1
    decay_mult: 1
  }
  param {
    lr_mult: 2
    decay_mult: 0
  }
  convolution_param {
    num_output: 192
    pad: 1
    kernel_size: 3
    weight_filler {
      type: "xavier"
    }
    bias_filler {
      type: "constant"
      value: 0.2
    }
  }
}
layer {
  name: "inception_3b/relu_3x3"
  type: "ReLU"
  bottom: "inception_3b/3x3"
  top: "inception_3b/3x3"
}
layer {
  name: "inception_3b/5x5_reduce"
  type: "Convolution"
  bottom: "inception_3a/output_inception_3a/output_0_split_2"
  top: "inception_3b/5x5_reduce"
  param {
    lr_mult: 1
    decay_mult: 1
  }
  param {
    lr_mult: 2
    decay_mult: 0
  }
  convolution_param {
    num_output: 32
    kernel_size: 1
    weight_filler {
      type: "xavier"
    }
    bias_filler {
      type: "constant"
      value: 0.2
    }
  }
}
layer {
  name: "inception_3b/relu_5x5_reduce"
  type: "ReLU"
  bottom: "inception_3b/5x5_reduce"
  top: "inception_3b/5x5_reduce"
}
layer {
  name: "inception_3b/5x5"
  type: "Convolution"
  bottom: "inception_3b/5x5_reduce"
  top: "inception_3b/5x5"
  param {
    lr_mult: 1
    decay_mult: 1
  }
  param {
    lr_mult: 2
    decay_mult: 0
  }
  convolution_param {
    num_output: 96
    pad: 2
    kernel_size: 5
    weight_filler {
      type: "xavier"
    }
    bias_filler {
      type: "constant"
      value: 0.2
    }
  }
}
layer {
  name: "inception_3b/relu_5x5"
  type: "ReLU"
  bottom: "inception_3b/5x5"
  top: "inception_3b/5x5"
}
layer {
  name: "inception_3b/pool"
  type: "Pooling"
  bottom: "inception_3a/output_inception_3a/output_0_split_3"
  top: "inception_3b/pool"
  pooling_param {
    pool: MAX
    kernel_size: 3
    stride: 1
    pad: 1
  }
}
layer {
  name: "inception_3b/pool_proj"
  type: "Convolution"
  bottom: "inception_3b/pool"
  top: "inception_3b/pool_proj"
  param {
    lr_mult: 1
    decay_mult: 1
  }
  param {
    lr_mult: 2
    decay_mult: 0
  }
  convolution_param {
    num_output: 64
    kernel_size: 1
    weight_filler {
      type: "xavier"
    }
    bias_filler {
      type: "constant"
      value: 0.2
    }
  }
}
layer {
  name: "inception_3b/relu_pool_proj"
  type: "ReLU"
  bottom: "inception_3b/pool_proj"
  top: "inception_3b/pool_proj"
}
layer {
  name: "inception_3b/output"
  type: "Concat"
  bottom: "inception_3b/1x1"
  bottom: "inception_3b/3x3"
  bottom: "inception_3b/5x5"
  bottom: "inception_3b/pool_proj"
  top: "inception_3b/output"
}
layer {
  name: "pool3/3x3_s2"
  type: "Pooling"
  bottom: "inception_3b/output"
  top: "pool3/3x3_s2"
  pooling_param {
    pool: MAX
    kernel_size: 3
    stride: 2
  }
}
layer {
  name: "pool3/3x3_s2_pool3/3x3_s2_0_split"
  type: "Split"
  bottom: "pool3/3x3_s2"
  top: "pool3/3x3_s2_pool3/3x3_s2_0_split_0"
  top: "pool3/3x3_s2_pool3/3x3_s2_0_split_1"
  top: "pool3/3x3_s2_pool3/3x3_s2_0_split_2"
  top: "pool3/3x3_s2_pool3/3x3_s2_0_split_3"
}
layer {
  name: "inception_4a/1x1"
  type: "Convolution"
  bottom: "pool3/3x3_s2_pool3/3x3_s2_0_split_0"
  top: "inception_4a/1x1"
  param {
    lr_mult: 1
    decay_mult: 1
  }
  param {
    lr_mult: 2
    decay_mult: 0
  }
  convolution_param {
    num_output: 192
    kernel_size: 1
    weight_filler {
      type: "xavier"
    }
    bias_filler {
      type: "constant"
      value: 0.2
    }
  }
}
layer {
  name: "inception_4a/relu_1x1"
  type: "ReLU"
  bottom: "inception_4a/1x1"
  top: "inception_4a/1x1"
}
layer {
  name: "inception_4a/3x3_reduce"
  type: "Convolution"
  bottom: "pool3/3x3_s2_pool3/3x3_s2_0_split_1"
  top: "inception_4a/3x3_reduce"
  param {
    lr_mult: 1
    decay_mult: 1
  }
  param {
    lr_mult: 2
    decay_mult: 0
  }
  convolution_param {
    num_output: 96
    kernel_size: 1
    weight_filler {
      type: "xavier"
    }
    bias_filler {
      type: "constant"
      value: 0.2
    }
  }
}
layer {
  name: "inception_4a/relu_3x3_reduce"
  type: "ReLU"
  bottom: "inception_4a/3x3_reduce"
  top: "inception_4a/3x3_reduce"
}
layer {
  name: "inception_4a/3x3"
  type: "Convolution"
  bottom: "inception_4a/3x3_reduce"
  top: "inception_4a/3x3"
  param {
    lr_mult: 1
    decay_mult: 1
  }
  param {
    lr_mult: 2
    decay_mult: 0
  }
  convolution_param {
    num_output: 208
    pad: 1
    kernel_size: 3
    weight_filler {
      type: "xavier"
    }
    bias_filler {
      type: "constant"
      value: 0.2
    }
  }
}
layer {
  name: "inception_4a/relu_3x3"
  type: "ReLU"
  bottom: "inception_4a/3x3"
  top: "inception_4a/3x3"
}
layer {
  name: "inception_4a/5x5_reduce"
  type: "Convolution"
  bottom: "pool3/3x3_s2_pool3/3x3_s2_0_split_2"
  top: "inception_4a/5x5_reduce"
  param {
    lr_mult: 1
    decay_mult: 1
  }
  param {
    lr_mult: 2
    decay_mult: 0
  }
  convolution_param {
    num_output: 16
    kernel_size: 1
    weight_filler {
      type: "xavier"
    }
    bias_filler {
      type: "constant"
      value: 0.2
    }
  }
}
layer {
  name: "inception_4a/relu_5x5_reduce"
  type: "ReLU"
  bottom: "inception_4a/5x5_reduce"
  top: "inception_4a/5x5_reduce"
}
layer {
  name: "inception_4a/5x5"
  type: "Convolution"
  bottom: "inception_4a/5x5_reduce"
  top: "inception_4a/5x5"
  param {
    lr_mult: 1
    decay_mult: 1
  }
  param {
    lr_mult: 2
    decay_mult: 0
  }
  convolution_param {
    num_output: 48
    pad: 2
    kernel_size: 5
    weight_filler {
      type: "xavier"
    }
    bias_filler {
      type: "constant"
      value: 0.2
    }
  }
}
layer {
  name: "inception_4a/relu_5x5"
  type: "ReLU"
  bottom: "inception_4a/5x5"
  top: "inception_4a/5x5"
}
layer {
  name: "inception_4a/pool"
  type: "Pooling"
  bottom: "pool3/3x3_s2_pool3/3x3_s2_0_split_3"
  top: "inception_4a/pool"
  pooling_param {
    pool: MAX
    kernel_size: 3
    stride: 1
    pad: 1
  }
}
layer {
  name: "inception_4a/pool_proj"
  type: "Convolution"
  bottom: "inception_4a/pool"
  top: "inception_4a/pool_proj"
  param {
    lr_mult: 1
    decay_mult: 1
  }
  param {
    lr_mult: 2
    decay_mult: 0
  }
  convolution_param {
    num_output: 64
    kernel_size: 1
    weight_filler {
      type: "xavier"
    }
    bias_filler {
      type: "constant"
      value: 0.2
    }
  }
}
layer {
  name: "inception_4a/relu_pool_proj"
  type: "ReLU"
  bottom: "inception_4a/pool_proj"
  top: "inception_4a/pool_proj"
}
layer {
  name: "inception_4a/output"
  type: "Concat"
  bottom: "inception_4a/1x1"
  bottom: "inception_4a/3x3"
  bottom: "inception_4a/5x5"
  bottom: "inception_4a/pool_proj"
  top: "inception_4a/output"
}
layer {
  name: "inception_4a/output_inception_4a/output_0_split"
  type: "Split"
  bottom: "inception_4a/output"
  top: "inception_4a/output_inception_4a/output_0_split_0"
  top: "inception_4a/output_inception_4a/output_0_split_1"
  top: "inception_4a/output_inception_4a/output_0_split_2"
  top: "inception_4a/output_inception_4a/output_0_split_3"
  top: "inception_4a/output_inception_4a/output_0_split_4"
}
layer {
  name: "loss1/ave_pool"
  type: "Pooling"
  bottom: "inception_4a/output_inception_4a/output_0_split_0"
  top: "loss1/ave_pool"
  pooling_param {
    pool: AVE
    kernel_size: 5
    stride: 3
  }
}
layer {
  name: "loss1/conv"
  type: "Convolution"
  bottom: "loss1/ave_pool"
  top: "loss1/conv"
  param {
    lr_mult: 1
    decay_mult: 1
  }
  param {
    lr_mult: 2
    decay_mult: 0
  }
  convolution_param {
    num_output: 128
    kernel_size: 1
    weight_filler {
      type: "xavier"
    }
    bias_filler {
      type: "constant"
      value: 0.2
    }
  }
}
layer {
  name: "loss1/relu_conv"
  type: "ReLU"
  bottom: "loss1/conv"
  top: "loss1/conv"
}
layer {
  name: "loss1/fc"
  type: "InnerProduct"
  bottom: "loss1/conv"
  top: "loss1/fc"
  param {
    lr_mult: 1
    decay_mult: 1
  }
  param {
    lr_mult: 2
    decay_mult: 0
  }
  inner_product_param {
    num_output: 1024
    weight_filler {
      type: "xavier"
    }
    bias_filler {
      type: "constant"
      value: 0.2
    }
  }
}
layer {
  name: "loss1/relu_fc"
  type: "ReLU"
  bottom: "loss1/fc"
  top: "loss1/fc"
}
layer {
  name: "loss1/drop_fc"
  type: "Dropout"
  bottom: "loss1/fc"
  top: "loss1/fc"
  dropout_param {
    dropout_ratio: 0.7
  }
}
layer {
  name: "loss1/classifier"
  type: "InnerProduct"
  bottom: "loss1/fc"
  top: "loss1/classifier"
  param {
    lr_mult: 1
    decay_mult: 1
  }
  param {
    lr_mult: 2
    decay_mult: 0
  }
  inner_product_param {
    num_output: 1000
    weight_filler {
      type: "xavier"
    }
    bias_filler {
      type: "constant"
      value: 0
    }
  }
}
layer {
  name: "loss1/loss"
  type: "SoftmaxWithLoss"
  bottom: "loss1/classifier"
  bottom: "label_data_1_split_0"
  top: "loss1/loss1"
  loss_weight: 0.3
}
layer {
  name: "inception_4b/1x1"
  type: "Convolution"
  bottom: "inception_4a/output_inception_4a/output_0_split_1"
  top: "inception_4b/1x1"
  param {
    lr_mult: 1
    decay_mult: 1
  }
  param {
    lr_mult: 2
    decay_mult: 0
  }
  convolution_param {
    num_output: 160
    kernel_size: 1
    weight_filler {
      type: "xavier"
    }
    bias_filler {
      type: "constant"
      value: 0.2
    }
  }
}
layer {
  name: "inception_4b/relu_1x1"
  type: "ReLU"
  bottom: "inception_4b/1x1"
  top: "inception_4b/1x1"
}
layer {
  name: "inception_4b/3x3_reduce"
  type: "Convolution"
  bottom: "inception_4a/output_inception_4a/output_0_split_2"
  top: "inception_4b/3x3_reduce"
  param {
    lr_mult: 1
    decay_mult: 1
  }
  param {
    lr_mult: 2
    decay_mult: 0
  }
  convolution_param {
    num_output: 112
    kernel_size: 1
    weight_filler {
      type: "xavier"
    }
    bias_filler {
      type: "constant"
      value: 0.2
    }
  }
}
layer {
  name: "inception_4b/relu_3x3_reduce"
  type: "ReLU"
  bottom: "inception_4b/3x3_reduce"
  top: "inception_4b/3x3_reduce"
}
layer {
  name: "inception_4b/3x3"
  type: "Convolution"
  bottom: "inception_4b/3x3_reduce"
  top: "inception_4b/3x3"
  param {
    lr_mult: 1
    decay_mult: 1
  }
  param {
    lr_mult: 2
    decay_mult: 0
  }
  convolution_param {
    num_output: 224
    pad: 1
    kernel_size: 3
    weight_filler {
      type: "xavier"
    }
    bias_filler {
      type: "constant"
      value: 0.2
    }
  }
}
layer {
  name: "inception_4b/relu_3x3"
  type: "ReLU"
  bottom: "inception_4b/3x3"
  top: "inception_4b/3x3"
}
layer {
  name: "inception_4b/5x5_reduce"
  type: "Convolution"
  bottom: "inception_4a/output_inception_4a/output_0_split_3"
  top: "inception_4b/5x5_reduce"
  param {
    lr_mult: 1
    decay_mult: 1
  }
  param {
    lr_mult: 2
    decay_mult: 0
  }
  convolution_param {
    num_output: 24
    kernel_size: 1
    weight_filler {
      type: "xavier"
    }
    bias_filler {
      type: "constant"
      value: 0.2
    }
  }
}
layer {
  name: "inception_4b/relu_5x5_reduce"
  type: "ReLU"
  bottom: "inception_4b/5x5_reduce"
  top: "inception_4b/5x5_reduce"
}
layer {
  name: "inception_4b/5x5"
  type: "Convolution"
  bottom: "inception_4b/5x5_reduce"
  top: "inception_4b/5x5"
  param {
    lr_mult: 1
    decay_mult: 1
  }
  param {
    lr_mult: 2
    decay_mult: 0
  }
  convolution_param {
    num_output: 64
    pad: 2
    kernel_size: 5
    weight_filler {
      type: "xavier"
    }
    bias_filler {
      type: "constant"
      value: 0.2
    }
  }
}
layer {
  name: "inception_4b/relu_5x5"
  type: "ReLU"
  bottom: "inception_4b/5x5"
  top: "inception_4b/5x5"
}
layer {
  name: "inception_4b/pool"
  type: "Pooling"
  bottom: "inception_4a/output_inception_4a/output_0_split_4"
  top: "inception_4b/pool"
  pooling_param {
    pool: MAX
    kernel_size: 3
    stride: 1
    pad: 1
  }
}
layer {
  name: "inception_4b/pool_proj"
  type: "Convolution"
  bottom: "inception_4b/pool"
  top: "inception_4b/pool_proj"
  param {
    lr_mult: 1
    decay_mult: 1
  }
  param {
    lr_mult: 2
    decay_mult: 0
  }
  convolution_param {
    num_output: 64
    kernel_size: 1
    weight_filler {
      type: "xavier"
    }
    bias_filler {
      type: "constant"
      value: 0.2
    }
  }
}
layer {
  name: "inception_4b/relu_pool_proj"
  type: "ReLU"
  bottom: "inception_4b/pool_proj"
  top: "inception_4b/pool_proj"
}
layer {
  name: "inception_4b/output"
  type: "Concat"
  bottom: "inception_4b/1x1"
  bottom: "inception_4b/3x3"
  bottom: "inception_4b/5x5"
  bottom: "inception_4b/pool_proj"
  top: "inception_4b/output"
}
layer {
  name: "inception_4b/output_inception_4b/output_0_split"
  type: "Split"
  bottom: "inception_4b/output"
  top: "inception_4b/output_inception_4b/output_0_split_0"
  top: "inception_4b/output_inception_4b/output_0_split_1"
  top: "inception_4b/output_inception_4b/output_0_split_2"
  top: "inception_4b/output_inception_4b/output_0_split_3"
}
layer {
  name: "inception_4c/1x1"
  type: "Convolution"
  bottom: "inception_4b/output_inception_4b/output_0_split_0"
  top: "inception_4c/1x1"
  param {
    lr_mult: 1
    decay_mult: 1
  }
  param {
    lr_mult: 2
    decay_mult: 0
  }
  convolution_param {
    num_output: 128
    kernel_size: 1
    weight_filler {
      type: "xavier"
    }
    bias_filler {
      type: "constant"
      value: 0.2
    }
  }
}
layer {
  name: "inception_4c/relu_1x1"
  type: "ReLU"
  bottom: "inception_4c/1x1"
  top: "inception_4c/1x1"
}
layer {
  name: "inception_4c/3x3_reduce"
  type: "Convolution"
  bottom: "inception_4b/output_inception_4b/output_0_split_1"
  top: "inception_4c/3x3_reduce"
  param {
    lr_mult: 1
    decay_mult: 1
  }
  param {
    lr_mult: 2
    decay_mult: 0
  }
  convolution_param {
    num_output: 128
    kernel_size: 1
    weight_filler {
      type: "xavier"
    }
    bias_filler {
      type: "constant"
      value: 0.2
    }
  }
}
layer {
  name: "inception_4c/relu_3x3_reduce"
  type: "ReLU"
  bottom: "inception_4c/3x3_reduce"
  top: "inception_4c/3x3_reduce"
}
layer {
  name: "inception_4c/3x3"
  type: "Convolution"
  bottom: "inception_4c/3x3_reduce"
  top: "inception_4c/3x3"
  param {
    lr_mult: 1
    decay_mult: 1
  }
  param {
    lr_mult: 2
    decay_mult: 0
  }
  convolution_param {
    num_output: 256
    pad: 1
    kernel_size: 3
    weight_filler {
      type: "xavier"
    }
    bias_filler {
      type: "constant"
      value: 0.2
    }
  }
}
layer {
  name: "inception_4c/relu_3x3"
  type: "ReLU"
  bottom: "inception_4c/3x3"
  top: "inception_4c/3x3"
}
layer {
  name: "inception_4c/5x5_reduce"
  type: "Convolution"
  bottom: "inception_4b/output_inception_4b/output_0_split_2"
  top: "inception_4c/5x5_reduce"
  param {
    lr_mult: 1
    decay_mult: 1
  }
  param {
    lr_mult: 2
    decay_mult: 0
  }
  convolution_param {
    num_output: 24
    kernel_size: 1
    weight_filler {
      type: "xavier"
    }
    bias_filler {
      type: "constant"
      value: 0.2
    }
  }
}
layer {
  name: "inception_4c/relu_5x5_reduce"
  type: "ReLU"
  bottom: "inception_4c/5x5_reduce"
  top: "inception_4c/5x5_reduce"
}
layer {
  name: "inception_4c/5x5"
  type: "Convolution"
  bottom: "inception_4c/5x5_reduce"
  top: "inception_4c/5x5"
  param {
    lr_mult: 1
    decay_mult: 1
  }
  param {
    lr_mult: 2
    decay_mult: 0
  }
  convolution_param {
    num_output: 64
    pad: 2
    kernel_size: 5
    weight_filler {
      type: "xavier"
    }
    bias_filler {
      type: "constant"
      value: 0.2
    }
  }
}
layer {
  name: "inception_4c/relu_5x5"
  type: "ReLU"
  bottom: "inception_4c/5x5"
  top: "inception_4c/5x5"
}
layer {
  name: "inception_4c/pool"
  type: "Pooling"
  bottom: "inception_4b/output_inception_4b/output_0_split_3"
  top: "inception_4c/pool"
  pooling_param {
    pool: MAX
    kernel_size: 3
    stride: 1
    pad: 1
  }
}
layer {
  name: "inception_4c/pool_proj"
  type: "Convolution"
  bottom: "inception_4c/pool"
  top: "inception_4c/pool_proj"
  param {
    lr_mult: 1
    decay_mult: 1
  }
  param {
    lr_mult: 2
    decay_mult: 0
  }
  convolution_param {
    num_output: 64
    kernel_size: 1
    weight_filler {
      type: "xavier"
    }
    bias_filler {
      type: "constant"
      value: 0.2
    }
  }
}
layer {
  name: "inception_4c/relu_pool_proj"
  type: "ReLU"
  bottom: "inception_4c/pool_proj"
  top: "inception_4c/pool_proj"
}
layer {
  name: "inception_4c/output"
  type: "Concat"
  bottom: "inception_4c/1x1"
  bottom: "inception_4c/3x3"
  bottom: "inception_4c/5x5"
  bottom: "inception_4c/pool_proj"
  top: "inception_4c/output"
}
layer {
  name: "inception_4c/output_inception_4c/output_0_split"
  type: "Split"
  bottom: "inception_4c/output"
  top: "inception_4c/output_inception_4c/output_0_split_0"
  top: "inception_4c/output_inception_4c/output_0_split_1"
  top: "inception_4c/output_inception_4c/output_0_split_2"
  top: "inception_4c/output_inception_4c/output_0_split_3"
}
layer {
  name: "inception_4d/1x1"
  type: "Convolution"
  bottom: "inception_4c/output_inception_4c/output_0_split_0"
  top: "inception_4d/1x1"
  param {
    lr_mult: 1
    decay_mult: 1
  }
  param {
    lr_mult: 2
    decay_mult: 0
  }
  convolution_param {
    num_output: 112
    kernel_size: 1
    weight_filler {
      type: "xavier"
    }
    bias_filler {
      type: "constant"
      value: 0.2
    }
  }
}
layer {
  name: "inception_4d/relu_1x1"
  type: "ReLU"
  bottom: "inception_4d/1x1"
  top: "inception_4d/1x1"
}
layer {
  name: "inception_4d/3x3_reduce"
  type: "Convolution"
  bottom: "inception_4c/output_inception_4c/output_0_split_1"
  top: "inception_4d/3x3_reduce"
  param {
    lr_mult: 1
    decay_mult: 1
  }
  param {
    lr_mult: 2
    decay_mult: 0
  }
  convolution_param {
    num_output: 144
    kernel_size: 1
    weight_filler {
      type: "xavier"
    }
    bias_filler {
      type: "constant"
      value: 0.2
    }
  }
}
layer {
  name: "inception_4d/relu_3x3_reduce"
  type: "ReLU"
  bottom: "inception_4d/3x3_reduce"
  top: "inception_4d/3x3_reduce"
}
layer {
  name: "inception_4d/3x3"
  type: "Convolution"
  bottom: "inception_4d/3x3_reduce"
  top: "inception_4d/3x3"
  param {
    lr_mult: 1
    decay_mult: 1
  }
  param {
    lr_mult: 2
    decay_mult: 0
  }
  convolution_param {
    num_output: 288
    pad: 1
    kernel_size: 3
    weight_filler {
      type: "xavier"
    }
    bias_filler {
      type: "constant"
      value: 0.2
    }
  }
}
layer {
  name: "inception_4d/relu_3x3"
  type: "ReLU"
  bottom: "inception_4d/3x3"
  top: "inception_4d/3x3"
}
layer {
  name: "inception_4d/5x5_reduce"
  type: "Convolution"
  bottom: "inception_4c/output_inception_4c/output_0_split_2"
  top: "inception_4d/5x5_reduce"
  param {
    lr_mult: 1
    decay_mult: 1
  }
  param {
    lr_mult: 2
    decay_mult: 0
  }
  convolution_param {
    num_output: 32
    kernel_size: 1
    weight_filler {
      type: "xavier"
    }
    bias_filler {
      type: "constant"
      value: 0.2
    }
  }
}
layer {
  name: "inception_4d/relu_5x5_reduce"
  type: "ReLU"
  bottom: "inception_4d/5x5_reduce"
  top: "inception_4d/5x5_reduce"
}
layer {
  name: "inception_4d/5x5"
  type: "Convolution"
  bottom: "inception_4d/5x5_reduce"
  top: "inception_4d/5x5"
  param {
    lr_mult: 1
    decay_mult: 1
  }
  param {
    lr_mult: 2
    decay_mult: 0
  }
  convolution_param {
    num_output: 64
    pad: 2
    kernel_size: 5
    weight_filler {
      type: "xavier"
    }
    bias_filler {
      type: "constant"
      value: 0.2
    }
  }
}
layer {
  name: "inception_4d/relu_5x5"
  type: "ReLU"
  bottom: "inception_4d/5x5"
  top: "inception_4d/5x5"
}
layer {
  name: "inception_4d/pool"
  type: "Pooling"
  bottom: "inception_4c/output_inception_4c/output_0_split_3"
  top: "inception_4d/pool"
  pooling_param {
    pool: MAX
    kernel_size: 3
    stride: 1
    pad: 1
  }
}
layer {
  name: "inception_4d/pool_proj"
  type: "Convolution"
  bottom: "inception_4d/pool"
  top: "inception_4d/pool_proj"
  param {
    lr_mult: 1
    decay_mult: 1
  }
  param {
    lr_mult: 2
    decay_mult: 0
  }
  convolution_param {
    num_output: 64
    kernel_size: 1
    weight_filler {
      type: "xavier"
    }
    bias_filler {
      type: "constant"
      value: 0.2
    }
  }
}
layer {
  name: "inception_4d/relu_pool_proj"
  type: "ReLU"
  bottom: "inception_4d/pool_proj"
  top: "inception_4d/pool_proj"
}
layer {
  name: "inception_4d/output"
  type: "Concat"
  bottom: "inception_4d/1x1"
  bottom: "inception_4d/3x3"
  bottom: "inception_4d/5x5"
  bottom: "inception_4d/pool_proj"
  top: "inception_4d/output"
}
layer {
  name: "inception_4d/output_inception_4d/output_0_split"
  type: "Split"
  bottom: "inception_4d/output"
  top: "inception_4d/output_inception_4d/output_0_split_0"
  top: "inception_4d/output_inception_4d/output_0_split_1"
  top: "inception_4d/output_inception_4d/output_0_split_2"
  top: "inception_4d/output_inception_4d/output_0_split_3"
  top: "inception_4d/output_inception_4d/output_0_split_4"
}
layer {
  name: "loss2/ave_pool"
  type: "Pooling"
  bottom: "inception_4d/output_inception_4d/output_0_split_0"
  top: "loss2/ave_pool"
  pooling_param {
    pool: AVE
    kernel_size: 5
    stride: 3
  }
}
layer {
  name: "loss2/conv"
  type: "Convolution"
  bottom: "loss2/ave_pool"
  top: "loss2/conv"
  param {
    lr_mult: 1
    decay_mult: 1
  }
  param {
    lr_mult: 2
    decay_mult: 0
  }
  convolution_param {
    num_output: 128
    kernel_size: 1
    weight_filler {
      type: "xavier"
    }
    bias_filler {
      type: "constant"
      value: 0.2
    }
  }
}
layer {
  name: "loss2/relu_conv"
  type: "ReLU"
  bottom: "loss2/conv"
  top: "loss2/conv"
}
layer {
  name: "loss2/fc"
  type: "InnerProduct"
  bottom: "loss2/conv"
  top: "loss2/fc"
  param {
    lr_mult: 1
    decay_mult: 1
  }
  param {
    lr_mult: 2
    decay_mult: 0
  }
  inner_product_param {
    num_output: 1024
    weight_filler {
      type: "xavier"
    }
    bias_filler {
      type: "constant"
      value: 0.2
    }
  }
}
layer {
  name: "loss2/relu_fc"
  type: "ReLU"
  bottom: "loss2/fc"
  top: "loss2/fc"
}
layer {
  name: "l
I0331 19:08:02.017045 136016 layer_factory.hpp:114] Creating layer data
I0331 19:08:02.017730 136016 net.cpp:160] Creating Layer data
I0331 19:08:02.017750 136016 net.cpp:570] data -> data
I0331 19:08:02.017777 136016 net.cpp:570] data -> label
I0331 19:08:02.017940 136017 db_lmdb.cpp:72] Opened lmdb /home/proy/LIBRARIES/caffeLibs/caffe/examples/imagenet/ilsvrc12_train_lmdb
I0331 19:08:02.018445 136016 data_layer.cpp:80] output data size: 112,3,224,224
I0331 19:08:02.092696 136016 net.cpp:210] Setting up data
I0331 19:08:02.092788 136016 net.cpp:217] Top shape: 112 3 224 224 (16859136)
I0331 19:08:02.092839 136016 net.cpp:217] Top shape: 112 (112)
I0331 19:08:02.092846 136016 net.cpp:225] Memory required for data: 67436992
I0331 19:08:02.092864 136016 layer_factory.hpp:114] Creating layer label_data_1_split
I0331 19:08:02.092900 136016 net.cpp:160] Creating Layer label_data_1_split
I0331 19:08:02.092913 136016 net.cpp:596] label_data_1_split <- label
I0331 19:08:02.092931 136016 net.cpp:570] label_data_1_split -> label_data_1_split_0
I0331 19:08:02.092952 136016 net.cpp:570] label_data_1_split -> label_data_1_split_1
I0331 19:08:02.092967 136016 net.cpp:570] label_data_1_split -> label_data_1_split_2
I0331 19:08:02.092986 136016 net.cpp:210] Setting up label_data_1_split
I0331 19:08:02.092998 136016 net.cpp:217] Top shape: 112 (112)
I0331 19:08:02.093008 136016 net.cpp:217] Top shape: 112 (112)
I0331 19:08:02.093016 136016 net.cpp:217] Top shape: 112 (112)
I0331 19:08:02.093024 136016 net.cpp:225] Memory required for data: 67438336
I0331 19:08:02.093031 136016 layer_factory.hpp:114] Creating layer conv1/7x7_s2
I0331 19:08:02.093062 136016 net.cpp:160] Creating Layer conv1/7x7_s2
I0331 19:08:02.093071 136016 net.cpp:596] conv1/7x7_s2 <- data
I0331 19:08:02.093083 136016 net.cpp:570] conv1/7x7_s2 -> conv1/7x7_s2
I0331 19:08:02.168942 136016 net.cpp:210] Setting up conv1/7x7_s2
I0331 19:08:02.169018 136016 net.cpp:217] Top shape: 112 64 112 112 (89915392)
I0331 19:08:02.169026 136016 net.cpp:225] Memory required for data: 427099904
I0331 19:08:02.169066 136016 layer_factory.hpp:114] Creating layer conv1/relu_7x7
I0331 19:08:02.169093 136016 net.cpp:160] Creating Layer conv1/relu_7x7
I0331 19:08:02.169104 136016 net.cpp:596] conv1/relu_7x7 <- conv1/7x7_s2
I0331 19:08:02.169121 136016 net.cpp:557] conv1/relu_7x7 -> conv1/7x7_s2 (in-place)
I0331 19:08:02.169143 136016 net.cpp:210] Setting up conv1/relu_7x7
I0331 19:08:02.169153 136016 net.cpp:217] Top shape: 112 64 112 112 (89915392)
I0331 19:08:02.169160 136016 net.cpp:225] Memory required for data: 786761472
I0331 19:08:02.169168 136016 layer_factory.hpp:114] Creating layer pool1/3x3_s2
I0331 19:08:02.169292 136016 net.cpp:160] Creating Layer pool1/3x3_s2
I0331 19:08:02.169304 136016 net.cpp:596] pool1/3x3_s2 <- conv1/7x7_s2
I0331 19:08:02.169320 136016 net.cpp:570] pool1/3x3_s2 -> pool1/3x3_s2
I0331 19:08:02.169345 136016 net.cpp:210] Setting up pool1/3x3_s2
I0331 19:08:02.169356 136016 net.cpp:217] Top shape: 112 64 56 56 (22478848)
I0331 19:08:02.169363 136016 net.cpp:225] Memory required for data: 876676864
I0331 19:08:02.169370 136016 layer_factory.hpp:114] Creating layer pool1/norm1
I0331 19:08:02.169385 136016 net.cpp:160] Creating Layer pool1/norm1
I0331 19:08:02.169394 136016 net.cpp:596] pool1/norm1 <- pool1/3x3_s2
I0331 19:08:02.169404 136016 net.cpp:570] pool1/norm1 -> pool1/norm1
I0331 19:08:02.169430 136016 net.cpp:210] Setting up pool1/norm1
I0331 19:08:02.169441 136016 net.cpp:217] Top shape: 112 64 56 56 (22478848)
I0331 19:08:02.169448 136016 net.cpp:225] Memory required for data: 966592256
I0331 19:08:02.169456 136016 layer_factory.hpp:114] Creating layer conv2/3x3_reduce
I0331 19:08:02.169502 136016 net.cpp:160] Creating Layer conv2/3x3_reduce
I0331 19:08:02.169513 136016 net.cpp:596] conv2/3x3_reduce <- pool1/norm1
I0331 19:08:02.169524 136016 net.cpp:570] conv2/3x3_reduce -> conv2/3x3_reduce
I0331 19:08:02.178673 136016 net.cpp:210] Setting up conv2/3x3_reduce
I0331 19:08:02.178709 136016 net.cpp:217] Top shape: 112 64 56 56 (22478848)
I0331 19:08:02.178716 136016 net.cpp:225] Memory required for data: 1056507648
I0331 19:08:02.178736 136016 layer_factory.hpp:114] Creating layer conv2/relu_3x3_reduce
I0331 19:08:02.178753 136016 net.cpp:160] Creating Layer conv2/relu_3x3_reduce
I0331 19:08:02.178762 136016 net.cpp:596] conv2/relu_3x3_reduce <- conv2/3x3_reduce
I0331 19:08:02.178772 136016 net.cpp:557] conv2/relu_3x3_reduce -> conv2/3x3_reduce (in-place)
I0331 19:08:02.178786 136016 net.cpp:210] Setting up conv2/relu_3x3_reduce
I0331 19:08:02.178795 136016 net.cpp:217] Top shape: 112 64 56 56 (22478848)
I0331 19:08:02.178802 136016 net.cpp:225] Memory required for data: 1146423040
I0331 19:08:02.178833 136016 layer_factory.hpp:114] Creating layer conv2/3x3
I0331 19:08:02.178855 136016 net.cpp:160] Creating Layer conv2/3x3
I0331 19:08:02.178864 136016 net.cpp:596] conv2/3x3 <- conv2/3x3_reduce
I0331 19:08:02.178875 136016 net.cpp:570] conv2/3x3 -> conv2/3x3
I0331 19:08:02.258252 136016 net.cpp:210] Setting up conv2/3x3
I0331 19:08:02.258327 136016 net.cpp:217] Top shape: 112 192 56 56 (67436544)
I0331 19:08:02.258335 136016 net.cpp:225] Memory required for data: 1416169216
I0331 19:08:02.258369 136016 layer_factory.hpp:114] Creating layer conv2/relu_3x3
I0331 19:08:02.258394 136016 net.cpp:160] Creating Layer conv2/relu_3x3
I0331 19:08:02.258406 136016 net.cpp:596] conv2/relu_3x3 <- conv2/3x3
I0331 19:08:02.258425 136016 net.cpp:557] conv2/relu_3x3 -> conv2/3x3 (in-place)
I0331 19:08:02.258445 136016 net.cpp:210] Setting up conv2/relu_3x3
I0331 19:08:02.258456 136016 net.cpp:217] Top shape: 112 192 56 56 (67436544)
I0331 19:08:02.258462 136016 net.cpp:225] Memory required for data: 1685915392
I0331 19:08:02.258469 136016 layer_factory.hpp:114] Creating layer conv2/norm2
I0331 19:08:02.258486 136016 net.cpp:160] Creating Layer conv2/norm2
I0331 19:08:02.258493 136016 net.cpp:596] conv2/norm2 <- conv2/3x3
I0331 19:08:02.258509 136016 net.cpp:570] conv2/norm2 -> conv2/norm2
I0331 19:08:02.258534 136016 net.cpp:210] Setting up conv2/norm2
I0331 19:08:02.258545 136016 net.cpp:217] Top shape: 112 192 56 56 (67436544)
I0331 19:08:02.258553 136016 net.cpp:225] Memory required for data: 1955661568
I0331 19:08:02.258559 136016 layer_factory.hpp:114] Creating layer pool2/3x3_s2
I0331 19:08:02.258633 136016 net.cpp:160] Creating Layer pool2/3x3_s2
I0331 19:08:02.258649 136016 net.cpp:596] pool2/3x3_s2 <- conv2/norm2
I0331 19:08:02.258664 136016 net.cpp:570] pool2/3x3_s2 -> pool2/3x3_s2
I0331 19:08:02.258685 136016 net.cpp:210] Setting up pool2/3x3_s2
I0331 19:08:02.258697 136016 net.cpp:217] Top shape: 112 192 28 28 (16859136)
I0331 19:08:02.258703 136016 net.cpp:225] Memory required for data: 2023098112
I0331 19:08:02.258710 136016 layer_factory.hpp:114] Creating layer pool2/3x3_s2_pool2/3x3_s2_0_split
I0331 19:08:02.258725 136016 net.cpp:160] Creating Layer pool2/3x3_s2_pool2/3x3_s2_0_split
I0331 19:08:02.258733 136016 net.cpp:596] pool2/3x3_s2_pool2/3x3_s2_0_split <- pool2/3x3_s2
I0331 19:08:02.258745 136016 net.cpp:570] pool2/3x3_s2_pool2/3x3_s2_0_split -> pool2/3x3_s2_pool2/3x3_s2_0_split_0
I0331 19:08:02.258759 136016 net.cpp:570] pool2/3x3_s2_pool2/3x3_s2_0_split -> pool2/3x3_s2_pool2/3x3_s2_0_split_1
I0331 19:08:02.258771 136016 net.cpp:570] pool2/3x3_s2_pool2/3x3_s2_0_split -> pool2/3x3_s2_pool2/3x3_s2_0_split_2
I0331 19:08:02.258783 136016 net.cpp:570] pool2/3x3_s2_pool2/3x3_s2_0_split -> pool2/3x3_s2_pool2/3x3_s2_0_split_3
I0331 19:08:02.258797 136016 net.cpp:210] Setting up pool2/3x3_s2_pool2/3x3_s2_0_split
I0331 19:08:02.258807 136016 net.cpp:217] Top shape: 112 192 28 28 (16859136)
I0331 19:08:02.258817 136016 net.cpp:217] Top shape: 112 192 28 28 (16859136)
I0331 19:08:02.258847 136016 net.cpp:217] Top shape: 112 192 28 28 (16859136)
I0331 19:08:02.258857 136016 net.cpp:217] Top shape: 112 192 28 28 (16859136)
I0331 19:08:02.258863 136016 net.cpp:225] Memory required for data: 2292844288
I0331 19:08:02.258870 136016 layer_factory.hpp:114] Creating layer inception_3a/1x1
I0331 19:08:02.258895 136016 net.cpp:160] Creating Layer inception_3a/1x1
I0331 19:08:02.258904 136016 net.cpp:596] inception_3a/1x1 <- pool2/3x3_s2_pool2/3x3_s2_0_split_0
I0331 19:08:02.258919 136016 net.cpp:570] inception_3a/1x1 -> inception_3a/1x1
I0331 19:08:02.267266 136016 net.cpp:210] Setting up inception_3a/1x1
I0331 19:08:02.267297 136016 net.cpp:217] Top shape: 112 64 28 28 (5619712)
I0331 19:08:02.267304 136016 net.cpp:225] Memory required for data: 2315323136
I0331 19:08:02.267318 136016 layer_factory.hpp:114] Creating layer inception_3a/relu_1x1
I0331 19:08:02.267335 136016 net.cpp:160] Creating Layer inception_3a/relu_1x1
I0331 19:08:02.267343 136016 net.cpp:596] inception_3a/relu_1x1 <- inception_3a/1x1
I0331 19:08:02.267377 136016 net.cpp:557] inception_3a/relu_1x1 -> inception_3a/1x1 (in-place)
I0331 19:08:02.267391 136016 net.cpp:210] Setting up inception_3a/relu_1x1
I0331 19:08:02.267401 136016 net.cpp:217] Top shape: 112 64 28 28 (5619712)
I0331 19:08:02.267408 136016 net.cpp:225] Memory required for data: 2337801984
I0331 19:08:02.267416 136016 layer_factory.hpp:114] Creating layer inception_3a/3x3_reduce
I0331 19:08:02.267432 136016 net.cpp:160] Creating Layer inception_3a/3x3_reduce
I0331 19:08:02.267441 136016 net.cpp:596] inception_3a/3x3_reduce <- pool2/3x3_s2_pool2/3x3_s2_0_split_1
I0331 19:08:02.267473 136016 net.cpp:570] inception_3a/3x3_reduce -> inception_3a/3x3_reduce
I0331 19:08:02.276409 136016 net.cpp:210] Setting up inception_3a/3x3_reduce
I0331 19:08:02.276439 136016 net.cpp:217] Top shape: 112 96 28 28 (8429568)
I0331 19:08:02.276446 136016 net.cpp:225] Memory required for data: 2371520256
I0331 19:08:02.276468 136016 layer_factory.hpp:114] Creating layer inception_3a/relu_3x3_reduce
I0331 19:08:02.276487 136016 net.cpp:160] Creating Layer inception_3a/relu_3x3_reduce
I0331 19:08:02.276497 136016 net.cpp:596] inception_3a/relu_3x3_reduce <- inception_3a/3x3_reduce
I0331 19:08:02.276511 136016 net.cpp:557] inception_3a/relu_3x3_reduce -> inception_3a/3x3_reduce (in-place)
I0331 19:08:02.276525 136016 net.cpp:210] Setting up inception_3a/relu_3x3_reduce
I0331 19:08:02.276533 136016 net.cpp:217] Top shape: 112 96 28 28 (8429568)
I0331 19:08:02.276540 136016 net.cpp:225] Memory required for data: 2405238528
I0331 19:08:02.276546 136016 layer_factory.hpp:114] Creating layer inception_3a/3x3
I0331 19:08:02.276562 136016 net.cpp:160] Creating Layer inception_3a/3x3
I0331 19:08:02.276571 136016 net.cpp:596] inception_3a/3x3 <- inception_3a/3x3_reduce
I0331 19:08:02.276583 136016 net.cpp:570] inception_3a/3x3 -> inception_3a/3x3
I0331 19:08:02.310050 136016 net.cpp:210] Setting up inception_3a/3x3
I0331 19:08:02.310101 136016 net.cpp:217] Top shape: 112 128 28 28 (11239424)
I0331 19:08:02.310106 136016 net.cpp:225] Memory required for data: 2450196224
I0331 19:08:02.310122 136016 layer_factory.hpp:114] Creating layer inception_3a/relu_3x3
I0331 19:08:02.310137 136016 net.cpp:160] Creating Layer inception_3a/relu_3x3
I0331 19:08:02.310143 136016 net.cpp:596] inception_3a/relu_3x3 <- inception_3a/3x3
I0331 19:08:02.310158 136016 net.cpp:557] inception_3a/relu_3x3 -> inception_3a/3x3 (in-place)
I0331 19:08:02.310171 136016 net.cpp:210] Setting up inception_3a/relu_3x3
I0331 19:08:02.310176 136016 net.cpp:217] Top shape: 112 128 28 28 (11239424)
I0331 19:08:02.310180 136016 net.cpp:225] Memory required for data: 2495153920
I0331 19:08:02.310184 136016 layer_factory.hpp:114] Creating layer inception_3a/5x5_reduce
I0331 19:08:02.310199 136016 net.cpp:160] Creating Layer inception_3a/5x5_reduce
I0331 19:08:02.310204 136016 net.cpp:596] inception_3a/5x5_reduce <- pool2/3x3_s2_pool2/3x3_s2_0_split_2
I0331 19:08:02.310214 136016 net.cpp:570] inception_3a/5x5_reduce -> inception_3a/5x5_reduce
I0331 19:08:02.316315 136016 net.cpp:210] Setting up inception_3a/5x5_reduce
I0331 19:08:02.316328 136016 net.cpp:217] Top shape: 112 16 28 28 (1404928)
I0331 19:08:02.316331 136016 net.cpp:225] Memory required for data: 2500773632
I0331 19:08:02.316339 136016 layer_factory.hpp:114] Creating layer inception_3a/relu_5x5_reduce
I0331 19:08:02.316346 136016 net.cpp:160] Creating Layer inception_3a/relu_5x5_reduce
I0331 19:08:02.316351 136016 net.cpp:596] inception_3a/relu_5x5_reduce <- inception_3a/5x5_reduce
I0331 19:08:02.316359 136016 net.cpp:557] inception_3a/relu_5x5_reduce -> inception_3a/5x5_reduce (in-place)
I0331 19:08:02.316365 136016 net.cpp:210] Setting up inception_3a/relu_5x5_reduce
I0331 19:08:02.316371 136016 net.cpp:217] Top shape: 112 16 28 28 (1404928)
I0331 19:08:02.316375 136016 net.cpp:225] Memory required for data: 2506393344
I0331 19:08:02.316378 136016 layer_factory.hpp:114] Creating layer inception_3a/5x5
I0331 19:08:02.316390 136016 net.cpp:160] Creating Layer inception_3a/5x5
I0331 19:08:02.316412 136016 net.cpp:596] inception_3a/5x5 <- inception_3a/5x5_reduce
I0331 19:08:02.316421 136016 net.cpp:570] inception_3a/5x5 -> inception_3a/5x5
I0331 19:08:02.329300 136016 net.cpp:210] Setting up inception_3a/5x5
I0331 19:08:02.329334 136016 net.cpp:217] Top shape: 112 32 28 28 (2809856)
I0331 19:08:02.329337 136016 net.cpp:225] Memory required for data: 2517632768
I0331 19:08:02.329349 136016 layer_factory.hpp:114] Creating layer inception_3a/relu_5x5
I0331 19:08:02.329358 136016 net.cpp:160] Creating Layer inception_3a/relu_5x5
I0331 19:08:02.329367 136016 net.cpp:596] inception_3a/relu_5x5 <- inception_3a/5x5
I0331 19:08:02.329378 136016 net.cpp:557] inception_3a/relu_5x5 -> inception_3a/5x5 (in-place)
I0331 19:08:02.329387 136016 net.cpp:210] Setting up inception_3a/relu_5x5
I0331 19:08:02.329393 136016 net.cpp:217] Top shape: 112 32 28 28 (2809856)
I0331 19:08:02.329397 136016 net.cpp:225] Memory required for data: 2528872192
I0331 19:08:02.329401 136016 layer_factory.hpp:114] Creating layer inception_3a/pool
I0331 19:08:02.329437 136016 net.cpp:160] Creating Layer inception_3a/pool
I0331 19:08:02.329442 136016 net.cpp:596] inception_3a/pool <- pool2/3x3_s2_pool2/3x3_s2_0_split_3
I0331 19:08:02.329452 136016 net.cpp:570] inception_3a/pool -> inception_3a/pool
I0331 19:08:02.329464 136016 net.cpp:210] Setting up inception_3a/pool
I0331 19:08:02.329471 136016 net.cpp:217] Top shape: 112 192 28 28 (16859136)
I0331 19:08:02.329475 136016 net.cpp:225] Memory required for data: 2596308736
I0331 19:08:02.329479 136016 layer_factory.hpp:114] Creating layer inception_3a/pool_proj
I0331 19:08:02.329493 136016 net.cpp:160] Creating Layer inception_3a/pool_proj
I0331 19:08:02.329497 136016 net.cpp:596] inception_3a/pool_proj <- inception_3a/pool
I0331 19:08:02.329506 136016 net.cpp:570] inception_3a/pool_proj -> inception_3a/pool_proj
I0331 19:08:02.335268 136016 net.cpp:210] Setting up inception_3a/pool_proj
I0331 19:08:02.335278 136016 net.cpp:217] Top shape: 112 32 28 28 (2809856)
I0331 19:08:02.335283 136016 net.cpp:225] Memory required for data: 2607548160
I0331 19:08:02.335299 136016 layer_factory.hpp:114] Creating layer inception_3a/relu_pool_proj
I0331 19:08:02.335305 136016 net.cpp:160] Creating Layer inception_3a/relu_pool_proj
I0331 19:08:02.335310 136016 net.cpp:596] inception_3a/relu_pool_proj <- inception_3a/pool_proj
I0331 19:08:02.335319 136016 net.cpp:557] inception_3a/relu_pool_proj -> inception_3a/pool_proj (in-place)
I0331 19:08:02.335325 136016 net.cpp:210] Setting up inception_3a/relu_pool_proj
I0331 19:08:02.335331 136016 net.cpp:217] Top shape: 112 32 28 28 (2809856)
I0331 19:08:02.335335 136016 net.cpp:225] Memory required for data: 2618787584
I0331 19:08:02.335338 136016 layer_factory.hpp:114] Creating layer inception_3a/output
I0331 19:08:02.335347 136016 net.cpp:160] Creating Layer inception_3a/output
I0331 19:08:02.335351 136016 net.cpp:596] inception_3a/output <- inception_3a/1x1
I0331 19:08:02.335356 136016 net.cpp:596] inception_3a/output <- inception_3a/3x3
I0331 19:08:02.335362 136016 net.cpp:596] inception_3a/output <- inception_3a/5x5
I0331 19:08:02.335379 136016 net.cpp:596] inception_3a/output <- inception_3a/pool_proj
I0331 19:08:02.335386 136016 net.cpp:570] inception_3a/output -> inception_3a/output
I0331 19:08:02.335402 136016 net.cpp:210] Setting up inception_3a/output
I0331 19:08:02.335408 136016 net.cpp:217] Top shape: 112 256 28 28 (22478848)
I0331 19:08:02.335412 136016 net.cpp:225] Memory required for data: 2708702976
I0331 19:08:02.335417 136016 layer_factory.hpp:114] Creating layer inception_3a/output_inception_3a/output_0_split
I0331 19:08:02.335428 136016 net.cpp:160] Creating Layer inception_3a/output_inception_3a/output_0_split
I0331 19:08:02.335433 136016 net.cpp:596] inception_3a/output_inception_3a/output_0_split <- inception_3a/output
I0331 19:08:02.335439 136016 net.cpp:570] inception_3a/output_inception_3a/output_0_split -> inception_3a/output_inception_3a/output_0_split_0
I0331 19:08:02.335446 136016 net.cpp:570] inception_3a/output_inception_3a/output_0_split -> inception_3a/output_inception_3a/output_0_split_1
I0331 19:08:02.335469 136016 net.cpp:570] inception_3a/output_inception_3a/output_0_split -> inception_3a/output_inception_3a/output_0_split_2
I0331 19:08:02.335477 136016 net.cpp:570] inception_3a/output_inception_3a/output_0_split -> inception_3a/output_inception_3a/output_0_split_3
I0331 19:08:02.335486 136016 net.cpp:210] Setting up inception_3a/output_inception_3a/output_0_split
I0331 19:08:02.335491 136016 net.cpp:217] Top shape: 112 256 28 28 (22478848)
I0331 19:08:02.335496 136016 net.cpp:217] Top shape: 112 256 28 28 (22478848)
I0331 19:08:02.335501 136016 net.cpp:217] Top shape: 112 256 28 28 (22478848)
I0331 19:08:02.335505 136016 net.cpp:217] Top shape: 112 256 28 28 (22478848)
I0331 19:08:02.335510 136016 net.cpp:225] Memory required for data: 3068364544
I0331 19:08:02.335512 136016 layer_factory.hpp:114] Creating layer inception_3b/1x1
I0331 19:08:02.335523 136016 net.cpp:160] Creating Layer inception_3b/1x1
I0331 19:08:02.335527 136016 net.cpp:596] inception_3b/1x1 <- inception_3a/output_inception_3a/output_0_split_0
I0331 19:08:02.335536 136016 net.cpp:570] inception_3b/1x1 -> inception_3b/1x1
I0331 19:08:02.345351 136016 net.cpp:210] Setting up inception_3b/1x1
I0331 19:08:02.345371 136016 net.cpp:217] Top shape: 112 128 28 28 (11239424)
I0331 19:08:02.345376 136016 net.cpp:225] Memory required for data: 3113322240
I0331 19:08:02.345384 136016 layer_factory.hpp:114] Creating layer inception_3b/relu_1x1
I0331 19:08:02.345396 136016 net.cpp:160] Creating Layer inception_3b/relu_1x1
I0331 19:08:02.345401 136016 net.cpp:596] inception_3b/relu_1x1 <- inception_3b/1x1
I0331 19:08:02.345407 136016 net.cpp:557] inception_3b/relu_1x1 -> inception_3b/1x1 (in-place)
I0331 19:08:02.345418 136016 net.cpp:210] Setting up inception_3b/relu_1x1
I0331 19:08:02.345423 136016 net.cpp:217] Top shape: 112 128 28 28 (11239424)
I0331 19:08:02.345427 136016 net.cpp:225] Memory required for data: 3158279936
I0331 19:08:02.345432 136016 layer_factory.hpp:114] Creating layer inception_3b/3x3_reduce
I0331 19:08:02.345441 136016 net.cpp:160] Creating Layer inception_3b/3x3_reduce
I0331 19:08:02.345445 136016 net.cpp:596] inception_3b/3x3_reduce <- inception_3a/output_inception_3a/output_0_split_1
I0331 19:08:02.345454 136016 net.cpp:570] inception_3b/3x3_reduce -> inception_3b/3x3_reduce
I0331 19:08:02.354759 136016 net.cpp:210] Setting up inception_3b/3x3_reduce
I0331 19:08:02.354776 136016 net.cpp:217] Top shape: 112 128 28 28 (11239424)
I0331 19:08:02.354780 136016 net.cpp:225] Memory required for data: 3203237632
I0331 19:08:02.354787 136016 layer_factory.hpp:114] Creating layer inception_3b/relu_3x3_reduce
I0331 19:08:02.354795 136016 net.cpp:160] Creating Layer inception_3b/relu_3x3_reduce
I0331 19:08:02.354800 136016 net.cpp:596] inception_3b/relu_3x3_reduce <- inception_3b/3x3_reduce
I0331 19:08:02.354809 136016 net.cpp:557] inception_3b/relu_3x3_reduce -> inception_3b/3x3_reduce (in-place)
I0331 19:08:02.354817 136016 net.cpp:210] Setting up inception_3b/relu_3x3_reduce
I0331 19:08:02.354835 136016 net.cpp:217] Top shape: 112 128 28 28 (11239424)
I0331 19:08:02.354840 136016 net.cpp:225] Memory required for data: 3248195328
I0331 19:08:02.354843 136016 layer_factory.hpp:114] Creating layer inception_3b/3x3
I0331 19:08:02.354858 136016 net.cpp:160] Creating Layer inception_3b/3x3
I0331 19:08:02.354863 136016 net.cpp:596] inception_3b/3x3 <- inception_3b/3x3_reduce
I0331 19:08:02.354872 136016 net.cpp:570] inception_3b/3x3 -> inception_3b/3x3
I0331 19:08:02.397622 136016 net.cpp:210] Setting up inception_3b/3x3
I0331 19:08:02.397670 136016 net.cpp:217] Top shape: 112 192 28 28 (16859136)
I0331 19:08:02.397675 136016 net.cpp:225] Memory required for data: 3315631872
I0331 19:08:02.397689 136016 layer_factory.hpp:114] Creating layer inception_3b/relu_3x3
I0331 19:08:02.397707 136016 net.cpp:160] Creating Layer inception_3b/relu_3x3
I0331 19:08:02.397716 136016 net.cpp:596] inception_3b/relu_3x3 <- inception_3b/3x3
I0331 19:08:02.397727 136016 net.cpp:557] inception_3b/relu_3x3 -> inception_3b/3x3 (in-place)
I0331 19:08:02.397763 136016 net.cpp:210] Setting up inception_3b/relu_3x3
I0331 19:08:02.397769 136016 net.cpp:217] Top shape: 112 192 28 28 (16859136)
I0331 19:08:02.397773 136016 net.cpp:225] Memory required for data: 3383068416
I0331 19:08:02.397778 136016 layer_factory.hpp:114] Creating layer inception_3b/5x5_reduce
I0331 19:08:02.397792 136016 net.cpp:160] Creating Layer inception_3b/5x5_reduce
I0331 19:08:02.397797 136016 net.cpp:596] inception_3b/5x5_reduce <- inception_3a/output_inception_3a/output_0_split_2
I0331 19:08:02.397806 136016 net.cpp:570] inception_3b/5x5_reduce -> inception_3b/5x5_reduce
I0331 19:08:02.405818 136016 net.cpp:210] Setting up inception_3b/5x5_reduce
I0331 19:08:02.405830 136016 net.cpp:217] Top shape: 112 32 28 28 (2809856)
I0331 19:08:02.405835 136016 net.cpp:225] Memory required for data: 3394307840
I0331 19:08:02.405843 136016 layer_factory.hpp:114] Creating layer inception_3b/relu_5x5_reduce
I0331 19:08:02.405851 136016 net.cpp:160] Creating Layer inception_3b/relu_5x5_reduce
I0331 19:08:02.405858 136016 net.cpp:596] inception_3b/relu_5x5_reduce <- inception_3b/5x5_reduce
I0331 19:08:02.405864 136016 net.cpp:557] inception_3b/relu_5x5_reduce -> inception_3b/5x5_reduce (in-place)
I0331 19:08:02.405870 136016 net.cpp:210] Setting up inception_3b/relu_5x5_reduce
I0331 19:08:02.405875 136016 net.cpp:217] Top shape: 112 32 28 28 (2809856)
I0331 19:08:02.405879 136016 net.cpp:225] Memory required for data: 3405547264
I0331 19:08:02.405884 136016 layer_factory.hpp:114] Creating layer inception_3b/5x5
I0331 19:08:02.405894 136016 net.cpp:160] Creating Layer inception_3b/5x5
I0331 19:08:02.405899 136016 net.cpp:596] inception_3b/5x5 <- inception_3b/5x5_reduce
I0331 19:08:02.405906 136016 net.cpp:570] inception_3b/5x5 -> inception_3b/5x5
I0331 19:08:02.432723 136016 net.cpp:210] Setting up inception_3b/5x5
I0331 19:08:02.432771 136016 net.cpp:217] Top shape: 112 96 28 28 (8429568)
I0331 19:08:02.432776 136016 net.cpp:225] Memory required for data: 3439265536
I0331 19:08:02.432793 136016 layer_factory.hpp:114] Creating layer inception_3b/relu_5x5
I0331 19:08:02.432809 136016 net.cpp:160] Creating Layer inception_3b/relu_5x5
I0331 19:08:02.432818 136016 net.cpp:596] inception_3b/relu_5x5 <- inception_3b/5x5
I0331 19:08:02.432832 136016 net.cpp:557] inception_3b/relu_5x5 -> inception_3b/5x5 (in-place)
I0331 19:08:02.432844 136016 net.cpp:210] Setting up inception_3b/relu_5x5
I0331 19:08:02.432850 136016 net.cpp:217] Top shape: 112 96 28 28 (8429568)
I0331 19:08:02.432854 136016 net.cpp:225] Memory required for data: 3472983808
I0331 19:08:02.432858 136016 layer_factory.hpp:114] Creating layer inception_3b/pool
I0331 19:08:02.432894 136016 net.cpp:160] Creating Layer inception_3b/pool
I0331 19:08:02.432901 136016 net.cpp:596] inception_3b/pool <- inception_3a/output_inception_3a/output_0_split_3
I0331 19:08:02.432911 136016 net.cpp:570] inception_3b/pool -> inception_3b/pool
I0331 19:08:02.432925 136016 net.cpp:210] Setting up inception_3b/pool
I0331 19:08:02.432945 136016 net.cpp:217] Top shape: 112 256 28 28 (22478848)
I0331 19:08:02.432948 136016 net.cpp:225] Memory required for data: 3562899200
I0331 19:08:02.432952 136016 layer_factory.hpp:114] Creating layer inception_3b/pool_proj
I0331 19:08:02.432968 136016 net.cpp:160] Creating Layer inception_3b/pool_proj
I0331 19:08:02.432972 136016 net.cpp:596] inception_3b/pool_proj <- inception_3b/pool
I0331 19:08:02.432979 136016 net.cpp:570] inception_3b/pool_proj -> inception_3b/pool_proj
I0331 19:08:02.441588 136016 net.cpp:210] Setting up inception_3b/pool_proj
I0331 19:08:02.441601 136016 net.cpp:217] Top shape: 112 64 28 28 (5619712)
I0331 19:08:02.441604 136016 net.cpp:225] Memory required for data: 3585378048
I0331 19:08:02.441612 136016 layer_factory.hpp:114] Creating layer inception_3b/relu_pool_proj
I0331 19:08:02.441622 136016 net.cpp:160] Creating Layer inception_3b/relu_pool_proj
I0331 19:08:02.441630 136016 net.cpp:596] inception_3b/relu_pool_proj <- inception_3b/pool_proj
I0331 19:08:02.441655 136016 net.cpp:557] inception_3b/relu_pool_proj -> inception_3b/pool_proj (in-place)
I0331 19:08:02.441663 136016 net.cpp:210] Setting up inception_3b/relu_pool_proj
I0331 19:08:02.441668 136016 net.cpp:217] Top shape: 112 64 28 28 (5619712)
I0331 19:08:02.441671 136016 net.cpp:225] Memory required for data: 3607856896
I0331 19:08:02.441675 136016 layer_factory.hpp:114] Creating layer inception_3b/output
I0331 19:08:02.441684 136016 net.cpp:160] Creating Layer inception_3b/output
I0331 19:08:02.441689 136016 net.cpp:596] inception_3b/output <- inception_3b/1x1
I0331 19:08:02.441694 136016 net.cpp:596] inception_3b/output <- inception_3b/3x3
I0331 19:08:02.441699 136016 net.cpp:596] inception_3b/output <- inception_3b/5x5
I0331 19:08:02.441704 136016 net.cpp:596] inception_3b/output <- inception_3b/pool_proj
I0331 19:08:02.441711 136016 net.cpp:570] inception_3b/output -> inception_3b/output
I0331 19:08:02.441722 136016 net.cpp:210] Setting up inception_3b/output
I0331 19:08:02.441728 136016 net.cpp:217] Top shape: 112 480 28 28 (42147840)
I0331 19:08:02.441731 136016 net.cpp:225] Memory required for data: 3776448256
I0331 19:08:02.441735 136016 layer_factory.hpp:114] Creating layer pool3/3x3_s2
I0331 19:08:02.441756 136016 net.cpp:160] Creating Layer pool3/3x3_s2
I0331 19:08:02.441759 136016 net.cpp:596] pool3/3x3_s2 <- inception_3b/output
I0331 19:08:02.441768 136016 net.cpp:570] pool3/3x3_s2 -> pool3/3x3_s2
I0331 19:08:02.441776 136016 net.cpp:210] Setting up pool3/3x3_s2
I0331 19:08:02.441781 136016 net.cpp:217] Top shape: 112 480 14 14 (10536960)
I0331 19:08:02.441786 136016 net.cpp:225] Memory required for data: 3818596096
I0331 19:08:02.441788 136016 layer_factory.hpp:114] Creating layer pool3/3x3_s2_pool3/3x3_s2_0_split
I0331 19:08:02.441797 136016 net.cpp:160] Creating Layer pool3/3x3_s2_pool3/3x3_s2_0_split
I0331 19:08:02.441802 136016 net.cpp:596] pool3/3x3_s2_pool3/3x3_s2_0_split <- pool3/3x3_s2
I0331 19:08:02.441809 136016 net.cpp:570] pool3/3x3_s2_pool3/3x3_s2_0_split -> pool3/3x3_s2_pool3/3x3_s2_0_split_0
I0331 19:08:02.441817 136016 net.cpp:570] pool3/3x3_s2_pool3/3x3_s2_0_split -> pool3/3x3_s2_pool3/3x3_s2_0_split_1
I0331 19:08:02.441823 136016 net.cpp:570] pool3/3x3_s2_pool3/3x3_s2_0_split -> pool3/3x3_s2_pool3/3x3_s2_0_split_2
I0331 19:08:02.441829 136016 net.cpp:570] pool3/3x3_s2_pool3/3x3_s2_0_split -> pool3/3x3_s2_pool3/3x3_s2_0_split_3
I0331 19:08:02.441838 136016 net.cpp:210] Setting up pool3/3x3_s2_pool3/3x3_s2_0_split
I0331 19:08:02.441844 136016 net.cpp:217] Top shape: 112 480 14 14 (10536960)
I0331 19:08:02.441849 136016 net.cpp:217] Top shape: 112 480 14 14 (10536960)
I0331 19:08:02.441854 136016 net.cpp:217] Top shape: 112 480 14 14 (10536960)
I0331 19:08:02.441859 136016 net.cpp:217] Top shape: 112 480 14 14 (10536960)
I0331 19:08:02.441861 136016 net.cpp:225] Memory required for data: 3987187456
I0331 19:08:02.441865 136016 layer_factory.hpp:114] Creating layer inception_4a/1x1
I0331 19:08:02.441875 136016 net.cpp:160] Creating Layer inception_4a/1x1
I0331 19:08:02.441880 136016 net.cpp:596] inception_4a/1x1 <- pool3/3x3_s2_pool3/3x3_s2_0_split_0
I0331 19:08:02.441895 136016 net.cpp:570] inception_4a/1x1 -> inception_4a/1x1
I0331 19:08:02.450419 136016 net.cpp:210] Setting up inception_4a/1x1
I0331 19:08:02.450438 136016 net.cpp:217] Top shape: 112 192 14 14 (4214784)
I0331 19:08:02.450441 136016 net.cpp:225] Memory required for data: 4004046592
I0331 19:08:02.450449 136016 layer_factory.hpp:114] Creating layer inception_4a/relu_1x1
I0331 19:08:02.450458 136016 net.cpp:160] Creating Layer inception_4a/relu_1x1
I0331 19:08:02.450462 136016 net.cpp:596] inception_4a/relu_1x1 <- inception_4a/1x1
I0331 19:08:02.450471 136016 net.cpp:557] inception_4a/relu_1x1 -> inception_4a/1x1 (in-place)
I0331 19:08:02.450479 136016 net.cpp:210] Setting up inception_4a/relu_1x1
I0331 19:08:02.450484 136016 net.cpp:217] Top shape: 112 192 14 14 (4214784)
I0331 19:08:02.450487 136016 net.cpp:225] Memory required for data: 4020905728
I0331 19:08:02.450491 136016 layer_factory.hpp:114] Creating layer inception_4a/3x3_reduce
I0331 19:08:02.450512 136016 net.cpp:160] Creating Layer inception_4a/3x3_reduce
I0331 19:08:02.450517 136016 net.cpp:596] inception_4a/3x3_reduce <- pool3/3x3_s2_pool3/3x3_s2_0_split_1
I0331 19:08:02.450525 136016 net.cpp:570] inception_4a/3x3_reduce -> inception_4a/3x3_reduce
I0331 19:08:02.457212 136016 net.cpp:210] Setting up inception_4a/3x3_reduce
I0331 19:08:02.457226 136016 net.cpp:217] Top shape: 112 96 14 14 (2107392)
I0331 19:08:02.457229 136016 net.cpp:225] Memory required for data: 4029335296
I0331 19:08:02.457247 136016 layer_factory.hpp:114] Creating layer inception_4a/relu_3x3_reduce
I0331 19:08:02.457254 136016 net.cpp:160] Creating Layer inception_4a/relu_3x3_reduce
I0331 19:08:02.457259 136016 net.cpp:596] inception_4a/relu_3x3_reduce <- inception_4a/3x3_reduce
I0331 19:08:02.457267 136016 net.cpp:557] inception_4a/relu_3x3_reduce -> inception_4a/3x3_reduce (in-place)
I0331 19:08:02.457275 136016 net.cpp:210] Setting up inception_4a/relu_3x3_reduce
I0331 19:08:02.457280 136016 net.cpp:217] Top shape: 112 96 14 14 (2107392)
I0331 19:08:02.457283 136016 net.cpp:225] Memory required for data: 4037764864
I0331 19:08:02.457288 136016 layer_factory.hpp:114] Creating layer inception_4a/3x3
I0331 19:08:02.457299 136016 net.cpp:160] Creating Layer inception_4a/3x3
I0331 19:08:02.457304 136016 net.cpp:596] inception_4a/3x3 <- inception_4a/3x3_reduce
I0331 19:08:02.457310 136016 net.cpp:570] inception_4a/3x3 -> inception_4a/3x3
I0331 19:08:02.472278 136016 net.cpp:210] Setting up inception_4a/3x3
I0331 19:08:02.472311 136016 net.cpp:217] Top shape: 112 208 14 14 (4566016)
I0331 19:08:02.472314 136016 net.cpp:225] Memory required for data: 4056028928
I0331 19:08:02.472326 136016 layer_factory.hpp:114] Creating layer inception_4a/relu_3x3
I0331 19:08:02.472337 136016 net.cpp:160] Creating Layer inception_4a/relu_3x3
I0331 19:08:02.472343 136016 net.cpp:596] inception_4a/relu_3x3 <- inception_4a/3x3
I0331 19:08:02.472353 136016 net.cpp:557] inception_4a/relu_3x3 -> inception_4a/3x3 (in-place)
I0331 19:08:02.472363 136016 net.cpp:210] Setting up inception_4a/relu_3x3
I0331 19:08:02.472369 136016 net.cpp:217] Top shape: 112 208 14 14 (4566016)
I0331 19:08:02.472373 136016 net.cpp:225] Memory required for data: 4074292992
I0331 19:08:02.472376 136016 layer_factory.hpp:114] Creating layer inception_4a/5x5_reduce
I0331 19:08:02.472389 136016 net.cpp:160] Creating Layer inception_4a/5x5_reduce
I0331 19:08:02.472396 136016 net.cpp:596] inception_4a/5x5_reduce <- pool3/3x3_s2_pool3/3x3_s2_0_split_2
I0331 19:08:02.472404 136016 net.cpp:570] inception_4a/5x5_reduce -> inception_4a/5x5_reduce
I0331 19:08:02.476801 136016 net.cpp:210] Setting up inception_4a/5x5_reduce
I0331 19:08:02.476814 136016 net.cpp:217] Top shape: 112 16 14 14 (351232)
I0331 19:08:02.476817 136016 net.cpp:225] Memory required for data: 4075697920
I0331 19:08:02.476825 136016 layer_factory.hpp:114] Creating layer inception_4a/relu_5x5_reduce
I0331 19:08:02.476832 136016 net.cpp:160] Creating Layer inception_4a/relu_5x5_reduce
I0331 19:08:02.476838 136016 net.cpp:596] inception_4a/relu_5x5_reduce <- inception_4a/5x5_reduce
I0331 19:08:02.476861 136016 net.cpp:557] inception_4a/relu_5x5_reduce -> inception_4a/5x5_reduce (in-place)
I0331 19:08:02.476867 136016 net.cpp:210] Setting up inception_4a/relu_5x5_reduce
I0331 19:08:02.476872 136016 net.cpp:217] Top shape: 112 16 14 14 (351232)
I0331 19:08:02.476876 136016 net.cpp:225] Memory required for data: 4077102848
I0331 19:08:02.476881 136016 layer_factory.hpp:114] Creating layer inception_4a/5x5
I0331 19:08:02.476889 136016 net.cpp:160] Creating Layer inception_4a/5x5
I0331 19:08:02.476893 136016 net.cpp:596] inception_4a/5x5 <- inception_4a/5x5_reduce
I0331 19:08:02.476902 136016 net.cpp:570] inception_4a/5x5 -> inception_4a/5x5
I0331 19:08:02.481672 136016 net.cpp:210] Setting up inception_4a/5x5
I0331 19:08:02.481683 136016 net.cpp:217] Top shape: 112 48 14 14 (1053696)
I0331 19:08:02.481686 136016 net.cpp:225] Memory required for data: 4081317632
I0331 19:08:02.481693 136016 layer_factory.hpp:114] Creating layer inception_4a/relu_5x5
I0331 19:08:02.481724 136016 net.cpp:160] Creating Layer inception_4a/relu_5x5
I0331 19:08:02.481729 136016 net.cpp:596] inception_4a/relu_5x5 <- inception_4a/5x5
I0331 19:08:02.481735 136016 net.cpp:557] inception_4a/relu_5x5 -> inception_4a/5x5 (in-place)
I0331 19:08:02.481742 136016 net.cpp:210] Setting up inception_4a/relu_5x5
I0331 19:08:02.481747 136016 net.cpp:217] Top shape: 112 48 14 14 (1053696)
I0331 19:08:02.481751 136016 net.cpp:225] Memory required for data: 4085532416
I0331 19:08:02.481755 136016 layer_factory.hpp:114] Creating layer inception_4a/pool
I0331 19:08:02.481791 136016 net.cpp:160] Creating Layer inception_4a/pool
I0331 19:08:02.481796 136016 net.cpp:596] inception_4a/pool <- pool3/3x3_s2_pool3/3x3_s2_0_split_3
I0331 19:08:02.481806 136016 net.cpp:570] inception_4a/pool -> inception_4a/pool
I0331 19:08:02.481817 136016 net.cpp:210] Setting up inception_4a/pool
I0331 19:08:02.481822 136016 net.cpp:217] Top shape: 112 480 14 14 (10536960)
I0331 19:08:02.481827 136016 net.cpp:225] Memory required for data: 4127680256
I0331 19:08:02.481829 136016 layer_factory.hpp:114] Creating layer inception_4a/pool_proj
I0331 19:08:02.481842 136016 net.cpp:160] Creating Layer inception_4a/pool_proj
I0331 19:08:02.481845 136016 net.cpp:596] inception_4a/pool_proj <- inception_4a/pool
I0331 19:08:02.481854 136016 net.cpp:570] inception_4a/pool_proj -> inception_4a/pool_proj
I0331 19:08:02.487401 136016 net.cpp:210] Setting up inception_4a/pool_proj
I0331 19:08:02.487413 136016 net.cpp:217] Top shape: 112 64 14 14 (1404928)
I0331 19:08:02.487417 136016 net.cpp:225] Memory required for data: 4133299968
I0331 19:08:02.487424 136016 layer_factory.hpp:114] Creating layer inception_4a/relu_pool_proj
I0331 19:08:02.487433 136016 net.cpp:160] Creating Layer inception_4a/relu_pool_proj
I0331 19:08:02.487438 136016 net.cpp:596] inception_4a/relu_pool_proj <- inception_4a/pool_proj
I0331 19:08:02.487444 136016 net.cpp:557] inception_4a/relu_pool_proj -> inception_4a/pool_proj (in-place)
I0331 19:08:02.487452 136016 net.cpp:210] Setting up inception_4a/relu_pool_proj
I0331 19:08:02.487457 136016 net.cpp:217] Top shape: 112 64 14 14 (1404928)
I0331 19:08:02.487460 136016 net.cpp:225] Memory required for data: 4138919680
I0331 19:08:02.487463 136016 layer_factory.hpp:114] Creating layer inception_4a/output
I0331 19:08:02.487473 136016 net.cpp:160] Creating Layer inception_4a/output
I0331 19:08:02.487476 136016 net.cpp:596] inception_4a/output <- inception_4a/1x1
I0331 19:08:02.487483 136016 net.cpp:596] inception_4a/output <- inception_4a/3x3
I0331 19:08:02.487486 136016 net.cpp:596] inception_4a/output <- inception_4a/5x5
I0331 19:08:02.487491 136016 net.cpp:596] inception_4a/output <- inception_4a/pool_proj
I0331 19:08:02.487499 136016 net.cpp:570] inception_4a/output -> inception_4a/output
I0331 19:08:02.487509 136016 net.cpp:210] Setting up inception_4a/output
I0331 19:08:02.487514 136016 net.cpp:217] Top shape: 112 512 14 14 (11239424)
I0331 19:08:02.487519 136016 net.cpp:225] Memory required for data: 4183877376
I0331 19:08:02.487526 136016 layer_factory.hpp:114] Creating layer inception_4a/output_inception_4a/output_0_split
I0331 19:08:02.487536 136016 net.cpp:160] Creating Layer inception_4a/output_inception_4a/output_0_split
I0331 19:08:02.487540 136016 net.cpp:596] inception_4a/output_inception_4a/output_0_split <- inception_4a/output
I0331 19:08:02.487548 136016 net.cpp:570] inception_4a/output_inception_4a/output_0_split -> inception_4a/output_inception_4a/output_0_split_0
I0331 19:08:02.487556 136016 net.cpp:570] inception_4a/output_inception_4a/output_0_split -> inception_4a/output_inception_4a/output_0_split_1
I0331 19:08:02.487563 136016 net.cpp:570] inception_4a/output_inception_4a/output_0_split -> inception_4a/output_inception_4a/output_0_split_2
I0331 19:08:02.487570 136016 net.cpp:570] inception_4a/output_inception_4a/output_0_split -> inception_4a/output_inception_4a/output_0_split_3
I0331 19:08:02.487576 136016 net.cpp:570] inception_4a/output_inception_4a/output_0_split -> inception_4a/output_inception_4a/output_0_split_4
I0331 19:08:02.487594 136016 net.cpp:210] Setting up inception_4a/output_inception_4a/output_0_split
I0331 19:08:02.487601 136016 net.cpp:217] Top shape: 112 512 14 14 (11239424)
I0331 19:08:02.487606 136016 net.cpp:217] Top shape: 112 512 14 14 (11239424)
I0331 19:08:02.487609 136016 net.cpp:217] Top shape: 112 512 14 14 (11239424)
I0331 19:08:02.487614 136016 net.cpp:217] Top shape: 112 512 14 14 (11239424)
I0331 19:08:02.487619 136016 net.cpp:217] Top shape: 112 512 14 14 (11239424)
I0331 19:08:02.487622 136016 net.cpp:225] Memory required for data: 4408665856
I0331 19:08:02.487630 136016 layer_factory.hpp:114] Creating layer loss1/ave_pool
I0331 19:08:02.487653 136016 net.cpp:160] Creating Layer loss1/ave_pool
I0331 19:08:02.487658 136016 net.cpp:596] loss1/ave_pool <- inception_4a/output_inception_4a/output_0_split_0
I0331 19:08:02.487663 136016 net.cpp:570] loss1/ave_pool -> loss1/ave_pool
I0331 19:08:02.487671 136016 net.cpp:210] Setting up loss1/ave_pool
I0331 19:08:02.487678 136016 net.cpp:217] Top shape: 112 512 4 4 (917504)
I0331 19:08:02.487681 136016 net.cpp:225] Memory required for data: 4412335872
I0331 19:08:02.487684 136016 layer_factory.hpp:114] Creating layer loss1/conv
I0331 19:08:02.487699 136016 net.cpp:160] Creating Layer loss1/conv
I0331 19:08:02.487704 136016 net.cpp:596] loss1/conv <- loss1/ave_pool
I0331 19:08:02.487711 136016 net.cpp:570] loss1/conv -> loss1/conv
I0331 19:08:02.491490 136016 net.cpp:210] Setting up loss1/conv
I0331 19:08:02.491503 136016 net.cpp:217] Top shape: 112 128 4 4 (229376)
I0331 19:08:02.491506 136016 net.cpp:225] Memory required for data: 4413253376
I0331 19:08:02.491513 136016 layer_factory.hpp:114] Creating layer loss1/relu_conv
I0331 19:08:02.491520 136016 net.cpp:160] Creating Layer loss1/relu_conv
I0331 19:08:02.491524 136016 net.cpp:596] loss1/relu_conv <- loss1/conv
I0331 19:08:02.491533 136016 net.cpp:557] loss1/relu_conv -> loss1/conv (in-place)
I0331 19:08:02.491539 136016 net.cpp:210] Setting up loss1/relu_conv
I0331 19:08:02.491544 136016 net.cpp:217] Top shape: 112 128 4 4 (229376)
I0331 19:08:02.491549 136016 net.cpp:225] Memory required for data: 4414170880
I0331 19:08:02.491552 136016 layer_factory.hpp:114] Creating layer loss1/fc
I0331 19:08:02.491564 136016 net.cpp:160] Creating Layer loss1/fc
I0331 19:08:02.491570 136016 net.cpp:596] loss1/fc <- loss1/conv
I0331 19:08:02.491577 136016 net.cpp:570] loss1/fc -> loss1/fc
I0331 19:08:02.511461 136016 net.cpp:210] Setting up loss1/fc
I0331 19:08:02.511472 136016 net.cpp:217] Top shape: 112 1024 (114688)
I0331 19:08:02.511476 136016 net.cpp:225] Memory required for data: 4414629632
I0331 19:08:02.511483 136016 layer_factory.hpp:114] Creating layer loss1/relu_fc
I0331 19:08:02.511490 136016 net.cpp:160] Creating Layer loss1/relu_fc
I0331 19:08:02.511494 136016 net.cpp:596] loss1/relu_fc <- loss1/fc
I0331 19:08:02.511500 136016 net.cpp:557] loss1/relu_fc -> loss1/fc (in-place)
I0331 19:08:02.511507 136016 net.cpp:210] Setting up loss1/relu_fc
I0331 19:08:02.511517 136016 net.cpp:217] Top shape: 112 1024 (114688)
I0331 19:08:02.511520 136016 net.cpp:225] Memory required for data: 4415088384
I0331 19:08:02.511523 136016 layer_factory.hpp:114] Creating layer loss1/drop_fc
I0331 19:08:02.511539 136016 net.cpp:160] Creating Layer loss1/drop_fc
I0331 19:08:02.511543 136016 net.cpp:596] loss1/drop_fc <- loss1/fc
I0331 19:08:02.511548 136016 net.cpp:557] loss1/drop_fc -> loss1/fc (in-place)
I0331 19:08:02.511561 136016 net.cpp:210] Setting up loss1/drop_fc
I0331 19:08:02.511566 136016 net.cpp:217] Top shape: 112 1024 (114688)
I0331 19:08:02.511570 136016 net.cpp:225] Memory required for data: 4415547136
I0331 19:08:02.511574 136016 layer_factory.hpp:114] Creating layer loss1/classifier
I0331 19:08:02.511584 136016 net.cpp:160] Creating Layer loss1/classifier
I0331 19:08:02.511587 136016 net.cpp:596] loss1/classifier <- loss1/fc
I0331 19:08:02.511595 136016 net.cpp:570] loss1/classifier -> loss1/classifier
I0331 19:08:02.521538 136016 net.cpp:210] Setting up loss1/classifier
I0331 19:08:02.521556 136016 net.cpp:217] Top shape: 112 1000 (112000)
I0331 19:08:02.521560 136016 net.cpp:225] Memory required for data: 4415995136
I0331 19:08:02.521567 136016 layer_factory.hpp:114] Creating layer loss1/loss
I0331 19:08:02.521577 136016 net.cpp:160] Creating Layer loss1/loss
I0331 19:08:02.521582 136016 net.cpp:596] loss1/loss <- loss1/classifier
I0331 19:08:02.521587 136016 net.cpp:596] loss1/loss <- label_data_1_split_0
I0331 19:08:02.521594 136016 net.cpp:570] loss1/loss -> loss1/loss1
…
I0331 19:08:02.525457 136016 net.cpp:220]     with loss weight 0.3
I0331 19:08:02.525492 136016 net.cpp:225] Memory required for data: 4415995140
I0331 19:08:02.525497 136016 layer_factory.hpp:114] Creating layer inception_4b/1x1
I0331 19:08:02.525519 136016 net.cpp:160] Creating Layer inception_4b/1x1
I0331 19:08:02.525526 136016 net.cpp:596] inception_4b/1x1 <- inception_4a/output_inception_4a/output_0_split_1
I0331 19:08:02.525533 136016 net.cpp:570] inception_4b/1x1 -> inception_4b/1x1
I0331 19:08:02.534260 136016 net.cpp:210] Setting up inception_4b/1x1
I0331 19:08:02.534277 136016 net.cpp:217] Top shape: 112 160 14 14 (3512320)
I0331 19:08:02.534281 136016 net.cpp:225] Memory required for data: 4430044420
I0331 19:08:02.534289 136016 layer_factory.hpp:114] Creating layer inception_4b/relu_1x1
I0331 19:08:02.534299 136016 net.cpp:160] Creating Layer inception_4b/relu_1x1
I0331 19:08:02.534306 136016 net.cpp:596] inception_4b/relu_1x1 <- inception_4b/1x1
I0331 19:08:02.534312 136016 net.cpp:557] inception_4b/relu_1x1 -> inception_4b/1x1 (in-place)
I0331 19:08:02.534318 136016 net.cpp:210] Setting up inception_4b/relu_1x1
I0331 19:08:02.534324 136016 net.cpp:217] Top shape: 112 160 14 14 (3512320)
I0331 19:08:02.534328 136016 net.cpp:225] Memory required for data: 4444093700
I0331 19:08:02.534335 136016 layer_factory.hpp:114] Creating layer inception_4b/3x3_reduce
I0331 19:08:02.534348 136016 net.cpp:160] Creating Layer inception_4b/3x3_reduce
I0331 19:08:02.534351 136016 net.cpp:596] inception_4b/3x3_reduce <- inception_4a/output_inception_4a/output_0_split_2
I0331 19:08:02.534360 136016 net.cpp:570] inception_4b/3x3_reduce -> inception_4b/3x3_reduce
I0331 19:08:02.541268 136016 net.cpp:210] Setting up inception_4b/3x3_reduce
I0331 19:08:02.541283 136016 net.cpp:217] Top shape: 112 112 14 14 (2458624)
I0331 19:08:02.541287 136016 net.cpp:225] Memory required for data: 4453928196
I0331 19:08:02.541296 136016 layer_factory.hpp:114] Creating layer inception_4b/relu_3x3_reduce
I0331 19:08:02.541302 136016 net.cpp:160] Creating Layer inception_4b/relu_3x3_reduce
I0331 19:08:02.541307 136016 net.cpp:596] inception_4b/relu_3x3_reduce <- inception_4b/3x3_reduce
I0331 19:08:02.541314 136016 net.cpp:557] inception_4b/relu_3x3_reduce -> inception_4b/3x3_reduce (in-place)
I0331 19:08:02.541321 136016 net.cpp:210] Setting up inception_4b/relu_3x3_reduce
I0331 19:08:02.541327 136016 net.cpp:217] Top shape: 112 112 14 14 (2458624)
I0331 19:08:02.541330 136016 net.cpp:225] Memory required for data: 4463762692
I0331 19:08:02.541334 136016 layer_factory.hpp:114] Creating layer inception_4b/3x3
I0331 19:08:02.541347 136016 net.cpp:160] Creating Layer inception_4b/3x3
I0331 19:08:02.541350 136016 net.cpp:596] inception_4b/3x3 <- inception_4b/3x3_reduce
I0331 19:08:02.541358 136016 net.cpp:570] inception_4b/3x3 -> inception_4b/3x3
I0331 19:08:02.559484 136016 net.cpp:210] Setting up inception_4b/3x3
I0331 19:08:02.559525 136016 net.cpp:217] Top shape: 112 224 14 14 (4917248)
I0331 19:08:02.559530 136016 net.cpp:225] Memory required for data: 4483431684
I0331 19:08:02.559543 136016 layer_factory.hpp:114] Creating layer inception_4b/relu_3x3
I0331 19:08:02.559564 136016 net.cpp:160] Creating Layer inception_4b/relu_3x3
I0331 19:08:02.559573 136016 net.cpp:596] inception_4b/relu_3x3 <- inception_4b/3x3
I0331 19:08:02.559607 136016 net.cpp:557] inception_4b/relu_3x3 -> inception_4b/3x3 (in-place)
I0331 19:08:02.559619 136016 net.cpp:210] Setting up inception_4b/relu_3x3
I0331 19:08:02.559630 136016 net.cpp:217] Top shape: 112 224 14 14 (4917248)
I0331 19:08:02.559635 136016 net.cpp:225] Memory required for data: 4503100676
I0331 19:08:02.559640 136016 layer_factory.hpp:114] Creating layer inception_4b/5x5_reduce
I0331 19:08:02.559653 136016 net.cpp:160] Creating Layer inception_4b/5x5_reduce
I0331 19:08:02.559659 136016 net.cpp:596] inception_4b/5x5_reduce <- inception_4a/output_inception_4a/output_0_split_3
I0331 19:08:02.559669 136016 net.cpp:570] inception_4b/5x5_reduce -> inception_4b/5x5_reduce
I0331 19:08:02.564815 136016 net.cpp:210] Setting up inception_4b/5x5_reduce
I0331 19:08:02.564827 136016 net.cpp:217] Top shape: 112 24 14 14 (526848)
I0331 19:08:02.564831 136016 net.cpp:225] Memory required for data: 4505208068
I0331 19:08:02.564844 136016 layer_factory.hpp:114] Creating layer inception_4b/relu_5x5_reduce
I0331 19:08:02.564853 136016 net.cpp:160] Creating Layer inception_4b/relu_5x5_reduce
I0331 19:08:02.564859 136016 net.cpp:596] inception_4b/relu_5x5_reduce <- inception_4b/5x5_reduce
I0331 19:08:02.564864 136016 net.cpp:557] inception_4b/relu_5x5_reduce -> inception_4b/5x5_reduce (in-place)
I0331 19:08:02.564872 136016 net.cpp:210] Setting up inception_4b/relu_5x5_reduce
I0331 19:08:02.564877 136016 net.cpp:217] Top shape: 112 24 14 14 (526848)
I0331 19:08:02.564879 136016 net.cpp:225] Memory required for data: 4507315460
I0331 19:08:02.564883 136016 layer_factory.hpp:114] Creating layer inception_4b/5x5
I0331 19:08:02.564894 136016 net.cpp:160] Creating Layer inception_4b/5x5
I0331 19:08:02.564898 136016 net.cpp:596] inception_4b/5x5 <- inception_4b/5x5_reduce
I0331 19:08:02.564906 136016 net.cpp:570] inception_4b/5x5 -> inception_4b/5x5
I0331 19:08:02.572001 136016 net.cpp:210] Setting up inception_4b/5x5
I0331 19:08:02.572016 136016 net.cpp:217] Top shape: 112 64 14 14 (1404928)
I0331 19:08:02.572019 136016 net.cpp:225] Memory required for data: 4512935172
I0331 19:08:02.572027 136016 layer_factory.hpp:114] Creating layer inception_4b/relu_5x5
I0331 19:08:02.572037 136016 net.cpp:160] Creating Layer inception_4b/relu_5x5
I0331 19:08:02.572042 136016 net.cpp:596] inception_4b/relu_5x5 <- inception_4b/5x5
I0331 19:08:02.572048 136016 net.cpp:557] inception_4b/relu_5x5 -> inception_4b/5x5 (in-place)
I0331 19:08:02.572054 136016 net.cpp:210] Setting up inception_4b/relu_5x5
I0331 19:08:02.572059 136016 net.cpp:217] Top shape: 112 64 14 14 (1404928)
I0331 19:08:02.572063 136016 net.cpp:225] Memory required for data: 4518554884
I0331 19:08:02.572067 136016 layer_factory.hpp:114] Creating layer inception_4b/pool
I0331 19:08:02.572104 136016 net.cpp:160] Creating Layer inception_4b/pool
I0331 19:08:02.572109 136016 net.cpp:596] inception_4b/pool <- inception_4a/output_inception_4a/output_0_split_4
I0331 19:08:02.572118 136016 net.cpp:570] inception_4b/pool -> inception_4b/pool
I0331 19:08:02.572136 136016 net.cpp:210] Setting up inception_4b/pool
I0331 19:08:02.572145 136016 net.cpp:217] Top shape: 112 512 14 14 (11239424)
I0331 19:08:02.572149 136016 net.cpp:225] Memory required for data: 4563512580
I0331 19:08:02.572154 136016 layer_factory.hpp:114] Creating layer inception_4b/pool_proj
I0331 19:08:02.572165 136016 net.cpp:160] Creating Layer inception_4b/pool_proj
I0331 19:08:02.572170 136016 net.cpp:596] inception_4b/pool_proj <- inception_4b/pool
I0331 19:08:02.572177 136016 net.cpp:570] inception_4b/pool_proj -> inception_4b/pool_proj
I0331 19:08:02.577783 136016 net.cpp:210] Setting up inception_4b/pool_proj
I0331 19:08:02.577795 136016 net.cpp:217] Top shape: 112 64 14 14 (1404928)
I0331 19:08:02.577800 136016 net.cpp:225] Memory required for data: 4569132292
I0331 19:08:02.577806 136016 layer_factory.hpp:114] Creating layer inception_4b/relu_pool_proj
I0331 19:08:02.577813 136016 net.cpp:160] Creating Layer inception_4b/relu_pool_proj
I0331 19:08:02.577818 136016 net.cpp:596] inception_4b/relu_pool_proj <- inception_4b/pool_proj
I0331 19:08:02.577844 136016 net.cpp:557] inception_4b/relu_pool_proj -> inception_4b/pool_proj (in-place)
I0331 19:08:02.577852 136016 net.cpp:210] Setting up inception_4b/relu_pool_proj
I0331 19:08:02.577857 136016 net.cpp:217] Top shape: 112 64 14 14 (1404928)
I0331 19:08:02.577860 136016 net.cpp:225] Memory required for data: 4574752004
I0331 19:08:02.577865 136016 layer_factory.hpp:114] Creating layer inception_4b/output
I0331 19:08:02.577875 136016 net.cpp:160] Creating Layer inception_4b/output
I0331 19:08:02.577880 136016 net.cpp:596] inception_4b/output <- inception_4b/1x1
I0331 19:08:02.577885 136016 net.cpp:596] inception_4b/output <- inception_4b/3x3
I0331 19:08:02.577890 136016 net.cpp:596] inception_4b/output <- inception_4b/5x5
I0331 19:08:02.577895 136016 net.cpp:596] inception_4b/output <- inception_4b/pool_proj
I0331 19:08:02.577900 136016 net.cpp:570] inception_4b/output -> inception_4b/output
I0331 19:08:02.577913 136016 net.cpp:210] Setting up inception_4b/output
I0331 19:08:02.577919 136016 net.cpp:217] Top shape: 112 512 14 14 (11239424)
I0331 19:08:02.577924 136016 net.cpp:225] Memory required for data: 4619709700
I0331 19:08:02.577926 136016 layer_factory.hpp:114] Creating layer inception_4b/output_inception_4b/output_0_split
I0331 19:08:02.577935 136016 net.cpp:160] Creating Layer inception_4b/output_inception_4b/output_0_split
I0331 19:08:02.577939 136016 net.cpp:596] inception_4b/output_inception_4b/output_0_split <- inception_4b/output
I0331 19:08:02.577947 136016 net.cpp:570] inception_4b/output_inception_4b/output_0_split -> inception_4b/output_inception_4b/output_0_split_0
I0331 19:08:02.577955 136016 net.cpp:570] inception_4b/output_inception_4b/output_0_split -> inception_4b/output_inception_4b/output_0_split_1
I0331 19:08:02.577961 136016 net.cpp:570] inception_4b/output_inception_4b/output_0_split -> inception_4b/output_inception_4b/output_0_split_2
I0331 19:08:02.577967 136016 net.cpp:570] inception_4b/output_inception_4b/output_0_split -> inception_4b/output_inception_4b/output_0_split_3
I0331 19:08:02.577975 136016 net.cpp:210] Setting up inception_4b/output_inception_4b/output_0_split
I0331 19:08:02.577983 136016 net.cpp:217] Top shape: 112 512 14 14 (11239424)
I0331 19:08:02.577988 136016 net.cpp:217] Top shape: 112 512 14 14 (11239424)
I0331 19:08:02.577992 136016 net.cpp:217] Top shape: 112 512 14 14 (11239424)
I0331 19:08:02.577997 136016 net.cpp:217] Top shape: 112 512 14 14 (11239424)
I0331 19:08:02.578001 136016 net.cpp:225] Memory required for data: 4799540484
I0331 19:08:02.578004 136016 layer_factory.hpp:114] Creating layer inception_4c/1x1
I0331 19:08:02.578016 136016 net.cpp:160] Creating Layer inception_4c/1x1
I0331 19:08:02.578021 136016 net.cpp:596] inception_4c/1x1 <- inception_4b/output_inception_4b/output_0_split_0
I0331 19:08:02.578027 136016 net.cpp:570] inception_4c/1x1 -> inception_4c/1x1
I0331 19:08:02.586048 136016 net.cpp:210] Setting up inception_4c/1x1
I0331 19:08:02.586066 136016 net.cpp:217] Top shape: 112 128 14 14 (2809856)
I0331 19:08:02.586071 136016 net.cpp:225] Memory required for data: 4810779908
I0331 19:08:02.586078 136016 layer_factory.hpp:114] Creating layer inception_4c/relu_1x1
I0331 19:08:02.586086 136016 net.cpp:160] Creating Layer inception_4c/relu_1x1
I0331 19:08:02.586089 136016 net.cpp:596] inception_4c/relu_1x1 <- inception_4c/1x1
I0331 19:08:02.586098 136016 net.cpp:557] inception_4c/relu_1x1 -> inception_4c/1x1 (in-place)
I0331 19:08:02.586105 136016 net.cpp:210] Setting up inception_4c/relu_1x1
I0331 19:08:02.586110 136016 net.cpp:217] Top shape: 112 128 14 14 (2809856)
I0331 19:08:02.586114 136016 net.cpp:225] Memory required for data: 4822019332
I0331 19:08:02.586118 136016 layer_factory.hpp:114] Creating layer inception_4c/3x3_reduce
I0331 19:08:02.586129 136016 net.cpp:160] Creating Layer inception_4c/3x3_reduce
I0331 19:08:02.586133 136016 net.cpp:596] inception_4c/3x3_reduce <- inception_4b/output_inception_4b/output_0_split_1
I0331 19:08:02.586139 136016 net.cpp:570] inception_4c/3x3_reduce -> inception_4c/3x3_reduce
I0331 19:08:02.593641 136016 net.cpp:210] Setting up inception_4c/3x3_reduce
I0331 19:08:02.593654 136016 net.cpp:217] Top shape: 112 128 14 14 (2809856)
I0331 19:08:02.593658 136016 net.cpp:225] Memory required for data: 4833258756
I0331 19:08:02.593665 136016 layer_factory.hpp:114] Creating layer inception_4c/relu_3x3_reduce
I0331 19:08:02.593673 136016 net.cpp:160] Creating Layer inception_4c/relu_3x3_reduce
I0331 19:08:02.593678 136016 net.cpp:596] inception_4c/relu_3x3_reduce <- inception_4c/3x3_reduce
I0331 19:08:02.593685 136016 net.cpp:557] inception_4c/relu_3x3_reduce -> inception_4c/3x3_reduce (in-place)
I0331 19:08:02.593693 136016 net.cpp:210] Setting up inception_4c/relu_3x3_reduce
I0331 19:08:02.593698 136016 net.cpp:217] Top shape: 112 128 14 14 (2809856)
I0331 19:08:02.593701 136016 net.cpp:225] Memory required for data: 4844498180
I0331 19:08:02.593704 136016 layer_factory.hpp:114] Creating layer inception_4c/3x3
I0331 19:08:02.593719 136016 net.cpp:160] Creating Layer inception_4c/3x3
I0331 19:08:02.593724 136016 net.cpp:596] inception_4c/3x3 <- inception_4c/3x3_reduce
I0331 19:08:02.593734 136016 net.cpp:570] inception_4c/3x3 -> inception_4c/3x3
I0331 19:08:02.616066 136016 net.cpp:210] Setting up inception_4c/3x3
I0331 19:08:02.616109 136016 net.cpp:217] Top shape: 112 256 14 14 (5619712)
I0331 19:08:02.616114 136016 net.cpp:225] Memory required for data: 4866977028
I0331 19:08:02.616143 136016 layer_factory.hpp:114] Creating layer inception_4c/relu_3x3
I0331 19:08:02.616159 136016 net.cpp:160] Creating Layer inception_4c/relu_3x3
I0331 19:08:02.616168 136016 net.cpp:596] inception_4c/relu_3x3 <- inception_4c/3x3
I0331 19:08:02.616178 136016 net.cpp:557] inception_4c/relu_3x3 -> inception_4c/3x3 (in-place)
I0331 19:08:02.616191 136016 net.cpp:210] Setting up inception_4c/relu_3x3
I0331 19:08:02.616196 136016 net.cpp:217] Top shape: 112 256 14 14 (5619712)
I0331 19:08:02.616200 136016 net.cpp:225] Memory required for data: 4889455876
I0331 19:08:02.616205 136016 layer_factory.hpp:114] Creating layer inception_4c/5x5_reduce
I0331 19:08:02.616217 136016 net.cpp:160] Creating Layer inception_4c/5x5_reduce
I0331 19:08:02.616222 136016 net.cpp:596] inception_4c/5x5_reduce <- inception_4b/output_inception_4b/output_0_split_2
I0331 19:08:02.616231 136016 net.cpp:570] inception_4c/5x5_reduce -> inception_4c/5x5_reduce
I0331 19:08:02.621387 136016 net.cpp:210] Setting up inception_4c/5x5_reduce
I0331 19:08:02.621400 136016 net.cpp:217] Top shape: 112 24 14 14 (526848)
I0331 19:08:02.621404 136016 net.cpp:225] Memory required for data: 4891563268
I0331 19:08:02.621412 136016 layer_factory.hpp:114] Creating layer inception_4c/relu_5x5_reduce
I0331 19:08:02.621424 136016 net.cpp:160] Creating Layer inception_4c/relu_5x5_reduce
I0331 19:08:02.621430 136016 net.cpp:596] inception_4c/relu_5x5_reduce <- inception_4c/5x5_reduce
I0331 19:08:02.621438 136016 net.cpp:557] inception_4c/relu_5x5_reduce -> inception_4c/5x5_reduce (in-place)
I0331 19:08:02.621445 136016 net.cpp:210] Setting up inception_4c/relu_5x5_reduce
I0331 19:08:02.621451 136016 net.cpp:217] Top shape: 112 24 14 14 (526848)
I0331 19:08:02.621455 136016 net.cpp:225] Memory required for data: 4893670660
I0331 19:08:02.621459 136016 layer_factory.hpp:114] Creating layer inception_4c/5x5
I0331 19:08:02.621469 136016 net.cpp:160] Creating Layer inception_4c/5x5
I0331 19:08:02.621474 136016 net.cpp:596] inception_4c/5x5 <- inception_4c/5x5_reduce
I0331 19:08:02.621482 136016 net.cpp:570] inception_4c/5x5 -> inception_4c/5x5
I0331 19:08:02.628567 136016 net.cpp:210] Setting up inception_4c/5x5
I0331 19:08:02.628582 136016 net.cpp:217] Top shape: 112 64 14 14 (1404928)
I0331 19:08:02.628587 136016 net.cpp:225] Memory required for data: 4899290372
I0331 19:08:02.628594 136016 layer_factory.hpp:114] Creating layer inception_4c/relu_5x5
I0331 19:08:02.628603 136016 net.cpp:160] Creating Layer inception_4c/relu_5x5
I0331 19:08:02.628608 136016 net.cpp:596] inception_4c/relu_5x5 <- inception_4c/5x5
I0331 19:08:02.628615 136016 net.cpp:557] inception_4c/relu_5x5 -> inception_4c/5x5 (in-place)
I0331 19:08:02.628653 136016 net.cpp:210] Setting up inception_4c/relu_5x5
I0331 19:08:02.628659 136016 net.cpp:217] Top shape: 112 64 14 14 (1404928)
I0331 19:08:02.628662 136016 net.cpp:225] Memory required for data: 4904910084
I0331 19:08:02.628665 136016 layer_factory.hpp:114] Creating layer inception_4c/pool
I0331 19:08:02.628700 136016 net.cpp:160] Creating Layer inception_4c/pool
I0331 19:08:02.628705 136016 net.cpp:596] inception_4c/pool <- inception_4b/output_inception_4b/output_0_split_3
I0331 19:08:02.628712 136016 net.cpp:570] inception_4c/pool -> inception_4c/pool
I0331 19:08:02.628724 136016 net.cpp:210] Setting up inception_4c/pool
I0331 19:08:02.628731 136016 net.cpp:217] Top shape: 112 512 14 14 (11239424)
I0331 19:08:02.628734 136016 net.cpp:225] Memory required for data: 4949867780
I0331 19:08:02.628737 136016 layer_factory.hpp:114] Creating layer inception_4c/pool_proj
I0331 19:08:02.628756 136016 net.cpp:160] Creating Layer inception_4c/pool_proj
I0331 19:08:02.628762 136016 net.cpp:596] inception_4c/pool_proj <- inception_4c/pool
I0331 19:08:02.628768 136016 net.cpp:570] inception_4c/pool_proj -> inception_4c/pool_proj
I0331 19:08:02.634887 136016 net.cpp:210] Setting up inception_4c/pool_proj
I0331 19:08:02.634901 136016 net.cpp:217] Top shape: 112 64 14 14 (1404928)
I0331 19:08:02.634904 136016 net.cpp:225] Memory required for data: 4955487492
I0331 19:08:02.634912 136016 layer_factory.hpp:114] Creating layer inception_4c/relu_pool_proj
I0331 19:08:02.634922 136016 net.cpp:160] Creating Layer inception_4c/relu_pool_proj
I0331 19:08:02.634927 136016 net.cpp:596] inception_4c/relu_pool_proj <- inception_4c/pool_proj
I0331 19:08:02.634934 136016 net.cpp:557] inception_4c/relu_pool_proj -> inception_4c/pool_proj (in-place)
I0331 19:08:02.634941 136016 net.cpp:210] Setting up inception_4c/relu_pool_proj
I0331 19:08:02.634946 136016 net.cpp:217] Top shape: 112 64 14 14 (1404928)
I0331 19:08:02.634950 136016 net.cpp:225] Memory required for data: 4961107204
I0331 19:08:02.634953 136016 layer_factory.hpp:114] Creating layer inception_4c/output
I0331 19:08:02.634963 136016 net.cpp:160] Creating Layer inception_4c/output
I0331 19:08:02.634968 136016 net.cpp:596] inception_4c/output <- inception_4c/1x1
I0331 19:08:02.634973 136016 net.cpp:596] inception_4c/output <- inception_4c/3x3
I0331 19:08:02.634977 136016 net.cpp:596] inception_4c/output <- inception_4c/5x5
I0331 19:08:02.634982 136016 net.cpp:596] inception_4c/output <- inception_4c/pool_proj
I0331 19:08:02.634987 136016 net.cpp:570] inception_4c/output -> inception_4c/output
I0331 19:08:02.634997 136016 net.cpp:210] Setting up inception_4c/output
I0331 19:08:02.635004 136016 net.cpp:217] Top shape: 112 512 14 14 (11239424)
I0331 19:08:02.635006 136016 net.cpp:225] Memory required for data: 5006064900
I0331 19:08:02.635010 136016 layer_factory.hpp:114] Creating layer inception_4c/output_inception_4c/output_0_split
I0331 19:08:02.635020 136016 net.cpp:160] Creating Layer inception_4c/output_inception_4c/output_0_split
I0331 19:08:02.635025 136016 net.cpp:596] inception_4c/output_inception_4c/output_0_split <- inception_4c/output
I0331 19:08:02.635031 136016 net.cpp:570] inception_4c/output_inception_4c/output_0_split -> inception_4c/output_inception_4c/output_0_split_0
I0331 19:08:02.635037 136016 net.cpp:570] inception_4c/output_inception_4c/output_0_split -> inception_4c/output_inception_4c/output_0_split_1
I0331 19:08:02.635046 136016 net.cpp:570] inception_4c/output_inception_4c/output_0_split -> inception_4c/output_inception_4c/output_0_split_2
I0331 19:08:02.635053 136016 net.cpp:570] inception_4c/output_inception_4c/output_0_split -> inception_4c/output_inception_4c/output_0_split_3
I0331 19:08:02.635061 136016 net.cpp:210] Setting up inception_4c/output_inception_4c/output_0_split
I0331 19:08:02.635066 136016 net.cpp:217] Top shape: 112 512 14 14 (11239424)
I0331 19:08:02.635071 136016 net.cpp:217] Top shape: 112 512 14 14 (11239424)
I0331 19:08:02.635076 136016 net.cpp:217] Top shape: 112 512 14 14 (11239424)
I0331 19:08:02.635087 136016 net.cpp:217] Top shape: 112 512 14 14 (11239424)
I0331 19:08:02.635090 136016 net.cpp:225] Memory required for data: 5185895684
I0331 19:08:02.635094 136016 layer_factory.hpp:114] Creating layer inception_4d/1x1
I0331 19:08:02.635105 136016 net.cpp:160] Creating Layer inception_4d/1x1
I0331 19:08:02.635110 136016 net.cpp:596] inception_4d/1x1 <- inception_4c/output_inception_4c/output_0_split_0
I0331 19:08:02.635120 136016 net.cpp:570] inception_4d/1x1 -> inception_4d/1x1
I0331 19:08:02.642010 136016 net.cpp:210] Setting up inception_4d/1x1
I0331 19:08:02.642025 136016 net.cpp:217] Top shape: 112 112 14 14 (2458624)
I0331 19:08:02.642030 136016 net.cpp:225] Memory required for data: 5195730180
I0331 19:08:02.642036 136016 layer_factory.hpp:114] Creating layer inception_4d/relu_1x1
I0331 19:08:02.642045 136016 net.cpp:160] Creating Layer inception_4d/relu_1x1
I0331 19:08:02.642050 136016 net.cpp:596] inception_4d/relu_1x1 <- inception_4d/1x1
I0331 19:08:02.642062 136016 net.cpp:557] inception_4d/relu_1x1 -> inception_4d/1x1 (in-place)
I0331 19:08:02.642069 136016 net.cpp:210] Setting up inception_4d/relu_1x1
I0331 19:08:02.642076 136016 net.cpp:217] Top shape: 112 112 14 14 (2458624)
I0331 19:08:02.642078 136016 net.cpp:225] Memory required for data: 5205564676
I0331 19:08:02.642082 136016 layer_factory.hpp:114] Creating layer inception_4d/3x3_reduce
I0331 19:08:02.642094 136016 net.cpp:160] Creating Layer inception_4d/3x3_reduce
I0331 19:08:02.642098 136016 net.cpp:596] inception_4d/3x3_reduce <- inception_4c/output_inception_4c/output_0_split_1
I0331 19:08:02.642107 136016 net.cpp:570] inception_4d/3x3_reduce -> inception_4d/3x3_reduce
I0331 19:08:02.650215 136016 net.cpp:210] Setting up inception_4d/3x3_reduce
I0331 19:08:02.650228 136016 net.cpp:217] Top shape: 112 144 14 14 (3161088)
I0331 19:08:02.650233 136016 net.cpp:225] Memory required for data: 5218209028
I0331 19:08:02.650240 136016 layer_factory.hpp:114] Creating layer inception_4d/relu_3x3_reduce
I0331 19:08:02.650248 136016 net.cpp:160] Creating Layer inception_4d/relu_3x3_reduce
I0331 19:08:02.650254 136016 net.cpp:596] inception_4d/relu_3x3_reduce <- inception_4d/3x3_reduce
I0331 19:08:02.650259 136016 net.cpp:557] inception_4d/relu_3x3_reduce -> inception_4d/3x3_reduce (in-place)
I0331 19:08:02.650267 136016 net.cpp:210] Setting up inception_4d/relu_3x3_reduce
I0331 19:08:02.650272 136016 net.cpp:217] Top shape: 112 144 14 14 (3161088)
I0331 19:08:02.650276 136016 net.cpp:225] Memory required for data: 5230853380
I0331 19:08:02.650280 136016 layer_factory.hpp:114] Creating layer inception_4d/3x3
I0331 19:08:02.650291 136016 net.cpp:160] Creating Layer inception_4d/3x3
I0331 19:08:02.650296 136016 net.cpp:596] inception_4d/3x3 <- inception_4d/3x3_reduce
I0331 19:08:02.650305 136016 net.cpp:570] inception_4d/3x3 -> inception_4d/3x3
I0331 19:08:02.677554 136016 net.cpp:210] Setting up inception_4d/3x3
I0331 19:08:02.677601 136016 net.cpp:217] Top shape: 112 288 14 14 (6322176)
I0331 19:08:02.677606 136016 net.cpp:225] Memory required for data: 5256142084
I0331 19:08:02.677620 136016 layer_factory.hpp:114] Creating layer inception_4d/relu_3x3
I0331 19:08:02.677642 136016 net.cpp:160] Creating Layer inception_4d/relu_3x3
I0331 19:08:02.677651 136016 net.cpp:596] inception_4d/relu_3x3 <- inception_4d/3x3
I0331 19:08:02.677660 136016 net.cpp:557] inception_4d/relu_3x3 -> inception_4d/3x3 (in-place)
I0331 19:08:02.677673 136016 net.cpp:210] Setting up inception_4d/relu_3x3
I0331 19:08:02.677680 136016 net.cpp:217] Top shape: 112 288 14 14 (6322176)
I0331 19:08:02.677683 136016 net.cpp:225] Memory required for data: 5281430788
I0331 19:08:02.677687 136016 layer_factory.hpp:114] Creating layer inception_4d/5x5_reduce
I0331 19:08:02.677700 136016 net.cpp:160] Creating Layer inception_4d/5x5_reduce
I0331 19:08:02.677706 136016 net.cpp:596] inception_4d/5x5_reduce <- inception_4c/output_inception_4c/output_0_split_2
I0331 19:08:02.677716 136016 net.cpp:570] inception_4d/5x5_reduce -> inception_4d/5x5_reduce
I0331 19:08:02.683167 136016 net.cpp:210] Setting up inception_4d/5x5_reduce
I0331 19:08:02.683202 136016 net.cpp:217] Top shape: 112 32 14 14 (702464)
I0331 19:08:02.683207 136016 net.cpp:225] Memory required for data: 5284240644
I0331 19:08:02.683213 136016 layer_factory.hpp:114] Creating layer inception_4d/relu_5x5_reduce
I0331 19:08:02.683221 136016 net.cpp:160] Creating Layer inception_4d/relu_5x5_reduce
I0331 19:08:02.683226 136016 net.cpp:596] inception_4d/relu_5x5_reduce <- inception_4d/5x5_reduce
I0331 19:08:02.683233 136016 net.cpp:557] inception_4d/relu_5x5_reduce -> inception_4d/5x5_reduce (in-place)
I0331 19:08:02.683239 136016 net.cpp:210] Setting up inception_4d/relu_5x5_reduce
I0331 19:08:02.683244 136016 net.cpp:217] Top shape: 112 32 14 14 (702464)
I0331 19:08:02.683248 136016 net.cpp:225] Memory required for data: 5287050500
I0331 19:08:02.683253 136016 layer_factory.hpp:114] Creating layer inception_4d/5x5
I0331 19:08:02.683264 136016 net.cpp:160] Creating Layer inception_4d/5x5
I0331 19:08:02.683272 136016 net.cpp:596] inception_4d/5x5 <- inception_4d/5x5_reduce
I0331 19:08:02.683280 136016 net.cpp:570] inception_4d/5x5 -> inception_4d/5x5
I0331 19:08:02.692225 136016 net.cpp:210] Setting up inception_4d/5x5
I0331 19:08:02.692245 136016 net.cpp:217] Top shape: 112 64 14 14 (1404928)
I0331 19:08:02.692250 136016 net.cpp:225] Memory required for data: 5292670212
I0331 19:08:02.692256 136016 layer_factory.hpp:114] Creating layer inception_4d/relu_5x5
I0331 19:08:02.692266 136016 net.cpp:160] Creating Layer inception_4d/relu_5x5
I0331 19:08:02.692271 136016 net.cpp:596] inception_4d/relu_5x5 <- inception_4d/5x5
I0331 19:08:02.692277 136016 net.cpp:557] inception_4d/relu_5x5 -> inception_4d/5x5 (in-place)
I0331 19:08:02.692284 136016 net.cpp:210] Setting up inception_4d/relu_5x5
I0331 19:08:02.692291 136016 net.cpp:217] Top shape: 112 64 14 14 (1404928)
I0331 19:08:02.692293 136016 net.cpp:225] Memory required for data: 5298289924
I0331 19:08:02.692297 136016 layer_factory.hpp:114] Creating layer inception_4d/pool
I0331 19:08:02.692332 136016 net.cpp:160] Creating Layer inception_4d/pool
I0331 19:08:02.692337 136016 net.cpp:596] inception_4d/pool <- inception_4c/output_inception_4c/output_0_split_3
I0331 19:08:02.692345 136016 net.cpp:570] inception_4d/pool -> inception_4d/pool
I0331 19:08:02.692356 136016 net.cpp:210] Setting up inception_4d/pool
I0331 19:08:02.692363 136016 net.cpp:217] Top shape: 112 512 14 14 (11239424)
I0331 19:08:02.692366 136016 net.cpp:225] Memory required for data: 5343247620
I0331 19:08:02.692370 136016 layer_factory.hpp:114] Creating layer inception_4d/pool_proj
I0331 19:08:02.692385 136016 net.cpp:160] Creating Layer inception_4d/pool_proj
I0331 19:08:02.692390 136016 net.cpp:596] inception_4d/pool_proj <- inception_4d/pool
I0331 19:08:02.692399 136016 net.cpp:570] inception_4d/pool_proj -> inception_4d/pool_proj
I0331 19:08:02.698009 136016 net.cpp:210] Setting up inception_4d/pool_proj
I0331 19:08:02.698020 136016 net.cpp:217] Top shape: 112 64 14 14 (1404928)
I0331 19:08:02.698024 136016 net.cpp:225] Memory required for data: 5348867332
I0331 19:08:02.698032 136016 layer_factory.hpp:114] Creating layer inception_4d/relu_pool_proj
I0331 19:08:02.698041 136016 net.cpp:160] Creating Layer inception_4d/relu_pool_proj
I0331 19:08:02.698046 136016 net.cpp:596] inception_4d/relu_pool_proj <- inception_4d/pool_proj
I0331 19:08:02.698052 136016 net.cpp:557] inception_4d/relu_pool_proj -> inception_4d/pool_proj (in-place)
I0331 19:08:02.698058 136016 net.cpp:210] Setting up inception_4d/relu_pool_proj
I0331 19:08:02.698065 136016 net.cpp:217] Top shape: 112 64 14 14 (1404928)
I0331 19:08:02.698067 136016 net.cpp:225] Memory required for data: 5354487044
I0331 19:08:02.698072 136016 layer_factory.hpp:114] Creating layer inception_4d/output
I0331 19:08:02.698082 136016 net.cpp:160] Creating Layer inception_4d/output
I0331 19:08:02.698087 136016 net.cpp:596] inception_4d/output <- inception_4d/1x1
I0331 19:08:02.698093 136016 net.cpp:596] inception_4d/output <- inception_4d/3x3
I0331 19:08:02.698098 136016 net.cpp:596] inception_4d/output <- inception_4d/5x5
I0331 19:08:02.698122 136016 net.cpp:596] inception_4d/output <- inception_4d/pool_proj
I0331 19:08:02.698127 136016 net.cpp:570] inception_4d/output -> inception_4d/output
I0331 19:08:02.698137 136016 net.cpp:210] Setting up inception_4d/output
I0331 19:08:02.698143 136016 net.cpp:217] Top shape: 112 528 14 14 (11590656)
I0331 19:08:02.698146 136016 net.cpp:225] Memory required for data: 5400849668
I0331 19:08:02.698150 136016 layer_factory.hpp:114] Creating layer inception_4d/output_inception_4d/output_0_split
I0331 19:08:02.698161 136016 net.cpp:160] Creating Layer inception_4d/output_inception_4d/output_0_split
I0331 19:08:02.698165 136016 net.cpp:596] inception_4d/output_inception_4d/output_0_split <- inception_4d/output
I0331 19:08:02.698174 136016 net.cpp:570] inception_4d/output_inception_4d/output_0_split -> inception_4d/output_inception_4d/output_0_split_0
I0331 19:08:02.698194 136016 net.cpp:570] inception_4d/output_inception_4d/output_0_split -> inception_4d/output_inception_4d/output_0_split_1
I0331 19:08:02.698200 136016 net.cpp:570] inception_4d/output_inception_4d/output_0_split -> inception_4d/output_inception_4d/output_0_split_2
I0331 19:08:02.698207 136016 net.cpp:570] inception_4d/output_inception_4d/output_0_split -> inception_4d/output_inception_4d/output_0_split_3
I0331 19:08:02.698215 136016 net.cpp:570] inception_4d/output_inception_4d/output_0_split -> inception_4d/output_inception_4d/output_0_split_4
I0331 19:08:02.698225 136016 net.cpp:210] Setting up inception_4d/output_inception_4d/output_0_split
I0331 19:08:02.698230 136016 net.cpp:217] Top shape: 112 528 14 14 (11590656)
I0331 19:08:02.698235 136016 net.cpp:217] Top shape: 112 528 14 14 (11590656)
I0331 19:08:02.698240 136016 net.cpp:217] Top shape: 112 528 14 14 (11590656)
I0331 19:08:02.698245 136016 net.cpp:217] Top shape: 112 528 14 14 (11590656)
I0331 19:08:02.698248 136016 net.cpp:217] Top shape: 112 528 14 14 (11590656)
I0331 19:08:02.698252 136016 net.cpp:225] Memory required for data: 5632662788
I0331 19:08:02.698256 136016 layer_factory.hpp:114] Creating layer loss2/ave_pool
I0331 19:08:02.698276 136016 net.cpp:160] Creating Layer loss2/ave_pool
I0331 19:08:02.698279 136016 net.cpp:596] loss2/ave_pool <- inception_4d/output_inception_4d/output_0_split_0
I0331 19:08:02.698289 136016 net.cpp:570] loss2/ave_pool -> loss2/ave_pool
I0331 19:08:02.698297 136016 net.cpp:210] Setting up loss2/ave_pool
I0331 19:08:02.698302 136016 net.cpp:217] Top shape: 112 528 4 4 (946176)
I0331 19:08:02.698307 136016 net.cpp:225] Memory required for data: 5636447492
I0331 19:08:02.698310 136016 layer_factory.hpp:114] Creating layer loss2/conv
I0331 19:08:02.698321 136016 net.cpp:160] Creating Layer loss2/conv
I0331 19:08:02.698326 136016 net.cpp:596] loss2/conv <- loss2/ave_pool
I0331 19:08:02.698334 136016 net.cpp:570] loss2/conv -> loss2/conv
I0331 19:08:02.702296 136016 net.cpp:210] Setting up loss2/conv
I0331 19:08:02.702307 136016 net.cpp:217] Top shape: 112 128 4 4 (229376)
I0331 19:08:02.702311 136016 net.cpp:225] Memory required for data: 5637364996
I0331 19:08:02.702318 136016 layer_factory.hpp:114] Creating layer loss2/relu_conv
I0331 19:08:02.702328 136016 net.cpp:160] Creating Layer loss2/relu_conv
I0331 19:08:02.702333 136016 net.cpp:596] loss2/relu_conv <- loss2/conv
I0331 19:08:02.702338 136016 net.cpp:557] loss2/relu_conv -> loss2/conv (in-place)
I0331 19:08:02.702345 136016 net.cpp:210] Setting up loss2/relu_conv
I0331 19:08:02.702350 136016 net.cpp:217] Top shape: 112 128 4 4 (229376)
I0331 19:08:02.702354 136016 net.cpp:225] Memory required for data: 5638282500
I0331 19:08:02.702358 136016 layer_factory.hpp:114] Creating layer loss2/fc
I0331 19:08:02.702373 136016 net.cpp:160] Creating Layer loss2/fc
I0331 19:08:02.702376 136016 net.cpp:596] loss2/fc <- loss2/conv
I0331 19:08:02.702384 136016 net.cpp:570] loss2/fc -> loss2/fc
I0331 19:08:02.722275 136016 net.cpp:210] Setting up loss2/fc
I0331 19:08:02.722285 136016 net.cpp:217] Top shape: 112 1024 (114688)
I0331 19:08:02.722290 136016 net.cpp:225] Memory required for data: 5638741252
I0331 19:08:02.722304 136016 layer_factory.hpp:114] Creating layer loss2/relu_fc
I0331 19:08:02.722311 136016 net.cpp:160] Creating Layer loss2/relu_fc
I0331 19:08:02.722316 136016 net.cpp:596] loss2/relu_fc <- loss2/fc
I0331 19:08:02.722323 136016 net.cpp:557] loss2/relu_fc -> loss2/fc (in-place)
I0331 19:08:02.722331 136016 net.cpp:210] Setting up loss2/relu_fc
I0331 19:08:02.722335 136016 net.cpp:217] Top shape: 112 1024 (114688)
I0331 19:08:02.722338 136016 net.cpp:225] Memory required for data: 5639200004
I0331 19:08:02.722342 136016 layer_factory.hpp:114] Creating layer loss2/drop_fc
I0331 19:08:02.722350 136016 net.cpp:160] Creating Layer loss2/drop_fc
I0331 19:08:02.722353 136016 net.cpp:596] loss2/drop_fc <- loss2/fc
I0331 19:08:02.722359 136016 net.cpp:557] loss2/drop_fc -> loss2/fc (in-place)
I0331 19:08:02.722368 136016 net.cpp:210] Setting up loss2/drop_fc
I0331 19:08:02.722376 136016 net.cpp:217] Top shape: 112 1024 (114688)
I0331 19:08:02.722379 136016 net.cpp:225] Memory required for data: 5639658756
I0331 19:08:02.722383 136016 layer_factory.hpp:114] Creating layer loss2/classifier
I0331 19:08:02.722391 136016 net.cpp:160] Creating Layer loss2/classifier
I0331 19:08:02.722395 136016 net.cpp:596] loss2/classifier <- loss2/fc
I0331 19:08:02.722404 136016 net.cpp:570] loss2/classifier -> loss2/classifier
I0331 19:08:02.732384 136016 net.cpp:210] Setting up loss2/classifier
I0331 19:08:02.732394 136016 net.cpp:217] Top shape: 112 1000 (112000)
I0331 19:08:02.732398 136016 net.cpp:225] Memory required for data: 5640106756
I0331 19:08:02.732405 136016 layer_factory.hpp:114] Creating layer loss2/loss
I0331 19:08:02.732414 136016 net.cpp:160] Creating Layer loss2/loss
I0331 19:08:02.732419 136016 net.cpp:596] loss2/loss <- loss2/classifier
I0331 19:08:02.732424 136016 net.cpp:596] loss2/loss <- label_data_1_split_1
I0331 19:08:02.732434 136016 net.cpp:570] loss2/loss -> loss2/loss1
I0331 19:08:02.732444 136016 layer_factory.hpp:114] Creating layer loss2/loss
I0331 19:08:02.732758 136016 net.cpp:210] Setting up loss2/loss
I0331 19:08:02.732767 136016 net.cpp:217] Top shape: (1)
I0331 19:08:02.732771 136016 net.cpp:220]     with loss weight 0.3
I0331 19:08:02.732790 136016 net.cpp:225] Memory required for data: 5640106760
I0331 19:08:02.732795 136016 layer_factory.hpp:114] Creating layer inception_4e/1x1
I0331 19:08:02.732807 136016 net.cpp:160] Creating Layer inception_4e/1x1
I0331 19:08:02.732812 136016 net.cpp:596] inception_4e/1x1 <- inception_4d/output_inception_4d/output_0_split_1
I0331 19:08:02.732820 136016 net.cpp:570] inception_4e/1x1 -> inception_4e/1x1
I0331 19:08:02.743521 136016 net.cpp:210] Setting up inception_4e/1x1
I0331 19:08:02.743541 136016 net.cpp:217] Top shape: 112 256 14 14 (5619712)
I0331 19:08:02.743546 136016 net.cpp:225] Memory required for data: 5662585608
I0331 19:08:02.743553 136016 layer_factory.hpp:114] Creating layer inception_4e/relu_1x1
I0331 19:08:02.743564 136016 net.cpp:160] Creating Layer inception_4e/relu_1x1
I0331 19:08:02.743569 136016 net.cpp:596] inception_4e/relu_1x1 <- inception_4e/1x1
I0331 19:08:02.743577 136016 net.cpp:557] inception_4e/relu_1x1 -> inception_4e/1x1 (in-place)
I0331 19:08:02.743583 136016 net.cpp:210] Setting up inception_4e/relu_1x1
I0331 19:08:02.743588 136016 net.cpp:217] Top shape: 112 256 14 14 (5619712)
I0331 19:08:02.743592 136016 net.cpp:225] Memory required for data: 5685064456
I0331 19:08:02.743597 136016 layer_factory.hpp:114] Creating layer inception_4e/3x3_reduce
I0331 19:08:02.743607 136016 net.cpp:160] Creating Layer inception_4e/3x3_reduce
I0331 19:08:02.743612 136016 net.cpp:596] inception_4e/3x3_reduce <- inception_4d/output_inception_4d/output_0_split_2
I0331 19:08:02.743621 136016 net.cpp:570] inception_4e/3x3_reduce -> inception_4e/3x3_reduce
I0331 19:08:02.752176 136016 net.cpp:210] Setting up inception_4e/3x3_reduce
I0331 19:08:02.752190 136016 net.cpp:217] Top shape: 112 160 14 14 (3512320)
I0331 19:08:02.752194 136016 net.cpp:225] Memory required for data: 5699113736
I0331 19:08:02.752224 136016 layer_factory.hpp:114] Creating layer inception_4e/relu_3x3_reduce
I0331 19:08:02.752233 136016 net.cpp:160] Creating Layer inception_4e/relu_3x3_reduce
I0331 19:08:02.752238 136016 net.cpp:596] inception_4e/relu_3x3_reduce <- inception_4e/3x3_reduce
I0331 19:08:02.752244 136016 net.cpp:557] inception_4e/relu_3x3_reduce -> inception_4e/3x3_reduce (in-place)
I0331 19:08:02.752251 136016 net.cpp:210] Setting up inception_4e/relu_3x3_reduce
I0331 19:08:02.752257 136016 net.cpp:217] Top shape: 112 160 14 14 (3512320)
I0331 19:08:02.752260 136016 net.cpp:225] Memory required for data: 5713163016
I0331 19:08:02.752264 136016 layer_factory.hpp:114] Creating layer inception_4e/3x3
I0331 19:08:02.752277 136016 net.cpp:160] Creating Layer inception_4e/3x3
I0331 19:08:02.752281 136016 net.cpp:596] inception_4e/3x3 <- inception_4e/3x3_reduce
I0331 19:08:02.752290 136016 net.cpp:570] inception_4e/3x3 -> inception_4e/3x3
I0331 19:08:02.784086 136016 net.cpp:210] Setting up inception_4e/3x3
I0331 19:08:02.784134 136016 net.cpp:217] Top shape: 112 320 14 14 (7024640)
I0331 19:08:02.784138 136016 net.cpp:225] Memory required for data: 5741261576
I0331 19:08:02.784152 136016 layer_factory.hpp:114] Creating layer inception_4e/relu_3x3
I0331 19:08:02.784168 136016 net.cpp:160] Creating Layer inception_4e/relu_3x3
I0331 19:08:02.784178 136016 net.cpp:596] inception_4e/relu_3x3 <- inception_4e/3x3
I0331 19:08:02.784188 136016 net.cpp:557] inception_4e/relu_3x3 -> inception_4e/3x3 (in-place)
I0331 19:08:02.784199 136016 net.cpp:210] Setting up inception_4e/relu_3x3
I0331 19:08:02.784205 136016 net.cpp:217] Top shape: 112 320 14 14 (7024640)
I0331 19:08:02.784212 136016 net.cpp:225] Memory required for data: 5769360136
I0331 19:08:02.784217 136016 layer_factory.hpp:114] Creating layer inception_4e/5x5_reduce
I0331 19:08:02.784229 136016 net.cpp:160] Creating Layer inception_4e/5x5_reduce
I0331 19:08:02.784235 136016 net.cpp:596] inception_4e/5x5_reduce <- inception_4d/output_inception_4d/output_0_split_3
I0331 19:08:02.784246 136016 net.cpp:570] inception_4e/5x5_reduce -> inception_4e/5x5_reduce
I0331 19:08:02.789935 136016 net.cpp:210] Setting up inception_4e/5x5_reduce
I0331 19:08:02.789947 136016 net.cpp:217] Top shape: 112 32 14 14 (702464)
I0331 19:08:02.789950 136016 net.cpp:225] Memory required for data: 5772169992
I0331 19:08:02.789958 136016 layer_factory.hpp:114] Creating layer inception_4e/relu_5x5_reduce
I0331 19:08:02.789968 136016 net.cpp:160] Creating Layer inception_4e/relu_5x5_reduce
I0331 19:08:02.789973 136016 net.cpp:596] inception_4e/relu_5x5_reduce <- inception_4e/5x5_reduce
I0331 19:08:02.789980 136016 net.cpp:557] inception_4e/relu_5x5_reduce -> inception_4e/5x5_reduce (in-place)
I0331 19:08:02.789988 136016 net.cpp:210] Setting up inception_4e/relu_5x5_reduce
I0331 19:08:02.789994 136016 net.cpp:217] Top shape: 112 32 14 14 (702464)
I0331 19:08:02.789997 136016 net.cpp:225] Memory required for data: 5774979848
I0331 19:08:02.790001 136016 layer_factory.hpp:114] Creating layer inception_4e/5x5
I0331 19:08:02.790019 136016 net.cpp:160] Creating Layer inception_4e/5x5
I0331 19:08:02.790024 136016 net.cpp:596] inception_4e/5x5 <- inception_4e/5x5_reduce
I0331 19:08:02.790031 136016 net.cpp:570] inception_4e/5x5 -> inception_4e/5x5
I0331 19:08:02.801152 136016 net.cpp:210] Setting up inception_4e/5x5
I0331 19:08:02.801175 136016 net.cpp:217] Top shape: 112 128 14 14 (2809856)
I0331 19:08:02.801179 136016 net.cpp:225] Memory required for data: 5786219272
I0331 19:08:02.801188 136016 layer_factory.hpp:114] Creating layer inception_4e/relu_5x5
I0331 19:08:02.801200 136016 net.cpp:160] Creating Layer inception_4e/relu_5x5
I0331 19:08:02.801206 136016 net.cpp:596] inception_4e/relu_5x5 <- inception_4e/5x5
I0331 19:08:02.801213 136016 net.cpp:557] inception_4e/relu_5x5 -> inception_4e/5x5 (in-place)
I0331 19:08:02.801220 136016 net.cpp:210] Setting up inception_4e/relu_5x5
I0331 19:08:02.801226 136016 net.cpp:217] Top shape: 112 128 14 14 (2809856)
I0331 19:08:02.801230 136016 net.cpp:225] Memory required for data: 5797458696
I0331 19:08:02.801259 136016 layer_factory.hpp:114] Creating layer inception_4e/pool
I0331 19:08:02.801295 136016 net.cpp:160] Creating Layer inception_4e/pool
I0331 19:08:02.801301 136016 net.cpp:596] inception_4e/pool <- inception_4d/output_inception_4d/output_0_split_4
I0331 19:08:02.801311 136016 net.cpp:570] inception_4e/pool -> inception_4e/pool
I0331 19:08:02.801322 136016 net.cpp:210] Setting up inception_4e/pool
I0331 19:08:02.801329 136016 net.cpp:217] Top shape: 112 528 14 14 (11590656)
I0331 19:08:02.801332 136016 net.cpp:225] Memory required for data: 5843821320
I0331 19:08:02.801337 136016 layer_factory.hpp:114] Creating layer inception_4e/pool_proj
I0331 19:08:02.801348 136016 net.cpp:160] Creating Layer inception_4e/pool_proj
I0331 19:08:02.801353 136016 net.cpp:596] inception_4e/pool_proj <- inception_4e/pool
I0331 19:08:02.801362 136016 net.cpp:570] inception_4e/pool_proj -> inception_4e/pool_proj
I0331 19:08:02.809208 136016 net.cpp:210] Setting up inception_4e/pool_proj
I0331 19:08:02.809221 136016 net.cpp:217] Top shape: 112 128 14 14 (2809856)
I0331 19:08:02.809226 136016 net.cpp:225] Memory required for data: 5855060744
I0331 19:08:02.809233 136016 layer_factory.hpp:114] Creating layer inception_4e/relu_pool_proj
I0331 19:08:02.809242 136016 net.cpp:160] Creating Layer inception_4e/relu_pool_proj
I0331 19:08:02.809247 136016 net.cpp:596] inception_4e/relu_pool_proj <- inception_4e/pool_proj
I0331 19:08:02.809254 136016 net.cpp:557] inception_4e/relu_pool_proj -> inception_4e/pool_proj (in-place)
I0331 19:08:02.809262 136016 net.cpp:210] Setting up inception_4e/relu_pool_proj
I0331 19:08:02.809267 136016 net.cpp:217] Top shape: 112 128 14 14 (2809856)
I0331 19:08:02.809270 136016 net.cpp:225] Memory required for data: 5866300168
I0331 19:08:02.809274 136016 layer_factory.hpp:114] Creating layer inception_4e/output
I0331 19:08:02.809283 136016 net.cpp:160] Creating Layer inception_4e/output
I0331 19:08:02.809288 136016 net.cpp:596] inception_4e/output <- inception_4e/1x1
I0331 19:08:02.809293 136016 net.cpp:596] inception_4e/output <- inception_4e/3x3
I0331 19:08:02.809298 136016 net.cpp:596] inception_4e/output <- inception_4e/5x5
I0331 19:08:02.809303 136016 net.cpp:596] inception_4e/output <- inception_4e/pool_proj
I0331 19:08:02.809311 136016 net.cpp:570] inception_4e/output -> inception_4e/output
I0331 19:08:02.809321 136016 net.cpp:210] Setting up inception_4e/output
I0331 19:08:02.809327 136016 net.cpp:217] Top shape: 112 832 14 14 (18264064)
I0331 19:08:02.809331 136016 net.cpp:225] Memory required for data: 5939356424
I0331 19:08:02.809334 136016 layer_factory.hpp:114] Creating layer pool4/3x3_s2
I0331 19:08:02.809360 136016 net.cpp:160] Creating Layer pool4/3x3_s2
I0331 19:08:02.809365 136016 net.cpp:596] pool4/3x3_s2 <- inception_4e/output
I0331 19:08:02.809381 136016 net.cpp:570] pool4/3x3_s2 -> pool4/3x3_s2
I0331 19:08:02.809389 136016 net.cpp:210] Setting up pool4/3x3_s2
I0331 19:08:02.809396 136016 net.cpp:217] Top shape: 112 832 7 7 (4566016)
I0331 19:08:02.809399 136016 net.cpp:225] Memory required for data: 5957620488
I0331 19:08:02.809403 136016 layer_factory.hpp:114] Creating layer pool4/3x3_s2_pool4/3x3_s2_0_split
I0331 19:08:02.809412 136016 net.cpp:160] Creating Layer pool4/3x3_s2_pool4/3x3_s2_0_split
I0331 19:08:02.809417 136016 net.cpp:596] pool4/3x3_s2_pool4/3x3_s2_0_split <- pool4/3x3_s2
I0331 19:08:02.809425 136016 net.cpp:570] pool4/3x3_s2_pool4/3x3_s2_0_split -> pool4/3x3_s2_pool4/3x3_s2_0_split_0
I0331 19:08:02.809432 136016 net.cpp:570] pool4/3x3_s2_pool4/3x3_s2_0_split -> pool4/3x3_s2_pool4/3x3_s2_0_split_1
I0331 19:08:02.809438 136016 net.cpp:570] pool4/3x3_s2_pool4/3x3_s2_0_split -> pool4/3x3_s2_pool4/3x3_s2_0_split_2
I0331 19:08:02.809445 136016 net.cpp:570] pool4/3x3_s2_pool4/3x3_s2_0_split -> pool4/3x3_s2_pool4/3x3_s2_0_split_3
I0331 19:08:02.809453 136016 net.cpp:210] Setting up pool4/3x3_s2_pool4/3x3_s2_0_split
I0331 19:08:02.809458 136016 net.cpp:217] Top shape: 112 832 7 7 (4566016)
I0331 19:08:02.809463 136016 net.cpp:217] Top shape: 112 832 7 7 (4566016)
I0331 19:08:02.809476 136016 net.cpp:217] Top shape: 112 832 7 7 (4566016)
I0331 19:08:02.809481 136016 net.cpp:217] Top shape: 112 832 7 7 (4566016)
I0331 19:08:02.809484 136016 net.cpp:225] Memory required for data: 6030676744
I0331 19:08:02.809489 136016 layer_factory.hpp:114] Creating layer inception_5a/1x1
I0331 19:08:02.809499 136016 net.cpp:160] Creating Layer inception_5a/1x1
I0331 19:08:02.809504 136016 net.cpp:596] inception_5a/1x1 <- pool4/3x3_s2_pool4/3x3_s2_0_split_0
I0331 19:08:02.809510 136016 net.cpp:570] inception_5a/1x1 -> inception_5a/1x1
I0331 19:08:02.821995 136016 net.cpp:210] Setting up inception_5a/1x1
I0331 19:08:02.822018 136016 net.cpp:217] Top shape: 112 256 7 7 (1404928)
I0331 19:08:02.822022 136016 net.cpp:225] Memory required for data: 6036296456
I0331 19:08:02.822031 136016 layer_factory.hpp:114] Creating layer inception_5a/relu_1x1
I0331 19:08:02.822041 136016 net.cpp:160] Creating Layer inception_5a/relu_1x1
I0331 19:08:02.822054 136016 net.cpp:596] inception_5a/relu_1x1 <- inception_5a/1x1
I0331 19:08:02.822064 136016 net.cpp:557] inception_5a/relu_1x1 -> inception_5a/1x1 (in-place)
I0331 19:08:02.822072 136016 net.cpp:210] Setting up inception_5a/relu_1x1
I0331 19:08:02.822078 136016 net.cpp:217] Top shape: 112 256 7 7 (1404928)
I0331 19:08:02.822082 136016 net.cpp:225] Memory required for data: 6041916168
I0331 19:08:02.822085 136016 layer_factory.hpp:114] Creating layer inception_5a/3x3_reduce
I0331 19:08:02.822096 136016 net.cpp:160] Creating Layer inception_5a/3x3_reduce
I0331 19:08:02.822103 136016 net.cpp:596] inception_5a/3x3_reduce <- pool4/3x3_s2_pool4/3x3_s2_0_split_1
I0331 19:08:02.822109 136016 net.cpp:570] inception_5a/3x3_reduce -> inception_5a/3x3_reduce
I0331 19:08:02.830811 136016 net.cpp:210] Setting up inception_5a/3x3_reduce
I0331 19:08:02.830824 136016 net.cpp:217] Top shape: 112 160 7 7 (878080)
I0331 19:08:02.830827 136016 net.cpp:225] Memory required for data: 6045428488
I0331 19:08:02.830835 136016 layer_factory.hpp:114] Creating layer inception_5a/relu_3x3_reduce
I0331 19:08:02.830842 136016 net.cpp:160] Creating Layer inception_5a/relu_3x3_reduce
I0331 19:08:02.830848 136016 net.cpp:596] inception_5a/relu_3x3_reduce <- inception_5a/3x3_reduce
I0331 19:08:02.830855 136016 net.cpp:557] inception_5a/relu_3x3_reduce -> inception_5a/3x3_reduce (in-place)
I0331 19:08:02.830862 136016 net.cpp:210] Setting up inception_5a/relu_3x3_reduce
I0331 19:08:02.830868 136016 net.cpp:217] Top shape: 112 160 7 7 (878080)
I0331 19:08:02.830871 136016 net.cpp:225] Memory required for data: 6048940808
I0331 19:08:02.830875 136016 layer_factory.hpp:114] Creating layer inception_5a/3x3
I0331 19:08:02.830885 136016 net.cpp:160] Creating Layer inception_5a/3x3
I0331 19:08:02.830889 136016 net.cpp:596] inception_5a/3x3 <- inception_5a/3x3_reduce
I0331 19:08:02.830904 136016 net.cpp:570] inception_5a/3x3 -> inception_5a/3x3
I0331 19:08:02.855650 136016 net.cpp:210] Setting up inception_5a/3x3
I0331 19:08:02.855695 136016 net.cpp:217] Top shape: 112 320 7 7 (1756160)
I0331 19:08:02.855700 136016 net.cpp:225] Memory required for data: 6055965448
I0331 19:08:02.855712 136016 layer_factory.hpp:114] Creating layer inception_5a/relu_3x3
I0331 19:08:02.855726 136016 net.cpp:160] Creating Layer inception_5a/relu_3x3
I0331 19:08:02.855736 136016 net.cpp:596] inception_5a/relu_3x3 <- inception_5a/3x3
I0331 19:08:02.855747 136016 net.cpp:557] inception_5a/relu_3x3 -> inception_5a/3x3 (in-place)
I0331 19:08:02.855762 136016 net.cpp:210] Setting up inception_5a/relu_3x3
I0331 19:08:02.855767 136016 net.cpp:217] Top shape: 112 320 7 7 (1756160)
I0331 19:08:02.855772 136016 net.cpp:225] Memory required for data: 6062990088
I0331 19:08:02.855775 136016 layer_factory.hpp:114] Creating layer inception_5a/5x5_reduce
I0331 19:08:02.855789 136016 net.cpp:160] Creating Layer inception_5a/5x5_reduce
I0331 19:08:02.855795 136016 net.cpp:596] inception_5a/5x5_reduce <- pool4/3x3_s2_pool4/3x3_s2_0_split_2
I0331 19:08:02.855804 136016 net.cpp:570] inception_5a/5x5_reduce -> inception_5a/5x5_reduce
I0331 19:08:02.859346 136016 net.cpp:210] Setting up inception_5a/5x5_reduce
I0331 19:08:02.859359 136016 net.cpp:217] Top shape: 112 32 7 7 (175616)
I0331 19:08:02.859362 136016 net.cpp:225] Memory required for data: 6063692552
I0331 19:08:02.859369 136016 layer_factory.hpp:114] Creating layer inception_5a/relu_5x5_reduce
I0331 19:08:02.859380 136016 net.cpp:160] Creating Layer inception_5a/relu_5x5_reduce
I0331 19:08:02.859386 136016 net.cpp:596] inception_5a/relu_5x5_reduce <- inception_5a/5x5_reduce
I0331 19:08:02.859392 136016 net.cpp:557] inception_5a/relu_5x5_reduce -> inception_5a/5x5_reduce (in-place)
I0331 19:08:02.859400 136016 net.cpp:210] Setting up inception_5a/relu_5x5_reduce
I0331 19:08:02.859405 136016 net.cpp:217] Top shape: 112 32 7 7 (175616)
I0331 19:08:02.859408 136016 net.cpp:225] Memory required for data: 6064395016
I0331 19:08:02.859412 136016 layer_factory.hpp:114] Creating layer inception_5a/5x5
I0331 19:08:02.859429 136016 net.cpp:160] Creating Layer inception_5a/5x5
I0331 19:08:02.859433 136016 net.cpp:596] inception_5a/5x5 <- inception_5a/5x5_reduce
I0331 19:08:02.859442 136016 net.cpp:570] inception_5a/5x5 -> inception_5a/5x5
I0331 19:08:02.866314 136016 net.cpp:210] Setting up inception_5a/5x5
I0331 19:08:02.866325 136016 net.cpp:217] Top shape: 112 128 7 7 (702464)
I0331 19:08:02.866329 136016 net.cpp:225] Memory required for data: 6067204872
I0331 19:08:02.866338 136016 layer_factory.hpp:114] Creating layer inception_5a/relu_5x5
I0331 19:08:02.866346 136016 net.cpp:160] Creating Layer inception_5a/relu_5x5
I0331 19:08:02.866351 136016 net.cpp:596] inception_5a/relu_5x5 <- inception_5a/5x5
I0331 19:08:02.866356 136016 net.cpp:557] inception_5a/relu_5x5 -> inception_5a/5x5 (in-place)
I0331 19:08:02.866364 136016 net.cpp:210] Setting up inception_5a/relu_5x5
I0331 19:08:02.866369 136016 net.cpp:217] Top shape: 112 128 7 7 (702464)
I0331 19:08:02.866372 136016 net.cpp:225] Memory required for data: 6070014728
I0331 19:08:02.866376 136016 layer_factory.hpp:114] Creating layer inception_5a/pool
I0331 19:08:02.866415 136016 net.cpp:160] Creating Layer inception_5a/pool
I0331 19:08:02.866420 136016 net.cpp:596] inception_5a/pool <- pool4/3x3_s2_pool4/3x3_s2_0_split_3
I0331 19:08:02.866428 136016 net.cpp:570] inception_5a/pool -> inception_5a/pool
I0331 19:08:02.866441 136016 net.cpp:210] Setting up inception_5a/pool
I0331 19:08:02.866446 136016 net.cpp:217] Top shape: 112 832 7 7 (4566016)
I0331 19:08:02.866451 136016 net.cpp:225] Memory required for data: 6088278792
I0331 19:08:02.866454 136016 layer_factory.hpp:114] Creating layer inception_5a/pool_proj
I0331 19:08:02.866466 136016 net.cpp:160] Creating Layer inception_5a/pool_proj
I0331 19:08:02.866470 136016 net.cpp:596] inception_5a/pool_proj <- inception_5a/pool
I0331 19:08:02.866479 136016 net.cpp:570] inception_5a/pool_proj -> inception_5a/pool_proj
I0331 19:08:02.873762 136016 net.cpp:210] Setting up inception_5a/pool_proj
I0331 19:08:02.873777 136016 net.cpp:217] Top shape: 112 128 7 7 (702464)
I0331 19:08:02.873781 136016 net.cpp:225] Memory required for data: 6091088648
I0331 19:08:02.873788 136016 layer_factory.hpp:114] Creating layer inception_5a/relu_pool_proj
I0331 19:08:02.873796 136016 net.cpp:160] Creating Layer inception_5a/relu_pool_proj
I0331 19:08:02.873801 136016 net.cpp:596] inception_5a/relu_pool_proj <- inception_5a/pool_proj
I0331 19:08:02.873807 136016 net.cpp:557] inception_5a/relu_pool_proj -> inception_5a/pool_proj (in-place)
I0331 19:08:02.873816 136016 net.cpp:210] Setting up inception_5a/relu_pool_proj
I0331 19:08:02.873821 136016 net.cpp:217] Top shape: 112 128 7 7 (702464)
I0331 19:08:02.873824 136016 net.cpp:225] Memory required for data: 6093898504
I0331 19:08:02.873828 136016 layer_factory.hpp:114] Creating layer inception_5a/output
I0331 19:08:02.873836 136016 net.cpp:160] Creating Layer inception_5a/output
I0331 19:08:02.873842 136016 net.cpp:596] inception_5a/output <- inception_5a/1x1
I0331 19:08:02.873847 136016 net.cpp:596] inception_5a/output <- inception_5a/3x3
I0331 19:08:02.873852 136016 net.cpp:596] inception_5a/output <- inception_5a/5x5
I0331 19:08:02.873875 136016 net.cpp:596] inception_5a/output <- inception_5a/pool_proj
I0331 19:08:02.873884 136016 net.cpp:570] inception_5a/output -> inception_5a/output
I0331 19:08:02.873894 136016 net.cpp:210] Setting up inception_5a/output
I0331 19:08:02.873900 136016 net.cpp:217] Top shape: 112 832 7 7 (4566016)
I0331 19:08:02.873903 136016 net.cpp:225] Memory required for data: 6112162568
I0331 19:08:02.873908 136016 layer_factory.hpp:114] Creating layer inception_5a/output_inception_5a/output_0_split
I0331 19:08:02.873915 136016 net.cpp:160] Creating Layer inception_5a/output_inception_5a/output_0_split
I0331 19:08:02.873920 136016 net.cpp:596] inception_5a/output_inception_5a/output_0_split <- inception_5a/output
I0331 19:08:02.873926 136016 net.cpp:570] inception_5a/output_inception_5a/output_0_split -> inception_5a/output_inception_5a/output_0_split_0
I0331 19:08:02.873939 136016 net.cpp:570] inception_5a/output_inception_5a/output_0_split -> inception_5a/output_inception_5a/output_0_split_1
I0331 19:08:02.873944 136016 net.cpp:570] inception_5a/output_inception_5a/output_0_split -> inception_5a/output_inception_5a/output_0_split_2
I0331 19:08:02.873951 136016 net.cpp:570] inception_5a/output_inception_5a/output_0_split -> inception_5a/output_inception_5a/output_0_split_3
I0331 19:08:02.873960 136016 net.cpp:210] Setting up inception_5a/output_inception_5a/output_0_split
I0331 19:08:02.873965 136016 net.cpp:217] Top shape: 112 832 7 7 (4566016)
I0331 19:08:02.873970 136016 net.cpp:217] Top shape: 112 832 7 7 (4566016)
I0331 19:08:02.873973 136016 net.cpp:217] Top shape: 112 832 7 7 (4566016)
I0331 19:08:02.873978 136016 net.cpp:217] Top shape: 112 832 7 7 (4566016)
I0331 19:08:02.873981 136016 net.cpp:225] Memory required for data: 6185218824
I0331 19:08:02.873986 136016 layer_factory.hpp:114] Creating layer inception_5b/1x1
I0331 19:08:02.873996 136016 net.cpp:160] Creating Layer inception_5b/1x1
I0331 19:08:02.874001 136016 net.cpp:596] inception_5b/1x1 <- inception_5a/output_inception_5a/output_0_split_0
I0331 19:08:02.874007 136016 net.cpp:570] inception_5b/1x1 -> inception_5b/1x1
I0331 19:08:02.890661 136016 net.cpp:210] Setting up inception_5b/1x1
I0331 19:08:02.890694 136016 net.cpp:217] Top shape: 112 384 7 7 (2107392)
I0331 19:08:02.890699 136016 net.cpp:225] Memory required for data: 6193648392
I0331 19:08:02.890709 136016 layer_factory.hpp:114] Creating layer inception_5b/relu_1x1
I0331 19:08:02.890720 136016 net.cpp:160] Creating Layer inception_5b/relu_1x1
I0331 19:08:02.890729 136016 net.cpp:596] inception_5b/relu_1x1 <- inception_5b/1x1
I0331 19:08:02.890738 136016 net.cpp:557] inception_5b/relu_1x1 -> inception_5b/1x1 (in-place)
I0331 19:08:02.890746 136016 net.cpp:210] Setting up inception_5b/relu_1x1
I0331 19:08:02.890753 136016 net.cpp:217] Top shape: 112 384 7 7 (2107392)
I0331 19:08:02.890756 136016 net.cpp:225] Memory required for data: 6202077960
I0331 19:08:02.890760 136016 layer_factory.hpp:114] Creating layer inception_5b/3x3_reduce
I0331 19:08:02.890774 136016 net.cpp:160] Creating Layer inception_5b/3x3_reduce
I0331 19:08:02.890779 136016 net.cpp:596] inception_5b/3x3_reduce <- inception_5a/output_inception_5a/output_0_split_1
I0331 19:08:02.890787 136016 net.cpp:570] inception_5b/3x3_reduce -> inception_5b/3x3_reduce
I0331 19:08:02.900399 136016 net.cpp:210] Setting up inception_5b/3x3_reduce
I0331 19:08:02.900411 136016 net.cpp:217] Top shape: 112 192 7 7 (1053696)
I0331 19:08:02.900415 136016 net.cpp:225] Memory required for data: 6206292744
I0331 19:08:02.900424 136016 layer_factory.hpp:114] Creating layer inception_5b/relu_3x3_reduce
I0331 19:08:02.900431 136016 net.cpp:160] Creating Layer inception_5b/relu_3x3_reduce
I0331 19:08:02.900437 136016 net.cpp:596] inception_5b/relu_3x3_reduce <- inception_5b/3x3_reduce
I0331 19:08:02.900446 136016 net.cpp:557] inception_5b/relu_3x3_reduce -> inception_5b/3x3_reduce (in-place)
I0331 19:08:02.900454 136016 net.cpp:210] Setting up inception_5b/relu_3x3_reduce
I0331 19:08:02.900460 136016 net.cpp:217] Top shape: 112 192 7 7 (1053696)
I0331 19:08:02.900486 136016 net.cpp:225] Memory required for data: 6210507528
I0331 19:08:02.900490 136016 layer_factory.hpp:114] Creating layer inception_5b/3x3
I0331 19:08:02.900501 136016 net.cpp:160] Creating Layer inception_5b/3x3
I0331 19:08:02.900506 136016 net.cpp:596] inception_5b/3x3 <- inception_5b/3x3_reduce
I0331 19:08:02.900513 136016 net.cpp:570] inception_5b/3x3 -> inception_5b/3x3
I0331 19:08:02.934798 136016 net.cpp:210] Setting up inception_5b/3x3
I0331 19:08:02.934854 136016 net.cpp:217] Top shape: 112 384 7 7 (2107392)
I0331 19:08:02.934859 136016 net.cpp:225] Memory required for data: 6218937096
I0331 19:08:02.934873 136016 layer_factory.hpp:114] Creating layer inception_5b/relu_3x3
I0331 19:08:02.934890 136016 net.cpp:160] Creating Layer inception_5b/relu_3x3
I0331 19:08:02.934900 136016 net.cpp:596] inception_5b/relu_3x3 <- inception_5b/3x3
I0331 19:08:02.934922 136016 net.cpp:557] inception_5b/relu_3x3 -> inception_5b/3x3 (in-place)
I0331 19:08:02.934936 136016 net.cpp:210] Setting up inception_5b/relu_3x3
I0331 19:08:02.934942 136016 net.cpp:217] Top shape: 112 384 7 7 (2107392)
I0331 19:08:02.934944 136016 net.cpp:225] Memory required for data: 6227366664
I0331 19:08:02.934949 136016 layer_factory.hpp:114] Creating layer inception_5b/5x5_reduce
I0331 19:08:02.934962 136016 net.cpp:160] Creating Layer inception_5b/5x5_reduce
I0331 19:08:02.934967 136016 net.cpp:596] inception_5b/5x5_reduce <- inception_5a/output_inception_5a/output_0_split_2
I0331 19:08:02.934978 136016 net.cpp:570] inception_5b/5x5_reduce -> inception_5b/5x5_reduce
I0331 19:08:02.939478 136016 net.cpp:210] Setting up inception_5b/5x5_reduce
I0331 19:08:02.939491 136016 net.cpp:217] Top shape: 112 48 7 7 (263424)
I0331 19:08:02.939496 136016 net.cpp:225] Memory required for data: 6228420360
I0331 19:08:02.939502 136016 layer_factory.hpp:114] Creating layer inception_5b/relu_5x5_reduce
I0331 19:08:02.939512 136016 net.cpp:160] Creating Layer inception_5b/relu_5x5_reduce
I0331 19:08:02.939517 136016 net.cpp:596] inception_5b/relu_5x5_reduce <- inception_5b/5x5_reduce
I0331 19:08:02.939523 136016 net.cpp:557] inception_5b/relu_5x5_reduce -> inception_5b/5x5_reduce (in-place)
I0331 19:08:02.939530 136016 net.cpp:210] Setting up inception_5b/relu_5x5_reduce
I0331 19:08:02.939535 136016 net.cpp:217] Top shape: 112 48 7 7 (263424)
I0331 19:08:02.939539 136016 net.cpp:225] Memory required for data: 6229474056
I0331 19:08:02.939543 136016 layer_factory.hpp:114] Creating layer inception_5b/5x5
I0331 19:08:02.939555 136016 net.cpp:160] Creating Layer inception_5b/5x5
I0331 19:08:02.939559 136016 net.cpp:596] inception_5b/5x5 <- inception_5b/5x5_reduce
I0331 19:08:02.939568 136016 net.cpp:570] inception_5b/5x5 -> inception_5b/5x5
I0331 19:08:02.949329 136016 net.cpp:210] Setting up inception_5b/5x5
I0331 19:08:02.949347 136016 net.cpp:217] Top shape: 112 128 7 7 (702464)
I0331 19:08:02.949350 136016 net.cpp:225] Memory required for data: 6232283912
I0331 19:08:02.949358 136016 layer_factory.hpp:114] Creating layer inception_5b/relu_5x5
I0331 19:08:02.949367 136016 net.cpp:160] Creating Layer inception_5b/relu_5x5
I0331 19:08:02.949371 136016 net.cpp:596] inception_5b/relu_5x5 <- inception_5b/5x5
I0331 19:08:02.949380 136016 net.cpp:557] inception_5b/relu_5x5 -> inception_5b/5x5 (in-place)
I0331 19:08:02.949388 136016 net.cpp:210] Setting up inception_5b/relu_5x5
I0331 19:08:02.949393 136016 net.cpp:217] Top shape: 112 128 7 7 (702464)
I0331 19:08:02.949396 136016 net.cpp:225] Memory required for data: 6235093768
I0331 19:08:02.949401 136016 layer_factory.hpp:114] Creating layer inception_5b/pool
I0331 19:08:02.949439 136016 net.cpp:160] Creating Layer inception_5b/pool
I0331 19:08:02.949445 136016 net.cpp:596] inception_5b/pool <- inception_5a/output_inception_5a/output_0_split_3
I0331 19:08:02.949453 136016 net.cpp:570] inception_5b/pool -> inception_5b/pool
I0331 19:08:02.949465 136016 net.cpp:210] Setting up inception_5b/pool
I0331 19:08:02.949471 136016 net.cpp:217] Top shape: 112 832 7 7 (4566016)
I0331 19:08:02.949493 136016 net.cpp:225] Memory required for data: 6253357832
I0331 19:08:02.949497 136016 layer_factory.hpp:114] Creating layer inception_5b/pool_proj
I0331 19:08:02.949511 136016 net.cpp:160] Creating Layer inception_5b/pool_proj
I0331 19:08:02.949514 136016 net.cpp:596] inception_5b/pool_proj <- inception_5b/pool
I0331 19:08:02.949523 136016 net.cpp:570] inception_5b/pool_proj -> inception_5b/pool_proj
I0331 19:08:02.956799 136016 net.cpp:210] Setting up inception_5b/pool_proj
I0331 19:08:02.956811 136016 net.cpp:217] Top shape: 112 128 7 7 (702464)
I0331 19:08:02.956815 136016 net.cpp:225] Memory required for data: 6256167688
I0331 19:08:02.956822 136016 layer_factory.hpp:114] Creating layer inception_5b/relu_pool_proj
I0331 19:08:02.956828 136016 net.cpp:160] Creating Layer inception_5b/relu_pool_proj
I0331 19:08:02.956835 136016 net.cpp:596] inception_5b/relu_pool_proj <- inception_5b/pool_proj
I0331 19:08:02.956847 136016 net.cpp:557] inception_5b/relu_pool_proj -> inception_5b/pool_proj (in-place)
I0331 19:08:02.956856 136016 net.cpp:210] Setting up inception_5b/relu_pool_proj
I0331 19:08:02.956861 136016 net.cpp:217] Top shape: 112 128 7 7 (702464)
I0331 19:08:02.956864 136016 net.cpp:225] Memory required for data: 6258977544
I0331 19:08:02.956868 136016 layer_factory.hpp:114] Creating layer inception_5b/output
I0331 19:08:02.956876 136016 net.cpp:160] Creating Layer inception_5b/output
I0331 19:08:02.956881 136016 net.cpp:596] inception_5b/output <- inception_5b/1x1
I0331 19:08:02.956887 136016 net.cpp:596] inception_5b/output <- inception_5b/3x3
I0331 19:08:02.956892 136016 net.cpp:596] inception_5b/output <- inception_5b/5x5
I0331 19:08:02.956897 136016 net.cpp:596] inception_5b/output <- inception_5b/pool_proj
I0331 19:08:02.956902 136016 net.cpp:570] inception_5b/output -> inception_5b/output
I0331 19:08:02.956912 136016 net.cpp:210] Setting up inception_5b/output
I0331 19:08:02.956918 136016 net.cpp:217] Top shape: 112 1024 7 7 (5619712)
I0331 19:08:02.956923 136016 net.cpp:225] Memory required for data: 6281456392
I0331 19:08:02.956925 136016 layer_factory.hpp:114] Creating layer pool5/7x7_s1
I0331 19:08:02.956951 136016 net.cpp:160] Creating Layer pool5/7x7_s1
I0331 19:08:02.956956 136016 net.cpp:596] pool5/7x7_s1 <- inception_5b/output
I0331 19:08:02.956964 136016 net.cpp:570] pool5/7x7_s1 -> pool5/7x7_s1
I0331 19:08:02.956972 136016 net.cpp:210] Setting up pool5/7x7_s1
I0331 19:08:02.956977 136016 net.cpp:217] Top shape: 112 1024 1 1 (114688)
I0331 19:08:02.956981 136016 net.cpp:225] Memory required for data: 6281915144
I0331 19:08:02.956985 136016 layer_factory.hpp:114] Creating layer pool5/drop_7x7_s1
I0331 19:08:02.956996 136016 net.cpp:160] Creating Layer pool5/drop_7x7_s1
I0331 19:08:02.957000 136016 net.cpp:596] pool5/drop_7x7_s1 <- pool5/7x7_s1
I0331 19:08:02.957007 136016 net.cpp:557] pool5/drop_7x7_s1 -> pool5/7x7_s1 (in-place)
I0331 19:08:02.957016 136016 net.cpp:210] Setting up pool5/drop_7x7_s1
I0331 19:08:02.957022 136016 net.cpp:217] Top shape: 112 1024 1 1 (114688)
I0331 19:08:02.957026 136016 net.cpp:225] Memory required for data: 6282373896
I0331 19:08:02.957029 136016 layer_factory.hpp:114] Creating layer loss3/classifier
I0331 19:08:02.957042 136016 net.cpp:160] Creating Layer loss3/classifier
I0331 19:08:02.957046 136016 net.cpp:596] loss3/classifier <- pool5/7x7_s1
I0331 19:08:02.957056 136016 net.cpp:570] loss3/classifier -> loss3/classifier
I0331 19:08:02.967039 136016 net.cpp:210] Setting up loss3/classifier
I0331 19:08:02.967049 136016 net.cpp:217] Top shape: 112 1000 (112000)
I0331 19:08:02.967053 136016 net.cpp:225] Memory required for data: 6282821896
I0331 19:08:02.967061 136016 layer_factory.hpp:114] Creating layer loss3/loss3
I0331 19:08:02.967069 136016 net.cpp:160] Creating Layer loss3/loss3
I0331 19:08:02.967074 136016 net.cpp:596] loss3/loss3 <- loss3/classifier
I0331 19:08:02.967079 136016 net.cpp:596] loss3/loss3 <- label_data_1_split_2
I0331 19:08:02.967085 136016 net.cpp:570] loss3/loss3 -> loss3/loss3
…
I0331 19:08:02.975643 136016 net.cpp:484] The NetState phase (1) differed from the phase (0) specified by a rule in layer data
I0331 19:08:02.980228 136016 net.cpp:120] Initializing net from parameters: 
name: "GoogleNet"
state {
  phase: TEST
}
layer {
  name: "data"
  type: "Data"
  top: "data"
  top: "label"
  include {
    phase: TEST
  }
  transform_param {
    mirror: false
    crop_size: 224
    mean_value: 104
    mean_value: 117
    mean_value: 123
  }
  data_param {
    source: "/home/proy/LIBRARIES/caffeLibs/caffe/examples/imagenet/ilsvrc12_val_lmdb"
    batch_size: 50
    backend: LMDB
  }
}
layer {
  name: "label_data_1_split"
  type: "Split"
  bottom: "label"
  top: "label_data_1_split_0"
  top: "label_data_1_split_1"
  top: "label_data_1_split_2"
  top: "label_data_1_split_3"
  top: "label_data_1_split_4"
  top: "label_data_1_split_5"
  top: "label_data_1_split_6"
  top: "label_data_1_split_7"
  top: "label_data_1_split_8"
}
layer {
  name: "conv1/7x7_s2"
  type: "Convolution"
  bottom: "data"
  top: "conv1/7x7_s2"
  param {
    lr_mult: 1
    decay_mult: 1
  }
  param {
    lr_mult: 2
    decay_mult: 0
  }
  convolution_param {
    num_output: 64
    pad: 3
    kernel_size: 7
    stride: 2
    weight_filler {
      type: "xavier"
    }
    bias_filler {
      type: "constant"
      value: 0.2
    }
  }
}
layer {
  name: "conv1/relu_7x7"
  type: "ReLU"
  bottom: "conv1/7x7_s2"
  top: "conv1/7x7_s2"
}
layer {
  name: "pool1/3x3_s2"
  type: "Pooling"
  bottom: "conv1/7x7_s2"
  top: "pool1/3x3_s2"
  pooling_param {
    pool: MAX
    kernel_size: 3
    stride: 2
  }
}
layer {
  name: "pool1/norm1"
  type: "LRN"
  bottom: "pool1/3x3_s2"
  top: "pool1/norm1"
  lrn_param {
    local_size: 5
    alpha: 0.0001
    beta: 0.75
  }
}
layer {
  name: "conv2/3x3_reduce"
  type: "Convolution"
  bottom: "pool1/norm1"
  top: "conv2/3x3_reduce"
  param {
    lr_mult: 1
    decay_mult: 1
  }
  param {
    lr_mult: 2
    decay_mult: 0
  }
  convolution_param {
    num_output: 64
    kernel_size: 1
    weight_filler {
      type: "xavier"
    }
    bias_filler {
      type: "constant"
      value: 0.2
    }
  }
}
layer {
  name: "conv2/relu_3x3_reduce"
  type: "ReLU"
  bottom: "conv2/3x3_reduce"
  top: "conv2/3x3_reduce"
}
layer {
  name: "conv2/3x3"
  type: "Convolution"
  bottom: "conv2/3x3_reduce"
  top: "conv2/3x3"
  param {
    lr_mult: 1
    decay_mult: 1
  }
  param {
    lr_mult: 2
    decay_mult: 0
  }
  convolution_param {
    num_output: 192
    pad: 1
    kernel_size: 3
    weight_filler {
      type: "xavier"
    }
    bias_filler {
      type: "constant"
      value: 0.2
    }
  }
}
layer {
  name: "conv2/relu_3x3"
  type: "ReLU"
  bottom: "conv2/3x3"
  top: "conv2/3x3"
}
layer {
  name: "conv2/norm2"
  type: "LRN"
  bottom: "conv2/3x3"
  top: "conv2/norm2"
  lrn_param {
    local_size: 5
    alpha: 0.0001
    beta: 0.75
  }
}
layer {
  name: "pool2/3x3_s2"
  type: "Pooling"
  bottom: "conv2/norm2"
  top: "pool2/3x3_s2"
  pooling_param {
    pool: MAX
    kernel_size: 3
    stride: 2
  }
}
layer {
  name: "pool2/3x3_s2_pool2/3x3_s2_0_split"
  type: "Split"
  bottom: "pool2/3x3_s2"
  top: "pool2/3x3_s2_pool2/3x3_s2_0_split_0"
  top: "pool2/3x3_s2_pool2/3x3_s2_0_split_1"
  top: "pool2/3x3_s2_pool2/3x3_s2_0_split_2"
  top: "pool2/3x3_s2_pool2/3x3_s2_0_split_3"
}
layer {
  name: "inception_3a/1x1"
  type: "Convolution"
  bottom: "pool2/3x3_s2_pool2/3x3_s2_0_split_0"
  top: "inception_3a/1x1"
  param {
    lr_mult: 1
    decay_mult: 1
  }
  param {
    lr_mult: 2
    decay_mult: 0
  }
  convolution_param {
    num_output: 64
    kernel_size: 1
    weight_filler {
      type: "xavier"
    }
    bias_filler {
      type: "constant"
      value: 0.2
    }
  }
}
layer {
  name: "inception_3a/relu_1x1"
  type: "ReLU"
  bottom: "inception_3a/1x1"
  top: "inception_3a/1x1"
}
layer {
  name: "inception_3a/3x3_reduce"
  type: "Convolution"
  bottom: "pool2/3x3_s2_pool2/3x3_s2_0_split_1"
  top: "inception_3a/3x3_reduce"
  param {
    lr_mult: 1
    decay_mult: 1
  }
  param {
    lr_mult: 2
    decay_mult: 0
  }
  convolution_param {
    num_output: 96
    kernel_size: 1
    weight_filler {
      type: "xavier"
    }
    bias_filler {
      type: "constant"
      value: 0.2
    }
  }
}
layer {
  name: "inception_3a/relu_3x3_reduce"
  type: "ReLU"
  bottom: "inception_3a/3x3_reduce"
  top: "inception_3a/3x3_reduce"
}
layer {
  name: "inception_3a/3x3"
  type: "Convolution"
  bottom: "inception_3a/3x3_reduce"
  top: "inception_3a/3x3"
  param {
    lr_mult: 1
    decay_mult: 1
  }
  param {
    lr_mult: 2
    decay_mult: 0
  }
  convolution_param {
    num_output: 128
    pad: 1
    kernel_size: 3
    weight_filler {
      type: "xavier"
    }
    bias_filler {
      type: "constant"
      value: 0.2
    }
  }
}
layer {
  name: "inception_3a/relu_3x3"
  type: "ReLU"
  bottom: "inception_3a/3x3"
  top: "inception_3a/3x3"
}
layer {
  name: "inception_3a/5x5_reduce"
  type: "Convolution"
  bottom: "pool2/3x3_s2_pool2/3x3_s2_0_split_2"
  top: "inception_3a/5x5_reduce"
  param {
    lr_mult: 1
    decay_mult: 1
  }
  param {
    lr_mult: 2
    decay_mult: 0
  }
  convolution_param {
    num_output: 16
    kernel_size: 1
    weight_filler {
      type: "xavier"
    }
    bias_filler {
      type: "constant"
      value: 0.2
    }
  }
}
layer {
  name: "inception_3a/relu_5x5_reduce"
  type: "ReLU"
  bottom: "inception_3a/5x5_reduce"
  top: "inception_3a/5x5_reduce"
}
layer {
  name: "inception_3a/5x5"
  type: "Convolution"
  bottom: "inception_3a/5x5_reduce"
  top: "inception_3a/5x5"
  param {
    lr_mult: 1
    decay_mult: 1
  }
  param {
    lr_mult: 2
    decay_mult: 0
  }
  convolution_param {
    num_output: 32
    pad: 2
    kernel_size: 5
    weight_filler {
      type: "xavier"
    }
    bias_filler {
      type: "constant"
      value: 0.2
    }
  }
}
layer {
  name: "inception_3a/relu_5x5"
  type: "ReLU"
  bottom: "inception_3a/5x5"
  top: "inception_3a/5x5"
}
layer {
  name: "inception_3a/pool"
  type: "Pooling"
  bottom: "pool2/3x3_s2_pool2/3x3_s2_0_split_3"
  top: "inception_3a/pool"
  pooling_param {
    pool: MAX
    kernel_size: 3
    stride: 1
    pad: 1
  }
}
layer {
  name: "inception_3a/pool_proj"
  type: "Convolution"
  bottom: "inception_3a/pool"
  top: "inception_3a/pool_proj"
  param {
    lr_mult: 1
    decay_mult: 1
  }
  param {
    lr_mult: 2
    decay_mult: 0
  }
  convolution_param {
    num_output: 32
    kernel_size: 1
    weight_filler {
      type: "xavier"
    }
    bias_filler {
      type: "constant"
      value: 0.2
    }
  }
}
layer {
  name: "inception_3a/relu_pool_proj"
  type: "ReLU"
  bottom: "inception_3a/pool_proj"
  top: "inception_3a/pool_proj"
}
layer {
  name: "inception_3a/output"
  type: "Concat"
  bottom: "inception_3a/1x1"
  bottom: "inception_3a/3x3"
  bottom: "inception_3a/5x5"
  bottom: "inception_3a/pool_proj"
  top: "inception_3a/output"
}
layer {
  name: "inception_3a/output_inception_3a/output_0_split"
  type: "Split"
  bottom: "inception_3a/output"
  top: "inception_3a/output_inception_3a/output_0_split_0"
  top: "inception_3a/output_inception_3a/output_0_split_1"
  top: "inception_3a/output_inception_3a/output_0_split_2"
  top: "inception_3a/output_inception_3a/output_0_split_3"
}
layer {
  name: "inception_3b/1x1"
  type: "Convolution"
  bottom: "inception_3a/output_inception_3a/output_0_split_0"
  top: "inception_3b/1x1"
  param {
    lr_mult: 1
    decay_mult: 1
  }
  param {
    lr_mult: 2
    decay_mult: 0
  }
  convolution_param {
    num_output: 128
    kernel_size: 1
    weight_filler {
      type: "xavier"
    }
    bias_filler {
      type: "constant"
      value: 0.2
    }
  }
}
layer {
  name: "inception_3b/relu_1x1"
  type: "ReLU"
  bottom: "inception_3b/1x1"
  top: "inception_3b/1x1"
}
layer {
  name: "inception_3b/3x3_reduce"
  type: "Convolution"
  bottom: "inception_3a/output_inception_3a/output_0_split_1"
  top: "inception_3b/3x3_reduce"
  param {
    lr_mult: 1
    decay_mult: 1
  }
  param {
    lr_mult: 2
    decay_mult: 0
  }
  convolution_param {
    num_output: 128
    kernel_size: 1
    weight_filler {
      type: "xavier"
    }
    bias_filler {
      type: "constant"
      value: 0.2
    }
  }
}
layer {
  name: "inception_3b/relu_3x3_reduce"
  type: "ReLU"
  bottom: "inception_3b/3x3_reduce"
  top: "inception_3b/3x3_reduce"
}
layer {
  name: "inception_3b/3x3"
  type: "Convolution"
  bottom: "inception_3b/3x3_reduce"
  top: "inception_3b/3x3"
  param {
    lr_mult: 1
    decay_mult: 1
  }
  param {
    lr_mult: 2
    decay_mult: 0
  }
  convolution_param {
    num_output: 192
    pad: 1
    kernel_size: 3
    weight_filler {
      type: "xavier"
    }
    bias_filler {
      type: "constant"
      value: 0.2
    }
  }
}
layer {
  name: "inception_3b/relu_3x3"
  type: "ReLU"
  bottom: "inception_3b/3x3"
  top: "inception_3b/3x3"
}
layer {
  name: "inception_3b/5x5_reduce"
  type: "Convolution"
  bottom: "inception_3a/output_inception_3a/output_0_split_2"
  top: "inception_3b/5x5_reduce"
  param {
    lr_mult: 1
    decay_mult: 1
  }
  param {
    lr_mult: 2
    decay_mult: 0
  }
  convolution_param {
    num_output: 32
    kernel_size: 1
    weight_filler {
      type: "xavier"
    }
    bias_filler {
      type: "constant"
      value: 0.2
    }
  }
}
layer {
  name: "inception_3b/relu_5x5_reduce"
  type: "ReLU"
  bottom: "inception_3b/5x5_reduce"
  top: "inception_3b/5x5_reduce"
}
layer {
  name: "inception_3b/5x5"
  type: "Convolution"
  bottom: "inception_3b/5x5_reduce"
  top: "inception_3b/5x5"
  param {
    lr_mult: 1
    decay_mult: 1
  }
  param {
    lr_mult: 2
    decay_mult: 0
  }
  convolution_param {
    num_output: 96
    pad: 2
    kernel_size: 5
    weight_filler {
      type: "xavier"
    }
    bias_filler {
      type: "constant"
      value: 0.2
    }
  }
}
layer {
  name: "inception_3b/relu_5x5"
  type: "ReLU"
  bottom: "inception_3b/5x5"
  top: "inception_3b/5x5"
}
layer {
  name: "inception_3b/pool"
  type: "Pooling"
  bottom: "inception_3a/output_inception_3a/output_0_split_3"
  top: "inception_3b/pool"
  pooling_param {
    pool: MAX
    kernel_size: 3
    stride: 1
    pad: 1
  }
}
layer {
  name: "inception_3b/pool_proj"
  type: "Convolution"
  bottom: "inception_3b/pool"
  top: "inception_3b/pool_proj"
  param {
    lr_mult: 1
    decay_mult: 1
  }
  param {
    lr_mult: 2
    decay_mult: 0
  }
  convolution_param {
    num_output: 64
    kernel_size: 1
    weight_filler {
      type: "xavier"
    }
    bias_filler {
      type: "constant"
      value: 0.2
    }
  }
}
layer {
  name: "inception_3b/relu_pool_proj"
  type: "ReLU"
  bottom: "inception_3b/pool_proj"
  top: "inception_3b/pool_proj"
}
layer {
  name: "inception_3b/output"
  type: "Concat"
  bottom: "inception_3b/1x1"
  bottom: "inception_3b/3x3"
  bottom: "inception_3b/5x5"
  bottom: "inception_3b/pool_proj"
  top: "inception_3b/output"
}
layer {
  name: "pool3/3x3_s2"
  type: "Pooling"
  bottom: "inception_3b/output"
  top: "pool3/3x3_s2"
  pooling_param {
    pool: MAX
    kernel_size: 3
    stride: 2
  }
}
layer {
  name: "pool3/3x3_s2_pool3/3x3_s2_0_split"
  type: "Split"
  bottom: "pool3/3x3_s2"
  top: "pool3/3x3_s2_pool3/3x3_s2_0_split_0"
  top: "pool3/3x3_s2_pool3/3x3_s2_0_split_1"
  top: "pool3/3x3_s2_pool3/3x3_s2_0_split_2"
  top: "pool3/3x3_s2_pool3/3x3_s2_0_split_3"
}
layer {
  name: "inception_4a/1x1"
  type: "Convolution"
  bottom: "pool3/3x3_s2_pool3/3x3_s2_0_split_0"
  top: "inception_4a/1x1"
  param {
    lr_mult: 1
    decay_mult: 1
  }
  param {
    lr_mult: 2
    decay_mult: 0
  }
  convolution_param {
    num_output: 192
    kernel_size: 1
    weight_filler {
      type: "xavier"
    }
    bias_filler {
      type: "constant"
      value: 0.2
    }
  }
}
layer {
  name: "inception_4a/relu_1x1"
  type: "ReLU"
  bottom: "inception_4a/1x1"
  top: "inception_4a/1x1"
}
layer {
  name: "inception_4a/3x3_reduce"
  type: "Convolution"
  bottom: "pool3/3x3_s2_pool3/3x3_s2_0_split_1"
  top: "inception_4a/3x3_reduce"
  param {
    lr_mult: 1
    decay_mult: 1
  }
  param {
    lr_mult: 2
    decay_mult: 0
  }
  convolution_param {
    num_output: 96
    kernel_size: 1
    weight_filler {
      type: "xavier"
    }
    bias_filler {
      type: "constant"
      value: 0.2
    }
  }
}
layer {
  name: "inception_4a/relu_3x3_reduce"
  type: "ReLU"
  bottom: "inception_4a/3x3_reduce"
  top: "inception_4a/3x3_reduce"
}
layer {
  name: "inception_4a/3x3"
  type: "Convolution"
  bottom: "inception_4a/3x3_reduce"
  top: "inception_4a/3x3"
  param {
    lr_mult: 1
    decay_mult: 1
  }
  param {
    lr_mult: 2
    decay_mult: 0
  }
  convolution_param {
    num_output: 208
    pad: 1
    kernel_size: 3
    weight_filler {
      type: "xavier"
    }
    bias_filler {
      type: "constant"
      value: 0.2
    }
  }
}
layer {
  name: "inception_4a/relu_3x3"
  type: "ReLU"
  bottom: "inception_4a/3x3"
  top: "inception_4a/3x3"
}
layer {
  name: "inception_4a/5x5_reduce"
  type: "Convolution"
…
I0331 19:08:03.530731 136016 layer_factory.hpp:114] Creating layer inception_4c/pool_proj
I0331 19:08:03.530743 136016 net.cpp:160] Creating Layer inception_4c/pool_proj
I0331 19:08:03.530750 136016 net.cpp:596] inception_4c/pool_proj <- inception_4c/pool
I0331 19:08:03.530758 136016 net.cpp:570] inception_4c/pool_proj -> inception_4c/pool_proj
I0331 19:08:03.536849 136016 net.cpp:210] Setting up inception_4c/pool_proj
I0331 19:08:03.536861 136016 net.cpp:217] Top shape: 50 64 14 14 (627200)
I0331 19:08:03.536865 136016 net.cpp:225] Memory required for data: 2212872412
I0331 19:08:03.536872 136016 layer_factory.hpp:114] Creating layer inception_4c/relu_pool_proj
I0331 19:08:03.536883 136016 net.cpp:160] Creating Layer inception_4c/relu_pool_proj
I0331 19:08:03.536888 136016 net.cpp:596] inception_4c/relu_pool_proj <- inception_4c/pool_proj
I0331 19:08:03.536895 136016 net.cpp:557] inception_4c/relu_pool_proj -> inception_4c/pool_proj (in-place)
I0331 19:08:03.536901 136016 net.cpp:210] Setting up inception_4c/relu_pool_proj
I0331 19:08:03.536906 136016 net.cpp:217] Top shape: 50 64 14 14 (627200)
I0331 19:08:03.536911 136016 net.cpp:225] Memory required for data: 2215381212
I0331 19:08:03.536914 136016 layer_factory.hpp:114] Creating layer inception_4c/output
I0331 19:08:03.536926 136016 net.cpp:160] Creating Layer inception_4c/output
I0331 19:08:03.536929 136016 net.cpp:596] inception_4c/output <- inception_4c/1x1
I0331 19:08:03.536936 136016 net.cpp:596] inception_4c/output <- inception_4c/3x3
I0331 19:08:03.536941 136016 net.cpp:596] inception_4c/output <- inception_4c/5x5
I0331 19:08:03.536945 136016 net.cpp:596] inception_4c/output <- inception_4c/pool_proj
I0331 19:08:03.536952 136016 net.cpp:570] inception_4c/output -> inception_4c/output
I0331 19:08:03.536975 136016 net.cpp:210] Setting up inception_4c/output
I0331 19:08:03.536981 136016 net.cpp:217] Top shape: 50 512 14 14 (5017600)
I0331 19:08:03.536985 136016 net.cpp:225] Memory required for data: 2235451612
I0331 19:08:03.536989 136016 layer_factory.hpp:114] Creating layer inception_4c/output_inception_4c/output_0_split
I0331 19:08:03.536998 136016 net.cpp:160] Creating Layer inception_4c/output_inception_4c/output_0_split
I0331 19:08:03.537001 136016 net.cpp:596] inception_4c/output_inception_4c/output_0_split <- inception_4c/output
I0331 19:08:03.537009 136016 net.cpp:570] inception_4c/output_inception_4c/output_0_split -> inception_4c/output_inception_4c/output_0_split_0
I0331 19:08:03.537016 136016 net.cpp:570] inception_4c/output_inception_4c/output_0_split -> inception_4c/output_inception_4c/output_0_split_1
I0331 19:08:03.537024 136016 net.cpp:570] inception_4c/output_inception_4c/output_0_split -> inception_4c/output_inception_4c/output_0_split_2
I0331 19:08:03.537034 136016 net.cpp:570] inception_4c/output_inception_4c/output_0_split -> inception_4c/output_inception_4c/output_0_split_3
I0331 19:08:03.537045 136016 net.cpp:210] Setting up inception_4c/output_inception_4c/output_0_split
I0331 19:08:03.537050 136016 net.cpp:217] Top shape: 50 512 14 14 (5017600)
I0331 19:08:03.537055 136016 net.cpp:217] Top shape: 50 512 14 14 (5017600)
I0331 19:08:03.537060 136016 net.cpp:217] Top shape: 50 512 14 14 (5017600)
I0331 19:08:03.537063 136016 net.cpp:217] Top shape: 50 512 14 14 (5017600)
I0331 19:08:03.537067 136016 net.cpp:225] Memory required for data: 2315733212
I0331 19:08:03.537070 136016 layer_factory.hpp:114] Creating layer inception_4d/1x1
I0331 19:08:03.537081 136016 net.cpp:160] Creating Layer inception_4d/1x1
I0331 19:08:03.537086 136016 net.cpp:596] inception_4d/1x1 <- inception_4c/output_inception_4c/output_0_split_0
I0331 19:08:03.537094 136016 net.cpp:570] inception_4d/1x1 -> inception_4d/1x1
I0331 19:08:03.543953 136016 net.cpp:210] Setting up inception_4d/1x1
I0331 19:08:03.543965 136016 net.cpp:217] Top shape: 50 112 14 14 (1097600)
I0331 19:08:03.543969 136016 net.cpp:225] Memory required for data: 2320123612
I0331 19:08:03.543977 136016 layer_factory.hpp:114] Creating layer inception_4d/relu_1x1
I0331 19:08:03.543983 136016 net.cpp:160] Creating Layer inception_4d/relu_1x1
I0331 19:08:03.543988 136016 net.cpp:596] inception_4d/relu_1x1 <- inception_4d/1x1
I0331 19:08:03.543997 136016 net.cpp:557] inception_4d/relu_1x1 -> inception_4d/1x1 (in-place)
I0331 19:08:03.544003 136016 net.cpp:210] Setting up inception_4d/relu_1x1
I0331 19:08:03.544008 136016 net.cpp:217] Top shape: 50 112 14 14 (1097600)
I0331 19:08:03.544011 136016 net.cpp:225] Memory required for data: 2324514012
I0331 19:08:03.544015 136016 layer_factory.hpp:114] Creating layer inception_4d/3x3_reduce
I0331 19:08:03.544026 136016 net.cpp:160] Creating Layer inception_4d/3x3_reduce
I0331 19:08:03.544031 136016 net.cpp:596] inception_4d/3x3_reduce <- inception_4c/output_inception_4c/output_0_split_1
I0331 19:08:03.544039 136016 net.cpp:570] inception_4d/3x3_reduce -> inception_4d/3x3_reduce
I0331 19:08:03.552099 136016 net.cpp:210] Setting up inception_4d/3x3_reduce
I0331 19:08:03.552112 136016 net.cpp:217] Top shape: 50 144 14 14 (1411200)
I0331 19:08:03.552116 136016 net.cpp:225] Memory required for data: 2330158812
I0331 19:08:03.552124 136016 layer_factory.hpp:114] Creating layer inception_4d/relu_3x3_reduce
I0331 19:08:03.552131 136016 net.cpp:160] Creating Layer inception_4d/relu_3x3_reduce
I0331 19:08:03.552137 136016 net.cpp:596] inception_4d/relu_3x3_reduce <- inception_4d/3x3_reduce
I0331 19:08:03.552145 136016 net.cpp:557] inception_4d/relu_3x3_reduce -> inception_4d/3x3_reduce (in-place)
I0331 19:08:03.552151 136016 net.cpp:210] Setting up inception_4d/relu_3x3_reduce
I0331 19:08:03.552157 136016 net.cpp:217] Top shape: 50 144 14 14 (1411200)
I0331 19:08:03.552160 136016 net.cpp:225] Memory required for data: 2335803612
I0331 19:08:03.552165 136016 layer_factory.hpp:114] Creating layer inception_4d/3x3
I0331 19:08:03.552194 136016 net.cpp:160] Creating Layer inception_4d/3x3
I0331 19:08:03.552198 136016 net.cpp:596] inception_4d/3x3 <- inception_4d/3x3_reduce
I0331 19:08:03.552206 136016 net.cpp:570] inception_4d/3x3 -> inception_4d/3x3
I0331 19:08:03.578809 136016 net.cpp:210] Setting up inception_4d/3x3
I0331 19:08:03.578855 136016 net.cpp:217] Top shape: 50 288 14 14 (2822400)
I0331 19:08:03.578860 136016 net.cpp:225] Memory required for data: 2347093212
I0331 19:08:03.578873 136016 layer_factory.hpp:114] Creating layer inception_4d/relu_3x3
I0331 19:08:03.578891 136016 net.cpp:160] Creating Layer inception_4d/relu_3x3
I0331 19:08:03.578900 136016 net.cpp:596] inception_4d/relu_3x3 <- inception_4d/3x3
I0331 19:08:03.578909 136016 net.cpp:557] inception_4d/relu_3x3 -> inception_4d/3x3 (in-place)
I0331 19:08:03.578922 136016 net.cpp:210] Setting up inception_4d/relu_3x3
I0331 19:08:03.578927 136016 net.cpp:217] Top shape: 50 288 14 14 (2822400)
I0331 19:08:03.578941 136016 net.cpp:225] Memory required for data: 2358382812
I0331 19:08:03.578946 136016 layer_factory.hpp:114] Creating layer inception_4d/5x5_reduce
I0331 19:08:03.578959 136016 net.cpp:160] Creating Layer inception_4d/5x5_reduce
I0331 19:08:03.578965 136016 net.cpp:596] inception_4d/5x5_reduce <- inception_4c/output_inception_4c/output_0_split_2
I0331 19:08:03.578976 136016 net.cpp:570] inception_4d/5x5_reduce -> inception_4d/5x5_reduce
I0331 19:08:03.584401 136016 net.cpp:210] Setting up inception_4d/5x5_reduce
I0331 19:08:03.584414 136016 net.cpp:217] Top shape: 50 32 14 14 (313600)
I0331 19:08:03.584417 136016 net.cpp:225] Memory required for data: 2359637212
I0331 19:08:03.584424 136016 layer_factory.hpp:114] Creating layer inception_4d/relu_5x5_reduce
I0331 19:08:03.584434 136016 net.cpp:160] Creating Layer inception_4d/relu_5x5_reduce
I0331 19:08:03.584439 136016 net.cpp:596] inception_4d/relu_5x5_reduce <- inception_4d/5x5_reduce
I0331 19:08:03.584445 136016 net.cpp:557] inception_4d/relu_5x5_reduce -> inception_4d/5x5_reduce (in-place)
I0331 19:08:03.584452 136016 net.cpp:210] Setting up inception_4d/relu_5x5_reduce
I0331 19:08:03.584457 136016 net.cpp:217] Top shape: 50 32 14 14 (313600)
I0331 19:08:03.584461 136016 net.cpp:225] Memory required for data: 2360891612
I0331 19:08:03.584465 136016 layer_factory.hpp:114] Creating layer inception_4d/5x5
I0331 19:08:03.584476 136016 net.cpp:160] Creating Layer inception_4d/5x5
I0331 19:08:03.584481 136016 net.cpp:596] inception_4d/5x5 <- inception_4d/5x5_reduce
I0331 19:08:03.584489 136016 net.cpp:570] inception_4d/5x5 -> inception_4d/5x5
I0331 19:08:03.593397 136016 net.cpp:210] Setting up inception_4d/5x5
I0331 19:08:03.593416 136016 net.cpp:217] Top shape: 50 64 14 14 (627200)
I0331 19:08:03.593420 136016 net.cpp:225] Memory required for data: 2363400412
I0331 19:08:03.593428 136016 layer_factory.hpp:114] Creating layer inception_4d/relu_5x5
I0331 19:08:03.593436 136016 net.cpp:160] Creating Layer inception_4d/relu_5x5
I0331 19:08:03.593442 136016 net.cpp:596] inception_4d/relu_5x5 <- inception_4d/5x5
I0331 19:08:03.593456 136016 net.cpp:557] inception_4d/relu_5x5 -> inception_4d/5x5 (in-place)
I0331 19:08:03.593463 136016 net.cpp:210] Setting up inception_4d/relu_5x5
I0331 19:08:03.593468 136016 net.cpp:217] Top shape: 50 64 14 14 (627200)
I0331 19:08:03.593472 136016 net.cpp:225] Memory required for data: 2365909212
I0331 19:08:03.593477 136016 layer_factory.hpp:114] Creating layer inception_4d/pool
I0331 19:08:03.593513 136016 net.cpp:160] Creating Layer inception_4d/pool
I0331 19:08:03.593518 136016 net.cpp:596] inception_4d/pool <- inception_4c/output_inception_4c/output_0_split_3
I0331 19:08:03.593528 136016 net.cpp:570] inception_4d/pool -> inception_4d/pool
I0331 19:08:03.593539 136016 net.cpp:210] Setting up inception_4d/pool
I0331 19:08:03.593545 136016 net.cpp:217] Top shape: 50 512 14 14 (5017600)
I0331 19:08:03.593549 136016 net.cpp:225] Memory required for data: 2385979612
I0331 19:08:03.593554 136016 layer_factory.hpp:114] Creating layer inception_4d/pool_proj
I0331 19:08:03.593569 136016 net.cpp:160] Creating Layer inception_4d/pool_proj
I0331 19:08:03.593593 136016 net.cpp:596] inception_4d/pool_proj <- inception_4d/pool
I0331 19:08:03.593603 136016 net.cpp:570] inception_4d/pool_proj -> inception_4d/pool_proj
I0331 19:08:03.599707 136016 net.cpp:210] Setting up inception_4d/pool_proj
I0331 19:08:03.599720 136016 net.cpp:217] Top shape: 50 64 14 14 (627200)
I0331 19:08:03.599723 136016 net.cpp:225] Memory required for data: 2388488412
I0331 19:08:03.599730 136016 layer_factory.hpp:114] Creating layer inception_4d/relu_pool_proj
I0331 19:08:03.599738 136016 net.cpp:160] Creating Layer inception_4d/relu_pool_proj
I0331 19:08:03.599743 136016 net.cpp:596] inception_4d/relu_pool_proj <- inception_4d/pool_proj
I0331 19:08:03.599751 136016 net.cpp:557] inception_4d/relu_pool_proj -> inception_4d/pool_proj (in-place)
I0331 19:08:03.599758 136016 net.cpp:210] Setting up inception_4d/relu_pool_proj
I0331 19:08:03.599769 136016 net.cpp:217] Top shape: 50 64 14 14 (627200)
I0331 19:08:03.599773 136016 net.cpp:225] Memory required for data: 2390997212
I0331 19:08:03.599777 136016 layer_factory.hpp:114] Creating layer inception_4d/output
I0331 19:08:03.599786 136016 net.cpp:160] Creating Layer inception_4d/output
I0331 19:08:03.599791 136016 net.cpp:596] inception_4d/output <- inception_4d/1x1
I0331 19:08:03.599797 136016 net.cpp:596] inception_4d/output <- inception_4d/3x3
I0331 19:08:03.599802 136016 net.cpp:596] inception_4d/output <- inception_4d/5x5
I0331 19:08:03.599807 136016 net.cpp:596] inception_4d/output <- inception_4d/pool_proj
I0331 19:08:03.599818 136016 net.cpp:570] inception_4d/output -> inception_4d/output
I0331 19:08:03.599828 136016 net.cpp:210] Setting up inception_4d/output
I0331 19:08:03.599834 136016 net.cpp:217] Top shape: 50 528 14 14 (5174400)
I0331 19:08:03.599838 136016 net.cpp:225] Memory required for data: 2411694812
I0331 19:08:03.599841 136016 layer_factory.hpp:114] Creating layer inception_4d/output_inception_4d/output_0_split
I0331 19:08:03.599851 136016 net.cpp:160] Creating Layer inception_4d/output_inception_4d/output_0_split
I0331 19:08:03.599855 136016 net.cpp:596] inception_4d/output_inception_4d/output_0_split <- inception_4d/output
I0331 19:08:03.599864 136016 net.cpp:570] inception_4d/output_inception_4d/output_0_split -> inception_4d/output_inception_4d/output_0_split_0
I0331 19:08:03.599871 136016 net.cpp:570] inception_4d/output_inception_4d/output_0_split -> inception_4d/output_inception_4d/output_0_split_1
I0331 19:08:03.599879 136016 net.cpp:570] inception_4d/output_inception_4d/output_0_split -> inception_4d/output_inception_4d/output_0_split_2
I0331 19:08:03.599884 136016 net.cpp:570] inception_4d/output_inception_4d/output_0_split -> inception_4d/output_inception_4d/output_0_split_3
I0331 19:08:03.599891 136016 net.cpp:570] inception_4d/output_inception_4d/output_0_split -> inception_4d/output_inception_4d/output_0_split_4
I0331 19:08:03.599902 136016 net.cpp:210] Setting up inception_4d/output_inception_4d/output_0_split
I0331 19:08:03.599907 136016 net.cpp:217] Top shape: 50 528 14 14 (5174400)
I0331 19:08:03.599912 136016 net.cpp:217] Top shape: 50 528 14 14 (5174400)
I0331 19:08:03.599916 136016 net.cpp:217] Top shape: 50 528 14 14 (5174400)
I0331 19:08:03.599921 136016 net.cpp:217] Top shape: 50 528 14 14 (5174400)
I0331 19:08:03.599926 136016 net.cpp:217] Top shape: 50 528 14 14 (5174400)
I0331 19:08:03.599930 136016 net.cpp:225] Memory required for data: 2515182812
I0331 19:08:03.599933 136016 layer_factory.hpp:114] Creating layer loss2/ave_pool
I0331 19:08:03.599953 136016 net.cpp:160] Creating Layer loss2/ave_pool
I0331 19:08:03.599958 136016 net.cpp:596] loss2/ave_pool <- inception_4d/output_inception_4d/output_0_split_0
I0331 19:08:03.599967 136016 net.cpp:570] loss2/ave_pool -> loss2/ave_pool
I0331 19:08:03.599975 136016 net.cpp:210] Setting up loss2/ave_pool
I0331 19:08:03.599982 136016 net.cpp:217] Top shape: 50 528 4 4 (422400)
I0331 19:08:03.599984 136016 net.cpp:225] Memory required for data: 2516872412
I0331 19:08:03.599988 136016 layer_factory.hpp:114] Creating layer loss2/conv
I0331 19:08:03.600008 136016 net.cpp:160] Creating Layer loss2/conv
I0331 19:08:03.600013 136016 net.cpp:596] loss2/conv <- loss2/ave_pool
I0331 19:08:03.600020 136016 net.cpp:570] loss2/conv -> loss2/conv
I0331 19:08:03.604461 136016 net.cpp:210] Setting up loss2/conv
I0331 19:08:03.604473 136016 net.cpp:217] Top shape: 50 128 4 4 (102400)
I0331 19:08:03.604477 136016 net.cpp:225] Memory required for data: 2517282012
I0331 19:08:03.604485 136016 layer_factory.hpp:114] Creating layer loss2/relu_conv
I0331 19:08:03.604491 136016 net.cpp:160] Creating Layer loss2/relu_conv
I0331 19:08:03.604496 136016 net.cpp:596] loss2/relu_conv <- loss2/conv
I0331 19:08:03.604503 136016 net.cpp:557] loss2/relu_conv -> loss2/conv (in-place)
I0331 19:08:03.604511 136016 net.cpp:210] Setting up loss2/relu_conv
I0331 19:08:03.604516 136016 net.cpp:217] Top shape: 50 128 4 4 (102400)
I0331 19:08:03.604524 136016 net.cpp:225] Memory required for data: 2517691612
I0331 19:08:03.604528 136016 layer_factory.hpp:114] Creating layer loss2/fc
I0331 19:08:03.604542 136016 net.cpp:160] Creating Layer loss2/fc
I0331 19:08:03.604547 136016 net.cpp:596] loss2/fc <- loss2/conv
I0331 19:08:03.604555 136016 net.cpp:570] loss2/fc -> loss2/fc
I0331 19:08:03.624444 136016 net.cpp:210] Setting up loss2/fc
I0331 19:08:03.624454 136016 net.cpp:217] Top shape: 50 1024 (51200)
I0331 19:08:03.624457 136016 net.cpp:225] Memory required for data: 2517896412
I0331 19:08:03.624464 136016 layer_factory.hpp:114] Creating layer loss2/relu_fc
I0331 19:08:03.624471 136016 net.cpp:160] Creating Layer loss2/relu_fc
I0331 19:08:03.624476 136016 net.cpp:596] loss2/relu_fc <- loss2/fc
I0331 19:08:03.624482 136016 net.cpp:557] loss2/relu_fc -> loss2/fc (in-place)
I0331 19:08:03.624488 136016 net.cpp:210] Setting up loss2/relu_fc
I0331 19:08:03.624493 136016 net.cpp:217] Top shape: 50 1024 (51200)
I0331 19:08:03.624497 136016 net.cpp:225] Memory required for data: 2518101212
I0331 19:08:03.624501 136016 layer_factory.hpp:114] Creating layer loss2/drop_fc
I0331 19:08:03.624516 136016 net.cpp:160] Creating Layer loss2/drop_fc
I0331 19:08:03.624521 136016 net.cpp:596] loss2/drop_fc <- loss2/fc
I0331 19:08:03.624526 136016 net.cpp:557] loss2/drop_fc -> loss2/fc (in-place)
I0331 19:08:03.624536 136016 net.cpp:210] Setting up loss2/drop_fc
I0331 19:08:03.624541 136016 net.cpp:217] Top shape: 50 1024 (51200)
I0331 19:08:03.624543 136016 net.cpp:225] Memory required for data: 2518306012
I0331 19:08:03.624547 136016 layer_factory.hpp:114] Creating layer loss2/classifier
I0331 19:08:03.624555 136016 net.cpp:160] Creating Layer loss2/classifier
I0331 19:08:03.624559 136016 net.cpp:596] loss2/classifier <- loss2/fc
I0331 19:08:03.624567 136016 net.cpp:570] loss2/classifier -> loss2/classifier
I0331 19:08:03.634527 136016 net.cpp:210] Setting up loss2/classifier
I0331 19:08:03.634538 136016 net.cpp:217] Top shape: 50 1000 (50000)
I0331 19:08:03.634541 136016 net.cpp:225] Memory required for data: 2518506012
I0331 19:08:03.634548 136016 layer_factory.hpp:114] Creating layer loss2/classifier_loss2/classifier_0_split
I0331 19:08:03.634557 136016 net.cpp:160] Creating Layer loss2/classifier_loss2/classifier_0_split
I0331 19:08:03.634562 136016 net.cpp:596] loss2/classifier_loss2/classifier_0_split <- loss2/classifier
I0331 19:08:03.634567 136016 net.cpp:570] loss2/classifier_loss2/classifier_0_split -> loss2/classifier_loss2/classifier_0_split_0
I0331 19:08:03.634574 136016 net.cpp:570] loss2/classifier_loss2/classifier_0_split -> loss2/classifier_loss2/classifier_0_split_1
I0331 19:08:03.634582 136016 net.cpp:570] loss2/classifier_loss2/classifier_0_split -> loss2/classifier_loss2/classifier_0_split_2
I0331 19:08:03.634588 136016 net.cpp:210] Setting up loss2/classifier_loss2/classifier_0_split
I0331 19:08:03.634593 136016 net.cpp:217] Top shape: 50 1000 (50000)
I0331 19:08:03.634598 136016 net.cpp:217] Top shape: 50 1000 (50000)
I0331 19:08:03.634603 136016 net.cpp:217] Top shape: 50 1000 (50000)
I0331 19:08:03.634605 136016 net.cpp:225] Memory required for data: 2519106012
I0331 19:08:03.634618 136016 layer_factory.hpp:114] Creating layer loss2/loss
I0331 19:08:03.634631 136016 net.cpp:160] Creating Layer loss2/loss
I0331 19:08:03.634637 136016 net.cpp:596] loss2/loss <- loss2/classifier_loss2/classifier_0_split_0
I0331 19:08:03.634644 136016 net.cpp:596] loss2/loss <- label_data_1_split_3
…
I0331 19:08:03.634932 136016 net.cpp:210] Setting up loss2/top-5
I0331 19:08:03.634937 136016 net.cpp:217] Top shape: (1)
I0331 19:08:03.634940 136016 net.cpp:225] Memory required for data: 2519106024
I0331 19:08:03.634944 136016 layer_factory.hpp:114] Creating layer inception_4e/1x1
I0331 19:08:03.634955 136016 net.cpp:160] Creating Layer inception_4e/1x1
I0331 19:08:03.634960 136016 net.cpp:596] inception_4e/1x1 <- inception_4d/output_inception_4d/output_0_split_1
I0331 19:08:03.634968 136016 net.cpp:570] inception_4e/1x1 -> inception_4e/1x1
I0331 19:08:03.645602 136016 net.cpp:210] Setting up inception_4e/1x1
I0331 19:08:03.645630 136016 net.cpp:217] Top shape: 50 256 14 14 (2508800)
I0331 19:08:03.645635 136016 net.cpp:225] Memory required for data: 2529141224
I0331 19:08:03.645644 136016 layer_factory.hpp:114] Creating layer inception_4e/relu_1x1
I0331 19:08:03.645655 136016 net.cpp:160] Creating Layer inception_4e/relu_1x1
I0331 19:08:03.645660 136016 net.cpp:596] inception_4e/relu_1x1 <- inception_4e/1x1
I0331 19:08:03.645668 136016 net.cpp:557] inception_4e/relu_1x1 -> inception_4e/1x1 (in-place)
I0331 19:08:03.645675 136016 net.cpp:210] Setting up inception_4e/relu_1x1
I0331 19:08:03.645680 136016 net.cpp:217] Top shape: 50 256 14 14 (2508800)
I0331 19:08:03.645684 136016 net.cpp:225] Memory required for data: 2539176424
I0331 19:08:03.645689 136016 layer_factory.hpp:114] Creating layer inception_4e/3x3_reduce
I0331 19:08:03.645707 136016 net.cpp:160] Creating Layer inception_4e/3x3_reduce
I0331 19:08:03.645712 136016 net.cpp:596] inception_4e/3x3_reduce <- inception_4d/output_inception_4d/output_0_split_2
I0331 19:08:03.645720 136016 net.cpp:570] inception_4e/3x3_reduce -> inception_4e/3x3_reduce
I0331 19:08:03.654222 136016 net.cpp:210] Setting up inception_4e/3x3_reduce
I0331 19:08:03.654234 136016 net.cpp:217] Top shape: 50 160 14 14 (1568000)
I0331 19:08:03.654238 136016 net.cpp:225] Memory required for data: 2545448424
I0331 19:08:03.654247 136016 layer_factory.hpp:114] Creating layer inception_4e/relu_3x3_reduce
I0331 19:08:03.654254 136016 net.cpp:160] Creating Layer inception_4e/relu_3x3_reduce
I0331 19:08:03.654260 136016 net.cpp:596] inception_4e/relu_3x3_reduce <- inception_4e/3x3_reduce
I0331 19:08:03.654274 136016 net.cpp:557] inception_4e/relu_3x3_reduce -> inception_4e/3x3_reduce (in-place)
I0331 19:08:03.654302 136016 net.cpp:210] Setting up inception_4e/relu_3x3_reduce
I0331 19:08:03.654309 136016 net.cpp:217] Top shape: 50 160 14 14 (1568000)
I0331 19:08:03.654312 136016 net.cpp:225] Memory required for data: 2551720424
I0331 19:08:03.654316 136016 layer_factory.hpp:114] Creating layer inception_4e/3x3
I0331 19:08:03.654326 136016 net.cpp:160] Creating Layer inception_4e/3x3
I0331 19:08:03.654331 136016 net.cpp:596] inception_4e/3x3 <- inception_4e/3x3_reduce
I0331 19:08:03.654340 136016 net.cpp:570] inception_4e/3x3 -> inception_4e/3x3
I0331 19:08:03.685988 136016 net.cpp:210] Setting up inception_4e/3x3
I0331 19:08:03.686033 136016 net.cpp:217] Top shape: 50 320 14 14 (3136000)
I0331 19:08:03.686038 136016 net.cpp:225] Memory required for data: 2564264424
I0331 19:08:03.686053 136016 layer_factory.hpp:114] Creating layer inception_4e/relu_3x3
I0331 19:08:03.686069 136016 net.cpp:160] Creating Layer inception_4e/relu_3x3
I0331 19:08:03.686087 136016 net.cpp:596] inception_4e/relu_3x3 <- inception_4e/3x3
I0331 19:08:03.686096 136016 net.cpp:557] inception_4e/relu_3x3 -> inception_4e/3x3 (in-place)
I0331 19:08:03.686108 136016 net.cpp:210] Setting up inception_4e/relu_3x3
I0331 19:08:03.686115 136016 net.cpp:217] Top shape: 50 320 14 14 (3136000)
I0331 19:08:03.686118 136016 net.cpp:225] Memory required for data: 2576808424
I0331 19:08:03.686123 136016 layer_factory.hpp:114] Creating layer inception_4e/5x5_reduce
I0331 19:08:03.686136 136016 net.cpp:160] Creating Layer inception_4e/5x5_reduce
I0331 19:08:03.686141 136016 net.cpp:596] inception_4e/5x5_reduce <- inception_4d/output_inception_4d/output_0_split_3
I0331 19:08:03.686149 136016 net.cpp:570] inception_4e/5x5_reduce -> inception_4e/5x5_reduce
I0331 19:08:03.691814 136016 net.cpp:210] Setting up inception_4e/5x5_reduce
I0331 19:08:03.691826 136016 net.cpp:217] Top shape: 50 32 14 14 (313600)
I0331 19:08:03.691830 136016 net.cpp:225] Memory required for data: 2578062824
I0331 19:08:03.691838 136016 layer_factory.hpp:114] Creating layer inception_4e/relu_5x5_reduce
I0331 19:08:03.691845 136016 net.cpp:160] Creating Layer inception_4e/relu_5x5_reduce
I0331 19:08:03.691850 136016 net.cpp:596] inception_4e/relu_5x5_reduce <- inception_4e/5x5_reduce
I0331 19:08:03.691859 136016 net.cpp:557] inception_4e/relu_5x5_reduce -> inception_4e/5x5_reduce (in-place)
I0331 19:08:03.691866 136016 net.cpp:210] Setting up inception_4e/relu_5x5_reduce
I0331 19:08:03.691871 136016 net.cpp:217] Top shape: 50 32 14 14 (313600)
I0331 19:08:03.691875 136016 net.cpp:225] Memory required for data: 2579317224
I0331 19:08:03.691879 136016 layer_factory.hpp:114] Creating layer inception_4e/5x5
I0331 19:08:03.691890 136016 net.cpp:160] Creating Layer inception_4e/5x5
I0331 19:08:03.691895 136016 net.cpp:596] inception_4e/5x5 <- inception_4e/5x5_reduce
I0331 19:08:03.691901 136016 net.cpp:570] inception_4e/5x5 -> inception_4e/5x5
I0331 19:08:03.703490 136016 net.cpp:210] Setting up inception_4e/5x5
I0331 19:08:03.703513 136016 net.cpp:217] Top shape: 50 128 14 14 (1254400)
I0331 19:08:03.703517 136016 net.cpp:225] Memory required for data: 2584334824
I0331 19:08:03.703526 136016 layer_factory.hpp:114] Creating layer inception_4e/relu_5x5
I0331 19:08:03.703533 136016 net.cpp:160] Creating Layer inception_4e/relu_5x5
I0331 19:08:03.703539 136016 net.cpp:596] inception_4e/relu_5x5 <- inception_4e/5x5
I0331 19:08:03.703550 136016 net.cpp:557] inception_4e/relu_5x5 -> inception_4e/5x5 (in-place)
I0331 19:08:03.703558 136016 net.cpp:210] Setting up inception_4e/relu_5x5
I0331 19:08:03.703563 136016 net.cpp:217] Top shape: 50 128 14 14 (1254400)
I0331 19:08:03.703567 136016 net.cpp:225] Memory required for data: 2589352424
I0331 19:08:03.703572 136016 layer_factory.hpp:114] Creating layer inception_4e/pool
I0331 19:08:03.703615 136016 net.cpp:160] Creating Layer inception_4e/pool
I0331 19:08:03.703622 136016 net.cpp:596] inception_4e/pool <- inception_4d/output_inception_4d/output_0_split_4
I0331 19:08:03.703637 136016 net.cpp:570] inception_4e/pool -> inception_4e/pool
I0331 19:08:03.703671 136016 net.cpp:210] Setting up inception_4e/pool
I0331 19:08:03.703677 136016 net.cpp:217] Top shape: 50 528 14 14 (5174400)
I0331 19:08:03.703681 136016 net.cpp:225] Memory required for data: 2610050024
I0331 19:08:03.703685 136016 layer_factory.hpp:114] Creating layer inception_4e/pool_proj
I0331 19:08:03.703697 136016 net.cpp:160] Creating Layer inception_4e/pool_proj
I0331 19:08:03.703701 136016 net.cpp:596] inception_4e/pool_proj <- inception_4e/pool
I0331 19:08:03.703711 136016 net.cpp:570] inception_4e/pool_proj -> inception_4e/pool_proj
I0331 19:08:03.711519 136016 net.cpp:210] Setting up inception_4e/pool_proj
I0331 19:08:03.711532 136016 net.cpp:217] Top shape: 50 128 14 14 (1254400)
I0331 19:08:03.711536 136016 net.cpp:225] Memory required for data: 2615067624
I0331 19:08:03.711545 136016 layer_factory.hpp:114] Creating layer inception_4e/relu_pool_proj
I0331 19:08:03.711552 136016 net.cpp:160] Creating Layer inception_4e/relu_pool_proj
I0331 19:08:03.711563 136016 net.cpp:596] inception_4e/relu_pool_proj <- inception_4e/pool_proj
I0331 19:08:03.711571 136016 net.cpp:557] inception_4e/relu_pool_proj -> inception_4e/pool_proj (in-place)
I0331 19:08:03.711580 136016 net.cpp:210] Setting up inception_4e/relu_pool_proj
I0331 19:08:03.711585 136016 net.cpp:217] Top shape: 50 128 14 14 (1254400)
I0331 19:08:03.711588 136016 net.cpp:225] Memory required for data: 2620085224
I0331 19:08:03.711591 136016 layer_factory.hpp:114] Creating layer inception_4e/output
I0331 19:08:03.711601 136016 net.cpp:160] Creating Layer inception_4e/output
I0331 19:08:03.711606 136016 net.cpp:596] inception_4e/output <- inception_4e/1x1
I0331 19:08:03.711611 136016 net.cpp:596] inception_4e/output <- inception_4e/3x3
I0331 19:08:03.711616 136016 net.cpp:596] inception_4e/output <- inception_4e/5x5
I0331 19:08:03.711621 136016 net.cpp:596] inception_4e/output <- inception_4e/pool_proj
I0331 19:08:03.711633 136016 net.cpp:570] inception_4e/output -> inception_4e/output
I0331 19:08:03.711643 136016 net.cpp:210] Setting up inception_4e/output
I0331 19:08:03.711649 136016 net.cpp:217] Top shape: 50 832 14 14 (8153600)
I0331 19:08:03.711653 136016 net.cpp:225] Memory required for data: 2652699624
I0331 19:08:03.711658 136016 layer_factory.hpp:114] Creating layer pool4/3x3_s2
I0331 19:08:03.711678 136016 net.cpp:160] Creating Layer pool4/3x3_s2
I0331 19:08:03.711683 136016 net.cpp:596] pool4/3x3_s2 <- inception_4e/output
I0331 19:08:03.711694 136016 net.cpp:570] pool4/3x3_s2 -> pool4/3x3_s2
I0331 19:08:03.711702 136016 net.cpp:210] Setting up pool4/3x3_s2
I0331 19:08:03.711709 136016 net.cpp:217] Top shape: 50 832 7 7 (2038400)
I0331 19:08:03.711711 136016 net.cpp:225] Memory required for data: 2660853224
I0331 19:08:03.711715 136016 layer_factory.hpp:114] Creating layer pool4/3x3_s2_pool4/3x3_s2_0_split
I0331 19:08:03.711724 136016 net.cpp:160] Creating Layer pool4/3x3_s2_pool4/3x3_s2_0_split
I0331 19:08:03.711730 136016 net.cpp:596] pool4/3x3_s2_pool4/3x3_s2_0_split <- pool4/3x3_s2
I0331 19:08:03.711735 136016 net.cpp:570] pool4/3x3_s2_pool4/3x3_s2_0_split -> pool4/3x3_s2_pool4/3x3_s2_0_split_0
I0331 19:08:03.711742 136016 net.cpp:570] pool4/3x3_s2_pool4/3x3_s2_0_split -> pool4/3x3_s2_pool4/3x3_s2_0_split_1
I0331 19:08:03.711748 136016 net.cpp:570] pool4/3x3_s2_pool4/3x3_s2_0_split -> pool4/3x3_s2_pool4/3x3_s2_0_split_2
I0331 19:08:03.711763 136016 net.cpp:570] pool4/3x3_s2_pool4/3x3_s2_0_split -> pool4/3x3_s2_pool4/3x3_s2_0_split_3
I0331 19:08:03.711771 136016 net.cpp:210] Setting up pool4/3x3_s2_pool4/3x3_s2_0_split
I0331 19:08:03.711776 136016 net.cpp:217] Top shape: 50 832 7 7 (2038400)
I0331 19:08:03.711781 136016 net.cpp:217] Top shape: 50 832 7 7 (2038400)
I0331 19:08:03.711787 136016 net.cpp:217] Top shape: 50 832 7 7 (2038400)
I0331 19:08:03.711792 136016 net.cpp:217] Top shape: 50 832 7 7 (2038400)
I0331 19:08:03.711796 136016 net.cpp:225] Memory required for data: 2693467624
I0331 19:08:03.711800 136016 layer_factory.hpp:114] Creating layer inception_5a/1x1
I0331 19:08:03.711812 136016 net.cpp:160] Creating Layer inception_5a/1x1
I0331 19:08:03.711825 136016 net.cpp:596] inception_5a/1x1 <- pool4/3x3_s2_pool4/3x3_s2_0_split_0
I0331 19:08:03.711833 136016 net.cpp:570] inception_5a/1x1 -> inception_5a/1x1
I0331 19:08:03.723690 136016 net.cpp:210] Setting up inception_5a/1x1
I0331 19:08:03.723711 136016 net.cpp:217] Top shape: 50 256 7 7 (627200)
I0331 19:08:03.723714 136016 net.cpp:225] Memory required for data: 2695976424
I0331 19:08:03.723722 136016 layer_factory.hpp:114] Creating layer inception_5a/relu_1x1
I0331 19:08:03.723732 136016 net.cpp:160] Creating Layer inception_5a/relu_1x1
I0331 19:08:03.723739 136016 net.cpp:596] inception_5a/relu_1x1 <- inception_5a/1x1
I0331 19:08:03.723747 136016 net.cpp:557] inception_5a/relu_1x1 -> inception_5a/1x1 (in-place)
I0331 19:08:03.723754 136016 net.cpp:210] Setting up inception_5a/relu_1x1
I0331 19:08:03.723759 136016 net.cpp:217] Top shape: 50 256 7 7 (627200)
I0331 19:08:03.723763 136016 net.cpp:225] Memory required for data: 2698485224
I0331 19:08:03.723772 136016 layer_factory.hpp:114] Creating layer inception_5a/3x3_reduce
I0331 19:08:03.723783 136016 net.cpp:160] Creating Layer inception_5a/3x3_reduce
I0331 19:08:03.723788 136016 net.cpp:596] inception_5a/3x3_reduce <- pool4/3x3_s2_pool4/3x3_s2_0_split_1
I0331 19:08:03.723796 136016 net.cpp:570] inception_5a/3x3_reduce -> inception_5a/3x3_reduce
I0331 19:08:03.732424 136016 net.cpp:210] Setting up inception_5a/3x3_reduce
I0331 19:08:03.732437 136016 net.cpp:217] Top shape: 50 160 7 7 (392000)
I0331 19:08:03.732441 136016 net.cpp:225] Memory required for data: 2700053224
I0331 19:08:03.732448 136016 layer_factory.hpp:114] Creating layer inception_5a/relu_3x3_reduce
I0331 19:08:03.732456 136016 net.cpp:160] Creating Layer inception_5a/relu_3x3_reduce
I0331 19:08:03.732462 136016 net.cpp:596] inception_5a/relu_3x3_reduce <- inception_5a/3x3_reduce
I0331 19:08:03.732468 136016 net.cpp:557] inception_5a/relu_3x3_reduce -> inception_5a/3x3_reduce (in-place)
I0331 19:08:03.732475 136016 net.cpp:210] Setting up inception_5a/relu_3x3_reduce
I0331 19:08:03.732481 136016 net.cpp:217] Top shape: 50 160 7 7 (392000)
I0331 19:08:03.732484 136016 net.cpp:225] Memory required for data: 2701621224
I0331 19:08:03.732488 136016 layer_factory.hpp:114] Creating layer inception_5a/3x3
I0331 19:08:03.732501 136016 net.cpp:160] Creating Layer inception_5a/3x3
I0331 19:08:03.732506 136016 net.cpp:596] inception_5a/3x3 <- inception_5a/3x3_reduce
I0331 19:08:03.732512 136016 net.cpp:570] inception_5a/3x3 -> inception_5a/3x3
I0331 19:08:03.757102 136016 net.cpp:210] Setting up inception_5a/3x3
I0331 19:08:03.757148 136016 net.cpp:217] Top shape: 50 320 7 7 (784000)
I0331 19:08:03.757153 136016 net.cpp:225] Memory required for data: 2704757224
I0331 19:08:03.757165 136016 layer_factory.hpp:114] Creating layer inception_5a/relu_3x3
I0331 19:08:03.757181 136016 net.cpp:160] Creating Layer inception_5a/relu_3x3
I0331 19:08:03.757192 136016 net.cpp:596] inception_5a/relu_3x3 <- inception_5a/3x3
I0331 19:08:03.757201 136016 net.cpp:557] inception_5a/relu_3x3 -> inception_5a/3x3 (in-place)
I0331 19:08:03.757212 136016 net.cpp:210] Setting up inception_5a/relu_3x3
I0331 19:08:03.757218 136016 net.cpp:217] Top shape: 50 320 7 7 (784000)
I0331 19:08:03.757222 136016 net.cpp:225] Memory required for data: 2707893224
I0331 19:08:03.757226 136016 layer_factory.hpp:114] Creating layer inception_5a/5x5_reduce
I0331 19:08:03.757241 136016 net.cpp:160] Creating Layer inception_5a/5x5_reduce
I0331 19:08:03.757246 136016 net.cpp:596] inception_5a/5x5_reduce <- pool4/3x3_s2_pool4/3x3_s2_0_split_2
I0331 19:08:03.757257 136016 net.cpp:570] inception_5a/5x5_reduce -> inception_5a/5x5_reduce
I0331 19:08:03.760738 136016 net.cpp:210] Setting up inception_5a/5x5_reduce
I0331 19:08:03.760751 136016 net.cpp:217] Top shape: 50 32 7 7 (78400)
I0331 19:08:03.760753 136016 net.cpp:225] Memory required for data: 2708206824
I0331 19:08:03.760761 136016 layer_factory.hpp:114] Creating layer inception_5a/relu_5x5_reduce
I0331 19:08:03.760767 136016 net.cpp:160] Creating Layer inception_5a/relu_5x5_reduce
I0331 19:08:03.760793 136016 net.cpp:596] inception_5a/relu_5x5_reduce <- inception_5a/5x5_reduce
I0331 19:08:03.760802 136016 net.cpp:557] inception_5a/relu_5x5_reduce -> inception_5a/5x5_reduce (in-place)
I0331 19:08:03.760809 136016 net.cpp:210] Setting up inception_5a/relu_5x5_reduce
I0331 19:08:03.760815 136016 net.cpp:217] Top shape: 50 32 7 7 (78400)
I0331 19:08:03.760818 136016 net.cpp:225] Memory required for data: 2708520424
I0331 19:08:03.760823 136016 layer_factory.hpp:114] Creating layer inception_5a/5x5
I0331 19:08:03.760833 136016 net.cpp:160] Creating Layer inception_5a/5x5
I0331 19:08:03.760838 136016 net.cpp:596] inception_5a/5x5 <- inception_5a/5x5_reduce
I0331 19:08:03.760844 136016 net.cpp:570] inception_5a/5x5 -> inception_5a/5x5
I0331 19:08:03.767683 136016 net.cpp:210] Setting up inception_5a/5x5
I0331 19:08:03.767695 136016 net.cpp:217] Top shape: 50 128 7 7 (313600)
I0331 19:08:03.767704 136016 net.cpp:225] Memory required for data: 2709774824
I0331 19:08:03.767711 136016 layer_factory.hpp:114] Creating layer inception_5a/relu_5x5
I0331 19:08:03.767717 136016 net.cpp:160] Creating Layer inception_5a/relu_5x5
I0331 19:08:03.767722 136016 net.cpp:596] inception_5a/relu_5x5 <- inception_5a/5x5
I0331 19:08:03.767729 136016 net.cpp:557] inception_5a/relu_5x5 -> inception_5a/5x5 (in-place)
I0331 19:08:03.767735 136016 net.cpp:210] Setting up inception_5a/relu_5x5
I0331 19:08:03.767740 136016 net.cpp:217] Top shape: 50 128 7 7 (313600)
I0331 19:08:03.767745 136016 net.cpp:225] Memory required for data: 2711029224
I0331 19:08:03.767748 136016 layer_factory.hpp:114] Creating layer inception_5a/pool
I0331 19:08:03.767784 136016 net.cpp:160] Creating Layer inception_5a/pool
I0331 19:08:03.767789 136016 net.cpp:596] inception_5a/pool <- pool4/3x3_s2_pool4/3x3_s2_0_split_3
I0331 19:08:03.767796 136016 net.cpp:570] inception_5a/pool -> inception_5a/pool
I0331 19:08:03.767807 136016 net.cpp:210] Setting up inception_5a/pool
I0331 19:08:03.767814 136016 net.cpp:217] Top shape: 50 832 7 7 (2038400)
I0331 19:08:03.767818 136016 net.cpp:225] Memory required for data: 2719182824
I0331 19:08:03.767822 136016 layer_factory.hpp:114] Creating layer inception_5a/pool_proj
I0331 19:08:03.767832 136016 net.cpp:160] Creating Layer inception_5a/pool_proj
I0331 19:08:03.767837 136016 net.cpp:596] inception_5a/pool_proj <- inception_5a/pool
I0331 19:08:03.767845 136016 net.cpp:570] inception_5a/pool_proj -> inception_5a/pool_proj
I0331 19:08:03.775104 136016 net.cpp:210] Setting up inception_5a/pool_proj
I0331 19:08:03.775118 136016 net.cpp:217] Top shape: 50 128 7 7 (313600)
I0331 19:08:03.775121 136016 net.cpp:225] Memory required for data: 2720437224
I0331 19:08:03.775130 136016 layer_factory.hpp:114] Creating layer inception_5a/relu_pool_proj
I0331 19:08:03.775137 136016 net.cpp:160] Creating Layer inception_5a/relu_pool_proj
I0331 19:08:03.775142 136016 net.cpp:596] inception_5a/relu_pool_proj <- inception_5a/pool_proj
I0331 19:08:03.775148 136016 net.cpp:557] inception_5a/relu_pool_proj -> inception_5a/pool_proj (in-place)
I0331 19:08:03.775154 136016 net.cpp:210] Setting up inception_5a/relu_pool_proj
I0331 19:08:03.775161 136016 net.cpp:217] Top shape: 50 128 7 7 (313600)
I0331 19:08:03.775163 136016 net.cpp:225] Memory required for data: 2721691624
I0331 19:08:03.775167 136016 layer_factory.hpp:114] Creating layer inception_5a/output
I0331 19:08:03.775177 136016 net.cpp:160] Creating Layer inception_5a/output
I0331 19:08:03.775182 136016 net.cpp:596] inception_5a/output <- inception_5a/1x1
I0331 19:08:03.775187 136016 net.cpp:596] inception_5a/output <- inception_5a/3x3
I0331 19:08:03.775192 136016 net.cpp:596] inception_5a/output <- inception_5a/5x5
I0331 19:08:03.775197 136016 net.cpp:596] inception_5a/output <- inception_5a/pool_proj
I0331 19:08:03.775203 136016 net.cpp:570] inception_5a/output -> inception_5a/output
I0331 19:08:03.775213 136016 net.cpp:210] Setting up inception_5a/output
I0331 19:08:03.775218 136016 net.cpp:217] Top shape: 50 832 7 7 (2038400)
I0331 19:08:03.775223 136016 net.cpp:225] Memory required for data: 2729845224
I0331 19:08:03.775239 136016 layer_factory.hpp:114] Creating layer inception_5a/output_inception_5a/output_0_split
I0331 19:08:03.775248 136016 net.cpp:160] Creating Layer inception_5a/output_inception_5a/output_0_split
I0331 19:08:03.775252 136016 net.cpp:596] inception_5a/output_inception_5a/output_0_split <- inception_5a/output
I0331 19:08:03.775259 136016 net.cpp:570] inception_5a/output_inception_5a/output_0_split -> inception_5a/output_inception_5a/output_0_split_0
I0331 19:08:03.775266 136016 net.cpp:570] inception_5a/output_inception_5a/output_0_split -> inception_5a/output_inception_5a/output_0_split_1
I0331 19:08:03.775274 136016 net.cpp:570] inception_5a/output_inception_5a/output_0_split -> inception_5a/output_inception_5a/output_0_split_2
I0331 19:08:03.775279 136016 net.cpp:570] inception_5a/output_inception_5a/output_0_split -> inception_5a/output_inception_5a/output_0_split_3
I0331 19:08:03.775300 136016 net.cpp:210] Setting up inception_5a/output_inception_5a/output_0_split
I0331 19:08:03.775306 136016 net.cpp:217] Top shape: 50 832 7 7 (2038400)
I0331 19:08:03.775311 136016 net.cpp:217] Top shape: 50 832 7 7 (2038400)
I0331 19:08:03.775315 136016 net.cpp:217] Top shape: 50 832 7 7 (2038400)
I0331 19:08:03.775321 136016 net.cpp:217] Top shape: 50 832 7 7 (2038400)
I0331 19:08:03.775323 136016 net.cpp:225] Memory required for data: 2762459624
I0331 19:08:03.775327 136016 layer_factory.hpp:114] Creating layer inception_5b/1x1
I0331 19:08:03.775337 136016 net.cpp:160] Creating Layer inception_5b/1x1
I0331 19:08:03.775342 136016 net.cpp:596] inception_5b/1x1 <- inception_5a/output_inception_5a/output_0_split_0
I0331 19:08:03.775352 136016 net.cpp:570] inception_5b/1x1 -> inception_5b/1x1
I0331 19:08:03.792398 136016 net.cpp:210] Setting up inception_5b/1x1
I0331 19:08:03.792435 136016 net.cpp:217] Top shape: 50 384 7 7 (940800)
I0331 19:08:03.792440 136016 net.cpp:225] Memory required for data: 2766222824
I0331 19:08:03.792450 136016 layer_factory.hpp:114] Creating layer inception_5b/relu_1x1
I0331 19:08:03.792464 136016 net.cpp:160] Creating Layer inception_5b/relu_1x1
I0331 19:08:03.792471 136016 net.cpp:596] inception_5b/relu_1x1 <- inception_5b/1x1
I0331 19:08:03.792479 136016 net.cpp:557] inception_5b/relu_1x1 -> inception_5b/1x1 (in-place)
I0331 19:08:03.792490 136016 net.cpp:210] Setting up inception_5b/relu_1x1
I0331 19:08:03.792496 136016 net.cpp:217] Top shape: 50 384 7 7 (940800)
I0331 19:08:03.792500 136016 net.cpp:225] Memory required for data: 2769986024
I0331 19:08:03.792505 136016 layer_factory.hpp:114] Creating layer inception_5b/3x3_reduce
I0331 19:08:03.792517 136016 net.cpp:160] Creating Layer inception_5b/3x3_reduce
I0331 19:08:03.792522 136016 net.cpp:596] inception_5b/3x3_reduce <- inception_5a/output_inception_5a/output_0_split_1
I0331 19:08:03.792531 136016 net.cpp:570] inception_5b/3x3_reduce -> inception_5b/3x3_reduce
I0331 19:08:03.802103 136016 net.cpp:210] Setting up inception_5b/3x3_reduce
I0331 19:08:03.802116 136016 net.cpp:217] Top shape: 50 192 7 7 (470400)
I0331 19:08:03.802120 136016 net.cpp:225] Memory required for data: 2771867624
I0331 19:08:03.802129 136016 layer_factory.hpp:114] Creating layer inception_5b/relu_3x3_reduce
I0331 19:08:03.802139 136016 net.cpp:160] Creating Layer inception_5b/relu_3x3_reduce
I0331 19:08:03.802144 136016 net.cpp:596] inception_5b/relu_3x3_reduce <- inception_5b/3x3_reduce
I0331 19:08:03.802151 136016 net.cpp:557] inception_5b/relu_3x3_reduce -> inception_5b/3x3_reduce (in-place)
I0331 19:08:03.802158 136016 net.cpp:210] Setting up inception_5b/relu_3x3_reduce
I0331 19:08:03.802165 136016 net.cpp:217] Top shape: 50 192 7 7 (470400)
I0331 19:08:03.802168 136016 net.cpp:225] Memory required for data: 2773749224
I0331 19:08:03.802172 136016 layer_factory.hpp:114] Creating layer inception_5b/3x3
I0331 19:08:03.802182 136016 net.cpp:160] Creating Layer inception_5b/3x3
I0331 19:08:03.802187 136016 net.cpp:596] inception_5b/3x3 <- inception_5b/3x3_reduce
I0331 19:08:03.802196 136016 net.cpp:570] inception_5b/3x3 -> inception_5b/3x3
I0331 19:08:03.836230 136016 net.cpp:210] Setting up inception_5b/3x3
I0331 19:08:03.836277 136016 net.cpp:217] Top shape: 50 384 7 7 (940800)
I0331 19:08:03.836282 136016 net.cpp:225] Memory required for data: 2777512424
I0331 19:08:03.836294 136016 layer_factory.hpp:114] Creating layer inception_5b/relu_3x3
I0331 19:08:03.836308 136016 net.cpp:160] Creating Layer inception_5b/relu_3x3
I0331 19:08:03.836319 136016 net.cpp:596] inception_5b/relu_3x3 <- inception_5b/3x3
I0331 19:08:03.836329 136016 net.cpp:557] inception_5b/relu_3x3 -> inception_5b/3x3 (in-place)
I0331 19:08:03.836341 136016 net.cpp:210] Setting up inception_5b/relu_3x3
I0331 19:08:03.836347 136016 net.cpp:217] Top shape: 50 384 7 7 (940800)
I0331 19:08:03.836351 136016 net.cpp:225] Memory required for data: 2781275624
I0331 19:08:03.836355 136016 layer_factory.hpp:114] Creating layer inception_5b/5x5_reduce
I0331 19:08:03.836371 136016 net.cpp:160] Creating Layer inception_5b/5x5_reduce
I0331 19:08:03.836386 136016 net.cpp:596] inception_5b/5x5_reduce <- inception_5a/output_inception_5a/output_0_split_2
I0331 19:08:03.836395 136016 net.cpp:570] inception_5b/5x5_reduce -> inception_5b/5x5_reduce
I0331 19:08:03.840852 136016 net.cpp:210] Setting up inception_5b/5x5_reduce
I0331 19:08:03.840862 136016 net.cpp:217] Top shape: 50 48 7 7 (117600)
I0331 19:08:03.840867 136016 net.cpp:225] Memory required for data: 2781746024
I0331 19:08:03.840873 136016 layer_factory.hpp:114] Creating layer inception_5b/relu_5x5_reduce
I0331 19:08:03.840880 136016 net.cpp:160] Creating Layer inception_5b/relu_5x5_reduce
I0331 19:08:03.840885 136016 net.cpp:596] inception_5b/relu_5x5_reduce <- inception_5b/5x5_reduce
I0331 19:08:03.840893 136016 net.cpp:557] inception_5b/relu_5x5_reduce -> inception_5b/5x5_reduce (in-place)
I0331 19:08:03.840900 136016 net.cpp:210] Setting up inception_5b/relu_5x5_reduce
I0331 19:08:03.840905 136016 net.cpp:217] Top shape: 50 48 7 7 (117600)
I0331 19:08:03.840909 136016 net.cpp:225] Memory required for data: 2782216424
I0331 19:08:03.840914 136016 layer_factory.hpp:114] Creating layer inception_5b/5x5
I0331 19:08:03.840924 136016 net.cpp:160] Creating Layer inception_5b/5x5
I0331 19:08:03.840929 136016 net.cpp:596] inception_5b/5x5 <- inception_5b/5x5_reduce
I0331 19:08:03.840935 136016 net.cpp:570] inception_5b/5x5 -> inception_5b/5x5
I0331 19:08:03.851155 136016 net.cpp:210] Setting up inception_5b/5x5
I0331 19:08:03.851174 136016 net.cpp:217] Top shape: 50 128 7 7 (313600)
I0331 19:08:03.851178 136016 net.cpp:225] Memory required for data: 2783470824
I0331 19:08:03.851186 136016 layer_factory.hpp:114] Creating layer inception_5b/relu_5x5
I0331 19:08:03.851197 136016 net.cpp:160] Creating Layer inception_5b/relu_5x5
I0331 19:08:03.851202 136016 net.cpp:596] inception_5b/relu_5x5 <- inception_5b/5x5
I0331 19:08:03.851212 136016 net.cpp:557] inception_5b/relu_5x5 -> inception_5b/5x5 (in-place)
I0331 19:08:03.851218 136016 net.cpp:210] Setting up inception_5b/relu_5x5
I0331 19:08:03.851224 136016 net.cpp:217] Top shape: 50 128 7 7 (313600)
I0331 19:08:03.851228 136016 net.cpp:225] Memory required for data: 2784725224
I0331 19:08:03.851233 136016 layer_factory.hpp:114] Creating layer inception_5b/pool
I0331 19:08:03.851269 136016 net.cpp:160] Creating Layer inception_5b/pool
I0331 19:08:03.851274 136016 net.cpp:596] inception_5b/pool <- inception_5a/output_inception_5a/output_0_split_3
I0331 19:08:03.851281 136016 net.cpp:570] inception_5b/pool -> inception_5b/pool
I0331 19:08:03.851292 136016 net.cpp:210] Setting up inception_5b/pool
I0331 19:08:03.851299 136016 net.cpp:217] Top shape: 50 832 7 7 (2038400)
I0331 19:08:03.851302 136016 net.cpp:225] Memory required for data: 2792878824
I0331 19:08:03.851306 136016 layer_factory.hpp:114] Creating layer inception_5b/pool_proj
I0331 19:08:03.851320 136016 net.cpp:160] Creating Layer inception_5b/pool_proj
I0331 19:08:03.851325 136016 net.cpp:596] inception_5b/pool_proj <- inception_5b/pool
I0331 19:08:03.851331 136016 net.cpp:570] inception_5b/pool_proj -> inception_5b/pool_proj
I0331 19:08:03.858563 136016 net.cpp:210] Setting up inception_5b/pool_proj
I0331 19:08:03.858575 136016 net.cpp:217] Top shape: 50 128 7 7 (313600)
I0331 19:08:03.858579 136016 net.cpp:225] Memory required for data: 2794133224
I0331 19:08:03.858587 136016 layer_factory.hpp:114] Creating layer inception_5b/relu_pool_proj
I0331 19:08:03.858595 136016 net.cpp:160] Creating Layer inception_5b/relu_pool_proj
I0331 19:08:03.858602 136016 net.cpp:596] inception_5b/relu_pool_proj <- inception_5b/pool_proj
I0331 19:08:03.858606 136016 net.cpp:557] inception_5b/relu_pool_proj -> inception_5b/pool_proj (in-place)
I0331 19:08:03.858614 136016 net.cpp:210] Setting up inception_5b/relu_pool_proj
I0331 19:08:03.858619 136016 net.cpp:217] Top shape: 50 128 7 7 (313600)
I0331 19:08:03.858628 136016 net.cpp:225] Memory required for data: 2795387624
I0331 19:08:03.858633 136016 layer_factory.hpp:114] Creating layer inception_5b/output
I0331 19:08:03.858647 136016 net.cpp:160] Creating Layer inception_5b/output
I0331 19:08:03.858652 136016 net.cpp:596] inception_5b/output <- inception_5b/1x1
I0331 19:08:03.858659 136016 net.cpp:596] inception_5b/output <- inception_5b/3x3
I0331 19:08:03.858664 136016 net.cpp:596] inception_5b/output <- inception_5b/5x5
I0331 19:08:03.858669 136016 net.cpp:596] inception_5b/output <- inception_5b/pool_proj
I0331 19:08:03.858675 136016 net.cpp:570] inception_5b/output -> inception_5b/output
I0331 19:08:03.858685 136016 net.cpp:210] Setting up inception_5b/output
I0331 19:08:03.858690 136016 net.cpp:217] Top shape: 50 1024 7 7 (2508800)
I0331 19:08:03.858693 136016 net.cpp:225] Memory required for data: 2805422824
I0331 19:08:03.858697 136016 layer_factory.hpp:114] Creating layer pool5/7x7_s1
I0331 19:08:03.858721 136016 net.cpp:160] Creating Layer pool5/7x7_s1
I0331 19:08:03.858726 136016 net.cpp:596] pool5/7x7_s1 <- inception_5b/output
I0331 19:08:03.858732 136016 net.cpp:570] pool5/7x7_s1 -> pool5/7x7_s1
I0331 19:08:03.858741 136016 net.cpp:210] Setting up pool5/7x7_s1
I0331 19:08:03.858747 136016 net.cpp:217] Top shape: 50 1024 1 1 (51200)
I0331 19:08:03.858749 136016 net.cpp:225] Memory required for data: 2805627624
I0331 19:08:03.858753 136016 layer_factory.hpp:114] Creating layer pool5/drop_7x7_s1
I0331 19:08:03.858762 136016 net.cpp:160] Creating Layer pool5/drop_7x7_s1
I0331 19:08:03.858767 136016 net.cpp:596] pool5/drop_7x7_s1 <- pool5/7x7_s1
I0331 19:08:03.858772 136016 net.cpp:557] pool5/drop_7x7_s1 -> pool5/7x7_s1 (in-place)
I0331 19:08:03.858781 136016 net.cpp:210] Setting up pool5/drop_7x7_s1
I0331 19:08:03.858786 136016 net.cpp:217] Top shape: 50 1024 1 1 (51200)
I0331 19:08:03.858790 136016 net.cpp:225] Memory required for data: 2805832424
I0331 19:08:03.858793 136016 layer_factory.hpp:114] Creating layer loss3/classifier
I0331 19:08:03.858808 136016 net.cpp:160] Creating Layer loss3/classifier
I0331 19:08:03.858811 136016 net.cpp:596] loss3/classifier <- pool5/7x7_s1
I0331 19:08:03.858819 136016 net.cpp:570] loss3/classifier -> loss3/classifier
I0331 19:08:03.868777 136016 net.cpp:210] Setting up loss3/classifier
I0331 19:08:03.868788 136016 net.cpp:217] Top shape: 50 1000 (50000)
I0331 19:08:03.868791 136016 net.cpp:225] Memory required for data: 2806032424
I0331 19:08:03.868799 136016 layer_factory.hpp:114] Creating layer loss3/classifier_loss3/classifier_0_split
I0331 19:08:03.868808 136016 net.cpp:160] Creating Layer loss3/classifier_loss3/classifier_0_split
I0331 19:08:03.868813 136016 net.cpp:596] loss3/classifier_loss3/classifier_0_split <- loss3/classifier
I0331 19:08:03.868821 136016 net.cpp:570] loss3/classifier_loss3/classifier_0_split -> loss3/classifier_loss3/classifier_0_split_0
I0331 19:08:03.868829 136016 net.cpp:570] loss3/classifier_loss3/classifier_0_split -> loss3/classifier_loss3/classifier_0_split_1
I0331 19:08:03.868835 136016 net.cpp:570] loss3/classifier_loss3/classifier_0_split -> loss3/classifier_loss3/classifier_0_split_2
I0331 19:08:03.868844 136016 net.cpp:210] Setting up loss3/classifier_loss3/classifier_0_split
I0331 19:08:03.868849 136016 net.cpp:217] Top shape: 50 1000 (50000)
I0331 19:08:03.868861 136016 net.cpp:217] Top shape: 50 1000 (50000)
I0331 19:08:03.868866 136016 net.cpp:217] Top shape: 50 1000 (50000)
I0331 19:08:03.868870 136016 net.cpp:225] Memory required for data: 2806632424
I0331 19:08:03.868873 136016 layer_factory.hpp:114] Creating layer loss3/loss3
I0331 19:08:03.868880 136016 net.cpp:160] Creating Layer loss3/loss3
I0331 19:08:03.868885 136016 net.cpp:596] loss3/loss3 <- loss3/classifier_loss3/classifier_0_split_0
I0331 19:08:03.868891 136016 net.cpp:596] loss3/loss3 <- label_data_1_split_6
…
