…
I0331 19:09:16.164798 136064 net.cpp:484] The NetState phase (0) differed from the phase (1) specified by a rule in layer loss3/top-5
I0331 19:09:16.169082 136064 net.cpp:120] Initializing net from parameters: 
name: "GoogleNet"
state {
  phase: TRAIN
  level: 0
  stage: ""
}
layer {
  name: "data"
  type: "Data"
  top: "data"
  top: "label"
  include {
    phase: TRAIN
  }
  transform_param {
    mirror: true
    crop_size: 224
    mean_value: 104
    mean_value: 117
    mean_value: 123
  }
  data_param {
    source: "/home/proy/LIBRARIES/caffeLibs/caffe/examples/imagenet/ilsvrc12_train_lmdb"
    batch_size: 112
    backend: LMDB
  }
}
layer {
  name: "label_data_1_split"
  type: "Split"
  bottom: "label"
  top: "label_data_1_split_0"
  top: "label_data_1_split_1"
  top: "label_data_1_split_2"
}
layer {
  name: "conv1/7x7_s2"
  type: "Convolution"
  bottom: "data"
  top: "conv1/7x7_s2"
  param {
    lr_mult: 1
    decay_mult: 1
  }
  param {
    lr_mult: 2
    decay_mult: 0
  }
  convolution_param {
    num_output: 64
    pad: 3
    kernel_size: 7
    stride: 2
    weight_filler {
      type: "xavier"
    }
    bias_filler {
      type: "constant"
      value: 0.2
    }
  }
}
layer {
  name: "conv1/relu_7x7"
  type: "ReLU"
  bottom: "conv1/7x7_s2"
  top: "conv1/7x7_s2"
}
layer {
  name: "pool1/3x3_s2"
  type: "Pooling"
  bottom: "conv1/7x7_s2"
  top: "pool1/3x3_s2"
  pooling_param {
    pool: MAX
    kernel_size: 3
    stride: 2
  }
}
layer {
  name: "pool1/norm1"
  type: "LRN"
  bottom: "pool1/3x3_s2"
  top: "pool1/norm1"
  lrn_param {
    local_size: 5
    alpha: 0.0001
    beta: 0.75
  }
}
layer {
  name: "conv2/3x3_reduce"
  type: "Convolution"
  bottom: "pool1/norm1"
  top: "conv2/3x3_reduce"
  param {
    lr_mult: 1
    decay_mult: 1
  }
  param {
    lr_mult: 2
    decay_mult: 0
  }
  convolution_param {
    num_output: 64
    kernel_size: 1
    weight_filler {
      type: "xavier"
    }
    bias_filler {
      type: "constant"
      value: 0.2
    }
  }
}
layer {
  name: "conv2/relu_3x3_reduce"
  type: "ReLU"
  bottom: "conv2/3x3_reduce"
  top: "conv2/3x3_reduce"
}
layer {
  name: "conv2/3x3"
  type: "Convolution"
  bottom: "conv2/3x3_reduce"
  top: "conv2/3x3"
  param {
    lr_mult: 1
    decay_mult: 1
  }
  param {
    lr_mult: 2
    decay_mult: 0
  }
  convolution_param {
    num_output: 192
    pad: 1
    kernel_size: 3
    weight_filler {
      type: "xavier"
    }
    bias_filler {
      type: "constant"
      value: 0.2
    }
  }
}
layer {
  name: "conv2/relu_3x3"
  type: "ReLU"
  bottom: "conv2/3x3"
  top: "conv2/3x3"
}
layer {
  name: "conv2/norm2"
  type: "LRN"
  bottom: "conv2/3x3"
  top: "conv2/norm2"
  lrn_param {
    local_size: 5
    alpha: 0.0001
    beta: 0.75
  }
}
layer {
  name: "pool2/3x3_s2"
  type: "Pooling"
  bottom: "conv2/norm2"
  top: "pool2/3x3_s2"
  pooling_param {
    pool: MAX
    kernel_size: 3
    stride: 2
  }
}
layer {
  name: "pool2/3x3_s2_pool2/3x3_s2_0_split"
  type: "Split"
  bottom: "pool2/3x3_s2"
  top: "pool2/3x3_s2_pool2/3x3_s2_0_split_0"
  top: "pool2/3x3_s2_pool2/3x3_s2_0_split_1"
  top: "pool2/3x3_s2_pool2/3x3_s2_0_split_2"
  top: "pool2/3x3_s2_pool2/3x3_s2_0_split_3"
}
layer {
  name: "inception_3a/1x1"
  type: "Convolution"
  bottom: "pool2/3x3_s2_pool2/3x3_s2_0_split_0"
  top: "inception_3a/1x1"
  param {
    lr_mult: 1
    decay_mult: 1
  }
  param {
    lr_mult: 2
    decay_mult: 0
  }
  convolution_param {
    num_output: 64
    kernel_size: 1
    weight_filler {
      type: "xavier"
    }
    bias_filler {
      type: "constant"
      value: 0.2
    }
  }
}
layer {
  name: "inception_3a/relu_1x1"
  type: "ReLU"
  bottom: "inception_3a/1x1"
  top: "inception_3a/1x1"
}
layer {
  name: "inception_3a/3x3_reduce"
  type: "Convolution"
  bottom: "pool2/3x3_s2_pool2/3x3_s2_0_split_1"
  top: "inception_3a/3x3_reduce"
  param {
    lr_mult: 1
    decay_mult: 1
  }
  param {
    lr_mult: 2
    decay_mult: 0
  }
  convolution_param {
    num_output: 96
    kernel_size: 1
    weight_filler {
      type: "xavier"
    }
    bias_filler {
      type: "constant"
      value: 0.2
    }
  }
}
layer {
  name: "inception_3a/relu_3x3_reduce"
  type: "ReLU"
  bottom: "inception_3a/3x3_reduce"
  top: "inception_3a/3x3_reduce"
}
layer {
  name: "inception_3a/3x3"
  type: "Convolution"
  bottom: "inception_3a/3x3_reduce"
  top: "inception_3a/3x3"
  param {
    lr_mult: 1
    decay_mult: 1
  }
  param {
    lr_mult: 2
    decay_mult: 0
  }
  convolution_param {
    num_output: 128
    pad: 1
    kernel_size: 3
    weight_filler {
      type: "xavier"
    }
    bias_filler {
      type: "constant"
      value: 0.2
    }
  }
}
layer {
  name: "inception_3a/relu_3x3"
  type: "ReLU"
  bottom: "inception_3a/3x3"
  top: "inception_3a/3x3"
}
layer {
  name: "inception_3a/5x5_reduce"
  type: "Convolution"
  bottom: "pool2/3x3_s2_pool2/3x3_s2_0_split_2"
  top: "inception_3a/5x5_reduce"
  param {
    lr_mult: 1
    decay_mult: 1
  }
  param {
    lr_mult: 2
    decay_mult: 0
  }
  convolution_param {
    num_output: 16
    kernel_size: 1
    weight_filler {
      type: "xavier"
    }
    bias_filler {
      type: "constant"
      value: 0.2
    }
  }
}
layer {
  name: "inception_3a/relu_5x5_reduce"
  type: "ReLU"
  bottom: "inception_3a/5x5_reduce"
  top: "inception_3a/5x5_reduce"
}
layer {
  name: "inception_3a/5x5"
  type: "Convolution"
  bottom: "inception_3a/5x5_reduce"
  top: "inception_3a/5x5"
  param {
    lr_mult: 1
    decay_mult: 1
  }
  param {
    lr_mult: 2
    decay_mult: 0
  }
  convolution_param {
    num_output: 32
    pad: 2
    kernel_size: 5
    weight_filler {
      type: "xavier"
    }
    bias_filler {
      type: "constant"
      value: 0.2
    }
  }
}
layer {
  name: "inception_3a/relu_5x5"
  type: "ReLU"
  bottom: "inception_3a/5x5"
  top: "inception_3a/5x5"
}
layer {
  name: "inception_3a/pool"
  type: "Pooling"
  bottom: "pool2/3x3_s2_pool2/3x3_s2_0_split_3"
  top: "inception_3a/pool"
  pooling_param {
    pool: MAX
    kernel_size: 3
    stride: 1
    pad: 1
  }
}
layer {
  name: "inception_3a/pool_proj"
  type: "Convolution"
  bottom: "inception_3a/pool"
  top: "inception_3a/pool_proj"
  param {
    lr_mult: 1
    decay_mult: 1
  }
  param {
    lr_mult: 2
    decay_mult: 0
  }
  convolution_param {
    num_output: 32
    kernel_size: 1
    weight_filler {
      type: "xavier"
    }
    bias_filler {
      type: "constant"
      value: 0.2
    }
  }
}
layer {
  name: "inception_3a/relu_pool_proj"
  type: "ReLU"
  bottom: "inception_3a/pool_proj"
  top: "inception_3a/pool_proj"
}
layer {
  name: "inception_3a/output"
  type: "Concat"
  bottom: "inception_3a/1x1"
  bottom: "inception_3a/3x3"
  bottom: "inception_3a/5x5"
  bottom: "inception_3a/pool_proj"
  top: "inception_3a/output"
}
layer {
  name: "inception_3a/output_inception_3a/output_0_split"
  type: "Split"
  bottom: "inception_3a/output"
  top: "inception_3a/output_inception_3a/output_0_split_0"
  top: "inception_3a/output_inception_3a/output_0_split_1"
  top: "inception_3a/output_inception_3a/output_0_split_2"
  top: "inception_3a/output_inception_3a/output_0_split_3"
}
layer {
  name: "inception_3b/1x1"
  type: "Convolution"
  bottom: "inception_3a/output_inception_3a/output_0_split_0"
  top: "inception_3b/1x1"
  param {
    lr_mult: 1
    decay_mult: 1
  }
  param {
    lr_mult: 2
    decay_mult: 0
  }
  convolution_param {
    num_output: 128
    kernel_size: 1
    weight_filler {
      type: "xavier"
    }
    bias_filler {
      type: "constant"
      value: 0.2
    }
  }
}
layer {
  name: "inception_3b/relu_1x1"
  type: "ReLU"
  bottom: "inception_3b/1x1"
  top: "inception_3b/1x1"
}
layer {
  name: "inception_3b/3x3_reduce"
  type: "Convolution"
  bottom: "inception_3a/output_inception_3a/output_0_split_1"
  top: "inception_3b/3x3_reduce"
  param {
    lr_mult: 1
    decay_mult: 1
  }
  param {
    lr_mult: 2
    decay_mult: 0
  }
  convolution_param {
    num_output: 128
    kernel_size: 1
    weight_filler {
      type: "xavier"
    }
    bias_filler {
      type: "constant"
      value: 0.2
    }
  }
}
layer {
  name: "inception_3b/relu_3x3_reduce"
  type: "ReLU"
  bottom: "inception_3b/3x3_reduce"
  top: "inception_3b/3x3_reduce"
}
layer {
  name: "inception_3b/3x3"
  type: "Convolution"
  bottom: "inception_3b/3x3_reduce"
  top: "inception_3b/3x3"
  param {
    lr_mult: 1
    decay_mult: 1
  }
  param {
    lr_mult: 2
    decay_mult: 0
  }
  convolution_param {
    num_output: 192
    pad: 1
    kernel_size: 3
    weight_filler {
      type: "xavier"
    }
    bias_filler {
      type: "constant"
      value: 0.2
    }
  }
}
layer {
  name: "inception_3b/relu_3x3"
  type: "ReLU"
  bottom: "inception_3b/3x3"
  top: "inception_3b/3x3"
}
layer {
  name: "inception_3b/5x5_reduce"
  type: "Convolution"
  bottom: "inception_3a/output_inception_3a/output_0_split_2"
  top: "inception_3b/5x5_reduce"
  param {
    lr_mult: 1
    decay_mult: 1
  }
  param {
    lr_mult: 2
    decay_mult: 0
  }
  convolution_param {
    num_output: 32
    kernel_size: 1
    weight_filler {
      type: "xavier"
    }
    bias_filler {
      type: "constant"
      value: 0.2
    }
  }
}
layer {
  name: "inception_3b/relu_5x5_reduce"
  type: "ReLU"
  bottom: "inception_3b/5x5_reduce"
  top: "inception_3b/5x5_reduce"
}
layer {
  name: "inception_3b/5x5"
  type: "Convolution"
  bottom: "inception_3b/5x5_reduce"
  top: "inception_3b/5x5"
  param {
    lr_mult: 1
    decay_mult: 1
  }
  param {
    lr_mult: 2
    decay_mult: 0
  }
  convolution_param {
    num_output: 96
    pad: 2
    kernel_size: 5
    weight_filler {
      type: "xavier"
    }
    bias_filler {
      type: "constant"
      value: 0.2
    }
  }
}
layer {
  name: "inception_3b/relu_5x5"
  type: "ReLU"
  bottom: "inception_3b/5x5"
  top: "inception_3b/5x5"
}
layer {
  name: "inception_3b/pool"
  type: "Pooling"
  bottom: "inception_3a/output_inception_3a/output_0_split_3"
  top: "inception_3b/pool"
  pooling_param {
    pool: MAX
    kernel_size: 3
    stride: 1
    pad: 1
  }
}
layer {
  name: "inception_3b/pool_proj"
  type: "Convolution"
  bottom: "inception_3b/pool"
  top: "inception_3b/pool_proj"
  param {
    lr_mult: 1
    decay_mult: 1
  }
  param {
    lr_mult: 2
    decay_mult: 0
  }
  convolution_param {
    num_output: 64
    kernel_size: 1
    weight_filler {
      type: "xavier"
    }
    bias_filler {
      type: "constant"
      value: 0.2
    }
  }
}
layer {
  name: "inception_3b/relu_pool_proj"
  type: "ReLU"
  bottom: "inception_3b/pool_proj"
  top: "inception_3b/pool_proj"
}
layer {
  name: "inception_3b/output"
  type: "Concat"
  bottom: "inception_3b/1x1"
  bottom: "inception_3b/3x3"
  bottom: "inception_3b/5x5"
  bottom: "inception_3b/pool_proj"
  top: "inception_3b/output"
}
layer {
  name: "pool3/3x3_s2"
  type: "Pooling"
  bottom: "inception_3b/output"
  top: "pool3/3x3_s2"
  pooling_param {
    pool: MAX
    kernel_size: 3
    stride: 2
  }
}
layer {
  name: "pool3/3x3_s2_pool3/3x3_s2_0_split"
  type: "Split"
  bottom: "pool3/3x3_s2"
  top: "pool3/3x3_s2_pool3/3x3_s2_0_split_0"
  top: "pool3/3x3_s2_pool3/3x3_s2_0_split_1"
  top: "pool3/3x3_s2_pool3/3x3_s2_0_split_2"
  top: "pool3/3x3_s2_pool3/3x3_s2_0_split_3"
}
layer {
  name: "inception_4a/1x1"
  type: "Convolution"
  bottom: "pool3/3x3_s2_pool3/3x3_s2_0_split_0"
  top: "inception_4a/1x1"
  param {
    lr_mult: 1
    decay_mult: 1
  }
  param {
    lr_mult: 2
    decay_mult: 0
  }
  convolution_param {
    num_output: 192
    kernel_size: 1
    weight_filler {
      type: "xavier"
    }
    bias_filler {
      type: "constant"
      value: 0.2
    }
  }
}
layer {
  name: "inception_4a/relu_1x1"
  type: "ReLU"
  bottom: "inception_4a/1x1"
  top: "inception_4a/1x1"
}
layer {
  name: "inception_4a/3x3_reduce"
  type: "Convolution"
  bottom: "pool3/3x3_s2_pool3/3x3_s2_0_split_1"
  top: "inception_4a/3x3_reduce"
  param {
    lr_mult: 1
    decay_mult: 1
  }
  param {
    lr_mult: 2
    decay_mult: 0
  }
  convolution_param {
    num_output: 96
    kernel_size: 1
    weight_filler {
      type: "xavier"
    }
    bias_filler {
      type: "constant"
      value: 0.2
    }
  }
}
layer {
  name: "inception_4a/relu_3x3_reduce"
  type: "ReLU"
  bottom: "inception_4a/3x3_reduce"
  top: "inception_4a/3x3_reduce"
}
layer {
  name: "inception_4a/3x3"
  type: "Convolution"
  bottom: "inception_4a/3x3_reduce"
  top: "inception_4a/3x3"
  param {
    lr_mult: 1
    decay_mult: 1
  }
  param {
    lr_mult: 2
    decay_mult: 0
  }
  convolution_param {
    num_output: 208
    pad: 1
    kernel_size: 3
    weight_filler {
      type: "xavier"
    }
    bias_filler {
      type: "constant"
      value: 0.2
    }
  }
}
layer {
  name: "inception_4a/relu_3x3"
  type: "ReLU"
  bottom: "inception_4a/3x3"
  top: "inception_4a/3x3"
}
layer {
  name: "inception_4a/5x5_reduce"
  type: "Convolution"
  bottom: "pool3/3x3_s2_pool3/3x3_s2_0_split_2"
  top: "inception_4a/5x5_reduce"
  param {
    lr_mult: 1
    decay_mult: 1
  }
  param {
    lr_mult: 2
    decay_mult: 0
  }
  convolution_param {
    num_output: 16
    kernel_size: 1
    weight_filler {
      type: "xavier"
    }
    bias_filler {
      type: "constant"
      value: 0.2
    }
  }
}
layer {
  name: "inception_4a/relu_5x5_reduce"
  type: "ReLU"
  bottom: "inception_4a/5x5_reduce"
  top: "inception_4a/5x5_reduce"
}
layer {
  name: "inception_4a/5x5"
  type: "Convolution"
  bottom: "inception_4a/5x5_reduce"
  top: "inception_4a/5x5"
  param {
    lr_mult: 1
    decay_mult: 1
  }
  param {
    lr_mult: 2
    decay_mult: 0
  }
  convolution_param {
    num_output: 48
    pad: 2
    kernel_size: 5
    weight_filler {
      type: "xavier"
    }
    bias_filler {
      type: "constant"
      value: 0.2
    }
  }
}
layer {
  name: "inception_4a/relu_5x5"
  type: "ReLU"
  bottom: "inception_4a/5x5"
  top: "inception_4a/5x5"
}
layer {
  name: "inception_4a/pool"
  type: "Pooling"
  bottom: "pool3/3x3_s2_pool3/3x3_s2_0_split_3"
  top: "inception_4a/pool"
  pooling_param {
    pool: MAX
    kernel_size: 3
    stride: 1
    pad: 1
  }
}
layer {
  name: "inception_4a/pool_proj"
  type: "Convolution"
  bottom: "inception_4a/pool"
  top: "inception_4a/pool_proj"
  param {
    lr_mult: 1
    decay_mult: 1
  }
  param {
    lr_mult: 2
    decay_mult: 0
  }
  convolution_param {
    num_output: 64
    kernel_size: 1
    weight_filler {
      type: "xavier"
    }
    bias_filler {
      type: "constant"
      value: 0.2
    }
  }
}
layer {
  name: "inception_4a/relu_pool_proj"
  type: "ReLU"
  bottom: "inception_4a/pool_proj"
  top: "inception_4a/pool_proj"
}
layer {
  name: "inception_4a/output"
  type: "Concat"
  bottom: "inception_4a/1x1"
  bottom: "inception_4a/3x3"
  bottom: "inception_4a/5x5"
  bottom: "inception_4a/pool_proj"
  top: "inception_4a/output"
}
layer {
  name: "inception_4a/output_inception_4a/output_0_split"
  type: "Split"
  bottom: "inception_4a/output"
  top: "inception_4a/output_inception_4a/output_0_split_0"
  top: "inception_4a/output_inception_4a/output_0_split_1"
  top: "inception_4a/output_inception_4a/output_0_split_2"
  top: "inception_4a/output_inception_4a/output_0_split_3"
  top: "inception_4a/output_inception_4a/output_0_split_4"
}
layer {
  name: "loss1/ave_pool"
  type: "Pooling"
  bottom: "inception_4a/output_inception_4a/output_0_split_0"
  top: "loss1/ave_pool"
  pooling_param {
    pool: AVE
    kernel_size: 5
    stride: 3
  }
}
layer {
  name: "loss1/conv"
  type: "Convolution"
  bottom: "loss1/ave_pool"
  top: "loss1/conv"
  param {
    lr_mult: 1
    decay_mult: 1
  }
  param {
    lr_mult: 2
    decay_mult: 0
  }
  convolution_param {
    num_output: 128
    kernel_size: 1
    weight_filler {
      type: "xavier"
    }
    bias_filler {
      type: "constant"
      value: 0.2
    }
  }
}
layer {
  name: "loss1/relu_conv"
  type: "ReLU"
  bottom: "loss1/conv"
  top: "loss1/conv"
}
layer {
  name: "loss1/fc"
  type: "InnerProduct"
  bottom: "loss1/conv"
  top: "loss1/fc"
  param {
    lr_mult: 1
    decay_mult: 1
  }
  param {
    lr_mult: 2
    decay_mult: 0
  }
  inner_product_param {
    num_output: 1024
    weight_filler {
      type: "xavier"
    }
    bias_filler {
      type: "constant"
      value: 0.2
    }
  }
}
layer {
  name: "loss1/relu_fc"
  type: "ReLU"
  bottom: "loss1/fc"
  top: "loss1/fc"
}
layer {
  name: "loss1/drop_fc"
  type: "Dropout"
  bottom: "loss1/fc"
  top: "loss1/fc"
  dropout_param {
    dropout_ratio: 0.7
  }
}
layer {
  name: "loss1/classifier"
  type: "InnerProduct"
  bottom: "loss1/fc"
  top: "loss1/classifier"
  param {
    lr_mult: 1
    decay_mult: 1
  }
  param {
    lr_mult: 2
    decay_mult: 0
  }
  inner_product_param {
    num_output: 1000
    weight_filler {
      type: "xavier"
    }
    bias_filler {
      type: "constant"
      value: 0
    }
  }
}
layer {
  name: "loss1/loss"
  type: "SoftmaxWithLoss"
  bottom: "loss1/classifier"
  bottom: "label_data_1_split_0"
  top: "loss1/loss1"
  loss_weight: 0.3
}
layer {
  name: "inception_4b/1x1"
  type: "Convolution"
  bottom: "inception_4a/output_inception_4a/output_0_split_1"
  top: "inception_4b/1x1"
  param {
    lr_mult: 1
    decay_mult: 1
  }
  param {
    lr_mult: 2
    decay_mult: 0
  }
  convolution_param {
    num_output: 160
    kernel_size: 1
    weight_filler {
      type: "xavier"
    }
    bias_filler {
      type: "constant"
      value: 0.2
    }
  }
}
layer {
  name: "inception_4b/relu_1x1"
  type: "ReLU"
  bottom: "inception_4b/1x1"
  top: "inception_4b/1x1"
}
layer {
  name: "inception_4b/3x3_reduce"
  type: "Convolution"
  bottom: "inception_4a/output_inception_4a/output_0_split_2"
  top: "inception_4b/3x3_reduce"
  param {
    lr_mult: 1
    decay_mult: 1
  }
  param {
    lr_mult: 2
    decay_mult: 0
  }
  convolution_param {
    num_output: 112
    kernel_size: 1
    weight_filler {
      type: "xavier"
    }
    bias_filler {
      type: "constant"
      value: 0.2
    }
  }
}
layer {
  name: "inception_4b/relu_3x3_reduce"
  type: "ReLU"
  bottom: "inception_4b/3x3_reduce"
  top: "inception_4b/3x3_reduce"
}
layer {
  name: "inception_4b/3x3"
  type: "Convolution"
  bottom: "inception_4b/3x3_reduce"
  top: "inception_4b/3x3"
  param {
    lr_mult: 1
    decay_mult: 1
  }
  param {
    lr_mult: 2
    decay_mult: 0
  }
  convolution_param {
    num_output: 224
    pad: 1
    kernel_size: 3
    weight_filler {
      type: "xavier"
    }
    bias_filler {
      type: "constant"
      value: 0.2
    }
  }
}
layer {
  name: "inception_4b/relu_3x3"
  type: "ReLU"
  bottom: "inception_4b/3x3"
  top: "inception_4b/3x3"
}
layer {
  name: "inception_4b/5x5_reduce"
  type: "Convolution"
  bottom: "inception_4a/output_inception_4a/output_0_split_3"
  top: "inception_4b/5x5_reduce"
  param {
    lr_mult: 1
    decay_mult: 1
  }
  param {
    lr_mult: 2
    decay_mult: 0
  }
  convolution_param {
    num_output: 24
    kernel_size: 1
    weight_filler {
      type: "xavier"
    }
    bias_filler {
      type: "constant"
      value: 0.2
    }
  }
}
layer {
  name: "inception_4b/relu_5x5_reduce"
  type: "ReLU"
  bottom: "inception_4b/5x5_reduce"
  top: "inception_4b/5x5_reduce"
}
layer {
  name: "inception_4b/5x5"
  type: "Convolution"
  bottom: "inception_4b/5x5_reduce"
  top: "inception_4b/5x5"
  param {
    lr_mult: 1
    decay_mult: 1
  }
  param {
    lr_mult: 2
    decay_mult: 0
  }
  convolution_param {
    num_output: 64
    pad: 2
    kernel_size: 5
    weight_filler {
      type: "xavier"
    }
    bias_filler {
      type: "constant"
      value: 0.2
    }
  }
}
layer {
  name: "inception_4b/relu_5x5"
  type: "ReLU"
  bottom: "inception_4b/5x5"
  top: "inception_4b/5x5"
}
layer {
  name: "inception_4b/pool"
  type: "Pooling"
  bottom: "inception_4a/output_inception_4a/output_0_split_4"
  top: "inception_4b/pool"
  pooling_param {
    pool: MAX
    kernel_size: 3
    stride: 1
    pad: 1
  }
}
layer {
  name: "inception_4b/pool_proj"
  type: "Convolution"
  bottom: "inception_4b/pool"
  top: "inception_4b/pool_proj"
  param {
    lr_mult: 1
    decay_mult: 1
  }
  param {
    lr_mult: 2
    decay_mult: 0
  }
  convolution_param {
    num_output: 64
    kernel_size: 1
    weight_filler {
      type: "xavier"
    }
    bias_filler {
      type: "constant"
      value: 0.2
    }
  }
}
layer {
  name: "inception_4b/relu_pool_proj"
  type: "ReLU"
  bottom: "inception_4b/pool_proj"
  top: "inception_4b/pool_proj"
}
layer {
  name: "inception_4b/output"
  type: "Concat"
  bottom: "inception_4b/1x1"
  bottom: "inception_4b/3x3"
  bottom: "inception_4b/5x5"
  bottom: "inception_4b/pool_proj"
  top: "inception_4b/output"
}
layer {
  name: "inception_4b/output_inception_4b/output_0_split"
  type: "Split"
  bottom: "inception_4b/output"
  top: "inception_4b/output_inception_4b/output_0_split_0"
  top: "inception_4b/output_inception_4b/output_0_split_1"
  top: "inception_4b/output_inception_4b/output_0_split_2"
  top: "inception_4b/output_inception_4b/output_0_split_3"
}
layer {
  name: "inception_4c/1x1"
  type: "Convolution"
  bottom: "inception_4b/output_inception_4b/output_0_split_0"
  top: "inception_4c/1x1"
  param {
    lr_mult: 1
    decay_mult: 1
  }
  param {
    lr_mult: 2
    decay_mult: 0
  }
  convolution_param {
    num_output: 128
    kernel_size: 1
    weight_filler {
      type: "xavier"
    }
    bias_filler {
      type: "constant"
      value: 0.2
    }
  }
}
layer {
  name: "inception_4c/relu_1x1"
  type: "ReLU"
  bottom: "inception_4c/1x1"
  top: "inception_4c/1x1"
}
layer {
  name: "inception_4c/3x3_reduce"
  type: "Convolution"
  bottom: "inception_4b/output_inception_4b/output_0_split_1"
  top: "inception_4c/3x3_reduce"
  param {
    lr_mult: 1
    decay_mult: 1
  }
  param {
    lr_mult: 2
    decay_mult: 0
  }
  convolution_param {
    num_output: 128
    kernel_size: 1
    weight_filler {
      type: "xavier"
    }
    bias_filler {
      type: "constant"
      value: 0.2
    }
  }
}
layer {
  name: "inception_4c/relu_3x3_reduce"
  type: "ReLU"
  bottom: "inception_4c/3x3_reduce"
  top: "inception_4c/3x3_reduce"
}
layer {
  name: "inception_4c/3x3"
  type: "Convolution"
  bottom: "inception_4c/3x3_reduce"
  top: "inception_4c/3x3"
  param {
    lr_mult: 1
    decay_mult: 1
  }
  param {
    lr_mult: 2
    decay_mult: 0
  }
  convolution_param {
    num_output: 256
    pad: 1
    kernel_size: 3
    weight_filler {
      type: "xavier"
    }
    bias_filler {
      type: "constant"
      value: 0.2
    }
  }
}
layer {
  name: "inception_4c/relu_3x3"
  type: "ReLU"
  bottom: "inception_4c/3x3"
  top: "inception_4c/3x3"
}
layer {
  name: "inception_4c/5x5_reduce"
  type: "Convolution"
  bottom: "inception_4b/output_inception_4b/output_0_split_2"
  top: "inception_4c/5x5_reduce"
  param {
    lr_mult: 1
    decay_mult: 1
  }
  param {
    lr_mult: 2
    decay_mult: 0
  }
  convolution_param {
    num_output: 24
    kernel_size: 1
    weight_filler {
      type: "xavier"
    }
    bias_filler {
      type: "constant"
      value: 0.2
    }
  }
}
layer {
  name: "inception_4c/relu_5x5_reduce"
  type: "ReLU"
  bottom: "inception_4c/5x5_reduce"
  top: "inception_4c/5x5_reduce"
}
layer {
  name: "inception_4c/5x5"
  type: "Convolution"
  bottom: "inception_4c/5x5_reduce"
  top: "inception_4c/5x5"
  param {
    lr_mult: 1
    decay_mult: 1
  }
  param {
    lr_mult: 2
    decay_mult: 0
  }
  convolution_param {
    num_output: 64
    pad: 2
    kernel_size: 5
    weight_filler {
      type: "xavier"
    }
    bias_filler {
      type: "constant"
      value: 0.2
    }
  }
}
layer {
  name: "inception_4c/relu_5x5"
  type: "ReLU"
  bottom: "inception_4c/5x5"
  top: "inception_4c/5x5"
}
layer {
  name: "inception_4c/pool"
  type: "Pooling"
  bottom: "inception_4b/output_inception_4b/output_0_split_3"
  top: "inception_4c/pool"
  pooling_param {
    pool: MAX
    kernel_size: 3
    stride: 1
    pad: 1
  }
}
layer {
  name: "inception_4c/pool_proj"
  type: "Convolution"
  bottom: "inception_4c/pool"
  top: "inception_4c/pool_proj"
  param {
    lr_mult: 1
    decay_mult: 1
  }
  param {
    lr_mult: 2
    decay_mult: 0
  }
  convolution_param {
    num_output: 64
    kernel_size: 1
    weight_filler {
      type: "xavier"
    }
    bias_filler {
      type: "constant"
      value: 0.2
    }
  }
}
layer {
  name: "inception_4c/relu_pool_proj"
  type: "ReLU"
  bottom: "inception_4c/pool_proj"
  top: "inception_4c/pool_proj"
}
layer {
  name: "inception_4c/output"
  type: "Concat"
  bottom: "inception_4c/1x1"
  bottom: "inception_4c/3x3"
  bottom: "inception_4c/5x5"
  bottom: "inception_4c/pool_proj"
  top: "inception_4c/output"
}
layer {
  name: "inception_4c/output_inception_4c/output_0_split"
  type: "Split"
  bottom: "inception_4c/output"
  top: "inception_4c/output_inception_4c/output_0_split_0"
  top: "inception_4c/output_inception_4c/output_0_split_1"
  top: "inception_4c/output_inception_4c/output_0_split_2"
  top: "inception_4c/output_inception_4c/output_0_split_3"
}
layer {
  name: "inception_4d/1x1"
  type: "Convolution"
  bottom: "inception_4c/output_inception_4c/output_0_split_0"
  top: "inception_4d/1x1"
  param {
    lr_mult: 1
    decay_mult: 1
  }
  param {
    lr_mult: 2
    decay_mult: 0
  }
  convolution_param {
    num_output: 112
    kernel_size: 1
    weight_filler {
      type: "xavier"
    }
    bias_filler {
      type: "constant"
      value: 0.2
    }
  }
}
layer {
  name: "inception_4d/relu_1x1"
  type: "ReLU"
  bottom: "inception_4d/1x1"
  top: "inception_4d/1x1"
}
layer {
  name: "inception_4d/3x3_reduce"
  type: "Convolution"
  bottom: "inception_4c/output_inception_4c/output_0_split_1"
  top: "inception_4d/3x3_reduce"
  param {
    lr_mult: 1
    decay_mult: 1
  }
  param {
    lr_mult: 2
    decay_mult: 0
  }
  convolution_param {
    num_output: 144
    kernel_size: 1
    weight_filler {
      type: "xavier"
    }
    bias_filler {
      type: "constant"
      value: 0.2
    }
  }
}
layer {
  name: "inception_4d/relu_3x3_reduce"
  type: "ReLU"
  bottom: "inception_4d/3x3_reduce"
  top: "inception_4d/3x3_reduce"
}
layer {
  name: "inception_4d/3x3"
  type: "Convolution"
  bottom: "inception_4d/3x3_reduce"
  top: "inception_4d/3x3"
  param {
    lr_mult: 1
    decay_mult: 1
  }
  param {
    lr_mult: 2
    decay_mult: 0
  }
  convolution_param {
    num_output: 288
    pad: 1
    kernel_size: 3
    weight_filler {
      type: "xavier"
    }
    bias_filler {
      type: "constant"
      value: 0.2
    }
  }
}
layer {
  name: "inception_4d/relu_3x3"
  type: "ReLU"
  bottom: "inception_4d/3x3"
  top: "inception_4d/3x3"
}
layer {
  name: "inception_4d/5x5_reduce"
  type: "Convolution"
  bottom: "inception_4c/output_inception_4c/output_0_split_2"
  top: "inception_4d/5x5_reduce"
  param {
    lr_mult: 1
    decay_mult: 1
  }
  param {
    lr_mult: 2
    decay_mult: 0
  }
  convolution_param {
    num_output: 32
    kernel_size: 1
    weight_filler {
      type: "xavier"
    }
    bias_filler {
      type: "constant"
      value: 0.2
    }
  }
}
layer {
  name: "inception_4d/relu_5x5_reduce"
  type: "ReLU"
  bottom: "inception_4d/5x5_reduce"
  top: "inception_4d/5x5_reduce"
}
layer {
  name: "inception_4d/5x5"
  type: "Convolution"
  bottom: "inception_4d/5x5_reduce"
  top: "inception_4d/5x5"
  param {
    lr_mult: 1
    decay_mult: 1
  }
  param {
    lr_mult: 2
    decay_mult: 0
  }
  convolution_param {
    num_output: 64
    pad: 2
    kernel_size: 5
    weight_filler {
      type: "xavier"
    }
    bias_filler {
      type: "constant"
      value: 0.2
    }
  }
}
layer {
  name: "inception_4d/relu_5x5"
  type: "ReLU"
  bottom: "inception_4d/5x5"
  top: "inception_4d/5x5"
}
layer {
  name: "inception_4d/pool"
  type: "Pooling"
  bottom: "inception_4c/output_inception_4c/output_0_split_3"
  top: "inception_4d/pool"
  pooling_param {
    pool: MAX
    kernel_size: 3
    stride: 1
    pad: 1
  }
}
layer {
  name: "inception_4d/pool_proj"
  type: "Convolution"
  bottom: "inception_4d/pool"
  top: "inception_4d/pool_proj"
  param {
    lr_mult: 1
    decay_mult: 1
  }
  param {
    lr_mult: 2
    decay_mult: 0
  }
  convolution_param {
    num_output: 64
    kernel_size: 1
    weight_filler {
      type: "xavier"
    }
    bias_filler {
      type: "constant"
      value: 0.2
    }
  }
}
layer {
  name: "inception_4d/relu_pool_proj"
  type: "ReLU"
  bottom: "inception_4d/pool_proj"
  top: "inception_4d/pool_proj"
}
layer {
  name: "inception_4d/output"
  type: "Concat"
  bottom: "inception_4d/1x1"
  bottom: "inception_4d/3x3"
  bottom: "inception_4d/5x5"
  bottom: "inception_4d/pool_proj"
  top: "inception_4d/output"
}
layer {
  name: "inception_4d/output_inception_4d/output_0_split"
  type: "Split"
  bottom: "inception_4d/output"
  top: "inception_4d/output_inception_4d/output_0_split_0"
  top: "inception_4d/output_inception_4d/output_0_split_1"
  top: "inception_4d/output_inception_4d/output_0_split_2"
  top: "inception_4d/output_inception_4d/output_0_split_3"
  top: "inception_4d/output_inception_4d/output_0_split_4"
}
layer {
  name: "loss2/ave_pool"
  type: "Pooling"
  bottom: "inception_4d/output_inception_4d/output_0_split_0"
  top: "loss2/ave_pool"
  pooling_param {
    pool: AVE
    kernel_size: 5
    stride: 3
  }
}
layer {
  name: "loss2/conv"
  type: "Convolution"
  bottom: "loss2/ave_pool"
  top: "loss2/conv"
  param {
    lr_mult: 1
    decay_mult: 1
  }
  param {
    lr_mult: 2
    decay_mult: 0
  }
  convolution_param {
    num_output: 128
    kernel_size: 1
    weight_filler {
      type: "xavier"
    }
    bias_filler {
      type: "constant"
      value: 0.2
    }
  }
}
layer {
  name: "loss2/relu_conv"
  type: "ReLU"
  bottom: "loss2/conv"
  top: "loss2/conv"
}
layer {
  name: "loss2/fc"
  type: "InnerProduct"
  bottom: "loss2/conv"
  top: "loss2/fc"
  param {
    lr_mult: 1
    decay_mult: 1
  }
  param {
    lr_mult: 2
    decay_mult: 0
  }
  inner_product_param {
    num_output: 1024
    weight_filler {
      type: "xavier"
    }
    bias_filler {
      type: "constant"
      value: 0.2
    }
  }
}
layer {
  name: "loss2/relu_fc"
  type: "ReLU"
  bottom: "loss2/fc"
  top: "loss2/fc"
}
layer {
  name: "l
I0331 19:09:16.169234 136064 layer_factory.hpp:114] Creating layer data
I0331 19:09:16.169903 136064 net.cpp:160] Creating Layer data
I0331 19:09:16.169935 136064 net.cpp:570] data -> data
I0331 19:09:16.169961 136064 net.cpp:570] data -> label
I0331 19:09:16.170071 136065 db_lmdb.cpp:72] Opened lmdb /home/proy/LIBRARIES/caffeLibs/caffe/examples/imagenet/ilsvrc12_train_lmdb
I0331 19:09:16.170579 136064 data_layer.cpp:80] output data size: 112,3,224,224
I0331 19:09:16.245193 136064 net.cpp:210] Setting up data
I0331 19:09:16.245280 136064 net.cpp:217] Top shape: 112 3 224 224 (16859136)
I0331 19:09:16.245327 136064 net.cpp:217] Top shape: 112 (112)
I0331 19:09:16.245337 136064 net.cpp:225] Memory required for data: 67436992
I0331 19:09:16.245352 136064 layer_factory.hpp:114] Creating layer label_data_1_split
I0331 19:09:16.245388 136064 net.cpp:160] Creating Layer label_data_1_split
I0331 19:09:16.245400 136064 net.cpp:596] label_data_1_split <- label
I0331 19:09:16.245417 136064 net.cpp:570] label_data_1_split -> label_data_1_split_0
I0331 19:09:16.245437 136064 net.cpp:570] label_data_1_split -> label_data_1_split_1
I0331 19:09:16.245450 136064 net.cpp:570] label_data_1_split -> label_data_1_split_2
I0331 19:09:16.245471 136064 net.cpp:210] Setting up label_data_1_split
I0331 19:09:16.245482 136064 net.cpp:217] Top shape: 112 (112)
I0331 19:09:16.245492 136064 net.cpp:217] Top shape: 112 (112)
I0331 19:09:16.245501 136064 net.cpp:217] Top shape: 112 (112)
I0331 19:09:16.245508 136064 net.cpp:225] Memory required for data: 67438336
I0331 19:09:16.245517 136064 layer_factory.hpp:114] Creating layer conv1/7x7_s2
I0331 19:09:16.245546 136064 net.cpp:160] Creating Layer conv1/7x7_s2
I0331 19:09:16.245554 136064 net.cpp:596] conv1/7x7_s2 <- data
I0331 19:09:16.245566 136064 net.cpp:570] conv1/7x7_s2 -> conv1/7x7_s2
I0331 19:09:16.395274 136064 net.cpp:210] Setting up conv1/7x7_s2
I0331 19:09:16.395349 136064 net.cpp:217] Top shape: 112 64 112 112 (89915392)
I0331 19:09:16.395357 136064 net.cpp:225] Memory required for data: 427099904
I0331 19:09:16.395395 136064 layer_factory.hpp:114] Creating layer conv1/relu_7x7
I0331 19:09:16.395422 136064 net.cpp:160] Creating Layer conv1/relu_7x7
I0331 19:09:16.395434 136064 net.cpp:596] conv1/relu_7x7 <- conv1/7x7_s2
I0331 19:09:16.395450 136064 net.cpp:557] conv1/relu_7x7 -> conv1/7x7_s2 (in-place)
I0331 19:09:16.395473 136064 net.cpp:210] Setting up conv1/relu_7x7
I0331 19:09:16.395483 136064 net.cpp:217] Top shape: 112 64 112 112 (89915392)
I0331 19:09:16.395490 136064 net.cpp:225] Memory required for data: 786761472
I0331 19:09:16.395498 136064 layer_factory.hpp:114] Creating layer pool1/3x3_s2
I0331 19:09:16.395596 136064 net.cpp:160] Creating Layer pool1/3x3_s2
I0331 19:09:16.395606 136064 net.cpp:596] pool1/3x3_s2 <- conv1/7x7_s2
I0331 19:09:16.395637 136064 net.cpp:570] pool1/3x3_s2 -> pool1/3x3_s2
I0331 19:09:16.395671 136064 net.cpp:210] Setting up pool1/3x3_s2
I0331 19:09:16.395684 136064 net.cpp:217] Top shape: 112 64 56 56 (22478848)
I0331 19:09:16.395690 136064 net.cpp:225] Memory required for data: 876676864
I0331 19:09:16.395699 136064 layer_factory.hpp:114] Creating layer pool1/norm1
I0331 19:09:16.395716 136064 net.cpp:160] Creating Layer pool1/norm1
I0331 19:09:16.395725 136064 net.cpp:596] pool1/norm1 <- pool1/3x3_s2
I0331 19:09:16.395756 136064 net.cpp:570] pool1/norm1 -> pool1/norm1
I0331 19:09:16.395778 136064 net.cpp:210] Setting up pool1/norm1
I0331 19:09:16.395789 136064 net.cpp:217] Top shape: 112 64 56 56 (22478848)
I0331 19:09:16.395797 136064 net.cpp:225] Memory required for data: 966592256
I0331 19:09:16.395803 136064 layer_factory.hpp:114] Creating layer conv2/3x3_reduce
I0331 19:09:16.395828 136064 net.cpp:160] Creating Layer conv2/3x3_reduce
I0331 19:09:16.395835 136064 net.cpp:596] conv2/3x3_reduce <- pool1/norm1
I0331 19:09:16.395851 136064 net.cpp:570] conv2/3x3_reduce -> conv2/3x3_reduce
I0331 19:09:16.413956 136064 net.cpp:210] Setting up conv2/3x3_reduce
I0331 19:09:16.414026 136064 net.cpp:217] Top shape: 112 64 56 56 (22478848)
I0331 19:09:16.414033 136064 net.cpp:225] Memory required for data: 1056507648
I0331 19:09:16.414063 136064 layer_factory.hpp:114] Creating layer conv2/relu_3x3_reduce
I0331 19:09:16.414084 136064 net.cpp:160] Creating Layer conv2/relu_3x3_reduce
I0331 19:09:16.414094 136064 net.cpp:596] conv2/relu_3x3_reduce <- conv2/3x3_reduce
I0331 19:09:16.414110 136064 net.cpp:557] conv2/relu_3x3_reduce -> conv2/3x3_reduce (in-place)
I0331 19:09:16.414129 136064 net.cpp:210] Setting up conv2/relu_3x3_reduce
I0331 19:09:16.414139 136064 net.cpp:217] Top shape: 112 64 56 56 (22478848)
I0331 19:09:16.414146 136064 net.cpp:225] Memory required for data: 1146423040
I0331 19:09:16.414187 136064 layer_factory.hpp:114] Creating layer conv2/3x3
I0331 19:09:16.414214 136064 net.cpp:160] Creating Layer conv2/3x3
I0331 19:09:16.414222 136064 net.cpp:596] conv2/3x3 <- conv2/3x3_reduce
I0331 19:09:16.414237 136064 net.cpp:570] conv2/3x3 -> conv2/3x3
I0331 19:09:16.559343 136064 net.cpp:210] Setting up conv2/3x3
I0331 19:09:16.559398 136064 net.cpp:217] Top shape: 112 192 56 56 (67436544)
I0331 19:09:16.559403 136064 net.cpp:225] Memory required for data: 1416169216
I0331 19:09:16.559425 136064 layer_factory.hpp:114] Creating layer conv2/relu_3x3
I0331 19:09:16.559442 136064 net.cpp:160] Creating Layer conv2/relu_3x3
I0331 19:09:16.559449 136064 net.cpp:596] conv2/relu_3x3 <- conv2/3x3
I0331 19:09:16.559459 136064 net.cpp:557] conv2/relu_3x3 -> conv2/3x3 (in-place)
I0331 19:09:16.559471 136064 net.cpp:210] Setting up conv2/relu_3x3
I0331 19:09:16.559476 136064 net.cpp:217] Top shape: 112 192 56 56 (67436544)
I0331 19:09:16.559480 136064 net.cpp:225] Memory required for data: 1685915392
I0331 19:09:16.559484 136064 layer_factory.hpp:114] Creating layer conv2/norm2
I0331 19:09:16.559497 136064 net.cpp:160] Creating Layer conv2/norm2
I0331 19:09:16.559501 136064 net.cpp:596] conv2/norm2 <- conv2/3x3
I0331 19:09:16.559509 136064 net.cpp:570] conv2/norm2 -> conv2/norm2
I0331 19:09:16.559523 136064 net.cpp:210] Setting up conv2/norm2
I0331 19:09:16.559530 136064 net.cpp:217] Top shape: 112 192 56 56 (67436544)
I0331 19:09:16.559533 136064 net.cpp:225] Memory required for data: 1955661568
I0331 19:09:16.559537 136064 layer_factory.hpp:114] Creating layer pool2/3x3_s2
I0331 19:09:16.559581 136064 net.cpp:160] Creating Layer pool2/3x3_s2
I0331 19:09:16.559587 136064 net.cpp:596] pool2/3x3_s2 <- conv2/norm2
I0331 19:09:16.559594 136064 net.cpp:570] pool2/3x3_s2 -> pool2/3x3_s2
I0331 19:09:16.559607 136064 net.cpp:210] Setting up pool2/3x3_s2
I0331 19:09:16.559612 136064 net.cpp:217] Top shape: 112 192 28 28 (16859136)
I0331 19:09:16.559617 136064 net.cpp:225] Memory required for data: 2023098112
I0331 19:09:16.559620 136064 layer_factory.hpp:114] Creating layer pool2/3x3_s2_pool2/3x3_s2_0_split
I0331 19:09:16.559636 136064 net.cpp:160] Creating Layer pool2/3x3_s2_pool2/3x3_s2_0_split
I0331 19:09:16.559641 136064 net.cpp:596] pool2/3x3_s2_pool2/3x3_s2_0_split <- pool2/3x3_s2
I0331 19:09:16.559650 136064 net.cpp:570] pool2/3x3_s2_pool2/3x3_s2_0_split -> pool2/3x3_s2_pool2/3x3_s2_0_split_0
I0331 19:09:16.559659 136064 net.cpp:570] pool2/3x3_s2_pool2/3x3_s2_0_split -> pool2/3x3_s2_pool2/3x3_s2_0_split_1
I0331 19:09:16.559667 136064 net.cpp:570] pool2/3x3_s2_pool2/3x3_s2_0_split -> pool2/3x3_s2_pool2/3x3_s2_0_split_2
I0331 19:09:16.559689 136064 net.cpp:570] pool2/3x3_s2_pool2/3x3_s2_0_split -> pool2/3x3_s2_pool2/3x3_s2_0_split_3
I0331 19:09:16.559698 136064 net.cpp:210] Setting up pool2/3x3_s2_pool2/3x3_s2_0_split
I0331 19:09:16.559705 136064 net.cpp:217] Top shape: 112 192 28 28 (16859136)
I0331 19:09:16.559710 136064 net.cpp:217] Top shape: 112 192 28 28 (16859136)
I0331 19:09:16.559713 136064 net.cpp:217] Top shape: 112 192 28 28 (16859136)
I0331 19:09:16.559718 136064 net.cpp:217] Top shape: 112 192 28 28 (16859136)
I0331 19:09:16.559721 136064 net.cpp:225] Memory required for data: 2292844288
I0331 19:09:16.559725 136064 layer_factory.hpp:114] Creating layer inception_3a/1x1
I0331 19:09:16.559739 136064 net.cpp:160] Creating Layer inception_3a/1x1
I0331 19:09:16.559743 136064 net.cpp:596] inception_3a/1x1 <- pool2/3x3_s2_pool2/3x3_s2_0_split_0
I0331 19:09:16.559753 136064 net.cpp:570] inception_3a/1x1 -> inception_3a/1x1
I0331 19:09:16.572046 136064 net.cpp:210] Setting up inception_3a/1x1
I0331 19:09:16.572079 136064 net.cpp:217] Top shape: 112 64 28 28 (5619712)
I0331 19:09:16.572084 136064 net.cpp:225] Memory required for data: 2315323136
I0331 19:09:16.572096 136064 layer_factory.hpp:114] Creating layer inception_3a/relu_1x1
I0331 19:09:16.572113 136064 net.cpp:160] Creating Layer inception_3a/relu_1x1
I0331 19:09:16.572118 136064 net.cpp:596] inception_3a/relu_1x1 <- inception_3a/1x1
I0331 19:09:16.572150 136064 net.cpp:557] inception_3a/relu_1x1 -> inception_3a/1x1 (in-place)
I0331 19:09:16.572160 136064 net.cpp:210] Setting up inception_3a/relu_1x1
I0331 19:09:16.572165 136064 net.cpp:217] Top shape: 112 64 28 28 (5619712)
I0331 19:09:16.572170 136064 net.cpp:225] Memory required for data: 2337801984
I0331 19:09:16.572172 136064 layer_factory.hpp:114] Creating layer inception_3a/3x3_reduce
I0331 19:09:16.572186 136064 net.cpp:160] Creating Layer inception_3a/3x3_reduce
I0331 19:09:16.572191 136064 net.cpp:596] inception_3a/3x3_reduce <- pool2/3x3_s2_pool2/3x3_s2_0_split_1
I0331 19:09:16.572199 136064 net.cpp:570] inception_3a/3x3_reduce -> inception_3a/3x3_reduce
I0331 19:09:16.585343 136064 net.cpp:210] Setting up inception_3a/3x3_reduce
I0331 19:09:16.585381 136064 net.cpp:217] Top shape: 112 96 28 28 (8429568)
I0331 19:09:16.585384 136064 net.cpp:225] Memory required for data: 2371520256
I0331 19:09:16.585402 136064 layer_factory.hpp:114] Creating layer inception_3a/relu_3x3_reduce
I0331 19:09:16.585420 136064 net.cpp:160] Creating Layer inception_3a/relu_3x3_reduce
I0331 19:09:16.585427 136064 net.cpp:596] inception_3a/relu_3x3_reduce <- inception_3a/3x3_reduce
I0331 19:09:16.585434 136064 net.cpp:557] inception_3a/relu_3x3_reduce -> inception_3a/3x3_reduce (in-place)
I0331 19:09:16.585444 136064 net.cpp:210] Setting up inception_3a/relu_3x3_reduce
I0331 19:09:16.585449 136064 net.cpp:217] Top shape: 112 96 28 28 (8429568)
I0331 19:09:16.585453 136064 net.cpp:225] Memory required for data: 2405238528
I0331 19:09:16.585458 136064 layer_factory.hpp:114] Creating layer inception_3a/3x3
I0331 19:09:16.585471 136064 net.cpp:160] Creating Layer inception_3a/3x3
I0331 19:09:16.585475 136064 net.cpp:596] inception_3a/3x3 <- inception_3a/3x3_reduce
I0331 19:09:16.585482 136064 net.cpp:570] inception_3a/3x3 -> inception_3a/3x3
I0331 19:09:16.643209 136064 net.cpp:210] Setting up inception_3a/3x3
I0331 19:09:16.643252 136064 net.cpp:217] Top shape: 112 128 28 28 (11239424)
I0331 19:09:16.643257 136064 net.cpp:225] Memory required for data: 2450196224
I0331 19:09:16.643270 136064 layer_factory.hpp:114] Creating layer inception_3a/relu_3x3
I0331 19:09:16.643290 136064 net.cpp:160] Creating Layer inception_3a/relu_3x3
I0331 19:09:16.643297 136064 net.cpp:596] inception_3a/relu_3x3 <- inception_3a/3x3
I0331 19:09:16.643306 136064 net.cpp:557] inception_3a/relu_3x3 -> inception_3a/3x3 (in-place)
I0331 19:09:16.643316 136064 net.cpp:210] Setting up inception_3a/relu_3x3
I0331 19:09:16.643321 136064 net.cpp:217] Top shape: 112 128 28 28 (11239424)
I0331 19:09:16.643326 136064 net.cpp:225] Memory required for data: 2495153920
I0331 19:09:16.643329 136064 layer_factory.hpp:114] Creating layer inception_3a/5x5_reduce
I0331 19:09:16.643357 136064 net.cpp:160] Creating Layer inception_3a/5x5_reduce
I0331 19:09:16.643363 136064 net.cpp:596] inception_3a/5x5_reduce <- pool2/3x3_s2_pool2/3x3_s2_0_split_2
I0331 19:09:16.643373 136064 net.cpp:570] inception_3a/5x5_reduce -> inception_3a/5x5_reduce
I0331 19:09:16.654952 136064 net.cpp:210] Setting up inception_3a/5x5_reduce
I0331 19:09:16.654984 136064 net.cpp:217] Top shape: 112 16 28 28 (1404928)
I0331 19:09:16.654989 136064 net.cpp:225] Memory required for data: 2500773632
I0331 19:09:16.655000 136064 layer_factory.hpp:114] Creating layer inception_3a/relu_5x5_reduce
I0331 19:09:16.655014 136064 net.cpp:160] Creating Layer inception_3a/relu_5x5_reduce
I0331 19:09:16.655022 136064 net.cpp:596] inception_3a/relu_5x5_reduce <- inception_3a/5x5_reduce
I0331 19:09:16.655031 136064 net.cpp:557] inception_3a/relu_5x5_reduce -> inception_3a/5x5_reduce (in-place)
I0331 19:09:16.655041 136064 net.cpp:210] Setting up inception_3a/relu_5x5_reduce
I0331 19:09:16.655047 136064 net.cpp:217] Top shape: 112 16 28 28 (1404928)
I0331 19:09:16.655051 136064 net.cpp:225] Memory required for data: 2506393344
I0331 19:09:16.655055 136064 layer_factory.hpp:114] Creating layer inception_3a/5x5
I0331 19:09:16.655068 136064 net.cpp:160] Creating Layer inception_3a/5x5
I0331 19:09:16.655095 136064 net.cpp:596] inception_3a/5x5 <- inception_3a/5x5_reduce
I0331 19:09:16.655102 136064 net.cpp:570] inception_3a/5x5 -> inception_3a/5x5
I0331 19:09:16.679755 136064 net.cpp:210] Setting up inception_3a/5x5
I0331 19:09:16.679797 136064 net.cpp:217] Top shape: 112 32 28 28 (2809856)
I0331 19:09:16.679801 136064 net.cpp:225] Memory required for data: 2517632768
I0331 19:09:16.679814 136064 layer_factory.hpp:114] Creating layer inception_3a/relu_5x5
I0331 19:09:16.679827 136064 net.cpp:160] Creating Layer inception_3a/relu_5x5
I0331 19:09:16.679834 136064 net.cpp:596] inception_3a/relu_5x5 <- inception_3a/5x5
I0331 19:09:16.679847 136064 net.cpp:557] inception_3a/relu_5x5 -> inception_3a/5x5 (in-place)
I0331 19:09:16.679858 136064 net.cpp:210] Setting up inception_3a/relu_5x5
I0331 19:09:16.679863 136064 net.cpp:217] Top shape: 112 32 28 28 (2809856)
I0331 19:09:16.679867 136064 net.cpp:225] Memory required for data: 2528872192
I0331 19:09:16.679872 136064 layer_factory.hpp:114] Creating layer inception_3a/pool
I0331 19:09:16.679904 136064 net.cpp:160] Creating Layer inception_3a/pool
I0331 19:09:16.679910 136064 net.cpp:596] inception_3a/pool <- pool2/3x3_s2_pool2/3x3_s2_0_split_3
I0331 19:09:16.679919 136064 net.cpp:570] inception_3a/pool -> inception_3a/pool
I0331 19:09:16.679934 136064 net.cpp:210] Setting up inception_3a/pool
I0331 19:09:16.679939 136064 net.cpp:217] Top shape: 112 192 28 28 (16859136)
I0331 19:09:16.679944 136064 net.cpp:225] Memory required for data: 2596308736
I0331 19:09:16.679947 136064 layer_factory.hpp:114] Creating layer inception_3a/pool_proj
I0331 19:09:16.679961 136064 net.cpp:160] Creating Layer inception_3a/pool_proj
I0331 19:09:16.679965 136064 net.cpp:596] inception_3a/pool_proj <- inception_3a/pool
I0331 19:09:16.679975 136064 net.cpp:570] inception_3a/pool_proj -> inception_3a/pool_proj
I0331 19:09:16.691983 136064 net.cpp:210] Setting up inception_3a/pool_proj
I0331 19:09:16.692018 136064 net.cpp:217] Top shape: 112 32 28 28 (2809856)
I0331 19:09:16.692023 136064 net.cpp:225] Memory required for data: 2607548160
I0331 19:09:16.692044 136064 layer_factory.hpp:114] Creating layer inception_3a/relu_pool_proj
I0331 19:09:16.692055 136064 net.cpp:160] Creating Layer inception_3a/relu_pool_proj
I0331 19:09:16.692061 136064 net.cpp:596] inception_3a/relu_pool_proj <- inception_3a/pool_proj
I0331 19:09:16.692072 136064 net.cpp:557] inception_3a/relu_pool_proj -> inception_3a/pool_proj (in-place)
I0331 19:09:16.692083 136064 net.cpp:210] Setting up inception_3a/relu_pool_proj
I0331 19:09:16.692088 136064 net.cpp:217] Top shape: 112 32 28 28 (2809856)
I0331 19:09:16.692092 136064 net.cpp:225] Memory required for data: 2618787584
I0331 19:09:16.692109 136064 layer_factory.hpp:114] Creating layer inception_3a/output
I0331 19:09:16.692117 136064 net.cpp:160] Creating Layer inception_3a/output
I0331 19:09:16.692122 136064 net.cpp:596] inception_3a/output <- inception_3a/1x1
I0331 19:09:16.692127 136064 net.cpp:596] inception_3a/output <- inception_3a/3x3
I0331 19:09:16.692133 136064 net.cpp:596] inception_3a/output <- inception_3a/5x5
I0331 19:09:16.692138 136064 net.cpp:596] inception_3a/output <- inception_3a/pool_proj
I0331 19:09:16.692143 136064 net.cpp:570] inception_3a/output -> inception_3a/output
I0331 19:09:16.692160 136064 net.cpp:210] Setting up inception_3a/output
I0331 19:09:16.692167 136064 net.cpp:217] Top shape: 112 256 28 28 (22478848)
I0331 19:09:16.692172 136064 net.cpp:225] Memory required for data: 2708702976
I0331 19:09:16.692175 136064 layer_factory.hpp:114] Creating layer inception_3a/output_inception_3a/output_0_split
I0331 19:09:16.692186 136064 net.cpp:160] Creating Layer inception_3a/output_inception_3a/output_0_split
I0331 19:09:16.692190 136064 net.cpp:596] inception_3a/output_inception_3a/output_0_split <- inception_3a/output
I0331 19:09:16.692196 136064 net.cpp:570] inception_3a/output_inception_3a/output_0_split -> inception_3a/output_inception_3a/output_0_split_0
I0331 19:09:16.692204 136064 net.cpp:570] inception_3a/output_inception_3a/output_0_split -> inception_3a/output_inception_3a/output_0_split_1
I0331 19:09:16.692226 136064 net.cpp:570] inception_3a/output_inception_3a/output_0_split -> inception_3a/output_inception_3a/output_0_split_2
I0331 19:09:16.692236 136064 net.cpp:570] inception_3a/output_inception_3a/output_0_split -> inception_3a/output_inception_3a/output_0_split_3
I0331 19:09:16.692245 136064 net.cpp:210] Setting up inception_3a/output_inception_3a/output_0_split
I0331 19:09:16.692250 136064 net.cpp:217] Top shape: 112 256 28 28 (22478848)
I0331 19:09:16.692255 136064 net.cpp:217] Top shape: 112 256 28 28 (22478848)
I0331 19:09:16.692260 136064 net.cpp:217] Top shape: 112 256 28 28 (22478848)
I0331 19:09:16.692263 136064 net.cpp:217] Top shape: 112 256 28 28 (22478848)
I0331 19:09:16.692267 136064 net.cpp:225] Memory required for data: 3068364544
I0331 19:09:16.692271 136064 layer_factory.hpp:114] Creating layer inception_3b/1x1
I0331 19:09:16.692283 136064 net.cpp:160] Creating Layer inception_3b/1x1
I0331 19:09:16.692287 136064 net.cpp:596] inception_3b/1x1 <- inception_3a/output_inception_3a/output_0_split_0
I0331 19:09:16.692296 136064 net.cpp:570] inception_3b/1x1 -> inception_3b/1x1
I0331 19:09:16.709542 136064 net.cpp:210] Setting up inception_3b/1x1
I0331 19:09:16.709583 136064 net.cpp:217] Top shape: 112 128 28 28 (11239424)
I0331 19:09:16.709586 136064 net.cpp:225] Memory required for data: 3113322240
I0331 19:09:16.709599 136064 layer_factory.hpp:114] Creating layer inception_3b/relu_1x1
I0331 19:09:16.709615 136064 net.cpp:160] Creating Layer inception_3b/relu_1x1
I0331 19:09:16.709622 136064 net.cpp:596] inception_3b/relu_1x1 <- inception_3b/1x1
I0331 19:09:16.709635 136064 net.cpp:557] inception_3b/relu_1x1 -> inception_3b/1x1 (in-place)
I0331 19:09:16.709650 136064 net.cpp:210] Setting up inception_3b/relu_1x1
I0331 19:09:16.709656 136064 net.cpp:217] Top shape: 112 128 28 28 (11239424)
I0331 19:09:16.709659 136064 net.cpp:225] Memory required for data: 3158279936
I0331 19:09:16.709663 136064 layer_factory.hpp:114] Creating layer inception_3b/3x3_reduce
I0331 19:09:16.709676 136064 net.cpp:160] Creating Layer inception_3b/3x3_reduce
I0331 19:09:16.709681 136064 net.cpp:596] inception_3b/3x3_reduce <- inception_3a/output_inception_3a/output_0_split_1
I0331 19:09:16.709691 136064 net.cpp:570] inception_3b/3x3_reduce -> inception_3b/3x3_reduce
I0331 19:09:16.727452 136064 net.cpp:210] Setting up inception_3b/3x3_reduce
I0331 19:09:16.727493 136064 net.cpp:217] Top shape: 112 128 28 28 (11239424)
I0331 19:09:16.727497 136064 net.cpp:225] Memory required for data: 3203237632
I0331 19:09:16.727509 136064 layer_factory.hpp:114] Creating layer inception_3b/relu_3x3_reduce
I0331 19:09:16.727524 136064 net.cpp:160] Creating Layer inception_3b/relu_3x3_reduce
I0331 19:09:16.727545 136064 net.cpp:596] inception_3b/relu_3x3_reduce <- inception_3b/3x3_reduce
I0331 19:09:16.727555 136064 net.cpp:557] inception_3b/relu_3x3_reduce -> inception_3b/3x3_reduce (in-place)
I0331 19:09:16.727568 136064 net.cpp:210] Setting up inception_3b/relu_3x3_reduce
I0331 19:09:16.727574 136064 net.cpp:217] Top shape: 112 128 28 28 (11239424)
I0331 19:09:16.727577 136064 net.cpp:225] Memory required for data: 3248195328
I0331 19:09:16.727582 136064 layer_factory.hpp:114] Creating layer inception_3b/3x3
I0331 19:09:16.727598 136064 net.cpp:160] Creating Layer inception_3b/3x3
I0331 19:09:16.727602 136064 net.cpp:596] inception_3b/3x3 <- inception_3b/3x3_reduce
I0331 19:09:16.727612 136064 net.cpp:570] inception_3b/3x3 -> inception_3b/3x3
I0331 19:09:16.810155 136064 net.cpp:210] Setting up inception_3b/3x3
I0331 19:09:16.810201 136064 net.cpp:217] Top shape: 112 192 28 28 (16859136)
I0331 19:09:16.810206 136064 net.cpp:225] Memory required for data: 3315631872
I0331 19:09:16.810220 136064 layer_factory.hpp:114] Creating layer inception_3b/relu_3x3
I0331 19:09:16.810235 136064 net.cpp:160] Creating Layer inception_3b/relu_3x3
I0331 19:09:16.810243 136064 net.cpp:596] inception_3b/relu_3x3 <- inception_3b/3x3
I0331 19:09:16.810251 136064 net.cpp:557] inception_3b/relu_3x3 -> inception_3b/3x3 (in-place)
I0331 19:09:16.810292 136064 net.cpp:210] Setting up inception_3b/relu_3x3
I0331 19:09:16.810298 136064 net.cpp:217] Top shape: 112 192 28 28 (16859136)
I0331 19:09:16.810302 136064 net.cpp:225] Memory required for data: 3383068416
I0331 19:09:16.810307 136064 layer_factory.hpp:114] Creating layer inception_3b/5x5_reduce
I0331 19:09:16.810322 136064 net.cpp:160] Creating Layer inception_3b/5x5_reduce
I0331 19:09:16.810325 136064 net.cpp:596] inception_3b/5x5_reduce <- inception_3a/output_inception_3a/output_0_split_2
I0331 19:09:16.810335 136064 net.cpp:570] inception_3b/5x5_reduce -> inception_3b/5x5_reduce
I0331 19:09:16.826349 136064 net.cpp:210] Setting up inception_3b/5x5_reduce
I0331 19:09:16.826388 136064 net.cpp:217] Top shape: 112 32 28 28 (2809856)
I0331 19:09:16.826393 136064 net.cpp:225] Memory required for data: 3394307840
I0331 19:09:16.826406 136064 layer_factory.hpp:114] Creating layer inception_3b/relu_5x5_reduce
I0331 19:09:16.826422 136064 net.cpp:160] Creating Layer inception_3b/relu_5x5_reduce
I0331 19:09:16.826431 136064 net.cpp:596] inception_3b/relu_5x5_reduce <- inception_3b/5x5_reduce
I0331 19:09:16.826439 136064 net.cpp:557] inception_3b/relu_5x5_reduce -> inception_3b/5x5_reduce (in-place)
I0331 19:09:16.826452 136064 net.cpp:210] Setting up inception_3b/relu_5x5_reduce
I0331 19:09:16.826457 136064 net.cpp:217] Top shape: 112 32 28 28 (2809856)
I0331 19:09:16.826460 136064 net.cpp:225] Memory required for data: 3405547264
I0331 19:09:16.826464 136064 layer_factory.hpp:114] Creating layer inception_3b/5x5
I0331 19:09:16.826478 136064 net.cpp:160] Creating Layer inception_3b/5x5
I0331 19:09:16.826483 136064 net.cpp:596] inception_3b/5x5 <- inception_3b/5x5_reduce
I0331 19:09:16.826490 136064 net.cpp:570] inception_3b/5x5 -> inception_3b/5x5
I0331 19:09:16.877503 136064 net.cpp:210] Setting up inception_3b/5x5
I0331 19:09:16.877547 136064 net.cpp:217] Top shape: 112 96 28 28 (8429568)
I0331 19:09:16.877552 136064 net.cpp:225] Memory required for data: 3439265536
I0331 19:09:16.877564 136064 layer_factory.hpp:114] Creating layer inception_3b/relu_5x5
I0331 19:09:16.877578 136064 net.cpp:160] Creating Layer inception_3b/relu_5x5
I0331 19:09:16.877585 136064 net.cpp:596] inception_3b/relu_5x5 <- inception_3b/5x5
I0331 19:09:16.877599 136064 net.cpp:557] inception_3b/relu_5x5 -> inception_3b/5x5 (in-place)
I0331 19:09:16.877609 136064 net.cpp:210] Setting up inception_3b/relu_5x5
I0331 19:09:16.877615 136064 net.cpp:217] Top shape: 112 96 28 28 (8429568)
I0331 19:09:16.877619 136064 net.cpp:225] Memory required for data: 3472983808
I0331 19:09:16.877626 136064 layer_factory.hpp:114] Creating layer inception_3b/pool
I0331 19:09:16.877681 136064 net.cpp:160] Creating Layer inception_3b/pool
I0331 19:09:16.877688 136064 net.cpp:596] inception_3b/pool <- inception_3a/output_inception_3a/output_0_split_3
I0331 19:09:16.877697 136064 net.cpp:570] inception_3b/pool -> inception_3b/pool
I0331 19:09:16.877712 136064 net.cpp:210] Setting up inception_3b/pool
I0331 19:09:16.877717 136064 net.cpp:217] Top shape: 112 256 28 28 (22478848)
I0331 19:09:16.877722 136064 net.cpp:225] Memory required for data: 3562899200
I0331 19:09:16.877725 136064 layer_factory.hpp:114] Creating layer inception_3b/pool_proj
I0331 19:09:16.877740 136064 net.cpp:160] Creating Layer inception_3b/pool_proj
I0331 19:09:16.877745 136064 net.cpp:596] inception_3b/pool_proj <- inception_3b/pool
I0331 19:09:16.877754 136064 net.cpp:570] inception_3b/pool_proj -> inception_3b/pool_proj
I0331 19:09:16.894357 136064 net.cpp:210] Setting up inception_3b/pool_proj
I0331 19:09:16.894397 136064 net.cpp:217] Top shape: 112 64 28 28 (5619712)
I0331 19:09:16.894402 136064 net.cpp:225] Memory required for data: 3585378048
I0331 19:09:16.894414 136064 layer_factory.hpp:114] Creating layer inception_3b/relu_pool_proj
I0331 19:09:16.894430 136064 net.cpp:160] Creating Layer inception_3b/relu_pool_proj
I0331 19:09:16.894438 136064 net.cpp:596] inception_3b/relu_pool_proj <- inception_3b/pool_proj
I0331 19:09:16.894470 136064 net.cpp:557] inception_3b/relu_pool_proj -> inception_3b/pool_proj (in-place)
I0331 19:09:16.894484 136064 net.cpp:210] Setting up inception_3b/relu_pool_proj
I0331 19:09:16.894489 136064 net.cpp:217] Top shape: 112 64 28 28 (5619712)
I0331 19:09:16.894492 136064 net.cpp:225] Memory required for data: 3607856896
I0331 19:09:16.894496 136064 layer_factory.hpp:114] Creating layer inception_3b/output
I0331 19:09:16.894505 136064 net.cpp:160] Creating Layer inception_3b/output
I0331 19:09:16.894510 136064 net.cpp:596] inception_3b/output <- inception_3b/1x1
I0331 19:09:16.894515 136064 net.cpp:596] inception_3b/output <- inception_3b/3x3
I0331 19:09:16.894521 136064 net.cpp:596] inception_3b/output <- inception_3b/5x5
I0331 19:09:16.894526 136064 net.cpp:596] inception_3b/output <- inception_3b/pool_proj
I0331 19:09:16.894534 136064 net.cpp:570] inception_3b/output -> inception_3b/output
I0331 19:09:16.894546 136064 net.cpp:210] Setting up inception_3b/output
I0331 19:09:16.894552 136064 net.cpp:217] Top shape: 112 480 28 28 (42147840)
I0331 19:09:16.894556 136064 net.cpp:225] Memory required for data: 3776448256
I0331 19:09:16.894560 136064 layer_factory.hpp:114] Creating layer pool3/3x3_s2
I0331 19:09:16.894589 136064 net.cpp:160] Creating Layer pool3/3x3_s2
I0331 19:09:16.894594 136064 net.cpp:596] pool3/3x3_s2 <- inception_3b/output
I0331 19:09:16.894604 136064 net.cpp:570] pool3/3x3_s2 -> pool3/3x3_s2
I0331 19:09:16.894615 136064 net.cpp:210] Setting up pool3/3x3_s2
I0331 19:09:16.894620 136064 net.cpp:217] Top shape: 112 480 14 14 (10536960)
I0331 19:09:16.894630 136064 net.cpp:225] Memory required for data: 3818596096
I0331 19:09:16.894636 136064 layer_factory.hpp:114] Creating layer pool3/3x3_s2_pool3/3x3_s2_0_split
I0331 19:09:16.894645 136064 net.cpp:160] Creating Layer pool3/3x3_s2_pool3/3x3_s2_0_split
I0331 19:09:16.894649 136064 net.cpp:596] pool3/3x3_s2_pool3/3x3_s2_0_split <- pool3/3x3_s2
I0331 19:09:16.894659 136064 net.cpp:570] pool3/3x3_s2_pool3/3x3_s2_0_split -> pool3/3x3_s2_pool3/3x3_s2_0_split_0
I0331 19:09:16.894665 136064 net.cpp:570] pool3/3x3_s2_pool3/3x3_s2_0_split -> pool3/3x3_s2_pool3/3x3_s2_0_split_1
I0331 19:09:16.894672 136064 net.cpp:570] pool3/3x3_s2_pool3/3x3_s2_0_split -> pool3/3x3_s2_pool3/3x3_s2_0_split_2
I0331 19:09:16.894678 136064 net.cpp:570] pool3/3x3_s2_pool3/3x3_s2_0_split -> pool3/3x3_s2_pool3/3x3_s2_0_split_3
I0331 19:09:16.894686 136064 net.cpp:210] Setting up pool3/3x3_s2_pool3/3x3_s2_0_split
I0331 19:09:16.894693 136064 net.cpp:217] Top shape: 112 480 14 14 (10536960)
I0331 19:09:16.894698 136064 net.cpp:217] Top shape: 112 480 14 14 (10536960)
I0331 19:09:16.894703 136064 net.cpp:217] Top shape: 112 480 14 14 (10536960)
I0331 19:09:16.894714 136064 net.cpp:217] Top shape: 112 480 14 14 (10536960)
I0331 19:09:16.894717 136064 net.cpp:225] Memory required for data: 3987187456
I0331 19:09:16.894721 136064 layer_factory.hpp:114] Creating layer inception_4a/1x1
I0331 19:09:16.894736 136064 net.cpp:160] Creating Layer inception_4a/1x1
I0331 19:09:16.894739 136064 net.cpp:596] inception_4a/1x1 <- pool3/3x3_s2_pool3/3x3_s2_0_split_0
I0331 19:09:16.894745 136064 net.cpp:570] inception_4a/1x1 -> inception_4a/1x1
I0331 19:09:16.909793 136064 net.cpp:210] Setting up inception_4a/1x1
I0331 19:09:16.909832 136064 net.cpp:217] Top shape: 112 192 14 14 (4214784)
I0331 19:09:16.909837 136064 net.cpp:225] Memory required for data: 4004046592
I0331 19:09:16.909849 136064 layer_factory.hpp:114] Creating layer inception_4a/relu_1x1
I0331 19:09:16.909862 136064 net.cpp:160] Creating Layer inception_4a/relu_1x1
I0331 19:09:16.909869 136064 net.cpp:596] inception_4a/relu_1x1 <- inception_4a/1x1
I0331 19:09:16.909881 136064 net.cpp:557] inception_4a/relu_1x1 -> inception_4a/1x1 (in-place)
I0331 19:09:16.909889 136064 net.cpp:210] Setting up inception_4a/relu_1x1
I0331 19:09:16.909895 136064 net.cpp:217] Top shape: 112 192 14 14 (4214784)
I0331 19:09:16.909899 136064 net.cpp:225] Memory required for data: 4020905728
I0331 19:09:16.909904 136064 layer_factory.hpp:114] Creating layer inception_4a/3x3_reduce
I0331 19:09:16.909940 136064 net.cpp:160] Creating Layer inception_4a/3x3_reduce
I0331 19:09:16.909946 136064 net.cpp:596] inception_4a/3x3_reduce <- pool3/3x3_s2_pool3/3x3_s2_0_split_1
I0331 19:09:16.909955 136064 net.cpp:570] inception_4a/3x3_reduce -> inception_4a/3x3_reduce
I0331 19:09:16.921285 136064 net.cpp:210] Setting up inception_4a/3x3_reduce
I0331 19:09:16.921314 136064 net.cpp:217] Top shape: 112 96 14 14 (2107392)
I0331 19:09:16.921317 136064 net.cpp:225] Memory required for data: 4029335296
I0331 19:09:16.921337 136064 layer_factory.hpp:114] Creating layer inception_4a/relu_3x3_reduce
I0331 19:09:16.921347 136064 net.cpp:160] Creating Layer inception_4a/relu_3x3_reduce
I0331 19:09:16.921355 136064 net.cpp:596] inception_4a/relu_3x3_reduce <- inception_4a/3x3_reduce
I0331 19:09:16.921365 136064 net.cpp:557] inception_4a/relu_3x3_reduce -> inception_4a/3x3_reduce (in-place)
I0331 19:09:16.921373 136064 net.cpp:210] Setting up inception_4a/relu_3x3_reduce
I0331 19:09:16.921378 136064 net.cpp:217] Top shape: 112 96 14 14 (2107392)
I0331 19:09:16.921382 136064 net.cpp:225] Memory required for data: 4037764864
I0331 19:09:16.921386 136064 layer_factory.hpp:114] Creating layer inception_4a/3x3
I0331 19:09:16.921399 136064 net.cpp:160] Creating Layer inception_4a/3x3
I0331 19:09:16.921403 136064 net.cpp:596] inception_4a/3x3 <- inception_4a/3x3_reduce
I0331 19:09:16.921409 136064 net.cpp:570] inception_4a/3x3 -> inception_4a/3x3
I0331 19:09:16.948896 136064 net.cpp:210] Setting up inception_4a/3x3
I0331 19:09:16.948938 136064 net.cpp:217] Top shape: 112 208 14 14 (4566016)
I0331 19:09:16.948942 136064 net.cpp:225] Memory required for data: 4056028928
I0331 19:09:16.948956 136064 layer_factory.hpp:114] Creating layer inception_4a/relu_3x3
I0331 19:09:16.948968 136064 net.cpp:160] Creating Layer inception_4a/relu_3x3
I0331 19:09:16.948976 136064 net.cpp:596] inception_4a/relu_3x3 <- inception_4a/3x3
I0331 19:09:16.948989 136064 net.cpp:557] inception_4a/relu_3x3 -> inception_4a/3x3 (in-place)
I0331 19:09:16.949000 136064 net.cpp:210] Setting up inception_4a/relu_3x3
I0331 19:09:16.949007 136064 net.cpp:217] Top shape: 112 208 14 14 (4566016)
I0331 19:09:16.949010 136064 net.cpp:225] Memory required for data: 4074292992
I0331 19:09:16.949014 136064 layer_factory.hpp:114] Creating layer inception_4a/5x5_reduce
I0331 19:09:16.949028 136064 net.cpp:160] Creating Layer inception_4a/5x5_reduce
I0331 19:09:16.949033 136064 net.cpp:596] inception_4a/5x5_reduce <- pool3/3x3_s2_pool3/3x3_s2_0_split_2
I0331 19:09:16.949040 136064 net.cpp:570] inception_4a/5x5_reduce -> inception_4a/5x5_reduce
I0331 19:09:16.957240 136064 net.cpp:210] Setting up inception_4a/5x5_reduce
I0331 19:09:16.957278 136064 net.cpp:217] Top shape: 112 16 14 14 (351232)
I0331 19:09:16.957281 136064 net.cpp:225] Memory required for data: 4075697920
I0331 19:09:16.957293 136064 layer_factory.hpp:114] Creating layer inception_4a/relu_5x5_reduce
I0331 19:09:16.957301 136064 net.cpp:160] Creating Layer inception_4a/relu_5x5_reduce
I0331 19:09:16.957307 136064 net.cpp:596] inception_4a/relu_5x5_reduce <- inception_4a/5x5_reduce
I0331 19:09:16.957317 136064 net.cpp:557] inception_4a/relu_5x5_reduce -> inception_4a/5x5_reduce (in-place)
I0331 19:09:16.957325 136064 net.cpp:210] Setting up inception_4a/relu_5x5_reduce
I0331 19:09:16.957331 136064 net.cpp:217] Top shape: 112 16 14 14 (351232)
I0331 19:09:16.957335 136064 net.cpp:225] Memory required for data: 4077102848
I0331 19:09:16.957340 136064 layer_factory.hpp:114] Creating layer inception_4a/5x5
I0331 19:09:16.957350 136064 net.cpp:160] Creating Layer inception_4a/5x5
I0331 19:09:16.957353 136064 net.cpp:596] inception_4a/5x5 <- inception_4a/5x5_reduce
I0331 19:09:16.957362 136064 net.cpp:570] inception_4a/5x5 -> inception_4a/5x5
I0331 19:09:16.965672 136064 net.cpp:210] Setting up inception_4a/5x5
I0331 19:09:16.965694 136064 net.cpp:217] Top shape: 112 48 14 14 (1053696)
I0331 19:09:16.965698 136064 net.cpp:225] Memory required for data: 4081317632
I0331 19:09:16.965708 136064 layer_factory.hpp:114] Creating layer inception_4a/relu_5x5
I0331 19:09:16.965746 136064 net.cpp:160] Creating Layer inception_4a/relu_5x5
I0331 19:09:16.965752 136064 net.cpp:596] inception_4a/relu_5x5 <- inception_4a/5x5
I0331 19:09:16.965759 136064 net.cpp:557] inception_4a/relu_5x5 -> inception_4a/5x5 (in-place)
I0331 19:09:16.965766 136064 net.cpp:210] Setting up inception_4a/relu_5x5
I0331 19:09:16.965772 136064 net.cpp:217] Top shape: 112 48 14 14 (1053696)
I0331 19:09:16.965776 136064 net.cpp:225] Memory required for data: 4085532416
I0331 19:09:16.965780 136064 layer_factory.hpp:114] Creating layer inception_4a/pool
I0331 19:09:16.965811 136064 net.cpp:160] Creating Layer inception_4a/pool
I0331 19:09:16.965816 136064 net.cpp:596] inception_4a/pool <- pool3/3x3_s2_pool3/3x3_s2_0_split_3
I0331 19:09:16.965824 136064 net.cpp:570] inception_4a/pool -> inception_4a/pool
I0331 19:09:16.965836 136064 net.cpp:210] Setting up inception_4a/pool
I0331 19:09:16.965842 136064 net.cpp:217] Top shape: 112 480 14 14 (10536960)
I0331 19:09:16.965844 136064 net.cpp:225] Memory required for data: 4127680256
I0331 19:09:16.965848 136064 layer_factory.hpp:114] Creating layer inception_4a/pool_proj
I0331 19:09:16.965862 136064 net.cpp:160] Creating Layer inception_4a/pool_proj
I0331 19:09:16.965867 136064 net.cpp:596] inception_4a/pool_proj <- inception_4a/pool
I0331 19:09:16.965875 136064 net.cpp:570] inception_4a/pool_proj -> inception_4a/pool_proj
I0331 19:09:16.975653 136064 net.cpp:210] Setting up inception_4a/pool_proj
I0331 19:09:16.975678 136064 net.cpp:217] Top shape: 112 64 14 14 (1404928)
I0331 19:09:16.975682 136064 net.cpp:225] Memory required for data: 4133299968
I0331 19:09:16.975692 136064 layer_factory.hpp:114] Creating layer inception_4a/relu_pool_proj
I0331 19:09:16.975705 136064 net.cpp:160] Creating Layer inception_4a/relu_pool_proj
I0331 19:09:16.975710 136064 net.cpp:596] inception_4a/relu_pool_proj <- inception_4a/pool_proj
I0331 19:09:16.975718 136064 net.cpp:557] inception_4a/relu_pool_proj -> inception_4a/pool_proj (in-place)
I0331 19:09:16.975726 136064 net.cpp:210] Setting up inception_4a/relu_pool_proj
I0331 19:09:16.975731 136064 net.cpp:217] Top shape: 112 64 14 14 (1404928)
I0331 19:09:16.975735 136064 net.cpp:225] Memory required for data: 4138919680
I0331 19:09:16.975739 136064 layer_factory.hpp:114] Creating layer inception_4a/output
I0331 19:09:16.975747 136064 net.cpp:160] Creating Layer inception_4a/output
I0331 19:09:16.975754 136064 net.cpp:596] inception_4a/output <- inception_4a/1x1
I0331 19:09:16.975759 136064 net.cpp:596] inception_4a/output <- inception_4a/3x3
I0331 19:09:16.975764 136064 net.cpp:596] inception_4a/output <- inception_4a/5x5
I0331 19:09:16.975769 136064 net.cpp:596] inception_4a/output <- inception_4a/pool_proj
I0331 19:09:16.975787 136064 net.cpp:570] inception_4a/output -> inception_4a/output
I0331 19:09:16.975797 136064 net.cpp:210] Setting up inception_4a/output
I0331 19:09:16.975803 136064 net.cpp:217] Top shape: 112 512 14 14 (11239424)
I0331 19:09:16.975807 136064 net.cpp:225] Memory required for data: 4183877376
I0331 19:09:16.975811 136064 layer_factory.hpp:114] Creating layer inception_4a/output_inception_4a/output_0_split
I0331 19:09:16.975821 136064 net.cpp:160] Creating Layer inception_4a/output_inception_4a/output_0_split
I0331 19:09:16.975824 136064 net.cpp:596] inception_4a/output_inception_4a/output_0_split <- inception_4a/output
I0331 19:09:16.975834 136064 net.cpp:570] inception_4a/output_inception_4a/output_0_split -> inception_4a/output_inception_4a/output_0_split_0
I0331 19:09:16.975841 136064 net.cpp:570] inception_4a/output_inception_4a/output_0_split -> inception_4a/output_inception_4a/output_0_split_1
I0331 19:09:16.975848 136064 net.cpp:570] inception_4a/output_inception_4a/output_0_split -> inception_4a/output_inception_4a/output_0_split_2
I0331 19:09:16.975855 136064 net.cpp:570] inception_4a/output_inception_4a/output_0_split -> inception_4a/output_inception_4a/output_0_split_3
I0331 19:09:16.975862 136064 net.cpp:570] inception_4a/output_inception_4a/output_0_split -> inception_4a/output_inception_4a/output_0_split_4
I0331 19:09:16.975889 136064 net.cpp:210] Setting up inception_4a/output_inception_4a/output_0_split
I0331 19:09:16.975895 136064 net.cpp:217] Top shape: 112 512 14 14 (11239424)
I0331 19:09:16.975899 136064 net.cpp:217] Top shape: 112 512 14 14 (11239424)
I0331 19:09:16.975904 136064 net.cpp:217] Top shape: 112 512 14 14 (11239424)
I0331 19:09:16.975909 136064 net.cpp:217] Top shape: 112 512 14 14 (11239424)
I0331 19:09:16.975914 136064 net.cpp:217] Top shape: 112 512 14 14 (11239424)
I0331 19:09:16.975917 136064 net.cpp:225] Memory required for data: 4408665856
I0331 19:09:16.975921 136064 layer_factory.hpp:114] Creating layer loss1/ave_pool
I0331 19:09:16.975950 136064 net.cpp:160] Creating Layer loss1/ave_pool
I0331 19:09:16.975953 136064 net.cpp:596] loss1/ave_pool <- inception_4a/output_inception_4a/output_0_split_0
I0331 19:09:16.975960 136064 net.cpp:570] loss1/ave_pool -> loss1/ave_pool
I0331 19:09:16.975968 136064 net.cpp:210] Setting up loss1/ave_pool
I0331 19:09:16.975975 136064 net.cpp:217] Top shape: 112 512 4 4 (917504)
I0331 19:09:16.975978 136064 net.cpp:225] Memory required for data: 4412335872
I0331 19:09:16.975982 136064 layer_factory.hpp:114] Creating layer loss1/conv
I0331 19:09:16.975994 136064 net.cpp:160] Creating Layer loss1/conv
I0331 19:09:16.975999 136064 net.cpp:596] loss1/conv <- loss1/ave_pool
I0331 19:09:16.976007 136064 net.cpp:570] loss1/conv -> loss1/conv
I0331 19:09:16.982847 136064 net.cpp:210] Setting up loss1/conv
I0331 19:09:16.982862 136064 net.cpp:217] Top shape: 112 128 4 4 (229376)
I0331 19:09:16.982867 136064 net.cpp:225] Memory required for data: 4413253376
I0331 19:09:16.982874 136064 layer_factory.hpp:114] Creating layer loss1/relu_conv
I0331 19:09:16.982882 136064 net.cpp:160] Creating Layer loss1/relu_conv
I0331 19:09:16.982885 136064 net.cpp:596] loss1/relu_conv <- loss1/conv
I0331 19:09:16.982894 136064 net.cpp:557] loss1/relu_conv -> loss1/conv (in-place)
I0331 19:09:16.982900 136064 net.cpp:210] Setting up loss1/relu_conv
I0331 19:09:16.982905 136064 net.cpp:217] Top shape: 112 128 4 4 (229376)
I0331 19:09:16.982909 136064 net.cpp:225] Memory required for data: 4414170880
I0331 19:09:16.982913 136064 layer_factory.hpp:114] Creating layer loss1/fc
I0331 19:09:16.982928 136064 net.cpp:160] Creating Layer loss1/fc
I0331 19:09:16.982931 136064 net.cpp:596] loss1/fc <- loss1/conv
I0331 19:09:16.982938 136064 net.cpp:570] loss1/fc -> loss1/fc
I0331 19:09:17.002800 136064 net.cpp:210] Setting up loss1/fc
I0331 19:09:17.002811 136064 net.cpp:217] Top shape: 112 1024 (114688)
I0331 19:09:17.002815 136064 net.cpp:225] Memory required for data: 4414629632
I0331 19:09:17.002822 136064 layer_factory.hpp:114] Creating layer loss1/relu_fc
I0331 19:09:17.002836 136064 net.cpp:160] Creating Layer loss1/relu_fc
I0331 19:09:17.002841 136064 net.cpp:596] loss1/relu_fc <- loss1/fc
I0331 19:09:17.002846 136064 net.cpp:557] loss1/relu_fc -> loss1/fc (in-place)
I0331 19:09:17.002853 136064 net.cpp:210] Setting up loss1/relu_fc
I0331 19:09:17.002858 136064 net.cpp:217] Top shape: 112 1024 (114688)
I0331 19:09:17.002861 136064 net.cpp:225] Memory required for data: 4415088384
I0331 19:09:17.002866 136064 layer_factory.hpp:114] Creating layer loss1/drop_fc
I0331 19:09:17.002882 136064 net.cpp:160] Creating Layer loss1/drop_fc
I0331 19:09:17.002885 136064 net.cpp:596] loss1/drop_fc <- loss1/fc
I0331 19:09:17.002892 136064 net.cpp:557] loss1/drop_fc -> loss1/fc (in-place)
I0331 19:09:17.002903 136064 net.cpp:210] Setting up loss1/drop_fc
I0331 19:09:17.002908 136064 net.cpp:217] Top shape: 112 1024 (114688)
I0331 19:09:17.002912 136064 net.cpp:225] Memory required for data: 4415547136
I0331 19:09:17.002917 136064 layer_factory.hpp:114] Creating layer loss1/classifier
I0331 19:09:17.002925 136064 net.cpp:160] Creating Layer loss1/classifier
I0331 19:09:17.002929 136064 net.cpp:596] loss1/classifier <- loss1/fc
I0331 19:09:17.002936 136064 net.cpp:570] loss1/classifier -> loss1/classifier
I0331 19:09:17.012884 136064 net.cpp:210] Setting up loss1/classifier
I0331 19:09:17.012908 136064 net.cpp:217] Top shape: 112 1000 (112000)
I0331 19:09:17.012912 136064 net.cpp:225] Memory required for data: 4415995136
I0331 19:09:17.012919 136064 layer_factory.hpp:114] Creating layer loss1/loss
I0331 19:09:17.012930 136064 net.cpp:160] Creating Layer loss1/loss
I0331 19:09:17.012935 136064 net.cpp:596] loss1/loss <- loss1/classifier
I0331 19:09:17.012940 136064 net.cpp:596] loss1/loss <- label_data_1_split_0
I0331 19:09:17.012946 136064 net.cpp:570] loss1/loss -> loss1/loss1
…
I0331 19:09:17.020597 136064 net.cpp:220]     with loss weight 0.3
I0331 19:09:17.020653 136064 net.cpp:225] Memory required for data: 4415995140
I0331 19:09:17.020658 136064 layer_factory.hpp:114] Creating layer inception_4b/1x1
I0331 19:09:17.020673 136064 net.cpp:160] Creating Layer inception_4b/1x1
I0331 19:09:17.020679 136064 net.cpp:596] inception_4b/1x1 <- inception_4a/output_inception_4a/output_0_split_1
I0331 19:09:17.020689 136064 net.cpp:570] inception_4b/1x1 -> inception_4b/1x1
I0331 19:09:17.035750 136064 net.cpp:210] Setting up inception_4b/1x1
I0331 19:09:17.035782 136064 net.cpp:217] Top shape: 112 160 14 14 (3512320)
I0331 19:09:17.035787 136064 net.cpp:225] Memory required for data: 4430044420
I0331 19:09:17.035799 136064 layer_factory.hpp:114] Creating layer inception_4b/relu_1x1
I0331 19:09:17.035812 136064 net.cpp:160] Creating Layer inception_4b/relu_1x1
I0331 19:09:17.035820 136064 net.cpp:596] inception_4b/relu_1x1 <- inception_4b/1x1
I0331 19:09:17.035828 136064 net.cpp:557] inception_4b/relu_1x1 -> inception_4b/1x1 (in-place)
I0331 19:09:17.035838 136064 net.cpp:210] Setting up inception_4b/relu_1x1
I0331 19:09:17.035845 136064 net.cpp:217] Top shape: 112 160 14 14 (3512320)
I0331 19:09:17.035848 136064 net.cpp:225] Memory required for data: 4444093700
I0331 19:09:17.035853 136064 layer_factory.hpp:114] Creating layer inception_4b/3x3_reduce
I0331 19:09:17.035871 136064 net.cpp:160] Creating Layer inception_4b/3x3_reduce
I0331 19:09:17.035876 136064 net.cpp:596] inception_4b/3x3_reduce <- inception_4a/output_inception_4a/output_0_split_2
I0331 19:09:17.035887 136064 net.cpp:570] inception_4b/3x3_reduce -> inception_4b/3x3_reduce
I0331 19:09:17.048593 136064 net.cpp:210] Setting up inception_4b/3x3_reduce
I0331 19:09:17.048638 136064 net.cpp:217] Top shape: 112 112 14 14 (2458624)
I0331 19:09:17.048645 136064 net.cpp:225] Memory required for data: 4453928196
I0331 19:09:17.048655 136064 layer_factory.hpp:114] Creating layer inception_4b/relu_3x3_reduce
I0331 19:09:17.048665 136064 net.cpp:160] Creating Layer inception_4b/relu_3x3_reduce
I0331 19:09:17.048676 136064 net.cpp:596] inception_4b/relu_3x3_reduce <- inception_4b/3x3_reduce
I0331 19:09:17.048687 136064 net.cpp:557] inception_4b/relu_3x3_reduce -> inception_4b/3x3_reduce (in-place)
I0331 19:09:17.048696 136064 net.cpp:210] Setting up inception_4b/relu_3x3_reduce
I0331 19:09:17.048702 136064 net.cpp:217] Top shape: 112 112 14 14 (2458624)
I0331 19:09:17.048707 136064 net.cpp:225] Memory required for data: 4463762692
I0331 19:09:17.048710 136064 layer_factory.hpp:114] Creating layer inception_4b/3x3
I0331 19:09:17.048723 136064 net.cpp:160] Creating Layer inception_4b/3x3
I0331 19:09:17.048727 136064 net.cpp:596] inception_4b/3x3 <- inception_4b/3x3_reduce
I0331 19:09:17.048733 136064 net.cpp:570] inception_4b/3x3 -> inception_4b/3x3
I0331 19:09:17.082072 136064 net.cpp:210] Setting up inception_4b/3x3
I0331 19:09:17.082116 136064 net.cpp:217] Top shape: 112 224 14 14 (4917248)
I0331 19:09:17.082120 136064 net.cpp:225] Memory required for data: 4483431684
I0331 19:09:17.082134 136064 layer_factory.hpp:114] Creating layer inception_4b/relu_3x3
I0331 19:09:17.082146 136064 net.cpp:160] Creating Layer inception_4b/relu_3x3
I0331 19:09:17.082156 136064 net.cpp:596] inception_4b/relu_3x3 <- inception_4b/3x3
I0331 19:09:17.082190 136064 net.cpp:557] inception_4b/relu_3x3 -> inception_4b/3x3 (in-place)
I0331 19:09:17.082201 136064 net.cpp:210] Setting up inception_4b/relu_3x3
I0331 19:09:17.082206 136064 net.cpp:217] Top shape: 112 224 14 14 (4917248)
I0331 19:09:17.082211 136064 net.cpp:225] Memory required for data: 4503100676
I0331 19:09:17.082214 136064 layer_factory.hpp:114] Creating layer inception_4b/5x5_reduce
I0331 19:09:17.082229 136064 net.cpp:160] Creating Layer inception_4b/5x5_reduce
I0331 19:09:17.082234 136064 net.cpp:596] inception_4b/5x5_reduce <- inception_4a/output_inception_4a/output_0_split_3
I0331 19:09:17.082244 136064 net.cpp:570] inception_4b/5x5_reduce -> inception_4b/5x5_reduce
I0331 19:09:17.091390 136064 net.cpp:210] Setting up inception_4b/5x5_reduce
I0331 19:09:17.091403 136064 net.cpp:217] Top shape: 112 24 14 14 (526848)
I0331 19:09:17.091408 136064 net.cpp:225] Memory required for data: 4505208068
I0331 19:09:17.091415 136064 layer_factory.hpp:114] Creating layer inception_4b/relu_5x5_reduce
I0331 19:09:17.091423 136064 net.cpp:160] Creating Layer inception_4b/relu_5x5_reduce
I0331 19:09:17.091428 136064 net.cpp:596] inception_4b/relu_5x5_reduce <- inception_4b/5x5_reduce
I0331 19:09:17.091435 136064 net.cpp:557] inception_4b/relu_5x5_reduce -> inception_4b/5x5_reduce (in-place)
I0331 19:09:17.091444 136064 net.cpp:210] Setting up inception_4b/relu_5x5_reduce
I0331 19:09:17.091449 136064 net.cpp:217] Top shape: 112 24 14 14 (526848)
I0331 19:09:17.091452 136064 net.cpp:225] Memory required for data: 4507315460
I0331 19:09:17.091456 136064 layer_factory.hpp:114] Creating layer inception_4b/5x5
I0331 19:09:17.091466 136064 net.cpp:160] Creating Layer inception_4b/5x5
I0331 19:09:17.091471 136064 net.cpp:596] inception_4b/5x5 <- inception_4b/5x5_reduce
I0331 19:09:17.091477 136064 net.cpp:570] inception_4b/5x5 -> inception_4b/5x5
I0331 19:09:17.103730 136064 net.cpp:210] Setting up inception_4b/5x5
I0331 19:09:17.103757 136064 net.cpp:217] Top shape: 112 64 14 14 (1404928)
I0331 19:09:17.103762 136064 net.cpp:225] Memory required for data: 4512935172
I0331 19:09:17.103771 136064 layer_factory.hpp:114] Creating layer inception_4b/relu_5x5
I0331 19:09:17.103781 136064 net.cpp:160] Creating Layer inception_4b/relu_5x5
I0331 19:09:17.103787 136064 net.cpp:596] inception_4b/relu_5x5 <- inception_4b/5x5
I0331 19:09:17.103796 136064 net.cpp:557] inception_4b/relu_5x5 -> inception_4b/5x5 (in-place)
I0331 19:09:17.103816 136064 net.cpp:210] Setting up inception_4b/relu_5x5
I0331 19:09:17.103822 136064 net.cpp:217] Top shape: 112 64 14 14 (1404928)
I0331 19:09:17.103826 136064 net.cpp:225] Memory required for data: 4518554884
I0331 19:09:17.103830 136064 layer_factory.hpp:114] Creating layer inception_4b/pool
I0331 19:09:17.103870 136064 net.cpp:160] Creating Layer inception_4b/pool
I0331 19:09:17.103878 136064 net.cpp:596] inception_4b/pool <- inception_4a/output_inception_4a/output_0_split_4
I0331 19:09:17.103885 136064 net.cpp:570] inception_4b/pool -> inception_4b/pool
I0331 19:09:17.103901 136064 net.cpp:210] Setting up inception_4b/pool
I0331 19:09:17.103911 136064 net.cpp:217] Top shape: 112 512 14 14 (11239424)
I0331 19:09:17.103915 136064 net.cpp:225] Memory required for data: 4563512580
I0331 19:09:17.103919 136064 layer_factory.hpp:114] Creating layer inception_4b/pool_proj
I0331 19:09:17.103932 136064 net.cpp:160] Creating Layer inception_4b/pool_proj
I0331 19:09:17.103936 136064 net.cpp:596] inception_4b/pool_proj <- inception_4b/pool
I0331 19:09:17.103943 136064 net.cpp:570] inception_4b/pool_proj -> inception_4b/pool_proj
I0331 19:09:17.114805 136064 net.cpp:210] Setting up inception_4b/pool_proj
I0331 19:09:17.114825 136064 net.cpp:217] Top shape: 112 64 14 14 (1404928)
I0331 19:09:17.114830 136064 net.cpp:225] Memory required for data: 4569132292
I0331 19:09:17.114838 136064 layer_factory.hpp:114] Creating layer inception_4b/relu_pool_proj
I0331 19:09:17.114845 136064 net.cpp:160] Creating Layer inception_4b/relu_pool_proj
I0331 19:09:17.114852 136064 net.cpp:596] inception_4b/relu_pool_proj <- inception_4b/pool_proj
I0331 19:09:17.114879 136064 net.cpp:557] inception_4b/relu_pool_proj -> inception_4b/pool_proj (in-place)
I0331 19:09:17.114887 136064 net.cpp:210] Setting up inception_4b/relu_pool_proj
I0331 19:09:17.114892 136064 net.cpp:217] Top shape: 112 64 14 14 (1404928)
I0331 19:09:17.114897 136064 net.cpp:225] Memory required for data: 4574752004
I0331 19:09:17.114902 136064 layer_factory.hpp:114] Creating layer inception_4b/output
I0331 19:09:17.114909 136064 net.cpp:160] Creating Layer inception_4b/output
I0331 19:09:17.114914 136064 net.cpp:596] inception_4b/output <- inception_4b/1x1
I0331 19:09:17.114919 136064 net.cpp:596] inception_4b/output <- inception_4b/3x3
I0331 19:09:17.114924 136064 net.cpp:596] inception_4b/output <- inception_4b/5x5
I0331 19:09:17.114929 136064 net.cpp:596] inception_4b/output <- inception_4b/pool_proj
I0331 19:09:17.114938 136064 net.cpp:570] inception_4b/output -> inception_4b/output
I0331 19:09:17.114948 136064 net.cpp:210] Setting up inception_4b/output
I0331 19:09:17.114953 136064 net.cpp:217] Top shape: 112 512 14 14 (11239424)
I0331 19:09:17.114956 136064 net.cpp:225] Memory required for data: 4619709700
I0331 19:09:17.114960 136064 layer_factory.hpp:114] Creating layer inception_4b/output_inception_4b/output_0_split
I0331 19:09:17.114967 136064 net.cpp:160] Creating Layer inception_4b/output_inception_4b/output_0_split
I0331 19:09:17.114971 136064 net.cpp:596] inception_4b/output_inception_4b/output_0_split <- inception_4b/output
I0331 19:09:17.114979 136064 net.cpp:570] inception_4b/output_inception_4b/output_0_split -> inception_4b/output_inception_4b/output_0_split_0
I0331 19:09:17.114986 136064 net.cpp:570] inception_4b/output_inception_4b/output_0_split -> inception_4b/output_inception_4b/output_0_split_1
I0331 19:09:17.114994 136064 net.cpp:570] inception_4b/output_inception_4b/output_0_split -> inception_4b/output_inception_4b/output_0_split_2
I0331 19:09:17.115000 136064 net.cpp:570] inception_4b/output_inception_4b/output_0_split -> inception_4b/output_inception_4b/output_0_split_3
I0331 19:09:17.115006 136064 net.cpp:210] Setting up inception_4b/output_inception_4b/output_0_split
I0331 19:09:17.115012 136064 net.cpp:217] Top shape: 112 512 14 14 (11239424)
I0331 19:09:17.115016 136064 net.cpp:217] Top shape: 112 512 14 14 (11239424)
I0331 19:09:17.115021 136064 net.cpp:217] Top shape: 112 512 14 14 (11239424)
I0331 19:09:17.115025 136064 net.cpp:217] Top shape: 112 512 14 14 (11239424)
I0331 19:09:17.115032 136064 net.cpp:225] Memory required for data: 4799540484
I0331 19:09:17.115036 136064 layer_factory.hpp:114] Creating layer inception_4c/1x1
I0331 19:09:17.115052 136064 net.cpp:160] Creating Layer inception_4c/1x1
I0331 19:09:17.115056 136064 net.cpp:596] inception_4c/1x1 <- inception_4b/output_inception_4b/output_0_split_0
I0331 19:09:17.115066 136064 net.cpp:570] inception_4c/1x1 -> inception_4c/1x1
I0331 19:09:17.128303 136064 net.cpp:210] Setting up inception_4c/1x1
I0331 19:09:17.128334 136064 net.cpp:217] Top shape: 112 128 14 14 (2809856)
I0331 19:09:17.128338 136064 net.cpp:225] Memory required for data: 4810779908
I0331 19:09:17.128348 136064 layer_factory.hpp:114] Creating layer inception_4c/relu_1x1
I0331 19:09:17.128361 136064 net.cpp:160] Creating Layer inception_4c/relu_1x1
I0331 19:09:17.128368 136064 net.cpp:596] inception_4c/relu_1x1 <- inception_4c/1x1
I0331 19:09:17.128378 136064 net.cpp:557] inception_4c/relu_1x1 -> inception_4c/1x1 (in-place)
I0331 19:09:17.128387 136064 net.cpp:210] Setting up inception_4c/relu_1x1
I0331 19:09:17.128393 136064 net.cpp:217] Top shape: 112 128 14 14 (2809856)
I0331 19:09:17.128397 136064 net.cpp:225] Memory required for data: 4822019332
I0331 19:09:17.128401 136064 layer_factory.hpp:114] Creating layer inception_4c/3x3_reduce
I0331 19:09:17.128410 136064 net.cpp:160] Creating Layer inception_4c/3x3_reduce
I0331 19:09:17.128415 136064 net.cpp:596] inception_4c/3x3_reduce <- inception_4b/output_inception_4b/output_0_split_1
I0331 19:09:17.128424 136064 net.cpp:570] inception_4c/3x3_reduce -> inception_4c/3x3_reduce
I0331 19:09:17.142231 136064 net.cpp:210] Setting up inception_4c/3x3_reduce
I0331 19:09:17.142261 136064 net.cpp:217] Top shape: 112 128 14 14 (2809856)
I0331 19:09:17.142266 136064 net.cpp:225] Memory required for data: 4833258756
I0331 19:09:17.142277 136064 layer_factory.hpp:114] Creating layer inception_4c/relu_3x3_reduce
I0331 19:09:17.142285 136064 net.cpp:160] Creating Layer inception_4c/relu_3x3_reduce
I0331 19:09:17.142292 136064 net.cpp:596] inception_4c/relu_3x3_reduce <- inception_4c/3x3_reduce
I0331 19:09:17.142300 136064 net.cpp:557] inception_4c/relu_3x3_reduce -> inception_4c/3x3_reduce (in-place)
I0331 19:09:17.142310 136064 net.cpp:210] Setting up inception_4c/relu_3x3_reduce
I0331 19:09:17.142315 136064 net.cpp:217] Top shape: 112 128 14 14 (2809856)
I0331 19:09:17.142319 136064 net.cpp:225] Memory required for data: 4844498180
I0331 19:09:17.142323 136064 layer_factory.hpp:114] Creating layer inception_4c/3x3
I0331 19:09:17.142335 136064 net.cpp:160] Creating Layer inception_4c/3x3
I0331 19:09:17.142340 136064 net.cpp:596] inception_4c/3x3 <- inception_4c/3x3_reduce
I0331 19:09:17.142348 136064 net.cpp:570] inception_4c/3x3 -> inception_4c/3x3
I0331 19:09:17.182920 136064 net.cpp:210] Setting up inception_4c/3x3
I0331 19:09:17.182961 136064 net.cpp:217] Top shape: 112 256 14 14 (5619712)
I0331 19:09:17.182966 136064 net.cpp:225] Memory required for data: 4866977028
I0331 19:09:17.182994 136064 layer_factory.hpp:114] Creating layer inception_4c/relu_3x3
I0331 19:09:17.183008 136064 net.cpp:160] Creating Layer inception_4c/relu_3x3
I0331 19:09:17.183017 136064 net.cpp:596] inception_4c/relu_3x3 <- inception_4c/3x3
I0331 19:09:17.183027 136064 net.cpp:557] inception_4c/relu_3x3 -> inception_4c/3x3 (in-place)
I0331 19:09:17.183038 136064 net.cpp:210] Setting up inception_4c/relu_3x3
I0331 19:09:17.183043 136064 net.cpp:217] Top shape: 112 256 14 14 (5619712)
I0331 19:09:17.183048 136064 net.cpp:225] Memory required for data: 4889455876
I0331 19:09:17.183051 136064 layer_factory.hpp:114] Creating layer inception_4c/5x5_reduce
I0331 19:09:17.183063 136064 net.cpp:160] Creating Layer inception_4c/5x5_reduce
I0331 19:09:17.183068 136064 net.cpp:596] inception_4c/5x5_reduce <- inception_4b/output_inception_4b/output_0_split_2
I0331 19:09:17.183079 136064 net.cpp:570] inception_4c/5x5_reduce -> inception_4c/5x5_reduce
I0331 19:09:17.192216 136064 net.cpp:210] Setting up inception_4c/5x5_reduce
I0331 19:09:17.192243 136064 net.cpp:217] Top shape: 112 24 14 14 (526848)
I0331 19:09:17.192247 136064 net.cpp:225] Memory required for data: 4891563268
I0331 19:09:17.192255 136064 layer_factory.hpp:114] Creating layer inception_4c/relu_5x5_reduce
I0331 19:09:17.192262 136064 net.cpp:160] Creating Layer inception_4c/relu_5x5_reduce
I0331 19:09:17.192267 136064 net.cpp:596] inception_4c/relu_5x5_reduce <- inception_4c/5x5_reduce
I0331 19:09:17.192273 136064 net.cpp:557] inception_4c/relu_5x5_reduce -> inception_4c/5x5_reduce (in-place)
I0331 19:09:17.192281 136064 net.cpp:210] Setting up inception_4c/relu_5x5_reduce
I0331 19:09:17.192286 136064 net.cpp:217] Top shape: 112 24 14 14 (526848)
I0331 19:09:17.192289 136064 net.cpp:225] Memory required for data: 4893670660
I0331 19:09:17.192293 136064 layer_factory.hpp:114] Creating layer inception_4c/5x5
I0331 19:09:17.192306 136064 net.cpp:160] Creating Layer inception_4c/5x5
I0331 19:09:17.192309 136064 net.cpp:596] inception_4c/5x5 <- inception_4c/5x5_reduce
I0331 19:09:17.192318 136064 net.cpp:570] inception_4c/5x5 -> inception_4c/5x5
I0331 19:09:17.205092 136064 net.cpp:210] Setting up inception_4c/5x5
I0331 19:09:17.205124 136064 net.cpp:217] Top shape: 112 64 14 14 (1404928)
I0331 19:09:17.205128 136064 net.cpp:225] Memory required for data: 4899290372
I0331 19:09:17.205139 136064 layer_factory.hpp:114] Creating layer inception_4c/relu_5x5
I0331 19:09:17.205150 136064 net.cpp:160] Creating Layer inception_4c/relu_5x5
I0331 19:09:17.205158 136064 net.cpp:596] inception_4c/relu_5x5 <- inception_4c/5x5
I0331 19:09:17.205165 136064 net.cpp:557] inception_4c/relu_5x5 -> inception_4c/5x5 (in-place)
I0331 19:09:17.205191 136064 net.cpp:210] Setting up inception_4c/relu_5x5
I0331 19:09:17.205198 136064 net.cpp:217] Top shape: 112 64 14 14 (1404928)
I0331 19:09:17.205201 136064 net.cpp:225] Memory required for data: 4904910084
I0331 19:09:17.205205 136064 layer_factory.hpp:114] Creating layer inception_4c/pool
I0331 19:09:17.205236 136064 net.cpp:160] Creating Layer inception_4c/pool
I0331 19:09:17.205242 136064 net.cpp:596] inception_4c/pool <- inception_4b/output_inception_4b/output_0_split_3
I0331 19:09:17.205250 136064 net.cpp:570] inception_4c/pool -> inception_4c/pool
I0331 19:09:17.205262 136064 net.cpp:210] Setting up inception_4c/pool
I0331 19:09:17.205268 136064 net.cpp:217] Top shape: 112 512 14 14 (11239424)
I0331 19:09:17.205272 136064 net.cpp:225] Memory required for data: 4949867780
I0331 19:09:17.205276 136064 layer_factory.hpp:114] Creating layer inception_4c/pool_proj
I0331 19:09:17.205289 136064 net.cpp:160] Creating Layer inception_4c/pool_proj
I0331 19:09:17.205294 136064 net.cpp:596] inception_4c/pool_proj <- inception_4c/pool
I0331 19:09:17.205302 136064 net.cpp:570] inception_4c/pool_proj -> inception_4c/pool_proj
I0331 19:09:17.215682 136064 net.cpp:210] Setting up inception_4c/pool_proj
I0331 19:09:17.215703 136064 net.cpp:217] Top shape: 112 64 14 14 (1404928)
I0331 19:09:17.215708 136064 net.cpp:225] Memory required for data: 4955487492
I0331 19:09:17.215715 136064 layer_factory.hpp:114] Creating layer inception_4c/relu_pool_proj
I0331 19:09:17.215723 136064 net.cpp:160] Creating Layer inception_4c/relu_pool_proj
I0331 19:09:17.215728 136064 net.cpp:596] inception_4c/relu_pool_proj <- inception_4c/pool_proj
I0331 19:09:17.215734 136064 net.cpp:557] inception_4c/relu_pool_proj -> inception_4c/pool_proj (in-place)
I0331 19:09:17.215742 136064 net.cpp:210] Setting up inception_4c/relu_pool_proj
I0331 19:09:17.215749 136064 net.cpp:217] Top shape: 112 64 14 14 (1404928)
I0331 19:09:17.215751 136064 net.cpp:225] Memory required for data: 4961107204
I0331 19:09:17.215755 136064 layer_factory.hpp:114] Creating layer inception_4c/output
I0331 19:09:17.215764 136064 net.cpp:160] Creating Layer inception_4c/output
I0331 19:09:17.215768 136064 net.cpp:596] inception_4c/output <- inception_4c/1x1
I0331 19:09:17.215773 136064 net.cpp:596] inception_4c/output <- inception_4c/3x3
I0331 19:09:17.215780 136064 net.cpp:596] inception_4c/output <- inception_4c/5x5
I0331 19:09:17.215790 136064 net.cpp:596] inception_4c/output <- inception_4c/pool_proj
I0331 19:09:17.215798 136064 net.cpp:570] inception_4c/output -> inception_4c/output
I0331 19:09:17.215809 136064 net.cpp:210] Setting up inception_4c/output
I0331 19:09:17.215814 136064 net.cpp:217] Top shape: 112 512 14 14 (11239424)
I0331 19:09:17.215818 136064 net.cpp:225] Memory required for data: 5006064900
I0331 19:09:17.215822 136064 layer_factory.hpp:114] Creating layer inception_4c/output_inception_4c/output_0_split
I0331 19:09:17.215829 136064 net.cpp:160] Creating Layer inception_4c/output_inception_4c/output_0_split
I0331 19:09:17.215837 136064 net.cpp:596] inception_4c/output_inception_4c/output_0_split <- inception_4c/output
I0331 19:09:17.215842 136064 net.cpp:570] inception_4c/output_inception_4c/output_0_split -> inception_4c/output_inception_4c/output_0_split_0
I0331 19:09:17.215849 136064 net.cpp:570] inception_4c/output_inception_4c/output_0_split -> inception_4c/output_inception_4c/output_0_split_1
I0331 19:09:17.215857 136064 net.cpp:570] inception_4c/output_inception_4c/output_0_split -> inception_4c/output_inception_4c/output_0_split_2
I0331 19:09:17.215862 136064 net.cpp:570] inception_4c/output_inception_4c/output_0_split -> inception_4c/output_inception_4c/output_0_split_3
I0331 19:09:17.215870 136064 net.cpp:210] Setting up inception_4c/output_inception_4c/output_0_split
I0331 19:09:17.215878 136064 net.cpp:217] Top shape: 112 512 14 14 (11239424)
I0331 19:09:17.215883 136064 net.cpp:217] Top shape: 112 512 14 14 (11239424)
I0331 19:09:17.215888 136064 net.cpp:217] Top shape: 112 512 14 14 (11239424)
I0331 19:09:17.215901 136064 net.cpp:217] Top shape: 112 512 14 14 (11239424)
I0331 19:09:17.215904 136064 net.cpp:225] Memory required for data: 5185895684
I0331 19:09:17.215909 136064 layer_factory.hpp:114] Creating layer inception_4d/1x1
I0331 19:09:17.215920 136064 net.cpp:160] Creating Layer inception_4d/1x1
I0331 19:09:17.215924 136064 net.cpp:596] inception_4d/1x1 <- inception_4c/output_inception_4c/output_0_split_0
I0331 19:09:17.215931 136064 net.cpp:570] inception_4d/1x1 -> inception_4d/1x1
I0331 19:09:17.229156 136064 net.cpp:210] Setting up inception_4d/1x1
I0331 19:09:17.229185 136064 net.cpp:217] Top shape: 112 112 14 14 (2458624)
I0331 19:09:17.229189 136064 net.cpp:225] Memory required for data: 5195730180
I0331 19:09:17.229199 136064 layer_factory.hpp:114] Creating layer inception_4d/relu_1x1
I0331 19:09:17.229212 136064 net.cpp:160] Creating Layer inception_4d/relu_1x1
I0331 19:09:17.229218 136064 net.cpp:596] inception_4d/relu_1x1 <- inception_4d/1x1
I0331 19:09:17.229226 136064 net.cpp:557] inception_4d/relu_1x1 -> inception_4d/1x1 (in-place)
I0331 19:09:17.229235 136064 net.cpp:210] Setting up inception_4d/relu_1x1
I0331 19:09:17.229240 136064 net.cpp:217] Top shape: 112 112 14 14 (2458624)
I0331 19:09:17.229244 136064 net.cpp:225] Memory required for data: 5205564676
I0331 19:09:17.229249 136064 layer_factory.hpp:114] Creating layer inception_4d/3x3_reduce
I0331 19:09:17.229260 136064 net.cpp:160] Creating Layer inception_4d/3x3_reduce
I0331 19:09:17.229265 136064 net.cpp:596] inception_4d/3x3_reduce <- inception_4c/output_inception_4c/output_0_split_1
I0331 19:09:17.229274 136064 net.cpp:570] inception_4d/3x3_reduce -> inception_4d/3x3_reduce
I0331 19:09:17.243162 136064 net.cpp:210] Setting up inception_4d/3x3_reduce
I0331 19:09:17.243191 136064 net.cpp:217] Top shape: 112 144 14 14 (3161088)
I0331 19:09:17.243196 136064 net.cpp:225] Memory required for data: 5218209028
I0331 19:09:17.243206 136064 layer_factory.hpp:114] Creating layer inception_4d/relu_3x3_reduce
I0331 19:09:17.243216 136064 net.cpp:160] Creating Layer inception_4d/relu_3x3_reduce
I0331 19:09:17.243224 136064 net.cpp:596] inception_4d/relu_3x3_reduce <- inception_4d/3x3_reduce
I0331 19:09:17.243234 136064 net.cpp:557] inception_4d/relu_3x3_reduce -> inception_4d/3x3_reduce (in-place)
I0331 19:09:17.243243 136064 net.cpp:210] Setting up inception_4d/relu_3x3_reduce
I0331 19:09:17.243248 136064 net.cpp:217] Top shape: 112 144 14 14 (3161088)
I0331 19:09:17.243263 136064 net.cpp:225] Memory required for data: 5230853380
I0331 19:09:17.243268 136064 layer_factory.hpp:114] Creating layer inception_4d/3x3
I0331 19:09:17.243278 136064 net.cpp:160] Creating Layer inception_4d/3x3
I0331 19:09:17.243283 136064 net.cpp:596] inception_4d/3x3 <- inception_4d/3x3_reduce
I0331 19:09:17.243290 136064 net.cpp:570] inception_4d/3x3 -> inception_4d/3x3
I0331 19:09:17.292388 136064 net.cpp:210] Setting up inception_4d/3x3
I0331 19:09:17.292431 136064 net.cpp:217] Top shape: 112 288 14 14 (6322176)
I0331 19:09:17.292435 136064 net.cpp:225] Memory required for data: 5256142084
I0331 19:09:17.292448 136064 layer_factory.hpp:114] Creating layer inception_4d/relu_3x3
I0331 19:09:17.292462 136064 net.cpp:160] Creating Layer inception_4d/relu_3x3
I0331 19:09:17.292470 136064 net.cpp:596] inception_4d/relu_3x3 <- inception_4d/3x3
I0331 19:09:17.292479 136064 net.cpp:557] inception_4d/relu_3x3 -> inception_4d/3x3 (in-place)
I0331 19:09:17.292491 136064 net.cpp:210] Setting up inception_4d/relu_3x3
I0331 19:09:17.292497 136064 net.cpp:217] Top shape: 112 288 14 14 (6322176)
I0331 19:09:17.292501 136064 net.cpp:225] Memory required for data: 5281430788
I0331 19:09:17.292505 136064 layer_factory.hpp:114] Creating layer inception_4d/5x5_reduce
I0331 19:09:17.292520 136064 net.cpp:160] Creating Layer inception_4d/5x5_reduce
I0331 19:09:17.292526 136064 net.cpp:596] inception_4d/5x5_reduce <- inception_4c/output_inception_4c/output_0_split_2
I0331 19:09:17.292536 136064 net.cpp:570] inception_4d/5x5_reduce -> inception_4d/5x5_reduce
I0331 19:09:17.302238 136064 net.cpp:210] Setting up inception_4d/5x5_reduce
I0331 19:09:17.302273 136064 net.cpp:217] Top shape: 112 32 14 14 (702464)
I0331 19:09:17.302276 136064 net.cpp:225] Memory required for data: 5284240644
I0331 19:09:17.302284 136064 layer_factory.hpp:114] Creating layer inception_4d/relu_5x5_reduce
I0331 19:09:17.302291 136064 net.cpp:160] Creating Layer inception_4d/relu_5x5_reduce
I0331 19:09:17.302296 136064 net.cpp:596] inception_4d/relu_5x5_reduce <- inception_4d/5x5_reduce
I0331 19:09:17.302306 136064 net.cpp:557] inception_4d/relu_5x5_reduce -> inception_4d/5x5_reduce (in-place)
I0331 19:09:17.302314 136064 net.cpp:210] Setting up inception_4d/relu_5x5_reduce
I0331 19:09:17.302320 136064 net.cpp:217] Top shape: 112 32 14 14 (702464)
I0331 19:09:17.302323 136064 net.cpp:225] Memory required for data: 5287050500
I0331 19:09:17.302327 136064 layer_factory.hpp:114] Creating layer inception_4d/5x5
I0331 19:09:17.302338 136064 net.cpp:160] Creating Layer inception_4d/5x5
I0331 19:09:17.302342 136064 net.cpp:596] inception_4d/5x5 <- inception_4d/5x5_reduce
I0331 19:09:17.302348 136064 net.cpp:570] inception_4d/5x5 -> inception_4d/5x5
I0331 19:09:17.318708 136064 net.cpp:210] Setting up inception_4d/5x5
I0331 19:09:17.318744 136064 net.cpp:217] Top shape: 112 64 14 14 (1404928)
I0331 19:09:17.318748 136064 net.cpp:225] Memory required for data: 5292670212
I0331 19:09:17.318760 136064 layer_factory.hpp:114] Creating layer inception_4d/relu_5x5
I0331 19:09:17.318771 136064 net.cpp:160] Creating Layer inception_4d/relu_5x5
I0331 19:09:17.318780 136064 net.cpp:596] inception_4d/relu_5x5 <- inception_4d/5x5
I0331 19:09:17.318790 136064 net.cpp:557] inception_4d/relu_5x5 -> inception_4d/5x5 (in-place)
I0331 19:09:17.318801 136064 net.cpp:210] Setting up inception_4d/relu_5x5
I0331 19:09:17.318806 136064 net.cpp:217] Top shape: 112 64 14 14 (1404928)
I0331 19:09:17.318810 136064 net.cpp:225] Memory required for data: 5298289924
I0331 19:09:17.318814 136064 layer_factory.hpp:114] Creating layer inception_4d/pool
I0331 19:09:17.318846 136064 net.cpp:160] Creating Layer inception_4d/pool
I0331 19:09:17.318852 136064 net.cpp:596] inception_4d/pool <- inception_4c/output_inception_4c/output_0_split_3
I0331 19:09:17.318861 136064 net.cpp:570] inception_4d/pool -> inception_4d/pool
I0331 19:09:17.318874 136064 net.cpp:210] Setting up inception_4d/pool
I0331 19:09:17.318881 136064 net.cpp:217] Top shape: 112 512 14 14 (11239424)
I0331 19:09:17.318895 136064 net.cpp:225] Memory required for data: 5343247620
I0331 19:09:17.318899 136064 layer_factory.hpp:114] Creating layer inception_4d/pool_proj
I0331 19:09:17.318912 136064 net.cpp:160] Creating Layer inception_4d/pool_proj
I0331 19:09:17.318917 136064 net.cpp:596] inception_4d/pool_proj <- inception_4d/pool
I0331 19:09:17.318930 136064 net.cpp:570] inception_4d/pool_proj -> inception_4d/pool_proj
I0331 19:09:17.329365 136064 net.cpp:210] Setting up inception_4d/pool_proj
I0331 19:09:17.329383 136064 net.cpp:217] Top shape: 112 64 14 14 (1404928)
I0331 19:09:17.329388 136064 net.cpp:225] Memory required for data: 5348867332
I0331 19:09:17.329396 136064 layer_factory.hpp:114] Creating layer inception_4d/relu_pool_proj
I0331 19:09:17.329408 136064 net.cpp:160] Creating Layer inception_4d/relu_pool_proj
I0331 19:09:17.329414 136064 net.cpp:596] inception_4d/relu_pool_proj <- inception_4d/pool_proj
I0331 19:09:17.329421 136064 net.cpp:557] inception_4d/relu_pool_proj -> inception_4d/pool_proj (in-place)
I0331 19:09:17.329428 136064 net.cpp:210] Setting up inception_4d/relu_pool_proj
I0331 19:09:17.329434 136064 net.cpp:217] Top shape: 112 64 14 14 (1404928)
I0331 19:09:17.329437 136064 net.cpp:225] Memory required for data: 5354487044
I0331 19:09:17.329442 136064 layer_factory.hpp:114] Creating layer inception_4d/output
I0331 19:09:17.329449 136064 net.cpp:160] Creating Layer inception_4d/output
I0331 19:09:17.329454 136064 net.cpp:596] inception_4d/output <- inception_4d/1x1
I0331 19:09:17.329460 136064 net.cpp:596] inception_4d/output <- inception_4d/3x3
I0331 19:09:17.329465 136064 net.cpp:596] inception_4d/output <- inception_4d/5x5
I0331 19:09:17.329488 136064 net.cpp:596] inception_4d/output <- inception_4d/pool_proj
I0331 19:09:17.329497 136064 net.cpp:570] inception_4d/output -> inception_4d/output
I0331 19:09:17.329507 136064 net.cpp:210] Setting up inception_4d/output
I0331 19:09:17.329512 136064 net.cpp:217] Top shape: 112 528 14 14 (11590656)
I0331 19:09:17.329516 136064 net.cpp:225] Memory required for data: 5400849668
I0331 19:09:17.329520 136064 layer_factory.hpp:114] Creating layer inception_4d/output_inception_4d/output_0_split
I0331 19:09:17.329530 136064 net.cpp:160] Creating Layer inception_4d/output_inception_4d/output_0_split
I0331 19:09:17.329535 136064 net.cpp:596] inception_4d/output_inception_4d/output_0_split <- inception_4d/output
I0331 19:09:17.329542 136064 net.cpp:570] inception_4d/output_inception_4d/output_0_split -> inception_4d/output_inception_4d/output_0_split_0
I0331 19:09:17.329550 136064 net.cpp:570] inception_4d/output_inception_4d/output_0_split -> inception_4d/output_inception_4d/output_0_split_1
I0331 19:09:17.329557 136064 net.cpp:570] inception_4d/output_inception_4d/output_0_split -> inception_4d/output_inception_4d/output_0_split_2
I0331 19:09:17.329565 136064 net.cpp:570] inception_4d/output_inception_4d/output_0_split -> inception_4d/output_inception_4d/output_0_split_3
I0331 19:09:17.329571 136064 net.cpp:570] inception_4d/output_inception_4d/output_0_split -> inception_4d/output_inception_4d/output_0_split_4
I0331 19:09:17.329581 136064 net.cpp:210] Setting up inception_4d/output_inception_4d/output_0_split
I0331 19:09:17.329587 136064 net.cpp:217] Top shape: 112 528 14 14 (11590656)
I0331 19:09:17.329592 136064 net.cpp:217] Top shape: 112 528 14 14 (11590656)
I0331 19:09:17.329596 136064 net.cpp:217] Top shape: 112 528 14 14 (11590656)
I0331 19:09:17.329602 136064 net.cpp:217] Top shape: 112 528 14 14 (11590656)
I0331 19:09:17.329605 136064 net.cpp:217] Top shape: 112 528 14 14 (11590656)
I0331 19:09:17.329609 136064 net.cpp:225] Memory required for data: 5632662788
I0331 19:09:17.329613 136064 layer_factory.hpp:114] Creating layer loss2/ave_pool
I0331 19:09:17.329643 136064 net.cpp:160] Creating Layer loss2/ave_pool
I0331 19:09:17.329650 136064 net.cpp:596] loss2/ave_pool <- inception_4d/output_inception_4d/output_0_split_0
I0331 19:09:17.329659 136064 net.cpp:570] loss2/ave_pool -> loss2/ave_pool
I0331 19:09:17.329668 136064 net.cpp:210] Setting up loss2/ave_pool
I0331 19:09:17.329677 136064 net.cpp:217] Top shape: 112 528 4 4 (946176)
I0331 19:09:17.329681 136064 net.cpp:225] Memory required for data: 5636447492
I0331 19:09:17.329685 136064 layer_factory.hpp:114] Creating layer loss2/conv
I0331 19:09:17.329697 136064 net.cpp:160] Creating Layer loss2/conv
I0331 19:09:17.329702 136064 net.cpp:596] loss2/conv <- loss2/ave_pool
I0331 19:09:17.329710 136064 net.cpp:570] loss2/conv -> loss2/conv
I0331 19:09:17.336917 136064 net.cpp:210] Setting up loss2/conv
I0331 19:09:17.336930 136064 net.cpp:217] Top shape: 112 128 4 4 (229376)
I0331 19:09:17.336935 136064 net.cpp:225] Memory required for data: 5637364996
I0331 19:09:17.336942 136064 layer_factory.hpp:114] Creating layer loss2/relu_conv
I0331 19:09:17.336949 136064 net.cpp:160] Creating Layer loss2/relu_conv
I0331 19:09:17.336954 136064 net.cpp:596] loss2/relu_conv <- loss2/conv
I0331 19:09:17.336962 136064 net.cpp:557] loss2/relu_conv -> loss2/conv (in-place)
I0331 19:09:17.336969 136064 net.cpp:210] Setting up loss2/relu_conv
I0331 19:09:17.336974 136064 net.cpp:217] Top shape: 112 128 4 4 (229376)
I0331 19:09:17.336977 136064 net.cpp:225] Memory required for data: 5638282500
I0331 19:09:17.336982 136064 layer_factory.hpp:114] Creating layer loss2/fc
I0331 19:09:17.336993 136064 net.cpp:160] Creating Layer loss2/fc
I0331 19:09:17.336997 136064 net.cpp:596] loss2/fc <- loss2/conv
I0331 19:09:17.337007 136064 net.cpp:570] loss2/fc -> loss2/fc
I0331 19:09:17.356981 136064 net.cpp:210] Setting up loss2/fc
I0331 19:09:17.356992 136064 net.cpp:217] Top shape: 112 1024 (114688)
I0331 19:09:17.356995 136064 net.cpp:225] Memory required for data: 5638741252
I0331 19:09:17.357012 136064 layer_factory.hpp:114] Creating layer loss2/relu_fc
I0331 19:09:17.357020 136064 net.cpp:160] Creating Layer loss2/relu_fc
I0331 19:09:17.357025 136064 net.cpp:596] loss2/relu_fc <- loss2/fc
I0331 19:09:17.357030 136064 net.cpp:557] loss2/relu_fc -> loss2/fc (in-place)
I0331 19:09:17.357036 136064 net.cpp:210] Setting up loss2/relu_fc
I0331 19:09:17.357041 136064 net.cpp:217] Top shape: 112 1024 (114688)
I0331 19:09:17.357045 136064 net.cpp:225] Memory required for data: 5639200004
I0331 19:09:17.357048 136064 layer_factory.hpp:114] Creating layer loss2/drop_fc
I0331 19:09:17.357056 136064 net.cpp:160] Creating Layer loss2/drop_fc
I0331 19:09:17.357059 136064 net.cpp:596] loss2/drop_fc <- loss2/fc
I0331 19:09:17.357065 136064 net.cpp:557] loss2/drop_fc -> loss2/fc (in-place)
I0331 19:09:17.357074 136064 net.cpp:210] Setting up loss2/drop_fc
I0331 19:09:17.357079 136064 net.cpp:217] Top shape: 112 1024 (114688)
I0331 19:09:17.357081 136064 net.cpp:225] Memory required for data: 5639658756
I0331 19:09:17.357085 136064 layer_factory.hpp:114] Creating layer loss2/classifier
I0331 19:09:17.357096 136064 net.cpp:160] Creating Layer loss2/classifier
I0331 19:09:17.357100 136064 net.cpp:596] loss2/classifier <- loss2/fc
I0331 19:09:17.357106 136064 net.cpp:570] loss2/classifier -> loss2/classifier
I0331 19:09:17.367118 136064 net.cpp:210] Setting up loss2/classifier
I0331 19:09:17.367128 136064 net.cpp:217] Top shape: 112 1000 (112000)
I0331 19:09:17.367131 136064 net.cpp:225] Memory required for data: 5640106756
I0331 19:09:17.367139 136064 layer_factory.hpp:114] Creating layer loss2/loss
I0331 19:09:17.367149 136064 net.cpp:160] Creating Layer loss2/loss
I0331 19:09:17.367154 136064 net.cpp:596] loss2/loss <- loss2/classifier
I0331 19:09:17.367161 136064 net.cpp:596] loss2/loss <- label_data_1_split_1
I0331 19:09:17.367166 136064 net.cpp:570] loss2/loss -> loss2/loss1
I0331 19:09:17.367177 136064 layer_factory.hpp:114] Creating layer loss2/loss
I0331 19:09:17.367489 136064 net.cpp:210] Setting up loss2/loss
I0331 19:09:17.367496 136064 net.cpp:217] Top shape: (1)
I0331 19:09:17.367499 136064 net.cpp:220]     with loss weight 0.3
I0331 19:09:17.367517 136064 net.cpp:225] Memory required for data: 5640106760
I0331 19:09:17.367522 136064 layer_factory.hpp:114] Creating layer inception_4e/1x1
I0331 19:09:17.367533 136064 net.cpp:160] Creating Layer inception_4e/1x1
I0331 19:09:17.367545 136064 net.cpp:596] inception_4e/1x1 <- inception_4d/output_inception_4d/output_0_split_1
I0331 19:09:17.367552 136064 net.cpp:570] inception_4e/1x1 -> inception_4e/1x1
I0331 19:09:17.386585 136064 net.cpp:210] Setting up inception_4e/1x1
I0331 19:09:17.386638 136064 net.cpp:217] Top shape: 112 256 14 14 (5619712)
I0331 19:09:17.386644 136064 net.cpp:225] Memory required for data: 5662585608
I0331 19:09:17.386658 136064 layer_factory.hpp:114] Creating layer inception_4e/relu_1x1
I0331 19:09:17.386672 136064 net.cpp:160] Creating Layer inception_4e/relu_1x1
I0331 19:09:17.386682 136064 net.cpp:596] inception_4e/relu_1x1 <- inception_4e/1x1
I0331 19:09:17.386690 136064 net.cpp:557] inception_4e/relu_1x1 -> inception_4e/1x1 (in-place)
I0331 19:09:17.386703 136064 net.cpp:210] Setting up inception_4e/relu_1x1
I0331 19:09:17.386708 136064 net.cpp:217] Top shape: 112 256 14 14 (5619712)
I0331 19:09:17.386711 136064 net.cpp:225] Memory required for data: 5685064456
I0331 19:09:17.386715 136064 layer_factory.hpp:114] Creating layer inception_4e/3x3_reduce
I0331 19:09:17.386732 136064 net.cpp:160] Creating Layer inception_4e/3x3_reduce
I0331 19:09:17.386737 136064 net.cpp:596] inception_4e/3x3_reduce <- inception_4d/output_inception_4d/output_0_split_2
I0331 19:09:17.386746 136064 net.cpp:570] inception_4e/3x3_reduce -> inception_4e/3x3_reduce
I0331 19:09:17.401968 136064 net.cpp:210] Setting up inception_4e/3x3_reduce
I0331 19:09:17.402001 136064 net.cpp:217] Top shape: 112 160 14 14 (3512320)
I0331 19:09:17.402006 136064 net.cpp:225] Memory required for data: 5699113736
I0331 19:09:17.402040 136064 layer_factory.hpp:114] Creating layer inception_4e/relu_3x3_reduce
I0331 19:09:17.402053 136064 net.cpp:160] Creating Layer inception_4e/relu_3x3_reduce
I0331 19:09:17.402062 136064 net.cpp:596] inception_4e/relu_3x3_reduce <- inception_4e/3x3_reduce
I0331 19:09:17.402071 136064 net.cpp:557] inception_4e/relu_3x3_reduce -> inception_4e/3x3_reduce (in-place)
I0331 19:09:17.402081 136064 net.cpp:210] Setting up inception_4e/relu_3x3_reduce
I0331 19:09:17.402086 136064 net.cpp:217] Top shape: 112 160 14 14 (3512320)
I0331 19:09:17.402091 136064 net.cpp:225] Memory required for data: 5713163016
I0331 19:09:17.402094 136064 layer_factory.hpp:114] Creating layer inception_4e/3x3
I0331 19:09:17.402106 136064 net.cpp:160] Creating Layer inception_4e/3x3
I0331 19:09:17.402110 136064 net.cpp:596] inception_4e/3x3 <- inception_4e/3x3_reduce
I0331 19:09:17.402119 136064 net.cpp:570] inception_4e/3x3 -> inception_4e/3x3
I0331 19:09:17.460458 136064 net.cpp:210] Setting up inception_4e/3x3
I0331 19:09:17.460501 136064 net.cpp:217] Top shape: 112 320 14 14 (7024640)
I0331 19:09:17.460505 136064 net.cpp:225] Memory required for data: 5741261576
I0331 19:09:17.460518 136064 layer_factory.hpp:114] Creating layer inception_4e/relu_3x3
I0331 19:09:17.460532 136064 net.cpp:160] Creating Layer inception_4e/relu_3x3
I0331 19:09:17.460542 136064 net.cpp:596] inception_4e/relu_3x3 <- inception_4e/3x3
I0331 19:09:17.460551 136064 net.cpp:557] inception_4e/relu_3x3 -> inception_4e/3x3 (in-place)
I0331 19:09:17.460562 136064 net.cpp:210] Setting up inception_4e/relu_3x3
I0331 19:09:17.460569 136064 net.cpp:217] Top shape: 112 320 14 14 (7024640)
I0331 19:09:17.460572 136064 net.cpp:225] Memory required for data: 5769360136
I0331 19:09:17.460577 136064 layer_factory.hpp:114] Creating layer inception_4e/5x5_reduce
I0331 19:09:17.460592 136064 net.cpp:160] Creating Layer inception_4e/5x5_reduce
I0331 19:09:17.460598 136064 net.cpp:596] inception_4e/5x5_reduce <- inception_4d/output_inception_4d/output_0_split_3
I0331 19:09:17.460608 136064 net.cpp:570] inception_4e/5x5_reduce -> inception_4e/5x5_reduce
I0331 19:09:17.470245 136064 net.cpp:210] Setting up inception_4e/5x5_reduce
I0331 19:09:17.470262 136064 net.cpp:217] Top shape: 112 32 14 14 (702464)
I0331 19:09:17.470265 136064 net.cpp:225] Memory required for data: 5772169992
I0331 19:09:17.470273 136064 layer_factory.hpp:114] Creating layer inception_4e/relu_5x5_reduce
I0331 19:09:17.470291 136064 net.cpp:160] Creating Layer inception_4e/relu_5x5_reduce
I0331 19:09:17.470297 136064 net.cpp:596] inception_4e/relu_5x5_reduce <- inception_4e/5x5_reduce
I0331 19:09:17.470304 136064 net.cpp:557] inception_4e/relu_5x5_reduce -> inception_4e/5x5_reduce (in-place)
I0331 19:09:17.470310 136064 net.cpp:210] Setting up inception_4e/relu_5x5_reduce
I0331 19:09:17.470315 136064 net.cpp:217] Top shape: 112 32 14 14 (702464)
I0331 19:09:17.470319 136064 net.cpp:225] Memory required for data: 5774979848
I0331 19:09:17.470324 136064 layer_factory.hpp:114] Creating layer inception_4e/5x5
I0331 19:09:17.470341 136064 net.cpp:160] Creating Layer inception_4e/5x5
I0331 19:09:17.470346 136064 net.cpp:596] inception_4e/5x5 <- inception_4e/5x5_reduce
I0331 19:09:17.470352 136064 net.cpp:570] inception_4e/5x5 -> inception_4e/5x5
I0331 19:09:17.490588 136064 net.cpp:210] Setting up inception_4e/5x5
I0331 19:09:17.490634 136064 net.cpp:217] Top shape: 112 128 14 14 (2809856)
I0331 19:09:17.490640 136064 net.cpp:225] Memory required for data: 5786219272
I0331 19:09:17.490654 136064 layer_factory.hpp:114] Creating layer inception_4e/relu_5x5
I0331 19:09:17.490667 136064 net.cpp:160] Creating Layer inception_4e/relu_5x5
I0331 19:09:17.490675 136064 net.cpp:596] inception_4e/relu_5x5 <- inception_4e/5x5
I0331 19:09:17.490686 136064 net.cpp:557] inception_4e/relu_5x5 -> inception_4e/5x5 (in-place)
I0331 19:09:17.490698 136064 net.cpp:210] Setting up inception_4e/relu_5x5
I0331 19:09:17.490703 136064 net.cpp:217] Top shape: 112 128 14 14 (2809856)
I0331 19:09:17.490707 136064 net.cpp:225] Memory required for data: 5797458696
I0331 19:09:17.490733 136064 layer_factory.hpp:114] Creating layer inception_4e/pool
I0331 19:09:17.490770 136064 net.cpp:160] Creating Layer inception_4e/pool
I0331 19:09:17.490777 136064 net.cpp:596] inception_4e/pool <- inception_4d/output_inception_4d/output_0_split_4
I0331 19:09:17.490785 136064 net.cpp:570] inception_4e/pool -> inception_4e/pool
I0331 19:09:17.490798 136064 net.cpp:210] Setting up inception_4e/pool
I0331 19:09:17.490805 136064 net.cpp:217] Top shape: 112 528 14 14 (11590656)
I0331 19:09:17.490808 136064 net.cpp:225] Memory required for data: 5843821320
I0331 19:09:17.490813 136064 layer_factory.hpp:114] Creating layer inception_4e/pool_proj
I0331 19:09:17.490826 136064 net.cpp:160] Creating Layer inception_4e/pool_proj
I0331 19:09:17.490831 136064 net.cpp:596] inception_4e/pool_proj <- inception_4e/pool
I0331 19:09:17.490844 136064 net.cpp:570] inception_4e/pool_proj -> inception_4e/pool_proj
I0331 19:09:17.504815 136064 net.cpp:210] Setting up inception_4e/pool_proj
I0331 19:09:17.504849 136064 net.cpp:217] Top shape: 112 128 14 14 (2809856)
I0331 19:09:17.504853 136064 net.cpp:225] Memory required for data: 5855060744
I0331 19:09:17.504864 136064 layer_factory.hpp:114] Creating layer inception_4e/relu_pool_proj
I0331 19:09:17.504875 136064 net.cpp:160] Creating Layer inception_4e/relu_pool_proj
I0331 19:09:17.504883 136064 net.cpp:596] inception_4e/relu_pool_proj <- inception_4e/pool_proj
I0331 19:09:17.504892 136064 net.cpp:557] inception_4e/relu_pool_proj -> inception_4e/pool_proj (in-place)
I0331 19:09:17.504902 136064 net.cpp:210] Setting up inception_4e/relu_pool_proj
I0331 19:09:17.504907 136064 net.cpp:217] Top shape: 112 128 14 14 (2809856)
I0331 19:09:17.504911 136064 net.cpp:225] Memory required for data: 5866300168
I0331 19:09:17.504915 136064 layer_factory.hpp:114] Creating layer inception_4e/output
I0331 19:09:17.504925 136064 net.cpp:160] Creating Layer inception_4e/output
I0331 19:09:17.504930 136064 net.cpp:596] inception_4e/output <- inception_4e/1x1
I0331 19:09:17.504940 136064 net.cpp:596] inception_4e/output <- inception_4e/3x3
I0331 19:09:17.504945 136064 net.cpp:596] inception_4e/output <- inception_4e/5x5
I0331 19:09:17.504951 136064 net.cpp:596] inception_4e/output <- inception_4e/pool_proj
I0331 19:09:17.504956 136064 net.cpp:570] inception_4e/output -> inception_4e/output
I0331 19:09:17.504967 136064 net.cpp:210] Setting up inception_4e/output
I0331 19:09:17.504979 136064 net.cpp:217] Top shape: 112 832 14 14 (18264064)
I0331 19:09:17.504983 136064 net.cpp:225] Memory required for data: 5939356424
I0331 19:09:17.504987 136064 layer_factory.hpp:114] Creating layer pool4/3x3_s2
I0331 19:09:17.505018 136064 net.cpp:160] Creating Layer pool4/3x3_s2
I0331 19:09:17.505023 136064 net.cpp:596] pool4/3x3_s2 <- inception_4e/output
I0331 19:09:17.505033 136064 net.cpp:570] pool4/3x3_s2 -> pool4/3x3_s2
I0331 19:09:17.505043 136064 net.cpp:210] Setting up pool4/3x3_s2
I0331 19:09:17.505048 136064 net.cpp:217] Top shape: 112 832 7 7 (4566016)
I0331 19:09:17.505051 136064 net.cpp:225] Memory required for data: 5957620488
I0331 19:09:17.505055 136064 layer_factory.hpp:114] Creating layer pool4/3x3_s2_pool4/3x3_s2_0_split
I0331 19:09:17.505064 136064 net.cpp:160] Creating Layer pool4/3x3_s2_pool4/3x3_s2_0_split
I0331 19:09:17.505069 136064 net.cpp:596] pool4/3x3_s2_pool4/3x3_s2_0_split <- pool4/3x3_s2
I0331 19:09:17.505075 136064 net.cpp:570] pool4/3x3_s2_pool4/3x3_s2_0_split -> pool4/3x3_s2_pool4/3x3_s2_0_split_0
I0331 19:09:17.505082 136064 net.cpp:570] pool4/3x3_s2_pool4/3x3_s2_0_split -> pool4/3x3_s2_pool4/3x3_s2_0_split_1
I0331 19:09:17.505089 136064 net.cpp:570] pool4/3x3_s2_pool4/3x3_s2_0_split -> pool4/3x3_s2_pool4/3x3_s2_0_split_2
I0331 19:09:17.505095 136064 net.cpp:570] pool4/3x3_s2_pool4/3x3_s2_0_split -> pool4/3x3_s2_pool4/3x3_s2_0_split_3
I0331 19:09:17.505103 136064 net.cpp:210] Setting up pool4/3x3_s2_pool4/3x3_s2_0_split
I0331 19:09:17.505108 136064 net.cpp:217] Top shape: 112 832 7 7 (4566016)
I0331 19:09:17.505113 136064 net.cpp:217] Top shape: 112 832 7 7 (4566016)
I0331 19:09:17.505131 136064 net.cpp:217] Top shape: 112 832 7 7 (4566016)
I0331 19:09:17.505136 136064 net.cpp:217] Top shape: 112 832 7 7 (4566016)
I0331 19:09:17.505139 136064 net.cpp:225] Memory required for data: 6030676744
I0331 19:09:17.505143 136064 layer_factory.hpp:114] Creating layer inception_5a/1x1
I0331 19:09:17.505156 136064 net.cpp:160] Creating Layer inception_5a/1x1
I0331 19:09:17.505162 136064 net.cpp:596] inception_5a/1x1 <- pool4/3x3_s2_pool4/3x3_s2_0_split_0
I0331 19:09:17.505168 136064 net.cpp:570] inception_5a/1x1 -> inception_5a/1x1
I0331 19:09:17.526423 136064 net.cpp:210] Setting up inception_5a/1x1
I0331 19:09:17.526464 136064 net.cpp:217] Top shape: 112 256 7 7 (1404928)
I0331 19:09:17.526469 136064 net.cpp:225] Memory required for data: 6036296456
I0331 19:09:17.526481 136064 layer_factory.hpp:114] Creating layer inception_5a/relu_1x1
I0331 19:09:17.526494 136064 net.cpp:160] Creating Layer inception_5a/relu_1x1
I0331 19:09:17.526502 136064 net.cpp:596] inception_5a/relu_1x1 <- inception_5a/1x1
I0331 19:09:17.526511 136064 net.cpp:557] inception_5a/relu_1x1 -> inception_5a/1x1 (in-place)
I0331 19:09:17.526522 136064 net.cpp:210] Setting up inception_5a/relu_1x1
I0331 19:09:17.526527 136064 net.cpp:217] Top shape: 112 256 7 7 (1404928)
I0331 19:09:17.526531 136064 net.cpp:225] Memory required for data: 6041916168
I0331 19:09:17.526535 136064 layer_factory.hpp:114] Creating layer inception_5a/3x3_reduce
I0331 19:09:17.526551 136064 net.cpp:160] Creating Layer inception_5a/3x3_reduce
I0331 19:09:17.526556 136064 net.cpp:596] inception_5a/3x3_reduce <- pool4/3x3_s2_pool4/3x3_s2_0_split_1
I0331 19:09:17.526566 136064 net.cpp:570] inception_5a/3x3_reduce -> inception_5a/3x3_reduce
I0331 19:09:17.541028 136064 net.cpp:210] Setting up inception_5a/3x3_reduce
I0331 19:09:17.541060 136064 net.cpp:217] Top shape: 112 160 7 7 (878080)
I0331 19:09:17.541065 136064 net.cpp:225] Memory required for data: 6045428488
I0331 19:09:17.541075 136064 layer_factory.hpp:114] Creating layer inception_5a/relu_3x3_reduce
I0331 19:09:17.541085 136064 net.cpp:160] Creating Layer inception_5a/relu_3x3_reduce
I0331 19:09:17.541095 136064 net.cpp:596] inception_5a/relu_3x3_reduce <- inception_5a/3x3_reduce
I0331 19:09:17.541101 136064 net.cpp:557] inception_5a/relu_3x3_reduce -> inception_5a/3x3_reduce (in-place)
I0331 19:09:17.541110 136064 net.cpp:210] Setting up inception_5a/relu_3x3_reduce
I0331 19:09:17.541127 136064 net.cpp:217] Top shape: 112 160 7 7 (878080)
I0331 19:09:17.541131 136064 net.cpp:225] Memory required for data: 6048940808
I0331 19:09:17.541136 136064 layer_factory.hpp:114] Creating layer inception_5a/3x3
I0331 19:09:17.541149 136064 net.cpp:160] Creating Layer inception_5a/3x3
I0331 19:09:17.541154 136064 net.cpp:596] inception_5a/3x3 <- inception_5a/3x3_reduce
I0331 19:09:17.541162 136064 net.cpp:570] inception_5a/3x3 -> inception_5a/3x3
I0331 19:09:17.584375 136064 net.cpp:210] Setting up inception_5a/3x3
I0331 19:09:17.584419 136064 net.cpp:217] Top shape: 112 320 7 7 (1756160)
I0331 19:09:17.584424 136064 net.cpp:225] Memory required for data: 6055965448
I0331 19:09:17.584436 136064 layer_factory.hpp:114] Creating layer inception_5a/relu_3x3
I0331 19:09:17.584448 136064 net.cpp:160] Creating Layer inception_5a/relu_3x3
I0331 19:09:17.584458 136064 net.cpp:596] inception_5a/relu_3x3 <- inception_5a/3x3
I0331 19:09:17.584466 136064 net.cpp:557] inception_5a/relu_3x3 -> inception_5a/3x3 (in-place)
I0331 19:09:17.584478 136064 net.cpp:210] Setting up inception_5a/relu_3x3
I0331 19:09:17.584484 136064 net.cpp:217] Top shape: 112 320 7 7 (1756160)
I0331 19:09:17.584488 136064 net.cpp:225] Memory required for data: 6062990088
I0331 19:09:17.584491 136064 layer_factory.hpp:114] Creating layer inception_5a/5x5_reduce
I0331 19:09:17.584504 136064 net.cpp:160] Creating Layer inception_5a/5x5_reduce
I0331 19:09:17.584511 136064 net.cpp:596] inception_5a/5x5_reduce <- pool4/3x3_s2_pool4/3x3_s2_0_split_2
I0331 19:09:17.584522 136064 net.cpp:570] inception_5a/5x5_reduce -> inception_5a/5x5_reduce
I0331 19:09:17.590754 136064 net.cpp:210] Setting up inception_5a/5x5_reduce
I0331 19:09:17.590765 136064 net.cpp:217] Top shape: 112 32 7 7 (175616)
I0331 19:09:17.590770 136064 net.cpp:225] Memory required for data: 6063692552
I0331 19:09:17.590776 136064 layer_factory.hpp:114] Creating layer inception_5a/relu_5x5_reduce
I0331 19:09:17.590785 136064 net.cpp:160] Creating Layer inception_5a/relu_5x5_reduce
I0331 19:09:17.590791 136064 net.cpp:596] inception_5a/relu_5x5_reduce <- inception_5a/5x5_reduce
I0331 19:09:17.590797 136064 net.cpp:557] inception_5a/relu_5x5_reduce -> inception_5a/5x5_reduce (in-place)
I0331 19:09:17.590804 136064 net.cpp:210] Setting up inception_5a/relu_5x5_reduce
I0331 19:09:17.590809 136064 net.cpp:217] Top shape: 112 32 7 7 (175616)
I0331 19:09:17.590813 136064 net.cpp:225] Memory required for data: 6064395016
I0331 19:09:17.590817 136064 layer_factory.hpp:114] Creating layer inception_5a/5x5
I0331 19:09:17.590828 136064 net.cpp:160] Creating Layer inception_5a/5x5
I0331 19:09:17.590832 136064 net.cpp:596] inception_5a/5x5 <- inception_5a/5x5_reduce
I0331 19:09:17.590842 136064 net.cpp:570] inception_5a/5x5 -> inception_5a/5x5
I0331 19:09:17.603000 136064 net.cpp:210] Setting up inception_5a/5x5
I0331 19:09:17.603025 136064 net.cpp:217] Top shape: 112 128 7 7 (702464)
I0331 19:09:17.603029 136064 net.cpp:225] Memory required for data: 6067204872
I0331 19:09:17.603039 136064 layer_factory.hpp:114] Creating layer inception_5a/relu_5x5
I0331 19:09:17.603046 136064 net.cpp:160] Creating Layer inception_5a/relu_5x5
I0331 19:09:17.603054 136064 net.cpp:596] inception_5a/relu_5x5 <- inception_5a/5x5
I0331 19:09:17.603061 136064 net.cpp:557] inception_5a/relu_5x5 -> inception_5a/5x5 (in-place)
I0331 19:09:17.603070 136064 net.cpp:210] Setting up inception_5a/relu_5x5
I0331 19:09:17.603075 136064 net.cpp:217] Top shape: 112 128 7 7 (702464)
I0331 19:09:17.603078 136064 net.cpp:225] Memory required for data: 6070014728
I0331 19:09:17.603082 136064 layer_factory.hpp:114] Creating layer inception_5a/pool
I0331 19:09:17.603118 136064 net.cpp:160] Creating Layer inception_5a/pool
I0331 19:09:17.603126 136064 net.cpp:596] inception_5a/pool <- pool4/3x3_s2_pool4/3x3_s2_0_split_3
I0331 19:09:17.603134 136064 net.cpp:570] inception_5a/pool -> inception_5a/pool
I0331 19:09:17.603145 136064 net.cpp:210] Setting up inception_5a/pool
I0331 19:09:17.603150 136064 net.cpp:217] Top shape: 112 832 7 7 (4566016)
I0331 19:09:17.603164 136064 net.cpp:225] Memory required for data: 6088278792
I0331 19:09:17.603168 136064 layer_factory.hpp:114] Creating layer inception_5a/pool_proj
I0331 19:09:17.603179 136064 net.cpp:160] Creating Layer inception_5a/pool_proj
I0331 19:09:17.603184 136064 net.cpp:596] inception_5a/pool_proj <- inception_5a/pool
I0331 19:09:17.603193 136064 net.cpp:570] inception_5a/pool_proj -> inception_5a/pool_proj
I0331 19:09:17.615595 136064 net.cpp:210] Setting up inception_5a/pool_proj
I0331 19:09:17.615618 136064 net.cpp:217] Top shape: 112 128 7 7 (702464)
I0331 19:09:17.615622 136064 net.cpp:225] Memory required for data: 6091088648
I0331 19:09:17.615639 136064 layer_factory.hpp:114] Creating layer inception_5a/relu_pool_proj
I0331 19:09:17.615648 136064 net.cpp:160] Creating Layer inception_5a/relu_pool_proj
I0331 19:09:17.615655 136064 net.cpp:596] inception_5a/relu_pool_proj <- inception_5a/pool_proj
I0331 19:09:17.615665 136064 net.cpp:557] inception_5a/relu_pool_proj -> inception_5a/pool_proj (in-place)
I0331 19:09:17.615674 136064 net.cpp:210] Setting up inception_5a/relu_pool_proj
I0331 19:09:17.615679 136064 net.cpp:217] Top shape: 112 128 7 7 (702464)
I0331 19:09:17.615682 136064 net.cpp:225] Memory required for data: 6093898504
I0331 19:09:17.615686 136064 layer_factory.hpp:114] Creating layer inception_5a/output
I0331 19:09:17.615694 136064 net.cpp:160] Creating Layer inception_5a/output
I0331 19:09:17.615700 136064 net.cpp:596] inception_5a/output <- inception_5a/1x1
I0331 19:09:17.615705 136064 net.cpp:596] inception_5a/output <- inception_5a/3x3
I0331 19:09:17.615710 136064 net.cpp:596] inception_5a/output <- inception_5a/5x5
I0331 19:09:17.615733 136064 net.cpp:596] inception_5a/output <- inception_5a/pool_proj
I0331 19:09:17.615739 136064 net.cpp:570] inception_5a/output -> inception_5a/output
I0331 19:09:17.615751 136064 net.cpp:210] Setting up inception_5a/output
I0331 19:09:17.615756 136064 net.cpp:217] Top shape: 112 832 7 7 (4566016)
I0331 19:09:17.615759 136064 net.cpp:225] Memory required for data: 6112162568
I0331 19:09:17.615762 136064 layer_factory.hpp:114] Creating layer inception_5a/output_inception_5a/output_0_split
I0331 19:09:17.615770 136064 net.cpp:160] Creating Layer inception_5a/output_inception_5a/output_0_split
I0331 19:09:17.615775 136064 net.cpp:596] inception_5a/output_inception_5a/output_0_split <- inception_5a/output
I0331 19:09:17.615782 136064 net.cpp:570] inception_5a/output_inception_5a/output_0_split -> inception_5a/output_inception_5a/output_0_split_0
I0331 19:09:17.615789 136064 net.cpp:570] inception_5a/output_inception_5a/output_0_split -> inception_5a/output_inception_5a/output_0_split_1
I0331 19:09:17.615798 136064 net.cpp:570] inception_5a/output_inception_5a/output_0_split -> inception_5a/output_inception_5a/output_0_split_2
I0331 19:09:17.615806 136064 net.cpp:570] inception_5a/output_inception_5a/output_0_split -> inception_5a/output_inception_5a/output_0_split_3
I0331 19:09:17.615813 136064 net.cpp:210] Setting up inception_5a/output_inception_5a/output_0_split
I0331 19:09:17.615818 136064 net.cpp:217] Top shape: 112 832 7 7 (4566016)
I0331 19:09:17.615823 136064 net.cpp:217] Top shape: 112 832 7 7 (4566016)
I0331 19:09:17.615828 136064 net.cpp:217] Top shape: 112 832 7 7 (4566016)
I0331 19:09:17.615833 136064 net.cpp:217] Top shape: 112 832 7 7 (4566016)
I0331 19:09:17.615836 136064 net.cpp:225] Memory required for data: 6185218824
I0331 19:09:17.615840 136064 layer_factory.hpp:114] Creating layer inception_5b/1x1
I0331 19:09:17.615850 136064 net.cpp:160] Creating Layer inception_5b/1x1
I0331 19:09:17.615854 136064 net.cpp:596] inception_5b/1x1 <- inception_5a/output_inception_5a/output_0_split_0
I0331 19:09:17.615867 136064 net.cpp:570] inception_5b/1x1 -> inception_5b/1x1
I0331 19:09:17.645473 136064 net.cpp:210] Setting up inception_5b/1x1
I0331 19:09:17.645514 136064 net.cpp:217] Top shape: 112 384 7 7 (2107392)
I0331 19:09:17.645519 136064 net.cpp:225] Memory required for data: 6193648392
I0331 19:09:17.645531 136064 layer_factory.hpp:114] Creating layer inception_5b/relu_1x1
I0331 19:09:17.645555 136064 net.cpp:160] Creating Layer inception_5b/relu_1x1
I0331 19:09:17.645565 136064 net.cpp:596] inception_5b/relu_1x1 <- inception_5b/1x1
I0331 19:09:17.645575 136064 net.cpp:557] inception_5b/relu_1x1 -> inception_5b/1x1 (in-place)
I0331 19:09:17.645587 136064 net.cpp:210] Setting up inception_5b/relu_1x1
I0331 19:09:17.645592 136064 net.cpp:217] Top shape: 112 384 7 7 (2107392)
I0331 19:09:17.645596 136064 net.cpp:225] Memory required for data: 6202077960
I0331 19:09:17.645601 136064 layer_factory.hpp:114] Creating layer inception_5b/3x3_reduce
I0331 19:09:17.645615 136064 net.cpp:160] Creating Layer inception_5b/3x3_reduce
I0331 19:09:17.645622 136064 net.cpp:596] inception_5b/3x3_reduce <- inception_5a/output_inception_5a/output_0_split_1
I0331 19:09:17.645642 136064 net.cpp:570] inception_5b/3x3_reduce -> inception_5b/3x3_reduce
I0331 19:09:17.662200 136064 net.cpp:210] Setting up inception_5b/3x3_reduce
I0331 19:09:17.662236 136064 net.cpp:217] Top shape: 112 192 7 7 (1053696)
I0331 19:09:17.662241 136064 net.cpp:225] Memory required for data: 6206292744
I0331 19:09:17.662252 136064 layer_factory.hpp:114] Creating layer inception_5b/relu_3x3_reduce
I0331 19:09:17.662272 136064 net.cpp:160] Creating Layer inception_5b/relu_3x3_reduce
I0331 19:09:17.662282 136064 net.cpp:596] inception_5b/relu_3x3_reduce <- inception_5b/3x3_reduce
I0331 19:09:17.662291 136064 net.cpp:557] inception_5b/relu_3x3_reduce -> inception_5b/3x3_reduce (in-place)
I0331 19:09:17.662300 136064 net.cpp:210] Setting up inception_5b/relu_3x3_reduce
I0331 19:09:17.662305 136064 net.cpp:217] Top shape: 112 192 7 7 (1053696)
I0331 19:09:17.662335 136064 net.cpp:225] Memory required for data: 6210507528
I0331 19:09:17.662339 136064 layer_factory.hpp:114] Creating layer inception_5b/3x3
I0331 19:09:17.662350 136064 net.cpp:160] Creating Layer inception_5b/3x3
I0331 19:09:17.662354 136064 net.cpp:596] inception_5b/3x3 <- inception_5b/3x3_reduce
I0331 19:09:17.662364 136064 net.cpp:570] inception_5b/3x3 -> inception_5b/3x3
I0331 19:09:17.723165 136064 net.cpp:210] Setting up inception_5b/3x3
I0331 19:09:17.723211 136064 net.cpp:217] Top shape: 112 384 7 7 (2107392)
I0331 19:09:17.723215 136064 net.cpp:225] Memory required for data: 6218937096
I0331 19:09:17.723229 136064 layer_factory.hpp:114] Creating layer inception_5b/relu_3x3
I0331 19:09:17.723242 136064 net.cpp:160] Creating Layer inception_5b/relu_3x3
I0331 19:09:17.723251 136064 net.cpp:596] inception_5b/relu_3x3 <- inception_5b/3x3
I0331 19:09:17.723261 136064 net.cpp:557] inception_5b/relu_3x3 -> inception_5b/3x3 (in-place)
I0331 19:09:17.723273 136064 net.cpp:210] Setting up inception_5b/relu_3x3
I0331 19:09:17.723278 136064 net.cpp:217] Top shape: 112 384 7 7 (2107392)
I0331 19:09:17.723282 136064 net.cpp:225] Memory required for data: 6227366664
I0331 19:09:17.723285 136064 layer_factory.hpp:114] Creating layer inception_5b/5x5_reduce
I0331 19:09:17.723300 136064 net.cpp:160] Creating Layer inception_5b/5x5_reduce
I0331 19:09:17.723306 136064 net.cpp:596] inception_5b/5x5_reduce <- inception_5a/output_inception_5a/output_0_split_2
I0331 19:09:17.723316 136064 net.cpp:570] inception_5b/5x5_reduce -> inception_5b/5x5_reduce
I0331 19:09:17.730768 136064 net.cpp:210] Setting up inception_5b/5x5_reduce
I0331 19:09:17.730780 136064 net.cpp:217] Top shape: 112 48 7 7 (263424)
I0331 19:09:17.730784 136064 net.cpp:225] Memory required for data: 6228420360
I0331 19:09:17.730792 136064 layer_factory.hpp:114] Creating layer inception_5b/relu_5x5_reduce
I0331 19:09:17.730798 136064 net.cpp:160] Creating Layer inception_5b/relu_5x5_reduce
I0331 19:09:17.730804 136064 net.cpp:596] inception_5b/relu_5x5_reduce <- inception_5b/5x5_reduce
I0331 19:09:17.730813 136064 net.cpp:557] inception_5b/relu_5x5_reduce -> inception_5b/5x5_reduce (in-place)
I0331 19:09:17.730819 136064 net.cpp:210] Setting up inception_5b/relu_5x5_reduce
I0331 19:09:17.730824 136064 net.cpp:217] Top shape: 112 48 7 7 (263424)
I0331 19:09:17.730829 136064 net.cpp:225] Memory required for data: 6229474056
I0331 19:09:17.730842 136064 layer_factory.hpp:114] Creating layer inception_5b/5x5
I0331 19:09:17.730854 136064 net.cpp:160] Creating Layer inception_5b/5x5
I0331 19:09:17.730859 136064 net.cpp:596] inception_5b/5x5 <- inception_5b/5x5_reduce
I0331 19:09:17.730865 136064 net.cpp:570] inception_5b/5x5 -> inception_5b/5x5
I0331 19:09:17.748812 136064 net.cpp:210] Setting up inception_5b/5x5
I0331 19:09:17.748850 136064 net.cpp:217] Top shape: 112 128 7 7 (702464)
I0331 19:09:17.748854 136064 net.cpp:225] Memory required for data: 6232283912
I0331 19:09:17.748867 136064 layer_factory.hpp:114] Creating layer inception_5b/relu_5x5
I0331 19:09:17.748878 136064 net.cpp:160] Creating Layer inception_5b/relu_5x5
I0331 19:09:17.748886 136064 net.cpp:596] inception_5b/relu_5x5 <- inception_5b/5x5
I0331 19:09:17.748898 136064 net.cpp:557] inception_5b/relu_5x5 -> inception_5b/5x5 (in-place)
I0331 19:09:17.748908 136064 net.cpp:210] Setting up inception_5b/relu_5x5
I0331 19:09:17.748914 136064 net.cpp:217] Top shape: 112 128 7 7 (702464)
I0331 19:09:17.748917 136064 net.cpp:225] Memory required for data: 6235093768
I0331 19:09:17.748921 136064 layer_factory.hpp:114] Creating layer inception_5b/pool
I0331 19:09:17.748962 136064 net.cpp:160] Creating Layer inception_5b/pool
I0331 19:09:17.748968 136064 net.cpp:596] inception_5b/pool <- inception_5a/output_inception_5a/output_0_split_3
I0331 19:09:17.748976 136064 net.cpp:570] inception_5b/pool -> inception_5b/pool
I0331 19:09:17.748989 136064 net.cpp:210] Setting up inception_5b/pool
I0331 19:09:17.748996 136064 net.cpp:217] Top shape: 112 832 7 7 (4566016)
I0331 19:09:17.749020 136064 net.cpp:225] Memory required for data: 6253357832
I0331 19:09:17.749024 136064 layer_factory.hpp:114] Creating layer inception_5b/pool_proj
I0331 19:09:17.749040 136064 net.cpp:160] Creating Layer inception_5b/pool_proj
I0331 19:09:17.749044 136064 net.cpp:596] inception_5b/pool_proj <- inception_5b/pool
I0331 19:09:17.749052 136064 net.cpp:570] inception_5b/pool_proj -> inception_5b/pool_proj
I0331 19:09:17.761981 136064 net.cpp:210] Setting up inception_5b/pool_proj
I0331 19:09:17.762006 136064 net.cpp:217] Top shape: 112 128 7 7 (702464)
I0331 19:09:17.762009 136064 net.cpp:225] Memory required for data: 6256167688
I0331 19:09:17.762018 136064 layer_factory.hpp:114] Creating layer inception_5b/relu_pool_proj
I0331 19:09:17.762030 136064 net.cpp:160] Creating Layer inception_5b/relu_pool_proj
I0331 19:09:17.762037 136064 net.cpp:596] inception_5b/relu_pool_proj <- inception_5b/pool_proj
I0331 19:09:17.762045 136064 net.cpp:557] inception_5b/relu_pool_proj -> inception_5b/pool_proj (in-place)
I0331 19:09:17.762054 136064 net.cpp:210] Setting up inception_5b/relu_pool_proj
I0331 19:09:17.762059 136064 net.cpp:217] Top shape: 112 128 7 7 (702464)
I0331 19:09:17.762063 136064 net.cpp:225] Memory required for data: 6258977544
I0331 19:09:17.762068 136064 layer_factory.hpp:114] Creating layer inception_5b/output
I0331 19:09:17.762075 136064 net.cpp:160] Creating Layer inception_5b/output
I0331 19:09:17.762080 136064 net.cpp:596] inception_5b/output <- inception_5b/1x1
I0331 19:09:17.762086 136064 net.cpp:596] inception_5b/output <- inception_5b/3x3
I0331 19:09:17.762091 136064 net.cpp:596] inception_5b/output <- inception_5b/5x5
I0331 19:09:17.762096 136064 net.cpp:596] inception_5b/output <- inception_5b/pool_proj
I0331 19:09:17.762104 136064 net.cpp:570] inception_5b/output -> inception_5b/output
I0331 19:09:17.762114 136064 net.cpp:210] Setting up inception_5b/output
I0331 19:09:17.762118 136064 net.cpp:217] Top shape: 112 1024 7 7 (5619712)
I0331 19:09:17.762122 136064 net.cpp:225] Memory required for data: 6281456392
I0331 19:09:17.762126 136064 layer_factory.hpp:114] Creating layer pool5/7x7_s1
I0331 19:09:17.762153 136064 net.cpp:160] Creating Layer pool5/7x7_s1
I0331 19:09:17.762158 136064 net.cpp:596] pool5/7x7_s1 <- inception_5b/output
I0331 19:09:17.762166 136064 net.cpp:570] pool5/7x7_s1 -> pool5/7x7_s1
I0331 19:09:17.762174 136064 net.cpp:210] Setting up pool5/7x7_s1
I0331 19:09:17.762187 136064 net.cpp:217] Top shape: 112 1024 1 1 (114688)
I0331 19:09:17.762190 136064 net.cpp:225] Memory required for data: 6281915144
I0331 19:09:17.762194 136064 layer_factory.hpp:114] Creating layer pool5/drop_7x7_s1
I0331 19:09:17.762202 136064 net.cpp:160] Creating Layer pool5/drop_7x7_s1
I0331 19:09:17.762207 136064 net.cpp:596] pool5/drop_7x7_s1 <- pool5/7x7_s1
I0331 19:09:17.762213 136064 net.cpp:557] pool5/drop_7x7_s1 -> pool5/7x7_s1 (in-place)
I0331 19:09:17.762223 136064 net.cpp:210] Setting up pool5/drop_7x7_s1
I0331 19:09:17.762228 136064 net.cpp:217] Top shape: 112 1024 1 1 (114688)
I0331 19:09:17.762231 136064 net.cpp:225] Memory required for data: 6282373896
I0331 19:09:17.762235 136064 layer_factory.hpp:114] Creating layer loss3/classifier
I0331 19:09:17.762249 136064 net.cpp:160] Creating Layer loss3/classifier
I0331 19:09:17.762253 136064 net.cpp:596] loss3/classifier <- pool5/7x7_s1
I0331 19:09:17.762261 136064 net.cpp:570] loss3/classifier -> loss3/classifier
I0331 19:09:17.772336 136064 net.cpp:210] Setting up loss3/classifier
I0331 19:09:17.772347 136064 net.cpp:217] Top shape: 112 1000 (112000)
I0331 19:09:17.772351 136064 net.cpp:225] Memory required for data: 6282821896
I0331 19:09:17.772358 136064 layer_factory.hpp:114] Creating layer loss3/loss3
I0331 19:09:17.772368 136064 net.cpp:160] Creating Layer loss3/loss3
I0331 19:09:17.772373 136064 net.cpp:596] loss3/loss3 <- loss3/classifier
I0331 19:09:17.772379 136064 net.cpp:596] loss3/loss3 <- label_data_1_split_2
I0331 19:09:17.772385 136064 net.cpp:570] loss3/loss3 -> loss3/loss3
…
I0331 19:09:17.780959 136064 net.cpp:484] The NetState phase (1) differed from the phase (0) specified by a rule in layer data
I0331 19:09:17.785491 136064 net.cpp:120] Initializing net from parameters: 
name: "GoogleNet"
state {
  phase: TEST
}
layer {
  name: "data"
  type: "Data"
  top: "data"
  top: "label"
  include {
    phase: TEST
  }
  transform_param {
    mirror: false
    crop_size: 224
    mean_value: 104
    mean_value: 117
    mean_value: 123
  }
  data_param {
    source: "/home/proy/LIBRARIES/caffeLibs/caffe/examples/imagenet/ilsvrc12_val_lmdb"
    batch_size: 50
    backend: LMDB
  }
}
layer {
  name: "label_data_1_split"
  type: "Split"
  bottom: "label"
  top: "label_data_1_split_0"
  top: "label_data_1_split_1"
  top: "label_data_1_split_2"
  top: "label_data_1_split_3"
  top: "label_data_1_split_4"
  top: "label_data_1_split_5"
  top: "label_data_1_split_6"
  top: "label_data_1_split_7"
  top: "label_data_1_split_8"
}
layer {
  name: "conv1/7x7_s2"
  type: "Convolution"
  bottom: "data"
  top: "conv1/7x7_s2"
  param {
    lr_mult: 1
    decay_mult: 1
  }
  param {
    lr_mult: 2
    decay_mult: 0
  }
  convolution_param {
    num_output: 64
    pad: 3
    kernel_size: 7
    stride: 2
    weight_filler {
      type: "xavier"
    }
    bias_filler {
      type: "constant"
      value: 0.2
    }
  }
}
layer {
  name: "conv1/relu_7x7"
  type: "ReLU"
  bottom: "conv1/7x7_s2"
  top: "conv1/7x7_s2"
}
layer {
  name: "pool1/3x3_s2"
  type: "Pooling"
  bottom: "conv1/7x7_s2"
  top: "pool1/3x3_s2"
  pooling_param {
    pool: MAX
    kernel_size: 3
    stride: 2
  }
}
layer {
  name: "pool1/norm1"
  type: "LRN"
  bottom: "pool1/3x3_s2"
  top: "pool1/norm1"
  lrn_param {
    local_size: 5
    alpha: 0.0001
    beta: 0.75
  }
}
layer {
  name: "conv2/3x3_reduce"
  type: "Convolution"
  bottom: "pool1/norm1"
  top: "conv2/3x3_reduce"
  param {
    lr_mult: 1
    decay_mult: 1
  }
  param {
    lr_mult: 2
    decay_mult: 0
  }
  convolution_param {
    num_output: 64
    kernel_size: 1
    weight_filler {
      type: "xavier"
    }
    bias_filler {
      type: "constant"
      value: 0.2
    }
  }
}
layer {
  name: "conv2/relu_3x3_reduce"
  type: "ReLU"
  bottom: "conv2/3x3_reduce"
  top: "conv2/3x3_reduce"
}
layer {
  name: "conv2/3x3"
  type: "Convolution"
  bottom: "conv2/3x3_reduce"
  top: "conv2/3x3"
  param {
    lr_mult: 1
    decay_mult: 1
  }
  param {
    lr_mult: 2
    decay_mult: 0
  }
  convolution_param {
    num_output: 192
    pad: 1
    kernel_size: 3
    weight_filler {
      type: "xavier"
    }
    bias_filler {
      type: "constant"
      value: 0.2
    }
  }
}
layer {
  name: "conv2/relu_3x3"
  type: "ReLU"
  bottom: "conv2/3x3"
  top: "conv2/3x3"
}
layer {
  name: "conv2/norm2"
  type: "LRN"
  bottom: "conv2/3x3"
  top: "conv2/norm2"
  lrn_param {
    local_size: 5
    alpha: 0.0001
    beta: 0.75
  }
}
layer {
  name: "pool2/3x3_s2"
  type: "Pooling"
  bottom: "conv2/norm2"
  top: "pool2/3x3_s2"
  pooling_param {
    pool: MAX
    kernel_size: 3
    stride: 2
  }
}
layer {
  name: "pool2/3x3_s2_pool2/3x3_s2_0_split"
  type: "Split"
  bottom: "pool2/3x3_s2"
  top: "pool2/3x3_s2_pool2/3x3_s2_0_split_0"
  top: "pool2/3x3_s2_pool2/3x3_s2_0_split_1"
  top: "pool2/3x3_s2_pool2/3x3_s2_0_split_2"
  top: "pool2/3x3_s2_pool2/3x3_s2_0_split_3"
}
layer {
  name: "inception_3a/1x1"
  type: "Convolution"
  bottom: "pool2/3x3_s2_pool2/3x3_s2_0_split_0"
  top: "inception_3a/1x1"
  param {
    lr_mult: 1
    decay_mult: 1
  }
  param {
    lr_mult: 2
    decay_mult: 0
  }
  convolution_param {
    num_output: 64
    kernel_size: 1
    weight_filler {
      type: "xavier"
    }
    bias_filler {
      type: "constant"
      value: 0.2
    }
  }
}
layer {
  name: "inception_3a/relu_1x1"
  type: "ReLU"
  bottom: "inception_3a/1x1"
  top: "inception_3a/1x1"
}
layer {
  name: "inception_3a/3x3_reduce"
  type: "Convolution"
  bottom: "pool2/3x3_s2_pool2/3x3_s2_0_split_1"
  top: "inception_3a/3x3_reduce"
  param {
    lr_mult: 1
    decay_mult: 1
  }
  param {
    lr_mult: 2
    decay_mult: 0
  }
  convolution_param {
    num_output: 96
    kernel_size: 1
    weight_filler {
      type: "xavier"
    }
    bias_filler {
      type: "constant"
      value: 0.2
    }
  }
}
layer {
  name: "inception_3a/relu_3x3_reduce"
  type: "ReLU"
  bottom: "inception_3a/3x3_reduce"
  top: "inception_3a/3x3_reduce"
}
layer {
  name: "inception_3a/3x3"
  type: "Convolution"
  bottom: "inception_3a/3x3_reduce"
  top: "inception_3a/3x3"
  param {
    lr_mult: 1
    decay_mult: 1
  }
  param {
    lr_mult: 2
    decay_mult: 0
  }
  convolution_param {
    num_output: 128
    pad: 1
    kernel_size: 3
    weight_filler {
      type: "xavier"
    }
    bias_filler {
      type: "constant"
      value: 0.2
    }
  }
}
layer {
  name: "inception_3a/relu_3x3"
  type: "ReLU"
  bottom: "inception_3a/3x3"
  top: "inception_3a/3x3"
}
layer {
  name: "inception_3a/5x5_reduce"
  type: "Convolution"
  bottom: "pool2/3x3_s2_pool2/3x3_s2_0_split_2"
  top: "inception_3a/5x5_reduce"
  param {
    lr_mult: 1
    decay_mult: 1
  }
  param {
    lr_mult: 2
    decay_mult: 0
  }
  convolution_param {
    num_output: 16
    kernel_size: 1
    weight_filler {
      type: "xavier"
    }
    bias_filler {
      type: "constant"
      value: 0.2
    }
  }
}
layer {
  name: "inception_3a/relu_5x5_reduce"
  type: "ReLU"
  bottom: "inception_3a/5x5_reduce"
  top: "inception_3a/5x5_reduce"
}
layer {
  name: "inception_3a/5x5"
  type: "Convolution"
  bottom: "inception_3a/5x5_reduce"
  top: "inception_3a/5x5"
  param {
    lr_mult: 1
    decay_mult: 1
  }
  param {
    lr_mult: 2
    decay_mult: 0
  }
  convolution_param {
    num_output: 32
    pad: 2
    kernel_size: 5
    weight_filler {
      type: "xavier"
    }
    bias_filler {
      type: "constant"
      value: 0.2
    }
  }
}
layer {
  name: "inception_3a/relu_5x5"
  type: "ReLU"
  bottom: "inception_3a/5x5"
  top: "inception_3a/5x5"
}
layer {
  name: "inception_3a/pool"
  type: "Pooling"
  bottom: "pool2/3x3_s2_pool2/3x3_s2_0_split_3"
  top: "inception_3a/pool"
  pooling_param {
    pool: MAX
    kernel_size: 3
    stride: 1
    pad: 1
  }
}
layer {
  name: "inception_3a/pool_proj"
  type: "Convolution"
  bottom: "inception_3a/pool"
  top: "inception_3a/pool_proj"
  param {
    lr_mult: 1
    decay_mult: 1
  }
  param {
    lr_mult: 2
    decay_mult: 0
  }
  convolution_param {
    num_output: 32
    kernel_size: 1
    weight_filler {
      type: "xavier"
    }
    bias_filler {
      type: "constant"
      value: 0.2
    }
  }
}
layer {
  name: "inception_3a/relu_pool_proj"
  type: "ReLU"
  bottom: "inception_3a/pool_proj"
  top: "inception_3a/pool_proj"
}
layer {
  name: "inception_3a/output"
  type: "Concat"
  bottom: "inception_3a/1x1"
  bottom: "inception_3a/3x3"
  bottom: "inception_3a/5x5"
  bottom: "inception_3a/pool_proj"
  top: "inception_3a/output"
}
layer {
  name: "inception_3a/output_inception_3a/output_0_split"
  type: "Split"
  bottom: "inception_3a/output"
  top: "inception_3a/output_inception_3a/output_0_split_0"
  top: "inception_3a/output_inception_3a/output_0_split_1"
  top: "inception_3a/output_inception_3a/output_0_split_2"
  top: "inception_3a/output_inception_3a/output_0_split_3"
}
layer {
  name: "inception_3b/1x1"
  type: "Convolution"
  bottom: "inception_3a/output_inception_3a/output_0_split_0"
  top: "inception_3b/1x1"
  param {
    lr_mult: 1
    decay_mult: 1
  }
  param {
    lr_mult: 2
    decay_mult: 0
  }
  convolution_param {
    num_output: 128
    kernel_size: 1
    weight_filler {
      type: "xavier"
    }
    bias_filler {
      type: "constant"
      value: 0.2
    }
  }
}
layer {
  name: "inception_3b/relu_1x1"
  type: "ReLU"
  bottom: "inception_3b/1x1"
  top: "inception_3b/1x1"
}
layer {
  name: "inception_3b/3x3_reduce"
  type: "Convolution"
  bottom: "inception_3a/output_inception_3a/output_0_split_1"
  top: "inception_3b/3x3_reduce"
  param {
    lr_mult: 1
    decay_mult: 1
  }
  param {
    lr_mult: 2
    decay_mult: 0
  }
  convolution_param {
    num_output: 128
    kernel_size: 1
    weight_filler {
      type: "xavier"
    }
    bias_filler {
      type: "constant"
      value: 0.2
    }
  }
}
layer {
  name: "inception_3b/relu_3x3_reduce"
  type: "ReLU"
  bottom: "inception_3b/3x3_reduce"
  top: "inception_3b/3x3_reduce"
}
layer {
  name: "inception_3b/3x3"
  type: "Convolution"
  bottom: "inception_3b/3x3_reduce"
  top: "inception_3b/3x3"
  param {
    lr_mult: 1
    decay_mult: 1
  }
  param {
    lr_mult: 2
    decay_mult: 0
  }
  convolution_param {
    num_output: 192
    pad: 1
    kernel_size: 3
    weight_filler {
      type: "xavier"
    }
    bias_filler {
      type: "constant"
      value: 0.2
    }
  }
}
layer {
  name: "inception_3b/relu_3x3"
  type: "ReLU"
  bottom: "inception_3b/3x3"
  top: "inception_3b/3x3"
}
layer {
  name: "inception_3b/5x5_reduce"
  type: "Convolution"
  bottom: "inception_3a/output_inception_3a/output_0_split_2"
  top: "inception_3b/5x5_reduce"
  param {
    lr_mult: 1
    decay_mult: 1
  }
  param {
    lr_mult: 2
    decay_mult: 0
  }
  convolution_param {
    num_output: 32
    kernel_size: 1
    weight_filler {
      type: "xavier"
    }
    bias_filler {
      type: "constant"
      value: 0.2
    }
  }
}
layer {
  name: "inception_3b/relu_5x5_reduce"
  type: "ReLU"
  bottom: "inception_3b/5x5_reduce"
  top: "inception_3b/5x5_reduce"
}
layer {
  name: "inception_3b/5x5"
  type: "Convolution"
  bottom: "inception_3b/5x5_reduce"
  top: "inception_3b/5x5"
  param {
    lr_mult: 1
    decay_mult: 1
  }
  param {
    lr_mult: 2
    decay_mult: 0
  }
  convolution_param {
    num_output: 96
    pad: 2
    kernel_size: 5
    weight_filler {
      type: "xavier"
    }
    bias_filler {
      type: "constant"
      value: 0.2
    }
  }
}
layer {
  name: "inception_3b/relu_5x5"
  type: "ReLU"
  bottom: "inception_3b/5x5"
  top: "inception_3b/5x5"
}
layer {
  name: "inception_3b/pool"
  type: "Pooling"
  bottom: "inception_3a/output_inception_3a/output_0_split_3"
  top: "inception_3b/pool"
  pooling_param {
    pool: MAX
    kernel_size: 3
    stride: 1
    pad: 1
  }
}
layer {
  name: "inception_3b/pool_proj"
  type: "Convolution"
  bottom: "inception_3b/pool"
  top: "inception_3b/pool_proj"
  param {
    lr_mult: 1
    decay_mult: 1
  }
  param {
    lr_mult: 2
    decay_mult: 0
  }
  convolution_param {
    num_output: 64
    kernel_size: 1
    weight_filler {
      type: "xavier"
    }
    bias_filler {
      type: "constant"
      value: 0.2
    }
  }
}
layer {
  name: "inception_3b/relu_pool_proj"
  type: "ReLU"
  bottom: "inception_3b/pool_proj"
  top: "inception_3b/pool_proj"
}
layer {
  name: "inception_3b/output"
  type: "Concat"
  bottom: "inception_3b/1x1"
  bottom: "inception_3b/3x3"
  bottom: "inception_3b/5x5"
  bottom: "inception_3b/pool_proj"
  top: "inception_3b/output"
}
layer {
  name: "pool3/3x3_s2"
  type: "Pooling"
  bottom: "inception_3b/output"
  top: "pool3/3x3_s2"
  pooling_param {
    pool: MAX
    kernel_size: 3
    stride: 2
  }
}
layer {
  name: "pool3/3x3_s2_pool3/3x3_s2_0_split"
  type: "Split"
  bottom: "pool3/3x3_s2"
  top: "pool3/3x3_s2_pool3/3x3_s2_0_split_0"
  top: "pool3/3x3_s2_pool3/3x3_s2_0_split_1"
  top: "pool3/3x3_s2_pool3/3x3_s2_0_split_2"
  top: "pool3/3x3_s2_pool3/3x3_s2_0_split_3"
}
layer {
  name: "inception_4a/1x1"
  type: "Convolution"
  bottom: "pool3/3x3_s2_pool3/3x3_s2_0_split_0"
  top: "inception_4a/1x1"
  param {
    lr_mult: 1
    decay_mult: 1
  }
  param {
    lr_mult: 2
    decay_mult: 0
  }
  convolution_param {
    num_output: 192
    kernel_size: 1
    weight_filler {
      type: "xavier"
    }
    bias_filler {
      type: "constant"
      value: 0.2
    }
  }
}
layer {
  name: "inception_4a/relu_1x1"
  type: "ReLU"
  bottom: "inception_4a/1x1"
  top: "inception_4a/1x1"
}
layer {
  name: "inception_4a/3x3_reduce"
  type: "Convolution"
  bottom: "pool3/3x3_s2_pool3/3x3_s2_0_split_1"
  top: "inception_4a/3x3_reduce"
  param {
    lr_mult: 1
    decay_mult: 1
  }
  param {
    lr_mult: 2
    decay_mult: 0
  }
  convolution_param {
    num_output: 96
    kernel_size: 1
    weight_filler {
      type: "xavier"
    }
    bias_filler {
      type: "constant"
      value: 0.2
    }
  }
}
layer {
  name: "inception_4a/relu_3x3_reduce"
  type: "ReLU"
  bottom: "inception_4a/3x3_reduce"
  top: "inception_4a/3x3_reduce"
}
layer {
  name: "inception_4a/3x3"
  type: "Convolution"
  bottom: "inception_4a/3x3_reduce"
  top: "inception_4a/3x3"
  param {
    lr_mult: 1
    decay_mult: 1
  }
  param {
    lr_mult: 2
    decay_mult: 0
  }
  convolution_param {
    num_output: 208
    pad: 1
    kernel_size: 3
    weight_filler {
      type: "xavier"
    }
    bias_filler {
      type: "constant"
      value: 0.2
    }
  }
}
layer {
  name: "inception_4a/relu_3x3"
  type: "ReLU"
  bottom: "inception_4a/3x3"
  top: "inception_4a/3x3"
}
layer {
  name: "inception_4a/5x5_reduce"
  type: "Convolution"
…
I0331 19:09:18.670661 136064 layer_factory.hpp:114] Creating layer inception_4c/pool_proj
I0331 19:09:18.670681 136064 net.cpp:160] Creating Layer inception_4c/pool_proj
I0331 19:09:18.670686 136064 net.cpp:596] inception_4c/pool_proj <- inception_4c/pool
I0331 19:09:18.670696 136064 net.cpp:570] inception_4c/pool_proj -> inception_4c/pool_proj
I0331 19:09:18.680272 136064 net.cpp:210] Setting up inception_4c/pool_proj
I0331 19:09:18.680287 136064 net.cpp:217] Top shape: 50 64 14 14 (627200)
I0331 19:09:18.680291 136064 net.cpp:225] Memory required for data: 2212872412
I0331 19:09:18.680299 136064 layer_factory.hpp:114] Creating layer inception_4c/relu_pool_proj
I0331 19:09:18.680308 136064 net.cpp:160] Creating Layer inception_4c/relu_pool_proj
I0331 19:09:18.680315 136064 net.cpp:596] inception_4c/relu_pool_proj <- inception_4c/pool_proj
I0331 19:09:18.680320 136064 net.cpp:557] inception_4c/relu_pool_proj -> inception_4c/pool_proj (in-place)
I0331 19:09:18.680327 136064 net.cpp:210] Setting up inception_4c/relu_pool_proj
I0331 19:09:18.680333 136064 net.cpp:217] Top shape: 50 64 14 14 (627200)
I0331 19:09:18.680336 136064 net.cpp:225] Memory required for data: 2215381212
I0331 19:09:18.680341 136064 layer_factory.hpp:114] Creating layer inception_4c/output
I0331 19:09:18.680348 136064 net.cpp:160] Creating Layer inception_4c/output
I0331 19:09:18.680353 136064 net.cpp:596] inception_4c/output <- inception_4c/1x1
I0331 19:09:18.680359 136064 net.cpp:596] inception_4c/output <- inception_4c/3x3
I0331 19:09:18.680364 136064 net.cpp:596] inception_4c/output <- inception_4c/5x5
I0331 19:09:18.680369 136064 net.cpp:596] inception_4c/output <- inception_4c/pool_proj
I0331 19:09:18.680377 136064 net.cpp:570] inception_4c/output -> inception_4c/output
I0331 19:09:18.680404 136064 net.cpp:210] Setting up inception_4c/output
I0331 19:09:18.680410 136064 net.cpp:217] Top shape: 50 512 14 14 (5017600)
I0331 19:09:18.680413 136064 net.cpp:225] Memory required for data: 2235451612
I0331 19:09:18.680418 136064 layer_factory.hpp:114] Creating layer inception_4c/output_inception_4c/output_0_split
I0331 19:09:18.680425 136064 net.cpp:160] Creating Layer inception_4c/output_inception_4c/output_0_split
I0331 19:09:18.680429 136064 net.cpp:596] inception_4c/output_inception_4c/output_0_split <- inception_4c/output
I0331 19:09:18.680438 136064 net.cpp:570] inception_4c/output_inception_4c/output_0_split -> inception_4c/output_inception_4c/output_0_split_0
I0331 19:09:18.680444 136064 net.cpp:570] inception_4c/output_inception_4c/output_0_split -> inception_4c/output_inception_4c/output_0_split_1
I0331 19:09:18.680450 136064 net.cpp:570] inception_4c/output_inception_4c/output_0_split -> inception_4c/output_inception_4c/output_0_split_2
I0331 19:09:18.680457 136064 net.cpp:570] inception_4c/output_inception_4c/output_0_split -> inception_4c/output_inception_4c/output_0_split_3
I0331 19:09:18.680464 136064 net.cpp:210] Setting up inception_4c/output_inception_4c/output_0_split
I0331 19:09:18.680469 136064 net.cpp:217] Top shape: 50 512 14 14 (5017600)
I0331 19:09:18.680474 136064 net.cpp:217] Top shape: 50 512 14 14 (5017600)
I0331 19:09:18.680480 136064 net.cpp:217] Top shape: 50 512 14 14 (5017600)
I0331 19:09:18.680483 136064 net.cpp:217] Top shape: 50 512 14 14 (5017600)
I0331 19:09:18.680487 136064 net.cpp:225] Memory required for data: 2315733212
I0331 19:09:18.680490 136064 layer_factory.hpp:114] Creating layer inception_4d/1x1
I0331 19:09:18.680505 136064 net.cpp:160] Creating Layer inception_4d/1x1
I0331 19:09:18.680510 136064 net.cpp:596] inception_4d/1x1 <- inception_4c/output_inception_4c/output_0_split_0
I0331 19:09:18.680516 136064 net.cpp:570] inception_4d/1x1 -> inception_4d/1x1
I0331 19:09:18.692088 136064 net.cpp:210] Setting up inception_4d/1x1
I0331 19:09:18.692111 136064 net.cpp:217] Top shape: 50 112 14 14 (1097600)
I0331 19:09:18.692116 136064 net.cpp:225] Memory required for data: 2320123612
I0331 19:09:18.692124 136064 layer_factory.hpp:114] Creating layer inception_4d/relu_1x1
I0331 19:09:18.692132 136064 net.cpp:160] Creating Layer inception_4d/relu_1x1
I0331 19:09:18.692139 136064 net.cpp:596] inception_4d/relu_1x1 <- inception_4d/1x1
I0331 19:09:18.692155 136064 net.cpp:557] inception_4d/relu_1x1 -> inception_4d/1x1 (in-place)
I0331 19:09:18.692163 136064 net.cpp:210] Setting up inception_4d/relu_1x1
I0331 19:09:18.692169 136064 net.cpp:217] Top shape: 50 112 14 14 (1097600)
I0331 19:09:18.692173 136064 net.cpp:225] Memory required for data: 2324514012
I0331 19:09:18.692176 136064 layer_factory.hpp:114] Creating layer inception_4d/3x3_reduce
I0331 19:09:18.692186 136064 net.cpp:160] Creating Layer inception_4d/3x3_reduce
I0331 19:09:18.692190 136064 net.cpp:596] inception_4d/3x3_reduce <- inception_4c/output_inception_4c/output_0_split_1
I0331 19:09:18.692199 136064 net.cpp:570] inception_4d/3x3_reduce -> inception_4d/3x3_reduce
I0331 19:09:18.704746 136064 net.cpp:210] Setting up inception_4d/3x3_reduce
I0331 19:09:18.704769 136064 net.cpp:217] Top shape: 50 144 14 14 (1411200)
I0331 19:09:18.704774 136064 net.cpp:225] Memory required for data: 2330158812
I0331 19:09:18.704783 136064 layer_factory.hpp:114] Creating layer inception_4d/relu_3x3_reduce
I0331 19:09:18.704792 136064 net.cpp:160] Creating Layer inception_4d/relu_3x3_reduce
I0331 19:09:18.704798 136064 net.cpp:596] inception_4d/relu_3x3_reduce <- inception_4d/3x3_reduce
I0331 19:09:18.704807 136064 net.cpp:557] inception_4d/relu_3x3_reduce -> inception_4d/3x3_reduce (in-place)
I0331 19:09:18.704814 136064 net.cpp:210] Setting up inception_4d/relu_3x3_reduce
I0331 19:09:18.704820 136064 net.cpp:217] Top shape: 50 144 14 14 (1411200)
I0331 19:09:18.704824 136064 net.cpp:225] Memory required for data: 2335803612
I0331 19:09:18.704828 136064 layer_factory.hpp:114] Creating layer inception_4d/3x3
I0331 19:09:18.704859 136064 net.cpp:160] Creating Layer inception_4d/3x3
I0331 19:09:18.704862 136064 net.cpp:596] inception_4d/3x3 <- inception_4d/3x3_reduce
I0331 19:09:18.704869 136064 net.cpp:570] inception_4d/3x3 -> inception_4d/3x3
I0331 19:09:18.749729 136064 net.cpp:210] Setting up inception_4d/3x3
I0331 19:09:18.749773 136064 net.cpp:217] Top shape: 50 288 14 14 (2822400)
I0331 19:09:18.749778 136064 net.cpp:225] Memory required for data: 2347093212
I0331 19:09:18.749790 136064 layer_factory.hpp:114] Creating layer inception_4d/relu_3x3
I0331 19:09:18.749804 136064 net.cpp:160] Creating Layer inception_4d/relu_3x3
I0331 19:09:18.749811 136064 net.cpp:596] inception_4d/relu_3x3 <- inception_4d/3x3
I0331 19:09:18.749820 136064 net.cpp:557] inception_4d/relu_3x3 -> inception_4d/3x3 (in-place)
I0331 19:09:18.749832 136064 net.cpp:210] Setting up inception_4d/relu_3x3
I0331 19:09:18.749838 136064 net.cpp:217] Top shape: 50 288 14 14 (2822400)
I0331 19:09:18.749842 136064 net.cpp:225] Memory required for data: 2358382812
I0331 19:09:18.749846 136064 layer_factory.hpp:114] Creating layer inception_4d/5x5_reduce
I0331 19:09:18.749861 136064 net.cpp:160] Creating Layer inception_4d/5x5_reduce
I0331 19:09:18.749866 136064 net.cpp:596] inception_4d/5x5_reduce <- inception_4c/output_inception_4c/output_0_split_2
I0331 19:09:18.749874 136064 net.cpp:570] inception_4d/5x5_reduce -> inception_4d/5x5_reduce
I0331 19:09:18.757982 136064 net.cpp:210] Setting up inception_4d/5x5_reduce
I0331 19:09:18.757993 136064 net.cpp:217] Top shape: 50 32 14 14 (313600)
I0331 19:09:18.757997 136064 net.cpp:225] Memory required for data: 2359637212
I0331 19:09:18.758005 136064 layer_factory.hpp:114] Creating layer inception_4d/relu_5x5_reduce
I0331 19:09:18.758011 136064 net.cpp:160] Creating Layer inception_4d/relu_5x5_reduce
I0331 19:09:18.758016 136064 net.cpp:596] inception_4d/relu_5x5_reduce <- inception_4d/5x5_reduce
I0331 19:09:18.758024 136064 net.cpp:557] inception_4d/relu_5x5_reduce -> inception_4d/5x5_reduce (in-place)
I0331 19:09:18.758031 136064 net.cpp:210] Setting up inception_4d/relu_5x5_reduce
I0331 19:09:18.758036 136064 net.cpp:217] Top shape: 50 32 14 14 (313600)
I0331 19:09:18.758040 136064 net.cpp:225] Memory required for data: 2360891612
I0331 19:09:18.758044 136064 layer_factory.hpp:114] Creating layer inception_4d/5x5
I0331 19:09:18.758055 136064 net.cpp:160] Creating Layer inception_4d/5x5
I0331 19:09:18.758070 136064 net.cpp:596] inception_4d/5x5 <- inception_4d/5x5_reduce
I0331 19:09:18.758076 136064 net.cpp:570] inception_4d/5x5 -> inception_4d/5x5
I0331 19:09:18.773166 136064 net.cpp:210] Setting up inception_4d/5x5
I0331 19:09:18.773200 136064 net.cpp:217] Top shape: 50 64 14 14 (627200)
I0331 19:09:18.773205 136064 net.cpp:225] Memory required for data: 2363400412
I0331 19:09:18.773216 136064 layer_factory.hpp:114] Creating layer inception_4d/relu_5x5
I0331 19:09:18.773227 136064 net.cpp:160] Creating Layer inception_4d/relu_5x5
I0331 19:09:18.773236 136064 net.cpp:596] inception_4d/relu_5x5 <- inception_4d/5x5
I0331 19:09:18.773246 136064 net.cpp:557] inception_4d/relu_5x5 -> inception_4d/5x5 (in-place)
I0331 19:09:18.773255 136064 net.cpp:210] Setting up inception_4d/relu_5x5
I0331 19:09:18.773262 136064 net.cpp:217] Top shape: 50 64 14 14 (627200)
I0331 19:09:18.773265 136064 net.cpp:225] Memory required for data: 2365909212
I0331 19:09:18.773269 136064 layer_factory.hpp:114] Creating layer inception_4d/pool
I0331 19:09:18.773303 136064 net.cpp:160] Creating Layer inception_4d/pool
I0331 19:09:18.773309 136064 net.cpp:596] inception_4d/pool <- inception_4c/output_inception_4c/output_0_split_3
I0331 19:09:18.773316 136064 net.cpp:570] inception_4d/pool -> inception_4d/pool
I0331 19:09:18.773329 136064 net.cpp:210] Setting up inception_4d/pool
I0331 19:09:18.773335 136064 net.cpp:217] Top shape: 50 512 14 14 (5017600)
I0331 19:09:18.773339 136064 net.cpp:225] Memory required for data: 2385979612
I0331 19:09:18.773342 136064 layer_factory.hpp:114] Creating layer inception_4d/pool_proj
I0331 19:09:18.773357 136064 net.cpp:160] Creating Layer inception_4d/pool_proj
I0331 19:09:18.773381 136064 net.cpp:596] inception_4d/pool_proj <- inception_4d/pool
I0331 19:09:18.773388 136064 net.cpp:570] inception_4d/pool_proj -> inception_4d/pool_proj
I0331 19:09:18.782982 136064 net.cpp:210] Setting up inception_4d/pool_proj
I0331 19:09:18.782996 136064 net.cpp:217] Top shape: 50 64 14 14 (627200)
I0331 19:09:18.783000 136064 net.cpp:225] Memory required for data: 2388488412
I0331 19:09:18.783008 136064 layer_factory.hpp:114] Creating layer inception_4d/relu_pool_proj
I0331 19:09:18.783015 136064 net.cpp:160] Creating Layer inception_4d/relu_pool_proj
I0331 19:09:18.783021 136064 net.cpp:596] inception_4d/relu_pool_proj <- inception_4d/pool_proj
I0331 19:09:18.783030 136064 net.cpp:557] inception_4d/relu_pool_proj -> inception_4d/pool_proj (in-place)
I0331 19:09:18.783037 136064 net.cpp:210] Setting up inception_4d/relu_pool_proj
I0331 19:09:18.783042 136064 net.cpp:217] Top shape: 50 64 14 14 (627200)
I0331 19:09:18.783046 136064 net.cpp:225] Memory required for data: 2390997212
I0331 19:09:18.783049 136064 layer_factory.hpp:114] Creating layer inception_4d/output
I0331 19:09:18.783057 136064 net.cpp:160] Creating Layer inception_4d/output
I0331 19:09:18.783062 136064 net.cpp:596] inception_4d/output <- inception_4d/1x1
I0331 19:09:18.783068 136064 net.cpp:596] inception_4d/output <- inception_4d/3x3
I0331 19:09:18.783073 136064 net.cpp:596] inception_4d/output <- inception_4d/5x5
I0331 19:09:18.783078 136064 net.cpp:596] inception_4d/output <- inception_4d/pool_proj
I0331 19:09:18.783084 136064 net.cpp:570] inception_4d/output -> inception_4d/output
I0331 19:09:18.783093 136064 net.cpp:210] Setting up inception_4d/output
I0331 19:09:18.783099 136064 net.cpp:217] Top shape: 50 528 14 14 (5174400)
I0331 19:09:18.783103 136064 net.cpp:225] Memory required for data: 2411694812
I0331 19:09:18.783107 136064 layer_factory.hpp:114] Creating layer inception_4d/output_inception_4d/output_0_split
I0331 19:09:18.783119 136064 net.cpp:160] Creating Layer inception_4d/output_inception_4d/output_0_split
I0331 19:09:18.783124 136064 net.cpp:596] inception_4d/output_inception_4d/output_0_split <- inception_4d/output
I0331 19:09:18.783133 136064 net.cpp:570] inception_4d/output_inception_4d/output_0_split -> inception_4d/output_inception_4d/output_0_split_0
I0331 19:09:18.783140 136064 net.cpp:570] inception_4d/output_inception_4d/output_0_split -> inception_4d/output_inception_4d/output_0_split_1
I0331 19:09:18.783154 136064 net.cpp:570] inception_4d/output_inception_4d/output_0_split -> inception_4d/output_inception_4d/output_0_split_2
I0331 19:09:18.783160 136064 net.cpp:570] inception_4d/output_inception_4d/output_0_split -> inception_4d/output_inception_4d/output_0_split_3
I0331 19:09:18.783166 136064 net.cpp:570] inception_4d/output_inception_4d/output_0_split -> inception_4d/output_inception_4d/output_0_split_4
I0331 19:09:18.783175 136064 net.cpp:210] Setting up inception_4d/output_inception_4d/output_0_split
I0331 19:09:18.783180 136064 net.cpp:217] Top shape: 50 528 14 14 (5174400)
I0331 19:09:18.783185 136064 net.cpp:217] Top shape: 50 528 14 14 (5174400)
I0331 19:09:18.783190 136064 net.cpp:217] Top shape: 50 528 14 14 (5174400)
I0331 19:09:18.783195 136064 net.cpp:217] Top shape: 50 528 14 14 (5174400)
I0331 19:09:18.783200 136064 net.cpp:217] Top shape: 50 528 14 14 (5174400)
I0331 19:09:18.783202 136064 net.cpp:225] Memory required for data: 2515182812
I0331 19:09:18.783206 136064 layer_factory.hpp:114] Creating layer loss2/ave_pool
I0331 19:09:18.783228 136064 net.cpp:160] Creating Layer loss2/ave_pool
I0331 19:09:18.783233 136064 net.cpp:596] loss2/ave_pool <- inception_4d/output_inception_4d/output_0_split_0
I0331 19:09:18.783242 136064 net.cpp:570] loss2/ave_pool -> loss2/ave_pool
I0331 19:09:18.783251 136064 net.cpp:210] Setting up loss2/ave_pool
I0331 19:09:18.783257 136064 net.cpp:217] Top shape: 50 528 4 4 (422400)
I0331 19:09:18.783260 136064 net.cpp:225] Memory required for data: 2516872412
I0331 19:09:18.783263 136064 layer_factory.hpp:114] Creating layer loss2/conv
I0331 19:09:18.783282 136064 net.cpp:160] Creating Layer loss2/conv
I0331 19:09:18.783288 136064 net.cpp:596] loss2/conv <- loss2/ave_pool
I0331 19:09:18.783296 136064 net.cpp:570] loss2/conv -> loss2/conv
I0331 19:09:18.789450 136064 net.cpp:210] Setting up loss2/conv
I0331 19:09:18.789465 136064 net.cpp:217] Top shape: 50 128 4 4 (102400)
I0331 19:09:18.789469 136064 net.cpp:225] Memory required for data: 2517282012
I0331 19:09:18.789477 136064 layer_factory.hpp:114] Creating layer loss2/relu_conv
I0331 19:09:18.789484 136064 net.cpp:160] Creating Layer loss2/relu_conv
I0331 19:09:18.789489 136064 net.cpp:596] loss2/relu_conv <- loss2/conv
I0331 19:09:18.789494 136064 net.cpp:557] loss2/relu_conv -> loss2/conv (in-place)
I0331 19:09:18.789501 136064 net.cpp:210] Setting up loss2/relu_conv
I0331 19:09:18.789506 136064 net.cpp:217] Top shape: 50 128 4 4 (102400)
I0331 19:09:18.789510 136064 net.cpp:225] Memory required for data: 2517691612
I0331 19:09:18.789513 136064 layer_factory.hpp:114] Creating layer loss2/fc
I0331 19:09:18.789527 136064 net.cpp:160] Creating Layer loss2/fc
I0331 19:09:18.789531 136064 net.cpp:596] loss2/fc <- loss2/conv
I0331 19:09:18.789537 136064 net.cpp:570] loss2/fc -> loss2/fc
I0331 19:09:18.809510 136064 net.cpp:210] Setting up loss2/fc
I0331 19:09:18.809520 136064 net.cpp:217] Top shape: 50 1024 (51200)
I0331 19:09:18.809525 136064 net.cpp:225] Memory required for data: 2517896412
I0331 19:09:18.809531 136064 layer_factory.hpp:114] Creating layer loss2/relu_fc
I0331 19:09:18.809537 136064 net.cpp:160] Creating Layer loss2/relu_fc
I0331 19:09:18.809542 136064 net.cpp:596] loss2/relu_fc <- loss2/fc
I0331 19:09:18.809551 136064 net.cpp:557] loss2/relu_fc -> loss2/fc (in-place)
I0331 19:09:18.809556 136064 net.cpp:210] Setting up loss2/relu_fc
I0331 19:09:18.809561 136064 net.cpp:217] Top shape: 50 1024 (51200)
I0331 19:09:18.809566 136064 net.cpp:225] Memory required for data: 2518101212
I0331 19:09:18.809569 136064 layer_factory.hpp:114] Creating layer loss2/drop_fc
I0331 19:09:18.809577 136064 net.cpp:160] Creating Layer loss2/drop_fc
I0331 19:09:18.809581 136064 net.cpp:596] loss2/drop_fc <- loss2/fc
I0331 19:09:18.809587 136064 net.cpp:557] loss2/drop_fc -> loss2/fc (in-place)
I0331 19:09:18.809594 136064 net.cpp:210] Setting up loss2/drop_fc
I0331 19:09:18.809599 136064 net.cpp:217] Top shape: 50 1024 (51200)
I0331 19:09:18.809609 136064 net.cpp:225] Memory required for data: 2518306012
I0331 19:09:18.809612 136064 layer_factory.hpp:114] Creating layer loss2/classifier
I0331 19:09:18.809622 136064 net.cpp:160] Creating Layer loss2/classifier
I0331 19:09:18.809638 136064 net.cpp:596] loss2/classifier <- loss2/fc
I0331 19:09:18.809653 136064 net.cpp:570] loss2/classifier -> loss2/classifier
I0331 19:09:18.819666 136064 net.cpp:210] Setting up loss2/classifier
I0331 19:09:18.819679 136064 net.cpp:217] Top shape: 50 1000 (50000)
I0331 19:09:18.819684 136064 net.cpp:225] Memory required for data: 2518506012
I0331 19:09:18.819690 136064 layer_factory.hpp:114] Creating layer loss2/classifier_loss2/classifier_0_split
I0331 19:09:18.819699 136064 net.cpp:160] Creating Layer loss2/classifier_loss2/classifier_0_split
I0331 19:09:18.819703 136064 net.cpp:596] loss2/classifier_loss2/classifier_0_split <- loss2/classifier
I0331 19:09:18.819711 136064 net.cpp:570] loss2/classifier_loss2/classifier_0_split -> loss2/classifier_loss2/classifier_0_split_0
I0331 19:09:18.819720 136064 net.cpp:570] loss2/classifier_loss2/classifier_0_split -> loss2/classifier_loss2/classifier_0_split_1
I0331 19:09:18.819726 136064 net.cpp:570] loss2/classifier_loss2/classifier_0_split -> loss2/classifier_loss2/classifier_0_split_2
I0331 19:09:18.819735 136064 net.cpp:210] Setting up loss2/classifier_loss2/classifier_0_split
I0331 19:09:18.819739 136064 net.cpp:217] Top shape: 50 1000 (50000)
I0331 19:09:18.819743 136064 net.cpp:217] Top shape: 50 1000 (50000)
I0331 19:09:18.819747 136064 net.cpp:217] Top shape: 50 1000 (50000)
I0331 19:09:18.819751 136064 net.cpp:225] Memory required for data: 2519106012
I0331 19:09:18.819766 136064 layer_factory.hpp:114] Creating layer loss2/loss
I0331 19:09:18.819772 136064 net.cpp:160] Creating Layer loss2/loss
I0331 19:09:18.819777 136064 net.cpp:596] loss2/loss <- loss2/classifier_loss2/classifier_0_split_0
I0331 19:09:18.819782 136064 net.cpp:596] loss2/loss <- label_data_1_split_3
…
I0331 19:09:18.820063 136064 net.cpp:210] Setting up loss2/top-5
I0331 19:09:18.820068 136064 net.cpp:217] Top shape: (1)
I0331 19:09:18.820072 136064 net.cpp:225] Memory required for data: 2519106024
I0331 19:09:18.820076 136064 layer_factory.hpp:114] Creating layer inception_4e/1x1
I0331 19:09:18.820086 136064 net.cpp:160] Creating Layer inception_4e/1x1
I0331 19:09:18.820091 136064 net.cpp:596] inception_4e/1x1 <- inception_4d/output_inception_4d/output_0_split_1
I0331 19:09:18.820101 136064 net.cpp:570] inception_4e/1x1 -> inception_4e/1x1
I0331 19:09:18.837474 136064 net.cpp:210] Setting up inception_4e/1x1
I0331 19:09:18.837512 136064 net.cpp:217] Top shape: 50 256 14 14 (2508800)
I0331 19:09:18.837525 136064 net.cpp:225] Memory required for data: 2529141224
I0331 19:09:18.837538 136064 layer_factory.hpp:114] Creating layer inception_4e/relu_1x1
I0331 19:09:18.837548 136064 net.cpp:160] Creating Layer inception_4e/relu_1x1
I0331 19:09:18.837559 136064 net.cpp:596] inception_4e/relu_1x1 <- inception_4e/1x1
I0331 19:09:18.837570 136064 net.cpp:557] inception_4e/relu_1x1 -> inception_4e/1x1 (in-place)
I0331 19:09:18.837580 136064 net.cpp:210] Setting up inception_4e/relu_1x1
I0331 19:09:18.837586 136064 net.cpp:217] Top shape: 50 256 14 14 (2508800)
I0331 19:09:18.837590 136064 net.cpp:225] Memory required for data: 2539176424
I0331 19:09:18.837594 136064 layer_factory.hpp:114] Creating layer inception_4e/3x3_reduce
I0331 19:09:18.837616 136064 net.cpp:160] Creating Layer inception_4e/3x3_reduce
I0331 19:09:18.837621 136064 net.cpp:596] inception_4e/3x3_reduce <- inception_4d/output_inception_4d/output_0_split_2
I0331 19:09:18.837637 136064 net.cpp:570] inception_4e/3x3_reduce -> inception_4e/3x3_reduce
I0331 19:09:18.851377 136064 net.cpp:210] Setting up inception_4e/3x3_reduce
I0331 19:09:18.851409 136064 net.cpp:217] Top shape: 50 160 14 14 (1568000)
I0331 19:09:18.851413 136064 net.cpp:225] Memory required for data: 2545448424
I0331 19:09:18.851424 136064 layer_factory.hpp:114] Creating layer inception_4e/relu_3x3_reduce
I0331 19:09:18.851438 136064 net.cpp:160] Creating Layer inception_4e/relu_3x3_reduce
I0331 19:09:18.851446 136064 net.cpp:596] inception_4e/relu_3x3_reduce <- inception_4e/3x3_reduce
I0331 19:09:18.851454 136064 net.cpp:557] inception_4e/relu_3x3_reduce -> inception_4e/3x3_reduce (in-place)
I0331 19:09:18.851487 136064 net.cpp:210] Setting up inception_4e/relu_3x3_reduce
I0331 19:09:18.851492 136064 net.cpp:217] Top shape: 50 160 14 14 (1568000)
I0331 19:09:18.851496 136064 net.cpp:225] Memory required for data: 2551720424
I0331 19:09:18.851500 136064 layer_factory.hpp:114] Creating layer inception_4e/3x3
I0331 19:09:18.851512 136064 net.cpp:160] Creating Layer inception_4e/3x3
I0331 19:09:18.851516 136064 net.cpp:596] inception_4e/3x3 <- inception_4e/3x3_reduce
I0331 19:09:18.851526 136064 net.cpp:570] inception_4e/3x3 -> inception_4e/3x3
I0331 19:09:18.904593 136064 net.cpp:210] Setting up inception_4e/3x3
I0331 19:09:18.904644 136064 net.cpp:217] Top shape: 50 320 14 14 (3136000)
I0331 19:09:18.904649 136064 net.cpp:225] Memory required for data: 2564264424
I0331 19:09:18.904662 136064 layer_factory.hpp:114] Creating layer inception_4e/relu_3x3
I0331 19:09:18.904675 136064 net.cpp:160] Creating Layer inception_4e/relu_3x3
I0331 19:09:18.904685 136064 net.cpp:596] inception_4e/relu_3x3 <- inception_4e/3x3
I0331 19:09:18.904696 136064 net.cpp:557] inception_4e/relu_3x3 -> inception_4e/3x3 (in-place)
I0331 19:09:18.904708 136064 net.cpp:210] Setting up inception_4e/relu_3x3
I0331 19:09:18.904714 136064 net.cpp:217] Top shape: 50 320 14 14 (3136000)
I0331 19:09:18.904718 136064 net.cpp:225] Memory required for data: 2576808424
I0331 19:09:18.904721 136064 layer_factory.hpp:114] Creating layer inception_4e/5x5_reduce
I0331 19:09:18.904736 136064 net.cpp:160] Creating Layer inception_4e/5x5_reduce
I0331 19:09:18.904742 136064 net.cpp:596] inception_4e/5x5_reduce <- inception_4d/output_inception_4d/output_0_split_3
I0331 19:09:18.904749 136064 net.cpp:570] inception_4e/5x5_reduce -> inception_4e/5x5_reduce
I0331 19:09:18.913262 136064 net.cpp:210] Setting up inception_4e/5x5_reduce
I0331 19:09:18.913275 136064 net.cpp:217] Top shape: 50 32 14 14 (313600)
I0331 19:09:18.913278 136064 net.cpp:225] Memory required for data: 2578062824
I0331 19:09:18.913285 136064 layer_factory.hpp:114] Creating layer inception_4e/relu_5x5_reduce
I0331 19:09:18.913292 136064 net.cpp:160] Creating Layer inception_4e/relu_5x5_reduce
I0331 19:09:18.913297 136064 net.cpp:596] inception_4e/relu_5x5_reduce <- inception_4e/5x5_reduce
I0331 19:09:18.913302 136064 net.cpp:557] inception_4e/relu_5x5_reduce -> inception_4e/5x5_reduce (in-place)
I0331 19:09:18.913310 136064 net.cpp:210] Setting up inception_4e/relu_5x5_reduce
I0331 19:09:18.913326 136064 net.cpp:217] Top shape: 50 32 14 14 (313600)
I0331 19:09:18.913329 136064 net.cpp:225] Memory required for data: 2579317224
I0331 19:09:18.913333 136064 layer_factory.hpp:114] Creating layer inception_4e/5x5
I0331 19:09:18.913344 136064 net.cpp:160] Creating Layer inception_4e/5x5
I0331 19:09:18.913348 136064 net.cpp:596] inception_4e/5x5 <- inception_4e/5x5_reduce
I0331 19:09:18.913357 136064 net.cpp:570] inception_4e/5x5 -> inception_4e/5x5
I0331 19:09:18.931653 136064 net.cpp:210] Setting up inception_4e/5x5
I0331 19:09:18.931694 136064 net.cpp:217] Top shape: 50 128 14 14 (1254400)
I0331 19:09:18.931697 136064 net.cpp:225] Memory required for data: 2584334824
I0331 19:09:18.931710 136064 layer_factory.hpp:114] Creating layer inception_4e/relu_5x5
I0331 19:09:18.931723 136064 net.cpp:160] Creating Layer inception_4e/relu_5x5
I0331 19:09:18.931732 136064 net.cpp:596] inception_4e/relu_5x5 <- inception_4e/5x5
I0331 19:09:18.931744 136064 net.cpp:557] inception_4e/relu_5x5 -> inception_4e/5x5 (in-place)
I0331 19:09:18.931753 136064 net.cpp:210] Setting up inception_4e/relu_5x5
I0331 19:09:18.931759 136064 net.cpp:217] Top shape: 50 128 14 14 (1254400)
I0331 19:09:18.931763 136064 net.cpp:225] Memory required for data: 2589352424
I0331 19:09:18.931767 136064 layer_factory.hpp:114] Creating layer inception_4e/pool
I0331 19:09:18.931804 136064 net.cpp:160] Creating Layer inception_4e/pool
I0331 19:09:18.931812 136064 net.cpp:596] inception_4e/pool <- inception_4d/output_inception_4d/output_0_split_4
I0331 19:09:18.931818 136064 net.cpp:570] inception_4e/pool -> inception_4e/pool
I0331 19:09:18.931854 136064 net.cpp:210] Setting up inception_4e/pool
I0331 19:09:18.931859 136064 net.cpp:217] Top shape: 50 528 14 14 (5174400)
I0331 19:09:18.931864 136064 net.cpp:225] Memory required for data: 2610050024
I0331 19:09:18.931867 136064 layer_factory.hpp:114] Creating layer inception_4e/pool_proj
I0331 19:09:18.931882 136064 net.cpp:160] Creating Layer inception_4e/pool_proj
I0331 19:09:18.931887 136064 net.cpp:596] inception_4e/pool_proj <- inception_4e/pool
I0331 19:09:18.931893 136064 net.cpp:570] inception_4e/pool_proj -> inception_4e/pool_proj
I0331 19:09:18.944602 136064 net.cpp:210] Setting up inception_4e/pool_proj
I0331 19:09:18.944648 136064 net.cpp:217] Top shape: 50 128 14 14 (1254400)
I0331 19:09:18.944653 136064 net.cpp:225] Memory required for data: 2615067624
I0331 19:09:18.944664 136064 layer_factory.hpp:114] Creating layer inception_4e/relu_pool_proj
I0331 19:09:18.944672 136064 net.cpp:160] Creating Layer inception_4e/relu_pool_proj
I0331 19:09:18.944679 136064 net.cpp:596] inception_4e/relu_pool_proj <- inception_4e/pool_proj
I0331 19:09:18.944687 136064 net.cpp:557] inception_4e/relu_pool_proj -> inception_4e/pool_proj (in-place)
I0331 19:09:18.944695 136064 net.cpp:210] Setting up inception_4e/relu_pool_proj
I0331 19:09:18.944701 136064 net.cpp:217] Top shape: 50 128 14 14 (1254400)
I0331 19:09:18.944705 136064 net.cpp:225] Memory required for data: 2620085224
I0331 19:09:18.944710 136064 layer_factory.hpp:114] Creating layer inception_4e/output
I0331 19:09:18.944717 136064 net.cpp:160] Creating Layer inception_4e/output
I0331 19:09:18.944723 136064 net.cpp:596] inception_4e/output <- inception_4e/1x1
I0331 19:09:18.944730 136064 net.cpp:596] inception_4e/output <- inception_4e/3x3
I0331 19:09:18.944736 136064 net.cpp:596] inception_4e/output <- inception_4e/5x5
I0331 19:09:18.944741 136064 net.cpp:596] inception_4e/output <- inception_4e/pool_proj
I0331 19:09:18.944747 136064 net.cpp:570] inception_4e/output -> inception_4e/output
I0331 19:09:18.944757 136064 net.cpp:210] Setting up inception_4e/output
I0331 19:09:18.944763 136064 net.cpp:217] Top shape: 50 832 14 14 (8153600)
I0331 19:09:18.944767 136064 net.cpp:225] Memory required for data: 2652699624
I0331 19:09:18.944772 136064 layer_factory.hpp:114] Creating layer pool4/3x3_s2
I0331 19:09:18.944797 136064 net.cpp:160] Creating Layer pool4/3x3_s2
I0331 19:09:18.944802 136064 net.cpp:596] pool4/3x3_s2 <- inception_4e/output
I0331 19:09:18.944816 136064 net.cpp:570] pool4/3x3_s2 -> pool4/3x3_s2
I0331 19:09:18.944826 136064 net.cpp:210] Setting up pool4/3x3_s2
I0331 19:09:18.944831 136064 net.cpp:217] Top shape: 50 832 7 7 (2038400)
I0331 19:09:18.944835 136064 net.cpp:225] Memory required for data: 2660853224
I0331 19:09:18.944839 136064 layer_factory.hpp:114] Creating layer pool4/3x3_s2_pool4/3x3_s2_0_split
I0331 19:09:18.944849 136064 net.cpp:160] Creating Layer pool4/3x3_s2_pool4/3x3_s2_0_split
I0331 19:09:18.944852 136064 net.cpp:596] pool4/3x3_s2_pool4/3x3_s2_0_split <- pool4/3x3_s2
I0331 19:09:18.944859 136064 net.cpp:570] pool4/3x3_s2_pool4/3x3_s2_0_split -> pool4/3x3_s2_pool4/3x3_s2_0_split_0
I0331 19:09:18.944869 136064 net.cpp:570] pool4/3x3_s2_pool4/3x3_s2_0_split -> pool4/3x3_s2_pool4/3x3_s2_0_split_1
I0331 19:09:18.944876 136064 net.cpp:570] pool4/3x3_s2_pool4/3x3_s2_0_split -> pool4/3x3_s2_pool4/3x3_s2_0_split_2
I0331 19:09:18.944890 136064 net.cpp:570] pool4/3x3_s2_pool4/3x3_s2_0_split -> pool4/3x3_s2_pool4/3x3_s2_0_split_3
I0331 19:09:18.944900 136064 net.cpp:210] Setting up pool4/3x3_s2_pool4/3x3_s2_0_split
I0331 19:09:18.944905 136064 net.cpp:217] Top shape: 50 832 7 7 (2038400)
I0331 19:09:18.944911 136064 net.cpp:217] Top shape: 50 832 7 7 (2038400)
I0331 19:09:18.944916 136064 net.cpp:217] Top shape: 50 832 7 7 (2038400)
I0331 19:09:18.944921 136064 net.cpp:217] Top shape: 50 832 7 7 (2038400)
I0331 19:09:18.944924 136064 net.cpp:225] Memory required for data: 2693467624
I0331 19:09:18.944928 136064 layer_factory.hpp:114] Creating layer inception_5a/1x1
I0331 19:09:18.944939 136064 net.cpp:160] Creating Layer inception_5a/1x1
I0331 19:09:18.944957 136064 net.cpp:596] inception_5a/1x1 <- pool4/3x3_s2_pool4/3x3_s2_0_split_0
I0331 19:09:18.944965 136064 net.cpp:570] inception_5a/1x1 -> inception_5a/1x1
I0331 19:09:18.964282 136064 net.cpp:210] Setting up inception_5a/1x1
I0331 19:09:18.964321 136064 net.cpp:217] Top shape: 50 256 7 7 (627200)
I0331 19:09:18.964325 136064 net.cpp:225] Memory required for data: 2695976424
I0331 19:09:18.964337 136064 layer_factory.hpp:114] Creating layer inception_5a/relu_1x1
I0331 19:09:18.964350 136064 net.cpp:160] Creating Layer inception_5a/relu_1x1
I0331 19:09:18.964359 136064 net.cpp:596] inception_5a/relu_1x1 <- inception_5a/1x1
I0331 19:09:18.964366 136064 net.cpp:557] inception_5a/relu_1x1 -> inception_5a/1x1 (in-place)
I0331 19:09:18.964377 136064 net.cpp:210] Setting up inception_5a/relu_1x1
I0331 19:09:18.964383 136064 net.cpp:217] Top shape: 50 256 7 7 (627200)
I0331 19:09:18.964387 136064 net.cpp:225] Memory required for data: 2698485224
I0331 19:09:18.964391 136064 layer_factory.hpp:114] Creating layer inception_5a/3x3_reduce
I0331 19:09:18.964406 136064 net.cpp:160] Creating Layer inception_5a/3x3_reduce
I0331 19:09:18.964413 136064 net.cpp:596] inception_5a/3x3_reduce <- pool4/3x3_s2_pool4/3x3_s2_0_split_1
I0331 19:09:18.964421 136064 net.cpp:570] inception_5a/3x3_reduce -> inception_5a/3x3_reduce
I0331 19:09:18.977592 136064 net.cpp:210] Setting up inception_5a/3x3_reduce
I0331 19:09:18.977620 136064 net.cpp:217] Top shape: 50 160 7 7 (392000)
I0331 19:09:18.977632 136064 net.cpp:225] Memory required for data: 2700053224
I0331 19:09:18.977644 136064 layer_factory.hpp:114] Creating layer inception_5a/relu_3x3_reduce
I0331 19:09:18.977654 136064 net.cpp:160] Creating Layer inception_5a/relu_3x3_reduce
I0331 19:09:18.977663 136064 net.cpp:596] inception_5a/relu_3x3_reduce <- inception_5a/3x3_reduce
I0331 19:09:18.977672 136064 net.cpp:557] inception_5a/relu_3x3_reduce -> inception_5a/3x3_reduce (in-place)
I0331 19:09:18.977681 136064 net.cpp:210] Setting up inception_5a/relu_3x3_reduce
I0331 19:09:18.977687 136064 net.cpp:217] Top shape: 50 160 7 7 (392000)
I0331 19:09:18.977690 136064 net.cpp:225] Memory required for data: 2701621224
I0331 19:09:18.977694 136064 layer_factory.hpp:114] Creating layer inception_5a/3x3
I0331 19:09:18.977705 136064 net.cpp:160] Creating Layer inception_5a/3x3
I0331 19:09:18.977710 136064 net.cpp:596] inception_5a/3x3 <- inception_5a/3x3_reduce
I0331 19:09:18.977730 136064 net.cpp:570] inception_5a/3x3 -> inception_5a/3x3
I0331 19:09:19.017429 136064 net.cpp:210] Setting up inception_5a/3x3
I0331 19:09:19.017473 136064 net.cpp:217] Top shape: 50 320 7 7 (784000)
I0331 19:09:19.017477 136064 net.cpp:225] Memory required for data: 2704757224
I0331 19:09:19.017490 136064 layer_factory.hpp:114] Creating layer inception_5a/relu_3x3
I0331 19:09:19.017504 136064 net.cpp:160] Creating Layer inception_5a/relu_3x3
I0331 19:09:19.017513 136064 net.cpp:596] inception_5a/relu_3x3 <- inception_5a/3x3
I0331 19:09:19.017523 136064 net.cpp:557] inception_5a/relu_3x3 -> inception_5a/3x3 (in-place)
I0331 19:09:19.017534 136064 net.cpp:210] Setting up inception_5a/relu_3x3
I0331 19:09:19.017540 136064 net.cpp:217] Top shape: 50 320 7 7 (784000)
I0331 19:09:19.017544 136064 net.cpp:225] Memory required for data: 2707893224
I0331 19:09:19.017547 136064 layer_factory.hpp:114] Creating layer inception_5a/5x5_reduce
I0331 19:09:19.017563 136064 net.cpp:160] Creating Layer inception_5a/5x5_reduce
I0331 19:09:19.017570 136064 net.cpp:596] inception_5a/5x5_reduce <- pool4/3x3_s2_pool4/3x3_s2_0_split_2
I0331 19:09:19.017578 136064 net.cpp:570] inception_5a/5x5_reduce -> inception_5a/5x5_reduce
I0331 19:09:19.022879 136064 net.cpp:210] Setting up inception_5a/5x5_reduce
I0331 19:09:19.022891 136064 net.cpp:217] Top shape: 50 32 7 7 (78400)
I0331 19:09:19.022893 136064 net.cpp:225] Memory required for data: 2708206824
I0331 19:09:19.022902 136064 layer_factory.hpp:114] Creating layer inception_5a/relu_5x5_reduce
I0331 19:09:19.022908 136064 net.cpp:160] Creating Layer inception_5a/relu_5x5_reduce
I0331 19:09:19.022934 136064 net.cpp:596] inception_5a/relu_5x5_reduce <- inception_5a/5x5_reduce
I0331 19:09:19.022943 136064 net.cpp:557] inception_5a/relu_5x5_reduce -> inception_5a/5x5_reduce (in-place)
I0331 19:09:19.022950 136064 net.cpp:210] Setting up inception_5a/relu_5x5_reduce
I0331 19:09:19.022955 136064 net.cpp:217] Top shape: 50 32 7 7 (78400)
I0331 19:09:19.022959 136064 net.cpp:225] Memory required for data: 2708520424
I0331 19:09:19.022964 136064 layer_factory.hpp:114] Creating layer inception_5a/5x5
I0331 19:09:19.022974 136064 net.cpp:160] Creating Layer inception_5a/5x5
I0331 19:09:19.022979 136064 net.cpp:596] inception_5a/5x5 <- inception_5a/5x5_reduce
I0331 19:09:19.022984 136064 net.cpp:570] inception_5a/5x5 -> inception_5a/5x5
I0331 19:09:19.034236 136064 net.cpp:210] Setting up inception_5a/5x5
I0331 19:09:19.034260 136064 net.cpp:217] Top shape: 50 128 7 7 (313600)
I0331 19:09:19.034263 136064 net.cpp:225] Memory required for data: 2709774824
I0331 19:09:19.034272 136064 layer_factory.hpp:114] Creating layer inception_5a/relu_5x5
I0331 19:09:19.034281 136064 net.cpp:160] Creating Layer inception_5a/relu_5x5
I0331 19:09:19.034288 136064 net.cpp:596] inception_5a/relu_5x5 <- inception_5a/5x5
I0331 19:09:19.034294 136064 net.cpp:557] inception_5a/relu_5x5 -> inception_5a/5x5 (in-place)
I0331 19:09:19.034301 136064 net.cpp:210] Setting up inception_5a/relu_5x5
I0331 19:09:19.034307 136064 net.cpp:217] Top shape: 50 128 7 7 (313600)
I0331 19:09:19.034310 136064 net.cpp:225] Memory required for data: 2711029224
I0331 19:09:19.034314 136064 layer_factory.hpp:114] Creating layer inception_5a/pool
I0331 19:09:19.034351 136064 net.cpp:160] Creating Layer inception_5a/pool
I0331 19:09:19.034358 136064 net.cpp:596] inception_5a/pool <- pool4/3x3_s2_pool4/3x3_s2_0_split_3
I0331 19:09:19.034363 136064 net.cpp:570] inception_5a/pool -> inception_5a/pool
I0331 19:09:19.034375 136064 net.cpp:210] Setting up inception_5a/pool
I0331 19:09:19.034381 136064 net.cpp:217] Top shape: 50 832 7 7 (2038400)
I0331 19:09:19.034385 136064 net.cpp:225] Memory required for data: 2719182824
I0331 19:09:19.034389 136064 layer_factory.hpp:114] Creating layer inception_5a/pool_proj
I0331 19:09:19.034401 136064 net.cpp:160] Creating Layer inception_5a/pool_proj
I0331 19:09:19.034406 136064 net.cpp:596] inception_5a/pool_proj <- inception_5a/pool
I0331 19:09:19.034415 136064 net.cpp:570] inception_5a/pool_proj -> inception_5a/pool_proj
I0331 19:09:19.045857 136064 net.cpp:210] Setting up inception_5a/pool_proj
I0331 19:09:19.045879 136064 net.cpp:217] Top shape: 50 128 7 7 (313600)
I0331 19:09:19.045883 136064 net.cpp:225] Memory required for data: 2720437224
I0331 19:09:19.045892 136064 layer_factory.hpp:114] Creating layer inception_5a/relu_pool_proj
I0331 19:09:19.045902 136064 net.cpp:160] Creating Layer inception_5a/relu_pool_proj
I0331 19:09:19.045908 136064 net.cpp:596] inception_5a/relu_pool_proj <- inception_5a/pool_proj
I0331 19:09:19.045915 136064 net.cpp:557] inception_5a/relu_pool_proj -> inception_5a/pool_proj (in-place)
I0331 19:09:19.045923 136064 net.cpp:210] Setting up inception_5a/relu_pool_proj
I0331 19:09:19.045929 136064 net.cpp:217] Top shape: 50 128 7 7 (313600)
I0331 19:09:19.045933 136064 net.cpp:225] Memory required for data: 2721691624
I0331 19:09:19.045936 136064 layer_factory.hpp:114] Creating layer inception_5a/output
I0331 19:09:19.045944 136064 net.cpp:160] Creating Layer inception_5a/output
I0331 19:09:19.045949 136064 net.cpp:596] inception_5a/output <- inception_5a/1x1
I0331 19:09:19.045955 136064 net.cpp:596] inception_5a/output <- inception_5a/3x3
I0331 19:09:19.045960 136064 net.cpp:596] inception_5a/output <- inception_5a/5x5
I0331 19:09:19.045966 136064 net.cpp:596] inception_5a/output <- inception_5a/pool_proj
I0331 19:09:19.045972 136064 net.cpp:570] inception_5a/output -> inception_5a/output
I0331 19:09:19.045982 136064 net.cpp:210] Setting up inception_5a/output
I0331 19:09:19.045989 136064 net.cpp:217] Top shape: 50 832 7 7 (2038400)
I0331 19:09:19.045992 136064 net.cpp:225] Memory required for data: 2729845224
I0331 19:09:19.046013 136064 layer_factory.hpp:114] Creating layer inception_5a/output_inception_5a/output_0_split
I0331 19:09:19.046021 136064 net.cpp:160] Creating Layer inception_5a/output_inception_5a/output_0_split
I0331 19:09:19.046026 136064 net.cpp:596] inception_5a/output_inception_5a/output_0_split <- inception_5a/output
I0331 19:09:19.046036 136064 net.cpp:570] inception_5a/output_inception_5a/output_0_split -> inception_5a/output_inception_5a/output_0_split_0
I0331 19:09:19.046042 136064 net.cpp:570] inception_5a/output_inception_5a/output_0_split -> inception_5a/output_inception_5a/output_0_split_1
I0331 19:09:19.046049 136064 net.cpp:570] inception_5a/output_inception_5a/output_0_split -> inception_5a/output_inception_5a/output_0_split_2
I0331 19:09:19.046056 136064 net.cpp:570] inception_5a/output_inception_5a/output_0_split -> inception_5a/output_inception_5a/output_0_split_3
I0331 19:09:19.046063 136064 net.cpp:210] Setting up inception_5a/output_inception_5a/output_0_split
I0331 19:09:19.046069 136064 net.cpp:217] Top shape: 50 832 7 7 (2038400)
I0331 19:09:19.046074 136064 net.cpp:217] Top shape: 50 832 7 7 (2038400)
I0331 19:09:19.046078 136064 net.cpp:217] Top shape: 50 832 7 7 (2038400)
I0331 19:09:19.046083 136064 net.cpp:217] Top shape: 50 832 7 7 (2038400)
I0331 19:09:19.046087 136064 net.cpp:225] Memory required for data: 2762459624
I0331 19:09:19.046090 136064 layer_factory.hpp:114] Creating layer inception_5b/1x1
I0331 19:09:19.046102 136064 net.cpp:160] Creating Layer inception_5b/1x1
I0331 19:09:19.046106 136064 net.cpp:596] inception_5b/1x1 <- inception_5a/output_inception_5a/output_0_split_0
I0331 19:09:19.046113 136064 net.cpp:570] inception_5b/1x1 -> inception_5b/1x1
I0331 19:09:19.072882 136064 net.cpp:210] Setting up inception_5b/1x1
I0331 19:09:19.072923 136064 net.cpp:217] Top shape: 50 384 7 7 (940800)
I0331 19:09:19.072927 136064 net.cpp:225] Memory required for data: 2766222824
I0331 19:09:19.072939 136064 layer_factory.hpp:114] Creating layer inception_5b/relu_1x1
I0331 19:09:19.072952 136064 net.cpp:160] Creating Layer inception_5b/relu_1x1
I0331 19:09:19.072962 136064 net.cpp:596] inception_5b/relu_1x1 <- inception_5b/1x1
I0331 19:09:19.072973 136064 net.cpp:557] inception_5b/relu_1x1 -> inception_5b/1x1 (in-place)
I0331 19:09:19.072984 136064 net.cpp:210] Setting up inception_5b/relu_1x1
I0331 19:09:19.072990 136064 net.cpp:217] Top shape: 50 384 7 7 (940800)
I0331 19:09:19.073004 136064 net.cpp:225] Memory required for data: 2769986024
I0331 19:09:19.073009 136064 layer_factory.hpp:114] Creating layer inception_5b/3x3_reduce
I0331 19:09:19.073020 136064 net.cpp:160] Creating Layer inception_5b/3x3_reduce
I0331 19:09:19.073025 136064 net.cpp:596] inception_5b/3x3_reduce <- inception_5a/output_inception_5a/output_0_split_1
I0331 19:09:19.073036 136064 net.cpp:570] inception_5b/3x3_reduce -> inception_5b/3x3_reduce
I0331 19:09:19.088423 136064 net.cpp:210] Setting up inception_5b/3x3_reduce
I0331 19:09:19.088457 136064 net.cpp:217] Top shape: 50 192 7 7 (470400)
I0331 19:09:19.088461 136064 net.cpp:225] Memory required for data: 2771867624
I0331 19:09:19.088471 136064 layer_factory.hpp:114] Creating layer inception_5b/relu_3x3_reduce
I0331 19:09:19.088484 136064 net.cpp:160] Creating Layer inception_5b/relu_3x3_reduce
I0331 19:09:19.088492 136064 net.cpp:596] inception_5b/relu_3x3_reduce <- inception_5b/3x3_reduce
I0331 19:09:19.088501 136064 net.cpp:557] inception_5b/relu_3x3_reduce -> inception_5b/3x3_reduce (in-place)
I0331 19:09:19.088510 136064 net.cpp:210] Setting up inception_5b/relu_3x3_reduce
I0331 19:09:19.088515 136064 net.cpp:217] Top shape: 50 192 7 7 (470400)
I0331 19:09:19.088520 136064 net.cpp:225] Memory required for data: 2773749224
I0331 19:09:19.088523 136064 layer_factory.hpp:114] Creating layer inception_5b/3x3
I0331 19:09:19.088538 136064 net.cpp:160] Creating Layer inception_5b/3x3
I0331 19:09:19.088542 136064 net.cpp:596] inception_5b/3x3 <- inception_5b/3x3_reduce
I0331 19:09:19.088549 136064 net.cpp:570] inception_5b/3x3 -> inception_5b/3x3
I0331 19:09:19.143298 136064 net.cpp:210] Setting up inception_5b/3x3
I0331 19:09:19.143340 136064 net.cpp:217] Top shape: 50 384 7 7 (940800)
I0331 19:09:19.143344 136064 net.cpp:225] Memory required for data: 2777512424
I0331 19:09:19.143357 136064 layer_factory.hpp:114] Creating layer inception_5b/relu_3x3
I0331 19:09:19.143369 136064 net.cpp:160] Creating Layer inception_5b/relu_3x3
I0331 19:09:19.143379 136064 net.cpp:596] inception_5b/relu_3x3 <- inception_5b/3x3
I0331 19:09:19.143393 136064 net.cpp:557] inception_5b/relu_3x3 -> inception_5b/3x3 (in-place)
I0331 19:09:19.143404 136064 net.cpp:210] Setting up inception_5b/relu_3x3
I0331 19:09:19.143410 136064 net.cpp:217] Top shape: 50 384 7 7 (940800)
I0331 19:09:19.143414 136064 net.cpp:225] Memory required for data: 2781275624
I0331 19:09:19.143419 136064 layer_factory.hpp:114] Creating layer inception_5b/5x5_reduce
I0331 19:09:19.143431 136064 net.cpp:160] Creating Layer inception_5b/5x5_reduce
I0331 19:09:19.143436 136064 net.cpp:596] inception_5b/5x5_reduce <- inception_5a/output_inception_5a/output_0_split_2
I0331 19:09:19.143448 136064 net.cpp:570] inception_5b/5x5_reduce -> inception_5b/5x5_reduce
I0331 19:09:19.150343 136064 net.cpp:210] Setting up inception_5b/5x5_reduce
I0331 19:09:19.150355 136064 net.cpp:217] Top shape: 50 48 7 7 (117600)
I0331 19:09:19.150359 136064 net.cpp:225] Memory required for data: 2781746024
I0331 19:09:19.150367 136064 layer_factory.hpp:114] Creating layer inception_5b/relu_5x5_reduce
I0331 19:09:19.150373 136064 net.cpp:160] Creating Layer inception_5b/relu_5x5_reduce
I0331 19:09:19.150379 136064 net.cpp:596] inception_5b/relu_5x5_reduce <- inception_5b/5x5_reduce
I0331 19:09:19.150388 136064 net.cpp:557] inception_5b/relu_5x5_reduce -> inception_5b/5x5_reduce (in-place)
I0331 19:09:19.150394 136064 net.cpp:210] Setting up inception_5b/relu_5x5_reduce
I0331 19:09:19.150399 136064 net.cpp:217] Top shape: 50 48 7 7 (117600)
I0331 19:09:19.150403 136064 net.cpp:225] Memory required for data: 2782216424
I0331 19:09:19.150408 136064 layer_factory.hpp:114] Creating layer inception_5b/5x5
I0331 19:09:19.150415 136064 net.cpp:160] Creating Layer inception_5b/5x5
I0331 19:09:19.150420 136064 net.cpp:596] inception_5b/5x5 <- inception_5b/5x5_reduce
I0331 19:09:19.150429 136064 net.cpp:570] inception_5b/5x5 -> inception_5b/5x5
I0331 19:09:19.166549 136064 net.cpp:210] Setting up inception_5b/5x5
I0331 19:09:19.166595 136064 net.cpp:217] Top shape: 50 128 7 7 (313600)
I0331 19:09:19.166599 136064 net.cpp:225] Memory required for data: 2783470824
I0331 19:09:19.166610 136064 layer_factory.hpp:114] Creating layer inception_5b/relu_5x5
I0331 19:09:19.166620 136064 net.cpp:160] Creating Layer inception_5b/relu_5x5
I0331 19:09:19.166638 136064 net.cpp:596] inception_5b/relu_5x5 <- inception_5b/5x5
I0331 19:09:19.166646 136064 net.cpp:557] inception_5b/relu_5x5 -> inception_5b/5x5 (in-place)
I0331 19:09:19.166656 136064 net.cpp:210] Setting up inception_5b/relu_5x5
I0331 19:09:19.166662 136064 net.cpp:217] Top shape: 50 128 7 7 (313600)
I0331 19:09:19.166666 136064 net.cpp:225] Memory required for data: 2784725224
I0331 19:09:19.166669 136064 layer_factory.hpp:114] Creating layer inception_5b/pool
I0331 19:09:19.166708 136064 net.cpp:160] Creating Layer inception_5b/pool
I0331 19:09:19.166713 136064 net.cpp:596] inception_5b/pool <- inception_5a/output_inception_5a/output_0_split_3
I0331 19:09:19.166720 136064 net.cpp:570] inception_5b/pool -> inception_5b/pool
I0331 19:09:19.166731 136064 net.cpp:210] Setting up inception_5b/pool
I0331 19:09:19.166739 136064 net.cpp:217] Top shape: 50 832 7 7 (2038400)
I0331 19:09:19.166743 136064 net.cpp:225] Memory required for data: 2792878824
I0331 19:09:19.166748 136064 layer_factory.hpp:114] Creating layer inception_5b/pool_proj
I0331 19:09:19.166757 136064 net.cpp:160] Creating Layer inception_5b/pool_proj
I0331 19:09:19.166762 136064 net.cpp:596] inception_5b/pool_proj <- inception_5b/pool
I0331 19:09:19.166772 136064 net.cpp:570] inception_5b/pool_proj -> inception_5b/pool_proj
I0331 19:09:19.178225 136064 net.cpp:210] Setting up inception_5b/pool_proj
I0331 19:09:19.178246 136064 net.cpp:217] Top shape: 50 128 7 7 (313600)
I0331 19:09:19.178249 136064 net.cpp:225] Memory required for data: 2794133224
I0331 19:09:19.178257 136064 layer_factory.hpp:114] Creating layer inception_5b/relu_pool_proj
I0331 19:09:19.178264 136064 net.cpp:160] Creating Layer inception_5b/relu_pool_proj
I0331 19:09:19.178270 136064 net.cpp:596] inception_5b/relu_pool_proj <- inception_5b/pool_proj
I0331 19:09:19.178278 136064 net.cpp:557] inception_5b/relu_pool_proj -> inception_5b/pool_proj (in-place)
I0331 19:09:19.178285 136064 net.cpp:210] Setting up inception_5b/relu_pool_proj
I0331 19:09:19.178290 136064 net.cpp:217] Top shape: 50 128 7 7 (313600)
I0331 19:09:19.178294 136064 net.cpp:225] Memory required for data: 2795387624
I0331 19:09:19.178298 136064 layer_factory.hpp:114] Creating layer inception_5b/output
I0331 19:09:19.178306 136064 net.cpp:160] Creating Layer inception_5b/output
I0331 19:09:19.178311 136064 net.cpp:596] inception_5b/output <- inception_5b/1x1
I0331 19:09:19.178316 136064 net.cpp:596] inception_5b/output <- inception_5b/3x3
I0331 19:09:19.178321 136064 net.cpp:596] inception_5b/output <- inception_5b/5x5
I0331 19:09:19.178328 136064 net.cpp:596] inception_5b/output <- inception_5b/pool_proj
I0331 19:09:19.178336 136064 net.cpp:570] inception_5b/output -> inception_5b/output
I0331 19:09:19.178346 136064 net.cpp:210] Setting up inception_5b/output
I0331 19:09:19.178351 136064 net.cpp:217] Top shape: 50 1024 7 7 (2508800)
I0331 19:09:19.178355 136064 net.cpp:225] Memory required for data: 2805422824
I0331 19:09:19.178359 136064 layer_factory.hpp:114] Creating layer pool5/7x7_s1
I0331 19:09:19.178382 136064 net.cpp:160] Creating Layer pool5/7x7_s1
I0331 19:09:19.178387 136064 net.cpp:596] pool5/7x7_s1 <- inception_5b/output
I0331 19:09:19.178395 136064 net.cpp:570] pool5/7x7_s1 -> pool5/7x7_s1
I0331 19:09:19.178403 136064 net.cpp:210] Setting up pool5/7x7_s1
I0331 19:09:19.178408 136064 net.cpp:217] Top shape: 50 1024 1 1 (51200)
I0331 19:09:19.178412 136064 net.cpp:225] Memory required for data: 2805627624
I0331 19:09:19.178416 136064 layer_factory.hpp:114] Creating layer pool5/drop_7x7_s1
I0331 19:09:19.178426 136064 net.cpp:160] Creating Layer pool5/drop_7x7_s1
I0331 19:09:19.178429 136064 net.cpp:596] pool5/drop_7x7_s1 <- pool5/7x7_s1
I0331 19:09:19.178438 136064 net.cpp:557] pool5/drop_7x7_s1 -> pool5/7x7_s1 (in-place)
I0331 19:09:19.178452 136064 net.cpp:210] Setting up pool5/drop_7x7_s1
I0331 19:09:19.178457 136064 net.cpp:217] Top shape: 50 1024 1 1 (51200)
I0331 19:09:19.178462 136064 net.cpp:225] Memory required for data: 2805832424
I0331 19:09:19.178465 136064 layer_factory.hpp:114] Creating layer loss3/classifier
I0331 19:09:19.178478 136064 net.cpp:160] Creating Layer loss3/classifier
I0331 19:09:19.178481 136064 net.cpp:596] loss3/classifier <- pool5/7x7_s1
I0331 19:09:19.178488 136064 net.cpp:570] loss3/classifier -> loss3/classifier
I0331 19:09:19.188493 136064 net.cpp:210] Setting up loss3/classifier
I0331 19:09:19.188503 136064 net.cpp:217] Top shape: 50 1000 (50000)
I0331 19:09:19.188508 136064 net.cpp:225] Memory required for data: 2806032424
I0331 19:09:19.188514 136064 layer_factory.hpp:114] Creating layer loss3/classifier_loss3/classifier_0_split
I0331 19:09:19.188524 136064 net.cpp:160] Creating Layer loss3/classifier_loss3/classifier_0_split
I0331 19:09:19.188529 136064 net.cpp:596] loss3/classifier_loss3/classifier_0_split <- loss3/classifier
I0331 19:09:19.188534 136064 net.cpp:570] loss3/classifier_loss3/classifier_0_split -> loss3/classifier_loss3/classifier_0_split_0
I0331 19:09:19.188542 136064 net.cpp:570] loss3/classifier_loss3/classifier_0_split -> loss3/classifier_loss3/classifier_0_split_1
I0331 19:09:19.188549 136064 net.cpp:570] loss3/classifier_loss3/classifier_0_split -> loss3/classifier_loss3/classifier_0_split_2
I0331 19:09:19.188558 136064 net.cpp:210] Setting up loss3/classifier_loss3/classifier_0_split
I0331 19:09:19.188563 136064 net.cpp:217] Top shape: 50 1000 (50000)
I0331 19:09:19.188591 136064 net.cpp:217] Top shape: 50 1000 (50000)
I0331 19:09:19.188596 136064 net.cpp:217] Top shape: 50 1000 (50000)
I0331 19:09:19.188598 136064 net.cpp:225] Memory required for data: 2806632424
I0331 19:09:19.188603 136064 layer_factory.hpp:114] Creating layer loss3/loss3
I0331 19:09:19.188613 136064 net.cpp:160] Creating Layer loss3/loss3
I0331 19:09:19.188617 136064 net.cpp:596] loss3/loss3 <- loss3/classifier_loss3/classifier_0_split_0
I0331 19:09:19.188628 136064 net.cpp:596] loss3/loss3 <- label_data_1_split_6
…
