…
I0331 19:06:46.393775 135990 net.cpp:484] The NetState phase (0) differed from the phase (1) specified by a rule in layer loss3/top-5
I0331 19:06:46.398144 135990 net.cpp:120] Initializing net from parameters: 
name: "GoogleNet"
state {
  phase: TRAIN
  level: 0
  stage: ""
}
layer {
  name: "data"
  type: "Data"
  top: "data"
  top: "label"
  include {
    phase: TRAIN
  }
  transform_param {
    mirror: true
    crop_size: 224
    mean_value: 104
    mean_value: 117
    mean_value: 123
  }
  data_param {
    source: "/home/user/LIBRARIES/caffeLibs/caffe/examples/imagenet/ilsvrc12_train_lmdb"
    batch_size: 112
    backend: LMDB
  }
}
layer {
  name: "label_data_1_split"
  type: "Split"
  bottom: "label"
  top: "label_data_1_split_0"
  top: "label_data_1_split_1"
  top: "label_data_1_split_2"
}
layer {
  name: "conv1/7x7_s2"
  type: "Convolution"
  bottom: "data"
  top: "conv1/7x7_s2"
  param {
    lr_mult: 1
    decay_mult: 1
  }
  param {
    lr_mult: 2
    decay_mult: 0
  }
  convolution_param {
    num_output: 64
    pad: 3
    kernel_size: 7
    stride: 2
    weight_filler {
      type: "xavier"
    }
    bias_filler {
      type: "constant"
      value: 0.2
    }
  }
}
layer {
  name: "conv1/relu_7x7"
  type: "ReLU"
  bottom: "conv1/7x7_s2"
  top: "conv1/7x7_s2"
}
layer {
  name: "pool1/3x3_s2"
  type: "Pooling"
  bottom: "conv1/7x7_s2"
  top: "pool1/3x3_s2"
  pooling_param {
    pool: MAX
    kernel_size: 3
    stride: 2
  }
}
layer {
  name: "pool1/norm1"
  type: "LRN"
  bottom: "pool1/3x3_s2"
  top: "pool1/norm1"
  lrn_param {
    local_size: 5
    alpha: 0.0001
    beta: 0.75
  }
}
layer {
  name: "conv2/3x3_reduce"
  type: "Convolution"
  bottom: "pool1/norm1"
  top: "conv2/3x3_reduce"
  param {
    lr_mult: 1
    decay_mult: 1
  }
  param {
    lr_mult: 2
    decay_mult: 0
  }
  convolution_param {
    num_output: 64
    kernel_size: 1
    weight_filler {
      type: "xavier"
    }
    bias_filler {
      type: "constant"
      value: 0.2
    }
  }
}
layer {
  name: "conv2/relu_3x3_reduce"
  type: "ReLU"
  bottom: "conv2/3x3_reduce"
  top: "conv2/3x3_reduce"
}
layer {
  name: "conv2/3x3"
  type: "Convolution"
  bottom: "conv2/3x3_reduce"
  top: "conv2/3x3"
  param {
    lr_mult: 1
    decay_mult: 1
  }
  param {
    lr_mult: 2
    decay_mult: 0
  }
  convolution_param {
    num_output: 192
    pad: 1
    kernel_size: 3
    weight_filler {
      type: "xavier"
    }
    bias_filler {
      type: "constant"
      value: 0.2
    }
  }
}
layer {
  name: "conv2/relu_3x3"
  type: "ReLU"
  bottom: "conv2/3x3"
  top: "conv2/3x3"
}
layer {
  name: "conv2/norm2"
  type: "LRN"
  bottom: "conv2/3x3"
  top: "conv2/norm2"
  lrn_param {
    local_size: 5
    alpha: 0.0001
    beta: 0.75
  }
}
layer {
  name: "pool2/3x3_s2"
  type: "Pooling"
  bottom: "conv2/norm2"
  top: "pool2/3x3_s2"
  pooling_param {
    pool: MAX
    kernel_size: 3
    stride: 2
  }
}
layer {
  name: "pool2/3x3_s2_pool2/3x3_s2_0_split"
  type: "Split"
  bottom: "pool2/3x3_s2"
  top: "pool2/3x3_s2_pool2/3x3_s2_0_split_0"
  top: "pool2/3x3_s2_pool2/3x3_s2_0_split_1"
  top: "pool2/3x3_s2_pool2/3x3_s2_0_split_2"
  top: "pool2/3x3_s2_pool2/3x3_s2_0_split_3"
}
layer {
  name: "inception_3a/1x1"
  type: "Convolution"
  bottom: "pool2/3x3_s2_pool2/3x3_s2_0_split_0"
  top: "inception_3a/1x1"
  param {
    lr_mult: 1
    decay_mult: 1
  }
  param {
    lr_mult: 2
    decay_mult: 0
  }
  convolution_param {
    num_output: 64
    kernel_size: 1
    weight_filler {
      type: "xavier"
    }
    bias_filler {
      type: "constant"
      value: 0.2
    }
  }
}
layer {
  name: "inception_3a/relu_1x1"
  type: "ReLU"
  bottom: "inception_3a/1x1"
  top: "inception_3a/1x1"
}
layer {
  name: "inception_3a/3x3_reduce"
  type: "Convolution"
  bottom: "pool2/3x3_s2_pool2/3x3_s2_0_split_1"
  top: "inception_3a/3x3_reduce"
  param {
    lr_mult: 1
    decay_mult: 1
  }
  param {
    lr_mult: 2
    decay_mult: 0
  }
  convolution_param {
    num_output: 96
    kernel_size: 1
    weight_filler {
      type: "xavier"
    }
    bias_filler {
      type: "constant"
      value: 0.2
    }
  }
}
layer {
  name: "inception_3a/relu_3x3_reduce"
  type: "ReLU"
  bottom: "inception_3a/3x3_reduce"
  top: "inception_3a/3x3_reduce"
}
layer {
  name: "inception_3a/3x3"
  type: "Convolution"
  bottom: "inception_3a/3x3_reduce"
  top: "inception_3a/3x3"
  param {
    lr_mult: 1
    decay_mult: 1
  }
  param {
    lr_mult: 2
    decay_mult: 0
  }
  convolution_param {
    num_output: 128
    pad: 1
    kernel_size: 3
    weight_filler {
      type: "xavier"
    }
    bias_filler {
      type: "constant"
      value: 0.2
    }
  }
}
layer {
  name: "inception_3a/relu_3x3"
  type: "ReLU"
  bottom: "inception_3a/3x3"
  top: "inception_3a/3x3"
}
layer {
  name: "inception_3a/5x5_reduce"
  type: "Convolution"
  bottom: "pool2/3x3_s2_pool2/3x3_s2_0_split_2"
  top: "inception_3a/5x5_reduce"
  param {
    lr_mult: 1
    decay_mult: 1
  }
  param {
    lr_mult: 2
    decay_mult: 0
  }
  convolution_param {
    num_output: 16
    kernel_size: 1
    weight_filler {
      type: "xavier"
    }
    bias_filler {
      type: "constant"
      value: 0.2
    }
  }
}
layer {
  name: "inception_3a/relu_5x5_reduce"
  type: "ReLU"
  bottom: "inception_3a/5x5_reduce"
  top: "inception_3a/5x5_reduce"
}
layer {
  name: "inception_3a/5x5"
  type: "Convolution"
  bottom: "inception_3a/5x5_reduce"
  top: "inception_3a/5x5"
  param {
    lr_mult: 1
    decay_mult: 1
  }
  param {
    lr_mult: 2
    decay_mult: 0
  }
  convolution_param {
    num_output: 32
    pad: 2
    kernel_size: 5
    weight_filler {
      type: "xavier"
    }
    bias_filler {
      type: "constant"
      value: 0.2
    }
  }
}
layer {
  name: "inception_3a/relu_5x5"
  type: "ReLU"
  bottom: "inception_3a/5x5"
  top: "inception_3a/5x5"
}
layer {
  name: "inception_3a/pool"
  type: "Pooling"
  bottom: "pool2/3x3_s2_pool2/3x3_s2_0_split_3"
  top: "inception_3a/pool"
  pooling_param {
    pool: MAX
    kernel_size: 3
    stride: 1
    pad: 1
  }
}
layer {
  name: "inception_3a/pool_proj"
  type: "Convolution"
  bottom: "inception_3a/pool"
  top: "inception_3a/pool_proj"
  param {
    lr_mult: 1
    decay_mult: 1
  }
  param {
    lr_mult: 2
    decay_mult: 0
  }
  convolution_param {
    num_output: 32
    kernel_size: 1
    weight_filler {
      type: "xavier"
    }
    bias_filler {
      type: "constant"
      value: 0.2
    }
  }
}
layer {
  name: "inception_3a/relu_pool_proj"
  type: "ReLU"
  bottom: "inception_3a/pool_proj"
  top: "inception_3a/pool_proj"
}
layer {
  name: "inception_3a/output"
  type: "Concat"
  bottom: "inception_3a/1x1"
  bottom: "inception_3a/3x3"
  bottom: "inception_3a/5x5"
  bottom: "inception_3a/pool_proj"
  top: "inception_3a/output"
}
layer {
  name: "inception_3a/output_inception_3a/output_0_split"
  type: "Split"
  bottom: "inception_3a/output"
  top: "inception_3a/output_inception_3a/output_0_split_0"
  top: "inception_3a/output_inception_3a/output_0_split_1"
  top: "inception_3a/output_inception_3a/output_0_split_2"
  top: "inception_3a/output_inception_3a/output_0_split_3"
}
layer {
  name: "inception_3b/1x1"
  type: "Convolution"
  bottom: "inception_3a/output_inception_3a/output_0_split_0"
  top: "inception_3b/1x1"
  param {
    lr_mult: 1
    decay_mult: 1
  }
  param {
    lr_mult: 2
    decay_mult: 0
  }
  convolution_param {
    num_output: 128
    kernel_size: 1
    weight_filler {
      type: "xavier"
    }
    bias_filler {
      type: "constant"
      value: 0.2
    }
  }
}
layer {
  name: "inception_3b/relu_1x1"
  type: "ReLU"
  bottom: "inception_3b/1x1"
  top: "inception_3b/1x1"
}
layer {
  name: "inception_3b/3x3_reduce"
  type: "Convolution"
  bottom: "inception_3a/output_inception_3a/output_0_split_1"
  top: "inception_3b/3x3_reduce"
  param {
    lr_mult: 1
    decay_mult: 1
  }
  param {
    lr_mult: 2
    decay_mult: 0
  }
  convolution_param {
    num_output: 128
    kernel_size: 1
    weight_filler {
      type: "xavier"
    }
    bias_filler {
      type: "constant"
      value: 0.2
    }
  }
}
layer {
  name: "inception_3b/relu_3x3_reduce"
  type: "ReLU"
  bottom: "inception_3b/3x3_reduce"
  top: "inception_3b/3x3_reduce"
}
layer {
  name: "inception_3b/3x3"
  type: "Convolution"
  bottom: "inception_3b/3x3_reduce"
  top: "inception_3b/3x3"
  param {
    lr_mult: 1
    decay_mult: 1
  }
  param {
    lr_mult: 2
    decay_mult: 0
  }
  convolution_param {
    num_output: 192
    pad: 1
    kernel_size: 3
    weight_filler {
      type: "xavier"
    }
    bias_filler {
      type: "constant"
      value: 0.2
    }
  }
}
layer {
  name: "inception_3b/relu_3x3"
  type: "ReLU"
  bottom: "inception_3b/3x3"
  top: "inception_3b/3x3"
}
layer {
  name: "inception_3b/5x5_reduce"
  type: "Convolution"
  bottom: "inception_3a/output_inception_3a/output_0_split_2"
  top: "inception_3b/5x5_reduce"
  param {
    lr_mult: 1
    decay_mult: 1
  }
  param {
    lr_mult: 2
    decay_mult: 0
  }
  convolution_param {
    num_output: 32
    kernel_size: 1
    weight_filler {
      type: "xavier"
    }
    bias_filler {
      type: "constant"
      value: 0.2
    }
  }
}
layer {
  name: "inception_3b/relu_5x5_reduce"
  type: "ReLU"
  bottom: "inception_3b/5x5_reduce"
  top: "inception_3b/5x5_reduce"
}
layer {
  name: "inception_3b/5x5"
  type: "Convolution"
  bottom: "inception_3b/5x5_reduce"
  top: "inception_3b/5x5"
  param {
    lr_mult: 1
    decay_mult: 1
  }
  param {
    lr_mult: 2
    decay_mult: 0
  }
  convolution_param {
    num_output: 96
    pad: 2
    kernel_size: 5
    weight_filler {
      type: "xavier"
    }
    bias_filler {
      type: "constant"
      value: 0.2
    }
  }
}
layer {
  name: "inception_3b/relu_5x5"
  type: "ReLU"
  bottom: "inception_3b/5x5"
  top: "inception_3b/5x5"
}
layer {
  name: "inception_3b/pool"
  type: "Pooling"
  bottom: "inception_3a/output_inception_3a/output_0_split_3"
  top: "inception_3b/pool"
  pooling_param {
    pool: MAX
    kernel_size: 3
    stride: 1
    pad: 1
  }
}
layer {
  name: "inception_3b/pool_proj"
  type: "Convolution"
  bottom: "inception_3b/pool"
  top: "inception_3b/pool_proj"
  param {
    lr_mult: 1
    decay_mult: 1
  }
  param {
    lr_mult: 2
    decay_mult: 0
  }
  convolution_param {
    num_output: 64
    kernel_size: 1
    weight_filler {
      type: "xavier"
    }
    bias_filler {
      type: "constant"
      value: 0.2
    }
  }
}
layer {
  name: "inception_3b/relu_pool_proj"
  type: "ReLU"
  bottom: "inception_3b/pool_proj"
  top: "inception_3b/pool_proj"
}
layer {
  name: "inception_3b/output"
  type: "Concat"
  bottom: "inception_3b/1x1"
  bottom: "inception_3b/3x3"
  bottom: "inception_3b/5x5"
  bottom: "inception_3b/pool_proj"
  top: "inception_3b/output"
}
layer {
  name: "pool3/3x3_s2"
  type: "Pooling"
  bottom: "inception_3b/output"
  top: "pool3/3x3_s2"
  pooling_param {
    pool: MAX
    kernel_size: 3
    stride: 2
  }
}
layer {
  name: "pool3/3x3_s2_pool3/3x3_s2_0_split"
  type: "Split"
  bottom: "pool3/3x3_s2"
  top: "pool3/3x3_s2_pool3/3x3_s2_0_split_0"
  top: "pool3/3x3_s2_pool3/3x3_s2_0_split_1"
  top: "pool3/3x3_s2_pool3/3x3_s2_0_split_2"
  top: "pool3/3x3_s2_pool3/3x3_s2_0_split_3"
}
layer {
  name: "inception_4a/1x1"
  type: "Convolution"
  bottom: "pool3/3x3_s2_pool3/3x3_s2_0_split_0"
  top: "inception_4a/1x1"
  param {
    lr_mult: 1
    decay_mult: 1
  }
  param {
    lr_mult: 2
    decay_mult: 0
  }
  convolution_param {
    num_output: 192
    kernel_size: 1
    weight_filler {
      type: "xavier"
    }
    bias_filler {
      type: "constant"
      value: 0.2
    }
  }
}
layer {
  name: "inception_4a/relu_1x1"
  type: "ReLU"
  bottom: "inception_4a/1x1"
  top: "inception_4a/1x1"
}
layer {
  name: "inception_4a/3x3_reduce"
  type: "Convolution"
  bottom: "pool3/3x3_s2_pool3/3x3_s2_0_split_1"
  top: "inception_4a/3x3_reduce"
  param {
    lr_mult: 1
    decay_mult: 1
  }
  param {
    lr_mult: 2
    decay_mult: 0
  }
  convolution_param {
    num_output: 96
    kernel_size: 1
    weight_filler {
      type: "xavier"
    }
    bias_filler {
      type: "constant"
      value: 0.2
    }
  }
}
layer {
  name: "inception_4a/relu_3x3_reduce"
  type: "ReLU"
  bottom: "inception_4a/3x3_reduce"
  top: "inception_4a/3x3_reduce"
}
layer {
  name: "inception_4a/3x3"
  type: "Convolution"
  bottom: "inception_4a/3x3_reduce"
  top: "inception_4a/3x3"
  param {
    lr_mult: 1
    decay_mult: 1
  }
  param {
    lr_mult: 2
    decay_mult: 0
  }
  convolution_param {
    num_output: 208
    pad: 1
    kernel_size: 3
    weight_filler {
      type: "xavier"
    }
    bias_filler {
      type: "constant"
      value: 0.2
    }
  }
}
layer {
  name: "inception_4a/relu_3x3"
  type: "ReLU"
  bottom: "inception_4a/3x3"
  top: "inception_4a/3x3"
}
layer {
  name: "inception_4a/5x5_reduce"
  type: "Convolution"
  bottom: "pool3/3x3_s2_pool3/3x3_s2_0_split_2"
  top: "inception_4a/5x5_reduce"
  param {
    lr_mult: 1
    decay_mult: 1
  }
  param {
    lr_mult: 2
    decay_mult: 0
  }
  convolution_param {
    num_output: 16
    kernel_size: 1
    weight_filler {
      type: "xavier"
    }
    bias_filler {
      type: "constant"
      value: 0.2
    }
  }
}
layer {
  name: "inception_4a/relu_5x5_reduce"
  type: "ReLU"
  bottom: "inception_4a/5x5_reduce"
  top: "inception_4a/5x5_reduce"
}
layer {
  name: "inception_4a/5x5"
  type: "Convolution"
  bottom: "inception_4a/5x5_reduce"
  top: "inception_4a/5x5"
  param {
    lr_mult: 1
    decay_mult: 1
  }
  param {
    lr_mult: 2
    decay_mult: 0
  }
  convolution_param {
    num_output: 48
    pad: 2
    kernel_size: 5
    weight_filler {
      type: "xavier"
    }
    bias_filler {
      type: "constant"
      value: 0.2
    }
  }
}
layer {
  name: "inception_4a/relu_5x5"
  type: "ReLU"
  bottom: "inception_4a/5x5"
  top: "inception_4a/5x5"
}
layer {
  name: "inception_4a/pool"
  type: "Pooling"
  bottom: "pool3/3x3_s2_pool3/3x3_s2_0_split_3"
  top: "inception_4a/pool"
  pooling_param {
    pool: MAX
    kernel_size: 3
    stride: 1
    pad: 1
  }
}
layer {
  name: "inception_4a/pool_proj"
  type: "Convolution"
  bottom: "inception_4a/pool"
  top: "inception_4a/pool_proj"
  param {
    lr_mult: 1
    decay_mult: 1
  }
  param {
    lr_mult: 2
    decay_mult: 0
  }
  convolution_param {
    num_output: 64
    kernel_size: 1
    weight_filler {
      type: "xavier"
    }
    bias_filler {
      type: "constant"
      value: 0.2
    }
  }
}
layer {
  name: "inception_4a/relu_pool_proj"
  type: "ReLU"
  bottom: "inception_4a/pool_proj"
  top: "inception_4a/pool_proj"
}
layer {
  name: "inception_4a/output"
  type: "Concat"
  bottom: "inception_4a/1x1"
  bottom: "inception_4a/3x3"
  bottom: "inception_4a/5x5"
  bottom: "inception_4a/pool_proj"
  top: "inception_4a/output"
}
layer {
  name: "inception_4a/output_inception_4a/output_0_split"
  type: "Split"
  bottom: "inception_4a/output"
  top: "inception_4a/output_inception_4a/output_0_split_0"
  top: "inception_4a/output_inception_4a/output_0_split_1"
  top: "inception_4a/output_inception_4a/output_0_split_2"
  top: "inception_4a/output_inception_4a/output_0_split_3"
  top: "inception_4a/output_inception_4a/output_0_split_4"
}
layer {
  name: "loss1/ave_pool"
  type: "Pooling"
  bottom: "inception_4a/output_inception_4a/output_0_split_0"
  top: "loss1/ave_pool"
  pooling_param {
    pool: AVE
    kernel_size: 5
    stride: 3
  }
}
layer {
  name: "loss1/conv"
  type: "Convolution"
  bottom: "loss1/ave_pool"
  top: "loss1/conv"
  param {
    lr_mult: 1
    decay_mult: 1
  }
  param {
    lr_mult: 2
    decay_mult: 0
  }
  convolution_param {
    num_output: 128
    kernel_size: 1
    weight_filler {
      type: "xavier"
    }
    bias_filler {
      type: "constant"
      value: 0.2
    }
  }
}
layer {
  name: "loss1/relu_conv"
  type: "ReLU"
  bottom: "loss1/conv"
  top: "loss1/conv"
}
layer {
  name: "loss1/fc"
  type: "InnerProduct"
  bottom: "loss1/conv"
  top: "loss1/fc"
  param {
    lr_mult: 1
    decay_mult: 1
  }
  param {
    lr_mult: 2
    decay_mult: 0
  }
  inner_product_param {
    num_output: 1024
    weight_filler {
      type: "xavier"
    }
    bias_filler {
      type: "constant"
      value: 0.2
    }
  }
}
layer {
  name: "loss1/relu_fc"
  type: "ReLU"
  bottom: "loss1/fc"
  top: "loss1/fc"
}
layer {
  name: "loss1/drop_fc"
  type: "Dropout"
  bottom: "loss1/fc"
  top: "loss1/fc"
  dropout_param {
    dropout_ratio: 0.7
  }
}
layer {
  name: "loss1/classifier"
  type: "InnerProduct"
  bottom: "loss1/fc"
  top: "loss1/classifier"
  param {
    lr_mult: 1
    decay_mult: 1
  }
  param {
    lr_mult: 2
    decay_mult: 0
  }
  inner_product_param {
    num_output: 1000
    weight_filler {
      type: "xavier"
    }
    bias_filler {
      type: "constant"
      value: 0
    }
  }
}
layer {
  name: "loss1/loss"
  type: "SoftmaxWithLoss"
  bottom: "loss1/classifier"
  bottom: "label_data_1_split_0"
  top: "loss1/loss1"
  loss_weight: 0.3
}
layer {
  name: "inception_4b/1x1"
  type: "Convolution"
  bottom: "inception_4a/output_inception_4a/output_0_split_1"
  top: "inception_4b/1x1"
  param {
    lr_mult: 1
    decay_mult: 1
  }
  param {
    lr_mult: 2
    decay_mult: 0
  }
  convolution_param {
    num_output: 160
    kernel_size: 1
    weight_filler {
      type: "xavier"
    }
    bias_filler {
      type: "constant"
      value: 0.2
    }
  }
}
layer {
  name: "inception_4b/relu_1x1"
  type: "ReLU"
  bottom: "inception_4b/1x1"
  top: "inception_4b/1x1"
}
layer {
  name: "inception_4b/3x3_reduce"
  type: "Convolution"
  bottom: "inception_4a/output_inception_4a/output_0_split_2"
  top: "inception_4b/3x3_reduce"
  param {
    lr_mult: 1
    decay_mult: 1
  }
  param {
    lr_mult: 2
    decay_mult: 0
  }
  convolution_param {
    num_output: 112
    kernel_size: 1
    weight_filler {
      type: "xavier"
    }
    bias_filler {
      type: "constant"
      value: 0.2
    }
  }
}
layer {
  name: "inception_4b/relu_3x3_reduce"
  type: "ReLU"
  bottom: "inception_4b/3x3_reduce"
  top: "inception_4b/3x3_reduce"
}
layer {
  name: "inception_4b/3x3"
  type: "Convolution"
  bottom: "inception_4b/3x3_reduce"
  top: "inception_4b/3x3"
  param {
    lr_mult: 1
    decay_mult: 1
  }
  param {
    lr_mult: 2
    decay_mult: 0
  }
  convolution_param {
    num_output: 224
    pad: 1
    kernel_size: 3
    weight_filler {
      type: "xavier"
    }
    bias_filler {
      type: "constant"
      value: 0.2
    }
  }
}
layer {
  name: "inception_4b/relu_3x3"
  type: "ReLU"
  bottom: "inception_4b/3x3"
  top: "inception_4b/3x3"
}
layer {
  name: "inception_4b/5x5_reduce"
  type: "Convolution"
  bottom: "inception_4a/output_inception_4a/output_0_split_3"
  top: "inception_4b/5x5_reduce"
  param {
    lr_mult: 1
    decay_mult: 1
  }
  param {
    lr_mult: 2
    decay_mult: 0
  }
  convolution_param {
    num_output: 24
    kernel_size: 1
    weight_filler {
      type: "xavier"
    }
    bias_filler {
      type: "constant"
      value: 0.2
    }
  }
}
layer {
  name: "inception_4b/relu_5x5_reduce"
  type: "ReLU"
  bottom: "inception_4b/5x5_reduce"
  top: "inception_4b/5x5_reduce"
}
layer {
  name: "inception_4b/5x5"
  type: "Convolution"
  bottom: "inception_4b/5x5_reduce"
  top: "inception_4b/5x5"
  param {
    lr_mult: 1
    decay_mult: 1
  }
  param {
    lr_mult: 2
    decay_mult: 0
  }
  convolution_param {
    num_output: 64
    pad: 2
    kernel_size: 5
    weight_filler {
      type: "xavier"
    }
    bias_filler {
      type: "constant"
      value: 0.2
    }
  }
}
layer {
  name: "inception_4b/relu_5x5"
  type: "ReLU"
  bottom: "inception_4b/5x5"
  top: "inception_4b/5x5"
}
layer {
  name: "inception_4b/pool"
  type: "Pooling"
  bottom: "inception_4a/output_inception_4a/output_0_split_4"
  top: "inception_4b/pool"
  pooling_param {
    pool: MAX
    kernel_size: 3
    stride: 1
    pad: 1
  }
}
layer {
  name: "inception_4b/pool_proj"
  type: "Convolution"
  bottom: "inception_4b/pool"
  top: "inception_4b/pool_proj"
  param {
    lr_mult: 1
    decay_mult: 1
  }
  param {
    lr_mult: 2
    decay_mult: 0
  }
  convolution_param {
    num_output: 64
    kernel_size: 1
    weight_filler {
      type: "xavier"
    }
    bias_filler {
      type: "constant"
      value: 0.2
    }
  }
}
layer {
  name: "inception_4b/relu_pool_proj"
  type: "ReLU"
  bottom: "inception_4b/pool_proj"
  top: "inception_4b/pool_proj"
}
layer {
  name: "inception_4b/output"
  type: "Concat"
  bottom: "inception_4b/1x1"
  bottom: "inception_4b/3x3"
  bottom: "inception_4b/5x5"
  bottom: "inception_4b/pool_proj"
  top: "inception_4b/output"
}
layer {
  name: "inception_4b/output_inception_4b/output_0_split"
  type: "Split"
  bottom: "inception_4b/output"
  top: "inception_4b/output_inception_4b/output_0_split_0"
  top: "inception_4b/output_inception_4b/output_0_split_1"
  top: "inception_4b/output_inception_4b/output_0_split_2"
  top: "inception_4b/output_inception_4b/output_0_split_3"
}
layer {
  name: "inception_4c/1x1"
  type: "Convolution"
  bottom: "inception_4b/output_inception_4b/output_0_split_0"
  top: "inception_4c/1x1"
  param {
    lr_mult: 1
    decay_mult: 1
  }
  param {
    lr_mult: 2
    decay_mult: 0
  }
  convolution_param {
    num_output: 128
    kernel_size: 1
    weight_filler {
      type: "xavier"
    }
    bias_filler {
      type: "constant"
      value: 0.2
    }
  }
}
layer {
  name: "inception_4c/relu_1x1"
  type: "ReLU"
  bottom: "inception_4c/1x1"
  top: "inception_4c/1x1"
}
layer {
  name: "inception_4c/3x3_reduce"
  type: "Convolution"
  bottom: "inception_4b/output_inception_4b/output_0_split_1"
  top: "inception_4c/3x3_reduce"
  param {
    lr_mult: 1
    decay_mult: 1
  }
  param {
    lr_mult: 2
    decay_mult: 0
  }
  convolution_param {
    num_output: 128
    kernel_size: 1
    weight_filler {
      type: "xavier"
    }
    bias_filler {
      type: "constant"
      value: 0.2
    }
  }
}
layer {
  name: "inception_4c/relu_3x3_reduce"
  type: "ReLU"
  bottom: "inception_4c/3x3_reduce"
  top: "inception_4c/3x3_reduce"
}
layer {
  name: "inception_4c/3x3"
  type: "Convolution"
  bottom: "inception_4c/3x3_reduce"
  top: "inception_4c/3x3"
  param {
    lr_mult: 1
    decay_mult: 1
  }
  param {
    lr_mult: 2
    decay_mult: 0
  }
  convolution_param {
    num_output: 256
    pad: 1
    kernel_size: 3
    weight_filler {
      type: "xavier"
    }
    bias_filler {
      type: "constant"
      value: 0.2
    }
  }
}
layer {
  name: "inception_4c/relu_3x3"
  type: "ReLU"
  bottom: "inception_4c/3x3"
  top: "inception_4c/3x3"
}
layer {
  name: "inception_4c/5x5_reduce"
  type: "Convolution"
  bottom: "inception_4b/output_inception_4b/output_0_split_2"
  top: "inception_4c/5x5_reduce"
  param {
    lr_mult: 1
    decay_mult: 1
  }
  param {
    lr_mult: 2
    decay_mult: 0
  }
  convolution_param {
    num_output: 24
    kernel_size: 1
    weight_filler {
      type: "xavier"
    }
    bias_filler {
      type: "constant"
      value: 0.2
    }
  }
}
layer {
  name: "inception_4c/relu_5x5_reduce"
  type: "ReLU"
  bottom: "inception_4c/5x5_reduce"
  top: "inception_4c/5x5_reduce"
}
layer {
  name: "inception_4c/5x5"
  type: "Convolution"
  bottom: "inception_4c/5x5_reduce"
  top: "inception_4c/5x5"
  param {
    lr_mult: 1
    decay_mult: 1
  }
  param {
    lr_mult: 2
    decay_mult: 0
  }
  convolution_param {
    num_output: 64
    pad: 2
    kernel_size: 5
    weight_filler {
      type: "xavier"
    }
    bias_filler {
      type: "constant"
      value: 0.2
    }
  }
}
layer {
  name: "inception_4c/relu_5x5"
  type: "ReLU"
  bottom: "inception_4c/5x5"
  top: "inception_4c/5x5"
}
layer {
  name: "inception_4c/pool"
  type: "Pooling"
  bottom: "inception_4b/output_inception_4b/output_0_split_3"
  top: "inception_4c/pool"
  pooling_param {
    pool: MAX
    kernel_size: 3
    stride: 1
    pad: 1
  }
}
layer {
  name: "inception_4c/pool_proj"
  type: "Convolution"
  bottom: "inception_4c/pool"
  top: "inception_4c/pool_proj"
  param {
    lr_mult: 1
    decay_mult: 1
  }
  param {
    lr_mult: 2
    decay_mult: 0
  }
  convolution_param {
    num_output: 64
    kernel_size: 1
    weight_filler {
      type: "xavier"
    }
    bias_filler {
      type: "constant"
      value: 0.2
    }
  }
}
layer {
  name: "inception_4c/relu_pool_proj"
  type: "ReLU"
  bottom: "inception_4c/pool_proj"
  top: "inception_4c/pool_proj"
}
layer {
  name: "inception_4c/output"
  type: "Concat"
  bottom: "inception_4c/1x1"
  bottom: "inception_4c/3x3"
  bottom: "inception_4c/5x5"
  bottom: "inception_4c/pool_proj"
  top: "inception_4c/output"
}
layer {
  name: "inception_4c/output_inception_4c/output_0_split"
  type: "Split"
  bottom: "inception_4c/output"
  top: "inception_4c/output_inception_4c/output_0_split_0"
  top: "inception_4c/output_inception_4c/output_0_split_1"
  top: "inception_4c/output_inception_4c/output_0_split_2"
  top: "inception_4c/output_inception_4c/output_0_split_3"
}
layer {
  name: "inception_4d/1x1"
  type: "Convolution"
  bottom: "inception_4c/output_inception_4c/output_0_split_0"
  top: "inception_4d/1x1"
  param {
    lr_mult: 1
    decay_mult: 1
  }
  param {
    lr_mult: 2
    decay_mult: 0
  }
  convolution_param {
    num_output: 112
    kernel_size: 1
    weight_filler {
      type: "xavier"
    }
    bias_filler {
      type: "constant"
      value: 0.2
    }
  }
}
layer {
  name: "inception_4d/relu_1x1"
  type: "ReLU"
  bottom: "inception_4d/1x1"
  top: "inception_4d/1x1"
}
layer {
  name: "inception_4d/3x3_reduce"
  type: "Convolution"
  bottom: "inception_4c/output_inception_4c/output_0_split_1"
  top: "inception_4d/3x3_reduce"
  param {
    lr_mult: 1
    decay_mult: 1
  }
  param {
    lr_mult: 2
    decay_mult: 0
  }
  convolution_param {
    num_output: 144
    kernel_size: 1
    weight_filler {
      type: "xavier"
    }
    bias_filler {
      type: "constant"
      value: 0.2
    }
  }
}
layer {
  name: "inception_4d/relu_3x3_reduce"
  type: "ReLU"
  bottom: "inception_4d/3x3_reduce"
  top: "inception_4d/3x3_reduce"
}
layer {
  name: "inception_4d/3x3"
  type: "Convolution"
  bottom: "inception_4d/3x3_reduce"
  top: "inception_4d/3x3"
  param {
    lr_mult: 1
    decay_mult: 1
  }
  param {
    lr_mult: 2
    decay_mult: 0
  }
  convolution_param {
    num_output: 288
    pad: 1
    kernel_size: 3
    weight_filler {
      type: "xavier"
    }
    bias_filler {
      type: "constant"
      value: 0.2
    }
  }
}
layer {
  name: "inception_4d/relu_3x3"
  type: "ReLU"
  bottom: "inception_4d/3x3"
  top: "inception_4d/3x3"
}
layer {
  name: "inception_4d/5x5_reduce"
  type: "Convolution"
  bottom: "inception_4c/output_inception_4c/output_0_split_2"
  top: "inception_4d/5x5_reduce"
  param {
    lr_mult: 1
    decay_mult: 1
  }
  param {
    lr_mult: 2
    decay_mult: 0
  }
  convolution_param {
    num_output: 32
    kernel_size: 1
    weight_filler {
      type: "xavier"
    }
    bias_filler {
      type: "constant"
      value: 0.2
    }
  }
}
layer {
  name: "inception_4d/relu_5x5_reduce"
  type: "ReLU"
  bottom: "inception_4d/5x5_reduce"
  top: "inception_4d/5x5_reduce"
}
layer {
  name: "inception_4d/5x5"
  type: "Convolution"
  bottom: "inception_4d/5x5_reduce"
  top: "inception_4d/5x5"
  param {
    lr_mult: 1
    decay_mult: 1
  }
  param {
    lr_mult: 2
    decay_mult: 0
  }
  convolution_param {
    num_output: 64
    pad: 2
    kernel_size: 5
    weight_filler {
      type: "xavier"
    }
    bias_filler {
      type: "constant"
      value: 0.2
    }
  }
}
layer {
  name: "inception_4d/relu_5x5"
  type: "ReLU"
  bottom: "inception_4d/5x5"
  top: "inception_4d/5x5"
}
layer {
  name: "inception_4d/pool"
  type: "Pooling"
  bottom: "inception_4c/output_inception_4c/output_0_split_3"
  top: "inception_4d/pool"
  pooling_param {
    pool: MAX
    kernel_size: 3
    stride: 1
    pad: 1
  }
}
layer {
  name: "inception_4d/pool_proj"
  type: "Convolution"
  bottom: "inception_4d/pool"
  top: "inception_4d/pool_proj"
  param {
    lr_mult: 1
    decay_mult: 1
  }
  param {
    lr_mult: 2
    decay_mult: 0
  }
  convolution_param {
    num_output: 64
    kernel_size: 1
    weight_filler {
      type: "xavier"
    }
    bias_filler {
      type: "constant"
      value: 0.2
    }
  }
}
layer {
  name: "inception_4d/relu_pool_proj"
  type: "ReLU"
  bottom: "inception_4d/pool_proj"
  top: "inception_4d/pool_proj"
}
layer {
  name: "inception_4d/output"
  type: "Concat"
  bottom: "inception_4d/1x1"
  bottom: "inception_4d/3x3"
  bottom: "inception_4d/5x5"
  bottom: "inception_4d/pool_proj"
  top: "inception_4d/output"
}
layer {
  name: "inception_4d/output_inception_4d/output_0_split"
  type: "Split"
  bottom: "inception_4d/output"
  top: "inception_4d/output_inception_4d/output_0_split_0"
  top: "inception_4d/output_inception_4d/output_0_split_1"
  top: "inception_4d/output_inception_4d/output_0_split_2"
  top: "inception_4d/output_inception_4d/output_0_split_3"
  top: "inception_4d/output_inception_4d/output_0_split_4"
}
layer {
  name: "loss2/ave_pool"
  type: "Pooling"
  bottom: "inception_4d/output_inception_4d/output_0_split_0"
  top: "loss2/ave_pool"
  pooling_param {
    pool: AVE
    kernel_size: 5
    stride: 3
  }
}
layer {
  name: "loss2/conv"
  type: "Convolution"
  bottom: "loss2/ave_pool"
  top: "loss2/conv"
  param {
    lr_mult: 1
    decay_mult: 1
  }
  param {
    lr_mult: 2
    decay_mult: 0
  }
  convolution_param {
    num_output: 128
    kernel_size: 1
    weight_filler {
      type: "xavier"
    }
    bias_filler {
      type: "constant"
      value: 0.2
    }
  }
}
layer {
  name: "loss2/relu_conv"
  type: "ReLU"
  bottom: "loss2/conv"
  top: "loss2/conv"
}
layer {
  name: "loss2/fc"
  type: "InnerProduct"
  bottom: "loss2/conv"
  top: "loss2/fc"
  param {
    lr_mult: 1
    decay_mult: 1
  }
  param {
    lr_mult: 2
    decay_mult: 0
  }
  inner_product_param {
    num_output: 1024
    weight_filler {
      type: "xavier"
    }
    bias_filler {
      type: "constant"
      value: 0.2
    }
  }
}
layer {
  name: "loss2/relu_fc"
  type: "ReLU"
  bottom: "loss2/fc"
  top: "loss2/fc"
}
layer {
  name: "l
I0331 19:06:46.398283 135990 layer_factory.hpp:114] Creating layer data
I0331 19:06:46.398934 135990 net.cpp:160] Creating Layer data
I0331 19:06:46.398967 135990 net.cpp:570] data -> data
I0331 19:06:46.398993 135990 net.cpp:570] data -> label
I0331 19:06:46.399101 135991 db_lmdb.cpp:72] Opened lmdb /home/user/LIBRARIES/caffeLibs/caffe/examples/imagenet/ilsvrc12_train_lmdb
I0331 19:06:46.399595 135990 data_layer.cpp:80] output data size: 112,3,224,224
I0331 19:06:46.473899 135990 net.cpp:210] Setting up data
I0331 19:06:46.473987 135990 net.cpp:217] Top shape: 112 3 224 224 (16859136)
I0331 19:06:46.474035 135990 net.cpp:217] Top shape: 112 (112)
I0331 19:06:46.474043 135990 net.cpp:225] Memory required for data: 67436992
I0331 19:06:46.474058 135990 layer_factory.hpp:114] Creating layer label_data_1_split
I0331 19:06:46.474094 135990 net.cpp:160] Creating Layer label_data_1_split
I0331 19:06:46.474107 135990 net.cpp:596] label_data_1_split <- label
I0331 19:06:46.474124 135990 net.cpp:570] label_data_1_split -> label_data_1_split_0
I0331 19:06:46.474145 135990 net.cpp:570] label_data_1_split -> label_data_1_split_1
I0331 19:06:46.474159 135990 net.cpp:570] label_data_1_split -> label_data_1_split_2
I0331 19:06:46.474185 135990 net.cpp:210] Setting up label_data_1_split
I0331 19:06:46.474197 135990 net.cpp:217] Top shape: 112 (112)
I0331 19:06:46.474206 135990 net.cpp:217] Top shape: 112 (112)
I0331 19:06:46.474216 135990 net.cpp:217] Top shape: 112 (112)
I0331 19:06:46.474222 135990 net.cpp:225] Memory required for data: 67438336
I0331 19:06:46.474231 135990 layer_factory.hpp:114] Creating layer conv1/7x7_s2
I0331 19:06:46.474268 135990 net.cpp:160] Creating Layer conv1/7x7_s2
I0331 19:06:46.474277 135990 net.cpp:596] conv1/7x7_s2 <- data
I0331 19:06:46.474290 135990 net.cpp:570] conv1/7x7_s2 -> conv1/7x7_s2
OMP: Info #242: KMP_AFFINITY: pid 135990 thread 1 bound to OS proc set {4,60}
…
OMP: Info #242: KMP_AFFINITY: pid 135990 thread 7 bound to OS proc set {28,84}
OMP: Info #242: KMP_AFFINITY: pid 135990 thread 8 bound to OS proc set {32,88}
OMP: Info #242: KMP_AFFINITY: pid 135990 thread 9 bound to OS proc set {36,92}
OMP: Info #242: KMP_AFFINITY: pid 135990 thread 10 bound to OS proc set {40,96}
OMP: Info #242: KMP_AFFINITY: pid 135990 thread 11 bound to OS proc set {44,100}
OMP: Info #242: KMP_AFFINITY: pid 135990 thread 12 bound to OS proc set {48,104}
OMP: Info #242: KMP_AFFINITY: pid 135990 thread 13 bound to OS proc set {52,108}
I0331 19:06:46.513510 135990 net.cpp:210] Setting up conv1/7x7_s2
I0331 19:06:46.513592 135990 net.cpp:217] Top shape: 112 64 112 112 (89915392)
I0331 19:06:46.513600 135990 net.cpp:225] Memory required for data: 427099904
I0331 19:06:46.513648 135990 layer_factory.hpp:114] Creating layer conv1/relu_7x7
I0331 19:06:46.513677 135990 net.cpp:160] Creating Layer conv1/relu_7x7
I0331 19:06:46.513689 135990 net.cpp:596] conv1/relu_7x7 <- conv1/7x7_s2
I0331 19:06:46.513705 135990 net.cpp:557] conv1/relu_7x7 -> conv1/7x7_s2 (in-place)
I0331 19:06:46.513727 135990 net.cpp:210] Setting up conv1/relu_7x7
I0331 19:06:46.513738 135990 net.cpp:217] Top shape: 112 64 112 112 (89915392)
I0331 19:06:46.513746 135990 net.cpp:225] Memory required for data: 786761472
I0331 19:06:46.513753 135990 layer_factory.hpp:114] Creating layer pool1/3x3_s2
I0331 19:06:46.513864 135990 net.cpp:160] Creating Layer pool1/3x3_s2
I0331 19:06:46.513875 135990 net.cpp:596] pool1/3x3_s2 <- conv1/7x7_s2
I0331 19:06:46.513890 135990 net.cpp:570] pool1/3x3_s2 -> pool1/3x3_s2
I0331 19:06:46.513916 135990 net.cpp:210] Setting up pool1/3x3_s2
I0331 19:06:46.513926 135990 net.cpp:217] Top shape: 112 64 56 56 (22478848)
I0331 19:06:46.513932 135990 net.cpp:225] Memory required for data: 876676864
I0331 19:06:46.513941 135990 layer_factory.hpp:114] Creating layer pool1/norm1
I0331 19:06:46.513954 135990 net.cpp:160] Creating Layer pool1/norm1
I0331 19:06:46.513963 135990 net.cpp:596] pool1/norm1 <- pool1/3x3_s2
I0331 19:06:46.513978 135990 net.cpp:570] pool1/norm1 -> pool1/norm1
I0331 19:06:46.513999 135990 net.cpp:210] Setting up pool1/norm1
I0331 19:06:46.514009 135990 net.cpp:217] Top shape: 112 64 56 56 (22478848)
I0331 19:06:46.514016 135990 net.cpp:225] Memory required for data: 966592256
I0331 19:06:46.514024 135990 layer_factory.hpp:114] Creating layer conv2/3x3_reduce
I0331 19:06:46.514048 135990 net.cpp:160] Creating Layer conv2/3x3_reduce
I0331 19:06:46.514057 135990 net.cpp:596] conv2/3x3_reduce <- pool1/norm1
I0331 19:06:46.514072 135990 net.cpp:570] conv2/3x3_reduce -> conv2/3x3_reduce
I0331 19:06:46.519723 135990 net.cpp:210] Setting up conv2/3x3_reduce
I0331 19:06:46.519745 135990 net.cpp:217] Top shape: 112 64 56 56 (22478848)
I0331 19:06:46.519752 135990 net.cpp:225] Memory required for data: 1056507648
I0331 19:06:46.519770 135990 layer_factory.hpp:114] Creating layer conv2/relu_3x3_reduce
I0331 19:06:46.519788 135990 net.cpp:160] Creating Layer conv2/relu_3x3_reduce
I0331 19:06:46.519796 135990 net.cpp:596] conv2/relu_3x3_reduce <- conv2/3x3_reduce
I0331 19:06:46.519805 135990 net.cpp:557] conv2/relu_3x3_reduce -> conv2/3x3_reduce (in-place)
I0331 19:06:46.519821 135990 net.cpp:210] Setting up conv2/relu_3x3_reduce
I0331 19:06:46.519830 135990 net.cpp:217] Top shape: 112 64 56 56 (22478848)
I0331 19:06:46.519836 135990 net.cpp:225] Memory required for data: 1146423040
I0331 19:06:46.519879 135990 layer_factory.hpp:114] Creating layer conv2/3x3
I0331 19:06:46.519897 135990 net.cpp:160] Creating Layer conv2/3x3
I0331 19:06:46.519913 135990 net.cpp:596] conv2/3x3 <- conv2/3x3_reduce
I0331 19:06:46.519934 135990 net.cpp:570] conv2/3x3 -> conv2/3x3
I0331 19:06:46.562191 135990 net.cpp:210] Setting up conv2/3x3
I0331 19:06:46.562263 135990 net.cpp:217] Top shape: 112 192 56 56 (67436544)
I0331 19:06:46.562273 135990 net.cpp:225] Memory required for data: 1416169216
I0331 19:06:46.562306 135990 layer_factory.hpp:114] Creating layer conv2/relu_3x3
I0331 19:06:46.562328 135990 net.cpp:160] Creating Layer conv2/relu_3x3
I0331 19:06:46.562340 135990 net.cpp:596] conv2/relu_3x3 <- conv2/3x3
I0331 19:06:46.562357 135990 net.cpp:557] conv2/relu_3x3 -> conv2/3x3 (in-place)
I0331 19:06:46.562376 135990 net.cpp:210] Setting up conv2/relu_3x3
I0331 19:06:46.562387 135990 net.cpp:217] Top shape: 112 192 56 56 (67436544)
I0331 19:06:46.562393 135990 net.cpp:225] Memory required for data: 1685915392
I0331 19:06:46.562400 135990 layer_factory.hpp:114] Creating layer conv2/norm2
I0331 19:06:46.562414 135990 net.cpp:160] Creating Layer conv2/norm2
I0331 19:06:46.562422 135990 net.cpp:596] conv2/norm2 <- conv2/3x3
I0331 19:06:46.562433 135990 net.cpp:570] conv2/norm2 -> conv2/norm2
I0331 19:06:46.562458 135990 net.cpp:210] Setting up conv2/norm2
I0331 19:06:46.562467 135990 net.cpp:217] Top shape: 112 192 56 56 (67436544)
I0331 19:06:46.562474 135990 net.cpp:225] Memory required for data: 1955661568
I0331 19:06:46.562481 135990 layer_factory.hpp:114] Creating layer pool2/3x3_s2
I0331 19:06:46.562546 135990 net.cpp:160] Creating Layer pool2/3x3_s2
I0331 19:06:46.562556 135990 net.cpp:596] pool2/3x3_s2 <- conv2/norm2
I0331 19:06:46.562569 135990 net.cpp:570] pool2/3x3_s2 -> pool2/3x3_s2
I0331 19:06:46.562588 135990 net.cpp:210] Setting up pool2/3x3_s2
I0331 19:06:46.562599 135990 net.cpp:217] Top shape: 112 192 28 28 (16859136)
I0331 19:06:46.562607 135990 net.cpp:225] Memory required for data: 2023098112
I0331 19:06:46.562615 135990 layer_factory.hpp:114] Creating layer pool2/3x3_s2_pool2/3x3_s2_0_split
I0331 19:06:46.562634 135990 net.cpp:160] Creating Layer pool2/3x3_s2_pool2/3x3_s2_0_split
I0331 19:06:46.562646 135990 net.cpp:596] pool2/3x3_s2_pool2/3x3_s2_0_split <- pool2/3x3_s2
I0331 19:06:46.562659 135990 net.cpp:570] pool2/3x3_s2_pool2/3x3_s2_0_split -> pool2/3x3_s2_pool2/3x3_s2_0_split_0
I0331 19:06:46.562674 135990 net.cpp:570] pool2/3x3_s2_pool2/3x3_s2_0_split -> pool2/3x3_s2_pool2/3x3_s2_0_split_1
I0331 19:06:46.562687 135990 net.cpp:570] pool2/3x3_s2_pool2/3x3_s2_0_split -> pool2/3x3_s2_pool2/3x3_s2_0_split_2
I0331 19:06:46.562700 135990 net.cpp:570] pool2/3x3_s2_pool2/3x3_s2_0_split -> pool2/3x3_s2_pool2/3x3_s2_0_split_3
I0331 19:06:46.562724 135990 net.cpp:210] Setting up pool2/3x3_s2_pool2/3x3_s2_0_split
I0331 19:06:46.562736 135990 net.cpp:217] Top shape: 112 192 28 28 (16859136)
I0331 19:06:46.562744 135990 net.cpp:217] Top shape: 112 192 28 28 (16859136)
I0331 19:06:46.562754 135990 net.cpp:217] Top shape: 112 192 28 28 (16859136)
I0331 19:06:46.562763 135990 net.cpp:217] Top shape: 112 192 28 28 (16859136)
I0331 19:06:46.562770 135990 net.cpp:225] Memory required for data: 2292844288
I0331 19:06:46.562778 135990 layer_factory.hpp:114] Creating layer inception_3a/1x1
I0331 19:06:46.562798 135990 net.cpp:160] Creating Layer inception_3a/1x1
I0331 19:06:46.562805 135990 net.cpp:596] inception_3a/1x1 <- pool2/3x3_s2_pool2/3x3_s2_0_split_0
I0331 19:06:46.562819 135990 net.cpp:570] inception_3a/1x1 -> inception_3a/1x1
I0331 19:06:46.567611 135990 net.cpp:210] Setting up inception_3a/1x1
I0331 19:06:46.567637 135990 net.cpp:217] Top shape: 112 64 28 28 (5619712)
I0331 19:06:46.567647 135990 net.cpp:225] Memory required for data: 2315323136
I0331 19:06:46.567662 135990 layer_factory.hpp:114] Creating layer inception_3a/relu_1x1
I0331 19:06:46.567677 135990 net.cpp:160] Creating Layer inception_3a/relu_1x1
I0331 19:06:46.567687 135990 net.cpp:596] inception_3a/relu_1x1 <- inception_3a/1x1
I0331 19:06:46.567731 135990 net.cpp:557] inception_3a/relu_1x1 -> inception_3a/1x1 (in-place)
I0331 19:06:46.567744 135990 net.cpp:210] Setting up inception_3a/relu_1x1
I0331 19:06:46.567761 135990 net.cpp:217] Top shape: 112 64 28 28 (5619712)
I0331 19:06:46.567769 135990 net.cpp:225] Memory required for data: 2337801984
I0331 19:06:46.567775 135990 layer_factory.hpp:114] Creating layer inception_3a/3x3_reduce
I0331 19:06:46.567793 135990 net.cpp:160] Creating Layer inception_3a/3x3_reduce
I0331 19:06:46.567801 135990 net.cpp:596] inception_3a/3x3_reduce <- pool2/3x3_s2_pool2/3x3_s2_0_split_1
I0331 19:06:46.567816 135990 net.cpp:570] inception_3a/3x3_reduce -> inception_3a/3x3_reduce
I0331 19:06:46.572994 135990 net.cpp:210] Setting up inception_3a/3x3_reduce
I0331 19:06:46.573015 135990 net.cpp:217] Top shape: 112 96 28 28 (8429568)
I0331 19:06:46.573024 135990 net.cpp:225] Memory required for data: 2371520256
I0331 19:06:46.573040 135990 layer_factory.hpp:114] Creating layer inception_3a/relu_3x3_reduce
I0331 19:06:46.573057 135990 net.cpp:160] Creating Layer inception_3a/relu_3x3_reduce
I0331 19:06:46.573065 135990 net.cpp:596] inception_3a/relu_3x3_reduce <- inception_3a/3x3_reduce
I0331 19:06:46.573078 135990 net.cpp:557] inception_3a/relu_3x3_reduce -> inception_3a/3x3_reduce (in-place)
I0331 19:06:46.573091 135990 net.cpp:210] Setting up inception_3a/relu_3x3_reduce
I0331 19:06:46.573101 135990 net.cpp:217] Top shape: 112 96 28 28 (8429568)
I0331 19:06:46.573107 135990 net.cpp:225] Memory required for data: 2405238528
I0331 19:06:46.573114 135990 layer_factory.hpp:114] Creating layer inception_3a/3x3
I0331 19:06:46.573129 135990 net.cpp:160] Creating Layer inception_3a/3x3
I0331 19:06:46.573137 135990 net.cpp:596] inception_3a/3x3 <- inception_3a/3x3_reduce
I0331 19:06:46.573153 135990 net.cpp:570] inception_3a/3x3 -> inception_3a/3x3
I0331 19:06:46.592761 135990 net.cpp:210] Setting up inception_3a/3x3
I0331 19:06:46.592828 135990 net.cpp:217] Top shape: 112 128 28 28 (11239424)
I0331 19:06:46.592835 135990 net.cpp:225] Memory required for data: 2450196224
I0331 19:06:46.592857 135990 layer_factory.hpp:114] Creating layer inception_3a/relu_3x3
I0331 19:06:46.592880 135990 net.cpp:160] Creating Layer inception_3a/relu_3x3
I0331 19:06:46.592892 135990 net.cpp:596] inception_3a/relu_3x3 <- inception_3a/3x3
I0331 19:06:46.592908 135990 net.cpp:557] inception_3a/relu_3x3 -> inception_3a/3x3 (in-place)
I0331 19:06:46.592926 135990 net.cpp:210] Setting up inception_3a/relu_3x3
I0331 19:06:46.592936 135990 net.cpp:217] Top shape: 112 128 28 28 (11239424)
I0331 19:06:46.592942 135990 net.cpp:225] Memory required for data: 2495153920
I0331 19:06:46.592950 135990 layer_factory.hpp:114] Creating layer inception_3a/5x5_reduce
I0331 19:06:46.592981 135990 net.cpp:160] Creating Layer inception_3a/5x5_reduce
I0331 19:06:46.592990 135990 net.cpp:596] inception_3a/5x5_reduce <- pool2/3x3_s2_pool2/3x3_s2_0_split_2
I0331 19:06:46.593003 135990 net.cpp:570] inception_3a/5x5_reduce -> inception_3a/5x5_reduce
I0331 19:06:46.597244 135990 net.cpp:210] Setting up inception_3a/5x5_reduce
I0331 19:06:46.597266 135990 net.cpp:217] Top shape: 112 16 28 28 (1404928)
I0331 19:06:46.597275 135990 net.cpp:225] Memory required for data: 2500773632
I0331 19:06:46.597287 135990 layer_factory.hpp:114] Creating layer inception_3a/relu_5x5_reduce
I0331 19:06:46.597301 135990 net.cpp:160] Creating Layer inception_3a/relu_5x5_reduce
I0331 19:06:46.597308 135990 net.cpp:596] inception_3a/relu_5x5_reduce <- inception_3a/5x5_reduce
I0331 19:06:46.597318 135990 net.cpp:557] inception_3a/relu_5x5_reduce -> inception_3a/5x5_reduce (in-place)
I0331 19:06:46.597332 135990 net.cpp:210] Setting up inception_3a/relu_5x5_reduce
I0331 19:06:46.597342 135990 net.cpp:217] Top shape: 112 16 28 28 (1404928)
I0331 19:06:46.597348 135990 net.cpp:225] Memory required for data: 2506393344
I0331 19:06:46.597355 135990 layer_factory.hpp:114] Creating layer inception_3a/5x5
I0331 19:06:46.597374 135990 net.cpp:160] Creating Layer inception_3a/5x5
I0331 19:06:46.597416 135990 net.cpp:596] inception_3a/5x5 <- inception_3a/5x5_reduce
I0331 19:06:46.597431 135990 net.cpp:570] inception_3a/5x5 -> inception_3a/5x5
I0331 19:06:46.605826 135990 net.cpp:210] Setting up inception_3a/5x5
I0331 19:06:46.605854 135990 net.cpp:217] Top shape: 112 32 28 28 (2809856)
I0331 19:06:46.605862 135990 net.cpp:225] Memory required for data: 2517632768
I0331 19:06:46.605876 135990 layer_factory.hpp:114] Creating layer inception_3a/relu_5x5
I0331 19:06:46.605892 135990 net.cpp:160] Creating Layer inception_3a/relu_5x5
I0331 19:06:46.605901 135990 net.cpp:596] inception_3a/relu_5x5 <- inception_3a/5x5
I0331 19:06:46.605911 135990 net.cpp:557] inception_3a/relu_5x5 -> inception_3a/5x5 (in-place)
I0331 19:06:46.605922 135990 net.cpp:210] Setting up inception_3a/relu_5x5
I0331 19:06:46.605932 135990 net.cpp:217] Top shape: 112 32 28 28 (2809856)
I0331 19:06:46.605939 135990 net.cpp:225] Memory required for data: 2528872192
I0331 19:06:46.605945 135990 layer_factory.hpp:114] Creating layer inception_3a/pool
I0331 19:06:46.606001 135990 net.cpp:160] Creating Layer inception_3a/pool
I0331 19:06:46.606014 135990 net.cpp:596] inception_3a/pool <- pool2/3x3_s2_pool2/3x3_s2_0_split_3
I0331 19:06:46.606029 135990 net.cpp:570] inception_3a/pool -> inception_3a/pool
I0331 19:06:46.606048 135990 net.cpp:210] Setting up inception_3a/pool
I0331 19:06:46.606060 135990 net.cpp:217] Top shape: 112 192 28 28 (16859136)
I0331 19:06:46.606066 135990 net.cpp:225] Memory required for data: 2596308736
I0331 19:06:46.606073 135990 layer_factory.hpp:114] Creating layer inception_3a/pool_proj
I0331 19:06:46.606091 135990 net.cpp:160] Creating Layer inception_3a/pool_proj
I0331 19:06:46.606099 135990 net.cpp:596] inception_3a/pool_proj <- inception_3a/pool
I0331 19:06:46.606115 135990 net.cpp:570] inception_3a/pool_proj -> inception_3a/pool_proj
I0331 19:06:46.610519 135990 net.cpp:210] Setting up inception_3a/pool_proj
I0331 19:06:46.610541 135990 net.cpp:217] Top shape: 112 32 28 28 (2809856)
I0331 19:06:46.610548 135990 net.cpp:225] Memory required for data: 2607548160
I0331 19:06:46.610574 135990 layer_factory.hpp:114] Creating layer inception_3a/relu_pool_proj
I0331 19:06:46.610586 135990 net.cpp:160] Creating Layer inception_3a/relu_pool_proj
I0331 19:06:46.610594 135990 net.cpp:596] inception_3a/relu_pool_proj <- inception_3a/pool_proj
I0331 19:06:46.610605 135990 net.cpp:557] inception_3a/relu_pool_proj -> inception_3a/pool_proj (in-place)
I0331 19:06:46.610616 135990 net.cpp:210] Setting up inception_3a/relu_pool_proj
I0331 19:06:46.610630 135990 net.cpp:217] Top shape: 112 32 28 28 (2809856)
I0331 19:06:46.610640 135990 net.cpp:225] Memory required for data: 2618787584
I0331 19:06:46.610646 135990 layer_factory.hpp:114] Creating layer inception_3a/output
I0331 19:06:46.610661 135990 net.cpp:160] Creating Layer inception_3a/output
I0331 19:06:46.610669 135990 net.cpp:596] inception_3a/output <- inception_3a/1x1
I0331 19:06:46.610679 135990 net.cpp:596] inception_3a/output <- inception_3a/3x3
I0331 19:06:46.610688 135990 net.cpp:596] inception_3a/output <- inception_3a/5x5
I0331 19:06:46.610697 135990 net.cpp:596] inception_3a/output <- inception_3a/pool_proj
I0331 19:06:46.610707 135990 net.cpp:570] inception_3a/output -> inception_3a/output
I0331 19:06:46.610730 135990 net.cpp:210] Setting up inception_3a/output
I0331 19:06:46.610741 135990 net.cpp:217] Top shape: 112 256 28 28 (22478848)
I0331 19:06:46.610749 135990 net.cpp:225] Memory required for data: 2708702976
I0331 19:06:46.610756 135990 layer_factory.hpp:114] Creating layer inception_3a/output_inception_3a/output_0_split
I0331 19:06:46.610772 135990 net.cpp:160] Creating Layer inception_3a/output_inception_3a/output_0_split
I0331 19:06:46.610781 135990 net.cpp:596] inception_3a/output_inception_3a/output_0_split <- inception_3a/output
I0331 19:06:46.610791 135990 net.cpp:570] inception_3a/output_inception_3a/output_0_split -> inception_3a/output_inception_3a/output_0_split_0
I0331 19:06:46.610805 135990 net.cpp:570] inception_3a/output_inception_3a/output_0_split -> inception_3a/output_inception_3a/output_0_split_1
I0331 19:06:46.610844 135990 net.cpp:570] inception_3a/output_inception_3a/output_0_split -> inception_3a/output_inception_3a/output_0_split_2
I0331 19:06:46.610863 135990 net.cpp:570] inception_3a/output_inception_3a/output_0_split -> inception_3a/output_inception_3a/output_0_split_3
I0331 19:06:46.610877 135990 net.cpp:210] Setting up inception_3a/output_inception_3a/output_0_split
I0331 19:06:46.610893 135990 net.cpp:217] Top shape: 112 256 28 28 (22478848)
I0331 19:06:46.610903 135990 net.cpp:217] Top shape: 112 256 28 28 (22478848)
I0331 19:06:46.610911 135990 net.cpp:217] Top shape: 112 256 28 28 (22478848)
I0331 19:06:46.610920 135990 net.cpp:217] Top shape: 112 256 28 28 (22478848)
I0331 19:06:46.610927 135990 net.cpp:225] Memory required for data: 3068364544
I0331 19:06:46.610934 135990 layer_factory.hpp:114] Creating layer inception_3b/1x1
I0331 19:06:46.610952 135990 net.cpp:160] Creating Layer inception_3b/1x1
I0331 19:06:46.610960 135990 net.cpp:596] inception_3b/1x1 <- inception_3a/output_inception_3a/output_0_split_0
I0331 19:06:46.610972 135990 net.cpp:570] inception_3b/1x1 -> inception_3b/1x1
I0331 19:06:46.617408 135990 net.cpp:210] Setting up inception_3b/1x1
I0331 19:06:46.617432 135990 net.cpp:217] Top shape: 112 128 28 28 (11239424)
I0331 19:06:46.617439 135990 net.cpp:225] Memory required for data: 3113322240
I0331 19:06:46.617453 135990 layer_factory.hpp:114] Creating layer inception_3b/relu_1x1
I0331 19:06:46.617465 135990 net.cpp:160] Creating Layer inception_3b/relu_1x1
I0331 19:06:46.617473 135990 net.cpp:596] inception_3b/relu_1x1 <- inception_3b/1x1
I0331 19:06:46.617487 135990 net.cpp:557] inception_3b/relu_1x1 -> inception_3b/1x1 (in-place)
I0331 19:06:46.617499 135990 net.cpp:210] Setting up inception_3b/relu_1x1
I0331 19:06:46.617508 135990 net.cpp:217] Top shape: 112 128 28 28 (11239424)
I0331 19:06:46.617514 135990 net.cpp:225] Memory required for data: 3158279936
I0331 19:06:46.617522 135990 layer_factory.hpp:114] Creating layer inception_3b/3x3_reduce
I0331 19:06:46.617539 135990 net.cpp:160] Creating Layer inception_3b/3x3_reduce
I0331 19:06:46.617547 135990 net.cpp:596] inception_3b/3x3_reduce <- inception_3a/output_inception_3a/output_0_split_1
I0331 19:06:46.617560 135990 net.cpp:570] inception_3b/3x3_reduce -> inception_3b/3x3_reduce
I0331 19:06:46.624951 135990 net.cpp:210] Setting up inception_3b/3x3_reduce
I0331 19:06:46.624974 135990 net.cpp:217] Top shape: 112 128 28 28 (11239424)
I0331 19:06:46.624982 135990 net.cpp:225] Memory required for data: 3203237632
I0331 19:06:46.624996 135990 layer_factory.hpp:114] Creating layer inception_3b/relu_3x3_reduce
I0331 19:06:46.625008 135990 net.cpp:160] Creating Layer inception_3b/relu_3x3_reduce
I0331 19:06:46.625018 135990 net.cpp:596] inception_3b/relu_3x3_reduce <- inception_3b/3x3_reduce
I0331 19:06:46.625032 135990 net.cpp:557] inception_3b/relu_3x3_reduce -> inception_3b/3x3_reduce (in-place)
I0331 19:06:46.625046 135990 net.cpp:210] Setting up inception_3b/relu_3x3_reduce
I0331 19:06:46.625056 135990 net.cpp:217] Top shape: 112 128 28 28 (11239424)
I0331 19:06:46.625062 135990 net.cpp:225] Memory required for data: 3248195328
I0331 19:06:46.625071 135990 layer_factory.hpp:114] Creating layer inception_3b/3x3
I0331 19:06:46.625093 135990 net.cpp:160] Creating Layer inception_3b/3x3
I0331 19:06:46.625102 135990 net.cpp:596] inception_3b/3x3 <- inception_3b/3x3_reduce
I0331 19:06:46.625113 135990 net.cpp:570] inception_3b/3x3 -> inception_3b/3x3
I0331 19:06:46.651145 135990 net.cpp:210] Setting up inception_3b/3x3
I0331 19:06:46.651196 135990 net.cpp:217] Top shape: 112 192 28 28 (16859136)
I0331 19:06:46.651201 135990 net.cpp:225] Memory required for data: 3315631872
I0331 19:06:46.651216 135990 layer_factory.hpp:114] Creating layer inception_3b/relu_3x3
I0331 19:06:46.651231 135990 net.cpp:160] Creating Layer inception_3b/relu_3x3
I0331 19:06:46.651238 135990 net.cpp:596] inception_3b/relu_3x3 <- inception_3b/3x3
I0331 19:06:46.651249 135990 net.cpp:557] inception_3b/relu_3x3 -> inception_3b/3x3 (in-place)
I0331 19:06:46.651301 135990 net.cpp:210] Setting up inception_3b/relu_3x3
I0331 19:06:46.651307 135990 net.cpp:217] Top shape: 112 192 28 28 (16859136)
I0331 19:06:46.651316 135990 net.cpp:225] Memory required for data: 3383068416
I0331 19:06:46.651320 135990 layer_factory.hpp:114] Creating layer inception_3b/5x5_reduce
I0331 19:06:46.651335 135990 net.cpp:160] Creating Layer inception_3b/5x5_reduce
I0331 19:06:46.651340 135990 net.cpp:596] inception_3b/5x5_reduce <- inception_3a/output_inception_3a/output_0_split_2
I0331 19:06:46.651348 135990 net.cpp:570] inception_3b/5x5_reduce -> inception_3b/5x5_reduce
I0331 19:06:46.655977 135990 net.cpp:210] Setting up inception_3b/5x5_reduce
I0331 19:06:46.655992 135990 net.cpp:217] Top shape: 112 32 28 28 (2809856)
I0331 19:06:46.655997 135990 net.cpp:225] Memory required for data: 3394307840
I0331 19:06:46.656003 135990 layer_factory.hpp:114] Creating layer inception_3b/relu_5x5_reduce
I0331 19:06:46.656011 135990 net.cpp:160] Creating Layer inception_3b/relu_5x5_reduce
I0331 19:06:46.656016 135990 net.cpp:596] inception_3b/relu_5x5_reduce <- inception_3b/5x5_reduce
I0331 19:06:46.656023 135990 net.cpp:557] inception_3b/relu_5x5_reduce -> inception_3b/5x5_reduce (in-place)
I0331 19:06:46.656029 135990 net.cpp:210] Setting up inception_3b/relu_5x5_reduce
I0331 19:06:46.656035 135990 net.cpp:217] Top shape: 112 32 28 28 (2809856)
I0331 19:06:46.656039 135990 net.cpp:225] Memory required for data: 3405547264
I0331 19:06:46.656044 135990 layer_factory.hpp:114] Creating layer inception_3b/5x5
I0331 19:06:46.656054 135990 net.cpp:160] Creating Layer inception_3b/5x5
I0331 19:06:46.656059 135990 net.cpp:596] inception_3b/5x5 <- inception_3b/5x5_reduce
I0331 19:06:46.656067 135990 net.cpp:570] inception_3b/5x5 -> inception_3b/5x5
I0331 19:06:46.670145 135990 net.cpp:210] Setting up inception_3b/5x5
I0331 19:06:46.670177 135990 net.cpp:217] Top shape: 112 96 28 28 (8429568)
I0331 19:06:46.670182 135990 net.cpp:225] Memory required for data: 3439265536
I0331 19:06:46.670192 135990 layer_factory.hpp:114] Creating layer inception_3b/relu_5x5
I0331 19:06:46.670204 135990 net.cpp:160] Creating Layer inception_3b/relu_5x5
I0331 19:06:46.670212 135990 net.cpp:596] inception_3b/relu_5x5 <- inception_3b/5x5
I0331 19:06:46.670222 135990 net.cpp:557] inception_3b/relu_5x5 -> inception_3b/5x5 (in-place)
I0331 19:06:46.670233 135990 net.cpp:210] Setting up inception_3b/relu_5x5
I0331 19:06:46.670238 135990 net.cpp:217] Top shape: 112 96 28 28 (8429568)
I0331 19:06:46.670241 135990 net.cpp:225] Memory required for data: 3472983808
I0331 19:06:46.670246 135990 layer_factory.hpp:114] Creating layer inception_3b/pool
I0331 19:06:46.670281 135990 net.cpp:160] Creating Layer inception_3b/pool
I0331 19:06:46.670287 135990 net.cpp:596] inception_3b/pool <- inception_3a/output_inception_3a/output_0_split_3
I0331 19:06:46.670296 135990 net.cpp:570] inception_3b/pool -> inception_3b/pool
I0331 19:06:46.670310 135990 net.cpp:210] Setting up inception_3b/pool
I0331 19:06:46.670315 135990 net.cpp:217] Top shape: 112 256 28 28 (22478848)
I0331 19:06:46.670320 135990 net.cpp:225] Memory required for data: 3562899200
I0331 19:06:46.670323 135990 layer_factory.hpp:114] Creating layer inception_3b/pool_proj
I0331 19:06:46.670336 135990 net.cpp:160] Creating Layer inception_3b/pool_proj
I0331 19:06:46.670341 135990 net.cpp:596] inception_3b/pool_proj <- inception_3b/pool
I0331 19:06:46.670349 135990 net.cpp:570] inception_3b/pool_proj -> inception_3b/pool_proj
I0331 19:06:46.675264 135990 net.cpp:210] Setting up inception_3b/pool_proj
I0331 19:06:46.675277 135990 net.cpp:217] Top shape: 112 64 28 28 (5619712)
I0331 19:06:46.675282 135990 net.cpp:225] Memory required for data: 3585378048
I0331 19:06:46.675289 135990 layer_factory.hpp:114] Creating layer inception_3b/relu_pool_proj
I0331 19:06:46.675299 135990 net.cpp:160] Creating Layer inception_3b/relu_pool_proj
I0331 19:06:46.675304 135990 net.cpp:596] inception_3b/relu_pool_proj <- inception_3b/pool_proj
I0331 19:06:46.675336 135990 net.cpp:557] inception_3b/relu_pool_proj -> inception_3b/pool_proj (in-place)
I0331 19:06:46.675344 135990 net.cpp:210] Setting up inception_3b/relu_pool_proj
I0331 19:06:46.675355 135990 net.cpp:217] Top shape: 112 64 28 28 (5619712)
I0331 19:06:46.675359 135990 net.cpp:225] Memory required for data: 3607856896
I0331 19:06:46.675364 135990 layer_factory.hpp:114] Creating layer inception_3b/output
I0331 19:06:46.675371 135990 net.cpp:160] Creating Layer inception_3b/output
I0331 19:06:46.675375 135990 net.cpp:596] inception_3b/output <- inception_3b/1x1
I0331 19:06:46.675380 135990 net.cpp:596] inception_3b/output <- inception_3b/3x3
I0331 19:06:46.675385 135990 net.cpp:596] inception_3b/output <- inception_3b/5x5
I0331 19:06:46.675390 135990 net.cpp:596] inception_3b/output <- inception_3b/pool_proj
I0331 19:06:46.675403 135990 net.cpp:570] inception_3b/output -> inception_3b/output
I0331 19:06:46.675413 135990 net.cpp:210] Setting up inception_3b/output
I0331 19:06:46.675418 135990 net.cpp:217] Top shape: 112 480 28 28 (42147840)
I0331 19:06:46.675422 135990 net.cpp:225] Memory required for data: 3776448256
I0331 19:06:46.675426 135990 layer_factory.hpp:114] Creating layer pool3/3x3_s2
I0331 19:06:46.675446 135990 net.cpp:160] Creating Layer pool3/3x3_s2
I0331 19:06:46.675449 135990 net.cpp:596] pool3/3x3_s2 <- inception_3b/output
I0331 19:06:46.675458 135990 net.cpp:570] pool3/3x3_s2 -> pool3/3x3_s2
I0331 19:06:46.675467 135990 net.cpp:210] Setting up pool3/3x3_s2
I0331 19:06:46.675472 135990 net.cpp:217] Top shape: 112 480 14 14 (10536960)
I0331 19:06:46.675477 135990 net.cpp:225] Memory required for data: 3818596096
I0331 19:06:46.675480 135990 layer_factory.hpp:114] Creating layer pool3/3x3_s2_pool3/3x3_s2_0_split
I0331 19:06:46.675488 135990 net.cpp:160] Creating Layer pool3/3x3_s2_pool3/3x3_s2_0_split
I0331 19:06:46.675493 135990 net.cpp:596] pool3/3x3_s2_pool3/3x3_s2_0_split <- pool3/3x3_s2
I0331 19:06:46.675501 135990 net.cpp:570] pool3/3x3_s2_pool3/3x3_s2_0_split -> pool3/3x3_s2_pool3/3x3_s2_0_split_0
I0331 19:06:46.675508 135990 net.cpp:570] pool3/3x3_s2_pool3/3x3_s2_0_split -> pool3/3x3_s2_pool3/3x3_s2_0_split_1
I0331 19:06:46.675515 135990 net.cpp:570] pool3/3x3_s2_pool3/3x3_s2_0_split -> pool3/3x3_s2_pool3/3x3_s2_0_split_2
I0331 19:06:46.675521 135990 net.cpp:570] pool3/3x3_s2_pool3/3x3_s2_0_split -> pool3/3x3_s2_pool3/3x3_s2_0_split_3
I0331 19:06:46.675529 135990 net.cpp:210] Setting up pool3/3x3_s2_pool3/3x3_s2_0_split
I0331 19:06:46.675536 135990 net.cpp:217] Top shape: 112 480 14 14 (10536960)
I0331 19:06:46.675541 135990 net.cpp:217] Top shape: 112 480 14 14 (10536960)
I0331 19:06:46.675546 135990 net.cpp:217] Top shape: 112 480 14 14 (10536960)
I0331 19:06:46.675550 135990 net.cpp:217] Top shape: 112 480 14 14 (10536960)
I0331 19:06:46.675554 135990 net.cpp:225] Memory required for data: 3987187456
I0331 19:06:46.675559 135990 layer_factory.hpp:114] Creating layer inception_4a/1x1
I0331 19:06:46.675568 135990 net.cpp:160] Creating Layer inception_4a/1x1
I0331 19:06:46.675573 135990 net.cpp:596] inception_4a/1x1 <- pool3/3x3_s2_pool3/3x3_s2_0_split_0
I0331 19:06:46.675580 135990 net.cpp:570] inception_4a/1x1 -> inception_4a/1x1
I0331 19:06:46.680835 135990 net.cpp:210] Setting up inception_4a/1x1
I0331 19:06:46.680847 135990 net.cpp:217] Top shape: 112 192 14 14 (4214784)
I0331 19:06:46.680851 135990 net.cpp:225] Memory required for data: 4004046592
I0331 19:06:46.680858 135990 layer_factory.hpp:114] Creating layer inception_4a/relu_1x1
I0331 19:06:46.680866 135990 net.cpp:160] Creating Layer inception_4a/relu_1x1
I0331 19:06:46.680871 135990 net.cpp:596] inception_4a/relu_1x1 <- inception_4a/1x1
I0331 19:06:46.680878 135990 net.cpp:557] inception_4a/relu_1x1 -> inception_4a/1x1 (in-place)
I0331 19:06:46.680886 135990 net.cpp:210] Setting up inception_4a/relu_1x1
I0331 19:06:46.680891 135990 net.cpp:217] Top shape: 112 192 14 14 (4214784)
I0331 19:06:46.680894 135990 net.cpp:225] Memory required for data: 4020905728
I0331 19:06:46.680898 135990 layer_factory.hpp:114] Creating layer inception_4a/3x3_reduce
I0331 19:06:46.680918 135990 net.cpp:160] Creating Layer inception_4a/3x3_reduce
I0331 19:06:46.680923 135990 net.cpp:596] inception_4a/3x3_reduce <- pool3/3x3_s2_pool3/3x3_s2_0_split_1
I0331 19:06:46.680944 135990 net.cpp:570] inception_4a/3x3_reduce -> inception_4a/3x3_reduce
I0331 19:06:46.685294 135990 net.cpp:210] Setting up inception_4a/3x3_reduce
I0331 19:06:46.685307 135990 net.cpp:217] Top shape: 112 96 14 14 (2107392)
I0331 19:06:46.685310 135990 net.cpp:225] Memory required for data: 4029335296
I0331 19:06:46.685326 135990 layer_factory.hpp:114] Creating layer inception_4a/relu_3x3_reduce
I0331 19:06:46.685333 135990 net.cpp:160] Creating Layer inception_4a/relu_3x3_reduce
I0331 19:06:46.685338 135990 net.cpp:596] inception_4a/relu_3x3_reduce <- inception_4a/3x3_reduce
I0331 19:06:46.685346 135990 net.cpp:557] inception_4a/relu_3x3_reduce -> inception_4a/3x3_reduce (in-place)
I0331 19:06:46.685353 135990 net.cpp:210] Setting up inception_4a/relu_3x3_reduce
I0331 19:06:46.685359 135990 net.cpp:217] Top shape: 112 96 14 14 (2107392)
I0331 19:06:46.685362 135990 net.cpp:225] Memory required for data: 4037764864
I0331 19:06:46.685366 135990 layer_factory.hpp:114] Creating layer inception_4a/3x3
I0331 19:06:46.685377 135990 net.cpp:160] Creating Layer inception_4a/3x3
I0331 19:06:46.685381 135990 net.cpp:596] inception_4a/3x3 <- inception_4a/3x3_reduce
I0331 19:06:46.685387 135990 net.cpp:570] inception_4a/3x3 -> inception_4a/3x3
I0331 19:06:46.694561 135990 net.cpp:210] Setting up inception_4a/3x3
I0331 19:06:46.694576 135990 net.cpp:217] Top shape: 112 208 14 14 (4566016)
I0331 19:06:46.694579 135990 net.cpp:225] Memory required for data: 4056028928
I0331 19:06:46.694586 135990 layer_factory.hpp:114] Creating layer inception_4a/relu_3x3
I0331 19:06:46.694593 135990 net.cpp:160] Creating Layer inception_4a/relu_3x3
I0331 19:06:46.694602 135990 net.cpp:596] inception_4a/relu_3x3 <- inception_4a/3x3
I0331 19:06:46.694607 135990 net.cpp:557] inception_4a/relu_3x3 -> inception_4a/3x3 (in-place)
I0331 19:06:46.694613 135990 net.cpp:210] Setting up inception_4a/relu_3x3
I0331 19:06:46.694619 135990 net.cpp:217] Top shape: 112 208 14 14 (4566016)
I0331 19:06:46.694622 135990 net.cpp:225] Memory required for data: 4074292992
I0331 19:06:46.694630 135990 layer_factory.hpp:114] Creating layer inception_4a/5x5_reduce
I0331 19:06:46.694643 135990 net.cpp:160] Creating Layer inception_4a/5x5_reduce
I0331 19:06:46.694648 135990 net.cpp:596] inception_4a/5x5_reduce <- pool3/3x3_s2_pool3/3x3_s2_0_split_2
I0331 19:06:46.694656 135990 net.cpp:570] inception_4a/5x5_reduce -> inception_4a/5x5_reduce
I0331 19:06:46.696908 135990 net.cpp:210] Setting up inception_4a/5x5_reduce
I0331 19:06:46.696919 135990 net.cpp:217] Top shape: 112 16 14 14 (351232)
I0331 19:06:46.696923 135990 net.cpp:225] Memory required for data: 4075697920
I0331 19:06:46.696929 135990 layer_factory.hpp:114] Creating layer inception_4a/relu_5x5_reduce
I0331 19:06:46.696936 135990 net.cpp:160] Creating Layer inception_4a/relu_5x5_reduce
I0331 19:06:46.696940 135990 net.cpp:596] inception_4a/relu_5x5_reduce <- inception_4a/5x5_reduce
I0331 19:06:46.696949 135990 net.cpp:557] inception_4a/relu_5x5_reduce -> inception_4a/5x5_reduce (in-place)
I0331 19:06:46.696956 135990 net.cpp:210] Setting up inception_4a/relu_5x5_reduce
I0331 19:06:46.696961 135990 net.cpp:217] Top shape: 112 16 14 14 (351232)
I0331 19:06:46.696965 135990 net.cpp:225] Memory required for data: 4077102848
I0331 19:06:46.696969 135990 layer_factory.hpp:114] Creating layer inception_4a/5x5
I0331 19:06:46.696977 135990 net.cpp:160] Creating Layer inception_4a/5x5
I0331 19:06:46.696981 135990 net.cpp:596] inception_4a/5x5 <- inception_4a/5x5_reduce
I0331 19:06:46.696990 135990 net.cpp:570] inception_4a/5x5 -> inception_4a/5x5
I0331 19:06:46.699746 135990 net.cpp:210] Setting up inception_4a/5x5
I0331 19:06:46.699759 135990 net.cpp:217] Top shape: 112 48 14 14 (1053696)
I0331 19:06:46.699761 135990 net.cpp:225] Memory required for data: 4081317632
I0331 19:06:46.699769 135990 layer_factory.hpp:114] Creating layer inception_4a/relu_5x5
I0331 19:06:46.699801 135990 net.cpp:160] Creating Layer inception_4a/relu_5x5
I0331 19:06:46.699806 135990 net.cpp:596] inception_4a/relu_5x5 <- inception_4a/5x5
I0331 19:06:46.699817 135990 net.cpp:557] inception_4a/relu_5x5 -> inception_4a/5x5 (in-place)
I0331 19:06:46.699825 135990 net.cpp:210] Setting up inception_4a/relu_5x5
I0331 19:06:46.699829 135990 net.cpp:217] Top shape: 112 48 14 14 (1053696)
I0331 19:06:46.699833 135990 net.cpp:225] Memory required for data: 4085532416
I0331 19:06:46.699837 135990 layer_factory.hpp:114] Creating layer inception_4a/pool
I0331 19:06:46.699864 135990 net.cpp:160] Creating Layer inception_4a/pool
I0331 19:06:46.699869 135990 net.cpp:596] inception_4a/pool <- pool3/3x3_s2_pool3/3x3_s2_0_split_3
I0331 19:06:46.699878 135990 net.cpp:570] inception_4a/pool -> inception_4a/pool
I0331 19:06:46.699888 135990 net.cpp:210] Setting up inception_4a/pool
I0331 19:06:46.699893 135990 net.cpp:217] Top shape: 112 480 14 14 (10536960)
I0331 19:06:46.699898 135990 net.cpp:225] Memory required for data: 4127680256
I0331 19:06:46.699901 135990 layer_factory.hpp:114] Creating layer inception_4a/pool_proj
I0331 19:06:46.699913 135990 net.cpp:160] Creating Layer inception_4a/pool_proj
I0331 19:06:46.699918 135990 net.cpp:596] inception_4a/pool_proj <- inception_4a/pool
I0331 19:06:46.699925 135990 net.cpp:570] inception_4a/pool_proj -> inception_4a/pool_proj
I0331 19:06:46.703135 135990 net.cpp:210] Setting up inception_4a/pool_proj
I0331 19:06:46.703147 135990 net.cpp:217] Top shape: 112 64 14 14 (1404928)
I0331 19:06:46.703151 135990 net.cpp:225] Memory required for data: 4133299968
I0331 19:06:46.703158 135990 layer_factory.hpp:114] Creating layer inception_4a/relu_pool_proj
I0331 19:06:46.703168 135990 net.cpp:160] Creating Layer inception_4a/relu_pool_proj
I0331 19:06:46.703173 135990 net.cpp:596] inception_4a/relu_pool_proj <- inception_4a/pool_proj
I0331 19:06:46.703179 135990 net.cpp:557] inception_4a/relu_pool_proj -> inception_4a/pool_proj (in-place)
I0331 19:06:46.703186 135990 net.cpp:210] Setting up inception_4a/relu_pool_proj
I0331 19:06:46.703191 135990 net.cpp:217] Top shape: 112 64 14 14 (1404928)
I0331 19:06:46.703194 135990 net.cpp:225] Memory required for data: 4138919680
I0331 19:06:46.703198 135990 layer_factory.hpp:114] Creating layer inception_4a/output
I0331 19:06:46.703205 135990 net.cpp:160] Creating Layer inception_4a/output
I0331 19:06:46.703209 135990 net.cpp:596] inception_4a/output <- inception_4a/1x1
I0331 19:06:46.703214 135990 net.cpp:596] inception_4a/output <- inception_4a/3x3
I0331 19:06:46.703219 135990 net.cpp:596] inception_4a/output <- inception_4a/5x5
I0331 19:06:46.703224 135990 net.cpp:596] inception_4a/output <- inception_4a/pool_proj
I0331 19:06:46.703233 135990 net.cpp:570] inception_4a/output -> inception_4a/output
I0331 19:06:46.703243 135990 net.cpp:210] Setting up inception_4a/output
I0331 19:06:46.703248 135990 net.cpp:217] Top shape: 112 512 14 14 (11239424)
I0331 19:06:46.703251 135990 net.cpp:225] Memory required for data: 4183877376
I0331 19:06:46.703255 135990 layer_factory.hpp:114] Creating layer inception_4a/output_inception_4a/output_0_split
I0331 19:06:46.703265 135990 net.cpp:160] Creating Layer inception_4a/output_inception_4a/output_0_split
I0331 19:06:46.703269 135990 net.cpp:596] inception_4a/output_inception_4a/output_0_split <- inception_4a/output
I0331 19:06:46.703277 135990 net.cpp:570] inception_4a/output_inception_4a/output_0_split -> inception_4a/output_inception_4a/output_0_split_0
I0331 19:06:46.703285 135990 net.cpp:570] inception_4a/output_inception_4a/output_0_split -> inception_4a/output_inception_4a/output_0_split_1
I0331 19:06:46.703292 135990 net.cpp:570] inception_4a/output_inception_4a/output_0_split -> inception_4a/output_inception_4a/output_0_split_2
I0331 19:06:46.703299 135990 net.cpp:570] inception_4a/output_inception_4a/output_0_split -> inception_4a/output_inception_4a/output_0_split_3
I0331 19:06:46.703305 135990 net.cpp:570] inception_4a/output_inception_4a/output_0_split -> inception_4a/output_inception_4a/output_0_split_4
I0331 19:06:46.703325 135990 net.cpp:210] Setting up inception_4a/output_inception_4a/output_0_split
I0331 19:06:46.703333 135990 net.cpp:217] Top shape: 112 512 14 14 (11239424)
I0331 19:06:46.703338 135990 net.cpp:217] Top shape: 112 512 14 14 (11239424)
I0331 19:06:46.703343 135990 net.cpp:217] Top shape: 112 512 14 14 (11239424)
I0331 19:06:46.703348 135990 net.cpp:217] Top shape: 112 512 14 14 (11239424)
I0331 19:06:46.703352 135990 net.cpp:217] Top shape: 112 512 14 14 (11239424)
I0331 19:06:46.703356 135990 net.cpp:225] Memory required for data: 4408665856
I0331 19:06:46.703361 135990 layer_factory.hpp:114] Creating layer loss1/ave_pool
I0331 19:06:46.703383 135990 net.cpp:160] Creating Layer loss1/ave_pool
I0331 19:06:46.703387 135990 net.cpp:596] loss1/ave_pool <- inception_4a/output_inception_4a/output_0_split_0
I0331 19:06:46.703394 135990 net.cpp:570] loss1/ave_pool -> loss1/ave_pool
I0331 19:06:46.703402 135990 net.cpp:210] Setting up loss1/ave_pool
I0331 19:06:46.703408 135990 net.cpp:217] Top shape: 112 512 4 4 (917504)
I0331 19:06:46.703413 135990 net.cpp:225] Memory required for data: 4412335872
I0331 19:06:46.703415 135990 layer_factory.hpp:114] Creating layer loss1/conv
I0331 19:06:46.703428 135990 net.cpp:160] Creating Layer loss1/conv
I0331 19:06:46.703433 135990 net.cpp:596] loss1/conv <- loss1/ave_pool
I0331 19:06:46.703441 135990 net.cpp:570] loss1/conv -> loss1/conv
I0331 19:06:46.705938 135990 net.cpp:210] Setting up loss1/conv
I0331 19:06:46.705950 135990 net.cpp:217] Top shape: 112 128 4 4 (229376)
I0331 19:06:46.705955 135990 net.cpp:225] Memory required for data: 4413253376
I0331 19:06:46.705961 135990 layer_factory.hpp:114] Creating layer loss1/relu_conv
I0331 19:06:46.705968 135990 net.cpp:160] Creating Layer loss1/relu_conv
I0331 19:06:46.705972 135990 net.cpp:596] loss1/relu_conv <- loss1/conv
I0331 19:06:46.705981 135990 net.cpp:557] loss1/relu_conv -> loss1/conv (in-place)
I0331 19:06:46.705988 135990 net.cpp:210] Setting up loss1/relu_conv
I0331 19:06:46.705993 135990 net.cpp:217] Top shape: 112 128 4 4 (229376)
I0331 19:06:46.705997 135990 net.cpp:225] Memory required for data: 4414170880
I0331 19:06:46.706001 135990 layer_factory.hpp:114] Creating layer loss1/fc
I0331 19:06:46.706015 135990 net.cpp:160] Creating Layer loss1/fc
I0331 19:06:46.706020 135990 net.cpp:596] loss1/fc <- loss1/conv
I0331 19:06:46.706027 135990 net.cpp:570] loss1/fc -> loss1/fc
I0331 19:06:46.725901 135990 net.cpp:210] Setting up loss1/fc
I0331 19:06:46.725914 135990 net.cpp:217] Top shape: 112 1024 (114688)
I0331 19:06:46.725917 135990 net.cpp:225] Memory required for data: 4414629632
I0331 19:06:46.725924 135990 layer_factory.hpp:114] Creating layer loss1/relu_fc
I0331 19:06:46.725931 135990 net.cpp:160] Creating Layer loss1/relu_fc
I0331 19:06:46.725935 135990 net.cpp:596] loss1/relu_fc <- loss1/fc
I0331 19:06:46.725941 135990 net.cpp:557] loss1/relu_fc -> loss1/fc (in-place)
I0331 19:06:46.725949 135990 net.cpp:210] Setting up loss1/relu_fc
I0331 19:06:46.725953 135990 net.cpp:217] Top shape: 112 1024 (114688)
I0331 19:06:46.725956 135990 net.cpp:225] Memory required for data: 4415088384
I0331 19:06:46.725960 135990 layer_factory.hpp:114] Creating layer loss1/drop_fc
I0331 19:06:46.725976 135990 net.cpp:160] Creating Layer loss1/drop_fc
I0331 19:06:46.725981 135990 net.cpp:596] loss1/drop_fc <- loss1/fc
I0331 19:06:46.725986 135990 net.cpp:557] loss1/drop_fc -> loss1/fc (in-place)
I0331 19:06:46.725999 135990 net.cpp:210] Setting up loss1/drop_fc
I0331 19:06:46.726006 135990 net.cpp:217] Top shape: 112 1024 (114688)
I0331 19:06:46.726008 135990 net.cpp:225] Memory required for data: 4415547136
I0331 19:06:46.726013 135990 layer_factory.hpp:114] Creating layer loss1/classifier
I0331 19:06:46.726022 135990 net.cpp:160] Creating Layer loss1/classifier
I0331 19:06:46.726025 135990 net.cpp:596] loss1/classifier <- loss1/fc
I0331 19:06:46.726032 135990 net.cpp:570] loss1/classifier -> loss1/classifier
I0331 19:06:46.735978 135990 net.cpp:210] Setting up loss1/classifier
I0331 19:06:46.735999 135990 net.cpp:217] Top shape: 112 1000 (112000)
I0331 19:06:46.736003 135990 net.cpp:225] Memory required for data: 4415995136
I0331 19:06:46.736013 135990 layer_factory.hpp:114] Creating layer loss1/loss
I0331 19:06:46.736024 135990 net.cpp:160] Creating Layer loss1/loss
I0331 19:06:46.736029 135990 net.cpp:596] loss1/loss <- loss1/classifier
I0331 19:06:46.736034 135990 net.cpp:596] loss1/loss <- label_data_1_split_0
I0331 19:06:46.736040 135990 net.cpp:570] loss1/loss -> loss1/loss1
I0331 19:06:46.736057 135990 layer_factory.hpp:114] Creating layer loss1/loss
I0331 19:06:46.736363 135990 net.cpp:210] Setting up loss1/loss
I0331 19:06:46.736371 135990 net.cpp:217] Top shape: (1)
I0331 19:06:46.736374 135990 net.cpp:220]     with loss weight 0.3
I0331 19:06:46.736418 135990 net.cpp:225] Memory required for data: 4415995140
I0331 19:06:46.736423 135990 layer_factory.hpp:114] Creating layer inception_4b/1x1
I0331 19:06:46.736435 135990 net.cpp:160] Creating Layer inception_4b/1x1
I0331 19:06:46.736440 135990 net.cpp:596] inception_4b/1x1 <- inception_4a/output_inception_4a/output_0_split_1
I0331 19:06:46.736448 135990 net.cpp:570] inception_4b/1x1 -> inception_4b/1x1
I0331 19:06:46.741454 135990 net.cpp:210] Setting up inception_4b/1x1
I0331 19:06:46.741467 135990 net.cpp:217] Top shape: 112 160 14 14 (3512320)
I0331 19:06:46.741472 135990 net.cpp:225] Memory required for data: 4430044420
I0331 19:06:46.741478 135990 layer_factory.hpp:114] Creating layer inception_4b/relu_1x1
I0331 19:06:46.741485 135990 net.cpp:160] Creating Layer inception_4b/relu_1x1
I0331 19:06:46.741490 135990 net.cpp:596] inception_4b/relu_1x1 <- inception_4b/1x1
I0331 19:06:46.741498 135990 net.cpp:557] inception_4b/relu_1x1 -> inception_4b/1x1 (in-place)
I0331 19:06:46.741505 135990 net.cpp:210] Setting up inception_4b/relu_1x1
I0331 19:06:46.741511 135990 net.cpp:217] Top shape: 112 160 14 14 (3512320)
I0331 19:06:46.741514 135990 net.cpp:225] Memory required for data: 4444093700
I0331 19:06:46.741518 135990 layer_factory.hpp:114] Creating layer inception_4b/3x3_reduce
I0331 19:06:46.741528 135990 net.cpp:160] Creating Layer inception_4b/3x3_reduce
I0331 19:06:46.741531 135990 net.cpp:596] inception_4b/3x3_reduce <- inception_4a/output_inception_4a/output_0_split_2
I0331 19:06:46.741539 135990 net.cpp:570] inception_4b/3x3_reduce -> inception_4b/3x3_reduce
I0331 19:06:46.746073 135990 net.cpp:210] Setting up inception_4b/3x3_reduce
I0331 19:06:46.746084 135990 net.cpp:217] Top shape: 112 112 14 14 (2458624)
I0331 19:06:46.746088 135990 net.cpp:225] Memory required for data: 4453928196
I0331 19:06:46.746094 135990 layer_factory.hpp:114] Creating layer inception_4b/relu_3x3_reduce
I0331 19:06:46.746101 135990 net.cpp:160] Creating Layer inception_4b/relu_3x3_reduce
I0331 19:06:46.746106 135990 net.cpp:596] inception_4b/relu_3x3_reduce <- inception_4b/3x3_reduce
I0331 19:06:46.746112 135990 net.cpp:557] inception_4b/relu_3x3_reduce -> inception_4b/3x3_reduce (in-place)
I0331 19:06:46.746119 135990 net.cpp:210] Setting up inception_4b/relu_3x3_reduce
I0331 19:06:46.746124 135990 net.cpp:217] Top shape: 112 112 14 14 (2458624)
I0331 19:06:46.746129 135990 net.cpp:225] Memory required for data: 4463762692
I0331 19:06:46.746131 135990 layer_factory.hpp:114] Creating layer inception_4b/3x3
I0331 19:06:46.746142 135990 net.cpp:160] Creating Layer inception_4b/3x3
I0331 19:06:46.746147 135990 net.cpp:596] inception_4b/3x3 <- inception_4b/3x3_reduce
I0331 19:06:46.746153 135990 net.cpp:570] inception_4b/3x3 -> inception_4b/3x3
I0331 19:06:46.757069 135990 net.cpp:210] Setting up inception_4b/3x3
I0331 19:06:46.757087 135990 net.cpp:217] Top shape: 112 224 14 14 (4917248)
I0331 19:06:46.757091 135990 net.cpp:225] Memory required for data: 4483431684
I0331 19:06:46.757098 135990 layer_factory.hpp:114] Creating layer inception_4b/relu_3x3
I0331 19:06:46.757105 135990 net.cpp:160] Creating Layer inception_4b/relu_3x3
I0331 19:06:46.757112 135990 net.cpp:596] inception_4b/relu_3x3 <- inception_4b/3x3
I0331 19:06:46.757143 135990 net.cpp:557] inception_4b/relu_3x3 -> inception_4b/3x3 (in-place)
I0331 19:06:46.757149 135990 net.cpp:210] Setting up inception_4b/relu_3x3
I0331 19:06:46.757155 135990 net.cpp:217] Top shape: 112 224 14 14 (4917248)
I0331 19:06:46.757164 135990 net.cpp:225] Memory required for data: 4503100676
I0331 19:06:46.757167 135990 layer_factory.hpp:114] Creating layer inception_4b/5x5_reduce
I0331 19:06:46.757177 135990 net.cpp:160] Creating Layer inception_4b/5x5_reduce
I0331 19:06:46.757182 135990 net.cpp:596] inception_4b/5x5_reduce <- inception_4a/output_inception_4a/output_0_split_3
I0331 19:06:46.757189 135990 net.cpp:570] inception_4b/5x5_reduce -> inception_4b/5x5_reduce
I0331 19:06:46.759843 135990 net.cpp:210] Setting up inception_4b/5x5_reduce
I0331 19:06:46.759855 135990 net.cpp:217] Top shape: 112 24 14 14 (526848)
I0331 19:06:46.759858 135990 net.cpp:225] Memory required for data: 4505208068
I0331 19:06:46.759865 135990 layer_factory.hpp:114] Creating layer inception_4b/relu_5x5_reduce
I0331 19:06:46.759872 135990 net.cpp:160] Creating Layer inception_4b/relu_5x5_reduce
I0331 19:06:46.759877 135990 net.cpp:596] inception_4b/relu_5x5_reduce <- inception_4b/5x5_reduce
I0331 19:06:46.759886 135990 net.cpp:557] inception_4b/relu_5x5_reduce -> inception_4b/5x5_reduce (in-place)
I0331 19:06:46.759892 135990 net.cpp:210] Setting up inception_4b/relu_5x5_reduce
I0331 19:06:46.759897 135990 net.cpp:217] Top shape: 112 24 14 14 (526848)
I0331 19:06:46.759901 135990 net.cpp:225] Memory required for data: 4507315460
I0331 19:06:46.759904 135990 layer_factory.hpp:114] Creating layer inception_4b/5x5
I0331 19:06:46.759915 135990 net.cpp:160] Creating Layer inception_4b/5x5
I0331 19:06:46.759919 135990 net.cpp:596] inception_4b/5x5 <- inception_4b/5x5_reduce
I0331 19:06:46.759927 135990 net.cpp:570] inception_4b/5x5 -> inception_4b/5x5
I0331 19:06:46.764183 135990 net.cpp:210] Setting up inception_4b/5x5
I0331 19:06:46.764194 135990 net.cpp:217] Top shape: 112 64 14 14 (1404928)
I0331 19:06:46.764197 135990 net.cpp:225] Memory required for data: 4512935172
I0331 19:06:46.764204 135990 layer_factory.hpp:114] Creating layer inception_4b/relu_5x5
I0331 19:06:46.764211 135990 net.cpp:160] Creating Layer inception_4b/relu_5x5
I0331 19:06:46.764215 135990 net.cpp:596] inception_4b/relu_5x5 <- inception_4b/5x5
I0331 19:06:46.764223 135990 net.cpp:557] inception_4b/relu_5x5 -> inception_4b/5x5 (in-place)
I0331 19:06:46.764230 135990 net.cpp:210] Setting up inception_4b/relu_5x5
I0331 19:06:46.764235 135990 net.cpp:217] Top shape: 112 64 14 14 (1404928)
I0331 19:06:46.764240 135990 net.cpp:225] Memory required for data: 4518554884
I0331 19:06:46.764242 135990 layer_factory.hpp:114] Creating layer inception_4b/pool
I0331 19:06:46.764276 135990 net.cpp:160] Creating Layer inception_4b/pool
I0331 19:06:46.764281 135990 net.cpp:596] inception_4b/pool <- inception_4a/output_inception_4a/output_0_split_4
I0331 19:06:46.764287 135990 net.cpp:570] inception_4b/pool -> inception_4b/pool
I0331 19:06:46.764307 135990 net.cpp:210] Setting up inception_4b/pool
I0331 19:06:46.764314 135990 net.cpp:217] Top shape: 112 512 14 14 (11239424)
I0331 19:06:46.764317 135990 net.cpp:225] Memory required for data: 4563512580
I0331 19:06:46.764322 135990 layer_factory.hpp:114] Creating layer inception_4b/pool_proj
I0331 19:06:46.764331 135990 net.cpp:160] Creating Layer inception_4b/pool_proj
I0331 19:06:46.764335 135990 net.cpp:596] inception_4b/pool_proj <- inception_4b/pool
I0331 19:06:46.764344 135990 net.cpp:570] inception_4b/pool_proj -> inception_4b/pool_proj
I0331 19:06:46.767834 135990 net.cpp:210] Setting up inception_4b/pool_proj
I0331 19:06:46.767846 135990 net.cpp:217] Top shape: 112 64 14 14 (1404928)
I0331 19:06:46.767850 135990 net.cpp:225] Memory required for data: 4569132292
I0331 19:06:46.767858 135990 layer_factory.hpp:114] Creating layer inception_4b/relu_pool_proj
I0331 19:06:46.767863 135990 net.cpp:160] Creating Layer inception_4b/relu_pool_proj
I0331 19:06:46.767868 135990 net.cpp:596] inception_4b/relu_pool_proj <- inception_4b/pool_proj
I0331 19:06:46.767886 135990 net.cpp:557] inception_4b/relu_pool_proj -> inception_4b/pool_proj (in-place)
I0331 19:06:46.767894 135990 net.cpp:210] Setting up inception_4b/relu_pool_proj
I0331 19:06:46.767902 135990 net.cpp:217] Top shape: 112 64 14 14 (1404928)
I0331 19:06:46.767905 135990 net.cpp:225] Memory required for data: 4574752004
I0331 19:06:46.767910 135990 layer_factory.hpp:114] Creating layer inception_4b/output
I0331 19:06:46.767917 135990 net.cpp:160] Creating Layer inception_4b/output
I0331 19:06:46.767922 135990 net.cpp:596] inception_4b/output <- inception_4b/1x1
I0331 19:06:46.767927 135990 net.cpp:596] inception_4b/output <- inception_4b/3x3
I0331 19:06:46.767932 135990 net.cpp:596] inception_4b/output <- inception_4b/5x5
I0331 19:06:46.767936 135990 net.cpp:596] inception_4b/output <- inception_4b/pool_proj
I0331 19:06:46.767945 135990 net.cpp:570] inception_4b/output -> inception_4b/output
I0331 19:06:46.767956 135990 net.cpp:210] Setting up inception_4b/output
I0331 19:06:46.767961 135990 net.cpp:217] Top shape: 112 512 14 14 (11239424)
I0331 19:06:46.767964 135990 net.cpp:225] Memory required for data: 4619709700
I0331 19:06:46.767967 135990 layer_factory.hpp:114] Creating layer inception_4b/output_inception_4b/output_0_split
I0331 19:06:46.767976 135990 net.cpp:160] Creating Layer inception_4b/output_inception_4b/output_0_split
I0331 19:06:46.767979 135990 net.cpp:596] inception_4b/output_inception_4b/output_0_split <- inception_4b/output
I0331 19:06:46.767984 135990 net.cpp:570] inception_4b/output_inception_4b/output_0_split -> inception_4b/output_inception_4b/output_0_split_0
I0331 19:06:46.767992 135990 net.cpp:570] inception_4b/output_inception_4b/output_0_split -> inception_4b/output_inception_4b/output_0_split_1
I0331 19:06:46.768000 135990 net.cpp:570] inception_4b/output_inception_4b/output_0_split -> inception_4b/output_inception_4b/output_0_split_2
I0331 19:06:46.768007 135990 net.cpp:570] inception_4b/output_inception_4b/output_0_split -> inception_4b/output_inception_4b/output_0_split_3
I0331 19:06:46.768014 135990 net.cpp:210] Setting up inception_4b/output_inception_4b/output_0_split
I0331 19:06:46.768019 135990 net.cpp:217] Top shape: 112 512 14 14 (11239424)
I0331 19:06:46.768024 135990 net.cpp:217] Top shape: 112 512 14 14 (11239424)
I0331 19:06:46.768029 135990 net.cpp:217] Top shape: 112 512 14 14 (11239424)
I0331 19:06:46.768034 135990 net.cpp:217] Top shape: 112 512 14 14 (11239424)
I0331 19:06:46.768038 135990 net.cpp:225] Memory required for data: 4799540484
I0331 19:06:46.768041 135990 layer_factory.hpp:114] Creating layer inception_4c/1x1
I0331 19:06:46.768051 135990 net.cpp:160] Creating Layer inception_4c/1x1
I0331 19:06:46.768056 135990 net.cpp:596] inception_4c/1x1 <- inception_4b/output_inception_4b/output_0_split_0
I0331 19:06:46.768065 135990 net.cpp:570] inception_4c/1x1 -> inception_4c/1x1
I0331 19:06:46.772919 135990 net.cpp:210] Setting up inception_4c/1x1
I0331 19:06:46.772933 135990 net.cpp:217] Top shape: 112 128 14 14 (2809856)
I0331 19:06:46.772938 135990 net.cpp:225] Memory required for data: 4810779908
I0331 19:06:46.772944 135990 layer_factory.hpp:114] Creating layer inception_4c/relu_1x1
I0331 19:06:46.772951 135990 net.cpp:160] Creating Layer inception_4c/relu_1x1
I0331 19:06:46.772956 135990 net.cpp:596] inception_4c/relu_1x1 <- inception_4c/1x1
I0331 19:06:46.772963 135990 net.cpp:557] inception_4c/relu_1x1 -> inception_4c/1x1 (in-place)
I0331 19:06:46.772969 135990 net.cpp:210] Setting up inception_4c/relu_1x1
I0331 19:06:46.772974 135990 net.cpp:217] Top shape: 112 128 14 14 (2809856)
I0331 19:06:46.772977 135990 net.cpp:225] Memory required for data: 4822019332
I0331 19:06:46.772981 135990 layer_factory.hpp:114] Creating layer inception_4c/3x3_reduce
I0331 19:06:46.772992 135990 net.cpp:160] Creating Layer inception_4c/3x3_reduce
I0331 19:06:46.772996 135990 net.cpp:596] inception_4c/3x3_reduce <- inception_4b/output_inception_4b/output_0_split_1
I0331 19:06:46.773010 135990 net.cpp:570] inception_4c/3x3_reduce -> inception_4c/3x3_reduce
I0331 19:06:46.777878 135990 net.cpp:210] Setting up inception_4c/3x3_reduce
I0331 19:06:46.777889 135990 net.cpp:217] Top shape: 112 128 14 14 (2809856)
I0331 19:06:46.777897 135990 net.cpp:225] Memory required for data: 4833258756
I0331 19:06:46.777904 135990 layer_factory.hpp:114] Creating layer inception_4c/relu_3x3_reduce
I0331 19:06:46.777914 135990 net.cpp:160] Creating Layer inception_4c/relu_3x3_reduce
I0331 19:06:46.777920 135990 net.cpp:596] inception_4c/relu_3x3_reduce <- inception_4c/3x3_reduce
I0331 19:06:46.777925 135990 net.cpp:557] inception_4c/relu_3x3_reduce -> inception_4c/3x3_reduce (in-place)
I0331 19:06:46.777931 135990 net.cpp:210] Setting up inception_4c/relu_3x3_reduce
I0331 19:06:46.777937 135990 net.cpp:217] Top shape: 112 128 14 14 (2809856)
I0331 19:06:46.777940 135990 net.cpp:225] Memory required for data: 4844498180
I0331 19:06:46.777945 135990 layer_factory.hpp:114] Creating layer inception_4c/3x3
I0331 19:06:46.777953 135990 net.cpp:160] Creating Layer inception_4c/3x3
I0331 19:06:46.777957 135990 net.cpp:596] inception_4c/3x3 <- inception_4c/3x3_reduce
I0331 19:06:46.777966 135990 net.cpp:570] inception_4c/3x3 -> inception_4c/3x3
I0331 19:06:46.791075 135990 net.cpp:210] Setting up inception_4c/3x3
I0331 19:06:46.791097 135990 net.cpp:217] Top shape: 112 256 14 14 (5619712)
I0331 19:06:46.791101 135990 net.cpp:225] Memory required for data: 4866977028
I0331 19:06:46.791122 135990 layer_factory.hpp:114] Creating layer inception_4c/relu_3x3
I0331 19:06:46.791132 135990 net.cpp:160] Creating Layer inception_4c/relu_3x3
I0331 19:06:46.791137 135990 net.cpp:596] inception_4c/relu_3x3 <- inception_4c/3x3
I0331 19:06:46.791146 135990 net.cpp:557] inception_4c/relu_3x3 -> inception_4c/3x3 (in-place)
I0331 19:06:46.791153 135990 net.cpp:210] Setting up inception_4c/relu_3x3
I0331 19:06:46.791158 135990 net.cpp:217] Top shape: 112 256 14 14 (5619712)
I0331 19:06:46.791162 135990 net.cpp:225] Memory required for data: 4889455876
I0331 19:06:46.791167 135990 layer_factory.hpp:114] Creating layer inception_4c/5x5_reduce
I0331 19:06:46.791178 135990 net.cpp:160] Creating Layer inception_4c/5x5_reduce
I0331 19:06:46.791183 135990 net.cpp:596] inception_4c/5x5_reduce <- inception_4b/output_inception_4b/output_0_split_2
I0331 19:06:46.791191 135990 net.cpp:570] inception_4c/5x5_reduce -> inception_4c/5x5_reduce
I0331 19:06:46.794347 135990 net.cpp:210] Setting up inception_4c/5x5_reduce
I0331 19:06:46.794358 135990 net.cpp:217] Top shape: 112 24 14 14 (526848)
I0331 19:06:46.794363 135990 net.cpp:225] Memory required for data: 4891563268
I0331 19:06:46.794370 135990 layer_factory.hpp:114] Creating layer inception_4c/relu_5x5_reduce
I0331 19:06:46.794384 135990 net.cpp:160] Creating Layer inception_4c/relu_5x5_reduce
I0331 19:06:46.794389 135990 net.cpp:596] inception_4c/relu_5x5_reduce <- inception_4c/5x5_reduce
I0331 19:06:46.794395 135990 net.cpp:557] inception_4c/relu_5x5_reduce -> inception_4c/5x5_reduce (in-place)
I0331 19:06:46.794401 135990 net.cpp:210] Setting up inception_4c/relu_5x5_reduce
I0331 19:06:46.794407 135990 net.cpp:217] Top shape: 112 24 14 14 (526848)
I0331 19:06:46.794411 135990 net.cpp:225] Memory required for data: 4893670660
I0331 19:06:46.794415 135990 layer_factory.hpp:114] Creating layer inception_4c/5x5
I0331 19:06:46.794425 135990 net.cpp:160] Creating Layer inception_4c/5x5
I0331 19:06:46.794430 135990 net.cpp:596] inception_4c/5x5 <- inception_4c/5x5_reduce
I0331 19:06:46.794440 135990 net.cpp:570] inception_4c/5x5 -> inception_4c/5x5
I0331 19:06:46.798701 135990 net.cpp:210] Setting up inception_4c/5x5
I0331 19:06:46.798712 135990 net.cpp:217] Top shape: 112 64 14 14 (1404928)
I0331 19:06:46.798717 135990 net.cpp:225] Memory required for data: 4899290372
I0331 19:06:46.798723 135990 layer_factory.hpp:114] Creating layer inception_4c/relu_5x5
I0331 19:06:46.798729 135990 net.cpp:160] Creating Layer inception_4c/relu_5x5
I0331 19:06:46.798734 135990 net.cpp:596] inception_4c/relu_5x5 <- inception_4c/5x5
I0331 19:06:46.798743 135990 net.cpp:557] inception_4c/relu_5x5 -> inception_4c/5x5 (in-place)
I0331 19:06:46.798768 135990 net.cpp:210] Setting up inception_4c/relu_5x5
I0331 19:06:46.798774 135990 net.cpp:217] Top shape: 112 64 14 14 (1404928)
I0331 19:06:46.798784 135990 net.cpp:225] Memory required for data: 4904910084
I0331 19:06:46.798787 135990 layer_factory.hpp:114] Creating layer inception_4c/pool
I0331 19:06:46.798818 135990 net.cpp:160] Creating Layer inception_4c/pool
I0331 19:06:46.798823 135990 net.cpp:596] inception_4c/pool <- inception_4b/output_inception_4b/output_0_split_3
I0331 19:06:46.798832 135990 net.cpp:570] inception_4c/pool -> inception_4c/pool
I0331 19:06:46.798842 135990 net.cpp:210] Setting up inception_4c/pool
I0331 19:06:46.798848 135990 net.cpp:217] Top shape: 112 512 14 14 (11239424)
I0331 19:06:46.798852 135990 net.cpp:225] Memory required for data: 4949867780
I0331 19:06:46.798856 135990 layer_factory.hpp:114] Creating layer inception_4c/pool_proj
I0331 19:06:46.798867 135990 net.cpp:160] Creating Layer inception_4c/pool_proj
I0331 19:06:46.798871 135990 net.cpp:596] inception_4c/pool_proj <- inception_4c/pool
I0331 19:06:46.798880 135990 net.cpp:570] inception_4c/pool_proj -> inception_4c/pool_proj
I0331 19:06:46.802881 135990 net.cpp:210] Setting up inception_4c/pool_proj
I0331 19:06:46.802891 135990 net.cpp:217] Top shape: 112 64 14 14 (1404928)
I0331 19:06:46.802896 135990 net.cpp:225] Memory required for data: 4955487492
I0331 19:06:46.802902 135990 layer_factory.hpp:114] Creating layer inception_4c/relu_pool_proj
I0331 19:06:46.802911 135990 net.cpp:160] Creating Layer inception_4c/relu_pool_proj
I0331 19:06:46.802917 135990 net.cpp:596] inception_4c/relu_pool_proj <- inception_4c/pool_proj
I0331 19:06:46.802922 135990 net.cpp:557] inception_4c/relu_pool_proj -> inception_4c/pool_proj (in-place)
I0331 19:06:46.802929 135990 net.cpp:210] Setting up inception_4c/relu_pool_proj
I0331 19:06:46.802934 135990 net.cpp:217] Top shape: 112 64 14 14 (1404928)
I0331 19:06:46.802938 135990 net.cpp:225] Memory required for data: 4961107204
I0331 19:06:46.802942 135990 layer_factory.hpp:114] Creating layer inception_4c/output
I0331 19:06:46.802953 135990 net.cpp:160] Creating Layer inception_4c/output
I0331 19:06:46.802958 135990 net.cpp:596] inception_4c/output <- inception_4c/1x1
I0331 19:06:46.802963 135990 net.cpp:596] inception_4c/output <- inception_4c/3x3
I0331 19:06:46.802968 135990 net.cpp:596] inception_4c/output <- inception_4c/5x5
I0331 19:06:46.802971 135990 net.cpp:596] inception_4c/output <- inception_4c/pool_proj
I0331 19:06:46.802978 135990 net.cpp:570] inception_4c/output -> inception_4c/output
I0331 19:06:46.802986 135990 net.cpp:210] Setting up inception_4c/output
I0331 19:06:46.802991 135990 net.cpp:217] Top shape: 112 512 14 14 (11239424)
I0331 19:06:46.802995 135990 net.cpp:225] Memory required for data: 5006064900
I0331 19:06:46.802999 135990 layer_factory.hpp:114] Creating layer inception_4c/output_inception_4c/output_0_split
I0331 19:06:46.803007 135990 net.cpp:160] Creating Layer inception_4c/output_inception_4c/output_0_split
I0331 19:06:46.803011 135990 net.cpp:596] inception_4c/output_inception_4c/output_0_split <- inception_4c/output
I0331 19:06:46.803020 135990 net.cpp:570] inception_4c/output_inception_4c/output_0_split -> inception_4c/output_inception_4c/output_0_split_0
I0331 19:06:46.803026 135990 net.cpp:570] inception_4c/output_inception_4c/output_0_split -> inception_4c/output_inception_4c/output_0_split_1
I0331 19:06:46.803033 135990 net.cpp:570] inception_4c/output_inception_4c/output_0_split -> inception_4c/output_inception_4c/output_0_split_2
I0331 19:06:46.803040 135990 net.cpp:570] inception_4c/output_inception_4c/output_0_split -> inception_4c/output_inception_4c/output_0_split_3
I0331 19:06:46.803046 135990 net.cpp:210] Setting up inception_4c/output_inception_4c/output_0_split
I0331 19:06:46.803055 135990 net.cpp:217] Top shape: 112 512 14 14 (11239424)
I0331 19:06:46.803059 135990 net.cpp:217] Top shape: 112 512 14 14 (11239424)
I0331 19:06:46.803064 135990 net.cpp:217] Top shape: 112 512 14 14 (11239424)
I0331 19:06:46.803077 135990 net.cpp:217] Top shape: 112 512 14 14 (11239424)
I0331 19:06:46.803081 135990 net.cpp:225] Memory required for data: 5185895684
I0331 19:06:46.803088 135990 layer_factory.hpp:114] Creating layer inception_4d/1x1
I0331 19:06:46.803099 135990 net.cpp:160] Creating Layer inception_4d/1x1
I0331 19:06:46.803104 135990 net.cpp:596] inception_4d/1x1 <- inception_4c/output_inception_4c/output_0_split_0
I0331 19:06:46.803112 135990 net.cpp:570] inception_4d/1x1 -> inception_4d/1x1
I0331 19:06:46.807122 135990 net.cpp:210] Setting up inception_4d/1x1
I0331 19:06:46.807134 135990 net.cpp:217] Top shape: 112 112 14 14 (2458624)
I0331 19:06:46.807137 135990 net.cpp:225] Memory required for data: 5195730180
I0331 19:06:46.807144 135990 layer_factory.hpp:114] Creating layer inception_4d/relu_1x1
I0331 19:06:46.807152 135990 net.cpp:160] Creating Layer inception_4d/relu_1x1
I0331 19:06:46.807155 135990 net.cpp:596] inception_4d/relu_1x1 <- inception_4d/1x1
I0331 19:06:46.807163 135990 net.cpp:557] inception_4d/relu_1x1 -> inception_4d/1x1 (in-place)
I0331 19:06:46.807170 135990 net.cpp:210] Setting up inception_4d/relu_1x1
I0331 19:06:46.807176 135990 net.cpp:217] Top shape: 112 112 14 14 (2458624)
I0331 19:06:46.807179 135990 net.cpp:225] Memory required for data: 5205564676
I0331 19:06:46.807183 135990 layer_factory.hpp:114] Creating layer inception_4d/3x3_reduce
I0331 19:06:46.807194 135990 net.cpp:160] Creating Layer inception_4d/3x3_reduce
I0331 19:06:46.807199 135990 net.cpp:596] inception_4d/3x3_reduce <- inception_4c/output_inception_4c/output_0_split_1
I0331 19:06:46.807205 135990 net.cpp:570] inception_4d/3x3_reduce -> inception_4d/3x3_reduce
I0331 19:06:46.812391 135990 net.cpp:210] Setting up inception_4d/3x3_reduce
I0331 19:06:46.812402 135990 net.cpp:217] Top shape: 112 144 14 14 (3161088)
I0331 19:06:46.812405 135990 net.cpp:225] Memory required for data: 5218209028
I0331 19:06:46.812412 135990 layer_factory.hpp:114] Creating layer inception_4d/relu_3x3_reduce
I0331 19:06:46.812419 135990 net.cpp:160] Creating Layer inception_4d/relu_3x3_reduce
I0331 19:06:46.812424 135990 net.cpp:596] inception_4d/relu_3x3_reduce <- inception_4d/3x3_reduce
I0331 19:06:46.812429 135990 net.cpp:557] inception_4d/relu_3x3_reduce -> inception_4d/3x3_reduce (in-place)
I0331 19:06:46.812436 135990 net.cpp:210] Setting up inception_4d/relu_3x3_reduce
I0331 19:06:46.812441 135990 net.cpp:217] Top shape: 112 144 14 14 (3161088)
I0331 19:06:46.812444 135990 net.cpp:225] Memory required for data: 5230853380
I0331 19:06:46.812448 135990 layer_factory.hpp:114] Creating layer inception_4d/3x3
I0331 19:06:46.812456 135990 net.cpp:160] Creating Layer inception_4d/3x3
I0331 19:06:46.812460 135990 net.cpp:596] inception_4d/3x3 <- inception_4d/3x3_reduce
I0331 19:06:46.812469 135990 net.cpp:570] inception_4d/3x3 -> inception_4d/3x3
I0331 19:06:46.828164 135990 net.cpp:210] Setting up inception_4d/3x3
I0331 19:06:46.828194 135990 net.cpp:217] Top shape: 112 288 14 14 (6322176)
I0331 19:06:46.828198 135990 net.cpp:225] Memory required for data: 5256142084
I0331 19:06:46.828207 135990 layer_factory.hpp:114] Creating layer inception_4d/relu_3x3
I0331 19:06:46.828217 135990 net.cpp:160] Creating Layer inception_4d/relu_3x3
I0331 19:06:46.828224 135990 net.cpp:596] inception_4d/relu_3x3 <- inception_4d/3x3
I0331 19:06:46.828234 135990 net.cpp:557] inception_4d/relu_3x3 -> inception_4d/3x3 (in-place)
I0331 19:06:46.828243 135990 net.cpp:210] Setting up inception_4d/relu_3x3
I0331 19:06:46.828248 135990 net.cpp:217] Top shape: 112 288 14 14 (6322176)
I0331 19:06:46.828253 135990 net.cpp:225] Memory required for data: 5281430788
I0331 19:06:46.828256 135990 layer_factory.hpp:114] Creating layer inception_4d/5x5_reduce
I0331 19:06:46.828268 135990 net.cpp:160] Creating Layer inception_4d/5x5_reduce
I0331 19:06:46.828272 135990 net.cpp:596] inception_4d/5x5_reduce <- inception_4c/output_inception_4c/output_0_split_2
I0331 19:06:46.828280 135990 net.cpp:570] inception_4d/5x5_reduce -> inception_4d/5x5_reduce
I0331 19:06:46.831099 135990 net.cpp:210] Setting up inception_4d/5x5_reduce
I0331 19:06:46.831132 135990 net.cpp:217] Top shape: 112 32 14 14 (702464)
I0331 19:06:46.831136 135990 net.cpp:225] Memory required for data: 5284240644
I0331 19:06:46.831147 135990 layer_factory.hpp:114] Creating layer inception_4d/relu_5x5_reduce
I0331 19:06:46.831154 135990 net.cpp:160] Creating Layer inception_4d/relu_5x5_reduce
I0331 19:06:46.831159 135990 net.cpp:596] inception_4d/relu_5x5_reduce <- inception_4d/5x5_reduce
I0331 19:06:46.831167 135990 net.cpp:557] inception_4d/relu_5x5_reduce -> inception_4d/5x5_reduce (in-place)
I0331 19:06:46.831174 135990 net.cpp:210] Setting up inception_4d/relu_5x5_reduce
I0331 19:06:46.831181 135990 net.cpp:217] Top shape: 112 32 14 14 (702464)
I0331 19:06:46.831183 135990 net.cpp:225] Memory required for data: 5287050500
I0331 19:06:46.831187 135990 layer_factory.hpp:114] Creating layer inception_4d/5x5
I0331 19:06:46.831199 135990 net.cpp:160] Creating Layer inception_4d/5x5
I0331 19:06:46.831204 135990 net.cpp:596] inception_4d/5x5 <- inception_4d/5x5_reduce
I0331 19:06:46.831210 135990 net.cpp:570] inception_4d/5x5 -> inception_4d/5x5
I0331 19:06:46.836205 135990 net.cpp:210] Setting up inception_4d/5x5
I0331 19:06:46.836216 135990 net.cpp:217] Top shape: 112 64 14 14 (1404928)
I0331 19:06:46.836220 135990 net.cpp:225] Memory required for data: 5292670212
I0331 19:06:46.836227 135990 layer_factory.hpp:114] Creating layer inception_4d/relu_5x5
I0331 19:06:46.836233 135990 net.cpp:160] Creating Layer inception_4d/relu_5x5
I0331 19:06:46.836238 135990 net.cpp:596] inception_4d/relu_5x5 <- inception_4d/5x5
I0331 19:06:46.836246 135990 net.cpp:557] inception_4d/relu_5x5 -> inception_4d/5x5 (in-place)
I0331 19:06:46.836253 135990 net.cpp:210] Setting up inception_4d/relu_5x5
I0331 19:06:46.836259 135990 net.cpp:217] Top shape: 112 64 14 14 (1404928)
I0331 19:06:46.836262 135990 net.cpp:225] Memory required for data: 5298289924
I0331 19:06:46.836266 135990 layer_factory.hpp:114] Creating layer inception_4d/pool
I0331 19:06:46.836299 135990 net.cpp:160] Creating Layer inception_4d/pool
I0331 19:06:46.836304 135990 net.cpp:596] inception_4d/pool <- inception_4c/output_inception_4c/output_0_split_3
I0331 19:06:46.836313 135990 net.cpp:570] inception_4d/pool -> inception_4d/pool
I0331 19:06:46.836323 135990 net.cpp:210] Setting up inception_4d/pool
I0331 19:06:46.836329 135990 net.cpp:217] Top shape: 112 512 14 14 (11239424)
I0331 19:06:46.836333 135990 net.cpp:225] Memory required for data: 5343247620
I0331 19:06:46.836336 135990 layer_factory.hpp:114] Creating layer inception_4d/pool_proj
I0331 19:06:46.836351 135990 net.cpp:160] Creating Layer inception_4d/pool_proj
I0331 19:06:46.836356 135990 net.cpp:596] inception_4d/pool_proj <- inception_4d/pool
I0331 19:06:46.836364 135990 net.cpp:570] inception_4d/pool_proj -> inception_4d/pool_proj
I0331 19:06:46.840356 135990 net.cpp:210] Setting up inception_4d/pool_proj
I0331 19:06:46.840368 135990 net.cpp:217] Top shape: 112 64 14 14 (1404928)
I0331 19:06:46.840371 135990 net.cpp:225] Memory required for data: 5348867332
I0331 19:06:46.840378 135990 layer_factory.hpp:114] Creating layer inception_4d/relu_pool_proj
I0331 19:06:46.840385 135990 net.cpp:160] Creating Layer inception_4d/relu_pool_proj
I0331 19:06:46.840390 135990 net.cpp:596] inception_4d/relu_pool_proj <- inception_4d/pool_proj
I0331 19:06:46.840399 135990 net.cpp:557] inception_4d/relu_pool_proj -> inception_4d/pool_proj (in-place)
I0331 19:06:46.840405 135990 net.cpp:210] Setting up inception_4d/relu_pool_proj
I0331 19:06:46.840410 135990 net.cpp:217] Top shape: 112 64 14 14 (1404928)
I0331 19:06:46.840415 135990 net.cpp:225] Memory required for data: 5354487044
I0331 19:06:46.840417 135990 layer_factory.hpp:114] Creating layer inception_4d/output
I0331 19:06:46.840425 135990 net.cpp:160] Creating Layer inception_4d/output
I0331 19:06:46.840430 135990 net.cpp:596] inception_4d/output <- inception_4d/1x1
I0331 19:06:46.840435 135990 net.cpp:596] inception_4d/output <- inception_4d/3x3
I0331 19:06:46.840440 135990 net.cpp:596] inception_4d/output <- inception_4d/5x5
I0331 19:06:46.840457 135990 net.cpp:596] inception_4d/output <- inception_4d/pool_proj
I0331 19:06:46.840466 135990 net.cpp:570] inception_4d/output -> inception_4d/output
I0331 19:06:46.840478 135990 net.cpp:210] Setting up inception_4d/output
I0331 19:06:46.840486 135990 net.cpp:217] Top shape: 112 528 14 14 (11590656)
I0331 19:06:46.840489 135990 net.cpp:225] Memory required for data: 5400849668
I0331 19:06:46.840492 135990 layer_factory.hpp:114] Creating layer inception_4d/output_inception_4d/output_0_split
I0331 19:06:46.840502 135990 net.cpp:160] Creating Layer inception_4d/output_inception_4d/output_0_split
I0331 19:06:46.840507 135990 net.cpp:596] inception_4d/output_inception_4d/output_0_split <- inception_4d/output
I0331 19:06:46.840515 135990 net.cpp:570] inception_4d/output_inception_4d/output_0_split -> inception_4d/output_inception_4d/output_0_split_0
I0331 19:06:46.840523 135990 net.cpp:570] inception_4d/output_inception_4d/output_0_split -> inception_4d/output_inception_4d/output_0_split_1
I0331 19:06:46.840529 135990 net.cpp:570] inception_4d/output_inception_4d/output_0_split -> inception_4d/output_inception_4d/output_0_split_2
I0331 19:06:46.840536 135990 net.cpp:570] inception_4d/output_inception_4d/output_0_split -> inception_4d/output_inception_4d/output_0_split_3
I0331 19:06:46.840543 135990 net.cpp:570] inception_4d/output_inception_4d/output_0_split -> inception_4d/output_inception_4d/output_0_split_4
I0331 19:06:46.840553 135990 net.cpp:210] Setting up inception_4d/output_inception_4d/output_0_split
I0331 19:06:46.840559 135990 net.cpp:217] Top shape: 112 528 14 14 (11590656)
I0331 19:06:46.840564 135990 net.cpp:217] Top shape: 112 528 14 14 (11590656)
I0331 19:06:46.840569 135990 net.cpp:217] Top shape: 112 528 14 14 (11590656)
I0331 19:06:46.840574 135990 net.cpp:217] Top shape: 112 528 14 14 (11590656)
I0331 19:06:46.840579 135990 net.cpp:217] Top shape: 112 528 14 14 (11590656)
I0331 19:06:46.840581 135990 net.cpp:225] Memory required for data: 5632662788
I0331 19:06:46.840585 135990 layer_factory.hpp:114] Creating layer loss2/ave_pool
I0331 19:06:46.840605 135990 net.cpp:160] Creating Layer loss2/ave_pool
I0331 19:06:46.840610 135990 net.cpp:596] loss2/ave_pool <- inception_4d/output_inception_4d/output_0_split_0
I0331 19:06:46.840618 135990 net.cpp:570] loss2/ave_pool -> loss2/ave_pool
I0331 19:06:46.840631 135990 net.cpp:210] Setting up loss2/ave_pool
I0331 19:06:46.840639 135990 net.cpp:217] Top shape: 112 528 4 4 (946176)
I0331 19:06:46.840643 135990 net.cpp:225] Memory required for data: 5636447492
I0331 19:06:46.840646 135990 layer_factory.hpp:114] Creating layer loss2/conv
I0331 19:06:46.840658 135990 net.cpp:160] Creating Layer loss2/conv
I0331 19:06:46.840663 135990 net.cpp:596] loss2/conv <- loss2/ave_pool
I0331 19:06:46.840670 135990 net.cpp:570] loss2/conv -> loss2/conv
I0331 19:06:46.843768 135990 net.cpp:210] Setting up loss2/conv
I0331 19:06:46.843780 135990 net.cpp:217] Top shape: 112 128 4 4 (229376)
I0331 19:06:46.843785 135990 net.cpp:225] Memory required for data: 5637364996
I0331 19:06:46.843791 135990 layer_factory.hpp:114] Creating layer loss2/relu_conv
I0331 19:06:46.843801 135990 net.cpp:160] Creating Layer loss2/relu_conv
I0331 19:06:46.843806 135990 net.cpp:596] loss2/relu_conv <- loss2/conv
I0331 19:06:46.843814 135990 net.cpp:557] loss2/relu_conv -> loss2/conv (in-place)
I0331 19:06:46.843822 135990 net.cpp:210] Setting up loss2/relu_conv
I0331 19:06:46.843827 135990 net.cpp:217] Top shape: 112 128 4 4 (229376)
I0331 19:06:46.843830 135990 net.cpp:225] Memory required for data: 5638282500
I0331 19:06:46.843834 135990 layer_factory.hpp:114] Creating layer loss2/fc
I0331 19:06:46.843847 135990 net.cpp:160] Creating Layer loss2/fc
I0331 19:06:46.843850 135990 net.cpp:596] loss2/fc <- loss2/conv
I0331 19:06:46.843859 135990 net.cpp:570] loss2/fc -> loss2/fc
I0331 19:06:46.863724 135990 net.cpp:210] Setting up loss2/fc
I0331 19:06:46.863734 135990 net.cpp:217] Top shape: 112 1024 (114688)
I0331 19:06:46.863739 135990 net.cpp:225] Memory required for data: 5638741252
I0331 19:06:46.863754 135990 layer_factory.hpp:114] Creating layer loss2/relu_fc
I0331 19:06:46.863760 135990 net.cpp:160] Creating Layer loss2/relu_fc
I0331 19:06:46.863768 135990 net.cpp:596] loss2/relu_fc <- loss2/fc
I0331 19:06:46.863775 135990 net.cpp:557] loss2/relu_fc -> loss2/fc (in-place)
I0331 19:06:46.863781 135990 net.cpp:210] Setting up loss2/relu_fc
I0331 19:06:46.863786 135990 net.cpp:217] Top shape: 112 1024 (114688)
I0331 19:06:46.863790 135990 net.cpp:225] Memory required for data: 5639200004
I0331 19:06:46.863793 135990 layer_factory.hpp:114] Creating layer loss2/drop_fc
I0331 19:06:46.863803 135990 net.cpp:160] Creating Layer loss2/drop_fc
I0331 19:06:46.863808 135990 net.cpp:596] loss2/drop_fc <- loss2/fc
I0331 19:06:46.863813 135990 net.cpp:557] loss2/drop_fc -> loss2/fc (in-place)
I0331 19:06:46.863822 135990 net.cpp:210] Setting up loss2/drop_fc
I0331 19:06:46.863827 135990 net.cpp:217] Top shape: 112 1024 (114688)
I0331 19:06:46.863831 135990 net.cpp:225] Memory required for data: 5639658756
I0331 19:06:46.863834 135990 layer_factory.hpp:114] Creating layer loss2/classifier
I0331 19:06:46.863842 135990 net.cpp:160] Creating Layer loss2/classifier
I0331 19:06:46.863847 135990 net.cpp:596] loss2/classifier <- loss2/fc
I0331 19:06:46.863853 135990 net.cpp:570] loss2/classifier -> loss2/classifier
I0331 19:06:46.873795 135990 net.cpp:210] Setting up loss2/classifier
I0331 19:06:46.873806 135990 net.cpp:217] Top shape: 112 1000 (112000)
I0331 19:06:46.873811 135990 net.cpp:225] Memory required for data: 5640106756
I0331 19:06:46.873817 135990 layer_factory.hpp:114] Creating layer loss2/loss
I0331 19:06:46.873826 135990 net.cpp:160] Creating Layer loss2/loss
I0331 19:06:46.873831 135990 net.cpp:596] loss2/loss <- loss2/classifier
I0331 19:06:46.873836 135990 net.cpp:596] loss2/loss <- label_data_1_split_1
I0331 19:06:46.873842 135990 net.cpp:570] loss2/loss -> loss2/loss1
I0331 19:06:46.873852 135990 layer_factory.hpp:114] Creating layer loss2/loss
I0331 19:06:46.874152 135990 net.cpp:210] Setting up loss2/loss
I0331 19:06:46.874160 135990 net.cpp:217] Top shape: (1)
I0331 19:06:46.874163 135990 net.cpp:220]     with loss weight 0.3
I0331 19:06:46.874179 135990 net.cpp:225] Memory required for data: 5640106760
I0331 19:06:46.874183 135990 layer_factory.hpp:114] Creating layer inception_4e/1x1
I0331 19:06:46.874193 135990 net.cpp:160] Creating Layer inception_4e/1x1
I0331 19:06:46.874198 135990 net.cpp:596] inception_4e/1x1 <- inception_4d/output_inception_4d/output_0_split_1
I0331 19:06:46.874207 135990 net.cpp:570] inception_4e/1x1 -> inception_4e/1x1
I0331 19:06:46.881024 135990 net.cpp:210] Setting up inception_4e/1x1
I0331 19:06:46.881036 135990 net.cpp:217] Top shape: 112 256 14 14 (5619712)
I0331 19:06:46.881041 135990 net.cpp:225] Memory required for data: 5662585608
I0331 19:06:46.881048 135990 layer_factory.hpp:114] Creating layer inception_4e/relu_1x1
I0331 19:06:46.881054 135990 net.cpp:160] Creating Layer inception_4e/relu_1x1
I0331 19:06:46.881059 135990 net.cpp:596] inception_4e/relu_1x1 <- inception_4e/1x1
I0331 19:06:46.881067 135990 net.cpp:557] inception_4e/relu_1x1 -> inception_4e/1x1 (in-place)
I0331 19:06:46.881075 135990 net.cpp:210] Setting up inception_4e/relu_1x1
I0331 19:06:46.881080 135990 net.cpp:217] Top shape: 112 256 14 14 (5619712)
I0331 19:06:46.881084 135990 net.cpp:225] Memory required for data: 5685064456
I0331 19:06:46.881088 135990 layer_factory.hpp:114] Creating layer inception_4e/3x3_reduce
I0331 19:06:46.881096 135990 net.cpp:160] Creating Layer inception_4e/3x3_reduce
I0331 19:06:46.881101 135990 net.cpp:596] inception_4e/3x3_reduce <- inception_4d/output_inception_4d/output_0_split_2
I0331 19:06:46.881108 135990 net.cpp:570] inception_4e/3x3_reduce -> inception_4e/3x3_reduce
I0331 19:06:46.886333 135990 net.cpp:210] Setting up inception_4e/3x3_reduce
I0331 19:06:46.886344 135990 net.cpp:217] Top shape: 112 160 14 14 (3512320)
I0331 19:06:46.886348 135990 net.cpp:225] Memory required for data: 5699113736
I0331 19:06:46.886368 135990 layer_factory.hpp:114] Creating layer inception_4e/relu_3x3_reduce
I0331 19:06:46.886375 135990 net.cpp:160] Creating Layer inception_4e/relu_3x3_reduce
I0331 19:06:46.886384 135990 net.cpp:596] inception_4e/relu_3x3_reduce <- inception_4e/3x3_reduce
I0331 19:06:46.886390 135990 net.cpp:557] inception_4e/relu_3x3_reduce -> inception_4e/3x3_reduce (in-place)
I0331 19:06:46.886397 135990 net.cpp:210] Setting up inception_4e/relu_3x3_reduce
I0331 19:06:46.886402 135990 net.cpp:217] Top shape: 112 160 14 14 (3512320)
I0331 19:06:46.886406 135990 net.cpp:225] Memory required for data: 5713163016
I0331 19:06:46.886409 135990 layer_factory.hpp:114] Creating layer inception_4e/3x3
I0331 19:06:46.886421 135990 net.cpp:160] Creating Layer inception_4e/3x3
I0331 19:06:46.886426 135990 net.cpp:596] inception_4e/3x3 <- inception_4e/3x3_reduce
I0331 19:06:46.886435 135990 net.cpp:570] inception_4e/3x3 -> inception_4e/3x3
I0331 19:06:46.905102 135990 net.cpp:210] Setting up inception_4e/3x3
I0331 19:06:46.905133 135990 net.cpp:217] Top shape: 112 320 14 14 (7024640)
I0331 19:06:46.905138 135990 net.cpp:225] Memory required for data: 5741261576
I0331 19:06:46.905148 135990 layer_factory.hpp:114] Creating layer inception_4e/relu_3x3
I0331 19:06:46.905160 135990 net.cpp:160] Creating Layer inception_4e/relu_3x3
I0331 19:06:46.905169 135990 net.cpp:596] inception_4e/relu_3x3 <- inception_4e/3x3
I0331 19:06:46.905176 135990 net.cpp:557] inception_4e/relu_3x3 -> inception_4e/3x3 (in-place)
I0331 19:06:46.905185 135990 net.cpp:210] Setting up inception_4e/relu_3x3
I0331 19:06:46.905191 135990 net.cpp:217] Top shape: 112 320 14 14 (7024640)
I0331 19:06:46.905195 135990 net.cpp:225] Memory required for data: 5769360136
I0331 19:06:46.905200 135990 layer_factory.hpp:114] Creating layer inception_4e/5x5_reduce
I0331 19:06:46.905210 135990 net.cpp:160] Creating Layer inception_4e/5x5_reduce
I0331 19:06:46.905215 135990 net.cpp:596] inception_4e/5x5_reduce <- inception_4d/output_inception_4d/output_0_split_3
I0331 19:06:46.905227 135990 net.cpp:570] inception_4e/5x5_reduce -> inception_4e/5x5_reduce
I0331 19:06:46.908160 135990 net.cpp:210] Setting up inception_4e/5x5_reduce
I0331 19:06:46.908174 135990 net.cpp:217] Top shape: 112 32 14 14 (702464)
I0331 19:06:46.908177 135990 net.cpp:225] Memory required for data: 5772169992
I0331 19:06:46.908185 135990 layer_factory.hpp:114] Creating layer inception_4e/relu_5x5_reduce
I0331 19:06:46.908195 135990 net.cpp:160] Creating Layer inception_4e/relu_5x5_reduce
I0331 19:06:46.908200 135990 net.cpp:596] inception_4e/relu_5x5_reduce <- inception_4e/5x5_reduce
I0331 19:06:46.908205 135990 net.cpp:557] inception_4e/relu_5x5_reduce -> inception_4e/5x5_reduce (in-place)
I0331 19:06:46.908212 135990 net.cpp:210] Setting up inception_4e/relu_5x5_reduce
I0331 19:06:46.908217 135990 net.cpp:217] Top shape: 112 32 14 14 (702464)
I0331 19:06:46.908221 135990 net.cpp:225] Memory required for data: 5774979848
I0331 19:06:46.908226 135990 layer_factory.hpp:114] Creating layer inception_4e/5x5
I0331 19:06:46.908246 135990 net.cpp:160] Creating Layer inception_4e/5x5
I0331 19:06:46.908251 135990 net.cpp:596] inception_4e/5x5 <- inception_4e/5x5_reduce
I0331 19:06:46.908257 135990 net.cpp:570] inception_4e/5x5 -> inception_4e/5x5
I0331 19:06:46.914860 135990 net.cpp:210] Setting up inception_4e/5x5
I0331 19:06:46.914872 135990 net.cpp:217] Top shape: 112 128 14 14 (2809856)
I0331 19:06:46.914876 135990 net.cpp:225] Memory required for data: 5786219272
I0331 19:06:46.914885 135990 layer_factory.hpp:114] Creating layer inception_4e/relu_5x5
I0331 19:06:46.914891 135990 net.cpp:160] Creating Layer inception_4e/relu_5x5
I0331 19:06:46.914896 135990 net.cpp:596] inception_4e/relu_5x5 <- inception_4e/5x5
I0331 19:06:46.914904 135990 net.cpp:557] inception_4e/relu_5x5 -> inception_4e/5x5 (in-place)
I0331 19:06:46.914911 135990 net.cpp:210] Setting up inception_4e/relu_5x5
I0331 19:06:46.914917 135990 net.cpp:217] Top shape: 112 128 14 14 (2809856)
I0331 19:06:46.914921 135990 net.cpp:225] Memory required for data: 5797458696
I0331 19:06:46.914947 135990 layer_factory.hpp:114] Creating layer inception_4e/pool
I0331 19:06:46.914983 135990 net.cpp:160] Creating Layer inception_4e/pool
I0331 19:06:46.914994 135990 net.cpp:596] inception_4e/pool <- inception_4d/output_inception_4d/output_0_split_4
I0331 19:06:46.915000 135990 net.cpp:570] inception_4e/pool -> inception_4e/pool
I0331 19:06:46.915012 135990 net.cpp:210] Setting up inception_4e/pool
I0331 19:06:46.915019 135990 net.cpp:217] Top shape: 112 528 14 14 (11590656)
I0331 19:06:46.915021 135990 net.cpp:225] Memory required for data: 5843821320
I0331 19:06:46.915025 135990 layer_factory.hpp:114] Creating layer inception_4e/pool_proj
I0331 19:06:46.915038 135990 net.cpp:160] Creating Layer inception_4e/pool_proj
I0331 19:06:46.915043 135990 net.cpp:596] inception_4e/pool_proj <- inception_4e/pool
I0331 19:06:46.915050 135990 net.cpp:570] inception_4e/pool_proj -> inception_4e/pool_proj
I0331 19:06:46.920083 135990 net.cpp:210] Setting up inception_4e/pool_proj
I0331 19:06:46.920094 135990 net.cpp:217] Top shape: 112 128 14 14 (2809856)
I0331 19:06:46.920099 135990 net.cpp:225] Memory required for data: 5855060744
I0331 19:06:46.920105 135990 layer_factory.hpp:114] Creating layer inception_4e/relu_pool_proj
I0331 19:06:46.920112 135990 net.cpp:160] Creating Layer inception_4e/relu_pool_proj
I0331 19:06:46.920117 135990 net.cpp:596] inception_4e/relu_pool_proj <- inception_4e/pool_proj
I0331 19:06:46.920123 135990 net.cpp:557] inception_4e/relu_pool_proj -> inception_4e/pool_proj (in-place)
I0331 19:06:46.920130 135990 net.cpp:210] Setting up inception_4e/relu_pool_proj
I0331 19:06:46.920135 135990 net.cpp:217] Top shape: 112 128 14 14 (2809856)
I0331 19:06:46.920138 135990 net.cpp:225] Memory required for data: 5866300168
I0331 19:06:46.920142 135990 layer_factory.hpp:114] Creating layer inception_4e/output
I0331 19:06:46.920150 135990 net.cpp:160] Creating Layer inception_4e/output
I0331 19:06:46.920155 135990 net.cpp:596] inception_4e/output <- inception_4e/1x1
I0331 19:06:46.920161 135990 net.cpp:596] inception_4e/output <- inception_4e/3x3
I0331 19:06:46.920164 135990 net.cpp:596] inception_4e/output <- inception_4e/5x5
I0331 19:06:46.920169 135990 net.cpp:596] inception_4e/output <- inception_4e/pool_proj
I0331 19:06:46.920178 135990 net.cpp:570] inception_4e/output -> inception_4e/output
I0331 19:06:46.920188 135990 net.cpp:210] Setting up inception_4e/output
I0331 19:06:46.920194 135990 net.cpp:217] Top shape: 112 832 14 14 (18264064)
I0331 19:06:46.920198 135990 net.cpp:225] Memory required for data: 5939356424
I0331 19:06:46.920202 135990 layer_factory.hpp:114] Creating layer pool4/3x3_s2
I0331 19:06:46.920222 135990 net.cpp:160] Creating Layer pool4/3x3_s2
I0331 19:06:46.920228 135990 net.cpp:596] pool4/3x3_s2 <- inception_4e/output
I0331 19:06:46.920235 135990 net.cpp:570] pool4/3x3_s2 -> pool4/3x3_s2
I0331 19:06:46.920243 135990 net.cpp:210] Setting up pool4/3x3_s2
I0331 19:06:46.920248 135990 net.cpp:217] Top shape: 112 832 7 7 (4566016)
I0331 19:06:46.920253 135990 net.cpp:225] Memory required for data: 5957620488
I0331 19:06:46.920256 135990 layer_factory.hpp:114] Creating layer pool4/3x3_s2_pool4/3x3_s2_0_split
I0331 19:06:46.920264 135990 net.cpp:160] Creating Layer pool4/3x3_s2_pool4/3x3_s2_0_split
I0331 19:06:46.920269 135990 net.cpp:596] pool4/3x3_s2_pool4/3x3_s2_0_split <- pool4/3x3_s2
I0331 19:06:46.920277 135990 net.cpp:570] pool4/3x3_s2_pool4/3x3_s2_0_split -> pool4/3x3_s2_pool4/3x3_s2_0_split_0
I0331 19:06:46.920284 135990 net.cpp:570] pool4/3x3_s2_pool4/3x3_s2_0_split -> pool4/3x3_s2_pool4/3x3_s2_0_split_1
I0331 19:06:46.920290 135990 net.cpp:570] pool4/3x3_s2_pool4/3x3_s2_0_split -> pool4/3x3_s2_pool4/3x3_s2_0_split_2
I0331 19:06:46.920296 135990 net.cpp:570] pool4/3x3_s2_pool4/3x3_s2_0_split -> pool4/3x3_s2_pool4/3x3_s2_0_split_3
I0331 19:06:46.920305 135990 net.cpp:210] Setting up pool4/3x3_s2_pool4/3x3_s2_0_split
I0331 19:06:46.920310 135990 net.cpp:217] Top shape: 112 832 7 7 (4566016)
I0331 19:06:46.920315 135990 net.cpp:217] Top shape: 112 832 7 7 (4566016)
I0331 19:06:46.920328 135990 net.cpp:217] Top shape: 112 832 7 7 (4566016)
I0331 19:06:46.920333 135990 net.cpp:217] Top shape: 112 832 7 7 (4566016)
I0331 19:06:46.920341 135990 net.cpp:225] Memory required for data: 6030676744
I0331 19:06:46.920344 135990 layer_factory.hpp:114] Creating layer inception_5a/1x1
I0331 19:06:46.920353 135990 net.cpp:160] Creating Layer inception_5a/1x1
I0331 19:06:46.920357 135990 net.cpp:596] inception_5a/1x1 <- pool4/3x3_s2_pool4/3x3_s2_0_split_0
I0331 19:06:46.920367 135990 net.cpp:570] inception_5a/1x1 -> inception_5a/1x1
I0331 19:06:46.928424 135990 net.cpp:210] Setting up inception_5a/1x1
I0331 19:06:46.928437 135990 net.cpp:217] Top shape: 112 256 7 7 (1404928)
I0331 19:06:46.928442 135990 net.cpp:225] Memory required for data: 6036296456
I0331 19:06:46.928449 135990 layer_factory.hpp:114] Creating layer inception_5a/relu_1x1
I0331 19:06:46.928457 135990 net.cpp:160] Creating Layer inception_5a/relu_1x1
I0331 19:06:46.928462 135990 net.cpp:596] inception_5a/relu_1x1 <- inception_5a/1x1
I0331 19:06:46.928467 135990 net.cpp:557] inception_5a/relu_1x1 -> inception_5a/1x1 (in-place)
I0331 19:06:46.928473 135990 net.cpp:210] Setting up inception_5a/relu_1x1
I0331 19:06:46.928479 135990 net.cpp:217] Top shape: 112 256 7 7 (1404928)
I0331 19:06:46.928483 135990 net.cpp:225] Memory required for data: 6041916168
I0331 19:06:46.928486 135990 layer_factory.hpp:114] Creating layer inception_5a/3x3_reduce
I0331 19:06:46.928498 135990 net.cpp:160] Creating Layer inception_5a/3x3_reduce
I0331 19:06:46.928504 135990 net.cpp:596] inception_5a/3x3_reduce <- pool4/3x3_s2_pool4/3x3_s2_0_split_1
I0331 19:06:46.928511 135990 net.cpp:570] inception_5a/3x3_reduce -> inception_5a/3x3_reduce
I0331 19:06:46.934283 135990 net.cpp:210] Setting up inception_5a/3x3_reduce
I0331 19:06:46.934296 135990 net.cpp:217] Top shape: 112 160 7 7 (878080)
I0331 19:06:46.934299 135990 net.cpp:225] Memory required for data: 6045428488
I0331 19:06:46.934306 135990 layer_factory.hpp:114] Creating layer inception_5a/relu_3x3_reduce
I0331 19:06:46.934316 135990 net.cpp:160] Creating Layer inception_5a/relu_3x3_reduce
I0331 19:06:46.934321 135990 net.cpp:596] inception_5a/relu_3x3_reduce <- inception_5a/3x3_reduce
I0331 19:06:46.934327 135990 net.cpp:557] inception_5a/relu_3x3_reduce -> inception_5a/3x3_reduce (in-place)
I0331 19:06:46.934334 135990 net.cpp:210] Setting up inception_5a/relu_3x3_reduce
I0331 19:06:46.934340 135990 net.cpp:217] Top shape: 112 160 7 7 (878080)
I0331 19:06:46.934343 135990 net.cpp:225] Memory required for data: 6048940808
I0331 19:06:46.934347 135990 layer_factory.hpp:114] Creating layer inception_5a/3x3
I0331 19:06:46.934355 135990 net.cpp:160] Creating Layer inception_5a/3x3
I0331 19:06:46.934360 135990 net.cpp:596] inception_5a/3x3 <- inception_5a/3x3_reduce
I0331 19:06:46.934367 135990 net.cpp:570] inception_5a/3x3 -> inception_5a/3x3
I0331 19:06:46.949514 135990 net.cpp:210] Setting up inception_5a/3x3
I0331 19:06:46.949535 135990 net.cpp:217] Top shape: 112 320 7 7 (1756160)
I0331 19:06:46.949540 135990 net.cpp:225] Memory required for data: 6055965448
I0331 19:06:46.949548 135990 layer_factory.hpp:114] Creating layer inception_5a/relu_3x3
I0331 19:06:46.949556 135990 net.cpp:160] Creating Layer inception_5a/relu_3x3
I0331 19:06:46.949563 135990 net.cpp:596] inception_5a/relu_3x3 <- inception_5a/3x3
I0331 19:06:46.949570 135990 net.cpp:557] inception_5a/relu_3x3 -> inception_5a/3x3 (in-place)
I0331 19:06:46.949579 135990 net.cpp:210] Setting up inception_5a/relu_3x3
I0331 19:06:46.949584 135990 net.cpp:217] Top shape: 112 320 7 7 (1756160)
I0331 19:06:46.949587 135990 net.cpp:225] Memory required for data: 6062990088
I0331 19:06:46.949591 135990 layer_factory.hpp:114] Creating layer inception_5a/5x5_reduce
I0331 19:06:46.949604 135990 net.cpp:160] Creating Layer inception_5a/5x5_reduce
I0331 19:06:46.949610 135990 net.cpp:596] inception_5a/5x5_reduce <- pool4/3x3_s2_pool4/3x3_s2_0_split_2
I0331 19:06:46.949618 135990 net.cpp:570] inception_5a/5x5_reduce -> inception_5a/5x5_reduce
I0331 19:06:46.952038 135990 net.cpp:210] Setting up inception_5a/5x5_reduce
I0331 19:06:46.952049 135990 net.cpp:217] Top shape: 112 32 7 7 (175616)
I0331 19:06:46.952054 135990 net.cpp:225] Memory required for data: 6063692552
I0331 19:06:46.952065 135990 layer_factory.hpp:114] Creating layer inception_5a/relu_5x5_reduce
I0331 19:06:46.952072 135990 net.cpp:160] Creating Layer inception_5a/relu_5x5_reduce
I0331 19:06:46.952077 135990 net.cpp:596] inception_5a/relu_5x5_reduce <- inception_5a/5x5_reduce
I0331 19:06:46.952085 135990 net.cpp:557] inception_5a/relu_5x5_reduce -> inception_5a/5x5_reduce (in-place)
I0331 19:06:46.952092 135990 net.cpp:210] Setting up inception_5a/relu_5x5_reduce
I0331 19:06:46.952097 135990 net.cpp:217] Top shape: 112 32 7 7 (175616)
I0331 19:06:46.952101 135990 net.cpp:225] Memory required for data: 6064395016
I0331 19:06:46.952105 135990 layer_factory.hpp:114] Creating layer inception_5a/5x5
I0331 19:06:46.952116 135990 net.cpp:160] Creating Layer inception_5a/5x5
I0331 19:06:46.952119 135990 net.cpp:596] inception_5a/5x5 <- inception_5a/5x5_reduce
I0331 19:06:46.952126 135990 net.cpp:570] inception_5a/5x5 -> inception_5a/5x5
I0331 19:06:46.956600 135990 net.cpp:210] Setting up inception_5a/5x5
I0331 19:06:46.956612 135990 net.cpp:217] Top shape: 112 128 7 7 (702464)
I0331 19:06:46.956616 135990 net.cpp:225] Memory required for data: 6067204872
I0331 19:06:46.956625 135990 layer_factory.hpp:114] Creating layer inception_5a/relu_5x5
I0331 19:06:46.956634 135990 net.cpp:160] Creating Layer inception_5a/relu_5x5
I0331 19:06:46.956639 135990 net.cpp:596] inception_5a/relu_5x5 <- inception_5a/5x5
I0331 19:06:46.956646 135990 net.cpp:557] inception_5a/relu_5x5 -> inception_5a/5x5 (in-place)
I0331 19:06:46.956653 135990 net.cpp:210] Setting up inception_5a/relu_5x5
I0331 19:06:46.956658 135990 net.cpp:217] Top shape: 112 128 7 7 (702464)
I0331 19:06:46.956662 135990 net.cpp:225] Memory required for data: 6070014728
I0331 19:06:46.956665 135990 layer_factory.hpp:114] Creating layer inception_5a/pool
I0331 19:06:46.956699 135990 net.cpp:160] Creating Layer inception_5a/pool
I0331 19:06:46.956706 135990 net.cpp:596] inception_5a/pool <- pool4/3x3_s2_pool4/3x3_s2_0_split_3
I0331 19:06:46.956712 135990 net.cpp:570] inception_5a/pool -> inception_5a/pool
I0331 19:06:46.956722 135990 net.cpp:210] Setting up inception_5a/pool
I0331 19:06:46.956727 135990 net.cpp:217] Top shape: 112 832 7 7 (4566016)
I0331 19:06:46.956732 135990 net.cpp:225] Memory required for data: 6088278792
I0331 19:06:46.956734 135990 layer_factory.hpp:114] Creating layer inception_5a/pool_proj
I0331 19:06:46.956748 135990 net.cpp:160] Creating Layer inception_5a/pool_proj
I0331 19:06:46.956753 135990 net.cpp:596] inception_5a/pool_proj <- inception_5a/pool
I0331 19:06:46.956759 135990 net.cpp:570] inception_5a/pool_proj -> inception_5a/pool_proj
I0331 19:06:46.961447 135990 net.cpp:210] Setting up inception_5a/pool_proj
I0331 19:06:46.961459 135990 net.cpp:217] Top shape: 112 128 7 7 (702464)
I0331 19:06:46.961462 135990 net.cpp:225] Memory required for data: 6091088648
I0331 19:06:46.961470 135990 layer_factory.hpp:114] Creating layer inception_5a/relu_pool_proj
I0331 19:06:46.961478 135990 net.cpp:160] Creating Layer inception_5a/relu_pool_proj
I0331 19:06:46.961484 135990 net.cpp:596] inception_5a/relu_pool_proj <- inception_5a/pool_proj
I0331 19:06:46.961489 135990 net.cpp:557] inception_5a/relu_pool_proj -> inception_5a/pool_proj (in-place)
I0331 19:06:46.961496 135990 net.cpp:210] Setting up inception_5a/relu_pool_proj
I0331 19:06:46.961503 135990 net.cpp:217] Top shape: 112 128 7 7 (702464)
I0331 19:06:46.961505 135990 net.cpp:225] Memory required for data: 6093898504
I0331 19:06:46.961509 135990 layer_factory.hpp:114] Creating layer inception_5a/output
I0331 19:06:46.961518 135990 net.cpp:160] Creating Layer inception_5a/output
I0331 19:06:46.961522 135990 net.cpp:596] inception_5a/output <- inception_5a/1x1
I0331 19:06:46.961527 135990 net.cpp:596] inception_5a/output <- inception_5a/3x3
I0331 19:06:46.961532 135990 net.cpp:596] inception_5a/output <- inception_5a/5x5
I0331 19:06:46.961546 135990 net.cpp:596] inception_5a/output <- inception_5a/pool_proj
I0331 19:06:46.961552 135990 net.cpp:570] inception_5a/output -> inception_5a/output
I0331 19:06:46.961565 135990 net.cpp:210] Setting up inception_5a/output
I0331 19:06:46.961571 135990 net.cpp:217] Top shape: 112 832 7 7 (4566016)
I0331 19:06:46.961575 135990 net.cpp:225] Memory required for data: 6112162568
I0331 19:06:46.961578 135990 layer_factory.hpp:114] Creating layer inception_5a/output_inception_5a/output_0_split
I0331 19:06:46.961590 135990 net.cpp:160] Creating Layer inception_5a/output_inception_5a/output_0_split
I0331 19:06:46.961593 135990 net.cpp:596] inception_5a/output_inception_5a/output_0_split <- inception_5a/output
I0331 19:06:46.961599 135990 net.cpp:570] inception_5a/output_inception_5a/output_0_split -> inception_5a/output_inception_5a/output_0_split_0
I0331 19:06:46.961606 135990 net.cpp:570] inception_5a/output_inception_5a/output_0_split -> inception_5a/output_inception_5a/output_0_split_1
I0331 19:06:46.961613 135990 net.cpp:570] inception_5a/output_inception_5a/output_0_split -> inception_5a/output_inception_5a/output_0_split_2
I0331 19:06:46.961621 135990 net.cpp:570] inception_5a/output_inception_5a/output_0_split -> inception_5a/output_inception_5a/output_0_split_3
I0331 19:06:46.961632 135990 net.cpp:210] Setting up inception_5a/output_inception_5a/output_0_split
I0331 19:06:46.961638 135990 net.cpp:217] Top shape: 112 832 7 7 (4566016)
I0331 19:06:46.961643 135990 net.cpp:217] Top shape: 112 832 7 7 (4566016)
I0331 19:06:46.961648 135990 net.cpp:217] Top shape: 112 832 7 7 (4566016)
I0331 19:06:46.961652 135990 net.cpp:217] Top shape: 112 832 7 7 (4566016)
I0331 19:06:46.961657 135990 net.cpp:225] Memory required for data: 6185218824
I0331 19:06:46.961660 135990 layer_factory.hpp:114] Creating layer inception_5b/1x1
I0331 19:06:46.961671 135990 net.cpp:160] Creating Layer inception_5b/1x1
I0331 19:06:46.961676 135990 net.cpp:596] inception_5b/1x1 <- inception_5a/output_inception_5a/output_0_split_0
I0331 19:06:46.961683 135990 net.cpp:570] inception_5b/1x1 -> inception_5b/1x1
I0331 19:06:46.972617 135990 net.cpp:210] Setting up inception_5b/1x1
I0331 19:06:46.972635 135990 net.cpp:217] Top shape: 112 384 7 7 (2107392)
I0331 19:06:46.972638 135990 net.cpp:225] Memory required for data: 6193648392
I0331 19:06:46.972645 135990 layer_factory.hpp:114] Creating layer inception_5b/relu_1x1
I0331 19:06:46.972656 135990 net.cpp:160] Creating Layer inception_5b/relu_1x1
I0331 19:06:46.972661 135990 net.cpp:596] inception_5b/relu_1x1 <- inception_5b/1x1
I0331 19:06:46.972667 135990 net.cpp:557] inception_5b/relu_1x1 -> inception_5b/1x1 (in-place)
I0331 19:06:46.972676 135990 net.cpp:210] Setting up inception_5b/relu_1x1
I0331 19:06:46.972681 135990 net.cpp:217] Top shape: 112 384 7 7 (2107392)
I0331 19:06:46.972683 135990 net.cpp:225] Memory required for data: 6202077960
I0331 19:06:46.972687 135990 layer_factory.hpp:114] Creating layer inception_5b/3x3_reduce
I0331 19:06:46.972698 135990 net.cpp:160] Creating Layer inception_5b/3x3_reduce
I0331 19:06:46.972702 135990 net.cpp:596] inception_5b/3x3_reduce <- inception_5a/output_inception_5a/output_0_split_1
I0331 19:06:46.972718 135990 net.cpp:570] inception_5b/3x3_reduce -> inception_5b/3x3_reduce
I0331 19:06:46.979095 135990 net.cpp:210] Setting up inception_5b/3x3_reduce
I0331 19:06:46.979106 135990 net.cpp:217] Top shape: 112 192 7 7 (1053696)
I0331 19:06:46.979110 135990 net.cpp:225] Memory required for data: 6206292744
I0331 19:06:46.979117 135990 layer_factory.hpp:114] Creating layer inception_5b/relu_3x3_reduce
I0331 19:06:46.979123 135990 net.cpp:160] Creating Layer inception_5b/relu_3x3_reduce
I0331 19:06:46.979130 135990 net.cpp:596] inception_5b/relu_3x3_reduce <- inception_5b/3x3_reduce
I0331 19:06:46.979135 135990 net.cpp:557] inception_5b/relu_3x3_reduce -> inception_5b/3x3_reduce (in-place)
I0331 19:06:46.979141 135990 net.cpp:210] Setting up inception_5b/relu_3x3_reduce
I0331 19:06:46.979146 135990 net.cpp:217] Top shape: 112 192 7 7 (1053696)
I0331 19:06:46.979164 135990 net.cpp:225] Memory required for data: 6210507528
I0331 19:06:46.979169 135990 layer_factory.hpp:114] Creating layer inception_5b/3x3
I0331 19:06:46.979190 135990 net.cpp:160] Creating Layer inception_5b/3x3
I0331 19:06:46.979194 135990 net.cpp:596] inception_5b/3x3 <- inception_5b/3x3_reduce
I0331 19:06:46.979202 135990 net.cpp:570] inception_5b/3x3 -> inception_5b/3x3
I0331 19:06:47.000100 135990 net.cpp:210] Setting up inception_5b/3x3
I0331 19:06:47.000138 135990 net.cpp:217] Top shape: 112 384 7 7 (2107392)
I0331 19:06:47.000143 135990 net.cpp:225] Memory required for data: 6218937096
I0331 19:06:47.000152 135990 layer_factory.hpp:114] Creating layer inception_5b/relu_3x3
I0331 19:06:47.000166 135990 net.cpp:160] Creating Layer inception_5b/relu_3x3
I0331 19:06:47.000175 135990 net.cpp:596] inception_5b/relu_3x3 <- inception_5b/3x3
I0331 19:06:47.000183 135990 net.cpp:557] inception_5b/relu_3x3 -> inception_5b/3x3 (in-place)
I0331 19:06:47.000193 135990 net.cpp:210] Setting up inception_5b/relu_3x3
I0331 19:06:47.000200 135990 net.cpp:217] Top shape: 112 384 7 7 (2107392)
I0331 19:06:47.000202 135990 net.cpp:225] Memory required for data: 6227366664
I0331 19:06:47.000206 135990 layer_factory.hpp:114] Creating layer inception_5b/5x5_reduce
I0331 19:06:47.000217 135990 net.cpp:160] Creating Layer inception_5b/5x5_reduce
I0331 19:06:47.000223 135990 net.cpp:596] inception_5b/5x5_reduce <- inception_5a/output_inception_5a/output_0_split_2
I0331 19:06:47.000233 135990 net.cpp:570] inception_5b/5x5_reduce -> inception_5b/5x5_reduce
I0331 19:06:47.003188 135990 net.cpp:210] Setting up inception_5b/5x5_reduce
I0331 19:06:47.003201 135990 net.cpp:217] Top shape: 112 48 7 7 (263424)
I0331 19:06:47.003204 135990 net.cpp:225] Memory required for data: 6228420360
I0331 19:06:47.003211 135990 layer_factory.hpp:114] Creating layer inception_5b/relu_5x5_reduce
I0331 19:06:47.003218 135990 net.cpp:160] Creating Layer inception_5b/relu_5x5_reduce
I0331 19:06:47.003223 135990 net.cpp:596] inception_5b/relu_5x5_reduce <- inception_5b/5x5_reduce
I0331 19:06:47.003232 135990 net.cpp:557] inception_5b/relu_5x5_reduce -> inception_5b/5x5_reduce (in-place)
I0331 19:06:47.003240 135990 net.cpp:210] Setting up inception_5b/relu_5x5_reduce
I0331 19:06:47.003245 135990 net.cpp:217] Top shape: 112 48 7 7 (263424)
I0331 19:06:47.003249 135990 net.cpp:225] Memory required for data: 6229474056
I0331 19:06:47.003253 135990 layer_factory.hpp:114] Creating layer inception_5b/5x5
I0331 19:06:47.003263 135990 net.cpp:160] Creating Layer inception_5b/5x5
I0331 19:06:47.003268 135990 net.cpp:596] inception_5b/5x5 <- inception_5b/5x5_reduce
I0331 19:06:47.003276 135990 net.cpp:570] inception_5b/5x5 -> inception_5b/5x5
I0331 19:06:47.009958 135990 net.cpp:210] Setting up inception_5b/5x5
I0331 19:06:47.009969 135990 net.cpp:217] Top shape: 112 128 7 7 (702464)
I0331 19:06:47.009974 135990 net.cpp:225] Memory required for data: 6232283912
I0331 19:06:47.009981 135990 layer_factory.hpp:114] Creating layer inception_5b/relu_5x5
I0331 19:06:47.009989 135990 net.cpp:160] Creating Layer inception_5b/relu_5x5
I0331 19:06:47.009994 135990 net.cpp:596] inception_5b/relu_5x5 <- inception_5b/5x5
I0331 19:06:47.009999 135990 net.cpp:557] inception_5b/relu_5x5 -> inception_5b/5x5 (in-place)
I0331 19:06:47.010005 135990 net.cpp:210] Setting up inception_5b/relu_5x5
I0331 19:06:47.010011 135990 net.cpp:217] Top shape: 112 128 7 7 (702464)
I0331 19:06:47.010015 135990 net.cpp:225] Memory required for data: 6235093768
I0331 19:06:47.010020 135990 layer_factory.hpp:114] Creating layer inception_5b/pool
I0331 19:06:47.010054 135990 net.cpp:160] Creating Layer inception_5b/pool
I0331 19:06:47.010061 135990 net.cpp:596] inception_5b/pool <- inception_5a/output_inception_5a/output_0_split_3
I0331 19:06:47.010067 135990 net.cpp:570] inception_5b/pool -> inception_5b/pool
I0331 19:06:47.010078 135990 net.cpp:210] Setting up inception_5b/pool
I0331 19:06:47.010087 135990 net.cpp:217] Top shape: 112 832 7 7 (4566016)
I0331 19:06:47.010113 135990 net.cpp:225] Memory required for data: 6253357832
I0331 19:06:47.010118 135990 layer_factory.hpp:114] Creating layer inception_5b/pool_proj
I0331 19:06:47.010130 135990 net.cpp:160] Creating Layer inception_5b/pool_proj
I0331 19:06:47.010135 135990 net.cpp:596] inception_5b/pool_proj <- inception_5b/pool
I0331 19:06:47.010144 135990 net.cpp:570] inception_5b/pool_proj -> inception_5b/pool_proj
I0331 19:06:47.014830 135990 net.cpp:210] Setting up inception_5b/pool_proj
I0331 19:06:47.014844 135990 net.cpp:217] Top shape: 112 128 7 7 (702464)
I0331 19:06:47.014848 135990 net.cpp:225] Memory required for data: 6256167688
I0331 19:06:47.014855 135990 layer_factory.hpp:114] Creating layer inception_5b/relu_pool_proj
I0331 19:06:47.014863 135990 net.cpp:160] Creating Layer inception_5b/relu_pool_proj
I0331 19:06:47.014868 135990 net.cpp:596] inception_5b/relu_pool_proj <- inception_5b/pool_proj
I0331 19:06:47.014873 135990 net.cpp:557] inception_5b/relu_pool_proj -> inception_5b/pool_proj (in-place)
I0331 19:06:47.014879 135990 net.cpp:210] Setting up inception_5b/relu_pool_proj
I0331 19:06:47.014884 135990 net.cpp:217] Top shape: 112 128 7 7 (702464)
I0331 19:06:47.014889 135990 net.cpp:225] Memory required for data: 6258977544
I0331 19:06:47.014892 135990 layer_factory.hpp:114] Creating layer inception_5b/output
I0331 19:06:47.014899 135990 net.cpp:160] Creating Layer inception_5b/output
I0331 19:06:47.014904 135990 net.cpp:596] inception_5b/output <- inception_5b/1x1
I0331 19:06:47.014909 135990 net.cpp:596] inception_5b/output <- inception_5b/3x3
I0331 19:06:47.014914 135990 net.cpp:596] inception_5b/output <- inception_5b/5x5
I0331 19:06:47.014919 135990 net.cpp:596] inception_5b/output <- inception_5b/pool_proj
I0331 19:06:47.014927 135990 net.cpp:570] inception_5b/output -> inception_5b/output
I0331 19:06:47.014936 135990 net.cpp:210] Setting up inception_5b/output
I0331 19:06:47.014942 135990 net.cpp:217] Top shape: 112 1024 7 7 (5619712)
I0331 19:06:47.014946 135990 net.cpp:225] Memory required for data: 6281456392
I0331 19:06:47.014950 135990 layer_factory.hpp:114] Creating layer pool5/7x7_s1
I0331 19:06:47.014968 135990 net.cpp:160] Creating Layer pool5/7x7_s1
I0331 19:06:47.014973 135990 net.cpp:596] pool5/7x7_s1 <- inception_5b/output
I0331 19:06:47.014981 135990 net.cpp:570] pool5/7x7_s1 -> pool5/7x7_s1
I0331 19:06:47.014988 135990 net.cpp:210] Setting up pool5/7x7_s1
I0331 19:06:47.014993 135990 net.cpp:217] Top shape: 112 1024 1 1 (114688)
I0331 19:06:47.014997 135990 net.cpp:225] Memory required for data: 6281915144
I0331 19:06:47.015002 135990 layer_factory.hpp:114] Creating layer pool5/drop_7x7_s1
I0331 19:06:47.015012 135990 net.cpp:160] Creating Layer pool5/drop_7x7_s1
I0331 19:06:47.015015 135990 net.cpp:596] pool5/drop_7x7_s1 <- pool5/7x7_s1
I0331 19:06:47.015022 135990 net.cpp:557] pool5/drop_7x7_s1 -> pool5/7x7_s1 (in-place)
I0331 19:06:47.015030 135990 net.cpp:210] Setting up pool5/drop_7x7_s1
I0331 19:06:47.015035 135990 net.cpp:217] Top shape: 112 1024 1 1 (114688)
I0331 19:06:47.015039 135990 net.cpp:225] Memory required for data: 6282373896
I0331 19:06:47.015043 135990 layer_factory.hpp:114] Creating layer loss3/classifier
I0331 19:06:47.015054 135990 net.cpp:160] Creating Layer loss3/classifier
I0331 19:06:47.015058 135990 net.cpp:596] loss3/classifier <- pool5/7x7_s1
I0331 19:06:47.015065 135990 net.cpp:570] loss3/classifier -> loss3/classifier
I0331 19:06:47.025008 135990 net.cpp:210] Setting up loss3/classifier
I0331 19:06:47.025019 135990 net.cpp:217] Top shape: 112 1000 (112000)
I0331 19:06:47.025023 135990 net.cpp:225] Memory required for data: 6282821896
I0331 19:06:47.025030 135990 layer_factory.hpp:114] Creating layer loss3/loss3
I0331 19:06:47.025039 135990 net.cpp:160] Creating Layer loss3/loss3
I0331 19:06:47.025044 135990 net.cpp:596] loss3/loss3 <- loss3/classifier
I0331 19:06:47.025049 135990 net.cpp:596] loss3/loss3 <- label_data_1_split_2
I0331 19:06:47.025055 135990 net.cpp:570] loss3/loss3 -> loss3/loss3
…
I0331 19:06:47.033638 135990 net.cpp:484] The NetState phase (1) differed from the phase (0) specified by a rule in layer data
I0331 19:06:47.038225 135990 net.cpp:120] Initializing net from parameters: 
name: "GoogleNet"
state {
  phase: TEST
}
layer {
  name: "data"
  type: "Data"
  top: "data"
  top: "label"
  include {
    phase: TEST
  }
  transform_param {
    mirror: false
    crop_size: 224
    mean_value: 104
    mean_value: 117
    mean_value: 123
  }
  data_param {
    source: "/home/user/LIBRARIES/caffeLibs/caffe/examples/imagenet/ilsvrc12_val_lmdb"
    batch_size: 50
    backend: LMDB
  }
}
layer {
  name: "label_data_1_split"
  type: "Split"
  bottom: "label"
  top: "label_data_1_split_0"
  top: "label_data_1_split_1"
  top: "label_data_1_split_2"
  top: "label_data_1_split_3"
  top: "label_data_1_split_4"
  top: "label_data_1_split_5"
  top: "label_data_1_split_6"
  top: "label_data_1_split_7"
  top: "label_data_1_split_8"
}
layer {
  name: "conv1/7x7_s2"
  type: "Convolution"
  bottom: "data"
  top: "conv1/7x7_s2"
  param {
    lr_mult: 1
    decay_mult: 1
  }
  param {
    lr_mult: 2
    decay_mult: 0
  }
  convolution_param {
    num_output: 64
    pad: 3
    kernel_size: 7
    stride: 2
    weight_filler {
      type: "xavier"
    }
    bias_filler {
      type: "constant"
      value: 0.2
    }
  }
}
layer {
  name: "conv1/relu_7x7"
  type: "ReLU"
  bottom: "conv1/7x7_s2"
  top: "conv1/7x7_s2"
}
layer {
  name: "pool1/3x3_s2"
  type: "Pooling"
  bottom: "conv1/7x7_s2"
  top: "pool1/3x3_s2"
  pooling_param {
    pool: MAX
    kernel_size: 3
    stride: 2
  }
}
layer {
  name: "pool1/norm1"
  type: "LRN"
  bottom: "pool1/3x3_s2"
  top: "pool1/norm1"
  lrn_param {
    local_size: 5
    alpha: 0.0001
    beta: 0.75
  }
}
layer {
  name: "conv2/3x3_reduce"
  type: "Convolution"
  bottom: "pool1/norm1"
  top: "conv2/3x3_reduce"
  param {
    lr_mult: 1
    decay_mult: 1
  }
  param {
    lr_mult: 2
    decay_mult: 0
  }
  convolution_param {
    num_output: 64
    kernel_size: 1
    weight_filler {
      type: "xavier"
    }
    bias_filler {
      type: "constant"
      value: 0.2
    }
  }
}
layer {
  name: "conv2/relu_3x3_reduce"
  type: "ReLU"
  bottom: "conv2/3x3_reduce"
  top: "conv2/3x3_reduce"
}
layer {
  name: "conv2/3x3"
  type: "Convolution"
  bottom: "conv2/3x3_reduce"
  top: "conv2/3x3"
  param {
    lr_mult: 1
    decay_mult: 1
  }
  param {
    lr_mult: 2
    decay_mult: 0
  }
  convolution_param {
    num_output: 192
    pad: 1
    kernel_size: 3
    weight_filler {
      type: "xavier"
    }
    bias_filler {
      type: "constant"
      value: 0.2
    }
  }
}
layer {
  name: "conv2/relu_3x3"
  type: "ReLU"
  bottom: "conv2/3x3"
  top: "conv2/3x3"
}
layer {
  name: "conv2/norm2"
  type: "LRN"
  bottom: "conv2/3x3"
  top: "conv2/norm2"
  lrn_param {
    local_size: 5
    alpha: 0.0001
    beta: 0.75
  }
}
layer {
  name: "pool2/3x3_s2"
  type: "Pooling"
  bottom: "conv2/norm2"
  top: "pool2/3x3_s2"
  pooling_param {
    pool: MAX
    kernel_size: 3
    stride: 2
  }
}
layer {
  name: "pool2/3x3_s2_pool2/3x3_s2_0_split"
  type: "Split"
  bottom: "pool2/3x3_s2"
  top: "pool2/3x3_s2_pool2/3x3_s2_0_split_0"
  top: "pool2/3x3_s2_pool2/3x3_s2_0_split_1"
  top: "pool2/3x3_s2_pool2/3x3_s2_0_split_2"
  top: "pool2/3x3_s2_pool2/3x3_s2_0_split_3"
}
layer {
  name: "inception_3a/1x1"
  type: "Convolution"
  bottom: "pool2/3x3_s2_pool2/3x3_s2_0_split_0"
  top: "inception_3a/1x1"
  param {
    lr_mult: 1
    decay_mult: 1
  }
  param {
    lr_mult: 2
    decay_mult: 0
  }
  convolution_param {
    num_output: 64
    kernel_size: 1
    weight_filler {
      type: "xavier"
    }
    bias_filler {
      type: "constant"
      value: 0.2
    }
  }
}
layer {
  name: "inception_3a/relu_1x1"
  type: "ReLU"
  bottom: "inception_3a/1x1"
  top: "inception_3a/1x1"
}
layer {
  name: "inception_3a/3x3_reduce"
  type: "Convolution"
  bottom: "pool2/3x3_s2_pool2/3x3_s2_0_split_1"
  top: "inception_3a/3x3_reduce"
  param {
    lr_mult: 1
    decay_mult: 1
  }
  param {
    lr_mult: 2
    decay_mult: 0
  }
  convolution_param {
    num_output: 96
    kernel_size: 1
    weight_filler {
      type: "xavier"
    }
    bias_filler {
      type: "constant"
      value: 0.2
    }
  }
}
layer {
  name: "inception_3a/relu_3x3_reduce"
  type: "ReLU"
  bottom: "inception_3a/3x3_reduce"
  top: "inception_3a/3x3_reduce"
}
layer {
  name: "inception_3a/3x3"
  type: "Convolution"
  bottom: "inception_3a/3x3_reduce"
  top: "inception_3a/3x3"
  param {
    lr_mult: 1
    decay_mult: 1
  }
  param {
    lr_mult: 2
    decay_mult: 0
  }
  convolution_param {
    num_output: 128
    pad: 1
    kernel_size: 3
    weight_filler {
      type: "xavier"
    }
    bias_filler {
      type: "constant"
      value: 0.2
    }
  }
}
layer {
  name: "inception_3a/relu_3x3"
  type: "ReLU"
  bottom: "inception_3a/3x3"
  top: "inception_3a/3x3"
}
layer {
  name: "inception_3a/5x5_reduce"
  type: "Convolution"
  bottom: "pool2/3x3_s2_pool2/3x3_s2_0_split_2"
  top: "inception_3a/5x5_reduce"
  param {
    lr_mult: 1
    decay_mult: 1
  }
  param {
    lr_mult: 2
    decay_mult: 0
  }
  convolution_param {
    num_output: 16
    kernel_size: 1
    weight_filler {
      type: "xavier"
    }
    bias_filler {
      type: "constant"
      value: 0.2
    }
  }
}
layer {
  name: "inception_3a/relu_5x5_reduce"
  type: "ReLU"
  bottom: "inception_3a/5x5_reduce"
  top: "inception_3a/5x5_reduce"
}
layer {
  name: "inception_3a/5x5"
  type: "Convolution"
  bottom: "inception_3a/5x5_reduce"
  top: "inception_3a/5x5"
  param {
    lr_mult: 1
    decay_mult: 1
  }
  param {
    lr_mult: 2
    decay_mult: 0
  }
  convolution_param {
    num_output: 32
    pad: 2
    kernel_size: 5
    weight_filler {
      type: "xavier"
    }
    bias_filler {
      type: "constant"
      value: 0.2
    }
  }
}
layer {
  name: "inception_3a/relu_5x5"
  type: "ReLU"
  bottom: "inception_3a/5x5"
  top: "inception_3a/5x5"
}
layer {
  name: "inception_3a/pool"
  type: "Pooling"
  bottom: "pool2/3x3_s2_pool2/3x3_s2_0_split_3"
  top: "inception_3a/pool"
  pooling_param {
    pool: MAX
    kernel_size: 3
    stride: 1
    pad: 1
  }
}
layer {
  name: "inception_3a/pool_proj"
  type: "Convolution"
  bottom: "inception_3a/pool"
  top: "inception_3a/pool_proj"
  param {
    lr_mult: 1
    decay_mult: 1
  }
  param {
    lr_mult: 2
    decay_mult: 0
  }
  convolution_param {
    num_output: 32
    kernel_size: 1
    weight_filler {
      type: "xavier"
    }
    bias_filler {
      type: "constant"
      value: 0.2
    }
  }
}
layer {
  name: "inception_3a/relu_pool_proj"
  type: "ReLU"
  bottom: "inception_3a/pool_proj"
  top: "inception_3a/pool_proj"
}
layer {
  name: "inception_3a/output"
  type: "Concat"
  bottom: "inception_3a/1x1"
  bottom: "inception_3a/3x3"
  bottom: "inception_3a/5x5"
  bottom: "inception_3a/pool_proj"
  top: "inception_3a/output"
}
layer {
  name: "inception_3a/output_inception_3a/output_0_split"
  type: "Split"
  bottom: "inception_3a/output"
  top: "inception_3a/output_inception_3a/output_0_split_0"
  top: "inception_3a/output_inception_3a/output_0_split_1"
  top: "inception_3a/output_inception_3a/output_0_split_2"
  top: "inception_3a/output_inception_3a/output_0_split_3"
}
layer {
  name: "inception_3b/1x1"
  type: "Convolution"
  bottom: "inception_3a/output_inception_3a/output_0_split_0"
  top: "inception_3b/1x1"
  param {
    lr_mult: 1
    decay_mult: 1
  }
  param {
    lr_mult: 2
    decay_mult: 0
  }
  convolution_param {
    num_output: 128
    kernel_size: 1
    weight_filler {
      type: "xavier"
    }
    bias_filler {
      type: "constant"
      value: 0.2
    }
  }
}
layer {
  name: "inception_3b/relu_1x1"
  type: "ReLU"
  bottom: "inception_3b/1x1"
  top: "inception_3b/1x1"
}
layer {
  name: "inception_3b/3x3_reduce"
  type: "Convolution"
  bottom: "inception_3a/output_inception_3a/output_0_split_1"
  top: "inception_3b/3x3_reduce"
  param {
    lr_mult: 1
    decay_mult: 1
  }
  param {
    lr_mult: 2
    decay_mult: 0
  }
  convolution_param {
    num_output: 128
    kernel_size: 1
    weight_filler {
      type: "xavier"
    }
    bias_filler {
      type: "constant"
      value: 0.2
    }
  }
}
layer {
  name: "inception_3b/relu_3x3_reduce"
  type: "ReLU"
  bottom: "inception_3b/3x3_reduce"
  top: "inception_3b/3x3_reduce"
}
layer {
  name: "inception_3b/3x3"
  type: "Convolution"
  bottom: "inception_3b/3x3_reduce"
  top: "inception_3b/3x3"
  param {
    lr_mult: 1
    decay_mult: 1
  }
  param {
    lr_mult: 2
    decay_mult: 0
  }
  convolution_param {
    num_output: 192
    pad: 1
    kernel_size: 3
    weight_filler {
      type: "xavier"
    }
    bias_filler {
      type: "constant"
      value: 0.2
    }
  }
}
layer {
  name: "inception_3b/relu_3x3"
  type: "ReLU"
  bottom: "inception_3b/3x3"
  top: "inception_3b/3x3"
}
layer {
  name: "inception_3b/5x5_reduce"
  type: "Convolution"
  bottom: "inception_3a/output_inception_3a/output_0_split_2"
  top: "inception_3b/5x5_reduce"
  param {
    lr_mult: 1
    decay_mult: 1
  }
  param {
    lr_mult: 2
    decay_mult: 0
  }
  convolution_param {
    num_output: 32
    kernel_size: 1
    weight_filler {
      type: "xavier"
    }
    bias_filler {
      type: "constant"
      value: 0.2
    }
  }
}
layer {
  name: "inception_3b/relu_5x5_reduce"
  type: "ReLU"
  bottom: "inception_3b/5x5_reduce"
  top: "inception_3b/5x5_reduce"
}
layer {
  name: "inception_3b/5x5"
  type: "Convolution"
  bottom: "inception_3b/5x5_reduce"
  top: "inception_3b/5x5"
  param {
    lr_mult: 1
    decay_mult: 1
  }
  param {
    lr_mult: 2
    decay_mult: 0
  }
  convolution_param {
    num_output: 96
    pad: 2
    kernel_size: 5
    weight_filler {
      type: "xavier"
    }
    bias_filler {
      type: "constant"
      value: 0.2
    }
  }
}
layer {
  name: "inception_3b/relu_5x5"
  type: "ReLU"
  bottom: "inception_3b/5x5"
  top: "inception_3b/5x5"
}
layer {
  name: "inception_3b/pool"
  type: "Pooling"
  bottom: "inception_3a/output_inception_3a/output_0_split_3"
  top: "inception_3b/pool"
  pooling_param {
    pool: MAX
    kernel_size: 3
    stride: 1
    pad: 1
  }
}
layer {
  name: "inception_3b/pool_proj"
  type: "Convolution"
  bottom: "inception_3b/pool"
  top: "inception_3b/pool_proj"
  param {
    lr_mult: 1
    decay_mult: 1
  }
  param {
    lr_mult: 2
    decay_mult: 0
  }
  convolution_param {
    num_output: 64
    kernel_size: 1
    weight_filler {
      type: "xavier"
    }
    bias_filler {
      type: "constant"
      value: 0.2
    }
  }
}
layer {
  name: "inception_3b/relu_pool_proj"
  type: "ReLU"
  bottom: "inception_3b/pool_proj"
  top: "inception_3b/pool_proj"
}
layer {
  name: "inception_3b/output"
  type: "Concat"
  bottom: "inception_3b/1x1"
  bottom: "inception_3b/3x3"
  bottom: "inception_3b/5x5"
  bottom: "inception_3b/pool_proj"
  top: "inception_3b/output"
}
layer {
  name: "pool3/3x3_s2"
  type: "Pooling"
  bottom: "inception_3b/output"
  top: "pool3/3x3_s2"
  pooling_param {
    pool: MAX
    kernel_size: 3
    stride: 2
  }
}
layer {
  name: "pool3/3x3_s2_pool3/3x3_s2_0_split"
  type: "Split"
  bottom: "pool3/3x3_s2"
  top: "pool3/3x3_s2_pool3/3x3_s2_0_split_0"
  top: "pool3/3x3_s2_pool3/3x3_s2_0_split_1"
  top: "pool3/3x3_s2_pool3/3x3_s2_0_split_2"
  top: "pool3/3x3_s2_pool3/3x3_s2_0_split_3"
}
layer {
  name: "inception_4a/1x1"
  type: "Convolution"
  bottom: "pool3/3x3_s2_pool3/3x3_s2_0_split_0"
  top: "inception_4a/1x1"
  param {
    lr_mult: 1
    decay_mult: 1
  }
  param {
    lr_mult: 2
    decay_mult: 0
  }
  convolution_param {
    num_output: 192
    kernel_size: 1
    weight_filler {
      type: "xavier"
    }
    bias_filler {
      type: "constant"
      value: 0.2
    }
  }
}
layer {
  name: "inception_4a/relu_1x1"
  type: "ReLU"
  bottom: "inception_4a/1x1"
  top: "inception_4a/1x1"
}
layer {
  name: "inception_4a/3x3_reduce"
  type: "Convolution"
  bottom: "pool3/3x3_s2_pool3/3x3_s2_0_split_1"
  top: "inception_4a/3x3_reduce"
  param {
    lr_mult: 1
    decay_mult: 1
  }
  param {
    lr_mult: 2
    decay_mult: 0
  }
  convolution_param {
    num_output: 96
…
I0331 19:06:47.378520 135990 layer_factory.hpp:114] Creating layer inception_4c/pool_proj
I0331 19:06:47.378531 135990 net.cpp:160] Creating Layer inception_4c/pool_proj
I0331 19:06:47.378536 135990 net.cpp:596] inception_4c/pool_proj <- inception_4c/pool
I0331 19:06:47.378543 135990 net.cpp:570] inception_4c/pool_proj -> inception_4c/pool_proj
I0331 19:06:47.382030 135990 net.cpp:210] Setting up inception_4c/pool_proj
I0331 19:06:47.382041 135990 net.cpp:217] Top shape: 50 64 14 14 (627200)
I0331 19:06:47.382045 135990 net.cpp:225] Memory required for data: 2212872412
I0331 19:06:47.382052 135990 layer_factory.hpp:114] Creating layer inception_4c/relu_pool_proj
I0331 19:06:47.382060 135990 net.cpp:160] Creating Layer inception_4c/relu_pool_proj
I0331 19:06:47.382064 135990 net.cpp:596] inception_4c/relu_pool_proj <- inception_4c/pool_proj
I0331 19:06:47.382072 135990 net.cpp:557] inception_4c/relu_pool_proj -> inception_4c/pool_proj (in-place)
I0331 19:06:47.382079 135990 net.cpp:210] Setting up inception_4c/relu_pool_proj
I0331 19:06:47.382086 135990 net.cpp:217] Top shape: 50 64 14 14 (627200)
I0331 19:06:47.382088 135990 net.cpp:225] Memory required for data: 2215381212
I0331 19:06:47.382092 135990 layer_factory.hpp:114] Creating layer inception_4c/output
I0331 19:06:47.382100 135990 net.cpp:160] Creating Layer inception_4c/output
I0331 19:06:47.382105 135990 net.cpp:596] inception_4c/output <- inception_4c/1x1
I0331 19:06:47.382110 135990 net.cpp:596] inception_4c/output <- inception_4c/3x3
I0331 19:06:47.382115 135990 net.cpp:596] inception_4c/output <- inception_4c/5x5
I0331 19:06:47.382119 135990 net.cpp:596] inception_4c/output <- inception_4c/pool_proj
I0331 19:06:47.382128 135990 net.cpp:570] inception_4c/output -> inception_4c/output
I0331 19:06:47.382153 135990 net.cpp:210] Setting up inception_4c/output
I0331 19:06:47.382158 135990 net.cpp:217] Top shape: 50 512 14 14 (5017600)
I0331 19:06:47.382161 135990 net.cpp:225] Memory required for data: 2235451612
I0331 19:06:47.382169 135990 layer_factory.hpp:114] Creating layer inception_4c/output_inception_4c/output_0_split
I0331 19:06:47.382176 135990 net.cpp:160] Creating Layer inception_4c/output_inception_4c/output_0_split
I0331 19:06:47.382181 135990 net.cpp:596] inception_4c/output_inception_4c/output_0_split <- inception_4c/output
I0331 19:06:47.382187 135990 net.cpp:570] inception_4c/output_inception_4c/output_0_split -> inception_4c/output_inception_4c/output_0_split_0
I0331 19:06:47.382196 135990 net.cpp:570] inception_4c/output_inception_4c/output_0_split -> inception_4c/output_inception_4c/output_0_split_1
I0331 19:06:47.382203 135990 net.cpp:570] inception_4c/output_inception_4c/output_0_split -> inception_4c/output_inception_4c/output_0_split_2
I0331 19:06:47.382210 135990 net.cpp:570] inception_4c/output_inception_4c/output_0_split -> inception_4c/output_inception_4c/output_0_split_3
I0331 19:06:47.382217 135990 net.cpp:210] Setting up inception_4c/output_inception_4c/output_0_split
I0331 19:06:47.382222 135990 net.cpp:217] Top shape: 50 512 14 14 (5017600)
I0331 19:06:47.382227 135990 net.cpp:217] Top shape: 50 512 14 14 (5017600)
I0331 19:06:47.382232 135990 net.cpp:217] Top shape: 50 512 14 14 (5017600)
I0331 19:06:47.382236 135990 net.cpp:217] Top shape: 50 512 14 14 (5017600)
I0331 19:06:47.382241 135990 net.cpp:225] Memory required for data: 2315733212
I0331 19:06:47.382243 135990 layer_factory.hpp:114] Creating layer inception_4d/1x1
I0331 19:06:47.382254 135990 net.cpp:160] Creating Layer inception_4d/1x1
I0331 19:06:47.382258 135990 net.cpp:596] inception_4d/1x1 <- inception_4c/output_inception_4c/output_0_split_0
I0331 19:06:47.382267 135990 net.cpp:570] inception_4d/1x1 -> inception_4d/1x1
I0331 19:06:47.386775 135990 net.cpp:210] Setting up inception_4d/1x1
I0331 19:06:47.386785 135990 net.cpp:217] Top shape: 50 112 14 14 (1097600)
I0331 19:06:47.386790 135990 net.cpp:225] Memory required for data: 2320123612
I0331 19:06:47.386796 135990 layer_factory.hpp:114] Creating layer inception_4d/relu_1x1
I0331 19:06:47.386803 135990 net.cpp:160] Creating Layer inception_4d/relu_1x1
I0331 19:06:47.386807 135990 net.cpp:596] inception_4d/relu_1x1 <- inception_4d/1x1
I0331 19:06:47.386813 135990 net.cpp:557] inception_4d/relu_1x1 -> inception_4d/1x1 (in-place)
I0331 19:06:47.386821 135990 net.cpp:210] Setting up inception_4d/relu_1x1
I0331 19:06:47.386826 135990 net.cpp:217] Top shape: 50 112 14 14 (1097600)
I0331 19:06:47.386829 135990 net.cpp:225] Memory required for data: 2324514012
I0331 19:06:47.386833 135990 layer_factory.hpp:114] Creating layer inception_4d/3x3_reduce
I0331 19:06:47.386844 135990 net.cpp:160] Creating Layer inception_4d/3x3_reduce
I0331 19:06:47.386849 135990 net.cpp:596] inception_4d/3x3_reduce <- inception_4c/output_inception_4c/output_0_split_1
I0331 19:06:47.386857 135990 net.cpp:570] inception_4d/3x3_reduce -> inception_4d/3x3_reduce
I0331 19:06:47.391522 135990 net.cpp:210] Setting up inception_4d/3x3_reduce
I0331 19:06:47.391533 135990 net.cpp:217] Top shape: 50 144 14 14 (1411200)
I0331 19:06:47.391537 135990 net.cpp:225] Memory required for data: 2330158812
I0331 19:06:47.391544 135990 layer_factory.hpp:114] Creating layer inception_4d/relu_3x3_reduce
I0331 19:06:47.391553 135990 net.cpp:160] Creating Layer inception_4d/relu_3x3_reduce
I0331 19:06:47.391558 135990 net.cpp:596] inception_4d/relu_3x3_reduce <- inception_4d/3x3_reduce
I0331 19:06:47.391563 135990 net.cpp:557] inception_4d/relu_3x3_reduce -> inception_4d/3x3_reduce (in-place)
I0331 19:06:47.391571 135990 net.cpp:210] Setting up inception_4d/relu_3x3_reduce
I0331 19:06:47.391576 135990 net.cpp:217] Top shape: 50 144 14 14 (1411200)
I0331 19:06:47.391579 135990 net.cpp:225] Memory required for data: 2335803612
I0331 19:06:47.391583 135990 layer_factory.hpp:114] Creating layer inception_4d/3x3
I0331 19:06:47.391599 135990 net.cpp:160] Creating Layer inception_4d/3x3
I0331 19:06:47.391604 135990 net.cpp:596] inception_4d/3x3 <- inception_4d/3x3_reduce
I0331 19:06:47.391615 135990 net.cpp:570] inception_4d/3x3 -> inception_4d/3x3
I0331 19:06:47.407294 135990 net.cpp:210] Setting up inception_4d/3x3
I0331 19:06:47.407320 135990 net.cpp:217] Top shape: 50 288 14 14 (2822400)
I0331 19:06:47.407325 135990 net.cpp:225] Memory required for data: 2347093212
I0331 19:06:47.407335 135990 layer_factory.hpp:114] Creating layer inception_4d/relu_3x3
I0331 19:06:47.407344 135990 net.cpp:160] Creating Layer inception_4d/relu_3x3
I0331 19:06:47.407351 135990 net.cpp:596] inception_4d/relu_3x3 <- inception_4d/3x3
I0331 19:06:47.407361 135990 net.cpp:557] inception_4d/relu_3x3 -> inception_4d/3x3 (in-place)
I0331 19:06:47.407371 135990 net.cpp:210] Setting up inception_4d/relu_3x3
I0331 19:06:47.407377 135990 net.cpp:217] Top shape: 50 288 14 14 (2822400)
I0331 19:06:47.407380 135990 net.cpp:225] Memory required for data: 2358382812
I0331 19:06:47.407384 135990 layer_factory.hpp:114] Creating layer inception_4d/5x5_reduce
I0331 19:06:47.407395 135990 net.cpp:160] Creating Layer inception_4d/5x5_reduce
I0331 19:06:47.407400 135990 net.cpp:596] inception_4d/5x5_reduce <- inception_4c/output_inception_4c/output_0_split_2
I0331 19:06:47.407408 135990 net.cpp:570] inception_4d/5x5_reduce -> inception_4d/5x5_reduce
I0331 19:06:47.410707 135990 net.cpp:210] Setting up inception_4d/5x5_reduce
I0331 19:06:47.410718 135990 net.cpp:217] Top shape: 50 32 14 14 (313600)
I0331 19:06:47.410722 135990 net.cpp:225] Memory required for data: 2359637212
I0331 19:06:47.410730 135990 layer_factory.hpp:114] Creating layer inception_4d/relu_5x5_reduce
I0331 19:06:47.410740 135990 net.cpp:160] Creating Layer inception_4d/relu_5x5_reduce
I0331 19:06:47.410747 135990 net.cpp:596] inception_4d/relu_5x5_reduce <- inception_4d/5x5_reduce
I0331 19:06:47.410755 135990 net.cpp:557] inception_4d/relu_5x5_reduce -> inception_4d/5x5_reduce (in-place)
I0331 19:06:47.410763 135990 net.cpp:210] Setting up inception_4d/relu_5x5_reduce
I0331 19:06:47.410768 135990 net.cpp:217] Top shape: 50 32 14 14 (313600)
I0331 19:06:47.410771 135990 net.cpp:225] Memory required for data: 2360891612
I0331 19:06:47.410776 135990 layer_factory.hpp:114] Creating layer inception_4d/5x5
I0331 19:06:47.410785 135990 net.cpp:160] Creating Layer inception_4d/5x5
I0331 19:06:47.410789 135990 net.cpp:596] inception_4d/5x5 <- inception_4d/5x5_reduce
I0331 19:06:47.410799 135990 net.cpp:570] inception_4d/5x5 -> inception_4d/5x5
I0331 19:06:47.416290 135990 net.cpp:210] Setting up inception_4d/5x5
I0331 19:06:47.416303 135990 net.cpp:217] Top shape: 50 64 14 14 (627200)
I0331 19:06:47.416307 135990 net.cpp:225] Memory required for data: 2363400412
I0331 19:06:47.416314 135990 layer_factory.hpp:114] Creating layer inception_4d/relu_5x5
I0331 19:06:47.416321 135990 net.cpp:160] Creating Layer inception_4d/relu_5x5
I0331 19:06:47.416326 135990 net.cpp:596] inception_4d/relu_5x5 <- inception_4d/5x5
I0331 19:06:47.416332 135990 net.cpp:557] inception_4d/relu_5x5 -> inception_4d/5x5 (in-place)
I0331 19:06:47.416340 135990 net.cpp:210] Setting up inception_4d/relu_5x5
I0331 19:06:47.416345 135990 net.cpp:217] Top shape: 50 64 14 14 (627200)
I0331 19:06:47.416349 135990 net.cpp:225] Memory required for data: 2365909212
I0331 19:06:47.416353 135990 layer_factory.hpp:114] Creating layer inception_4d/pool
I0331 19:06:47.416393 135990 net.cpp:160] Creating Layer inception_4d/pool
I0331 19:06:47.416399 135990 net.cpp:596] inception_4d/pool <- inception_4c/output_inception_4c/output_0_split_3
I0331 19:06:47.416405 135990 net.cpp:570] inception_4d/pool -> inception_4d/pool
I0331 19:06:47.416416 135990 net.cpp:210] Setting up inception_4d/pool
I0331 19:06:47.416424 135990 net.cpp:217] Top shape: 50 512 14 14 (5017600)
I0331 19:06:47.416429 135990 net.cpp:225] Memory required for data: 2385979612
I0331 19:06:47.416432 135990 layer_factory.hpp:114] Creating layer inception_4d/pool_proj
I0331 19:06:47.416441 135990 net.cpp:160] Creating Layer inception_4d/pool_proj
I0331 19:06:47.416466 135990 net.cpp:596] inception_4d/pool_proj <- inception_4d/pool
I0331 19:06:47.416479 135990 net.cpp:570] inception_4d/pool_proj -> inception_4d/pool_proj
I0331 19:06:47.419965 135990 net.cpp:210] Setting up inception_4d/pool_proj
I0331 19:06:47.419976 135990 net.cpp:217] Top shape: 50 64 14 14 (627200)
I0331 19:06:47.419980 135990 net.cpp:225] Memory required for data: 2388488412
I0331 19:06:47.419987 135990 layer_factory.hpp:114] Creating layer inception_4d/relu_pool_proj
I0331 19:06:47.419994 135990 net.cpp:160] Creating Layer inception_4d/relu_pool_proj
I0331 19:06:47.419999 135990 net.cpp:596] inception_4d/relu_pool_proj <- inception_4d/pool_proj
I0331 19:06:47.420006 135990 net.cpp:557] inception_4d/relu_pool_proj -> inception_4d/pool_proj (in-place)
I0331 19:06:47.420012 135990 net.cpp:210] Setting up inception_4d/relu_pool_proj
I0331 19:06:47.420017 135990 net.cpp:217] Top shape: 50 64 14 14 (627200)
I0331 19:06:47.420022 135990 net.cpp:225] Memory required for data: 2390997212
I0331 19:06:47.420025 135990 layer_factory.hpp:114] Creating layer inception_4d/output
I0331 19:06:47.420035 135990 net.cpp:160] Creating Layer inception_4d/output
I0331 19:06:47.420040 135990 net.cpp:596] inception_4d/output <- inception_4d/1x1
I0331 19:06:47.420045 135990 net.cpp:596] inception_4d/output <- inception_4d/3x3
I0331 19:06:47.420050 135990 net.cpp:596] inception_4d/output <- inception_4d/5x5
I0331 19:06:47.420055 135990 net.cpp:596] inception_4d/output <- inception_4d/pool_proj
I0331 19:06:47.420061 135990 net.cpp:570] inception_4d/output -> inception_4d/output
I0331 19:06:47.420070 135990 net.cpp:210] Setting up inception_4d/output
I0331 19:06:47.420076 135990 net.cpp:217] Top shape: 50 528 14 14 (5174400)
I0331 19:06:47.420079 135990 net.cpp:225] Memory required for data: 2411694812
I0331 19:06:47.420083 135990 layer_factory.hpp:114] Creating layer inception_4d/output_inception_4d/output_0_split
I0331 19:06:47.420096 135990 net.cpp:160] Creating Layer inception_4d/output_inception_4d/output_0_split
I0331 19:06:47.420101 135990 net.cpp:596] inception_4d/output_inception_4d/output_0_split <- inception_4d/output
I0331 19:06:47.420109 135990 net.cpp:570] inception_4d/output_inception_4d/output_0_split -> inception_4d/output_inception_4d/output_0_split_0
I0331 19:06:47.420116 135990 net.cpp:570] inception_4d/output_inception_4d/output_0_split -> inception_4d/output_inception_4d/output_0_split_1
I0331 19:06:47.420123 135990 net.cpp:570] inception_4d/output_inception_4d/output_0_split -> inception_4d/output_inception_4d/output_0_split_2
I0331 19:06:47.420132 135990 net.cpp:570] inception_4d/output_inception_4d/output_0_split -> inception_4d/output_inception_4d/output_0_split_3
I0331 19:06:47.420138 135990 net.cpp:570] inception_4d/output_inception_4d/output_0_split -> inception_4d/output_inception_4d/output_0_split_4
I0331 19:06:47.420147 135990 net.cpp:210] Setting up inception_4d/output_inception_4d/output_0_split
I0331 19:06:47.420152 135990 net.cpp:217] Top shape: 50 528 14 14 (5174400)
I0331 19:06:47.420157 135990 net.cpp:217] Top shape: 50 528 14 14 (5174400)
I0331 19:06:47.420162 135990 net.cpp:217] Top shape: 50 528 14 14 (5174400)
I0331 19:06:47.420167 135990 net.cpp:217] Top shape: 50 528 14 14 (5174400)
I0331 19:06:47.420171 135990 net.cpp:217] Top shape: 50 528 14 14 (5174400)
I0331 19:06:47.420176 135990 net.cpp:225] Memory required for data: 2515182812
I0331 19:06:47.420179 135990 layer_factory.hpp:114] Creating layer loss2/ave_pool
I0331 19:06:47.420199 135990 net.cpp:160] Creating Layer loss2/ave_pool
I0331 19:06:47.420204 135990 net.cpp:596] loss2/ave_pool <- inception_4d/output_inception_4d/output_0_split_0
I0331 19:06:47.420212 135990 net.cpp:570] loss2/ave_pool -> loss2/ave_pool
I0331 19:06:47.420220 135990 net.cpp:210] Setting up loss2/ave_pool
I0331 19:06:47.420227 135990 net.cpp:217] Top shape: 50 528 4 4 (422400)
I0331 19:06:47.420229 135990 net.cpp:225] Memory required for data: 2516872412
I0331 19:06:47.420233 135990 layer_factory.hpp:114] Creating layer loss2/conv
I0331 19:06:47.420254 135990 net.cpp:160] Creating Layer loss2/conv
I0331 19:06:47.420260 135990 net.cpp:596] loss2/conv <- loss2/ave_pool
I0331 19:06:47.420272 135990 net.cpp:570] loss2/conv -> loss2/conv
I0331 19:06:47.422852 135990 net.cpp:210] Setting up loss2/conv
I0331 19:06:47.422863 135990 net.cpp:217] Top shape: 50 128 4 4 (102400)
I0331 19:06:47.422866 135990 net.cpp:225] Memory required for data: 2517282012
I0331 19:06:47.422874 135990 layer_factory.hpp:114] Creating layer loss2/relu_conv
I0331 19:06:47.422883 135990 net.cpp:160] Creating Layer loss2/relu_conv
I0331 19:06:47.422888 135990 net.cpp:596] loss2/relu_conv <- loss2/conv
I0331 19:06:47.422894 135990 net.cpp:557] loss2/relu_conv -> loss2/conv (in-place)
I0331 19:06:47.422901 135990 net.cpp:210] Setting up loss2/relu_conv
I0331 19:06:47.422907 135990 net.cpp:217] Top shape: 50 128 4 4 (102400)
I0331 19:06:47.422910 135990 net.cpp:225] Memory required for data: 2517691612
I0331 19:06:47.422914 135990 layer_factory.hpp:114] Creating layer loss2/fc
I0331 19:06:47.422930 135990 net.cpp:160] Creating Layer loss2/fc
I0331 19:06:47.422933 135990 net.cpp:596] loss2/fc <- loss2/conv
I0331 19:06:47.422940 135990 net.cpp:570] loss2/fc -> loss2/fc
I0331 19:06:47.442783 135990 net.cpp:210] Setting up loss2/fc
I0331 19:06:47.442795 135990 net.cpp:217] Top shape: 50 1024 (51200)
I0331 19:06:47.442798 135990 net.cpp:225] Memory required for data: 2517896412
I0331 19:06:47.442806 135990 layer_factory.hpp:114] Creating layer loss2/relu_fc
I0331 19:06:47.442812 135990 net.cpp:160] Creating Layer loss2/relu_fc
I0331 19:06:47.442817 135990 net.cpp:596] loss2/relu_fc <- loss2/fc
I0331 19:06:47.442823 135990 net.cpp:557] loss2/relu_fc -> loss2/fc (in-place)
I0331 19:06:47.442831 135990 net.cpp:210] Setting up loss2/relu_fc
I0331 19:06:47.442834 135990 net.cpp:217] Top shape: 50 1024 (51200)
I0331 19:06:47.442838 135990 net.cpp:225] Memory required for data: 2518101212
I0331 19:06:47.442842 135990 layer_factory.hpp:114] Creating layer loss2/drop_fc
I0331 19:06:47.442850 135990 net.cpp:160] Creating Layer loss2/drop_fc
I0331 19:06:47.442854 135990 net.cpp:596] loss2/drop_fc <- loss2/fc
I0331 19:06:47.442862 135990 net.cpp:557] loss2/drop_fc -> loss2/fc (in-place)
I0331 19:06:47.442872 135990 net.cpp:210] Setting up loss2/drop_fc
I0331 19:06:47.442876 135990 net.cpp:217] Top shape: 50 1024 (51200)
I0331 19:06:47.442879 135990 net.cpp:225] Memory required for data: 2518306012
I0331 19:06:47.442883 135990 layer_factory.hpp:114] Creating layer loss2/classifier
I0331 19:06:47.442893 135990 net.cpp:160] Creating Layer loss2/classifier
I0331 19:06:47.442896 135990 net.cpp:596] loss2/classifier <- loss2/fc
I0331 19:06:47.442903 135990 net.cpp:570] loss2/classifier -> loss2/classifier
I0331 19:06:47.452839 135990 net.cpp:210] Setting up loss2/classifier
I0331 19:06:47.452849 135990 net.cpp:217] Top shape: 50 1000 (50000)
I0331 19:06:47.452853 135990 net.cpp:225] Memory required for data: 2518506012
I0331 19:06:47.452860 135990 layer_factory.hpp:114] Creating layer loss2/classifier_loss2/classifier_0_split
I0331 19:06:47.452870 135990 net.cpp:160] Creating Layer loss2/classifier_loss2/classifier_0_split
I0331 19:06:47.452875 135990 net.cpp:596] loss2/classifier_loss2/classifier_0_split <- loss2/classifier
I0331 19:06:47.452882 135990 net.cpp:570] loss2/classifier_loss2/classifier_0_split -> loss2/classifier_loss2/classifier_0_split_0
I0331 19:06:47.452889 135990 net.cpp:570] loss2/classifier_loss2/classifier_0_split -> loss2/classifier_loss2/classifier_0_split_1
I0331 19:06:47.452896 135990 net.cpp:570] loss2/classifier_loss2/classifier_0_split -> loss2/classifier_loss2/classifier_0_split_2
I0331 19:06:47.452903 135990 net.cpp:210] Setting up loss2/classifier_loss2/classifier_0_split
I0331 19:06:47.452908 135990 net.cpp:217] Top shape: 50 1000 (50000)
I0331 19:06:47.452913 135990 net.cpp:217] Top shape: 50 1000 (50000)
I0331 19:06:47.452917 135990 net.cpp:217] Top shape: 50 1000 (50000)
I0331 19:06:47.452920 135990 net.cpp:225] Memory required for data: 2519106012
I0331 19:06:47.452934 135990 layer_factory.hpp:114] Creating layer loss2/loss
I0331 19:06:47.452940 135990 net.cpp:160] Creating Layer loss2/loss
I0331 19:06:47.452949 135990 net.cpp:596] loss2/loss <- loss2/classifier_loss2/classifier_0_split_0
I0331 19:06:47.452956 135990 net.cpp:596] loss2/loss <- label_data_1_split_3
…
I0331 19:06:47.453228 135990 net.cpp:210] Setting up loss2/top-5
I0331 19:06:47.453233 135990 net.cpp:217] Top shape: (1)
I0331 19:06:47.453238 135990 net.cpp:225] Memory required for data: 2519106024
I0331 19:06:47.453241 135990 layer_factory.hpp:114] Creating layer inception_4e/1x1
I0331 19:06:47.453253 135990 net.cpp:160] Creating Layer inception_4e/1x1
I0331 19:06:47.453258 135990 net.cpp:596] inception_4e/1x1 <- inception_4d/output_inception_4d/output_0_split_1
I0331 19:06:47.453268 135990 net.cpp:570] inception_4e/1x1 -> inception_4e/1x1
I0331 19:06:47.459559 135990 net.cpp:210] Setting up inception_4e/1x1
I0331 19:06:47.459571 135990 net.cpp:217] Top shape: 50 256 14 14 (2508800)
I0331 19:06:47.459575 135990 net.cpp:225] Memory required for data: 2529141224
I0331 19:06:47.459583 135990 layer_factory.hpp:114] Creating layer inception_4e/relu_1x1
I0331 19:06:47.459589 135990 net.cpp:160] Creating Layer inception_4e/relu_1x1
I0331 19:06:47.459594 135990 net.cpp:596] inception_4e/relu_1x1 <- inception_4e/1x1
I0331 19:06:47.459604 135990 net.cpp:557] inception_4e/relu_1x1 -> inception_4e/1x1 (in-place)
I0331 19:06:47.459611 135990 net.cpp:210] Setting up inception_4e/relu_1x1
I0331 19:06:47.459616 135990 net.cpp:217] Top shape: 50 256 14 14 (2508800)
I0331 19:06:47.459620 135990 net.cpp:225] Memory required for data: 2539176424
I0331 19:06:47.459627 135990 layer_factory.hpp:114] Creating layer inception_4e/3x3_reduce
I0331 19:06:47.459646 135990 net.cpp:160] Creating Layer inception_4e/3x3_reduce
I0331 19:06:47.459651 135990 net.cpp:596] inception_4e/3x3_reduce <- inception_4d/output_inception_4d/output_0_split_2
I0331 19:06:47.459663 135990 net.cpp:570] inception_4e/3x3_reduce -> inception_4e/3x3_reduce
I0331 19:06:47.464889 135990 net.cpp:210] Setting up inception_4e/3x3_reduce
I0331 19:06:47.464900 135990 net.cpp:217] Top shape: 50 160 14 14 (1568000)
I0331 19:06:47.464903 135990 net.cpp:225] Memory required for data: 2545448424
I0331 19:06:47.464911 135990 layer_factory.hpp:114] Creating layer inception_4e/relu_3x3_reduce
I0331 19:06:47.464918 135990 net.cpp:160] Creating Layer inception_4e/relu_3x3_reduce
I0331 19:06:47.464923 135990 net.cpp:596] inception_4e/relu_3x3_reduce <- inception_4e/3x3_reduce
I0331 19:06:47.464929 135990 net.cpp:557] inception_4e/relu_3x3_reduce -> inception_4e/3x3_reduce (in-place)
I0331 19:06:47.464949 135990 net.cpp:210] Setting up inception_4e/relu_3x3_reduce
I0331 19:06:47.464956 135990 net.cpp:217] Top shape: 50 160 14 14 (1568000)
I0331 19:06:47.464962 135990 net.cpp:225] Memory required for data: 2551720424
I0331 19:06:47.464967 135990 layer_factory.hpp:114] Creating layer inception_4e/3x3
I0331 19:06:47.464977 135990 net.cpp:160] Creating Layer inception_4e/3x3
I0331 19:06:47.464982 135990 net.cpp:596] inception_4e/3x3 <- inception_4e/3x3_reduce
I0331 19:06:47.464988 135990 net.cpp:570] inception_4e/3x3 -> inception_4e/3x3
I0331 19:06:47.483631 135990 net.cpp:210] Setting up inception_4e/3x3
I0331 19:06:47.483664 135990 net.cpp:217] Top shape: 50 320 14 14 (3136000)
I0331 19:06:47.483669 135990 net.cpp:225] Memory required for data: 2564264424
I0331 19:06:47.483680 135990 layer_factory.hpp:114] Creating layer inception_4e/relu_3x3
I0331 19:06:47.483692 135990 net.cpp:160] Creating Layer inception_4e/relu_3x3
I0331 19:06:47.483700 135990 net.cpp:596] inception_4e/relu_3x3 <- inception_4e/3x3
I0331 19:06:47.483708 135990 net.cpp:557] inception_4e/relu_3x3 -> inception_4e/3x3 (in-place)
I0331 19:06:47.483718 135990 net.cpp:210] Setting up inception_4e/relu_3x3
I0331 19:06:47.483723 135990 net.cpp:217] Top shape: 50 320 14 14 (3136000)
I0331 19:06:47.483727 135990 net.cpp:225] Memory required for data: 2576808424
I0331 19:06:47.483731 135990 layer_factory.hpp:114] Creating layer inception_4e/5x5_reduce
I0331 19:06:47.483742 135990 net.cpp:160] Creating Layer inception_4e/5x5_reduce
I0331 19:06:47.483747 135990 net.cpp:596] inception_4e/5x5_reduce <- inception_4d/output_inception_4d/output_0_split_3
I0331 19:06:47.483758 135990 net.cpp:570] inception_4e/5x5_reduce -> inception_4e/5x5_reduce
I0331 19:06:47.487185 135990 net.cpp:210] Setting up inception_4e/5x5_reduce
I0331 19:06:47.487195 135990 net.cpp:217] Top shape: 50 32 14 14 (313600)
I0331 19:06:47.487200 135990 net.cpp:225] Memory required for data: 2578062824
I0331 19:06:47.487207 135990 layer_factory.hpp:114] Creating layer inception_4e/relu_5x5_reduce
I0331 19:06:47.487217 135990 net.cpp:160] Creating Layer inception_4e/relu_5x5_reduce
I0331 19:06:47.487222 135990 net.cpp:596] inception_4e/relu_5x5_reduce <- inception_4e/5x5_reduce
I0331 19:06:47.487228 135990 net.cpp:557] inception_4e/relu_5x5_reduce -> inception_4e/5x5_reduce (in-place)
I0331 19:06:47.487236 135990 net.cpp:210] Setting up inception_4e/relu_5x5_reduce
I0331 19:06:47.487241 135990 net.cpp:217] Top shape: 50 32 14 14 (313600)
I0331 19:06:47.487246 135990 net.cpp:225] Memory required for data: 2579317224
I0331 19:06:47.487249 135990 layer_factory.hpp:114] Creating layer inception_4e/5x5
I0331 19:06:47.487260 135990 net.cpp:160] Creating Layer inception_4e/5x5
I0331 19:06:47.487264 135990 net.cpp:596] inception_4e/5x5 <- inception_4e/5x5_reduce
I0331 19:06:47.487273 135990 net.cpp:570] inception_4e/5x5 -> inception_4e/5x5
I0331 19:06:47.493862 135990 net.cpp:210] Setting up inception_4e/5x5
I0331 19:06:47.493876 135990 net.cpp:217] Top shape: 50 128 14 14 (1254400)
I0331 19:06:47.493880 135990 net.cpp:225] Memory required for data: 2584334824
I0331 19:06:47.493888 135990 layer_factory.hpp:114] Creating layer inception_4e/relu_5x5
I0331 19:06:47.493896 135990 net.cpp:160] Creating Layer inception_4e/relu_5x5
I0331 19:06:47.493901 135990 net.cpp:596] inception_4e/relu_5x5 <- inception_4e/5x5
I0331 19:06:47.493906 135990 net.cpp:557] inception_4e/relu_5x5 -> inception_4e/5x5 (in-place)
I0331 19:06:47.493912 135990 net.cpp:210] Setting up inception_4e/relu_5x5
I0331 19:06:47.493918 135990 net.cpp:217] Top shape: 50 128 14 14 (1254400)
I0331 19:06:47.493921 135990 net.cpp:225] Memory required for data: 2589352424
I0331 19:06:47.493927 135990 layer_factory.hpp:114] Creating layer inception_4e/pool
I0331 19:06:47.493963 135990 net.cpp:160] Creating Layer inception_4e/pool
I0331 19:06:47.493968 135990 net.cpp:596] inception_4e/pool <- inception_4d/output_inception_4d/output_0_split_4
I0331 19:06:47.493974 135990 net.cpp:570] inception_4e/pool -> inception_4e/pool
I0331 19:06:47.494009 135990 net.cpp:210] Setting up inception_4e/pool
I0331 19:06:47.494017 135990 net.cpp:217] Top shape: 50 528 14 14 (5174400)
I0331 19:06:47.494021 135990 net.cpp:225] Memory required for data: 2610050024
I0331 19:06:47.494029 135990 layer_factory.hpp:114] Creating layer inception_4e/pool_proj
I0331 19:06:47.494038 135990 net.cpp:160] Creating Layer inception_4e/pool_proj
I0331 19:06:47.494043 135990 net.cpp:596] inception_4e/pool_proj <- inception_4e/pool
I0331 19:06:47.494052 135990 net.cpp:570] inception_4e/pool_proj -> inception_4e/pool_proj
I0331 19:06:47.498564 135990 net.cpp:210] Setting up inception_4e/pool_proj
I0331 19:06:47.498576 135990 net.cpp:217] Top shape: 50 128 14 14 (1254400)
I0331 19:06:47.498580 135990 net.cpp:225] Memory required for data: 2615067624
I0331 19:06:47.498587 135990 layer_factory.hpp:114] Creating layer inception_4e/relu_pool_proj
I0331 19:06:47.498595 135990 net.cpp:160] Creating Layer inception_4e/relu_pool_proj
I0331 19:06:47.498600 135990 net.cpp:596] inception_4e/relu_pool_proj <- inception_4e/pool_proj
I0331 19:06:47.498605 135990 net.cpp:557] inception_4e/relu_pool_proj -> inception_4e/pool_proj (in-place)
I0331 19:06:47.498612 135990 net.cpp:210] Setting up inception_4e/relu_pool_proj
I0331 19:06:47.498617 135990 net.cpp:217] Top shape: 50 128 14 14 (1254400)
I0331 19:06:47.498621 135990 net.cpp:225] Memory required for data: 2620085224
I0331 19:06:47.498627 135990 layer_factory.hpp:114] Creating layer inception_4e/output
I0331 19:06:47.498641 135990 net.cpp:160] Creating Layer inception_4e/output
I0331 19:06:47.498646 135990 net.cpp:596] inception_4e/output <- inception_4e/1x1
I0331 19:06:47.498651 135990 net.cpp:596] inception_4e/output <- inception_4e/3x3
I0331 19:06:47.498656 135990 net.cpp:596] inception_4e/output <- inception_4e/5x5
I0331 19:06:47.498661 135990 net.cpp:596] inception_4e/output <- inception_4e/pool_proj
I0331 19:06:47.498667 135990 net.cpp:570] inception_4e/output -> inception_4e/output
I0331 19:06:47.498677 135990 net.cpp:210] Setting up inception_4e/output
I0331 19:06:47.498683 135990 net.cpp:217] Top shape: 50 832 14 14 (8153600)
I0331 19:06:47.498687 135990 net.cpp:225] Memory required for data: 2652699624
I0331 19:06:47.498690 135990 layer_factory.hpp:114] Creating layer pool4/3x3_s2
I0331 19:06:47.498708 135990 net.cpp:160] Creating Layer pool4/3x3_s2
I0331 19:06:47.498713 135990 net.cpp:596] pool4/3x3_s2 <- inception_4e/output
I0331 19:06:47.498719 135990 net.cpp:570] pool4/3x3_s2 -> pool4/3x3_s2
I0331 19:06:47.498729 135990 net.cpp:210] Setting up pool4/3x3_s2
I0331 19:06:47.498734 135990 net.cpp:217] Top shape: 50 832 7 7 (2038400)
I0331 19:06:47.498739 135990 net.cpp:225] Memory required for data: 2660853224
I0331 19:06:47.498742 135990 layer_factory.hpp:114] Creating layer pool4/3x3_s2_pool4/3x3_s2_0_split
I0331 19:06:47.498752 135990 net.cpp:160] Creating Layer pool4/3x3_s2_pool4/3x3_s2_0_split
I0331 19:06:47.498756 135990 net.cpp:596] pool4/3x3_s2_pool4/3x3_s2_0_split <- pool4/3x3_s2
I0331 19:06:47.498762 135990 net.cpp:570] pool4/3x3_s2_pool4/3x3_s2_0_split -> pool4/3x3_s2_pool4/3x3_s2_0_split_0
I0331 19:06:47.498769 135990 net.cpp:570] pool4/3x3_s2_pool4/3x3_s2_0_split -> pool4/3x3_s2_pool4/3x3_s2_0_split_1
I0331 19:06:47.498776 135990 net.cpp:570] pool4/3x3_s2_pool4/3x3_s2_0_split -> pool4/3x3_s2_pool4/3x3_s2_0_split_2
I0331 19:06:47.498790 135990 net.cpp:570] pool4/3x3_s2_pool4/3x3_s2_0_split -> pool4/3x3_s2_pool4/3x3_s2_0_split_3
I0331 19:06:47.498800 135990 net.cpp:210] Setting up pool4/3x3_s2_pool4/3x3_s2_0_split
I0331 19:06:47.498805 135990 net.cpp:217] Top shape: 50 832 7 7 (2038400)
I0331 19:06:47.498809 135990 net.cpp:217] Top shape: 50 832 7 7 (2038400)
I0331 19:06:47.498816 135990 net.cpp:217] Top shape: 50 832 7 7 (2038400)
I0331 19:06:47.498821 135990 net.cpp:217] Top shape: 50 832 7 7 (2038400)
I0331 19:06:47.498823 135990 net.cpp:225] Memory required for data: 2693467624
I0331 19:06:47.498827 135990 layer_factory.hpp:114] Creating layer inception_5a/1x1
I0331 19:06:47.498839 135990 net.cpp:160] Creating Layer inception_5a/1x1
I0331 19:06:47.498853 135990 net.cpp:596] inception_5a/1x1 <- pool4/3x3_s2_pool4/3x3_s2_0_split_0
I0331 19:06:47.498862 135990 net.cpp:570] inception_5a/1x1 -> inception_5a/1x1
I0331 19:06:47.506386 135990 net.cpp:210] Setting up inception_5a/1x1
I0331 19:06:47.506399 135990 net.cpp:217] Top shape: 50 256 7 7 (627200)
I0331 19:06:47.506403 135990 net.cpp:225] Memory required for data: 2695976424
I0331 19:06:47.506410 135990 layer_factory.hpp:114] Creating layer inception_5a/relu_1x1
I0331 19:06:47.506417 135990 net.cpp:160] Creating Layer inception_5a/relu_1x1
I0331 19:06:47.506422 135990 net.cpp:596] inception_5a/relu_1x1 <- inception_5a/1x1
I0331 19:06:47.506430 135990 net.cpp:557] inception_5a/relu_1x1 -> inception_5a/1x1 (in-place)
I0331 19:06:47.506438 135990 net.cpp:210] Setting up inception_5a/relu_1x1
I0331 19:06:47.506443 135990 net.cpp:217] Top shape: 50 256 7 7 (627200)
I0331 19:06:47.506446 135990 net.cpp:225] Memory required for data: 2698485224
I0331 19:06:47.506451 135990 layer_factory.hpp:114] Creating layer inception_5a/3x3_reduce
I0331 19:06:47.506459 135990 net.cpp:160] Creating Layer inception_5a/3x3_reduce
I0331 19:06:47.506464 135990 net.cpp:596] inception_5a/3x3_reduce <- pool4/3x3_s2_pool4/3x3_s2_0_split_1
I0331 19:06:47.506474 135990 net.cpp:570] inception_5a/3x3_reduce -> inception_5a/3x3_reduce
I0331 19:06:47.511737 135990 net.cpp:210] Setting up inception_5a/3x3_reduce
I0331 19:06:47.511749 135990 net.cpp:217] Top shape: 50 160 7 7 (392000)
I0331 19:06:47.511754 135990 net.cpp:225] Memory required for data: 2700053224
I0331 19:06:47.511764 135990 layer_factory.hpp:114] Creating layer inception_5a/relu_3x3_reduce
I0331 19:06:47.511770 135990 net.cpp:160] Creating Layer inception_5a/relu_3x3_reduce
I0331 19:06:47.511775 135990 net.cpp:596] inception_5a/relu_3x3_reduce <- inception_5a/3x3_reduce
I0331 19:06:47.511780 135990 net.cpp:557] inception_5a/relu_3x3_reduce -> inception_5a/3x3_reduce (in-place)
I0331 19:06:47.511788 135990 net.cpp:210] Setting up inception_5a/relu_3x3_reduce
I0331 19:06:47.511793 135990 net.cpp:217] Top shape: 50 160 7 7 (392000)
I0331 19:06:47.511797 135990 net.cpp:225] Memory required for data: 2701621224
I0331 19:06:47.511801 135990 layer_factory.hpp:114] Creating layer inception_5a/3x3
I0331 19:06:47.511812 135990 net.cpp:160] Creating Layer inception_5a/3x3
I0331 19:06:47.511817 135990 net.cpp:596] inception_5a/3x3 <- inception_5a/3x3_reduce
I0331 19:06:47.511823 135990 net.cpp:570] inception_5a/3x3 -> inception_5a/3x3
I0331 19:06:47.526931 135990 net.cpp:210] Setting up inception_5a/3x3
I0331 19:06:47.526955 135990 net.cpp:217] Top shape: 50 320 7 7 (784000)
I0331 19:06:47.526959 135990 net.cpp:225] Memory required for data: 2704757224
I0331 19:06:47.526968 135990 layer_factory.hpp:114] Creating layer inception_5a/relu_3x3
I0331 19:06:47.526978 135990 net.cpp:160] Creating Layer inception_5a/relu_3x3
I0331 19:06:47.526984 135990 net.cpp:596] inception_5a/relu_3x3 <- inception_5a/3x3
I0331 19:06:47.526993 135990 net.cpp:557] inception_5a/relu_3x3 -> inception_5a/3x3 (in-place)
I0331 19:06:47.527001 135990 net.cpp:210] Setting up inception_5a/relu_3x3
I0331 19:06:47.527007 135990 net.cpp:217] Top shape: 50 320 7 7 (784000)
I0331 19:06:47.527010 135990 net.cpp:225] Memory required for data: 2707893224
I0331 19:06:47.527015 135990 layer_factory.hpp:114] Creating layer inception_5a/5x5_reduce
I0331 19:06:47.527025 135990 net.cpp:160] Creating Layer inception_5a/5x5_reduce
I0331 19:06:47.527031 135990 net.cpp:596] inception_5a/5x5_reduce <- pool4/3x3_s2_pool4/3x3_s2_0_split_2
I0331 19:06:47.527040 135990 net.cpp:570] inception_5a/5x5_reduce -> inception_5a/5x5_reduce
I0331 19:06:47.529427 135990 net.cpp:210] Setting up inception_5a/5x5_reduce
I0331 19:06:47.529438 135990 net.cpp:217] Top shape: 50 32 7 7 (78400)
I0331 19:06:47.529443 135990 net.cpp:225] Memory required for data: 2708206824
I0331 19:06:47.529449 135990 layer_factory.hpp:114] Creating layer inception_5a/relu_5x5_reduce
I0331 19:06:47.529458 135990 net.cpp:160] Creating Layer inception_5a/relu_5x5_reduce
I0331 19:06:47.529484 135990 net.cpp:596] inception_5a/relu_5x5_reduce <- inception_5a/5x5_reduce
I0331 19:06:47.529494 135990 net.cpp:557] inception_5a/relu_5x5_reduce -> inception_5a/5x5_reduce (in-place)
I0331 19:06:47.529506 135990 net.cpp:210] Setting up inception_5a/relu_5x5_reduce
I0331 19:06:47.529512 135990 net.cpp:217] Top shape: 50 32 7 7 (78400)
I0331 19:06:47.529515 135990 net.cpp:225] Memory required for data: 2708520424
I0331 19:06:47.529520 135990 layer_factory.hpp:114] Creating layer inception_5a/5x5
I0331 19:06:47.529528 135990 net.cpp:160] Creating Layer inception_5a/5x5
I0331 19:06:47.529533 135990 net.cpp:596] inception_5a/5x5 <- inception_5a/5x5_reduce
I0331 19:06:47.529541 135990 net.cpp:570] inception_5a/5x5 -> inception_5a/5x5
I0331 19:06:47.534000 135990 net.cpp:210] Setting up inception_5a/5x5
I0331 19:06:47.534011 135990 net.cpp:217] Top shape: 50 128 7 7 (313600)
I0331 19:06:47.534015 135990 net.cpp:225] Memory required for data: 2709774824
I0331 19:06:47.534023 135990 layer_factory.hpp:114] Creating layer inception_5a/relu_5x5
I0331 19:06:47.534031 135990 net.cpp:160] Creating Layer inception_5a/relu_5x5
I0331 19:06:47.534036 135990 net.cpp:596] inception_5a/relu_5x5 <- inception_5a/5x5
I0331 19:06:47.534041 135990 net.cpp:557] inception_5a/relu_5x5 -> inception_5a/5x5 (in-place)
I0331 19:06:47.534049 135990 net.cpp:210] Setting up inception_5a/relu_5x5
I0331 19:06:47.534054 135990 net.cpp:217] Top shape: 50 128 7 7 (313600)
I0331 19:06:47.534057 135990 net.cpp:225] Memory required for data: 2711029224
I0331 19:06:47.534061 135990 layer_factory.hpp:114] Creating layer inception_5a/pool
I0331 19:06:47.534093 135990 net.cpp:160] Creating Layer inception_5a/pool
I0331 19:06:47.534099 135990 net.cpp:596] inception_5a/pool <- pool4/3x3_s2_pool4/3x3_s2_0_split_3
I0331 19:06:47.534107 135990 net.cpp:570] inception_5a/pool -> inception_5a/pool
I0331 19:06:47.534119 135990 net.cpp:210] Setting up inception_5a/pool
I0331 19:06:47.534124 135990 net.cpp:217] Top shape: 50 832 7 7 (2038400)
I0331 19:06:47.534128 135990 net.cpp:225] Memory required for data: 2719182824
I0331 19:06:47.534132 135990 layer_factory.hpp:114] Creating layer inception_5a/pool_proj
I0331 19:06:47.534143 135990 net.cpp:160] Creating Layer inception_5a/pool_proj
I0331 19:06:47.534148 135990 net.cpp:596] inception_5a/pool_proj <- inception_5a/pool
I0331 19:06:47.534157 135990 net.cpp:570] inception_5a/pool_proj -> inception_5a/pool_proj
I0331 19:06:47.538830 135990 net.cpp:210] Setting up inception_5a/pool_proj
I0331 19:06:47.538841 135990 net.cpp:217] Top shape: 50 128 7 7 (313600)
I0331 19:06:47.538846 135990 net.cpp:225] Memory required for data: 2720437224
I0331 19:06:47.538852 135990 layer_factory.hpp:114] Creating layer inception_5a/relu_pool_proj
I0331 19:06:47.538859 135990 net.cpp:160] Creating Layer inception_5a/relu_pool_proj
I0331 19:06:47.538864 135990 net.cpp:596] inception_5a/relu_pool_proj <- inception_5a/pool_proj
I0331 19:06:47.538869 135990 net.cpp:557] inception_5a/relu_pool_proj -> inception_5a/pool_proj (in-place)
I0331 19:06:47.538877 135990 net.cpp:210] Setting up inception_5a/relu_pool_proj
I0331 19:06:47.538882 135990 net.cpp:217] Top shape: 50 128 7 7 (313600)
I0331 19:06:47.538885 135990 net.cpp:225] Memory required for data: 2721691624
I0331 19:06:47.538889 135990 layer_factory.hpp:114] Creating layer inception_5a/output
I0331 19:06:47.538897 135990 net.cpp:160] Creating Layer inception_5a/output
I0331 19:06:47.538902 135990 net.cpp:596] inception_5a/output <- inception_5a/1x1
I0331 19:06:47.538907 135990 net.cpp:596] inception_5a/output <- inception_5a/3x3
I0331 19:06:47.538911 135990 net.cpp:596] inception_5a/output <- inception_5a/5x5
I0331 19:06:47.538916 135990 net.cpp:596] inception_5a/output <- inception_5a/pool_proj
I0331 19:06:47.538924 135990 net.cpp:570] inception_5a/output -> inception_5a/output
I0331 19:06:47.538934 135990 net.cpp:210] Setting up inception_5a/output
I0331 19:06:47.538939 135990 net.cpp:217] Top shape: 50 832 7 7 (2038400)
I0331 19:06:47.538944 135990 net.cpp:225] Memory required for data: 2729845224
I0331 19:06:47.538955 135990 layer_factory.hpp:114] Creating layer inception_5a/output_inception_5a/output_0_split
I0331 19:06:47.538964 135990 net.cpp:160] Creating Layer inception_5a/output_inception_5a/output_0_split
I0331 19:06:47.538974 135990 net.cpp:596] inception_5a/output_inception_5a/output_0_split <- inception_5a/output
I0331 19:06:47.538980 135990 net.cpp:570] inception_5a/output_inception_5a/output_0_split -> inception_5a/output_inception_5a/output_0_split_0
I0331 19:06:47.538986 135990 net.cpp:570] inception_5a/output_inception_5a/output_0_split -> inception_5a/output_inception_5a/output_0_split_1
I0331 19:06:47.538993 135990 net.cpp:570] inception_5a/output_inception_5a/output_0_split -> inception_5a/output_inception_5a/output_0_split_2
I0331 19:06:47.539000 135990 net.cpp:570] inception_5a/output_inception_5a/output_0_split -> inception_5a/output_inception_5a/output_0_split_3
I0331 19:06:47.539008 135990 net.cpp:210] Setting up inception_5a/output_inception_5a/output_0_split
I0331 19:06:47.539013 135990 net.cpp:217] Top shape: 50 832 7 7 (2038400)
I0331 19:06:47.539018 135990 net.cpp:217] Top shape: 50 832 7 7 (2038400)
I0331 19:06:47.539023 135990 net.cpp:217] Top shape: 50 832 7 7 (2038400)
I0331 19:06:47.539027 135990 net.cpp:217] Top shape: 50 832 7 7 (2038400)
I0331 19:06:47.539031 135990 net.cpp:225] Memory required for data: 2762459624
I0331 19:06:47.539036 135990 layer_factory.hpp:114] Creating layer inception_5b/1x1
I0331 19:06:47.539047 135990 net.cpp:160] Creating Layer inception_5b/1x1
I0331 19:06:47.539052 135990 net.cpp:596] inception_5b/1x1 <- inception_5a/output_inception_5a/output_0_split_0
I0331 19:06:47.539057 135990 net.cpp:570] inception_5b/1x1 -> inception_5b/1x1
I0331 19:06:47.549510 135990 net.cpp:210] Setting up inception_5b/1x1
I0331 19:06:47.549525 135990 net.cpp:217] Top shape: 50 384 7 7 (940800)
I0331 19:06:47.549530 135990 net.cpp:225] Memory required for data: 2766222824
I0331 19:06:47.549537 135990 layer_factory.hpp:114] Creating layer inception_5b/relu_1x1
I0331 19:06:47.549545 135990 net.cpp:160] Creating Layer inception_5b/relu_1x1
I0331 19:06:47.549551 135990 net.cpp:596] inception_5b/relu_1x1 <- inception_5b/1x1
I0331 19:06:47.549556 135990 net.cpp:557] inception_5b/relu_1x1 -> inception_5b/1x1 (in-place)
I0331 19:06:47.549563 135990 net.cpp:210] Setting up inception_5b/relu_1x1
I0331 19:06:47.549568 135990 net.cpp:217] Top shape: 50 384 7 7 (940800)
I0331 19:06:47.549571 135990 net.cpp:225] Memory required for data: 2769986024
I0331 19:06:47.549576 135990 layer_factory.hpp:114] Creating layer inception_5b/3x3_reduce
I0331 19:06:47.549587 135990 net.cpp:160] Creating Layer inception_5b/3x3_reduce
I0331 19:06:47.549592 135990 net.cpp:596] inception_5b/3x3_reduce <- inception_5a/output_inception_5a/output_0_split_1
I0331 19:06:47.549599 135990 net.cpp:570] inception_5b/3x3_reduce -> inception_5b/3x3_reduce
I0331 19:06:47.555440 135990 net.cpp:210] Setting up inception_5b/3x3_reduce
I0331 19:06:47.555451 135990 net.cpp:217] Top shape: 50 192 7 7 (470400)
I0331 19:06:47.555455 135990 net.cpp:225] Memory required for data: 2771867624
I0331 19:06:47.555462 135990 layer_factory.hpp:114] Creating layer inception_5b/relu_3x3_reduce
I0331 19:06:47.555470 135990 net.cpp:160] Creating Layer inception_5b/relu_3x3_reduce
I0331 19:06:47.555475 135990 net.cpp:596] inception_5b/relu_3x3_reduce <- inception_5b/3x3_reduce
I0331 19:06:47.555485 135990 net.cpp:557] inception_5b/relu_3x3_reduce -> inception_5b/3x3_reduce (in-place)
I0331 19:06:47.555492 135990 net.cpp:210] Setting up inception_5b/relu_3x3_reduce
I0331 19:06:47.555497 135990 net.cpp:217] Top shape: 50 192 7 7 (470400)
I0331 19:06:47.555501 135990 net.cpp:225] Memory required for data: 2773749224
I0331 19:06:47.555505 135990 layer_factory.hpp:114] Creating layer inception_5b/3x3
I0331 19:06:47.555515 135990 net.cpp:160] Creating Layer inception_5b/3x3
I0331 19:06:47.555518 135990 net.cpp:596] inception_5b/3x3 <- inception_5b/3x3_reduce
I0331 19:06:47.555526 135990 net.cpp:570] inception_5b/3x3 -> inception_5b/3x3
I0331 19:06:47.576428 135990 net.cpp:210] Setting up inception_5b/3x3
I0331 19:06:47.576463 135990 net.cpp:217] Top shape: 50 384 7 7 (940800)
I0331 19:06:47.576483 135990 net.cpp:225] Memory required for data: 2777512424
I0331 19:06:47.576493 135990 layer_factory.hpp:114] Creating layer inception_5b/relu_3x3
I0331 19:06:47.576505 135990 net.cpp:160] Creating Layer inception_5b/relu_3x3
I0331 19:06:47.576514 135990 net.cpp:596] inception_5b/relu_3x3 <- inception_5b/3x3
I0331 19:06:47.576521 135990 net.cpp:557] inception_5b/relu_3x3 -> inception_5b/3x3 (in-place)
I0331 19:06:47.576530 135990 net.cpp:210] Setting up inception_5b/relu_3x3
I0331 19:06:47.576536 135990 net.cpp:217] Top shape: 50 384 7 7 (940800)
I0331 19:06:47.576539 135990 net.cpp:225] Memory required for data: 2781275624
I0331 19:06:47.576545 135990 layer_factory.hpp:114] Creating layer inception_5b/5x5_reduce
I0331 19:06:47.576557 135990 net.cpp:160] Creating Layer inception_5b/5x5_reduce
I0331 19:06:47.576563 135990 net.cpp:596] inception_5b/5x5_reduce <- inception_5a/output_inception_5a/output_0_split_2
I0331 19:06:47.576571 135990 net.cpp:570] inception_5b/5x5_reduce -> inception_5b/5x5_reduce
I0331 19:06:47.579511 135990 net.cpp:210] Setting up inception_5b/5x5_reduce
I0331 19:06:47.579524 135990 net.cpp:217] Top shape: 50 48 7 7 (117600)
I0331 19:06:47.579526 135990 net.cpp:225] Memory required for data: 2781746024
I0331 19:06:47.579533 135990 layer_factory.hpp:114] Creating layer inception_5b/relu_5x5_reduce
I0331 19:06:47.579540 135990 net.cpp:160] Creating Layer inception_5b/relu_5x5_reduce
I0331 19:06:47.579545 135990 net.cpp:596] inception_5b/relu_5x5_reduce <- inception_5b/5x5_reduce
I0331 19:06:47.579551 135990 net.cpp:557] inception_5b/relu_5x5_reduce -> inception_5b/5x5_reduce (in-place)
I0331 19:06:47.579557 135990 net.cpp:210] Setting up inception_5b/relu_5x5_reduce
I0331 19:06:47.579563 135990 net.cpp:217] Top shape: 50 48 7 7 (117600)
I0331 19:06:47.579566 135990 net.cpp:225] Memory required for data: 2782216424
I0331 19:06:47.579571 135990 layer_factory.hpp:114] Creating layer inception_5b/5x5
I0331 19:06:47.579581 135990 net.cpp:160] Creating Layer inception_5b/5x5
I0331 19:06:47.579586 135990 net.cpp:596] inception_5b/5x5 <- inception_5b/5x5_reduce
I0331 19:06:47.579594 135990 net.cpp:570] inception_5b/5x5 -> inception_5b/5x5
I0331 19:06:47.585762 135990 net.cpp:210] Setting up inception_5b/5x5
I0331 19:06:47.585772 135990 net.cpp:217] Top shape: 50 128 7 7 (313600)
I0331 19:06:47.585777 135990 net.cpp:225] Memory required for data: 2783470824
I0331 19:06:47.585783 135990 layer_factory.hpp:114] Creating layer inception_5b/relu_5x5
I0331 19:06:47.585793 135990 net.cpp:160] Creating Layer inception_5b/relu_5x5
I0331 19:06:47.585798 135990 net.cpp:596] inception_5b/relu_5x5 <- inception_5b/5x5
I0331 19:06:47.585803 135990 net.cpp:557] inception_5b/relu_5x5 -> inception_5b/5x5 (in-place)
I0331 19:06:47.585809 135990 net.cpp:210] Setting up inception_5b/relu_5x5
I0331 19:06:47.585815 135990 net.cpp:217] Top shape: 50 128 7 7 (313600)
I0331 19:06:47.585819 135990 net.cpp:225] Memory required for data: 2784725224
I0331 19:06:47.585822 135990 layer_factory.hpp:114] Creating layer inception_5b/pool
I0331 19:06:47.585858 135990 net.cpp:160] Creating Layer inception_5b/pool
I0331 19:06:47.585866 135990 net.cpp:596] inception_5b/pool <- inception_5a/output_inception_5a/output_0_split_3
I0331 19:06:47.585873 135990 net.cpp:570] inception_5b/pool -> inception_5b/pool
I0331 19:06:47.585883 135990 net.cpp:210] Setting up inception_5b/pool
I0331 19:06:47.585889 135990 net.cpp:217] Top shape: 50 832 7 7 (2038400)
I0331 19:06:47.585893 135990 net.cpp:225] Memory required for data: 2792878824
I0331 19:06:47.585897 135990 layer_factory.hpp:114] Creating layer inception_5b/pool_proj
I0331 19:06:47.585907 135990 net.cpp:160] Creating Layer inception_5b/pool_proj
I0331 19:06:47.585912 135990 net.cpp:596] inception_5b/pool_proj <- inception_5b/pool
I0331 19:06:47.585922 135990 net.cpp:570] inception_5b/pool_proj -> inception_5b/pool_proj
I0331 19:06:47.590603 135990 net.cpp:210] Setting up inception_5b/pool_proj
I0331 19:06:47.590615 135990 net.cpp:217] Top shape: 50 128 7 7 (313600)
I0331 19:06:47.590620 135990 net.cpp:225] Memory required for data: 2794133224
I0331 19:06:47.590633 135990 layer_factory.hpp:114] Creating layer inception_5b/relu_pool_proj
I0331 19:06:47.590642 135990 net.cpp:160] Creating Layer inception_5b/relu_pool_proj
I0331 19:06:47.590647 135990 net.cpp:596] inception_5b/relu_pool_proj <- inception_5b/pool_proj
I0331 19:06:47.590656 135990 net.cpp:557] inception_5b/relu_pool_proj -> inception_5b/pool_proj (in-place)
I0331 19:06:47.590662 135990 net.cpp:210] Setting up inception_5b/relu_pool_proj
I0331 19:06:47.590668 135990 net.cpp:217] Top shape: 50 128 7 7 (313600)
I0331 19:06:47.590672 135990 net.cpp:225] Memory required for data: 2795387624
I0331 19:06:47.590675 135990 layer_factory.hpp:114] Creating layer inception_5b/output
I0331 19:06:47.590683 135990 net.cpp:160] Creating Layer inception_5b/output
I0331 19:06:47.590687 135990 net.cpp:596] inception_5b/output <- inception_5b/1x1
I0331 19:06:47.590693 135990 net.cpp:596] inception_5b/output <- inception_5b/3x3
I0331 19:06:47.590698 135990 net.cpp:596] inception_5b/output <- inception_5b/5x5
I0331 19:06:47.590703 135990 net.cpp:596] inception_5b/output <- inception_5b/pool_proj
I0331 19:06:47.590709 135990 net.cpp:570] inception_5b/output -> inception_5b/output
I0331 19:06:47.590718 135990 net.cpp:210] Setting up inception_5b/output
I0331 19:06:47.590723 135990 net.cpp:217] Top shape: 50 1024 7 7 (2508800)
I0331 19:06:47.590728 135990 net.cpp:225] Memory required for data: 2805422824
I0331 19:06:47.590731 135990 layer_factory.hpp:114] Creating layer pool5/7x7_s1
I0331 19:06:47.590756 135990 net.cpp:160] Creating Layer pool5/7x7_s1
I0331 19:06:47.590761 135990 net.cpp:596] pool5/7x7_s1 <- inception_5b/output
I0331 19:06:47.590770 135990 net.cpp:570] pool5/7x7_s1 -> pool5/7x7_s1
I0331 19:06:47.590780 135990 net.cpp:210] Setting up pool5/7x7_s1
I0331 19:06:47.590785 135990 net.cpp:217] Top shape: 50 1024 1 1 (51200)
I0331 19:06:47.590788 135990 net.cpp:225] Memory required for data: 2805627624
I0331 19:06:47.590792 135990 layer_factory.hpp:114] Creating layer pool5/drop_7x7_s1
I0331 19:06:47.590801 135990 net.cpp:160] Creating Layer pool5/drop_7x7_s1
I0331 19:06:47.590804 135990 net.cpp:596] pool5/drop_7x7_s1 <- pool5/7x7_s1
I0331 19:06:47.590811 135990 net.cpp:557] pool5/drop_7x7_s1 -> pool5/7x7_s1 (in-place)
I0331 19:06:47.590818 135990 net.cpp:210] Setting up pool5/drop_7x7_s1
I0331 19:06:47.590824 135990 net.cpp:217] Top shape: 50 1024 1 1 (51200)
I0331 19:06:47.590827 135990 net.cpp:225] Memory required for data: 2805832424
I0331 19:06:47.590831 135990 layer_factory.hpp:114] Creating layer loss3/classifier
I0331 19:06:47.590843 135990 net.cpp:160] Creating Layer loss3/classifier
I0331 19:06:47.590847 135990 net.cpp:596] loss3/classifier <- pool5/7x7_s1
I0331 19:06:47.590857 135990 net.cpp:570] loss3/classifier -> loss3/classifier
I0331 19:06:47.600803 135990 net.cpp:210] Setting up loss3/classifier
I0331 19:06:47.600814 135990 net.cpp:217] Top shape: 50 1000 (50000)
I0331 19:06:47.600818 135990 net.cpp:225] Memory required for data: 2806032424
I0331 19:06:47.600826 135990 layer_factory.hpp:114] Creating layer loss3/classifier_loss3/classifier_0_split
I0331 19:06:47.600834 135990 net.cpp:160] Creating Layer loss3/classifier_loss3/classifier_0_split
I0331 19:06:47.600839 135990 net.cpp:596] loss3/classifier_loss3/classifier_0_split <- loss3/classifier
I0331 19:06:47.600847 135990 net.cpp:570] loss3/classifier_loss3/classifier_0_split -> loss3/classifier_loss3/classifier_0_split_0
I0331 19:06:47.600857 135990 net.cpp:570] loss3/classifier_loss3/classifier_0_split -> loss3/classifier_loss3/classifier_0_split_1
I0331 19:06:47.600863 135990 net.cpp:570] loss3/classifier_loss3/classifier_0_split -> loss3/classifier_loss3/classifier_0_split_2
I0331 19:06:47.600872 135990 net.cpp:210] Setting up loss3/classifier_loss3/classifier_0_split
I0331 19:06:47.600877 135990 net.cpp:217] Top shape: 50 1000 (50000)
I0331 19:06:47.600889 135990 net.cpp:217] Top shape: 50 1000 (50000)
I0331 19:06:47.600894 135990 net.cpp:217] Top shape: 50 1000 (50000)
I0331 19:06:47.600901 135990 net.cpp:225] Memory required for data: 2806632424
I0331 19:06:47.600905 135990 layer_factory.hpp:114] Creating layer loss3/loss3
I0331 19:06:47.600914 135990 net.cpp:160] Creating Layer loss3/loss3
I0331 19:06:47.600917 135990 net.cpp:596] loss3/loss3 <- loss3/classifier_loss3/classifier_0_split_0
I0331 19:06:47.600924 135990 net.cpp:596] loss3/loss3 <- label_data_1_split_6
…
