…
I0331 13:09:25.866595 260782 net.cpp:484] The NetState phase (0) differed from the phase (1) specified by a rule in layer accuracy
I0331 13:09:25.870100 260782 net.cpp:120] Initializing net from parameters: 
name: "AlexNet"
state {
  phase: TRAIN
  level: 0
  stage: ""
}
layer {
  name: "data"
  type: "Data"
  top: "data"
  top: "label"
  include {
    phase: TRAIN
  }
  transform_param {
    mirror: true
    crop_size: 227
    mean_file: "/people/royp368/CN/caffe/caffe/data/ilsvrc12/imagenet_mean.binaryproto"
  }
  data_param {
    source: "/people/royp368/CN/caffe/caffe/examples/imagenet/ilsvrc12_train_lmdb"
    batch_size: 256
    backend: LMDB
  }
}
layer {
  name: "conv1"
  type: "Convolution"
  bottom: "data"
  top: "conv1"
  param {
    lr_mult: 1
    decay_mult: 1
  }
  param {
    lr_mult: 2
    decay_mult: 0
  }
  convolution_param {
    num_output: 96
    kernel_size: 11
    stride: 4
    weight_filler {
      type: "gaussian"
      std: 0.01
    }
    bias_filler {
      type: "constant"
      value: 0
    }
  }
}
layer {
  name: "relu1"
  type: "ReLU"
  bottom: "conv1"
  top: "conv1"
}
layer {
  name: "norm1"
  type: "LRN"
  bottom: "conv1"
  top: "norm1"
  lrn_param {
    local_size: 5
    alpha: 0.0001
    beta: 0.75
  }
}
layer {
  name: "pool1"
  type: "Pooling"
  bottom: "norm1"
  top: "pool1"
  pooling_param {
    pool: MAX
    kernel_size: 3
    stride: 2
  }
}
layer {
  name: "conv2"
  type: "Convolution"
  bottom: "pool1"
  top: "conv2"
  param {
    lr_mult: 1
    decay_mult: 1
  }
  param {
    lr_mult: 2
    decay_mult: 0
  }
  convolution_param {
    num_output: 256
    pad: 2
    kernel_size: 5
    group: 2
    weight_filler {
      type: "gaussian"
      std: 0.01
    }
    bias_filler {
      type: "constant"
      value: 0.1
    }
  }
}
layer {
  name: "relu2"
  type: "ReLU"
  bottom: "conv2"
  top: "conv2"
}
layer {
  name: "norm2"
  type: "LRN"
  bottom: "conv2"
  top: "norm2"
  lrn_param {
    local_size: 5
    alpha: 0.0001
    beta: 0.75
  }
}
layer {
  name: "pool2"
  type: "Pooling"
  bottom: "norm2"
  top: "pool2"
  pooling_param {
    pool: MAX
    kernel_size: 3
    stride: 2
  }
}
layer {
  name: "conv3"
  type: "Convolution"
  bottom: "pool2"
  top: "conv3"
  param {
    lr_mult: 1
    decay_mult: 1
  }
  param {
    lr_mult: 2
    decay_mult: 0
  }
  convolution_param {
    num_output: 384
    pad: 1
    kernel_size: 3
    weight_filler {
      type: "gaussian"
      std: 0.01
    }
    bias_filler {
      type: "constant"
      value: 0
    }
  }
}
layer {
  name: "relu3"
  type: "ReLU"
  bottom: "conv3"
  top: "conv3"
}
layer {
  name: "conv4"
  type: "Convolution"
  bottom: "conv3"
  top: "conv4"
  param {
    lr_mult: 1
    decay_mult: 1
  }
  param {
    lr_mult: 2
    decay_mult: 0
  }
  convolution_param {
    num_output: 384
    pad: 1
    kernel_size: 3
    group: 2
    weight_filler {
      type: "gaussian"
      std: 0.01
    }
    bias_filler {
      type: "constant"
      value: 0.1
    }
  }
}
layer {
  name: "relu4"
  type: "ReLU"
  bottom: "conv4"
  top: "conv4"
}
layer {
  name: "conv5"
  type: "Convolution"
  bottom: "conv4"
  top: "conv5"
  param {
    lr_mult: 1
    decay_mult: 1
  }
  param {
    lr_mult: 2
    decay_mult: 0
  }
  convolution_param {
    num_output: 256
    pad: 1
    kernel_size: 3
    group: 2
    weight_filler {
      type: "gaussian"
      std: 0.01
    }
    bias_filler {
      type: "constant"
      value: 0.1
    }
  }
}
layer {
  name: "relu5"
  type: "ReLU"
  bottom: "conv5"
  top: "conv5"
}
layer {
  name: "pool5"
  type: "Pooling"
  bottom: "conv5"
  top: "pool5"
  pooling_param {
    pool: MAX
    kernel_size: 3
    stride: 2
  }
}
layer {
  name: "fc6"
  type: "InnerProduct"
  bottom: "pool5"
  top: "fc6"
  param {
    lr_mult: 1
    decay_mult: 1
  }
  param {
    lr_mult: 2
    decay_mult: 0
  }
  inner_product_param {
    num_output: 4096
    weight_filler {
      type: "gaussian"
      std: 0.005
    }
    bias_filler {
      type: "constant"
      value: 0.1
    }
  }
}
layer {
  name: "relu6"
  type: "ReLU"
  bottom: "fc6"
  top: "fc6"
}
layer {
  name: "drop6"
  type: "Dropout"
  bottom: "fc6"
  top: "fc6"
  dropout_param {
    dropout_ratio: 0.5
  }
}
layer {
  name: "fc7"
  type: "InnerProduct"
  bottom: "fc6"
  top: "fc7"
  param {
    lr_mult: 1
    decay_mult: 1
  }
  param {
    lr_mult: 2
    decay_mult: 0
  }
  inner_product_param {
    num_output: 4096
    weight_filler {
      type: "gaussian"
      std: 0.005
    }
    bias_filler {
      type: "constant"
      value: 0.1
    }
  }
}
layer {
  name: "relu7"
  type: "ReLU"
  bottom: "fc7"
  top: "fc7"
}
layer {
  name: "drop7"
  type: "Dropout"
  bottom: "fc7"
  top: "fc7"
  dropout_param {
    dropout_ratio: 0.5
  }
}
layer {
  name: "fc8"
  type: "InnerProduct"
  bottom: "fc7"
  top: "fc8"
  param {
    lr_mult: 1
    decay_mult: 1
  }
  param {
    lr_mult: 2
    decay_mult: 0
  }
  inner_product_param {
    num_output: 1000
    weight_filler {
      type: "gaussian"
      std: 0.01
    }
    bias_filler {
      type: "constant"
      value: 0
    }
  }
}
layer {
  name: "loss"
  type: "SoftmaxWithLoss"
  bottom: "fc8"
  bottom: "label"
  top: "loss"
}
I0331 13:09:25.870337 260782 layer_factory.hpp:114] Creating layer data
I0331 13:09:25.872966 260782 net.cpp:160] Creating Layer data
I0331 13:09:25.873087 260782 net.cpp:570] data -> data
I0331 13:09:25.873180 260782 net.cpp:570] data -> label
I0331 13:09:25.873258 260782 data_transformer.cpp:62] Loading mean file from: /people/royp368/CN/caffe/caffe/data/ilsvrc12/imagenet_mean.binaryproto
I0331 13:09:25.898389 260783 db_lmdb.cpp:72] Opened lmdb /people/royp368/CN/caffe/caffe/examples/imagenet/ilsvrc12_train_lmdb
I0331 13:09:26.111734 260782 data_layer.cpp:80] output data size: 256,3,227,227
I0331 13:09:26.433037 260782 net.cpp:210] Setting up data
I0331 13:09:26.433187 260782 net.cpp:217] Top shape: 256 3 227 227 (39574272)
I0331 13:09:26.433257 260782 net.cpp:217] Top shape: 256 (256)
I0331 13:09:26.433297 260782 net.cpp:225] Memory required for data: 158298112
I0331 13:09:26.433379 260782 layer_factory.hpp:114] Creating layer conv1
I0331 13:09:26.433483 260782 net.cpp:160] Creating Layer conv1
I0331 13:09:26.433533 260782 net.cpp:596] conv1 <- data
I0331 13:09:26.433593 260782 net.cpp:570] conv1 -> conv1
I0331 13:09:26.639643 260782 net.cpp:210] Setting up conv1
I0331 13:09:26.639829 260782 net.cpp:217] Top shape: 256 96 55 55 (74342400)
I0331 13:09:26.639899 260782 net.cpp:225] Memory required for data: 455667712
I0331 13:09:26.640035 260782 layer_factory.hpp:114] Creating layer relu1
I0331 13:09:26.640146 260782 net.cpp:160] Creating Layer relu1
I0331 13:09:26.640215 260782 net.cpp:596] relu1 <- conv1
I0331 13:09:26.640283 260782 net.cpp:557] relu1 -> conv1 (in-place)
I0331 13:09:26.640373 260782 net.cpp:210] Setting up relu1
I0331 13:09:26.640439 260782 net.cpp:217] Top shape: 256 96 55 55 (74342400)
I0331 13:09:26.640609 260782 net.cpp:225] Memory required for data: 753037312
I0331 13:09:26.640667 260782 layer_factory.hpp:114] Creating layer norm1
I0331 13:09:26.640741 260782 net.cpp:160] Creating Layer norm1
I0331 13:09:26.640846 260782 net.cpp:596] norm1 <- conv1
I0331 13:09:26.640920 260782 net.cpp:570] norm1 -> norm1
I0331 13:09:26.641032 260782 net.cpp:210] Setting up norm1
I0331 13:09:26.641104 260782 net.cpp:217] Top shape: 256 96 55 55 (74342400)
I0331 13:09:26.641141 260782 net.cpp:225] Memory required for data: 1050406912
I0331 13:09:26.641182 260782 layer_factory.hpp:114] Creating layer pool1
I0331 13:09:26.641381 260782 net.cpp:160] Creating Layer pool1
I0331 13:09:26.641446 260782 net.cpp:596] pool1 <- norm1
I0331 13:09:26.641501 260782 net.cpp:570] pool1 -> pool1
I0331 13:09:26.641592 260782 net.cpp:210] Setting up pool1
I0331 13:09:26.641649 260782 net.cpp:217] Top shape: 256 96 27 27 (17915904)
I0331 13:09:26.641681 260782 net.cpp:225] Memory required for data: 1122070528
I0331 13:09:26.641718 260782 layer_factory.hpp:114] Creating layer conv2
I0331 13:09:26.641834 260782 net.cpp:160] Creating Layer conv2
I0331 13:09:26.641890 260782 net.cpp:596] conv2 <- pool1
I0331 13:09:26.641954 260782 net.cpp:570] conv2 -> conv2
I0331 13:09:27.056985 260782 net.cpp:210] Setting up conv2
I0331 13:09:27.057122 260782 net.cpp:217] Top shape: 256 256 27 27 (47775744)
I0331 13:09:27.057184 260782 net.cpp:225] Memory required for data: 1313173504
I0331 13:09:27.057289 260782 layer_factory.hpp:114] Creating layer relu2
I0331 13:09:27.057376 260782 net.cpp:160] Creating Layer relu2
I0331 13:09:27.057438 260782 net.cpp:596] relu2 <- conv2
I0331 13:09:27.057505 260782 net.cpp:557] relu2 -> conv2 (in-place)
I0331 13:09:27.057585 260782 net.cpp:210] Setting up relu2
I0331 13:09:27.057648 260782 net.cpp:217] Top shape: 256 256 27 27 (47775744)
I0331 13:09:27.057693 260782 net.cpp:225] Memory required for data: 1504276480
I0331 13:09:27.057735 260782 layer_factory.hpp:114] Creating layer norm2
I0331 13:09:27.057852 260782 net.cpp:160] Creating Layer norm2
I0331 13:09:27.057909 260782 net.cpp:596] norm2 <- conv2
I0331 13:09:27.057973 260782 net.cpp:570] norm2 -> norm2
I0331 13:09:27.058065 260782 net.cpp:210] Setting up norm2
I0331 13:09:27.058132 260782 net.cpp:217] Top shape: 256 256 27 27 (47775744)
I0331 13:09:27.058168 260782 net.cpp:225] Memory required for data: 1695379456
I0331 13:09:27.058207 260782 layer_factory.hpp:114] Creating layer pool2
I0331 13:09:27.058338 260782 net.cpp:160] Creating Layer pool2
I0331 13:09:27.058393 260782 net.cpp:596] pool2 <- norm2
I0331 13:09:27.058444 260782 net.cpp:570] pool2 -> pool2
I0331 13:09:27.058513 260782 net.cpp:210] Setting up pool2
I0331 13:09:27.058563 260782 net.cpp:217] Top shape: 256 256 13 13 (11075584)
I0331 13:09:27.058596 260782 net.cpp:225] Memory required for data: 1739681792
I0331 13:09:27.058632 260782 layer_factory.hpp:114] Creating layer conv3
I0331 13:09:27.058693 260782 net.cpp:160] Creating Layer conv3
I0331 13:09:27.058729 260782 net.cpp:596] conv3 <- pool2
I0331 13:09:27.058825 260782 net.cpp:570] conv3 -> conv3
I0331 13:09:27.238886 260782 net.cpp:210] Setting up conv3
I0331 13:09:27.239040 260782 net.cpp:217] Top shape: 256 384 13 13 (16613376)
I0331 13:09:27.239090 260782 net.cpp:225] Memory required for data: 1806135296
I0331 13:09:27.239178 260782 layer_factory.hpp:114] Creating layer relu3
I0331 13:09:27.239246 260782 net.cpp:160] Creating Layer relu3
I0331 13:09:27.239290 260782 net.cpp:596] relu3 <- conv3
I0331 13:09:27.239341 260782 net.cpp:557] relu3 -> conv3 (in-place)
I0331 13:09:27.239401 260782 net.cpp:210] Setting up relu3
I0331 13:09:27.239451 260782 net.cpp:217] Top shape: 256 384 13 13 (16613376)
I0331 13:09:27.239485 260782 net.cpp:225] Memory required for data: 1872588800
I0331 13:09:27.239521 260782 layer_factory.hpp:114] Creating layer conv4
I0331 13:09:27.239583 260782 net.cpp:160] Creating Layer conv4
I0331 13:09:27.239619 260782 net.cpp:596] conv4 <- conv3
I0331 13:09:27.239667 260782 net.cpp:570] conv4 -> conv4
I0331 13:09:27.395135 260782 net.cpp:210] Setting up conv4
I0331 13:09:27.395262 260782 net.cpp:217] Top shape: 256 384 13 13 (16613376)
I0331 13:09:27.395311 260782 net.cpp:225] Memory required for data: 1939042304
I0331 13:09:27.395387 260782 layer_factory.hpp:114] Creating layer relu4
I0331 13:09:27.395454 260782 net.cpp:160] Creating Layer relu4
I0331 13:09:27.395499 260782 net.cpp:596] relu4 <- conv4
I0331 13:09:27.395550 260782 net.cpp:557] relu4 -> conv4 (in-place)
I0331 13:09:27.395612 260782 net.cpp:210] Setting up relu4
I0331 13:09:27.395658 260782 net.cpp:217] Top shape: 256 384 13 13 (16613376)
I0331 13:09:27.395691 260782 net.cpp:225] Memory required for data: 2005495808
I0331 13:09:27.395727 260782 layer_factory.hpp:114] Creating layer conv5
I0331 13:09:27.395830 260782 net.cpp:160] Creating Layer conv5
I0331 13:09:27.395881 260782 net.cpp:596] conv5 <- conv4
I0331 13:09:27.395936 260782 net.cpp:570] conv5 -> conv5
I0331 13:09:27.516865 260782 net.cpp:210] Setting up conv5
I0331 13:09:27.516994 260782 net.cpp:217] Top shape: 256 256 13 13 (11075584)
I0331 13:09:27.517041 260782 net.cpp:225] Memory required for data: 2049798144
I0331 13:09:27.517132 260782 layer_factory.hpp:114] Creating layer relu5
I0331 13:09:27.517200 260782 net.cpp:160] Creating Layer relu5
I0331 13:09:27.517246 260782 net.cpp:596] relu5 <- conv5
I0331 13:09:27.517297 260782 net.cpp:557] relu5 -> conv5 (in-place)
I0331 13:09:27.517354 260782 net.cpp:210] Setting up relu5
I0331 13:09:27.517402 260782 net.cpp:217] Top shape: 256 256 13 13 (11075584)
I0331 13:09:27.517437 260782 net.cpp:225] Memory required for data: 2094100480
I0331 13:09:27.517473 260782 layer_factory.hpp:114] Creating layer pool5
I0331 13:09:27.517593 260782 net.cpp:160] Creating Layer pool5
I0331 13:09:27.517642 260782 net.cpp:596] pool5 <- conv5
I0331 13:09:27.517694 260782 net.cpp:570] pool5 -> pool5
I0331 13:09:27.517808 260782 net.cpp:210] Setting up pool5
I0331 13:09:27.517873 260782 net.cpp:217] Top shape: 256 256 6 6 (2359296)
I0331 13:09:27.517906 260782 net.cpp:225] Memory required for data: 2103537664
I0331 13:09:27.517945 260782 layer_factory.hpp:114] Creating layer fc6
I0331 13:09:27.518012 260782 net.cpp:160] Creating Layer fc6
I0331 13:09:27.518049 260782 net.cpp:596] fc6 <- pool5
I0331 13:09:27.518098 260782 net.cpp:570] fc6 -> fc6
I0331 13:09:29.835266 260782 net.cpp:210] Setting up fc6
I0331 13:09:29.835384 260782 net.cpp:217] Top shape: 256 4096 (1048576)
I0331 13:09:29.835420 260782 net.cpp:225] Memory required for data: 2107731968
I0331 13:09:29.835484 260782 layer_factory.hpp:114] Creating layer relu6
I0331 13:09:29.835536 260782 net.cpp:160] Creating Layer relu6
I0331 13:09:29.835572 260782 net.cpp:596] relu6 <- fc6
I0331 13:09:29.835618 260782 net.cpp:557] relu6 -> fc6 (in-place)
I0331 13:09:29.835669 260782 net.cpp:210] Setting up relu6
I0331 13:09:29.835711 260782 net.cpp:217] Top shape: 256 4096 (1048576)
I0331 13:09:29.835743 260782 net.cpp:225] Memory required for data: 2111926272
I0331 13:09:29.835816 260782 layer_factory.hpp:114] Creating layer drop6
I0331 13:09:29.835882 260782 net.cpp:160] Creating Layer drop6
I0331 13:09:29.835919 260782 net.cpp:596] drop6 <- fc6
I0331 13:09:29.835963 260782 net.cpp:557] drop6 -> fc6 (in-place)
I0331 13:09:29.836055 260782 net.cpp:210] Setting up drop6
I0331 13:09:29.836102 260782 net.cpp:217] Top shape: 256 4096 (1048576)
I0331 13:09:29.836133 260782 net.cpp:225] Memory required for data: 2116120576
I0331 13:09:29.836169 260782 layer_factory.hpp:114] Creating layer fc7
I0331 13:09:29.836227 260782 net.cpp:160] Creating Layer fc7
I0331 13:09:29.836261 260782 net.cpp:596] fc7 <- fc6
I0331 13:09:29.836308 260782 net.cpp:570] fc7 -> fc7
I0331 13:09:30.866917 260782 net.cpp:210] Setting up fc7
I0331 13:09:30.867048 260782 net.cpp:217] Top shape: 256 4096 (1048576)
I0331 13:09:30.867090 260782 net.cpp:225] Memory required for data: 2120314880
I0331 13:09:30.867156 260782 layer_factory.hpp:114] Creating layer relu7
I0331 13:09:30.867211 260782 net.cpp:160] Creating Layer relu7
I0331 13:09:30.867384 260782 net.cpp:596] relu7 <- fc7
I0331 13:09:30.867446 260782 net.cpp:557] relu7 -> fc7 (in-place)
I0331 13:09:30.867506 260782 net.cpp:210] Setting up relu7
I0331 13:09:30.867553 260782 net.cpp:217] Top shape: 256 4096 (1048576)
I0331 13:09:30.867585 260782 net.cpp:225] Memory required for data: 2124509184
I0331 13:09:30.867621 260782 layer_factory.hpp:114] Creating layer drop7
I0331 13:09:30.867666 260782 net.cpp:160] Creating Layer drop7
I0331 13:09:30.867700 260782 net.cpp:596] drop7 <- fc7
I0331 13:09:30.867743 260782 net.cpp:557] drop7 -> fc7 (in-place)
I0331 13:09:30.867846 260782 net.cpp:210] Setting up drop7
I0331 13:09:30.867892 260782 net.cpp:217] Top shape: 256 4096 (1048576)
I0331 13:09:30.867923 260782 net.cpp:225] Memory required for data: 2128703488
I0331 13:09:30.867959 260782 layer_factory.hpp:114] Creating layer fc8
I0331 13:09:30.868016 260782 net.cpp:160] Creating Layer fc8
I0331 13:09:30.868052 260782 net.cpp:596] fc8 <- fc7
I0331 13:09:30.868099 260782 net.cpp:570] fc8 -> fc8
I0331 13:09:31.119845 260782 net.cpp:210] Setting up fc8
I0331 13:09:31.119962 260782 net.cpp:217] Top shape: 256 1000 (256000)
I0331 13:09:31.119997 260782 net.cpp:225] Memory required for data: 2129727488
I0331 13:09:31.120061 260782 layer_factory.hpp:114] Creating layer loss
I0331 13:09:31.120138 260782 net.cpp:160] Creating Layer loss
I0331 13:09:31.120178 260782 net.cpp:596] loss <- fc8
I0331 13:09:31.120218 260782 net.cpp:596] loss <- label
I0331 13:09:31.120261 260782 net.cpp:570] loss -> loss
I0331 13:09:31.120337 260782 layer_factory.hpp:114] Creating layer loss
…
I0331 13:09:31.206089 260782 net.cpp:484] The NetState phase (1) differed from the phase (0) specified by a rule in layer data
I0331 13:09:31.210072 260782 net.cpp:120] Initializing net from parameters: 
name: "AlexNet"
state {
  phase: TEST
}
layer {
  name: "data"
  type: "Data"
  top: "data"
  top: "label"
  include {
    phase: TEST
  }
  transform_param {
    mirror: false
    crop_size: 227
    mean_file: "/people/royp368/CN/caffe/caffe/data/ilsvrc12/imagenet_mean.binaryproto"
  }
  data_param {
    source: "/people/royp368/CN/caffe/caffe/examples/imagenet/ilsvrc12_val_lmdb"
    batch_size: 50
    backend: LMDB
  }
}
layer {
  name: "label_data_1_split"
  type: "Split"
  bottom: "label"
  top: "label_data_1_split_0"
  top: "label_data_1_split_1"
}
layer {
  name: "conv1"
  type: "Convolution"
  bottom: "data"
  top: "conv1"
  param {
    lr_mult: 1
    decay_mult: 1
  }
  param {
    lr_mult: 2
    decay_mult: 0
  }
  convolution_param {
    num_output: 96
    kernel_size: 11
    stride: 4
    weight_filler {
      type: "gaussian"
      std: 0.01
    }
    bias_filler {
      type: "constant"
      value: 0
    }
  }
}
layer {
  name: "relu1"
  type: "ReLU"
  bottom: "conv1"
  top: "conv1"
}
layer {
  name: "norm1"
  type: "LRN"
  bottom: "conv1"
  top: "norm1"
  lrn_param {
    local_size: 5
    alpha: 0.0001
    beta: 0.75
  }
}
layer {
  name: "pool1"
  type: "Pooling"
  bottom: "norm1"
  top: "pool1"
  pooling_param {
    pool: MAX
    kernel_size: 3
    stride: 2
  }
}
layer {
  name: "conv2"
  type: "Convolution"
  bottom: "pool1"
  top: "conv2"
  param {
    lr_mult: 1
    decay_mult: 1
  }
  param {
    lr_mult: 2
    decay_mult: 0
  }
  convolution_param {
    num_output: 256
    pad: 2
    kernel_size: 5
    group: 2
    weight_filler {
      type: "gaussian"
      std: 0.01
    }
    bias_filler {
      type: "constant"
      value: 0.1
    }
  }
}
layer {
  name: "relu2"
  type: "ReLU"
  bottom: "conv2"
  top: "conv2"
}
layer {
  name: "norm2"
  type: "LRN"
  bottom: "conv2"
  top: "norm2"
  lrn_param {
    local_size: 5
    alpha: 0.0001
    beta: 0.75
  }
}
layer {
  name: "pool2"
  type: "Pooling"
  bottom: "norm2"
  top: "pool2"
  pooling_param {
    pool: MAX
    kernel_size: 3
    stride: 2
  }
}
layer {
  name: "conv3"
  type: "Convolution"
  bottom: "pool2"
  top: "conv3"
  param {
    lr_mult: 1
    decay_mult: 1
  }
  param {
    lr_mult: 2
    decay_mult: 0
  }
  convolution_param {
    num_output: 384
    pad: 1
    kernel_size: 3
    weight_filler {
      type: "gaussian"
      std: 0.01
    }
    bias_filler {
      type: "constant"
      value: 0
    }
  }
}
layer {
  name: "relu3"
  type: "ReLU"
  bottom: "conv3"
  top: "conv3"
}
layer {
  name: "conv4"
  type: "Convolution"
  bottom: "conv3"
  top: "conv4"
  param {
    lr_mult: 1
    decay_mult: 1
  }
  param {
    lr_mult: 2
    decay_mult: 0
  }
  convolution_param {
    num_output: 384
    pad: 1
    kernel_size: 3
    group: 2
    weight_filler {
      type: "gaussian"
      std: 0.01
    }
    bias_filler {
      type: "constant"
      value: 0.1
    }
  }
}
layer {
  name: "relu4"
  type: "ReLU"
  bottom: "conv4"
  top: "conv4"
}
layer {
  name: "conv5"
  type: "Convolution"
  bottom: "conv4"
  top: "conv5"
  param {
    lr_mult: 1
    decay_mult: 1
  }
  param {
    lr_mult: 2
    decay_mult: 0
  }
  convolution_param {
    num_output: 256
    pad: 1
    kernel_size: 3
    group: 2
    weight_filler {
      type: "gaussian"
      std: 0.01
    }
    bias_filler {
      type: "constant"
      value: 0.1
    }
  }
}
layer {
  name: "relu5"
  type: "ReLU"
  bottom: "conv5"
  top: "conv5"
}
layer {
  name: "pool5"
  type: "Pooling"
  bottom: "conv5"
  top: "pool5"
  pooling_param {
    pool: MAX
    kernel_size: 3
    stride: 2
  }
}
layer {
  name: "fc6"
  type: "InnerProduct"
  bottom: "pool5"
  top: "fc6"
  param {
    lr_mult: 1
    decay_mult: 1
  }
  param {
    lr_mult: 2
    decay_mult: 0
  }
  inner_product_param {
    num_output: 4096
    weight_filler {
      type: "gaussian"
      std: 0.005
    }
    bias_filler {
      type: "constant"
      value: 0.1
    }
  }
}
layer {
  name: "relu6"
  type: "ReLU"
  bottom: "fc6"
  top: "fc6"
}
layer {
  name: "drop6"
  type: "Dropout"
  bottom: "fc6"
  top: "fc6"
  dropout_param {
    dropout_ratio: 0.5
  }
}
layer {
  name: "fc7"
  type: "InnerProduct"
  bottom: "fc6"
  top: "fc7"
  param {
    lr_mult: 1
    decay_mult: 1
  }
  param {
    lr_mult: 2
    decay_mult: 0
  }
  inner_product_param {
    num_output: 4096
    weight_filler {
      type: "gaussian"
      std: 0.005
    }
    bias_filler {
      type: "constant"
      value: 0.1
    }
  }
}
layer {
  name: "relu7"
  type: "ReLU"
  bottom: "fc7"
  top: "fc7"
}
layer {
  name: "drop7"
  type: "Dropout"
  bottom: "fc7"
  top: "fc7"
  dropout_param {
    dropout_ratio: 0.5
  }
}
layer {
  name: "fc8"
  type: "InnerProduct"
  bottom: "fc7"
  top: "fc8"
  param {
    lr_mult: 1
    decay_mult: 1
  }
  param {
    lr_mult: 2
    decay_mult: 0
  }
  inner_product_param {
    num_output: 1000
    weight_filler {
      type: "gaussian"
      std: 0.01
    }
    bias_filler {
      type: "constant"
      value: 0
    }
  }
}
layer {
  name: "fc8_fc8_0_split"
  type: "Split"
  bottom: "fc8"
  top: "fc8_fc8_0_split_0"
  top: "fc8_fc8_0_split_1"
}
layer {
  name: "accuracy"
  type: "Accuracy"
  bottom: "fc8_fc8_0_split_0"
  bottom: "label_data_1_split_0"
  top: "accuracy"
  include {
    phase: TEST
  }
}
layer {
  name: "loss"
  type: "SoftmaxWithLoss"
  bottom: "fc8_fc8_0_split_1"
  bottom: "label_data_1_split_1"
  top: "loss"
}
I0331 13:09:31.210296 260782 layer_factory.hpp:114] Creating layer data
I0331 13:09:31.210701 260782 net.cpp:160] Creating Layer data
I0331 13:09:31.210822 260782 net.cpp:570] data -> data
I0331 13:09:31.210921 260782 net.cpp:570] data -> label
I0331 13:09:31.210999 260782 data_transformer.cpp:62] Loading mean file from: /people/royp368/CN/caffe/caffe/data/ilsvrc12/imagenet_mean.binaryproto
I0331 13:09:31.252435 260847 db_lmdb.cpp:72] Opened lmdb /people/royp368/CN/caffe/caffe/examples/imagenet/ilsvrc12_val_lmdb
I0331 13:09:31.269068 260782 data_layer.cpp:80] output data size: 50,3,227,227
I0331 13:09:31.319494 260782 net.cpp:210] Setting up data
I0331 13:09:31.319628 260782 net.cpp:217] Top shape: 50 3 227 227 (7729350)
I0331 13:09:31.319690 260782 net.cpp:217] Top shape: 50 (50)
I0331 13:09:31.319728 260782 net.cpp:225] Memory required for data: 30917600
I0331 13:09:31.319810 260782 layer_factory.hpp:114] Creating layer label_data_1_split
I0331 13:09:31.319887 260782 net.cpp:160] Creating Layer label_data_1_split
I0331 13:09:31.319932 260782 net.cpp:596] label_data_1_split <- label
I0331 13:09:31.319983 260782 net.cpp:570] label_data_1_split -> label_data_1_split_0
I0331 13:09:31.320045 260782 net.cpp:570] label_data_1_split -> label_data_1_split_1
I0331 13:09:31.320106 260782 net.cpp:210] Setting up label_data_1_split
I0331 13:09:31.320158 260782 net.cpp:217] Top shape: 50 (50)
I0331 13:09:31.320196 260782 net.cpp:217] Top shape: 50 (50)
I0331 13:09:31.320227 260782 net.cpp:225] Memory required for data: 30918000
I0331 13:09:31.320262 260782 layer_factory.hpp:114] Creating layer conv1
I0331 13:09:31.320330 260782 net.cpp:160] Creating Layer conv1
I0331 13:09:31.320366 260782 net.cpp:596] conv1 <- data
I0331 13:09:31.320413 260782 net.cpp:570] conv1 -> conv1
I0331 13:09:31.485194 260782 net.cpp:210] Setting up conv1
I0331 13:09:31.485327 260782 net.cpp:217] Top shape: 50 96 55 55 (14520000)
I0331 13:09:31.485381 260782 net.cpp:225] Memory required for data: 88998000
I0331 13:09:31.485476 260782 layer_factory.hpp:114] Creating layer relu1
I0331 13:09:31.485682 260782 net.cpp:160] Creating Layer relu1
I0331 13:09:31.485744 260782 net.cpp:596] relu1 <- conv1
I0331 13:09:31.485853 260782 net.cpp:557] relu1 -> conv1 (in-place)
I0331 13:09:31.485934 260782 net.cpp:210] Setting up relu1
I0331 13:09:31.485987 260782 net.cpp:217] Top shape: 50 96 55 55 (14520000)
I0331 13:09:31.486022 260782 net.cpp:225] Memory required for data: 147078000
I0331 13:09:31.486062 260782 layer_factory.hpp:114] Creating layer norm1
I0331 13:09:31.486119 260782 net.cpp:160] Creating Layer norm1
I0331 13:09:31.486157 260782 net.cpp:596] norm1 <- conv1
I0331 13:09:31.486207 260782 net.cpp:570] norm1 -> norm1
I0331 13:09:31.486279 260782 net.cpp:210] Setting up norm1
I0331 13:09:31.486326 260782 net.cpp:217] Top shape: 50 96 55 55 (14520000)
I0331 13:09:31.486359 260782 net.cpp:225] Memory required for data: 205158000
I0331 13:09:31.486394 260782 layer_factory.hpp:114] Creating layer pool1
I0331 13:09:31.486515 260782 net.cpp:160] Creating Layer pool1
I0331 13:09:31.486564 260782 net.cpp:596] pool1 <- norm1
I0331 13:09:31.486614 260782 net.cpp:570] pool1 -> pool1
I0331 13:09:31.486682 260782 net.cpp:210] Setting up pool1
I0331 13:09:31.486732 260782 net.cpp:217] Top shape: 50 96 27 27 (3499200)
I0331 13:09:31.486812 260782 net.cpp:225] Memory required for data: 219154800
I0331 13:09:31.486858 260782 layer_factory.hpp:114] Creating layer conv2
I0331 13:09:31.486927 260782 net.cpp:160] Creating Layer conv2
I0331 13:09:31.486965 260782 net.cpp:596] conv2 <- pool1
I0331 13:09:31.487015 260782 net.cpp:570] conv2 -> conv2
I0331 13:09:31.651880 260782 net.cpp:210] Setting up conv2
I0331 13:09:31.652003 260782 net.cpp:217] Top shape: 50 256 27 27 (9331200)
I0331 13:09:31.652045 260782 net.cpp:225] Memory required for data: 256479600
I0331 13:09:31.652128 260782 layer_factory.hpp:114] Creating layer relu2
I0331 13:09:31.652194 260782 net.cpp:160] Creating Layer relu2
I0331 13:09:31.652233 260782 net.cpp:596] relu2 <- conv2
I0331 13:09:31.652282 260782 net.cpp:557] relu2 -> conv2 (in-place)
I0331 13:09:31.652339 260782 net.cpp:210] Setting up relu2
I0331 13:09:31.652385 260782 net.cpp:217] Top shape: 50 256 27 27 (9331200)
I0331 13:09:31.652418 260782 net.cpp:225] Memory required for data: 293804400
I0331 13:09:31.652452 260782 layer_factory.hpp:114] Creating layer norm2
I0331 13:09:31.652504 260782 net.cpp:160] Creating Layer norm2
I0331 13:09:31.652540 260782 net.cpp:596] norm2 <- conv2
I0331 13:09:31.652585 260782 net.cpp:570] norm2 -> norm2
I0331 13:09:31.652700 260782 net.cpp:210] Setting up norm2
I0331 13:09:31.652801 260782 net.cpp:217] Top shape: 50 256 27 27 (9331200)
I0331 13:09:31.652842 260782 net.cpp:225] Memory required for data: 331129200
I0331 13:09:31.652881 260782 layer_factory.hpp:114] Creating layer pool2
I0331 13:09:31.652999 260782 net.cpp:160] Creating Layer pool2
I0331 13:09:31.653046 260782 net.cpp:596] pool2 <- norm2
I0331 13:09:31.653098 260782 net.cpp:570] pool2 -> pool2
I0331 13:09:31.653167 260782 net.cpp:210] Setting up pool2
I0331 13:09:31.653214 260782 net.cpp:217] Top shape: 50 256 13 13 (2163200)
I0331 13:09:31.653245 260782 net.cpp:225] Memory required for data: 339782000
I0331 13:09:31.653280 260782 layer_factory.hpp:114] Creating layer conv3
I0331 13:09:31.653338 260782 net.cpp:160] Creating Layer conv3
I0331 13:09:31.653373 260782 net.cpp:596] conv3 <- pool2
I0331 13:09:31.653421 260782 net.cpp:570] conv3 -> conv3
I0331 13:09:31.800981 260782 net.cpp:210] Setting up conv3
I0331 13:09:31.801107 260782 net.cpp:217] Top shape: 50 384 13 13 (3244800)
I0331 13:09:31.801153 260782 net.cpp:225] Memory required for data: 352761200
I0331 13:09:31.801242 260782 layer_factory.hpp:114] Creating layer relu3
I0331 13:09:31.801311 260782 net.cpp:160] Creating Layer relu3
I0331 13:09:31.801355 260782 net.cpp:596] relu3 <- conv3
I0331 13:09:31.801409 260782 net.cpp:557] relu3 -> conv3 (in-place)
I0331 13:09:31.801468 260782 net.cpp:210] Setting up relu3
I0331 13:09:31.801515 260782 net.cpp:217] Top shape: 50 384 13 13 (3244800)
I0331 13:09:31.801548 260782 net.cpp:225] Memory required for data: 365740400
I0331 13:09:31.801719 260782 layer_factory.hpp:114] Creating layer conv4
I0331 13:09:31.801843 260782 net.cpp:160] Creating Layer conv4
I0331 13:09:31.801898 260782 net.cpp:596] conv4 <- conv3
I0331 13:09:31.801954 260782 net.cpp:570] conv4 -> conv4
I0331 13:09:31.934854 260782 net.cpp:210] Setting up conv4
I0331 13:09:31.934978 260782 net.cpp:217] Top shape: 50 384 13 13 (3244800)
I0331 13:09:31.935022 260782 net.cpp:225] Memory required for data: 378719600
I0331 13:09:31.935093 260782 layer_factory.hpp:114] Creating layer relu4
I0331 13:09:31.935158 260782 net.cpp:160] Creating Layer relu4
I0331 13:09:31.935201 260782 net.cpp:596] relu4 <- conv4
I0331 13:09:31.935250 260782 net.cpp:557] relu4 -> conv4 (in-place)
I0331 13:09:31.935307 260782 net.cpp:210] Setting up relu4
I0331 13:09:31.935353 260782 net.cpp:217] Top shape: 50 384 13 13 (3244800)
I0331 13:09:31.935385 260782 net.cpp:225] Memory required for data: 391698800
I0331 13:09:31.935421 260782 layer_factory.hpp:114] Creating layer conv5
I0331 13:09:31.935483 260782 net.cpp:160] Creating Layer conv5
I0331 13:09:31.935520 260782 net.cpp:596] conv5 <- conv4
I0331 13:09:31.935570 260782 net.cpp:570] conv5 -> conv5
I0331 13:09:32.037153 260782 net.cpp:210] Setting up conv5
I0331 13:09:32.037273 260782 net.cpp:217] Top shape: 50 256 13 13 (2163200)
I0331 13:09:32.037317 260782 net.cpp:225] Memory required for data: 400351600
I0331 13:09:32.037405 260782 layer_factory.hpp:114] Creating layer relu5
I0331 13:09:32.037472 260782 net.cpp:160] Creating Layer relu5
I0331 13:09:32.037513 260782 net.cpp:596] relu5 <- conv5
I0331 13:09:32.037561 260782 net.cpp:557] relu5 -> conv5 (in-place)
I0331 13:09:32.037618 260782 net.cpp:210] Setting up relu5
I0331 13:09:32.037667 260782 net.cpp:217] Top shape: 50 256 13 13 (2163200)
I0331 13:09:32.037698 260782 net.cpp:225] Memory required for data: 409004400
I0331 13:09:32.037732 260782 layer_factory.hpp:114] Creating layer pool5
I0331 13:09:32.037902 260782 net.cpp:160] Creating Layer pool5
I0331 13:09:32.037963 260782 net.cpp:596] pool5 <- conv5
I0331 13:09:32.038017 260782 net.cpp:570] pool5 -> pool5
I0331 13:09:32.038094 260782 net.cpp:210] Setting up pool5
I0331 13:09:32.038144 260782 net.cpp:217] Top shape: 50 256 6 6 (460800)
I0331 13:09:32.038177 260782 net.cpp:225] Memory required for data: 410847600
I0331 13:09:32.038213 260782 layer_factory.hpp:114] Creating layer fc6
I0331 13:09:32.038274 260782 net.cpp:160] Creating Layer fc6
I0331 13:09:32.038310 260782 net.cpp:596] fc6 <- pool5
I0331 13:09:32.038390 260782 net.cpp:570] fc6 -> fc6
I0331 13:09:34.357652 260782 net.cpp:210] Setting up fc6
I0331 13:09:34.357862 260782 net.cpp:217] Top shape: 50 4096 (204800)
I0331 13:09:34.357919 260782 net.cpp:225] Memory required for data: 411666800
I0331 13:09:34.357985 260782 layer_factory.hpp:114] Creating layer relu6
I0331 13:09:34.358048 260782 net.cpp:160] Creating Layer relu6
I0331 13:09:34.358090 260782 net.cpp:596] relu6 <- fc6
I0331 13:09:34.358144 260782 net.cpp:557] relu6 -> fc6 (in-place)
I0331 13:09:34.358204 260782 net.cpp:210] Setting up relu6
I0331 13:09:34.358254 260782 net.cpp:217] Top shape: 50 4096 (204800)
I0331 13:09:34.358289 260782 net.cpp:225] Memory required for data: 412486000
I0331 13:09:34.358327 260782 layer_factory.hpp:114] Creating layer drop6
I0331 13:09:34.358381 260782 net.cpp:160] Creating Layer drop6
I0331 13:09:34.358422 260782 net.cpp:596] drop6 <- fc6
I0331 13:09:34.358471 260782 net.cpp:557] drop6 -> fc6 (in-place)
I0331 13:09:34.358533 260782 net.cpp:210] Setting up drop6
I0331 13:09:34.358582 260782 net.cpp:217] Top shape: 50 4096 (204800)
I0331 13:09:34.358615 260782 net.cpp:225] Memory required for data: 413305200
I0331 13:09:34.358652 260782 layer_factory.hpp:114] Creating layer fc7
I0331 13:09:34.358716 260782 net.cpp:160] Creating Layer fc7
I0331 13:09:34.358791 260782 net.cpp:596] fc7 <- fc6
I0331 13:09:34.358862 260782 net.cpp:570] fc7 -> fc7
I0331 13:09:35.388978 260782 net.cpp:210] Setting up fc7
I0331 13:09:35.389111 260782 net.cpp:217] Top shape: 50 4096 (204800)
I0331 13:09:35.389278 260782 net.cpp:225] Memory required for data: 414124400
I0331 13:09:35.389353 260782 layer_factory.hpp:114] Creating layer relu7
I0331 13:09:35.389417 260782 net.cpp:160] Creating Layer relu7
I0331 13:09:35.389456 260782 net.cpp:596] relu7 <- fc7
I0331 13:09:35.389504 260782 net.cpp:557] relu7 -> fc7 (in-place)
I0331 13:09:35.389559 260782 net.cpp:210] Setting up relu7
I0331 13:09:35.389602 260782 net.cpp:217] Top shape: 50 4096 (204800)
I0331 13:09:35.389632 260782 net.cpp:225] Memory required for data: 414943600
I0331 13:09:35.389665 260782 layer_factory.hpp:114] Creating layer drop7
I0331 13:09:35.389709 260782 net.cpp:160] Creating Layer drop7
I0331 13:09:35.389741 260782 net.cpp:596] drop7 <- fc7
I0331 13:09:35.389830 260782 net.cpp:557] drop7 -> fc7 (in-place)
I0331 13:09:35.389888 260782 net.cpp:210] Setting up drop7
I0331 13:09:35.389930 260782 net.cpp:217] Top shape: 50 4096 (204800)
I0331 13:09:35.389961 260782 net.cpp:225] Memory required for data: 415762800
I0331 13:09:35.389995 260782 layer_factory.hpp:114] Creating layer fc8
I0331 13:09:35.390049 260782 net.cpp:160] Creating Layer fc8
I0331 13:09:35.390081 260782 net.cpp:596] fc8 <- fc7
I0331 13:09:35.390127 260782 net.cpp:570] fc8 -> fc8
I0331 13:09:35.641852 260782 net.cpp:210] Setting up fc8
I0331 13:09:35.641973 260782 net.cpp:217] Top shape: 50 1000 (50000)
I0331 13:09:35.642007 260782 net.cpp:225] Memory required for data: 415962800
I0331 13:09:35.642066 260782 layer_factory.hpp:114] Creating layer fc8_fc8_0_split
I0331 13:09:35.642122 260782 net.cpp:160] Creating Layer fc8_fc8_0_split
I0331 13:09:35.642158 260782 net.cpp:596] fc8_fc8_0_split <- fc8
I0331 13:09:35.642205 260782 net.cpp:570] fc8_fc8_0_split -> fc8_fc8_0_split_0
I0331 13:09:35.642259 260782 net.cpp:570] fc8_fc8_0_split -> fc8_fc8_0_split_1
I0331 13:09:35.642313 260782 net.cpp:210] Setting up fc8_fc8_0_split
I0331 13:09:35.642354 260782 net.cpp:217] Top shape: 50 1000 (50000)
I0331 13:09:35.642392 260782 net.cpp:217] Top shape: 50 1000 (50000)
I0331 13:09:35.642422 260782 net.cpp:225] Memory required for data: 416362800
I0331 13:09:35.642455 260782 layer_factory.hpp:114] Creating layer accuracy
I0331 13:09:35.642518 260782 net.cpp:160] Creating Layer accuracy
I0331 13:09:35.642554 260782 net.cpp:596] accuracy <- fc8_fc8_0_split_0
I0331 13:09:35.642590 260782 net.cpp:596] accuracy <- label_data_1_split_0
I0331 13:09:35.642635 260782 net.cpp:570] accuracy -> accuracy
…
