…
I0331 13:08:10.188134 260737 net.cpp:484] The NetState phase (0) differed from the phase (1) specified by a rule in layer accuracy
I0331 13:08:10.191601 260737 net.cpp:120] Initializing net from parameters: 
name: "AlexNet"
state {
  phase: TRAIN
  level: 0
  stage: ""
}
layer {
  name: "data"
  type: "Data"
  top: "data"
  top: "label"
  include {
    phase: TRAIN
  }
  transform_param {
    mirror: true
    crop_size: 227
    mean_file: "/people/royp368/CN/caffe/caffe/data/ilsvrc12/imagenet_mean.binaryproto"
  }
  data_param {
    source: "/people/royp368/CN/caffe/caffe/examples/imagenet/ilsvrc12_train_lmdb"
    batch_size: 256
    backend: LMDB
  }
}
layer {
  name: "conv1"
  type: "Convolution"
  bottom: "data"
  top: "conv1"
  param {
    lr_mult: 1
    decay_mult: 1
  }
  param {
    lr_mult: 2
    decay_mult: 0
  }
  convolution_param {
    num_output: 96
    kernel_size: 11
    stride: 4
    weight_filler {
      type: "gaussian"
      std: 0.01
    }
    bias_filler {
      type: "constant"
      value: 0
    }
  }
}
layer {
  name: "relu1"
  type: "ReLU"
  bottom: "conv1"
  top: "conv1"
}
layer {
  name: "norm1"
  type: "LRN"
  bottom: "conv1"
  top: "norm1"
  lrn_param {
    local_size: 5
    alpha: 0.0001
    beta: 0.75
  }
}
layer {
  name: "pool1"
  type: "Pooling"
  bottom: "norm1"
  top: "pool1"
  pooling_param {
    pool: MAX
    kernel_size: 3
    stride: 2
  }
}
layer {
  name: "conv2"
  type: "Convolution"
  bottom: "pool1"
  top: "conv2"
  param {
    lr_mult: 1
    decay_mult: 1
  }
  param {
    lr_mult: 2
    decay_mult: 0
  }
  convolution_param {
    num_output: 256
    pad: 2
    kernel_size: 5
    group: 2
    weight_filler {
      type: "gaussian"
      std: 0.01
    }
    bias_filler {
      type: "constant"
      value: 0.1
    }
  }
}
layer {
  name: "relu2"
  type: "ReLU"
  bottom: "conv2"
  top: "conv2"
}
layer {
  name: "norm2"
  type: "LRN"
  bottom: "conv2"
  top: "norm2"
  lrn_param {
    local_size: 5
    alpha: 0.0001
    beta: 0.75
  }
}
layer {
  name: "pool2"
  type: "Pooling"
  bottom: "norm2"
  top: "pool2"
  pooling_param {
    pool: MAX
    kernel_size: 3
    stride: 2
  }
}
layer {
  name: "conv3"
  type: "Convolution"
  bottom: "pool2"
  top: "conv3"
  param {
    lr_mult: 1
    decay_mult: 1
  }
  param {
    lr_mult: 2
    decay_mult: 0
  }
  convolution_param {
    num_output: 384
    pad: 1
    kernel_size: 3
    weight_filler {
      type: "gaussian"
      std: 0.01
    }
    bias_filler {
      type: "constant"
      value: 0
    }
  }
}
layer {
  name: "relu3"
  type: "ReLU"
  bottom: "conv3"
  top: "conv3"
}
layer {
  name: "conv4"
  type: "Convolution"
  bottom: "conv3"
  top: "conv4"
  param {
    lr_mult: 1
    decay_mult: 1
  }
  param {
    lr_mult: 2
    decay_mult: 0
  }
  convolution_param {
    num_output: 384
    pad: 1
    kernel_size: 3
    group: 2
    weight_filler {
      type: "gaussian"
      std: 0.01
    }
    bias_filler {
      type: "constant"
      value: 0.1
    }
  }
}
layer {
  name: "relu4"
  type: "ReLU"
  bottom: "conv4"
  top: "conv4"
}
layer {
  name: "conv5"
  type: "Convolution"
  bottom: "conv4"
  top: "conv5"
  param {
    lr_mult: 1
    decay_mult: 1
  }
  param {
    lr_mult: 2
    decay_mult: 0
  }
  convolution_param {
    num_output: 256
    pad: 1
    kernel_size: 3
    group: 2
    weight_filler {
      type: "gaussian"
      std: 0.01
    }
    bias_filler {
      type: "constant"
      value: 0.1
    }
  }
}
layer {
  name: "relu5"
  type: "ReLU"
  bottom: "conv5"
  top: "conv5"
}
layer {
  name: "pool5"
  type: "Pooling"
  bottom: "conv5"
  top: "pool5"
  pooling_param {
    pool: MAX
    kernel_size: 3
    stride: 2
  }
}
layer {
  name: "fc6"
  type: "InnerProduct"
  bottom: "pool5"
  top: "fc6"
  param {
    lr_mult: 1
    decay_mult: 1
  }
  param {
    lr_mult: 2
    decay_mult: 0
  }
  inner_product_param {
    num_output: 4096
    weight_filler {
      type: "gaussian"
      std: 0.005
    }
    bias_filler {
      type: "constant"
      value: 0.1
    }
  }
}
layer {
  name: "relu6"
  type: "ReLU"
  bottom: "fc6"
  top: "fc6"
}
layer {
  name: "drop6"
  type: "Dropout"
  bottom: "fc6"
  top: "fc6"
  dropout_param {
    dropout_ratio: 0.5
  }
}
layer {
  name: "fc7"
  type: "InnerProduct"
  bottom: "fc6"
  top: "fc7"
  param {
    lr_mult: 1
    decay_mult: 1
  }
  param {
    lr_mult: 2
    decay_mult: 0
  }
  inner_product_param {
    num_output: 4096
    weight_filler {
      type: "gaussian"
      std: 0.005
    }
    bias_filler {
      type: "constant"
      value: 0.1
    }
  }
}
layer {
  name: "relu7"
  type: "ReLU"
  bottom: "fc7"
  top: "fc7"
}
layer {
  name: "drop7"
  type: "Dropout"
  bottom: "fc7"
  top: "fc7"
  dropout_param {
    dropout_ratio: 0.5
  }
}
layer {
  name: "fc8"
  type: "InnerProduct"
  bottom: "fc7"
  top: "fc8"
  param {
    lr_mult: 1
    decay_mult: 1
  }
  param {
    lr_mult: 2
    decay_mult: 0
  }
  inner_product_param {
    num_output: 1000
    weight_filler {
      type: "gaussian"
      std: 0.01
    }
    bias_filler {
      type: "constant"
      value: 0
    }
  }
}
layer {
  name: "loss"
  type: "SoftmaxWithLoss"
  bottom: "fc8"
  bottom: "label"
  top: "loss"
}
I0331 13:08:10.191838 260737 layer_factory.hpp:114] Creating layer data
I0331 13:08:10.194367 260737 net.cpp:160] Creating Layer data
I0331 13:08:10.194458 260737 net.cpp:570] data -> data
I0331 13:08:10.194537 260737 net.cpp:570] data -> label
I0331 13:08:10.194602 260737 data_transformer.cpp:62] Loading mean file from: /people/royp368/CN/caffe/caffe/data/ilsvrc12/imagenet_mean.binaryproto
I0331 13:08:10.220572 260738 db_lmdb.cpp:72] Opened lmdb /people/royp368/CN/caffe/caffe/examples/imagenet/ilsvrc12_train_lmdb
I0331 13:08:10.436595 260737 data_layer.cpp:80] output data size: 256,3,227,227
I0331 13:08:10.757694 260737 net.cpp:210] Setting up data
I0331 13:08:10.757915 260737 net.cpp:217] Top shape: 256 3 227 227 (39574272)
I0331 13:08:10.757998 260737 net.cpp:217] Top shape: 256 (256)
I0331 13:08:10.758047 260737 net.cpp:225] Memory required for data: 158298112
I0331 13:08:10.758098 260737 layer_factory.hpp:114] Creating layer conv1
I0331 13:08:10.758195 260737 net.cpp:160] Creating Layer conv1
I0331 13:08:10.758249 260737 net.cpp:596] conv1 <- data
I0331 13:08:10.758308 260737 net.cpp:570] conv1 -> conv1
I0331 13:08:10.877233 260737 net.cpp:210] Setting up conv1
I0331 13:08:10.877363 260737 net.cpp:217] Top shape: 256 96 55 55 (74342400)
I0331 13:08:10.877411 260737 net.cpp:225] Memory required for data: 455667712
I0331 13:08:10.877523 260737 layer_factory.hpp:114] Creating layer relu1
I0331 13:08:10.877619 260737 net.cpp:160] Creating Layer relu1
I0331 13:08:10.877670 260737 net.cpp:596] relu1 <- conv1
I0331 13:08:10.877722 260737 net.cpp:557] relu1 -> conv1 (in-place)
I0331 13:08:10.877863 260737 net.cpp:210] Setting up relu1
I0331 13:08:10.877950 260737 net.cpp:217] Top shape: 256 96 55 55 (74342400)
I0331 13:08:10.878141 260737 net.cpp:225] Memory required for data: 753037312
I0331 13:08:10.878203 260737 layer_factory.hpp:114] Creating layer norm1
I0331 13:08:10.878280 260737 net.cpp:160] Creating Layer norm1
I0331 13:08:10.878322 260737 net.cpp:596] norm1 <- conv1
I0331 13:08:10.878377 260737 net.cpp:570] norm1 -> norm1
I0331 13:08:10.878464 260737 net.cpp:210] Setting up norm1
I0331 13:08:10.878517 260737 net.cpp:217] Top shape: 256 96 55 55 (74342400)
I0331 13:08:10.878552 260737 net.cpp:225] Memory required for data: 1050406912
I0331 13:08:10.878589 260737 layer_factory.hpp:114] Creating layer pool1
I0331 13:08:10.878834 260737 net.cpp:160] Creating Layer pool1
I0331 13:08:10.878919 260737 net.cpp:596] pool1 <- norm1
I0331 13:08:10.878980 260737 net.cpp:570] pool1 -> pool1
I0331 13:08:10.879077 260737 net.cpp:210] Setting up pool1
I0331 13:08:10.879139 260737 net.cpp:217] Top shape: 256 96 27 27 (17915904)
I0331 13:08:10.879173 260737 net.cpp:225] Memory required for data: 1122070528
I0331 13:08:10.879210 260737 layer_factory.hpp:114] Creating layer conv2
I0331 13:08:10.879274 260737 net.cpp:160] Creating Layer conv2
I0331 13:08:10.879312 260737 net.cpp:596] conv2 <- pool1
I0331 13:08:10.879362 260737 net.cpp:570] conv2 -> conv2
I0331 13:08:11.108496 260737 net.cpp:210] Setting up conv2
I0331 13:08:11.108628 260737 net.cpp:217] Top shape: 256 256 27 27 (47775744)
I0331 13:08:11.108711 260737 net.cpp:225] Memory required for data: 1313173504
I0331 13:08:11.108870 260737 layer_factory.hpp:114] Creating layer relu2
I0331 13:08:11.108979 260737 net.cpp:160] Creating Layer relu2
I0331 13:08:11.109046 260737 net.cpp:596] relu2 <- conv2
I0331 13:08:11.109115 260737 net.cpp:557] relu2 -> conv2 (in-place)
I0331 13:08:11.109195 260737 net.cpp:210] Setting up relu2
I0331 13:08:11.109256 260737 net.cpp:217] Top shape: 256 256 27 27 (47775744)
I0331 13:08:11.109292 260737 net.cpp:225] Memory required for data: 1504276480
I0331 13:08:11.109330 260737 layer_factory.hpp:114] Creating layer norm2
I0331 13:08:11.109385 260737 net.cpp:160] Creating Layer norm2
I0331 13:08:11.109424 260737 net.cpp:596] norm2 <- conv2
I0331 13:08:11.109474 260737 net.cpp:570] norm2 -> norm2
I0331 13:08:11.109549 260737 net.cpp:210] Setting up norm2
I0331 13:08:11.109599 260737 net.cpp:217] Top shape: 256 256 27 27 (47775744)
I0331 13:08:11.109632 260737 net.cpp:225] Memory required for data: 1695379456
I0331 13:08:11.109666 260737 layer_factory.hpp:114] Creating layer pool2
I0331 13:08:11.110031 260737 net.cpp:160] Creating Layer pool2
I0331 13:08:11.110129 260737 net.cpp:596] pool2 <- norm2
I0331 13:08:11.110204 260737 net.cpp:570] pool2 -> pool2
I0331 13:08:11.110296 260737 net.cpp:210] Setting up pool2
I0331 13:08:11.110363 260737 net.cpp:217] Top shape: 256 256 13 13 (11075584)
I0331 13:08:11.110404 260737 net.cpp:225] Memory required for data: 1739681792
I0331 13:08:11.110450 260737 layer_factory.hpp:114] Creating layer conv3
I0331 13:08:11.110527 260737 net.cpp:160] Creating Layer conv3
I0331 13:08:11.110576 260737 net.cpp:596] conv3 <- pool2
I0331 13:08:11.110641 260737 net.cpp:570] conv3 -> conv3
I0331 13:08:11.344656 260737 net.cpp:210] Setting up conv3
I0331 13:08:11.344831 260737 net.cpp:217] Top shape: 256 384 13 13 (16613376)
I0331 13:08:11.344900 260737 net.cpp:225] Memory required for data: 1806135296
I0331 13:08:11.344993 260737 layer_factory.hpp:114] Creating layer relu3
I0331 13:08:11.345067 260737 net.cpp:160] Creating Layer relu3
I0331 13:08:11.345118 260737 net.cpp:596] relu3 <- conv3
I0331 13:08:11.345172 260737 net.cpp:557] relu3 -> conv3 (in-place)
I0331 13:08:11.345235 260737 net.cpp:210] Setting up relu3
I0331 13:08:11.345284 260737 net.cpp:217] Top shape: 256 384 13 13 (16613376)
I0331 13:08:11.345319 260737 net.cpp:225] Memory required for data: 1872588800
I0331 13:08:11.345355 260737 layer_factory.hpp:114] Creating layer conv4
I0331 13:08:11.345423 260737 net.cpp:160] Creating Layer conv4
I0331 13:08:11.345464 260737 net.cpp:596] conv4 <- conv3
I0331 13:08:11.345520 260737 net.cpp:570] conv4 -> conv4
I0331 13:08:11.467427 260737 net.cpp:210] Setting up conv4
I0331 13:08:11.467552 260737 net.cpp:217] Top shape: 256 384 13 13 (16613376)
I0331 13:08:11.467598 260737 net.cpp:225] Memory required for data: 1939042304
I0331 13:08:11.467669 260737 layer_factory.hpp:114] Creating layer relu4
I0331 13:08:11.467736 260737 net.cpp:160] Creating Layer relu4
I0331 13:08:11.467835 260737 net.cpp:596] relu4 <- conv4
I0331 13:08:11.467896 260737 net.cpp:557] relu4 -> conv4 (in-place)
I0331 13:08:11.467958 260737 net.cpp:210] Setting up relu4
I0331 13:08:11.468006 260737 net.cpp:217] Top shape: 256 384 13 13 (16613376)
I0331 13:08:11.468039 260737 net.cpp:225] Memory required for data: 2005495808
I0331 13:08:11.468075 260737 layer_factory.hpp:114] Creating layer conv5
I0331 13:08:11.468138 260737 net.cpp:160] Creating Layer conv5
I0331 13:08:11.468176 260737 net.cpp:596] conv5 <- conv4
I0331 13:08:11.468228 260737 net.cpp:570] conv5 -> conv5
I0331 13:08:11.544821 260737 net.cpp:210] Setting up conv5
I0331 13:08:11.544947 260737 net.cpp:217] Top shape: 256 256 13 13 (11075584)
I0331 13:08:11.544999 260737 net.cpp:225] Memory required for data: 2049798144
I0331 13:08:11.545092 260737 layer_factory.hpp:114] Creating layer relu5
I0331 13:08:11.545168 260737 net.cpp:160] Creating Layer relu5
I0331 13:08:11.545217 260737 net.cpp:596] relu5 <- conv5
I0331 13:08:11.545301 260737 net.cpp:557] relu5 -> conv5 (in-place)
I0331 13:08:11.545373 260737 net.cpp:210] Setting up relu5
I0331 13:08:11.545423 260737 net.cpp:217] Top shape: 256 256 13 13 (11075584)
I0331 13:08:11.545457 260737 net.cpp:225] Memory required for data: 2094100480
I0331 13:08:11.545495 260737 layer_factory.hpp:114] Creating layer pool5
I0331 13:08:11.545613 260737 net.cpp:160] Creating Layer pool5
I0331 13:08:11.545662 260737 net.cpp:596] pool5 <- conv5
I0331 13:08:11.545717 260737 net.cpp:570] pool5 -> pool5
I0331 13:08:11.545837 260737 net.cpp:210] Setting up pool5
I0331 13:08:11.545907 260737 net.cpp:217] Top shape: 256 256 6 6 (2359296)
I0331 13:08:11.545940 260737 net.cpp:225] Memory required for data: 2103537664
I0331 13:08:11.545979 260737 layer_factory.hpp:114] Creating layer fc6
I0331 13:08:11.546046 260737 net.cpp:160] Creating Layer fc6
I0331 13:08:11.546084 260737 net.cpp:596] fc6 <- pool5
I0331 13:08:11.546133 260737 net.cpp:570] fc6 -> fc6
I0331 13:08:13.864416 260737 net.cpp:210] Setting up fc6
I0331 13:08:13.864540 260737 net.cpp:217] Top shape: 256 4096 (1048576)
I0331 13:08:13.864579 260737 net.cpp:225] Memory required for data: 2107731968
I0331 13:08:13.864639 260737 layer_factory.hpp:114] Creating layer relu6
I0331 13:08:13.864694 260737 net.cpp:160] Creating Layer relu6
I0331 13:08:13.864732 260737 net.cpp:596] relu6 <- fc6
I0331 13:08:13.864819 260737 net.cpp:557] relu6 -> fc6 (in-place)
I0331 13:08:13.864878 260737 net.cpp:210] Setting up relu6
I0331 13:08:13.864923 260737 net.cpp:217] Top shape: 256 4096 (1048576)
I0331 13:08:13.864953 260737 net.cpp:225] Memory required for data: 2111926272
I0331 13:08:13.864987 260737 layer_factory.hpp:114] Creating layer drop6
I0331 13:08:13.865052 260737 net.cpp:160] Creating Layer drop6
I0331 13:08:13.865088 260737 net.cpp:596] drop6 <- fc6
I0331 13:08:13.865131 260737 net.cpp:557] drop6 -> fc6 (in-place)
I0331 13:08:13.865195 260737 net.cpp:210] Setting up drop6
I0331 13:08:13.865236 260737 net.cpp:217] Top shape: 256 4096 (1048576)
I0331 13:08:13.865267 260737 net.cpp:225] Memory required for data: 2116120576
I0331 13:08:13.865299 260737 layer_factory.hpp:114] Creating layer fc7
I0331 13:08:13.865355 260737 net.cpp:160] Creating Layer fc7
I0331 13:08:13.865387 260737 net.cpp:596] fc7 <- fc6
I0331 13:08:13.865432 260737 net.cpp:570] fc7 -> fc7
I0331 13:08:14.895017 260737 net.cpp:210] Setting up fc7
I0331 13:08:14.895139 260737 net.cpp:217] Top shape: 256 4096 (1048576)
I0331 13:08:14.895179 260737 net.cpp:225] Memory required for data: 2120314880
I0331 13:08:14.895238 260737 layer_factory.hpp:114] Creating layer relu7
I0331 13:08:14.895294 260737 net.cpp:160] Creating Layer relu7
I0331 13:08:14.895458 260737 net.cpp:596] relu7 <- fc7
I0331 13:08:14.895519 260737 net.cpp:557] relu7 -> fc7 (in-place)
I0331 13:08:14.895579 260737 net.cpp:210] Setting up relu7
I0331 13:08:14.895624 260737 net.cpp:217] Top shape: 256 4096 (1048576)
I0331 13:08:14.895655 260737 net.cpp:225] Memory required for data: 2124509184
I0331 13:08:14.895689 260737 layer_factory.hpp:114] Creating layer drop7
I0331 13:08:14.895735 260737 net.cpp:160] Creating Layer drop7
I0331 13:08:14.895813 260737 net.cpp:596] drop7 <- fc7
I0331 13:08:14.895862 260737 net.cpp:557] drop7 -> fc7 (in-place)
I0331 13:08:14.895916 260737 net.cpp:210] Setting up drop7
I0331 13:08:14.895958 260737 net.cpp:217] Top shape: 256 4096 (1048576)
I0331 13:08:14.895988 260737 net.cpp:225] Memory required for data: 2128703488
I0331 13:08:14.896023 260737 layer_factory.hpp:114] Creating layer fc8
I0331 13:08:14.896078 260737 net.cpp:160] Creating Layer fc8
I0331 13:08:14.896112 260737 net.cpp:596] fc8 <- fc7
I0331 13:08:14.896157 260737 net.cpp:570] fc8 -> fc8
I0331 13:08:15.147910 260737 net.cpp:210] Setting up fc8
I0331 13:08:15.148027 260737 net.cpp:217] Top shape: 256 1000 (256000)
I0331 13:08:15.148061 260737 net.cpp:225] Memory required for data: 2129727488
I0331 13:08:15.148121 260737 layer_factory.hpp:114] Creating layer loss
I0331 13:08:15.148195 260737 net.cpp:160] Creating Layer loss
I0331 13:08:15.148260 260737 net.cpp:596] loss <- fc8
I0331 13:08:15.148303 260737 net.cpp:596] loss <- label
I0331 13:08:15.148349 260737 net.cpp:570] loss -> loss
I0331 13:08:15.148425 260737 layer_factory.hpp:114] Creating layer loss
…
I0331 13:08:15.179913 260737 net.cpp:484] The NetState phase (1) differed from the phase (0) specified by a rule in layer data
I0331 13:08:15.183751 260737 net.cpp:120] Initializing net from parameters: 
name: "AlexNet"
state {
  phase: TEST
}
layer {
  name: "data"
  type: "Data"
  top: "data"
  top: "label"
  include {
    phase: TEST
  }
  transform_param {
    mirror: false
    crop_size: 227
    mean_file: "/people/royp368/CN/caffe/caffe/data/ilsvrc12/imagenet_mean.binaryproto"
  }
  data_param {
    source: "/people/royp368/CN/caffe/caffe/examples/imagenet/ilsvrc12_val_lmdb"
    batch_size: 50
    backend: LMDB
  }
}
layer {
  name: "label_data_1_split"
  type: "Split"
  bottom: "label"
  top: "label_data_1_split_0"
  top: "label_data_1_split_1"
}
layer {
  name: "conv1"
  type: "Convolution"
  bottom: "data"
  top: "conv1"
  param {
    lr_mult: 1
    decay_mult: 1
  }
  param {
    lr_mult: 2
    decay_mult: 0
  }
  convolution_param {
    num_output: 96
    kernel_size: 11
    stride: 4
    weight_filler {
      type: "gaussian"
      std: 0.01
    }
    bias_filler {
      type: "constant"
      value: 0
    }
  }
}
layer {
  name: "relu1"
  type: "ReLU"
  bottom: "conv1"
  top: "conv1"
}
layer {
  name: "norm1"
  type: "LRN"
  bottom: "conv1"
  top: "norm1"
  lrn_param {
    local_size: 5
    alpha: 0.0001
    beta: 0.75
  }
}
layer {
  name: "pool1"
  type: "Pooling"
  bottom: "norm1"
  top: "pool1"
  pooling_param {
    pool: MAX
    kernel_size: 3
    stride: 2
  }
}
layer {
  name: "conv2"
  type: "Convolution"
  bottom: "pool1"
  top: "conv2"
  param {
    lr_mult: 1
    decay_mult: 1
  }
  param {
    lr_mult: 2
    decay_mult: 0
  }
  convolution_param {
    num_output: 256
    pad: 2
    kernel_size: 5
    group: 2
    weight_filler {
      type: "gaussian"
      std: 0.01
    }
    bias_filler {
      type: "constant"
      value: 0.1
    }
  }
}
layer {
  name: "relu2"
  type: "ReLU"
  bottom: "conv2"
  top: "conv2"
}
layer {
  name: "norm2"
  type: "LRN"
  bottom: "conv2"
  top: "norm2"
  lrn_param {
    local_size: 5
    alpha: 0.0001
    beta: 0.75
  }
}
layer {
  name: "pool2"
  type: "Pooling"
  bottom: "norm2"
  top: "pool2"
  pooling_param {
    pool: MAX
    kernel_size: 3
    stride: 2
  }
}
layer {
  name: "conv3"
  type: "Convolution"
  bottom: "pool2"
  top: "conv3"
  param {
    lr_mult: 1
    decay_mult: 1
  }
  param {
    lr_mult: 2
    decay_mult: 0
  }
  convolution_param {
    num_output: 384
    pad: 1
    kernel_size: 3
    weight_filler {
      type: "gaussian"
      std: 0.01
    }
    bias_filler {
      type: "constant"
      value: 0
    }
  }
}
layer {
  name: "relu3"
  type: "ReLU"
  bottom: "conv3"
  top: "conv3"
}
layer {
  name: "conv4"
  type: "Convolution"
  bottom: "conv3"
  top: "conv4"
  param {
    lr_mult: 1
    decay_mult: 1
  }
  param {
    lr_mult: 2
    decay_mult: 0
  }
  convolution_param {
    num_output: 384
    pad: 1
    kernel_size: 3
    group: 2
    weight_filler {
      type: "gaussian"
      std: 0.01
    }
    bias_filler {
      type: "constant"
      value: 0.1
    }
  }
}
layer {
  name: "relu4"
  type: "ReLU"
  bottom: "conv4"
  top: "conv4"
}
layer {
  name: "conv5"
  type: "Convolution"
  bottom: "conv4"
  top: "conv5"
  param {
    lr_mult: 1
    decay_mult: 1
  }
  param {
    lr_mult: 2
    decay_mult: 0
  }
  convolution_param {
    num_output: 256
    pad: 1
    kernel_size: 3
    group: 2
    weight_filler {
      type: "gaussian"
      std: 0.01
    }
    bias_filler {
      type: "constant"
      value: 0.1
    }
  }
}
layer {
  name: "relu5"
  type: "ReLU"
  bottom: "conv5"
  top: "conv5"
}
layer {
  name: "pool5"
  type: "Pooling"
  bottom: "conv5"
  top: "pool5"
  pooling_param {
    pool: MAX
    kernel_size: 3
    stride: 2
  }
}
layer {
  name: "fc6"
  type: "InnerProduct"
  bottom: "pool5"
  top: "fc6"
  param {
    lr_mult: 1
    decay_mult: 1
  }
  param {
    lr_mult: 2
    decay_mult: 0
  }
  inner_product_param {
    num_output: 4096
    weight_filler {
      type: "gaussian"
      std: 0.005
    }
    bias_filler {
      type: "constant"
      value: 0.1
    }
  }
}
layer {
  name: "relu6"
  type: "ReLU"
  bottom: "fc6"
  top: "fc6"
}
layer {
  name: "drop6"
  type: "Dropout"
  bottom: "fc6"
  top: "fc6"
  dropout_param {
    dropout_ratio: 0.5
  }
}
layer {
  name: "fc7"
  type: "InnerProduct"
  bottom: "fc6"
  top: "fc7"
  param {
    lr_mult: 1
    decay_mult: 1
  }
  param {
    lr_mult: 2
    decay_mult: 0
  }
  inner_product_param {
    num_output: 4096
    weight_filler {
      type: "gaussian"
      std: 0.005
    }
    bias_filler {
      type: "constant"
      value: 0.1
    }
  }
}
layer {
  name: "relu7"
  type: "ReLU"
  bottom: "fc7"
  top: "fc7"
}
layer {
  name: "drop7"
  type: "Dropout"
  bottom: "fc7"
  top: "fc7"
  dropout_param {
    dropout_ratio: 0.5
  }
}
layer {
  name: "fc8"
  type: "InnerProduct"
  bottom: "fc7"
  top: "fc8"
  param {
    lr_mult: 1
    decay_mult: 1
  }
  param {
    lr_mult: 2
    decay_mult: 0
  }
  inner_product_param {
    num_output: 1000
    weight_filler {
      type: "gaussian"
      std: 0.01
    }
    bias_filler {
      type: "constant"
      value: 0
    }
  }
}
layer {
  name: "fc8_fc8_0_split"
  type: "Split"
  bottom: "fc8"
  top: "fc8_fc8_0_split_0"
  top: "fc8_fc8_0_split_1"
}
layer {
  name: "accuracy"
  type: "Accuracy"
  bottom: "fc8_fc8_0_split_0"
  bottom: "label_data_1_split_0"
  top: "accuracy"
  include {
    phase: TEST
  }
}
layer {
  name: "loss"
  type: "SoftmaxWithLoss"
  bottom: "fc8_fc8_0_split_1"
  bottom: "label_data_1_split_1"
  top: "loss"
}
I0331 13:08:15.183970 260737 layer_factory.hpp:114] Creating layer data
I0331 13:08:15.184357 260737 net.cpp:160] Creating Layer data
I0331 13:08:15.184422 260737 net.cpp:570] data -> data
I0331 13:08:15.184489 260737 net.cpp:570] data -> label
I0331 13:08:15.184546 260737 data_transformer.cpp:62] Loading mean file from: /people/royp368/CN/caffe/caffe/data/ilsvrc12/imagenet_mean.binaryproto
I0331 13:08:15.205162 260771 db_lmdb.cpp:72] Opened lmdb /people/royp368/CN/caffe/caffe/examples/imagenet/ilsvrc12_val_lmdb
I0331 13:08:15.219070 260737 data_layer.cpp:80] output data size: 50,3,227,227
I0331 13:08:15.278161 260737 net.cpp:210] Setting up data
I0331 13:08:15.278288 260737 net.cpp:217] Top shape: 50 3 227 227 (7729350)
I0331 13:08:15.278347 260737 net.cpp:217] Top shape: 50 (50)
I0331 13:08:15.278388 260737 net.cpp:225] Memory required for data: 30917600
I0331 13:08:15.278434 260737 layer_factory.hpp:114] Creating layer label_data_1_split
I0331 13:08:15.278497 260737 net.cpp:160] Creating Layer label_data_1_split
I0331 13:08:15.278542 260737 net.cpp:596] label_data_1_split <- label
I0331 13:08:15.278638 260737 net.cpp:570] label_data_1_split -> label_data_1_split_0
I0331 13:08:15.278717 260737 net.cpp:570] label_data_1_split -> label_data_1_split_1
I0331 13:08:15.278831 260737 net.cpp:210] Setting up label_data_1_split
I0331 13:08:15.278895 260737 net.cpp:217] Top shape: 50 (50)
I0331 13:08:15.278937 260737 net.cpp:217] Top shape: 50 (50)
I0331 13:08:15.278970 260737 net.cpp:225] Memory required for data: 30918000
I0331 13:08:15.279007 260737 layer_factory.hpp:114] Creating layer conv1
I0331 13:08:15.279079 260737 net.cpp:160] Creating Layer conv1
I0331 13:08:15.279119 260737 net.cpp:596] conv1 <- data
I0331 13:08:15.279168 260737 net.cpp:570] conv1 -> conv1
I0331 13:08:15.378753 260737 net.cpp:210] Setting up conv1
I0331 13:08:15.391979 260737 net.cpp:217] Top shape: 50 96 55 55 (14520000)
I0331 13:08:15.392047 260737 net.cpp:225] Memory required for data: 88998000
I0331 13:08:15.392149 260737 layer_factory.hpp:114] Creating layer relu1
I0331 13:08:15.392370 260737 net.cpp:160] Creating Layer relu1
I0331 13:08:15.392438 260737 net.cpp:596] relu1 <- conv1
I0331 13:08:15.392495 260737 net.cpp:557] relu1 -> conv1 (in-place)
I0331 13:08:15.392561 260737 net.cpp:210] Setting up relu1
I0331 13:08:15.392616 260737 net.cpp:217] Top shape: 50 96 55 55 (14520000)
I0331 13:08:15.392649 260737 net.cpp:225] Memory required for data: 147078000
I0331 13:08:15.392688 260737 layer_factory.hpp:114] Creating layer norm1
I0331 13:08:15.392743 260737 net.cpp:160] Creating Layer norm1
I0331 13:08:15.392845 260737 net.cpp:596] norm1 <- conv1
I0331 13:08:15.392909 260737 net.cpp:570] norm1 -> norm1
I0331 13:08:15.392988 260737 net.cpp:210] Setting up norm1
I0331 13:08:15.393043 260737 net.cpp:217] Top shape: 50 96 55 55 (14520000)
I0331 13:08:15.393075 260737 net.cpp:225] Memory required for data: 205158000
I0331 13:08:15.393112 260737 layer_factory.hpp:114] Creating layer pool1
I0331 13:08:15.393230 260737 net.cpp:160] Creating Layer pool1
I0331 13:08:15.393283 260737 net.cpp:596] pool1 <- norm1
I0331 13:08:15.393334 260737 net.cpp:570] pool1 -> pool1
I0331 13:08:15.393401 260737 net.cpp:210] Setting up pool1
I0331 13:08:15.393450 260737 net.cpp:217] Top shape: 50 96 27 27 (3499200)
I0331 13:08:15.393482 260737 net.cpp:225] Memory required for data: 219154800
I0331 13:08:15.393517 260737 layer_factory.hpp:114] Creating layer conv2
I0331 13:08:15.393581 260737 net.cpp:160] Creating Layer conv2
I0331 13:08:15.393616 260737 net.cpp:596] conv2 <- pool1
I0331 13:08:15.393663 260737 net.cpp:570] conv2 -> conv2
I0331 13:08:15.520858 260737 net.cpp:210] Setting up conv2
I0331 13:08:15.520990 260737 net.cpp:217] Top shape: 50 256 27 27 (9331200)
I0331 13:08:15.521044 260737 net.cpp:225] Memory required for data: 256479600
I0331 13:08:15.521137 260737 layer_factory.hpp:114] Creating layer relu2
I0331 13:08:15.521211 260737 net.cpp:160] Creating Layer relu2
I0331 13:08:15.521260 260737 net.cpp:596] relu2 <- conv2
I0331 13:08:15.521311 260737 net.cpp:557] relu2 -> conv2 (in-place)
I0331 13:08:15.521374 260737 net.cpp:210] Setting up relu2
I0331 13:08:15.521425 260737 net.cpp:217] Top shape: 50 256 27 27 (9331200)
I0331 13:08:15.521461 260737 net.cpp:225] Memory required for data: 293804400
I0331 13:08:15.521500 260737 layer_factory.hpp:114] Creating layer norm2
I0331 13:08:15.521558 260737 net.cpp:160] Creating Layer norm2
I0331 13:08:15.521596 260737 net.cpp:596] norm2 <- conv2
I0331 13:08:15.521646 260737 net.cpp:570] norm2 -> norm2
I0331 13:08:15.521725 260737 net.cpp:210] Setting up norm2
I0331 13:08:15.521827 260737 net.cpp:217] Top shape: 50 256 27 27 (9331200)
I0331 13:08:15.521868 260737 net.cpp:225] Memory required for data: 331129200
I0331 13:08:15.521908 260737 layer_factory.hpp:114] Creating layer pool2
I0331 13:08:15.522032 260737 net.cpp:160] Creating Layer pool2
I0331 13:08:15.522081 260737 net.cpp:596] pool2 <- norm2
I0331 13:08:15.522133 260737 net.cpp:570] pool2 -> pool2
I0331 13:08:15.522205 260737 net.cpp:210] Setting up pool2
I0331 13:08:15.522256 260737 net.cpp:217] Top shape: 50 256 13 13 (2163200)
I0331 13:08:15.522316 260737 net.cpp:225] Memory required for data: 339782000
I0331 13:08:15.522356 260737 layer_factory.hpp:114] Creating layer conv3
I0331 13:08:15.522419 260737 net.cpp:160] Creating Layer conv3
I0331 13:08:15.522456 260737 net.cpp:596] conv3 <- pool2
I0331 13:08:15.522506 260737 net.cpp:570] conv3 -> conv3
I0331 13:08:15.635948 260737 net.cpp:210] Setting up conv3
I0331 13:08:15.636075 260737 net.cpp:217] Top shape: 50 384 13 13 (3244800)
I0331 13:08:15.636121 260737 net.cpp:225] Memory required for data: 352761200
I0331 13:08:15.636209 260737 layer_factory.hpp:114] Creating layer relu3
I0331 13:08:15.636278 260737 net.cpp:160] Creating Layer relu3
I0331 13:08:15.636325 260737 net.cpp:596] relu3 <- conv3
I0331 13:08:15.636379 260737 net.cpp:557] relu3 -> conv3 (in-place)
I0331 13:08:15.636442 260737 net.cpp:210] Setting up relu3
I0331 13:08:15.636492 260737 net.cpp:217] Top shape: 50 384 13 13 (3244800)
I0331 13:08:15.636525 260737 net.cpp:225] Memory required for data: 365740400
I0331 13:08:15.636698 260737 layer_factory.hpp:114] Creating layer conv4
I0331 13:08:15.636831 260737 net.cpp:160] Creating Layer conv4
I0331 13:08:15.636884 260737 net.cpp:596] conv4 <- conv3
I0331 13:08:15.636945 260737 net.cpp:570] conv4 -> conv4
I0331 13:08:15.736158 260737 net.cpp:210] Setting up conv4
I0331 13:08:15.736286 260737 net.cpp:217] Top shape: 50 384 13 13 (3244800)
I0331 13:08:15.736335 260737 net.cpp:225] Memory required for data: 378719600
I0331 13:08:15.736407 260737 layer_factory.hpp:114] Creating layer relu4
I0331 13:08:15.736474 260737 net.cpp:160] Creating Layer relu4
I0331 13:08:15.736515 260737 net.cpp:596] relu4 <- conv4
I0331 13:08:15.736564 260737 net.cpp:557] relu4 -> conv4 (in-place)
I0331 13:08:15.736624 260737 net.cpp:210] Setting up relu4
I0331 13:08:15.736673 260737 net.cpp:217] Top shape: 50 384 13 13 (3244800)
I0331 13:08:15.736706 260737 net.cpp:225] Memory required for data: 391698800
I0331 13:08:15.736742 260737 layer_factory.hpp:114] Creating layer conv5
I0331 13:08:15.736857 260737 net.cpp:160] Creating Layer conv5
I0331 13:08:15.736903 260737 net.cpp:596] conv5 <- conv4
I0331 13:08:15.736958 260737 net.cpp:570] conv5 -> conv5
I0331 13:08:15.812106 260737 net.cpp:210] Setting up conv5
I0331 13:08:15.812242 260737 net.cpp:217] Top shape: 50 256 13 13 (2163200)
I0331 13:08:15.812295 260737 net.cpp:225] Memory required for data: 400351600
I0331 13:08:15.812388 260737 layer_factory.hpp:114] Creating layer relu5
I0331 13:08:15.812471 260737 net.cpp:160] Creating Layer relu5
I0331 13:08:15.812520 260737 net.cpp:596] relu5 <- conv5
I0331 13:08:15.812573 260737 net.cpp:557] relu5 -> conv5 (in-place)
I0331 13:08:15.812636 260737 net.cpp:210] Setting up relu5
I0331 13:08:15.812686 260737 net.cpp:217] Top shape: 50 256 13 13 (2163200)
I0331 13:08:15.812719 260737 net.cpp:225] Memory required for data: 409004400
I0331 13:08:15.812803 260737 layer_factory.hpp:114] Creating layer pool5
I0331 13:08:15.812958 260737 net.cpp:160] Creating Layer pool5
I0331 13:08:15.813020 260737 net.cpp:596] pool5 <- conv5
I0331 13:08:15.813076 260737 net.cpp:570] pool5 -> pool5
I0331 13:08:15.813155 260737 net.cpp:210] Setting up pool5
I0331 13:08:15.813211 260737 net.cpp:217] Top shape: 50 256 6 6 (460800)
I0331 13:08:15.813246 260737 net.cpp:225] Memory required for data: 410847600
I0331 13:08:15.813284 260737 layer_factory.hpp:114] Creating layer fc6
I0331 13:08:15.813345 260737 net.cpp:160] Creating Layer fc6
I0331 13:08:15.813383 260737 net.cpp:596] fc6 <- pool5
I0331 13:08:15.813431 260737 net.cpp:570] fc6 -> fc6
I0331 13:08:18.129863 260737 net.cpp:210] Setting up fc6
I0331 13:08:18.129989 260737 net.cpp:217] Top shape: 50 4096 (204800)
I0331 13:08:18.130025 260737 net.cpp:225] Memory required for data: 411666800
I0331 13:08:18.130087 260737 layer_factory.hpp:114] Creating layer relu6
I0331 13:08:18.130144 260737 net.cpp:160] Creating Layer relu6
I0331 13:08:18.130182 260737 net.cpp:596] relu6 <- fc6
I0331 13:08:18.130228 260737 net.cpp:557] relu6 -> fc6 (in-place)
I0331 13:08:18.130280 260737 net.cpp:210] Setting up relu6
I0331 13:08:18.130350 260737 net.cpp:217] Top shape: 50 4096 (204800)
I0331 13:08:18.130384 260737 net.cpp:225] Memory required for data: 412486000
I0331 13:08:18.130419 260737 layer_factory.hpp:114] Creating layer drop6
I0331 13:08:18.130465 260737 net.cpp:160] Creating Layer drop6
I0331 13:08:18.130501 260737 net.cpp:596] drop6 <- fc6
I0331 13:08:18.130545 260737 net.cpp:557] drop6 -> fc6 (in-place)
I0331 13:08:18.130596 260737 net.cpp:210] Setting up drop6
I0331 13:08:18.130636 260737 net.cpp:217] Top shape: 50 4096 (204800)
I0331 13:08:18.130667 260737 net.cpp:225] Memory required for data: 413305200
I0331 13:08:18.130699 260737 layer_factory.hpp:114] Creating layer fc7
I0331 13:08:18.130789 260737 net.cpp:160] Creating Layer fc7
I0331 13:08:18.130831 260737 net.cpp:596] fc7 <- fc6
I0331 13:08:18.130880 260737 net.cpp:570] fc7 -> fc7
I0331 13:08:19.161541 260737 net.cpp:210] Setting up fc7
I0331 13:08:19.161661 260737 net.cpp:217] Top shape: 50 4096 (204800)
I0331 13:08:19.161866 260737 net.cpp:225] Memory required for data: 414124400
I0331 13:08:19.161944 260737 layer_factory.hpp:114] Creating layer relu7
I0331 13:08:19.162004 260737 net.cpp:160] Creating Layer relu7
I0331 13:08:19.162044 260737 net.cpp:596] relu7 <- fc7
I0331 13:08:19.162091 260737 net.cpp:557] relu7 -> fc7 (in-place)
I0331 13:08:19.162144 260737 net.cpp:210] Setting up relu7
I0331 13:08:19.162185 260737 net.cpp:217] Top shape: 50 4096 (204800)
I0331 13:08:19.162215 260737 net.cpp:225] Memory required for data: 414943600
I0331 13:08:19.162248 260737 layer_factory.hpp:114] Creating layer drop7
I0331 13:08:19.162291 260737 net.cpp:160] Creating Layer drop7
I0331 13:08:19.162323 260737 net.cpp:596] drop7 <- fc7
I0331 13:08:19.162364 260737 net.cpp:557] drop7 -> fc7 (in-place)
I0331 13:08:19.162416 260737 net.cpp:210] Setting up drop7
I0331 13:08:19.162456 260737 net.cpp:217] Top shape: 50 4096 (204800)
I0331 13:08:19.162487 260737 net.cpp:225] Memory required for data: 415762800
I0331 13:08:19.162519 260737 layer_factory.hpp:114] Creating layer fc8
I0331 13:08:19.162572 260737 net.cpp:160] Creating Layer fc8
I0331 13:08:19.162606 260737 net.cpp:596] fc8 <- fc7
I0331 13:08:19.162650 260737 net.cpp:570] fc8 -> fc8
I0331 13:08:19.414340 260737 net.cpp:210] Setting up fc8
I0331 13:08:19.414463 260737 net.cpp:217] Top shape: 50 1000 (50000)
I0331 13:08:19.414499 260737 net.cpp:225] Memory required for data: 415962800
I0331 13:08:19.414559 260737 layer_factory.hpp:114] Creating layer fc8_fc8_0_split
I0331 13:08:19.414613 260737 net.cpp:160] Creating Layer fc8_fc8_0_split
I0331 13:08:19.414651 260737 net.cpp:596] fc8_fc8_0_split <- fc8
I0331 13:08:19.414700 260737 net.cpp:570] fc8_fc8_0_split -> fc8_fc8_0_split_0
I0331 13:08:19.414799 260737 net.cpp:570] fc8_fc8_0_split -> fc8_fc8_0_split_1
I0331 13:08:19.414870 260737 net.cpp:210] Setting up fc8_fc8_0_split
I0331 13:08:19.414914 260737 net.cpp:217] Top shape: 50 1000 (50000)
I0331 13:08:19.414952 260737 net.cpp:217] Top shape: 50 1000 (50000)
I0331 13:08:19.414983 260737 net.cpp:225] Memory required for data: 416362800
I0331 13:08:19.415015 260737 layer_factory.hpp:114] Creating layer accuracy
I0331 13:08:19.415082 260737 net.cpp:160] Creating Layer accuracy
I0331 13:08:19.415117 260737 net.cpp:596] accuracy <- fc8_fc8_0_split_0
I0331 13:08:19.415156 260737 net.cpp:596] accuracy <- label_data_1_split_0
I0331 13:08:19.415204 260737 net.cpp:570] accuracy -> accuracy
…
