…
I0331 18:00:30.417295 132358 net.cpp:484] The NetState phase (0) differed from the phase (1) specified by a rule in layer accuracy
I0331 18:00:30.417829 132358 net.cpp:120] Initializing net from parameters: 
name: "CIFAR10_full"
state {
  phase: TRAIN
  level: 0
  stage: ""
}
layer {
  name: "cifar"
  type: "Data"
  top: "data"
  top: "label"
  include {
    phase: TRAIN
  }
  transform_param {
    mean_file: "examples/cifar10/mean.binaryproto"
  }
  data_param {
    source: "examples/cifar10/cifar10_train_lmdb"
    batch_size: 224
    backend: LMDB
    shuffle: true
  }
}
layer {
  name: "conv1"
  type: "Convolution"
  bottom: "data"
  top: "conv1"
  param {
    lr_mult: 1
  }
  param {
    lr_mult: 2
  }
  convolution_param {
    num_output: 32
    pad: 2
    kernel_size: 5
    stride: 1
    weight_filler {
      type: "gaussian"
      std: 0.0001
    }
    bias_filler {
      type: "constant"
    }
  }
}
layer {
  name: "pool1"
  type: "Pooling"
  bottom: "conv1"
  top: "pool1"
  pooling_param {
    pool: MAX
    kernel_size: 3
    stride: 2
  }
}
layer {
  name: "relu1"
  type: "ReLU"
  bottom: "pool1"
  top: "pool1"
}
layer {
  name: "norm1"
  type: "LRN"
  bottom: "pool1"
  top: "norm1"
  lrn_param {
    local_size: 3
    alpha: 5e-05
    beta: 0.75
    norm_region: WITHIN_CHANNEL
  }
}
layer {
  name: "conv2"
  type: "Convolution"
  bottom: "norm1"
  top: "conv2"
  param {
    lr_mult: 1
  }
  param {
    lr_mult: 2
  }
  convolution_param {
    num_output: 32
    pad: 2
    kernel_size: 5
    stride: 1
    weight_filler {
      type: "gaussian"
      std: 0.01
    }
    bias_filler {
      type: "constant"
    }
  }
}
layer {
  name: "relu2"
  type: "ReLU"
  bottom: "conv2"
  top: "conv2"
}
layer {
  name: "pool2"
  type: "Pooling"
  bottom: "conv2"
  top: "pool2"
  pooling_param {
    pool: AVE
    kernel_size: 3
    stride: 2
  }
}
layer {
  name: "norm2"
  type: "LRN"
  bottom: "pool2"
  top: "norm2"
  lrn_param {
    local_size: 3
    alpha: 5e-05
    beta: 0.75
    norm_region: WITHIN_CHANNEL
  }
}
layer {
  name: "conv3"
  type: "Convolution"
  bottom: "norm2"
  top: "conv3"
  convolution_param {
    num_output: 64
    pad: 2
    kernel_size: 5
    stride: 1
    weight_filler {
      type: "gaussian"
      std: 0.01
    }
    bias_filler {
      type: "constant"
    }
  }
}
layer {
  name: "relu3"
  type: "ReLU"
  bottom: "conv3"
  top: "conv3"
}
layer {
  name: "pool3"
  type: "Pooling"
  bottom: "conv3"
  top: "pool3"
  pooling_param {
    pool: AVE
    kernel_size: 3
    stride: 2
  }
}
layer {
  name: "ip1"
  type: "InnerProduct"
  bottom: "pool3"
  top: "ip1"
  param {
    lr_mult: 1
    decay_mult: 250
  }
  param {
    lr_mult: 2
    decay_mult: 0
  }
  inner_product_param {
    num_output: 10
    weight_filler {
      type: "gaussian"
      std: 0.01
    }
    bias_filler {
      type: "constant"
    }
  }
}
layer {
  name: "loss"
  type: "SoftmaxWithLoss"
  bottom: "ip1"
  bottom: "label"
  top: "loss"
}
I0331 18:00:30.417882 132358 layer_factory.hpp:114] Creating layer cifar
I0331 18:00:30.418776 132358 net.cpp:160] Creating Layer cifar
I0331 18:00:30.418800 132358 net.cpp:570] cifar -> data
I0331 18:00:30.418828 132358 net.cpp:570] cifar -> label
I0331 18:00:30.418848 132358 data_transformer.cpp:62] Loading mean file from: examples/cifar10/mean.binaryproto
I0331 18:00:30.418980 132359 db_lmdb.cpp:72] Opened lmdb examples/cifar10/cifar10_train_lmdb
I0331 18:00:30.422475 132359 data_reader.cpp:177] Shuffling data
I0331 18:00:30.423540 132358 data_layer.cpp:80] output data size: 224,3,32,32
I0331 18:00:30.432880 132358 net.cpp:210] Setting up cifar
I0331 18:00:30.432903 132358 net.cpp:217] Top shape: 224 3 32 32 (688128)
I0331 18:00:30.432909 132358 net.cpp:217] Top shape: 224 (224)
I0331 18:00:30.432912 132358 net.cpp:225] Memory required for data: 2753408
I0331 18:00:30.432919 132358 layer_factory.hpp:114] Creating layer conv1
I0331 18:00:30.432938 132358 net.cpp:160] Creating Layer conv1
I0331 18:00:30.432945 132358 net.cpp:596] conv1 <- data
I0331 18:00:30.432953 132358 net.cpp:570] conv1 -> conv1
I0331 18:00:30.439357 132358 net.cpp:210] Setting up conv1
I0331 18:00:30.439373 132358 net.cpp:217] Top shape: 224 32 32 32 (7340032)
I0331 18:00:30.439376 132358 net.cpp:225] Memory required for data: 32113536
I0331 18:00:30.439395 132358 layer_factory.hpp:114] Creating layer pool1
I0331 18:00:30.439445 132358 net.cpp:160] Creating Layer pool1
I0331 18:00:30.439451 132358 net.cpp:596] pool1 <- conv1
I0331 18:00:30.439460 132358 net.cpp:570] pool1 -> pool1
I0331 18:00:30.439474 132358 net.cpp:210] Setting up pool1
I0331 18:00:30.439481 132358 net.cpp:217] Top shape: 224 32 16 16 (1835008)
I0331 18:00:30.439484 132358 net.cpp:225] Memory required for data: 39453568
I0331 18:00:30.439488 132358 layer_factory.hpp:114] Creating layer relu1
I0331 18:00:30.439497 132358 net.cpp:160] Creating Layer relu1
I0331 18:00:30.439502 132358 net.cpp:596] relu1 <- pool1
I0331 18:00:30.439507 132358 net.cpp:557] relu1 -> pool1 (in-place)
I0331 18:00:30.439514 132358 net.cpp:210] Setting up relu1
I0331 18:00:30.439519 132358 net.cpp:217] Top shape: 224 32 16 16 (1835008)
I0331 18:00:30.439523 132358 net.cpp:225] Memory required for data: 46793600
I0331 18:00:30.439527 132358 layer_factory.hpp:114] Creating layer norm1
I0331 18:00:30.439538 132358 net.cpp:160] Creating Layer norm1
I0331 18:00:30.439541 132358 net.cpp:596] norm1 <- pool1
I0331 18:00:30.439548 132358 net.cpp:570] norm1 -> norm1
I0331 18:00:30.439605 132358 net.cpp:210] Setting up norm1
I0331 18:00:30.439613 132358 net.cpp:217] Top shape: 224 32 16 16 (1835008)
I0331 18:00:30.439617 132358 net.cpp:225] Memory required for data: 54133632
I0331 18:00:30.439621 132358 layer_factory.hpp:114] Creating layer conv2
I0331 18:00:30.439640 132358 net.cpp:160] Creating Layer conv2
I0331 18:00:30.439644 132358 net.cpp:596] conv2 <- norm1
I0331 18:00:30.439651 132358 net.cpp:570] conv2 -> conv2
I0331 18:00:30.457538 132358 net.cpp:210] Setting up conv2
I0331 18:00:30.457584 132358 net.cpp:217] Top shape: 224 32 16 16 (1835008)
I0331 18:00:30.457589 132358 net.cpp:225] Memory required for data: 61473664
I0331 18:00:30.457609 132358 layer_factory.hpp:114] Creating layer relu2
I0331 18:00:30.457630 132358 net.cpp:160] Creating Layer relu2
I0331 18:00:30.457638 132358 net.cpp:596] relu2 <- conv2
I0331 18:00:30.457648 132358 net.cpp:557] relu2 -> conv2 (in-place)
I0331 18:00:30.457660 132358 net.cpp:210] Setting up relu2
I0331 18:00:30.457666 132358 net.cpp:217] Top shape: 224 32 16 16 (1835008)
I0331 18:00:30.457670 132358 net.cpp:225] Memory required for data: 68813696
I0331 18:00:30.457674 132358 layer_factory.hpp:114] Creating layer pool2
I0331 18:00:30.457705 132358 net.cpp:160] Creating Layer pool2
I0331 18:00:30.457710 132358 net.cpp:596] pool2 <- conv2
I0331 18:00:30.457716 132358 net.cpp:570] pool2 -> pool2
I0331 18:00:30.457754 132358 net.cpp:210] Setting up pool2
I0331 18:00:30.457762 132358 net.cpp:217] Top shape: 224 32 8 8 (458752)
I0331 18:00:30.457765 132358 net.cpp:225] Memory required for data: 70648704
I0331 18:00:30.457769 132358 layer_factory.hpp:114] Creating layer norm2
I0331 18:00:30.457782 132358 net.cpp:160] Creating Layer norm2
I0331 18:00:30.457785 132358 net.cpp:596] norm2 <- pool2
I0331 18:00:30.457792 132358 net.cpp:570] norm2 -> norm2
I0331 18:00:30.457833 132358 net.cpp:210] Setting up norm2
I0331 18:00:30.457839 132358 net.cpp:217] Top shape: 224 32 8 8 (458752)
I0331 18:00:30.457844 132358 net.cpp:225] Memory required for data: 72483712
I0331 18:00:30.457847 132358 layer_factory.hpp:114] Creating layer conv3
I0331 18:00:30.457862 132358 net.cpp:160] Creating Layer conv3
I0331 18:00:30.457866 132358 net.cpp:596] conv3 <- norm2
I0331 18:00:30.457873 132358 net.cpp:570] conv3 -> conv3
I0331 18:00:30.467301 132358 net.cpp:210] Setting up conv3
I0331 18:00:30.467322 132358 net.cpp:217] Top shape: 224 64 8 8 (917504)
I0331 18:00:30.467326 132358 net.cpp:225] Memory required for data: 76153728
I0331 18:00:30.467342 132358 layer_factory.hpp:114] Creating layer relu3
I0331 18:00:30.467353 132358 net.cpp:160] Creating Layer relu3
I0331 18:00:30.467358 132358 net.cpp:596] relu3 <- conv3
I0331 18:00:30.467365 132358 net.cpp:557] relu3 -> conv3 (in-place)
I0331 18:00:30.467373 132358 net.cpp:210] Setting up relu3
I0331 18:00:30.467380 132358 net.cpp:217] Top shape: 224 64 8 8 (917504)
I0331 18:00:30.467383 132358 net.cpp:225] Memory required for data: 79823744
I0331 18:00:30.467387 132358 layer_factory.hpp:114] Creating layer pool3
I0331 18:00:30.467408 132358 net.cpp:160] Creating Layer pool3
I0331 18:00:30.467413 132358 net.cpp:596] pool3 <- conv3
I0331 18:00:30.467419 132358 net.cpp:570] pool3 -> pool3
I0331 18:00:30.467428 132358 net.cpp:210] Setting up pool3
I0331 18:00:30.467434 132358 net.cpp:217] Top shape: 224 64 4 4 (229376)
I0331 18:00:30.467438 132358 net.cpp:225] Memory required for data: 80741248
I0331 18:00:30.467442 132358 layer_factory.hpp:114] Creating layer ip1
I0331 18:00:30.467456 132358 net.cpp:160] Creating Layer ip1
I0331 18:00:30.467461 132358 net.cpp:596] ip1 <- pool3
I0331 18:00:30.467469 132358 net.cpp:570] ip1 -> ip1
I0331 18:00:30.467689 132358 net.cpp:210] Setting up ip1
I0331 18:00:30.467700 132358 net.cpp:217] Top shape: 224 10 (2240)
I0331 18:00:30.467705 132358 net.cpp:225] Memory required for data: 80750208
I0331 18:00:30.467712 132358 layer_factory.hpp:114] Creating layer loss
I0331 18:00:30.467723 132358 net.cpp:160] Creating Layer loss
I0331 18:00:30.467728 132358 net.cpp:596] loss <- ip1
I0331 18:00:30.467733 132358 net.cpp:596] loss <- label
I0331 18:00:30.467751 132358 net.cpp:570] loss -> loss
I0331 18:00:30.467769 132358 layer_factory.hpp:114] Creating layer loss
…
I0331 18:00:30.468823 132358 cpu_info.cpp:473] Number of OpenMP threads: 56
I0331 18:00:30.468860 132358 net.cpp:484] The NetState phase (1) differed from the phase (0) specified by a rule in layer cifar
I0331 18:00:30.469374 132358 net.cpp:120] Initializing net from parameters: 
name: "CIFAR10_full"
state {
  phase: TEST
}
layer {
  name: "cifar"
  type: "Data"
  top: "data"
  top: "label"
  include {
    phase: TEST
  }
  transform_param {
    mean_file: "examples/cifar10/mean.binaryproto"
  }
  data_param {
    source: "examples/cifar10/cifar10_test_lmdb"
    batch_size: 100
    backend: LMDB
  }
}
layer {
  name: "label_cifar_1_split"
  type: "Split"
  bottom: "label"
  top: "label_cifar_1_split_0"
  top: "label_cifar_1_split_1"
}
layer {
  name: "conv1"
  type: "Convolution"
  bottom: "data"
  top: "conv1"
  param {
    lr_mult: 1
  }
  param {
    lr_mult: 2
  }
  convolution_param {
    num_output: 32
    pad: 2
    kernel_size: 5
    stride: 1
    weight_filler {
      type: "gaussian"
      std: 0.0001
    }
    bias_filler {
      type: "constant"
    }
  }
}
layer {
  name: "pool1"
  type: "Pooling"
  bottom: "conv1"
  top: "pool1"
  pooling_param {
    pool: MAX
    kernel_size: 3
    stride: 2
  }
}
layer {
  name: "relu1"
  type: "ReLU"
  bottom: "pool1"
  top: "pool1"
}
layer {
  name: "norm1"
  type: "LRN"
  bottom: "pool1"
  top: "norm1"
  lrn_param {
    local_size: 3
    alpha: 5e-05
    beta: 0.75
    norm_region: WITHIN_CHANNEL
  }
}
layer {
  name: "conv2"
  type: "Convolution"
  bottom: "norm1"
  top: "conv2"
  param {
    lr_mult: 1
  }
  param {
    lr_mult: 2
  }
  convolution_param {
    num_output: 32
    pad: 2
    kernel_size: 5
    stride: 1
    weight_filler {
      type: "gaussian"
      std: 0.01
    }
    bias_filler {
      type: "constant"
    }
  }
}
layer {
  name: "relu2"
  type: "ReLU"
  bottom: "conv2"
  top: "conv2"
}
layer {
  name: "pool2"
  type: "Pooling"
  bottom: "conv2"
  top: "pool2"
  pooling_param {
    pool: AVE
    kernel_size: 3
    stride: 2
  }
}
layer {
  name: "norm2"
  type: "LRN"
  bottom: "pool2"
  top: "norm2"
  lrn_param {
    local_size: 3
    alpha: 5e-05
    beta: 0.75
    norm_region: WITHIN_CHANNEL
  }
}
layer {
  name: "conv3"
  type: "Convolution"
  bottom: "norm2"
  top: "conv3"
  convolution_param {
    num_output: 64
    pad: 2
    kernel_size: 5
    stride: 1
    weight_filler {
      type: "gaussian"
      std: 0.01
    }
    bias_filler {
      type: "constant"
    }
  }
}
layer {
  name: "relu3"
  type: "ReLU"
  bottom: "conv3"
  top: "conv3"
}
layer {
  name: "pool3"
  type: "Pooling"
  bottom: "conv3"
  top: "pool3"
  pooling_param {
    pool: AVE
    kernel_size: 3
    stride: 2
  }
}
layer {
  name: "ip1"
  type: "InnerProduct"
  bottom: "pool3"
  top: "ip1"
  param {
    lr_mult: 1
    decay_mult: 250
  }
  param {
    lr_mult: 2
    decay_mult: 0
  }
  inner_product_param {
    num_output: 10
    weight_filler {
      type: "gaussian"
      std: 0.01
    }
    bias_filler {
      type: "constant"
    }
  }
}
layer {
  name: "ip1_ip1_0_split"
  type: "Split"
  bottom: "ip1"
  top: "ip1_ip1_0_split_0"
  top: "ip1_ip1_0_split_1"
}
layer {
  name: "accuracy"
  type: "Accuracy"
  bottom: "ip1_ip1_0_split_0"
  bottom: "label_cifar_1_split_0"
  top: "accuracy"
  include {
    phase: TEST
  }
}
layer {
  name: "loss"
  type: "SoftmaxWithLoss"
  bottom: "ip1_ip1_0_split_1"
  bottom: "label_cifar_1_split_1"
  top: "loss"
}
I0331 18:00:30.469410 132358 layer_factory.hpp:114] Creating layer cifar
I0331 18:00:30.469594 132358 net.cpp:160] Creating Layer cifar
I0331 18:00:30.469609 132358 net.cpp:570] cifar -> data
I0331 18:00:30.469631 132358 net.cpp:570] cifar -> label
I0331 18:00:30.469651 132358 data_transformer.cpp:62] Loading mean file from: examples/cifar10/mean.binaryproto
I0331 18:00:30.469779 132360 db_lmdb.cpp:72] Opened lmdb examples/cifar10/cifar10_test_lmdb
I0331 18:00:30.469846 132358 data_layer.cpp:80] output data size: 100,3,32,32
I0331 18:00:30.474202 132358 net.cpp:210] Setting up cifar
I0331 18:00:30.474217 132358 net.cpp:217] Top shape: 100 3 32 32 (307200)
I0331 18:00:30.474223 132358 net.cpp:217] Top shape: 100 (100)
I0331 18:00:30.474226 132358 net.cpp:225] Memory required for data: 1229200
I0331 18:00:30.474231 132358 layer_factory.hpp:114] Creating layer label_cifar_1_split
I0331 18:00:30.474241 132358 net.cpp:160] Creating Layer label_cifar_1_split
I0331 18:00:30.474246 132358 net.cpp:596] label_cifar_1_split <- label
I0331 18:00:30.474252 132358 net.cpp:570] label_cifar_1_split -> label_cifar_1_split_0
I0331 18:00:30.474261 132358 net.cpp:570] label_cifar_1_split -> label_cifar_1_split_1
I0331 18:00:30.474269 132358 net.cpp:210] Setting up label_cifar_1_split
I0331 18:00:30.474274 132358 net.cpp:217] Top shape: 100 (100)
I0331 18:00:30.474279 132358 net.cpp:217] Top shape: 100 (100)
I0331 18:00:30.474282 132358 net.cpp:225] Memory required for data: 1230000
I0331 18:00:30.474287 132358 layer_factory.hpp:114] Creating layer conv1
I0331 18:00:30.474298 132358 net.cpp:160] Creating Layer conv1
I0331 18:00:30.474301 132358 net.cpp:596] conv1 <- data
I0331 18:00:30.474308 132358 net.cpp:570] conv1 -> conv1
I0331 18:00:30.480805 132358 net.cpp:210] Setting up conv1
I0331 18:00:30.480819 132358 net.cpp:217] Top shape: 100 32 32 32 (3276800)
I0331 18:00:30.480823 132358 net.cpp:225] Memory required for data: 14337200
I0331 18:00:30.480834 132358 layer_factory.hpp:114] Creating layer pool1
I0331 18:00:30.480859 132358 net.cpp:160] Creating Layer pool1
I0331 18:00:30.480865 132358 net.cpp:596] pool1 <- conv1
I0331 18:00:30.480870 132358 net.cpp:570] pool1 -> pool1
I0331 18:00:30.480880 132358 net.cpp:210] Setting up pool1
I0331 18:00:30.480888 132358 net.cpp:217] Top shape: 100 32 16 16 (819200)
I0331 18:00:30.480892 132358 net.cpp:225] Memory required for data: 17614000
I0331 18:00:30.480903 132358 layer_factory.hpp:114] Creating layer relu1
I0331 18:00:30.480911 132358 net.cpp:160] Creating Layer relu1
I0331 18:00:30.480916 132358 net.cpp:596] relu1 <- pool1
I0331 18:00:30.480921 132358 net.cpp:557] relu1 -> pool1 (in-place)
I0331 18:00:30.480926 132358 net.cpp:210] Setting up relu1
I0331 18:00:30.480931 132358 net.cpp:217] Top shape: 100 32 16 16 (819200)
I0331 18:00:30.480934 132358 net.cpp:225] Memory required for data: 20890800
I0331 18:00:30.480937 132358 layer_factory.hpp:114] Creating layer norm1
I0331 18:00:30.480947 132358 net.cpp:160] Creating Layer norm1
I0331 18:00:30.480952 132358 net.cpp:596] norm1 <- pool1
I0331 18:00:30.480957 132358 net.cpp:570] norm1 -> norm1
I0331 18:00:30.480998 132358 net.cpp:210] Setting up norm1
I0331 18:00:30.481004 132358 net.cpp:217] Top shape: 100 32 16 16 (819200)
I0331 18:00:30.481009 132358 net.cpp:225] Memory required for data: 24167600
I0331 18:00:30.481011 132358 layer_factory.hpp:114] Creating layer conv2
I0331 18:00:30.481022 132358 net.cpp:160] Creating Layer conv2
I0331 18:00:30.481026 132358 net.cpp:596] conv2 <- norm1
I0331 18:00:30.481034 132358 net.cpp:570] conv2 -> conv2
I0331 18:00:30.499267 132358 net.cpp:210] Setting up conv2
I0331 18:00:30.499311 132358 net.cpp:217] Top shape: 100 32 16 16 (819200)
I0331 18:00:30.499315 132358 net.cpp:225] Memory required for data: 27444400
I0331 18:00:30.499361 132358 layer_factory.hpp:114] Creating layer relu2
I0331 18:00:30.499375 132358 net.cpp:160] Creating Layer relu2
I0331 18:00:30.499382 132358 net.cpp:596] relu2 <- conv2
I0331 18:00:30.499392 132358 net.cpp:557] relu2 -> conv2 (in-place)
I0331 18:00:30.499403 132358 net.cpp:210] Setting up relu2
I0331 18:00:30.499408 132358 net.cpp:217] Top shape: 100 32 16 16 (819200)
I0331 18:00:30.499413 132358 net.cpp:225] Memory required for data: 30721200
I0331 18:00:30.499416 132358 layer_factory.hpp:114] Creating layer pool2
I0331 18:00:30.499452 132358 net.cpp:160] Creating Layer pool2
I0331 18:00:30.499456 132358 net.cpp:596] pool2 <- conv2
I0331 18:00:30.499464 132358 net.cpp:570] pool2 -> pool2
I0331 18:00:30.499475 132358 net.cpp:210] Setting up pool2
I0331 18:00:30.499482 132358 net.cpp:217] Top shape: 100 32 8 8 (204800)
I0331 18:00:30.499486 132358 net.cpp:225] Memory required for data: 31540400
I0331 18:00:30.499490 132358 layer_factory.hpp:114] Creating layer norm2
I0331 18:00:30.499502 132358 net.cpp:160] Creating Layer norm2
I0331 18:00:30.499505 132358 net.cpp:596] norm2 <- pool2
I0331 18:00:30.499512 132358 net.cpp:570] norm2 -> norm2
I0331 18:00:30.499567 132358 net.cpp:210] Setting up norm2
I0331 18:00:30.499575 132358 net.cpp:217] Top shape: 100 32 8 8 (204800)
I0331 18:00:30.499579 132358 net.cpp:225] Memory required for data: 32359600
I0331 18:00:30.499583 132358 layer_factory.hpp:114] Creating layer conv3
I0331 18:00:30.499595 132358 net.cpp:160] Creating Layer conv3
I0331 18:00:30.499599 132358 net.cpp:596] conv3 <- norm2
I0331 18:00:30.499611 132358 net.cpp:570] conv3 -> conv3
I0331 18:00:30.508936 132358 net.cpp:210] Setting up conv3
I0331 18:00:30.508958 132358 net.cpp:217] Top shape: 100 64 8 8 (409600)
I0331 18:00:30.508962 132358 net.cpp:225] Memory required for data: 33998000
I0331 18:00:30.508980 132358 layer_factory.hpp:114] Creating layer relu3
I0331 18:00:30.508990 132358 net.cpp:160] Creating Layer relu3
I0331 18:00:30.508994 132358 net.cpp:596] relu3 <- conv3
I0331 18:00:30.509003 132358 net.cpp:557] relu3 -> conv3 (in-place)
I0331 18:00:30.509011 132358 net.cpp:210] Setting up relu3
I0331 18:00:30.509016 132358 net.cpp:217] Top shape: 100 64 8 8 (409600)
I0331 18:00:30.509019 132358 net.cpp:225] Memory required for data: 35636400
I0331 18:00:30.509023 132358 layer_factory.hpp:114] Creating layer pool3
I0331 18:00:30.509047 132358 net.cpp:160] Creating Layer pool3
I0331 18:00:30.509052 132358 net.cpp:596] pool3 <- conv3
I0331 18:00:30.509057 132358 net.cpp:570] pool3 -> pool3
I0331 18:00:30.509066 132358 net.cpp:210] Setting up pool3
I0331 18:00:30.509071 132358 net.cpp:217] Top shape: 100 64 4 4 (102400)
I0331 18:00:30.509088 132358 net.cpp:225] Memory required for data: 36046000
I0331 18:00:30.509093 132358 layer_factory.hpp:114] Creating layer ip1
I0331 18:00:30.509109 132358 net.cpp:160] Creating Layer ip1
I0331 18:00:30.509112 132358 net.cpp:596] ip1 <- pool3
I0331 18:00:30.509119 132358 net.cpp:570] ip1 -> ip1
I0331 18:00:30.509330 132358 net.cpp:210] Setting up ip1
I0331 18:00:30.509335 132358 net.cpp:217] Top shape: 100 10 (1000)
I0331 18:00:30.509340 132358 net.cpp:225] Memory required for data: 36050000
I0331 18:00:30.509346 132358 layer_factory.hpp:114] Creating layer ip1_ip1_0_split
I0331 18:00:30.509356 132358 net.cpp:160] Creating Layer ip1_ip1_0_split
I0331 18:00:30.509359 132358 net.cpp:596] ip1_ip1_0_split <- ip1
I0331 18:00:30.509367 132358 net.cpp:570] ip1_ip1_0_split -> ip1_ip1_0_split_0
I0331 18:00:30.509374 132358 net.cpp:570] ip1_ip1_0_split -> ip1_ip1_0_split_1
I0331 18:00:30.509382 132358 net.cpp:210] Setting up ip1_ip1_0_split
I0331 18:00:30.509387 132358 net.cpp:217] Top shape: 100 10 (1000)
I0331 18:00:30.509392 132358 net.cpp:217] Top shape: 100 10 (1000)
I0331 18:00:30.509395 132358 net.cpp:225] Memory required for data: 36058000
I0331 18:00:30.509399 132358 layer_factory.hpp:114] Creating layer accuracy
I0331 18:00:30.509413 132358 net.cpp:160] Creating Layer accuracy
I0331 18:00:30.509418 132358 net.cpp:596] accuracy <- ip1_ip1_0_split_0
I0331 18:00:30.509435 132358 net.cpp:596] accuracy <- label_cifar_1_split_0
I0331 18:00:30.509443 132358 net.cpp:570] accuracy -> accuracy
…
