…
I0331 18:01:22.076200 132447 net.cpp:484] The NetState phase (0) differed from the phase (1) specified by a rule in layer accuracy
I0331 18:01:22.076596 132447 net.cpp:120] Initializing net from parameters: 
name: "CIFAR10_full"
state {
  phase: TRAIN
  level: 0
  stage: ""
}
layer {
  name: "cifar"
  type: "Data"
  top: "data"
  top: "label"
  include {
    phase: TRAIN
  }
  transform_param {
    mean_file: "examples/cifar10/mean.binaryproto"
  }
  data_param {
    source: "examples/cifar10/cifar10_train_lmdb"
    batch_size: 224
    backend: LMDB
    shuffle: true
  }
}
layer {
  name: "conv1"
  type: "Convolution"
  bottom: "data"
  top: "conv1"
  param {
    lr_mult: 1
  }
  param {
    lr_mult: 2
  }
  convolution_param {
    num_output: 32
    pad: 2
    kernel_size: 5
    stride: 1
    weight_filler {
      type: "gaussian"
      std: 0.0001
    }
    bias_filler {
      type: "constant"
    }
  }
}
layer {
  name: "pool1"
  type: "Pooling"
  bottom: "conv1"
  top: "pool1"
  pooling_param {
    pool: MAX
    kernel_size: 3
    stride: 2
  }
}
layer {
  name: "relu1"
  type: "ReLU"
  bottom: "pool1"
  top: "pool1"
}
layer {
  name: "norm1"
  type: "LRN"
  bottom: "pool1"
  top: "norm1"
  lrn_param {
    local_size: 3
    alpha: 5e-05
    beta: 0.75
    norm_region: WITHIN_CHANNEL
  }
}
layer {
  name: "conv2"
  type: "Convolution"
  bottom: "norm1"
  top: "conv2"
  param {
    lr_mult: 1
  }
  param {
    lr_mult: 2
  }
  convolution_param {
    num_output: 32
    pad: 2
    kernel_size: 5
    stride: 1
    weight_filler {
      type: "gaussian"
      std: 0.01
    }
    bias_filler {
      type: "constant"
    }
  }
}
layer {
  name: "relu2"
  type: "ReLU"
  bottom: "conv2"
  top: "conv2"
}
layer {
  name: "pool2"
  type: "Pooling"
  bottom: "conv2"
  top: "pool2"
  pooling_param {
    pool: AVE
    kernel_size: 3
    stride: 2
  }
}
layer {
  name: "norm2"
  type: "LRN"
  bottom: "pool2"
  top: "norm2"
  lrn_param {
    local_size: 3
    alpha: 5e-05
    beta: 0.75
    norm_region: WITHIN_CHANNEL
  }
}
layer {
  name: "conv3"
  type: "Convolution"
  bottom: "norm2"
  top: "conv3"
  convolution_param {
    num_output: 64
    pad: 2
    kernel_size: 5
    stride: 1
    weight_filler {
      type: "gaussian"
      std: 0.01
    }
    bias_filler {
      type: "constant"
    }
  }
}
layer {
  name: "relu3"
  type: "ReLU"
  bottom: "conv3"
  top: "conv3"
}
layer {
  name: "pool3"
  type: "Pooling"
  bottom: "conv3"
  top: "pool3"
  pooling_param {
    pool: AVE
    kernel_size: 3
    stride: 2
  }
}
layer {
  name: "ip1"
  type: "InnerProduct"
  bottom: "pool3"
  top: "ip1"
  param {
    lr_mult: 1
    decay_mult: 250
  }
  param {
    lr_mult: 2
    decay_mult: 0
  }
  inner_product_param {
    num_output: 10
    weight_filler {
      type: "gaussian"
      std: 0.01
    }
    bias_filler {
      type: "constant"
    }
  }
}
layer {
  name: "loss"
  type: "SoftmaxWithLoss"
  bottom: "ip1"
  bottom: "label"
  top: "loss"
}
I0331 18:01:22.076640 132447 layer_factory.hpp:114] Creating layer cifar
I0331 18:01:22.077383 132447 net.cpp:160] Creating Layer cifar
I0331 18:01:22.077402 132447 net.cpp:570] cifar -> data
I0331 18:01:22.077427 132447 net.cpp:570] cifar -> label
I0331 18:01:22.077448 132447 data_transformer.cpp:62] Loading mean file from: examples/cifar10/mean.binaryproto
I0331 18:01:22.077580 132448 db_lmdb.cpp:72] Opened lmdb examples/cifar10/cifar10_train_lmdb
I0331 18:01:22.081147 132448 data_reader.cpp:177] Shuffling data
I0331 18:01:22.082211 132447 data_layer.cpp:80] output data size: 224,3,32,32
I0331 18:01:22.091704 132447 net.cpp:210] Setting up cifar
I0331 18:01:22.091724 132447 net.cpp:217] Top shape: 224 3 32 32 (688128)
I0331 18:01:22.091732 132447 net.cpp:217] Top shape: 224 (224)
I0331 18:01:22.091734 132447 net.cpp:225] Memory required for data: 2753408
I0331 18:01:22.091740 132447 layer_factory.hpp:114] Creating layer conv1
I0331 18:01:22.091758 132447 net.cpp:160] Creating Layer conv1
I0331 18:01:22.091769 132447 net.cpp:596] conv1 <- data
I0331 18:01:22.091778 132447 net.cpp:570] conv1 -> conv1
I0331 18:01:22.093878 132447 net.cpp:210] Setting up conv1
I0331 18:01:22.093890 132447 net.cpp:217] Top shape: 224 32 32 32 (7340032)
I0331 18:01:22.093894 132447 net.cpp:225] Memory required for data: 32113536
I0331 18:01:22.093910 132447 layer_factory.hpp:114] Creating layer pool1
I0331 18:01:22.093947 132447 net.cpp:160] Creating Layer pool1
I0331 18:01:22.093952 132447 net.cpp:596] pool1 <- conv1
I0331 18:01:22.093958 132447 net.cpp:570] pool1 -> pool1
I0331 18:01:22.093972 132447 net.cpp:210] Setting up pool1
I0331 18:01:22.093978 132447 net.cpp:217] Top shape: 224 32 16 16 (1835008)
I0331 18:01:22.093981 132447 net.cpp:225] Memory required for data: 39453568
I0331 18:01:22.093986 132447 layer_factory.hpp:114] Creating layer relu1
I0331 18:01:22.093992 132447 net.cpp:160] Creating Layer relu1
I0331 18:01:22.093997 132447 net.cpp:596] relu1 <- pool1
I0331 18:01:22.094002 132447 net.cpp:557] relu1 -> pool1 (in-place)
I0331 18:01:22.094009 132447 net.cpp:210] Setting up relu1
I0331 18:01:22.094014 132447 net.cpp:217] Top shape: 224 32 16 16 (1835008)
I0331 18:01:22.094018 132447 net.cpp:225] Memory required for data: 46793600
I0331 18:01:22.094022 132447 layer_factory.hpp:114] Creating layer norm1
I0331 18:01:22.094030 132447 net.cpp:160] Creating Layer norm1
I0331 18:01:22.094034 132447 net.cpp:596] norm1 <- pool1
I0331 18:01:22.094039 132447 net.cpp:570] norm1 -> norm1
I0331 18:01:22.094077 132447 net.cpp:210] Setting up norm1
I0331 18:01:22.094085 132447 net.cpp:217] Top shape: 224 32 16 16 (1835008)
I0331 18:01:22.094089 132447 net.cpp:225] Memory required for data: 54133632
I0331 18:01:22.094094 132447 layer_factory.hpp:114] Creating layer conv2
I0331 18:01:22.094101 132447 net.cpp:160] Creating Layer conv2
I0331 18:01:22.094105 132447 net.cpp:596] conv2 <- norm1
I0331 18:01:22.094111 132447 net.cpp:570] conv2 -> conv2
I0331 18:01:22.099287 132447 net.cpp:210] Setting up conv2
I0331 18:01:22.099299 132447 net.cpp:217] Top shape: 224 32 16 16 (1835008)
I0331 18:01:22.099303 132447 net.cpp:225] Memory required for data: 61473664
I0331 18:01:22.099314 132447 layer_factory.hpp:114] Creating layer relu2
I0331 18:01:22.099323 132447 net.cpp:160] Creating Layer relu2
I0331 18:01:22.099326 132447 net.cpp:596] relu2 <- conv2
I0331 18:01:22.099334 132447 net.cpp:557] relu2 -> conv2 (in-place)
I0331 18:01:22.099340 132447 net.cpp:210] Setting up relu2
I0331 18:01:22.099346 132447 net.cpp:217] Top shape: 224 32 16 16 (1835008)
I0331 18:01:22.099349 132447 net.cpp:225] Memory required for data: 68813696
I0331 18:01:22.099354 132447 layer_factory.hpp:114] Creating layer pool2
I0331 18:01:22.099371 132447 net.cpp:160] Creating Layer pool2
I0331 18:01:22.099376 132447 net.cpp:596] pool2 <- conv2
I0331 18:01:22.099382 132447 net.cpp:570] pool2 -> pool2
I0331 18:01:22.099402 132447 net.cpp:210] Setting up pool2
I0331 18:01:22.099409 132447 net.cpp:217] Top shape: 224 32 8 8 (458752)
I0331 18:01:22.099412 132447 net.cpp:225] Memory required for data: 70648704
I0331 18:01:22.099416 132447 layer_factory.hpp:114] Creating layer norm2
I0331 18:01:22.099426 132447 net.cpp:160] Creating Layer norm2
I0331 18:01:22.099429 132447 net.cpp:596] norm2 <- pool2
I0331 18:01:22.099436 132447 net.cpp:570] norm2 -> norm2
I0331 18:01:22.099464 132447 net.cpp:210] Setting up norm2
I0331 18:01:22.099472 132447 net.cpp:217] Top shape: 224 32 8 8 (458752)
I0331 18:01:22.099475 132447 net.cpp:225] Memory required for data: 72483712
I0331 18:01:22.099479 132447 layer_factory.hpp:114] Creating layer conv3
I0331 18:01:22.099488 132447 net.cpp:160] Creating Layer conv3
I0331 18:01:22.099493 132447 net.cpp:596] conv3 <- norm2
I0331 18:01:22.099498 132447 net.cpp:570] conv3 -> conv3
I0331 18:01:22.103838 132447 net.cpp:210] Setting up conv3
I0331 18:01:22.103850 132447 net.cpp:217] Top shape: 224 64 8 8 (917504)
I0331 18:01:22.103854 132447 net.cpp:225] Memory required for data: 76153728
I0331 18:01:22.103864 132447 layer_factory.hpp:114] Creating layer relu3
I0331 18:01:22.103878 132447 net.cpp:160] Creating Layer relu3
I0331 18:01:22.103881 132447 net.cpp:596] relu3 <- conv3
I0331 18:01:22.103888 132447 net.cpp:557] relu3 -> conv3 (in-place)
I0331 18:01:22.103895 132447 net.cpp:210] Setting up relu3
I0331 18:01:22.103900 132447 net.cpp:217] Top shape: 224 64 8 8 (917504)
I0331 18:01:22.103904 132447 net.cpp:225] Memory required for data: 79823744
I0331 18:01:22.103907 132447 layer_factory.hpp:114] Creating layer pool3
I0331 18:01:22.103924 132447 net.cpp:160] Creating Layer pool3
I0331 18:01:22.103929 132447 net.cpp:596] pool3 <- conv3
I0331 18:01:22.103935 132447 net.cpp:570] pool3 -> pool3
I0331 18:01:22.103942 132447 net.cpp:210] Setting up pool3
I0331 18:01:22.103947 132447 net.cpp:217] Top shape: 224 64 4 4 (229376)
I0331 18:01:22.103951 132447 net.cpp:225] Memory required for data: 80741248
I0331 18:01:22.103955 132447 layer_factory.hpp:114] Creating layer ip1
I0331 18:01:22.103967 132447 net.cpp:160] Creating Layer ip1
I0331 18:01:22.103971 132447 net.cpp:596] ip1 <- pool3
I0331 18:01:22.103977 132447 net.cpp:570] ip1 -> ip1
I0331 18:01:22.104178 132447 net.cpp:210] Setting up ip1
I0331 18:01:22.104184 132447 net.cpp:217] Top shape: 224 10 (2240)
I0331 18:01:22.104188 132447 net.cpp:225] Memory required for data: 80750208
I0331 18:01:22.104195 132447 layer_factory.hpp:114] Creating layer loss
I0331 18:01:22.104204 132447 net.cpp:160] Creating Layer loss
I0331 18:01:22.104210 132447 net.cpp:596] loss <- ip1
I0331 18:01:22.104215 132447 net.cpp:596] loss <- label
I0331 18:01:22.104220 132447 net.cpp:570] loss -> loss
I0331 18:01:22.104233 132447 layer_factory.hpp:114] Creating layer loss
…
I0331 18:01:22.105159 132447 cpu_info.cpp:473] Number of OpenMP threads: 14
I0331 18:01:22.105191 132447 net.cpp:484] The NetState phase (1) differed from the phase (0) specified by a rule in layer cifar
I0331 18:01:22.105672 132447 net.cpp:120] Initializing net from parameters: 
name: "CIFAR10_full"
state {
  phase: TEST
}
layer {
  name: "cifar"
  type: "Data"
  top: "data"
  top: "label"
  include {
    phase: TEST
  }
  transform_param {
    mean_file: "examples/cifar10/mean.binaryproto"
  }
  data_param {
    source: "examples/cifar10/cifar10_test_lmdb"
    batch_size: 100
    backend: LMDB
  }
}
layer {
  name: "label_cifar_1_split"
  type: "Split"
  bottom: "label"
  top: "label_cifar_1_split_0"
  top: "label_cifar_1_split_1"
}
layer {
  name: "conv1"
  type: "Convolution"
  bottom: "data"
  top: "conv1"
  param {
    lr_mult: 1
  }
  param {
    lr_mult: 2
  }
  convolution_param {
    num_output: 32
    pad: 2
    kernel_size: 5
    stride: 1
    weight_filler {
      type: "gaussian"
      std: 0.0001
    }
    bias_filler {
      type: "constant"
    }
  }
}
layer {
  name: "pool1"
  type: "Pooling"
  bottom: "conv1"
  top: "pool1"
  pooling_param {
    pool: MAX
    kernel_size: 3
    stride: 2
  }
}
layer {
  name: "relu1"
  type: "ReLU"
  bottom: "pool1"
  top: "pool1"
}
layer {
  name: "norm1"
  type: "LRN"
  bottom: "pool1"
  top: "norm1"
  lrn_param {
    local_size: 3
    alpha: 5e-05
    beta: 0.75
    norm_region: WITHIN_CHANNEL
  }
}
layer {
  name: "conv2"
  type: "Convolution"
  bottom: "norm1"
  top: "conv2"
  param {
    lr_mult: 1
  }
  param {
    lr_mult: 2
  }
  convolution_param {
    num_output: 32
    pad: 2
    kernel_size: 5
    stride: 1
    weight_filler {
      type: "gaussian"
      std: 0.01
    }
    bias_filler {
      type: "constant"
    }
  }
}
layer {
  name: "relu2"
  type: "ReLU"
  bottom: "conv2"
  top: "conv2"
}
layer {
  name: "pool2"
  type: "Pooling"
  bottom: "conv2"
  top: "pool2"
  pooling_param {
    pool: AVE
    kernel_size: 3
    stride: 2
  }
}
layer {
  name: "norm2"
  type: "LRN"
  bottom: "pool2"
  top: "norm2"
  lrn_param {
    local_size: 3
    alpha: 5e-05
    beta: 0.75
    norm_region: WITHIN_CHANNEL
  }
}
layer {
  name: "conv3"
  type: "Convolution"
  bottom: "norm2"
  top: "conv3"
  convolution_param {
    num_output: 64
    pad: 2
    kernel_size: 5
    stride: 1
    weight_filler {
      type: "gaussian"
      std: 0.01
    }
    bias_filler {
      type: "constant"
    }
  }
}
layer {
  name: "relu3"
  type: "ReLU"
  bottom: "conv3"
  top: "conv3"
}
layer {
  name: "pool3"
  type: "Pooling"
  bottom: "conv3"
  top: "pool3"
  pooling_param {
    pool: AVE
    kernel_size: 3
    stride: 2
  }
}
layer {
  name: "ip1"
  type: "InnerProduct"
  bottom: "pool3"
  top: "ip1"
  param {
    lr_mult: 1
    decay_mult: 250
  }
  param {
    lr_mult: 2
    decay_mult: 0
  }
  inner_product_param {
    num_output: 10
    weight_filler {
      type: "gaussian"
      std: 0.01
    }
    bias_filler {
      type: "constant"
    }
  }
}
layer {
  name: "ip1_ip1_0_split"
  type: "Split"
  bottom: "ip1"
  top: "ip1_ip1_0_split_0"
  top: "ip1_ip1_0_split_1"
}
layer {
  name: "accuracy"
  type: "Accuracy"
  bottom: "ip1_ip1_0_split_0"
  bottom: "label_cifar_1_split_0"
  top: "accuracy"
  include {
    phase: TEST
  }
}
layer {
  name: "loss"
  type: "SoftmaxWithLoss"
  bottom: "ip1_ip1_0_split_1"
  bottom: "label_cifar_1_split_1"
  top: "loss"
}
I0331 18:01:22.105706 132447 layer_factory.hpp:114] Creating layer cifar
I0331 18:01:22.106369 132447 net.cpp:160] Creating Layer cifar
I0331 18:01:22.106381 132447 net.cpp:570] cifar -> data
I0331 18:01:22.106400 132447 net.cpp:570] cifar -> label
I0331 18:01:22.106415 132447 data_transformer.cpp:62] Loading mean file from: examples/cifar10/mean.binaryproto
I0331 18:01:22.106493 132449 db_lmdb.cpp:72] Opened lmdb examples/cifar10/cifar10_test_lmdb
I0331 18:01:22.106551 132447 data_layer.cpp:80] output data size: 100,3,32,32
I0331 18:01:22.111222 132447 net.cpp:210] Setting up cifar
I0331 18:01:22.111238 132447 net.cpp:217] Top shape: 100 3 32 32 (307200)
I0331 18:01:22.111244 132447 net.cpp:217] Top shape: 100 (100)
I0331 18:01:22.111248 132447 net.cpp:225] Memory required for data: 1229200
I0331 18:01:22.111253 132447 layer_factory.hpp:114] Creating layer label_cifar_1_split
I0331 18:01:22.111269 132447 net.cpp:160] Creating Layer label_cifar_1_split
I0331 18:01:22.111274 132447 net.cpp:596] label_cifar_1_split <- label
I0331 18:01:22.111280 132447 net.cpp:570] label_cifar_1_split -> label_cifar_1_split_0
I0331 18:01:22.111289 132447 net.cpp:570] label_cifar_1_split -> label_cifar_1_split_1
I0331 18:01:22.111296 132447 net.cpp:210] Setting up label_cifar_1_split
I0331 18:01:22.111302 132447 net.cpp:217] Top shape: 100 (100)
I0331 18:01:22.111307 132447 net.cpp:217] Top shape: 100 (100)
I0331 18:01:22.111310 132447 net.cpp:225] Memory required for data: 1230000
I0331 18:01:22.111315 132447 layer_factory.hpp:114] Creating layer conv1
I0331 18:01:22.111325 132447 net.cpp:160] Creating Layer conv1
I0331 18:01:22.111328 132447 net.cpp:596] conv1 <- data
I0331 18:01:22.111335 132447 net.cpp:570] conv1 -> conv1
I0331 18:01:22.113432 132447 net.cpp:210] Setting up conv1
I0331 18:01:22.113445 132447 net.cpp:217] Top shape: 100 32 32 32 (3276800)
I0331 18:01:22.113450 132447 net.cpp:225] Memory required for data: 14337200
I0331 18:01:22.113461 132447 layer_factory.hpp:114] Creating layer pool1
I0331 18:01:22.113486 132447 net.cpp:160] Creating Layer pool1
I0331 18:01:22.113489 132447 net.cpp:596] pool1 <- conv1
I0331 18:01:22.113495 132447 net.cpp:570] pool1 -> pool1
I0331 18:01:22.113505 132447 net.cpp:210] Setting up pool1
I0331 18:01:22.113512 132447 net.cpp:217] Top shape: 100 32 16 16 (819200)
I0331 18:01:22.113514 132447 net.cpp:225] Memory required for data: 17614000
I0331 18:01:22.113518 132447 layer_factory.hpp:114] Creating layer relu1
I0331 18:01:22.113528 132447 net.cpp:160] Creating Layer relu1
I0331 18:01:22.113531 132447 net.cpp:596] relu1 <- pool1
I0331 18:01:22.113538 132447 net.cpp:557] relu1 -> pool1 (in-place)
I0331 18:01:22.113544 132447 net.cpp:210] Setting up relu1
I0331 18:01:22.113549 132447 net.cpp:217] Top shape: 100 32 16 16 (819200)
I0331 18:01:22.113554 132447 net.cpp:225] Memory required for data: 20890800
I0331 18:01:22.113556 132447 layer_factory.hpp:114] Creating layer norm1
I0331 18:01:22.113562 132447 net.cpp:160] Creating Layer norm1
I0331 18:01:22.113566 132447 net.cpp:596] norm1 <- pool1
I0331 18:01:22.113570 132447 net.cpp:570] norm1 -> norm1
I0331 18:01:22.113605 132447 net.cpp:210] Setting up norm1
I0331 18:01:22.113612 132447 net.cpp:217] Top shape: 100 32 16 16 (819200)
I0331 18:01:22.113616 132447 net.cpp:225] Memory required for data: 24167600
I0331 18:01:22.113620 132447 layer_factory.hpp:114] Creating layer conv2
I0331 18:01:22.113632 132447 net.cpp:160] Creating Layer conv2
I0331 18:01:22.113638 132447 net.cpp:596] conv2 <- norm1
I0331 18:01:22.113646 132447 net.cpp:570] conv2 -> conv2
I0331 18:01:22.119530 132447 net.cpp:210] Setting up conv2
I0331 18:01:22.119541 132447 net.cpp:217] Top shape: 100 32 16 16 (819200)
I0331 18:01:22.119545 132447 net.cpp:225] Memory required for data: 27444400
I0331 18:01:22.119565 132447 layer_factory.hpp:114] Creating layer relu2
I0331 18:01:22.119571 132447 net.cpp:160] Creating Layer relu2
I0331 18:01:22.119576 132447 net.cpp:596] relu2 <- conv2
I0331 18:01:22.119583 132447 net.cpp:557] relu2 -> conv2 (in-place)
I0331 18:01:22.119590 132447 net.cpp:210] Setting up relu2
I0331 18:01:22.119596 132447 net.cpp:217] Top shape: 100 32 16 16 (819200)
I0331 18:01:22.119598 132447 net.cpp:225] Memory required for data: 30721200
I0331 18:01:22.119601 132447 layer_factory.hpp:114] Creating layer pool2
I0331 18:01:22.119621 132447 net.cpp:160] Creating Layer pool2
I0331 18:01:22.119630 132447 net.cpp:596] pool2 <- conv2
I0331 18:01:22.119635 132447 net.cpp:570] pool2 -> pool2
I0331 18:01:22.119644 132447 net.cpp:210] Setting up pool2
I0331 18:01:22.119650 132447 net.cpp:217] Top shape: 100 32 8 8 (204800)
I0331 18:01:22.119653 132447 net.cpp:225] Memory required for data: 31540400
I0331 18:01:22.119657 132447 layer_factory.hpp:114] Creating layer norm2
I0331 18:01:22.119668 132447 net.cpp:160] Creating Layer norm2
I0331 18:01:22.119671 132447 net.cpp:596] norm2 <- pool2
I0331 18:01:22.119678 132447 net.cpp:570] norm2 -> norm2
I0331 18:01:22.119722 132447 net.cpp:210] Setting up norm2
I0331 18:01:22.119729 132447 net.cpp:217] Top shape: 100 32 8 8 (204800)
I0331 18:01:22.119734 132447 net.cpp:225] Memory required for data: 32359600
I0331 18:01:22.119736 132447 layer_factory.hpp:114] Creating layer conv3
I0331 18:01:22.119746 132447 net.cpp:160] Creating Layer conv3
I0331 18:01:22.119750 132447 net.cpp:596] conv3 <- norm2
I0331 18:01:22.119756 132447 net.cpp:570] conv3 -> conv3
I0331 18:01:22.123687 132447 net.cpp:210] Setting up conv3
I0331 18:01:22.123698 132447 net.cpp:217] Top shape: 100 64 8 8 (409600)
I0331 18:01:22.123703 132447 net.cpp:225] Memory required for data: 33998000
I0331 18:01:22.123713 132447 layer_factory.hpp:114] Creating layer relu3
I0331 18:01:22.123719 132447 net.cpp:160] Creating Layer relu3
I0331 18:01:22.123723 132447 net.cpp:596] relu3 <- conv3
I0331 18:01:22.123731 132447 net.cpp:557] relu3 -> conv3 (in-place)
I0331 18:01:22.123738 132447 net.cpp:210] Setting up relu3
I0331 18:01:22.123742 132447 net.cpp:217] Top shape: 100 64 8 8 (409600)
I0331 18:01:22.123746 132447 net.cpp:225] Memory required for data: 35636400
I0331 18:01:22.123750 132447 layer_factory.hpp:114] Creating layer pool3
I0331 18:01:22.123769 132447 net.cpp:160] Creating Layer pool3
I0331 18:01:22.123774 132447 net.cpp:596] pool3 <- conv3
I0331 18:01:22.123780 132447 net.cpp:570] pool3 -> pool3
I0331 18:01:22.123786 132447 net.cpp:210] Setting up pool3
I0331 18:01:22.123791 132447 net.cpp:217] Top shape: 100 64 4 4 (102400)
I0331 18:01:22.123795 132447 net.cpp:225] Memory required for data: 36046000
I0331 18:01:22.123800 132447 layer_factory.hpp:114] Creating layer ip1
I0331 18:01:22.123811 132447 net.cpp:160] Creating Layer ip1
I0331 18:01:22.123814 132447 net.cpp:596] ip1 <- pool3
I0331 18:01:22.123821 132447 net.cpp:570] ip1 -> ip1
I0331 18:01:22.124027 132447 net.cpp:210] Setting up ip1
I0331 18:01:22.124032 132447 net.cpp:217] Top shape: 100 10 (1000)
I0331 18:01:22.124037 132447 net.cpp:225] Memory required for data: 36050000
I0331 18:01:22.124043 132447 layer_factory.hpp:114] Creating layer ip1_ip1_0_split
I0331 18:01:22.124053 132447 net.cpp:160] Creating Layer ip1_ip1_0_split
I0331 18:01:22.124058 132447 net.cpp:596] ip1_ip1_0_split <- ip1
I0331 18:01:22.124063 132447 net.cpp:570] ip1_ip1_0_split -> ip1_ip1_0_split_0
I0331 18:01:22.124069 132447 net.cpp:570] ip1_ip1_0_split -> ip1_ip1_0_split_1
I0331 18:01:22.124078 132447 net.cpp:210] Setting up ip1_ip1_0_split
I0331 18:01:22.124081 132447 net.cpp:217] Top shape: 100 10 (1000)
I0331 18:01:22.124086 132447 net.cpp:217] Top shape: 100 10 (1000)
I0331 18:01:22.124090 132447 net.cpp:225] Memory required for data: 36058000
I0331 18:01:22.124094 132447 layer_factory.hpp:114] Creating layer accuracy
I0331 18:01:22.124104 132447 net.cpp:160] Creating Layer accuracy
I0331 18:01:22.124107 132447 net.cpp:596] accuracy <- ip1_ip1_0_split_0
I0331 18:01:22.124121 132447 net.cpp:596] accuracy <- label_cifar_1_split_0
I0331 18:01:22.124130 132447 net.cpp:570] accuracy -> accuracy
…
