…
I0117 12:38:44.847976 12152 net.cpp:493] The NetState phase (0) differed from the phase (1) specified by a rule in layer accuracy
I0117 12:38:44.850683 12152 net.cpp:125] Initializing net from parameters: 
name: "AlexNet"
state {
  phase: TRAIN
  level: 0
  stage: ""
}
layer {
  name: "data"
  type: "Data"
  top: "data"
  top: "label"
  include {
    phase: TRAIN
  }
  transform_param {
    mirror: true
    crop_size: 227
    mean_file: "/home/user/user/LIBRARIES/caffeLibs/caffe/data/ilsvrc12/imagenet_mean.binaryproto"
  }
  data_param {
    source: "/home/user/user/LIBRARIES/caffeLibs/caffe/examples/imagenet/ilsvrc12_train_lmdb"
    batch_size: 32
    backend: LMDB
  }
}
layer {
  name: "conv1"
  type: "Convolution"
  bottom: "data"
  top: "conv1"
  param {
    lr_mult: 1
    decay_mult: 1
  }
  param {
    lr_mult: 2
    decay_mult: 0
  }
  convolution_param {
    num_output: 96
    kernel_size: 11
    stride: 4
    weight_filler {
      type: "gaussian"
      std: 0.01
    }
    bias_filler {
      type: "constant"
      value: 0
    }
  }
}
layer {
  name: "relu1"
  type: "ReLU"
  bottom: "conv1"
  top: "conv1"
}
layer {
  name: "norm1"
  type: "LRN"
  bottom: "conv1"
  top: "norm1"
  lrn_param {
    local_size: 5
    alpha: 0.0001
    beta: 0.75
  }
}
layer {
  name: "pool1"
  type: "Pooling"
  bottom: "norm1"
  top: "pool1"
  pooling_param {
    pool: MAX
    kernel_size: 3
    stride: 2
  }
}
layer {
  name: "conv2"
  type: "Convolution"
  bottom: "pool1"
  top: "conv2"
  param {
    lr_mult: 1
    decay_mult: 1
  }
  param {
    lr_mult: 2
    decay_mult: 0
  }
  convolution_param {
    num_output: 256
    pad: 2
    kernel_size: 5
    group: 2
    weight_filler {
      type: "gaussian"
      std: 0.01
    }
    bias_filler {
      type: "constant"
      value: 0.1
    }
  }
}
layer {
  name: "relu2"
  type: "ReLU"
  bottom: "conv2"
  top: "conv2"
}
layer {
  name: "norm2"
  type: "LRN"
  bottom: "conv2"
  top: "norm2"
  lrn_param {
    local_size: 5
    alpha: 0.0001
    beta: 0.75
  }
}
layer {
  name: "pool2"
  type: "Pooling"
  bottom: "norm2"
  top: "pool2"
  pooling_param {
    pool: MAX
    kernel_size: 3
    stride: 2
  }
}
layer {
  name: "conv3"
  type: "Convolution"
  bottom: "pool2"
  top: "conv3"
  param {
    lr_mult: 1
    decay_mult: 1
  }
  param {
    lr_mult: 2
    decay_mult: 0
  }
  convolution_param {
    num_output: 384
    pad: 1
    kernel_size: 3
    weight_filler {
      type: "gaussian"
      std: 0.01
    }
    bias_filler {
      type: "constant"
      value: 0
    }
  }
}
layer {
  name: "relu3"
  type: "ReLU"
  bottom: "conv3"
  top: "conv3"
}
layer {
  name: "conv4"
  type: "Convolution"
  bottom: "conv3"
  top: "conv4"
  param {
    lr_mult: 1
    decay_mult: 1
  }
  param {
    lr_mult: 2
    decay_mult: 0
  }
  convolution_param {
    num_output: 384
    pad: 1
    kernel_size: 3
    group: 2
    weight_filler {
      type: "gaussian"
      std: 0.01
    }
    bias_filler {
      type: "constant"
      value: 0.1
    }
  }
}
layer {
  name: "relu4"
  type: "ReLU"
  bottom: "conv4"
  top: "conv4"
}
layer {
  name: "conv5"
  type: "Convolution"
  bottom: "conv4"
  top: "conv5"
  param {
    lr_mult: 1
    decay_mult: 1
  }
  param {
    lr_mult: 2
    decay_mult: 0
  }
  convolution_param {
    num_output: 256
    pad: 1
    kernel_size: 3
    group: 2
    weight_filler {
      type: "gaussian"
      std: 0.01
    }
    bias_filler {
      type: "constant"
      value: 0.1
    }
  }
}
layer {
  name: "relu5"
  type: "ReLU"
  bottom: "conv5"
  top: "conv5"
}
layer {
  name: "pool5"
  type: "Pooling"
  bottom: "conv5"
  top: "pool5"
  pooling_param {
    pool: MAX
    kernel_size: 3
    stride: 2
  }
}
layer {
  name: "fc6"
  type: "InnerProduct"
  bottom: "pool5"
  top: "fc6"
  param {
    lr_mult: 1
    decay_mult: 1
  }
  param {
    lr_mult: 2
    decay_mult: 0
  }
  inner_product_param {
    num_output: 4096
    weight_filler {
      type: "gaussian"
      std: 0.005
    }
    bias_filler {
      type: "constant"
      value: 0.1
    }
  }
}
layer {
  name: "relu6"
  type: "ReLU"
  bottom: "fc6"
  top: "fc6"
}
layer {
  name: "drop6"
  type: "Dropout"
  bottom: "fc6"
  top: "fc6"
  dropout_param {
    dropout_ratio: 0.5
  }
}
layer {
  name: "fc7"
  type: "InnerProduct"
  bottom: "fc6"
  top: "fc7"
  param {
    lr_mult: 1
    decay_mult: 1
  }
  param {
    lr_mult: 2
    decay_mult: 0
  }
  inner_product_param {
    num_output: 4096
    weight_filler {
      type: "gaussian"
      std: 0.005
    }
    bias_filler {
      type: "constant"
      value: 0.1
    }
  }
}
layer {
  name: "relu7"
  type: "ReLU"
  bottom: "fc7"
  top: "fc7"
}
layer {
  name: "drop7"
  type: "Dropout"
  bottom: "fc7"
  top: "fc7"
  dropout_param {
    dropout_ratio: 0.5
  }
}
layer {
  name: "fc8"
  type: "InnerProduct"
  bottom: "fc7"
  top: "fc8"
  param {
    lr_mult: 1
    decay_mult: 1
  }
  param {
    lr_mult: 2
    decay_mult: 0
  }
  inner_product_param {
    num_output: 1000
    weight_filler {
      type: "gaussian"
      std: 0.01
    }
    bias_filler {
      type: "constant"
      value: 0
    }
  }
}
layer {
  name: "loss"
  type: "SoftmaxWithLoss"
  bottom: "fc8"
  bottom: "label"
  top: "loss"
}
I0117 12:38:44.850824 12152 net.cpp:154] Setting up Layer of device :0 @cpu 5 Layer : data
I0117 12:38:44.850860 12152 layer_factory.hpp:114] Creating layer data
I0117 12:38:44.852452 12152 net.cpp:169] Creating Layer data
I0117 12:38:44.852505 12152 net.cpp:579] data -> data
I0117 12:38:44.852531 12152 net.cpp:582] From AppendTop @cpu: 5
I0117 12:38:44.852604 12152 net.cpp:579] data -> label
I0117 12:38:44.852645 12152 net.cpp:582] From AppendTop @cpu: 5
I0117 12:38:44.852706 12152 data_transformer.cpp:62] Loading mean file from: /home/user/user/LIBRARIES/caffeLibs/caffe/data/ilsvrc12/imagenet_mean.binaryproto
I0117 12:38:44.852968 12153 db_lmdb.cpp:72] Opened lmdb /home/user/user/LIBRARIES/caffeLibs/caffe/examples/imagenet/ilsvrc12_train_lmdb
I0117 12:38:44.853127 12153 data_reader.cpp:128] inside DATAREADER 8
I0117 12:38:44.853157 12153 data_reader.cpp:139] NUMA DOMAIN 0
I0117 12:38:44.854097 12153 data_reader.cpp:139] NUMA DOMAIN 0
I0117 12:38:44.899700 12152 data_layer.cpp:80] output data size: 32,3,227,227
I0117 12:38:44.952908 12152 base_data_layer.cpp:96] Done cpu data
I0117 12:38:44.952997 12152 net.cpp:219] Setting up data
I0117 12:38:44.953040 12152 net.cpp:226] Top shape: 32 3 227 227 (4946784)
I0117 12:38:44.953065 12152 net.cpp:226] Top shape: 32 (32)
I0117 12:38:44.953083 12152 net.cpp:234] Memory required for data: 19787264
I0117 12:38:44.953119 12152 net.cpp:154] Setting up Layer of device :0 @cpu 5 Layer : conv1
I0117 12:38:44.953138 12152 layer_factory.hpp:114] Creating layer conv1
I0117 12:38:44.953207 12152 net.cpp:169] Creating Layer conv1
I0117 12:38:44.953280 12152 net.cpp:606] conv1 <- data
I0117 12:38:44.953325 12152 net.cpp:579] conv1 -> conv1
I0117 12:38:44.953343 12152 net.cpp:582] From AppendTop @cpu: 5
OMP: Info #242: KMP_AFFINITY: pid 12152 thread 1 bound to OS proc set {0,1,2,3,4,5}
OMP: Info #242: KMP_AFFINITY: pid 12152 thread 3 bound to OS proc set {0,1,2,3,4,5}
OMP: Info #242: KMP_AFFINITY: pid 12152 thread 2 bound to OS proc set {0,1,2,3,4,5}
OMP: Info #242: KMP_AFFINITY: pid 12152 thread 5 bound to OS proc set {0,1,2,3,4,5}
OMP: Info #242: KMP_AFFINITY: pid 12152 thread 4 bound to OS proc set {0,1,2,3,4,5}
I0117 12:38:44.991335 12152 net.cpp:219] Setting up conv1
I0117 12:38:44.991425 12152 net.cpp:226] Top shape: 32 96 55 55 (9292800)
I0117 12:38:44.991447 12152 net.cpp:234] Memory required for data: 56958464
I0117 12:38:44.991529 12152 net.cpp:154] Setting up Layer of device :0 @cpu 0 Layer : relu1
I0117 12:38:44.991554 12152 layer_factory.hpp:114] Creating layer relu1
I0117 12:38:44.991595 12152 net.cpp:169] Creating Layer relu1
I0117 12:38:44.991618 12152 net.cpp:606] relu1 <- conv1
I0117 12:38:44.991648 12152 net.cpp:566] relu1 -> conv1 (in-place)
I0117 12:38:44.991690 12152 net.cpp:219] Setting up relu1
I0117 12:38:44.991730 12152 net.cpp:226] Top shape: 32 96 55 55 (9292800)
I0117 12:38:44.991751 12152 net.cpp:234] Memory required for data: 94129664
I0117 12:38:44.991777 12152 net.cpp:154] Setting up Layer of device :0 @cpu 0 Layer : norm1
I0117 12:38:44.991798 12152 layer_factory.hpp:114] Creating layer norm1
I0117 12:38:44.991837 12152 net.cpp:169] Creating Layer norm1
I0117 12:38:44.991859 12152 net.cpp:606] norm1 <- conv1
I0117 12:38:44.991888 12152 net.cpp:579] norm1 -> norm1
I0117 12:38:44.991909 12152 net.cpp:582] From AppendTop @cpu: 0
I0117 12:38:44.991964 12152 net.cpp:219] Setting up norm1
I0117 12:38:44.991993 12152 net.cpp:226] Top shape: 32 96 55 55 (9292800)
I0117 12:38:44.992013 12152 net.cpp:234] Memory required for data: 131300864
I0117 12:38:44.992038 12152 net.cpp:154] Setting up Layer of device :0 @cpu 0 Layer : pool1
I0117 12:38:44.992059 12152 layer_factory.hpp:114] Creating layer pool1
I0117 12:38:44.992209 12152 net.cpp:169] Creating Layer pool1
I0117 12:38:44.992235 12152 net.cpp:606] pool1 <- norm1
I0117 12:38:44.992285 12152 net.cpp:579] pool1 -> pool1
I0117 12:38:44.992306 12152 net.cpp:582] From AppendTop @cpu: 0
I0117 12:38:44.992360 12152 net.cpp:219] Setting up pool1
I0117 12:38:44.992391 12152 net.cpp:226] Top shape: 32 96 27 27 (2239488)
I0117 12:38:44.992411 12152 net.cpp:234] Memory required for data: 140258816
I0117 12:38:44.992436 12152 net.cpp:154] Setting up Layer of device :0 @cpu 0 Layer : conv2
I0117 12:38:44.992457 12152 layer_factory.hpp:114] Creating layer conv2
I0117 12:38:44.992516 12152 net.cpp:169] Creating Layer conv2
I0117 12:38:44.992538 12152 net.cpp:606] conv2 <- pool1
I0117 12:38:44.992575 12152 net.cpp:579] conv2 -> conv2
I0117 12:38:44.992624 12152 net.cpp:582] From AppendTop @cpu: 0
I0117 12:38:45.083114 12152 net.cpp:219] Setting up conv2
I0117 12:38:45.083173 12152 net.cpp:226] Top shape: 32 256 27 27 (5971968)
I0117 12:38:45.083187 12152 net.cpp:234] Memory required for data: 164146688
I0117 12:38:45.083226 12152 net.cpp:154] Setting up Layer of device :0 @cpu 0 Layer : relu2
I0117 12:38:45.083273 12152 layer_factory.hpp:114] Creating layer relu2
I0117 12:38:45.083309 12152 net.cpp:169] Creating Layer relu2
I0117 12:38:45.083325 12152 net.cpp:606] relu2 <- conv2
I0117 12:38:45.083348 12152 net.cpp:566] relu2 -> conv2 (in-place)
I0117 12:38:45.083372 12152 net.cpp:219] Setting up relu2
I0117 12:38:45.083389 12152 net.cpp:226] Top shape: 32 256 27 27 (5971968)
I0117 12:38:45.083402 12152 net.cpp:234] Memory required for data: 188034560
I0117 12:38:45.083418 12152 net.cpp:154] Setting up Layer of device :0 @cpu 0 Layer : norm2
I0117 12:38:45.083431 12152 layer_factory.hpp:114] Creating layer norm2
I0117 12:38:45.083451 12152 net.cpp:169] Creating Layer norm2
I0117 12:38:45.083463 12152 net.cpp:606] norm2 <- conv2
I0117 12:38:45.083485 12152 net.cpp:579] norm2 -> norm2
I0117 12:38:45.083498 12152 net.cpp:582] From AppendTop @cpu: 0
I0117 12:38:45.083524 12152 net.cpp:219] Setting up norm2
I0117 12:38:45.083541 12152 net.cpp:226] Top shape: 32 256 27 27 (5971968)
I0117 12:38:45.083554 12152 net.cpp:234] Memory required for data: 211922432
I0117 12:38:45.083570 12152 net.cpp:154] Setting up Layer of device :0 @cpu 0 Layer : pool2
I0117 12:38:45.083582 12152 layer_factory.hpp:114] Creating layer pool2
I0117 12:38:45.083676 12152 net.cpp:169] Creating Layer pool2
I0117 12:38:45.083698 12152 net.cpp:606] pool2 <- norm2
I0117 12:38:45.083716 12152 net.cpp:579] pool2 -> pool2
I0117 12:38:45.083729 12152 net.cpp:582] From AppendTop @cpu: 0
I0117 12:38:45.083752 12152 net.cpp:219] Setting up pool2
I0117 12:38:45.083770 12152 net.cpp:226] Top shape: 32 256 13 13 (1384448)
I0117 12:38:45.083782 12152 net.cpp:234] Memory required for data: 217460224
I0117 12:38:45.083797 12152 net.cpp:154] Setting up Layer of device :0 @cpu 0 Layer : conv3
I0117 12:38:45.083811 12152 layer_factory.hpp:114] Creating layer conv3
I0117 12:38:45.083842 12152 net.cpp:169] Creating Layer conv3
I0117 12:38:45.083856 12152 net.cpp:606] conv3 <- pool2
I0117 12:38:45.083874 12152 net.cpp:579] conv3 -> conv3
I0117 12:38:45.083887 12152 net.cpp:582] From AppendTop @cpu: 0
I0117 12:38:45.201700 12152 net.cpp:219] Setting up conv3
I0117 12:38:45.201757 12152 net.cpp:226] Top shape: 32 384 13 13 (2076672)
I0117 12:38:45.201767 12152 net.cpp:234] Memory required for data: 225766912
I0117 12:38:45.201802 12152 net.cpp:154] Setting up Layer of device :0 @cpu 0 Layer : relu3
I0117 12:38:45.201812 12152 layer_factory.hpp:114] Creating layer relu3
I0117 12:38:45.201831 12152 net.cpp:169] Creating Layer relu3
I0117 12:38:45.201841 12152 net.cpp:606] relu3 <- conv3
I0117 12:38:45.201855 12152 net.cpp:566] relu3 -> conv3 (in-place)
I0117 12:38:45.201874 12152 net.cpp:219] Setting up relu3
I0117 12:38:45.201884 12152 net.cpp:226] Top shape: 32 384 13 13 (2076672)
I0117 12:38:45.201892 12152 net.cpp:234] Memory required for data: 234073600
I0117 12:38:45.201903 12152 net.cpp:154] Setting up Layer of device :0 @cpu 0 Layer : conv4
I0117 12:38:45.201912 12152 layer_factory.hpp:114] Creating layer conv4
I0117 12:38:45.201937 12152 net.cpp:169] Creating Layer conv4
I0117 12:38:45.201947 12152 net.cpp:606] conv4 <- conv3
I0117 12:38:45.201961 12152 net.cpp:579] conv4 -> conv4
I0117 12:38:45.201969 12152 net.cpp:582] From AppendTop @cpu: 0
I0117 12:38:45.278182 12152 net.cpp:219] Setting up conv4
I0117 12:38:45.278231 12152 net.cpp:226] Top shape: 32 384 13 13 (2076672)
I0117 12:38:45.278244 12152 net.cpp:234] Memory required for data: 242380288
I0117 12:38:45.278271 12152 net.cpp:154] Setting up Layer of device :0 @cpu 0 Layer : relu4
I0117 12:38:45.278281 12152 layer_factory.hpp:114] Creating layer relu4
I0117 12:38:45.278300 12152 net.cpp:169] Creating Layer relu4
I0117 12:38:45.278309 12152 net.cpp:606] relu4 <- conv4
I0117 12:38:45.278347 12152 net.cpp:566] relu4 -> conv4 (in-place)
I0117 12:38:45.278365 12152 net.cpp:219] Setting up relu4
I0117 12:38:45.278378 12152 net.cpp:226] Top shape: 32 384 13 13 (2076672)
I0117 12:38:45.278385 12152 net.cpp:234] Memory required for data: 250686976
I0117 12:38:45.278396 12152 net.cpp:154] Setting up Layer of device :0 @cpu 0 Layer : conv5
I0117 12:38:45.278405 12152 layer_factory.hpp:114] Creating layer conv5
I0117 12:38:45.278429 12152 net.cpp:169] Creating Layer conv5
I0117 12:38:45.278439 12152 net.cpp:606] conv5 <- conv4
I0117 12:38:45.278451 12152 net.cpp:579] conv5 -> conv5
I0117 12:38:45.278460 12152 net.cpp:582] From AppendTop @cpu: 0
I0117 12:38:45.332298 12152 net.cpp:219] Setting up conv5
I0117 12:38:45.332345 12152 net.cpp:226] Top shape: 32 256 13 13 (1384448)
I0117 12:38:45.332355 12152 net.cpp:234] Memory required for data: 256224768
I0117 12:38:45.332386 12152 net.cpp:154] Setting up Layer of device :0 @cpu 0 Layer : relu5
I0117 12:38:45.332396 12152 layer_factory.hpp:114] Creating layer relu5
I0117 12:38:45.332414 12152 net.cpp:169] Creating Layer relu5
I0117 12:38:45.332425 12152 net.cpp:606] relu5 <- conv5
I0117 12:38:45.332439 12152 net.cpp:566] relu5 -> conv5 (in-place)
I0117 12:38:45.332458 12152 net.cpp:219] Setting up relu5
I0117 12:38:45.332470 12152 net.cpp:226] Top shape: 32 256 13 13 (1384448)
I0117 12:38:45.332479 12152 net.cpp:234] Memory required for data: 261762560
I0117 12:38:45.332489 12152 net.cpp:154] Setting up Layer of device :0 @cpu 0 Layer : pool5
I0117 12:38:45.332497 12152 layer_factory.hpp:114] Creating layer pool5
I0117 12:38:45.332576 12152 net.cpp:169] Creating Layer pool5
I0117 12:38:45.332587 12152 net.cpp:606] pool5 <- conv5
I0117 12:38:45.332600 12152 net.cpp:579] pool5 -> pool5
I0117 12:38:45.332609 12152 net.cpp:582] From AppendTop @cpu: 0
I0117 12:38:45.332629 12152 net.cpp:219] Setting up pool5
I0117 12:38:45.332641 12152 net.cpp:226] Top shape: 32 256 6 6 (294912)
I0117 12:38:45.332650 12152 net.cpp:234] Memory required for data: 262942208
I0117 12:38:45.332660 12152 net.cpp:154] Setting up Layer of device :0 @cpu 0 Layer : fc6
I0117 12:38:45.332669 12152 layer_factory.hpp:114] Creating layer fc6
I0117 12:38:45.332706 12152 net.cpp:169] Creating Layer fc6
I0117 12:38:45.332717 12152 net.cpp:606] fc6 <- pool5
I0117 12:38:45.332731 12152 net.cpp:579] fc6 -> fc6
I0117 12:38:45.332738 12152 net.cpp:582] From AppendTop @cpu: 0
I0117 12:38:48.487584 12152 net.cpp:219] Setting up fc6
I0117 12:38:48.487680 12152 net.cpp:226] Top shape: 32 4096 (131072)
I0117 12:38:48.487690 12152 net.cpp:234] Memory required for data: 263466496
I0117 12:38:48.487720 12152 net.cpp:154] Setting up Layer of device :0 @cpu 0 Layer : relu6
I0117 12:38:48.487730 12152 layer_factory.hpp:114] Creating layer relu6
I0117 12:38:48.487759 12152 net.cpp:169] Creating Layer relu6
I0117 12:38:48.487772 12152 net.cpp:606] relu6 <- fc6
I0117 12:38:48.487790 12152 net.cpp:566] relu6 -> fc6 (in-place)
I0117 12:38:48.487813 12152 net.cpp:219] Setting up relu6
I0117 12:38:48.487825 12152 net.cpp:226] Top shape: 32 4096 (131072)
I0117 12:38:48.487834 12152 net.cpp:234] Memory required for data: 263990784
I0117 12:38:48.487844 12152 net.cpp:154] Setting up Layer of device :0 @cpu 0 Layer : drop6
I0117 12:38:48.487854 12152 layer_factory.hpp:114] Creating layer drop6
I0117 12:38:48.487876 12152 net.cpp:169] Creating Layer drop6
I0117 12:38:48.487886 12152 net.cpp:606] drop6 <- fc6
I0117 12:38:48.487897 12152 net.cpp:566] drop6 -> fc6 (in-place)
I0117 12:38:48.487920 12152 net.cpp:219] Setting up drop6
I0117 12:38:48.487931 12152 net.cpp:226] Top shape: 32 4096 (131072)
I0117 12:38:48.487939 12152 net.cpp:234] Memory required for data: 264515072
I0117 12:38:48.487949 12152 net.cpp:154] Setting up Layer of device :0 @cpu 0 Layer : fc7
I0117 12:38:48.487958 12152 layer_factory.hpp:114] Creating layer fc7
I0117 12:38:48.487983 12152 net.cpp:169] Creating Layer fc7
I0117 12:38:48.487993 12152 net.cpp:606] fc7 <- fc6
I0117 12:38:48.488006 12152 net.cpp:579] fc7 -> fc7
I0117 12:38:48.488035 12152 net.cpp:582] From AppendTop @cpu: 0
I0117 12:38:49.891654 12152 net.cpp:219] Setting up fc7
I0117 12:38:49.891746 12152 net.cpp:226] Top shape: 32 4096 (131072)
I0117 12:38:49.891754 12152 net.cpp:234] Memory required for data: 265039360
I0117 12:38:49.891785 12152 net.cpp:154] Setting up Layer of device :0 @cpu 0 Layer : relu7
I0117 12:38:49.891795 12152 layer_factory.hpp:114] Creating layer relu7
I0117 12:38:49.891824 12152 net.cpp:169] Creating Layer relu7
I0117 12:38:49.891837 12152 net.cpp:606] relu7 <- fc7
I0117 12:38:49.891855 12152 net.cpp:566] relu7 -> fc7 (in-place)
I0117 12:38:49.891877 12152 net.cpp:219] Setting up relu7
I0117 12:38:49.891888 12152 net.cpp:226] Top shape: 32 4096 (131072)
I0117 12:38:49.891897 12152 net.cpp:234] Memory required for data: 265563648
I0117 12:38:49.891907 12152 net.cpp:154] Setting up Layer of device :0 @cpu 0 Layer : drop7
I0117 12:38:49.891916 12152 layer_factory.hpp:114] Creating layer drop7
I0117 12:38:49.891933 12152 net.cpp:169] Creating Layer drop7
I0117 12:38:49.891942 12152 net.cpp:606] drop7 <- fc7
I0117 12:38:49.891953 12152 net.cpp:566] drop7 -> fc7 (in-place)
I0117 12:38:49.891969 12152 net.cpp:219] Setting up drop7
I0117 12:38:49.891980 12152 net.cpp:226] Top shape: 32 4096 (131072)
I0117 12:38:49.891989 12152 net.cpp:234] Memory required for data: 266087936
I0117 12:38:49.891999 12152 net.cpp:154] Setting up Layer of device :0 @cpu 0 Layer : fc8
I0117 12:38:49.892009 12152 layer_factory.hpp:114] Creating layer fc8
I0117 12:38:49.892032 12152 net.cpp:169] Creating Layer fc8
I0117 12:38:49.892041 12152 net.cpp:606] fc8 <- fc7
I0117 12:38:49.892089 12152 net.cpp:579] fc8 -> fc8
I0117 12:38:49.892098 12152 net.cpp:582] From AppendTop @cpu: 0
I0117 12:38:50.235888 12152 net.cpp:219] Setting up fc8
I0117 12:38:50.235977 12152 net.cpp:226] Top shape: 32 1000 (32000)
I0117 12:38:50.235987 12152 net.cpp:234] Memory required for data: 266215936
I0117 12:38:50.236017 12152 net.cpp:154] Setting up Layer of device :0 @cpu 0 Layer : loss
I0117 12:38:50.236027 12152 layer_factory.hpp:114] Creating layer loss
I0117 12:38:50.236058 12152 net.cpp:169] Creating Layer loss
I0117 12:38:50.236073 12152 net.cpp:606] loss <- fc8
I0117 12:38:50.236088 12152 net.cpp:606] loss <- label
…
I0117 12:38:50.238965 12152 net.cpp:493] The NetState phase (1) differed from the phase (0) specified by a rule in layer data
I0117 12:38:50.240254 12152 net.cpp:125] Initializing net from parameters: 
name: "AlexNet"
state {
  phase: TEST
}
layer {
  name: "data"
  type: "Data"
  top: "data"
  top: "label"
  include {
    phase: TEST
  }
  transform_param {
    mirror: false
    crop_size: 227
    mean_file: "/home/user/user/LIBRARIES/caffeLibs/caffe/data/ilsvrc12/imagenet_mean.binaryproto"
  }
  data_param {
    source: "/home/user/user/LIBRARIES/caffeLibs/caffe/examples/imagenet/ilsvrc12_val_lmdb"
    batch_size: 50
    backend: LMDB
  }
}
layer {
  name: "label_data_1_split"
  type: "Split"
  bottom: "label"
  top: "label_data_1_split_0"
  top: "label_data_1_split_1"
}
layer {
  name: "conv1"
  type: "Convolution"
  bottom: "data"
  top: "conv1"
  param {
    lr_mult: 1
    decay_mult: 1
  }
  param {
    lr_mult: 2
    decay_mult: 0
  }
  convolution_param {
    num_output: 96
    kernel_size: 11
    stride: 4
    weight_filler {
      type: "gaussian"
      std: 0.01
    }
    bias_filler {
      type: "constant"
      value: 0
    }
  }
}
layer {
  name: "relu1"
  type: "ReLU"
  bottom: "conv1"
  top: "conv1"
}
layer {
  name: "norm1"
  type: "LRN"
  bottom: "conv1"
  top: "norm1"
  lrn_param {
    local_size: 5
    alpha: 0.0001
    beta: 0.75
  }
}
layer {
  name: "pool1"
  type: "Pooling"
  bottom: "norm1"
  top: "pool1"
  pooling_param {
    pool: MAX
    kernel_size: 3
    stride: 2
  }
}
layer {
  name: "conv2"
  type: "Convolution"
  bottom: "pool1"
  top: "conv2"
  param {
    lr_mult: 1
    decay_mult: 1
  }
  param {
    lr_mult: 2
    decay_mult: 0
  }
  convolution_param {
    num_output: 256
    pad: 2
    kernel_size: 5
    group: 2
    weight_filler {
      type: "gaussian"
      std: 0.01
    }
    bias_filler {
      type: "constant"
      value: 0.1
    }
  }
}
layer {
  name: "relu2"
  type: "ReLU"
  bottom: "conv2"
  top: "conv2"
}
layer {
  name: "norm2"
  type: "LRN"
  bottom: "conv2"
  top: "norm2"
  lrn_param {
    local_size: 5
    alpha: 0.0001
    beta: 0.75
  }
}
layer {
  name: "pool2"
  type: "Pooling"
  bottom: "norm2"
  top: "pool2"
  pooling_param {
    pool: MAX
    kernel_size: 3
    stride: 2
  }
}
layer {
  name: "conv3"
  type: "Convolution"
  bottom: "pool2"
  top: "conv3"
  param {
    lr_mult: 1
    decay_mult: 1
  }
  param {
    lr_mult: 2
    decay_mult: 0
  }
  convolution_param {
    num_output: 384
    pad: 1
    kernel_size: 3
    weight_filler {
      type: "gaussian"
      std: 0.01
    }
    bias_filler {
      type: "constant"
      value: 0
    }
  }
}
layer {
  name: "relu3"
  type: "ReLU"
  bottom: "conv3"
  top: "conv3"
}
layer {
  name: "conv4"
  type: "Convolution"
  bottom: "conv3"
  top: "conv4"
  param {
    lr_mult: 1
    decay_mult: 1
  }
  param {
    lr_mult: 2
    decay_mult: 0
  }
  convolution_param {
    num_output: 384
    pad: 1
    kernel_size: 3
    group: 2
    weight_filler {
      type: "gaussian"
      std: 0.01
    }
    bias_filler {
      type: "constant"
      value: 0.1
    }
  }
}
layer {
  name: "relu4"
  type: "ReLU"
  bottom: "conv4"
  top: "conv4"
}
layer {
  name: "conv5"
  type: "Convolution"
  bottom: "conv4"
  top: "conv5"
  param {
    lr_mult: 1
    decay_mult: 1
  }
  param {
    lr_mult: 2
    decay_mult: 0
  }
  convolution_param {
    num_output: 256
    pad: 1
    kernel_size: 3
    group: 2
    weight_filler {
      type: "gaussian"
      std: 0.01
    }
    bias_filler {
      type: "constant"
      value: 0.1
    }
  }
}
layer {
  name: "relu5"
  type: "ReLU"
  bottom: "conv5"
  top: "conv5"
}
layer {
  name: "pool5"
  type: "Pooling"
  bottom: "conv5"
  top: "pool5"
  pooling_param {
    pool: MAX
    kernel_size: 3
    stride: 2
  }
}
layer {
  name: "fc6"
  type: "InnerProduct"
  bottom: "pool5"
  top: "fc6"
  param {
    lr_mult: 1
    decay_mult: 1
  }
  param {
    lr_mult: 2
    decay_mult: 0
  }
  inner_product_param {
    num_output: 4096
    weight_filler {
      type: "gaussian"
      std: 0.005
    }
    bias_filler {
      type: "constant"
      value: 0.1
    }
  }
}
layer {
  name: "relu6"
  type: "ReLU"
  bottom: "fc6"
  top: "fc6"
}
layer {
  name: "drop6"
  type: "Dropout"
  bottom: "fc6"
  top: "fc6"
  dropout_param {
    dropout_ratio: 0.5
  }
}
layer {
  name: "fc7"
  type: "InnerProduct"
  bottom: "fc6"
  top: "fc7"
  param {
    lr_mult: 1
    decay_mult: 1
  }
  param {
    lr_mult: 2
    decay_mult: 0
  }
  inner_product_param {
    num_output: 4096
    weight_filler {
      type: "gaussian"
      std: 0.005
    }
    bias_filler {
      type: "constant"
      value: 0.1
    }
  }
}
layer {
  name: "relu7"
  type: "ReLU"
  bottom: "fc7"
  top: "fc7"
}
layer {
  name: "drop7"
  type: "Dropout"
  bottom: "fc7"
  top: "fc7"
  dropout_param {
    dropout_ratio: 0.5
  }
}
layer {
  name: "fc8"
  type: "InnerProduct"
  bottom: "fc7"
  top: "fc8"
  param {
    lr_mult: 1
    decay_mult: 1
  }
  param {
    lr_mult: 2
    decay_mult: 0
  }
  inner_product_param {
    num_output: 1000
    weight_filler {
      type: "gaussian"
      std: 0.01
    }
    bias_filler {
      type: "constant"
      value: 0
    }
  }
}
layer {
  name: "fc8_fc8_0_split"
  type: "Split"
  bottom: "fc8"
  top: "fc8_fc8_0_split_0"
  top: "fc8_fc8_0_split_1"
}
layer {
  name: "accuracy"
  type: "Accuracy"
  bottom: "fc8_fc8_0_split_0"
  bottom: "label_data_1_split_0"
  top: "accuracy"
  include {
    phase: TEST
  }
}
layer {
  name: "loss"
  type: "SoftmaxWithLoss"
  bottom: "fc8_fc8_0_split_1"
  bottom: "label_data_1_split_1"
  top: "loss"
}
I0117 12:38:50.240324 12152 net.cpp:154] Setting up Layer of device :0 @cpu 0 Layer : data
I0117 12:38:50.240336 12152 layer_factory.hpp:114] Creating layer data
I0117 12:38:50.240531 12152 net.cpp:169] Creating Layer data
I0117 12:38:50.240550 12152 net.cpp:579] data -> data
I0117 12:38:50.240561 12152 net.cpp:582] From AppendTop @cpu: 0
I0117 12:38:50.240579 12152 net.cpp:579] data -> label
I0117 12:38:50.240588 12152 net.cpp:582] From AppendTop @cpu: 0
I0117 12:38:50.240607 12152 data_transformer.cpp:62] Loading mean file from: /home/user/user/LIBRARIES/caffeLibs/caffe/data/ilsvrc12/imagenet_mean.binaryproto
I0117 12:38:50.248581 12160 db_lmdb.cpp:72] Opened lmdb /home/user/user/LIBRARIES/caffeLibs/caffe/examples/imagenet/ilsvrc12_val_lmdb
I0117 12:38:50.248631 12160 data_reader.cpp:128] inside DATAREADER 1
I0117 12:38:50.248644 12160 data_reader.cpp:139] NUMA DOMAIN 0
I0117 12:38:50.249133 12152 data_layer.cpp:80] output data size: 50,3,227,227
I0117 12:38:50.362617 12152 base_data_layer.cpp:96] Done cpu data
I0117 12:38:50.362699 12152 net.cpp:219] Setting up data
I0117 12:38:50.362725 12152 net.cpp:226] Top shape: 50 3 227 227 (7729350)
I0117 12:38:50.362738 12152 net.cpp:226] Top shape: 50 (50)
I0117 12:38:50.362767 12152 net.cpp:234] Memory required for data: 30917600
I0117 12:38:50.362794 12152 net.cpp:154] Setting up Layer of device :0 @cpu 0 Layer : label_data_1_split
I0117 12:38:50.362805 12152 layer_factory.hpp:114] Creating layer label_data_1_split
I0117 12:38:50.362839 12152 net.cpp:169] Creating Layer label_data_1_split
I0117 12:38:50.362850 12152 net.cpp:606] label_data_1_split <- label
I0117 12:38:50.362870 12152 net.cpp:579] label_data_1_split -> label_data_1_split_0
I0117 12:38:50.362879 12152 net.cpp:582] From AppendTop @cpu: 0
I0117 12:38:50.362903 12152 net.cpp:579] label_data_1_split -> label_data_1_split_1
I0117 12:38:50.362913 12152 net.cpp:582] From AppendTop @cpu: 0
I0117 12:38:50.362941 12152 net.cpp:219] Setting up label_data_1_split
I0117 12:38:50.362954 12152 net.cpp:226] Top shape: 50 (50)
I0117 12:38:50.362965 12152 net.cpp:226] Top shape: 50 (50)
I0117 12:38:50.362974 12152 net.cpp:234] Memory required for data: 30918000
I0117 12:38:50.362985 12152 net.cpp:154] Setting up Layer of device :0 @cpu 0 Layer : conv1
I0117 12:38:50.362994 12152 layer_factory.hpp:114] Creating layer conv1
I0117 12:38:50.363025 12152 net.cpp:169] Creating Layer conv1
I0117 12:38:50.363034 12152 net.cpp:606] conv1 <- data
I0117 12:38:50.363049 12152 net.cpp:579] conv1 -> conv1
I0117 12:38:50.363057 12152 net.cpp:582] From AppendTop @cpu: 0
I0117 12:38:50.393043 12152 net.cpp:219] Setting up conv1
I0117 12:38:50.393138 12152 net.cpp:226] Top shape: 50 96 55 55 (14520000)
I0117 12:38:50.393149 12152 net.cpp:234] Memory required for data: 88998000
I0117 12:38:50.393194 12152 net.cpp:154] Setting up Layer of device :0 @cpu 0 Layer : relu1
I0117 12:38:50.393249 12152 layer_factory.hpp:114] Creating layer relu1
I0117 12:38:50.393283 12152 net.cpp:169] Creating Layer relu1
I0117 12:38:50.393296 12152 net.cpp:606] relu1 <- conv1
I0117 12:38:50.393313 12152 net.cpp:566] relu1 -> conv1 (in-place)
I0117 12:38:50.393338 12152 net.cpp:219] Setting up relu1
I0117 12:38:50.393350 12152 net.cpp:226] Top shape: 50 96 55 55 (14520000)
I0117 12:38:50.393358 12152 net.cpp:234] Memory required for data: 147078000
I0117 12:38:50.393369 12152 net.cpp:154] Setting up Layer of device :0 @cpu 0 Layer : norm1
I0117 12:38:50.393378 12152 layer_factory.hpp:114] Creating layer norm1
I0117 12:38:50.393399 12152 net.cpp:169] Creating Layer norm1
I0117 12:38:50.393407 12152 net.cpp:606] norm1 <- conv1
I0117 12:38:50.393420 12152 net.cpp:579] norm1 -> norm1
I0117 12:38:50.393429 12152 net.cpp:582] From AppendTop @cpu: 0
I0117 12:38:50.393452 12152 net.cpp:219] Setting up norm1
I0117 12:38:50.393465 12152 net.cpp:226] Top shape: 50 96 55 55 (14520000)
I0117 12:38:50.393473 12152 net.cpp:234] Memory required for data: 205158000
I0117 12:38:50.393484 12152 net.cpp:154] Setting up Layer of device :0 @cpu 0 Layer : pool1
I0117 12:38:50.393493 12152 layer_factory.hpp:114] Creating layer pool1
I0117 12:38:50.393545 12152 net.cpp:169] Creating Layer pool1
I0117 12:38:50.393556 12152 net.cpp:606] pool1 <- norm1
I0117 12:38:50.393573 12152 net.cpp:579] pool1 -> pool1
I0117 12:38:50.393581 12152 net.cpp:582] From AppendTop @cpu: 0
I0117 12:38:50.393602 12152 net.cpp:219] Setting up pool1
I0117 12:38:50.393615 12152 net.cpp:226] Top shape: 50 96 27 27 (3499200)
I0117 12:38:50.393623 12152 net.cpp:234] Memory required for data: 219154800
I0117 12:38:50.393633 12152 net.cpp:154] Setting up Layer of device :0 @cpu 0 Layer : conv2
I0117 12:38:50.393642 12152 layer_factory.hpp:114] Creating layer conv2
I0117 12:38:50.393671 12152 net.cpp:169] Creating Layer conv2
I0117 12:38:50.393681 12152 net.cpp:606] conv2 <- pool1
I0117 12:38:50.393693 12152 net.cpp:579] conv2 -> conv2
I0117 12:38:50.393702 12152 net.cpp:582] From AppendTop @cpu: 0
I0117 12:38:50.450165 12152 net.cpp:219] Setting up conv2
I0117 12:38:50.450218 12152 net.cpp:226] Top shape: 50 256 27 27 (9331200)
I0117 12:38:50.450227 12152 net.cpp:234] Memory required for data: 256479600
I0117 12:38:50.450261 12152 net.cpp:154] Setting up Layer of device :0 @cpu 0 Layer : relu2
I0117 12:38:50.450276 12152 layer_factory.hpp:114] Creating layer relu2
I0117 12:38:50.450307 12152 net.cpp:169] Creating Layer relu2
I0117 12:38:50.450319 12152 net.cpp:606] relu2 <- conv2
I0117 12:38:50.450332 12152 net.cpp:566] relu2 -> conv2 (in-place)
I0117 12:38:50.450350 12152 net.cpp:219] Setting up relu2
I0117 12:38:50.450361 12152 net.cpp:226] Top shape: 50 256 27 27 (9331200)
I0117 12:38:50.450369 12152 net.cpp:234] Memory required for data: 293804400
I0117 12:38:50.450381 12152 net.cpp:154] Setting up Layer of device :0 @cpu 0 Layer : norm2
I0117 12:38:50.450388 12152 layer_factory.hpp:114] Creating layer norm2
I0117 12:38:50.450403 12152 net.cpp:169] Creating Layer norm2
I0117 12:38:50.450412 12152 net.cpp:606] norm2 <- conv2
I0117 12:38:50.450423 12152 net.cpp:579] norm2 -> norm2
I0117 12:38:50.450433 12152 net.cpp:582] From AppendTop @cpu: 0
I0117 12:38:50.450451 12152 net.cpp:219] Setting up norm2
I0117 12:38:50.450464 12152 net.cpp:226] Top shape: 50 256 27 27 (9331200)
I0117 12:38:50.450474 12152 net.cpp:234] Memory required for data: 331129200
I0117 12:38:50.450484 12152 net.cpp:154] Setting up Layer of device :0 @cpu 0 Layer : pool2
I0117 12:38:50.450494 12152 layer_factory.hpp:114] Creating layer pool2
I0117 12:38:50.450528 12152 net.cpp:169] Creating Layer pool2
I0117 12:38:50.450538 12152 net.cpp:606] pool2 <- norm2
I0117 12:38:50.450551 12152 net.cpp:579] pool2 -> pool2
I0117 12:38:50.450559 12152 net.cpp:582] From AppendTop @cpu: 0
I0117 12:38:50.450575 12152 net.cpp:219] Setting up pool2
I0117 12:38:50.450587 12152 net.cpp:226] Top shape: 50 256 13 13 (2163200)
I0117 12:38:50.450595 12152 net.cpp:234] Memory required for data: 339782000
I0117 12:38:50.450620 12152 net.cpp:154] Setting up Layer of device :0 @cpu 0 Layer : conv3
I0117 12:38:50.450630 12152 layer_factory.hpp:114] Creating layer conv3
I0117 12:38:50.450649 12152 net.cpp:169] Creating Layer conv3
I0117 12:38:50.450659 12152 net.cpp:606] conv3 <- pool2
I0117 12:38:50.450670 12152 net.cpp:579] conv3 -> conv3
I0117 12:38:50.450680 12152 net.cpp:582] From AppendTop @cpu: 0
I0117 12:38:50.545598 12152 net.cpp:219] Setting up conv3
I0117 12:38:50.545661 12152 net.cpp:226] Top shape: 50 384 13 13 (3244800)
I0117 12:38:50.545670 12152 net.cpp:234] Memory required for data: 352761200
I0117 12:38:50.545704 12152 net.cpp:154] Setting up Layer of device :0 @cpu 0 Layer : relu3
I0117 12:38:50.545714 12152 layer_factory.hpp:114] Creating layer relu3
I0117 12:38:50.545734 12152 net.cpp:169] Creating Layer relu3
I0117 12:38:50.545745 12152 net.cpp:606] relu3 <- conv3
I0117 12:38:50.545763 12152 net.cpp:566] relu3 -> conv3 (in-place)
I0117 12:38:50.545783 12152 net.cpp:219] Setting up relu3
I0117 12:38:50.545794 12152 net.cpp:226] Top shape: 50 384 13 13 (3244800)
I0117 12:38:50.545804 12152 net.cpp:234] Memory required for data: 365740400
I0117 12:38:50.545814 12152 net.cpp:154] Setting up Layer of device :0 @cpu 0 Layer : conv4
I0117 12:38:50.545822 12152 layer_factory.hpp:114] Creating layer conv4
I0117 12:38:50.545843 12152 net.cpp:169] Creating Layer conv4
I0117 12:38:50.545852 12152 net.cpp:606] conv4 <- conv3
I0117 12:38:50.545866 12152 net.cpp:579] conv4 -> conv4
I0117 12:38:50.545874 12152 net.cpp:582] From AppendTop @cpu: 0
I0117 12:38:50.621238 12152 net.cpp:219] Setting up conv4
I0117 12:38:50.621302 12152 net.cpp:226] Top shape: 50 384 13 13 (3244800)
I0117 12:38:50.621311 12152 net.cpp:234] Memory required for data: 378719600
I0117 12:38:50.621336 12152 net.cpp:154] Setting up Layer of device :0 @cpu 0 Layer : relu4
I0117 12:38:50.621345 12152 layer_factory.hpp:114] Creating layer relu4
I0117 12:38:50.621367 12152 net.cpp:169] Creating Layer relu4
I0117 12:38:50.621379 12152 net.cpp:606] relu4 <- conv4
I0117 12:38:50.621393 12152 net.cpp:566] relu4 -> conv4 (in-place)
I0117 12:38:50.621410 12152 net.cpp:219] Setting up relu4
I0117 12:38:50.621421 12152 net.cpp:226] Top shape: 50 384 13 13 (3244800)
I0117 12:38:50.621429 12152 net.cpp:234] Memory required for data: 391698800
I0117 12:38:50.621439 12152 net.cpp:154] Setting up Layer of device :0 @cpu 0 Layer : conv5
I0117 12:38:50.621466 12152 layer_factory.hpp:114] Creating layer conv5
I0117 12:38:50.621487 12152 net.cpp:169] Creating Layer conv5
I0117 12:38:50.621496 12152 net.cpp:606] conv5 <- conv4
I0117 12:38:50.621512 12152 net.cpp:579] conv5 -> conv5
I0117 12:38:50.621521 12152 net.cpp:582] From AppendTop @cpu: 0
I0117 12:38:50.675974 12152 net.cpp:219] Setting up conv5
I0117 12:38:50.676020 12152 net.cpp:226] Top shape: 50 256 13 13 (2163200)
I0117 12:38:50.676029 12152 net.cpp:234] Memory required for data: 400351600
I0117 12:38:50.676060 12152 net.cpp:154] Setting up Layer of device :0 @cpu 0 Layer : relu5
I0117 12:38:50.676070 12152 layer_factory.hpp:114] Creating layer relu5
I0117 12:38:50.676086 12152 net.cpp:169] Creating Layer relu5
I0117 12:38:50.676097 12152 net.cpp:606] relu5 <- conv5
I0117 12:38:50.676112 12152 net.cpp:566] relu5 -> conv5 (in-place)
I0117 12:38:50.676129 12152 net.cpp:219] Setting up relu5
I0117 12:38:50.676141 12152 net.cpp:226] Top shape: 50 256 13 13 (2163200)
I0117 12:38:50.676148 12152 net.cpp:234] Memory required for data: 409004400
I0117 12:38:50.676158 12152 net.cpp:154] Setting up Layer of device :0 @cpu 0 Layer : pool5
I0117 12:38:50.676167 12152 layer_factory.hpp:114] Creating layer pool5
I0117 12:38:50.676218 12152 net.cpp:169] Creating Layer pool5
I0117 12:38:50.676229 12152 net.cpp:606] pool5 <- conv5
I0117 12:38:50.676247 12152 net.cpp:579] pool5 -> pool5
I0117 12:38:50.676257 12152 net.cpp:582] From AppendTop @cpu: 0
I0117 12:38:50.676282 12152 net.cpp:219] Setting up pool5
I0117 12:38:50.676295 12152 net.cpp:226] Top shape: 50 256 6 6 (460800)
I0117 12:38:50.676328 12152 net.cpp:234] Memory required for data: 410847600
I0117 12:38:50.676339 12152 net.cpp:154] Setting up Layer of device :0 @cpu 0 Layer : fc6
I0117 12:38:50.676347 12152 layer_factory.hpp:114] Creating layer fc6
I0117 12:38:50.676369 12152 net.cpp:169] Creating Layer fc6
I0117 12:38:50.676378 12152 net.cpp:606] fc6 <- pool5
I0117 12:38:50.676393 12152 net.cpp:579] fc6 -> fc6
I0117 12:38:50.676403 12152 net.cpp:582] From AppendTop @cpu: 0
I0117 12:38:53.832126 12152 net.cpp:219] Setting up fc6
I0117 12:38:53.832237 12152 net.cpp:226] Top shape: 50 4096 (204800)
I0117 12:38:53.832262 12152 net.cpp:234] Memory required for data: 411666800
I0117 12:38:53.832293 12152 net.cpp:154] Setting up Layer of device :0 @cpu 0 Layer : relu6
I0117 12:38:53.832304 12152 layer_factory.hpp:114] Creating layer relu6
I0117 12:38:53.832329 12152 net.cpp:169] Creating Layer relu6
I0117 12:38:53.832342 12152 net.cpp:606] relu6 <- fc6
I0117 12:38:53.832363 12152 net.cpp:566] relu6 -> fc6 (in-place)
I0117 12:38:53.832386 12152 net.cpp:219] Setting up relu6
I0117 12:38:53.832397 12152 net.cpp:226] Top shape: 50 4096 (204800)
I0117 12:38:53.832406 12152 net.cpp:234] Memory required for data: 412486000
I0117 12:38:53.832417 12152 net.cpp:154] Setting up Layer of device :0 @cpu 0 Layer : drop6
I0117 12:38:53.832427 12152 layer_factory.hpp:114] Creating layer drop6
I0117 12:38:53.832443 12152 net.cpp:169] Creating Layer drop6
I0117 12:38:53.832453 12152 net.cpp:606] drop6 <- fc6
I0117 12:38:53.832464 12152 net.cpp:566] drop6 -> fc6 (in-place)
I0117 12:38:53.832480 12152 net.cpp:219] Setting up drop6
I0117 12:38:53.832491 12152 net.cpp:226] Top shape: 50 4096 (204800)
I0117 12:38:53.832499 12152 net.cpp:234] Memory required for data: 413305200
I0117 12:38:53.832510 12152 net.cpp:154] Setting up Layer of device :0 @cpu 0 Layer : fc7
I0117 12:38:53.832518 12152 layer_factory.hpp:114] Creating layer fc7
I0117 12:38:53.832540 12152 net.cpp:169] Creating Layer fc7
I0117 12:38:53.832550 12152 net.cpp:606] fc7 <- fc6
I0117 12:38:53.832566 12152 net.cpp:579] fc7 -> fc7
I0117 12:38:53.832639 12152 net.cpp:582] From AppendTop @cpu: 0
I0117 12:38:55.237380 12152 net.cpp:219] Setting up fc7
I0117 12:38:55.237469 12152 net.cpp:226] Top shape: 50 4096 (204800)
I0117 12:38:55.237479 12152 net.cpp:234] Memory required for data: 414124400
I0117 12:38:55.237509 12152 net.cpp:154] Setting up Layer of device :0 @cpu 0 Layer : relu7
I0117 12:38:55.237519 12152 layer_factory.hpp:114] Creating layer relu7
I0117 12:38:55.237565 12152 net.cpp:169] Creating Layer relu7
I0117 12:38:55.237578 12152 net.cpp:606] relu7 <- fc7
I0117 12:38:55.237596 12152 net.cpp:566] relu7 -> fc7 (in-place)
I0117 12:38:55.237617 12152 net.cpp:219] Setting up relu7
I0117 12:38:55.237629 12152 net.cpp:226] Top shape: 50 4096 (204800)
I0117 12:38:55.237637 12152 net.cpp:234] Memory required for data: 414943600
I0117 12:38:55.237648 12152 net.cpp:154] Setting up Layer of device :0 @cpu 0 Layer : drop7
I0117 12:38:55.237658 12152 layer_factory.hpp:114] Creating layer drop7
I0117 12:38:55.237682 12152 net.cpp:169] Creating Layer drop7
I0117 12:38:55.237692 12152 net.cpp:606] drop7 <- fc7
I0117 12:38:55.237704 12152 net.cpp:566] drop7 -> fc7 (in-place)
I0117 12:38:55.237720 12152 net.cpp:219] Setting up drop7
I0117 12:38:55.237730 12152 net.cpp:226] Top shape: 50 4096 (204800)
I0117 12:38:55.237738 12152 net.cpp:234] Memory required for data: 415762800
I0117 12:38:55.237749 12152 net.cpp:154] Setting up Layer of device :0 @cpu 0 Layer : fc8
I0117 12:38:55.237758 12152 layer_factory.hpp:114] Creating layer fc8
I0117 12:38:55.237779 12152 net.cpp:169] Creating Layer fc8
I0117 12:38:55.237788 12152 net.cpp:606] fc8 <- fc7
I0117 12:38:55.237802 12152 net.cpp:579] fc8 -> fc8
I0117 12:38:55.237813 12152 net.cpp:582] From AppendTop @cpu: 0
I0117 12:38:55.581874 12152 net.cpp:219] Setting up fc8
I0117 12:38:55.581966 12152 net.cpp:226] Top shape: 50 1000 (50000)
I0117 12:38:55.581976 12152 net.cpp:234] Memory required for data: 415962800
I0117 12:38:55.582005 12152 net.cpp:154] Setting up Layer of device :0 @cpu 0 Layer : fc8_fc8_0_split
I0117 12:38:55.582051 12152 layer_factory.hpp:114] Creating layer fc8_fc8_0_split
I0117 12:38:55.582077 12152 net.cpp:169] Creating Layer fc8_fc8_0_split
I0117 12:38:55.582089 12152 net.cpp:606] fc8_fc8_0_split <- fc8
I0117 12:38:55.582108 12152 net.cpp:579] fc8_fc8_0_split -> fc8_fc8_0_split_0
I0117 12:38:55.582118 12152 net.cpp:582] From AppendTop @cpu: 0
I0117 12:38:55.582139 12152 net.cpp:579] fc8_fc8_0_split -> fc8_fc8_0_split_1
I0117 12:38:55.582151 12152 net.cpp:582] From AppendTop @cpu: 0
I0117 12:38:55.582168 12152 net.cpp:219] Setting up fc8_fc8_0_split
I0117 12:38:55.582180 12152 net.cpp:226] Top shape: 50 1000 (50000)
I0117 12:38:55.582191 12152 net.cpp:226] Top shape: 50 1000 (50000)
I0117 12:38:55.582201 12152 net.cpp:234] Memory required for data: 416362800
I0117 12:38:55.582211 12152 net.cpp:154] Setting up Layer of device :0 @cpu 0 Layer : accuracy
I0117 12:38:55.582219 12152 layer_factory.hpp:114] Creating layer accuracy
I0117 12:38:55.582247 12152 net.cpp:169] Creating Layer accuracy
I0117 12:38:55.582258 12152 net.cpp:606] accuracy <- fc8_fc8_0_split_0
I0117 12:38:55.582269 12152 net.cpp:606] accuracy <- label_data_1_split_0
…
