…
I0117 11:43:36.553267 24526 net.cpp:493] The NetState phase (0) differed from the phase (1) specified by a rule in layer accuracy
I0117 11:43:36.555770 24526 net.cpp:125] Initializing net from parameters: 
name: "AlexNet"
state {
  phase: TRAIN
  level: 0
  stage: ""
}
layer {
  name: "data"
  type: "Data"
  top: "data"
  top: "label"
  include {
    phase: TRAIN
  }
  transform_param {
    mirror: true
    crop_size: 227
    mean_file: "/home/user/user/LIBRARIES/caffeLibs/caffe/data/ilsvrc12/imagenet_mean.binaryproto"
  }
  data_param {
    source: "/home/user/user/LIBRARIES/caffeLibs/caffe/examples/imagenet/ilsvrc12_train_lmdb"
    batch_size: 128
    backend: LMDB
  }
}
layer {
  name: "conv1"
  type: "Convolution"
  bottom: "data"
  top: "conv1"
  param {
    lr_mult: 1
    decay_mult: 1
  }
  param {
    lr_mult: 2
    decay_mult: 0
  }
  convolution_param {
    num_output: 96
    kernel_size: 11
    stride: 4
    weight_filler {
      type: "gaussian"
      std: 0.01
    }
    bias_filler {
      type: "constant"
      value: 0
    }
  }
}
layer {
  name: "relu1"
  type: "ReLU"
  bottom: "conv1"
  top: "conv1"
}
layer {
  name: "norm1"
  type: "LRN"
  bottom: "conv1"
  top: "norm1"
  lrn_param {
    local_size: 5
    alpha: 0.0001
    beta: 0.75
  }
}
layer {
  name: "pool1"
  type: "Pooling"
  bottom: "norm1"
  top: "pool1"
  pooling_param {
    pool: MAX
    kernel_size: 3
    stride: 2
  }
}
layer {
  name: "conv2"
  type: "Convolution"
  bottom: "pool1"
  top: "conv2"
  param {
    lr_mult: 1
    decay_mult: 1
  }
  param {
    lr_mult: 2
    decay_mult: 0
  }
  convolution_param {
    num_output: 256
    pad: 2
    kernel_size: 5
    group: 2
    weight_filler {
      type: "gaussian"
      std: 0.01
    }
    bias_filler {
      type: "constant"
      value: 0.1
    }
  }
}
layer {
  name: "relu2"
  type: "ReLU"
  bottom: "conv2"
  top: "conv2"
}
layer {
  name: "norm2"
  type: "LRN"
  bottom: "conv2"
  top: "norm2"
  lrn_param {
    local_size: 5
    alpha: 0.0001
    beta: 0.75
  }
}
layer {
  name: "pool2"
  type: "Pooling"
  bottom: "norm2"
  top: "pool2"
  pooling_param {
    pool: MAX
    kernel_size: 3
    stride: 2
  }
}
layer {
  name: "conv3"
  type: "Convolution"
  bottom: "pool2"
  top: "conv3"
  param {
    lr_mult: 1
    decay_mult: 1
  }
  param {
    lr_mult: 2
    decay_mult: 0
  }
  convolution_param {
    num_output: 384
    pad: 1
    kernel_size: 3
    weight_filler {
      type: "gaussian"
      std: 0.01
    }
    bias_filler {
      type: "constant"
      value: 0
    }
  }
}
layer {
  name: "relu3"
  type: "ReLU"
  bottom: "conv3"
  top: "conv3"
}
layer {
  name: "conv4"
  type: "Convolution"
  bottom: "conv3"
  top: "conv4"
  param {
    lr_mult: 1
    decay_mult: 1
  }
  param {
    lr_mult: 2
    decay_mult: 0
  }
  convolution_param {
    num_output: 384
    pad: 1
    kernel_size: 3
    group: 2
    weight_filler {
      type: "gaussian"
      std: 0.01
    }
    bias_filler {
      type: "constant"
      value: 0.1
    }
  }
}
layer {
  name: "relu4"
  type: "ReLU"
  bottom: "conv4"
  top: "conv4"
}
layer {
  name: "conv5"
  type: "Convolution"
  bottom: "conv4"
  top: "conv5"
  param {
    lr_mult: 1
    decay_mult: 1
  }
  param {
    lr_mult: 2
    decay_mult: 0
  }
  convolution_param {
    num_output: 256
    pad: 1
    kernel_size: 3
    group: 2
    weight_filler {
      type: "gaussian"
      std: 0.01
    }
    bias_filler {
      type: "constant"
      value: 0.1
    }
  }
}
layer {
  name: "relu5"
  type: "ReLU"
  bottom: "conv5"
  top: "conv5"
}
layer {
  name: "pool5"
  type: "Pooling"
  bottom: "conv5"
  top: "pool5"
  pooling_param {
    pool: MAX
    kernel_size: 3
    stride: 2
  }
}
layer {
  name: "fc6"
  type: "InnerProduct"
  bottom: "pool5"
  top: "fc6"
  param {
    lr_mult: 1
    decay_mult: 1
  }
  param {
    lr_mult: 2
    decay_mult: 0
  }
  inner_product_param {
    num_output: 4096
    weight_filler {
      type: "gaussian"
      std: 0.005
    }
    bias_filler {
      type: "constant"
      value: 0.1
    }
  }
}
layer {
  name: "relu6"
  type: "ReLU"
  bottom: "fc6"
  top: "fc6"
}
layer {
  name: "drop6"
  type: "Dropout"
  bottom: "fc6"
  top: "fc6"
  dropout_param {
    dropout_ratio: 0.5
  }
}
layer {
  name: "fc7"
  type: "InnerProduct"
  bottom: "fc6"
  top: "fc7"
  param {
    lr_mult: 1
    decay_mult: 1
  }
  param {
    lr_mult: 2
    decay_mult: 0
  }
  inner_product_param {
    num_output: 4096
    weight_filler {
      type: "gaussian"
      std: 0.005
    }
    bias_filler {
      type: "constant"
      value: 0.1
    }
  }
}
layer {
  name: "relu7"
  type: "ReLU"
  bottom: "fc7"
  top: "fc7"
}
layer {
  name: "drop7"
  type: "Dropout"
  bottom: "fc7"
  top: "fc7"
  dropout_param {
    dropout_ratio: 0.5
  }
}
layer {
  name: "fc8"
  type: "InnerProduct"
  bottom: "fc7"
  top: "fc8"
  param {
    lr_mult: 1
    decay_mult: 1
  }
  param {
    lr_mult: 2
    decay_mult: 0
  }
  inner_product_param {
    num_output: 1000
    weight_filler {
      type: "gaussian"
      std: 0.01
    }
    bias_filler {
      type: "constant"
      value: 0
    }
  }
}
layer {
  name: "loss"
  type: "SoftmaxWithLoss"
  bottom: "fc8"
  bottom: "label"
  top: "loss"
}
I0117 11:43:36.555896 24526 net.cpp:154] Setting up Layer of device :0 @cpu 5 Layer : data
I0117 11:43:36.555930 24526 layer_factory.hpp:114] Creating layer data
I0117 11:43:36.557710 24526 net.cpp:169] Creating Layer data
I0117 11:43:36.557763 24526 net.cpp:579] data -> data
I0117 11:43:36.557787 24526 net.cpp:582] From AppendTop @cpu: 5
I0117 11:43:36.557857 24526 net.cpp:579] data -> label
I0117 11:43:36.557898 24526 net.cpp:582] From AppendTop @cpu: 5
I0117 11:43:36.557955 24526 data_transformer.cpp:62] Loading mean file from: /home/user/user/LIBRARIES/caffeLibs/caffe/data/ilsvrc12/imagenet_mean.binaryproto
I0117 11:43:36.558182 24529 db_lmdb.cpp:72] Opened lmdb /home/user/user/LIBRARIES/caffeLibs/caffe/examples/imagenet/ilsvrc12_train_lmdb
I0117 11:43:36.558387 24529 data_reader.cpp:128] inside DATAREADER 2
I0117 11:43:36.558423 24529 data_reader.cpp:139] NUMA DOMAIN 0
I0117 11:43:36.559378 24529 data_reader.cpp:139] NUMA DOMAIN 0
I0117 11:43:36.604305 24526 data_layer.cpp:80] output data size: 128,3,227,227
I0117 11:43:36.778296 24526 base_data_layer.cpp:96] Done cpu data
I0117 11:43:36.778370 24526 net.cpp:219] Setting up data
I0117 11:43:36.778401 24526 net.cpp:226] Top shape: 128 3 227 227 (19787136)
I0117 11:43:36.778419 24526 net.cpp:226] Top shape: 128 (128)
I0117 11:43:36.778430 24526 net.cpp:234] Memory required for data: 79149056
I0117 11:43:36.778456 24526 net.cpp:154] Setting up Layer of device :0 @cpu 5 Layer : conv1
I0117 11:43:36.778470 24526 layer_factory.hpp:114] Creating layer conv1
I0117 11:43:36.778519 24526 net.cpp:169] Creating Layer conv1
I0117 11:43:36.778564 24526 net.cpp:606] conv1 <- data
I0117 11:43:36.778595 24526 net.cpp:579] conv1 -> conv1
I0117 11:43:36.778609 24526 net.cpp:582] From AppendTop @cpu: 5
OMP: Info #242: KMP_AFFINITY: pid 24526 thread 1 bound to OS proc set {0,1,2,3,4,5}
OMP: Info #242: KMP_AFFINITY: pid 24526 thread 2 bound to OS proc set {0,1,2,3,4,5}
OMP: Info #242: KMP_AFFINITY: pid 24526 thread 3 bound to OS proc set {0,1,2,3,4,5}
OMP: Info #242: KMP_AFFINITY: pid 24526 thread 5 bound to OS proc set {0,1,2,3,4,5}
OMP: Info #242: KMP_AFFINITY: pid 24526 thread 4 bound to OS proc set {0,1,2,3,4,5}
I0117 11:43:36.814453 24526 net.cpp:219] Setting up conv1
I0117 11:43:36.814540 24526 net.cpp:226] Top shape: 128 96 55 55 (37171200)
I0117 11:43:36.814563 24526 net.cpp:234] Memory required for data: 227833856
I0117 11:43:36.814645 24526 net.cpp:154] Setting up Layer of device :0 @cpu 0 Layer : relu1
I0117 11:43:36.814668 24526 layer_factory.hpp:114] Creating layer relu1
I0117 11:43:36.814708 24526 net.cpp:169] Creating Layer relu1
I0117 11:43:36.814733 24526 net.cpp:606] relu1 <- conv1
I0117 11:43:36.814761 24526 net.cpp:566] relu1 -> conv1 (in-place)
I0117 11:43:36.814805 24526 net.cpp:219] Setting up relu1
I0117 11:43:36.814833 24526 net.cpp:226] Top shape: 128 96 55 55 (37171200)
I0117 11:43:36.814853 24526 net.cpp:234] Memory required for data: 376518656
I0117 11:43:36.814878 24526 net.cpp:154] Setting up Layer of device :0 @cpu 0 Layer : norm1
I0117 11:43:36.814900 24526 layer_factory.hpp:114] Creating layer norm1
I0117 11:43:36.814936 24526 net.cpp:169] Creating Layer norm1
I0117 11:43:36.814970 24526 net.cpp:606] norm1 <- conv1
I0117 11:43:36.814998 24526 net.cpp:579] norm1 -> norm1
I0117 11:43:36.815019 24526 net.cpp:582] From AppendTop @cpu: 0
I0117 11:43:36.815066 24526 net.cpp:219] Setting up norm1
I0117 11:43:36.815095 24526 net.cpp:226] Top shape: 128 96 55 55 (37171200)
I0117 11:43:36.815115 24526 net.cpp:234] Memory required for data: 525203456
I0117 11:43:36.815140 24526 net.cpp:154] Setting up Layer of device :0 @cpu 0 Layer : pool1
I0117 11:43:36.815161 24526 layer_factory.hpp:114] Creating layer pool1
I0117 11:43:36.815302 24526 net.cpp:169] Creating Layer pool1
I0117 11:43:36.815332 24526 net.cpp:606] pool1 <- norm1
I0117 11:43:36.815359 24526 net.cpp:579] pool1 -> pool1
I0117 11:43:36.815381 24526 net.cpp:582] From AppendTop @cpu: 0
I0117 11:43:36.815431 24526 net.cpp:219] Setting up pool1
I0117 11:43:36.815464 24526 net.cpp:226] Top shape: 128 96 27 27 (8957952)
I0117 11:43:36.815485 24526 net.cpp:234] Memory required for data: 561035264
I0117 11:43:36.815508 24526 net.cpp:154] Setting up Layer of device :0 @cpu 0 Layer : conv2
I0117 11:43:36.815529 24526 layer_factory.hpp:114] Creating layer conv2
I0117 11:43:36.815572 24526 net.cpp:169] Creating Layer conv2
I0117 11:43:36.815593 24526 net.cpp:606] conv2 <- pool1
I0117 11:43:36.815630 24526 net.cpp:579] conv2 -> conv2
I0117 11:43:36.815677 24526 net.cpp:582] From AppendTop @cpu: 0
I0117 11:43:36.911506 24526 net.cpp:219] Setting up conv2
I0117 11:43:36.911566 24526 net.cpp:226] Top shape: 128 256 27 27 (23887872)
I0117 11:43:36.911579 24526 net.cpp:234] Memory required for data: 656586752
I0117 11:43:36.911618 24526 net.cpp:154] Setting up Layer of device :0 @cpu 0 Layer : relu2
I0117 11:43:36.911633 24526 layer_factory.hpp:114] Creating layer relu2
I0117 11:43:36.911655 24526 net.cpp:169] Creating Layer relu2
I0117 11:43:36.911670 24526 net.cpp:606] relu2 <- conv2
I0117 11:43:36.911689 24526 net.cpp:566] relu2 -> conv2 (in-place)
I0117 11:43:36.911715 24526 net.cpp:219] Setting up relu2
I0117 11:43:36.911731 24526 net.cpp:226] Top shape: 128 256 27 27 (23887872)
I0117 11:43:36.911743 24526 net.cpp:234] Memory required for data: 752138240
I0117 11:43:36.911758 24526 net.cpp:154] Setting up Layer of device :0 @cpu 0 Layer : norm2
I0117 11:43:36.911772 24526 layer_factory.hpp:114] Creating layer norm2
I0117 11:43:36.911797 24526 net.cpp:169] Creating Layer norm2
I0117 11:43:36.911810 24526 net.cpp:606] norm2 <- conv2
I0117 11:43:36.911828 24526 net.cpp:579] norm2 -> norm2
I0117 11:43:36.911840 24526 net.cpp:582] From AppendTop @cpu: 0
I0117 11:43:36.911866 24526 net.cpp:219] Setting up norm2
I0117 11:43:36.911883 24526 net.cpp:226] Top shape: 128 256 27 27 (23887872)
I0117 11:43:36.911895 24526 net.cpp:234] Memory required for data: 847689728
I0117 11:43:36.911909 24526 net.cpp:154] Setting up Layer of device :0 @cpu 0 Layer : pool2
I0117 11:43:36.911922 24526 layer_factory.hpp:114] Creating layer pool2
I0117 11:43:36.912017 24526 net.cpp:169] Creating Layer pool2
I0117 11:43:36.912034 24526 net.cpp:606] pool2 <- norm2
I0117 11:43:36.912055 24526 net.cpp:579] pool2 -> pool2
I0117 11:43:36.912068 24526 net.cpp:582] From AppendTop @cpu: 0
I0117 11:43:36.912091 24526 net.cpp:219] Setting up pool2
I0117 11:43:36.912108 24526 net.cpp:226] Top shape: 128 256 13 13 (5537792)
I0117 11:43:36.912122 24526 net.cpp:234] Memory required for data: 869840896
I0117 11:43:36.912137 24526 net.cpp:154] Setting up Layer of device :0 @cpu 0 Layer : conv3
I0117 11:43:36.912149 24526 layer_factory.hpp:114] Creating layer conv3
I0117 11:43:36.912180 24526 net.cpp:169] Creating Layer conv3
I0117 11:43:36.912194 24526 net.cpp:606] conv3 <- pool2
I0117 11:43:36.912217 24526 net.cpp:579] conv3 -> conv3
I0117 11:43:36.912230 24526 net.cpp:582] From AppendTop @cpu: 0
I0117 11:43:37.032372 24526 net.cpp:219] Setting up conv3
I0117 11:43:37.032429 24526 net.cpp:226] Top shape: 128 384 13 13 (8306688)
I0117 11:43:37.032439 24526 net.cpp:234] Memory required for data: 903067648
I0117 11:43:37.032469 24526 net.cpp:154] Setting up Layer of device :0 @cpu 0 Layer : relu3
I0117 11:43:37.032480 24526 layer_factory.hpp:114] Creating layer relu3
I0117 11:43:37.032505 24526 net.cpp:169] Creating Layer relu3
I0117 11:43:37.032516 24526 net.cpp:606] relu3 <- conv3
I0117 11:43:37.032533 24526 net.cpp:566] relu3 -> conv3 (in-place)
I0117 11:43:37.032552 24526 net.cpp:219] Setting up relu3
I0117 11:43:37.032564 24526 net.cpp:226] Top shape: 128 384 13 13 (8306688)
I0117 11:43:37.032572 24526 net.cpp:234] Memory required for data: 936294400
I0117 11:43:37.032582 24526 net.cpp:154] Setting up Layer of device :0 @cpu 0 Layer : conv4
I0117 11:43:37.032591 24526 layer_factory.hpp:114] Creating layer conv4
I0117 11:43:37.032611 24526 net.cpp:169] Creating Layer conv4
I0117 11:43:37.032620 24526 net.cpp:606] conv4 <- conv3
I0117 11:43:37.032636 24526 net.cpp:579] conv4 -> conv4
I0117 11:43:37.032646 24526 net.cpp:582] From AppendTop @cpu: 0
I0117 11:43:37.108096 24526 net.cpp:219] Setting up conv4
I0117 11:43:37.108147 24526 net.cpp:226] Top shape: 128 384 13 13 (8306688)
I0117 11:43:37.108156 24526 net.cpp:234] Memory required for data: 969521152
I0117 11:43:37.108182 24526 net.cpp:154] Setting up Layer of device :0 @cpu 0 Layer : relu4
I0117 11:43:37.108191 24526 layer_factory.hpp:114] Creating layer relu4
I0117 11:43:37.108209 24526 net.cpp:169] Creating Layer relu4
I0117 11:43:37.108237 24526 net.cpp:606] relu4 <- conv4
I0117 11:43:37.108263 24526 net.cpp:566] relu4 -> conv4 (in-place)
I0117 11:43:37.108280 24526 net.cpp:219] Setting up relu4
I0117 11:43:37.108292 24526 net.cpp:226] Top shape: 128 384 13 13 (8306688)
I0117 11:43:37.108300 24526 net.cpp:234] Memory required for data: 1002747904
I0117 11:43:37.108311 24526 net.cpp:154] Setting up Layer of device :0 @cpu 0 Layer : conv5
I0117 11:43:37.108320 24526 layer_factory.hpp:114] Creating layer conv5
I0117 11:43:37.108342 24526 net.cpp:169] Creating Layer conv5
I0117 11:43:37.108352 24526 net.cpp:606] conv5 <- conv4
I0117 11:43:37.108368 24526 net.cpp:579] conv5 -> conv5
I0117 11:43:37.108377 24526 net.cpp:582] From AppendTop @cpu: 0
I0117 11:43:37.161839 24526 net.cpp:219] Setting up conv5
I0117 11:43:37.161883 24526 net.cpp:226] Top shape: 128 256 13 13 (5537792)
I0117 11:43:37.161892 24526 net.cpp:234] Memory required for data: 1024899072
I0117 11:43:37.161923 24526 net.cpp:154] Setting up Layer of device :0 @cpu 0 Layer : relu5
I0117 11:43:37.161933 24526 layer_factory.hpp:114] Creating layer relu5
I0117 11:43:37.161953 24526 net.cpp:169] Creating Layer relu5
I0117 11:43:37.161964 24526 net.cpp:606] relu5 <- conv5
I0117 11:43:37.161976 24526 net.cpp:566] relu5 -> conv5 (in-place)
I0117 11:43:37.161993 24526 net.cpp:219] Setting up relu5
I0117 11:43:37.162004 24526 net.cpp:226] Top shape: 128 256 13 13 (5537792)
I0117 11:43:37.162012 24526 net.cpp:234] Memory required for data: 1047050240
I0117 11:43:37.162022 24526 net.cpp:154] Setting up Layer of device :0 @cpu 0 Layer : pool5
I0117 11:43:37.162055 24526 layer_factory.hpp:114] Creating layer pool5
I0117 11:43:37.162104 24526 net.cpp:169] Creating Layer pool5
I0117 11:43:37.162116 24526 net.cpp:606] pool5 <- conv5
I0117 11:43:37.162128 24526 net.cpp:579] pool5 -> pool5
I0117 11:43:37.162137 24526 net.cpp:582] From AppendTop @cpu: 0
I0117 11:43:37.162156 24526 net.cpp:219] Setting up pool5
I0117 11:43:37.162168 24526 net.cpp:226] Top shape: 128 256 6 6 (1179648)
I0117 11:43:37.162178 24526 net.cpp:234] Memory required for data: 1051768832
I0117 11:43:37.162187 24526 net.cpp:154] Setting up Layer of device :0 @cpu 0 Layer : fc6
I0117 11:43:37.162196 24526 layer_factory.hpp:114] Creating layer fc6
I0117 11:43:37.162222 24526 net.cpp:169] Creating Layer fc6
I0117 11:43:37.162232 24526 net.cpp:606] fc6 <- pool5
I0117 11:43:37.162252 24526 net.cpp:579] fc6 -> fc6
I0117 11:43:37.162263 24526 net.cpp:582] From AppendTop @cpu: 0
I0117 11:43:40.349941 24526 net.cpp:219] Setting up fc6
I0117 11:43:40.350030 24526 net.cpp:226] Top shape: 128 4096 (524288)
I0117 11:43:40.350040 24526 net.cpp:234] Memory required for data: 1053865984
I0117 11:43:40.350065 24526 net.cpp:154] Setting up Layer of device :0 @cpu 0 Layer : relu6
I0117 11:43:40.350075 24526 layer_factory.hpp:114] Creating layer relu6
I0117 11:43:40.350098 24526 net.cpp:169] Creating Layer relu6
I0117 11:43:40.350109 24526 net.cpp:606] relu6 <- fc6
I0117 11:43:40.350131 24526 net.cpp:566] relu6 -> fc6 (in-place)
I0117 11:43:40.350152 24526 net.cpp:219] Setting up relu6
I0117 11:43:40.350163 24526 net.cpp:226] Top shape: 128 4096 (524288)
I0117 11:43:40.350172 24526 net.cpp:234] Memory required for data: 1055963136
I0117 11:43:40.350181 24526 net.cpp:154] Setting up Layer of device :0 @cpu 0 Layer : drop6
I0117 11:43:40.350191 24526 layer_factory.hpp:114] Creating layer drop6
I0117 11:43:40.350210 24526 net.cpp:169] Creating Layer drop6
I0117 11:43:40.350219 24526 net.cpp:606] drop6 <- fc6
I0117 11:43:40.350237 24526 net.cpp:566] drop6 -> fc6 (in-place)
I0117 11:43:40.350266 24526 net.cpp:219] Setting up drop6
I0117 11:43:40.350278 24526 net.cpp:226] Top shape: 128 4096 (524288)
I0117 11:43:40.350287 24526 net.cpp:234] Memory required for data: 1058060288
I0117 11:43:40.350297 24526 net.cpp:154] Setting up Layer of device :0 @cpu 0 Layer : fc7
I0117 11:43:40.350306 24526 layer_factory.hpp:114] Creating layer fc7
I0117 11:43:40.350327 24526 net.cpp:169] Creating Layer fc7
I0117 11:43:40.350335 24526 net.cpp:606] fc7 <- fc6
I0117 11:43:40.350371 24526 net.cpp:579] fc7 -> fc7
I0117 11:43:40.350383 24526 net.cpp:582] From AppendTop @cpu: 0
I0117 11:43:41.780059 24526 net.cpp:219] Setting up fc7
I0117 11:43:41.780148 24526 net.cpp:226] Top shape: 128 4096 (524288)
I0117 11:43:41.780159 24526 net.cpp:234] Memory required for data: 1060157440
I0117 11:43:41.780186 24526 net.cpp:154] Setting up Layer of device :0 @cpu 0 Layer : relu7
I0117 11:43:41.780197 24526 layer_factory.hpp:114] Creating layer relu7
I0117 11:43:41.780220 24526 net.cpp:169] Creating Layer relu7
I0117 11:43:41.780233 24526 net.cpp:606] relu7 <- fc7
I0117 11:43:41.780264 24526 net.cpp:566] relu7 -> fc7 (in-place)
I0117 11:43:41.780287 24526 net.cpp:219] Setting up relu7
I0117 11:43:41.780300 24526 net.cpp:226] Top shape: 128 4096 (524288)
I0117 11:43:41.780309 24526 net.cpp:234] Memory required for data: 1062254592
I0117 11:43:41.780320 24526 net.cpp:154] Setting up Layer of device :0 @cpu 0 Layer : drop7
I0117 11:43:41.780330 24526 layer_factory.hpp:114] Creating layer drop7
I0117 11:43:41.780346 24526 net.cpp:169] Creating Layer drop7
I0117 11:43:41.780356 24526 net.cpp:606] drop7 <- fc7
I0117 11:43:41.780369 24526 net.cpp:566] drop7 -> fc7 (in-place)
I0117 11:43:41.780385 24526 net.cpp:219] Setting up drop7
I0117 11:43:41.780396 24526 net.cpp:226] Top shape: 128 4096 (524288)
I0117 11:43:41.780405 24526 net.cpp:234] Memory required for data: 1064351744
I0117 11:43:41.780416 24526 net.cpp:154] Setting up Layer of device :0 @cpu 0 Layer : fc8
I0117 11:43:41.780426 24526 layer_factory.hpp:114] Creating layer fc8
I0117 11:43:41.780475 24526 net.cpp:169] Creating Layer fc8
I0117 11:43:41.780485 24526 net.cpp:606] fc8 <- fc7
I0117 11:43:41.780511 24526 net.cpp:579] fc8 -> fc8
I0117 11:43:41.780521 24526 net.cpp:582] From AppendTop @cpu: 0
I0117 11:43:42.126422 24526 net.cpp:219] Setting up fc8
I0117 11:43:42.126507 24526 net.cpp:226] Top shape: 128 1000 (128000)
I0117 11:43:42.126518 24526 net.cpp:234] Memory required for data: 1064863744
I0117 11:43:42.126546 24526 net.cpp:154] Setting up Layer of device :0 @cpu 0 Layer : loss
I0117 11:43:42.126557 24526 layer_factory.hpp:114] Creating layer loss
I0117 11:43:42.126586 24526 net.cpp:169] Creating Layer loss
I0117 11:43:42.126600 24526 net.cpp:606] loss <- fc8
I0117 11:43:42.126616 24526 net.cpp:606] loss <- label
…
I0117 11:43:42.129670 24526 net.cpp:493] The NetState phase (1) differed from the phase (0) specified by a rule in layer data
I0117 11:43:42.130944 24526 net.cpp:125] Initializing net from parameters: 
name: "AlexNet"
state {
  phase: TEST
}
layer {
  name: "data"
  type: "Data"
  top: "data"
  top: "label"
  include {
    phase: TEST
  }
  transform_param {
    mirror: false
    crop_size: 227
    mean_file: "/home/user/user/LIBRARIES/caffeLibs/caffe/data/ilsvrc12/imagenet_mean.binaryproto"
  }
  data_param {
    source: "/home/user/user/LIBRARIES/caffeLibs/caffe/examples/imagenet/ilsvrc12_val_lmdb"
    batch_size: 50
    backend: LMDB
  }
}
layer {
  name: "label_data_1_split"
  type: "Split"
  bottom: "label"
  top: "label_data_1_split_0"
  top: "label_data_1_split_1"
}
layer {
  name: "conv1"
  type: "Convolution"
  bottom: "data"
  top: "conv1"
  param {
    lr_mult: 1
    decay_mult: 1
  }
  param {
    lr_mult: 2
    decay_mult: 0
  }
  convolution_param {
    num_output: 96
    kernel_size: 11
    stride: 4
    weight_filler {
      type: "gaussian"
      std: 0.01
    }
    bias_filler {
      type: "constant"
      value: 0
    }
  }
}
layer {
  name: "relu1"
  type: "ReLU"
  bottom: "conv1"
  top: "conv1"
}
layer {
  name: "norm1"
  type: "LRN"
  bottom: "conv1"
  top: "norm1"
  lrn_param {
    local_size: 5
    alpha: 0.0001
    beta: 0.75
  }
}
layer {
  name: "pool1"
  type: "Pooling"
  bottom: "norm1"
  top: "pool1"
  pooling_param {
    pool: MAX
    kernel_size: 3
    stride: 2
  }
}
layer {
  name: "conv2"
  type: "Convolution"
  bottom: "pool1"
  top: "conv2"
  param {
    lr_mult: 1
    decay_mult: 1
  }
  param {
    lr_mult: 2
    decay_mult: 0
  }
  convolution_param {
    num_output: 256
    pad: 2
    kernel_size: 5
    group: 2
    weight_filler {
      type: "gaussian"
      std: 0.01
    }
    bias_filler {
      type: "constant"
      value: 0.1
    }
  }
}
layer {
  name: "relu2"
  type: "ReLU"
  bottom: "conv2"
  top: "conv2"
}
layer {
  name: "norm2"
  type: "LRN"
  bottom: "conv2"
  top: "norm2"
  lrn_param {
    local_size: 5
    alpha: 0.0001
    beta: 0.75
  }
}
layer {
  name: "pool2"
  type: "Pooling"
  bottom: "norm2"
  top: "pool2"
  pooling_param {
    pool: MAX
    kernel_size: 3
    stride: 2
  }
}
layer {
  name: "conv3"
  type: "Convolution"
  bottom: "pool2"
  top: "conv3"
  param {
    lr_mult: 1
    decay_mult: 1
  }
  param {
    lr_mult: 2
    decay_mult: 0
  }
  convolution_param {
    num_output: 384
    pad: 1
    kernel_size: 3
    weight_filler {
      type: "gaussian"
      std: 0.01
    }
    bias_filler {
      type: "constant"
      value: 0
    }
  }
}
layer {
  name: "relu3"
  type: "ReLU"
  bottom: "conv3"
  top: "conv3"
}
layer {
  name: "conv4"
  type: "Convolution"
  bottom: "conv3"
  top: "conv4"
  param {
    lr_mult: 1
    decay_mult: 1
  }
  param {
    lr_mult: 2
    decay_mult: 0
  }
  convolution_param {
    num_output: 384
    pad: 1
    kernel_size: 3
    group: 2
    weight_filler {
      type: "gaussian"
      std: 0.01
    }
    bias_filler {
      type: "constant"
      value: 0.1
    }
  }
}
layer {
  name: "relu4"
  type: "ReLU"
  bottom: "conv4"
  top: "conv4"
}
layer {
  name: "conv5"
  type: "Convolution"
  bottom: "conv4"
  top: "conv5"
  param {
    lr_mult: 1
    decay_mult: 1
  }
  param {
    lr_mult: 2
    decay_mult: 0
  }
  convolution_param {
    num_output: 256
    pad: 1
    kernel_size: 3
    group: 2
    weight_filler {
      type: "gaussian"
      std: 0.01
    }
    bias_filler {
      type: "constant"
      value: 0.1
    }
  }
}
layer {
  name: "relu5"
  type: "ReLU"
  bottom: "conv5"
  top: "conv5"
}
layer {
  name: "pool5"
  type: "Pooling"
  bottom: "conv5"
  top: "pool5"
  pooling_param {
    pool: MAX
    kernel_size: 3
    stride: 2
  }
}
layer {
  name: "fc6"
  type: "InnerProduct"
  bottom: "pool5"
  top: "fc6"
  param {
    lr_mult: 1
    decay_mult: 1
  }
  param {
    lr_mult: 2
    decay_mult: 0
  }
  inner_product_param {
    num_output: 4096
    weight_filler {
      type: "gaussian"
      std: 0.005
    }
    bias_filler {
      type: "constant"
      value: 0.1
    }
  }
}
layer {
  name: "relu6"
  type: "ReLU"
  bottom: "fc6"
  top: "fc6"
}
layer {
  name: "drop6"
  type: "Dropout"
  bottom: "fc6"
  top: "fc6"
  dropout_param {
    dropout_ratio: 0.5
  }
}
layer {
  name: "fc7"
  type: "InnerProduct"
  bottom: "fc6"
  top: "fc7"
  param {
    lr_mult: 1
    decay_mult: 1
  }
  param {
    lr_mult: 2
    decay_mult: 0
  }
  inner_product_param {
    num_output: 4096
    weight_filler {
      type: "gaussian"
      std: 0.005
    }
    bias_filler {
      type: "constant"
      value: 0.1
    }
  }
}
layer {
  name: "relu7"
  type: "ReLU"
  bottom: "fc7"
  top: "fc7"
}
layer {
  name: "drop7"
  type: "Dropout"
  bottom: "fc7"
  top: "fc7"
  dropout_param {
    dropout_ratio: 0.5
  }
}
layer {
  name: "fc8"
  type: "InnerProduct"
  bottom: "fc7"
  top: "fc8"
  param {
    lr_mult: 1
    decay_mult: 1
  }
  param {
    lr_mult: 2
    decay_mult: 0
  }
  inner_product_param {
    num_output: 1000
    weight_filler {
      type: "gaussian"
      std: 0.01
    }
    bias_filler {
      type: "constant"
      value: 0
    }
  }
}
layer {
  name: "fc8_fc8_0_split"
  type: "Split"
  bottom: "fc8"
  top: "fc8_fc8_0_split_0"
  top: "fc8_fc8_0_split_1"
}
layer {
  name: "accuracy"
  type: "Accuracy"
  bottom: "fc8_fc8_0_split_0"
  bottom: "label_data_1_split_0"
  top: "accuracy"
  include {
    phase: TEST
  }
}
layer {
  name: "loss"
  type: "SoftmaxWithLoss"
  bottom: "fc8_fc8_0_split_1"
  bottom: "label_data_1_split_1"
  top: "loss"
}
I0117 11:43:42.131011 24526 net.cpp:154] Setting up Layer of device :0 @cpu 0 Layer : data
I0117 11:43:42.131021 24526 layer_factory.hpp:114] Creating layer data
I0117 11:43:42.131829 24526 net.cpp:169] Creating Layer data
I0117 11:43:42.131861 24526 net.cpp:579] data -> data
I0117 11:43:42.131870 24526 net.cpp:582] From AppendTop @cpu: 0
I0117 11:43:42.131893 24526 net.cpp:579] data -> label
I0117 11:43:42.131903 24526 net.cpp:582] From AppendTop @cpu: 0
I0117 11:43:42.131920 24526 data_transformer.cpp:62] Loading mean file from: /home/user/user/LIBRARIES/caffeLibs/caffe/data/ilsvrc12/imagenet_mean.binaryproto
I0117 11:43:42.139842 24536 db_lmdb.cpp:72] Opened lmdb /home/user/user/LIBRARIES/caffeLibs/caffe/examples/imagenet/ilsvrc12_val_lmdb
I0117 11:43:42.139891 24536 data_reader.cpp:128] inside DATAREADER 1
I0117 11:43:42.139904 24536 data_reader.cpp:139] NUMA DOMAIN 0
I0117 11:43:42.140394 24526 data_layer.cpp:80] output data size: 50,3,227,227
I0117 11:43:42.256714 24526 base_data_layer.cpp:96] Done cpu data
I0117 11:43:42.256789 24526 net.cpp:219] Setting up data
I0117 11:43:42.256814 24526 net.cpp:226] Top shape: 50 3 227 227 (7729350)
I0117 11:43:42.256846 24526 net.cpp:226] Top shape: 50 (50)
I0117 11:43:42.256856 24526 net.cpp:234] Memory required for data: 30917600
I0117 11:43:42.256880 24526 net.cpp:154] Setting up Layer of device :0 @cpu 0 Layer : label_data_1_split
I0117 11:43:42.256891 24526 layer_factory.hpp:114] Creating layer label_data_1_split
I0117 11:43:42.256919 24526 net.cpp:169] Creating Layer label_data_1_split
I0117 11:43:42.256930 24526 net.cpp:606] label_data_1_split <- label
I0117 11:43:42.256949 24526 net.cpp:579] label_data_1_split -> label_data_1_split_0
I0117 11:43:42.256958 24526 net.cpp:582] From AppendTop @cpu: 0
I0117 11:43:42.256981 24526 net.cpp:579] label_data_1_split -> label_data_1_split_1
I0117 11:43:42.256990 24526 net.cpp:582] From AppendTop @cpu: 0
I0117 11:43:42.257015 24526 net.cpp:219] Setting up label_data_1_split
I0117 11:43:42.257028 24526 net.cpp:226] Top shape: 50 (50)
I0117 11:43:42.257040 24526 net.cpp:226] Top shape: 50 (50)
I0117 11:43:42.257048 24526 net.cpp:234] Memory required for data: 30918000
I0117 11:43:42.257060 24526 net.cpp:154] Setting up Layer of device :0 @cpu 0 Layer : conv1
I0117 11:43:42.257068 24526 layer_factory.hpp:114] Creating layer conv1
I0117 11:43:42.257094 24526 net.cpp:169] Creating Layer conv1
I0117 11:43:42.257104 24526 net.cpp:606] conv1 <- data
I0117 11:43:42.257117 24526 net.cpp:579] conv1 -> conv1
I0117 11:43:42.257127 24526 net.cpp:582] From AppendTop @cpu: 0
I0117 11:43:42.283123 24526 net.cpp:219] Setting up conv1
I0117 11:43:42.283201 24526 net.cpp:226] Top shape: 50 96 55 55 (14520000)
I0117 11:43:42.283211 24526 net.cpp:234] Memory required for data: 88998000
I0117 11:43:42.283316 24526 net.cpp:154] Setting up Layer of device :0 @cpu 0 Layer : relu1
I0117 11:43:42.283329 24526 layer_factory.hpp:114] Creating layer relu1
I0117 11:43:42.283352 24526 net.cpp:169] Creating Layer relu1
I0117 11:43:42.283365 24526 net.cpp:606] relu1 <- conv1
I0117 11:43:42.283380 24526 net.cpp:566] relu1 -> conv1 (in-place)
I0117 11:43:42.283401 24526 net.cpp:219] Setting up relu1
I0117 11:43:42.283413 24526 net.cpp:226] Top shape: 50 96 55 55 (14520000)
I0117 11:43:42.283422 24526 net.cpp:234] Memory required for data: 147078000
I0117 11:43:42.283432 24526 net.cpp:154] Setting up Layer of device :0 @cpu 0 Layer : norm1
I0117 11:43:42.283442 24526 layer_factory.hpp:114] Creating layer norm1
I0117 11:43:42.283459 24526 net.cpp:169] Creating Layer norm1
I0117 11:43:42.283468 24526 net.cpp:606] norm1 <- conv1
I0117 11:43:42.283483 24526 net.cpp:579] norm1 -> norm1
I0117 11:43:42.283491 24526 net.cpp:582] From AppendTop @cpu: 0
I0117 11:43:42.283512 24526 net.cpp:219] Setting up norm1
I0117 11:43:42.283525 24526 net.cpp:226] Top shape: 50 96 55 55 (14520000)
I0117 11:43:42.283535 24526 net.cpp:234] Memory required for data: 205158000
I0117 11:43:42.283545 24526 net.cpp:154] Setting up Layer of device :0 @cpu 0 Layer : pool1
I0117 11:43:42.283553 24526 layer_factory.hpp:114] Creating layer pool1
I0117 11:43:42.283605 24526 net.cpp:169] Creating Layer pool1
I0117 11:43:42.283617 24526 net.cpp:606] pool1 <- norm1
I0117 11:43:42.283628 24526 net.cpp:579] pool1 -> pool1
I0117 11:43:42.283638 24526 net.cpp:582] From AppendTop @cpu: 0
I0117 11:43:42.283656 24526 net.cpp:219] Setting up pool1
I0117 11:43:42.283669 24526 net.cpp:226] Top shape: 50 96 27 27 (3499200)
I0117 11:43:42.283677 24526 net.cpp:234] Memory required for data: 219154800
I0117 11:43:42.283689 24526 net.cpp:154] Setting up Layer of device :0 @cpu 0 Layer : conv2
I0117 11:43:42.283697 24526 layer_factory.hpp:114] Creating layer conv2
I0117 11:43:42.283721 24526 net.cpp:169] Creating Layer conv2
I0117 11:43:42.283730 24526 net.cpp:606] conv2 <- pool1
I0117 11:43:42.283742 24526 net.cpp:579] conv2 -> conv2
I0117 11:43:42.283752 24526 net.cpp:582] From AppendTop @cpu: 0
I0117 11:43:42.341068 24526 net.cpp:219] Setting up conv2
I0117 11:43:42.341123 24526 net.cpp:226] Top shape: 50 256 27 27 (9331200)
I0117 11:43:42.341132 24526 net.cpp:234] Memory required for data: 256479600
I0117 11:43:42.341163 24526 net.cpp:154] Setting up Layer of device :0 @cpu 0 Layer : relu2
I0117 11:43:42.341187 24526 layer_factory.hpp:114] Creating layer relu2
I0117 11:43:42.341207 24526 net.cpp:169] Creating Layer relu2
I0117 11:43:42.341217 24526 net.cpp:606] relu2 <- conv2
I0117 11:43:42.341230 24526 net.cpp:566] relu2 -> conv2 (in-place)
I0117 11:43:42.341253 24526 net.cpp:219] Setting up relu2
I0117 11:43:42.341267 24526 net.cpp:226] Top shape: 50 256 27 27 (9331200)
I0117 11:43:42.341280 24526 net.cpp:234] Memory required for data: 293804400
I0117 11:43:42.341291 24526 net.cpp:154] Setting up Layer of device :0 @cpu 0 Layer : norm2
I0117 11:43:42.341300 24526 layer_factory.hpp:114] Creating layer norm2
I0117 11:43:42.341316 24526 net.cpp:169] Creating Layer norm2
I0117 11:43:42.341325 24526 net.cpp:606] norm2 <- conv2
I0117 11:43:42.341337 24526 net.cpp:579] norm2 -> norm2
I0117 11:43:42.341346 24526 net.cpp:582] From AppendTop @cpu: 0
I0117 11:43:42.341367 24526 net.cpp:219] Setting up norm2
I0117 11:43:42.341379 24526 net.cpp:226] Top shape: 50 256 27 27 (9331200)
I0117 11:43:42.341388 24526 net.cpp:234] Memory required for data: 331129200
I0117 11:43:42.341398 24526 net.cpp:154] Setting up Layer of device :0 @cpu 0 Layer : pool2
I0117 11:43:42.341408 24526 layer_factory.hpp:114] Creating layer pool2
I0117 11:43:42.341446 24526 net.cpp:169] Creating Layer pool2
I0117 11:43:42.341456 24526 net.cpp:606] pool2 <- norm2
I0117 11:43:42.341469 24526 net.cpp:579] pool2 -> pool2
I0117 11:43:42.341476 24526 net.cpp:582] From AppendTop @cpu: 0
I0117 11:43:42.341493 24526 net.cpp:219] Setting up pool2
I0117 11:43:42.341506 24526 net.cpp:226] Top shape: 50 256 13 13 (2163200)
I0117 11:43:42.341528 24526 net.cpp:234] Memory required for data: 339782000
I0117 11:43:42.341538 24526 net.cpp:154] Setting up Layer of device :0 @cpu 0 Layer : conv3
I0117 11:43:42.341547 24526 layer_factory.hpp:114] Creating layer conv3
I0117 11:43:42.341567 24526 net.cpp:169] Creating Layer conv3
I0117 11:43:42.341576 24526 net.cpp:606] conv3 <- pool2
I0117 11:43:42.341589 24526 net.cpp:579] conv3 -> conv3
I0117 11:43:42.341598 24526 net.cpp:582] From AppendTop @cpu: 0
I0117 11:43:42.437038 24526 net.cpp:219] Setting up conv3
I0117 11:43:42.437103 24526 net.cpp:226] Top shape: 50 384 13 13 (3244800)
I0117 11:43:42.437111 24526 net.cpp:234] Memory required for data: 352761200
I0117 11:43:42.437144 24526 net.cpp:154] Setting up Layer of device :0 @cpu 0 Layer : relu3
I0117 11:43:42.437153 24526 layer_factory.hpp:114] Creating layer relu3
I0117 11:43:42.437172 24526 net.cpp:169] Creating Layer relu3
I0117 11:43:42.437183 24526 net.cpp:606] relu3 <- conv3
I0117 11:43:42.437198 24526 net.cpp:566] relu3 -> conv3 (in-place)
I0117 11:43:42.437217 24526 net.cpp:219] Setting up relu3
I0117 11:43:42.437228 24526 net.cpp:226] Top shape: 50 384 13 13 (3244800)
I0117 11:43:42.437237 24526 net.cpp:234] Memory required for data: 365740400
I0117 11:43:42.437252 24526 net.cpp:154] Setting up Layer of device :0 @cpu 0 Layer : conv4
I0117 11:43:42.437263 24526 layer_factory.hpp:114] Creating layer conv4
I0117 11:43:42.437289 24526 net.cpp:169] Creating Layer conv4
I0117 11:43:42.437299 24526 net.cpp:606] conv4 <- conv3
I0117 11:43:42.437314 24526 net.cpp:579] conv4 -> conv4
I0117 11:43:42.437321 24526 net.cpp:582] From AppendTop @cpu: 0
I0117 11:43:42.513880 24526 net.cpp:219] Setting up conv4
I0117 11:43:42.513938 24526 net.cpp:226] Top shape: 50 384 13 13 (3244800)
I0117 11:43:42.513947 24526 net.cpp:234] Memory required for data: 378719600
I0117 11:43:42.513973 24526 net.cpp:154] Setting up Layer of device :0 @cpu 0 Layer : relu4
I0117 11:43:42.513983 24526 layer_factory.hpp:114] Creating layer relu4
I0117 11:43:42.514001 24526 net.cpp:169] Creating Layer relu4
I0117 11:43:42.514013 24526 net.cpp:606] relu4 <- conv4
I0117 11:43:42.514029 24526 net.cpp:566] relu4 -> conv4 (in-place)
I0117 11:43:42.514047 24526 net.cpp:219] Setting up relu4
I0117 11:43:42.514060 24526 net.cpp:226] Top shape: 50 384 13 13 (3244800)
I0117 11:43:42.514067 24526 net.cpp:234] Memory required for data: 391698800
I0117 11:43:42.514077 24526 net.cpp:154] Setting up Layer of device :0 @cpu 0 Layer : conv5
I0117 11:43:42.514103 24526 layer_factory.hpp:114] Creating layer conv5
I0117 11:43:42.514123 24526 net.cpp:169] Creating Layer conv5
I0117 11:43:42.514132 24526 net.cpp:606] conv5 <- conv4
I0117 11:43:42.514145 24526 net.cpp:579] conv5 -> conv5
I0117 11:43:42.514154 24526 net.cpp:582] From AppendTop @cpu: 0
I0117 11:43:42.567809 24526 net.cpp:219] Setting up conv5
I0117 11:43:42.567857 24526 net.cpp:226] Top shape: 50 256 13 13 (2163200)
I0117 11:43:42.567867 24526 net.cpp:234] Memory required for data: 400351600
I0117 11:43:42.567898 24526 net.cpp:154] Setting up Layer of device :0 @cpu 0 Layer : relu5
I0117 11:43:42.567909 24526 layer_factory.hpp:114] Creating layer relu5
I0117 11:43:42.567927 24526 net.cpp:169] Creating Layer relu5
I0117 11:43:42.567939 24526 net.cpp:606] relu5 <- conv5
I0117 11:43:42.567951 24526 net.cpp:566] relu5 -> conv5 (in-place)
I0117 11:43:42.567970 24526 net.cpp:219] Setting up relu5
I0117 11:43:42.567981 24526 net.cpp:226] Top shape: 50 256 13 13 (2163200)
I0117 11:43:42.567989 24526 net.cpp:234] Memory required for data: 409004400
I0117 11:43:42.567999 24526 net.cpp:154] Setting up Layer of device :0 @cpu 0 Layer : pool5
I0117 11:43:42.568007 24526 layer_factory.hpp:114] Creating layer pool5
I0117 11:43:42.568058 24526 net.cpp:169] Creating Layer pool5
I0117 11:43:42.568068 24526 net.cpp:606] pool5 <- conv5
I0117 11:43:42.568084 24526 net.cpp:579] pool5 -> pool5
I0117 11:43:42.568092 24526 net.cpp:582] From AppendTop @cpu: 0
I0117 11:43:42.568114 24526 net.cpp:219] Setting up pool5
I0117 11:43:42.568147 24526 net.cpp:226] Top shape: 50 256 6 6 (460800)
I0117 11:43:42.568156 24526 net.cpp:234] Memory required for data: 410847600
I0117 11:43:42.568166 24526 net.cpp:154] Setting up Layer of device :0 @cpu 0 Layer : fc6
I0117 11:43:42.568176 24526 layer_factory.hpp:114] Creating layer fc6
I0117 11:43:42.568195 24526 net.cpp:169] Creating Layer fc6
I0117 11:43:42.568204 24526 net.cpp:606] fc6 <- pool5
I0117 11:43:42.568217 24526 net.cpp:579] fc6 -> fc6
I0117 11:43:42.568225 24526 net.cpp:582] From AppendTop @cpu: 0
I0117 11:43:45.747380 24526 net.cpp:219] Setting up fc6
I0117 11:43:45.747484 24526 net.cpp:226] Top shape: 50 4096 (204800)
I0117 11:43:45.796145 24526 net.cpp:234] Memory required for data: 411666800
I0117 11:43:45.796195 24526 net.cpp:154] Setting up Layer of device :0 @cpu 0 Layer : relu6
I0117 11:43:45.796205 24526 layer_factory.hpp:114] Creating layer relu6
I0117 11:43:45.796228 24526 net.cpp:169] Creating Layer relu6
I0117 11:43:45.796444 24526 net.cpp:606] relu6 <- fc6
I0117 11:43:45.796469 24526 net.cpp:566] relu6 -> fc6 (in-place)
I0117 11:43:45.796520 24526 net.cpp:219] Setting up relu6
I0117 11:43:45.796536 24526 net.cpp:226] Top shape: 50 4096 (204800)
I0117 11:43:45.796545 24526 net.cpp:234] Memory required for data: 412486000
I0117 11:43:45.796556 24526 net.cpp:154] Setting up Layer of device :0 @cpu 0 Layer : drop6
I0117 11:43:45.796566 24526 layer_factory.hpp:114] Creating layer drop6
I0117 11:43:45.796581 24526 net.cpp:169] Creating Layer drop6
I0117 11:43:45.796591 24526 net.cpp:606] drop6 <- fc6
I0117 11:43:45.796609 24526 net.cpp:566] drop6 -> fc6 (in-place)
I0117 11:43:45.796627 24526 net.cpp:219] Setting up drop6
I0117 11:43:45.796638 24526 net.cpp:226] Top shape: 50 4096 (204800)
I0117 11:43:45.796646 24526 net.cpp:234] Memory required for data: 413305200
I0117 11:43:45.796655 24526 net.cpp:154] Setting up Layer of device :0 @cpu 0 Layer : fc7
I0117 11:43:45.796664 24526 layer_factory.hpp:114] Creating layer fc7
I0117 11:43:45.796684 24526 net.cpp:169] Creating Layer fc7
I0117 11:43:45.796694 24526 net.cpp:606] fc7 <- fc6
I0117 11:43:45.796706 24526 net.cpp:579] fc7 -> fc7
I0117 11:43:45.796715 24526 net.cpp:582] From AppendTop @cpu: 0
I0117 11:43:47.207972 24526 net.cpp:219] Setting up fc7
I0117 11:43:47.208056 24526 net.cpp:226] Top shape: 50 4096 (204800)
I0117 11:43:47.208066 24526 net.cpp:234] Memory required for data: 414124400
I0117 11:43:47.208093 24526 net.cpp:154] Setting up Layer of device :0 @cpu 0 Layer : relu7
I0117 11:43:47.208125 24526 layer_factory.hpp:114] Creating layer relu7
I0117 11:43:47.208149 24526 net.cpp:169] Creating Layer relu7
I0117 11:43:47.208161 24526 net.cpp:606] relu7 <- fc7
I0117 11:43:47.208183 24526 net.cpp:566] relu7 -> fc7 (in-place)
I0117 11:43:47.208204 24526 net.cpp:219] Setting up relu7
I0117 11:43:47.208215 24526 net.cpp:226] Top shape: 50 4096 (204800)
I0117 11:43:47.208223 24526 net.cpp:234] Memory required for data: 414943600
I0117 11:43:47.208235 24526 net.cpp:154] Setting up Layer of device :0 @cpu 0 Layer : drop7
I0117 11:43:47.208248 24526 layer_factory.hpp:114] Creating layer drop7
I0117 11:43:47.208266 24526 net.cpp:169] Creating Layer drop7
I0117 11:43:47.208276 24526 net.cpp:606] drop7 <- fc7
I0117 11:43:47.208289 24526 net.cpp:566] drop7 -> fc7 (in-place)
I0117 11:43:47.208307 24526 net.cpp:219] Setting up drop7
I0117 11:43:47.208317 24526 net.cpp:226] Top shape: 50 4096 (204800)
I0117 11:43:47.208325 24526 net.cpp:234] Memory required for data: 415762800
I0117 11:43:47.208335 24526 net.cpp:154] Setting up Layer of device :0 @cpu 0 Layer : fc8
I0117 11:43:47.208344 24526 layer_factory.hpp:114] Creating layer fc8
I0117 11:43:47.208364 24526 net.cpp:169] Creating Layer fc8
I0117 11:43:47.208372 24526 net.cpp:606] fc8 <- fc7
I0117 11:43:47.208385 24526 net.cpp:579] fc8 -> fc8
I0117 11:43:47.208395 24526 net.cpp:582] From AppendTop @cpu: 0
I0117 11:43:47.553982 24526 net.cpp:219] Setting up fc8
I0117 11:43:47.554066 24526 net.cpp:226] Top shape: 50 1000 (50000)
I0117 11:43:47.554077 24526 net.cpp:234] Memory required for data: 415962800
I0117 11:43:47.554139 24526 net.cpp:154] Setting up Layer of device :0 @cpu 0 Layer : fc8_fc8_0_split
I0117 11:43:47.554150 24526 layer_factory.hpp:114] Creating layer fc8_fc8_0_split
I0117 11:43:47.554173 24526 net.cpp:169] Creating Layer fc8_fc8_0_split
I0117 11:43:47.554185 24526 net.cpp:606] fc8_fc8_0_split <- fc8
I0117 11:43:47.554208 24526 net.cpp:579] fc8_fc8_0_split -> fc8_fc8_0_split_0
I0117 11:43:47.554217 24526 net.cpp:582] From AppendTop @cpu: 0
I0117 11:43:47.554237 24526 net.cpp:579] fc8_fc8_0_split -> fc8_fc8_0_split_1
I0117 11:43:47.554253 24526 net.cpp:582] From AppendTop @cpu: 0
I0117 11:43:47.554270 24526 net.cpp:219] Setting up fc8_fc8_0_split
I0117 11:43:47.554282 24526 net.cpp:226] Top shape: 50 1000 (50000)
I0117 11:43:47.554293 24526 net.cpp:226] Top shape: 50 1000 (50000)
I0117 11:43:47.554301 24526 net.cpp:234] Memory required for data: 416362800
I0117 11:43:47.554312 24526 net.cpp:154] Setting up Layer of device :0 @cpu 0 Layer : accuracy
I0117 11:43:47.554322 24526 layer_factory.hpp:114] Creating layer accuracy
I0117 11:43:47.554340 24526 net.cpp:169] Creating Layer accuracy
I0117 11:43:47.554350 24526 net.cpp:606] accuracy <- fc8_fc8_0_split_0
I0117 11:43:47.554363 24526 net.cpp:606] accuracy <- label_data_1_split_0
…
