…
I0331 15:13:24.884451 10502 net.cpp:484] The NetState phase (0) differed from the phase (1) specified by a rule in layer accuracy
I0331 15:13:24.886519 10502 net.cpp:120] Initializing net from parameters: 
name: "CIFAR10_full"
state {
  phase: TRAIN
  level: 0
  stage: ""
}
layer {
  name: "cifar"
  type: "Data"
  top: "data"
  top: "label"
  include {
    phase: TRAIN
  }
  transform_param {
    mean_file: "examples/cifar10/mean.binaryproto"
  }
  data_param {
    source: "examples/cifar10/cifar10_train_lmdb"
    batch_size: 256
    backend: LMDB
    shuffle: true
  }
}
layer {
  name: "conv1"
  type: "Convolution"
  bottom: "data"
  top: "conv1"
  param {
    lr_mult: 1
  }
  param {
    lr_mult: 2
  }
  convolution_param {
    num_output: 32
    pad: 2
    kernel_size: 5
    stride: 1
    weight_filler {
      type: "gaussian"
      std: 0.0001
    }
    bias_filler {
      type: "constant"
    }
  }
}
layer {
  name: "pool1"
  type: "Pooling"
  bottom: "conv1"
  top: "pool1"
  pooling_param {
    pool: MAX
    kernel_size: 3
    stride: 2
  }
}
layer {
  name: "relu1"
  type: "ReLU"
  bottom: "pool1"
  top: "pool1"
}
layer {
  name: "norm1"
  type: "LRN"
  bottom: "pool1"
  top: "norm1"
  lrn_param {
    local_size: 3
    alpha: 5e-05
    beta: 0.75
    norm_region: WITHIN_CHANNEL
  }
}
layer {
  name: "conv2"
  type: "Convolution"
  bottom: "norm1"
  top: "conv2"
  param {
    lr_mult: 1
  }
  param {
    lr_mult: 2
  }
  convolution_param {
    num_output: 32
    pad: 2
    kernel_size: 5
    stride: 1
    weight_filler {
      type: "gaussian"
      std: 0.01
    }
    bias_filler {
      type: "constant"
    }
  }
}
layer {
  name: "relu2"
  type: "ReLU"
  bottom: "conv2"
  top: "conv2"
}
layer {
  name: "pool2"
  type: "Pooling"
  bottom: "conv2"
  top: "pool2"
  pooling_param {
    pool: AVE
    kernel_size: 3
    stride: 2
  }
}
layer {
  name: "norm2"
  type: "LRN"
  bottom: "pool2"
  top: "norm2"
  lrn_param {
    local_size: 3
    alpha: 5e-05
    beta: 0.75
    norm_region: WITHIN_CHANNEL
  }
}
layer {
  name: "conv3"
  type: "Convolution"
  bottom: "norm2"
  top: "conv3"
  convolution_param {
    num_output: 64
    pad: 2
    kernel_size: 5
    stride: 1
    weight_filler {
      type: "gaussian"
      std: 0.01
    }
    bias_filler {
      type: "constant"
    }
  }
}
layer {
  name: "relu3"
  type: "ReLU"
  bottom: "conv3"
  top: "conv3"
}
layer {
  name: "pool3"
  type: "Pooling"
  bottom: "conv3"
  top: "pool3"
  pooling_param {
    pool: AVE
    kernel_size: 3
    stride: 2
  }
}
layer {
  name: "ip1"
  type: "InnerProduct"
  bottom: "pool3"
  top: "ip1"
  param {
    lr_mult: 1
    decay_mult: 250
  }
  param {
    lr_mult: 2
    decay_mult: 0
  }
  inner_product_param {
    num_output: 10
    weight_filler {
      type: "gaussian"
      std: 0.01
    }
    bias_filler {
      type: "constant"
    }
  }
}
layer {
  name: "loss"
  type: "SoftmaxWithLoss"
  bottom: "ip1"
  bottom: "label"
  top: "loss"
}
I0331 15:13:24.886736 10502 layer_factory.hpp:114] Creating layer cifar
I0331 15:13:24.889276 10502 net.cpp:160] Creating Layer cifar
I0331 15:13:24.889372 10502 net.cpp:570] cifar -> data
I0331 15:13:24.889453 10502 net.cpp:570] cifar -> label
I0331 15:13:24.889518 10502 data_transformer.cpp:62] Loading mean file from: examples/cifar10/mean.binaryproto
I0331 15:13:24.921226 10503 db_lmdb.cpp:72] Opened lmdb examples/cifar10/cifar10_train_lmdb
I0331 15:13:24.953821 10503 data_reader.cpp:177] Shuffling data
I0331 15:13:25.037341 10502 data_layer.cpp:80] output data size: 256,3,32,32
I0331 15:13:25.041376 10502 net.cpp:210] Setting up cifar
I0331 15:13:25.041527 10502 net.cpp:217] Top shape: 256 3 32 32 (786432)
I0331 15:13:25.041594 10502 net.cpp:217] Top shape: 256 (256)
I0331 15:13:25.041632 10502 net.cpp:225] Memory required for data: 3146752
I0331 15:13:25.041679 10502 layer_factory.hpp:114] Creating layer conv1
I0331 15:13:25.041827 10502 net.cpp:160] Creating Layer conv1
I0331 15:13:25.041903 10502 net.cpp:596] conv1 <- data
I0331 15:13:25.041966 10502 net.cpp:570] conv1 -> conv1
I0331 15:13:25.050827 10502 net.cpp:210] Setting up conv1
I0331 15:13:25.050962 10502 net.cpp:217] Top shape: 256 32 32 32 (8388608)
I0331 15:13:25.051010 10502 net.cpp:225] Memory required for data: 36701184
I0331 15:13:25.051126 10502 layer_factory.hpp:114] Creating layer pool1
I0331 15:13:25.051359 10502 net.cpp:160] Creating Layer pool1
I0331 15:13:25.051440 10502 net.cpp:596] pool1 <- conv1
I0331 15:13:25.051502 10502 net.cpp:570] pool1 -> pool1
I0331 15:13:25.051604 10502 net.cpp:210] Setting up pool1
I0331 15:13:25.051681 10502 net.cpp:217] Top shape: 256 32 16 16 (2097152)
I0331 15:13:25.051731 10502 net.cpp:225] Memory required for data: 45089792
I0331 15:13:25.051822 10502 layer_factory.hpp:114] Creating layer relu1
I0331 15:13:25.051898 10502 net.cpp:160] Creating Layer relu1
I0331 15:13:25.051936 10502 net.cpp:596] relu1 <- pool1
I0331 15:13:25.051985 10502 net.cpp:557] relu1 -> pool1 (in-place)
I0331 15:13:25.052045 10502 net.cpp:210] Setting up relu1
I0331 15:13:25.052090 10502 net.cpp:217] Top shape: 256 32 16 16 (2097152)
I0331 15:13:25.052121 10502 net.cpp:225] Memory required for data: 53478400
I0331 15:13:25.052157 10502 layer_factory.hpp:114] Creating layer norm1
I0331 15:13:25.052217 10502 net.cpp:160] Creating Layer norm1
I0331 15:13:25.052253 10502 net.cpp:596] norm1 <- pool1
I0331 15:13:25.052299 10502 net.cpp:570] norm1 -> norm1
I0331 15:13:25.052533 10502 net.cpp:210] Setting up norm1
I0331 15:13:25.052609 10502 net.cpp:217] Top shape: 256 32 16 16 (2097152)
I0331 15:13:25.052642 10502 net.cpp:225] Memory required for data: 61867008
I0331 15:13:25.052680 10502 layer_factory.hpp:114] Creating layer conv2
I0331 15:13:25.052742 10502 net.cpp:160] Creating Layer conv2
I0331 15:13:25.052821 10502 net.cpp:596] conv2 <- norm1
I0331 15:13:25.052881 10502 net.cpp:570] conv2 -> conv2
I0331 15:13:25.078631 10502 net.cpp:210] Setting up conv2
I0331 15:13:25.078807 10502 net.cpp:217] Top shape: 256 32 16 16 (2097152)
I0331 15:13:25.078929 10502 net.cpp:225] Memory required for data: 70255616
I0331 15:13:25.079036 10502 layer_factory.hpp:114] Creating layer relu2
I0331 15:13:25.079113 10502 net.cpp:160] Creating Layer relu2
I0331 15:13:25.079161 10502 net.cpp:596] relu2 <- conv2
I0331 15:13:25.079216 10502 net.cpp:557] relu2 -> conv2 (in-place)
I0331 15:13:25.079278 10502 net.cpp:210] Setting up relu2
I0331 15:13:25.079327 10502 net.cpp:217] Top shape: 256 32 16 16 (2097152)
I0331 15:13:25.079363 10502 net.cpp:225] Memory required for data: 78644224
I0331 15:13:25.079401 10502 layer_factory.hpp:114] Creating layer pool2
I0331 15:13:25.079521 10502 net.cpp:160] Creating Layer pool2
I0331 15:13:25.079576 10502 net.cpp:596] pool2 <- conv2
I0331 15:13:25.079635 10502 net.cpp:570] pool2 -> pool2
I0331 15:13:25.079707 10502 net.cpp:210] Setting up pool2
I0331 15:13:25.079952 10502 net.cpp:217] Top shape: 256 32 8 8 (524288)
I0331 15:13:25.080003 10502 net.cpp:225] Memory required for data: 80741376
I0331 15:13:25.080047 10502 layer_factory.hpp:114] Creating layer norm2
I0331 15:13:25.080113 10502 net.cpp:160] Creating Layer norm2
I0331 15:13:25.080154 10502 net.cpp:596] norm2 <- pool2
I0331 15:13:25.080204 10502 net.cpp:570] norm2 -> norm2
I0331 15:13:25.080453 10502 net.cpp:210] Setting up norm2
I0331 15:13:25.080533 10502 net.cpp:217] Top shape: 256 32 8 8 (524288)
I0331 15:13:25.080564 10502 net.cpp:225] Memory required for data: 82838528
I0331 15:13:25.080602 10502 layer_factory.hpp:114] Creating layer conv3
I0331 15:13:25.080664 10502 net.cpp:160] Creating Layer conv3
I0331 15:13:25.080703 10502 net.cpp:596] conv3 <- norm2
I0331 15:13:25.080754 10502 net.cpp:570] conv3 -> conv3
I0331 15:13:25.096248 10502 net.cpp:210] Setting up conv3
I0331 15:13:25.096379 10502 net.cpp:217] Top shape: 256 64 8 8 (1048576)
I0331 15:13:25.096426 10502 net.cpp:225] Memory required for data: 87032832
I0331 15:13:25.096511 10502 layer_factory.hpp:114] Creating layer relu3
I0331 15:13:25.096580 10502 net.cpp:160] Creating Layer relu3
I0331 15:13:25.096623 10502 net.cpp:596] relu3 <- conv3
I0331 15:13:25.096673 10502 net.cpp:557] relu3 -> conv3 (in-place)
I0331 15:13:25.096729 10502 net.cpp:210] Setting up relu3
I0331 15:13:25.096818 10502 net.cpp:217] Top shape: 256 64 8 8 (1048576)
I0331 15:13:25.096864 10502 net.cpp:225] Memory required for data: 91227136
I0331 15:13:25.096904 10502 layer_factory.hpp:114] Creating layer pool3
I0331 15:13:25.097051 10502 net.cpp:160] Creating Layer pool3
I0331 15:13:25.097113 10502 net.cpp:596] pool3 <- conv3
I0331 15:13:25.097206 10502 net.cpp:570] pool3 -> pool3
I0331 15:13:25.097286 10502 net.cpp:210] Setting up pool3
I0331 15:13:25.097337 10502 net.cpp:217] Top shape: 256 64 4 4 (262144)
I0331 15:13:25.097368 10502 net.cpp:225] Memory required for data: 92275712
I0331 15:13:25.097406 10502 layer_factory.hpp:114] Creating layer ip1
I0331 15:13:25.097466 10502 net.cpp:160] Creating Layer ip1
I0331 15:13:25.097502 10502 net.cpp:596] ip1 <- pool3
I0331 15:13:25.097551 10502 net.cpp:570] ip1 -> ip1
I0331 15:13:25.098428 10502 net.cpp:210] Setting up ip1
I0331 15:13:25.098525 10502 net.cpp:217] Top shape: 256 10 (2560)
I0331 15:13:25.098557 10502 net.cpp:225] Memory required for data: 92285952
I0331 15:13:25.098616 10502 layer_factory.hpp:114] Creating layer loss
I0331 15:13:25.098703 10502 net.cpp:160] Creating Layer loss
I0331 15:13:25.098745 10502 net.cpp:596] loss <- ip1
I0331 15:13:25.098830 10502 net.cpp:596] loss <- label
I0331 15:13:25.098879 10502 net.cpp:570] loss -> loss
I0331 15:13:25.098964 10502 layer_factory.hpp:114] Creating layer loss
…
I0331 15:13:25.104975 10502 cpu_info.cpp:473] Number of OpenMP threads: 64
I0331 15:13:25.105149 10502 net.cpp:484] The NetState phase (1) differed from the phase (0) specified by a rule in layer cifar
I0331 15:13:25.107705 10502 net.cpp:120] Initializing net from parameters: 
name: "CIFAR10_full"
state {
  phase: TEST
}
layer {
  name: "cifar"
  type: "Data"
  top: "data"
  top: "label"
  include {
    phase: TEST
  }
  transform_param {
    mean_file: "examples/cifar10/mean.binaryproto"
  }
  data_param {
    source: "examples/cifar10/cifar10_test_lmdb"
    batch_size: 100
    backend: LMDB
  }
}
layer {
  name: "label_cifar_1_split"
  type: "Split"
  bottom: "label"
  top: "label_cifar_1_split_0"
  top: "label_cifar_1_split_1"
}
layer {
  name: "conv1"
  type: "Convolution"
  bottom: "data"
  top: "conv1"
  param {
    lr_mult: 1
  }
  param {
    lr_mult: 2
  }
  convolution_param {
    num_output: 32
    pad: 2
    kernel_size: 5
    stride: 1
    weight_filler {
      type: "gaussian"
      std: 0.0001
    }
    bias_filler {
      type: "constant"
    }
  }
}
layer {
  name: "pool1"
  type: "Pooling"
  bottom: "conv1"
  top: "pool1"
  pooling_param {
    pool: MAX
    kernel_size: 3
    stride: 2
  }
}
layer {
  name: "relu1"
  type: "ReLU"
  bottom: "pool1"
  top: "pool1"
}
layer {
  name: "norm1"
  type: "LRN"
  bottom: "pool1"
  top: "norm1"
  lrn_param {
    local_size: 3
    alpha: 5e-05
    beta: 0.75
    norm_region: WITHIN_CHANNEL
  }
}
layer {
  name: "conv2"
  type: "Convolution"
  bottom: "norm1"
  top: "conv2"
  param {
    lr_mult: 1
  }
  param {
    lr_mult: 2
  }
  convolution_param {
    num_output: 32
    pad: 2
    kernel_size: 5
    stride: 1
    weight_filler {
      type: "gaussian"
      std: 0.01
    }
    bias_filler {
      type: "constant"
    }
  }
}
layer {
  name: "relu2"
  type: "ReLU"
  bottom: "conv2"
  top: "conv2"
}
layer {
  name: "pool2"
  type: "Pooling"
  bottom: "conv2"
  top: "pool2"
  pooling_param {
    pool: AVE
    kernel_size: 3
    stride: 2
  }
}
layer {
  name: "norm2"
  type: "LRN"
  bottom: "pool2"
  top: "norm2"
  lrn_param {
    local_size: 3
    alpha: 5e-05
    beta: 0.75
    norm_region: WITHIN_CHANNEL
  }
}
layer {
  name: "conv3"
  type: "Convolution"
  bottom: "norm2"
  top: "conv3"
  convolution_param {
    num_output: 64
    pad: 2
    kernel_size: 5
    stride: 1
    weight_filler {
      type: "gaussian"
      std: 0.01
    }
    bias_filler {
      type: "constant"
    }
  }
}
layer {
  name: "relu3"
  type: "ReLU"
  bottom: "conv3"
  top: "conv3"
}
layer {
  name: "pool3"
  type: "Pooling"
  bottom: "conv3"
  top: "pool3"
  pooling_param {
    pool: AVE
    kernel_size: 3
    stride: 2
  }
}
layer {
  name: "ip1"
  type: "InnerProduct"
  bottom: "pool3"
  top: "ip1"
  param {
    lr_mult: 1
    decay_mult: 250
  }
  param {
    lr_mult: 2
    decay_mult: 0
  }
  inner_product_param {
    num_output: 10
    weight_filler {
      type: "gaussian"
      std: 0.01
    }
    bias_filler {
      type: "constant"
    }
  }
}
layer {
  name: "ip1_ip1_0_split"
  type: "Split"
  bottom: "ip1"
  top: "ip1_ip1_0_split_0"
  top: "ip1_ip1_0_split_1"
}
layer {
  name: "accuracy"
  type: "Accuracy"
  bottom: "ip1_ip1_0_split_0"
  bottom: "label_cifar_1_split_0"
  top: "accuracy"
  include {
    phase: TEST
  }
}
layer {
  name: "loss"
  type: "SoftmaxWithLoss"
  bottom: "ip1_ip1_0_split_1"
  bottom: "label_cifar_1_split_1"
  top: "loss"
}
I0331 15:13:25.108000 10502 layer_factory.hpp:114] Creating layer cifar
I0331 15:13:25.108579 10502 net.cpp:160] Creating Layer cifar
I0331 15:13:25.108688 10502 net.cpp:570] cifar -> data
I0331 15:13:25.108810 10502 net.cpp:570] cifar -> label
I0331 15:13:25.108891 10502 data_transformer.cpp:62] Loading mean file from: examples/cifar10/mean.binaryproto
I0331 15:13:25.117178 10504 db_lmdb.cpp:72] Opened lmdb examples/cifar10/cifar10_test_lmdb
I0331 15:13:25.118952 10502 data_layer.cpp:80] output data size: 100,3,32,32
I0331 15:13:25.120697 10502 net.cpp:210] Setting up cifar
I0331 15:13:25.120867 10502 net.cpp:217] Top shape: 100 3 32 32 (307200)
I0331 15:13:25.120914 10502 net.cpp:217] Top shape: 100 (100)
I0331 15:13:25.120950 10502 net.cpp:225] Memory required for data: 1229200
I0331 15:13:25.120997 10502 layer_factory.hpp:114] Creating layer label_cifar_1_split
I0331 15:13:25.121063 10502 net.cpp:160] Creating Layer label_cifar_1_split
I0331 15:13:25.121101 10502 net.cpp:596] label_cifar_1_split <- label
I0331 15:13:25.121148 10502 net.cpp:570] label_cifar_1_split -> label_cifar_1_split_0
I0331 15:13:25.121206 10502 net.cpp:570] label_cifar_1_split -> label_cifar_1_split_1
I0331 15:13:25.121258 10502 net.cpp:210] Setting up label_cifar_1_split
I0331 15:13:25.121299 10502 net.cpp:217] Top shape: 100 (100)
I0331 15:13:25.121337 10502 net.cpp:217] Top shape: 100 (100)
I0331 15:13:25.121369 10502 net.cpp:225] Memory required for data: 1230000
I0331 15:13:25.121402 10502 layer_factory.hpp:114] Creating layer conv1
I0331 15:13:25.121461 10502 net.cpp:160] Creating Layer conv1
I0331 15:13:25.121495 10502 net.cpp:596] conv1 <- data
I0331 15:13:25.121538 10502 net.cpp:570] conv1 -> conv1
I0331 15:13:25.130252 10502 net.cpp:210] Setting up conv1
I0331 15:13:25.130373 10502 net.cpp:217] Top shape: 100 32 32 32 (3276800)
I0331 15:13:25.130409 10502 net.cpp:225] Memory required for data: 14337200
I0331 15:13:25.130488 10502 layer_factory.hpp:114] Creating layer pool1
I0331 15:13:25.130614 10502 net.cpp:160] Creating Layer pool1
I0331 15:13:25.130655 10502 net.cpp:596] pool1 <- conv1
I0331 15:13:25.130712 10502 net.cpp:570] pool1 -> pool1
I0331 15:13:25.130810 10502 net.cpp:210] Setting up pool1
I0331 15:13:25.130854 10502 net.cpp:217] Top shape: 100 32 16 16 (819200)
I0331 15:13:25.130885 10502 net.cpp:225] Memory required for data: 17614000
I0331 15:13:25.130920 10502 layer_factory.hpp:114] Creating layer relu1
I0331 15:13:25.130964 10502 net.cpp:160] Creating Layer relu1
I0331 15:13:25.130997 10502 net.cpp:596] relu1 <- pool1
I0331 15:13:25.131036 10502 net.cpp:557] relu1 -> pool1 (in-place)
I0331 15:13:25.131079 10502 net.cpp:210] Setting up relu1
I0331 15:13:25.131119 10502 net.cpp:217] Top shape: 100 32 16 16 (819200)
I0331 15:13:25.131150 10502 net.cpp:225] Memory required for data: 20890800
I0331 15:13:25.131183 10502 layer_factory.hpp:114] Creating layer norm1
I0331 15:13:25.131237 10502 net.cpp:160] Creating Layer norm1
I0331 15:13:25.131270 10502 net.cpp:596] norm1 <- pool1
I0331 15:13:25.131310 10502 net.cpp:570] norm1 -> norm1
I0331 15:13:25.131485 10502 net.cpp:210] Setting up norm1
I0331 15:13:25.131531 10502 net.cpp:217] Top shape: 100 32 16 16 (819200)
I0331 15:13:25.131562 10502 net.cpp:225] Memory required for data: 24167600
I0331 15:13:25.131594 10502 layer_factory.hpp:114] Creating layer conv2
I0331 15:13:25.131649 10502 net.cpp:160] Creating Layer conv2
I0331 15:13:25.131682 10502 net.cpp:596] conv2 <- norm1
I0331 15:13:25.131736 10502 net.cpp:570] conv2 -> conv2
I0331 15:13:25.163403 10502 net.cpp:210] Setting up conv2
I0331 15:13:25.163525 10502 net.cpp:217] Top shape: 100 32 16 16 (819200)
I0331 15:13:25.163563 10502 net.cpp:225] Memory required for data: 27444400
I0331 15:13:25.163640 10502 layer_factory.hpp:114] Creating layer relu2
I0331 15:13:25.163697 10502 net.cpp:160] Creating Layer relu2
I0331 15:13:25.163734 10502 net.cpp:596] relu2 <- conv2
I0331 15:13:25.163933 10502 net.cpp:557] relu2 -> conv2 (in-place)
I0331 15:13:25.164005 10502 net.cpp:210] Setting up relu2
I0331 15:13:25.164054 10502 net.cpp:217] Top shape: 100 32 16 16 (819200)
I0331 15:13:25.164086 10502 net.cpp:225] Memory required for data: 30721200
I0331 15:13:25.164122 10502 layer_factory.hpp:114] Creating layer pool2
I0331 15:13:25.164259 10502 net.cpp:160] Creating Layer pool2
I0331 15:13:25.164304 10502 net.cpp:596] pool2 <- conv2
I0331 15:13:25.164350 10502 net.cpp:570] pool2 -> pool2
I0331 15:13:25.164413 10502 net.cpp:210] Setting up pool2
I0331 15:13:25.164459 10502 net.cpp:217] Top shape: 100 32 8 8 (204800)
I0331 15:13:25.164490 10502 net.cpp:225] Memory required for data: 31540400
I0331 15:13:25.164523 10502 layer_factory.hpp:114] Creating layer norm2
I0331 15:13:25.164578 10502 net.cpp:160] Creating Layer norm2
I0331 15:13:25.164613 10502 net.cpp:596] norm2 <- pool2
I0331 15:13:25.164654 10502 net.cpp:570] norm2 -> norm2
I0331 15:13:25.164896 10502 net.cpp:210] Setting up norm2
I0331 15:13:25.164958 10502 net.cpp:217] Top shape: 100 32 8 8 (204800)
I0331 15:13:25.164989 10502 net.cpp:225] Memory required for data: 32359600
I0331 15:13:25.165024 10502 layer_factory.hpp:114] Creating layer conv3
I0331 15:13:25.165091 10502 net.cpp:160] Creating Layer conv3
I0331 15:13:25.165127 10502 net.cpp:596] conv3 <- norm2
I0331 15:13:25.165181 10502 net.cpp:570] conv3 -> conv3
I0331 15:13:25.182206 10502 net.cpp:210] Setting up conv3
I0331 15:13:25.182337 10502 net.cpp:217] Top shape: 100 64 8 8 (409600)
I0331 15:13:25.182386 10502 net.cpp:225] Memory required for data: 33998000
I0331 15:13:25.182507 10502 layer_factory.hpp:114] Creating layer relu3
I0331 15:13:25.182586 10502 net.cpp:160] Creating Layer relu3
I0331 15:13:25.182632 10502 net.cpp:596] relu3 <- conv3
I0331 15:13:25.182685 10502 net.cpp:557] relu3 -> conv3 (in-place)
I0331 15:13:25.182746 10502 net.cpp:210] Setting up relu3
I0331 15:13:25.182843 10502 net.cpp:217] Top shape: 100 64 8 8 (409600)
I0331 15:13:25.182880 10502 net.cpp:225] Memory required for data: 35636400
I0331 15:13:25.182919 10502 layer_factory.hpp:114] Creating layer pool3
I0331 15:13:25.183063 10502 net.cpp:160] Creating Layer pool3
I0331 15:13:25.183120 10502 net.cpp:596] pool3 <- conv3
I0331 15:13:25.183177 10502 net.cpp:570] pool3 -> pool3
I0331 15:13:25.183248 10502 net.cpp:210] Setting up pool3
I0331 15:13:25.183297 10502 net.cpp:217] Top shape: 100 64 4 4 (102400)
I0331 15:13:25.183329 10502 net.cpp:225] Memory required for data: 36046000
I0331 15:13:25.183364 10502 layer_factory.hpp:114] Creating layer ip1
I0331 15:13:25.183423 10502 net.cpp:160] Creating Layer ip1
I0331 15:13:25.183457 10502 net.cpp:596] ip1 <- pool3
I0331 15:13:25.183526 10502 net.cpp:570] ip1 -> ip1
I0331 15:13:25.184370 10502 net.cpp:210] Setting up ip1
I0331 15:13:25.184458 10502 net.cpp:217] Top shape: 100 10 (1000)
I0331 15:13:25.184492 10502 net.cpp:225] Memory required for data: 36050000
I0331 15:13:25.184550 10502 layer_factory.hpp:114] Creating layer ip1_ip1_0_split
I0331 15:13:25.184602 10502 net.cpp:160] Creating Layer ip1_ip1_0_split
I0331 15:13:25.184638 10502 net.cpp:596] ip1_ip1_0_split <- ip1
I0331 15:13:25.184684 10502 net.cpp:570] ip1_ip1_0_split -> ip1_ip1_0_split_0
I0331 15:13:25.184811 10502 net.cpp:570] ip1_ip1_0_split -> ip1_ip1_0_split_1
I0331 15:13:25.184883 10502 net.cpp:210] Setting up ip1_ip1_0_split
I0331 15:13:25.184928 10502 net.cpp:217] Top shape: 100 10 (1000)
I0331 15:13:25.184965 10502 net.cpp:217] Top shape: 100 10 (1000)
I0331 15:13:25.184995 10502 net.cpp:225] Memory required for data: 36058000
I0331 15:13:25.185029 10502 layer_factory.hpp:114] Creating layer accuracy
I0331 15:13:25.185107 10502 net.cpp:160] Creating Layer accuracy
I0331 15:13:25.185147 10502 net.cpp:596] accuracy <- ip1_ip1_0_split_0
I0331 15:13:25.185186 10502 net.cpp:596] accuracy <- label_cifar_1_split_0
I0331 15:13:25.185233 10502 net.cpp:570] accuracy -> accuracy
…
