…
I0331 15:10:56.494994 10448 net.cpp:484] The NetState phase (0) differed from the phase (1) specified by a rule in layer accuracy
I0331 15:10:56.497032 10448 net.cpp:120] Initializing net from parameters: 
name: "CIFAR10_full"
state {
  phase: TRAIN
  level: 0
  stage: ""
}
layer {
  name: "cifar"
  type: "Data"
  top: "data"
  top: "label"
  include {
    phase: TRAIN
  }
  transform_param {
    mean_file: "examples/cifar10/mean.binaryproto"
  }
  data_param {
    source: "examples/cifar10/cifar10_train_lmdb"
    batch_size: 256
    backend: LMDB
    shuffle: true
  }
}
layer {
  name: "conv1"
  type: "Convolution"
  bottom: "data"
  top: "conv1"
  param {
    lr_mult: 1
  }
  param {
    lr_mult: 2
  }
  convolution_param {
    num_output: 32
    pad: 2
    kernel_size: 5
    stride: 1
    weight_filler {
      type: "gaussian"
      std: 0.0001
    }
    bias_filler {
      type: "constant"
    }
  }
}
layer {
  name: "pool1"
  type: "Pooling"
  bottom: "conv1"
  top: "pool1"
  pooling_param {
    pool: MAX
    kernel_size: 3
    stride: 2
  }
}
layer {
  name: "relu1"
  type: "ReLU"
  bottom: "pool1"
  top: "pool1"
}
layer {
  name: "norm1"
  type: "LRN"
  bottom: "pool1"
  top: "norm1"
  lrn_param {
    local_size: 3
    alpha: 5e-05
    beta: 0.75
    norm_region: WITHIN_CHANNEL
  }
}
layer {
  name: "conv2"
  type: "Convolution"
  bottom: "norm1"
  top: "conv2"
  param {
    lr_mult: 1
  }
  param {
    lr_mult: 2
  }
  convolution_param {
    num_output: 32
    pad: 2
    kernel_size: 5
    stride: 1
    weight_filler {
      type: "gaussian"
      std: 0.01
    }
    bias_filler {
      type: "constant"
    }
  }
}
layer {
  name: "relu2"
  type: "ReLU"
  bottom: "conv2"
  top: "conv2"
}
layer {
  name: "pool2"
  type: "Pooling"
  bottom: "conv2"
  top: "pool2"
  pooling_param {
    pool: AVE
    kernel_size: 3
    stride: 2
  }
}
layer {
  name: "norm2"
  type: "LRN"
  bottom: "pool2"
  top: "norm2"
  lrn_param {
    local_size: 3
    alpha: 5e-05
    beta: 0.75
    norm_region: WITHIN_CHANNEL
  }
}
layer {
  name: "conv3"
  type: "Convolution"
  bottom: "norm2"
  top: "conv3"
  convolution_param {
    num_output: 64
    pad: 2
    kernel_size: 5
    stride: 1
    weight_filler {
      type: "gaussian"
      std: 0.01
    }
    bias_filler {
      type: "constant"
    }
  }
}
layer {
  name: "relu3"
  type: "ReLU"
  bottom: "conv3"
  top: "conv3"
}
layer {
  name: "pool3"
  type: "Pooling"
  bottom: "conv3"
  top: "pool3"
  pooling_param {
    pool: AVE
    kernel_size: 3
    stride: 2
  }
}
layer {
  name: "ip1"
  type: "InnerProduct"
  bottom: "pool3"
  top: "ip1"
  param {
    lr_mult: 1
    decay_mult: 250
  }
  param {
    lr_mult: 2
    decay_mult: 0
  }
  inner_product_param {
    num_output: 10
    weight_filler {
      type: "gaussian"
      std: 0.01
    }
    bias_filler {
      type: "constant"
    }
  }
}
layer {
  name: "loss"
  type: "SoftmaxWithLoss"
  bottom: "ip1"
  bottom: "label"
  top: "loss"
}
I0331 15:10:56.497227 10448 layer_factory.hpp:114] Creating layer cifar
I0331 15:10:56.499742 10448 net.cpp:160] Creating Layer cifar
I0331 15:10:56.499871 10448 net.cpp:570] cifar -> data
I0331 15:10:56.499954 10448 net.cpp:570] cifar -> label
I0331 15:10:56.500022 10448 data_transformer.cpp:62] Loading mean file from: examples/cifar10/mean.binaryproto
I0331 15:10:56.531692 10449 db_lmdb.cpp:72] Opened lmdb examples/cifar10/cifar10_train_lmdb
I0331 15:10:56.564635 10449 data_reader.cpp:177] Shuffling data
I0331 15:10:56.647541 10448 data_layer.cpp:80] output data size: 256,3,32,32
I0331 15:10:56.651445 10448 net.cpp:210] Setting up cifar
I0331 15:10:56.651599 10448 net.cpp:217] Top shape: 256 3 32 32 (786432)
I0331 15:10:56.651670 10448 net.cpp:217] Top shape: 256 (256)
I0331 15:10:56.651715 10448 net.cpp:225] Memory required for data: 3146752
I0331 15:10:56.651815 10448 layer_factory.hpp:114] Creating layer conv1
I0331 15:10:56.651938 10448 net.cpp:160] Creating Layer conv1
I0331 15:10:56.651998 10448 net.cpp:596] conv1 <- data
I0331 15:10:56.652061 10448 net.cpp:570] conv1 -> conv1
I0331 15:10:56.657678 10448 net.cpp:210] Setting up conv1
I0331 15:10:56.657868 10448 net.cpp:217] Top shape: 256 32 32 32 (8388608)
I0331 15:10:56.657963 10448 net.cpp:225] Memory required for data: 36701184
I0331 15:10:56.658087 10448 layer_factory.hpp:114] Creating layer pool1
I0331 15:10:56.658321 10448 net.cpp:160] Creating Layer pool1
I0331 15:10:56.658401 10448 net.cpp:596] pool1 <- conv1
I0331 15:10:56.658463 10448 net.cpp:570] pool1 -> pool1
I0331 15:10:56.658560 10448 net.cpp:210] Setting up pool1
I0331 15:10:56.658622 10448 net.cpp:217] Top shape: 256 32 16 16 (2097152)
I0331 15:10:56.658658 10448 net.cpp:225] Memory required for data: 45089792
I0331 15:10:56.658696 10448 layer_factory.hpp:114] Creating layer relu1
I0331 15:10:56.658752 10448 net.cpp:160] Creating Layer relu1
I0331 15:10:56.658846 10448 net.cpp:596] relu1 <- pool1
I0331 15:10:56.658897 10448 net.cpp:557] relu1 -> pool1 (in-place)
I0331 15:10:56.658962 10448 net.cpp:210] Setting up relu1
I0331 15:10:56.659008 10448 net.cpp:217] Top shape: 256 32 16 16 (2097152)
I0331 15:10:56.659040 10448 net.cpp:225] Memory required for data: 53478400
I0331 15:10:56.659075 10448 layer_factory.hpp:114] Creating layer norm1
I0331 15:10:56.659134 10448 net.cpp:160] Creating Layer norm1
I0331 15:10:56.659170 10448 net.cpp:596] norm1 <- pool1
I0331 15:10:56.659215 10448 net.cpp:570] norm1 -> norm1
I0331 15:10:56.659499 10448 net.cpp:210] Setting up norm1
I0331 15:10:56.659584 10448 net.cpp:217] Top shape: 256 32 16 16 (2097152)
I0331 15:10:56.659617 10448 net.cpp:225] Memory required for data: 61867008
I0331 15:10:56.659656 10448 layer_factory.hpp:114] Creating layer conv2
I0331 15:10:56.659739 10448 net.cpp:160] Creating Layer conv2
I0331 15:10:56.659827 10448 net.cpp:596] conv2 <- norm1
I0331 15:10:56.659885 10448 net.cpp:570] conv2 -> conv2
I0331 15:10:56.675467 10448 net.cpp:210] Setting up conv2
I0331 15:10:56.675608 10448 net.cpp:217] Top shape: 256 32 16 16 (2097152)
I0331 15:10:56.675662 10448 net.cpp:225] Memory required for data: 70255616
I0331 15:10:56.675753 10448 layer_factory.hpp:114] Creating layer relu2
I0331 15:10:56.675918 10448 net.cpp:160] Creating Layer relu2
I0331 15:10:56.675981 10448 net.cpp:596] relu2 <- conv2
I0331 15:10:56.676038 10448 net.cpp:557] relu2 -> conv2 (in-place)
I0331 15:10:56.676098 10448 net.cpp:210] Setting up relu2
I0331 15:10:56.676154 10448 net.cpp:217] Top shape: 256 32 16 16 (2097152)
I0331 15:10:56.676187 10448 net.cpp:225] Memory required for data: 78644224
I0331 15:10:56.676224 10448 layer_factory.hpp:114] Creating layer pool2
I0331 15:10:56.676378 10448 net.cpp:160] Creating Layer pool2
I0331 15:10:56.676440 10448 net.cpp:596] pool2 <- conv2
I0331 15:10:56.676496 10448 net.cpp:570] pool2 -> pool2
I0331 15:10:56.676568 10448 net.cpp:210] Setting up pool2
I0331 15:10:56.676801 10448 net.cpp:217] Top shape: 256 32 8 8 (524288)
I0331 15:10:56.676857 10448 net.cpp:225] Memory required for data: 80741376
I0331 15:10:56.676903 10448 layer_factory.hpp:114] Creating layer norm2
I0331 15:10:56.676990 10448 net.cpp:160] Creating Layer norm2
I0331 15:10:56.677036 10448 net.cpp:596] norm2 <- pool2
I0331 15:10:56.677114 10448 net.cpp:570] norm2 -> norm2
I0331 15:10:56.677387 10448 net.cpp:210] Setting up norm2
I0331 15:10:56.677472 10448 net.cpp:217] Top shape: 256 32 8 8 (524288)
I0331 15:10:56.677507 10448 net.cpp:225] Memory required for data: 82838528
I0331 15:10:56.677546 10448 layer_factory.hpp:114] Creating layer conv3
I0331 15:10:56.677610 10448 net.cpp:160] Creating Layer conv3
I0331 15:10:56.677649 10448 net.cpp:596] conv3 <- norm2
I0331 15:10:56.677700 10448 net.cpp:570] conv3 -> conv3
I0331 15:10:56.689749 10448 net.cpp:210] Setting up conv3
I0331 15:10:56.689927 10448 net.cpp:217] Top shape: 256 64 8 8 (1048576)
I0331 15:10:56.689987 10448 net.cpp:225] Memory required for data: 87032832
I0331 15:10:56.690083 10448 layer_factory.hpp:114] Creating layer relu3
I0331 15:10:56.690156 10448 net.cpp:160] Creating Layer relu3
I0331 15:10:56.690203 10448 net.cpp:596] relu3 <- conv3
I0331 15:10:56.690258 10448 net.cpp:557] relu3 -> conv3 (in-place)
I0331 15:10:56.690320 10448 net.cpp:210] Setting up relu3
I0331 15:10:56.690404 10448 net.cpp:217] Top shape: 256 64 8 8 (1048576)
I0331 15:10:56.690448 10448 net.cpp:225] Memory required for data: 91227136
I0331 15:10:56.690488 10448 layer_factory.hpp:114] Creating layer pool3
I0331 15:10:56.690639 10448 net.cpp:160] Creating Layer pool3
I0331 15:10:56.690703 10448 net.cpp:596] pool3 <- conv3
I0331 15:10:56.690822 10448 net.cpp:570] pool3 -> pool3
I0331 15:10:56.690919 10448 net.cpp:210] Setting up pool3
I0331 15:10:56.690973 10448 net.cpp:217] Top shape: 256 64 4 4 (262144)
I0331 15:10:56.691009 10448 net.cpp:225] Memory required for data: 92275712
I0331 15:10:56.691046 10448 layer_factory.hpp:114] Creating layer ip1
I0331 15:10:56.691109 10448 net.cpp:160] Creating Layer ip1
I0331 15:10:56.691144 10448 net.cpp:596] ip1 <- pool3
I0331 15:10:56.691193 10448 net.cpp:570] ip1 -> ip1
I0331 15:10:56.692049 10448 net.cpp:210] Setting up ip1
I0331 15:10:56.692147 10448 net.cpp:217] Top shape: 256 10 (2560)
I0331 15:10:56.692179 10448 net.cpp:225] Memory required for data: 92285952
I0331 15:10:56.692239 10448 layer_factory.hpp:114] Creating layer loss
I0331 15:10:56.692328 10448 net.cpp:160] Creating Layer loss
I0331 15:10:56.692371 10448 net.cpp:596] loss <- ip1
I0331 15:10:56.692414 10448 net.cpp:596] loss <- label
I0331 15:10:56.692459 10448 net.cpp:570] loss -> loss
I0331 15:10:56.692540 10448 layer_factory.hpp:114] Creating layer loss
…
I0331 15:10:56.698624 10448 cpu_info.cpp:473] Number of OpenMP threads: 32
I0331 15:10:56.698748 10448 net.cpp:484] The NetState phase (1) differed from the phase (0) specified by a rule in layer cifar
I0331 15:10:56.701026 10448 net.cpp:120] Initializing net from parameters: 
name: "CIFAR10_full"
state {
  phase: TEST
}
layer {
  name: "cifar"
  type: "Data"
  top: "data"
  top: "label"
  include {
    phase: TEST
  }
  transform_param {
    mean_file: "examples/cifar10/mean.binaryproto"
  }
  data_param {
    source: "examples/cifar10/cifar10_test_lmdb"
    batch_size: 100
    backend: LMDB
  }
}
layer {
  name: "label_cifar_1_split"
  type: "Split"
  bottom: "label"
  top: "label_cifar_1_split_0"
  top: "label_cifar_1_split_1"
}
layer {
  name: "conv1"
  type: "Convolution"
  bottom: "data"
  top: "conv1"
  param {
    lr_mult: 1
  }
  param {
    lr_mult: 2
  }
  convolution_param {
    num_output: 32
    pad: 2
    kernel_size: 5
    stride: 1
    weight_filler {
      type: "gaussian"
      std: 0.0001
    }
    bias_filler {
      type: "constant"
    }
  }
}
layer {
  name: "pool1"
  type: "Pooling"
  bottom: "conv1"
  top: "pool1"
  pooling_param {
    pool: MAX
    kernel_size: 3
    stride: 2
  }
}
layer {
  name: "relu1"
  type: "ReLU"
  bottom: "pool1"
  top: "pool1"
}
layer {
  name: "norm1"
  type: "LRN"
  bottom: "pool1"
  top: "norm1"
  lrn_param {
    local_size: 3
    alpha: 5e-05
    beta: 0.75
    norm_region: WITHIN_CHANNEL
  }
}
layer {
  name: "conv2"
  type: "Convolution"
  bottom: "norm1"
  top: "conv2"
  param {
    lr_mult: 1
  }
  param {
    lr_mult: 2
  }
  convolution_param {
    num_output: 32
    pad: 2
    kernel_size: 5
    stride: 1
    weight_filler {
      type: "gaussian"
      std: 0.01
    }
    bias_filler {
      type: "constant"
    }
  }
}
layer {
  name: "relu2"
  type: "ReLU"
  bottom: "conv2"
  top: "conv2"
}
layer {
  name: "pool2"
  type: "Pooling"
  bottom: "conv2"
  top: "pool2"
  pooling_param {
    pool: AVE
    kernel_size: 3
    stride: 2
  }
}
layer {
  name: "norm2"
  type: "LRN"
  bottom: "pool2"
  top: "norm2"
  lrn_param {
    local_size: 3
    alpha: 5e-05
    beta: 0.75
    norm_region: WITHIN_CHANNEL
  }
}
layer {
  name: "conv3"
  type: "Convolution"
  bottom: "norm2"
  top: "conv3"
  convolution_param {
    num_output: 64
    pad: 2
    kernel_size: 5
    stride: 1
    weight_filler {
      type: "gaussian"
      std: 0.01
    }
    bias_filler {
      type: "constant"
    }
  }
}
layer {
  name: "relu3"
  type: "ReLU"
  bottom: "conv3"
  top: "conv3"
}
layer {
  name: "pool3"
  type: "Pooling"
  bottom: "conv3"
  top: "pool3"
  pooling_param {
    pool: AVE
    kernel_size: 3
    stride: 2
  }
}
layer {
  name: "ip1"
  type: "InnerProduct"
  bottom: "pool3"
  top: "ip1"
  param {
    lr_mult: 1
    decay_mult: 250
  }
  param {
    lr_mult: 2
    decay_mult: 0
  }
  inner_product_param {
    num_output: 10
    weight_filler {
      type: "gaussian"
      std: 0.01
    }
    bias_filler {
      type: "constant"
    }
  }
}
layer {
  name: "ip1_ip1_0_split"
  type: "Split"
  bottom: "ip1"
  top: "ip1_ip1_0_split_0"
  top: "ip1_ip1_0_split_1"
}
layer {
  name: "accuracy"
  type: "Accuracy"
  bottom: "ip1_ip1_0_split_0"
  bottom: "label_cifar_1_split_0"
  top: "accuracy"
  include {
    phase: TEST
  }
}
layer {
  name: "loss"
  type: "SoftmaxWithLoss"
  bottom: "ip1_ip1_0_split_1"
  bottom: "label_cifar_1_split_1"
  top: "loss"
}
I0331 15:10:56.701211 10448 layer_factory.hpp:114] Creating layer cifar
I0331 15:10:56.701704 10448 net.cpp:160] Creating Layer cifar
I0331 15:10:56.701802 10448 net.cpp:570] cifar -> data
I0331 15:10:56.701874 10448 net.cpp:570] cifar -> label
I0331 15:10:56.701933 10448 data_transformer.cpp:62] Loading mean file from: examples/cifar10/mean.binaryproto
I0331 15:10:56.711340 10450 db_lmdb.cpp:72] Opened lmdb examples/cifar10/cifar10_test_lmdb
I0331 15:10:56.713107 10448 data_layer.cpp:80] output data size: 100,3,32,32
I0331 15:10:56.714874 10448 net.cpp:210] Setting up cifar
I0331 15:10:56.714999 10448 net.cpp:217] Top shape: 100 3 32 32 (307200)
I0331 15:10:56.715044 10448 net.cpp:217] Top shape: 100 (100)
I0331 15:10:56.715076 10448 net.cpp:225] Memory required for data: 1229200
I0331 15:10:56.715119 10448 layer_factory.hpp:114] Creating layer label_cifar_1_split
I0331 15:10:56.715180 10448 net.cpp:160] Creating Layer label_cifar_1_split
I0331 15:10:56.715214 10448 net.cpp:596] label_cifar_1_split <- label
I0331 15:10:56.715260 10448 net.cpp:570] label_cifar_1_split -> label_cifar_1_split_0
I0331 15:10:56.715314 10448 net.cpp:570] label_cifar_1_split -> label_cifar_1_split_1
I0331 15:10:56.715394 10448 net.cpp:210] Setting up label_cifar_1_split
I0331 15:10:56.715435 10448 net.cpp:217] Top shape: 100 (100)
I0331 15:10:56.715473 10448 net.cpp:217] Top shape: 100 (100)
I0331 15:10:56.715504 10448 net.cpp:225] Memory required for data: 1230000
I0331 15:10:56.715536 10448 layer_factory.hpp:114] Creating layer conv1
I0331 15:10:56.715596 10448 net.cpp:160] Creating Layer conv1
I0331 15:10:56.715629 10448 net.cpp:596] conv1 <- data
I0331 15:10:56.715672 10448 net.cpp:570] conv1 -> conv1
I0331 15:10:56.721083 10448 net.cpp:210] Setting up conv1
I0331 15:10:56.721205 10448 net.cpp:217] Top shape: 100 32 32 32 (3276800)
I0331 15:10:56.721240 10448 net.cpp:225] Memory required for data: 14337200
I0331 15:10:56.721319 10448 layer_factory.hpp:114] Creating layer pool1
I0331 15:10:56.721456 10448 net.cpp:160] Creating Layer pool1
I0331 15:10:56.721494 10448 net.cpp:596] pool1 <- conv1
I0331 15:10:56.721550 10448 net.cpp:570] pool1 -> pool1
I0331 15:10:56.721621 10448 net.cpp:210] Setting up pool1
I0331 15:10:56.721662 10448 net.cpp:217] Top shape: 100 32 16 16 (819200)
I0331 15:10:56.721693 10448 net.cpp:225] Memory required for data: 17614000
I0331 15:10:56.721726 10448 layer_factory.hpp:114] Creating layer relu1
I0331 15:10:56.721807 10448 net.cpp:160] Creating Layer relu1
I0331 15:10:56.721848 10448 net.cpp:596] relu1 <- pool1
I0331 15:10:56.721894 10448 net.cpp:557] relu1 -> pool1 (in-place)
I0331 15:10:56.721945 10448 net.cpp:210] Setting up relu1
I0331 15:10:56.721992 10448 net.cpp:217] Top shape: 100 32 16 16 (819200)
I0331 15:10:56.722028 10448 net.cpp:225] Memory required for data: 20890800
I0331 15:10:56.722067 10448 layer_factory.hpp:114] Creating layer norm1
I0331 15:10:56.722128 10448 net.cpp:160] Creating Layer norm1
I0331 15:10:56.722168 10448 net.cpp:596] norm1 <- pool1
I0331 15:10:56.722213 10448 net.cpp:570] norm1 -> norm1
I0331 15:10:56.722439 10448 net.cpp:210] Setting up norm1
I0331 15:10:56.722488 10448 net.cpp:217] Top shape: 100 32 16 16 (819200)
I0331 15:10:56.722522 10448 net.cpp:225] Memory required for data: 24167600
I0331 15:10:56.722555 10448 layer_factory.hpp:114] Creating layer conv2
I0331 15:10:56.722625 10448 net.cpp:160] Creating Layer conv2
I0331 15:10:56.722661 10448 net.cpp:596] conv2 <- norm1
I0331 15:10:56.722714 10448 net.cpp:570] conv2 -> conv2
I0331 15:10:56.744995 10448 net.cpp:210] Setting up conv2
I0331 15:10:56.745126 10448 net.cpp:217] Top shape: 100 32 16 16 (819200)
I0331 15:10:56.745164 10448 net.cpp:225] Memory required for data: 27444400
I0331 15:10:56.745247 10448 layer_factory.hpp:114] Creating layer relu2
I0331 15:10:56.745309 10448 net.cpp:160] Creating Layer relu2
I0331 15:10:56.745347 10448 net.cpp:596] relu2 <- conv2
I0331 15:10:56.745517 10448 net.cpp:557] relu2 -> conv2 (in-place)
I0331 15:10:56.745586 10448 net.cpp:210] Setting up relu2
I0331 15:10:56.745635 10448 net.cpp:217] Top shape: 100 32 16 16 (819200)
I0331 15:10:56.745668 10448 net.cpp:225] Memory required for data: 30721200
I0331 15:10:56.745704 10448 layer_factory.hpp:114] Creating layer pool2
I0331 15:10:56.745903 10448 net.cpp:160] Creating Layer pool2
I0331 15:10:56.745961 10448 net.cpp:596] pool2 <- conv2
I0331 15:10:56.746014 10448 net.cpp:570] pool2 -> pool2
I0331 15:10:56.746083 10448 net.cpp:210] Setting up pool2
I0331 15:10:56.746130 10448 net.cpp:217] Top shape: 100 32 8 8 (204800)
I0331 15:10:56.746162 10448 net.cpp:225] Memory required for data: 31540400
I0331 15:10:56.746197 10448 layer_factory.hpp:114] Creating layer norm2
I0331 15:10:56.746258 10448 net.cpp:160] Creating Layer norm2
I0331 15:10:56.746294 10448 net.cpp:596] norm2 <- pool2
I0331 15:10:56.746336 10448 net.cpp:570] norm2 -> norm2
I0331 15:10:56.746526 10448 net.cpp:210] Setting up norm2
I0331 15:10:56.746584 10448 net.cpp:217] Top shape: 100 32 8 8 (204800)
I0331 15:10:56.746618 10448 net.cpp:225] Memory required for data: 32359600
I0331 15:10:56.746652 10448 layer_factory.hpp:114] Creating layer conv3
I0331 15:10:56.746721 10448 net.cpp:160] Creating Layer conv3
I0331 15:10:56.746793 10448 net.cpp:596] conv3 <- norm2
I0331 15:10:56.746875 10448 net.cpp:570] conv3 -> conv3
I0331 15:10:56.758740 10448 net.cpp:210] Setting up conv3
I0331 15:10:56.758899 10448 net.cpp:217] Top shape: 100 64 8 8 (409600)
I0331 15:10:56.758946 10448 net.cpp:225] Memory required for data: 33998000
I0331 15:10:56.759040 10448 layer_factory.hpp:114] Creating layer relu3
I0331 15:10:56.759112 10448 net.cpp:160] Creating Layer relu3
I0331 15:10:56.759157 10448 net.cpp:596] relu3 <- conv3
I0331 15:10:56.759212 10448 net.cpp:557] relu3 -> conv3 (in-place)
I0331 15:10:56.759274 10448 net.cpp:210] Setting up relu3
I0331 15:10:56.759322 10448 net.cpp:217] Top shape: 100 64 8 8 (409600)
I0331 15:10:56.759356 10448 net.cpp:225] Memory required for data: 35636400
I0331 15:10:56.759393 10448 layer_factory.hpp:114] Creating layer pool3
I0331 15:10:56.759541 10448 net.cpp:160] Creating Layer pool3
I0331 15:10:56.759600 10448 net.cpp:596] pool3 <- conv3
I0331 15:10:56.759660 10448 net.cpp:570] pool3 -> pool3
I0331 15:10:56.759729 10448 net.cpp:210] Setting up pool3
I0331 15:10:56.759819 10448 net.cpp:217] Top shape: 100 64 4 4 (102400)
I0331 15:10:56.759858 10448 net.cpp:225] Memory required for data: 36046000
I0331 15:10:56.759896 10448 layer_factory.hpp:114] Creating layer ip1
I0331 15:10:56.759979 10448 net.cpp:160] Creating Layer ip1
I0331 15:10:56.760018 10448 net.cpp:596] ip1 <- pool3
I0331 15:10:56.760071 10448 net.cpp:570] ip1 -> ip1
I0331 15:10:56.760907 10448 net.cpp:210] Setting up ip1
I0331 15:10:56.760993 10448 net.cpp:217] Top shape: 100 10 (1000)
I0331 15:10:56.761026 10448 net.cpp:225] Memory required for data: 36050000
I0331 15:10:56.761086 10448 layer_factory.hpp:114] Creating layer ip1_ip1_0_split
I0331 15:10:56.761137 10448 net.cpp:160] Creating Layer ip1_ip1_0_split
I0331 15:10:56.761174 10448 net.cpp:596] ip1_ip1_0_split <- ip1
I0331 15:10:56.761219 10448 net.cpp:570] ip1_ip1_0_split -> ip1_ip1_0_split_0
I0331 15:10:56.761276 10448 net.cpp:570] ip1_ip1_0_split -> ip1_ip1_0_split_1
I0331 15:10:56.761332 10448 net.cpp:210] Setting up ip1_ip1_0_split
I0331 15:10:56.761375 10448 net.cpp:217] Top shape: 100 10 (1000)
I0331 15:10:56.761415 10448 net.cpp:217] Top shape: 100 10 (1000)
I0331 15:10:56.761445 10448 net.cpp:225] Memory required for data: 36058000
I0331 15:10:56.761479 10448 layer_factory.hpp:114] Creating layer accuracy
I0331 15:10:56.761559 10448 net.cpp:160] Creating Layer accuracy
I0331 15:10:56.761602 10448 net.cpp:596] accuracy <- ip1_ip1_0_split_0
I0331 15:10:56.761641 10448 net.cpp:596] accuracy <- label_cifar_1_split_0
I0331 15:10:56.761690 10448 net.cpp:570] accuracy -> accuracy
…
