…
I0331 15:07:09.229379 10294 net.cpp:484] The NetState phase (0) differed from the phase (1) specified by a rule in layer accuracy
I0331 15:07:09.231423 10294 net.cpp:120] Initializing net from parameters: 
name: "CIFAR10_full"
state {
  phase: TRAIN
  level: 0
  stage: ""
}
layer {
  name: "cifar"
  type: "Data"
  top: "data"
  top: "label"
  include {
    phase: TRAIN
  }
  transform_param {
    mean_file: "examples/cifar10/mean.binaryproto"
  }
  data_param {
    source: "examples/cifar10/cifar10_train_lmdb"
    batch_size: 256
    backend: LMDB
    shuffle: true
  }
}
layer {
  name: "conv1"
  type: "Convolution"
  bottom: "data"
  top: "conv1"
  param {
    lr_mult: 1
  }
  param {
    lr_mult: 2
  }
  convolution_param {
    num_output: 32
    pad: 2
    kernel_size: 5
    stride: 1
    weight_filler {
      type: "gaussian"
      std: 0.0001
    }
    bias_filler {
      type: "constant"
    }
  }
}
layer {
  name: "pool1"
  type: "Pooling"
  bottom: "conv1"
  top: "pool1"
  pooling_param {
    pool: MAX
    kernel_size: 3
    stride: 2
  }
}
layer {
  name: "relu1"
  type: "ReLU"
  bottom: "pool1"
  top: "pool1"
}
layer {
  name: "norm1"
  type: "LRN"
  bottom: "pool1"
  top: "norm1"
  lrn_param {
    local_size: 3
    alpha: 5e-05
    beta: 0.75
    norm_region: WITHIN_CHANNEL
  }
}
layer {
  name: "conv2"
  type: "Convolution"
  bottom: "norm1"
  top: "conv2"
  param {
    lr_mult: 1
  }
  param {
    lr_mult: 2
  }
  convolution_param {
    num_output: 32
    pad: 2
    kernel_size: 5
    stride: 1
    weight_filler {
      type: "gaussian"
      std: 0.01
    }
    bias_filler {
      type: "constant"
    }
  }
}
layer {
  name: "relu2"
  type: "ReLU"
  bottom: "conv2"
  top: "conv2"
}
layer {
  name: "pool2"
  type: "Pooling"
  bottom: "conv2"
  top: "pool2"
  pooling_param {
    pool: AVE
    kernel_size: 3
    stride: 2
  }
}
layer {
  name: "norm2"
  type: "LRN"
  bottom: "pool2"
  top: "norm2"
  lrn_param {
    local_size: 3
    alpha: 5e-05
    beta: 0.75
    norm_region: WITHIN_CHANNEL
  }
}
layer {
  name: "conv3"
  type: "Convolution"
  bottom: "norm2"
  top: "conv3"
  convolution_param {
    num_output: 64
    pad: 2
    kernel_size: 5
    stride: 1
    weight_filler {
      type: "gaussian"
      std: 0.01
    }
    bias_filler {
      type: "constant"
    }
  }
}
layer {
  name: "relu3"
  type: "ReLU"
  bottom: "conv3"
  top: "conv3"
}
layer {
  name: "pool3"
  type: "Pooling"
  bottom: "conv3"
  top: "pool3"
  pooling_param {
    pool: AVE
    kernel_size: 3
    stride: 2
  }
}
layer {
  name: "ip1"
  type: "InnerProduct"
  bottom: "pool3"
  top: "ip1"
  param {
    lr_mult: 1
    decay_mult: 250
  }
  param {
    lr_mult: 2
    decay_mult: 0
  }
  inner_product_param {
    num_output: 10
    weight_filler {
      type: "gaussian"
      std: 0.01
    }
    bias_filler {
      type: "constant"
    }
  }
}
layer {
  name: "loss"
  type: "SoftmaxWithLoss"
  bottom: "ip1"
  bottom: "label"
  top: "loss"
}
I0331 15:07:09.231645 10294 layer_factory.hpp:114] Creating layer cifar
I0331 15:07:09.234182 10294 net.cpp:160] Creating Layer cifar
I0331 15:07:09.234275 10294 net.cpp:570] cifar -> data
I0331 15:07:09.234354 10294 net.cpp:570] cifar -> label
I0331 15:07:09.234419 10294 data_transformer.cpp:62] Loading mean file from: examples/cifar10/mean.binaryproto
I0331 15:07:09.265895 10295 db_lmdb.cpp:72] Opened lmdb examples/cifar10/cifar10_train_lmdb
I0331 15:07:09.298481 10295 data_reader.cpp:177] Shuffling data
I0331 15:07:09.381939 10294 data_layer.cpp:80] output data size: 256,3,32,32
I0331 15:07:09.385984 10294 net.cpp:210] Setting up cifar
I0331 15:07:09.386134 10294 net.cpp:217] Top shape: 256 3 32 32 (786432)
I0331 15:07:09.386204 10294 net.cpp:217] Top shape: 256 (256)
I0331 15:07:09.386245 10294 net.cpp:225] Memory required for data: 3146752
I0331 15:07:09.386294 10294 layer_factory.hpp:114] Creating layer conv1
I0331 15:07:09.386396 10294 net.cpp:160] Creating Layer conv1
I0331 15:07:09.386451 10294 net.cpp:596] conv1 <- data
I0331 15:07:09.386514 10294 net.cpp:570] conv1 -> conv1
I0331 15:07:09.389606 10294 net.cpp:210] Setting up conv1
I0331 15:07:09.389735 10294 net.cpp:217] Top shape: 256 32 32 32 (8388608)
I0331 15:07:09.389842 10294 net.cpp:225] Memory required for data: 36701184
I0331 15:07:09.389966 10294 layer_factory.hpp:114] Creating layer pool1
I0331 15:07:09.390192 10294 net.cpp:160] Creating Layer pool1
I0331 15:07:09.390269 10294 net.cpp:596] pool1 <- conv1
I0331 15:07:09.390328 10294 net.cpp:570] pool1 -> pool1
I0331 15:07:09.390422 10294 net.cpp:210] Setting up pool1
I0331 15:07:09.390481 10294 net.cpp:217] Top shape: 256 32 16 16 (2097152)
I0331 15:07:09.390516 10294 net.cpp:225] Memory required for data: 45089792
I0331 15:07:09.390554 10294 layer_factory.hpp:114] Creating layer relu1
I0331 15:07:09.390610 10294 net.cpp:160] Creating Layer relu1
I0331 15:07:09.390648 10294 net.cpp:596] relu1 <- pool1
I0331 15:07:09.390693 10294 net.cpp:557] relu1 -> pool1 (in-place)
I0331 15:07:09.390749 10294 net.cpp:210] Setting up relu1
I0331 15:07:09.390842 10294 net.cpp:217] Top shape: 256 32 16 16 (2097152)
I0331 15:07:09.390878 10294 net.cpp:225] Memory required for data: 53478400
I0331 15:07:09.390913 10294 layer_factory.hpp:114] Creating layer norm1
I0331 15:07:09.391008 10294 net.cpp:160] Creating Layer norm1
I0331 15:07:09.391057 10294 net.cpp:596] norm1 <- pool1
I0331 15:07:09.391103 10294 net.cpp:570] norm1 -> norm1
I0331 15:07:09.391371 10294 net.cpp:210] Setting up norm1
I0331 15:07:09.391451 10294 net.cpp:217] Top shape: 256 32 16 16 (2097152)
I0331 15:07:09.391484 10294 net.cpp:225] Memory required for data: 61867008
I0331 15:07:09.391521 10294 layer_factory.hpp:114] Creating layer conv2
I0331 15:07:09.391602 10294 net.cpp:160] Creating Layer conv2
I0331 15:07:09.391641 10294 net.cpp:596] conv2 <- norm1
I0331 15:07:09.391695 10294 net.cpp:570] conv2 -> conv2
I0331 15:07:09.402282 10294 net.cpp:210] Setting up conv2
I0331 15:07:09.402415 10294 net.cpp:217] Top shape: 256 32 16 16 (2097152)
I0331 15:07:09.402469 10294 net.cpp:225] Memory required for data: 70255616
I0331 15:07:09.402560 10294 layer_factory.hpp:114] Creating layer relu2
I0331 15:07:09.402660 10294 net.cpp:160] Creating Layer relu2
I0331 15:07:09.402720 10294 net.cpp:596] relu2 <- conv2
I0331 15:07:09.402822 10294 net.cpp:557] relu2 -> conv2 (in-place)
I0331 15:07:09.402905 10294 net.cpp:210] Setting up relu2
I0331 15:07:09.402961 10294 net.cpp:217] Top shape: 256 32 16 16 (2097152)
I0331 15:07:09.402997 10294 net.cpp:225] Memory required for data: 78644224
I0331 15:07:09.403033 10294 layer_factory.hpp:114] Creating layer pool2
I0331 15:07:09.403187 10294 net.cpp:160] Creating Layer pool2
I0331 15:07:09.403245 10294 net.cpp:596] pool2 <- conv2
I0331 15:07:09.403318 10294 net.cpp:570] pool2 -> pool2
I0331 15:07:09.403394 10294 net.cpp:210] Setting up pool2
I0331 15:07:09.403573 10294 net.cpp:217] Top shape: 256 32 8 8 (524288)
I0331 15:07:09.403620 10294 net.cpp:225] Memory required for data: 80741376
I0331 15:07:09.403662 10294 layer_factory.hpp:114] Creating layer norm2
I0331 15:07:09.403724 10294 net.cpp:160] Creating Layer norm2
I0331 15:07:09.403802 10294 net.cpp:596] norm2 <- pool2
I0331 15:07:09.403895 10294 net.cpp:570] norm2 -> norm2
I0331 15:07:09.404146 10294 net.cpp:210] Setting up norm2
I0331 15:07:09.404223 10294 net.cpp:217] Top shape: 256 32 8 8 (524288)
I0331 15:07:09.404255 10294 net.cpp:225] Memory required for data: 82838528
I0331 15:07:09.404294 10294 layer_factory.hpp:114] Creating layer conv3
I0331 15:07:09.404372 10294 net.cpp:160] Creating Layer conv3
I0331 15:07:09.404413 10294 net.cpp:596] conv3 <- norm2
I0331 15:07:09.404464 10294 net.cpp:570] conv3 -> conv3
I0331 15:07:09.413951 10294 net.cpp:210] Setting up conv3
I0331 15:07:09.414088 10294 net.cpp:217] Top shape: 256 64 8 8 (1048576)
I0331 15:07:09.414136 10294 net.cpp:225] Memory required for data: 87032832
I0331 15:07:09.414227 10294 layer_factory.hpp:114] Creating layer relu3
I0331 15:07:09.414325 10294 net.cpp:160] Creating Layer relu3
I0331 15:07:09.414377 10294 net.cpp:596] relu3 <- conv3
I0331 15:07:09.414430 10294 net.cpp:557] relu3 -> conv3 (in-place)
I0331 15:07:09.414495 10294 net.cpp:210] Setting up relu3
I0331 15:07:09.414546 10294 net.cpp:217] Top shape: 256 64 8 8 (1048576)
I0331 15:07:09.414580 10294 net.cpp:225] Memory required for data: 91227136
I0331 15:07:09.414618 10294 layer_factory.hpp:114] Creating layer pool3
I0331 15:07:09.414803 10294 net.cpp:160] Creating Layer pool3
I0331 15:07:09.414875 10294 net.cpp:596] pool3 <- conv3
I0331 15:07:09.414937 10294 net.cpp:570] pool3 -> pool3
I0331 15:07:09.415009 10294 net.cpp:210] Setting up pool3
I0331 15:07:09.415060 10294 net.cpp:217] Top shape: 256 64 4 4 (262144)
I0331 15:07:09.415092 10294 net.cpp:225] Memory required for data: 92275712
I0331 15:07:09.415130 10294 layer_factory.hpp:114] Creating layer ip1
I0331 15:07:09.415189 10294 net.cpp:160] Creating Layer ip1
I0331 15:07:09.415223 10294 net.cpp:596] ip1 <- pool3
I0331 15:07:09.415292 10294 net.cpp:570] ip1 -> ip1
I0331 15:07:09.416162 10294 net.cpp:210] Setting up ip1
I0331 15:07:09.416256 10294 net.cpp:217] Top shape: 256 10 (2560)
I0331 15:07:09.416290 10294 net.cpp:225] Memory required for data: 92285952
I0331 15:07:09.416349 10294 layer_factory.hpp:114] Creating layer loss
I0331 15:07:09.416452 10294 net.cpp:160] Creating Layer loss
I0331 15:07:09.416496 10294 net.cpp:596] loss <- ip1
I0331 15:07:09.416539 10294 net.cpp:596] loss <- label
I0331 15:07:09.416585 10294 net.cpp:570] loss -> loss
I0331 15:07:09.416666 10294 layer_factory.hpp:114] Creating layer loss
…
I0331 15:07:09.422888 10294 cpu_info.cpp:473] Number of OpenMP threads: 16
I0331 15:07:09.423061 10294 net.cpp:484] The NetState phase (1) differed from the phase (0) specified by a rule in layer cifar
I0331 15:07:09.425624 10294 net.cpp:120] Initializing net from parameters: 
name: "CIFAR10_full"
state {
  phase: TEST
}
layer {
  name: "cifar"
  type: "Data"
  top: "data"
  top: "label"
  include {
    phase: TEST
  }
  transform_param {
    mean_file: "examples/cifar10/mean.binaryproto"
  }
  data_param {
    source: "examples/cifar10/cifar10_test_lmdb"
    batch_size: 100
    backend: LMDB
  }
}
layer {
  name: "label_cifar_1_split"
  type: "Split"
  bottom: "label"
  top: "label_cifar_1_split_0"
  top: "label_cifar_1_split_1"
}
layer {
  name: "conv1"
  type: "Convolution"
  bottom: "data"
  top: "conv1"
  param {
    lr_mult: 1
  }
  param {
    lr_mult: 2
  }
  convolution_param {
    num_output: 32
    pad: 2
    kernel_size: 5
    stride: 1
    weight_filler {
      type: "gaussian"
      std: 0.0001
    }
    bias_filler {
      type: "constant"
    }
  }
}
layer {
  name: "pool1"
  type: "Pooling"
  bottom: "conv1"
  top: "pool1"
  pooling_param {
    pool: MAX
    kernel_size: 3
    stride: 2
  }
}
layer {
  name: "relu1"
  type: "ReLU"
  bottom: "pool1"
  top: "pool1"
}
layer {
  name: "norm1"
  type: "LRN"
  bottom: "pool1"
  top: "norm1"
  lrn_param {
    local_size: 3
    alpha: 5e-05
    beta: 0.75
    norm_region: WITHIN_CHANNEL
  }
}
layer {
  name: "conv2"
  type: "Convolution"
  bottom: "norm1"
  top: "conv2"
  param {
    lr_mult: 1
  }
  param {
    lr_mult: 2
  }
  convolution_param {
    num_output: 32
    pad: 2
    kernel_size: 5
    stride: 1
    weight_filler {
      type: "gaussian"
      std: 0.01
    }
    bias_filler {
      type: "constant"
    }
  }
}
layer {
  name: "relu2"
  type: "ReLU"
  bottom: "conv2"
  top: "conv2"
}
layer {
  name: "pool2"
  type: "Pooling"
  bottom: "conv2"
  top: "pool2"
  pooling_param {
    pool: AVE
    kernel_size: 3
    stride: 2
  }
}
layer {
  name: "norm2"
  type: "LRN"
  bottom: "pool2"
  top: "norm2"
  lrn_param {
    local_size: 3
    alpha: 5e-05
    beta: 0.75
    norm_region: WITHIN_CHANNEL
  }
}
layer {
  name: "conv3"
  type: "Convolution"
  bottom: "norm2"
  top: "conv3"
  convolution_param {
    num_output: 64
    pad: 2
    kernel_size: 5
    stride: 1
    weight_filler {
      type: "gaussian"
      std: 0.01
    }
    bias_filler {
      type: "constant"
    }
  }
}
layer {
  name: "relu3"
  type: "ReLU"
  bottom: "conv3"
  top: "conv3"
}
layer {
  name: "pool3"
  type: "Pooling"
  bottom: "conv3"
  top: "pool3"
  pooling_param {
    pool: AVE
    kernel_size: 3
    stride: 2
  }
}
layer {
  name: "ip1"
  type: "InnerProduct"
  bottom: "pool3"
  top: "ip1"
  param {
    lr_mult: 1
    decay_mult: 250
  }
  param {
    lr_mult: 2
    decay_mult: 0
  }
  inner_product_param {
    num_output: 10
    weight_filler {
      type: "gaussian"
      std: 0.01
    }
    bias_filler {
      type: "constant"
    }
  }
}
layer {
  name: "ip1_ip1_0_split"
  type: "Split"
  bottom: "ip1"
  top: "ip1_ip1_0_split_0"
  top: "ip1_ip1_0_split_1"
}
layer {
  name: "accuracy"
  type: "Accuracy"
  bottom: "ip1_ip1_0_split_0"
  bottom: "label_cifar_1_split_0"
  top: "accuracy"
  include {
    phase: TEST
  }
}
layer {
  name: "loss"
  type: "SoftmaxWithLoss"
  bottom: "ip1_ip1_0_split_1"
  bottom: "label_cifar_1_split_1"
  top: "loss"
}
I0331 15:07:09.425937 10294 layer_factory.hpp:114] Creating layer cifar
I0331 15:07:09.426511 10294 net.cpp:160] Creating Layer cifar
I0331 15:07:09.426620 10294 net.cpp:570] cifar -> data
I0331 15:07:09.426697 10294 net.cpp:570] cifar -> label
I0331 15:07:09.426797 10294 data_transformer.cpp:62] Loading mean file from: examples/cifar10/mean.binaryproto
I0331 15:07:09.435065 10296 db_lmdb.cpp:72] Opened lmdb examples/cifar10/cifar10_test_lmdb
I0331 15:07:09.436959 10294 data_layer.cpp:80] output data size: 100,3,32,32
I0331 15:07:09.438685 10294 net.cpp:210] Setting up cifar
I0331 15:07:09.438855 10294 net.cpp:217] Top shape: 100 3 32 32 (307200)
I0331 15:07:09.438902 10294 net.cpp:217] Top shape: 100 (100)
I0331 15:07:09.438935 10294 net.cpp:225] Memory required for data: 1229200
I0331 15:07:09.438980 10294 layer_factory.hpp:114] Creating layer label_cifar_1_split
I0331 15:07:09.439043 10294 net.cpp:160] Creating Layer label_cifar_1_split
I0331 15:07:09.439079 10294 net.cpp:596] label_cifar_1_split <- label
I0331 15:07:09.439126 10294 net.cpp:570] label_cifar_1_split -> label_cifar_1_split_0
I0331 15:07:09.439182 10294 net.cpp:570] label_cifar_1_split -> label_cifar_1_split_1
I0331 15:07:09.439237 10294 net.cpp:210] Setting up label_cifar_1_split
I0331 15:07:09.439278 10294 net.cpp:217] Top shape: 100 (100)
I0331 15:07:09.439316 10294 net.cpp:217] Top shape: 100 (100)
I0331 15:07:09.439347 10294 net.cpp:225] Memory required for data: 1230000
I0331 15:07:09.439379 10294 layer_factory.hpp:114] Creating layer conv1
I0331 15:07:09.439437 10294 net.cpp:160] Creating Layer conv1
I0331 15:07:09.439471 10294 net.cpp:596] conv1 <- data
I0331 15:07:09.439514 10294 net.cpp:570] conv1 -> conv1
I0331 15:07:09.442453 10294 net.cpp:210] Setting up conv1
I0331 15:07:09.442572 10294 net.cpp:217] Top shape: 100 32 32 32 (3276800)
I0331 15:07:09.442606 10294 net.cpp:225] Memory required for data: 14337200
I0331 15:07:09.442685 10294 layer_factory.hpp:114] Creating layer pool1
I0331 15:07:09.442847 10294 net.cpp:160] Creating Layer pool1
I0331 15:07:09.442890 10294 net.cpp:596] pool1 <- conv1
I0331 15:07:09.442955 10294 net.cpp:570] pool1 -> pool1
I0331 15:07:09.443032 10294 net.cpp:210] Setting up pool1
I0331 15:07:09.443084 10294 net.cpp:217] Top shape: 100 32 16 16 (819200)
I0331 15:07:09.443140 10294 net.cpp:225] Memory required for data: 17614000
I0331 15:07:09.443181 10294 layer_factory.hpp:114] Creating layer relu1
I0331 15:07:09.443245 10294 net.cpp:160] Creating Layer relu1
I0331 15:07:09.443285 10294 net.cpp:596] relu1 <- pool1
I0331 15:07:09.443328 10294 net.cpp:557] relu1 -> pool1 (in-place)
I0331 15:07:09.443377 10294 net.cpp:210] Setting up relu1
I0331 15:07:09.443418 10294 net.cpp:217] Top shape: 100 32 16 16 (819200)
I0331 15:07:09.443449 10294 net.cpp:225] Memory required for data: 20890800
I0331 15:07:09.443482 10294 layer_factory.hpp:114] Creating layer norm1
I0331 15:07:09.443537 10294 net.cpp:160] Creating Layer norm1
I0331 15:07:09.443572 10294 net.cpp:596] norm1 <- pool1
I0331 15:07:09.443612 10294 net.cpp:570] norm1 -> norm1
I0331 15:07:09.443835 10294 net.cpp:210] Setting up norm1
I0331 15:07:09.443891 10294 net.cpp:217] Top shape: 100 32 16 16 (819200)
I0331 15:07:09.443925 10294 net.cpp:225] Memory required for data: 24167600
I0331 15:07:09.443964 10294 layer_factory.hpp:114] Creating layer conv2
I0331 15:07:09.444041 10294 net.cpp:160] Creating Layer conv2
I0331 15:07:09.444082 10294 net.cpp:596] conv2 <- norm1
I0331 15:07:09.444152 10294 net.cpp:570] conv2 -> conv2
I0331 15:07:09.467806 10294 net.cpp:210] Setting up conv2
I0331 15:07:09.467929 10294 net.cpp:217] Top shape: 100 32 16 16 (819200)
I0331 15:07:09.467970 10294 net.cpp:225] Memory required for data: 27444400
I0331 15:07:09.468052 10294 layer_factory.hpp:114] Creating layer relu2
I0331 15:07:09.468117 10294 net.cpp:160] Creating Layer relu2
I0331 15:07:09.468158 10294 net.cpp:596] relu2 <- conv2
I0331 15:07:09.468336 10294 net.cpp:557] relu2 -> conv2 (in-place)
I0331 15:07:09.468411 10294 net.cpp:210] Setting up relu2
I0331 15:07:09.468459 10294 net.cpp:217] Top shape: 100 32 16 16 (819200)
I0331 15:07:09.468492 10294 net.cpp:225] Memory required for data: 30721200
I0331 15:07:09.468528 10294 layer_factory.hpp:114] Creating layer pool2
I0331 15:07:09.468670 10294 net.cpp:160] Creating Layer pool2
I0331 15:07:09.468721 10294 net.cpp:596] pool2 <- conv2
I0331 15:07:09.468814 10294 net.cpp:570] pool2 -> pool2
I0331 15:07:09.468890 10294 net.cpp:210] Setting up pool2
I0331 15:07:09.468941 10294 net.cpp:217] Top shape: 100 32 8 8 (204800)
I0331 15:07:09.468973 10294 net.cpp:225] Memory required for data: 31540400
I0331 15:07:09.469008 10294 layer_factory.hpp:114] Creating layer norm2
I0331 15:07:09.469069 10294 net.cpp:160] Creating Layer norm2
I0331 15:07:09.469105 10294 net.cpp:596] norm2 <- pool2
I0331 15:07:09.469148 10294 net.cpp:570] norm2 -> norm2
I0331 15:07:09.469348 10294 net.cpp:210] Setting up norm2
I0331 15:07:09.469406 10294 net.cpp:217] Top shape: 100 32 8 8 (204800)
I0331 15:07:09.469439 10294 net.cpp:225] Memory required for data: 32359600
I0331 15:07:09.469475 10294 layer_factory.hpp:114] Creating layer conv3
I0331 15:07:09.469544 10294 net.cpp:160] Creating Layer conv3
I0331 15:07:09.469581 10294 net.cpp:596] conv3 <- norm2
I0331 15:07:09.469651 10294 net.cpp:570] conv3 -> conv3
I0331 15:07:09.478734 10294 net.cpp:210] Setting up conv3
I0331 15:07:09.478905 10294 net.cpp:217] Top shape: 100 64 8 8 (409600)
I0331 15:07:09.478950 10294 net.cpp:225] Memory required for data: 33998000
I0331 15:07:09.479043 10294 layer_factory.hpp:114] Creating layer relu3
I0331 15:07:09.479113 10294 net.cpp:160] Creating Layer relu3
I0331 15:07:09.479154 10294 net.cpp:596] relu3 <- conv3
I0331 15:07:09.479202 10294 net.cpp:557] relu3 -> conv3 (in-place)
I0331 15:07:09.479262 10294 net.cpp:210] Setting up relu3
I0331 15:07:09.479308 10294 net.cpp:217] Top shape: 100 64 8 8 (409600)
I0331 15:07:09.479341 10294 net.cpp:225] Memory required for data: 35636400
I0331 15:07:09.479377 10294 layer_factory.hpp:114] Creating layer pool3
I0331 15:07:09.479516 10294 net.cpp:160] Creating Layer pool3
I0331 15:07:09.479569 10294 net.cpp:596] pool3 <- conv3
I0331 15:07:09.479624 10294 net.cpp:570] pool3 -> pool3
I0331 15:07:09.479692 10294 net.cpp:210] Setting up pool3
I0331 15:07:09.479738 10294 net.cpp:217] Top shape: 100 64 4 4 (102400)
I0331 15:07:09.479848 10294 net.cpp:225] Memory required for data: 36046000
I0331 15:07:09.479895 10294 layer_factory.hpp:114] Creating layer ip1
I0331 15:07:09.479979 10294 net.cpp:160] Creating Layer ip1
I0331 15:07:09.480017 10294 net.cpp:596] ip1 <- pool3
I0331 15:07:09.480069 10294 net.cpp:570] ip1 -> ip1
I0331 15:07:09.480911 10294 net.cpp:210] Setting up ip1
I0331 15:07:09.480996 10294 net.cpp:217] Top shape: 100 10 (1000)
I0331 15:07:09.481030 10294 net.cpp:225] Memory required for data: 36050000
I0331 15:07:09.481088 10294 layer_factory.hpp:114] Creating layer ip1_ip1_0_split
I0331 15:07:09.481139 10294 net.cpp:160] Creating Layer ip1_ip1_0_split
I0331 15:07:09.481174 10294 net.cpp:596] ip1_ip1_0_split <- ip1
I0331 15:07:09.481220 10294 net.cpp:570] ip1_ip1_0_split -> ip1_ip1_0_split_0
I0331 15:07:09.481276 10294 net.cpp:570] ip1_ip1_0_split -> ip1_ip1_0_split_1
I0331 15:07:09.481330 10294 net.cpp:210] Setting up ip1_ip1_0_split
I0331 15:07:09.481372 10294 net.cpp:217] Top shape: 100 10 (1000)
I0331 15:07:09.481410 10294 net.cpp:217] Top shape: 100 10 (1000)
I0331 15:07:09.481441 10294 net.cpp:225] Memory required for data: 36058000
I0331 15:07:09.481474 10294 layer_factory.hpp:114] Creating layer accuracy
I0331 15:07:09.481554 10294 net.cpp:160] Creating Layer accuracy
I0331 15:07:09.481593 10294 net.cpp:596] accuracy <- ip1_ip1_0_split_0
I0331 15:07:09.481633 10294 net.cpp:596] accuracy <- label_cifar_1_split_0
I0331 15:07:09.481679 10294 net.cpp:570] accuracy -> accuracy
…
