…
I0202 13:40:54.978718 99886 net.cpp:322] The NetState phase (0) differed from the phase (1) specified by a rule in layer loss3/top-5
I0202 13:40:54.982481 99886 net.cpp:58] Initializing net from parameters: 
name: "GoogleNet"
state {
  phase: TRAIN
  level: 0
  stage: ""
}
layer {
  name: "data"
  type: "Data"
  top: "data"
  top: "label"
  include {
    phase: TRAIN
  }
  transform_param {
    mirror: true
    crop_size: 224
    mean_value: 104
    mean_value: 117
    mean_value: 123
  }
  data_param {
    source: "/home/user/LIBRARIES/caffeLibs/caffe/examples/imagenet/ilsvrc12_train_lmdb"
    batch_size: 112
    backend: LMDB
  }
}
layer {
  name: "conv1/7x7_s2"
  type: "Convolution"
  bottom: "data"
  top: "conv1/7x7_s2"
  param {
    lr_mult: 1
    decay_mult: 1
  }
  param {
    lr_mult: 2
    decay_mult: 0
  }
  convolution_param {
    num_output: 64
    pad: 3
    kernel_size: 7
    stride: 2
    weight_filler {
      type: "xavier"
    }
    bias_filler {
      type: "constant"
      value: 0.2
    }
  }
}
layer {
  name: "conv1/relu_7x7"
  type: "ReLU"
  bottom: "conv1/7x7_s2"
  top: "conv1/7x7_s2"
}
layer {
  name: "pool1/3x3_s2"
  type: "Pooling"
  bottom: "conv1/7x7_s2"
  top: "pool1/3x3_s2"
  pooling_param {
    pool: MAX
    kernel_size: 3
    stride: 2
  }
}
layer {
  name: "pool1/norm1"
  type: "LRN"
  bottom: "pool1/3x3_s2"
  top: "pool1/norm1"
  lrn_param {
    local_size: 5
    alpha: 0.0001
    beta: 0.75
  }
}
layer {
  name: "conv2/3x3_reduce"
  type: "Convolution"
  bottom: "pool1/norm1"
  top: "conv2/3x3_reduce"
  param {
    lr_mult: 1
    decay_mult: 1
  }
  param {
    lr_mult: 2
    decay_mult: 0
  }
  convolution_param {
    num_output: 64
    kernel_size: 1
    weight_filler {
      type: "xavier"
    }
    bias_filler {
      type: "constant"
      value: 0.2
    }
  }
}
layer {
  name: "conv2/relu_3x3_reduce"
  type: "ReLU"
  bottom: "conv2/3x3_reduce"
  top: "conv2/3x3_reduce"
}
layer {
  name: "conv2/3x3"
  type: "Convolution"
  bottom: "conv2/3x3_reduce"
  top: "conv2/3x3"
  param {
    lr_mult: 1
    decay_mult: 1
  }
  param {
    lr_mult: 2
    decay_mult: 0
  }
  convolution_param {
    num_output: 192
    pad: 1
    kernel_size: 3
    weight_filler {
      type: "xavier"
    }
    bias_filler {
      type: "constant"
      value: 0.2
    }
  }
}
layer {
  name: "conv2/relu_3x3"
  type: "ReLU"
  bottom: "conv2/3x3"
  top: "conv2/3x3"
}
layer {
  name: "conv2/norm2"
  type: "LRN"
  bottom: "conv2/3x3"
  top: "conv2/norm2"
  lrn_param {
    local_size: 5
    alpha: 0.0001
    beta: 0.75
  }
}
layer {
  name: "pool2/3x3_s2"
  type: "Pooling"
  bottom: "conv2/norm2"
  top: "pool2/3x3_s2"
  pooling_param {
    pool: MAX
    kernel_size: 3
    stride: 2
  }
}
layer {
  name: "inception_3a/1x1"
  type: "Convolution"
  bottom: "pool2/3x3_s2"
  top: "inception_3a/1x1"
  param {
    lr_mult: 1
    decay_mult: 1
  }
  param {
    lr_mult: 2
    decay_mult: 0
  }
  convolution_param {
    num_output: 64
    kernel_size: 1
    weight_filler {
      type: "xavier"
    }
    bias_filler {
      type: "constant"
      value: 0.2
    }
  }
}
layer {
  name: "inception_3a/relu_1x1"
  type: "ReLU"
  bottom: "inception_3a/1x1"
  top: "inception_3a/1x1"
}
layer {
  name: "inception_3a/3x3_reduce"
  type: "Convolution"
  bottom: "pool2/3x3_s2"
  top: "inception_3a/3x3_reduce"
  param {
    lr_mult: 1
    decay_mult: 1
  }
  param {
    lr_mult: 2
    decay_mult: 0
  }
  convolution_param {
    num_output: 96
    kernel_size: 1
    weight_filler {
      type: "xavier"
    }
    bias_filler {
      type: "constant"
      value: 0.2
    }
  }
}
layer {
  name: "inception_3a/relu_3x3_reduce"
  type: "ReLU"
  bottom: "inception_3a/3x3_reduce"
  top: "inception_3a/3x3_reduce"
}
layer {
  name: "inception_3a/3x3"
  type: "Convolution"
  bottom: "inception_3a/3x3_reduce"
  top: "inception_3a/3x3"
  param {
    lr_mult: 1
    decay_mult: 1
  }
  param {
    lr_mult: 2
    decay_mult: 0
  }
  convolution_param {
    num_output: 128
    pad: 1
    kernel_size: 3
    weight_filler {
      type: "xavier"
    }
    bias_filler {
      type: "constant"
      value: 0.2
    }
  }
}
layer {
  name: "inception_3a/relu_3x3"
  type: "ReLU"
  bottom: "inception_3a/3x3"
  top: "inception_3a/3x3"
}
layer {
  name: "inception_3a/5x5_reduce"
  type: "Convolution"
  bottom: "pool2/3x3_s2"
  top: "inception_3a/5x5_reduce"
  param {
    lr_mult: 1
    decay_mult: 1
  }
  param {
    lr_mult: 2
    decay_mult: 0
  }
  convolution_param {
    num_output: 16
    kernel_size: 1
    weight_filler {
      type: "xavier"
    }
    bias_filler {
      type: "constant"
      value: 0.2
    }
  }
}
layer {
  name: "inception_3a/relu_5x5_reduce"
  type: "ReLU"
  bottom: "inception_3a/5x5_reduce"
  top: "inception_3a/5x5_reduce"
}
layer {
  name: "inception_3a/5x5"
  type: "Convolution"
  bottom: "inception_3a/5x5_reduce"
  top: "inception_3a/5x5"
  param {
    lr_mult: 1
    decay_mult: 1
  }
  param {
    lr_mult: 2
    decay_mult: 0
  }
  convolution_param {
    num_output: 32
    pad: 2
    kernel_size: 5
    weight_filler {
      type: "xavier"
    }
    bias_filler {
      type: "constant"
      value: 0.2
    }
  }
}
layer {
  name: "inception_3a/relu_5x5"
  type: "ReLU"
  bottom: "inception_3a/5x5"
  top: "inception_3a/5x5"
}
layer {
  name: "inception_3a/pool"
  type: "Pooling"
  bottom: "pool2/3x3_s2"
  top: "inception_3a/pool"
  pooling_param {
    pool: MAX
    kernel_size: 3
    stride: 1
    pad: 1
  }
}
layer {
  name: "inception_3a/pool_proj"
  type: "Convolution"
  bottom: "inception_3a/pool"
  top: "inception_3a/pool_proj"
  param {
    lr_mult: 1
    decay_mult: 1
  }
  param {
    lr_mult: 2
    decay_mult: 0
  }
  convolution_param {
    num_output: 32
    kernel_size: 1
    weight_filler {
      type: "xavier"
    }
    bias_filler {
      type: "constant"
      value: 0.2
    }
  }
}
layer {
  name: "inception_3a/relu_pool_proj"
  type: "ReLU"
  bottom: "inception_3a/pool_proj"
  top: "inception_3a/pool_proj"
}
layer {
  name: "inception_3a/output"
  type: "Concat"
  bottom: "inception_3a/1x1"
  bottom: "inception_3a/3x3"
  bottom: "inception_3a/5x5"
  bottom: "inception_3a/pool_proj"
  top: "inception_3a/output"
}
layer {
  name: "inception_3b/1x1"
  type: "Convolution"
  bottom: "inception_3a/output"
  top: "inception_3b/1x1"
  param {
    lr_mult: 1
    decay_mult: 1
  }
  param {
    lr_mult: 2
    decay_mult: 0
  }
  convolution_param {
    num_output: 128
    kernel_size: 1
    weight_filler {
      type: "xavier"
    }
    bias_filler {
      type: "constant"
      value: 0.2
    }
  }
}
layer {
  name: "inception_3b/relu_1x1"
  type: "ReLU"
  bottom: "inception_3b/1x1"
  top: "inception_3b/1x1"
}
layer {
  name: "inception_3b/3x3_reduce"
  type: "Convolution"
  bottom: "inception_3a/output"
  top: "inception_3b/3x3_reduce"
  param {
    lr_mult: 1
    decay_mult: 1
  }
  param {
    lr_mult: 2
    decay_mult: 0
  }
  convolution_param {
    num_output: 128
    kernel_size: 1
    weight_filler {
      type: "xavier"
    }
    bias_filler {
      type: "constant"
      value: 0.2
    }
  }
}
layer {
  name: "inception_3b/relu_3x3_reduce"
  type: "ReLU"
  bottom: "inception_3b/3x3_reduce"
  top: "inception_3b/3x3_reduce"
}
layer {
  name: "inception_3b/3x3"
  type: "Convolution"
  bottom: "inception_3b/3x3_reduce"
  top: "inception_3b/3x3"
  param {
    lr_mult: 1
    decay_mult: 1
  }
  param {
    lr_mult: 2
    decay_mult: 0
  }
  convolution_param {
    num_output: 192
    pad: 1
    kernel_size: 3
    weight_filler {
      type: "xavier"
    }
    bias_filler {
      type: "constant"
      value: 0.2
    }
  }
}
layer {
  name: "inception_3b/relu_3x3"
  type: "ReLU"
  bottom: "inception_3b/3x3"
  top: "inception_3b/3x3"
}
layer {
  name: "inception_3b/5x5_reduce"
  type: "Convolution"
  bottom: "inception_3a/output"
  top: "inception_3b/5x5_reduce"
  param {
    lr_mult: 1
    decay_mult: 1
  }
  param {
    lr_mult: 2
    decay_mult: 0
  }
  convolution_param {
    num_output: 32
    kernel_size: 1
    weight_filler {
      type: "xavier"
    }
    bias_filler {
      type: "constant"
      value: 0.2
    }
  }
}
layer {
  name: "inception_3b/relu_5x5_reduce"
  type: "ReLU"
  bottom: "inception_3b/5x5_reduce"
  top: "inception_3b/5x5_reduce"
}
layer {
  name: "inception_3b/5x5"
  type: "Convolution"
  bottom: "inception_3b/5x5_reduce"
  top: "inception_3b/5x5"
  param {
    lr_mult: 1
    decay_mult: 1
  }
  param {
    lr_mult: 2
    decay_mult: 0
  }
  convolution_param {
    num_output: 96
    pad: 2
    kernel_size: 5
    weight_filler {
      type: "xavier"
    }
    bias_filler {
      type: "constant"
      value: 0.2
    }
  }
}
layer {
  name: "inception_3b/relu_5x5"
  type: "ReLU"
  bottom: "inception_3b/5x5"
  top: "inception_3b/5x5"
}
layer {
  name: "inception_3b/pool"
  type: "Pooling"
  bottom: "inception_3a/output"
  top: "inception_3b/pool"
  pooling_param {
    pool: MAX
    kernel_size: 3
    stride: 1
    pad: 1
  }
}
layer {
  name: "inception_3b/pool_proj"
  type: "Convolution"
  bottom: "inception_3b/pool"
  top: "inception_3b/pool_proj"
  param {
    lr_mult: 1
    decay_mult: 1
  }
  param {
    lr_mult: 2
    decay_mult: 0
  }
  convolution_param {
    num_output: 64
    kernel_size: 1
    weight_filler {
      type: "xavier"
    }
    bias_filler {
      type: "constant"
      value: 0.2
    }
  }
}
layer {
  name: "inception_3b/relu_pool_proj"
  type: "ReLU"
  bottom: "inception_3b/pool_proj"
  top: "inception_3b/pool_proj"
}
layer {
  name: "inception_3b/output"
  type: "Concat"
  bottom: "inception_3b/1x1"
  bottom: "inception_3b/3x3"
  bottom: "inception_3b/5x5"
  bottom: "inception_3b/pool_proj"
  top: "inception_3b/output"
}
layer {
  name: "pool3/3x3_s2"
  type: "Pooling"
  bottom: "inception_3b/output"
  top: "pool3/3x3_s2"
  pooling_param {
    pool: MAX
    kernel_size: 3
    stride: 2
  }
}
layer {
  name: "inception_4a/1x1"
  type: "Convolution"
  bottom: "pool3/3x3_s2"
  top: "inception_4a/1x1"
  param {
    lr_mult: 1
    decay_mult: 1
  }
  param {
    lr_mult: 2
    decay_mult: 0
  }
  convolution_param {
    num_output: 192
    kernel_size: 1
    weight_filler {
      type: "xavier"
    }
    bias_filler {
      type: "constant"
      value: 0.2
    }
  }
}
layer {
  name: "inception_4a/relu_1x1"
  type: "ReLU"
  bottom: "inception_4a/1x1"
  top: "inception_4a/1x1"
}
layer {
  name: "inception_4a/3x3_reduce"
  type: "Convolution"
  bottom: "pool3/3x3_s2"
  top: "inception_4a/3x3_reduce"
  param {
    lr_mult: 1
    decay_mult: 1
  }
  param {
    lr_mult: 2
    decay_mult: 0
  }
  convolution_param {
    num_output: 96
    kernel_size: 1
    weight_filler {
      type: "xavier"
    }
    bias_filler {
      type: "constant"
      value: 0.2
    }
  }
}
layer {
  name: "inception_4a/relu_3x3_reduce"
  type: "ReLU"
  bottom: "inception_4a/3x3_reduce"
  top: "inception_4a/3x3_reduce"
}
layer {
  name: "inception_4a/3x3"
  type: "Convolution"
  bottom: "inception_4a/3x3_reduce"
  top: "inception_4a/3x3"
  param {
    lr_mult: 1
    decay_mult: 1
  }
  param {
    lr_mult: 2
    decay_mult: 0
  }
  convolution_param {
    num_output: 208
    pad: 1
    kernel_size: 3
    weight_filler {
      type: "xavier"
    }
    bias_filler {
      type: "constant"
      value: 0.2
    }
  }
}
layer {
  name: "inception_4a/relu_3x3"
  type: "ReLU"
  bottom: "inception_4a/3x3"
  top: "inception_4a/3x3"
}
layer {
  name: "inception_4a/5x5_reduce"
  type: "Convolution"
  bottom: "pool3/3x3_s2"
  top: "inception_4a/5x5_reduce"
  param {
    lr_mult: 1
    decay_mult: 1
  }
  param {
    lr_mult: 2
    decay_mult: 0
  }
  convolution_param {
    num_output: 16
    kernel_size: 1
    weight_filler {
      type: "xavier"
    }
    bias_filler {
      type: "constant"
      value: 0.2
    }
  }
}
layer {
  name: "inception_4a/relu_5x5_reduce"
  type: "ReLU"
  bottom: "inception_4a/5x5_reduce"
  top: "inception_4a/5x5_reduce"
}
layer {
  name: "inception_4a/5x5"
  type: "Convolution"
  bottom: "inception_4a/5x5_reduce"
  top: "inception_4a/5x5"
  param {
    lr_mult: 1
    decay_mult: 1
  }
  param {
    lr_mult: 2
    decay_mult: 0
  }
  convolution_param {
    num_output: 48
    pad: 2
    kernel_size: 5
    weight_filler {
      type: "xavier"
    }
    bias_filler {
      type: "constant"
      value: 0.2
    }
  }
}
layer {
  name: "inception_4a/relu_5x5"
  type: "ReLU"
  bottom: "inception_4a/5x5"
  top: "inception_4a/5x5"
}
layer {
  name: "inception_4a/pool"
  type: "Pooling"
  bottom: "pool3/3x3_s2"
  top: "inception_4a/pool"
  pooling_param {
    pool: MAX
    kernel_size: 3
    stride: 1
    pad: 1
  }
}
layer {
  name: "inception_4a/pool_proj"
  type: "Convolution"
  bottom: "inception_4a/pool"
  top: "inception_4a/pool_proj"
  param {
    lr_mult: 1
    decay_mult: 1
  }
  param {
    lr_mult: 2
    decay_mult: 0
  }
  convolution_param {
    num_output: 64
    kernel_size: 1
    weight_filler {
      type: "xavier"
    }
    bias_filler {
      type: "constant"
      value: 0.2
    }
  }
}
layer {
  name: "inception_4a/relu_pool_proj"
  type: "ReLU"
  bottom: "inception_4a/pool_proj"
  top: "inception_4a/pool_proj"
}
layer {
  name: "inception_4a/output"
  type: "Concat"
  bottom: "inception_4a/1x1"
  bottom: "inception_4a/3x3"
  bottom: "inception_4a/5x5"
  bottom: "inception_4a/pool_proj"
  top: "inception_4a/output"
}
layer {
  name: "loss1/ave_pool"
  type: "Pooling"
  bottom: "inception_4a/output"
  top: "loss1/ave_pool"
  pooling_param {
    pool: AVE
    kernel_size: 5
    stride: 3
  }
}
layer {
  name: "loss1/conv"
  type: "Convolution"
  bottom: "loss1/ave_pool"
  top: "loss1/conv"
  param {
    lr_mult: 1
    decay_mult: 1
  }
  param {
    lr_mult: 2
    decay_mult: 0
  }
  convolution_param {
    num_output: 128
    kernel_size: 1
    weight_filler {
      type: "xavier"
    }
    bias_filler {
      type: "constant"
      value: 0.2
    }
  }
}
layer {
  name: "loss1/relu_conv"
  type: "ReLU"
  bottom: "loss1/conv"
  top: "loss1/conv"
}
layer {
  name: "loss1/fc"
  type: "InnerProduct"
  bottom: "loss1/conv"
  top: "loss1/fc"
  param {
    lr_mult: 1
    decay_mult: 1
  }
  param {
    lr_mult: 2
    decay_mult: 0
  }
  inner_product_param {
    num_output: 1024
    weight_filler {
      type: "xavier"
    }
    bias_filler {
      type: "constant"
      value: 0.2
    }
  }
}
layer {
  name: "loss1/relu_fc"
  type: "ReLU"
  bottom: "loss1/fc"
  top: "loss1/fc"
}
layer {
  name: "loss1/drop_fc"
  type: "Dropout"
  bottom: "loss1/fc"
  top: "loss1/fc"
  dropout_param {
    dropout_ratio: 0.7
  }
}
layer {
  name: "loss1/classifier"
  type: "InnerProduct"
  bottom: "loss1/fc"
  top: "loss1/classifier"
  param {
    lr_mult: 1
    decay_mult: 1
  }
  param {
    lr_mult: 2
    decay_mult: 0
  }
  inner_product_param {
    num_output: 1000
    weight_filler {
      type: "xavier"
    }
    bias_filler {
      type: "constant"
      value: 0
    }
  }
}
layer {
  name: "loss1/loss"
  type: "SoftmaxWithLoss"
  bottom: "loss1/classifier"
  bottom: "label"
  top: "loss1/loss1"
  loss_weight: 0.3
}
layer {
  name: "inception_4b/1x1"
  type: "Convolution"
  bottom: "inception_4a/output"
  top: "inception_4b/1x1"
  param {
    lr_mult: 1
    decay_mult: 1
  }
  param {
    lr_mult: 2
    decay_mult: 0
  }
  convolution_param {
    num_output: 160
    kernel_size: 1
    weight_filler {
      type: "xavier"
    }
    bias_filler {
      type: "constant"
      value: 0.2
    }
  }
}
layer {
  name: "inception_4b/relu_1x1"
  type: "ReLU"
  bottom: "inception_4b/1x1"
  top: "inception_4b/1x1"
}
layer {
  name: "inception_4b/3x3_reduce"
  type: "Convolution"
  bottom: "inception_4a/output"
  top: "inception_4b/3x3_reduce"
  param {
    lr_mult: 1
    decay_mult: 1
  }
  param {
    lr_mult: 2
    decay_mult: 0
  }
  convolution_param {
    num_output: 112
    kernel_size: 1
    weight_filler {
      type: "xavier"
    }
    bias_filler {
      type: "constant"
      value: 0.2
    }
  }
}
layer {
  name: "inception_4b/relu_3x3_reduce"
  type: "ReLU"
  bottom: "inception_4b/3x3_reduce"
  top: "inception_4b/3x3_reduce"
}
layer {
  name: "inception_4b/3x3"
  type: "Convolution"
  bottom: "inception_4b/3x3_reduce"
  top: "inception_4b/3x3"
  param {
    lr_mult: 1
    decay_mult: 1
  }
  param {
    lr_mult: 2
    decay_mult: 0
  }
  convolution_param {
    num_output: 224
    pad: 1
    kernel_size: 3
    weight_filler {
      type: "xavier"
    }
    bias_filler {
      type: "constant"
      value: 0.2
    }
  }
}
layer {
  name: "inception_4b/relu_3x3"
  type: "ReLU"
  bottom: "inception_4b/3x3"
  top: "inception_4b/3x3"
}
layer {
  name: "inception_4b/5x5_reduce"
  type: "Convolution"
  bottom: "inception_4a/output"
  top: "inception_4b/5x5_reduce"
  param {
    lr_mult: 1
    decay_mult: 1
  }
  param {
    lr_mult: 2
    decay_mult: 0
  }
  convolution_param {
    num_output: 24
    kernel_size: 1
    weight_filler {
      type: "xavier"
    }
    bias_filler {
      type: "constant"
      value: 0.2
    }
  }
}
layer {
  name: "inception_4b/relu_5x5_reduce"
  type: "ReLU"
  bottom: "inception_4b/5x5_reduce"
  top: "inception_4b/5x5_reduce"
}
layer {
  name: "inception_4b/5x5"
  type: "Convolution"
  bottom: "inception_4b/5x5_reduce"
  top: "inception_4b/5x5"
  param {
    lr_mult: 1
    decay_mult: 1
  }
  param {
    lr_mult: 2
    decay_mult: 0
  }
  convolution_param {
    num_output: 64
    pad: 2
    kernel_size: 5
    weight_filler {
      type: "xavier"
    }
    bias_filler {
      type: "constant"
      value: 0.2
    }
  }
}
layer {
  name: "inception_4b/relu_5x5"
  type: "ReLU"
  bottom: "inception_4b/5x5"
  top: "inception_4b/5x5"
}
layer {
  name: "inception_4b/pool"
  type: "Pooling"
  bottom: "inception_4a/output"
  top: "inception_4b/pool"
  pooling_param {
    pool: MAX
    kernel_size: 3
    stride: 1
    pad: 1
  }
}
layer {
  name: "inception_4b/pool_proj"
  type: "Convolution"
  bottom: "inception_4b/pool"
  top: "inception_4b/pool_proj"
  param {
    lr_mult: 1
    decay_mult: 1
  }
  param {
    lr_mult: 2
    decay_mult: 0
  }
  convolution_param {
    num_output: 64
    kernel_size: 1
    weight_filler {
      type: "xavier"
    }
    bias_filler {
      type: "constant"
      value: 0.2
    }
  }
}
layer {
  name: "inception_4b/relu_pool_proj"
  type: "ReLU"
  bottom: "inception_4b/pool_proj"
  top: "inception_4b/pool_proj"
}
layer {
  name: "inception_4b/output"
  type: "Concat"
  bottom: "inception_4b/1x1"
  bottom: "inception_4b/3x3"
  bottom: "inception_4b/5x5"
  bottom: "inception_4b/pool_proj"
  top: "inception_4b/output"
}
layer {
  name: "inception_4c/1x1"
  type: "Convolution"
  bottom: "inception_4b/output"
  top: "inception_4c/1x1"
  param {
    lr_mult: 1
    decay_mult: 1
  }
  param {
    lr_mult: 2
    decay_mult: 0
  }
  convolution_param {
    num_output: 128
    kernel_size: 1
    weight_filler {
      type: "xavier"
    }
    bias_filler {
      type: "constant"
      value: 0.2
    }
  }
}
layer {
  name: "inception_4c/relu_1x1"
  type: "ReLU"
  bottom: "inception_4c/1x1"
  top: "inception_4c/1x1"
}
layer {
  name: "inception_4c/3x3_reduce"
  type: "Convolution"
  bottom: "inception_4b/output"
  top: "inception_4c/3x3_reduce"
  param {
    lr_mult: 1
    decay_mult: 1
  }
  param {
    lr_mult: 2
    decay_mult: 0
  }
  convolution_param {
    num_output: 128
    kernel_size: 1
    weight_filler {
      type: "xavier"
    }
    bias_filler {
      type: "constant"
      value: 0.2
    }
  }
}
layer {
  name: "inception_4c/relu_3x3_reduce"
  type: "ReLU"
  bottom: "inception_4c/3x3_reduce"
  top: "inception_4c/3x3_reduce"
}
layer {
  name: "inception_4c/3x3"
  type: "Convolution"
  bottom: "inception_4c/3x3_reduce"
  top: "inception_4c/3x3"
  param {
    lr_mult: 1
    decay_mult: 1
  }
  param {
    lr_mult: 2
    decay_mult: 0
  }
  convolution_param {
    num_output: 256
    pad: 1
    kernel_size: 3
    weight_filler {
      type: "xavier"
    }
    bias_filler {
      type: "constant"
      value: 0.2
    }
  }
}
layer {
  name: "inception_4c/relu_3x3"
  type: "ReLU"
  bottom: "inception_4c/3x3"
  top: "inception_4c/3x3"
}
layer {
  name: "inception_4c/5x5_reduce"
  type: "Convolution"
  bottom: "inception_4b/output"
  top: "inception_4c/5x5_reduce"
  param {
    lr_mult: 1
    decay_mult: 1
  }
  param {
    lr_mult: 2
    decay_mult: 0
  }
  convolution_param {
    num_output: 24
    kernel_size: 1
    weight_filler {
      type: "xavier"
    }
    bias_filler {
      type: "constant"
      value: 0.2
    }
  }
}
layer {
  name: "inception_4c/relu_5x5_reduce"
  type: "ReLU"
  bottom: "inception_4c/5x5_reduce"
  top: "inception_4c/5x5_reduce"
}
layer {
  name: "inception_4c/5x5"
  type: "Convolution"
  bottom: "inception_4c/5x5_reduce"
  top: "inception_4c/5x5"
  param {
    lr_mult: 1
    decay_mult: 1
  }
  param {
    lr_mult: 2
    decay_mult: 0
  }
  convolution_param {
    num_output: 64
    pad: 2
    kernel_size: 5
    weight_filler {
      type: "xavier"
    }
    bias_filler {
      type: "constant"
      value: 0.2
    }
  }
}
layer {
  name: "inception_4c/relu_5x5"
  type: "ReLU"
  bottom: "inception_4c/5x5"
  top: "inception_4c/5x5"
}
layer {
  name: "inception_4c/pool"
  type: "Pooling"
  bottom: "inception_4b/output"
  top: "inception_4c/pool"
  pooling_param {
    pool: MAX
    kernel_size: 3
    stride: 1
    pad: 1
  }
}
layer {
  name: "inception_4c/pool_proj"
  type: "Convolution"
  bottom: "inception_4c/pool"
  top: "inception_4c/pool_proj"
  param {
    lr_mult: 1
    decay_mult: 1
  }
  param {
    lr_mult: 2
    decay_mult: 0
  }
  convolution_param {
    num_output: 64
    kernel_size: 1
    weight_filler {
      type: "xavier"
    }
    bias_filler {
      type: "constant"
      value: 0.2
    }
  }
}
layer {
  name: "inception_4c/relu_pool_proj"
  type: "ReLU"
  bottom: "inception_4c/pool_proj"
  top: "inception_4c/pool_proj"
}
layer {
  name: "inception_4c/output"
  type: "Concat"
  bottom: "inception_4c/1x1"
  bottom: "inception_4c/3x3"
  bottom: "inception_4c/5x5"
  bottom: "inception_4c/pool_proj"
  top: "inception_4c/output"
}
layer {
  name: "inception_4d/1x1"
  type: "Convolution"
  bottom: "inception_4c/output"
  top: "inception_4d/1x1"
  param {
    lr_mult: 1
    decay_mult: 1
  }
  param {
    lr_mult: 2
    decay_mult: 0
  }
  convolution_param {
    num_output: 112
    kernel_size: 1
    weight_filler {
      type: "xavier"
    }
    bias_filler {
      type: "constant"
      value: 0.2
    }
  }
}
layer {
  name: "inception_4d/relu_1x1"
  type: "ReLU"
  bottom: "inception_4d/1x1"
  top: "inception_4d/1x1"
}
layer {
  name: "inception_4d/3x3_reduce"
  type: "Convolution"
  bottom: "inception_4c/output"
  top: "inception_4d/3x3_reduce"
  param {
    lr_mult: 1
    decay_mult: 1
  }
  param {
    lr_mult: 2
    decay_mult: 0
  }
  convolution_param {
    num_output: 144
    kernel_size: 1
    weight_filler {
      type: "xavier"
    }
    bias_filler {
      type: "constant"
      value: 0.2
    }
  }
}
layer {
  name: "inception_4d/relu_3x3_reduce"
  type: "ReLU"
  bottom: "inception_4d/3x3_reduce"
  top: "inception_4d/3x3_reduce"
}
layer {
  name: "inception_4d/3x3"
  type: "Convolution"
  bottom: "inception_4d/3x3_reduce"
  top: "inception_4d/3x3"
  param {
    lr_mult: 1
    decay_mult: 1
  }
  param {
    lr_mult: 2
    decay_mult: 0
  }
  convolution_param {
    num_output: 288
    pad: 1
    kernel_size: 3
    weight_filler {
      type: "xavier"
    }
    bias_filler {
      type: "constant"
      value: 0.2
    }
  }
}
layer {
  name: "inception_4d/relu_3x3"
  type: "ReLU"
  bottom: "inception_4d/3x3"
  top: "inception_4d/3x3"
}
layer {
  name: "inception_4d/5x5_reduce"
  type: "Convolution"
  bottom: "inception_4c/output"
  top: "inception_4d/5x5_reduce"
  param {
    lr_mult: 1
    decay_mult: 1
  }
  param {
    lr_mult: 2
    decay_mult: 0
  }
  convolution_param {
    num_output: 32
    kernel_size: 1
    weight_filler {
      type: "xavier"
    }
    bias_filler {
      type: "constant"
      value: 0.2
    }
  }
}
layer {
  name: "inception_4d/relu_5x5_reduce"
  type: "ReLU"
  bottom: "inception_4d/5x5_reduce"
  top: "inception_4d/5x5_reduce"
}
layer {
  name: "inception_4d/5x5"
  type: "Convolution"
  bottom: "inception_4d/5x5_reduce"
  top: "inception_4d/5x5"
  param {
    lr_mult: 1
    decay_mult: 1
  }
  param {
    lr_mult: 2
    decay_mult: 0
  }
  convolution_param {
    num_output: 64
    pad: 2
    kernel_size: 5
    weight_filler {
      type: "xavier"
    }
    bias_filler {
      type: "constant"
      value: 0.2
    }
  }
}
layer {
  name: "inception_4d/relu_5x5"
  type: "ReLU"
  bottom: "inception_4d/5x5"
  top: "inception_4d/5x5"
}
layer {
  name: "inception_4d/pool"
  type: "Pooling"
  bottom: "inception_4c/output"
  top: "inception_4d/pool"
  pooling_param {
    pool: MAX
    kernel_size: 3
    stride: 1
    pad: 1
  }
}
layer {
  name: "inception_4d/pool_proj"
  type: "Convolution"
  bottom: "inception_4d/pool"
  top: "inception_4d/pool_proj"
  param {
    lr_mult: 1
    decay_mult: 1
  }
  param {
    lr_mult: 2
    decay_mult: 0
  }
  convolution_param {
    num_output: 64
    kernel_size: 1
    weight_filler {
      type: "xavier"
    }
    bias_filler {
      type: "constant"
      value: 0.2
    }
  }
}
layer {
  name: "inception_4d/relu_pool_proj"
  type: "ReLU"
  bottom: "inception_4d/pool_proj"
  top: "inception_4d/pool_proj"
}
layer {
  name: "inception_4d/output"
  type: "Concat"
  bottom: "inception_4d/1x1"
  bottom: "inception_4d/3x3"
  bottom: "inception_4d/5x5"
  bottom: "inception_4d/pool_proj"
  top: "inception_4d/output"
}
layer {
  name: "loss2/ave_pool"
  type: "Pooling"
  bottom: "inception_4d/output"
  top: "loss2/ave_pool"
  pooling_param {
    pool: AVE
    kernel_size: 5
    stride: 3
  }
}
layer {
  name: "loss2/conv"
  type: "Convolution"
  bottom: "loss2/ave_pool"
  top: "loss2/conv"
  param {
    lr_mult: 1
    decay_mult: 1
  }
  param {
    lr_mult: 2
    decay_mult: 0
  }
  convolution_param {
    num_output: 128
    kernel_size: 1
    weight_filler {
      type: "xavier"
    }
    bias_filler {
      type: "constant"
      value: 0.2
    }
  }
}
layer {
  name: "loss2/relu_conv"
  type: "ReLU"
  bottom: "loss2/conv"
  top: "loss2/conv"
}
layer {
  name: "loss2/fc"
  type: "InnerProduct"
  bottom: "loss2/conv"
  top: "loss2/fc"
  param {
    lr_mult: 1
    decay_mult: 1
  }
  param {
    lr_mult: 2
    decay_mult: 0
  }
  inner_product_param {
    num_output: 1024
    weight_filler {
      type: "xavier"
    }
    bias_filler {
      type: "constant"
      value: 0.2
    }
  }
}
layer {
  name: "loss2/relu_fc"
  type: "ReLU"
  bottom: "loss2/fc"
  top: "loss2/fc"
}
layer {
  name: "loss2/drop_fc"
  type: "Dropout"
  bottom: "loss2/fc"
  top: "loss2/fc"
  dropout_param {
    dropout_ratio: 0.7
  }
}
layer {
  name: "loss2/classifier"
  type: "InnerProduct"
  bottom: "loss2/fc"
  top: "loss2/classifier"
  param {
    lr_mult: 1
    decay_mult: 1
  }
  param {
    lr_mult: 2
    decay_mult: 0
  }
  inner_product_param {
    num_output: 1000
    weight_filler {
      type: "xavier"
    }
    bias_filler {
      type: "constant"
      value: 0
    }
  }
}
layer {
  name: "loss2/loss"
  type: "SoftmaxWithLoss"
  bottom: "loss2/classifier"
  bottom: "label"
  top: "loss2/loss1"
  loss_weight: 0.3
}
layer {
  name: "inception_4e/1x1"
  type: "Convolution"
  bottom: "inception_4d/output"
  top: "inception_4e/1x1"
  param {
    lr_mult: 1
    decay_mult: 1
  }
  param {
    lr_mult: 2
    decay_mult: 0
  }
  convolution_param {
    num_output: 256
    kernel_size: 1
    weight_filler {
      type: "xavier"
    }
    bias_filler {
      type: "constant"
      value: 0.2
    }
  }
}
layer {
  name: "inception_4e/relu_1x1"
  type: "ReLU"
  bottom: "inception_4e/1x1"
  top: "inception_4e/1x1"
}
layer {
  name: "inception_4e/3x3_reduce"
  type: "Convolution"
  bottom: "inception_4d/output"
  top: "inception_4e/3x3_reduce"
  param {
    lr_mult: 1
    decay_mult: 1
  }
  param {
    lr_mult: 2
    decay_mult: 0
  }
  convolution_param {
    num_output: 160
    kernel_size: 1
    weight_filler {
      type: "xavier"
    }
    bias_filler {
      type: "constant"
      value: 0.2
    }
  }
}
layer {
  name: "inception_4e/relu_3x3_reduce"
  type: "ReLU"
  bottom: "inception_4e/3x3_reduce"
  top: "inception_4e/3x3_reduce"
}
layer {
  name: "inception_4e/3x3"
  type: "Convolution"
  bottom: "inception_4e/3x3_reduce"
  top: "inception_4e/3x3"
  param {
    lr_mult: 1
    decay_mult: 1
  }
  param {
    lr_mult: 2
    decay_mult: 0
  }
  convolution_param {
    num_output: 320
    pad: 1
    kernel_size: 3
    weight_filler {
      type: "xavier"
    }
    bias_filler {
      type: "constant"
      value: 0.2
    }
  }
}
layer {
  name: "inception_4e/relu_3x3"
  type: "ReLU"
  bottom: "inception_4e/3x3"
  top: "inception_4e/3x3"
}
layer {
  name: "inception_4e/5x5_reduce"
  type: "Convolution"
  bottom: "inception_4d/output"
  top: "inception_4e/5x5_reduce"
  param {
    lr_mult: 1
    decay_mult: 1
  }
  param {
    lr_mult: 2
    decay_mult: 0
  }
  convolution_param {
    num_output: 32
    kernel_size: 1
    weight_filler {
      type: "xavier"
    }
    bias_filler {
      type: "constant"
      value: 0.2
    }
  }
}
layer {
  name: "inception_4e/relu_5x5_reduce"
  type: "ReLU"
  bottom: "inception_4e/5x5_reduce"
  top: "inception_4e/5x5_reduce"
}
layer {
  name: "inception_4e/5x5"
  type: "Convolution"
  bottom: "inception_4e/5x5_reduce"
  top: "inception_4e/5x5"
  param {
    lr_mult: 1
    decay_mult: 1
  }
  param {
    lr_mult: 2
    decay_mult: 0
  }
  convolution_param {
    num_output: 128
    pad: 2
    kernel_size: 5
    weight_filler {
      type: "xavier"
    }
    bias_filler {
      type: "constant"
      value: 0.2
    }
  }
}
layer {
  name: "inception_4e/relu_5x5"
  type: "ReLU"
  bottom: "inception_4e/5x5"
  top: "inception_4e/5x5"
}
layer {
  name: "inception_4e/pool"
  type: "Pooling"
  bottom: "inception_4d/output"
  top: "inception_4e/pool"
  po
I0202 13:40:54.983618 99886 layer_factory.hpp:77] Creating layer data
I0202 13:40:54.984520 99886 net.cpp:100] Creating Layer data
I0202 13:40:54.984544 99886 net.cpp:408] data -> data
I0202 13:40:54.984573 99886 net.cpp:408] data -> label
I0202 13:40:54.985095 99887 db_lmdb.cpp:35] Opened lmdb /home/user/LIBRARIES/caffeLibs/caffe/examples/imagenet/ilsvrc12_train_lmdb
I0202 13:40:54.985754 99886 data_layer.cpp:41] output data size: 112,3,224,224
I0202 13:40:55.058986 99886 net.cpp:150] Setting up data
I0202 13:40:55.059078 99886 net.cpp:157] Top shape: 112 3 224 224 (16859136)
I0202 13:40:55.059087 99886 net.cpp:157] Top shape: 112 (112)
I0202 13:40:55.059092 99886 net.cpp:165] Memory required for data: 67436992
I0202 13:40:55.059108 99886 layer_factory.hpp:77] Creating layer label_data_1_split
I0202 13:40:55.059129 99886 net.cpp:100] Creating Layer label_data_1_split
I0202 13:40:55.059139 99886 net.cpp:434] label_data_1_split <- label
I0202 13:40:55.059164 99886 net.cpp:408] label_data_1_split -> label_data_1_split_0
I0202 13:40:55.059176 99886 net.cpp:408] label_data_1_split -> label_data_1_split_1
I0202 13:40:55.059185 99886 net.cpp:408] label_data_1_split -> label_data_1_split_2
I0202 13:40:55.059214 99886 net.cpp:150] Setting up label_data_1_split
I0202 13:40:55.059237 99886 net.cpp:157] Top shape: 112 (112)
I0202 13:40:55.059242 99886 net.cpp:157] Top shape: 112 (112)
I0202 13:40:55.059247 99886 net.cpp:157] Top shape: 112 (112)
I0202 13:40:55.059249 99886 net.cpp:165] Memory required for data: 67438336
I0202 13:40:55.059253 99886 layer_factory.hpp:77] Creating layer conv1/7x7_s2
I0202 13:40:55.059290 99886 net.cpp:100] Creating Layer conv1/7x7_s2
I0202 13:40:55.059295 99886 net.cpp:434] conv1/7x7_s2 <- data
I0202 13:40:55.059304 99886 net.cpp:408] conv1/7x7_s2 -> conv1/7x7_s2
I0202 13:40:55.059530 99886 net.cpp:150] Setting up conv1/7x7_s2
I0202 13:40:55.059538 99886 net.cpp:157] Top shape: 112 64 112 112 (89915392)
I0202 13:40:55.059542 99886 net.cpp:165] Memory required for data: 427099904
I0202 13:40:55.059562 99886 layer_factory.hpp:77] Creating layer conv1/relu_7x7
I0202 13:40:55.059571 99886 net.cpp:100] Creating Layer conv1/relu_7x7
I0202 13:40:55.059576 99886 net.cpp:434] conv1/relu_7x7 <- conv1/7x7_s2
I0202 13:40:55.059584 99886 net.cpp:395] conv1/relu_7x7 -> conv1/7x7_s2 (in-place)
I0202 13:40:55.059594 99886 net.cpp:150] Setting up conv1/relu_7x7
I0202 13:40:55.059599 99886 net.cpp:157] Top shape: 112 64 112 112 (89915392)
I0202 13:40:55.059603 99886 net.cpp:165] Memory required for data: 786761472
I0202 13:40:55.059607 99886 layer_factory.hpp:77] Creating layer pool1/3x3_s2
I0202 13:40:55.059615 99886 net.cpp:100] Creating Layer pool1/3x3_s2
I0202 13:40:55.059619 99886 net.cpp:434] pool1/3x3_s2 <- conv1/7x7_s2
I0202 13:40:55.059630 99886 net.cpp:408] pool1/3x3_s2 -> pool1/3x3_s2
I0202 13:40:55.059661 99886 net.cpp:150] Setting up pool1/3x3_s2
I0202 13:40:55.059669 99886 net.cpp:157] Top shape: 112 64 56 56 (22478848)
I0202 13:40:55.059671 99886 net.cpp:165] Memory required for data: 876676864
I0202 13:40:55.059675 99886 layer_factory.hpp:77] Creating layer pool1/norm1
I0202 13:40:55.059686 99886 net.cpp:100] Creating Layer pool1/norm1
I0202 13:40:55.059690 99886 net.cpp:434] pool1/norm1 <- pool1/3x3_s2
I0202 13:40:55.059698 99886 net.cpp:408] pool1/norm1 -> pool1/norm1
I0202 13:40:55.059711 99886 net.cpp:150] Setting up pool1/norm1
I0202 13:40:55.059717 99886 net.cpp:157] Top shape: 112 64 56 56 (22478848)
I0202 13:40:55.059720 99886 net.cpp:165] Memory required for data: 966592256
I0202 13:40:55.059725 99886 layer_factory.hpp:77] Creating layer conv2/3x3_reduce
I0202 13:40:55.059736 99886 net.cpp:100] Creating Layer conv2/3x3_reduce
I0202 13:40:55.059739 99886 net.cpp:434] conv2/3x3_reduce <- pool1/norm1
I0202 13:40:55.059749 99886 net.cpp:408] conv2/3x3_reduce -> conv2/3x3_reduce
I0202 13:40:55.059810 99886 net.cpp:150] Setting up conv2/3x3_reduce
I0202 13:40:55.059818 99886 net.cpp:157] Top shape: 112 64 56 56 (22478848)
I0202 13:40:55.059821 99886 net.cpp:165] Memory required for data: 1056507648
I0202 13:40:55.059829 99886 layer_factory.hpp:77] Creating layer conv2/relu_3x3_reduce
I0202 13:40:55.059836 99886 net.cpp:100] Creating Layer conv2/relu_3x3_reduce
I0202 13:40:55.059840 99886 net.cpp:434] conv2/relu_3x3_reduce <- conv2/3x3_reduce
I0202 13:40:55.059845 99886 net.cpp:395] conv2/relu_3x3_reduce -> conv2/3x3_reduce (in-place)
I0202 13:40:55.059852 99886 net.cpp:150] Setting up conv2/relu_3x3_reduce
I0202 13:40:55.059857 99886 net.cpp:157] Top shape: 112 64 56 56 (22478848)
I0202 13:40:55.059861 99886 net.cpp:165] Memory required for data: 1146423040
I0202 13:40:55.059864 99886 layer_factory.hpp:77] Creating layer conv2/3x3
I0202 13:40:55.059878 99886 net.cpp:100] Creating Layer conv2/3x3
I0202 13:40:55.059882 99886 net.cpp:434] conv2/3x3 <- conv2/3x3_reduce
I0202 13:40:55.059890 99886 net.cpp:408] conv2/3x3 -> conv2/3x3
I0202 13:40:55.060956 99886 net.cpp:150] Setting up conv2/3x3
I0202 13:40:55.060967 99886 net.cpp:157] Top shape: 112 192 56 56 (67436544)
I0202 13:40:55.060971 99886 net.cpp:165] Memory required for data: 1416169216
I0202 13:40:55.060981 99886 layer_factory.hpp:77] Creating layer conv2/relu_3x3
I0202 13:40:55.060988 99886 net.cpp:100] Creating Layer conv2/relu_3x3
I0202 13:40:55.060998 99886 net.cpp:434] conv2/relu_3x3 <- conv2/3x3
I0202 13:40:55.061012 99886 net.cpp:395] conv2/relu_3x3 -> conv2/3x3 (in-place)
I0202 13:40:55.061018 99886 net.cpp:150] Setting up conv2/relu_3x3
I0202 13:40:55.061023 99886 net.cpp:157] Top shape: 112 192 56 56 (67436544)
I0202 13:40:55.061028 99886 net.cpp:165] Memory required for data: 1685915392
I0202 13:40:55.061030 99886 layer_factory.hpp:77] Creating layer conv2/norm2
I0202 13:40:55.061039 99886 net.cpp:100] Creating Layer conv2/norm2
I0202 13:40:55.061043 99886 net.cpp:434] conv2/norm2 <- conv2/3x3
I0202 13:40:55.061049 99886 net.cpp:408] conv2/norm2 -> conv2/norm2
I0202 13:40:55.061058 99886 net.cpp:150] Setting up conv2/norm2
I0202 13:40:55.061063 99886 net.cpp:157] Top shape: 112 192 56 56 (67436544)
I0202 13:40:55.061065 99886 net.cpp:165] Memory required for data: 1955661568
I0202 13:40:55.061069 99886 layer_factory.hpp:77] Creating layer pool2/3x3_s2
I0202 13:40:55.061079 99886 net.cpp:100] Creating Layer pool2/3x3_s2
I0202 13:40:55.061084 99886 net.cpp:434] pool2/3x3_s2 <- conv2/norm2
I0202 13:40:55.061089 99886 net.cpp:408] pool2/3x3_s2 -> pool2/3x3_s2
I0202 13:40:55.061096 99886 net.cpp:150] Setting up pool2/3x3_s2
I0202 13:40:55.061102 99886 net.cpp:157] Top shape: 112 192 28 28 (16859136)
I0202 13:40:55.061105 99886 net.cpp:165] Memory required for data: 2023098112
I0202 13:40:55.061110 99886 layer_factory.hpp:77] Creating layer pool2/3x3_s2_pool2/3x3_s2_0_split
I0202 13:40:55.061116 99886 net.cpp:100] Creating Layer pool2/3x3_s2_pool2/3x3_s2_0_split
I0202 13:40:55.061120 99886 net.cpp:434] pool2/3x3_s2_pool2/3x3_s2_0_split <- pool2/3x3_s2
I0202 13:40:55.061125 99886 net.cpp:408] pool2/3x3_s2_pool2/3x3_s2_0_split -> pool2/3x3_s2_pool2/3x3_s2_0_split_0
I0202 13:40:55.061134 99886 net.cpp:408] pool2/3x3_s2_pool2/3x3_s2_0_split -> pool2/3x3_s2_pool2/3x3_s2_0_split_1
I0202 13:40:55.061141 99886 net.cpp:408] pool2/3x3_s2_pool2/3x3_s2_0_split -> pool2/3x3_s2_pool2/3x3_s2_0_split_2
I0202 13:40:55.061147 99886 net.cpp:408] pool2/3x3_s2_pool2/3x3_s2_0_split -> pool2/3x3_s2_pool2/3x3_s2_0_split_3
I0202 13:40:55.061154 99886 net.cpp:150] Setting up pool2/3x3_s2_pool2/3x3_s2_0_split
I0202 13:40:55.061159 99886 net.cpp:157] Top shape: 112 192 28 28 (16859136)
I0202 13:40:55.061164 99886 net.cpp:157] Top shape: 112 192 28 28 (16859136)
I0202 13:40:55.061169 99886 net.cpp:157] Top shape: 112 192 28 28 (16859136)
I0202 13:40:55.061173 99886 net.cpp:157] Top shape: 112 192 28 28 (16859136)
I0202 13:40:55.061177 99886 net.cpp:165] Memory required for data: 2292844288
I0202 13:40:55.061180 99886 layer_factory.hpp:77] Creating layer inception_3a/1x1
I0202 13:40:55.061189 99886 net.cpp:100] Creating Layer inception_3a/1x1
I0202 13:40:55.061193 99886 net.cpp:434] inception_3a/1x1 <- pool2/3x3_s2_pool2/3x3_s2_0_split_0
I0202 13:40:55.061203 99886 net.cpp:408] inception_3a/1x1 -> inception_3a/1x1
I0202 13:40:55.061333 99886 net.cpp:150] Setting up inception_3a/1x1
I0202 13:40:55.061341 99886 net.cpp:157] Top shape: 112 64 28 28 (5619712)
I0202 13:40:55.061344 99886 net.cpp:165] Memory required for data: 2315323136
I0202 13:40:55.061352 99886 layer_factory.hpp:77] Creating layer inception_3a/relu_1x1
I0202 13:40:55.061359 99886 net.cpp:100] Creating Layer inception_3a/relu_1x1
I0202 13:40:55.061363 99886 net.cpp:434] inception_3a/relu_1x1 <- inception_3a/1x1
I0202 13:40:55.061369 99886 net.cpp:395] inception_3a/relu_1x1 -> inception_3a/1x1 (in-place)
I0202 13:40:55.061375 99886 net.cpp:150] Setting up inception_3a/relu_1x1
I0202 13:40:55.061380 99886 net.cpp:157] Top shape: 112 64 28 28 (5619712)
I0202 13:40:55.061384 99886 net.cpp:165] Memory required for data: 2337801984
I0202 13:40:55.061388 99886 layer_factory.hpp:77] Creating layer inception_3a/3x3_reduce
I0202 13:40:55.061399 99886 net.cpp:100] Creating Layer inception_3a/3x3_reduce
I0202 13:40:55.061404 99886 net.cpp:434] inception_3a/3x3_reduce <- pool2/3x3_s2_pool2/3x3_s2_0_split_1
I0202 13:40:55.061413 99886 net.cpp:408] inception_3a/3x3_reduce -> inception_3a/3x3_reduce
I0202 13:40:55.061604 99886 net.cpp:150] Setting up inception_3a/3x3_reduce
I0202 13:40:55.061617 99886 net.cpp:157] Top shape: 112 96 28 28 (8429568)
I0202 13:40:55.061620 99886 net.cpp:165] Memory required for data: 2371520256
I0202 13:40:55.061635 99886 layer_factory.hpp:77] Creating layer inception_3a/relu_3x3_reduce
I0202 13:40:55.061648 99886 net.cpp:100] Creating Layer inception_3a/relu_3x3_reduce
I0202 13:40:55.061653 99886 net.cpp:434] inception_3a/relu_3x3_reduce <- inception_3a/3x3_reduce
I0202 13:40:55.061661 99886 net.cpp:395] inception_3a/relu_3x3_reduce -> inception_3a/3x3_reduce (in-place)
I0202 13:40:55.061668 99886 net.cpp:150] Setting up inception_3a/relu_3x3_reduce
I0202 13:40:55.061673 99886 net.cpp:157] Top shape: 112 96 28 28 (8429568)
I0202 13:40:55.061676 99886 net.cpp:165] Memory required for data: 2405238528
I0202 13:40:55.061681 99886 layer_factory.hpp:77] Creating layer inception_3a/3x3
I0202 13:40:55.061688 99886 net.cpp:100] Creating Layer inception_3a/3x3
I0202 13:40:55.061692 99886 net.cpp:434] inception_3a/3x3 <- inception_3a/3x3_reduce
I0202 13:40:55.061700 99886 net.cpp:408] inception_3a/3x3 -> inception_3a/3x3
I0202 13:40:55.062758 99886 net.cpp:150] Setting up inception_3a/3x3
I0202 13:40:55.062770 99886 net.cpp:157] Top shape: 112 128 28 28 (11239424)
I0202 13:40:55.062773 99886 net.cpp:165] Memory required for data: 2450196224
I0202 13:40:55.062782 99886 layer_factory.hpp:77] Creating layer inception_3a/relu_3x3
I0202 13:40:55.062788 99886 net.cpp:100] Creating Layer inception_3a/relu_3x3
I0202 13:40:55.062793 99886 net.cpp:434] inception_3a/relu_3x3 <- inception_3a/3x3
I0202 13:40:55.062800 99886 net.cpp:395] inception_3a/relu_3x3 -> inception_3a/3x3 (in-place)
I0202 13:40:55.062808 99886 net.cpp:150] Setting up inception_3a/relu_3x3
I0202 13:40:55.062813 99886 net.cpp:157] Top shape: 112 128 28 28 (11239424)
I0202 13:40:55.062816 99886 net.cpp:165] Memory required for data: 2495153920
I0202 13:40:55.062820 99886 layer_factory.hpp:77] Creating layer inception_3a/5x5_reduce
I0202 13:40:55.062831 99886 net.cpp:100] Creating Layer inception_3a/5x5_reduce
I0202 13:40:55.062836 99886 net.cpp:434] inception_3a/5x5_reduce <- pool2/3x3_s2_pool2/3x3_s2_0_split_2
I0202 13:40:55.062842 99886 net.cpp:408] inception_3a/5x5_reduce -> inception_3a/5x5_reduce
I0202 13:40:55.062902 99886 net.cpp:150] Setting up inception_3a/5x5_reduce
I0202 13:40:55.062909 99886 net.cpp:157] Top shape: 112 16 28 28 (1404928)
I0202 13:40:55.062912 99886 net.cpp:165] Memory required for data: 2500773632
I0202 13:40:55.062919 99886 layer_factory.hpp:77] Creating layer inception_3a/relu_5x5_reduce
I0202 13:40:55.062927 99886 net.cpp:100] Creating Layer inception_3a/relu_5x5_reduce
I0202 13:40:55.062930 99886 net.cpp:434] inception_3a/relu_5x5_reduce <- inception_3a/5x5_reduce
I0202 13:40:55.062937 99886 net.cpp:395] inception_3a/relu_5x5_reduce -> inception_3a/5x5_reduce (in-place)
I0202 13:40:55.062942 99886 net.cpp:150] Setting up inception_3a/relu_5x5_reduce
I0202 13:40:55.062947 99886 net.cpp:157] Top shape: 112 16 28 28 (1404928)
I0202 13:40:55.062952 99886 net.cpp:165] Memory required for data: 2506393344
I0202 13:40:55.062954 99886 layer_factory.hpp:77] Creating layer inception_3a/5x5
I0202 13:40:55.062964 99886 net.cpp:100] Creating Layer inception_3a/5x5
I0202 13:40:55.062968 99886 net.cpp:434] inception_3a/5x5 <- inception_3a/5x5_reduce
I0202 13:40:55.062974 99886 net.cpp:408] inception_3a/5x5 -> inception_3a/5x5
I0202 13:40:55.063118 99886 net.cpp:150] Setting up inception_3a/5x5
I0202 13:40:55.063125 99886 net.cpp:157] Top shape: 112 32 28 28 (2809856)
I0202 13:40:55.063129 99886 net.cpp:165] Memory required for data: 2517632768
I0202 13:40:55.063135 99886 layer_factory.hpp:77] Creating layer inception_3a/relu_5x5
I0202 13:40:55.063141 99886 net.cpp:100] Creating Layer inception_3a/relu_5x5
I0202 13:40:55.063145 99886 net.cpp:434] inception_3a/relu_5x5 <- inception_3a/5x5
I0202 13:40:55.063153 99886 net.cpp:395] inception_3a/relu_5x5 -> inception_3a/5x5 (in-place)
I0202 13:40:55.063159 99886 net.cpp:150] Setting up inception_3a/relu_5x5
I0202 13:40:55.063169 99886 net.cpp:157] Top shape: 112 32 28 28 (2809856)
I0202 13:40:55.063181 99886 net.cpp:165] Memory required for data: 2528872192
I0202 13:40:55.063185 99886 layer_factory.hpp:77] Creating layer inception_3a/pool
I0202 13:40:55.063194 99886 net.cpp:100] Creating Layer inception_3a/pool
I0202 13:40:55.063199 99886 net.cpp:434] inception_3a/pool <- pool2/3x3_s2_pool2/3x3_s2_0_split_3
I0202 13:40:55.063205 99886 net.cpp:408] inception_3a/pool -> inception_3a/pool
I0202 13:40:55.063215 99886 net.cpp:150] Setting up inception_3a/pool
I0202 13:40:55.063220 99886 net.cpp:157] Top shape: 112 192 28 28 (16859136)
I0202 13:40:55.063225 99886 net.cpp:165] Memory required for data: 2596308736
I0202 13:40:55.063227 99886 layer_factory.hpp:77] Creating layer inception_3a/pool_proj
I0202 13:40:55.063238 99886 net.cpp:100] Creating Layer inception_3a/pool_proj
I0202 13:40:55.063242 99886 net.cpp:434] inception_3a/pool_proj <- inception_3a/pool
I0202 13:40:55.063251 99886 net.cpp:408] inception_3a/pool_proj -> inception_3a/pool_proj
I0202 13:40:55.063343 99886 net.cpp:150] Setting up inception_3a/pool_proj
I0202 13:40:55.063349 99886 net.cpp:157] Top shape: 112 32 28 28 (2809856)
I0202 13:40:55.063354 99886 net.cpp:165] Memory required for data: 2607548160
I0202 13:40:55.063366 99886 layer_factory.hpp:77] Creating layer inception_3a/relu_pool_proj
I0202 13:40:55.063372 99886 net.cpp:100] Creating Layer inception_3a/relu_pool_proj
I0202 13:40:55.063376 99886 net.cpp:434] inception_3a/relu_pool_proj <- inception_3a/pool_proj
I0202 13:40:55.063382 99886 net.cpp:395] inception_3a/relu_pool_proj -> inception_3a/pool_proj (in-place)
I0202 13:40:55.063388 99886 net.cpp:150] Setting up inception_3a/relu_pool_proj
I0202 13:40:55.063393 99886 net.cpp:157] Top shape: 112 32 28 28 (2809856)
I0202 13:40:55.063396 99886 net.cpp:165] Memory required for data: 2618787584
I0202 13:40:55.063400 99886 layer_factory.hpp:77] Creating layer inception_3a/output
I0202 13:40:55.063410 99886 net.cpp:100] Creating Layer inception_3a/output
I0202 13:40:55.063415 99886 net.cpp:434] inception_3a/output <- inception_3a/1x1
I0202 13:40:55.063419 99886 net.cpp:434] inception_3a/output <- inception_3a/3x3
I0202 13:40:55.063424 99886 net.cpp:434] inception_3a/output <- inception_3a/5x5
I0202 13:40:55.063428 99886 net.cpp:434] inception_3a/output <- inception_3a/pool_proj
I0202 13:40:55.063437 99886 net.cpp:408] inception_3a/output -> inception_3a/output
I0202 13:40:55.063449 99886 net.cpp:150] Setting up inception_3a/output
I0202 13:40:55.063455 99886 net.cpp:157] Top shape: 112 256 28 28 (22478848)
I0202 13:40:55.063459 99886 net.cpp:165] Memory required for data: 2708702976
I0202 13:40:55.063463 99886 layer_factory.hpp:77] Creating layer inception_3a/output_inception_3a/output_0_split
I0202 13:40:55.063470 99886 net.cpp:100] Creating Layer inception_3a/output_inception_3a/output_0_split
I0202 13:40:55.063474 99886 net.cpp:434] inception_3a/output_inception_3a/output_0_split <- inception_3a/output
I0202 13:40:55.063482 99886 net.cpp:408] inception_3a/output_inception_3a/output_0_split -> inception_3a/output_inception_3a/output_0_split_0
I0202 13:40:55.063489 99886 net.cpp:408] inception_3a/output_inception_3a/output_0_split -> inception_3a/output_inception_3a/output_0_split_1
I0202 13:40:55.063495 99886 net.cpp:408] inception_3a/output_inception_3a/output_0_split -> inception_3a/output_inception_3a/output_0_split_2
I0202 13:40:55.063503 99886 net.cpp:408] inception_3a/output_inception_3a/output_0_split -> inception_3a/output_inception_3a/output_0_split_3
I0202 13:40:55.063509 99886 net.cpp:150] Setting up inception_3a/output_inception_3a/output_0_split
I0202 13:40:55.063514 99886 net.cpp:157] Top shape: 112 256 28 28 (22478848)
I0202 13:40:55.063519 99886 net.cpp:157] Top shape: 112 256 28 28 (22478848)
I0202 13:40:55.063524 99886 net.cpp:157] Top shape: 112 256 28 28 (22478848)
I0202 13:40:55.063529 99886 net.cpp:157] Top shape: 112 256 28 28 (22478848)
I0202 13:40:55.063532 99886 net.cpp:165] Memory required for data: 3068364544
I0202 13:40:55.063540 99886 layer_factory.hpp:77] Creating layer inception_3b/1x1
I0202 13:40:55.063570 99886 net.cpp:100] Creating Layer inception_3b/1x1
I0202 13:40:55.063575 99886 net.cpp:434] inception_3b/1x1 <- inception_3a/output_inception_3a/output_0_split_0
I0202 13:40:55.063581 99886 net.cpp:408] inception_3b/1x1 -> inception_3b/1x1
I0202 13:40:55.063905 99886 net.cpp:150] Setting up inception_3b/1x1
I0202 13:40:55.063915 99886 net.cpp:157] Top shape: 112 128 28 28 (11239424)
I0202 13:40:55.063920 99886 net.cpp:165] Memory required for data: 3113322240
I0202 13:40:55.063926 99886 layer_factory.hpp:77] Creating layer inception_3b/relu_1x1
I0202 13:40:55.063932 99886 net.cpp:100] Creating Layer inception_3b/relu_1x1
I0202 13:40:55.063937 99886 net.cpp:434] inception_3b/relu_1x1 <- inception_3b/1x1
I0202 13:40:55.063942 99886 net.cpp:395] inception_3b/relu_1x1 -> inception_3b/1x1 (in-place)
I0202 13:40:55.063949 99886 net.cpp:150] Setting up inception_3b/relu_1x1
I0202 13:40:55.063954 99886 net.cpp:157] Top shape: 112 128 28 28 (11239424)
I0202 13:40:55.063957 99886 net.cpp:165] Memory required for data: 3158279936
I0202 13:40:55.063961 99886 layer_factory.hpp:77] Creating layer inception_3b/3x3_reduce
I0202 13:40:55.063973 99886 net.cpp:100] Creating Layer inception_3b/3x3_reduce
I0202 13:40:55.063977 99886 net.cpp:434] inception_3b/3x3_reduce <- inception_3a/output_inception_3a/output_0_split_1
I0202 13:40:55.063985 99886 net.cpp:408] inception_3b/3x3_reduce -> inception_3b/3x3_reduce
I0202 13:40:55.064303 99886 net.cpp:150] Setting up inception_3b/3x3_reduce
I0202 13:40:55.064311 99886 net.cpp:157] Top shape: 112 128 28 28 (11239424)
I0202 13:40:55.064314 99886 net.cpp:165] Memory required for data: 3203237632
I0202 13:40:55.064321 99886 layer_factory.hpp:77] Creating layer inception_3b/relu_3x3_reduce
I0202 13:40:55.064327 99886 net.cpp:100] Creating Layer inception_3b/relu_3x3_reduce
I0202 13:40:55.064333 99886 net.cpp:434] inception_3b/relu_3x3_reduce <- inception_3b/3x3_reduce
I0202 13:40:55.064338 99886 net.cpp:395] inception_3b/relu_3x3_reduce -> inception_3b/3x3_reduce (in-place)
I0202 13:40:55.064344 99886 net.cpp:150] Setting up inception_3b/relu_3x3_reduce
I0202 13:40:55.064349 99886 net.cpp:157] Top shape: 112 128 28 28 (11239424)
I0202 13:40:55.064353 99886 net.cpp:165] Memory required for data: 3248195328
I0202 13:40:55.064357 99886 layer_factory.hpp:77] Creating layer inception_3b/3x3
I0202 13:40:55.064370 99886 net.cpp:100] Creating Layer inception_3b/3x3
I0202 13:40:55.064374 99886 net.cpp:434] inception_3b/3x3 <- inception_3b/3x3_reduce
I0202 13:40:55.064383 99886 net.cpp:408] inception_3b/3x3 -> inception_3b/3x3
I0202 13:40:55.066431 99886 net.cpp:150] Setting up inception_3b/3x3
I0202 13:40:55.066442 99886 net.cpp:157] Top shape: 112 192 28 28 (16859136)
I0202 13:40:55.066447 99886 net.cpp:165] Memory required for data: 3315631872
I0202 13:40:55.066453 99886 layer_factory.hpp:77] Creating layer inception_3b/relu_3x3
I0202 13:40:55.066462 99886 net.cpp:100] Creating Layer inception_3b/relu_3x3
I0202 13:40:55.066467 99886 net.cpp:434] inception_3b/relu_3x3 <- inception_3b/3x3
I0202 13:40:55.066471 99886 net.cpp:395] inception_3b/relu_3x3 -> inception_3b/3x3 (in-place)
I0202 13:40:55.066478 99886 net.cpp:150] Setting up inception_3b/relu_3x3
I0202 13:40:55.066483 99886 net.cpp:157] Top shape: 112 192 28 28 (16859136)
I0202 13:40:55.066488 99886 net.cpp:165] Memory required for data: 3383068416
I0202 13:40:55.066491 99886 layer_factory.hpp:77] Creating layer inception_3b/5x5_reduce
I0202 13:40:55.066503 99886 net.cpp:100] Creating Layer inception_3b/5x5_reduce
I0202 13:40:55.066507 99886 net.cpp:434] inception_3b/5x5_reduce <- inception_3a/output_inception_3a/output_0_split_2
I0202 13:40:55.066516 99886 net.cpp:408] inception_3b/5x5_reduce -> inception_3b/5x5_reduce
I0202 13:40:55.066619 99886 net.cpp:150] Setting up inception_3b/5x5_reduce
I0202 13:40:55.066630 99886 net.cpp:157] Top shape: 112 32 28 28 (2809856)
I0202 13:40:55.066637 99886 net.cpp:165] Memory required for data: 3394307840
I0202 13:40:55.066648 99886 layer_factory.hpp:77] Creating layer inception_3b/relu_5x5_reduce
I0202 13:40:55.066661 99886 net.cpp:100] Creating Layer inception_3b/relu_5x5_reduce
I0202 13:40:55.066665 99886 net.cpp:434] inception_3b/relu_5x5_reduce <- inception_3b/5x5_reduce
I0202 13:40:55.066679 99886 net.cpp:395] inception_3b/relu_5x5_reduce -> inception_3b/5x5_reduce (in-place)
I0202 13:40:55.066685 99886 net.cpp:150] Setting up inception_3b/relu_5x5_reduce
I0202 13:40:55.066691 99886 net.cpp:157] Top shape: 112 32 28 28 (2809856)
I0202 13:40:55.066694 99886 net.cpp:165] Memory required for data: 3405547264
I0202 13:40:55.066699 99886 layer_factory.hpp:77] Creating layer inception_3b/5x5
I0202 13:40:55.066706 99886 net.cpp:100] Creating Layer inception_3b/5x5
I0202 13:40:55.066710 99886 net.cpp:434] inception_3b/5x5 <- inception_3b/5x5_reduce
I0202 13:40:55.066720 99886 net.cpp:408] inception_3b/5x5 -> inception_3b/5x5
I0202 13:40:55.067456 99886 net.cpp:150] Setting up inception_3b/5x5
I0202 13:40:55.067466 99886 net.cpp:157] Top shape: 112 96 28 28 (8429568)
I0202 13:40:55.067469 99886 net.cpp:165] Memory required for data: 3439265536
I0202 13:40:55.067476 99886 layer_factory.hpp:77] Creating layer inception_3b/relu_5x5
I0202 13:40:55.067481 99886 net.cpp:100] Creating Layer inception_3b/relu_5x5
I0202 13:40:55.067486 99886 net.cpp:434] inception_3b/relu_5x5 <- inception_3b/5x5
I0202 13:40:55.067493 99886 net.cpp:395] inception_3b/relu_5x5 -> inception_3b/5x5 (in-place)
I0202 13:40:55.067500 99886 net.cpp:150] Setting up inception_3b/relu_5x5
I0202 13:40:55.067505 99886 net.cpp:157] Top shape: 112 96 28 28 (8429568)
I0202 13:40:55.067509 99886 net.cpp:165] Memory required for data: 3472983808
I0202 13:40:55.067512 99886 layer_factory.hpp:77] Creating layer inception_3b/pool
I0202 13:40:55.067519 99886 net.cpp:100] Creating Layer inception_3b/pool
I0202 13:40:55.067523 99886 net.cpp:434] inception_3b/pool <- inception_3a/output_inception_3a/output_0_split_3
I0202 13:40:55.067529 99886 net.cpp:408] inception_3b/pool -> inception_3b/pool
I0202 13:40:55.067538 99886 net.cpp:150] Setting up inception_3b/pool
I0202 13:40:55.067544 99886 net.cpp:157] Top shape: 112 256 28 28 (22478848)
I0202 13:40:55.067548 99886 net.cpp:165] Memory required for data: 3562899200
I0202 13:40:55.067551 99886 layer_factory.hpp:77] Creating layer inception_3b/pool_proj
I0202 13:40:55.067564 99886 net.cpp:100] Creating Layer inception_3b/pool_proj
I0202 13:40:55.067569 99886 net.cpp:434] inception_3b/pool_proj <- inception_3b/pool
I0202 13:40:55.067575 99886 net.cpp:408] inception_3b/pool_proj -> inception_3b/pool_proj
I0202 13:40:55.067742 99886 net.cpp:150] Setting up inception_3b/pool_proj
I0202 13:40:55.067754 99886 net.cpp:157] Top shape: 112 64 28 28 (5619712)
I0202 13:40:55.067757 99886 net.cpp:165] Memory required for data: 3585378048
I0202 13:40:55.067764 99886 layer_factory.hpp:77] Creating layer inception_3b/relu_pool_proj
I0202 13:40:55.067770 99886 net.cpp:100] Creating Layer inception_3b/relu_pool_proj
I0202 13:40:55.067775 99886 net.cpp:434] inception_3b/relu_pool_proj <- inception_3b/pool_proj
I0202 13:40:55.067780 99886 net.cpp:395] inception_3b/relu_pool_proj -> inception_3b/pool_proj (in-place)
I0202 13:40:55.067787 99886 net.cpp:150] Setting up inception_3b/relu_pool_proj
I0202 13:40:55.067792 99886 net.cpp:157] Top shape: 112 64 28 28 (5619712)
I0202 13:40:55.067795 99886 net.cpp:165] Memory required for data: 3607856896
I0202 13:40:55.067800 99886 layer_factory.hpp:77] Creating layer inception_3b/output
I0202 13:40:55.067806 99886 net.cpp:100] Creating Layer inception_3b/output
I0202 13:40:55.067811 99886 net.cpp:434] inception_3b/output <- inception_3b/1x1
I0202 13:40:55.067814 99886 net.cpp:434] inception_3b/output <- inception_3b/3x3
I0202 13:40:55.067819 99886 net.cpp:434] inception_3b/output <- inception_3b/5x5
I0202 13:40:55.067824 99886 net.cpp:434] inception_3b/output <- inception_3b/pool_proj
I0202 13:40:55.067832 99886 net.cpp:408] inception_3b/output -> inception_3b/output
I0202 13:40:55.067840 99886 net.cpp:150] Setting up inception_3b/output
I0202 13:40:55.067850 99886 net.cpp:157] Top shape: 112 480 28 28 (42147840)
I0202 13:40:55.067862 99886 net.cpp:165] Memory required for data: 3776448256
I0202 13:40:55.067867 99886 layer_factory.hpp:77] Creating layer pool3/3x3_s2
I0202 13:40:55.067875 99886 net.cpp:100] Creating Layer pool3/3x3_s2
I0202 13:40:55.067879 99886 net.cpp:434] pool3/3x3_s2 <- inception_3b/output
I0202 13:40:55.067885 99886 net.cpp:408] pool3/3x3_s2 -> pool3/3x3_s2
I0202 13:40:55.067894 99886 net.cpp:150] Setting up pool3/3x3_s2
I0202 13:40:55.067899 99886 net.cpp:157] Top shape: 112 480 14 14 (10536960)
I0202 13:40:55.067903 99886 net.cpp:165] Memory required for data: 3818596096
I0202 13:40:55.067906 99886 layer_factory.hpp:77] Creating layer pool3/3x3_s2_pool3/3x3_s2_0_split
I0202 13:40:55.067915 99886 net.cpp:100] Creating Layer pool3/3x3_s2_pool3/3x3_s2_0_split
I0202 13:40:55.067919 99886 net.cpp:434] pool3/3x3_s2_pool3/3x3_s2_0_split <- pool3/3x3_s2
I0202 13:40:55.067924 99886 net.cpp:408] pool3/3x3_s2_pool3/3x3_s2_0_split -> pool3/3x3_s2_pool3/3x3_s2_0_split_0
I0202 13:40:55.067931 99886 net.cpp:408] pool3/3x3_s2_pool3/3x3_s2_0_split -> pool3/3x3_s2_pool3/3x3_s2_0_split_1
I0202 13:40:55.067940 99886 net.cpp:408] pool3/3x3_s2_pool3/3x3_s2_0_split -> pool3/3x3_s2_pool3/3x3_s2_0_split_2
I0202 13:40:55.067946 99886 net.cpp:408] pool3/3x3_s2_pool3/3x3_s2_0_split -> pool3/3x3_s2_pool3/3x3_s2_0_split_3
I0202 13:40:55.067955 99886 net.cpp:150] Setting up pool3/3x3_s2_pool3/3x3_s2_0_split
I0202 13:40:55.067960 99886 net.cpp:157] Top shape: 112 480 14 14 (10536960)
I0202 13:40:55.067963 99886 net.cpp:157] Top shape: 112 480 14 14 (10536960)
I0202 13:40:55.067968 99886 net.cpp:157] Top shape: 112 480 14 14 (10536960)
I0202 13:40:55.067972 99886 net.cpp:157] Top shape: 112 480 14 14 (10536960)
I0202 13:40:55.067976 99886 net.cpp:165] Memory required for data: 3987187456
I0202 13:40:55.067980 99886 layer_factory.hpp:77] Creating layer inception_4a/1x1
I0202 13:40:55.067991 99886 net.cpp:100] Creating Layer inception_4a/1x1
I0202 13:40:55.067994 99886 net.cpp:434] inception_4a/1x1 <- pool3/3x3_s2_pool3/3x3_s2_0_split_0
I0202 13:40:55.068002 99886 net.cpp:408] inception_4a/1x1 -> inception_4a/1x1
I0202 13:40:55.068877 99886 net.cpp:150] Setting up inception_4a/1x1
I0202 13:40:55.068888 99886 net.cpp:157] Top shape: 112 192 14 14 (4214784)
I0202 13:40:55.068892 99886 net.cpp:165] Memory required for data: 4004046592
I0202 13:40:55.068898 99886 layer_factory.hpp:77] Creating layer inception_4a/relu_1x1
I0202 13:40:55.068904 99886 net.cpp:100] Creating Layer inception_4a/relu_1x1
I0202 13:40:55.068908 99886 net.cpp:434] inception_4a/relu_1x1 <- inception_4a/1x1
I0202 13:40:55.068918 99886 net.cpp:395] inception_4a/relu_1x1 -> inception_4a/1x1 (in-place)
I0202 13:40:55.068925 99886 net.cpp:150] Setting up inception_4a/relu_1x1
I0202 13:40:55.068930 99886 net.cpp:157] Top shape: 112 192 14 14 (4214784)
I0202 13:40:55.068933 99886 net.cpp:165] Memory required for data: 4020905728
I0202 13:40:55.068938 99886 layer_factory.hpp:77] Creating layer inception_4a/3x3_reduce
I0202 13:40:55.068948 99886 net.cpp:100] Creating Layer inception_4a/3x3_reduce
I0202 13:40:55.068953 99886 net.cpp:434] inception_4a/3x3_reduce <- pool3/3x3_s2_pool3/3x3_s2_0_split_1
I0202 13:40:55.068958 99886 net.cpp:408] inception_4a/3x3_reduce -> inception_4a/3x3_reduce
I0202 13:40:55.069385 99886 net.cpp:150] Setting up inception_4a/3x3_reduce
I0202 13:40:55.069391 99886 net.cpp:157] Top shape: 112 96 14 14 (2107392)
I0202 13:40:55.069396 99886 net.cpp:165] Memory required for data: 4029335296
I0202 13:40:55.069411 99886 layer_factory.hpp:77] Creating layer inception_4a/relu_3x3_reduce
I0202 13:40:55.069417 99886 net.cpp:100] Creating Layer inception_4a/relu_3x3_reduce
I0202 13:40:55.069422 99886 net.cpp:434] inception_4a/relu_3x3_reduce <- inception_4a/3x3_reduce
I0202 13:40:55.069427 99886 net.cpp:395] inception_4a/relu_3x3_reduce -> inception_4a/3x3_reduce (in-place)
I0202 13:40:55.069433 99886 net.cpp:150] Setting up inception_4a/relu_3x3_reduce
I0202 13:40:55.069443 99886 net.cpp:157] Top shape: 112 96 14 14 (2107392)
I0202 13:40:55.069455 99886 net.cpp:165] Memory required for data: 4037764864
I0202 13:40:55.069459 99886 layer_factory.hpp:77] Creating layer inception_4a/3x3
I0202 13:40:55.069470 99886 net.cpp:100] Creating Layer inception_4a/3x3
I0202 13:40:55.069474 99886 net.cpp:434] inception_4a/3x3 <- inception_4a/3x3_reduce
I0202 13:40:55.069483 99886 net.cpp:408] inception_4a/3x3 -> inception_4a/3x3
I0202 13:40:55.071163 99886 net.cpp:150] Setting up inception_4a/3x3
I0202 13:40:55.071174 99886 net.cpp:157] Top shape: 112 208 14 14 (4566016)
I0202 13:40:55.071178 99886 net.cpp:165] Memory required for data: 4056028928
I0202 13:40:55.071185 99886 layer_factory.hpp:77] Creating layer inception_4a/relu_3x3
I0202 13:40:55.071192 99886 net.cpp:100] Creating Layer inception_4a/relu_3x3
I0202 13:40:55.071195 99886 net.cpp:434] inception_4a/relu_3x3 <- inception_4a/3x3
I0202 13:40:55.071203 99886 net.cpp:395] inception_4a/relu_3x3 -> inception_4a/3x3 (in-place)
I0202 13:40:55.071210 99886 net.cpp:150] Setting up inception_4a/relu_3x3
I0202 13:40:55.071215 99886 net.cpp:157] Top shape: 112 208 14 14 (4566016)
I0202 13:40:55.071218 99886 net.cpp:165] Memory required for data: 4074292992
I0202 13:40:55.071223 99886 layer_factory.hpp:77] Creating layer inception_4a/5x5_reduce
I0202 13:40:55.071233 99886 net.cpp:100] Creating Layer inception_4a/5x5_reduce
I0202 13:40:55.071238 99886 net.cpp:434] inception_4a/5x5_reduce <- pool3/3x3_s2_pool3/3x3_s2_0_split_2
I0202 13:40:55.071244 99886 net.cpp:408] inception_4a/5x5_reduce -> inception_4a/5x5_reduce
I0202 13:40:55.071323 99886 net.cpp:150] Setting up inception_4a/5x5_reduce
I0202 13:40:55.071331 99886 net.cpp:157] Top shape: 112 16 14 14 (351232)
I0202 13:40:55.071336 99886 net.cpp:165] Memory required for data: 4075697920
I0202 13:40:55.071341 99886 layer_factory.hpp:77] Creating layer inception_4a/relu_5x5_reduce
I0202 13:40:55.071346 99886 net.cpp:100] Creating Layer inception_4a/relu_5x5_reduce
I0202 13:40:55.071351 99886 net.cpp:434] inception_4a/relu_5x5_reduce <- inception_4a/5x5_reduce
I0202 13:40:55.071357 99886 net.cpp:395] inception_4a/relu_5x5_reduce -> inception_4a/5x5_reduce (in-place)
I0202 13:40:55.071362 99886 net.cpp:150] Setting up inception_4a/relu_5x5_reduce
I0202 13:40:55.071367 99886 net.cpp:157] Top shape: 112 16 14 14 (351232)
I0202 13:40:55.071370 99886 net.cpp:165] Memory required for data: 4077102848
I0202 13:40:55.071373 99886 layer_factory.hpp:77] Creating layer inception_4a/5x5
I0202 13:40:55.071383 99886 net.cpp:100] Creating Layer inception_4a/5x5
I0202 13:40:55.071388 99886 net.cpp:434] inception_4a/5x5 <- inception_4a/5x5_reduce
I0202 13:40:55.071401 99886 net.cpp:408] inception_4a/5x5 -> inception_4a/5x5
I0202 13:40:55.071588 99886 net.cpp:150] Setting up inception_4a/5x5
I0202 13:40:55.071595 99886 net.cpp:157] Top shape: 112 48 14 14 (1053696)
I0202 13:40:55.071599 99886 net.cpp:165] Memory required for data: 4081317632
I0202 13:40:55.071604 99886 layer_factory.hpp:77] Creating layer inception_4a/relu_5x5
I0202 13:40:55.071612 99886 net.cpp:100] Creating Layer inception_4a/relu_5x5
I0202 13:40:55.071616 99886 net.cpp:434] inception_4a/relu_5x5 <- inception_4a/5x5
I0202 13:40:55.071622 99886 net.cpp:395] inception_4a/relu_5x5 -> inception_4a/5x5 (in-place)
I0202 13:40:55.071633 99886 net.cpp:150] Setting up inception_4a/relu_5x5
I0202 13:40:55.071638 99886 net.cpp:157] Top shape: 112 48 14 14 (1053696)
I0202 13:40:55.071642 99886 net.cpp:165] Memory required for data: 4085532416
I0202 13:40:55.071646 99886 layer_factory.hpp:77] Creating layer inception_4a/pool
I0202 13:40:55.071652 99886 net.cpp:100] Creating Layer inception_4a/pool
I0202 13:40:55.071656 99886 net.cpp:434] inception_4a/pool <- pool3/3x3_s2_pool3/3x3_s2_0_split_3
I0202 13:40:55.071665 99886 net.cpp:408] inception_4a/pool -> inception_4a/pool
I0202 13:40:55.071674 99886 net.cpp:150] Setting up inception_4a/pool
I0202 13:40:55.071679 99886 net.cpp:157] Top shape: 112 480 14 14 (10536960)
I0202 13:40:55.071683 99886 net.cpp:165] Memory required for data: 4127680256
I0202 13:40:55.071705 99886 layer_factory.hpp:77] Creating layer inception_4a/pool_proj
I0202 13:40:55.071717 99886 net.cpp:100] Creating Layer inception_4a/pool_proj
I0202 13:40:55.071722 99886 net.cpp:434] inception_4a/pool_proj <- inception_4a/pool
I0202 13:40:55.071729 99886 net.cpp:408] inception_4a/pool_proj -> inception_4a/pool_proj
I0202 13:40:55.072046 99886 net.cpp:150] Setting up inception_4a/pool_proj
I0202 13:40:55.072054 99886 net.cpp:157] Top shape: 112 64 14 14 (1404928)
I0202 13:40:55.072058 99886 net.cpp:165] Memory required for data: 4133299968
I0202 13:40:55.072065 99886 layer_factory.hpp:77] Creating layer inception_4a/relu_pool_proj
I0202 13:40:55.072072 99886 net.cpp:100] Creating Layer inception_4a/relu_pool_proj
I0202 13:40:55.072075 99886 net.cpp:434] inception_4a/relu_pool_proj <- inception_4a/pool_proj
I0202 13:40:55.072084 99886 net.cpp:395] inception_4a/relu_pool_proj -> inception_4a/pool_proj (in-place)
I0202 13:40:55.072090 99886 net.cpp:150] Setting up inception_4a/relu_pool_proj
I0202 13:40:55.072095 99886 net.cpp:157] Top shape: 112 64 14 14 (1404928)
I0202 13:40:55.072099 99886 net.cpp:165] Memory required for data: 4138919680
I0202 13:40:55.072103 99886 layer_factory.hpp:77] Creating layer inception_4a/output
I0202 13:40:55.072108 99886 net.cpp:100] Creating Layer inception_4a/output
I0202 13:40:55.072113 99886 net.cpp:434] inception_4a/output <- inception_4a/1x1
I0202 13:40:55.072118 99886 net.cpp:434] inception_4a/output <- inception_4a/3x3
I0202 13:40:55.072123 99886 net.cpp:434] inception_4a/output <- inception_4a/5x5
I0202 13:40:55.072127 99886 net.cpp:434] inception_4a/output <- inception_4a/pool_proj
I0202 13:40:55.072132 99886 net.cpp:408] inception_4a/output -> inception_4a/output
I0202 13:40:55.072140 99886 net.cpp:150] Setting up inception_4a/output
I0202 13:40:55.072146 99886 net.cpp:157] Top shape: 112 512 14 14 (11239424)
I0202 13:40:55.072149 99886 net.cpp:165] Memory required for data: 4183877376
I0202 13:40:55.072154 99886 layer_factory.hpp:77] Creating layer inception_4a/output_inception_4a/output_0_split
I0202 13:40:55.072163 99886 net.cpp:100] Creating Layer inception_4a/output_inception_4a/output_0_split
I0202 13:40:55.072167 99886 net.cpp:434] inception_4a/output_inception_4a/output_0_split <- inception_4a/output
I0202 13:40:55.072175 99886 net.cpp:408] inception_4a/output_inception_4a/output_0_split -> inception_4a/output_inception_4a/output_0_split_0
I0202 13:40:55.072186 99886 net.cpp:408] inception_4a/output_inception_4a/output_0_split -> inception_4a/output_inception_4a/output_0_split_1
I0202 13:40:55.072193 99886 net.cpp:408] inception_4a/output_inception_4a/output_0_split -> inception_4a/output_inception_4a/output_0_split_2
I0202 13:40:55.072201 99886 net.cpp:408] inception_4a/output_inception_4a/output_0_split -> inception_4a/output_inception_4a/output_0_split_3
I0202 13:40:55.072206 99886 net.cpp:408] inception_4a/output_inception_4a/output_0_split -> inception_4a/output_inception_4a/output_0_split_4
I0202 13:40:55.072216 99886 net.cpp:150] Setting up inception_4a/output_inception_4a/output_0_split
I0202 13:40:55.072221 99886 net.cpp:157] Top shape: 112 512 14 14 (11239424)
I0202 13:40:55.072226 99886 net.cpp:157] Top shape: 112 512 14 14 (11239424)
I0202 13:40:55.072229 99886 net.cpp:157] Top shape: 112 512 14 14 (11239424)
I0202 13:40:55.072234 99886 net.cpp:157] Top shape: 112 512 14 14 (11239424)
I0202 13:40:55.072238 99886 net.cpp:157] Top shape: 112 512 14 14 (11239424)
I0202 13:40:55.072242 99886 net.cpp:165] Memory required for data: 4408665856
I0202 13:40:55.072245 99886 layer_factory.hpp:77] Creating layer loss1/ave_pool
I0202 13:40:55.072253 99886 net.cpp:100] Creating Layer loss1/ave_pool
I0202 13:40:55.072257 99886 net.cpp:434] loss1/ave_pool <- inception_4a/output_inception_4a/output_0_split_0
I0202 13:40:55.072265 99886 net.cpp:408] loss1/ave_pool -> loss1/ave_pool
I0202 13:40:55.072273 99886 net.cpp:150] Setting up loss1/ave_pool
I0202 13:40:55.072278 99886 net.cpp:157] Top shape: 112 512 4 4 (917504)
I0202 13:40:55.072288 99886 net.cpp:165] Memory required for data: 4412335872
I0202 13:40:55.072296 99886 layer_factory.hpp:77] Creating layer loss1/conv
I0202 13:40:55.072309 99886 net.cpp:100] Creating Layer loss1/conv
I0202 13:40:55.072312 99886 net.cpp:434] loss1/conv <- loss1/ave_pool
I0202 13:40:55.072319 99886 net.cpp:408] loss1/conv -> loss1/conv
I0202 13:40:55.072963 99886 net.cpp:150] Setting up loss1/conv
I0202 13:40:55.072974 99886 net.cpp:157] Top shape: 112 128 4 4 (229376)
I0202 13:40:55.072978 99886 net.cpp:165] Memory required for data: 4413253376
I0202 13:40:55.072985 99886 layer_factory.hpp:77] Creating layer loss1/relu_conv
I0202 13:40:55.072995 99886 net.cpp:100] Creating Layer loss1/relu_conv
I0202 13:40:55.073000 99886 net.cpp:434] loss1/relu_conv <- loss1/conv
I0202 13:40:55.073005 99886 net.cpp:395] loss1/relu_conv -> loss1/conv (in-place)
I0202 13:40:55.073012 99886 net.cpp:150] Setting up loss1/relu_conv
I0202 13:40:55.073017 99886 net.cpp:157] Top shape: 112 128 4 4 (229376)
I0202 13:40:55.073020 99886 net.cpp:165] Memory required for data: 4414170880
I0202 13:40:55.073024 99886 layer_factory.hpp:77] Creating layer loss1/fc
I0202 13:40:55.073037 99886 net.cpp:100] Creating Layer loss1/fc
I0202 13:40:55.073041 99886 net.cpp:434] loss1/fc <- loss1/conv
I0202 13:40:55.073050 99886 net.cpp:408] loss1/fc -> loss1/fc
I0202 13:40:55.091545 99886 net.cpp:150] Setting up loss1/fc
I0202 13:40:55.091578 99886 net.cpp:157] Top shape: 112 1024 (114688)
I0202 13:40:55.091583 99886 net.cpp:165] Memory required for data: 4414629632
I0202 13:40:55.091594 99886 layer_factory.hpp:77] Creating layer loss1/relu_fc
I0202 13:40:55.091605 99886 net.cpp:100] Creating Layer loss1/relu_fc
I0202 13:40:55.091612 99886 net.cpp:434] loss1/relu_fc <- loss1/fc
I0202 13:40:55.091621 99886 net.cpp:395] loss1/relu_fc -> loss1/fc (in-place)
I0202 13:40:55.091637 99886 net.cpp:150] Setting up loss1/relu_fc
I0202 13:40:55.091644 99886 net.cpp:157] Top shape: 112 1024 (114688)
I0202 13:40:55.091647 99886 net.cpp:165] Memory required for data: 4415088384
I0202 13:40:55.091651 99886 layer_factory.hpp:77] Creating layer loss1/drop_fc
I0202 13:40:55.091678 99886 net.cpp:100] Creating Layer loss1/drop_fc
I0202 13:40:55.091682 99886 net.cpp:434] loss1/drop_fc <- loss1/fc
I0202 13:40:55.091689 99886 net.cpp:395] loss1/drop_fc -> loss1/fc (in-place)
I0202 13:40:55.091707 99886 net.cpp:150] Setting up loss1/drop_fc
I0202 13:40:55.091713 99886 net.cpp:157] Top shape: 112 1024 (114688)
I0202 13:40:55.091717 99886 net.cpp:165] Memory required for data: 4415547136
I0202 13:40:55.091722 99886 layer_factory.hpp:77] Creating layer loss1/classifier
I0202 13:40:55.091732 99886 net.cpp:100] Creating Layer loss1/classifier
I0202 13:40:55.091735 99886 net.cpp:434] loss1/classifier <- loss1/fc
I0202 13:40:55.091745 99886 net.cpp:408] loss1/classifier -> loss1/classifier
I0202 13:40:55.101207 99886 net.cpp:150] Setting up loss1/classifier
I0202 13:40:55.101224 99886 net.cpp:157] Top shape: 112 1000 (112000)
I0202 13:40:55.101228 99886 net.cpp:165] Memory required for data: 4415995136
I0202 13:40:55.101238 99886 layer_factory.hpp:77] Creating layer loss1/loss
I0202 13:40:55.101251 99886 net.cpp:100] Creating Layer loss1/loss
I0202 13:40:55.101258 99886 net.cpp:434] loss1/loss <- loss1/classifier
I0202 13:40:55.101263 99886 net.cpp:434] loss1/loss <- label_data_1_split_0
I0202 13:40:55.101271 99886 net.cpp:408] loss1/loss -> loss1/loss1
I0202 13:40:55.101291 99886 layer_factory.hpp:77] Creating layer loss1/loss
I0202 13:40:55.101641 99886 net.cpp:150] Setting up loss1/loss
I0202 13:40:55.101652 99886 net.cpp:157] Top shape: (1)
I0202 13:40:55.101656 99886 net.cpp:160]     with loss weight 0.3
I0202 13:40:55.101701 99886 net.cpp:165] Memory required for data: 4415995140
I0202 13:40:55.101704 99886 layer_factory.hpp:77] Creating layer inception_4b/1x1
I0202 13:40:55.101722 99886 net.cpp:100] Creating Layer inception_4b/1x1
I0202 13:40:55.101727 99886 net.cpp:434] inception_4b/1x1 <- inception_4a/output_inception_4a/output_0_split_1
I0202 13:40:55.101735 99886 net.cpp:408] inception_4b/1x1 -> inception_4b/1x1
I0202 13:40:55.102560 99886 net.cpp:150] Setting up inception_4b/1x1
I0202 13:40:55.102569 99886 net.cpp:157] Top shape: 112 160 14 14 (3512320)
I0202 13:40:55.102573 99886 net.cpp:165] Memory required for data: 4430044420
I0202 13:40:55.102581 99886 layer_factory.hpp:77] Creating layer inception_4b/relu_1x1
I0202 13:40:55.102587 99886 net.cpp:100] Creating Layer inception_4b/relu_1x1
I0202 13:40:55.102592 99886 net.cpp:434] inception_4b/relu_1x1 <- inception_4b/1x1
I0202 13:40:55.102598 99886 net.cpp:395] inception_4b/relu_1x1 -> inception_4b/1x1 (in-place)
I0202 13:40:55.102605 99886 net.cpp:150] Setting up inception_4b/relu_1x1
I0202 13:40:55.102610 99886 net.cpp:157] Top shape: 112 160 14 14 (3512320)
I0202 13:40:55.102614 99886 net.cpp:165] Memory required for data: 4444093700
I0202 13:40:55.102618 99886 layer_factory.hpp:77] Creating layer inception_4b/3x3_reduce
I0202 13:40:55.102636 99886 net.cpp:100] Creating Layer inception_4b/3x3_reduce
I0202 13:40:55.102643 99886 net.cpp:434] inception_4b/3x3_reduce <- inception_4a/output_inception_4a/output_0_split_2
I0202 13:40:55.102651 99886 net.cpp:408] inception_4b/3x3_reduce -> inception_4b/3x3_reduce
I0202 13:40:55.103209 99886 net.cpp:150] Setting up inception_4b/3x3_reduce
I0202 13:40:55.103219 99886 net.cpp:157] Top shape: 112 112 14 14 (2458624)
I0202 13:40:55.103222 99886 net.cpp:165] Memory required for data: 4453928196
I0202 13:40:55.103229 99886 layer_factory.hpp:77] Creating layer inception_4b/relu_3x3_reduce
I0202 13:40:55.103235 99886 net.cpp:100] Creating Layer inception_4b/relu_3x3_reduce
I0202 13:40:55.103240 99886 net.cpp:434] inception_4b/relu_3x3_reduce <- inception_4b/3x3_reduce
I0202 13:40:55.103247 99886 net.cpp:395] inception_4b/relu_3x3_reduce -> inception_4b/3x3_reduce (in-place)
I0202 13:40:55.103253 99886 net.cpp:150] Setting up inception_4b/relu_3x3_reduce
I0202 13:40:55.103258 99886 net.cpp:157] Top shape: 112 112 14 14 (2458624)
I0202 13:40:55.103261 99886 net.cpp:165] Memory required for data: 4463762692
I0202 13:40:55.103266 99886 layer_factory.hpp:77] Creating layer inception_4b/3x3
I0202 13:40:55.103274 99886 net.cpp:100] Creating Layer inception_4b/3x3
I0202 13:40:55.103278 99886 net.cpp:434] inception_4b/3x3 <- inception_4b/3x3_reduce
I0202 13:40:55.103286 99886 net.cpp:408] inception_4b/3x3 -> inception_4b/3x3
I0202 13:40:55.105386 99886 net.cpp:150] Setting up inception_4b/3x3
I0202 13:40:55.105397 99886 net.cpp:157] Top shape: 112 224 14 14 (4917248)
I0202 13:40:55.105401 99886 net.cpp:165] Memory required for data: 4483431684
I0202 13:40:55.105408 99886 layer_factory.hpp:77] Creating layer inception_4b/relu_3x3
I0202 13:40:55.105414 99886 net.cpp:100] Creating Layer inception_4b/relu_3x3
I0202 13:40:55.105419 99886 net.cpp:434] inception_4b/relu_3x3 <- inception_4b/3x3
I0202 13:40:55.105424 99886 net.cpp:395] inception_4b/relu_3x3 -> inception_4b/3x3 (in-place)
I0202 13:40:55.105432 99886 net.cpp:150] Setting up inception_4b/relu_3x3
I0202 13:40:55.105437 99886 net.cpp:157] Top shape: 112 224 14 14 (4917248)
I0202 13:40:55.105439 99886 net.cpp:165] Memory required for data: 4503100676
I0202 13:40:55.105443 99886 layer_factory.hpp:77] Creating layer inception_4b/5x5_reduce
I0202 13:40:55.105453 99886 net.cpp:100] Creating Layer inception_4b/5x5_reduce
I0202 13:40:55.105458 99886 net.cpp:434] inception_4b/5x5_reduce <- inception_4a/output_inception_4a/output_0_split_3
I0202 13:40:55.105464 99886 net.cpp:408] inception_4b/5x5_reduce -> inception_4b/5x5_reduce
I0202 13:40:55.105586 99886 net.cpp:150] Setting up inception_4b/5x5_reduce
I0202 13:40:55.105592 99886 net.cpp:157] Top shape: 112 24 14 14 (526848)
I0202 13:40:55.105597 99886 net.cpp:165] Memory required for data: 4505208068
I0202 13:40:55.105602 99886 layer_factory.hpp:77] Creating layer inception_4b/relu_5x5_reduce
I0202 13:40:55.105610 99886 net.cpp:100] Creating Layer inception_4b/relu_5x5_reduce
I0202 13:40:55.105615 99886 net.cpp:434] inception_4b/relu_5x5_reduce <- inception_4b/5x5_reduce
I0202 13:40:55.105620 99886 net.cpp:395] inception_4b/relu_5x5_reduce -> inception_4b/5x5_reduce (in-place)
I0202 13:40:55.105643 99886 net.cpp:150] Setting up inception_4b/relu_5x5_reduce
I0202 13:40:55.105649 99886 net.cpp:157] Top shape: 112 24 14 14 (526848)
I0202 13:40:55.105654 99886 net.cpp:165] Memory required for data: 4507315460
I0202 13:40:55.105656 99886 layer_factory.hpp:77] Creating layer inception_4b/5x5
I0202 13:40:55.105669 99886 net.cpp:100] Creating Layer inception_4b/5x5
I0202 13:40:55.105672 99886 net.cpp:434] inception_4b/5x5 <- inception_4b/5x5_reduce
I0202 13:40:55.105681 99886 net.cpp:408] inception_4b/5x5 -> inception_4b/5x5
I0202 13:40:55.106055 99886 net.cpp:150] Setting up inception_4b/5x5
I0202 13:40:55.106061 99886 net.cpp:157] Top shape: 112 64 14 14 (1404928)
I0202 13:40:55.106065 99886 net.cpp:165] Memory required for data: 4512935172
I0202 13:40:55.106071 99886 layer_factory.hpp:77] Creating layer inception_4b/relu_5x5
I0202 13:40:55.106077 99886 net.cpp:100] Creating Layer inception_4b/relu_5x5
I0202 13:40:55.106081 99886 net.cpp:434] inception_4b/relu_5x5 <- inception_4b/5x5
I0202 13:40:55.106089 99886 net.cpp:395] inception_4b/relu_5x5 -> inception_4b/5x5 (in-place)
I0202 13:40:55.106096 99886 net.cpp:150] Setting up inception_4b/relu_5x5
I0202 13:40:55.106101 99886 net.cpp:157] Top shape: 112 64 14 14 (1404928)
I0202 13:40:55.106103 99886 net.cpp:165] Memory required for data: 4518554884
I0202 13:40:55.106107 99886 layer_factory.hpp:77] Creating layer inception_4b/pool
I0202 13:40:55.106114 99886 net.cpp:100] Creating Layer inception_4b/pool
I0202 13:40:55.106118 99886 net.cpp:434] inception_4b/pool <- inception_4a/output_inception_4a/output_0_split_4
I0202 13:40:55.106124 99886 net.cpp:408] inception_4b/pool -> inception_4b/pool
I0202 13:40:55.106153 99886 net.cpp:150] Setting up inception_4b/pool
I0202 13:40:55.106158 99886 net.cpp:157] Top shape: 112 512 14 14 (11239424)
I0202 13:40:55.106163 99886 net.cpp:165] Memory required for data: 4563512580
I0202 13:40:55.106166 99886 layer_factory.hpp:77] Creating layer inception_4b/pool_proj
I0202 13:40:55.106175 99886 net.cpp:100] Creating Layer inception_4b/pool_proj
I0202 13:40:55.106179 99886 net.cpp:434] inception_4b/pool_proj <- inception_4b/pool
I0202 13:40:55.106187 99886 net.cpp:408] inception_4b/pool_proj -> inception_4b/pool_proj
I0202 13:40:55.106503 99886 net.cpp:150] Setting up inception_4b/pool_proj
I0202 13:40:55.106508 99886 net.cpp:157] Top shape: 112 64 14 14 (1404928)
I0202 13:40:55.106513 99886 net.cpp:165] Memory required for data: 4569132292
I0202 13:40:55.106518 99886 layer_factory.hpp:77] Creating layer inception_4b/relu_pool_proj
I0202 13:40:55.106526 99886 net.cpp:100] Creating Layer inception_4b/relu_pool_proj
I0202 13:40:55.106531 99886 net.cpp:434] inception_4b/relu_pool_proj <- inception_4b/pool_proj
I0202 13:40:55.106536 99886 net.cpp:395] inception_4b/relu_pool_proj -> inception_4b/pool_proj (in-place)
I0202 13:40:55.106542 99886 net.cpp:150] Setting up inception_4b/relu_pool_proj
I0202 13:40:55.106547 99886 net.cpp:157] Top shape: 112 64 14 14 (1404928)
I0202 13:40:55.106551 99886 net.cpp:165] Memory required for data: 4574752004
I0202 13:40:55.106555 99886 layer_factory.hpp:77] Creating layer inception_4b/output
I0202 13:40:55.106562 99886 net.cpp:100] Creating Layer inception_4b/output
I0202 13:40:55.106566 99886 net.cpp:434] inception_4b/output <- inception_4b/1x1
I0202 13:40:55.106571 99886 net.cpp:434] inception_4b/output <- inception_4b/3x3
I0202 13:40:55.106576 99886 net.cpp:434] inception_4b/output <- inception_4b/5x5
I0202 13:40:55.106580 99886 net.cpp:434] inception_4b/output <- inception_4b/pool_proj
I0202 13:40:55.106588 99886 net.cpp:408] inception_4b/output -> inception_4b/output
I0202 13:40:55.106598 99886 net.cpp:150] Setting up inception_4b/output
I0202 13:40:55.106603 99886 net.cpp:157] Top shape: 112 512 14 14 (11239424)
I0202 13:40:55.106607 99886 net.cpp:165] Memory required for data: 4619709700
I0202 13:40:55.106611 99886 layer_factory.hpp:77] Creating layer inception_4b/output_inception_4b/output_0_split
I0202 13:40:55.106622 99886 net.cpp:100] Creating Layer inception_4b/output_inception_4b/output_0_split
I0202 13:40:55.106642 99886 net.cpp:434] inception_4b/output_inception_4b/output_0_split <- inception_4b/output
I0202 13:40:55.106652 99886 net.cpp:408] inception_4b/output_inception_4b/output_0_split -> inception_4b/output_inception_4b/output_0_split_0
I0202 13:40:55.106659 99886 net.cpp:408] inception_4b/output_inception_4b/output_0_split -> inception_4b/output_inception_4b/output_0_split_1
I0202 13:40:55.106667 99886 net.cpp:408] inception_4b/output_inception_4b/output_0_split -> inception_4b/output_inception_4b/output_0_split_2
I0202 13:40:55.106673 99886 net.cpp:408] inception_4b/output_inception_4b/output_0_split -> inception_4b/output_inception_4b/output_0_split_3
I0202 13:40:55.106681 99886 net.cpp:150] Setting up inception_4b/output_inception_4b/output_0_split
I0202 13:40:55.106686 99886 net.cpp:157] Top shape: 112 512 14 14 (11239424)
I0202 13:40:55.106691 99886 net.cpp:157] Top shape: 112 512 14 14 (11239424)
I0202 13:40:55.106696 99886 net.cpp:157] Top shape: 112 512 14 14 (11239424)
I0202 13:40:55.106700 99886 net.cpp:157] Top shape: 112 512 14 14 (11239424)
I0202 13:40:55.106704 99886 net.cpp:165] Memory required for data: 4799540484
I0202 13:40:55.106708 99886 layer_factory.hpp:77] Creating layer inception_4c/1x1
I0202 13:40:55.106720 99886 net.cpp:100] Creating Layer inception_4c/1x1
I0202 13:40:55.106724 99886 net.cpp:434] inception_4c/1x1 <- inception_4b/output_inception_4b/output_0_split_0
I0202 13:40:55.106731 99886 net.cpp:408] inception_4c/1x1 -> inception_4c/1x1
I0202 13:40:55.107368 99886 net.cpp:150] Setting up inception_4c/1x1
I0202 13:40:55.107376 99886 net.cpp:157] Top shape: 112 128 14 14 (2809856)
I0202 13:40:55.107380 99886 net.cpp:165] Memory required for data: 4810779908
I0202 13:40:55.107388 99886 layer_factory.hpp:77] Creating layer inception_4c/relu_1x1
I0202 13:40:55.107396 99886 net.cpp:100] Creating Layer inception_4c/relu_1x1
I0202 13:40:55.107401 99886 net.cpp:434] inception_4c/relu_1x1 <- inception_4c/1x1
I0202 13:40:55.107406 99886 net.cpp:395] inception_4c/relu_1x1 -> inception_4c/1x1 (in-place)
I0202 13:40:55.107414 99886 net.cpp:150] Setting up inception_4c/relu_1x1
I0202 13:40:55.107419 99886 net.cpp:157] Top shape: 112 128 14 14 (2809856)
I0202 13:40:55.107421 99886 net.cpp:165] Memory required for data: 4822019332
I0202 13:40:55.107425 99886 layer_factory.hpp:77] Creating layer inception_4c/3x3_reduce
I0202 13:40:55.107436 99886 net.cpp:100] Creating Layer inception_4c/3x3_reduce
I0202 13:40:55.107440 99886 net.cpp:434] inception_4c/3x3_reduce <- inception_4b/output_inception_4b/output_0_split_1
I0202 13:40:55.107448 99886 net.cpp:408] inception_4c/3x3_reduce -> inception_4c/3x3_reduce
I0202 13:40:55.108093 99886 net.cpp:150] Setting up inception_4c/3x3_reduce
I0202 13:40:55.108104 99886 net.cpp:157] Top shape: 112 128 14 14 (2809856)
I0202 13:40:55.108108 99886 net.cpp:165] Memory required for data: 4833258756
I0202 13:40:55.108114 99886 layer_factory.hpp:77] Creating layer inception_4c/relu_3x3_reduce
I0202 13:40:55.108120 99886 net.cpp:100] Creating Layer inception_4c/relu_3x3_reduce
I0202 13:40:55.108125 99886 net.cpp:434] inception_4c/relu_3x3_reduce <- inception_4c/3x3_reduce
I0202 13:40:55.108135 99886 net.cpp:395] inception_4c/relu_3x3_reduce -> inception_4c/3x3_reduce (in-place)
I0202 13:40:55.108142 99886 net.cpp:150] Setting up inception_4c/relu_3x3_reduce
I0202 13:40:55.108147 99886 net.cpp:157] Top shape: 112 128 14 14 (2809856)
I0202 13:40:55.108150 99886 net.cpp:165] Memory required for data: 4844498180
I0202 13:40:55.108155 99886 layer_factory.hpp:77] Creating layer inception_4c/3x3
I0202 13:40:55.108165 99886 net.cpp:100] Creating Layer inception_4c/3x3
I0202 13:40:55.108170 99886 net.cpp:434] inception_4c/3x3 <- inception_4c/3x3_reduce
I0202 13:40:55.108175 99886 net.cpp:408] inception_4c/3x3 -> inception_4c/3x3
I0202 13:40:55.110890 99886 net.cpp:150] Setting up inception_4c/3x3
I0202 13:40:55.110901 99886 net.cpp:157] Top shape: 112 256 14 14 (5619712)
I0202 13:40:55.110909 99886 net.cpp:165] Memory required for data: 4866977028
I0202 13:40:55.110949 99886 layer_factory.hpp:77] Creating layer inception_4c/relu_3x3
I0202 13:40:55.110956 99886 net.cpp:100] Creating Layer inception_4c/relu_3x3
I0202 13:40:55.110961 99886 net.cpp:434] inception_4c/relu_3x3 <- inception_4c/3x3
I0202 13:40:55.110967 99886 net.cpp:395] inception_4c/relu_3x3 -> inception_4c/3x3 (in-place)
I0202 13:40:55.110973 99886 net.cpp:150] Setting up inception_4c/relu_3x3
I0202 13:40:55.110978 99886 net.cpp:157] Top shape: 112 256 14 14 (5619712)
I0202 13:40:55.110982 99886 net.cpp:165] Memory required for data: 4889455876
I0202 13:40:55.110985 99886 layer_factory.hpp:77] Creating layer inception_4c/5x5_reduce
I0202 13:40:55.111003 99886 net.cpp:100] Creating Layer inception_4c/5x5_reduce
I0202 13:40:55.111008 99886 net.cpp:434] inception_4c/5x5_reduce <- inception_4b/output_inception_4b/output_0_split_2
I0202 13:40:55.111016 99886 net.cpp:408] inception_4c/5x5_reduce -> inception_4c/5x5_reduce
I0202 13:40:55.111133 99886 net.cpp:150] Setting up inception_4c/5x5_reduce
I0202 13:40:55.111140 99886 net.cpp:157] Top shape: 112 24 14 14 (526848)
I0202 13:40:55.111143 99886 net.cpp:165] Memory required for data: 4891563268
I0202 13:40:55.111150 99886 layer_factory.hpp:77] Creating layer inception_4c/relu_5x5_reduce
I0202 13:40:55.111155 99886 net.cpp:100] Creating Layer inception_4c/relu_5x5_reduce
I0202 13:40:55.111160 99886 net.cpp:434] inception_4c/relu_5x5_reduce <- inception_4c/5x5_reduce
I0202 13:40:55.111167 99886 net.cpp:395] inception_4c/relu_5x5_reduce -> inception_4c/5x5_reduce (in-place)
I0202 13:40:55.111173 99886 net.cpp:150] Setting up inception_4c/relu_5x5_reduce
I0202 13:40:55.111178 99886 net.cpp:157] Top shape: 112 24 14 14 (526848)
I0202 13:40:55.111181 99886 net.cpp:165] Memory required for data: 4893670660
I0202 13:40:55.111186 99886 layer_factory.hpp:77] Creating layer inception_4c/5x5
I0202 13:40:55.111196 99886 net.cpp:100] Creating Layer inception_4c/5x5
I0202 13:40:55.111201 99886 net.cpp:434] inception_4c/5x5 <- inception_4c/5x5_reduce
I0202 13:40:55.111207 99886 net.cpp:408] inception_4c/5x5 -> inception_4c/5x5
I0202 13:40:55.111595 99886 net.cpp:150] Setting up inception_4c/5x5
I0202 13:40:55.111603 99886 net.cpp:157] Top shape: 112 64 14 14 (1404928)
I0202 13:40:55.111608 99886 net.cpp:165] Memory required for data: 4899290372
I0202 13:40:55.111613 99886 layer_factory.hpp:77] Creating layer inception_4c/relu_5x5
I0202 13:40:55.111621 99886 net.cpp:100] Creating Layer inception_4c/relu_5x5
I0202 13:40:55.111632 99886 net.cpp:434] inception_4c/relu_5x5 <- inception_4c/5x5
I0202 13:40:55.111637 99886 net.cpp:395] inception_4c/relu_5x5 -> inception_4c/5x5 (in-place)
I0202 13:40:55.111644 99886 net.cpp:150] Setting up inception_4c/relu_5x5
I0202 13:40:55.111649 99886 net.cpp:157] Top shape: 112 64 14 14 (1404928)
I0202 13:40:55.111652 99886 net.cpp:165] Memory required for data: 4904910084
I0202 13:40:55.111656 99886 layer_factory.hpp:77] Creating layer inception_4c/pool
I0202 13:40:55.111663 99886 net.cpp:100] Creating Layer inception_4c/pool
I0202 13:40:55.111667 99886 net.cpp:434] inception_4c/pool <- inception_4b/output_inception_4b/output_0_split_3
I0202 13:40:55.111675 99886 net.cpp:408] inception_4c/pool -> inception_4c/pool
I0202 13:40:55.111685 99886 net.cpp:150] Setting up inception_4c/pool
I0202 13:40:55.111690 99886 net.cpp:157] Top shape: 112 512 14 14 (11239424)
I0202 13:40:55.111695 99886 net.cpp:165] Memory required for data: 4949867780
I0202 13:40:55.111698 99886 layer_factory.hpp:77] Creating layer inception_4c/pool_proj
I0202 13:40:55.111708 99886 net.cpp:100] Creating Layer inception_4c/pool_proj
I0202 13:40:55.111712 99886 net.cpp:434] inception_4c/pool_proj <- inception_4c/pool
I0202 13:40:55.111721 99886 net.cpp:408] inception_4c/pool_proj -> inception_4c/pool_proj
I0202 13:40:55.112057 99886 net.cpp:150] Setting up inception_4c/pool_proj
I0202 13:40:55.112064 99886 net.cpp:157] Top shape: 112 64 14 14 (1404928)
I0202 13:40:55.112068 99886 net.cpp:165] Memory required for data: 4955487492
I0202 13:40:55.112081 99886 layer_factory.hpp:77] Creating layer inception_4c/relu_pool_proj
I0202 13:40:55.112095 99886 net.cpp:100] Creating Layer inception_4c/relu_pool_proj
I0202 13:40:55.112100 99886 net.cpp:434] inception_4c/relu_pool_proj <- inception_4c/pool_proj
I0202 13:40:55.112107 99886 net.cpp:395] inception_4c/relu_pool_proj -> inception_4c/pool_proj (in-place)
I0202 13:40:55.112114 99886 net.cpp:150] Setting up inception_4c/relu_pool_proj
I0202 13:40:55.112119 99886 net.cpp:157] Top shape: 112 64 14 14 (1404928)
I0202 13:40:55.112123 99886 net.cpp:165] Memory required for data: 4961107204
I0202 13:40:55.112126 99886 layer_factory.hpp:77] Creating layer inception_4c/output
I0202 13:40:55.112133 99886 net.cpp:100] Creating Layer inception_4c/output
I0202 13:40:55.112138 99886 net.cpp:434] inception_4c/output <- inception_4c/1x1
I0202 13:40:55.112143 99886 net.cpp:434] inception_4c/output <- inception_4c/3x3
I0202 13:40:55.112148 99886 net.cpp:434] inception_4c/output <- inception_4c/5x5
I0202 13:40:55.112151 99886 net.cpp:434] inception_4c/output <- inception_4c/pool_proj
I0202 13:40:55.112157 99886 net.cpp:408] inception_4c/output -> inception_4c/output
I0202 13:40:55.112165 99886 net.cpp:150] Setting up inception_4c/output
I0202 13:40:55.112170 99886 net.cpp:157] Top shape: 112 512 14 14 (11239424)
I0202 13:40:55.112174 99886 net.cpp:165] Memory required for data: 5006064900
I0202 13:40:55.112179 99886 layer_factory.hpp:77] Creating layer inception_4c/output_inception_4c/output_0_split
I0202 13:40:55.112187 99886 net.cpp:100] Creating Layer inception_4c/output_inception_4c/output_0_split
I0202 13:40:55.112191 99886 net.cpp:434] inception_4c/output_inception_4c/output_0_split <- inception_4c/output
I0202 13:40:55.112197 99886 net.cpp:408] inception_4c/output_inception_4c/output_0_split -> inception_4c/output_inception_4c/output_0_split_0
I0202 13:40:55.112206 99886 net.cpp:408] inception_4c/output_inception_4c/output_0_split -> inception_4c/output_inception_4c/output_0_split_1
I0202 13:40:55.112213 99886 net.cpp:408] inception_4c/output_inception_4c/output_0_split -> inception_4c/output_inception_4c/output_0_split_2
I0202 13:40:55.112220 99886 net.cpp:408] inception_4c/output_inception_4c/output_0_split -> inception_4c/output_inception_4c/output_0_split_3
I0202 13:40:55.112227 99886 net.cpp:150] Setting up inception_4c/output_inception_4c/output_0_split
I0202 13:40:55.112232 99886 net.cpp:157] Top shape: 112 512 14 14 (11239424)
I0202 13:40:55.112237 99886 net.cpp:157] Top shape: 112 512 14 14 (11239424)
I0202 13:40:55.112241 99886 net.cpp:157] Top shape: 112 512 14 14 (11239424)
I0202 13:40:55.112246 99886 net.cpp:157] Top shape: 112 512 14 14 (11239424)
I0202 13:40:55.112249 99886 net.cpp:165] Memory required for data: 5185895684
I0202 13:40:55.112253 99886 layer_factory.hpp:77] Creating layer inception_4d/1x1
I0202 13:40:55.112263 99886 net.cpp:100] Creating Layer inception_4d/1x1
I0202 13:40:55.112268 99886 net.cpp:434] inception_4d/1x1 <- inception_4c/output_inception_4c/output_0_split_0
I0202 13:40:55.112277 99886 net.cpp:408] inception_4d/1x1 -> inception_4d/1x1
I0202 13:40:55.112840 99886 net.cpp:150] Setting up inception_4d/1x1
I0202 13:40:55.112851 99886 net.cpp:157] Top shape: 112 112 14 14 (2458624)
I0202 13:40:55.112854 99886 net.cpp:165] Memory required for data: 5195730180
I0202 13:40:55.112861 99886 layer_factory.hpp:77] Creating layer inception_4d/relu_1x1
I0202 13:40:55.112869 99886 net.cpp:100] Creating Layer inception_4d/relu_1x1
I0202 13:40:55.112872 99886 net.cpp:434] inception_4d/relu_1x1 <- inception_4d/1x1
I0202 13:40:55.112880 99886 net.cpp:395] inception_4d/relu_1x1 -> inception_4d/1x1 (in-place)
I0202 13:40:55.112887 99886 net.cpp:150] Setting up inception_4d/relu_1x1
I0202 13:40:55.112892 99886 net.cpp:157] Top shape: 112 112 14 14 (2458624)
I0202 13:40:55.112895 99886 net.cpp:165] Memory required for data: 5205564676
I0202 13:40:55.112900 99886 layer_factory.hpp:77] Creating layer inception_4d/3x3_reduce
I0202 13:40:55.112910 99886 net.cpp:100] Creating Layer inception_4d/3x3_reduce
I0202 13:40:55.112918 99886 net.cpp:434] inception_4d/3x3_reduce <- inception_4c/output_inception_4c/output_0_split_1
I0202 13:40:55.112931 99886 net.cpp:408] inception_4d/3x3_reduce -> inception_4d/3x3_reduce
I0202 13:40:55.113642 99886 net.cpp:150] Setting up inception_4d/3x3_reduce
I0202 13:40:55.113652 99886 net.cpp:157] Top shape: 112 144 14 14 (3161088)
I0202 13:40:55.113656 99886 net.cpp:165] Memory required for data: 5218209028
I0202 13:40:55.113663 99886 layer_factory.hpp:77] Creating layer inception_4d/relu_3x3_reduce
I0202 13:40:55.113672 99886 net.cpp:100] Creating Layer inception_4d/relu_3x3_reduce
I0202 13:40:55.113677 99886 net.cpp:434] inception_4d/relu_3x3_reduce <- inception_4d/3x3_reduce
I0202 13:40:55.113682 99886 net.cpp:395] inception_4d/relu_3x3_reduce -> inception_4d/3x3_reduce (in-place)
I0202 13:40:55.113688 99886 net.cpp:150] Setting up inception_4d/relu_3x3_reduce
I0202 13:40:55.113693 99886 net.cpp:157] Top shape: 112 144 14 14 (3161088)
I0202 13:40:55.113696 99886 net.cpp:165] Memory required for data: 5230853380
I0202 13:40:55.113700 99886 layer_factory.hpp:77] Creating layer inception_4d/3x3
I0202 13:40:55.113708 99886 net.cpp:100] Creating Layer inception_4d/3x3
I0202 13:40:55.113713 99886 net.cpp:434] inception_4d/3x3 <- inception_4d/3x3_reduce
I0202 13:40:55.113720 99886 net.cpp:408] inception_4d/3x3 -> inception_4d/3x3
I0202 13:40:55.117527 99886 net.cpp:150] Setting up inception_4d/3x3
I0202 13:40:55.117537 99886 net.cpp:157] Top shape: 112 288 14 14 (6322176)
I0202 13:40:55.117542 99886 net.cpp:165] Memory required for data: 5256142084
I0202 13:40:55.117548 99886 layer_factory.hpp:77] Creating layer inception_4d/relu_3x3
I0202 13:40:55.117554 99886 net.cpp:100] Creating Layer inception_4d/relu_3x3
I0202 13:40:55.117558 99886 net.cpp:434] inception_4d/relu_3x3 <- inception_4d/3x3
I0202 13:40:55.117564 99886 net.cpp:395] inception_4d/relu_3x3 -> inception_4d/3x3 (in-place)
I0202 13:40:55.117570 99886 net.cpp:150] Setting up inception_4d/relu_3x3
I0202 13:40:55.117575 99886 net.cpp:157] Top shape: 112 288 14 14 (6322176)
I0202 13:40:55.117579 99886 net.cpp:165] Memory required for data: 5281430788
I0202 13:40:55.117583 99886 layer_factory.hpp:77] Creating layer inception_4d/5x5_reduce
I0202 13:40:55.117594 99886 net.cpp:100] Creating Layer inception_4d/5x5_reduce
I0202 13:40:55.117599 99886 net.cpp:434] inception_4d/5x5_reduce <- inception_4c/output_inception_4c/output_0_split_2
I0202 13:40:55.117604 99886 net.cpp:408] inception_4d/5x5_reduce -> inception_4d/5x5_reduce
I0202 13:40:55.117764 99886 net.cpp:150] Setting up inception_4d/5x5_reduce
I0202 13:40:55.117775 99886 net.cpp:157] Top shape: 112 32 14 14 (702464)
I0202 13:40:55.117779 99886 net.cpp:165] Memory required for data: 5284240644
I0202 13:40:55.117785 99886 layer_factory.hpp:77] Creating layer inception_4d/relu_5x5_reduce
I0202 13:40:55.117791 99886 net.cpp:100] Creating Layer inception_4d/relu_5x5_reduce
I0202 13:40:55.117795 99886 net.cpp:434] inception_4d/relu_5x5_reduce <- inception_4d/5x5_reduce
I0202 13:40:55.117801 99886 net.cpp:395] inception_4d/relu_5x5_reduce -> inception_4d/5x5_reduce (in-place)
I0202 13:40:55.117807 99886 net.cpp:150] Setting up inception_4d/relu_5x5_reduce
I0202 13:40:55.117812 99886 net.cpp:157] Top shape: 112 32 14 14 (702464)
I0202 13:40:55.117816 99886 net.cpp:165] Memory required for data: 5287050500
I0202 13:40:55.117820 99886 layer_factory.hpp:77] Creating layer inception_4d/5x5
I0202 13:40:55.117830 99886 net.cpp:100] Creating Layer inception_4d/5x5
I0202 13:40:55.117835 99886 net.cpp:434] inception_4d/5x5 <- inception_4d/5x5_reduce
I0202 13:40:55.117842 99886 net.cpp:408] inception_4d/5x5 -> inception_4d/5x5
I0202 13:40:55.118345 99886 net.cpp:150] Setting up inception_4d/5x5
I0202 13:40:55.118352 99886 net.cpp:157] Top shape: 112 64 14 14 (1404928)
I0202 13:40:55.118355 99886 net.cpp:165] Memory required for data: 5292670212
I0202 13:40:55.118362 99886 layer_factory.hpp:77] Creating layer inception_4d/relu_5x5
I0202 13:40:55.118368 99886 net.cpp:100] Creating Layer inception_4d/relu_5x5
I0202 13:40:55.118384 99886 net.cpp:434] inception_4d/relu_5x5 <- inception_4d/5x5
I0202 13:40:55.118392 99886 net.cpp:395] inception_4d/relu_5x5 -> inception_4d/5x5 (in-place)
I0202 13:40:55.118399 99886 net.cpp:150] Setting up inception_4d/relu_5x5
I0202 13:40:55.118404 99886 net.cpp:157] Top shape: 112 64 14 14 (1404928)
I0202 13:40:55.118407 99886 net.cpp:165] Memory required for data: 5298289924
I0202 13:40:55.118412 99886 layer_factory.hpp:77] Creating layer inception_4d/pool
I0202 13:40:55.118418 99886 net.cpp:100] Creating Layer inception_4d/pool
I0202 13:40:55.118422 99886 net.cpp:434] inception_4d/pool <- inception_4c/output_inception_4c/output_0_split_3
I0202 13:40:55.118430 99886 net.cpp:408] inception_4d/pool -> inception_4d/pool
I0202 13:40:55.118439 99886 net.cpp:150] Setting up inception_4d/pool
I0202 13:40:55.118445 99886 net.cpp:157] Top shape: 112 512 14 14 (11239424)
I0202 13:40:55.118448 99886 net.cpp:165] Memory required for data: 5343247620
I0202 13:40:55.118453 99886 layer_factory.hpp:77] Creating layer inception_4d/pool_proj
I0202 13:40:55.118463 99886 net.cpp:100] Creating Layer inception_4d/pool_proj
I0202 13:40:55.118466 99886 net.cpp:434] inception_4d/pool_proj <- inception_4d/pool
I0202 13:40:55.118474 99886 net.cpp:408] inception_4d/pool_proj -> inception_4d/pool_proj
I0202 13:40:55.118788 99886 net.cpp:150] Setting up inception_4d/pool_proj
I0202 13:40:55.118800 99886 net.cpp:157] Top shape: 112 64 14 14 (1404928)
I0202 13:40:55.118804 99886 net.cpp:165] Memory required for data: 5348867332
I0202 13:40:55.118810 99886 layer_factory.hpp:77] Creating layer inception_4d/relu_pool_proj
I0202 13:40:55.118818 99886 net.cpp:100] Creating Layer inception_4d/relu_pool_proj
I0202 13:40:55.118821 99886 net.cpp:434] inception_4d/relu_pool_proj <- inception_4d/pool_proj
I0202 13:40:55.118827 99886 net.cpp:395] inception_4d/relu_pool_proj -> inception_4d/pool_proj (in-place)
I0202 13:40:55.118834 99886 net.cpp:150] Setting up inception_4d/relu_pool_proj
I0202 13:40:55.118839 99886 net.cpp:157] Top shape: 112 64 14 14 (1404928)
I0202 13:40:55.118841 99886 net.cpp:165] Memory required for data: 5354487044
I0202 13:40:55.118845 99886 layer_factory.hpp:77] Creating layer inception_4d/output
I0202 13:40:55.118852 99886 net.cpp:100] Creating Layer inception_4d/output
I0202 13:40:55.118856 99886 net.cpp:434] inception_4d/output <- inception_4d/1x1
I0202 13:40:55.118861 99886 net.cpp:434] inception_4d/output <- inception_4d/3x3
I0202 13:40:55.118865 99886 net.cpp:434] inception_4d/output <- inception_4d/5x5
I0202 13:40:55.118870 99886 net.cpp:434] inception_4d/output <- inception_4d/pool_proj
I0202 13:40:55.118878 99886 net.cpp:408] inception_4d/output -> inception_4d/output
I0202 13:40:55.118886 99886 net.cpp:150] Setting up inception_4d/output
I0202 13:40:55.118891 99886 net.cpp:157] Top shape: 112 528 14 14 (11590656)
I0202 13:40:55.118896 99886 net.cpp:165] Memory required for data: 5400849668
I0202 13:40:55.118899 99886 layer_factory.hpp:77] Creating layer inception_4d/output_inception_4d/output_0_split
I0202 13:40:55.118911 99886 net.cpp:100] Creating Layer inception_4d/output_inception_4d/output_0_split
I0202 13:40:55.118916 99886 net.cpp:434] inception_4d/output_inception_4d/output_0_split <- inception_4d/output
I0202 13:40:55.118921 99886 net.cpp:408] inception_4d/output_inception_4d/output_0_split -> inception_4d/output_inception_4d/output_0_split_0
I0202 13:40:55.118929 99886 net.cpp:408] inception_4d/output_inception_4d/output_0_split -> inception_4d/output_inception_4d/output_0_split_1
I0202 13:40:55.118935 99886 net.cpp:408] inception_4d/output_inception_4d/output_0_split -> inception_4d/output_inception_4d/output_0_split_2
I0202 13:40:55.118942 99886 net.cpp:408] inception_4d/output_inception_4d/output_0_split -> inception_4d/output_inception_4d/output_0_split_3
I0202 13:40:55.118950 99886 net.cpp:408] inception_4d/output_inception_4d/output_0_split -> inception_4d/output_inception_4d/output_0_split_4
I0202 13:40:55.118960 99886 net.cpp:150] Setting up inception_4d/output_inception_4d/output_0_split
I0202 13:40:55.118975 99886 net.cpp:157] Top shape: 112 528 14 14 (11590656)
I0202 13:40:55.118980 99886 net.cpp:157] Top shape: 112 528 14 14 (11590656)
I0202 13:40:55.118985 99886 net.cpp:157] Top shape: 112 528 14 14 (11590656)
I0202 13:40:55.118989 99886 net.cpp:157] Top shape: 112 528 14 14 (11590656)
I0202 13:40:55.118994 99886 net.cpp:157] Top shape: 112 528 14 14 (11590656)
I0202 13:40:55.118999 99886 net.cpp:165] Memory required for data: 5632662788
I0202 13:40:55.119001 99886 layer_factory.hpp:77] Creating layer loss2/ave_pool
I0202 13:40:55.119010 99886 net.cpp:100] Creating Layer loss2/ave_pool
I0202 13:40:55.119015 99886 net.cpp:434] loss2/ave_pool <- inception_4d/output_inception_4d/output_0_split_0
I0202 13:40:55.119022 99886 net.cpp:408] loss2/ave_pool -> loss2/ave_pool
I0202 13:40:55.119030 99886 net.cpp:150] Setting up loss2/ave_pool
I0202 13:40:55.119035 99886 net.cpp:157] Top shape: 112 528 4 4 (946176)
I0202 13:40:55.119040 99886 net.cpp:165] Memory required for data: 5636447492
I0202 13:40:55.119042 99886 layer_factory.hpp:77] Creating layer loss2/conv
I0202 13:40:55.119053 99886 net.cpp:100] Creating Layer loss2/conv
I0202 13:40:55.119058 99886 net.cpp:434] loss2/conv <- loss2/ave_pool
I0202 13:40:55.119066 99886 net.cpp:408] loss2/conv -> loss2/conv
I0202 13:40:55.119720 99886 net.cpp:150] Setting up loss2/conv
I0202 13:40:55.119730 99886 net.cpp:157] Top shape: 112 128 4 4 (229376)
I0202 13:40:55.119735 99886 net.cpp:165] Memory required for data: 5637364996
I0202 13:40:55.119741 99886 layer_factory.hpp:77] Creating layer loss2/relu_conv
I0202 13:40:55.119748 99886 net.cpp:100] Creating Layer loss2/relu_conv
I0202 13:40:55.119752 99886 net.cpp:434] loss2/relu_conv <- loss2/conv
I0202 13:40:55.119758 99886 net.cpp:395] loss2/relu_conv -> loss2/conv (in-place)
I0202 13:40:55.119765 99886 net.cpp:150] Setting up loss2/relu_conv
I0202 13:40:55.119771 99886 net.cpp:157] Top shape: 112 128 4 4 (229376)
I0202 13:40:55.119773 99886 net.cpp:165] Memory required for data: 5638282500
I0202 13:40:55.119777 99886 layer_factory.hpp:77] Creating layer loss2/fc
I0202 13:40:55.119789 99886 net.cpp:100] Creating Layer loss2/fc
I0202 13:40:55.119794 99886 net.cpp:434] loss2/fc <- loss2/conv
I0202 13:40:55.119802 99886 net.cpp:408] loss2/fc -> loss2/fc
I0202 13:40:55.138249 99886 net.cpp:150] Setting up loss2/fc
I0202 13:40:55.138289 99886 net.cpp:157] Top shape: 112 1024 (114688)
I0202 13:40:55.138294 99886 net.cpp:165] Memory required for data: 5638741252
I0202 13:40:55.138308 99886 layer_factory.hpp:77] Creating layer loss2/relu_fc
I0202 13:40:55.138319 99886 net.cpp:100] Creating Layer loss2/relu_fc
I0202 13:40:55.138326 99886 net.cpp:434] loss2/relu_fc <- loss2/fc
I0202 13:40:55.138337 99886 net.cpp:395] loss2/relu_fc -> loss2/fc (in-place)
I0202 13:40:55.138348 99886 net.cpp:150] Setting up loss2/relu_fc
I0202 13:40:55.138353 99886 net.cpp:157] Top shape: 112 1024 (114688)
I0202 13:40:55.138357 99886 net.cpp:165] Memory required for data: 5639200004
I0202 13:40:55.138361 99886 layer_factory.hpp:77] Creating layer loss2/drop_fc
I0202 13:40:55.138370 99886 net.cpp:100] Creating Layer loss2/drop_fc
I0202 13:40:55.138375 99886 net.cpp:434] loss2/drop_fc <- loss2/fc
I0202 13:40:55.138381 99886 net.cpp:395] loss2/drop_fc -> loss2/fc (in-place)
I0202 13:40:55.138391 99886 net.cpp:150] Setting up loss2/drop_fc
I0202 13:40:55.138396 99886 net.cpp:157] Top shape: 112 1024 (114688)
I0202 13:40:55.138399 99886 net.cpp:165] Memory required for data: 5639658756
I0202 13:40:55.138403 99886 layer_factory.hpp:77] Creating layer loss2/classifier
I0202 13:40:55.138413 99886 net.cpp:100] Creating Layer loss2/classifier
I0202 13:40:55.138417 99886 net.cpp:434] loss2/classifier <- loss2/fc
I0202 13:40:55.138427 99886 net.cpp:408] loss2/classifier -> loss2/classifier
I0202 13:40:55.147918 99886 net.cpp:150] Setting up loss2/classifier
I0202 13:40:55.147941 99886 net.cpp:157] Top shape: 112 1000 (112000)
I0202 13:40:55.147945 99886 net.cpp:165] Memory required for data: 5640106756
I0202 13:40:55.147967 99886 layer_factory.hpp:77] Creating layer loss2/loss
I0202 13:40:55.147994 99886 net.cpp:100] Creating Layer loss2/loss
I0202 13:40:55.148000 99886 net.cpp:434] loss2/loss <- loss2/classifier
I0202 13:40:55.148006 99886 net.cpp:434] loss2/loss <- label_data_1_split_1
I0202 13:40:55.148015 99886 net.cpp:408] loss2/loss -> loss2/loss1
I0202 13:40:55.148025 99886 layer_factory.hpp:77] Creating layer loss2/loss
I0202 13:40:55.148349 99886 net.cpp:150] Setting up loss2/loss
I0202 13:40:55.148355 99886 net.cpp:157] Top shape: (1)
I0202 13:40:55.148360 99886 net.cpp:160]     with loss weight 0.3
I0202 13:40:55.148377 99886 net.cpp:165] Memory required for data: 5640106760
I0202 13:40:55.148381 99886 layer_factory.hpp:77] Creating layer inception_4e/1x1
I0202 13:40:55.148396 99886 net.cpp:100] Creating Layer inception_4e/1x1
I0202 13:40:55.148401 99886 net.cpp:434] inception_4e/1x1 <- inception_4d/output_inception_4d/output_0_split_1
I0202 13:40:55.148411 99886 net.cpp:408] inception_4e/1x1 -> inception_4e/1x1
I0202 13:40:55.149665 99886 net.cpp:150] Setting up inception_4e/1x1
I0202 13:40:55.149677 99886 net.cpp:157] Top shape: 112 256 14 14 (5619712)
I0202 13:40:55.149680 99886 net.cpp:165] Memory required for data: 5662585608
I0202 13:40:55.149688 99886 layer_factory.hpp:77] Creating layer inception_4e/relu_1x1
I0202 13:40:55.149695 99886 net.cpp:100] Creating Layer inception_4e/relu_1x1
I0202 13:40:55.149700 99886 net.cpp:434] inception_4e/relu_1x1 <- inception_4e/1x1
I0202 13:40:55.149706 99886 net.cpp:395] inception_4e/relu_1x1 -> inception_4e/1x1 (in-place)
I0202 13:40:55.149713 99886 net.cpp:150] Setting up inception_4e/relu_1x1
I0202 13:40:55.149718 99886 net.cpp:157] Top shape: 112 256 14 14 (5619712)
I0202 13:40:55.149722 99886 net.cpp:165] Memory required for data: 5685064456
I0202 13:40:55.149726 99886 layer_factory.hpp:77] Creating layer inception_4e/3x3_reduce
I0202 13:40:55.149739 99886 net.cpp:100] Creating Layer inception_4e/3x3_reduce
I0202 13:40:55.149744 99886 net.cpp:434] inception_4e/3x3_reduce <- inception_4d/output_inception_4d/output_0_split_2
I0202 13:40:55.149751 99886 net.cpp:408] inception_4e/3x3_reduce -> inception_4e/3x3_reduce
I0202 13:40:55.150532 99886 net.cpp:150] Setting up inception_4e/3x3_reduce
I0202 13:40:55.150539 99886 net.cpp:157] Top shape: 112 160 14 14 (3512320)
I0202 13:40:55.150543 99886 net.cpp:165] Memory required for data: 5699113736
I0202 13:40:55.150549 99886 layer_factory.hpp:77] Creating layer inception_4e/relu_3x3_reduce
I0202 13:40:55.150555 99886 net.cpp:100] Creating Layer inception_4e/relu_3x3_reduce
I0202 13:40:55.150560 99886 net.cpp:434] inception_4e/relu_3x3_reduce <- inception_4e/3x3_reduce
I0202 13:40:55.150569 99886 net.cpp:395] inception_4e/relu_3x3_reduce -> inception_4e/3x3_reduce (in-place)
I0202 13:40:55.150576 99886 net.cpp:150] Setting up inception_4e/relu_3x3_reduce
I0202 13:40:55.150581 99886 net.cpp:157] Top shape: 112 160 14 14 (3512320)
I0202 13:40:55.150584 99886 net.cpp:165] Memory required for data: 5713163016
I0202 13:40:55.150588 99886 layer_factory.hpp:77] Creating layer inception_4e/3x3
I0202 13:40:55.150596 99886 net.cpp:100] Creating Layer inception_4e/3x3
I0202 13:40:55.150600 99886 net.cpp:434] inception_4e/3x3 <- inception_4e/3x3_reduce
I0202 13:40:55.150606 99886 net.cpp:408] inception_4e/3x3 -> inception_4e/3x3
I0202 13:40:55.155223 99886 net.cpp:150] Setting up inception_4e/3x3
I0202 13:40:55.155236 99886 net.cpp:157] Top shape: 112 320 14 14 (7024640)
I0202 13:40:55.155239 99886 net.cpp:165] Memory required for data: 5741261576
I0202 13:40:55.155246 99886 layer_factory.hpp:77] Creating layer inception_4e/relu_3x3
I0202 13:40:55.155253 99886 net.cpp:100] Creating Layer inception_4e/relu_3x3
I0202 13:40:55.155258 99886 net.cpp:434] inception_4e/relu_3x3 <- inception_4e/3x3
I0202 13:40:55.155263 99886 net.cpp:395] inception_4e/relu_3x3 -> inception_4e/3x3 (in-place)
I0202 13:40:55.155270 99886 net.cpp:150] Setting up inception_4e/relu_3x3
I0202 13:40:55.155275 99886 net.cpp:157] Top shape: 112 320 14 14 (7024640)
I0202 13:40:55.155284 99886 net.cpp:165] Memory required for data: 5769360136
I0202 13:40:55.155299 99886 layer_factory.hpp:77] Creating layer inception_4e/5x5_reduce
I0202 13:40:55.155308 99886 net.cpp:100] Creating Layer inception_4e/5x5_reduce
I0202 13:40:55.155313 99886 net.cpp:434] inception_4e/5x5_reduce <- inception_4d/output_inception_4d/output_0_split_3
I0202 13:40:55.155321 99886 net.cpp:408] inception_4e/5x5_reduce -> inception_4e/5x5_reduce
I0202 13:40:55.155493 99886 net.cpp:150] Setting up inception_4e/5x5_reduce
I0202 13:40:55.155499 99886 net.cpp:157] Top shape: 112 32 14 14 (702464)
I0202 13:40:55.155503 99886 net.cpp:165] Memory required for data: 5772169992
I0202 13:40:55.155509 99886 layer_factory.hpp:77] Creating layer inception_4e/relu_5x5_reduce
I0202 13:40:55.155515 99886 net.cpp:100] Creating Layer inception_4e/relu_5x5_reduce
I0202 13:40:55.155519 99886 net.cpp:434] inception_4e/relu_5x5_reduce <- inception_4e/5x5_reduce
I0202 13:40:55.155527 99886 net.cpp:395] inception_4e/relu_5x5_reduce -> inception_4e/5x5_reduce (in-place)
I0202 13:40:55.155534 99886 net.cpp:150] Setting up inception_4e/relu_5x5_reduce
I0202 13:40:55.155539 99886 net.cpp:157] Top shape: 112 32 14 14 (702464)
I0202 13:40:55.155541 99886 net.cpp:165] Memory required for data: 5774979848
I0202 13:40:55.155545 99886 layer_factory.hpp:77] Creating layer inception_4e/5x5
I0202 13:40:55.155582 99886 net.cpp:100] Creating Layer inception_4e/5x5
I0202 13:40:55.155587 99886 net.cpp:434] inception_4e/5x5 <- inception_4e/5x5_reduce
I0202 13:40:55.155594 99886 net.cpp:408] inception_4e/5x5 -> inception_4e/5x5
I0202 13:40:55.156543 99886 net.cpp:150] Setting up inception_4e/5x5
I0202 13:40:55.156553 99886 net.cpp:157] Top shape: 112 128 14 14 (2809856)
I0202 13:40:55.156556 99886 net.cpp:165] Memory required for data: 5786219272
I0202 13:40:55.156563 99886 layer_factory.hpp:77] Creating layer inception_4e/relu_5x5
I0202 13:40:55.156569 99886 net.cpp:100] Creating Layer inception_4e/relu_5x5
I0202 13:40:55.156574 99886 net.cpp:434] inception_4e/relu_5x5 <- inception_4e/5x5
I0202 13:40:55.156581 99886 net.cpp:395] inception_4e/relu_5x5 -> inception_4e/5x5 (in-place)
I0202 13:40:55.156587 99886 net.cpp:150] Setting up inception_4e/relu_5x5
I0202 13:40:55.156592 99886 net.cpp:157] Top shape: 112 128 14 14 (2809856)
I0202 13:40:55.156595 99886 net.cpp:165] Memory required for data: 5797458696
I0202 13:40:55.156599 99886 layer_factory.hpp:77] Creating layer inception_4e/pool
I0202 13:40:55.156610 99886 net.cpp:100] Creating Layer inception_4e/pool
I0202 13:40:55.156615 99886 net.cpp:434] inception_4e/pool <- inception_4d/output_inception_4d/output_0_split_4
I0202 13:40:55.156620 99886 net.cpp:408] inception_4e/pool -> inception_4e/pool
I0202 13:40:55.156636 99886 net.cpp:150] Setting up inception_4e/pool
I0202 13:40:55.156643 99886 net.cpp:157] Top shape: 112 528 14 14 (11590656)
I0202 13:40:55.156647 99886 net.cpp:165] Memory required for data: 5843821320
I0202 13:40:55.156651 99886 layer_factory.hpp:77] Creating layer inception_4e/pool_proj
I0202 13:40:55.156661 99886 net.cpp:100] Creating Layer inception_4e/pool_proj
I0202 13:40:55.156666 99886 net.cpp:434] inception_4e/pool_proj <- inception_4e/pool
I0202 13:40:55.156674 99886 net.cpp:408] inception_4e/pool_proj -> inception_4e/pool_proj
I0202 13:40:55.157310 99886 net.cpp:150] Setting up inception_4e/pool_proj
I0202 13:40:55.157318 99886 net.cpp:157] Top shape: 112 128 14 14 (2809856)
I0202 13:40:55.157321 99886 net.cpp:165] Memory required for data: 5855060744
I0202 13:40:55.157328 99886 layer_factory.hpp:77] Creating layer inception_4e/relu_pool_proj
I0202 13:40:55.157335 99886 net.cpp:100] Creating Layer inception_4e/relu_pool_proj
I0202 13:40:55.157338 99886 net.cpp:434] inception_4e/relu_pool_proj <- inception_4e/pool_proj
I0202 13:40:55.157346 99886 net.cpp:395] inception_4e/relu_pool_proj -> inception_4e/pool_proj (in-place)
I0202 13:40:55.157353 99886 net.cpp:150] Setting up inception_4e/relu_pool_proj
I0202 13:40:55.157358 99886 net.cpp:157] Top shape: 112 128 14 14 (2809856)
I0202 13:40:55.157361 99886 net.cpp:165] Memory required for data: 5866300168
I0202 13:40:55.157377 99886 layer_factory.hpp:77] Creating layer inception_4e/output
I0202 13:40:55.157385 99886 net.cpp:100] Creating Layer inception_4e/output
I0202 13:40:55.157389 99886 net.cpp:434] inception_4e/output <- inception_4e/1x1
I0202 13:40:55.157394 99886 net.cpp:434] inception_4e/output <- inception_4e/3x3
I0202 13:40:55.157399 99886 net.cpp:434] inception_4e/output <- inception_4e/5x5
I0202 13:40:55.157404 99886 net.cpp:434] inception_4e/output <- inception_4e/pool_proj
I0202 13:40:55.157409 99886 net.cpp:408] inception_4e/output -> inception_4e/output
I0202 13:40:55.157420 99886 net.cpp:150] Setting up inception_4e/output
I0202 13:40:55.157425 99886 net.cpp:157] Top shape: 112 832 14 14 (18264064)
I0202 13:40:55.157429 99886 net.cpp:165] Memory required for data: 5939356424
I0202 13:40:55.157433 99886 layer_factory.hpp:77] Creating layer pool4/3x3_s2
I0202 13:40:55.157439 99886 net.cpp:100] Creating Layer pool4/3x3_s2
I0202 13:40:55.157444 99886 net.cpp:434] pool4/3x3_s2 <- inception_4e/output
I0202 13:40:55.157450 99886 net.cpp:408] pool4/3x3_s2 -> pool4/3x3_s2
I0202 13:40:55.157459 99886 net.cpp:150] Setting up pool4/3x3_s2
I0202 13:40:55.157464 99886 net.cpp:157] Top shape: 112 832 7 7 (4566016)
I0202 13:40:55.157467 99886 net.cpp:165] Memory required for data: 5957620488
I0202 13:40:55.157471 99886 layer_factory.hpp:77] Creating layer pool4/3x3_s2_pool4/3x3_s2_0_split
I0202 13:40:55.157481 99886 net.cpp:100] Creating Layer pool4/3x3_s2_pool4/3x3_s2_0_split
I0202 13:40:55.157486 99886 net.cpp:434] pool4/3x3_s2_pool4/3x3_s2_0_split <- pool4/3x3_s2
I0202 13:40:55.157492 99886 net.cpp:408] pool4/3x3_s2_pool4/3x3_s2_0_split -> pool4/3x3_s2_pool4/3x3_s2_0_split_0
I0202 13:40:55.157498 99886 net.cpp:408] pool4/3x3_s2_pool4/3x3_s2_0_split -> pool4/3x3_s2_pool4/3x3_s2_0_split_1
I0202 13:40:55.157505 99886 net.cpp:408] pool4/3x3_s2_pool4/3x3_s2_0_split -> pool4/3x3_s2_pool4/3x3_s2_0_split_2
I0202 13:40:55.157512 99886 net.cpp:408] pool4/3x3_s2_pool4/3x3_s2_0_split -> pool4/3x3_s2_pool4/3x3_s2_0_split_3
I0202 13:40:55.157521 99886 net.cpp:150] Setting up pool4/3x3_s2_pool4/3x3_s2_0_split
I0202 13:40:55.157526 99886 net.cpp:157] Top shape: 112 832 7 7 (4566016)
I0202 13:40:55.157531 99886 net.cpp:157] Top shape: 112 832 7 7 (4566016)
I0202 13:40:55.157536 99886 net.cpp:157] Top shape: 112 832 7 7 (4566016)
I0202 13:40:55.157539 99886 net.cpp:157] Top shape: 112 832 7 7 (4566016)
I0202 13:40:55.157542 99886 net.cpp:165] Memory required for data: 6030676744
I0202 13:40:55.157546 99886 layer_factory.hpp:77] Creating layer inception_5a/1x1
I0202 13:40:55.157557 99886 net.cpp:100] Creating Layer inception_5a/1x1
I0202 13:40:55.157562 99886 net.cpp:434] inception_5a/1x1 <- pool4/3x3_s2_pool4/3x3_s2_0_split_0
I0202 13:40:55.157568 99886 net.cpp:408] inception_5a/1x1 -> inception_5a/1x1
I0202 13:40:55.159515 99886 net.cpp:150] Setting up inception_5a/1x1
I0202 13:40:55.159525 99886 net.cpp:157] Top shape: 112 256 7 7 (1404928)
I0202 13:40:55.159529 99886 net.cpp:165] Memory required for data: 6036296456
I0202 13:40:55.159536 99886 layer_factory.hpp:77] Creating layer inception_5a/relu_1x1
I0202 13:40:55.159545 99886 net.cpp:100] Creating Layer inception_5a/relu_1x1
I0202 13:40:55.159549 99886 net.cpp:434] inception_5a/relu_1x1 <- inception_5a/1x1
I0202 13:40:55.159554 99886 net.cpp:395] inception_5a/relu_1x1 -> inception_5a/1x1 (in-place)
I0202 13:40:55.159561 99886 net.cpp:150] Setting up inception_5a/relu_1x1
I0202 13:40:55.159566 99886 net.cpp:157] Top shape: 112 256 7 7 (1404928)
I0202 13:40:55.159569 99886 net.cpp:165] Memory required for data: 6041916168
I0202 13:40:55.159574 99886 layer_factory.hpp:77] Creating layer inception_5a/3x3_reduce
I0202 13:40:55.159582 99886 net.cpp:100] Creating Layer inception_5a/3x3_reduce
I0202 13:40:55.159586 99886 net.cpp:434] inception_5a/3x3_reduce <- pool4/3x3_s2_pool4/3x3_s2_0_split_1
I0202 13:40:55.159595 99886 net.cpp:408] inception_5a/3x3_reduce -> inception_5a/3x3_reduce
I0202 13:40:55.160818 99886 net.cpp:150] Setting up inception_5a/3x3_reduce
I0202 13:40:55.160832 99886 net.cpp:157] Top shape: 112 160 7 7 (878080)
I0202 13:40:55.160842 99886 net.cpp:165] Memory required for data: 6045428488
I0202 13:40:55.160850 99886 layer_factory.hpp:77] Creating layer inception_5a/relu_3x3_reduce
I0202 13:40:55.160857 99886 net.cpp:100] Creating Layer inception_5a/relu_3x3_reduce
I0202 13:40:55.160862 99886 net.cpp:434] inception_5a/relu_3x3_reduce <- inception_5a/3x3_reduce
I0202 13:40:55.160868 99886 net.cpp:395] inception_5a/relu_3x3_reduce -> inception_5a/3x3_reduce (in-place)
I0202 13:40:55.160874 99886 net.cpp:150] Setting up inception_5a/relu_3x3_reduce
I0202 13:40:55.160881 99886 net.cpp:157] Top shape: 112 160 7 7 (878080)
I0202 13:40:55.160883 99886 net.cpp:165] Memory required for data: 6048940808
I0202 13:40:55.160887 99886 layer_factory.hpp:77] Creating layer inception_5a/3x3
I0202 13:40:55.160895 99886 net.cpp:100] Creating Layer inception_5a/3x3
I0202 13:40:55.160899 99886 net.cpp:434] inception_5a/3x3 <- inception_5a/3x3_reduce
I0202 13:40:55.160909 99886 net.cpp:408] inception_5a/3x3 -> inception_5a/3x3
I0202 13:40:55.165490 99886 net.cpp:150] Setting up inception_5a/3x3
I0202 13:40:55.165501 99886 net.cpp:157] Top shape: 112 320 7 7 (1756160)
I0202 13:40:55.165505 99886 net.cpp:165] Memory required for data: 6055965448
I0202 13:40:55.165511 99886 layer_factory.hpp:77] Creating layer inception_5a/relu_3x3
I0202 13:40:55.165518 99886 net.cpp:100] Creating Layer inception_5a/relu_3x3
I0202 13:40:55.165522 99886 net.cpp:434] inception_5a/relu_3x3 <- inception_5a/3x3
I0202 13:40:55.165527 99886 net.cpp:395] inception_5a/relu_3x3 -> inception_5a/3x3 (in-place)
I0202 13:40:55.165534 99886 net.cpp:150] Setting up inception_5a/relu_3x3
I0202 13:40:55.165539 99886 net.cpp:157] Top shape: 112 320 7 7 (1756160)
I0202 13:40:55.165542 99886 net.cpp:165] Memory required for data: 6062990088
I0202 13:40:55.165545 99886 layer_factory.hpp:77] Creating layer inception_5a/5x5_reduce
I0202 13:40:55.165556 99886 net.cpp:100] Creating Layer inception_5a/5x5_reduce
I0202 13:40:55.165560 99886 net.cpp:434] inception_5a/5x5_reduce <- pool4/3x3_s2_pool4/3x3_s2_0_split_2
I0202 13:40:55.165566 99886 net.cpp:408] inception_5a/5x5_reduce -> inception_5a/5x5_reduce
I0202 13:40:55.165812 99886 net.cpp:150] Setting up inception_5a/5x5_reduce
I0202 13:40:55.165822 99886 net.cpp:157] Top shape: 112 32 7 7 (175616)
I0202 13:40:55.165825 99886 net.cpp:165] Memory required for data: 6063692552
I0202 13:40:55.165832 99886 layer_factory.hpp:77] Creating layer inception_5a/relu_5x5_reduce
I0202 13:40:55.165840 99886 net.cpp:100] Creating Layer inception_5a/relu_5x5_reduce
I0202 13:40:55.165844 99886 net.cpp:434] inception_5a/relu_5x5_reduce <- inception_5a/5x5_reduce
I0202 13:40:55.165850 99886 net.cpp:395] inception_5a/relu_5x5_reduce -> inception_5a/5x5_reduce (in-place)
I0202 13:40:55.165856 99886 net.cpp:150] Setting up inception_5a/relu_5x5_reduce
I0202 13:40:55.165861 99886 net.cpp:157] Top shape: 112 32 7 7 (175616)
I0202 13:40:55.165864 99886 net.cpp:165] Memory required for data: 6064395016
I0202 13:40:55.165868 99886 layer_factory.hpp:77] Creating layer inception_5a/5x5
I0202 13:40:55.165879 99886 net.cpp:100] Creating Layer inception_5a/5x5
I0202 13:40:55.165882 99886 net.cpp:434] inception_5a/5x5 <- inception_5a/5x5_reduce
I0202 13:40:55.165891 99886 net.cpp:408] inception_5a/5x5 -> inception_5a/5x5
I0202 13:40:55.166827 99886 net.cpp:150] Setting up inception_5a/5x5
I0202 13:40:55.166838 99886 net.cpp:157] Top shape: 112 128 7 7 (702464)
I0202 13:40:55.166842 99886 net.cpp:165] Memory required for data: 6067204872
I0202 13:40:55.166849 99886 layer_factory.hpp:77] Creating layer inception_5a/relu_5x5
I0202 13:40:55.166856 99886 net.cpp:100] Creating Layer inception_5a/relu_5x5
I0202 13:40:55.166859 99886 net.cpp:434] inception_5a/relu_5x5 <- inception_5a/5x5
I0202 13:40:55.166864 99886 net.cpp:395] inception_5a/relu_5x5 -> inception_5a/5x5 (in-place)
I0202 13:40:55.166870 99886 net.cpp:150] Setting up inception_5a/relu_5x5
I0202 13:40:55.166875 99886 net.cpp:157] Top shape: 112 128 7 7 (702464)
I0202 13:40:55.166893 99886 net.cpp:165] Memory required for data: 6070014728
I0202 13:40:55.166898 99886 layer_factory.hpp:77] Creating layer inception_5a/pool
I0202 13:40:55.166906 99886 net.cpp:100] Creating Layer inception_5a/pool
I0202 13:40:55.166910 99886 net.cpp:434] inception_5a/pool <- pool4/3x3_s2_pool4/3x3_s2_0_split_3
I0202 13:40:55.166918 99886 net.cpp:408] inception_5a/pool -> inception_5a/pool
I0202 13:40:55.166926 99886 net.cpp:150] Setting up inception_5a/pool
I0202 13:40:55.166931 99886 net.cpp:157] Top shape: 112 832 7 7 (4566016)
I0202 13:40:55.166935 99886 net.cpp:165] Memory required for data: 6088278792
I0202 13:40:55.166939 99886 layer_factory.hpp:77] Creating layer inception_5a/pool_proj
I0202 13:40:55.166949 99886 net.cpp:100] Creating Layer inception_5a/pool_proj
I0202 13:40:55.166954 99886 net.cpp:434] inception_5a/pool_proj <- inception_5a/pool
I0202 13:40:55.166962 99886 net.cpp:408] inception_5a/pool_proj -> inception_5a/pool_proj
I0202 13:40:55.167942 99886 net.cpp:150] Setting up inception_5a/pool_proj
I0202 13:40:55.167951 99886 net.cpp:157] Top shape: 112 128 7 7 (702464)
I0202 13:40:55.167954 99886 net.cpp:165] Memory required for data: 6091088648
I0202 13:40:55.167961 99886 layer_factory.hpp:77] Creating layer inception_5a/relu_pool_proj
I0202 13:40:55.167968 99886 net.cpp:100] Creating Layer inception_5a/relu_pool_proj
I0202 13:40:55.167973 99886 net.cpp:434] inception_5a/relu_pool_proj <- inception_5a/pool_proj
I0202 13:40:55.167979 99886 net.cpp:395] inception_5a/relu_pool_proj -> inception_5a/pool_proj (in-place)
I0202 13:40:55.167986 99886 net.cpp:150] Setting up inception_5a/relu_pool_proj
I0202 13:40:55.167991 99886 net.cpp:157] Top shape: 112 128 7 7 (702464)
I0202 13:40:55.167994 99886 net.cpp:165] Memory required for data: 6093898504
I0202 13:40:55.167999 99886 layer_factory.hpp:77] Creating layer inception_5a/output
I0202 13:40:55.168005 99886 net.cpp:100] Creating Layer inception_5a/output
I0202 13:40:55.168009 99886 net.cpp:434] inception_5a/output <- inception_5a/1x1
I0202 13:40:55.168015 99886 net.cpp:434] inception_5a/output <- inception_5a/3x3
I0202 13:40:55.168020 99886 net.cpp:434] inception_5a/output <- inception_5a/5x5
I0202 13:40:55.168025 99886 net.cpp:434] inception_5a/output <- inception_5a/pool_proj
I0202 13:40:55.168031 99886 net.cpp:408] inception_5a/output -> inception_5a/output
I0202 13:40:55.168040 99886 net.cpp:150] Setting up inception_5a/output
I0202 13:40:55.168045 99886 net.cpp:157] Top shape: 112 832 7 7 (4566016)
I0202 13:40:55.168050 99886 net.cpp:165] Memory required for data: 6112162568
I0202 13:40:55.168053 99886 layer_factory.hpp:77] Creating layer inception_5a/output_inception_5a/output_0_split
I0202 13:40:55.168059 99886 net.cpp:100] Creating Layer inception_5a/output_inception_5a/output_0_split
I0202 13:40:55.168064 99886 net.cpp:434] inception_5a/output_inception_5a/output_0_split <- inception_5a/output
I0202 13:40:55.168071 99886 net.cpp:408] inception_5a/output_inception_5a/output_0_split -> inception_5a/output_inception_5a/output_0_split_0
I0202 13:40:55.168079 99886 net.cpp:408] inception_5a/output_inception_5a/output_0_split -> inception_5a/output_inception_5a/output_0_split_1
I0202 13:40:55.168087 99886 net.cpp:408] inception_5a/output_inception_5a/output_0_split -> inception_5a/output_inception_5a/output_0_split_2
I0202 13:40:55.168093 99886 net.cpp:408] inception_5a/output_inception_5a/output_0_split -> inception_5a/output_inception_5a/output_0_split_3
I0202 13:40:55.168102 99886 net.cpp:150] Setting up inception_5a/output_inception_5a/output_0_split
I0202 13:40:55.168107 99886 net.cpp:157] Top shape: 112 832 7 7 (4566016)
I0202 13:40:55.168110 99886 net.cpp:157] Top shape: 112 832 7 7 (4566016)
I0202 13:40:55.168115 99886 net.cpp:157] Top shape: 112 832 7 7 (4566016)
I0202 13:40:55.168119 99886 net.cpp:157] Top shape: 112 832 7 7 (4566016)
I0202 13:40:55.168123 99886 net.cpp:165] Memory required for data: 6185218824
I0202 13:40:55.168128 99886 layer_factory.hpp:77] Creating layer inception_5b/1x1
I0202 13:40:55.168140 99886 net.cpp:100] Creating Layer inception_5b/1x1
I0202 13:40:55.168151 99886 net.cpp:434] inception_5b/1x1 <- inception_5a/output_inception_5a/output_0_split_0
I0202 13:40:55.168159 99886 net.cpp:408] inception_5b/1x1 -> inception_5b/1x1
I0202 13:40:55.171038 99886 net.cpp:150] Setting up inception_5b/1x1
I0202 13:40:55.171048 99886 net.cpp:157] Top shape: 112 384 7 7 (2107392)
I0202 13:40:55.171052 99886 net.cpp:165] Memory required for data: 6193648392
I0202 13:40:55.171059 99886 layer_factory.hpp:77] Creating layer inception_5b/relu_1x1
I0202 13:40:55.171067 99886 net.cpp:100] Creating Layer inception_5b/relu_1x1
I0202 13:40:55.171072 99886 net.cpp:434] inception_5b/relu_1x1 <- inception_5b/1x1
I0202 13:40:55.171077 99886 net.cpp:395] inception_5b/relu_1x1 -> inception_5b/1x1 (in-place)
I0202 13:40:55.171084 99886 net.cpp:150] Setting up inception_5b/relu_1x1
I0202 13:40:55.171089 99886 net.cpp:157] Top shape: 112 384 7 7 (2107392)
I0202 13:40:55.171092 99886 net.cpp:165] Memory required for data: 6202077960
I0202 13:40:55.171097 99886 layer_factory.hpp:77] Creating layer inception_5b/3x3_reduce
I0202 13:40:55.171105 99886 net.cpp:100] Creating Layer inception_5b/3x3_reduce
I0202 13:40:55.171109 99886 net.cpp:434] inception_5b/3x3_reduce <- inception_5a/output_inception_5a/output_0_split_1
I0202 13:40:55.171118 99886 net.cpp:408] inception_5b/3x3_reduce -> inception_5b/3x3_reduce
I0202 13:40:55.172569 99886 net.cpp:150] Setting up inception_5b/3x3_reduce
I0202 13:40:55.172580 99886 net.cpp:157] Top shape: 112 192 7 7 (1053696)
I0202 13:40:55.172583 99886 net.cpp:165] Memory required for data: 6206292744
I0202 13:40:55.172590 99886 layer_factory.hpp:77] Creating layer inception_5b/relu_3x3_reduce
I0202 13:40:55.172595 99886 net.cpp:100] Creating Layer inception_5b/relu_3x3_reduce
I0202 13:40:55.172600 99886 net.cpp:434] inception_5b/relu_3x3_reduce <- inception_5b/3x3_reduce
I0202 13:40:55.172606 99886 net.cpp:395] inception_5b/relu_3x3_reduce -> inception_5b/3x3_reduce (in-place)
I0202 13:40:55.172612 99886 net.cpp:150] Setting up inception_5b/relu_3x3_reduce
I0202 13:40:55.172617 99886 net.cpp:157] Top shape: 112 192 7 7 (1053696)
I0202 13:40:55.172621 99886 net.cpp:165] Memory required for data: 6210507528
I0202 13:40:55.172627 99886 layer_factory.hpp:77] Creating layer inception_5b/3x3
I0202 13:40:55.172636 99886 net.cpp:100] Creating Layer inception_5b/3x3
I0202 13:40:55.172641 99886 net.cpp:434] inception_5b/3x3 <- inception_5b/3x3_reduce
I0202 13:40:55.172648 99886 net.cpp:408] inception_5b/3x3 -> inception_5b/3x3
I0202 13:40:55.178483 99886 net.cpp:150] Setting up inception_5b/3x3
I0202 13:40:55.178494 99886 net.cpp:157] Top shape: 112 384 7 7 (2107392)
I0202 13:40:55.178498 99886 net.cpp:165] Memory required for data: 6218937096
I0202 13:40:55.178505 99886 layer_factory.hpp:77] Creating layer inception_5b/relu_3x3
I0202 13:40:55.178511 99886 net.cpp:100] Creating Layer inception_5b/relu_3x3
I0202 13:40:55.178516 99886 net.cpp:434] inception_5b/relu_3x3 <- inception_5b/3x3
I0202 13:40:55.178521 99886 net.cpp:395] inception_5b/relu_3x3 -> inception_5b/3x3 (in-place)
I0202 13:40:55.178529 99886 net.cpp:150] Setting up inception_5b/relu_3x3
I0202 13:40:55.178534 99886 net.cpp:157] Top shape: 112 384 7 7 (2107392)
I0202 13:40:55.178537 99886 net.cpp:165] Memory required for data: 6227366664
I0202 13:40:55.178541 99886 layer_factory.hpp:77] Creating layer inception_5b/5x5_reduce
I0202 13:40:55.178551 99886 net.cpp:100] Creating Layer inception_5b/5x5_reduce
I0202 13:40:55.178555 99886 net.cpp:434] inception_5b/5x5_reduce <- inception_5a/output_inception_5a/output_0_split_2
I0202 13:40:55.178562 99886 net.cpp:408] inception_5b/5x5_reduce -> inception_5b/5x5_reduce
I0202 13:40:55.178936 99886 net.cpp:150] Setting up inception_5b/5x5_reduce
I0202 13:40:55.178946 99886 net.cpp:157] Top shape: 112 48 7 7 (263424)
I0202 13:40:55.178948 99886 net.cpp:165] Memory required for data: 6228420360
I0202 13:40:55.178956 99886 layer_factory.hpp:77] Creating layer inception_5b/relu_5x5_reduce
I0202 13:40:55.178968 99886 net.cpp:100] Creating Layer inception_5b/relu_5x5_reduce
I0202 13:40:55.178985 99886 net.cpp:434] inception_5b/relu_5x5_reduce <- inception_5b/5x5_reduce
I0202 13:40:55.178990 99886 net.cpp:395] inception_5b/relu_5x5_reduce -> inception_5b/5x5_reduce (in-place)
I0202 13:40:55.178997 99886 net.cpp:150] Setting up inception_5b/relu_5x5_reduce
I0202 13:40:55.179003 99886 net.cpp:157] Top shape: 112 48 7 7 (263424)
I0202 13:40:55.179006 99886 net.cpp:165] Memory required for data: 6229474056
I0202 13:40:55.179010 99886 layer_factory.hpp:77] Creating layer inception_5b/5x5
I0202 13:40:55.179023 99886 net.cpp:100] Creating Layer inception_5b/5x5
I0202 13:40:55.179026 99886 net.cpp:434] inception_5b/5x5 <- inception_5b/5x5_reduce
I0202 13:40:55.179034 99886 net.cpp:408] inception_5b/5x5 -> inception_5b/5x5
I0202 13:40:55.180429 99886 net.cpp:150] Setting up inception_5b/5x5
I0202 13:40:55.180439 99886 net.cpp:157] Top shape: 112 128 7 7 (702464)
I0202 13:40:55.180443 99886 net.cpp:165] Memory required for data: 6232283912
I0202 13:40:55.180449 99886 layer_factory.hpp:77] Creating layer inception_5b/relu_5x5
I0202 13:40:55.180455 99886 net.cpp:100] Creating Layer inception_5b/relu_5x5
I0202 13:40:55.180459 99886 net.cpp:434] inception_5b/relu_5x5 <- inception_5b/5x5
I0202 13:40:55.180465 99886 net.cpp:395] inception_5b/relu_5x5 -> inception_5b/5x5 (in-place)
I0202 13:40:55.180471 99886 net.cpp:150] Setting up inception_5b/relu_5x5
I0202 13:40:55.180476 99886 net.cpp:157] Top shape: 112 128 7 7 (702464)
I0202 13:40:55.180480 99886 net.cpp:165] Memory required for data: 6235093768
I0202 13:40:55.180483 99886 layer_factory.hpp:77] Creating layer inception_5b/pool
I0202 13:40:55.180492 99886 net.cpp:100] Creating Layer inception_5b/pool
I0202 13:40:55.180496 99886 net.cpp:434] inception_5b/pool <- inception_5a/output_inception_5a/output_0_split_3
I0202 13:40:55.180502 99886 net.cpp:408] inception_5b/pool -> inception_5b/pool
I0202 13:40:55.180511 99886 net.cpp:150] Setting up inception_5b/pool
I0202 13:40:55.180517 99886 net.cpp:157] Top shape: 112 832 7 7 (4566016)
I0202 13:40:55.180522 99886 net.cpp:165] Memory required for data: 6253357832
I0202 13:40:55.180527 99886 layer_factory.hpp:77] Creating layer inception_5b/pool_proj
I0202 13:40:55.180536 99886 net.cpp:100] Creating Layer inception_5b/pool_proj
I0202 13:40:55.180539 99886 net.cpp:434] inception_5b/pool_proj <- inception_5b/pool
I0202 13:40:55.180548 99886 net.cpp:408] inception_5b/pool_proj -> inception_5b/pool_proj
I0202 13:40:55.181520 99886 net.cpp:150] Setting up inception_5b/pool_proj
I0202 13:40:55.181530 99886 net.cpp:157] Top shape: 112 128 7 7 (702464)
I0202 13:40:55.181534 99886 net.cpp:165] Memory required for data: 6256167688
I0202 13:40:55.181540 99886 layer_factory.hpp:77] Creating layer inception_5b/relu_pool_proj
I0202 13:40:55.181546 99886 net.cpp:100] Creating Layer inception_5b/relu_pool_proj
I0202 13:40:55.181550 99886 net.cpp:434] inception_5b/relu_pool_proj <- inception_5b/pool_proj
I0202 13:40:55.181562 99886 net.cpp:395] inception_5b/relu_pool_proj -> inception_5b/pool_proj (in-place)
I0202 13:40:55.181568 99886 net.cpp:150] Setting up inception_5b/relu_pool_proj
I0202 13:40:55.181573 99886 net.cpp:157] Top shape: 112 128 7 7 (702464)
I0202 13:40:55.181577 99886 net.cpp:165] Memory required for data: 6258977544
I0202 13:40:55.181581 99886 layer_factory.hpp:77] Creating layer inception_5b/output
I0202 13:40:55.181587 99886 net.cpp:100] Creating Layer inception_5b/output
I0202 13:40:55.181591 99886 net.cpp:434] inception_5b/output <- inception_5b/1x1
I0202 13:40:55.181596 99886 net.cpp:434] inception_5b/output <- inception_5b/3x3
I0202 13:40:55.181602 99886 net.cpp:434] inception_5b/output <- inception_5b/5x5
I0202 13:40:55.181605 99886 net.cpp:434] inception_5b/output <- inception_5b/pool_proj
I0202 13:40:55.181613 99886 net.cpp:408] inception_5b/output -> inception_5b/output
I0202 13:40:55.181622 99886 net.cpp:150] Setting up inception_5b/output
I0202 13:40:55.181632 99886 net.cpp:157] Top shape: 112 1024 7 7 (5619712)
I0202 13:40:55.181639 99886 net.cpp:165] Memory required for data: 6281456392
I0202 13:40:55.181650 99886 layer_factory.hpp:77] Creating layer pool5/7x7_s1
I0202 13:40:55.181656 99886 net.cpp:100] Creating Layer pool5/7x7_s1
I0202 13:40:55.181660 99886 net.cpp:434] pool5/7x7_s1 <- inception_5b/output
I0202 13:40:55.181669 99886 net.cpp:408] pool5/7x7_s1 -> pool5/7x7_s1
I0202 13:40:55.181677 99886 net.cpp:150] Setting up pool5/7x7_s1
I0202 13:40:55.181682 99886 net.cpp:157] Top shape: 112 1024 1 1 (114688)
I0202 13:40:55.181685 99886 net.cpp:165] Memory required for data: 6281915144
I0202 13:40:55.181689 99886 layer_factory.hpp:77] Creating layer pool5/drop_7x7_s1
I0202 13:40:55.181697 99886 net.cpp:100] Creating Layer pool5/drop_7x7_s1
I0202 13:40:55.181701 99886 net.cpp:434] pool5/drop_7x7_s1 <- pool5/7x7_s1
I0202 13:40:55.181706 99886 net.cpp:395] pool5/drop_7x7_s1 -> pool5/7x7_s1 (in-place)
I0202 13:40:55.181715 99886 net.cpp:150] Setting up pool5/drop_7x7_s1
I0202 13:40:55.181720 99886 net.cpp:157] Top shape: 112 1024 1 1 (114688)
I0202 13:40:55.181725 99886 net.cpp:165] Memory required for data: 6282373896
I0202 13:40:55.181727 99886 layer_factory.hpp:77] Creating layer loss3/classifier
I0202 13:40:55.181740 99886 net.cpp:100] Creating Layer loss3/classifier
I0202 13:40:55.181743 99886 net.cpp:434] loss3/classifier <- pool5/7x7_s1
I0202 13:40:55.181751 99886 net.cpp:408] loss3/classifier -> loss3/classifier
I0202 13:40:55.191118 99886 net.cpp:150] Setting up loss3/classifier
I0202 13:40:55.191129 99886 net.cpp:157] Top shape: 112 1000 (112000)
I0202 13:40:55.191133 99886 net.cpp:165] Memory required for data: 6282821896
I0202 13:40:55.191140 99886 layer_factory.hpp:77] Creating layer loss3/loss3
I0202 13:40:55.191155 99886 net.cpp:100] Creating Layer loss3/loss3
I0202 13:40:55.191159 99886 net.cpp:434] loss3/loss3 <- loss3/classifier
I0202 13:40:55.191165 99886 net.cpp:434] loss3/loss3 <- label_data_1_split_2
I0202 13:40:55.191171 99886 net.cpp:408] loss3/loss3 -> loss3/loss3
…
I0202 13:40:55.199499 99886 net.cpp:322] The NetState phase (1) differed from the phase (0) specified by a rule in layer data
I0202 13:40:55.202594 99886 net.cpp:58] Initializing net from parameters: 
name: "GoogleNet"
state {
  phase: TEST
}
layer {
  name: "data"
  type: "Data"
  top: "data"
  top: "label"
  include {
    phase: TEST
  }
  transform_param {
    mirror: false
    crop_size: 224
    mean_value: 104
    mean_value: 117
    mean_value: 123
  }
  data_param {
    source: "/home/user/LIBRARIES/caffeLibs/caffe/examples/imagenet/ilsvrc12_val_lmdb"
    batch_size: 50
    backend: LMDB
  }
}
layer {
  name: "conv1/7x7_s2"
  type: "Convolution"
  bottom: "data"
  top: "conv1/7x7_s2"
  param {
    lr_mult: 1
    decay_mult: 1
  }
  param {
    lr_mult: 2
    decay_mult: 0
  }
  convolution_param {
    num_output: 64
    pad: 3
    kernel_size: 7
    stride: 2
    weight_filler {
      type: "xavier"
    }
    bias_filler {
      type: "constant"
      value: 0.2
    }
  }
}
layer {
  name: "conv1/relu_7x7"
  type: "ReLU"
  bottom: "conv1/7x7_s2"
  top: "conv1/7x7_s2"
}
layer {
  name: "pool1/3x3_s2"
  type: "Pooling"
  bottom: "conv1/7x7_s2"
  top: "pool1/3x3_s2"
  pooling_param {
    pool: MAX
    kernel_size: 3
    stride: 2
  }
}
layer {
  name: "pool1/norm1"
  type: "LRN"
  bottom: "pool1/3x3_s2"
  top: "pool1/norm1"
  lrn_param {
    local_size: 5
    alpha: 0.0001
    beta: 0.75
  }
}
layer {
  name: "conv2/3x3_reduce"
  type: "Convolution"
  bottom: "pool1/norm1"
  top: "conv2/3x3_reduce"
  param {
    lr_mult: 1
    decay_mult: 1
  }
  param {
    lr_mult: 2
    decay_mult: 0
  }
  convolution_param {
    num_output: 64
    kernel_size: 1
    weight_filler {
      type: "xavier"
    }
    bias_filler {
      type: "constant"
      value: 0.2
    }
  }
}
layer {
  name: "conv2/relu_3x3_reduce"
  type: "ReLU"
  bottom: "conv2/3x3_reduce"
  top: "conv2/3x3_reduce"
}
layer {
  name: "conv2/3x3"
  type: "Convolution"
  bottom: "conv2/3x3_reduce"
  top: "conv2/3x3"
  param {
    lr_mult: 1
    decay_mult: 1
  }
  param {
    lr_mult: 2
    decay_mult: 0
  }
  convolution_param {
    num_output: 192
    pad: 1
    kernel_size: 3
    weight_filler {
      type: "xavier"
    }
    bias_filler {
      type: "constant"
      value: 0.2
    }
  }
}
layer {
  name: "conv2/relu_3x3"
  type: "ReLU"
  bottom: "conv2/3x3"
  top: "conv2/3x3"
}
layer {
  name: "conv2/norm2"
  type: "LRN"
  bottom: "conv2/3x3"
  top: "conv2/norm2"
  lrn_param {
    local_size: 5
    alpha: 0.0001
    beta: 0.75
  }
}
layer {
  name: "pool2/3x3_s2"
  type: "Pooling"
  bottom: "conv2/norm2"
  top: "pool2/3x3_s2"
  pooling_param {
    pool: MAX
    kernel_size: 3
    stride: 2
  }
}
layer {
  name: "inception_3a/1x1"
  type: "Convolution"
  bottom: "pool2/3x3_s2"
  top: "inception_3a/1x1"
  param {
    lr_mult: 1
    decay_mult: 1
  }
  param {
    lr_mult: 2
    decay_mult: 0
  }
  convolution_param {
    num_output: 64
    kernel_size: 1
    weight_filler {
      type: "xavier"
    }
    bias_filler {
      type: "constant"
      value: 0.2
    }
  }
}
layer {
  name: "inception_3a/relu_1x1"
  type: "ReLU"
  bottom: "inception_3a/1x1"
  top: "inception_3a/1x1"
}
layer {
  name: "inception_3a/3x3_reduce"
  type: "Convolution"
  bottom: "pool2/3x3_s2"
  top: "inception_3a/3x3_reduce"
  param {
    lr_mult: 1
    decay_mult: 1
  }
  param {
    lr_mult: 2
    decay_mult: 0
  }
  convolution_param {
    num_output: 96
    kernel_size: 1
    weight_filler {
      type: "xavier"
    }
    bias_filler {
      type: "constant"
      value: 0.2
    }
  }
}
layer {
  name: "inception_3a/relu_3x3_reduce"
  type: "ReLU"
  bottom: "inception_3a/3x3_reduce"
  top: "inception_3a/3x3_reduce"
}
layer {
  name: "inception_3a/3x3"
  type: "Convolution"
  bottom: "inception_3a/3x3_reduce"
  top: "inception_3a/3x3"
  param {
    lr_mult: 1
    decay_mult: 1
  }
  param {
    lr_mult: 2
    decay_mult: 0
  }
  convolution_param {
    num_output: 128
    pad: 1
    kernel_size: 3
    weight_filler {
      type: "xavier"
    }
    bias_filler {
      type: "constant"
      value: 0.2
    }
  }
}
layer {
  name: "inception_3a/relu_3x3"
  type: "ReLU"
  bottom: "inception_3a/3x3"
  top: "inception_3a/3x3"
}
layer {
  name: "inception_3a/5x5_reduce"
  type: "Convolution"
  bottom: "pool2/3x3_s2"
  top: "inception_3a/5x5_reduce"
  param {
    lr_mult: 1
    decay_mult: 1
  }
  param {
    lr_mult: 2
    decay_mult: 0
  }
  convolution_param {
    num_output: 16
    kernel_size: 1
    weight_filler {
      type: "xavier"
    }
    bias_filler {
      type: "constant"
      value: 0.2
    }
  }
}
layer {
  name: "inception_3a/relu_5x5_reduce"
  type: "ReLU"
  bottom: "inception_3a/5x5_reduce"
  top: "inception_3a/5x5_reduce"
}
layer {
  name: "inception_3a/5x5"
  type: "Convolution"
  bottom: "inception_3a/5x5_reduce"
  top: "inception_3a/5x5"
  param {
    lr_mult: 1
    decay_mult: 1
  }
  param {
    lr_mult: 2
    decay_mult: 0
  }
  convolution_param {
    num_output: 32
    pad: 2
    kernel_size: 5
    weight_filler {
      type: "xavier"
    }
    bias_filler {
      type: "constant"
      value: 0.2
    }
  }
}
layer {
  name: "inception_3a/relu_5x5"
  type: "ReLU"
  bottom: "inception_3a/5x5"
  top: "inception_3a/5x5"
}
layer {
  name: "inception_3a/pool"
  type: "Pooling"
  bottom: "pool2/3x3_s2"
  top: "inception_3a/pool"
  pooling_param {
    pool: MAX
    kernel_size: 3
    stride: 1
    pad: 1
  }
}
layer {
  name: "inception_3a/pool_proj"
  type: "Convolution"
  bottom: "inception_3a/pool"
  top: "inception_3a/pool_proj"
  param {
    lr_mult: 1
    decay_mult: 1
  }
  param {
    lr_mult: 2
    decay_mult: 0
  }
  convolution_param {
    num_output: 32
    kernel_size: 1
    weight_filler {
      type: "xavier"
    }
    bias_filler {
      type: "constant"
      value: 0.2
    }
  }
}
layer {
  name: "inception_3a/relu_pool_proj"
  type: "ReLU"
  bottom: "inception_3a/pool_proj"
  top: "inception_3a/pool_proj"
}
layer {
  name: "inception_3a/output"
  type: "Concat"
  bottom: "inception_3a/1x1"
  bottom: "inception_3a/3x3"
  bottom: "inception_3a/5x5"
  bottom: "inception_3a/pool_proj"
  top: "inception_3a/output"
}
layer {
  name: "inception_3b/1x1"
  type: "Convolution"
  bottom: "inception_3a/output"
  top: "inception_3b/1x1"
  param {
    lr_mult: 1
    decay_mult: 1
  }
  param {
    lr_mult: 2
    decay_mult: 0
  }
  convolution_param {
    num_output: 128
    kernel_size: 1
    weight_filler {
      type: "xavier"
    }
    bias_filler {
      type: "constant"
      value: 0.2
    }
  }
}
layer {
  name: "inception_3b/relu_1x1"
  type: "ReLU"
  bottom: "inception_3b/1x1"
  top: "inception_3b/1x1"
}
layer {
  name: "inception_3b/3x3_reduce"
  type: "Convolution"
  bottom: "inception_3a/output"
  top: "inception_3b/3x3_reduce"
  param {
    lr_mult: 1
    decay_mult: 1
  }
  param {
    lr_mult: 2
    decay_mult: 0
  }
  convolution_param {
    num_output: 128
    kernel_size: 1
    weight_filler {
      type: "xavier"
    }
    bias_filler {
      type: "constant"
      value: 0.2
    }
  }
}
layer {
  name: "inception_3b/relu_3x3_reduce"
  type: "ReLU"
  bottom: "inception_3b/3x3_reduce"
  top: "inception_3b/3x3_reduce"
}
layer {
  name: "inception_3b/3x3"
  type: "Convolution"
  bottom: "inception_3b/3x3_reduce"
  top: "inception_3b/3x3"
  param {
    lr_mult: 1
    decay_mult: 1
  }
  param {
    lr_mult: 2
    decay_mult: 0
  }
  convolution_param {
    num_output: 192
    pad: 1
    kernel_size: 3
    weight_filler {
      type: "xavier"
    }
    bias_filler {
      type: "constant"
      value: 0.2
    }
  }
}
layer {
  name: "inception_3b/relu_3x3"
  type: "ReLU"
  bottom: "inception_3b/3x3"
  top: "inception_3b/3x3"
}
layer {
  name: "inception_3b/5x5_reduce"
  type: "Convolution"
  bottom: "inception_3a/output"
  top: "inception_3b/5x5_reduce"
  param {
    lr_mult: 1
    decay_mult: 1
  }
  param {
    lr_mult: 2
    decay_mult: 0
  }
  convolution_param {
    num_output: 32
    kernel_size: 1
    weight_filler {
      type: "xavier"
    }
    bias_filler {
      type: "constant"
      value: 0.2
    }
  }
}
layer {
  name: "inception_3b/relu_5x5_reduce"
  type: "ReLU"
  bottom: "inception_3b/5x5_reduce"
  top: "inception_3b/5x5_reduce"
}
layer {
  name: "inception_3b/5x5"
  type: "Convolution"
  bottom: "inception_3b/5x5_reduce"
  top: "inception_3b/5x5"
  param {
    lr_mult: 1
    decay_mult: 1
  }
  param {
    lr_mult: 2
    decay_mult: 0
  }
  convolution_param {
    num_output: 96
    pad: 2
    kernel_size: 5
    weight_filler {
      type: "xavier"
    }
    bias_filler {
      type: "constant"
      value: 0.2
    }
  }
}
layer {
  name: "inception_3b/relu_5x5"
  type: "ReLU"
  bottom: "inception_3b/5x5"
  top: "inception_3b/5x5"
}
layer {
  name: "inception_3b/pool"
  type: "Pooling"
  bottom: "inception_3a/output"
  top: "inception_3b/pool"
  pooling_param {
    pool: MAX
    kernel_size: 3
    stride: 1
    pad: 1
  }
}
layer {
  name: "inception_3b/pool_proj"
  type: "Convolution"
  bottom: "inception_3b/pool"
  top: "inception_3b/pool_proj"
  param {
    lr_mult: 1
    decay_mult: 1
  }
  param {
    lr_mult: 2
    decay_mult: 0
  }
  convolution_param {
    num_output: 64
    kernel_size: 1
    weight_filler {
      type: "xavier"
    }
    bias_filler {
      type: "constant"
      value: 0.2
    }
  }
}
layer {
  name: "inception_3b/relu_pool_proj"
  type: "ReLU"
  bottom: "inception_3b/pool_proj"
  top: "inception_3b/pool_proj"
}
layer {
  name: "inception_3b/output"
  type: "Concat"
  bottom: "inception_3b/1x1"
  bottom: "inception_3b/3x3"
  bottom: "inception_3b/5x5"
  bottom: "inception_3b/pool_proj"
  top: "inception_3b/output"
}
layer {
  name: "pool3/3x3_s2"
  type: "Pooling"
  bottom: "inception_3b/output"
  top: "pool3/3x3_s2"
  pooling_param {
    pool: MAX
    kernel_size: 3
    stride: 2
  }
}
layer {
  name: "inception_4a/1x1"
  type: "Convolution"
  bottom: "pool3/3x3_s2"
  top: "inception_4a/1x1"
  param {
    lr_mult: 1
    decay_mult: 1
  }
  param {
    lr_mult: 2
    decay_mult: 0
  }
  convolution_param {
    num_output: 192
    kernel_size: 1
    weight_filler {
      type: "xavier"
    }
    bias_filler {
      type: "constant"
      value: 0.2
    }
  }
}
layer {
  name: "inception_4a/relu_1x1"
  type: "ReLU"
  bottom: "inception_4a/1x1"
  top: "inception_4a/1x1"
}
layer {
  name: "inception_4a/3x3_reduce"
  type: "Convolution"
  bottom: "pool3/3x3_s2"
  top: "inception_4a/3x3_reduce"
  param {
    lr_mult: 1
    decay_mult: 1
  }
  param {
    lr_mult: 2
    decay_mult: 0
  }
  convolution_param {
    num_output: 96
    kernel_size: 1
    weight_filler {
      type: "xavier"
    }
    bias_filler {
      type: "constant"
      value: 0.2
    }
  }
}
layer {
  name: "inception_4a/relu_3x3_reduce"
  type: "ReLU"
  bottom: "inception_4a/3x3_reduce"
  top: "inception_4a/3x3_reduce"
}
layer {
  name: "inception_4a/3x3"
  type: "Convolution"
  bottom: "inception_4a/3x3_reduce"
  top: "inception_4a/3x3"
  param {
    lr_mult: 1
    decay_mult: 1
  }
  param {
    lr_mult: 2
    decay_mult: 0
  }
  convolution_param {
    num_output: 208
    pad: 1
    kernel_size: 3
    weight_filler {
      type: "xavier"
    }
    bias_filler {
      type: "constant"
      value: 0.2
    }
  }
}
layer {
  name: "inception_4a/relu_3x3"
  type: "ReLU"
  bottom: "inception_4a/3x3"
  top: "inception_4a/3x3"
}
layer {
  name: "inception_4a/5x5_reduce"
  type: "Convolution"
  bottom: "pool3/3x3_s2"
  top: "inception_4a/5x5_reduce"
  param {
    lr_mult: 1
    decay_mult: 1
  }
  param {
    lr_mult: 2
    decay_mult: 0
  }
  convolution_param {
    num_output: 16
    kernel_size: 1
    weight_filler {
      type: "xavier"
    }
    bias_filler {
      type: "constant"
      value: 0.2
    }
  }
}
layer {
  name: "inception_4a/relu_5x5_reduce"
  type: "ReLU"
  bottom: "inception_4a/5x5_reduce"
  top: "inception_4a/5x5_reduce"
}
layer {
  name: "inception_4a/5x5"
  type: "Convolution"
  bottom: "inception_4a/5x5_reduce"
  top: "inception_4a/5x5"
  param {
    lr_mult: 1
    decay_mult: 1
  }
  param {
    lr_mult: 2
    decay_mult: 0
  }
  convolution_param {
    num_output: 48
    pad: 2
    kernel_size: 5
    weight_filler {
      type: "xavier"
    }
    bias_filler {
      type: "constant"
      value: 0.2
    }
  }
}
layer {
  name: "inception_4a/relu_5x5"
  type: "ReLU"
  bottom: "inception_4a/5x5"
  top: "inception_4a/5x5"
}
layer {
  name: "inception_4a/pool"
  type: "Pooling"
  bottom: "pool3/3x3_s2"
  top: "inception_4a/pool"
  pooling_param {
    pool: MAX
    kernel_size: 3
    stride: 1
    pad: 1
  }
}
layer {
  name: "inception_4a/pool_proj"
  type: "Convolution"
  bottom: "inception_4a/pool"
  top: "inception_4a/pool_proj"
  param {
    lr_mult: 1
    decay_mult: 1
  }
  param {
    lr_mult: 2
    decay_mult: 0
  }
  convolution_param {
    num_output: 64
    kernel_size: 1
    weight_filler {
      type: "xavier"
    }
    bias_filler {
      type: "constant"
      value: 0.2
    }
  }
}
layer {
  name: "inception_4a/relu_pool_proj"
  type: "ReLU"
  bottom: "inception_4a/pool_proj"
  top: "inception_4a/pool_proj"
}
layer {
  name: "inception_4a/output"
  type: "Concat"
  bottom: "inception_4a/1x1"
  bottom: "inception_4a/3x3"
  bottom: "inception_4a/5x5"
  bottom: "inception_4a/pool_proj"
  top: "inception_4a/output"
}
layer {
  name: "loss1/ave_pool"
  type: "Pooling"
  bottom: "inception_4a/output"
  top: "loss1/ave_pool"
  pooling_param {
    pool: AVE
    kernel_size: 5
    stride: 3
  }
}
layer {
  name: "loss1/conv"
  type: "Convolution"
  bottom: "loss1/ave_pool"
  top: "loss1/conv"
  param {
    lr_mult: 1
    decay_mult: 1
  }
  param {
    lr_mult: 2
    decay_mult: 0
  }
  convolution_param {
    num_output: 128
    kernel_size: 1
    weight_filler {
      type: "xavier"
    }
    bias_filler {
      type: "constant"
      value: 0.2
    }
  }
}
layer {
  name: "loss1/relu_conv"
  type: "ReLU"
  bottom: "loss1/conv"
  top: "loss1/conv"
}
layer {
  name: "loss1/fc"
  type: "InnerProduct"
  bottom: "loss1/conv"
  top: "loss1/fc"
  param {
    lr_mult: 1
    decay_mult: 1
  }
  param {
    lr_mult: 2
    decay_mult: 0
  }
  inner_product_param {
…
I0202 13:40:55.290812 99886 net.cpp:165] Memory required for data: 2190293212
I0202 13:40:55.290817 99886 layer_factory.hpp:77] Creating layer inception_4c/pool
I0202 13:40:55.290825 99886 net.cpp:100] Creating Layer inception_4c/pool
I0202 13:40:55.290829 99886 net.cpp:434] inception_4c/pool <- inception_4b/output_inception_4b/output_0_split_3
I0202 13:40:55.290835 99886 net.cpp:408] inception_4c/pool -> inception_4c/pool
I0202 13:40:55.290845 99886 net.cpp:150] Setting up inception_4c/pool
I0202 13:40:55.290850 99886 net.cpp:157] Top shape: 50 512 14 14 (5017600)
I0202 13:40:55.290853 99886 net.cpp:165] Memory required for data: 2210363612
I0202 13:40:55.290858 99886 layer_factory.hpp:77] Creating layer inception_4c/pool_proj
I0202 13:40:55.290868 99886 net.cpp:100] Creating Layer inception_4c/pool_proj
I0202 13:40:55.290871 99886 net.cpp:434] inception_4c/pool_proj <- inception_4c/pool
I0202 13:40:55.290881 99886 net.cpp:408] inception_4c/pool_proj -> inception_4c/pool_proj
I0202 13:40:55.291191 99886 net.cpp:150] Setting up inception_4c/pool_proj
I0202 13:40:55.291198 99886 net.cpp:157] Top shape: 50 64 14 14 (627200)
I0202 13:40:55.291203 99886 net.cpp:165] Memory required for data: 2212872412
I0202 13:40:55.291208 99886 layer_factory.hpp:77] Creating layer inception_4c/relu_pool_proj
I0202 13:40:55.291216 99886 net.cpp:100] Creating Layer inception_4c/relu_pool_proj
I0202 13:40:55.291221 99886 net.cpp:434] inception_4c/relu_pool_proj <- inception_4c/pool_proj
I0202 13:40:55.291226 99886 net.cpp:395] inception_4c/relu_pool_proj -> inception_4c/pool_proj (in-place)
I0202 13:40:55.291232 99886 net.cpp:150] Setting up inception_4c/relu_pool_proj
I0202 13:40:55.291237 99886 net.cpp:157] Top shape: 50 64 14 14 (627200)
I0202 13:40:55.291240 99886 net.cpp:165] Memory required for data: 2215381212
I0202 13:40:55.291244 99886 layer_factory.hpp:77] Creating layer inception_4c/output
I0202 13:40:55.291251 99886 net.cpp:100] Creating Layer inception_4c/output
I0202 13:40:55.291255 99886 net.cpp:434] inception_4c/output <- inception_4c/1x1
I0202 13:40:55.291275 99886 net.cpp:434] inception_4c/output <- inception_4c/3x3
I0202 13:40:55.291280 99886 net.cpp:434] inception_4c/output <- inception_4c/5x5
I0202 13:40:55.291285 99886 net.cpp:434] inception_4c/output <- inception_4c/pool_proj
I0202 13:40:55.291292 99886 net.cpp:408] inception_4c/output -> inception_4c/output
I0202 13:40:55.291301 99886 net.cpp:150] Setting up inception_4c/output
I0202 13:40:55.291306 99886 net.cpp:157] Top shape: 50 512 14 14 (5017600)
I0202 13:40:55.291311 99886 net.cpp:165] Memory required for data: 2235451612
I0202 13:40:55.291314 99886 layer_factory.hpp:77] Creating layer inception_4c/output_inception_4c/output_0_split
I0202 13:40:55.291321 99886 net.cpp:100] Creating Layer inception_4c/output_inception_4c/output_0_split
I0202 13:40:55.291326 99886 net.cpp:434] inception_4c/output_inception_4c/output_0_split <- inception_4c/output
I0202 13:40:55.291333 99886 net.cpp:408] inception_4c/output_inception_4c/output_0_split -> inception_4c/output_inception_4c/output_0_split_0
I0202 13:40:55.291340 99886 net.cpp:408] inception_4c/output_inception_4c/output_0_split -> inception_4c/output_inception_4c/output_0_split_1
I0202 13:40:55.291347 99886 net.cpp:408] inception_4c/output_inception_4c/output_0_split -> inception_4c/output_inception_4c/output_0_split_2
I0202 13:40:55.291353 99886 net.cpp:408] inception_4c/output_inception_4c/output_0_split -> inception_4c/output_inception_4c/output_0_split_3
I0202 13:40:55.291360 99886 net.cpp:150] Setting up inception_4c/output_inception_4c/output_0_split
I0202 13:40:55.291366 99886 net.cpp:157] Top shape: 50 512 14 14 (5017600)
I0202 13:40:55.291370 99886 net.cpp:157] Top shape: 50 512 14 14 (5017600)
I0202 13:40:55.291375 99886 net.cpp:157] Top shape: 50 512 14 14 (5017600)
I0202 13:40:55.291379 99886 net.cpp:157] Top shape: 50 512 14 14 (5017600)
I0202 13:40:55.291383 99886 net.cpp:165] Memory required for data: 2315733212
I0202 13:40:55.291386 99886 layer_factory.hpp:77] Creating layer inception_4d/1x1
I0202 13:40:55.291399 99886 net.cpp:100] Creating Layer inception_4d/1x1
I0202 13:40:55.291404 99886 net.cpp:434] inception_4d/1x1 <- inception_4c/output_inception_4c/output_0_split_0
I0202 13:40:55.291409 99886 net.cpp:408] inception_4d/1x1 -> inception_4d/1x1
I0202 13:40:55.291952 99886 net.cpp:150] Setting up inception_4d/1x1
I0202 13:40:55.291961 99886 net.cpp:157] Top shape: 50 112 14 14 (1097600)
I0202 13:40:55.291965 99886 net.cpp:165] Memory required for data: 2320123612
I0202 13:40:55.291972 99886 layer_factory.hpp:77] Creating layer inception_4d/relu_1x1
I0202 13:40:55.291981 99886 net.cpp:100] Creating Layer inception_4d/relu_1x1
I0202 13:40:55.291985 99886 net.cpp:434] inception_4d/relu_1x1 <- inception_4d/1x1
I0202 13:40:55.291991 99886 net.cpp:395] inception_4d/relu_1x1 -> inception_4d/1x1 (in-place)
I0202 13:40:55.291997 99886 net.cpp:150] Setting up inception_4d/relu_1x1
I0202 13:40:55.292002 99886 net.cpp:157] Top shape: 50 112 14 14 (1097600)
I0202 13:40:55.292006 99886 net.cpp:165] Memory required for data: 2324514012
I0202 13:40:55.292009 99886 layer_factory.hpp:77] Creating layer inception_4d/3x3_reduce
I0202 13:40:55.292019 99886 net.cpp:100] Creating Layer inception_4d/3x3_reduce
I0202 13:40:55.292023 99886 net.cpp:434] inception_4d/3x3_reduce <- inception_4c/output_inception_4c/output_0_split_1
I0202 13:40:55.292032 99886 net.cpp:408] inception_4d/3x3_reduce -> inception_4d/3x3_reduce
I0202 13:40:55.292721 99886 net.cpp:150] Setting up inception_4d/3x3_reduce
I0202 13:40:55.292731 99886 net.cpp:157] Top shape: 50 144 14 14 (1411200)
I0202 13:40:55.292734 99886 net.cpp:165] Memory required for data: 2330158812
I0202 13:40:55.292740 99886 layer_factory.hpp:77] Creating layer inception_4d/relu_3x3_reduce
I0202 13:40:55.292747 99886 net.cpp:100] Creating Layer inception_4d/relu_3x3_reduce
I0202 13:40:55.292752 99886 net.cpp:434] inception_4d/relu_3x3_reduce <- inception_4d/3x3_reduce
I0202 13:40:55.292759 99886 net.cpp:395] inception_4d/relu_3x3_reduce -> inception_4d/3x3_reduce (in-place)
I0202 13:40:55.292773 99886 net.cpp:150] Setting up inception_4d/relu_3x3_reduce
I0202 13:40:55.292784 99886 net.cpp:157] Top shape: 50 144 14 14 (1411200)
I0202 13:40:55.292788 99886 net.cpp:165] Memory required for data: 2335803612
I0202 13:40:55.292791 99886 layer_factory.hpp:77] Creating layer inception_4d/3x3
I0202 13:40:55.292799 99886 net.cpp:100] Creating Layer inception_4d/3x3
I0202 13:40:55.292804 99886 net.cpp:434] inception_4d/3x3 <- inception_4d/3x3_reduce
I0202 13:40:55.292816 99886 net.cpp:408] inception_4d/3x3 -> inception_4d/3x3
I0202 13:40:55.296536 99886 net.cpp:150] Setting up inception_4d/3x3
I0202 13:40:55.296546 99886 net.cpp:157] Top shape: 50 288 14 14 (2822400)
I0202 13:40:55.296550 99886 net.cpp:165] Memory required for data: 2347093212
I0202 13:40:55.296556 99886 layer_factory.hpp:77] Creating layer inception_4d/relu_3x3
I0202 13:40:55.296562 99886 net.cpp:100] Creating Layer inception_4d/relu_3x3
I0202 13:40:55.296567 99886 net.cpp:434] inception_4d/relu_3x3 <- inception_4d/3x3
I0202 13:40:55.296572 99886 net.cpp:395] inception_4d/relu_3x3 -> inception_4d/3x3 (in-place)
I0202 13:40:55.296578 99886 net.cpp:150] Setting up inception_4d/relu_3x3
I0202 13:40:55.296583 99886 net.cpp:157] Top shape: 50 288 14 14 (2822400)
I0202 13:40:55.296587 99886 net.cpp:165] Memory required for data: 2358382812
I0202 13:40:55.296591 99886 layer_factory.hpp:77] Creating layer inception_4d/5x5_reduce
I0202 13:40:55.296603 99886 net.cpp:100] Creating Layer inception_4d/5x5_reduce
I0202 13:40:55.296607 99886 net.cpp:434] inception_4d/5x5_reduce <- inception_4c/output_inception_4c/output_0_split_2
I0202 13:40:55.296614 99886 net.cpp:408] inception_4d/5x5_reduce -> inception_4d/5x5_reduce
I0202 13:40:55.296782 99886 net.cpp:150] Setting up inception_4d/5x5_reduce
I0202 13:40:55.296792 99886 net.cpp:157] Top shape: 50 32 14 14 (313600)
I0202 13:40:55.296794 99886 net.cpp:165] Memory required for data: 2359637212
I0202 13:40:55.296802 99886 layer_factory.hpp:77] Creating layer inception_4d/relu_5x5_reduce
I0202 13:40:55.296808 99886 net.cpp:100] Creating Layer inception_4d/relu_5x5_reduce
I0202 13:40:55.296813 99886 net.cpp:434] inception_4d/relu_5x5_reduce <- inception_4d/5x5_reduce
I0202 13:40:55.296820 99886 net.cpp:395] inception_4d/relu_5x5_reduce -> inception_4d/5x5_reduce (in-place)
I0202 13:40:55.296826 99886 net.cpp:150] Setting up inception_4d/relu_5x5_reduce
I0202 13:40:55.296831 99886 net.cpp:157] Top shape: 50 32 14 14 (313600)
I0202 13:40:55.296834 99886 net.cpp:165] Memory required for data: 2360891612
I0202 13:40:55.296838 99886 layer_factory.hpp:77] Creating layer inception_4d/5x5
I0202 13:40:55.296849 99886 net.cpp:100] Creating Layer inception_4d/5x5
I0202 13:40:55.296852 99886 net.cpp:434] inception_4d/5x5 <- inception_4d/5x5_reduce
I0202 13:40:55.296859 99886 net.cpp:408] inception_4d/5x5 -> inception_4d/5x5
I0202 13:40:55.297336 99886 net.cpp:150] Setting up inception_4d/5x5
I0202 13:40:55.297343 99886 net.cpp:157] Top shape: 50 64 14 14 (627200)
I0202 13:40:55.297348 99886 net.cpp:165] Memory required for data: 2363400412
I0202 13:40:55.297353 99886 layer_factory.hpp:77] Creating layer inception_4d/relu_5x5
I0202 13:40:55.297359 99886 net.cpp:100] Creating Layer inception_4d/relu_5x5
I0202 13:40:55.297363 99886 net.cpp:434] inception_4d/relu_5x5 <- inception_4d/5x5
I0202 13:40:55.297376 99886 net.cpp:395] inception_4d/relu_5x5 -> inception_4d/5x5 (in-place)
I0202 13:40:55.297382 99886 net.cpp:150] Setting up inception_4d/relu_5x5
I0202 13:40:55.297387 99886 net.cpp:157] Top shape: 50 64 14 14 (627200)
I0202 13:40:55.297390 99886 net.cpp:165] Memory required for data: 2365909212
I0202 13:40:55.297394 99886 layer_factory.hpp:77] Creating layer inception_4d/pool
I0202 13:40:55.297402 99886 net.cpp:100] Creating Layer inception_4d/pool
I0202 13:40:55.297407 99886 net.cpp:434] inception_4d/pool <- inception_4c/output_inception_4c/output_0_split_3
I0202 13:40:55.297413 99886 net.cpp:408] inception_4d/pool -> inception_4d/pool
I0202 13:40:55.297422 99886 net.cpp:150] Setting up inception_4d/pool
I0202 13:40:55.297431 99886 net.cpp:157] Top shape: 50 512 14 14 (5017600)
I0202 13:40:55.297443 99886 net.cpp:165] Memory required for data: 2385979612
I0202 13:40:55.297447 99886 layer_factory.hpp:77] Creating layer inception_4d/pool_proj
I0202 13:40:55.297458 99886 net.cpp:100] Creating Layer inception_4d/pool_proj
I0202 13:40:55.297463 99886 net.cpp:434] inception_4d/pool_proj <- inception_4d/pool
I0202 13:40:55.297472 99886 net.cpp:408] inception_4d/pool_proj -> inception_4d/pool_proj
I0202 13:40:55.297780 99886 net.cpp:150] Setting up inception_4d/pool_proj
I0202 13:40:55.297790 99886 net.cpp:157] Top shape: 50 64 14 14 (627200)
I0202 13:40:55.297793 99886 net.cpp:165] Memory required for data: 2388488412
I0202 13:40:55.297801 99886 layer_factory.hpp:77] Creating layer inception_4d/relu_pool_proj
I0202 13:40:55.297806 99886 net.cpp:100] Creating Layer inception_4d/relu_pool_proj
I0202 13:40:55.297811 99886 net.cpp:434] inception_4d/relu_pool_proj <- inception_4d/pool_proj
I0202 13:40:55.297818 99886 net.cpp:395] inception_4d/relu_pool_proj -> inception_4d/pool_proj (in-place)
I0202 13:40:55.297826 99886 net.cpp:150] Setting up inception_4d/relu_pool_proj
I0202 13:40:55.297830 99886 net.cpp:157] Top shape: 50 64 14 14 (627200)
I0202 13:40:55.297833 99886 net.cpp:165] Memory required for data: 2390997212
I0202 13:40:55.297837 99886 layer_factory.hpp:77] Creating layer inception_4d/output
I0202 13:40:55.297844 99886 net.cpp:100] Creating Layer inception_4d/output
I0202 13:40:55.297848 99886 net.cpp:434] inception_4d/output <- inception_4d/1x1
I0202 13:40:55.297853 99886 net.cpp:434] inception_4d/output <- inception_4d/3x3
I0202 13:40:55.297858 99886 net.cpp:434] inception_4d/output <- inception_4d/5x5
I0202 13:40:55.297863 99886 net.cpp:434] inception_4d/output <- inception_4d/pool_proj
I0202 13:40:55.297870 99886 net.cpp:408] inception_4d/output -> inception_4d/output
I0202 13:40:55.297880 99886 net.cpp:150] Setting up inception_4d/output
I0202 13:40:55.297885 99886 net.cpp:157] Top shape: 50 528 14 14 (5174400)
I0202 13:40:55.297889 99886 net.cpp:165] Memory required for data: 2411694812
I0202 13:40:55.297893 99886 layer_factory.hpp:77] Creating layer inception_4d/output_inception_4d/output_0_split
I0202 13:40:55.297900 99886 net.cpp:100] Creating Layer inception_4d/output_inception_4d/output_0_split
I0202 13:40:55.297904 99886 net.cpp:434] inception_4d/output_inception_4d/output_0_split <- inception_4d/output
I0202 13:40:55.297910 99886 net.cpp:408] inception_4d/output_inception_4d/output_0_split -> inception_4d/output_inception_4d/output_0_split_0
I0202 13:40:55.297919 99886 net.cpp:408] inception_4d/output_inception_4d/output_0_split -> inception_4d/output_inception_4d/output_0_split_1
I0202 13:40:55.297926 99886 net.cpp:408] inception_4d/output_inception_4d/output_0_split -> inception_4d/output_inception_4d/output_0_split_2
I0202 13:40:55.297933 99886 net.cpp:408] inception_4d/output_inception_4d/output_0_split -> inception_4d/output_inception_4d/output_0_split_3
I0202 13:40:55.297940 99886 net.cpp:408] inception_4d/output_inception_4d/output_0_split -> inception_4d/output_inception_4d/output_0_split_4
I0202 13:40:55.297948 99886 net.cpp:150] Setting up inception_4d/output_inception_4d/output_0_split
I0202 13:40:55.297956 99886 net.cpp:157] Top shape: 50 528 14 14 (5174400)
I0202 13:40:55.297961 99886 net.cpp:157] Top shape: 50 528 14 14 (5174400)
I0202 13:40:55.297966 99886 net.cpp:157] Top shape: 50 528 14 14 (5174400)
I0202 13:40:55.297971 99886 net.cpp:157] Top shape: 50 528 14 14 (5174400)
I0202 13:40:55.297976 99886 net.cpp:157] Top shape: 50 528 14 14 (5174400)
I0202 13:40:55.297978 99886 net.cpp:165] Memory required for data: 2515182812
I0202 13:40:55.297982 99886 layer_factory.hpp:77] Creating layer loss2/ave_pool
I0202 13:40:55.297988 99886 net.cpp:100] Creating Layer loss2/ave_pool
I0202 13:40:55.297992 99886 net.cpp:434] loss2/ave_pool <- inception_4d/output_inception_4d/output_0_split_0
I0202 13:40:55.297999 99886 net.cpp:408] loss2/ave_pool -> loss2/ave_pool
I0202 13:40:55.298008 99886 net.cpp:150] Setting up loss2/ave_pool
I0202 13:40:55.298023 99886 net.cpp:157] Top shape: 50 528 4 4 (422400)
I0202 13:40:55.298027 99886 net.cpp:165] Memory required for data: 2516872412
I0202 13:40:55.298032 99886 layer_factory.hpp:77] Creating layer loss2/conv
I0202 13:40:55.298050 99886 net.cpp:100] Creating Layer loss2/conv
I0202 13:40:55.298055 99886 net.cpp:434] loss2/conv <- loss2/ave_pool
I0202 13:40:55.298061 99886 net.cpp:408] loss2/conv -> loss2/conv
I0202 13:40:55.298696 99886 net.cpp:150] Setting up loss2/conv
I0202 13:40:55.298707 99886 net.cpp:157] Top shape: 50 128 4 4 (102400)
I0202 13:40:55.298709 99886 net.cpp:165] Memory required for data: 2517282012
I0202 13:40:55.298717 99886 layer_factory.hpp:77] Creating layer loss2/relu_conv
I0202 13:40:55.298722 99886 net.cpp:100] Creating Layer loss2/relu_conv
I0202 13:40:55.298727 99886 net.cpp:434] loss2/relu_conv <- loss2/conv
I0202 13:40:55.298734 99886 net.cpp:395] loss2/relu_conv -> loss2/conv (in-place)
I0202 13:40:55.298741 99886 net.cpp:150] Setting up loss2/relu_conv
I0202 13:40:55.298746 99886 net.cpp:157] Top shape: 50 128 4 4 (102400)
I0202 13:40:55.298750 99886 net.cpp:165] Memory required for data: 2517691612
I0202 13:40:55.298754 99886 layer_factory.hpp:77] Creating layer loss2/fc
I0202 13:40:55.298764 99886 net.cpp:100] Creating Layer loss2/fc
I0202 13:40:55.298768 99886 net.cpp:434] loss2/fc <- loss2/conv
I0202 13:40:55.298777 99886 net.cpp:408] loss2/fc -> loss2/fc
I0202 13:40:55.316459 99886 net.cpp:150] Setting up loss2/fc
I0202 13:40:55.316489 99886 net.cpp:157] Top shape: 50 1024 (51200)
I0202 13:40:55.316494 99886 net.cpp:165] Memory required for data: 2517896412
I0202 13:40:55.316505 99886 layer_factory.hpp:77] Creating layer loss2/relu_fc
I0202 13:40:55.316519 99886 net.cpp:100] Creating Layer loss2/relu_fc
I0202 13:40:55.316525 99886 net.cpp:434] loss2/relu_fc <- loss2/fc
I0202 13:40:55.316534 99886 net.cpp:395] loss2/relu_fc -> loss2/fc (in-place)
I0202 13:40:55.316545 99886 net.cpp:150] Setting up loss2/relu_fc
I0202 13:40:55.316550 99886 net.cpp:157] Top shape: 50 1024 (51200)
I0202 13:40:55.316553 99886 net.cpp:165] Memory required for data: 2518101212
I0202 13:40:55.316557 99886 layer_factory.hpp:77] Creating layer loss2/drop_fc
I0202 13:40:55.316566 99886 net.cpp:100] Creating Layer loss2/drop_fc
I0202 13:40:55.316571 99886 net.cpp:434] loss2/drop_fc <- loss2/fc
I0202 13:40:55.316578 99886 net.cpp:395] loss2/drop_fc -> loss2/fc (in-place)
I0202 13:40:55.316587 99886 net.cpp:150] Setting up loss2/drop_fc
I0202 13:40:55.316592 99886 net.cpp:157] Top shape: 50 1024 (51200)
I0202 13:40:55.316596 99886 net.cpp:165] Memory required for data: 2518306012
I0202 13:40:55.316601 99886 layer_factory.hpp:77] Creating layer loss2/classifier
I0202 13:40:55.316611 99886 net.cpp:100] Creating Layer loss2/classifier
I0202 13:40:55.316614 99886 net.cpp:434] loss2/classifier <- loss2/fc
I0202 13:40:55.316627 99886 net.cpp:408] loss2/classifier -> loss2/classifier
I0202 13:40:55.325969 99886 net.cpp:150] Setting up loss2/classifier
I0202 13:40:55.325980 99886 net.cpp:157] Top shape: 50 1000 (50000)
I0202 13:40:55.325984 99886 net.cpp:165] Memory required for data: 2518506012
I0202 13:40:55.325992 99886 layer_factory.hpp:77] Creating layer loss2/classifier_loss2/classifier_0_split
I0202 13:40:55.326001 99886 net.cpp:100] Creating Layer loss2/classifier_loss2/classifier_0_split
I0202 13:40:55.326006 99886 net.cpp:434] loss2/classifier_loss2/classifier_0_split <- loss2/classifier
I0202 13:40:55.326016 99886 net.cpp:408] loss2/classifier_loss2/classifier_0_split -> loss2/classifier_loss2/classifier_0_split_0
I0202 13:40:55.326025 99886 net.cpp:408] loss2/classifier_loss2/classifier_0_split -> loss2/classifier_loss2/classifier_0_split_1
I0202 13:40:55.326033 99886 net.cpp:408] loss2/classifier_loss2/classifier_0_split -> loss2/classifier_loss2/classifier_0_split_2
I0202 13:40:55.326042 99886 net.cpp:150] Setting up loss2/classifier_loss2/classifier_0_split
I0202 13:40:55.326047 99886 net.cpp:157] Top shape: 50 1000 (50000)
I0202 13:40:55.326052 99886 net.cpp:157] Top shape: 50 1000 (50000)
I0202 13:40:55.326083 99886 net.cpp:157] Top shape: 50 1000 (50000)
I0202 13:40:55.326087 99886 net.cpp:165] Memory required for data: 2519106012
I0202 13:40:55.326091 99886 layer_factory.hpp:77] Creating layer loss2/loss
I0202 13:40:55.326098 99886 net.cpp:100] Creating Layer loss2/loss
I0202 13:40:55.326103 99886 net.cpp:434] loss2/loss <- loss2/classifier_loss2/classifier_0_split_0
I0202 13:40:55.326112 99886 net.cpp:434] loss2/loss <- label_data_1_split_3
…
I0202 13:40:55.326382 99886 net.cpp:150] Setting up loss2/top-5
I0202 13:40:55.326386 99886 net.cpp:157] Top shape: (1)
I0202 13:40:55.326390 99886 net.cpp:165] Memory required for data: 2519106024
I0202 13:40:55.326393 99886 layer_factory.hpp:77] Creating layer inception_4e/1x1
I0202 13:40:55.326406 99886 net.cpp:100] Creating Layer inception_4e/1x1
I0202 13:40:55.326412 99886 net.cpp:434] inception_4e/1x1 <- inception_4d/output_inception_4d/output_0_split_1
I0202 13:40:55.326421 99886 net.cpp:408] inception_4e/1x1 -> inception_4e/1x1
I0202 13:40:55.327669 99886 net.cpp:150] Setting up inception_4e/1x1
I0202 13:40:55.327680 99886 net.cpp:157] Top shape: 50 256 14 14 (2508800)
I0202 13:40:55.327683 99886 net.cpp:165] Memory required for data: 2529141224
I0202 13:40:55.327690 99886 layer_factory.hpp:77] Creating layer inception_4e/relu_1x1
I0202 13:40:55.327699 99886 net.cpp:100] Creating Layer inception_4e/relu_1x1
I0202 13:40:55.327703 99886 net.cpp:434] inception_4e/relu_1x1 <- inception_4e/1x1
I0202 13:40:55.327709 99886 net.cpp:395] inception_4e/relu_1x1 -> inception_4e/1x1 (in-place)
I0202 13:40:55.327716 99886 net.cpp:150] Setting up inception_4e/relu_1x1
I0202 13:40:55.327721 99886 net.cpp:157] Top shape: 50 256 14 14 (2508800)
I0202 13:40:55.327724 99886 net.cpp:165] Memory required for data: 2539176424
I0202 13:40:55.327728 99886 layer_factory.hpp:77] Creating layer inception_4e/3x3_reduce
I0202 13:40:55.327767 99886 net.cpp:100] Creating Layer inception_4e/3x3_reduce
I0202 13:40:55.327771 99886 net.cpp:434] inception_4e/3x3_reduce <- inception_4d/output_inception_4d/output_0_split_2
I0202 13:40:55.327780 99886 net.cpp:408] inception_4e/3x3_reduce -> inception_4e/3x3_reduce
I0202 13:40:55.328559 99886 net.cpp:150] Setting up inception_4e/3x3_reduce
I0202 13:40:55.328567 99886 net.cpp:157] Top shape: 50 160 14 14 (1568000)
I0202 13:40:55.328572 99886 net.cpp:165] Memory required for data: 2545448424
I0202 13:40:55.328578 99886 layer_factory.hpp:77] Creating layer inception_4e/relu_3x3_reduce
I0202 13:40:55.328586 99886 net.cpp:100] Creating Layer inception_4e/relu_3x3_reduce
I0202 13:40:55.328590 99886 net.cpp:434] inception_4e/relu_3x3_reduce <- inception_4e/3x3_reduce
I0202 13:40:55.328600 99886 net.cpp:395] inception_4e/relu_3x3_reduce -> inception_4e/3x3_reduce (in-place)
I0202 13:40:55.328615 99886 net.cpp:150] Setting up inception_4e/relu_3x3_reduce
I0202 13:40:55.328621 99886 net.cpp:157] Top shape: 50 160 14 14 (1568000)
I0202 13:40:55.328627 99886 net.cpp:165] Memory required for data: 2551720424
I0202 13:40:55.328634 99886 layer_factory.hpp:77] Creating layer inception_4e/3x3
I0202 13:40:55.328644 99886 net.cpp:100] Creating Layer inception_4e/3x3
I0202 13:40:55.328647 99886 net.cpp:434] inception_4e/3x3 <- inception_4e/3x3_reduce
I0202 13:40:55.328655 99886 net.cpp:408] inception_4e/3x3 -> inception_4e/3x3
I0202 13:40:55.333242 99886 net.cpp:150] Setting up inception_4e/3x3
I0202 13:40:55.333252 99886 net.cpp:157] Top shape: 50 320 14 14 (3136000)
I0202 13:40:55.333256 99886 net.cpp:165] Memory required for data: 2564264424
I0202 13:40:55.333263 99886 layer_factory.hpp:77] Creating layer inception_4e/relu_3x3
I0202 13:40:55.333269 99886 net.cpp:100] Creating Layer inception_4e/relu_3x3
I0202 13:40:55.333273 99886 net.cpp:434] inception_4e/relu_3x3 <- inception_4e/3x3
I0202 13:40:55.333281 99886 net.cpp:395] inception_4e/relu_3x3 -> inception_4e/3x3 (in-place)
I0202 13:40:55.333287 99886 net.cpp:150] Setting up inception_4e/relu_3x3
I0202 13:40:55.333292 99886 net.cpp:157] Top shape: 50 320 14 14 (3136000)
I0202 13:40:55.333297 99886 net.cpp:165] Memory required for data: 2576808424
I0202 13:40:55.333299 99886 layer_factory.hpp:77] Creating layer inception_4e/5x5_reduce
I0202 13:40:55.333307 99886 net.cpp:100] Creating Layer inception_4e/5x5_reduce
I0202 13:40:55.333312 99886 net.cpp:434] inception_4e/5x5_reduce <- inception_4d/output_inception_4d/output_0_split_3
I0202 13:40:55.333320 99886 net.cpp:408] inception_4e/5x5_reduce -> inception_4e/5x5_reduce
I0202 13:40:55.333480 99886 net.cpp:150] Setting up inception_4e/5x5_reduce
I0202 13:40:55.333487 99886 net.cpp:157] Top shape: 50 32 14 14 (313600)
I0202 13:40:55.333490 99886 net.cpp:165] Memory required for data: 2578062824
I0202 13:40:55.333497 99886 layer_factory.hpp:77] Creating layer inception_4e/relu_5x5_reduce
I0202 13:40:55.333503 99886 net.cpp:100] Creating Layer inception_4e/relu_5x5_reduce
I0202 13:40:55.333506 99886 net.cpp:434] inception_4e/relu_5x5_reduce <- inception_4e/5x5_reduce
I0202 13:40:55.333511 99886 net.cpp:395] inception_4e/relu_5x5_reduce -> inception_4e/5x5_reduce (in-place)
I0202 13:40:55.333518 99886 net.cpp:150] Setting up inception_4e/relu_5x5_reduce
I0202 13:40:55.333523 99886 net.cpp:157] Top shape: 50 32 14 14 (313600)
I0202 13:40:55.333525 99886 net.cpp:165] Memory required for data: 2579317224
I0202 13:40:55.333529 99886 layer_factory.hpp:77] Creating layer inception_4e/5x5
I0202 13:40:55.333539 99886 net.cpp:100] Creating Layer inception_4e/5x5
I0202 13:40:55.333544 99886 net.cpp:434] inception_4e/5x5 <- inception_4e/5x5_reduce
I0202 13:40:55.333551 99886 net.cpp:408] inception_4e/5x5 -> inception_4e/5x5
I0202 13:40:55.334496 99886 net.cpp:150] Setting up inception_4e/5x5
I0202 13:40:55.334506 99886 net.cpp:157] Top shape: 50 128 14 14 (1254400)
I0202 13:40:55.334511 99886 net.cpp:165] Memory required for data: 2584334824
I0202 13:40:55.334517 99886 layer_factory.hpp:77] Creating layer inception_4e/relu_5x5
I0202 13:40:55.334522 99886 net.cpp:100] Creating Layer inception_4e/relu_5x5
I0202 13:40:55.334527 99886 net.cpp:434] inception_4e/relu_5x5 <- inception_4e/5x5
I0202 13:40:55.334534 99886 net.cpp:395] inception_4e/relu_5x5 -> inception_4e/5x5 (in-place)
I0202 13:40:55.334540 99886 net.cpp:150] Setting up inception_4e/relu_5x5
I0202 13:40:55.334545 99886 net.cpp:157] Top shape: 50 128 14 14 (1254400)
I0202 13:40:55.334549 99886 net.cpp:165] Memory required for data: 2589352424
I0202 13:40:55.334553 99886 layer_factory.hpp:77] Creating layer inception_4e/pool
I0202 13:40:55.334563 99886 net.cpp:100] Creating Layer inception_4e/pool
I0202 13:40:55.334568 99886 net.cpp:434] inception_4e/pool <- inception_4d/output_inception_4d/output_0_split_4
I0202 13:40:55.334573 99886 net.cpp:408] inception_4e/pool -> inception_4e/pool
I0202 13:40:55.334595 99886 net.cpp:150] Setting up inception_4e/pool
I0202 13:40:55.334601 99886 net.cpp:157] Top shape: 50 528 14 14 (5174400)
I0202 13:40:55.334605 99886 net.cpp:165] Memory required for data: 2610050024
I0202 13:40:55.334609 99886 layer_factory.hpp:77] Creating layer inception_4e/pool_proj
I0202 13:40:55.334619 99886 net.cpp:100] Creating Layer inception_4e/pool_proj
I0202 13:40:55.334626 99886 net.cpp:434] inception_4e/pool_proj <- inception_4e/pool
I0202 13:40:55.334636 99886 net.cpp:408] inception_4e/pool_proj -> inception_4e/pool_proj
I0202 13:40:55.335263 99886 net.cpp:150] Setting up inception_4e/pool_proj
I0202 13:40:55.335270 99886 net.cpp:157] Top shape: 50 128 14 14 (1254400)
I0202 13:40:55.335273 99886 net.cpp:165] Memory required for data: 2615067624
I0202 13:40:55.335280 99886 layer_factory.hpp:77] Creating layer inception_4e/relu_pool_proj
I0202 13:40:55.335286 99886 net.cpp:100] Creating Layer inception_4e/relu_pool_proj
I0202 13:40:55.335290 99886 net.cpp:434] inception_4e/relu_pool_proj <- inception_4e/pool_proj
I0202 13:40:55.335299 99886 net.cpp:395] inception_4e/relu_pool_proj -> inception_4e/pool_proj (in-place)
I0202 13:40:55.335304 99886 net.cpp:150] Setting up inception_4e/relu_pool_proj
I0202 13:40:55.335309 99886 net.cpp:157] Top shape: 50 128 14 14 (1254400)
I0202 13:40:55.335312 99886 net.cpp:165] Memory required for data: 2620085224
I0202 13:40:55.335316 99886 layer_factory.hpp:77] Creating layer inception_4e/output
I0202 13:40:55.335324 99886 net.cpp:100] Creating Layer inception_4e/output
I0202 13:40:55.335327 99886 net.cpp:434] inception_4e/output <- inception_4e/1x1
I0202 13:40:55.335332 99886 net.cpp:434] inception_4e/output <- inception_4e/3x3
I0202 13:40:55.335337 99886 net.cpp:434] inception_4e/output <- inception_4e/5x5
I0202 13:40:55.335342 99886 net.cpp:434] inception_4e/output <- inception_4e/pool_proj
I0202 13:40:55.335350 99886 net.cpp:408] inception_4e/output -> inception_4e/output
I0202 13:40:55.335361 99886 net.cpp:150] Setting up inception_4e/output
I0202 13:40:55.335366 99886 net.cpp:157] Top shape: 50 832 14 14 (8153600)
I0202 13:40:55.335369 99886 net.cpp:165] Memory required for data: 2652699624
I0202 13:40:55.335373 99886 layer_factory.hpp:77] Creating layer pool4/3x3_s2
I0202 13:40:55.335379 99886 net.cpp:100] Creating Layer pool4/3x3_s2
I0202 13:40:55.335383 99886 net.cpp:434] pool4/3x3_s2 <- inception_4e/output
I0202 13:40:55.335391 99886 net.cpp:408] pool4/3x3_s2 -> pool4/3x3_s2
I0202 13:40:55.335398 99886 net.cpp:150] Setting up pool4/3x3_s2
I0202 13:40:55.335404 99886 net.cpp:157] Top shape: 50 832 7 7 (2038400)
I0202 13:40:55.335407 99886 net.cpp:165] Memory required for data: 2660853224
I0202 13:40:55.335412 99886 layer_factory.hpp:77] Creating layer pool4/3x3_s2_pool4/3x3_s2_0_split
I0202 13:40:55.335419 99886 net.cpp:100] Creating Layer pool4/3x3_s2_pool4/3x3_s2_0_split
I0202 13:40:55.335424 99886 net.cpp:434] pool4/3x3_s2_pool4/3x3_s2_0_split <- pool4/3x3_s2
I0202 13:40:55.335430 99886 net.cpp:408] pool4/3x3_s2_pool4/3x3_s2_0_split -> pool4/3x3_s2_pool4/3x3_s2_0_split_0
I0202 13:40:55.335438 99886 net.cpp:408] pool4/3x3_s2_pool4/3x3_s2_0_split -> pool4/3x3_s2_pool4/3x3_s2_0_split_1
I0202 13:40:55.335444 99886 net.cpp:408] pool4/3x3_s2_pool4/3x3_s2_0_split -> pool4/3x3_s2_pool4/3x3_s2_0_split_2
I0202 13:40:55.335474 99886 net.cpp:408] pool4/3x3_s2_pool4/3x3_s2_0_split -> pool4/3x3_s2_pool4/3x3_s2_0_split_3
I0202 13:40:55.335482 99886 net.cpp:150] Setting up pool4/3x3_s2_pool4/3x3_s2_0_split
I0202 13:40:55.335487 99886 net.cpp:157] Top shape: 50 832 7 7 (2038400)
I0202 13:40:55.335492 99886 net.cpp:157] Top shape: 50 832 7 7 (2038400)
I0202 13:40:55.335499 99886 net.cpp:157] Top shape: 50 832 7 7 (2038400)
I0202 13:40:55.335503 99886 net.cpp:157] Top shape: 50 832 7 7 (2038400)
I0202 13:40:55.335506 99886 net.cpp:165] Memory required for data: 2693467624
I0202 13:40:55.335510 99886 layer_factory.hpp:77] Creating layer inception_5a/1x1
I0202 13:40:55.335521 99886 net.cpp:100] Creating Layer inception_5a/1x1
I0202 13:40:55.335530 99886 net.cpp:434] inception_5a/1x1 <- pool4/3x3_s2_pool4/3x3_s2_0_split_0
I0202 13:40:55.335546 99886 net.cpp:408] inception_5a/1x1 -> inception_5a/1x1
I0202 13:40:55.337483 99886 net.cpp:150] Setting up inception_5a/1x1
I0202 13:40:55.337493 99886 net.cpp:157] Top shape: 50 256 7 7 (627200)
I0202 13:40:55.337496 99886 net.cpp:165] Memory required for data: 2695976424
I0202 13:40:55.337504 99886 layer_factory.hpp:77] Creating layer inception_5a/relu_1x1
I0202 13:40:55.337510 99886 net.cpp:100] Creating Layer inception_5a/relu_1x1
I0202 13:40:55.337514 99886 net.cpp:434] inception_5a/relu_1x1 <- inception_5a/1x1
I0202 13:40:55.337522 99886 net.cpp:395] inception_5a/relu_1x1 -> inception_5a/1x1 (in-place)
I0202 13:40:55.337528 99886 net.cpp:150] Setting up inception_5a/relu_1x1
I0202 13:40:55.337533 99886 net.cpp:157] Top shape: 50 256 7 7 (627200)
I0202 13:40:55.337538 99886 net.cpp:165] Memory required for data: 2698485224
I0202 13:40:55.337541 99886 layer_factory.hpp:77] Creating layer inception_5a/3x3_reduce
I0202 13:40:55.337549 99886 net.cpp:100] Creating Layer inception_5a/3x3_reduce
I0202 13:40:55.337554 99886 net.cpp:434] inception_5a/3x3_reduce <- pool4/3x3_s2_pool4/3x3_s2_0_split_1
I0202 13:40:55.337560 99886 net.cpp:408] inception_5a/3x3_reduce -> inception_5a/3x3_reduce
I0202 13:40:55.338774 99886 net.cpp:150] Setting up inception_5a/3x3_reduce
I0202 13:40:55.338784 99886 net.cpp:157] Top shape: 50 160 7 7 (392000)
I0202 13:40:55.338788 99886 net.cpp:165] Memory required for data: 2700053224
I0202 13:40:55.338795 99886 layer_factory.hpp:77] Creating layer inception_5a/relu_3x3_reduce
I0202 13:40:55.338804 99886 net.cpp:100] Creating Layer inception_5a/relu_3x3_reduce
I0202 13:40:55.338809 99886 net.cpp:434] inception_5a/relu_3x3_reduce <- inception_5a/3x3_reduce
I0202 13:40:55.338814 99886 net.cpp:395] inception_5a/relu_3x3_reduce -> inception_5a/3x3_reduce (in-place)
I0202 13:40:55.338820 99886 net.cpp:150] Setting up inception_5a/relu_3x3_reduce
I0202 13:40:55.338825 99886 net.cpp:157] Top shape: 50 160 7 7 (392000)
I0202 13:40:55.338829 99886 net.cpp:165] Memory required for data: 2701621224
I0202 13:40:55.338832 99886 layer_factory.hpp:77] Creating layer inception_5a/3x3
I0202 13:40:55.338840 99886 net.cpp:100] Creating Layer inception_5a/3x3
I0202 13:40:55.338845 99886 net.cpp:434] inception_5a/3x3 <- inception_5a/3x3_reduce
I0202 13:40:55.338852 99886 net.cpp:408] inception_5a/3x3 -> inception_5a/3x3
I0202 13:40:55.343463 99886 net.cpp:150] Setting up inception_5a/3x3
I0202 13:40:55.343473 99886 net.cpp:157] Top shape: 50 320 7 7 (784000)
I0202 13:40:55.343477 99886 net.cpp:165] Memory required for data: 2704757224
I0202 13:40:55.343484 99886 layer_factory.hpp:77] Creating layer inception_5a/relu_3x3
I0202 13:40:55.343490 99886 net.cpp:100] Creating Layer inception_5a/relu_3x3
I0202 13:40:55.343494 99886 net.cpp:434] inception_5a/relu_3x3 <- inception_5a/3x3
I0202 13:40:55.343500 99886 net.cpp:395] inception_5a/relu_3x3 -> inception_5a/3x3 (in-place)
I0202 13:40:55.343507 99886 net.cpp:150] Setting up inception_5a/relu_3x3
I0202 13:40:55.343511 99886 net.cpp:157] Top shape: 50 320 7 7 (784000)
I0202 13:40:55.343515 99886 net.cpp:165] Memory required for data: 2707893224
I0202 13:40:55.343518 99886 layer_factory.hpp:77] Creating layer inception_5a/5x5_reduce
I0202 13:40:55.343526 99886 net.cpp:100] Creating Layer inception_5a/5x5_reduce
I0202 13:40:55.343530 99886 net.cpp:434] inception_5a/5x5_reduce <- pool4/3x3_s2_pool4/3x3_s2_0_split_2
I0202 13:40:55.343539 99886 net.cpp:408] inception_5a/5x5_reduce -> inception_5a/5x5_reduce
I0202 13:40:55.343816 99886 net.cpp:150] Setting up inception_5a/5x5_reduce
I0202 13:40:55.343827 99886 net.cpp:157] Top shape: 50 32 7 7 (78400)
I0202 13:40:55.343830 99886 net.cpp:165] Memory required for data: 2708206824
I0202 13:40:55.343837 99886 layer_factory.hpp:77] Creating layer inception_5a/relu_5x5_reduce
I0202 13:40:55.343844 99886 net.cpp:100] Creating Layer inception_5a/relu_5x5_reduce
I0202 13:40:55.343848 99886 net.cpp:434] inception_5a/relu_5x5_reduce <- inception_5a/5x5_reduce
I0202 13:40:55.343868 99886 net.cpp:395] inception_5a/relu_5x5_reduce -> inception_5a/5x5_reduce (in-place)
I0202 13:40:55.343874 99886 net.cpp:150] Setting up inception_5a/relu_5x5_reduce
I0202 13:40:55.343879 99886 net.cpp:157] Top shape: 50 32 7 7 (78400)
I0202 13:40:55.343883 99886 net.cpp:165] Memory required for data: 2708520424
I0202 13:40:55.343886 99886 layer_factory.hpp:77] Creating layer inception_5a/5x5
I0202 13:40:55.343897 99886 net.cpp:100] Creating Layer inception_5a/5x5
I0202 13:40:55.343901 99886 net.cpp:434] inception_5a/5x5 <- inception_5a/5x5_reduce
I0202 13:40:55.343907 99886 net.cpp:408] inception_5a/5x5 -> inception_5a/5x5
I0202 13:40:55.344849 99886 net.cpp:150] Setting up inception_5a/5x5
I0202 13:40:55.344859 99886 net.cpp:157] Top shape: 50 128 7 7 (313600)
I0202 13:40:55.344862 99886 net.cpp:165] Memory required for data: 2709774824
I0202 13:40:55.344869 99886 layer_factory.hpp:77] Creating layer inception_5a/relu_5x5
I0202 13:40:55.344877 99886 net.cpp:100] Creating Layer inception_5a/relu_5x5
I0202 13:40:55.344882 99886 net.cpp:434] inception_5a/relu_5x5 <- inception_5a/5x5
I0202 13:40:55.344887 99886 net.cpp:395] inception_5a/relu_5x5 -> inception_5a/5x5 (in-place)
I0202 13:40:55.344893 99886 net.cpp:150] Setting up inception_5a/relu_5x5
I0202 13:40:55.344897 99886 net.cpp:157] Top shape: 50 128 7 7 (313600)
I0202 13:40:55.344902 99886 net.cpp:165] Memory required for data: 2711029224
I0202 13:40:55.344905 99886 layer_factory.hpp:77] Creating layer inception_5a/pool
I0202 13:40:55.344911 99886 net.cpp:100] Creating Layer inception_5a/pool
I0202 13:40:55.344916 99886 net.cpp:434] inception_5a/pool <- pool4/3x3_s2_pool4/3x3_s2_0_split_3
I0202 13:40:55.344924 99886 net.cpp:408] inception_5a/pool -> inception_5a/pool
I0202 13:40:55.344934 99886 net.cpp:150] Setting up inception_5a/pool
I0202 13:40:55.344939 99886 net.cpp:157] Top shape: 50 832 7 7 (2038400)
I0202 13:40:55.344943 99886 net.cpp:165] Memory required for data: 2719182824
I0202 13:40:55.344946 99886 layer_factory.hpp:77] Creating layer inception_5a/pool_proj
I0202 13:40:55.344957 99886 net.cpp:100] Creating Layer inception_5a/pool_proj
I0202 13:40:55.344961 99886 net.cpp:434] inception_5a/pool_proj <- inception_5a/pool
I0202 13:40:55.344970 99886 net.cpp:408] inception_5a/pool_proj -> inception_5a/pool_proj
I0202 13:40:55.345952 99886 net.cpp:150] Setting up inception_5a/pool_proj
I0202 13:40:55.345963 99886 net.cpp:157] Top shape: 50 128 7 7 (313600)
I0202 13:40:55.345965 99886 net.cpp:165] Memory required for data: 2720437224
I0202 13:40:55.345973 99886 layer_factory.hpp:77] Creating layer inception_5a/relu_pool_proj
I0202 13:40:55.345980 99886 net.cpp:100] Creating Layer inception_5a/relu_pool_proj
I0202 13:40:55.345985 99886 net.cpp:434] inception_5a/relu_pool_proj <- inception_5a/pool_proj
I0202 13:40:55.345993 99886 net.cpp:395] inception_5a/relu_pool_proj -> inception_5a/pool_proj (in-place)
I0202 13:40:55.345999 99886 net.cpp:150] Setting up inception_5a/relu_pool_proj
I0202 13:40:55.346004 99886 net.cpp:157] Top shape: 50 128 7 7 (313600)
I0202 13:40:55.346009 99886 net.cpp:165] Memory required for data: 2721691624
I0202 13:40:55.346011 99886 layer_factory.hpp:77] Creating layer inception_5a/output
I0202 13:40:55.346019 99886 net.cpp:100] Creating Layer inception_5a/output
I0202 13:40:55.346022 99886 net.cpp:434] inception_5a/output <- inception_5a/1x1
I0202 13:40:55.346029 99886 net.cpp:434] inception_5a/output <- inception_5a/3x3
I0202 13:40:55.346034 99886 net.cpp:434] inception_5a/output <- inception_5a/5x5
I0202 13:40:55.346037 99886 net.cpp:434] inception_5a/output <- inception_5a/pool_proj
I0202 13:40:55.346043 99886 net.cpp:408] inception_5a/output -> inception_5a/output
I0202 13:40:55.346051 99886 net.cpp:150] Setting up inception_5a/output
I0202 13:40:55.346056 99886 net.cpp:157] Top shape: 50 832 7 7 (2038400)
I0202 13:40:55.346060 99886 net.cpp:165] Memory required for data: 2729845224
I0202 13:40:55.346063 99886 layer_factory.hpp:77] Creating layer inception_5a/output_inception_5a/output_0_split
I0202 13:40:55.346082 99886 net.cpp:100] Creating Layer inception_5a/output_inception_5a/output_0_split
I0202 13:40:55.346087 99886 net.cpp:434] inception_5a/output_inception_5a/output_0_split <- inception_5a/output
I0202 13:40:55.346094 99886 net.cpp:408] inception_5a/output_inception_5a/output_0_split -> inception_5a/output_inception_5a/output_0_split_0
I0202 13:40:55.346102 99886 net.cpp:408] inception_5a/output_inception_5a/output_0_split -> inception_5a/output_inception_5a/output_0_split_1
I0202 13:40:55.346109 99886 net.cpp:408] inception_5a/output_inception_5a/output_0_split -> inception_5a/output_inception_5a/output_0_split_2
I0202 13:40:55.346117 99886 net.cpp:408] inception_5a/output_inception_5a/output_0_split -> inception_5a/output_inception_5a/output_0_split_3
I0202 13:40:55.346125 99886 net.cpp:150] Setting up inception_5a/output_inception_5a/output_0_split
I0202 13:40:55.346130 99886 net.cpp:157] Top shape: 50 832 7 7 (2038400)
I0202 13:40:55.346135 99886 net.cpp:157] Top shape: 50 832 7 7 (2038400)
I0202 13:40:55.346140 99886 net.cpp:157] Top shape: 50 832 7 7 (2038400)
I0202 13:40:55.346144 99886 net.cpp:157] Top shape: 50 832 7 7 (2038400)
I0202 13:40:55.346148 99886 net.cpp:165] Memory required for data: 2762459624
I0202 13:40:55.346151 99886 layer_factory.hpp:77] Creating layer inception_5b/1x1
I0202 13:40:55.346166 99886 net.cpp:100] Creating Layer inception_5b/1x1
I0202 13:40:55.346170 99886 net.cpp:434] inception_5b/1x1 <- inception_5a/output_inception_5a/output_0_split_0
I0202 13:40:55.346177 99886 net.cpp:408] inception_5b/1x1 -> inception_5b/1x1
I0202 13:40:55.349056 99886 net.cpp:150] Setting up inception_5b/1x1
I0202 13:40:55.349066 99886 net.cpp:157] Top shape: 50 384 7 7 (940800)
I0202 13:40:55.349069 99886 net.cpp:165] Memory required for data: 2766222824
I0202 13:40:55.349076 99886 layer_factory.hpp:77] Creating layer inception_5b/relu_1x1
I0202 13:40:55.349082 99886 net.cpp:100] Creating Layer inception_5b/relu_1x1
I0202 13:40:55.349087 99886 net.cpp:434] inception_5b/relu_1x1 <- inception_5b/1x1
I0202 13:40:55.349097 99886 net.cpp:395] inception_5b/relu_1x1 -> inception_5b/1x1 (in-place)
I0202 13:40:55.349102 99886 net.cpp:150] Setting up inception_5b/relu_1x1
I0202 13:40:55.349107 99886 net.cpp:157] Top shape: 50 384 7 7 (940800)
I0202 13:40:55.349112 99886 net.cpp:165] Memory required for data: 2769986024
I0202 13:40:55.349115 99886 layer_factory.hpp:77] Creating layer inception_5b/3x3_reduce
I0202 13:40:55.349123 99886 net.cpp:100] Creating Layer inception_5b/3x3_reduce
I0202 13:40:55.349128 99886 net.cpp:434] inception_5b/3x3_reduce <- inception_5a/output_inception_5a/output_0_split_1
I0202 13:40:55.349134 99886 net.cpp:408] inception_5b/3x3_reduce -> inception_5b/3x3_reduce
I0202 13:40:55.350584 99886 net.cpp:150] Setting up inception_5b/3x3_reduce
I0202 13:40:55.350594 99886 net.cpp:157] Top shape: 50 192 7 7 (470400)
I0202 13:40:55.350597 99886 net.cpp:165] Memory required for data: 2771867624
I0202 13:40:55.350603 99886 layer_factory.hpp:77] Creating layer inception_5b/relu_3x3_reduce
I0202 13:40:55.350612 99886 net.cpp:100] Creating Layer inception_5b/relu_3x3_reduce
I0202 13:40:55.350616 99886 net.cpp:434] inception_5b/relu_3x3_reduce <- inception_5b/3x3_reduce
I0202 13:40:55.350622 99886 net.cpp:395] inception_5b/relu_3x3_reduce -> inception_5b/3x3_reduce (in-place)
I0202 13:40:55.350635 99886 net.cpp:150] Setting up inception_5b/relu_3x3_reduce
I0202 13:40:55.350639 99886 net.cpp:157] Top shape: 50 192 7 7 (470400)
I0202 13:40:55.350642 99886 net.cpp:165] Memory required for data: 2773749224
I0202 13:40:55.350646 99886 layer_factory.hpp:77] Creating layer inception_5b/3x3
I0202 13:40:55.350654 99886 net.cpp:100] Creating Layer inception_5b/3x3
I0202 13:40:55.350658 99886 net.cpp:434] inception_5b/3x3 <- inception_5b/3x3_reduce
I0202 13:40:55.350667 99886 net.cpp:408] inception_5b/3x3 -> inception_5b/3x3
I0202 13:40:55.357208 99886 net.cpp:150] Setting up inception_5b/3x3
I0202 13:40:55.357218 99886 net.cpp:157] Top shape: 50 384 7 7 (940800)
I0202 13:40:55.357225 99886 net.cpp:165] Memory required for data: 2777512424
I0202 13:40:55.357240 99886 layer_factory.hpp:77] Creating layer inception_5b/relu_3x3
I0202 13:40:55.357247 99886 net.cpp:100] Creating Layer inception_5b/relu_3x3
I0202 13:40:55.357252 99886 net.cpp:434] inception_5b/relu_3x3 <- inception_5b/3x3
I0202 13:40:55.357257 99886 net.cpp:395] inception_5b/relu_3x3 -> inception_5b/3x3 (in-place)
I0202 13:40:55.357264 99886 net.cpp:150] Setting up inception_5b/relu_3x3
I0202 13:40:55.357269 99886 net.cpp:157] Top shape: 50 384 7 7 (940800)
I0202 13:40:55.357272 99886 net.cpp:165] Memory required for data: 2781275624
I0202 13:40:55.357276 99886 layer_factory.hpp:77] Creating layer inception_5b/5x5_reduce
I0202 13:40:55.357286 99886 net.cpp:100] Creating Layer inception_5b/5x5_reduce
I0202 13:40:55.357290 99886 net.cpp:434] inception_5b/5x5_reduce <- inception_5a/output_inception_5a/output_0_split_2
I0202 13:40:55.357300 99886 net.cpp:408] inception_5b/5x5_reduce -> inception_5b/5x5_reduce
I0202 13:40:55.357664 99886 net.cpp:150] Setting up inception_5b/5x5_reduce
I0202 13:40:55.357673 99886 net.cpp:157] Top shape: 50 48 7 7 (117600)
I0202 13:40:55.357677 99886 net.cpp:165] Memory required for data: 2781746024
I0202 13:40:55.357684 99886 layer_factory.hpp:77] Creating layer inception_5b/relu_5x5_reduce
I0202 13:40:55.357692 99886 net.cpp:100] Creating Layer inception_5b/relu_5x5_reduce
I0202 13:40:55.357697 99886 net.cpp:434] inception_5b/relu_5x5_reduce <- inception_5b/5x5_reduce
I0202 13:40:55.357702 99886 net.cpp:395] inception_5b/relu_5x5_reduce -> inception_5b/5x5_reduce (in-place)
I0202 13:40:55.357708 99886 net.cpp:150] Setting up inception_5b/relu_5x5_reduce
I0202 13:40:55.357713 99886 net.cpp:157] Top shape: 50 48 7 7 (117600)
I0202 13:40:55.357717 99886 net.cpp:165] Memory required for data: 2782216424
I0202 13:40:55.357720 99886 layer_factory.hpp:77] Creating layer inception_5b/5x5
I0202 13:40:55.357731 99886 net.cpp:100] Creating Layer inception_5b/5x5
I0202 13:40:55.357735 99886 net.cpp:434] inception_5b/5x5 <- inception_5b/5x5_reduce
I0202 13:40:55.357743 99886 net.cpp:408] inception_5b/5x5 -> inception_5b/5x5
I0202 13:40:55.359138 99886 net.cpp:150] Setting up inception_5b/5x5
I0202 13:40:55.359149 99886 net.cpp:157] Top shape: 50 128 7 7 (313600)
I0202 13:40:55.359153 99886 net.cpp:165] Memory required for data: 2783470824
I0202 13:40:55.359159 99886 layer_factory.hpp:77] Creating layer inception_5b/relu_5x5
I0202 13:40:55.359165 99886 net.cpp:100] Creating Layer inception_5b/relu_5x5
I0202 13:40:55.359169 99886 net.cpp:434] inception_5b/relu_5x5 <- inception_5b/5x5
I0202 13:40:55.359175 99886 net.cpp:395] inception_5b/relu_5x5 -> inception_5b/5x5 (in-place)
I0202 13:40:55.359181 99886 net.cpp:150] Setting up inception_5b/relu_5x5
I0202 13:40:55.359186 99886 net.cpp:157] Top shape: 50 128 7 7 (313600)
I0202 13:40:55.359189 99886 net.cpp:165] Memory required for data: 2784725224
I0202 13:40:55.359194 99886 layer_factory.hpp:77] Creating layer inception_5b/pool
I0202 13:40:55.359202 99886 net.cpp:100] Creating Layer inception_5b/pool
I0202 13:40:55.359206 99886 net.cpp:434] inception_5b/pool <- inception_5a/output_inception_5a/output_0_split_3
I0202 13:40:55.359212 99886 net.cpp:408] inception_5b/pool -> inception_5b/pool
I0202 13:40:55.359222 99886 net.cpp:150] Setting up inception_5b/pool
I0202 13:40:55.359227 99886 net.cpp:157] Top shape: 50 832 7 7 (2038400)
I0202 13:40:55.359230 99886 net.cpp:165] Memory required for data: 2792878824
I0202 13:40:55.359235 99886 layer_factory.hpp:77] Creating layer inception_5b/pool_proj
I0202 13:40:55.359244 99886 net.cpp:100] Creating Layer inception_5b/pool_proj
I0202 13:40:55.359249 99886 net.cpp:434] inception_5b/pool_proj <- inception_5b/pool
I0202 13:40:55.359257 99886 net.cpp:408] inception_5b/pool_proj -> inception_5b/pool_proj
I0202 13:40:55.360242 99886 net.cpp:150] Setting up inception_5b/pool_proj
I0202 13:40:55.360252 99886 net.cpp:157] Top shape: 50 128 7 7 (313600)
I0202 13:40:55.360255 99886 net.cpp:165] Memory required for data: 2794133224
I0202 13:40:55.360266 99886 layer_factory.hpp:77] Creating layer inception_5b/relu_pool_proj
I0202 13:40:55.360280 99886 net.cpp:100] Creating Layer inception_5b/relu_pool_proj
I0202 13:40:55.360285 99886 net.cpp:434] inception_5b/relu_pool_proj <- inception_5b/pool_proj
I0202 13:40:55.360292 99886 net.cpp:395] inception_5b/relu_pool_proj -> inception_5b/pool_proj (in-place)
I0202 13:40:55.360299 99886 net.cpp:150] Setting up inception_5b/relu_pool_proj
I0202 13:40:55.360304 99886 net.cpp:157] Top shape: 50 128 7 7 (313600)
I0202 13:40:55.360307 99886 net.cpp:165] Memory required for data: 2795387624
I0202 13:40:55.360311 99886 layer_factory.hpp:77] Creating layer inception_5b/output
I0202 13:40:55.360318 99886 net.cpp:100] Creating Layer inception_5b/output
I0202 13:40:55.360322 99886 net.cpp:434] inception_5b/output <- inception_5b/1x1
I0202 13:40:55.360327 99886 net.cpp:434] inception_5b/output <- inception_5b/3x3
I0202 13:40:55.360332 99886 net.cpp:434] inception_5b/output <- inception_5b/5x5
I0202 13:40:55.360337 99886 net.cpp:434] inception_5b/output <- inception_5b/pool_proj
I0202 13:40:55.360342 99886 net.cpp:408] inception_5b/output -> inception_5b/output
I0202 13:40:55.360350 99886 net.cpp:150] Setting up inception_5b/output
I0202 13:40:55.360355 99886 net.cpp:157] Top shape: 50 1024 7 7 (2508800)
I0202 13:40:55.360358 99886 net.cpp:165] Memory required for data: 2805422824
I0202 13:40:55.360363 99886 layer_factory.hpp:77] Creating layer pool5/7x7_s1
I0202 13:40:55.360370 99886 net.cpp:100] Creating Layer pool5/7x7_s1
I0202 13:40:55.360374 99886 net.cpp:434] pool5/7x7_s1 <- inception_5b/output
I0202 13:40:55.360383 99886 net.cpp:408] pool5/7x7_s1 -> pool5/7x7_s1
I0202 13:40:55.360391 99886 net.cpp:150] Setting up pool5/7x7_s1
I0202 13:40:55.360396 99886 net.cpp:157] Top shape: 50 1024 1 1 (51200)
I0202 13:40:55.360399 99886 net.cpp:165] Memory required for data: 2805627624
I0202 13:40:55.360404 99886 layer_factory.hpp:77] Creating layer pool5/drop_7x7_s1
I0202 13:40:55.360411 99886 net.cpp:100] Creating Layer pool5/drop_7x7_s1
I0202 13:40:55.360415 99886 net.cpp:434] pool5/drop_7x7_s1 <- pool5/7x7_s1
I0202 13:40:55.360420 99886 net.cpp:395] pool5/drop_7x7_s1 -> pool5/7x7_s1 (in-place)
I0202 13:40:55.360430 99886 net.cpp:150] Setting up pool5/drop_7x7_s1
I0202 13:40:55.360435 99886 net.cpp:157] Top shape: 50 1024 1 1 (51200)
I0202 13:40:55.360438 99886 net.cpp:165] Memory required for data: 2805832424
I0202 13:40:55.360442 99886 layer_factory.hpp:77] Creating layer loss3/classifier
I0202 13:40:55.360455 99886 net.cpp:100] Creating Layer loss3/classifier
I0202 13:40:55.360458 99886 net.cpp:434] loss3/classifier <- pool5/7x7_s1
I0202 13:40:55.360466 99886 net.cpp:408] loss3/classifier -> loss3/classifier
I0202 13:40:55.369802 99886 net.cpp:150] Setting up loss3/classifier
I0202 13:40:55.369814 99886 net.cpp:157] Top shape: 50 1000 (50000)
I0202 13:40:55.369818 99886 net.cpp:165] Memory required for data: 2806032424
I0202 13:40:55.369825 99886 layer_factory.hpp:77] Creating layer loss3/classifier_loss3/classifier_0_split
I0202 13:40:55.369837 99886 net.cpp:100] Creating Layer loss3/classifier_loss3/classifier_0_split
I0202 13:40:55.369841 99886 net.cpp:434] loss3/classifier_loss3/classifier_0_split <- loss3/classifier
I0202 13:40:55.369848 99886 net.cpp:408] loss3/classifier_loss3/classifier_0_split -> loss3/classifier_loss3/classifier_0_split_0
I0202 13:40:55.369854 99886 net.cpp:408] loss3/classifier_loss3/classifier_0_split -> loss3/classifier_loss3/classifier_0_split_1
I0202 13:40:55.369861 99886 net.cpp:408] loss3/classifier_loss3/classifier_0_split -> loss3/classifier_loss3/classifier_0_split_2
I0202 13:40:55.369869 99886 net.cpp:150] Setting up loss3/classifier_loss3/classifier_0_split
I0202 13:40:55.369874 99886 net.cpp:157] Top shape: 50 1000 (50000)
I0202 13:40:55.369879 99886 net.cpp:157] Top shape: 50 1000 (50000)
I0202 13:40:55.369884 99886 net.cpp:157] Top shape: 50 1000 (50000)
I0202 13:40:55.369887 99886 net.cpp:165] Memory required for data: 2806632424
I0202 13:40:55.369890 99886 layer_factory.hpp:77] Creating layer loss3/loss3
I0202 13:40:55.369910 99886 net.cpp:100] Creating Layer loss3/loss3
I0202 13:40:55.369915 99886 net.cpp:434] loss3/loss3 <- loss3/classifier_loss3/classifier_0_split_0
I0202 13:40:55.369920 99886 net.cpp:434] loss3/loss3 <- label_data_1_split_6
…
