…
I0202 13:53:31.888299 100062 net.cpp:322] The NetState phase (0) differed from the phase (1) specified by a rule in layer loss3/top-5
I0202 13:53:31.891890 100062 net.cpp:58] Initializing net from parameters: 
name: "GoogleNet"
state {
  phase: TRAIN
  level: 0
  stage: ""
}
layer {
  name: "data"
  type: "Data"
  top: "data"
  top: "label"
  include {
    phase: TRAIN
  }
  transform_param {
    mirror: true
    crop_size: 224
    mean_value: 104
    mean_value: 117
    mean_value: 123
  }
  data_param {
    source: "/home/user/LIBRARIES/caffeLibs/caffe/examples/imagenet/ilsvrc12_train_lmdb"
    batch_size: 112
    backend: LMDB
  }
}
layer {
  name: "conv1/7x7_s2"
  type: "Convolution"
  bottom: "data"
  top: "conv1/7x7_s2"
  param {
    lr_mult: 1
    decay_mult: 1
  }
  param {
    lr_mult: 2
    decay_mult: 0
  }
  convolution_param {
    num_output: 64
    pad: 3
    kernel_size: 7
    stride: 2
    weight_filler {
      type: "xavier"
    }
    bias_filler {
      type: "constant"
      value: 0.2
    }
  }
}
layer {
  name: "conv1/relu_7x7"
  type: "ReLU"
  bottom: "conv1/7x7_s2"
  top: "conv1/7x7_s2"
}
layer {
  name: "pool1/3x3_s2"
  type: "Pooling"
  bottom: "conv1/7x7_s2"
  top: "pool1/3x3_s2"
  pooling_param {
    pool: MAX
    kernel_size: 3
    stride: 2
  }
}
layer {
  name: "pool1/norm1"
  type: "LRN"
  bottom: "pool1/3x3_s2"
  top: "pool1/norm1"
  lrn_param {
    local_size: 5
    alpha: 0.0001
    beta: 0.75
  }
}
layer {
  name: "conv2/3x3_reduce"
  type: "Convolution"
  bottom: "pool1/norm1"
  top: "conv2/3x3_reduce"
  param {
    lr_mult: 1
    decay_mult: 1
  }
  param {
    lr_mult: 2
    decay_mult: 0
  }
  convolution_param {
    num_output: 64
    kernel_size: 1
    weight_filler {
      type: "xavier"
    }
    bias_filler {
      type: "constant"
      value: 0.2
    }
  }
}
layer {
  name: "conv2/relu_3x3_reduce"
  type: "ReLU"
  bottom: "conv2/3x3_reduce"
  top: "conv2/3x3_reduce"
}
layer {
  name: "conv2/3x3"
  type: "Convolution"
  bottom: "conv2/3x3_reduce"
  top: "conv2/3x3"
  param {
    lr_mult: 1
    decay_mult: 1
  }
  param {
    lr_mult: 2
    decay_mult: 0
  }
  convolution_param {
    num_output: 192
    pad: 1
    kernel_size: 3
    weight_filler {
      type: "xavier"
    }
    bias_filler {
      type: "constant"
      value: 0.2
    }
  }
}
layer {
  name: "conv2/relu_3x3"
  type: "ReLU"
  bottom: "conv2/3x3"
  top: "conv2/3x3"
}
layer {
  name: "conv2/norm2"
  type: "LRN"
  bottom: "conv2/3x3"
  top: "conv2/norm2"
  lrn_param {
    local_size: 5
    alpha: 0.0001
    beta: 0.75
  }
}
layer {
  name: "pool2/3x3_s2"
  type: "Pooling"
  bottom: "conv2/norm2"
  top: "pool2/3x3_s2"
  pooling_param {
    pool: MAX
    kernel_size: 3
    stride: 2
  }
}
layer {
  name: "inception_3a/1x1"
  type: "Convolution"
  bottom: "pool2/3x3_s2"
  top: "inception_3a/1x1"
  param {
    lr_mult: 1
    decay_mult: 1
  }
  param {
    lr_mult: 2
    decay_mult: 0
  }
  convolution_param {
    num_output: 64
    kernel_size: 1
    weight_filler {
      type: "xavier"
    }
    bias_filler {
      type: "constant"
      value: 0.2
    }
  }
}
layer {
  name: "inception_3a/relu_1x1"
  type: "ReLU"
  bottom: "inception_3a/1x1"
  top: "inception_3a/1x1"
}
layer {
  name: "inception_3a/3x3_reduce"
  type: "Convolution"
  bottom: "pool2/3x3_s2"
  top: "inception_3a/3x3_reduce"
  param {
    lr_mult: 1
    decay_mult: 1
  }
  param {
    lr_mult: 2
    decay_mult: 0
  }
  convolution_param {
    num_output: 96
    kernel_size: 1
    weight_filler {
      type: "xavier"
    }
    bias_filler {
      type: "constant"
      value: 0.2
    }
  }
}
layer {
  name: "inception_3a/relu_3x3_reduce"
  type: "ReLU"
  bottom: "inception_3a/3x3_reduce"
  top: "inception_3a/3x3_reduce"
}
layer {
  name: "inception_3a/3x3"
  type: "Convolution"
  bottom: "inception_3a/3x3_reduce"
  top: "inception_3a/3x3"
  param {
    lr_mult: 1
    decay_mult: 1
  }
  param {
    lr_mult: 2
    decay_mult: 0
  }
  convolution_param {
    num_output: 128
    pad: 1
    kernel_size: 3
    weight_filler {
      type: "xavier"
    }
    bias_filler {
      type: "constant"
      value: 0.2
    }
  }
}
layer {
  name: "inception_3a/relu_3x3"
  type: "ReLU"
  bottom: "inception_3a/3x3"
  top: "inception_3a/3x3"
}
layer {
  name: "inception_3a/5x5_reduce"
  type: "Convolution"
  bottom: "pool2/3x3_s2"
  top: "inception_3a/5x5_reduce"
  param {
    lr_mult: 1
    decay_mult: 1
  }
  param {
    lr_mult: 2
    decay_mult: 0
  }
  convolution_param {
    num_output: 16
    kernel_size: 1
    weight_filler {
      type: "xavier"
    }
    bias_filler {
      type: "constant"
      value: 0.2
    }
  }
}
layer {
  name: "inception_3a/relu_5x5_reduce"
  type: "ReLU"
  bottom: "inception_3a/5x5_reduce"
  top: "inception_3a/5x5_reduce"
}
layer {
  name: "inception_3a/5x5"
  type: "Convolution"
  bottom: "inception_3a/5x5_reduce"
  top: "inception_3a/5x5"
  param {
    lr_mult: 1
    decay_mult: 1
  }
  param {
    lr_mult: 2
    decay_mult: 0
  }
  convolution_param {
    num_output: 32
    pad: 2
    kernel_size: 5
    weight_filler {
      type: "xavier"
    }
    bias_filler {
      type: "constant"
      value: 0.2
    }
  }
}
layer {
  name: "inception_3a/relu_5x5"
  type: "ReLU"
  bottom: "inception_3a/5x5"
  top: "inception_3a/5x5"
}
layer {
  name: "inception_3a/pool"
  type: "Pooling"
  bottom: "pool2/3x3_s2"
  top: "inception_3a/pool"
  pooling_param {
    pool: MAX
    kernel_size: 3
    stride: 1
    pad: 1
  }
}
layer {
  name: "inception_3a/pool_proj"
  type: "Convolution"
  bottom: "inception_3a/pool"
  top: "inception_3a/pool_proj"
  param {
    lr_mult: 1
    decay_mult: 1
  }
  param {
    lr_mult: 2
    decay_mult: 0
  }
  convolution_param {
    num_output: 32
    kernel_size: 1
    weight_filler {
      type: "xavier"
    }
    bias_filler {
      type: "constant"
      value: 0.2
    }
  }
}
layer {
  name: "inception_3a/relu_pool_proj"
  type: "ReLU"
  bottom: "inception_3a/pool_proj"
  top: "inception_3a/pool_proj"
}
layer {
  name: "inception_3a/output"
  type: "Concat"
  bottom: "inception_3a/1x1"
  bottom: "inception_3a/3x3"
  bottom: "inception_3a/5x5"
  bottom: "inception_3a/pool_proj"
  top: "inception_3a/output"
}
layer {
  name: "inception_3b/1x1"
  type: "Convolution"
  bottom: "inception_3a/output"
  top: "inception_3b/1x1"
  param {
    lr_mult: 1
    decay_mult: 1
  }
  param {
    lr_mult: 2
    decay_mult: 0
  }
  convolution_param {
    num_output: 128
    kernel_size: 1
    weight_filler {
      type: "xavier"
    }
    bias_filler {
      type: "constant"
      value: 0.2
    }
  }
}
layer {
  name: "inception_3b/relu_1x1"
  type: "ReLU"
  bottom: "inception_3b/1x1"
  top: "inception_3b/1x1"
}
layer {
  name: "inception_3b/3x3_reduce"
  type: "Convolution"
  bottom: "inception_3a/output"
  top: "inception_3b/3x3_reduce"
  param {
    lr_mult: 1
    decay_mult: 1
  }
  param {
    lr_mult: 2
    decay_mult: 0
  }
  convolution_param {
    num_output: 128
    kernel_size: 1
    weight_filler {
      type: "xavier"
    }
    bias_filler {
      type: "constant"
      value: 0.2
    }
  }
}
layer {
  name: "inception_3b/relu_3x3_reduce"
  type: "ReLU"
  bottom: "inception_3b/3x3_reduce"
  top: "inception_3b/3x3_reduce"
}
layer {
  name: "inception_3b/3x3"
  type: "Convolution"
  bottom: "inception_3b/3x3_reduce"
  top: "inception_3b/3x3"
  param {
    lr_mult: 1
    decay_mult: 1
  }
  param {
    lr_mult: 2
    decay_mult: 0
  }
  convolution_param {
    num_output: 192
    pad: 1
    kernel_size: 3
    weight_filler {
      type: "xavier"
    }
    bias_filler {
      type: "constant"
      value: 0.2
    }
  }
}
layer {
  name: "inception_3b/relu_3x3"
  type: "ReLU"
  bottom: "inception_3b/3x3"
  top: "inception_3b/3x3"
}
layer {
  name: "inception_3b/5x5_reduce"
  type: "Convolution"
  bottom: "inception_3a/output"
  top: "inception_3b/5x5_reduce"
  param {
    lr_mult: 1
    decay_mult: 1
  }
  param {
    lr_mult: 2
    decay_mult: 0
  }
  convolution_param {
    num_output: 32
    kernel_size: 1
    weight_filler {
      type: "xavier"
    }
    bias_filler {
      type: "constant"
      value: 0.2
    }
  }
}
layer {
  name: "inception_3b/relu_5x5_reduce"
  type: "ReLU"
  bottom: "inception_3b/5x5_reduce"
  top: "inception_3b/5x5_reduce"
}
layer {
  name: "inception_3b/5x5"
  type: "Convolution"
  bottom: "inception_3b/5x5_reduce"
  top: "inception_3b/5x5"
  param {
    lr_mult: 1
    decay_mult: 1
  }
  param {
    lr_mult: 2
    decay_mult: 0
  }
  convolution_param {
    num_output: 96
    pad: 2
    kernel_size: 5
    weight_filler {
      type: "xavier"
    }
    bias_filler {
      type: "constant"
      value: 0.2
    }
  }
}
layer {
  name: "inception_3b/relu_5x5"
  type: "ReLU"
  bottom: "inception_3b/5x5"
  top: "inception_3b/5x5"
}
layer {
  name: "inception_3b/pool"
  type: "Pooling"
  bottom: "inception_3a/output"
  top: "inception_3b/pool"
  pooling_param {
    pool: MAX
    kernel_size: 3
    stride: 1
    pad: 1
  }
}
layer {
  name: "inception_3b/pool_proj"
  type: "Convolution"
  bottom: "inception_3b/pool"
  top: "inception_3b/pool_proj"
  param {
    lr_mult: 1
    decay_mult: 1
  }
  param {
    lr_mult: 2
    decay_mult: 0
  }
  convolution_param {
    num_output: 64
    kernel_size: 1
    weight_filler {
      type: "xavier"
    }
    bias_filler {
      type: "constant"
      value: 0.2
    }
  }
}
layer {
  name: "inception_3b/relu_pool_proj"
  type: "ReLU"
  bottom: "inception_3b/pool_proj"
  top: "inception_3b/pool_proj"
}
layer {
  name: "inception_3b/output"
  type: "Concat"
  bottom: "inception_3b/1x1"
  bottom: "inception_3b/3x3"
  bottom: "inception_3b/5x5"
  bottom: "inception_3b/pool_proj"
  top: "inception_3b/output"
}
layer {
  name: "pool3/3x3_s2"
  type: "Pooling"
  bottom: "inception_3b/output"
  top: "pool3/3x3_s2"
  pooling_param {
    pool: MAX
    kernel_size: 3
    stride: 2
  }
}
layer {
  name: "inception_4a/1x1"
  type: "Convolution"
  bottom: "pool3/3x3_s2"
  top: "inception_4a/1x1"
  param {
    lr_mult: 1
    decay_mult: 1
  }
  param {
    lr_mult: 2
    decay_mult: 0
  }
  convolution_param {
    num_output: 192
    kernel_size: 1
    weight_filler {
      type: "xavier"
    }
    bias_filler {
      type: "constant"
      value: 0.2
    }
  }
}
layer {
  name: "inception_4a/relu_1x1"
  type: "ReLU"
  bottom: "inception_4a/1x1"
  top: "inception_4a/1x1"
}
layer {
  name: "inception_4a/3x3_reduce"
  type: "Convolution"
  bottom: "pool3/3x3_s2"
  top: "inception_4a/3x3_reduce"
  param {
    lr_mult: 1
    decay_mult: 1
  }
  param {
    lr_mult: 2
    decay_mult: 0
  }
  convolution_param {
    num_output: 96
    kernel_size: 1
    weight_filler {
      type: "xavier"
    }
    bias_filler {
      type: "constant"
      value: 0.2
    }
  }
}
layer {
  name: "inception_4a/relu_3x3_reduce"
  type: "ReLU"
  bottom: "inception_4a/3x3_reduce"
  top: "inception_4a/3x3_reduce"
}
layer {
  name: "inception_4a/3x3"
  type: "Convolution"
  bottom: "inception_4a/3x3_reduce"
  top: "inception_4a/3x3"
  param {
    lr_mult: 1
    decay_mult: 1
  }
  param {
    lr_mult: 2
    decay_mult: 0
  }
  convolution_param {
    num_output: 208
    pad: 1
    kernel_size: 3
    weight_filler {
      type: "xavier"
    }
    bias_filler {
      type: "constant"
      value: 0.2
    }
  }
}
layer {
  name: "inception_4a/relu_3x3"
  type: "ReLU"
  bottom: "inception_4a/3x3"
  top: "inception_4a/3x3"
}
layer {
  name: "inception_4a/5x5_reduce"
  type: "Convolution"
  bottom: "pool3/3x3_s2"
  top: "inception_4a/5x5_reduce"
  param {
    lr_mult: 1
    decay_mult: 1
  }
  param {
    lr_mult: 2
    decay_mult: 0
  }
  convolution_param {
    num_output: 16
    kernel_size: 1
    weight_filler {
      type: "xavier"
    }
    bias_filler {
      type: "constant"
      value: 0.2
    }
  }
}
layer {
  name: "inception_4a/relu_5x5_reduce"
  type: "ReLU"
  bottom: "inception_4a/5x5_reduce"
  top: "inception_4a/5x5_reduce"
}
layer {
  name: "inception_4a/5x5"
  type: "Convolution"
  bottom: "inception_4a/5x5_reduce"
  top: "inception_4a/5x5"
  param {
    lr_mult: 1
    decay_mult: 1
  }
  param {
    lr_mult: 2
    decay_mult: 0
  }
  convolution_param {
    num_output: 48
    pad: 2
    kernel_size: 5
    weight_filler {
      type: "xavier"
    }
    bias_filler {
      type: "constant"
      value: 0.2
    }
  }
}
layer {
  name: "inception_4a/relu_5x5"
  type: "ReLU"
  bottom: "inception_4a/5x5"
  top: "inception_4a/5x5"
}
layer {
  name: "inception_4a/pool"
  type: "Pooling"
  bottom: "pool3/3x3_s2"
  top: "inception_4a/pool"
  pooling_param {
    pool: MAX
    kernel_size: 3
    stride: 1
    pad: 1
  }
}
layer {
  name: "inception_4a/pool_proj"
  type: "Convolution"
  bottom: "inception_4a/pool"
  top: "inception_4a/pool_proj"
  param {
    lr_mult: 1
    decay_mult: 1
  }
  param {
    lr_mult: 2
    decay_mult: 0
  }
  convolution_param {
    num_output: 64
    kernel_size: 1
    weight_filler {
      type: "xavier"
    }
    bias_filler {
      type: "constant"
      value: 0.2
    }
  }
}
layer {
  name: "inception_4a/relu_pool_proj"
  type: "ReLU"
  bottom: "inception_4a/pool_proj"
  top: "inception_4a/pool_proj"
}
layer {
  name: "inception_4a/output"
  type: "Concat"
  bottom: "inception_4a/1x1"
  bottom: "inception_4a/3x3"
  bottom: "inception_4a/5x5"
  bottom: "inception_4a/pool_proj"
  top: "inception_4a/output"
}
layer {
  name: "loss1/ave_pool"
  type: "Pooling"
  bottom: "inception_4a/output"
  top: "loss1/ave_pool"
  pooling_param {
    pool: AVE
    kernel_size: 5
    stride: 3
  }
}
layer {
  name: "loss1/conv"
  type: "Convolution"
  bottom: "loss1/ave_pool"
  top: "loss1/conv"
  param {
    lr_mult: 1
    decay_mult: 1
  }
  param {
    lr_mult: 2
    decay_mult: 0
  }
  convolution_param {
    num_output: 128
    kernel_size: 1
    weight_filler {
      type: "xavier"
    }
    bias_filler {
      type: "constant"
      value: 0.2
    }
  }
}
layer {
  name: "loss1/relu_conv"
  type: "ReLU"
  bottom: "loss1/conv"
  top: "loss1/conv"
}
layer {
  name: "loss1/fc"
  type: "InnerProduct"
  bottom: "loss1/conv"
  top: "loss1/fc"
  param {
    lr_mult: 1
    decay_mult: 1
  }
  param {
    lr_mult: 2
    decay_mult: 0
  }
  inner_product_param {
    num_output: 1024
    weight_filler {
      type: "xavier"
    }
    bias_filler {
      type: "constant"
      value: 0.2
    }
  }
}
layer {
  name: "loss1/relu_fc"
  type: "ReLU"
  bottom: "loss1/fc"
  top: "loss1/fc"
}
layer {
  name: "loss1/drop_fc"
  type: "Dropout"
  bottom: "loss1/fc"
  top: "loss1/fc"
  dropout_param {
    dropout_ratio: 0.7
  }
}
layer {
  name: "loss1/classifier"
  type: "InnerProduct"
  bottom: "loss1/fc"
  top: "loss1/classifier"
  param {
    lr_mult: 1
    decay_mult: 1
  }
  param {
    lr_mult: 2
    decay_mult: 0
  }
  inner_product_param {
    num_output: 1000
    weight_filler {
      type: "xavier"
    }
    bias_filler {
      type: "constant"
      value: 0
    }
  }
}
layer {
  name: "loss1/loss"
  type: "SoftmaxWithLoss"
  bottom: "loss1/classifier"
  bottom: "label"
  top: "loss1/loss1"
  loss_weight: 0.3
}
layer {
  name: "inception_4b/1x1"
  type: "Convolution"
  bottom: "inception_4a/output"
  top: "inception_4b/1x1"
  param {
    lr_mult: 1
    decay_mult: 1
  }
  param {
    lr_mult: 2
    decay_mult: 0
  }
  convolution_param {
    num_output: 160
    kernel_size: 1
    weight_filler {
      type: "xavier"
    }
    bias_filler {
      type: "constant"
      value: 0.2
    }
  }
}
layer {
  name: "inception_4b/relu_1x1"
  type: "ReLU"
  bottom: "inception_4b/1x1"
  top: "inception_4b/1x1"
}
layer {
  name: "inception_4b/3x3_reduce"
  type: "Convolution"
  bottom: "inception_4a/output"
  top: "inception_4b/3x3_reduce"
  param {
    lr_mult: 1
    decay_mult: 1
  }
  param {
    lr_mult: 2
    decay_mult: 0
  }
  convolution_param {
    num_output: 112
    kernel_size: 1
    weight_filler {
      type: "xavier"
    }
    bias_filler {
      type: "constant"
      value: 0.2
    }
  }
}
layer {
  name: "inception_4b/relu_3x3_reduce"
  type: "ReLU"
  bottom: "inception_4b/3x3_reduce"
  top: "inception_4b/3x3_reduce"
}
layer {
  name: "inception_4b/3x3"
  type: "Convolution"
  bottom: "inception_4b/3x3_reduce"
  top: "inception_4b/3x3"
  param {
    lr_mult: 1
    decay_mult: 1
  }
  param {
    lr_mult: 2
    decay_mult: 0
  }
  convolution_param {
    num_output: 224
    pad: 1
    kernel_size: 3
    weight_filler {
      type: "xavier"
    }
    bias_filler {
      type: "constant"
      value: 0.2
    }
  }
}
layer {
  name: "inception_4b/relu_3x3"
  type: "ReLU"
  bottom: "inception_4b/3x3"
  top: "inception_4b/3x3"
}
layer {
  name: "inception_4b/5x5_reduce"
  type: "Convolution"
  bottom: "inception_4a/output"
  top: "inception_4b/5x5_reduce"
  param {
    lr_mult: 1
    decay_mult: 1
  }
  param {
    lr_mult: 2
    decay_mult: 0
  }
  convolution_param {
    num_output: 24
    kernel_size: 1
    weight_filler {
      type: "xavier"
    }
    bias_filler {
      type: "constant"
      value: 0.2
    }
  }
}
layer {
  name: "inception_4b/relu_5x5_reduce"
  type: "ReLU"
  bottom: "inception_4b/5x5_reduce"
  top: "inception_4b/5x5_reduce"
}
layer {
  name: "inception_4b/5x5"
  type: "Convolution"
  bottom: "inception_4b/5x5_reduce"
  top: "inception_4b/5x5"
  param {
    lr_mult: 1
    decay_mult: 1
  }
  param {
    lr_mult: 2
    decay_mult: 0
  }
  convolution_param {
    num_output: 64
    pad: 2
    kernel_size: 5
    weight_filler {
      type: "xavier"
    }
    bias_filler {
      type: "constant"
      value: 0.2
    }
  }
}
layer {
  name: "inception_4b/relu_5x5"
  type: "ReLU"
  bottom: "inception_4b/5x5"
  top: "inception_4b/5x5"
}
layer {
  name: "inception_4b/pool"
  type: "Pooling"
  bottom: "inception_4a/output"
  top: "inception_4b/pool"
  pooling_param {
    pool: MAX
    kernel_size: 3
    stride: 1
    pad: 1
  }
}
layer {
  name: "inception_4b/pool_proj"
  type: "Convolution"
  bottom: "inception_4b/pool"
  top: "inception_4b/pool_proj"
  param {
    lr_mult: 1
    decay_mult: 1
  }
  param {
    lr_mult: 2
    decay_mult: 0
  }
  convolution_param {
    num_output: 64
    kernel_size: 1
    weight_filler {
      type: "xavier"
    }
    bias_filler {
      type: "constant"
      value: 0.2
    }
  }
}
layer {
  name: "inception_4b/relu_pool_proj"
  type: "ReLU"
  bottom: "inception_4b/pool_proj"
  top: "inception_4b/pool_proj"
}
layer {
  name: "inception_4b/output"
  type: "Concat"
  bottom: "inception_4b/1x1"
  bottom: "inception_4b/3x3"
  bottom: "inception_4b/5x5"
  bottom: "inception_4b/pool_proj"
  top: "inception_4b/output"
}
layer {
  name: "inception_4c/1x1"
  type: "Convolution"
  bottom: "inception_4b/output"
  top: "inception_4c/1x1"
  param {
    lr_mult: 1
    decay_mult: 1
  }
  param {
    lr_mult: 2
    decay_mult: 0
  }
  convolution_param {
    num_output: 128
    kernel_size: 1
    weight_filler {
      type: "xavier"
    }
    bias_filler {
      type: "constant"
      value: 0.2
    }
  }
}
layer {
  name: "inception_4c/relu_1x1"
  type: "ReLU"
  bottom: "inception_4c/1x1"
  top: "inception_4c/1x1"
}
layer {
  name: "inception_4c/3x3_reduce"
  type: "Convolution"
  bottom: "inception_4b/output"
  top: "inception_4c/3x3_reduce"
  param {
    lr_mult: 1
    decay_mult: 1
  }
  param {
    lr_mult: 2
    decay_mult: 0
  }
  convolution_param {
    num_output: 128
    kernel_size: 1
    weight_filler {
      type: "xavier"
    }
    bias_filler {
      type: "constant"
      value: 0.2
    }
  }
}
layer {
  name: "inception_4c/relu_3x3_reduce"
  type: "ReLU"
  bottom: "inception_4c/3x3_reduce"
  top: "inception_4c/3x3_reduce"
}
layer {
  name: "inception_4c/3x3"
  type: "Convolution"
  bottom: "inception_4c/3x3_reduce"
  top: "inception_4c/3x3"
  param {
    lr_mult: 1
    decay_mult: 1
  }
  param {
    lr_mult: 2
    decay_mult: 0
  }
  convolution_param {
    num_output: 256
    pad: 1
    kernel_size: 3
    weight_filler {
      type: "xavier"
    }
    bias_filler {
      type: "constant"
      value: 0.2
    }
  }
}
layer {
  name: "inception_4c/relu_3x3"
  type: "ReLU"
  bottom: "inception_4c/3x3"
  top: "inception_4c/3x3"
}
layer {
  name: "inception_4c/5x5_reduce"
  type: "Convolution"
  bottom: "inception_4b/output"
  top: "inception_4c/5x5_reduce"
  param {
    lr_mult: 1
    decay_mult: 1
  }
  param {
    lr_mult: 2
    decay_mult: 0
  }
  convolution_param {
    num_output: 24
    kernel_size: 1
    weight_filler {
      type: "xavier"
    }
    bias_filler {
      type: "constant"
      value: 0.2
    }
  }
}
layer {
  name: "inception_4c/relu_5x5_reduce"
  type: "ReLU"
  bottom: "inception_4c/5x5_reduce"
  top: "inception_4c/5x5_reduce"
}
layer {
  name: "inception_4c/5x5"
  type: "Convolution"
  bottom: "inception_4c/5x5_reduce"
  top: "inception_4c/5x5"
  param {
    lr_mult: 1
    decay_mult: 1
  }
  param {
    lr_mult: 2
    decay_mult: 0
  }
  convolution_param {
    num_output: 64
    pad: 2
    kernel_size: 5
    weight_filler {
      type: "xavier"
    }
    bias_filler {
      type: "constant"
      value: 0.2
    }
  }
}
layer {
  name: "inception_4c/relu_5x5"
  type: "ReLU"
  bottom: "inception_4c/5x5"
  top: "inception_4c/5x5"
}
layer {
  name: "inception_4c/pool"
  type: "Pooling"
  bottom: "inception_4b/output"
  top: "inception_4c/pool"
  pooling_param {
    pool: MAX
    kernel_size: 3
    stride: 1
    pad: 1
  }
}
layer {
  name: "inception_4c/pool_proj"
  type: "Convolution"
  bottom: "inception_4c/pool"
  top: "inception_4c/pool_proj"
  param {
    lr_mult: 1
    decay_mult: 1
  }
  param {
    lr_mult: 2
    decay_mult: 0
  }
  convolution_param {
    num_output: 64
    kernel_size: 1
    weight_filler {
      type: "xavier"
    }
    bias_filler {
      type: "constant"
      value: 0.2
    }
  }
}
layer {
  name: "inception_4c/relu_pool_proj"
  type: "ReLU"
  bottom: "inception_4c/pool_proj"
  top: "inception_4c/pool_proj"
}
layer {
  name: "inception_4c/output"
  type: "Concat"
  bottom: "inception_4c/1x1"
  bottom: "inception_4c/3x3"
  bottom: "inception_4c/5x5"
  bottom: "inception_4c/pool_proj"
  top: "inception_4c/output"
}
layer {
  name: "inception_4d/1x1"
  type: "Convolution"
  bottom: "inception_4c/output"
  top: "inception_4d/1x1"
  param {
    lr_mult: 1
    decay_mult: 1
  }
  param {
    lr_mult: 2
    decay_mult: 0
  }
  convolution_param {
    num_output: 112
    kernel_size: 1
    weight_filler {
      type: "xavier"
    }
    bias_filler {
      type: "constant"
      value: 0.2
    }
  }
}
layer {
  name: "inception_4d/relu_1x1"
  type: "ReLU"
  bottom: "inception_4d/1x1"
  top: "inception_4d/1x1"
}
layer {
  name: "inception_4d/3x3_reduce"
  type: "Convolution"
  bottom: "inception_4c/output"
  top: "inception_4d/3x3_reduce"
  param {
    lr_mult: 1
    decay_mult: 1
  }
  param {
    lr_mult: 2
    decay_mult: 0
  }
  convolution_param {
    num_output: 144
    kernel_size: 1
    weight_filler {
      type: "xavier"
    }
    bias_filler {
      type: "constant"
      value: 0.2
    }
  }
}
layer {
  name: "inception_4d/relu_3x3_reduce"
  type: "ReLU"
  bottom: "inception_4d/3x3_reduce"
  top: "inception_4d/3x3_reduce"
}
layer {
  name: "inception_4d/3x3"
  type: "Convolution"
  bottom: "inception_4d/3x3_reduce"
  top: "inception_4d/3x3"
  param {
    lr_mult: 1
    decay_mult: 1
  }
  param {
    lr_mult: 2
    decay_mult: 0
  }
  convolution_param {
    num_output: 288
    pad: 1
    kernel_size: 3
    weight_filler {
      type: "xavier"
    }
    bias_filler {
      type: "constant"
      value: 0.2
    }
  }
}
layer {
  name: "inception_4d/relu_3x3"
  type: "ReLU"
  bottom: "inception_4d/3x3"
  top: "inception_4d/3x3"
}
layer {
  name: "inception_4d/5x5_reduce"
  type: "Convolution"
  bottom: "inception_4c/output"
  top: "inception_4d/5x5_reduce"
  param {
    lr_mult: 1
    decay_mult: 1
  }
  param {
    lr_mult: 2
    decay_mult: 0
  }
  convolution_param {
    num_output: 32
    kernel_size: 1
    weight_filler {
      type: "xavier"
    }
    bias_filler {
      type: "constant"
      value: 0.2
    }
  }
}
layer {
  name: "inception_4d/relu_5x5_reduce"
  type: "ReLU"
  bottom: "inception_4d/5x5_reduce"
  top: "inception_4d/5x5_reduce"
}
layer {
  name: "inception_4d/5x5"
  type: "Convolution"
  bottom: "inception_4d/5x5_reduce"
  top: "inception_4d/5x5"
  param {
    lr_mult: 1
    decay_mult: 1
  }
  param {
    lr_mult: 2
    decay_mult: 0
  }
  convolution_param {
    num_output: 64
    pad: 2
    kernel_size: 5
    weight_filler {
      type: "xavier"
    }
    bias_filler {
      type: "constant"
      value: 0.2
    }
  }
}
layer {
  name: "inception_4d/relu_5x5"
  type: "ReLU"
  bottom: "inception_4d/5x5"
  top: "inception_4d/5x5"
}
layer {
  name: "inception_4d/pool"
  type: "Pooling"
  bottom: "inception_4c/output"
  top: "inception_4d/pool"
  pooling_param {
    pool: MAX
    kernel_size: 3
    stride: 1
    pad: 1
  }
}
layer {
  name: "inception_4d/pool_proj"
  type: "Convolution"
  bottom: "inception_4d/pool"
  top: "inception_4d/pool_proj"
  param {
    lr_mult: 1
    decay_mult: 1
  }
  param {
    lr_mult: 2
    decay_mult: 0
  }
  convolution_param {
    num_output: 64
    kernel_size: 1
    weight_filler {
      type: "xavier"
    }
    bias_filler {
      type: "constant"
      value: 0.2
    }
  }
}
layer {
  name: "inception_4d/relu_pool_proj"
  type: "ReLU"
  bottom: "inception_4d/pool_proj"
  top: "inception_4d/pool_proj"
}
layer {
  name: "inception_4d/output"
  type: "Concat"
  bottom: "inception_4d/1x1"
  bottom: "inception_4d/3x3"
  bottom: "inception_4d/5x5"
  bottom: "inception_4d/pool_proj"
  top: "inception_4d/output"
}
layer {
  name: "loss2/ave_pool"
  type: "Pooling"
  bottom: "inception_4d/output"
  top: "loss2/ave_pool"
  pooling_param {
    pool: AVE
    kernel_size: 5
    stride: 3
  }
}
layer {
  name: "loss2/conv"
  type: "Convolution"
  bottom: "loss2/ave_pool"
  top: "loss2/conv"
  param {
    lr_mult: 1
    decay_mult: 1
  }
  param {
    lr_mult: 2
    decay_mult: 0
  }
  convolution_param {
    num_output: 128
    kernel_size: 1
    weight_filler {
      type: "xavier"
    }
    bias_filler {
      type: "constant"
      value: 0.2
    }
  }
}
layer {
  name: "loss2/relu_conv"
  type: "ReLU"
  bottom: "loss2/conv"
  top: "loss2/conv"
}
layer {
  name: "loss2/fc"
  type: "InnerProduct"
  bottom: "loss2/conv"
  top: "loss2/fc"
  param {
    lr_mult: 1
    decay_mult: 1
  }
  param {
    lr_mult: 2
    decay_mult: 0
  }
  inner_product_param {
    num_output: 1024
    weight_filler {
      type: "xavier"
    }
    bias_filler {
      type: "constant"
      value: 0.2
    }
  }
}
layer {
  name: "loss2/relu_fc"
  type: "ReLU"
  bottom: "loss2/fc"
  top: "loss2/fc"
}
layer {
  name: "loss2/drop_fc"
  type: "Dropout"
  bottom: "loss2/fc"
  top: "loss2/fc"
  dropout_param {
    dropout_ratio: 0.7
  }
}
layer {
  name: "loss2/classifier"
  type: "InnerProduct"
  bottom: "loss2/fc"
  top: "loss2/classifier"
  param {
    lr_mult: 1
    decay_mult: 1
  }
  param {
    lr_mult: 2
    decay_mult: 0
  }
  inner_product_param {
    num_output: 1000
    weight_filler {
      type: "xavier"
    }
    bias_filler {
      type: "constant"
      value: 0
    }
  }
}
layer {
  name: "loss2/loss"
  type: "SoftmaxWithLoss"
  bottom: "loss2/classifier"
  bottom: "label"
  top: "loss2/loss1"
  loss_weight: 0.3
}
layer {
  name: "inception_4e/1x1"
  type: "Convolution"
  bottom: "inception_4d/output"
  top: "inception_4e/1x1"
  param {
    lr_mult: 1
    decay_mult: 1
  }
  param {
    lr_mult: 2
    decay_mult: 0
  }
  convolution_param {
    num_output: 256
    kernel_size: 1
    weight_filler {
      type: "xavier"
    }
    bias_filler {
      type: "constant"
      value: 0.2
    }
  }
}
layer {
  name: "inception_4e/relu_1x1"
  type: "ReLU"
  bottom: "inception_4e/1x1"
  top: "inception_4e/1x1"
}
layer {
  name: "inception_4e/3x3_reduce"
  type: "Convolution"
  bottom: "inception_4d/output"
  top: "inception_4e/3x3_reduce"
  param {
    lr_mult: 1
    decay_mult: 1
  }
  param {
    lr_mult: 2
    decay_mult: 0
  }
  convolution_param {
    num_output: 160
    kernel_size: 1
    weight_filler {
      type: "xavier"
    }
    bias_filler {
      type: "constant"
      value: 0.2
    }
  }
}
layer {
  name: "inception_4e/relu_3x3_reduce"
  type: "ReLU"
  bottom: "inception_4e/3x3_reduce"
  top: "inception_4e/3x3_reduce"
}
layer {
  name: "inception_4e/3x3"
  type: "Convolution"
  bottom: "inception_4e/3x3_reduce"
  top: "inception_4e/3x3"
  param {
    lr_mult: 1
    decay_mult: 1
  }
  param {
    lr_mult: 2
    decay_mult: 0
  }
  convolution_param {
    num_output: 320
    pad: 1
    kernel_size: 3
    weight_filler {
      type: "xavier"
    }
    bias_filler {
      type: "constant"
      value: 0.2
    }
  }
}
layer {
  name: "inception_4e/relu_3x3"
  type: "ReLU"
  bottom: "inception_4e/3x3"
  top: "inception_4e/3x3"
}
layer {
  name: "inception_4e/5x5_reduce"
  type: "Convolution"
  bottom: "inception_4d/output"
  top: "inception_4e/5x5_reduce"
  param {
    lr_mult: 1
    decay_mult: 1
  }
  param {
    lr_mult: 2
    decay_mult: 0
  }
  convolution_param {
    num_output: 32
    kernel_size: 1
    weight_filler {
      type: "xavier"
    }
    bias_filler {
      type: "constant"
      value: 0.2
    }
  }
}
layer {
  name: "inception_4e/relu_5x5_reduce"
  type: "ReLU"
  bottom: "inception_4e/5x5_reduce"
  top: "inception_4e/5x5_reduce"
}
layer {
  name: "inception_4e/5x5"
  type: "Convolution"
  bottom: "inception_4e/5x5_reduce"
  top: "inception_4e/5x5"
  param {
    lr_mult: 1
    decay_mult: 1
  }
  param {
    lr_mult: 2
    decay_mult: 0
  }
  convolution_param {
    num_output: 128
    pad: 2
    kernel_size: 5
    weight_filler {
      type: "xavier"
    }
    bias_filler {
      type: "constant"
      value: 0.2
    }
  }
}
layer {
  name: "inception_4e/relu_5x5"
  type: "ReLU"
  bottom: "inception_4e/5x5"
  top: "inception_4e/5x5"
}
layer {
  name: "inception_4e/pool"
  type: "Pooling"
  bottom: "inception_4d/output"
  top: "inception_4e/pool"
  p
I0202 13:53:31.892976 100062 layer_factory.hpp:77] Creating layer data
I0202 13:53:31.894009 100062 net.cpp:100] Creating Layer data
I0202 13:53:31.894037 100062 net.cpp:408] data -> data
I0202 13:53:31.894068 100062 net.cpp:408] data -> label
I0202 13:53:31.894415 100063 db_lmdb.cpp:35] Opened lmdb /home/user/LIBRARIES/caffeLibs/caffe/examples/imagenet/ilsvrc12_train_lmdb
I0202 13:53:31.895290 100062 data_layer.cpp:41] output data size: 112,3,224,224
I0202 13:53:31.969826 100062 net.cpp:150] Setting up data
I0202 13:53:31.969856 100062 net.cpp:157] Top shape: 112 3 224 224 (16859136)
I0202 13:53:31.969862 100062 net.cpp:157] Top shape: 112 (112)
I0202 13:53:31.969867 100062 net.cpp:165] Memory required for data: 67436992
I0202 13:53:31.969877 100062 layer_factory.hpp:77] Creating layer label_data_1_split
I0202 13:53:31.969925 100062 net.cpp:100] Creating Layer label_data_1_split
I0202 13:53:31.969962 100062 net.cpp:434] label_data_1_split <- label
I0202 13:53:31.970031 100062 net.cpp:408] label_data_1_split -> label_data_1_split_0
I0202 13:53:31.970042 100062 net.cpp:408] label_data_1_split -> label_data_1_split_1
I0202 13:53:31.970049 100062 net.cpp:408] label_data_1_split -> label_data_1_split_2
I0202 13:53:31.970070 100062 net.cpp:150] Setting up label_data_1_split
I0202 13:53:31.970085 100062 net.cpp:157] Top shape: 112 (112)
I0202 13:53:31.970090 100062 net.cpp:157] Top shape: 112 (112)
I0202 13:53:31.970095 100062 net.cpp:157] Top shape: 112 (112)
I0202 13:53:31.970098 100062 net.cpp:165] Memory required for data: 67438336
I0202 13:53:31.970103 100062 layer_factory.hpp:77] Creating layer conv1/7x7_s2
I0202 13:53:31.970129 100062 net.cpp:100] Creating Layer conv1/7x7_s2
I0202 13:53:31.970134 100062 net.cpp:434] conv1/7x7_s2 <- data
I0202 13:53:31.970144 100062 net.cpp:408] conv1/7x7_s2 -> conv1/7x7_s2
I0202 13:53:31.970340 100062 net.cpp:150] Setting up conv1/7x7_s2
I0202 13:53:31.970350 100062 net.cpp:157] Top shape: 112 64 112 112 (89915392)
I0202 13:53:31.970352 100062 net.cpp:165] Memory required for data: 427099904
I0202 13:53:31.970371 100062 layer_factory.hpp:77] Creating layer conv1/relu_7x7
I0202 13:53:31.970379 100062 net.cpp:100] Creating Layer conv1/relu_7x7
I0202 13:53:31.970383 100062 net.cpp:434] conv1/relu_7x7 <- conv1/7x7_s2
I0202 13:53:31.970392 100062 net.cpp:395] conv1/relu_7x7 -> conv1/7x7_s2 (in-place)
I0202 13:53:31.970402 100062 net.cpp:150] Setting up conv1/relu_7x7
I0202 13:53:31.970407 100062 net.cpp:157] Top shape: 112 64 112 112 (89915392)
I0202 13:53:31.970410 100062 net.cpp:165] Memory required for data: 786761472
I0202 13:53:31.970414 100062 layer_factory.hpp:77] Creating layer pool1/3x3_s2
I0202 13:53:31.970422 100062 net.cpp:100] Creating Layer pool1/3x3_s2
I0202 13:53:31.970425 100062 net.cpp:434] pool1/3x3_s2 <- conv1/7x7_s2
I0202 13:53:31.970430 100062 net.cpp:408] pool1/3x3_s2 -> pool1/3x3_s2
I0202 13:53:31.970453 100062 net.cpp:150] Setting up pool1/3x3_s2
I0202 13:53:31.970458 100062 net.cpp:157] Top shape: 112 64 56 56 (22478848)
I0202 13:53:31.970463 100062 net.cpp:165] Memory required for data: 876676864
I0202 13:53:31.970465 100062 layer_factory.hpp:77] Creating layer pool1/norm1
I0202 13:53:31.970474 100062 net.cpp:100] Creating Layer pool1/norm1
I0202 13:53:31.970479 100062 net.cpp:434] pool1/norm1 <- pool1/3x3_s2
I0202 13:53:31.970486 100062 net.cpp:408] pool1/norm1 -> pool1/norm1
I0202 13:53:31.970497 100062 net.cpp:150] Setting up pool1/norm1
I0202 13:53:31.970504 100062 net.cpp:157] Top shape: 112 64 56 56 (22478848)
I0202 13:53:31.970506 100062 net.cpp:165] Memory required for data: 966592256
I0202 13:53:31.970510 100062 layer_factory.hpp:77] Creating layer conv2/3x3_reduce
I0202 13:53:31.970520 100062 net.cpp:100] Creating Layer conv2/3x3_reduce
I0202 13:53:31.970525 100062 net.cpp:434] conv2/3x3_reduce <- pool1/norm1
I0202 13:53:31.970533 100062 net.cpp:408] conv2/3x3_reduce -> conv2/3x3_reduce
I0202 13:53:31.970597 100062 net.cpp:150] Setting up conv2/3x3_reduce
I0202 13:53:31.970603 100062 net.cpp:157] Top shape: 112 64 56 56 (22478848)
I0202 13:53:31.970607 100062 net.cpp:165] Memory required for data: 1056507648
I0202 13:53:31.970615 100062 layer_factory.hpp:77] Creating layer conv2/relu_3x3_reduce
I0202 13:53:31.970621 100062 net.cpp:100] Creating Layer conv2/relu_3x3_reduce
I0202 13:53:31.970635 100062 net.cpp:434] conv2/relu_3x3_reduce <- conv2/3x3_reduce
I0202 13:53:31.970641 100062 net.cpp:395] conv2/relu_3x3_reduce -> conv2/3x3_reduce (in-place)
I0202 13:53:31.970649 100062 net.cpp:150] Setting up conv2/relu_3x3_reduce
I0202 13:53:31.970654 100062 net.cpp:157] Top shape: 112 64 56 56 (22478848)
I0202 13:53:31.970657 100062 net.cpp:165] Memory required for data: 1146423040
I0202 13:53:31.970661 100062 layer_factory.hpp:77] Creating layer conv2/3x3
I0202 13:53:31.970680 100062 net.cpp:100] Creating Layer conv2/3x3
I0202 13:53:31.970685 100062 net.cpp:434] conv2/3x3 <- conv2/3x3_reduce
I0202 13:53:31.970691 100062 net.cpp:408] conv2/3x3 -> conv2/3x3
I0202 13:53:31.971742 100062 net.cpp:150] Setting up conv2/3x3
I0202 13:53:31.971752 100062 net.cpp:157] Top shape: 112 192 56 56 (67436544)
I0202 13:53:31.971756 100062 net.cpp:165] Memory required for data: 1416169216
I0202 13:53:31.971765 100062 layer_factory.hpp:77] Creating layer conv2/relu_3x3
I0202 13:53:31.971779 100062 net.cpp:100] Creating Layer conv2/relu_3x3
I0202 13:53:31.971791 100062 net.cpp:434] conv2/relu_3x3 <- conv2/3x3
I0202 13:53:31.971796 100062 net.cpp:395] conv2/relu_3x3 -> conv2/3x3 (in-place)
I0202 13:53:31.971803 100062 net.cpp:150] Setting up conv2/relu_3x3
I0202 13:53:31.971808 100062 net.cpp:157] Top shape: 112 192 56 56 (67436544)
I0202 13:53:31.971812 100062 net.cpp:165] Memory required for data: 1685915392
I0202 13:53:31.971817 100062 layer_factory.hpp:77] Creating layer conv2/norm2
I0202 13:53:31.971824 100062 net.cpp:100] Creating Layer conv2/norm2
I0202 13:53:31.971828 100062 net.cpp:434] conv2/norm2 <- conv2/3x3
I0202 13:53:31.971833 100062 net.cpp:408] conv2/norm2 -> conv2/norm2
I0202 13:53:31.971842 100062 net.cpp:150] Setting up conv2/norm2
I0202 13:53:31.971848 100062 net.cpp:157] Top shape: 112 192 56 56 (67436544)
I0202 13:53:31.971850 100062 net.cpp:165] Memory required for data: 1955661568
I0202 13:53:31.971854 100062 layer_factory.hpp:77] Creating layer pool2/3x3_s2
I0202 13:53:31.971863 100062 net.cpp:100] Creating Layer pool2/3x3_s2
I0202 13:53:31.971868 100062 net.cpp:434] pool2/3x3_s2 <- conv2/norm2
I0202 13:53:31.971873 100062 net.cpp:408] pool2/3x3_s2 -> pool2/3x3_s2
I0202 13:53:31.971880 100062 net.cpp:150] Setting up pool2/3x3_s2
I0202 13:53:31.971886 100062 net.cpp:157] Top shape: 112 192 28 28 (16859136)
I0202 13:53:31.971889 100062 net.cpp:165] Memory required for data: 2023098112
I0202 13:53:31.971894 100062 layer_factory.hpp:77] Creating layer pool2/3x3_s2_pool2/3x3_s2_0_split
I0202 13:53:31.971899 100062 net.cpp:100] Creating Layer pool2/3x3_s2_pool2/3x3_s2_0_split
I0202 13:53:31.971904 100062 net.cpp:434] pool2/3x3_s2_pool2/3x3_s2_0_split <- pool2/3x3_s2
I0202 13:53:31.971909 100062 net.cpp:408] pool2/3x3_s2_pool2/3x3_s2_0_split -> pool2/3x3_s2_pool2/3x3_s2_0_split_0
I0202 13:53:31.971917 100062 net.cpp:408] pool2/3x3_s2_pool2/3x3_s2_0_split -> pool2/3x3_s2_pool2/3x3_s2_0_split_1
I0202 13:53:31.971925 100062 net.cpp:408] pool2/3x3_s2_pool2/3x3_s2_0_split -> pool2/3x3_s2_pool2/3x3_s2_0_split_2
I0202 13:53:31.971930 100062 net.cpp:408] pool2/3x3_s2_pool2/3x3_s2_0_split -> pool2/3x3_s2_pool2/3x3_s2_0_split_3
I0202 13:53:31.971937 100062 net.cpp:150] Setting up pool2/3x3_s2_pool2/3x3_s2_0_split
I0202 13:53:31.971942 100062 net.cpp:157] Top shape: 112 192 28 28 (16859136)
I0202 13:53:31.971947 100062 net.cpp:157] Top shape: 112 192 28 28 (16859136)
I0202 13:53:31.971952 100062 net.cpp:157] Top shape: 112 192 28 28 (16859136)
I0202 13:53:31.971956 100062 net.cpp:157] Top shape: 112 192 28 28 (16859136)
I0202 13:53:31.971961 100062 net.cpp:165] Memory required for data: 2292844288
I0202 13:53:31.971963 100062 layer_factory.hpp:77] Creating layer inception_3a/1x1
I0202 13:53:31.971971 100062 net.cpp:100] Creating Layer inception_3a/1x1
I0202 13:53:31.971976 100062 net.cpp:434] inception_3a/1x1 <- pool2/3x3_s2_pool2/3x3_s2_0_split_0
I0202 13:53:31.971984 100062 net.cpp:408] inception_3a/1x1 -> inception_3a/1x1
I0202 13:53:31.972156 100062 net.cpp:150] Setting up inception_3a/1x1
I0202 13:53:31.972164 100062 net.cpp:157] Top shape: 112 64 28 28 (5619712)
I0202 13:53:31.972168 100062 net.cpp:165] Memory required for data: 2315323136
I0202 13:53:31.972175 100062 layer_factory.hpp:77] Creating layer inception_3a/relu_1x1
I0202 13:53:31.972184 100062 net.cpp:100] Creating Layer inception_3a/relu_1x1
I0202 13:53:31.972188 100062 net.cpp:434] inception_3a/relu_1x1 <- inception_3a/1x1
I0202 13:53:31.972194 100062 net.cpp:395] inception_3a/relu_1x1 -> inception_3a/1x1 (in-place)
I0202 13:53:31.972200 100062 net.cpp:150] Setting up inception_3a/relu_1x1
I0202 13:53:31.972206 100062 net.cpp:157] Top shape: 112 64 28 28 (5619712)
I0202 13:53:31.972210 100062 net.cpp:165] Memory required for data: 2337801984
I0202 13:53:31.972213 100062 layer_factory.hpp:77] Creating layer inception_3a/3x3_reduce
I0202 13:53:31.972225 100062 net.cpp:100] Creating Layer inception_3a/3x3_reduce
I0202 13:53:31.972229 100062 net.cpp:434] inception_3a/3x3_reduce <- pool2/3x3_s2_pool2/3x3_s2_0_split_1
I0202 13:53:31.972244 100062 net.cpp:408] inception_3a/3x3_reduce -> inception_3a/3x3_reduce
I0202 13:53:31.972439 100062 net.cpp:150] Setting up inception_3a/3x3_reduce
I0202 13:53:31.972445 100062 net.cpp:157] Top shape: 112 96 28 28 (8429568)
I0202 13:53:31.972450 100062 net.cpp:165] Memory required for data: 2371520256
I0202 13:53:31.972458 100062 layer_factory.hpp:77] Creating layer inception_3a/relu_3x3_reduce
I0202 13:53:31.972468 100062 net.cpp:100] Creating Layer inception_3a/relu_3x3_reduce
I0202 13:53:31.972472 100062 net.cpp:434] inception_3a/relu_3x3_reduce <- inception_3a/3x3_reduce
I0202 13:53:31.972481 100062 net.cpp:395] inception_3a/relu_3x3_reduce -> inception_3a/3x3_reduce (in-place)
I0202 13:53:31.972486 100062 net.cpp:150] Setting up inception_3a/relu_3x3_reduce
I0202 13:53:31.972492 100062 net.cpp:157] Top shape: 112 96 28 28 (8429568)
I0202 13:53:31.972496 100062 net.cpp:165] Memory required for data: 2405238528
I0202 13:53:31.972498 100062 layer_factory.hpp:77] Creating layer inception_3a/3x3
I0202 13:53:31.972506 100062 net.cpp:100] Creating Layer inception_3a/3x3
I0202 13:53:31.972509 100062 net.cpp:434] inception_3a/3x3 <- inception_3a/3x3_reduce
I0202 13:53:31.972517 100062 net.cpp:408] inception_3a/3x3 -> inception_3a/3x3
I0202 13:53:31.973575 100062 net.cpp:150] Setting up inception_3a/3x3
I0202 13:53:31.973587 100062 net.cpp:157] Top shape: 112 128 28 28 (11239424)
I0202 13:53:31.973592 100062 net.cpp:165] Memory required for data: 2450196224
I0202 13:53:31.973599 100062 layer_factory.hpp:77] Creating layer inception_3a/relu_3x3
I0202 13:53:31.973606 100062 net.cpp:100] Creating Layer inception_3a/relu_3x3
I0202 13:53:31.973610 100062 net.cpp:434] inception_3a/relu_3x3 <- inception_3a/3x3
I0202 13:53:31.973618 100062 net.cpp:395] inception_3a/relu_3x3 -> inception_3a/3x3 (in-place)
I0202 13:53:31.973631 100062 net.cpp:150] Setting up inception_3a/relu_3x3
I0202 13:53:31.973639 100062 net.cpp:157] Top shape: 112 128 28 28 (11239424)
I0202 13:53:31.973642 100062 net.cpp:165] Memory required for data: 2495153920
I0202 13:53:31.973646 100062 layer_factory.hpp:77] Creating layer inception_3a/5x5_reduce
I0202 13:53:31.973656 100062 net.cpp:100] Creating Layer inception_3a/5x5_reduce
I0202 13:53:31.973661 100062 net.cpp:434] inception_3a/5x5_reduce <- pool2/3x3_s2_pool2/3x3_s2_0_split_2
I0202 13:53:31.973667 100062 net.cpp:408] inception_3a/5x5_reduce -> inception_3a/5x5_reduce
I0202 13:53:31.973721 100062 net.cpp:150] Setting up inception_3a/5x5_reduce
I0202 13:53:31.973727 100062 net.cpp:157] Top shape: 112 16 28 28 (1404928)
I0202 13:53:31.973731 100062 net.cpp:165] Memory required for data: 2500773632
I0202 13:53:31.973737 100062 layer_factory.hpp:77] Creating layer inception_3a/relu_5x5_reduce
I0202 13:53:31.973742 100062 net.cpp:100] Creating Layer inception_3a/relu_5x5_reduce
I0202 13:53:31.973747 100062 net.cpp:434] inception_3a/relu_5x5_reduce <- inception_3a/5x5_reduce
I0202 13:53:31.973752 100062 net.cpp:395] inception_3a/relu_5x5_reduce -> inception_3a/5x5_reduce (in-place)
I0202 13:53:31.973757 100062 net.cpp:150] Setting up inception_3a/relu_5x5_reduce
I0202 13:53:31.973762 100062 net.cpp:157] Top shape: 112 16 28 28 (1404928)
I0202 13:53:31.973767 100062 net.cpp:165] Memory required for data: 2506393344
I0202 13:53:31.973769 100062 layer_factory.hpp:77] Creating layer inception_3a/5x5
I0202 13:53:31.973779 100062 net.cpp:100] Creating Layer inception_3a/5x5
I0202 13:53:31.973783 100062 net.cpp:434] inception_3a/5x5 <- inception_3a/5x5_reduce
I0202 13:53:31.973789 100062 net.cpp:408] inception_3a/5x5 -> inception_3a/5x5
I0202 13:53:31.973922 100062 net.cpp:150] Setting up inception_3a/5x5
I0202 13:53:31.973927 100062 net.cpp:157] Top shape: 112 32 28 28 (2809856)
I0202 13:53:31.973930 100062 net.cpp:165] Memory required for data: 2517632768
I0202 13:53:31.973937 100062 layer_factory.hpp:77] Creating layer inception_3a/relu_5x5
I0202 13:53:31.973942 100062 net.cpp:100] Creating Layer inception_3a/relu_5x5
I0202 13:53:31.973945 100062 net.cpp:434] inception_3a/relu_5x5 <- inception_3a/5x5
I0202 13:53:31.973958 100062 net.cpp:395] inception_3a/relu_5x5 -> inception_3a/5x5 (in-place)
I0202 13:53:31.973971 100062 net.cpp:150] Setting up inception_3a/relu_5x5
I0202 13:53:31.973976 100062 net.cpp:157] Top shape: 112 32 28 28 (2809856)
I0202 13:53:31.973980 100062 net.cpp:165] Memory required for data: 2528872192
I0202 13:53:31.973984 100062 layer_factory.hpp:77] Creating layer inception_3a/pool
I0202 13:53:31.973992 100062 net.cpp:100] Creating Layer inception_3a/pool
I0202 13:53:31.973996 100062 net.cpp:434] inception_3a/pool <- pool2/3x3_s2_pool2/3x3_s2_0_split_3
I0202 13:53:31.974002 100062 net.cpp:408] inception_3a/pool -> inception_3a/pool
I0202 13:53:31.974012 100062 net.cpp:150] Setting up inception_3a/pool
I0202 13:53:31.974017 100062 net.cpp:157] Top shape: 112 192 28 28 (16859136)
I0202 13:53:31.974021 100062 net.cpp:165] Memory required for data: 2596308736
I0202 13:53:31.974025 100062 layer_factory.hpp:77] Creating layer inception_3a/pool_proj
I0202 13:53:31.974035 100062 net.cpp:100] Creating Layer inception_3a/pool_proj
I0202 13:53:31.974038 100062 net.cpp:434] inception_3a/pool_proj <- inception_3a/pool
I0202 13:53:31.974046 100062 net.cpp:408] inception_3a/pool_proj -> inception_3a/pool_proj
I0202 13:53:31.974120 100062 net.cpp:150] Setting up inception_3a/pool_proj
I0202 13:53:31.974125 100062 net.cpp:157] Top shape: 112 32 28 28 (2809856)
I0202 13:53:31.974129 100062 net.cpp:165] Memory required for data: 2607548160
I0202 13:53:31.974141 100062 layer_factory.hpp:77] Creating layer inception_3a/relu_pool_proj
I0202 13:53:31.974148 100062 net.cpp:100] Creating Layer inception_3a/relu_pool_proj
I0202 13:53:31.974151 100062 net.cpp:434] inception_3a/relu_pool_proj <- inception_3a/pool_proj
I0202 13:53:31.974158 100062 net.cpp:395] inception_3a/relu_pool_proj -> inception_3a/pool_proj (in-place)
I0202 13:53:31.974164 100062 net.cpp:150] Setting up inception_3a/relu_pool_proj
I0202 13:53:31.974169 100062 net.cpp:157] Top shape: 112 32 28 28 (2809856)
I0202 13:53:31.974171 100062 net.cpp:165] Memory required for data: 2618787584
I0202 13:53:31.974175 100062 layer_factory.hpp:77] Creating layer inception_3a/output
I0202 13:53:31.974184 100062 net.cpp:100] Creating Layer inception_3a/output
I0202 13:53:31.974187 100062 net.cpp:434] inception_3a/output <- inception_3a/1x1
I0202 13:53:31.974192 100062 net.cpp:434] inception_3a/output <- inception_3a/3x3
I0202 13:53:31.974197 100062 net.cpp:434] inception_3a/output <- inception_3a/5x5
I0202 13:53:31.974201 100062 net.cpp:434] inception_3a/output <- inception_3a/pool_proj
I0202 13:53:31.974210 100062 net.cpp:408] inception_3a/output -> inception_3a/output
I0202 13:53:31.974222 100062 net.cpp:150] Setting up inception_3a/output
I0202 13:53:31.974228 100062 net.cpp:157] Top shape: 112 256 28 28 (22478848)
I0202 13:53:31.974231 100062 net.cpp:165] Memory required for data: 2708702976
I0202 13:53:31.974236 100062 layer_factory.hpp:77] Creating layer inception_3a/output_inception_3a/output_0_split
I0202 13:53:31.974241 100062 net.cpp:100] Creating Layer inception_3a/output_inception_3a/output_0_split
I0202 13:53:31.974246 100062 net.cpp:434] inception_3a/output_inception_3a/output_0_split <- inception_3a/output
I0202 13:53:31.974254 100062 net.cpp:408] inception_3a/output_inception_3a/output_0_split -> inception_3a/output_inception_3a/output_0_split_0
I0202 13:53:31.974261 100062 net.cpp:408] inception_3a/output_inception_3a/output_0_split -> inception_3a/output_inception_3a/output_0_split_1
I0202 13:53:31.974267 100062 net.cpp:408] inception_3a/output_inception_3a/output_0_split -> inception_3a/output_inception_3a/output_0_split_2
I0202 13:53:31.974273 100062 net.cpp:408] inception_3a/output_inception_3a/output_0_split -> inception_3a/output_inception_3a/output_0_split_3
I0202 13:53:31.974282 100062 net.cpp:150] Setting up inception_3a/output_inception_3a/output_0_split
I0202 13:53:31.974287 100062 net.cpp:157] Top shape: 112 256 28 28 (22478848)
I0202 13:53:31.974292 100062 net.cpp:157] Top shape: 112 256 28 28 (22478848)
I0202 13:53:31.974299 100062 net.cpp:157] Top shape: 112 256 28 28 (22478848)
I0202 13:53:31.974309 100062 net.cpp:157] Top shape: 112 256 28 28 (22478848)
I0202 13:53:31.974313 100062 net.cpp:165] Memory required for data: 3068364544
I0202 13:53:31.974316 100062 layer_factory.hpp:77] Creating layer inception_3b/1x1
I0202 13:53:31.974328 100062 net.cpp:100] Creating Layer inception_3b/1x1
I0202 13:53:31.974331 100062 net.cpp:434] inception_3b/1x1 <- inception_3a/output_inception_3a/output_0_split_0
I0202 13:53:31.974339 100062 net.cpp:408] inception_3b/1x1 -> inception_3b/1x1
I0202 13:53:31.974666 100062 net.cpp:150] Setting up inception_3b/1x1
I0202 13:53:31.974676 100062 net.cpp:157] Top shape: 112 128 28 28 (11239424)
I0202 13:53:31.974679 100062 net.cpp:165] Memory required for data: 3113322240
I0202 13:53:31.974686 100062 layer_factory.hpp:77] Creating layer inception_3b/relu_1x1
I0202 13:53:31.974692 100062 net.cpp:100] Creating Layer inception_3b/relu_1x1
I0202 13:53:31.974696 100062 net.cpp:434] inception_3b/relu_1x1 <- inception_3b/1x1
I0202 13:53:31.974702 100062 net.cpp:395] inception_3b/relu_1x1 -> inception_3b/1x1 (in-place)
I0202 13:53:31.974709 100062 net.cpp:150] Setting up inception_3b/relu_1x1
I0202 13:53:31.974714 100062 net.cpp:157] Top shape: 112 128 28 28 (11239424)
I0202 13:53:31.974717 100062 net.cpp:165] Memory required for data: 3158279936
I0202 13:53:31.974720 100062 layer_factory.hpp:77] Creating layer inception_3b/3x3_reduce
I0202 13:53:31.974730 100062 net.cpp:100] Creating Layer inception_3b/3x3_reduce
I0202 13:53:31.974735 100062 net.cpp:434] inception_3b/3x3_reduce <- inception_3a/output_inception_3a/output_0_split_1
I0202 13:53:31.974743 100062 net.cpp:408] inception_3b/3x3_reduce -> inception_3b/3x3_reduce
I0202 13:53:31.975095 100062 net.cpp:150] Setting up inception_3b/3x3_reduce
I0202 13:53:31.975105 100062 net.cpp:157] Top shape: 112 128 28 28 (11239424)
I0202 13:53:31.975107 100062 net.cpp:165] Memory required for data: 3203237632
I0202 13:53:31.975114 100062 layer_factory.hpp:77] Creating layer inception_3b/relu_3x3_reduce
I0202 13:53:31.975122 100062 net.cpp:100] Creating Layer inception_3b/relu_3x3_reduce
I0202 13:53:31.975127 100062 net.cpp:434] inception_3b/relu_3x3_reduce <- inception_3b/3x3_reduce
I0202 13:53:31.975132 100062 net.cpp:395] inception_3b/relu_3x3_reduce -> inception_3b/3x3_reduce (in-place)
I0202 13:53:31.975139 100062 net.cpp:150] Setting up inception_3b/relu_3x3_reduce
I0202 13:53:31.975144 100062 net.cpp:157] Top shape: 112 128 28 28 (11239424)
I0202 13:53:31.975147 100062 net.cpp:165] Memory required for data: 3248195328
I0202 13:53:31.975152 100062 layer_factory.hpp:77] Creating layer inception_3b/3x3
I0202 13:53:31.975163 100062 net.cpp:100] Creating Layer inception_3b/3x3
I0202 13:53:31.975169 100062 net.cpp:434] inception_3b/3x3 <- inception_3b/3x3_reduce
I0202 13:53:31.975177 100062 net.cpp:408] inception_3b/3x3 -> inception_3b/3x3
I0202 13:53:31.977274 100062 net.cpp:150] Setting up inception_3b/3x3
I0202 13:53:31.977286 100062 net.cpp:157] Top shape: 112 192 28 28 (16859136)
I0202 13:53:31.977290 100062 net.cpp:165] Memory required for data: 3315631872
I0202 13:53:31.977298 100062 layer_factory.hpp:77] Creating layer inception_3b/relu_3x3
I0202 13:53:31.977305 100062 net.cpp:100] Creating Layer inception_3b/relu_3x3
I0202 13:53:31.977309 100062 net.cpp:434] inception_3b/relu_3x3 <- inception_3b/3x3
I0202 13:53:31.977315 100062 net.cpp:395] inception_3b/relu_3x3 -> inception_3b/3x3 (in-place)
I0202 13:53:31.977322 100062 net.cpp:150] Setting up inception_3b/relu_3x3
I0202 13:53:31.977327 100062 net.cpp:157] Top shape: 112 192 28 28 (16859136)
I0202 13:53:31.977331 100062 net.cpp:165] Memory required for data: 3383068416
I0202 13:53:31.977334 100062 layer_factory.hpp:77] Creating layer inception_3b/5x5_reduce
I0202 13:53:31.977345 100062 net.cpp:100] Creating Layer inception_3b/5x5_reduce
I0202 13:53:31.977349 100062 net.cpp:434] inception_3b/5x5_reduce <- inception_3a/output_inception_3a/output_0_split_2
I0202 13:53:31.977358 100062 net.cpp:408] inception_3b/5x5_reduce -> inception_3b/5x5_reduce
I0202 13:53:31.977460 100062 net.cpp:150] Setting up inception_3b/5x5_reduce
I0202 13:53:31.977468 100062 net.cpp:157] Top shape: 112 32 28 28 (2809856)
I0202 13:53:31.977471 100062 net.cpp:165] Memory required for data: 3394307840
I0202 13:53:31.977478 100062 layer_factory.hpp:77] Creating layer inception_3b/relu_5x5_reduce
I0202 13:53:31.977483 100062 net.cpp:100] Creating Layer inception_3b/relu_5x5_reduce
I0202 13:53:31.977488 100062 net.cpp:434] inception_3b/relu_5x5_reduce <- inception_3b/5x5_reduce
I0202 13:53:31.977494 100062 net.cpp:395] inception_3b/relu_5x5_reduce -> inception_3b/5x5_reduce (in-place)
I0202 13:53:31.977500 100062 net.cpp:150] Setting up inception_3b/relu_5x5_reduce
I0202 13:53:31.977505 100062 net.cpp:157] Top shape: 112 32 28 28 (2809856)
I0202 13:53:31.977509 100062 net.cpp:165] Memory required for data: 3405547264
I0202 13:53:31.977512 100062 layer_factory.hpp:77] Creating layer inception_3b/5x5
I0202 13:53:31.977519 100062 net.cpp:100] Creating Layer inception_3b/5x5
I0202 13:53:31.977524 100062 net.cpp:434] inception_3b/5x5 <- inception_3b/5x5_reduce
I0202 13:53:31.977532 100062 net.cpp:408] inception_3b/5x5 -> inception_3b/5x5
I0202 13:53:31.978296 100062 net.cpp:150] Setting up inception_3b/5x5
I0202 13:53:31.978307 100062 net.cpp:157] Top shape: 112 96 28 28 (8429568)
I0202 13:53:31.978310 100062 net.cpp:165] Memory required for data: 3439265536
I0202 13:53:31.978317 100062 layer_factory.hpp:77] Creating layer inception_3b/relu_5x5
I0202 13:53:31.978323 100062 net.cpp:100] Creating Layer inception_3b/relu_5x5
I0202 13:53:31.978327 100062 net.cpp:434] inception_3b/relu_5x5 <- inception_3b/5x5
I0202 13:53:31.978335 100062 net.cpp:395] inception_3b/relu_5x5 -> inception_3b/5x5 (in-place)
I0202 13:53:31.978343 100062 net.cpp:150] Setting up inception_3b/relu_5x5
I0202 13:53:31.978348 100062 net.cpp:157] Top shape: 112 96 28 28 (8429568)
I0202 13:53:31.978351 100062 net.cpp:165] Memory required for data: 3472983808
I0202 13:53:31.978355 100062 layer_factory.hpp:77] Creating layer inception_3b/pool
I0202 13:53:31.978361 100062 net.cpp:100] Creating Layer inception_3b/pool
I0202 13:53:31.978365 100062 net.cpp:434] inception_3b/pool <- inception_3a/output_inception_3a/output_0_split_3
I0202 13:53:31.978371 100062 net.cpp:408] inception_3b/pool -> inception_3b/pool
I0202 13:53:31.978380 100062 net.cpp:150] Setting up inception_3b/pool
I0202 13:53:31.978385 100062 net.cpp:157] Top shape: 112 256 28 28 (22478848)
I0202 13:53:31.978389 100062 net.cpp:165] Memory required for data: 3562899200
I0202 13:53:31.978392 100062 layer_factory.hpp:77] Creating layer inception_3b/pool_proj
I0202 13:53:31.978404 100062 net.cpp:100] Creating Layer inception_3b/pool_proj
I0202 13:53:31.978409 100062 net.cpp:434] inception_3b/pool_proj <- inception_3b/pool
I0202 13:53:31.978415 100062 net.cpp:408] inception_3b/pool_proj -> inception_3b/pool_proj
I0202 13:53:31.978579 100062 net.cpp:150] Setting up inception_3b/pool_proj
I0202 13:53:31.978588 100062 net.cpp:157] Top shape: 112 64 28 28 (5619712)
I0202 13:53:31.978592 100062 net.cpp:165] Memory required for data: 3585378048
I0202 13:53:31.978598 100062 layer_factory.hpp:77] Creating layer inception_3b/relu_pool_proj
I0202 13:53:31.978603 100062 net.cpp:100] Creating Layer inception_3b/relu_pool_proj
I0202 13:53:31.978608 100062 net.cpp:434] inception_3b/relu_pool_proj <- inception_3b/pool_proj
I0202 13:53:31.978613 100062 net.cpp:395] inception_3b/relu_pool_proj -> inception_3b/pool_proj (in-place)
I0202 13:53:31.978619 100062 net.cpp:150] Setting up inception_3b/relu_pool_proj
I0202 13:53:31.978629 100062 net.cpp:157] Top shape: 112 64 28 28 (5619712)
I0202 13:53:31.978636 100062 net.cpp:165] Memory required for data: 3607856896
I0202 13:53:31.978638 100062 layer_factory.hpp:77] Creating layer inception_3b/output
I0202 13:53:31.978644 100062 net.cpp:100] Creating Layer inception_3b/output
I0202 13:53:31.978648 100062 net.cpp:434] inception_3b/output <- inception_3b/1x1
I0202 13:53:31.978653 100062 net.cpp:434] inception_3b/output <- inception_3b/3x3
I0202 13:53:31.978662 100062 net.cpp:434] inception_3b/output <- inception_3b/5x5
I0202 13:53:31.978673 100062 net.cpp:434] inception_3b/output <- inception_3b/pool_proj
I0202 13:53:31.978682 100062 net.cpp:408] inception_3b/output -> inception_3b/output
I0202 13:53:31.978691 100062 net.cpp:150] Setting up inception_3b/output
I0202 13:53:31.978696 100062 net.cpp:157] Top shape: 112 480 28 28 (42147840)
I0202 13:53:31.978700 100062 net.cpp:165] Memory required for data: 3776448256
I0202 13:53:31.978703 100062 layer_factory.hpp:77] Creating layer pool3/3x3_s2
I0202 13:53:31.978713 100062 net.cpp:100] Creating Layer pool3/3x3_s2
I0202 13:53:31.978716 100062 net.cpp:434] pool3/3x3_s2 <- inception_3b/output
I0202 13:53:31.978723 100062 net.cpp:408] pool3/3x3_s2 -> pool3/3x3_s2
I0202 13:53:31.978730 100062 net.cpp:150] Setting up pool3/3x3_s2
I0202 13:53:31.978735 100062 net.cpp:157] Top shape: 112 480 14 14 (10536960)
I0202 13:53:31.978739 100062 net.cpp:165] Memory required for data: 3818596096
I0202 13:53:31.978744 100062 layer_factory.hpp:77] Creating layer pool3/3x3_s2_pool3/3x3_s2_0_split
I0202 13:53:31.978750 100062 net.cpp:100] Creating Layer pool3/3x3_s2_pool3/3x3_s2_0_split
I0202 13:53:31.978754 100062 net.cpp:434] pool3/3x3_s2_pool3/3x3_s2_0_split <- pool3/3x3_s2
I0202 13:53:31.978760 100062 net.cpp:408] pool3/3x3_s2_pool3/3x3_s2_0_split -> pool3/3x3_s2_pool3/3x3_s2_0_split_0
I0202 13:53:31.978766 100062 net.cpp:408] pool3/3x3_s2_pool3/3x3_s2_0_split -> pool3/3x3_s2_pool3/3x3_s2_0_split_1
I0202 13:53:31.978775 100062 net.cpp:408] pool3/3x3_s2_pool3/3x3_s2_0_split -> pool3/3x3_s2_pool3/3x3_s2_0_split_2
I0202 13:53:31.978781 100062 net.cpp:408] pool3/3x3_s2_pool3/3x3_s2_0_split -> pool3/3x3_s2_pool3/3x3_s2_0_split_3
I0202 13:53:31.978790 100062 net.cpp:150] Setting up pool3/3x3_s2_pool3/3x3_s2_0_split
I0202 13:53:31.978795 100062 net.cpp:157] Top shape: 112 480 14 14 (10536960)
I0202 13:53:31.978799 100062 net.cpp:157] Top shape: 112 480 14 14 (10536960)
I0202 13:53:31.978803 100062 net.cpp:157] Top shape: 112 480 14 14 (10536960)
I0202 13:53:31.978808 100062 net.cpp:157] Top shape: 112 480 14 14 (10536960)
I0202 13:53:31.978811 100062 net.cpp:165] Memory required for data: 3987187456
I0202 13:53:31.978816 100062 layer_factory.hpp:77] Creating layer inception_4a/1x1
I0202 13:53:31.978824 100062 net.cpp:100] Creating Layer inception_4a/1x1
I0202 13:53:31.978828 100062 net.cpp:434] inception_4a/1x1 <- pool3/3x3_s2_pool3/3x3_s2_0_split_0
I0202 13:53:31.978837 100062 net.cpp:408] inception_4a/1x1 -> inception_4a/1x1
I0202 13:53:31.979730 100062 net.cpp:150] Setting up inception_4a/1x1
I0202 13:53:31.979742 100062 net.cpp:157] Top shape: 112 192 14 14 (4214784)
I0202 13:53:31.979744 100062 net.cpp:165] Memory required for data: 4004046592
I0202 13:53:31.979751 100062 layer_factory.hpp:77] Creating layer inception_4a/relu_1x1
I0202 13:53:31.979758 100062 net.cpp:100] Creating Layer inception_4a/relu_1x1
I0202 13:53:31.979761 100062 net.cpp:434] inception_4a/relu_1x1 <- inception_4a/1x1
I0202 13:53:31.979775 100062 net.cpp:395] inception_4a/relu_1x1 -> inception_4a/1x1 (in-place)
I0202 13:53:31.979782 100062 net.cpp:150] Setting up inception_4a/relu_1x1
I0202 13:53:31.979787 100062 net.cpp:157] Top shape: 112 192 14 14 (4214784)
I0202 13:53:31.979791 100062 net.cpp:165] Memory required for data: 4020905728
I0202 13:53:31.979794 100062 layer_factory.hpp:77] Creating layer inception_4a/3x3_reduce
I0202 13:53:31.979804 100062 net.cpp:100] Creating Layer inception_4a/3x3_reduce
I0202 13:53:31.979809 100062 net.cpp:434] inception_4a/3x3_reduce <- pool3/3x3_s2_pool3/3x3_s2_0_split_1
I0202 13:53:31.979815 100062 net.cpp:408] inception_4a/3x3_reduce -> inception_4a/3x3_reduce
I0202 13:53:31.980271 100062 net.cpp:150] Setting up inception_4a/3x3_reduce
I0202 13:53:31.980279 100062 net.cpp:157] Top shape: 112 96 14 14 (2107392)
I0202 13:53:31.980283 100062 net.cpp:165] Memory required for data: 4029335296
I0202 13:53:31.980299 100062 layer_factory.hpp:77] Creating layer inception_4a/relu_3x3_reduce
I0202 13:53:31.980309 100062 net.cpp:100] Creating Layer inception_4a/relu_3x3_reduce
I0202 13:53:31.980324 100062 net.cpp:434] inception_4a/relu_3x3_reduce <- inception_4a/3x3_reduce
I0202 13:53:31.980329 100062 net.cpp:395] inception_4a/relu_3x3_reduce -> inception_4a/3x3_reduce (in-place)
I0202 13:53:31.980336 100062 net.cpp:150] Setting up inception_4a/relu_3x3_reduce
I0202 13:53:31.980341 100062 net.cpp:157] Top shape: 112 96 14 14 (2107392)
I0202 13:53:31.980345 100062 net.cpp:165] Memory required for data: 4037764864
I0202 13:53:31.980348 100062 layer_factory.hpp:77] Creating layer inception_4a/3x3
I0202 13:53:31.980358 100062 net.cpp:100] Creating Layer inception_4a/3x3
I0202 13:53:31.980362 100062 net.cpp:434] inception_4a/3x3 <- inception_4a/3x3_reduce
I0202 13:53:31.980370 100062 net.cpp:408] inception_4a/3x3 -> inception_4a/3x3
I0202 13:53:31.982071 100062 net.cpp:150] Setting up inception_4a/3x3
I0202 13:53:31.982084 100062 net.cpp:157] Top shape: 112 208 14 14 (4566016)
I0202 13:53:31.982086 100062 net.cpp:165] Memory required for data: 4056028928
I0202 13:53:31.982094 100062 layer_factory.hpp:77] Creating layer inception_4a/relu_3x3
I0202 13:53:31.982100 100062 net.cpp:100] Creating Layer inception_4a/relu_3x3
I0202 13:53:31.982105 100062 net.cpp:434] inception_4a/relu_3x3 <- inception_4a/3x3
I0202 13:53:31.982112 100062 net.cpp:395] inception_4a/relu_3x3 -> inception_4a/3x3 (in-place)
I0202 13:53:31.982120 100062 net.cpp:150] Setting up inception_4a/relu_3x3
I0202 13:53:31.982125 100062 net.cpp:157] Top shape: 112 208 14 14 (4566016)
I0202 13:53:31.982128 100062 net.cpp:165] Memory required for data: 4074292992
I0202 13:53:31.982131 100062 layer_factory.hpp:77] Creating layer inception_4a/5x5_reduce
I0202 13:53:31.982141 100062 net.cpp:100] Creating Layer inception_4a/5x5_reduce
I0202 13:53:31.982146 100062 net.cpp:434] inception_4a/5x5_reduce <- pool3/3x3_s2_pool3/3x3_s2_0_split_2
I0202 13:53:31.982151 100062 net.cpp:408] inception_4a/5x5_reduce -> inception_4a/5x5_reduce
I0202 13:53:31.982231 100062 net.cpp:150] Setting up inception_4a/5x5_reduce
I0202 13:53:31.982239 100062 net.cpp:157] Top shape: 112 16 14 14 (351232)
I0202 13:53:31.982242 100062 net.cpp:165] Memory required for data: 4075697920
I0202 13:53:31.982249 100062 layer_factory.hpp:77] Creating layer inception_4a/relu_5x5_reduce
I0202 13:53:31.982254 100062 net.cpp:100] Creating Layer inception_4a/relu_5x5_reduce
I0202 13:53:31.982259 100062 net.cpp:434] inception_4a/relu_5x5_reduce <- inception_4a/5x5_reduce
I0202 13:53:31.982264 100062 net.cpp:395] inception_4a/relu_5x5_reduce -> inception_4a/5x5_reduce (in-place)
I0202 13:53:31.982270 100062 net.cpp:150] Setting up inception_4a/relu_5x5_reduce
I0202 13:53:31.982275 100062 net.cpp:157] Top shape: 112 16 14 14 (351232)
I0202 13:53:31.982277 100062 net.cpp:165] Memory required for data: 4077102848
I0202 13:53:31.982281 100062 layer_factory.hpp:77] Creating layer inception_4a/5x5
I0202 13:53:31.982290 100062 net.cpp:100] Creating Layer inception_4a/5x5
I0202 13:53:31.982293 100062 net.cpp:434] inception_4a/5x5 <- inception_4a/5x5_reduce
I0202 13:53:31.982301 100062 net.cpp:408] inception_4a/5x5 -> inception_4a/5x5
I0202 13:53:31.982502 100062 net.cpp:150] Setting up inception_4a/5x5
I0202 13:53:31.982509 100062 net.cpp:157] Top shape: 112 48 14 14 (1053696)
I0202 13:53:31.982512 100062 net.cpp:165] Memory required for data: 4081317632
I0202 13:53:31.982519 100062 layer_factory.hpp:77] Creating layer inception_4a/relu_5x5
I0202 13:53:31.982527 100062 net.cpp:100] Creating Layer inception_4a/relu_5x5
I0202 13:53:31.982530 100062 net.cpp:434] inception_4a/relu_5x5 <- inception_4a/5x5
I0202 13:53:31.982535 100062 net.cpp:395] inception_4a/relu_5x5 -> inception_4a/5x5 (in-place)
I0202 13:53:31.982542 100062 net.cpp:150] Setting up inception_4a/relu_5x5
I0202 13:53:31.982547 100062 net.cpp:157] Top shape: 112 48 14 14 (1053696)
I0202 13:53:31.982550 100062 net.cpp:165] Memory required for data: 4085532416
I0202 13:53:31.982553 100062 layer_factory.hpp:77] Creating layer inception_4a/pool
I0202 13:53:31.982559 100062 net.cpp:100] Creating Layer inception_4a/pool
I0202 13:53:31.982579 100062 net.cpp:434] inception_4a/pool <- pool3/3x3_s2_pool3/3x3_s2_0_split_3
I0202 13:53:31.982589 100062 net.cpp:408] inception_4a/pool -> inception_4a/pool
I0202 13:53:31.982599 100062 net.cpp:150] Setting up inception_4a/pool
I0202 13:53:31.982604 100062 net.cpp:157] Top shape: 112 480 14 14 (10536960)
I0202 13:53:31.982609 100062 net.cpp:165] Memory required for data: 4127680256
I0202 13:53:31.982611 100062 layer_factory.hpp:77] Creating layer inception_4a/pool_proj
I0202 13:53:31.982621 100062 net.cpp:100] Creating Layer inception_4a/pool_proj
I0202 13:53:31.982632 100062 net.cpp:434] inception_4a/pool_proj <- inception_4a/pool
I0202 13:53:31.982641 100062 net.cpp:408] inception_4a/pool_proj -> inception_4a/pool_proj
I0202 13:53:31.982966 100062 net.cpp:150] Setting up inception_4a/pool_proj
I0202 13:53:31.982975 100062 net.cpp:157] Top shape: 112 64 14 14 (1404928)
I0202 13:53:31.982977 100062 net.cpp:165] Memory required for data: 4133299968
I0202 13:53:31.982985 100062 layer_factory.hpp:77] Creating layer inception_4a/relu_pool_proj
I0202 13:53:31.982990 100062 net.cpp:100] Creating Layer inception_4a/relu_pool_proj
I0202 13:53:31.982995 100062 net.cpp:434] inception_4a/relu_pool_proj <- inception_4a/pool_proj
I0202 13:53:31.983002 100062 net.cpp:395] inception_4a/relu_pool_proj -> inception_4a/pool_proj (in-place)
I0202 13:53:31.983009 100062 net.cpp:150] Setting up inception_4a/relu_pool_proj
I0202 13:53:31.983014 100062 net.cpp:157] Top shape: 112 64 14 14 (1404928)
I0202 13:53:31.983017 100062 net.cpp:165] Memory required for data: 4138919680
I0202 13:53:31.983021 100062 layer_factory.hpp:77] Creating layer inception_4a/output
I0202 13:53:31.983026 100062 net.cpp:100] Creating Layer inception_4a/output
I0202 13:53:31.983031 100062 net.cpp:434] inception_4a/output <- inception_4a/1x1
I0202 13:53:31.983036 100062 net.cpp:434] inception_4a/output <- inception_4a/3x3
I0202 13:53:31.983041 100062 net.cpp:434] inception_4a/output <- inception_4a/5x5
I0202 13:53:31.983044 100062 net.cpp:434] inception_4a/output <- inception_4a/pool_proj
I0202 13:53:31.983049 100062 net.cpp:408] inception_4a/output -> inception_4a/output
I0202 13:53:31.983057 100062 net.cpp:150] Setting up inception_4a/output
I0202 13:53:31.983063 100062 net.cpp:157] Top shape: 112 512 14 14 (11239424)
I0202 13:53:31.983067 100062 net.cpp:165] Memory required for data: 4183877376
I0202 13:53:31.983070 100062 layer_factory.hpp:77] Creating layer inception_4a/output_inception_4a/output_0_split
I0202 13:53:31.983078 100062 net.cpp:100] Creating Layer inception_4a/output_inception_4a/output_0_split
I0202 13:53:31.983083 100062 net.cpp:434] inception_4a/output_inception_4a/output_0_split <- inception_4a/output
I0202 13:53:31.983090 100062 net.cpp:408] inception_4a/output_inception_4a/output_0_split -> inception_4a/output_inception_4a/output_0_split_0
I0202 13:53:31.983101 100062 net.cpp:408] inception_4a/output_inception_4a/output_0_split -> inception_4a/output_inception_4a/output_0_split_1
I0202 13:53:31.983108 100062 net.cpp:408] inception_4a/output_inception_4a/output_0_split -> inception_4a/output_inception_4a/output_0_split_2
I0202 13:53:31.983115 100062 net.cpp:408] inception_4a/output_inception_4a/output_0_split -> inception_4a/output_inception_4a/output_0_split_3
I0202 13:53:31.983121 100062 net.cpp:408] inception_4a/output_inception_4a/output_0_split -> inception_4a/output_inception_4a/output_0_split_4
I0202 13:53:31.983129 100062 net.cpp:150] Setting up inception_4a/output_inception_4a/output_0_split
I0202 13:53:31.983134 100062 net.cpp:157] Top shape: 112 512 14 14 (11239424)
I0202 13:53:31.983139 100062 net.cpp:157] Top shape: 112 512 14 14 (11239424)
I0202 13:53:31.983144 100062 net.cpp:157] Top shape: 112 512 14 14 (11239424)
I0202 13:53:31.983149 100062 net.cpp:157] Top shape: 112 512 14 14 (11239424)
I0202 13:53:31.983153 100062 net.cpp:157] Top shape: 112 512 14 14 (11239424)
I0202 13:53:31.983156 100062 net.cpp:165] Memory required for data: 4408665856
I0202 13:53:31.983165 100062 layer_factory.hpp:77] Creating layer loss1/ave_pool
I0202 13:53:31.983180 100062 net.cpp:100] Creating Layer loss1/ave_pool
I0202 13:53:31.983186 100062 net.cpp:434] loss1/ave_pool <- inception_4a/output_inception_4a/output_0_split_0
I0202 13:53:31.983192 100062 net.cpp:408] loss1/ave_pool -> loss1/ave_pool
I0202 13:53:31.983201 100062 net.cpp:150] Setting up loss1/ave_pool
I0202 13:53:31.983206 100062 net.cpp:157] Top shape: 112 512 4 4 (917504)
I0202 13:53:31.983209 100062 net.cpp:165] Memory required for data: 4412335872
I0202 13:53:31.983213 100062 layer_factory.hpp:77] Creating layer loss1/conv
I0202 13:53:31.983223 100062 net.cpp:100] Creating Layer loss1/conv
I0202 13:53:31.983227 100062 net.cpp:434] loss1/conv <- loss1/ave_pool
I0202 13:53:31.983233 100062 net.cpp:408] loss1/conv -> loss1/conv
I0202 13:53:31.983889 100062 net.cpp:150] Setting up loss1/conv
I0202 13:53:31.983901 100062 net.cpp:157] Top shape: 112 128 4 4 (229376)
I0202 13:53:31.983904 100062 net.cpp:165] Memory required for data: 4413253376
I0202 13:53:31.983911 100062 layer_factory.hpp:77] Creating layer loss1/relu_conv
I0202 13:53:31.983922 100062 net.cpp:100] Creating Layer loss1/relu_conv
I0202 13:53:31.983925 100062 net.cpp:434] loss1/relu_conv <- loss1/conv
I0202 13:53:31.983932 100062 net.cpp:395] loss1/relu_conv -> loss1/conv (in-place)
I0202 13:53:31.983938 100062 net.cpp:150] Setting up loss1/relu_conv
I0202 13:53:31.983943 100062 net.cpp:157] Top shape: 112 128 4 4 (229376)
I0202 13:53:31.983947 100062 net.cpp:165] Memory required for data: 4414170880
I0202 13:53:31.983950 100062 layer_factory.hpp:77] Creating layer loss1/fc
I0202 13:53:31.983960 100062 net.cpp:100] Creating Layer loss1/fc
I0202 13:53:31.983964 100062 net.cpp:434] loss1/fc <- loss1/conv
I0202 13:53:31.983973 100062 net.cpp:408] loss1/fc -> loss1/fc
I0202 13:53:32.002535 100062 net.cpp:150] Setting up loss1/fc
I0202 13:53:32.002548 100062 net.cpp:157] Top shape: 112 1024 (114688)
I0202 13:53:32.002552 100062 net.cpp:165] Memory required for data: 4414629632
I0202 13:53:32.002559 100062 layer_factory.hpp:77] Creating layer loss1/relu_fc
I0202 13:53:32.002565 100062 net.cpp:100] Creating Layer loss1/relu_fc
I0202 13:53:32.002571 100062 net.cpp:434] loss1/relu_fc <- loss1/fc
I0202 13:53:32.002578 100062 net.cpp:395] loss1/relu_fc -> loss1/fc (in-place)
I0202 13:53:32.002583 100062 net.cpp:150] Setting up loss1/relu_fc
I0202 13:53:32.002588 100062 net.cpp:157] Top shape: 112 1024 (114688)
I0202 13:53:32.002593 100062 net.cpp:165] Memory required for data: 4415088384
I0202 13:53:32.002596 100062 layer_factory.hpp:77] Creating layer loss1/drop_fc
I0202 13:53:32.002614 100062 net.cpp:100] Creating Layer loss1/drop_fc
I0202 13:53:32.002619 100062 net.cpp:434] loss1/drop_fc <- loss1/fc
I0202 13:53:32.002629 100062 net.cpp:395] loss1/drop_fc -> loss1/fc (in-place)
I0202 13:53:32.002642 100062 net.cpp:150] Setting up loss1/drop_fc
I0202 13:53:32.002648 100062 net.cpp:157] Top shape: 112 1024 (114688)
I0202 13:53:32.002651 100062 net.cpp:165] Memory required for data: 4415547136
I0202 13:53:32.002655 100062 layer_factory.hpp:77] Creating layer loss1/classifier
I0202 13:53:32.002662 100062 net.cpp:100] Creating Layer loss1/classifier
I0202 13:53:32.002666 100062 net.cpp:434] loss1/classifier <- loss1/fc
I0202 13:53:32.002674 100062 net.cpp:408] loss1/classifier -> loss1/classifier
I0202 13:53:32.012236 100062 net.cpp:150] Setting up loss1/classifier
I0202 13:53:32.012248 100062 net.cpp:157] Top shape: 112 1000 (112000)
I0202 13:53:32.012253 100062 net.cpp:165] Memory required for data: 4415995136
I0202 13:53:32.012260 100062 layer_factory.hpp:77] Creating layer loss1/loss
I0202 13:53:32.012269 100062 net.cpp:100] Creating Layer loss1/loss
I0202 13:53:32.012274 100062 net.cpp:434] loss1/loss <- loss1/classifier
I0202 13:53:32.012279 100062 net.cpp:434] loss1/loss <- label_data_1_split_0
I0202 13:53:32.012287 100062 net.cpp:408] loss1/loss -> loss1/loss1
I0202 13:53:32.012301 100062 layer_factory.hpp:77] Creating layer loss1/loss
I0202 13:53:32.012681 100062 net.cpp:150] Setting up loss1/loss
I0202 13:53:32.012696 100062 net.cpp:157] Top shape: (1)
I0202 13:53:32.012707 100062 net.cpp:160]     with loss weight 0.3
I0202 13:53:32.012732 100062 net.cpp:165] Memory required for data: 4415995140
I0202 13:53:32.012735 100062 layer_factory.hpp:77] Creating layer inception_4b/1x1
I0202 13:53:32.012753 100062 net.cpp:100] Creating Layer inception_4b/1x1
I0202 13:53:32.012758 100062 net.cpp:434] inception_4b/1x1 <- inception_4a/output_inception_4a/output_0_split_1
I0202 13:53:32.012765 100062 net.cpp:408] inception_4b/1x1 -> inception_4b/1x1
I0202 13:53:32.013545 100062 net.cpp:150] Setting up inception_4b/1x1
I0202 13:53:32.013552 100062 net.cpp:157] Top shape: 112 160 14 14 (3512320)
I0202 13:53:32.013556 100062 net.cpp:165] Memory required for data: 4430044420
I0202 13:53:32.013563 100062 layer_factory.hpp:77] Creating layer inception_4b/relu_1x1
I0202 13:53:32.013569 100062 net.cpp:100] Creating Layer inception_4b/relu_1x1
I0202 13:53:32.013573 100062 net.cpp:434] inception_4b/relu_1x1 <- inception_4b/1x1
I0202 13:53:32.013581 100062 net.cpp:395] inception_4b/relu_1x1 -> inception_4b/1x1 (in-place)
I0202 13:53:32.013588 100062 net.cpp:150] Setting up inception_4b/relu_1x1
I0202 13:53:32.013593 100062 net.cpp:157] Top shape: 112 160 14 14 (3512320)
I0202 13:53:32.013597 100062 net.cpp:165] Memory required for data: 4444093700
I0202 13:53:32.013600 100062 layer_factory.hpp:77] Creating layer inception_4b/3x3_reduce
I0202 13:53:32.013607 100062 net.cpp:100] Creating Layer inception_4b/3x3_reduce
I0202 13:53:32.013612 100062 net.cpp:434] inception_4b/3x3_reduce <- inception_4a/output_inception_4a/output_0_split_2
I0202 13:53:32.013618 100062 net.cpp:408] inception_4b/3x3_reduce -> inception_4b/3x3_reduce
I0202 13:53:32.014192 100062 net.cpp:150] Setting up inception_4b/3x3_reduce
I0202 13:53:32.014204 100062 net.cpp:157] Top shape: 112 112 14 14 (2458624)
I0202 13:53:32.014207 100062 net.cpp:165] Memory required for data: 4453928196
I0202 13:53:32.014214 100062 layer_factory.hpp:77] Creating layer inception_4b/relu_3x3_reduce
I0202 13:53:32.014222 100062 net.cpp:100] Creating Layer inception_4b/relu_3x3_reduce
I0202 13:53:32.014227 100062 net.cpp:434] inception_4b/relu_3x3_reduce <- inception_4b/3x3_reduce
I0202 13:53:32.014233 100062 net.cpp:395] inception_4b/relu_3x3_reduce -> inception_4b/3x3_reduce (in-place)
I0202 13:53:32.014240 100062 net.cpp:150] Setting up inception_4b/relu_3x3_reduce
I0202 13:53:32.014245 100062 net.cpp:157] Top shape: 112 112 14 14 (2458624)
I0202 13:53:32.014248 100062 net.cpp:165] Memory required for data: 4463762692
I0202 13:53:32.014252 100062 layer_factory.hpp:77] Creating layer inception_4b/3x3
I0202 13:53:32.014259 100062 net.cpp:100] Creating Layer inception_4b/3x3
I0202 13:53:32.014263 100062 net.cpp:434] inception_4b/3x3 <- inception_4b/3x3_reduce
I0202 13:53:32.014271 100062 net.cpp:408] inception_4b/3x3 -> inception_4b/3x3
I0202 13:53:32.016403 100062 net.cpp:150] Setting up inception_4b/3x3
I0202 13:53:32.016414 100062 net.cpp:157] Top shape: 112 224 14 14 (4917248)
I0202 13:53:32.016418 100062 net.cpp:165] Memory required for data: 4483431684
I0202 13:53:32.016425 100062 layer_factory.hpp:77] Creating layer inception_4b/relu_3x3
I0202 13:53:32.016432 100062 net.cpp:100] Creating Layer inception_4b/relu_3x3
I0202 13:53:32.016436 100062 net.cpp:434] inception_4b/relu_3x3 <- inception_4b/3x3
I0202 13:53:32.016441 100062 net.cpp:395] inception_4b/relu_3x3 -> inception_4b/3x3 (in-place)
I0202 13:53:32.016448 100062 net.cpp:150] Setting up inception_4b/relu_3x3
I0202 13:53:32.016453 100062 net.cpp:157] Top shape: 112 224 14 14 (4917248)
I0202 13:53:32.016458 100062 net.cpp:165] Memory required for data: 4503100676
I0202 13:53:32.016460 100062 layer_factory.hpp:77] Creating layer inception_4b/5x5_reduce
I0202 13:53:32.016470 100062 net.cpp:100] Creating Layer inception_4b/5x5_reduce
I0202 13:53:32.016474 100062 net.cpp:434] inception_4b/5x5_reduce <- inception_4a/output_inception_4a/output_0_split_3
I0202 13:53:32.016481 100062 net.cpp:408] inception_4b/5x5_reduce -> inception_4b/5x5_reduce
I0202 13:53:32.016620 100062 net.cpp:150] Setting up inception_4b/5x5_reduce
I0202 13:53:32.016636 100062 net.cpp:157] Top shape: 112 24 14 14 (526848)
I0202 13:53:32.016640 100062 net.cpp:165] Memory required for data: 4505208068
I0202 13:53:32.016649 100062 layer_factory.hpp:77] Creating layer inception_4b/relu_5x5_reduce
I0202 13:53:32.016657 100062 net.cpp:100] Creating Layer inception_4b/relu_5x5_reduce
I0202 13:53:32.016662 100062 net.cpp:434] inception_4b/relu_5x5_reduce <- inception_4b/5x5_reduce
I0202 13:53:32.016667 100062 net.cpp:395] inception_4b/relu_5x5_reduce -> inception_4b/5x5_reduce (in-place)
I0202 13:53:32.016674 100062 net.cpp:150] Setting up inception_4b/relu_5x5_reduce
I0202 13:53:32.016680 100062 net.cpp:157] Top shape: 112 24 14 14 (526848)
I0202 13:53:32.016682 100062 net.cpp:165] Memory required for data: 4507315460
I0202 13:53:32.016686 100062 layer_factory.hpp:77] Creating layer inception_4b/5x5
I0202 13:53:32.016696 100062 net.cpp:100] Creating Layer inception_4b/5x5
I0202 13:53:32.016700 100062 net.cpp:434] inception_4b/5x5 <- inception_4b/5x5_reduce
I0202 13:53:32.016708 100062 net.cpp:408] inception_4b/5x5 -> inception_4b/5x5
I0202 13:53:32.017091 100062 net.cpp:150] Setting up inception_4b/5x5
I0202 13:53:32.017099 100062 net.cpp:157] Top shape: 112 64 14 14 (1404928)
I0202 13:53:32.017102 100062 net.cpp:165] Memory required for data: 4512935172
I0202 13:53:32.017109 100062 layer_factory.hpp:77] Creating layer inception_4b/relu_5x5
I0202 13:53:32.017118 100062 net.cpp:100] Creating Layer inception_4b/relu_5x5
I0202 13:53:32.017122 100062 net.cpp:434] inception_4b/relu_5x5 <- inception_4b/5x5
I0202 13:53:32.017130 100062 net.cpp:395] inception_4b/relu_5x5 -> inception_4b/5x5 (in-place)
I0202 13:53:32.017137 100062 net.cpp:150] Setting up inception_4b/relu_5x5
I0202 13:53:32.017141 100062 net.cpp:157] Top shape: 112 64 14 14 (1404928)
I0202 13:53:32.017145 100062 net.cpp:165] Memory required for data: 4518554884
I0202 13:53:32.017148 100062 layer_factory.hpp:77] Creating layer inception_4b/pool
I0202 13:53:32.017154 100062 net.cpp:100] Creating Layer inception_4b/pool
I0202 13:53:32.017158 100062 net.cpp:434] inception_4b/pool <- inception_4a/output_inception_4a/output_0_split_4
I0202 13:53:32.017164 100062 net.cpp:408] inception_4b/pool -> inception_4b/pool
I0202 13:53:32.017185 100062 net.cpp:150] Setting up inception_4b/pool
I0202 13:53:32.017191 100062 net.cpp:157] Top shape: 112 512 14 14 (11239424)
I0202 13:53:32.017194 100062 net.cpp:165] Memory required for data: 4563512580
I0202 13:53:32.017199 100062 layer_factory.hpp:77] Creating layer inception_4b/pool_proj
I0202 13:53:32.017206 100062 net.cpp:100] Creating Layer inception_4b/pool_proj
I0202 13:53:32.017210 100062 net.cpp:434] inception_4b/pool_proj <- inception_4b/pool
I0202 13:53:32.017220 100062 net.cpp:408] inception_4b/pool_proj -> inception_4b/pool_proj
I0202 13:53:32.017568 100062 net.cpp:150] Setting up inception_4b/pool_proj
I0202 13:53:32.017576 100062 net.cpp:157] Top shape: 112 64 14 14 (1404928)
I0202 13:53:32.017580 100062 net.cpp:165] Memory required for data: 4569132292
I0202 13:53:32.017586 100062 layer_factory.hpp:77] Creating layer inception_4b/relu_pool_proj
I0202 13:53:32.017596 100062 net.cpp:100] Creating Layer inception_4b/relu_pool_proj
I0202 13:53:32.017599 100062 net.cpp:434] inception_4b/relu_pool_proj <- inception_4b/pool_proj
I0202 13:53:32.017606 100062 net.cpp:395] inception_4b/relu_pool_proj -> inception_4b/pool_proj (in-place)
I0202 13:53:32.017611 100062 net.cpp:150] Setting up inception_4b/relu_pool_proj
I0202 13:53:32.017616 100062 net.cpp:157] Top shape: 112 64 14 14 (1404928)
I0202 13:53:32.017619 100062 net.cpp:165] Memory required for data: 4574752004
I0202 13:53:32.017628 100062 layer_factory.hpp:77] Creating layer inception_4b/output
I0202 13:53:32.017637 100062 net.cpp:100] Creating Layer inception_4b/output
I0202 13:53:32.017640 100062 net.cpp:434] inception_4b/output <- inception_4b/1x1
I0202 13:53:32.017645 100062 net.cpp:434] inception_4b/output <- inception_4b/3x3
I0202 13:53:32.017654 100062 net.cpp:434] inception_4b/output <- inception_4b/5x5
I0202 13:53:32.017665 100062 net.cpp:434] inception_4b/output <- inception_4b/pool_proj
I0202 13:53:32.017674 100062 net.cpp:408] inception_4b/output -> inception_4b/output
I0202 13:53:32.017683 100062 net.cpp:150] Setting up inception_4b/output
I0202 13:53:32.017689 100062 net.cpp:157] Top shape: 112 512 14 14 (11239424)
I0202 13:53:32.017693 100062 net.cpp:165] Memory required for data: 4619709700
I0202 13:53:32.017696 100062 layer_factory.hpp:77] Creating layer inception_4b/output_inception_4b/output_0_split
I0202 13:53:32.017702 100062 net.cpp:100] Creating Layer inception_4b/output_inception_4b/output_0_split
I0202 13:53:32.017706 100062 net.cpp:434] inception_4b/output_inception_4b/output_0_split <- inception_4b/output
I0202 13:53:32.017716 100062 net.cpp:408] inception_4b/output_inception_4b/output_0_split -> inception_4b/output_inception_4b/output_0_split_0
I0202 13:53:32.017724 100062 net.cpp:408] inception_4b/output_inception_4b/output_0_split -> inception_4b/output_inception_4b/output_0_split_1
I0202 13:53:32.017730 100062 net.cpp:408] inception_4b/output_inception_4b/output_0_split -> inception_4b/output_inception_4b/output_0_split_2
I0202 13:53:32.017736 100062 net.cpp:408] inception_4b/output_inception_4b/output_0_split -> inception_4b/output_inception_4b/output_0_split_3
I0202 13:53:32.017745 100062 net.cpp:150] Setting up inception_4b/output_inception_4b/output_0_split
I0202 13:53:32.017750 100062 net.cpp:157] Top shape: 112 512 14 14 (11239424)
I0202 13:53:32.017755 100062 net.cpp:157] Top shape: 112 512 14 14 (11239424)
I0202 13:53:32.017760 100062 net.cpp:157] Top shape: 112 512 14 14 (11239424)
I0202 13:53:32.017763 100062 net.cpp:157] Top shape: 112 512 14 14 (11239424)
I0202 13:53:32.017766 100062 net.cpp:165] Memory required for data: 4799540484
I0202 13:53:32.017771 100062 layer_factory.hpp:77] Creating layer inception_4c/1x1
I0202 13:53:32.017783 100062 net.cpp:100] Creating Layer inception_4c/1x1
I0202 13:53:32.017787 100062 net.cpp:434] inception_4c/1x1 <- inception_4b/output_inception_4b/output_0_split_0
I0202 13:53:32.017793 100062 net.cpp:408] inception_4c/1x1 -> inception_4c/1x1
I0202 13:53:32.018438 100062 net.cpp:150] Setting up inception_4c/1x1
I0202 13:53:32.018446 100062 net.cpp:157] Top shape: 112 128 14 14 (2809856)
I0202 13:53:32.018450 100062 net.cpp:165] Memory required for data: 4810779908
I0202 13:53:32.018457 100062 layer_factory.hpp:77] Creating layer inception_4c/relu_1x1
I0202 13:53:32.018466 100062 net.cpp:100] Creating Layer inception_4c/relu_1x1
I0202 13:53:32.018471 100062 net.cpp:434] inception_4c/relu_1x1 <- inception_4c/1x1
I0202 13:53:32.018476 100062 net.cpp:395] inception_4c/relu_1x1 -> inception_4c/1x1 (in-place)
I0202 13:53:32.018483 100062 net.cpp:150] Setting up inception_4c/relu_1x1
I0202 13:53:32.018488 100062 net.cpp:157] Top shape: 112 128 14 14 (2809856)
I0202 13:53:32.018492 100062 net.cpp:165] Memory required for data: 4822019332
I0202 13:53:32.018496 100062 layer_factory.hpp:77] Creating layer inception_4c/3x3_reduce
I0202 13:53:32.018506 100062 net.cpp:100] Creating Layer inception_4c/3x3_reduce
I0202 13:53:32.018509 100062 net.cpp:434] inception_4c/3x3_reduce <- inception_4b/output_inception_4b/output_0_split_1
I0202 13:53:32.018518 100062 net.cpp:408] inception_4c/3x3_reduce -> inception_4c/3x3_reduce
I0202 13:53:32.019170 100062 net.cpp:150] Setting up inception_4c/3x3_reduce
I0202 13:53:32.019181 100062 net.cpp:157] Top shape: 112 128 14 14 (2809856)
I0202 13:53:32.019186 100062 net.cpp:165] Memory required for data: 4833258756
I0202 13:53:32.019191 100062 layer_factory.hpp:77] Creating layer inception_4c/relu_3x3_reduce
I0202 13:53:32.019197 100062 net.cpp:100] Creating Layer inception_4c/relu_3x3_reduce
I0202 13:53:32.019202 100062 net.cpp:434] inception_4c/relu_3x3_reduce <- inception_4c/3x3_reduce
I0202 13:53:32.019212 100062 net.cpp:395] inception_4c/relu_3x3_reduce -> inception_4c/3x3_reduce (in-place)
I0202 13:53:32.019219 100062 net.cpp:150] Setting up inception_4c/relu_3x3_reduce
I0202 13:53:32.019234 100062 net.cpp:157] Top shape: 112 128 14 14 (2809856)
I0202 13:53:32.019239 100062 net.cpp:165] Memory required for data: 4844498180
I0202 13:53:32.019243 100062 layer_factory.hpp:77] Creating layer inception_4c/3x3
I0202 13:53:32.019253 100062 net.cpp:100] Creating Layer inception_4c/3x3
I0202 13:53:32.019258 100062 net.cpp:434] inception_4c/3x3 <- inception_4c/3x3_reduce
I0202 13:53:32.019263 100062 net.cpp:408] inception_4c/3x3 -> inception_4c/3x3
I0202 13:53:32.022022 100062 net.cpp:150] Setting up inception_4c/3x3
I0202 13:53:32.022033 100062 net.cpp:157] Top shape: 112 256 14 14 (5619712)
I0202 13:53:32.022037 100062 net.cpp:165] Memory required for data: 4866977028
I0202 13:53:32.022056 100062 layer_factory.hpp:77] Creating layer inception_4c/relu_3x3
I0202 13:53:32.022063 100062 net.cpp:100] Creating Layer inception_4c/relu_3x3
I0202 13:53:32.022068 100062 net.cpp:434] inception_4c/relu_3x3 <- inception_4c/3x3
I0202 13:53:32.022074 100062 net.cpp:395] inception_4c/relu_3x3 -> inception_4c/3x3 (in-place)
I0202 13:53:32.022081 100062 net.cpp:150] Setting up inception_4c/relu_3x3
I0202 13:53:32.022086 100062 net.cpp:157] Top shape: 112 256 14 14 (5619712)
I0202 13:53:32.022090 100062 net.cpp:165] Memory required for data: 4889455876
I0202 13:53:32.022094 100062 layer_factory.hpp:77] Creating layer inception_4c/5x5_reduce
I0202 13:53:32.022104 100062 net.cpp:100] Creating Layer inception_4c/5x5_reduce
I0202 13:53:32.022109 100062 net.cpp:434] inception_4c/5x5_reduce <- inception_4b/output_inception_4b/output_0_split_2
I0202 13:53:32.022115 100062 net.cpp:408] inception_4c/5x5_reduce -> inception_4c/5x5_reduce
I0202 13:53:32.022235 100062 net.cpp:150] Setting up inception_4c/5x5_reduce
I0202 13:53:32.022241 100062 net.cpp:157] Top shape: 112 24 14 14 (526848)
I0202 13:53:32.022245 100062 net.cpp:165] Memory required for data: 4891563268
I0202 13:53:32.022251 100062 layer_factory.hpp:77] Creating layer inception_4c/relu_5x5_reduce
I0202 13:53:32.022256 100062 net.cpp:100] Creating Layer inception_4c/relu_5x5_reduce
I0202 13:53:32.022260 100062 net.cpp:434] inception_4c/relu_5x5_reduce <- inception_4c/5x5_reduce
I0202 13:53:32.022269 100062 net.cpp:395] inception_4c/relu_5x5_reduce -> inception_4c/5x5_reduce (in-place)
I0202 13:53:32.022274 100062 net.cpp:150] Setting up inception_4c/relu_5x5_reduce
I0202 13:53:32.022279 100062 net.cpp:157] Top shape: 112 24 14 14 (526848)
I0202 13:53:32.022282 100062 net.cpp:165] Memory required for data: 4893670660
I0202 13:53:32.022286 100062 layer_factory.hpp:77] Creating layer inception_4c/5x5
I0202 13:53:32.022295 100062 net.cpp:100] Creating Layer inception_4c/5x5
I0202 13:53:32.022300 100062 net.cpp:434] inception_4c/5x5 <- inception_4c/5x5_reduce
I0202 13:53:32.022306 100062 net.cpp:408] inception_4c/5x5 -> inception_4c/5x5
I0202 13:53:32.022714 100062 net.cpp:150] Setting up inception_4c/5x5
I0202 13:53:32.022725 100062 net.cpp:157] Top shape: 112 64 14 14 (1404928)
I0202 13:53:32.022728 100062 net.cpp:165] Memory required for data: 4899290372
I0202 13:53:32.022735 100062 layer_factory.hpp:77] Creating layer inception_4c/relu_5x5
I0202 13:53:32.022743 100062 net.cpp:100] Creating Layer inception_4c/relu_5x5
I0202 13:53:32.022747 100062 net.cpp:434] inception_4c/relu_5x5 <- inception_4c/5x5
I0202 13:53:32.022753 100062 net.cpp:395] inception_4c/relu_5x5 -> inception_4c/5x5 (in-place)
I0202 13:53:32.022759 100062 net.cpp:150] Setting up inception_4c/relu_5x5
I0202 13:53:32.022764 100062 net.cpp:157] Top shape: 112 64 14 14 (1404928)
I0202 13:53:32.022768 100062 net.cpp:165] Memory required for data: 4904910084
I0202 13:53:32.022771 100062 layer_factory.hpp:77] Creating layer inception_4c/pool
I0202 13:53:32.022778 100062 net.cpp:100] Creating Layer inception_4c/pool
I0202 13:53:32.022781 100062 net.cpp:434] inception_4c/pool <- inception_4b/output_inception_4b/output_0_split_3
I0202 13:53:32.022790 100062 net.cpp:408] inception_4c/pool -> inception_4c/pool
I0202 13:53:32.022799 100062 net.cpp:150] Setting up inception_4c/pool
I0202 13:53:32.022809 100062 net.cpp:157] Top shape: 112 512 14 14 (11239424)
I0202 13:53:32.022820 100062 net.cpp:165] Memory required for data: 4949867780
I0202 13:53:32.022825 100062 layer_factory.hpp:77] Creating layer inception_4c/pool_proj
I0202 13:53:32.022835 100062 net.cpp:100] Creating Layer inception_4c/pool_proj
I0202 13:53:32.022838 100062 net.cpp:434] inception_4c/pool_proj <- inception_4c/pool
I0202 13:53:32.022847 100062 net.cpp:408] inception_4c/pool_proj -> inception_4c/pool_proj
I0202 13:53:32.023185 100062 net.cpp:150] Setting up inception_4c/pool_proj
I0202 13:53:32.023192 100062 net.cpp:157] Top shape: 112 64 14 14 (1404928)
I0202 13:53:32.023195 100062 net.cpp:165] Memory required for data: 4955487492
I0202 13:53:32.023202 100062 layer_factory.hpp:77] Creating layer inception_4c/relu_pool_proj
I0202 13:53:32.023207 100062 net.cpp:100] Creating Layer inception_4c/relu_pool_proj
I0202 13:53:32.023212 100062 net.cpp:434] inception_4c/relu_pool_proj <- inception_4c/pool_proj
I0202 13:53:32.023221 100062 net.cpp:395] inception_4c/relu_pool_proj -> inception_4c/pool_proj (in-place)
I0202 13:53:32.023227 100062 net.cpp:150] Setting up inception_4c/relu_pool_proj
I0202 13:53:32.023232 100062 net.cpp:157] Top shape: 112 64 14 14 (1404928)
I0202 13:53:32.023236 100062 net.cpp:165] Memory required for data: 4961107204
I0202 13:53:32.023239 100062 layer_factory.hpp:77] Creating layer inception_4c/output
I0202 13:53:32.023244 100062 net.cpp:100] Creating Layer inception_4c/output
I0202 13:53:32.023249 100062 net.cpp:434] inception_4c/output <- inception_4c/1x1
I0202 13:53:32.023254 100062 net.cpp:434] inception_4c/output <- inception_4c/3x3
I0202 13:53:32.023258 100062 net.cpp:434] inception_4c/output <- inception_4c/5x5
I0202 13:53:32.023263 100062 net.cpp:434] inception_4c/output <- inception_4c/pool_proj
I0202 13:53:32.023269 100062 net.cpp:408] inception_4c/output -> inception_4c/output
I0202 13:53:32.023277 100062 net.cpp:150] Setting up inception_4c/output
I0202 13:53:32.023283 100062 net.cpp:157] Top shape: 112 512 14 14 (11239424)
I0202 13:53:32.023286 100062 net.cpp:165] Memory required for data: 5006064900
I0202 13:53:32.023289 100062 layer_factory.hpp:77] Creating layer inception_4c/output_inception_4c/output_0_split
I0202 13:53:32.023298 100062 net.cpp:100] Creating Layer inception_4c/output_inception_4c/output_0_split
I0202 13:53:32.023301 100062 net.cpp:434] inception_4c/output_inception_4c/output_0_split <- inception_4c/output
I0202 13:53:32.023308 100062 net.cpp:408] inception_4c/output_inception_4c/output_0_split -> inception_4c/output_inception_4c/output_0_split_0
I0202 13:53:32.023316 100062 net.cpp:408] inception_4c/output_inception_4c/output_0_split -> inception_4c/output_inception_4c/output_0_split_1
I0202 13:53:32.023324 100062 net.cpp:408] inception_4c/output_inception_4c/output_0_split -> inception_4c/output_inception_4c/output_0_split_2
I0202 13:53:32.023329 100062 net.cpp:408] inception_4c/output_inception_4c/output_0_split -> inception_4c/output_inception_4c/output_0_split_3
I0202 13:53:32.023337 100062 net.cpp:150] Setting up inception_4c/output_inception_4c/output_0_split
I0202 13:53:32.023342 100062 net.cpp:157] Top shape: 112 512 14 14 (11239424)
I0202 13:53:32.023347 100062 net.cpp:157] Top shape: 112 512 14 14 (11239424)
I0202 13:53:32.023351 100062 net.cpp:157] Top shape: 112 512 14 14 (11239424)
I0202 13:53:32.023356 100062 net.cpp:157] Top shape: 112 512 14 14 (11239424)
I0202 13:53:32.023360 100062 net.cpp:165] Memory required for data: 5185895684
I0202 13:53:32.023363 100062 layer_factory.hpp:77] Creating layer inception_4d/1x1
I0202 13:53:32.023372 100062 net.cpp:100] Creating Layer inception_4d/1x1
I0202 13:53:32.023376 100062 net.cpp:434] inception_4d/1x1 <- inception_4c/output_inception_4c/output_0_split_0
I0202 13:53:32.023386 100062 net.cpp:408] inception_4d/1x1 -> inception_4d/1x1
I0202 13:53:32.023960 100062 net.cpp:150] Setting up inception_4d/1x1
I0202 13:53:32.023972 100062 net.cpp:157] Top shape: 112 112 14 14 (2458624)
I0202 13:53:32.023975 100062 net.cpp:165] Memory required for data: 5195730180
I0202 13:53:32.023993 100062 layer_factory.hpp:77] Creating layer inception_4d/relu_1x1
I0202 13:53:32.023998 100062 net.cpp:100] Creating Layer inception_4d/relu_1x1
I0202 13:53:32.024003 100062 net.cpp:434] inception_4d/relu_1x1 <- inception_4d/1x1
I0202 13:53:32.024010 100062 net.cpp:395] inception_4d/relu_1x1 -> inception_4d/1x1 (in-place)
I0202 13:53:32.024018 100062 net.cpp:150] Setting up inception_4d/relu_1x1
I0202 13:53:32.024022 100062 net.cpp:157] Top shape: 112 112 14 14 (2458624)
I0202 13:53:32.024026 100062 net.cpp:165] Memory required for data: 5205564676
I0202 13:53:32.024030 100062 layer_factory.hpp:77] Creating layer inception_4d/3x3_reduce
I0202 13:53:32.024039 100062 net.cpp:100] Creating Layer inception_4d/3x3_reduce
I0202 13:53:32.024044 100062 net.cpp:434] inception_4d/3x3_reduce <- inception_4c/output_inception_4c/output_0_split_1
I0202 13:53:32.024050 100062 net.cpp:408] inception_4d/3x3_reduce -> inception_4d/3x3_reduce
I0202 13:53:32.024786 100062 net.cpp:150] Setting up inception_4d/3x3_reduce
I0202 13:53:32.024797 100062 net.cpp:157] Top shape: 112 144 14 14 (3161088)
I0202 13:53:32.024801 100062 net.cpp:165] Memory required for data: 5218209028
I0202 13:53:32.024808 100062 layer_factory.hpp:77] Creating layer inception_4d/relu_3x3_reduce
I0202 13:53:32.024816 100062 net.cpp:100] Creating Layer inception_4d/relu_3x3_reduce
I0202 13:53:32.024821 100062 net.cpp:434] inception_4d/relu_3x3_reduce <- inception_4d/3x3_reduce
I0202 13:53:32.024827 100062 net.cpp:395] inception_4d/relu_3x3_reduce -> inception_4d/3x3_reduce (in-place)
I0202 13:53:32.024833 100062 net.cpp:150] Setting up inception_4d/relu_3x3_reduce
I0202 13:53:32.024838 100062 net.cpp:157] Top shape: 112 144 14 14 (3161088)
I0202 13:53:32.024842 100062 net.cpp:165] Memory required for data: 5230853380
I0202 13:53:32.024845 100062 layer_factory.hpp:77] Creating layer inception_4d/3x3
I0202 13:53:32.024853 100062 net.cpp:100] Creating Layer inception_4d/3x3
I0202 13:53:32.024859 100062 net.cpp:434] inception_4d/3x3 <- inception_4d/3x3_reduce
I0202 13:53:32.024868 100062 net.cpp:408] inception_4d/3x3 -> inception_4d/3x3
I0202 13:53:32.028723 100062 net.cpp:150] Setting up inception_4d/3x3
I0202 13:53:32.028733 100062 net.cpp:157] Top shape: 112 288 14 14 (6322176)
I0202 13:53:32.028736 100062 net.cpp:165] Memory required for data: 5256142084
I0202 13:53:32.028743 100062 layer_factory.hpp:77] Creating layer inception_4d/relu_3x3
I0202 13:53:32.028749 100062 net.cpp:100] Creating Layer inception_4d/relu_3x3
I0202 13:53:32.028753 100062 net.cpp:434] inception_4d/relu_3x3 <- inception_4d/3x3
I0202 13:53:32.028759 100062 net.cpp:395] inception_4d/relu_3x3 -> inception_4d/3x3 (in-place)
I0202 13:53:32.028766 100062 net.cpp:150] Setting up inception_4d/relu_3x3
I0202 13:53:32.028771 100062 net.cpp:157] Top shape: 112 288 14 14 (6322176)
I0202 13:53:32.028774 100062 net.cpp:165] Memory required for data: 5281430788
I0202 13:53:32.028779 100062 layer_factory.hpp:77] Creating layer inception_4d/5x5_reduce
I0202 13:53:32.028789 100062 net.cpp:100] Creating Layer inception_4d/5x5_reduce
I0202 13:53:32.028794 100062 net.cpp:434] inception_4d/5x5_reduce <- inception_4c/output_inception_4c/output_0_split_2
I0202 13:53:32.028800 100062 net.cpp:408] inception_4d/5x5_reduce -> inception_4d/5x5_reduce
I0202 13:53:32.028970 100062 net.cpp:150] Setting up inception_4d/5x5_reduce
I0202 13:53:32.028976 100062 net.cpp:157] Top shape: 112 32 14 14 (702464)
I0202 13:53:32.028980 100062 net.cpp:165] Memory required for data: 5284240644
I0202 13:53:32.028987 100062 layer_factory.hpp:77] Creating layer inception_4d/relu_5x5_reduce
I0202 13:53:32.028992 100062 net.cpp:100] Creating Layer inception_4d/relu_5x5_reduce
I0202 13:53:32.028996 100062 net.cpp:434] inception_4d/relu_5x5_reduce <- inception_4d/5x5_reduce
I0202 13:53:32.029006 100062 net.cpp:395] inception_4d/relu_5x5_reduce -> inception_4d/5x5_reduce (in-place)
I0202 13:53:32.029011 100062 net.cpp:150] Setting up inception_4d/relu_5x5_reduce
I0202 13:53:32.029021 100062 net.cpp:157] Top shape: 112 32 14 14 (702464)
I0202 13:53:32.029031 100062 net.cpp:165] Memory required for data: 5287050500
I0202 13:53:32.029034 100062 layer_factory.hpp:77] Creating layer inception_4d/5x5
I0202 13:53:32.029044 100062 net.cpp:100] Creating Layer inception_4d/5x5
I0202 13:53:32.029048 100062 net.cpp:434] inception_4d/5x5 <- inception_4d/5x5_reduce
I0202 13:53:32.029054 100062 net.cpp:408] inception_4d/5x5 -> inception_4d/5x5
I0202 13:53:32.029559 100062 net.cpp:150] Setting up inception_4d/5x5
I0202 13:53:32.029567 100062 net.cpp:157] Top shape: 112 64 14 14 (1404928)
I0202 13:53:32.029570 100062 net.cpp:165] Memory required for data: 5292670212
I0202 13:53:32.029577 100062 layer_factory.hpp:77] Creating layer inception_4d/relu_5x5
I0202 13:53:32.029582 100062 net.cpp:100] Creating Layer inception_4d/relu_5x5
I0202 13:53:32.029587 100062 net.cpp:434] inception_4d/relu_5x5 <- inception_4d/5x5
I0202 13:53:32.029594 100062 net.cpp:395] inception_4d/relu_5x5 -> inception_4d/5x5 (in-place)
I0202 13:53:32.029602 100062 net.cpp:150] Setting up inception_4d/relu_5x5
I0202 13:53:32.029606 100062 net.cpp:157] Top shape: 112 64 14 14 (1404928)
I0202 13:53:32.029609 100062 net.cpp:165] Memory required for data: 5298289924
I0202 13:53:32.029613 100062 layer_factory.hpp:77] Creating layer inception_4d/pool
I0202 13:53:32.029621 100062 net.cpp:100] Creating Layer inception_4d/pool
I0202 13:53:32.029634 100062 net.cpp:434] inception_4d/pool <- inception_4c/output_inception_4c/output_0_split_3
I0202 13:53:32.029640 100062 net.cpp:408] inception_4d/pool -> inception_4d/pool
I0202 13:53:32.029650 100062 net.cpp:150] Setting up inception_4d/pool
I0202 13:53:32.029655 100062 net.cpp:157] Top shape: 112 512 14 14 (11239424)
I0202 13:53:32.029659 100062 net.cpp:165] Memory required for data: 5343247620
I0202 13:53:32.029664 100062 layer_factory.hpp:77] Creating layer inception_4d/pool_proj
I0202 13:53:32.029672 100062 net.cpp:100] Creating Layer inception_4d/pool_proj
I0202 13:53:32.029677 100062 net.cpp:434] inception_4d/pool_proj <- inception_4d/pool
I0202 13:53:32.029685 100062 net.cpp:408] inception_4d/pool_proj -> inception_4d/pool_proj
I0202 13:53:32.029997 100062 net.cpp:150] Setting up inception_4d/pool_proj
I0202 13:53:32.030004 100062 net.cpp:157] Top shape: 112 64 14 14 (1404928)
I0202 13:53:32.030009 100062 net.cpp:165] Memory required for data: 5348867332
I0202 13:53:32.030014 100062 layer_factory.hpp:77] Creating layer inception_4d/relu_pool_proj
I0202 13:53:32.030020 100062 net.cpp:100] Creating Layer inception_4d/relu_pool_proj
I0202 13:53:32.030025 100062 net.cpp:434] inception_4d/relu_pool_proj <- inception_4d/pool_proj
I0202 13:53:32.030032 100062 net.cpp:395] inception_4d/relu_pool_proj -> inception_4d/pool_proj (in-place)
I0202 13:53:32.030040 100062 net.cpp:150] Setting up inception_4d/relu_pool_proj
I0202 13:53:32.030045 100062 net.cpp:157] Top shape: 112 64 14 14 (1404928)
I0202 13:53:32.030047 100062 net.cpp:165] Memory required for data: 5354487044
I0202 13:53:32.030051 100062 layer_factory.hpp:77] Creating layer inception_4d/output
I0202 13:53:32.030056 100062 net.cpp:100] Creating Layer inception_4d/output
I0202 13:53:32.030061 100062 net.cpp:434] inception_4d/output <- inception_4d/1x1
I0202 13:53:32.030066 100062 net.cpp:434] inception_4d/output <- inception_4d/3x3
I0202 13:53:32.030071 100062 net.cpp:434] inception_4d/output <- inception_4d/5x5
I0202 13:53:32.030076 100062 net.cpp:434] inception_4d/output <- inception_4d/pool_proj
I0202 13:53:32.030084 100062 net.cpp:408] inception_4d/output -> inception_4d/output
I0202 13:53:32.030092 100062 net.cpp:150] Setting up inception_4d/output
I0202 13:53:32.030097 100062 net.cpp:157] Top shape: 112 528 14 14 (11590656)
I0202 13:53:32.030102 100062 net.cpp:165] Memory required for data: 5400849668
I0202 13:53:32.030105 100062 layer_factory.hpp:77] Creating layer inception_4d/output_inception_4d/output_0_split
I0202 13:53:32.030112 100062 net.cpp:100] Creating Layer inception_4d/output_inception_4d/output_0_split
I0202 13:53:32.030117 100062 net.cpp:434] inception_4d/output_inception_4d/output_0_split <- inception_4d/output
I0202 13:53:32.030133 100062 net.cpp:408] inception_4d/output_inception_4d/output_0_split -> inception_4d/output_inception_4d/output_0_split_0
I0202 13:53:32.030141 100062 net.cpp:408] inception_4d/output_inception_4d/output_0_split -> inception_4d/output_inception_4d/output_0_split_1
I0202 13:53:32.030150 100062 net.cpp:408] inception_4d/output_inception_4d/output_0_split -> inception_4d/output_inception_4d/output_0_split_2
I0202 13:53:32.030158 100062 net.cpp:408] inception_4d/output_inception_4d/output_0_split -> inception_4d/output_inception_4d/output_0_split_3
I0202 13:53:32.030164 100062 net.cpp:408] inception_4d/output_inception_4d/output_0_split -> inception_4d/output_inception_4d/output_0_split_4
I0202 13:53:32.030172 100062 net.cpp:150] Setting up inception_4d/output_inception_4d/output_0_split
I0202 13:53:32.030179 100062 net.cpp:157] Top shape: 112 528 14 14 (11590656)
I0202 13:53:32.030184 100062 net.cpp:157] Top shape: 112 528 14 14 (11590656)
I0202 13:53:32.030189 100062 net.cpp:157] Top shape: 112 528 14 14 (11590656)
I0202 13:53:32.030194 100062 net.cpp:157] Top shape: 112 528 14 14 (11590656)
I0202 13:53:32.030199 100062 net.cpp:157] Top shape: 112 528 14 14 (11590656)
I0202 13:53:32.030202 100062 net.cpp:165] Memory required for data: 5632662788
I0202 13:53:32.030206 100062 layer_factory.hpp:77] Creating layer loss2/ave_pool
I0202 13:53:32.030211 100062 net.cpp:100] Creating Layer loss2/ave_pool
I0202 13:53:32.030215 100062 net.cpp:434] loss2/ave_pool <- inception_4d/output_inception_4d/output_0_split_0
I0202 13:53:32.030221 100062 net.cpp:408] loss2/ave_pool -> loss2/ave_pool
I0202 13:53:32.030230 100062 net.cpp:150] Setting up loss2/ave_pool
I0202 13:53:32.030236 100062 net.cpp:157] Top shape: 112 528 4 4 (946176)
I0202 13:53:32.030238 100062 net.cpp:165] Memory required for data: 5636447492
I0202 13:53:32.030242 100062 layer_factory.hpp:77] Creating layer loss2/conv
I0202 13:53:32.030254 100062 net.cpp:100] Creating Layer loss2/conv
I0202 13:53:32.030259 100062 net.cpp:434] loss2/conv <- loss2/ave_pool
I0202 13:53:32.030266 100062 net.cpp:408] loss2/conv -> loss2/conv
I0202 13:53:32.030935 100062 net.cpp:150] Setting up loss2/conv
I0202 13:53:32.030947 100062 net.cpp:157] Top shape: 112 128 4 4 (229376)
I0202 13:53:32.030951 100062 net.cpp:165] Memory required for data: 5637364996
I0202 13:53:32.030958 100062 layer_factory.hpp:77] Creating layer loss2/relu_conv
I0202 13:53:32.030964 100062 net.cpp:100] Creating Layer loss2/relu_conv
I0202 13:53:32.030968 100062 net.cpp:434] loss2/relu_conv <- loss2/conv
I0202 13:53:32.030977 100062 net.cpp:395] loss2/relu_conv -> loss2/conv (in-place)
I0202 13:53:32.030983 100062 net.cpp:150] Setting up loss2/relu_conv
I0202 13:53:32.030989 100062 net.cpp:157] Top shape: 112 128 4 4 (229376)
I0202 13:53:32.030992 100062 net.cpp:165] Memory required for data: 5638282500
I0202 13:53:32.030997 100062 layer_factory.hpp:77] Creating layer loss2/fc
I0202 13:53:32.031004 100062 net.cpp:100] Creating Layer loss2/fc
I0202 13:53:32.031008 100062 net.cpp:434] loss2/fc <- loss2/conv
I0202 13:53:32.031016 100062 net.cpp:408] loss2/fc -> loss2/fc
I0202 13:53:32.049546 100062 net.cpp:150] Setting up loss2/fc
I0202 13:53:32.049557 100062 net.cpp:157] Top shape: 112 1024 (114688)
I0202 13:53:32.049561 100062 net.cpp:165] Memory required for data: 5638741252
I0202 13:53:32.049568 100062 layer_factory.hpp:77] Creating layer loss2/relu_fc
I0202 13:53:32.049576 100062 net.cpp:100] Creating Layer loss2/relu_fc
I0202 13:53:32.049579 100062 net.cpp:434] loss2/relu_fc <- loss2/fc
I0202 13:53:32.049588 100062 net.cpp:395] loss2/relu_fc -> loss2/fc (in-place)
I0202 13:53:32.049595 100062 net.cpp:150] Setting up loss2/relu_fc
I0202 13:53:32.049600 100062 net.cpp:157] Top shape: 112 1024 (114688)
I0202 13:53:32.049604 100062 net.cpp:165] Memory required for data: 5639200004
I0202 13:53:32.049608 100062 layer_factory.hpp:77] Creating layer loss2/drop_fc
I0202 13:53:32.049614 100062 net.cpp:100] Creating Layer loss2/drop_fc
I0202 13:53:32.049628 100062 net.cpp:434] loss2/drop_fc <- loss2/fc
I0202 13:53:32.049643 100062 net.cpp:395] loss2/drop_fc -> loss2/fc (in-place)
I0202 13:53:32.049650 100062 net.cpp:150] Setting up loss2/drop_fc
I0202 13:53:32.049655 100062 net.cpp:157] Top shape: 112 1024 (114688)
I0202 13:53:32.049659 100062 net.cpp:165] Memory required for data: 5639658756
I0202 13:53:32.049662 100062 layer_factory.hpp:77] Creating layer loss2/classifier
I0202 13:53:32.049670 100062 net.cpp:100] Creating Layer loss2/classifier
I0202 13:53:32.049674 100062 net.cpp:434] loss2/classifier <- loss2/fc
I0202 13:53:32.049684 100062 net.cpp:408] loss2/classifier -> loss2/classifier
I0202 13:53:32.059207 100062 net.cpp:150] Setting up loss2/classifier
I0202 13:53:32.059219 100062 net.cpp:157] Top shape: 112 1000 (112000)
I0202 13:53:32.059223 100062 net.cpp:165] Memory required for data: 5640106756
I0202 13:53:32.059231 100062 layer_factory.hpp:77] Creating layer loss2/loss
I0202 13:53:32.059237 100062 net.cpp:100] Creating Layer loss2/loss
I0202 13:53:32.059242 100062 net.cpp:434] loss2/loss <- loss2/classifier
I0202 13:53:32.059248 100062 net.cpp:434] loss2/loss <- label_data_1_split_1
I0202 13:53:32.059254 100062 net.cpp:408] loss2/loss -> loss2/loss1
I0202 13:53:32.059263 100062 layer_factory.hpp:77] Creating layer loss2/loss
I0202 13:53:32.059607 100062 net.cpp:150] Setting up loss2/loss
I0202 13:53:32.059617 100062 net.cpp:157] Top shape: (1)
I0202 13:53:32.059620 100062 net.cpp:160]     with loss weight 0.3
I0202 13:53:32.059635 100062 net.cpp:165] Memory required for data: 5640106760
I0202 13:53:32.059640 100062 layer_factory.hpp:77] Creating layer inception_4e/1x1
I0202 13:53:32.059653 100062 net.cpp:100] Creating Layer inception_4e/1x1
I0202 13:53:32.059658 100062 net.cpp:434] inception_4e/1x1 <- inception_4d/output_inception_4d/output_0_split_1
I0202 13:53:32.059665 100062 net.cpp:408] inception_4e/1x1 -> inception_4e/1x1
I0202 13:53:32.060956 100062 net.cpp:150] Setting up inception_4e/1x1
I0202 13:53:32.060967 100062 net.cpp:157] Top shape: 112 256 14 14 (5619712)
I0202 13:53:32.060971 100062 net.cpp:165] Memory required for data: 5662585608
I0202 13:53:32.060978 100062 layer_factory.hpp:77] Creating layer inception_4e/relu_1x1
I0202 13:53:32.060984 100062 net.cpp:100] Creating Layer inception_4e/relu_1x1
I0202 13:53:32.060989 100062 net.cpp:434] inception_4e/relu_1x1 <- inception_4e/1x1
I0202 13:53:32.060995 100062 net.cpp:395] inception_4e/relu_1x1 -> inception_4e/1x1 (in-place)
I0202 13:53:32.061002 100062 net.cpp:150] Setting up inception_4e/relu_1x1
I0202 13:53:32.061007 100062 net.cpp:157] Top shape: 112 256 14 14 (5619712)
I0202 13:53:32.061010 100062 net.cpp:165] Memory required for data: 5685064456
I0202 13:53:32.061014 100062 layer_factory.hpp:77] Creating layer inception_4e/3x3_reduce
I0202 13:53:32.061025 100062 net.cpp:100] Creating Layer inception_4e/3x3_reduce
I0202 13:53:32.061030 100062 net.cpp:434] inception_4e/3x3_reduce <- inception_4d/output_inception_4d/output_0_split_2
I0202 13:53:32.061038 100062 net.cpp:408] inception_4e/3x3_reduce -> inception_4e/3x3_reduce
I0202 13:53:32.061866 100062 net.cpp:150] Setting up inception_4e/3x3_reduce
I0202 13:53:32.061877 100062 net.cpp:157] Top shape: 112 160 14 14 (3512320)
I0202 13:53:32.061882 100062 net.cpp:165] Memory required for data: 5699113736
I0202 13:53:32.061889 100062 layer_factory.hpp:77] Creating layer inception_4e/relu_3x3_reduce
I0202 13:53:32.061897 100062 net.cpp:100] Creating Layer inception_4e/relu_3x3_reduce
I0202 13:53:32.061902 100062 net.cpp:434] inception_4e/relu_3x3_reduce <- inception_4e/3x3_reduce
I0202 13:53:32.061908 100062 net.cpp:395] inception_4e/relu_3x3_reduce -> inception_4e/3x3_reduce (in-place)
I0202 13:53:32.061915 100062 net.cpp:150] Setting up inception_4e/relu_3x3_reduce
I0202 13:53:32.061920 100062 net.cpp:157] Top shape: 112 160 14 14 (3512320)
I0202 13:53:32.061923 100062 net.cpp:165] Memory required for data: 5713163016
I0202 13:53:32.061928 100062 layer_factory.hpp:77] Creating layer inception_4e/3x3
I0202 13:53:32.061944 100062 net.cpp:100] Creating Layer inception_4e/3x3
I0202 13:53:32.061956 100062 net.cpp:434] inception_4e/3x3 <- inception_4e/3x3_reduce
I0202 13:53:32.061965 100062 net.cpp:408] inception_4e/3x3 -> inception_4e/3x3
I0202 13:53:32.066766 100062 net.cpp:150] Setting up inception_4e/3x3
I0202 13:53:32.066778 100062 net.cpp:157] Top shape: 112 320 14 14 (7024640)
I0202 13:53:32.066781 100062 net.cpp:165] Memory required for data: 5741261576
I0202 13:53:32.066788 100062 layer_factory.hpp:77] Creating layer inception_4e/relu_3x3
I0202 13:53:32.066795 100062 net.cpp:100] Creating Layer inception_4e/relu_3x3
I0202 13:53:32.066799 100062 net.cpp:434] inception_4e/relu_3x3 <- inception_4e/3x3
I0202 13:53:32.066805 100062 net.cpp:395] inception_4e/relu_3x3 -> inception_4e/3x3 (in-place)
I0202 13:53:32.066812 100062 net.cpp:150] Setting up inception_4e/relu_3x3
I0202 13:53:32.066817 100062 net.cpp:157] Top shape: 112 320 14 14 (7024640)
I0202 13:53:32.066821 100062 net.cpp:165] Memory required for data: 5769360136
I0202 13:53:32.066825 100062 layer_factory.hpp:77] Creating layer inception_4e/5x5_reduce
I0202 13:53:32.066838 100062 net.cpp:100] Creating Layer inception_4e/5x5_reduce
I0202 13:53:32.066841 100062 net.cpp:434] inception_4e/5x5_reduce <- inception_4d/output_inception_4d/output_0_split_3
I0202 13:53:32.066848 100062 net.cpp:408] inception_4e/5x5_reduce -> inception_4e/5x5_reduce
I0202 13:53:32.067047 100062 net.cpp:150] Setting up inception_4e/5x5_reduce
I0202 13:53:32.067055 100062 net.cpp:157] Top shape: 112 32 14 14 (702464)
I0202 13:53:32.067059 100062 net.cpp:165] Memory required for data: 5772169992
I0202 13:53:32.067065 100062 layer_factory.hpp:77] Creating layer inception_4e/relu_5x5_reduce
I0202 13:53:32.067075 100062 net.cpp:100] Creating Layer inception_4e/relu_5x5_reduce
I0202 13:53:32.067080 100062 net.cpp:434] inception_4e/relu_5x5_reduce <- inception_4e/5x5_reduce
I0202 13:53:32.067085 100062 net.cpp:395] inception_4e/relu_5x5_reduce -> inception_4e/5x5_reduce (in-place)
I0202 13:53:32.067091 100062 net.cpp:150] Setting up inception_4e/relu_5x5_reduce
I0202 13:53:32.067096 100062 net.cpp:157] Top shape: 112 32 14 14 (702464)
I0202 13:53:32.067100 100062 net.cpp:165] Memory required for data: 5774979848
I0202 13:53:32.067103 100062 layer_factory.hpp:77] Creating layer inception_4e/5x5
I0202 13:53:32.067132 100062 net.cpp:100] Creating Layer inception_4e/5x5
I0202 13:53:32.067137 100062 net.cpp:434] inception_4e/5x5 <- inception_4e/5x5_reduce
I0202 13:53:32.067143 100062 net.cpp:408] inception_4e/5x5 -> inception_4e/5x5
I0202 13:53:32.068109 100062 net.cpp:150] Setting up inception_4e/5x5
I0202 13:53:32.068120 100062 net.cpp:157] Top shape: 112 128 14 14 (2809856)
I0202 13:53:32.068122 100062 net.cpp:165] Memory required for data: 5786219272
I0202 13:53:32.068130 100062 layer_factory.hpp:77] Creating layer inception_4e/relu_5x5
I0202 13:53:32.068138 100062 net.cpp:100] Creating Layer inception_4e/relu_5x5
I0202 13:53:32.068142 100062 net.cpp:434] inception_4e/relu_5x5 <- inception_4e/5x5
I0202 13:53:32.068148 100062 net.cpp:395] inception_4e/relu_5x5 -> inception_4e/5x5 (in-place)
I0202 13:53:32.068155 100062 net.cpp:150] Setting up inception_4e/relu_5x5
I0202 13:53:32.068159 100062 net.cpp:157] Top shape: 112 128 14 14 (2809856)
I0202 13:53:32.068163 100062 net.cpp:165] Memory required for data: 5797458696
I0202 13:53:32.068167 100062 layer_factory.hpp:77] Creating layer inception_4e/pool
I0202 13:53:32.068176 100062 net.cpp:100] Creating Layer inception_4e/pool
I0202 13:53:32.068181 100062 net.cpp:434] inception_4e/pool <- inception_4d/output_inception_4d/output_0_split_4
I0202 13:53:32.068187 100062 net.cpp:408] inception_4e/pool -> inception_4e/pool
I0202 13:53:32.068197 100062 net.cpp:150] Setting up inception_4e/pool
I0202 13:53:32.068202 100062 net.cpp:157] Top shape: 112 528 14 14 (11590656)
I0202 13:53:32.068205 100062 net.cpp:165] Memory required for data: 5843821320
I0202 13:53:32.068209 100062 layer_factory.hpp:77] Creating layer inception_4e/pool_proj
I0202 13:53:32.068219 100062 net.cpp:100] Creating Layer inception_4e/pool_proj
I0202 13:53:32.068238 100062 net.cpp:434] inception_4e/pool_proj <- inception_4e/pool
I0202 13:53:32.068248 100062 net.cpp:408] inception_4e/pool_proj -> inception_4e/pool_proj
I0202 13:53:32.068898 100062 net.cpp:150] Setting up inception_4e/pool_proj
I0202 13:53:32.068908 100062 net.cpp:157] Top shape: 112 128 14 14 (2809856)
I0202 13:53:32.068912 100062 net.cpp:165] Memory required for data: 5855060744
I0202 13:53:32.068919 100062 layer_factory.hpp:77] Creating layer inception_4e/relu_pool_proj
I0202 13:53:32.068925 100062 net.cpp:100] Creating Layer inception_4e/relu_pool_proj
I0202 13:53:32.068929 100062 net.cpp:434] inception_4e/relu_pool_proj <- inception_4e/pool_proj
I0202 13:53:32.068938 100062 net.cpp:395] inception_4e/relu_pool_proj -> inception_4e/pool_proj (in-place)
I0202 13:53:32.068944 100062 net.cpp:150] Setting up inception_4e/relu_pool_proj
I0202 13:53:32.068949 100062 net.cpp:157] Top shape: 112 128 14 14 (2809856)
I0202 13:53:32.068953 100062 net.cpp:165] Memory required for data: 5866300168
I0202 13:53:32.068956 100062 layer_factory.hpp:77] Creating layer inception_4e/output
I0202 13:53:32.068964 100062 net.cpp:100] Creating Layer inception_4e/output
I0202 13:53:32.068967 100062 net.cpp:434] inception_4e/output <- inception_4e/1x1
I0202 13:53:32.068972 100062 net.cpp:434] inception_4e/output <- inception_4e/3x3
I0202 13:53:32.068977 100062 net.cpp:434] inception_4e/output <- inception_4e/5x5
I0202 13:53:32.068981 100062 net.cpp:434] inception_4e/output <- inception_4e/pool_proj
I0202 13:53:32.068987 100062 net.cpp:408] inception_4e/output -> inception_4e/output
I0202 13:53:32.068996 100062 net.cpp:150] Setting up inception_4e/output
I0202 13:53:32.069001 100062 net.cpp:157] Top shape: 112 832 14 14 (18264064)
I0202 13:53:32.069005 100062 net.cpp:165] Memory required for data: 5939356424
I0202 13:53:32.069008 100062 layer_factory.hpp:77] Creating layer pool4/3x3_s2
I0202 13:53:32.069015 100062 net.cpp:100] Creating Layer pool4/3x3_s2
I0202 13:53:32.069020 100062 net.cpp:434] pool4/3x3_s2 <- inception_4e/output
I0202 13:53:32.069031 100062 net.cpp:408] pool4/3x3_s2 -> pool4/3x3_s2
I0202 13:53:32.069041 100062 net.cpp:150] Setting up pool4/3x3_s2
I0202 13:53:32.069046 100062 net.cpp:157] Top shape: 112 832 7 7 (4566016)
I0202 13:53:32.069049 100062 net.cpp:165] Memory required for data: 5957620488
I0202 13:53:32.069053 100062 layer_factory.hpp:77] Creating layer pool4/3x3_s2_pool4/3x3_s2_0_split
I0202 13:53:32.069061 100062 net.cpp:100] Creating Layer pool4/3x3_s2_pool4/3x3_s2_0_split
I0202 13:53:32.069064 100062 net.cpp:434] pool4/3x3_s2_pool4/3x3_s2_0_split <- pool4/3x3_s2
I0202 13:53:32.069070 100062 net.cpp:408] pool4/3x3_s2_pool4/3x3_s2_0_split -> pool4/3x3_s2_pool4/3x3_s2_0_split_0
I0202 13:53:32.069077 100062 net.cpp:408] pool4/3x3_s2_pool4/3x3_s2_0_split -> pool4/3x3_s2_pool4/3x3_s2_0_split_1
I0202 13:53:32.069083 100062 net.cpp:408] pool4/3x3_s2_pool4/3x3_s2_0_split -> pool4/3x3_s2_pool4/3x3_s2_0_split_2
I0202 13:53:32.069090 100062 net.cpp:408] pool4/3x3_s2_pool4/3x3_s2_0_split -> pool4/3x3_s2_pool4/3x3_s2_0_split_3
I0202 13:53:32.069097 100062 net.cpp:150] Setting up pool4/3x3_s2_pool4/3x3_s2_0_split
I0202 13:53:32.069103 100062 net.cpp:157] Top shape: 112 832 7 7 (4566016)
I0202 13:53:32.069108 100062 net.cpp:157] Top shape: 112 832 7 7 (4566016)
I0202 13:53:32.069113 100062 net.cpp:157] Top shape: 112 832 7 7 (4566016)
I0202 13:53:32.069116 100062 net.cpp:157] Top shape: 112 832 7 7 (4566016)
I0202 13:53:32.069120 100062 net.cpp:165] Memory required for data: 6030676744
I0202 13:53:32.069124 100062 layer_factory.hpp:77] Creating layer inception_5a/1x1
I0202 13:53:32.069135 100062 net.cpp:100] Creating Layer inception_5a/1x1
I0202 13:53:32.069139 100062 net.cpp:434] inception_5a/1x1 <- pool4/3x3_s2_pool4/3x3_s2_0_split_0
I0202 13:53:32.069146 100062 net.cpp:408] inception_5a/1x1 -> inception_5a/1x1
I0202 13:53:32.071111 100062 net.cpp:150] Setting up inception_5a/1x1
I0202 13:53:32.071122 100062 net.cpp:157] Top shape: 112 256 7 7 (1404928)
I0202 13:53:32.071130 100062 net.cpp:165] Memory required for data: 6036296456
I0202 13:53:32.071143 100062 layer_factory.hpp:77] Creating layer inception_5a/relu_1x1
I0202 13:53:32.071152 100062 net.cpp:100] Creating Layer inception_5a/relu_1x1
I0202 13:53:32.071157 100062 net.cpp:434] inception_5a/relu_1x1 <- inception_5a/1x1
I0202 13:53:32.071162 100062 net.cpp:395] inception_5a/relu_1x1 -> inception_5a/1x1 (in-place)
I0202 13:53:32.071169 100062 net.cpp:150] Setting up inception_5a/relu_1x1
I0202 13:53:32.071174 100062 net.cpp:157] Top shape: 112 256 7 7 (1404928)
I0202 13:53:32.071178 100062 net.cpp:165] Memory required for data: 6041916168
I0202 13:53:32.071182 100062 layer_factory.hpp:77] Creating layer inception_5a/3x3_reduce
I0202 13:53:32.071190 100062 net.cpp:100] Creating Layer inception_5a/3x3_reduce
I0202 13:53:32.071194 100062 net.cpp:434] inception_5a/3x3_reduce <- pool4/3x3_s2_pool4/3x3_s2_0_split_1
I0202 13:53:32.071203 100062 net.cpp:408] inception_5a/3x3_reduce -> inception_5a/3x3_reduce
I0202 13:53:32.072449 100062 net.cpp:150] Setting up inception_5a/3x3_reduce
I0202 13:53:32.072459 100062 net.cpp:157] Top shape: 112 160 7 7 (878080)
I0202 13:53:32.072463 100062 net.cpp:165] Memory required for data: 6045428488
I0202 13:53:32.072469 100062 layer_factory.hpp:77] Creating layer inception_5a/relu_3x3_reduce
I0202 13:53:32.072475 100062 net.cpp:100] Creating Layer inception_5a/relu_3x3_reduce
I0202 13:53:32.072480 100062 net.cpp:434] inception_5a/relu_3x3_reduce <- inception_5a/3x3_reduce
I0202 13:53:32.072486 100062 net.cpp:395] inception_5a/relu_3x3_reduce -> inception_5a/3x3_reduce (in-place)
I0202 13:53:32.072492 100062 net.cpp:150] Setting up inception_5a/relu_3x3_reduce
I0202 13:53:32.072497 100062 net.cpp:157] Top shape: 112 160 7 7 (878080)
I0202 13:53:32.072501 100062 net.cpp:165] Memory required for data: 6048940808
I0202 13:53:32.072505 100062 layer_factory.hpp:77] Creating layer inception_5a/3x3
I0202 13:53:32.072513 100062 net.cpp:100] Creating Layer inception_5a/3x3
I0202 13:53:32.072516 100062 net.cpp:434] inception_5a/3x3 <- inception_5a/3x3_reduce
I0202 13:53:32.072526 100062 net.cpp:408] inception_5a/3x3 -> inception_5a/3x3
I0202 13:53:32.077224 100062 net.cpp:150] Setting up inception_5a/3x3
I0202 13:53:32.077234 100062 net.cpp:157] Top shape: 112 320 7 7 (1756160)
I0202 13:53:32.077237 100062 net.cpp:165] Memory required for data: 6055965448
I0202 13:53:32.077244 100062 layer_factory.hpp:77] Creating layer inception_5a/relu_3x3
I0202 13:53:32.077251 100062 net.cpp:100] Creating Layer inception_5a/relu_3x3
I0202 13:53:32.077255 100062 net.cpp:434] inception_5a/relu_3x3 <- inception_5a/3x3
I0202 13:53:32.077261 100062 net.cpp:395] inception_5a/relu_3x3 -> inception_5a/3x3 (in-place)
I0202 13:53:32.077267 100062 net.cpp:150] Setting up inception_5a/relu_3x3
I0202 13:53:32.077272 100062 net.cpp:157] Top shape: 112 320 7 7 (1756160)
I0202 13:53:32.077276 100062 net.cpp:165] Memory required for data: 6062990088
I0202 13:53:32.077280 100062 layer_factory.hpp:77] Creating layer inception_5a/5x5_reduce
I0202 13:53:32.077291 100062 net.cpp:100] Creating Layer inception_5a/5x5_reduce
I0202 13:53:32.077296 100062 net.cpp:434] inception_5a/5x5_reduce <- pool4/3x3_s2_pool4/3x3_s2_0_split_2
I0202 13:53:32.077302 100062 net.cpp:408] inception_5a/5x5_reduce -> inception_5a/5x5_reduce
I0202 13:53:32.077565 100062 net.cpp:150] Setting up inception_5a/5x5_reduce
I0202 13:53:32.077572 100062 net.cpp:157] Top shape: 112 32 7 7 (175616)
I0202 13:53:32.077576 100062 net.cpp:165] Memory required for data: 6063692552
I0202 13:53:32.077582 100062 layer_factory.hpp:77] Creating layer inception_5a/relu_5x5_reduce
I0202 13:53:32.077590 100062 net.cpp:100] Creating Layer inception_5a/relu_5x5_reduce
I0202 13:53:32.077595 100062 net.cpp:434] inception_5a/relu_5x5_reduce <- inception_5a/5x5_reduce
I0202 13:53:32.077600 100062 net.cpp:395] inception_5a/relu_5x5_reduce -> inception_5a/5x5_reduce (in-place)
I0202 13:53:32.077607 100062 net.cpp:150] Setting up inception_5a/relu_5x5_reduce
I0202 13:53:32.077612 100062 net.cpp:157] Top shape: 112 32 7 7 (175616)
I0202 13:53:32.077633 100062 net.cpp:165] Memory required for data: 6064395016
I0202 13:53:32.077639 100062 layer_factory.hpp:77] Creating layer inception_5a/5x5
I0202 13:53:32.077651 100062 net.cpp:100] Creating Layer inception_5a/5x5
I0202 13:53:32.077654 100062 net.cpp:434] inception_5a/5x5 <- inception_5a/5x5_reduce
I0202 13:53:32.077663 100062 net.cpp:408] inception_5a/5x5 -> inception_5a/5x5
I0202 13:53:32.078639 100062 net.cpp:150] Setting up inception_5a/5x5
I0202 13:53:32.078650 100062 net.cpp:157] Top shape: 112 128 7 7 (702464)
I0202 13:53:32.078655 100062 net.cpp:165] Memory required for data: 6067204872
I0202 13:53:32.078660 100062 layer_factory.hpp:77] Creating layer inception_5a/relu_5x5
I0202 13:53:32.078666 100062 net.cpp:100] Creating Layer inception_5a/relu_5x5
I0202 13:53:32.078671 100062 net.cpp:434] inception_5a/relu_5x5 <- inception_5a/5x5
I0202 13:53:32.078676 100062 net.cpp:395] inception_5a/relu_5x5 -> inception_5a/5x5 (in-place)
I0202 13:53:32.078683 100062 net.cpp:150] Setting up inception_5a/relu_5x5
I0202 13:53:32.078688 100062 net.cpp:157] Top shape: 112 128 7 7 (702464)
I0202 13:53:32.078691 100062 net.cpp:165] Memory required for data: 6070014728
I0202 13:53:32.078696 100062 layer_factory.hpp:77] Creating layer inception_5a/pool
I0202 13:53:32.078709 100062 net.cpp:100] Creating Layer inception_5a/pool
I0202 13:53:32.078714 100062 net.cpp:434] inception_5a/pool <- pool4/3x3_s2_pool4/3x3_s2_0_split_3
I0202 13:53:32.078721 100062 net.cpp:408] inception_5a/pool -> inception_5a/pool
I0202 13:53:32.078730 100062 net.cpp:150] Setting up inception_5a/pool
I0202 13:53:32.078735 100062 net.cpp:157] Top shape: 112 832 7 7 (4566016)
I0202 13:53:32.078739 100062 net.cpp:165] Memory required for data: 6088278792
I0202 13:53:32.078743 100062 layer_factory.hpp:77] Creating layer inception_5a/pool_proj
I0202 13:53:32.078753 100062 net.cpp:100] Creating Layer inception_5a/pool_proj
I0202 13:53:32.078758 100062 net.cpp:434] inception_5a/pool_proj <- inception_5a/pool
I0202 13:53:32.078766 100062 net.cpp:408] inception_5a/pool_proj -> inception_5a/pool_proj
I0202 13:53:32.079767 100062 net.cpp:150] Setting up inception_5a/pool_proj
I0202 13:53:32.079777 100062 net.cpp:157] Top shape: 112 128 7 7 (702464)
I0202 13:53:32.079782 100062 net.cpp:165] Memory required for data: 6091088648
I0202 13:53:32.079788 100062 layer_factory.hpp:77] Creating layer inception_5a/relu_pool_proj
I0202 13:53:32.079793 100062 net.cpp:100] Creating Layer inception_5a/relu_pool_proj
I0202 13:53:32.079798 100062 net.cpp:434] inception_5a/relu_pool_proj <- inception_5a/pool_proj
I0202 13:53:32.079807 100062 net.cpp:395] inception_5a/relu_pool_proj -> inception_5a/pool_proj (in-place)
I0202 13:53:32.079813 100062 net.cpp:150] Setting up inception_5a/relu_pool_proj
I0202 13:53:32.079818 100062 net.cpp:157] Top shape: 112 128 7 7 (702464)
I0202 13:53:32.079823 100062 net.cpp:165] Memory required for data: 6093898504
I0202 13:53:32.079826 100062 layer_factory.hpp:77] Creating layer inception_5a/output
I0202 13:53:32.079833 100062 net.cpp:100] Creating Layer inception_5a/output
I0202 13:53:32.079836 100062 net.cpp:434] inception_5a/output <- inception_5a/1x1
I0202 13:53:32.079841 100062 net.cpp:434] inception_5a/output <- inception_5a/3x3
I0202 13:53:32.079846 100062 net.cpp:434] inception_5a/output <- inception_5a/5x5
I0202 13:53:32.079851 100062 net.cpp:434] inception_5a/output <- inception_5a/pool_proj
I0202 13:53:32.079856 100062 net.cpp:408] inception_5a/output -> inception_5a/output
I0202 13:53:32.079865 100062 net.cpp:150] Setting up inception_5a/output
I0202 13:53:32.079870 100062 net.cpp:157] Top shape: 112 832 7 7 (4566016)
I0202 13:53:32.079874 100062 net.cpp:165] Memory required for data: 6112162568
I0202 13:53:32.079877 100062 layer_factory.hpp:77] Creating layer inception_5a/output_inception_5a/output_0_split
I0202 13:53:32.079885 100062 net.cpp:100] Creating Layer inception_5a/output_inception_5a/output_0_split
I0202 13:53:32.079890 100062 net.cpp:434] inception_5a/output_inception_5a/output_0_split <- inception_5a/output
I0202 13:53:32.079906 100062 net.cpp:408] inception_5a/output_inception_5a/output_0_split -> inception_5a/output_inception_5a/output_0_split_0
I0202 13:53:32.079916 100062 net.cpp:408] inception_5a/output_inception_5a/output_0_split -> inception_5a/output_inception_5a/output_0_split_1
I0202 13:53:32.079924 100062 net.cpp:408] inception_5a/output_inception_5a/output_0_split -> inception_5a/output_inception_5a/output_0_split_2
I0202 13:53:32.079931 100062 net.cpp:408] inception_5a/output_inception_5a/output_0_split -> inception_5a/output_inception_5a/output_0_split_3
I0202 13:53:32.079938 100062 net.cpp:150] Setting up inception_5a/output_inception_5a/output_0_split
I0202 13:53:32.079944 100062 net.cpp:157] Top shape: 112 832 7 7 (4566016)
I0202 13:53:32.079949 100062 net.cpp:157] Top shape: 112 832 7 7 (4566016)
I0202 13:53:32.079953 100062 net.cpp:157] Top shape: 112 832 7 7 (4566016)
I0202 13:53:32.079958 100062 net.cpp:157] Top shape: 112 832 7 7 (4566016)
I0202 13:53:32.079962 100062 net.cpp:165] Memory required for data: 6185218824
I0202 13:53:32.079965 100062 layer_factory.hpp:77] Creating layer inception_5b/1x1
I0202 13:53:32.079977 100062 net.cpp:100] Creating Layer inception_5b/1x1
I0202 13:53:32.079980 100062 net.cpp:434] inception_5b/1x1 <- inception_5a/output_inception_5a/output_0_split_0
I0202 13:53:32.079987 100062 net.cpp:408] inception_5b/1x1 -> inception_5b/1x1
I0202 13:53:32.082926 100062 net.cpp:150] Setting up inception_5b/1x1
I0202 13:53:32.082937 100062 net.cpp:157] Top shape: 112 384 7 7 (2107392)
I0202 13:53:32.082939 100062 net.cpp:165] Memory required for data: 6193648392
I0202 13:53:32.082947 100062 layer_factory.hpp:77] Creating layer inception_5b/relu_1x1
I0202 13:53:32.082957 100062 net.cpp:100] Creating Layer inception_5b/relu_1x1
I0202 13:53:32.082960 100062 net.cpp:434] inception_5b/relu_1x1 <- inception_5b/1x1
I0202 13:53:32.082967 100062 net.cpp:395] inception_5b/relu_1x1 -> inception_5b/1x1 (in-place)
I0202 13:53:32.082973 100062 net.cpp:150] Setting up inception_5b/relu_1x1
I0202 13:53:32.082978 100062 net.cpp:157] Top shape: 112 384 7 7 (2107392)
I0202 13:53:32.082983 100062 net.cpp:165] Memory required for data: 6202077960
I0202 13:53:32.082986 100062 layer_factory.hpp:77] Creating layer inception_5b/3x3_reduce
I0202 13:53:32.082995 100062 net.cpp:100] Creating Layer inception_5b/3x3_reduce
I0202 13:53:32.082999 100062 net.cpp:434] inception_5b/3x3_reduce <- inception_5a/output_inception_5a/output_0_split_1
I0202 13:53:32.083009 100062 net.cpp:408] inception_5b/3x3_reduce -> inception_5b/3x3_reduce
I0202 13:53:32.084491 100062 net.cpp:150] Setting up inception_5b/3x3_reduce
I0202 13:53:32.084501 100062 net.cpp:157] Top shape: 112 192 7 7 (1053696)
I0202 13:53:32.084506 100062 net.cpp:165] Memory required for data: 6206292744
I0202 13:53:32.084512 100062 layer_factory.hpp:77] Creating layer inception_5b/relu_3x3_reduce
I0202 13:53:32.084525 100062 net.cpp:100] Creating Layer inception_5b/relu_3x3_reduce
I0202 13:53:32.084530 100062 net.cpp:434] inception_5b/relu_3x3_reduce <- inception_5b/3x3_reduce
I0202 13:53:32.084535 100062 net.cpp:395] inception_5b/relu_3x3_reduce -> inception_5b/3x3_reduce (in-place)
I0202 13:53:32.084542 100062 net.cpp:150] Setting up inception_5b/relu_3x3_reduce
I0202 13:53:32.084547 100062 net.cpp:157] Top shape: 112 192 7 7 (1053696)
I0202 13:53:32.084550 100062 net.cpp:165] Memory required for data: 6210507528
I0202 13:53:32.084554 100062 layer_factory.hpp:77] Creating layer inception_5b/3x3
I0202 13:53:32.084563 100062 net.cpp:100] Creating Layer inception_5b/3x3
I0202 13:53:32.084566 100062 net.cpp:434] inception_5b/3x3 <- inception_5b/3x3_reduce
I0202 13:53:32.084574 100062 net.cpp:408] inception_5b/3x3 -> inception_5b/3x3
I0202 13:53:32.091292 100062 net.cpp:150] Setting up inception_5b/3x3
I0202 13:53:32.091305 100062 net.cpp:157] Top shape: 112 384 7 7 (2107392)
I0202 13:53:32.091308 100062 net.cpp:165] Memory required for data: 6218937096
I0202 13:53:32.091315 100062 layer_factory.hpp:77] Creating layer inception_5b/relu_3x3
I0202 13:53:32.091325 100062 net.cpp:100] Creating Layer inception_5b/relu_3x3
I0202 13:53:32.091338 100062 net.cpp:434] inception_5b/relu_3x3 <- inception_5b/3x3
I0202 13:53:32.091344 100062 net.cpp:395] inception_5b/relu_3x3 -> inception_5b/3x3 (in-place)
I0202 13:53:32.091352 100062 net.cpp:150] Setting up inception_5b/relu_3x3
I0202 13:53:32.091357 100062 net.cpp:157] Top shape: 112 384 7 7 (2107392)
I0202 13:53:32.091361 100062 net.cpp:165] Memory required for data: 6227366664
I0202 13:53:32.091364 100062 layer_factory.hpp:77] Creating layer inception_5b/5x5_reduce
I0202 13:53:32.091377 100062 net.cpp:100] Creating Layer inception_5b/5x5_reduce
I0202 13:53:32.091380 100062 net.cpp:434] inception_5b/5x5_reduce <- inception_5a/output_inception_5a/output_0_split_2
I0202 13:53:32.091387 100062 net.cpp:408] inception_5b/5x5_reduce -> inception_5b/5x5_reduce
I0202 13:53:32.091768 100062 net.cpp:150] Setting up inception_5b/5x5_reduce
I0202 13:53:32.091778 100062 net.cpp:157] Top shape: 112 48 7 7 (263424)
I0202 13:53:32.091781 100062 net.cpp:165] Memory required for data: 6228420360
I0202 13:53:32.091789 100062 layer_factory.hpp:77] Creating layer inception_5b/relu_5x5_reduce
I0202 13:53:32.091796 100062 net.cpp:100] Creating Layer inception_5b/relu_5x5_reduce
I0202 13:53:32.091801 100062 net.cpp:434] inception_5b/relu_5x5_reduce <- inception_5b/5x5_reduce
I0202 13:53:32.091806 100062 net.cpp:395] inception_5b/relu_5x5_reduce -> inception_5b/5x5_reduce (in-place)
I0202 13:53:32.091814 100062 net.cpp:150] Setting up inception_5b/relu_5x5_reduce
I0202 13:53:32.091819 100062 net.cpp:157] Top shape: 112 48 7 7 (263424)
I0202 13:53:32.091821 100062 net.cpp:165] Memory required for data: 6229474056
I0202 13:53:32.091825 100062 layer_factory.hpp:77] Creating layer inception_5b/5x5
I0202 13:53:32.091835 100062 net.cpp:100] Creating Layer inception_5b/5x5
I0202 13:53:32.091840 100062 net.cpp:434] inception_5b/5x5 <- inception_5b/5x5_reduce
I0202 13:53:32.091848 100062 net.cpp:408] inception_5b/5x5 -> inception_5b/5x5
I0202 13:53:32.093250 100062 net.cpp:150] Setting up inception_5b/5x5
I0202 13:53:32.093262 100062 net.cpp:157] Top shape: 112 128 7 7 (702464)
I0202 13:53:32.093266 100062 net.cpp:165] Memory required for data: 6232283912
I0202 13:53:32.093273 100062 layer_factory.hpp:77] Creating layer inception_5b/relu_5x5
I0202 13:53:32.093279 100062 net.cpp:100] Creating Layer inception_5b/relu_5x5
I0202 13:53:32.093283 100062 net.cpp:434] inception_5b/relu_5x5 <- inception_5b/5x5
I0202 13:53:32.093289 100062 net.cpp:395] inception_5b/relu_5x5 -> inception_5b/5x5 (in-place)
I0202 13:53:32.093296 100062 net.cpp:150] Setting up inception_5b/relu_5x5
I0202 13:53:32.093300 100062 net.cpp:157] Top shape: 112 128 7 7 (702464)
I0202 13:53:32.093304 100062 net.cpp:165] Memory required for data: 6235093768
I0202 13:53:32.093307 100062 layer_factory.hpp:77] Creating layer inception_5b/pool
I0202 13:53:32.093317 100062 net.cpp:100] Creating Layer inception_5b/pool
I0202 13:53:32.093322 100062 net.cpp:434] inception_5b/pool <- inception_5a/output_inception_5a/output_0_split_3
I0202 13:53:32.093327 100062 net.cpp:408] inception_5b/pool -> inception_5b/pool
I0202 13:53:32.093336 100062 net.cpp:150] Setting up inception_5b/pool
I0202 13:53:32.093343 100062 net.cpp:157] Top shape: 112 832 7 7 (4566016)
I0202 13:53:32.093345 100062 net.cpp:165] Memory required for data: 6253357832
I0202 13:53:32.093350 100062 layer_factory.hpp:77] Creating layer inception_5b/pool_proj
I0202 13:53:32.093360 100062 net.cpp:100] Creating Layer inception_5b/pool_proj
I0202 13:53:32.093365 100062 net.cpp:434] inception_5b/pool_proj <- inception_5b/pool
I0202 13:53:32.093374 100062 net.cpp:408] inception_5b/pool_proj -> inception_5b/pool_proj
I0202 13:53:32.094360 100062 net.cpp:150] Setting up inception_5b/pool_proj
I0202 13:53:32.094370 100062 net.cpp:157] Top shape: 112 128 7 7 (702464)
I0202 13:53:32.094373 100062 net.cpp:165] Memory required for data: 6256167688
I0202 13:53:32.094380 100062 layer_factory.hpp:77] Creating layer inception_5b/relu_pool_proj
I0202 13:53:32.094390 100062 net.cpp:100] Creating Layer inception_5b/relu_pool_proj
I0202 13:53:32.094403 100062 net.cpp:434] inception_5b/relu_pool_proj <- inception_5b/pool_proj
I0202 13:53:32.094413 100062 net.cpp:395] inception_5b/relu_pool_proj -> inception_5b/pool_proj (in-place)
I0202 13:53:32.094419 100062 net.cpp:150] Setting up inception_5b/relu_pool_proj
I0202 13:53:32.094424 100062 net.cpp:157] Top shape: 112 128 7 7 (702464)
I0202 13:53:32.094429 100062 net.cpp:165] Memory required for data: 6258977544
I0202 13:53:32.094432 100062 layer_factory.hpp:77] Creating layer inception_5b/output
I0202 13:53:32.094439 100062 net.cpp:100] Creating Layer inception_5b/output
I0202 13:53:32.094442 100062 net.cpp:434] inception_5b/output <- inception_5b/1x1
I0202 13:53:32.094447 100062 net.cpp:434] inception_5b/output <- inception_5b/3x3
I0202 13:53:32.094452 100062 net.cpp:434] inception_5b/output <- inception_5b/5x5
I0202 13:53:32.094457 100062 net.cpp:434] inception_5b/output <- inception_5b/pool_proj
I0202 13:53:32.094465 100062 net.cpp:408] inception_5b/output -> inception_5b/output
I0202 13:53:32.094473 100062 net.cpp:150] Setting up inception_5b/output
I0202 13:53:32.094478 100062 net.cpp:157] Top shape: 112 1024 7 7 (5619712)
I0202 13:53:32.094482 100062 net.cpp:165] Memory required for data: 6281456392
I0202 13:53:32.094485 100062 layer_factory.hpp:77] Creating layer pool5/7x7_s1
I0202 13:53:32.094491 100062 net.cpp:100] Creating Layer pool5/7x7_s1
I0202 13:53:32.094496 100062 net.cpp:434] pool5/7x7_s1 <- inception_5b/output
I0202 13:53:32.094504 100062 net.cpp:408] pool5/7x7_s1 -> pool5/7x7_s1
I0202 13:53:32.094512 100062 net.cpp:150] Setting up pool5/7x7_s1
I0202 13:53:32.094517 100062 net.cpp:157] Top shape: 112 1024 1 1 (114688)
I0202 13:53:32.094521 100062 net.cpp:165] Memory required for data: 6281915144
I0202 13:53:32.094524 100062 layer_factory.hpp:77] Creating layer pool5/drop_7x7_s1
I0202 13:53:32.094532 100062 net.cpp:100] Creating Layer pool5/drop_7x7_s1
I0202 13:53:32.094535 100062 net.cpp:434] pool5/drop_7x7_s1 <- pool5/7x7_s1
I0202 13:53:32.094540 100062 net.cpp:395] pool5/drop_7x7_s1 -> pool5/7x7_s1 (in-place)
I0202 13:53:32.094548 100062 net.cpp:150] Setting up pool5/drop_7x7_s1
I0202 13:53:32.094553 100062 net.cpp:157] Top shape: 112 1024 1 1 (114688)
I0202 13:53:32.094557 100062 net.cpp:165] Memory required for data: 6282373896
I0202 13:53:32.094560 100062 layer_factory.hpp:77] Creating layer loss3/classifier
I0202 13:53:32.094570 100062 net.cpp:100] Creating Layer loss3/classifier
I0202 13:53:32.094574 100062 net.cpp:434] loss3/classifier <- pool5/7x7_s1
I0202 13:53:32.094580 100062 net.cpp:408] loss3/classifier -> loss3/classifier
I0202 13:53:32.103984 100062 net.cpp:150] Setting up loss3/classifier
I0202 13:53:32.103994 100062 net.cpp:157] Top shape: 112 1000 (112000)
I0202 13:53:32.103998 100062 net.cpp:165] Memory required for data: 6282821896
I0202 13:53:32.104005 100062 layer_factory.hpp:77] Creating layer loss3/loss3
I0202 13:53:32.104014 100062 net.cpp:100] Creating Layer loss3/loss3
I0202 13:53:32.104018 100062 net.cpp:434] loss3/loss3 <- loss3/classifier
I0202 13:53:32.104024 100062 net.cpp:434] loss3/loss3 <- label_data_1_split_2
I0202 13:53:32.104030 100062 net.cpp:408] loss3/loss3 -> loss3/loss3
…
I0202 13:53:32.112231 100062 net.cpp:322] The NetState phase (1) differed from the phase (0) specified by a rule in layer data
I0202 13:53:32.115337 100062 net.cpp:58] Initializing net from parameters: 
name: "GoogleNet"
state {
  phase: TEST
}
layer {
  name: "data"
  type: "Data"
  top: "data"
  top: "label"
  include {
    phase: TEST
  }
  transform_param {
    mirror: false
    crop_size: 224
    mean_value: 104
    mean_value: 117
    mean_value: 123
  }
  data_param {
    source: "/home/user/LIBRARIES/caffeLibs/caffe/examples/imagenet/ilsvrc12_val_lmdb"
    batch_size: 50
    backend: LMDB
  }
}
layer {
  name: "conv1/7x7_s2"
  type: "Convolution"
  bottom: "data"
  top: "conv1/7x7_s2"
  param {
    lr_mult: 1
    decay_mult: 1
  }
  param {
    lr_mult: 2
    decay_mult: 0
  }
  convolution_param {
    num_output: 64
    pad: 3
    kernel_size: 7
    stride: 2
    weight_filler {
      type: "xavier"
    }
    bias_filler {
      type: "constant"
      value: 0.2
    }
  }
}
layer {
  name: "conv1/relu_7x7"
  type: "ReLU"
  bottom: "conv1/7x7_s2"
  top: "conv1/7x7_s2"
}
layer {
  name: "pool1/3x3_s2"
  type: "Pooling"
  bottom: "conv1/7x7_s2"
  top: "pool1/3x3_s2"
  pooling_param {
    pool: MAX
    kernel_size: 3
    stride: 2
  }
}
layer {
  name: "pool1/norm1"
  type: "LRN"
  bottom: "pool1/3x3_s2"
  top: "pool1/norm1"
  lrn_param {
    local_size: 5
    alpha: 0.0001
    beta: 0.75
  }
}
layer {
  name: "conv2/3x3_reduce"
  type: "Convolution"
  bottom: "pool1/norm1"
  top: "conv2/3x3_reduce"
  param {
    lr_mult: 1
    decay_mult: 1
  }
  param {
    lr_mult: 2
    decay_mult: 0
  }
  convolution_param {
    num_output: 64
    kernel_size: 1
    weight_filler {
      type: "xavier"
    }
    bias_filler {
      type: "constant"
      value: 0.2
    }
  }
}
layer {
  name: "conv2/relu_3x3_reduce"
  type: "ReLU"
  bottom: "conv2/3x3_reduce"
  top: "conv2/3x3_reduce"
}
layer {
  name: "conv2/3x3"
  type: "Convolution"
  bottom: "conv2/3x3_reduce"
  top: "conv2/3x3"
  param {
    lr_mult: 1
    decay_mult: 1
  }
  param {
    lr_mult: 2
    decay_mult: 0
  }
  convolution_param {
    num_output: 192
    pad: 1
    kernel_size: 3
    weight_filler {
      type: "xavier"
    }
    bias_filler {
      type: "constant"
      value: 0.2
    }
  }
}
layer {
  name: "conv2/relu_3x3"
  type: "ReLU"
  bottom: "conv2/3x3"
  top: "conv2/3x3"
}
layer {
  name: "conv2/norm2"
  type: "LRN"
  bottom: "conv2/3x3"
  top: "conv2/norm2"
  lrn_param {
    local_size: 5
    alpha: 0.0001
    beta: 0.75
  }
}
layer {
  name: "pool2/3x3_s2"
  type: "Pooling"
  bottom: "conv2/norm2"
  top: "pool2/3x3_s2"
  pooling_param {
    pool: MAX
    kernel_size: 3
    stride: 2
  }
}
layer {
  name: "inception_3a/1x1"
  type: "Convolution"
  bottom: "pool2/3x3_s2"
  top: "inception_3a/1x1"
  param {
    lr_mult: 1
    decay_mult: 1
  }
  param {
    lr_mult: 2
    decay_mult: 0
  }
  convolution_param {
    num_output: 64
    kernel_size: 1
    weight_filler {
      type: "xavier"
    }
    bias_filler {
      type: "constant"
      value: 0.2
    }
  }
}
layer {
  name: "inception_3a/relu_1x1"
  type: "ReLU"
  bottom: "inception_3a/1x1"
  top: "inception_3a/1x1"
}
layer {
  name: "inception_3a/3x3_reduce"
  type: "Convolution"
  bottom: "pool2/3x3_s2"
  top: "inception_3a/3x3_reduce"
  param {
    lr_mult: 1
    decay_mult: 1
  }
  param {
    lr_mult: 2
    decay_mult: 0
  }
  convolution_param {
    num_output: 96
    kernel_size: 1
    weight_filler {
      type: "xavier"
    }
    bias_filler {
      type: "constant"
      value: 0.2
    }
  }
}
layer {
  name: "inception_3a/relu_3x3_reduce"
  type: "ReLU"
  bottom: "inception_3a/3x3_reduce"
  top: "inception_3a/3x3_reduce"
}
layer {
  name: "inception_3a/3x3"
  type: "Convolution"
  bottom: "inception_3a/3x3_reduce"
  top: "inception_3a/3x3"
  param {
    lr_mult: 1
    decay_mult: 1
  }
  param {
    lr_mult: 2
    decay_mult: 0
  }
  convolution_param {
    num_output: 128
    pad: 1
    kernel_size: 3
    weight_filler {
      type: "xavier"
    }
    bias_filler {
      type: "constant"
      value: 0.2
    }
  }
}
layer {
  name: "inception_3a/relu_3x3"
  type: "ReLU"
  bottom: "inception_3a/3x3"
  top: "inception_3a/3x3"
}
layer {
  name: "inception_3a/5x5_reduce"
  type: "Convolution"
  bottom: "pool2/3x3_s2"
  top: "inception_3a/5x5_reduce"
  param {
    lr_mult: 1
    decay_mult: 1
  }
  param {
    lr_mult: 2
    decay_mult: 0
  }
  convolution_param {
    num_output: 16
    kernel_size: 1
    weight_filler {
      type: "xavier"
    }
    bias_filler {
      type: "constant"
      value: 0.2
    }
  }
}
layer {
  name: "inception_3a/relu_5x5_reduce"
  type: "ReLU"
  bottom: "inception_3a/5x5_reduce"
  top: "inception_3a/5x5_reduce"
}
layer {
  name: "inception_3a/5x5"
  type: "Convolution"
  bottom: "inception_3a/5x5_reduce"
  top: "inception_3a/5x5"
  param {
    lr_mult: 1
    decay_mult: 1
  }
  param {
    lr_mult: 2
    decay_mult: 0
  }
  convolution_param {
    num_output: 32
    pad: 2
    kernel_size: 5
    weight_filler {
      type: "xavier"
    }
    bias_filler {
      type: "constant"
      value: 0.2
    }
  }
}
layer {
  name: "inception_3a/relu_5x5"
  type: "ReLU"
  bottom: "inception_3a/5x5"
  top: "inception_3a/5x5"
}
layer {
  name: "inception_3a/pool"
  type: "Pooling"
  bottom: "pool2/3x3_s2"
  top: "inception_3a/pool"
  pooling_param {
    pool: MAX
    kernel_size: 3
    stride: 1
    pad: 1
  }
}
layer {
  name: "inception_3a/pool_proj"
  type: "Convolution"
  bottom: "inception_3a/pool"
  top: "inception_3a/pool_proj"
  param {
    lr_mult: 1
    decay_mult: 1
  }
  param {
    lr_mult: 2
    decay_mult: 0
  }
  convolution_param {
    num_output: 32
    kernel_size: 1
    weight_filler {
      type: "xavier"
    }
    bias_filler {
      type: "constant"
      value: 0.2
    }
  }
}
layer {
  name: "inception_3a/relu_pool_proj"
  type: "ReLU"
  bottom: "inception_3a/pool_proj"
  top: "inception_3a/pool_proj"
}
layer {
  name: "inception_3a/output"
  type: "Concat"
  bottom: "inception_3a/1x1"
  bottom: "inception_3a/3x3"
  bottom: "inception_3a/5x5"
  bottom: "inception_3a/pool_proj"
  top: "inception_3a/output"
}
layer {
  name: "inception_3b/1x1"
  type: "Convolution"
  bottom: "inception_3a/output"
  top: "inception_3b/1x1"
  param {
    lr_mult: 1
    decay_mult: 1
  }
  param {
    lr_mult: 2
    decay_mult: 0
  }
  convolution_param {
    num_output: 128
    kernel_size: 1
    weight_filler {
      type: "xavier"
    }
    bias_filler {
      type: "constant"
      value: 0.2
    }
  }
}
layer {
  name: "inception_3b/relu_1x1"
  type: "ReLU"
  bottom: "inception_3b/1x1"
  top: "inception_3b/1x1"
}
layer {
  name: "inception_3b/3x3_reduce"
  type: "Convolution"
  bottom: "inception_3a/output"
  top: "inception_3b/3x3_reduce"
  param {
    lr_mult: 1
    decay_mult: 1
  }
  param {
    lr_mult: 2
    decay_mult: 0
  }
  convolution_param {
    num_output: 128
    kernel_size: 1
    weight_filler {
      type: "xavier"
    }
    bias_filler {
      type: "constant"
      value: 0.2
    }
  }
}
layer {
  name: "inception_3b/relu_3x3_reduce"
  type: "ReLU"
  bottom: "inception_3b/3x3_reduce"
  top: "inception_3b/3x3_reduce"
}
layer {
  name: "inception_3b/3x3"
  type: "Convolution"
  bottom: "inception_3b/3x3_reduce"
  top: "inception_3b/3x3"
  param {
    lr_mult: 1
    decay_mult: 1
  }
  param {
    lr_mult: 2
    decay_mult: 0
  }
  convolution_param {
    num_output: 192
    pad: 1
    kernel_size: 3
    weight_filler {
      type: "xavier"
    }
    bias_filler {
      type: "constant"
      value: 0.2
    }
  }
}
layer {
  name: "inception_3b/relu_3x3"
  type: "ReLU"
  bottom: "inception_3b/3x3"
  top: "inception_3b/3x3"
}
layer {
  name: "inception_3b/5x5_reduce"
  type: "Convolution"
  bottom: "inception_3a/output"
  top: "inception_3b/5x5_reduce"
  param {
    lr_mult: 1
    decay_mult: 1
  }
  param {
    lr_mult: 2
    decay_mult: 0
  }
  convolution_param {
    num_output: 32
    kernel_size: 1
    weight_filler {
      type: "xavier"
    }
    bias_filler {
      type: "constant"
      value: 0.2
    }
  }
}
layer {
  name: "inception_3b/relu_5x5_reduce"
  type: "ReLU"
  bottom: "inception_3b/5x5_reduce"
  top: "inception_3b/5x5_reduce"
}
layer {
  name: "inception_3b/5x5"
  type: "Convolution"
  bottom: "inception_3b/5x5_reduce"
  top: "inception_3b/5x5"
  param {
    lr_mult: 1
    decay_mult: 1
  }
  param {
    lr_mult: 2
    decay_mult: 0
  }
  convolution_param {
    num_output: 96
    pad: 2
    kernel_size: 5
    weight_filler {
      type: "xavier"
    }
    bias_filler {
      type: "constant"
      value: 0.2
    }
  }
}
layer {
  name: "inception_3b/relu_5x5"
  type: "ReLU"
  bottom: "inception_3b/5x5"
  top: "inception_3b/5x5"
}
layer {
  name: "inception_3b/pool"
  type: "Pooling"
  bottom: "inception_3a/output"
  top: "inception_3b/pool"
  pooling_param {
    pool: MAX
    kernel_size: 3
    stride: 1
    pad: 1
  }
}
layer {
  name: "inception_3b/pool_proj"
  type: "Convolution"
  bottom: "inception_3b/pool"
  top: "inception_3b/pool_proj"
  param {
    lr_mult: 1
    decay_mult: 1
  }
  param {
    lr_mult: 2
    decay_mult: 0
  }
  convolution_param {
    num_output: 64
    kernel_size: 1
    weight_filler {
      type: "xavier"
    }
    bias_filler {
      type: "constant"
      value: 0.2
    }
  }
}
layer {
  name: "inception_3b/relu_pool_proj"
  type: "ReLU"
  bottom: "inception_3b/pool_proj"
  top: "inception_3b/pool_proj"
}
layer {
  name: "inception_3b/output"
  type: "Concat"
  bottom: "inception_3b/1x1"
  bottom: "inception_3b/3x3"
  bottom: "inception_3b/5x5"
  bottom: "inception_3b/pool_proj"
  top: "inception_3b/output"
}
layer {
  name: "pool3/3x3_s2"
  type: "Pooling"
  bottom: "inception_3b/output"
  top: "pool3/3x3_s2"
  pooling_param {
    pool: MAX
    kernel_size: 3
    stride: 2
  }
}
layer {
  name: "inception_4a/1x1"
  type: "Convolution"
  bottom: "pool3/3x3_s2"
  top: "inception_4a/1x1"
  param {
    lr_mult: 1
    decay_mult: 1
  }
  param {
    lr_mult: 2
    decay_mult: 0
  }
  convolution_param {
    num_output: 192
    kernel_size: 1
    weight_filler {
      type: "xavier"
    }
    bias_filler {
      type: "constant"
      value: 0.2
    }
  }
}
layer {
  name: "inception_4a/relu_1x1"
  type: "ReLU"
  bottom: "inception_4a/1x1"
  top: "inception_4a/1x1"
}
layer {
  name: "inception_4a/3x3_reduce"
  type: "Convolution"
  bottom: "pool3/3x3_s2"
  top: "inception_4a/3x3_reduce"
  param {
    lr_mult: 1
    decay_mult: 1
  }
  param {
    lr_mult: 2
    decay_mult: 0
  }
  convolution_param {
    num_output: 96
    kernel_size: 1
    weight_filler {
      type: "xavier"
    }
    bias_filler {
      type: "constant"
      value: 0.2
    }
  }
}
layer {
  name: "inception_4a/relu_3x3_reduce"
  type: "ReLU"
  bottom: "inception_4a/3x3_reduce"
  top: "inception_4a/3x3_reduce"
}
layer {
  name: "inception_4a/3x3"
  type: "Convolution"
  bottom: "inception_4a/3x3_reduce"
  top: "inception_4a/3x3"
  param {
    lr_mult: 1
    decay_mult: 1
  }
  param {
    lr_mult: 2
    decay_mult: 0
  }
  convolution_param {
    num_output: 208
    pad: 1
    kernel_size: 3
    weight_filler {
      type: "xavier"
    }
    bias_filler {
      type: "constant"
      value: 0.2
    }
  }
}
layer {
  name: "inception_4a/relu_3x3"
  type: "ReLU"
  bottom: "inception_4a/3x3"
  top: "inception_4a/3x3"
}
layer {
  name: "inception_4a/5x5_reduce"
  type: "Convolution"
  bottom: "pool3/3x3_s2"
  top: "inception_4a/5x5_reduce"
  param {
    lr_mult: 1
    decay_mult: 1
  }
  param {
    lr_mult: 2
    decay_mult: 0
  }
  convolution_param {
    num_output: 16
    kernel_size: 1
    weight_filler {
      type: "xavier"
    }
    bias_filler {
      type: "constant"
      value: 0.2
    }
  }
}
layer {
  name: "inception_4a/relu_5x5_reduce"
  type: "ReLU"
  bottom: "inception_4a/5x5_reduce"
  top: "inception_4a/5x5_reduce"
}
layer {
  name: "inception_4a/5x5"
  type: "Convolution"
  bottom: "inception_4a/5x5_reduce"
  top: "inception_4a/5x5"
  param {
    lr_mult: 1
    decay_mult: 1
  }
  param {
    lr_mult: 2
    decay_mult: 0
  }
  convolution_param {
    num_output: 48
    pad: 2
    kernel_size: 5
    weight_filler {
      type: "xavier"
    }
    bias_filler {
      type: "constant"
      value: 0.2
    }
  }
}
layer {
  name: "inception_4a/relu_5x5"
  type: "ReLU"
  bottom: "inception_4a/5x5"
  top: "inception_4a/5x5"
}
layer {
  name: "inception_4a/pool"
  type: "Pooling"
  bottom: "pool3/3x3_s2"
  top: "inception_4a/pool"
  pooling_param {
    pool: MAX
    kernel_size: 3
    stride: 1
    pad: 1
  }
}
layer {
  name: "inception_4a/pool_proj"
  type: "Convolution"
  bottom: "inception_4a/pool"
  top: "inception_4a/pool_proj"
  param {
    lr_mult: 1
    decay_mult: 1
  }
  param {
    lr_mult: 2
    decay_mult: 0
  }
  convolution_param {
    num_output: 64
    kernel_size: 1
    weight_filler {
…
I0202 13:53:32.204078 100062 layer_factory.hpp:77] Creating layer inception_4c/pool_proj
I0202 13:53:32.204088 100062 net.cpp:100] Creating Layer inception_4c/pool_proj
I0202 13:53:32.204092 100062 net.cpp:434] inception_4c/pool_proj <- inception_4c/pool
I0202 13:53:32.204102 100062 net.cpp:408] inception_4c/pool_proj -> inception_4c/pool_proj
I0202 13:53:32.204421 100062 net.cpp:150] Setting up inception_4c/pool_proj
I0202 13:53:32.204427 100062 net.cpp:157] Top shape: 50 64 14 14 (627200)
I0202 13:53:32.204432 100062 net.cpp:165] Memory required for data: 2212872412
I0202 13:53:32.204437 100062 layer_factory.hpp:77] Creating layer inception_4c/relu_pool_proj
I0202 13:53:32.204443 100062 net.cpp:100] Creating Layer inception_4c/relu_pool_proj
I0202 13:53:32.204447 100062 net.cpp:434] inception_4c/relu_pool_proj <- inception_4c/pool_proj
I0202 13:53:32.204455 100062 net.cpp:395] inception_4c/relu_pool_proj -> inception_4c/pool_proj (in-place)
I0202 13:53:32.204463 100062 net.cpp:150] Setting up inception_4c/relu_pool_proj
I0202 13:53:32.204468 100062 net.cpp:157] Top shape: 50 64 14 14 (627200)
I0202 13:53:32.204470 100062 net.cpp:165] Memory required for data: 2215381212
I0202 13:53:32.204473 100062 layer_factory.hpp:77] Creating layer inception_4c/output
I0202 13:53:32.204479 100062 net.cpp:100] Creating Layer inception_4c/output
I0202 13:53:32.204483 100062 net.cpp:434] inception_4c/output <- inception_4c/1x1
I0202 13:53:32.204488 100062 net.cpp:434] inception_4c/output <- inception_4c/3x3
I0202 13:53:32.204493 100062 net.cpp:434] inception_4c/output <- inception_4c/5x5
I0202 13:53:32.204499 100062 net.cpp:434] inception_4c/output <- inception_4c/pool_proj
I0202 13:53:32.204505 100062 net.cpp:408] inception_4c/output -> inception_4c/output
I0202 13:53:32.204514 100062 net.cpp:150] Setting up inception_4c/output
I0202 13:53:32.204519 100062 net.cpp:157] Top shape: 50 512 14 14 (5017600)
I0202 13:53:32.204522 100062 net.cpp:165] Memory required for data: 2235451612
I0202 13:53:32.204527 100062 layer_factory.hpp:77] Creating layer inception_4c/output_inception_4c/output_0_split
I0202 13:53:32.204532 100062 net.cpp:100] Creating Layer inception_4c/output_inception_4c/output_0_split
I0202 13:53:32.204536 100062 net.cpp:434] inception_4c/output_inception_4c/output_0_split <- inception_4c/output
I0202 13:53:32.204545 100062 net.cpp:408] inception_4c/output_inception_4c/output_0_split -> inception_4c/output_inception_4c/output_0_split_0
I0202 13:53:32.204551 100062 net.cpp:408] inception_4c/output_inception_4c/output_0_split -> inception_4c/output_inception_4c/output_0_split_1
I0202 13:53:32.204558 100062 net.cpp:408] inception_4c/output_inception_4c/output_0_split -> inception_4c/output_inception_4c/output_0_split_2
I0202 13:53:32.204565 100062 net.cpp:408] inception_4c/output_inception_4c/output_0_split -> inception_4c/output_inception_4c/output_0_split_3
I0202 13:53:32.204572 100062 net.cpp:150] Setting up inception_4c/output_inception_4c/output_0_split
I0202 13:53:32.204577 100062 net.cpp:157] Top shape: 50 512 14 14 (5017600)
I0202 13:53:32.204582 100062 net.cpp:157] Top shape: 50 512 14 14 (5017600)
I0202 13:53:32.204586 100062 net.cpp:157] Top shape: 50 512 14 14 (5017600)
I0202 13:53:32.204594 100062 net.cpp:157] Top shape: 50 512 14 14 (5017600)
I0202 13:53:32.204602 100062 net.cpp:165] Memory required for data: 2315733212
I0202 13:53:32.204607 100062 layer_factory.hpp:77] Creating layer inception_4d/1x1
I0202 13:53:32.204615 100062 net.cpp:100] Creating Layer inception_4d/1x1
I0202 13:53:32.204619 100062 net.cpp:434] inception_4d/1x1 <- inception_4c/output_inception_4c/output_0_split_0
I0202 13:53:32.204633 100062 net.cpp:408] inception_4d/1x1 -> inception_4d/1x1
I0202 13:53:32.205199 100062 net.cpp:150] Setting up inception_4d/1x1
I0202 13:53:32.205206 100062 net.cpp:157] Top shape: 50 112 14 14 (1097600)
I0202 13:53:32.205209 100062 net.cpp:165] Memory required for data: 2320123612
I0202 13:53:32.205216 100062 layer_factory.hpp:77] Creating layer inception_4d/relu_1x1
I0202 13:53:32.205222 100062 net.cpp:100] Creating Layer inception_4d/relu_1x1
I0202 13:53:32.205226 100062 net.cpp:434] inception_4d/relu_1x1 <- inception_4d/1x1
I0202 13:53:32.205235 100062 net.cpp:395] inception_4d/relu_1x1 -> inception_4d/1x1 (in-place)
I0202 13:53:32.205240 100062 net.cpp:150] Setting up inception_4d/relu_1x1
I0202 13:53:32.205246 100062 net.cpp:157] Top shape: 50 112 14 14 (1097600)
I0202 13:53:32.205250 100062 net.cpp:165] Memory required for data: 2324514012
I0202 13:53:32.205253 100062 layer_factory.hpp:77] Creating layer inception_4d/3x3_reduce
I0202 13:53:32.205262 100062 net.cpp:100] Creating Layer inception_4d/3x3_reduce
I0202 13:53:32.205267 100062 net.cpp:434] inception_4d/3x3_reduce <- inception_4c/output_inception_4c/output_0_split_1
I0202 13:53:32.205273 100062 net.cpp:408] inception_4d/3x3_reduce -> inception_4d/3x3_reduce
I0202 13:53:32.205982 100062 net.cpp:150] Setting up inception_4d/3x3_reduce
I0202 13:53:32.205992 100062 net.cpp:157] Top shape: 50 144 14 14 (1411200)
I0202 13:53:32.205996 100062 net.cpp:165] Memory required for data: 2330158812
I0202 13:53:32.206003 100062 layer_factory.hpp:77] Creating layer inception_4d/relu_3x3_reduce
I0202 13:53:32.206008 100062 net.cpp:100] Creating Layer inception_4d/relu_3x3_reduce
I0202 13:53:32.206013 100062 net.cpp:434] inception_4d/relu_3x3_reduce <- inception_4d/3x3_reduce
I0202 13:53:32.206022 100062 net.cpp:395] inception_4d/relu_3x3_reduce -> inception_4d/3x3_reduce (in-place)
I0202 13:53:32.206028 100062 net.cpp:150] Setting up inception_4d/relu_3x3_reduce
I0202 13:53:32.206033 100062 net.cpp:157] Top shape: 50 144 14 14 (1411200)
I0202 13:53:32.206037 100062 net.cpp:165] Memory required for data: 2335803612
I0202 13:53:32.206040 100062 layer_factory.hpp:77] Creating layer inception_4d/3x3
I0202 13:53:32.206048 100062 net.cpp:100] Creating Layer inception_4d/3x3
I0202 13:53:32.206051 100062 net.cpp:434] inception_4d/3x3 <- inception_4d/3x3_reduce
I0202 13:53:32.206059 100062 net.cpp:408] inception_4d/3x3 -> inception_4d/3x3
I0202 13:53:32.209916 100062 net.cpp:150] Setting up inception_4d/3x3
I0202 13:53:32.209926 100062 net.cpp:157] Top shape: 50 288 14 14 (2822400)
I0202 13:53:32.209929 100062 net.cpp:165] Memory required for data: 2347093212
I0202 13:53:32.209936 100062 layer_factory.hpp:77] Creating layer inception_4d/relu_3x3
I0202 13:53:32.209942 100062 net.cpp:100] Creating Layer inception_4d/relu_3x3
I0202 13:53:32.209946 100062 net.cpp:434] inception_4d/relu_3x3 <- inception_4d/3x3
I0202 13:53:32.209952 100062 net.cpp:395] inception_4d/relu_3x3 -> inception_4d/3x3 (in-place)
I0202 13:53:32.209959 100062 net.cpp:150] Setting up inception_4d/relu_3x3
I0202 13:53:32.209964 100062 net.cpp:157] Top shape: 50 288 14 14 (2822400)
I0202 13:53:32.209967 100062 net.cpp:165] Memory required for data: 2358382812
I0202 13:53:32.209971 100062 layer_factory.hpp:77] Creating layer inception_4d/5x5_reduce
I0202 13:53:32.209981 100062 net.cpp:100] Creating Layer inception_4d/5x5_reduce
I0202 13:53:32.209986 100062 net.cpp:434] inception_4d/5x5_reduce <- inception_4c/output_inception_4c/output_0_split_2
I0202 13:53:32.209992 100062 net.cpp:408] inception_4d/5x5_reduce -> inception_4d/5x5_reduce
I0202 13:53:32.210155 100062 net.cpp:150] Setting up inception_4d/5x5_reduce
I0202 13:53:32.210166 100062 net.cpp:157] Top shape: 50 32 14 14 (313600)
I0202 13:53:32.210177 100062 net.cpp:165] Memory required for data: 2359637212
I0202 13:53:32.210185 100062 layer_factory.hpp:77] Creating layer inception_4d/relu_5x5_reduce
I0202 13:53:32.210189 100062 net.cpp:100] Creating Layer inception_4d/relu_5x5_reduce
I0202 13:53:32.210194 100062 net.cpp:434] inception_4d/relu_5x5_reduce <- inception_4d/5x5_reduce
I0202 13:53:32.210199 100062 net.cpp:395] inception_4d/relu_5x5_reduce -> inception_4d/5x5_reduce (in-place)
I0202 13:53:32.210206 100062 net.cpp:150] Setting up inception_4d/relu_5x5_reduce
I0202 13:53:32.210211 100062 net.cpp:157] Top shape: 50 32 14 14 (313600)
I0202 13:53:32.210214 100062 net.cpp:165] Memory required for data: 2360891612
I0202 13:53:32.210218 100062 layer_factory.hpp:77] Creating layer inception_4d/5x5
I0202 13:53:32.210229 100062 net.cpp:100] Creating Layer inception_4d/5x5
I0202 13:53:32.210233 100062 net.cpp:434] inception_4d/5x5 <- inception_4d/5x5_reduce
I0202 13:53:32.210242 100062 net.cpp:408] inception_4d/5x5 -> inception_4d/5x5
I0202 13:53:32.210738 100062 net.cpp:150] Setting up inception_4d/5x5
I0202 13:53:32.210748 100062 net.cpp:157] Top shape: 50 64 14 14 (627200)
I0202 13:53:32.210752 100062 net.cpp:165] Memory required for data: 2363400412
I0202 13:53:32.210758 100062 layer_factory.hpp:77] Creating layer inception_4d/relu_5x5
I0202 13:53:32.210763 100062 net.cpp:100] Creating Layer inception_4d/relu_5x5
I0202 13:53:32.210768 100062 net.cpp:434] inception_4d/relu_5x5 <- inception_4d/5x5
I0202 13:53:32.210780 100062 net.cpp:395] inception_4d/relu_5x5 -> inception_4d/5x5 (in-place)
I0202 13:53:32.210786 100062 net.cpp:150] Setting up inception_4d/relu_5x5
I0202 13:53:32.210791 100062 net.cpp:157] Top shape: 50 64 14 14 (627200)
I0202 13:53:32.210794 100062 net.cpp:165] Memory required for data: 2365909212
I0202 13:53:32.210798 100062 layer_factory.hpp:77] Creating layer inception_4d/pool
I0202 13:53:32.210803 100062 net.cpp:100] Creating Layer inception_4d/pool
I0202 13:53:32.210811 100062 net.cpp:434] inception_4d/pool <- inception_4c/output_inception_4c/output_0_split_3
I0202 13:53:32.210817 100062 net.cpp:408] inception_4d/pool -> inception_4d/pool
I0202 13:53:32.210826 100062 net.cpp:150] Setting up inception_4d/pool
I0202 13:53:32.210832 100062 net.cpp:157] Top shape: 50 512 14 14 (5017600)
I0202 13:53:32.210835 100062 net.cpp:165] Memory required for data: 2385979612
I0202 13:53:32.210839 100062 layer_factory.hpp:77] Creating layer inception_4d/pool_proj
I0202 13:53:32.210849 100062 net.cpp:100] Creating Layer inception_4d/pool_proj
I0202 13:53:32.210852 100062 net.cpp:434] inception_4d/pool_proj <- inception_4d/pool
I0202 13:53:32.210861 100062 net.cpp:408] inception_4d/pool_proj -> inception_4d/pool_proj
I0202 13:53:32.211177 100062 net.cpp:150] Setting up inception_4d/pool_proj
I0202 13:53:32.211184 100062 net.cpp:157] Top shape: 50 64 14 14 (627200)
I0202 13:53:32.211187 100062 net.cpp:165] Memory required for data: 2388488412
I0202 13:53:32.211194 100062 layer_factory.hpp:77] Creating layer inception_4d/relu_pool_proj
I0202 13:53:32.211199 100062 net.cpp:100] Creating Layer inception_4d/relu_pool_proj
I0202 13:53:32.211203 100062 net.cpp:434] inception_4d/relu_pool_proj <- inception_4d/pool_proj
I0202 13:53:32.211208 100062 net.cpp:395] inception_4d/relu_pool_proj -> inception_4d/pool_proj (in-place)
I0202 13:53:32.211215 100062 net.cpp:150] Setting up inception_4d/relu_pool_proj
I0202 13:53:32.211220 100062 net.cpp:157] Top shape: 50 64 14 14 (627200)
I0202 13:53:32.211223 100062 net.cpp:165] Memory required for data: 2390997212
I0202 13:53:32.211226 100062 layer_factory.hpp:77] Creating layer inception_4d/output
I0202 13:53:32.211235 100062 net.cpp:100] Creating Layer inception_4d/output
I0202 13:53:32.211238 100062 net.cpp:434] inception_4d/output <- inception_4d/1x1
I0202 13:53:32.211243 100062 net.cpp:434] inception_4d/output <- inception_4d/3x3
I0202 13:53:32.211248 100062 net.cpp:434] inception_4d/output <- inception_4d/5x5
I0202 13:53:32.211256 100062 net.cpp:434] inception_4d/output <- inception_4d/pool_proj
I0202 13:53:32.211269 100062 net.cpp:408] inception_4d/output -> inception_4d/output
I0202 13:53:32.211278 100062 net.cpp:150] Setting up inception_4d/output
I0202 13:53:32.211283 100062 net.cpp:157] Top shape: 50 528 14 14 (5174400)
I0202 13:53:32.211287 100062 net.cpp:165] Memory required for data: 2411694812
I0202 13:53:32.211292 100062 layer_factory.hpp:77] Creating layer inception_4d/output_inception_4d/output_0_split
I0202 13:53:32.211299 100062 net.cpp:100] Creating Layer inception_4d/output_inception_4d/output_0_split
I0202 13:53:32.211303 100062 net.cpp:434] inception_4d/output_inception_4d/output_0_split <- inception_4d/output
I0202 13:53:32.211309 100062 net.cpp:408] inception_4d/output_inception_4d/output_0_split -> inception_4d/output_inception_4d/output_0_split_0
I0202 13:53:32.211316 100062 net.cpp:408] inception_4d/output_inception_4d/output_0_split -> inception_4d/output_inception_4d/output_0_split_1
I0202 13:53:32.211323 100062 net.cpp:408] inception_4d/output_inception_4d/output_0_split -> inception_4d/output_inception_4d/output_0_split_2
I0202 13:53:32.211333 100062 net.cpp:408] inception_4d/output_inception_4d/output_0_split -> inception_4d/output_inception_4d/output_0_split_3
I0202 13:53:32.211339 100062 net.cpp:408] inception_4d/output_inception_4d/output_0_split -> inception_4d/output_inception_4d/output_0_split_4
I0202 13:53:32.211347 100062 net.cpp:150] Setting up inception_4d/output_inception_4d/output_0_split
I0202 13:53:32.211352 100062 net.cpp:157] Top shape: 50 528 14 14 (5174400)
I0202 13:53:32.211357 100062 net.cpp:157] Top shape: 50 528 14 14 (5174400)
I0202 13:53:32.211362 100062 net.cpp:157] Top shape: 50 528 14 14 (5174400)
I0202 13:53:32.211366 100062 net.cpp:157] Top shape: 50 528 14 14 (5174400)
I0202 13:53:32.211370 100062 net.cpp:157] Top shape: 50 528 14 14 (5174400)
I0202 13:53:32.211374 100062 net.cpp:165] Memory required for data: 2515182812
I0202 13:53:32.211377 100062 layer_factory.hpp:77] Creating layer loss2/ave_pool
I0202 13:53:32.211385 100062 net.cpp:100] Creating Layer loss2/ave_pool
I0202 13:53:32.211390 100062 net.cpp:434] loss2/ave_pool <- inception_4d/output_inception_4d/output_0_split_0
I0202 13:53:32.211395 100062 net.cpp:408] loss2/ave_pool -> loss2/ave_pool
I0202 13:53:32.211403 100062 net.cpp:150] Setting up loss2/ave_pool
I0202 13:53:32.211408 100062 net.cpp:157] Top shape: 50 528 4 4 (422400)
I0202 13:53:32.211411 100062 net.cpp:165] Memory required for data: 2516872412
I0202 13:53:32.211416 100062 layer_factory.hpp:77] Creating layer loss2/conv
I0202 13:53:32.211427 100062 net.cpp:100] Creating Layer loss2/conv
I0202 13:53:32.211431 100062 net.cpp:434] loss2/conv <- loss2/ave_pool
I0202 13:53:32.211438 100062 net.cpp:408] loss2/conv -> loss2/conv
I0202 13:53:32.212076 100062 net.cpp:150] Setting up loss2/conv
I0202 13:53:32.212085 100062 net.cpp:157] Top shape: 50 128 4 4 (102400)
I0202 13:53:32.212090 100062 net.cpp:165] Memory required for data: 2517282012
I0202 13:53:32.212096 100062 layer_factory.hpp:77] Creating layer loss2/relu_conv
I0202 13:53:32.212101 100062 net.cpp:100] Creating Layer loss2/relu_conv
I0202 13:53:32.212106 100062 net.cpp:434] loss2/relu_conv <- loss2/conv
I0202 13:53:32.212113 100062 net.cpp:395] loss2/relu_conv -> loss2/conv (in-place)
I0202 13:53:32.212121 100062 net.cpp:150] Setting up loss2/relu_conv
I0202 13:53:32.212126 100062 net.cpp:157] Top shape: 50 128 4 4 (102400)
I0202 13:53:32.212129 100062 net.cpp:165] Memory required for data: 2517691612
I0202 13:53:32.212133 100062 layer_factory.hpp:77] Creating layer loss2/fc
I0202 13:53:32.212141 100062 net.cpp:100] Creating Layer loss2/fc
I0202 13:53:32.212144 100062 net.cpp:434] loss2/fc <- loss2/conv
I0202 13:53:32.212152 100062 net.cpp:408] loss2/fc -> loss2/fc
I0202 13:53:32.230586 100062 net.cpp:150] Setting up loss2/fc
I0202 13:53:32.230595 100062 net.cpp:157] Top shape: 50 1024 (51200)
I0202 13:53:32.230599 100062 net.cpp:165] Memory required for data: 2517896412
I0202 13:53:32.230607 100062 layer_factory.hpp:77] Creating layer loss2/relu_fc
I0202 13:53:32.230630 100062 net.cpp:100] Creating Layer loss2/relu_fc
I0202 13:53:32.230636 100062 net.cpp:434] loss2/relu_fc <- loss2/fc
I0202 13:53:32.230645 100062 net.cpp:395] loss2/relu_fc -> loss2/fc (in-place)
I0202 13:53:32.230653 100062 net.cpp:150] Setting up loss2/relu_fc
I0202 13:53:32.230657 100062 net.cpp:157] Top shape: 50 1024 (51200)
I0202 13:53:32.230661 100062 net.cpp:165] Memory required for data: 2518101212
I0202 13:53:32.230665 100062 layer_factory.hpp:77] Creating layer loss2/drop_fc
I0202 13:53:32.230671 100062 net.cpp:100] Creating Layer loss2/drop_fc
I0202 13:53:32.230675 100062 net.cpp:434] loss2/drop_fc <- loss2/fc
I0202 13:53:32.230680 100062 net.cpp:395] loss2/drop_fc -> loss2/fc (in-place)
I0202 13:53:32.230687 100062 net.cpp:150] Setting up loss2/drop_fc
I0202 13:53:32.230692 100062 net.cpp:157] Top shape: 50 1024 (51200)
I0202 13:53:32.230696 100062 net.cpp:165] Memory required for data: 2518306012
I0202 13:53:32.230700 100062 layer_factory.hpp:77] Creating layer loss2/classifier
I0202 13:53:32.230706 100062 net.cpp:100] Creating Layer loss2/classifier
I0202 13:53:32.230710 100062 net.cpp:434] loss2/classifier <- loss2/fc
I0202 13:53:32.230718 100062 net.cpp:408] loss2/classifier -> loss2/classifier
I0202 13:53:32.240128 100062 net.cpp:150] Setting up loss2/classifier
I0202 13:53:32.240137 100062 net.cpp:157] Top shape: 50 1000 (50000)
I0202 13:53:32.240141 100062 net.cpp:165] Memory required for data: 2518506012
I0202 13:53:32.240149 100062 layer_factory.hpp:77] Creating layer loss2/classifier_loss2/classifier_0_split
I0202 13:53:32.240154 100062 net.cpp:100] Creating Layer loss2/classifier_loss2/classifier_0_split
I0202 13:53:32.240159 100062 net.cpp:434] loss2/classifier_loss2/classifier_0_split <- loss2/classifier
I0202 13:53:32.240165 100062 net.cpp:408] loss2/classifier_loss2/classifier_0_split -> loss2/classifier_loss2/classifier_0_split_0
I0202 13:53:32.240175 100062 net.cpp:408] loss2/classifier_loss2/classifier_0_split -> loss2/classifier_loss2/classifier_0_split_1
I0202 13:53:32.240182 100062 net.cpp:408] loss2/classifier_loss2/classifier_0_split -> loss2/classifier_loss2/classifier_0_split_2
I0202 13:53:32.240190 100062 net.cpp:150] Setting up loss2/classifier_loss2/classifier_0_split
I0202 13:53:32.240195 100062 net.cpp:157] Top shape: 50 1000 (50000)
I0202 13:53:32.240200 100062 net.cpp:157] Top shape: 50 1000 (50000)
I0202 13:53:32.240203 100062 net.cpp:157] Top shape: 50 1000 (50000)
I0202 13:53:32.240206 100062 net.cpp:165] Memory required for data: 2519106012
I0202 13:53:32.240211 100062 layer_factory.hpp:77] Creating layer loss2/loss
I0202 13:53:32.240216 100062 net.cpp:100] Creating Layer loss2/loss
I0202 13:53:32.240221 100062 net.cpp:434] loss2/loss <- loss2/classifier_loss2/classifier_0_split_0
I0202 13:53:32.240226 100062 net.cpp:434] loss2/loss <- label_data_1_split_3
…
I0202 13:53:32.240483 100062 net.cpp:150] Setting up loss2/top-5
I0202 13:53:32.240487 100062 net.cpp:157] Top shape: (1)
I0202 13:53:32.240490 100062 net.cpp:165] Memory required for data: 2519106024
I0202 13:53:32.240494 100062 layer_factory.hpp:77] Creating layer inception_4e/1x1
I0202 13:53:32.240506 100062 net.cpp:100] Creating Layer inception_4e/1x1
I0202 13:53:32.240510 100062 net.cpp:434] inception_4e/1x1 <- inception_4d/output_inception_4d/output_0_split_1
I0202 13:53:32.240520 100062 net.cpp:408] inception_4e/1x1 -> inception_4e/1x1
I0202 13:53:32.241780 100062 net.cpp:150] Setting up inception_4e/1x1
I0202 13:53:32.241789 100062 net.cpp:157] Top shape: 50 256 14 14 (2508800)
I0202 13:53:32.241793 100062 net.cpp:165] Memory required for data: 2529141224
I0202 13:53:32.241801 100062 layer_factory.hpp:77] Creating layer inception_4e/relu_1x1
I0202 13:53:32.241808 100062 net.cpp:100] Creating Layer inception_4e/relu_1x1
I0202 13:53:32.241813 100062 net.cpp:434] inception_4e/relu_1x1 <- inception_4e/1x1
I0202 13:53:32.241819 100062 net.cpp:395] inception_4e/relu_1x1 -> inception_4e/1x1 (in-place)
I0202 13:53:32.241827 100062 net.cpp:150] Setting up inception_4e/relu_1x1
I0202 13:53:32.241832 100062 net.cpp:157] Top shape: 50 256 14 14 (2508800)
I0202 13:53:32.241835 100062 net.cpp:165] Memory required for data: 2539176424
I0202 13:53:32.241839 100062 layer_factory.hpp:77] Creating layer inception_4e/3x3_reduce
I0202 13:53:32.241863 100062 net.cpp:100] Creating Layer inception_4e/3x3_reduce
I0202 13:53:32.241868 100062 net.cpp:434] inception_4e/3x3_reduce <- inception_4d/output_inception_4d/output_0_split_2
I0202 13:53:32.241878 100062 net.cpp:408] inception_4e/3x3_reduce -> inception_4e/3x3_reduce
I0202 13:53:32.242678 100062 net.cpp:150] Setting up inception_4e/3x3_reduce
I0202 13:53:32.242688 100062 net.cpp:157] Top shape: 50 160 14 14 (1568000)
I0202 13:53:32.242692 100062 net.cpp:165] Memory required for data: 2545448424
I0202 13:53:32.242699 100062 layer_factory.hpp:77] Creating layer inception_4e/relu_3x3_reduce
I0202 13:53:32.242705 100062 net.cpp:100] Creating Layer inception_4e/relu_3x3_reduce
I0202 13:53:32.242710 100062 net.cpp:434] inception_4e/relu_3x3_reduce <- inception_4e/3x3_reduce
I0202 13:53:32.242717 100062 net.cpp:395] inception_4e/relu_3x3_reduce -> inception_4e/3x3_reduce (in-place)
I0202 13:53:32.242722 100062 net.cpp:150] Setting up inception_4e/relu_3x3_reduce
I0202 13:53:32.242727 100062 net.cpp:157] Top shape: 50 160 14 14 (1568000)
I0202 13:53:32.242732 100062 net.cpp:165] Memory required for data: 2551720424
I0202 13:53:32.242735 100062 layer_factory.hpp:77] Creating layer inception_4e/3x3
I0202 13:53:32.242746 100062 net.cpp:100] Creating Layer inception_4e/3x3
I0202 13:53:32.242751 100062 net.cpp:434] inception_4e/3x3 <- inception_4e/3x3_reduce
I0202 13:53:32.242758 100062 net.cpp:408] inception_4e/3x3 -> inception_4e/3x3
I0202 13:53:32.247347 100062 net.cpp:150] Setting up inception_4e/3x3
I0202 13:53:32.247359 100062 net.cpp:157] Top shape: 50 320 14 14 (3136000)
I0202 13:53:32.247361 100062 net.cpp:165] Memory required for data: 2564264424
I0202 13:53:32.247369 100062 layer_factory.hpp:77] Creating layer inception_4e/relu_3x3
I0202 13:53:32.247375 100062 net.cpp:100] Creating Layer inception_4e/relu_3x3
I0202 13:53:32.247380 100062 net.cpp:434] inception_4e/relu_3x3 <- inception_4e/3x3
I0202 13:53:32.247387 100062 net.cpp:395] inception_4e/relu_3x3 -> inception_4e/3x3 (in-place)
I0202 13:53:32.247395 100062 net.cpp:150] Setting up inception_4e/relu_3x3
I0202 13:53:32.247400 100062 net.cpp:157] Top shape: 50 320 14 14 (3136000)
I0202 13:53:32.247402 100062 net.cpp:165] Memory required for data: 2576808424
I0202 13:53:32.247406 100062 layer_factory.hpp:77] Creating layer inception_4e/5x5_reduce
I0202 13:53:32.247414 100062 net.cpp:100] Creating Layer inception_4e/5x5_reduce
I0202 13:53:32.247423 100062 net.cpp:434] inception_4e/5x5_reduce <- inception_4d/output_inception_4d/output_0_split_3
I0202 13:53:32.247437 100062 net.cpp:408] inception_4e/5x5_reduce -> inception_4e/5x5_reduce
I0202 13:53:32.247601 100062 net.cpp:150] Setting up inception_4e/5x5_reduce
I0202 13:53:32.247609 100062 net.cpp:157] Top shape: 50 32 14 14 (313600)
I0202 13:53:32.247613 100062 net.cpp:165] Memory required for data: 2578062824
I0202 13:53:32.247619 100062 layer_factory.hpp:77] Creating layer inception_4e/relu_5x5_reduce
I0202 13:53:32.247629 100062 net.cpp:100] Creating Layer inception_4e/relu_5x5_reduce
I0202 13:53:32.247637 100062 net.cpp:434] inception_4e/relu_5x5_reduce <- inception_4e/5x5_reduce
I0202 13:53:32.247642 100062 net.cpp:395] inception_4e/relu_5x5_reduce -> inception_4e/5x5_reduce (in-place)
I0202 13:53:32.247648 100062 net.cpp:150] Setting up inception_4e/relu_5x5_reduce
I0202 13:53:32.247653 100062 net.cpp:157] Top shape: 50 32 14 14 (313600)
I0202 13:53:32.247658 100062 net.cpp:165] Memory required for data: 2579317224
I0202 13:53:32.247660 100062 layer_factory.hpp:77] Creating layer inception_4e/5x5
I0202 13:53:32.247671 100062 net.cpp:100] Creating Layer inception_4e/5x5
I0202 13:53:32.247675 100062 net.cpp:434] inception_4e/5x5 <- inception_4e/5x5_reduce
I0202 13:53:32.247684 100062 net.cpp:408] inception_4e/5x5 -> inception_4e/5x5
I0202 13:53:32.248663 100062 net.cpp:150] Setting up inception_4e/5x5
I0202 13:53:32.248674 100062 net.cpp:157] Top shape: 50 128 14 14 (1254400)
I0202 13:53:32.248678 100062 net.cpp:165] Memory required for data: 2584334824
I0202 13:53:32.248684 100062 layer_factory.hpp:77] Creating layer inception_4e/relu_5x5
I0202 13:53:32.248690 100062 net.cpp:100] Creating Layer inception_4e/relu_5x5
I0202 13:53:32.248695 100062 net.cpp:434] inception_4e/relu_5x5 <- inception_4e/5x5
I0202 13:53:32.248703 100062 net.cpp:395] inception_4e/relu_5x5 -> inception_4e/5x5 (in-place)
I0202 13:53:32.248709 100062 net.cpp:150] Setting up inception_4e/relu_5x5
I0202 13:53:32.248714 100062 net.cpp:157] Top shape: 50 128 14 14 (1254400)
I0202 13:53:32.248718 100062 net.cpp:165] Memory required for data: 2589352424
I0202 13:53:32.248721 100062 layer_factory.hpp:77] Creating layer inception_4e/pool
I0202 13:53:32.248728 100062 net.cpp:100] Creating Layer inception_4e/pool
I0202 13:53:32.248733 100062 net.cpp:434] inception_4e/pool <- inception_4d/output_inception_4d/output_0_split_4
I0202 13:53:32.248741 100062 net.cpp:408] inception_4e/pool -> inception_4e/pool
I0202 13:53:32.248751 100062 net.cpp:150] Setting up inception_4e/pool
I0202 13:53:32.248756 100062 net.cpp:157] Top shape: 50 528 14 14 (5174400)
I0202 13:53:32.248760 100062 net.cpp:165] Memory required for data: 2610050024
I0202 13:53:32.248764 100062 layer_factory.hpp:77] Creating layer inception_4e/pool_proj
I0202 13:53:32.248775 100062 net.cpp:100] Creating Layer inception_4e/pool_proj
I0202 13:53:32.248780 100062 net.cpp:434] inception_4e/pool_proj <- inception_4e/pool
I0202 13:53:32.248787 100062 net.cpp:408] inception_4e/pool_proj -> inception_4e/pool_proj
I0202 13:53:32.249416 100062 net.cpp:150] Setting up inception_4e/pool_proj
I0202 13:53:32.249424 100062 net.cpp:157] Top shape: 50 128 14 14 (1254400)
I0202 13:53:32.249428 100062 net.cpp:165] Memory required for data: 2615067624
I0202 13:53:32.249434 100062 layer_factory.hpp:77] Creating layer inception_4e/relu_pool_proj
I0202 13:53:32.249439 100062 net.cpp:100] Creating Layer inception_4e/relu_pool_proj
I0202 13:53:32.249444 100062 net.cpp:434] inception_4e/relu_pool_proj <- inception_4e/pool_proj
I0202 13:53:32.249450 100062 net.cpp:395] inception_4e/relu_pool_proj -> inception_4e/pool_proj (in-place)
I0202 13:53:32.249456 100062 net.cpp:150] Setting up inception_4e/relu_pool_proj
I0202 13:53:32.249461 100062 net.cpp:157] Top shape: 50 128 14 14 (1254400)
I0202 13:53:32.249464 100062 net.cpp:165] Memory required for data: 2620085224
I0202 13:53:32.249469 100062 layer_factory.hpp:77] Creating layer inception_4e/output
I0202 13:53:32.249481 100062 net.cpp:100] Creating Layer inception_4e/output
I0202 13:53:32.249493 100062 net.cpp:434] inception_4e/output <- inception_4e/1x1
I0202 13:53:32.249498 100062 net.cpp:434] inception_4e/output <- inception_4e/3x3
I0202 13:53:32.249503 100062 net.cpp:434] inception_4e/output <- inception_4e/5x5
I0202 13:53:32.249508 100062 net.cpp:434] inception_4e/output <- inception_4e/pool_proj
I0202 13:53:32.249514 100062 net.cpp:408] inception_4e/output -> inception_4e/output
I0202 13:53:32.249523 100062 net.cpp:150] Setting up inception_4e/output
I0202 13:53:32.249529 100062 net.cpp:157] Top shape: 50 832 14 14 (8153600)
I0202 13:53:32.249532 100062 net.cpp:165] Memory required for data: 2652699624
I0202 13:53:32.249536 100062 layer_factory.hpp:77] Creating layer pool4/3x3_s2
I0202 13:53:32.249548 100062 net.cpp:100] Creating Layer pool4/3x3_s2
I0202 13:53:32.249552 100062 net.cpp:434] pool4/3x3_s2 <- inception_4e/output
I0202 13:53:32.249558 100062 net.cpp:408] pool4/3x3_s2 -> pool4/3x3_s2
I0202 13:53:32.249567 100062 net.cpp:150] Setting up pool4/3x3_s2
I0202 13:53:32.249572 100062 net.cpp:157] Top shape: 50 832 7 7 (2038400)
I0202 13:53:32.249577 100062 net.cpp:165] Memory required for data: 2660853224
I0202 13:53:32.249580 100062 layer_factory.hpp:77] Creating layer pool4/3x3_s2_pool4/3x3_s2_0_split
I0202 13:53:32.249588 100062 net.cpp:100] Creating Layer pool4/3x3_s2_pool4/3x3_s2_0_split
I0202 13:53:32.249593 100062 net.cpp:434] pool4/3x3_s2_pool4/3x3_s2_0_split <- pool4/3x3_s2
I0202 13:53:32.249598 100062 net.cpp:408] pool4/3x3_s2_pool4/3x3_s2_0_split -> pool4/3x3_s2_pool4/3x3_s2_0_split_0
I0202 13:53:32.249604 100062 net.cpp:408] pool4/3x3_s2_pool4/3x3_s2_0_split -> pool4/3x3_s2_pool4/3x3_s2_0_split_1
I0202 13:53:32.249611 100062 net.cpp:408] pool4/3x3_s2_pool4/3x3_s2_0_split -> pool4/3x3_s2_pool4/3x3_s2_0_split_2
I0202 13:53:32.249637 100062 net.cpp:408] pool4/3x3_s2_pool4/3x3_s2_0_split -> pool4/3x3_s2_pool4/3x3_s2_0_split_3
I0202 13:53:32.249647 100062 net.cpp:150] Setting up pool4/3x3_s2_pool4/3x3_s2_0_split
I0202 13:53:32.249653 100062 net.cpp:157] Top shape: 50 832 7 7 (2038400)
I0202 13:53:32.249658 100062 net.cpp:157] Top shape: 50 832 7 7 (2038400)
I0202 13:53:32.249663 100062 net.cpp:157] Top shape: 50 832 7 7 (2038400)
I0202 13:53:32.249668 100062 net.cpp:157] Top shape: 50 832 7 7 (2038400)
I0202 13:53:32.249671 100062 net.cpp:165] Memory required for data: 2693467624
I0202 13:53:32.249675 100062 layer_factory.hpp:77] Creating layer inception_5a/1x1
I0202 13:53:32.249686 100062 net.cpp:100] Creating Layer inception_5a/1x1
I0202 13:53:32.249691 100062 net.cpp:434] inception_5a/1x1 <- pool4/3x3_s2_pool4/3x3_s2_0_split_0
I0202 13:53:32.249697 100062 net.cpp:408] inception_5a/1x1 -> inception_5a/1x1
I0202 13:53:32.251628 100062 net.cpp:150] Setting up inception_5a/1x1
I0202 13:53:32.251638 100062 net.cpp:157] Top shape: 50 256 7 7 (627200)
I0202 13:53:32.251642 100062 net.cpp:165] Memory required for data: 2695976424
I0202 13:53:32.251649 100062 layer_factory.hpp:77] Creating layer inception_5a/relu_1x1
I0202 13:53:32.251655 100062 net.cpp:100] Creating Layer inception_5a/relu_1x1
I0202 13:53:32.251659 100062 net.cpp:434] inception_5a/relu_1x1 <- inception_5a/1x1
I0202 13:53:32.251667 100062 net.cpp:395] inception_5a/relu_1x1 -> inception_5a/1x1 (in-place)
I0202 13:53:32.251674 100062 net.cpp:150] Setting up inception_5a/relu_1x1
I0202 13:53:32.251679 100062 net.cpp:157] Top shape: 50 256 7 7 (627200)
I0202 13:53:32.251682 100062 net.cpp:165] Memory required for data: 2698485224
I0202 13:53:32.251687 100062 layer_factory.hpp:77] Creating layer inception_5a/3x3_reduce
I0202 13:53:32.251694 100062 net.cpp:100] Creating Layer inception_5a/3x3_reduce
I0202 13:53:32.251698 100062 net.cpp:434] inception_5a/3x3_reduce <- pool4/3x3_s2_pool4/3x3_s2_0_split_1
I0202 13:53:32.251705 100062 net.cpp:408] inception_5a/3x3_reduce -> inception_5a/3x3_reduce
I0202 13:53:32.252926 100062 net.cpp:150] Setting up inception_5a/3x3_reduce
I0202 13:53:32.252936 100062 net.cpp:157] Top shape: 50 160 7 7 (392000)
I0202 13:53:32.252943 100062 net.cpp:165] Memory required for data: 2700053224
I0202 13:53:32.252957 100062 layer_factory.hpp:77] Creating layer inception_5a/relu_3x3_reduce
I0202 13:53:32.252964 100062 net.cpp:100] Creating Layer inception_5a/relu_3x3_reduce
I0202 13:53:32.252969 100062 net.cpp:434] inception_5a/relu_3x3_reduce <- inception_5a/3x3_reduce
I0202 13:53:32.252976 100062 net.cpp:395] inception_5a/relu_3x3_reduce -> inception_5a/3x3_reduce (in-place)
I0202 13:53:32.252982 100062 net.cpp:150] Setting up inception_5a/relu_3x3_reduce
I0202 13:53:32.252987 100062 net.cpp:157] Top shape: 50 160 7 7 (392000)
I0202 13:53:32.252991 100062 net.cpp:165] Memory required for data: 2701621224
I0202 13:53:32.252995 100062 layer_factory.hpp:77] Creating layer inception_5a/3x3
I0202 13:53:32.253003 100062 net.cpp:100] Creating Layer inception_5a/3x3
I0202 13:53:32.253007 100062 net.cpp:434] inception_5a/3x3 <- inception_5a/3x3_reduce
I0202 13:53:32.253013 100062 net.cpp:408] inception_5a/3x3 -> inception_5a/3x3
I0202 13:53:32.257612 100062 net.cpp:150] Setting up inception_5a/3x3
I0202 13:53:32.257627 100062 net.cpp:157] Top shape: 50 320 7 7 (784000)
I0202 13:53:32.257632 100062 net.cpp:165] Memory required for data: 2704757224
I0202 13:53:32.257638 100062 layer_factory.hpp:77] Creating layer inception_5a/relu_3x3
I0202 13:53:32.257645 100062 net.cpp:100] Creating Layer inception_5a/relu_3x3
I0202 13:53:32.257649 100062 net.cpp:434] inception_5a/relu_3x3 <- inception_5a/3x3
I0202 13:53:32.257655 100062 net.cpp:395] inception_5a/relu_3x3 -> inception_5a/3x3 (in-place)
I0202 13:53:32.257663 100062 net.cpp:150] Setting up inception_5a/relu_3x3
I0202 13:53:32.257668 100062 net.cpp:157] Top shape: 50 320 7 7 (784000)
I0202 13:53:32.257671 100062 net.cpp:165] Memory required for data: 2707893224
I0202 13:53:32.257675 100062 layer_factory.hpp:77] Creating layer inception_5a/5x5_reduce
I0202 13:53:32.257683 100062 net.cpp:100] Creating Layer inception_5a/5x5_reduce
I0202 13:53:32.257688 100062 net.cpp:434] inception_5a/5x5_reduce <- pool4/3x3_s2_pool4/3x3_s2_0_split_2
I0202 13:53:32.257696 100062 net.cpp:408] inception_5a/5x5_reduce -> inception_5a/5x5_reduce
I0202 13:53:32.257990 100062 net.cpp:150] Setting up inception_5a/5x5_reduce
I0202 13:53:32.257998 100062 net.cpp:157] Top shape: 50 32 7 7 (78400)
I0202 13:53:32.258002 100062 net.cpp:165] Memory required for data: 2708206824
I0202 13:53:32.258009 100062 layer_factory.hpp:77] Creating layer inception_5a/relu_5x5_reduce
I0202 13:53:32.258015 100062 net.cpp:100] Creating Layer inception_5a/relu_5x5_reduce
I0202 13:53:32.258019 100062 net.cpp:434] inception_5a/relu_5x5_reduce <- inception_5a/5x5_reduce
I0202 13:53:32.258028 100062 net.cpp:395] inception_5a/relu_5x5_reduce -> inception_5a/5x5_reduce (in-place)
I0202 13:53:32.258033 100062 net.cpp:150] Setting up inception_5a/relu_5x5_reduce
I0202 13:53:32.258038 100062 net.cpp:157] Top shape: 50 32 7 7 (78400)
I0202 13:53:32.258043 100062 net.cpp:165] Memory required for data: 2708520424
I0202 13:53:32.258046 100062 layer_factory.hpp:77] Creating layer inception_5a/5x5
I0202 13:53:32.258054 100062 net.cpp:100] Creating Layer inception_5a/5x5
I0202 13:53:32.258059 100062 net.cpp:434] inception_5a/5x5 <- inception_5a/5x5_reduce
I0202 13:53:32.258066 100062 net.cpp:408] inception_5a/5x5 -> inception_5a/5x5
I0202 13:53:32.259006 100062 net.cpp:150] Setting up inception_5a/5x5
I0202 13:53:32.259016 100062 net.cpp:157] Top shape: 50 128 7 7 (313600)
I0202 13:53:32.259019 100062 net.cpp:165] Memory required for data: 2709774824
I0202 13:53:32.259027 100062 layer_factory.hpp:77] Creating layer inception_5a/relu_5x5
I0202 13:53:32.259032 100062 net.cpp:100] Creating Layer inception_5a/relu_5x5
I0202 13:53:32.259042 100062 net.cpp:434] inception_5a/relu_5x5 <- inception_5a/5x5
I0202 13:53:32.259047 100062 net.cpp:395] inception_5a/relu_5x5 -> inception_5a/5x5 (in-place)
I0202 13:53:32.259053 100062 net.cpp:150] Setting up inception_5a/relu_5x5
I0202 13:53:32.259058 100062 net.cpp:157] Top shape: 50 128 7 7 (313600)
I0202 13:53:32.259063 100062 net.cpp:165] Memory required for data: 2711029224
I0202 13:53:32.259076 100062 layer_factory.hpp:77] Creating layer inception_5a/pool
I0202 13:53:32.259083 100062 net.cpp:100] Creating Layer inception_5a/pool
I0202 13:53:32.259088 100062 net.cpp:434] inception_5a/pool <- pool4/3x3_s2_pool4/3x3_s2_0_split_3
I0202 13:53:32.259099 100062 net.cpp:408] inception_5a/pool -> inception_5a/pool
I0202 13:53:32.259109 100062 net.cpp:150] Setting up inception_5a/pool
I0202 13:53:32.259114 100062 net.cpp:157] Top shape: 50 832 7 7 (2038400)
I0202 13:53:32.259117 100062 net.cpp:165] Memory required for data: 2719182824
I0202 13:53:32.259121 100062 layer_factory.hpp:77] Creating layer inception_5a/pool_proj
I0202 13:53:32.259132 100062 net.cpp:100] Creating Layer inception_5a/pool_proj
I0202 13:53:32.259136 100062 net.cpp:434] inception_5a/pool_proj <- inception_5a/pool
I0202 13:53:32.259145 100062 net.cpp:408] inception_5a/pool_proj -> inception_5a/pool_proj
I0202 13:53:32.260134 100062 net.cpp:150] Setting up inception_5a/pool_proj
I0202 13:53:32.260143 100062 net.cpp:157] Top shape: 50 128 7 7 (313600)
I0202 13:53:32.260148 100062 net.cpp:165] Memory required for data: 2720437224
I0202 13:53:32.260154 100062 layer_factory.hpp:77] Creating layer inception_5a/relu_pool_proj
I0202 13:53:32.260162 100062 net.cpp:100] Creating Layer inception_5a/relu_pool_proj
I0202 13:53:32.260166 100062 net.cpp:434] inception_5a/relu_pool_proj <- inception_5a/pool_proj
I0202 13:53:32.260172 100062 net.cpp:395] inception_5a/relu_pool_proj -> inception_5a/pool_proj (in-place)
I0202 13:53:32.260179 100062 net.cpp:150] Setting up inception_5a/relu_pool_proj
I0202 13:53:32.260185 100062 net.cpp:157] Top shape: 50 128 7 7 (313600)
I0202 13:53:32.260187 100062 net.cpp:165] Memory required for data: 2721691624
I0202 13:53:32.260191 100062 layer_factory.hpp:77] Creating layer inception_5a/output
I0202 13:53:32.260200 100062 net.cpp:100] Creating Layer inception_5a/output
I0202 13:53:32.260205 100062 net.cpp:434] inception_5a/output <- inception_5a/1x1
I0202 13:53:32.260210 100062 net.cpp:434] inception_5a/output <- inception_5a/3x3
I0202 13:53:32.260215 100062 net.cpp:434] inception_5a/output <- inception_5a/5x5
I0202 13:53:32.260220 100062 net.cpp:434] inception_5a/output <- inception_5a/pool_proj
I0202 13:53:32.260226 100062 net.cpp:408] inception_5a/output -> inception_5a/output
I0202 13:53:32.260233 100062 net.cpp:150] Setting up inception_5a/output
I0202 13:53:32.260238 100062 net.cpp:157] Top shape: 50 832 7 7 (2038400)
I0202 13:53:32.260242 100062 net.cpp:165] Memory required for data: 2729845224
I0202 13:53:32.260246 100062 layer_factory.hpp:77] Creating layer inception_5a/output_inception_5a/output_0_split
I0202 13:53:32.260253 100062 net.cpp:100] Creating Layer inception_5a/output_inception_5a/output_0_split
I0202 13:53:32.260257 100062 net.cpp:434] inception_5a/output_inception_5a/output_0_split <- inception_5a/output
I0202 13:53:32.260265 100062 net.cpp:408] inception_5a/output_inception_5a/output_0_split -> inception_5a/output_inception_5a/output_0_split_0
I0202 13:53:32.260272 100062 net.cpp:408] inception_5a/output_inception_5a/output_0_split -> inception_5a/output_inception_5a/output_0_split_1
I0202 13:53:32.260279 100062 net.cpp:408] inception_5a/output_inception_5a/output_0_split -> inception_5a/output_inception_5a/output_0_split_2
I0202 13:53:32.260285 100062 net.cpp:408] inception_5a/output_inception_5a/output_0_split -> inception_5a/output_inception_5a/output_0_split_3
I0202 13:53:32.260293 100062 net.cpp:150] Setting up inception_5a/output_inception_5a/output_0_split
I0202 13:53:32.260298 100062 net.cpp:157] Top shape: 50 832 7 7 (2038400)
I0202 13:53:32.260303 100062 net.cpp:157] Top shape: 50 832 7 7 (2038400)
I0202 13:53:32.260308 100062 net.cpp:157] Top shape: 50 832 7 7 (2038400)
I0202 13:53:32.260313 100062 net.cpp:157] Top shape: 50 832 7 7 (2038400)
I0202 13:53:32.260315 100062 net.cpp:165] Memory required for data: 2762459624
I0202 13:53:32.260319 100062 layer_factory.hpp:77] Creating layer inception_5b/1x1
I0202 13:53:32.260330 100062 net.cpp:100] Creating Layer inception_5b/1x1
I0202 13:53:32.260344 100062 net.cpp:434] inception_5b/1x1 <- inception_5a/output_inception_5a/output_0_split_0
I0202 13:53:32.260351 100062 net.cpp:408] inception_5b/1x1 -> inception_5b/1x1
I0202 13:53:32.263236 100062 net.cpp:150] Setting up inception_5b/1x1
I0202 13:53:32.263245 100062 net.cpp:157] Top shape: 50 384 7 7 (940800)
I0202 13:53:32.263249 100062 net.cpp:165] Memory required for data: 2766222824
I0202 13:53:32.263255 100062 layer_factory.hpp:77] Creating layer inception_5b/relu_1x1
I0202 13:53:32.263262 100062 net.cpp:100] Creating Layer inception_5b/relu_1x1
I0202 13:53:32.263267 100062 net.cpp:434] inception_5b/relu_1x1 <- inception_5b/1x1
I0202 13:53:32.263275 100062 net.cpp:395] inception_5b/relu_1x1 -> inception_5b/1x1 (in-place)
I0202 13:53:32.263281 100062 net.cpp:150] Setting up inception_5b/relu_1x1
I0202 13:53:32.263286 100062 net.cpp:157] Top shape: 50 384 7 7 (940800)
I0202 13:53:32.263290 100062 net.cpp:165] Memory required for data: 2769986024
I0202 13:53:32.263294 100062 layer_factory.hpp:77] Creating layer inception_5b/3x3_reduce
I0202 13:53:32.263303 100062 net.cpp:100] Creating Layer inception_5b/3x3_reduce
I0202 13:53:32.263306 100062 net.cpp:434] inception_5b/3x3_reduce <- inception_5a/output_inception_5a/output_0_split_1
I0202 13:53:32.263314 100062 net.cpp:408] inception_5b/3x3_reduce -> inception_5b/3x3_reduce
I0202 13:53:32.264776 100062 net.cpp:150] Setting up inception_5b/3x3_reduce
I0202 13:53:32.264786 100062 net.cpp:157] Top shape: 50 192 7 7 (470400)
I0202 13:53:32.264789 100062 net.cpp:165] Memory required for data: 2771867624
I0202 13:53:32.264796 100062 layer_factory.hpp:77] Creating layer inception_5b/relu_3x3_reduce
I0202 13:53:32.264806 100062 net.cpp:100] Creating Layer inception_5b/relu_3x3_reduce
I0202 13:53:32.264811 100062 net.cpp:434] inception_5b/relu_3x3_reduce <- inception_5b/3x3_reduce
I0202 13:53:32.264816 100062 net.cpp:395] inception_5b/relu_3x3_reduce -> inception_5b/3x3_reduce (in-place)
I0202 13:53:32.264822 100062 net.cpp:150] Setting up inception_5b/relu_3x3_reduce
I0202 13:53:32.264827 100062 net.cpp:157] Top shape: 50 192 7 7 (470400)
I0202 13:53:32.264832 100062 net.cpp:165] Memory required for data: 2773749224
I0202 13:53:32.264835 100062 layer_factory.hpp:77] Creating layer inception_5b/3x3
I0202 13:53:32.264842 100062 net.cpp:100] Creating Layer inception_5b/3x3
I0202 13:53:32.264847 100062 net.cpp:434] inception_5b/3x3 <- inception_5b/3x3_reduce
I0202 13:53:32.264854 100062 net.cpp:408] inception_5b/3x3 -> inception_5b/3x3
I0202 13:53:32.271464 100062 net.cpp:150] Setting up inception_5b/3x3
I0202 13:53:32.271474 100062 net.cpp:157] Top shape: 50 384 7 7 (940800)
I0202 13:53:32.271478 100062 net.cpp:165] Memory required for data: 2777512424
I0202 13:53:32.271486 100062 layer_factory.hpp:77] Creating layer inception_5b/relu_3x3
I0202 13:53:32.271492 100062 net.cpp:100] Creating Layer inception_5b/relu_3x3
I0202 13:53:32.271495 100062 net.cpp:434] inception_5b/relu_3x3 <- inception_5b/3x3
I0202 13:53:32.271502 100062 net.cpp:395] inception_5b/relu_3x3 -> inception_5b/3x3 (in-place)
I0202 13:53:32.271507 100062 net.cpp:150] Setting up inception_5b/relu_3x3
I0202 13:53:32.271512 100062 net.cpp:157] Top shape: 50 384 7 7 (940800)
I0202 13:53:32.271517 100062 net.cpp:165] Memory required for data: 2781275624
I0202 13:53:32.271520 100062 layer_factory.hpp:77] Creating layer inception_5b/5x5_reduce
I0202 13:53:32.271530 100062 net.cpp:100] Creating Layer inception_5b/5x5_reduce
I0202 13:53:32.271534 100062 net.cpp:434] inception_5b/5x5_reduce <- inception_5a/output_inception_5a/output_0_split_2
I0202 13:53:32.271541 100062 net.cpp:408] inception_5b/5x5_reduce -> inception_5b/5x5_reduce
I0202 13:53:32.271909 100062 net.cpp:150] Setting up inception_5b/5x5_reduce
I0202 13:53:32.271919 100062 net.cpp:157] Top shape: 50 48 7 7 (117600)
I0202 13:53:32.271922 100062 net.cpp:165] Memory required for data: 2781746024
I0202 13:53:32.271929 100062 layer_factory.hpp:77] Creating layer inception_5b/relu_5x5_reduce
I0202 13:53:32.271942 100062 net.cpp:100] Creating Layer inception_5b/relu_5x5_reduce
I0202 13:53:32.271955 100062 net.cpp:434] inception_5b/relu_5x5_reduce <- inception_5b/5x5_reduce
I0202 13:53:32.271960 100062 net.cpp:395] inception_5b/relu_5x5_reduce -> inception_5b/5x5_reduce (in-place)
I0202 13:53:32.271966 100062 net.cpp:150] Setting up inception_5b/relu_5x5_reduce
I0202 13:53:32.271971 100062 net.cpp:157] Top shape: 50 48 7 7 (117600)
I0202 13:53:32.271975 100062 net.cpp:165] Memory required for data: 2782216424
I0202 13:53:32.271980 100062 layer_factory.hpp:77] Creating layer inception_5b/5x5
I0202 13:53:32.271989 100062 net.cpp:100] Creating Layer inception_5b/5x5
I0202 13:53:32.271993 100062 net.cpp:434] inception_5b/5x5 <- inception_5b/5x5_reduce
I0202 13:53:32.272002 100062 net.cpp:408] inception_5b/5x5 -> inception_5b/5x5
I0202 13:53:32.273427 100062 net.cpp:150] Setting up inception_5b/5x5
I0202 13:53:32.273438 100062 net.cpp:157] Top shape: 50 128 7 7 (313600)
I0202 13:53:32.273442 100062 net.cpp:165] Memory required for data: 2783470824
I0202 13:53:32.273448 100062 layer_factory.hpp:77] Creating layer inception_5b/relu_5x5
I0202 13:53:32.273454 100062 net.cpp:100] Creating Layer inception_5b/relu_5x5
I0202 13:53:32.273459 100062 net.cpp:434] inception_5b/relu_5x5 <- inception_5b/5x5
I0202 13:53:32.273464 100062 net.cpp:395] inception_5b/relu_5x5 -> inception_5b/5x5 (in-place)
I0202 13:53:32.273471 100062 net.cpp:150] Setting up inception_5b/relu_5x5
I0202 13:53:32.273475 100062 net.cpp:157] Top shape: 50 128 7 7 (313600)
I0202 13:53:32.273479 100062 net.cpp:165] Memory required for data: 2784725224
I0202 13:53:32.273483 100062 layer_factory.hpp:77] Creating layer inception_5b/pool
I0202 13:53:32.273488 100062 net.cpp:100] Creating Layer inception_5b/pool
I0202 13:53:32.273494 100062 net.cpp:434] inception_5b/pool <- inception_5a/output_inception_5a/output_0_split_3
I0202 13:53:32.273502 100062 net.cpp:408] inception_5b/pool -> inception_5b/pool
I0202 13:53:32.273511 100062 net.cpp:150] Setting up inception_5b/pool
I0202 13:53:32.273516 100062 net.cpp:157] Top shape: 50 832 7 7 (2038400)
I0202 13:53:32.273520 100062 net.cpp:165] Memory required for data: 2792878824
I0202 13:53:32.273524 100062 layer_factory.hpp:77] Creating layer inception_5b/pool_proj
I0202 13:53:32.273535 100062 net.cpp:100] Creating Layer inception_5b/pool_proj
I0202 13:53:32.273540 100062 net.cpp:434] inception_5b/pool_proj <- inception_5b/pool
I0202 13:53:32.273548 100062 net.cpp:408] inception_5b/pool_proj -> inception_5b/pool_proj
I0202 13:53:32.274535 100062 net.cpp:150] Setting up inception_5b/pool_proj
I0202 13:53:32.274545 100062 net.cpp:157] Top shape: 50 128 7 7 (313600)
I0202 13:53:32.274549 100062 net.cpp:165] Memory required for data: 2794133224
I0202 13:53:32.274556 100062 layer_factory.hpp:77] Creating layer inception_5b/relu_pool_proj
I0202 13:53:32.274562 100062 net.cpp:100] Creating Layer inception_5b/relu_pool_proj
I0202 13:53:32.274567 100062 net.cpp:434] inception_5b/relu_pool_proj <- inception_5b/pool_proj
I0202 13:53:32.274574 100062 net.cpp:395] inception_5b/relu_pool_proj -> inception_5b/pool_proj (in-place)
I0202 13:53:32.274581 100062 net.cpp:150] Setting up inception_5b/relu_pool_proj
I0202 13:53:32.274586 100062 net.cpp:157] Top shape: 50 128 7 7 (313600)
I0202 13:53:32.274590 100062 net.cpp:165] Memory required for data: 2795387624
I0202 13:53:32.274593 100062 layer_factory.hpp:77] Creating layer inception_5b/output
I0202 13:53:32.274600 100062 net.cpp:100] Creating Layer inception_5b/output
I0202 13:53:32.274605 100062 net.cpp:434] inception_5b/output <- inception_5b/1x1
I0202 13:53:32.274610 100062 net.cpp:434] inception_5b/output <- inception_5b/3x3
I0202 13:53:32.274615 100062 net.cpp:434] inception_5b/output <- inception_5b/5x5
I0202 13:53:32.274618 100062 net.cpp:434] inception_5b/output <- inception_5b/pool_proj
I0202 13:53:32.274628 100062 net.cpp:408] inception_5b/output -> inception_5b/output
I0202 13:53:32.274638 100062 net.cpp:150] Setting up inception_5b/output
I0202 13:53:32.274643 100062 net.cpp:157] Top shape: 50 1024 7 7 (2508800)
I0202 13:53:32.274652 100062 net.cpp:165] Memory required for data: 2805422824
I0202 13:53:32.274662 100062 layer_factory.hpp:77] Creating layer pool5/7x7_s1
I0202 13:53:32.274669 100062 net.cpp:100] Creating Layer pool5/7x7_s1
I0202 13:53:32.274674 100062 net.cpp:434] pool5/7x7_s1 <- inception_5b/output
I0202 13:53:32.274680 100062 net.cpp:408] pool5/7x7_s1 -> pool5/7x7_s1
I0202 13:53:32.274688 100062 net.cpp:150] Setting up pool5/7x7_s1
I0202 13:53:32.274695 100062 net.cpp:157] Top shape: 50 1024 1 1 (51200)
I0202 13:53:32.274699 100062 net.cpp:165] Memory required for data: 2805627624
I0202 13:53:32.274703 100062 layer_factory.hpp:77] Creating layer pool5/drop_7x7_s1
I0202 13:53:32.274709 100062 net.cpp:100] Creating Layer pool5/drop_7x7_s1
I0202 13:53:32.274713 100062 net.cpp:434] pool5/drop_7x7_s1 <- pool5/7x7_s1
I0202 13:53:32.274718 100062 net.cpp:395] pool5/drop_7x7_s1 -> pool5/7x7_s1 (in-place)
I0202 13:53:32.274726 100062 net.cpp:150] Setting up pool5/drop_7x7_s1
I0202 13:53:32.274731 100062 net.cpp:157] Top shape: 50 1024 1 1 (51200)
I0202 13:53:32.274734 100062 net.cpp:165] Memory required for data: 2805832424
I0202 13:53:32.274739 100062 layer_factory.hpp:77] Creating layer loss3/classifier
I0202 13:53:32.274750 100062 net.cpp:100] Creating Layer loss3/classifier
I0202 13:53:32.274755 100062 net.cpp:434] loss3/classifier <- pool5/7x7_s1
I0202 13:53:32.274761 100062 net.cpp:408] loss3/classifier -> loss3/classifier
I0202 13:53:32.284121 100062 net.cpp:150] Setting up loss3/classifier
I0202 13:53:32.284131 100062 net.cpp:157] Top shape: 50 1000 (50000)
I0202 13:53:32.284134 100062 net.cpp:165] Memory required for data: 2806032424
I0202 13:53:32.284142 100062 layer_factory.hpp:77] Creating layer loss3/classifier_loss3/classifier_0_split
I0202 13:53:32.284149 100062 net.cpp:100] Creating Layer loss3/classifier_loss3/classifier_0_split
I0202 13:53:32.284153 100062 net.cpp:434] loss3/classifier_loss3/classifier_0_split <- loss3/classifier
I0202 13:53:32.284162 100062 net.cpp:408] loss3/classifier_loss3/classifier_0_split -> loss3/classifier_loss3/classifier_0_split_0
I0202 13:53:32.284169 100062 net.cpp:408] loss3/classifier_loss3/classifier_0_split -> loss3/classifier_loss3/classifier_0_split_1
I0202 13:53:32.284176 100062 net.cpp:408] loss3/classifier_loss3/classifier_0_split -> loss3/classifier_loss3/classifier_0_split_2
I0202 13:53:32.284184 100062 net.cpp:150] Setting up loss3/classifier_loss3/classifier_0_split
I0202 13:53:32.284189 100062 net.cpp:157] Top shape: 50 1000 (50000)
I0202 13:53:32.284193 100062 net.cpp:157] Top shape: 50 1000 (50000)
I0202 13:53:32.284198 100062 net.cpp:157] Top shape: 50 1000 (50000)
I0202 13:53:32.284201 100062 net.cpp:165] Memory required for data: 2806632424
I0202 13:53:32.284204 100062 layer_factory.hpp:77] Creating layer loss3/loss3
I0202 13:53:32.284211 100062 net.cpp:100] Creating Layer loss3/loss3
I0202 13:53:32.284215 100062 net.cpp:434] loss3/loss3 <- loss3/classifier_loss3/classifier_0_split_0
I0202 13:53:32.284221 100062 net.cpp:434] loss3/loss3 <- label_data_1_split_6
…
