…
I0202 13:47:03.304289 99956 net.cpp:322] The NetState phase (0) differed from the phase (1) specified by a rule in layer loss3/top-5
I0202 13:47:03.308151 99956 net.cpp:58] Initializing net from parameters: 
name: "GoogleNet"
state {
  phase: TRAIN
  level: 0
  stage: ""
}
layer {
  name: "data"
  type: "Data"
  top: "data"
  top: "label"
  include {
    phase: TRAIN
  }
  transform_param {
    mirror: true
    crop_size: 224
    mean_value: 104
    mean_value: 117
    mean_value: 123
  }
  data_param {
    source: "/home/user/LIBRARIES/caffeLibs/caffe/examples/imagenet/ilsvrc12_train_lmdb"
    batch_size: 112
    backend: LMDB
  }
}
layer {
  name: "conv1/7x7_s2"
  type: "Convolution"
  bottom: "data"
  top: "conv1/7x7_s2"
  param {
    lr_mult: 1
    decay_mult: 1
  }
  param {
    lr_mult: 2
    decay_mult: 0
  }
  convolution_param {
    num_output: 64
    pad: 3
    kernel_size: 7
    stride: 2
    weight_filler {
      type: "xavier"
    }
    bias_filler {
      type: "constant"
      value: 0.2
    }
  }
}
layer {
  name: "conv1/relu_7x7"
  type: "ReLU"
  bottom: "conv1/7x7_s2"
  top: "conv1/7x7_s2"
}
layer {
  name: "pool1/3x3_s2"
  type: "Pooling"
  bottom: "conv1/7x7_s2"
  top: "pool1/3x3_s2"
  pooling_param {
    pool: MAX
    kernel_size: 3
    stride: 2
  }
}
layer {
  name: "pool1/norm1"
  type: "LRN"
  bottom: "pool1/3x3_s2"
  top: "pool1/norm1"
  lrn_param {
    local_size: 5
    alpha: 0.0001
    beta: 0.75
  }
}
layer {
  name: "conv2/3x3_reduce"
  type: "Convolution"
  bottom: "pool1/norm1"
  top: "conv2/3x3_reduce"
  param {
    lr_mult: 1
    decay_mult: 1
  }
  param {
    lr_mult: 2
    decay_mult: 0
  }
  convolution_param {
    num_output: 64
    kernel_size: 1
    weight_filler {
      type: "xavier"
    }
    bias_filler {
      type: "constant"
      value: 0.2
    }
  }
}
layer {
  name: "conv2/relu_3x3_reduce"
  type: "ReLU"
  bottom: "conv2/3x3_reduce"
  top: "conv2/3x3_reduce"
}
layer {
  name: "conv2/3x3"
  type: "Convolution"
  bottom: "conv2/3x3_reduce"
  top: "conv2/3x3"
  param {
    lr_mult: 1
    decay_mult: 1
  }
  param {
    lr_mult: 2
    decay_mult: 0
  }
  convolution_param {
    num_output: 192
    pad: 1
    kernel_size: 3
    weight_filler {
      type: "xavier"
    }
    bias_filler {
      type: "constant"
      value: 0.2
    }
  }
}
layer {
  name: "conv2/relu_3x3"
  type: "ReLU"
  bottom: "conv2/3x3"
  top: "conv2/3x3"
}
layer {
  name: "conv2/norm2"
  type: "LRN"
  bottom: "conv2/3x3"
  top: "conv2/norm2"
  lrn_param {
    local_size: 5
    alpha: 0.0001
    beta: 0.75
  }
}
layer {
  name: "pool2/3x3_s2"
  type: "Pooling"
  bottom: "conv2/norm2"
  top: "pool2/3x3_s2"
  pooling_param {
    pool: MAX
    kernel_size: 3
    stride: 2
  }
}
layer {
  name: "inception_3a/1x1"
  type: "Convolution"
  bottom: "pool2/3x3_s2"
  top: "inception_3a/1x1"
  param {
    lr_mult: 1
    decay_mult: 1
  }
  param {
    lr_mult: 2
    decay_mult: 0
  }
  convolution_param {
    num_output: 64
    kernel_size: 1
    weight_filler {
      type: "xavier"
    }
    bias_filler {
      type: "constant"
      value: 0.2
    }
  }
}
layer {
  name: "inception_3a/relu_1x1"
  type: "ReLU"
  bottom: "inception_3a/1x1"
  top: "inception_3a/1x1"
}
layer {
  name: "inception_3a/3x3_reduce"
  type: "Convolution"
  bottom: "pool2/3x3_s2"
  top: "inception_3a/3x3_reduce"
  param {
    lr_mult: 1
    decay_mult: 1
  }
  param {
    lr_mult: 2
    decay_mult: 0
  }
  convolution_param {
    num_output: 96
    kernel_size: 1
    weight_filler {
      type: "xavier"
    }
    bias_filler {
      type: "constant"
      value: 0.2
    }
  }
}
layer {
  name: "inception_3a/relu_3x3_reduce"
  type: "ReLU"
  bottom: "inception_3a/3x3_reduce"
  top: "inception_3a/3x3_reduce"
}
layer {
  name: "inception_3a/3x3"
  type: "Convolution"
  bottom: "inception_3a/3x3_reduce"
  top: "inception_3a/3x3"
  param {
    lr_mult: 1
    decay_mult: 1
  }
  param {
    lr_mult: 2
    decay_mult: 0
  }
  convolution_param {
    num_output: 128
    pad: 1
    kernel_size: 3
    weight_filler {
      type: "xavier"
    }
    bias_filler {
      type: "constant"
      value: 0.2
    }
  }
}
layer {
  name: "inception_3a/relu_3x3"
  type: "ReLU"
  bottom: "inception_3a/3x3"
  top: "inception_3a/3x3"
}
layer {
  name: "inception_3a/5x5_reduce"
  type: "Convolution"
  bottom: "pool2/3x3_s2"
  top: "inception_3a/5x5_reduce"
  param {
    lr_mult: 1
    decay_mult: 1
  }
  param {
    lr_mult: 2
    decay_mult: 0
  }
  convolution_param {
    num_output: 16
    kernel_size: 1
    weight_filler {
      type: "xavier"
    }
    bias_filler {
      type: "constant"
      value: 0.2
    }
  }
}
layer {
  name: "inception_3a/relu_5x5_reduce"
  type: "ReLU"
  bottom: "inception_3a/5x5_reduce"
  top: "inception_3a/5x5_reduce"
}
layer {
  name: "inception_3a/5x5"
  type: "Convolution"
  bottom: "inception_3a/5x5_reduce"
  top: "inception_3a/5x5"
  param {
    lr_mult: 1
    decay_mult: 1
  }
  param {
    lr_mult: 2
    decay_mult: 0
  }
  convolution_param {
    num_output: 32
    pad: 2
    kernel_size: 5
    weight_filler {
      type: "xavier"
    }
    bias_filler {
      type: "constant"
      value: 0.2
    }
  }
}
layer {
  name: "inception_3a/relu_5x5"
  type: "ReLU"
  bottom: "inception_3a/5x5"
  top: "inception_3a/5x5"
}
layer {
  name: "inception_3a/pool"
  type: "Pooling"
  bottom: "pool2/3x3_s2"
  top: "inception_3a/pool"
  pooling_param {
    pool: MAX
    kernel_size: 3
    stride: 1
    pad: 1
  }
}
layer {
  name: "inception_3a/pool_proj"
  type: "Convolution"
  bottom: "inception_3a/pool"
  top: "inception_3a/pool_proj"
  param {
    lr_mult: 1
    decay_mult: 1
  }
  param {
    lr_mult: 2
    decay_mult: 0
  }
  convolution_param {
    num_output: 32
    kernel_size: 1
    weight_filler {
      type: "xavier"
    }
    bias_filler {
      type: "constant"
      value: 0.2
    }
  }
}
layer {
  name: "inception_3a/relu_pool_proj"
  type: "ReLU"
  bottom: "inception_3a/pool_proj"
  top: "inception_3a/pool_proj"
}
layer {
  name: "inception_3a/output"
  type: "Concat"
  bottom: "inception_3a/1x1"
  bottom: "inception_3a/3x3"
  bottom: "inception_3a/5x5"
  bottom: "inception_3a/pool_proj"
  top: "inception_3a/output"
}
layer {
  name: "inception_3b/1x1"
  type: "Convolution"
  bottom: "inception_3a/output"
  top: "inception_3b/1x1"
  param {
    lr_mult: 1
    decay_mult: 1
  }
  param {
    lr_mult: 2
    decay_mult: 0
  }
  convolution_param {
    num_output: 128
    kernel_size: 1
    weight_filler {
      type: "xavier"
    }
    bias_filler {
      type: "constant"
      value: 0.2
    }
  }
}
layer {
  name: "inception_3b/relu_1x1"
  type: "ReLU"
  bottom: "inception_3b/1x1"
  top: "inception_3b/1x1"
}
layer {
  name: "inception_3b/3x3_reduce"
  type: "Convolution"
  bottom: "inception_3a/output"
  top: "inception_3b/3x3_reduce"
  param {
    lr_mult: 1
    decay_mult: 1
  }
  param {
    lr_mult: 2
    decay_mult: 0
  }
  convolution_param {
    num_output: 128
    kernel_size: 1
    weight_filler {
      type: "xavier"
    }
    bias_filler {
      type: "constant"
      value: 0.2
    }
  }
}
layer {
  name: "inception_3b/relu_3x3_reduce"
  type: "ReLU"
  bottom: "inception_3b/3x3_reduce"
  top: "inception_3b/3x3_reduce"
}
layer {
  name: "inception_3b/3x3"
  type: "Convolution"
  bottom: "inception_3b/3x3_reduce"
  top: "inception_3b/3x3"
  param {
    lr_mult: 1
    decay_mult: 1
  }
  param {
    lr_mult: 2
    decay_mult: 0
  }
  convolution_param {
    num_output: 192
    pad: 1
    kernel_size: 3
    weight_filler {
      type: "xavier"
    }
    bias_filler {
      type: "constant"
      value: 0.2
    }
  }
}
layer {
  name: "inception_3b/relu_3x3"
  type: "ReLU"
  bottom: "inception_3b/3x3"
  top: "inception_3b/3x3"
}
layer {
  name: "inception_3b/5x5_reduce"
  type: "Convolution"
  bottom: "inception_3a/output"
  top: "inception_3b/5x5_reduce"
  param {
    lr_mult: 1
    decay_mult: 1
  }
  param {
    lr_mult: 2
    decay_mult: 0
  }
  convolution_param {
    num_output: 32
    kernel_size: 1
    weight_filler {
      type: "xavier"
    }
    bias_filler {
      type: "constant"
      value: 0.2
    }
  }
}
layer {
  name: "inception_3b/relu_5x5_reduce"
  type: "ReLU"
  bottom: "inception_3b/5x5_reduce"
  top: "inception_3b/5x5_reduce"
}
layer {
  name: "inception_3b/5x5"
  type: "Convolution"
  bottom: "inception_3b/5x5_reduce"
  top: "inception_3b/5x5"
  param {
    lr_mult: 1
    decay_mult: 1
  }
  param {
    lr_mult: 2
    decay_mult: 0
  }
  convolution_param {
    num_output: 96
    pad: 2
    kernel_size: 5
    weight_filler {
      type: "xavier"
    }
    bias_filler {
      type: "constant"
      value: 0.2
    }
  }
}
layer {
  name: "inception_3b/relu_5x5"
  type: "ReLU"
  bottom: "inception_3b/5x5"
  top: "inception_3b/5x5"
}
layer {
  name: "inception_3b/pool"
  type: "Pooling"
  bottom: "inception_3a/output"
  top: "inception_3b/pool"
  pooling_param {
    pool: MAX
    kernel_size: 3
    stride: 1
    pad: 1
  }
}
layer {
  name: "inception_3b/pool_proj"
  type: "Convolution"
  bottom: "inception_3b/pool"
  top: "inception_3b/pool_proj"
  param {
    lr_mult: 1
    decay_mult: 1
  }
  param {
    lr_mult: 2
    decay_mult: 0
  }
  convolution_param {
    num_output: 64
    kernel_size: 1
    weight_filler {
      type: "xavier"
    }
    bias_filler {
      type: "constant"
      value: 0.2
    }
  }
}
layer {
  name: "inception_3b/relu_pool_proj"
  type: "ReLU"
  bottom: "inception_3b/pool_proj"
  top: "inception_3b/pool_proj"
}
layer {
  name: "inception_3b/output"
  type: "Concat"
  bottom: "inception_3b/1x1"
  bottom: "inception_3b/3x3"
  bottom: "inception_3b/5x5"
  bottom: "inception_3b/pool_proj"
  top: "inception_3b/output"
}
layer {
  name: "pool3/3x3_s2"
  type: "Pooling"
  bottom: "inception_3b/output"
  top: "pool3/3x3_s2"
  pooling_param {
    pool: MAX
    kernel_size: 3
    stride: 2
  }
}
layer {
  name: "inception_4a/1x1"
  type: "Convolution"
  bottom: "pool3/3x3_s2"
  top: "inception_4a/1x1"
  param {
    lr_mult: 1
    decay_mult: 1
  }
  param {
    lr_mult: 2
    decay_mult: 0
  }
  convolution_param {
    num_output: 192
    kernel_size: 1
    weight_filler {
      type: "xavier"
    }
    bias_filler {
      type: "constant"
      value: 0.2
    }
  }
}
layer {
  name: "inception_4a/relu_1x1"
  type: "ReLU"
  bottom: "inception_4a/1x1"
  top: "inception_4a/1x1"
}
layer {
  name: "inception_4a/3x3_reduce"
  type: "Convolution"
  bottom: "pool3/3x3_s2"
  top: "inception_4a/3x3_reduce"
  param {
    lr_mult: 1
    decay_mult: 1
  }
  param {
    lr_mult: 2
    decay_mult: 0
  }
  convolution_param {
    num_output: 96
    kernel_size: 1
    weight_filler {
      type: "xavier"
    }
    bias_filler {
      type: "constant"
      value: 0.2
    }
  }
}
layer {
  name: "inception_4a/relu_3x3_reduce"
  type: "ReLU"
  bottom: "inception_4a/3x3_reduce"
  top: "inception_4a/3x3_reduce"
}
layer {
  name: "inception_4a/3x3"
  type: "Convolution"
  bottom: "inception_4a/3x3_reduce"
  top: "inception_4a/3x3"
  param {
    lr_mult: 1
    decay_mult: 1
  }
  param {
    lr_mult: 2
    decay_mult: 0
  }
  convolution_param {
    num_output: 208
    pad: 1
    kernel_size: 3
    weight_filler {
      type: "xavier"
    }
    bias_filler {
      type: "constant"
      value: 0.2
    }
  }
}
layer {
  name: "inception_4a/relu_3x3"
  type: "ReLU"
  bottom: "inception_4a/3x3"
  top: "inception_4a/3x3"
}
layer {
  name: "inception_4a/5x5_reduce"
  type: "Convolution"
  bottom: "pool3/3x3_s2"
  top: "inception_4a/5x5_reduce"
  param {
    lr_mult: 1
    decay_mult: 1
  }
  param {
    lr_mult: 2
    decay_mult: 0
  }
  convolution_param {
    num_output: 16
    kernel_size: 1
    weight_filler {
      type: "xavier"
    }
    bias_filler {
      type: "constant"
      value: 0.2
    }
  }
}
layer {
  name: "inception_4a/relu_5x5_reduce"
  type: "ReLU"
  bottom: "inception_4a/5x5_reduce"
  top: "inception_4a/5x5_reduce"
}
layer {
  name: "inception_4a/5x5"
  type: "Convolution"
  bottom: "inception_4a/5x5_reduce"
  top: "inception_4a/5x5"
  param {
    lr_mult: 1
    decay_mult: 1
  }
  param {
    lr_mult: 2
    decay_mult: 0
  }
  convolution_param {
    num_output: 48
    pad: 2
    kernel_size: 5
    weight_filler {
      type: "xavier"
    }
    bias_filler {
      type: "constant"
      value: 0.2
    }
  }
}
layer {
  name: "inception_4a/relu_5x5"
  type: "ReLU"
  bottom: "inception_4a/5x5"
  top: "inception_4a/5x5"
}
layer {
  name: "inception_4a/pool"
  type: "Pooling"
  bottom: "pool3/3x3_s2"
  top: "inception_4a/pool"
  pooling_param {
    pool: MAX
    kernel_size: 3
    stride: 1
    pad: 1
  }
}
layer {
  name: "inception_4a/pool_proj"
  type: "Convolution"
  bottom: "inception_4a/pool"
  top: "inception_4a/pool_proj"
  param {
    lr_mult: 1
    decay_mult: 1
  }
  param {
    lr_mult: 2
    decay_mult: 0
  }
  convolution_param {
    num_output: 64
    kernel_size: 1
    weight_filler {
      type: "xavier"
    }
    bias_filler {
      type: "constant"
      value: 0.2
    }
  }
}
layer {
  name: "inception_4a/relu_pool_proj"
  type: "ReLU"
  bottom: "inception_4a/pool_proj"
  top: "inception_4a/pool_proj"
}
layer {
  name: "inception_4a/output"
  type: "Concat"
  bottom: "inception_4a/1x1"
  bottom: "inception_4a/3x3"
  bottom: "inception_4a/5x5"
  bottom: "inception_4a/pool_proj"
  top: "inception_4a/output"
}
layer {
  name: "loss1/ave_pool"
  type: "Pooling"
  bottom: "inception_4a/output"
  top: "loss1/ave_pool"
  pooling_param {
    pool: AVE
    kernel_size: 5
    stride: 3
  }
}
layer {
  name: "loss1/conv"
  type: "Convolution"
  bottom: "loss1/ave_pool"
  top: "loss1/conv"
  param {
    lr_mult: 1
    decay_mult: 1
  }
  param {
    lr_mult: 2
    decay_mult: 0
  }
  convolution_param {
    num_output: 128
    kernel_size: 1
    weight_filler {
      type: "xavier"
    }
    bias_filler {
      type: "constant"
      value: 0.2
    }
  }
}
layer {
  name: "loss1/relu_conv"
  type: "ReLU"
  bottom: "loss1/conv"
  top: "loss1/conv"
}
layer {
  name: "loss1/fc"
  type: "InnerProduct"
  bottom: "loss1/conv"
  top: "loss1/fc"
  param {
    lr_mult: 1
    decay_mult: 1
  }
  param {
    lr_mult: 2
    decay_mult: 0
  }
  inner_product_param {
    num_output: 1024
    weight_filler {
      type: "xavier"
    }
    bias_filler {
      type: "constant"
      value: 0.2
    }
  }
}
layer {
  name: "loss1/relu_fc"
  type: "ReLU"
  bottom: "loss1/fc"
  top: "loss1/fc"
}
layer {
  name: "loss1/drop_fc"
  type: "Dropout"
  bottom: "loss1/fc"
  top: "loss1/fc"
  dropout_param {
    dropout_ratio: 0.7
  }
}
layer {
  name: "loss1/classifier"
  type: "InnerProduct"
  bottom: "loss1/fc"
  top: "loss1/classifier"
  param {
    lr_mult: 1
    decay_mult: 1
  }
  param {
    lr_mult: 2
    decay_mult: 0
  }
  inner_product_param {
    num_output: 1000
    weight_filler {
      type: "xavier"
    }
    bias_filler {
      type: "constant"
      value: 0
    }
  }
}
layer {
  name: "loss1/loss"
  type: "SoftmaxWithLoss"
  bottom: "loss1/classifier"
  bottom: "label"
  top: "loss1/loss1"
  loss_weight: 0.3
}
layer {
  name: "inception_4b/1x1"
  type: "Convolution"
  bottom: "inception_4a/output"
  top: "inception_4b/1x1"
  param {
    lr_mult: 1
    decay_mult: 1
  }
  param {
    lr_mult: 2
    decay_mult: 0
  }
  convolution_param {
    num_output: 160
    kernel_size: 1
    weight_filler {
      type: "xavier"
    }
    bias_filler {
      type: "constant"
      value: 0.2
    }
  }
}
layer {
  name: "inception_4b/relu_1x1"
  type: "ReLU"
  bottom: "inception_4b/1x1"
  top: "inception_4b/1x1"
}
layer {
  name: "inception_4b/3x3_reduce"
  type: "Convolution"
  bottom: "inception_4a/output"
  top: "inception_4b/3x3_reduce"
  param {
    lr_mult: 1
    decay_mult: 1
  }
  param {
    lr_mult: 2
    decay_mult: 0
  }
  convolution_param {
    num_output: 112
    kernel_size: 1
    weight_filler {
      type: "xavier"
    }
    bias_filler {
      type: "constant"
      value: 0.2
    }
  }
}
layer {
  name: "inception_4b/relu_3x3_reduce"
  type: "ReLU"
  bottom: "inception_4b/3x3_reduce"
  top: "inception_4b/3x3_reduce"
}
layer {
  name: "inception_4b/3x3"
  type: "Convolution"
  bottom: "inception_4b/3x3_reduce"
  top: "inception_4b/3x3"
  param {
    lr_mult: 1
    decay_mult: 1
  }
  param {
    lr_mult: 2
    decay_mult: 0
  }
  convolution_param {
    num_output: 224
    pad: 1
    kernel_size: 3
    weight_filler {
      type: "xavier"
    }
    bias_filler {
      type: "constant"
      value: 0.2
    }
  }
}
layer {
  name: "inception_4b/relu_3x3"
  type: "ReLU"
  bottom: "inception_4b/3x3"
  top: "inception_4b/3x3"
}
layer {
  name: "inception_4b/5x5_reduce"
  type: "Convolution"
  bottom: "inception_4a/output"
  top: "inception_4b/5x5_reduce"
  param {
    lr_mult: 1
    decay_mult: 1
  }
  param {
    lr_mult: 2
    decay_mult: 0
  }
  convolution_param {
    num_output: 24
    kernel_size: 1
    weight_filler {
      type: "xavier"
    }
    bias_filler {
      type: "constant"
      value: 0.2
    }
  }
}
layer {
  name: "inception_4b/relu_5x5_reduce"
  type: "ReLU"
  bottom: "inception_4b/5x5_reduce"
  top: "inception_4b/5x5_reduce"
}
layer {
  name: "inception_4b/5x5"
  type: "Convolution"
  bottom: "inception_4b/5x5_reduce"
  top: "inception_4b/5x5"
  param {
    lr_mult: 1
    decay_mult: 1
  }
  param {
    lr_mult: 2
    decay_mult: 0
  }
  convolution_param {
    num_output: 64
    pad: 2
    kernel_size: 5
    weight_filler {
      type: "xavier"
    }
    bias_filler {
      type: "constant"
      value: 0.2
    }
  }
}
layer {
  name: "inception_4b/relu_5x5"
  type: "ReLU"
  bottom: "inception_4b/5x5"
  top: "inception_4b/5x5"
}
layer {
  name: "inception_4b/pool"
  type: "Pooling"
  bottom: "inception_4a/output"
  top: "inception_4b/pool"
  pooling_param {
    pool: MAX
    kernel_size: 3
    stride: 1
    pad: 1
  }
}
layer {
  name: "inception_4b/pool_proj"
  type: "Convolution"
  bottom: "inception_4b/pool"
  top: "inception_4b/pool_proj"
  param {
    lr_mult: 1
    decay_mult: 1
  }
  param {
    lr_mult: 2
    decay_mult: 0
  }
  convolution_param {
    num_output: 64
    kernel_size: 1
    weight_filler {
      type: "xavier"
    }
    bias_filler {
      type: "constant"
      value: 0.2
    }
  }
}
layer {
  name: "inception_4b/relu_pool_proj"
  type: "ReLU"
  bottom: "inception_4b/pool_proj"
  top: "inception_4b/pool_proj"
}
layer {
  name: "inception_4b/output"
  type: "Concat"
  bottom: "inception_4b/1x1"
  bottom: "inception_4b/3x3"
  bottom: "inception_4b/5x5"
  bottom: "inception_4b/pool_proj"
  top: "inception_4b/output"
}
layer {
  name: "inception_4c/1x1"
  type: "Convolution"
  bottom: "inception_4b/output"
  top: "inception_4c/1x1"
  param {
    lr_mult: 1
    decay_mult: 1
  }
  param {
    lr_mult: 2
    decay_mult: 0
  }
  convolution_param {
    num_output: 128
    kernel_size: 1
    weight_filler {
      type: "xavier"
    }
    bias_filler {
      type: "constant"
      value: 0.2
    }
  }
}
layer {
  name: "inception_4c/relu_1x1"
  type: "ReLU"
  bottom: "inception_4c/1x1"
  top: "inception_4c/1x1"
}
layer {
  name: "inception_4c/3x3_reduce"
  type: "Convolution"
  bottom: "inception_4b/output"
  top: "inception_4c/3x3_reduce"
  param {
    lr_mult: 1
    decay_mult: 1
  }
  param {
    lr_mult: 2
    decay_mult: 0
  }
  convolution_param {
    num_output: 128
    kernel_size: 1
    weight_filler {
      type: "xavier"
    }
    bias_filler {
      type: "constant"
      value: 0.2
    }
  }
}
layer {
  name: "inception_4c/relu_3x3_reduce"
  type: "ReLU"
  bottom: "inception_4c/3x3_reduce"
  top: "inception_4c/3x3_reduce"
}
layer {
  name: "inception_4c/3x3"
  type: "Convolution"
  bottom: "inception_4c/3x3_reduce"
  top: "inception_4c/3x3"
  param {
    lr_mult: 1
    decay_mult: 1
  }
  param {
    lr_mult: 2
    decay_mult: 0
  }
  convolution_param {
    num_output: 256
    pad: 1
    kernel_size: 3
    weight_filler {
      type: "xavier"
    }
    bias_filler {
      type: "constant"
      value: 0.2
    }
  }
}
layer {
  name: "inception_4c/relu_3x3"
  type: "ReLU"
  bottom: "inception_4c/3x3"
  top: "inception_4c/3x3"
}
layer {
  name: "inception_4c/5x5_reduce"
  type: "Convolution"
  bottom: "inception_4b/output"
  top: "inception_4c/5x5_reduce"
  param {
    lr_mult: 1
    decay_mult: 1
  }
  param {
    lr_mult: 2
    decay_mult: 0
  }
  convolution_param {
    num_output: 24
    kernel_size: 1
    weight_filler {
      type: "xavier"
    }
    bias_filler {
      type: "constant"
      value: 0.2
    }
  }
}
layer {
  name: "inception_4c/relu_5x5_reduce"
  type: "ReLU"
  bottom: "inception_4c/5x5_reduce"
  top: "inception_4c/5x5_reduce"
}
layer {
  name: "inception_4c/5x5"
  type: "Convolution"
  bottom: "inception_4c/5x5_reduce"
  top: "inception_4c/5x5"
  param {
    lr_mult: 1
    decay_mult: 1
  }
  param {
    lr_mult: 2
    decay_mult: 0
  }
  convolution_param {
    num_output: 64
    pad: 2
    kernel_size: 5
    weight_filler {
      type: "xavier"
    }
    bias_filler {
      type: "constant"
      value: 0.2
    }
  }
}
layer {
  name: "inception_4c/relu_5x5"
  type: "ReLU"
  bottom: "inception_4c/5x5"
  top: "inception_4c/5x5"
}
layer {
  name: "inception_4c/pool"
  type: "Pooling"
  bottom: "inception_4b/output"
  top: "inception_4c/pool"
  pooling_param {
    pool: MAX
    kernel_size: 3
    stride: 1
    pad: 1
  }
}
layer {
  name: "inception_4c/pool_proj"
  type: "Convolution"
  bottom: "inception_4c/pool"
  top: "inception_4c/pool_proj"
  param {
    lr_mult: 1
    decay_mult: 1
  }
  param {
    lr_mult: 2
    decay_mult: 0
  }
  convolution_param {
    num_output: 64
    kernel_size: 1
    weight_filler {
      type: "xavier"
    }
    bias_filler {
      type: "constant"
      value: 0.2
    }
  }
}
layer {
  name: "inception_4c/relu_pool_proj"
  type: "ReLU"
  bottom: "inception_4c/pool_proj"
  top: "inception_4c/pool_proj"
}
layer {
  name: "inception_4c/output"
  type: "Concat"
  bottom: "inception_4c/1x1"
  bottom: "inception_4c/3x3"
  bottom: "inception_4c/5x5"
  bottom: "inception_4c/pool_proj"
  top: "inception_4c/output"
}
layer {
  name: "inception_4d/1x1"
  type: "Convolution"
  bottom: "inception_4c/output"
  top: "inception_4d/1x1"
  param {
    lr_mult: 1
    decay_mult: 1
  }
  param {
    lr_mult: 2
    decay_mult: 0
  }
  convolution_param {
    num_output: 112
    kernel_size: 1
    weight_filler {
      type: "xavier"
    }
    bias_filler {
      type: "constant"
      value: 0.2
    }
  }
}
layer {
  name: "inception_4d/relu_1x1"
  type: "ReLU"
  bottom: "inception_4d/1x1"
  top: "inception_4d/1x1"
}
layer {
  name: "inception_4d/3x3_reduce"
  type: "Convolution"
  bottom: "inception_4c/output"
  top: "inception_4d/3x3_reduce"
  param {
    lr_mult: 1
    decay_mult: 1
  }
  param {
    lr_mult: 2
    decay_mult: 0
  }
  convolution_param {
    num_output: 144
    kernel_size: 1
    weight_filler {
      type: "xavier"
    }
    bias_filler {
      type: "constant"
      value: 0.2
    }
  }
}
layer {
  name: "inception_4d/relu_3x3_reduce"
  type: "ReLU"
  bottom: "inception_4d/3x3_reduce"
  top: "inception_4d/3x3_reduce"
}
layer {
  name: "inception_4d/3x3"
  type: "Convolution"
  bottom: "inception_4d/3x3_reduce"
  top: "inception_4d/3x3"
  param {
    lr_mult: 1
    decay_mult: 1
  }
  param {
    lr_mult: 2
    decay_mult: 0
  }
  convolution_param {
    num_output: 288
    pad: 1
    kernel_size: 3
    weight_filler {
      type: "xavier"
    }
    bias_filler {
      type: "constant"
      value: 0.2
    }
  }
}
layer {
  name: "inception_4d/relu_3x3"
  type: "ReLU"
  bottom: "inception_4d/3x3"
  top: "inception_4d/3x3"
}
layer {
  name: "inception_4d/5x5_reduce"
  type: "Convolution"
  bottom: "inception_4c/output"
  top: "inception_4d/5x5_reduce"
  param {
    lr_mult: 1
    decay_mult: 1
  }
  param {
    lr_mult: 2
    decay_mult: 0
  }
  convolution_param {
    num_output: 32
    kernel_size: 1
    weight_filler {
      type: "xavier"
    }
    bias_filler {
      type: "constant"
      value: 0.2
    }
  }
}
layer {
  name: "inception_4d/relu_5x5_reduce"
  type: "ReLU"
  bottom: "inception_4d/5x5_reduce"
  top: "inception_4d/5x5_reduce"
}
layer {
  name: "inception_4d/5x5"
  type: "Convolution"
  bottom: "inception_4d/5x5_reduce"
  top: "inception_4d/5x5"
  param {
    lr_mult: 1
    decay_mult: 1
  }
  param {
    lr_mult: 2
    decay_mult: 0
  }
  convolution_param {
    num_output: 64
    pad: 2
    kernel_size: 5
    weight_filler {
      type: "xavier"
    }
    bias_filler {
      type: "constant"
      value: 0.2
    }
  }
}
layer {
  name: "inception_4d/relu_5x5"
  type: "ReLU"
  bottom: "inception_4d/5x5"
  top: "inception_4d/5x5"
}
layer {
  name: "inception_4d/pool"
  type: "Pooling"
  bottom: "inception_4c/output"
  top: "inception_4d/pool"
  pooling_param {
    pool: MAX
    kernel_size: 3
    stride: 1
    pad: 1
  }
}
layer {
  name: "inception_4d/pool_proj"
  type: "Convolution"
  bottom: "inception_4d/pool"
  top: "inception_4d/pool_proj"
  param {
    lr_mult: 1
    decay_mult: 1
  }
  param {
    lr_mult: 2
    decay_mult: 0
  }
  convolution_param {
    num_output: 64
    kernel_size: 1
    weight_filler {
      type: "xavier"
    }
    bias_filler {
      type: "constant"
      value: 0.2
    }
  }
}
layer {
  name: "inception_4d/relu_pool_proj"
  type: "ReLU"
  bottom: "inception_4d/pool_proj"
  top: "inception_4d/pool_proj"
}
layer {
  name: "inception_4d/output"
  type: "Concat"
  bottom: "inception_4d/1x1"
  bottom: "inception_4d/3x3"
  bottom: "inception_4d/5x5"
  bottom: "inception_4d/pool_proj"
  top: "inception_4d/output"
}
layer {
  name: "loss2/ave_pool"
  type: "Pooling"
  bottom: "inception_4d/output"
  top: "loss2/ave_pool"
  pooling_param {
    pool: AVE
    kernel_size: 5
    stride: 3
  }
}
layer {
  name: "loss2/conv"
  type: "Convolution"
  bottom: "loss2/ave_pool"
  top: "loss2/conv"
  param {
    lr_mult: 1
    decay_mult: 1
  }
  param {
    lr_mult: 2
    decay_mult: 0
  }
  convolution_param {
    num_output: 128
    kernel_size: 1
    weight_filler {
      type: "xavier"
    }
    bias_filler {
      type: "constant"
      value: 0.2
    }
  }
}
layer {
  name: "loss2/relu_conv"
  type: "ReLU"
  bottom: "loss2/conv"
  top: "loss2/conv"
}
layer {
  name: "loss2/fc"
  type: "InnerProduct"
  bottom: "loss2/conv"
  top: "loss2/fc"
  param {
    lr_mult: 1
    decay_mult: 1
  }
  param {
    lr_mult: 2
    decay_mult: 0
  }
  inner_product_param {
    num_output: 1024
    weight_filler {
      type: "xavier"
    }
    bias_filler {
      type: "constant"
      value: 0.2
    }
  }
}
layer {
  name: "loss2/relu_fc"
  type: "ReLU"
  bottom: "loss2/fc"
  top: "loss2/fc"
}
layer {
  name: "loss2/drop_fc"
  type: "Dropout"
  bottom: "loss2/fc"
  top: "loss2/fc"
  dropout_param {
    dropout_ratio: 0.7
  }
}
layer {
  name: "loss2/classifier"
  type: "InnerProduct"
  bottom: "loss2/fc"
  top: "loss2/classifier"
  param {
    lr_mult: 1
    decay_mult: 1
  }
  param {
    lr_mult: 2
    decay_mult: 0
  }
  inner_product_param {
    num_output: 1000
    weight_filler {
      type: "xavier"
    }
    bias_filler {
      type: "constant"
      value: 0
    }
  }
}
layer {
  name: "loss2/loss"
  type: "SoftmaxWithLoss"
  bottom: "loss2/classifier"
  bottom: "label"
  top: "loss2/loss1"
  loss_weight: 0.3
}
layer {
  name: "inception_4e/1x1"
  type: "Convolution"
  bottom: "inception_4d/output"
  top: "inception_4e/1x1"
  param {
    lr_mult: 1
    decay_mult: 1
  }
  param {
    lr_mult: 2
    decay_mult: 0
  }
  convolution_param {
    num_output: 256
    kernel_size: 1
    weight_filler {
      type: "xavier"
    }
    bias_filler {
      type: "constant"
      value: 0.2
    }
  }
}
layer {
  name: "inception_4e/relu_1x1"
  type: "ReLU"
  bottom: "inception_4e/1x1"
  top: "inception_4e/1x1"
}
layer {
  name: "inception_4e/3x3_reduce"
  type: "Convolution"
  bottom: "inception_4d/output"
  top: "inception_4e/3x3_reduce"
  param {
    lr_mult: 1
    decay_mult: 1
  }
  param {
    lr_mult: 2
    decay_mult: 0
  }
  convolution_param {
    num_output: 160
    kernel_size: 1
    weight_filler {
      type: "xavier"
    }
    bias_filler {
      type: "constant"
      value: 0.2
    }
  }
}
layer {
  name: "inception_4e/relu_3x3_reduce"
  type: "ReLU"
  bottom: "inception_4e/3x3_reduce"
  top: "inception_4e/3x3_reduce"
}
layer {
  name: "inception_4e/3x3"
  type: "Convolution"
  bottom: "inception_4e/3x3_reduce"
  top: "inception_4e/3x3"
  param {
    lr_mult: 1
    decay_mult: 1
  }
  param {
    lr_mult: 2
    decay_mult: 0
  }
  convolution_param {
    num_output: 320
    pad: 1
    kernel_size: 3
    weight_filler {
      type: "xavier"
    }
    bias_filler {
      type: "constant"
      value: 0.2
    }
  }
}
layer {
  name: "inception_4e/relu_3x3"
  type: "ReLU"
  bottom: "inception_4e/3x3"
  top: "inception_4e/3x3"
}
layer {
  name: "inception_4e/5x5_reduce"
  type: "Convolution"
  bottom: "inception_4d/output"
  top: "inception_4e/5x5_reduce"
  param {
    lr_mult: 1
    decay_mult: 1
  }
  param {
    lr_mult: 2
    decay_mult: 0
  }
  convolution_param {
    num_output: 32
    kernel_size: 1
    weight_filler {
      type: "xavier"
    }
    bias_filler {
      type: "constant"
      value: 0.2
    }
  }
}
layer {
  name: "inception_4e/relu_5x5_reduce"
  type: "ReLU"
  bottom: "inception_4e/5x5_reduce"
  top: "inception_4e/5x5_reduce"
}
layer {
  name: "inception_4e/5x5"
  type: "Convolution"
  bottom: "inception_4e/5x5_reduce"
  top: "inception_4e/5x5"
  param {
    lr_mult: 1
    decay_mult: 1
  }
  param {
    lr_mult: 2
    decay_mult: 0
  }
  convolution_param {
    num_output: 128
    pad: 2
    kernel_size: 5
    weight_filler {
      type: "xavier"
    }
    bias_filler {
      type: "constant"
      value: 0.2
    }
  }
}
layer {
  name: "inception_4e/relu_5x5"
  type: "ReLU"
  bottom: "inception_4e/5x5"
  top: "inception_4e/5x5"
}
layer {
  name: "inception_4e/pool"
  type: "Pooling"
  bottom: "inception_4d/output"
  top: "inception_4e/pool"
  po
I0202 13:47:03.309272 99956 layer_factory.hpp:77] Creating layer data
I0202 13:47:03.310132 99956 net.cpp:100] Creating Layer data
I0202 13:47:03.310158 99956 net.cpp:408] data -> data
I0202 13:47:03.310187 99956 net.cpp:408] data -> label
I0202 13:47:03.310350 99957 db_lmdb.cpp:35] Opened lmdb /home/user/LIBRARIES/caffeLibs/caffe/examples/imagenet/ilsvrc12_train_lmdb
I0202 13:47:03.311501 99956 data_layer.cpp:41] output data size: 112,3,224,224
I0202 13:47:03.386020 99956 net.cpp:150] Setting up data
I0202 13:47:03.386132 99956 net.cpp:157] Top shape: 112 3 224 224 (16859136)
I0202 13:47:03.386142 99956 net.cpp:157] Top shape: 112 (112)
I0202 13:47:03.386147 99956 net.cpp:165] Memory required for data: 67436992
I0202 13:47:03.386162 99956 layer_factory.hpp:77] Creating layer label_data_1_split
I0202 13:47:03.386183 99956 net.cpp:100] Creating Layer label_data_1_split
I0202 13:47:03.386194 99956 net.cpp:434] label_data_1_split <- label
I0202 13:47:03.386219 99956 net.cpp:408] label_data_1_split -> label_data_1_split_0
I0202 13:47:03.386232 99956 net.cpp:408] label_data_1_split -> label_data_1_split_1
I0202 13:47:03.386245 99956 net.cpp:408] label_data_1_split -> label_data_1_split_2
I0202 13:47:03.386277 99956 net.cpp:150] Setting up label_data_1_split
I0202 13:47:03.386301 99956 net.cpp:157] Top shape: 112 (112)
I0202 13:47:03.386304 99956 net.cpp:157] Top shape: 112 (112)
I0202 13:47:03.386309 99956 net.cpp:157] Top shape: 112 (112)
I0202 13:47:03.386312 99956 net.cpp:165] Memory required for data: 67438336
I0202 13:47:03.386317 99956 layer_factory.hpp:77] Creating layer conv1/7x7_s2
I0202 13:47:03.386344 99956 net.cpp:100] Creating Layer conv1/7x7_s2
I0202 13:47:03.386349 99956 net.cpp:434] conv1/7x7_s2 <- data
I0202 13:47:03.386358 99956 net.cpp:408] conv1/7x7_s2 -> conv1/7x7_s2
I0202 13:47:03.386608 99956 net.cpp:150] Setting up conv1/7x7_s2
I0202 13:47:03.386618 99956 net.cpp:157] Top shape: 112 64 112 112 (89915392)
I0202 13:47:03.386621 99956 net.cpp:165] Memory required for data: 427099904
I0202 13:47:03.386651 99956 layer_factory.hpp:77] Creating layer conv1/relu_7x7
I0202 13:47:03.386662 99956 net.cpp:100] Creating Layer conv1/relu_7x7
I0202 13:47:03.386665 99956 net.cpp:434] conv1/relu_7x7 <- conv1/7x7_s2
I0202 13:47:03.386674 99956 net.cpp:395] conv1/relu_7x7 -> conv1/7x7_s2 (in-place)
I0202 13:47:03.386683 99956 net.cpp:150] Setting up conv1/relu_7x7
I0202 13:47:03.386689 99956 net.cpp:157] Top shape: 112 64 112 112 (89915392)
I0202 13:47:03.386693 99956 net.cpp:165] Memory required for data: 786761472
I0202 13:47:03.386696 99956 layer_factory.hpp:77] Creating layer pool1/3x3_s2
I0202 13:47:03.386705 99956 net.cpp:100] Creating Layer pool1/3x3_s2
I0202 13:47:03.386709 99956 net.cpp:434] pool1/3x3_s2 <- conv1/7x7_s2
I0202 13:47:03.386714 99956 net.cpp:408] pool1/3x3_s2 -> pool1/3x3_s2
I0202 13:47:03.386741 99956 net.cpp:150] Setting up pool1/3x3_s2
I0202 13:47:03.386747 99956 net.cpp:157] Top shape: 112 64 56 56 (22478848)
I0202 13:47:03.386751 99956 net.cpp:165] Memory required for data: 876676864
I0202 13:47:03.386755 99956 layer_factory.hpp:77] Creating layer pool1/norm1
I0202 13:47:03.386765 99956 net.cpp:100] Creating Layer pool1/norm1
I0202 13:47:03.386770 99956 net.cpp:434] pool1/norm1 <- pool1/3x3_s2
I0202 13:47:03.386777 99956 net.cpp:408] pool1/norm1 -> pool1/norm1
I0202 13:47:03.386791 99956 net.cpp:150] Setting up pool1/norm1
I0202 13:47:03.386796 99956 net.cpp:157] Top shape: 112 64 56 56 (22478848)
I0202 13:47:03.386801 99956 net.cpp:165] Memory required for data: 966592256
I0202 13:47:03.386804 99956 layer_factory.hpp:77] Creating layer conv2/3x3_reduce
I0202 13:47:03.386816 99956 net.cpp:100] Creating Layer conv2/3x3_reduce
I0202 13:47:03.386821 99956 net.cpp:434] conv2/3x3_reduce <- pool1/norm1
I0202 13:47:03.386831 99956 net.cpp:408] conv2/3x3_reduce -> conv2/3x3_reduce
I0202 13:47:03.386893 99956 net.cpp:150] Setting up conv2/3x3_reduce
I0202 13:47:03.386900 99956 net.cpp:157] Top shape: 112 64 56 56 (22478848)
I0202 13:47:03.386904 99956 net.cpp:165] Memory required for data: 1056507648
I0202 13:47:03.386912 99956 layer_factory.hpp:77] Creating layer conv2/relu_3x3_reduce
I0202 13:47:03.386919 99956 net.cpp:100] Creating Layer conv2/relu_3x3_reduce
I0202 13:47:03.386922 99956 net.cpp:434] conv2/relu_3x3_reduce <- conv2/3x3_reduce
I0202 13:47:03.386929 99956 net.cpp:395] conv2/relu_3x3_reduce -> conv2/3x3_reduce (in-place)
I0202 13:47:03.386934 99956 net.cpp:150] Setting up conv2/relu_3x3_reduce
I0202 13:47:03.386940 99956 net.cpp:157] Top shape: 112 64 56 56 (22478848)
I0202 13:47:03.386943 99956 net.cpp:165] Memory required for data: 1146423040
I0202 13:47:03.386946 99956 layer_factory.hpp:77] Creating layer conv2/3x3
I0202 13:47:03.386960 99956 net.cpp:100] Creating Layer conv2/3x3
I0202 13:47:03.386965 99956 net.cpp:434] conv2/3x3 <- conv2/3x3_reduce
I0202 13:47:03.386971 99956 net.cpp:408] conv2/3x3 -> conv2/3x3
I0202 13:47:03.388021 99956 net.cpp:150] Setting up conv2/3x3
I0202 13:47:03.388032 99956 net.cpp:157] Top shape: 112 192 56 56 (67436544)
I0202 13:47:03.388036 99956 net.cpp:165] Memory required for data: 1416169216
I0202 13:47:03.388046 99956 layer_factory.hpp:77] Creating layer conv2/relu_3x3
I0202 13:47:03.388054 99956 net.cpp:100] Creating Layer conv2/relu_3x3
I0202 13:47:03.388064 99956 net.cpp:434] conv2/relu_3x3 <- conv2/3x3
I0202 13:47:03.388078 99956 net.cpp:395] conv2/relu_3x3 -> conv2/3x3 (in-place)
I0202 13:47:03.388085 99956 net.cpp:150] Setting up conv2/relu_3x3
I0202 13:47:03.388092 99956 net.cpp:157] Top shape: 112 192 56 56 (67436544)
I0202 13:47:03.388094 99956 net.cpp:165] Memory required for data: 1685915392
I0202 13:47:03.388098 99956 layer_factory.hpp:77] Creating layer conv2/norm2
I0202 13:47:03.388108 99956 net.cpp:100] Creating Layer conv2/norm2
I0202 13:47:03.388111 99956 net.cpp:434] conv2/norm2 <- conv2/3x3
I0202 13:47:03.388118 99956 net.cpp:408] conv2/norm2 -> conv2/norm2
I0202 13:47:03.388125 99956 net.cpp:150] Setting up conv2/norm2
I0202 13:47:03.388130 99956 net.cpp:157] Top shape: 112 192 56 56 (67436544)
I0202 13:47:03.388134 99956 net.cpp:165] Memory required for data: 1955661568
I0202 13:47:03.388137 99956 layer_factory.hpp:77] Creating layer pool2/3x3_s2
I0202 13:47:03.388147 99956 net.cpp:100] Creating Layer pool2/3x3_s2
I0202 13:47:03.388151 99956 net.cpp:434] pool2/3x3_s2 <- conv2/norm2
I0202 13:47:03.388156 99956 net.cpp:408] pool2/3x3_s2 -> pool2/3x3_s2
I0202 13:47:03.388164 99956 net.cpp:150] Setting up pool2/3x3_s2
I0202 13:47:03.388170 99956 net.cpp:157] Top shape: 112 192 28 28 (16859136)
I0202 13:47:03.388173 99956 net.cpp:165] Memory required for data: 2023098112
I0202 13:47:03.388177 99956 layer_factory.hpp:77] Creating layer pool2/3x3_s2_pool2/3x3_s2_0_split
I0202 13:47:03.388185 99956 net.cpp:100] Creating Layer pool2/3x3_s2_pool2/3x3_s2_0_split
I0202 13:47:03.388187 99956 net.cpp:434] pool2/3x3_s2_pool2/3x3_s2_0_split <- pool2/3x3_s2
I0202 13:47:03.388193 99956 net.cpp:408] pool2/3x3_s2_pool2/3x3_s2_0_split -> pool2/3x3_s2_pool2/3x3_s2_0_split_0
I0202 13:47:03.388202 99956 net.cpp:408] pool2/3x3_s2_pool2/3x3_s2_0_split -> pool2/3x3_s2_pool2/3x3_s2_0_split_1
I0202 13:47:03.388209 99956 net.cpp:408] pool2/3x3_s2_pool2/3x3_s2_0_split -> pool2/3x3_s2_pool2/3x3_s2_0_split_2
I0202 13:47:03.388216 99956 net.cpp:408] pool2/3x3_s2_pool2/3x3_s2_0_split -> pool2/3x3_s2_pool2/3x3_s2_0_split_3
I0202 13:47:03.388222 99956 net.cpp:150] Setting up pool2/3x3_s2_pool2/3x3_s2_0_split
I0202 13:47:03.388227 99956 net.cpp:157] Top shape: 112 192 28 28 (16859136)
I0202 13:47:03.388232 99956 net.cpp:157] Top shape: 112 192 28 28 (16859136)
I0202 13:47:03.388237 99956 net.cpp:157] Top shape: 112 192 28 28 (16859136)
I0202 13:47:03.388242 99956 net.cpp:157] Top shape: 112 192 28 28 (16859136)
I0202 13:47:03.388245 99956 net.cpp:165] Memory required for data: 2292844288
I0202 13:47:03.388249 99956 layer_factory.hpp:77] Creating layer inception_3a/1x1
I0202 13:47:03.388258 99956 net.cpp:100] Creating Layer inception_3a/1x1
I0202 13:47:03.388262 99956 net.cpp:434] inception_3a/1x1 <- pool2/3x3_s2_pool2/3x3_s2_0_split_0
I0202 13:47:03.388272 99956 net.cpp:408] inception_3a/1x1 -> inception_3a/1x1
I0202 13:47:03.388406 99956 net.cpp:150] Setting up inception_3a/1x1
I0202 13:47:03.388414 99956 net.cpp:157] Top shape: 112 64 28 28 (5619712)
I0202 13:47:03.388417 99956 net.cpp:165] Memory required for data: 2315323136
I0202 13:47:03.388425 99956 layer_factory.hpp:77] Creating layer inception_3a/relu_1x1
I0202 13:47:03.388433 99956 net.cpp:100] Creating Layer inception_3a/relu_1x1
I0202 13:47:03.388437 99956 net.cpp:434] inception_3a/relu_1x1 <- inception_3a/1x1
I0202 13:47:03.388443 99956 net.cpp:395] inception_3a/relu_1x1 -> inception_3a/1x1 (in-place)
I0202 13:47:03.388449 99956 net.cpp:150] Setting up inception_3a/relu_1x1
I0202 13:47:03.388454 99956 net.cpp:157] Top shape: 112 64 28 28 (5619712)
I0202 13:47:03.388458 99956 net.cpp:165] Memory required for data: 2337801984
I0202 13:47:03.388461 99956 layer_factory.hpp:77] Creating layer inception_3a/3x3_reduce
I0202 13:47:03.388474 99956 net.cpp:100] Creating Layer inception_3a/3x3_reduce
I0202 13:47:03.388478 99956 net.cpp:434] inception_3a/3x3_reduce <- pool2/3x3_s2_pool2/3x3_s2_0_split_1
I0202 13:47:03.388486 99956 net.cpp:408] inception_3a/3x3_reduce -> inception_3a/3x3_reduce
I0202 13:47:03.388679 99956 net.cpp:150] Setting up inception_3a/3x3_reduce
I0202 13:47:03.388696 99956 net.cpp:157] Top shape: 112 96 28 28 (8429568)
I0202 13:47:03.388700 99956 net.cpp:165] Memory required for data: 2371520256
I0202 13:47:03.388710 99956 layer_factory.hpp:77] Creating layer inception_3a/relu_3x3_reduce
I0202 13:47:03.388720 99956 net.cpp:100] Creating Layer inception_3a/relu_3x3_reduce
I0202 13:47:03.388725 99956 net.cpp:434] inception_3a/relu_3x3_reduce <- inception_3a/3x3_reduce
I0202 13:47:03.388733 99956 net.cpp:395] inception_3a/relu_3x3_reduce -> inception_3a/3x3_reduce (in-place)
I0202 13:47:03.388739 99956 net.cpp:150] Setting up inception_3a/relu_3x3_reduce
I0202 13:47:03.388744 99956 net.cpp:157] Top shape: 112 96 28 28 (8429568)
I0202 13:47:03.388748 99956 net.cpp:165] Memory required for data: 2405238528
I0202 13:47:03.388751 99956 layer_factory.hpp:77] Creating layer inception_3a/3x3
I0202 13:47:03.388761 99956 net.cpp:100] Creating Layer inception_3a/3x3
I0202 13:47:03.388764 99956 net.cpp:434] inception_3a/3x3 <- inception_3a/3x3_reduce
I0202 13:47:03.388777 99956 net.cpp:408] inception_3a/3x3 -> inception_3a/3x3
I0202 13:47:03.389816 99956 net.cpp:150] Setting up inception_3a/3x3
I0202 13:47:03.389828 99956 net.cpp:157] Top shape: 112 128 28 28 (11239424)
I0202 13:47:03.389832 99956 net.cpp:165] Memory required for data: 2450196224
I0202 13:47:03.389838 99956 layer_factory.hpp:77] Creating layer inception_3a/relu_3x3
I0202 13:47:03.389845 99956 net.cpp:100] Creating Layer inception_3a/relu_3x3
I0202 13:47:03.389849 99956 net.cpp:434] inception_3a/relu_3x3 <- inception_3a/3x3
I0202 13:47:03.389858 99956 net.cpp:395] inception_3a/relu_3x3 -> inception_3a/3x3 (in-place)
I0202 13:47:03.389865 99956 net.cpp:150] Setting up inception_3a/relu_3x3
I0202 13:47:03.389870 99956 net.cpp:157] Top shape: 112 128 28 28 (11239424)
I0202 13:47:03.389874 99956 net.cpp:165] Memory required for data: 2495153920
I0202 13:47:03.389878 99956 layer_factory.hpp:77] Creating layer inception_3a/5x5_reduce
I0202 13:47:03.389889 99956 net.cpp:100] Creating Layer inception_3a/5x5_reduce
I0202 13:47:03.389892 99956 net.cpp:434] inception_3a/5x5_reduce <- pool2/3x3_s2_pool2/3x3_s2_0_split_2
I0202 13:47:03.389899 99956 net.cpp:408] inception_3a/5x5_reduce -> inception_3a/5x5_reduce
I0202 13:47:03.389971 99956 net.cpp:150] Setting up inception_3a/5x5_reduce
I0202 13:47:03.389979 99956 net.cpp:157] Top shape: 112 16 28 28 (1404928)
I0202 13:47:03.389983 99956 net.cpp:165] Memory required for data: 2500773632
I0202 13:47:03.389989 99956 layer_factory.hpp:77] Creating layer inception_3a/relu_5x5_reduce
I0202 13:47:03.389996 99956 net.cpp:100] Creating Layer inception_3a/relu_5x5_reduce
I0202 13:47:03.390000 99956 net.cpp:434] inception_3a/relu_5x5_reduce <- inception_3a/5x5_reduce
I0202 13:47:03.390005 99956 net.cpp:395] inception_3a/relu_5x5_reduce -> inception_3a/5x5_reduce (in-place)
I0202 13:47:03.390012 99956 net.cpp:150] Setting up inception_3a/relu_5x5_reduce
I0202 13:47:03.390017 99956 net.cpp:157] Top shape: 112 16 28 28 (1404928)
I0202 13:47:03.390020 99956 net.cpp:165] Memory required for data: 2506393344
I0202 13:47:03.390024 99956 layer_factory.hpp:77] Creating layer inception_3a/5x5
I0202 13:47:03.390035 99956 net.cpp:100] Creating Layer inception_3a/5x5
I0202 13:47:03.390038 99956 net.cpp:434] inception_3a/5x5 <- inception_3a/5x5_reduce
I0202 13:47:03.390044 99956 net.cpp:408] inception_3a/5x5 -> inception_3a/5x5
I0202 13:47:03.390179 99956 net.cpp:150] Setting up inception_3a/5x5
I0202 13:47:03.390187 99956 net.cpp:157] Top shape: 112 32 28 28 (2809856)
I0202 13:47:03.390189 99956 net.cpp:165] Memory required for data: 2517632768
I0202 13:47:03.390195 99956 layer_factory.hpp:77] Creating layer inception_3a/relu_5x5
I0202 13:47:03.390202 99956 net.cpp:100] Creating Layer inception_3a/relu_5x5
I0202 13:47:03.390205 99956 net.cpp:434] inception_3a/relu_5x5 <- inception_3a/5x5
I0202 13:47:03.390213 99956 net.cpp:395] inception_3a/relu_5x5 -> inception_3a/5x5 (in-place)
I0202 13:47:03.390219 99956 net.cpp:150] Setting up inception_3a/relu_5x5
I0202 13:47:03.390229 99956 net.cpp:157] Top shape: 112 32 28 28 (2809856)
I0202 13:47:03.390241 99956 net.cpp:165] Memory required for data: 2528872192
I0202 13:47:03.390245 99956 layer_factory.hpp:77] Creating layer inception_3a/pool
I0202 13:47:03.390254 99956 net.cpp:100] Creating Layer inception_3a/pool
I0202 13:47:03.390259 99956 net.cpp:434] inception_3a/pool <- pool2/3x3_s2_pool2/3x3_s2_0_split_3
I0202 13:47:03.390264 99956 net.cpp:408] inception_3a/pool -> inception_3a/pool
I0202 13:47:03.390275 99956 net.cpp:150] Setting up inception_3a/pool
I0202 13:47:03.390280 99956 net.cpp:157] Top shape: 112 192 28 28 (16859136)
I0202 13:47:03.390283 99956 net.cpp:165] Memory required for data: 2596308736
I0202 13:47:03.390287 99956 layer_factory.hpp:77] Creating layer inception_3a/pool_proj
I0202 13:47:03.390298 99956 net.cpp:100] Creating Layer inception_3a/pool_proj
I0202 13:47:03.390302 99956 net.cpp:434] inception_3a/pool_proj <- inception_3a/pool
I0202 13:47:03.390311 99956 net.cpp:408] inception_3a/pool_proj -> inception_3a/pool_proj
I0202 13:47:03.390383 99956 net.cpp:150] Setting up inception_3a/pool_proj
I0202 13:47:03.390389 99956 net.cpp:157] Top shape: 112 32 28 28 (2809856)
I0202 13:47:03.390393 99956 net.cpp:165] Memory required for data: 2607548160
I0202 13:47:03.390405 99956 layer_factory.hpp:77] Creating layer inception_3a/relu_pool_proj
I0202 13:47:03.390411 99956 net.cpp:100] Creating Layer inception_3a/relu_pool_proj
I0202 13:47:03.390415 99956 net.cpp:434] inception_3a/relu_pool_proj <- inception_3a/pool_proj
I0202 13:47:03.390421 99956 net.cpp:395] inception_3a/relu_pool_proj -> inception_3a/pool_proj (in-place)
I0202 13:47:03.390427 99956 net.cpp:150] Setting up inception_3a/relu_pool_proj
I0202 13:47:03.390432 99956 net.cpp:157] Top shape: 112 32 28 28 (2809856)
I0202 13:47:03.390435 99956 net.cpp:165] Memory required for data: 2618787584
I0202 13:47:03.390439 99956 layer_factory.hpp:77] Creating layer inception_3a/output
I0202 13:47:03.390450 99956 net.cpp:100] Creating Layer inception_3a/output
I0202 13:47:03.390453 99956 net.cpp:434] inception_3a/output <- inception_3a/1x1
I0202 13:47:03.390458 99956 net.cpp:434] inception_3a/output <- inception_3a/3x3
I0202 13:47:03.390463 99956 net.cpp:434] inception_3a/output <- inception_3a/5x5
I0202 13:47:03.390467 99956 net.cpp:434] inception_3a/output <- inception_3a/pool_proj
I0202 13:47:03.390476 99956 net.cpp:408] inception_3a/output -> inception_3a/output
I0202 13:47:03.390489 99956 net.cpp:150] Setting up inception_3a/output
I0202 13:47:03.390496 99956 net.cpp:157] Top shape: 112 256 28 28 (22478848)
I0202 13:47:03.390498 99956 net.cpp:165] Memory required for data: 2708702976
I0202 13:47:03.390502 99956 layer_factory.hpp:77] Creating layer inception_3a/output_inception_3a/output_0_split
I0202 13:47:03.390509 99956 net.cpp:100] Creating Layer inception_3a/output_inception_3a/output_0_split
I0202 13:47:03.390513 99956 net.cpp:434] inception_3a/output_inception_3a/output_0_split <- inception_3a/output
I0202 13:47:03.390522 99956 net.cpp:408] inception_3a/output_inception_3a/output_0_split -> inception_3a/output_inception_3a/output_0_split_0
I0202 13:47:03.390529 99956 net.cpp:408] inception_3a/output_inception_3a/output_0_split -> inception_3a/output_inception_3a/output_0_split_1
I0202 13:47:03.390535 99956 net.cpp:408] inception_3a/output_inception_3a/output_0_split -> inception_3a/output_inception_3a/output_0_split_2
I0202 13:47:03.390542 99956 net.cpp:408] inception_3a/output_inception_3a/output_0_split -> inception_3a/output_inception_3a/output_0_split_3
I0202 13:47:03.390549 99956 net.cpp:150] Setting up inception_3a/output_inception_3a/output_0_split
I0202 13:47:03.390554 99956 net.cpp:157] Top shape: 112 256 28 28 (22478848)
I0202 13:47:03.390559 99956 net.cpp:157] Top shape: 112 256 28 28 (22478848)
I0202 13:47:03.390563 99956 net.cpp:157] Top shape: 112 256 28 28 (22478848)
I0202 13:47:03.390568 99956 net.cpp:157] Top shape: 112 256 28 28 (22478848)
I0202 13:47:03.390571 99956 net.cpp:165] Memory required for data: 3068364544
I0202 13:47:03.390581 99956 layer_factory.hpp:77] Creating layer inception_3b/1x1
I0202 13:47:03.390599 99956 net.cpp:100] Creating Layer inception_3b/1x1
I0202 13:47:03.390604 99956 net.cpp:434] inception_3b/1x1 <- inception_3a/output_inception_3a/output_0_split_0
I0202 13:47:03.390610 99956 net.cpp:408] inception_3b/1x1 -> inception_3b/1x1
I0202 13:47:03.390931 99956 net.cpp:150] Setting up inception_3b/1x1
I0202 13:47:03.390943 99956 net.cpp:157] Top shape: 112 128 28 28 (11239424)
I0202 13:47:03.390945 99956 net.cpp:165] Memory required for data: 3113322240
I0202 13:47:03.390952 99956 layer_factory.hpp:77] Creating layer inception_3b/relu_1x1
I0202 13:47:03.390961 99956 net.cpp:100] Creating Layer inception_3b/relu_1x1
I0202 13:47:03.390965 99956 net.cpp:434] inception_3b/relu_1x1 <- inception_3b/1x1
I0202 13:47:03.390971 99956 net.cpp:395] inception_3b/relu_1x1 -> inception_3b/1x1 (in-place)
I0202 13:47:03.390979 99956 net.cpp:150] Setting up inception_3b/relu_1x1
I0202 13:47:03.390983 99956 net.cpp:157] Top shape: 112 128 28 28 (11239424)
I0202 13:47:03.390986 99956 net.cpp:165] Memory required for data: 3158279936
I0202 13:47:03.390990 99956 layer_factory.hpp:77] Creating layer inception_3b/3x3_reduce
I0202 13:47:03.391001 99956 net.cpp:100] Creating Layer inception_3b/3x3_reduce
I0202 13:47:03.391005 99956 net.cpp:434] inception_3b/3x3_reduce <- inception_3a/output_inception_3a/output_0_split_1
I0202 13:47:03.391014 99956 net.cpp:408] inception_3b/3x3_reduce -> inception_3b/3x3_reduce
I0202 13:47:03.391353 99956 net.cpp:150] Setting up inception_3b/3x3_reduce
I0202 13:47:03.391361 99956 net.cpp:157] Top shape: 112 128 28 28 (11239424)
I0202 13:47:03.391366 99956 net.cpp:165] Memory required for data: 3203237632
I0202 13:47:03.391372 99956 layer_factory.hpp:77] Creating layer inception_3b/relu_3x3_reduce
I0202 13:47:03.391378 99956 net.cpp:100] Creating Layer inception_3b/relu_3x3_reduce
I0202 13:47:03.391386 99956 net.cpp:434] inception_3b/relu_3x3_reduce <- inception_3b/3x3_reduce
I0202 13:47:03.391391 99956 net.cpp:395] inception_3b/relu_3x3_reduce -> inception_3b/3x3_reduce (in-place)
I0202 13:47:03.391397 99956 net.cpp:150] Setting up inception_3b/relu_3x3_reduce
I0202 13:47:03.391402 99956 net.cpp:157] Top shape: 112 128 28 28 (11239424)
I0202 13:47:03.391405 99956 net.cpp:165] Memory required for data: 3248195328
I0202 13:47:03.391409 99956 layer_factory.hpp:77] Creating layer inception_3b/3x3
I0202 13:47:03.391422 99956 net.cpp:100] Creating Layer inception_3b/3x3
I0202 13:47:03.391427 99956 net.cpp:434] inception_3b/3x3 <- inception_3b/3x3_reduce
I0202 13:47:03.391439 99956 net.cpp:408] inception_3b/3x3 -> inception_3b/3x3
I0202 13:47:03.393477 99956 net.cpp:150] Setting up inception_3b/3x3
I0202 13:47:03.393489 99956 net.cpp:157] Top shape: 112 192 28 28 (16859136)
I0202 13:47:03.393493 99956 net.cpp:165] Memory required for data: 3315631872
I0202 13:47:03.393501 99956 layer_factory.hpp:77] Creating layer inception_3b/relu_3x3
I0202 13:47:03.393508 99956 net.cpp:100] Creating Layer inception_3b/relu_3x3
I0202 13:47:03.393513 99956 net.cpp:434] inception_3b/relu_3x3 <- inception_3b/3x3
I0202 13:47:03.393518 99956 net.cpp:395] inception_3b/relu_3x3 -> inception_3b/3x3 (in-place)
I0202 13:47:03.393525 99956 net.cpp:150] Setting up inception_3b/relu_3x3
I0202 13:47:03.393530 99956 net.cpp:157] Top shape: 112 192 28 28 (16859136)
I0202 13:47:03.393533 99956 net.cpp:165] Memory required for data: 3383068416
I0202 13:47:03.393537 99956 layer_factory.hpp:77] Creating layer inception_3b/5x5_reduce
I0202 13:47:03.393550 99956 net.cpp:100] Creating Layer inception_3b/5x5_reduce
I0202 13:47:03.393554 99956 net.cpp:434] inception_3b/5x5_reduce <- inception_3a/output_inception_3a/output_0_split_2
I0202 13:47:03.393563 99956 net.cpp:408] inception_3b/5x5_reduce -> inception_3b/5x5_reduce
I0202 13:47:03.393657 99956 net.cpp:150] Setting up inception_3b/5x5_reduce
I0202 13:47:03.393666 99956 net.cpp:157] Top shape: 112 32 28 28 (2809856)
I0202 13:47:03.393668 99956 net.cpp:165] Memory required for data: 3394307840
I0202 13:47:03.393679 99956 layer_factory.hpp:77] Creating layer inception_3b/relu_5x5_reduce
I0202 13:47:03.393692 99956 net.cpp:100] Creating Layer inception_3b/relu_5x5_reduce
I0202 13:47:03.393697 99956 net.cpp:434] inception_3b/relu_5x5_reduce <- inception_3b/5x5_reduce
I0202 13:47:03.393704 99956 net.cpp:395] inception_3b/relu_5x5_reduce -> inception_3b/5x5_reduce (in-place)
I0202 13:47:03.393712 99956 net.cpp:150] Setting up inception_3b/relu_5x5_reduce
I0202 13:47:03.393717 99956 net.cpp:157] Top shape: 112 32 28 28 (2809856)
I0202 13:47:03.393719 99956 net.cpp:165] Memory required for data: 3405547264
I0202 13:47:03.393723 99956 layer_factory.hpp:77] Creating layer inception_3b/5x5
I0202 13:47:03.393731 99956 net.cpp:100] Creating Layer inception_3b/5x5
I0202 13:47:03.393735 99956 net.cpp:434] inception_3b/5x5 <- inception_3b/5x5_reduce
I0202 13:47:03.393744 99956 net.cpp:408] inception_3b/5x5 -> inception_3b/5x5
I0202 13:47:03.394484 99956 net.cpp:150] Setting up inception_3b/5x5
I0202 13:47:03.394493 99956 net.cpp:157] Top shape: 112 96 28 28 (8429568)
I0202 13:47:03.394497 99956 net.cpp:165] Memory required for data: 3439265536
I0202 13:47:03.394505 99956 layer_factory.hpp:77] Creating layer inception_3b/relu_5x5
I0202 13:47:03.394510 99956 net.cpp:100] Creating Layer inception_3b/relu_5x5
I0202 13:47:03.394515 99956 net.cpp:434] inception_3b/relu_5x5 <- inception_3b/5x5
I0202 13:47:03.394522 99956 net.cpp:395] inception_3b/relu_5x5 -> inception_3b/5x5 (in-place)
I0202 13:47:03.394528 99956 net.cpp:150] Setting up inception_3b/relu_5x5
I0202 13:47:03.394533 99956 net.cpp:157] Top shape: 112 96 28 28 (8429568)
I0202 13:47:03.394537 99956 net.cpp:165] Memory required for data: 3472983808
I0202 13:47:03.394541 99956 layer_factory.hpp:77] Creating layer inception_3b/pool
I0202 13:47:03.394547 99956 net.cpp:100] Creating Layer inception_3b/pool
I0202 13:47:03.394552 99956 net.cpp:434] inception_3b/pool <- inception_3a/output_inception_3a/output_0_split_3
I0202 13:47:03.394558 99956 net.cpp:408] inception_3b/pool -> inception_3b/pool
I0202 13:47:03.394567 99956 net.cpp:150] Setting up inception_3b/pool
I0202 13:47:03.394572 99956 net.cpp:157] Top shape: 112 256 28 28 (22478848)
I0202 13:47:03.394575 99956 net.cpp:165] Memory required for data: 3562899200
I0202 13:47:03.394579 99956 layer_factory.hpp:77] Creating layer inception_3b/pool_proj
I0202 13:47:03.394593 99956 net.cpp:100] Creating Layer inception_3b/pool_proj
I0202 13:47:03.394596 99956 net.cpp:434] inception_3b/pool_proj <- inception_3b/pool
I0202 13:47:03.394603 99956 net.cpp:408] inception_3b/pool_proj -> inception_3b/pool_proj
I0202 13:47:03.394788 99956 net.cpp:150] Setting up inception_3b/pool_proj
I0202 13:47:03.394799 99956 net.cpp:157] Top shape: 112 64 28 28 (5619712)
I0202 13:47:03.394804 99956 net.cpp:165] Memory required for data: 3585378048
I0202 13:47:03.394810 99956 layer_factory.hpp:77] Creating layer inception_3b/relu_pool_proj
I0202 13:47:03.394816 99956 net.cpp:100] Creating Layer inception_3b/relu_pool_proj
I0202 13:47:03.394821 99956 net.cpp:434] inception_3b/relu_pool_proj <- inception_3b/pool_proj
I0202 13:47:03.394826 99956 net.cpp:395] inception_3b/relu_pool_proj -> inception_3b/pool_proj (in-place)
I0202 13:47:03.394834 99956 net.cpp:150] Setting up inception_3b/relu_pool_proj
I0202 13:47:03.394839 99956 net.cpp:157] Top shape: 112 64 28 28 (5619712)
I0202 13:47:03.394841 99956 net.cpp:165] Memory required for data: 3607856896
I0202 13:47:03.394845 99956 layer_factory.hpp:77] Creating layer inception_3b/output
I0202 13:47:03.394852 99956 net.cpp:100] Creating Layer inception_3b/output
I0202 13:47:03.394856 99956 net.cpp:434] inception_3b/output <- inception_3b/1x1
I0202 13:47:03.394861 99956 net.cpp:434] inception_3b/output <- inception_3b/3x3
I0202 13:47:03.394866 99956 net.cpp:434] inception_3b/output <- inception_3b/5x5
I0202 13:47:03.394870 99956 net.cpp:434] inception_3b/output <- inception_3b/pool_proj
I0202 13:47:03.394878 99956 net.cpp:408] inception_3b/output -> inception_3b/output
I0202 13:47:03.394887 99956 net.cpp:150] Setting up inception_3b/output
I0202 13:47:03.394897 99956 net.cpp:157] Top shape: 112 480 28 28 (42147840)
I0202 13:47:03.394908 99956 net.cpp:165] Memory required for data: 3776448256
I0202 13:47:03.394912 99956 layer_factory.hpp:77] Creating layer pool3/3x3_s2
I0202 13:47:03.394922 99956 net.cpp:100] Creating Layer pool3/3x3_s2
I0202 13:47:03.394927 99956 net.cpp:434] pool3/3x3_s2 <- inception_3b/output
I0202 13:47:03.394932 99956 net.cpp:408] pool3/3x3_s2 -> pool3/3x3_s2
I0202 13:47:03.394942 99956 net.cpp:150] Setting up pool3/3x3_s2
I0202 13:47:03.394946 99956 net.cpp:157] Top shape: 112 480 14 14 (10536960)
I0202 13:47:03.394950 99956 net.cpp:165] Memory required for data: 3818596096
I0202 13:47:03.394954 99956 layer_factory.hpp:77] Creating layer pool3/3x3_s2_pool3/3x3_s2_0_split
I0202 13:47:03.394963 99956 net.cpp:100] Creating Layer pool3/3x3_s2_pool3/3x3_s2_0_split
I0202 13:47:03.394968 99956 net.cpp:434] pool3/3x3_s2_pool3/3x3_s2_0_split <- pool3/3x3_s2
I0202 13:47:03.394973 99956 net.cpp:408] pool3/3x3_s2_pool3/3x3_s2_0_split -> pool3/3x3_s2_pool3/3x3_s2_0_split_0
I0202 13:47:03.394979 99956 net.cpp:408] pool3/3x3_s2_pool3/3x3_s2_0_split -> pool3/3x3_s2_pool3/3x3_s2_0_split_1
I0202 13:47:03.394989 99956 net.cpp:408] pool3/3x3_s2_pool3/3x3_s2_0_split -> pool3/3x3_s2_pool3/3x3_s2_0_split_2
I0202 13:47:03.394994 99956 net.cpp:408] pool3/3x3_s2_pool3/3x3_s2_0_split -> pool3/3x3_s2_pool3/3x3_s2_0_split_3
I0202 13:47:03.395001 99956 net.cpp:150] Setting up pool3/3x3_s2_pool3/3x3_s2_0_split
I0202 13:47:03.395006 99956 net.cpp:157] Top shape: 112 480 14 14 (10536960)
I0202 13:47:03.395011 99956 net.cpp:157] Top shape: 112 480 14 14 (10536960)
I0202 13:47:03.395015 99956 net.cpp:157] Top shape: 112 480 14 14 (10536960)
I0202 13:47:03.395020 99956 net.cpp:157] Top shape: 112 480 14 14 (10536960)
I0202 13:47:03.395023 99956 net.cpp:165] Memory required for data: 3987187456
I0202 13:47:03.395027 99956 layer_factory.hpp:77] Creating layer inception_4a/1x1
I0202 13:47:03.395038 99956 net.cpp:100] Creating Layer inception_4a/1x1
I0202 13:47:03.395042 99956 net.cpp:434] inception_4a/1x1 <- pool3/3x3_s2_pool3/3x3_s2_0_split_0
I0202 13:47:03.395051 99956 net.cpp:408] inception_4a/1x1 -> inception_4a/1x1
I0202 13:47:03.395933 99956 net.cpp:150] Setting up inception_4a/1x1
I0202 13:47:03.395944 99956 net.cpp:157] Top shape: 112 192 14 14 (4214784)
I0202 13:47:03.395948 99956 net.cpp:165] Memory required for data: 4004046592
I0202 13:47:03.395956 99956 layer_factory.hpp:77] Creating layer inception_4a/relu_1x1
I0202 13:47:03.395961 99956 net.cpp:100] Creating Layer inception_4a/relu_1x1
I0202 13:47:03.395965 99956 net.cpp:434] inception_4a/relu_1x1 <- inception_4a/1x1
I0202 13:47:03.395975 99956 net.cpp:395] inception_4a/relu_1x1 -> inception_4a/1x1 (in-place)
I0202 13:47:03.395982 99956 net.cpp:150] Setting up inception_4a/relu_1x1
I0202 13:47:03.395987 99956 net.cpp:157] Top shape: 112 192 14 14 (4214784)
I0202 13:47:03.395990 99956 net.cpp:165] Memory required for data: 4020905728
I0202 13:47:03.395994 99956 layer_factory.hpp:77] Creating layer inception_4a/3x3_reduce
I0202 13:47:03.396005 99956 net.cpp:100] Creating Layer inception_4a/3x3_reduce
I0202 13:47:03.396009 99956 net.cpp:434] inception_4a/3x3_reduce <- pool3/3x3_s2_pool3/3x3_s2_0_split_1
I0202 13:47:03.396016 99956 net.cpp:408] inception_4a/3x3_reduce -> inception_4a/3x3_reduce
I0202 13:47:03.396445 99956 net.cpp:150] Setting up inception_4a/3x3_reduce
I0202 13:47:03.396453 99956 net.cpp:157] Top shape: 112 96 14 14 (2107392)
I0202 13:47:03.396456 99956 net.cpp:165] Memory required for data: 4029335296
I0202 13:47:03.396472 99956 layer_factory.hpp:77] Creating layer inception_4a/relu_3x3_reduce
I0202 13:47:03.396479 99956 net.cpp:100] Creating Layer inception_4a/relu_3x3_reduce
I0202 13:47:03.396483 99956 net.cpp:434] inception_4a/relu_3x3_reduce <- inception_4a/3x3_reduce
I0202 13:47:03.396489 99956 net.cpp:395] inception_4a/relu_3x3_reduce -> inception_4a/3x3_reduce (in-place)
I0202 13:47:03.396495 99956 net.cpp:150] Setting up inception_4a/relu_3x3_reduce
I0202 13:47:03.396505 99956 net.cpp:157] Top shape: 112 96 14 14 (2107392)
I0202 13:47:03.396517 99956 net.cpp:165] Memory required for data: 4037764864
I0202 13:47:03.396520 99956 layer_factory.hpp:77] Creating layer inception_4a/3x3
I0202 13:47:03.396530 99956 net.cpp:100] Creating Layer inception_4a/3x3
I0202 13:47:03.396534 99956 net.cpp:434] inception_4a/3x3 <- inception_4a/3x3_reduce
I0202 13:47:03.396543 99956 net.cpp:408] inception_4a/3x3 -> inception_4a/3x3
I0202 13:47:03.398226 99956 net.cpp:150] Setting up inception_4a/3x3
I0202 13:47:03.398236 99956 net.cpp:157] Top shape: 112 208 14 14 (4566016)
I0202 13:47:03.398241 99956 net.cpp:165] Memory required for data: 4056028928
I0202 13:47:03.398247 99956 layer_factory.hpp:77] Creating layer inception_4a/relu_3x3
I0202 13:47:03.398253 99956 net.cpp:100] Creating Layer inception_4a/relu_3x3
I0202 13:47:03.398257 99956 net.cpp:434] inception_4a/relu_3x3 <- inception_4a/3x3
I0202 13:47:03.398265 99956 net.cpp:395] inception_4a/relu_3x3 -> inception_4a/3x3 (in-place)
I0202 13:47:03.398272 99956 net.cpp:150] Setting up inception_4a/relu_3x3
I0202 13:47:03.398277 99956 net.cpp:157] Top shape: 112 208 14 14 (4566016)
I0202 13:47:03.398280 99956 net.cpp:165] Memory required for data: 4074292992
I0202 13:47:03.398284 99956 layer_factory.hpp:77] Creating layer inception_4a/5x5_reduce
I0202 13:47:03.398295 99956 net.cpp:100] Creating Layer inception_4a/5x5_reduce
I0202 13:47:03.398300 99956 net.cpp:434] inception_4a/5x5_reduce <- pool3/3x3_s2_pool3/3x3_s2_0_split_2
I0202 13:47:03.398306 99956 net.cpp:408] inception_4a/5x5_reduce -> inception_4a/5x5_reduce
I0202 13:47:03.398386 99956 net.cpp:150] Setting up inception_4a/5x5_reduce
I0202 13:47:03.398394 99956 net.cpp:157] Top shape: 112 16 14 14 (351232)
I0202 13:47:03.398397 99956 net.cpp:165] Memory required for data: 4075697920
I0202 13:47:03.398404 99956 layer_factory.hpp:77] Creating layer inception_4a/relu_5x5_reduce
I0202 13:47:03.398409 99956 net.cpp:100] Creating Layer inception_4a/relu_5x5_reduce
I0202 13:47:03.398413 99956 net.cpp:434] inception_4a/relu_5x5_reduce <- inception_4a/5x5_reduce
I0202 13:47:03.398418 99956 net.cpp:395] inception_4a/relu_5x5_reduce -> inception_4a/5x5_reduce (in-place)
I0202 13:47:03.398424 99956 net.cpp:150] Setting up inception_4a/relu_5x5_reduce
I0202 13:47:03.398429 99956 net.cpp:157] Top shape: 112 16 14 14 (351232)
I0202 13:47:03.398433 99956 net.cpp:165] Memory required for data: 4077102848
I0202 13:47:03.398437 99956 layer_factory.hpp:77] Creating layer inception_4a/5x5
I0202 13:47:03.398447 99956 net.cpp:100] Creating Layer inception_4a/5x5
I0202 13:47:03.398452 99956 net.cpp:434] inception_4a/5x5 <- inception_4a/5x5_reduce
I0202 13:47:03.398459 99956 net.cpp:408] inception_4a/5x5 -> inception_4a/5x5
I0202 13:47:03.398684 99956 net.cpp:150] Setting up inception_4a/5x5
I0202 13:47:03.398695 99956 net.cpp:157] Top shape: 112 48 14 14 (1053696)
I0202 13:47:03.398699 99956 net.cpp:165] Memory required for data: 4081317632
I0202 13:47:03.398705 99956 layer_factory.hpp:77] Creating layer inception_4a/relu_5x5
I0202 13:47:03.398715 99956 net.cpp:100] Creating Layer inception_4a/relu_5x5
I0202 13:47:03.398718 99956 net.cpp:434] inception_4a/relu_5x5 <- inception_4a/5x5
I0202 13:47:03.398725 99956 net.cpp:395] inception_4a/relu_5x5 -> inception_4a/5x5 (in-place)
I0202 13:47:03.398730 99956 net.cpp:150] Setting up inception_4a/relu_5x5
I0202 13:47:03.398736 99956 net.cpp:157] Top shape: 112 48 14 14 (1053696)
I0202 13:47:03.398739 99956 net.cpp:165] Memory required for data: 4085532416
I0202 13:47:03.398742 99956 layer_factory.hpp:77] Creating layer inception_4a/pool
I0202 13:47:03.398749 99956 net.cpp:100] Creating Layer inception_4a/pool
I0202 13:47:03.398753 99956 net.cpp:434] inception_4a/pool <- pool3/3x3_s2_pool3/3x3_s2_0_split_3
I0202 13:47:03.398761 99956 net.cpp:408] inception_4a/pool -> inception_4a/pool
I0202 13:47:03.398772 99956 net.cpp:150] Setting up inception_4a/pool
I0202 13:47:03.398777 99956 net.cpp:157] Top shape: 112 480 14 14 (10536960)
I0202 13:47:03.398779 99956 net.cpp:165] Memory required for data: 4127680256
I0202 13:47:03.398802 99956 layer_factory.hpp:77] Creating layer inception_4a/pool_proj
I0202 13:47:03.398813 99956 net.cpp:100] Creating Layer inception_4a/pool_proj
I0202 13:47:03.398818 99956 net.cpp:434] inception_4a/pool_proj <- inception_4a/pool
I0202 13:47:03.398826 99956 net.cpp:408] inception_4a/pool_proj -> inception_4a/pool_proj
I0202 13:47:03.399125 99956 net.cpp:150] Setting up inception_4a/pool_proj
I0202 13:47:03.399132 99956 net.cpp:157] Top shape: 112 64 14 14 (1404928)
I0202 13:47:03.399137 99956 net.cpp:165] Memory required for data: 4133299968
I0202 13:47:03.399142 99956 layer_factory.hpp:77] Creating layer inception_4a/relu_pool_proj
I0202 13:47:03.399148 99956 net.cpp:100] Creating Layer inception_4a/relu_pool_proj
I0202 13:47:03.399153 99956 net.cpp:434] inception_4a/relu_pool_proj <- inception_4a/pool_proj
I0202 13:47:03.399161 99956 net.cpp:395] inception_4a/relu_pool_proj -> inception_4a/pool_proj (in-place)
I0202 13:47:03.399168 99956 net.cpp:150] Setting up inception_4a/relu_pool_proj
I0202 13:47:03.399173 99956 net.cpp:157] Top shape: 112 64 14 14 (1404928)
I0202 13:47:03.399176 99956 net.cpp:165] Memory required for data: 4138919680
I0202 13:47:03.399180 99956 layer_factory.hpp:77] Creating layer inception_4a/output
I0202 13:47:03.399186 99956 net.cpp:100] Creating Layer inception_4a/output
I0202 13:47:03.399190 99956 net.cpp:434] inception_4a/output <- inception_4a/1x1
I0202 13:47:03.399195 99956 net.cpp:434] inception_4a/output <- inception_4a/3x3
I0202 13:47:03.399199 99956 net.cpp:434] inception_4a/output <- inception_4a/5x5
I0202 13:47:03.399204 99956 net.cpp:434] inception_4a/output <- inception_4a/pool_proj
I0202 13:47:03.399210 99956 net.cpp:408] inception_4a/output -> inception_4a/output
I0202 13:47:03.399219 99956 net.cpp:150] Setting up inception_4a/output
I0202 13:47:03.399224 99956 net.cpp:157] Top shape: 112 512 14 14 (11239424)
I0202 13:47:03.399227 99956 net.cpp:165] Memory required for data: 4183877376
I0202 13:47:03.399230 99956 layer_factory.hpp:77] Creating layer inception_4a/output_inception_4a/output_0_split
I0202 13:47:03.399240 99956 net.cpp:100] Creating Layer inception_4a/output_inception_4a/output_0_split
I0202 13:47:03.399245 99956 net.cpp:434] inception_4a/output_inception_4a/output_0_split <- inception_4a/output
I0202 13:47:03.399253 99956 net.cpp:408] inception_4a/output_inception_4a/output_0_split -> inception_4a/output_inception_4a/output_0_split_0
I0202 13:47:03.399266 99956 net.cpp:408] inception_4a/output_inception_4a/output_0_split -> inception_4a/output_inception_4a/output_0_split_1
I0202 13:47:03.399272 99956 net.cpp:408] inception_4a/output_inception_4a/output_0_split -> inception_4a/output_inception_4a/output_0_split_2
I0202 13:47:03.399279 99956 net.cpp:408] inception_4a/output_inception_4a/output_0_split -> inception_4a/output_inception_4a/output_0_split_3
I0202 13:47:03.399286 99956 net.cpp:408] inception_4a/output_inception_4a/output_0_split -> inception_4a/output_inception_4a/output_0_split_4
I0202 13:47:03.399294 99956 net.cpp:150] Setting up inception_4a/output_inception_4a/output_0_split
I0202 13:47:03.399300 99956 net.cpp:157] Top shape: 112 512 14 14 (11239424)
I0202 13:47:03.399304 99956 net.cpp:157] Top shape: 112 512 14 14 (11239424)
I0202 13:47:03.399309 99956 net.cpp:157] Top shape: 112 512 14 14 (11239424)
I0202 13:47:03.399314 99956 net.cpp:157] Top shape: 112 512 14 14 (11239424)
I0202 13:47:03.399318 99956 net.cpp:157] Top shape: 112 512 14 14 (11239424)
I0202 13:47:03.399322 99956 net.cpp:165] Memory required for data: 4408665856
I0202 13:47:03.399325 99956 layer_factory.hpp:77] Creating layer loss1/ave_pool
I0202 13:47:03.399334 99956 net.cpp:100] Creating Layer loss1/ave_pool
I0202 13:47:03.399338 99956 net.cpp:434] loss1/ave_pool <- inception_4a/output_inception_4a/output_0_split_0
I0202 13:47:03.399346 99956 net.cpp:408] loss1/ave_pool -> loss1/ave_pool
I0202 13:47:03.399353 99956 net.cpp:150] Setting up loss1/ave_pool
I0202 13:47:03.399359 99956 net.cpp:157] Top shape: 112 512 4 4 (917504)
I0202 13:47:03.399369 99956 net.cpp:165] Memory required for data: 4412335872
I0202 13:47:03.399377 99956 layer_factory.hpp:77] Creating layer loss1/conv
I0202 13:47:03.399389 99956 net.cpp:100] Creating Layer loss1/conv
I0202 13:47:03.399394 99956 net.cpp:434] loss1/conv <- loss1/ave_pool
I0202 13:47:03.399399 99956 net.cpp:408] loss1/conv -> loss1/conv
I0202 13:47:03.400032 99956 net.cpp:150] Setting up loss1/conv
I0202 13:47:03.400043 99956 net.cpp:157] Top shape: 112 128 4 4 (229376)
I0202 13:47:03.400046 99956 net.cpp:165] Memory required for data: 4413253376
I0202 13:47:03.400053 99956 layer_factory.hpp:77] Creating layer loss1/relu_conv
I0202 13:47:03.400063 99956 net.cpp:100] Creating Layer loss1/relu_conv
I0202 13:47:03.400068 99956 net.cpp:434] loss1/relu_conv <- loss1/conv
I0202 13:47:03.400074 99956 net.cpp:395] loss1/relu_conv -> loss1/conv (in-place)
I0202 13:47:03.400080 99956 net.cpp:150] Setting up loss1/relu_conv
I0202 13:47:03.400085 99956 net.cpp:157] Top shape: 112 128 4 4 (229376)
I0202 13:47:03.400089 99956 net.cpp:165] Memory required for data: 4414170880
I0202 13:47:03.400092 99956 layer_factory.hpp:77] Creating layer loss1/fc
I0202 13:47:03.400105 99956 net.cpp:100] Creating Layer loss1/fc
I0202 13:47:03.400110 99956 net.cpp:434] loss1/fc <- loss1/conv
I0202 13:47:03.400117 99956 net.cpp:408] loss1/fc -> loss1/fc
I0202 13:47:03.418658 99956 net.cpp:150] Setting up loss1/fc
I0202 13:47:03.418686 99956 net.cpp:157] Top shape: 112 1024 (114688)
I0202 13:47:03.418690 99956 net.cpp:165] Memory required for data: 4414629632
I0202 13:47:03.418700 99956 layer_factory.hpp:77] Creating layer loss1/relu_fc
I0202 13:47:03.418709 99956 net.cpp:100] Creating Layer loss1/relu_fc
I0202 13:47:03.418715 99956 net.cpp:434] loss1/relu_fc <- loss1/fc
I0202 13:47:03.418721 99956 net.cpp:395] loss1/relu_fc -> loss1/fc (in-place)
I0202 13:47:03.418730 99956 net.cpp:150] Setting up loss1/relu_fc
I0202 13:47:03.418735 99956 net.cpp:157] Top shape: 112 1024 (114688)
I0202 13:47:03.418740 99956 net.cpp:165] Memory required for data: 4415088384
I0202 13:47:03.418743 99956 layer_factory.hpp:77] Creating layer loss1/drop_fc
I0202 13:47:03.418767 99956 net.cpp:100] Creating Layer loss1/drop_fc
I0202 13:47:03.418772 99956 net.cpp:434] loss1/drop_fc <- loss1/fc
I0202 13:47:03.418778 99956 net.cpp:395] loss1/drop_fc -> loss1/fc (in-place)
I0202 13:47:03.418795 99956 net.cpp:150] Setting up loss1/drop_fc
I0202 13:47:03.418800 99956 net.cpp:157] Top shape: 112 1024 (114688)
I0202 13:47:03.418804 99956 net.cpp:165] Memory required for data: 4415547136
I0202 13:47:03.418809 99956 layer_factory.hpp:77] Creating layer loss1/classifier
I0202 13:47:03.418818 99956 net.cpp:100] Creating Layer loss1/classifier
I0202 13:47:03.418823 99956 net.cpp:434] loss1/classifier <- loss1/fc
I0202 13:47:03.418831 99956 net.cpp:408] loss1/classifier -> loss1/classifier
I0202 13:47:03.428351 99956 net.cpp:150] Setting up loss1/classifier
I0202 13:47:03.428365 99956 net.cpp:157] Top shape: 112 1000 (112000)
I0202 13:47:03.428369 99956 net.cpp:165] Memory required for data: 4415995136
I0202 13:47:03.428377 99956 layer_factory.hpp:77] Creating layer loss1/loss
I0202 13:47:03.428390 99956 net.cpp:100] Creating Layer loss1/loss
I0202 13:47:03.428396 99956 net.cpp:434] loss1/loss <- loss1/classifier
I0202 13:47:03.428402 99956 net.cpp:434] loss1/loss <- label_data_1_split_0
I0202 13:47:03.428411 99956 net.cpp:408] loss1/loss -> loss1/loss1
I0202 13:47:03.428428 99956 layer_factory.hpp:77] Creating layer loss1/loss
I0202 13:47:03.428766 99956 net.cpp:150] Setting up loss1/loss
I0202 13:47:03.428776 99956 net.cpp:157] Top shape: (1)
I0202 13:47:03.428781 99956 net.cpp:160]     with loss weight 0.3
I0202 13:47:03.428824 99956 net.cpp:165] Memory required for data: 4415995140
I0202 13:47:03.428829 99956 layer_factory.hpp:77] Creating layer inception_4b/1x1
I0202 13:47:03.428845 99956 net.cpp:100] Creating Layer inception_4b/1x1
I0202 13:47:03.428851 99956 net.cpp:434] inception_4b/1x1 <- inception_4a/output_inception_4a/output_0_split_1
I0202 13:47:03.428860 99956 net.cpp:408] inception_4b/1x1 -> inception_4b/1x1
I0202 13:47:03.429684 99956 net.cpp:150] Setting up inception_4b/1x1
I0202 13:47:03.429697 99956 net.cpp:157] Top shape: 112 160 14 14 (3512320)
I0202 13:47:03.429699 99956 net.cpp:165] Memory required for data: 4430044420
I0202 13:47:03.429708 99956 layer_factory.hpp:77] Creating layer inception_4b/relu_1x1
I0202 13:47:03.429713 99956 net.cpp:100] Creating Layer inception_4b/relu_1x1
I0202 13:47:03.429718 99956 net.cpp:434] inception_4b/relu_1x1 <- inception_4b/1x1
I0202 13:47:03.429723 99956 net.cpp:395] inception_4b/relu_1x1 -> inception_4b/1x1 (in-place)
I0202 13:47:03.429731 99956 net.cpp:150] Setting up inception_4b/relu_1x1
I0202 13:47:03.429736 99956 net.cpp:157] Top shape: 112 160 14 14 (3512320)
I0202 13:47:03.429740 99956 net.cpp:165] Memory required for data: 4444093700
I0202 13:47:03.429744 99956 layer_factory.hpp:77] Creating layer inception_4b/3x3_reduce
I0202 13:47:03.429757 99956 net.cpp:100] Creating Layer inception_4b/3x3_reduce
I0202 13:47:03.429761 99956 net.cpp:434] inception_4b/3x3_reduce <- inception_4a/output_inception_4a/output_0_split_2
I0202 13:47:03.429769 99956 net.cpp:408] inception_4b/3x3_reduce -> inception_4b/3x3_reduce
I0202 13:47:03.430325 99956 net.cpp:150] Setting up inception_4b/3x3_reduce
I0202 13:47:03.430335 99956 net.cpp:157] Top shape: 112 112 14 14 (2458624)
I0202 13:47:03.430337 99956 net.cpp:165] Memory required for data: 4453928196
I0202 13:47:03.430344 99956 layer_factory.hpp:77] Creating layer inception_4b/relu_3x3_reduce
I0202 13:47:03.430351 99956 net.cpp:100] Creating Layer inception_4b/relu_3x3_reduce
I0202 13:47:03.430356 99956 net.cpp:434] inception_4b/relu_3x3_reduce <- inception_4b/3x3_reduce
I0202 13:47:03.430363 99956 net.cpp:395] inception_4b/relu_3x3_reduce -> inception_4b/3x3_reduce (in-place)
I0202 13:47:03.430369 99956 net.cpp:150] Setting up inception_4b/relu_3x3_reduce
I0202 13:47:03.430374 99956 net.cpp:157] Top shape: 112 112 14 14 (2458624)
I0202 13:47:03.430377 99956 net.cpp:165] Memory required for data: 4463762692
I0202 13:47:03.430382 99956 layer_factory.hpp:77] Creating layer inception_4b/3x3
I0202 13:47:03.430390 99956 net.cpp:100] Creating Layer inception_4b/3x3
I0202 13:47:03.430394 99956 net.cpp:434] inception_4b/3x3 <- inception_4b/3x3_reduce
I0202 13:47:03.430402 99956 net.cpp:408] inception_4b/3x3 -> inception_4b/3x3
I0202 13:47:03.432488 99956 net.cpp:150] Setting up inception_4b/3x3
I0202 13:47:03.432500 99956 net.cpp:157] Top shape: 112 224 14 14 (4917248)
I0202 13:47:03.432503 99956 net.cpp:165] Memory required for data: 4483431684
I0202 13:47:03.432512 99956 layer_factory.hpp:77] Creating layer inception_4b/relu_3x3
I0202 13:47:03.432518 99956 net.cpp:100] Creating Layer inception_4b/relu_3x3
I0202 13:47:03.432523 99956 net.cpp:434] inception_4b/relu_3x3 <- inception_4b/3x3
I0202 13:47:03.432528 99956 net.cpp:395] inception_4b/relu_3x3 -> inception_4b/3x3 (in-place)
I0202 13:47:03.432533 99956 net.cpp:150] Setting up inception_4b/relu_3x3
I0202 13:47:03.432538 99956 net.cpp:157] Top shape: 112 224 14 14 (4917248)
I0202 13:47:03.432543 99956 net.cpp:165] Memory required for data: 4503100676
I0202 13:47:03.432546 99956 layer_factory.hpp:77] Creating layer inception_4b/5x5_reduce
I0202 13:47:03.432556 99956 net.cpp:100] Creating Layer inception_4b/5x5_reduce
I0202 13:47:03.432561 99956 net.cpp:434] inception_4b/5x5_reduce <- inception_4a/output_inception_4a/output_0_split_3
I0202 13:47:03.432567 99956 net.cpp:408] inception_4b/5x5_reduce -> inception_4b/5x5_reduce
I0202 13:47:03.432694 99956 net.cpp:150] Setting up inception_4b/5x5_reduce
I0202 13:47:03.432703 99956 net.cpp:157] Top shape: 112 24 14 14 (526848)
I0202 13:47:03.432708 99956 net.cpp:165] Memory required for data: 4505208068
I0202 13:47:03.432714 99956 layer_factory.hpp:77] Creating layer inception_4b/relu_5x5_reduce
I0202 13:47:03.432723 99956 net.cpp:100] Creating Layer inception_4b/relu_5x5_reduce
I0202 13:47:03.432726 99956 net.cpp:434] inception_4b/relu_5x5_reduce <- inception_4b/5x5_reduce
I0202 13:47:03.432732 99956 net.cpp:395] inception_4b/relu_5x5_reduce -> inception_4b/5x5_reduce (in-place)
I0202 13:47:03.432754 99956 net.cpp:150] Setting up inception_4b/relu_5x5_reduce
I0202 13:47:03.432760 99956 net.cpp:157] Top shape: 112 24 14 14 (526848)
I0202 13:47:03.432763 99956 net.cpp:165] Memory required for data: 4507315460
I0202 13:47:03.432766 99956 layer_factory.hpp:77] Creating layer inception_4b/5x5
I0202 13:47:03.432778 99956 net.cpp:100] Creating Layer inception_4b/5x5
I0202 13:47:03.432782 99956 net.cpp:434] inception_4b/5x5 <- inception_4b/5x5_reduce
I0202 13:47:03.432790 99956 net.cpp:408] inception_4b/5x5 -> inception_4b/5x5
I0202 13:47:03.433192 99956 net.cpp:150] Setting up inception_4b/5x5
I0202 13:47:03.433200 99956 net.cpp:157] Top shape: 112 64 14 14 (1404928)
I0202 13:47:03.433204 99956 net.cpp:165] Memory required for data: 4512935172
I0202 13:47:03.433212 99956 layer_factory.hpp:77] Creating layer inception_4b/relu_5x5
I0202 13:47:03.433218 99956 net.cpp:100] Creating Layer inception_4b/relu_5x5
I0202 13:47:03.433221 99956 net.cpp:434] inception_4b/relu_5x5 <- inception_4b/5x5
I0202 13:47:03.433229 99956 net.cpp:395] inception_4b/relu_5x5 -> inception_4b/5x5 (in-place)
I0202 13:47:03.433235 99956 net.cpp:150] Setting up inception_4b/relu_5x5
I0202 13:47:03.433240 99956 net.cpp:157] Top shape: 112 64 14 14 (1404928)
I0202 13:47:03.433244 99956 net.cpp:165] Memory required for data: 4518554884
I0202 13:47:03.433248 99956 layer_factory.hpp:77] Creating layer inception_4b/pool
I0202 13:47:03.433254 99956 net.cpp:100] Creating Layer inception_4b/pool
I0202 13:47:03.433259 99956 net.cpp:434] inception_4b/pool <- inception_4a/output_inception_4a/output_0_split_4
I0202 13:47:03.433265 99956 net.cpp:408] inception_4b/pool -> inception_4b/pool
I0202 13:47:03.433293 99956 net.cpp:150] Setting up inception_4b/pool
I0202 13:47:03.433300 99956 net.cpp:157] Top shape: 112 512 14 14 (11239424)
I0202 13:47:03.433303 99956 net.cpp:165] Memory required for data: 4563512580
I0202 13:47:03.433307 99956 layer_factory.hpp:77] Creating layer inception_4b/pool_proj
I0202 13:47:03.433316 99956 net.cpp:100] Creating Layer inception_4b/pool_proj
I0202 13:47:03.433321 99956 net.cpp:434] inception_4b/pool_proj <- inception_4b/pool
I0202 13:47:03.433331 99956 net.cpp:408] inception_4b/pool_proj -> inception_4b/pool_proj
I0202 13:47:03.433655 99956 net.cpp:150] Setting up inception_4b/pool_proj
I0202 13:47:03.433665 99956 net.cpp:157] Top shape: 112 64 14 14 (1404928)
I0202 13:47:03.433670 99956 net.cpp:165] Memory required for data: 4569132292
I0202 13:47:03.433676 99956 layer_factory.hpp:77] Creating layer inception_4b/relu_pool_proj
I0202 13:47:03.433684 99956 net.cpp:100] Creating Layer inception_4b/relu_pool_proj
I0202 13:47:03.433688 99956 net.cpp:434] inception_4b/relu_pool_proj <- inception_4b/pool_proj
I0202 13:47:03.433694 99956 net.cpp:395] inception_4b/relu_pool_proj -> inception_4b/pool_proj (in-place)
I0202 13:47:03.433701 99956 net.cpp:150] Setting up inception_4b/relu_pool_proj
I0202 13:47:03.433706 99956 net.cpp:157] Top shape: 112 64 14 14 (1404928)
I0202 13:47:03.433709 99956 net.cpp:165] Memory required for data: 4574752004
I0202 13:47:03.433712 99956 layer_factory.hpp:77] Creating layer inception_4b/output
I0202 13:47:03.433720 99956 net.cpp:100] Creating Layer inception_4b/output
I0202 13:47:03.433724 99956 net.cpp:434] inception_4b/output <- inception_4b/1x1
I0202 13:47:03.433729 99956 net.cpp:434] inception_4b/output <- inception_4b/3x3
I0202 13:47:03.433733 99956 net.cpp:434] inception_4b/output <- inception_4b/5x5
I0202 13:47:03.433738 99956 net.cpp:434] inception_4b/output <- inception_4b/pool_proj
I0202 13:47:03.433746 99956 net.cpp:408] inception_4b/output -> inception_4b/output
I0202 13:47:03.433756 99956 net.cpp:150] Setting up inception_4b/output
I0202 13:47:03.433761 99956 net.cpp:157] Top shape: 112 512 14 14 (11239424)
I0202 13:47:03.433765 99956 net.cpp:165] Memory required for data: 4619709700
I0202 13:47:03.433768 99956 layer_factory.hpp:77] Creating layer inception_4b/output_inception_4b/output_0_split
I0202 13:47:03.433780 99956 net.cpp:100] Creating Layer inception_4b/output_inception_4b/output_0_split
I0202 13:47:03.433791 99956 net.cpp:434] inception_4b/output_inception_4b/output_0_split <- inception_4b/output
I0202 13:47:03.433801 99956 net.cpp:408] inception_4b/output_inception_4b/output_0_split -> inception_4b/output_inception_4b/output_0_split_0
I0202 13:47:03.433809 99956 net.cpp:408] inception_4b/output_inception_4b/output_0_split -> inception_4b/output_inception_4b/output_0_split_1
I0202 13:47:03.433815 99956 net.cpp:408] inception_4b/output_inception_4b/output_0_split -> inception_4b/output_inception_4b/output_0_split_2
I0202 13:47:03.433822 99956 net.cpp:408] inception_4b/output_inception_4b/output_0_split -> inception_4b/output_inception_4b/output_0_split_3
I0202 13:47:03.433831 99956 net.cpp:150] Setting up inception_4b/output_inception_4b/output_0_split
I0202 13:47:03.433836 99956 net.cpp:157] Top shape: 112 512 14 14 (11239424)
I0202 13:47:03.433841 99956 net.cpp:157] Top shape: 112 512 14 14 (11239424)
I0202 13:47:03.433845 99956 net.cpp:157] Top shape: 112 512 14 14 (11239424)
I0202 13:47:03.433851 99956 net.cpp:157] Top shape: 112 512 14 14 (11239424)
I0202 13:47:03.433853 99956 net.cpp:165] Memory required for data: 4799540484
I0202 13:47:03.433857 99956 layer_factory.hpp:77] Creating layer inception_4c/1x1
I0202 13:47:03.433869 99956 net.cpp:100] Creating Layer inception_4c/1x1
I0202 13:47:03.433874 99956 net.cpp:434] inception_4c/1x1 <- inception_4b/output_inception_4b/output_0_split_0
I0202 13:47:03.433881 99956 net.cpp:408] inception_4c/1x1 -> inception_4c/1x1
I0202 13:47:03.434509 99956 net.cpp:150] Setting up inception_4c/1x1
I0202 13:47:03.434516 99956 net.cpp:157] Top shape: 112 128 14 14 (2809856)
I0202 13:47:03.434520 99956 net.cpp:165] Memory required for data: 4810779908
I0202 13:47:03.434527 99956 layer_factory.hpp:77] Creating layer inception_4c/relu_1x1
I0202 13:47:03.434536 99956 net.cpp:100] Creating Layer inception_4c/relu_1x1
I0202 13:47:03.434541 99956 net.cpp:434] inception_4c/relu_1x1 <- inception_4c/1x1
I0202 13:47:03.434546 99956 net.cpp:395] inception_4c/relu_1x1 -> inception_4c/1x1 (in-place)
I0202 13:47:03.434553 99956 net.cpp:150] Setting up inception_4c/relu_1x1
I0202 13:47:03.434558 99956 net.cpp:157] Top shape: 112 128 14 14 (2809856)
I0202 13:47:03.434561 99956 net.cpp:165] Memory required for data: 4822019332
I0202 13:47:03.434566 99956 layer_factory.hpp:77] Creating layer inception_4c/3x3_reduce
I0202 13:47:03.434576 99956 net.cpp:100] Creating Layer inception_4c/3x3_reduce
I0202 13:47:03.434581 99956 net.cpp:434] inception_4c/3x3_reduce <- inception_4b/output_inception_4b/output_0_split_1
I0202 13:47:03.434589 99956 net.cpp:408] inception_4c/3x3_reduce -> inception_4c/3x3_reduce
I0202 13:47:03.435233 99956 net.cpp:150] Setting up inception_4c/3x3_reduce
I0202 13:47:03.435245 99956 net.cpp:157] Top shape: 112 128 14 14 (2809856)
I0202 13:47:03.435247 99956 net.cpp:165] Memory required for data: 4833258756
I0202 13:47:03.435255 99956 layer_factory.hpp:77] Creating layer inception_4c/relu_3x3_reduce
I0202 13:47:03.435261 99956 net.cpp:100] Creating Layer inception_4c/relu_3x3_reduce
I0202 13:47:03.435266 99956 net.cpp:434] inception_4c/relu_3x3_reduce <- inception_4c/3x3_reduce
I0202 13:47:03.435274 99956 net.cpp:395] inception_4c/relu_3x3_reduce -> inception_4c/3x3_reduce (in-place)
I0202 13:47:03.435281 99956 net.cpp:150] Setting up inception_4c/relu_3x3_reduce
I0202 13:47:03.435286 99956 net.cpp:157] Top shape: 112 128 14 14 (2809856)
I0202 13:47:03.435291 99956 net.cpp:165] Memory required for data: 4844498180
I0202 13:47:03.435294 99956 layer_factory.hpp:77] Creating layer inception_4c/3x3
I0202 13:47:03.435305 99956 net.cpp:100] Creating Layer inception_4c/3x3
I0202 13:47:03.435309 99956 net.cpp:434] inception_4c/3x3 <- inception_4c/3x3_reduce
I0202 13:47:03.435315 99956 net.cpp:408] inception_4c/3x3 -> inception_4c/3x3
I0202 13:47:03.438029 99956 net.cpp:150] Setting up inception_4c/3x3
I0202 13:47:03.438040 99956 net.cpp:157] Top shape: 112 256 14 14 (5619712)
I0202 13:47:03.438047 99956 net.cpp:165] Memory required for data: 4866977028
I0202 13:47:03.438082 99956 layer_factory.hpp:77] Creating layer inception_4c/relu_3x3
I0202 13:47:03.438089 99956 net.cpp:100] Creating Layer inception_4c/relu_3x3
I0202 13:47:03.438094 99956 net.cpp:434] inception_4c/relu_3x3 <- inception_4c/3x3
I0202 13:47:03.438100 99956 net.cpp:395] inception_4c/relu_3x3 -> inception_4c/3x3 (in-place)
I0202 13:47:03.438107 99956 net.cpp:150] Setting up inception_4c/relu_3x3
I0202 13:47:03.438112 99956 net.cpp:157] Top shape: 112 256 14 14 (5619712)
I0202 13:47:03.438115 99956 net.cpp:165] Memory required for data: 4889455876
I0202 13:47:03.438119 99956 layer_factory.hpp:77] Creating layer inception_4c/5x5_reduce
I0202 13:47:03.438130 99956 net.cpp:100] Creating Layer inception_4c/5x5_reduce
I0202 13:47:03.438134 99956 net.cpp:434] inception_4c/5x5_reduce <- inception_4b/output_inception_4b/output_0_split_2
I0202 13:47:03.438141 99956 net.cpp:408] inception_4c/5x5_reduce -> inception_4c/5x5_reduce
I0202 13:47:03.438263 99956 net.cpp:150] Setting up inception_4c/5x5_reduce
I0202 13:47:03.438269 99956 net.cpp:157] Top shape: 112 24 14 14 (526848)
I0202 13:47:03.438273 99956 net.cpp:165] Memory required for data: 4891563268
I0202 13:47:03.438279 99956 layer_factory.hpp:77] Creating layer inception_4c/relu_5x5_reduce
I0202 13:47:03.438285 99956 net.cpp:100] Creating Layer inception_4c/relu_5x5_reduce
I0202 13:47:03.438290 99956 net.cpp:434] inception_4c/relu_5x5_reduce <- inception_4c/5x5_reduce
I0202 13:47:03.438297 99956 net.cpp:395] inception_4c/relu_5x5_reduce -> inception_4c/5x5_reduce (in-place)
I0202 13:47:03.438304 99956 net.cpp:150] Setting up inception_4c/relu_5x5_reduce
I0202 13:47:03.438309 99956 net.cpp:157] Top shape: 112 24 14 14 (526848)
I0202 13:47:03.438313 99956 net.cpp:165] Memory required for data: 4893670660
I0202 13:47:03.438316 99956 layer_factory.hpp:77] Creating layer inception_4c/5x5
I0202 13:47:03.438326 99956 net.cpp:100] Creating Layer inception_4c/5x5
I0202 13:47:03.438330 99956 net.cpp:434] inception_4c/5x5 <- inception_4c/5x5_reduce
I0202 13:47:03.438338 99956 net.cpp:408] inception_4c/5x5 -> inception_4c/5x5
I0202 13:47:03.438735 99956 net.cpp:150] Setting up inception_4c/5x5
I0202 13:47:03.438745 99956 net.cpp:157] Top shape: 112 64 14 14 (1404928)
I0202 13:47:03.438750 99956 net.cpp:165] Memory required for data: 4899290372
I0202 13:47:03.438755 99956 layer_factory.hpp:77] Creating layer inception_4c/relu_5x5
I0202 13:47:03.438761 99956 net.cpp:100] Creating Layer inception_4c/relu_5x5
I0202 13:47:03.438766 99956 net.cpp:434] inception_4c/relu_5x5 <- inception_4c/5x5
I0202 13:47:03.438774 99956 net.cpp:395] inception_4c/relu_5x5 -> inception_4c/5x5 (in-place)
I0202 13:47:03.438781 99956 net.cpp:150] Setting up inception_4c/relu_5x5
I0202 13:47:03.438786 99956 net.cpp:157] Top shape: 112 64 14 14 (1404928)
I0202 13:47:03.438789 99956 net.cpp:165] Memory required for data: 4904910084
I0202 13:47:03.438792 99956 layer_factory.hpp:77] Creating layer inception_4c/pool
I0202 13:47:03.438799 99956 net.cpp:100] Creating Layer inception_4c/pool
I0202 13:47:03.438803 99956 net.cpp:434] inception_4c/pool <- inception_4b/output_inception_4b/output_0_split_3
I0202 13:47:03.438812 99956 net.cpp:408] inception_4c/pool -> inception_4c/pool
I0202 13:47:03.438822 99956 net.cpp:150] Setting up inception_4c/pool
I0202 13:47:03.438827 99956 net.cpp:157] Top shape: 112 512 14 14 (11239424)
I0202 13:47:03.438830 99956 net.cpp:165] Memory required for data: 4949867780
I0202 13:47:03.438834 99956 layer_factory.hpp:77] Creating layer inception_4c/pool_proj
I0202 13:47:03.438844 99956 net.cpp:100] Creating Layer inception_4c/pool_proj
I0202 13:47:03.438849 99956 net.cpp:434] inception_4c/pool_proj <- inception_4c/pool
I0202 13:47:03.438855 99956 net.cpp:408] inception_4c/pool_proj -> inception_4c/pool_proj
I0202 13:47:03.439172 99956 net.cpp:150] Setting up inception_4c/pool_proj
I0202 13:47:03.439179 99956 net.cpp:157] Top shape: 112 64 14 14 (1404928)
I0202 13:47:03.439182 99956 net.cpp:165] Memory required for data: 4955487492
I0202 13:47:03.439194 99956 layer_factory.hpp:77] Creating layer inception_4c/relu_pool_proj
I0202 13:47:03.439213 99956 net.cpp:100] Creating Layer inception_4c/relu_pool_proj
I0202 13:47:03.439218 99956 net.cpp:434] inception_4c/relu_pool_proj <- inception_4c/pool_proj
I0202 13:47:03.439223 99956 net.cpp:395] inception_4c/relu_pool_proj -> inception_4c/pool_proj (in-place)
I0202 13:47:03.439232 99956 net.cpp:150] Setting up inception_4c/relu_pool_proj
I0202 13:47:03.439237 99956 net.cpp:157] Top shape: 112 64 14 14 (1404928)
I0202 13:47:03.439241 99956 net.cpp:165] Memory required for data: 4961107204
I0202 13:47:03.439244 99956 layer_factory.hpp:77] Creating layer inception_4c/output
I0202 13:47:03.439251 99956 net.cpp:100] Creating Layer inception_4c/output
I0202 13:47:03.439255 99956 net.cpp:434] inception_4c/output <- inception_4c/1x1
I0202 13:47:03.439260 99956 net.cpp:434] inception_4c/output <- inception_4c/3x3
I0202 13:47:03.439265 99956 net.cpp:434] inception_4c/output <- inception_4c/5x5
I0202 13:47:03.439270 99956 net.cpp:434] inception_4c/output <- inception_4c/pool_proj
I0202 13:47:03.439275 99956 net.cpp:408] inception_4c/output -> inception_4c/output
I0202 13:47:03.439283 99956 net.cpp:150] Setting up inception_4c/output
I0202 13:47:03.439290 99956 net.cpp:157] Top shape: 112 512 14 14 (11239424)
I0202 13:47:03.439292 99956 net.cpp:165] Memory required for data: 5006064900
I0202 13:47:03.439296 99956 layer_factory.hpp:77] Creating layer inception_4c/output_inception_4c/output_0_split
I0202 13:47:03.439303 99956 net.cpp:100] Creating Layer inception_4c/output_inception_4c/output_0_split
I0202 13:47:03.439308 99956 net.cpp:434] inception_4c/output_inception_4c/output_0_split <- inception_4c/output
I0202 13:47:03.439316 99956 net.cpp:408] inception_4c/output_inception_4c/output_0_split -> inception_4c/output_inception_4c/output_0_split_0
I0202 13:47:03.439324 99956 net.cpp:408] inception_4c/output_inception_4c/output_0_split -> inception_4c/output_inception_4c/output_0_split_1
I0202 13:47:03.439330 99956 net.cpp:408] inception_4c/output_inception_4c/output_0_split -> inception_4c/output_inception_4c/output_0_split_2
I0202 13:47:03.439339 99956 net.cpp:408] inception_4c/output_inception_4c/output_0_split -> inception_4c/output_inception_4c/output_0_split_3
I0202 13:47:03.439347 99956 net.cpp:150] Setting up inception_4c/output_inception_4c/output_0_split
I0202 13:47:03.439352 99956 net.cpp:157] Top shape: 112 512 14 14 (11239424)
I0202 13:47:03.439357 99956 net.cpp:157] Top shape: 112 512 14 14 (11239424)
I0202 13:47:03.439362 99956 net.cpp:157] Top shape: 112 512 14 14 (11239424)
I0202 13:47:03.439365 99956 net.cpp:157] Top shape: 112 512 14 14 (11239424)
I0202 13:47:03.439369 99956 net.cpp:165] Memory required for data: 5185895684
I0202 13:47:03.439373 99956 layer_factory.hpp:77] Creating layer inception_4d/1x1
I0202 13:47:03.439383 99956 net.cpp:100] Creating Layer inception_4d/1x1
I0202 13:47:03.439388 99956 net.cpp:434] inception_4d/1x1 <- inception_4c/output_inception_4c/output_0_split_0
I0202 13:47:03.439398 99956 net.cpp:408] inception_4d/1x1 -> inception_4d/1x1
I0202 13:47:03.439961 99956 net.cpp:150] Setting up inception_4d/1x1
I0202 13:47:03.439972 99956 net.cpp:157] Top shape: 112 112 14 14 (2458624)
I0202 13:47:03.439975 99956 net.cpp:165] Memory required for data: 5195730180
I0202 13:47:03.439982 99956 layer_factory.hpp:77] Creating layer inception_4d/relu_1x1
I0202 13:47:03.439988 99956 net.cpp:100] Creating Layer inception_4d/relu_1x1
I0202 13:47:03.439992 99956 net.cpp:434] inception_4d/relu_1x1 <- inception_4d/1x1
I0202 13:47:03.439999 99956 net.cpp:395] inception_4d/relu_1x1 -> inception_4d/1x1 (in-place)
I0202 13:47:03.440006 99956 net.cpp:150] Setting up inception_4d/relu_1x1
I0202 13:47:03.440011 99956 net.cpp:157] Top shape: 112 112 14 14 (2458624)
I0202 13:47:03.440014 99956 net.cpp:165] Memory required for data: 5205564676
I0202 13:47:03.440017 99956 layer_factory.hpp:77] Creating layer inception_4d/3x3_reduce
I0202 13:47:03.440029 99956 net.cpp:100] Creating Layer inception_4d/3x3_reduce
I0202 13:47:03.440039 99956 net.cpp:434] inception_4d/3x3_reduce <- inception_4c/output_inception_4c/output_0_split_1
I0202 13:47:03.440053 99956 net.cpp:408] inception_4d/3x3_reduce -> inception_4d/3x3_reduce
I0202 13:47:03.440759 99956 net.cpp:150] Setting up inception_4d/3x3_reduce
I0202 13:47:03.440770 99956 net.cpp:157] Top shape: 112 144 14 14 (3161088)
I0202 13:47:03.440773 99956 net.cpp:165] Memory required for data: 5218209028
I0202 13:47:03.440780 99956 layer_factory.hpp:77] Creating layer inception_4d/relu_3x3_reduce
I0202 13:47:03.440788 99956 net.cpp:100] Creating Layer inception_4d/relu_3x3_reduce
I0202 13:47:03.440793 99956 net.cpp:434] inception_4d/relu_3x3_reduce <- inception_4d/3x3_reduce
I0202 13:47:03.440798 99956 net.cpp:395] inception_4d/relu_3x3_reduce -> inception_4d/3x3_reduce (in-place)
I0202 13:47:03.440805 99956 net.cpp:150] Setting up inception_4d/relu_3x3_reduce
I0202 13:47:03.440810 99956 net.cpp:157] Top shape: 112 144 14 14 (3161088)
I0202 13:47:03.440814 99956 net.cpp:165] Memory required for data: 5230853380
I0202 13:47:03.440817 99956 layer_factory.hpp:77] Creating layer inception_4d/3x3
I0202 13:47:03.440825 99956 net.cpp:100] Creating Layer inception_4d/3x3
I0202 13:47:03.440829 99956 net.cpp:434] inception_4d/3x3 <- inception_4d/3x3_reduce
I0202 13:47:03.440838 99956 net.cpp:408] inception_4d/3x3 -> inception_4d/3x3
I0202 13:47:03.444651 99956 net.cpp:150] Setting up inception_4d/3x3
I0202 13:47:03.444664 99956 net.cpp:157] Top shape: 112 288 14 14 (6322176)
I0202 13:47:03.444667 99956 net.cpp:165] Memory required for data: 5256142084
I0202 13:47:03.444674 99956 layer_factory.hpp:77] Creating layer inception_4d/relu_3x3
I0202 13:47:03.444679 99956 net.cpp:100] Creating Layer inception_4d/relu_3x3
I0202 13:47:03.444684 99956 net.cpp:434] inception_4d/relu_3x3 <- inception_4d/3x3
I0202 13:47:03.444689 99956 net.cpp:395] inception_4d/relu_3x3 -> inception_4d/3x3 (in-place)
I0202 13:47:03.444696 99956 net.cpp:150] Setting up inception_4d/relu_3x3
I0202 13:47:03.444701 99956 net.cpp:157] Top shape: 112 288 14 14 (6322176)
I0202 13:47:03.444705 99956 net.cpp:165] Memory required for data: 5281430788
I0202 13:47:03.444708 99956 layer_factory.hpp:77] Creating layer inception_4d/5x5_reduce
I0202 13:47:03.444720 99956 net.cpp:100] Creating Layer inception_4d/5x5_reduce
I0202 13:47:03.444723 99956 net.cpp:434] inception_4d/5x5_reduce <- inception_4c/output_inception_4c/output_0_split_2
I0202 13:47:03.444730 99956 net.cpp:408] inception_4d/5x5_reduce -> inception_4d/5x5_reduce
I0202 13:47:03.444911 99956 net.cpp:150] Setting up inception_4d/5x5_reduce
I0202 13:47:03.444921 99956 net.cpp:157] Top shape: 112 32 14 14 (702464)
I0202 13:47:03.444924 99956 net.cpp:165] Memory required for data: 5284240644
I0202 13:47:03.444931 99956 layer_factory.hpp:77] Creating layer inception_4d/relu_5x5_reduce
I0202 13:47:03.444937 99956 net.cpp:100] Creating Layer inception_4d/relu_5x5_reduce
I0202 13:47:03.444941 99956 net.cpp:434] inception_4d/relu_5x5_reduce <- inception_4d/5x5_reduce
I0202 13:47:03.444947 99956 net.cpp:395] inception_4d/relu_5x5_reduce -> inception_4d/5x5_reduce (in-place)
I0202 13:47:03.444953 99956 net.cpp:150] Setting up inception_4d/relu_5x5_reduce
I0202 13:47:03.444958 99956 net.cpp:157] Top shape: 112 32 14 14 (702464)
I0202 13:47:03.444962 99956 net.cpp:165] Memory required for data: 5287050500
I0202 13:47:03.444965 99956 layer_factory.hpp:77] Creating layer inception_4d/5x5
I0202 13:47:03.444977 99956 net.cpp:100] Creating Layer inception_4d/5x5
I0202 13:47:03.444980 99956 net.cpp:434] inception_4d/5x5 <- inception_4d/5x5_reduce
I0202 13:47:03.444988 99956 net.cpp:408] inception_4d/5x5 -> inception_4d/5x5
I0202 13:47:03.445488 99956 net.cpp:150] Setting up inception_4d/5x5
I0202 13:47:03.445497 99956 net.cpp:157] Top shape: 112 64 14 14 (1404928)
I0202 13:47:03.445500 99956 net.cpp:165] Memory required for data: 5292670212
I0202 13:47:03.445508 99956 layer_factory.hpp:77] Creating layer inception_4d/relu_5x5
I0202 13:47:03.445513 99956 net.cpp:100] Creating Layer inception_4d/relu_5x5
I0202 13:47:03.445534 99956 net.cpp:434] inception_4d/relu_5x5 <- inception_4d/5x5
I0202 13:47:03.445544 99956 net.cpp:395] inception_4d/relu_5x5 -> inception_4d/5x5 (in-place)
I0202 13:47:03.445550 99956 net.cpp:150] Setting up inception_4d/relu_5x5
I0202 13:47:03.445555 99956 net.cpp:157] Top shape: 112 64 14 14 (1404928)
I0202 13:47:03.445559 99956 net.cpp:165] Memory required for data: 5298289924
I0202 13:47:03.445562 99956 layer_factory.hpp:77] Creating layer inception_4d/pool
I0202 13:47:03.445569 99956 net.cpp:100] Creating Layer inception_4d/pool
I0202 13:47:03.445574 99956 net.cpp:434] inception_4d/pool <- inception_4c/output_inception_4c/output_0_split_3
I0202 13:47:03.445581 99956 net.cpp:408] inception_4d/pool -> inception_4d/pool
I0202 13:47:03.445591 99956 net.cpp:150] Setting up inception_4d/pool
I0202 13:47:03.445596 99956 net.cpp:157] Top shape: 112 512 14 14 (11239424)
I0202 13:47:03.445600 99956 net.cpp:165] Memory required for data: 5343247620
I0202 13:47:03.445603 99956 layer_factory.hpp:77] Creating layer inception_4d/pool_proj
I0202 13:47:03.445613 99956 net.cpp:100] Creating Layer inception_4d/pool_proj
I0202 13:47:03.445618 99956 net.cpp:434] inception_4d/pool_proj <- inception_4d/pool
I0202 13:47:03.445631 99956 net.cpp:408] inception_4d/pool_proj -> inception_4d/pool_proj
I0202 13:47:03.445950 99956 net.cpp:150] Setting up inception_4d/pool_proj
I0202 13:47:03.445961 99956 net.cpp:157] Top shape: 112 64 14 14 (1404928)
I0202 13:47:03.445965 99956 net.cpp:165] Memory required for data: 5348867332
I0202 13:47:03.445971 99956 layer_factory.hpp:77] Creating layer inception_4d/relu_pool_proj
I0202 13:47:03.445977 99956 net.cpp:100] Creating Layer inception_4d/relu_pool_proj
I0202 13:47:03.445982 99956 net.cpp:434] inception_4d/relu_pool_proj <- inception_4d/pool_proj
I0202 13:47:03.445987 99956 net.cpp:395] inception_4d/relu_pool_proj -> inception_4d/pool_proj (in-place)
I0202 13:47:03.445994 99956 net.cpp:150] Setting up inception_4d/relu_pool_proj
I0202 13:47:03.445999 99956 net.cpp:157] Top shape: 112 64 14 14 (1404928)
I0202 13:47:03.446002 99956 net.cpp:165] Memory required for data: 5354487044
I0202 13:47:03.446007 99956 layer_factory.hpp:77] Creating layer inception_4d/output
I0202 13:47:03.446012 99956 net.cpp:100] Creating Layer inception_4d/output
I0202 13:47:03.446017 99956 net.cpp:434] inception_4d/output <- inception_4d/1x1
I0202 13:47:03.446022 99956 net.cpp:434] inception_4d/output <- inception_4d/3x3
I0202 13:47:03.446027 99956 net.cpp:434] inception_4d/output <- inception_4d/5x5
I0202 13:47:03.446032 99956 net.cpp:434] inception_4d/output <- inception_4d/pool_proj
I0202 13:47:03.446039 99956 net.cpp:408] inception_4d/output -> inception_4d/output
I0202 13:47:03.446048 99956 net.cpp:150] Setting up inception_4d/output
I0202 13:47:03.446053 99956 net.cpp:157] Top shape: 112 528 14 14 (11590656)
I0202 13:47:03.446055 99956 net.cpp:165] Memory required for data: 5400849668
I0202 13:47:03.446059 99956 layer_factory.hpp:77] Creating layer inception_4d/output_inception_4d/output_0_split
I0202 13:47:03.446071 99956 net.cpp:100] Creating Layer inception_4d/output_inception_4d/output_0_split
I0202 13:47:03.446075 99956 net.cpp:434] inception_4d/output_inception_4d/output_0_split <- inception_4d/output
I0202 13:47:03.446081 99956 net.cpp:408] inception_4d/output_inception_4d/output_0_split -> inception_4d/output_inception_4d/output_0_split_0
I0202 13:47:03.446089 99956 net.cpp:408] inception_4d/output_inception_4d/output_0_split -> inception_4d/output_inception_4d/output_0_split_1
I0202 13:47:03.446096 99956 net.cpp:408] inception_4d/output_inception_4d/output_0_split -> inception_4d/output_inception_4d/output_0_split_2
I0202 13:47:03.446104 99956 net.cpp:408] inception_4d/output_inception_4d/output_0_split -> inception_4d/output_inception_4d/output_0_split_3
I0202 13:47:03.446111 99956 net.cpp:408] inception_4d/output_inception_4d/output_0_split -> inception_4d/output_inception_4d/output_0_split_4
I0202 13:47:03.446120 99956 net.cpp:150] Setting up inception_4d/output_inception_4d/output_0_split
I0202 13:47:03.446137 99956 net.cpp:157] Top shape: 112 528 14 14 (11590656)
I0202 13:47:03.446142 99956 net.cpp:157] Top shape: 112 528 14 14 (11590656)
I0202 13:47:03.446147 99956 net.cpp:157] Top shape: 112 528 14 14 (11590656)
I0202 13:47:03.446151 99956 net.cpp:157] Top shape: 112 528 14 14 (11590656)
I0202 13:47:03.446156 99956 net.cpp:157] Top shape: 112 528 14 14 (11590656)
I0202 13:47:03.446159 99956 net.cpp:165] Memory required for data: 5632662788
I0202 13:47:03.446163 99956 layer_factory.hpp:77] Creating layer loss2/ave_pool
I0202 13:47:03.446171 99956 net.cpp:100] Creating Layer loss2/ave_pool
I0202 13:47:03.446177 99956 net.cpp:434] loss2/ave_pool <- inception_4d/output_inception_4d/output_0_split_0
I0202 13:47:03.446182 99956 net.cpp:408] loss2/ave_pool -> loss2/ave_pool
I0202 13:47:03.446190 99956 net.cpp:150] Setting up loss2/ave_pool
I0202 13:47:03.446195 99956 net.cpp:157] Top shape: 112 528 4 4 (946176)
I0202 13:47:03.446199 99956 net.cpp:165] Memory required for data: 5636447492
I0202 13:47:03.446203 99956 layer_factory.hpp:77] Creating layer loss2/conv
I0202 13:47:03.446214 99956 net.cpp:100] Creating Layer loss2/conv
I0202 13:47:03.446218 99956 net.cpp:434] loss2/conv <- loss2/ave_pool
I0202 13:47:03.446226 99956 net.cpp:408] loss2/conv -> loss2/conv
I0202 13:47:03.446882 99956 net.cpp:150] Setting up loss2/conv
I0202 13:47:03.446892 99956 net.cpp:157] Top shape: 112 128 4 4 (229376)
I0202 13:47:03.446895 99956 net.cpp:165] Memory required for data: 5637364996
I0202 13:47:03.446902 99956 layer_factory.hpp:77] Creating layer loss2/relu_conv
I0202 13:47:03.446908 99956 net.cpp:100] Creating Layer loss2/relu_conv
I0202 13:47:03.446913 99956 net.cpp:434] loss2/relu_conv <- loss2/conv
I0202 13:47:03.446919 99956 net.cpp:395] loss2/relu_conv -> loss2/conv (in-place)
I0202 13:47:03.446926 99956 net.cpp:150] Setting up loss2/relu_conv
I0202 13:47:03.446931 99956 net.cpp:157] Top shape: 112 128 4 4 (229376)
I0202 13:47:03.446934 99956 net.cpp:165] Memory required for data: 5638282500
I0202 13:47:03.446938 99956 layer_factory.hpp:77] Creating layer loss2/fc
I0202 13:47:03.446950 99956 net.cpp:100] Creating Layer loss2/fc
I0202 13:47:03.446955 99956 net.cpp:434] loss2/fc <- loss2/conv
I0202 13:47:03.446964 99956 net.cpp:408] loss2/fc -> loss2/fc
I0202 13:47:03.465495 99956 net.cpp:150] Setting up loss2/fc
I0202 13:47:03.465523 99956 net.cpp:157] Top shape: 112 1024 (114688)
I0202 13:47:03.465526 99956 net.cpp:165] Memory required for data: 5638741252
I0202 13:47:03.465536 99956 layer_factory.hpp:77] Creating layer loss2/relu_fc
I0202 13:47:03.465545 99956 net.cpp:100] Creating Layer loss2/relu_fc
I0202 13:47:03.465553 99956 net.cpp:434] loss2/relu_fc <- loss2/fc
I0202 13:47:03.465562 99956 net.cpp:395] loss2/relu_fc -> loss2/fc (in-place)
I0202 13:47:03.465571 99956 net.cpp:150] Setting up loss2/relu_fc
I0202 13:47:03.465576 99956 net.cpp:157] Top shape: 112 1024 (114688)
I0202 13:47:03.465580 99956 net.cpp:165] Memory required for data: 5639200004
I0202 13:47:03.465584 99956 layer_factory.hpp:77] Creating layer loss2/drop_fc
I0202 13:47:03.465591 99956 net.cpp:100] Creating Layer loss2/drop_fc
I0202 13:47:03.465595 99956 net.cpp:434] loss2/drop_fc <- loss2/fc
I0202 13:47:03.465601 99956 net.cpp:395] loss2/drop_fc -> loss2/fc (in-place)
I0202 13:47:03.465611 99956 net.cpp:150] Setting up loss2/drop_fc
I0202 13:47:03.465616 99956 net.cpp:157] Top shape: 112 1024 (114688)
I0202 13:47:03.465620 99956 net.cpp:165] Memory required for data: 5639658756
I0202 13:47:03.465627 99956 layer_factory.hpp:77] Creating layer loss2/classifier
I0202 13:47:03.465637 99956 net.cpp:100] Creating Layer loss2/classifier
I0202 13:47:03.465641 99956 net.cpp:434] loss2/classifier <- loss2/fc
I0202 13:47:03.465651 99956 net.cpp:408] loss2/classifier -> loss2/classifier
I0202 13:47:03.475127 99956 net.cpp:150] Setting up loss2/classifier
I0202 13:47:03.475141 99956 net.cpp:157] Top shape: 112 1000 (112000)
I0202 13:47:03.475144 99956 net.cpp:165] Memory required for data: 5640106756
I0202 13:47:03.475165 99956 layer_factory.hpp:77] Creating layer loss2/loss
I0202 13:47:03.475190 99956 net.cpp:100] Creating Layer loss2/loss
I0202 13:47:03.475195 99956 net.cpp:434] loss2/loss <- loss2/classifier
I0202 13:47:03.475203 99956 net.cpp:434] loss2/loss <- label_data_1_split_1
I0202 13:47:03.475209 99956 net.cpp:408] loss2/loss -> loss2/loss1
I0202 13:47:03.475220 99956 layer_factory.hpp:77] Creating layer loss2/loss
I0202 13:47:03.475533 99956 net.cpp:150] Setting up loss2/loss
I0202 13:47:03.475539 99956 net.cpp:157] Top shape: (1)
I0202 13:47:03.475543 99956 net.cpp:160]     with loss weight 0.3
I0202 13:47:03.475563 99956 net.cpp:165] Memory required for data: 5640106760
I0202 13:47:03.475566 99956 layer_factory.hpp:77] Creating layer inception_4e/1x1
I0202 13:47:03.475579 99956 net.cpp:100] Creating Layer inception_4e/1x1
I0202 13:47:03.475585 99956 net.cpp:434] inception_4e/1x1 <- inception_4d/output_inception_4d/output_0_split_1
I0202 13:47:03.475597 99956 net.cpp:408] inception_4e/1x1 -> inception_4e/1x1
I0202 13:47:03.476855 99956 net.cpp:150] Setting up inception_4e/1x1
I0202 13:47:03.476864 99956 net.cpp:157] Top shape: 112 256 14 14 (5619712)
I0202 13:47:03.476868 99956 net.cpp:165] Memory required for data: 5662585608
I0202 13:47:03.476876 99956 layer_factory.hpp:77] Creating layer inception_4e/relu_1x1
I0202 13:47:03.476882 99956 net.cpp:100] Creating Layer inception_4e/relu_1x1
I0202 13:47:03.476887 99956 net.cpp:434] inception_4e/relu_1x1 <- inception_4e/1x1
I0202 13:47:03.476892 99956 net.cpp:395] inception_4e/relu_1x1 -> inception_4e/1x1 (in-place)
I0202 13:47:03.476899 99956 net.cpp:150] Setting up inception_4e/relu_1x1
I0202 13:47:03.476904 99956 net.cpp:157] Top shape: 112 256 14 14 (5619712)
I0202 13:47:03.476908 99956 net.cpp:165] Memory required for data: 5685064456
I0202 13:47:03.476912 99956 layer_factory.hpp:77] Creating layer inception_4e/3x3_reduce
I0202 13:47:03.476923 99956 net.cpp:100] Creating Layer inception_4e/3x3_reduce
I0202 13:47:03.476928 99956 net.cpp:434] inception_4e/3x3_reduce <- inception_4d/output_inception_4d/output_0_split_2
I0202 13:47:03.476935 99956 net.cpp:408] inception_4e/3x3_reduce -> inception_4e/3x3_reduce
I0202 13:47:03.477722 99956 net.cpp:150] Setting up inception_4e/3x3_reduce
I0202 13:47:03.477732 99956 net.cpp:157] Top shape: 112 160 14 14 (3512320)
I0202 13:47:03.477735 99956 net.cpp:165] Memory required for data: 5699113736
I0202 13:47:03.477742 99956 layer_factory.hpp:77] Creating layer inception_4e/relu_3x3_reduce
I0202 13:47:03.477748 99956 net.cpp:100] Creating Layer inception_4e/relu_3x3_reduce
I0202 13:47:03.477753 99956 net.cpp:434] inception_4e/relu_3x3_reduce <- inception_4e/3x3_reduce
I0202 13:47:03.477762 99956 net.cpp:395] inception_4e/relu_3x3_reduce -> inception_4e/3x3_reduce (in-place)
I0202 13:47:03.477768 99956 net.cpp:150] Setting up inception_4e/relu_3x3_reduce
I0202 13:47:03.477773 99956 net.cpp:157] Top shape: 112 160 14 14 (3512320)
I0202 13:47:03.477777 99956 net.cpp:165] Memory required for data: 5713163016
I0202 13:47:03.477780 99956 layer_factory.hpp:77] Creating layer inception_4e/3x3
I0202 13:47:03.477789 99956 net.cpp:100] Creating Layer inception_4e/3x3
I0202 13:47:03.477793 99956 net.cpp:434] inception_4e/3x3 <- inception_4e/3x3_reduce
I0202 13:47:03.477799 99956 net.cpp:408] inception_4e/3x3 -> inception_4e/3x3
I0202 13:47:03.482445 99956 net.cpp:150] Setting up inception_4e/3x3
I0202 13:47:03.482455 99956 net.cpp:157] Top shape: 112 320 14 14 (7024640)
I0202 13:47:03.482460 99956 net.cpp:165] Memory required for data: 5741261576
I0202 13:47:03.482466 99956 layer_factory.hpp:77] Creating layer inception_4e/relu_3x3
I0202 13:47:03.482473 99956 net.cpp:100] Creating Layer inception_4e/relu_3x3
I0202 13:47:03.482477 99956 net.cpp:434] inception_4e/relu_3x3 <- inception_4e/3x3
I0202 13:47:03.482483 99956 net.cpp:395] inception_4e/relu_3x3 -> inception_4e/3x3 (in-place)
I0202 13:47:03.482489 99956 net.cpp:150] Setting up inception_4e/relu_3x3
I0202 13:47:03.482494 99956 net.cpp:157] Top shape: 112 320 14 14 (7024640)
I0202 13:47:03.482503 99956 net.cpp:165] Memory required for data: 5769360136
I0202 13:47:03.482514 99956 layer_factory.hpp:77] Creating layer inception_4e/5x5_reduce
I0202 13:47:03.482523 99956 net.cpp:100] Creating Layer inception_4e/5x5_reduce
I0202 13:47:03.482528 99956 net.cpp:434] inception_4e/5x5_reduce <- inception_4d/output_inception_4d/output_0_split_3
I0202 13:47:03.482537 99956 net.cpp:408] inception_4e/5x5_reduce -> inception_4e/5x5_reduce
I0202 13:47:03.482703 99956 net.cpp:150] Setting up inception_4e/5x5_reduce
I0202 13:47:03.482712 99956 net.cpp:157] Top shape: 112 32 14 14 (702464)
I0202 13:47:03.482715 99956 net.cpp:165] Memory required for data: 5772169992
I0202 13:47:03.482722 99956 layer_factory.hpp:77] Creating layer inception_4e/relu_5x5_reduce
I0202 13:47:03.482728 99956 net.cpp:100] Creating Layer inception_4e/relu_5x5_reduce
I0202 13:47:03.482733 99956 net.cpp:434] inception_4e/relu_5x5_reduce <- inception_4e/5x5_reduce
I0202 13:47:03.482743 99956 net.cpp:395] inception_4e/relu_5x5_reduce -> inception_4e/5x5_reduce (in-place)
I0202 13:47:03.482749 99956 net.cpp:150] Setting up inception_4e/relu_5x5_reduce
I0202 13:47:03.482754 99956 net.cpp:157] Top shape: 112 32 14 14 (702464)
I0202 13:47:03.482758 99956 net.cpp:165] Memory required for data: 5774979848
I0202 13:47:03.482762 99956 layer_factory.hpp:77] Creating layer inception_4e/5x5
I0202 13:47:03.482800 99956 net.cpp:100] Creating Layer inception_4e/5x5
I0202 13:47:03.482803 99956 net.cpp:434] inception_4e/5x5 <- inception_4e/5x5_reduce
I0202 13:47:03.482810 99956 net.cpp:408] inception_4e/5x5 -> inception_4e/5x5
I0202 13:47:03.483757 99956 net.cpp:150] Setting up inception_4e/5x5
I0202 13:47:03.483767 99956 net.cpp:157] Top shape: 112 128 14 14 (2809856)
I0202 13:47:03.483770 99956 net.cpp:165] Memory required for data: 5786219272
I0202 13:47:03.483778 99956 layer_factory.hpp:77] Creating layer inception_4e/relu_5x5
I0202 13:47:03.483784 99956 net.cpp:100] Creating Layer inception_4e/relu_5x5
I0202 13:47:03.483788 99956 net.cpp:434] inception_4e/relu_5x5 <- inception_4e/5x5
I0202 13:47:03.483796 99956 net.cpp:395] inception_4e/relu_5x5 -> inception_4e/5x5 (in-place)
I0202 13:47:03.483803 99956 net.cpp:150] Setting up inception_4e/relu_5x5
I0202 13:47:03.483808 99956 net.cpp:157] Top shape: 112 128 14 14 (2809856)
I0202 13:47:03.483811 99956 net.cpp:165] Memory required for data: 5797458696
I0202 13:47:03.483815 99956 layer_factory.hpp:77] Creating layer inception_4e/pool
I0202 13:47:03.483824 99956 net.cpp:100] Creating Layer inception_4e/pool
I0202 13:47:03.483829 99956 net.cpp:434] inception_4e/pool <- inception_4d/output_inception_4d/output_0_split_4
I0202 13:47:03.483835 99956 net.cpp:408] inception_4e/pool -> inception_4e/pool
I0202 13:47:03.483849 99956 net.cpp:150] Setting up inception_4e/pool
I0202 13:47:03.483853 99956 net.cpp:157] Top shape: 112 528 14 14 (11590656)
I0202 13:47:03.483857 99956 net.cpp:165] Memory required for data: 5843821320
I0202 13:47:03.483860 99956 layer_factory.hpp:77] Creating layer inception_4e/pool_proj
I0202 13:47:03.483871 99956 net.cpp:100] Creating Layer inception_4e/pool_proj
I0202 13:47:03.483875 99956 net.cpp:434] inception_4e/pool_proj <- inception_4e/pool
I0202 13:47:03.483885 99956 net.cpp:408] inception_4e/pool_proj -> inception_4e/pool_proj
I0202 13:47:03.484519 99956 net.cpp:150] Setting up inception_4e/pool_proj
I0202 13:47:03.484526 99956 net.cpp:157] Top shape: 112 128 14 14 (2809856)
I0202 13:47:03.484530 99956 net.cpp:165] Memory required for data: 5855060744
I0202 13:47:03.484536 99956 layer_factory.hpp:77] Creating layer inception_4e/relu_pool_proj
I0202 13:47:03.484542 99956 net.cpp:100] Creating Layer inception_4e/relu_pool_proj
I0202 13:47:03.484547 99956 net.cpp:434] inception_4e/relu_pool_proj <- inception_4e/pool_proj
I0202 13:47:03.484555 99956 net.cpp:395] inception_4e/relu_pool_proj -> inception_4e/pool_proj (in-place)
I0202 13:47:03.484562 99956 net.cpp:150] Setting up inception_4e/relu_pool_proj
I0202 13:47:03.484566 99956 net.cpp:157] Top shape: 112 128 14 14 (2809856)
I0202 13:47:03.484570 99956 net.cpp:165] Memory required for data: 5866300168
I0202 13:47:03.484586 99956 layer_factory.hpp:77] Creating layer inception_4e/output
I0202 13:47:03.484594 99956 net.cpp:100] Creating Layer inception_4e/output
I0202 13:47:03.484598 99956 net.cpp:434] inception_4e/output <- inception_4e/1x1
I0202 13:47:03.484603 99956 net.cpp:434] inception_4e/output <- inception_4e/3x3
I0202 13:47:03.484609 99956 net.cpp:434] inception_4e/output <- inception_4e/5x5
I0202 13:47:03.484619 99956 net.cpp:434] inception_4e/output <- inception_4e/pool_proj
I0202 13:47:03.484629 99956 net.cpp:408] inception_4e/output -> inception_4e/output
I0202 13:47:03.484640 99956 net.cpp:150] Setting up inception_4e/output
I0202 13:47:03.484647 99956 net.cpp:157] Top shape: 112 832 14 14 (18264064)
I0202 13:47:03.484650 99956 net.cpp:165] Memory required for data: 5939356424
I0202 13:47:03.484654 99956 layer_factory.hpp:77] Creating layer pool4/3x3_s2
I0202 13:47:03.484660 99956 net.cpp:100] Creating Layer pool4/3x3_s2
I0202 13:47:03.484665 99956 net.cpp:434] pool4/3x3_s2 <- inception_4e/output
I0202 13:47:03.484671 99956 net.cpp:408] pool4/3x3_s2 -> pool4/3x3_s2
I0202 13:47:03.484680 99956 net.cpp:150] Setting up pool4/3x3_s2
I0202 13:47:03.484685 99956 net.cpp:157] Top shape: 112 832 7 7 (4566016)
I0202 13:47:03.484689 99956 net.cpp:165] Memory required for data: 5957620488
I0202 13:47:03.484694 99956 layer_factory.hpp:77] Creating layer pool4/3x3_s2_pool4/3x3_s2_0_split
I0202 13:47:03.484704 99956 net.cpp:100] Creating Layer pool4/3x3_s2_pool4/3x3_s2_0_split
I0202 13:47:03.484707 99956 net.cpp:434] pool4/3x3_s2_pool4/3x3_s2_0_split <- pool4/3x3_s2
I0202 13:47:03.484714 99956 net.cpp:408] pool4/3x3_s2_pool4/3x3_s2_0_split -> pool4/3x3_s2_pool4/3x3_s2_0_split_0
I0202 13:47:03.484720 99956 net.cpp:408] pool4/3x3_s2_pool4/3x3_s2_0_split -> pool4/3x3_s2_pool4/3x3_s2_0_split_1
I0202 13:47:03.484727 99956 net.cpp:408] pool4/3x3_s2_pool4/3x3_s2_0_split -> pool4/3x3_s2_pool4/3x3_s2_0_split_2
I0202 13:47:03.484735 99956 net.cpp:408] pool4/3x3_s2_pool4/3x3_s2_0_split -> pool4/3x3_s2_pool4/3x3_s2_0_split_3
I0202 13:47:03.484742 99956 net.cpp:150] Setting up pool4/3x3_s2_pool4/3x3_s2_0_split
I0202 13:47:03.484747 99956 net.cpp:157] Top shape: 112 832 7 7 (4566016)
I0202 13:47:03.484752 99956 net.cpp:157] Top shape: 112 832 7 7 (4566016)
I0202 13:47:03.484756 99956 net.cpp:157] Top shape: 112 832 7 7 (4566016)
I0202 13:47:03.484761 99956 net.cpp:157] Top shape: 112 832 7 7 (4566016)
I0202 13:47:03.484764 99956 net.cpp:165] Memory required for data: 6030676744
I0202 13:47:03.484768 99956 layer_factory.hpp:77] Creating layer inception_5a/1x1
I0202 13:47:03.484779 99956 net.cpp:100] Creating Layer inception_5a/1x1
I0202 13:47:03.484783 99956 net.cpp:434] inception_5a/1x1 <- pool4/3x3_s2_pool4/3x3_s2_0_split_0
I0202 13:47:03.484791 99956 net.cpp:408] inception_5a/1x1 -> inception_5a/1x1
I0202 13:47:03.486732 99956 net.cpp:150] Setting up inception_5a/1x1
I0202 13:47:03.486742 99956 net.cpp:157] Top shape: 112 256 7 7 (1404928)
I0202 13:47:03.486745 99956 net.cpp:165] Memory required for data: 6036296456
I0202 13:47:03.486752 99956 layer_factory.hpp:77] Creating layer inception_5a/relu_1x1
I0202 13:47:03.486762 99956 net.cpp:100] Creating Layer inception_5a/relu_1x1
I0202 13:47:03.486766 99956 net.cpp:434] inception_5a/relu_1x1 <- inception_5a/1x1
I0202 13:47:03.486773 99956 net.cpp:395] inception_5a/relu_1x1 -> inception_5a/1x1 (in-place)
I0202 13:47:03.486779 99956 net.cpp:150] Setting up inception_5a/relu_1x1
I0202 13:47:03.486784 99956 net.cpp:157] Top shape: 112 256 7 7 (1404928)
I0202 13:47:03.486788 99956 net.cpp:165] Memory required for data: 6041916168
I0202 13:47:03.486791 99956 layer_factory.hpp:77] Creating layer inception_5a/3x3_reduce
I0202 13:47:03.486800 99956 net.cpp:100] Creating Layer inception_5a/3x3_reduce
I0202 13:47:03.486804 99956 net.cpp:434] inception_5a/3x3_reduce <- pool4/3x3_s2_pool4/3x3_s2_0_split_1
I0202 13:47:03.486814 99956 net.cpp:408] inception_5a/3x3_reduce -> inception_5a/3x3_reduce
I0202 13:47:03.488035 99956 net.cpp:150] Setting up inception_5a/3x3_reduce
I0202 13:47:03.488050 99956 net.cpp:157] Top shape: 112 160 7 7 (878080)
I0202 13:47:03.488060 99956 net.cpp:165] Memory required for data: 6045428488
I0202 13:47:03.488067 99956 layer_factory.hpp:77] Creating layer inception_5a/relu_3x3_reduce
I0202 13:47:03.488076 99956 net.cpp:100] Creating Layer inception_5a/relu_3x3_reduce
I0202 13:47:03.488080 99956 net.cpp:434] inception_5a/relu_3x3_reduce <- inception_5a/3x3_reduce
I0202 13:47:03.488086 99956 net.cpp:395] inception_5a/relu_3x3_reduce -> inception_5a/3x3_reduce (in-place)
I0202 13:47:03.488092 99956 net.cpp:150] Setting up inception_5a/relu_3x3_reduce
I0202 13:47:03.488098 99956 net.cpp:157] Top shape: 112 160 7 7 (878080)
I0202 13:47:03.488101 99956 net.cpp:165] Memory required for data: 6048940808
I0202 13:47:03.488106 99956 layer_factory.hpp:77] Creating layer inception_5a/3x3
I0202 13:47:03.488114 99956 net.cpp:100] Creating Layer inception_5a/3x3
I0202 13:47:03.488118 99956 net.cpp:434] inception_5a/3x3 <- inception_5a/3x3_reduce
I0202 13:47:03.488127 99956 net.cpp:408] inception_5a/3x3 -> inception_5a/3x3
I0202 13:47:03.492693 99956 net.cpp:150] Setting up inception_5a/3x3
I0202 13:47:03.492703 99956 net.cpp:157] Top shape: 112 320 7 7 (1756160)
I0202 13:47:03.492707 99956 net.cpp:165] Memory required for data: 6055965448
I0202 13:47:03.492714 99956 layer_factory.hpp:77] Creating layer inception_5a/relu_3x3
I0202 13:47:03.492719 99956 net.cpp:100] Creating Layer inception_5a/relu_3x3
I0202 13:47:03.492724 99956 net.cpp:434] inception_5a/relu_3x3 <- inception_5a/3x3
I0202 13:47:03.492729 99956 net.cpp:395] inception_5a/relu_3x3 -> inception_5a/3x3 (in-place)
I0202 13:47:03.492736 99956 net.cpp:150] Setting up inception_5a/relu_3x3
I0202 13:47:03.492740 99956 net.cpp:157] Top shape: 112 320 7 7 (1756160)
I0202 13:47:03.492744 99956 net.cpp:165] Memory required for data: 6062990088
I0202 13:47:03.492748 99956 layer_factory.hpp:77] Creating layer inception_5a/5x5_reduce
I0202 13:47:03.492758 99956 net.cpp:100] Creating Layer inception_5a/5x5_reduce
I0202 13:47:03.492763 99956 net.cpp:434] inception_5a/5x5_reduce <- pool4/3x3_s2_pool4/3x3_s2_0_split_2
I0202 13:47:03.492769 99956 net.cpp:408] inception_5a/5x5_reduce -> inception_5a/5x5_reduce
I0202 13:47:03.493016 99956 net.cpp:150] Setting up inception_5a/5x5_reduce
I0202 13:47:03.493023 99956 net.cpp:157] Top shape: 112 32 7 7 (175616)
I0202 13:47:03.493026 99956 net.cpp:165] Memory required for data: 6063692552
I0202 13:47:03.493033 99956 layer_factory.hpp:77] Creating layer inception_5a/relu_5x5_reduce
I0202 13:47:03.493041 99956 net.cpp:100] Creating Layer inception_5a/relu_5x5_reduce
I0202 13:47:03.493046 99956 net.cpp:434] inception_5a/relu_5x5_reduce <- inception_5a/5x5_reduce
I0202 13:47:03.493052 99956 net.cpp:395] inception_5a/relu_5x5_reduce -> inception_5a/5x5_reduce (in-place)
I0202 13:47:03.493057 99956 net.cpp:150] Setting up inception_5a/relu_5x5_reduce
I0202 13:47:03.493062 99956 net.cpp:157] Top shape: 112 32 7 7 (175616)
I0202 13:47:03.493065 99956 net.cpp:165] Memory required for data: 6064395016
I0202 13:47:03.493069 99956 layer_factory.hpp:77] Creating layer inception_5a/5x5
I0202 13:47:03.493079 99956 net.cpp:100] Creating Layer inception_5a/5x5
I0202 13:47:03.493083 99956 net.cpp:434] inception_5a/5x5 <- inception_5a/5x5_reduce
I0202 13:47:03.493093 99956 net.cpp:408] inception_5a/5x5 -> inception_5a/5x5
I0202 13:47:03.494027 99956 net.cpp:150] Setting up inception_5a/5x5
I0202 13:47:03.494040 99956 net.cpp:157] Top shape: 112 128 7 7 (702464)
I0202 13:47:03.494043 99956 net.cpp:165] Memory required for data: 6067204872
I0202 13:47:03.494050 99956 layer_factory.hpp:77] Creating layer inception_5a/relu_5x5
I0202 13:47:03.494055 99956 net.cpp:100] Creating Layer inception_5a/relu_5x5
I0202 13:47:03.494060 99956 net.cpp:434] inception_5a/relu_5x5 <- inception_5a/5x5
I0202 13:47:03.494065 99956 net.cpp:395] inception_5a/relu_5x5 -> inception_5a/5x5 (in-place)
I0202 13:47:03.494071 99956 net.cpp:150] Setting up inception_5a/relu_5x5
I0202 13:47:03.494076 99956 net.cpp:157] Top shape: 112 128 7 7 (702464)
I0202 13:47:03.494091 99956 net.cpp:165] Memory required for data: 6070014728
I0202 13:47:03.494096 99956 layer_factory.hpp:77] Creating layer inception_5a/pool
I0202 13:47:03.494104 99956 net.cpp:100] Creating Layer inception_5a/pool
I0202 13:47:03.494108 99956 net.cpp:434] inception_5a/pool <- pool4/3x3_s2_pool4/3x3_s2_0_split_3
I0202 13:47:03.494115 99956 net.cpp:408] inception_5a/pool -> inception_5a/pool
I0202 13:47:03.494124 99956 net.cpp:150] Setting up inception_5a/pool
I0202 13:47:03.494129 99956 net.cpp:157] Top shape: 112 832 7 7 (4566016)
I0202 13:47:03.494133 99956 net.cpp:165] Memory required for data: 6088278792
I0202 13:47:03.494138 99956 layer_factory.hpp:77] Creating layer inception_5a/pool_proj
I0202 13:47:03.494148 99956 net.cpp:100] Creating Layer inception_5a/pool_proj
I0202 13:47:03.494153 99956 net.cpp:434] inception_5a/pool_proj <- inception_5a/pool
I0202 13:47:03.494161 99956 net.cpp:408] inception_5a/pool_proj -> inception_5a/pool_proj
I0202 13:47:03.495149 99956 net.cpp:150] Setting up inception_5a/pool_proj
I0202 13:47:03.495159 99956 net.cpp:157] Top shape: 112 128 7 7 (702464)
I0202 13:47:03.495163 99956 net.cpp:165] Memory required for data: 6091088648
I0202 13:47:03.495169 99956 layer_factory.hpp:77] Creating layer inception_5a/relu_pool_proj
I0202 13:47:03.495175 99956 net.cpp:100] Creating Layer inception_5a/relu_pool_proj
I0202 13:47:03.495180 99956 net.cpp:434] inception_5a/relu_pool_proj <- inception_5a/pool_proj
I0202 13:47:03.495187 99956 net.cpp:395] inception_5a/relu_pool_proj -> inception_5a/pool_proj (in-place)
I0202 13:47:03.495194 99956 net.cpp:150] Setting up inception_5a/relu_pool_proj
I0202 13:47:03.495199 99956 net.cpp:157] Top shape: 112 128 7 7 (702464)
I0202 13:47:03.495203 99956 net.cpp:165] Memory required for data: 6093898504
I0202 13:47:03.495206 99956 layer_factory.hpp:77] Creating layer inception_5a/output
I0202 13:47:03.495213 99956 net.cpp:100] Creating Layer inception_5a/output
I0202 13:47:03.495218 99956 net.cpp:434] inception_5a/output <- inception_5a/1x1
I0202 13:47:03.495223 99956 net.cpp:434] inception_5a/output <- inception_5a/3x3
I0202 13:47:03.495227 99956 net.cpp:434] inception_5a/output <- inception_5a/5x5
I0202 13:47:03.495231 99956 net.cpp:434] inception_5a/output <- inception_5a/pool_proj
I0202 13:47:03.495239 99956 net.cpp:408] inception_5a/output -> inception_5a/output
I0202 13:47:03.495249 99956 net.cpp:150] Setting up inception_5a/output
I0202 13:47:03.495254 99956 net.cpp:157] Top shape: 112 832 7 7 (4566016)
I0202 13:47:03.495256 99956 net.cpp:165] Memory required for data: 6112162568
I0202 13:47:03.495260 99956 layer_factory.hpp:77] Creating layer inception_5a/output_inception_5a/output_0_split
I0202 13:47:03.495266 99956 net.cpp:100] Creating Layer inception_5a/output_inception_5a/output_0_split
I0202 13:47:03.495271 99956 net.cpp:434] inception_5a/output_inception_5a/output_0_split <- inception_5a/output
I0202 13:47:03.495277 99956 net.cpp:408] inception_5a/output_inception_5a/output_0_split -> inception_5a/output_inception_5a/output_0_split_0
I0202 13:47:03.495286 99956 net.cpp:408] inception_5a/output_inception_5a/output_0_split -> inception_5a/output_inception_5a/output_0_split_1
I0202 13:47:03.495293 99956 net.cpp:408] inception_5a/output_inception_5a/output_0_split -> inception_5a/output_inception_5a/output_0_split_2
I0202 13:47:03.495299 99956 net.cpp:408] inception_5a/output_inception_5a/output_0_split -> inception_5a/output_inception_5a/output_0_split_3
I0202 13:47:03.495307 99956 net.cpp:150] Setting up inception_5a/output_inception_5a/output_0_split
I0202 13:47:03.495312 99956 net.cpp:157] Top shape: 112 832 7 7 (4566016)
I0202 13:47:03.495317 99956 net.cpp:157] Top shape: 112 832 7 7 (4566016)
I0202 13:47:03.495321 99956 net.cpp:157] Top shape: 112 832 7 7 (4566016)
I0202 13:47:03.495326 99956 net.cpp:157] Top shape: 112 832 7 7 (4566016)
I0202 13:47:03.495329 99956 net.cpp:165] Memory required for data: 6185218824
I0202 13:47:03.495333 99956 layer_factory.hpp:77] Creating layer inception_5b/1x1
I0202 13:47:03.495347 99956 net.cpp:100] Creating Layer inception_5b/1x1
I0202 13:47:03.495358 99956 net.cpp:434] inception_5b/1x1 <- inception_5a/output_inception_5a/output_0_split_0
I0202 13:47:03.495365 99956 net.cpp:408] inception_5b/1x1 -> inception_5b/1x1
I0202 13:47:03.498235 99956 net.cpp:150] Setting up inception_5b/1x1
I0202 13:47:03.498245 99956 net.cpp:157] Top shape: 112 384 7 7 (2107392)
I0202 13:47:03.498250 99956 net.cpp:165] Memory required for data: 6193648392
I0202 13:47:03.498256 99956 layer_factory.hpp:77] Creating layer inception_5b/relu_1x1
I0202 13:47:03.498265 99956 net.cpp:100] Creating Layer inception_5b/relu_1x1
I0202 13:47:03.498270 99956 net.cpp:434] inception_5b/relu_1x1 <- inception_5b/1x1
I0202 13:47:03.498275 99956 net.cpp:395] inception_5b/relu_1x1 -> inception_5b/1x1 (in-place)
I0202 13:47:03.498282 99956 net.cpp:150] Setting up inception_5b/relu_1x1
I0202 13:47:03.498287 99956 net.cpp:157] Top shape: 112 384 7 7 (2107392)
I0202 13:47:03.498291 99956 net.cpp:165] Memory required for data: 6202077960
I0202 13:47:03.498294 99956 layer_factory.hpp:77] Creating layer inception_5b/3x3_reduce
I0202 13:47:03.498303 99956 net.cpp:100] Creating Layer inception_5b/3x3_reduce
I0202 13:47:03.498307 99956 net.cpp:434] inception_5b/3x3_reduce <- inception_5a/output_inception_5a/output_0_split_1
I0202 13:47:03.498317 99956 net.cpp:408] inception_5b/3x3_reduce -> inception_5b/3x3_reduce
I0202 13:47:03.499776 99956 net.cpp:150] Setting up inception_5b/3x3_reduce
I0202 13:47:03.499785 99956 net.cpp:157] Top shape: 112 192 7 7 (1053696)
I0202 13:47:03.499789 99956 net.cpp:165] Memory required for data: 6206292744
I0202 13:47:03.499796 99956 layer_factory.hpp:77] Creating layer inception_5b/relu_3x3_reduce
I0202 13:47:03.499801 99956 net.cpp:100] Creating Layer inception_5b/relu_3x3_reduce
I0202 13:47:03.499806 99956 net.cpp:434] inception_5b/relu_3x3_reduce <- inception_5b/3x3_reduce
I0202 13:47:03.499812 99956 net.cpp:395] inception_5b/relu_3x3_reduce -> inception_5b/3x3_reduce (in-place)
I0202 13:47:03.499819 99956 net.cpp:150] Setting up inception_5b/relu_3x3_reduce
I0202 13:47:03.499824 99956 net.cpp:157] Top shape: 112 192 7 7 (1053696)
I0202 13:47:03.499827 99956 net.cpp:165] Memory required for data: 6210507528
I0202 13:47:03.499830 99956 layer_factory.hpp:77] Creating layer inception_5b/3x3
I0202 13:47:03.499840 99956 net.cpp:100] Creating Layer inception_5b/3x3
I0202 13:47:03.499843 99956 net.cpp:434] inception_5b/3x3 <- inception_5b/3x3_reduce
I0202 13:47:03.499852 99956 net.cpp:408] inception_5b/3x3 -> inception_5b/3x3
I0202 13:47:03.506456 99956 net.cpp:150] Setting up inception_5b/3x3
I0202 13:47:03.506469 99956 net.cpp:157] Top shape: 112 384 7 7 (2107392)
I0202 13:47:03.506472 99956 net.cpp:165] Memory required for data: 6218937096
I0202 13:47:03.506479 99956 layer_factory.hpp:77] Creating layer inception_5b/relu_3x3
I0202 13:47:03.506485 99956 net.cpp:100] Creating Layer inception_5b/relu_3x3
I0202 13:47:03.506490 99956 net.cpp:434] inception_5b/relu_3x3 <- inception_5b/3x3
I0202 13:47:03.506496 99956 net.cpp:395] inception_5b/relu_3x3 -> inception_5b/3x3 (in-place)
I0202 13:47:03.506503 99956 net.cpp:150] Setting up inception_5b/relu_3x3
I0202 13:47:03.506508 99956 net.cpp:157] Top shape: 112 384 7 7 (2107392)
I0202 13:47:03.506511 99956 net.cpp:165] Memory required for data: 6227366664
I0202 13:47:03.506515 99956 layer_factory.hpp:77] Creating layer inception_5b/5x5_reduce
I0202 13:47:03.506526 99956 net.cpp:100] Creating Layer inception_5b/5x5_reduce
I0202 13:47:03.506531 99956 net.cpp:434] inception_5b/5x5_reduce <- inception_5a/output_inception_5a/output_0_split_2
I0202 13:47:03.506537 99956 net.cpp:408] inception_5b/5x5_reduce -> inception_5b/5x5_reduce
I0202 13:47:03.506911 99956 net.cpp:150] Setting up inception_5b/5x5_reduce
I0202 13:47:03.506919 99956 net.cpp:157] Top shape: 112 48 7 7 (263424)
I0202 13:47:03.506923 99956 net.cpp:165] Memory required for data: 6228420360
I0202 13:47:03.506930 99956 layer_factory.hpp:77] Creating layer inception_5b/relu_5x5_reduce
I0202 13:47:03.506942 99956 net.cpp:100] Creating Layer inception_5b/relu_5x5_reduce
I0202 13:47:03.506954 99956 net.cpp:434] inception_5b/relu_5x5_reduce <- inception_5b/5x5_reduce
I0202 13:47:03.506960 99956 net.cpp:395] inception_5b/relu_5x5_reduce -> inception_5b/5x5_reduce (in-place)
I0202 13:47:03.506966 99956 net.cpp:150] Setting up inception_5b/relu_5x5_reduce
I0202 13:47:03.506971 99956 net.cpp:157] Top shape: 112 48 7 7 (263424)
I0202 13:47:03.506975 99956 net.cpp:165] Memory required for data: 6229474056
I0202 13:47:03.506978 99956 layer_factory.hpp:77] Creating layer inception_5b/5x5
I0202 13:47:03.506989 99956 net.cpp:100] Creating Layer inception_5b/5x5
I0202 13:47:03.506994 99956 net.cpp:434] inception_5b/5x5 <- inception_5b/5x5_reduce
I0202 13:47:03.507004 99956 net.cpp:408] inception_5b/5x5 -> inception_5b/5x5
I0202 13:47:03.508401 99956 net.cpp:150] Setting up inception_5b/5x5
I0202 13:47:03.508411 99956 net.cpp:157] Top shape: 112 128 7 7 (702464)
I0202 13:47:03.508414 99956 net.cpp:165] Memory required for data: 6232283912
I0202 13:47:03.508421 99956 layer_factory.hpp:77] Creating layer inception_5b/relu_5x5
I0202 13:47:03.508427 99956 net.cpp:100] Creating Layer inception_5b/relu_5x5
I0202 13:47:03.508432 99956 net.cpp:434] inception_5b/relu_5x5 <- inception_5b/5x5
I0202 13:47:03.508437 99956 net.cpp:395] inception_5b/relu_5x5 -> inception_5b/5x5 (in-place)
I0202 13:47:03.508443 99956 net.cpp:150] Setting up inception_5b/relu_5x5
I0202 13:47:03.508448 99956 net.cpp:157] Top shape: 112 128 7 7 (702464)
I0202 13:47:03.508451 99956 net.cpp:165] Memory required for data: 6235093768
I0202 13:47:03.508455 99956 layer_factory.hpp:77] Creating layer inception_5b/pool
I0202 13:47:03.508466 99956 net.cpp:100] Creating Layer inception_5b/pool
I0202 13:47:03.508469 99956 net.cpp:434] inception_5b/pool <- inception_5a/output_inception_5a/output_0_split_3
I0202 13:47:03.508476 99956 net.cpp:408] inception_5b/pool -> inception_5b/pool
I0202 13:47:03.508484 99956 net.cpp:150] Setting up inception_5b/pool
I0202 13:47:03.508489 99956 net.cpp:157] Top shape: 112 832 7 7 (4566016)
I0202 13:47:03.508496 99956 net.cpp:165] Memory required for data: 6253357832
I0202 13:47:03.508500 99956 layer_factory.hpp:77] Creating layer inception_5b/pool_proj
I0202 13:47:03.508508 99956 net.cpp:100] Creating Layer inception_5b/pool_proj
I0202 13:47:03.508512 99956 net.cpp:434] inception_5b/pool_proj <- inception_5b/pool
I0202 13:47:03.508520 99956 net.cpp:408] inception_5b/pool_proj -> inception_5b/pool_proj
I0202 13:47:03.509490 99956 net.cpp:150] Setting up inception_5b/pool_proj
I0202 13:47:03.509500 99956 net.cpp:157] Top shape: 112 128 7 7 (702464)
I0202 13:47:03.509505 99956 net.cpp:165] Memory required for data: 6256167688
I0202 13:47:03.509511 99956 layer_factory.hpp:77] Creating layer inception_5b/relu_pool_proj
I0202 13:47:03.509517 99956 net.cpp:100] Creating Layer inception_5b/relu_pool_proj
I0202 13:47:03.509521 99956 net.cpp:434] inception_5b/relu_pool_proj <- inception_5b/pool_proj
I0202 13:47:03.509529 99956 net.cpp:395] inception_5b/relu_pool_proj -> inception_5b/pool_proj (in-place)
I0202 13:47:03.509536 99956 net.cpp:150] Setting up inception_5b/relu_pool_proj
I0202 13:47:03.509541 99956 net.cpp:157] Top shape: 112 128 7 7 (702464)
I0202 13:47:03.509544 99956 net.cpp:165] Memory required for data: 6258977544
I0202 13:47:03.509548 99956 layer_factory.hpp:77] Creating layer inception_5b/output
I0202 13:47:03.509555 99956 net.cpp:100] Creating Layer inception_5b/output
I0202 13:47:03.509559 99956 net.cpp:434] inception_5b/output <- inception_5b/1x1
I0202 13:47:03.509564 99956 net.cpp:434] inception_5b/output <- inception_5b/3x3
I0202 13:47:03.509568 99956 net.cpp:434] inception_5b/output <- inception_5b/5x5
I0202 13:47:03.509573 99956 net.cpp:434] inception_5b/output <- inception_5b/pool_proj
I0202 13:47:03.509582 99956 net.cpp:408] inception_5b/output -> inception_5b/output
I0202 13:47:03.509589 99956 net.cpp:150] Setting up inception_5b/output
I0202 13:47:03.509594 99956 net.cpp:157] Top shape: 112 1024 7 7 (5619712)
I0202 13:47:03.509603 99956 net.cpp:165] Memory required for data: 6281456392
I0202 13:47:03.509614 99956 layer_factory.hpp:77] Creating layer pool5/7x7_s1
I0202 13:47:03.509621 99956 net.cpp:100] Creating Layer pool5/7x7_s1
I0202 13:47:03.509630 99956 net.cpp:434] pool5/7x7_s1 <- inception_5b/output
I0202 13:47:03.509639 99956 net.cpp:408] pool5/7x7_s1 -> pool5/7x7_s1
I0202 13:47:03.509647 99956 net.cpp:150] Setting up pool5/7x7_s1
I0202 13:47:03.509654 99956 net.cpp:157] Top shape: 112 1024 1 1 (114688)
I0202 13:47:03.509656 99956 net.cpp:165] Memory required for data: 6281915144
I0202 13:47:03.509660 99956 layer_factory.hpp:77] Creating layer pool5/drop_7x7_s1
I0202 13:47:03.509668 99956 net.cpp:100] Creating Layer pool5/drop_7x7_s1
I0202 13:47:03.509672 99956 net.cpp:434] pool5/drop_7x7_s1 <- pool5/7x7_s1
I0202 13:47:03.509678 99956 net.cpp:395] pool5/drop_7x7_s1 -> pool5/7x7_s1 (in-place)
I0202 13:47:03.509687 99956 net.cpp:150] Setting up pool5/drop_7x7_s1
I0202 13:47:03.509692 99956 net.cpp:157] Top shape: 112 1024 1 1 (114688)
I0202 13:47:03.509696 99956 net.cpp:165] Memory required for data: 6282373896
I0202 13:47:03.509699 99956 layer_factory.hpp:77] Creating layer loss3/classifier
I0202 13:47:03.509711 99956 net.cpp:100] Creating Layer loss3/classifier
I0202 13:47:03.509716 99956 net.cpp:434] loss3/classifier <- pool5/7x7_s1
I0202 13:47:03.509721 99956 net.cpp:408] loss3/classifier -> loss3/classifier
I0202 13:47:03.519098 99956 net.cpp:150] Setting up loss3/classifier
I0202 13:47:03.519109 99956 net.cpp:157] Top shape: 112 1000 (112000)
I0202 13:47:03.519111 99956 net.cpp:165] Memory required for data: 6282821896
I0202 13:47:03.519119 99956 layer_factory.hpp:77] Creating layer loss3/loss3
I0202 13:47:03.519129 99956 net.cpp:100] Creating Layer loss3/loss3
I0202 13:47:03.519134 99956 net.cpp:434] loss3/loss3 <- loss3/classifier
I0202 13:47:03.519140 99956 net.cpp:434] loss3/loss3 <- label_data_1_split_2
I0202 13:47:03.519145 99956 net.cpp:408] loss3/loss3 -> loss3/loss3
…
I0202 13:47:03.527442 99956 net.cpp:322] The NetState phase (1) differed from the phase (0) specified by a rule in layer data
I0202 13:47:03.530555 99956 net.cpp:58] Initializing net from parameters: 
name: "GoogleNet"
state {
  phase: TEST
}
layer {
  name: "data"
  type: "Data"
  top: "data"
  top: "label"
  include {
    phase: TEST
  }
  transform_param {
    mirror: false
    crop_size: 224
    mean_value: 104
    mean_value: 117
    mean_value: 123
  }
  data_param {
    source: "/home/user/LIBRARIES/caffeLibs/caffe/examples/imagenet/ilsvrc12_val_lmdb"
    batch_size: 50
    backend: LMDB
  }
}
layer {
  name: "conv1/7x7_s2"
  type: "Convolution"
  bottom: "data"
  top: "conv1/7x7_s2"
  param {
    lr_mult: 1
    decay_mult: 1
  }
  param {
    lr_mult: 2
    decay_mult: 0
  }
  convolution_param {
    num_output: 64
    pad: 3
    kernel_size: 7
    stride: 2
    weight_filler {
      type: "xavier"
    }
    bias_filler {
      type: "constant"
      value: 0.2
    }
  }
}
layer {
  name: "conv1/relu_7x7"
  type: "ReLU"
  bottom: "conv1/7x7_s2"
  top: "conv1/7x7_s2"
}
layer {
  name: "pool1/3x3_s2"
  type: "Pooling"
  bottom: "conv1/7x7_s2"
  top: "pool1/3x3_s2"
  pooling_param {
    pool: MAX
    kernel_size: 3
    stride: 2
  }
}
layer {
  name: "pool1/norm1"
  type: "LRN"
  bottom: "pool1/3x3_s2"
  top: "pool1/norm1"
  lrn_param {
    local_size: 5
    alpha: 0.0001
    beta: 0.75
  }
}
layer {
  name: "conv2/3x3_reduce"
  type: "Convolution"
  bottom: "pool1/norm1"
  top: "conv2/3x3_reduce"
  param {
    lr_mult: 1
    decay_mult: 1
  }
  param {
    lr_mult: 2
    decay_mult: 0
  }
  convolution_param {
    num_output: 64
    kernel_size: 1
    weight_filler {
      type: "xavier"
    }
    bias_filler {
      type: "constant"
      value: 0.2
    }
  }
}
layer {
  name: "conv2/relu_3x3_reduce"
  type: "ReLU"
  bottom: "conv2/3x3_reduce"
  top: "conv2/3x3_reduce"
}
layer {
  name: "conv2/3x3"
  type: "Convolution"
  bottom: "conv2/3x3_reduce"
  top: "conv2/3x3"
  param {
    lr_mult: 1
    decay_mult: 1
  }
  param {
    lr_mult: 2
    decay_mult: 0
  }
  convolution_param {
    num_output: 192
    pad: 1
    kernel_size: 3
    weight_filler {
      type: "xavier"
    }
    bias_filler {
      type: "constant"
      value: 0.2
    }
  }
}
layer {
  name: "conv2/relu_3x3"
  type: "ReLU"
  bottom: "conv2/3x3"
  top: "conv2/3x3"
}
layer {
  name: "conv2/norm2"
  type: "LRN"
  bottom: "conv2/3x3"
  top: "conv2/norm2"
  lrn_param {
    local_size: 5
    alpha: 0.0001
    beta: 0.75
  }
}
layer {
  name: "pool2/3x3_s2"
  type: "Pooling"
  bottom: "conv2/norm2"
  top: "pool2/3x3_s2"
  pooling_param {
    pool: MAX
    kernel_size: 3
    stride: 2
  }
}
layer {
  name: "inception_3a/1x1"
  type: "Convolution"
  bottom: "pool2/3x3_s2"
  top: "inception_3a/1x1"
  param {
    lr_mult: 1
    decay_mult: 1
  }
  param {
    lr_mult: 2
    decay_mult: 0
  }
  convolution_param {
    num_output: 64
    kernel_size: 1
    weight_filler {
      type: "xavier"
    }
    bias_filler {
      type: "constant"
      value: 0.2
    }
  }
}
layer {
  name: "inception_3a/relu_1x1"
  type: "ReLU"
  bottom: "inception_3a/1x1"
  top: "inception_3a/1x1"
}
layer {
  name: "inception_3a/3x3_reduce"
  type: "Convolution"
  bottom: "pool2/3x3_s2"
  top: "inception_3a/3x3_reduce"
  param {
    lr_mult: 1
    decay_mult: 1
  }
  param {
    lr_mult: 2
    decay_mult: 0
  }
  convolution_param {
    num_output: 96
    kernel_size: 1
    weight_filler {
      type: "xavier"
    }
    bias_filler {
      type: "constant"
      value: 0.2
    }
  }
}
layer {
  name: "inception_3a/relu_3x3_reduce"
  type: "ReLU"
  bottom: "inception_3a/3x3_reduce"
  top: "inception_3a/3x3_reduce"
}
layer {
  name: "inception_3a/3x3"
  type: "Convolution"
  bottom: "inception_3a/3x3_reduce"
  top: "inception_3a/3x3"
  param {
    lr_mult: 1
    decay_mult: 1
  }
  param {
    lr_mult: 2
    decay_mult: 0
  }
  convolution_param {
    num_output: 128
    pad: 1
    kernel_size: 3
    weight_filler {
      type: "xavier"
    }
    bias_filler {
      type: "constant"
      value: 0.2
    }
  }
}
layer {
  name: "inception_3a/relu_3x3"
  type: "ReLU"
  bottom: "inception_3a/3x3"
  top: "inception_3a/3x3"
}
layer {
  name: "inception_3a/5x5_reduce"
  type: "Convolution"
  bottom: "pool2/3x3_s2"
  top: "inception_3a/5x5_reduce"
  param {
    lr_mult: 1
    decay_mult: 1
  }
  param {
    lr_mult: 2
    decay_mult: 0
  }
  convolution_param {
    num_output: 16
    kernel_size: 1
    weight_filler {
      type: "xavier"
    }
    bias_filler {
      type: "constant"
      value: 0.2
    }
  }
}
layer {
  name: "inception_3a/relu_5x5_reduce"
  type: "ReLU"
  bottom: "inception_3a/5x5_reduce"
  top: "inception_3a/5x5_reduce"
}
layer {
  name: "inception_3a/5x5"
  type: "Convolution"
  bottom: "inception_3a/5x5_reduce"
  top: "inception_3a/5x5"
  param {
    lr_mult: 1
    decay_mult: 1
  }
  param {
    lr_mult: 2
    decay_mult: 0
  }
  convolution_param {
    num_output: 32
    pad: 2
    kernel_size: 5
    weight_filler {
      type: "xavier"
    }
    bias_filler {
      type: "constant"
      value: 0.2
    }
  }
}
layer {
  name: "inception_3a/relu_5x5"
  type: "ReLU"
  bottom: "inception_3a/5x5"
  top: "inception_3a/5x5"
}
layer {
  name: "inception_3a/pool"
  type: "Pooling"
  bottom: "pool2/3x3_s2"
  top: "inception_3a/pool"
  pooling_param {
    pool: MAX
    kernel_size: 3
    stride: 1
    pad: 1
  }
}
layer {
  name: "inception_3a/pool_proj"
  type: "Convolution"
  bottom: "inception_3a/pool"
  top: "inception_3a/pool_proj"
  param {
    lr_mult: 1
    decay_mult: 1
  }
  param {
    lr_mult: 2
    decay_mult: 0
  }
  convolution_param {
    num_output: 32
    kernel_size: 1
    weight_filler {
      type: "xavier"
    }
    bias_filler {
      type: "constant"
      value: 0.2
    }
  }
}
layer {
  name: "inception_3a/relu_pool_proj"
  type: "ReLU"
  bottom: "inception_3a/pool_proj"
  top: "inception_3a/pool_proj"
}
layer {
  name: "inception_3a/output"
  type: "Concat"
  bottom: "inception_3a/1x1"
  bottom: "inception_3a/3x3"
  bottom: "inception_3a/5x5"
  bottom: "inception_3a/pool_proj"
  top: "inception_3a/output"
}
layer {
  name: "inception_3b/1x1"
  type: "Convolution"
  bottom: "inception_3a/output"
  top: "inception_3b/1x1"
  param {
    lr_mult: 1
    decay_mult: 1
  }
  param {
    lr_mult: 2
    decay_mult: 0
  }
  convolution_param {
    num_output: 128
    kernel_size: 1
    weight_filler {
      type: "xavier"
    }
    bias_filler {
      type: "constant"
      value: 0.2
    }
  }
}
layer {
  name: "inception_3b/relu_1x1"
  type: "ReLU"
  bottom: "inception_3b/1x1"
  top: "inception_3b/1x1"
}
layer {
  name: "inception_3b/3x3_reduce"
  type: "Convolution"
  bottom: "inception_3a/output"
  top: "inception_3b/3x3_reduce"
  param {
    lr_mult: 1
    decay_mult: 1
  }
  param {
    lr_mult: 2
    decay_mult: 0
  }
  convolution_param {
    num_output: 128
    kernel_size: 1
    weight_filler {
      type: "xavier"
    }
    bias_filler {
      type: "constant"
      value: 0.2
    }
  }
}
layer {
  name: "inception_3b/relu_3x3_reduce"
  type: "ReLU"
  bottom: "inception_3b/3x3_reduce"
  top: "inception_3b/3x3_reduce"
}
layer {
  name: "inception_3b/3x3"
  type: "Convolution"
  bottom: "inception_3b/3x3_reduce"
  top: "inception_3b/3x3"
  param {
    lr_mult: 1
    decay_mult: 1
  }
  param {
    lr_mult: 2
    decay_mult: 0
  }
  convolution_param {
    num_output: 192
    pad: 1
    kernel_size: 3
    weight_filler {
      type: "xavier"
    }
    bias_filler {
      type: "constant"
      value: 0.2
    }
  }
}
layer {
  name: "inception_3b/relu_3x3"
  type: "ReLU"
  bottom: "inception_3b/3x3"
  top: "inception_3b/3x3"
}
layer {
  name: "inception_3b/5x5_reduce"
  type: "Convolution"
  bottom: "inception_3a/output"
  top: "inception_3b/5x5_reduce"
  param {
    lr_mult: 1
    decay_mult: 1
  }
  param {
    lr_mult: 2
    decay_mult: 0
  }
  convolution_param {
    num_output: 32
    kernel_size: 1
    weight_filler {
      type: "xavier"
    }
    bias_filler {
      type: "constant"
      value: 0.2
    }
  }
}
layer {
  name: "inception_3b/relu_5x5_reduce"
  type: "ReLU"
  bottom: "inception_3b/5x5_reduce"
  top: "inception_3b/5x5_reduce"
}
layer {
  name: "inception_3b/5x5"
  type: "Convolution"
  bottom: "inception_3b/5x5_reduce"
  top: "inception_3b/5x5"
  param {
    lr_mult: 1
    decay_mult: 1
  }
  param {
    lr_mult: 2
    decay_mult: 0
  }
  convolution_param {
    num_output: 96
    pad: 2
    kernel_size: 5
    weight_filler {
      type: "xavier"
    }
    bias_filler {
      type: "constant"
      value: 0.2
    }
  }
}
layer {
  name: "inception_3b/relu_5x5"
  type: "ReLU"
  bottom: "inception_3b/5x5"
  top: "inception_3b/5x5"
}
layer {
  name: "inception_3b/pool"
  type: "Pooling"
  bottom: "inception_3a/output"
  top: "inception_3b/pool"
  pooling_param {
    pool: MAX
    kernel_size: 3
    stride: 1
    pad: 1
  }
}
layer {
  name: "inception_3b/pool_proj"
  type: "Convolution"
  bottom: "inception_3b/pool"
  top: "inception_3b/pool_proj"
  param {
    lr_mult: 1
    decay_mult: 1
  }
  param {
    lr_mult: 2
    decay_mult: 0
  }
  convolution_param {
    num_output: 64
    kernel_size: 1
    weight_filler {
      type: "xavier"
    }
    bias_filler {
      type: "constant"
      value: 0.2
    }
  }
}
layer {
  name: "inception_3b/relu_pool_proj"
  type: "ReLU"
  bottom: "inception_3b/pool_proj"
  top: "inception_3b/pool_proj"
}
layer {
  name: "inception_3b/output"
  type: "Concat"
  bottom: "inception_3b/1x1"
  bottom: "inception_3b/3x3"
  bottom: "inception_3b/5x5"
  bottom: "inception_3b/pool_proj"
  top: "inception_3b/output"
}
layer {
  name: "pool3/3x3_s2"
  type: "Pooling"
  bottom: "inception_3b/output"
  top: "pool3/3x3_s2"
  pooling_param {
    pool: MAX
    kernel_size: 3
    stride: 2
  }
}
layer {
  name: "inception_4a/1x1"
  type: "Convolution"
  bottom: "pool3/3x3_s2"
  top: "inception_4a/1x1"
  param {
    lr_mult: 1
    decay_mult: 1
  }
  param {
    lr_mult: 2
    decay_mult: 0
  }
  convolution_param {
    num_output: 192
    kernel_size: 1
    weight_filler {
      type: "xavier"
    }
    bias_filler {
      type: "constant"
      value: 0.2
    }
  }
}
layer {
  name: "inception_4a/relu_1x1"
  type: "ReLU"
  bottom: "inception_4a/1x1"
  top: "inception_4a/1x1"
}
layer {
  name: "inception_4a/3x3_reduce"
  type: "Convolution"
  bottom: "pool3/3x3_s2"
  top: "inception_4a/3x3_reduce"
  param {
    lr_mult: 1
    decay_mult: 1
  }
  param {
    lr_mult: 2
    decay_mult: 0
  }
  convolution_param {
    num_output: 96
    kernel_size: 1
    weight_filler {
      type: "xavier"
    }
    bias_filler {
      type: "constant"
      value: 0.2
    }
  }
}
layer {
  name: "inception_4a/relu_3x3_reduce"
  type: "ReLU"
  bottom: "inception_4a/3x3_reduce"
  top: "inception_4a/3x3_reduce"
}
layer {
  name: "inception_4a/3x3"
  type: "Convolution"
  bottom: "inception_4a/3x3_reduce"
  top: "inception_4a/3x3"
  param {
    lr_mult: 1
    decay_mult: 1
  }
  param {
    lr_mult: 2
    decay_mult: 0
  }
  convolution_param {
    num_output: 208
    pad: 1
    kernel_size: 3
    weight_filler {
      type: "xavier"
    }
    bias_filler {
      type: "constant"
      value: 0.2
    }
  }
}
layer {
  name: "inception_4a/relu_3x3"
  type: "ReLU"
  bottom: "inception_4a/3x3"
  top: "inception_4a/3x3"
}
layer {
  name: "inception_4a/5x5_reduce"
  type: "Convolution"
  bottom: "pool3/3x3_s2"
  top: "inception_4a/5x5_reduce"
  param {
    lr_mult: 1
    decay_mult: 1
  }
  param {
    lr_mult: 2
    decay_mult: 0
  }
  convolution_param {
    num_output: 16
    kernel_size: 1
    weight_filler {
      type: "xavier"
    }
    bias_filler {
      type: "constant"
      value: 0.2
    }
  }
}
layer {
  name: "inception_4a/relu_5x5_reduce"
  type: "ReLU"
  bottom: "inception_4a/5x5_reduce"
  top: "inception_4a/5x5_reduce"
}
layer {
  name: "inception_4a/5x5"
  type: "Convolution"
  bottom: "inception_4a/5x5_reduce"
  top: "inception_4a/5x5"
  param {
    lr_mult: 1
    decay_mult: 1
  }
  param {
    lr_mult: 2
    decay_mult: 0
  }
  convolution_param {
    num_output: 48
    pad: 2
    kernel_size: 5
    weight_filler {
      type: "xavier"
    }
    bias_filler {
      type: "constant"
      value: 0.2
    }
  }
}
layer {
  name: "inception_4a/relu_5x5"
  type: "ReLU"
  bottom: "inception_4a/5x5"
  top: "inception_4a/5x5"
}
layer {
  name: "inception_4a/pool"
  type: "Pooling"
  bottom: "pool3/3x3_s2"
  top: "inception_4a/pool"
  pooling_param {
    pool: MAX
    kernel_size: 3
    stride: 1
    pad: 1
  }
}
layer {
  name: "inception_4a/pool_proj"
  type: "Convolution"
  bottom: "inception_4a/pool"
  top: "inception_4a/pool_proj"
  param {
    lr_mult: 1
    decay_mult: 1
  }
  param {
    lr_mult: 2
    decay_mult: 0
  }
  convolution_param {
    num_output: 64
    kernel_size: 1
    weight_filler {
      type: "xavier"
    }
    bias_filler {
      type: "constant"
      value: 0.2
    }
  }
}
layer {
  name: "inception_4a/relu_pool_proj"
  type: "ReLU"
  bottom: "inception_4a/pool_proj"
  top: "inception_4a/pool_proj"
}
layer {
  name: "inception_4a/output"
  type: "Concat"
  bottom: "inception_4a/1x1"
  bottom: "inception_4a/3x3"
  bottom: "inception_4a/5x5"
  bottom: "inception_4a/pool_proj"
  top: "inception_4a/output"
}
layer {
  name: "loss1/ave_pool"
  type: "Pooling"
  bottom: "inception_4a/output"
  top: "loss1/ave_pool"
  pooling_param {
    pool: AVE
    kernel_size: 5
    stride: 3
  }
}
layer {
  name: "loss1/conv"
  type: "Convolution"
  bottom: "loss1/ave_pool"
  top: "loss1/conv"
  param {
    lr_mult: 1
    decay_mult: 1
  }
  param {
    lr_mult: 2
    decay_mult: 0
  }
  convolution_param {
    num_output: 128
    kernel_size: 1
    weight_filler {
      type: "xavier"
    }
    bias_filler {
      type: "constant"
      value: 0.2
    }
  }
}
layer {
  name: "loss1/relu_conv"
  type: "ReLU"
  bottom: "loss1/conv"
  top: "loss1/conv"
}
layer {
  name: "loss1/fc"
  type: "InnerProduct"
  bottom: "loss1/conv"
  top: "loss1/fc"
  param {
    lr_mult: 1
    decay_mult: 1
  }
  param {
    lr_mult: 2
    decay_mult: 0
  }
  inner_product_param {
…
I0202 13:47:03.619674 99956 net.cpp:165] Memory required for data: 2190293212
I0202 13:47:03.619678 99956 layer_factory.hpp:77] Creating layer inception_4c/pool
I0202 13:47:03.619686 99956 net.cpp:100] Creating Layer inception_4c/pool
I0202 13:47:03.619691 99956 net.cpp:434] inception_4c/pool <- inception_4b/output_inception_4b/output_0_split_3
I0202 13:47:03.619698 99956 net.cpp:408] inception_4c/pool -> inception_4c/pool
I0202 13:47:03.619707 99956 net.cpp:150] Setting up inception_4c/pool
I0202 13:47:03.619712 99956 net.cpp:157] Top shape: 50 512 14 14 (5017600)
I0202 13:47:03.619716 99956 net.cpp:165] Memory required for data: 2210363612
I0202 13:47:03.619720 99956 layer_factory.hpp:77] Creating layer inception_4c/pool_proj
I0202 13:47:03.619731 99956 net.cpp:100] Creating Layer inception_4c/pool_proj
I0202 13:47:03.619735 99956 net.cpp:434] inception_4c/pool_proj <- inception_4c/pool
I0202 13:47:03.619745 99956 net.cpp:408] inception_4c/pool_proj -> inception_4c/pool_proj
I0202 13:47:03.620059 99956 net.cpp:150] Setting up inception_4c/pool_proj
I0202 13:47:03.620066 99956 net.cpp:157] Top shape: 50 64 14 14 (627200)
I0202 13:47:03.620070 99956 net.cpp:165] Memory required for data: 2212872412
I0202 13:47:03.620076 99956 layer_factory.hpp:77] Creating layer inception_4c/relu_pool_proj
I0202 13:47:03.620085 99956 net.cpp:100] Creating Layer inception_4c/relu_pool_proj
I0202 13:47:03.620090 99956 net.cpp:434] inception_4c/relu_pool_proj <- inception_4c/pool_proj
I0202 13:47:03.620095 99956 net.cpp:395] inception_4c/relu_pool_proj -> inception_4c/pool_proj (in-place)
I0202 13:47:03.620100 99956 net.cpp:150] Setting up inception_4c/relu_pool_proj
I0202 13:47:03.620105 99956 net.cpp:157] Top shape: 50 64 14 14 (627200)
I0202 13:47:03.620108 99956 net.cpp:165] Memory required for data: 2215381212
I0202 13:47:03.620112 99956 layer_factory.hpp:77] Creating layer inception_4c/output
I0202 13:47:03.620120 99956 net.cpp:100] Creating Layer inception_4c/output
I0202 13:47:03.620123 99956 net.cpp:434] inception_4c/output <- inception_4c/1x1
I0202 13:47:03.620141 99956 net.cpp:434] inception_4c/output <- inception_4c/3x3
I0202 13:47:03.620146 99956 net.cpp:434] inception_4c/output <- inception_4c/5x5
I0202 13:47:03.620151 99956 net.cpp:434] inception_4c/output <- inception_4c/pool_proj
I0202 13:47:03.620159 99956 net.cpp:408] inception_4c/output -> inception_4c/output
I0202 13:47:03.620168 99956 net.cpp:150] Setting up inception_4c/output
I0202 13:47:03.620173 99956 net.cpp:157] Top shape: 50 512 14 14 (5017600)
I0202 13:47:03.620177 99956 net.cpp:165] Memory required for data: 2235451612
I0202 13:47:03.620182 99956 layer_factory.hpp:77] Creating layer inception_4c/output_inception_4c/output_0_split
I0202 13:47:03.620187 99956 net.cpp:100] Creating Layer inception_4c/output_inception_4c/output_0_split
I0202 13:47:03.620192 99956 net.cpp:434] inception_4c/output_inception_4c/output_0_split <- inception_4c/output
I0202 13:47:03.620200 99956 net.cpp:408] inception_4c/output_inception_4c/output_0_split -> inception_4c/output_inception_4c/output_0_split_0
I0202 13:47:03.620208 99956 net.cpp:408] inception_4c/output_inception_4c/output_0_split -> inception_4c/output_inception_4c/output_0_split_1
I0202 13:47:03.620214 99956 net.cpp:408] inception_4c/output_inception_4c/output_0_split -> inception_4c/output_inception_4c/output_0_split_2
I0202 13:47:03.620220 99956 net.cpp:408] inception_4c/output_inception_4c/output_0_split -> inception_4c/output_inception_4c/output_0_split_3
I0202 13:47:03.620229 99956 net.cpp:150] Setting up inception_4c/output_inception_4c/output_0_split
I0202 13:47:03.620234 99956 net.cpp:157] Top shape: 50 512 14 14 (5017600)
I0202 13:47:03.620239 99956 net.cpp:157] Top shape: 50 512 14 14 (5017600)
I0202 13:47:03.620242 99956 net.cpp:157] Top shape: 50 512 14 14 (5017600)
I0202 13:47:03.620247 99956 net.cpp:157] Top shape: 50 512 14 14 (5017600)
I0202 13:47:03.620250 99956 net.cpp:165] Memory required for data: 2315733212
I0202 13:47:03.620254 99956 layer_factory.hpp:77] Creating layer inception_4d/1x1
I0202 13:47:03.620267 99956 net.cpp:100] Creating Layer inception_4d/1x1
I0202 13:47:03.620271 99956 net.cpp:434] inception_4d/1x1 <- inception_4c/output_inception_4c/output_0_split_0
I0202 13:47:03.620277 99956 net.cpp:408] inception_4d/1x1 -> inception_4d/1x1
I0202 13:47:03.620817 99956 net.cpp:150] Setting up inception_4d/1x1
I0202 13:47:03.620826 99956 net.cpp:157] Top shape: 50 112 14 14 (1097600)
I0202 13:47:03.620831 99956 net.cpp:165] Memory required for data: 2320123612
I0202 13:47:03.620837 99956 layer_factory.hpp:77] Creating layer inception_4d/relu_1x1
I0202 13:47:03.620846 99956 net.cpp:100] Creating Layer inception_4d/relu_1x1
I0202 13:47:03.620849 99956 net.cpp:434] inception_4d/relu_1x1 <- inception_4d/1x1
I0202 13:47:03.620856 99956 net.cpp:395] inception_4d/relu_1x1 -> inception_4d/1x1 (in-place)
I0202 13:47:03.620862 99956 net.cpp:150] Setting up inception_4d/relu_1x1
I0202 13:47:03.620867 99956 net.cpp:157] Top shape: 50 112 14 14 (1097600)
I0202 13:47:03.620870 99956 net.cpp:165] Memory required for data: 2324514012
I0202 13:47:03.620874 99956 layer_factory.hpp:77] Creating layer inception_4d/3x3_reduce
I0202 13:47:03.620885 99956 net.cpp:100] Creating Layer inception_4d/3x3_reduce
I0202 13:47:03.620889 99956 net.cpp:434] inception_4d/3x3_reduce <- inception_4c/output_inception_4c/output_0_split_1
I0202 13:47:03.620898 99956 net.cpp:408] inception_4d/3x3_reduce -> inception_4d/3x3_reduce
I0202 13:47:03.621593 99956 net.cpp:150] Setting up inception_4d/3x3_reduce
I0202 13:47:03.621601 99956 net.cpp:157] Top shape: 50 144 14 14 (1411200)
I0202 13:47:03.621605 99956 net.cpp:165] Memory required for data: 2330158812
I0202 13:47:03.621611 99956 layer_factory.hpp:77] Creating layer inception_4d/relu_3x3_reduce
I0202 13:47:03.621618 99956 net.cpp:100] Creating Layer inception_4d/relu_3x3_reduce
I0202 13:47:03.621623 99956 net.cpp:434] inception_4d/relu_3x3_reduce <- inception_4d/3x3_reduce
I0202 13:47:03.621635 99956 net.cpp:395] inception_4d/relu_3x3_reduce -> inception_4d/3x3_reduce (in-place)
I0202 13:47:03.621646 99956 net.cpp:150] Setting up inception_4d/relu_3x3_reduce
I0202 13:47:03.621659 99956 net.cpp:157] Top shape: 50 144 14 14 (1411200)
I0202 13:47:03.621662 99956 net.cpp:165] Memory required for data: 2335803612
I0202 13:47:03.621667 99956 layer_factory.hpp:77] Creating layer inception_4d/3x3
I0202 13:47:03.621676 99956 net.cpp:100] Creating Layer inception_4d/3x3
I0202 13:47:03.621680 99956 net.cpp:434] inception_4d/3x3 <- inception_4d/3x3_reduce
I0202 13:47:03.621688 99956 net.cpp:408] inception_4d/3x3 -> inception_4d/3x3
I0202 13:47:03.625427 99956 net.cpp:150] Setting up inception_4d/3x3
I0202 13:47:03.625437 99956 net.cpp:157] Top shape: 50 288 14 14 (2822400)
I0202 13:47:03.625440 99956 net.cpp:165] Memory required for data: 2347093212
I0202 13:47:03.625447 99956 layer_factory.hpp:77] Creating layer inception_4d/relu_3x3
I0202 13:47:03.625453 99956 net.cpp:100] Creating Layer inception_4d/relu_3x3
I0202 13:47:03.625458 99956 net.cpp:434] inception_4d/relu_3x3 <- inception_4d/3x3
I0202 13:47:03.625463 99956 net.cpp:395] inception_4d/relu_3x3 -> inception_4d/3x3 (in-place)
I0202 13:47:03.625469 99956 net.cpp:150] Setting up inception_4d/relu_3x3
I0202 13:47:03.625475 99956 net.cpp:157] Top shape: 50 288 14 14 (2822400)
I0202 13:47:03.625478 99956 net.cpp:165] Memory required for data: 2358382812
I0202 13:47:03.625483 99956 layer_factory.hpp:77] Creating layer inception_4d/5x5_reduce
I0202 13:47:03.625494 99956 net.cpp:100] Creating Layer inception_4d/5x5_reduce
I0202 13:47:03.625497 99956 net.cpp:434] inception_4d/5x5_reduce <- inception_4c/output_inception_4c/output_0_split_2
I0202 13:47:03.625504 99956 net.cpp:408] inception_4d/5x5_reduce -> inception_4d/5x5_reduce
I0202 13:47:03.625663 99956 net.cpp:150] Setting up inception_4d/5x5_reduce
I0202 13:47:03.625671 99956 net.cpp:157] Top shape: 50 32 14 14 (313600)
I0202 13:47:03.625674 99956 net.cpp:165] Memory required for data: 2359637212
I0202 13:47:03.625680 99956 layer_factory.hpp:77] Creating layer inception_4d/relu_5x5_reduce
I0202 13:47:03.625687 99956 net.cpp:100] Creating Layer inception_4d/relu_5x5_reduce
I0202 13:47:03.625691 99956 net.cpp:434] inception_4d/relu_5x5_reduce <- inception_4d/5x5_reduce
I0202 13:47:03.625699 99956 net.cpp:395] inception_4d/relu_5x5_reduce -> inception_4d/5x5_reduce (in-place)
I0202 13:47:03.625705 99956 net.cpp:150] Setting up inception_4d/relu_5x5_reduce
I0202 13:47:03.625710 99956 net.cpp:157] Top shape: 50 32 14 14 (313600)
I0202 13:47:03.625715 99956 net.cpp:165] Memory required for data: 2360891612
I0202 13:47:03.625717 99956 layer_factory.hpp:77] Creating layer inception_4d/5x5
I0202 13:47:03.625727 99956 net.cpp:100] Creating Layer inception_4d/5x5
I0202 13:47:03.625731 99956 net.cpp:434] inception_4d/5x5 <- inception_4d/5x5_reduce
I0202 13:47:03.625737 99956 net.cpp:408] inception_4d/5x5 -> inception_4d/5x5
I0202 13:47:03.626219 99956 net.cpp:150] Setting up inception_4d/5x5
I0202 13:47:03.626226 99956 net.cpp:157] Top shape: 50 64 14 14 (627200)
I0202 13:47:03.626230 99956 net.cpp:165] Memory required for data: 2363400412
I0202 13:47:03.626236 99956 layer_factory.hpp:77] Creating layer inception_4d/relu_5x5
I0202 13:47:03.626242 99956 net.cpp:100] Creating Layer inception_4d/relu_5x5
I0202 13:47:03.626246 99956 net.cpp:434] inception_4d/relu_5x5 <- inception_4d/5x5
I0202 13:47:03.626255 99956 net.cpp:395] inception_4d/relu_5x5 -> inception_4d/5x5 (in-place)
I0202 13:47:03.626260 99956 net.cpp:150] Setting up inception_4d/relu_5x5
I0202 13:47:03.626266 99956 net.cpp:157] Top shape: 50 64 14 14 (627200)
I0202 13:47:03.626268 99956 net.cpp:165] Memory required for data: 2365909212
I0202 13:47:03.626272 99956 layer_factory.hpp:77] Creating layer inception_4d/pool
I0202 13:47:03.626281 99956 net.cpp:100] Creating Layer inception_4d/pool
I0202 13:47:03.626284 99956 net.cpp:434] inception_4d/pool <- inception_4c/output_inception_4c/output_0_split_3
I0202 13:47:03.626291 99956 net.cpp:408] inception_4d/pool -> inception_4d/pool
I0202 13:47:03.626301 99956 net.cpp:150] Setting up inception_4d/pool
I0202 13:47:03.626309 99956 net.cpp:157] Top shape: 50 512 14 14 (5017600)
I0202 13:47:03.626320 99956 net.cpp:165] Memory required for data: 2385979612
I0202 13:47:03.626324 99956 layer_factory.hpp:77] Creating layer inception_4d/pool_proj
I0202 13:47:03.626334 99956 net.cpp:100] Creating Layer inception_4d/pool_proj
I0202 13:47:03.626339 99956 net.cpp:434] inception_4d/pool_proj <- inception_4d/pool
I0202 13:47:03.626348 99956 net.cpp:408] inception_4d/pool_proj -> inception_4d/pool_proj
I0202 13:47:03.626657 99956 net.cpp:150] Setting up inception_4d/pool_proj
I0202 13:47:03.626667 99956 net.cpp:157] Top shape: 50 64 14 14 (627200)
I0202 13:47:03.626670 99956 net.cpp:165] Memory required for data: 2388488412
I0202 13:47:03.626677 99956 layer_factory.hpp:77] Creating layer inception_4d/relu_pool_proj
I0202 13:47:03.626683 99956 net.cpp:100] Creating Layer inception_4d/relu_pool_proj
I0202 13:47:03.626688 99956 net.cpp:434] inception_4d/relu_pool_proj <- inception_4d/pool_proj
I0202 13:47:03.626695 99956 net.cpp:395] inception_4d/relu_pool_proj -> inception_4d/pool_proj (in-place)
I0202 13:47:03.626703 99956 net.cpp:150] Setting up inception_4d/relu_pool_proj
I0202 13:47:03.626708 99956 net.cpp:157] Top shape: 50 64 14 14 (627200)
I0202 13:47:03.626710 99956 net.cpp:165] Memory required for data: 2390997212
I0202 13:47:03.626714 99956 layer_factory.hpp:77] Creating layer inception_4d/output
I0202 13:47:03.626721 99956 net.cpp:100] Creating Layer inception_4d/output
I0202 13:47:03.626725 99956 net.cpp:434] inception_4d/output <- inception_4d/1x1
I0202 13:47:03.626730 99956 net.cpp:434] inception_4d/output <- inception_4d/3x3
I0202 13:47:03.626735 99956 net.cpp:434] inception_4d/output <- inception_4d/5x5
I0202 13:47:03.626739 99956 net.cpp:434] inception_4d/output <- inception_4d/pool_proj
I0202 13:47:03.626747 99956 net.cpp:408] inception_4d/output -> inception_4d/output
I0202 13:47:03.626756 99956 net.cpp:150] Setting up inception_4d/output
I0202 13:47:03.626761 99956 net.cpp:157] Top shape: 50 528 14 14 (5174400)
I0202 13:47:03.626765 99956 net.cpp:165] Memory required for data: 2411694812
I0202 13:47:03.626770 99956 layer_factory.hpp:77] Creating layer inception_4d/output_inception_4d/output_0_split
I0202 13:47:03.626776 99956 net.cpp:100] Creating Layer inception_4d/output_inception_4d/output_0_split
I0202 13:47:03.626780 99956 net.cpp:434] inception_4d/output_inception_4d/output_0_split <- inception_4d/output
I0202 13:47:03.626787 99956 net.cpp:408] inception_4d/output_inception_4d/output_0_split -> inception_4d/output_inception_4d/output_0_split_0
I0202 13:47:03.626794 99956 net.cpp:408] inception_4d/output_inception_4d/output_0_split -> inception_4d/output_inception_4d/output_0_split_1
I0202 13:47:03.626803 99956 net.cpp:408] inception_4d/output_inception_4d/output_0_split -> inception_4d/output_inception_4d/output_0_split_2
I0202 13:47:03.626811 99956 net.cpp:408] inception_4d/output_inception_4d/output_0_split -> inception_4d/output_inception_4d/output_0_split_3
I0202 13:47:03.626816 99956 net.cpp:408] inception_4d/output_inception_4d/output_0_split -> inception_4d/output_inception_4d/output_0_split_4
I0202 13:47:03.626826 99956 net.cpp:150] Setting up inception_4d/output_inception_4d/output_0_split
I0202 13:47:03.626834 99956 net.cpp:157] Top shape: 50 528 14 14 (5174400)
I0202 13:47:03.626839 99956 net.cpp:157] Top shape: 50 528 14 14 (5174400)
I0202 13:47:03.626843 99956 net.cpp:157] Top shape: 50 528 14 14 (5174400)
I0202 13:47:03.626848 99956 net.cpp:157] Top shape: 50 528 14 14 (5174400)
I0202 13:47:03.626853 99956 net.cpp:157] Top shape: 50 528 14 14 (5174400)
I0202 13:47:03.626857 99956 net.cpp:165] Memory required for data: 2515182812
I0202 13:47:03.626860 99956 layer_factory.hpp:77] Creating layer loss2/ave_pool
I0202 13:47:03.626866 99956 net.cpp:100] Creating Layer loss2/ave_pool
I0202 13:47:03.626870 99956 net.cpp:434] loss2/ave_pool <- inception_4d/output_inception_4d/output_0_split_0
I0202 13:47:03.626878 99956 net.cpp:408] loss2/ave_pool -> loss2/ave_pool
I0202 13:47:03.626885 99956 net.cpp:150] Setting up loss2/ave_pool
I0202 13:47:03.626901 99956 net.cpp:157] Top shape: 50 528 4 4 (422400)
I0202 13:47:03.626905 99956 net.cpp:165] Memory required for data: 2516872412
I0202 13:47:03.626909 99956 layer_factory.hpp:77] Creating layer loss2/conv
I0202 13:47:03.626922 99956 net.cpp:100] Creating Layer loss2/conv
I0202 13:47:03.626927 99956 net.cpp:434] loss2/conv <- loss2/ave_pool
I0202 13:47:03.626934 99956 net.cpp:408] loss2/conv -> loss2/conv
I0202 13:47:03.627563 99956 net.cpp:150] Setting up loss2/conv
I0202 13:47:03.627571 99956 net.cpp:157] Top shape: 50 128 4 4 (102400)
I0202 13:47:03.627574 99956 net.cpp:165] Memory required for data: 2517282012
I0202 13:47:03.627581 99956 layer_factory.hpp:77] Creating layer loss2/relu_conv
I0202 13:47:03.627588 99956 net.cpp:100] Creating Layer loss2/relu_conv
I0202 13:47:03.627593 99956 net.cpp:434] loss2/relu_conv <- loss2/conv
I0202 13:47:03.627599 99956 net.cpp:395] loss2/relu_conv -> loss2/conv (in-place)
I0202 13:47:03.627606 99956 net.cpp:150] Setting up loss2/relu_conv
I0202 13:47:03.627611 99956 net.cpp:157] Top shape: 50 128 4 4 (102400)
I0202 13:47:03.627615 99956 net.cpp:165] Memory required for data: 2517691612
I0202 13:47:03.627619 99956 layer_factory.hpp:77] Creating layer loss2/fc
I0202 13:47:03.627634 99956 net.cpp:100] Creating Layer loss2/fc
I0202 13:47:03.627640 99956 net.cpp:434] loss2/fc <- loss2/conv
I0202 13:47:03.627653 99956 net.cpp:408] loss2/fc -> loss2/fc
I0202 13:47:03.646165 99956 net.cpp:150] Setting up loss2/fc
I0202 13:47:03.646181 99956 net.cpp:157] Top shape: 50 1024 (51200)
I0202 13:47:03.646185 99956 net.cpp:165] Memory required for data: 2517896412
I0202 13:47:03.646193 99956 layer_factory.hpp:77] Creating layer loss2/relu_fc
I0202 13:47:03.646203 99956 net.cpp:100] Creating Layer loss2/relu_fc
I0202 13:47:03.646209 99956 net.cpp:434] loss2/relu_fc <- loss2/fc
I0202 13:47:03.646216 99956 net.cpp:395] loss2/relu_fc -> loss2/fc (in-place)
I0202 13:47:03.646224 99956 net.cpp:150] Setting up loss2/relu_fc
I0202 13:47:03.646229 99956 net.cpp:157] Top shape: 50 1024 (51200)
I0202 13:47:03.646232 99956 net.cpp:165] Memory required for data: 2518101212
I0202 13:47:03.646236 99956 layer_factory.hpp:77] Creating layer loss2/drop_fc
I0202 13:47:03.646245 99956 net.cpp:100] Creating Layer loss2/drop_fc
I0202 13:47:03.646248 99956 net.cpp:434] loss2/drop_fc <- loss2/fc
I0202 13:47:03.646253 99956 net.cpp:395] loss2/drop_fc -> loss2/fc (in-place)
I0202 13:47:03.646263 99956 net.cpp:150] Setting up loss2/drop_fc
I0202 13:47:03.646268 99956 net.cpp:157] Top shape: 50 1024 (51200)
I0202 13:47:03.646271 99956 net.cpp:165] Memory required for data: 2518306012
I0202 13:47:03.646275 99956 layer_factory.hpp:77] Creating layer loss2/classifier
I0202 13:47:03.646283 99956 net.cpp:100] Creating Layer loss2/classifier
I0202 13:47:03.646287 99956 net.cpp:434] loss2/classifier <- loss2/fc
I0202 13:47:03.646296 99956 net.cpp:408] loss2/classifier -> loss2/classifier
I0202 13:47:03.655675 99956 net.cpp:150] Setting up loss2/classifier
I0202 13:47:03.655685 99956 net.cpp:157] Top shape: 50 1000 (50000)
I0202 13:47:03.655689 99956 net.cpp:165] Memory required for data: 2518506012
I0202 13:47:03.655696 99956 layer_factory.hpp:77] Creating layer loss2/classifier_loss2/classifier_0_split
I0202 13:47:03.655705 99956 net.cpp:100] Creating Layer loss2/classifier_loss2/classifier_0_split
I0202 13:47:03.655710 99956 net.cpp:434] loss2/classifier_loss2/classifier_0_split <- loss2/classifier
I0202 13:47:03.655719 99956 net.cpp:408] loss2/classifier_loss2/classifier_0_split -> loss2/classifier_loss2/classifier_0_split_0
I0202 13:47:03.655728 99956 net.cpp:408] loss2/classifier_loss2/classifier_0_split -> loss2/classifier_loss2/classifier_0_split_1
I0202 13:47:03.655736 99956 net.cpp:408] loss2/classifier_loss2/classifier_0_split -> loss2/classifier_loss2/classifier_0_split_2
I0202 13:47:03.655745 99956 net.cpp:150] Setting up loss2/classifier_loss2/classifier_0_split
I0202 13:47:03.655750 99956 net.cpp:157] Top shape: 50 1000 (50000)
I0202 13:47:03.655755 99956 net.cpp:157] Top shape: 50 1000 (50000)
I0202 13:47:03.655781 99956 net.cpp:157] Top shape: 50 1000 (50000)
I0202 13:47:03.655784 99956 net.cpp:165] Memory required for data: 2519106012
I0202 13:47:03.655788 99956 layer_factory.hpp:77] Creating layer loss2/loss
I0202 13:47:03.655797 99956 net.cpp:100] Creating Layer loss2/loss
I0202 13:47:03.655800 99956 net.cpp:434] loss2/loss <- loss2/classifier_loss2/classifier_0_split_0
I0202 13:47:03.655807 99956 net.cpp:434] loss2/loss <- label_data_1_split_3
…
I0202 13:47:03.656072 99956 net.cpp:150] Setting up loss2/top-5
I0202 13:47:03.656077 99956 net.cpp:157] Top shape: (1)
I0202 13:47:03.656081 99956 net.cpp:165] Memory required for data: 2519106024
I0202 13:47:03.656085 99956 layer_factory.hpp:77] Creating layer inception_4e/1x1
I0202 13:47:03.656097 99956 net.cpp:100] Creating Layer inception_4e/1x1
I0202 13:47:03.656102 99956 net.cpp:434] inception_4e/1x1 <- inception_4d/output_inception_4d/output_0_split_1
I0202 13:47:03.656111 99956 net.cpp:408] inception_4e/1x1 -> inception_4e/1x1
I0202 13:47:03.657348 99956 net.cpp:150] Setting up inception_4e/1x1
I0202 13:47:03.657358 99956 net.cpp:157] Top shape: 50 256 14 14 (2508800)
I0202 13:47:03.657362 99956 net.cpp:165] Memory required for data: 2529141224
I0202 13:47:03.657369 99956 layer_factory.hpp:77] Creating layer inception_4e/relu_1x1
I0202 13:47:03.657378 99956 net.cpp:100] Creating Layer inception_4e/relu_1x1
I0202 13:47:03.657382 99956 net.cpp:434] inception_4e/relu_1x1 <- inception_4e/1x1
I0202 13:47:03.657388 99956 net.cpp:395] inception_4e/relu_1x1 -> inception_4e/1x1 (in-place)
I0202 13:47:03.657395 99956 net.cpp:150] Setting up inception_4e/relu_1x1
I0202 13:47:03.657400 99956 net.cpp:157] Top shape: 50 256 14 14 (2508800)
I0202 13:47:03.657403 99956 net.cpp:165] Memory required for data: 2539176424
I0202 13:47:03.657407 99956 layer_factory.hpp:77] Creating layer inception_4e/3x3_reduce
I0202 13:47:03.657445 99956 net.cpp:100] Creating Layer inception_4e/3x3_reduce
I0202 13:47:03.657450 99956 net.cpp:434] inception_4e/3x3_reduce <- inception_4d/output_inception_4d/output_0_split_2
I0202 13:47:03.657459 99956 net.cpp:408] inception_4e/3x3_reduce -> inception_4e/3x3_reduce
I0202 13:47:03.658241 99956 net.cpp:150] Setting up inception_4e/3x3_reduce
I0202 13:47:03.658252 99956 net.cpp:157] Top shape: 50 160 14 14 (1568000)
I0202 13:47:03.658255 99956 net.cpp:165] Memory required for data: 2545448424
I0202 13:47:03.658262 99956 layer_factory.hpp:77] Creating layer inception_4e/relu_3x3_reduce
I0202 13:47:03.658270 99956 net.cpp:100] Creating Layer inception_4e/relu_3x3_reduce
I0202 13:47:03.658275 99956 net.cpp:434] inception_4e/relu_3x3_reduce <- inception_4e/3x3_reduce
I0202 13:47:03.658285 99956 net.cpp:395] inception_4e/relu_3x3_reduce -> inception_4e/3x3_reduce (in-place)
I0202 13:47:03.658299 99956 net.cpp:150] Setting up inception_4e/relu_3x3_reduce
I0202 13:47:03.658304 99956 net.cpp:157] Top shape: 50 160 14 14 (1568000)
I0202 13:47:03.658308 99956 net.cpp:165] Memory required for data: 2551720424
I0202 13:47:03.658313 99956 layer_factory.hpp:77] Creating layer inception_4e/3x3
I0202 13:47:03.658323 99956 net.cpp:100] Creating Layer inception_4e/3x3
I0202 13:47:03.658326 99956 net.cpp:434] inception_4e/3x3 <- inception_4e/3x3_reduce
I0202 13:47:03.658332 99956 net.cpp:408] inception_4e/3x3 -> inception_4e/3x3
I0202 13:47:03.662940 99956 net.cpp:150] Setting up inception_4e/3x3
I0202 13:47:03.662950 99956 net.cpp:157] Top shape: 50 320 14 14 (3136000)
I0202 13:47:03.662955 99956 net.cpp:165] Memory required for data: 2564264424
I0202 13:47:03.662961 99956 layer_factory.hpp:77] Creating layer inception_4e/relu_3x3
I0202 13:47:03.662968 99956 net.cpp:100] Creating Layer inception_4e/relu_3x3
I0202 13:47:03.662972 99956 net.cpp:434] inception_4e/relu_3x3 <- inception_4e/3x3
I0202 13:47:03.662981 99956 net.cpp:395] inception_4e/relu_3x3 -> inception_4e/3x3 (in-place)
I0202 13:47:03.662987 99956 net.cpp:150] Setting up inception_4e/relu_3x3
I0202 13:47:03.662992 99956 net.cpp:157] Top shape: 50 320 14 14 (3136000)
I0202 13:47:03.662995 99956 net.cpp:165] Memory required for data: 2576808424
I0202 13:47:03.663000 99956 layer_factory.hpp:77] Creating layer inception_4e/5x5_reduce
I0202 13:47:03.663009 99956 net.cpp:100] Creating Layer inception_4e/5x5_reduce
I0202 13:47:03.663013 99956 net.cpp:434] inception_4e/5x5_reduce <- inception_4d/output_inception_4d/output_0_split_3
I0202 13:47:03.663022 99956 net.cpp:408] inception_4e/5x5_reduce -> inception_4e/5x5_reduce
I0202 13:47:03.663185 99956 net.cpp:150] Setting up inception_4e/5x5_reduce
I0202 13:47:03.663192 99956 net.cpp:157] Top shape: 50 32 14 14 (313600)
I0202 13:47:03.663195 99956 net.cpp:165] Memory required for data: 2578062824
I0202 13:47:03.663202 99956 layer_factory.hpp:77] Creating layer inception_4e/relu_5x5_reduce
I0202 13:47:03.663208 99956 net.cpp:100] Creating Layer inception_4e/relu_5x5_reduce
I0202 13:47:03.663213 99956 net.cpp:434] inception_4e/relu_5x5_reduce <- inception_4e/5x5_reduce
I0202 13:47:03.663218 99956 net.cpp:395] inception_4e/relu_5x5_reduce -> inception_4e/5x5_reduce (in-place)
I0202 13:47:03.663223 99956 net.cpp:150] Setting up inception_4e/relu_5x5_reduce
I0202 13:47:03.663228 99956 net.cpp:157] Top shape: 50 32 14 14 (313600)
I0202 13:47:03.663231 99956 net.cpp:165] Memory required for data: 2579317224
I0202 13:47:03.663235 99956 layer_factory.hpp:77] Creating layer inception_4e/5x5
I0202 13:47:03.663245 99956 net.cpp:100] Creating Layer inception_4e/5x5
I0202 13:47:03.663249 99956 net.cpp:434] inception_4e/5x5 <- inception_4e/5x5_reduce
I0202 13:47:03.663257 99956 net.cpp:408] inception_4e/5x5 -> inception_4e/5x5
I0202 13:47:03.664192 99956 net.cpp:150] Setting up inception_4e/5x5
I0202 13:47:03.664201 99956 net.cpp:157] Top shape: 50 128 14 14 (1254400)
I0202 13:47:03.664206 99956 net.cpp:165] Memory required for data: 2584334824
I0202 13:47:03.664211 99956 layer_factory.hpp:77] Creating layer inception_4e/relu_5x5
I0202 13:47:03.664218 99956 net.cpp:100] Creating Layer inception_4e/relu_5x5
I0202 13:47:03.664222 99956 net.cpp:434] inception_4e/relu_5x5 <- inception_4e/5x5
I0202 13:47:03.664229 99956 net.cpp:395] inception_4e/relu_5x5 -> inception_4e/5x5 (in-place)
I0202 13:47:03.664237 99956 net.cpp:150] Setting up inception_4e/relu_5x5
I0202 13:47:03.664240 99956 net.cpp:157] Top shape: 50 128 14 14 (1254400)
I0202 13:47:03.664244 99956 net.cpp:165] Memory required for data: 2589352424
I0202 13:47:03.664248 99956 layer_factory.hpp:77] Creating layer inception_4e/pool
I0202 13:47:03.664258 99956 net.cpp:100] Creating Layer inception_4e/pool
I0202 13:47:03.664263 99956 net.cpp:434] inception_4e/pool <- inception_4d/output_inception_4d/output_0_split_4
I0202 13:47:03.664268 99956 net.cpp:408] inception_4e/pool -> inception_4e/pool
I0202 13:47:03.664294 99956 net.cpp:150] Setting up inception_4e/pool
I0202 13:47:03.664299 99956 net.cpp:157] Top shape: 50 528 14 14 (5174400)
I0202 13:47:03.664304 99956 net.cpp:165] Memory required for data: 2610050024
I0202 13:47:03.664307 99956 layer_factory.hpp:77] Creating layer inception_4e/pool_proj
I0202 13:47:03.664319 99956 net.cpp:100] Creating Layer inception_4e/pool_proj
I0202 13:47:03.664322 99956 net.cpp:434] inception_4e/pool_proj <- inception_4e/pool
I0202 13:47:03.664331 99956 net.cpp:408] inception_4e/pool_proj -> inception_4e/pool_proj
I0202 13:47:03.664969 99956 net.cpp:150] Setting up inception_4e/pool_proj
I0202 13:47:03.664979 99956 net.cpp:157] Top shape: 50 128 14 14 (1254400)
I0202 13:47:03.664983 99956 net.cpp:165] Memory required for data: 2615067624
I0202 13:47:03.664991 99956 layer_factory.hpp:77] Creating layer inception_4e/relu_pool_proj
I0202 13:47:03.664996 99956 net.cpp:100] Creating Layer inception_4e/relu_pool_proj
I0202 13:47:03.665001 99956 net.cpp:434] inception_4e/relu_pool_proj <- inception_4e/pool_proj
I0202 13:47:03.665009 99956 net.cpp:395] inception_4e/relu_pool_proj -> inception_4e/pool_proj (in-place)
I0202 13:47:03.665015 99956 net.cpp:150] Setting up inception_4e/relu_pool_proj
I0202 13:47:03.665021 99956 net.cpp:157] Top shape: 50 128 14 14 (1254400)
I0202 13:47:03.665024 99956 net.cpp:165] Memory required for data: 2620085224
I0202 13:47:03.665029 99956 layer_factory.hpp:77] Creating layer inception_4e/output
I0202 13:47:03.665035 99956 net.cpp:100] Creating Layer inception_4e/output
I0202 13:47:03.665040 99956 net.cpp:434] inception_4e/output <- inception_4e/1x1
I0202 13:47:03.665045 99956 net.cpp:434] inception_4e/output <- inception_4e/3x3
I0202 13:47:03.665050 99956 net.cpp:434] inception_4e/output <- inception_4e/5x5
I0202 13:47:03.665053 99956 net.cpp:434] inception_4e/output <- inception_4e/pool_proj
I0202 13:47:03.665062 99956 net.cpp:408] inception_4e/output -> inception_4e/output
I0202 13:47:03.665071 99956 net.cpp:150] Setting up inception_4e/output
I0202 13:47:03.665077 99956 net.cpp:157] Top shape: 50 832 14 14 (8153600)
I0202 13:47:03.665081 99956 net.cpp:165] Memory required for data: 2652699624
I0202 13:47:03.665084 99956 layer_factory.hpp:77] Creating layer pool4/3x3_s2
I0202 13:47:03.665091 99956 net.cpp:100] Creating Layer pool4/3x3_s2
I0202 13:47:03.665096 99956 net.cpp:434] pool4/3x3_s2 <- inception_4e/output
I0202 13:47:03.665102 99956 net.cpp:408] pool4/3x3_s2 -> pool4/3x3_s2
I0202 13:47:03.665110 99956 net.cpp:150] Setting up pool4/3x3_s2
I0202 13:47:03.665115 99956 net.cpp:157] Top shape: 50 832 7 7 (2038400)
I0202 13:47:03.665118 99956 net.cpp:165] Memory required for data: 2660853224
I0202 13:47:03.665122 99956 layer_factory.hpp:77] Creating layer pool4/3x3_s2_pool4/3x3_s2_0_split
I0202 13:47:03.665132 99956 net.cpp:100] Creating Layer pool4/3x3_s2_pool4/3x3_s2_0_split
I0202 13:47:03.665135 99956 net.cpp:434] pool4/3x3_s2_pool4/3x3_s2_0_split <- pool4/3x3_s2
I0202 13:47:03.665141 99956 net.cpp:408] pool4/3x3_s2_pool4/3x3_s2_0_split -> pool4/3x3_s2_pool4/3x3_s2_0_split_0
I0202 13:47:03.665148 99956 net.cpp:408] pool4/3x3_s2_pool4/3x3_s2_0_split -> pool4/3x3_s2_pool4/3x3_s2_0_split_1
I0202 13:47:03.665155 99956 net.cpp:408] pool4/3x3_s2_pool4/3x3_s2_0_split -> pool4/3x3_s2_pool4/3x3_s2_0_split_2
I0202 13:47:03.665185 99956 net.cpp:408] pool4/3x3_s2_pool4/3x3_s2_0_split -> pool4/3x3_s2_pool4/3x3_s2_0_split_3
I0202 13:47:03.665194 99956 net.cpp:150] Setting up pool4/3x3_s2_pool4/3x3_s2_0_split
I0202 13:47:03.665199 99956 net.cpp:157] Top shape: 50 832 7 7 (2038400)
I0202 13:47:03.665205 99956 net.cpp:157] Top shape: 50 832 7 7 (2038400)
I0202 13:47:03.665210 99956 net.cpp:157] Top shape: 50 832 7 7 (2038400)
I0202 13:47:03.665215 99956 net.cpp:157] Top shape: 50 832 7 7 (2038400)
I0202 13:47:03.665218 99956 net.cpp:165] Memory required for data: 2693467624
I0202 13:47:03.665221 99956 layer_factory.hpp:77] Creating layer inception_5a/1x1
I0202 13:47:03.665233 99956 net.cpp:100] Creating Layer inception_5a/1x1
I0202 13:47:03.665242 99956 net.cpp:434] inception_5a/1x1 <- pool4/3x3_s2_pool4/3x3_s2_0_split_0
I0202 13:47:03.665257 99956 net.cpp:408] inception_5a/1x1 -> inception_5a/1x1
I0202 13:47:03.667178 99956 net.cpp:150] Setting up inception_5a/1x1
I0202 13:47:03.667187 99956 net.cpp:157] Top shape: 50 256 7 7 (627200)
I0202 13:47:03.667191 99956 net.cpp:165] Memory required for data: 2695976424
I0202 13:47:03.667198 99956 layer_factory.hpp:77] Creating layer inception_5a/relu_1x1
I0202 13:47:03.667204 99956 net.cpp:100] Creating Layer inception_5a/relu_1x1
I0202 13:47:03.667209 99956 net.cpp:434] inception_5a/relu_1x1 <- inception_5a/1x1
I0202 13:47:03.667217 99956 net.cpp:395] inception_5a/relu_1x1 -> inception_5a/1x1 (in-place)
I0202 13:47:03.667224 99956 net.cpp:150] Setting up inception_5a/relu_1x1
I0202 13:47:03.667229 99956 net.cpp:157] Top shape: 50 256 7 7 (627200)
I0202 13:47:03.667232 99956 net.cpp:165] Memory required for data: 2698485224
I0202 13:47:03.667237 99956 layer_factory.hpp:77] Creating layer inception_5a/3x3_reduce
I0202 13:47:03.667245 99956 net.cpp:100] Creating Layer inception_5a/3x3_reduce
I0202 13:47:03.667250 99956 net.cpp:434] inception_5a/3x3_reduce <- pool4/3x3_s2_pool4/3x3_s2_0_split_1
I0202 13:47:03.667258 99956 net.cpp:408] inception_5a/3x3_reduce -> inception_5a/3x3_reduce
I0202 13:47:03.668467 99956 net.cpp:150] Setting up inception_5a/3x3_reduce
I0202 13:47:03.668476 99956 net.cpp:157] Top shape: 50 160 7 7 (392000)
I0202 13:47:03.668479 99956 net.cpp:165] Memory required for data: 2700053224
I0202 13:47:03.668486 99956 layer_factory.hpp:77] Creating layer inception_5a/relu_3x3_reduce
I0202 13:47:03.668494 99956 net.cpp:100] Creating Layer inception_5a/relu_3x3_reduce
I0202 13:47:03.668499 99956 net.cpp:434] inception_5a/relu_3x3_reduce <- inception_5a/3x3_reduce
I0202 13:47:03.668505 99956 net.cpp:395] inception_5a/relu_3x3_reduce -> inception_5a/3x3_reduce (in-place)
I0202 13:47:03.668511 99956 net.cpp:150] Setting up inception_5a/relu_3x3_reduce
I0202 13:47:03.668516 99956 net.cpp:157] Top shape: 50 160 7 7 (392000)
I0202 13:47:03.668520 99956 net.cpp:165] Memory required for data: 2701621224
I0202 13:47:03.668524 99956 layer_factory.hpp:77] Creating layer inception_5a/3x3
I0202 13:47:03.668532 99956 net.cpp:100] Creating Layer inception_5a/3x3
I0202 13:47:03.668536 99956 net.cpp:434] inception_5a/3x3 <- inception_5a/3x3_reduce
I0202 13:47:03.668545 99956 net.cpp:408] inception_5a/3x3 -> inception_5a/3x3
I0202 13:47:03.673178 99956 net.cpp:150] Setting up inception_5a/3x3
I0202 13:47:03.673188 99956 net.cpp:157] Top shape: 50 320 7 7 (784000)
I0202 13:47:03.673192 99956 net.cpp:165] Memory required for data: 2704757224
I0202 13:47:03.673198 99956 layer_factory.hpp:77] Creating layer inception_5a/relu_3x3
I0202 13:47:03.673205 99956 net.cpp:100] Creating Layer inception_5a/relu_3x3
I0202 13:47:03.673209 99956 net.cpp:434] inception_5a/relu_3x3 <- inception_5a/3x3
I0202 13:47:03.673215 99956 net.cpp:395] inception_5a/relu_3x3 -> inception_5a/3x3 (in-place)
I0202 13:47:03.673221 99956 net.cpp:150] Setting up inception_5a/relu_3x3
I0202 13:47:03.673226 99956 net.cpp:157] Top shape: 50 320 7 7 (784000)
I0202 13:47:03.673229 99956 net.cpp:165] Memory required for data: 2707893224
I0202 13:47:03.673233 99956 layer_factory.hpp:77] Creating layer inception_5a/5x5_reduce
I0202 13:47:03.673241 99956 net.cpp:100] Creating Layer inception_5a/5x5_reduce
I0202 13:47:03.673245 99956 net.cpp:434] inception_5a/5x5_reduce <- pool4/3x3_s2_pool4/3x3_s2_0_split_2
I0202 13:47:03.673254 99956 net.cpp:408] inception_5a/5x5_reduce -> inception_5a/5x5_reduce
I0202 13:47:03.673496 99956 net.cpp:150] Setting up inception_5a/5x5_reduce
I0202 13:47:03.673503 99956 net.cpp:157] Top shape: 50 32 7 7 (78400)
I0202 13:47:03.673506 99956 net.cpp:165] Memory required for data: 2708206824
I0202 13:47:03.673513 99956 layer_factory.hpp:77] Creating layer inception_5a/relu_5x5_reduce
I0202 13:47:03.673519 99956 net.cpp:100] Creating Layer inception_5a/relu_5x5_reduce
I0202 13:47:03.673523 99956 net.cpp:434] inception_5a/relu_5x5_reduce <- inception_5a/5x5_reduce
I0202 13:47:03.673550 99956 net.cpp:395] inception_5a/relu_5x5_reduce -> inception_5a/5x5_reduce (in-place)
I0202 13:47:03.673557 99956 net.cpp:150] Setting up inception_5a/relu_5x5_reduce
I0202 13:47:03.673563 99956 net.cpp:157] Top shape: 50 32 7 7 (78400)
I0202 13:47:03.673566 99956 net.cpp:165] Memory required for data: 2708520424
I0202 13:47:03.673569 99956 layer_factory.hpp:77] Creating layer inception_5a/5x5
I0202 13:47:03.673580 99956 net.cpp:100] Creating Layer inception_5a/5x5
I0202 13:47:03.673585 99956 net.cpp:434] inception_5a/5x5 <- inception_5a/5x5_reduce
I0202 13:47:03.673591 99956 net.cpp:408] inception_5a/5x5 -> inception_5a/5x5
I0202 13:47:03.674535 99956 net.cpp:150] Setting up inception_5a/5x5
I0202 13:47:03.674545 99956 net.cpp:157] Top shape: 50 128 7 7 (313600)
I0202 13:47:03.674547 99956 net.cpp:165] Memory required for data: 2709774824
I0202 13:47:03.674554 99956 layer_factory.hpp:77] Creating layer inception_5a/relu_5x5
I0202 13:47:03.674562 99956 net.cpp:100] Creating Layer inception_5a/relu_5x5
I0202 13:47:03.674566 99956 net.cpp:434] inception_5a/relu_5x5 <- inception_5a/5x5
I0202 13:47:03.674572 99956 net.cpp:395] inception_5a/relu_5x5 -> inception_5a/5x5 (in-place)
I0202 13:47:03.674578 99956 net.cpp:150] Setting up inception_5a/relu_5x5
I0202 13:47:03.674583 99956 net.cpp:157] Top shape: 50 128 7 7 (313600)
I0202 13:47:03.674587 99956 net.cpp:165] Memory required for data: 2711029224
I0202 13:47:03.674590 99956 layer_factory.hpp:77] Creating layer inception_5a/pool
I0202 13:47:03.674597 99956 net.cpp:100] Creating Layer inception_5a/pool
I0202 13:47:03.674602 99956 net.cpp:434] inception_5a/pool <- pool4/3x3_s2_pool4/3x3_s2_0_split_3
I0202 13:47:03.674610 99956 net.cpp:408] inception_5a/pool -> inception_5a/pool
I0202 13:47:03.674619 99956 net.cpp:150] Setting up inception_5a/pool
I0202 13:47:03.674628 99956 net.cpp:157] Top shape: 50 832 7 7 (2038400)
I0202 13:47:03.674633 99956 net.cpp:165] Memory required for data: 2719182824
I0202 13:47:03.674638 99956 layer_factory.hpp:77] Creating layer inception_5a/pool_proj
I0202 13:47:03.674649 99956 net.cpp:100] Creating Layer inception_5a/pool_proj
I0202 13:47:03.674654 99956 net.cpp:434] inception_5a/pool_proj <- inception_5a/pool
I0202 13:47:03.674661 99956 net.cpp:408] inception_5a/pool_proj -> inception_5a/pool_proj
I0202 13:47:03.675635 99956 net.cpp:150] Setting up inception_5a/pool_proj
I0202 13:47:03.675644 99956 net.cpp:157] Top shape: 50 128 7 7 (313600)
I0202 13:47:03.675648 99956 net.cpp:165] Memory required for data: 2720437224
I0202 13:47:03.675655 99956 layer_factory.hpp:77] Creating layer inception_5a/relu_pool_proj
I0202 13:47:03.675664 99956 net.cpp:100] Creating Layer inception_5a/relu_pool_proj
I0202 13:47:03.675668 99956 net.cpp:434] inception_5a/relu_pool_proj <- inception_5a/pool_proj
I0202 13:47:03.675674 99956 net.cpp:395] inception_5a/relu_pool_proj -> inception_5a/pool_proj (in-place)
I0202 13:47:03.675683 99956 net.cpp:150] Setting up inception_5a/relu_pool_proj
I0202 13:47:03.675688 99956 net.cpp:157] Top shape: 50 128 7 7 (313600)
I0202 13:47:03.675691 99956 net.cpp:165] Memory required for data: 2721691624
I0202 13:47:03.675695 99956 layer_factory.hpp:77] Creating layer inception_5a/output
I0202 13:47:03.675701 99956 net.cpp:100] Creating Layer inception_5a/output
I0202 13:47:03.675706 99956 net.cpp:434] inception_5a/output <- inception_5a/1x1
I0202 13:47:03.675711 99956 net.cpp:434] inception_5a/output <- inception_5a/3x3
I0202 13:47:03.675716 99956 net.cpp:434] inception_5a/output <- inception_5a/5x5
I0202 13:47:03.675721 99956 net.cpp:434] inception_5a/output <- inception_5a/pool_proj
I0202 13:47:03.675726 99956 net.cpp:408] inception_5a/output -> inception_5a/output
I0202 13:47:03.675735 99956 net.cpp:150] Setting up inception_5a/output
I0202 13:47:03.675740 99956 net.cpp:157] Top shape: 50 832 7 7 (2038400)
I0202 13:47:03.675745 99956 net.cpp:165] Memory required for data: 2729845224
I0202 13:47:03.675747 99956 layer_factory.hpp:77] Creating layer inception_5a/output_inception_5a/output_0_split
I0202 13:47:03.675770 99956 net.cpp:100] Creating Layer inception_5a/output_inception_5a/output_0_split
I0202 13:47:03.675773 99956 net.cpp:434] inception_5a/output_inception_5a/output_0_split <- inception_5a/output
I0202 13:47:03.675781 99956 net.cpp:408] inception_5a/output_inception_5a/output_0_split -> inception_5a/output_inception_5a/output_0_split_0
I0202 13:47:03.675789 99956 net.cpp:408] inception_5a/output_inception_5a/output_0_split -> inception_5a/output_inception_5a/output_0_split_1
I0202 13:47:03.675796 99956 net.cpp:408] inception_5a/output_inception_5a/output_0_split -> inception_5a/output_inception_5a/output_0_split_2
I0202 13:47:03.675806 99956 net.cpp:408] inception_5a/output_inception_5a/output_0_split -> inception_5a/output_inception_5a/output_0_split_3
I0202 13:47:03.675813 99956 net.cpp:150] Setting up inception_5a/output_inception_5a/output_0_split
I0202 13:47:03.675818 99956 net.cpp:157] Top shape: 50 832 7 7 (2038400)
I0202 13:47:03.675823 99956 net.cpp:157] Top shape: 50 832 7 7 (2038400)
I0202 13:47:03.675827 99956 net.cpp:157] Top shape: 50 832 7 7 (2038400)
I0202 13:47:03.675832 99956 net.cpp:157] Top shape: 50 832 7 7 (2038400)
I0202 13:47:03.675835 99956 net.cpp:165] Memory required for data: 2762459624
I0202 13:47:03.675839 99956 layer_factory.hpp:77] Creating layer inception_5b/1x1
I0202 13:47:03.675850 99956 net.cpp:100] Creating Layer inception_5b/1x1
I0202 13:47:03.675854 99956 net.cpp:434] inception_5b/1x1 <- inception_5a/output_inception_5a/output_0_split_0
I0202 13:47:03.675861 99956 net.cpp:408] inception_5b/1x1 -> inception_5b/1x1
I0202 13:47:03.678735 99956 net.cpp:150] Setting up inception_5b/1x1
I0202 13:47:03.678745 99956 net.cpp:157] Top shape: 50 384 7 7 (940800)
I0202 13:47:03.678750 99956 net.cpp:165] Memory required for data: 2766222824
I0202 13:47:03.678755 99956 layer_factory.hpp:77] Creating layer inception_5b/relu_1x1
I0202 13:47:03.678762 99956 net.cpp:100] Creating Layer inception_5b/relu_1x1
I0202 13:47:03.678767 99956 net.cpp:434] inception_5b/relu_1x1 <- inception_5b/1x1
I0202 13:47:03.678776 99956 net.cpp:395] inception_5b/relu_1x1 -> inception_5b/1x1 (in-place)
I0202 13:47:03.678783 99956 net.cpp:150] Setting up inception_5b/relu_1x1
I0202 13:47:03.678788 99956 net.cpp:157] Top shape: 50 384 7 7 (940800)
I0202 13:47:03.678791 99956 net.cpp:165] Memory required for data: 2769986024
I0202 13:47:03.678795 99956 layer_factory.hpp:77] Creating layer inception_5b/3x3_reduce
I0202 13:47:03.678805 99956 net.cpp:100] Creating Layer inception_5b/3x3_reduce
I0202 13:47:03.678809 99956 net.cpp:434] inception_5b/3x3_reduce <- inception_5a/output_inception_5a/output_0_split_1
I0202 13:47:03.678817 99956 net.cpp:408] inception_5b/3x3_reduce -> inception_5b/3x3_reduce
I0202 13:47:03.680263 99956 net.cpp:150] Setting up inception_5b/3x3_reduce
I0202 13:47:03.680272 99956 net.cpp:157] Top shape: 50 192 7 7 (470400)
I0202 13:47:03.680275 99956 net.cpp:165] Memory required for data: 2771867624
I0202 13:47:03.680282 99956 layer_factory.hpp:77] Creating layer inception_5b/relu_3x3_reduce
I0202 13:47:03.680290 99956 net.cpp:100] Creating Layer inception_5b/relu_3x3_reduce
I0202 13:47:03.680295 99956 net.cpp:434] inception_5b/relu_3x3_reduce <- inception_5b/3x3_reduce
I0202 13:47:03.680301 99956 net.cpp:395] inception_5b/relu_3x3_reduce -> inception_5b/3x3_reduce (in-place)
I0202 13:47:03.680307 99956 net.cpp:150] Setting up inception_5b/relu_3x3_reduce
I0202 13:47:03.680312 99956 net.cpp:157] Top shape: 50 192 7 7 (470400)
I0202 13:47:03.680316 99956 net.cpp:165] Memory required for data: 2773749224
I0202 13:47:03.680320 99956 layer_factory.hpp:77] Creating layer inception_5b/3x3
I0202 13:47:03.680328 99956 net.cpp:100] Creating Layer inception_5b/3x3
I0202 13:47:03.680332 99956 net.cpp:434] inception_5b/3x3 <- inception_5b/3x3_reduce
I0202 13:47:03.680341 99956 net.cpp:408] inception_5b/3x3 -> inception_5b/3x3
I0202 13:47:03.686961 99956 net.cpp:150] Setting up inception_5b/3x3
I0202 13:47:03.686971 99956 net.cpp:157] Top shape: 50 384 7 7 (940800)
I0202 13:47:03.686980 99956 net.cpp:165] Memory required for data: 2777512424
I0202 13:47:03.686995 99956 layer_factory.hpp:77] Creating layer inception_5b/relu_3x3
I0202 13:47:03.687001 99956 net.cpp:100] Creating Layer inception_5b/relu_3x3
I0202 13:47:03.687006 99956 net.cpp:434] inception_5b/relu_3x3 <- inception_5b/3x3
I0202 13:47:03.687012 99956 net.cpp:395] inception_5b/relu_3x3 -> inception_5b/3x3 (in-place)
I0202 13:47:03.687018 99956 net.cpp:150] Setting up inception_5b/relu_3x3
I0202 13:47:03.687023 99956 net.cpp:157] Top shape: 50 384 7 7 (940800)
I0202 13:47:03.687027 99956 net.cpp:165] Memory required for data: 2781275624
I0202 13:47:03.687031 99956 layer_factory.hpp:77] Creating layer inception_5b/5x5_reduce
I0202 13:47:03.687041 99956 net.cpp:100] Creating Layer inception_5b/5x5_reduce
I0202 13:47:03.687046 99956 net.cpp:434] inception_5b/5x5_reduce <- inception_5a/output_inception_5a/output_0_split_2
I0202 13:47:03.687052 99956 net.cpp:408] inception_5b/5x5_reduce -> inception_5b/5x5_reduce
I0202 13:47:03.687413 99956 net.cpp:150] Setting up inception_5b/5x5_reduce
I0202 13:47:03.687422 99956 net.cpp:157] Top shape: 50 48 7 7 (117600)
I0202 13:47:03.687424 99956 net.cpp:165] Memory required for data: 2781746024
I0202 13:47:03.687432 99956 layer_factory.hpp:77] Creating layer inception_5b/relu_5x5_reduce
I0202 13:47:03.687439 99956 net.cpp:100] Creating Layer inception_5b/relu_5x5_reduce
I0202 13:47:03.687443 99956 net.cpp:434] inception_5b/relu_5x5_reduce <- inception_5b/5x5_reduce
I0202 13:47:03.687449 99956 net.cpp:395] inception_5b/relu_5x5_reduce -> inception_5b/5x5_reduce (in-place)
I0202 13:47:03.687455 99956 net.cpp:150] Setting up inception_5b/relu_5x5_reduce
I0202 13:47:03.687460 99956 net.cpp:157] Top shape: 50 48 7 7 (117600)
I0202 13:47:03.687463 99956 net.cpp:165] Memory required for data: 2782216424
I0202 13:47:03.687468 99956 layer_factory.hpp:77] Creating layer inception_5b/5x5
I0202 13:47:03.687479 99956 net.cpp:100] Creating Layer inception_5b/5x5
I0202 13:47:03.687482 99956 net.cpp:434] inception_5b/5x5 <- inception_5b/5x5_reduce
I0202 13:47:03.687491 99956 net.cpp:408] inception_5b/5x5 -> inception_5b/5x5
I0202 13:47:03.688886 99956 net.cpp:150] Setting up inception_5b/5x5
I0202 13:47:03.688897 99956 net.cpp:157] Top shape: 50 128 7 7 (313600)
I0202 13:47:03.688901 99956 net.cpp:165] Memory required for data: 2783470824
I0202 13:47:03.688908 99956 layer_factory.hpp:77] Creating layer inception_5b/relu_5x5
I0202 13:47:03.688913 99956 net.cpp:100] Creating Layer inception_5b/relu_5x5
I0202 13:47:03.688918 99956 net.cpp:434] inception_5b/relu_5x5 <- inception_5b/5x5
I0202 13:47:03.688923 99956 net.cpp:395] inception_5b/relu_5x5 -> inception_5b/5x5 (in-place)
I0202 13:47:03.688930 99956 net.cpp:150] Setting up inception_5b/relu_5x5
I0202 13:47:03.688935 99956 net.cpp:157] Top shape: 50 128 7 7 (313600)
I0202 13:47:03.688938 99956 net.cpp:165] Memory required for data: 2784725224
I0202 13:47:03.688942 99956 layer_factory.hpp:77] Creating layer inception_5b/pool
I0202 13:47:03.688951 99956 net.cpp:100] Creating Layer inception_5b/pool
I0202 13:47:03.688956 99956 net.cpp:434] inception_5b/pool <- inception_5a/output_inception_5a/output_0_split_3
I0202 13:47:03.688961 99956 net.cpp:408] inception_5b/pool -> inception_5b/pool
I0202 13:47:03.688971 99956 net.cpp:150] Setting up inception_5b/pool
I0202 13:47:03.688976 99956 net.cpp:157] Top shape: 50 832 7 7 (2038400)
I0202 13:47:03.688979 99956 net.cpp:165] Memory required for data: 2792878824
I0202 13:47:03.688982 99956 layer_factory.hpp:77] Creating layer inception_5b/pool_proj
I0202 13:47:03.688993 99956 net.cpp:100] Creating Layer inception_5b/pool_proj
I0202 13:47:03.688997 99956 net.cpp:434] inception_5b/pool_proj <- inception_5b/pool
I0202 13:47:03.689007 99956 net.cpp:408] inception_5b/pool_proj -> inception_5b/pool_proj
I0202 13:47:03.689980 99956 net.cpp:150] Setting up inception_5b/pool_proj
I0202 13:47:03.689990 99956 net.cpp:157] Top shape: 50 128 7 7 (313600)
I0202 13:47:03.689993 99956 net.cpp:165] Memory required for data: 2794133224
I0202 13:47:03.690004 99956 layer_factory.hpp:77] Creating layer inception_5b/relu_pool_proj
I0202 13:47:03.690016 99956 net.cpp:100] Creating Layer inception_5b/relu_pool_proj
I0202 13:47:03.690021 99956 net.cpp:434] inception_5b/relu_pool_proj <- inception_5b/pool_proj
I0202 13:47:03.690029 99956 net.cpp:395] inception_5b/relu_pool_proj -> inception_5b/pool_proj (in-place)
I0202 13:47:03.690037 99956 net.cpp:150] Setting up inception_5b/relu_pool_proj
I0202 13:47:03.690042 99956 net.cpp:157] Top shape: 50 128 7 7 (313600)
I0202 13:47:03.690045 99956 net.cpp:165] Memory required for data: 2795387624
I0202 13:47:03.690048 99956 layer_factory.hpp:77] Creating layer inception_5b/output
I0202 13:47:03.690055 99956 net.cpp:100] Creating Layer inception_5b/output
I0202 13:47:03.690059 99956 net.cpp:434] inception_5b/output <- inception_5b/1x1
I0202 13:47:03.690064 99956 net.cpp:434] inception_5b/output <- inception_5b/3x3
I0202 13:47:03.690069 99956 net.cpp:434] inception_5b/output <- inception_5b/5x5
I0202 13:47:03.690073 99956 net.cpp:434] inception_5b/output <- inception_5b/pool_proj
I0202 13:47:03.690079 99956 net.cpp:408] inception_5b/output -> inception_5b/output
I0202 13:47:03.690088 99956 net.cpp:150] Setting up inception_5b/output
I0202 13:47:03.690093 99956 net.cpp:157] Top shape: 50 1024 7 7 (2508800)
I0202 13:47:03.690096 99956 net.cpp:165] Memory required for data: 2805422824
I0202 13:47:03.690100 99956 layer_factory.hpp:77] Creating layer pool5/7x7_s1
I0202 13:47:03.690109 99956 net.cpp:100] Creating Layer pool5/7x7_s1
I0202 13:47:03.690114 99956 net.cpp:434] pool5/7x7_s1 <- inception_5b/output
I0202 13:47:03.690120 99956 net.cpp:408] pool5/7x7_s1 -> pool5/7x7_s1
I0202 13:47:03.690129 99956 net.cpp:150] Setting up pool5/7x7_s1
I0202 13:47:03.690134 99956 net.cpp:157] Top shape: 50 1024 1 1 (51200)
I0202 13:47:03.690137 99956 net.cpp:165] Memory required for data: 2805627624
I0202 13:47:03.690141 99956 layer_factory.hpp:77] Creating layer pool5/drop_7x7_s1
I0202 13:47:03.690148 99956 net.cpp:100] Creating Layer pool5/drop_7x7_s1
I0202 13:47:03.690152 99956 net.cpp:434] pool5/drop_7x7_s1 <- pool5/7x7_s1
I0202 13:47:03.690157 99956 net.cpp:395] pool5/drop_7x7_s1 -> pool5/7x7_s1 (in-place)
I0202 13:47:03.690166 99956 net.cpp:150] Setting up pool5/drop_7x7_s1
I0202 13:47:03.690171 99956 net.cpp:157] Top shape: 50 1024 1 1 (51200)
I0202 13:47:03.690174 99956 net.cpp:165] Memory required for data: 2805832424
I0202 13:47:03.690178 99956 layer_factory.hpp:77] Creating layer loss3/classifier
I0202 13:47:03.690191 99956 net.cpp:100] Creating Layer loss3/classifier
I0202 13:47:03.690194 99956 net.cpp:434] loss3/classifier <- pool5/7x7_s1
I0202 13:47:03.690201 99956 net.cpp:408] loss3/classifier -> loss3/classifier
I0202 13:47:03.699570 99956 net.cpp:150] Setting up loss3/classifier
I0202 13:47:03.699582 99956 net.cpp:157] Top shape: 50 1000 (50000)
I0202 13:47:03.699585 99956 net.cpp:165] Memory required for data: 2806032424
I0202 13:47:03.699594 99956 layer_factory.hpp:77] Creating layer loss3/classifier_loss3/classifier_0_split
I0202 13:47:03.699604 99956 net.cpp:100] Creating Layer loss3/classifier_loss3/classifier_0_split
I0202 13:47:03.699609 99956 net.cpp:434] loss3/classifier_loss3/classifier_0_split <- loss3/classifier
I0202 13:47:03.699615 99956 net.cpp:408] loss3/classifier_loss3/classifier_0_split -> loss3/classifier_loss3/classifier_0_split_0
I0202 13:47:03.699626 99956 net.cpp:408] loss3/classifier_loss3/classifier_0_split -> loss3/classifier_loss3/classifier_0_split_1
I0202 13:47:03.699635 99956 net.cpp:408] loss3/classifier_loss3/classifier_0_split -> loss3/classifier_loss3/classifier_0_split_2
I0202 13:47:03.699643 99956 net.cpp:150] Setting up loss3/classifier_loss3/classifier_0_split
I0202 13:47:03.699648 99956 net.cpp:157] Top shape: 50 1000 (50000)
I0202 13:47:03.699653 99956 net.cpp:157] Top shape: 50 1000 (50000)
I0202 13:47:03.699657 99956 net.cpp:157] Top shape: 50 1000 (50000)
I0202 13:47:03.699661 99956 net.cpp:165] Memory required for data: 2806632424
I0202 13:47:03.699664 99956 layer_factory.hpp:77] Creating layer loss3/loss3
I0202 13:47:03.699682 99956 net.cpp:100] Creating Layer loss3/loss3
I0202 13:47:03.699687 99956 net.cpp:434] loss3/loss3 <- loss3/classifier_loss3/classifier_0_split_0
I0202 13:47:03.699693 99956 net.cpp:434] loss3/loss3 <- label_data_1_split_6
…
