…
I0327 09:12:46.332943  2701 net.cpp:493] The NetState phase (0) differed from the phase (1) specified by a rule in layer loss3/top-5
I0327 09:12:46.340399  2701 net.cpp:125] Initializing net from parameters: 
name: "GoogleNet"
state {
  phase: TRAIN
  level: 0
  stage: ""
}
layer {
  name: "data"
  type: "Data"
  top: "data"
  top: "label"
  include {
    phase: TRAIN
  }
  transform_param {
    mirror: true
    crop_size: 224
    mean_value: 104
    mean_value: 117
    mean_value: 123
  }
  data_param {
    source: "/home/user/user/LIBRARIES/caffeLibs/caffe/examples/imagenet/ilsvrc12_train_lmdb"
    batch_size: 6
    backend: LMDB
  }
}
layer {
  name: "label_data_1_split"
  type: "Split"
  bottom: "label"
  top: "label_data_1_split_0"
  top: "label_data_1_split_1"
  top: "label_data_1_split_2"
}
layer {
  name: "conv1/7x7_s2"
  type: "Convolution"
  bottom: "data"
  top: "conv1/7x7_s2"
  param {
    lr_mult: 1
    decay_mult: 1
  }
  param {
    lr_mult: 2
    decay_mult: 0
  }
  convolution_param {
    num_output: 64
    pad: 3
    kernel_size: 7
    stride: 2
    weight_filler {
      type: "xavier"
    }
    bias_filler {
      type: "constant"
      value: 0.2
    }
  }
}
layer {
  name: "conv1/relu_7x7"
  type: "ReLU"
  bottom: "conv1/7x7_s2"
  top: "conv1/7x7_s2"
}
layer {
  name: "pool1/3x3_s2"
  type: "Pooling"
  bottom: "conv1/7x7_s2"
  top: "pool1/3x3_s2"
  pooling_param {
    pool: MAX
    kernel_size: 3
    stride: 2
  }
}
layer {
  name: "pool1/norm1"
  type: "LRN"
  bottom: "pool1/3x3_s2"
  top: "pool1/norm1"
  lrn_param {
    local_size: 5
    alpha: 0.0001
    beta: 0.75
  }
}
layer {
  name: "conv2/3x3_reduce"
  type: "Convolution"
  bottom: "pool1/norm1"
  top: "conv2/3x3_reduce"
  param {
    lr_mult: 1
    decay_mult: 1
  }
  param {
    lr_mult: 2
    decay_mult: 0
  }
  convolution_param {
    num_output: 64
    kernel_size: 1
    weight_filler {
      type: "xavier"
    }
    bias_filler {
      type: "constant"
      value: 0.2
    }
  }
}
layer {
  name: "conv2/relu_3x3_reduce"
  type: "ReLU"
  bottom: "conv2/3x3_reduce"
  top: "conv2/3x3_reduce"
}
layer {
  name: "conv2/3x3"
  type: "Convolution"
  bottom: "conv2/3x3_reduce"
  top: "conv2/3x3"
  param {
    lr_mult: 1
    decay_mult: 1
  }
  param {
    lr_mult: 2
    decay_mult: 0
  }
  convolution_param {
    num_output: 192
    pad: 1
    kernel_size: 3
    weight_filler {
      type: "xavier"
    }
    bias_filler {
      type: "constant"
      value: 0.2
    }
  }
}
layer {
  name: "conv2/relu_3x3"
  type: "ReLU"
  bottom: "conv2/3x3"
  top: "conv2/3x3"
}
layer {
  name: "conv2/norm2"
  type: "LRN"
  bottom: "conv2/3x3"
  top: "conv2/norm2"
  lrn_param {
    local_size: 5
    alpha: 0.0001
    beta: 0.75
  }
}
layer {
  name: "pool2/3x3_s2"
  type: "Pooling"
  bottom: "conv2/norm2"
  top: "pool2/3x3_s2"
  pooling_param {
    pool: MAX
    kernel_size: 3
    stride: 2
  }
}
layer {
  name: "pool2/3x3_s2_pool2/3x3_s2_0_split"
  type: "Split"
  bottom: "pool2/3x3_s2"
  top: "pool2/3x3_s2_pool2/3x3_s2_0_split_0"
  top: "pool2/3x3_s2_pool2/3x3_s2_0_split_1"
  top: "pool2/3x3_s2_pool2/3x3_s2_0_split_2"
  top: "pool2/3x3_s2_pool2/3x3_s2_0_split_3"
}
layer {
  name: "inception_3a/1x1"
  type: "Convolution"
  bottom: "pool2/3x3_s2_pool2/3x3_s2_0_split_0"
  top: "inception_3a/1x1"
  param {
    lr_mult: 1
    decay_mult: 1
  }
  param {
    lr_mult: 2
    decay_mult: 0
  }
  convolution_param {
    num_output: 64
    kernel_size: 1
    weight_filler {
      type: "xavier"
    }
    bias_filler {
      type: "constant"
      value: 0.2
    }
  }
}
layer {
  name: "inception_3a/relu_1x1"
  type: "ReLU"
  bottom: "inception_3a/1x1"
  top: "inception_3a/1x1"
}
layer {
  name: "inception_3a/3x3_reduce"
  type: "Convolution"
  bottom: "pool2/3x3_s2_pool2/3x3_s2_0_split_1"
  top: "inception_3a/3x3_reduce"
  param {
    lr_mult: 1
    decay_mult: 1
  }
  param {
    lr_mult: 2
    decay_mult: 0
  }
  convolution_param {
    num_output: 96
    kernel_size: 1
    weight_filler {
      type: "xavier"
    }
    bias_filler {
      type: "constant"
      value: 0.2
    }
  }
}
layer {
  name: "inception_3a/relu_3x3_reduce"
  type: "ReLU"
  bottom: "inception_3a/3x3_reduce"
  top: "inception_3a/3x3_reduce"
}
layer {
  name: "inception_3a/3x3"
  type: "Convolution"
  bottom: "inception_3a/3x3_reduce"
  top: "inception_3a/3x3"
  param {
    lr_mult: 1
    decay_mult: 1
  }
  param {
    lr_mult: 2
    decay_mult: 0
  }
  convolution_param {
    num_output: 128
    pad: 1
    kernel_size: 3
    weight_filler {
      type: "xavier"
    }
    bias_filler {
      type: "constant"
      value: 0.2
    }
  }
}
layer {
  name: "inception_3a/relu_3x3"
  type: "ReLU"
  bottom: "inception_3a/3x3"
  top: "inception_3a/3x3"
}
layer {
  name: "inception_3a/5x5_reduce"
  type: "Convolution"
  bottom: "pool2/3x3_s2_pool2/3x3_s2_0_split_2"
  top: "inception_3a/5x5_reduce"
  param {
    lr_mult: 1
    decay_mult: 1
  }
  param {
    lr_mult: 2
    decay_mult: 0
  }
  convolution_param {
    num_output: 16
    kernel_size: 1
    weight_filler {
      type: "xavier"
    }
    bias_filler {
      type: "constant"
      value: 0.2
    }
  }
}
layer {
  name: "inception_3a/relu_5x5_reduce"
  type: "ReLU"
  bottom: "inception_3a/5x5_reduce"
  top: "inception_3a/5x5_reduce"
}
layer {
  name: "inception_3a/5x5"
  type: "Convolution"
  bottom: "inception_3a/5x5_reduce"
  top: "inception_3a/5x5"
  param {
    lr_mult: 1
    decay_mult: 1
  }
  param {
    lr_mult: 2
    decay_mult: 0
  }
  convolution_param {
    num_output: 32
    pad: 2
    kernel_size: 5
    weight_filler {
      type: "xavier"
    }
    bias_filler {
      type: "constant"
      value: 0.2
    }
  }
}
layer {
  name: "inception_3a/relu_5x5"
  type: "ReLU"
  bottom: "inception_3a/5x5"
  top: "inception_3a/5x5"
}
layer {
  name: "inception_3a/pool"
  type: "Pooling"
  bottom: "pool2/3x3_s2_pool2/3x3_s2_0_split_3"
  top: "inception_3a/pool"
  pooling_param {
    pool: MAX
    kernel_size: 3
    stride: 1
    pad: 1
  }
}
layer {
  name: "inception_3a/pool_proj"
  type: "Convolution"
  bottom: "inception_3a/pool"
  top: "inception_3a/pool_proj"
  param {
    lr_mult: 1
    decay_mult: 1
  }
  param {
    lr_mult: 2
    decay_mult: 0
  }
  convolution_param {
    num_output: 32
    kernel_size: 1
    weight_filler {
      type: "xavier"
    }
    bias_filler {
      type: "constant"
      value: 0.2
    }
  }
}
layer {
  name: "inception_3a/relu_pool_proj"
  type: "ReLU"
  bottom: "inception_3a/pool_proj"
  top: "inception_3a/pool_proj"
}
layer {
  name: "inception_3a/output"
  type: "Concat"
  bottom: "inception_3a/1x1"
  bottom: "inception_3a/3x3"
  bottom: "inception_3a/5x5"
  bottom: "inception_3a/pool_proj"
  top: "inception_3a/output"
}
layer {
  name: "inception_3a/output_inception_3a/output_0_split"
  type: "Split"
  bottom: "inception_3a/output"
  top: "inception_3a/output_inception_3a/output_0_split_0"
  top: "inception_3a/output_inception_3a/output_0_split_1"
  top: "inception_3a/output_inception_3a/output_0_split_2"
  top: "inception_3a/output_inception_3a/output_0_split_3"
}
layer {
  name: "inception_3b/1x1"
  type: "Convolution"
  bottom: "inception_3a/output_inception_3a/output_0_split_0"
  top: "inception_3b/1x1"
  param {
    lr_mult: 1
    decay_mult: 1
  }
  param {
    lr_mult: 2
    decay_mult: 0
  }
  convolution_param {
    num_output: 128
    kernel_size: 1
    weight_filler {
      type: "xavier"
    }
    bias_filler {
      type: "constant"
      value: 0.2
    }
  }
}
layer {
  name: "inception_3b/relu_1x1"
  type: "ReLU"
  bottom: "inception_3b/1x1"
  top: "inception_3b/1x1"
}
layer {
  name: "inception_3b/3x3_reduce"
  type: "Convolution"
  bottom: "inception_3a/output_inception_3a/output_0_split_1"
  top: "inception_3b/3x3_reduce"
  param {
    lr_mult: 1
    decay_mult: 1
  }
  param {
    lr_mult: 2
    decay_mult: 0
  }
  convolution_param {
    num_output: 128
    kernel_size: 1
    weight_filler {
      type: "xavier"
    }
    bias_filler {
      type: "constant"
      value: 0.2
    }
  }
}
layer {
  name: "inception_3b/relu_3x3_reduce"
  type: "ReLU"
  bottom: "inception_3b/3x3_reduce"
  top: "inception_3b/3x3_reduce"
}
layer {
  name: "inception_3b/3x3"
  type: "Convolution"
  bottom: "inception_3b/3x3_reduce"
  top: "inception_3b/3x3"
  param {
    lr_mult: 1
    decay_mult: 1
  }
  param {
    lr_mult: 2
    decay_mult: 0
  }
  convolution_param {
    num_output: 192
    pad: 1
    kernel_size: 3
    weight_filler {
      type: "xavier"
    }
    bias_filler {
      type: "constant"
      value: 0.2
    }
  }
}
layer {
  name: "inception_3b/relu_3x3"
  type: "ReLU"
  bottom: "inception_3b/3x3"
  top: "inception_3b/3x3"
}
layer {
  name: "inception_3b/5x5_reduce"
  type: "Convolution"
  bottom: "inception_3a/output_inception_3a/output_0_split_2"
  top: "inception_3b/5x5_reduce"
  param {
    lr_mult: 1
    decay_mult: 1
  }
  param {
    lr_mult: 2
    decay_mult: 0
  }
  convolution_param {
    num_output: 32
    kernel_size: 1
    weight_filler {
      type: "xavier"
    }
    bias_filler {
      type: "constant"
      value: 0.2
    }
  }
}
layer {
  name: "inception_3b/relu_5x5_reduce"
  type: "ReLU"
  bottom: "inception_3b/5x5_reduce"
  top: "inception_3b/5x5_reduce"
}
layer {
  name: "inception_3b/5x5"
  type: "Convolution"
  bottom: "inception_3b/5x5_reduce"
  top: "inception_3b/5x5"
  param {
    lr_mult: 1
    decay_mult: 1
  }
  param {
    lr_mult: 2
    decay_mult: 0
  }
  convolution_param {
    num_output: 96
    pad: 2
    kernel_size: 5
    weight_filler {
      type: "xavier"
    }
    bias_filler {
      type: "constant"
      value: 0.2
    }
  }
}
layer {
  name: "inception_3b/relu_5x5"
  type: "ReLU"
  bottom: "inception_3b/5x5"
  top: "inception_3b/5x5"
}
layer {
  name: "inception_3b/pool"
  type: "Pooling"
  bottom: "inception_3a/output_inception_3a/output_0_split_3"
  top: "inception_3b/pool"
  pooling_param {
    pool: MAX
    kernel_size: 3
    stride: 1
    pad: 1
  }
}
layer {
  name: "inception_3b/pool_proj"
  type: "Convolution"
  bottom: "inception_3b/pool"
  top: "inception_3b/pool_proj"
  param {
    lr_mult: 1
    decay_mult: 1
  }
  param {
    lr_mult: 2
    decay_mult: 0
  }
  convolution_param {
    num_output: 64
    kernel_size: 1
    weight_filler {
      type: "xavier"
    }
    bias_filler {
      type: "constant"
      value: 0.2
    }
  }
}
layer {
  name: "inception_3b/relu_pool_proj"
  type: "ReLU"
  bottom: "inception_3b/pool_proj"
  top: "inception_3b/pool_proj"
}
layer {
  name: "inception_3b/output"
  type: "Concat"
  bottom: "inception_3b/1x1"
  bottom: "inception_3b/3x3"
  bottom: "inception_3b/5x5"
  bottom: "inception_3b/pool_proj"
  top: "inception_3b/output"
}
layer {
  name: "pool3/3x3_s2"
  type: "Pooling"
  bottom: "inception_3b/output"
  top: "pool3/3x3_s2"
  pooling_param {
    pool: MAX
    kernel_size: 3
    stride: 2
  }
}
layer {
  name: "pool3/3x3_s2_pool3/3x3_s2_0_split"
  type: "Split"
  bottom: "pool3/3x3_s2"
  top: "pool3/3x3_s2_pool3/3x3_s2_0_split_0"
  top: "pool3/3x3_s2_pool3/3x3_s2_0_split_1"
  top: "pool3/3x3_s2_pool3/3x3_s2_0_split_2"
  top: "pool3/3x3_s2_pool3/3x3_s2_0_split_3"
}
layer {
  name: "inception_4a/1x1"
  type: "Convolution"
  bottom: "pool3/3x3_s2_pool3/3x3_s2_0_split_0"
  top: "inception_4a/1x1"
  param {
    lr_mult: 1
    decay_mult: 1
  }
  param {
    lr_mult: 2
    decay_mult: 0
  }
  convolution_param {
    num_output: 192
    kernel_size: 1
    weight_filler {
      type: "xavier"
    }
    bias_filler {
      type: "constant"
      value: 0.2
    }
  }
}
layer {
  name: "inception_4a/relu_1x1"
  type: "ReLU"
  bottom: "inception_4a/1x1"
  top: "inception_4a/1x1"
}
layer {
  name: "inception_4a/3x3_reduce"
  type: "Convolution"
  bottom: "pool3/3x3_s2_pool3/3x3_s2_0_split_1"
  top: "inception_4a/3x3_reduce"
  param {
    lr_mult: 1
    decay_mult: 1
  }
  param {
    lr_mult: 2
    decay_mult: 0
  }
  convolution_param {
    num_output: 96
    kernel_size: 1
    weight_filler {
      type: "xavier"
    }
    bias_filler {
      type: "constant"
      value: 0.2
    }
  }
}
layer {
  name: "inception_4a/relu_3x3_reduce"
  type: "ReLU"
  bottom: "inception_4a/3x3_reduce"
  top: "inception_4a/3x3_reduce"
}
layer {
  name: "inception_4a/3x3"
  type: "Convolution"
  bottom: "inception_4a/3x3_reduce"
  top: "inception_4a/3x3"
  param {
    lr_mult: 1
    decay_mult: 1
  }
  param {
    lr_mult: 2
    decay_mult: 0
  }
  convolution_param {
    num_output: 208
    pad: 1
    kernel_size: 3
    weight_filler {
      type: "xavier"
    }
    bias_filler {
      type: "constant"
      value: 0.2
    }
  }
}
layer {
  name: "inception_4a/relu_3x3"
  type: "ReLU"
  bottom: "inception_4a/3x3"
  top: "inception_4a/3x3"
}
layer {
  name: "inception_4a/5x5_reduce"
  type: "Convolution"
  bottom: "pool3/3x3_s2_pool3/3x3_s2_0_split_2"
  top: "inception_4a/5x5_reduce"
  param {
    lr_mult: 1
    decay_mult: 1
  }
  param {
    lr_mult: 2
    decay_mult: 0
  }
  convolution_param {
    num_output: 16
    kernel_size: 1
    weight_filler {
      type: "xavier"
    }
    bias_filler {
      type: "constant"
      value: 0.2
    }
  }
}
layer {
  name: "inception_4a/relu_5x5_reduce"
  type: "ReLU"
  bottom: "inception_4a/5x5_reduce"
  top: "inception_4a/5x5_reduce"
}
layer {
  name: "inception_4a/5x5"
  type: "Convolution"
  bottom: "inception_4a/5x5_reduce"
  top: "inception_4a/5x5"
  param {
    lr_mult: 1
    decay_mult: 1
  }
  param {
    lr_mult: 2
    decay_mult: 0
  }
  convolution_param {
    num_output: 48
    pad: 2
    kernel_size: 5
    weight_filler {
      type: "xavier"
    }
    bias_filler {
      type: "constant"
      value: 0.2
    }
  }
}
layer {
  name: "inception_4a/relu_5x5"
  type: "ReLU"
  bottom: "inception_4a/5x5"
  top: "inception_4a/5x5"
}
layer {
  name: "inception_4a/pool"
  type: "Pooling"
  bottom: "pool3/3x3_s2_pool3/3x3_s2_0_split_3"
  top: "inception_4a/pool"
  pooling_param {
    pool: MAX
    kernel_size: 3
    stride: 1
    pad: 1
  }
}
layer {
  name: "inception_4a/pool_proj"
  type: "Convolution"
  bottom: "inception_4a/pool"
  top: "inception_4a/pool_proj"
  param {
    lr_mult: 1
    decay_mult: 1
  }
  param {
    lr_mult: 2
    decay_mult: 0
  }
  convolution_param {
    num_output: 64
    kernel_size: 1
    weight_filler {
      type: "xavier"
    }
    bias_filler {
      type: "constant"
      value: 0.2
    }
  }
}
layer {
  name: "inception_4a/relu_pool_proj"
  type: "ReLU"
  bottom: "inception_4a/pool_proj"
  top: "inception_4a/pool_proj"
}
layer {
  name: "inception_4a/output"
  type: "Concat"
  bottom: "inception_4a/1x1"
  bottom: "inception_4a/3x3"
  bottom: "inception_4a/5x5"
  bottom: "inception_4a/pool_proj"
  top: "inception_4a/output"
}
layer {
  name: "inception_4a/output_inception_4a/output_0_split"
  type: "Split"
  bottom: "inception_4a/output"
  top: "inception_4a/output_inception_4a/output_0_split_0"
  top: "inception_4a/output_inception_4a/output_0_split_1"
  top: "inception_4a/output_inception_4a/output_0_split_2"
  top: "inception_4a/output_inception_4a/output_0_split_3"
  top: "inception_4a/output_inception_4a/output_0_split_4"
}
layer {
  name: "loss1/ave_pool"
  type: "Pooling"
  bottom: "inception_4a/output_inception_4a/output_0_split_0"
  top: "loss1/ave_pool"
  pooling_param {
    pool: AVE
    kernel_size: 5
    stride: 3
  }
}
layer {
  name: "loss1/conv"
  type: "Convolution"
  bottom: "loss1/ave_pool"
  top: "loss1/conv"
  param {
    lr_mult: 1
    decay_mult: 1
  }
  param {
    lr_mult: 2
    decay_mult: 0
  }
  convolution_param {
    num_output: 128
    kernel_size: 1
    weight_filler {
      type: "xavier"
    }
    bias_filler {
      type: "constant"
      value: 0.2
    }
  }
}
layer {
  name: "loss1/relu_conv"
  type: "ReLU"
  bottom: "loss1/conv"
  top: "loss1/conv"
}
layer {
  name: "loss1/fc"
  type: "InnerProduct"
  bottom: "loss1/conv"
  top: "loss1/fc"
  param {
    lr_mult: 1
    decay_mult: 1
  }
  param {
    lr_mult: 2
    decay_mult: 0
  }
  inner_product_param {
    num_output: 1024
    weight_filler {
      type: "xavier"
    }
    bias_filler {
      type: "constant"
      value: 0.2
    }
  }
}
layer {
  name: "loss1/relu_fc"
  type: "ReLU"
  bottom: "loss1/fc"
  top: "loss1/fc"
}
layer {
  name: "loss1/drop_fc"
  type: "Dropout"
  bottom: "loss1/fc"
  top: "loss1/fc"
  dropout_param {
    dropout_ratio: 0.7
  }
}
layer {
  name: "loss1/classifier"
  type: "InnerProduct"
  bottom: "loss1/fc"
  top: "loss1/classifier"
  param {
    lr_mult: 1
    decay_mult: 1
  }
  param {
    lr_mult: 2
    decay_mult: 0
  }
  inner_product_param {
    num_output: 1000
    weight_filler {
      type: "xavier"
    }
    bias_filler {
      type: "constant"
      value: 0
    }
  }
}
layer {
  name: "loss1/loss"
  type: "SoftmaxWithLoss"
  bottom: "loss1/classifier"
  bottom: "label_data_1_split_0"
  top: "loss1/loss1"
  loss_weight: 0.3
}
layer {
  name: "inception_4b/1x1"
  type: "Convolution"
  bottom: "inception_4a/output_inception_4a/output_0_split_1"
  top: "inception_4b/1x1"
  param {
    lr_mult: 1
    decay_mult: 1
  }
  param {
    lr_mult: 2
    decay_mult: 0
  }
  convolution_param {
    num_output: 160
    kernel_size: 1
    weight_filler {
      type: "xavier"
    }
    bias_filler {
      type: "constant"
      value: 0.2
    }
  }
}
layer {
  name: "inception_4b/relu_1x1"
  type: "ReLU"
  bottom: "inception_4b/1x1"
  top: "inception_4b/1x1"
}
layer {
  name: "inception_4b/3x3_reduce"
  type: "Convolution"
  bottom: "inception_4a/output_inception_4a/output_0_split_2"
  top: "inception_4b/3x3_reduce"
  param {
    lr_mult: 1
    decay_mult: 1
  }
  param {
    lr_mult: 2
    decay_mult: 0
  }
  convolution_param {
    num_output: 112
    kernel_size: 1
    weight_filler {
      type: "xavier"
    }
    bias_filler {
      type: "constant"
      value: 0.2
    }
  }
}
layer {
  name: "inception_4b/relu_3x3_reduce"
  type: "ReLU"
  bottom: "inception_4b/3x3_reduce"
  top: "inception_4b/3x3_reduce"
}
layer {
  name: "inception_4b/3x3"
  type: "Convolution"
  bottom: "inception_4b/3x3_reduce"
  top: "inception_4b/3x3"
  param {
    lr_mult: 1
    decay_mult: 1
  }
  param {
    lr_mult: 2
    decay_mult: 0
  }
  convolution_param {
    num_output: 224
    pad: 1
    kernel_size: 3
    weight_filler {
      type: "xavier"
    }
    bias_filler {
      type: "constant"
      value: 0.2
    }
  }
}
layer {
  name: "inception_4b/relu_3x3"
  type: "ReLU"
  bottom: "inception_4b/3x3"
  top: "inception_4b/3x3"
}
layer {
  name: "inception_4b/5x5_reduce"
  type: "Convolution"
  bottom: "inception_4a/output_inception_4a/output_0_split_3"
  top: "inception_4b/5x5_reduce"
  param {
    lr_mult: 1
    decay_mult: 1
  }
  param {
    lr_mult: 2
    decay_mult: 0
  }
  convolution_param {
    num_output: 24
    kernel_size: 1
    weight_filler {
      type: "xavier"
    }
    bias_filler {
      type: "constant"
      value: 0.2
    }
  }
}
layer {
  name: "inception_4b/relu_5x5_reduce"
  type: "ReLU"
  bottom: "inception_4b/5x5_reduce"
  top: "inception_4b/5x5_reduce"
}
layer {
  name: "inception_4b/5x5"
  type: "Convolution"
  bottom: "inception_4b/5x5_reduce"
  top: "inception_4b/5x5"
  param {
    lr_mult: 1
    decay_mult: 1
  }
  param {
    lr_mult: 2
    decay_mult: 0
  }
  convolution_param {
    num_output: 64
    pad: 2
    kernel_size: 5
    weight_filler {
      type: "xavier"
    }
    bias_filler {
      type: "constant"
      value: 0.2
    }
  }
}
layer {
  name: "inception_4b/relu_5x5"
  type: "ReLU"
  bottom: "inception_4b/5x5"
  top: "inception_4b/5x5"
}
layer {
  name: "inception_4b/pool"
  type: "Pooling"
  bottom: "inception_4a/output_inception_4a/output_0_split_4"
  top: "inception_4b/pool"
  pooling_param {
    pool: MAX
    kernel_size: 3
    stride: 1
    pad: 1
  }
}
layer {
  name: "inception_4b/pool_proj"
  type: "Convolution"
  bottom: "inception_4b/pool"
  top: "inception_4b/pool_proj"
  param {
    lr_mult: 1
    decay_mult: 1
  }
  param {
    lr_mult: 2
    decay_mult: 0
  }
  convolution_param {
    num_output: 64
    kernel_size: 1
    weight_filler {
      type: "xavier"
    }
    bias_filler {
      type: "constant"
      value: 0.2
    }
  }
}
layer {
  name: "inception_4b/relu_pool_proj"
  type: "ReLU"
  bottom: "inception_4b/pool_proj"
  top: "inception_4b/pool_proj"
}
layer {
  name: "inception_4b/output"
  type: "Concat"
  bottom: "inception_4b/1x1"
  bottom: "inception_4b/3x3"
  bottom: "inception_4b/5x5"
  bottom: "inception_4b/pool_proj"
  top: "inception_4b/output"
}
layer {
  name: "inception_4b/output_inception_4b/output_0_split"
  type: "Split"
  bottom: "inception_4b/output"
  top: "inception_4b/output_inception_4b/output_0_split_0"
  top: "inception_4b/output_inception_4b/output_0_split_1"
  top: "inception_4b/output_inception_4b/output_0_split_2"
  top: "inception_4b/output_inception_4b/output_0_split_3"
}
layer {
  name: "inception_4c/1x1"
  type: "Convolution"
  bottom: "inception_4b/output_inception_4b/output_0_split_0"
  top: "inception_4c/1x1"
  param {
    lr_mult: 1
    decay_mult: 1
  }
  param {
    lr_mult: 2
    decay_mult: 0
  }
  convolution_param {
    num_output: 128
    kernel_size: 1
    weight_filler {
      type: "xavier"
    }
    bias_filler {
      type: "constant"
      value: 0.2
    }
  }
}
layer {
  name: "inception_4c/relu_1x1"
  type: "ReLU"
  bottom: "inception_4c/1x1"
  top: "inception_4c/1x1"
}
layer {
  name: "inception_4c/3x3_reduce"
  type: "Convolution"
  bottom: "inception_4b/output_inception_4b/output_0_split_1"
  top: "inception_4c/3x3_reduce"
  param {
    lr_mult: 1
    decay_mult: 1
  }
  param {
    lr_mult: 2
    decay_mult: 0
  }
  convolution_param {
    num_output: 128
    kernel_size: 1
    weight_filler {
      type: "xavier"
    }
    bias_filler {
      type: "constant"
      value: 0.2
    }
  }
}
layer {
  name: "inception_4c/relu_3x3_reduce"
  type: "ReLU"
  bottom: "inception_4c/3x3_reduce"
  top: "inception_4c/3x3_reduce"
}
layer {
  name: "inception_4c/3x3"
  type: "Convolution"
  bottom: "inception_4c/3x3_reduce"
  top: "inception_4c/3x3"
  param {
    lr_mult: 1
    decay_mult: 1
  }
  param {
    lr_mult: 2
    decay_mult: 0
  }
  convolution_param {
    num_output: 256
    pad: 1
    kernel_size: 3
    weight_filler {
      type: "xavier"
    }
    bias_filler {
      type: "constant"
      value: 0.2
    }
  }
}
layer {
  name: "inception_4c/relu_3x3"
  type: "ReLU"
  bottom: "inception_4c/3x3"
  top: "inception_4c/3x3"
}
layer {
  name: "inception_4c/5x5_reduce"
  type: "Convolution"
  bottom: "inception_4b/output_inception_4b/output_0_split_2"
  top: "inception_4c/5x5_reduce"
  param {
    lr_mult: 1
    decay_mult: 1
  }
  param {
    lr_mult: 2
    decay_mult: 0
  }
  convolution_param {
    num_output: 24
    kernel_size: 1
    weight_filler {
      type: "xavier"
    }
    bias_filler {
      type: "constant"
      value: 0.2
    }
  }
}
layer {
  name: "inception_4c/relu_5x5_reduce"
  type: "ReLU"
  bottom: "inception_4c/5x5_reduce"
  top: "inception_4c/5x5_reduce"
}
layer {
  name: "inception_4c/5x5"
  type: "Convolution"
  bottom: "inception_4c/5x5_reduce"
  top: "inception_4c/5x5"
  param {
    lr_mult: 1
    decay_mult: 1
  }
  param {
    lr_mult: 2
    decay_mult: 0
  }
  convolution_param {
    num_output: 64
    pad: 2
    kernel_size: 5
    weight_filler {
      type: "xavier"
    }
    bias_filler {
      type: "constant"
      value: 0.2
    }
  }
}
layer {
  name: "inception_4c/relu_5x5"
  type: "ReLU"
  bottom: "inception_4c/5x5"
  top: "inception_4c/5x5"
}
layer {
  name: "inception_4c/pool"
  type: "Pooling"
  bottom: "inception_4b/output_inception_4b/output_0_split_3"
  top: "inception_4c/pool"
  pooling_param {
    pool: MAX
    kernel_size: 3
    stride: 1
    pad: 1
  }
}
layer {
  name: "inception_4c/pool_proj"
  type: "Convolution"
  bottom: "inception_4c/pool"
  top: "inception_4c/pool_proj"
  param {
    lr_mult: 1
    decay_mult: 1
  }
  param {
    lr_mult: 2
    decay_mult: 0
  }
  convolution_param {
    num_output: 64
    kernel_size: 1
    weight_filler {
      type: "xavier"
    }
    bias_filler {
      type: "constant"
      value: 0.2
    }
  }
}
layer {
  name: "inception_4c/relu_pool_proj"
  type: "ReLU"
  bottom: "inception_4c/pool_proj"
  top: "inception_4c/pool_proj"
}
layer {
  name: "inception_4c/output"
  type: "Concat"
  bottom: "inception_4c/1x1"
  bottom: "inception_4c/3x3"
  bottom: "inception_4c/5x5"
  bottom: "inception_4c/pool_proj"
  top: "inception_4c/output"
}
layer {
  name: "inception_4c/output_inception_4c/output_0_split"
  type: "Split"
  bottom: "inception_4c/output"
  top: "inception_4c/output_inception_4c/output_0_split_0"
  top: "inception_4c/output_inception_4c/output_0_split_1"
  top: "inception_4c/output_inception_4c/output_0_split_2"
  top: "inception_4c/output_inception_4c/output_0_split_3"
}
layer {
  name: "inception_4d/1x1"
  type: "Convolution"
  bottom: "inception_4c/output_inception_4c/output_0_split_0"
  top: "inception_4d/1x1"
  param {
    lr_mult: 1
    decay_mult: 1
  }
  param {
    lr_mult: 2
    decay_mult: 0
  }
  convolution_param {
    num_output: 112
    kernel_size: 1
    weight_filler {
      type: "xavier"
    }
    bias_filler {
      type: "constant"
      value: 0.2
    }
  }
}
layer {
  name: "inception_4d/relu_1x1"
  type: "ReLU"
  bottom: "inception_4d/1x1"
  top: "inception_4d/1x1"
}
layer {
  name: "inception_4d/3x3_reduce"
  type: "Convolution"
  bottom: "inception_4c/output_inception_4c/output_0_split_1"
  top: "inception_4d/3x3_reduce"
  param {
    lr_mult: 1
    decay_mult: 1
  }
  param {
    lr_mult: 2
    decay_mult: 0
  }
  convolution_param {
    num_output: 144
    kernel_size: 1
    weight_filler {
      type: "xavier"
    }
    bias_filler {
      type: "constant"
      value: 0.2
    }
  }
}
layer {
  name: "inception_4d/relu_3x3_reduce"
  type: "ReLU"
  bottom: "inception_4d/3x3_reduce"
  top: "inception_4d/3x3_reduce"
}
layer {
  name: "inception_4d/3x3"
  type: "Convolution"
  bottom: "inception_4d/3x3_reduce"
  top: "inception_4d/3x3"
  param {
    lr_mult: 1
    decay_mult: 1
  }
  param {
    lr_mult: 2
    decay_mult: 0
  }
  convolution_param {
    num_output: 288
    pad: 1
    kernel_size: 3
    weight_filler {
      type: "xavier"
    }
    bias_filler {
      type: "constant"
      value: 0.2
    }
  }
}
layer {
  name: "inception_4d/relu_3x3"
  type: "ReLU"
  bottom: "inception_4d/3x3"
  top: "inception_4d/3x3"
}
layer {
  name: "inception_4d/5x5_reduce"
  type: "Convolution"
  bottom: "inception_4c/output_inception_4c/output_0_split_2"
  top: "inception_4d/5x5_reduce"
  param {
    lr_mult: 1
    decay_mult: 1
  }
  param {
    lr_mult: 2
    decay_mult: 0
  }
  convolution_param {
    num_output: 32
    kernel_size: 1
    weight_filler {
      type: "xavier"
    }
    bias_filler {
      type: "constant"
      value: 0.2
    }
  }
}
layer {
  name: "inception_4d/relu_5x5_reduce"
  type: "ReLU"
  bottom: "inception_4d/5x5_reduce"
  top: "inception_4d/5x5_reduce"
}
layer {
  name: "inception_4d/5x5"
  type: "Convolution"
  bottom: "inception_4d/5x5_reduce"
  top: "inception_4d/5x5"
  param {
    lr_mult: 1
    decay_mult: 1
  }
  param {
    lr_mult: 2
    decay_mult: 0
  }
  convolution_param {
    num_output: 64
    pad: 2
    kernel_size: 5
    weight_filler {
      type: "xavier"
    }
    bias_filler {
      type: "constant"
      value: 0.2
    }
  }
}
layer {
  name: "inception_4d/relu_5x5"
  type: "ReLU"
  bottom: "inception_4d/5x5"
  top: "inception_4d/5x5"
}
layer {
  name: "inception_4d/pool"
  type: "Pooling"
  bottom: "inception_4c/output_inception_4c/output_0_split_3"
  top: "inception_4d/pool"
  pooling_param {
    pool: MAX
    kernel_size: 3
    stride: 1
    pad: 1
  }
}
layer {
  name: "inception_4d/pool_proj"
  type: "Convolution"
  bottom: "inception_4d/pool"
  top: "inception_4d/pool_proj"
  param {
    lr_mult: 1
    decay_mult: 1
  }
  param {
    lr_mult: 2
    decay_mult: 0
  }
  convolution_param {
    num_output: 64
    kernel_size: 1
    weight_filler {
      type: "xavier"
    }
    bias_filler {
      type: "constant"
      value: 0.2
    }
  }
}
layer {
  name: "inception_4d/relu_pool_proj"
  type: "ReLU"
  bottom: "inception_4d/pool_proj"
  top: "inception_4d/pool_proj"
}
layer {
  name: "inception_4d/output"
  type: "Concat"
  bottom: "inception_4d/1x1"
  bottom: "inception_4d/3x3"
  bottom: "inception_4d/5x5"
  bottom: "inception_4d/pool_proj"
  top: "inception_4d/output"
}
layer {
  name: "inception_4d/output_inception_4d/output_0_split"
  type: "Split"
  bottom: "inception_4d/output"
  top: "inception_4d/output_inception_4d/output_0_split_0"
  top: "inception_4d/output_inception_4d/output_0_split_1"
  top: "inception_4d/output_inception_4d/output_0_split_2"
  top: "inception_4d/output_inception_4d/output_0_split_3"
  top: "inception_4d/output_inception_4d/output_0_split_4"
}
layer {
  name: "loss2/ave_pool"
  type: "Pooling"
  bottom: "inception_4d/output_inception_4d/output_0_split_0"
  top: "loss2/ave_pool"
  pooling_param {
    pool: AVE
    kernel_size: 5
    stride: 3
  }
}
layer {
  name: "loss2/conv"
  type: "Convolution"
  bottom: "loss2/ave_pool"
  top: "loss2/conv"
  param {
    lr_mult: 1
    decay_mult: 1
  }
  param {
    lr_mult: 2
    decay_mult: 0
  }
  convolution_param {
    num_output: 128
    kernel_size: 1
    weight_filler {
      type: "xavier"
    }
    bias_filler {
      type: "constant"
      value: 0.2
    }
  }
}
layer {
  name: "loss2/relu_conv"
  type: "ReLU"
  bottom: "loss2/conv"
  top: "loss2/conv"
}
layer {
  name: "loss2/fc"
  type: "InnerProduct"
  bottom: "loss2/conv"
  top: "loss2/fc"
  param {
    lr_mult: 1
    decay_mult: 1
  }
  param {
    lr_mult: 2
    decay_mult: 0
  }
  inner_product_param {
    num_output: 1024
    weight_filler {
      type: "xavier"
    }
    bias_filler {
      type: "constant"
      value: 0.2
    }
  }
}
layer {
  name: "loss2/relu_fc"
  type: "ReLU"
  bottom: "loss2/fc"
  top: "loss2/fc"
}
layer {
  name: 
I0327 09:12:46.340664  2701 net.cpp:154] Setting up Layer of device :0 @cpu 5 Layer : data
I0327 09:12:46.340682  2701 layer_factory.hpp:114] Creating layer data
I0327 09:12:46.341358  2701 net.cpp:169] Creating Layer data
I0327 09:12:46.341379  2701 net.cpp:579] data -> data
I0327 09:12:46.341389  2701 net.cpp:582] From AppendTop @cpu: 5
I0327 09:12:46.341495  2701 net.cpp:579] data -> label
I0327 09:12:46.341506  2701 net.cpp:582] From AppendTop @cpu: 5
I0327 09:12:46.341723  2702 db_lmdb.cpp:72] Opened lmdb /home/user/user/LIBRARIES/caffeLibs/caffe/examples/imagenet/ilsvrc12_train_lmdb
I0327 09:12:46.341816  2702 data_reader.cpp:128] inside DATAREADER 8
I0327 09:12:46.341830  2702 data_reader.cpp:139] NUMA DOMAIN 0
I0327 09:12:46.342269  2702 data_reader.cpp:139] NUMA DOMAIN 0
I0327 09:12:46.342489  2701 data_layer.cpp:80] output data size: 6,3,224,224
I0327 09:12:46.360466  2701 base_data_layer.cpp:96] Done cpu data
I0327 09:12:46.360558  2701 net.cpp:219] Setting up data
I0327 09:12:46.360586  2701 net.cpp:226] Top shape: 6 3 224 224 (903168)
I0327 09:12:46.360599  2701 net.cpp:226] Top shape: 6 (6)
I0327 09:12:46.360608  2701 net.cpp:234] Memory required for data: 3612696
I0327 09:12:46.360632  2701 net.cpp:154] Setting up Layer of device :0 @cpu 5 Layer : label_data_1_split
I0327 09:12:46.360643  2701 layer_factory.hpp:114] Creating layer label_data_1_split
I0327 09:12:46.360672  2701 net.cpp:169] Creating Layer label_data_1_split
I0327 09:12:46.360683  2701 net.cpp:606] label_data_1_split <- label
I0327 09:12:46.360702  2701 net.cpp:579] label_data_1_split -> label_data_1_split_0
I0327 09:12:46.360712  2701 net.cpp:582] From AppendTop @cpu: 5
I0327 09:12:46.360731  2701 net.cpp:579] label_data_1_split -> label_data_1_split_1
I0327 09:12:46.360740  2701 net.cpp:582] From AppendTop @cpu: 5
I0327 09:12:46.360752  2701 net.cpp:579] label_data_1_split -> label_data_1_split_2
I0327 09:12:46.360761  2701 net.cpp:582] From AppendTop @cpu: 5
I0327 09:12:46.360781  2701 net.cpp:219] Setting up label_data_1_split
I0327 09:12:46.360793  2701 net.cpp:226] Top shape: 6 (6)
I0327 09:12:46.360805  2701 net.cpp:226] Top shape: 6 (6)
I0327 09:12:46.360816  2701 net.cpp:226] Top shape: 6 (6)
I0327 09:12:46.360823  2701 net.cpp:234] Memory required for data: 3612768
I0327 09:12:46.360834  2701 net.cpp:154] Setting up Layer of device :0 @cpu 5 Layer : conv1/7x7_s2
I0327 09:12:46.360842  2701 layer_factory.hpp:114] Creating layer conv1/7x7_s2
I0327 09:12:46.360869  2701 net.cpp:169] Creating Layer conv1/7x7_s2
I0327 09:12:46.360879  2701 net.cpp:606] conv1/7x7_s2 <- data
I0327 09:12:46.360895  2701 net.cpp:579] conv1/7x7_s2 -> conv1/7x7_s2
I0327 09:12:46.360904  2701 net.cpp:582] From AppendTop @cpu: 5
OMP: Info #242: KMP_AFFINITY: pid 2701 thread 1 bound to OS proc set {0,1,2,3,4,5}
OMP: Info #242: KMP_AFFINITY: pid 2701 thread 2 bound to OS proc set {0,1,2,3,4,5}
OMP: Info #242: KMP_AFFINITY: pid 2701 thread 3 bound to OS proc set {0,1,2,3,4,5}
OMP: Info #242: KMP_AFFINITY: pid 2701 thread 4 bound to OS proc set {0,1,2,3,4,5}
OMP: Info #242: KMP_AFFINITY: pid 2701 thread 5 bound to OS proc set {0,1,2,3,4,5}
I0327 09:12:46.382030  2701 net.cpp:219] Setting up conv1/7x7_s2
I0327 09:12:46.382129  2701 net.cpp:226] Top shape: 6 64 112 112 (4816896)
I0327 09:12:46.382141  2701 net.cpp:234] Memory required for data: 22880352
I0327 09:12:46.382199  2701 net.cpp:154] Setting up Layer of device :0 @cpu 0 Layer : conv1/relu_7x7
I0327 09:12:46.382233  2701 layer_factory.hpp:114] Creating layer conv1/relu_7x7
I0327 09:12:46.382264  2701 net.cpp:169] Creating Layer conv1/relu_7x7
I0327 09:12:46.382280  2701 net.cpp:606] conv1/relu_7x7 <- conv1/7x7_s2
I0327 09:12:46.382302  2701 net.cpp:566] conv1/relu_7x7 -> conv1/7x7_s2 (in-place)
I0327 09:12:46.382329  2701 net.cpp:219] Setting up conv1/relu_7x7
I0327 09:12:46.382344  2701 net.cpp:226] Top shape: 6 64 112 112 (4816896)
I0327 09:12:46.382356  2701 net.cpp:234] Memory required for data: 42147936
I0327 09:12:46.382370  2701 net.cpp:154] Setting up Layer of device :0 @cpu 0 Layer : pool1/3x3_s2
I0327 09:12:46.382381  2701 layer_factory.hpp:114] Creating layer pool1/3x3_s2
I0327 09:12:46.382483  2701 net.cpp:169] Creating Layer pool1/3x3_s2
I0327 09:12:46.382498  2701 net.cpp:606] pool1/3x3_s2 <- conv1/7x7_s2
I0327 09:12:46.382513  2701 net.cpp:579] pool1/3x3_s2 -> pool1/3x3_s2
I0327 09:12:46.382524  2701 net.cpp:582] From AppendTop @cpu: 0
I0327 09:12:46.382560  2701 net.cpp:219] Setting up pool1/3x3_s2
I0327 09:12:46.382575  2701 net.cpp:226] Top shape: 6 64 56 56 (1204224)
I0327 09:12:46.382586  2701 net.cpp:234] Memory required for data: 46964832
I0327 09:12:46.382599  2701 net.cpp:154] Setting up Layer of device :0 @cpu 0 Layer : pool1/norm1
I0327 09:12:46.382611  2701 layer_factory.hpp:114] Creating layer pool1/norm1
I0327 09:12:46.382632  2701 net.cpp:169] Creating Layer pool1/norm1
I0327 09:12:46.382643  2701 net.cpp:606] pool1/norm1 <- pool1/3x3_s2
I0327 09:12:46.382661  2701 net.cpp:579] pool1/norm1 -> pool1/norm1
I0327 09:12:46.382673  2701 net.cpp:582] From AppendTop @cpu: 0
I0327 09:12:46.382714  2701 net.cpp:219] Setting up pool1/norm1
I0327 09:12:46.382730  2701 net.cpp:226] Top shape: 6 64 56 56 (1204224)
I0327 09:12:46.382740  2701 net.cpp:234] Memory required for data: 51781728
I0327 09:12:46.382753  2701 net.cpp:154] Setting up Layer of device :0 @cpu 0 Layer : conv2/3x3_reduce
I0327 09:12:46.382764  2701 layer_factory.hpp:114] Creating layer conv2/3x3_reduce
I0327 09:12:46.382793  2701 net.cpp:169] Creating Layer conv2/3x3_reduce
I0327 09:12:46.382808  2701 net.cpp:606] conv2/3x3_reduce <- pool1/norm1
I0327 09:12:46.382824  2701 net.cpp:579] conv2/3x3_reduce -> conv2/3x3_reduce
I0327 09:12:46.382835  2701 net.cpp:582] From AppendTop @cpu: 0
I0327 09:12:46.386885  2701 net.cpp:219] Setting up conv2/3x3_reduce
I0327 09:12:46.386948  2701 net.cpp:226] Top shape: 6 64 56 56 (1204224)
I0327 09:12:46.386960  2701 net.cpp:234] Memory required for data: 56598624
I0327 09:12:46.386996  2701 net.cpp:154] Setting up Layer of device :0 @cpu 0 Layer : conv2/relu_3x3_reduce
I0327 09:12:46.387008  2701 layer_factory.hpp:114] Creating layer conv2/relu_3x3_reduce
I0327 09:12:46.387048  2701 net.cpp:169] Creating Layer conv2/relu_3x3_reduce
I0327 09:12:46.387071  2701 net.cpp:606] conv2/relu_3x3_reduce <- conv2/3x3_reduce
I0327 09:12:46.387094  2701 net.cpp:566] conv2/relu_3x3_reduce -> conv2/3x3_reduce (in-place)
I0327 09:12:46.387115  2701 net.cpp:219] Setting up conv2/relu_3x3_reduce
I0327 09:12:46.387130  2701 net.cpp:226] Top shape: 6 64 56 56 (1204224)
I0327 09:12:46.387140  2701 net.cpp:234] Memory required for data: 61415520
I0327 09:12:46.387153  2701 net.cpp:154] Setting up Layer of device :0 @cpu 0 Layer : conv2/3x3
I0327 09:12:46.387164  2701 layer_factory.hpp:114] Creating layer conv2/3x3
I0327 09:12:46.387188  2701 net.cpp:169] Creating Layer conv2/3x3
I0327 09:12:46.387200  2701 net.cpp:606] conv2/3x3 <- conv2/3x3_reduce
I0327 09:12:46.387220  2701 net.cpp:579] conv2/3x3 -> conv2/3x3
I0327 09:12:46.387233  2701 net.cpp:582] From AppendTop @cpu: 0
I0327 09:12:46.410276  2701 net.cpp:219] Setting up conv2/3x3
I0327 09:12:46.410362  2701 net.cpp:226] Top shape: 6 192 56 56 (3612672)
I0327 09:12:46.410372  2701 net.cpp:234] Memory required for data: 75866208
I0327 09:12:46.410411  2701 net.cpp:154] Setting up Layer of device :0 @cpu 0 Layer : conv2/relu_3x3
I0327 09:12:46.410423  2701 layer_factory.hpp:114] Creating layer conv2/relu_3x3
I0327 09:12:46.410442  2701 net.cpp:169] Creating Layer conv2/relu_3x3
I0327 09:12:46.410471  2701 net.cpp:606] conv2/relu_3x3 <- conv2/3x3
I0327 09:12:46.410487  2701 net.cpp:566] conv2/relu_3x3 -> conv2/3x3 (in-place)
I0327 09:12:46.410508  2701 net.cpp:219] Setting up conv2/relu_3x3
I0327 09:12:46.410521  2701 net.cpp:226] Top shape: 6 192 56 56 (3612672)
I0327 09:12:46.410528  2701 net.cpp:234] Memory required for data: 90316896
I0327 09:12:46.410539  2701 net.cpp:154] Setting up Layer of device :0 @cpu 0 Layer : conv2/norm2
I0327 09:12:46.410548  2701 layer_factory.hpp:114] Creating layer conv2/norm2
I0327 09:12:46.410565  2701 net.cpp:169] Creating Layer conv2/norm2
I0327 09:12:46.410575  2701 net.cpp:606] conv2/norm2 <- conv2/3x3
I0327 09:12:46.410588  2701 net.cpp:579] conv2/norm2 -> conv2/norm2
I0327 09:12:46.410596  2701 net.cpp:582] From AppendTop @cpu: 0
I0327 09:12:46.410616  2701 net.cpp:219] Setting up conv2/norm2
I0327 09:12:46.410629  2701 net.cpp:226] Top shape: 6 192 56 56 (3612672)
I0327 09:12:46.410636  2701 net.cpp:234] Memory required for data: 104767584
I0327 09:12:46.410646  2701 net.cpp:154] Setting up Layer of device :0 @cpu 0 Layer : pool2/3x3_s2
I0327 09:12:46.410655  2701 layer_factory.hpp:114] Creating layer pool2/3x3_s2
I0327 09:12:46.410701  2701 net.cpp:169] Creating Layer pool2/3x3_s2
I0327 09:12:46.410712  2701 net.cpp:606] pool2/3x3_s2 <- conv2/norm2
I0327 09:12:46.410723  2701 net.cpp:579] pool2/3x3_s2 -> pool2/3x3_s2
I0327 09:12:46.410732  2701 net.cpp:582] From AppendTop @cpu: 0
I0327 09:12:46.410749  2701 net.cpp:219] Setting up pool2/3x3_s2
I0327 09:12:46.410761  2701 net.cpp:226] Top shape: 6 192 28 28 (903168)
I0327 09:12:46.410789  2701 net.cpp:234] Memory required for data: 108380256
I0327 09:12:46.410800  2701 net.cpp:154] Setting up Layer of device :0 @cpu 0 Layer : pool2/3x3_s2_pool2/3x3_s2_0_split
I0327 09:12:46.410809  2701 layer_factory.hpp:114] Creating layer pool2/3x3_s2_pool2/3x3_s2_0_split
I0327 09:12:46.410822  2701 net.cpp:169] Creating Layer pool2/3x3_s2_pool2/3x3_s2_0_split
I0327 09:12:46.410832  2701 net.cpp:606] pool2/3x3_s2_pool2/3x3_s2_0_split <- pool2/3x3_s2
I0327 09:12:46.410843  2701 net.cpp:579] pool2/3x3_s2_pool2/3x3_s2_0_split -> pool2/3x3_s2_pool2/3x3_s2_0_split_0
I0327 09:12:46.410852  2701 net.cpp:582] From AppendTop @cpu: 0
I0327 09:12:46.410866  2701 net.cpp:579] pool2/3x3_s2_pool2/3x3_s2_0_split -> pool2/3x3_s2_pool2/3x3_s2_0_split_1
I0327 09:12:46.410874  2701 net.cpp:582] From AppendTop @cpu: 0
I0327 09:12:46.410892  2701 net.cpp:579] pool2/3x3_s2_pool2/3x3_s2_0_split -> pool2/3x3_s2_pool2/3x3_s2_0_split_2
I0327 09:12:46.410899  2701 net.cpp:582] From AppendTop @cpu: 0
I0327 09:12:46.410913  2701 net.cpp:579] pool2/3x3_s2_pool2/3x3_s2_0_split -> pool2/3x3_s2_pool2/3x3_s2_0_split_3
I0327 09:12:46.410922  2701 net.cpp:582] From AppendTop @cpu: 0
I0327 09:12:46.410936  2701 net.cpp:219] Setting up pool2/3x3_s2_pool2/3x3_s2_0_split
I0327 09:12:46.410948  2701 net.cpp:226] Top shape: 6 192 28 28 (903168)
I0327 09:12:46.410959  2701 net.cpp:226] Top shape: 6 192 28 28 (903168)
I0327 09:12:46.410970  2701 net.cpp:226] Top shape: 6 192 28 28 (903168)
I0327 09:12:46.410980  2701 net.cpp:226] Top shape: 6 192 28 28 (903168)
I0327 09:12:46.410989  2701 net.cpp:234] Memory required for data: 122830944
I0327 09:12:46.411000  2701 net.cpp:154] Setting up Layer of device :0 @cpu 0 Layer : inception_3a/1x1
I0327 09:12:46.411007  2701 layer_factory.hpp:114] Creating layer inception_3a/1x1
I0327 09:12:46.411037  2701 net.cpp:169] Creating Layer inception_3a/1x1
I0327 09:12:46.411048  2701 net.cpp:606] inception_3a/1x1 <- pool2/3x3_s2_pool2/3x3_s2_0_split_0
I0327 09:12:46.411069  2701 net.cpp:579] inception_3a/1x1 -> inception_3a/1x1
I0327 09:12:46.411079  2701 net.cpp:582] From AppendTop @cpu: 0
I0327 09:12:46.413975  2701 net.cpp:219] Setting up inception_3a/1x1
I0327 09:12:46.414038  2701 net.cpp:226] Top shape: 6 64 28 28 (301056)
I0327 09:12:46.414049  2701 net.cpp:234] Memory required for data: 124035168
I0327 09:12:46.414083  2701 net.cpp:154] Setting up Layer of device :0 @cpu 0 Layer : inception_3a/relu_1x1
I0327 09:12:46.414106  2701 layer_factory.hpp:114] Creating layer inception_3a/relu_1x1
I0327 09:12:46.414124  2701 net.cpp:169] Creating Layer inception_3a/relu_1x1
I0327 09:12:46.414136  2701 net.cpp:606] inception_3a/relu_1x1 <- inception_3a/1x1
I0327 09:12:46.414155  2701 net.cpp:566] inception_3a/relu_1x1 -> inception_3a/1x1 (in-place)
I0327 09:12:46.414173  2701 net.cpp:219] Setting up inception_3a/relu_1x1
I0327 09:12:46.414186  2701 net.cpp:226] Top shape: 6 64 28 28 (301056)
I0327 09:12:46.414193  2701 net.cpp:234] Memory required for data: 125239392
I0327 09:12:46.414204  2701 net.cpp:154] Setting up Layer of device :0 @cpu 0 Layer : inception_3a/3x3_reduce
I0327 09:12:46.414213  2701 layer_factory.hpp:114] Creating layer inception_3a/3x3_reduce
I0327 09:12:46.414240  2701 net.cpp:169] Creating Layer inception_3a/3x3_reduce
I0327 09:12:46.414252  2701 net.cpp:606] inception_3a/3x3_reduce <- pool2/3x3_s2_pool2/3x3_s2_0_split_1
I0327 09:12:46.414265  2701 net.cpp:579] inception_3a/3x3_reduce -> inception_3a/3x3_reduce
I0327 09:12:46.414275  2701 net.cpp:582] From AppendTop @cpu: 0
I0327 09:12:46.417903  2701 net.cpp:219] Setting up inception_3a/3x3_reduce
I0327 09:12:46.417950  2701 net.cpp:226] Top shape: 6 96 28 28 (451584)
I0327 09:12:46.417959  2701 net.cpp:234] Memory required for data: 127045728
I0327 09:12:46.417994  2701 net.cpp:154] Setting up Layer of device :0 @cpu 0 Layer : inception_3a/relu_3x3_reduce
I0327 09:12:46.418004  2701 layer_factory.hpp:114] Creating layer inception_3a/relu_3x3_reduce
I0327 09:12:46.418028  2701 net.cpp:169] Creating Layer inception_3a/relu_3x3_reduce
I0327 09:12:46.418067  2701 net.cpp:606] inception_3a/relu_3x3_reduce <- inception_3a/3x3_reduce
I0327 09:12:46.418081  2701 net.cpp:566] inception_3a/relu_3x3_reduce -> inception_3a/3x3_reduce (in-place)
I0327 09:12:46.418098  2701 net.cpp:219] Setting up inception_3a/relu_3x3_reduce
I0327 09:12:46.418109  2701 net.cpp:226] Top shape: 6 96 28 28 (451584)
I0327 09:12:46.418118  2701 net.cpp:234] Memory required for data: 128852064
I0327 09:12:46.418128  2701 net.cpp:154] Setting up Layer of device :0 @cpu 0 Layer : inception_3a/3x3
I0327 09:12:46.418138  2701 layer_factory.hpp:114] Creating layer inception_3a/3x3
I0327 09:12:46.418157  2701 net.cpp:169] Creating Layer inception_3a/3x3
I0327 09:12:46.418167  2701 net.cpp:606] inception_3a/3x3 <- inception_3a/3x3_reduce
I0327 09:12:46.418184  2701 net.cpp:579] inception_3a/3x3 -> inception_3a/3x3
I0327 09:12:46.418193  2701 net.cpp:582] From AppendTop @cpu: 0
I0327 09:12:46.428273  2701 net.cpp:219] Setting up inception_3a/3x3
I0327 09:12:46.428355  2701 net.cpp:226] Top shape: 6 128 28 28 (602112)
I0327 09:12:46.428365  2701 net.cpp:234] Memory required for data: 131260512
I0327 09:12:46.428396  2701 net.cpp:154] Setting up Layer of device :0 @cpu 0 Layer : inception_3a/relu_3x3
I0327 09:12:46.428406  2701 layer_factory.hpp:114] Creating layer inception_3a/relu_3x3
I0327 09:12:46.428427  2701 net.cpp:169] Creating Layer inception_3a/relu_3x3
I0327 09:12:46.428439  2701 net.cpp:606] inception_3a/relu_3x3 <- inception_3a/3x3
I0327 09:12:46.428455  2701 net.cpp:566] inception_3a/relu_3x3 -> inception_3a/3x3 (in-place)
I0327 09:12:46.428474  2701 net.cpp:219] Setting up inception_3a/relu_3x3
I0327 09:12:46.428486  2701 net.cpp:226] Top shape: 6 128 28 28 (602112)
I0327 09:12:46.428495  2701 net.cpp:234] Memory required for data: 133668960
I0327 09:12:46.428505  2701 net.cpp:154] Setting up Layer of device :0 @cpu 0 Layer : inception_3a/5x5_reduce
I0327 09:12:46.428514  2701 layer_factory.hpp:114] Creating layer inception_3a/5x5_reduce
I0327 09:12:46.428544  2701 net.cpp:169] Creating Layer inception_3a/5x5_reduce
I0327 09:12:46.428555  2701 net.cpp:606] inception_3a/5x5_reduce <- pool2/3x3_s2_pool2/3x3_s2_0_split_2
I0327 09:12:46.428570  2701 net.cpp:579] inception_3a/5x5_reduce -> inception_3a/5x5_reduce
I0327 09:12:46.428580  2701 net.cpp:582] From AppendTop @cpu: 0
I0327 09:12:46.431763  2701 net.cpp:219] Setting up inception_3a/5x5_reduce
I0327 09:12:46.431825  2701 net.cpp:226] Top shape: 6 16 28 28 (75264)
I0327 09:12:46.431835  2701 net.cpp:234] Memory required for data: 133970016
I0327 09:12:46.431857  2701 net.cpp:154] Setting up Layer of device :0 @cpu 0 Layer : inception_3a/relu_5x5_reduce
I0327 09:12:46.431867  2701 layer_factory.hpp:114] Creating layer inception_3a/relu_5x5_reduce
I0327 09:12:46.431882  2701 net.cpp:169] Creating Layer inception_3a/relu_5x5_reduce
I0327 09:12:46.431893  2701 net.cpp:606] inception_3a/relu_5x5_reduce <- inception_3a/5x5_reduce
I0327 09:12:46.431910  2701 net.cpp:566] inception_3a/relu_5x5_reduce -> inception_3a/5x5_reduce (in-place)
I0327 09:12:46.431927  2701 net.cpp:219] Setting up inception_3a/relu_5x5_reduce
I0327 09:12:46.431939  2701 net.cpp:226] Top shape: 6 16 28 28 (75264)
I0327 09:12:46.431948  2701 net.cpp:234] Memory required for data: 134271072
I0327 09:12:46.431958  2701 net.cpp:154] Setting up Layer of device :0 @cpu 0 Layer : inception_3a/5x5
I0327 09:12:46.431967  2701 layer_factory.hpp:114] Creating layer inception_3a/5x5
I0327 09:12:46.431988  2701 net.cpp:169] Creating Layer inception_3a/5x5
I0327 09:12:46.431998  2701 net.cpp:606] inception_3a/5x5 <- inception_3a/5x5_reduce
I0327 09:12:46.432010  2701 net.cpp:579] inception_3a/5x5 -> inception_3a/5x5
I0327 09:12:46.432025  2701 net.cpp:582] From AppendTop @cpu: 0
I0327 09:12:46.436028  2701 net.cpp:219] Setting up inception_3a/5x5
I0327 09:12:46.436108  2701 net.cpp:226] Top shape: 6 32 28 28 (150528)
I0327 09:12:46.436118  2701 net.cpp:234] Memory required for data: 134873184
I0327 09:12:46.436148  2701 net.cpp:154] Setting up Layer of device :0 @cpu 0 Layer : inception_3a/relu_5x5
I0327 09:12:46.436187  2701 layer_factory.hpp:114] Creating layer inception_3a/relu_5x5
I0327 09:12:46.436206  2701 net.cpp:169] Creating Layer inception_3a/relu_5x5
I0327 09:12:46.436218  2701 net.cpp:606] inception_3a/relu_5x5 <- inception_3a/5x5
I0327 09:12:46.436238  2701 net.cpp:566] inception_3a/relu_5x5 -> inception_3a/5x5 (in-place)
I0327 09:12:46.436256  2701 net.cpp:219] Setting up inception_3a/relu_5x5
I0327 09:12:46.436269  2701 net.cpp:226] Top shape: 6 32 28 28 (150528)
I0327 09:12:46.436276  2701 net.cpp:234] Memory required for data: 135475296
I0327 09:12:46.436287  2701 net.cpp:154] Setting up Layer of device :0 @cpu 0 Layer : inception_3a/pool
I0327 09:12:46.436296  2701 layer_factory.hpp:114] Creating layer inception_3a/pool
I0327 09:12:46.436341  2701 net.cpp:169] Creating Layer inception_3a/pool
I0327 09:12:46.436353  2701 net.cpp:606] inception_3a/pool <- pool2/3x3_s2_pool2/3x3_s2_0_split_3
I0327 09:12:46.436367  2701 net.cpp:579] inception_3a/pool -> inception_3a/pool
I0327 09:12:46.436375  2701 net.cpp:582] From AppendTop @cpu: 0
I0327 09:12:46.436396  2701 net.cpp:219] Setting up inception_3a/pool
I0327 09:12:46.436408  2701 net.cpp:226] Top shape: 6 192 28 28 (903168)
I0327 09:12:46.436416  2701 net.cpp:234] Memory required for data: 139087968
I0327 09:12:46.436426  2701 net.cpp:154] Setting up Layer of device :0 @cpu 0 Layer : inception_3a/pool_proj
I0327 09:12:46.436435  2701 layer_factory.hpp:114] Creating layer inception_3a/pool_proj
I0327 09:12:46.436460  2701 net.cpp:169] Creating Layer inception_3a/pool_proj
I0327 09:12:46.436470  2701 net.cpp:606] inception_3a/pool_proj <- inception_3a/pool
I0327 09:12:46.436483  2701 net.cpp:579] inception_3a/pool_proj -> inception_3a/pool_proj
I0327 09:12:46.436492  2701 net.cpp:582] From AppendTop @cpu: 0
I0327 09:12:46.438802  2701 net.cpp:219] Setting up inception_3a/pool_proj
I0327 09:12:46.438851  2701 net.cpp:226] Top shape: 6 32 28 28 (150528)
I0327 09:12:46.438860  2701 net.cpp:234] Memory required for data: 139690080
I0327 09:12:46.438895  2701 net.cpp:154] Setting up Layer of device :0 @cpu 0 Layer : inception_3a/relu_pool_proj
I0327 09:12:46.438906  2701 layer_factory.hpp:114] Creating layer inception_3a/relu_pool_proj
I0327 09:12:46.438922  2701 net.cpp:169] Creating Layer inception_3a/relu_pool_proj
I0327 09:12:46.438933  2701 net.cpp:606] inception_3a/relu_pool_proj <- inception_3a/pool_proj
I0327 09:12:46.438963  2701 net.cpp:566] inception_3a/relu_pool_proj -> inception_3a/pool_proj (in-place)
I0327 09:12:46.438982  2701 net.cpp:219] Setting up inception_3a/relu_pool_proj
I0327 09:12:46.438993  2701 net.cpp:226] Top shape: 6 32 28 28 (150528)
I0327 09:12:46.439002  2701 net.cpp:234] Memory required for data: 140292192
I0327 09:12:46.439013  2701 net.cpp:154] Setting up Layer of device :0 @cpu 0 Layer : inception_3a/output
I0327 09:12:46.439055  2701 layer_factory.hpp:114] Creating layer inception_3a/output
I0327 09:12:46.439072  2701 net.cpp:169] Creating Layer inception_3a/output
I0327 09:12:46.439082  2701 net.cpp:606] inception_3a/output <- inception_3a/1x1
I0327 09:12:46.439092  2701 net.cpp:606] inception_3a/output <- inception_3a/3x3
I0327 09:12:46.439103  2701 net.cpp:606] inception_3a/output <- inception_3a/5x5
I0327 09:12:46.439112  2701 net.cpp:606] inception_3a/output <- inception_3a/pool_proj
I0327 09:12:46.439124  2701 net.cpp:579] inception_3a/output -> inception_3a/output
I0327 09:12:46.439132  2701 net.cpp:582] From AppendTop @cpu: 0
I0327 09:12:46.439155  2701 net.cpp:219] Setting up inception_3a/output
I0327 09:12:46.439168  2701 net.cpp:226] Top shape: 6 256 28 28 (1204224)
I0327 09:12:46.439177  2701 net.cpp:234] Memory required for data: 145109088
I0327 09:12:46.439188  2701 net.cpp:154] Setting up Layer of device :0 @cpu 0 Layer : inception_3a/output_inception_3a/output_0_split
I0327 09:12:46.439196  2701 layer_factory.hpp:114] Creating layer inception_3a/output_inception_3a/output_0_split
I0327 09:12:46.439213  2701 net.cpp:169] Creating Layer inception_3a/output_inception_3a/output_0_split
…
I0327 09:12:46.439280  2701 net.cpp:582] From AppendTop @cpu: 0
I0327 09:12:46.439293  2701 net.cpp:579] inception_3a/output_inception_3a/output_0_split -> inception_3a/output_inception_3a/output_0_split_2
I0327 09:12:46.439306  2701 net.cpp:582] From AppendTop @cpu: 0
I0327 09:12:46.439319  2701 net.cpp:579] inception_3a/output_inception_3a/output_0_split -> inception_3a/output_inception_3a/output_0_split_3
I0327 09:12:46.439327  2701 net.cpp:582] From AppendTop @cpu: 0
I0327 09:12:46.439342  2701 net.cpp:219] Setting up inception_3a/output_inception_3a/output_0_split
I0327 09:12:46.439354  2701 net.cpp:226] Top shape: 6 256 28 28 (1204224)
I0327 09:12:46.439365  2701 net.cpp:226] Top shape: 6 256 28 28 (1204224)
I0327 09:12:46.439376  2701 net.cpp:226] Top shape: 6 256 28 28 (1204224)
I0327 09:12:46.439386  2701 net.cpp:226] Top shape: 6 256 28 28 (1204224)
I0327 09:12:46.439395  2701 net.cpp:234] Memory required for data: 164376672
I0327 09:12:46.439405  2701 net.cpp:154] Setting up Layer of device :0 @cpu 0 Layer : inception_3b/1x1
I0327 09:12:46.439414  2701 layer_factory.hpp:114] Creating layer inception_3b/1x1
I0327 09:12:46.439434  2701 net.cpp:169] Creating Layer inception_3b/1x1
I0327 09:12:46.439445  2701 net.cpp:606] inception_3b/1x1 <- inception_3a/output_inception_3a/output_0_split_0
I0327 09:12:46.439461  2701 net.cpp:579] inception_3b/1x1 -> inception_3b/1x1
I0327 09:12:46.439471  2701 net.cpp:582] From AppendTop @cpu: 0
I0327 09:12:46.443698  2701 net.cpp:219] Setting up inception_3b/1x1
I0327 09:12:46.443760  2701 net.cpp:226] Top shape: 6 128 28 28 (602112)
I0327 09:12:46.443770  2701 net.cpp:234] Memory required for data: 166785120
I0327 09:12:46.443796  2701 net.cpp:154] Setting up Layer of device :0 @cpu 0 Layer : inception_3b/relu_1x1
I0327 09:12:46.443806  2701 layer_factory.hpp:114] Creating layer inception_3b/relu_1x1
I0327 09:12:46.443823  2701 net.cpp:169] Creating Layer inception_3b/relu_1x1
I0327 09:12:46.443835  2701 net.cpp:606] inception_3b/relu_1x1 <- inception_3b/1x1
I0327 09:12:46.443864  2701 net.cpp:566] inception_3b/relu_1x1 -> inception_3b/1x1 (in-place)
I0327 09:12:46.443882  2701 net.cpp:219] Setting up inception_3b/relu_1x1
I0327 09:12:46.443894  2701 net.cpp:226] Top shape: 6 128 28 28 (602112)
I0327 09:12:46.443902  2701 net.cpp:234] Memory required for data: 169193568
I0327 09:12:46.443913  2701 net.cpp:154] Setting up Layer of device :0 @cpu 0 Layer : inception_3b/3x3_reduce
I0327 09:12:46.443922  2701 layer_factory.hpp:114] Creating layer inception_3b/3x3_reduce
I0327 09:12:46.443943  2701 net.cpp:169] Creating Layer inception_3b/3x3_reduce
I0327 09:12:46.443953  2701 net.cpp:606] inception_3b/3x3_reduce <- inception_3a/output_inception_3a/output_0_split_1
I0327 09:12:46.443970  2701 net.cpp:579] inception_3b/3x3_reduce -> inception_3b/3x3_reduce
I0327 09:12:46.443979  2701 net.cpp:582] From AppendTop @cpu: 0
I0327 09:12:46.447399  2701 net.cpp:219] Setting up inception_3b/3x3_reduce
I0327 09:12:46.447461  2701 net.cpp:226] Top shape: 6 128 28 28 (602112)
I0327 09:12:46.447470  2701 net.cpp:234] Memory required for data: 171602016
I0327 09:12:46.447497  2701 net.cpp:154] Setting up Layer of device :0 @cpu 0 Layer : inception_3b/relu_3x3_reduce
I0327 09:12:46.447507  2701 layer_factory.hpp:114] Creating layer inception_3b/relu_3x3_reduce
I0327 09:12:46.447525  2701 net.cpp:169] Creating Layer inception_3b/relu_3x3_reduce
I0327 09:12:46.447537  2701 net.cpp:606] inception_3b/relu_3x3_reduce <- inception_3b/3x3_reduce
I0327 09:12:46.447554  2701 net.cpp:566] inception_3b/relu_3x3_reduce -> inception_3b/3x3_reduce (in-place)
I0327 09:12:46.447597  2701 net.cpp:219] Setting up inception_3b/relu_3x3_reduce
I0327 09:12:46.447609  2701 net.cpp:226] Top shape: 6 128 28 28 (602112)
I0327 09:12:46.447618  2701 net.cpp:234] Memory required for data: 174010464
I0327 09:12:46.447628  2701 net.cpp:154] Setting up Layer of device :0 @cpu 0 Layer : inception_3b/3x3
I0327 09:12:46.447638  2701 layer_factory.hpp:114] Creating layer inception_3b/3x3
I0327 09:12:46.447661  2701 net.cpp:169] Creating Layer inception_3b/3x3
I0327 09:12:46.447672  2701 net.cpp:606] inception_3b/3x3 <- inception_3b/3x3_reduce
I0327 09:12:46.447688  2701 net.cpp:579] inception_3b/3x3 -> inception_3b/3x3
I0327 09:12:46.447697  2701 net.cpp:582] From AppendTop @cpu: 0
I0327 09:12:46.463548  2701 net.cpp:219] Setting up inception_3b/3x3
I0327 09:12:46.463631  2701 net.cpp:226] Top shape: 6 192 28 28 (903168)
I0327 09:12:46.463641  2701 net.cpp:234] Memory required for data: 177623136
I0327 09:12:46.463673  2701 net.cpp:154] Setting up Layer of device :0 @cpu 0 Layer : inception_3b/relu_3x3
I0327 09:12:46.463683  2701 layer_factory.hpp:114] Creating layer inception_3b/relu_3x3
I0327 09:12:46.463707  2701 net.cpp:169] Creating Layer inception_3b/relu_3x3
I0327 09:12:46.463721  2701 net.cpp:606] inception_3b/relu_3x3 <- inception_3b/3x3
I0327 09:12:46.463735  2701 net.cpp:566] inception_3b/relu_3x3 -> inception_3b/3x3 (in-place)
I0327 09:12:46.463755  2701 net.cpp:219] Setting up inception_3b/relu_3x3
I0327 09:12:46.463768  2701 net.cpp:226] Top shape: 6 192 28 28 (903168)
I0327 09:12:46.463776  2701 net.cpp:234] Memory required for data: 181235808
I0327 09:12:46.463786  2701 net.cpp:154] Setting up Layer of device :0 @cpu 0 Layer : inception_3b/5x5_reduce
I0327 09:12:46.463795  2701 layer_factory.hpp:114] Creating layer inception_3b/5x5_reduce
I0327 09:12:46.463819  2701 net.cpp:169] Creating Layer inception_3b/5x5_reduce
I0327 09:12:46.463829  2701 net.cpp:606] inception_3b/5x5_reduce <- inception_3a/output_inception_3a/output_0_split_2
I0327 09:12:46.463846  2701 net.cpp:579] inception_3b/5x5_reduce -> inception_3b/5x5_reduce
I0327 09:12:46.463856  2701 net.cpp:582] From AppendTop @cpu: 0
I0327 09:12:46.467264  2701 net.cpp:219] Setting up inception_3b/5x5_reduce
I0327 09:12:46.467322  2701 net.cpp:226] Top shape: 6 32 28 28 (150528)
I0327 09:12:46.467331  2701 net.cpp:234] Memory required for data: 181837920
I0327 09:12:46.467356  2701 net.cpp:154] Setting up Layer of device :0 @cpu 0 Layer : inception_3b/relu_5x5_reduce
I0327 09:12:46.467384  2701 layer_factory.hpp:114] Creating layer inception_3b/relu_5x5_reduce
I0327 09:12:46.467406  2701 net.cpp:169] Creating Layer inception_3b/relu_5x5_reduce
I0327 09:12:46.467419  2701 net.cpp:606] inception_3b/relu_5x5_reduce <- inception_3b/5x5_reduce
I0327 09:12:46.467438  2701 net.cpp:566] inception_3b/relu_5x5_reduce -> inception_3b/5x5_reduce (in-place)
I0327 09:12:46.467456  2701 net.cpp:219] Setting up inception_3b/relu_5x5_reduce
I0327 09:12:46.467468  2701 net.cpp:226] Top shape: 6 32 28 28 (150528)
I0327 09:12:46.467478  2701 net.cpp:234] Memory required for data: 182440032
I0327 09:12:46.467488  2701 net.cpp:154] Setting up Layer of device :0 @cpu 0 Layer : inception_3b/5x5
I0327 09:12:46.467496  2701 layer_factory.hpp:114] Creating layer inception_3b/5x5
I0327 09:12:46.467514  2701 net.cpp:169] Creating Layer inception_3b/5x5
I0327 09:12:46.467525  2701 net.cpp:606] inception_3b/5x5 <- inception_3b/5x5_reduce
I0327 09:12:46.467540  2701 net.cpp:579] inception_3b/5x5 -> inception_3b/5x5
I0327 09:12:46.467550  2701 net.cpp:582] From AppendTop @cpu: 0
I0327 09:12:46.477216  2701 net.cpp:219] Setting up inception_3b/5x5
I0327 09:12:46.477299  2701 net.cpp:226] Top shape: 6 96 28 28 (451584)
I0327 09:12:46.477309  2701 net.cpp:234] Memory required for data: 184246368
I0327 09:12:46.477340  2701 net.cpp:154] Setting up Layer of device :0 @cpu 0 Layer : inception_3b/relu_5x5
I0327 09:12:46.477349  2701 layer_factory.hpp:114] Creating layer inception_3b/relu_5x5
I0327 09:12:46.477373  2701 net.cpp:169] Creating Layer inception_3b/relu_5x5
I0327 09:12:46.477418  2701 net.cpp:606] inception_3b/relu_5x5 <- inception_3b/5x5
I0327 09:12:46.477434  2701 net.cpp:566] inception_3b/relu_5x5 -> inception_3b/5x5 (in-place)
I0327 09:12:46.477454  2701 net.cpp:219] Setting up inception_3b/relu_5x5
I0327 09:12:46.477466  2701 net.cpp:226] Top shape: 6 96 28 28 (451584)
I0327 09:12:46.477474  2701 net.cpp:234] Memory required for data: 186052704
I0327 09:12:46.477485  2701 net.cpp:154] Setting up Layer of device :0 @cpu 0 Layer : inception_3b/pool
I0327 09:12:46.477494  2701 layer_factory.hpp:114] Creating layer inception_3b/pool
I0327 09:12:46.477537  2701 net.cpp:169] Creating Layer inception_3b/pool
I0327 09:12:46.477550  2701 net.cpp:606] inception_3b/pool <- inception_3a/output_inception_3a/output_0_split_3
I0327 09:12:46.477566  2701 net.cpp:579] inception_3b/pool -> inception_3b/pool
I0327 09:12:46.477576  2701 net.cpp:582] From AppendTop @cpu: 0
I0327 09:12:46.477596  2701 net.cpp:219] Setting up inception_3b/pool
I0327 09:12:46.477608  2701 net.cpp:226] Top shape: 6 256 28 28 (1204224)
I0327 09:12:46.477617  2701 net.cpp:234] Memory required for data: 190869600
I0327 09:12:46.477627  2701 net.cpp:154] Setting up Layer of device :0 @cpu 0 Layer : inception_3b/pool_proj
I0327 09:12:46.477635  2701 layer_factory.hpp:114] Creating layer inception_3b/pool_proj
I0327 09:12:46.477658  2701 net.cpp:169] Creating Layer inception_3b/pool_proj
I0327 09:12:46.477669  2701 net.cpp:606] inception_3b/pool_proj <- inception_3b/pool
I0327 09:12:46.477686  2701 net.cpp:579] inception_3b/pool_proj -> inception_3b/pool_proj
I0327 09:12:46.477695  2701 net.cpp:582] From AppendTop @cpu: 0
I0327 09:12:46.481415  2701 net.cpp:219] Setting up inception_3b/pool_proj
I0327 09:12:46.481475  2701 net.cpp:226] Top shape: 6 64 28 28 (301056)
I0327 09:12:46.481484  2701 net.cpp:234] Memory required for data: 192073824
I0327 09:12:46.481510  2701 net.cpp:154] Setting up Layer of device :0 @cpu 0 Layer : inception_3b/relu_pool_proj
I0327 09:12:46.481520  2701 layer_factory.hpp:114] Creating layer inception_3b/relu_pool_proj
I0327 09:12:46.481541  2701 net.cpp:169] Creating Layer inception_3b/relu_pool_proj
I0327 09:12:46.481554  2701 net.cpp:606] inception_3b/relu_pool_proj <- inception_3b/pool_proj
I0327 09:12:46.481567  2701 net.cpp:566] inception_3b/relu_pool_proj -> inception_3b/pool_proj (in-place)
I0327 09:12:46.481585  2701 net.cpp:219] Setting up inception_3b/relu_pool_proj
I0327 09:12:46.481612  2701 net.cpp:226] Top shape: 6 64 28 28 (301056)
I0327 09:12:46.481621  2701 net.cpp:234] Memory required for data: 193278048
I0327 09:12:46.481631  2701 net.cpp:154] Setting up Layer of device :0 @cpu 0 Layer : inception_3b/output
I0327 09:12:46.481640  2701 layer_factory.hpp:114] Creating layer inception_3b/output
I0327 09:12:46.481657  2701 net.cpp:169] Creating Layer inception_3b/output
I0327 09:12:46.481667  2701 net.cpp:606] inception_3b/output <- inception_3b/1x1
I0327 09:12:46.481678  2701 net.cpp:606] inception_3b/output <- inception_3b/3x3
I0327 09:12:46.481689  2701 net.cpp:606] inception_3b/output <- inception_3b/5x5
I0327 09:12:46.481699  2701 net.cpp:606] inception_3b/output <- inception_3b/pool_proj
I0327 09:12:46.481711  2701 net.cpp:579] inception_3b/output -> inception_3b/output
I0327 09:12:46.481720  2701 net.cpp:582] From AppendTop @cpu: 0
I0327 09:12:46.481737  2701 net.cpp:219] Setting up inception_3b/output
I0327 09:12:46.481750  2701 net.cpp:226] Top shape: 6 480 28 28 (2257920)
I0327 09:12:46.481757  2701 net.cpp:234] Memory required for data: 202309728
I0327 09:12:46.481767  2701 net.cpp:154] Setting up Layer of device :0 @cpu 0 Layer : pool3/3x3_s2
I0327 09:12:46.481776  2701 layer_factory.hpp:114] Creating layer pool3/3x3_s2
I0327 09:12:46.481819  2701 net.cpp:169] Creating Layer pool3/3x3_s2
I0327 09:12:46.481830  2701 net.cpp:606] pool3/3x3_s2 <- inception_3b/output
I0327 09:12:46.481847  2701 net.cpp:579] pool3/3x3_s2 -> pool3/3x3_s2
I0327 09:12:46.481855  2701 net.cpp:582] From AppendTop @cpu: 0
I0327 09:12:46.481873  2701 net.cpp:219] Setting up pool3/3x3_s2
I0327 09:12:46.481905  2701 net.cpp:226] Top shape: 6 480 14 14 (564480)
I0327 09:12:46.481914  2701 net.cpp:234] Memory required for data: 204567648
I0327 09:12:46.481925  2701 net.cpp:154] Setting up Layer of device :0 @cpu 0 Layer : pool3/3x3_s2_pool3/3x3_s2_0_split
I0327 09:12:46.481935  2701 layer_factory.hpp:114] Creating layer pool3/3x3_s2_pool3/3x3_s2_0_split
I0327 09:12:46.481947  2701 net.cpp:169] Creating Layer pool3/3x3_s2_pool3/3x3_s2_0_split
I0327 09:12:46.481956  2701 net.cpp:606] pool3/3x3_s2_pool3/3x3_s2_0_split <- pool3/3x3_s2
I0327 09:12:46.481968  2701 net.cpp:579] pool3/3x3_s2_pool3/3x3_s2_0_split -> pool3/3x3_s2_pool3/3x3_s2_0_split_0
I0327 09:12:46.481976  2701 net.cpp:582] From AppendTop @cpu: 0
I0327 09:12:46.481989  2701 net.cpp:579] pool3/3x3_s2_pool3/3x3_s2_0_split -> pool3/3x3_s2_pool3/3x3_s2_0_split_1
I0327 09:12:46.481998  2701 net.cpp:582] From AppendTop @cpu: 0
I0327 09:12:46.482012  2701 net.cpp:579] pool3/3x3_s2_pool3/3x3_s2_0_split -> pool3/3x3_s2_pool3/3x3_s2_0_split_2
I0327 09:12:46.482026  2701 net.cpp:582] From AppendTop @cpu: 0
I0327 09:12:46.482046  2701 net.cpp:579] pool3/3x3_s2_pool3/3x3_s2_0_split -> pool3/3x3_s2_pool3/3x3_s2_0_split_3
I0327 09:12:46.482055  2701 net.cpp:582] From AppendTop @cpu: 0
I0327 09:12:46.482076  2701 net.cpp:219] Setting up pool3/3x3_s2_pool3/3x3_s2_0_split
I0327 09:12:46.482089  2701 net.cpp:226] Top shape: 6 480 14 14 (564480)
I0327 09:12:46.482100  2701 net.cpp:226] Top shape: 6 480 14 14 (564480)
I0327 09:12:46.482110  2701 net.cpp:226] Top shape: 6 480 14 14 (564480)
I0327 09:12:46.482120  2701 net.cpp:226] Top shape: 6 480 14 14 (564480)
I0327 09:12:46.482128  2701 net.cpp:234] Memory required for data: 213599328
I0327 09:12:46.482138  2701 net.cpp:154] Setting up Layer of device :0 @cpu 0 Layer : inception_4a/1x1
I0327 09:12:46.482147  2701 layer_factory.hpp:114] Creating layer inception_4a/1x1
I0327 09:12:46.482168  2701 net.cpp:169] Creating Layer inception_4a/1x1
I0327 09:12:46.482178  2701 net.cpp:606] inception_4a/1x1 <- pool3/3x3_s2_pool3/3x3_s2_0_split_0
I0327 09:12:46.482194  2701 net.cpp:579] inception_4a/1x1 -> inception_4a/1x1
I0327 09:12:46.482203  2701 net.cpp:582] From AppendTop @cpu: 0
I0327 09:12:46.487434  2701 net.cpp:219] Setting up inception_4a/1x1
I0327 09:12:46.487488  2701 net.cpp:226] Top shape: 6 192 14 14 (225792)
I0327 09:12:46.487496  2701 net.cpp:234] Memory required for data: 214502496
I0327 09:12:46.487535  2701 net.cpp:154] Setting up Layer of device :0 @cpu 0 Layer : inception_4a/relu_1x1
I0327 09:12:46.487546  2701 layer_factory.hpp:114] Creating layer inception_4a/relu_1x1
I0327 09:12:46.487563  2701 net.cpp:169] Creating Layer inception_4a/relu_1x1
I0327 09:12:46.487574  2701 net.cpp:606] inception_4a/relu_1x1 <- inception_4a/1x1
I0327 09:12:46.487587  2701 net.cpp:566] inception_4a/relu_1x1 -> inception_4a/1x1 (in-place)
I0327 09:12:46.487604  2701 net.cpp:219] Setting up inception_4a/relu_1x1
I0327 09:12:46.487615  2701 net.cpp:226] Top shape: 6 192 14 14 (225792)
I0327 09:12:46.487624  2701 net.cpp:234] Memory required for data: 215405664
I0327 09:12:46.487634  2701 net.cpp:154] Setting up Layer of device :0 @cpu 0 Layer : inception_4a/3x3_reduce
I0327 09:12:46.487643  2701 layer_factory.hpp:114] Creating layer inception_4a/3x3_reduce
I0327 09:12:46.487664  2701 net.cpp:169] Creating Layer inception_4a/3x3_reduce
I0327 09:12:46.487675  2701 net.cpp:606] inception_4a/3x3_reduce <- pool3/3x3_s2_pool3/3x3_s2_0_split_1
I0327 09:12:46.487689  2701 net.cpp:579] inception_4a/3x3_reduce -> inception_4a/3x3_reduce
I0327 09:12:46.487699  2701 net.cpp:582] From AppendTop @cpu: 0
I0327 09:12:46.491279  2701 net.cpp:219] Setting up inception_4a/3x3_reduce
I0327 09:12:46.491320  2701 net.cpp:226] Top shape: 6 96 14 14 (112896)
I0327 09:12:46.491329  2701 net.cpp:234] Memory required for data: 215857248
I0327 09:12:46.491365  2701 net.cpp:154] Setting up Layer of device :0 @cpu 0 Layer : inception_4a/relu_3x3_reduce
I0327 09:12:46.491376  2701 layer_factory.hpp:114] Creating layer inception_4a/relu_3x3_reduce
I0327 09:12:46.491412  2701 net.cpp:169] Creating Layer inception_4a/relu_3x3_reduce
I0327 09:12:46.491422  2701 net.cpp:606] inception_4a/relu_3x3_reduce <- inception_4a/3x3_reduce
I0327 09:12:46.491441  2701 net.cpp:566] inception_4a/relu_3x3_reduce -> inception_4a/3x3_reduce (in-place)
I0327 09:12:46.491457  2701 net.cpp:219] Setting up inception_4a/relu_3x3_reduce
I0327 09:12:46.491469  2701 net.cpp:226] Top shape: 6 96 14 14 (112896)
I0327 09:12:46.491477  2701 net.cpp:234] Memory required for data: 216308832
I0327 09:12:46.491488  2701 net.cpp:154] Setting up Layer of device :0 @cpu 0 Layer : inception_4a/3x3
I0327 09:12:46.491497  2701 layer_factory.hpp:114] Creating layer inception_4a/3x3
I0327 09:12:46.491513  2701 net.cpp:169] Creating Layer inception_4a/3x3
I0327 09:12:46.491523  2701 net.cpp:606] inception_4a/3x3 <- inception_4a/3x3_reduce
I0327 09:12:46.491539  2701 net.cpp:579] inception_4a/3x3 -> inception_4a/3x3
I0327 09:12:46.491547  2701 net.cpp:582] From AppendTop @cpu: 0
I0327 09:12:46.499687  2701 net.cpp:219] Setting up inception_4a/3x3
I0327 09:12:46.499768  2701 net.cpp:226] Top shape: 6 208 14 14 (244608)
I0327 09:12:46.499776  2701 net.cpp:234] Memory required for data: 217287264
I0327 09:12:46.499807  2701 net.cpp:154] Setting up Layer of device :0 @cpu 0 Layer : inception_4a/relu_3x3
I0327 09:12:46.499817  2701 layer_factory.hpp:114] Creating layer inception_4a/relu_3x3
I0327 09:12:46.499837  2701 net.cpp:169] Creating Layer inception_4a/relu_3x3
I0327 09:12:46.499850  2701 net.cpp:606] inception_4a/relu_3x3 <- inception_4a/3x3
I0327 09:12:46.499869  2701 net.cpp:566] inception_4a/relu_3x3 -> inception_4a/3x3 (in-place)
I0327 09:12:46.499889  2701 net.cpp:219] Setting up inception_4a/relu_3x3
I0327 09:12:46.499902  2701 net.cpp:226] Top shape: 6 208 14 14 (244608)
I0327 09:12:46.499910  2701 net.cpp:234] Memory required for data: 218265696
I0327 09:12:46.499920  2701 net.cpp:154] Setting up Layer of device :0 @cpu 0 Layer : inception_4a/5x5_reduce
I0327 09:12:46.499929  2701 layer_factory.hpp:114] Creating layer inception_4a/5x5_reduce
I0327 09:12:46.499949  2701 net.cpp:169] Creating Layer inception_4a/5x5_reduce
I0327 09:12:46.499961  2701 net.cpp:606] inception_4a/5x5_reduce <- pool3/3x3_s2_pool3/3x3_s2_0_split_2
I0327 09:12:46.499979  2701 net.cpp:579] inception_4a/5x5_reduce -> inception_4a/5x5_reduce
I0327 09:12:46.499989  2701 net.cpp:582] From AppendTop @cpu: 0
I0327 09:12:46.502161  2701 net.cpp:219] Setting up inception_4a/5x5_reduce
I0327 09:12:46.502197  2701 net.cpp:226] Top shape: 6 16 14 14 (18816)
I0327 09:12:46.502207  2701 net.cpp:234] Memory required for data: 218340960
I0327 09:12:46.502226  2701 net.cpp:154] Setting up Layer of device :0 @cpu 0 Layer : inception_4a/relu_5x5_reduce
I0327 09:12:46.502236  2701 layer_factory.hpp:114] Creating layer inception_4a/relu_5x5_reduce
I0327 09:12:46.502254  2701 net.cpp:169] Creating Layer inception_4a/relu_5x5_reduce
I0327 09:12:46.502265  2701 net.cpp:606] inception_4a/relu_5x5_reduce <- inception_4a/5x5_reduce
I0327 09:12:46.502280  2701 net.cpp:566] inception_4a/relu_5x5_reduce -> inception_4a/5x5_reduce (in-place)
I0327 09:12:46.502297  2701 net.cpp:219] Setting up inception_4a/relu_5x5_reduce
I0327 09:12:46.502312  2701 net.cpp:226] Top shape: 6 16 14 14 (18816)
I0327 09:12:46.502321  2701 net.cpp:234] Memory required for data: 218416224
I0327 09:12:46.502331  2701 net.cpp:154] Setting up Layer of device :0 @cpu 0 Layer : inception_4a/5x5
I0327 09:12:46.502341  2701 layer_factory.hpp:114] Creating layer inception_4a/5x5
I0327 09:12:46.502357  2701 net.cpp:169] Creating Layer inception_4a/5x5
I0327 09:12:46.502367  2701 net.cpp:606] inception_4a/5x5 <- inception_4a/5x5_reduce
I0327 09:12:46.502382  2701 net.cpp:579] inception_4a/5x5 -> inception_4a/5x5
I0327 09:12:46.502391  2701 net.cpp:582] From AppendTop @cpu: 0
I0327 09:12:46.504647  2701 net.cpp:219] Setting up inception_4a/5x5
I0327 09:12:46.504683  2701 net.cpp:226] Top shape: 6 48 14 14 (56448)
I0327 09:12:46.504691  2701 net.cpp:234] Memory required for data: 218642016
I0327 09:12:46.504736  2701 net.cpp:154] Setting up Layer of device :0 @cpu 0 Layer : inception_4a/relu_5x5
I0327 09:12:46.504746  2701 layer_factory.hpp:114] Creating layer inception_4a/relu_5x5
I0327 09:12:46.504765  2701 net.cpp:169] Creating Layer inception_4a/relu_5x5
I0327 09:12:46.504776  2701 net.cpp:606] inception_4a/relu_5x5 <- inception_4a/5x5
I0327 09:12:46.504788  2701 net.cpp:566] inception_4a/relu_5x5 -> inception_4a/5x5 (in-place)
I0327 09:12:46.504803  2701 net.cpp:219] Setting up inception_4a/relu_5x5
I0327 09:12:46.504815  2701 net.cpp:226] Top shape: 6 48 14 14 (56448)
I0327 09:12:46.504823  2701 net.cpp:234] Memory required for data: 218867808
I0327 09:12:46.504834  2701 net.cpp:154] Setting up Layer of device :0 @cpu 0 Layer : inception_4a/pool
I0327 09:12:46.504842  2701 layer_factory.hpp:114] Creating layer inception_4a/pool
I0327 09:12:46.504885  2701 net.cpp:169] Creating Layer inception_4a/pool
I0327 09:12:46.504897  2701 net.cpp:606] inception_4a/pool <- pool3/3x3_s2_pool3/3x3_s2_0_split_3
I0327 09:12:46.504918  2701 net.cpp:579] inception_4a/pool -> inception_4a/pool
I0327 09:12:46.504927  2701 net.cpp:582] From AppendTop @cpu: 0
I0327 09:12:46.504946  2701 net.cpp:219] Setting up inception_4a/pool
I0327 09:12:46.504958  2701 net.cpp:226] Top shape: 6 480 14 14 (564480)
I0327 09:12:46.504966  2701 net.cpp:234] Memory required for data: 221125728
I0327 09:12:46.504976  2701 net.cpp:154] Setting up Layer of device :0 @cpu 0 Layer : inception_4a/pool_proj
I0327 09:12:46.504984  2701 layer_factory.hpp:114] Creating layer inception_4a/pool_proj
I0327 09:12:46.505004  2701 net.cpp:169] Creating Layer inception_4a/pool_proj
I0327 09:12:46.505015  2701 net.cpp:606] inception_4a/pool_proj <- inception_4a/pool
I0327 09:12:46.505041  2701 net.cpp:579] inception_4a/pool_proj -> inception_4a/pool_proj
I0327 09:12:46.505050  2701 net.cpp:582] From AppendTop @cpu: 0
I0327 09:12:46.508049  2701 net.cpp:219] Setting up inception_4a/pool_proj
I0327 09:12:46.508091  2701 net.cpp:226] Top shape: 6 64 14 14 (75264)
I0327 09:12:46.508100  2701 net.cpp:234] Memory required for data: 221426784
I0327 09:12:46.508123  2701 net.cpp:154] Setting up Layer of device :0 @cpu 0 Layer : inception_4a/relu_pool_proj
I0327 09:12:46.508133  2701 layer_factory.hpp:114] Creating layer inception_4a/relu_pool_proj
I0327 09:12:46.508152  2701 net.cpp:169] Creating Layer inception_4a/relu_pool_proj
I0327 09:12:46.508163  2701 net.cpp:606] inception_4a/relu_pool_proj <- inception_4a/pool_proj
I0327 09:12:46.508188  2701 net.cpp:566] inception_4a/relu_pool_proj -> inception_4a/pool_proj (in-place)
I0327 09:12:46.508204  2701 net.cpp:219] Setting up inception_4a/relu_pool_proj
I0327 09:12:46.508215  2701 net.cpp:226] Top shape: 6 64 14 14 (75264)
I0327 09:12:46.508224  2701 net.cpp:234] Memory required for data: 221727840
I0327 09:12:46.508234  2701 net.cpp:154] Setting up Layer of device :0 @cpu 0 Layer : inception_4a/output
I0327 09:12:46.508244  2701 layer_factory.hpp:114] Creating layer inception_4a/output
I0327 09:12:46.508255  2701 net.cpp:169] Creating Layer inception_4a/output
I0327 09:12:46.508265  2701 net.cpp:606] inception_4a/output <- inception_4a/1x1
I0327 09:12:46.508275  2701 net.cpp:606] inception_4a/output <- inception_4a/3x3
I0327 09:12:46.508286  2701 net.cpp:606] inception_4a/output <- inception_4a/5x5
I0327 09:12:46.508296  2701 net.cpp:606] inception_4a/output <- inception_4a/pool_proj
I0327 09:12:46.508311  2701 net.cpp:579] inception_4a/output -> inception_4a/output
I0327 09:12:46.508321  2701 net.cpp:582] From AppendTop @cpu: 0
I0327 09:12:46.508337  2701 net.cpp:219] Setting up inception_4a/output
I0327 09:12:46.508348  2701 net.cpp:226] Top shape: 6 512 14 14 (602112)
I0327 09:12:46.508357  2701 net.cpp:234] Memory required for data: 224136288
I0327 09:12:46.508366  2701 net.cpp:154] Setting up Layer of device :0 @cpu 0 Layer : inception_4a/output_inception_4a/output_0_split
I0327 09:12:46.508375  2701 layer_factory.hpp:114] Creating layer inception_4a/output_inception_4a/output_0_split
I0327 09:12:46.508404  2701 net.cpp:169] Creating Layer inception_4a/output_inception_4a/output_0_split
…
I0327 09:12:46.508482  2701 net.cpp:582] From AppendTop @cpu: 0
I0327 09:12:46.508496  2701 net.cpp:579] inception_4a/output_inception_4a/output_0_split -> inception_4a/output_inception_4a/output_0_split_3
I0327 09:12:46.508505  2701 net.cpp:582] From AppendTop @cpu: 0
I0327 09:12:46.508518  2701 net.cpp:579] inception_4a/output_inception_4a/output_0_split -> inception_4a/output_inception_4a/output_0_split_4
I0327 09:12:46.508527  2701 net.cpp:582] From AppendTop @cpu: 0
I0327 09:12:46.508545  2701 net.cpp:219] Setting up inception_4a/output_inception_4a/output_0_split
I0327 09:12:46.508558  2701 net.cpp:226] Top shape: 6 512 14 14 (602112)
I0327 09:12:46.508569  2701 net.cpp:226] Top shape: 6 512 14 14 (602112)
I0327 09:12:46.508579  2701 net.cpp:226] Top shape: 6 512 14 14 (602112)
I0327 09:12:46.508590  2701 net.cpp:226] Top shape: 6 512 14 14 (602112)
I0327 09:12:46.508601  2701 net.cpp:226] Top shape: 6 512 14 14 (602112)
I0327 09:12:46.508610  2701 net.cpp:234] Memory required for data: 236178528
I0327 09:12:46.508620  2701 net.cpp:154] Setting up Layer of device :0 @cpu 0 Layer : loss1/ave_pool
I0327 09:12:46.508628  2701 layer_factory.hpp:114] Creating layer loss1/ave_pool
I0327 09:12:46.508667  2701 net.cpp:169] Creating Layer loss1/ave_pool
I0327 09:12:46.508678  2701 net.cpp:606] loss1/ave_pool <- inception_4a/output_inception_4a/output_0_split_0
I0327 09:12:46.508692  2701 net.cpp:579] loss1/ave_pool -> loss1/ave_pool
I0327 09:12:46.508700  2701 net.cpp:582] From AppendTop @cpu: 0
I0327 09:12:46.508714  2701 net.cpp:219] Setting up loss1/ave_pool
I0327 09:12:46.508726  2701 net.cpp:226] Top shape: 6 512 4 4 (49152)
I0327 09:12:46.508734  2701 net.cpp:234] Memory required for data: 236375136
I0327 09:12:46.508751  2701 net.cpp:154] Setting up Layer of device :0 @cpu 0 Layer : loss1/conv
I0327 09:12:46.508760  2701 layer_factory.hpp:114] Creating layer loss1/conv
I0327 09:12:46.508780  2701 net.cpp:169] Creating Layer loss1/conv
I0327 09:12:46.508790  2701 net.cpp:606] loss1/conv <- loss1/ave_pool
I0327 09:12:46.508805  2701 net.cpp:579] loss1/conv -> loss1/conv
I0327 09:12:46.508815  2701 net.cpp:582] From AppendTop @cpu: 0
I0327 09:12:46.511449  2701 net.cpp:219] Setting up loss1/conv
I0327 09:12:46.511482  2701 net.cpp:226] Top shape: 6 128 4 4 (12288)
I0327 09:12:46.511492  2701 net.cpp:234] Memory required for data: 236424288
I0327 09:12:46.511512  2701 net.cpp:154] Setting up Layer of device :0 @cpu 0 Layer : loss1/relu_conv
I0327 09:12:46.511521  2701 layer_factory.hpp:114] Creating layer loss1/relu_conv
I0327 09:12:46.511535  2701 net.cpp:169] Creating Layer loss1/relu_conv
I0327 09:12:46.511545  2701 net.cpp:606] loss1/relu_conv <- loss1/conv
I0327 09:12:46.511560  2701 net.cpp:566] loss1/relu_conv -> loss1/conv (in-place)
I0327 09:12:46.511576  2701 net.cpp:219] Setting up loss1/relu_conv
I0327 09:12:46.511587  2701 net.cpp:226] Top shape: 6 128 4 4 (12288)
I0327 09:12:46.511596  2701 net.cpp:234] Memory required for data: 236473440
I0327 09:12:46.511606  2701 net.cpp:154] Setting up Layer of device :0 @cpu 0 Layer : loss1/fc
I0327 09:12:46.511615  2701 layer_factory.hpp:114] Creating layer loss1/fc
I0327 09:12:46.511641  2701 net.cpp:169] Creating Layer loss1/fc
I0327 09:12:46.511651  2701 net.cpp:606] loss1/fc <- loss1/conv
I0327 09:12:46.511679  2701 net.cpp:579] loss1/fc -> loss1/fc
I0327 09:12:46.511689  2701 net.cpp:582] From AppendTop @cpu: 0
I0327 09:12:46.546257  2701 net.cpp:219] Setting up loss1/fc
I0327 09:12:46.546334  2701 net.cpp:226] Top shape: 6 1024 (6144)
I0327 09:12:46.546344  2701 net.cpp:234] Memory required for data: 236498016
I0327 09:12:46.546367  2701 net.cpp:154] Setting up Layer of device :0 @cpu 0 Layer : loss1/relu_fc
I0327 09:12:46.546377  2701 layer_factory.hpp:114] Creating layer loss1/relu_fc
I0327 09:12:46.546397  2701 net.cpp:169] Creating Layer loss1/relu_fc
I0327 09:12:46.546409  2701 net.cpp:606] loss1/relu_fc <- loss1/fc
I0327 09:12:46.546427  2701 net.cpp:566] loss1/relu_fc -> loss1/fc (in-place)
I0327 09:12:46.546445  2701 net.cpp:219] Setting up loss1/relu_fc
I0327 09:12:46.546458  2701 net.cpp:226] Top shape: 6 1024 (6144)
I0327 09:12:46.546465  2701 net.cpp:234] Memory required for data: 236522592
I0327 09:12:46.546476  2701 net.cpp:154] Setting up Layer of device :0 @cpu 0 Layer : loss1/drop_fc
I0327 09:12:46.546484  2701 layer_factory.hpp:114] Creating layer loss1/drop_fc
I0327 09:12:46.546509  2701 net.cpp:169] Creating Layer loss1/drop_fc
I0327 09:12:46.546519  2701 net.cpp:606] loss1/drop_fc <- loss1/fc
I0327 09:12:46.546532  2701 net.cpp:566] loss1/drop_fc -> loss1/fc (in-place)
I0327 09:12:46.546550  2701 net.cpp:219] Setting up loss1/drop_fc
I0327 09:12:46.546562  2701 net.cpp:226] Top shape: 6 1024 (6144)
I0327 09:12:46.546571  2701 net.cpp:234] Memory required for data: 236547168
I0327 09:12:46.546581  2701 net.cpp:154] Setting up Layer of device :0 @cpu 0 Layer : loss1/classifier
I0327 09:12:46.546591  2701 layer_factory.hpp:114] Creating layer loss1/classifier
I0327 09:12:46.546608  2701 net.cpp:169] Creating Layer loss1/classifier
I0327 09:12:46.546617  2701 net.cpp:606] loss1/classifier <- loss1/fc
I0327 09:12:46.546630  2701 net.cpp:579] loss1/classifier -> loss1/classifier
I0327 09:12:46.546639  2701 net.cpp:582] From AppendTop @cpu: 0
I0327 09:12:46.563930  2701 net.cpp:219] Setting up loss1/classifier
I0327 09:12:46.563982  2701 net.cpp:226] Top shape: 6 1000 (6000)
I0327 09:12:46.563992  2701 net.cpp:234] Memory required for data: 236571168
I0327 09:12:46.564012  2701 net.cpp:154] Setting up Layer of device :0 @cpu 0 Layer : loss1/loss
I0327 09:12:46.564026  2701 layer_factory.hpp:114] Creating layer loss1/loss
I0327 09:12:46.564050  2701 net.cpp:169] Creating Layer loss1/loss
I0327 09:12:46.564066  2701 net.cpp:606] loss1/loss <- loss1/classifier
…
I0327 09:12:46.564347  2701 net.cpp:154] Setting up Layer of device :0 @cpu 0 Layer : inception_4b/1x1
I0327 09:12:46.564355  2701 layer_factory.hpp:114] Creating layer inception_4b/1x1
I0327 09:12:46.564378  2701 net.cpp:169] Creating Layer inception_4b/1x1
I0327 09:12:46.564390  2701 net.cpp:606] inception_4b/1x1 <- inception_4a/output_inception_4a/output_0_split_1
I0327 09:12:46.564407  2701 net.cpp:579] inception_4b/1x1 -> inception_4b/1x1
I0327 09:12:46.564417  2701 net.cpp:582] From AppendTop @cpu: 0
I0327 09:12:46.569412  2701 net.cpp:219] Setting up inception_4b/1x1
I0327 09:12:46.569464  2701 net.cpp:226] Top shape: 6 160 14 14 (188160)
I0327 09:12:46.569473  2701 net.cpp:234] Memory required for data: 237323812
I0327 09:12:46.569497  2701 net.cpp:154] Setting up Layer of device :0 @cpu 0 Layer : inception_4b/relu_1x1
I0327 09:12:46.569507  2701 layer_factory.hpp:114] Creating layer inception_4b/relu_1x1
I0327 09:12:46.569525  2701 net.cpp:169] Creating Layer inception_4b/relu_1x1
I0327 09:12:46.569536  2701 net.cpp:606] inception_4b/relu_1x1 <- inception_4b/1x1
I0327 09:12:46.569574  2701 net.cpp:566] inception_4b/relu_1x1 -> inception_4b/1x1 (in-place)
I0327 09:12:46.569592  2701 net.cpp:219] Setting up inception_4b/relu_1x1
I0327 09:12:46.569604  2701 net.cpp:226] Top shape: 6 160 14 14 (188160)
I0327 09:12:46.569612  2701 net.cpp:234] Memory required for data: 238076452
I0327 09:12:46.569623  2701 net.cpp:154] Setting up Layer of device :0 @cpu 0 Layer : inception_4b/3x3_reduce
I0327 09:12:46.569631  2701 layer_factory.hpp:114] Creating layer inception_4b/3x3_reduce
I0327 09:12:46.569655  2701 net.cpp:169] Creating Layer inception_4b/3x3_reduce
I0327 09:12:46.569666  2701 net.cpp:606] inception_4b/3x3_reduce <- inception_4a/output_inception_4a/output_0_split_2
I0327 09:12:46.569680  2701 net.cpp:579] inception_4b/3x3_reduce -> inception_4b/3x3_reduce
I0327 09:12:46.569689  2701 net.cpp:582] From AppendTop @cpu: 0
I0327 09:12:46.572983  2701 net.cpp:219] Setting up inception_4b/3x3_reduce
I0327 09:12:46.573035  2701 net.cpp:226] Top shape: 6 112 14 14 (131712)
I0327 09:12:46.573046  2701 net.cpp:234] Memory required for data: 238603300
I0327 09:12:46.573073  2701 net.cpp:154] Setting up Layer of device :0 @cpu 0 Layer : inception_4b/relu_3x3_reduce
I0327 09:12:46.573084  2701 layer_factory.hpp:114] Creating layer inception_4b/relu_3x3_reduce
I0327 09:12:46.573099  2701 net.cpp:169] Creating Layer inception_4b/relu_3x3_reduce
I0327 09:12:46.573110  2701 net.cpp:606] inception_4b/relu_3x3_reduce <- inception_4b/3x3_reduce
I0327 09:12:46.573127  2701 net.cpp:566] inception_4b/relu_3x3_reduce -> inception_4b/3x3_reduce (in-place)
I0327 09:12:46.573143  2701 net.cpp:219] Setting up inception_4b/relu_3x3_reduce
I0327 09:12:46.573154  2701 net.cpp:226] Top shape: 6 112 14 14 (131712)
I0327 09:12:46.573163  2701 net.cpp:234] Memory required for data: 239130148
I0327 09:12:46.573173  2701 net.cpp:154] Setting up Layer of device :0 @cpu 0 Layer : inception_4b/3x3
I0327 09:12:46.573182  2701 layer_factory.hpp:114] Creating layer inception_4b/3x3
I0327 09:12:46.573199  2701 net.cpp:169] Creating Layer inception_4b/3x3
I0327 09:12:46.573210  2701 net.cpp:606] inception_4b/3x3 <- inception_4b/3x3_reduce
I0327 09:12:46.573225  2701 net.cpp:579] inception_4b/3x3 -> inception_4b/3x3
I0327 09:12:46.573235  2701 net.cpp:582] From AppendTop @cpu: 0
I0327 09:12:46.583389  2701 net.cpp:219] Setting up inception_4b/3x3
I0327 09:12:46.583470  2701 net.cpp:226] Top shape: 6 224 14 14 (263424)
I0327 09:12:46.583498  2701 net.cpp:234] Memory required for data: 240183844
I0327 09:12:46.583531  2701 net.cpp:154] Setting up Layer of device :0 @cpu 0 Layer : inception_4b/relu_3x3
I0327 09:12:46.583541  2701 layer_factory.hpp:114] Creating layer inception_4b/relu_3x3
I0327 09:12:46.583562  2701 net.cpp:169] Creating Layer inception_4b/relu_3x3
I0327 09:12:46.583575  2701 net.cpp:606] inception_4b/relu_3x3 <- inception_4b/3x3
I0327 09:12:46.583593  2701 net.cpp:566] inception_4b/relu_3x3 -> inception_4b/3x3 (in-place)
I0327 09:12:46.583614  2701 net.cpp:219] Setting up inception_4b/relu_3x3
I0327 09:12:46.583626  2701 net.cpp:226] Top shape: 6 224 14 14 (263424)
I0327 09:12:46.583634  2701 net.cpp:234] Memory required for data: 241237540
I0327 09:12:46.583644  2701 net.cpp:154] Setting up Layer of device :0 @cpu 0 Layer : inception_4b/5x5_reduce
I0327 09:12:46.583653  2701 layer_factory.hpp:114] Creating layer inception_4b/5x5_reduce
I0327 09:12:46.583673  2701 net.cpp:169] Creating Layer inception_4b/5x5_reduce
I0327 09:12:46.583683  2701 net.cpp:606] inception_4b/5x5_reduce <- inception_4a/output_inception_4a/output_0_split_3
I0327 09:12:46.583698  2701 net.cpp:579] inception_4b/5x5_reduce -> inception_4b/5x5_reduce
I0327 09:12:46.583708  2701 net.cpp:582] From AppendTop @cpu: 0
I0327 09:12:46.585274  2701 net.cpp:219] Setting up inception_4b/5x5_reduce
I0327 09:12:46.585314  2701 net.cpp:226] Top shape: 6 24 14 14 (28224)
I0327 09:12:46.585322  2701 net.cpp:234] Memory required for data: 241350436
I0327 09:12:46.585343  2701 net.cpp:154] Setting up Layer of device :0 @cpu 0 Layer : inception_4b/relu_5x5_reduce
I0327 09:12:46.585374  2701 layer_factory.hpp:114] Creating layer inception_4b/relu_5x5_reduce
I0327 09:12:46.585389  2701 net.cpp:169] Creating Layer inception_4b/relu_5x5_reduce
I0327 09:12:46.585400  2701 net.cpp:606] inception_4b/relu_5x5_reduce <- inception_4b/5x5_reduce
I0327 09:12:46.585417  2701 net.cpp:566] inception_4b/relu_5x5_reduce -> inception_4b/5x5_reduce (in-place)
I0327 09:12:46.585433  2701 net.cpp:219] Setting up inception_4b/relu_5x5_reduce
I0327 09:12:46.585444  2701 net.cpp:226] Top shape: 6 24 14 14 (28224)
I0327 09:12:46.585453  2701 net.cpp:234] Memory required for data: 241463332
I0327 09:12:46.585464  2701 net.cpp:154] Setting up Layer of device :0 @cpu 0 Layer : inception_4b/5x5
I0327 09:12:46.585472  2701 layer_factory.hpp:114] Creating layer inception_4b/5x5
I0327 09:12:46.585489  2701 net.cpp:169] Creating Layer inception_4b/5x5
I0327 09:12:46.585499  2701 net.cpp:606] inception_4b/5x5 <- inception_4b/5x5_reduce
I0327 09:12:46.585515  2701 net.cpp:579] inception_4b/5x5 -> inception_4b/5x5
I0327 09:12:46.585523  2701 net.cpp:582] From AppendTop @cpu: 0
I0327 09:12:46.589326  2701 net.cpp:219] Setting up inception_4b/5x5
I0327 09:12:46.589375  2701 net.cpp:226] Top shape: 6 64 14 14 (75264)
I0327 09:12:46.589383  2701 net.cpp:234] Memory required for data: 241764388
I0327 09:12:46.589406  2701 net.cpp:154] Setting up Layer of device :0 @cpu 0 Layer : inception_4b/relu_5x5
I0327 09:12:46.589416  2701 layer_factory.hpp:114] Creating layer inception_4b/relu_5x5
I0327 09:12:46.589432  2701 net.cpp:169] Creating Layer inception_4b/relu_5x5
I0327 09:12:46.589443  2701 net.cpp:606] inception_4b/relu_5x5 <- inception_4b/5x5
I0327 09:12:46.589460  2701 net.cpp:566] inception_4b/relu_5x5 -> inception_4b/5x5 (in-place)
I0327 09:12:46.589476  2701 net.cpp:219] Setting up inception_4b/relu_5x5
I0327 09:12:46.589488  2701 net.cpp:226] Top shape: 6 64 14 14 (75264)
I0327 09:12:46.589496  2701 net.cpp:234] Memory required for data: 242065444
I0327 09:12:46.589506  2701 net.cpp:154] Setting up Layer of device :0 @cpu 0 Layer : inception_4b/pool
I0327 09:12:46.589515  2701 layer_factory.hpp:114] Creating layer inception_4b/pool
I0327 09:12:46.589560  2701 net.cpp:169] Creating Layer inception_4b/pool
I0327 09:12:46.589571  2701 net.cpp:606] inception_4b/pool <- inception_4a/output_inception_4a/output_0_split_4
I0327 09:12:46.589584  2701 net.cpp:579] inception_4b/pool -> inception_4b/pool
I0327 09:12:46.589606  2701 net.cpp:582] From AppendTop @cpu: 0
I0327 09:12:46.589635  2701 net.cpp:219] Setting up inception_4b/pool
I0327 09:12:46.589649  2701 net.cpp:226] Top shape: 6 512 14 14 (602112)
I0327 09:12:46.589658  2701 net.cpp:234] Memory required for data: 244473892
I0327 09:12:46.589668  2701 net.cpp:154] Setting up Layer of device :0 @cpu 0 Layer : inception_4b/pool_proj
I0327 09:12:46.589678  2701 layer_factory.hpp:114] Creating layer inception_4b/pool_proj
I0327 09:12:46.589697  2701 net.cpp:169] Creating Layer inception_4b/pool_proj
I0327 09:12:46.589707  2701 net.cpp:606] inception_4b/pool_proj <- inception_4b/pool
I0327 09:12:46.589720  2701 net.cpp:579] inception_4b/pool_proj -> inception_4b/pool_proj
I0327 09:12:46.589732  2701 net.cpp:582] From AppendTop @cpu: 0
I0327 09:12:46.592746  2701 net.cpp:219] Setting up inception_4b/pool_proj
I0327 09:12:46.592784  2701 net.cpp:226] Top shape: 6 64 14 14 (75264)
I0327 09:12:46.592794  2701 net.cpp:234] Memory required for data: 244774948
I0327 09:12:46.592816  2701 net.cpp:154] Setting up Layer of device :0 @cpu 0 Layer : inception_4b/relu_pool_proj
I0327 09:12:46.592825  2701 layer_factory.hpp:114] Creating layer inception_4b/relu_pool_proj
I0327 09:12:46.592840  2701 net.cpp:169] Creating Layer inception_4b/relu_pool_proj
I0327 09:12:46.592851  2701 net.cpp:606] inception_4b/relu_pool_proj <- inception_4b/pool_proj
I0327 09:12:46.592867  2701 net.cpp:566] inception_4b/relu_pool_proj -> inception_4b/pool_proj (in-place)
I0327 09:12:46.592883  2701 net.cpp:219] Setting up inception_4b/relu_pool_proj
I0327 09:12:46.592916  2701 net.cpp:226] Top shape: 6 64 14 14 (75264)
I0327 09:12:46.592926  2701 net.cpp:234] Memory required for data: 245076004
I0327 09:12:46.592936  2701 net.cpp:154] Setting up Layer of device :0 @cpu 0 Layer : inception_4b/output
I0327 09:12:46.592944  2701 layer_factory.hpp:114] Creating layer inception_4b/output
I0327 09:12:46.592957  2701 net.cpp:169] Creating Layer inception_4b/output
I0327 09:12:46.592967  2701 net.cpp:606] inception_4b/output <- inception_4b/1x1
I0327 09:12:46.592978  2701 net.cpp:606] inception_4b/output <- inception_4b/3x3
I0327 09:12:46.592989  2701 net.cpp:606] inception_4b/output <- inception_4b/5x5
I0327 09:12:46.592999  2701 net.cpp:606] inception_4b/output <- inception_4b/pool_proj
I0327 09:12:46.593014  2701 net.cpp:579] inception_4b/output -> inception_4b/output
I0327 09:12:46.593034  2701 net.cpp:582] From AppendTop @cpu: 0
I0327 09:12:46.593050  2701 net.cpp:219] Setting up inception_4b/output
I0327 09:12:46.593067  2701 net.cpp:226] Top shape: 6 512 14 14 (602112)
I0327 09:12:46.593076  2701 net.cpp:234] Memory required for data: 247484452
I0327 09:12:46.593087  2701 net.cpp:154] Setting up Layer of device :0 @cpu 0 Layer : inception_4b/output_inception_4b/output_0_split
I0327 09:12:46.593096  2701 layer_factory.hpp:114] Creating layer inception_4b/output_inception_4b/output_0_split
I0327 09:12:46.593108  2701 net.cpp:169] Creating Layer inception_4b/output_inception_4b/output_0_split
…
I0327 09:12:46.593163  2701 net.cpp:582] From AppendTop @cpu: 0
I0327 09:12:46.593176  2701 net.cpp:579] inception_4b/output_inception_4b/output_0_split -> inception_4b/output_inception_4b/output_0_split_2
I0327 09:12:46.593184  2701 net.cpp:582] From AppendTop @cpu: 0
I0327 09:12:46.593199  2701 net.cpp:579] inception_4b/output_inception_4b/output_0_split -> inception_4b/output_inception_4b/output_0_split_3
I0327 09:12:46.593207  2701 net.cpp:582] From AppendTop @cpu: 0
I0327 09:12:46.593221  2701 net.cpp:219] Setting up inception_4b/output_inception_4b/output_0_split
I0327 09:12:46.593240  2701 net.cpp:226] Top shape: 6 512 14 14 (602112)
I0327 09:12:46.593251  2701 net.cpp:226] Top shape: 6 512 14 14 (602112)
I0327 09:12:46.593262  2701 net.cpp:226] Top shape: 6 512 14 14 (602112)
I0327 09:12:46.593273  2701 net.cpp:226] Top shape: 6 512 14 14 (602112)
I0327 09:12:46.593281  2701 net.cpp:234] Memory required for data: 257118244
I0327 09:12:46.593292  2701 net.cpp:154] Setting up Layer of device :0 @cpu 0 Layer : inception_4c/1x1
I0327 09:12:46.593300  2701 layer_factory.hpp:114] Creating layer inception_4c/1x1
I0327 09:12:46.593320  2701 net.cpp:169] Creating Layer inception_4c/1x1
I0327 09:12:46.593330  2701 net.cpp:606] inception_4c/1x1 <- inception_4b/output_inception_4b/output_0_split_0
I0327 09:12:46.593346  2701 net.cpp:579] inception_4c/1x1 -> inception_4c/1x1
I0327 09:12:46.593355  2701 net.cpp:582] From AppendTop @cpu: 0
I0327 09:12:46.597650  2701 net.cpp:219] Setting up inception_4c/1x1
I0327 09:12:46.597695  2701 net.cpp:226] Top shape: 6 128 14 14 (150528)
I0327 09:12:46.597704  2701 net.cpp:234] Memory required for data: 257720356
I0327 09:12:46.597728  2701 net.cpp:154] Setting up Layer of device :0 @cpu 0 Layer : inception_4c/relu_1x1
I0327 09:12:46.597738  2701 layer_factory.hpp:114] Creating layer inception_4c/relu_1x1
I0327 09:12:46.597753  2701 net.cpp:169] Creating Layer inception_4c/relu_1x1
I0327 09:12:46.597764  2701 net.cpp:606] inception_4c/relu_1x1 <- inception_4c/1x1
I0327 09:12:46.597777  2701 net.cpp:566] inception_4c/relu_1x1 -> inception_4c/1x1 (in-place)
I0327 09:12:46.597795  2701 net.cpp:219] Setting up inception_4c/relu_1x1
I0327 09:12:46.597826  2701 net.cpp:226] Top shape: 6 128 14 14 (150528)
I0327 09:12:46.597834  2701 net.cpp:234] Memory required for data: 258322468
I0327 09:12:46.597846  2701 net.cpp:154] Setting up Layer of device :0 @cpu 0 Layer : inception_4c/3x3_reduce
I0327 09:12:46.597853  2701 layer_factory.hpp:114] Creating layer inception_4c/3x3_reduce
I0327 09:12:46.597877  2701 net.cpp:169] Creating Layer inception_4c/3x3_reduce
I0327 09:12:46.597887  2701 net.cpp:606] inception_4c/3x3_reduce <- inception_4b/output_inception_4b/output_0_split_1
I0327 09:12:46.597901  2701 net.cpp:579] inception_4c/3x3_reduce -> inception_4c/3x3_reduce
I0327 09:12:46.597909  2701 net.cpp:582] From AppendTop @cpu: 0
I0327 09:12:46.602126  2701 net.cpp:219] Setting up inception_4c/3x3_reduce
I0327 09:12:46.602174  2701 net.cpp:226] Top shape: 6 128 14 14 (150528)
I0327 09:12:46.602182  2701 net.cpp:234] Memory required for data: 258924580
I0327 09:12:46.602203  2701 net.cpp:154] Setting up Layer of device :0 @cpu 0 Layer : inception_4c/relu_3x3_reduce
I0327 09:12:46.602215  2701 layer_factory.hpp:114] Creating layer inception_4c/relu_3x3_reduce
I0327 09:12:46.602228  2701 net.cpp:169] Creating Layer inception_4c/relu_3x3_reduce
I0327 09:12:46.602241  2701 net.cpp:606] inception_4c/relu_3x3_reduce <- inception_4c/3x3_reduce
I0327 09:12:46.602253  2701 net.cpp:566] inception_4c/relu_3x3_reduce -> inception_4c/3x3_reduce (in-place)
I0327 09:12:46.602270  2701 net.cpp:219] Setting up inception_4c/relu_3x3_reduce
I0327 09:12:46.602282  2701 net.cpp:226] Top shape: 6 128 14 14 (150528)
I0327 09:12:46.602290  2701 net.cpp:234] Memory required for data: 259526692
I0327 09:12:46.602300  2701 net.cpp:154] Setting up Layer of device :0 @cpu 0 Layer : inception_4c/3x3
I0327 09:12:46.602309  2701 layer_factory.hpp:114] Creating layer inception_4c/3x3
I0327 09:12:46.602326  2701 net.cpp:169] Creating Layer inception_4c/3x3
I0327 09:12:46.602335  2701 net.cpp:606] inception_4c/3x3 <- inception_4c/3x3_reduce
I0327 09:12:46.602351  2701 net.cpp:579] inception_4c/3x3 -> inception_4c/3x3
I0327 09:12:46.602360  2701 net.cpp:582] From AppendTop @cpu: 0
I0327 09:12:46.613927  2701 net.cpp:219] Setting up inception_4c/3x3
I0327 09:12:46.614022  2701 net.cpp:226] Top shape: 6 256 14 14 (301056)
I0327 09:12:46.614034  2701 net.cpp:234] Memory required for data: 260730916
I0327 09:12:46.614084  2701 net.cpp:154] Setting up Layer of device :0 @cpu 0 Layer : inception_4c/relu_3x3
I0327 09:12:46.614112  2701 layer_factory.hpp:114] Creating layer inception_4c/relu_3x3
I0327 09:12:46.614133  2701 net.cpp:169] Creating Layer inception_4c/relu_3x3
I0327 09:12:46.614147  2701 net.cpp:606] inception_4c/relu_3x3 <- inception_4c/3x3
I0327 09:12:46.614166  2701 net.cpp:566] inception_4c/relu_3x3 -> inception_4c/3x3 (in-place)
I0327 09:12:46.614186  2701 net.cpp:219] Setting up inception_4c/relu_3x3
I0327 09:12:46.614197  2701 net.cpp:226] Top shape: 6 256 14 14 (301056)
I0327 09:12:46.614207  2701 net.cpp:234] Memory required for data: 261935140
I0327 09:12:46.614217  2701 net.cpp:154] Setting up Layer of device :0 @cpu 0 Layer : inception_4c/5x5_reduce
I0327 09:12:46.614225  2701 layer_factory.hpp:114] Creating layer inception_4c/5x5_reduce
I0327 09:12:46.614245  2701 net.cpp:169] Creating Layer inception_4c/5x5_reduce
I0327 09:12:46.614256  2701 net.cpp:606] inception_4c/5x5_reduce <- inception_4b/output_inception_4b/output_0_split_2
I0327 09:12:46.614271  2701 net.cpp:579] inception_4c/5x5_reduce -> inception_4c/5x5_reduce
I0327 09:12:46.614280  2701 net.cpp:582] From AppendTop @cpu: 0
I0327 09:12:46.616693  2701 net.cpp:219] Setting up inception_4c/5x5_reduce
I0327 09:12:46.616729  2701 net.cpp:226] Top shape: 6 24 14 14 (28224)
I0327 09:12:46.616739  2701 net.cpp:234] Memory required for data: 262048036
I0327 09:12:46.616760  2701 net.cpp:154] Setting up Layer of device :0 @cpu 0 Layer : inception_4c/relu_5x5_reduce
I0327 09:12:46.616770  2701 layer_factory.hpp:114] Creating layer inception_4c/relu_5x5_reduce
I0327 09:12:46.616792  2701 net.cpp:169] Creating Layer inception_4c/relu_5x5_reduce
I0327 09:12:46.616830  2701 net.cpp:606] inception_4c/relu_5x5_reduce <- inception_4c/5x5_reduce
I0327 09:12:46.616847  2701 net.cpp:566] inception_4c/relu_5x5_reduce -> inception_4c/5x5_reduce (in-place)
I0327 09:12:46.616863  2701 net.cpp:219] Setting up inception_4c/relu_5x5_reduce
I0327 09:12:46.616874  2701 net.cpp:226] Top shape: 6 24 14 14 (28224)
I0327 09:12:46.616883  2701 net.cpp:234] Memory required for data: 262160932
I0327 09:12:46.616894  2701 net.cpp:154] Setting up Layer of device :0 @cpu 0 Layer : inception_4c/5x5
I0327 09:12:46.616902  2701 layer_factory.hpp:114] Creating layer inception_4c/5x5
I0327 09:12:46.616919  2701 net.cpp:169] Creating Layer inception_4c/5x5
I0327 09:12:46.616928  2701 net.cpp:606] inception_4c/5x5 <- inception_4c/5x5_reduce
I0327 09:12:46.616945  2701 net.cpp:579] inception_4c/5x5 -> inception_4c/5x5
I0327 09:12:46.616955  2701 net.cpp:582] From AppendTop @cpu: 0
I0327 09:12:46.620617  2701 net.cpp:219] Setting up inception_4c/5x5
I0327 09:12:46.620663  2701 net.cpp:226] Top shape: 6 64 14 14 (75264)
I0327 09:12:46.620672  2701 net.cpp:234] Memory required for data: 262461988
I0327 09:12:46.620695  2701 net.cpp:154] Setting up Layer of device :0 @cpu 0 Layer : inception_4c/relu_5x5
I0327 09:12:46.620705  2701 layer_factory.hpp:114] Creating layer inception_4c/relu_5x5
I0327 09:12:46.620725  2701 net.cpp:169] Creating Layer inception_4c/relu_5x5
I0327 09:12:46.620736  2701 net.cpp:606] inception_4c/relu_5x5 <- inception_4c/5x5
I0327 09:12:46.620754  2701 net.cpp:566] inception_4c/relu_5x5 -> inception_4c/5x5 (in-place)
I0327 09:12:46.620770  2701 net.cpp:219] Setting up inception_4c/relu_5x5
I0327 09:12:46.620782  2701 net.cpp:226] Top shape: 6 64 14 14 (75264)
I0327 09:12:46.620790  2701 net.cpp:234] Memory required for data: 262763044
I0327 09:12:46.620801  2701 net.cpp:154] Setting up Layer of device :0 @cpu 0 Layer : inception_4c/pool
I0327 09:12:46.620810  2701 layer_factory.hpp:114] Creating layer inception_4c/pool
I0327 09:12:46.620852  2701 net.cpp:169] Creating Layer inception_4c/pool
I0327 09:12:46.620864  2701 net.cpp:606] inception_4c/pool <- inception_4b/output_inception_4b/output_0_split_3
I0327 09:12:46.620877  2701 net.cpp:579] inception_4c/pool -> inception_4c/pool
I0327 09:12:46.620887  2701 net.cpp:582] From AppendTop @cpu: 0
I0327 09:12:46.620905  2701 net.cpp:219] Setting up inception_4c/pool
I0327 09:12:46.620916  2701 net.cpp:226] Top shape: 6 512 14 14 (602112)
I0327 09:12:46.620937  2701 net.cpp:234] Memory required for data: 265171492
I0327 09:12:46.620949  2701 net.cpp:154] Setting up Layer of device :0 @cpu 0 Layer : inception_4c/pool_proj
I0327 09:12:46.620957  2701 layer_factory.hpp:114] Creating layer inception_4c/pool_proj
I0327 09:12:46.620980  2701 net.cpp:169] Creating Layer inception_4c/pool_proj
I0327 09:12:46.620991  2701 net.cpp:606] inception_4c/pool_proj <- inception_4c/pool
I0327 09:12:46.621004  2701 net.cpp:579] inception_4c/pool_proj -> inception_4c/pool_proj
I0327 09:12:46.621013  2701 net.cpp:582] From AppendTop @cpu: 0
I0327 09:12:46.624088  2701 net.cpp:219] Setting up inception_4c/pool_proj
I0327 09:12:46.624127  2701 net.cpp:226] Top shape: 6 64 14 14 (75264)
I0327 09:12:46.624137  2701 net.cpp:234] Memory required for data: 265472548
I0327 09:12:46.624160  2701 net.cpp:154] Setting up Layer of device :0 @cpu 0 Layer : inception_4c/relu_pool_proj
I0327 09:12:46.624169  2701 layer_factory.hpp:114] Creating layer inception_4c/relu_pool_proj
I0327 09:12:46.624184  2701 net.cpp:169] Creating Layer inception_4c/relu_pool_proj
I0327 09:12:46.624195  2701 net.cpp:606] inception_4c/relu_pool_proj <- inception_4c/pool_proj
I0327 09:12:46.624212  2701 net.cpp:566] inception_4c/relu_pool_proj -> inception_4c/pool_proj (in-place)
I0327 09:12:46.624228  2701 net.cpp:219] Setting up inception_4c/relu_pool_proj
I0327 09:12:46.624239  2701 net.cpp:226] Top shape: 6 64 14 14 (75264)
I0327 09:12:46.624248  2701 net.cpp:234] Memory required for data: 265773604
I0327 09:12:46.624258  2701 net.cpp:154] Setting up Layer of device :0 @cpu 0 Layer : inception_4c/output
I0327 09:12:46.624287  2701 layer_factory.hpp:114] Creating layer inception_4c/output
I0327 09:12:46.624300  2701 net.cpp:169] Creating Layer inception_4c/output
I0327 09:12:46.624310  2701 net.cpp:606] inception_4c/output <- inception_4c/1x1
I0327 09:12:46.624321  2701 net.cpp:606] inception_4c/output <- inception_4c/3x3
I0327 09:12:46.624331  2701 net.cpp:606] inception_4c/output <- inception_4c/5x5
I0327 09:12:46.624342  2701 net.cpp:606] inception_4c/output <- inception_4c/pool_proj
I0327 09:12:46.624354  2701 net.cpp:579] inception_4c/output -> inception_4c/output
I0327 09:12:46.624362  2701 net.cpp:582] From AppendTop @cpu: 0
I0327 09:12:46.624379  2701 net.cpp:219] Setting up inception_4c/output
I0327 09:12:46.624392  2701 net.cpp:226] Top shape: 6 512 14 14 (602112)
I0327 09:12:46.624400  2701 net.cpp:234] Memory required for data: 268182052
I0327 09:12:46.624410  2701 net.cpp:154] Setting up Layer of device :0 @cpu 0 Layer : inception_4c/output_inception_4c/output_0_split
I0327 09:12:46.624419  2701 layer_factory.hpp:114] Creating layer inception_4c/output_inception_4c/output_0_split
I0327 09:12:46.624434  2701 net.cpp:169] Creating Layer inception_4c/output_inception_4c/output_0_split
…
I0327 09:12:46.624490  2701 net.cpp:582] From AppendTop @cpu: 0
I0327 09:12:46.624503  2701 net.cpp:579] inception_4c/output_inception_4c/output_0_split -> inception_4c/output_inception_4c/output_0_split_2
I0327 09:12:46.624512  2701 net.cpp:582] From AppendTop @cpu: 0
I0327 09:12:46.624526  2701 net.cpp:579] inception_4c/output_inception_4c/output_0_split -> inception_4c/output_inception_4c/output_0_split_3
I0327 09:12:46.624533  2701 net.cpp:582] From AppendTop @cpu: 0
I0327 09:12:46.624548  2701 net.cpp:219] Setting up inception_4c/output_inception_4c/output_0_split
I0327 09:12:46.624560  2701 net.cpp:226] Top shape: 6 512 14 14 (602112)
I0327 09:12:46.624572  2701 net.cpp:226] Top shape: 6 512 14 14 (602112)
I0327 09:12:46.624588  2701 net.cpp:226] Top shape: 6 512 14 14 (602112)
I0327 09:12:46.624599  2701 net.cpp:226] Top shape: 6 512 14 14 (602112)
I0327 09:12:46.624608  2701 net.cpp:234] Memory required for data: 277815844
I0327 09:12:46.624619  2701 net.cpp:154] Setting up Layer of device :0 @cpu 0 Layer : inception_4d/1x1
I0327 09:12:46.624626  2701 layer_factory.hpp:114] Creating layer inception_4d/1x1
I0327 09:12:46.624645  2701 net.cpp:169] Creating Layer inception_4d/1x1
I0327 09:12:46.624655  2701 net.cpp:606] inception_4d/1x1 <- inception_4c/output_inception_4c/output_0_split_0
I0327 09:12:46.624671  2701 net.cpp:579] inception_4d/1x1 -> inception_4d/1x1
I0327 09:12:46.624680  2701 net.cpp:582] From AppendTop @cpu: 0
I0327 09:12:46.627876  2701 net.cpp:219] Setting up inception_4d/1x1
I0327 09:12:46.627920  2701 net.cpp:226] Top shape: 6 112 14 14 (131712)
I0327 09:12:46.627929  2701 net.cpp:234] Memory required for data: 278342692
I0327 09:12:46.627952  2701 net.cpp:154] Setting up Layer of device :0 @cpu 0 Layer : inception_4d/relu_1x1
I0327 09:12:46.627962  2701 layer_factory.hpp:114] Creating layer inception_4d/relu_1x1
I0327 09:12:46.627981  2701 net.cpp:169] Creating Layer inception_4d/relu_1x1
I0327 09:12:46.627993  2701 net.cpp:606] inception_4d/relu_1x1 <- inception_4d/1x1
I0327 09:12:46.628010  2701 net.cpp:566] inception_4d/relu_1x1 -> inception_4d/1x1 (in-place)
I0327 09:12:46.628032  2701 net.cpp:219] Setting up inception_4d/relu_1x1
I0327 09:12:46.628046  2701 net.cpp:226] Top shape: 6 112 14 14 (131712)
I0327 09:12:46.628054  2701 net.cpp:234] Memory required for data: 278869540
I0327 09:12:46.628092  2701 net.cpp:154] Setting up Layer of device :0 @cpu 0 Layer : inception_4d/3x3_reduce
I0327 09:12:46.628100  2701 layer_factory.hpp:114] Creating layer inception_4d/3x3_reduce
I0327 09:12:46.628118  2701 net.cpp:169] Creating Layer inception_4d/3x3_reduce
I0327 09:12:46.628129  2701 net.cpp:606] inception_4d/3x3_reduce <- inception_4c/output_inception_4c/output_0_split_1
I0327 09:12:46.628145  2701 net.cpp:579] inception_4d/3x3_reduce -> inception_4d/3x3_reduce
I0327 09:12:46.628155  2701 net.cpp:582] From AppendTop @cpu: 0
I0327 09:12:46.632828  2701 net.cpp:219] Setting up inception_4d/3x3_reduce
I0327 09:12:46.632875  2701 net.cpp:226] Top shape: 6 144 14 14 (169344)
I0327 09:12:46.632885  2701 net.cpp:234] Memory required for data: 279546916
I0327 09:12:46.632908  2701 net.cpp:154] Setting up Layer of device :0 @cpu 0 Layer : inception_4d/relu_3x3_reduce
I0327 09:12:46.632918  2701 layer_factory.hpp:114] Creating layer inception_4d/relu_3x3_reduce
I0327 09:12:46.632933  2701 net.cpp:169] Creating Layer inception_4d/relu_3x3_reduce
I0327 09:12:46.632946  2701 net.cpp:606] inception_4d/relu_3x3_reduce <- inception_4d/3x3_reduce
I0327 09:12:46.632958  2701 net.cpp:566] inception_4d/relu_3x3_reduce -> inception_4d/3x3_reduce (in-place)
I0327 09:12:46.632975  2701 net.cpp:219] Setting up inception_4d/relu_3x3_reduce
I0327 09:12:46.632987  2701 net.cpp:226] Top shape: 6 144 14 14 (169344)
I0327 09:12:46.632995  2701 net.cpp:234] Memory required for data: 280224292
I0327 09:12:46.633005  2701 net.cpp:154] Setting up Layer of device :0 @cpu 0 Layer : inception_4d/3x3
I0327 09:12:46.633013  2701 layer_factory.hpp:114] Creating layer inception_4d/3x3
I0327 09:12:46.633043  2701 net.cpp:169] Creating Layer inception_4d/3x3
I0327 09:12:46.633052  2701 net.cpp:606] inception_4d/3x3 <- inception_4d/3x3_reduce
I0327 09:12:46.633070  2701 net.cpp:579] inception_4d/3x3 -> inception_4d/3x3
I0327 09:12:46.633080  2701 net.cpp:582] From AppendTop @cpu: 0
I0327 09:12:46.647208  2701 net.cpp:219] Setting up inception_4d/3x3
I0327 09:12:46.647292  2701 net.cpp:226] Top shape: 6 288 14 14 (338688)
I0327 09:12:46.647302  2701 net.cpp:234] Memory required for data: 281579044
I0327 09:12:46.647333  2701 net.cpp:154] Setting up Layer of device :0 @cpu 0 Layer : inception_4d/relu_3x3
I0327 09:12:46.647343  2701 layer_factory.hpp:114] Creating layer inception_4d/relu_3x3
I0327 09:12:46.647363  2701 net.cpp:169] Creating Layer inception_4d/relu_3x3
I0327 09:12:46.647397  2701 net.cpp:606] inception_4d/relu_3x3 <- inception_4d/3x3
I0327 09:12:46.647413  2701 net.cpp:566] inception_4d/relu_3x3 -> inception_4d/3x3 (in-place)
I0327 09:12:46.647433  2701 net.cpp:219] Setting up inception_4d/relu_3x3
I0327 09:12:46.647445  2701 net.cpp:226] Top shape: 6 288 14 14 (338688)
I0327 09:12:46.647454  2701 net.cpp:234] Memory required for data: 282933796
I0327 09:12:46.647464  2701 net.cpp:154] Setting up Layer of device :0 @cpu 0 Layer : inception_4d/5x5_reduce
I0327 09:12:46.647472  2701 layer_factory.hpp:114] Creating layer inception_4d/5x5_reduce
I0327 09:12:46.647495  2701 net.cpp:169] Creating Layer inception_4d/5x5_reduce
I0327 09:12:46.647506  2701 net.cpp:606] inception_4d/5x5_reduce <- inception_4c/output_inception_4c/output_0_split_2
I0327 09:12:46.647521  2701 net.cpp:579] inception_4d/5x5_reduce -> inception_4d/5x5_reduce
I0327 09:12:46.647531  2701 net.cpp:582] From AppendTop @cpu: 0
I0327 09:12:46.649967  2701 net.cpp:219] Setting up inception_4d/5x5_reduce
I0327 09:12:46.650005  2701 net.cpp:226] Top shape: 6 32 14 14 (37632)
I0327 09:12:46.650013  2701 net.cpp:234] Memory required for data: 283084324
I0327 09:12:46.650044  2701 net.cpp:154] Setting up Layer of device :0 @cpu 0 Layer : inception_4d/relu_5x5_reduce
I0327 09:12:46.650054  2701 layer_factory.hpp:114] Creating layer inception_4d/relu_5x5_reduce
I0327 09:12:46.650074  2701 net.cpp:169] Creating Layer inception_4d/relu_5x5_reduce
I0327 09:12:46.650085  2701 net.cpp:606] inception_4d/relu_5x5_reduce <- inception_4d/5x5_reduce
I0327 09:12:46.650101  2701 net.cpp:566] inception_4d/relu_5x5_reduce -> inception_4d/5x5_reduce (in-place)
I0327 09:12:46.650140  2701 net.cpp:219] Setting up inception_4d/relu_5x5_reduce
I0327 09:12:46.650151  2701 net.cpp:226] Top shape: 6 32 14 14 (37632)
I0327 09:12:46.650161  2701 net.cpp:234] Memory required for data: 283234852
I0327 09:12:46.650171  2701 net.cpp:154] Setting up Layer of device :0 @cpu 0 Layer : inception_4d/5x5
I0327 09:12:46.650179  2701 layer_factory.hpp:114] Creating layer inception_4d/5x5
I0327 09:12:46.650202  2701 net.cpp:169] Creating Layer inception_4d/5x5
I0327 09:12:46.650213  2701 net.cpp:606] inception_4d/5x5 <- inception_4d/5x5_reduce
I0327 09:12:46.650225  2701 net.cpp:579] inception_4d/5x5 -> inception_4d/5x5
I0327 09:12:46.650234  2701 net.cpp:582] From AppendTop @cpu: 0
I0327 09:12:46.655055  2701 net.cpp:219] Setting up inception_4d/5x5
I0327 09:12:46.655114  2701 net.cpp:226] Top shape: 6 64 14 14 (75264)
I0327 09:12:46.655123  2701 net.cpp:234] Memory required for data: 283535908
I0327 09:12:46.655148  2701 net.cpp:154] Setting up Layer of device :0 @cpu 0 Layer : inception_4d/relu_5x5
I0327 09:12:46.655158  2701 layer_factory.hpp:114] Creating layer inception_4d/relu_5x5
I0327 09:12:46.655174  2701 net.cpp:169] Creating Layer inception_4d/relu_5x5
I0327 09:12:46.655186  2701 net.cpp:606] inception_4d/relu_5x5 <- inception_4d/5x5
I0327 09:12:46.655203  2701 net.cpp:566] inception_4d/relu_5x5 -> inception_4d/5x5 (in-place)
I0327 09:12:46.655220  2701 net.cpp:219] Setting up inception_4d/relu_5x5
I0327 09:12:46.655232  2701 net.cpp:226] Top shape: 6 64 14 14 (75264)
I0327 09:12:46.655241  2701 net.cpp:234] Memory required for data: 283836964
I0327 09:12:46.655251  2701 net.cpp:154] Setting up Layer of device :0 @cpu 0 Layer : inception_4d/pool
I0327 09:12:46.655259  2701 layer_factory.hpp:114] Creating layer inception_4d/pool
I0327 09:12:46.655303  2701 net.cpp:169] Creating Layer inception_4d/pool
I0327 09:12:46.655315  2701 net.cpp:606] inception_4d/pool <- inception_4c/output_inception_4c/output_0_split_3
I0327 09:12:46.655328  2701 net.cpp:579] inception_4d/pool -> inception_4d/pool
I0327 09:12:46.655340  2701 net.cpp:582] From AppendTop @cpu: 0
I0327 09:12:46.655360  2701 net.cpp:219] Setting up inception_4d/pool
I0327 09:12:46.655372  2701 net.cpp:226] Top shape: 6 512 14 14 (602112)
I0327 09:12:46.655380  2701 net.cpp:234] Memory required for data: 286245412
I0327 09:12:46.655391  2701 net.cpp:154] Setting up Layer of device :0 @cpu 0 Layer : inception_4d/pool_proj
I0327 09:12:46.655414  2701 layer_factory.hpp:114] Creating layer inception_4d/pool_proj
I0327 09:12:46.655436  2701 net.cpp:169] Creating Layer inception_4d/pool_proj
I0327 09:12:46.655445  2701 net.cpp:606] inception_4d/pool_proj <- inception_4d/pool
I0327 09:12:46.655458  2701 net.cpp:579] inception_4d/pool_proj -> inception_4d/pool_proj
I0327 09:12:46.655474  2701 net.cpp:582] From AppendTop @cpu: 0
I0327 09:12:46.658674  2701 net.cpp:219] Setting up inception_4d/pool_proj
I0327 09:12:46.658711  2701 net.cpp:226] Top shape: 6 64 14 14 (75264)
I0327 09:12:46.658720  2701 net.cpp:234] Memory required for data: 286546468
I0327 09:12:46.658742  2701 net.cpp:154] Setting up Layer of device :0 @cpu 0 Layer : inception_4d/relu_pool_proj
I0327 09:12:46.658752  2701 layer_factory.hpp:114] Creating layer inception_4d/relu_pool_proj
I0327 09:12:46.658769  2701 net.cpp:169] Creating Layer inception_4d/relu_pool_proj
I0327 09:12:46.658782  2701 net.cpp:606] inception_4d/relu_pool_proj <- inception_4d/pool_proj
I0327 09:12:46.658794  2701 net.cpp:566] inception_4d/relu_pool_proj -> inception_4d/pool_proj (in-place)
I0327 09:12:46.658809  2701 net.cpp:219] Setting up inception_4d/relu_pool_proj
I0327 09:12:46.658821  2701 net.cpp:226] Top shape: 6 64 14 14 (75264)
I0327 09:12:46.658829  2701 net.cpp:234] Memory required for data: 286847524
I0327 09:12:46.658840  2701 net.cpp:154] Setting up Layer of device :0 @cpu 0 Layer : inception_4d/output
I0327 09:12:46.658849  2701 layer_factory.hpp:114] Creating layer inception_4d/output
I0327 09:12:46.658861  2701 net.cpp:169] Creating Layer inception_4d/output
I0327 09:12:46.658892  2701 net.cpp:606] inception_4d/output <- inception_4d/1x1
I0327 09:12:46.658905  2701 net.cpp:606] inception_4d/output <- inception_4d/3x3
I0327 09:12:46.658915  2701 net.cpp:606] inception_4d/output <- inception_4d/5x5
I0327 09:12:46.658926  2701 net.cpp:606] inception_4d/output <- inception_4d/pool_proj
I0327 09:12:46.658941  2701 net.cpp:579] inception_4d/output -> inception_4d/output
I0327 09:12:46.658949  2701 net.cpp:582] From AppendTop @cpu: 0
I0327 09:12:46.658967  2701 net.cpp:219] Setting up inception_4d/output
I0327 09:12:46.658977  2701 net.cpp:226] Top shape: 6 528 14 14 (620928)
I0327 09:12:46.658987  2701 net.cpp:234] Memory required for data: 289331236
I0327 09:12:46.658996  2701 net.cpp:154] Setting up Layer of device :0 @cpu 0 Layer : inception_4d/output_inception_4d/output_0_split
I0327 09:12:46.659005  2701 layer_factory.hpp:114] Creating layer inception_4d/output_inception_4d/output_0_split
I0327 09:12:46.659054  2701 net.cpp:169] Creating Layer inception_4d/output_inception_4d/output_0_split
…
I0327 09:12:46.659144  2701 net.cpp:582] From AppendTop @cpu: 0
I0327 09:12:46.659157  2701 net.cpp:579] inception_4d/output_inception_4d/output_0_split -> inception_4d/output_inception_4d/output_0_split_3
I0327 09:12:46.659167  2701 net.cpp:582] From AppendTop @cpu: 0
I0327 09:12:46.659179  2701 net.cpp:579] inception_4d/output_inception_4d/output_0_split -> inception_4d/output_inception_4d/output_0_split_4
I0327 09:12:46.659188  2701 net.cpp:582] From AppendTop @cpu: 0
I0327 09:12:46.659207  2701 net.cpp:219] Setting up inception_4d/output_inception_4d/output_0_split
I0327 09:12:46.659220  2701 net.cpp:226] Top shape: 6 528 14 14 (620928)
I0327 09:12:46.659231  2701 net.cpp:226] Top shape: 6 528 14 14 (620928)
I0327 09:12:46.659252  2701 net.cpp:226] Top shape: 6 528 14 14 (620928)
I0327 09:12:46.659263  2701 net.cpp:226] Top shape: 6 528 14 14 (620928)
I0327 09:12:46.659274  2701 net.cpp:226] Top shape: 6 528 14 14 (620928)
I0327 09:12:46.659282  2701 net.cpp:234] Memory required for data: 301749796
I0327 09:12:46.659292  2701 net.cpp:154] Setting up Layer of device :0 @cpu 0 Layer : loss2/ave_pool
I0327 09:12:46.659301  2701 layer_factory.hpp:114] Creating layer loss2/ave_pool
I0327 09:12:46.659339  2701 net.cpp:169] Creating Layer loss2/ave_pool
I0327 09:12:46.659349  2701 net.cpp:606] loss2/ave_pool <- inception_4d/output_inception_4d/output_0_split_0
I0327 09:12:46.659366  2701 net.cpp:579] loss2/ave_pool -> loss2/ave_pool
I0327 09:12:46.659375  2701 net.cpp:582] From AppendTop @cpu: 0
I0327 09:12:46.659390  2701 net.cpp:219] Setting up loss2/ave_pool
I0327 09:12:46.659402  2701 net.cpp:226] Top shape: 6 528 4 4 (50688)
I0327 09:12:46.659411  2701 net.cpp:234] Memory required for data: 301952548
I0327 09:12:46.659421  2701 net.cpp:154] Setting up Layer of device :0 @cpu 0 Layer : loss2/conv
I0327 09:12:46.659430  2701 layer_factory.hpp:114] Creating layer loss2/conv
I0327 09:12:46.659452  2701 net.cpp:169] Creating Layer loss2/conv
I0327 09:12:46.659462  2701 net.cpp:606] loss2/conv <- loss2/ave_pool
I0327 09:12:46.659478  2701 net.cpp:579] loss2/conv -> loss2/conv
I0327 09:12:46.659487  2701 net.cpp:582] From AppendTop @cpu: 0
I0327 09:12:46.662137  2701 net.cpp:219] Setting up loss2/conv
I0327 09:12:46.662169  2701 net.cpp:226] Top shape: 6 128 4 4 (12288)
I0327 09:12:46.662178  2701 net.cpp:234] Memory required for data: 302001700
I0327 09:12:46.662216  2701 net.cpp:154] Setting up Layer of device :0 @cpu 0 Layer : loss2/relu_conv
I0327 09:12:46.662226  2701 layer_factory.hpp:114] Creating layer loss2/relu_conv
I0327 09:12:46.662240  2701 net.cpp:169] Creating Layer loss2/relu_conv
I0327 09:12:46.662251  2701 net.cpp:606] loss2/relu_conv <- loss2/conv
I0327 09:12:46.662266  2701 net.cpp:566] loss2/relu_conv -> loss2/conv (in-place)
I0327 09:12:46.662282  2701 net.cpp:219] Setting up loss2/relu_conv
I0327 09:12:46.662294  2701 net.cpp:226] Top shape: 6 128 4 4 (12288)
I0327 09:12:46.662302  2701 net.cpp:234] Memory required for data: 302050852
I0327 09:12:46.662312  2701 net.cpp:154] Setting up Layer of device :0 @cpu 0 Layer : loss2/fc
I0327 09:12:46.662322  2701 layer_factory.hpp:114] Creating layer loss2/fc
I0327 09:12:46.662339  2701 net.cpp:169] Creating Layer loss2/fc
I0327 09:12:46.662349  2701 net.cpp:606] loss2/fc <- loss2/conv
I0327 09:12:46.662365  2701 net.cpp:579] loss2/fc -> loss2/fc
I0327 09:12:46.662374  2701 net.cpp:582] From AppendTop @cpu: 0
I0327 09:12:46.697034  2701 net.cpp:219] Setting up loss2/fc
I0327 09:12:46.697115  2701 net.cpp:226] Top shape: 6 1024 (6144)
I0327 09:12:46.697125  2701 net.cpp:234] Memory required for data: 302075428
I0327 09:12:46.697149  2701 net.cpp:154] Setting up Layer of device :0 @cpu 0 Layer : loss2/relu_fc
I0327 09:12:46.697160  2701 layer_factory.hpp:114] Creating layer loss2/relu_fc
I0327 09:12:46.697181  2701 net.cpp:169] Creating Layer loss2/relu_fc
I0327 09:12:46.697196  2701 net.cpp:606] loss2/relu_fc <- loss2/fc
I0327 09:12:46.697211  2701 net.cpp:566] loss2/relu_fc -> loss2/fc (in-place)
I0327 09:12:46.697227  2701 net.cpp:219] Setting up loss2/relu_fc
I0327 09:12:46.697239  2701 net.cpp:226] Top shape: 6 1024 (6144)
I0327 09:12:46.697247  2701 net.cpp:234] Memory required for data: 302100004
I0327 09:12:46.697257  2701 net.cpp:154] Setting up Layer of device :0 @cpu 0 Layer : loss2/drop_fc
I0327 09:12:46.697266  2701 layer_factory.hpp:114] Creating layer loss2/drop_fc
I0327 09:12:46.697281  2701 net.cpp:169] Creating Layer loss2/drop_fc
I0327 09:12:46.697290  2701 net.cpp:606] loss2/drop_fc <- loss2/fc
I0327 09:12:46.697301  2701 net.cpp:566] loss2/drop_fc -> loss2/fc (in-place)
I0327 09:12:46.697316  2701 net.cpp:219] Setting up loss2/drop_fc
I0327 09:12:46.697327  2701 net.cpp:226] Top shape: 6 1024 (6144)
I0327 09:12:46.697335  2701 net.cpp:234] Memory required for data: 302124580
I0327 09:12:46.697362  2701 net.cpp:154] Setting up Layer of device :0 @cpu 0 Layer : loss2/classifier
I0327 09:12:46.697371  2701 layer_factory.hpp:114] Creating layer loss2/classifier
I0327 09:12:46.697392  2701 net.cpp:169] Creating Layer loss2/classifier
I0327 09:12:46.697402  2701 net.cpp:606] loss2/classifier <- loss2/fc
I0327 09:12:46.697415  2701 net.cpp:579] loss2/classifier -> loss2/classifier
I0327 09:12:46.697424  2701 net.cpp:582] From AppendTop @cpu: 0
I0327 09:12:46.714643  2701 net.cpp:219] Setting up loss2/classifier
I0327 09:12:46.714697  2701 net.cpp:226] Top shape: 6 1000 (6000)
I0327 09:12:46.714706  2701 net.cpp:234] Memory required for data: 302148580
I0327 09:12:46.714727  2701 net.cpp:154] Setting up Layer of device :0 @cpu 0 Layer : loss2/loss
I0327 09:12:46.714737  2701 layer_factory.hpp:114] Creating layer loss2/loss
I0327 09:12:46.714756  2701 net.cpp:169] Creating Layer loss2/loss
I0327 09:12:46.714769  2701 net.cpp:606] loss2/loss <- loss2/classifier
…
I0327 09:12:46.714982  2701 net.cpp:154] Setting up Layer of device :0 @cpu 0 Layer : inception_4e/1x1
I0327 09:12:46.715028  2701 layer_factory.hpp:114] Creating layer inception_4e/1x1
I0327 09:12:46.715050  2701 net.cpp:169] Creating Layer inception_4e/1x1
I0327 09:12:46.715068  2701 net.cpp:606] inception_4e/1x1 <- inception_4d/output_inception_4d/output_0_split_1
I0327 09:12:46.715083  2701 net.cpp:579] inception_4e/1x1 -> inception_4e/1x1
I0327 09:12:46.715092  2701 net.cpp:582] From AppendTop @cpu: 0
I0327 09:12:46.721202  2701 net.cpp:219] Setting up inception_4e/1x1
I0327 09:12:46.721271  2701 net.cpp:226] Top shape: 6 256 14 14 (301056)
I0327 09:12:46.721279  2701 net.cpp:234] Memory required for data: 303352808
I0327 09:12:46.721307  2701 net.cpp:154] Setting up Layer of device :0 @cpu 0 Layer : inception_4e/relu_1x1
I0327 09:12:46.721318  2701 layer_factory.hpp:114] Creating layer inception_4e/relu_1x1
I0327 09:12:46.721336  2701 net.cpp:169] Creating Layer inception_4e/relu_1x1
I0327 09:12:46.721349  2701 net.cpp:606] inception_4e/relu_1x1 <- inception_4e/1x1
I0327 09:12:46.721367  2701 net.cpp:566] inception_4e/relu_1x1 -> inception_4e/1x1 (in-place)
I0327 09:12:46.721386  2701 net.cpp:219] Setting up inception_4e/relu_1x1
I0327 09:12:46.721398  2701 net.cpp:226] Top shape: 6 256 14 14 (301056)
I0327 09:12:46.721406  2701 net.cpp:234] Memory required for data: 304557032
I0327 09:12:46.721416  2701 net.cpp:154] Setting up Layer of device :0 @cpu 0 Layer : inception_4e/3x3_reduce
I0327 09:12:46.721426  2701 layer_factory.hpp:114] Creating layer inception_4e/3x3_reduce
I0327 09:12:46.721449  2701 net.cpp:169] Creating Layer inception_4e/3x3_reduce
I0327 09:12:46.721460  2701 net.cpp:606] inception_4e/3x3_reduce <- inception_4d/output_inception_4d/output_0_split_2
I0327 09:12:46.721475  2701 net.cpp:579] inception_4e/3x3_reduce -> inception_4e/3x3_reduce
I0327 09:12:46.721487  2701 net.cpp:582] From AppendTop @cpu: 0
I0327 09:12:46.726616  2701 net.cpp:219] Setting up inception_4e/3x3_reduce
I0327 09:12:46.726670  2701 net.cpp:226] Top shape: 6 160 14 14 (188160)
I0327 09:12:46.726680  2701 net.cpp:234] Memory required for data: 305309672
I0327 09:12:46.726703  2701 net.cpp:154] Setting up Layer of device :0 @cpu 0 Layer : inception_4e/relu_3x3_reduce
I0327 09:12:46.726713  2701 layer_factory.hpp:114] Creating layer inception_4e/relu_3x3_reduce
I0327 09:12:46.726729  2701 net.cpp:169] Creating Layer inception_4e/relu_3x3_reduce
I0327 09:12:46.726742  2701 net.cpp:606] inception_4e/relu_3x3_reduce <- inception_4e/3x3_reduce
I0327 09:12:46.726779  2701 net.cpp:566] inception_4e/relu_3x3_reduce -> inception_4e/3x3_reduce (in-place)
I0327 09:12:46.726797  2701 net.cpp:219] Setting up inception_4e/relu_3x3_reduce
I0327 09:12:46.726809  2701 net.cpp:226] Top shape: 6 160 14 14 (188160)
I0327 09:12:46.726817  2701 net.cpp:234] Memory required for data: 306062312
I0327 09:12:46.726827  2701 net.cpp:154] Setting up Layer of device :0 @cpu 0 Layer : inception_4e/3x3
I0327 09:12:46.726836  2701 layer_factory.hpp:114] Creating layer inception_4e/3x3
I0327 09:12:46.726857  2701 net.cpp:169] Creating Layer inception_4e/3x3
I0327 09:12:46.726868  2701 net.cpp:606] inception_4e/3x3 <- inception_4e/3x3_reduce
I0327 09:12:46.726881  2701 net.cpp:579] inception_4e/3x3 -> inception_4e/3x3
I0327 09:12:46.726891  2701 net.cpp:582] From AppendTop @cpu: 0
I0327 09:12:46.744068  2701 net.cpp:219] Setting up inception_4e/3x3
I0327 09:12:46.744155  2701 net.cpp:226] Top shape: 6 320 14 14 (376320)
I0327 09:12:46.744165  2701 net.cpp:234] Memory required for data: 307567592
I0327 09:12:46.744197  2701 net.cpp:154] Setting up Layer of device :0 @cpu 0 Layer : inception_4e/relu_3x3
I0327 09:12:46.744207  2701 layer_factory.hpp:114] Creating layer inception_4e/relu_3x3
I0327 09:12:46.744228  2701 net.cpp:169] Creating Layer inception_4e/relu_3x3
I0327 09:12:46.744243  2701 net.cpp:606] inception_4e/relu_3x3 <- inception_4e/3x3
I0327 09:12:46.744258  2701 net.cpp:566] inception_4e/relu_3x3 -> inception_4e/3x3 (in-place)
I0327 09:12:46.744277  2701 net.cpp:219] Setting up inception_4e/relu_3x3
I0327 09:12:46.744316  2701 net.cpp:226] Top shape: 6 320 14 14 (376320)
I0327 09:12:46.744325  2701 net.cpp:234] Memory required for data: 309072872
I0327 09:12:46.744336  2701 net.cpp:154] Setting up Layer of device :0 @cpu 0 Layer : inception_4e/5x5_reduce
I0327 09:12:46.744345  2701 layer_factory.hpp:114] Creating layer inception_4e/5x5_reduce
I0327 09:12:46.744369  2701 net.cpp:169] Creating Layer inception_4e/5x5_reduce
I0327 09:12:46.744379  2701 net.cpp:606] inception_4e/5x5_reduce <- inception_4d/output_inception_4d/output_0_split_3
I0327 09:12:46.744396  2701 net.cpp:579] inception_4e/5x5_reduce -> inception_4e/5x5_reduce
I0327 09:12:46.744405  2701 net.cpp:582] From AppendTop @cpu: 0
I0327 09:12:46.746938  2701 net.cpp:219] Setting up inception_4e/5x5_reduce
I0327 09:12:46.746984  2701 net.cpp:226] Top shape: 6 32 14 14 (37632)
I0327 09:12:46.746992  2701 net.cpp:234] Memory required for data: 309223400
I0327 09:12:46.747014  2701 net.cpp:154] Setting up Layer of device :0 @cpu 0 Layer : inception_4e/relu_5x5_reduce
I0327 09:12:46.747032  2701 layer_factory.hpp:114] Creating layer inception_4e/relu_5x5_reduce
I0327 09:12:46.747047  2701 net.cpp:169] Creating Layer inception_4e/relu_5x5_reduce
I0327 09:12:46.747059  2701 net.cpp:606] inception_4e/relu_5x5_reduce <- inception_4e/5x5_reduce
I0327 09:12:46.747078  2701 net.cpp:566] inception_4e/relu_5x5_reduce -> inception_4e/5x5_reduce (in-place)
I0327 09:12:46.747093  2701 net.cpp:219] Setting up inception_4e/relu_5x5_reduce
I0327 09:12:46.747105  2701 net.cpp:226] Top shape: 6 32 14 14 (37632)
I0327 09:12:46.747113  2701 net.cpp:234] Memory required for data: 309373928
I0327 09:12:46.747123  2701 net.cpp:154] Setting up Layer of device :0 @cpu 0 Layer : inception_4e/5x5
I0327 09:12:46.747133  2701 layer_factory.hpp:114] Creating layer inception_4e/5x5
I0327 09:12:46.747159  2701 net.cpp:169] Creating Layer inception_4e/5x5
I0327 09:12:46.747170  2701 net.cpp:606] inception_4e/5x5 <- inception_4e/5x5_reduce
I0327 09:12:46.747184  2701 net.cpp:579] inception_4e/5x5 -> inception_4e/5x5
I0327 09:12:46.747192  2701 net.cpp:582] From AppendTop @cpu: 0
I0327 09:12:46.753190  2701 net.cpp:219] Setting up inception_4e/5x5
I0327 09:12:46.753257  2701 net.cpp:226] Top shape: 6 128 14 14 (150528)
I0327 09:12:46.753268  2701 net.cpp:234] Memory required for data: 309976040
I0327 09:12:46.753296  2701 net.cpp:154] Setting up Layer of device :0 @cpu 0 Layer : inception_4e/relu_5x5
I0327 09:12:46.753322  2701 layer_factory.hpp:114] Creating layer inception_4e/relu_5x5
I0327 09:12:46.753342  2701 net.cpp:169] Creating Layer inception_4e/relu_5x5
I0327 09:12:46.753355  2701 net.cpp:606] inception_4e/relu_5x5 <- inception_4e/5x5
I0327 09:12:46.753376  2701 net.cpp:566] inception_4e/relu_5x5 -> inception_4e/5x5 (in-place)
I0327 09:12:46.753396  2701 net.cpp:219] Setting up inception_4e/relu_5x5
I0327 09:12:46.753407  2701 net.cpp:226] Top shape: 6 128 14 14 (150528)
I0327 09:12:46.753415  2701 net.cpp:234] Memory required for data: 310578152
I0327 09:12:46.753425  2701 net.cpp:154] Setting up Layer of device :0 @cpu 0 Layer : inception_4e/pool
I0327 09:12:46.753434  2701 layer_factory.hpp:114] Creating layer inception_4e/pool
I0327 09:12:46.753480  2701 net.cpp:169] Creating Layer inception_4e/pool
I0327 09:12:46.753492  2701 net.cpp:606] inception_4e/pool <- inception_4d/output_inception_4d/output_0_split_4
I0327 09:12:46.753509  2701 net.cpp:579] inception_4e/pool -> inception_4e/pool
I0327 09:12:46.753517  2701 net.cpp:582] From AppendTop @cpu: 0
I0327 09:12:46.753536  2701 net.cpp:219] Setting up inception_4e/pool
I0327 09:12:46.753548  2701 net.cpp:226] Top shape: 6 528 14 14 (620928)
I0327 09:12:46.753556  2701 net.cpp:234] Memory required for data: 313061864
I0327 09:12:46.753566  2701 net.cpp:154] Setting up Layer of device :0 @cpu 0 Layer : inception_4e/pool_proj
I0327 09:12:46.753576  2701 layer_factory.hpp:114] Creating layer inception_4e/pool_proj
I0327 09:12:46.753597  2701 net.cpp:169] Creating Layer inception_4e/pool_proj
I0327 09:12:46.753607  2701 net.cpp:606] inception_4e/pool_proj <- inception_4e/pool
I0327 09:12:46.753639  2701 net.cpp:579] inception_4e/pool_proj -> inception_4e/pool_proj
I0327 09:12:46.753648  2701 net.cpp:582] From AppendTop @cpu: 0
I0327 09:12:46.758098  2701 net.cpp:219] Setting up inception_4e/pool_proj
I0327 09:12:46.758147  2701 net.cpp:226] Top shape: 6 128 14 14 (150528)
I0327 09:12:46.758157  2701 net.cpp:234] Memory required for data: 313663976
I0327 09:12:46.758182  2701 net.cpp:154] Setting up Layer of device :0 @cpu 0 Layer : inception_4e/relu_pool_proj
I0327 09:12:46.758190  2701 layer_factory.hpp:114] Creating layer inception_4e/relu_pool_proj
I0327 09:12:46.758206  2701 net.cpp:169] Creating Layer inception_4e/relu_pool_proj
I0327 09:12:46.758219  2701 net.cpp:606] inception_4e/relu_pool_proj <- inception_4e/pool_proj
I0327 09:12:46.758237  2701 net.cpp:566] inception_4e/relu_pool_proj -> inception_4e/pool_proj (in-place)
I0327 09:12:46.758255  2701 net.cpp:219] Setting up inception_4e/relu_pool_proj
I0327 09:12:46.758266  2701 net.cpp:226] Top shape: 6 128 14 14 (150528)
I0327 09:12:46.758275  2701 net.cpp:234] Memory required for data: 314266088
I0327 09:12:46.758285  2701 net.cpp:154] Setting up Layer of device :0 @cpu 0 Layer : inception_4e/output
I0327 09:12:46.758293  2701 layer_factory.hpp:114] Creating layer inception_4e/output
I0327 09:12:46.758309  2701 net.cpp:169] Creating Layer inception_4e/output
I0327 09:12:46.758319  2701 net.cpp:606] inception_4e/output <- inception_4e/1x1
I0327 09:12:46.758330  2701 net.cpp:606] inception_4e/output <- inception_4e/3x3
I0327 09:12:46.758340  2701 net.cpp:606] inception_4e/output <- inception_4e/5x5
I0327 09:12:46.758350  2701 net.cpp:606] inception_4e/output <- inception_4e/pool_proj
I0327 09:12:46.758363  2701 net.cpp:579] inception_4e/output -> inception_4e/output
I0327 09:12:46.758371  2701 net.cpp:582] From AppendTop @cpu: 0
I0327 09:12:46.758388  2701 net.cpp:219] Setting up inception_4e/output
I0327 09:12:46.758400  2701 net.cpp:226] Top shape: 6 832 14 14 (978432)
I0327 09:12:46.758409  2701 net.cpp:234] Memory required for data: 318179816
I0327 09:12:46.758419  2701 net.cpp:154] Setting up Layer of device :0 @cpu 0 Layer : pool4/3x3_s2
I0327 09:12:46.758427  2701 layer_factory.hpp:114] Creating layer pool4/3x3_s2
I0327 09:12:46.758465  2701 net.cpp:169] Creating Layer pool4/3x3_s2
I0327 09:12:46.758474  2701 net.cpp:606] pool4/3x3_s2 <- inception_4e/output
I0327 09:12:46.758491  2701 net.cpp:579] pool4/3x3_s2 -> pool4/3x3_s2
I0327 09:12:46.758512  2701 net.cpp:582] From AppendTop @cpu: 0
I0327 09:12:46.758530  2701 net.cpp:219] Setting up pool4/3x3_s2
I0327 09:12:46.758543  2701 net.cpp:226] Top shape: 6 832 7 7 (244608)
I0327 09:12:46.758550  2701 net.cpp:234] Memory required for data: 319158248
I0327 09:12:46.758560  2701 net.cpp:154] Setting up Layer of device :0 @cpu 0 Layer : pool4/3x3_s2_pool4/3x3_s2_0_split
I0327 09:12:46.758569  2701 layer_factory.hpp:114] Creating layer pool4/3x3_s2_pool4/3x3_s2_0_split
I0327 09:12:46.758582  2701 net.cpp:169] Creating Layer pool4/3x3_s2_pool4/3x3_s2_0_split
I0327 09:12:46.758591  2701 net.cpp:606] pool4/3x3_s2_pool4/3x3_s2_0_split <- pool4/3x3_s2
I0327 09:12:46.758604  2701 net.cpp:579] pool4/3x3_s2_pool4/3x3_s2_0_split -> pool4/3x3_s2_pool4/3x3_s2_0_split_0
I0327 09:12:46.758612  2701 net.cpp:582] From AppendTop @cpu: 0
I0327 09:12:46.758625  2701 net.cpp:579] pool4/3x3_s2_pool4/3x3_s2_0_split -> pool4/3x3_s2_pool4/3x3_s2_0_split_1
I0327 09:12:46.758633  2701 net.cpp:582] From AppendTop @cpu: 0
I0327 09:12:46.758646  2701 net.cpp:579] pool4/3x3_s2_pool4/3x3_s2_0_split -> pool4/3x3_s2_pool4/3x3_s2_0_split_2
I0327 09:12:46.758656  2701 net.cpp:582] From AppendTop @cpu: 0
I0327 09:12:46.758668  2701 net.cpp:579] pool4/3x3_s2_pool4/3x3_s2_0_split -> pool4/3x3_s2_pool4/3x3_s2_0_split_3
I0327 09:12:46.758677  2701 net.cpp:582] From AppendTop @cpu: 0
I0327 09:12:46.758692  2701 net.cpp:219] Setting up pool4/3x3_s2_pool4/3x3_s2_0_split
I0327 09:12:46.758707  2701 net.cpp:226] Top shape: 6 832 7 7 (244608)
I0327 09:12:46.758718  2701 net.cpp:226] Top shape: 6 832 7 7 (244608)
I0327 09:12:46.758743  2701 net.cpp:226] Top shape: 6 832 7 7 (244608)
I0327 09:12:46.758754  2701 net.cpp:226] Top shape: 6 832 7 7 (244608)
I0327 09:12:46.758762  2701 net.cpp:234] Memory required for data: 323071976
I0327 09:12:46.758772  2701 net.cpp:154] Setting up Layer of device :0 @cpu 0 Layer : inception_5a/1x1
I0327 09:12:46.758781  2701 layer_factory.hpp:114] Creating layer inception_5a/1x1
I0327 09:12:46.758798  2701 net.cpp:169] Creating Layer inception_5a/1x1
I0327 09:12:46.758808  2701 net.cpp:606] inception_5a/1x1 <- pool4/3x3_s2_pool4/3x3_s2_0_split_0
I0327 09:12:46.758821  2701 net.cpp:579] inception_5a/1x1 -> inception_5a/1x1
I0327 09:12:46.758833  2701 net.cpp:582] From AppendTop @cpu: 0
I0327 09:12:46.766439  2701 net.cpp:219] Setting up inception_5a/1x1
I0327 09:12:46.766510  2701 net.cpp:226] Top shape: 6 256 7 7 (75264)
I0327 09:12:46.766520  2701 net.cpp:234] Memory required for data: 323373032
I0327 09:12:46.766548  2701 net.cpp:154] Setting up Layer of device :0 @cpu 0 Layer : inception_5a/relu_1x1
I0327 09:12:46.766558  2701 layer_factory.hpp:114] Creating layer inception_5a/relu_1x1
I0327 09:12:46.766577  2701 net.cpp:169] Creating Layer inception_5a/relu_1x1
I0327 09:12:46.766590  2701 net.cpp:606] inception_5a/relu_1x1 <- inception_5a/1x1
I0327 09:12:46.766604  2701 net.cpp:566] inception_5a/relu_1x1 -> inception_5a/1x1 (in-place)
I0327 09:12:46.766623  2701 net.cpp:219] Setting up inception_5a/relu_1x1
I0327 09:12:46.766633  2701 net.cpp:226] Top shape: 6 256 7 7 (75264)
I0327 09:12:46.766643  2701 net.cpp:234] Memory required for data: 323674088
I0327 09:12:46.766652  2701 net.cpp:154] Setting up Layer of device :0 @cpu 0 Layer : inception_5a/3x3_reduce
I0327 09:12:46.766661  2701 layer_factory.hpp:114] Creating layer inception_5a/3x3_reduce
I0327 09:12:46.766683  2701 net.cpp:169] Creating Layer inception_5a/3x3_reduce
I0327 09:12:46.766696  2701 net.cpp:606] inception_5a/3x3_reduce <- pool4/3x3_s2_pool4/3x3_s2_0_split_1
I0327 09:12:46.766710  2701 net.cpp:579] inception_5a/3x3_reduce -> inception_5a/3x3_reduce
I0327 09:12:46.766719  2701 net.cpp:582] From AppendTop @cpu: 0
I0327 09:12:46.772300  2701 net.cpp:219] Setting up inception_5a/3x3_reduce
I0327 09:12:46.772351  2701 net.cpp:226] Top shape: 6 160 7 7 (47040)
I0327 09:12:46.772361  2701 net.cpp:234] Memory required for data: 323862248
I0327 09:12:46.772385  2701 net.cpp:154] Setting up Layer of device :0 @cpu 0 Layer : inception_5a/relu_3x3_reduce
I0327 09:12:46.772413  2701 layer_factory.hpp:114] Creating layer inception_5a/relu_3x3_reduce
I0327 09:12:46.772429  2701 net.cpp:169] Creating Layer inception_5a/relu_3x3_reduce
I0327 09:12:46.772442  2701 net.cpp:606] inception_5a/relu_3x3_reduce <- inception_5a/3x3_reduce
I0327 09:12:46.772459  2701 net.cpp:566] inception_5a/relu_3x3_reduce -> inception_5a/3x3_reduce (in-place)
I0327 09:12:46.772476  2701 net.cpp:219] Setting up inception_5a/relu_3x3_reduce
I0327 09:12:46.772488  2701 net.cpp:226] Top shape: 6 160 7 7 (47040)
I0327 09:12:46.772497  2701 net.cpp:234] Memory required for data: 324050408
I0327 09:12:46.772507  2701 net.cpp:154] Setting up Layer of device :0 @cpu 0 Layer : inception_5a/3x3
I0327 09:12:46.772516  2701 layer_factory.hpp:114] Creating layer inception_5a/3x3
I0327 09:12:46.772533  2701 net.cpp:169] Creating Layer inception_5a/3x3
I0327 09:12:46.772543  2701 net.cpp:606] inception_5a/3x3 <- inception_5a/3x3_reduce
I0327 09:12:46.772557  2701 net.cpp:579] inception_5a/3x3 -> inception_5a/3x3
I0327 09:12:46.772565  2701 net.cpp:582] From AppendTop @cpu: 0
I0327 09:12:46.787210  2701 net.cpp:219] Setting up inception_5a/3x3
I0327 09:12:46.787294  2701 net.cpp:226] Top shape: 6 320 7 7 (94080)
I0327 09:12:46.787304  2701 net.cpp:234] Memory required for data: 324426728
I0327 09:12:46.787336  2701 net.cpp:154] Setting up Layer of device :0 @cpu 0 Layer : inception_5a/relu_3x3
I0327 09:12:46.787346  2701 layer_factory.hpp:114] Creating layer inception_5a/relu_3x3
I0327 09:12:46.787367  2701 net.cpp:169] Creating Layer inception_5a/relu_3x3
I0327 09:12:46.787408  2701 net.cpp:606] inception_5a/relu_3x3 <- inception_5a/3x3
I0327 09:12:46.787425  2701 net.cpp:566] inception_5a/relu_3x3 -> inception_5a/3x3 (in-place)
I0327 09:12:46.787446  2701 net.cpp:219] Setting up inception_5a/relu_3x3
I0327 09:12:46.787457  2701 net.cpp:226] Top shape: 6 320 7 7 (94080)
I0327 09:12:46.787466  2701 net.cpp:234] Memory required for data: 324803048
I0327 09:12:46.787477  2701 net.cpp:154] Setting up Layer of device :0 @cpu 0 Layer : inception_5a/5x5_reduce
I0327 09:12:46.787484  2701 layer_factory.hpp:114] Creating layer inception_5a/5x5_reduce
I0327 09:12:46.787508  2701 net.cpp:169] Creating Layer inception_5a/5x5_reduce
I0327 09:12:46.787520  2701 net.cpp:606] inception_5a/5x5_reduce <- pool4/3x3_s2_pool4/3x3_s2_0_split_2
I0327 09:12:46.787534  2701 net.cpp:579] inception_5a/5x5_reduce -> inception_5a/5x5_reduce
I0327 09:12:46.787544  2701 net.cpp:582] From AppendTop @cpu: 0
I0327 09:12:46.789336  2701 net.cpp:219] Setting up inception_5a/5x5_reduce
I0327 09:12:46.789371  2701 net.cpp:226] Top shape: 6 32 7 7 (9408)
I0327 09:12:46.789379  2701 net.cpp:234] Memory required for data: 324840680
I0327 09:12:46.789398  2701 net.cpp:154] Setting up Layer of device :0 @cpu 0 Layer : inception_5a/relu_5x5_reduce
I0327 09:12:46.789408  2701 layer_factory.hpp:114] Creating layer inception_5a/relu_5x5_reduce
I0327 09:12:46.789422  2701 net.cpp:169] Creating Layer inception_5a/relu_5x5_reduce
I0327 09:12:46.789433  2701 net.cpp:606] inception_5a/relu_5x5_reduce <- inception_5a/5x5_reduce
I0327 09:12:46.789445  2701 net.cpp:566] inception_5a/relu_5x5_reduce -> inception_5a/5x5_reduce (in-place)
I0327 09:12:46.789461  2701 net.cpp:219] Setting up inception_5a/relu_5x5_reduce
I0327 09:12:46.789472  2701 net.cpp:226] Top shape: 6 32 7 7 (9408)
I0327 09:12:46.789481  2701 net.cpp:234] Memory required for data: 324878312
I0327 09:12:46.789491  2701 net.cpp:154] Setting up Layer of device :0 @cpu 0 Layer : inception_5a/5x5
I0327 09:12:46.789500  2701 layer_factory.hpp:114] Creating layer inception_5a/5x5
I0327 09:12:46.789521  2701 net.cpp:169] Creating Layer inception_5a/5x5
I0327 09:12:46.789531  2701 net.cpp:606] inception_5a/5x5 <- inception_5a/5x5_reduce
I0327 09:12:46.789544  2701 net.cpp:579] inception_5a/5x5 -> inception_5a/5x5
I0327 09:12:46.789553  2701 net.cpp:582] From AppendTop @cpu: 0
I0327 09:12:46.793933  2701 net.cpp:219] Setting up inception_5a/5x5
I0327 09:12:46.793980  2701 net.cpp:226] Top shape: 6 128 7 7 (37632)
I0327 09:12:46.794005  2701 net.cpp:234] Memory required for data: 325028840
I0327 09:12:46.794034  2701 net.cpp:154] Setting up Layer of device :0 @cpu 0 Layer : inception_5a/relu_5x5
I0327 09:12:46.794046  2701 layer_factory.hpp:114] Creating layer inception_5a/relu_5x5
I0327 09:12:46.794070  2701 net.cpp:169] Creating Layer inception_5a/relu_5x5
I0327 09:12:46.794083  2701 net.cpp:606] inception_5a/relu_5x5 <- inception_5a/5x5
I0327 09:12:46.794096  2701 net.cpp:566] inception_5a/relu_5x5 -> inception_5a/5x5 (in-place)
I0327 09:12:46.794112  2701 net.cpp:219] Setting up inception_5a/relu_5x5
I0327 09:12:46.794123  2701 net.cpp:226] Top shape: 6 128 7 7 (37632)
I0327 09:12:46.794132  2701 net.cpp:234] Memory required for data: 325179368
I0327 09:12:46.794142  2701 net.cpp:154] Setting up Layer of device :0 @cpu 0 Layer : inception_5a/pool
I0327 09:12:46.794152  2701 layer_factory.hpp:114] Creating layer inception_5a/pool
I0327 09:12:46.794198  2701 net.cpp:169] Creating Layer inception_5a/pool
I0327 09:12:46.794211  2701 net.cpp:606] inception_5a/pool <- pool4/3x3_s2_pool4/3x3_s2_0_split_3
I0327 09:12:46.794224  2701 net.cpp:579] inception_5a/pool -> inception_5a/pool
I0327 09:12:46.794232  2701 net.cpp:582] From AppendTop @cpu: 0
I0327 09:12:46.794251  2701 net.cpp:219] Setting up inception_5a/pool
I0327 09:12:46.794263  2701 net.cpp:226] Top shape: 6 832 7 7 (244608)
I0327 09:12:46.794272  2701 net.cpp:234] Memory required for data: 326157800
I0327 09:12:46.794282  2701 net.cpp:154] Setting up Layer of device :0 @cpu 0 Layer : inception_5a/pool_proj
I0327 09:12:46.794307  2701 layer_factory.hpp:114] Creating layer inception_5a/pool_proj
I0327 09:12:46.794332  2701 net.cpp:169] Creating Layer inception_5a/pool_proj
I0327 09:12:46.794342  2701 net.cpp:606] inception_5a/pool_proj <- inception_5a/pool
I0327 09:12:46.794356  2701 net.cpp:579] inception_5a/pool_proj -> inception_5a/pool_proj
I0327 09:12:46.794365  2701 net.cpp:582] From AppendTop @cpu: 0
I0327 09:12:46.799199  2701 net.cpp:219] Setting up inception_5a/pool_proj
I0327 09:12:46.799244  2701 net.cpp:226] Top shape: 6 128 7 7 (37632)
I0327 09:12:46.799253  2701 net.cpp:234] Memory required for data: 326308328
I0327 09:12:46.799275  2701 net.cpp:154] Setting up Layer of device :0 @cpu 0 Layer : inception_5a/relu_pool_proj
I0327 09:12:46.799285  2701 layer_factory.hpp:114] Creating layer inception_5a/relu_pool_proj
I0327 09:12:46.799304  2701 net.cpp:169] Creating Layer inception_5a/relu_pool_proj
I0327 09:12:46.799317  2701 net.cpp:606] inception_5a/relu_pool_proj <- inception_5a/pool_proj
I0327 09:12:46.799330  2701 net.cpp:566] inception_5a/relu_pool_proj -> inception_5a/pool_proj (in-place)
I0327 09:12:46.799346  2701 net.cpp:219] Setting up inception_5a/relu_pool_proj
I0327 09:12:46.799358  2701 net.cpp:226] Top shape: 6 128 7 7 (37632)
I0327 09:12:46.799366  2701 net.cpp:234] Memory required for data: 326458856
I0327 09:12:46.799376  2701 net.cpp:154] Setting up Layer of device :0 @cpu 0 Layer : inception_5a/output
I0327 09:12:46.799386  2701 layer_factory.hpp:114] Creating layer inception_5a/output
I0327 09:12:46.799397  2701 net.cpp:169] Creating Layer inception_5a/output
I0327 09:12:46.799407  2701 net.cpp:606] inception_5a/output <- inception_5a/1x1
I0327 09:12:46.799418  2701 net.cpp:606] inception_5a/output <- inception_5a/3x3
I0327 09:12:46.799428  2701 net.cpp:606] inception_5a/output <- inception_5a/5x5
I0327 09:12:46.799439  2701 net.cpp:606] inception_5a/output <- inception_5a/pool_proj
I0327 09:12:46.799450  2701 net.cpp:579] inception_5a/output -> inception_5a/output
I0327 09:12:46.799459  2701 net.cpp:582] From AppendTop @cpu: 0
I0327 09:12:46.799476  2701 net.cpp:219] Setting up inception_5a/output
I0327 09:12:46.799487  2701 net.cpp:226] Top shape: 6 832 7 7 (244608)
I0327 09:12:46.799496  2701 net.cpp:234] Memory required for data: 327437288
I0327 09:12:46.799506  2701 net.cpp:154] Setting up Layer of device :0 @cpu 0 Layer : inception_5a/output_inception_5a/output_0_split
I0327 09:12:46.799515  2701 layer_factory.hpp:114] Creating layer inception_5a/output_inception_5a/output_0_split
I0327 09:12:46.799540  2701 net.cpp:169] Creating Layer inception_5a/output_inception_5a/output_0_split
…
I0327 09:12:46.799597  2701 net.cpp:582] From AppendTop @cpu: 0
I0327 09:12:46.799609  2701 net.cpp:579] inception_5a/output_inception_5a/output_0_split -> inception_5a/output_inception_5a/output_0_split_2
I0327 09:12:46.799618  2701 net.cpp:582] From AppendTop @cpu: 0
I0327 09:12:46.799631  2701 net.cpp:579] inception_5a/output_inception_5a/output_0_split -> inception_5a/output_inception_5a/output_0_split_3
I0327 09:12:46.799640  2701 net.cpp:582] From AppendTop @cpu: 0
I0327 09:12:46.799655  2701 net.cpp:219] Setting up inception_5a/output_inception_5a/output_0_split
I0327 09:12:46.799666  2701 net.cpp:226] Top shape: 6 832 7 7 (244608)
I0327 09:12:46.799677  2701 net.cpp:226] Top shape: 6 832 7 7 (244608)
I0327 09:12:46.799688  2701 net.cpp:226] Top shape: 6 832 7 7 (244608)
I0327 09:12:46.799700  2701 net.cpp:226] Top shape: 6 832 7 7 (244608)
I0327 09:12:46.799707  2701 net.cpp:234] Memory required for data: 331351016
I0327 09:12:46.799717  2701 net.cpp:154] Setting up Layer of device :0 @cpu 0 Layer : inception_5b/1x1
I0327 09:12:46.799739  2701 layer_factory.hpp:114] Creating layer inception_5b/1x1
I0327 09:12:46.799759  2701 net.cpp:169] Creating Layer inception_5b/1x1
I0327 09:12:46.799769  2701 net.cpp:606] inception_5b/1x1 <- inception_5a/output_inception_5a/output_0_split_0
I0327 09:12:46.799783  2701 net.cpp:579] inception_5b/1x1 -> inception_5b/1x1
I0327 09:12:46.799793  2701 net.cpp:582] From AppendTop @cpu: 0
I0327 09:12:46.809504  2701 net.cpp:219] Setting up inception_5b/1x1
I0327 09:12:46.809579  2701 net.cpp:226] Top shape: 6 384 7 7 (112896)
I0327 09:12:46.809589  2701 net.cpp:234] Memory required for data: 331802600
I0327 09:12:46.809618  2701 net.cpp:154] Setting up Layer of device :0 @cpu 0 Layer : inception_5b/relu_1x1
I0327 09:12:46.809628  2701 layer_factory.hpp:114] Creating layer inception_5b/relu_1x1
I0327 09:12:46.809651  2701 net.cpp:169] Creating Layer inception_5b/relu_1x1
I0327 09:12:46.809664  2701 net.cpp:606] inception_5b/relu_1x1 <- inception_5b/1x1
I0327 09:12:46.809679  2701 net.cpp:566] inception_5b/relu_1x1 -> inception_5b/1x1 (in-place)
I0327 09:12:46.809698  2701 net.cpp:219] Setting up inception_5b/relu_1x1
I0327 09:12:46.809710  2701 net.cpp:226] Top shape: 6 384 7 7 (112896)
I0327 09:12:46.809720  2701 net.cpp:234] Memory required for data: 332254184
I0327 09:12:46.809729  2701 net.cpp:154] Setting up Layer of device :0 @cpu 0 Layer : inception_5b/3x3_reduce
I0327 09:12:46.809738  2701 layer_factory.hpp:114] Creating layer inception_5b/3x3_reduce
I0327 09:12:46.809758  2701 net.cpp:169] Creating Layer inception_5b/3x3_reduce
I0327 09:12:46.809769  2701 net.cpp:606] inception_5b/3x3_reduce <- inception_5a/output_inception_5a/output_0_split_1
I0327 09:12:46.809787  2701 net.cpp:579] inception_5b/3x3_reduce -> inception_5b/3x3_reduce
I0327 09:12:46.809795  2701 net.cpp:582] From AppendTop @cpu: 0
I0327 09:12:46.815603  2701 net.cpp:219] Setting up inception_5b/3x3_reduce
I0327 09:12:46.815662  2701 net.cpp:226] Top shape: 6 192 7 7 (56448)
I0327 09:12:46.815671  2701 net.cpp:234] Memory required for data: 332479976
I0327 09:12:46.815697  2701 net.cpp:154] Setting up Layer of device :0 @cpu 0 Layer : inception_5b/relu_3x3_reduce
I0327 09:12:46.815707  2701 layer_factory.hpp:114] Creating layer inception_5b/relu_3x3_reduce
I0327 09:12:46.815724  2701 net.cpp:169] Creating Layer inception_5b/relu_3x3_reduce
I0327 09:12:46.815737  2701 net.cpp:606] inception_5b/relu_3x3_reduce <- inception_5b/3x3_reduce
I0327 09:12:46.815768  2701 net.cpp:566] inception_5b/relu_3x3_reduce -> inception_5b/3x3_reduce (in-place)
I0327 09:12:46.815786  2701 net.cpp:219] Setting up inception_5b/relu_3x3_reduce
I0327 09:12:46.815798  2701 net.cpp:226] Top shape: 6 192 7 7 (56448)
I0327 09:12:46.815807  2701 net.cpp:234] Memory required for data: 332705768
I0327 09:12:46.815817  2701 net.cpp:154] Setting up Layer of device :0 @cpu 0 Layer : inception_5b/3x3
I0327 09:12:46.815826  2701 layer_factory.hpp:114] Creating layer inception_5b/3x3
I0327 09:12:46.815846  2701 net.cpp:169] Creating Layer inception_5b/3x3
I0327 09:12:46.815857  2701 net.cpp:606] inception_5b/3x3 <- inception_5b/3x3_reduce
I0327 09:12:46.815871  2701 net.cpp:579] inception_5b/3x3 -> inception_5b/3x3
I0327 09:12:46.815879  2701 net.cpp:582] From AppendTop @cpu: 0
I0327 09:12:46.835719  2701 net.cpp:219] Setting up inception_5b/3x3
I0327 09:12:46.835808  2701 net.cpp:226] Top shape: 6 384 7 7 (112896)
I0327 09:12:46.835819  2701 net.cpp:234] Memory required for data: 333157352
I0327 09:12:46.835851  2701 net.cpp:154] Setting up Layer of device :0 @cpu 0 Layer : inception_5b/relu_3x3
I0327 09:12:46.835862  2701 layer_factory.hpp:114] Creating layer inception_5b/relu_3x3
I0327 09:12:46.835886  2701 net.cpp:169] Creating Layer inception_5b/relu_3x3
I0327 09:12:46.835901  2701 net.cpp:606] inception_5b/relu_3x3 <- inception_5b/3x3
I0327 09:12:46.835917  2701 net.cpp:566] inception_5b/relu_3x3 -> inception_5b/3x3 (in-place)
I0327 09:12:46.835938  2701 net.cpp:219] Setting up inception_5b/relu_3x3
I0327 09:12:46.835978  2701 net.cpp:226] Top shape: 6 384 7 7 (112896)
I0327 09:12:46.835986  2701 net.cpp:234] Memory required for data: 333608936
…
I0327 09:12:47.275518  2701 net.cpp:226] Top shape: 50 64 14 14 (627200)
I0327 09:12:47.275528  2701 net.cpp:234] Memory required for data: 2363400412
I0327 09:12:47.275553  2701 net.cpp:154] Setting up Layer of device :0 @cpu 0 Layer : inception_4d/relu_5x5
I0327 09:12:47.275563  2701 layer_factory.hpp:114] Creating layer inception_4d/relu_5x5
I0327 09:12:47.275579  2701 net.cpp:169] Creating Layer inception_4d/relu_5x5
I0327 09:12:47.275593  2701 net.cpp:606] inception_4d/relu_5x5 <- inception_4d/5x5
I0327 09:12:47.275606  2701 net.cpp:566] inception_4d/relu_5x5 -> inception_4d/5x5 (in-place)
I0327 09:12:47.275624  2701 net.cpp:219] Setting up inception_4d/relu_5x5
I0327 09:12:47.275635  2701 net.cpp:226] Top shape: 50 64 14 14 (627200)
I0327 09:12:47.275643  2701 net.cpp:234] Memory required for data: 2365909212
I0327 09:12:47.275653  2701 net.cpp:154] Setting up Layer of device :0 @cpu 0 Layer : inception_4d/pool
I0327 09:12:47.275662  2701 layer_factory.hpp:114] Creating layer inception_4d/pool
I0327 09:12:47.275715  2701 net.cpp:169] Creating Layer inception_4d/pool
I0327 09:12:47.275727  2701 net.cpp:606] inception_4d/pool <- inception_4c/output_inception_4c/output_0_split_3
I0327 09:12:47.275740  2701 net.cpp:579] inception_4d/pool -> inception_4d/pool
I0327 09:12:47.275749  2701 net.cpp:582] From AppendTop @cpu: 0
I0327 09:12:47.275768  2701 net.cpp:219] Setting up inception_4d/pool
I0327 09:12:47.275784  2701 net.cpp:226] Top shape: 50 512 14 14 (5017600)
I0327 09:12:47.275792  2701 net.cpp:234] Memory required for data: 2385979612
I0327 09:12:47.275804  2701 net.cpp:154] Setting up Layer of device :0 @cpu 0 Layer : inception_4d/pool_proj
I0327 09:12:47.275811  2701 layer_factory.hpp:114] Creating layer inception_4d/pool_proj
I0327 09:12:47.275830  2701 net.cpp:169] Creating Layer inception_4d/pool_proj
I0327 09:12:47.275840  2701 net.cpp:606] inception_4d/pool_proj <- inception_4d/pool
I0327 09:12:47.275861  2701 net.cpp:579] inception_4d/pool_proj -> inception_4d/pool_proj
I0327 09:12:47.275871  2701 net.cpp:582] From AppendTop @cpu: 0
I0327 09:12:47.279001  2701 net.cpp:219] Setting up inception_4d/pool_proj
I0327 09:12:47.279075  2701 net.cpp:226] Top shape: 50 64 14 14 (627200)
I0327 09:12:47.279085  2701 net.cpp:234] Memory required for data: 2388488412
I0327 09:12:47.279106  2701 net.cpp:154] Setting up Layer of device :0 @cpu 0 Layer : inception_4d/relu_pool_proj
I0327 09:12:47.279116  2701 layer_factory.hpp:114] Creating layer inception_4d/relu_pool_proj
I0327 09:12:47.279142  2701 net.cpp:169] Creating Layer inception_4d/relu_pool_proj
I0327 09:12:47.279155  2701 net.cpp:606] inception_4d/relu_pool_proj <- inception_4d/pool_proj
I0327 09:12:47.279171  2701 net.cpp:566] inception_4d/relu_pool_proj -> inception_4d/pool_proj (in-place)
I0327 09:12:47.279188  2701 net.cpp:219] Setting up inception_4d/relu_pool_proj
I0327 09:12:47.279203  2701 net.cpp:226] Top shape: 50 64 14 14 (627200)
I0327 09:12:47.279212  2701 net.cpp:234] Memory required for data: 2390997212
I0327 09:12:47.279223  2701 net.cpp:154] Setting up Layer of device :0 @cpu 0 Layer : inception_4d/output
I0327 09:12:47.279232  2701 layer_factory.hpp:114] Creating layer inception_4d/output
I0327 09:12:47.279244  2701 net.cpp:169] Creating Layer inception_4d/output
I0327 09:12:47.279255  2701 net.cpp:606] inception_4d/output <- inception_4d/1x1
I0327 09:12:47.279266  2701 net.cpp:606] inception_4d/output <- inception_4d/3x3
I0327 09:12:47.279276  2701 net.cpp:606] inception_4d/output <- inception_4d/5x5
I0327 09:12:47.279287  2701 net.cpp:606] inception_4d/output <- inception_4d/pool_proj
I0327 09:12:47.279302  2701 net.cpp:579] inception_4d/output -> inception_4d/output
I0327 09:12:47.279311  2701 net.cpp:582] From AppendTop @cpu: 0
I0327 09:12:47.279327  2701 net.cpp:219] Setting up inception_4d/output
I0327 09:12:47.279340  2701 net.cpp:226] Top shape: 50 528 14 14 (5174400)
I0327 09:12:47.279348  2701 net.cpp:234] Memory required for data: 2411694812
I0327 09:12:47.279358  2701 net.cpp:154] Setting up Layer of device :0 @cpu 0 Layer : inception_4d/output_inception_4d/output_0_split
I0327 09:12:47.279381  2701 layer_factory.hpp:114] Creating layer inception_4d/output_inception_4d/output_0_split
I0327 09:12:47.279395  2701 net.cpp:169] Creating Layer inception_4d/output_inception_4d/output_0_split
…
I0327 09:12:47.279474  2701 net.cpp:582] From AppendTop @cpu: 0
I0327 09:12:47.279489  2701 net.cpp:579] inception_4d/output_inception_4d/output_0_split -> inception_4d/output_inception_4d/output_0_split_3
I0327 09:12:47.279497  2701 net.cpp:582] From AppendTop @cpu: 0
I0327 09:12:47.279510  2701 net.cpp:579] inception_4d/output_inception_4d/output_0_split -> inception_4d/output_inception_4d/output_0_split_4
I0327 09:12:47.279518  2701 net.cpp:582] From AppendTop @cpu: 0
I0327 09:12:47.279536  2701 net.cpp:219] Setting up inception_4d/output_inception_4d/output_0_split
I0327 09:12:47.279549  2701 net.cpp:226] Top shape: 50 528 14 14 (5174400)
I0327 09:12:47.279561  2701 net.cpp:226] Top shape: 50 528 14 14 (5174400)
I0327 09:12:47.279572  2701 net.cpp:226] Top shape: 50 528 14 14 (5174400)
I0327 09:12:47.279582  2701 net.cpp:226] Top shape: 50 528 14 14 (5174400)
I0327 09:12:47.279593  2701 net.cpp:226] Top shape: 50 528 14 14 (5174400)
I0327 09:12:47.279602  2701 net.cpp:234] Memory required for data: 2515182812
I0327 09:12:47.279611  2701 net.cpp:154] Setting up Layer of device :0 @cpu 0 Layer : loss2/ave_pool
I0327 09:12:47.279620  2701 layer_factory.hpp:114] Creating layer loss2/ave_pool
I0327 09:12:47.279660  2701 net.cpp:169] Creating Layer loss2/ave_pool
I0327 09:12:47.279671  2701 net.cpp:606] loss2/ave_pool <- inception_4d/output_inception_4d/output_0_split_0
I0327 09:12:47.279688  2701 net.cpp:579] loss2/ave_pool -> loss2/ave_pool
I0327 09:12:47.279697  2701 net.cpp:582] From AppendTop @cpu: 0
I0327 09:12:47.279718  2701 net.cpp:219] Setting up loss2/ave_pool
I0327 09:12:47.279731  2701 net.cpp:226] Top shape: 50 528 4 4 (422400)
I0327 09:12:47.279739  2701 net.cpp:234] Memory required for data: 2516872412
I0327 09:12:47.279749  2701 net.cpp:154] Setting up Layer of device :0 @cpu 0 Layer : loss2/conv
I0327 09:12:47.279758  2701 layer_factory.hpp:114] Creating layer loss2/conv
I0327 09:12:47.279778  2701 net.cpp:169] Creating Layer loss2/conv
I0327 09:12:47.279788  2701 net.cpp:606] loss2/conv <- loss2/ave_pool
I0327 09:12:47.279803  2701 net.cpp:579] loss2/conv -> loss2/conv
I0327 09:12:47.279811  2701 net.cpp:582] From AppendTop @cpu: 0
I0327 09:12:47.282472  2701 net.cpp:219] Setting up loss2/conv
I0327 09:12:47.282505  2701 net.cpp:226] Top shape: 50 128 4 4 (102400)
I0327 09:12:47.282515  2701 net.cpp:234] Memory required for data: 2517282012
I0327 09:12:47.282534  2701 net.cpp:154] Setting up Layer of device :0 @cpu 0 Layer : loss2/relu_conv
I0327 09:12:47.282543  2701 layer_factory.hpp:114] Creating layer loss2/relu_conv
I0327 09:12:47.282560  2701 net.cpp:169] Creating Layer loss2/relu_conv
I0327 09:12:47.282572  2701 net.cpp:606] loss2/relu_conv <- loss2/conv
I0327 09:12:47.282588  2701 net.cpp:566] loss2/relu_conv -> loss2/conv (in-place)
I0327 09:12:47.282603  2701 net.cpp:219] Setting up loss2/relu_conv
I0327 09:12:47.282614  2701 net.cpp:226] Top shape: 50 128 4 4 (102400)
I0327 09:12:47.282624  2701 net.cpp:234] Memory required for data: 2517691612
I0327 09:12:47.282634  2701 net.cpp:154] Setting up Layer of device :0 @cpu 0 Layer : loss2/fc
I0327 09:12:47.282642  2701 layer_factory.hpp:114] Creating layer loss2/fc
I0327 09:12:47.282675  2701 net.cpp:169] Creating Layer loss2/fc
I0327 09:12:47.282685  2701 net.cpp:606] loss2/fc <- loss2/conv
I0327 09:12:47.282701  2701 net.cpp:579] loss2/fc -> loss2/fc
I0327 09:12:47.282711  2701 net.cpp:582] From AppendTop @cpu: 0
I0327 09:12:47.317133  2701 net.cpp:219] Setting up loss2/fc
I0327 09:12:47.317214  2701 net.cpp:226] Top shape: 50 1024 (51200)
I0327 09:12:47.317224  2701 net.cpp:234] Memory required for data: 2517896412
I0327 09:12:47.317247  2701 net.cpp:154] Setting up Layer of device :0 @cpu 0 Layer : loss2/relu_fc
I0327 09:12:47.317257  2701 layer_factory.hpp:114] Creating layer loss2/relu_fc
I0327 09:12:47.317277  2701 net.cpp:169] Creating Layer loss2/relu_fc
I0327 09:12:47.317291  2701 net.cpp:606] loss2/relu_fc <- loss2/fc
I0327 09:12:47.317306  2701 net.cpp:566] loss2/relu_fc -> loss2/fc (in-place)
I0327 09:12:47.317323  2701 net.cpp:219] Setting up loss2/relu_fc
I0327 09:12:47.317334  2701 net.cpp:226] Top shape: 50 1024 (51200)
I0327 09:12:47.317343  2701 net.cpp:234] Memory required for data: 2518101212
I0327 09:12:47.317353  2701 net.cpp:154] Setting up Layer of device :0 @cpu 0 Layer : loss2/drop_fc
I0327 09:12:47.317363  2701 layer_factory.hpp:114] Creating layer loss2/drop_fc
I0327 09:12:47.317379  2701 net.cpp:169] Creating Layer loss2/drop_fc
I0327 09:12:47.317389  2701 net.cpp:606] loss2/drop_fc <- loss2/fc
I0327 09:12:47.317399  2701 net.cpp:566] loss2/drop_fc -> loss2/fc (in-place)
I0327 09:12:47.317414  2701 net.cpp:219] Setting up loss2/drop_fc
I0327 09:12:47.317425  2701 net.cpp:226] Top shape: 50 1024 (51200)
I0327 09:12:47.317433  2701 net.cpp:234] Memory required for data: 2518306012
I0327 09:12:47.317443  2701 net.cpp:154] Setting up Layer of device :0 @cpu 0 Layer : loss2/classifier
I0327 09:12:47.317452  2701 layer_factory.hpp:114] Creating layer loss2/classifier
I0327 09:12:47.317469  2701 net.cpp:169] Creating Layer loss2/classifier
I0327 09:12:47.317478  2701 net.cpp:606] loss2/classifier <- loss2/fc
I0327 09:12:47.317492  2701 net.cpp:579] loss2/classifier -> loss2/classifier
I0327 09:12:47.317500  2701 net.cpp:582] From AppendTop @cpu: 0
I0327 09:12:47.335571  2701 net.cpp:219] Setting up loss2/classifier
I0327 09:12:47.335625  2701 net.cpp:226] Top shape: 50 1000 (50000)
I0327 09:12:47.335634  2701 net.cpp:234] Memory required for data: 2518506012
I0327 09:12:47.335654  2701 net.cpp:154] Setting up Layer of device :0 @cpu 0 Layer : loss2/classifier_loss2/classifier_0_split
I0327 09:12:47.335681  2701 layer_factory.hpp:114] Creating layer loss2/classifier_loss2/classifier_0_split
I0327 09:12:47.335700  2701 net.cpp:169] Creating Layer loss2/classifier_loss2/classifier_0_split
I0327 09:12:47.335711  2701 net.cpp:606] loss2/classifier_loss2/classifier_0_split <- loss2/classifier
I0327 09:12:47.335726  2701 net.cpp:579] loss2/classifier_loss2/classifier_0_split -> loss2/classifier_loss2/classifier_0_split_0
I0327 09:12:47.335736  2701 net.cpp:582] From AppendTop @cpu: 0
I0327 09:12:47.335752  2701 net.cpp:579] loss2/classifier_loss2/classifier_0_split -> loss2/classifier_loss2/classifier_0_split_1
I0327 09:12:47.335760  2701 net.cpp:582] From AppendTop @cpu: 0
I0327 09:12:47.335774  2701 net.cpp:579] loss2/classifier_loss2/classifier_0_split -> loss2/classifier_loss2/classifier_0_split_2
I0327 09:12:47.335783  2701 net.cpp:582] From AppendTop @cpu: 0
I0327 09:12:47.335798  2701 net.cpp:219] Setting up loss2/classifier_loss2/classifier_0_split
I0327 09:12:47.335810  2701 net.cpp:226] Top shape: 50 1000 (50000)
I0327 09:12:47.335820  2701 net.cpp:226] Top shape: 50 1000 (50000)
I0327 09:12:47.335831  2701 net.cpp:226] Top shape: 50 1000 (50000)
I0327 09:12:47.335839  2701 net.cpp:234] Memory required for data: 2519106012
I0327 09:12:47.335850  2701 net.cpp:154] Setting up Layer of device :0 @cpu 0 Layer : loss2/loss
I0327 09:12:47.335858  2701 layer_factory.hpp:114] Creating layer loss2/loss
I0327 09:12:47.335872  2701 net.cpp:169] Creating Layer loss2/loss
I0327 09:12:47.335882  2701 net.cpp:606] loss2/loss <- loss2/classifier_loss2/classifier_0_split_0
…
I0327 09:12:47.336489  2701 net.cpp:154] Setting up Layer of device :0 @cpu 0 Layer : inception_4e/1x1
I0327 09:12:47.336498  2701 layer_factory.hpp:114] Creating layer inception_4e/1x1
I0327 09:12:47.336520  2701 net.cpp:169] Creating Layer inception_4e/1x1
I0327 09:12:47.336531  2701 net.cpp:606] inception_4e/1x1 <- inception_4d/output_inception_4d/output_0_split_1
I0327 09:12:47.336551  2701 net.cpp:579] inception_4e/1x1 -> inception_4e/1x1
I0327 09:12:47.336563  2701 net.cpp:582] From AppendTop @cpu: 0
I0327 09:12:47.343219  2701 net.cpp:219] Setting up inception_4e/1x1
I0327 09:12:47.343293  2701 net.cpp:226] Top shape: 50 256 14 14 (2508800)
I0327 09:12:47.343303  2701 net.cpp:234] Memory required for data: 2529141224
I0327 09:12:47.343331  2701 net.cpp:154] Setting up Layer of device :0 @cpu 0 Layer : inception_4e/relu_1x1
I0327 09:12:47.343341  2701 layer_factory.hpp:114] Creating layer inception_4e/relu_1x1
I0327 09:12:47.343360  2701 net.cpp:169] Creating Layer inception_4e/relu_1x1
I0327 09:12:47.343372  2701 net.cpp:606] inception_4e/relu_1x1 <- inception_4e/1x1
I0327 09:12:47.343387  2701 net.cpp:566] inception_4e/relu_1x1 -> inception_4e/1x1 (in-place)
I0327 09:12:47.343405  2701 net.cpp:219] Setting up inception_4e/relu_1x1
I0327 09:12:47.343416  2701 net.cpp:226] Top shape: 50 256 14 14 (2508800)
I0327 09:12:47.343425  2701 net.cpp:234] Memory required for data: 2539176424
I0327 09:12:47.343436  2701 net.cpp:154] Setting up Layer of device :0 @cpu 0 Layer : inception_4e/3x3_reduce
I0327 09:12:47.343443  2701 layer_factory.hpp:114] Creating layer inception_4e/3x3_reduce
I0327 09:12:47.343473  2701 net.cpp:169] Creating Layer inception_4e/3x3_reduce
I0327 09:12:47.343485  2701 net.cpp:606] inception_4e/3x3_reduce <- inception_4d/output_inception_4d/output_0_split_2
I0327 09:12:47.343500  2701 net.cpp:579] inception_4e/3x3_reduce -> inception_4e/3x3_reduce
I0327 09:12:47.343509  2701 net.cpp:582] From AppendTop @cpu: 0
I0327 09:12:47.348570  2701 net.cpp:219] Setting up inception_4e/3x3_reduce
I0327 09:12:47.348654  2701 net.cpp:226] Top shape: 50 160 14 14 (1568000)
I0327 09:12:47.348662  2701 net.cpp:234] Memory required for data: 2545448424
I0327 09:12:47.348687  2701 net.cpp:154] Setting up Layer of device :0 @cpu 0 Layer : inception_4e/relu_3x3_reduce
I0327 09:12:47.348697  2701 layer_factory.hpp:114] Creating layer inception_4e/relu_3x3_reduce
I0327 09:12:47.348714  2701 net.cpp:169] Creating Layer inception_4e/relu_3x3_reduce
I0327 09:12:47.348726  2701 net.cpp:606] inception_4e/relu_3x3_reduce <- inception_4e/3x3_reduce
I0327 09:12:47.348743  2701 net.cpp:566] inception_4e/relu_3x3_reduce -> inception_4e/3x3_reduce (in-place)
I0327 09:12:47.348760  2701 net.cpp:219] Setting up inception_4e/relu_3x3_reduce
I0327 09:12:47.348772  2701 net.cpp:226] Top shape: 50 160 14 14 (1568000)
I0327 09:12:47.348780  2701 net.cpp:234] Memory required for data: 2551720424
I0327 09:12:47.348790  2701 net.cpp:154] Setting up Layer of device :0 @cpu 0 Layer : inception_4e/3x3
I0327 09:12:47.348799  2701 layer_factory.hpp:114] Creating layer inception_4e/3x3
I0327 09:12:47.348816  2701 net.cpp:169] Creating Layer inception_4e/3x3
I0327 09:12:47.348826  2701 net.cpp:606] inception_4e/3x3 <- inception_4e/3x3_reduce
I0327 09:12:47.348839  2701 net.cpp:579] inception_4e/3x3 -> inception_4e/3x3
I0327 09:12:47.348848  2701 net.cpp:582] From AppendTop @cpu: 0
I0327 09:12:47.365634  2701 net.cpp:219] Setting up inception_4e/3x3
I0327 09:12:47.365720  2701 net.cpp:226] Top shape: 50 320 14 14 (3136000)
I0327 09:12:47.365730  2701 net.cpp:234] Memory required for data: 2564264424
I0327 09:12:47.365761  2701 net.cpp:154] Setting up Layer of device :0 @cpu 0 Layer : inception_4e/relu_3x3
I0327 09:12:47.365772  2701 layer_factory.hpp:114] Creating layer inception_4e/relu_3x3
I0327 09:12:47.365792  2701 net.cpp:169] Creating Layer inception_4e/relu_3x3
I0327 09:12:47.365805  2701 net.cpp:606] inception_4e/relu_3x3 <- inception_4e/3x3
I0327 09:12:47.365820  2701 net.cpp:566] inception_4e/relu_3x3 -> inception_4e/3x3 (in-place)
I0327 09:12:47.365839  2701 net.cpp:219] Setting up inception_4e/relu_3x3
I0327 09:12:47.365851  2701 net.cpp:226] Top shape: 50 320 14 14 (3136000)
I0327 09:12:47.365859  2701 net.cpp:234] Memory required for data: 2576808424
I0327 09:12:47.365869  2701 net.cpp:154] Setting up Layer of device :0 @cpu 0 Layer : inception_4e/5x5_reduce
I0327 09:12:47.365878  2701 layer_factory.hpp:114] Creating layer inception_4e/5x5_reduce
I0327 09:12:47.365919  2701 net.cpp:169] Creating Layer inception_4e/5x5_reduce
I0327 09:12:47.365931  2701 net.cpp:606] inception_4e/5x5_reduce <- inception_4d/output_inception_4d/output_0_split_3
I0327 09:12:47.365947  2701 net.cpp:579] inception_4e/5x5_reduce -> inception_4e/5x5_reduce
I0327 09:12:47.365955  2701 net.cpp:582] From AppendTop @cpu: 0
I0327 09:12:47.368682  2701 net.cpp:219] Setting up inception_4e/5x5_reduce
I0327 09:12:47.368721  2701 net.cpp:226] Top shape: 50 32 14 14 (313600)
I0327 09:12:47.368731  2701 net.cpp:234] Memory required for data: 2578062824
I0327 09:12:47.368752  2701 net.cpp:154] Setting up Layer of device :0 @cpu 0 Layer : inception_4e/relu_5x5_reduce
I0327 09:12:47.368762  2701 layer_factory.hpp:114] Creating layer inception_4e/relu_5x5_reduce
I0327 09:12:47.368780  2701 net.cpp:169] Creating Layer inception_4e/relu_5x5_reduce
I0327 09:12:47.368791  2701 net.cpp:606] inception_4e/relu_5x5_reduce <- inception_4e/5x5_reduce
I0327 09:12:47.368804  2701 net.cpp:566] inception_4e/relu_5x5_reduce -> inception_4e/5x5_reduce (in-place)
I0327 09:12:47.368820  2701 net.cpp:219] Setting up inception_4e/relu_5x5_reduce
I0327 09:12:47.368832  2701 net.cpp:226] Top shape: 50 32 14 14 (313600)
I0327 09:12:47.368840  2701 net.cpp:234] Memory required for data: 2579317224
I0327 09:12:47.368850  2701 net.cpp:154] Setting up Layer of device :0 @cpu 0 Layer : inception_4e/5x5
I0327 09:12:47.368860  2701 layer_factory.hpp:114] Creating layer inception_4e/5x5
I0327 09:12:47.368878  2701 net.cpp:169] Creating Layer inception_4e/5x5
I0327 09:12:47.368909  2701 net.cpp:606] inception_4e/5x5 <- inception_4e/5x5_reduce
I0327 09:12:47.368926  2701 net.cpp:579] inception_4e/5x5 -> inception_4e/5x5
I0327 09:12:47.368934  2701 net.cpp:582] From AppendTop @cpu: 0
I0327 09:12:47.374737  2701 net.cpp:219] Setting up inception_4e/5x5
I0327 09:12:47.374809  2701 net.cpp:226] Top shape: 50 128 14 14 (1254400)
I0327 09:12:47.374817  2701 net.cpp:234] Memory required for data: 2584334824
I0327 09:12:47.374845  2701 net.cpp:154] Setting up Layer of device :0 @cpu 0 Layer : inception_4e/relu_5x5
I0327 09:12:47.374855  2701 layer_factory.hpp:114] Creating layer inception_4e/relu_5x5
I0327 09:12:47.374877  2701 net.cpp:169] Creating Layer inception_4e/relu_5x5
I0327 09:12:47.374891  2701 net.cpp:606] inception_4e/relu_5x5 <- inception_4e/5x5
I0327 09:12:47.374905  2701 net.cpp:566] inception_4e/relu_5x5 -> inception_4e/5x5 (in-place)
I0327 09:12:47.374923  2701 net.cpp:219] Setting up inception_4e/relu_5x5
I0327 09:12:47.374934  2701 net.cpp:226] Top shape: 50 128 14 14 (1254400)
I0327 09:12:47.374943  2701 net.cpp:234] Memory required for data: 2589352424
I0327 09:12:47.374953  2701 net.cpp:154] Setting up Layer of device :0 @cpu 0 Layer : inception_4e/pool
I0327 09:12:47.374963  2701 layer_factory.hpp:114] Creating layer inception_4e/pool
I0327 09:12:47.375022  2701 net.cpp:169] Creating Layer inception_4e/pool
I0327 09:12:47.375036  2701 net.cpp:606] inception_4e/pool <- inception_4d/output_inception_4d/output_0_split_4
I0327 09:12:47.375051  2701 net.cpp:579] inception_4e/pool -> inception_4e/pool
I0327 09:12:47.375059  2701 net.cpp:582] From AppendTop @cpu: 0
I0327 09:12:47.375078  2701 net.cpp:219] Setting up inception_4e/pool
I0327 09:12:47.375090  2701 net.cpp:226] Top shape: 50 528 14 14 (5174400)
I0327 09:12:47.375098  2701 net.cpp:234] Memory required for data: 2610050024
I0327 09:12:47.375109  2701 net.cpp:154] Setting up Layer of device :0 @cpu 0 Layer : inception_4e/pool_proj
I0327 09:12:47.375118  2701 layer_factory.hpp:114] Creating layer inception_4e/pool_proj
I0327 09:12:47.375140  2701 net.cpp:169] Creating Layer inception_4e/pool_proj
I0327 09:12:47.375151  2701 net.cpp:606] inception_4e/pool_proj <- inception_4e/pool
I0327 09:12:47.375167  2701 net.cpp:579] inception_4e/pool_proj -> inception_4e/pool_proj
I0327 09:12:47.375176  2701 net.cpp:582] From AppendTop @cpu: 0
I0327 09:12:47.379487  2701 net.cpp:219] Setting up inception_4e/pool_proj
I0327 09:12:47.379537  2701 net.cpp:226] Top shape: 50 128 14 14 (1254400)
I0327 09:12:47.379566  2701 net.cpp:234] Memory required for data: 2615067624
I0327 09:12:47.379590  2701 net.cpp:154] Setting up Layer of device :0 @cpu 0 Layer : inception_4e/relu_pool_proj
I0327 09:12:47.379601  2701 layer_factory.hpp:114] Creating layer inception_4e/relu_pool_proj
I0327 09:12:47.379619  2701 net.cpp:169] Creating Layer inception_4e/relu_pool_proj
I0327 09:12:47.379631  2701 net.cpp:606] inception_4e/relu_pool_proj <- inception_4e/pool_proj
I0327 09:12:47.379645  2701 net.cpp:566] inception_4e/relu_pool_proj -> inception_4e/pool_proj (in-place)
I0327 09:12:47.379662  2701 net.cpp:219] Setting up inception_4e/relu_pool_proj
I0327 09:12:47.379673  2701 net.cpp:226] Top shape: 50 128 14 14 (1254400)
I0327 09:12:47.379681  2701 net.cpp:234] Memory required for data: 2620085224
I0327 09:12:47.379691  2701 net.cpp:154] Setting up Layer of device :0 @cpu 0 Layer : inception_4e/output
I0327 09:12:47.379700  2701 layer_factory.hpp:114] Creating layer inception_4e/output
I0327 09:12:47.379714  2701 net.cpp:169] Creating Layer inception_4e/output
I0327 09:12:47.379724  2701 net.cpp:606] inception_4e/output <- inception_4e/1x1
I0327 09:12:47.379734  2701 net.cpp:606] inception_4e/output <- inception_4e/3x3
I0327 09:12:47.379745  2701 net.cpp:606] inception_4e/output <- inception_4e/5x5
I0327 09:12:47.379756  2701 net.cpp:606] inception_4e/output <- inception_4e/pool_proj
I0327 09:12:47.379767  2701 net.cpp:579] inception_4e/output -> inception_4e/output
I0327 09:12:47.379776  2701 net.cpp:582] From AppendTop @cpu: 0
I0327 09:12:47.379793  2701 net.cpp:219] Setting up inception_4e/output
I0327 09:12:47.379820  2701 net.cpp:226] Top shape: 50 832 14 14 (8153600)
I0327 09:12:47.379829  2701 net.cpp:234] Memory required for data: 2652699624
I0327 09:12:47.379839  2701 net.cpp:154] Setting up Layer of device :0 @cpu 0 Layer : pool4/3x3_s2
I0327 09:12:47.379848  2701 layer_factory.hpp:114] Creating layer pool4/3x3_s2
I0327 09:12:47.379889  2701 net.cpp:169] Creating Layer pool4/3x3_s2
I0327 09:12:47.379900  2701 net.cpp:606] pool4/3x3_s2 <- inception_4e/output
I0327 09:12:47.379914  2701 net.cpp:579] pool4/3x3_s2 -> pool4/3x3_s2
I0327 09:12:47.379922  2701 net.cpp:582] From AppendTop @cpu: 0
I0327 09:12:47.379940  2701 net.cpp:219] Setting up pool4/3x3_s2
I0327 09:12:47.379952  2701 net.cpp:226] Top shape: 50 832 7 7 (2038400)
I0327 09:12:47.379961  2701 net.cpp:234] Memory required for data: 2660853224
I0327 09:12:47.379971  2701 net.cpp:154] Setting up Layer of device :0 @cpu 0 Layer : pool4/3x3_s2_pool4/3x3_s2_0_split
I0327 09:12:47.379979  2701 layer_factory.hpp:114] Creating layer pool4/3x3_s2_pool4/3x3_s2_0_split
I0327 09:12:47.379992  2701 net.cpp:169] Creating Layer pool4/3x3_s2_pool4/3x3_s2_0_split
I0327 09:12:47.380002  2701 net.cpp:606] pool4/3x3_s2_pool4/3x3_s2_0_split <- pool4/3x3_s2
I0327 09:12:47.380013  2701 net.cpp:579] pool4/3x3_s2_pool4/3x3_s2_0_split -> pool4/3x3_s2_pool4/3x3_s2_0_split_0
I0327 09:12:47.380029  2701 net.cpp:582] From AppendTop @cpu: 0
I0327 09:12:47.380043  2701 net.cpp:579] pool4/3x3_s2_pool4/3x3_s2_0_split -> pool4/3x3_s2_pool4/3x3_s2_0_split_1
I0327 09:12:47.380054  2701 net.cpp:582] From AppendTop @cpu: 0
I0327 09:12:47.380069  2701 net.cpp:579] pool4/3x3_s2_pool4/3x3_s2_0_split -> pool4/3x3_s2_pool4/3x3_s2_0_split_2
I0327 09:12:47.380077  2701 net.cpp:582] From AppendTop @cpu: 0
I0327 09:12:47.380096  2701 net.cpp:579] pool4/3x3_s2_pool4/3x3_s2_0_split -> pool4/3x3_s2_pool4/3x3_s2_0_split_3
I0327 09:12:47.380105  2701 net.cpp:582] From AppendTop @cpu: 0
I0327 09:12:47.380123  2701 net.cpp:219] Setting up pool4/3x3_s2_pool4/3x3_s2_0_split
I0327 09:12:47.380136  2701 net.cpp:226] Top shape: 50 832 7 7 (2038400)
I0327 09:12:47.380146  2701 net.cpp:226] Top shape: 50 832 7 7 (2038400)
I0327 09:12:47.380159  2701 net.cpp:226] Top shape: 50 832 7 7 (2038400)
I0327 09:12:47.380170  2701 net.cpp:226] Top shape: 50 832 7 7 (2038400)
I0327 09:12:47.380178  2701 net.cpp:234] Memory required for data: 2693467624
I0327 09:12:47.380189  2701 net.cpp:154] Setting up Layer of device :0 @cpu 0 Layer : inception_5a/1x1
I0327 09:12:47.380209  2701 layer_factory.hpp:114] Creating layer inception_5a/1x1
I0327 09:12:47.380228  2701 net.cpp:169] Creating Layer inception_5a/1x1
I0327 09:12:47.380237  2701 net.cpp:606] inception_5a/1x1 <- pool4/3x3_s2_pool4/3x3_s2_0_split_0
I0327 09:12:47.380254  2701 net.cpp:579] inception_5a/1x1 -> inception_5a/1x1
I0327 09:12:47.380262  2701 net.cpp:582] From AppendTop @cpu: 0
I0327 09:12:47.387727  2701 net.cpp:219] Setting up inception_5a/1x1
I0327 09:12:47.387799  2701 net.cpp:226] Top shape: 50 256 7 7 (627200)
I0327 09:12:47.387809  2701 net.cpp:234] Memory required for data: 2695976424
I0327 09:12:47.387837  2701 net.cpp:154] Setting up Layer of device :0 @cpu 0 Layer : inception_5a/relu_1x1
I0327 09:12:47.387847  2701 layer_factory.hpp:114] Creating layer inception_5a/relu_1x1
I0327 09:12:47.387866  2701 net.cpp:169] Creating Layer inception_5a/relu_1x1
I0327 09:12:47.387878  2701 net.cpp:606] inception_5a/relu_1x1 <- inception_5a/1x1
I0327 09:12:47.387893  2701 net.cpp:566] inception_5a/relu_1x1 -> inception_5a/1x1 (in-place)
I0327 09:12:47.387912  2701 net.cpp:219] Setting up inception_5a/relu_1x1
I0327 09:12:47.387923  2701 net.cpp:226] Top shape: 50 256 7 7 (627200)
I0327 09:12:47.387931  2701 net.cpp:234] Memory required for data: 2698485224
I0327 09:12:47.387941  2701 net.cpp:154] Setting up Layer of device :0 @cpu 0 Layer : inception_5a/3x3_reduce
I0327 09:12:47.387950  2701 layer_factory.hpp:114] Creating layer inception_5a/3x3_reduce
I0327 09:12:47.387972  2701 net.cpp:169] Creating Layer inception_5a/3x3_reduce
I0327 09:12:47.388013  2701 net.cpp:606] inception_5a/3x3_reduce <- pool4/3x3_s2_pool4/3x3_s2_0_split_1
I0327 09:12:47.388036  2701 net.cpp:579] inception_5a/3x3_reduce -> inception_5a/3x3_reduce
I0327 09:12:47.388046  2701 net.cpp:582] From AppendTop @cpu: 0
I0327 09:12:47.393457  2701 net.cpp:219] Setting up inception_5a/3x3_reduce
I0327 09:12:47.393512  2701 net.cpp:226] Top shape: 50 160 7 7 (392000)
I0327 09:12:47.393520  2701 net.cpp:234] Memory required for data: 2700053224
I0327 09:12:47.393544  2701 net.cpp:154] Setting up Layer of device :0 @cpu 0 Layer : inception_5a/relu_3x3_reduce
I0327 09:12:47.393554  2701 layer_factory.hpp:114] Creating layer inception_5a/relu_3x3_reduce
I0327 09:12:47.393570  2701 net.cpp:169] Creating Layer inception_5a/relu_3x3_reduce
I0327 09:12:47.393584  2701 net.cpp:606] inception_5a/relu_3x3_reduce <- inception_5a/3x3_reduce
I0327 09:12:47.393600  2701 net.cpp:566] inception_5a/relu_3x3_reduce -> inception_5a/3x3_reduce (in-place)
I0327 09:12:47.393617  2701 net.cpp:219] Setting up inception_5a/relu_3x3_reduce
I0327 09:12:47.393628  2701 net.cpp:226] Top shape: 50 160 7 7 (392000)
I0327 09:12:47.393637  2701 net.cpp:234] Memory required for data: 2701621224
I0327 09:12:47.393647  2701 net.cpp:154] Setting up Layer of device :0 @cpu 0 Layer : inception_5a/3x3
I0327 09:12:47.393656  2701 layer_factory.hpp:114] Creating layer inception_5a/3x3
I0327 09:12:47.393673  2701 net.cpp:169] Creating Layer inception_5a/3x3
I0327 09:12:47.393683  2701 net.cpp:606] inception_5a/3x3 <- inception_5a/3x3_reduce
I0327 09:12:47.393699  2701 net.cpp:579] inception_5a/3x3 -> inception_5a/3x3
I0327 09:12:47.393708  2701 net.cpp:582] From AppendTop @cpu: 0
I0327 09:12:47.408386  2701 net.cpp:219] Setting up inception_5a/3x3
I0327 09:12:47.408473  2701 net.cpp:226] Top shape: 50 320 7 7 (784000)
I0327 09:12:47.408483  2701 net.cpp:234] Memory required for data: 2704757224
I0327 09:12:47.408514  2701 net.cpp:154] Setting up Layer of device :0 @cpu 0 Layer : inception_5a/relu_3x3
I0327 09:12:47.408524  2701 layer_factory.hpp:114] Creating layer inception_5a/relu_3x3
I0327 09:12:47.408545  2701 net.cpp:169] Creating Layer inception_5a/relu_3x3
I0327 09:12:47.408558  2701 net.cpp:606] inception_5a/relu_3x3 <- inception_5a/3x3
I0327 09:12:47.408573  2701 net.cpp:566] inception_5a/relu_3x3 -> inception_5a/3x3 (in-place)
I0327 09:12:47.408593  2701 net.cpp:219] Setting up inception_5a/relu_3x3
I0327 09:12:47.408622  2701 net.cpp:226] Top shape: 50 320 7 7 (784000)
I0327 09:12:47.408632  2701 net.cpp:234] Memory required for data: 2707893224
I0327 09:12:47.408641  2701 net.cpp:154] Setting up Layer of device :0 @cpu 0 Layer : inception_5a/5x5_reduce
I0327 09:12:47.408650  2701 layer_factory.hpp:114] Creating layer inception_5a/5x5_reduce
I0327 09:12:47.408674  2701 net.cpp:169] Creating Layer inception_5a/5x5_reduce
I0327 09:12:47.408686  2701 net.cpp:606] inception_5a/5x5_reduce <- pool4/3x3_s2_pool4/3x3_s2_0_split_2
I0327 09:12:47.408700  2701 net.cpp:579] inception_5a/5x5_reduce -> inception_5a/5x5_reduce
I0327 09:12:47.408710  2701 net.cpp:582] From AppendTop @cpu: 0
I0327 09:12:47.410528  2701 net.cpp:219] Setting up inception_5a/5x5_reduce
I0327 09:12:47.410560  2701 net.cpp:226] Top shape: 50 32 7 7 (78400)
I0327 09:12:47.410569  2701 net.cpp:234] Memory required for data: 2708206824
I0327 09:12:47.410588  2701 net.cpp:154] Setting up Layer of device :0 @cpu 0 Layer : inception_5a/relu_5x5_reduce
I0327 09:12:47.410598  2701 layer_factory.hpp:114] Creating layer inception_5a/relu_5x5_reduce
I0327 09:12:47.410612  2701 net.cpp:169] Creating Layer inception_5a/relu_5x5_reduce
I0327 09:12:47.410624  2701 net.cpp:606] inception_5a/relu_5x5_reduce <- inception_5a/5x5_reduce
I0327 09:12:47.410639  2701 net.cpp:566] inception_5a/relu_5x5_reduce -> inception_5a/5x5_reduce (in-place)
I0327 09:12:47.410655  2701 net.cpp:219] Setting up inception_5a/relu_5x5_reduce
I0327 09:12:47.410666  2701 net.cpp:226] Top shape: 50 32 7 7 (78400)
I0327 09:12:47.410675  2701 net.cpp:234] Memory required for data: 2708520424
I0327 09:12:47.410704  2701 net.cpp:154] Setting up Layer of device :0 @cpu 0 Layer : inception_5a/5x5
I0327 09:12:47.410714  2701 layer_factory.hpp:114] Creating layer inception_5a/5x5
I0327 09:12:47.410733  2701 net.cpp:169] Creating Layer inception_5a/5x5
I0327 09:12:47.410743  2701 net.cpp:606] inception_5a/5x5 <- inception_5a/5x5_reduce
I0327 09:12:47.410756  2701 net.cpp:579] inception_5a/5x5 -> inception_5a/5x5
I0327 09:12:47.410765  2701 net.cpp:582] From AppendTop @cpu: 0
I0327 09:12:47.415252  2701 net.cpp:219] Setting up inception_5a/5x5
I0327 09:12:47.415302  2701 net.cpp:226] Top shape: 50 128 7 7 (313600)
I0327 09:12:47.415310  2701 net.cpp:234] Memory required for data: 2709774824
I0327 09:12:47.415333  2701 net.cpp:154] Setting up Layer of device :0 @cpu 0 Layer : inception_5a/relu_5x5
I0327 09:12:47.415343  2701 layer_factory.hpp:114] Creating layer inception_5a/relu_5x5
I0327 09:12:47.415359  2701 net.cpp:169] Creating Layer inception_5a/relu_5x5
I0327 09:12:47.415369  2701 net.cpp:606] inception_5a/relu_5x5 <- inception_5a/5x5
I0327 09:12:47.415386  2701 net.cpp:566] inception_5a/relu_5x5 -> inception_5a/5x5 (in-place)
I0327 09:12:47.415402  2701 net.cpp:219] Setting up inception_5a/relu_5x5
I0327 09:12:47.415413  2701 net.cpp:226] Top shape: 50 128 7 7 (313600)
I0327 09:12:47.415422  2701 net.cpp:234] Memory required for data: 2711029224
I0327 09:12:47.415432  2701 net.cpp:154] Setting up Layer of device :0 @cpu 0 Layer : inception_5a/pool
I0327 09:12:47.415441  2701 layer_factory.hpp:114] Creating layer inception_5a/pool
I0327 09:12:47.415488  2701 net.cpp:169] Creating Layer inception_5a/pool
I0327 09:12:47.415500  2701 net.cpp:606] inception_5a/pool <- pool4/3x3_s2_pool4/3x3_s2_0_split_3
I0327 09:12:47.415514  2701 net.cpp:579] inception_5a/pool -> inception_5a/pool
I0327 09:12:47.415524  2701 net.cpp:582] From AppendTop @cpu: 0
I0327 09:12:47.415542  2701 net.cpp:219] Setting up inception_5a/pool
I0327 09:12:47.415555  2701 net.cpp:226] Top shape: 50 832 7 7 (2038400)
I0327 09:12:47.415562  2701 net.cpp:234] Memory required for data: 2719182824
I0327 09:12:47.415572  2701 net.cpp:154] Setting up Layer of device :0 @cpu 0 Layer : inception_5a/pool_proj
I0327 09:12:47.415581  2701 layer_factory.hpp:114] Creating layer inception_5a/pool_proj
I0327 09:12:47.415606  2701 net.cpp:169] Creating Layer inception_5a/pool_proj
I0327 09:12:47.415616  2701 net.cpp:606] inception_5a/pool_proj <- inception_5a/pool
I0327 09:12:47.415644  2701 net.cpp:579] inception_5a/pool_proj -> inception_5a/pool_proj
I0327 09:12:47.415654  2701 net.cpp:582] From AppendTop @cpu: 0
I0327 09:12:47.420099  2701 net.cpp:219] Setting up inception_5a/pool_proj
I0327 09:12:47.420145  2701 net.cpp:226] Top shape: 50 128 7 7 (313600)
I0327 09:12:47.420155  2701 net.cpp:234] Memory required for data: 2720437224
I0327 09:12:47.420176  2701 net.cpp:154] Setting up Layer of device :0 @cpu 0 Layer : inception_5a/relu_pool_proj
I0327 09:12:47.420186  2701 layer_factory.hpp:114] Creating layer inception_5a/relu_pool_proj
I0327 09:12:47.420205  2701 net.cpp:169] Creating Layer inception_5a/relu_pool_proj
I0327 09:12:47.420217  2701 net.cpp:606] inception_5a/relu_pool_proj <- inception_5a/pool_proj
I0327 09:12:47.420230  2701 net.cpp:566] inception_5a/relu_pool_proj -> inception_5a/pool_proj (in-place)
I0327 09:12:47.420246  2701 net.cpp:219] Setting up inception_5a/relu_pool_proj
I0327 09:12:47.420258  2701 net.cpp:226] Top shape: 50 128 7 7 (313600)
I0327 09:12:47.420267  2701 net.cpp:234] Memory required for data: 2721691624
I0327 09:12:47.420277  2701 net.cpp:154] Setting up Layer of device :0 @cpu 0 Layer : inception_5a/output
I0327 09:12:47.420286  2701 layer_factory.hpp:114] Creating layer inception_5a/output
I0327 09:12:47.420298  2701 net.cpp:169] Creating Layer inception_5a/output
I0327 09:12:47.420308  2701 net.cpp:606] inception_5a/output <- inception_5a/1x1
I0327 09:12:47.420320  2701 net.cpp:606] inception_5a/output <- inception_5a/3x3
I0327 09:12:47.420330  2701 net.cpp:606] inception_5a/output <- inception_5a/5x5
I0327 09:12:47.420362  2701 net.cpp:606] inception_5a/output <- inception_5a/pool_proj
I0327 09:12:47.420374  2701 net.cpp:579] inception_5a/output -> inception_5a/output
I0327 09:12:47.420383  2701 net.cpp:582] From AppendTop @cpu: 0
I0327 09:12:47.420400  2701 net.cpp:219] Setting up inception_5a/output
I0327 09:12:47.420413  2701 net.cpp:226] Top shape: 50 832 7 7 (2038400)
I0327 09:12:47.420420  2701 net.cpp:234] Memory required for data: 2729845224
I0327 09:12:47.420430  2701 net.cpp:154] Setting up Layer of device :0 @cpu 0 Layer : inception_5a/output_inception_5a/output_0_split
I0327 09:12:47.420439  2701 layer_factory.hpp:114] Creating layer inception_5a/output_inception_5a/output_0_split
I0327 09:12:47.420455  2701 net.cpp:169] Creating Layer inception_5a/output_inception_5a/output_0_split
…
I0327 09:12:47.420508  2701 net.cpp:582] From AppendTop @cpu: 0
I0327 09:12:47.420522  2701 net.cpp:579] inception_5a/output_inception_5a/output_0_split -> inception_5a/output_inception_5a/output_0_split_2
I0327 09:12:47.420531  2701 net.cpp:582] From AppendTop @cpu: 0
I0327 09:12:47.420544  2701 net.cpp:579] inception_5a/output_inception_5a/output_0_split -> inception_5a/output_inception_5a/output_0_split_3
I0327 09:12:47.420552  2701 net.cpp:582] From AppendTop @cpu: 0
I0327 09:12:47.420568  2701 net.cpp:219] Setting up inception_5a/output_inception_5a/output_0_split
I0327 09:12:47.420579  2701 net.cpp:226] Top shape: 50 832 7 7 (2038400)
I0327 09:12:47.420590  2701 net.cpp:226] Top shape: 50 832 7 7 (2038400)
I0327 09:12:47.420601  2701 net.cpp:226] Top shape: 50 832 7 7 (2038400)
I0327 09:12:47.420611  2701 net.cpp:226] Top shape: 50 832 7 7 (2038400)
I0327 09:12:47.420620  2701 net.cpp:234] Memory required for data: 2762459624
I0327 09:12:47.420630  2701 net.cpp:154] Setting up Layer of device :0 @cpu 0 Layer : inception_5b/1x1
I0327 09:12:47.420639  2701 layer_factory.hpp:114] Creating layer inception_5b/1x1
I0327 09:12:47.420658  2701 net.cpp:169] Creating Layer inception_5b/1x1
I0327 09:12:47.420675  2701 net.cpp:606] inception_5b/1x1 <- inception_5a/output_inception_5a/output_0_split_0
I0327 09:12:47.420689  2701 net.cpp:579] inception_5b/1x1 -> inception_5b/1x1
I0327 09:12:47.420698  2701 net.cpp:582] From AppendTop @cpu: 0
I0327 09:12:47.430526  2701 net.cpp:219] Setting up inception_5b/1x1
I0327 09:12:47.430595  2701 net.cpp:226] Top shape: 50 384 7 7 (940800)
I0327 09:12:47.430604  2701 net.cpp:234] Memory required for data: 2766222824
I0327 09:12:47.430632  2701 net.cpp:154] Setting up Layer of device :0 @cpu 0 Layer : inception_5b/relu_1x1
I0327 09:12:47.430642  2701 layer_factory.hpp:114] Creating layer inception_5b/relu_1x1
I0327 09:12:47.430660  2701 net.cpp:169] Creating Layer inception_5b/relu_1x1
I0327 09:12:47.430675  2701 net.cpp:606] inception_5b/relu_1x1 <- inception_5b/1x1
I0327 09:12:47.430688  2701 net.cpp:566] inception_5b/relu_1x1 -> inception_5b/1x1 (in-place)
I0327 09:12:47.430707  2701 net.cpp:219] Setting up inception_5b/relu_1x1
I0327 09:12:47.430719  2701 net.cpp:226] Top shape: 50 384 7 7 (940800)
I0327 09:12:47.430727  2701 net.cpp:234] Memory required for data: 2769986024
I0327 09:12:47.430737  2701 net.cpp:154] Setting up Layer of device :0 @cpu 0 Layer : inception_5b/3x3_reduce
I0327 09:12:47.430747  2701 layer_factory.hpp:114] Creating layer inception_5b/3x3_reduce
I0327 09:12:47.430765  2701 net.cpp:169] Creating Layer inception_5b/3x3_reduce
I0327 09:12:47.430776  2701 net.cpp:606] inception_5b/3x3_reduce <- inception_5a/output_inception_5a/output_0_split_1
I0327 09:12:47.430794  2701 net.cpp:579] inception_5b/3x3_reduce -> inception_5b/3x3_reduce
I0327 09:12:47.430827  2701 net.cpp:582] From AppendTop @cpu: 0
I0327 09:12:47.436221  2701 net.cpp:219] Setting up inception_5b/3x3_reduce
I0327 09:12:47.436285  2701 net.cpp:226] Top shape: 50 192 7 7 (470400)
I0327 09:12:47.436293  2701 net.cpp:234] Memory required for data: 2771867624
I0327 09:12:47.436318  2701 net.cpp:154] Setting up Layer of device :0 @cpu 0 Layer : inception_5b/relu_3x3_reduce
I0327 09:12:47.436328  2701 layer_factory.hpp:114] Creating layer inception_5b/relu_3x3_reduce
I0327 09:12:47.436347  2701 net.cpp:169] Creating Layer inception_5b/relu_3x3_reduce
I0327 09:12:47.436359  2701 net.cpp:606] inception_5b/relu_3x3_reduce <- inception_5b/3x3_reduce
I0327 09:12:47.436373  2701 net.cpp:566] inception_5b/relu_3x3_reduce -> inception_5b/3x3_reduce (in-place)
I0327 09:12:47.436390  2701 net.cpp:219] Setting up inception_5b/relu_3x3_reduce
I0327 09:12:47.436403  2701 net.cpp:226] Top shape: 50 192 7 7 (470400)
I0327 09:12:47.436410  2701 net.cpp:234] Memory required for data: 2773749224
I0327 09:12:47.436420  2701 net.cpp:154] Setting up Layer of device :0 @cpu 0 Layer : inception_5b/3x3
I0327 09:12:47.436429  2701 layer_factory.hpp:114] Creating layer inception_5b/3x3
I0327 09:12:47.436450  2701 net.cpp:169] Creating Layer inception_5b/3x3
I0327 09:12:47.436461  2701 net.cpp:606] inception_5b/3x3 <- inception_5b/3x3_reduce
I0327 09:12:47.436475  2701 net.cpp:579] inception_5b/3x3 -> inception_5b/3x3
I0327 09:12:47.436483  2701 net.cpp:582] From AppendTop @cpu: 0
I0327 09:12:47.456122  2701 net.cpp:219] Setting up inception_5b/3x3
I0327 09:12:47.456212  2701 net.cpp:226] Top shape: 50 384 7 7 (940800)
I0327 09:12:47.456223  2701 net.cpp:234] Memory required for data: 2777512424
I0327 09:12:47.456254  2701 net.cpp:154] Setting up Layer of device :0 @cpu 0 Layer : inception_5b/relu_3x3
I0327 09:12:47.456264  2701 layer_factory.hpp:114] Creating layer inception_5b/relu_3x3
I0327 09:12:47.456284  2701 net.cpp:169] Creating Layer inception_5b/relu_3x3
I0327 09:12:47.456300  2701 net.cpp:606] inception_5b/relu_3x3 <- inception_5b/3x3
I0327 09:12:47.456315  2701 net.cpp:566] inception_5b/relu_3x3 -> inception_5b/3x3 (in-place)
I0327 09:12:47.456334  2701 net.cpp:219] Setting up inception_5b/relu_3x3
I0327 09:12:47.456346  2701 net.cpp:226] Top shape: 50 384 7 7 (940800)
I0327 09:12:47.456354  2701 net.cpp:234] Memory required for data: 2781275624
I0327 09:12:47.456364  2701 net.cpp:154] Setting up Layer of device :0 @cpu 0 Layer : inception_5b/5x5_reduce
I0327 09:12:47.456393  2701 layer_factory.hpp:114] Creating layer inception_5b/5x5_reduce
I0327 09:12:47.456418  2701 net.cpp:169] Creating Layer inception_5b/5x5_reduce
I0327 09:12:47.456429  2701 net.cpp:606] inception_5b/5x5_reduce <- inception_5a/output_inception_5a/output_0_split_2
I0327 09:12:47.456444  2701 net.cpp:579] inception_5b/5x5_reduce -> inception_5b/5x5_reduce
I0327 09:12:47.456454  2701 net.cpp:582] From AppendTop @cpu: 0
I0327 09:12:47.458704  2701 net.cpp:219] Setting up inception_5b/5x5_reduce
I0327 09:12:47.458741  2701 net.cpp:226] Top shape: 50 48 7 7 (117600)
I0327 09:12:47.458750  2701 net.cpp:234] Memory required for data: 2781746024
I0327 09:12:47.458770  2701 net.cpp:154] Setting up Layer of device :0 @cpu 0 Layer : inception_5b/relu_5x5_reduce
I0327 09:12:47.458780  2701 layer_factory.hpp:114] Creating layer inception_5b/relu_5x5_reduce
I0327 09:12:47.458793  2701 net.cpp:169] Creating Layer inception_5b/relu_5x5_reduce
I0327 09:12:47.458806  2701 net.cpp:606] inception_5b/relu_5x5_reduce <- inception_5b/5x5_reduce
I0327 09:12:47.458818  2701 net.cpp:566] inception_5b/relu_5x5_reduce -> inception_5b/5x5_reduce (in-place)
I0327 09:12:47.458833  2701 net.cpp:219] Setting up inception_5b/relu_5x5_reduce
I0327 09:12:47.458844  2701 net.cpp:226] Top shape: 50 48 7 7 (117600)
I0327 09:12:47.458853  2701 net.cpp:234] Memory required for data: 2782216424
I0327 09:12:47.458863  2701 net.cpp:154] Setting up Layer of device :0 @cpu 0 Layer : inception_5b/5x5
I0327 09:12:47.458871  2701 layer_factory.hpp:114] Creating layer inception_5b/5x5
I0327 09:12:47.458919  2701 net.cpp:169] Creating Layer inception_5b/5x5
I0327 09:12:47.458930  2701 net.cpp:606] inception_5b/5x5 <- inception_5b/5x5_reduce
I0327 09:12:47.458945  2701 net.cpp:579] inception_5b/5x5 -> inception_5b/5x5
I0327 09:12:47.458953  2701 net.cpp:582] From AppendTop @cpu: 0
I0327 09:12:47.464731  2701 net.cpp:219] Setting up inception_5b/5x5
I0327 09:12:47.464797  2701 net.cpp:226] Top shape: 50 128 7 7 (313600)
I0327 09:12:47.464807  2701 net.cpp:234] Memory required for data: 2783470824
I0327 09:12:47.464833  2701 net.cpp:154] Setting up Layer of device :0 @cpu 0 Layer : inception_5b/relu_5x5
I0327 09:12:47.464843  2701 layer_factory.hpp:114] Creating layer inception_5b/relu_5x5
I0327 09:12:47.464864  2701 net.cpp:169] Creating Layer inception_5b/relu_5x5
I0327 09:12:47.464879  2701 net.cpp:606] inception_5b/relu_5x5 <- inception_5b/5x5
I0327 09:12:47.464892  2701 net.cpp:566] inception_5b/relu_5x5 -> inception_5b/5x5 (in-place)
I0327 09:12:47.464910  2701 net.cpp:219] Setting up inception_5b/relu_5x5
I0327 09:12:47.464921  2701 net.cpp:226] Top shape: 50 128 7 7 (313600)
I0327 09:12:47.464929  2701 net.cpp:234] Memory required for data: 2784725224
I0327 09:12:47.464939  2701 net.cpp:154] Setting up Layer of device :0 @cpu 0 Layer : inception_5b/pool
I0327 09:12:47.464948  2701 layer_factory.hpp:114] Creating layer inception_5b/pool
I0327 09:12:47.464996  2701 net.cpp:169] Creating Layer inception_5b/pool
I0327 09:12:47.465011  2701 net.cpp:606] inception_5b/pool <- inception_5a/output_inception_5a/output_0_split_3
I0327 09:12:47.465034  2701 net.cpp:579] inception_5b/pool -> inception_5b/pool
I0327 09:12:47.465044  2701 net.cpp:582] From AppendTop @cpu: 0
I0327 09:12:47.465062  2701 net.cpp:219] Setting up inception_5b/pool
I0327 09:12:47.465075  2701 net.cpp:226] Top shape: 50 832 7 7 (2038400)
I0327 09:12:47.465082  2701 net.cpp:234] Memory required for data: 2792878824
I0327 09:12:47.465093  2701 net.cpp:154] Setting up Layer of device :0 @cpu 0 Layer : inception_5b/pool_proj
I0327 09:12:47.465101  2701 layer_factory.hpp:114] Creating layer inception_5b/pool_proj
I0327 09:12:47.465123  2701 net.cpp:169] Creating Layer inception_5b/pool_proj
I0327 09:12:47.465133  2701 net.cpp:606] inception_5b/pool_proj <- inception_5b/pool
I0327 09:12:47.465149  2701 net.cpp:579] inception_5b/pool_proj -> inception_5b/pool_proj
I0327 09:12:47.465158  2701 net.cpp:582] From AppendTop @cpu: 0
I0327 09:12:47.468942  2701 net.cpp:219] Setting up inception_5b/pool_proj
I0327 09:12:47.468991  2701 net.cpp:226] Top shape: 50 128 7 7 (313600)
I0327 09:12:47.468999  2701 net.cpp:234] Memory required for data: 2794133224
I0327 09:12:47.469029  2701 net.cpp:154] Setting up Layer of device :0 @cpu 0 Layer : inception_5b/relu_pool_proj
I0327 09:12:47.469041  2701 layer_factory.hpp:114] Creating layer inception_5b/relu_pool_proj
I0327 09:12:47.469059  2701 net.cpp:169] Creating Layer inception_5b/relu_pool_proj
I0327 09:12:47.469072  2701 net.cpp:606] inception_5b/relu_pool_proj <- inception_5b/pool_proj
I0327 09:12:47.469086  2701 net.cpp:566] inception_5b/relu_pool_proj -> inception_5b/pool_proj (in-place)
I0327 09:12:47.469102  2701 net.cpp:219] Setting up inception_5b/relu_pool_proj
I0327 09:12:47.469115  2701 net.cpp:226] Top shape: 50 128 7 7 (313600)
I0327 09:12:47.469122  2701 net.cpp:234] Memory required for data: 2795387624
I0327 09:12:47.469132  2701 net.cpp:154] Setting up Layer of device :0 @cpu 0 Layer : inception_5b/output
I0327 09:12:47.469142  2701 layer_factory.hpp:114] Creating layer inception_5b/output
I0327 09:12:47.469154  2701 net.cpp:169] Creating Layer inception_5b/output
I0327 09:12:47.469164  2701 net.cpp:606] inception_5b/output <- inception_5b/1x1
I0327 09:12:47.469175  2701 net.cpp:606] inception_5b/output <- inception_5b/3x3
I0327 09:12:47.469187  2701 net.cpp:606] inception_5b/output <- inception_5b/5x5
I0327 09:12:47.469203  2701 net.cpp:606] inception_5b/output <- inception_5b/pool_proj
I0327 09:12:47.469215  2701 net.cpp:579] inception_5b/output -> inception_5b/output
I0327 09:12:47.469245  2701 net.cpp:582] From AppendTop @cpu: 0
I0327 09:12:47.469264  2701 net.cpp:219] Setting up inception_5b/output
I0327 09:12:47.469275  2701 net.cpp:226] Top shape: 50 1024 7 7 (2508800)
I0327 09:12:47.469283  2701 net.cpp:234] Memory required for data: 2805422824
I0327 09:12:47.469295  2701 net.cpp:154] Setting up Layer of device :0 @cpu 0 Layer : pool5/7x7_s1
I0327 09:12:47.469302  2701 layer_factory.hpp:114] Creating layer pool5/7x7_s1
I0327 09:12:47.469343  2701 net.cpp:169] Creating Layer pool5/7x7_s1
I0327 09:12:47.469353  2701 net.cpp:606] pool5/7x7_s1 <- inception_5b/output
I0327 09:12:47.469370  2701 net.cpp:579] pool5/7x7_s1 -> pool5/7x7_s1
I0327 09:12:47.469378  2701 net.cpp:582] From AppendTop @cpu: 0
I0327 09:12:47.469394  2701 net.cpp:219] Setting up pool5/7x7_s1
I0327 09:12:47.469406  2701 net.cpp:226] Top shape: 50 1024 1 1 (51200)
I0327 09:12:47.469415  2701 net.cpp:234] Memory required for data: 2805627624
I0327 09:12:47.469425  2701 net.cpp:154] Setting up Layer of device :0 @cpu 0 Layer : pool5/drop_7x7_s1
I0327 09:12:47.469434  2701 layer_factory.hpp:114] Creating layer pool5/drop_7x7_s1
I0327 09:12:47.469449  2701 net.cpp:169] Creating Layer pool5/drop_7x7_s1
I0327 09:12:47.469457  2701 net.cpp:606] pool5/drop_7x7_s1 <- pool5/7x7_s1
I0327 09:12:47.469470  2701 net.cpp:566] pool5/drop_7x7_s1 -> pool5/7x7_s1 (in-place)
I0327 09:12:47.469485  2701 net.cpp:219] Setting up pool5/drop_7x7_s1
I0327 09:12:47.469496  2701 net.cpp:226] Top shape: 50 1024 1 1 (51200)
I0327 09:12:47.469504  2701 net.cpp:234] Memory required for data: 2805832424
I0327 09:12:47.469513  2701 net.cpp:154] Setting up Layer of device :0 @cpu 0 Layer : loss3/classifier
I0327 09:12:47.469522  2701 layer_factory.hpp:114] Creating layer loss3/classifier
I0327 09:12:47.469539  2701 net.cpp:169] Creating Layer loss3/classifier
I0327 09:12:47.469549  2701 net.cpp:606] loss3/classifier <- pool5/7x7_s1
I0327 09:12:47.469565  2701 net.cpp:579] loss3/classifier -> loss3/classifier
I0327 09:12:47.469574  2701 net.cpp:582] From AppendTop @cpu: 0
I0327 09:12:47.486939  2701 net.cpp:219] Setting up loss3/classifier
I0327 09:12:47.486991  2701 net.cpp:226] Top shape: 50 1000 (50000)
I0327 09:12:47.487000  2701 net.cpp:234] Memory required for data: 2806032424
I0327 09:12:47.487026  2701 net.cpp:154] Setting up Layer of device :0 @cpu 0 Layer : loss3/classifier_loss3/classifier_0_split
I0327 09:12:47.487038  2701 layer_factory.hpp:114] Creating layer loss3/classifier_loss3/classifier_0_split
I0327 09:12:47.487071  2701 net.cpp:169] Creating Layer loss3/classifier_loss3/classifier_0_split
I0327 09:12:47.487084  2701 net.cpp:606] loss3/classifier_loss3/classifier_0_split <- loss3/classifier
I0327 09:12:47.487102  2701 net.cpp:579] loss3/classifier_loss3/classifier_0_split -> loss3/classifier_loss3/classifier_0_split_0
I0327 09:12:47.487112  2701 net.cpp:582] From AppendTop @cpu: 0
I0327 09:12:47.487128  2701 net.cpp:579] loss3/classifier_loss3/classifier_0_split -> loss3/classifier_loss3/classifier_0_split_1
I0327 09:12:47.487138  2701 net.cpp:582] From AppendTop @cpu: 0
I0327 09:12:47.487151  2701 net.cpp:579] loss3/classifier_loss3/classifier_0_split -> loss3/classifier_loss3/classifier_0_split_2
I0327 09:12:47.487159  2701 net.cpp:582] From AppendTop @cpu: 0
I0327 09:12:47.487175  2701 net.cpp:219] Setting up loss3/classifier_loss3/classifier_0_split
I0327 09:12:47.487186  2701 net.cpp:226] Top shape: 50 1000 (50000)
I0327 09:12:47.487201  2701 net.cpp:226] Top shape: 50 1000 (50000)
I0327 09:12:47.487212  2701 net.cpp:226] Top shape: 50 1000 (50000)
I0327 09:12:47.487221  2701 net.cpp:234] Memory required for data: 2806632424
I0327 09:12:47.487231  2701 net.cpp:154] Setting up Layer of device :0 @cpu 0 Layer : loss3/loss3
I0327 09:12:47.487239  2701 layer_factory.hpp:114] Creating layer loss3/loss3
I0327 09:12:47.487251  2701 net.cpp:169] Creating Layer loss3/loss3
I0327 09:12:47.487260  2701 net.cpp:606] loss3/loss3 <- loss3/classifier_loss3/classifier_0_split_0
…
