…
I0327 08:47:25.497352 48953 net.cpp:493] The NetState phase (0) differed from the phase (1) specified by a rule in layer loss3/top-5
I0327 08:47:25.504848 48953 net.cpp:125] Initializing net from parameters: 
name: "GoogleNet"
state {
  phase: TRAIN
  level: 0
  stage: ""
}
layer {
  name: "data"
  type: "Data"
  top: "data"
  top: "label"
  include {
    phase: TRAIN
  }
  transform_param {
    mirror: true
    crop_size: 224
    mean_value: 104
    mean_value: 117
    mean_value: 123
  }
  data_param {
    source: "/home/user/user/LIBRARIES/caffeLibs/caffe/examples/imagenet/ilsvrc12_train_lmdb"
    batch_size: 24
    backend: LMDB
  }
}
layer {
  name: "label_data_1_split"
  type: "Split"
  bottom: "label"
  top: "label_data_1_split_0"
  top: "label_data_1_split_1"
  top: "label_data_1_split_2"
}
layer {
  name: "conv1/7x7_s2"
  type: "Convolution"
  bottom: "data"
  top: "conv1/7x7_s2"
  param {
    lr_mult: 1
    decay_mult: 1
  }
  param {
    lr_mult: 2
    decay_mult: 0
  }
  convolution_param {
    num_output: 64
    pad: 3
    kernel_size: 7
    stride: 2
    weight_filler {
      type: "xavier"
    }
    bias_filler {
      type: "constant"
      value: 0.2
    }
  }
}
layer {
  name: "conv1/relu_7x7"
  type: "ReLU"
  bottom: "conv1/7x7_s2"
  top: "conv1/7x7_s2"
}
layer {
  name: "pool1/3x3_s2"
  type: "Pooling"
  bottom: "conv1/7x7_s2"
  top: "pool1/3x3_s2"
  pooling_param {
    pool: MAX
    kernel_size: 3
    stride: 2
  }
}
layer {
  name: "pool1/norm1"
  type: "LRN"
  bottom: "pool1/3x3_s2"
  top: "pool1/norm1"
  lrn_param {
    local_size: 5
    alpha: 0.0001
    beta: 0.75
  }
}
layer {
  name: "conv2/3x3_reduce"
  type: "Convolution"
  bottom: "pool1/norm1"
  top: "conv2/3x3_reduce"
  param {
    lr_mult: 1
    decay_mult: 1
  }
  param {
    lr_mult: 2
    decay_mult: 0
  }
  convolution_param {
    num_output: 64
    kernel_size: 1
    weight_filler {
      type: "xavier"
    }
    bias_filler {
      type: "constant"
      value: 0.2
    }
  }
}
layer {
  name: "conv2/relu_3x3_reduce"
  type: "ReLU"
  bottom: "conv2/3x3_reduce"
  top: "conv2/3x3_reduce"
}
layer {
  name: "conv2/3x3"
  type: "Convolution"
  bottom: "conv2/3x3_reduce"
  top: "conv2/3x3"
  param {
    lr_mult: 1
    decay_mult: 1
  }
  param {
    lr_mult: 2
    decay_mult: 0
  }
  convolution_param {
    num_output: 192
    pad: 1
    kernel_size: 3
    weight_filler {
      type: "xavier"
    }
    bias_filler {
      type: "constant"
      value: 0.2
    }
  }
}
layer {
  name: "conv2/relu_3x3"
  type: "ReLU"
  bottom: "conv2/3x3"
  top: "conv2/3x3"
}
layer {
  name: "conv2/norm2"
  type: "LRN"
  bottom: "conv2/3x3"
  top: "conv2/norm2"
  lrn_param {
    local_size: 5
    alpha: 0.0001
    beta: 0.75
  }
}
layer {
  name: "pool2/3x3_s2"
  type: "Pooling"
  bottom: "conv2/norm2"
  top: "pool2/3x3_s2"
  pooling_param {
    pool: MAX
    kernel_size: 3
    stride: 2
  }
}
layer {
  name: "pool2/3x3_s2_pool2/3x3_s2_0_split"
  type: "Split"
  bottom: "pool2/3x3_s2"
  top: "pool2/3x3_s2_pool2/3x3_s2_0_split_0"
  top: "pool2/3x3_s2_pool2/3x3_s2_0_split_1"
  top: "pool2/3x3_s2_pool2/3x3_s2_0_split_2"
  top: "pool2/3x3_s2_pool2/3x3_s2_0_split_3"
}
layer {
  name: "inception_3a/1x1"
  type: "Convolution"
  bottom: "pool2/3x3_s2_pool2/3x3_s2_0_split_0"
  top: "inception_3a/1x1"
  param {
    lr_mult: 1
    decay_mult: 1
  }
  param {
    lr_mult: 2
    decay_mult: 0
  }
  convolution_param {
    num_output: 64
    kernel_size: 1
    weight_filler {
      type: "xavier"
    }
    bias_filler {
      type: "constant"
      value: 0.2
    }
  }
}
layer {
  name: "inception_3a/relu_1x1"
  type: "ReLU"
  bottom: "inception_3a/1x1"
  top: "inception_3a/1x1"
}
layer {
  name: "inception_3a/3x3_reduce"
  type: "Convolution"
  bottom: "pool2/3x3_s2_pool2/3x3_s2_0_split_1"
  top: "inception_3a/3x3_reduce"
  param {
    lr_mult: 1
    decay_mult: 1
  }
  param {
    lr_mult: 2
    decay_mult: 0
  }
  convolution_param {
    num_output: 96
    kernel_size: 1
    weight_filler {
      type: "xavier"
    }
    bias_filler {
      type: "constant"
      value: 0.2
    }
  }
}
layer {
  name: "inception_3a/relu_3x3_reduce"
  type: "ReLU"
  bottom: "inception_3a/3x3_reduce"
  top: "inception_3a/3x3_reduce"
}
layer {
  name: "inception_3a/3x3"
  type: "Convolution"
  bottom: "inception_3a/3x3_reduce"
  top: "inception_3a/3x3"
  param {
    lr_mult: 1
    decay_mult: 1
  }
  param {
    lr_mult: 2
    decay_mult: 0
  }
  convolution_param {
    num_output: 128
    pad: 1
    kernel_size: 3
    weight_filler {
      type: "xavier"
    }
    bias_filler {
      type: "constant"
      value: 0.2
    }
  }
}
layer {
  name: "inception_3a/relu_3x3"
  type: "ReLU"
  bottom: "inception_3a/3x3"
  top: "inception_3a/3x3"
}
layer {
  name: "inception_3a/5x5_reduce"
  type: "Convolution"
  bottom: "pool2/3x3_s2_pool2/3x3_s2_0_split_2"
  top: "inception_3a/5x5_reduce"
  param {
    lr_mult: 1
    decay_mult: 1
  }
  param {
    lr_mult: 2
    decay_mult: 0
  }
  convolution_param {
    num_output: 16
    kernel_size: 1
    weight_filler {
      type: "xavier"
    }
    bias_filler {
      type: "constant"
      value: 0.2
    }
  }
}
layer {
  name: "inception_3a/relu_5x5_reduce"
  type: "ReLU"
  bottom: "inception_3a/5x5_reduce"
  top: "inception_3a/5x5_reduce"
}
layer {
  name: "inception_3a/5x5"
  type: "Convolution"
  bottom: "inception_3a/5x5_reduce"
  top: "inception_3a/5x5"
  param {
    lr_mult: 1
    decay_mult: 1
  }
  param {
    lr_mult: 2
    decay_mult: 0
  }
  convolution_param {
    num_output: 32
    pad: 2
    kernel_size: 5
    weight_filler {
      type: "xavier"
    }
    bias_filler {
      type: "constant"
      value: 0.2
    }
  }
}
layer {
  name: "inception_3a/relu_5x5"
  type: "ReLU"
  bottom: "inception_3a/5x5"
  top: "inception_3a/5x5"
}
layer {
  name: "inception_3a/pool"
  type: "Pooling"
  bottom: "pool2/3x3_s2_pool2/3x3_s2_0_split_3"
  top: "inception_3a/pool"
  pooling_param {
    pool: MAX
    kernel_size: 3
    stride: 1
    pad: 1
  }
}
layer {
  name: "inception_3a/pool_proj"
  type: "Convolution"
  bottom: "inception_3a/pool"
  top: "inception_3a/pool_proj"
  param {
    lr_mult: 1
    decay_mult: 1
  }
  param {
    lr_mult: 2
    decay_mult: 0
  }
  convolution_param {
    num_output: 32
    kernel_size: 1
    weight_filler {
      type: "xavier"
    }
    bias_filler {
      type: "constant"
      value: 0.2
    }
  }
}
layer {
  name: "inception_3a/relu_pool_proj"
  type: "ReLU"
  bottom: "inception_3a/pool_proj"
  top: "inception_3a/pool_proj"
}
layer {
  name: "inception_3a/output"
  type: "Concat"
  bottom: "inception_3a/1x1"
  bottom: "inception_3a/3x3"
  bottom: "inception_3a/5x5"
  bottom: "inception_3a/pool_proj"
  top: "inception_3a/output"
}
layer {
  name: "inception_3a/output_inception_3a/output_0_split"
  type: "Split"
  bottom: "inception_3a/output"
  top: "inception_3a/output_inception_3a/output_0_split_0"
  top: "inception_3a/output_inception_3a/output_0_split_1"
  top: "inception_3a/output_inception_3a/output_0_split_2"
  top: "inception_3a/output_inception_3a/output_0_split_3"
}
layer {
  name: "inception_3b/1x1"
  type: "Convolution"
  bottom: "inception_3a/output_inception_3a/output_0_split_0"
  top: "inception_3b/1x1"
  param {
    lr_mult: 1
    decay_mult: 1
  }
  param {
    lr_mult: 2
    decay_mult: 0
  }
  convolution_param {
    num_output: 128
    kernel_size: 1
    weight_filler {
      type: "xavier"
    }
    bias_filler {
      type: "constant"
      value: 0.2
    }
  }
}
layer {
  name: "inception_3b/relu_1x1"
  type: "ReLU"
  bottom: "inception_3b/1x1"
  top: "inception_3b/1x1"
}
layer {
  name: "inception_3b/3x3_reduce"
  type: "Convolution"
  bottom: "inception_3a/output_inception_3a/output_0_split_1"
  top: "inception_3b/3x3_reduce"
  param {
    lr_mult: 1
    decay_mult: 1
  }
  param {
    lr_mult: 2
    decay_mult: 0
  }
  convolution_param {
    num_output: 128
    kernel_size: 1
    weight_filler {
      type: "xavier"
    }
    bias_filler {
      type: "constant"
      value: 0.2
    }
  }
}
layer {
  name: "inception_3b/relu_3x3_reduce"
  type: "ReLU"
  bottom: "inception_3b/3x3_reduce"
  top: "inception_3b/3x3_reduce"
}
layer {
  name: "inception_3b/3x3"
  type: "Convolution"
  bottom: "inception_3b/3x3_reduce"
  top: "inception_3b/3x3"
  param {
    lr_mult: 1
    decay_mult: 1
  }
  param {
    lr_mult: 2
    decay_mult: 0
  }
  convolution_param {
    num_output: 192
    pad: 1
    kernel_size: 3
    weight_filler {
      type: "xavier"
    }
    bias_filler {
      type: "constant"
      value: 0.2
    }
  }
}
layer {
  name: "inception_3b/relu_3x3"
  type: "ReLU"
  bottom: "inception_3b/3x3"
  top: "inception_3b/3x3"
}
layer {
  name: "inception_3b/5x5_reduce"
  type: "Convolution"
  bottom: "inception_3a/output_inception_3a/output_0_split_2"
  top: "inception_3b/5x5_reduce"
  param {
    lr_mult: 1
    decay_mult: 1
  }
  param {
    lr_mult: 2
    decay_mult: 0
  }
  convolution_param {
    num_output: 32
    kernel_size: 1
    weight_filler {
      type: "xavier"
    }
    bias_filler {
      type: "constant"
      value: 0.2
    }
  }
}
layer {
  name: "inception_3b/relu_5x5_reduce"
  type: "ReLU"
  bottom: "inception_3b/5x5_reduce"
  top: "inception_3b/5x5_reduce"
}
layer {
  name: "inception_3b/5x5"
  type: "Convolution"
  bottom: "inception_3b/5x5_reduce"
  top: "inception_3b/5x5"
  param {
    lr_mult: 1
    decay_mult: 1
  }
  param {
    lr_mult: 2
    decay_mult: 0
  }
  convolution_param {
    num_output: 96
    pad: 2
    kernel_size: 5
    weight_filler {
      type: "xavier"
    }
    bias_filler {
      type: "constant"
      value: 0.2
    }
  }
}
layer {
  name: "inception_3b/relu_5x5"
  type: "ReLU"
  bottom: "inception_3b/5x5"
  top: "inception_3b/5x5"
}
layer {
  name: "inception_3b/pool"
  type: "Pooling"
  bottom: "inception_3a/output_inception_3a/output_0_split_3"
  top: "inception_3b/pool"
  pooling_param {
    pool: MAX
    kernel_size: 3
    stride: 1
    pad: 1
  }
}
layer {
  name: "inception_3b/pool_proj"
  type: "Convolution"
  bottom: "inception_3b/pool"
  top: "inception_3b/pool_proj"
  param {
    lr_mult: 1
    decay_mult: 1
  }
  param {
    lr_mult: 2
    decay_mult: 0
  }
  convolution_param {
    num_output: 64
    kernel_size: 1
    weight_filler {
      type: "xavier"
    }
    bias_filler {
      type: "constant"
      value: 0.2
    }
  }
}
layer {
  name: "inception_3b/relu_pool_proj"
  type: "ReLU"
  bottom: "inception_3b/pool_proj"
  top: "inception_3b/pool_proj"
}
layer {
  name: "inception_3b/output"
  type: "Concat"
  bottom: "inception_3b/1x1"
  bottom: "inception_3b/3x3"
  bottom: "inception_3b/5x5"
  bottom: "inception_3b/pool_proj"
  top: "inception_3b/output"
}
layer {
  name: "pool3/3x3_s2"
  type: "Pooling"
  bottom: "inception_3b/output"
  top: "pool3/3x3_s2"
  pooling_param {
    pool: MAX
    kernel_size: 3
    stride: 2
  }
}
layer {
  name: "pool3/3x3_s2_pool3/3x3_s2_0_split"
  type: "Split"
  bottom: "pool3/3x3_s2"
  top: "pool3/3x3_s2_pool3/3x3_s2_0_split_0"
  top: "pool3/3x3_s2_pool3/3x3_s2_0_split_1"
  top: "pool3/3x3_s2_pool3/3x3_s2_0_split_2"
  top: "pool3/3x3_s2_pool3/3x3_s2_0_split_3"
}
layer {
  name: "inception_4a/1x1"
  type: "Convolution"
  bottom: "pool3/3x3_s2_pool3/3x3_s2_0_split_0"
  top: "inception_4a/1x1"
  param {
    lr_mult: 1
    decay_mult: 1
  }
  param {
    lr_mult: 2
    decay_mult: 0
  }
  convolution_param {
    num_output: 192
    kernel_size: 1
    weight_filler {
      type: "xavier"
    }
    bias_filler {
      type: "constant"
      value: 0.2
    }
  }
}
layer {
  name: "inception_4a/relu_1x1"
  type: "ReLU"
  bottom: "inception_4a/1x1"
  top: "inception_4a/1x1"
}
layer {
  name: "inception_4a/3x3_reduce"
  type: "Convolution"
  bottom: "pool3/3x3_s2_pool3/3x3_s2_0_split_1"
  top: "inception_4a/3x3_reduce"
  param {
    lr_mult: 1
    decay_mult: 1
  }
  param {
    lr_mult: 2
    decay_mult: 0
  }
  convolution_param {
    num_output: 96
    kernel_size: 1
    weight_filler {
      type: "xavier"
    }
    bias_filler {
      type: "constant"
      value: 0.2
    }
  }
}
layer {
  name: "inception_4a/relu_3x3_reduce"
  type: "ReLU"
  bottom: "inception_4a/3x3_reduce"
  top: "inception_4a/3x3_reduce"
}
layer {
  name: "inception_4a/3x3"
  type: "Convolution"
  bottom: "inception_4a/3x3_reduce"
  top: "inception_4a/3x3"
  param {
    lr_mult: 1
    decay_mult: 1
  }
  param {
    lr_mult: 2
    decay_mult: 0
  }
  convolution_param {
    num_output: 208
    pad: 1
    kernel_size: 3
    weight_filler {
      type: "xavier"
    }
    bias_filler {
      type: "constant"
      value: 0.2
    }
  }
}
layer {
  name: "inception_4a/relu_3x3"
  type: "ReLU"
  bottom: "inception_4a/3x3"
  top: "inception_4a/3x3"
}
layer {
  name: "inception_4a/5x5_reduce"
  type: "Convolution"
  bottom: "pool3/3x3_s2_pool3/3x3_s2_0_split_2"
  top: "inception_4a/5x5_reduce"
  param {
    lr_mult: 1
    decay_mult: 1
  }
  param {
    lr_mult: 2
    decay_mult: 0
  }
  convolution_param {
    num_output: 16
    kernel_size: 1
    weight_filler {
      type: "xavier"
    }
    bias_filler {
      type: "constant"
      value: 0.2
    }
  }
}
layer {
  name: "inception_4a/relu_5x5_reduce"
  type: "ReLU"
  bottom: "inception_4a/5x5_reduce"
  top: "inception_4a/5x5_reduce"
}
layer {
  name: "inception_4a/5x5"
  type: "Convolution"
  bottom: "inception_4a/5x5_reduce"
  top: "inception_4a/5x5"
  param {
    lr_mult: 1
    decay_mult: 1
  }
  param {
    lr_mult: 2
    decay_mult: 0
  }
  convolution_param {
    num_output: 48
    pad: 2
    kernel_size: 5
    weight_filler {
      type: "xavier"
    }
    bias_filler {
      type: "constant"
      value: 0.2
    }
  }
}
layer {
  name: "inception_4a/relu_5x5"
  type: "ReLU"
  bottom: "inception_4a/5x5"
  top: "inception_4a/5x5"
}
layer {
  name: "inception_4a/pool"
  type: "Pooling"
  bottom: "pool3/3x3_s2_pool3/3x3_s2_0_split_3"
  top: "inception_4a/pool"
  pooling_param {
    pool: MAX
    kernel_size: 3
    stride: 1
    pad: 1
  }
}
layer {
  name: "inception_4a/pool_proj"
  type: "Convolution"
  bottom: "inception_4a/pool"
  top: "inception_4a/pool_proj"
  param {
    lr_mult: 1
    decay_mult: 1
  }
  param {
    lr_mult: 2
    decay_mult: 0
  }
  convolution_param {
    num_output: 64
    kernel_size: 1
    weight_filler {
      type: "xavier"
    }
    bias_filler {
      type: "constant"
      value: 0.2
    }
  }
}
layer {
  name: "inception_4a/relu_pool_proj"
  type: "ReLU"
  bottom: "inception_4a/pool_proj"
  top: "inception_4a/pool_proj"
}
layer {
  name: "inception_4a/output"
  type: "Concat"
  bottom: "inception_4a/1x1"
  bottom: "inception_4a/3x3"
  bottom: "inception_4a/5x5"
  bottom: "inception_4a/pool_proj"
  top: "inception_4a/output"
}
layer {
  name: "inception_4a/output_inception_4a/output_0_split"
  type: "Split"
  bottom: "inception_4a/output"
  top: "inception_4a/output_inception_4a/output_0_split_0"
  top: "inception_4a/output_inception_4a/output_0_split_1"
  top: "inception_4a/output_inception_4a/output_0_split_2"
  top: "inception_4a/output_inception_4a/output_0_split_3"
  top: "inception_4a/output_inception_4a/output_0_split_4"
}
layer {
  name: "loss1/ave_pool"
  type: "Pooling"
  bottom: "inception_4a/output_inception_4a/output_0_split_0"
  top: "loss1/ave_pool"
  pooling_param {
    pool: AVE
    kernel_size: 5
    stride: 3
  }
}
layer {
  name: "loss1/conv"
  type: "Convolution"
  bottom: "loss1/ave_pool"
  top: "loss1/conv"
  param {
    lr_mult: 1
    decay_mult: 1
  }
  param {
    lr_mult: 2
    decay_mult: 0
  }
  convolution_param {
    num_output: 128
    kernel_size: 1
    weight_filler {
      type: "xavier"
    }
    bias_filler {
      type: "constant"
      value: 0.2
    }
  }
}
layer {
  name: "loss1/relu_conv"
  type: "ReLU"
  bottom: "loss1/conv"
  top: "loss1/conv"
}
layer {
  name: "loss1/fc"
  type: "InnerProduct"
  bottom: "loss1/conv"
  top: "loss1/fc"
  param {
    lr_mult: 1
    decay_mult: 1
  }
  param {
    lr_mult: 2
    decay_mult: 0
  }
  inner_product_param {
    num_output: 1024
    weight_filler {
      type: "xavier"
    }
    bias_filler {
      type: "constant"
      value: 0.2
    }
  }
}
layer {
  name: "loss1/relu_fc"
  type: "ReLU"
  bottom: "loss1/fc"
  top: "loss1/fc"
}
layer {
  name: "loss1/drop_fc"
  type: "Dropout"
  bottom: "loss1/fc"
  top: "loss1/fc"
  dropout_param {
    dropout_ratio: 0.7
  }
}
layer {
  name: "loss1/classifier"
  type: "InnerProduct"
  bottom: "loss1/fc"
  top: "loss1/classifier"
  param {
    lr_mult: 1
    decay_mult: 1
  }
  param {
    lr_mult: 2
    decay_mult: 0
  }
  inner_product_param {
    num_output: 1000
    weight_filler {
      type: "xavier"
    }
    bias_filler {
      type: "constant"
      value: 0
    }
  }
}
layer {
  name: "loss1/loss"
  type: "SoftmaxWithLoss"
  bottom: "loss1/classifier"
  bottom: "label_data_1_split_0"
  top: "loss1/loss1"
  loss_weight: 0.3
}
layer {
  name: "inception_4b/1x1"
  type: "Convolution"
  bottom: "inception_4a/output_inception_4a/output_0_split_1"
  top: "inception_4b/1x1"
  param {
    lr_mult: 1
    decay_mult: 1
  }
  param {
    lr_mult: 2
    decay_mult: 0
  }
  convolution_param {
    num_output: 160
    kernel_size: 1
    weight_filler {
      type: "xavier"
    }
    bias_filler {
      type: "constant"
      value: 0.2
    }
  }
}
layer {
  name: "inception_4b/relu_1x1"
  type: "ReLU"
  bottom: "inception_4b/1x1"
  top: "inception_4b/1x1"
}
layer {
  name: "inception_4b/3x3_reduce"
  type: "Convolution"
  bottom: "inception_4a/output_inception_4a/output_0_split_2"
  top: "inception_4b/3x3_reduce"
  param {
    lr_mult: 1
    decay_mult: 1
  }
  param {
    lr_mult: 2
    decay_mult: 0
  }
  convolution_param {
    num_output: 112
    kernel_size: 1
    weight_filler {
      type: "xavier"
    }
    bias_filler {
      type: "constant"
      value: 0.2
    }
  }
}
layer {
  name: "inception_4b/relu_3x3_reduce"
  type: "ReLU"
  bottom: "inception_4b/3x3_reduce"
  top: "inception_4b/3x3_reduce"
}
layer {
  name: "inception_4b/3x3"
  type: "Convolution"
  bottom: "inception_4b/3x3_reduce"
  top: "inception_4b/3x3"
  param {
    lr_mult: 1
    decay_mult: 1
  }
  param {
    lr_mult: 2
    decay_mult: 0
  }
  convolution_param {
    num_output: 224
    pad: 1
    kernel_size: 3
    weight_filler {
      type: "xavier"
    }
    bias_filler {
      type: "constant"
      value: 0.2
    }
  }
}
layer {
  name: "inception_4b/relu_3x3"
  type: "ReLU"
  bottom: "inception_4b/3x3"
  top: "inception_4b/3x3"
}
layer {
  name: "inception_4b/5x5_reduce"
  type: "Convolution"
  bottom: "inception_4a/output_inception_4a/output_0_split_3"
  top: "inception_4b/5x5_reduce"
  param {
    lr_mult: 1
    decay_mult: 1
  }
  param {
    lr_mult: 2
    decay_mult: 0
  }
  convolution_param {
    num_output: 24
    kernel_size: 1
    weight_filler {
      type: "xavier"
    }
    bias_filler {
      type: "constant"
      value: 0.2
    }
  }
}
layer {
  name: "inception_4b/relu_5x5_reduce"
  type: "ReLU"
  bottom: "inception_4b/5x5_reduce"
  top: "inception_4b/5x5_reduce"
}
layer {
  name: "inception_4b/5x5"
  type: "Convolution"
  bottom: "inception_4b/5x5_reduce"
  top: "inception_4b/5x5"
  param {
    lr_mult: 1
    decay_mult: 1
  }
  param {
    lr_mult: 2
    decay_mult: 0
  }
  convolution_param {
    num_output: 64
    pad: 2
    kernel_size: 5
    weight_filler {
      type: "xavier"
    }
    bias_filler {
      type: "constant"
      value: 0.2
    }
  }
}
layer {
  name: "inception_4b/relu_5x5"
  type: "ReLU"
  bottom: "inception_4b/5x5"
  top: "inception_4b/5x5"
}
layer {
  name: "inception_4b/pool"
  type: "Pooling"
  bottom: "inception_4a/output_inception_4a/output_0_split_4"
  top: "inception_4b/pool"
  pooling_param {
    pool: MAX
    kernel_size: 3
    stride: 1
    pad: 1
  }
}
layer {
  name: "inception_4b/pool_proj"
  type: "Convolution"
  bottom: "inception_4b/pool"
  top: "inception_4b/pool_proj"
  param {
    lr_mult: 1
    decay_mult: 1
  }
  param {
    lr_mult: 2
    decay_mult: 0
  }
  convolution_param {
    num_output: 64
    kernel_size: 1
    weight_filler {
      type: "xavier"
    }
    bias_filler {
      type: "constant"
      value: 0.2
    }
  }
}
layer {
  name: "inception_4b/relu_pool_proj"
  type: "ReLU"
  bottom: "inception_4b/pool_proj"
  top: "inception_4b/pool_proj"
}
layer {
  name: "inception_4b/output"
  type: "Concat"
  bottom: "inception_4b/1x1"
  bottom: "inception_4b/3x3"
  bottom: "inception_4b/5x5"
  bottom: "inception_4b/pool_proj"
  top: "inception_4b/output"
}
layer {
  name: "inception_4b/output_inception_4b/output_0_split"
  type: "Split"
  bottom: "inception_4b/output"
  top: "inception_4b/output_inception_4b/output_0_split_0"
  top: "inception_4b/output_inception_4b/output_0_split_1"
  top: "inception_4b/output_inception_4b/output_0_split_2"
  top: "inception_4b/output_inception_4b/output_0_split_3"
}
layer {
  name: "inception_4c/1x1"
  type: "Convolution"
  bottom: "inception_4b/output_inception_4b/output_0_split_0"
  top: "inception_4c/1x1"
  param {
    lr_mult: 1
    decay_mult: 1
  }
  param {
    lr_mult: 2
    decay_mult: 0
  }
  convolution_param {
    num_output: 128
    kernel_size: 1
    weight_filler {
      type: "xavier"
    }
    bias_filler {
      type: "constant"
      value: 0.2
    }
  }
}
layer {
  name: "inception_4c/relu_1x1"
  type: "ReLU"
  bottom: "inception_4c/1x1"
  top: "inception_4c/1x1"
}
layer {
  name: "inception_4c/3x3_reduce"
  type: "Convolution"
  bottom: "inception_4b/output_inception_4b/output_0_split_1"
  top: "inception_4c/3x3_reduce"
  param {
    lr_mult: 1
    decay_mult: 1
  }
  param {
    lr_mult: 2
    decay_mult: 0
  }
  convolution_param {
    num_output: 128
    kernel_size: 1
    weight_filler {
      type: "xavier"
    }
    bias_filler {
      type: "constant"
      value: 0.2
    }
  }
}
layer {
  name: "inception_4c/relu_3x3_reduce"
  type: "ReLU"
  bottom: "inception_4c/3x3_reduce"
  top: "inception_4c/3x3_reduce"
}
layer {
  name: "inception_4c/3x3"
  type: "Convolution"
  bottom: "inception_4c/3x3_reduce"
  top: "inception_4c/3x3"
  param {
    lr_mult: 1
    decay_mult: 1
  }
  param {
    lr_mult: 2
    decay_mult: 0
  }
  convolution_param {
    num_output: 256
    pad: 1
    kernel_size: 3
    weight_filler {
      type: "xavier"
    }
    bias_filler {
      type: "constant"
      value: 0.2
    }
  }
}
layer {
  name: "inception_4c/relu_3x3"
  type: "ReLU"
  bottom: "inception_4c/3x3"
  top: "inception_4c/3x3"
}
layer {
  name: "inception_4c/5x5_reduce"
  type: "Convolution"
  bottom: "inception_4b/output_inception_4b/output_0_split_2"
  top: "inception_4c/5x5_reduce"
  param {
    lr_mult: 1
    decay_mult: 1
  }
  param {
    lr_mult: 2
    decay_mult: 0
  }
  convolution_param {
    num_output: 24
    kernel_size: 1
    weight_filler {
      type: "xavier"
    }
    bias_filler {
      type: "constant"
      value: 0.2
    }
  }
}
layer {
  name: "inception_4c/relu_5x5_reduce"
  type: "ReLU"
  bottom: "inception_4c/5x5_reduce"
  top: "inception_4c/5x5_reduce"
}
layer {
  name: "inception_4c/5x5"
  type: "Convolution"
  bottom: "inception_4c/5x5_reduce"
  top: "inception_4c/5x5"
  param {
    lr_mult: 1
    decay_mult: 1
  }
  param {
    lr_mult: 2
    decay_mult: 0
  }
  convolution_param {
    num_output: 64
    pad: 2
    kernel_size: 5
    weight_filler {
      type: "xavier"
    }
    bias_filler {
      type: "constant"
      value: 0.2
    }
  }
}
layer {
  name: "inception_4c/relu_5x5"
  type: "ReLU"
  bottom: "inception_4c/5x5"
  top: "inception_4c/5x5"
}
layer {
  name: "inception_4c/pool"
  type: "Pooling"
  bottom: "inception_4b/output_inception_4b/output_0_split_3"
  top: "inception_4c/pool"
  pooling_param {
    pool: MAX
    kernel_size: 3
    stride: 1
    pad: 1
  }
}
layer {
  name: "inception_4c/pool_proj"
  type: "Convolution"
  bottom: "inception_4c/pool"
  top: "inception_4c/pool_proj"
  param {
    lr_mult: 1
    decay_mult: 1
  }
  param {
    lr_mult: 2
    decay_mult: 0
  }
  convolution_param {
    num_output: 64
    kernel_size: 1
    weight_filler {
      type: "xavier"
    }
    bias_filler {
      type: "constant"
      value: 0.2
    }
  }
}
layer {
  name: "inception_4c/relu_pool_proj"
  type: "ReLU"
  bottom: "inception_4c/pool_proj"
  top: "inception_4c/pool_proj"
}
layer {
  name: "inception_4c/output"
  type: "Concat"
  bottom: "inception_4c/1x1"
  bottom: "inception_4c/3x3"
  bottom: "inception_4c/5x5"
  bottom: "inception_4c/pool_proj"
  top: "inception_4c/output"
}
layer {
  name: "inception_4c/output_inception_4c/output_0_split"
  type: "Split"
  bottom: "inception_4c/output"
  top: "inception_4c/output_inception_4c/output_0_split_0"
  top: "inception_4c/output_inception_4c/output_0_split_1"
  top: "inception_4c/output_inception_4c/output_0_split_2"
  top: "inception_4c/output_inception_4c/output_0_split_3"
}
layer {
  name: "inception_4d/1x1"
  type: "Convolution"
  bottom: "inception_4c/output_inception_4c/output_0_split_0"
  top: "inception_4d/1x1"
  param {
    lr_mult: 1
    decay_mult: 1
  }
  param {
    lr_mult: 2
    decay_mult: 0
  }
  convolution_param {
    num_output: 112
    kernel_size: 1
    weight_filler {
      type: "xavier"
    }
    bias_filler {
      type: "constant"
      value: 0.2
    }
  }
}
layer {
  name: "inception_4d/relu_1x1"
  type: "ReLU"
  bottom: "inception_4d/1x1"
  top: "inception_4d/1x1"
}
layer {
  name: "inception_4d/3x3_reduce"
  type: "Convolution"
  bottom: "inception_4c/output_inception_4c/output_0_split_1"
  top: "inception_4d/3x3_reduce"
  param {
    lr_mult: 1
    decay_mult: 1
  }
  param {
    lr_mult: 2
    decay_mult: 0
  }
  convolution_param {
    num_output: 144
    kernel_size: 1
    weight_filler {
      type: "xavier"
    }
    bias_filler {
      type: "constant"
      value: 0.2
    }
  }
}
layer {
  name: "inception_4d/relu_3x3_reduce"
  type: "ReLU"
  bottom: "inception_4d/3x3_reduce"
  top: "inception_4d/3x3_reduce"
}
layer {
  name: "inception_4d/3x3"
  type: "Convolution"
  bottom: "inception_4d/3x3_reduce"
  top: "inception_4d/3x3"
  param {
    lr_mult: 1
    decay_mult: 1
  }
  param {
    lr_mult: 2
    decay_mult: 0
  }
  convolution_param {
    num_output: 288
    pad: 1
    kernel_size: 3
    weight_filler {
      type: "xavier"
    }
    bias_filler {
      type: "constant"
      value: 0.2
    }
  }
}
layer {
  name: "inception_4d/relu_3x3"
  type: "ReLU"
  bottom: "inception_4d/3x3"
  top: "inception_4d/3x3"
}
layer {
  name: "inception_4d/5x5_reduce"
  type: "Convolution"
  bottom: "inception_4c/output_inception_4c/output_0_split_2"
  top: "inception_4d/5x5_reduce"
  param {
    lr_mult: 1
    decay_mult: 1
  }
  param {
    lr_mult: 2
    decay_mult: 0
  }
  convolution_param {
    num_output: 32
    kernel_size: 1
    weight_filler {
      type: "xavier"
    }
    bias_filler {
      type: "constant"
      value: 0.2
    }
  }
}
layer {
  name: "inception_4d/relu_5x5_reduce"
  type: "ReLU"
  bottom: "inception_4d/5x5_reduce"
  top: "inception_4d/5x5_reduce"
}
layer {
  name: "inception_4d/5x5"
  type: "Convolution"
  bottom: "inception_4d/5x5_reduce"
  top: "inception_4d/5x5"
  param {
    lr_mult: 1
    decay_mult: 1
  }
  param {
    lr_mult: 2
    decay_mult: 0
  }
  convolution_param {
    num_output: 64
    pad: 2
    kernel_size: 5
    weight_filler {
      type: "xavier"
    }
    bias_filler {
      type: "constant"
      value: 0.2
    }
  }
}
layer {
  name: "inception_4d/relu_5x5"
  type: "ReLU"
  bottom: "inception_4d/5x5"
  top: "inception_4d/5x5"
}
layer {
  name: "inception_4d/pool"
  type: "Pooling"
  bottom: "inception_4c/output_inception_4c/output_0_split_3"
  top: "inception_4d/pool"
  pooling_param {
    pool: MAX
    kernel_size: 3
    stride: 1
    pad: 1
  }
}
layer {
  name: "inception_4d/pool_proj"
  type: "Convolution"
  bottom: "inception_4d/pool"
  top: "inception_4d/pool_proj"
  param {
    lr_mult: 1
    decay_mult: 1
  }
  param {
    lr_mult: 2
    decay_mult: 0
  }
  convolution_param {
    num_output: 64
    kernel_size: 1
    weight_filler {
      type: "xavier"
    }
    bias_filler {
      type: "constant"
      value: 0.2
    }
  }
}
layer {
  name: "inception_4d/relu_pool_proj"
  type: "ReLU"
  bottom: "inception_4d/pool_proj"
  top: "inception_4d/pool_proj"
}
layer {
  name: "inception_4d/output"
  type: "Concat"
  bottom: "inception_4d/1x1"
  bottom: "inception_4d/3x3"
  bottom: "inception_4d/5x5"
  bottom: "inception_4d/pool_proj"
  top: "inception_4d/output"
}
layer {
  name: "inception_4d/output_inception_4d/output_0_split"
  type: "Split"
  bottom: "inception_4d/output"
  top: "inception_4d/output_inception_4d/output_0_split_0"
  top: "inception_4d/output_inception_4d/output_0_split_1"
  top: "inception_4d/output_inception_4d/output_0_split_2"
  top: "inception_4d/output_inception_4d/output_0_split_3"
  top: "inception_4d/output_inception_4d/output_0_split_4"
}
layer {
  name: "loss2/ave_pool"
  type: "Pooling"
  bottom: "inception_4d/output_inception_4d/output_0_split_0"
  top: "loss2/ave_pool"
  pooling_param {
    pool: AVE
    kernel_size: 5
    stride: 3
  }
}
layer {
  name: "loss2/conv"
  type: "Convolution"
  bottom: "loss2/ave_pool"
  top: "loss2/conv"
  param {
    lr_mult: 1
    decay_mult: 1
  }
  param {
    lr_mult: 2
    decay_mult: 0
  }
  convolution_param {
    num_output: 128
    kernel_size: 1
    weight_filler {
      type: "xavier"
    }
    bias_filler {
      type: "constant"
      value: 0.2
    }
  }
}
layer {
  name: "loss2/relu_conv"
  type: "ReLU"
  bottom: "loss2/conv"
  top: "loss2/conv"
}
layer {
  name: "loss2/fc"
  type: "InnerProduct"
  bottom: "loss2/conv"
  top: "loss2/fc"
  param {
    lr_mult: 1
    decay_mult: 1
  }
  param {
    lr_mult: 2
    decay_mult: 0
  }
  inner_product_param {
    num_output: 1024
    weight_filler {
      type: "xavier"
    }
    bias_filler {
      type: "constant"
      value: 0.2
    }
  }
}
layer {
  name: "loss2/relu_fc"
  type: "ReLU"
  bottom: "loss2/fc"
  top: "loss2/fc"
}
layer {
  name:
I0327 08:47:25.505117 48953 net.cpp:154] Setting up Layer of device :0 @cpu 5 Layer : data
I0327 08:47:25.505136 48953 layer_factory.hpp:114] Creating layer data
I0327 08:47:25.505831 48953 net.cpp:169] Creating Layer data
I0327 08:47:25.505851 48953 net.cpp:579] data -> data
I0327 08:47:25.505861 48953 net.cpp:582] From AppendTop @cpu: 5
I0327 08:47:25.505940 48953 net.cpp:579] data -> label
I0327 08:47:25.505951 48953 net.cpp:582] From AppendTop @cpu: 5
I0327 08:47:25.506192 48954 db_lmdb.cpp:72] Opened lmdb /home/user/user/LIBRARIES/caffeLibs/caffe/examples/imagenet/ilsvrc12_train_lmdb
I0327 08:47:25.506286 48954 data_reader.cpp:128] inside DATAREADER 2
I0327 08:47:25.506299 48954 data_reader.cpp:139] NUMA DOMAIN 0
I0327 08:47:25.506741 48954 data_reader.cpp:139] NUMA DOMAIN 0
I0327 08:47:25.506919 48953 data_layer.cpp:80] output data size: 24,3,224,224
I0327 08:47:25.539068 48953 base_data_layer.cpp:96] Done cpu data
I0327 08:47:25.539165 48953 net.cpp:219] Setting up data
I0327 08:47:25.539192 48953 net.cpp:226] Top shape: 24 3 224 224 (3612672)
I0327 08:47:25.539206 48953 net.cpp:226] Top shape: 24 (24)
I0327 08:47:25.539216 48953 net.cpp:234] Memory required for data: 14450784
I0327 08:47:25.539239 48953 net.cpp:154] Setting up Layer of device :0 @cpu 5 Layer : label_data_1_split
I0327 08:47:25.539249 48953 layer_factory.hpp:114] Creating layer label_data_1_split
I0327 08:47:25.539278 48953 net.cpp:169] Creating Layer label_data_1_split
I0327 08:47:25.539289 48953 net.cpp:606] label_data_1_split <- label
I0327 08:47:25.539309 48953 net.cpp:579] label_data_1_split -> label_data_1_split_0
I0327 08:47:25.539319 48953 net.cpp:582] From AppendTop @cpu: 5
I0327 08:47:25.539338 48953 net.cpp:579] label_data_1_split -> label_data_1_split_1
I0327 08:47:25.539347 48953 net.cpp:582] From AppendTop @cpu: 5
I0327 08:47:25.539361 48953 net.cpp:579] label_data_1_split -> label_data_1_split_2
I0327 08:47:25.539371 48953 net.cpp:582] From AppendTop @cpu: 5
I0327 08:47:25.539392 48953 net.cpp:219] Setting up label_data_1_split
I0327 08:47:25.539404 48953 net.cpp:226] Top shape: 24 (24)
I0327 08:47:25.539415 48953 net.cpp:226] Top shape: 24 (24)
I0327 08:47:25.539427 48953 net.cpp:226] Top shape: 24 (24)
I0327 08:47:25.539434 48953 net.cpp:234] Memory required for data: 14451072
I0327 08:47:25.539445 48953 net.cpp:154] Setting up Layer of device :0 @cpu 5 Layer : conv1/7x7_s2
I0327 08:47:25.539453 48953 layer_factory.hpp:114] Creating layer conv1/7x7_s2
I0327 08:47:25.539479 48953 net.cpp:169] Creating Layer conv1/7x7_s2
I0327 08:47:25.539489 48953 net.cpp:606] conv1/7x7_s2 <- data
I0327 08:47:25.539508 48953 net.cpp:579] conv1/7x7_s2 -> conv1/7x7_s2
I0327 08:47:25.539518 48953 net.cpp:582] From AppendTop @cpu: 5
OMP: Info #242: KMP_AFFINITY: pid 48953 thread 1 bound to OS proc set {0,1,2,3,4,5}
OMP: Info #242: KMP_AFFINITY: pid 48953 thread 2 bound to OS proc set {0,1,2,3,4,5}
OMP: Info #242: KMP_AFFINITY: pid 48953 thread 3 bound to OS proc set {0,1,2,3,4,5}
OMP: Info #242: KMP_AFFINITY: pid 48953 thread 4 bound to OS proc set {0,1,2,3,4,5}
OMP: Info #242: KMP_AFFINITY: pid 48953 thread 5 bound to OS proc set {0,1,2,3,4,5}
I0327 08:47:25.559645 48953 net.cpp:219] Setting up conv1/7x7_s2
I0327 08:47:25.559739 48953 net.cpp:226] Top shape: 24 64 112 112 (19267584)
I0327 08:47:25.559753 48953 net.cpp:234] Memory required for data: 91521408
I0327 08:47:25.559808 48953 net.cpp:154] Setting up Layer of device :0 @cpu 0 Layer : conv1/relu_7x7
I0327 08:47:25.559844 48953 layer_factory.hpp:114] Creating layer conv1/relu_7x7
I0327 08:47:25.559870 48953 net.cpp:169] Creating Layer conv1/relu_7x7
I0327 08:47:25.559885 48953 net.cpp:606] conv1/relu_7x7 <- conv1/7x7_s2
I0327 08:47:25.559903 48953 net.cpp:566] conv1/relu_7x7 -> conv1/7x7_s2 (in-place)
I0327 08:47:25.559931 48953 net.cpp:219] Setting up conv1/relu_7x7
I0327 08:47:25.559945 48953 net.cpp:226] Top shape: 24 64 112 112 (19267584)
I0327 08:47:25.559957 48953 net.cpp:234] Memory required for data: 168591744
I0327 08:47:25.559969 48953 net.cpp:154] Setting up Layer of device :0 @cpu 0 Layer : pool1/3x3_s2
I0327 08:47:25.559980 48953 layer_factory.hpp:114] Creating layer pool1/3x3_s2
I0327 08:47:25.560092 48953 net.cpp:169] Creating Layer pool1/3x3_s2
I0327 08:47:25.560108 48953 net.cpp:606] pool1/3x3_s2 <- conv1/7x7_s2
I0327 08:47:25.560124 48953 net.cpp:579] pool1/3x3_s2 -> pool1/3x3_s2
I0327 08:47:25.560139 48953 net.cpp:582] From AppendTop @cpu: 0
I0327 08:47:25.560175 48953 net.cpp:219] Setting up pool1/3x3_s2
I0327 08:47:25.560190 48953 net.cpp:226] Top shape: 24 64 56 56 (4816896)
I0327 08:47:25.560201 48953 net.cpp:234] Memory required for data: 187859328
I0327 08:47:25.560215 48953 net.cpp:154] Setting up Layer of device :0 @cpu 0 Layer : pool1/norm1
I0327 08:47:25.560226 48953 layer_factory.hpp:114] Creating layer pool1/norm1
I0327 08:47:25.560243 48953 net.cpp:169] Creating Layer pool1/norm1
I0327 08:47:25.560262 48953 net.cpp:606] pool1/norm1 <- pool1/3x3_s2
I0327 08:47:25.560281 48953 net.cpp:579] pool1/norm1 -> pool1/norm1
I0327 08:47:25.560312 48953 net.cpp:582] From AppendTop @cpu: 0
I0327 08:47:25.560335 48953 net.cpp:219] Setting up pool1/norm1
I0327 08:47:25.560354 48953 net.cpp:226] Top shape: 24 64 56 56 (4816896)
I0327 08:47:25.560365 48953 net.cpp:234] Memory required for data: 207126912
I0327 08:47:25.560379 48953 net.cpp:154] Setting up Layer of device :0 @cpu 0 Layer : conv2/3x3_reduce
I0327 08:47:25.560389 48953 layer_factory.hpp:114] Creating layer conv2/3x3_reduce
I0327 08:47:25.560415 48953 net.cpp:169] Creating Layer conv2/3x3_reduce
I0327 08:47:25.560426 48953 net.cpp:606] conv2/3x3_reduce <- pool1/norm1
I0327 08:47:25.560446 48953 net.cpp:579] conv2/3x3_reduce -> conv2/3x3_reduce
I0327 08:47:25.560456 48953 net.cpp:582] From AppendTop @cpu: 0
I0327 08:47:25.563369 48953 net.cpp:219] Setting up conv2/3x3_reduce
I0327 08:47:25.563436 48953 net.cpp:226] Top shape: 24 64 56 56 (4816896)
I0327 08:47:25.563447 48953 net.cpp:234] Memory required for data: 226394496
I0327 08:47:25.563483 48953 net.cpp:154] Setting up Layer of device :0 @cpu 0 Layer : conv2/relu_3x3_reduce
I0327 08:47:25.563496 48953 layer_factory.hpp:114] Creating layer conv2/relu_3x3_reduce
I0327 08:47:25.563516 48953 net.cpp:169] Creating Layer conv2/relu_3x3_reduce
I0327 08:47:25.563529 48953 net.cpp:606] conv2/relu_3x3_reduce <- conv2/3x3_reduce
I0327 08:47:25.563552 48953 net.cpp:566] conv2/relu_3x3_reduce -> conv2/3x3_reduce (in-place)
I0327 08:47:25.563575 48953 net.cpp:219] Setting up conv2/relu_3x3_reduce
I0327 08:47:25.563590 48953 net.cpp:226] Top shape: 24 64 56 56 (4816896)
I0327 08:47:25.563599 48953 net.cpp:234] Memory required for data: 245662080
I0327 08:47:25.563613 48953 net.cpp:154] Setting up Layer of device :0 @cpu 0 Layer : conv2/3x3
I0327 08:47:25.563624 48953 layer_factory.hpp:114] Creating layer conv2/3x3
I0327 08:47:25.563653 48953 net.cpp:169] Creating Layer conv2/3x3
I0327 08:47:25.563665 48953 net.cpp:606] conv2/3x3 <- conv2/3x3_reduce
I0327 08:47:25.563683 48953 net.cpp:579] conv2/3x3 -> conv2/3x3
I0327 08:47:25.563694 48953 net.cpp:582] From AppendTop @cpu: 0
I0327 08:47:25.589432 48953 net.cpp:219] Setting up conv2/3x3
I0327 08:47:25.589514 48953 net.cpp:226] Top shape: 24 192 56 56 (14450688)
I0327 08:47:25.589524 48953 net.cpp:234] Memory required for data: 303464832
I0327 08:47:25.589565 48953 net.cpp:154] Setting up Layer of device :0 @cpu 0 Layer : conv2/relu_3x3
I0327 08:47:25.589576 48953 layer_factory.hpp:114] Creating layer conv2/relu_3x3
I0327 08:47:25.589614 48953 net.cpp:169] Creating Layer conv2/relu_3x3
I0327 08:47:25.589627 48953 net.cpp:606] conv2/relu_3x3 <- conv2/3x3
I0327 08:47:25.589645 48953 net.cpp:566] conv2/relu_3x3 -> conv2/3x3 (in-place)
I0327 08:47:25.589666 48953 net.cpp:219] Setting up conv2/relu_3x3
I0327 08:47:25.589679 48953 net.cpp:226] Top shape: 24 192 56 56 (14450688)
I0327 08:47:25.589687 48953 net.cpp:234] Memory required for data: 361267584
I0327 08:47:25.589697 48953 net.cpp:154] Setting up Layer of device :0 @cpu 0 Layer : conv2/norm2
I0327 08:47:25.589706 48953 layer_factory.hpp:114] Creating layer conv2/norm2
I0327 08:47:25.589720 48953 net.cpp:169] Creating Layer conv2/norm2
I0327 08:47:25.589730 48953 net.cpp:606] conv2/norm2 <- conv2/3x3
I0327 08:47:25.589745 48953 net.cpp:579] conv2/norm2 -> conv2/norm2
I0327 08:47:25.589754 48953 net.cpp:582] From AppendTop @cpu: 0
I0327 08:47:25.589774 48953 net.cpp:219] Setting up conv2/norm2
I0327 08:47:25.589785 48953 net.cpp:226] Top shape: 24 192 56 56 (14450688)
I0327 08:47:25.589794 48953 net.cpp:234] Memory required for data: 419070336
I0327 08:47:25.589804 48953 net.cpp:154] Setting up Layer of device :0 @cpu 0 Layer : pool2/3x3_s2
I0327 08:47:25.589813 48953 layer_factory.hpp:114] Creating layer pool2/3x3_s2
I0327 08:47:25.589855 48953 net.cpp:169] Creating Layer pool2/3x3_s2
I0327 08:47:25.589865 48953 net.cpp:606] pool2/3x3_s2 <- conv2/norm2
I0327 08:47:25.589877 48953 net.cpp:579] pool2/3x3_s2 -> pool2/3x3_s2
I0327 08:47:25.589886 48953 net.cpp:582] From AppendTop @cpu: 0
I0327 08:47:25.589903 48953 net.cpp:219] Setting up pool2/3x3_s2
I0327 08:47:25.589931 48953 net.cpp:226] Top shape: 24 192 28 28 (3612672)
I0327 08:47:25.589941 48953 net.cpp:234] Memory required for data: 433521024
I0327 08:47:25.589951 48953 net.cpp:154] Setting up Layer of device :0 @cpu 0 Layer : pool2/3x3_s2_pool2/3x3_s2_0_split
I0327 08:47:25.589959 48953 layer_factory.hpp:114] Creating layer pool2/3x3_s2_pool2/3x3_s2_0_split
I0327 08:47:25.589977 48953 net.cpp:169] Creating Layer pool2/3x3_s2_pool2/3x3_s2_0_split
I0327 08:47:25.589985 48953 net.cpp:606] pool2/3x3_s2_pool2/3x3_s2_0_split <- pool2/3x3_s2
I0327 08:47:25.590001 48953 net.cpp:579] pool2/3x3_s2_pool2/3x3_s2_0_split -> pool2/3x3_s2_pool2/3x3_s2_0_split_0
I0327 08:47:25.590009 48953 net.cpp:582] From AppendTop @cpu: 0
I0327 08:47:25.590029 48953 net.cpp:579] pool2/3x3_s2_pool2/3x3_s2_0_split -> pool2/3x3_s2_pool2/3x3_s2_0_split_1
I0327 08:47:25.590039 48953 net.cpp:582] From AppendTop @cpu: 0
I0327 08:47:25.590054 48953 net.cpp:579] pool2/3x3_s2_pool2/3x3_s2_0_split -> pool2/3x3_s2_pool2/3x3_s2_0_split_2
I0327 08:47:25.590061 48953 net.cpp:582] From AppendTop @cpu: 0
I0327 08:47:25.590075 48953 net.cpp:579] pool2/3x3_s2_pool2/3x3_s2_0_split -> pool2/3x3_s2_pool2/3x3_s2_0_split_3
I0327 08:47:25.590083 48953 net.cpp:582] From AppendTop @cpu: 0
I0327 08:47:25.590097 48953 net.cpp:219] Setting up pool2/3x3_s2_pool2/3x3_s2_0_split
I0327 08:47:25.590109 48953 net.cpp:226] Top shape: 24 192 28 28 (3612672)
I0327 08:47:25.590121 48953 net.cpp:226] Top shape: 24 192 28 28 (3612672)
I0327 08:47:25.590131 48953 net.cpp:226] Top shape: 24 192 28 28 (3612672)
I0327 08:47:25.590142 48953 net.cpp:226] Top shape: 24 192 28 28 (3612672)
I0327 08:47:25.590150 48953 net.cpp:234] Memory required for data: 491323776
I0327 08:47:25.590160 48953 net.cpp:154] Setting up Layer of device :0 @cpu 0 Layer : inception_3a/1x1
I0327 08:47:25.590169 48953 layer_factory.hpp:114] Creating layer inception_3a/1x1
I0327 08:47:25.590193 48953 net.cpp:169] Creating Layer inception_3a/1x1
I0327 08:47:25.590205 48953 net.cpp:606] inception_3a/1x1 <- pool2/3x3_s2_pool2/3x3_s2_0_split_0
I0327 08:47:25.590219 48953 net.cpp:579] inception_3a/1x1 -> inception_3a/1x1
I0327 08:47:25.590227 48953 net.cpp:582] From AppendTop @cpu: 0
I0327 08:47:25.592891 48953 net.cpp:219] Setting up inception_3a/1x1
I0327 08:47:25.592943 48953 net.cpp:226] Top shape: 24 64 28 28 (1204224)
I0327 08:47:25.592953 48953 net.cpp:234] Memory required for data: 496140672
I0327 08:47:25.592978 48953 net.cpp:154] Setting up Layer of device :0 @cpu 0 Layer : inception_3a/relu_1x1
I0327 08:47:25.593001 48953 layer_factory.hpp:114] Creating layer inception_3a/relu_1x1
I0327 08:47:25.593024 48953 net.cpp:169] Creating Layer inception_3a/relu_1x1
I0327 08:47:25.593036 48953 net.cpp:606] inception_3a/relu_1x1 <- inception_3a/1x1
I0327 08:47:25.593060 48953 net.cpp:566] inception_3a/relu_1x1 -> inception_3a/1x1 (in-place)
I0327 08:47:25.593077 48953 net.cpp:219] Setting up inception_3a/relu_1x1
I0327 08:47:25.593089 48953 net.cpp:226] Top shape: 24 64 28 28 (1204224)
I0327 08:47:25.593097 48953 net.cpp:234] Memory required for data: 500957568
I0327 08:47:25.593108 48953 net.cpp:154] Setting up Layer of device :0 @cpu 0 Layer : inception_3a/3x3_reduce
I0327 08:47:25.593117 48953 layer_factory.hpp:114] Creating layer inception_3a/3x3_reduce
I0327 08:47:25.593139 48953 net.cpp:169] Creating Layer inception_3a/3x3_reduce
I0327 08:47:25.593150 48953 net.cpp:606] inception_3a/3x3_reduce <- pool2/3x3_s2_pool2/3x3_s2_0_split_1
I0327 08:47:25.593163 48953 net.cpp:579] inception_3a/3x3_reduce -> inception_3a/3x3_reduce
I0327 08:47:25.593173 48953 net.cpp:582] From AppendTop @cpu: 0
I0327 08:47:25.596828 48953 net.cpp:219] Setting up inception_3a/3x3_reduce
I0327 08:47:25.596877 48953 net.cpp:226] Top shape: 24 96 28 28 (1806336)
I0327 08:47:25.596887 48953 net.cpp:234] Memory required for data: 508182912
I0327 08:47:25.596917 48953 net.cpp:154] Setting up Layer of device :0 @cpu 0 Layer : inception_3a/relu_3x3_reduce
I0327 08:47:25.596927 48953 layer_factory.hpp:114] Creating layer inception_3a/relu_3x3_reduce
I0327 08:47:25.596972 48953 net.cpp:169] Creating Layer inception_3a/relu_3x3_reduce
I0327 08:47:25.596983 48953 net.cpp:606] inception_3a/relu_3x3_reduce <- inception_3a/3x3_reduce
I0327 08:47:25.596999 48953 net.cpp:566] inception_3a/relu_3x3_reduce -> inception_3a/3x3_reduce (in-place)
I0327 08:47:25.597023 48953 net.cpp:219] Setting up inception_3a/relu_3x3_reduce
I0327 08:47:25.597036 48953 net.cpp:226] Top shape: 24 96 28 28 (1806336)
I0327 08:47:25.597045 48953 net.cpp:234] Memory required for data: 515408256
I0327 08:47:25.597055 48953 net.cpp:154] Setting up Layer of device :0 @cpu 0 Layer : inception_3a/3x3
I0327 08:47:25.597064 48953 layer_factory.hpp:114] Creating layer inception_3a/3x3
I0327 08:47:25.597081 48953 net.cpp:169] Creating Layer inception_3a/3x3
I0327 08:47:25.597090 48953 net.cpp:606] inception_3a/3x3 <- inception_3a/3x3_reduce
I0327 08:47:25.597108 48953 net.cpp:579] inception_3a/3x3 -> inception_3a/3x3
I0327 08:47:25.597117 48953 net.cpp:582] From AppendTop @cpu: 0
I0327 08:47:25.608467 48953 net.cpp:219] Setting up inception_3a/3x3
I0327 08:47:25.608551 48953 net.cpp:226] Top shape: 24 128 28 28 (2408448)
I0327 08:47:25.608561 48953 net.cpp:234] Memory required for data: 525042048
I0327 08:47:25.608592 48953 net.cpp:154] Setting up Layer of device :0 @cpu 0 Layer : inception_3a/relu_3x3
I0327 08:47:25.608602 48953 layer_factory.hpp:114] Creating layer inception_3a/relu_3x3
I0327 08:47:25.608621 48953 net.cpp:169] Creating Layer inception_3a/relu_3x3
I0327 08:47:25.608633 48953 net.cpp:606] inception_3a/relu_3x3 <- inception_3a/3x3
I0327 08:47:25.608652 48953 net.cpp:566] inception_3a/relu_3x3 -> inception_3a/3x3 (in-place)
I0327 08:47:25.608674 48953 net.cpp:219] Setting up inception_3a/relu_3x3
I0327 08:47:25.608685 48953 net.cpp:226] Top shape: 24 128 28 28 (2408448)
I0327 08:47:25.608693 48953 net.cpp:234] Memory required for data: 534675840
I0327 08:47:25.608703 48953 net.cpp:154] Setting up Layer of device :0 @cpu 0 Layer : inception_3a/5x5_reduce
I0327 08:47:25.608712 48953 layer_factory.hpp:114] Creating layer inception_3a/5x5_reduce
I0327 08:47:25.608736 48953 net.cpp:169] Creating Layer inception_3a/5x5_reduce
I0327 08:47:25.608748 48953 net.cpp:606] inception_3a/5x5_reduce <- pool2/3x3_s2_pool2/3x3_s2_0_split_2
I0327 08:47:25.608762 48953 net.cpp:579] inception_3a/5x5_reduce -> inception_3a/5x5_reduce
I0327 08:47:25.608772 48953 net.cpp:582] From AppendTop @cpu: 0
I0327 08:47:25.611060 48953 net.cpp:219] Setting up inception_3a/5x5_reduce
I0327 08:47:25.611122 48953 net.cpp:226] Top shape: 24 16 28 28 (301056)
I0327 08:47:25.611132 48953 net.cpp:234] Memory required for data: 535880064
I0327 08:47:25.611155 48953 net.cpp:154] Setting up Layer of device :0 @cpu 0 Layer : inception_3a/relu_5x5_reduce
I0327 08:47:25.611166 48953 layer_factory.hpp:114] Creating layer inception_3a/relu_5x5_reduce
I0327 08:47:25.611182 48953 net.cpp:169] Creating Layer inception_3a/relu_5x5_reduce
I0327 08:47:25.611192 48953 net.cpp:606] inception_3a/relu_5x5_reduce <- inception_3a/5x5_reduce
I0327 08:47:25.611213 48953 net.cpp:566] inception_3a/relu_5x5_reduce -> inception_3a/5x5_reduce (in-place)
I0327 08:47:25.611232 48953 net.cpp:219] Setting up inception_3a/relu_5x5_reduce
I0327 08:47:25.611243 48953 net.cpp:226] Top shape: 24 16 28 28 (301056)
I0327 08:47:25.611256 48953 net.cpp:234] Memory required for data: 537084288
I0327 08:47:25.611266 48953 net.cpp:154] Setting up Layer of device :0 @cpu 0 Layer : inception_3a/5x5
I0327 08:47:25.611275 48953 layer_factory.hpp:114] Creating layer inception_3a/5x5
I0327 08:47:25.611296 48953 net.cpp:169] Creating Layer inception_3a/5x5
I0327 08:47:25.611306 48953 net.cpp:606] inception_3a/5x5 <- inception_3a/5x5_reduce
I0327 08:47:25.611320 48953 net.cpp:579] inception_3a/5x5 -> inception_3a/5x5
I0327 08:47:25.611330 48953 net.cpp:582] From AppendTop @cpu: 0
I0327 08:47:25.615461 48953 net.cpp:219] Setting up inception_3a/5x5
I0327 08:47:25.615535 48953 net.cpp:226] Top shape: 24 32 28 28 (602112)
I0327 08:47:25.615545 48953 net.cpp:234] Memory required for data: 539492736
I0327 08:47:25.615602 48953 net.cpp:154] Setting up Layer of device :0 @cpu 0 Layer : inception_3a/relu_5x5
I0327 08:47:25.615613 48953 layer_factory.hpp:114] Creating layer inception_3a/relu_5x5
I0327 08:47:25.615631 48953 net.cpp:169] Creating Layer inception_3a/relu_5x5
I0327 08:47:25.615644 48953 net.cpp:606] inception_3a/relu_5x5 <- inception_3a/5x5
I0327 08:47:25.615663 48953 net.cpp:566] inception_3a/relu_5x5 -> inception_3a/5x5 (in-place)
I0327 08:47:25.615681 48953 net.cpp:219] Setting up inception_3a/relu_5x5
I0327 08:47:25.615694 48953 net.cpp:226] Top shape: 24 32 28 28 (602112)
I0327 08:47:25.615701 48953 net.cpp:234] Memory required for data: 541901184
I0327 08:47:25.615711 48953 net.cpp:154] Setting up Layer of device :0 @cpu 0 Layer : inception_3a/pool
I0327 08:47:25.615720 48953 layer_factory.hpp:114] Creating layer inception_3a/pool
I0327 08:47:25.615766 48953 net.cpp:169] Creating Layer inception_3a/pool
I0327 08:47:25.615778 48953 net.cpp:606] inception_3a/pool <- pool2/3x3_s2_pool2/3x3_s2_0_split_3
I0327 08:47:25.615794 48953 net.cpp:579] inception_3a/pool -> inception_3a/pool
I0327 08:47:25.615803 48953 net.cpp:582] From AppendTop @cpu: 0
I0327 08:47:25.615824 48953 net.cpp:219] Setting up inception_3a/pool
I0327 08:47:25.615836 48953 net.cpp:226] Top shape: 24 192 28 28 (3612672)
I0327 08:47:25.615844 48953 net.cpp:234] Memory required for data: 556351872
I0327 08:47:25.615855 48953 net.cpp:154] Setting up Layer of device :0 @cpu 0 Layer : inception_3a/pool_proj
I0327 08:47:25.615864 48953 layer_factory.hpp:114] Creating layer inception_3a/pool_proj
I0327 08:47:25.615887 48953 net.cpp:169] Creating Layer inception_3a/pool_proj
I0327 08:47:25.615897 48953 net.cpp:606] inception_3a/pool_proj <- inception_3a/pool
I0327 08:47:25.615913 48953 net.cpp:579] inception_3a/pool_proj -> inception_3a/pool_proj
I0327 08:47:25.615922 48953 net.cpp:582] From AppendTop @cpu: 0
I0327 08:47:25.618348 48953 net.cpp:219] Setting up inception_3a/pool_proj
I0327 08:47:25.618397 48953 net.cpp:226] Top shape: 24 32 28 28 (602112)
I0327 08:47:25.618407 48953 net.cpp:234] Memory required for data: 558760320
I0327 08:47:25.618441 48953 net.cpp:154] Setting up Layer of device :0 @cpu 0 Layer : inception_3a/relu_pool_proj
I0327 08:47:25.618451 48953 layer_factory.hpp:114] Creating layer inception_3a/relu_pool_proj
I0327 08:47:25.618468 48953 net.cpp:169] Creating Layer inception_3a/relu_pool_proj
I0327 08:47:25.618479 48953 net.cpp:606] inception_3a/relu_pool_proj <- inception_3a/pool_proj
I0327 08:47:25.618511 48953 net.cpp:566] inception_3a/relu_pool_proj -> inception_3a/pool_proj (in-place)
I0327 08:47:25.618530 48953 net.cpp:219] Setting up inception_3a/relu_pool_proj
I0327 08:47:25.618541 48953 net.cpp:226] Top shape: 24 32 28 28 (602112)
I0327 08:47:25.618549 48953 net.cpp:234] Memory required for data: 561168768
I0327 08:47:25.618559 48953 net.cpp:154] Setting up Layer of device :0 @cpu 0 Layer : inception_3a/output
I0327 08:47:25.618568 48953 layer_factory.hpp:114] Creating layer inception_3a/output
I0327 08:47:25.618580 48953 net.cpp:169] Creating Layer inception_3a/output
I0327 08:47:25.618590 48953 net.cpp:606] inception_3a/output <- inception_3a/1x1
I0327 08:47:25.618600 48953 net.cpp:606] inception_3a/output <- inception_3a/3x3
I0327 08:47:25.618610 48953 net.cpp:606] inception_3a/output <- inception_3a/5x5
I0327 08:47:25.618619 48953 net.cpp:606] inception_3a/output <- inception_3a/pool_proj
I0327 08:47:25.618631 48953 net.cpp:579] inception_3a/output -> inception_3a/output
I0327 08:47:25.618639 48953 net.cpp:582] From AppendTop @cpu: 0
I0327 08:47:25.618662 48953 net.cpp:219] Setting up inception_3a/output
I0327 08:47:25.618674 48953 net.cpp:226] Top shape: 24 256 28 28 (4816896)
I0327 08:47:25.618683 48953 net.cpp:234] Memory required for data: 580436352
I0327 08:47:25.618693 48953 net.cpp:154] Setting up Layer of device :0 @cpu 0 Layer : inception_3a/output_inception_3a/output_0_split
I0327 08:47:25.618702 48953 layer_factory.hpp:114] Creating layer inception_3a/output_inception_3a/output_0_split
I0327 08:47:25.618732 48953 net.cpp:169] Creating Layer inception_3a/output_inception_3a/output_0_split
…
I0327 08:47:25.618784 48953 net.cpp:582] From AppendTop @cpu: 0
I0327 08:47:25.618798 48953 net.cpp:579] inception_3a/output_inception_3a/output_0_split -> inception_3a/output_inception_3a/output_0_split_2
I0327 08:47:25.618808 48953 net.cpp:582] From AppendTop @cpu: 0
I0327 08:47:25.618823 48953 net.cpp:579] inception_3a/output_inception_3a/output_0_split -> inception_3a/output_inception_3a/output_0_split_3
I0327 08:47:25.618831 48953 net.cpp:582] From AppendTop @cpu: 0
I0327 08:47:25.618845 48953 net.cpp:219] Setting up inception_3a/output_inception_3a/output_0_split
I0327 08:47:25.618857 48953 net.cpp:226] Top shape: 24 256 28 28 (4816896)
I0327 08:47:25.618868 48953 net.cpp:226] Top shape: 24 256 28 28 (4816896)
I0327 08:47:25.618880 48953 net.cpp:226] Top shape: 24 256 28 28 (4816896)
I0327 08:47:25.618891 48953 net.cpp:226] Top shape: 24 256 28 28 (4816896)
I0327 08:47:25.618898 48953 net.cpp:234] Memory required for data: 657506688
I0327 08:47:25.618908 48953 net.cpp:154] Setting up Layer of device :0 @cpu 0 Layer : inception_3b/1x1
I0327 08:47:25.618916 48953 layer_factory.hpp:114] Creating layer inception_3b/1x1
I0327 08:47:25.618937 48953 net.cpp:169] Creating Layer inception_3b/1x1
I0327 08:47:25.618947 48953 net.cpp:606] inception_3b/1x1 <- inception_3a/output_inception_3a/output_0_split_0
I0327 08:47:25.618963 48953 net.cpp:579] inception_3b/1x1 -> inception_3b/1x1
I0327 08:47:25.618971 48953 net.cpp:582] From AppendTop @cpu: 0
I0327 08:47:25.623404 48953 net.cpp:219] Setting up inception_3b/1x1
I0327 08:47:25.623466 48953 net.cpp:226] Top shape: 24 128 28 28 (2408448)
I0327 08:47:25.623476 48953 net.cpp:234] Memory required for data: 667140480
I0327 08:47:25.623502 48953 net.cpp:154] Setting up Layer of device :0 @cpu 0 Layer : inception_3b/relu_1x1
I0327 08:47:25.623512 48953 layer_factory.hpp:114] Creating layer inception_3b/relu_1x1
I0327 08:47:25.623529 48953 net.cpp:169] Creating Layer inception_3b/relu_1x1
I0327 08:47:25.623555 48953 net.cpp:606] inception_3b/relu_1x1 <- inception_3b/1x1
I0327 08:47:25.623574 48953 net.cpp:566] inception_3b/relu_1x1 -> inception_3b/1x1 (in-place)
I0327 08:47:25.623594 48953 net.cpp:219] Setting up inception_3b/relu_1x1
I0327 08:47:25.623605 48953 net.cpp:226] Top shape: 24 128 28 28 (2408448)
I0327 08:47:25.623613 48953 net.cpp:234] Memory required for data: 676774272
I0327 08:47:25.623625 48953 net.cpp:154] Setting up Layer of device :0 @cpu 0 Layer : inception_3b/3x3_reduce
I0327 08:47:25.623632 48953 layer_factory.hpp:114] Creating layer inception_3b/3x3_reduce
I0327 08:47:25.623651 48953 net.cpp:169] Creating Layer inception_3b/3x3_reduce
I0327 08:47:25.623661 48953 net.cpp:606] inception_3b/3x3_reduce <- inception_3a/output_inception_3a/output_0_split_1
I0327 08:47:25.623678 48953 net.cpp:579] inception_3b/3x3_reduce -> inception_3b/3x3_reduce
I0327 08:47:25.623688 48953 net.cpp:582] From AppendTop @cpu: 0
I0327 08:47:25.628029 48953 net.cpp:219] Setting up inception_3b/3x3_reduce
I0327 08:47:25.628090 48953 net.cpp:226] Top shape: 24 128 28 28 (2408448)
I0327 08:47:25.628100 48953 net.cpp:234] Memory required for data: 686408064
I0327 08:47:25.628126 48953 net.cpp:154] Setting up Layer of device :0 @cpu 0 Layer : inception_3b/relu_3x3_reduce
I0327 08:47:25.628136 48953 layer_factory.hpp:114] Creating layer inception_3b/relu_3x3_reduce
I0327 08:47:25.628154 48953 net.cpp:169] Creating Layer inception_3b/relu_3x3_reduce
I0327 08:47:25.628166 48953 net.cpp:606] inception_3b/relu_3x3_reduce <- inception_3b/3x3_reduce
I0327 08:47:25.628211 48953 net.cpp:566] inception_3b/relu_3x3_reduce -> inception_3b/3x3_reduce (in-place)
I0327 08:47:25.628232 48953 net.cpp:219] Setting up inception_3b/relu_3x3_reduce
I0327 08:47:25.628242 48953 net.cpp:226] Top shape: 24 128 28 28 (2408448)
I0327 08:47:25.628259 48953 net.cpp:234] Memory required for data: 696041856
I0327 08:47:25.628270 48953 net.cpp:154] Setting up Layer of device :0 @cpu 0 Layer : inception_3b/3x3
I0327 08:47:25.628279 48953 layer_factory.hpp:114] Creating layer inception_3b/3x3
I0327 08:47:25.628304 48953 net.cpp:169] Creating Layer inception_3b/3x3
I0327 08:47:25.628314 48953 net.cpp:606] inception_3b/3x3 <- inception_3b/3x3_reduce
I0327 08:47:25.628331 48953 net.cpp:579] inception_3b/3x3 -> inception_3b/3x3
I0327 08:47:25.628340 48953 net.cpp:582] From AppendTop @cpu: 0
I0327 08:47:25.644821 48953 net.cpp:219] Setting up inception_3b/3x3
I0327 08:47:25.644906 48953 net.cpp:226] Top shape: 24 192 28 28 (3612672)
I0327 08:47:25.644915 48953 net.cpp:234] Memory required for data: 710492544
I0327 08:47:25.644946 48953 net.cpp:154] Setting up Layer of device :0 @cpu 0 Layer : inception_3b/relu_3x3
I0327 08:47:25.644958 48953 layer_factory.hpp:114] Creating layer inception_3b/relu_3x3
I0327 08:47:25.644978 48953 net.cpp:169] Creating Layer inception_3b/relu_3x3
I0327 08:47:25.644990 48953 net.cpp:606] inception_3b/relu_3x3 <- inception_3b/3x3
I0327 08:47:25.645005 48953 net.cpp:566] inception_3b/relu_3x3 -> inception_3b/3x3 (in-place)
I0327 08:47:25.645032 48953 net.cpp:219] Setting up inception_3b/relu_3x3
I0327 08:47:25.645045 48953 net.cpp:226] Top shape: 24 192 28 28 (3612672)
I0327 08:47:25.645054 48953 net.cpp:234] Memory required for data: 724943232
I0327 08:47:25.645064 48953 net.cpp:154] Setting up Layer of device :0 @cpu 0 Layer : inception_3b/5x5_reduce
I0327 08:47:25.645073 48953 layer_factory.hpp:114] Creating layer inception_3b/5x5_reduce
I0327 08:47:25.645097 48953 net.cpp:169] Creating Layer inception_3b/5x5_reduce
I0327 08:47:25.645110 48953 net.cpp:606] inception_3b/5x5_reduce <- inception_3a/output_inception_3a/output_0_split_2
I0327 08:47:25.645126 48953 net.cpp:579] inception_3b/5x5_reduce -> inception_3b/5x5_reduce
I0327 08:47:25.645135 48953 net.cpp:582] From AppendTop @cpu: 0
I0327 08:47:25.648612 48953 net.cpp:219] Setting up inception_3b/5x5_reduce
I0327 08:47:25.648674 48953 net.cpp:226] Top shape: 24 32 28 28 (602112)
I0327 08:47:25.648682 48953 net.cpp:234] Memory required for data: 727351680
I0327 08:47:25.648727 48953 net.cpp:154] Setting up Layer of device :0 @cpu 0 Layer : inception_3b/relu_5x5_reduce
I0327 08:47:25.648737 48953 layer_factory.hpp:114] Creating layer inception_3b/relu_5x5_reduce
I0327 08:47:25.648754 48953 net.cpp:169] Creating Layer inception_3b/relu_5x5_reduce
I0327 08:47:25.648766 48953 net.cpp:606] inception_3b/relu_5x5_reduce <- inception_3b/5x5_reduce
I0327 08:47:25.648780 48953 net.cpp:566] inception_3b/relu_5x5_reduce -> inception_3b/5x5_reduce (in-place)
I0327 08:47:25.648797 48953 net.cpp:219] Setting up inception_3b/relu_5x5_reduce
I0327 08:47:25.648809 48953 net.cpp:226] Top shape: 24 32 28 28 (602112)
I0327 08:47:25.648818 48953 net.cpp:234] Memory required for data: 729760128
I0327 08:47:25.648828 48953 net.cpp:154] Setting up Layer of device :0 @cpu 0 Layer : inception_3b/5x5
I0327 08:47:25.648836 48953 layer_factory.hpp:114] Creating layer inception_3b/5x5
I0327 08:47:25.648864 48953 net.cpp:169] Creating Layer inception_3b/5x5
I0327 08:47:25.648875 48953 net.cpp:606] inception_3b/5x5 <- inception_3b/5x5_reduce
I0327 08:47:25.648888 48953 net.cpp:579] inception_3b/5x5 -> inception_3b/5x5
I0327 08:47:25.648896 48953 net.cpp:582] From AppendTop @cpu: 0
I0327 08:47:25.659005 48953 net.cpp:219] Setting up inception_3b/5x5
I0327 08:47:25.659122 48953 net.cpp:226] Top shape: 24 96 28 28 (1806336)
I0327 08:47:25.659132 48953 net.cpp:234] Memory required for data: 736985472
I0327 08:47:25.659162 48953 net.cpp:154] Setting up Layer of device :0 @cpu 0 Layer : inception_3b/relu_5x5
I0327 08:47:25.659171 48953 layer_factory.hpp:114] Creating layer inception_3b/relu_5x5
I0327 08:47:25.659224 48953 net.cpp:169] Creating Layer inception_3b/relu_5x5
I0327 08:47:25.659237 48953 net.cpp:606] inception_3b/relu_5x5 <- inception_3b/5x5
I0327 08:47:25.659257 48953 net.cpp:566] inception_3b/relu_5x5 -> inception_3b/5x5 (in-place)
I0327 08:47:25.659278 48953 net.cpp:219] Setting up inception_3b/relu_5x5
I0327 08:47:25.659291 48953 net.cpp:226] Top shape: 24 96 28 28 (1806336)
I0327 08:47:25.659299 48953 net.cpp:234] Memory required for data: 744210816
I0327 08:47:25.659309 48953 net.cpp:154] Setting up Layer of device :0 @cpu 0 Layer : inception_3b/pool
I0327 08:47:25.659318 48953 layer_factory.hpp:114] Creating layer inception_3b/pool
I0327 08:47:25.659363 48953 net.cpp:169] Creating Layer inception_3b/pool
I0327 08:47:25.659379 48953 net.cpp:606] inception_3b/pool <- inception_3a/output_inception_3a/output_0_split_3
I0327 08:47:25.659392 48953 net.cpp:579] inception_3b/pool -> inception_3b/pool
I0327 08:47:25.659401 48953 net.cpp:582] From AppendTop @cpu: 0
I0327 08:47:25.659422 48953 net.cpp:219] Setting up inception_3b/pool
I0327 08:47:25.659435 48953 net.cpp:226] Top shape: 24 256 28 28 (4816896)
I0327 08:47:25.659442 48953 net.cpp:234] Memory required for data: 763478400
I0327 08:47:25.659452 48953 net.cpp:154] Setting up Layer of device :0 @cpu 0 Layer : inception_3b/pool_proj
I0327 08:47:25.659461 48953 layer_factory.hpp:114] Creating layer inception_3b/pool_proj
I0327 08:47:25.659485 48953 net.cpp:169] Creating Layer inception_3b/pool_proj
I0327 08:47:25.659495 48953 net.cpp:606] inception_3b/pool_proj <- inception_3b/pool
I0327 08:47:25.659512 48953 net.cpp:579] inception_3b/pool_proj -> inception_3b/pool_proj
I0327 08:47:25.659521 48953 net.cpp:582] From AppendTop @cpu: 0
I0327 08:47:25.663255 48953 net.cpp:219] Setting up inception_3b/pool_proj
I0327 08:47:25.663313 48953 net.cpp:226] Top shape: 24 64 28 28 (1204224)
I0327 08:47:25.663322 48953 net.cpp:234] Memory required for data: 768295296
I0327 08:47:25.663348 48953 net.cpp:154] Setting up Layer of device :0 @cpu 0 Layer : inception_3b/relu_pool_proj
I0327 08:47:25.663358 48953 layer_factory.hpp:114] Creating layer inception_3b/relu_pool_proj
I0327 08:47:25.663375 48953 net.cpp:169] Creating Layer inception_3b/relu_pool_proj
I0327 08:47:25.663388 48953 net.cpp:606] inception_3b/relu_pool_proj <- inception_3b/pool_proj
I0327 08:47:25.663400 48953 net.cpp:566] inception_3b/relu_pool_proj -> inception_3b/pool_proj (in-place)
I0327 08:47:25.663432 48953 net.cpp:219] Setting up inception_3b/relu_pool_proj
I0327 08:47:25.663444 48953 net.cpp:226] Top shape: 24 64 28 28 (1204224)
I0327 08:47:25.663453 48953 net.cpp:234] Memory required for data: 773112192
I0327 08:47:25.663463 48953 net.cpp:154] Setting up Layer of device :0 @cpu 0 Layer : inception_3b/output
I0327 08:47:25.663472 48953 layer_factory.hpp:114] Creating layer inception_3b/output
I0327 08:47:25.663488 48953 net.cpp:169] Creating Layer inception_3b/output
I0327 08:47:25.663498 48953 net.cpp:606] inception_3b/output <- inception_3b/1x1
I0327 08:47:25.663509 48953 net.cpp:606] inception_3b/output <- inception_3b/3x3
I0327 08:47:25.663519 48953 net.cpp:606] inception_3b/output <- inception_3b/5x5
I0327 08:47:25.663530 48953 net.cpp:606] inception_3b/output <- inception_3b/pool_proj
I0327 08:47:25.663542 48953 net.cpp:579] inception_3b/output -> inception_3b/output
I0327 08:47:25.663550 48953 net.cpp:582] From AppendTop @cpu: 0
I0327 08:47:25.663568 48953 net.cpp:219] Setting up inception_3b/output
I0327 08:47:25.663578 48953 net.cpp:226] Top shape: 24 480 28 28 (9031680)
I0327 08:47:25.663588 48953 net.cpp:234] Memory required for data: 809238912
I0327 08:47:25.663597 48953 net.cpp:154] Setting up Layer of device :0 @cpu 0 Layer : pool3/3x3_s2
I0327 08:47:25.663605 48953 layer_factory.hpp:114] Creating layer pool3/3x3_s2
I0327 08:47:25.663656 48953 net.cpp:169] Creating Layer pool3/3x3_s2
I0327 08:47:25.663667 48953 net.cpp:606] pool3/3x3_s2 <- inception_3b/output
I0327 08:47:25.663681 48953 net.cpp:579] pool3/3x3_s2 -> pool3/3x3_s2
I0327 08:47:25.663703 48953 net.cpp:582] From AppendTop @cpu: 0
I0327 08:47:25.663720 48953 net.cpp:219] Setting up pool3/3x3_s2
I0327 08:47:25.663733 48953 net.cpp:226] Top shape: 24 480 14 14 (2257920)
I0327 08:47:25.663740 48953 net.cpp:234] Memory required for data: 818270592
I0327 08:47:25.663751 48953 net.cpp:154] Setting up Layer of device :0 @cpu 0 Layer : pool3/3x3_s2_pool3/3x3_s2_0_split
I0327 08:47:25.663759 48953 layer_factory.hpp:114] Creating layer pool3/3x3_s2_pool3/3x3_s2_0_split
I0327 08:47:25.663775 48953 net.cpp:169] Creating Layer pool3/3x3_s2_pool3/3x3_s2_0_split
I0327 08:47:25.663784 48953 net.cpp:606] pool3/3x3_s2_pool3/3x3_s2_0_split <- pool3/3x3_s2
I0327 08:47:25.663796 48953 net.cpp:579] pool3/3x3_s2_pool3/3x3_s2_0_split -> pool3/3x3_s2_pool3/3x3_s2_0_split_0
I0327 08:47:25.663807 48953 net.cpp:582] From AppendTop @cpu: 0
I0327 08:47:25.663821 48953 net.cpp:579] pool3/3x3_s2_pool3/3x3_s2_0_split -> pool3/3x3_s2_pool3/3x3_s2_0_split_1
I0327 08:47:25.663830 48953 net.cpp:582] From AppendTop @cpu: 0
I0327 08:47:25.663842 48953 net.cpp:579] pool3/3x3_s2_pool3/3x3_s2_0_split -> pool3/3x3_s2_pool3/3x3_s2_0_split_2
I0327 08:47:25.663851 48953 net.cpp:582] From AppendTop @cpu: 0
I0327 08:47:25.663863 48953 net.cpp:579] pool3/3x3_s2_pool3/3x3_s2_0_split -> pool3/3x3_s2_pool3/3x3_s2_0_split_3
I0327 08:47:25.663872 48953 net.cpp:582] From AppendTop @cpu: 0
I0327 08:47:25.663887 48953 net.cpp:219] Setting up pool3/3x3_s2_pool3/3x3_s2_0_split
I0327 08:47:25.663898 48953 net.cpp:226] Top shape: 24 480 14 14 (2257920)
I0327 08:47:25.663909 48953 net.cpp:226] Top shape: 24 480 14 14 (2257920)
I0327 08:47:25.663920 48953 net.cpp:226] Top shape: 24 480 14 14 (2257920)
I0327 08:47:25.663930 48953 net.cpp:226] Top shape: 24 480 14 14 (2257920)
I0327 08:47:25.663939 48953 net.cpp:234] Memory required for data: 854397312
I0327 08:47:25.663949 48953 net.cpp:154] Setting up Layer of device :0 @cpu 0 Layer : inception_4a/1x1
I0327 08:47:25.663957 48953 layer_factory.hpp:114] Creating layer inception_4a/1x1
I0327 08:47:25.663980 48953 net.cpp:169] Creating Layer inception_4a/1x1
I0327 08:47:25.663990 48953 net.cpp:606] inception_4a/1x1 <- pool3/3x3_s2_pool3/3x3_s2_0_split_0
I0327 08:47:25.664006 48953 net.cpp:579] inception_4a/1x1 -> inception_4a/1x1
I0327 08:47:25.664016 48953 net.cpp:582] From AppendTop @cpu: 0
I0327 08:47:25.669265 48953 net.cpp:219] Setting up inception_4a/1x1
I0327 08:47:25.669317 48953 net.cpp:226] Top shape: 24 192 14 14 (903168)
I0327 08:47:25.669339 48953 net.cpp:234] Memory required for data: 858009984
I0327 08:47:25.669363 48953 net.cpp:154] Setting up Layer of device :0 @cpu 0 Layer : inception_4a/relu_1x1
I0327 08:47:25.669373 48953 layer_factory.hpp:114] Creating layer inception_4a/relu_1x1
I0327 08:47:25.669390 48953 net.cpp:169] Creating Layer inception_4a/relu_1x1
I0327 08:47:25.669402 48953 net.cpp:606] inception_4a/relu_1x1 <- inception_4a/1x1
I0327 08:47:25.669421 48953 net.cpp:566] inception_4a/relu_1x1 -> inception_4a/1x1 (in-place)
I0327 08:47:25.669438 48953 net.cpp:219] Setting up inception_4a/relu_1x1
I0327 08:47:25.669450 48953 net.cpp:226] Top shape: 24 192 14 14 (903168)
I0327 08:47:25.669457 48953 net.cpp:234] Memory required for data: 861622656
I0327 08:47:25.669467 48953 net.cpp:154] Setting up Layer of device :0 @cpu 0 Layer : inception_4a/3x3_reduce
I0327 08:47:25.669476 48953 layer_factory.hpp:114] Creating layer inception_4a/3x3_reduce
I0327 08:47:25.669494 48953 net.cpp:169] Creating Layer inception_4a/3x3_reduce
I0327 08:47:25.669504 48953 net.cpp:606] inception_4a/3x3_reduce <- pool3/3x3_s2_pool3/3x3_s2_0_split_1
I0327 08:47:25.669522 48953 net.cpp:579] inception_4a/3x3_reduce -> inception_4a/3x3_reduce
I0327 08:47:25.669530 48953 net.cpp:582] From AppendTop @cpu: 0
I0327 08:47:25.673108 48953 net.cpp:219] Setting up inception_4a/3x3_reduce
I0327 08:47:25.673148 48953 net.cpp:226] Top shape: 24 96 14 14 (451584)
I0327 08:47:25.673157 48953 net.cpp:234] Memory required for data: 863428992
I0327 08:47:25.673189 48953 net.cpp:154] Setting up Layer of device :0 @cpu 0 Layer : inception_4a/relu_3x3_reduce
I0327 08:47:25.673221 48953 layer_factory.hpp:114] Creating layer inception_4a/relu_3x3_reduce
I0327 08:47:25.673236 48953 net.cpp:169] Creating Layer inception_4a/relu_3x3_reduce
I0327 08:47:25.673252 48953 net.cpp:606] inception_4a/relu_3x3_reduce <- inception_4a/3x3_reduce
I0327 08:47:25.673269 48953 net.cpp:566] inception_4a/relu_3x3_reduce -> inception_4a/3x3_reduce (in-place)
I0327 08:47:25.673286 48953 net.cpp:219] Setting up inception_4a/relu_3x3_reduce
I0327 08:47:25.673297 48953 net.cpp:226] Top shape: 24 96 14 14 (451584)
I0327 08:47:25.673305 48953 net.cpp:234] Memory required for data: 865235328
I0327 08:47:25.673316 48953 net.cpp:154] Setting up Layer of device :0 @cpu 0 Layer : inception_4a/3x3
I0327 08:47:25.673324 48953 layer_factory.hpp:114] Creating layer inception_4a/3x3
I0327 08:47:25.673341 48953 net.cpp:169] Creating Layer inception_4a/3x3
I0327 08:47:25.673351 48953 net.cpp:606] inception_4a/3x3 <- inception_4a/3x3_reduce
I0327 08:47:25.673368 48953 net.cpp:579] inception_4a/3x3 -> inception_4a/3x3
I0327 08:47:25.673377 48953 net.cpp:582] From AppendTop @cpu: 0
I0327 08:47:25.681741 48953 net.cpp:219] Setting up inception_4a/3x3
I0327 08:47:25.681823 48953 net.cpp:226] Top shape: 24 208 14 14 (978432)
I0327 08:47:25.681833 48953 net.cpp:234] Memory required for data: 869149056
I0327 08:47:25.681862 48953 net.cpp:154] Setting up Layer of device :0 @cpu 0 Layer : inception_4a/relu_3x3
I0327 08:47:25.681872 48953 layer_factory.hpp:114] Creating layer inception_4a/relu_3x3
I0327 08:47:25.681892 48953 net.cpp:169] Creating Layer inception_4a/relu_3x3
I0327 08:47:25.681905 48953 net.cpp:606] inception_4a/relu_3x3 <- inception_4a/3x3
I0327 08:47:25.681923 48953 net.cpp:566] inception_4a/relu_3x3 -> inception_4a/3x3 (in-place)
I0327 08:47:25.681943 48953 net.cpp:219] Setting up inception_4a/relu_3x3
I0327 08:47:25.681955 48953 net.cpp:226] Top shape: 24 208 14 14 (978432)
I0327 08:47:25.681964 48953 net.cpp:234] Memory required for data: 873062784
I0327 08:47:25.681974 48953 net.cpp:154] Setting up Layer of device :0 @cpu 0 Layer : inception_4a/5x5_reduce
I0327 08:47:25.681983 48953 layer_factory.hpp:114] Creating layer inception_4a/5x5_reduce
I0327 08:47:25.682006 48953 net.cpp:169] Creating Layer inception_4a/5x5_reduce
I0327 08:47:25.682024 48953 net.cpp:606] inception_4a/5x5_reduce <- pool3/3x3_s2_pool3/3x3_s2_0_split_2
I0327 08:47:25.682040 48953 net.cpp:579] inception_4a/5x5_reduce -> inception_4a/5x5_reduce
I0327 08:47:25.682067 48953 net.cpp:582] From AppendTop @cpu: 0
I0327 08:47:25.684343 48953 net.cpp:219] Setting up inception_4a/5x5_reduce
I0327 08:47:25.684381 48953 net.cpp:226] Top shape: 24 16 14 14 (75264)
I0327 08:47:25.684389 48953 net.cpp:234] Memory required for data: 873363840
I0327 08:47:25.684411 48953 net.cpp:154] Setting up Layer of device :0 @cpu 0 Layer : inception_4a/relu_5x5_reduce
I0327 08:47:25.684420 48953 layer_factory.hpp:114] Creating layer inception_4a/relu_5x5_reduce
I0327 08:47:25.684434 48953 net.cpp:169] Creating Layer inception_4a/relu_5x5_reduce
I0327 08:47:25.684445 48953 net.cpp:606] inception_4a/relu_5x5_reduce <- inception_4a/5x5_reduce
I0327 08:47:25.684461 48953 net.cpp:566] inception_4a/relu_5x5_reduce -> inception_4a/5x5_reduce (in-place)
I0327 08:47:25.684478 48953 net.cpp:219] Setting up inception_4a/relu_5x5_reduce
I0327 08:47:25.684489 48953 net.cpp:226] Top shape: 24 16 14 14 (75264)
I0327 08:47:25.684497 48953 net.cpp:234] Memory required for data: 873664896
I0327 08:47:25.684509 48953 net.cpp:154] Setting up Layer of device :0 @cpu 0 Layer : inception_4a/5x5
I0327 08:47:25.684517 48953 layer_factory.hpp:114] Creating layer inception_4a/5x5
I0327 08:47:25.684536 48953 net.cpp:169] Creating Layer inception_4a/5x5
I0327 08:47:25.684546 48953 net.cpp:606] inception_4a/5x5 <- inception_4a/5x5_reduce
I0327 08:47:25.684559 48953 net.cpp:579] inception_4a/5x5 -> inception_4a/5x5
I0327 08:47:25.684568 48953 net.cpp:582] From AppendTop @cpu: 0
I0327 08:47:25.686728 48953 net.cpp:219] Setting up inception_4a/5x5
I0327 08:47:25.686787 48953 net.cpp:226] Top shape: 24 48 14 14 (225792)
I0327 08:47:25.686796 48953 net.cpp:234] Memory required for data: 874568064
I0327 08:47:25.686817 48953 net.cpp:154] Setting up Layer of device :0 @cpu 0 Layer : inception_4a/relu_5x5
I0327 08:47:25.686827 48953 layer_factory.hpp:114] Creating layer inception_4a/relu_5x5
I0327 08:47:25.686842 48953 net.cpp:169] Creating Layer inception_4a/relu_5x5
I0327 08:47:25.686852 48953 net.cpp:606] inception_4a/relu_5x5 <- inception_4a/5x5
I0327 08:47:25.686868 48953 net.cpp:566] inception_4a/relu_5x5 -> inception_4a/5x5 (in-place)
I0327 08:47:25.686883 48953 net.cpp:219] Setting up inception_4a/relu_5x5
I0327 08:47:25.686895 48953 net.cpp:226] Top shape: 24 48 14 14 (225792)
I0327 08:47:25.686904 48953 net.cpp:234] Memory required for data: 875471232
I0327 08:47:25.686914 48953 net.cpp:154] Setting up Layer of device :0 @cpu 0 Layer : inception_4a/pool
I0327 08:47:25.686923 48953 layer_factory.hpp:114] Creating layer inception_4a/pool
I0327 08:47:25.686967 48953 net.cpp:169] Creating Layer inception_4a/pool
I0327 08:47:25.686980 48953 net.cpp:606] inception_4a/pool <- pool3/3x3_s2_pool3/3x3_s2_0_split_3
I0327 08:47:25.686997 48953 net.cpp:579] inception_4a/pool -> inception_4a/pool
I0327 08:47:25.687006 48953 net.cpp:582] From AppendTop @cpu: 0
I0327 08:47:25.687032 48953 net.cpp:219] Setting up inception_4a/pool
I0327 08:47:25.687046 48953 net.cpp:226] Top shape: 24 480 14 14 (2257920)
I0327 08:47:25.687054 48953 net.cpp:234] Memory required for data: 884502912
I0327 08:47:25.687064 48953 net.cpp:154] Setting up Layer of device :0 @cpu 0 Layer : inception_4a/pool_proj
I0327 08:47:25.687073 48953 layer_factory.hpp:114] Creating layer inception_4a/pool_proj
I0327 08:47:25.687093 48953 net.cpp:169] Creating Layer inception_4a/pool_proj
I0327 08:47:25.687103 48953 net.cpp:606] inception_4a/pool_proj <- inception_4a/pool
I0327 08:47:25.687119 48953 net.cpp:579] inception_4a/pool_proj -> inception_4a/pool_proj
I0327 08:47:25.687129 48953 net.cpp:582] From AppendTop @cpu: 0
I0327 08:47:25.690117 48953 net.cpp:219] Setting up inception_4a/pool_proj
I0327 08:47:25.690157 48953 net.cpp:226] Top shape: 24 64 14 14 (301056)
I0327 08:47:25.690166 48953 net.cpp:234] Memory required for data: 885707136
I0327 08:47:25.690188 48953 net.cpp:154] Setting up Layer of device :0 @cpu 0 Layer : inception_4a/relu_pool_proj
I0327 08:47:25.690198 48953 layer_factory.hpp:114] Creating layer inception_4a/relu_pool_proj
I0327 08:47:25.690229 48953 net.cpp:169] Creating Layer inception_4a/relu_pool_proj
I0327 08:47:25.690241 48953 net.cpp:606] inception_4a/relu_pool_proj <- inception_4a/pool_proj
I0327 08:47:25.690259 48953 net.cpp:566] inception_4a/relu_pool_proj -> inception_4a/pool_proj (in-place)
I0327 08:47:25.690275 48953 net.cpp:219] Setting up inception_4a/relu_pool_proj
I0327 08:47:25.690287 48953 net.cpp:226] Top shape: 24 64 14 14 (301056)
I0327 08:47:25.690295 48953 net.cpp:234] Memory required for data: 886911360
I0327 08:47:25.690306 48953 net.cpp:154] Setting up Layer of device :0 @cpu 0 Layer : inception_4a/output
I0327 08:47:25.690315 48953 layer_factory.hpp:114] Creating layer inception_4a/output
I0327 08:47:25.690330 48953 net.cpp:169] Creating Layer inception_4a/output
I0327 08:47:25.690341 48953 net.cpp:606] inception_4a/output <- inception_4a/1x1
I0327 08:47:25.690351 48953 net.cpp:606] inception_4a/output <- inception_4a/3x3
I0327 08:47:25.690362 48953 net.cpp:606] inception_4a/output <- inception_4a/5x5
I0327 08:47:25.690372 48953 net.cpp:606] inception_4a/output <- inception_4a/pool_proj
I0327 08:47:25.690384 48953 net.cpp:579] inception_4a/output -> inception_4a/output
I0327 08:47:25.690392 48953 net.cpp:582] From AppendTop @cpu: 0
I0327 08:47:25.690409 48953 net.cpp:219] Setting up inception_4a/output
I0327 08:47:25.690420 48953 net.cpp:226] Top shape: 24 512 14 14 (2408448)
I0327 08:47:25.690429 48953 net.cpp:234] Memory required for data: 896545152
I0327 08:47:25.690439 48953 net.cpp:154] Setting up Layer of device :0 @cpu 0 Layer : inception_4a/output_inception_4a/output_0_split
I0327 08:47:25.690465 48953 layer_factory.hpp:114] Creating layer inception_4a/output_inception_4a/output_0_split
I0327 08:47:25.690480 48953 net.cpp:169] Creating Layer inception_4a/output_inception_4a/output_0_split
…
I0327 08:47:25.690562 48953 net.cpp:582] From AppendTop @cpu: 0
I0327 08:47:25.690577 48953 net.cpp:579] inception_4a/output_inception_4a/output_0_split -> inception_4a/output_inception_4a/output_0_split_3
I0327 08:47:25.690584 48953 net.cpp:582] From AppendTop @cpu: 0
I0327 08:47:25.690598 48953 net.cpp:579] inception_4a/output_inception_4a/output_0_split -> inception_4a/output_inception_4a/output_0_split_4
I0327 08:47:25.690606 48953 net.cpp:582] From AppendTop @cpu: 0
I0327 08:47:25.690623 48953 net.cpp:219] Setting up inception_4a/output_inception_4a/output_0_split
I0327 08:47:25.690634 48953 net.cpp:226] Top shape: 24 512 14 14 (2408448)
I0327 08:47:25.690644 48953 net.cpp:226] Top shape: 24 512 14 14 (2408448)
I0327 08:47:25.690655 48953 net.cpp:226] Top shape: 24 512 14 14 (2408448)
I0327 08:47:25.690666 48953 net.cpp:226] Top shape: 24 512 14 14 (2408448)
I0327 08:47:25.690677 48953 net.cpp:226] Top shape: 24 512 14 14 (2408448)
I0327 08:47:25.690685 48953 net.cpp:234] Memory required for data: 944714112
I0327 08:47:25.690696 48953 net.cpp:154] Setting up Layer of device :0 @cpu 0 Layer : loss1/ave_pool
I0327 08:47:25.690704 48953 layer_factory.hpp:114] Creating layer loss1/ave_pool
I0327 08:47:25.690744 48953 net.cpp:169] Creating Layer loss1/ave_pool
I0327 08:47:25.690757 48953 net.cpp:606] loss1/ave_pool <- inception_4a/output_inception_4a/output_0_split_0
I0327 08:47:25.690768 48953 net.cpp:579] loss1/ave_pool -> loss1/ave_pool
I0327 08:47:25.690778 48953 net.cpp:582] From AppendTop @cpu: 0
I0327 08:47:25.690791 48953 net.cpp:219] Setting up loss1/ave_pool
I0327 08:47:25.690809 48953 net.cpp:226] Top shape: 24 512 4 4 (196608)
I0327 08:47:25.690819 48953 net.cpp:234] Memory required for data: 945500544
I0327 08:47:25.690829 48953 net.cpp:154] Setting up Layer of device :0 @cpu 0 Layer : loss1/conv
I0327 08:47:25.690837 48953 layer_factory.hpp:114] Creating layer loss1/conv
I0327 08:47:25.690857 48953 net.cpp:169] Creating Layer loss1/conv
I0327 08:47:25.690867 48953 net.cpp:606] loss1/conv <- loss1/ave_pool
I0327 08:47:25.690884 48953 net.cpp:579] loss1/conv -> loss1/conv
I0327 08:47:25.690892 48953 net.cpp:582] From AppendTop @cpu: 0
I0327 08:47:25.693538 48953 net.cpp:219] Setting up loss1/conv
I0327 08:47:25.693572 48953 net.cpp:226] Top shape: 24 128 4 4 (49152)
I0327 08:47:25.693581 48953 net.cpp:234] Memory required for data: 945697152
I0327 08:47:25.693600 48953 net.cpp:154] Setting up Layer of device :0 @cpu 0 Layer : loss1/relu_conv
I0327 08:47:25.693610 48953 layer_factory.hpp:114] Creating layer loss1/relu_conv
I0327 08:47:25.693627 48953 net.cpp:169] Creating Layer loss1/relu_conv
I0327 08:47:25.693637 48953 net.cpp:606] loss1/relu_conv <- loss1/conv
I0327 08:47:25.693650 48953 net.cpp:566] loss1/relu_conv -> loss1/conv (in-place)
I0327 08:47:25.693665 48953 net.cpp:219] Setting up loss1/relu_conv
I0327 08:47:25.693677 48953 net.cpp:226] Top shape: 24 128 4 4 (49152)
I0327 08:47:25.693686 48953 net.cpp:234] Memory required for data: 945893760
I0327 08:47:25.693696 48953 net.cpp:154] Setting up Layer of device :0 @cpu 0 Layer : loss1/fc
I0327 08:47:25.693706 48953 layer_factory.hpp:114] Creating layer loss1/fc
I0327 08:47:25.693747 48953 net.cpp:169] Creating Layer loss1/fc
I0327 08:47:25.693758 48953 net.cpp:606] loss1/fc <- loss1/conv
I0327 08:47:25.693771 48953 net.cpp:579] loss1/fc -> loss1/fc
I0327 08:47:25.693780 48953 net.cpp:582] From AppendTop @cpu: 0
I0327 08:47:25.728498 48953 net.cpp:219] Setting up loss1/fc
I0327 08:47:25.728575 48953 net.cpp:226] Top shape: 24 1024 (24576)
I0327 08:47:25.728585 48953 net.cpp:234] Memory required for data: 945992064
I0327 08:47:25.728610 48953 net.cpp:154] Setting up Layer of device :0 @cpu 0 Layer : loss1/relu_fc
I0327 08:47:25.728619 48953 layer_factory.hpp:114] Creating layer loss1/relu_fc
I0327 08:47:25.728638 48953 net.cpp:169] Creating Layer loss1/relu_fc
I0327 08:47:25.728651 48953 net.cpp:606] loss1/relu_fc <- loss1/fc
I0327 08:47:25.728672 48953 net.cpp:566] loss1/relu_fc -> loss1/fc (in-place)
I0327 08:47:25.728690 48953 net.cpp:219] Setting up loss1/relu_fc
I0327 08:47:25.728703 48953 net.cpp:226] Top shape: 24 1024 (24576)
I0327 08:47:25.728710 48953 net.cpp:234] Memory required for data: 946090368
I0327 08:47:25.728720 48953 net.cpp:154] Setting up Layer of device :0 @cpu 0 Layer : loss1/drop_fc
I0327 08:47:25.728729 48953 layer_factory.hpp:114] Creating layer loss1/drop_fc
I0327 08:47:25.728754 48953 net.cpp:169] Creating Layer loss1/drop_fc
I0327 08:47:25.728765 48953 net.cpp:606] loss1/drop_fc <- loss1/fc
I0327 08:47:25.728778 48953 net.cpp:566] loss1/drop_fc -> loss1/fc (in-place)
I0327 08:47:25.728797 48953 net.cpp:219] Setting up loss1/drop_fc
I0327 08:47:25.728808 48953 net.cpp:226] Top shape: 24 1024 (24576)
I0327 08:47:25.728817 48953 net.cpp:234] Memory required for data: 946188672
I0327 08:47:25.728828 48953 net.cpp:154] Setting up Layer of device :0 @cpu 0 Layer : loss1/classifier
I0327 08:47:25.728837 48953 layer_factory.hpp:114] Creating layer loss1/classifier
I0327 08:47:25.728854 48953 net.cpp:169] Creating Layer loss1/classifier
I0327 08:47:25.728863 48953 net.cpp:606] loss1/classifier <- loss1/fc
I0327 08:47:25.728879 48953 net.cpp:579] loss1/classifier -> loss1/classifier
I0327 08:47:25.728889 48953 net.cpp:582] From AppendTop @cpu: 0
I0327 08:47:25.746291 48953 net.cpp:219] Setting up loss1/classifier
I0327 08:47:25.746343 48953 net.cpp:226] Top shape: 24 1000 (24000)
I0327 08:47:25.746353 48953 net.cpp:234] Memory required for data: 946284672
I0327 08:47:25.746374 48953 net.cpp:154] Setting up Layer of device :0 @cpu 0 Layer : loss1/loss
I0327 08:47:25.746384 48953 layer_factory.hpp:114] Creating layer loss1/loss
I0327 08:47:25.746425 48953 net.cpp:169] Creating Layer loss1/loss
I0327 08:47:25.746438 48953 net.cpp:606] loss1/loss <- loss1/classifier
…
I0327 08:47:25.746764 48953 net.cpp:154] Setting up Layer of device :0 @cpu 0 Layer : inception_4b/1x1
I0327 08:47:25.746773 48953 layer_factory.hpp:114] Creating layer inception_4b/1x1
I0327 08:47:25.746796 48953 net.cpp:169] Creating Layer inception_4b/1x1
I0327 08:47:25.746809 48953 net.cpp:606] inception_4b/1x1 <- inception_4a/output_inception_4a/output_0_split_1
I0327 08:47:25.746824 48953 net.cpp:579] inception_4b/1x1 -> inception_4b/1x1
I0327 08:47:25.746835 48953 net.cpp:582] From AppendTop @cpu: 0
I0327 08:47:25.751873 48953 net.cpp:219] Setting up inception_4b/1x1
I0327 08:47:25.751924 48953 net.cpp:226] Top shape: 24 160 14 14 (752640)
I0327 08:47:25.751935 48953 net.cpp:234] Memory required for data: 949295236
I0327 08:47:25.751960 48953 net.cpp:154] Setting up Layer of device :0 @cpu 0 Layer : inception_4b/relu_1x1
I0327 08:47:25.751969 48953 layer_factory.hpp:114] Creating layer inception_4b/relu_1x1
I0327 08:47:25.752015 48953 net.cpp:169] Creating Layer inception_4b/relu_1x1
I0327 08:47:25.752034 48953 net.cpp:606] inception_4b/relu_1x1 <- inception_4b/1x1
I0327 08:47:25.752051 48953 net.cpp:566] inception_4b/relu_1x1 -> inception_4b/1x1 (in-place)
I0327 08:47:25.752068 48953 net.cpp:219] Setting up inception_4b/relu_1x1
I0327 08:47:25.752080 48953 net.cpp:226] Top shape: 24 160 14 14 (752640)
I0327 08:47:25.752089 48953 net.cpp:234] Memory required for data: 952305796
I0327 08:47:25.752099 48953 net.cpp:154] Setting up Layer of device :0 @cpu 0 Layer : inception_4b/3x3_reduce
I0327 08:47:25.752109 48953 layer_factory.hpp:114] Creating layer inception_4b/3x3_reduce
I0327 08:47:25.752130 48953 net.cpp:169] Creating Layer inception_4b/3x3_reduce
I0327 08:47:25.752140 48953 net.cpp:606] inception_4b/3x3_reduce <- inception_4a/output_inception_4a/output_0_split_2
I0327 08:47:25.752154 48953 net.cpp:579] inception_4b/3x3_reduce -> inception_4b/3x3_reduce
I0327 08:47:25.752163 48953 net.cpp:582] From AppendTop @cpu: 0
I0327 08:47:25.756096 48953 net.cpp:219] Setting up inception_4b/3x3_reduce
I0327 08:47:25.756142 48953 net.cpp:226] Top shape: 24 112 14 14 (526848)
I0327 08:47:25.756151 48953 net.cpp:234] Memory required for data: 954413188
I0327 08:47:25.756173 48953 net.cpp:154] Setting up Layer of device :0 @cpu 0 Layer : inception_4b/relu_3x3_reduce
I0327 08:47:25.756183 48953 layer_factory.hpp:114] Creating layer inception_4b/relu_3x3_reduce
I0327 08:47:25.756203 48953 net.cpp:169] Creating Layer inception_4b/relu_3x3_reduce
I0327 08:47:25.756214 48953 net.cpp:606] inception_4b/relu_3x3_reduce <- inception_4b/3x3_reduce
I0327 08:47:25.756228 48953 net.cpp:566] inception_4b/relu_3x3_reduce -> inception_4b/3x3_reduce (in-place)
I0327 08:47:25.756244 48953 net.cpp:219] Setting up inception_4b/relu_3x3_reduce
I0327 08:47:25.756261 48953 net.cpp:226] Top shape: 24 112 14 14 (526848)
I0327 08:47:25.756269 48953 net.cpp:234] Memory required for data: 956520580
I0327 08:47:25.756280 48953 net.cpp:154] Setting up Layer of device :0 @cpu 0 Layer : inception_4b/3x3
I0327 08:47:25.756289 48953 layer_factory.hpp:114] Creating layer inception_4b/3x3
I0327 08:47:25.756309 48953 net.cpp:169] Creating Layer inception_4b/3x3
I0327 08:47:25.756319 48953 net.cpp:606] inception_4b/3x3 <- inception_4b/3x3_reduce
I0327 08:47:25.756335 48953 net.cpp:579] inception_4b/3x3 -> inception_4b/3x3
I0327 08:47:25.756345 48953 net.cpp:582] From AppendTop @cpu: 0
I0327 08:47:25.766084 48953 net.cpp:219] Setting up inception_4b/3x3
I0327 08:47:25.766173 48953 net.cpp:226] Top shape: 24 224 14 14 (1053696)
I0327 08:47:25.766182 48953 net.cpp:234] Memory required for data: 960735364
I0327 08:47:25.766214 48953 net.cpp:154] Setting up Layer of device :0 @cpu 0 Layer : inception_4b/relu_3x3
I0327 08:47:25.766223 48953 layer_factory.hpp:114] Creating layer inception_4b/relu_3x3
I0327 08:47:25.766253 48953 net.cpp:169] Creating Layer inception_4b/relu_3x3
I0327 08:47:25.766268 48953 net.cpp:606] inception_4b/relu_3x3 <- inception_4b/3x3
I0327 08:47:25.766283 48953 net.cpp:566] inception_4b/relu_3x3 -> inception_4b/3x3 (in-place)
I0327 08:47:25.766302 48953 net.cpp:219] Setting up inception_4b/relu_3x3
I0327 08:47:25.766314 48953 net.cpp:226] Top shape: 24 224 14 14 (1053696)
I0327 08:47:25.766324 48953 net.cpp:234] Memory required for data: 964950148
I0327 08:47:25.766333 48953 net.cpp:154] Setting up Layer of device :0 @cpu 0 Layer : inception_4b/5x5_reduce
I0327 08:47:25.766341 48953 layer_factory.hpp:114] Creating layer inception_4b/5x5_reduce
I0327 08:47:25.766362 48953 net.cpp:169] Creating Layer inception_4b/5x5_reduce
I0327 08:47:25.766373 48953 net.cpp:606] inception_4b/5x5_reduce <- inception_4a/output_inception_4a/output_0_split_3
I0327 08:47:25.766391 48953 net.cpp:579] inception_4b/5x5_reduce -> inception_4b/5x5_reduce
I0327 08:47:25.766400 48953 net.cpp:582] From AppendTop @cpu: 0
I0327 08:47:25.768869 48953 net.cpp:219] Setting up inception_4b/5x5_reduce
I0327 08:47:25.768908 48953 net.cpp:226] Top shape: 24 24 14 14 (112896)
I0327 08:47:25.768945 48953 net.cpp:234] Memory required for data: 965401732
I0327 08:47:25.768967 48953 net.cpp:154] Setting up Layer of device :0 @cpu 0 Layer : inception_4b/relu_5x5_reduce
I0327 08:47:25.768977 48953 layer_factory.hpp:114] Creating layer inception_4b/relu_5x5_reduce
I0327 08:47:25.768997 48953 net.cpp:169] Creating Layer inception_4b/relu_5x5_reduce
I0327 08:47:25.769009 48953 net.cpp:606] inception_4b/relu_5x5_reduce <- inception_4b/5x5_reduce
I0327 08:47:25.769028 48953 net.cpp:566] inception_4b/relu_5x5_reduce -> inception_4b/5x5_reduce (in-place)
I0327 08:47:25.769047 48953 net.cpp:219] Setting up inception_4b/relu_5x5_reduce
I0327 08:47:25.769058 48953 net.cpp:226] Top shape: 24 24 14 14 (112896)
I0327 08:47:25.769067 48953 net.cpp:234] Memory required for data: 965853316
I0327 08:47:25.769076 48953 net.cpp:154] Setting up Layer of device :0 @cpu 0 Layer : inception_4b/5x5
I0327 08:47:25.769085 48953 layer_factory.hpp:114] Creating layer inception_4b/5x5
I0327 08:47:25.769105 48953 net.cpp:169] Creating Layer inception_4b/5x5
I0327 08:47:25.769115 48953 net.cpp:606] inception_4b/5x5 <- inception_4b/5x5_reduce
I0327 08:47:25.769130 48953 net.cpp:579] inception_4b/5x5 -> inception_4b/5x5
I0327 08:47:25.769140 48953 net.cpp:582] From AppendTop @cpu: 0
I0327 08:47:25.772765 48953 net.cpp:219] Setting up inception_4b/5x5
I0327 08:47:25.772811 48953 net.cpp:226] Top shape: 24 64 14 14 (301056)
I0327 08:47:25.772820 48953 net.cpp:234] Memory required for data: 967057540
I0327 08:47:25.772843 48953 net.cpp:154] Setting up Layer of device :0 @cpu 0 Layer : inception_4b/relu_5x5
I0327 08:47:25.772853 48953 layer_factory.hpp:114] Creating layer inception_4b/relu_5x5
I0327 08:47:25.772872 48953 net.cpp:169] Creating Layer inception_4b/relu_5x5
I0327 08:47:25.772884 48953 net.cpp:606] inception_4b/relu_5x5 <- inception_4b/5x5
I0327 08:47:25.772897 48953 net.cpp:566] inception_4b/relu_5x5 -> inception_4b/5x5 (in-place)
I0327 08:47:25.772913 48953 net.cpp:219] Setting up inception_4b/relu_5x5
I0327 08:47:25.772924 48953 net.cpp:226] Top shape: 24 64 14 14 (301056)
I0327 08:47:25.772933 48953 net.cpp:234] Memory required for data: 968261764
I0327 08:47:25.772943 48953 net.cpp:154] Setting up Layer of device :0 @cpu 0 Layer : inception_4b/pool
I0327 08:47:25.772953 48953 layer_factory.hpp:114] Creating layer inception_4b/pool
I0327 08:47:25.772995 48953 net.cpp:169] Creating Layer inception_4b/pool
I0327 08:47:25.773027 48953 net.cpp:606] inception_4b/pool <- inception_4a/output_inception_4a/output_0_split_4
I0327 08:47:25.773046 48953 net.cpp:579] inception_4b/pool -> inception_4b/pool
I0327 08:47:25.773056 48953 net.cpp:582] From AppendTop @cpu: 0
I0327 08:47:25.773082 48953 net.cpp:219] Setting up inception_4b/pool
I0327 08:47:25.773095 48953 net.cpp:226] Top shape: 24 512 14 14 (2408448)
I0327 08:47:25.773103 48953 net.cpp:234] Memory required for data: 977895556
I0327 08:47:25.773114 48953 net.cpp:154] Setting up Layer of device :0 @cpu 0 Layer : inception_4b/pool_proj
I0327 08:47:25.773123 48953 layer_factory.hpp:114] Creating layer inception_4b/pool_proj
I0327 08:47:25.773144 48953 net.cpp:169] Creating Layer inception_4b/pool_proj
I0327 08:47:25.773154 48953 net.cpp:606] inception_4b/pool_proj <- inception_4b/pool
I0327 08:47:25.773170 48953 net.cpp:579] inception_4b/pool_proj -> inception_4b/pool_proj
I0327 08:47:25.773180 48953 net.cpp:582] From AppendTop @cpu: 0
I0327 08:47:25.776330 48953 net.cpp:219] Setting up inception_4b/pool_proj
I0327 08:47:25.776371 48953 net.cpp:226] Top shape: 24 64 14 14 (301056)
I0327 08:47:25.776381 48953 net.cpp:234] Memory required for data: 979099780
I0327 08:47:25.776403 48953 net.cpp:154] Setting up Layer of device :0 @cpu 0 Layer : inception_4b/relu_pool_proj
I0327 08:47:25.776413 48953 layer_factory.hpp:114] Creating layer inception_4b/relu_pool_proj
I0327 08:47:25.776432 48953 net.cpp:169] Creating Layer inception_4b/relu_pool_proj
I0327 08:47:25.776444 48953 net.cpp:606] inception_4b/relu_pool_proj <- inception_4b/pool_proj
I0327 08:47:25.776480 48953 net.cpp:566] inception_4b/relu_pool_proj -> inception_4b/pool_proj (in-place)
I0327 08:47:25.776497 48953 net.cpp:219] Setting up inception_4b/relu_pool_proj
I0327 08:47:25.776509 48953 net.cpp:226] Top shape: 24 64 14 14 (301056)
I0327 08:47:25.776516 48953 net.cpp:234] Memory required for data: 980304004
I0327 08:47:25.776527 48953 net.cpp:154] Setting up Layer of device :0 @cpu 0 Layer : inception_4b/output
I0327 08:47:25.776535 48953 layer_factory.hpp:114] Creating layer inception_4b/output
I0327 08:47:25.776552 48953 net.cpp:169] Creating Layer inception_4b/output
I0327 08:47:25.776562 48953 net.cpp:606] inception_4b/output <- inception_4b/1x1
I0327 08:47:25.776573 48953 net.cpp:606] inception_4b/output <- inception_4b/3x3
I0327 08:47:25.776583 48953 net.cpp:606] inception_4b/output <- inception_4b/5x5
I0327 08:47:25.776593 48953 net.cpp:606] inception_4b/output <- inception_4b/pool_proj
I0327 08:47:25.776605 48953 net.cpp:579] inception_4b/output -> inception_4b/output
I0327 08:47:25.776614 48953 net.cpp:582] From AppendTop @cpu: 0
I0327 08:47:25.776631 48953 net.cpp:219] Setting up inception_4b/output
I0327 08:47:25.776643 48953 net.cpp:226] Top shape: 24 512 14 14 (2408448)
I0327 08:47:25.776651 48953 net.cpp:234] Memory required for data: 989937796
I0327 08:47:25.776661 48953 net.cpp:154] Setting up Layer of device :0 @cpu 0 Layer : inception_4b/output_inception_4b/output_0_split
I0327 08:47:25.776670 48953 layer_factory.hpp:114] Creating layer inception_4b/output_inception_4b/output_0_split
I0327 08:47:25.776682 48953 net.cpp:169] Creating Layer inception_4b/output_inception_4b/output_0_split
…
I0327 08:47:25.776737 48953 net.cpp:582] From AppendTop @cpu: 0
I0327 08:47:25.776751 48953 net.cpp:579] inception_4b/output_inception_4b/output_0_split -> inception_4b/output_inception_4b/output_0_split_2
I0327 08:47:25.776759 48953 net.cpp:582] From AppendTop @cpu: 0
I0327 08:47:25.776773 48953 net.cpp:579] inception_4b/output_inception_4b/output_0_split -> inception_4b/output_inception_4b/output_0_split_3
I0327 08:47:25.776788 48953 net.cpp:582] From AppendTop @cpu: 0
I0327 08:47:25.776806 48953 net.cpp:219] Setting up inception_4b/output_inception_4b/output_0_split
I0327 08:47:25.776818 48953 net.cpp:226] Top shape: 24 512 14 14 (2408448)
I0327 08:47:25.776829 48953 net.cpp:226] Top shape: 24 512 14 14 (2408448)
I0327 08:47:25.776840 48953 net.cpp:226] Top shape: 24 512 14 14 (2408448)
I0327 08:47:25.776850 48953 net.cpp:226] Top shape: 24 512 14 14 (2408448)
I0327 08:47:25.776859 48953 net.cpp:234] Memory required for data: 1028472964
I0327 08:47:25.776868 48953 net.cpp:154] Setting up Layer of device :0 @cpu 0 Layer : inception_4c/1x1
I0327 08:47:25.776877 48953 layer_factory.hpp:114] Creating layer inception_4c/1x1
I0327 08:47:25.776901 48953 net.cpp:169] Creating Layer inception_4c/1x1
I0327 08:47:25.776911 48953 net.cpp:606] inception_4c/1x1 <- inception_4b/output_inception_4b/output_0_split_0
I0327 08:47:25.776927 48953 net.cpp:579] inception_4c/1x1 -> inception_4c/1x1
I0327 08:47:25.776937 48953 net.cpp:582] From AppendTop @cpu: 0
I0327 08:47:25.780565 48953 net.cpp:219] Setting up inception_4c/1x1
I0327 08:47:25.780612 48953 net.cpp:226] Top shape: 24 128 14 14 (602112)
I0327 08:47:25.780622 48953 net.cpp:234] Memory required for data: 1030881412
I0327 08:47:25.780645 48953 net.cpp:154] Setting up Layer of device :0 @cpu 0 Layer : inception_4c/relu_1x1
I0327 08:47:25.780655 48953 layer_factory.hpp:114] Creating layer inception_4c/relu_1x1
I0327 08:47:25.780671 48953 net.cpp:169] Creating Layer inception_4c/relu_1x1
I0327 08:47:25.780683 48953 net.cpp:606] inception_4c/relu_1x1 <- inception_4c/1x1
I0327 08:47:25.780720 48953 net.cpp:566] inception_4c/relu_1x1 -> inception_4c/1x1 (in-place)
I0327 08:47:25.780737 48953 net.cpp:219] Setting up inception_4c/relu_1x1
I0327 08:47:25.780750 48953 net.cpp:226] Top shape: 24 128 14 14 (602112)
I0327 08:47:25.780757 48953 net.cpp:234] Memory required for data: 1033289860
I0327 08:47:25.780767 48953 net.cpp:154] Setting up Layer of device :0 @cpu 0 Layer : inception_4c/3x3_reduce
I0327 08:47:25.780776 48953 layer_factory.hpp:114] Creating layer inception_4c/3x3_reduce
I0327 08:47:25.780797 48953 net.cpp:169] Creating Layer inception_4c/3x3_reduce
I0327 08:47:25.780808 48953 net.cpp:606] inception_4c/3x3_reduce <- inception_4b/output_inception_4b/output_0_split_1
I0327 08:47:25.780822 48953 net.cpp:579] inception_4c/3x3_reduce -> inception_4c/3x3_reduce
I0327 08:47:25.780831 48953 net.cpp:582] From AppendTop @cpu: 0
I0327 08:47:25.784368 48953 net.cpp:219] Setting up inception_4c/3x3_reduce
I0327 08:47:25.784415 48953 net.cpp:226] Top shape: 24 128 14 14 (602112)
I0327 08:47:25.784425 48953 net.cpp:234] Memory required for data: 1035698308
I0327 08:47:25.784447 48953 net.cpp:154] Setting up Layer of device :0 @cpu 0 Layer : inception_4c/relu_3x3_reduce
I0327 08:47:25.784457 48953 layer_factory.hpp:114] Creating layer inception_4c/relu_3x3_reduce
I0327 08:47:25.784473 48953 net.cpp:169] Creating Layer inception_4c/relu_3x3_reduce
I0327 08:47:25.784485 48953 net.cpp:606] inception_4c/relu_3x3_reduce <- inception_4c/3x3_reduce
I0327 08:47:25.784498 48953 net.cpp:566] inception_4c/relu_3x3_reduce -> inception_4c/3x3_reduce (in-place)
I0327 08:47:25.784515 48953 net.cpp:219] Setting up inception_4c/relu_3x3_reduce
I0327 08:47:25.784528 48953 net.cpp:226] Top shape: 24 128 14 14 (602112)
I0327 08:47:25.784535 48953 net.cpp:234] Memory required for data: 1038106756
I0327 08:47:25.784546 48953 net.cpp:154] Setting up Layer of device :0 @cpu 0 Layer : inception_4c/3x3
I0327 08:47:25.784555 48953 layer_factory.hpp:114] Creating layer inception_4c/3x3
I0327 08:47:25.784575 48953 net.cpp:169] Creating Layer inception_4c/3x3
I0327 08:47:25.784585 48953 net.cpp:606] inception_4c/3x3 <- inception_4c/3x3_reduce
I0327 08:47:25.784598 48953 net.cpp:579] inception_4c/3x3 -> inception_4c/3x3
I0327 08:47:25.784607 48953 net.cpp:582] From AppendTop @cpu: 0
I0327 08:47:25.796649 48953 net.cpp:219] Setting up inception_4c/3x3
I0327 08:47:25.796735 48953 net.cpp:226] Top shape: 24 256 14 14 (1204224)
I0327 08:47:25.796761 48953 net.cpp:234] Memory required for data: 1042923652
I0327 08:47:25.796808 48953 net.cpp:154] Setting up Layer of device :0 @cpu 0 Layer : inception_4c/relu_3x3
I0327 08:47:25.796818 48953 layer_factory.hpp:114] Creating layer inception_4c/relu_3x3
I0327 08:47:25.796842 48953 net.cpp:169] Creating Layer inception_4c/relu_3x3
I0327 08:47:25.796856 48953 net.cpp:606] inception_4c/relu_3x3 <- inception_4c/3x3
I0327 08:47:25.796871 48953 net.cpp:566] inception_4c/relu_3x3 -> inception_4c/3x3 (in-place)
I0327 08:47:25.796892 48953 net.cpp:219] Setting up inception_4c/relu_3x3
I0327 08:47:25.796903 48953 net.cpp:226] Top shape: 24 256 14 14 (1204224)
I0327 08:47:25.796912 48953 net.cpp:234] Memory required for data: 1047740548
I0327 08:47:25.796922 48953 net.cpp:154] Setting up Layer of device :0 @cpu 0 Layer : inception_4c/5x5_reduce
I0327 08:47:25.796931 48953 layer_factory.hpp:114] Creating layer inception_4c/5x5_reduce
I0327 08:47:25.796952 48953 net.cpp:169] Creating Layer inception_4c/5x5_reduce
I0327 08:47:25.796962 48953 net.cpp:606] inception_4c/5x5_reduce <- inception_4b/output_inception_4b/output_0_split_2
I0327 08:47:25.796979 48953 net.cpp:579] inception_4c/5x5_reduce -> inception_4c/5x5_reduce
I0327 08:47:25.796989 48953 net.cpp:582] From AppendTop @cpu: 0
I0327 08:47:25.799379 48953 net.cpp:219] Setting up inception_4c/5x5_reduce
I0327 08:47:25.799417 48953 net.cpp:226] Top shape: 24 24 14 14 (112896)
I0327 08:47:25.799425 48953 net.cpp:234] Memory required for data: 1048192132
I0327 08:47:25.799448 48953 net.cpp:154] Setting up Layer of device :0 @cpu 0 Layer : inception_4c/relu_5x5_reduce
I0327 08:47:25.799479 48953 layer_factory.hpp:114] Creating layer inception_4c/relu_5x5_reduce
I0327 08:47:25.799492 48953 net.cpp:169] Creating Layer inception_4c/relu_5x5_reduce
I0327 08:47:25.799507 48953 net.cpp:606] inception_4c/relu_5x5_reduce <- inception_4c/5x5_reduce
I0327 08:47:25.799520 48953 net.cpp:566] inception_4c/relu_5x5_reduce -> inception_4c/5x5_reduce (in-place)
I0327 08:47:25.799536 48953 net.cpp:219] Setting up inception_4c/relu_5x5_reduce
I0327 08:47:25.799548 48953 net.cpp:226] Top shape: 24 24 14 14 (112896)
I0327 08:47:25.799556 48953 net.cpp:234] Memory required for data: 1048643716
I0327 08:47:25.799567 48953 net.cpp:154] Setting up Layer of device :0 @cpu 0 Layer : inception_4c/5x5
I0327 08:47:25.799576 48953 layer_factory.hpp:114] Creating layer inception_4c/5x5
I0327 08:47:25.799595 48953 net.cpp:169] Creating Layer inception_4c/5x5
I0327 08:47:25.799605 48953 net.cpp:606] inception_4c/5x5 <- inception_4c/5x5_reduce
I0327 08:47:25.799621 48953 net.cpp:579] inception_4c/5x5 -> inception_4c/5x5
I0327 08:47:25.799630 48953 net.cpp:582] From AppendTop @cpu: 0
I0327 08:47:25.802597 48953 net.cpp:219] Setting up inception_4c/5x5
I0327 08:47:25.802642 48953 net.cpp:226] Top shape: 24 64 14 14 (301056)
I0327 08:47:25.802652 48953 net.cpp:234] Memory required for data: 1049847940
I0327 08:47:25.802675 48953 net.cpp:154] Setting up Layer of device :0 @cpu 0 Layer : inception_4c/relu_5x5
I0327 08:47:25.802685 48953 layer_factory.hpp:114] Creating layer inception_4c/relu_5x5
I0327 08:47:25.802701 48953 net.cpp:169] Creating Layer inception_4c/relu_5x5
I0327 08:47:25.802717 48953 net.cpp:606] inception_4c/relu_5x5 <- inception_4c/5x5
I0327 08:47:25.802731 48953 net.cpp:566] inception_4c/relu_5x5 -> inception_4c/5x5 (in-place)
I0327 08:47:25.802747 48953 net.cpp:219] Setting up inception_4c/relu_5x5
I0327 08:47:25.802758 48953 net.cpp:226] Top shape: 24 64 14 14 (301056)
I0327 08:47:25.802767 48953 net.cpp:234] Memory required for data: 1051052164
I0327 08:47:25.802776 48953 net.cpp:154] Setting up Layer of device :0 @cpu 0 Layer : inception_4c/pool
I0327 08:47:25.802785 48953 layer_factory.hpp:114] Creating layer inception_4c/pool
I0327 08:47:25.802834 48953 net.cpp:169] Creating Layer inception_4c/pool
I0327 08:47:25.802845 48953 net.cpp:606] inception_4c/pool <- inception_4b/output_inception_4b/output_0_split_3
I0327 08:47:25.802861 48953 net.cpp:579] inception_4c/pool -> inception_4c/pool
I0327 08:47:25.802882 48953 net.cpp:582] From AppendTop @cpu: 0
I0327 08:47:25.802902 48953 net.cpp:219] Setting up inception_4c/pool
I0327 08:47:25.802916 48953 net.cpp:226] Top shape: 24 512 14 14 (2408448)
I0327 08:47:25.802923 48953 net.cpp:234] Memory required for data: 1060685956
I0327 08:47:25.802934 48953 net.cpp:154] Setting up Layer of device :0 @cpu 0 Layer : inception_4c/pool_proj
I0327 08:47:25.802942 48953 layer_factory.hpp:114] Creating layer inception_4c/pool_proj
I0327 08:47:25.802963 48953 net.cpp:169] Creating Layer inception_4c/pool_proj
I0327 08:47:25.802973 48953 net.cpp:606] inception_4c/pool_proj <- inception_4c/pool
I0327 08:47:25.802990 48953 net.cpp:579] inception_4c/pool_proj -> inception_4c/pool_proj
I0327 08:47:25.802999 48953 net.cpp:582] From AppendTop @cpu: 0
I0327 08:47:25.806231 48953 net.cpp:219] Setting up inception_4c/pool_proj
I0327 08:47:25.806277 48953 net.cpp:226] Top shape: 24 64 14 14 (301056)
I0327 08:47:25.806288 48953 net.cpp:234] Memory required for data: 1061890180
I0327 08:47:25.806308 48953 net.cpp:154] Setting up Layer of device :0 @cpu 0 Layer : inception_4c/relu_pool_proj
I0327 08:47:25.806318 48953 layer_factory.hpp:114] Creating layer inception_4c/relu_pool_proj
I0327 08:47:25.806336 48953 net.cpp:169] Creating Layer inception_4c/relu_pool_proj
I0327 08:47:25.806349 48953 net.cpp:606] inception_4c/relu_pool_proj <- inception_4c/pool_proj
I0327 08:47:25.806361 48953 net.cpp:566] inception_4c/relu_pool_proj -> inception_4c/pool_proj (in-place)
I0327 08:47:25.806377 48953 net.cpp:219] Setting up inception_4c/relu_pool_proj
I0327 08:47:25.806414 48953 net.cpp:226] Top shape: 24 64 14 14 (301056)
I0327 08:47:25.806423 48953 net.cpp:234] Memory required for data: 1063094404
I0327 08:47:25.806433 48953 net.cpp:154] Setting up Layer of device :0 @cpu 0 Layer : inception_4c/output
I0327 08:47:25.806442 48953 layer_factory.hpp:114] Creating layer inception_4c/output
I0327 08:47:25.806454 48953 net.cpp:169] Creating Layer inception_4c/output
I0327 08:47:25.806464 48953 net.cpp:606] inception_4c/output <- inception_4c/1x1
I0327 08:47:25.806475 48953 net.cpp:606] inception_4c/output <- inception_4c/3x3
I0327 08:47:25.806485 48953 net.cpp:606] inception_4c/output <- inception_4c/5x5
I0327 08:47:25.806496 48953 net.cpp:606] inception_4c/output <- inception_4c/pool_proj
I0327 08:47:25.806511 48953 net.cpp:579] inception_4c/output -> inception_4c/output
I0327 08:47:25.806520 48953 net.cpp:582] From AppendTop @cpu: 0
I0327 08:47:25.806537 48953 net.cpp:219] Setting up inception_4c/output
I0327 08:47:25.806550 48953 net.cpp:226] Top shape: 24 512 14 14 (2408448)
I0327 08:47:25.806557 48953 net.cpp:234] Memory required for data: 1072728196
I0327 08:47:25.806567 48953 net.cpp:154] Setting up Layer of device :0 @cpu 0 Layer : inception_4c/output_inception_4c/output_0_split
I0327 08:47:25.806576 48953 layer_factory.hpp:114] Creating layer inception_4c/output_inception_4c/output_0_split
I0327 08:47:25.806588 48953 net.cpp:169] Creating Layer inception_4c/output_inception_4c/output_0_split
…
I0327 08:47:25.806644 48953 net.cpp:582] From AppendTop @cpu: 0
I0327 08:47:25.806658 48953 net.cpp:579] inception_4c/output_inception_4c/output_0_split -> inception_4c/output_inception_4c/output_0_split_2
I0327 08:47:25.806666 48953 net.cpp:582] From AppendTop @cpu: 0
I0327 08:47:25.806680 48953 net.cpp:579] inception_4c/output_inception_4c/output_0_split -> inception_4c/output_inception_4c/output_0_split_3
I0327 08:47:25.806689 48953 net.cpp:582] From AppendTop @cpu: 0
I0327 08:47:25.806704 48953 net.cpp:219] Setting up inception_4c/output_inception_4c/output_0_split
I0327 08:47:25.806721 48953 net.cpp:226] Top shape: 24 512 14 14 (2408448)
I0327 08:47:25.806732 48953 net.cpp:226] Top shape: 24 512 14 14 (2408448)
I0327 08:47:25.806743 48953 net.cpp:226] Top shape: 24 512 14 14 (2408448)
I0327 08:47:25.806754 48953 net.cpp:226] Top shape: 24 512 14 14 (2408448)
I0327 08:47:25.806762 48953 net.cpp:234] Memory required for data: 1111263364
I0327 08:47:25.806772 48953 net.cpp:154] Setting up Layer of device :0 @cpu 0 Layer : inception_4d/1x1
I0327 08:47:25.806780 48953 layer_factory.hpp:114] Creating layer inception_4d/1x1
I0327 08:47:25.806804 48953 net.cpp:169] Creating Layer inception_4d/1x1
I0327 08:47:25.806814 48953 net.cpp:606] inception_4d/1x1 <- inception_4c/output_inception_4c/output_0_split_0
I0327 08:47:25.806828 48953 net.cpp:579] inception_4d/1x1 -> inception_4d/1x1
I0327 08:47:25.806836 48953 net.cpp:582] From AppendTop @cpu: 0
I0327 08:47:25.810822 48953 net.cpp:219] Setting up inception_4d/1x1
I0327 08:47:25.810865 48953 net.cpp:226] Top shape: 24 112 14 14 (526848)
I0327 08:47:25.810874 48953 net.cpp:234] Memory required for data: 1113370756
I0327 08:47:25.810897 48953 net.cpp:154] Setting up Layer of device :0 @cpu 0 Layer : inception_4d/relu_1x1
I0327 08:47:25.810907 48953 layer_factory.hpp:114] Creating layer inception_4d/relu_1x1
I0327 08:47:25.810922 48953 net.cpp:169] Creating Layer inception_4d/relu_1x1
I0327 08:47:25.810935 48953 net.cpp:606] inception_4d/relu_1x1 <- inception_4d/1x1
I0327 08:47:25.810951 48953 net.cpp:566] inception_4d/relu_1x1 -> inception_4d/1x1 (in-place)
I0327 08:47:25.810988 48953 net.cpp:219] Setting up inception_4d/relu_1x1
I0327 08:47:25.811000 48953 net.cpp:226] Top shape: 24 112 14 14 (526848)
I0327 08:47:25.811009 48953 net.cpp:234] Memory required for data: 1115478148
I0327 08:47:25.811025 48953 net.cpp:154] Setting up Layer of device :0 @cpu 0 Layer : inception_4d/3x3_reduce
I0327 08:47:25.811035 48953 layer_factory.hpp:114] Creating layer inception_4d/3x3_reduce
I0327 08:47:25.811056 48953 net.cpp:169] Creating Layer inception_4d/3x3_reduce
I0327 08:47:25.811067 48953 net.cpp:606] inception_4d/3x3_reduce <- inception_4c/output_inception_4c/output_0_split_1
I0327 08:47:25.811084 48953 net.cpp:579] inception_4d/3x3_reduce -> inception_4d/3x3_reduce
I0327 08:47:25.811094 48953 net.cpp:582] From AppendTop @cpu: 0
I0327 08:47:25.815739 48953 net.cpp:219] Setting up inception_4d/3x3_reduce
I0327 08:47:25.815789 48953 net.cpp:226] Top shape: 24 144 14 14 (677376)
I0327 08:47:25.815798 48953 net.cpp:234] Memory required for data: 1118187652
I0327 08:47:25.815824 48953 net.cpp:154] Setting up Layer of device :0 @cpu 0 Layer : inception_4d/relu_3x3_reduce
I0327 08:47:25.815834 48953 layer_factory.hpp:114] Creating layer inception_4d/relu_3x3_reduce
I0327 08:47:25.815850 48953 net.cpp:169] Creating Layer inception_4d/relu_3x3_reduce
I0327 08:47:25.815863 48953 net.cpp:606] inception_4d/relu_3x3_reduce <- inception_4d/3x3_reduce
I0327 08:47:25.815881 48953 net.cpp:566] inception_4d/relu_3x3_reduce -> inception_4d/3x3_reduce (in-place)
I0327 08:47:25.815898 48953 net.cpp:219] Setting up inception_4d/relu_3x3_reduce
I0327 08:47:25.815910 48953 net.cpp:226] Top shape: 24 144 14 14 (677376)
I0327 08:47:25.815918 48953 net.cpp:234] Memory required for data: 1120897156
I0327 08:47:25.815929 48953 net.cpp:154] Setting up Layer of device :0 @cpu 0 Layer : inception_4d/3x3
I0327 08:47:25.815937 48953 layer_factory.hpp:114] Creating layer inception_4d/3x3
I0327 08:47:25.815955 48953 net.cpp:169] Creating Layer inception_4d/3x3
I0327 08:47:25.815965 48953 net.cpp:606] inception_4d/3x3 <- inception_4d/3x3_reduce
I0327 08:47:25.815979 48953 net.cpp:579] inception_4d/3x3 -> inception_4d/3x3
I0327 08:47:25.815987 48953 net.cpp:582] From AppendTop @cpu: 0
I0327 08:47:25.830596 48953 net.cpp:219] Setting up inception_4d/3x3
I0327 08:47:25.830679 48953 net.cpp:226] Top shape: 24 288 14 14 (1354752)
I0327 08:47:25.830689 48953 net.cpp:234] Memory required for data: 1126316164
I0327 08:47:25.830720 48953 net.cpp:154] Setting up Layer of device :0 @cpu 0 Layer : inception_4d/relu_3x3
I0327 08:47:25.830749 48953 layer_factory.hpp:114] Creating layer inception_4d/relu_3x3
I0327 08:47:25.830770 48953 net.cpp:169] Creating Layer inception_4d/relu_3x3
I0327 08:47:25.830783 48953 net.cpp:606] inception_4d/relu_3x3 <- inception_4d/3x3
I0327 08:47:25.830798 48953 net.cpp:566] inception_4d/relu_3x3 -> inception_4d/3x3 (in-place)
I0327 08:47:25.830818 48953 net.cpp:219] Setting up inception_4d/relu_3x3
I0327 08:47:25.830831 48953 net.cpp:226] Top shape: 24 288 14 14 (1354752)
I0327 08:47:25.830838 48953 net.cpp:234] Memory required for data: 1131735172
I0327 08:47:25.830849 48953 net.cpp:154] Setting up Layer of device :0 @cpu 0 Layer : inception_4d/5x5_reduce
I0327 08:47:25.830857 48953 layer_factory.hpp:114] Creating layer inception_4d/5x5_reduce
I0327 08:47:25.830880 48953 net.cpp:169] Creating Layer inception_4d/5x5_reduce
I0327 08:47:25.830891 48953 net.cpp:606] inception_4d/5x5_reduce <- inception_4c/output_inception_4c/output_0_split_2
I0327 08:47:25.830909 48953 net.cpp:579] inception_4d/5x5_reduce -> inception_4d/5x5_reduce
I0327 08:47:25.830919 48953 net.cpp:582] From AppendTop @cpu: 0
I0327 08:47:25.832741 48953 net.cpp:219] Setting up inception_4d/5x5_reduce
I0327 08:47:25.832785 48953 net.cpp:226] Top shape: 24 32 14 14 (150528)
I0327 08:47:25.832794 48953 net.cpp:234] Memory required for data: 1132337284
I0327 08:47:25.832816 48953 net.cpp:154] Setting up Layer of device :0 @cpu 0 Layer : inception_4d/relu_5x5_reduce
I0327 08:47:25.832826 48953 layer_factory.hpp:114] Creating layer inception_4d/relu_5x5_reduce
I0327 08:47:25.832867 48953 net.cpp:169] Creating Layer inception_4d/relu_5x5_reduce
I0327 08:47:25.832880 48953 net.cpp:606] inception_4d/relu_5x5_reduce <- inception_4d/5x5_reduce
I0327 08:47:25.832893 48953 net.cpp:566] inception_4d/relu_5x5_reduce -> inception_4d/5x5_reduce (in-place)
I0327 08:47:25.832909 48953 net.cpp:219] Setting up inception_4d/relu_5x5_reduce
I0327 08:47:25.832921 48953 net.cpp:226] Top shape: 24 32 14 14 (150528)
I0327 08:47:25.832929 48953 net.cpp:234] Memory required for data: 1132939396
I0327 08:47:25.832939 48953 net.cpp:154] Setting up Layer of device :0 @cpu 0 Layer : inception_4d/5x5
I0327 08:47:25.832948 48953 layer_factory.hpp:114] Creating layer inception_4d/5x5
I0327 08:47:25.832968 48953 net.cpp:169] Creating Layer inception_4d/5x5
I0327 08:47:25.832979 48953 net.cpp:606] inception_4d/5x5 <- inception_4d/5x5_reduce
I0327 08:47:25.832994 48953 net.cpp:579] inception_4d/5x5 -> inception_4d/5x5
I0327 08:47:25.833004 48953 net.cpp:582] From AppendTop @cpu: 0
I0327 08:47:25.837088 48953 net.cpp:219] Setting up inception_4d/5x5
I0327 08:47:25.837151 48953 net.cpp:226] Top shape: 24 64 14 14 (301056)
I0327 08:47:25.837159 48953 net.cpp:234] Memory required for data: 1134143620
I0327 08:47:25.837186 48953 net.cpp:154] Setting up Layer of device :0 @cpu 0 Layer : inception_4d/relu_5x5
I0327 08:47:25.837196 48953 layer_factory.hpp:114] Creating layer inception_4d/relu_5x5
I0327 08:47:25.837218 48953 net.cpp:169] Creating Layer inception_4d/relu_5x5
I0327 08:47:25.837230 48953 net.cpp:606] inception_4d/relu_5x5 <- inception_4d/5x5
I0327 08:47:25.837244 48953 net.cpp:566] inception_4d/relu_5x5 -> inception_4d/5x5 (in-place)
I0327 08:47:25.837267 48953 net.cpp:219] Setting up inception_4d/relu_5x5
I0327 08:47:25.837280 48953 net.cpp:226] Top shape: 24 64 14 14 (301056)
I0327 08:47:25.837288 48953 net.cpp:234] Memory required for data: 1135347844
I0327 08:47:25.837298 48953 net.cpp:154] Setting up Layer of device :0 @cpu 0 Layer : inception_4d/pool
I0327 08:47:25.837306 48953 layer_factory.hpp:114] Creating layer inception_4d/pool
I0327 08:47:25.837355 48953 net.cpp:169] Creating Layer inception_4d/pool
I0327 08:47:25.837368 48953 net.cpp:606] inception_4d/pool <- inception_4c/output_inception_4c/output_0_split_3
I0327 08:47:25.837385 48953 net.cpp:579] inception_4d/pool -> inception_4d/pool
I0327 08:47:25.837395 48953 net.cpp:582] From AppendTop @cpu: 0
I0327 08:47:25.837415 48953 net.cpp:219] Setting up inception_4d/pool
I0327 08:47:25.837441 48953 net.cpp:226] Top shape: 24 512 14 14 (2408448)
I0327 08:47:25.837450 48953 net.cpp:234] Memory required for data: 1144981636
I0327 08:47:25.837460 48953 net.cpp:154] Setting up Layer of device :0 @cpu 0 Layer : inception_4d/pool_proj
I0327 08:47:25.837469 48953 layer_factory.hpp:114] Creating layer inception_4d/pool_proj
I0327 08:47:25.837491 48953 net.cpp:169] Creating Layer inception_4d/pool_proj
I0327 08:47:25.837502 48953 net.cpp:606] inception_4d/pool_proj <- inception_4d/pool
I0327 08:47:25.837522 48953 net.cpp:579] inception_4d/pool_proj -> inception_4d/pool_proj
I0327 08:47:25.837532 48953 net.cpp:582] From AppendTop @cpu: 0
I0327 08:47:25.840595 48953 net.cpp:219] Setting up inception_4d/pool_proj
I0327 08:47:25.840638 48953 net.cpp:226] Top shape: 24 64 14 14 (301056)
I0327 08:47:25.840647 48953 net.cpp:234] Memory required for data: 1146185860
I0327 08:47:25.840669 48953 net.cpp:154] Setting up Layer of device :0 @cpu 0 Layer : inception_4d/relu_pool_proj
I0327 08:47:25.840679 48953 layer_factory.hpp:114] Creating layer inception_4d/relu_pool_proj
I0327 08:47:25.840694 48953 net.cpp:169] Creating Layer inception_4d/relu_pool_proj
I0327 08:47:25.840706 48953 net.cpp:606] inception_4d/relu_pool_proj <- inception_4d/pool_proj
I0327 08:47:25.840718 48953 net.cpp:566] inception_4d/relu_pool_proj -> inception_4d/pool_proj (in-place)
I0327 08:47:25.840735 48953 net.cpp:219] Setting up inception_4d/relu_pool_proj
I0327 08:47:25.840746 48953 net.cpp:226] Top shape: 24 64 14 14 (301056)
I0327 08:47:25.840754 48953 net.cpp:234] Memory required for data: 1147390084
I0327 08:47:25.840786 48953 net.cpp:154] Setting up Layer of device :0 @cpu 0 Layer : inception_4d/output
I0327 08:47:25.840795 48953 layer_factory.hpp:114] Creating layer inception_4d/output
I0327 08:47:25.840808 48953 net.cpp:169] Creating Layer inception_4d/output
I0327 08:47:25.840817 48953 net.cpp:606] inception_4d/output <- inception_4d/1x1
I0327 08:47:25.840829 48953 net.cpp:606] inception_4d/output <- inception_4d/3x3
I0327 08:47:25.840839 48953 net.cpp:606] inception_4d/output <- inception_4d/5x5
I0327 08:47:25.840850 48953 net.cpp:606] inception_4d/output <- inception_4d/pool_proj
I0327 08:47:25.840865 48953 net.cpp:579] inception_4d/output -> inception_4d/output
I0327 08:47:25.840873 48953 net.cpp:582] From AppendTop @cpu: 0
I0327 08:47:25.840891 48953 net.cpp:219] Setting up inception_4d/output
I0327 08:47:25.840903 48953 net.cpp:226] Top shape: 24 528 14 14 (2483712)
I0327 08:47:25.840911 48953 net.cpp:234] Memory required for data: 1157324932
I0327 08:47:25.840921 48953 net.cpp:154] Setting up Layer of device :0 @cpu 0 Layer : inception_4d/output_inception_4d/output_0_split
I0327 08:47:25.840929 48953 layer_factory.hpp:114] Creating layer inception_4d/output_inception_4d/output_0_split
I0327 08:47:25.840946 48953 net.cpp:169] Creating Layer inception_4d/output_inception_4d/output_0_split
…
I0327 08:47:25.841030 48953 net.cpp:582] From AppendTop @cpu: 0
I0327 08:47:25.841044 48953 net.cpp:579] inception_4d/output_inception_4d/output_0_split -> inception_4d/output_inception_4d/output_0_split_3
I0327 08:47:25.841053 48953 net.cpp:582] From AppendTop @cpu: 0
I0327 08:47:25.841068 48953 net.cpp:579] inception_4d/output_inception_4d/output_0_split -> inception_4d/output_inception_4d/output_0_split_4
I0327 08:47:25.841078 48953 net.cpp:582] From AppendTop @cpu: 0
I0327 08:47:25.841100 48953 net.cpp:219] Setting up inception_4d/output_inception_4d/output_0_split
I0327 08:47:25.841112 48953 net.cpp:226] Top shape: 24 528 14 14 (2483712)
I0327 08:47:25.841123 48953 net.cpp:226] Top shape: 24 528 14 14 (2483712)
I0327 08:47:25.841135 48953 net.cpp:226] Top shape: 24 528 14 14 (2483712)
I0327 08:47:25.841145 48953 net.cpp:226] Top shape: 24 528 14 14 (2483712)
I0327 08:47:25.841156 48953 net.cpp:226] Top shape: 24 528 14 14 (2483712)
I0327 08:47:25.841164 48953 net.cpp:234] Memory required for data: 1206999172
I0327 08:47:25.841174 48953 net.cpp:154] Setting up Layer of device :0 @cpu 0 Layer : loss2/ave_pool
I0327 08:47:25.841183 48953 layer_factory.hpp:114] Creating layer loss2/ave_pool
I0327 08:47:25.841223 48953 net.cpp:169] Creating Layer loss2/ave_pool
I0327 08:47:25.841234 48953 net.cpp:606] loss2/ave_pool <- inception_4d/output_inception_4d/output_0_split_0
I0327 08:47:25.841253 48953 net.cpp:579] loss2/ave_pool -> loss2/ave_pool
I0327 08:47:25.841261 48953 net.cpp:582] From AppendTop @cpu: 0
I0327 08:47:25.841276 48953 net.cpp:219] Setting up loss2/ave_pool
I0327 08:47:25.841289 48953 net.cpp:226] Top shape: 24 528 4 4 (202752)
I0327 08:47:25.841297 48953 net.cpp:234] Memory required for data: 1207810180
I0327 08:47:25.841307 48953 net.cpp:154] Setting up Layer of device :0 @cpu 0 Layer : loss2/conv
I0327 08:47:25.841316 48953 layer_factory.hpp:114] Creating layer loss2/conv
I0327 08:47:25.841336 48953 net.cpp:169] Creating Layer loss2/conv
I0327 08:47:25.841346 48953 net.cpp:606] loss2/conv <- loss2/ave_pool
I0327 08:47:25.841373 48953 net.cpp:579] loss2/conv -> loss2/conv
I0327 08:47:25.841382 48953 net.cpp:582] From AppendTop @cpu: 0
I0327 08:47:25.844185 48953 net.cpp:219] Setting up loss2/conv
I0327 08:47:25.844218 48953 net.cpp:226] Top shape: 24 128 4 4 (49152)
I0327 08:47:25.844228 48953 net.cpp:234] Memory required for data: 1208006788
I0327 08:47:25.844252 48953 net.cpp:154] Setting up Layer of device :0 @cpu 0 Layer : loss2/relu_conv
I0327 08:47:25.844262 48953 layer_factory.hpp:114] Creating layer loss2/relu_conv
I0327 08:47:25.844279 48953 net.cpp:169] Creating Layer loss2/relu_conv
I0327 08:47:25.844290 48953 net.cpp:606] loss2/relu_conv <- loss2/conv
I0327 08:47:25.844302 48953 net.cpp:566] loss2/relu_conv -> loss2/conv (in-place)
I0327 08:47:25.844317 48953 net.cpp:219] Setting up loss2/relu_conv
I0327 08:47:25.844329 48953 net.cpp:226] Top shape: 24 128 4 4 (49152)
I0327 08:47:25.844338 48953 net.cpp:234] Memory required for data: 1208203396
I0327 08:47:25.844348 48953 net.cpp:154] Setting up Layer of device :0 @cpu 0 Layer : loss2/fc
I0327 08:47:25.844357 48953 layer_factory.hpp:114] Creating layer loss2/fc
I0327 08:47:25.844377 48953 net.cpp:169] Creating Layer loss2/fc
I0327 08:47:25.844388 48953 net.cpp:606] loss2/fc <- loss2/conv
I0327 08:47:25.844400 48953 net.cpp:579] loss2/fc -> loss2/fc
I0327 08:47:25.844409 48953 net.cpp:582] From AppendTop @cpu: 0
I0327 08:47:25.879298 48953 net.cpp:219] Setting up loss2/fc
I0327 08:47:25.879375 48953 net.cpp:226] Top shape: 24 1024 (24576)
I0327 08:47:25.879385 48953 net.cpp:234] Memory required for data: 1208301700
I0327 08:47:25.879410 48953 net.cpp:154] Setting up Layer of device :0 @cpu 0 Layer : loss2/relu_fc
I0327 08:47:25.879420 48953 layer_factory.hpp:114] Creating layer loss2/relu_fc
I0327 08:47:25.879438 48953 net.cpp:169] Creating Layer loss2/relu_fc
I0327 08:47:25.879451 48953 net.cpp:606] loss2/relu_fc <- loss2/fc
I0327 08:47:25.879467 48953 net.cpp:566] loss2/relu_fc -> loss2/fc (in-place)
I0327 08:47:25.879483 48953 net.cpp:219] Setting up loss2/relu_fc
I0327 08:47:25.879494 48953 net.cpp:226] Top shape: 24 1024 (24576)
I0327 08:47:25.879503 48953 net.cpp:234] Memory required for data: 1208400004
I0327 08:47:25.879513 48953 net.cpp:154] Setting up Layer of device :0 @cpu 0 Layer : loss2/drop_fc
I0327 08:47:25.879523 48953 layer_factory.hpp:114] Creating layer loss2/drop_fc
I0327 08:47:25.879537 48953 net.cpp:169] Creating Layer loss2/drop_fc
I0327 08:47:25.879546 48953 net.cpp:606] loss2/drop_fc <- loss2/fc
I0327 08:47:25.879585 48953 net.cpp:566] loss2/drop_fc -> loss2/fc (in-place)
I0327 08:47:25.879601 48953 net.cpp:219] Setting up loss2/drop_fc
I0327 08:47:25.879612 48953 net.cpp:226] Top shape: 24 1024 (24576)
I0327 08:47:25.879621 48953 net.cpp:234] Memory required for data: 1208498308
I0327 08:47:25.879631 48953 net.cpp:154] Setting up Layer of device :0 @cpu 0 Layer : loss2/classifier
I0327 08:47:25.879639 48953 layer_factory.hpp:114] Creating layer loss2/classifier
I0327 08:47:25.879657 48953 net.cpp:169] Creating Layer loss2/classifier
I0327 08:47:25.879665 48953 net.cpp:606] loss2/classifier <- loss2/fc
I0327 08:47:25.879678 48953 net.cpp:579] loss2/classifier -> loss2/classifier
I0327 08:47:25.879688 48953 net.cpp:582] From AppendTop @cpu: 0
I0327 08:47:25.896982 48953 net.cpp:219] Setting up loss2/classifier
I0327 08:47:25.897037 48953 net.cpp:226] Top shape: 24 1000 (24000)
I0327 08:47:25.897048 48953 net.cpp:234] Memory required for data: 1208594308
I0327 08:47:25.897068 48953 net.cpp:154] Setting up Layer of device :0 @cpu 0 Layer : loss2/loss
I0327 08:47:25.897078 48953 layer_factory.hpp:114] Creating layer loss2/loss
I0327 08:47:25.897097 48953 net.cpp:169] Creating Layer loss2/loss
I0327 08:47:25.897110 48953 net.cpp:606] loss2/loss <- loss2/classifier
…
I0327 08:47:25.897410 48953 net.cpp:154] Setting up Layer of device :0 @cpu 0 Layer : inception_4e/1x1
I0327 08:47:25.897419 48953 layer_factory.hpp:114] Creating layer inception_4e/1x1
I0327 08:47:25.897442 48953 net.cpp:169] Creating Layer inception_4e/1x1
I0327 08:47:25.897454 48953 net.cpp:606] inception_4e/1x1 <- inception_4d/output_inception_4d/output_0_split_1
I0327 08:47:25.897471 48953 net.cpp:579] inception_4e/1x1 -> inception_4e/1x1
I0327 08:47:25.897480 48953 net.cpp:582] From AppendTop @cpu: 0
I0327 08:47:25.903663 48953 net.cpp:219] Setting up inception_4e/1x1
I0327 08:47:25.903729 48953 net.cpp:226] Top shape: 24 256 14 14 (1204224)
I0327 08:47:25.903739 48953 net.cpp:234] Memory required for data: 1213411208
I0327 08:47:25.903766 48953 net.cpp:154] Setting up Layer of device :0 @cpu 0 Layer : inception_4e/relu_1x1
I0327 08:47:25.903775 48953 layer_factory.hpp:114] Creating layer inception_4e/relu_1x1
I0327 08:47:25.903797 48953 net.cpp:169] Creating Layer inception_4e/relu_1x1
I0327 08:47:25.903811 48953 net.cpp:606] inception_4e/relu_1x1 <- inception_4e/1x1
I0327 08:47:25.903826 48953 net.cpp:566] inception_4e/relu_1x1 -> inception_4e/1x1 (in-place)
I0327 08:47:25.903843 48953 net.cpp:219] Setting up inception_4e/relu_1x1
I0327 08:47:25.903856 48953 net.cpp:226] Top shape: 24 256 14 14 (1204224)
I0327 08:47:25.903864 48953 net.cpp:234] Memory required for data: 1218228104
I0327 08:47:25.903874 48953 net.cpp:154] Setting up Layer of device :0 @cpu 0 Layer : inception_4e/3x3_reduce
I0327 08:47:25.903883 48953 layer_factory.hpp:114] Creating layer inception_4e/3x3_reduce
I0327 08:47:25.903908 48953 net.cpp:169] Creating Layer inception_4e/3x3_reduce
I0327 08:47:25.903918 48953 net.cpp:606] inception_4e/3x3_reduce <- inception_4d/output_inception_4d/output_0_split_2
I0327 08:47:25.903935 48953 net.cpp:579] inception_4e/3x3_reduce -> inception_4e/3x3_reduce
I0327 08:47:25.903945 48953 net.cpp:582] From AppendTop @cpu: 0
I0327 08:47:25.909137 48953 net.cpp:219] Setting up inception_4e/3x3_reduce
I0327 08:47:25.909190 48953 net.cpp:226] Top shape: 24 160 14 14 (752640)
I0327 08:47:25.909199 48953 net.cpp:234] Memory required for data: 1221238664
I0327 08:47:25.909224 48953 net.cpp:154] Setting up Layer of device :0 @cpu 0 Layer : inception_4e/relu_3x3_reduce
I0327 08:47:25.909255 48953 layer_factory.hpp:114] Creating layer inception_4e/relu_3x3_reduce
I0327 08:47:25.909272 48953 net.cpp:169] Creating Layer inception_4e/relu_3x3_reduce
I0327 08:47:25.909286 48953 net.cpp:606] inception_4e/relu_3x3_reduce <- inception_4e/3x3_reduce
I0327 08:47:25.909299 48953 net.cpp:566] inception_4e/relu_3x3_reduce -> inception_4e/3x3_reduce (in-place)
I0327 08:47:25.909317 48953 net.cpp:219] Setting up inception_4e/relu_3x3_reduce
I0327 08:47:25.909327 48953 net.cpp:226] Top shape: 24 160 14 14 (752640)
I0327 08:47:25.909337 48953 net.cpp:234] Memory required for data: 1224249224
I0327 08:47:25.909346 48953 net.cpp:154] Setting up Layer of device :0 @cpu 0 Layer : inception_4e/3x3
I0327 08:47:25.909355 48953 layer_factory.hpp:114] Creating layer inception_4e/3x3
I0327 08:47:25.909375 48953 net.cpp:169] Creating Layer inception_4e/3x3
I0327 08:47:25.909386 48953 net.cpp:606] inception_4e/3x3 <- inception_4e/3x3_reduce
I0327 08:47:25.909402 48953 net.cpp:579] inception_4e/3x3 -> inception_4e/3x3
I0327 08:47:25.909411 48953 net.cpp:582] From AppendTop @cpu: 0
I0327 08:47:25.926913 48953 net.cpp:219] Setting up inception_4e/3x3
I0327 08:47:25.927000 48953 net.cpp:226] Top shape: 24 320 14 14 (1505280)
I0327 08:47:25.927008 48953 net.cpp:234] Memory required for data: 1230270344
I0327 08:47:25.927047 48953 net.cpp:154] Setting up Layer of device :0 @cpu 0 Layer : inception_4e/relu_3x3
I0327 08:47:25.927058 48953 layer_factory.hpp:114] Creating layer inception_4e/relu_3x3
I0327 08:47:25.927108 48953 net.cpp:169] Creating Layer inception_4e/relu_3x3
I0327 08:47:25.927122 48953 net.cpp:606] inception_4e/relu_3x3 <- inception_4e/3x3
I0327 08:47:25.927137 48953 net.cpp:566] inception_4e/relu_3x3 -> inception_4e/3x3 (in-place)
I0327 08:47:25.927157 48953 net.cpp:219] Setting up inception_4e/relu_3x3
I0327 08:47:25.927170 48953 net.cpp:226] Top shape: 24 320 14 14 (1505280)
I0327 08:47:25.927177 48953 net.cpp:234] Memory required for data: 1236291464
I0327 08:47:25.927188 48953 net.cpp:154] Setting up Layer of device :0 @cpu 0 Layer : inception_4e/5x5_reduce
I0327 08:47:25.927196 48953 layer_factory.hpp:114] Creating layer inception_4e/5x5_reduce
I0327 08:47:25.927220 48953 net.cpp:169] Creating Layer inception_4e/5x5_reduce
I0327 08:47:25.927232 48953 net.cpp:606] inception_4e/5x5_reduce <- inception_4d/output_inception_4d/output_0_split_3
I0327 08:47:25.927247 48953 net.cpp:579] inception_4e/5x5_reduce -> inception_4e/5x5_reduce
I0327 08:47:25.927261 48953 net.cpp:582] From AppendTop @cpu: 0
I0327 08:47:25.929121 48953 net.cpp:219] Setting up inception_4e/5x5_reduce
I0327 08:47:25.929170 48953 net.cpp:226] Top shape: 24 32 14 14 (150528)
I0327 08:47:25.929179 48953 net.cpp:234] Memory required for data: 1236893576
I0327 08:47:25.929203 48953 net.cpp:154] Setting up Layer of device :0 @cpu 0 Layer : inception_4e/relu_5x5_reduce
I0327 08:47:25.929214 48953 layer_factory.hpp:114] Creating layer inception_4e/relu_5x5_reduce
I0327 08:47:25.929229 48953 net.cpp:169] Creating Layer inception_4e/relu_5x5_reduce
I0327 08:47:25.929241 48953 net.cpp:606] inception_4e/relu_5x5_reduce <- inception_4e/5x5_reduce
I0327 08:47:25.929265 48953 net.cpp:566] inception_4e/relu_5x5_reduce -> inception_4e/5x5_reduce (in-place)
I0327 08:47:25.929281 48953 net.cpp:219] Setting up inception_4e/relu_5x5_reduce
I0327 08:47:25.929293 48953 net.cpp:226] Top shape: 24 32 14 14 (150528)
I0327 08:47:25.929301 48953 net.cpp:234] Memory required for data: 1237495688
I0327 08:47:25.929311 48953 net.cpp:154] Setting up Layer of device :0 @cpu 0 Layer : inception_4e/5x5
I0327 08:47:25.929321 48953 layer_factory.hpp:114] Creating layer inception_4e/5x5
I0327 08:47:25.929349 48953 net.cpp:169] Creating Layer inception_4e/5x5
I0327 08:47:25.929360 48953 net.cpp:606] inception_4e/5x5 <- inception_4e/5x5_reduce
I0327 08:47:25.929376 48953 net.cpp:579] inception_4e/5x5 -> inception_4e/5x5
I0327 08:47:25.929385 48953 net.cpp:582] From AppendTop @cpu: 0
I0327 08:47:25.935412 48953 net.cpp:219] Setting up inception_4e/5x5
I0327 08:47:25.935487 48953 net.cpp:226] Top shape: 24 128 14 14 (602112)
I0327 08:47:25.935497 48953 net.cpp:234] Memory required for data: 1239904136
I0327 08:47:25.935526 48953 net.cpp:154] Setting up Layer of device :0 @cpu 0 Layer : inception_4e/relu_5x5
I0327 08:47:25.935536 48953 layer_factory.hpp:114] Creating layer inception_4e/relu_5x5
I0327 08:47:25.935554 48953 net.cpp:169] Creating Layer inception_4e/relu_5x5
I0327 08:47:25.935569 48953 net.cpp:606] inception_4e/relu_5x5 <- inception_4e/5x5
I0327 08:47:25.935586 48953 net.cpp:566] inception_4e/relu_5x5 -> inception_4e/5x5 (in-place)
I0327 08:47:25.935605 48953 net.cpp:219] Setting up inception_4e/relu_5x5
I0327 08:47:25.935616 48953 net.cpp:226] Top shape: 24 128 14 14 (602112)
I0327 08:47:25.935624 48953 net.cpp:234] Memory required for data: 1242312584
I0327 08:47:25.935636 48953 net.cpp:154] Setting up Layer of device :0 @cpu 0 Layer : inception_4e/pool
I0327 08:47:25.935643 48953 layer_factory.hpp:114] Creating layer inception_4e/pool
I0327 08:47:25.935691 48953 net.cpp:169] Creating Layer inception_4e/pool
I0327 08:47:25.935704 48953 net.cpp:606] inception_4e/pool <- inception_4d/output_inception_4d/output_0_split_4
I0327 08:47:25.935717 48953 net.cpp:579] inception_4e/pool -> inception_4e/pool
I0327 08:47:25.935726 48953 net.cpp:582] From AppendTop @cpu: 0
I0327 08:47:25.935745 48953 net.cpp:219] Setting up inception_4e/pool
I0327 08:47:25.935760 48953 net.cpp:226] Top shape: 24 528 14 14 (2483712)
I0327 08:47:25.935770 48953 net.cpp:234] Memory required for data: 1252247432
I0327 08:47:25.935806 48953 net.cpp:154] Setting up Layer of device :0 @cpu 0 Layer : inception_4e/pool_proj
I0327 08:47:25.935816 48953 layer_factory.hpp:114] Creating layer inception_4e/pool_proj
I0327 08:47:25.935834 48953 net.cpp:169] Creating Layer inception_4e/pool_proj
I0327 08:47:25.935844 48953 net.cpp:606] inception_4e/pool_proj <- inception_4e/pool
I0327 08:47:25.935865 48953 net.cpp:579] inception_4e/pool_proj -> inception_4e/pool_proj
I0327 08:47:25.935874 48953 net.cpp:582] From AppendTop @cpu: 0
I0327 08:47:25.940340 48953 net.cpp:219] Setting up inception_4e/pool_proj
I0327 08:47:25.940388 48953 net.cpp:226] Top shape: 24 128 14 14 (602112)
I0327 08:47:25.940398 48953 net.cpp:234] Memory required for data: 1254655880
I0327 08:47:25.940423 48953 net.cpp:154] Setting up Layer of device :0 @cpu 0 Layer : inception_4e/relu_pool_proj
I0327 08:47:25.940433 48953 layer_factory.hpp:114] Creating layer inception_4e/relu_pool_proj
I0327 08:47:25.940448 48953 net.cpp:169] Creating Layer inception_4e/relu_pool_proj
I0327 08:47:25.940460 48953 net.cpp:606] inception_4e/relu_pool_proj <- inception_4e/pool_proj
I0327 08:47:25.940477 48953 net.cpp:566] inception_4e/relu_pool_proj -> inception_4e/pool_proj (in-place)
I0327 08:47:25.940495 48953 net.cpp:219] Setting up inception_4e/relu_pool_proj
I0327 08:47:25.940506 48953 net.cpp:226] Top shape: 24 128 14 14 (602112)
I0327 08:47:25.940515 48953 net.cpp:234] Memory required for data: 1257064328
I0327 08:47:25.940526 48953 net.cpp:154] Setting up Layer of device :0 @cpu 0 Layer : inception_4e/output
I0327 08:47:25.940534 48953 layer_factory.hpp:114] Creating layer inception_4e/output
I0327 08:47:25.940547 48953 net.cpp:169] Creating Layer inception_4e/output
I0327 08:47:25.940557 48953 net.cpp:606] inception_4e/output <- inception_4e/1x1
I0327 08:47:25.940568 48953 net.cpp:606] inception_4e/output <- inception_4e/3x3
I0327 08:47:25.940578 48953 net.cpp:606] inception_4e/output <- inception_4e/5x5
I0327 08:47:25.940588 48953 net.cpp:606] inception_4e/output <- inception_4e/pool_proj
I0327 08:47:25.940600 48953 net.cpp:579] inception_4e/output -> inception_4e/output
I0327 08:47:25.940609 48953 net.cpp:582] From AppendTop @cpu: 0
I0327 08:47:25.940626 48953 net.cpp:219] Setting up inception_4e/output
I0327 08:47:25.940639 48953 net.cpp:226] Top shape: 24 832 14 14 (3913728)
I0327 08:47:25.940646 48953 net.cpp:234] Memory required for data: 1272719240
I0327 08:47:25.940656 48953 net.cpp:154] Setting up Layer of device :0 @cpu 0 Layer : pool4/3x3_s2
I0327 08:47:25.940678 48953 layer_factory.hpp:114] Creating layer pool4/3x3_s2
I0327 08:47:25.940718 48953 net.cpp:169] Creating Layer pool4/3x3_s2
I0327 08:47:25.940728 48953 net.cpp:606] pool4/3x3_s2 <- inception_4e/output
I0327 08:47:25.940742 48953 net.cpp:579] pool4/3x3_s2 -> pool4/3x3_s2
I0327 08:47:25.940750 48953 net.cpp:582] From AppendTop @cpu: 0
I0327 08:47:25.940768 48953 net.cpp:219] Setting up pool4/3x3_s2
I0327 08:47:25.940779 48953 net.cpp:226] Top shape: 24 832 7 7 (978432)
I0327 08:47:25.940788 48953 net.cpp:234] Memory required for data: 1276632968
I0327 08:47:25.940798 48953 net.cpp:154] Setting up Layer of device :0 @cpu 0 Layer : pool4/3x3_s2_pool4/3x3_s2_0_split
I0327 08:47:25.940807 48953 layer_factory.hpp:114] Creating layer pool4/3x3_s2_pool4/3x3_s2_0_split
I0327 08:47:25.940824 48953 net.cpp:169] Creating Layer pool4/3x3_s2_pool4/3x3_s2_0_split
I0327 08:47:25.940834 48953 net.cpp:606] pool4/3x3_s2_pool4/3x3_s2_0_split <- pool4/3x3_s2
I0327 08:47:25.940845 48953 net.cpp:579] pool4/3x3_s2_pool4/3x3_s2_0_split -> pool4/3x3_s2_pool4/3x3_s2_0_split_0
I0327 08:47:25.940853 48953 net.cpp:582] From AppendTop @cpu: 0
I0327 08:47:25.940866 48953 net.cpp:579] pool4/3x3_s2_pool4/3x3_s2_0_split -> pool4/3x3_s2_pool4/3x3_s2_0_split_1
I0327 08:47:25.940874 48953 net.cpp:582] From AppendTop @cpu: 0
I0327 08:47:25.940888 48953 net.cpp:579] pool4/3x3_s2_pool4/3x3_s2_0_split -> pool4/3x3_s2_pool4/3x3_s2_0_split_2
I0327 08:47:25.940896 48953 net.cpp:582] From AppendTop @cpu: 0
I0327 08:47:25.940909 48953 net.cpp:579] pool4/3x3_s2_pool4/3x3_s2_0_split -> pool4/3x3_s2_pool4/3x3_s2_0_split_3
I0327 08:47:25.940933 48953 net.cpp:582] From AppendTop @cpu: 0
I0327 08:47:25.940948 48953 net.cpp:219] Setting up pool4/3x3_s2_pool4/3x3_s2_0_split
I0327 08:47:25.940960 48953 net.cpp:226] Top shape: 24 832 7 7 (978432)
I0327 08:47:25.940971 48953 net.cpp:226] Top shape: 24 832 7 7 (978432)
I0327 08:47:25.940982 48953 net.cpp:226] Top shape: 24 832 7 7 (978432)
I0327 08:47:25.940994 48953 net.cpp:226] Top shape: 24 832 7 7 (978432)
I0327 08:47:25.941001 48953 net.cpp:234] Memory required for data: 1292287880
I0327 08:47:25.941011 48953 net.cpp:154] Setting up Layer of device :0 @cpu 0 Layer : inception_5a/1x1
I0327 08:47:25.941027 48953 layer_factory.hpp:114] Creating layer inception_5a/1x1
I0327 08:47:25.941049 48953 net.cpp:169] Creating Layer inception_5a/1x1
I0327 08:47:25.941059 48953 net.cpp:606] inception_5a/1x1 <- pool4/3x3_s2_pool4/3x3_s2_0_split_0
I0327 08:47:25.941072 48953 net.cpp:579] inception_5a/1x1 -> inception_5a/1x1
I0327 08:47:25.941082 48953 net.cpp:582] From AppendTop @cpu: 0
I0327 08:47:25.948941 48953 net.cpp:219] Setting up inception_5a/1x1
I0327 08:47:25.949012 48953 net.cpp:226] Top shape: 24 256 7 7 (301056)
I0327 08:47:25.949028 48953 net.cpp:234] Memory required for data: 1293492104
I0327 08:47:25.949055 48953 net.cpp:154] Setting up Layer of device :0 @cpu 0 Layer : inception_5a/relu_1x1
I0327 08:47:25.949065 48953 layer_factory.hpp:114] Creating layer inception_5a/relu_1x1
I0327 08:47:25.949084 48953 net.cpp:169] Creating Layer inception_5a/relu_1x1
I0327 08:47:25.949097 48953 net.cpp:606] inception_5a/relu_1x1 <- inception_5a/1x1
I0327 08:47:25.949112 48953 net.cpp:566] inception_5a/relu_1x1 -> inception_5a/1x1 (in-place)
I0327 08:47:25.949131 48953 net.cpp:219] Setting up inception_5a/relu_1x1
I0327 08:47:25.949141 48953 net.cpp:226] Top shape: 24 256 7 7 (301056)
I0327 08:47:25.949151 48953 net.cpp:234] Memory required for data: 1294696328
I0327 08:47:25.949160 48953 net.cpp:154] Setting up Layer of device :0 @cpu 0 Layer : inception_5a/3x3_reduce
I0327 08:47:25.949169 48953 layer_factory.hpp:114] Creating layer inception_5a/3x3_reduce
I0327 08:47:25.949188 48953 net.cpp:169] Creating Layer inception_5a/3x3_reduce
I0327 08:47:25.949200 48953 net.cpp:606] inception_5a/3x3_reduce <- pool4/3x3_s2_pool4/3x3_s2_0_split_1
I0327 08:47:25.949218 48953 net.cpp:579] inception_5a/3x3_reduce -> inception_5a/3x3_reduce
I0327 08:47:25.949226 48953 net.cpp:582] From AppendTop @cpu: 0
I0327 08:47:25.954260 48953 net.cpp:219] Setting up inception_5a/3x3_reduce
I0327 08:47:25.954313 48953 net.cpp:226] Top shape: 24 160 7 7 (188160)
I0327 08:47:25.954322 48953 net.cpp:234] Memory required for data: 1295448968
I0327 08:47:25.954345 48953 net.cpp:154] Setting up Layer of device :0 @cpu 0 Layer : inception_5a/relu_3x3_reduce
I0327 08:47:25.954355 48953 layer_factory.hpp:114] Creating layer inception_5a/relu_3x3_reduce
I0327 08:47:25.954371 48953 net.cpp:169] Creating Layer inception_5a/relu_3x3_reduce
I0327 08:47:25.954385 48953 net.cpp:606] inception_5a/relu_3x3_reduce <- inception_5a/3x3_reduce
I0327 08:47:25.954398 48953 net.cpp:566] inception_5a/relu_3x3_reduce -> inception_5a/3x3_reduce (in-place)
I0327 08:47:25.954416 48953 net.cpp:219] Setting up inception_5a/relu_3x3_reduce
I0327 08:47:25.954427 48953 net.cpp:226] Top shape: 24 160 7 7 (188160)
I0327 08:47:25.954435 48953 net.cpp:234] Memory required for data: 1296201608
I0327 08:47:25.954445 48953 net.cpp:154] Setting up Layer of device :0 @cpu 0 Layer : inception_5a/3x3
I0327 08:47:25.954454 48953 layer_factory.hpp:114] Creating layer inception_5a/3x3
I0327 08:47:25.954474 48953 net.cpp:169] Creating Layer inception_5a/3x3
I0327 08:47:25.954484 48953 net.cpp:606] inception_5a/3x3 <- inception_5a/3x3_reduce
I0327 08:47:25.954499 48953 net.cpp:579] inception_5a/3x3 -> inception_5a/3x3
I0327 08:47:25.954507 48953 net.cpp:582] From AppendTop @cpu: 0
I0327 08:47:25.968675 48953 net.cpp:219] Setting up inception_5a/3x3
I0327 08:47:25.968760 48953 net.cpp:226] Top shape: 24 320 7 7 (376320)
I0327 08:47:25.968799 48953 net.cpp:234] Memory required for data: 1297706888
I0327 08:47:25.968830 48953 net.cpp:154] Setting up Layer of device :0 @cpu 0 Layer : inception_5a/relu_3x3
I0327 08:47:25.968842 48953 layer_factory.hpp:114] Creating layer inception_5a/relu_3x3
I0327 08:47:25.968868 48953 net.cpp:169] Creating Layer inception_5a/relu_3x3
I0327 08:47:25.968883 48953 net.cpp:606] inception_5a/relu_3x3 <- inception_5a/3x3
I0327 08:47:25.968899 48953 net.cpp:566] inception_5a/relu_3x3 -> inception_5a/3x3 (in-place)
I0327 08:47:25.968919 48953 net.cpp:219] Setting up inception_5a/relu_3x3
I0327 08:47:25.968930 48953 net.cpp:226] Top shape: 24 320 7 7 (376320)
I0327 08:47:25.968940 48953 net.cpp:234] Memory required for data: 1299212168
I0327 08:47:25.968950 48953 net.cpp:154] Setting up Layer of device :0 @cpu 0 Layer : inception_5a/5x5_reduce
I0327 08:47:25.968960 48953 layer_factory.hpp:114] Creating layer inception_5a/5x5_reduce
I0327 08:47:25.968979 48953 net.cpp:169] Creating Layer inception_5a/5x5_reduce
I0327 08:47:25.968992 48953 net.cpp:606] inception_5a/5x5_reduce <- pool4/3x3_s2_pool4/3x3_s2_0_split_2
I0327 08:47:25.969009 48953 net.cpp:579] inception_5a/5x5_reduce -> inception_5a/5x5_reduce
I0327 08:47:25.969025 48953 net.cpp:582] From AppendTop @cpu: 0
I0327 08:47:25.970940 48953 net.cpp:219] Setting up inception_5a/5x5_reduce
I0327 08:47:25.970973 48953 net.cpp:226] Top shape: 24 32 7 7 (37632)
I0327 08:47:25.970981 48953 net.cpp:234] Memory required for data: 1299362696
I0327 08:47:25.971001 48953 net.cpp:154] Setting up Layer of device :0 @cpu 0 Layer : inception_5a/relu_5x5_reduce
I0327 08:47:25.971011 48953 layer_factory.hpp:114] Creating layer inception_5a/relu_5x5_reduce
I0327 08:47:25.971037 48953 net.cpp:169] Creating Layer inception_5a/relu_5x5_reduce
I0327 08:47:25.971050 48953 net.cpp:606] inception_5a/relu_5x5_reduce <- inception_5a/5x5_reduce
I0327 08:47:25.971063 48953 net.cpp:566] inception_5a/relu_5x5_reduce -> inception_5a/5x5_reduce (in-place)
I0327 08:47:25.971078 48953 net.cpp:219] Setting up inception_5a/relu_5x5_reduce
I0327 08:47:25.971091 48953 net.cpp:226] Top shape: 24 32 7 7 (37632)
I0327 08:47:25.971098 48953 net.cpp:234] Memory required for data: 1299513224
I0327 08:47:25.971109 48953 net.cpp:154] Setting up Layer of device :0 @cpu 0 Layer : inception_5a/5x5
I0327 08:47:25.971118 48953 layer_factory.hpp:114] Creating layer inception_5a/5x5
I0327 08:47:25.971137 48953 net.cpp:169] Creating Layer inception_5a/5x5
I0327 08:47:25.971156 48953 net.cpp:606] inception_5a/5x5 <- inception_5a/5x5_reduce
I0327 08:47:25.971174 48953 net.cpp:579] inception_5a/5x5 -> inception_5a/5x5
I0327 08:47:25.971182 48953 net.cpp:582] From AppendTop @cpu: 0
I0327 08:47:25.975778 48953 net.cpp:219] Setting up inception_5a/5x5
I0327 08:47:25.975826 48953 net.cpp:226] Top shape: 24 128 7 7 (150528)
I0327 08:47:25.975836 48953 net.cpp:234] Memory required for data: 1300115336
I0327 08:47:25.975858 48953 net.cpp:154] Setting up Layer of device :0 @cpu 0 Layer : inception_5a/relu_5x5
I0327 08:47:25.975868 48953 layer_factory.hpp:114] Creating layer inception_5a/relu_5x5
I0327 08:47:25.975884 48953 net.cpp:169] Creating Layer inception_5a/relu_5x5
I0327 08:47:25.975896 48953 net.cpp:606] inception_5a/relu_5x5 <- inception_5a/5x5
I0327 08:47:25.975914 48953 net.cpp:566] inception_5a/relu_5x5 -> inception_5a/5x5 (in-place)
I0327 08:47:25.975929 48953 net.cpp:219] Setting up inception_5a/relu_5x5
I0327 08:47:25.975941 48953 net.cpp:226] Top shape: 24 128 7 7 (150528)
I0327 08:47:25.975950 48953 net.cpp:234] Memory required for data: 1300717448
I0327 08:47:25.975960 48953 net.cpp:154] Setting up Layer of device :0 @cpu 0 Layer : inception_5a/pool
I0327 08:47:25.975968 48953 layer_factory.hpp:114] Creating layer inception_5a/pool
I0327 08:47:25.976012 48953 net.cpp:169] Creating Layer inception_5a/pool
I0327 08:47:25.976033 48953 net.cpp:606] inception_5a/pool <- pool4/3x3_s2_pool4/3x3_s2_0_split_3
I0327 08:47:25.976049 48953 net.cpp:579] inception_5a/pool -> inception_5a/pool
I0327 08:47:25.976079 48953 net.cpp:582] From AppendTop @cpu: 0
I0327 08:47:25.976099 48953 net.cpp:219] Setting up inception_5a/pool
I0327 08:47:25.976111 48953 net.cpp:226] Top shape: 24 832 7 7 (978432)
I0327 08:47:25.976119 48953 net.cpp:234] Memory required for data: 1304631176
I0327 08:47:25.976130 48953 net.cpp:154] Setting up Layer of device :0 @cpu 0 Layer : inception_5a/pool_proj
I0327 08:47:25.976138 48953 layer_factory.hpp:114] Creating layer inception_5a/pool_proj
I0327 08:47:25.976161 48953 net.cpp:169] Creating Layer inception_5a/pool_proj
I0327 08:47:25.976171 48953 net.cpp:606] inception_5a/pool_proj <- inception_5a/pool
I0327 08:47:25.976186 48953 net.cpp:579] inception_5a/pool_proj -> inception_5a/pool_proj
I0327 08:47:25.976196 48953 net.cpp:582] From AppendTop @cpu: 0
I0327 08:47:25.981050 48953 net.cpp:219] Setting up inception_5a/pool_proj
I0327 08:47:25.981097 48953 net.cpp:226] Top shape: 24 128 7 7 (150528)
I0327 08:47:25.981106 48953 net.cpp:234] Memory required for data: 1305233288
I0327 08:47:25.981130 48953 net.cpp:154] Setting up Layer of device :0 @cpu 0 Layer : inception_5a/relu_pool_proj
I0327 08:47:25.981140 48953 layer_factory.hpp:114] Creating layer inception_5a/relu_pool_proj
I0327 08:47:25.981156 48953 net.cpp:169] Creating Layer inception_5a/relu_pool_proj
I0327 08:47:25.981169 48953 net.cpp:606] inception_5a/relu_pool_proj <- inception_5a/pool_proj
I0327 08:47:25.981186 48953 net.cpp:566] inception_5a/relu_pool_proj -> inception_5a/pool_proj (in-place)
I0327 08:47:25.981202 48953 net.cpp:219] Setting up inception_5a/relu_pool_proj
I0327 08:47:25.981215 48953 net.cpp:226] Top shape: 24 128 7 7 (150528)
I0327 08:47:25.981223 48953 net.cpp:234] Memory required for data: 1305835400
I0327 08:47:25.981233 48953 net.cpp:154] Setting up Layer of device :0 @cpu 0 Layer : inception_5a/output
I0327 08:47:25.981242 48953 layer_factory.hpp:114] Creating layer inception_5a/output
I0327 08:47:25.981259 48953 net.cpp:169] Creating Layer inception_5a/output
I0327 08:47:25.981269 48953 net.cpp:606] inception_5a/output <- inception_5a/1x1
I0327 08:47:25.981281 48953 net.cpp:606] inception_5a/output <- inception_5a/3x3
I0327 08:47:25.981290 48953 net.cpp:606] inception_5a/output <- inception_5a/5x5
I0327 08:47:25.981302 48953 net.cpp:606] inception_5a/output <- inception_5a/pool_proj
I0327 08:47:25.981313 48953 net.cpp:579] inception_5a/output -> inception_5a/output
I0327 08:47:25.981322 48953 net.cpp:582] From AppendTop @cpu: 0
I0327 08:47:25.981353 48953 net.cpp:219] Setting up inception_5a/output
I0327 08:47:25.981364 48953 net.cpp:226] Top shape: 24 832 7 7 (978432)
I0327 08:47:25.981374 48953 net.cpp:234] Memory required for data: 1309749128
I0327 08:47:25.981384 48953 net.cpp:154] Setting up Layer of device :0 @cpu 0 Layer : inception_5a/output_inception_5a/output_0_split
I0327 08:47:25.981391 48953 layer_factory.hpp:114] Creating layer inception_5a/output_inception_5a/output_0_split
I0327 08:47:25.981405 48953 net.cpp:169] Creating Layer inception_5a/output_inception_5a/output_0_split
…
I0327 08:47:25.981459 48953 net.cpp:582] From AppendTop @cpu: 0
I0327 08:47:25.981473 48953 net.cpp:579] inception_5a/output_inception_5a/output_0_split -> inception_5a/output_inception_5a/output_0_split_2
I0327 08:47:25.981482 48953 net.cpp:582] From AppendTop @cpu: 0
I0327 08:47:25.981495 48953 net.cpp:579] inception_5a/output_inception_5a/output_0_split -> inception_5a/output_inception_5a/output_0_split_3
I0327 08:47:25.981503 48953 net.cpp:582] From AppendTop @cpu: 0
I0327 08:47:25.981518 48953 net.cpp:219] Setting up inception_5a/output_inception_5a/output_0_split
I0327 08:47:25.981544 48953 net.cpp:226] Top shape: 24 832 7 7 (978432)
I0327 08:47:25.981555 48953 net.cpp:226] Top shape: 24 832 7 7 (978432)
I0327 08:47:25.981566 48953 net.cpp:226] Top shape: 24 832 7 7 (978432)
I0327 08:47:25.981577 48953 net.cpp:226] Top shape: 24 832 7 7 (978432)
I0327 08:47:25.981585 48953 net.cpp:234] Memory required for data: 1325404040
I0327 08:47:25.981595 48953 net.cpp:154] Setting up Layer of device :0 @cpu 0 Layer : inception_5b/1x1
I0327 08:47:25.981604 48953 layer_factory.hpp:114] Creating layer inception_5b/1x1
I0327 08:47:25.981621 48953 net.cpp:169] Creating Layer inception_5b/1x1
I0327 08:47:25.981631 48953 net.cpp:606] inception_5b/1x1 <- inception_5a/output_inception_5a/output_0_split_0
I0327 08:47:25.981647 48953 net.cpp:579] inception_5b/1x1 -> inception_5b/1x1
I0327 08:47:25.981657 48953 net.cpp:582] From AppendTop @cpu: 0
I0327 08:47:25.991750 48953 net.cpp:219] Setting up inception_5b/1x1
I0327 08:47:25.991832 48953 net.cpp:226] Top shape: 24 384 7 7 (451584)
I0327 08:47:25.991842 48953 net.cpp:234] Memory required for data: 1327210376
I0327 08:47:25.991873 48953 net.cpp:154] Setting up Layer of device :0 @cpu 0 Layer : inception_5b/relu_1x1
I0327 08:47:25.991883 48953 layer_factory.hpp:114] Creating layer inception_5b/relu_1x1
I0327 08:47:25.991902 48953 net.cpp:169] Creating Layer inception_5b/relu_1x1
I0327 08:47:25.991917 48953 net.cpp:606] inception_5b/relu_1x1 <- inception_5b/1x1
I0327 08:47:25.991936 48953 net.cpp:566] inception_5b/relu_1x1 -> inception_5b/1x1 (in-place)
I0327 08:47:25.991956 48953 net.cpp:219] Setting up inception_5b/relu_1x1
I0327 08:47:25.991968 48953 net.cpp:226] Top shape: 24 384 7 7 (451584)
I0327 08:47:25.991977 48953 net.cpp:234] Memory required for data: 1329016712
I0327 08:47:25.991987 48953 net.cpp:154] Setting up Layer of device :0 @cpu 0 Layer : inception_5b/3x3_reduce
I0327 08:47:25.991997 48953 layer_factory.hpp:114] Creating layer inception_5b/3x3_reduce
I0327 08:47:25.992023 48953 net.cpp:169] Creating Layer inception_5b/3x3_reduce
I0327 08:47:25.992035 48953 net.cpp:606] inception_5b/3x3_reduce <- inception_5a/output_inception_5a/output_0_split_1
I0327 08:47:25.992049 48953 net.cpp:579] inception_5b/3x3_reduce -> inception_5b/3x3_reduce
I0327 08:47:25.992058 48953 net.cpp:582] From AppendTop @cpu: 0
I0327 08:47:25.998596 48953 net.cpp:219] Setting up inception_5b/3x3_reduce
I0327 08:47:25.998658 48953 net.cpp:226] Top shape: 24 192 7 7 (225792)
I0327 08:47:25.998667 48953 net.cpp:234] Memory required for data: 1329919880
I0327 08:47:25.998710 48953 net.cpp:154] Setting up Layer of device :0 @cpu 0 Layer : inception_5b/relu_3x3_reduce
I0327 08:47:25.998721 48953 layer_factory.hpp:114] Creating layer inception_5b/relu_3x3_reduce
I0327 08:47:25.998739 48953 net.cpp:169] Creating Layer inception_5b/relu_3x3_reduce
I0327 08:47:25.998751 48953 net.cpp:606] inception_5b/relu_3x3_reduce <- inception_5b/3x3_reduce
I0327 08:47:25.998765 48953 net.cpp:566] inception_5b/relu_3x3_reduce -> inception_5b/3x3_reduce (in-place)
I0327 08:47:25.998783 48953 net.cpp:219] Setting up inception_5b/relu_3x3_reduce
I0327 08:47:25.998795 48953 net.cpp:226] Top shape: 24 192 7 7 (225792)
I0327 08:47:25.998803 48953 net.cpp:234] Memory required for data: 1330823048
I0327 08:47:25.998813 48953 net.cpp:154] Setting up Layer of device :0 @cpu 0 Layer : inception_5b/3x3
I0327 08:47:25.998822 48953 layer_factory.hpp:114] Creating layer inception_5b/3x3
I0327 08:47:25.998843 48953 net.cpp:169] Creating Layer inception_5b/3x3
I0327 08:47:25.998854 48953 net.cpp:606] inception_5b/3x3 <- inception_5b/3x3_reduce
I0327 08:47:25.998867 48953 net.cpp:579] inception_5b/3x3 -> inception_5b/3x3
I0327 08:47:25.998877 48953 net.cpp:582] From AppendTop @cpu: 0
I0327 08:47:26.019088 48953 net.cpp:219] Setting up inception_5b/3x3
I0327 08:47:26.019173 48953 net.cpp:226] Top shape: 24 384 7 7 (451584)
I0327 08:47:26.019183 48953 net.cpp:234] Memory required for data: 1332629384
I0327 08:47:26.019213 48953 net.cpp:154] Setting up Layer of device :0 @cpu 0 Layer : inception_5b/relu_3x3
I0327 08:47:26.019256 48953 layer_factory.hpp:114] Creating layer inception_5b/relu_3x3
I0327 08:47:26.019279 48953 net.cpp:169] Creating Layer inception_5b/relu_3x3
I0327 08:47:26.019292 48953 net.cpp:606] inception_5b/relu_3x3 <- inception_5b/3x3
…
I0327 08:47:26.468823 48953 net.cpp:226] Top shape: 50 64 14 14 (627200)
I0327 08:47:26.468832 48953 net.cpp:234] Memory required for data: 2363400412
I0327 08:47:26.468858 48953 net.cpp:154] Setting up Layer of device :0 @cpu 0 Layer : inception_4d/relu_5x5
I0327 08:47:26.468868 48953 layer_factory.hpp:114] Creating layer inception_4d/relu_5x5
I0327 08:47:26.468889 48953 net.cpp:169] Creating Layer inception_4d/relu_5x5
I0327 08:47:26.468902 48953 net.cpp:606] inception_4d/relu_5x5 <- inception_4d/5x5
I0327 08:47:26.468916 48953 net.cpp:566] inception_4d/relu_5x5 -> inception_4d/5x5 (in-place)
I0327 08:47:26.468935 48953 net.cpp:219] Setting up inception_4d/relu_5x5
I0327 08:47:26.468945 48953 net.cpp:226] Top shape: 50 64 14 14 (627200)
I0327 08:47:26.468955 48953 net.cpp:234] Memory required for data: 2365909212
I0327 08:47:26.468964 48953 net.cpp:154] Setting up Layer of device :0 @cpu 0 Layer : inception_4d/pool
I0327 08:47:26.468973 48953 layer_factory.hpp:114] Creating layer inception_4d/pool
I0327 08:47:26.469027 48953 net.cpp:169] Creating Layer inception_4d/pool
I0327 08:47:26.469041 48953 net.cpp:606] inception_4d/pool <- inception_4c/output_inception_4c/output_0_split_3
I0327 08:47:26.469054 48953 net.cpp:579] inception_4d/pool -> inception_4d/pool
I0327 08:47:26.469063 48953 net.cpp:582] From AppendTop @cpu: 0
I0327 08:47:26.469082 48953 net.cpp:219] Setting up inception_4d/pool
I0327 08:47:26.469094 48953 net.cpp:226] Top shape: 50 512 14 14 (5017600)
I0327 08:47:26.469104 48953 net.cpp:234] Memory required for data: 2385979612
I0327 08:47:26.469113 48953 net.cpp:154] Setting up Layer of device :0 @cpu 0 Layer : inception_4d/pool_proj
I0327 08:47:26.469122 48953 layer_factory.hpp:114] Creating layer inception_4d/pool_proj
I0327 08:47:26.469149 48953 net.cpp:169] Creating Layer inception_4d/pool_proj
I0327 08:47:26.469162 48953 net.cpp:606] inception_4d/pool_proj <- inception_4d/pool
I0327 08:47:26.469177 48953 net.cpp:579] inception_4d/pool_proj -> inception_4d/pool_proj
I0327 08:47:26.469184 48953 net.cpp:582] From AppendTop @cpu: 0
I0327 08:47:26.472280 48953 net.cpp:219] Setting up inception_4d/pool_proj
I0327 08:47:26.472321 48953 net.cpp:226] Top shape: 50 64 14 14 (627200)
I0327 08:47:26.472331 48953 net.cpp:234] Memory required for data: 2388488412
I0327 08:47:26.472352 48953 net.cpp:154] Setting up Layer of device :0 @cpu 0 Layer : inception_4d/relu_pool_proj
I0327 08:47:26.472362 48953 layer_factory.hpp:114] Creating layer inception_4d/relu_pool_proj
I0327 08:47:26.472385 48953 net.cpp:169] Creating Layer inception_4d/relu_pool_proj
I0327 08:47:26.472398 48953 net.cpp:606] inception_4d/relu_pool_proj <- inception_4d/pool_proj
I0327 08:47:26.472414 48953 net.cpp:566] inception_4d/relu_pool_proj -> inception_4d/pool_proj (in-place)
I0327 08:47:26.472431 48953 net.cpp:219] Setting up inception_4d/relu_pool_proj
I0327 08:47:26.472442 48953 net.cpp:226] Top shape: 50 64 14 14 (627200)
I0327 08:47:26.472451 48953 net.cpp:234] Memory required for data: 2390997212
I0327 08:47:26.472461 48953 net.cpp:154] Setting up Layer of device :0 @cpu 0 Layer : inception_4d/output
I0327 08:47:26.472470 48953 layer_factory.hpp:114] Creating layer inception_4d/output
I0327 08:47:26.472483 48953 net.cpp:169] Creating Layer inception_4d/output
I0327 08:47:26.472493 48953 net.cpp:606] inception_4d/output <- inception_4d/1x1
I0327 08:47:26.472504 48953 net.cpp:606] inception_4d/output <- inception_4d/3x3
I0327 08:47:26.472514 48953 net.cpp:606] inception_4d/output <- inception_4d/5x5
I0327 08:47:26.472525 48953 net.cpp:606] inception_4d/output <- inception_4d/pool_proj
I0327 08:47:26.472558 48953 net.cpp:579] inception_4d/output -> inception_4d/output
I0327 08:47:26.472568 48953 net.cpp:582] From AppendTop @cpu: 0
I0327 08:47:26.472584 48953 net.cpp:219] Setting up inception_4d/output
I0327 08:47:26.472595 48953 net.cpp:226] Top shape: 50 528 14 14 (5174400)
I0327 08:47:26.472604 48953 net.cpp:234] Memory required for data: 2411694812
I0327 08:47:26.472615 48953 net.cpp:154] Setting up Layer of device :0 @cpu 0 Layer : inception_4d/output_inception_4d/output_0_split
I0327 08:47:26.472623 48953 layer_factory.hpp:114] Creating layer inception_4d/output_inception_4d/output_0_split
I0327 08:47:26.472640 48953 net.cpp:169] Creating Layer inception_4d/output_inception_4d/output_0_split
…
I0327 08:47:26.472718 48953 net.cpp:582] From AppendTop @cpu: 0
I0327 08:47:26.472733 48953 net.cpp:579] inception_4d/output_inception_4d/output_0_split -> inception_4d/output_inception_4d/output_0_split_3
I0327 08:47:26.472740 48953 net.cpp:582] From AppendTop @cpu: 0
I0327 08:47:26.472754 48953 net.cpp:579] inception_4d/output_inception_4d/output_0_split -> inception_4d/output_inception_4d/output_0_split_4
I0327 08:47:26.472762 48953 net.cpp:582] From AppendTop @cpu: 0
I0327 08:47:26.472779 48953 net.cpp:219] Setting up inception_4d/output_inception_4d/output_0_split
I0327 08:47:26.472790 48953 net.cpp:226] Top shape: 50 528 14 14 (5174400)
I0327 08:47:26.472801 48953 net.cpp:226] Top shape: 50 528 14 14 (5174400)
I0327 08:47:26.472812 48953 net.cpp:226] Top shape: 50 528 14 14 (5174400)
I0327 08:47:26.472822 48953 net.cpp:226] Top shape: 50 528 14 14 (5174400)
I0327 08:47:26.472833 48953 net.cpp:226] Top shape: 50 528 14 14 (5174400)
I0327 08:47:26.472841 48953 net.cpp:234] Memory required for data: 2515182812
I0327 08:47:26.472851 48953 net.cpp:154] Setting up Layer of device :0 @cpu 0 Layer : loss2/ave_pool
I0327 08:47:26.472867 48953 layer_factory.hpp:114] Creating layer loss2/ave_pool
I0327 08:47:26.472909 48953 net.cpp:169] Creating Layer loss2/ave_pool
I0327 08:47:26.472920 48953 net.cpp:606] loss2/ave_pool <- inception_4d/output_inception_4d/output_0_split_0
I0327 08:47:26.472937 48953 net.cpp:579] loss2/ave_pool -> loss2/ave_pool
I0327 08:47:26.472946 48953 net.cpp:582] From AppendTop @cpu: 0
I0327 08:47:26.472961 48953 net.cpp:219] Setting up loss2/ave_pool
I0327 08:47:26.472973 48953 net.cpp:226] Top shape: 50 528 4 4 (422400)
I0327 08:47:26.472982 48953 net.cpp:234] Memory required for data: 2516872412
I0327 08:47:26.472992 48953 net.cpp:154] Setting up Layer of device :0 @cpu 0 Layer : loss2/conv
I0327 08:47:26.473001 48953 layer_factory.hpp:114] Creating layer loss2/conv
I0327 08:47:26.473024 48953 net.cpp:169] Creating Layer loss2/conv
I0327 08:47:26.473037 48953 net.cpp:606] loss2/conv <- loss2/ave_pool
I0327 08:47:26.473052 48953 net.cpp:579] loss2/conv -> loss2/conv
I0327 08:47:26.473062 48953 net.cpp:582] From AppendTop @cpu: 0
I0327 08:47:26.475641 48953 net.cpp:219] Setting up loss2/conv
I0327 08:47:26.475682 48953 net.cpp:226] Top shape: 50 128 4 4 (102400)
I0327 08:47:26.475692 48953 net.cpp:234] Memory required for data: 2517282012
I0327 08:47:26.475711 48953 net.cpp:154] Setting up Layer of device :0 @cpu 0 Layer : loss2/relu_conv
I0327 08:47:26.475721 48953 layer_factory.hpp:114] Creating layer loss2/relu_conv
I0327 08:47:26.475735 48953 net.cpp:169] Creating Layer loss2/relu_conv
I0327 08:47:26.475746 48953 net.cpp:606] loss2/relu_conv <- loss2/conv
I0327 08:47:26.475776 48953 net.cpp:566] loss2/relu_conv -> loss2/conv (in-place)
I0327 08:47:26.475792 48953 net.cpp:219] Setting up loss2/relu_conv
I0327 08:47:26.475805 48953 net.cpp:226] Top shape: 50 128 4 4 (102400)
I0327 08:47:26.475812 48953 net.cpp:234] Memory required for data: 2517691612
I0327 08:47:26.475822 48953 net.cpp:154] Setting up Layer of device :0 @cpu 0 Layer : loss2/fc
I0327 08:47:26.475831 48953 layer_factory.hpp:114] Creating layer loss2/fc
I0327 08:47:26.475852 48953 net.cpp:169] Creating Layer loss2/fc
I0327 08:47:26.475862 48953 net.cpp:606] loss2/fc <- loss2/conv
I0327 08:47:26.475874 48953 net.cpp:579] loss2/fc -> loss2/fc
I0327 08:47:26.475883 48953 net.cpp:582] From AppendTop @cpu: 0
I0327 08:47:26.510663 48953 net.cpp:219] Setting up loss2/fc
I0327 08:47:26.510740 48953 net.cpp:226] Top shape: 50 1024 (51200)
I0327 08:47:26.510751 48953 net.cpp:234] Memory required for data: 2517896412
I0327 08:47:26.510774 48953 net.cpp:154] Setting up Layer of device :0 @cpu 0 Layer : loss2/relu_fc
I0327 08:47:26.510784 48953 layer_factory.hpp:114] Creating layer loss2/relu_fc
I0327 08:47:26.510808 48953 net.cpp:169] Creating Layer loss2/relu_fc
I0327 08:47:26.510823 48953 net.cpp:606] loss2/relu_fc <- loss2/fc
I0327 08:47:26.510838 48953 net.cpp:566] loss2/relu_fc -> loss2/fc (in-place)
I0327 08:47:26.510855 48953 net.cpp:219] Setting up loss2/relu_fc
I0327 08:47:26.510866 48953 net.cpp:226] Top shape: 50 1024 (51200)
I0327 08:47:26.510875 48953 net.cpp:234] Memory required for data: 2518101212
I0327 08:47:26.510885 48953 net.cpp:154] Setting up Layer of device :0 @cpu 0 Layer : loss2/drop_fc
I0327 08:47:26.510895 48953 layer_factory.hpp:114] Creating layer loss2/drop_fc
I0327 08:47:26.510908 48953 net.cpp:169] Creating Layer loss2/drop_fc
I0327 08:47:26.510918 48953 net.cpp:606] loss2/drop_fc <- loss2/fc
I0327 08:47:26.510929 48953 net.cpp:566] loss2/drop_fc -> loss2/fc (in-place)
I0327 08:47:26.510944 48953 net.cpp:219] Setting up loss2/drop_fc
I0327 08:47:26.510956 48953 net.cpp:226] Top shape: 50 1024 (51200)
I0327 08:47:26.510963 48953 net.cpp:234] Memory required for data: 2518306012
I0327 08:47:26.510973 48953 net.cpp:154] Setting up Layer of device :0 @cpu 0 Layer : loss2/classifier
I0327 08:47:26.510982 48953 layer_factory.hpp:114] Creating layer loss2/classifier
I0327 08:47:26.510999 48953 net.cpp:169] Creating Layer loss2/classifier
I0327 08:47:26.511008 48953 net.cpp:606] loss2/classifier <- loss2/fc
I0327 08:47:26.511049 48953 net.cpp:579] loss2/classifier -> loss2/classifier
I0327 08:47:26.511060 48953 net.cpp:582] From AppendTop @cpu: 0
I0327 08:47:26.528252 48953 net.cpp:219] Setting up loss2/classifier
I0327 08:47:26.528316 48953 net.cpp:226] Top shape: 50 1000 (50000)
I0327 08:47:26.528326 48953 net.cpp:234] Memory required for data: 2518506012
I0327 08:47:26.528347 48953 net.cpp:154] Setting up Layer of device :0 @cpu 0 Layer : loss2/classifier_loss2/classifier_0_split
I0327 08:47:26.528357 48953 layer_factory.hpp:114] Creating layer loss2/classifier_loss2/classifier_0_split
I0327 08:47:26.528375 48953 net.cpp:169] Creating Layer loss2/classifier_loss2/classifier_0_split
I0327 08:47:26.528389 48953 net.cpp:606] loss2/classifier_loss2/classifier_0_split <- loss2/classifier
I0327 08:47:26.528408 48953 net.cpp:579] loss2/classifier_loss2/classifier_0_split -> loss2/classifier_loss2/classifier_0_split_0
I0327 08:47:26.528416 48953 net.cpp:582] From AppendTop @cpu: 0
I0327 08:47:26.528434 48953 net.cpp:579] loss2/classifier_loss2/classifier_0_split -> loss2/classifier_loss2/classifier_0_split_1
I0327 08:47:26.528444 48953 net.cpp:582] From AppendTop @cpu: 0
I0327 08:47:26.528457 48953 net.cpp:579] loss2/classifier_loss2/classifier_0_split -> loss2/classifier_loss2/classifier_0_split_2
I0327 08:47:26.528465 48953 net.cpp:582] From AppendTop @cpu: 0
I0327 08:47:26.528481 48953 net.cpp:219] Setting up loss2/classifier_loss2/classifier_0_split
I0327 08:47:26.528492 48953 net.cpp:226] Top shape: 50 1000 (50000)
I0327 08:47:26.528503 48953 net.cpp:226] Top shape: 50 1000 (50000)
I0327 08:47:26.528539 48953 net.cpp:226] Top shape: 50 1000 (50000)
I0327 08:47:26.528548 48953 net.cpp:234] Memory required for data: 2519106012
I0327 08:47:26.528558 48953 net.cpp:154] Setting up Layer of device :0 @cpu 0 Layer : loss2/loss
I0327 08:47:26.528568 48953 layer_factory.hpp:114] Creating layer loss2/loss
I0327 08:47:26.528578 48953 net.cpp:169] Creating Layer loss2/loss
I0327 08:47:26.528589 48953 net.cpp:606] loss2/loss <- loss2/classifier_loss2/classifier_0_split_0
…
I0327 08:47:26.529202 48953 net.cpp:154] Setting up Layer of device :0 @cpu 0 Layer : inception_4e/1x1
I0327 08:47:26.529211 48953 layer_factory.hpp:114] Creating layer inception_4e/1x1
I0327 08:47:26.529234 48953 net.cpp:169] Creating Layer inception_4e/1x1
I0327 08:47:26.529245 48953 net.cpp:606] inception_4e/1x1 <- inception_4d/output_inception_4d/output_0_split_1
I0327 08:47:26.529264 48953 net.cpp:579] inception_4e/1x1 -> inception_4e/1x1
I0327 08:47:26.529276 48953 net.cpp:582] From AppendTop @cpu: 0
I0327 08:47:26.535449 48953 net.cpp:219] Setting up inception_4e/1x1
I0327 08:47:26.535514 48953 net.cpp:226] Top shape: 50 256 14 14 (2508800)
I0327 08:47:26.535524 48953 net.cpp:234] Memory required for data: 2529141224
I0327 08:47:26.535552 48953 net.cpp:154] Setting up Layer of device :0 @cpu 0 Layer : inception_4e/relu_1x1
I0327 08:47:26.535562 48953 layer_factory.hpp:114] Creating layer inception_4e/relu_1x1
I0327 08:47:26.535584 48953 net.cpp:169] Creating Layer inception_4e/relu_1x1
I0327 08:47:26.535598 48953 net.cpp:606] inception_4e/relu_1x1 <- inception_4e/1x1
I0327 08:47:26.535612 48953 net.cpp:566] inception_4e/relu_1x1 -> inception_4e/1x1 (in-place)
I0327 08:47:26.535629 48953 net.cpp:219] Setting up inception_4e/relu_1x1
I0327 08:47:26.535641 48953 net.cpp:226] Top shape: 50 256 14 14 (2508800)
I0327 08:47:26.535650 48953 net.cpp:234] Memory required for data: 2539176424
I0327 08:47:26.535660 48953 net.cpp:154] Setting up Layer of device :0 @cpu 0 Layer : inception_4e/3x3_reduce
I0327 08:47:26.535670 48953 layer_factory.hpp:114] Creating layer inception_4e/3x3_reduce
I0327 08:47:26.535728 48953 net.cpp:169] Creating Layer inception_4e/3x3_reduce
I0327 08:47:26.535739 48953 net.cpp:606] inception_4e/3x3_reduce <- inception_4d/output_inception_4d/output_0_split_2
I0327 08:47:26.535754 48953 net.cpp:579] inception_4e/3x3_reduce -> inception_4e/3x3_reduce
I0327 08:47:26.535763 48953 net.cpp:582] From AppendTop @cpu: 0
I0327 08:47:26.540920 48953 net.cpp:219] Setting up inception_4e/3x3_reduce
I0327 08:47:26.540977 48953 net.cpp:226] Top shape: 50 160 14 14 (1568000)
I0327 08:47:26.540985 48953 net.cpp:234] Memory required for data: 2545448424
I0327 08:47:26.541013 48953 net.cpp:154] Setting up Layer of device :0 @cpu 0 Layer : inception_4e/relu_3x3_reduce
I0327 08:47:26.541029 48953 layer_factory.hpp:114] Creating layer inception_4e/relu_3x3_reduce
I0327 08:47:26.541046 48953 net.cpp:169] Creating Layer inception_4e/relu_3x3_reduce
I0327 08:47:26.541057 48953 net.cpp:606] inception_4e/relu_3x3_reduce <- inception_4e/3x3_reduce
I0327 08:47:26.541071 48953 net.cpp:566] inception_4e/relu_3x3_reduce -> inception_4e/3x3_reduce (in-place)
I0327 08:47:26.541088 48953 net.cpp:219] Setting up inception_4e/relu_3x3_reduce
I0327 08:47:26.541100 48953 net.cpp:226] Top shape: 50 160 14 14 (1568000)
I0327 08:47:26.541108 48953 net.cpp:234] Memory required for data: 2551720424
I0327 08:47:26.541119 48953 net.cpp:154] Setting up Layer of device :0 @cpu 0 Layer : inception_4e/3x3
I0327 08:47:26.541127 48953 layer_factory.hpp:114] Creating layer inception_4e/3x3
I0327 08:47:26.541148 48953 net.cpp:169] Creating Layer inception_4e/3x3
I0327 08:47:26.541158 48953 net.cpp:606] inception_4e/3x3 <- inception_4e/3x3_reduce
I0327 08:47:26.541172 48953 net.cpp:579] inception_4e/3x3 -> inception_4e/3x3
I0327 08:47:26.541180 48953 net.cpp:582] From AppendTop @cpu: 0
I0327 08:47:26.558583 48953 net.cpp:219] Setting up inception_4e/3x3
I0327 08:47:26.558665 48953 net.cpp:226] Top shape: 50 320 14 14 (3136000)
I0327 08:47:26.558675 48953 net.cpp:234] Memory required for data: 2564264424
I0327 08:47:26.558706 48953 net.cpp:154] Setting up Layer of device :0 @cpu 0 Layer : inception_4e/relu_3x3
I0327 08:47:26.558715 48953 layer_factory.hpp:114] Creating layer inception_4e/relu_3x3
I0327 08:47:26.558739 48953 net.cpp:169] Creating Layer inception_4e/relu_3x3
I0327 08:47:26.558753 48953 net.cpp:606] inception_4e/relu_3x3 <- inception_4e/3x3
I0327 08:47:26.558769 48953 net.cpp:566] inception_4e/relu_3x3 -> inception_4e/3x3 (in-place)
I0327 08:47:26.558806 48953 net.cpp:219] Setting up inception_4e/relu_3x3
I0327 08:47:26.558818 48953 net.cpp:226] Top shape: 50 320 14 14 (3136000)
I0327 08:47:26.558827 48953 net.cpp:234] Memory required for data: 2576808424
I0327 08:47:26.558837 48953 net.cpp:154] Setting up Layer of device :0 @cpu 0 Layer : inception_4e/5x5_reduce
I0327 08:47:26.558846 48953 layer_factory.hpp:114] Creating layer inception_4e/5x5_reduce
I0327 08:47:26.558866 48953 net.cpp:169] Creating Layer inception_4e/5x5_reduce
I0327 08:47:26.558877 48953 net.cpp:606] inception_4e/5x5_reduce <- inception_4d/output_inception_4d/output_0_split_3
I0327 08:47:26.558895 48953 net.cpp:579] inception_4e/5x5_reduce -> inception_4e/5x5_reduce
I0327 08:47:26.558904 48953 net.cpp:582] From AppendTop @cpu: 0
I0327 08:47:26.561496 48953 net.cpp:219] Setting up inception_4e/5x5_reduce
I0327 08:47:26.561537 48953 net.cpp:226] Top shape: 50 32 14 14 (313600)
I0327 08:47:26.561547 48953 net.cpp:234] Memory required for data: 2578062824
I0327 08:47:26.561568 48953 net.cpp:154] Setting up Layer of device :0 @cpu 0 Layer : inception_4e/relu_5x5_reduce
I0327 08:47:26.561578 48953 layer_factory.hpp:114] Creating layer inception_4e/relu_5x5_reduce
I0327 08:47:26.561594 48953 net.cpp:169] Creating Layer inception_4e/relu_5x5_reduce
I0327 08:47:26.561605 48953 net.cpp:606] inception_4e/relu_5x5_reduce <- inception_4e/5x5_reduce
I0327 08:47:26.561620 48953 net.cpp:566] inception_4e/relu_5x5_reduce -> inception_4e/5x5_reduce (in-place)
I0327 08:47:26.561637 48953 net.cpp:219] Setting up inception_4e/relu_5x5_reduce
I0327 08:47:26.561671 48953 net.cpp:226] Top shape: 50 32 14 14 (313600)
I0327 08:47:26.561679 48953 net.cpp:234] Memory required for data: 2579317224
I0327 08:47:26.561689 48953 net.cpp:154] Setting up Layer of device :0 @cpu 0 Layer : inception_4e/5x5
I0327 08:47:26.561698 48953 layer_factory.hpp:114] Creating layer inception_4e/5x5
I0327 08:47:26.561718 48953 net.cpp:169] Creating Layer inception_4e/5x5
I0327 08:47:26.561728 48953 net.cpp:606] inception_4e/5x5 <- inception_4e/5x5_reduce
I0327 08:47:26.561745 48953 net.cpp:579] inception_4e/5x5 -> inception_4e/5x5
I0327 08:47:26.561754 48953 net.cpp:582] From AppendTop @cpu: 0
I0327 08:47:26.567515 48953 net.cpp:219] Setting up inception_4e/5x5
I0327 08:47:26.567586 48953 net.cpp:226] Top shape: 50 128 14 14 (1254400)
I0327 08:47:26.567595 48953 net.cpp:234] Memory required for data: 2584334824
I0327 08:47:26.567623 48953 net.cpp:154] Setting up Layer of device :0 @cpu 0 Layer : inception_4e/relu_5x5
I0327 08:47:26.567633 48953 layer_factory.hpp:114] Creating layer inception_4e/relu_5x5
I0327 08:47:26.567656 48953 net.cpp:169] Creating Layer inception_4e/relu_5x5
I0327 08:47:26.567669 48953 net.cpp:606] inception_4e/relu_5x5 <- inception_4e/5x5
I0327 08:47:26.567683 48953 net.cpp:566] inception_4e/relu_5x5 -> inception_4e/5x5 (in-place)
I0327 08:47:26.567703 48953 net.cpp:219] Setting up inception_4e/relu_5x5
I0327 08:47:26.567713 48953 net.cpp:226] Top shape: 50 128 14 14 (1254400)
I0327 08:47:26.567723 48953 net.cpp:234] Memory required for data: 2589352424
I0327 08:47:26.567733 48953 net.cpp:154] Setting up Layer of device :0 @cpu 0 Layer : inception_4e/pool
I0327 08:47:26.567740 48953 layer_factory.hpp:114] Creating layer inception_4e/pool
I0327 08:47:26.567786 48953 net.cpp:169] Creating Layer inception_4e/pool
I0327 08:47:26.567800 48953 net.cpp:606] inception_4e/pool <- inception_4d/output_inception_4d/output_0_split_4
I0327 08:47:26.567816 48953 net.cpp:579] inception_4e/pool -> inception_4e/pool
I0327 08:47:26.567826 48953 net.cpp:582] From AppendTop @cpu: 0
I0327 08:47:26.567844 48953 net.cpp:219] Setting up inception_4e/pool
I0327 08:47:26.567857 48953 net.cpp:226] Top shape: 50 528 14 14 (5174400)
I0327 08:47:26.567865 48953 net.cpp:234] Memory required for data: 2610050024
I0327 08:47:26.567875 48953 net.cpp:154] Setting up Layer of device :0 @cpu 0 Layer : inception_4e/pool_proj
I0327 08:47:26.567883 48953 layer_factory.hpp:114] Creating layer inception_4e/pool_proj
I0327 08:47:26.567920 48953 net.cpp:169] Creating Layer inception_4e/pool_proj
I0327 08:47:26.567931 48953 net.cpp:606] inception_4e/pool_proj <- inception_4e/pool
I0327 08:47:26.567947 48953 net.cpp:579] inception_4e/pool_proj -> inception_4e/pool_proj
I0327 08:47:26.567957 48953 net.cpp:582] From AppendTop @cpu: 0
I0327 08:47:26.572438 48953 net.cpp:219] Setting up inception_4e/pool_proj
I0327 08:47:26.572489 48953 net.cpp:226] Top shape: 50 128 14 14 (1254400)
I0327 08:47:26.572499 48953 net.cpp:234] Memory required for data: 2615067624
I0327 08:47:26.572522 48953 net.cpp:154] Setting up Layer of device :0 @cpu 0 Layer : inception_4e/relu_pool_proj
I0327 08:47:26.572532 48953 layer_factory.hpp:114] Creating layer inception_4e/relu_pool_proj
I0327 08:47:26.572547 48953 net.cpp:169] Creating Layer inception_4e/relu_pool_proj
I0327 08:47:26.572559 48953 net.cpp:606] inception_4e/relu_pool_proj <- inception_4e/pool_proj
I0327 08:47:26.572573 48953 net.cpp:566] inception_4e/relu_pool_proj -> inception_4e/pool_proj (in-place)
I0327 08:47:26.572590 48953 net.cpp:219] Setting up inception_4e/relu_pool_proj
I0327 08:47:26.572602 48953 net.cpp:226] Top shape: 50 128 14 14 (1254400)
I0327 08:47:26.572610 48953 net.cpp:234] Memory required for data: 2620085224
I0327 08:47:26.572620 48953 net.cpp:154] Setting up Layer of device :0 @cpu 0 Layer : inception_4e/output
I0327 08:47:26.572629 48953 layer_factory.hpp:114] Creating layer inception_4e/output
I0327 08:47:26.572644 48953 net.cpp:169] Creating Layer inception_4e/output
I0327 08:47:26.572655 48953 net.cpp:606] inception_4e/output <- inception_4e/1x1
I0327 08:47:26.572690 48953 net.cpp:606] inception_4e/output <- inception_4e/3x3
I0327 08:47:26.572700 48953 net.cpp:606] inception_4e/output <- inception_4e/5x5
I0327 08:47:26.572711 48953 net.cpp:606] inception_4e/output <- inception_4e/pool_proj
I0327 08:47:26.572723 48953 net.cpp:579] inception_4e/output -> inception_4e/output
I0327 08:47:26.572732 48953 net.cpp:582] From AppendTop @cpu: 0
I0327 08:47:26.572748 48953 net.cpp:219] Setting up inception_4e/output
I0327 08:47:26.572760 48953 net.cpp:226] Top shape: 50 832 14 14 (8153600)
I0327 08:47:26.572768 48953 net.cpp:234] Memory required for data: 2652699624
I0327 08:47:26.572779 48953 net.cpp:154] Setting up Layer of device :0 @cpu 0 Layer : pool4/3x3_s2
I0327 08:47:26.572788 48953 layer_factory.hpp:114] Creating layer pool4/3x3_s2
I0327 08:47:26.572825 48953 net.cpp:169] Creating Layer pool4/3x3_s2
I0327 08:47:26.572836 48953 net.cpp:606] pool4/3x3_s2 <- inception_4e/output
I0327 08:47:26.572849 48953 net.cpp:579] pool4/3x3_s2 -> pool4/3x3_s2
I0327 08:47:26.572859 48953 net.cpp:582] From AppendTop @cpu: 0
I0327 08:47:26.572875 48953 net.cpp:219] Setting up pool4/3x3_s2
I0327 08:47:26.572887 48953 net.cpp:226] Top shape: 50 832 7 7 (2038400)
I0327 08:47:26.572896 48953 net.cpp:234] Memory required for data: 2660853224
I0327 08:47:26.572906 48953 net.cpp:154] Setting up Layer of device :0 @cpu 0 Layer : pool4/3x3_s2_pool4/3x3_s2_0_split
I0327 08:47:26.572916 48953 layer_factory.hpp:114] Creating layer pool4/3x3_s2_pool4/3x3_s2_0_split
I0327 08:47:26.572932 48953 net.cpp:169] Creating Layer pool4/3x3_s2_pool4/3x3_s2_0_split
I0327 08:47:26.572940 48953 net.cpp:606] pool4/3x3_s2_pool4/3x3_s2_0_split <- pool4/3x3_s2
I0327 08:47:26.572952 48953 net.cpp:579] pool4/3x3_s2_pool4/3x3_s2_0_split -> pool4/3x3_s2_pool4/3x3_s2_0_split_0
I0327 08:47:26.572962 48953 net.cpp:582] From AppendTop @cpu: 0
I0327 08:47:26.572974 48953 net.cpp:579] pool4/3x3_s2_pool4/3x3_s2_0_split -> pool4/3x3_s2_pool4/3x3_s2_0_split_1
I0327 08:47:26.572983 48953 net.cpp:582] From AppendTop @cpu: 0
I0327 08:47:26.572995 48953 net.cpp:579] pool4/3x3_s2_pool4/3x3_s2_0_split -> pool4/3x3_s2_pool4/3x3_s2_0_split_2
I0327 08:47:26.573004 48953 net.cpp:582] From AppendTop @cpu: 0
I0327 08:47:26.573032 48953 net.cpp:579] pool4/3x3_s2_pool4/3x3_s2_0_split -> pool4/3x3_s2_pool4/3x3_s2_0_split_3
I0327 08:47:26.573043 48953 net.cpp:582] From AppendTop @cpu: 0
I0327 08:47:26.573060 48953 net.cpp:219] Setting up pool4/3x3_s2_pool4/3x3_s2_0_split
I0327 08:47:26.573079 48953 net.cpp:226] Top shape: 50 832 7 7 (2038400)
I0327 08:47:26.573091 48953 net.cpp:226] Top shape: 50 832 7 7 (2038400)
I0327 08:47:26.573103 48953 net.cpp:226] Top shape: 50 832 7 7 (2038400)
I0327 08:47:26.573114 48953 net.cpp:226] Top shape: 50 832 7 7 (2038400)
I0327 08:47:26.573122 48953 net.cpp:234] Memory required for data: 2693467624
I0327 08:47:26.573133 48953 net.cpp:154] Setting up Layer of device :0 @cpu 0 Layer : inception_5a/1x1
I0327 08:47:26.573143 48953 layer_factory.hpp:114] Creating layer inception_5a/1x1
I0327 08:47:26.573163 48953 net.cpp:169] Creating Layer inception_5a/1x1
I0327 08:47:26.573173 48953 net.cpp:606] inception_5a/1x1 <- pool4/3x3_s2_pool4/3x3_s2_0_split_0
I0327 08:47:26.573187 48953 net.cpp:579] inception_5a/1x1 -> inception_5a/1x1
I0327 08:47:26.573195 48953 net.cpp:582] From AppendTop @cpu: 0
I0327 08:47:26.581082 48953 net.cpp:219] Setting up inception_5a/1x1
I0327 08:47:26.581152 48953 net.cpp:226] Top shape: 50 256 7 7 (627200)
I0327 08:47:26.581162 48953 net.cpp:234] Memory required for data: 2695976424
I0327 08:47:26.581190 48953 net.cpp:154] Setting up Layer of device :0 @cpu 0 Layer : inception_5a/relu_1x1
I0327 08:47:26.581200 48953 layer_factory.hpp:114] Creating layer inception_5a/relu_1x1
I0327 08:47:26.581219 48953 net.cpp:169] Creating Layer inception_5a/relu_1x1
I0327 08:47:26.581233 48953 net.cpp:606] inception_5a/relu_1x1 <- inception_5a/1x1
I0327 08:47:26.581255 48953 net.cpp:566] inception_5a/relu_1x1 -> inception_5a/1x1 (in-place)
I0327 08:47:26.581274 48953 net.cpp:219] Setting up inception_5a/relu_1x1
I0327 08:47:26.581313 48953 net.cpp:226] Top shape: 50 256 7 7 (627200)
I0327 08:47:26.581322 48953 net.cpp:234] Memory required for data: 2698485224
I0327 08:47:26.581333 48953 net.cpp:154] Setting up Layer of device :0 @cpu 0 Layer : inception_5a/3x3_reduce
I0327 08:47:26.581342 48953 layer_factory.hpp:114] Creating layer inception_5a/3x3_reduce
I0327 08:47:26.581362 48953 net.cpp:169] Creating Layer inception_5a/3x3_reduce
I0327 08:47:26.581373 48953 net.cpp:606] inception_5a/3x3_reduce <- pool4/3x3_s2_pool4/3x3_s2_0_split_1
I0327 08:47:26.581390 48953 net.cpp:579] inception_5a/3x3_reduce -> inception_5a/3x3_reduce
I0327 08:47:26.581399 48953 net.cpp:582] From AppendTop @cpu: 0
I0327 08:47:26.587007 48953 net.cpp:219] Setting up inception_5a/3x3_reduce
I0327 08:47:26.587065 48953 net.cpp:226] Top shape: 50 160 7 7 (392000)
I0327 08:47:26.587075 48953 net.cpp:234] Memory required for data: 2700053224
I0327 08:47:26.587100 48953 net.cpp:154] Setting up Layer of device :0 @cpu 0 Layer : inception_5a/relu_3x3_reduce
I0327 08:47:26.587110 48953 layer_factory.hpp:114] Creating layer inception_5a/relu_3x3_reduce
I0327 08:47:26.587126 48953 net.cpp:169] Creating Layer inception_5a/relu_3x3_reduce
I0327 08:47:26.587137 48953 net.cpp:606] inception_5a/relu_3x3_reduce <- inception_5a/3x3_reduce
I0327 08:47:26.587152 48953 net.cpp:566] inception_5a/relu_3x3_reduce -> inception_5a/3x3_reduce (in-place)
I0327 08:47:26.587167 48953 net.cpp:219] Setting up inception_5a/relu_3x3_reduce
I0327 08:47:26.587178 48953 net.cpp:226] Top shape: 50 160 7 7 (392000)
I0327 08:47:26.587188 48953 net.cpp:234] Memory required for data: 2701621224
I0327 08:47:26.587198 48953 net.cpp:154] Setting up Layer of device :0 @cpu 0 Layer : inception_5a/3x3
I0327 08:47:26.587208 48953 layer_factory.hpp:114] Creating layer inception_5a/3x3
I0327 08:47:26.587229 48953 net.cpp:169] Creating Layer inception_5a/3x3
I0327 08:47:26.587239 48953 net.cpp:606] inception_5a/3x3 <- inception_5a/3x3_reduce
I0327 08:47:26.587256 48953 net.cpp:579] inception_5a/3x3 -> inception_5a/3x3
I0327 08:47:26.587266 48953 net.cpp:582] From AppendTop @cpu: 0
I0327 08:47:26.602166 48953 net.cpp:219] Setting up inception_5a/3x3
I0327 08:47:26.602253 48953 net.cpp:226] Top shape: 50 320 7 7 (784000)
I0327 08:47:26.602263 48953 net.cpp:234] Memory required for data: 2704757224
I0327 08:47:26.602295 48953 net.cpp:154] Setting up Layer of device :0 @cpu 0 Layer : inception_5a/relu_3x3
I0327 08:47:26.602324 48953 layer_factory.hpp:114] Creating layer inception_5a/relu_3x3
I0327 08:47:26.602345 48953 net.cpp:169] Creating Layer inception_5a/relu_3x3
I0327 08:47:26.602360 48953 net.cpp:606] inception_5a/relu_3x3 <- inception_5a/3x3
I0327 08:47:26.602378 48953 net.cpp:566] inception_5a/relu_3x3 -> inception_5a/3x3 (in-place)
I0327 08:47:26.602397 48953 net.cpp:219] Setting up inception_5a/relu_3x3
I0327 08:47:26.602409 48953 net.cpp:226] Top shape: 50 320 7 7 (784000)
I0327 08:47:26.602418 48953 net.cpp:234] Memory required for data: 2707893224
I0327 08:47:26.602428 48953 net.cpp:154] Setting up Layer of device :0 @cpu 0 Layer : inception_5a/5x5_reduce
I0327 08:47:26.602437 48953 layer_factory.hpp:114] Creating layer inception_5a/5x5_reduce
I0327 08:47:26.602458 48953 net.cpp:169] Creating Layer inception_5a/5x5_reduce
I0327 08:47:26.602469 48953 net.cpp:606] inception_5a/5x5_reduce <- pool4/3x3_s2_pool4/3x3_s2_0_split_2
I0327 08:47:26.602486 48953 net.cpp:579] inception_5a/5x5_reduce -> inception_5a/5x5_reduce
I0327 08:47:26.602495 48953 net.cpp:582] From AppendTop @cpu: 0
I0327 08:47:26.604367 48953 net.cpp:219] Setting up inception_5a/5x5_reduce
I0327 08:47:26.604400 48953 net.cpp:226] Top shape: 50 32 7 7 (78400)
I0327 08:47:26.604409 48953 net.cpp:234] Memory required for data: 2708206824
I0327 08:47:26.604429 48953 net.cpp:154] Setting up Layer of device :0 @cpu 0 Layer : inception_5a/relu_5x5_reduce
I0327 08:47:26.604439 48953 layer_factory.hpp:114] Creating layer inception_5a/relu_5x5_reduce
I0327 08:47:26.604452 48953 net.cpp:169] Creating Layer inception_5a/relu_5x5_reduce
I0327 08:47:26.604483 48953 net.cpp:606] inception_5a/relu_5x5_reduce <- inception_5a/5x5_reduce
I0327 08:47:26.604501 48953 net.cpp:566] inception_5a/relu_5x5_reduce -> inception_5a/5x5_reduce (in-place)
I0327 08:47:26.604516 48953 net.cpp:219] Setting up inception_5a/relu_5x5_reduce
I0327 08:47:26.604527 48953 net.cpp:226] Top shape: 50 32 7 7 (78400)
I0327 08:47:26.604535 48953 net.cpp:234] Memory required for data: 2708520424
I0327 08:47:26.604547 48953 net.cpp:154] Setting up Layer of device :0 @cpu 0 Layer : inception_5a/5x5
I0327 08:47:26.604554 48953 layer_factory.hpp:114] Creating layer inception_5a/5x5
I0327 08:47:26.604571 48953 net.cpp:169] Creating Layer inception_5a/5x5
I0327 08:47:26.604580 48953 net.cpp:606] inception_5a/5x5 <- inception_5a/5x5_reduce
I0327 08:47:26.604600 48953 net.cpp:579] inception_5a/5x5 -> inception_5a/5x5
I0327 08:47:26.604610 48953 net.cpp:582] From AppendTop @cpu: 0
I0327 08:47:26.609195 48953 net.cpp:219] Setting up inception_5a/5x5
I0327 08:47:26.609243 48953 net.cpp:226] Top shape: 50 128 7 7 (313600)
I0327 08:47:26.609257 48953 net.cpp:234] Memory required for data: 2709774824
I0327 08:47:26.609282 48953 net.cpp:154] Setting up Layer of device :0 @cpu 0 Layer : inception_5a/relu_5x5
I0327 08:47:26.609292 48953 layer_factory.hpp:114] Creating layer inception_5a/relu_5x5
I0327 08:47:26.609308 48953 net.cpp:169] Creating Layer inception_5a/relu_5x5
I0327 08:47:26.609319 48953 net.cpp:606] inception_5a/relu_5x5 <- inception_5a/5x5
I0327 08:47:26.609333 48953 net.cpp:566] inception_5a/relu_5x5 -> inception_5a/5x5 (in-place)
I0327 08:47:26.609349 48953 net.cpp:219] Setting up inception_5a/relu_5x5
I0327 08:47:26.609359 48953 net.cpp:226] Top shape: 50 128 7 7 (313600)
I0327 08:47:26.609369 48953 net.cpp:234] Memory required for data: 2711029224
I0327 08:47:26.609378 48953 net.cpp:154] Setting up Layer of device :0 @cpu 0 Layer : inception_5a/pool
I0327 08:47:26.609386 48953 layer_factory.hpp:114] Creating layer inception_5a/pool
I0327 08:47:26.609434 48953 net.cpp:169] Creating Layer inception_5a/pool
I0327 08:47:26.609447 48953 net.cpp:606] inception_5a/pool <- pool4/3x3_s2_pool4/3x3_s2_0_split_3
I0327 08:47:26.609460 48953 net.cpp:579] inception_5a/pool -> inception_5a/pool
I0327 08:47:26.609469 48953 net.cpp:582] From AppendTop @cpu: 0
I0327 08:47:26.609488 48953 net.cpp:219] Setting up inception_5a/pool
I0327 08:47:26.609503 48953 net.cpp:226] Top shape: 50 832 7 7 (2038400)
I0327 08:47:26.609525 48953 net.cpp:234] Memory required for data: 2719182824
I0327 08:47:26.609536 48953 net.cpp:154] Setting up Layer of device :0 @cpu 0 Layer : inception_5a/pool_proj
I0327 08:47:26.609544 48953 layer_factory.hpp:114] Creating layer inception_5a/pool_proj
I0327 08:47:26.609562 48953 net.cpp:169] Creating Layer inception_5a/pool_proj
I0327 08:47:26.609572 48953 net.cpp:606] inception_5a/pool_proj <- inception_5a/pool
I0327 08:47:26.609588 48953 net.cpp:579] inception_5a/pool_proj -> inception_5a/pool_proj
I0327 08:47:26.609597 48953 net.cpp:582] From AppendTop @cpu: 0
I0327 08:47:26.614236 48953 net.cpp:219] Setting up inception_5a/pool_proj
I0327 08:47:26.614287 48953 net.cpp:226] Top shape: 50 128 7 7 (313600)
I0327 08:47:26.614297 48953 net.cpp:234] Memory required for data: 2720437224
I0327 08:47:26.614318 48953 net.cpp:154] Setting up Layer of device :0 @cpu 0 Layer : inception_5a/relu_pool_proj
I0327 08:47:26.614328 48953 layer_factory.hpp:114] Creating layer inception_5a/relu_pool_proj
I0327 08:47:26.614344 48953 net.cpp:169] Creating Layer inception_5a/relu_pool_proj
I0327 08:47:26.614356 48953 net.cpp:606] inception_5a/relu_pool_proj <- inception_5a/pool_proj
I0327 08:47:26.614369 48953 net.cpp:566] inception_5a/relu_pool_proj -> inception_5a/pool_proj (in-place)
I0327 08:47:26.614385 48953 net.cpp:219] Setting up inception_5a/relu_pool_proj
I0327 08:47:26.614397 48953 net.cpp:226] Top shape: 50 128 7 7 (313600)
I0327 08:47:26.614404 48953 net.cpp:234] Memory required for data: 2721691624
I0327 08:47:26.614415 48953 net.cpp:154] Setting up Layer of device :0 @cpu 0 Layer : inception_5a/output
I0327 08:47:26.614446 48953 layer_factory.hpp:114] Creating layer inception_5a/output
I0327 08:47:26.614464 48953 net.cpp:169] Creating Layer inception_5a/output
I0327 08:47:26.614475 48953 net.cpp:606] inception_5a/output <- inception_5a/1x1
I0327 08:47:26.614485 48953 net.cpp:606] inception_5a/output <- inception_5a/3x3
I0327 08:47:26.614495 48953 net.cpp:606] inception_5a/output <- inception_5a/5x5
I0327 08:47:26.614506 48953 net.cpp:606] inception_5a/output <- inception_5a/pool_proj
I0327 08:47:26.614518 48953 net.cpp:579] inception_5a/output -> inception_5a/output
I0327 08:47:26.614526 48953 net.cpp:582] From AppendTop @cpu: 0
I0327 08:47:26.614544 48953 net.cpp:219] Setting up inception_5a/output
I0327 08:47:26.614555 48953 net.cpp:226] Top shape: 50 832 7 7 (2038400)
I0327 08:47:26.614564 48953 net.cpp:234] Memory required for data: 2729845224
I0327 08:47:26.614574 48953 net.cpp:154] Setting up Layer of device :0 @cpu 0 Layer : inception_5a/output_inception_5a/output_0_split
I0327 08:47:26.614583 48953 layer_factory.hpp:114] Creating layer inception_5a/output_inception_5a/output_0_split
I0327 08:47:26.614595 48953 net.cpp:169] Creating Layer inception_5a/output_inception_5a/output_0_split
…
I0327 08:47:26.614647 48953 net.cpp:582] From AppendTop @cpu: 0
I0327 08:47:26.614660 48953 net.cpp:579] inception_5a/output_inception_5a/output_0_split -> inception_5a/output_inception_5a/output_0_split_2
I0327 08:47:26.614670 48953 net.cpp:582] From AppendTop @cpu: 0
I0327 08:47:26.614682 48953 net.cpp:579] inception_5a/output_inception_5a/output_0_split -> inception_5a/output_inception_5a/output_0_split_3
I0327 08:47:26.614691 48953 net.cpp:582] From AppendTop @cpu: 0
I0327 08:47:26.614709 48953 net.cpp:219] Setting up inception_5a/output_inception_5a/output_0_split
I0327 08:47:26.614722 48953 net.cpp:226] Top shape: 50 832 7 7 (2038400)
I0327 08:47:26.614732 48953 net.cpp:226] Top shape: 50 832 7 7 (2038400)
I0327 08:47:26.614743 48953 net.cpp:226] Top shape: 50 832 7 7 (2038400)
I0327 08:47:26.614760 48953 net.cpp:226] Top shape: 50 832 7 7 (2038400)
I0327 08:47:26.614769 48953 net.cpp:234] Memory required for data: 2762459624
I0327 08:47:26.614779 48953 net.cpp:154] Setting up Layer of device :0 @cpu 0 Layer : inception_5b/1x1
I0327 08:47:26.614789 48953 layer_factory.hpp:114] Creating layer inception_5b/1x1
I0327 08:47:26.614805 48953 net.cpp:169] Creating Layer inception_5b/1x1
I0327 08:47:26.614815 48953 net.cpp:606] inception_5b/1x1 <- inception_5a/output_inception_5a/output_0_split_0
I0327 08:47:26.614835 48953 net.cpp:579] inception_5b/1x1 -> inception_5b/1x1
I0327 08:47:26.614845 48953 net.cpp:582] From AppendTop @cpu: 0
I0327 08:47:26.624660 48953 net.cpp:219] Setting up inception_5b/1x1
I0327 08:47:26.624742 48953 net.cpp:226] Top shape: 50 384 7 7 (940800)
I0327 08:47:26.624752 48953 net.cpp:234] Memory required for data: 2766222824
I0327 08:47:26.624780 48953 net.cpp:154] Setting up Layer of device :0 @cpu 0 Layer : inception_5b/relu_1x1
I0327 08:47:26.624790 48953 layer_factory.hpp:114] Creating layer inception_5b/relu_1x1
I0327 08:47:26.624811 48953 net.cpp:169] Creating Layer inception_5b/relu_1x1
I0327 08:47:26.624825 48953 net.cpp:606] inception_5b/relu_1x1 <- inception_5b/1x1
I0327 08:47:26.624841 48953 net.cpp:566] inception_5b/relu_1x1 -> inception_5b/1x1 (in-place)
I0327 08:47:26.624861 48953 net.cpp:219] Setting up inception_5b/relu_1x1
I0327 08:47:26.624872 48953 net.cpp:226] Top shape: 50 384 7 7 (940800)
I0327 08:47:26.624881 48953 net.cpp:234] Memory required for data: 2769986024
I0327 08:47:26.624891 48953 net.cpp:154] Setting up Layer of device :0 @cpu 0 Layer : inception_5b/3x3_reduce
I0327 08:47:26.624927 48953 layer_factory.hpp:114] Creating layer inception_5b/3x3_reduce
I0327 08:47:26.624951 48953 net.cpp:169] Creating Layer inception_5b/3x3_reduce
I0327 08:47:26.624963 48953 net.cpp:606] inception_5b/3x3_reduce <- inception_5a/output_inception_5a/output_0_split_1
I0327 08:47:26.624977 48953 net.cpp:579] inception_5b/3x3_reduce -> inception_5b/3x3_reduce
I0327 08:47:26.624987 48953 net.cpp:582] From AppendTop @cpu: 0
I0327 08:47:26.630839 48953 net.cpp:219] Setting up inception_5b/3x3_reduce
I0327 08:47:26.630903 48953 net.cpp:226] Top shape: 50 192 7 7 (470400)
I0327 08:47:26.630911 48953 net.cpp:234] Memory required for data: 2771867624
I0327 08:47:26.630936 48953 net.cpp:154] Setting up Layer of device :0 @cpu 0 Layer : inception_5b/relu_3x3_reduce
I0327 08:47:26.630946 48953 layer_factory.hpp:114] Creating layer inception_5b/relu_3x3_reduce
I0327 08:47:26.630966 48953 net.cpp:169] Creating Layer inception_5b/relu_3x3_reduce
I0327 08:47:26.630980 48953 net.cpp:606] inception_5b/relu_3x3_reduce <- inception_5b/3x3_reduce
I0327 08:47:26.630995 48953 net.cpp:566] inception_5b/relu_3x3_reduce -> inception_5b/3x3_reduce (in-place)
I0327 08:47:26.631011 48953 net.cpp:219] Setting up inception_5b/relu_3x3_reduce
I0327 08:47:26.631031 48953 net.cpp:226] Top shape: 50 192 7 7 (470400)
I0327 08:47:26.631041 48953 net.cpp:234] Memory required for data: 2773749224
I0327 08:47:26.631050 48953 net.cpp:154] Setting up Layer of device :0 @cpu 0 Layer : inception_5b/3x3
I0327 08:47:26.631059 48953 layer_factory.hpp:114] Creating layer inception_5b/3x3
I0327 08:47:26.631078 48953 net.cpp:169] Creating Layer inception_5b/3x3
I0327 08:47:26.631088 48953 net.cpp:606] inception_5b/3x3 <- inception_5b/3x3_reduce
I0327 08:47:26.631103 48953 net.cpp:579] inception_5b/3x3 -> inception_5b/3x3
I0327 08:47:26.631112 48953 net.cpp:582] From AppendTop @cpu: 0
I0327 08:47:26.650871 48953 net.cpp:219] Setting up inception_5b/3x3
I0327 08:47:26.650956 48953 net.cpp:226] Top shape: 50 384 7 7 (940800)
I0327 08:47:26.650965 48953 net.cpp:234] Memory required for data: 2777512424
I0327 08:47:26.650996 48953 net.cpp:154] Setting up Layer of device :0 @cpu 0 Layer : inception_5b/relu_3x3
I0327 08:47:26.651007 48953 layer_factory.hpp:114] Creating layer inception_5b/relu_3x3
I0327 08:47:26.651033 48953 net.cpp:169] Creating Layer inception_5b/relu_3x3
I0327 08:47:26.651051 48953 net.cpp:606] inception_5b/relu_3x3 <- inception_5b/3x3
I0327 08:47:26.651083 48953 net.cpp:566] inception_5b/relu_3x3 -> inception_5b/3x3 (in-place)
I0327 08:47:26.651104 48953 net.cpp:219] Setting up inception_5b/relu_3x3
I0327 08:47:26.651116 48953 net.cpp:226] Top shape: 50 384 7 7 (940800)
I0327 08:47:26.651124 48953 net.cpp:234] Memory required for data: 2781275624
I0327 08:47:26.651135 48953 net.cpp:154] Setting up Layer of device :0 @cpu 0 Layer : inception_5b/5x5_reduce
I0327 08:47:26.651144 48953 layer_factory.hpp:114] Creating layer inception_5b/5x5_reduce
I0327 08:47:26.651167 48953 net.cpp:169] Creating Layer inception_5b/5x5_reduce
I0327 08:47:26.651180 48953 net.cpp:606] inception_5b/5x5_reduce <- inception_5a/output_inception_5a/output_0_split_2
I0327 08:47:26.651195 48953 net.cpp:579] inception_5b/5x5_reduce -> inception_5b/5x5_reduce
I0327 08:47:26.651203 48953 net.cpp:582] From AppendTop @cpu: 0
I0327 08:47:26.653494 48953 net.cpp:219] Setting up inception_5b/5x5_reduce
I0327 08:47:26.653528 48953 net.cpp:226] Top shape: 50 48 7 7 (117600)
I0327 08:47:26.653537 48953 net.cpp:234] Memory required for data: 2781746024
I0327 08:47:26.653558 48953 net.cpp:154] Setting up Layer of device :0 @cpu 0 Layer : inception_5b/relu_5x5_reduce
I0327 08:47:26.653566 48953 layer_factory.hpp:114] Creating layer inception_5b/relu_5x5_reduce
I0327 08:47:26.653584 48953 net.cpp:169] Creating Layer inception_5b/relu_5x5_reduce
I0327 08:47:26.653594 48953 net.cpp:606] inception_5b/relu_5x5_reduce <- inception_5b/5x5_reduce
I0327 08:47:26.653607 48953 net.cpp:566] inception_5b/relu_5x5_reduce -> inception_5b/5x5_reduce (in-place)
I0327 08:47:26.653645 48953 net.cpp:219] Setting up inception_5b/relu_5x5_reduce
I0327 08:47:26.653656 48953 net.cpp:226] Top shape: 50 48 7 7 (117600)
I0327 08:47:26.653664 48953 net.cpp:234] Memory required for data: 2782216424
I0327 08:47:26.653674 48953 net.cpp:154] Setting up Layer of device :0 @cpu 0 Layer : inception_5b/5x5
I0327 08:47:26.653683 48953 layer_factory.hpp:114] Creating layer inception_5b/5x5
I0327 08:47:26.653702 48953 net.cpp:169] Creating Layer inception_5b/5x5
I0327 08:47:26.653712 48953 net.cpp:606] inception_5b/5x5 <- inception_5b/5x5_reduce
I0327 08:47:26.653728 48953 net.cpp:579] inception_5b/5x5 -> inception_5b/5x5
I0327 08:47:26.653738 48953 net.cpp:582] From AppendTop @cpu: 0
I0327 08:47:26.659332 48953 net.cpp:219] Setting up inception_5b/5x5
I0327 08:47:26.659397 48953 net.cpp:226] Top shape: 50 128 7 7 (313600)
I0327 08:47:26.659407 48953 net.cpp:234] Memory required for data: 2783470824
I0327 08:47:26.659432 48953 net.cpp:154] Setting up Layer of device :0 @cpu 0 Layer : inception_5b/relu_5x5
I0327 08:47:26.659442 48953 layer_factory.hpp:114] Creating layer inception_5b/relu_5x5
I0327 08:47:26.659463 48953 net.cpp:169] Creating Layer inception_5b/relu_5x5
I0327 08:47:26.659477 48953 net.cpp:606] inception_5b/relu_5x5 <- inception_5b/5x5
I0327 08:47:26.659492 48953 net.cpp:566] inception_5b/relu_5x5 -> inception_5b/5x5 (in-place)
I0327 08:47:26.659509 48953 net.cpp:219] Setting up inception_5b/relu_5x5
I0327 08:47:26.659521 48953 net.cpp:226] Top shape: 50 128 7 7 (313600)
I0327 08:47:26.659529 48953 net.cpp:234] Memory required for data: 2784725224
I0327 08:47:26.659540 48953 net.cpp:154] Setting up Layer of device :0 @cpu 0 Layer : inception_5b/pool
I0327 08:47:26.659548 48953 layer_factory.hpp:114] Creating layer inception_5b/pool
I0327 08:47:26.659595 48953 net.cpp:169] Creating Layer inception_5b/pool
I0327 08:47:26.659607 48953 net.cpp:606] inception_5b/pool <- inception_5a/output_inception_5a/output_0_split_3
I0327 08:47:26.659623 48953 net.cpp:579] inception_5b/pool -> inception_5b/pool
I0327 08:47:26.659633 48953 net.cpp:582] From AppendTop @cpu: 0
I0327 08:47:26.659652 48953 net.cpp:219] Setting up inception_5b/pool
I0327 08:47:26.659663 48953 net.cpp:226] Top shape: 50 832 7 7 (2038400)
I0327 08:47:26.659672 48953 net.cpp:234] Memory required for data: 2792878824
I0327 08:47:26.659682 48953 net.cpp:154] Setting up Layer of device :0 @cpu 0 Layer : inception_5b/pool_proj
I0327 08:47:26.659705 48953 layer_factory.hpp:114] Creating layer inception_5b/pool_proj
I0327 08:47:26.659729 48953 net.cpp:169] Creating Layer inception_5b/pool_proj
I0327 08:47:26.659739 48953 net.cpp:606] inception_5b/pool_proj <- inception_5b/pool
I0327 08:47:26.659755 48953 net.cpp:579] inception_5b/pool_proj -> inception_5b/pool_proj
I0327 08:47:26.659765 48953 net.cpp:582] From AppendTop @cpu: 0
I0327 08:47:26.663702 48953 net.cpp:219] Setting up inception_5b/pool_proj
I0327 08:47:26.663749 48953 net.cpp:226] Top shape: 50 128 7 7 (313600)
I0327 08:47:26.663758 48953 net.cpp:234] Memory required for data: 2794133224
I0327 08:47:26.663781 48953 net.cpp:154] Setting up Layer of device :0 @cpu 0 Layer : inception_5b/relu_pool_proj
I0327 08:47:26.663791 48953 layer_factory.hpp:114] Creating layer inception_5b/relu_pool_proj
I0327 08:47:26.663807 48953 net.cpp:169] Creating Layer inception_5b/relu_pool_proj
I0327 08:47:26.663820 48953 net.cpp:606] inception_5b/relu_pool_proj <- inception_5b/pool_proj
I0327 08:47:26.663833 48953 net.cpp:566] inception_5b/relu_pool_proj -> inception_5b/pool_proj (in-place)
I0327 08:47:26.663849 48953 net.cpp:219] Setting up inception_5b/relu_pool_proj
I0327 08:47:26.663861 48953 net.cpp:226] Top shape: 50 128 7 7 (313600)
I0327 08:47:26.663871 48953 net.cpp:234] Memory required for data: 2795387624
I0327 08:47:26.663880 48953 net.cpp:154] Setting up Layer of device :0 @cpu 0 Layer : inception_5b/output
I0327 08:47:26.663889 48953 layer_factory.hpp:114] Creating layer inception_5b/output
I0327 08:47:26.663902 48953 net.cpp:169] Creating Layer inception_5b/output
I0327 08:47:26.663935 48953 net.cpp:606] inception_5b/output <- inception_5b/1x1
I0327 08:47:26.663947 48953 net.cpp:606] inception_5b/output <- inception_5b/3x3
I0327 08:47:26.663957 48953 net.cpp:606] inception_5b/output <- inception_5b/5x5
I0327 08:47:26.663969 48953 net.cpp:606] inception_5b/output <- inception_5b/pool_proj
I0327 08:47:26.663983 48953 net.cpp:579] inception_5b/output -> inception_5b/output
I0327 08:47:26.663992 48953 net.cpp:582] From AppendTop @cpu: 0
I0327 08:47:26.664010 48953 net.cpp:219] Setting up inception_5b/output
I0327 08:47:26.664028 48953 net.cpp:226] Top shape: 50 1024 7 7 (2508800)
I0327 08:47:26.664038 48953 net.cpp:234] Memory required for data: 2805422824
I0327 08:47:26.664048 48953 net.cpp:154] Setting up Layer of device :0 @cpu 0 Layer : pool5/7x7_s1
I0327 08:47:26.664057 48953 layer_factory.hpp:114] Creating layer pool5/7x7_s1
I0327 08:47:26.664094 48953 net.cpp:169] Creating Layer pool5/7x7_s1
I0327 08:47:26.664105 48953 net.cpp:606] pool5/7x7_s1 <- inception_5b/output
I0327 08:47:26.664119 48953 net.cpp:579] pool5/7x7_s1 -> pool5/7x7_s1
I0327 08:47:26.664127 48953 net.cpp:582] From AppendTop @cpu: 0
I0327 08:47:26.664144 48953 net.cpp:219] Setting up pool5/7x7_s1
I0327 08:47:26.664156 48953 net.cpp:226] Top shape: 50 1024 1 1 (51200)
I0327 08:47:26.664165 48953 net.cpp:234] Memory required for data: 2805627624
I0327 08:47:26.664175 48953 net.cpp:154] Setting up Layer of device :0 @cpu 0 Layer : pool5/drop_7x7_s1
I0327 08:47:26.664183 48953 layer_factory.hpp:114] Creating layer pool5/drop_7x7_s1
I0327 08:47:26.664197 48953 net.cpp:169] Creating Layer pool5/drop_7x7_s1
I0327 08:47:26.664207 48953 net.cpp:606] pool5/drop_7x7_s1 <- pool5/7x7_s1
I0327 08:47:26.664222 48953 net.cpp:566] pool5/drop_7x7_s1 -> pool5/7x7_s1 (in-place)
I0327 08:47:26.664237 48953 net.cpp:219] Setting up pool5/drop_7x7_s1
I0327 08:47:26.664254 48953 net.cpp:226] Top shape: 50 1024 1 1 (51200)
I0327 08:47:26.664263 48953 net.cpp:234] Memory required for data: 2805832424
I0327 08:47:26.664273 48953 net.cpp:154] Setting up Layer of device :0 @cpu 0 Layer : loss3/classifier
I0327 08:47:26.664281 48953 layer_factory.hpp:114] Creating layer loss3/classifier
I0327 08:47:26.664299 48953 net.cpp:169] Creating Layer loss3/classifier
I0327 08:47:26.664309 48953 net.cpp:606] loss3/classifier <- pool5/7x7_s1
I0327 08:47:26.664322 48953 net.cpp:579] loss3/classifier -> loss3/classifier
I0327 08:47:26.664331 48953 net.cpp:582] From AppendTop @cpu: 0
I0327 08:47:26.681377 48953 net.cpp:219] Setting up loss3/classifier
I0327 08:47:26.681435 48953 net.cpp:226] Top shape: 50 1000 (50000)
I0327 08:47:26.681445 48953 net.cpp:234] Memory required for data: 2806032424
I0327 08:47:26.681470 48953 net.cpp:154] Setting up Layer of device :0 @cpu 0 Layer : loss3/classifier_loss3/classifier_0_split
I0327 08:47:26.681481 48953 layer_factory.hpp:114] Creating layer loss3/classifier_loss3/classifier_0_split
I0327 08:47:26.681502 48953 net.cpp:169] Creating Layer loss3/classifier_loss3/classifier_0_split
I0327 08:47:26.681515 48953 net.cpp:606] loss3/classifier_loss3/classifier_0_split <- loss3/classifier
I0327 08:47:26.681530 48953 net.cpp:579] loss3/classifier_loss3/classifier_0_split -> loss3/classifier_loss3/classifier_0_split_0
I0327 08:47:26.681540 48953 net.cpp:582] From AppendTop @cpu: 0
I0327 08:47:26.681556 48953 net.cpp:579] loss3/classifier_loss3/classifier_0_split -> loss3/classifier_loss3/classifier_0_split_1
I0327 08:47:26.681565 48953 net.cpp:582] From AppendTop @cpu: 0
I0327 08:47:26.681578 48953 net.cpp:579] loss3/classifier_loss3/classifier_0_split -> loss3/classifier_loss3/classifier_0_split_2
I0327 08:47:26.681587 48953 net.cpp:582] From AppendTop @cpu: 0
I0327 08:47:26.681602 48953 net.cpp:219] Setting up loss3/classifier_loss3/classifier_0_split
I0327 08:47:26.681613 48953 net.cpp:226] Top shape: 50 1000 (50000)
I0327 08:47:26.681624 48953 net.cpp:226] Top shape: 50 1000 (50000)
I0327 08:47:26.681634 48953 net.cpp:226] Top shape: 50 1000 (50000)
I0327 08:47:26.681643 48953 net.cpp:234] Memory required for data: 2806632424
I0327 08:47:26.681677 48953 net.cpp:154] Setting up Layer of device :0 @cpu 0 Layer : loss3/loss3
I0327 08:47:26.681686 48953 layer_factory.hpp:114] Creating layer loss3/loss3
I0327 08:47:26.681701 48953 net.cpp:169] Creating Layer loss3/loss3
I0327 08:47:26.681711 48953 net.cpp:606] loss3/loss3 <- loss3/classifier_loss3/classifier_0_split_0
…
