…
I0327 08:44:03.353152 48775 net.cpp:493] The NetState phase (0) differed from the phase (1) specified by a rule in layer loss3/top-5
I0327 08:44:03.371068 48775 net.cpp:125] Initializing net from parameters: 
name: "GoogleNet"
state {
  phase: TRAIN
  level: 0
  stage: ""
}
layer {
  name: "data"
  type: "Data"
  top: "data"
  top: "label"
  include {
    phase: TRAIN
  }
  transform_param {
    mirror: true
    crop_size: 224
    mean_value: 104
    mean_value: 117
    mean_value: 123
  }
  data_param {
    source: "/home/user/user/LIBRARIES/caffeLibs/caffe/examples/imagenet/ilsvrc12_train_lmdb"
    batch_size: 48
    backend: LMDB
  }
}
layer {
  name: "label_data_1_split"
  type: "Split"
  bottom: "label"
  top: "label_data_1_split_0"
  top: "label_data_1_split_1"
  top: "label_data_1_split_2"
}
layer {
  name: "conv1/7x7_s2"
  type: "Convolution"
  bottom: "data"
  top: "conv1/7x7_s2"
  param {
    lr_mult: 1
    decay_mult: 1
  }
  param {
    lr_mult: 2
    decay_mult: 0
  }
  convolution_param {
    num_output: 64
    pad: 3
    kernel_size: 7
    stride: 2
    weight_filler {
      type: "xavier"
    }
    bias_filler {
      type: "constant"
      value: 0.2
    }
  }
}
layer {
  name: "conv1/relu_7x7"
  type: "ReLU"
  bottom: "conv1/7x7_s2"
  top: "conv1/7x7_s2"
}
layer {
  name: "pool1/3x3_s2"
  type: "Pooling"
  bottom: "conv1/7x7_s2"
  top: "pool1/3x3_s2"
  pooling_param {
    pool: MAX
    kernel_size: 3
    stride: 2
  }
}
layer {
  name: "pool1/norm1"
  type: "LRN"
  bottom: "pool1/3x3_s2"
  top: "pool1/norm1"
  lrn_param {
    local_size: 5
    alpha: 0.0001
    beta: 0.75
  }
}
layer {
  name: "conv2/3x3_reduce"
  type: "Convolution"
  bottom: "pool1/norm1"
  top: "conv2/3x3_reduce"
  param {
    lr_mult: 1
    decay_mult: 1
  }
  param {
    lr_mult: 2
    decay_mult: 0
  }
  convolution_param {
    num_output: 64
    kernel_size: 1
    weight_filler {
      type: "xavier"
    }
    bias_filler {
      type: "constant"
      value: 0.2
    }
  }
}
layer {
  name: "conv2/relu_3x3_reduce"
  type: "ReLU"
  bottom: "conv2/3x3_reduce"
  top: "conv2/3x3_reduce"
}
layer {
  name: "conv2/3x3"
  type: "Convolution"
  bottom: "conv2/3x3_reduce"
  top: "conv2/3x3"
  param {
    lr_mult: 1
    decay_mult: 1
  }
  param {
    lr_mult: 2
    decay_mult: 0
  }
  convolution_param {
    num_output: 192
    pad: 1
    kernel_size: 3
    weight_filler {
      type: "xavier"
    }
    bias_filler {
      type: "constant"
      value: 0.2
    }
  }
}
layer {
  name: "conv2/relu_3x3"
  type: "ReLU"
  bottom: "conv2/3x3"
  top: "conv2/3x3"
}
layer {
  name: "conv2/norm2"
  type: "LRN"
  bottom: "conv2/3x3"
  top: "conv2/norm2"
  lrn_param {
    local_size: 5
    alpha: 0.0001
    beta: 0.75
  }
}
layer {
  name: "pool2/3x3_s2"
  type: "Pooling"
  bottom: "conv2/norm2"
  top: "pool2/3x3_s2"
  pooling_param {
    pool: MAX
    kernel_size: 3
    stride: 2
  }
}
layer {
  name: "pool2/3x3_s2_pool2/3x3_s2_0_split"
  type: "Split"
  bottom: "pool2/3x3_s2"
  top: "pool2/3x3_s2_pool2/3x3_s2_0_split_0"
  top: "pool2/3x3_s2_pool2/3x3_s2_0_split_1"
  top: "pool2/3x3_s2_pool2/3x3_s2_0_split_2"
  top: "pool2/3x3_s2_pool2/3x3_s2_0_split_3"
}
layer {
  name: "inception_3a/1x1"
  type: "Convolution"
  bottom: "pool2/3x3_s2_pool2/3x3_s2_0_split_0"
  top: "inception_3a/1x1"
  param {
    lr_mult: 1
    decay_mult: 1
  }
  param {
    lr_mult: 2
    decay_mult: 0
  }
  convolution_param {
    num_output: 64
    kernel_size: 1
    weight_filler {
      type: "xavier"
    }
    bias_filler {
      type: "constant"
      value: 0.2
    }
  }
}
layer {
  name: "inception_3a/relu_1x1"
  type: "ReLU"
  bottom: "inception_3a/1x1"
  top: "inception_3a/1x1"
}
layer {
  name: "inception_3a/3x3_reduce"
  type: "Convolution"
  bottom: "pool2/3x3_s2_pool2/3x3_s2_0_split_1"
  top: "inception_3a/3x3_reduce"
  param {
    lr_mult: 1
    decay_mult: 1
  }
  param {
    lr_mult: 2
    decay_mult: 0
  }
  convolution_param {
    num_output: 96
    kernel_size: 1
    weight_filler {
      type: "xavier"
    }
    bias_filler {
      type: "constant"
      value: 0.2
    }
  }
}
layer {
  name: "inception_3a/relu_3x3_reduce"
  type: "ReLU"
  bottom: "inception_3a/3x3_reduce"
  top: "inception_3a/3x3_reduce"
}
layer {
  name: "inception_3a/3x3"
  type: "Convolution"
  bottom: "inception_3a/3x3_reduce"
  top: "inception_3a/3x3"
  param {
    lr_mult: 1
    decay_mult: 1
  }
  param {
    lr_mult: 2
    decay_mult: 0
  }
  convolution_param {
    num_output: 128
    pad: 1
    kernel_size: 3
    weight_filler {
      type: "xavier"
    }
    bias_filler {
      type: "constant"
      value: 0.2
    }
  }
}
layer {
  name: "inception_3a/relu_3x3"
  type: "ReLU"
  bottom: "inception_3a/3x3"
  top: "inception_3a/3x3"
}
layer {
  name: "inception_3a/5x5_reduce"
  type: "Convolution"
  bottom: "pool2/3x3_s2_pool2/3x3_s2_0_split_2"
  top: "inception_3a/5x5_reduce"
  param {
    lr_mult: 1
    decay_mult: 1
  }
  param {
    lr_mult: 2
    decay_mult: 0
  }
  convolution_param {
    num_output: 16
    kernel_size: 1
    weight_filler {
      type: "xavier"
    }
    bias_filler {
      type: "constant"
      value: 0.2
    }
  }
}
layer {
  name: "inception_3a/relu_5x5_reduce"
  type: "ReLU"
  bottom: "inception_3a/5x5_reduce"
  top: "inception_3a/5x5_reduce"
}
layer {
  name: "inception_3a/5x5"
  type: "Convolution"
  bottom: "inception_3a/5x5_reduce"
  top: "inception_3a/5x5"
  param {
    lr_mult: 1
    decay_mult: 1
  }
  param {
    lr_mult: 2
    decay_mult: 0
  }
  convolution_param {
    num_output: 32
    pad: 2
    kernel_size: 5
    weight_filler {
      type: "xavier"
    }
    bias_filler {
      type: "constant"
      value: 0.2
    }
  }
}
layer {
  name: "inception_3a/relu_5x5"
  type: "ReLU"
  bottom: "inception_3a/5x5"
  top: "inception_3a/5x5"
}
layer {
  name: "inception_3a/pool"
  type: "Pooling"
  bottom: "pool2/3x3_s2_pool2/3x3_s2_0_split_3"
  top: "inception_3a/pool"
  pooling_param {
    pool: MAX
    kernel_size: 3
    stride: 1
    pad: 1
  }
}
layer {
  name: "inception_3a/pool_proj"
  type: "Convolution"
  bottom: "inception_3a/pool"
  top: "inception_3a/pool_proj"
  param {
    lr_mult: 1
    decay_mult: 1
  }
  param {
    lr_mult: 2
    decay_mult: 0
  }
  convolution_param {
    num_output: 32
    kernel_size: 1
    weight_filler {
      type: "xavier"
    }
    bias_filler {
      type: "constant"
      value: 0.2
    }
  }
}
layer {
  name: "inception_3a/relu_pool_proj"
  type: "ReLU"
  bottom: "inception_3a/pool_proj"
  top: "inception_3a/pool_proj"
}
layer {
  name: "inception_3a/output"
  type: "Concat"
  bottom: "inception_3a/1x1"
  bottom: "inception_3a/3x3"
  bottom: "inception_3a/5x5"
  bottom: "inception_3a/pool_proj"
  top: "inception_3a/output"
}
layer {
  name: "inception_3a/output_inception_3a/output_0_split"
  type: "Split"
  bottom: "inception_3a/output"
  top: "inception_3a/output_inception_3a/output_0_split_0"
  top: "inception_3a/output_inception_3a/output_0_split_1"
  top: "inception_3a/output_inception_3a/output_0_split_2"
  top: "inception_3a/output_inception_3a/output_0_split_3"
}
layer {
  name: "inception_3b/1x1"
  type: "Convolution"
  bottom: "inception_3a/output_inception_3a/output_0_split_0"
  top: "inception_3b/1x1"
  param {
    lr_mult: 1
    decay_mult: 1
  }
  param {
    lr_mult: 2
    decay_mult: 0
  }
  convolution_param {
    num_output: 128
    kernel_size: 1
    weight_filler {
      type: "xavier"
    }
    bias_filler {
      type: "constant"
      value: 0.2
    }
  }
}
layer {
  name: "inception_3b/relu_1x1"
  type: "ReLU"
  bottom: "inception_3b/1x1"
  top: "inception_3b/1x1"
}
layer {
  name: "inception_3b/3x3_reduce"
  type: "Convolution"
  bottom: "inception_3a/output_inception_3a/output_0_split_1"
  top: "inception_3b/3x3_reduce"
  param {
    lr_mult: 1
    decay_mult: 1
  }
  param {
    lr_mult: 2
    decay_mult: 0
  }
  convolution_param {
    num_output: 128
    kernel_size: 1
    weight_filler {
      type: "xavier"
    }
    bias_filler {
      type: "constant"
      value: 0.2
    }
  }
}
layer {
  name: "inception_3b/relu_3x3_reduce"
  type: "ReLU"
  bottom: "inception_3b/3x3_reduce"
  top: "inception_3b/3x3_reduce"
}
layer {
  name: "inception_3b/3x3"
  type: "Convolution"
  bottom: "inception_3b/3x3_reduce"
  top: "inception_3b/3x3"
  param {
    lr_mult: 1
    decay_mult: 1
  }
  param {
    lr_mult: 2
    decay_mult: 0
  }
  convolution_param {
    num_output: 192
    pad: 1
    kernel_size: 3
    weight_filler {
      type: "xavier"
    }
    bias_filler {
      type: "constant"
      value: 0.2
    }
  }
}
layer {
  name: "inception_3b/relu_3x3"
  type: "ReLU"
  bottom: "inception_3b/3x3"
  top: "inception_3b/3x3"
}
layer {
  name: "inception_3b/5x5_reduce"
  type: "Convolution"
  bottom: "inception_3a/output_inception_3a/output_0_split_2"
  top: "inception_3b/5x5_reduce"
  param {
    lr_mult: 1
    decay_mult: 1
  }
  param {
    lr_mult: 2
    decay_mult: 0
  }
  convolution_param {
    num_output: 32
    kernel_size: 1
    weight_filler {
      type: "xavier"
    }
    bias_filler {
      type: "constant"
      value: 0.2
    }
  }
}
layer {
  name: "inception_3b/relu_5x5_reduce"
  type: "ReLU"
  bottom: "inception_3b/5x5_reduce"
  top: "inception_3b/5x5_reduce"
}
layer {
  name: "inception_3b/5x5"
  type: "Convolution"
  bottom: "inception_3b/5x5_reduce"
  top: "inception_3b/5x5"
  param {
    lr_mult: 1
    decay_mult: 1
  }
  param {
    lr_mult: 2
    decay_mult: 0
  }
  convolution_param {
    num_output: 96
    pad: 2
    kernel_size: 5
    weight_filler {
      type: "xavier"
    }
    bias_filler {
      type: "constant"
      value: 0.2
    }
  }
}
layer {
  name: "inception_3b/relu_5x5"
  type: "ReLU"
  bottom: "inception_3b/5x5"
  top: "inception_3b/5x5"
}
layer {
  name: "inception_3b/pool"
  type: "Pooling"
  bottom: "inception_3a/output_inception_3a/output_0_split_3"
  top: "inception_3b/pool"
  pooling_param {
    pool: MAX
    kernel_size: 3
    stride: 1
    pad: 1
  }
}
layer {
  name: "inception_3b/pool_proj"
  type: "Convolution"
  bottom: "inception_3b/pool"
  top: "inception_3b/pool_proj"
  param {
    lr_mult: 1
    decay_mult: 1
  }
  param {
    lr_mult: 2
    decay_mult: 0
  }
  convolution_param {
    num_output: 64
    kernel_size: 1
    weight_filler {
      type: "xavier"
    }
    bias_filler {
      type: "constant"
      value: 0.2
    }
  }
}
layer {
  name: "inception_3b/relu_pool_proj"
  type: "ReLU"
  bottom: "inception_3b/pool_proj"
  top: "inception_3b/pool_proj"
}
layer {
  name: "inception_3b/output"
  type: "Concat"
  bottom: "inception_3b/1x1"
  bottom: "inception_3b/3x3"
  bottom: "inception_3b/5x5"
  bottom: "inception_3b/pool_proj"
  top: "inception_3b/output"
}
layer {
  name: "pool3/3x3_s2"
  type: "Pooling"
  bottom: "inception_3b/output"
  top: "pool3/3x3_s2"
  pooling_param {
    pool: MAX
    kernel_size: 3
    stride: 2
  }
}
layer {
  name: "pool3/3x3_s2_pool3/3x3_s2_0_split"
  type: "Split"
  bottom: "pool3/3x3_s2"
  top: "pool3/3x3_s2_pool3/3x3_s2_0_split_0"
  top: "pool3/3x3_s2_pool3/3x3_s2_0_split_1"
  top: "pool3/3x3_s2_pool3/3x3_s2_0_split_2"
  top: "pool3/3x3_s2_pool3/3x3_s2_0_split_3"
}
layer {
  name: "inception_4a/1x1"
  type: "Convolution"
  bottom: "pool3/3x3_s2_pool3/3x3_s2_0_split_0"
  top: "inception_4a/1x1"
  param {
    lr_mult: 1
    decay_mult: 1
  }
  param {
    lr_mult: 2
    decay_mult: 0
  }
  convolution_param {
    num_output: 192
    kernel_size: 1
    weight_filler {
      type: "xavier"
    }
    bias_filler {
      type: "constant"
      value: 0.2
    }
  }
}
layer {
  name: "inception_4a/relu_1x1"
  type: "ReLU"
  bottom: "inception_4a/1x1"
  top: "inception_4a/1x1"
}
layer {
  name: "inception_4a/3x3_reduce"
  type: "Convolution"
  bottom: "pool3/3x3_s2_pool3/3x3_s2_0_split_1"
  top: "inception_4a/3x3_reduce"
  param {
    lr_mult: 1
    decay_mult: 1
  }
  param {
    lr_mult: 2
    decay_mult: 0
  }
  convolution_param {
    num_output: 96
    kernel_size: 1
    weight_filler {
      type: "xavier"
    }
    bias_filler {
      type: "constant"
      value: 0.2
    }
  }
}
layer {
  name: "inception_4a/relu_3x3_reduce"
  type: "ReLU"
  bottom: "inception_4a/3x3_reduce"
  top: "inception_4a/3x3_reduce"
}
layer {
  name: "inception_4a/3x3"
  type: "Convolution"
  bottom: "inception_4a/3x3_reduce"
  top: "inception_4a/3x3"
  param {
    lr_mult: 1
    decay_mult: 1
  }
  param {
    lr_mult: 2
    decay_mult: 0
  }
  convolution_param {
    num_output: 208
    pad: 1
    kernel_size: 3
    weight_filler {
      type: "xavier"
    }
    bias_filler {
      type: "constant"
      value: 0.2
    }
  }
}
layer {
  name: "inception_4a/relu_3x3"
  type: "ReLU"
  bottom: "inception_4a/3x3"
  top: "inception_4a/3x3"
}
layer {
  name: "inception_4a/5x5_reduce"
  type: "Convolution"
  bottom: "pool3/3x3_s2_pool3/3x3_s2_0_split_2"
  top: "inception_4a/5x5_reduce"
  param {
    lr_mult: 1
    decay_mult: 1
  }
  param {
    lr_mult: 2
    decay_mult: 0
  }
  convolution_param {
    num_output: 16
    kernel_size: 1
    weight_filler {
      type: "xavier"
    }
    bias_filler {
      type: "constant"
      value: 0.2
    }
  }
}
layer {
  name: "inception_4a/relu_5x5_reduce"
  type: "ReLU"
  bottom: "inception_4a/5x5_reduce"
  top: "inception_4a/5x5_reduce"
}
layer {
  name: "inception_4a/5x5"
  type: "Convolution"
  bottom: "inception_4a/5x5_reduce"
  top: "inception_4a/5x5"
  param {
    lr_mult: 1
    decay_mult: 1
  }
  param {
    lr_mult: 2
    decay_mult: 0
  }
  convolution_param {
    num_output: 48
    pad: 2
    kernel_size: 5
    weight_filler {
      type: "xavier"
    }
    bias_filler {
      type: "constant"
      value: 0.2
    }
  }
}
layer {
  name: "inception_4a/relu_5x5"
  type: "ReLU"
  bottom: "inception_4a/5x5"
  top: "inception_4a/5x5"
}
layer {
  name: "inception_4a/pool"
  type: "Pooling"
  bottom: "pool3/3x3_s2_pool3/3x3_s2_0_split_3"
  top: "inception_4a/pool"
  pooling_param {
    pool: MAX
    kernel_size: 3
    stride: 1
    pad: 1
  }
}
layer {
  name: "inception_4a/pool_proj"
  type: "Convolution"
  bottom: "inception_4a/pool"
  top: "inception_4a/pool_proj"
  param {
    lr_mult: 1
    decay_mult: 1
  }
  param {
    lr_mult: 2
    decay_mult: 0
  }
  convolution_param {
    num_output: 64
    kernel_size: 1
    weight_filler {
      type: "xavier"
    }
    bias_filler {
      type: "constant"
      value: 0.2
    }
  }
}
layer {
  name: "inception_4a/relu_pool_proj"
  type: "ReLU"
  bottom: "inception_4a/pool_proj"
  top: "inception_4a/pool_proj"
}
layer {
  name: "inception_4a/output"
  type: "Concat"
  bottom: "inception_4a/1x1"
  bottom: "inception_4a/3x3"
  bottom: "inception_4a/5x5"
  bottom: "inception_4a/pool_proj"
  top: "inception_4a/output"
}
layer {
  name: "inception_4a/output_inception_4a/output_0_split"
  type: "Split"
  bottom: "inception_4a/output"
  top: "inception_4a/output_inception_4a/output_0_split_0"
  top: "inception_4a/output_inception_4a/output_0_split_1"
  top: "inception_4a/output_inception_4a/output_0_split_2"
  top: "inception_4a/output_inception_4a/output_0_split_3"
  top: "inception_4a/output_inception_4a/output_0_split_4"
}
layer {
  name: "loss1/ave_pool"
  type: "Pooling"
  bottom: "inception_4a/output_inception_4a/output_0_split_0"
  top: "loss1/ave_pool"
  pooling_param {
    pool: AVE
    kernel_size: 5
    stride: 3
  }
}
layer {
  name: "loss1/conv"
  type: "Convolution"
  bottom: "loss1/ave_pool"
  top: "loss1/conv"
  param {
    lr_mult: 1
    decay_mult: 1
  }
  param {
    lr_mult: 2
    decay_mult: 0
  }
  convolution_param {
    num_output: 128
    kernel_size: 1
    weight_filler {
      type: "xavier"
    }
    bias_filler {
      type: "constant"
      value: 0.2
    }
  }
}
layer {
  name: "loss1/relu_conv"
  type: "ReLU"
  bottom: "loss1/conv"
  top: "loss1/conv"
}
layer {
  name: "loss1/fc"
  type: "InnerProduct"
  bottom: "loss1/conv"
  top: "loss1/fc"
  param {
    lr_mult: 1
    decay_mult: 1
  }
  param {
    lr_mult: 2
    decay_mult: 0
  }
  inner_product_param {
    num_output: 1024
    weight_filler {
      type: "xavier"
    }
    bias_filler {
      type: "constant"
      value: 0.2
    }
  }
}
layer {
  name: "loss1/relu_fc"
  type: "ReLU"
  bottom: "loss1/fc"
  top: "loss1/fc"
}
layer {
  name: "loss1/drop_fc"
  type: "Dropout"
  bottom: "loss1/fc"
  top: "loss1/fc"
  dropout_param {
    dropout_ratio: 0.7
  }
}
layer {
  name: "loss1/classifier"
  type: "InnerProduct"
  bottom: "loss1/fc"
  top: "loss1/classifier"
  param {
    lr_mult: 1
    decay_mult: 1
  }
  param {
    lr_mult: 2
    decay_mult: 0
  }
  inner_product_param {
    num_output: 1000
    weight_filler {
      type: "xavier"
    }
    bias_filler {
      type: "constant"
      value: 0
    }
  }
}
layer {
  name: "loss1/loss"
  type: "SoftmaxWithLoss"
  bottom: "loss1/classifier"
  bottom: "label_data_1_split_0"
  top: "loss1/loss1"
  loss_weight: 0.3
}
layer {
  name: "inception_4b/1x1"
  type: "Convolution"
  bottom: "inception_4a/output_inception_4a/output_0_split_1"
  top: "inception_4b/1x1"
  param {
    lr_mult: 1
    decay_mult: 1
  }
  param {
    lr_mult: 2
    decay_mult: 0
  }
  convolution_param {
    num_output: 160
    kernel_size: 1
    weight_filler {
      type: "xavier"
    }
    bias_filler {
      type: "constant"
      value: 0.2
    }
  }
}
layer {
  name: "inception_4b/relu_1x1"
  type: "ReLU"
  bottom: "inception_4b/1x1"
  top: "inception_4b/1x1"
}
layer {
  name: "inception_4b/3x3_reduce"
  type: "Convolution"
  bottom: "inception_4a/output_inception_4a/output_0_split_2"
  top: "inception_4b/3x3_reduce"
  param {
    lr_mult: 1
    decay_mult: 1
  }
  param {
    lr_mult: 2
    decay_mult: 0
  }
  convolution_param {
    num_output: 112
    kernel_size: 1
    weight_filler {
      type: "xavier"
    }
    bias_filler {
      type: "constant"
      value: 0.2
    }
  }
}
layer {
  name: "inception_4b/relu_3x3_reduce"
  type: "ReLU"
  bottom: "inception_4b/3x3_reduce"
  top: "inception_4b/3x3_reduce"
}
layer {
  name: "inception_4b/3x3"
  type: "Convolution"
  bottom: "inception_4b/3x3_reduce"
  top: "inception_4b/3x3"
  param {
    lr_mult: 1
    decay_mult: 1
  }
  param {
    lr_mult: 2
    decay_mult: 0
  }
  convolution_param {
    num_output: 224
    pad: 1
    kernel_size: 3
    weight_filler {
      type: "xavier"
    }
    bias_filler {
      type: "constant"
      value: 0.2
    }
  }
}
layer {
  name: "inception_4b/relu_3x3"
  type: "ReLU"
  bottom: "inception_4b/3x3"
  top: "inception_4b/3x3"
}
layer {
  name: "inception_4b/5x5_reduce"
  type: "Convolution"
  bottom: "inception_4a/output_inception_4a/output_0_split_3"
  top: "inception_4b/5x5_reduce"
  param {
    lr_mult: 1
    decay_mult: 1
  }
  param {
    lr_mult: 2
    decay_mult: 0
  }
  convolution_param {
    num_output: 24
    kernel_size: 1
    weight_filler {
      type: "xavier"
    }
    bias_filler {
      type: "constant"
      value: 0.2
    }
  }
}
layer {
  name: "inception_4b/relu_5x5_reduce"
  type: "ReLU"
  bottom: "inception_4b/5x5_reduce"
  top: "inception_4b/5x5_reduce"
}
layer {
  name: "inception_4b/5x5"
  type: "Convolution"
  bottom: "inception_4b/5x5_reduce"
  top: "inception_4b/5x5"
  param {
    lr_mult: 1
    decay_mult: 1
  }
  param {
    lr_mult: 2
    decay_mult: 0
  }
  convolution_param {
    num_output: 64
    pad: 2
    kernel_size: 5
    weight_filler {
      type: "xavier"
    }
    bias_filler {
      type: "constant"
      value: 0.2
    }
  }
}
layer {
  name: "inception_4b/relu_5x5"
  type: "ReLU"
  bottom: "inception_4b/5x5"
  top: "inception_4b/5x5"
}
layer {
  name: "inception_4b/pool"
  type: "Pooling"
  bottom: "inception_4a/output_inception_4a/output_0_split_4"
  top: "inception_4b/pool"
  pooling_param {
    pool: MAX
    kernel_size: 3
    stride: 1
    pad: 1
  }
}
layer {
  name: "inception_4b/pool_proj"
  type: "Convolution"
  bottom: "inception_4b/pool"
  top: "inception_4b/pool_proj"
  param {
    lr_mult: 1
    decay_mult: 1
  }
  param {
    lr_mult: 2
    decay_mult: 0
  }
  convolution_param {
    num_output: 64
    kernel_size: 1
    weight_filler {
      type: "xavier"
    }
    bias_filler {
      type: "constant"
      value: 0.2
    }
  }
}
layer {
  name: "inception_4b/relu_pool_proj"
  type: "ReLU"
  bottom: "inception_4b/pool_proj"
  top: "inception_4b/pool_proj"
}
layer {
  name: "inception_4b/output"
  type: "Concat"
  bottom: "inception_4b/1x1"
  bottom: "inception_4b/3x3"
  bottom: "inception_4b/5x5"
  bottom: "inception_4b/pool_proj"
  top: "inception_4b/output"
}
layer {
  name: "inception_4b/output_inception_4b/output_0_split"
  type: "Split"
  bottom: "inception_4b/output"
  top: "inception_4b/output_inception_4b/output_0_split_0"
  top: "inception_4b/output_inception_4b/output_0_split_1"
  top: "inception_4b/output_inception_4b/output_0_split_2"
  top: "inception_4b/output_inception_4b/output_0_split_3"
}
layer {
  name: "inception_4c/1x1"
  type: "Convolution"
  bottom: "inception_4b/output_inception_4b/output_0_split_0"
  top: "inception_4c/1x1"
  param {
    lr_mult: 1
    decay_mult: 1
  }
  param {
    lr_mult: 2
    decay_mult: 0
  }
  convolution_param {
    num_output: 128
    kernel_size: 1
    weight_filler {
      type: "xavier"
    }
    bias_filler {
      type: "constant"
      value: 0.2
    }
  }
}
layer {
  name: "inception_4c/relu_1x1"
  type: "ReLU"
  bottom: "inception_4c/1x1"
  top: "inception_4c/1x1"
}
layer {
  name: "inception_4c/3x3_reduce"
  type: "Convolution"
  bottom: "inception_4b/output_inception_4b/output_0_split_1"
  top: "inception_4c/3x3_reduce"
  param {
    lr_mult: 1
    decay_mult: 1
  }
  param {
    lr_mult: 2
    decay_mult: 0
  }
  convolution_param {
    num_output: 128
    kernel_size: 1
    weight_filler {
      type: "xavier"
    }
    bias_filler {
      type: "constant"
      value: 0.2
    }
  }
}
layer {
  name: "inception_4c/relu_3x3_reduce"
  type: "ReLU"
  bottom: "inception_4c/3x3_reduce"
  top: "inception_4c/3x3_reduce"
}
layer {
  name: "inception_4c/3x3"
  type: "Convolution"
  bottom: "inception_4c/3x3_reduce"
  top: "inception_4c/3x3"
  param {
    lr_mult: 1
    decay_mult: 1
  }
  param {
    lr_mult: 2
    decay_mult: 0
  }
  convolution_param {
    num_output: 256
    pad: 1
    kernel_size: 3
    weight_filler {
      type: "xavier"
    }
    bias_filler {
      type: "constant"
      value: 0.2
    }
  }
}
layer {
  name: "inception_4c/relu_3x3"
  type: "ReLU"
  bottom: "inception_4c/3x3"
  top: "inception_4c/3x3"
}
layer {
  name: "inception_4c/5x5_reduce"
  type: "Convolution"
  bottom: "inception_4b/output_inception_4b/output_0_split_2"
  top: "inception_4c/5x5_reduce"
  param {
    lr_mult: 1
    decay_mult: 1
  }
  param {
    lr_mult: 2
    decay_mult: 0
  }
  convolution_param {
    num_output: 24
    kernel_size: 1
    weight_filler {
      type: "xavier"
    }
    bias_filler {
      type: "constant"
      value: 0.2
    }
  }
}
layer {
  name: "inception_4c/relu_5x5_reduce"
  type: "ReLU"
  bottom: "inception_4c/5x5_reduce"
  top: "inception_4c/5x5_reduce"
}
layer {
  name: "inception_4c/5x5"
  type: "Convolution"
  bottom: "inception_4c/5x5_reduce"
  top: "inception_4c/5x5"
  param {
    lr_mult: 1
    decay_mult: 1
  }
  param {
    lr_mult: 2
    decay_mult: 0
  }
  convolution_param {
    num_output: 64
    pad: 2
    kernel_size: 5
    weight_filler {
      type: "xavier"
    }
    bias_filler {
      type: "constant"
      value: 0.2
    }
  }
}
layer {
  name: "inception_4c/relu_5x5"
  type: "ReLU"
  bottom: "inception_4c/5x5"
  top: "inception_4c/5x5"
}
layer {
  name: "inception_4c/pool"
  type: "Pooling"
  bottom: "inception_4b/output_inception_4b/output_0_split_3"
  top: "inception_4c/pool"
  pooling_param {
    pool: MAX
    kernel_size: 3
    stride: 1
    pad: 1
  }
}
layer {
  name: "inception_4c/pool_proj"
  type: "Convolution"
  bottom: "inception_4c/pool"
  top: "inception_4c/pool_proj"
  param {
    lr_mult: 1
    decay_mult: 1
  }
  param {
    lr_mult: 2
    decay_mult: 0
  }
  convolution_param {
    num_output: 64
    kernel_size: 1
    weight_filler {
      type: "xavier"
    }
    bias_filler {
      type: "constant"
      value: 0.2
    }
  }
}
layer {
  name: "inception_4c/relu_pool_proj"
  type: "ReLU"
  bottom: "inception_4c/pool_proj"
  top: "inception_4c/pool_proj"
}
layer {
  name: "inception_4c/output"
  type: "Concat"
  bottom: "inception_4c/1x1"
  bottom: "inception_4c/3x3"
  bottom: "inception_4c/5x5"
  bottom: "inception_4c/pool_proj"
  top: "inception_4c/output"
}
layer {
  name: "inception_4c/output_inception_4c/output_0_split"
  type: "Split"
  bottom: "inception_4c/output"
  top: "inception_4c/output_inception_4c/output_0_split_0"
  top: "inception_4c/output_inception_4c/output_0_split_1"
  top: "inception_4c/output_inception_4c/output_0_split_2"
  top: "inception_4c/output_inception_4c/output_0_split_3"
}
layer {
  name: "inception_4d/1x1"
  type: "Convolution"
  bottom: "inception_4c/output_inception_4c/output_0_split_0"
  top: "inception_4d/1x1"
  param {
    lr_mult: 1
    decay_mult: 1
  }
  param {
    lr_mult: 2
    decay_mult: 0
  }
  convolution_param {
    num_output: 112
    kernel_size: 1
    weight_filler {
      type: "xavier"
    }
    bias_filler {
      type: "constant"
      value: 0.2
    }
  }
}
layer {
  name: "inception_4d/relu_1x1"
  type: "ReLU"
  bottom: "inception_4d/1x1"
  top: "inception_4d/1x1"
}
layer {
  name: "inception_4d/3x3_reduce"
  type: "Convolution"
  bottom: "inception_4c/output_inception_4c/output_0_split_1"
  top: "inception_4d/3x3_reduce"
  param {
    lr_mult: 1
    decay_mult: 1
  }
  param {
    lr_mult: 2
    decay_mult: 0
  }
  convolution_param {
    num_output: 144
    kernel_size: 1
    weight_filler {
      type: "xavier"
    }
    bias_filler {
      type: "constant"
      value: 0.2
    }
  }
}
layer {
  name: "inception_4d/relu_3x3_reduce"
  type: "ReLU"
  bottom: "inception_4d/3x3_reduce"
  top: "inception_4d/3x3_reduce"
}
layer {
  name: "inception_4d/3x3"
  type: "Convolution"
  bottom: "inception_4d/3x3_reduce"
  top: "inception_4d/3x3"
  param {
    lr_mult: 1
    decay_mult: 1
  }
  param {
    lr_mult: 2
    decay_mult: 0
  }
  convolution_param {
    num_output: 288
    pad: 1
    kernel_size: 3
    weight_filler {
      type: "xavier"
    }
    bias_filler {
      type: "constant"
      value: 0.2
    }
  }
}
layer {
  name: "inception_4d/relu_3x3"
  type: "ReLU"
  bottom: "inception_4d/3x3"
  top: "inception_4d/3x3"
}
layer {
  name: "inception_4d/5x5_reduce"
  type: "Convolution"
  bottom: "inception_4c/output_inception_4c/output_0_split_2"
  top: "inception_4d/5x5_reduce"
  param {
    lr_mult: 1
    decay_mult: 1
  }
  param {
    lr_mult: 2
    decay_mult: 0
  }
  convolution_param {
    num_output: 32
    kernel_size: 1
    weight_filler {
      type: "xavier"
    }
    bias_filler {
      type: "constant"
      value: 0.2
    }
  }
}
layer {
  name: "inception_4d/relu_5x5_reduce"
  type: "ReLU"
  bottom: "inception_4d/5x5_reduce"
  top: "inception_4d/5x5_reduce"
}
layer {
  name: "inception_4d/5x5"
  type: "Convolution"
  bottom: "inception_4d/5x5_reduce"
  top: "inception_4d/5x5"
  param {
    lr_mult: 1
    decay_mult: 1
  }
  param {
    lr_mult: 2
    decay_mult: 0
  }
  convolution_param {
    num_output: 64
    pad: 2
    kernel_size: 5
    weight_filler {
      type: "xavier"
    }
    bias_filler {
      type: "constant"
      value: 0.2
    }
  }
}
layer {
  name: "inception_4d/relu_5x5"
  type: "ReLU"
  bottom: "inception_4d/5x5"
  top: "inception_4d/5x5"
}
layer {
  name: "inception_4d/pool"
  type: "Pooling"
  bottom: "inception_4c/output_inception_4c/output_0_split_3"
  top: "inception_4d/pool"
  pooling_param {
    pool: MAX
    kernel_size: 3
    stride: 1
    pad: 1
  }
}
layer {
  name: "inception_4d/pool_proj"
  type: "Convolution"
  bottom: "inception_4d/pool"
  top: "inception_4d/pool_proj"
  param {
    lr_mult: 1
    decay_mult: 1
  }
  param {
    lr_mult: 2
    decay_mult: 0
  }
  convolution_param {
    num_output: 64
    kernel_size: 1
    weight_filler {
      type: "xavier"
    }
    bias_filler {
      type: "constant"
      value: 0.2
    }
  }
}
layer {
  name: "inception_4d/relu_pool_proj"
  type: "ReLU"
  bottom: "inception_4d/pool_proj"
  top: "inception_4d/pool_proj"
}
layer {
  name: "inception_4d/output"
  type: "Concat"
  bottom: "inception_4d/1x1"
  bottom: "inception_4d/3x3"
  bottom: "inception_4d/5x5"
  bottom: "inception_4d/pool_proj"
  top: "inception_4d/output"
}
layer {
  name: "inception_4d/output_inception_4d/output_0_split"
  type: "Split"
  bottom: "inception_4d/output"
  top: "inception_4d/output_inception_4d/output_0_split_0"
  top: "inception_4d/output_inception_4d/output_0_split_1"
  top: "inception_4d/output_inception_4d/output_0_split_2"
  top: "inception_4d/output_inception_4d/output_0_split_3"
  top: "inception_4d/output_inception_4d/output_0_split_4"
}
layer {
  name: "loss2/ave_pool"
  type: "Pooling"
  bottom: "inception_4d/output_inception_4d/output_0_split_0"
  top: "loss2/ave_pool"
  pooling_param {
    pool: AVE
    kernel_size: 5
    stride: 3
  }
}
layer {
  name: "loss2/conv"
  type: "Convolution"
  bottom: "loss2/ave_pool"
  top: "loss2/conv"
  param {
    lr_mult: 1
    decay_mult: 1
  }
  param {
    lr_mult: 2
    decay_mult: 0
  }
  convolution_param {
    num_output: 128
    kernel_size: 1
    weight_filler {
      type: "xavier"
    }
    bias_filler {
      type: "constant"
      value: 0.2
    }
  }
}
layer {
  name: "loss2/relu_conv"
  type: "ReLU"
  bottom: "loss2/conv"
  top: "loss2/conv"
}
layer {
  name: "loss2/fc"
  type: "InnerProduct"
  bottom: "loss2/conv"
  top: "loss2/fc"
  param {
    lr_mult: 1
    decay_mult: 1
  }
  param {
    lr_mult: 2
    decay_mult: 0
  }
  inner_product_param {
    num_output: 1024
    weight_filler {
      type: "xavier"
    }
    bias_filler {
      type: "constant"
      value: 0.2
    }
  }
}
layer {
  name: "loss2/relu_fc"
  type: "ReLU"
  bottom: "loss2/fc"
  top: "loss2/fc"
}
layer {
  name:
I0327 08:44:03.371563 48775 net.cpp:154] Setting up Layer of device :0 @cpu 5 Layer : data
I0327 08:44:03.372467 48775 layer_factory.hpp:114] Creating layer data
I0327 08:44:03.374594 48775 net.cpp:169] Creating Layer data
I0327 08:44:03.374701 48775 net.cpp:579] data -> data
I0327 08:44:03.374727 48775 net.cpp:582] From AppendTop @cpu: 5
I0327 08:44:03.376292 48775 net.cpp:579] data -> label
I0327 08:44:03.376348 48775 net.cpp:582] From AppendTop @cpu: 5
I0327 08:44:03.414789 48776 db_lmdb.cpp:72] Opened lmdb /home/user/user/LIBRARIES/caffeLibs/caffe/examples/imagenet/ilsvrc12_train_lmdb
I0327 08:44:03.445904 48776 data_reader.cpp:128] inside DATAREADER 1
I0327 08:44:03.445971 48776 data_reader.cpp:139] NUMA DOMAIN 0
I0327 08:44:03.448536 48775 data_layer.cpp:80] output data size: 48,3,224,224
I0327 08:44:03.597249 48775 base_data_layer.cpp:96] Done cpu data
I0327 08:44:03.598044 48775 net.cpp:219] Setting up data
I0327 08:44:03.598083 48775 net.cpp:226] Top shape: 48 3 224 224 (7225344)
I0327 08:44:03.598099 48775 net.cpp:226] Top shape: 48 (48)
I0327 08:44:03.598110 48775 net.cpp:234] Memory required for data: 28901568
I0327 08:44:03.598136 48775 net.cpp:154] Setting up Layer of device :0 @cpu 0 Layer : label_data_1_split
I0327 08:44:03.598150 48775 layer_factory.hpp:114] Creating layer label_data_1_split
I0327 08:44:03.598201 48775 net.cpp:169] Creating Layer label_data_1_split
I0327 08:44:03.598215 48775 net.cpp:606] label_data_1_split <- label
I0327 08:44:03.598238 48775 net.cpp:579] label_data_1_split -> label_data_1_split_0
I0327 08:44:03.598250 48775 net.cpp:582] From AppendTop @cpu: 0
I0327 08:44:03.598278 48775 net.cpp:579] label_data_1_split -> label_data_1_split_1
I0327 08:44:03.598289 48775 net.cpp:582] From AppendTop @cpu: 0
I0327 08:44:03.598306 48775 net.cpp:579] label_data_1_split -> label_data_1_split_2
I0327 08:44:03.598317 48775 net.cpp:582] From AppendTop @cpu: 0
I0327 08:44:03.598341 48775 net.cpp:219] Setting up label_data_1_split
I0327 08:44:03.598357 48775 net.cpp:226] Top shape: 48 (48)
I0327 08:44:03.598371 48775 net.cpp:226] Top shape: 48 (48)
I0327 08:44:03.598383 48775 net.cpp:226] Top shape: 48 (48)
I0327 08:44:03.598394 48775 net.cpp:234] Memory required for data: 28902144
I0327 08:44:03.598407 48775 net.cpp:154] Setting up Layer of device :0 @cpu 0 Layer : conv1/7x7_s2
I0327 08:44:03.598418 48775 layer_factory.hpp:114] Creating layer conv1/7x7_s2
I0327 08:44:03.598448 48775 net.cpp:169] Creating Layer conv1/7x7_s2
I0327 08:44:03.598460 48775 net.cpp:606] conv1/7x7_s2 <- data
I0327 08:44:03.598477 48775 net.cpp:579] conv1/7x7_s2 -> conv1/7x7_s2
I0327 08:44:03.598489 48775 net.cpp:582] From AppendTop @cpu: 0
OMP: Info #242: KMP_AFFINITY: pid 48775 thread 2 bound to OS proc set {0,1,2,3,4,5}
OMP: Info #242: KMP_AFFINITY: pid 48775 thread 1 bound to OS proc set {0,1,2,3,4,5}
OMP: Info #242: KMP_AFFINITY: pid 48775 thread 3 bound to OS proc set {0,1,2,3,4,5}
OMP: Info #242: KMP_AFFINITY: pid 48775 thread 4 bound to OS proc set {0,1,2,3,4,5}
OMP: Info #242: KMP_AFFINITY: pid 48775 thread 5 bound to OS proc set {0,1,2,3,4,5}
I0327 08:44:03.646235 48775 net.cpp:219] Setting up conv1/7x7_s2
I0327 08:44:03.646311 48775 net.cpp:226] Top shape: 48 64 112 112 (38535168)
I0327 08:44:03.646322 48775 net.cpp:234] Memory required for data: 183042816
I0327 08:44:03.646365 48775 net.cpp:154] Setting up Layer of device :0 @cpu 0 Layer : conv1/relu_7x7
I0327 08:44:03.646937 48775 layer_factory.hpp:114] Creating layer conv1/relu_7x7
I0327 08:44:03.646987 48775 net.cpp:169] Creating Layer conv1/relu_7x7
I0327 08:44:03.647001 48775 net.cpp:606] conv1/relu_7x7 <- conv1/7x7_s2
I0327 08:44:03.647028 48775 net.cpp:566] conv1/relu_7x7 -> conv1/7x7_s2 (in-place)
I0327 08:44:03.647058 48775 net.cpp:219] Setting up conv1/relu_7x7
I0327 08:44:03.647071 48775 net.cpp:226] Top shape: 48 64 112 112 (38535168)
I0327 08:44:03.647080 48775 net.cpp:234] Memory required for data: 337183488
I0327 08:44:03.647094 48775 net.cpp:154] Setting up Layer of device :0 @cpu 0 Layer : pool1/3x3_s2
I0327 08:44:03.647102 48775 layer_factory.hpp:114] Creating layer pool1/3x3_s2
I0327 08:44:03.647469 48775 net.cpp:169] Creating Layer pool1/3x3_s2
I0327 08:44:03.647488 48775 net.cpp:606] pool1/3x3_s2 <- conv1/7x7_s2
I0327 08:44:03.647507 48775 net.cpp:579] pool1/3x3_s2 -> pool1/3x3_s2
I0327 08:44:03.647517 48775 net.cpp:582] From AppendTop @cpu: 0
I0327 08:44:03.647549 48775 net.cpp:219] Setting up pool1/3x3_s2
I0327 08:44:03.647562 48775 net.cpp:226] Top shape: 48 64 56 56 (9633792)
I0327 08:44:03.647572 48775 net.cpp:234] Memory required for data: 375718656
I0327 08:44:03.647583 48775 net.cpp:154] Setting up Layer of device :0 @cpu 0 Layer : pool1/norm1
I0327 08:44:03.647593 48775 layer_factory.hpp:114] Creating layer pool1/norm1
I0327 08:44:03.647609 48775 net.cpp:169] Creating Layer pool1/norm1
I0327 08:44:03.647619 48775 net.cpp:606] pool1/norm1 <- pool1/3x3_s2
I0327 08:44:03.647631 48775 net.cpp:579] pool1/norm1 -> pool1/norm1
I0327 08:44:03.647639 48775 net.cpp:582] From AppendTop @cpu: 0
I0327 08:44:03.647985 48775 net.cpp:219] Setting up pool1/norm1
I0327 08:44:03.648000 48775 net.cpp:226] Top shape: 48 64 56 56 (9633792)
I0327 08:44:03.648015 48775 net.cpp:234] Memory required for data: 414253824
I0327 08:44:03.648035 48775 net.cpp:154] Setting up Layer of device :0 @cpu 0 Layer : conv2/3x3_reduce
I0327 08:44:03.648043 48775 layer_factory.hpp:114] Creating layer conv2/3x3_reduce
I0327 08:44:03.648064 48775 net.cpp:169] Creating Layer conv2/3x3_reduce
I0327 08:44:03.648074 48775 net.cpp:606] conv2/3x3_reduce <- pool1/norm1
I0327 08:44:03.648093 48775 net.cpp:579] conv2/3x3_reduce -> conv2/3x3_reduce
I0327 08:44:03.648103 48775 net.cpp:582] From AppendTop @cpu: 0
I0327 08:44:03.655182 48775 net.cpp:219] Setting up conv2/3x3_reduce
I0327 08:44:03.655542 48775 net.cpp:226] Top shape: 48 64 56 56 (9633792)
I0327 08:44:03.655552 48775 net.cpp:234] Memory required for data: 452788992
I0327 08:44:03.655586 48775 net.cpp:154] Setting up Layer of device :0 @cpu 0 Layer : conv2/relu_3x3_reduce
I0327 08:44:03.655596 48775 layer_factory.hpp:114] Creating layer conv2/relu_3x3_reduce
I0327 08:44:03.655616 48775 net.cpp:169] Creating Layer conv2/relu_3x3_reduce
I0327 08:44:03.655632 48775 net.cpp:606] conv2/relu_3x3_reduce <- conv2/3x3_reduce
I0327 08:44:03.655647 48775 net.cpp:566] conv2/relu_3x3_reduce -> conv2/3x3_reduce (in-place)
I0327 08:44:03.655678 48775 net.cpp:219] Setting up conv2/relu_3x3_reduce
I0327 08:44:03.655690 48775 net.cpp:226] Top shape: 48 64 56 56 (9633792)
I0327 08:44:03.655699 48775 net.cpp:234] Memory required for data: 491324160
I0327 08:44:03.655709 48775 net.cpp:154] Setting up Layer of device :0 @cpu 0 Layer : conv2/3x3
I0327 08:44:03.655719 48775 layer_factory.hpp:114] Creating layer conv2/3x3
I0327 08:44:03.655743 48775 net.cpp:169] Creating Layer conv2/3x3
I0327 08:44:03.655753 48775 net.cpp:606] conv2/3x3 <- conv2/3x3_reduce
I0327 08:44:03.655766 48775 net.cpp:579] conv2/3x3 -> conv2/3x3
I0327 08:44:03.655776 48775 net.cpp:582] From AppendTop @cpu: 0
I0327 08:44:03.687650 48775 net.cpp:219] Setting up conv2/3x3
I0327 08:44:03.687731 48775 net.cpp:226] Top shape: 48 192 56 56 (28901376)
I0327 08:44:03.687741 48775 net.cpp:234] Memory required for data: 606929664
I0327 08:44:03.687777 48775 net.cpp:154] Setting up Layer of device :0 @cpu 0 Layer : conv2/relu_3x3
I0327 08:44:03.687788 48775 layer_factory.hpp:114] Creating layer conv2/relu_3x3
I0327 08:44:03.687808 48775 net.cpp:169] Creating Layer conv2/relu_3x3
I0327 08:44:03.687837 48775 net.cpp:606] conv2/relu_3x3 <- conv2/3x3
I0327 08:44:03.687854 48775 net.cpp:566] conv2/relu_3x3 -> conv2/3x3 (in-place)
I0327 08:44:03.687872 48775 net.cpp:219] Setting up conv2/relu_3x3
I0327 08:44:03.687885 48775 net.cpp:226] Top shape: 48 192 56 56 (28901376)
I0327 08:44:03.687892 48775 net.cpp:234] Memory required for data: 722535168
I0327 08:44:03.687902 48775 net.cpp:154] Setting up Layer of device :0 @cpu 0 Layer : conv2/norm2
I0327 08:44:03.687911 48775 layer_factory.hpp:114] Creating layer conv2/norm2
I0327 08:44:03.687927 48775 net.cpp:169] Creating Layer conv2/norm2
I0327 08:44:03.687937 48775 net.cpp:606] conv2/norm2 <- conv2/3x3
I0327 08:44:03.687949 48775 net.cpp:579] conv2/norm2 -> conv2/norm2
I0327 08:44:03.687958 48775 net.cpp:582] From AppendTop @cpu: 0
I0327 08:44:03.687981 48775 net.cpp:219] Setting up conv2/norm2
I0327 08:44:03.687994 48775 net.cpp:226] Top shape: 48 192 56 56 (28901376)
I0327 08:44:03.688002 48775 net.cpp:234] Memory required for data: 838140672
I0327 08:44:03.688012 48775 net.cpp:154] Setting up Layer of device :0 @cpu 0 Layer : pool2/3x3_s2
I0327 08:44:03.688029 48775 layer_factory.hpp:114] Creating layer pool2/3x3_s2
I0327 08:44:03.688074 48775 net.cpp:169] Creating Layer pool2/3x3_s2
I0327 08:44:03.688086 48775 net.cpp:606] pool2/3x3_s2 <- conv2/norm2
I0327 08:44:03.688100 48775 net.cpp:579] pool2/3x3_s2 -> pool2/3x3_s2
I0327 08:44:03.688109 48775 net.cpp:582] From AppendTop @cpu: 0
I0327 08:44:03.688127 48775 net.cpp:219] Setting up pool2/3x3_s2
I0327 08:44:03.688138 48775 net.cpp:226] Top shape: 48 192 28 28 (7225344)
I0327 08:44:03.688165 48775 net.cpp:234] Memory required for data: 867042048
I0327 08:44:03.688176 48775 net.cpp:154] Setting up Layer of device :0 @cpu 0 Layer : pool2/3x3_s2_pool2/3x3_s2_0_split
I0327 08:44:03.688185 48775 layer_factory.hpp:114] Creating layer pool2/3x3_s2_pool2/3x3_s2_0_split
I0327 08:44:03.688199 48775 net.cpp:169] Creating Layer pool2/3x3_s2_pool2/3x3_s2_0_split
I0327 08:44:03.688207 48775 net.cpp:606] pool2/3x3_s2_pool2/3x3_s2_0_split <- pool2/3x3_s2
I0327 08:44:03.688220 48775 net.cpp:579] pool2/3x3_s2_pool2/3x3_s2_0_split -> pool2/3x3_s2_pool2/3x3_s2_0_split_0
I0327 08:44:03.688227 48775 net.cpp:582] From AppendTop @cpu: 0
I0327 08:44:03.688241 48775 net.cpp:579] pool2/3x3_s2_pool2/3x3_s2_0_split -> pool2/3x3_s2_pool2/3x3_s2_0_split_1
I0327 08:44:03.688251 48775 net.cpp:582] From AppendTop @cpu: 0
I0327 08:44:03.688263 48775 net.cpp:579] pool2/3x3_s2_pool2/3x3_s2_0_split -> pool2/3x3_s2_pool2/3x3_s2_0_split_2
I0327 08:44:03.688272 48775 net.cpp:582] From AppendTop @cpu: 0
I0327 08:44:03.688285 48775 net.cpp:579] pool2/3x3_s2_pool2/3x3_s2_0_split -> pool2/3x3_s2_pool2/3x3_s2_0_split_3
I0327 08:44:03.688294 48775 net.cpp:582] From AppendTop @cpu: 0
I0327 08:44:03.688308 48775 net.cpp:219] Setting up pool2/3x3_s2_pool2/3x3_s2_0_split
I0327 08:44:03.688320 48775 net.cpp:226] Top shape: 48 192 28 28 (7225344)
I0327 08:44:03.688333 48775 net.cpp:226] Top shape: 48 192 28 28 (7225344)
I0327 08:44:03.688344 48775 net.cpp:226] Top shape: 48 192 28 28 (7225344)
I0327 08:44:03.688354 48775 net.cpp:226] Top shape: 48 192 28 28 (7225344)
I0327 08:44:03.688361 48775 net.cpp:234] Memory required for data: 982647552
I0327 08:44:03.688371 48775 net.cpp:154] Setting up Layer of device :0 @cpu 0 Layer : inception_3a/1x1
I0327 08:44:03.688380 48775 layer_factory.hpp:114] Creating layer inception_3a/1x1
I0327 08:44:03.688405 48775 net.cpp:169] Creating Layer inception_3a/1x1
I0327 08:44:03.688416 48775 net.cpp:606] inception_3a/1x1 <- pool2/3x3_s2_pool2/3x3_s2_0_split_0
I0327 08:44:03.688429 48775 net.cpp:579] inception_3a/1x1 -> inception_3a/1x1
I0327 08:44:03.688437 48775 net.cpp:582] From AppendTop @cpu: 0
I0327 08:44:03.691727 48775 net.cpp:219] Setting up inception_3a/1x1
I0327 08:44:03.691777 48775 net.cpp:226] Top shape: 48 64 28 28 (2408448)
I0327 08:44:03.691787 48775 net.cpp:234] Memory required for data: 992281344
I0327 08:44:03.691810 48775 net.cpp:154] Setting up Layer of device :0 @cpu 0 Layer : inception_3a/relu_1x1
I0327 08:44:03.691833 48775 layer_factory.hpp:114] Creating layer inception_3a/relu_1x1
I0327 08:44:03.691853 48775 net.cpp:169] Creating Layer inception_3a/relu_1x1
I0327 08:44:03.691864 48775 net.cpp:606] inception_3a/relu_1x1 <- inception_3a/1x1
I0327 08:44:03.691877 48775 net.cpp:566] inception_3a/relu_1x1 -> inception_3a/1x1 (in-place)
I0327 08:44:03.691892 48775 net.cpp:219] Setting up inception_3a/relu_1x1
I0327 08:44:03.691905 48775 net.cpp:226] Top shape: 48 64 28 28 (2408448)
I0327 08:44:03.691912 48775 net.cpp:234] Memory required for data: 1001915136
I0327 08:44:03.691923 48775 net.cpp:154] Setting up Layer of device :0 @cpu 0 Layer : inception_3a/3x3_reduce
I0327 08:44:03.691932 48775 layer_factory.hpp:114] Creating layer inception_3a/3x3_reduce
I0327 08:44:03.691953 48775 net.cpp:169] Creating Layer inception_3a/3x3_reduce
I0327 08:44:03.691964 48775 net.cpp:606] inception_3a/3x3_reduce <- pool2/3x3_s2_pool2/3x3_s2_0_split_1
I0327 08:44:03.691982 48775 net.cpp:579] inception_3a/3x3_reduce -> inception_3a/3x3_reduce
I0327 08:44:03.691990 48775 net.cpp:582] From AppendTop @cpu: 0
I0327 08:44:03.694834 48775 net.cpp:219] Setting up inception_3a/3x3_reduce
I0327 08:44:03.694877 48775 net.cpp:226] Top shape: 48 96 28 28 (3612672)
I0327 08:44:03.694886 48775 net.cpp:234] Memory required for data: 1016365824
I0327 08:44:03.694917 48775 net.cpp:154] Setting up Layer of device :0 @cpu 0 Layer : inception_3a/relu_3x3_reduce
I0327 08:44:03.694928 48775 layer_factory.hpp:114] Creating layer inception_3a/relu_3x3_reduce
I0327 08:44:03.694948 48775 net.cpp:169] Creating Layer inception_3a/relu_3x3_reduce
I0327 08:44:03.694984 48775 net.cpp:606] inception_3a/relu_3x3_reduce <- inception_3a/3x3_reduce
I0327 08:44:03.694998 48775 net.cpp:566] inception_3a/relu_3x3_reduce -> inception_3a/3x3_reduce (in-place)
I0327 08:44:03.695015 48775 net.cpp:219] Setting up inception_3a/relu_3x3_reduce
I0327 08:44:03.695035 48775 net.cpp:226] Top shape: 48 96 28 28 (3612672)
I0327 08:44:03.695044 48775 net.cpp:234] Memory required for data: 1030816512
I0327 08:44:03.695055 48775 net.cpp:154] Setting up Layer of device :0 @cpu 0 Layer : inception_3a/3x3
I0327 08:44:03.695068 48775 layer_factory.hpp:114] Creating layer inception_3a/3x3
I0327 08:44:03.695088 48775 net.cpp:169] Creating Layer inception_3a/3x3
I0327 08:44:03.695098 48775 net.cpp:606] inception_3a/3x3 <- inception_3a/3x3_reduce
I0327 08:44:03.695113 48775 net.cpp:579] inception_3a/3x3 -> inception_3a/3x3
I0327 08:44:03.695123 48775 net.cpp:582] From AppendTop @cpu: 0
I0327 08:44:03.706496 48775 net.cpp:219] Setting up inception_3a/3x3
I0327 08:44:03.706573 48775 net.cpp:226] Top shape: 48 128 28 28 (4816896)
I0327 08:44:03.706583 48775 net.cpp:234] Memory required for data: 1050084096
I0327 08:44:03.706611 48775 net.cpp:154] Setting up Layer of device :0 @cpu 0 Layer : inception_3a/relu_3x3
I0327 08:44:03.706621 48775 layer_factory.hpp:114] Creating layer inception_3a/relu_3x3
I0327 08:44:03.706645 48775 net.cpp:169] Creating Layer inception_3a/relu_3x3
I0327 08:44:03.706656 48775 net.cpp:606] inception_3a/relu_3x3 <- inception_3a/3x3
I0327 08:44:03.706672 48775 net.cpp:566] inception_3a/relu_3x3 -> inception_3a/3x3 (in-place)
I0327 08:44:03.706691 48775 net.cpp:219] Setting up inception_3a/relu_3x3
I0327 08:44:03.706703 48775 net.cpp:226] Top shape: 48 128 28 28 (4816896)
I0327 08:44:03.706712 48775 net.cpp:234] Memory required for data: 1069351680
I0327 08:44:03.706722 48775 net.cpp:154] Setting up Layer of device :0 @cpu 0 Layer : inception_3a/5x5_reduce
I0327 08:44:03.706730 48775 layer_factory.hpp:114] Creating layer inception_3a/5x5_reduce
I0327 08:44:03.706753 48775 net.cpp:169] Creating Layer inception_3a/5x5_reduce
I0327 08:44:03.706764 48775 net.cpp:606] inception_3a/5x5_reduce <- pool2/3x3_s2_pool2/3x3_s2_0_split_2
I0327 08:44:03.706784 48775 net.cpp:579] inception_3a/5x5_reduce -> inception_3a/5x5_reduce
I0327 08:44:03.706792 48775 net.cpp:582] From AppendTop @cpu: 0
I0327 08:44:03.709223 48775 net.cpp:219] Setting up inception_3a/5x5_reduce
I0327 08:44:03.709271 48775 net.cpp:226] Top shape: 48 16 28 28 (602112)
I0327 08:44:03.709298 48775 net.cpp:234] Memory required for data: 1071760128
I0327 08:44:03.709321 48775 net.cpp:154] Setting up Layer of device :0 @cpu 0 Layer : inception_3a/relu_5x5_reduce
I0327 08:44:03.709332 48775 layer_factory.hpp:114] Creating layer inception_3a/relu_5x5_reduce
I0327 08:44:03.709352 48775 net.cpp:169] Creating Layer inception_3a/relu_5x5_reduce
I0327 08:44:03.709363 48775 net.cpp:606] inception_3a/relu_5x5_reduce <- inception_3a/5x5_reduce
I0327 08:44:03.709378 48775 net.cpp:566] inception_3a/relu_5x5_reduce -> inception_3a/5x5_reduce (in-place)
I0327 08:44:03.709394 48775 net.cpp:219] Setting up inception_3a/relu_5x5_reduce
I0327 08:44:03.709406 48775 net.cpp:226] Top shape: 48 16 28 28 (602112)
I0327 08:44:03.709414 48775 net.cpp:234] Memory required for data: 1074168576
I0327 08:44:03.709424 48775 net.cpp:154] Setting up Layer of device :0 @cpu 0 Layer : inception_3a/5x5
I0327 08:44:03.709434 48775 layer_factory.hpp:114] Creating layer inception_3a/5x5
I0327 08:44:03.709453 48775 net.cpp:169] Creating Layer inception_3a/5x5
I0327 08:44:03.709465 48775 net.cpp:606] inception_3a/5x5 <- inception_3a/5x5_reduce
I0327 08:44:03.709481 48775 net.cpp:579] inception_3a/5x5 -> inception_3a/5x5
I0327 08:44:03.709489 48775 net.cpp:582] From AppendTop @cpu: 0
I0327 08:44:03.713629 48775 net.cpp:219] Setting up inception_3a/5x5
I0327 08:44:03.713699 48775 net.cpp:226] Top shape: 48 32 28 28 (1204224)
I0327 08:44:03.713708 48775 net.cpp:234] Memory required for data: 1078985472
I0327 08:44:03.713734 48775 net.cpp:154] Setting up Layer of device :0 @cpu 0 Layer : inception_3a/relu_5x5
I0327 08:44:03.713771 48775 layer_factory.hpp:114] Creating layer inception_3a/relu_5x5
I0327 08:44:03.713794 48775 net.cpp:169] Creating Layer inception_3a/relu_5x5
I0327 08:44:03.713806 48775 net.cpp:606] inception_3a/relu_5x5 <- inception_3a/5x5
I0327 08:44:03.713821 48775 net.cpp:566] inception_3a/relu_5x5 -> inception_3a/5x5 (in-place)
I0327 08:44:03.713840 48775 net.cpp:219] Setting up inception_3a/relu_5x5
I0327 08:44:03.713851 48775 net.cpp:226] Top shape: 48 32 28 28 (1204224)
I0327 08:44:03.713860 48775 net.cpp:234] Memory required for data: 1083802368
I0327 08:44:03.713871 48775 net.cpp:154] Setting up Layer of device :0 @cpu 0 Layer : inception_3a/pool
I0327 08:44:03.713879 48775 layer_factory.hpp:114] Creating layer inception_3a/pool
I0327 08:44:03.713925 48775 net.cpp:169] Creating Layer inception_3a/pool
I0327 08:44:03.713939 48775 net.cpp:606] inception_3a/pool <- pool2/3x3_s2_pool2/3x3_s2_0_split_3
I0327 08:44:03.713953 48775 net.cpp:579] inception_3a/pool -> inception_3a/pool
I0327 08:44:03.713961 48775 net.cpp:582] From AppendTop @cpu: 0
I0327 08:44:03.713981 48775 net.cpp:219] Setting up inception_3a/pool
I0327 08:44:03.713994 48775 net.cpp:226] Top shape: 48 192 28 28 (7225344)
I0327 08:44:03.714001 48775 net.cpp:234] Memory required for data: 1112703744
I0327 08:44:03.714011 48775 net.cpp:154] Setting up Layer of device :0 @cpu 0 Layer : inception_3a/pool_proj
I0327 08:44:03.714030 48775 layer_factory.hpp:114] Creating layer inception_3a/pool_proj
I0327 08:44:03.714051 48775 net.cpp:169] Creating Layer inception_3a/pool_proj
I0327 08:44:03.714067 48775 net.cpp:606] inception_3a/pool_proj <- inception_3a/pool
I0327 08:44:03.714084 48775 net.cpp:579] inception_3a/pool_proj -> inception_3a/pool_proj
I0327 08:44:03.714093 48775 net.cpp:582] From AppendTop @cpu: 0
I0327 08:44:03.716410 48775 net.cpp:219] Setting up inception_3a/pool_proj
I0327 08:44:03.716459 48775 net.cpp:226] Top shape: 48 32 28 28 (1204224)
I0327 08:44:03.716466 48775 net.cpp:234] Memory required for data: 1117520640
I0327 08:44:03.716495 48775 net.cpp:154] Setting up Layer of device :0 @cpu 0 Layer : inception_3a/relu_pool_proj
I0327 08:44:03.716506 48775 layer_factory.hpp:114] Creating layer inception_3a/relu_pool_proj
I0327 08:44:03.716521 48775 net.cpp:169] Creating Layer inception_3a/relu_pool_proj
I0327 08:44:03.716532 48775 net.cpp:606] inception_3a/relu_pool_proj <- inception_3a/pool_proj
I0327 08:44:03.716562 48775 net.cpp:566] inception_3a/relu_pool_proj -> inception_3a/pool_proj (in-place)
I0327 08:44:03.716579 48775 net.cpp:219] Setting up inception_3a/relu_pool_proj
I0327 08:44:03.716590 48775 net.cpp:226] Top shape: 48 32 28 28 (1204224)
I0327 08:44:03.716598 48775 net.cpp:234] Memory required for data: 1122337536
I0327 08:44:03.716609 48775 net.cpp:154] Setting up Layer of device :0 @cpu 0 Layer : inception_3a/output
I0327 08:44:03.716617 48775 layer_factory.hpp:114] Creating layer inception_3a/output
I0327 08:44:03.716629 48775 net.cpp:169] Creating Layer inception_3a/output
I0327 08:44:03.716639 48775 net.cpp:606] inception_3a/output <- inception_3a/1x1
I0327 08:44:03.716650 48775 net.cpp:606] inception_3a/output <- inception_3a/3x3
I0327 08:44:03.716660 48775 net.cpp:606] inception_3a/output <- inception_3a/5x5
I0327 08:44:03.716670 48775 net.cpp:606] inception_3a/output <- inception_3a/pool_proj
I0327 08:44:03.716683 48775 net.cpp:579] inception_3a/output -> inception_3a/output
I0327 08:44:03.716692 48775 net.cpp:582] From AppendTop @cpu: 0
I0327 08:44:03.716714 48775 net.cpp:219] Setting up inception_3a/output
I0327 08:44:03.716727 48775 net.cpp:226] Top shape: 48 256 28 28 (9633792)
I0327 08:44:03.716735 48775 net.cpp:234] Memory required for data: 1160872704
I0327 08:44:03.716745 48775 net.cpp:154] Setting up Layer of device :0 @cpu 0 Layer : inception_3a/output_inception_3a/output_0_split
I0327 08:44:03.716754 48775 layer_factory.hpp:114] Creating layer inception_3a/output_inception_3a/output_0_split
I0327 08:44:03.716766 48775 net.cpp:169] Creating Layer inception_3a/output_inception_3a/output_0_split
…
I0327 08:44:03.716840 48775 net.cpp:582] From AppendTop @cpu: 0
I0327 08:44:03.716855 48775 net.cpp:579] inception_3a/output_inception_3a/output_0_split -> inception_3a/output_inception_3a/output_0_split_2
I0327 08:44:03.716862 48775 net.cpp:582] From AppendTop @cpu: 0
I0327 08:44:03.716876 48775 net.cpp:579] inception_3a/output_inception_3a/output_0_split -> inception_3a/output_inception_3a/output_0_split_3
I0327 08:44:03.716884 48775 net.cpp:582] From AppendTop @cpu: 0
I0327 08:44:03.716899 48775 net.cpp:219] Setting up inception_3a/output_inception_3a/output_0_split
I0327 08:44:03.716913 48775 net.cpp:226] Top shape: 48 256 28 28 (9633792)
I0327 08:44:03.716925 48775 net.cpp:226] Top shape: 48 256 28 28 (9633792)
I0327 08:44:03.716936 48775 net.cpp:226] Top shape: 48 256 28 28 (9633792)
I0327 08:44:03.716946 48775 net.cpp:226] Top shape: 48 256 28 28 (9633792)
I0327 08:44:03.716955 48775 net.cpp:234] Memory required for data: 1315013376
I0327 08:44:03.716964 48775 net.cpp:154] Setting up Layer of device :0 @cpu 0 Layer : inception_3b/1x1
I0327 08:44:03.716974 48775 layer_factory.hpp:114] Creating layer inception_3b/1x1
I0327 08:44:03.716990 48775 net.cpp:169] Creating Layer inception_3b/1x1
I0327 08:44:03.717000 48775 net.cpp:606] inception_3b/1x1 <- inception_3a/output_inception_3a/output_0_split_0
I0327 08:44:03.717021 48775 net.cpp:579] inception_3b/1x1 -> inception_3b/1x1
I0327 08:44:03.717032 48775 net.cpp:582] From AppendTop @cpu: 0
I0327 08:44:03.721302 48775 net.cpp:219] Setting up inception_3b/1x1
I0327 08:44:03.721361 48775 net.cpp:226] Top shape: 48 128 28 28 (4816896)
I0327 08:44:03.721370 48775 net.cpp:234] Memory required for data: 1334280960
I0327 08:44:03.721395 48775 net.cpp:154] Setting up Layer of device :0 @cpu 0 Layer : inception_3b/relu_1x1
I0327 08:44:03.721405 48775 layer_factory.hpp:114] Creating layer inception_3b/relu_1x1
I0327 08:44:03.721421 48775 net.cpp:169] Creating Layer inception_3b/relu_1x1
I0327 08:44:03.721451 48775 net.cpp:606] inception_3b/relu_1x1 <- inception_3b/1x1
I0327 08:44:03.721465 48775 net.cpp:566] inception_3b/relu_1x1 -> inception_3b/1x1 (in-place)
I0327 08:44:03.721482 48775 net.cpp:219] Setting up inception_3b/relu_1x1
I0327 08:44:03.721493 48775 net.cpp:226] Top shape: 48 128 28 28 (4816896)
I0327 08:44:03.721503 48775 net.cpp:234] Memory required for data: 1353548544
I0327 08:44:03.721513 48775 net.cpp:154] Setting up Layer of device :0 @cpu 0 Layer : inception_3b/3x3_reduce
I0327 08:44:03.721521 48775 layer_factory.hpp:114] Creating layer inception_3b/3x3_reduce
I0327 08:44:03.721546 48775 net.cpp:169] Creating Layer inception_3b/3x3_reduce
I0327 08:44:03.721557 48775 net.cpp:606] inception_3b/3x3_reduce <- inception_3a/output_inception_3a/output_0_split_1
I0327 08:44:03.721575 48775 net.cpp:579] inception_3b/3x3_reduce -> inception_3b/3x3_reduce
I0327 08:44:03.721585 48775 net.cpp:582] From AppendTop @cpu: 0
I0327 08:44:03.725126 48775 net.cpp:219] Setting up inception_3b/3x3_reduce
I0327 08:44:03.725183 48775 net.cpp:226] Top shape: 48 128 28 28 (4816896)
I0327 08:44:03.725191 48775 net.cpp:234] Memory required for data: 1372816128
I0327 08:44:03.725215 48775 net.cpp:154] Setting up Layer of device :0 @cpu 0 Layer : inception_3b/relu_3x3_reduce
I0327 08:44:03.725225 48775 layer_factory.hpp:114] Creating layer inception_3b/relu_3x3_reduce
I0327 08:44:03.725245 48775 net.cpp:169] Creating Layer inception_3b/relu_3x3_reduce
I0327 08:44:03.725257 48775 net.cpp:606] inception_3b/relu_3x3_reduce <- inception_3b/3x3_reduce
I0327 08:44:03.725270 48775 net.cpp:566] inception_3b/relu_3x3_reduce -> inception_3b/3x3_reduce (in-place)
I0327 08:44:03.725312 48775 net.cpp:219] Setting up inception_3b/relu_3x3_reduce
I0327 08:44:03.725324 48775 net.cpp:226] Top shape: 48 128 28 28 (4816896)
I0327 08:44:03.725332 48775 net.cpp:234] Memory required for data: 1392083712
I0327 08:44:03.725342 48775 net.cpp:154] Setting up Layer of device :0 @cpu 0 Layer : inception_3b/3x3
I0327 08:44:03.725352 48775 layer_factory.hpp:114] Creating layer inception_3b/3x3
I0327 08:44:03.725378 48775 net.cpp:169] Creating Layer inception_3b/3x3
I0327 08:44:03.725389 48775 net.cpp:606] inception_3b/3x3 <- inception_3b/3x3_reduce
I0327 08:44:03.725402 48775 net.cpp:579] inception_3b/3x3 -> inception_3b/3x3
I0327 08:44:03.725410 48775 net.cpp:582] From AppendTop @cpu: 0
I0327 08:44:03.742192 48775 net.cpp:219] Setting up inception_3b/3x3
I0327 08:44:03.742270 48775 net.cpp:226] Top shape: 48 192 28 28 (7225344)
I0327 08:44:03.742280 48775 net.cpp:234] Memory required for data: 1420985088
I0327 08:44:03.742310 48775 net.cpp:154] Setting up Layer of device :0 @cpu 0 Layer : inception_3b/relu_3x3
I0327 08:44:03.742319 48775 layer_factory.hpp:114] Creating layer inception_3b/relu_3x3
I0327 08:44:03.742338 48775 net.cpp:169] Creating Layer inception_3b/relu_3x3
I0327 08:44:03.742350 48775 net.cpp:606] inception_3b/relu_3x3 <- inception_3b/3x3
I0327 08:44:03.742368 48775 net.cpp:566] inception_3b/relu_3x3 -> inception_3b/3x3 (in-place)
I0327 08:44:03.742388 48775 net.cpp:219] Setting up inception_3b/relu_3x3
I0327 08:44:03.742399 48775 net.cpp:226] Top shape: 48 192 28 28 (7225344)
I0327 08:44:03.742408 48775 net.cpp:234] Memory required for data: 1449886464
I0327 08:44:03.742418 48775 net.cpp:154] Setting up Layer of device :0 @cpu 0 Layer : inception_3b/5x5_reduce
I0327 08:44:03.742426 48775 layer_factory.hpp:114] Creating layer inception_3b/5x5_reduce
I0327 08:44:03.742449 48775 net.cpp:169] Creating Layer inception_3b/5x5_reduce
I0327 08:44:03.742460 48775 net.cpp:606] inception_3b/5x5_reduce <- inception_3a/output_inception_3a/output_0_split_2
I0327 08:44:03.742473 48775 net.cpp:579] inception_3b/5x5_reduce -> inception_3b/5x5_reduce
I0327 08:44:03.742482 48775 net.cpp:582] From AppendTop @cpu: 0
I0327 08:44:03.745080 48775 net.cpp:219] Setting up inception_3b/5x5_reduce
I0327 08:44:03.745131 48775 net.cpp:226] Top shape: 48 32 28 28 (1204224)
I0327 08:44:03.745141 48775 net.cpp:234] Memory required for data: 1454703360
I0327 08:44:03.745163 48775 net.cpp:154] Setting up Layer of device :0 @cpu 0 Layer : inception_3b/relu_5x5_reduce
I0327 08:44:03.745190 48775 layer_factory.hpp:114] Creating layer inception_3b/relu_5x5_reduce
I0327 08:44:03.745206 48775 net.cpp:169] Creating Layer inception_3b/relu_5x5_reduce
I0327 08:44:03.745218 48775 net.cpp:606] inception_3b/relu_5x5_reduce <- inception_3b/5x5_reduce
I0327 08:44:03.745234 48775 net.cpp:566] inception_3b/relu_5x5_reduce -> inception_3b/5x5_reduce (in-place)
I0327 08:44:03.745251 48775 net.cpp:219] Setting up inception_3b/relu_5x5_reduce
I0327 08:44:03.745262 48775 net.cpp:226] Top shape: 48 32 28 28 (1204224)
I0327 08:44:03.745271 48775 net.cpp:234] Memory required for data: 1459520256
I0327 08:44:03.745281 48775 net.cpp:154] Setting up Layer of device :0 @cpu 0 Layer : inception_3b/5x5
I0327 08:44:03.745290 48775 layer_factory.hpp:114] Creating layer inception_3b/5x5
I0327 08:44:03.745311 48775 net.cpp:169] Creating Layer inception_3b/5x5
I0327 08:44:03.745319 48775 net.cpp:606] inception_3b/5x5 <- inception_3b/5x5_reduce
I0327 08:44:03.745332 48775 net.cpp:579] inception_3b/5x5 -> inception_3b/5x5
I0327 08:44:03.745342 48775 net.cpp:582] From AppendTop @cpu: 0
I0327 08:44:03.755339 48775 net.cpp:219] Setting up inception_3b/5x5
I0327 08:44:03.755420 48775 net.cpp:226] Top shape: 48 96 28 28 (3612672)
I0327 08:44:03.755430 48775 net.cpp:234] Memory required for data: 1473970944
I0327 08:44:03.755457 48775 net.cpp:154] Setting up Layer of device :0 @cpu 0 Layer : inception_3b/relu_5x5
I0327 08:44:03.755468 48775 layer_factory.hpp:114] Creating layer inception_3b/relu_5x5
I0327 08:44:03.755514 48775 net.cpp:169] Creating Layer inception_3b/relu_5x5
I0327 08:44:03.755527 48775 net.cpp:606] inception_3b/relu_5x5 <- inception_3b/5x5
I0327 08:44:03.755547 48775 net.cpp:566] inception_3b/relu_5x5 -> inception_3b/5x5 (in-place)
I0327 08:44:03.755566 48775 net.cpp:219] Setting up inception_3b/relu_5x5
I0327 08:44:03.755578 48775 net.cpp:226] Top shape: 48 96 28 28 (3612672)
I0327 08:44:03.755586 48775 net.cpp:234] Memory required for data: 1488421632
I0327 08:44:03.755596 48775 net.cpp:154] Setting up Layer of device :0 @cpu 0 Layer : inception_3b/pool
I0327 08:44:03.755605 48775 layer_factory.hpp:114] Creating layer inception_3b/pool
I0327 08:44:03.755648 48775 net.cpp:169] Creating Layer inception_3b/pool
I0327 08:44:03.755661 48775 net.cpp:606] inception_3b/pool <- inception_3a/output_inception_3a/output_0_split_3
I0327 08:44:03.755673 48775 net.cpp:579] inception_3b/pool -> inception_3b/pool
I0327 08:44:03.755682 48775 net.cpp:582] From AppendTop @cpu: 0
I0327 08:44:03.755702 48775 net.cpp:219] Setting up inception_3b/pool
I0327 08:44:03.755714 48775 net.cpp:226] Top shape: 48 256 28 28 (9633792)
I0327 08:44:03.755723 48775 net.cpp:234] Memory required for data: 1526956800
I0327 08:44:03.755733 48775 net.cpp:154] Setting up Layer of device :0 @cpu 0 Layer : inception_3b/pool_proj
I0327 08:44:03.755743 48775 layer_factory.hpp:114] Creating layer inception_3b/pool_proj
I0327 08:44:03.755766 48775 net.cpp:169] Creating Layer inception_3b/pool_proj
I0327 08:44:03.755776 48775 net.cpp:606] inception_3b/pool_proj <- inception_3b/pool
I0327 08:44:03.755790 48775 net.cpp:579] inception_3b/pool_proj -> inception_3b/pool_proj
I0327 08:44:03.755800 48775 net.cpp:582] From AppendTop @cpu: 0
I0327 08:44:03.759554 48775 net.cpp:219] Setting up inception_3b/pool_proj
I0327 08:44:03.759610 48775 net.cpp:226] Top shape: 48 64 28 28 (2408448)
I0327 08:44:03.759619 48775 net.cpp:234] Memory required for data: 1536590592
I0327 08:44:03.759644 48775 net.cpp:154] Setting up Layer of device :0 @cpu 0 Layer : inception_3b/relu_pool_proj
I0327 08:44:03.759654 48775 layer_factory.hpp:114] Creating layer inception_3b/relu_pool_proj
I0327 08:44:03.759670 48775 net.cpp:169] Creating Layer inception_3b/relu_pool_proj
I0327 08:44:03.759682 48775 net.cpp:606] inception_3b/relu_pool_proj <- inception_3b/pool_proj
I0327 08:44:03.759702 48775 net.cpp:566] inception_3b/relu_pool_proj -> inception_3b/pool_proj (in-place)
I0327 08:44:03.759721 48775 net.cpp:219] Setting up inception_3b/relu_pool_proj
I0327 08:44:03.759747 48775 net.cpp:226] Top shape: 48 64 28 28 (2408448)
I0327 08:44:03.759755 48775 net.cpp:234] Memory required for data: 1546224384
I0327 08:44:03.759765 48775 net.cpp:154] Setting up Layer of device :0 @cpu 0 Layer : inception_3b/output
I0327 08:44:03.759774 48775 layer_factory.hpp:114] Creating layer inception_3b/output
I0327 08:44:03.759788 48775 net.cpp:169] Creating Layer inception_3b/output
I0327 08:44:03.759796 48775 net.cpp:606] inception_3b/output <- inception_3b/1x1
I0327 08:44:03.759807 48775 net.cpp:606] inception_3b/output <- inception_3b/3x3
I0327 08:44:03.759817 48775 net.cpp:606] inception_3b/output <- inception_3b/5x5
I0327 08:44:03.759829 48775 net.cpp:606] inception_3b/output <- inception_3b/pool_proj
I0327 08:44:03.759843 48775 net.cpp:579] inception_3b/output -> inception_3b/output
I0327 08:44:03.759852 48775 net.cpp:582] From AppendTop @cpu: 0
I0327 08:44:03.759871 48775 net.cpp:219] Setting up inception_3b/output
I0327 08:44:03.759881 48775 net.cpp:226] Top shape: 48 480 28 28 (18063360)
I0327 08:44:03.759891 48775 net.cpp:234] Memory required for data: 1618477824
I0327 08:44:03.759899 48775 net.cpp:154] Setting up Layer of device :0 @cpu 0 Layer : pool3/3x3_s2
I0327 08:44:03.759908 48775 layer_factory.hpp:114] Creating layer pool3/3x3_s2
I0327 08:44:03.759953 48775 net.cpp:169] Creating Layer pool3/3x3_s2
I0327 08:44:03.759964 48775 net.cpp:606] pool3/3x3_s2 <- inception_3b/output
I0327 08:44:03.759980 48775 net.cpp:579] pool3/3x3_s2 -> pool3/3x3_s2
I0327 08:44:03.759989 48775 net.cpp:582] From AppendTop @cpu: 0
I0327 08:44:03.760030 48775 net.cpp:219] Setting up pool3/3x3_s2
I0327 08:44:03.760045 48775 net.cpp:226] Top shape: 48 480 14 14 (4515840)
I0327 08:44:03.760053 48775 net.cpp:234] Memory required for data: 1636541184
I0327 08:44:03.760069 48775 net.cpp:154] Setting up Layer of device :0 @cpu 0 Layer : pool3/3x3_s2_pool3/3x3_s2_0_split
I0327 08:44:03.760078 48775 layer_factory.hpp:114] Creating layer pool3/3x3_s2_pool3/3x3_s2_0_split
I0327 08:44:03.760092 48775 net.cpp:169] Creating Layer pool3/3x3_s2_pool3/3x3_s2_0_split
I0327 08:44:03.760099 48775 net.cpp:606] pool3/3x3_s2_pool3/3x3_s2_0_split <- pool3/3x3_s2
I0327 08:44:03.760115 48775 net.cpp:579] pool3/3x3_s2_pool3/3x3_s2_0_split -> pool3/3x3_s2_pool3/3x3_s2_0_split_0
I0327 08:44:03.760124 48775 net.cpp:582] From AppendTop @cpu: 0
I0327 08:44:03.760138 48775 net.cpp:579] pool3/3x3_s2_pool3/3x3_s2_0_split -> pool3/3x3_s2_pool3/3x3_s2_0_split_1
I0327 08:44:03.760146 48775 net.cpp:582] From AppendTop @cpu: 0
I0327 08:44:03.760159 48775 net.cpp:579] pool3/3x3_s2_pool3/3x3_s2_0_split -> pool3/3x3_s2_pool3/3x3_s2_0_split_2
I0327 08:44:03.760167 48775 net.cpp:582] From AppendTop @cpu: 0
I0327 08:44:03.760180 48775 net.cpp:579] pool3/3x3_s2_pool3/3x3_s2_0_split -> pool3/3x3_s2_pool3/3x3_s2_0_split_3
I0327 08:44:03.760188 48775 net.cpp:582] From AppendTop @cpu: 0
I0327 08:44:03.760203 48775 net.cpp:219] Setting up pool3/3x3_s2_pool3/3x3_s2_0_split
I0327 08:44:03.760215 48775 net.cpp:226] Top shape: 48 480 14 14 (4515840)
I0327 08:44:03.760226 48775 net.cpp:226] Top shape: 48 480 14 14 (4515840)
I0327 08:44:03.760236 48775 net.cpp:226] Top shape: 48 480 14 14 (4515840)
I0327 08:44:03.760247 48775 net.cpp:226] Top shape: 48 480 14 14 (4515840)
I0327 08:44:03.760255 48775 net.cpp:234] Memory required for data: 1708794624
I0327 08:44:03.760265 48775 net.cpp:154] Setting up Layer of device :0 @cpu 0 Layer : inception_4a/1x1
I0327 08:44:03.760274 48775 layer_factory.hpp:114] Creating layer inception_4a/1x1
I0327 08:44:03.760298 48775 net.cpp:169] Creating Layer inception_4a/1x1
I0327 08:44:03.760308 48775 net.cpp:606] inception_4a/1x1 <- pool3/3x3_s2_pool3/3x3_s2_0_split_0
I0327 08:44:03.760320 48775 net.cpp:579] inception_4a/1x1 -> inception_4a/1x1
I0327 08:44:03.760329 48775 net.cpp:582] From AppendTop @cpu: 0
I0327 08:44:03.765532 48775 net.cpp:219] Setting up inception_4a/1x1
I0327 08:44:03.765583 48775 net.cpp:226] Top shape: 48 192 14 14 (1806336)
I0327 08:44:03.765591 48775 net.cpp:234] Memory required for data: 1716019968
I0327 08:44:03.765626 48775 net.cpp:154] Setting up Layer of device :0 @cpu 0 Layer : inception_4a/relu_1x1
I0327 08:44:03.765636 48775 layer_factory.hpp:114] Creating layer inception_4a/relu_1x1
I0327 08:44:03.765655 48775 net.cpp:169] Creating Layer inception_4a/relu_1x1
I0327 08:44:03.765667 48775 net.cpp:606] inception_4a/relu_1x1 <- inception_4a/1x1
I0327 08:44:03.765681 48775 net.cpp:566] inception_4a/relu_1x1 -> inception_4a/1x1 (in-place)
I0327 08:44:03.765697 48775 net.cpp:219] Setting up inception_4a/relu_1x1
I0327 08:44:03.765708 48775 net.cpp:226] Top shape: 48 192 14 14 (1806336)
I0327 08:44:03.765717 48775 net.cpp:234] Memory required for data: 1723245312
I0327 08:44:03.765727 48775 net.cpp:154] Setting up Layer of device :0 @cpu 0 Layer : inception_4a/3x3_reduce
I0327 08:44:03.765736 48775 layer_factory.hpp:114] Creating layer inception_4a/3x3_reduce
I0327 08:44:03.765756 48775 net.cpp:169] Creating Layer inception_4a/3x3_reduce
I0327 08:44:03.765768 48775 net.cpp:606] inception_4a/3x3_reduce <- pool3/3x3_s2_pool3/3x3_s2_0_split_1
I0327 08:44:03.765780 48775 net.cpp:579] inception_4a/3x3_reduce -> inception_4a/3x3_reduce
I0327 08:44:03.765789 48775 net.cpp:582] From AppendTop @cpu: 0
I0327 08:44:03.769233 48775 net.cpp:219] Setting up inception_4a/3x3_reduce
I0327 08:44:03.769273 48775 net.cpp:226] Top shape: 48 96 14 14 (903168)
I0327 08:44:03.769282 48775 net.cpp:234] Memory required for data: 1726857984
I0327 08:44:03.769315 48775 net.cpp:154] Setting up Layer of device :0 @cpu 0 Layer : inception_4a/relu_3x3_reduce
I0327 08:44:03.769345 48775 layer_factory.hpp:114] Creating layer inception_4a/relu_3x3_reduce
I0327 08:44:03.769364 48775 net.cpp:169] Creating Layer inception_4a/relu_3x3_reduce
I0327 08:44:03.769376 48775 net.cpp:606] inception_4a/relu_3x3_reduce <- inception_4a/3x3_reduce
I0327 08:44:03.769388 48775 net.cpp:566] inception_4a/relu_3x3_reduce -> inception_4a/3x3_reduce (in-place)
I0327 08:44:03.769404 48775 net.cpp:219] Setting up inception_4a/relu_3x3_reduce
I0327 08:44:03.769415 48775 net.cpp:226] Top shape: 48 96 14 14 (903168)
I0327 08:44:03.769423 48775 net.cpp:234] Memory required for data: 1730470656
I0327 08:44:03.769433 48775 net.cpp:154] Setting up Layer of device :0 @cpu 0 Layer : inception_4a/3x3
I0327 08:44:03.769443 48775 layer_factory.hpp:114] Creating layer inception_4a/3x3
I0327 08:44:03.769462 48775 net.cpp:169] Creating Layer inception_4a/3x3
I0327 08:44:03.769471 48775 net.cpp:606] inception_4a/3x3 <- inception_4a/3x3_reduce
I0327 08:44:03.769487 48775 net.cpp:579] inception_4a/3x3 -> inception_4a/3x3
I0327 08:44:03.769496 48775 net.cpp:582] From AppendTop @cpu: 0
I0327 08:44:03.777873 48775 net.cpp:219] Setting up inception_4a/3x3
I0327 08:44:03.777947 48775 net.cpp:226] Top shape: 48 208 14 14 (1956864)
I0327 08:44:03.777957 48775 net.cpp:234] Memory required for data: 1738298112
I0327 08:44:03.777984 48775 net.cpp:154] Setting up Layer of device :0 @cpu 0 Layer : inception_4a/relu_3x3
I0327 08:44:03.777994 48775 layer_factory.hpp:114] Creating layer inception_4a/relu_3x3
I0327 08:44:03.778022 48775 net.cpp:169] Creating Layer inception_4a/relu_3x3
I0327 08:44:03.778035 48775 net.cpp:606] inception_4a/relu_3x3 <- inception_4a/3x3
I0327 08:44:03.778050 48775 net.cpp:566] inception_4a/relu_3x3 -> inception_4a/3x3 (in-place)
I0327 08:44:03.778074 48775 net.cpp:219] Setting up inception_4a/relu_3x3
I0327 08:44:03.778086 48775 net.cpp:226] Top shape: 48 208 14 14 (1956864)
I0327 08:44:03.778095 48775 net.cpp:234] Memory required for data: 1746125568
I0327 08:44:03.778105 48775 net.cpp:154] Setting up Layer of device :0 @cpu 0 Layer : inception_4a/5x5_reduce
I0327 08:44:03.778113 48775 layer_factory.hpp:114] Creating layer inception_4a/5x5_reduce
I0327 08:44:03.778136 48775 net.cpp:169] Creating Layer inception_4a/5x5_reduce
I0327 08:44:03.778147 48775 net.cpp:606] inception_4a/5x5_reduce <- pool3/3x3_s2_pool3/3x3_s2_0_split_2
I0327 08:44:03.778164 48775 net.cpp:579] inception_4a/5x5_reduce -> inception_4a/5x5_reduce
I0327 08:44:03.778190 48775 net.cpp:582] From AppendTop @cpu: 0
I0327 08:44:03.780282 48775 net.cpp:219] Setting up inception_4a/5x5_reduce
I0327 08:44:03.780316 48775 net.cpp:226] Top shape: 48 16 14 14 (150528)
I0327 08:44:03.780325 48775 net.cpp:234] Memory required for data: 1746727680
I0327 08:44:03.780345 48775 net.cpp:154] Setting up Layer of device :0 @cpu 0 Layer : inception_4a/relu_5x5_reduce
I0327 08:44:03.780355 48775 layer_factory.hpp:114] Creating layer inception_4a/relu_5x5_reduce
I0327 08:44:03.780369 48775 net.cpp:169] Creating Layer inception_4a/relu_5x5_reduce
I0327 08:44:03.780380 48775 net.cpp:606] inception_4a/relu_5x5_reduce <- inception_4a/5x5_reduce
I0327 08:44:03.780400 48775 net.cpp:566] inception_4a/relu_5x5_reduce -> inception_4a/5x5_reduce (in-place)
I0327 08:44:03.780416 48775 net.cpp:219] Setting up inception_4a/relu_5x5_reduce
I0327 08:44:03.780427 48775 net.cpp:226] Top shape: 48 16 14 14 (150528)
I0327 08:44:03.780436 48775 net.cpp:234] Memory required for data: 1747329792
I0327 08:44:03.780445 48775 net.cpp:154] Setting up Layer of device :0 @cpu 0 Layer : inception_4a/5x5
I0327 08:44:03.780454 48775 layer_factory.hpp:114] Creating layer inception_4a/5x5
I0327 08:44:03.780473 48775 net.cpp:169] Creating Layer inception_4a/5x5
I0327 08:44:03.780483 48775 net.cpp:606] inception_4a/5x5 <- inception_4a/5x5_reduce
I0327 08:44:03.780496 48775 net.cpp:579] inception_4a/5x5 -> inception_4a/5x5
I0327 08:44:03.780508 48775 net.cpp:582] From AppendTop @cpu: 0
I0327 08:44:03.782671 48775 net.cpp:219] Setting up inception_4a/5x5
I0327 08:44:03.782727 48775 net.cpp:226] Top shape: 48 48 14 14 (451584)
I0327 08:44:03.782737 48775 net.cpp:234] Memory required for data: 1749136128
I0327 08:44:03.782757 48775 net.cpp:154] Setting up Layer of device :0 @cpu 0 Layer : inception_4a/relu_5x5
I0327 08:44:03.782765 48775 layer_factory.hpp:114] Creating layer inception_4a/relu_5x5
I0327 08:44:03.782783 48775 net.cpp:169] Creating Layer inception_4a/relu_5x5
I0327 08:44:03.782793 48775 net.cpp:606] inception_4a/relu_5x5 <- inception_4a/5x5
I0327 08:44:03.782806 48775 net.cpp:566] inception_4a/relu_5x5 -> inception_4a/5x5 (in-place)
I0327 08:44:03.782824 48775 net.cpp:219] Setting up inception_4a/relu_5x5
I0327 08:44:03.782836 48775 net.cpp:226] Top shape: 48 48 14 14 (451584)
I0327 08:44:03.782845 48775 net.cpp:234] Memory required for data: 1750942464
I0327 08:44:03.782855 48775 net.cpp:154] Setting up Layer of device :0 @cpu 0 Layer : inception_4a/pool
I0327 08:44:03.782863 48775 layer_factory.hpp:114] Creating layer inception_4a/pool
I0327 08:44:03.782904 48775 net.cpp:169] Creating Layer inception_4a/pool
I0327 08:44:03.782917 48775 net.cpp:606] inception_4a/pool <- pool3/3x3_s2_pool3/3x3_s2_0_split_3
I0327 08:44:03.782929 48775 net.cpp:579] inception_4a/pool -> inception_4a/pool
I0327 08:44:03.782938 48775 net.cpp:582] From AppendTop @cpu: 0
I0327 08:44:03.782956 48775 net.cpp:219] Setting up inception_4a/pool
I0327 08:44:03.782968 48775 net.cpp:226] Top shape: 48 480 14 14 (4515840)
I0327 08:44:03.782976 48775 net.cpp:234] Memory required for data: 1769005824
I0327 08:44:03.782986 48775 net.cpp:154] Setting up Layer of device :0 @cpu 0 Layer : inception_4a/pool_proj
I0327 08:44:03.782994 48775 layer_factory.hpp:114] Creating layer inception_4a/pool_proj
I0327 08:44:03.783022 48775 net.cpp:169] Creating Layer inception_4a/pool_proj
I0327 08:44:03.783035 48775 net.cpp:606] inception_4a/pool_proj <- inception_4a/pool
I0327 08:44:03.783047 48775 net.cpp:579] inception_4a/pool_proj -> inception_4a/pool_proj
I0327 08:44:03.783056 48775 net.cpp:582] From AppendTop @cpu: 0
I0327 08:44:03.786073 48775 net.cpp:219] Setting up inception_4a/pool_proj
I0327 08:44:03.786113 48775 net.cpp:226] Top shape: 48 64 14 14 (602112)
I0327 08:44:03.786121 48775 net.cpp:234] Memory required for data: 1771414272
I0327 08:44:03.786142 48775 net.cpp:154] Setting up Layer of device :0 @cpu 0 Layer : inception_4a/relu_pool_proj
I0327 08:44:03.786151 48775 layer_factory.hpp:114] Creating layer inception_4a/relu_pool_proj
I0327 08:44:03.786178 48775 net.cpp:169] Creating Layer inception_4a/relu_pool_proj
I0327 08:44:03.786190 48775 net.cpp:606] inception_4a/relu_pool_proj <- inception_4a/pool_proj
I0327 08:44:03.786206 48775 net.cpp:566] inception_4a/relu_pool_proj -> inception_4a/pool_proj (in-place)
I0327 08:44:03.786221 48775 net.cpp:219] Setting up inception_4a/relu_pool_proj
I0327 08:44:03.786233 48775 net.cpp:226] Top shape: 48 64 14 14 (602112)
I0327 08:44:03.786242 48775 net.cpp:234] Memory required for data: 1773822720
I0327 08:44:03.786252 48775 net.cpp:154] Setting up Layer of device :0 @cpu 0 Layer : inception_4a/output
I0327 08:44:03.786260 48775 layer_factory.hpp:114] Creating layer inception_4a/output
I0327 08:44:03.786273 48775 net.cpp:169] Creating Layer inception_4a/output
I0327 08:44:03.786283 48775 net.cpp:606] inception_4a/output <- inception_4a/1x1
I0327 08:44:03.786293 48775 net.cpp:606] inception_4a/output <- inception_4a/3x3
I0327 08:44:03.786303 48775 net.cpp:606] inception_4a/output <- inception_4a/5x5
I0327 08:44:03.786314 48775 net.cpp:606] inception_4a/output <- inception_4a/pool_proj
I0327 08:44:03.786325 48775 net.cpp:579] inception_4a/output -> inception_4a/output
I0327 08:44:03.786334 48775 net.cpp:582] From AppendTop @cpu: 0
I0327 08:44:03.786351 48775 net.cpp:219] Setting up inception_4a/output
I0327 08:44:03.786362 48775 net.cpp:226] Top shape: 48 512 14 14 (4816896)
I0327 08:44:03.786371 48775 net.cpp:234] Memory required for data: 1793090304
I0327 08:44:03.786381 48775 net.cpp:154] Setting up Layer of device :0 @cpu 0 Layer : inception_4a/output_inception_4a/output_0_split
I0327 08:44:03.786402 48775 layer_factory.hpp:114] Creating layer inception_4a/output_inception_4a/output_0_split
I0327 08:44:03.786420 48775 net.cpp:169] Creating Layer inception_4a/output_inception_4a/output_0_split
…
I0327 08:44:03.786499 48775 net.cpp:582] From AppendTop @cpu: 0
I0327 08:44:03.786512 48775 net.cpp:579] inception_4a/output_inception_4a/output_0_split -> inception_4a/output_inception_4a/output_0_split_3
I0327 08:44:03.786521 48775 net.cpp:582] From AppendTop @cpu: 0
I0327 08:44:03.786535 48775 net.cpp:579] inception_4a/output_inception_4a/output_0_split -> inception_4a/output_inception_4a/output_0_split_4
I0327 08:44:03.786542 48775 net.cpp:582] From AppendTop @cpu: 0
I0327 08:44:03.786559 48775 net.cpp:219] Setting up inception_4a/output_inception_4a/output_0_split
I0327 08:44:03.786571 48775 net.cpp:226] Top shape: 48 512 14 14 (4816896)
I0327 08:44:03.786582 48775 net.cpp:226] Top shape: 48 512 14 14 (4816896)
I0327 08:44:03.786592 48775 net.cpp:226] Top shape: 48 512 14 14 (4816896)
I0327 08:44:03.786603 48775 net.cpp:226] Top shape: 48 512 14 14 (4816896)
I0327 08:44:03.786614 48775 net.cpp:226] Top shape: 48 512 14 14 (4816896)
I0327 08:44:03.786623 48775 net.cpp:234] Memory required for data: 1889428224
I0327 08:44:03.786633 48775 net.cpp:154] Setting up Layer of device :0 @cpu 0 Layer : loss1/ave_pool
I0327 08:44:03.786640 48775 layer_factory.hpp:114] Creating layer loss1/ave_pool
I0327 08:44:03.786680 48775 net.cpp:169] Creating Layer loss1/ave_pool
I0327 08:44:03.786691 48775 net.cpp:606] loss1/ave_pool <- inception_4a/output_inception_4a/output_0_split_0
I0327 08:44:03.786706 48775 net.cpp:579] loss1/ave_pool -> loss1/ave_pool
I0327 08:44:03.786715 48775 net.cpp:582] From AppendTop @cpu: 0
I0327 08:44:03.786730 48775 net.cpp:219] Setting up loss1/ave_pool
I0327 08:44:03.786749 48775 net.cpp:226] Top shape: 48 512 4 4 (393216)
I0327 08:44:03.786758 48775 net.cpp:234] Memory required for data: 1891001088
I0327 08:44:03.786768 48775 net.cpp:154] Setting up Layer of device :0 @cpu 0 Layer : loss1/conv
I0327 08:44:03.786777 48775 layer_factory.hpp:114] Creating layer loss1/conv
I0327 08:44:03.786797 48775 net.cpp:169] Creating Layer loss1/conv
I0327 08:44:03.786806 48775 net.cpp:606] loss1/conv <- loss1/ave_pool
I0327 08:44:03.786819 48775 net.cpp:579] loss1/conv -> loss1/conv
I0327 08:44:03.786830 48775 net.cpp:582] From AppendTop @cpu: 0
I0327 08:44:03.789381 48775 net.cpp:219] Setting up loss1/conv
I0327 08:44:03.789413 48775 net.cpp:226] Top shape: 48 128 4 4 (98304)
I0327 08:44:03.789422 48775 net.cpp:234] Memory required for data: 1891394304
I0327 08:44:03.789443 48775 net.cpp:154] Setting up Layer of device :0 @cpu 0 Layer : loss1/relu_conv
I0327 08:44:03.789451 48775 layer_factory.hpp:114] Creating layer loss1/relu_conv
I0327 08:44:03.789465 48775 net.cpp:169] Creating Layer loss1/relu_conv
I0327 08:44:03.789475 48775 net.cpp:606] loss1/relu_conv <- loss1/conv
I0327 08:44:03.789487 48775 net.cpp:566] loss1/relu_conv -> loss1/conv (in-place)
I0327 08:44:03.789502 48775 net.cpp:219] Setting up loss1/relu_conv
I0327 08:44:03.789513 48775 net.cpp:226] Top shape: 48 128 4 4 (98304)
I0327 08:44:03.789522 48775 net.cpp:234] Memory required for data: 1891787520
I0327 08:44:03.789531 48775 net.cpp:154] Setting up Layer of device :0 @cpu 0 Layer : loss1/fc
I0327 08:44:03.789541 48775 layer_factory.hpp:114] Creating layer loss1/fc
I0327 08:44:03.789587 48775 net.cpp:169] Creating Layer loss1/fc
I0327 08:44:03.789597 48775 net.cpp:606] loss1/fc <- loss1/conv
I0327 08:44:03.789613 48775 net.cpp:579] loss1/fc -> loss1/fc
I0327 08:44:03.789621 48775 net.cpp:582] From AppendTop @cpu: 0
I0327 08:44:03.824496 48775 net.cpp:219] Setting up loss1/fc
I0327 08:44:03.824573 48775 net.cpp:226] Top shape: 48 1024 (49152)
I0327 08:44:03.824581 48775 net.cpp:234] Memory required for data: 1891984128
I0327 08:44:03.824604 48775 net.cpp:154] Setting up Layer of device :0 @cpu 0 Layer : loss1/relu_fc
I0327 08:44:03.824615 48775 layer_factory.hpp:114] Creating layer loss1/relu_fc
I0327 08:44:03.824636 48775 net.cpp:169] Creating Layer loss1/relu_fc
I0327 08:44:03.824650 48775 net.cpp:606] loss1/relu_fc <- loss1/fc
I0327 08:44:03.824664 48775 net.cpp:566] loss1/relu_fc -> loss1/fc (in-place)
I0327 08:44:03.824681 48775 net.cpp:219] Setting up loss1/relu_fc
I0327 08:44:03.824692 48775 net.cpp:226] Top shape: 48 1024 (49152)
I0327 08:44:03.824700 48775 net.cpp:234] Memory required for data: 1892180736
I0327 08:44:03.824710 48775 net.cpp:154] Setting up Layer of device :0 @cpu 0 Layer : loss1/drop_fc
I0327 08:44:03.824719 48775 layer_factory.hpp:114] Creating layer loss1/drop_fc
I0327 08:44:03.825287 48775 net.cpp:169] Creating Layer loss1/drop_fc
I0327 08:44:03.825300 48775 net.cpp:606] loss1/drop_fc <- loss1/fc
I0327 08:44:03.825315 48775 net.cpp:566] loss1/drop_fc -> loss1/fc (in-place)
I0327 08:44:03.825335 48775 net.cpp:219] Setting up loss1/drop_fc
I0327 08:44:03.825346 48775 net.cpp:226] Top shape: 48 1024 (49152)
I0327 08:44:03.825354 48775 net.cpp:234] Memory required for data: 1892377344
I0327 08:44:03.825366 48775 net.cpp:154] Setting up Layer of device :0 @cpu 0 Layer : loss1/classifier
I0327 08:44:03.825374 48775 layer_factory.hpp:114] Creating layer loss1/classifier
I0327 08:44:03.825394 48775 net.cpp:169] Creating Layer loss1/classifier
I0327 08:44:03.825404 48775 net.cpp:606] loss1/classifier <- loss1/fc
I0327 08:44:03.825417 48775 net.cpp:579] loss1/classifier -> loss1/classifier
I0327 08:44:03.825426 48775 net.cpp:582] From AppendTop @cpu: 0
I0327 08:44:03.842818 48775 net.cpp:219] Setting up loss1/classifier
I0327 08:44:03.842870 48775 net.cpp:226] Top shape: 48 1000 (48000)
I0327 08:44:03.842880 48775 net.cpp:234] Memory required for data: 1892569344
I0327 08:44:03.842898 48775 net.cpp:154] Setting up Layer of device :0 @cpu 0 Layer : loss1/loss
I0327 08:44:03.842908 48775 layer_factory.hpp:114] Creating layer loss1/loss
I0327 08:44:03.842945 48775 net.cpp:169] Creating Layer loss1/loss
I0327 08:44:03.842957 48775 net.cpp:606] loss1/loss <- loss1/classifier
…
I0327 08:44:03.843372 48775 net.cpp:154] Setting up Layer of device :0 @cpu 0 Layer : inception_4b/1x1
I0327 08:44:03.843381 48775 layer_factory.hpp:114] Creating layer inception_4b/1x1
I0327 08:44:03.843405 48775 net.cpp:169] Creating Layer inception_4b/1x1
I0327 08:44:03.843415 48775 net.cpp:606] inception_4b/1x1 <- inception_4a/output_inception_4a/output_0_split_1
I0327 08:44:03.843432 48775 net.cpp:579] inception_4b/1x1 -> inception_4b/1x1
I0327 08:44:03.843442 48775 net.cpp:582] From AppendTop @cpu: 0
I0327 08:44:03.848282 48775 net.cpp:219] Setting up inception_4b/1x1
I0327 08:44:03.848337 48775 net.cpp:226] Top shape: 48 160 14 14 (1505280)
I0327 08:44:03.848346 48775 net.cpp:234] Memory required for data: 1898590468
I0327 08:44:03.848368 48775 net.cpp:154] Setting up Layer of device :0 @cpu 0 Layer : inception_4b/relu_1x1
I0327 08:44:03.848378 48775 layer_factory.hpp:114] Creating layer inception_4b/relu_1x1
I0327 08:44:03.848418 48775 net.cpp:169] Creating Layer inception_4b/relu_1x1
I0327 08:44:03.848430 48775 net.cpp:606] inception_4b/relu_1x1 <- inception_4b/1x1
I0327 08:44:03.848443 48775 net.cpp:566] inception_4b/relu_1x1 -> inception_4b/1x1 (in-place)
I0327 08:44:03.848460 48775 net.cpp:219] Setting up inception_4b/relu_1x1
I0327 08:44:03.848472 48775 net.cpp:226] Top shape: 48 160 14 14 (1505280)
I0327 08:44:03.848480 48775 net.cpp:234] Memory required for data: 1904611588
I0327 08:44:03.848491 48775 net.cpp:154] Setting up Layer of device :0 @cpu 0 Layer : inception_4b/3x3_reduce
I0327 08:44:03.848500 48775 layer_factory.hpp:114] Creating layer inception_4b/3x3_reduce
I0327 08:44:03.848520 48775 net.cpp:169] Creating Layer inception_4b/3x3_reduce
I0327 08:44:03.848531 48775 net.cpp:606] inception_4b/3x3_reduce <- inception_4a/output_inception_4a/output_0_split_2
I0327 08:44:03.848548 48775 net.cpp:579] inception_4b/3x3_reduce -> inception_4b/3x3_reduce
I0327 08:44:03.848557 48775 net.cpp:582] From AppendTop @cpu: 0
I0327 08:44:03.852699 48775 net.cpp:219] Setting up inception_4b/3x3_reduce
I0327 08:44:03.852743 48775 net.cpp:226] Top shape: 48 112 14 14 (1053696)
I0327 08:44:03.852752 48775 net.cpp:234] Memory required for data: 1908826372
I0327 08:44:03.852776 48775 net.cpp:154] Setting up Layer of device :0 @cpu 0 Layer : inception_4b/relu_3x3_reduce
I0327 08:44:03.852785 48775 layer_factory.hpp:114] Creating layer inception_4b/relu_3x3_reduce
I0327 08:44:03.852804 48775 net.cpp:169] Creating Layer inception_4b/relu_3x3_reduce
I0327 08:44:03.852816 48775 net.cpp:606] inception_4b/relu_3x3_reduce <- inception_4b/3x3_reduce
I0327 08:44:03.852830 48775 net.cpp:566] inception_4b/relu_3x3_reduce -> inception_4b/3x3_reduce (in-place)
I0327 08:44:03.852845 48775 net.cpp:219] Setting up inception_4b/relu_3x3_reduce
I0327 08:44:03.852857 48775 net.cpp:226] Top shape: 48 112 14 14 (1053696)
I0327 08:44:03.852865 48775 net.cpp:234] Memory required for data: 1913041156
I0327 08:44:03.852875 48775 net.cpp:154] Setting up Layer of device :0 @cpu 0 Layer : inception_4b/3x3
I0327 08:44:03.852885 48775 layer_factory.hpp:114] Creating layer inception_4b/3x3
I0327 08:44:03.852905 48775 net.cpp:169] Creating Layer inception_4b/3x3
I0327 08:44:03.852915 48775 net.cpp:606] inception_4b/3x3 <- inception_4b/3x3_reduce
I0327 08:44:03.852931 48775 net.cpp:579] inception_4b/3x3 -> inception_4b/3x3
I0327 08:44:03.852939 48775 net.cpp:582] From AppendTop @cpu: 0
I0327 08:44:03.862700 48775 net.cpp:219] Setting up inception_4b/3x3
I0327 08:44:03.862783 48775 net.cpp:226] Top shape: 48 224 14 14 (2107392)
I0327 08:44:03.862792 48775 net.cpp:234] Memory required for data: 1921470724
I0327 08:44:03.862821 48775 net.cpp:154] Setting up Layer of device :0 @cpu 0 Layer : inception_4b/relu_3x3
I0327 08:44:03.862831 48775 layer_factory.hpp:114] Creating layer inception_4b/relu_3x3
I0327 08:44:03.862850 48775 net.cpp:169] Creating Layer inception_4b/relu_3x3
I0327 08:44:03.862864 48775 net.cpp:606] inception_4b/relu_3x3 <- inception_4b/3x3
I0327 08:44:03.862879 48775 net.cpp:566] inception_4b/relu_3x3 -> inception_4b/3x3 (in-place)
I0327 08:44:03.862897 48775 net.cpp:219] Setting up inception_4b/relu_3x3
I0327 08:44:03.862908 48775 net.cpp:226] Top shape: 48 224 14 14 (2107392)
I0327 08:44:03.862916 48775 net.cpp:234] Memory required for data: 1929900292
I0327 08:44:03.862926 48775 net.cpp:154] Setting up Layer of device :0 @cpu 0 Layer : inception_4b/5x5_reduce
I0327 08:44:03.862936 48775 layer_factory.hpp:114] Creating layer inception_4b/5x5_reduce
I0327 08:44:03.862959 48775 net.cpp:169] Creating Layer inception_4b/5x5_reduce
I0327 08:44:03.862970 48775 net.cpp:606] inception_4b/5x5_reduce <- inception_4a/output_inception_4a/output_0_split_3
I0327 08:44:03.862985 48775 net.cpp:579] inception_4b/5x5_reduce -> inception_4b/5x5_reduce
I0327 08:44:03.862994 48775 net.cpp:582] From AppendTop @cpu: 0
I0327 08:44:03.865463 48775 net.cpp:219] Setting up inception_4b/5x5_reduce
I0327 08:44:03.865499 48775 net.cpp:226] Top shape: 48 24 14 14 (225792)
I0327 08:44:03.865536 48775 net.cpp:234] Memory required for data: 1930803460
I0327 08:44:03.865557 48775 net.cpp:154] Setting up Layer of device :0 @cpu 0 Layer : inception_4b/relu_5x5_reduce
I0327 08:44:03.865568 48775 layer_factory.hpp:114] Creating layer inception_4b/relu_5x5_reduce
I0327 08:44:03.865586 48775 net.cpp:169] Creating Layer inception_4b/relu_5x5_reduce
I0327 08:44:03.865597 48775 net.cpp:606] inception_4b/relu_5x5_reduce <- inception_4b/5x5_reduce
I0327 08:44:03.865610 48775 net.cpp:566] inception_4b/relu_5x5_reduce -> inception_4b/5x5_reduce (in-place)
I0327 08:44:03.865630 48775 net.cpp:219] Setting up inception_4b/relu_5x5_reduce
I0327 08:44:03.865643 48775 net.cpp:226] Top shape: 48 24 14 14 (225792)
I0327 08:44:03.865650 48775 net.cpp:234] Memory required for data: 1931706628
I0327 08:44:03.865660 48775 net.cpp:154] Setting up Layer of device :0 @cpu 0 Layer : inception_4b/5x5
I0327 08:44:03.865670 48775 layer_factory.hpp:114] Creating layer inception_4b/5x5
I0327 08:44:03.865685 48775 net.cpp:169] Creating Layer inception_4b/5x5
I0327 08:44:03.865695 48775 net.cpp:606] inception_4b/5x5 <- inception_4b/5x5_reduce
I0327 08:44:03.865711 48775 net.cpp:579] inception_4b/5x5 -> inception_4b/5x5
I0327 08:44:03.865720 48775 net.cpp:582] From AppendTop @cpu: 0
I0327 08:44:03.868651 48775 net.cpp:219] Setting up inception_4b/5x5
I0327 08:44:03.868697 48775 net.cpp:226] Top shape: 48 64 14 14 (602112)
I0327 08:44:03.868706 48775 net.cpp:234] Memory required for data: 1934115076
I0327 08:44:03.868727 48775 net.cpp:154] Setting up Layer of device :0 @cpu 0 Layer : inception_4b/relu_5x5
I0327 08:44:03.868737 48775 layer_factory.hpp:114] Creating layer inception_4b/relu_5x5
I0327 08:44:03.868755 48775 net.cpp:169] Creating Layer inception_4b/relu_5x5
I0327 08:44:03.868767 48775 net.cpp:606] inception_4b/relu_5x5 <- inception_4b/5x5
I0327 08:44:03.868780 48775 net.cpp:566] inception_4b/relu_5x5 -> inception_4b/5x5 (in-place)
I0327 08:44:03.868796 48775 net.cpp:219] Setting up inception_4b/relu_5x5
I0327 08:44:03.868808 48775 net.cpp:226] Top shape: 48 64 14 14 (602112)
I0327 08:44:03.868816 48775 net.cpp:234] Memory required for data: 1936523524
I0327 08:44:03.868826 48775 net.cpp:154] Setting up Layer of device :0 @cpu 0 Layer : inception_4b/pool
I0327 08:44:03.868834 48775 layer_factory.hpp:114] Creating layer inception_4b/pool
I0327 08:44:03.868881 48775 net.cpp:169] Creating Layer inception_4b/pool
I0327 08:44:03.868909 48775 net.cpp:606] inception_4b/pool <- inception_4a/output_inception_4a/output_0_split_4
I0327 08:44:03.868923 48775 net.cpp:579] inception_4b/pool -> inception_4b/pool
I0327 08:44:03.868932 48775 net.cpp:582] From AppendTop @cpu: 0
I0327 08:44:03.868958 48775 net.cpp:219] Setting up inception_4b/pool
I0327 08:44:03.868975 48775 net.cpp:226] Top shape: 48 512 14 14 (4816896)
I0327 08:44:03.868984 48775 net.cpp:234] Memory required for data: 1955791108
I0327 08:44:03.868994 48775 net.cpp:154] Setting up Layer of device :0 @cpu 0 Layer : inception_4b/pool_proj
I0327 08:44:03.869004 48775 layer_factory.hpp:114] Creating layer inception_4b/pool_proj
I0327 08:44:03.869026 48775 net.cpp:169] Creating Layer inception_4b/pool_proj
I0327 08:44:03.869038 48775 net.cpp:606] inception_4b/pool_proj <- inception_4b/pool
I0327 08:44:03.869055 48775 net.cpp:579] inception_4b/pool_proj -> inception_4b/pool_proj
I0327 08:44:03.869065 48775 net.cpp:582] From AppendTop @cpu: 0
I0327 08:44:03.872278 48775 net.cpp:219] Setting up inception_4b/pool_proj
I0327 08:44:03.872318 48775 net.cpp:226] Top shape: 48 64 14 14 (602112)
I0327 08:44:03.872326 48775 net.cpp:234] Memory required for data: 1958199556
I0327 08:44:03.872347 48775 net.cpp:154] Setting up Layer of device :0 @cpu 0 Layer : inception_4b/relu_pool_proj
I0327 08:44:03.872357 48775 layer_factory.hpp:114] Creating layer inception_4b/relu_pool_proj
I0327 08:44:03.872371 48775 net.cpp:169] Creating Layer inception_4b/relu_pool_proj
I0327 08:44:03.872382 48775 net.cpp:606] inception_4b/relu_pool_proj <- inception_4b/pool_proj
I0327 08:44:03.872417 48775 net.cpp:566] inception_4b/relu_pool_proj -> inception_4b/pool_proj (in-place)
I0327 08:44:03.872433 48775 net.cpp:219] Setting up inception_4b/relu_pool_proj
I0327 08:44:03.872444 48775 net.cpp:226] Top shape: 48 64 14 14 (602112)
I0327 08:44:03.872453 48775 net.cpp:234] Memory required for data: 1960608004
I0327 08:44:03.872463 48775 net.cpp:154] Setting up Layer of device :0 @cpu 0 Layer : inception_4b/output
I0327 08:44:03.872473 48775 layer_factory.hpp:114] Creating layer inception_4b/output
I0327 08:44:03.872486 48775 net.cpp:169] Creating Layer inception_4b/output
I0327 08:44:03.872496 48775 net.cpp:606] inception_4b/output <- inception_4b/1x1
I0327 08:44:03.872508 48775 net.cpp:606] inception_4b/output <- inception_4b/3x3
I0327 08:44:03.872517 48775 net.cpp:606] inception_4b/output <- inception_4b/5x5
I0327 08:44:03.872529 48775 net.cpp:606] inception_4b/output <- inception_4b/pool_proj
I0327 08:44:03.872539 48775 net.cpp:579] inception_4b/output -> inception_4b/output
I0327 08:44:03.872548 48775 net.cpp:582] From AppendTop @cpu: 0
I0327 08:44:03.872565 48775 net.cpp:219] Setting up inception_4b/output
I0327 08:44:03.872576 48775 net.cpp:226] Top shape: 48 512 14 14 (4816896)
I0327 08:44:03.872586 48775 net.cpp:234] Memory required for data: 1979875588
I0327 08:44:03.872594 48775 net.cpp:154] Setting up Layer of device :0 @cpu 0 Layer : inception_4b/output_inception_4b/output_0_split
I0327 08:44:03.872603 48775 layer_factory.hpp:114] Creating layer inception_4b/output_inception_4b/output_0_split
I0327 08:44:03.872618 48775 net.cpp:169] Creating Layer inception_4b/output_inception_4b/output_0_split
…
I0327 08:44:03.872670 48775 net.cpp:582] From AppendTop @cpu: 0
I0327 08:44:03.872684 48775 net.cpp:579] inception_4b/output_inception_4b/output_0_split -> inception_4b/output_inception_4b/output_0_split_2
I0327 08:44:03.872694 48775 net.cpp:582] From AppendTop @cpu: 0
I0327 08:44:03.872707 48775 net.cpp:579] inception_4b/output_inception_4b/output_0_split -> inception_4b/output_inception_4b/output_0_split_3
I0327 08:44:03.872725 48775 net.cpp:582] From AppendTop @cpu: 0
I0327 08:44:03.872741 48775 net.cpp:219] Setting up inception_4b/output_inception_4b/output_0_split
I0327 08:44:03.872752 48775 net.cpp:226] Top shape: 48 512 14 14 (4816896)
I0327 08:44:03.872763 48775 net.cpp:226] Top shape: 48 512 14 14 (4816896)
I0327 08:44:03.872774 48775 net.cpp:226] Top shape: 48 512 14 14 (4816896)
I0327 08:44:03.872784 48775 net.cpp:226] Top shape: 48 512 14 14 (4816896)
I0327 08:44:03.872793 48775 net.cpp:234] Memory required for data: 2056945924
I0327 08:44:03.872802 48775 net.cpp:154] Setting up Layer of device :0 @cpu 0 Layer : inception_4c/1x1
I0327 08:44:03.872812 48775 layer_factory.hpp:114] Creating layer inception_4c/1x1
I0327 08:44:03.872830 48775 net.cpp:169] Creating Layer inception_4c/1x1
I0327 08:44:03.872840 48775 net.cpp:606] inception_4c/1x1 <- inception_4b/output_inception_4b/output_0_split_0
I0327 08:44:03.872856 48775 net.cpp:579] inception_4c/1x1 -> inception_4c/1x1
I0327 08:44:03.872865 48775 net.cpp:582] From AppendTop @cpu: 0
I0327 08:44:03.877107 48775 net.cpp:219] Setting up inception_4c/1x1
I0327 08:44:03.877156 48775 net.cpp:226] Top shape: 48 128 14 14 (1204224)
I0327 08:44:03.877164 48775 net.cpp:234] Memory required for data: 2061762820
I0327 08:44:03.877185 48775 net.cpp:154] Setting up Layer of device :0 @cpu 0 Layer : inception_4c/relu_1x1
I0327 08:44:03.877195 48775 layer_factory.hpp:114] Creating layer inception_4c/relu_1x1
I0327 08:44:03.877210 48775 net.cpp:169] Creating Layer inception_4c/relu_1x1
I0327 08:44:03.877241 48775 net.cpp:606] inception_4c/relu_1x1 <- inception_4c/1x1
I0327 08:44:03.877254 48775 net.cpp:566] inception_4c/relu_1x1 -> inception_4c/1x1 (in-place)
I0327 08:44:03.877275 48775 net.cpp:219] Setting up inception_4c/relu_1x1
I0327 08:44:03.877287 48775 net.cpp:226] Top shape: 48 128 14 14 (1204224)
I0327 08:44:03.877295 48775 net.cpp:234] Memory required for data: 2066579716
I0327 08:44:03.877305 48775 net.cpp:154] Setting up Layer of device :0 @cpu 0 Layer : inception_4c/3x3_reduce
I0327 08:44:03.877315 48775 layer_factory.hpp:114] Creating layer inception_4c/3x3_reduce
I0327 08:44:03.877334 48775 net.cpp:169] Creating Layer inception_4c/3x3_reduce
I0327 08:44:03.877346 48775 net.cpp:606] inception_4c/3x3_reduce <- inception_4b/output_inception_4b/output_0_split_1
I0327 08:44:03.877362 48775 net.cpp:579] inception_4c/3x3_reduce -> inception_4c/3x3_reduce
I0327 08:44:03.877372 48775 net.cpp:582] From AppendTop @cpu: 0
I0327 08:44:03.881814 48775 net.cpp:219] Setting up inception_4c/3x3_reduce
I0327 08:44:03.881860 48775 net.cpp:226] Top shape: 48 128 14 14 (1204224)
I0327 08:44:03.881870 48775 net.cpp:234] Memory required for data: 2071396612
I0327 08:44:03.881891 48775 net.cpp:154] Setting up Layer of device :0 @cpu 0 Layer : inception_4c/relu_3x3_reduce
I0327 08:44:03.881901 48775 layer_factory.hpp:114] Creating layer inception_4c/relu_3x3_reduce
I0327 08:44:03.881919 48775 net.cpp:169] Creating Layer inception_4c/relu_3x3_reduce
I0327 08:44:03.881930 48775 net.cpp:606] inception_4c/relu_3x3_reduce <- inception_4c/3x3_reduce
I0327 08:44:03.881943 48775 net.cpp:566] inception_4c/relu_3x3_reduce -> inception_4c/3x3_reduce (in-place)
I0327 08:44:03.881960 48775 net.cpp:219] Setting up inception_4c/relu_3x3_reduce
I0327 08:44:03.881971 48775 net.cpp:226] Top shape: 48 128 14 14 (1204224)
I0327 08:44:03.881979 48775 net.cpp:234] Memory required for data: 2076213508
I0327 08:44:03.881989 48775 net.cpp:154] Setting up Layer of device :0 @cpu 0 Layer : inception_4c/3x3
I0327 08:44:03.881999 48775 layer_factory.hpp:114] Creating layer inception_4c/3x3
I0327 08:44:03.882015 48775 net.cpp:169] Creating Layer inception_4c/3x3
I0327 08:44:03.882032 48775 net.cpp:606] inception_4c/3x3 <- inception_4c/3x3_reduce
I0327 08:44:03.882048 48775 net.cpp:579] inception_4c/3x3 -> inception_4c/3x3
I0327 08:44:03.882058 48775 net.cpp:582] From AppendTop @cpu: 0
I0327 08:44:03.894042 48775 net.cpp:219] Setting up inception_4c/3x3
I0327 08:44:03.894120 48775 net.cpp:226] Top shape: 48 256 14 14 (2408448)
I0327 08:44:03.894147 48775 net.cpp:234] Memory required for data: 2085847300
I0327 08:44:03.894191 48775 net.cpp:154] Setting up Layer of device :0 @cpu 0 Layer : inception_4c/relu_3x3
I0327 08:44:03.894201 48775 layer_factory.hpp:114] Creating layer inception_4c/relu_3x3
I0327 08:44:03.894220 48775 net.cpp:169] Creating Layer inception_4c/relu_3x3
I0327 08:44:03.894233 48775 net.cpp:606] inception_4c/relu_3x3 <- inception_4c/3x3
I0327 08:44:03.894248 48775 net.cpp:566] inception_4c/relu_3x3 -> inception_4c/3x3 (in-place)
I0327 08:44:03.894268 48775 net.cpp:219] Setting up inception_4c/relu_3x3
I0327 08:44:03.894284 48775 net.cpp:226] Top shape: 48 256 14 14 (2408448)
I0327 08:44:03.894292 48775 net.cpp:234] Memory required for data: 2095481092
I0327 08:44:03.894302 48775 net.cpp:154] Setting up Layer of device :0 @cpu 0 Layer : inception_4c/5x5_reduce
I0327 08:44:03.894311 48775 layer_factory.hpp:114] Creating layer inception_4c/5x5_reduce
I0327 08:44:03.894335 48775 net.cpp:169] Creating Layer inception_4c/5x5_reduce
I0327 08:44:03.894345 48775 net.cpp:606] inception_4c/5x5_reduce <- inception_4b/output_inception_4b/output_0_split_2
I0327 08:44:03.894361 48775 net.cpp:579] inception_4c/5x5_reduce -> inception_4c/5x5_reduce
I0327 08:44:03.894369 48775 net.cpp:582] From AppendTop @cpu: 0
I0327 08:44:03.896703 48775 net.cpp:219] Setting up inception_4c/5x5_reduce
I0327 08:44:03.896739 48775 net.cpp:226] Top shape: 48 24 14 14 (225792)
I0327 08:44:03.896747 48775 net.cpp:234] Memory required for data: 2096384260
I0327 08:44:03.896787 48775 net.cpp:154] Setting up Layer of device :0 @cpu 0 Layer : inception_4c/relu_5x5_reduce
I0327 08:44:03.896797 48775 layer_factory.hpp:114] Creating layer inception_4c/relu_5x5_reduce
I0327 08:44:03.896819 48775 net.cpp:169] Creating Layer inception_4c/relu_5x5_reduce
I0327 08:44:03.896831 48775 net.cpp:606] inception_4c/relu_5x5_reduce <- inception_4c/5x5_reduce
I0327 08:44:03.896844 48775 net.cpp:566] inception_4c/relu_5x5_reduce -> inception_4c/5x5_reduce (in-place)
I0327 08:44:03.896859 48775 net.cpp:219] Setting up inception_4c/relu_5x5_reduce
I0327 08:44:03.896872 48775 net.cpp:226] Top shape: 48 24 14 14 (225792)
I0327 08:44:03.896879 48775 net.cpp:234] Memory required for data: 2097287428
I0327 08:44:03.896890 48775 net.cpp:154] Setting up Layer of device :0 @cpu 0 Layer : inception_4c/5x5
I0327 08:44:03.896899 48775 layer_factory.hpp:114] Creating layer inception_4c/5x5
I0327 08:44:03.896919 48775 net.cpp:169] Creating Layer inception_4c/5x5
I0327 08:44:03.896929 48775 net.cpp:606] inception_4c/5x5 <- inception_4c/5x5_reduce
I0327 08:44:03.896944 48775 net.cpp:579] inception_4c/5x5 -> inception_4c/5x5
I0327 08:44:03.896953 48775 net.cpp:582] From AppendTop @cpu: 0
I0327 08:44:03.899889 48775 net.cpp:219] Setting up inception_4c/5x5
I0327 08:44:03.899935 48775 net.cpp:226] Top shape: 48 64 14 14 (602112)
I0327 08:44:03.899942 48775 net.cpp:234] Memory required for data: 2099695876
I0327 08:44:03.899966 48775 net.cpp:154] Setting up Layer of device :0 @cpu 0 Layer : inception_4c/relu_5x5
I0327 08:44:03.899976 48775 layer_factory.hpp:114] Creating layer inception_4c/relu_5x5
I0327 08:44:03.899994 48775 net.cpp:169] Creating Layer inception_4c/relu_5x5
I0327 08:44:03.900005 48775 net.cpp:606] inception_4c/relu_5x5 <- inception_4c/5x5
I0327 08:44:03.900025 48775 net.cpp:566] inception_4c/relu_5x5 -> inception_4c/5x5 (in-place)
I0327 08:44:03.900043 48775 net.cpp:219] Setting up inception_4c/relu_5x5
I0327 08:44:03.900054 48775 net.cpp:226] Top shape: 48 64 14 14 (602112)
I0327 08:44:03.900063 48775 net.cpp:234] Memory required for data: 2102104324
I0327 08:44:03.900073 48775 net.cpp:154] Setting up Layer of device :0 @cpu 0 Layer : inception_4c/pool
I0327 08:44:03.900081 48775 layer_factory.hpp:114] Creating layer inception_4c/pool
I0327 08:44:03.900127 48775 net.cpp:169] Creating Layer inception_4c/pool
I0327 08:44:03.900140 48775 net.cpp:606] inception_4c/pool <- inception_4b/output_inception_4b/output_0_split_3
I0327 08:44:03.900152 48775 net.cpp:579] inception_4c/pool -> inception_4c/pool
I0327 08:44:03.900174 48775 net.cpp:582] From AppendTop @cpu: 0
I0327 08:44:03.900194 48775 net.cpp:219] Setting up inception_4c/pool
I0327 08:44:03.900207 48775 net.cpp:226] Top shape: 48 512 14 14 (4816896)
I0327 08:44:03.900214 48775 net.cpp:234] Memory required for data: 2121371908
I0327 08:44:03.900224 48775 net.cpp:154] Setting up Layer of device :0 @cpu 0 Layer : inception_4c/pool_proj
I0327 08:44:03.900233 48775 layer_factory.hpp:114] Creating layer inception_4c/pool_proj
I0327 08:44:03.900254 48775 net.cpp:169] Creating Layer inception_4c/pool_proj
I0327 08:44:03.900264 48775 net.cpp:606] inception_4c/pool_proj <- inception_4c/pool
I0327 08:44:03.900287 48775 net.cpp:579] inception_4c/pool_proj -> inception_4c/pool_proj
I0327 08:44:03.900297 48775 net.cpp:582] From AppendTop @cpu: 0
I0327 08:44:03.903489 48775 net.cpp:219] Setting up inception_4c/pool_proj
I0327 08:44:03.903527 48775 net.cpp:226] Top shape: 48 64 14 14 (602112)
I0327 08:44:03.903537 48775 net.cpp:234] Memory required for data: 2123780356
I0327 08:44:03.903558 48775 net.cpp:154] Setting up Layer of device :0 @cpu 0 Layer : inception_4c/relu_pool_proj
I0327 08:44:03.903568 48775 layer_factory.hpp:114] Creating layer inception_4c/relu_pool_proj
I0327 08:44:03.903584 48775 net.cpp:169] Creating Layer inception_4c/relu_pool_proj
I0327 08:44:03.903596 48775 net.cpp:606] inception_4c/relu_pool_proj <- inception_4c/pool_proj
I0327 08:44:03.903609 48775 net.cpp:566] inception_4c/relu_pool_proj -> inception_4c/pool_proj (in-place)
I0327 08:44:03.903628 48775 net.cpp:219] Setting up inception_4c/relu_pool_proj
I0327 08:44:03.903661 48775 net.cpp:226] Top shape: 48 64 14 14 (602112)
I0327 08:44:03.903671 48775 net.cpp:234] Memory required for data: 2126188804
I0327 08:44:03.903681 48775 net.cpp:154] Setting up Layer of device :0 @cpu 0 Layer : inception_4c/output
I0327 08:44:03.903689 48775 layer_factory.hpp:114] Creating layer inception_4c/output
I0327 08:44:03.903702 48775 net.cpp:169] Creating Layer inception_4c/output
I0327 08:44:03.903710 48775 net.cpp:606] inception_4c/output <- inception_4c/1x1
I0327 08:44:03.903722 48775 net.cpp:606] inception_4c/output <- inception_4c/3x3
I0327 08:44:03.903731 48775 net.cpp:606] inception_4c/output <- inception_4c/5x5
I0327 08:44:03.903743 48775 net.cpp:606] inception_4c/output <- inception_4c/pool_proj
I0327 08:44:03.903754 48775 net.cpp:579] inception_4c/output -> inception_4c/output
I0327 08:44:03.903762 48775 net.cpp:582] From AppendTop @cpu: 0
I0327 08:44:03.903779 48775 net.cpp:219] Setting up inception_4c/output
I0327 08:44:03.903790 48775 net.cpp:226] Top shape: 48 512 14 14 (4816896)
I0327 08:44:03.903800 48775 net.cpp:234] Memory required for data: 2145456388
I0327 08:44:03.903810 48775 net.cpp:154] Setting up Layer of device :0 @cpu 0 Layer : inception_4c/output_inception_4c/output_0_split
I0327 08:44:03.903817 48775 layer_factory.hpp:114] Creating layer inception_4c/output_inception_4c/output_0_split
I0327 08:44:03.903830 48775 net.cpp:169] Creating Layer inception_4c/output_inception_4c/output_0_split
…
I0327 08:44:03.903885 48775 net.cpp:582] From AppendTop @cpu: 0
I0327 08:44:03.903899 48775 net.cpp:579] inception_4c/output_inception_4c/output_0_split -> inception_4c/output_inception_4c/output_0_split_2
I0327 08:44:03.903910 48775 net.cpp:582] From AppendTop @cpu: 0
I0327 08:44:03.903924 48775 net.cpp:579] inception_4c/output_inception_4c/output_0_split -> inception_4c/output_inception_4c/output_0_split_3
I0327 08:44:03.903933 48775 net.cpp:582] From AppendTop @cpu: 0
I0327 08:44:03.903949 48775 net.cpp:219] Setting up inception_4c/output_inception_4c/output_0_split
I0327 08:44:03.903965 48775 net.cpp:226] Top shape: 48 512 14 14 (4816896)
I0327 08:44:03.903976 48775 net.cpp:226] Top shape: 48 512 14 14 (4816896)
I0327 08:44:03.903987 48775 net.cpp:226] Top shape: 48 512 14 14 (4816896)
I0327 08:44:03.903998 48775 net.cpp:226] Top shape: 48 512 14 14 (4816896)
I0327 08:44:03.904006 48775 net.cpp:234] Memory required for data: 2222526724
I0327 08:44:03.904022 48775 net.cpp:154] Setting up Layer of device :0 @cpu 0 Layer : inception_4d/1x1
I0327 08:44:03.904033 48775 layer_factory.hpp:114] Creating layer inception_4d/1x1
I0327 08:44:03.904055 48775 net.cpp:169] Creating Layer inception_4d/1x1
I0327 08:44:03.904067 48775 net.cpp:606] inception_4d/1x1 <- inception_4c/output_inception_4c/output_0_split_0
I0327 08:44:03.904083 48775 net.cpp:579] inception_4d/1x1 -> inception_4d/1x1
I0327 08:44:03.904091 48775 net.cpp:582] From AppendTop @cpu: 0
I0327 08:44:03.908026 48775 net.cpp:219] Setting up inception_4d/1x1
I0327 08:44:03.908068 48775 net.cpp:226] Top shape: 48 112 14 14 (1053696)
I0327 08:44:03.908077 48775 net.cpp:234] Memory required for data: 2226741508
I0327 08:44:03.908099 48775 net.cpp:154] Setting up Layer of device :0 @cpu 0 Layer : inception_4d/relu_1x1
I0327 08:44:03.908109 48775 layer_factory.hpp:114] Creating layer inception_4d/relu_1x1
I0327 08:44:03.908133 48775 net.cpp:169] Creating Layer inception_4d/relu_1x1
I0327 08:44:03.908144 48775 net.cpp:606] inception_4d/relu_1x1 <- inception_4d/1x1
I0327 08:44:03.908157 48775 net.cpp:566] inception_4d/relu_1x1 -> inception_4d/1x1 (in-place)
I0327 08:44:03.908191 48775 net.cpp:219] Setting up inception_4d/relu_1x1
I0327 08:44:03.908203 48775 net.cpp:226] Top shape: 48 112 14 14 (1053696)
I0327 08:44:03.908211 48775 net.cpp:234] Memory required for data: 2230956292
I0327 08:44:03.908221 48775 net.cpp:154] Setting up Layer of device :0 @cpu 0 Layer : inception_4d/3x3_reduce
I0327 08:44:03.908231 48775 layer_factory.hpp:114] Creating layer inception_4d/3x3_reduce
I0327 08:44:03.908251 48775 net.cpp:169] Creating Layer inception_4d/3x3_reduce
I0327 08:44:03.908262 48775 net.cpp:606] inception_4d/3x3_reduce <- inception_4c/output_inception_4c/output_0_split_1
I0327 08:44:03.908283 48775 net.cpp:579] inception_4d/3x3_reduce -> inception_4d/3x3_reduce
I0327 08:44:03.908293 48775 net.cpp:582] From AppendTop @cpu: 0
I0327 08:44:03.913040 48775 net.cpp:219] Setting up inception_4d/3x3_reduce
I0327 08:44:03.913086 48775 net.cpp:226] Top shape: 48 144 14 14 (1354752)
I0327 08:44:03.913095 48775 net.cpp:234] Memory required for data: 2236375300
I0327 08:44:03.913117 48775 net.cpp:154] Setting up Layer of device :0 @cpu 0 Layer : inception_4d/relu_3x3_reduce
I0327 08:44:03.913127 48775 layer_factory.hpp:114] Creating layer inception_4d/relu_3x3_reduce
I0327 08:44:03.913141 48775 net.cpp:169] Creating Layer inception_4d/relu_3x3_reduce
I0327 08:44:03.913153 48775 net.cpp:606] inception_4d/relu_3x3_reduce <- inception_4d/3x3_reduce
I0327 08:44:03.913166 48775 net.cpp:566] inception_4d/relu_3x3_reduce -> inception_4d/3x3_reduce (in-place)
I0327 08:44:03.913183 48775 net.cpp:219] Setting up inception_4d/relu_3x3_reduce
I0327 08:44:03.913194 48775 net.cpp:226] Top shape: 48 144 14 14 (1354752)
I0327 08:44:03.913203 48775 net.cpp:234] Memory required for data: 2241794308
I0327 08:44:03.913213 48775 net.cpp:154] Setting up Layer of device :0 @cpu 0 Layer : inception_4d/3x3
I0327 08:44:03.913221 48775 layer_factory.hpp:114] Creating layer inception_4d/3x3
I0327 08:44:03.913241 48775 net.cpp:169] Creating Layer inception_4d/3x3
I0327 08:44:03.913252 48775 net.cpp:606] inception_4d/3x3 <- inception_4d/3x3_reduce
I0327 08:44:03.913265 48775 net.cpp:579] inception_4d/3x3 -> inception_4d/3x3
I0327 08:44:03.913278 48775 net.cpp:582] From AppendTop @cpu: 0
I0327 08:44:03.926863 48775 net.cpp:219] Setting up inception_4d/3x3
I0327 08:44:03.926941 48775 net.cpp:226] Top shape: 48 288 14 14 (2709504)
I0327 08:44:03.926951 48775 net.cpp:234] Memory required for data: 2252632324
I0327 08:44:03.926997 48775 net.cpp:154] Setting up Layer of device :0 @cpu 0 Layer : inception_4d/relu_3x3
I0327 08:44:03.927008 48775 layer_factory.hpp:114] Creating layer inception_4d/relu_3x3
I0327 08:44:03.927033 48775 net.cpp:169] Creating Layer inception_4d/relu_3x3
I0327 08:44:03.927047 48775 net.cpp:606] inception_4d/relu_3x3 <- inception_4d/3x3
I0327 08:44:03.927062 48775 net.cpp:566] inception_4d/relu_3x3 -> inception_4d/3x3 (in-place)
I0327 08:44:03.927083 48775 net.cpp:219] Setting up inception_4d/relu_3x3
I0327 08:44:03.927094 48775 net.cpp:226] Top shape: 48 288 14 14 (2709504)
I0327 08:44:03.927103 48775 net.cpp:234] Memory required for data: 2263470340
I0327 08:44:03.927112 48775 net.cpp:154] Setting up Layer of device :0 @cpu 0 Layer : inception_4d/5x5_reduce
I0327 08:44:03.927120 48775 layer_factory.hpp:114] Creating layer inception_4d/5x5_reduce
I0327 08:44:03.927139 48775 net.cpp:169] Creating Layer inception_4d/5x5_reduce
I0327 08:44:03.927150 48775 net.cpp:606] inception_4d/5x5_reduce <- inception_4c/output_inception_4c/output_0_split_2
I0327 08:44:03.927167 48775 net.cpp:579] inception_4d/5x5_reduce -> inception_4d/5x5_reduce
I0327 08:44:03.927177 48775 net.cpp:582] From AppendTop @cpu: 0
I0327 08:44:03.929785 48775 net.cpp:219] Setting up inception_4d/5x5_reduce
I0327 08:44:03.929819 48775 net.cpp:226] Top shape: 48 32 14 14 (301056)
I0327 08:44:03.929828 48775 net.cpp:234] Memory required for data: 2264674564
I0327 08:44:03.929849 48775 net.cpp:154] Setting up Layer of device :0 @cpu 0 Layer : inception_4d/relu_5x5_reduce
I0327 08:44:03.929858 48775 layer_factory.hpp:114] Creating layer inception_4d/relu_5x5_reduce
I0327 08:44:03.929894 48775 net.cpp:169] Creating Layer inception_4d/relu_5x5_reduce
I0327 08:44:03.929905 48775 net.cpp:606] inception_4d/relu_5x5_reduce <- inception_4d/5x5_reduce
I0327 08:44:03.929919 48775 net.cpp:566] inception_4d/relu_5x5_reduce -> inception_4d/5x5_reduce (in-place)
I0327 08:44:03.929934 48775 net.cpp:219] Setting up inception_4d/relu_5x5_reduce
I0327 08:44:03.929946 48775 net.cpp:226] Top shape: 48 32 14 14 (301056)
I0327 08:44:03.929955 48775 net.cpp:234] Memory required for data: 2265878788
I0327 08:44:03.929965 48775 net.cpp:154] Setting up Layer of device :0 @cpu 0 Layer : inception_4d/5x5
I0327 08:44:03.929973 48775 layer_factory.hpp:114] Creating layer inception_4d/5x5
I0327 08:44:03.929992 48775 net.cpp:169] Creating Layer inception_4d/5x5
I0327 08:44:03.930006 48775 net.cpp:606] inception_4d/5x5 <- inception_4d/5x5_reduce
I0327 08:44:03.930025 48775 net.cpp:579] inception_4d/5x5 -> inception_4d/5x5
I0327 08:44:03.930037 48775 net.cpp:582] From AppendTop @cpu: 0
I0327 08:44:03.934216 48775 net.cpp:219] Setting up inception_4d/5x5
I0327 08:44:03.934276 48775 net.cpp:226] Top shape: 48 64 14 14 (602112)
I0327 08:44:03.934286 48775 net.cpp:234] Memory required for data: 2268287236
I0327 08:44:03.934309 48775 net.cpp:154] Setting up Layer of device :0 @cpu 0 Layer : inception_4d/relu_5x5
I0327 08:44:03.934319 48775 layer_factory.hpp:114] Creating layer inception_4d/relu_5x5
I0327 08:44:03.934340 48775 net.cpp:169] Creating Layer inception_4d/relu_5x5
I0327 08:44:03.934353 48775 net.cpp:606] inception_4d/relu_5x5 <- inception_4d/5x5
I0327 08:44:03.934367 48775 net.cpp:566] inception_4d/relu_5x5 -> inception_4d/5x5 (in-place)
I0327 08:44:03.934387 48775 net.cpp:219] Setting up inception_4d/relu_5x5
I0327 08:44:03.934399 48775 net.cpp:226] Top shape: 48 64 14 14 (602112)
I0327 08:44:03.934407 48775 net.cpp:234] Memory required for data: 2270695684
I0327 08:44:03.934417 48775 net.cpp:154] Setting up Layer of device :0 @cpu 0 Layer : inception_4d/pool
I0327 08:44:03.934427 48775 layer_factory.hpp:114] Creating layer inception_4d/pool
I0327 08:44:03.934468 48775 net.cpp:169] Creating Layer inception_4d/pool
I0327 08:44:03.934480 48775 net.cpp:606] inception_4d/pool <- inception_4c/output_inception_4c/output_0_split_3
I0327 08:44:03.934494 48775 net.cpp:579] inception_4d/pool -> inception_4d/pool
I0327 08:44:03.934504 48775 net.cpp:582] From AppendTop @cpu: 0
I0327 08:44:03.934536 48775 net.cpp:219] Setting up inception_4d/pool
I0327 08:44:03.934550 48775 net.cpp:226] Top shape: 48 512 14 14 (4816896)
I0327 08:44:03.934557 48775 net.cpp:234] Memory required for data: 2289963268
I0327 08:44:03.934567 48775 net.cpp:154] Setting up Layer of device :0 @cpu 0 Layer : inception_4d/pool_proj
I0327 08:44:03.934576 48775 layer_factory.hpp:114] Creating layer inception_4d/pool_proj
I0327 08:44:03.934603 48775 net.cpp:169] Creating Layer inception_4d/pool_proj
I0327 08:44:03.934614 48775 net.cpp:606] inception_4d/pool_proj <- inception_4d/pool
I0327 08:44:03.934628 48775 net.cpp:579] inception_4d/pool_proj -> inception_4d/pool_proj
I0327 08:44:03.934636 48775 net.cpp:582] From AppendTop @cpu: 0
I0327 08:44:03.937850 48775 net.cpp:219] Setting up inception_4d/pool_proj
I0327 08:44:03.937889 48775 net.cpp:226] Top shape: 48 64 14 14 (602112)
I0327 08:44:03.937898 48775 net.cpp:234] Memory required for data: 2292371716
I0327 08:44:03.937919 48775 net.cpp:154] Setting up Layer of device :0 @cpu 0 Layer : inception_4d/relu_pool_proj
I0327 08:44:03.937929 48775 layer_factory.hpp:114] Creating layer inception_4d/relu_pool_proj
I0327 08:44:03.937944 48775 net.cpp:169] Creating Layer inception_4d/relu_pool_proj
I0327 08:44:03.937955 48775 net.cpp:606] inception_4d/relu_pool_proj <- inception_4d/pool_proj
I0327 08:44:03.937973 48775 net.cpp:566] inception_4d/relu_pool_proj -> inception_4d/pool_proj (in-place)
I0327 08:44:03.937988 48775 net.cpp:219] Setting up inception_4d/relu_pool_proj
I0327 08:44:03.938000 48775 net.cpp:226] Top shape: 48 64 14 14 (602112)
I0327 08:44:03.938037 48775 net.cpp:234] Memory required for data: 2294780164
I0327 08:44:03.938048 48775 net.cpp:154] Setting up Layer of device :0 @cpu 0 Layer : inception_4d/output
I0327 08:44:03.938056 48775 layer_factory.hpp:114] Creating layer inception_4d/output
I0327 08:44:03.938069 48775 net.cpp:169] Creating Layer inception_4d/output
I0327 08:44:03.938078 48775 net.cpp:606] inception_4d/output <- inception_4d/1x1
I0327 08:44:03.938089 48775 net.cpp:606] inception_4d/output <- inception_4d/3x3
I0327 08:44:03.938099 48775 net.cpp:606] inception_4d/output <- inception_4d/5x5
I0327 08:44:03.938110 48775 net.cpp:606] inception_4d/output <- inception_4d/pool_proj
I0327 08:44:03.938122 48775 net.cpp:579] inception_4d/output -> inception_4d/output
I0327 08:44:03.938132 48775 net.cpp:582] From AppendTop @cpu: 0
I0327 08:44:03.938148 48775 net.cpp:219] Setting up inception_4d/output
I0327 08:44:03.938159 48775 net.cpp:226] Top shape: 48 528 14 14 (4967424)
I0327 08:44:03.938168 48775 net.cpp:234] Memory required for data: 2314649860
I0327 08:44:03.938177 48775 net.cpp:154] Setting up Layer of device :0 @cpu 0 Layer : inception_4d/output_inception_4d/output_0_split
I0327 08:44:03.938186 48775 layer_factory.hpp:114] Creating layer inception_4d/output_inception_4d/output_0_split
I0327 08:44:03.938202 48775 net.cpp:169] Creating Layer inception_4d/output_inception_4d/output_0_split
…
I0327 08:44:03.938287 48775 net.cpp:582] From AppendTop @cpu: 0
I0327 08:44:03.938302 48775 net.cpp:579] inception_4d/output_inception_4d/output_0_split -> inception_4d/output_inception_4d/output_0_split_3
I0327 08:44:03.938310 48775 net.cpp:582] From AppendTop @cpu: 0
I0327 08:44:03.938323 48775 net.cpp:579] inception_4d/output_inception_4d/output_0_split -> inception_4d/output_inception_4d/output_0_split_4
I0327 08:44:03.938331 48775 net.cpp:582] From AppendTop @cpu: 0
I0327 08:44:03.938354 48775 net.cpp:219] Setting up inception_4d/output_inception_4d/output_0_split
I0327 08:44:03.938366 48775 net.cpp:226] Top shape: 48 528 14 14 (4967424)
I0327 08:44:03.938377 48775 net.cpp:226] Top shape: 48 528 14 14 (4967424)
I0327 08:44:03.938388 48775 net.cpp:226] Top shape: 48 528 14 14 (4967424)
I0327 08:44:03.938400 48775 net.cpp:226] Top shape: 48 528 14 14 (4967424)
I0327 08:44:03.938410 48775 net.cpp:226] Top shape: 48 528 14 14 (4967424)
I0327 08:44:03.938418 48775 net.cpp:234] Memory required for data: 2413998340
I0327 08:44:03.938428 48775 net.cpp:154] Setting up Layer of device :0 @cpu 0 Layer : loss2/ave_pool
I0327 08:44:03.938437 48775 layer_factory.hpp:114] Creating layer loss2/ave_pool
I0327 08:44:03.938475 48775 net.cpp:169] Creating Layer loss2/ave_pool
I0327 08:44:03.938486 48775 net.cpp:606] loss2/ave_pool <- inception_4d/output_inception_4d/output_0_split_0
I0327 08:44:03.938503 48775 net.cpp:579] loss2/ave_pool -> loss2/ave_pool
I0327 08:44:03.938511 48775 net.cpp:582] From AppendTop @cpu: 0
I0327 08:44:03.938526 48775 net.cpp:219] Setting up loss2/ave_pool
I0327 08:44:03.938539 48775 net.cpp:226] Top shape: 48 528 4 4 (405504)
I0327 08:44:03.938547 48775 net.cpp:234] Memory required for data: 2415620356
I0327 08:44:03.938557 48775 net.cpp:154] Setting up Layer of device :0 @cpu 0 Layer : loss2/conv
I0327 08:44:03.938566 48775 layer_factory.hpp:114] Creating layer loss2/conv
I0327 08:44:03.938585 48775 net.cpp:169] Creating Layer loss2/conv
I0327 08:44:03.938596 48775 net.cpp:606] loss2/conv <- loss2/ave_pool
I0327 08:44:03.938621 48775 net.cpp:579] loss2/conv -> loss2/conv
I0327 08:44:03.938632 48775 net.cpp:582] From AppendTop @cpu: 0
I0327 08:44:03.941328 48775 net.cpp:219] Setting up loss2/conv
I0327 08:44:03.941359 48775 net.cpp:226] Top shape: 48 128 4 4 (98304)
I0327 08:44:03.941368 48775 net.cpp:234] Memory required for data: 2416013572
I0327 08:44:03.941388 48775 net.cpp:154] Setting up Layer of device :0 @cpu 0 Layer : loss2/relu_conv
I0327 08:44:03.941397 48775 layer_factory.hpp:114] Creating layer loss2/relu_conv
I0327 08:44:03.941411 48775 net.cpp:169] Creating Layer loss2/relu_conv
I0327 08:44:03.941421 48775 net.cpp:606] loss2/relu_conv <- loss2/conv
I0327 08:44:03.941434 48775 net.cpp:566] loss2/relu_conv -> loss2/conv (in-place)
I0327 08:44:03.941448 48775 net.cpp:219] Setting up loss2/relu_conv
I0327 08:44:03.941460 48775 net.cpp:226] Top shape: 48 128 4 4 (98304)
I0327 08:44:03.941468 48775 net.cpp:234] Memory required for data: 2416406788
I0327 08:44:03.941478 48775 net.cpp:154] Setting up Layer of device :0 @cpu 0 Layer : loss2/fc
I0327 08:44:03.941488 48775 layer_factory.hpp:114] Creating layer loss2/fc
I0327 08:44:03.941507 48775 net.cpp:169] Creating Layer loss2/fc
I0327 08:44:03.941516 48775 net.cpp:606] loss2/fc <- loss2/conv
I0327 08:44:03.941529 48775 net.cpp:579] loss2/fc -> loss2/fc
I0327 08:44:03.941539 48775 net.cpp:582] From AppendTop @cpu: 0
I0327 08:44:03.976363 48775 net.cpp:219] Setting up loss2/fc
I0327 08:44:03.976436 48775 net.cpp:226] Top shape: 48 1024 (49152)
I0327 08:44:03.976446 48775 net.cpp:234] Memory required for data: 2416603396
I0327 08:44:03.976469 48775 net.cpp:154] Setting up Layer of device :0 @cpu 0 Layer : loss2/relu_fc
I0327 08:44:03.976478 48775 layer_factory.hpp:114] Creating layer loss2/relu_fc
I0327 08:44:03.976500 48775 net.cpp:169] Creating Layer loss2/relu_fc
I0327 08:44:03.976513 48775 net.cpp:606] loss2/relu_fc <- loss2/fc
I0327 08:44:03.976527 48775 net.cpp:566] loss2/relu_fc -> loss2/fc (in-place)
I0327 08:44:03.976544 48775 net.cpp:219] Setting up loss2/relu_fc
I0327 08:44:03.976557 48775 net.cpp:226] Top shape: 48 1024 (49152)
I0327 08:44:03.976564 48775 net.cpp:234] Memory required for data: 2416800004
I0327 08:44:03.976574 48775 net.cpp:154] Setting up Layer of device :0 @cpu 0 Layer : loss2/drop_fc
I0327 08:44:03.976583 48775 layer_factory.hpp:114] Creating layer loss2/drop_fc
I0327 08:44:03.976596 48775 net.cpp:169] Creating Layer loss2/drop_fc
I0327 08:44:03.976624 48775 net.cpp:606] loss2/drop_fc <- loss2/fc
I0327 08:44:03.976635 48775 net.cpp:566] loss2/drop_fc -> loss2/fc (in-place)
I0327 08:44:03.976649 48775 net.cpp:219] Setting up loss2/drop_fc
I0327 08:44:03.976660 48775 net.cpp:226] Top shape: 48 1024 (49152)
I0327 08:44:03.976668 48775 net.cpp:234] Memory required for data: 2416996612
I0327 08:44:03.976678 48775 net.cpp:154] Setting up Layer of device :0 @cpu 0 Layer : loss2/classifier
I0327 08:44:03.976687 48775 layer_factory.hpp:114] Creating layer loss2/classifier
I0327 08:44:03.976707 48775 net.cpp:169] Creating Layer loss2/classifier
I0327 08:44:03.976716 48775 net.cpp:606] loss2/classifier <- loss2/fc
I0327 08:44:03.976730 48775 net.cpp:579] loss2/classifier -> loss2/classifier
I0327 08:44:03.976738 48775 net.cpp:582] From AppendTop @cpu: 0
I0327 08:44:03.994119 48775 net.cpp:219] Setting up loss2/classifier
I0327 08:44:03.994170 48775 net.cpp:226] Top shape: 48 1000 (48000)
I0327 08:44:03.994179 48775 net.cpp:234] Memory required for data: 2417188612
I0327 08:44:03.994199 48775 net.cpp:154] Setting up Layer of device :0 @cpu 0 Layer : loss2/loss
I0327 08:44:03.994210 48775 layer_factory.hpp:114] Creating layer loss2/loss
I0327 08:44:03.994225 48775 net.cpp:169] Creating Layer loss2/loss
I0327 08:44:03.994236 48775 net.cpp:606] loss2/loss <- loss2/classifier
…
I0327 08:44:03.994637 48775 net.cpp:154] Setting up Layer of device :0 @cpu 0 Layer : inception_4e/1x1
I0327 08:44:03.994647 48775 layer_factory.hpp:114] Creating layer inception_4e/1x1
I0327 08:44:03.994668 48775 net.cpp:169] Creating Layer inception_4e/1x1
I0327 08:44:03.994680 48775 net.cpp:606] inception_4e/1x1 <- inception_4d/output_inception_4d/output_0_split_1
I0327 08:44:03.994698 48775 net.cpp:579] inception_4e/1x1 -> inception_4e/1x1
I0327 08:44:03.994706 48775 net.cpp:582] From AppendTop @cpu: 0
I0327 08:44:04.000880 48775 net.cpp:219] Setting up inception_4e/1x1
I0327 08:44:04.000943 48775 net.cpp:226] Top shape: 48 256 14 14 (2408448)
I0327 08:44:04.000952 48775 net.cpp:234] Memory required for data: 2426822408
I0327 08:44:04.000977 48775 net.cpp:154] Setting up Layer of device :0 @cpu 0 Layer : inception_4e/relu_1x1
I0327 08:44:04.000988 48775 layer_factory.hpp:114] Creating layer inception_4e/relu_1x1
I0327 08:44:04.001003 48775 net.cpp:169] Creating Layer inception_4e/relu_1x1
I0327 08:44:04.001022 48775 net.cpp:606] inception_4e/relu_1x1 <- inception_4e/1x1
I0327 08:44:04.001042 48775 net.cpp:566] inception_4e/relu_1x1 -> inception_4e/1x1 (in-place)
I0327 08:44:04.001060 48775 net.cpp:219] Setting up inception_4e/relu_1x1
I0327 08:44:04.001071 48775 net.cpp:226] Top shape: 48 256 14 14 (2408448)
I0327 08:44:04.001080 48775 net.cpp:234] Memory required for data: 2436456200
I0327 08:44:04.001091 48775 net.cpp:154] Setting up Layer of device :0 @cpu 0 Layer : inception_4e/3x3_reduce
I0327 08:44:04.001098 48775 layer_factory.hpp:114] Creating layer inception_4e/3x3_reduce
I0327 08:44:04.001117 48775 net.cpp:169] Creating Layer inception_4e/3x3_reduce
I0327 08:44:04.001127 48775 net.cpp:606] inception_4e/3x3_reduce <- inception_4d/output_inception_4d/output_0_split_2
I0327 08:44:04.001145 48775 net.cpp:579] inception_4e/3x3_reduce -> inception_4e/3x3_reduce
I0327 08:44:04.001154 48775 net.cpp:582] From AppendTop @cpu: 0
I0327 08:44:04.006127 48775 net.cpp:219] Setting up inception_4e/3x3_reduce
I0327 08:44:04.006180 48775 net.cpp:226] Top shape: 48 160 14 14 (1505280)
I0327 08:44:04.006189 48775 net.cpp:234] Memory required for data: 2442477320
I0327 08:44:04.006230 48775 net.cpp:154] Setting up Layer of device :0 @cpu 0 Layer : inception_4e/relu_3x3_reduce
I0327 08:44:04.006240 48775 layer_factory.hpp:114] Creating layer inception_4e/relu_3x3_reduce
I0327 08:44:04.006256 48775 net.cpp:169] Creating Layer inception_4e/relu_3x3_reduce
I0327 08:44:04.006273 48775 net.cpp:606] inception_4e/relu_3x3_reduce <- inception_4e/3x3_reduce
I0327 08:44:04.006291 48775 net.cpp:566] inception_4e/relu_3x3_reduce -> inception_4e/3x3_reduce (in-place)
I0327 08:44:04.006309 48775 net.cpp:219] Setting up inception_4e/relu_3x3_reduce
I0327 08:44:04.006320 48775 net.cpp:226] Top shape: 48 160 14 14 (1505280)
I0327 08:44:04.006330 48775 net.cpp:234] Memory required for data: 2448498440
I0327 08:44:04.006340 48775 net.cpp:154] Setting up Layer of device :0 @cpu 0 Layer : inception_4e/3x3
I0327 08:44:04.006348 48775 layer_factory.hpp:114] Creating layer inception_4e/3x3
I0327 08:44:04.006368 48775 net.cpp:169] Creating Layer inception_4e/3x3
I0327 08:44:04.006378 48775 net.cpp:606] inception_4e/3x3 <- inception_4e/3x3_reduce
I0327 08:44:04.006392 48775 net.cpp:579] inception_4e/3x3 -> inception_4e/3x3
I0327 08:44:04.006400 48775 net.cpp:582] From AppendTop @cpu: 0
I0327 08:44:04.023886 48775 net.cpp:219] Setting up inception_4e/3x3
I0327 08:44:04.023967 48775 net.cpp:226] Top shape: 48 320 14 14 (3010560)
I0327 08:44:04.023977 48775 net.cpp:234] Memory required for data: 2460540680
I0327 08:44:04.024006 48775 net.cpp:154] Setting up Layer of device :0 @cpu 0 Layer : inception_4e/relu_3x3
I0327 08:44:04.024021 48775 layer_factory.hpp:114] Creating layer inception_4e/relu_3x3
I0327 08:44:04.024072 48775 net.cpp:169] Creating Layer inception_4e/relu_3x3
I0327 08:44:04.024086 48775 net.cpp:606] inception_4e/relu_3x3 <- inception_4e/3x3
I0327 08:44:04.024101 48775 net.cpp:566] inception_4e/relu_3x3 -> inception_4e/3x3 (in-place)
I0327 08:44:04.024121 48775 net.cpp:219] Setting up inception_4e/relu_3x3
I0327 08:44:04.024132 48775 net.cpp:226] Top shape: 48 320 14 14 (3010560)
I0327 08:44:04.024139 48775 net.cpp:234] Memory required for data: 2472582920
I0327 08:44:04.024150 48775 net.cpp:154] Setting up Layer of device :0 @cpu 0 Layer : inception_4e/5x5_reduce
I0327 08:44:04.024158 48775 layer_factory.hpp:114] Creating layer inception_4e/5x5_reduce
I0327 08:44:04.024181 48775 net.cpp:169] Creating Layer inception_4e/5x5_reduce
I0327 08:44:04.024193 48775 net.cpp:606] inception_4e/5x5_reduce <- inception_4d/output_inception_4d/output_0_split_3
I0327 08:44:04.024207 48775 net.cpp:579] inception_4e/5x5_reduce -> inception_4e/5x5_reduce
I0327 08:44:04.024216 48775 net.cpp:582] From AppendTop @cpu: 0
I0327 08:44:04.026146 48775 net.cpp:219] Setting up inception_4e/5x5_reduce
I0327 08:44:04.026185 48775 net.cpp:226] Top shape: 48 32 14 14 (301056)
I0327 08:44:04.026193 48775 net.cpp:234] Memory required for data: 2473787144
I0327 08:44:04.026213 48775 net.cpp:154] Setting up Layer of device :0 @cpu 0 Layer : inception_4e/relu_5x5_reduce
I0327 08:44:04.026223 48775 layer_factory.hpp:114] Creating layer inception_4e/relu_5x5_reduce
I0327 08:44:04.026242 48775 net.cpp:169] Creating Layer inception_4e/relu_5x5_reduce
I0327 08:44:04.026253 48775 net.cpp:606] inception_4e/relu_5x5_reduce <- inception_4e/5x5_reduce
I0327 08:44:04.026265 48775 net.cpp:566] inception_4e/relu_5x5_reduce -> inception_4e/5x5_reduce (in-place)
I0327 08:44:04.026288 48775 net.cpp:219] Setting up inception_4e/relu_5x5_reduce
I0327 08:44:04.026299 48775 net.cpp:226] Top shape: 48 32 14 14 (301056)
I0327 08:44:04.026307 48775 net.cpp:234] Memory required for data: 2474991368
I0327 08:44:04.026317 48775 net.cpp:154] Setting up Layer of device :0 @cpu 0 Layer : inception_4e/5x5
I0327 08:44:04.026326 48775 layer_factory.hpp:114] Creating layer inception_4e/5x5
I0327 08:44:04.026353 48775 net.cpp:169] Creating Layer inception_4e/5x5
I0327 08:44:04.026365 48775 net.cpp:606] inception_4e/5x5 <- inception_4e/5x5_reduce
I0327 08:44:04.026377 48775 net.cpp:579] inception_4e/5x5 -> inception_4e/5x5
I0327 08:44:04.026386 48775 net.cpp:582] From AppendTop @cpu: 0
I0327 08:44:04.032421 48775 net.cpp:219] Setting up inception_4e/5x5
I0327 08:44:04.032490 48775 net.cpp:226] Top shape: 48 128 14 14 (1204224)
I0327 08:44:04.032500 48775 net.cpp:234] Memory required for data: 2479808264
I0327 08:44:04.032527 48775 net.cpp:154] Setting up Layer of device :0 @cpu 0 Layer : inception_4e/relu_5x5
I0327 08:44:04.032536 48775 layer_factory.hpp:114] Creating layer inception_4e/relu_5x5
I0327 08:44:04.032558 48775 net.cpp:169] Creating Layer inception_4e/relu_5x5
I0327 08:44:04.032570 48775 net.cpp:606] inception_4e/relu_5x5 <- inception_4e/5x5
I0327 08:44:04.032588 48775 net.cpp:566] inception_4e/relu_5x5 -> inception_4e/5x5 (in-place)
I0327 08:44:04.032605 48775 net.cpp:219] Setting up inception_4e/relu_5x5
I0327 08:44:04.032618 48775 net.cpp:226] Top shape: 48 128 14 14 (1204224)
I0327 08:44:04.032625 48775 net.cpp:234] Memory required for data: 2484625160
I0327 08:44:04.032635 48775 net.cpp:154] Setting up Layer of device :0 @cpu 0 Layer : inception_4e/pool
I0327 08:44:04.032644 48775 layer_factory.hpp:114] Creating layer inception_4e/pool
I0327 08:44:04.032687 48775 net.cpp:169] Creating Layer inception_4e/pool
I0327 08:44:04.032699 48775 net.cpp:606] inception_4e/pool <- inception_4d/output_inception_4d/output_0_split_4
I0327 08:44:04.032716 48775 net.cpp:579] inception_4e/pool -> inception_4e/pool
I0327 08:44:04.032726 48775 net.cpp:582] From AppendTop @cpu: 0
I0327 08:44:04.032745 48775 net.cpp:219] Setting up inception_4e/pool
I0327 08:44:04.032757 48775 net.cpp:226] Top shape: 48 528 14 14 (4967424)
I0327 08:44:04.032765 48775 net.cpp:234] Memory required for data: 2504494856
I0327 08:44:04.032801 48775 net.cpp:154] Setting up Layer of device :0 @cpu 0 Layer : inception_4e/pool_proj
I0327 08:44:04.032810 48775 layer_factory.hpp:114] Creating layer inception_4e/pool_proj
I0327 08:44:04.032832 48775 net.cpp:169] Creating Layer inception_4e/pool_proj
I0327 08:44:04.032842 48775 net.cpp:606] inception_4e/pool_proj <- inception_4e/pool
I0327 08:44:04.032860 48775 net.cpp:579] inception_4e/pool_proj -> inception_4e/pool_proj
I0327 08:44:04.032868 48775 net.cpp:582] From AppendTop @cpu: 0
I0327 08:44:04.037307 48775 net.cpp:219] Setting up inception_4e/pool_proj
I0327 08:44:04.037358 48775 net.cpp:226] Top shape: 48 128 14 14 (1204224)
I0327 08:44:04.037366 48775 net.cpp:234] Memory required for data: 2509311752
I0327 08:44:04.037387 48775 net.cpp:154] Setting up Layer of device :0 @cpu 0 Layer : inception_4e/relu_pool_proj
I0327 08:44:04.037397 48775 layer_factory.hpp:114] Creating layer inception_4e/relu_pool_proj
I0327 08:44:04.037413 48775 net.cpp:169] Creating Layer inception_4e/relu_pool_proj
I0327 08:44:04.037425 48775 net.cpp:606] inception_4e/relu_pool_proj <- inception_4e/pool_proj
I0327 08:44:04.037441 48775 net.cpp:566] inception_4e/relu_pool_proj -> inception_4e/pool_proj (in-place)
I0327 08:44:04.037457 48775 net.cpp:219] Setting up inception_4e/relu_pool_proj
I0327 08:44:04.037468 48775 net.cpp:226] Top shape: 48 128 14 14 (1204224)
I0327 08:44:04.037477 48775 net.cpp:234] Memory required for data: 2514128648
I0327 08:44:04.037487 48775 net.cpp:154] Setting up Layer of device :0 @cpu 0 Layer : inception_4e/output
I0327 08:44:04.037495 48775 layer_factory.hpp:114] Creating layer inception_4e/output
I0327 08:44:04.037508 48775 net.cpp:169] Creating Layer inception_4e/output
I0327 08:44:04.037518 48775 net.cpp:606] inception_4e/output <- inception_4e/1x1
I0327 08:44:04.037528 48775 net.cpp:606] inception_4e/output <- inception_4e/3x3
I0327 08:44:04.037539 48775 net.cpp:606] inception_4e/output <- inception_4e/5x5
I0327 08:44:04.037549 48775 net.cpp:606] inception_4e/output <- inception_4e/pool_proj
I0327 08:44:04.037564 48775 net.cpp:579] inception_4e/output -> inception_4e/output
I0327 08:44:04.037573 48775 net.cpp:582] From AppendTop @cpu: 0
I0327 08:44:04.037591 48775 net.cpp:219] Setting up inception_4e/output
I0327 08:44:04.037602 48775 net.cpp:226] Top shape: 48 832 14 14 (7827456)
I0327 08:44:04.037611 48775 net.cpp:234] Memory required for data: 2545438472
I0327 08:44:04.037632 48775 net.cpp:154] Setting up Layer of device :0 @cpu 0 Layer : pool4/3x3_s2
I0327 08:44:04.037642 48775 layer_factory.hpp:114] Creating layer pool4/3x3_s2
I0327 08:44:04.037683 48775 net.cpp:169] Creating Layer pool4/3x3_s2
I0327 08:44:04.037693 48775 net.cpp:606] pool4/3x3_s2 <- inception_4e/output
I0327 08:44:04.037709 48775 net.cpp:579] pool4/3x3_s2 -> pool4/3x3_s2
I0327 08:44:04.037719 48775 net.cpp:582] From AppendTop @cpu: 0
I0327 08:44:04.037736 48775 net.cpp:219] Setting up pool4/3x3_s2
I0327 08:44:04.037748 48775 net.cpp:226] Top shape: 48 832 7 7 (1956864)
I0327 08:44:04.037756 48775 net.cpp:234] Memory required for data: 2553265928
I0327 08:44:04.037766 48775 net.cpp:154] Setting up Layer of device :0 @cpu 0 Layer : pool4/3x3_s2_pool4/3x3_s2_0_split
I0327 08:44:04.037775 48775 layer_factory.hpp:114] Creating layer pool4/3x3_s2_pool4/3x3_s2_0_split
I0327 08:44:04.037788 48775 net.cpp:169] Creating Layer pool4/3x3_s2_pool4/3x3_s2_0_split
I0327 08:44:04.037797 48775 net.cpp:606] pool4/3x3_s2_pool4/3x3_s2_0_split <- pool4/3x3_s2
I0327 08:44:04.037809 48775 net.cpp:579] pool4/3x3_s2_pool4/3x3_s2_0_split -> pool4/3x3_s2_pool4/3x3_s2_0_split_0
I0327 08:44:04.037817 48775 net.cpp:582] From AppendTop @cpu: 0
I0327 08:44:04.037832 48775 net.cpp:579] pool4/3x3_s2_pool4/3x3_s2_0_split -> pool4/3x3_s2_pool4/3x3_s2_0_split_1
I0327 08:44:04.037839 48775 net.cpp:582] From AppendTop @cpu: 0
I0327 08:44:04.037853 48775 net.cpp:579] pool4/3x3_s2_pool4/3x3_s2_0_split -> pool4/3x3_s2_pool4/3x3_s2_0_split_2
I0327 08:44:04.037861 48775 net.cpp:582] From AppendTop @cpu: 0
I0327 08:44:04.037889 48775 net.cpp:579] pool4/3x3_s2_pool4/3x3_s2_0_split -> pool4/3x3_s2_pool4/3x3_s2_0_split_3
I0327 08:44:04.037897 48775 net.cpp:582] From AppendTop @cpu: 0
I0327 08:44:04.037912 48775 net.cpp:219] Setting up pool4/3x3_s2_pool4/3x3_s2_0_split
I0327 08:44:04.037924 48775 net.cpp:226] Top shape: 48 832 7 7 (1956864)
I0327 08:44:04.037935 48775 net.cpp:226] Top shape: 48 832 7 7 (1956864)
I0327 08:44:04.037945 48775 net.cpp:226] Top shape: 48 832 7 7 (1956864)
I0327 08:44:04.037956 48775 net.cpp:226] Top shape: 48 832 7 7 (1956864)
I0327 08:44:04.037964 48775 net.cpp:234] Memory required for data: 2584575752
I0327 08:44:04.037974 48775 net.cpp:154] Setting up Layer of device :0 @cpu 0 Layer : inception_5a/1x1
I0327 08:44:04.037983 48775 layer_factory.hpp:114] Creating layer inception_5a/1x1
I0327 08:44:04.038004 48775 net.cpp:169] Creating Layer inception_5a/1x1
I0327 08:44:04.038014 48775 net.cpp:606] inception_5a/1x1 <- pool4/3x3_s2_pool4/3x3_s2_0_split_0
I0327 08:44:04.038035 48775 net.cpp:579] inception_5a/1x1 -> inception_5a/1x1
I0327 08:44:04.038044 48775 net.cpp:582] From AppendTop @cpu: 0
I0327 08:44:04.045903 48775 net.cpp:219] Setting up inception_5a/1x1
I0327 08:44:04.045971 48775 net.cpp:226] Top shape: 48 256 7 7 (602112)
I0327 08:44:04.045981 48775 net.cpp:234] Memory required for data: 2586984200
I0327 08:44:04.046006 48775 net.cpp:154] Setting up Layer of device :0 @cpu 0 Layer : inception_5a/relu_1x1
I0327 08:44:04.046022 48775 layer_factory.hpp:114] Creating layer inception_5a/relu_1x1
I0327 08:44:04.046043 48775 net.cpp:169] Creating Layer inception_5a/relu_1x1
I0327 08:44:04.046054 48775 net.cpp:606] inception_5a/relu_1x1 <- inception_5a/1x1
I0327 08:44:04.046070 48775 net.cpp:566] inception_5a/relu_1x1 -> inception_5a/1x1 (in-place)
I0327 08:44:04.046088 48775 net.cpp:219] Setting up inception_5a/relu_1x1
I0327 08:44:04.046099 48775 net.cpp:226] Top shape: 48 256 7 7 (602112)
I0327 08:44:04.046108 48775 net.cpp:234] Memory required for data: 2589392648
I0327 08:44:04.046118 48775 net.cpp:154] Setting up Layer of device :0 @cpu 0 Layer : inception_5a/3x3_reduce
I0327 08:44:04.046128 48775 layer_factory.hpp:114] Creating layer inception_5a/3x3_reduce
I0327 08:44:04.046149 48775 net.cpp:169] Creating Layer inception_5a/3x3_reduce
I0327 08:44:04.046160 48775 net.cpp:606] inception_5a/3x3_reduce <- pool4/3x3_s2_pool4/3x3_s2_0_split_1
I0327 08:44:04.046175 48775 net.cpp:579] inception_5a/3x3_reduce -> inception_5a/3x3_reduce
I0327 08:44:04.046200 48775 net.cpp:582] From AppendTop @cpu: 0
I0327 08:44:04.051157 48775 net.cpp:219] Setting up inception_5a/3x3_reduce
I0327 08:44:04.051208 48775 net.cpp:226] Top shape: 48 160 7 7 (376320)
I0327 08:44:04.051218 48775 net.cpp:234] Memory required for data: 2590897928
I0327 08:44:04.051240 48775 net.cpp:154] Setting up Layer of device :0 @cpu 0 Layer : inception_5a/relu_3x3_reduce
I0327 08:44:04.051250 48775 layer_factory.hpp:114] Creating layer inception_5a/relu_3x3_reduce
I0327 08:44:04.051266 48775 net.cpp:169] Creating Layer inception_5a/relu_3x3_reduce
I0327 08:44:04.051283 48775 net.cpp:606] inception_5a/relu_3x3_reduce <- inception_5a/3x3_reduce
I0327 08:44:04.051301 48775 net.cpp:566] inception_5a/relu_3x3_reduce -> inception_5a/3x3_reduce (in-place)
I0327 08:44:04.051318 48775 net.cpp:219] Setting up inception_5a/relu_3x3_reduce
I0327 08:44:04.051331 48775 net.cpp:226] Top shape: 48 160 7 7 (376320)
I0327 08:44:04.051338 48775 net.cpp:234] Memory required for data: 2592403208
I0327 08:44:04.051348 48775 net.cpp:154] Setting up Layer of device :0 @cpu 0 Layer : inception_5a/3x3
I0327 08:44:04.051357 48775 layer_factory.hpp:114] Creating layer inception_5a/3x3
I0327 08:44:04.051374 48775 net.cpp:169] Creating Layer inception_5a/3x3
I0327 08:44:04.051384 48775 net.cpp:606] inception_5a/3x3 <- inception_5a/3x3_reduce
I0327 08:44:04.051398 48775 net.cpp:579] inception_5a/3x3 -> inception_5a/3x3
I0327 08:44:04.051406 48775 net.cpp:582] From AppendTop @cpu: 0
I0327 08:44:04.065471 48775 net.cpp:219] Setting up inception_5a/3x3
I0327 08:44:04.065578 48775 net.cpp:226] Top shape: 48 320 7 7 (752640)
I0327 08:44:04.065588 48775 net.cpp:234] Memory required for data: 2595413768
I0327 08:44:04.065618 48775 net.cpp:154] Setting up Layer of device :0 @cpu 0 Layer : inception_5a/relu_3x3
I0327 08:44:04.065626 48775 layer_factory.hpp:114] Creating layer inception_5a/relu_3x3
I0327 08:44:04.065645 48775 net.cpp:169] Creating Layer inception_5a/relu_3x3
I0327 08:44:04.065659 48775 net.cpp:606] inception_5a/relu_3x3 <- inception_5a/3x3
I0327 08:44:04.065673 48775 net.cpp:566] inception_5a/relu_3x3 -> inception_5a/3x3 (in-place)
I0327 08:44:04.065692 48775 net.cpp:219] Setting up inception_5a/relu_3x3
I0327 08:44:04.065704 48775 net.cpp:226] Top shape: 48 320 7 7 (752640)
I0327 08:44:04.065712 48775 net.cpp:234] Memory required for data: 2598424328
I0327 08:44:04.065722 48775 net.cpp:154] Setting up Layer of device :0 @cpu 0 Layer : inception_5a/5x5_reduce
I0327 08:44:04.065732 48775 layer_factory.hpp:114] Creating layer inception_5a/5x5_reduce
I0327 08:44:04.065754 48775 net.cpp:169] Creating Layer inception_5a/5x5_reduce
I0327 08:44:04.065767 48775 net.cpp:606] inception_5a/5x5_reduce <- pool4/3x3_s2_pool4/3x3_s2_0_split_2
I0327 08:44:04.065780 48775 net.cpp:579] inception_5a/5x5_reduce -> inception_5a/5x5_reduce
I0327 08:44:04.065793 48775 net.cpp:582] From AppendTop @cpu: 0
I0327 08:44:04.067623 48775 net.cpp:219] Setting up inception_5a/5x5_reduce
I0327 08:44:04.067656 48775 net.cpp:226] Top shape: 48 32 7 7 (75264)
I0327 08:44:04.067665 48775 net.cpp:234] Memory required for data: 2598725384
I0327 08:44:04.067684 48775 net.cpp:154] Setting up Layer of device :0 @cpu 0 Layer : inception_5a/relu_5x5_reduce
I0327 08:44:04.067694 48775 layer_factory.hpp:114] Creating layer inception_5a/relu_5x5_reduce
I0327 08:44:04.067708 48775 net.cpp:169] Creating Layer inception_5a/relu_5x5_reduce
I0327 08:44:04.067718 48775 net.cpp:606] inception_5a/relu_5x5_reduce <- inception_5a/5x5_reduce
I0327 08:44:04.067731 48775 net.cpp:566] inception_5a/relu_5x5_reduce -> inception_5a/5x5_reduce (in-place)
I0327 08:44:04.067746 48775 net.cpp:219] Setting up inception_5a/relu_5x5_reduce
I0327 08:44:04.067759 48775 net.cpp:226] Top shape: 48 32 7 7 (75264)
I0327 08:44:04.067766 48775 net.cpp:234] Memory required for data: 2599026440
I0327 08:44:04.067776 48775 net.cpp:154] Setting up Layer of device :0 @cpu 0 Layer : inception_5a/5x5
I0327 08:44:04.067785 48775 layer_factory.hpp:114] Creating layer inception_5a/5x5
I0327 08:44:04.067814 48775 net.cpp:169] Creating Layer inception_5a/5x5
I0327 08:44:04.067824 48775 net.cpp:606] inception_5a/5x5 <- inception_5a/5x5_reduce
I0327 08:44:04.067840 48775 net.cpp:579] inception_5a/5x5 -> inception_5a/5x5
I0327 08:44:04.067850 48775 net.cpp:582] From AppendTop @cpu: 0
I0327 08:44:04.072404 48775 net.cpp:219] Setting up inception_5a/5x5
I0327 08:44:04.072450 48775 net.cpp:226] Top shape: 48 128 7 7 (301056)
I0327 08:44:04.072459 48775 net.cpp:234] Memory required for data: 2600230664
I0327 08:44:04.072479 48775 net.cpp:154] Setting up Layer of device :0 @cpu 0 Layer : inception_5a/relu_5x5
I0327 08:44:04.072489 48775 layer_factory.hpp:114] Creating layer inception_5a/relu_5x5
I0327 08:44:04.072509 48775 net.cpp:169] Creating Layer inception_5a/relu_5x5
I0327 08:44:04.072520 48775 net.cpp:606] inception_5a/relu_5x5 <- inception_5a/5x5
I0327 08:44:04.072533 48775 net.cpp:566] inception_5a/relu_5x5 -> inception_5a/5x5 (in-place)
I0327 08:44:04.072549 48775 net.cpp:219] Setting up inception_5a/relu_5x5
I0327 08:44:04.072561 48775 net.cpp:226] Top shape: 48 128 7 7 (301056)
I0327 08:44:04.072569 48775 net.cpp:234] Memory required for data: 2601434888
I0327 08:44:04.072579 48775 net.cpp:154] Setting up Layer of device :0 @cpu 0 Layer : inception_5a/pool
I0327 08:44:04.072588 48775 layer_factory.hpp:114] Creating layer inception_5a/pool
I0327 08:44:04.072633 48775 net.cpp:169] Creating Layer inception_5a/pool
I0327 08:44:04.072645 48775 net.cpp:606] inception_5a/pool <- pool4/3x3_s2_pool4/3x3_s2_0_split_3
I0327 08:44:04.072657 48775 net.cpp:579] inception_5a/pool -> inception_5a/pool
I0327 08:44:04.072688 48775 net.cpp:582] From AppendTop @cpu: 0
I0327 08:44:04.072707 48775 net.cpp:219] Setting up inception_5a/pool
I0327 08:44:04.072720 48775 net.cpp:226] Top shape: 48 832 7 7 (1956864)
I0327 08:44:04.072728 48775 net.cpp:234] Memory required for data: 2609262344
I0327 08:44:04.072738 48775 net.cpp:154] Setting up Layer of device :0 @cpu 0 Layer : inception_5a/pool_proj
I0327 08:44:04.072747 48775 layer_factory.hpp:114] Creating layer inception_5a/pool_proj
I0327 08:44:04.072767 48775 net.cpp:169] Creating Layer inception_5a/pool_proj
I0327 08:44:04.072777 48775 net.cpp:606] inception_5a/pool_proj <- inception_5a/pool
I0327 08:44:04.072793 48775 net.cpp:579] inception_5a/pool_proj -> inception_5a/pool_proj
I0327 08:44:04.072803 48775 net.cpp:582] From AppendTop @cpu: 0
I0327 08:44:04.077505 48775 net.cpp:219] Setting up inception_5a/pool_proj
I0327 08:44:04.077548 48775 net.cpp:226] Top shape: 48 128 7 7 (301056)
I0327 08:44:04.077558 48775 net.cpp:234] Memory required for data: 2610466568
I0327 08:44:04.077579 48775 net.cpp:154] Setting up Layer of device :0 @cpu 0 Layer : inception_5a/relu_pool_proj
I0327 08:44:04.077589 48775 layer_factory.hpp:114] Creating layer inception_5a/relu_pool_proj
I0327 08:44:04.077607 48775 net.cpp:169] Creating Layer inception_5a/relu_pool_proj
I0327 08:44:04.077620 48775 net.cpp:606] inception_5a/relu_pool_proj <- inception_5a/pool_proj
I0327 08:44:04.077633 48775 net.cpp:566] inception_5a/relu_pool_proj -> inception_5a/pool_proj (in-place)
I0327 08:44:04.077649 48775 net.cpp:219] Setting up inception_5a/relu_pool_proj
I0327 08:44:04.077661 48775 net.cpp:226] Top shape: 48 128 7 7 (301056)
I0327 08:44:04.077669 48775 net.cpp:234] Memory required for data: 2611670792
I0327 08:44:04.077679 48775 net.cpp:154] Setting up Layer of device :0 @cpu 0 Layer : inception_5a/output
I0327 08:44:04.077687 48775 layer_factory.hpp:114] Creating layer inception_5a/output
I0327 08:44:04.077699 48775 net.cpp:169] Creating Layer inception_5a/output
I0327 08:44:04.077709 48775 net.cpp:606] inception_5a/output <- inception_5a/1x1
I0327 08:44:04.077720 48775 net.cpp:606] inception_5a/output <- inception_5a/3x3
I0327 08:44:04.077731 48775 net.cpp:606] inception_5a/output <- inception_5a/5x5
I0327 08:44:04.077741 48775 net.cpp:606] inception_5a/output <- inception_5a/pool_proj
I0327 08:44:04.077754 48775 net.cpp:579] inception_5a/output -> inception_5a/output
I0327 08:44:04.077762 48775 net.cpp:582] From AppendTop @cpu: 0
I0327 08:44:04.077791 48775 net.cpp:219] Setting up inception_5a/output
I0327 08:44:04.077803 48775 net.cpp:226] Top shape: 48 832 7 7 (1956864)
I0327 08:44:04.077811 48775 net.cpp:234] Memory required for data: 2619498248
I0327 08:44:04.077821 48775 net.cpp:154] Setting up Layer of device :0 @cpu 0 Layer : inception_5a/output_inception_5a/output_0_split
I0327 08:44:04.077831 48775 layer_factory.hpp:114] Creating layer inception_5a/output_inception_5a/output_0_split
I0327 08:44:04.077842 48775 net.cpp:169] Creating Layer inception_5a/output_inception_5a/output_0_split
…
I0327 08:44:04.077898 48775 net.cpp:582] From AppendTop @cpu: 0
I0327 08:44:04.077913 48775 net.cpp:579] inception_5a/output_inception_5a/output_0_split -> inception_5a/output_inception_5a/output_0_split_2
I0327 08:44:04.077921 48775 net.cpp:582] From AppendTop @cpu: 0
I0327 08:44:04.077934 48775 net.cpp:579] inception_5a/output_inception_5a/output_0_split -> inception_5a/output_inception_5a/output_0_split_3
I0327 08:44:04.077944 48775 net.cpp:582] From AppendTop @cpu: 0
I0327 08:44:04.077958 48775 net.cpp:219] Setting up inception_5a/output_inception_5a/output_0_split
I0327 08:44:04.077983 48775 net.cpp:226] Top shape: 48 832 7 7 (1956864)
I0327 08:44:04.077994 48775 net.cpp:226] Top shape: 48 832 7 7 (1956864)
I0327 08:44:04.078006 48775 net.cpp:226] Top shape: 48 832 7 7 (1956864)
I0327 08:44:04.078021 48775 net.cpp:226] Top shape: 48 832 7 7 (1956864)
I0327 08:44:04.078032 48775 net.cpp:234] Memory required for data: 2650808072
I0327 08:44:04.078042 48775 net.cpp:154] Setting up Layer of device :0 @cpu 0 Layer : inception_5b/1x1
I0327 08:44:04.078049 48775 layer_factory.hpp:114] Creating layer inception_5b/1x1
I0327 08:44:04.078069 48775 net.cpp:169] Creating Layer inception_5b/1x1
I0327 08:44:04.078079 48775 net.cpp:606] inception_5b/1x1 <- inception_5a/output_inception_5a/output_0_split_0
I0327 08:44:04.078094 48775 net.cpp:579] inception_5b/1x1 -> inception_5b/1x1
I0327 08:44:04.078102 48775 net.cpp:582] From AppendTop @cpu: 0
I0327 08:44:04.088284 48775 net.cpp:219] Setting up inception_5b/1x1
I0327 08:44:04.088363 48775 net.cpp:226] Top shape: 48 384 7 7 (903168)
I0327 08:44:04.088372 48775 net.cpp:234] Memory required for data: 2654420744
I0327 08:44:04.088400 48775 net.cpp:154] Setting up Layer of device :0 @cpu 0 Layer : inception_5b/relu_1x1
I0327 08:44:04.088410 48775 layer_factory.hpp:114] Creating layer inception_5b/relu_1x1
I0327 08:44:04.088433 48775 net.cpp:169] Creating Layer inception_5b/relu_1x1
I0327 08:44:04.088448 48775 net.cpp:606] inception_5b/relu_1x1 <- inception_5b/1x1
I0327 08:44:04.088461 48775 net.cpp:566] inception_5b/relu_1x1 -> inception_5b/1x1 (in-place)
I0327 08:44:04.088480 48775 net.cpp:219] Setting up inception_5b/relu_1x1
I0327 08:44:04.088492 48775 net.cpp:226] Top shape: 48 384 7 7 (903168)
I0327 08:44:04.088500 48775 net.cpp:234] Memory required for data: 2658033416
I0327 08:44:04.088510 48775 net.cpp:154] Setting up Layer of device :0 @cpu 0 Layer : inception_5b/3x3_reduce
I0327 08:44:04.088520 48775 layer_factory.hpp:114] Creating layer inception_5b/3x3_reduce
I0327 08:44:04.088538 48775 net.cpp:169] Creating Layer inception_5b/3x3_reduce
I0327 08:44:04.088548 48775 net.cpp:606] inception_5b/3x3_reduce <- inception_5a/output_inception_5a/output_0_split_1
I0327 08:44:04.088565 48775 net.cpp:579] inception_5b/3x3_reduce -> inception_5b/3x3_reduce
I0327 08:44:04.088574 48775 net.cpp:582] From AppendTop @cpu: 0
I0327 08:44:04.095324 48775 net.cpp:219] Setting up inception_5b/3x3_reduce
I0327 08:44:04.095383 48775 net.cpp:226] Top shape: 48 192 7 7 (451584)
I0327 08:44:04.095410 48775 net.cpp:234] Memory required for data: 2659839752
I0327 08:44:04.095433 48775 net.cpp:154] Setting up Layer of device :0 @cpu 0 Layer : inception_5b/relu_3x3_reduce
I0327 08:44:04.095443 48775 layer_factory.hpp:114] Creating layer inception_5b/relu_3x3_reduce
I0327 08:44:04.095460 48775 net.cpp:169] Creating Layer inception_5b/relu_3x3_reduce
I0327 08:44:04.095473 48775 net.cpp:606] inception_5b/relu_3x3_reduce <- inception_5b/3x3_reduce
I0327 08:44:04.095486 48775 net.cpp:566] inception_5b/relu_3x3_reduce -> inception_5b/3x3_reduce (in-place)
I0327 08:44:04.095504 48775 net.cpp:219] Setting up inception_5b/relu_3x3_reduce
I0327 08:44:04.095515 48775 net.cpp:226] Top shape: 48 192 7 7 (451584)
I0327 08:44:04.095523 48775 net.cpp:234] Memory required for data: 2661646088
I0327 08:44:04.095533 48775 net.cpp:154] Setting up Layer of device :0 @cpu 0 Layer : inception_5b/3x3
I0327 08:44:04.095542 48775 layer_factory.hpp:114] Creating layer inception_5b/3x3
I0327 08:44:04.095562 48775 net.cpp:169] Creating Layer inception_5b/3x3
I0327 08:44:04.095573 48775 net.cpp:606] inception_5b/3x3 <- inception_5b/3x3_reduce
I0327 08:44:04.095587 48775 net.cpp:579] inception_5b/3x3 -> inception_5b/3x3
I0327 08:44:04.095595 48775 net.cpp:582] From AppendTop @cpu: 0
I0327 08:44:04.116044 48775 net.cpp:219] Setting up inception_5b/3x3
I0327 08:44:04.116127 48775 net.cpp:226] Top shape: 48 384 7 7 (903168)
I0327 08:44:04.116137 48775 net.cpp:234] Memory required for data: 2665258760
I0327 08:44:04.116164 48775 net.cpp:154] Setting up Layer of device :0 @cpu 0 Layer : inception_5b/relu_3x3
I0327 08:44:04.116202 48775 layer_factory.hpp:114] Creating layer inception_5b/relu_3x3
I0327 08:44:04.116231 48775 net.cpp:169] Creating Layer inception_5b/relu_3x3
…
I0327 08:44:04.630187 48775 net.cpp:226] Top shape: 50 64 14 14 (627200)
I0327 08:44:04.630198 48775 net.cpp:234] Memory required for data: 2363400412
I0327 08:44:04.630228 48775 net.cpp:154] Setting up Layer of device :0 @cpu 0 Layer : inception_4d/relu_5x5
I0327 08:44:04.630237 48775 layer_factory.hpp:114] Creating layer inception_4d/relu_5x5
I0327 08:44:04.630254 48775 net.cpp:169] Creating Layer inception_4d/relu_5x5
I0327 08:44:04.630266 48775 net.cpp:606] inception_4d/relu_5x5 <- inception_4d/5x5
I0327 08:44:04.630280 48775 net.cpp:566] inception_4d/relu_5x5 -> inception_4d/5x5 (in-place)
I0327 08:44:04.630297 48775 net.cpp:219] Setting up inception_4d/relu_5x5
I0327 08:44:04.630309 48775 net.cpp:226] Top shape: 50 64 14 14 (627200)
I0327 08:44:04.630317 48775 net.cpp:234] Memory required for data: 2365909212
I0327 08:44:04.630327 48775 net.cpp:154] Setting up Layer of device :0 @cpu 0 Layer : inception_4d/pool
I0327 08:44:04.630336 48775 layer_factory.hpp:114] Creating layer inception_4d/pool
I0327 08:44:04.630388 48775 net.cpp:169] Creating Layer inception_4d/pool
I0327 08:44:04.630400 48775 net.cpp:606] inception_4d/pool <- inception_4c/output_inception_4c/output_0_split_3
I0327 08:44:04.630414 48775 net.cpp:579] inception_4d/pool -> inception_4d/pool
I0327 08:44:04.630422 48775 net.cpp:582] From AppendTop @cpu: 0
I0327 08:44:04.630442 48775 net.cpp:219] Setting up inception_4d/pool
I0327 08:44:04.630456 48775 net.cpp:226] Top shape: 50 512 14 14 (5017600)
I0327 08:44:04.630465 48775 net.cpp:234] Memory required for data: 2385979612
I0327 08:44:04.630475 48775 net.cpp:154] Setting up Layer of device :0 @cpu 0 Layer : inception_4d/pool_proj
I0327 08:44:04.630484 48775 layer_factory.hpp:114] Creating layer inception_4d/pool_proj
I0327 08:44:04.630502 48775 net.cpp:169] Creating Layer inception_4d/pool_proj
I0327 08:44:04.630511 48775 net.cpp:606] inception_4d/pool_proj <- inception_4d/pool
I0327 08:44:04.630533 48775 net.cpp:579] inception_4d/pool_proj -> inception_4d/pool_proj
I0327 08:44:04.630558 48775 net.cpp:582] From AppendTop @cpu: 0
I0327 08:44:04.633594 48775 net.cpp:219] Setting up inception_4d/pool_proj
I0327 08:44:04.633632 48775 net.cpp:226] Top shape: 50 64 14 14 (627200)
I0327 08:44:04.633641 48775 net.cpp:234] Memory required for data: 2388488412
I0327 08:44:04.633662 48775 net.cpp:154] Setting up Layer of device :0 @cpu 0 Layer : inception_4d/relu_pool_proj
I0327 08:44:04.633672 48775 layer_factory.hpp:114] Creating layer inception_4d/relu_pool_proj
I0327 08:44:04.633687 48775 net.cpp:169] Creating Layer inception_4d/relu_pool_proj
I0327 08:44:04.633698 48775 net.cpp:606] inception_4d/relu_pool_proj <- inception_4d/pool_proj
I0327 08:44:04.633715 48775 net.cpp:566] inception_4d/relu_pool_proj -> inception_4d/pool_proj (in-place)
I0327 08:44:04.633733 48775 net.cpp:219] Setting up inception_4d/relu_pool_proj
I0327 08:44:04.633744 48775 net.cpp:226] Top shape: 50 64 14 14 (627200)
I0327 08:44:04.633752 48775 net.cpp:234] Memory required for data: 2390997212
I0327 08:44:04.633761 48775 net.cpp:154] Setting up Layer of device :0 @cpu 0 Layer : inception_4d/output
I0327 08:44:04.633770 48775 layer_factory.hpp:114] Creating layer inception_4d/output
I0327 08:44:04.633783 48775 net.cpp:169] Creating Layer inception_4d/output
I0327 08:44:04.633793 48775 net.cpp:606] inception_4d/output <- inception_4d/1x1
I0327 08:44:04.633805 48775 net.cpp:606] inception_4d/output <- inception_4d/3x3
I0327 08:44:04.633815 48775 net.cpp:606] inception_4d/output <- inception_4d/5x5
I0327 08:44:04.633826 48775 net.cpp:606] inception_4d/output <- inception_4d/pool_proj
I0327 08:44:04.633860 48775 net.cpp:579] inception_4d/output -> inception_4d/output
I0327 08:44:04.633870 48775 net.cpp:582] From AppendTop @cpu: 0
I0327 08:44:04.633886 48775 net.cpp:219] Setting up inception_4d/output
I0327 08:44:04.633898 48775 net.cpp:226] Top shape: 50 528 14 14 (5174400)
I0327 08:44:04.633906 48775 net.cpp:234] Memory required for data: 2411694812
I0327 08:44:04.633916 48775 net.cpp:154] Setting up Layer of device :0 @cpu 0 Layer : inception_4d/output_inception_4d/output_0_split
I0327 08:44:04.633925 48775 layer_factory.hpp:114] Creating layer inception_4d/output_inception_4d/output_0_split
I0327 08:44:04.633939 48775 net.cpp:169] Creating Layer inception_4d/output_inception_4d/output_0_split
…
I0327 08:44:04.634023 48775 net.cpp:582] From AppendTop @cpu: 0
I0327 08:44:04.634040 48775 net.cpp:579] inception_4d/output_inception_4d/output_0_split -> inception_4d/output_inception_4d/output_0_split_3
I0327 08:44:04.634048 48775 net.cpp:582] From AppendTop @cpu: 0
I0327 08:44:04.634061 48775 net.cpp:579] inception_4d/output_inception_4d/output_0_split -> inception_4d/output_inception_4d/output_0_split_4
I0327 08:44:04.634070 48775 net.cpp:582] From AppendTop @cpu: 0
I0327 08:44:04.634086 48775 net.cpp:219] Setting up inception_4d/output_inception_4d/output_0_split
I0327 08:44:04.634101 48775 net.cpp:226] Top shape: 50 528 14 14 (5174400)
I0327 08:44:04.634112 48775 net.cpp:226] Top shape: 50 528 14 14 (5174400)
I0327 08:44:04.634124 48775 net.cpp:226] Top shape: 50 528 14 14 (5174400)
I0327 08:44:04.634135 48775 net.cpp:226] Top shape: 50 528 14 14 (5174400)
I0327 08:44:04.634145 48775 net.cpp:226] Top shape: 50 528 14 14 (5174400)
I0327 08:44:04.634152 48775 net.cpp:234] Memory required for data: 2515182812
I0327 08:44:04.634162 48775 net.cpp:154] Setting up Layer of device :0 @cpu 0 Layer : loss2/ave_pool
I0327 08:44:04.634177 48775 layer_factory.hpp:114] Creating layer loss2/ave_pool
I0327 08:44:04.634223 48775 net.cpp:169] Creating Layer loss2/ave_pool
I0327 08:44:04.634234 48775 net.cpp:606] loss2/ave_pool <- inception_4d/output_inception_4d/output_0_split_0
I0327 08:44:04.634248 48775 net.cpp:579] loss2/ave_pool -> loss2/ave_pool
I0327 08:44:04.634260 48775 net.cpp:582] From AppendTop @cpu: 0
I0327 08:44:04.634276 48775 net.cpp:219] Setting up loss2/ave_pool
I0327 08:44:04.634289 48775 net.cpp:226] Top shape: 50 528 4 4 (422400)
I0327 08:44:04.634297 48775 net.cpp:234] Memory required for data: 2516872412
I0327 08:44:04.634307 48775 net.cpp:154] Setting up Layer of device :0 @cpu 0 Layer : loss2/conv
I0327 08:44:04.634315 48775 layer_factory.hpp:114] Creating layer loss2/conv
I0327 08:44:04.634335 48775 net.cpp:169] Creating Layer loss2/conv
I0327 08:44:04.634346 48775 net.cpp:606] loss2/conv <- loss2/ave_pool
I0327 08:44:04.634359 48775 net.cpp:579] loss2/conv -> loss2/conv
I0327 08:44:04.634368 48775 net.cpp:582] From AppendTop @cpu: 0
I0327 08:44:04.636929 48775 net.cpp:219] Setting up loss2/conv
I0327 08:44:04.636961 48775 net.cpp:226] Top shape: 50 128 4 4 (102400)
I0327 08:44:04.636970 48775 net.cpp:234] Memory required for data: 2517282012
I0327 08:44:04.636991 48775 net.cpp:154] Setting up Layer of device :0 @cpu 0 Layer : loss2/relu_conv
I0327 08:44:04.636999 48775 layer_factory.hpp:114] Creating layer loss2/relu_conv
I0327 08:44:04.637024 48775 net.cpp:169] Creating Layer loss2/relu_conv
I0327 08:44:04.637053 48775 net.cpp:606] loss2/relu_conv <- loss2/conv
I0327 08:44:04.637070 48775 net.cpp:566] loss2/relu_conv -> loss2/conv (in-place)
I0327 08:44:04.637085 48775 net.cpp:219] Setting up loss2/relu_conv
I0327 08:44:04.637097 48775 net.cpp:226] Top shape: 50 128 4 4 (102400)
I0327 08:44:04.637105 48775 net.cpp:234] Memory required for data: 2517691612
I0327 08:44:04.637116 48775 net.cpp:154] Setting up Layer of device :0 @cpu 0 Layer : loss2/fc
I0327 08:44:04.637125 48775 layer_factory.hpp:114] Creating layer loss2/fc
I0327 08:44:04.637141 48775 net.cpp:169] Creating Layer loss2/fc
I0327 08:44:04.637151 48775 net.cpp:606] loss2/fc <- loss2/conv
I0327 08:44:04.637167 48775 net.cpp:579] loss2/fc -> loss2/fc
I0327 08:44:04.637176 48775 net.cpp:582] From AppendTop @cpu: 0
I0327 08:44:04.671953 48775 net.cpp:219] Setting up loss2/fc
I0327 08:44:04.672032 48775 net.cpp:226] Top shape: 50 1024 (51200)
I0327 08:44:04.672044 48775 net.cpp:234] Memory required for data: 2517896412
I0327 08:44:04.672065 48775 net.cpp:154] Setting up Layer of device :0 @cpu 0 Layer : loss2/relu_fc
I0327 08:44:04.672075 48775 layer_factory.hpp:114] Creating layer loss2/relu_fc
I0327 08:44:04.672093 48775 net.cpp:169] Creating Layer loss2/relu_fc
I0327 08:44:04.672106 48775 net.cpp:606] loss2/relu_fc <- loss2/fc
I0327 08:44:04.672122 48775 net.cpp:566] loss2/relu_fc -> loss2/fc (in-place)
I0327 08:44:04.672138 48775 net.cpp:219] Setting up loss2/relu_fc
I0327 08:44:04.672149 48775 net.cpp:226] Top shape: 50 1024 (51200)
I0327 08:44:04.672158 48775 net.cpp:234] Memory required for data: 2518101212
I0327 08:44:04.672168 48775 net.cpp:154] Setting up Layer of device :0 @cpu 0 Layer : loss2/drop_fc
I0327 08:44:04.672176 48775 layer_factory.hpp:114] Creating layer loss2/drop_fc
I0327 08:44:04.672190 48775 net.cpp:169] Creating Layer loss2/drop_fc
I0327 08:44:04.672204 48775 net.cpp:606] loss2/drop_fc <- loss2/fc
I0327 08:44:04.672219 48775 net.cpp:566] loss2/drop_fc -> loss2/fc (in-place)
I0327 08:44:04.672235 48775 net.cpp:219] Setting up loss2/drop_fc
I0327 08:44:04.672245 48775 net.cpp:226] Top shape: 50 1024 (51200)
I0327 08:44:04.672253 48775 net.cpp:234] Memory required for data: 2518306012
I0327 08:44:04.672263 48775 net.cpp:154] Setting up Layer of device :0 @cpu 0 Layer : loss2/classifier
I0327 08:44:04.672272 48775 layer_factory.hpp:114] Creating layer loss2/classifier
I0327 08:44:04.672288 48775 net.cpp:169] Creating Layer loss2/classifier
I0327 08:44:04.672297 48775 net.cpp:606] loss2/classifier <- loss2/fc
I0327 08:44:04.672329 48775 net.cpp:579] loss2/classifier -> loss2/classifier
I0327 08:44:04.672338 48775 net.cpp:582] From AppendTop @cpu: 0
I0327 08:44:04.689529 48775 net.cpp:219] Setting up loss2/classifier
I0327 08:44:04.689579 48775 net.cpp:226] Top shape: 50 1000 (50000)
I0327 08:44:04.689587 48775 net.cpp:234] Memory required for data: 2518506012
I0327 08:44:04.689606 48775 net.cpp:154] Setting up Layer of device :0 @cpu 0 Layer : loss2/classifier_loss2/classifier_0_split
I0327 08:44:04.689616 48775 layer_factory.hpp:114] Creating layer loss2/classifier_loss2/classifier_0_split
I0327 08:44:04.689633 48775 net.cpp:169] Creating Layer loss2/classifier_loss2/classifier_0_split
I0327 08:44:04.689646 48775 net.cpp:606] loss2/classifier_loss2/classifier_0_split <- loss2/classifier
I0327 08:44:04.689661 48775 net.cpp:579] loss2/classifier_loss2/classifier_0_split -> loss2/classifier_loss2/classifier_0_split_0
I0327 08:44:04.689668 48775 net.cpp:582] From AppendTop @cpu: 0
I0327 08:44:04.689685 48775 net.cpp:579] loss2/classifier_loss2/classifier_0_split -> loss2/classifier_loss2/classifier_0_split_1
I0327 08:44:04.689694 48775 net.cpp:582] From AppendTop @cpu: 0
I0327 08:44:04.689708 48775 net.cpp:579] loss2/classifier_loss2/classifier_0_split -> loss2/classifier_loss2/classifier_0_split_2
I0327 08:44:04.689716 48775 net.cpp:582] From AppendTop @cpu: 0
I0327 08:44:04.689731 48775 net.cpp:219] Setting up loss2/classifier_loss2/classifier_0_split
I0327 08:44:04.689743 48775 net.cpp:226] Top shape: 50 1000 (50000)
I0327 08:44:04.689754 48775 net.cpp:226] Top shape: 50 1000 (50000)
I0327 08:44:04.689790 48775 net.cpp:226] Top shape: 50 1000 (50000)
I0327 08:44:04.689798 48775 net.cpp:234] Memory required for data: 2519106012
I0327 08:44:04.689808 48775 net.cpp:154] Setting up Layer of device :0 @cpu 0 Layer : loss2/loss
I0327 08:44:04.689817 48775 layer_factory.hpp:114] Creating layer loss2/loss
I0327 08:44:04.689831 48775 net.cpp:169] Creating Layer loss2/loss
I0327 08:44:04.689842 48775 net.cpp:606] loss2/loss <- loss2/classifier_loss2/classifier_0_split_0
…
I0327 08:44:04.690433 48775 net.cpp:154] Setting up Layer of device :0 @cpu 0 Layer : inception_4e/1x1
I0327 08:44:04.690443 48775 layer_factory.hpp:114] Creating layer inception_4e/1x1
I0327 08:44:04.690464 48775 net.cpp:169] Creating Layer inception_4e/1x1
I0327 08:44:04.690474 48775 net.cpp:606] inception_4e/1x1 <- inception_4d/output_inception_4d/output_0_split_1
I0327 08:44:04.690488 48775 net.cpp:579] inception_4e/1x1 -> inception_4e/1x1
I0327 08:44:04.690496 48775 net.cpp:582] From AppendTop @cpu: 0
I0327 08:44:04.696449 48775 net.cpp:219] Setting up inception_4e/1x1
I0327 08:44:04.696509 48775 net.cpp:226] Top shape: 50 256 14 14 (2508800)
I0327 08:44:04.696518 48775 net.cpp:234] Memory required for data: 2529141224
I0327 08:44:04.696543 48775 net.cpp:154] Setting up Layer of device :0 @cpu 0 Layer : inception_4e/relu_1x1
I0327 08:44:04.696552 48775 layer_factory.hpp:114] Creating layer inception_4e/relu_1x1
I0327 08:44:04.696573 48775 net.cpp:169] Creating Layer inception_4e/relu_1x1
I0327 08:44:04.696585 48775 net.cpp:606] inception_4e/relu_1x1 <- inception_4e/1x1
I0327 08:44:04.696599 48775 net.cpp:566] inception_4e/relu_1x1 -> inception_4e/1x1 (in-place)
I0327 08:44:04.696616 48775 net.cpp:219] Setting up inception_4e/relu_1x1
I0327 08:44:04.696629 48775 net.cpp:226] Top shape: 50 256 14 14 (2508800)
I0327 08:44:04.696636 48775 net.cpp:234] Memory required for data: 2539176424
I0327 08:44:04.696647 48775 net.cpp:154] Setting up Layer of device :0 @cpu 0 Layer : inception_4e/3x3_reduce
I0327 08:44:04.696679 48775 layer_factory.hpp:114] Creating layer inception_4e/3x3_reduce
I0327 08:44:04.696710 48775 net.cpp:169] Creating Layer inception_4e/3x3_reduce
I0327 08:44:04.696722 48775 net.cpp:606] inception_4e/3x3_reduce <- inception_4d/output_inception_4d/output_0_split_2
I0327 08:44:04.696737 48775 net.cpp:579] inception_4e/3x3_reduce -> inception_4e/3x3_reduce
I0327 08:44:04.696745 48775 net.cpp:582] From AppendTop @cpu: 0
I0327 08:44:04.701535 48775 net.cpp:219] Setting up inception_4e/3x3_reduce
I0327 08:44:04.701586 48775 net.cpp:226] Top shape: 50 160 14 14 (1568000)
I0327 08:44:04.701594 48775 net.cpp:234] Memory required for data: 2545448424
I0327 08:44:04.701619 48775 net.cpp:154] Setting up Layer of device :0 @cpu 0 Layer : inception_4e/relu_3x3_reduce
I0327 08:44:04.701629 48775 layer_factory.hpp:114] Creating layer inception_4e/relu_3x3_reduce
I0327 08:44:04.701644 48775 net.cpp:169] Creating Layer inception_4e/relu_3x3_reduce
I0327 08:44:04.701656 48775 net.cpp:606] inception_4e/relu_3x3_reduce <- inception_4e/3x3_reduce
I0327 08:44:04.701673 48775 net.cpp:566] inception_4e/relu_3x3_reduce -> inception_4e/3x3_reduce (in-place)
I0327 08:44:04.701691 48775 net.cpp:219] Setting up inception_4e/relu_3x3_reduce
I0327 08:44:04.701704 48775 net.cpp:226] Top shape: 50 160 14 14 (1568000)
I0327 08:44:04.701711 48775 net.cpp:234] Memory required for data: 2551720424
I0327 08:44:04.701721 48775 net.cpp:154] Setting up Layer of device :0 @cpu 0 Layer : inception_4e/3x3
I0327 08:44:04.701730 48775 layer_factory.hpp:114] Creating layer inception_4e/3x3
I0327 08:44:04.701747 48775 net.cpp:169] Creating Layer inception_4e/3x3
I0327 08:44:04.701757 48775 net.cpp:606] inception_4e/3x3 <- inception_4e/3x3_reduce
I0327 08:44:04.701771 48775 net.cpp:579] inception_4e/3x3 -> inception_4e/3x3
I0327 08:44:04.701779 48775 net.cpp:582] From AppendTop @cpu: 0
I0327 08:44:04.719076 48775 net.cpp:219] Setting up inception_4e/3x3
I0327 08:44:04.719154 48775 net.cpp:226] Top shape: 50 320 14 14 (3136000)
I0327 08:44:04.719163 48775 net.cpp:234] Memory required for data: 2564264424
I0327 08:44:04.719192 48775 net.cpp:154] Setting up Layer of device :0 @cpu 0 Layer : inception_4e/relu_3x3
I0327 08:44:04.719207 48775 layer_factory.hpp:114] Creating layer inception_4e/relu_3x3
I0327 08:44:04.719233 48775 net.cpp:169] Creating Layer inception_4e/relu_3x3
I0327 08:44:04.719247 48775 net.cpp:606] inception_4e/relu_3x3 <- inception_4e/3x3
I0327 08:44:04.719262 48775 net.cpp:566] inception_4e/relu_3x3 -> inception_4e/3x3 (in-place)
I0327 08:44:04.719298 48775 net.cpp:219] Setting up inception_4e/relu_3x3
I0327 08:44:04.719310 48775 net.cpp:226] Top shape: 50 320 14 14 (3136000)
I0327 08:44:04.719318 48775 net.cpp:234] Memory required for data: 2576808424
I0327 08:44:04.719329 48775 net.cpp:154] Setting up Layer of device :0 @cpu 0 Layer : inception_4e/5x5_reduce
I0327 08:44:04.719338 48775 layer_factory.hpp:114] Creating layer inception_4e/5x5_reduce
I0327 08:44:04.719360 48775 net.cpp:169] Creating Layer inception_4e/5x5_reduce
I0327 08:44:04.719372 48775 net.cpp:606] inception_4e/5x5_reduce <- inception_4d/output_inception_4d/output_0_split_3
I0327 08:44:04.719386 48775 net.cpp:579] inception_4e/5x5_reduce -> inception_4e/5x5_reduce
I0327 08:44:04.719395 48775 net.cpp:582] From AppendTop @cpu: 0
I0327 08:44:04.721298 48775 net.cpp:219] Setting up inception_4e/5x5_reduce
I0327 08:44:04.721335 48775 net.cpp:226] Top shape: 50 32 14 14 (313600)
I0327 08:44:04.721344 48775 net.cpp:234] Memory required for data: 2578062824
I0327 08:44:04.721364 48775 net.cpp:154] Setting up Layer of device :0 @cpu 0 Layer : inception_4e/relu_5x5_reduce
I0327 08:44:04.721374 48775 layer_factory.hpp:114] Creating layer inception_4e/relu_5x5_reduce
I0327 08:44:04.721392 48775 net.cpp:169] Creating Layer inception_4e/relu_5x5_reduce
I0327 08:44:04.721403 48775 net.cpp:606] inception_4e/relu_5x5_reduce <- inception_4e/5x5_reduce
I0327 08:44:04.721416 48775 net.cpp:566] inception_4e/relu_5x5_reduce -> inception_4e/5x5_reduce (in-place)
I0327 08:44:04.721453 48775 net.cpp:219] Setting up inception_4e/relu_5x5_reduce
I0327 08:44:04.721465 48775 net.cpp:226] Top shape: 50 32 14 14 (313600)
I0327 08:44:04.721473 48775 net.cpp:234] Memory required for data: 2579317224
I0327 08:44:04.721483 48775 net.cpp:154] Setting up Layer of device :0 @cpu 0 Layer : inception_4e/5x5
I0327 08:44:04.721493 48775 layer_factory.hpp:114] Creating layer inception_4e/5x5
I0327 08:44:04.721513 48775 net.cpp:169] Creating Layer inception_4e/5x5
I0327 08:44:04.721523 48775 net.cpp:606] inception_4e/5x5 <- inception_4e/5x5_reduce
I0327 08:44:04.721539 48775 net.cpp:579] inception_4e/5x5 -> inception_4e/5x5
I0327 08:44:04.721547 48775 net.cpp:582] From AppendTop @cpu: 0
I0327 08:44:04.727257 48775 net.cpp:219] Setting up inception_4e/5x5
I0327 08:44:04.727325 48775 net.cpp:226] Top shape: 50 128 14 14 (1254400)
I0327 08:44:04.727334 48775 net.cpp:234] Memory required for data: 2584334824
I0327 08:44:04.727360 48775 net.cpp:154] Setting up Layer of device :0 @cpu 0 Layer : inception_4e/relu_5x5
I0327 08:44:04.727370 48775 layer_factory.hpp:114] Creating layer inception_4e/relu_5x5
I0327 08:44:04.727391 48775 net.cpp:169] Creating Layer inception_4e/relu_5x5
I0327 08:44:04.727402 48775 net.cpp:606] inception_4e/relu_5x5 <- inception_4e/5x5
I0327 08:44:04.727416 48775 net.cpp:566] inception_4e/relu_5x5 -> inception_4e/5x5 (in-place)
I0327 08:44:04.727435 48775 net.cpp:219] Setting up inception_4e/relu_5x5
I0327 08:44:04.727447 48775 net.cpp:226] Top shape: 50 128 14 14 (1254400)
I0327 08:44:04.727454 48775 net.cpp:234] Memory required for data: 2589352424
I0327 08:44:04.727464 48775 net.cpp:154] Setting up Layer of device :0 @cpu 0 Layer : inception_4e/pool
I0327 08:44:04.727473 48775 layer_factory.hpp:114] Creating layer inception_4e/pool
I0327 08:44:04.727527 48775 net.cpp:169] Creating Layer inception_4e/pool
I0327 08:44:04.727540 48775 net.cpp:606] inception_4e/pool <- inception_4d/output_inception_4d/output_0_split_4
I0327 08:44:04.727553 48775 net.cpp:579] inception_4e/pool -> inception_4e/pool
I0327 08:44:04.727562 48775 net.cpp:582] From AppendTop @cpu: 0
I0327 08:44:04.727581 48775 net.cpp:219] Setting up inception_4e/pool
I0327 08:44:04.727593 48775 net.cpp:226] Top shape: 50 528 14 14 (5174400)
I0327 08:44:04.727602 48775 net.cpp:234] Memory required for data: 2610050024
I0327 08:44:04.727612 48775 net.cpp:154] Setting up Layer of device :0 @cpu 0 Layer : inception_4e/pool_proj
I0327 08:44:04.727620 48775 layer_factory.hpp:114] Creating layer inception_4e/pool_proj
I0327 08:44:04.727658 48775 net.cpp:169] Creating Layer inception_4e/pool_proj
I0327 08:44:04.727669 48775 net.cpp:606] inception_4e/pool_proj <- inception_4e/pool
I0327 08:44:04.727685 48775 net.cpp:579] inception_4e/pool_proj -> inception_4e/pool_proj
I0327 08:44:04.727694 48775 net.cpp:582] From AppendTop @cpu: 0
I0327 08:44:04.732089 48775 net.cpp:219] Setting up inception_4e/pool_proj
I0327 08:44:04.732137 48775 net.cpp:226] Top shape: 50 128 14 14 (1254400)
I0327 08:44:04.732146 48775 net.cpp:234] Memory required for data: 2615067624
I0327 08:44:04.732168 48775 net.cpp:154] Setting up Layer of device :0 @cpu 0 Layer : inception_4e/relu_pool_proj
I0327 08:44:04.732178 48775 layer_factory.hpp:114] Creating layer inception_4e/relu_pool_proj
I0327 08:44:04.732197 48775 net.cpp:169] Creating Layer inception_4e/relu_pool_proj
I0327 08:44:04.732214 48775 net.cpp:606] inception_4e/relu_pool_proj <- inception_4e/pool_proj
I0327 08:44:04.732228 48775 net.cpp:566] inception_4e/relu_pool_proj -> inception_4e/pool_proj (in-place)
I0327 08:44:04.732244 48775 net.cpp:219] Setting up inception_4e/relu_pool_proj
I0327 08:44:04.732255 48775 net.cpp:226] Top shape: 50 128 14 14 (1254400)
I0327 08:44:04.732264 48775 net.cpp:234] Memory required for data: 2620085224
I0327 08:44:04.732273 48775 net.cpp:154] Setting up Layer of device :0 @cpu 0 Layer : inception_4e/output
I0327 08:44:04.732282 48775 layer_factory.hpp:114] Creating layer inception_4e/output
I0327 08:44:04.732295 48775 net.cpp:169] Creating Layer inception_4e/output
I0327 08:44:04.732326 48775 net.cpp:606] inception_4e/output <- inception_4e/1x1
I0327 08:44:04.732338 48775 net.cpp:606] inception_4e/output <- inception_4e/3x3
I0327 08:44:04.732349 48775 net.cpp:606] inception_4e/output <- inception_4e/5x5
I0327 08:44:04.732360 48775 net.cpp:606] inception_4e/output <- inception_4e/pool_proj
I0327 08:44:04.732372 48775 net.cpp:579] inception_4e/output -> inception_4e/output
I0327 08:44:04.732381 48775 net.cpp:582] From AppendTop @cpu: 0
I0327 08:44:04.732398 48775 net.cpp:219] Setting up inception_4e/output
I0327 08:44:04.732410 48775 net.cpp:226] Top shape: 50 832 14 14 (8153600)
I0327 08:44:04.732419 48775 net.cpp:234] Memory required for data: 2652699624
I0327 08:44:04.732429 48775 net.cpp:154] Setting up Layer of device :0 @cpu 0 Layer : pool4/3x3_s2
I0327 08:44:04.732437 48775 layer_factory.hpp:114] Creating layer pool4/3x3_s2
I0327 08:44:04.732480 48775 net.cpp:169] Creating Layer pool4/3x3_s2
I0327 08:44:04.732491 48775 net.cpp:606] pool4/3x3_s2 <- inception_4e/output
I0327 08:44:04.732503 48775 net.cpp:579] pool4/3x3_s2 -> pool4/3x3_s2
I0327 08:44:04.732512 48775 net.cpp:582] From AppendTop @cpu: 0
I0327 08:44:04.732529 48775 net.cpp:219] Setting up pool4/3x3_s2
I0327 08:44:04.732542 48775 net.cpp:226] Top shape: 50 832 7 7 (2038400)
I0327 08:44:04.732550 48775 net.cpp:234] Memory required for data: 2660853224
I0327 08:44:04.732560 48775 net.cpp:154] Setting up Layer of device :0 @cpu 0 Layer : pool4/3x3_s2_pool4/3x3_s2_0_split
I0327 08:44:04.732569 48775 layer_factory.hpp:114] Creating layer pool4/3x3_s2_pool4/3x3_s2_0_split
I0327 08:44:04.732581 48775 net.cpp:169] Creating Layer pool4/3x3_s2_pool4/3x3_s2_0_split
I0327 08:44:04.732590 48775 net.cpp:606] pool4/3x3_s2_pool4/3x3_s2_0_split <- pool4/3x3_s2
I0327 08:44:04.732602 48775 net.cpp:579] pool4/3x3_s2_pool4/3x3_s2_0_split -> pool4/3x3_s2_pool4/3x3_s2_0_split_0
I0327 08:44:04.732610 48775 net.cpp:582] From AppendTop @cpu: 0
I0327 08:44:04.732625 48775 net.cpp:579] pool4/3x3_s2_pool4/3x3_s2_0_split -> pool4/3x3_s2_pool4/3x3_s2_0_split_1
I0327 08:44:04.732632 48775 net.cpp:582] From AppendTop @cpu: 0
I0327 08:44:04.732650 48775 net.cpp:579] pool4/3x3_s2_pool4/3x3_s2_0_split -> pool4/3x3_s2_pool4/3x3_s2_0_split_2
I0327 08:44:04.732658 48775 net.cpp:582] From AppendTop @cpu: 0
I0327 08:44:04.732678 48775 net.cpp:579] pool4/3x3_s2_pool4/3x3_s2_0_split -> pool4/3x3_s2_pool4/3x3_s2_0_split_3
I0327 08:44:04.732687 48775 net.cpp:582] From AppendTop @cpu: 0
I0327 08:44:04.732702 48775 net.cpp:219] Setting up pool4/3x3_s2_pool4/3x3_s2_0_split
I0327 08:44:04.732722 48775 net.cpp:226] Top shape: 50 832 7 7 (2038400)
I0327 08:44:04.732733 48775 net.cpp:226] Top shape: 50 832 7 7 (2038400)
I0327 08:44:04.732748 48775 net.cpp:226] Top shape: 50 832 7 7 (2038400)
I0327 08:44:04.732759 48775 net.cpp:226] Top shape: 50 832 7 7 (2038400)
I0327 08:44:04.732767 48775 net.cpp:234] Memory required for data: 2693467624
I0327 08:44:04.732779 48775 net.cpp:154] Setting up Layer of device :0 @cpu 0 Layer : inception_5a/1x1
I0327 08:44:04.732787 48775 layer_factory.hpp:114] Creating layer inception_5a/1x1
I0327 08:44:04.732805 48775 net.cpp:169] Creating Layer inception_5a/1x1
I0327 08:44:04.732815 48775 net.cpp:606] inception_5a/1x1 <- pool4/3x3_s2_pool4/3x3_s2_0_split_0
I0327 08:44:04.732831 48775 net.cpp:579] inception_5a/1x1 -> inception_5a/1x1
I0327 08:44:04.732839 48775 net.cpp:582] From AppendTop @cpu: 0
I0327 08:44:04.740751 48775 net.cpp:219] Setting up inception_5a/1x1
I0327 08:44:04.740819 48775 net.cpp:226] Top shape: 50 256 7 7 (627200)
I0327 08:44:04.740828 48775 net.cpp:234] Memory required for data: 2695976424
I0327 08:44:04.740854 48775 net.cpp:154] Setting up Layer of device :0 @cpu 0 Layer : inception_5a/relu_1x1
I0327 08:44:04.740864 48775 layer_factory.hpp:114] Creating layer inception_5a/relu_1x1
I0327 08:44:04.740883 48775 net.cpp:169] Creating Layer inception_5a/relu_1x1
I0327 08:44:04.740896 48775 net.cpp:606] inception_5a/relu_1x1 <- inception_5a/1x1
I0327 08:44:04.740911 48775 net.cpp:566] inception_5a/relu_1x1 -> inception_5a/1x1 (in-place)
I0327 08:44:04.740954 48775 net.cpp:219] Setting up inception_5a/relu_1x1
I0327 08:44:04.740967 48775 net.cpp:226] Top shape: 50 256 7 7 (627200)
I0327 08:44:04.740974 48775 net.cpp:234] Memory required for data: 2698485224
I0327 08:44:04.740984 48775 net.cpp:154] Setting up Layer of device :0 @cpu 0 Layer : inception_5a/3x3_reduce
I0327 08:44:04.740993 48775 layer_factory.hpp:114] Creating layer inception_5a/3x3_reduce
I0327 08:44:04.741015 48775 net.cpp:169] Creating Layer inception_5a/3x3_reduce
I0327 08:44:04.741034 48775 net.cpp:606] inception_5a/3x3_reduce <- pool4/3x3_s2_pool4/3x3_s2_0_split_1
I0327 08:44:04.741049 48775 net.cpp:579] inception_5a/3x3_reduce -> inception_5a/3x3_reduce
I0327 08:44:04.741057 48775 net.cpp:582] From AppendTop @cpu: 0
I0327 08:44:04.745865 48775 net.cpp:219] Setting up inception_5a/3x3_reduce
I0327 08:44:04.745920 48775 net.cpp:226] Top shape: 50 160 7 7 (392000)
I0327 08:44:04.745929 48775 net.cpp:234] Memory required for data: 2700053224
I0327 08:44:04.745952 48775 net.cpp:154] Setting up Layer of device :0 @cpu 0 Layer : inception_5a/relu_3x3_reduce
I0327 08:44:04.745962 48775 layer_factory.hpp:114] Creating layer inception_5a/relu_3x3_reduce
I0327 08:44:04.745980 48775 net.cpp:169] Creating Layer inception_5a/relu_3x3_reduce
I0327 08:44:04.745991 48775 net.cpp:606] inception_5a/relu_3x3_reduce <- inception_5a/3x3_reduce
I0327 08:44:04.746007 48775 net.cpp:566] inception_5a/relu_3x3_reduce -> inception_5a/3x3_reduce (in-place)
I0327 08:44:04.746031 48775 net.cpp:219] Setting up inception_5a/relu_3x3_reduce
I0327 08:44:04.746044 48775 net.cpp:226] Top shape: 50 160 7 7 (392000)
I0327 08:44:04.746052 48775 net.cpp:234] Memory required for data: 2701621224
I0327 08:44:04.746063 48775 net.cpp:154] Setting up Layer of device :0 @cpu 0 Layer : inception_5a/3x3
I0327 08:44:04.746071 48775 layer_factory.hpp:114] Creating layer inception_5a/3x3
I0327 08:44:04.746089 48775 net.cpp:169] Creating Layer inception_5a/3x3
I0327 08:44:04.746098 48775 net.cpp:606] inception_5a/3x3 <- inception_5a/3x3_reduce
I0327 08:44:04.746114 48775 net.cpp:579] inception_5a/3x3 -> inception_5a/3x3
I0327 08:44:04.746124 48775 net.cpp:582] From AppendTop @cpu: 0
I0327 08:44:04.761112 48775 net.cpp:219] Setting up inception_5a/3x3
I0327 08:44:04.761193 48775 net.cpp:226] Top shape: 50 320 7 7 (784000)
I0327 08:44:04.761206 48775 net.cpp:234] Memory required for data: 2704757224
I0327 08:44:04.761235 48775 net.cpp:154] Setting up Layer of device :0 @cpu 0 Layer : inception_5a/relu_3x3
I0327 08:44:04.761262 48775 layer_factory.hpp:114] Creating layer inception_5a/relu_3x3
I0327 08:44:04.761282 48775 net.cpp:169] Creating Layer inception_5a/relu_3x3
I0327 08:44:04.761296 48775 net.cpp:606] inception_5a/relu_3x3 <- inception_5a/3x3
I0327 08:44:04.761312 48775 net.cpp:566] inception_5a/relu_3x3 -> inception_5a/3x3 (in-place)
I0327 08:44:04.761330 48775 net.cpp:219] Setting up inception_5a/relu_3x3
I0327 08:44:04.761342 48775 net.cpp:226] Top shape: 50 320 7 7 (784000)
I0327 08:44:04.761349 48775 net.cpp:234] Memory required for data: 2707893224
I0327 08:44:04.761359 48775 net.cpp:154] Setting up Layer of device :0 @cpu 0 Layer : inception_5a/5x5_reduce
I0327 08:44:04.761368 48775 layer_factory.hpp:114] Creating layer inception_5a/5x5_reduce
I0327 08:44:04.761390 48775 net.cpp:169] Creating Layer inception_5a/5x5_reduce
I0327 08:44:04.761402 48775 net.cpp:606] inception_5a/5x5_reduce <- pool4/3x3_s2_pool4/3x3_s2_0_split_2
I0327 08:44:04.761416 48775 net.cpp:579] inception_5a/5x5_reduce -> inception_5a/5x5_reduce
I0327 08:44:04.761425 48775 net.cpp:582] From AppendTop @cpu: 0
I0327 08:44:04.763129 48775 net.cpp:219] Setting up inception_5a/5x5_reduce
I0327 08:44:04.763160 48775 net.cpp:226] Top shape: 50 32 7 7 (78400)
I0327 08:44:04.763170 48775 net.cpp:234] Memory required for data: 2708206824
I0327 08:44:04.763190 48775 net.cpp:154] Setting up Layer of device :0 @cpu 0 Layer : inception_5a/relu_5x5_reduce
I0327 08:44:04.763205 48775 layer_factory.hpp:114] Creating layer inception_5a/relu_5x5_reduce
I0327 08:44:04.763218 48775 net.cpp:169] Creating Layer inception_5a/relu_5x5_reduce
I0327 08:44:04.763249 48775 net.cpp:606] inception_5a/relu_5x5_reduce <- inception_5a/5x5_reduce
I0327 08:44:04.763264 48775 net.cpp:566] inception_5a/relu_5x5_reduce -> inception_5a/5x5_reduce (in-place)
I0327 08:44:04.763280 48775 net.cpp:219] Setting up inception_5a/relu_5x5_reduce
I0327 08:44:04.763293 48775 net.cpp:226] Top shape: 50 32 7 7 (78400)
I0327 08:44:04.763300 48775 net.cpp:234] Memory required for data: 2708520424
I0327 08:44:04.763311 48775 net.cpp:154] Setting up Layer of device :0 @cpu 0 Layer : inception_5a/5x5
I0327 08:44:04.763319 48775 layer_factory.hpp:114] Creating layer inception_5a/5x5
I0327 08:44:04.763339 48775 net.cpp:169] Creating Layer inception_5a/5x5
I0327 08:44:04.763348 48775 net.cpp:606] inception_5a/5x5 <- inception_5a/5x5_reduce
I0327 08:44:04.763361 48775 net.cpp:579] inception_5a/5x5 -> inception_5a/5x5
I0327 08:44:04.763370 48775 net.cpp:582] From AppendTop @cpu: 0
I0327 08:44:04.767948 48775 net.cpp:219] Setting up inception_5a/5x5
I0327 08:44:04.767992 48775 net.cpp:226] Top shape: 50 128 7 7 (313600)
I0327 08:44:04.768000 48775 net.cpp:234] Memory required for data: 2709774824
I0327 08:44:04.768028 48775 net.cpp:154] Setting up Layer of device :0 @cpu 0 Layer : inception_5a/relu_5x5
I0327 08:44:04.768039 48775 layer_factory.hpp:114] Creating layer inception_5a/relu_5x5
I0327 08:44:04.768059 48775 net.cpp:169] Creating Layer inception_5a/relu_5x5
I0327 08:44:04.768070 48775 net.cpp:606] inception_5a/relu_5x5 <- inception_5a/5x5
I0327 08:44:04.768086 48775 net.cpp:566] inception_5a/relu_5x5 -> inception_5a/5x5 (in-place)
I0327 08:44:04.768102 48775 net.cpp:219] Setting up inception_5a/relu_5x5
I0327 08:44:04.768115 48775 net.cpp:226] Top shape: 50 128 7 7 (313600)
I0327 08:44:04.768122 48775 net.cpp:234] Memory required for data: 2711029224
I0327 08:44:04.768132 48775 net.cpp:154] Setting up Layer of device :0 @cpu 0 Layer : inception_5a/pool
I0327 08:44:04.768141 48775 layer_factory.hpp:114] Creating layer inception_5a/pool
I0327 08:44:04.768187 48775 net.cpp:169] Creating Layer inception_5a/pool
I0327 08:44:04.768204 48775 net.cpp:606] inception_5a/pool <- pool4/3x3_s2_pool4/3x3_s2_0_split_3
I0327 08:44:04.768218 48775 net.cpp:579] inception_5a/pool -> inception_5a/pool
I0327 08:44:04.768227 48775 net.cpp:582] From AppendTop @cpu: 0
I0327 08:44:04.768246 48775 net.cpp:219] Setting up inception_5a/pool
I0327 08:44:04.768259 48775 net.cpp:226] Top shape: 50 832 7 7 (2038400)
I0327 08:44:04.768278 48775 net.cpp:234] Memory required for data: 2719182824
I0327 08:44:04.768290 48775 net.cpp:154] Setting up Layer of device :0 @cpu 0 Layer : inception_5a/pool_proj
I0327 08:44:04.768298 48775 layer_factory.hpp:114] Creating layer inception_5a/pool_proj
I0327 08:44:04.768321 48775 net.cpp:169] Creating Layer inception_5a/pool_proj
I0327 08:44:04.768331 48775 net.cpp:606] inception_5a/pool_proj <- inception_5a/pool
I0327 08:44:04.768343 48775 net.cpp:579] inception_5a/pool_proj -> inception_5a/pool_proj
I0327 08:44:04.768352 48775 net.cpp:582] From AppendTop @cpu: 0
I0327 08:44:04.772999 48775 net.cpp:219] Setting up inception_5a/pool_proj
I0327 08:44:04.773047 48775 net.cpp:226] Top shape: 50 128 7 7 (313600)
I0327 08:44:04.773058 48775 net.cpp:234] Memory required for data: 2720437224
I0327 08:44:04.773079 48775 net.cpp:154] Setting up Layer of device :0 @cpu 0 Layer : inception_5a/relu_pool_proj
I0327 08:44:04.773089 48775 layer_factory.hpp:114] Creating layer inception_5a/relu_pool_proj
I0327 08:44:04.773108 48775 net.cpp:169] Creating Layer inception_5a/relu_pool_proj
I0327 08:44:04.773119 48775 net.cpp:606] inception_5a/relu_pool_proj <- inception_5a/pool_proj
I0327 08:44:04.773133 48775 net.cpp:566] inception_5a/relu_pool_proj -> inception_5a/pool_proj (in-place)
I0327 08:44:04.773149 48775 net.cpp:219] Setting up inception_5a/relu_pool_proj
I0327 08:44:04.773160 48775 net.cpp:226] Top shape: 50 128 7 7 (313600)
I0327 08:44:04.773169 48775 net.cpp:234] Memory required for data: 2721691624
I0327 08:44:04.773178 48775 net.cpp:154] Setting up Layer of device :0 @cpu 0 Layer : inception_5a/output
I0327 08:44:04.773217 48775 layer_factory.hpp:114] Creating layer inception_5a/output
I0327 08:44:04.773231 48775 net.cpp:169] Creating Layer inception_5a/output
I0327 08:44:04.773241 48775 net.cpp:606] inception_5a/output <- inception_5a/1x1
I0327 08:44:04.773250 48775 net.cpp:606] inception_5a/output <- inception_5a/3x3
I0327 08:44:04.773262 48775 net.cpp:606] inception_5a/output <- inception_5a/5x5
I0327 08:44:04.773272 48775 net.cpp:606] inception_5a/output <- inception_5a/pool_proj
I0327 08:44:04.773284 48775 net.cpp:579] inception_5a/output -> inception_5a/output
I0327 08:44:04.773293 48775 net.cpp:582] From AppendTop @cpu: 0
I0327 08:44:04.773310 48775 net.cpp:219] Setting up inception_5a/output
I0327 08:44:04.773322 48775 net.cpp:226] Top shape: 50 832 7 7 (2038400)
I0327 08:44:04.773330 48775 net.cpp:234] Memory required for data: 2729845224
I0327 08:44:04.773340 48775 net.cpp:154] Setting up Layer of device :0 @cpu 0 Layer : inception_5a/output_inception_5a/output_0_split
I0327 08:44:04.773350 48775 layer_factory.hpp:114] Creating layer inception_5a/output_inception_5a/output_0_split
I0327 08:44:04.773365 48775 net.cpp:169] Creating Layer inception_5a/output_inception_5a/output_0_split
…
I0327 08:44:04.773417 48775 net.cpp:582] From AppendTop @cpu: 0
I0327 08:44:04.773432 48775 net.cpp:579] inception_5a/output_inception_5a/output_0_split -> inception_5a/output_inception_5a/output_0_split_2
I0327 08:44:04.773439 48775 net.cpp:582] From AppendTop @cpu: 0
I0327 08:44:04.773453 48775 net.cpp:579] inception_5a/output_inception_5a/output_0_split -> inception_5a/output_inception_5a/output_0_split_3
I0327 08:44:04.773463 48775 net.cpp:582] From AppendTop @cpu: 0
I0327 08:44:04.773478 48775 net.cpp:219] Setting up inception_5a/output_inception_5a/output_0_split
I0327 08:44:04.773488 48775 net.cpp:226] Top shape: 50 832 7 7 (2038400)
I0327 08:44:04.773499 48775 net.cpp:226] Top shape: 50 832 7 7 (2038400)
I0327 08:44:04.773510 48775 net.cpp:226] Top shape: 50 832 7 7 (2038400)
I0327 08:44:04.773527 48775 net.cpp:226] Top shape: 50 832 7 7 (2038400)
I0327 08:44:04.773536 48775 net.cpp:234] Memory required for data: 2762459624
I0327 08:44:04.773546 48775 net.cpp:154] Setting up Layer of device :0 @cpu 0 Layer : inception_5b/1x1
I0327 08:44:04.773555 48775 layer_factory.hpp:114] Creating layer inception_5b/1x1
I0327 08:44:04.773574 48775 net.cpp:169] Creating Layer inception_5b/1x1
I0327 08:44:04.773586 48775 net.cpp:606] inception_5b/1x1 <- inception_5a/output_inception_5a/output_0_split_0
I0327 08:44:04.773599 48775 net.cpp:579] inception_5b/1x1 -> inception_5b/1x1
I0327 08:44:04.773607 48775 net.cpp:582] From AppendTop @cpu: 0
I0327 08:44:04.783746 48775 net.cpp:219] Setting up inception_5b/1x1
I0327 08:44:04.783825 48775 net.cpp:226] Top shape: 50 384 7 7 (940800)
I0327 08:44:04.783835 48775 net.cpp:234] Memory required for data: 2766222824
I0327 08:44:04.783862 48775 net.cpp:154] Setting up Layer of device :0 @cpu 0 Layer : inception_5b/relu_1x1
I0327 08:44:04.783872 48775 layer_factory.hpp:114] Creating layer inception_5b/relu_1x1
I0327 08:44:04.783895 48775 net.cpp:169] Creating Layer inception_5b/relu_1x1
I0327 08:44:04.783908 48775 net.cpp:606] inception_5b/relu_1x1 <- inception_5b/1x1
I0327 08:44:04.783923 48775 net.cpp:566] inception_5b/relu_1x1 -> inception_5b/1x1 (in-place)
I0327 08:44:04.783942 48775 net.cpp:219] Setting up inception_5b/relu_1x1
I0327 08:44:04.783953 48775 net.cpp:226] Top shape: 50 384 7 7 (940800)
I0327 08:44:04.783962 48775 net.cpp:234] Memory required for data: 2769986024
I0327 08:44:04.783998 48775 net.cpp:154] Setting up Layer of device :0 @cpu 0 Layer : inception_5b/3x3_reduce
I0327 08:44:04.784008 48775 layer_factory.hpp:114] Creating layer inception_5b/3x3_reduce
I0327 08:44:04.784034 48775 net.cpp:169] Creating Layer inception_5b/3x3_reduce
I0327 08:44:04.784046 48775 net.cpp:606] inception_5b/3x3_reduce <- inception_5a/output_inception_5a/output_0_split_1
I0327 08:44:04.784063 48775 net.cpp:579] inception_5b/3x3_reduce -> inception_5b/3x3_reduce
I0327 08:44:04.784073 48775 net.cpp:582] From AppendTop @cpu: 0
I0327 08:44:04.789966 48775 net.cpp:219] Setting up inception_5b/3x3_reduce
I0327 08:44:04.790032 48775 net.cpp:226] Top shape: 50 192 7 7 (470400)
I0327 08:44:04.790042 48775 net.cpp:234] Memory required for data: 2771867624
I0327 08:44:04.790066 48775 net.cpp:154] Setting up Layer of device :0 @cpu 0 Layer : inception_5b/relu_3x3_reduce
I0327 08:44:04.790077 48775 layer_factory.hpp:114] Creating layer inception_5b/relu_3x3_reduce
I0327 08:44:04.790093 48775 net.cpp:169] Creating Layer inception_5b/relu_3x3_reduce
I0327 08:44:04.790105 48775 net.cpp:606] inception_5b/relu_3x3_reduce <- inception_5b/3x3_reduce
I0327 08:44:04.790119 48775 net.cpp:566] inception_5b/relu_3x3_reduce -> inception_5b/3x3_reduce (in-place)
I0327 08:44:04.790136 48775 net.cpp:219] Setting up inception_5b/relu_3x3_reduce
I0327 08:44:04.790148 48775 net.cpp:226] Top shape: 50 192 7 7 (470400)
I0327 08:44:04.790156 48775 net.cpp:234] Memory required for data: 2773749224
I0327 08:44:04.790165 48775 net.cpp:154] Setting up Layer of device :0 @cpu 0 Layer : inception_5b/3x3
I0327 08:44:04.790174 48775 layer_factory.hpp:114] Creating layer inception_5b/3x3
I0327 08:44:04.790194 48775 net.cpp:169] Creating Layer inception_5b/3x3
I0327 08:44:04.790210 48775 net.cpp:606] inception_5b/3x3 <- inception_5b/3x3_reduce
I0327 08:44:04.790223 48775 net.cpp:579] inception_5b/3x3 -> inception_5b/3x3
I0327 08:44:04.790232 48775 net.cpp:582] From AppendTop @cpu: 0
I0327 08:44:04.810627 48775 net.cpp:219] Setting up inception_5b/3x3
I0327 08:44:04.810710 48775 net.cpp:226] Top shape: 50 384 7 7 (940800)
I0327 08:44:04.810719 48775 net.cpp:234] Memory required for data: 2777512424
I0327 08:44:04.810748 48775 net.cpp:154] Setting up Layer of device :0 @cpu 0 Layer : inception_5b/relu_3x3
I0327 08:44:04.810758 48775 layer_factory.hpp:114] Creating layer inception_5b/relu_3x3
I0327 08:44:04.810778 48775 net.cpp:169] Creating Layer inception_5b/relu_3x3
I0327 08:44:04.810811 48775 net.cpp:606] inception_5b/relu_3x3 <- inception_5b/3x3
I0327 08:44:04.810827 48775 net.cpp:566] inception_5b/relu_3x3 -> inception_5b/3x3 (in-place)
I0327 08:44:04.810845 48775 net.cpp:219] Setting up inception_5b/relu_3x3
I0327 08:44:04.810856 48775 net.cpp:226] Top shape: 50 384 7 7 (940800)
I0327 08:44:04.810865 48775 net.cpp:234] Memory required for data: 2781275624
I0327 08:44:04.810875 48775 net.cpp:154] Setting up Layer of device :0 @cpu 0 Layer : inception_5b/5x5_reduce
I0327 08:44:04.810884 48775 layer_factory.hpp:114] Creating layer inception_5b/5x5_reduce
I0327 08:44:04.810904 48775 net.cpp:169] Creating Layer inception_5b/5x5_reduce
I0327 08:44:04.810914 48775 net.cpp:606] inception_5b/5x5_reduce <- inception_5a/output_inception_5a/output_0_split_2
I0327 08:44:04.810932 48775 net.cpp:579] inception_5b/5x5_reduce -> inception_5b/5x5_reduce
I0327 08:44:04.810941 48775 net.cpp:582] From AppendTop @cpu: 0
I0327 08:44:04.813247 48775 net.cpp:219] Setting up inception_5b/5x5_reduce
I0327 08:44:04.813282 48775 net.cpp:226] Top shape: 50 48 7 7 (117600)
I0327 08:44:04.813292 48775 net.cpp:234] Memory required for data: 2781746024
I0327 08:44:04.813310 48775 net.cpp:154] Setting up Layer of device :0 @cpu 0 Layer : inception_5b/relu_5x5_reduce
I0327 08:44:04.813320 48775 layer_factory.hpp:114] Creating layer inception_5b/relu_5x5_reduce
I0327 08:44:04.813333 48775 net.cpp:169] Creating Layer inception_5b/relu_5x5_reduce
I0327 08:44:04.813344 48775 net.cpp:606] inception_5b/relu_5x5_reduce <- inception_5b/5x5_reduce
I0327 08:44:04.813357 48775 net.cpp:566] inception_5b/relu_5x5_reduce -> inception_5b/5x5_reduce (in-place)
I0327 08:44:04.813392 48775 net.cpp:219] Setting up inception_5b/relu_5x5_reduce
I0327 08:44:04.813405 48775 net.cpp:226] Top shape: 50 48 7 7 (117600)
I0327 08:44:04.813412 48775 net.cpp:234] Memory required for data: 2782216424
I0327 08:44:04.813422 48775 net.cpp:154] Setting up Layer of device :0 @cpu 0 Layer : inception_5b/5x5
I0327 08:44:04.813431 48775 layer_factory.hpp:114] Creating layer inception_5b/5x5
I0327 08:44:04.813451 48775 net.cpp:169] Creating Layer inception_5b/5x5
I0327 08:44:04.813460 48775 net.cpp:606] inception_5b/5x5 <- inception_5b/5x5_reduce
I0327 08:44:04.813477 48775 net.cpp:579] inception_5b/5x5 -> inception_5b/5x5
I0327 08:44:04.813485 48775 net.cpp:582] From AppendTop @cpu: 0
I0327 08:44:04.819600 48775 net.cpp:219] Setting up inception_5b/5x5
I0327 08:44:04.819660 48775 net.cpp:226] Top shape: 50 128 7 7 (313600)
I0327 08:44:04.819669 48775 net.cpp:234] Memory required for data: 2783470824
I0327 08:44:04.819694 48775 net.cpp:154] Setting up Layer of device :0 @cpu 0 Layer : inception_5b/relu_5x5
I0327 08:44:04.819703 48775 layer_factory.hpp:114] Creating layer inception_5b/relu_5x5
I0327 08:44:04.819721 48775 net.cpp:169] Creating Layer inception_5b/relu_5x5
I0327 08:44:04.819733 48775 net.cpp:606] inception_5b/relu_5x5 <- inception_5b/5x5
I0327 08:44:04.819751 48775 net.cpp:566] inception_5b/relu_5x5 -> inception_5b/5x5 (in-place)
I0327 08:44:04.819768 48775 net.cpp:219] Setting up inception_5b/relu_5x5
I0327 08:44:04.819780 48775 net.cpp:226] Top shape: 50 128 7 7 (313600)
I0327 08:44:04.819788 48775 net.cpp:234] Memory required for data: 2784725224
I0327 08:44:04.819798 48775 net.cpp:154] Setting up Layer of device :0 @cpu 0 Layer : inception_5b/pool
I0327 08:44:04.819808 48775 layer_factory.hpp:114] Creating layer inception_5b/pool
I0327 08:44:04.819857 48775 net.cpp:169] Creating Layer inception_5b/pool
I0327 08:44:04.819869 48775 net.cpp:606] inception_5b/pool <- inception_5a/output_inception_5a/output_0_split_3
I0327 08:44:04.819886 48775 net.cpp:579] inception_5b/pool -> inception_5b/pool
I0327 08:44:04.819895 48775 net.cpp:582] From AppendTop @cpu: 0
I0327 08:44:04.819914 48775 net.cpp:219] Setting up inception_5b/pool
I0327 08:44:04.819927 48775 net.cpp:226] Top shape: 50 832 7 7 (2038400)
I0327 08:44:04.819936 48775 net.cpp:234] Memory required for data: 2792878824
I0327 08:44:04.819946 48775 net.cpp:154] Setting up Layer of device :0 @cpu 0 Layer : inception_5b/pool_proj
I0327 08:44:04.819969 48775 layer_factory.hpp:114] Creating layer inception_5b/pool_proj
I0327 08:44:04.819991 48775 net.cpp:169] Creating Layer inception_5b/pool_proj
I0327 08:44:04.820001 48775 net.cpp:606] inception_5b/pool_proj <- inception_5b/pool
I0327 08:44:04.820025 48775 net.cpp:579] inception_5b/pool_proj -> inception_5b/pool_proj
I0327 08:44:04.820036 48775 net.cpp:582] From AppendTop @cpu: 0
I0327 08:44:04.824003 48775 net.cpp:219] Setting up inception_5b/pool_proj
I0327 08:44:04.824054 48775 net.cpp:226] Top shape: 50 128 7 7 (313600)
I0327 08:44:04.824064 48775 net.cpp:234] Memory required for data: 2794133224
I0327 08:44:04.824085 48775 net.cpp:154] Setting up Layer of device :0 @cpu 0 Layer : inception_5b/relu_pool_proj
I0327 08:44:04.824095 48775 layer_factory.hpp:114] Creating layer inception_5b/relu_pool_proj
I0327 08:44:04.824110 48775 net.cpp:169] Creating Layer inception_5b/relu_pool_proj
I0327 08:44:04.824121 48775 net.cpp:606] inception_5b/relu_pool_proj <- inception_5b/pool_proj
I0327 08:44:04.824137 48775 net.cpp:566] inception_5b/relu_pool_proj -> inception_5b/pool_proj (in-place)
I0327 08:44:04.824154 48775 net.cpp:219] Setting up inception_5b/relu_pool_proj
I0327 08:44:04.824165 48775 net.cpp:226] Top shape: 50 128 7 7 (313600)
I0327 08:44:04.824174 48775 net.cpp:234] Memory required for data: 2795387624
I0327 08:44:04.824184 48775 net.cpp:154] Setting up Layer of device :0 @cpu 0 Layer : inception_5b/output
I0327 08:44:04.824193 48775 layer_factory.hpp:114] Creating layer inception_5b/output
I0327 08:44:04.824232 48775 net.cpp:169] Creating Layer inception_5b/output
I0327 08:44:04.824242 48775 net.cpp:606] inception_5b/output <- inception_5b/1x1
I0327 08:44:04.824254 48775 net.cpp:606] inception_5b/output <- inception_5b/3x3
I0327 08:44:04.824264 48775 net.cpp:606] inception_5b/output <- inception_5b/5x5
I0327 08:44:04.824275 48775 net.cpp:606] inception_5b/output <- inception_5b/pool_proj
I0327 08:44:04.824287 48775 net.cpp:579] inception_5b/output -> inception_5b/output
I0327 08:44:04.824295 48775 net.cpp:582] From AppendTop @cpu: 0
I0327 08:44:04.824313 48775 net.cpp:219] Setting up inception_5b/output
I0327 08:44:04.824326 48775 net.cpp:226] Top shape: 50 1024 7 7 (2508800)
I0327 08:44:04.824333 48775 net.cpp:234] Memory required for data: 2805422824
I0327 08:44:04.824343 48775 net.cpp:154] Setting up Layer of device :0 @cpu 0 Layer : pool5/7x7_s1
I0327 08:44:04.824352 48775 layer_factory.hpp:114] Creating layer pool5/7x7_s1
I0327 08:44:04.824393 48775 net.cpp:169] Creating Layer pool5/7x7_s1
I0327 08:44:04.824404 48775 net.cpp:606] pool5/7x7_s1 <- inception_5b/output
I0327 08:44:04.824419 48775 net.cpp:579] pool5/7x7_s1 -> pool5/7x7_s1
I0327 08:44:04.824427 48775 net.cpp:582] From AppendTop @cpu: 0
I0327 08:44:04.824443 48775 net.cpp:219] Setting up pool5/7x7_s1
I0327 08:44:04.824455 48775 net.cpp:226] Top shape: 50 1024 1 1 (51200)
I0327 08:44:04.824465 48775 net.cpp:234] Memory required for data: 2805627624
I0327 08:44:04.824475 48775 net.cpp:154] Setting up Layer of device :0 @cpu 0 Layer : pool5/drop_7x7_s1
I0327 08:44:04.824483 48775 layer_factory.hpp:114] Creating layer pool5/drop_7x7_s1
I0327 08:44:04.824496 48775 net.cpp:169] Creating Layer pool5/drop_7x7_s1
I0327 08:44:04.824506 48775 net.cpp:606] pool5/drop_7x7_s1 <- pool5/7x7_s1
I0327 08:44:04.824517 48775 net.cpp:566] pool5/drop_7x7_s1 -> pool5/7x7_s1 (in-place)
I0327 08:44:04.824532 48775 net.cpp:219] Setting up pool5/drop_7x7_s1
I0327 08:44:04.824543 48775 net.cpp:226] Top shape: 50 1024 1 1 (51200)
I0327 08:44:04.824551 48775 net.cpp:234] Memory required for data: 2805832424
I0327 08:44:04.824561 48775 net.cpp:154] Setting up Layer of device :0 @cpu 0 Layer : loss3/classifier
I0327 08:44:04.824570 48775 layer_factory.hpp:114] Creating layer loss3/classifier
I0327 08:44:04.824586 48775 net.cpp:169] Creating Layer loss3/classifier
I0327 08:44:04.824595 48775 net.cpp:606] loss3/classifier <- pool5/7x7_s1
I0327 08:44:04.824612 48775 net.cpp:579] loss3/classifier -> loss3/classifier
I0327 08:44:04.824627 48775 net.cpp:582] From AppendTop @cpu: 0
I0327 08:44:04.841987 48775 net.cpp:219] Setting up loss3/classifier
I0327 08:44:04.842047 48775 net.cpp:226] Top shape: 50 1000 (50000)
I0327 08:44:04.842058 48775 net.cpp:234] Memory required for data: 2806032424
I0327 08:44:04.842078 48775 net.cpp:154] Setting up Layer of device :0 @cpu 0 Layer : loss3/classifier_loss3/classifier_0_split
I0327 08:44:04.842089 48775 layer_factory.hpp:114] Creating layer loss3/classifier_loss3/classifier_0_split
I0327 08:44:04.842108 48775 net.cpp:169] Creating Layer loss3/classifier_loss3/classifier_0_split
I0327 08:44:04.842119 48775 net.cpp:606] loss3/classifier_loss3/classifier_0_split <- loss3/classifier
I0327 08:44:04.842139 48775 net.cpp:579] loss3/classifier_loss3/classifier_0_split -> loss3/classifier_loss3/classifier_0_split_0
I0327 08:44:04.842149 48775 net.cpp:582] From AppendTop @cpu: 0
I0327 08:44:04.842166 48775 net.cpp:579] loss3/classifier_loss3/classifier_0_split -> loss3/classifier_loss3/classifier_0_split_1
I0327 08:44:04.842175 48775 net.cpp:582] From AppendTop @cpu: 0
I0327 08:44:04.842190 48775 net.cpp:579] loss3/classifier_loss3/classifier_0_split -> loss3/classifier_loss3/classifier_0_split_2
I0327 08:44:04.842203 48775 net.cpp:582] From AppendTop @cpu: 0
I0327 08:44:04.842219 48775 net.cpp:219] Setting up loss3/classifier_loss3/classifier_0_split
I0327 08:44:04.842231 48775 net.cpp:226] Top shape: 50 1000 (50000)
I0327 08:44:04.842243 48775 net.cpp:226] Top shape: 50 1000 (50000)
I0327 08:44:04.842254 48775 net.cpp:226] Top shape: 50 1000 (50000)
I0327 08:44:04.842295 48775 net.cpp:234] Memory required for data: 2806632424
I0327 08:44:04.842308 48775 net.cpp:154] Setting up Layer of device :0 @cpu 0 Layer : loss3/loss3
I0327 08:44:04.842316 48775 layer_factory.hpp:114] Creating layer loss3/loss3
I0327 08:44:04.842329 48775 net.cpp:169] Creating Layer loss3/loss3
I0327 08:44:04.842339 48775 net.cpp:606] loss3/loss3 <- loss3/classifier_loss3/classifier_0_split_0
…
