…
I0327 09:11:23.098829  2662 net.cpp:493] The NetState phase (0) differed from the phase (1) specified by a rule in layer loss3/top-5
I0327 09:11:23.116395  2662 net.cpp:125] Initializing net from parameters: 
name: "GoogleNet"
state {
  phase: TRAIN
  level: 0
  stage: ""
}
layer {
  name: "data"
  type: "Data"
  top: "data"
  top: "label"
  include {
    phase: TRAIN
  }
  transform_param {
    mirror: true
    crop_size: 224
    mean_value: 104
    mean_value: 117
    mean_value: 123
  }
  data_param {
    source: "/home/user/user/LIBRARIES/caffeLibs/caffe/examples/imagenet/ilsvrc12_train_lmdb"
    batch_size: 12
    backend: LMDB
  }
}
layer {
  name: "label_data_1_split"
  type: "Split"
  bottom: "label"
  top: "label_data_1_split_0"
  top: "label_data_1_split_1"
  top: "label_data_1_split_2"
}
layer {
  name: "conv1/7x7_s2"
  type: "Convolution"
  bottom: "data"
  top: "conv1/7x7_s2"
  param {
    lr_mult: 1
    decay_mult: 1
  }
  param {
    lr_mult: 2
    decay_mult: 0
  }
  convolution_param {
    num_output: 64
    pad: 3
    kernel_size: 7
    stride: 2
    weight_filler {
      type: "xavier"
    }
    bias_filler {
      type: "constant"
      value: 0.2
    }
  }
}
layer {
  name: "conv1/relu_7x7"
  type: "ReLU"
  bottom: "conv1/7x7_s2"
  top: "conv1/7x7_s2"
}
layer {
  name: "pool1/3x3_s2"
  type: "Pooling"
  bottom: "conv1/7x7_s2"
  top: "pool1/3x3_s2"
  pooling_param {
    pool: MAX
    kernel_size: 3
    stride: 2
  }
}
layer {
  name: "pool1/norm1"
  type: "LRN"
  bottom: "pool1/3x3_s2"
  top: "pool1/norm1"
  lrn_param {
    local_size: 5
    alpha: 0.0001
    beta: 0.75
  }
}
layer {
  name: "conv2/3x3_reduce"
  type: "Convolution"
  bottom: "pool1/norm1"
  top: "conv2/3x3_reduce"
  param {
    lr_mult: 1
    decay_mult: 1
  }
  param {
    lr_mult: 2
    decay_mult: 0
  }
  convolution_param {
    num_output: 64
    kernel_size: 1
    weight_filler {
      type: "xavier"
    }
    bias_filler {
      type: "constant"
      value: 0.2
    }
  }
}
layer {
  name: "conv2/relu_3x3_reduce"
  type: "ReLU"
  bottom: "conv2/3x3_reduce"
  top: "conv2/3x3_reduce"
}
layer {
  name: "conv2/3x3"
  type: "Convolution"
  bottom: "conv2/3x3_reduce"
  top: "conv2/3x3"
  param {
    lr_mult: 1
    decay_mult: 1
  }
  param {
    lr_mult: 2
    decay_mult: 0
  }
  convolution_param {
    num_output: 192
    pad: 1
    kernel_size: 3
    weight_filler {
      type: "xavier"
    }
    bias_filler {
      type: "constant"
      value: 0.2
    }
  }
}
layer {
  name: "conv2/relu_3x3"
  type: "ReLU"
  bottom: "conv2/3x3"
  top: "conv2/3x3"
}
layer {
  name: "conv2/norm2"
  type: "LRN"
  bottom: "conv2/3x3"
  top: "conv2/norm2"
  lrn_param {
    local_size: 5
    alpha: 0.0001
    beta: 0.75
  }
}
layer {
  name: "pool2/3x3_s2"
  type: "Pooling"
  bottom: "conv2/norm2"
  top: "pool2/3x3_s2"
  pooling_param {
    pool: MAX
    kernel_size: 3
    stride: 2
  }
}
layer {
  name: "pool2/3x3_s2_pool2/3x3_s2_0_split"
  type: "Split"
  bottom: "pool2/3x3_s2"
  top: "pool2/3x3_s2_pool2/3x3_s2_0_split_0"
  top: "pool2/3x3_s2_pool2/3x3_s2_0_split_1"
  top: "pool2/3x3_s2_pool2/3x3_s2_0_split_2"
  top: "pool2/3x3_s2_pool2/3x3_s2_0_split_3"
}
layer {
  name: "inception_3a/1x1"
  type: "Convolution"
  bottom: "pool2/3x3_s2_pool2/3x3_s2_0_split_0"
  top: "inception_3a/1x1"
  param {
    lr_mult: 1
    decay_mult: 1
  }
  param {
    lr_mult: 2
    decay_mult: 0
  }
  convolution_param {
    num_output: 64
    kernel_size: 1
    weight_filler {
      type: "xavier"
    }
    bias_filler {
      type: "constant"
      value: 0.2
    }
  }
}
layer {
  name: "inception_3a/relu_1x1"
  type: "ReLU"
  bottom: "inception_3a/1x1"
  top: "inception_3a/1x1"
}
layer {
  name: "inception_3a/3x3_reduce"
  type: "Convolution"
  bottom: "pool2/3x3_s2_pool2/3x3_s2_0_split_1"
  top: "inception_3a/3x3_reduce"
  param {
    lr_mult: 1
    decay_mult: 1
  }
  param {
    lr_mult: 2
    decay_mult: 0
  }
  convolution_param {
    num_output: 96
    kernel_size: 1
    weight_filler {
      type: "xavier"
    }
    bias_filler {
      type: "constant"
      value: 0.2
    }
  }
}
layer {
  name: "inception_3a/relu_3x3_reduce"
  type: "ReLU"
  bottom: "inception_3a/3x3_reduce"
  top: "inception_3a/3x3_reduce"
}
layer {
  name: "inception_3a/3x3"
  type: "Convolution"
  bottom: "inception_3a/3x3_reduce"
  top: "inception_3a/3x3"
  param {
    lr_mult: 1
    decay_mult: 1
  }
  param {
    lr_mult: 2
    decay_mult: 0
  }
  convolution_param {
    num_output: 128
    pad: 1
    kernel_size: 3
    weight_filler {
      type: "xavier"
    }
    bias_filler {
      type: "constant"
      value: 0.2
    }
  }
}
layer {
  name: "inception_3a/relu_3x3"
  type: "ReLU"
  bottom: "inception_3a/3x3"
  top: "inception_3a/3x3"
}
layer {
  name: "inception_3a/5x5_reduce"
  type: "Convolution"
  bottom: "pool2/3x3_s2_pool2/3x3_s2_0_split_2"
  top: "inception_3a/5x5_reduce"
  param {
    lr_mult: 1
    decay_mult: 1
  }
  param {
    lr_mult: 2
    decay_mult: 0
  }
  convolution_param {
    num_output: 16
    kernel_size: 1
    weight_filler {
      type: "xavier"
    }
    bias_filler {
      type: "constant"
      value: 0.2
    }
  }
}
layer {
  name: "inception_3a/relu_5x5_reduce"
  type: "ReLU"
  bottom: "inception_3a/5x5_reduce"
  top: "inception_3a/5x5_reduce"
}
layer {
  name: "inception_3a/5x5"
  type: "Convolution"
  bottom: "inception_3a/5x5_reduce"
  top: "inception_3a/5x5"
  param {
    lr_mult: 1
    decay_mult: 1
  }
  param {
    lr_mult: 2
    decay_mult: 0
  }
  convolution_param {
    num_output: 32
    pad: 2
    kernel_size: 5
    weight_filler {
      type: "xavier"
    }
    bias_filler {
      type: "constant"
      value: 0.2
    }
  }
}
layer {
  name: "inception_3a/relu_5x5"
  type: "ReLU"
  bottom: "inception_3a/5x5"
  top: "inception_3a/5x5"
}
layer {
  name: "inception_3a/pool"
  type: "Pooling"
  bottom: "pool2/3x3_s2_pool2/3x3_s2_0_split_3"
  top: "inception_3a/pool"
  pooling_param {
    pool: MAX
    kernel_size: 3
    stride: 1
    pad: 1
  }
}
layer {
  name: "inception_3a/pool_proj"
  type: "Convolution"
  bottom: "inception_3a/pool"
  top: "inception_3a/pool_proj"
  param {
    lr_mult: 1
    decay_mult: 1
  }
  param {
    lr_mult: 2
    decay_mult: 0
  }
  convolution_param {
    num_output: 32
    kernel_size: 1
    weight_filler {
      type: "xavier"
    }
    bias_filler {
      type: "constant"
      value: 0.2
    }
  }
}
layer {
  name: "inception_3a/relu_pool_proj"
  type: "ReLU"
  bottom: "inception_3a/pool_proj"
  top: "inception_3a/pool_proj"
}
layer {
  name: "inception_3a/output"
  type: "Concat"
  bottom: "inception_3a/1x1"
  bottom: "inception_3a/3x3"
  bottom: "inception_3a/5x5"
  bottom: "inception_3a/pool_proj"
  top: "inception_3a/output"
}
layer {
  name: "inception_3a/output_inception_3a/output_0_split"
  type: "Split"
  bottom: "inception_3a/output"
  top: "inception_3a/output_inception_3a/output_0_split_0"
  top: "inception_3a/output_inception_3a/output_0_split_1"
  top: "inception_3a/output_inception_3a/output_0_split_2"
  top: "inception_3a/output_inception_3a/output_0_split_3"
}
layer {
  name: "inception_3b/1x1"
  type: "Convolution"
  bottom: "inception_3a/output_inception_3a/output_0_split_0"
  top: "inception_3b/1x1"
  param {
    lr_mult: 1
    decay_mult: 1
  }
  param {
    lr_mult: 2
    decay_mult: 0
  }
  convolution_param {
    num_output: 128
    kernel_size: 1
    weight_filler {
      type: "xavier"
    }
    bias_filler {
      type: "constant"
      value: 0.2
    }
  }
}
layer {
  name: "inception_3b/relu_1x1"
  type: "ReLU"
  bottom: "inception_3b/1x1"
  top: "inception_3b/1x1"
}
layer {
  name: "inception_3b/3x3_reduce"
  type: "Convolution"
  bottom: "inception_3a/output_inception_3a/output_0_split_1"
  top: "inception_3b/3x3_reduce"
  param {
    lr_mult: 1
    decay_mult: 1
  }
  param {
    lr_mult: 2
    decay_mult: 0
  }
  convolution_param {
    num_output: 128
    kernel_size: 1
    weight_filler {
      type: "xavier"
    }
    bias_filler {
      type: "constant"
      value: 0.2
    }
  }
}
layer {
  name: "inception_3b/relu_3x3_reduce"
  type: "ReLU"
  bottom: "inception_3b/3x3_reduce"
  top: "inception_3b/3x3_reduce"
}
layer {
  name: "inception_3b/3x3"
  type: "Convolution"
  bottom: "inception_3b/3x3_reduce"
  top: "inception_3b/3x3"
  param {
    lr_mult: 1
    decay_mult: 1
  }
  param {
    lr_mult: 2
    decay_mult: 0
  }
  convolution_param {
    num_output: 192
    pad: 1
    kernel_size: 3
    weight_filler {
      type: "xavier"
    }
    bias_filler {
      type: "constant"
      value: 0.2
    }
  }
}
layer {
  name: "inception_3b/relu_3x3"
  type: "ReLU"
  bottom: "inception_3b/3x3"
  top: "inception_3b/3x3"
}
layer {
  name: "inception_3b/5x5_reduce"
  type: "Convolution"
  bottom: "inception_3a/output_inception_3a/output_0_split_2"
  top: "inception_3b/5x5_reduce"
  param {
    lr_mult: 1
    decay_mult: 1
  }
  param {
    lr_mult: 2
    decay_mult: 0
  }
  convolution_param {
    num_output: 32
    kernel_size: 1
    weight_filler {
      type: "xavier"
    }
    bias_filler {
      type: "constant"
      value: 0.2
    }
  }
}
layer {
  name: "inception_3b/relu_5x5_reduce"
  type: "ReLU"
  bottom: "inception_3b/5x5_reduce"
  top: "inception_3b/5x5_reduce"
}
layer {
  name: "inception_3b/5x5"
  type: "Convolution"
  bottom: "inception_3b/5x5_reduce"
  top: "inception_3b/5x5"
  param {
    lr_mult: 1
    decay_mult: 1
  }
  param {
    lr_mult: 2
    decay_mult: 0
  }
  convolution_param {
    num_output: 96
    pad: 2
    kernel_size: 5
    weight_filler {
      type: "xavier"
    }
    bias_filler {
      type: "constant"
      value: 0.2
    }
  }
}
layer {
  name: "inception_3b/relu_5x5"
  type: "ReLU"
  bottom: "inception_3b/5x5"
  top: "inception_3b/5x5"
}
layer {
  name: "inception_3b/pool"
  type: "Pooling"
  bottom: "inception_3a/output_inception_3a/output_0_split_3"
  top: "inception_3b/pool"
  pooling_param {
    pool: MAX
    kernel_size: 3
    stride: 1
    pad: 1
  }
}
layer {
  name: "inception_3b/pool_proj"
  type: "Convolution"
  bottom: "inception_3b/pool"
  top: "inception_3b/pool_proj"
  param {
    lr_mult: 1
    decay_mult: 1
  }
  param {
    lr_mult: 2
    decay_mult: 0
  }
  convolution_param {
    num_output: 64
    kernel_size: 1
    weight_filler {
      type: "xavier"
    }
    bias_filler {
      type: "constant"
      value: 0.2
    }
  }
}
layer {
  name: "inception_3b/relu_pool_proj"
  type: "ReLU"
  bottom: "inception_3b/pool_proj"
  top: "inception_3b/pool_proj"
}
layer {
  name: "inception_3b/output"
  type: "Concat"
  bottom: "inception_3b/1x1"
  bottom: "inception_3b/3x3"
  bottom: "inception_3b/5x5"
  bottom: "inception_3b/pool_proj"
  top: "inception_3b/output"
}
layer {
  name: "pool3/3x3_s2"
  type: "Pooling"
  bottom: "inception_3b/output"
  top: "pool3/3x3_s2"
  pooling_param {
    pool: MAX
    kernel_size: 3
    stride: 2
  }
}
layer {
  name: "pool3/3x3_s2_pool3/3x3_s2_0_split"
  type: "Split"
  bottom: "pool3/3x3_s2"
  top: "pool3/3x3_s2_pool3/3x3_s2_0_split_0"
  top: "pool3/3x3_s2_pool3/3x3_s2_0_split_1"
  top: "pool3/3x3_s2_pool3/3x3_s2_0_split_2"
  top: "pool3/3x3_s2_pool3/3x3_s2_0_split_3"
}
layer {
  name: "inception_4a/1x1"
  type: "Convolution"
  bottom: "pool3/3x3_s2_pool3/3x3_s2_0_split_0"
  top: "inception_4a/1x1"
  param {
    lr_mult: 1
    decay_mult: 1
  }
  param {
    lr_mult: 2
    decay_mult: 0
  }
  convolution_param {
    num_output: 192
    kernel_size: 1
    weight_filler {
      type: "xavier"
    }
    bias_filler {
      type: "constant"
      value: 0.2
    }
  }
}
layer {
  name: "inception_4a/relu_1x1"
  type: "ReLU"
  bottom: "inception_4a/1x1"
  top: "inception_4a/1x1"
}
layer {
  name: "inception_4a/3x3_reduce"
  type: "Convolution"
  bottom: "pool3/3x3_s2_pool3/3x3_s2_0_split_1"
  top: "inception_4a/3x3_reduce"
  param {
    lr_mult: 1
    decay_mult: 1
  }
  param {
    lr_mult: 2
    decay_mult: 0
  }
  convolution_param {
    num_output: 96
    kernel_size: 1
    weight_filler {
      type: "xavier"
    }
    bias_filler {
      type: "constant"
      value: 0.2
    }
  }
}
layer {
  name: "inception_4a/relu_3x3_reduce"
  type: "ReLU"
  bottom: "inception_4a/3x3_reduce"
  top: "inception_4a/3x3_reduce"
}
layer {
  name: "inception_4a/3x3"
  type: "Convolution"
  bottom: "inception_4a/3x3_reduce"
  top: "inception_4a/3x3"
  param {
    lr_mult: 1
    decay_mult: 1
  }
  param {
    lr_mult: 2
    decay_mult: 0
  }
  convolution_param {
    num_output: 208
    pad: 1
    kernel_size: 3
    weight_filler {
      type: "xavier"
    }
    bias_filler {
      type: "constant"
      value: 0.2
    }
  }
}
layer {
  name: "inception_4a/relu_3x3"
  type: "ReLU"
  bottom: "inception_4a/3x3"
  top: "inception_4a/3x3"
}
layer {
  name: "inception_4a/5x5_reduce"
  type: "Convolution"
  bottom: "pool3/3x3_s2_pool3/3x3_s2_0_split_2"
  top: "inception_4a/5x5_reduce"
  param {
    lr_mult: 1
    decay_mult: 1
  }
  param {
    lr_mult: 2
    decay_mult: 0
  }
  convolution_param {
    num_output: 16
    kernel_size: 1
    weight_filler {
      type: "xavier"
    }
    bias_filler {
      type: "constant"
      value: 0.2
    }
  }
}
layer {
  name: "inception_4a/relu_5x5_reduce"
  type: "ReLU"
  bottom: "inception_4a/5x5_reduce"
  top: "inception_4a/5x5_reduce"
}
layer {
  name: "inception_4a/5x5"
  type: "Convolution"
  bottom: "inception_4a/5x5_reduce"
  top: "inception_4a/5x5"
  param {
    lr_mult: 1
    decay_mult: 1
  }
  param {
    lr_mult: 2
    decay_mult: 0
  }
  convolution_param {
    num_output: 48
    pad: 2
    kernel_size: 5
    weight_filler {
      type: "xavier"
    }
    bias_filler {
      type: "constant"
      value: 0.2
    }
  }
}
layer {
  name: "inception_4a/relu_5x5"
  type: "ReLU"
  bottom: "inception_4a/5x5"
  top: "inception_4a/5x5"
}
layer {
  name: "inception_4a/pool"
  type: "Pooling"
  bottom: "pool3/3x3_s2_pool3/3x3_s2_0_split_3"
  top: "inception_4a/pool"
  pooling_param {
    pool: MAX
    kernel_size: 3
    stride: 1
    pad: 1
  }
}
layer {
  name: "inception_4a/pool_proj"
  type: "Convolution"
  bottom: "inception_4a/pool"
  top: "inception_4a/pool_proj"
  param {
    lr_mult: 1
    decay_mult: 1
  }
  param {
    lr_mult: 2
    decay_mult: 0
  }
  convolution_param {
    num_output: 64
    kernel_size: 1
    weight_filler {
      type: "xavier"
    }
    bias_filler {
      type: "constant"
      value: 0.2
    }
  }
}
layer {
  name: "inception_4a/relu_pool_proj"
  type: "ReLU"
  bottom: "inception_4a/pool_proj"
  top: "inception_4a/pool_proj"
}
layer {
  name: "inception_4a/output"
  type: "Concat"
  bottom: "inception_4a/1x1"
  bottom: "inception_4a/3x3"
  bottom: "inception_4a/5x5"
  bottom: "inception_4a/pool_proj"
  top: "inception_4a/output"
}
layer {
  name: "inception_4a/output_inception_4a/output_0_split"
  type: "Split"
  bottom: "inception_4a/output"
  top: "inception_4a/output_inception_4a/output_0_split_0"
  top: "inception_4a/output_inception_4a/output_0_split_1"
  top: "inception_4a/output_inception_4a/output_0_split_2"
  top: "inception_4a/output_inception_4a/output_0_split_3"
  top: "inception_4a/output_inception_4a/output_0_split_4"
}
layer {
  name: "loss1/ave_pool"
  type: "Pooling"
  bottom: "inception_4a/output_inception_4a/output_0_split_0"
  top: "loss1/ave_pool"
  pooling_param {
    pool: AVE
    kernel_size: 5
    stride: 3
  }
}
layer {
  name: "loss1/conv"
  type: "Convolution"
  bottom: "loss1/ave_pool"
  top: "loss1/conv"
  param {
    lr_mult: 1
    decay_mult: 1
  }
  param {
    lr_mult: 2
    decay_mult: 0
  }
  convolution_param {
    num_output: 128
    kernel_size: 1
    weight_filler {
      type: "xavier"
    }
    bias_filler {
      type: "constant"
      value: 0.2
    }
  }
}
layer {
  name: "loss1/relu_conv"
  type: "ReLU"
  bottom: "loss1/conv"
  top: "loss1/conv"
}
layer {
  name: "loss1/fc"
  type: "InnerProduct"
  bottom: "loss1/conv"
  top: "loss1/fc"
  param {
    lr_mult: 1
    decay_mult: 1
  }
  param {
    lr_mult: 2
    decay_mult: 0
  }
  inner_product_param {
    num_output: 1024
    weight_filler {
      type: "xavier"
    }
    bias_filler {
      type: "constant"
      value: 0.2
    }
  }
}
layer {
  name: "loss1/relu_fc"
  type: "ReLU"
  bottom: "loss1/fc"
  top: "loss1/fc"
}
layer {
  name: "loss1/drop_fc"
  type: "Dropout"
  bottom: "loss1/fc"
  top: "loss1/fc"
  dropout_param {
    dropout_ratio: 0.7
  }
}
layer {
  name: "loss1/classifier"
  type: "InnerProduct"
  bottom: "loss1/fc"
  top: "loss1/classifier"
  param {
    lr_mult: 1
    decay_mult: 1
  }
  param {
    lr_mult: 2
    decay_mult: 0
  }
  inner_product_param {
    num_output: 1000
    weight_filler {
      type: "xavier"
    }
    bias_filler {
      type: "constant"
      value: 0
    }
  }
}
layer {
  name: "loss1/loss"
  type: "SoftmaxWithLoss"
  bottom: "loss1/classifier"
  bottom: "label_data_1_split_0"
  top: "loss1/loss1"
  loss_weight: 0.3
}
layer {
  name: "inception_4b/1x1"
  type: "Convolution"
  bottom: "inception_4a/output_inception_4a/output_0_split_1"
  top: "inception_4b/1x1"
  param {
    lr_mult: 1
    decay_mult: 1
  }
  param {
    lr_mult: 2
    decay_mult: 0
  }
  convolution_param {
    num_output: 160
    kernel_size: 1
    weight_filler {
      type: "xavier"
    }
    bias_filler {
      type: "constant"
      value: 0.2
    }
  }
}
layer {
  name: "inception_4b/relu_1x1"
  type: "ReLU"
  bottom: "inception_4b/1x1"
  top: "inception_4b/1x1"
}
layer {
  name: "inception_4b/3x3_reduce"
  type: "Convolution"
  bottom: "inception_4a/output_inception_4a/output_0_split_2"
  top: "inception_4b/3x3_reduce"
  param {
    lr_mult: 1
    decay_mult: 1
  }
  param {
    lr_mult: 2
    decay_mult: 0
  }
  convolution_param {
    num_output: 112
    kernel_size: 1
    weight_filler {
      type: "xavier"
    }
    bias_filler {
      type: "constant"
      value: 0.2
    }
  }
}
layer {
  name: "inception_4b/relu_3x3_reduce"
  type: "ReLU"
  bottom: "inception_4b/3x3_reduce"
  top: "inception_4b/3x3_reduce"
}
layer {
  name: "inception_4b/3x3"
  type: "Convolution"
  bottom: "inception_4b/3x3_reduce"
  top: "inception_4b/3x3"
  param {
    lr_mult: 1
    decay_mult: 1
  }
  param {
    lr_mult: 2
    decay_mult: 0
  }
  convolution_param {
    num_output: 224
    pad: 1
    kernel_size: 3
    weight_filler {
      type: "xavier"
    }
    bias_filler {
      type: "constant"
      value: 0.2
    }
  }
}
layer {
  name: "inception_4b/relu_3x3"
  type: "ReLU"
  bottom: "inception_4b/3x3"
  top: "inception_4b/3x3"
}
layer {
  name: "inception_4b/5x5_reduce"
  type: "Convolution"
  bottom: "inception_4a/output_inception_4a/output_0_split_3"
  top: "inception_4b/5x5_reduce"
  param {
    lr_mult: 1
    decay_mult: 1
  }
  param {
    lr_mult: 2
    decay_mult: 0
  }
  convolution_param {
    num_output: 24
    kernel_size: 1
    weight_filler {
      type: "xavier"
    }
    bias_filler {
      type: "constant"
      value: 0.2
    }
  }
}
layer {
  name: "inception_4b/relu_5x5_reduce"
  type: "ReLU"
  bottom: "inception_4b/5x5_reduce"
  top: "inception_4b/5x5_reduce"
}
layer {
  name: "inception_4b/5x5"
  type: "Convolution"
  bottom: "inception_4b/5x5_reduce"
  top: "inception_4b/5x5"
  param {
    lr_mult: 1
    decay_mult: 1
  }
  param {
    lr_mult: 2
    decay_mult: 0
  }
  convolution_param {
    num_output: 64
    pad: 2
    kernel_size: 5
    weight_filler {
      type: "xavier"
    }
    bias_filler {
      type: "constant"
      value: 0.2
    }
  }
}
layer {
  name: "inception_4b/relu_5x5"
  type: "ReLU"
  bottom: "inception_4b/5x5"
  top: "inception_4b/5x5"
}
layer {
  name: "inception_4b/pool"
  type: "Pooling"
  bottom: "inception_4a/output_inception_4a/output_0_split_4"
  top: "inception_4b/pool"
  pooling_param {
    pool: MAX
    kernel_size: 3
    stride: 1
    pad: 1
  }
}
layer {
  name: "inception_4b/pool_proj"
  type: "Convolution"
  bottom: "inception_4b/pool"
  top: "inception_4b/pool_proj"
  param {
    lr_mult: 1
    decay_mult: 1
  }
  param {
    lr_mult: 2
    decay_mult: 0
  }
  convolution_param {
    num_output: 64
    kernel_size: 1
    weight_filler {
      type: "xavier"
    }
    bias_filler {
      type: "constant"
      value: 0.2
    }
  }
}
layer {
  name: "inception_4b/relu_pool_proj"
  type: "ReLU"
  bottom: "inception_4b/pool_proj"
  top: "inception_4b/pool_proj"
}
layer {
  name: "inception_4b/output"
  type: "Concat"
  bottom: "inception_4b/1x1"
  bottom: "inception_4b/3x3"
  bottom: "inception_4b/5x5"
  bottom: "inception_4b/pool_proj"
  top: "inception_4b/output"
}
layer {
  name: "inception_4b/output_inception_4b/output_0_split"
  type: "Split"
  bottom: "inception_4b/output"
  top: "inception_4b/output_inception_4b/output_0_split_0"
  top: "inception_4b/output_inception_4b/output_0_split_1"
  top: "inception_4b/output_inception_4b/output_0_split_2"
  top: "inception_4b/output_inception_4b/output_0_split_3"
}
layer {
  name: "inception_4c/1x1"
  type: "Convolution"
  bottom: "inception_4b/output_inception_4b/output_0_split_0"
  top: "inception_4c/1x1"
  param {
    lr_mult: 1
    decay_mult: 1
  }
  param {
    lr_mult: 2
    decay_mult: 0
  }
  convolution_param {
    num_output: 128
    kernel_size: 1
    weight_filler {
      type: "xavier"
    }
    bias_filler {
      type: "constant"
      value: 0.2
    }
  }
}
layer {
  name: "inception_4c/relu_1x1"
  type: "ReLU"
  bottom: "inception_4c/1x1"
  top: "inception_4c/1x1"
}
layer {
  name: "inception_4c/3x3_reduce"
  type: "Convolution"
  bottom: "inception_4b/output_inception_4b/output_0_split_1"
  top: "inception_4c/3x3_reduce"
  param {
    lr_mult: 1
    decay_mult: 1
  }
  param {
    lr_mult: 2
    decay_mult: 0
  }
  convolution_param {
    num_output: 128
    kernel_size: 1
    weight_filler {
      type: "xavier"
    }
    bias_filler {
      type: "constant"
      value: 0.2
    }
  }
}
layer {
  name: "inception_4c/relu_3x3_reduce"
  type: "ReLU"
  bottom: "inception_4c/3x3_reduce"
  top: "inception_4c/3x3_reduce"
}
layer {
  name: "inception_4c/3x3"
  type: "Convolution"
  bottom: "inception_4c/3x3_reduce"
  top: "inception_4c/3x3"
  param {
    lr_mult: 1
    decay_mult: 1
  }
  param {
    lr_mult: 2
    decay_mult: 0
  }
  convolution_param {
    num_output: 256
    pad: 1
    kernel_size: 3
    weight_filler {
      type: "xavier"
    }
    bias_filler {
      type: "constant"
      value: 0.2
    }
  }
}
layer {
  name: "inception_4c/relu_3x3"
  type: "ReLU"
  bottom: "inception_4c/3x3"
  top: "inception_4c/3x3"
}
layer {
  name: "inception_4c/5x5_reduce"
  type: "Convolution"
  bottom: "inception_4b/output_inception_4b/output_0_split_2"
  top: "inception_4c/5x5_reduce"
  param {
    lr_mult: 1
    decay_mult: 1
  }
  param {
    lr_mult: 2
    decay_mult: 0
  }
  convolution_param {
    num_output: 24
    kernel_size: 1
    weight_filler {
      type: "xavier"
    }
    bias_filler {
      type: "constant"
      value: 0.2
    }
  }
}
layer {
  name: "inception_4c/relu_5x5_reduce"
  type: "ReLU"
  bottom: "inception_4c/5x5_reduce"
  top: "inception_4c/5x5_reduce"
}
layer {
  name: "inception_4c/5x5"
  type: "Convolution"
  bottom: "inception_4c/5x5_reduce"
  top: "inception_4c/5x5"
  param {
    lr_mult: 1
    decay_mult: 1
  }
  param {
    lr_mult: 2
    decay_mult: 0
  }
  convolution_param {
    num_output: 64
    pad: 2
    kernel_size: 5
    weight_filler {
      type: "xavier"
    }
    bias_filler {
      type: "constant"
      value: 0.2
    }
  }
}
layer {
  name: "inception_4c/relu_5x5"
  type: "ReLU"
  bottom: "inception_4c/5x5"
  top: "inception_4c/5x5"
}
layer {
  name: "inception_4c/pool"
  type: "Pooling"
  bottom: "inception_4b/output_inception_4b/output_0_split_3"
  top: "inception_4c/pool"
  pooling_param {
    pool: MAX
    kernel_size: 3
    stride: 1
    pad: 1
  }
}
layer {
  name: "inception_4c/pool_proj"
  type: "Convolution"
  bottom: "inception_4c/pool"
  top: "inception_4c/pool_proj"
  param {
    lr_mult: 1
    decay_mult: 1
  }
  param {
    lr_mult: 2
    decay_mult: 0
  }
  convolution_param {
    num_output: 64
    kernel_size: 1
    weight_filler {
      type: "xavier"
    }
    bias_filler {
      type: "constant"
      value: 0.2
    }
  }
}
layer {
  name: "inception_4c/relu_pool_proj"
  type: "ReLU"
  bottom: "inception_4c/pool_proj"
  top: "inception_4c/pool_proj"
}
layer {
  name: "inception_4c/output"
  type: "Concat"
  bottom: "inception_4c/1x1"
  bottom: "inception_4c/3x3"
  bottom: "inception_4c/5x5"
  bottom: "inception_4c/pool_proj"
  top: "inception_4c/output"
}
layer {
  name: "inception_4c/output_inception_4c/output_0_split"
  type: "Split"
  bottom: "inception_4c/output"
  top: "inception_4c/output_inception_4c/output_0_split_0"
  top: "inception_4c/output_inception_4c/output_0_split_1"
  top: "inception_4c/output_inception_4c/output_0_split_2"
  top: "inception_4c/output_inception_4c/output_0_split_3"
}
layer {
  name: "inception_4d/1x1"
  type: "Convolution"
  bottom: "inception_4c/output_inception_4c/output_0_split_0"
  top: "inception_4d/1x1"
  param {
    lr_mult: 1
    decay_mult: 1
  }
  param {
    lr_mult: 2
    decay_mult: 0
  }
  convolution_param {
    num_output: 112
    kernel_size: 1
    weight_filler {
      type: "xavier"
    }
    bias_filler {
      type: "constant"
      value: 0.2
    }
  }
}
layer {
  name: "inception_4d/relu_1x1"
  type: "ReLU"
  bottom: "inception_4d/1x1"
  top: "inception_4d/1x1"
}
layer {
  name: "inception_4d/3x3_reduce"
  type: "Convolution"
  bottom: "inception_4c/output_inception_4c/output_0_split_1"
  top: "inception_4d/3x3_reduce"
  param {
    lr_mult: 1
    decay_mult: 1
  }
  param {
    lr_mult: 2
    decay_mult: 0
  }
  convolution_param {
    num_output: 144
    kernel_size: 1
    weight_filler {
      type: "xavier"
    }
    bias_filler {
      type: "constant"
      value: 0.2
    }
  }
}
layer {
  name: "inception_4d/relu_3x3_reduce"
  type: "ReLU"
  bottom: "inception_4d/3x3_reduce"
  top: "inception_4d/3x3_reduce"
}
layer {
  name: "inception_4d/3x3"
  type: "Convolution"
  bottom: "inception_4d/3x3_reduce"
  top: "inception_4d/3x3"
  param {
    lr_mult: 1
    decay_mult: 1
  }
  param {
    lr_mult: 2
    decay_mult: 0
  }
  convolution_param {
    num_output: 288
    pad: 1
    kernel_size: 3
    weight_filler {
      type: "xavier"
    }
    bias_filler {
      type: "constant"
      value: 0.2
    }
  }
}
layer {
  name: "inception_4d/relu_3x3"
  type: "ReLU"
  bottom: "inception_4d/3x3"
  top: "inception_4d/3x3"
}
layer {
  name: "inception_4d/5x5_reduce"
  type: "Convolution"
  bottom: "inception_4c/output_inception_4c/output_0_split_2"
  top: "inception_4d/5x5_reduce"
  param {
    lr_mult: 1
    decay_mult: 1
  }
  param {
    lr_mult: 2
    decay_mult: 0
  }
  convolution_param {
    num_output: 32
    kernel_size: 1
    weight_filler {
      type: "xavier"
    }
    bias_filler {
      type: "constant"
      value: 0.2
    }
  }
}
layer {
  name: "inception_4d/relu_5x5_reduce"
  type: "ReLU"
  bottom: "inception_4d/5x5_reduce"
  top: "inception_4d/5x5_reduce"
}
layer {
  name: "inception_4d/5x5"
  type: "Convolution"
  bottom: "inception_4d/5x5_reduce"
  top: "inception_4d/5x5"
  param {
    lr_mult: 1
    decay_mult: 1
  }
  param {
    lr_mult: 2
    decay_mult: 0
  }
  convolution_param {
    num_output: 64
    pad: 2
    kernel_size: 5
    weight_filler {
      type: "xavier"
    }
    bias_filler {
      type: "constant"
      value: 0.2
    }
  }
}
layer {
  name: "inception_4d/relu_5x5"
  type: "ReLU"
  bottom: "inception_4d/5x5"
  top: "inception_4d/5x5"
}
layer {
  name: "inception_4d/pool"
  type: "Pooling"
  bottom: "inception_4c/output_inception_4c/output_0_split_3"
  top: "inception_4d/pool"
  pooling_param {
    pool: MAX
    kernel_size: 3
    stride: 1
    pad: 1
  }
}
layer {
  name: "inception_4d/pool_proj"
  type: "Convolution"
  bottom: "inception_4d/pool"
  top: "inception_4d/pool_proj"
  param {
    lr_mult: 1
    decay_mult: 1
  }
  param {
    lr_mult: 2
    decay_mult: 0
  }
  convolution_param {
    num_output: 64
    kernel_size: 1
    weight_filler {
      type: "xavier"
    }
    bias_filler {
      type: "constant"
      value: 0.2
    }
  }
}
layer {
  name: "inception_4d/relu_pool_proj"
  type: "ReLU"
  bottom: "inception_4d/pool_proj"
  top: "inception_4d/pool_proj"
}
layer {
  name: "inception_4d/output"
  type: "Concat"
  bottom: "inception_4d/1x1"
  bottom: "inception_4d/3x3"
  bottom: "inception_4d/5x5"
  bottom: "inception_4d/pool_proj"
  top: "inception_4d/output"
}
layer {
  name: "inception_4d/output_inception_4d/output_0_split"
  type: "Split"
  bottom: "inception_4d/output"
  top: "inception_4d/output_inception_4d/output_0_split_0"
  top: "inception_4d/output_inception_4d/output_0_split_1"
  top: "inception_4d/output_inception_4d/output_0_split_2"
  top: "inception_4d/output_inception_4d/output_0_split_3"
  top: "inception_4d/output_inception_4d/output_0_split_4"
}
layer {
  name: "loss2/ave_pool"
  type: "Pooling"
  bottom: "inception_4d/output_inception_4d/output_0_split_0"
  top: "loss2/ave_pool"
  pooling_param {
    pool: AVE
    kernel_size: 5
    stride: 3
  }
}
layer {
  name: "loss2/conv"
  type: "Convolution"
  bottom: "loss2/ave_pool"
  top: "loss2/conv"
  param {
    lr_mult: 1
    decay_mult: 1
  }
  param {
    lr_mult: 2
    decay_mult: 0
  }
  convolution_param {
    num_output: 128
    kernel_size: 1
    weight_filler {
      type: "xavier"
    }
    bias_filler {
      type: "constant"
      value: 0.2
    }
  }
}
layer {
  name: "loss2/relu_conv"
  type: "ReLU"
  bottom: "loss2/conv"
  top: "loss2/conv"
}
layer {
  name: "loss2/fc"
  type: "InnerProduct"
  bottom: "loss2/conv"
  top: "loss2/fc"
  param {
    lr_mult: 1
    decay_mult: 1
  }
  param {
    lr_mult: 2
    decay_mult: 0
  }
  inner_product_param {
    num_output: 1024
    weight_filler {
      type: "xavier"
    }
    bias_filler {
      type: "constant"
      value: 0.2
    }
  }
}
layer {
  name: "loss2/relu_fc"
  type: "ReLU"
  bottom: "loss2/fc"
  top: "loss2/fc"
}
layer {
  name:
I0327 09:11:23.116940  2662 net.cpp:154] Setting up Layer of device :0 @cpu 5 Layer : data
I0327 09:11:23.116981  2662 layer_factory.hpp:114] Creating layer data
I0327 09:11:23.118438  2662 net.cpp:169] Creating Layer data
I0327 09:11:23.118484  2662 net.cpp:579] data -> data
I0327 09:11:23.118507  2662 net.cpp:582] From AppendTop @cpu: 5
I0327 09:11:23.118630  2662 net.cpp:579] data -> label
I0327 09:11:23.118656  2662 net.cpp:582] From AppendTop @cpu: 5
I0327 09:11:23.118988  2663 db_lmdb.cpp:72] Opened lmdb /home/user/user/LIBRARIES/caffeLibs/caffe/examples/imagenet/ilsvrc12_train_lmdb
I0327 09:11:23.119230  2663 data_reader.cpp:128] inside DATAREADER 4
I0327 09:11:23.119261  2663 data_reader.cpp:139] NUMA DOMAIN 0
I0327 09:11:23.120151  2663 data_reader.cpp:139] NUMA DOMAIN 0
I0327 09:11:23.120657  2662 data_layer.cpp:80] output data size: 12,3,224,224
I0327 09:11:23.162181  2662 base_data_layer.cpp:96] Done cpu data
I0327 09:11:23.162305  2662 net.cpp:219] Setting up data
I0327 09:11:23.162346  2662 net.cpp:226] Top shape: 12 3 224 224 (1806336)
I0327 09:11:23.162370  2662 net.cpp:226] Top shape: 12 (12)
I0327 09:11:23.162387  2662 net.cpp:234] Memory required for data: 7225392
I0327 09:11:23.162422  2662 net.cpp:154] Setting up Layer of device :0 @cpu 5 Layer : label_data_1_split
I0327 09:11:23.162441  2662 layer_factory.hpp:114] Creating layer label_data_1_split
I0327 09:11:23.162487  2662 net.cpp:169] Creating Layer label_data_1_split
I0327 09:11:23.162506  2662 net.cpp:606] label_data_1_split <- label
I0327 09:11:23.162539  2662 net.cpp:579] label_data_1_split -> label_data_1_split_0
I0327 09:11:23.162555  2662 net.cpp:582] From AppendTop @cpu: 5
I0327 09:11:23.162588  2662 net.cpp:579] label_data_1_split -> label_data_1_split_1
I0327 09:11:23.162606  2662 net.cpp:582] From AppendTop @cpu: 5
I0327 09:11:23.162628  2662 net.cpp:579] label_data_1_split -> label_data_1_split_2
I0327 09:11:23.162644  2662 net.cpp:582] From AppendTop @cpu: 5
I0327 09:11:23.162678  2662 net.cpp:219] Setting up label_data_1_split
I0327 09:11:23.162701  2662 net.cpp:226] Top shape: 12 (12)
I0327 09:11:23.162721  2662 net.cpp:226] Top shape: 12 (12)
I0327 09:11:23.162741  2662 net.cpp:226] Top shape: 12 (12)
I0327 09:11:23.162756  2662 net.cpp:234] Memory required for data: 7225536
I0327 09:11:23.162775  2662 net.cpp:154] Setting up Layer of device :0 @cpu 5 Layer : conv1/7x7_s2
I0327 09:11:23.162791  2662 layer_factory.hpp:114] Creating layer conv1/7x7_s2
I0327 09:11:23.162838  2662 net.cpp:169] Creating Layer conv1/7x7_s2
I0327 09:11:23.162856  2662 net.cpp:606] conv1/7x7_s2 <- data
I0327 09:11:23.162881  2662 net.cpp:579] conv1/7x7_s2 -> conv1/7x7_s2
I0327 09:11:23.162897  2662 net.cpp:582] From AppendTop @cpu: 5
OMP: Info #242: KMP_AFFINITY: pid 2662 thread 1 bound to OS proc set {0,1,2,3,4,5}
OMP: Info #242: KMP_AFFINITY: pid 2662 thread 2 bound to OS proc set {0,1,2,3,4,5}
OMP: Info #242: KMP_AFFINITY: pid 2662 thread 3 bound to OS proc set {0,1,2,3,4,5}
OMP: Info #242: KMP_AFFINITY: pid 2662 thread 4 bound to OS proc set {0,1,2,3,4,5}
OMP: Info #242: KMP_AFFINITY: pid 2662 thread 5 bound to OS proc set {0,1,2,3,4,5}
I0327 09:11:23.201362  2662 net.cpp:219] Setting up conv1/7x7_s2
I0327 09:11:23.201488  2662 net.cpp:226] Top shape: 12 64 112 112 (9633792)
I0327 09:11:23.201510  2662 net.cpp:234] Memory required for data: 45760704
I0327 09:11:23.201597  2662 net.cpp:154] Setting up Layer of device :0 @cpu 0 Layer : conv1/relu_7x7
I0327 09:11:23.201658  2662 layer_factory.hpp:114] Creating layer conv1/relu_7x7
I0327 09:11:23.201707  2662 net.cpp:169] Creating Layer conv1/relu_7x7
I0327 09:11:23.201733  2662 net.cpp:606] conv1/relu_7x7 <- conv1/7x7_s2
I0327 09:11:23.201766  2662 net.cpp:566] conv1/relu_7x7 -> conv1/7x7_s2 (in-place)
I0327 09:11:23.201809  2662 net.cpp:219] Setting up conv1/relu_7x7
I0327 09:11:23.201838  2662 net.cpp:226] Top shape: 12 64 112 112 (9633792)
I0327 09:11:23.201856  2662 net.cpp:234] Memory required for data: 84295872
I0327 09:11:23.201880  2662 net.cpp:154] Setting up Layer of device :0 @cpu 0 Layer : pool1/3x3_s2
I0327 09:11:23.201900  2662 layer_factory.hpp:114] Creating layer pool1/3x3_s2
I0327 09:11:23.202070  2662 net.cpp:169] Creating Layer pool1/3x3_s2
I0327 09:11:23.202111  2662 net.cpp:606] pool1/3x3_s2 <- conv1/7x7_s2
I0327 09:11:23.202139  2662 net.cpp:579] pool1/3x3_s2 -> pool1/3x3_s2
I0327 09:11:23.202159  2662 net.cpp:582] From AppendTop @cpu: 0
I0327 09:11:23.202216  2662 net.cpp:219] Setting up pool1/3x3_s2
I0327 09:11:23.202251  2662 net.cpp:226] Top shape: 12 64 56 56 (2408448)
I0327 09:11:23.202272  2662 net.cpp:234] Memory required for data: 93929664
I0327 09:11:23.202297  2662 net.cpp:154] Setting up Layer of device :0 @cpu 0 Layer : pool1/norm1
I0327 09:11:23.202316  2662 layer_factory.hpp:114] Creating layer pool1/norm1
I0327 09:11:23.202347  2662 net.cpp:169] Creating Layer pool1/norm1
I0327 09:11:23.202368  2662 net.cpp:606] pool1/norm1 <- pool1/3x3_s2
I0327 09:11:23.202399  2662 net.cpp:579] pool1/norm1 -> pool1/norm1
I0327 09:11:23.202453  2662 net.cpp:582] From AppendTop @cpu: 0
I0327 09:11:23.202497  2662 net.cpp:219] Setting up pool1/norm1
I0327 09:11:23.202523  2662 net.cpp:226] Top shape: 12 64 56 56 (2408448)
I0327 09:11:23.202543  2662 net.cpp:234] Memory required for data: 103563456
I0327 09:11:23.202566  2662 net.cpp:154] Setting up Layer of device :0 @cpu 0 Layer : conv2/3x3_reduce
I0327 09:11:23.202585  2662 layer_factory.hpp:114] Creating layer conv2/3x3_reduce
I0327 09:11:23.202635  2662 net.cpp:169] Creating Layer conv2/3x3_reduce
I0327 09:11:23.202657  2662 net.cpp:606] conv2/3x3_reduce <- pool1/norm1
I0327 09:11:23.202692  2662 net.cpp:579] conv2/3x3_reduce -> conv2/3x3_reduce
I0327 09:11:23.202713  2662 net.cpp:582] From AppendTop @cpu: 0
I0327 09:11:23.209480  2662 net.cpp:219] Setting up conv2/3x3_reduce
I0327 09:11:23.209580  2662 net.cpp:226] Top shape: 12 64 56 56 (2408448)
I0327 09:11:23.209604  2662 net.cpp:234] Memory required for data: 113197248
I0327 09:11:23.209664  2662 net.cpp:154] Setting up Layer of device :0 @cpu 0 Layer : conv2/relu_3x3_reduce
I0327 09:11:23.209688  2662 layer_factory.hpp:114] Creating layer conv2/relu_3x3_reduce
I0327 09:11:23.209722  2662 net.cpp:169] Creating Layer conv2/relu_3x3_reduce
I0327 09:11:23.209745  2662 net.cpp:606] conv2/relu_3x3_reduce <- conv2/3x3_reduce
I0327 09:11:23.209775  2662 net.cpp:566] conv2/relu_3x3_reduce -> conv2/3x3_reduce (in-place)
I0327 09:11:23.209812  2662 net.cpp:219] Setting up conv2/relu_3x3_reduce
I0327 09:11:23.209838  2662 net.cpp:226] Top shape: 12 64 56 56 (2408448)
I0327 09:11:23.209858  2662 net.cpp:234] Memory required for data: 122831040
I0327 09:11:23.209882  2662 net.cpp:154] Setting up Layer of device :0 @cpu 0 Layer : conv2/3x3
I0327 09:11:23.209902  2662 layer_factory.hpp:114] Creating layer conv2/3x3
I0327 09:11:23.209950  2662 net.cpp:169] Creating Layer conv2/3x3
I0327 09:11:23.209974  2662 net.cpp:606] conv2/3x3 <- conv2/3x3_reduce
I0327 09:11:23.210010  2662 net.cpp:579] conv2/3x3 -> conv2/3x3
I0327 09:11:23.210045  2662 net.cpp:582] From AppendTop @cpu: 0
I0327 09:11:23.247457  2662 net.cpp:219] Setting up conv2/3x3
I0327 09:11:23.247566  2662 net.cpp:226] Top shape: 12 192 56 56 (7225344)
I0327 09:11:23.247583  2662 net.cpp:234] Memory required for data: 151732416
I0327 09:11:23.247643  2662 net.cpp:154] Setting up Layer of device :0 @cpu 0 Layer : conv2/relu_3x3
I0327 09:11:23.247663  2662 layer_factory.hpp:114] Creating layer conv2/relu_3x3
I0327 09:11:23.247726  2662 net.cpp:169] Creating Layer conv2/relu_3x3
I0327 09:11:23.247748  2662 net.cpp:606] conv2/relu_3x3 <- conv2/3x3
I0327 09:11:23.247774  2662 net.cpp:566] conv2/relu_3x3 -> conv2/3x3 (in-place)
I0327 09:11:23.247812  2662 net.cpp:219] Setting up conv2/relu_3x3
I0327 09:11:23.247834  2662 net.cpp:226] Top shape: 12 192 56 56 (7225344)
I0327 09:11:23.247850  2662 net.cpp:234] Memory required for data: 180633792
I0327 09:11:23.247869  2662 net.cpp:154] Setting up Layer of device :0 @cpu 0 Layer : conv2/norm2
I0327 09:11:23.247886  2662 layer_factory.hpp:114] Creating layer conv2/norm2
I0327 09:11:23.247910  2662 net.cpp:169] Creating Layer conv2/norm2
I0327 09:11:23.247926  2662 net.cpp:606] conv2/norm2 <- conv2/3x3
I0327 09:11:23.247954  2662 net.cpp:579] conv2/norm2 -> conv2/norm2
I0327 09:11:23.247972  2662 net.cpp:582] From AppendTop @cpu: 0
I0327 09:11:23.248005  2662 net.cpp:219] Setting up conv2/norm2
I0327 09:11:23.248039  2662 net.cpp:226] Top shape: 12 192 56 56 (7225344)
I0327 09:11:23.248057  2662 net.cpp:234] Memory required for data: 209535168
I0327 09:11:23.248075  2662 net.cpp:154] Setting up Layer of device :0 @cpu 0 Layer : pool2/3x3_s2
I0327 09:11:23.248100  2662 layer_factory.hpp:114] Creating layer pool2/3x3_s2
I0327 09:11:23.248169  2662 net.cpp:169] Creating Layer pool2/3x3_s2
I0327 09:11:23.248189  2662 net.cpp:606] pool2/3x3_s2 <- conv2/norm2
I0327 09:11:23.248211  2662 net.cpp:579] pool2/3x3_s2 -> pool2/3x3_s2
I0327 09:11:23.248227  2662 net.cpp:582] From AppendTop @cpu: 0
I0327 09:11:23.248258  2662 net.cpp:219] Setting up pool2/3x3_s2
I0327 09:11:23.248306  2662 net.cpp:226] Top shape: 12 192 28 28 (1806336)
I0327 09:11:23.248322  2662 net.cpp:234] Memory required for data: 216760512
I0327 09:11:23.248342  2662 net.cpp:154] Setting up Layer of device :0 @cpu 0 Layer : pool2/3x3_s2_pool2/3x3_s2_0_split
I0327 09:11:23.248358  2662 layer_factory.hpp:114] Creating layer pool2/3x3_s2_pool2/3x3_s2_0_split
I0327 09:11:23.248386  2662 net.cpp:169] Creating Layer pool2/3x3_s2_pool2/3x3_s2_0_split
I0327 09:11:23.248404  2662 net.cpp:606] pool2/3x3_s2_pool2/3x3_s2_0_split <- pool2/3x3_s2
I0327 09:11:23.248426  2662 net.cpp:579] pool2/3x3_s2_pool2/3x3_s2_0_split -> pool2/3x3_s2_pool2/3x3_s2_0_split_0
I0327 09:11:23.248442  2662 net.cpp:582] From AppendTop @cpu: 0
I0327 09:11:23.248467  2662 net.cpp:579] pool2/3x3_s2_pool2/3x3_s2_0_split -> pool2/3x3_s2_pool2/3x3_s2_0_split_1
I0327 09:11:23.248488  2662 net.cpp:582] From AppendTop @cpu: 0
I0327 09:11:23.248514  2662 net.cpp:579] pool2/3x3_s2_pool2/3x3_s2_0_split -> pool2/3x3_s2_pool2/3x3_s2_0_split_2
I0327 09:11:23.248530  2662 net.cpp:582] From AppendTop @cpu: 0
I0327 09:11:23.248555  2662 net.cpp:579] pool2/3x3_s2_pool2/3x3_s2_0_split -> pool2/3x3_s2_pool2/3x3_s2_0_split_3
I0327 09:11:23.248570  2662 net.cpp:582] From AppendTop @cpu: 0
I0327 09:11:23.248598  2662 net.cpp:219] Setting up pool2/3x3_s2_pool2/3x3_s2_0_split
I0327 09:11:23.248620  2662 net.cpp:226] Top shape: 12 192 28 28 (1806336)
I0327 09:11:23.248641  2662 net.cpp:226] Top shape: 12 192 28 28 (1806336)
I0327 09:11:23.248661  2662 net.cpp:226] Top shape: 12 192 28 28 (1806336)
I0327 09:11:23.248682  2662 net.cpp:226] Top shape: 12 192 28 28 (1806336)
I0327 09:11:23.248697  2662 net.cpp:234] Memory required for data: 245661888
I0327 09:11:23.248715  2662 net.cpp:154] Setting up Layer of device :0 @cpu 0 Layer : inception_3a/1x1
I0327 09:11:23.248731  2662 layer_factory.hpp:114] Creating layer inception_3a/1x1
I0327 09:11:23.248770  2662 net.cpp:169] Creating Layer inception_3a/1x1
I0327 09:11:23.248790  2662 net.cpp:606] inception_3a/1x1 <- pool2/3x3_s2_pool2/3x3_s2_0_split_0
I0327 09:11:23.248819  2662 net.cpp:579] inception_3a/1x1 -> inception_3a/1x1
I0327 09:11:23.248836  2662 net.cpp:582] From AppendTop @cpu: 0
I0327 09:11:23.253280  2662 net.cpp:219] Setting up inception_3a/1x1
I0327 09:11:23.253355  2662 net.cpp:226] Top shape: 12 64 28 28 (602112)
I0327 09:11:23.253371  2662 net.cpp:234] Memory required for data: 248070336
I0327 09:11:23.253412  2662 net.cpp:154] Setting up Layer of device :0 @cpu 0 Layer : inception_3a/relu_1x1
I0327 09:11:23.253450  2662 layer_factory.hpp:114] Creating layer inception_3a/relu_1x1
I0327 09:11:23.253479  2662 net.cpp:169] Creating Layer inception_3a/relu_1x1
I0327 09:11:23.253499  2662 net.cpp:606] inception_3a/relu_1x1 <- inception_3a/1x1
I0327 09:11:23.253536  2662 net.cpp:566] inception_3a/relu_1x1 -> inception_3a/1x1 (in-place)
I0327 09:11:23.253566  2662 net.cpp:219] Setting up inception_3a/relu_1x1
I0327 09:11:23.253587  2662 net.cpp:226] Top shape: 12 64 28 28 (602112)
I0327 09:11:23.253603  2662 net.cpp:234] Memory required for data: 250478784
I0327 09:11:23.253623  2662 net.cpp:154] Setting up Layer of device :0 @cpu 0 Layer : inception_3a/3x3_reduce
I0327 09:11:23.253639  2662 layer_factory.hpp:114] Creating layer inception_3a/3x3_reduce
I0327 09:11:23.253677  2662 net.cpp:169] Creating Layer inception_3a/3x3_reduce
I0327 09:11:23.253697  2662 net.cpp:606] inception_3a/3x3_reduce <- pool2/3x3_s2_pool2/3x3_s2_0_split_1
I0327 09:11:23.253723  2662 net.cpp:579] inception_3a/3x3_reduce -> inception_3a/3x3_reduce
I0327 09:11:23.253741  2662 net.cpp:582] From AppendTop @cpu: 0
I0327 09:11:23.258560  2662 net.cpp:219] Setting up inception_3a/3x3_reduce
I0327 09:11:23.258631  2662 net.cpp:226] Top shape: 12 96 28 28 (903168)
I0327 09:11:23.258647  2662 net.cpp:234] Memory required for data: 254091456
I0327 09:11:23.258697  2662 net.cpp:154] Setting up Layer of device :0 @cpu 0 Layer : inception_3a/relu_3x3_reduce
I0327 09:11:23.258715  2662 layer_factory.hpp:114] Creating layer inception_3a/relu_3x3_reduce
I0327 09:11:23.258785  2662 net.cpp:169] Creating Layer inception_3a/relu_3x3_reduce
I0327 09:11:23.258805  2662 net.cpp:606] inception_3a/relu_3x3_reduce <- inception_3a/3x3_reduce
I0327 09:11:23.258831  2662 net.cpp:566] inception_3a/relu_3x3_reduce -> inception_3a/3x3_reduce (in-place)
I0327 09:11:23.258859  2662 net.cpp:219] Setting up inception_3a/relu_3x3_reduce
I0327 09:11:23.258880  2662 net.cpp:226] Top shape: 12 96 28 28 (903168)
I0327 09:11:23.258896  2662 net.cpp:234] Memory required for data: 257704128
I0327 09:11:23.258914  2662 net.cpp:154] Setting up Layer of device :0 @cpu 0 Layer : inception_3a/3x3
I0327 09:11:23.258930  2662 layer_factory.hpp:114] Creating layer inception_3a/3x3
I0327 09:11:23.258967  2662 net.cpp:169] Creating Layer inception_3a/3x3
I0327 09:11:23.258985  2662 net.cpp:606] inception_3a/3x3 <- inception_3a/3x3_reduce
I0327 09:11:23.259016  2662 net.cpp:579] inception_3a/3x3 -> inception_3a/3x3
I0327 09:11:23.259094  2662 net.cpp:582] From AppendTop @cpu: 0
I0327 09:11:23.277843  2662 net.cpp:219] Setting up inception_3a/3x3
I0327 09:11:23.277951  2662 net.cpp:226] Top shape: 12 128 28 28 (1204224)
I0327 09:11:23.277967  2662 net.cpp:234] Memory required for data: 262521024
I0327 09:11:23.278026  2662 net.cpp:154] Setting up Layer of device :0 @cpu 0 Layer : inception_3a/relu_3x3
I0327 09:11:23.278049  2662 layer_factory.hpp:114] Creating layer inception_3a/relu_3x3
I0327 09:11:23.278086  2662 net.cpp:169] Creating Layer inception_3a/relu_3x3
I0327 09:11:23.278116  2662 net.cpp:606] inception_3a/relu_3x3 <- inception_3a/3x3
I0327 09:11:23.278154  2662 net.cpp:566] inception_3a/relu_3x3 -> inception_3a/3x3 (in-place)
I0327 09:11:23.278189  2662 net.cpp:219] Setting up inception_3a/relu_3x3
I0327 09:11:23.278211  2662 net.cpp:226] Top shape: 12 128 28 28 (1204224)
I0327 09:11:23.278226  2662 net.cpp:234] Memory required for data: 267337920
I0327 09:11:23.278245  2662 net.cpp:154] Setting up Layer of device :0 @cpu 0 Layer : inception_3a/5x5_reduce
I0327 09:11:23.278262  2662 layer_factory.hpp:114] Creating layer inception_3a/5x5_reduce
I0327 09:11:23.278296  2662 net.cpp:169] Creating Layer inception_3a/5x5_reduce
I0327 09:11:23.278316  2662 net.cpp:606] inception_3a/5x5_reduce <- pool2/3x3_s2_pool2/3x3_s2_0_split_2
I0327 09:11:23.278352  2662 net.cpp:579] inception_3a/5x5_reduce -> inception_3a/5x5_reduce
I0327 09:11:23.278369  2662 net.cpp:582] From AppendTop @cpu: 0
I0327 09:11:23.281747  2662 net.cpp:219] Setting up inception_3a/5x5_reduce
I0327 09:11:23.281831  2662 net.cpp:226] Top shape: 12 16 28 28 (150528)
I0327 09:11:23.281846  2662 net.cpp:234] Memory required for data: 267940032
I0327 09:11:23.281878  2662 net.cpp:154] Setting up Layer of device :0 @cpu 0 Layer : inception_3a/relu_5x5_reduce
I0327 09:11:23.281893  2662 layer_factory.hpp:114] Creating layer inception_3a/relu_5x5_reduce
I0327 09:11:23.281921  2662 net.cpp:169] Creating Layer inception_3a/relu_5x5_reduce
I0327 09:11:23.281936  2662 net.cpp:606] inception_3a/relu_5x5_reduce <- inception_3a/5x5_reduce
I0327 09:11:23.281960  2662 net.cpp:566] inception_3a/relu_5x5_reduce -> inception_3a/5x5_reduce (in-place)
I0327 09:11:23.281985  2662 net.cpp:219] Setting up inception_3a/relu_5x5_reduce
I0327 09:11:23.282001  2662 net.cpp:226] Top shape: 12 16 28 28 (150528)
I0327 09:11:23.282012  2662 net.cpp:234] Memory required for data: 268542144
I0327 09:11:23.282038  2662 net.cpp:154] Setting up Layer of device :0 @cpu 0 Layer : inception_3a/5x5
I0327 09:11:23.282050  2662 layer_factory.hpp:114] Creating layer inception_3a/5x5
I0327 09:11:23.282074  2662 net.cpp:169] Creating Layer inception_3a/5x5
I0327 09:11:23.282095  2662 net.cpp:606] inception_3a/5x5 <- inception_3a/5x5_reduce
I0327 09:11:23.282119  2662 net.cpp:579] inception_3a/5x5 -> inception_3a/5x5
I0327 09:11:23.282132  2662 net.cpp:582] From AppendTop @cpu: 0
I0327 09:11:23.287595  2662 net.cpp:219] Setting up inception_3a/5x5
I0327 09:11:23.287681  2662 net.cpp:226] Top shape: 12 32 28 28 (301056)
I0327 09:11:23.287694  2662 net.cpp:234] Memory required for data: 269746368
I0327 09:11:23.287783  2662 net.cpp:154] Setting up Layer of device :0 @cpu 0 Layer : inception_3a/relu_5x5
I0327 09:11:23.287797  2662 layer_factory.hpp:114] Creating layer inception_3a/relu_5x5
I0327 09:11:23.287823  2662 net.cpp:169] Creating Layer inception_3a/relu_5x5
I0327 09:11:23.287839  2662 net.cpp:606] inception_3a/relu_5x5 <- inception_3a/5x5
I0327 09:11:23.287860  2662 net.cpp:566] inception_3a/relu_5x5 -> inception_3a/5x5 (in-place)
I0327 09:11:23.287885  2662 net.cpp:219] Setting up inception_3a/relu_5x5
I0327 09:11:23.287902  2662 net.cpp:226] Top shape: 12 32 28 28 (301056)
I0327 09:11:23.287914  2662 net.cpp:234] Memory required for data: 270950592
I0327 09:11:23.287928  2662 net.cpp:154] Setting up Layer of device :0 @cpu 0 Layer : inception_3a/pool
I0327 09:11:23.287941  2662 layer_factory.hpp:114] Creating layer inception_3a/pool
I0327 09:11:23.288003  2662 net.cpp:169] Creating Layer inception_3a/pool
I0327 09:11:23.288029  2662 net.cpp:606] inception_3a/pool <- pool2/3x3_s2_pool2/3x3_s2_0_split_3
I0327 09:11:23.288051  2662 net.cpp:579] inception_3a/pool -> inception_3a/pool
I0327 09:11:23.288069  2662 net.cpp:582] From AppendTop @cpu: 0
I0327 09:11:23.288105  2662 net.cpp:219] Setting up inception_3a/pool
I0327 09:11:23.288121  2662 net.cpp:226] Top shape: 12 192 28 28 (1806336)
I0327 09:11:23.288133  2662 net.cpp:234] Memory required for data: 278175936
I0327 09:11:23.288148  2662 net.cpp:154] Setting up Layer of device :0 @cpu 0 Layer : inception_3a/pool_proj
I0327 09:11:23.288161  2662 layer_factory.hpp:114] Creating layer inception_3a/pool_proj
I0327 09:11:23.288193  2662 net.cpp:169] Creating Layer inception_3a/pool_proj
I0327 09:11:23.288208  2662 net.cpp:606] inception_3a/pool_proj <- inception_3a/pool
I0327 09:11:23.288228  2662 net.cpp:579] inception_3a/pool_proj -> inception_3a/pool_proj
I0327 09:11:23.288244  2662 net.cpp:582] From AppendTop @cpu: 0
I0327 09:11:23.291479  2662 net.cpp:219] Setting up inception_3a/pool_proj
I0327 09:11:23.291538  2662 net.cpp:226] Top shape: 12 32 28 28 (301056)
I0327 09:11:23.291551  2662 net.cpp:234] Memory required for data: 279380160
I0327 09:11:23.291597  2662 net.cpp:154] Setting up Layer of device :0 @cpu 0 Layer : inception_3a/relu_pool_proj
I0327 09:11:23.291611  2662 layer_factory.hpp:114] Creating layer inception_3a/relu_pool_proj
I0327 09:11:23.291631  2662 net.cpp:169] Creating Layer inception_3a/relu_pool_proj
I0327 09:11:23.291646  2662 net.cpp:606] inception_3a/relu_pool_proj <- inception_3a/pool_proj
I0327 09:11:23.291682  2662 net.cpp:566] inception_3a/relu_pool_proj -> inception_3a/pool_proj (in-place)
I0327 09:11:23.291707  2662 net.cpp:219] Setting up inception_3a/relu_pool_proj
I0327 09:11:23.291723  2662 net.cpp:226] Top shape: 12 32 28 28 (301056)
I0327 09:11:23.291733  2662 net.cpp:234] Memory required for data: 280584384
I0327 09:11:23.291749  2662 net.cpp:154] Setting up Layer of device :0 @cpu 0 Layer : inception_3a/output
I0327 09:11:23.291760  2662 layer_factory.hpp:114] Creating layer inception_3a/output
I0327 09:11:23.291777  2662 net.cpp:169] Creating Layer inception_3a/output
I0327 09:11:23.291790  2662 net.cpp:606] inception_3a/output <- inception_3a/1x1
I0327 09:11:23.291805  2662 net.cpp:606] inception_3a/output <- inception_3a/3x3
I0327 09:11:23.291820  2662 net.cpp:606] inception_3a/output <- inception_3a/5x5
I0327 09:11:23.291833  2662 net.cpp:606] inception_3a/output <- inception_3a/pool_proj
I0327 09:11:23.291853  2662 net.cpp:579] inception_3a/output -> inception_3a/output
I0327 09:11:23.291867  2662 net.cpp:582] From AppendTop @cpu: 0
I0327 09:11:23.291896  2662 net.cpp:219] Setting up inception_3a/output
I0327 09:11:23.291914  2662 net.cpp:226] Top shape: 12 256 28 28 (2408448)
I0327 09:11:23.291927  2662 net.cpp:234] Memory required for data: 290218176
I0327 09:11:23.291941  2662 net.cpp:154] Setting up Layer of device :0 @cpu 0 Layer : inception_3a/output_inception_3a/output_0_split
I0327 09:11:23.291954  2662 layer_factory.hpp:114] Creating layer inception_3a/output_inception_3a/output_0_split
I0327 09:11:23.291996  2662 net.cpp:169] Creating Layer inception_3a/output_inception_3a/output_0_split
…
I0327 09:11:23.292083  2662 net.cpp:582] From AppendTop @cpu: 0
I0327 09:11:23.292109  2662 net.cpp:579] inception_3a/output_inception_3a/output_0_split -> inception_3a/output_inception_3a/output_0_split_2
I0327 09:11:23.292121  2662 net.cpp:582] From AppendTop @cpu: 0
I0327 09:11:23.292141  2662 net.cpp:579] inception_3a/output_inception_3a/output_0_split -> inception_3a/output_inception_3a/output_0_split_3
I0327 09:11:23.292153  2662 net.cpp:582] From AppendTop @cpu: 0
I0327 09:11:23.292178  2662 net.cpp:219] Setting up inception_3a/output_inception_3a/output_0_split
I0327 09:11:23.292196  2662 net.cpp:226] Top shape: 12 256 28 28 (2408448)
I0327 09:11:23.292212  2662 net.cpp:226] Top shape: 12 256 28 28 (2408448)
I0327 09:11:23.292227  2662 net.cpp:226] Top shape: 12 256 28 28 (2408448)
I0327 09:11:23.292243  2662 net.cpp:226] Top shape: 12 256 28 28 (2408448)
I0327 09:11:23.292254  2662 net.cpp:234] Memory required for data: 328753344
I0327 09:11:23.292269  2662 net.cpp:154] Setting up Layer of device :0 @cpu 0 Layer : inception_3b/1x1
I0327 09:11:23.292281  2662 layer_factory.hpp:114] Creating layer inception_3b/1x1
I0327 09:11:23.292309  2662 net.cpp:169] Creating Layer inception_3b/1x1
I0327 09:11:23.292325  2662 net.cpp:606] inception_3b/1x1 <- inception_3a/output_inception_3a/output_0_split_0
I0327 09:11:23.292347  2662 net.cpp:579] inception_3b/1x1 -> inception_3b/1x1
I0327 09:11:23.292361  2662 net.cpp:582] From AppendTop @cpu: 0
I0327 09:11:23.298390  2662 net.cpp:219] Setting up inception_3b/1x1
I0327 09:11:23.298465  2662 net.cpp:226] Top shape: 12 128 28 28 (1204224)
I0327 09:11:23.298477  2662 net.cpp:234] Memory required for data: 333570240
I0327 09:11:23.298512  2662 net.cpp:154] Setting up Layer of device :0 @cpu 0 Layer : inception_3b/relu_1x1
I0327 09:11:23.298526  2662 layer_factory.hpp:114] Creating layer inception_3b/relu_1x1
I0327 09:11:23.298554  2662 net.cpp:169] Creating Layer inception_3b/relu_1x1
I0327 09:11:23.298588  2662 net.cpp:606] inception_3b/relu_1x1 <- inception_3b/1x1
I0327 09:11:23.298609  2662 net.cpp:566] inception_3b/relu_1x1 -> inception_3b/1x1 (in-place)
I0327 09:11:23.298633  2662 net.cpp:219] Setting up inception_3b/relu_1x1
I0327 09:11:23.298650  2662 net.cpp:226] Top shape: 12 128 28 28 (1204224)
I0327 09:11:23.298662  2662 net.cpp:234] Memory required for data: 338387136
I0327 09:11:23.298677  2662 net.cpp:154] Setting up Layer of device :0 @cpu 0 Layer : inception_3b/3x3_reduce
I0327 09:11:23.298689  2662 layer_factory.hpp:114] Creating layer inception_3b/3x3_reduce
I0327 09:11:23.298719  2662 net.cpp:169] Creating Layer inception_3b/3x3_reduce
I0327 09:11:23.298734  2662 net.cpp:606] inception_3b/3x3_reduce <- inception_3a/output_inception_3a/output_0_split_1
I0327 09:11:23.298758  2662 net.cpp:579] inception_3b/3x3_reduce -> inception_3b/3x3_reduce
I0327 09:11:23.298773  2662 net.cpp:582] From AppendTop @cpu: 0
I0327 09:11:23.304769  2662 net.cpp:219] Setting up inception_3b/3x3_reduce
I0327 09:11:23.304842  2662 net.cpp:226] Top shape: 12 128 28 28 (1204224)
I0327 09:11:23.304855  2662 net.cpp:234] Memory required for data: 343204032
I0327 09:11:23.304889  2662 net.cpp:154] Setting up Layer of device :0 @cpu 0 Layer : inception_3b/relu_3x3_reduce
I0327 09:11:23.304903  2662 layer_factory.hpp:114] Creating layer inception_3b/relu_3x3_reduce
I0327 09:11:23.304926  2662 net.cpp:169] Creating Layer inception_3b/relu_3x3_reduce
I0327 09:11:23.304942  2662 net.cpp:606] inception_3b/relu_3x3_reduce <- inception_3b/3x3_reduce
I0327 09:11:23.304999  2662 net.cpp:566] inception_3b/relu_3x3_reduce -> inception_3b/3x3_reduce (in-place)
I0327 09:11:23.305033  2662 net.cpp:219] Setting up inception_3b/relu_3x3_reduce
I0327 09:11:23.305052  2662 net.cpp:226] Top shape: 12 128 28 28 (1204224)
I0327 09:11:23.305064  2662 net.cpp:234] Memory required for data: 348020928
I0327 09:11:23.305079  2662 net.cpp:154] Setting up Layer of device :0 @cpu 0 Layer : inception_3b/3x3
I0327 09:11:23.305099  2662 layer_factory.hpp:114] Creating layer inception_3b/3x3
I0327 09:11:23.305132  2662 net.cpp:169] Creating Layer inception_3b/3x3
I0327 09:11:23.305146  2662 net.cpp:606] inception_3b/3x3 <- inception_3b/3x3_reduce
I0327 09:11:23.305171  2662 net.cpp:579] inception_3b/3x3 -> inception_3b/3x3
I0327 09:11:23.305183  2662 net.cpp:582] From AppendTop @cpu: 0
I0327 09:11:23.326725  2662 net.cpp:219] Setting up inception_3b/3x3
I0327 09:11:23.326817  2662 net.cpp:226] Top shape: 12 192 28 28 (1806336)
I0327 09:11:23.326830  2662 net.cpp:234] Memory required for data: 355246272
I0327 09:11:23.326869  2662 net.cpp:154] Setting up Layer of device :0 @cpu 0 Layer : inception_3b/relu_3x3
I0327 09:11:23.326880  2662 layer_factory.hpp:114] Creating layer inception_3b/relu_3x3
I0327 09:11:23.326905  2662 net.cpp:169] Creating Layer inception_3b/relu_3x3
I0327 09:11:23.326920  2662 net.cpp:606] inception_3b/relu_3x3 <- inception_3b/3x3
I0327 09:11:23.326937  2662 net.cpp:566] inception_3b/relu_3x3 -> inception_3b/3x3 (in-place)
I0327 09:11:23.326961  2662 net.cpp:219] Setting up inception_3b/relu_3x3
I0327 09:11:23.326977  2662 net.cpp:226] Top shape: 12 192 28 28 (1806336)
I0327 09:11:23.326987  2662 net.cpp:234] Memory required for data: 362471616
I0327 09:11:23.326999  2662 net.cpp:154] Setting up Layer of device :0 @cpu 0 Layer : inception_3b/5x5_reduce
I0327 09:11:23.327009  2662 layer_factory.hpp:114] Creating layer inception_3b/5x5_reduce
I0327 09:11:23.327046  2662 net.cpp:169] Creating Layer inception_3b/5x5_reduce
I0327 09:11:23.327061  2662 net.cpp:606] inception_3b/5x5_reduce <- inception_3a/output_inception_3a/output_0_split_2
I0327 09:11:23.327082  2662 net.cpp:579] inception_3b/5x5_reduce -> inception_3b/5x5_reduce
I0327 09:11:23.327100  2662 net.cpp:582] From AppendTop @cpu: 0
I0327 09:11:23.331244  2662 net.cpp:219] Setting up inception_3b/5x5_reduce
I0327 09:11:23.331310  2662 net.cpp:226] Top shape: 12 32 28 28 (301056)
I0327 09:11:23.331321  2662 net.cpp:234] Memory required for data: 363675840
I0327 09:11:23.331374  2662 net.cpp:154] Setting up Layer of device :0 @cpu 0 Layer : inception_3b/relu_5x5_reduce
I0327 09:11:23.331387  2662 layer_factory.hpp:114] Creating layer inception_3b/relu_5x5_reduce
I0327 09:11:23.331408  2662 net.cpp:169] Creating Layer inception_3b/relu_5x5_reduce
I0327 09:11:23.331421  2662 net.cpp:606] inception_3b/relu_5x5_reduce <- inception_3b/5x5_reduce
I0327 09:11:23.331439  2662 net.cpp:566] inception_3b/relu_5x5_reduce -> inception_3b/5x5_reduce (in-place)
I0327 09:11:23.331459  2662 net.cpp:219] Setting up inception_3b/relu_5x5_reduce
I0327 09:11:23.331473  2662 net.cpp:226] Top shape: 12 32 28 28 (301056)
I0327 09:11:23.331485  2662 net.cpp:234] Memory required for data: 364880064
I0327 09:11:23.331496  2662 net.cpp:154] Setting up Layer of device :0 @cpu 0 Layer : inception_3b/5x5
I0327 09:11:23.331507  2662 layer_factory.hpp:114] Creating layer inception_3b/5x5
I0327 09:11:23.331533  2662 net.cpp:169] Creating Layer inception_3b/5x5
I0327 09:11:23.331547  2662 net.cpp:606] inception_3b/5x5 <- inception_3b/5x5_reduce
I0327 09:11:23.331567  2662 net.cpp:579] inception_3b/5x5 -> inception_3b/5x5
I0327 09:11:23.331578  2662 net.cpp:582] From AppendTop @cpu: 0
I0327 09:11:23.343739  2662 net.cpp:219] Setting up inception_3b/5x5
I0327 09:11:23.343827  2662 net.cpp:226] Top shape: 12 96 28 28 (903168)
I0327 09:11:23.343840  2662 net.cpp:234] Memory required for data: 368492736
I0327 09:11:23.343876  2662 net.cpp:154] Setting up Layer of device :0 @cpu 0 Layer : inception_3b/relu_5x5
I0327 09:11:23.343889  2662 layer_factory.hpp:114] Creating layer inception_3b/relu_5x5
I0327 09:11:23.343950  2662 net.cpp:169] Creating Layer inception_3b/relu_5x5
I0327 09:11:23.343966  2662 net.cpp:606] inception_3b/relu_5x5 <- inception_3b/5x5
I0327 09:11:23.343989  2662 net.cpp:566] inception_3b/relu_5x5 -> inception_3b/5x5 (in-place)
I0327 09:11:23.344014  2662 net.cpp:219] Setting up inception_3b/relu_5x5
I0327 09:11:23.344038  2662 net.cpp:226] Top shape: 12 96 28 28 (903168)
I0327 09:11:23.344049  2662 net.cpp:234] Memory required for data: 372105408
I0327 09:11:23.344063  2662 net.cpp:154] Setting up Layer of device :0 @cpu 0 Layer : inception_3b/pool
I0327 09:11:23.344074  2662 layer_factory.hpp:114] Creating layer inception_3b/pool
I0327 09:11:23.344135  2662 net.cpp:169] Creating Layer inception_3b/pool
I0327 09:11:23.344151  2662 net.cpp:606] inception_3b/pool <- inception_3a/output_inception_3a/output_0_split_3
I0327 09:11:23.344172  2662 net.cpp:579] inception_3b/pool -> inception_3b/pool
I0327 09:11:23.344182  2662 net.cpp:582] From AppendTop @cpu: 0
I0327 09:11:23.344208  2662 net.cpp:219] Setting up inception_3b/pool
I0327 09:11:23.344223  2662 net.cpp:226] Top shape: 12 256 28 28 (2408448)
I0327 09:11:23.344233  2662 net.cpp:234] Memory required for data: 381739200
I0327 09:11:23.344245  2662 net.cpp:154] Setting up Layer of device :0 @cpu 0 Layer : inception_3b/pool_proj
I0327 09:11:23.344256  2662 layer_factory.hpp:114] Creating layer inception_3b/pool_proj
I0327 09:11:23.344285  2662 net.cpp:169] Creating Layer inception_3b/pool_proj
I0327 09:11:23.344297  2662 net.cpp:606] inception_3b/pool_proj <- inception_3b/pool
I0327 09:11:23.344317  2662 net.cpp:579] inception_3b/pool_proj -> inception_3b/pool_proj
I0327 09:11:23.344329  2662 net.cpp:582] From AppendTop @cpu: 0
I0327 09:11:23.347821  2662 net.cpp:219] Setting up inception_3b/pool_proj
I0327 09:11:23.347895  2662 net.cpp:226] Top shape: 12 64 28 28 (602112)
I0327 09:11:23.347906  2662 net.cpp:234] Memory required for data: 384147648
I0327 09:11:23.347939  2662 net.cpp:154] Setting up Layer of device :0 @cpu 0 Layer : inception_3b/relu_pool_proj
I0327 09:11:23.347950  2662 layer_factory.hpp:114] Creating layer inception_3b/relu_pool_proj
I0327 09:11:23.347971  2662 net.cpp:169] Creating Layer inception_3b/relu_pool_proj
I0327 09:11:23.347985  2662 net.cpp:606] inception_3b/relu_pool_proj <- inception_3b/pool_proj
I0327 09:11:23.348002  2662 net.cpp:566] inception_3b/relu_pool_proj -> inception_3b/pool_proj (in-place)
I0327 09:11:23.348050  2662 net.cpp:219] Setting up inception_3b/relu_pool_proj
I0327 09:11:23.348067  2662 net.cpp:226] Top shape: 12 64 28 28 (602112)
I0327 09:11:23.348078  2662 net.cpp:234] Memory required for data: 386556096
I0327 09:11:23.348096  2662 net.cpp:154] Setting up Layer of device :0 @cpu 0 Layer : inception_3b/output
I0327 09:11:23.348109  2662 layer_factory.hpp:114] Creating layer inception_3b/output
I0327 09:11:23.348124  2662 net.cpp:169] Creating Layer inception_3b/output
I0327 09:11:23.348136  2662 net.cpp:606] inception_3b/output <- inception_3b/1x1
I0327 09:11:23.348150  2662 net.cpp:606] inception_3b/output <- inception_3b/3x3
I0327 09:11:23.348162  2662 net.cpp:606] inception_3b/output <- inception_3b/5x5
I0327 09:11:23.348176  2662 net.cpp:606] inception_3b/output <- inception_3b/pool_proj
I0327 09:11:23.348201  2662 net.cpp:579] inception_3b/output -> inception_3b/output
I0327 09:11:23.348212  2662 net.cpp:582] From AppendTop @cpu: 0
I0327 09:11:23.348233  2662 net.cpp:219] Setting up inception_3b/output
I0327 09:11:23.348248  2662 net.cpp:226] Top shape: 12 480 28 28 (4515840)
I0327 09:11:23.348258  2662 net.cpp:234] Memory required for data: 404619456
I0327 09:11:23.348271  2662 net.cpp:154] Setting up Layer of device :0 @cpu 0 Layer : pool3/3x3_s2
I0327 09:11:23.348281  2662 layer_factory.hpp:114] Creating layer pool3/3x3_s2
I0327 09:11:23.348331  2662 net.cpp:169] Creating Layer pool3/3x3_s2
I0327 09:11:23.348345  2662 net.cpp:606] pool3/3x3_s2 <- inception_3b/output
I0327 09:11:23.348361  2662 net.cpp:579] pool3/3x3_s2 -> pool3/3x3_s2
I0327 09:11:23.348388  2662 net.cpp:582] From AppendTop @cpu: 0
I0327 09:11:23.348410  2662 net.cpp:219] Setting up pool3/3x3_s2
I0327 09:11:23.348424  2662 net.cpp:226] Top shape: 12 480 14 14 (1128960)
I0327 09:11:23.348435  2662 net.cpp:234] Memory required for data: 409135296
I0327 09:11:23.348448  2662 net.cpp:154] Setting up Layer of device :0 @cpu 0 Layer : pool3/3x3_s2_pool3/3x3_s2_0_split
I0327 09:11:23.348459  2662 layer_factory.hpp:114] Creating layer pool3/3x3_s2_pool3/3x3_s2_0_split
I0327 09:11:23.348477  2662 net.cpp:169] Creating Layer pool3/3x3_s2_pool3/3x3_s2_0_split
I0327 09:11:23.348489  2662 net.cpp:606] pool3/3x3_s2_pool3/3x3_s2_0_split <- pool3/3x3_s2
I0327 09:11:23.348503  2662 net.cpp:579] pool3/3x3_s2_pool3/3x3_s2_0_split -> pool3/3x3_s2_pool3/3x3_s2_0_split_0
I0327 09:11:23.348515  2662 net.cpp:582] From AppendTop @cpu: 0
I0327 09:11:23.348531  2662 net.cpp:579] pool3/3x3_s2_pool3/3x3_s2_0_split -> pool3/3x3_s2_pool3/3x3_s2_0_split_1
I0327 09:11:23.348541  2662 net.cpp:582] From AppendTop @cpu: 0
I0327 09:11:23.348561  2662 net.cpp:579] pool3/3x3_s2_pool3/3x3_s2_0_split -> pool3/3x3_s2_pool3/3x3_s2_0_split_2
I0327 09:11:23.348572  2662 net.cpp:582] From AppendTop @cpu: 0
I0327 09:11:23.348587  2662 net.cpp:579] pool3/3x3_s2_pool3/3x3_s2_0_split -> pool3/3x3_s2_pool3/3x3_s2_0_split_3
I0327 09:11:23.348598  2662 net.cpp:582] From AppendTop @cpu: 0
I0327 09:11:23.348616  2662 net.cpp:219] Setting up pool3/3x3_s2_pool3/3x3_s2_0_split
I0327 09:11:23.348630  2662 net.cpp:226] Top shape: 12 480 14 14 (1128960)
I0327 09:11:23.348644  2662 net.cpp:226] Top shape: 12 480 14 14 (1128960)
I0327 09:11:23.348657  2662 net.cpp:226] Top shape: 12 480 14 14 (1128960)
I0327 09:11:23.348670  2662 net.cpp:226] Top shape: 12 480 14 14 (1128960)
I0327 09:11:23.348680  2662 net.cpp:234] Memory required for data: 427198656
I0327 09:11:23.348692  2662 net.cpp:154] Setting up Layer of device :0 @cpu 0 Layer : inception_4a/1x1
I0327 09:11:23.348703  2662 layer_factory.hpp:114] Creating layer inception_4a/1x1
I0327 09:11:23.348728  2662 net.cpp:169] Creating Layer inception_4a/1x1
I0327 09:11:23.348740  2662 net.cpp:606] inception_4a/1x1 <- pool3/3x3_s2_pool3/3x3_s2_0_split_0
I0327 09:11:23.348767  2662 net.cpp:579] inception_4a/1x1 -> inception_4a/1x1
I0327 09:11:23.348778  2662 net.cpp:582] From AppendTop @cpu: 0
I0327 09:11:23.355296  2662 net.cpp:219] Setting up inception_4a/1x1
I0327 09:11:23.355355  2662 net.cpp:226] Top shape: 12 192 14 14 (451584)
I0327 09:11:23.355381  2662 net.cpp:234] Memory required for data: 429004992
I0327 09:11:23.355412  2662 net.cpp:154] Setting up Layer of device :0 @cpu 0 Layer : inception_4a/relu_1x1
I0327 09:11:23.355423  2662 layer_factory.hpp:114] Creating layer inception_4a/relu_1x1
I0327 09:11:23.355448  2662 net.cpp:169] Creating Layer inception_4a/relu_1x1
I0327 09:11:23.355461  2662 net.cpp:606] inception_4a/relu_1x1 <- inception_4a/1x1
I0327 09:11:23.355478  2662 net.cpp:566] inception_4a/relu_1x1 -> inception_4a/1x1 (in-place)
I0327 09:11:23.355501  2662 net.cpp:219] Setting up inception_4a/relu_1x1
I0327 09:11:23.355516  2662 net.cpp:226] Top shape: 12 192 14 14 (451584)
I0327 09:11:23.355526  2662 net.cpp:234] Memory required for data: 430811328
I0327 09:11:23.355540  2662 net.cpp:154] Setting up Layer of device :0 @cpu 0 Layer : inception_4a/3x3_reduce
I0327 09:11:23.355551  2662 layer_factory.hpp:114] Creating layer inception_4a/3x3_reduce
I0327 09:11:23.355571  2662 net.cpp:169] Creating Layer inception_4a/3x3_reduce
I0327 09:11:23.355584  2662 net.cpp:606] inception_4a/3x3_reduce <- pool3/3x3_s2_pool3/3x3_s2_0_split_1
I0327 09:11:23.355604  2662 net.cpp:579] inception_4a/3x3_reduce -> inception_4a/3x3_reduce
I0327 09:11:23.355617  2662 net.cpp:582] From AppendTop @cpu: 0
I0327 09:11:23.360173  2662 net.cpp:219] Setting up inception_4a/3x3_reduce
I0327 09:11:23.360222  2662 net.cpp:226] Top shape: 12 96 14 14 (225792)
I0327 09:11:23.360234  2662 net.cpp:234] Memory required for data: 431714496
I0327 09:11:23.360271  2662 net.cpp:154] Setting up Layer of device :0 @cpu 0 Layer : inception_4a/relu_3x3_reduce
I0327 09:11:23.360309  2662 layer_factory.hpp:114] Creating layer inception_4a/relu_3x3_reduce
I0327 09:11:23.360327  2662 net.cpp:169] Creating Layer inception_4a/relu_3x3_reduce
I0327 09:11:23.360340  2662 net.cpp:606] inception_4a/relu_3x3_reduce <- inception_4a/3x3_reduce
I0327 09:11:23.360359  2662 net.cpp:566] inception_4a/relu_3x3_reduce -> inception_4a/3x3_reduce (in-place)
I0327 09:11:23.360380  2662 net.cpp:219] Setting up inception_4a/relu_3x3_reduce
I0327 09:11:23.360394  2662 net.cpp:226] Top shape: 12 96 14 14 (225792)
I0327 09:11:23.360404  2662 net.cpp:234] Memory required for data: 432617664
I0327 09:11:23.360417  2662 net.cpp:154] Setting up Layer of device :0 @cpu 0 Layer : inception_4a/3x3
I0327 09:11:23.360427  2662 layer_factory.hpp:114] Creating layer inception_4a/3x3
I0327 09:11:23.360447  2662 net.cpp:169] Creating Layer inception_4a/3x3
I0327 09:11:23.360460  2662 net.cpp:606] inception_4a/3x3 <- inception_4a/3x3_reduce
I0327 09:11:23.360478  2662 net.cpp:579] inception_4a/3x3 -> inception_4a/3x3
I0327 09:11:23.360491  2662 net.cpp:582] From AppendTop @cpu: 0
I0327 09:11:23.370740  2662 net.cpp:219] Setting up inception_4a/3x3
I0327 09:11:23.370826  2662 net.cpp:226] Top shape: 12 208 14 14 (489216)
I0327 09:11:23.370837  2662 net.cpp:234] Memory required for data: 434574528
I0327 09:11:23.370873  2662 net.cpp:154] Setting up Layer of device :0 @cpu 0 Layer : inception_4a/relu_3x3
I0327 09:11:23.370885  2662 layer_factory.hpp:114] Creating layer inception_4a/relu_3x3
I0327 09:11:23.370909  2662 net.cpp:169] Creating Layer inception_4a/relu_3x3
I0327 09:11:23.370924  2662 net.cpp:606] inception_4a/relu_3x3 <- inception_4a/3x3
I0327 09:11:23.370942  2662 net.cpp:566] inception_4a/relu_3x3 -> inception_4a/3x3 (in-place)
I0327 09:11:23.370966  2662 net.cpp:219] Setting up inception_4a/relu_3x3
I0327 09:11:23.370980  2662 net.cpp:226] Top shape: 12 208 14 14 (489216)
I0327 09:11:23.370990  2662 net.cpp:234] Memory required for data: 436531392
I0327 09:11:23.371003  2662 net.cpp:154] Setting up Layer of device :0 @cpu 0 Layer : inception_4a/5x5_reduce
I0327 09:11:23.371014  2662 layer_factory.hpp:114] Creating layer inception_4a/5x5_reduce
I0327 09:11:23.371052  2662 net.cpp:169] Creating Layer inception_4a/5x5_reduce
I0327 09:11:23.371079  2662 net.cpp:606] inception_4a/5x5_reduce <- pool3/3x3_s2_pool3/3x3_s2_0_split_2
I0327 09:11:23.371103  2662 net.cpp:579] inception_4a/5x5_reduce -> inception_4a/5x5_reduce
I0327 09:11:23.371134  2662 net.cpp:582] From AppendTop @cpu: 0
I0327 09:11:23.373797  2662 net.cpp:219] Setting up inception_4a/5x5_reduce
I0327 09:11:23.373838  2662 net.cpp:226] Top shape: 12 16 14 14 (37632)
I0327 09:11:23.373849  2662 net.cpp:234] Memory required for data: 436681920
I0327 09:11:23.373875  2662 net.cpp:154] Setting up Layer of device :0 @cpu 0 Layer : inception_4a/relu_5x5_reduce
I0327 09:11:23.373888  2662 layer_factory.hpp:114] Creating layer inception_4a/relu_5x5_reduce
I0327 09:11:23.373904  2662 net.cpp:169] Creating Layer inception_4a/relu_5x5_reduce
I0327 09:11:23.373917  2662 net.cpp:606] inception_4a/relu_5x5_reduce <- inception_4a/5x5_reduce
I0327 09:11:23.373934  2662 net.cpp:566] inception_4a/relu_5x5_reduce -> inception_4a/5x5_reduce (in-place)
I0327 09:11:23.373951  2662 net.cpp:219] Setting up inception_4a/relu_5x5_reduce
I0327 09:11:23.373966  2662 net.cpp:226] Top shape: 12 16 14 14 (37632)
I0327 09:11:23.373976  2662 net.cpp:234] Memory required for data: 436832448
I0327 09:11:23.373989  2662 net.cpp:154] Setting up Layer of device :0 @cpu 0 Layer : inception_4a/5x5
I0327 09:11:23.373999  2662 layer_factory.hpp:114] Creating layer inception_4a/5x5
I0327 09:11:23.374032  2662 net.cpp:169] Creating Layer inception_4a/5x5
I0327 09:11:23.374047  2662 net.cpp:606] inception_4a/5x5 <- inception_4a/5x5_reduce
I0327 09:11:23.374065  2662 net.cpp:579] inception_4a/5x5 -> inception_4a/5x5
I0327 09:11:23.374076  2662 net.cpp:582] From AppendTop @cpu: 0
I0327 09:11:23.376987  2662 net.cpp:219] Setting up inception_4a/5x5
I0327 09:11:23.377033  2662 net.cpp:226] Top shape: 12 48 14 14 (112896)
I0327 09:11:23.377074  2662 net.cpp:234] Memory required for data: 437284032
I0327 09:11:23.377106  2662 net.cpp:154] Setting up Layer of device :0 @cpu 0 Layer : inception_4a/relu_5x5
I0327 09:11:23.377120  2662 layer_factory.hpp:114] Creating layer inception_4a/relu_5x5
I0327 09:11:23.377136  2662 net.cpp:169] Creating Layer inception_4a/relu_5x5
I0327 09:11:23.377148  2662 net.cpp:606] inception_4a/relu_5x5 <- inception_4a/5x5
I0327 09:11:23.377169  2662 net.cpp:566] inception_4a/relu_5x5 -> inception_4a/5x5 (in-place)
I0327 09:11:23.377188  2662 net.cpp:219] Setting up inception_4a/relu_5x5
I0327 09:11:23.377202  2662 net.cpp:226] Top shape: 12 48 14 14 (112896)
I0327 09:11:23.377213  2662 net.cpp:234] Memory required for data: 437735616
I0327 09:11:23.377225  2662 net.cpp:154] Setting up Layer of device :0 @cpu 0 Layer : inception_4a/pool
I0327 09:11:23.377238  2662 layer_factory.hpp:114] Creating layer inception_4a/pool
I0327 09:11:23.377290  2662 net.cpp:169] Creating Layer inception_4a/pool
I0327 09:11:23.377305  2662 net.cpp:606] inception_4a/pool <- pool3/3x3_s2_pool3/3x3_s2_0_split_3
I0327 09:11:23.377326  2662 net.cpp:579] inception_4a/pool -> inception_4a/pool
I0327 09:11:23.377336  2662 net.cpp:582] From AppendTop @cpu: 0
I0327 09:11:23.377359  2662 net.cpp:219] Setting up inception_4a/pool
I0327 09:11:23.377374  2662 net.cpp:226] Top shape: 12 480 14 14 (1128960)
I0327 09:11:23.377385  2662 net.cpp:234] Memory required for data: 442251456
I0327 09:11:23.377398  2662 net.cpp:154] Setting up Layer of device :0 @cpu 0 Layer : inception_4a/pool_proj
I0327 09:11:23.377408  2662 layer_factory.hpp:114] Creating layer inception_4a/pool_proj
I0327 09:11:23.377432  2662 net.cpp:169] Creating Layer inception_4a/pool_proj
I0327 09:11:23.377445  2662 net.cpp:606] inception_4a/pool_proj <- inception_4a/pool
I0327 09:11:23.377468  2662 net.cpp:579] inception_4a/pool_proj -> inception_4a/pool_proj
I0327 09:11:23.377480  2662 net.cpp:582] From AppendTop @cpu: 0
I0327 09:11:23.381094  2662 net.cpp:219] Setting up inception_4a/pool_proj
I0327 09:11:23.381142  2662 net.cpp:226] Top shape: 12 64 14 14 (150528)
I0327 09:11:23.381153  2662 net.cpp:234] Memory required for data: 442853568
I0327 09:11:23.381181  2662 net.cpp:154] Setting up Layer of device :0 @cpu 0 Layer : inception_4a/relu_pool_proj
I0327 09:11:23.381193  2662 layer_factory.hpp:114] Creating layer inception_4a/relu_pool_proj
I0327 09:11:23.381211  2662 net.cpp:169] Creating Layer inception_4a/relu_pool_proj
I0327 09:11:23.381237  2662 net.cpp:606] inception_4a/relu_pool_proj <- inception_4a/pool_proj
I0327 09:11:23.381255  2662 net.cpp:566] inception_4a/relu_pool_proj -> inception_4a/pool_proj (in-place)
I0327 09:11:23.381276  2662 net.cpp:219] Setting up inception_4a/relu_pool_proj
I0327 09:11:23.381290  2662 net.cpp:226] Top shape: 12 64 14 14 (150528)
I0327 09:11:23.381300  2662 net.cpp:234] Memory required for data: 443455680
I0327 09:11:23.381314  2662 net.cpp:154] Setting up Layer of device :0 @cpu 0 Layer : inception_4a/output
I0327 09:11:23.381323  2662 layer_factory.hpp:114] Creating layer inception_4a/output
I0327 09:11:23.381342  2662 net.cpp:169] Creating Layer inception_4a/output
I0327 09:11:23.381356  2662 net.cpp:606] inception_4a/output <- inception_4a/1x1
I0327 09:11:23.381368  2662 net.cpp:606] inception_4a/output <- inception_4a/3x3
I0327 09:11:23.381381  2662 net.cpp:606] inception_4a/output <- inception_4a/5x5
I0327 09:11:23.381393  2662 net.cpp:606] inception_4a/output <- inception_4a/pool_proj
I0327 09:11:23.381407  2662 net.cpp:579] inception_4a/output -> inception_4a/output
I0327 09:11:23.381417  2662 net.cpp:582] From AppendTop @cpu: 0
I0327 09:11:23.381438  2662 net.cpp:219] Setting up inception_4a/output
I0327 09:11:23.381453  2662 net.cpp:226] Top shape: 12 512 14 14 (1204224)
I0327 09:11:23.381463  2662 net.cpp:234] Memory required for data: 448272576
I0327 09:11:23.381475  2662 net.cpp:154] Setting up Layer of device :0 @cpu 0 Layer : inception_4a/output_inception_4a/output_0_split
I0327 09:11:23.381502  2662 layer_factory.hpp:114] Creating layer inception_4a/output_inception_4a/output_0_split
I0327 09:11:23.381520  2662 net.cpp:169] Creating Layer inception_4a/output_inception_4a/output_0_split
…
I0327 09:11:23.381616  2662 net.cpp:582] From AppendTop @cpu: 0
I0327 09:11:23.381633  2662 net.cpp:579] inception_4a/output_inception_4a/output_0_split -> inception_4a/output_inception_4a/output_0_split_3
I0327 09:11:23.381644  2662 net.cpp:582] From AppendTop @cpu: 0
I0327 09:11:23.381659  2662 net.cpp:579] inception_4a/output_inception_4a/output_0_split -> inception_4a/output_inception_4a/output_0_split_4
I0327 09:11:23.381674  2662 net.cpp:582] From AppendTop @cpu: 0
I0327 09:11:23.381695  2662 net.cpp:219] Setting up inception_4a/output_inception_4a/output_0_split
I0327 09:11:23.381709  2662 net.cpp:226] Top shape: 12 512 14 14 (1204224)
I0327 09:11:23.381722  2662 net.cpp:226] Top shape: 12 512 14 14 (1204224)
I0327 09:11:23.381736  2662 net.cpp:226] Top shape: 12 512 14 14 (1204224)
I0327 09:11:23.381749  2662 net.cpp:226] Top shape: 12 512 14 14 (1204224)
I0327 09:11:23.381762  2662 net.cpp:226] Top shape: 12 512 14 14 (1204224)
I0327 09:11:23.381772  2662 net.cpp:234] Memory required for data: 472357056
I0327 09:11:23.381784  2662 net.cpp:154] Setting up Layer of device :0 @cpu 0 Layer : loss1/ave_pool
I0327 09:11:23.381795  2662 layer_factory.hpp:114] Creating layer loss1/ave_pool
I0327 09:11:23.381839  2662 net.cpp:169] Creating Layer loss1/ave_pool
I0327 09:11:23.381853  2662 net.cpp:606] loss1/ave_pool <- inception_4a/output_inception_4a/output_0_split_0
I0327 09:11:23.381875  2662 net.cpp:579] loss1/ave_pool -> loss1/ave_pool
I0327 09:11:23.381886  2662 net.cpp:582] From AppendTop @cpu: 0
I0327 09:11:23.381903  2662 net.cpp:219] Setting up loss1/ave_pool
I0327 09:11:23.381925  2662 net.cpp:226] Top shape: 12 512 4 4 (98304)
I0327 09:11:23.381937  2662 net.cpp:234] Memory required for data: 472750272
I0327 09:11:23.381949  2662 net.cpp:154] Setting up Layer of device :0 @cpu 0 Layer : loss1/conv
I0327 09:11:23.381959  2662 layer_factory.hpp:114] Creating layer loss1/conv
I0327 09:11:23.381984  2662 net.cpp:169] Creating Layer loss1/conv
I0327 09:11:23.381996  2662 net.cpp:606] loss1/conv <- loss1/ave_pool
I0327 09:11:23.382021  2662 net.cpp:579] loss1/conv -> loss1/conv
I0327 09:11:23.382035  2662 net.cpp:582] From AppendTop @cpu: 0
I0327 09:11:23.385255  2662 net.cpp:219] Setting up loss1/conv
I0327 09:11:23.385295  2662 net.cpp:226] Top shape: 12 128 4 4 (24576)
I0327 09:11:23.385306  2662 net.cpp:234] Memory required for data: 472848576
I0327 09:11:23.385330  2662 net.cpp:154] Setting up Layer of device :0 @cpu 0 Layer : loss1/relu_conv
I0327 09:11:23.385342  2662 layer_factory.hpp:114] Creating layer loss1/relu_conv
I0327 09:11:23.385363  2662 net.cpp:169] Creating Layer loss1/relu_conv
I0327 09:11:23.385375  2662 net.cpp:606] loss1/relu_conv <- loss1/conv
I0327 09:11:23.385391  2662 net.cpp:566] loss1/relu_conv -> loss1/conv (in-place)
I0327 09:11:23.385409  2662 net.cpp:219] Setting up loss1/relu_conv
I0327 09:11:23.385424  2662 net.cpp:226] Top shape: 12 128 4 4 (24576)
I0327 09:11:23.385434  2662 net.cpp:234] Memory required for data: 472946880
I0327 09:11:23.385447  2662 net.cpp:154] Setting up Layer of device :0 @cpu 0 Layer : loss1/fc
I0327 09:11:23.385458  2662 layer_factory.hpp:114] Creating layer loss1/fc
I0327 09:11:23.385484  2662 net.cpp:169] Creating Layer loss1/fc
I0327 09:11:23.385517  2662 net.cpp:606] loss1/fc <- loss1/conv
I0327 09:11:23.385538  2662 net.cpp:579] loss1/fc -> loss1/fc
I0327 09:11:23.385550  2662 net.cpp:582] From AppendTop @cpu: 0
I0327 09:11:23.422962  2662 net.cpp:219] Setting up loss1/fc
I0327 09:11:23.423043  2662 net.cpp:226] Top shape: 12 1024 (12288)
I0327 09:11:23.423053  2662 net.cpp:234] Memory required for data: 472996032
I0327 09:11:23.423076  2662 net.cpp:154] Setting up Layer of device :0 @cpu 0 Layer : loss1/relu_fc
I0327 09:11:23.423086  2662 layer_factory.hpp:114] Creating layer loss1/relu_fc
I0327 09:11:23.423110  2662 net.cpp:169] Creating Layer loss1/relu_fc
I0327 09:11:23.423122  2662 net.cpp:606] loss1/relu_fc <- loss1/fc
I0327 09:11:23.423141  2662 net.cpp:566] loss1/relu_fc -> loss1/fc (in-place)
I0327 09:11:23.423157  2662 net.cpp:219] Setting up loss1/relu_fc
I0327 09:11:23.423169  2662 net.cpp:226] Top shape: 12 1024 (12288)
I0327 09:11:23.423177  2662 net.cpp:234] Memory required for data: 473045184
I0327 09:11:23.423187  2662 net.cpp:154] Setting up Layer of device :0 @cpu 0 Layer : loss1/drop_fc
I0327 09:11:23.423197  2662 layer_factory.hpp:114] Creating layer loss1/drop_fc
I0327 09:11:23.423219  2662 net.cpp:169] Creating Layer loss1/drop_fc
I0327 09:11:23.423229  2662 net.cpp:606] loss1/drop_fc <- loss1/fc
I0327 09:11:23.423240  2662 net.cpp:566] loss1/drop_fc -> loss1/fc (in-place)
I0327 09:11:23.423259  2662 net.cpp:219] Setting up loss1/drop_fc
I0327 09:11:23.423269  2662 net.cpp:226] Top shape: 12 1024 (12288)
I0327 09:11:23.423277  2662 net.cpp:234] Memory required for data: 473094336
I0327 09:11:23.423288  2662 net.cpp:154] Setting up Layer of device :0 @cpu 0 Layer : loss1/classifier
I0327 09:11:23.423296  2662 layer_factory.hpp:114] Creating layer loss1/classifier
I0327 09:11:23.423321  2662 net.cpp:169] Creating Layer loss1/classifier
I0327 09:11:23.423331  2662 net.cpp:606] loss1/classifier <- loss1/fc
I0327 09:11:23.423346  2662 net.cpp:579] loss1/classifier -> loss1/classifier
I0327 09:11:23.423354  2662 net.cpp:582] From AppendTop @cpu: 0
I0327 09:11:23.440690  2662 net.cpp:219] Setting up loss1/classifier
I0327 09:11:23.440744  2662 net.cpp:226] Top shape: 12 1000 (12000)
I0327 09:11:23.440753  2662 net.cpp:234] Memory required for data: 473142336
I0327 09:11:23.440773  2662 net.cpp:154] Setting up Layer of device :0 @cpu 0 Layer : loss1/loss
I0327 09:11:23.440783  2662 layer_factory.hpp:114] Creating layer loss1/loss
I0327 09:11:23.440821  2662 net.cpp:169] Creating Layer loss1/loss
I0327 09:11:23.440834  2662 net.cpp:606] loss1/loss <- loss1/classifier
…
I0327 09:11:23.441119  2662 net.cpp:154] Setting up Layer of device :0 @cpu 0 Layer : inception_4b/1x1
I0327 09:11:23.441128  2662 layer_factory.hpp:114] Creating layer inception_4b/1x1
I0327 09:11:23.441153  2662 net.cpp:169] Creating Layer inception_4b/1x1
I0327 09:11:23.441165  2662 net.cpp:606] inception_4b/1x1 <- inception_4a/output_inception_4a/output_0_split_1
I0327 09:11:23.441181  2662 net.cpp:579] inception_4b/1x1 -> inception_4b/1x1
I0327 09:11:23.441190  2662 net.cpp:582] From AppendTop @cpu: 0
I0327 09:11:23.446013  2662 net.cpp:219] Setting up inception_4b/1x1
I0327 09:11:23.446075  2662 net.cpp:226] Top shape: 12 160 14 14 (376320)
I0327 09:11:23.446084  2662 net.cpp:234] Memory required for data: 474647620
I0327 09:11:23.446113  2662 net.cpp:154] Setting up Layer of device :0 @cpu 0 Layer : inception_4b/relu_1x1
I0327 09:11:23.446123  2662 layer_factory.hpp:114] Creating layer inception_4b/relu_1x1
I0327 09:11:23.446166  2662 net.cpp:169] Creating Layer inception_4b/relu_1x1
I0327 09:11:23.446179  2662 net.cpp:606] inception_4b/relu_1x1 <- inception_4b/1x1
I0327 09:11:23.446192  2662 net.cpp:566] inception_4b/relu_1x1 -> inception_4b/1x1 (in-place)
I0327 09:11:23.446209  2662 net.cpp:219] Setting up inception_4b/relu_1x1
I0327 09:11:23.446221  2662 net.cpp:226] Top shape: 12 160 14 14 (376320)
I0327 09:11:23.446229  2662 net.cpp:234] Memory required for data: 476152900
I0327 09:11:23.446239  2662 net.cpp:154] Setting up Layer of device :0 @cpu 0 Layer : inception_4b/3x3_reduce
I0327 09:11:23.446247  2662 layer_factory.hpp:114] Creating layer inception_4b/3x3_reduce
I0327 09:11:23.446269  2662 net.cpp:169] Creating Layer inception_4b/3x3_reduce
I0327 09:11:23.446280  2662 net.cpp:606] inception_4b/3x3_reduce <- inception_4a/output_inception_4a/output_0_split_2
I0327 09:11:23.446296  2662 net.cpp:579] inception_4b/3x3_reduce -> inception_4b/3x3_reduce
I0327 09:11:23.446305  2662 net.cpp:582] From AppendTop @cpu: 0
I0327 09:11:23.450407  2662 net.cpp:219] Setting up inception_4b/3x3_reduce
I0327 09:11:23.450453  2662 net.cpp:226] Top shape: 12 112 14 14 (263424)
I0327 09:11:23.450462  2662 net.cpp:234] Memory required for data: 477206596
I0327 09:11:23.450485  2662 net.cpp:154] Setting up Layer of device :0 @cpu 0 Layer : inception_4b/relu_3x3_reduce
I0327 09:11:23.450495  2662 layer_factory.hpp:114] Creating layer inception_4b/relu_3x3_reduce
I0327 09:11:23.450510  2662 net.cpp:169] Creating Layer inception_4b/relu_3x3_reduce
I0327 09:11:23.450521  2662 net.cpp:606] inception_4b/relu_3x3_reduce <- inception_4b/3x3_reduce
I0327 09:11:23.450536  2662 net.cpp:566] inception_4b/relu_3x3_reduce -> inception_4b/3x3_reduce (in-place)
I0327 09:11:23.450551  2662 net.cpp:219] Setting up inception_4b/relu_3x3_reduce
I0327 09:11:23.450562  2662 net.cpp:226] Top shape: 12 112 14 14 (263424)
I0327 09:11:23.450570  2662 net.cpp:234] Memory required for data: 478260292
I0327 09:11:23.450580  2662 net.cpp:154] Setting up Layer of device :0 @cpu 0 Layer : inception_4b/3x3
I0327 09:11:23.450588  2662 layer_factory.hpp:114] Creating layer inception_4b/3x3
I0327 09:11:23.450613  2662 net.cpp:169] Creating Layer inception_4b/3x3
I0327 09:11:23.450623  2662 net.cpp:606] inception_4b/3x3 <- inception_4b/3x3_reduce
I0327 09:11:23.450639  2662 net.cpp:579] inception_4b/3x3 -> inception_4b/3x3
I0327 09:11:23.450649  2662 net.cpp:582] From AppendTop @cpu: 0
I0327 09:11:23.460381  2662 net.cpp:219] Setting up inception_4b/3x3
I0327 09:11:23.460465  2662 net.cpp:226] Top shape: 12 224 14 14 (526848)
I0327 09:11:23.460475  2662 net.cpp:234] Memory required for data: 480367684
I0327 09:11:23.460506  2662 net.cpp:154] Setting up Layer of device :0 @cpu 0 Layer : inception_4b/relu_3x3
I0327 09:11:23.460516  2662 layer_factory.hpp:114] Creating layer inception_4b/relu_3x3
I0327 09:11:23.460541  2662 net.cpp:169] Creating Layer inception_4b/relu_3x3
I0327 09:11:23.460554  2662 net.cpp:606] inception_4b/relu_3x3 <- inception_4b/3x3
I0327 09:11:23.460569  2662 net.cpp:566] inception_4b/relu_3x3 -> inception_4b/3x3 (in-place)
I0327 09:11:23.460589  2662 net.cpp:219] Setting up inception_4b/relu_3x3
I0327 09:11:23.460600  2662 net.cpp:226] Top shape: 12 224 14 14 (526848)
I0327 09:11:23.460608  2662 net.cpp:234] Memory required for data: 482475076
I0327 09:11:23.460618  2662 net.cpp:154] Setting up Layer of device :0 @cpu 0 Layer : inception_4b/5x5_reduce
I0327 09:11:23.460628  2662 layer_factory.hpp:114] Creating layer inception_4b/5x5_reduce
I0327 09:11:23.460647  2662 net.cpp:169] Creating Layer inception_4b/5x5_reduce
I0327 09:11:23.460657  2662 net.cpp:606] inception_4b/5x5_reduce <- inception_4a/output_inception_4a/output_0_split_3
I0327 09:11:23.460675  2662 net.cpp:579] inception_4b/5x5_reduce -> inception_4b/5x5_reduce
I0327 09:11:23.460685  2662 net.cpp:582] From AppendTop @cpu: 0
I0327 09:11:23.463001  2662 net.cpp:219] Setting up inception_4b/5x5_reduce
I0327 09:11:23.463047  2662 net.cpp:226] Top shape: 12 24 14 14 (56448)
I0327 09:11:23.463086  2662 net.cpp:234] Memory required for data: 482700868
I0327 09:11:23.463114  2662 net.cpp:154] Setting up Layer of device :0 @cpu 0 Layer : inception_4b/relu_5x5_reduce
I0327 09:11:23.463124  2662 layer_factory.hpp:114] Creating layer inception_4b/relu_5x5_reduce
I0327 09:11:23.463137  2662 net.cpp:169] Creating Layer inception_4b/relu_5x5_reduce
I0327 09:11:23.463150  2662 net.cpp:606] inception_4b/relu_5x5_reduce <- inception_4b/5x5_reduce
I0327 09:11:23.463161  2662 net.cpp:566] inception_4b/relu_5x5_reduce -> inception_4b/5x5_reduce (in-place)
I0327 09:11:23.463176  2662 net.cpp:219] Setting up inception_4b/relu_5x5_reduce
I0327 09:11:23.463187  2662 net.cpp:226] Top shape: 12 24 14 14 (56448)
I0327 09:11:23.463196  2662 net.cpp:234] Memory required for data: 482926660
I0327 09:11:23.463207  2662 net.cpp:154] Setting up Layer of device :0 @cpu 0 Layer : inception_4b/5x5
I0327 09:11:23.463214  2662 layer_factory.hpp:114] Creating layer inception_4b/5x5
I0327 09:11:23.463234  2662 net.cpp:169] Creating Layer inception_4b/5x5
I0327 09:11:23.463244  2662 net.cpp:606] inception_4b/5x5 <- inception_4b/5x5_reduce
I0327 09:11:23.463260  2662 net.cpp:579] inception_4b/5x5 -> inception_4b/5x5
I0327 09:11:23.463269  2662 net.cpp:582] From AppendTop @cpu: 0
I0327 09:11:23.466307  2662 net.cpp:219] Setting up inception_4b/5x5
I0327 09:11:23.466358  2662 net.cpp:226] Top shape: 12 64 14 14 (150528)
I0327 09:11:23.466368  2662 net.cpp:234] Memory required for data: 483528772
I0327 09:11:23.466392  2662 net.cpp:154] Setting up Layer of device :0 @cpu 0 Layer : inception_4b/relu_5x5
I0327 09:11:23.466401  2662 layer_factory.hpp:114] Creating layer inception_4b/relu_5x5
I0327 09:11:23.466418  2662 net.cpp:169] Creating Layer inception_4b/relu_5x5
I0327 09:11:23.466429  2662 net.cpp:606] inception_4b/relu_5x5 <- inception_4b/5x5
I0327 09:11:23.466442  2662 net.cpp:566] inception_4b/relu_5x5 -> inception_4b/5x5 (in-place)
I0327 09:11:23.466459  2662 net.cpp:219] Setting up inception_4b/relu_5x5
I0327 09:11:23.466470  2662 net.cpp:226] Top shape: 12 64 14 14 (150528)
I0327 09:11:23.466478  2662 net.cpp:234] Memory required for data: 484130884
I0327 09:11:23.466487  2662 net.cpp:154] Setting up Layer of device :0 @cpu 0 Layer : inception_4b/pool
I0327 09:11:23.466496  2662 layer_factory.hpp:114] Creating layer inception_4b/pool
I0327 09:11:23.466547  2662 net.cpp:169] Creating Layer inception_4b/pool
I0327 09:11:23.466557  2662 net.cpp:606] inception_4b/pool <- inception_4a/output_inception_4a/output_0_split_4
I0327 09:11:23.466583  2662 net.cpp:579] inception_4b/pool -> inception_4b/pool
I0327 09:11:23.466593  2662 net.cpp:582] From AppendTop @cpu: 0
I0327 09:11:23.466619  2662 net.cpp:219] Setting up inception_4b/pool
I0327 09:11:23.466632  2662 net.cpp:226] Top shape: 12 512 14 14 (1204224)
I0327 09:11:23.466640  2662 net.cpp:234] Memory required for data: 488947780
I0327 09:11:23.466650  2662 net.cpp:154] Setting up Layer of device :0 @cpu 0 Layer : inception_4b/pool_proj
I0327 09:11:23.466660  2662 layer_factory.hpp:114] Creating layer inception_4b/pool_proj
I0327 09:11:23.466681  2662 net.cpp:169] Creating Layer inception_4b/pool_proj
I0327 09:11:23.466689  2662 net.cpp:606] inception_4b/pool_proj <- inception_4b/pool
I0327 09:11:23.466706  2662 net.cpp:579] inception_4b/pool_proj -> inception_4b/pool_proj
I0327 09:11:23.466716  2662 net.cpp:582] From AppendTop @cpu: 0
I0327 09:11:23.469746  2662 net.cpp:219] Setting up inception_4b/pool_proj
I0327 09:11:23.469786  2662 net.cpp:226] Top shape: 12 64 14 14 (150528)
I0327 09:11:23.469795  2662 net.cpp:234] Memory required for data: 489549892
I0327 09:11:23.469817  2662 net.cpp:154] Setting up Layer of device :0 @cpu 0 Layer : inception_4b/relu_pool_proj
I0327 09:11:23.469826  2662 layer_factory.hpp:114] Creating layer inception_4b/relu_pool_proj
I0327 09:11:23.469849  2662 net.cpp:169] Creating Layer inception_4b/relu_pool_proj
I0327 09:11:23.469861  2662 net.cpp:606] inception_4b/relu_pool_proj <- inception_4b/pool_proj
I0327 09:11:23.469873  2662 net.cpp:566] inception_4b/relu_pool_proj -> inception_4b/pool_proj (in-place)
I0327 09:11:23.469913  2662 net.cpp:219] Setting up inception_4b/relu_pool_proj
I0327 09:11:23.469925  2662 net.cpp:226] Top shape: 12 64 14 14 (150528)
I0327 09:11:23.469933  2662 net.cpp:234] Memory required for data: 490152004
I0327 09:11:23.469944  2662 net.cpp:154] Setting up Layer of device :0 @cpu 0 Layer : inception_4b/output
I0327 09:11:23.469952  2662 layer_factory.hpp:114] Creating layer inception_4b/output
I0327 09:11:23.469964  2662 net.cpp:169] Creating Layer inception_4b/output
I0327 09:11:23.469974  2662 net.cpp:606] inception_4b/output <- inception_4b/1x1
I0327 09:11:23.469985  2662 net.cpp:606] inception_4b/output <- inception_4b/3x3
I0327 09:11:23.469995  2662 net.cpp:606] inception_4b/output <- inception_4b/5x5
I0327 09:11:23.470005  2662 net.cpp:606] inception_4b/output <- inception_4b/pool_proj
I0327 09:11:23.470022  2662 net.cpp:579] inception_4b/output -> inception_4b/output
I0327 09:11:23.470033  2662 net.cpp:582] From AppendTop @cpu: 0
I0327 09:11:23.470049  2662 net.cpp:219] Setting up inception_4b/output
I0327 09:11:23.470062  2662 net.cpp:226] Top shape: 12 512 14 14 (1204224)
I0327 09:11:23.470069  2662 net.cpp:234] Memory required for data: 494968900
I0327 09:11:23.470079  2662 net.cpp:154] Setting up Layer of device :0 @cpu 0 Layer : inception_4b/output_inception_4b/output_0_split
I0327 09:11:23.470093  2662 layer_factory.hpp:114] Creating layer inception_4b/output_inception_4b/output_0_split
I0327 09:11:23.470105  2662 net.cpp:169] Creating Layer inception_4b/output_inception_4b/output_0_split
…
I0327 09:11:23.470160  2662 net.cpp:582] From AppendTop @cpu: 0
I0327 09:11:23.470173  2662 net.cpp:579] inception_4b/output_inception_4b/output_0_split -> inception_4b/output_inception_4b/output_0_split_2
I0327 09:11:23.470185  2662 net.cpp:582] From AppendTop @cpu: 0
I0327 09:11:23.470198  2662 net.cpp:579] inception_4b/output_inception_4b/output_0_split -> inception_4b/output_inception_4b/output_0_split_3
I0327 09:11:23.470213  2662 net.cpp:582] From AppendTop @cpu: 0
I0327 09:11:23.470228  2662 net.cpp:219] Setting up inception_4b/output_inception_4b/output_0_split
I0327 09:11:23.470240  2662 net.cpp:226] Top shape: 12 512 14 14 (1204224)
I0327 09:11:23.470252  2662 net.cpp:226] Top shape: 12 512 14 14 (1204224)
I0327 09:11:23.470262  2662 net.cpp:226] Top shape: 12 512 14 14 (1204224)
I0327 09:11:23.470273  2662 net.cpp:226] Top shape: 12 512 14 14 (1204224)
I0327 09:11:23.470280  2662 net.cpp:234] Memory required for data: 514236484
I0327 09:11:23.470290  2662 net.cpp:154] Setting up Layer of device :0 @cpu 0 Layer : inception_4c/1x1
I0327 09:11:23.470299  2662 layer_factory.hpp:114] Creating layer inception_4c/1x1
I0327 09:11:23.470319  2662 net.cpp:169] Creating Layer inception_4c/1x1
I0327 09:11:23.470329  2662 net.cpp:606] inception_4c/1x1 <- inception_4b/output_inception_4b/output_0_split_0
I0327 09:11:23.470343  2662 net.cpp:579] inception_4c/1x1 -> inception_4c/1x1
I0327 09:11:23.470352  2662 net.cpp:582] From AppendTop @cpu: 0
I0327 09:11:23.474740  2662 net.cpp:219] Setting up inception_4c/1x1
I0327 09:11:23.474781  2662 net.cpp:226] Top shape: 12 128 14 14 (301056)
I0327 09:11:23.474791  2662 net.cpp:234] Memory required for data: 515440708
I0327 09:11:23.474812  2662 net.cpp:154] Setting up Layer of device :0 @cpu 0 Layer : inception_4c/relu_1x1
I0327 09:11:23.474822  2662 layer_factory.hpp:114] Creating layer inception_4c/relu_1x1
I0327 09:11:23.474841  2662 net.cpp:169] Creating Layer inception_4c/relu_1x1
I0327 09:11:23.474853  2662 net.cpp:606] inception_4c/relu_1x1 <- inception_4c/1x1
I0327 09:11:23.474887  2662 net.cpp:566] inception_4c/relu_1x1 -> inception_4c/1x1 (in-place)
I0327 09:11:23.474905  2662 net.cpp:219] Setting up inception_4c/relu_1x1
I0327 09:11:23.474915  2662 net.cpp:226] Top shape: 12 128 14 14 (301056)
I0327 09:11:23.474923  2662 net.cpp:234] Memory required for data: 516644932
I0327 09:11:23.474933  2662 net.cpp:154] Setting up Layer of device :0 @cpu 0 Layer : inception_4c/3x3_reduce
I0327 09:11:23.474942  2662 layer_factory.hpp:114] Creating layer inception_4c/3x3_reduce
I0327 09:11:23.474962  2662 net.cpp:169] Creating Layer inception_4c/3x3_reduce
I0327 09:11:23.474973  2662 net.cpp:606] inception_4c/3x3_reduce <- inception_4b/output_inception_4b/output_0_split_1
I0327 09:11:23.474990  2662 net.cpp:579] inception_4c/3x3_reduce -> inception_4c/3x3_reduce
I0327 09:11:23.474999  2662 net.cpp:582] From AppendTop @cpu: 0
I0327 09:11:23.479279  2662 net.cpp:219] Setting up inception_4c/3x3_reduce
I0327 09:11:23.479323  2662 net.cpp:226] Top shape: 12 128 14 14 (301056)
I0327 09:11:23.479332  2662 net.cpp:234] Memory required for data: 517849156
I0327 09:11:23.479357  2662 net.cpp:154] Setting up Layer of device :0 @cpu 0 Layer : inception_4c/relu_3x3_reduce
I0327 09:11:23.479365  2662 layer_factory.hpp:114] Creating layer inception_4c/relu_3x3_reduce
I0327 09:11:23.479382  2662 net.cpp:169] Creating Layer inception_4c/relu_3x3_reduce
I0327 09:11:23.479393  2662 net.cpp:606] inception_4c/relu_3x3_reduce <- inception_4c/3x3_reduce
I0327 09:11:23.479406  2662 net.cpp:566] inception_4c/relu_3x3_reduce -> inception_4c/3x3_reduce (in-place)
I0327 09:11:23.479423  2662 net.cpp:219] Setting up inception_4c/relu_3x3_reduce
I0327 09:11:23.479434  2662 net.cpp:226] Top shape: 12 128 14 14 (301056)
I0327 09:11:23.479441  2662 net.cpp:234] Memory required for data: 519053380
I0327 09:11:23.479451  2662 net.cpp:154] Setting up Layer of device :0 @cpu 0 Layer : inception_4c/3x3
I0327 09:11:23.479460  2662 layer_factory.hpp:114] Creating layer inception_4c/3x3
I0327 09:11:23.479480  2662 net.cpp:169] Creating Layer inception_4c/3x3
I0327 09:11:23.479490  2662 net.cpp:606] inception_4c/3x3 <- inception_4c/3x3_reduce
I0327 09:11:23.479503  2662 net.cpp:579] inception_4c/3x3 -> inception_4c/3x3
I0327 09:11:23.479512  2662 net.cpp:582] From AppendTop @cpu: 0
I0327 09:11:23.491561  2662 net.cpp:219] Setting up inception_4c/3x3
I0327 09:11:23.491642  2662 net.cpp:226] Top shape: 12 256 14 14 (602112)
I0327 09:11:23.491668  2662 net.cpp:234] Memory required for data: 521461828
I0327 09:11:23.491720  2662 net.cpp:154] Setting up Layer of device :0 @cpu 0 Layer : inception_4c/relu_3x3
I0327 09:11:23.491731  2662 layer_factory.hpp:114] Creating layer inception_4c/relu_3x3
I0327 09:11:23.491755  2662 net.cpp:169] Creating Layer inception_4c/relu_3x3
I0327 09:11:23.491770  2662 net.cpp:606] inception_4c/relu_3x3 <- inception_4c/3x3
I0327 09:11:23.491785  2662 net.cpp:566] inception_4c/relu_3x3 -> inception_4c/3x3 (in-place)
I0327 09:11:23.491806  2662 net.cpp:219] Setting up inception_4c/relu_3x3
I0327 09:11:23.491816  2662 net.cpp:226] Top shape: 12 256 14 14 (602112)
I0327 09:11:23.491824  2662 net.cpp:234] Memory required for data: 523870276
I0327 09:11:23.491834  2662 net.cpp:154] Setting up Layer of device :0 @cpu 0 Layer : inception_4c/5x5_reduce
I0327 09:11:23.491843  2662 layer_factory.hpp:114] Creating layer inception_4c/5x5_reduce
I0327 09:11:23.491863  2662 net.cpp:169] Creating Layer inception_4c/5x5_reduce
I0327 09:11:23.491874  2662 net.cpp:606] inception_4c/5x5_reduce <- inception_4b/output_inception_4b/output_0_split_2
I0327 09:11:23.491894  2662 net.cpp:579] inception_4c/5x5_reduce -> inception_4c/5x5_reduce
I0327 09:11:23.491904  2662 net.cpp:582] From AppendTop @cpu: 0
I0327 09:11:23.493616  2662 net.cpp:219] Setting up inception_4c/5x5_reduce
I0327 09:11:23.493659  2662 net.cpp:226] Top shape: 12 24 14 14 (56448)
I0327 09:11:23.493666  2662 net.cpp:234] Memory required for data: 524096068
I0327 09:11:23.493690  2662 net.cpp:154] Setting up Layer of device :0 @cpu 0 Layer : inception_4c/relu_5x5_reduce
I0327 09:11:23.493721  2662 layer_factory.hpp:114] Creating layer inception_4c/relu_5x5_reduce
I0327 09:11:23.493739  2662 net.cpp:169] Creating Layer inception_4c/relu_5x5_reduce
I0327 09:11:23.493752  2662 net.cpp:606] inception_4c/relu_5x5_reduce <- inception_4c/5x5_reduce
I0327 09:11:23.493764  2662 net.cpp:566] inception_4c/relu_5x5_reduce -> inception_4c/5x5_reduce (in-place)
I0327 09:11:23.493779  2662 net.cpp:219] Setting up inception_4c/relu_5x5_reduce
I0327 09:11:23.493790  2662 net.cpp:226] Top shape: 12 24 14 14 (56448)
I0327 09:11:23.493799  2662 net.cpp:234] Memory required for data: 524321860
I0327 09:11:23.493809  2662 net.cpp:154] Setting up Layer of device :0 @cpu 0 Layer : inception_4c/5x5
I0327 09:11:23.493818  2662 layer_factory.hpp:114] Creating layer inception_4c/5x5
I0327 09:11:23.493837  2662 net.cpp:169] Creating Layer inception_4c/5x5
I0327 09:11:23.493847  2662 net.cpp:606] inception_4c/5x5 <- inception_4c/5x5_reduce
I0327 09:11:23.493862  2662 net.cpp:579] inception_4c/5x5 -> inception_4c/5x5
I0327 09:11:23.493871  2662 net.cpp:582] From AppendTop @cpu: 0
I0327 09:11:23.497525  2662 net.cpp:219] Setting up inception_4c/5x5
I0327 09:11:23.497570  2662 net.cpp:226] Top shape: 12 64 14 14 (150528)
I0327 09:11:23.497580  2662 net.cpp:234] Memory required for data: 524923972
I0327 09:11:23.497602  2662 net.cpp:154] Setting up Layer of device :0 @cpu 0 Layer : inception_4c/relu_5x5
I0327 09:11:23.497611  2662 layer_factory.hpp:114] Creating layer inception_4c/relu_5x5
I0327 09:11:23.497630  2662 net.cpp:169] Creating Layer inception_4c/relu_5x5
I0327 09:11:23.497642  2662 net.cpp:606] inception_4c/relu_5x5 <- inception_4c/5x5
I0327 09:11:23.497655  2662 net.cpp:566] inception_4c/relu_5x5 -> inception_4c/5x5 (in-place)
I0327 09:11:23.497671  2662 net.cpp:219] Setting up inception_4c/relu_5x5
I0327 09:11:23.497684  2662 net.cpp:226] Top shape: 12 64 14 14 (150528)
I0327 09:11:23.497691  2662 net.cpp:234] Memory required for data: 525526084
I0327 09:11:23.497701  2662 net.cpp:154] Setting up Layer of device :0 @cpu 0 Layer : inception_4c/pool
I0327 09:11:23.497709  2662 layer_factory.hpp:114] Creating layer inception_4c/pool
I0327 09:11:23.497757  2662 net.cpp:169] Creating Layer inception_4c/pool
I0327 09:11:23.497769  2662 net.cpp:606] inception_4c/pool <- inception_4b/output_inception_4b/output_0_split_3
I0327 09:11:23.497786  2662 net.cpp:579] inception_4c/pool -> inception_4c/pool
I0327 09:11:23.497807  2662 net.cpp:582] From AppendTop @cpu: 0
I0327 09:11:23.497826  2662 net.cpp:219] Setting up inception_4c/pool
I0327 09:11:23.497838  2662 net.cpp:226] Top shape: 12 512 14 14 (1204224)
I0327 09:11:23.497846  2662 net.cpp:234] Memory required for data: 530342980
I0327 09:11:23.497856  2662 net.cpp:154] Setting up Layer of device :0 @cpu 0 Layer : inception_4c/pool_proj
I0327 09:11:23.497865  2662 layer_factory.hpp:114] Creating layer inception_4c/pool_proj
I0327 09:11:23.497887  2662 net.cpp:169] Creating Layer inception_4c/pool_proj
I0327 09:11:23.497897  2662 net.cpp:606] inception_4c/pool_proj <- inception_4c/pool
I0327 09:11:23.497913  2662 net.cpp:579] inception_4c/pool_proj -> inception_4c/pool_proj
I0327 09:11:23.497922  2662 net.cpp:582] From AppendTop @cpu: 0
I0327 09:11:23.500361  2662 net.cpp:219] Setting up inception_4c/pool_proj
I0327 09:11:23.500406  2662 net.cpp:226] Top shape: 12 64 14 14 (150528)
I0327 09:11:23.500414  2662 net.cpp:234] Memory required for data: 530945092
I0327 09:11:23.500437  2662 net.cpp:154] Setting up Layer of device :0 @cpu 0 Layer : inception_4c/relu_pool_proj
I0327 09:11:23.500447  2662 layer_factory.hpp:114] Creating layer inception_4c/relu_pool_proj
I0327 09:11:23.500461  2662 net.cpp:169] Creating Layer inception_4c/relu_pool_proj
I0327 09:11:23.500473  2662 net.cpp:606] inception_4c/relu_pool_proj <- inception_4c/pool_proj
I0327 09:11:23.500485  2662 net.cpp:566] inception_4c/relu_pool_proj -> inception_4c/pool_proj (in-place)
I0327 09:11:23.500501  2662 net.cpp:219] Setting up inception_4c/relu_pool_proj
I0327 09:11:23.500533  2662 net.cpp:226] Top shape: 12 64 14 14 (150528)
I0327 09:11:23.500541  2662 net.cpp:234] Memory required for data: 531547204
I0327 09:11:23.500551  2662 net.cpp:154] Setting up Layer of device :0 @cpu 0 Layer : inception_4c/output
I0327 09:11:23.500560  2662 layer_factory.hpp:114] Creating layer inception_4c/output
I0327 09:11:23.500576  2662 net.cpp:169] Creating Layer inception_4c/output
I0327 09:11:23.500586  2662 net.cpp:606] inception_4c/output <- inception_4c/1x1
I0327 09:11:23.500597  2662 net.cpp:606] inception_4c/output <- inception_4c/3x3
I0327 09:11:23.500605  2662 net.cpp:606] inception_4c/output <- inception_4c/5x5
I0327 09:11:23.500617  2662 net.cpp:606] inception_4c/output <- inception_4c/pool_proj
I0327 09:11:23.500627  2662 net.cpp:579] inception_4c/output -> inception_4c/output
I0327 09:11:23.500635  2662 net.cpp:582] From AppendTop @cpu: 0
I0327 09:11:23.500653  2662 net.cpp:219] Setting up inception_4c/output
I0327 09:11:23.500663  2662 net.cpp:226] Top shape: 12 512 14 14 (1204224)
I0327 09:11:23.500671  2662 net.cpp:234] Memory required for data: 536364100
I0327 09:11:23.500681  2662 net.cpp:154] Setting up Layer of device :0 @cpu 0 Layer : inception_4c/output_inception_4c/output_0_split
I0327 09:11:23.500690  2662 layer_factory.hpp:114] Creating layer inception_4c/output_inception_4c/output_0_split
I0327 09:11:23.500705  2662 net.cpp:169] Creating Layer inception_4c/output_inception_4c/output_0_split
…
I0327 09:11:23.500756  2662 net.cpp:582] From AppendTop @cpu: 0
I0327 09:11:23.500769  2662 net.cpp:579] inception_4c/output_inception_4c/output_0_split -> inception_4c/output_inception_4c/output_0_split_2
I0327 09:11:23.500777  2662 net.cpp:582] From AppendTop @cpu: 0
I0327 09:11:23.500790  2662 net.cpp:579] inception_4c/output_inception_4c/output_0_split -> inception_4c/output_inception_4c/output_0_split_3
I0327 09:11:23.500799  2662 net.cpp:582] From AppendTop @cpu: 0
I0327 09:11:23.500816  2662 net.cpp:219] Setting up inception_4c/output_inception_4c/output_0_split
I0327 09:11:23.500836  2662 net.cpp:226] Top shape: 12 512 14 14 (1204224)
I0327 09:11:23.500847  2662 net.cpp:226] Top shape: 12 512 14 14 (1204224)
I0327 09:11:23.500859  2662 net.cpp:226] Top shape: 12 512 14 14 (1204224)
I0327 09:11:23.500869  2662 net.cpp:226] Top shape: 12 512 14 14 (1204224)
I0327 09:11:23.500876  2662 net.cpp:234] Memory required for data: 555631684
I0327 09:11:23.500886  2662 net.cpp:154] Setting up Layer of device :0 @cpu 0 Layer : inception_4d/1x1
I0327 09:11:23.500895  2662 layer_factory.hpp:114] Creating layer inception_4d/1x1
I0327 09:11:23.500913  2662 net.cpp:169] Creating Layer inception_4d/1x1
I0327 09:11:23.500923  2662 net.cpp:606] inception_4d/1x1 <- inception_4c/output_inception_4c/output_0_split_0
I0327 09:11:23.500943  2662 net.cpp:579] inception_4d/1x1 -> inception_4d/1x1
I0327 09:11:23.500952  2662 net.cpp:582] From AppendTop @cpu: 0
I0327 09:11:23.505038  2662 net.cpp:219] Setting up inception_4d/1x1
I0327 09:11:23.505081  2662 net.cpp:226] Top shape: 12 112 14 14 (263424)
I0327 09:11:23.505095  2662 net.cpp:234] Memory required for data: 556685380
I0327 09:11:23.505120  2662 net.cpp:154] Setting up Layer of device :0 @cpu 0 Layer : inception_4d/relu_1x1
I0327 09:11:23.505128  2662 layer_factory.hpp:114] Creating layer inception_4d/relu_1x1
I0327 09:11:23.505147  2662 net.cpp:169] Creating Layer inception_4d/relu_1x1
I0327 09:11:23.505159  2662 net.cpp:606] inception_4d/relu_1x1 <- inception_4d/1x1
I0327 09:11:23.505172  2662 net.cpp:566] inception_4d/relu_1x1 -> inception_4d/1x1 (in-place)
I0327 09:11:23.505188  2662 net.cpp:219] Setting up inception_4d/relu_1x1
I0327 09:11:23.505220  2662 net.cpp:226] Top shape: 12 112 14 14 (263424)
I0327 09:11:23.505228  2662 net.cpp:234] Memory required for data: 557739076
I0327 09:11:23.505239  2662 net.cpp:154] Setting up Layer of device :0 @cpu 0 Layer : inception_4d/3x3_reduce
I0327 09:11:23.505247  2662 layer_factory.hpp:114] Creating layer inception_4d/3x3_reduce
I0327 09:11:23.505267  2662 net.cpp:169] Creating Layer inception_4d/3x3_reduce
I0327 09:11:23.505278  2662 net.cpp:606] inception_4d/3x3_reduce <- inception_4c/output_inception_4c/output_0_split_1
I0327 09:11:23.505295  2662 net.cpp:579] inception_4d/3x3_reduce -> inception_4d/3x3_reduce
I0327 09:11:23.505304  2662 net.cpp:582] From AppendTop @cpu: 0
I0327 09:11:23.509837  2662 net.cpp:219] Setting up inception_4d/3x3_reduce
I0327 09:11:23.509881  2662 net.cpp:226] Top shape: 12 144 14 14 (338688)
I0327 09:11:23.509891  2662 net.cpp:234] Memory required for data: 559093828
I0327 09:11:23.509914  2662 net.cpp:154] Setting up Layer of device :0 @cpu 0 Layer : inception_4d/relu_3x3_reduce
I0327 09:11:23.509923  2662 layer_factory.hpp:114] Creating layer inception_4d/relu_3x3_reduce
I0327 09:11:23.509943  2662 net.cpp:169] Creating Layer inception_4d/relu_3x3_reduce
I0327 09:11:23.509955  2662 net.cpp:606] inception_4d/relu_3x3_reduce <- inception_4d/3x3_reduce
I0327 09:11:23.509968  2662 net.cpp:566] inception_4d/relu_3x3_reduce -> inception_4d/3x3_reduce (in-place)
I0327 09:11:23.509984  2662 net.cpp:219] Setting up inception_4d/relu_3x3_reduce
I0327 09:11:23.509995  2662 net.cpp:226] Top shape: 12 144 14 14 (338688)
I0327 09:11:23.510004  2662 net.cpp:234] Memory required for data: 560448580
I0327 09:11:23.510013  2662 net.cpp:154] Setting up Layer of device :0 @cpu 0 Layer : inception_4d/3x3
I0327 09:11:23.510030  2662 layer_factory.hpp:114] Creating layer inception_4d/3x3
I0327 09:11:23.510047  2662 net.cpp:169] Creating Layer inception_4d/3x3
I0327 09:11:23.510057  2662 net.cpp:606] inception_4d/3x3 <- inception_4d/3x3_reduce
I0327 09:11:23.510072  2662 net.cpp:579] inception_4d/3x3 -> inception_4d/3x3
I0327 09:11:23.510082  2662 net.cpp:582] From AppendTop @cpu: 0
I0327 09:11:23.524663  2662 net.cpp:219] Setting up inception_4d/3x3
I0327 09:11:23.524745  2662 net.cpp:226] Top shape: 12 288 14 14 (677376)
I0327 09:11:23.524755  2662 net.cpp:234] Memory required for data: 563158084
I0327 09:11:23.524788  2662 net.cpp:154] Setting up Layer of device :0 @cpu 0 Layer : inception_4d/relu_3x3
I0327 09:11:23.524816  2662 layer_factory.hpp:114] Creating layer inception_4d/relu_3x3
I0327 09:11:23.524837  2662 net.cpp:169] Creating Layer inception_4d/relu_3x3
I0327 09:11:23.524852  2662 net.cpp:606] inception_4d/relu_3x3 <- inception_4d/3x3
I0327 09:11:23.524866  2662 net.cpp:566] inception_4d/relu_3x3 -> inception_4d/3x3 (in-place)
I0327 09:11:23.524886  2662 net.cpp:219] Setting up inception_4d/relu_3x3
I0327 09:11:23.524897  2662 net.cpp:226] Top shape: 12 288 14 14 (677376)
I0327 09:11:23.524905  2662 net.cpp:234] Memory required for data: 565867588
I0327 09:11:23.524915  2662 net.cpp:154] Setting up Layer of device :0 @cpu 0 Layer : inception_4d/5x5_reduce
I0327 09:11:23.524924  2662 layer_factory.hpp:114] Creating layer inception_4d/5x5_reduce
I0327 09:11:23.524947  2662 net.cpp:169] Creating Layer inception_4d/5x5_reduce
I0327 09:11:23.524958  2662 net.cpp:606] inception_4d/5x5_reduce <- inception_4c/output_inception_4c/output_0_split_2
I0327 09:11:23.524973  2662 net.cpp:579] inception_4d/5x5_reduce -> inception_4d/5x5_reduce
I0327 09:11:23.524982  2662 net.cpp:582] From AppendTop @cpu: 0
I0327 09:11:23.527596  2662 net.cpp:219] Setting up inception_4d/5x5_reduce
I0327 09:11:23.527636  2662 net.cpp:226] Top shape: 12 32 14 14 (75264)
I0327 09:11:23.527643  2662 net.cpp:234] Memory required for data: 566168644
I0327 09:11:23.527665  2662 net.cpp:154] Setting up Layer of device :0 @cpu 0 Layer : inception_4d/relu_5x5_reduce
I0327 09:11:23.527674  2662 layer_factory.hpp:114] Creating layer inception_4d/relu_5x5_reduce
I0327 09:11:23.527693  2662 net.cpp:169] Creating Layer inception_4d/relu_5x5_reduce
I0327 09:11:23.527724  2662 net.cpp:606] inception_4d/relu_5x5_reduce <- inception_4d/5x5_reduce
I0327 09:11:23.527741  2662 net.cpp:566] inception_4d/relu_5x5_reduce -> inception_4d/5x5_reduce (in-place)
I0327 09:11:23.527757  2662 net.cpp:219] Setting up inception_4d/relu_5x5_reduce
I0327 09:11:23.527768  2662 net.cpp:226] Top shape: 12 32 14 14 (75264)
I0327 09:11:23.527776  2662 net.cpp:234] Memory required for data: 566469700
I0327 09:11:23.527786  2662 net.cpp:154] Setting up Layer of device :0 @cpu 0 Layer : inception_4d/5x5
I0327 09:11:23.527796  2662 layer_factory.hpp:114] Creating layer inception_4d/5x5
I0327 09:11:23.527812  2662 net.cpp:169] Creating Layer inception_4d/5x5
I0327 09:11:23.527820  2662 net.cpp:606] inception_4d/5x5 <- inception_4d/5x5_reduce
I0327 09:11:23.527840  2662 net.cpp:579] inception_4d/5x5 -> inception_4d/5x5
I0327 09:11:23.527849  2662 net.cpp:582] From AppendTop @cpu: 0
I0327 09:11:23.531980  2662 net.cpp:219] Setting up inception_4d/5x5
I0327 09:11:23.532044  2662 net.cpp:226] Top shape: 12 64 14 14 (150528)
I0327 09:11:23.532054  2662 net.cpp:234] Memory required for data: 567071812
I0327 09:11:23.532081  2662 net.cpp:154] Setting up Layer of device :0 @cpu 0 Layer : inception_4d/relu_5x5
I0327 09:11:23.532095  2662 layer_factory.hpp:114] Creating layer inception_4d/relu_5x5
I0327 09:11:23.532114  2662 net.cpp:169] Creating Layer inception_4d/relu_5x5
I0327 09:11:23.532127  2662 net.cpp:606] inception_4d/relu_5x5 <- inception_4d/5x5
I0327 09:11:23.532141  2662 net.cpp:566] inception_4d/relu_5x5 -> inception_4d/5x5 (in-place)
I0327 09:11:23.532158  2662 net.cpp:219] Setting up inception_4d/relu_5x5
I0327 09:11:23.532169  2662 net.cpp:226] Top shape: 12 64 14 14 (150528)
I0327 09:11:23.532177  2662 net.cpp:234] Memory required for data: 567673924
I0327 09:11:23.532187  2662 net.cpp:154] Setting up Layer of device :0 @cpu 0 Layer : inception_4d/pool
I0327 09:11:23.532196  2662 layer_factory.hpp:114] Creating layer inception_4d/pool
I0327 09:11:23.532243  2662 net.cpp:169] Creating Layer inception_4d/pool
I0327 09:11:23.532254  2662 net.cpp:606] inception_4d/pool <- inception_4c/output_inception_4c/output_0_split_3
I0327 09:11:23.532268  2662 net.cpp:579] inception_4d/pool -> inception_4d/pool
I0327 09:11:23.532276  2662 net.cpp:582] From AppendTop @cpu: 0
I0327 09:11:23.532295  2662 net.cpp:219] Setting up inception_4d/pool
I0327 09:11:23.532310  2662 net.cpp:226] Top shape: 12 512 14 14 (1204224)
I0327 09:11:23.532331  2662 net.cpp:234] Memory required for data: 572490820
I0327 09:11:23.532342  2662 net.cpp:154] Setting up Layer of device :0 @cpu 0 Layer : inception_4d/pool_proj
I0327 09:11:23.532351  2662 layer_factory.hpp:114] Creating layer inception_4d/pool_proj
I0327 09:11:23.532369  2662 net.cpp:169] Creating Layer inception_4d/pool_proj
I0327 09:11:23.532379  2662 net.cpp:606] inception_4d/pool_proj <- inception_4d/pool
I0327 09:11:23.532399  2662 net.cpp:579] inception_4d/pool_proj -> inception_4d/pool_proj
I0327 09:11:23.532408  2662 net.cpp:582] From AppendTop @cpu: 0
I0327 09:11:23.535585  2662 net.cpp:219] Setting up inception_4d/pool_proj
I0327 09:11:23.535624  2662 net.cpp:226] Top shape: 12 64 14 14 (150528)
I0327 09:11:23.535634  2662 net.cpp:234] Memory required for data: 573092932
I0327 09:11:23.535655  2662 net.cpp:154] Setting up Layer of device :0 @cpu 0 Layer : inception_4d/relu_pool_proj
I0327 09:11:23.535665  2662 layer_factory.hpp:114] Creating layer inception_4d/relu_pool_proj
I0327 09:11:23.535679  2662 net.cpp:169] Creating Layer inception_4d/relu_pool_proj
I0327 09:11:23.535691  2662 net.cpp:606] inception_4d/relu_pool_proj <- inception_4d/pool_proj
I0327 09:11:23.535706  2662 net.cpp:566] inception_4d/relu_pool_proj -> inception_4d/pool_proj (in-place)
I0327 09:11:23.535723  2662 net.cpp:219] Setting up inception_4d/relu_pool_proj
I0327 09:11:23.535734  2662 net.cpp:226] Top shape: 12 64 14 14 (150528)
I0327 09:11:23.535742  2662 net.cpp:234] Memory required for data: 573695044
I0327 09:11:23.535774  2662 net.cpp:154] Setting up Layer of device :0 @cpu 0 Layer : inception_4d/output
I0327 09:11:23.535784  2662 layer_factory.hpp:114] Creating layer inception_4d/output
I0327 09:11:23.535795  2662 net.cpp:169] Creating Layer inception_4d/output
I0327 09:11:23.535805  2662 net.cpp:606] inception_4d/output <- inception_4d/1x1
I0327 09:11:23.535815  2662 net.cpp:606] inception_4d/output <- inception_4d/3x3
I0327 09:11:23.535825  2662 net.cpp:606] inception_4d/output <- inception_4d/5x5
I0327 09:11:23.535835  2662 net.cpp:606] inception_4d/output <- inception_4d/pool_proj
I0327 09:11:23.535851  2662 net.cpp:579] inception_4d/output -> inception_4d/output
I0327 09:11:23.535859  2662 net.cpp:582] From AppendTop @cpu: 0
I0327 09:11:23.535876  2662 net.cpp:219] Setting up inception_4d/output
I0327 09:11:23.535887  2662 net.cpp:226] Top shape: 12 528 14 14 (1241856)
I0327 09:11:23.535895  2662 net.cpp:234] Memory required for data: 578662468
I0327 09:11:23.535904  2662 net.cpp:154] Setting up Layer of device :0 @cpu 0 Layer : inception_4d/output_inception_4d/output_0_split
I0327 09:11:23.535913  2662 layer_factory.hpp:114] Creating layer inception_4d/output_inception_4d/output_0_split
I0327 09:11:23.535926  2662 net.cpp:169] Creating Layer inception_4d/output_inception_4d/output_0_split
…
I0327 09:11:23.536003  2662 net.cpp:582] From AppendTop @cpu: 0
I0327 09:11:23.536022  2662 net.cpp:579] inception_4d/output_inception_4d/output_0_split -> inception_4d/output_inception_4d/output_0_split_3
I0327 09:11:23.536032  2662 net.cpp:582] From AppendTop @cpu: 0
I0327 09:11:23.536046  2662 net.cpp:579] inception_4d/output_inception_4d/output_0_split -> inception_4d/output_inception_4d/output_0_split_4
I0327 09:11:23.536053  2662 net.cpp:582] From AppendTop @cpu: 0
I0327 09:11:23.536069  2662 net.cpp:219] Setting up inception_4d/output_inception_4d/output_0_split
I0327 09:11:23.536098  2662 net.cpp:226] Top shape: 12 528 14 14 (1241856)
I0327 09:11:23.536109  2662 net.cpp:226] Top shape: 12 528 14 14 (1241856)
I0327 09:11:23.536120  2662 net.cpp:226] Top shape: 12 528 14 14 (1241856)
I0327 09:11:23.536131  2662 net.cpp:226] Top shape: 12 528 14 14 (1241856)
I0327 09:11:23.536141  2662 net.cpp:226] Top shape: 12 528 14 14 (1241856)
I0327 09:11:23.536149  2662 net.cpp:234] Memory required for data: 603499588
I0327 09:11:23.536159  2662 net.cpp:154] Setting up Layer of device :0 @cpu 0 Layer : loss2/ave_pool
I0327 09:11:23.536168  2662 layer_factory.hpp:114] Creating layer loss2/ave_pool
I0327 09:11:23.536204  2662 net.cpp:169] Creating Layer loss2/ave_pool
I0327 09:11:23.536214  2662 net.cpp:606] loss2/ave_pool <- inception_4d/output_inception_4d/output_0_split_0
I0327 09:11:23.536227  2662 net.cpp:579] loss2/ave_pool -> loss2/ave_pool
I0327 09:11:23.536239  2662 net.cpp:582] From AppendTop @cpu: 0
I0327 09:11:23.536254  2662 net.cpp:219] Setting up loss2/ave_pool
I0327 09:11:23.536267  2662 net.cpp:226] Top shape: 12 528 4 4 (101376)
I0327 09:11:23.536274  2662 net.cpp:234] Memory required for data: 603905092
I0327 09:11:23.536284  2662 net.cpp:154] Setting up Layer of device :0 @cpu 0 Layer : loss2/conv
I0327 09:11:23.536293  2662 layer_factory.hpp:114] Creating layer loss2/conv
I0327 09:11:23.536316  2662 net.cpp:169] Creating Layer loss2/conv
I0327 09:11:23.536326  2662 net.cpp:606] loss2/conv <- loss2/ave_pool
I0327 09:11:23.536339  2662 net.cpp:579] loss2/conv -> loss2/conv
I0327 09:11:23.536360  2662 net.cpp:582] From AppendTop @cpu: 0
I0327 09:11:23.539127  2662 net.cpp:219] Setting up loss2/conv
I0327 09:11:23.539161  2662 net.cpp:226] Top shape: 12 128 4 4 (24576)
I0327 09:11:23.539170  2662 net.cpp:234] Memory required for data: 604003396
I0327 09:11:23.539189  2662 net.cpp:154] Setting up Layer of device :0 @cpu 0 Layer : loss2/relu_conv
I0327 09:11:23.539199  2662 layer_factory.hpp:114] Creating layer loss2/relu_conv
I0327 09:11:23.539216  2662 net.cpp:169] Creating Layer loss2/relu_conv
I0327 09:11:23.539227  2662 net.cpp:606] loss2/relu_conv <- loss2/conv
I0327 09:11:23.539242  2662 net.cpp:566] loss2/relu_conv -> loss2/conv (in-place)
I0327 09:11:23.539257  2662 net.cpp:219] Setting up loss2/relu_conv
I0327 09:11:23.539268  2662 net.cpp:226] Top shape: 12 128 4 4 (24576)
I0327 09:11:23.539276  2662 net.cpp:234] Memory required for data: 604101700
I0327 09:11:23.539286  2662 net.cpp:154] Setting up Layer of device :0 @cpu 0 Layer : loss2/fc
I0327 09:11:23.539295  2662 layer_factory.hpp:114] Creating layer loss2/fc
I0327 09:11:23.539312  2662 net.cpp:169] Creating Layer loss2/fc
I0327 09:11:23.539321  2662 net.cpp:606] loss2/fc <- loss2/conv
I0327 09:11:23.539335  2662 net.cpp:579] loss2/fc -> loss2/fc
I0327 09:11:23.539345  2662 net.cpp:582] From AppendTop @cpu: 0
I0327 09:11:23.574115  2662 net.cpp:219] Setting up loss2/fc
I0327 09:11:23.574192  2662 net.cpp:226] Top shape: 12 1024 (12288)
I0327 09:11:23.574200  2662 net.cpp:234] Memory required for data: 604150852
I0327 09:11:23.574224  2662 net.cpp:154] Setting up Layer of device :0 @cpu 0 Layer : loss2/relu_fc
I0327 09:11:23.574234  2662 layer_factory.hpp:114] Creating layer loss2/relu_fc
I0327 09:11:23.574254  2662 net.cpp:169] Creating Layer loss2/relu_fc
I0327 09:11:23.574266  2662 net.cpp:606] loss2/relu_fc <- loss2/fc
I0327 09:11:23.574281  2662 net.cpp:566] loss2/relu_fc -> loss2/fc (in-place)
I0327 09:11:23.574297  2662 net.cpp:219] Setting up loss2/relu_fc
I0327 09:11:23.574309  2662 net.cpp:226] Top shape: 12 1024 (12288)
I0327 09:11:23.574317  2662 net.cpp:234] Memory required for data: 604200004
I0327 09:11:23.574327  2662 net.cpp:154] Setting up Layer of device :0 @cpu 0 Layer : loss2/drop_fc
I0327 09:11:23.574335  2662 layer_factory.hpp:114] Creating layer loss2/drop_fc
I0327 09:11:23.574349  2662 net.cpp:169] Creating Layer loss2/drop_fc
I0327 09:11:23.574359  2662 net.cpp:606] loss2/drop_fc <- loss2/fc
I0327 09:11:23.574373  2662 net.cpp:566] loss2/drop_fc -> loss2/fc (in-place)
I0327 09:11:23.574405  2662 net.cpp:219] Setting up loss2/drop_fc
I0327 09:11:23.574416  2662 net.cpp:226] Top shape: 12 1024 (12288)
I0327 09:11:23.574424  2662 net.cpp:234] Memory required for data: 604249156
I0327 09:11:23.574434  2662 net.cpp:154] Setting up Layer of device :0 @cpu 0 Layer : loss2/classifier
I0327 09:11:23.574443  2662 layer_factory.hpp:114] Creating layer loss2/classifier
I0327 09:11:23.574460  2662 net.cpp:169] Creating Layer loss2/classifier
I0327 09:11:23.574468  2662 net.cpp:606] loss2/classifier <- loss2/fc
I0327 09:11:23.574481  2662 net.cpp:579] loss2/classifier -> loss2/classifier
I0327 09:11:23.574491  2662 net.cpp:582] From AppendTop @cpu: 0
I0327 09:11:23.591879  2662 net.cpp:219] Setting up loss2/classifier
I0327 09:11:23.591933  2662 net.cpp:226] Top shape: 12 1000 (12000)
I0327 09:11:23.591941  2662 net.cpp:234] Memory required for data: 604297156
I0327 09:11:23.591961  2662 net.cpp:154] Setting up Layer of device :0 @cpu 0 Layer : loss2/loss
I0327 09:11:23.591970  2662 layer_factory.hpp:114] Creating layer loss2/loss
I0327 09:11:23.591987  2662 net.cpp:169] Creating Layer loss2/loss
I0327 09:11:23.592000  2662 net.cpp:606] loss2/loss <- loss2/classifier
…
I0327 09:11:23.592252  2662 net.cpp:154] Setting up Layer of device :0 @cpu 0 Layer : inception_4e/1x1
I0327 09:11:23.592260  2662 layer_factory.hpp:114] Creating layer inception_4e/1x1
I0327 09:11:23.592284  2662 net.cpp:169] Creating Layer inception_4e/1x1
I0327 09:11:23.592296  2662 net.cpp:606] inception_4e/1x1 <- inception_4d/output_inception_4d/output_0_split_1
I0327 09:11:23.592310  2662 net.cpp:579] inception_4e/1x1 -> inception_4e/1x1
I0327 09:11:23.592319  2662 net.cpp:582] From AppendTop @cpu: 0
I0327 09:11:23.598572  2662 net.cpp:219] Setting up inception_4e/1x1
I0327 09:11:23.598639  2662 net.cpp:226] Top shape: 12 256 14 14 (602112)
I0327 09:11:23.598647  2662 net.cpp:234] Memory required for data: 606705608
I0327 09:11:23.598675  2662 net.cpp:154] Setting up Layer of device :0 @cpu 0 Layer : inception_4e/relu_1x1
I0327 09:11:23.598685  2662 layer_factory.hpp:114] Creating layer inception_4e/relu_1x1
I0327 09:11:23.598706  2662 net.cpp:169] Creating Layer inception_4e/relu_1x1
I0327 09:11:23.598719  2662 net.cpp:606] inception_4e/relu_1x1 <- inception_4e/1x1
I0327 09:11:23.598734  2662 net.cpp:566] inception_4e/relu_1x1 -> inception_4e/1x1 (in-place)
I0327 09:11:23.598752  2662 net.cpp:219] Setting up inception_4e/relu_1x1
I0327 09:11:23.598764  2662 net.cpp:226] Top shape: 12 256 14 14 (602112)
I0327 09:11:23.598773  2662 net.cpp:234] Memory required for data: 609114056
I0327 09:11:23.598781  2662 net.cpp:154] Setting up Layer of device :0 @cpu 0 Layer : inception_4e/3x3_reduce
I0327 09:11:23.598790  2662 layer_factory.hpp:114] Creating layer inception_4e/3x3_reduce
I0327 09:11:23.598812  2662 net.cpp:169] Creating Layer inception_4e/3x3_reduce
I0327 09:11:23.598824  2662 net.cpp:606] inception_4e/3x3_reduce <- inception_4d/output_inception_4d/output_0_split_2
I0327 09:11:23.598839  2662 net.cpp:579] inception_4e/3x3_reduce -> inception_4e/3x3_reduce
I0327 09:11:23.598850  2662 net.cpp:582] From AppendTop @cpu: 0
I0327 09:11:23.603288  2662 net.cpp:219] Setting up inception_4e/3x3_reduce
I0327 09:11:23.603343  2662 net.cpp:226] Top shape: 12 160 14 14 (376320)
I0327 09:11:23.603353  2662 net.cpp:234] Memory required for data: 610619336
I0327 09:11:23.603379  2662 net.cpp:154] Setting up Layer of device :0 @cpu 0 Layer : inception_4e/relu_3x3_reduce
I0327 09:11:23.603411  2662 layer_factory.hpp:114] Creating layer inception_4e/relu_3x3_reduce
I0327 09:11:23.603432  2662 net.cpp:169] Creating Layer inception_4e/relu_3x3_reduce
I0327 09:11:23.603446  2662 net.cpp:606] inception_4e/relu_3x3_reduce <- inception_4e/3x3_reduce
I0327 09:11:23.603458  2662 net.cpp:566] inception_4e/relu_3x3_reduce -> inception_4e/3x3_reduce (in-place)
I0327 09:11:23.603477  2662 net.cpp:219] Setting up inception_4e/relu_3x3_reduce
I0327 09:11:23.603487  2662 net.cpp:226] Top shape: 12 160 14 14 (376320)
I0327 09:11:23.603495  2662 net.cpp:234] Memory required for data: 612124616
I0327 09:11:23.603507  2662 net.cpp:154] Setting up Layer of device :0 @cpu 0 Layer : inception_4e/3x3
I0327 09:11:23.603514  2662 layer_factory.hpp:114] Creating layer inception_4e/3x3
I0327 09:11:23.603535  2662 net.cpp:169] Creating Layer inception_4e/3x3
I0327 09:11:23.603545  2662 net.cpp:606] inception_4e/3x3 <- inception_4e/3x3_reduce
I0327 09:11:23.603561  2662 net.cpp:579] inception_4e/3x3 -> inception_4e/3x3
I0327 09:11:23.603570  2662 net.cpp:582] From AppendTop @cpu: 0
I0327 09:11:23.620342  2662 net.cpp:219] Setting up inception_4e/3x3
I0327 09:11:23.620424  2662 net.cpp:226] Top shape: 12 320 14 14 (752640)
I0327 09:11:23.620432  2662 net.cpp:234] Memory required for data: 615135176
I0327 09:11:23.620465  2662 net.cpp:154] Setting up Layer of device :0 @cpu 0 Layer : inception_4e/relu_3x3
I0327 09:11:23.620474  2662 layer_factory.hpp:114] Creating layer inception_4e/relu_3x3
I0327 09:11:23.620496  2662 net.cpp:169] Creating Layer inception_4e/relu_3x3
I0327 09:11:23.620537  2662 net.cpp:606] inception_4e/relu_3x3 <- inception_4e/3x3
I0327 09:11:23.620565  2662 net.cpp:566] inception_4e/relu_3x3 -> inception_4e/3x3 (in-place)
I0327 09:11:23.620585  2662 net.cpp:219] Setting up inception_4e/relu_3x3
I0327 09:11:23.620597  2662 net.cpp:226] Top shape: 12 320 14 14 (752640)
I0327 09:11:23.620605  2662 net.cpp:234] Memory required for data: 618145736
I0327 09:11:23.620616  2662 net.cpp:154] Setting up Layer of device :0 @cpu 0 Layer : inception_4e/5x5_reduce
I0327 09:11:23.620625  2662 layer_factory.hpp:114] Creating layer inception_4e/5x5_reduce
I0327 09:11:23.620647  2662 net.cpp:169] Creating Layer inception_4e/5x5_reduce
I0327 09:11:23.620657  2662 net.cpp:606] inception_4e/5x5_reduce <- inception_4d/output_inception_4d/output_0_split_3
I0327 09:11:23.620672  2662 net.cpp:579] inception_4e/5x5_reduce -> inception_4e/5x5_reduce
I0327 09:11:23.620681  2662 net.cpp:582] From AppendTop @cpu: 0
I0327 09:11:23.623237  2662 net.cpp:219] Setting up inception_4e/5x5_reduce
I0327 09:11:23.623276  2662 net.cpp:226] Top shape: 12 32 14 14 (75264)
I0327 09:11:23.623286  2662 net.cpp:234] Memory required for data: 618446792
I0327 09:11:23.623307  2662 net.cpp:154] Setting up Layer of device :0 @cpu 0 Layer : inception_4e/relu_5x5_reduce
I0327 09:11:23.623317  2662 layer_factory.hpp:114] Creating layer inception_4e/relu_5x5_reduce
I0327 09:11:23.623332  2662 net.cpp:169] Creating Layer inception_4e/relu_5x5_reduce
I0327 09:11:23.623342  2662 net.cpp:606] inception_4e/relu_5x5_reduce <- inception_4e/5x5_reduce
I0327 09:11:23.623358  2662 net.cpp:566] inception_4e/relu_5x5_reduce -> inception_4e/5x5_reduce (in-place)
I0327 09:11:23.623374  2662 net.cpp:219] Setting up inception_4e/relu_5x5_reduce
I0327 09:11:23.623385  2662 net.cpp:226] Top shape: 12 32 14 14 (75264)
I0327 09:11:23.623394  2662 net.cpp:234] Memory required for data: 618747848
I0327 09:11:23.623404  2662 net.cpp:154] Setting up Layer of device :0 @cpu 0 Layer : inception_4e/5x5
I0327 09:11:23.623412  2662 layer_factory.hpp:114] Creating layer inception_4e/5x5
I0327 09:11:23.623441  2662 net.cpp:169] Creating Layer inception_4e/5x5
I0327 09:11:23.623455  2662 net.cpp:606] inception_4e/5x5 <- inception_4e/5x5_reduce
I0327 09:11:23.623467  2662 net.cpp:579] inception_4e/5x5 -> inception_4e/5x5
I0327 09:11:23.623476  2662 net.cpp:582] From AppendTop @cpu: 0
I0327 09:11:23.629556  2662 net.cpp:219] Setting up inception_4e/5x5
I0327 09:11:23.629623  2662 net.cpp:226] Top shape: 12 128 14 14 (301056)
I0327 09:11:23.629650  2662 net.cpp:234] Memory required for data: 619952072
I0327 09:11:23.629680  2662 net.cpp:154] Setting up Layer of device :0 @cpu 0 Layer : inception_4e/relu_5x5
I0327 09:11:23.629690  2662 layer_factory.hpp:114] Creating layer inception_4e/relu_5x5
I0327 09:11:23.629711  2662 net.cpp:169] Creating Layer inception_4e/relu_5x5
I0327 09:11:23.629725  2662 net.cpp:606] inception_4e/relu_5x5 <- inception_4e/5x5
I0327 09:11:23.629739  2662 net.cpp:566] inception_4e/relu_5x5 -> inception_4e/5x5 (in-place)
I0327 09:11:23.629757  2662 net.cpp:219] Setting up inception_4e/relu_5x5
I0327 09:11:23.629768  2662 net.cpp:226] Top shape: 12 128 14 14 (301056)
I0327 09:11:23.629776  2662 net.cpp:234] Memory required for data: 621156296
I0327 09:11:23.629786  2662 net.cpp:154] Setting up Layer of device :0 @cpu 0 Layer : inception_4e/pool
I0327 09:11:23.629794  2662 layer_factory.hpp:114] Creating layer inception_4e/pool
I0327 09:11:23.629842  2662 net.cpp:169] Creating Layer inception_4e/pool
I0327 09:11:23.629853  2662 net.cpp:606] inception_4e/pool <- inception_4d/output_inception_4d/output_0_split_4
I0327 09:11:23.629868  2662 net.cpp:579] inception_4e/pool -> inception_4e/pool
I0327 09:11:23.629876  2662 net.cpp:582] From AppendTop @cpu: 0
I0327 09:11:23.629895  2662 net.cpp:219] Setting up inception_4e/pool
I0327 09:11:23.629906  2662 net.cpp:226] Top shape: 12 528 14 14 (1241856)
I0327 09:11:23.629914  2662 net.cpp:234] Memory required for data: 626123720
I0327 09:11:23.629925  2662 net.cpp:154] Setting up Layer of device :0 @cpu 0 Layer : inception_4e/pool_proj
I0327 09:11:23.629950  2662 layer_factory.hpp:114] Creating layer inception_4e/pool_proj
I0327 09:11:23.629974  2662 net.cpp:169] Creating Layer inception_4e/pool_proj
I0327 09:11:23.629984  2662 net.cpp:606] inception_4e/pool_proj <- inception_4e/pool
I0327 09:11:23.629999  2662 net.cpp:579] inception_4e/pool_proj -> inception_4e/pool_proj
I0327 09:11:23.630008  2662 net.cpp:582] From AppendTop @cpu: 0
I0327 09:11:23.634508  2662 net.cpp:219] Setting up inception_4e/pool_proj
I0327 09:11:23.634557  2662 net.cpp:226] Top shape: 12 128 14 14 (301056)
I0327 09:11:23.634567  2662 net.cpp:234] Memory required for data: 627327944
I0327 09:11:23.634590  2662 net.cpp:154] Setting up Layer of device :0 @cpu 0 Layer : inception_4e/relu_pool_proj
I0327 09:11:23.634600  2662 layer_factory.hpp:114] Creating layer inception_4e/relu_pool_proj
I0327 09:11:23.634618  2662 net.cpp:169] Creating Layer inception_4e/relu_pool_proj
I0327 09:11:23.634631  2662 net.cpp:606] inception_4e/relu_pool_proj <- inception_4e/pool_proj
I0327 09:11:23.634644  2662 net.cpp:566] inception_4e/relu_pool_proj -> inception_4e/pool_proj (in-place)
I0327 09:11:23.634661  2662 net.cpp:219] Setting up inception_4e/relu_pool_proj
I0327 09:11:23.634672  2662 net.cpp:226] Top shape: 12 128 14 14 (301056)
I0327 09:11:23.634680  2662 net.cpp:234] Memory required for data: 628532168
I0327 09:11:23.634690  2662 net.cpp:154] Setting up Layer of device :0 @cpu 0 Layer : inception_4e/output
I0327 09:11:23.634698  2662 layer_factory.hpp:114] Creating layer inception_4e/output
I0327 09:11:23.634711  2662 net.cpp:169] Creating Layer inception_4e/output
I0327 09:11:23.634721  2662 net.cpp:606] inception_4e/output <- inception_4e/1x1
I0327 09:11:23.634732  2662 net.cpp:606] inception_4e/output <- inception_4e/3x3
I0327 09:11:23.634742  2662 net.cpp:606] inception_4e/output <- inception_4e/5x5
I0327 09:11:23.634752  2662 net.cpp:606] inception_4e/output <- inception_4e/pool_proj
I0327 09:11:23.634763  2662 net.cpp:579] inception_4e/output -> inception_4e/output
I0327 09:11:23.634771  2662 net.cpp:582] From AppendTop @cpu: 0
I0327 09:11:23.634788  2662 net.cpp:219] Setting up inception_4e/output
I0327 09:11:23.634799  2662 net.cpp:226] Top shape: 12 832 14 14 (1956864)
I0327 09:11:23.634807  2662 net.cpp:234] Memory required for data: 636359624
I0327 09:11:23.634817  2662 net.cpp:154] Setting up Layer of device :0 @cpu 0 Layer : pool4/3x3_s2
I0327 09:11:23.634825  2662 layer_factory.hpp:114] Creating layer pool4/3x3_s2
I0327 09:11:23.634876  2662 net.cpp:169] Creating Layer pool4/3x3_s2
I0327 09:11:23.634887  2662 net.cpp:606] pool4/3x3_s2 <- inception_4e/output
I0327 09:11:23.634901  2662 net.cpp:579] pool4/3x3_s2 -> pool4/3x3_s2
I0327 09:11:23.634908  2662 net.cpp:582] From AppendTop @cpu: 0
I0327 09:11:23.634925  2662 net.cpp:219] Setting up pool4/3x3_s2
I0327 09:11:23.634937  2662 net.cpp:226] Top shape: 12 832 7 7 (489216)
I0327 09:11:23.634945  2662 net.cpp:234] Memory required for data: 638316488
I0327 09:11:23.634954  2662 net.cpp:154] Setting up Layer of device :0 @cpu 0 Layer : pool4/3x3_s2_pool4/3x3_s2_0_split
I0327 09:11:23.634963  2662 layer_factory.hpp:114] Creating layer pool4/3x3_s2_pool4/3x3_s2_0_split
I0327 09:11:23.634976  2662 net.cpp:169] Creating Layer pool4/3x3_s2_pool4/3x3_s2_0_split
I0327 09:11:23.634984  2662 net.cpp:606] pool4/3x3_s2_pool4/3x3_s2_0_split <- pool4/3x3_s2
I0327 09:11:23.634995  2662 net.cpp:579] pool4/3x3_s2_pool4/3x3_s2_0_split -> pool4/3x3_s2_pool4/3x3_s2_0_split_0
I0327 09:11:23.635004  2662 net.cpp:582] From AppendTop @cpu: 0
I0327 09:11:23.635022  2662 net.cpp:579] pool4/3x3_s2_pool4/3x3_s2_0_split -> pool4/3x3_s2_pool4/3x3_s2_0_split_1
I0327 09:11:23.635032  2662 net.cpp:582] From AppendTop @cpu: 0
I0327 09:11:23.635051  2662 net.cpp:579] pool4/3x3_s2_pool4/3x3_s2_0_split -> pool4/3x3_s2_pool4/3x3_s2_0_split_2
I0327 09:11:23.635059  2662 net.cpp:582] From AppendTop @cpu: 0
I0327 09:11:23.635072  2662 net.cpp:579] pool4/3x3_s2_pool4/3x3_s2_0_split -> pool4/3x3_s2_pool4/3x3_s2_0_split_3
I0327 09:11:23.635100  2662 net.cpp:582] From AppendTop @cpu: 0
I0327 09:11:23.635115  2662 net.cpp:219] Setting up pool4/3x3_s2_pool4/3x3_s2_0_split
I0327 09:11:23.635128  2662 net.cpp:226] Top shape: 12 832 7 7 (489216)
I0327 09:11:23.635138  2662 net.cpp:226] Top shape: 12 832 7 7 (489216)
I0327 09:11:23.635149  2662 net.cpp:226] Top shape: 12 832 7 7 (489216)
I0327 09:11:23.635159  2662 net.cpp:226] Top shape: 12 832 7 7 (489216)
I0327 09:11:23.635166  2662 net.cpp:234] Memory required for data: 646143944
I0327 09:11:23.635176  2662 net.cpp:154] Setting up Layer of device :0 @cpu 0 Layer : inception_5a/1x1
I0327 09:11:23.635185  2662 layer_factory.hpp:114] Creating layer inception_5a/1x1
I0327 09:11:23.635201  2662 net.cpp:169] Creating Layer inception_5a/1x1
I0327 09:11:23.635211  2662 net.cpp:606] inception_5a/1x1 <- pool4/3x3_s2_pool4/3x3_s2_0_split_0
I0327 09:11:23.635226  2662 net.cpp:579] inception_5a/1x1 -> inception_5a/1x1
I0327 09:11:23.635236  2662 net.cpp:582] From AppendTop @cpu: 0
I0327 09:11:23.642374  2662 net.cpp:219] Setting up inception_5a/1x1
I0327 09:11:23.642441  2662 net.cpp:226] Top shape: 12 256 7 7 (150528)
I0327 09:11:23.642452  2662 net.cpp:234] Memory required for data: 646746056
I0327 09:11:23.642480  2662 net.cpp:154] Setting up Layer of device :0 @cpu 0 Layer : inception_5a/relu_1x1
I0327 09:11:23.642489  2662 layer_factory.hpp:114] Creating layer inception_5a/relu_1x1
I0327 09:11:23.642508  2662 net.cpp:169] Creating Layer inception_5a/relu_1x1
I0327 09:11:23.642521  2662 net.cpp:606] inception_5a/relu_1x1 <- inception_5a/1x1
I0327 09:11:23.642535  2662 net.cpp:566] inception_5a/relu_1x1 -> inception_5a/1x1 (in-place)
I0327 09:11:23.642554  2662 net.cpp:219] Setting up inception_5a/relu_1x1
I0327 09:11:23.642565  2662 net.cpp:226] Top shape: 12 256 7 7 (150528)
I0327 09:11:23.642572  2662 net.cpp:234] Memory required for data: 647348168
I0327 09:11:23.642582  2662 net.cpp:154] Setting up Layer of device :0 @cpu 0 Layer : inception_5a/3x3_reduce
I0327 09:11:23.642591  2662 layer_factory.hpp:114] Creating layer inception_5a/3x3_reduce
I0327 09:11:23.642613  2662 net.cpp:169] Creating Layer inception_5a/3x3_reduce
I0327 09:11:23.642626  2662 net.cpp:606] inception_5a/3x3_reduce <- pool4/3x3_s2_pool4/3x3_s2_0_split_1
I0327 09:11:23.642639  2662 net.cpp:579] inception_5a/3x3_reduce -> inception_5a/3x3_reduce
I0327 09:11:23.642647  2662 net.cpp:582] From AppendTop @cpu: 0
I0327 09:11:23.648376  2662 net.cpp:219] Setting up inception_5a/3x3_reduce
I0327 09:11:23.648445  2662 net.cpp:226] Top shape: 12 160 7 7 (94080)
I0327 09:11:23.648455  2662 net.cpp:234] Memory required for data: 647724488
I0327 09:11:23.648479  2662 net.cpp:154] Setting up Layer of device :0 @cpu 0 Layer : inception_5a/relu_3x3_reduce
I0327 09:11:23.648489  2662 layer_factory.hpp:114] Creating layer inception_5a/relu_3x3_reduce
I0327 09:11:23.648509  2662 net.cpp:169] Creating Layer inception_5a/relu_3x3_reduce
I0327 09:11:23.648522  2662 net.cpp:606] inception_5a/relu_3x3_reduce <- inception_5a/3x3_reduce
I0327 09:11:23.648535  2662 net.cpp:566] inception_5a/relu_3x3_reduce -> inception_5a/3x3_reduce (in-place)
I0327 09:11:23.648552  2662 net.cpp:219] Setting up inception_5a/relu_3x3_reduce
I0327 09:11:23.648564  2662 net.cpp:226] Top shape: 12 160 7 7 (94080)
I0327 09:11:23.648572  2662 net.cpp:234] Memory required for data: 648100808
I0327 09:11:23.648582  2662 net.cpp:154] Setting up Layer of device :0 @cpu 0 Layer : inception_5a/3x3
I0327 09:11:23.648591  2662 layer_factory.hpp:114] Creating layer inception_5a/3x3
I0327 09:11:23.648607  2662 net.cpp:169] Creating Layer inception_5a/3x3
I0327 09:11:23.648617  2662 net.cpp:606] inception_5a/3x3 <- inception_5a/3x3_reduce
I0327 09:11:23.648634  2662 net.cpp:579] inception_5a/3x3 -> inception_5a/3x3
I0327 09:11:23.648643  2662 net.cpp:582] From AppendTop @cpu: 0
I0327 09:11:23.663717  2662 net.cpp:219] Setting up inception_5a/3x3
I0327 09:11:23.663800  2662 net.cpp:226] Top shape: 12 320 7 7 (188160)
I0327 09:11:23.663810  2662 net.cpp:234] Memory required for data: 648853448
I0327 09:11:23.663872  2662 net.cpp:154] Setting up Layer of device :0 @cpu 0 Layer : inception_5a/relu_3x3
I0327 09:11:23.663882  2662 layer_factory.hpp:114] Creating layer inception_5a/relu_3x3
I0327 09:11:23.663902  2662 net.cpp:169] Creating Layer inception_5a/relu_3x3
I0327 09:11:23.663916  2662 net.cpp:606] inception_5a/relu_3x3 <- inception_5a/3x3
I0327 09:11:23.663931  2662 net.cpp:566] inception_5a/relu_3x3 -> inception_5a/3x3 (in-place)
I0327 09:11:23.663951  2662 net.cpp:219] Setting up inception_5a/relu_3x3
I0327 09:11:23.663962  2662 net.cpp:226] Top shape: 12 320 7 7 (188160)
I0327 09:11:23.663971  2662 net.cpp:234] Memory required for data: 649606088
I0327 09:11:23.663981  2662 net.cpp:154] Setting up Layer of device :0 @cpu 0 Layer : inception_5a/5x5_reduce
I0327 09:11:23.663990  2662 layer_factory.hpp:114] Creating layer inception_5a/5x5_reduce
I0327 09:11:23.664014  2662 net.cpp:169] Creating Layer inception_5a/5x5_reduce
I0327 09:11:23.664034  2662 net.cpp:606] inception_5a/5x5_reduce <- pool4/3x3_s2_pool4/3x3_s2_0_split_2
I0327 09:11:23.664048  2662 net.cpp:579] inception_5a/5x5_reduce -> inception_5a/5x5_reduce
I0327 09:11:23.664057  2662 net.cpp:582] From AppendTop @cpu: 0
I0327 09:11:23.665915  2662 net.cpp:219] Setting up inception_5a/5x5_reduce
I0327 09:11:23.665947  2662 net.cpp:226] Top shape: 12 32 7 7 (18816)
I0327 09:11:23.665956  2662 net.cpp:234] Memory required for data: 649681352
I0327 09:11:23.665976  2662 net.cpp:154] Setting up Layer of device :0 @cpu 0 Layer : inception_5a/relu_5x5_reduce
I0327 09:11:23.665985  2662 layer_factory.hpp:114] Creating layer inception_5a/relu_5x5_reduce
I0327 09:11:23.665998  2662 net.cpp:169] Creating Layer inception_5a/relu_5x5_reduce
I0327 09:11:23.666010  2662 net.cpp:606] inception_5a/relu_5x5_reduce <- inception_5a/5x5_reduce
I0327 09:11:23.666033  2662 net.cpp:566] inception_5a/relu_5x5_reduce -> inception_5a/5x5_reduce (in-place)
I0327 09:11:23.666050  2662 net.cpp:219] Setting up inception_5a/relu_5x5_reduce
I0327 09:11:23.666061  2662 net.cpp:226] Top shape: 12 32 7 7 (18816)
I0327 09:11:23.666069  2662 net.cpp:234] Memory required for data: 649756616
I0327 09:11:23.666079  2662 net.cpp:154] Setting up Layer of device :0 @cpu 0 Layer : inception_5a/5x5
I0327 09:11:23.666093  2662 layer_factory.hpp:114] Creating layer inception_5a/5x5
I0327 09:11:23.666113  2662 net.cpp:169] Creating Layer inception_5a/5x5
I0327 09:11:23.666123  2662 net.cpp:606] inception_5a/5x5 <- inception_5a/5x5_reduce
I0327 09:11:23.666146  2662 net.cpp:579] inception_5a/5x5 -> inception_5a/5x5
I0327 09:11:23.666167  2662 net.cpp:582] From AppendTop @cpu: 0
I0327 09:11:23.669875  2662 net.cpp:219] Setting up inception_5a/5x5
I0327 09:11:23.669924  2662 net.cpp:226] Top shape: 12 128 7 7 (75264)
I0327 09:11:23.669932  2662 net.cpp:234] Memory required for data: 650057672
I0327 09:11:23.669956  2662 net.cpp:154] Setting up Layer of device :0 @cpu 0 Layer : inception_5a/relu_5x5
I0327 09:11:23.669965  2662 layer_factory.hpp:114] Creating layer inception_5a/relu_5x5
I0327 09:11:23.669981  2662 net.cpp:169] Creating Layer inception_5a/relu_5x5
I0327 09:11:23.669993  2662 net.cpp:606] inception_5a/relu_5x5 <- inception_5a/5x5
I0327 09:11:23.670009  2662 net.cpp:566] inception_5a/relu_5x5 -> inception_5a/5x5 (in-place)
I0327 09:11:23.670032  2662 net.cpp:219] Setting up inception_5a/relu_5x5
I0327 09:11:23.670044  2662 net.cpp:226] Top shape: 12 128 7 7 (75264)
I0327 09:11:23.670053  2662 net.cpp:234] Memory required for data: 650358728
I0327 09:11:23.670063  2662 net.cpp:154] Setting up Layer of device :0 @cpu 0 Layer : inception_5a/pool
I0327 09:11:23.670071  2662 layer_factory.hpp:114] Creating layer inception_5a/pool
I0327 09:11:23.670121  2662 net.cpp:169] Creating Layer inception_5a/pool
I0327 09:11:23.670135  2662 net.cpp:606] inception_5a/pool <- pool4/3x3_s2_pool4/3x3_s2_0_split_3
I0327 09:11:23.670147  2662 net.cpp:579] inception_5a/pool -> inception_5a/pool
I0327 09:11:23.670162  2662 net.cpp:582] From AppendTop @cpu: 0
I0327 09:11:23.670182  2662 net.cpp:219] Setting up inception_5a/pool
I0327 09:11:23.670215  2662 net.cpp:226] Top shape: 12 832 7 7 (489216)
I0327 09:11:23.670223  2662 net.cpp:234] Memory required for data: 652315592
I0327 09:11:23.670234  2662 net.cpp:154] Setting up Layer of device :0 @cpu 0 Layer : inception_5a/pool_proj
I0327 09:11:23.670243  2662 layer_factory.hpp:114] Creating layer inception_5a/pool_proj
I0327 09:11:23.670262  2662 net.cpp:169] Creating Layer inception_5a/pool_proj
I0327 09:11:23.670272  2662 net.cpp:606] inception_5a/pool_proj <- inception_5a/pool
I0327 09:11:23.670286  2662 net.cpp:579] inception_5a/pool_proj -> inception_5a/pool_proj
I0327 09:11:23.670297  2662 net.cpp:582] From AppendTop @cpu: 0
I0327 09:11:23.674290  2662 net.cpp:219] Setting up inception_5a/pool_proj
I0327 09:11:23.674340  2662 net.cpp:226] Top shape: 12 128 7 7 (75264)
I0327 09:11:23.674350  2662 net.cpp:234] Memory required for data: 652616648
I0327 09:11:23.674372  2662 net.cpp:154] Setting up Layer of device :0 @cpu 0 Layer : inception_5a/relu_pool_proj
I0327 09:11:23.674382  2662 layer_factory.hpp:114] Creating layer inception_5a/relu_pool_proj
I0327 09:11:23.674398  2662 net.cpp:169] Creating Layer inception_5a/relu_pool_proj
I0327 09:11:23.674410  2662 net.cpp:606] inception_5a/relu_pool_proj <- inception_5a/pool_proj
I0327 09:11:23.674424  2662 net.cpp:566] inception_5a/relu_pool_proj -> inception_5a/pool_proj (in-place)
I0327 09:11:23.674440  2662 net.cpp:219] Setting up inception_5a/relu_pool_proj
I0327 09:11:23.674451  2662 net.cpp:226] Top shape: 12 128 7 7 (75264)
I0327 09:11:23.674460  2662 net.cpp:234] Memory required for data: 652917704
I0327 09:11:23.674470  2662 net.cpp:154] Setting up Layer of device :0 @cpu 0 Layer : inception_5a/output
I0327 09:11:23.674479  2662 layer_factory.hpp:114] Creating layer inception_5a/output
I0327 09:11:23.674490  2662 net.cpp:169] Creating Layer inception_5a/output
I0327 09:11:23.674500  2662 net.cpp:606] inception_5a/output <- inception_5a/1x1
I0327 09:11:23.674511  2662 net.cpp:606] inception_5a/output <- inception_5a/3x3
I0327 09:11:23.674521  2662 net.cpp:606] inception_5a/output <- inception_5a/5x5
I0327 09:11:23.674532  2662 net.cpp:606] inception_5a/output <- inception_5a/pool_proj
I0327 09:11:23.674543  2662 net.cpp:579] inception_5a/output -> inception_5a/output
I0327 09:11:23.674552  2662 net.cpp:582] From AppendTop @cpu: 0
I0327 09:11:23.674568  2662 net.cpp:219] Setting up inception_5a/output
I0327 09:11:23.674581  2662 net.cpp:226] Top shape: 12 832 7 7 (489216)
I0327 09:11:23.674600  2662 net.cpp:234] Memory required for data: 654874568
I0327 09:11:23.674612  2662 net.cpp:154] Setting up Layer of device :0 @cpu 0 Layer : inception_5a/output_inception_5a/output_0_split
I0327 09:11:23.674619  2662 layer_factory.hpp:114] Creating layer inception_5a/output_inception_5a/output_0_split
I0327 09:11:23.674634  2662 net.cpp:169] Creating Layer inception_5a/output_inception_5a/output_0_split
…
I0327 09:11:23.674687  2662 net.cpp:582] From AppendTop @cpu: 0
I0327 09:11:23.674700  2662 net.cpp:579] inception_5a/output_inception_5a/output_0_split -> inception_5a/output_inception_5a/output_0_split_2
I0327 09:11:23.674708  2662 net.cpp:582] From AppendTop @cpu: 0
I0327 09:11:23.674722  2662 net.cpp:579] inception_5a/output_inception_5a/output_0_split -> inception_5a/output_inception_5a/output_0_split_3
I0327 09:11:23.674731  2662 net.cpp:582] From AppendTop @cpu: 0
I0327 09:11:23.674746  2662 net.cpp:219] Setting up inception_5a/output_inception_5a/output_0_split
I0327 09:11:23.674757  2662 net.cpp:226] Top shape: 12 832 7 7 (489216)
I0327 09:11:23.674767  2662 net.cpp:226] Top shape: 12 832 7 7 (489216)
I0327 09:11:23.674793  2662 net.cpp:226] Top shape: 12 832 7 7 (489216)
I0327 09:11:23.674803  2662 net.cpp:226] Top shape: 12 832 7 7 (489216)
I0327 09:11:23.674810  2662 net.cpp:234] Memory required for data: 662702024
I0327 09:11:23.674820  2662 net.cpp:154] Setting up Layer of device :0 @cpu 0 Layer : inception_5b/1x1
I0327 09:11:23.674829  2662 layer_factory.hpp:114] Creating layer inception_5b/1x1
I0327 09:11:23.674849  2662 net.cpp:169] Creating Layer inception_5b/1x1
I0327 09:11:23.674860  2662 net.cpp:606] inception_5b/1x1 <- inception_5a/output_inception_5a/output_0_split_0
I0327 09:11:23.674872  2662 net.cpp:579] inception_5b/1x1 -> inception_5b/1x1
I0327 09:11:23.674880  2662 net.cpp:582] From AppendTop @cpu: 0
I0327 09:11:23.685708  2662 net.cpp:219] Setting up inception_5b/1x1
I0327 09:11:23.685789  2662 net.cpp:226] Top shape: 12 384 7 7 (225792)
I0327 09:11:23.685798  2662 net.cpp:234] Memory required for data: 663605192
I0327 09:11:23.685828  2662 net.cpp:154] Setting up Layer of device :0 @cpu 0 Layer : inception_5b/relu_1x1
I0327 09:11:23.685838  2662 layer_factory.hpp:114] Creating layer inception_5b/relu_1x1
I0327 09:11:23.685858  2662 net.cpp:169] Creating Layer inception_5b/relu_1x1
I0327 09:11:23.685873  2662 net.cpp:606] inception_5b/relu_1x1 <- inception_5b/1x1
I0327 09:11:23.685887  2662 net.cpp:566] inception_5b/relu_1x1 -> inception_5b/1x1 (in-place)
I0327 09:11:23.685907  2662 net.cpp:219] Setting up inception_5b/relu_1x1
I0327 09:11:23.685919  2662 net.cpp:226] Top shape: 12 384 7 7 (225792)
I0327 09:11:23.685927  2662 net.cpp:234] Memory required for data: 664508360
I0327 09:11:23.685936  2662 net.cpp:154] Setting up Layer of device :0 @cpu 0 Layer : inception_5b/3x3_reduce
I0327 09:11:23.685945  2662 layer_factory.hpp:114] Creating layer inception_5b/3x3_reduce
I0327 09:11:23.685968  2662 net.cpp:169] Creating Layer inception_5b/3x3_reduce
I0327 09:11:23.685979  2662 net.cpp:606] inception_5b/3x3_reduce <- inception_5a/output_inception_5a/output_0_split_1
I0327 09:11:23.685993  2662 net.cpp:579] inception_5b/3x3_reduce -> inception_5b/3x3_reduce
I0327 09:11:23.686002  2662 net.cpp:582] From AppendTop @cpu: 0
I0327 09:11:23.691936  2662 net.cpp:219] Setting up inception_5b/3x3_reduce
I0327 09:11:23.691998  2662 net.cpp:226] Top shape: 12 192 7 7 (112896)
I0327 09:11:23.692008  2662 net.cpp:234] Memory required for data: 664959944
I0327 09:11:23.692039  2662 net.cpp:154] Setting up Layer of device :0 @cpu 0 Layer : inception_5b/relu_3x3_reduce
I0327 09:11:23.692070  2662 layer_factory.hpp:114] Creating layer inception_5b/relu_3x3_reduce
I0327 09:11:23.692091  2662 net.cpp:169] Creating Layer inception_5b/relu_3x3_reduce
I0327 09:11:23.692106  2662 net.cpp:606] inception_5b/relu_3x3_reduce <- inception_5b/3x3_reduce
I0327 09:11:23.692119  2662 net.cpp:566] inception_5b/relu_3x3_reduce -> inception_5b/3x3_reduce (in-place)
I0327 09:11:23.692137  2662 net.cpp:219] Setting up inception_5b/relu_3x3_reduce
I0327 09:11:23.692149  2662 net.cpp:226] Top shape: 12 192 7 7 (112896)
I0327 09:11:23.692157  2662 net.cpp:234] Memory required for data: 665411528
I0327 09:11:23.692167  2662 net.cpp:154] Setting up Layer of device :0 @cpu 0 Layer : inception_5b/3x3
I0327 09:11:23.692176  2662 layer_factory.hpp:114] Creating layer inception_5b/3x3
I0327 09:11:23.692198  2662 net.cpp:169] Creating Layer inception_5b/3x3
I0327 09:11:23.692208  2662 net.cpp:606] inception_5b/3x3 <- inception_5b/3x3_reduce
I0327 09:11:23.692220  2662 net.cpp:579] inception_5b/3x3 -> inception_5b/3x3
I0327 09:11:23.692229  2662 net.cpp:582] From AppendTop @cpu: 0
I0327 09:11:23.712684  2662 net.cpp:219] Setting up inception_5b/3x3
I0327 09:11:23.712775  2662 net.cpp:226] Top shape: 12 384 7 7 (225792)
I0327 09:11:23.712786  2662 net.cpp:234] Memory required for data: 666314696
I0327 09:11:23.712818  2662 net.cpp:154] Setting up Layer of device :0 @cpu 0 Layer : inception_5b/relu_3x3
I0327 09:11:23.712828  2662 layer_factory.hpp:114] Creating layer inception_5b/relu_3x3
I0327 09:11:23.712848  2662 net.cpp:169] Creating Layer inception_5b/relu_3x3
I0327 09:11:23.712891  2662 net.cpp:606] inception_5b/relu_3x3 <- inception_5b/3x3
I0327 09:11:23.712908  2662 net.cpp:566] inception_5b/relu_3x3 -> inception_5b/3x3 (in-place)
…
I0327 09:11:24.164786  2662 net.cpp:226] Top shape: 50 64 14 14 (627200)
I0327 09:11:24.164795  2662 net.cpp:234] Memory required for data: 2363400412
I0327 09:11:24.164822  2662 net.cpp:154] Setting up Layer of device :0 @cpu 0 Layer : inception_4d/relu_5x5
I0327 09:11:24.164832  2662 layer_factory.hpp:114] Creating layer inception_4d/relu_5x5
I0327 09:11:24.164849  2662 net.cpp:169] Creating Layer inception_4d/relu_5x5
I0327 09:11:24.164861  2662 net.cpp:606] inception_4d/relu_5x5 <- inception_4d/5x5
I0327 09:11:24.164878  2662 net.cpp:566] inception_4d/relu_5x5 -> inception_4d/5x5 (in-place)
I0327 09:11:24.164896  2662 net.cpp:219] Setting up inception_4d/relu_5x5
I0327 09:11:24.164907  2662 net.cpp:226] Top shape: 50 64 14 14 (627200)
I0327 09:11:24.164916  2662 net.cpp:234] Memory required for data: 2365909212
I0327 09:11:24.164925  2662 net.cpp:154] Setting up Layer of device :0 @cpu 0 Layer : inception_4d/pool
I0327 09:11:24.164934  2662 layer_factory.hpp:114] Creating layer inception_4d/pool
I0327 09:11:24.164984  2662 net.cpp:169] Creating Layer inception_4d/pool
I0327 09:11:24.164997  2662 net.cpp:606] inception_4d/pool <- inception_4c/output_inception_4c/output_0_split_3
I0327 09:11:24.165014  2662 net.cpp:579] inception_4d/pool -> inception_4d/pool
I0327 09:11:24.165030  2662 net.cpp:582] From AppendTop @cpu: 0
I0327 09:11:24.165050  2662 net.cpp:219] Setting up inception_4d/pool
I0327 09:11:24.165061  2662 net.cpp:226] Top shape: 50 512 14 14 (5017600)
I0327 09:11:24.165069  2662 net.cpp:234] Memory required for data: 2385979612
I0327 09:11:24.165079  2662 net.cpp:154] Setting up Layer of device :0 @cpu 0 Layer : inception_4d/pool_proj
I0327 09:11:24.165096  2662 layer_factory.hpp:114] Creating layer inception_4d/pool_proj
I0327 09:11:24.165122  2662 net.cpp:169] Creating Layer inception_4d/pool_proj
I0327 09:11:24.165132  2662 net.cpp:606] inception_4d/pool_proj <- inception_4d/pool
I0327 09:11:24.165148  2662 net.cpp:579] inception_4d/pool_proj -> inception_4d/pool_proj
I0327 09:11:24.165156  2662 net.cpp:582] From AppendTop @cpu: 0
I0327 09:11:24.168318  2662 net.cpp:219] Setting up inception_4d/pool_proj
I0327 09:11:24.168359  2662 net.cpp:226] Top shape: 50 64 14 14 (627200)
I0327 09:11:24.168385  2662 net.cpp:234] Memory required for data: 2388488412
I0327 09:11:24.168408  2662 net.cpp:154] Setting up Layer of device :0 @cpu 0 Layer : inception_4d/relu_pool_proj
I0327 09:11:24.168418  2662 layer_factory.hpp:114] Creating layer inception_4d/relu_pool_proj
I0327 09:11:24.168434  2662 net.cpp:169] Creating Layer inception_4d/relu_pool_proj
I0327 09:11:24.168445  2662 net.cpp:606] inception_4d/relu_pool_proj <- inception_4d/pool_proj
I0327 09:11:24.168462  2662 net.cpp:566] inception_4d/relu_pool_proj -> inception_4d/pool_proj (in-place)
I0327 09:11:24.168478  2662 net.cpp:219] Setting up inception_4d/relu_pool_proj
I0327 09:11:24.168489  2662 net.cpp:226] Top shape: 50 64 14 14 (627200)
I0327 09:11:24.168498  2662 net.cpp:234] Memory required for data: 2390997212
I0327 09:11:24.168507  2662 net.cpp:154] Setting up Layer of device :0 @cpu 0 Layer : inception_4d/output
I0327 09:11:24.168515  2662 layer_factory.hpp:114] Creating layer inception_4d/output
I0327 09:11:24.168529  2662 net.cpp:169] Creating Layer inception_4d/output
I0327 09:11:24.168537  2662 net.cpp:606] inception_4d/output <- inception_4d/1x1
I0327 09:11:24.168548  2662 net.cpp:606] inception_4d/output <- inception_4d/3x3
I0327 09:11:24.168558  2662 net.cpp:606] inception_4d/output <- inception_4d/5x5
I0327 09:11:24.168568  2662 net.cpp:606] inception_4d/output <- inception_4d/pool_proj
I0327 09:11:24.168583  2662 net.cpp:579] inception_4d/output -> inception_4d/output
I0327 09:11:24.168592  2662 net.cpp:582] From AppendTop @cpu: 0
I0327 09:11:24.168624  2662 net.cpp:219] Setting up inception_4d/output
I0327 09:11:24.168637  2662 net.cpp:226] Top shape: 50 528 14 14 (5174400)
I0327 09:11:24.168644  2662 net.cpp:234] Memory required for data: 2411694812
I0327 09:11:24.168654  2662 net.cpp:154] Setting up Layer of device :0 @cpu 0 Layer : inception_4d/output_inception_4d/output_0_split
I0327 09:11:24.168663  2662 layer_factory.hpp:114] Creating layer inception_4d/output_inception_4d/output_0_split
I0327 09:11:24.168676  2662 net.cpp:169] Creating Layer inception_4d/output_inception_4d/output_0_split
…
I0327 09:11:24.168753  2662 net.cpp:582] From AppendTop @cpu: 0
I0327 09:11:24.168767  2662 net.cpp:579] inception_4d/output_inception_4d/output_0_split -> inception_4d/output_inception_4d/output_0_split_3
I0327 09:11:24.168776  2662 net.cpp:582] From AppendTop @cpu: 0
I0327 09:11:24.168788  2662 net.cpp:579] inception_4d/output_inception_4d/output_0_split -> inception_4d/output_inception_4d/output_0_split_4
I0327 09:11:24.168797  2662 net.cpp:582] From AppendTop @cpu: 0
I0327 09:11:24.168817  2662 net.cpp:219] Setting up inception_4d/output_inception_4d/output_0_split
I0327 09:11:24.168828  2662 net.cpp:226] Top shape: 50 528 14 14 (5174400)
I0327 09:11:24.168838  2662 net.cpp:226] Top shape: 50 528 14 14 (5174400)
I0327 09:11:24.168849  2662 net.cpp:226] Top shape: 50 528 14 14 (5174400)
I0327 09:11:24.168859  2662 net.cpp:226] Top shape: 50 528 14 14 (5174400)
I0327 09:11:24.168870  2662 net.cpp:226] Top shape: 50 528 14 14 (5174400)
I0327 09:11:24.168879  2662 net.cpp:234] Memory required for data: 2515182812
I0327 09:11:24.168889  2662 net.cpp:154] Setting up Layer of device :0 @cpu 0 Layer : loss2/ave_pool
I0327 09:11:24.168896  2662 layer_factory.hpp:114] Creating layer loss2/ave_pool
I0327 09:11:24.168938  2662 net.cpp:169] Creating Layer loss2/ave_pool
I0327 09:11:24.168956  2662 net.cpp:606] loss2/ave_pool <- inception_4d/output_inception_4d/output_0_split_0
I0327 09:11:24.168972  2662 net.cpp:579] loss2/ave_pool -> loss2/ave_pool
I0327 09:11:24.168980  2662 net.cpp:582] From AppendTop @cpu: 0
I0327 09:11:24.168997  2662 net.cpp:219] Setting up loss2/ave_pool
I0327 09:11:24.169008  2662 net.cpp:226] Top shape: 50 528 4 4 (422400)
I0327 09:11:24.169023  2662 net.cpp:234] Memory required for data: 2516872412
I0327 09:11:24.169034  2662 net.cpp:154] Setting up Layer of device :0 @cpu 0 Layer : loss2/conv
I0327 09:11:24.169044  2662 layer_factory.hpp:114] Creating layer loss2/conv
I0327 09:11:24.169064  2662 net.cpp:169] Creating Layer loss2/conv
I0327 09:11:24.169073  2662 net.cpp:606] loss2/conv <- loss2/ave_pool
I0327 09:11:24.169096  2662 net.cpp:579] loss2/conv -> loss2/conv
I0327 09:11:24.169106  2662 net.cpp:582] From AppendTop @cpu: 0
I0327 09:11:24.171864  2662 net.cpp:219] Setting up loss2/conv
I0327 09:11:24.171897  2662 net.cpp:226] Top shape: 50 128 4 4 (102400)
I0327 09:11:24.171906  2662 net.cpp:234] Memory required for data: 2517282012
I0327 09:11:24.171926  2662 net.cpp:154] Setting up Layer of device :0 @cpu 0 Layer : loss2/relu_conv
I0327 09:11:24.171936  2662 layer_factory.hpp:114] Creating layer loss2/relu_conv
I0327 09:11:24.171949  2662 net.cpp:169] Creating Layer loss2/relu_conv
I0327 09:11:24.171960  2662 net.cpp:606] loss2/relu_conv <- loss2/conv
I0327 09:11:24.171977  2662 net.cpp:566] loss2/relu_conv -> loss2/conv (in-place)
I0327 09:11:24.171993  2662 net.cpp:219] Setting up loss2/relu_conv
I0327 09:11:24.172026  2662 net.cpp:226] Top shape: 50 128 4 4 (102400)
I0327 09:11:24.172037  2662 net.cpp:234] Memory required for data: 2517691612
I0327 09:11:24.172047  2662 net.cpp:154] Setting up Layer of device :0 @cpu 0 Layer : loss2/fc
I0327 09:11:24.172056  2662 layer_factory.hpp:114] Creating layer loss2/fc
I0327 09:11:24.172073  2662 net.cpp:169] Creating Layer loss2/fc
I0327 09:11:24.172082  2662 net.cpp:606] loss2/fc <- loss2/conv
I0327 09:11:24.172108  2662 net.cpp:579] loss2/fc -> loss2/fc
I0327 09:11:24.172118  2662 net.cpp:582] From AppendTop @cpu: 0
I0327 09:11:24.206986  2662 net.cpp:219] Setting up loss2/fc
I0327 09:11:24.207068  2662 net.cpp:226] Top shape: 50 1024 (51200)
I0327 09:11:24.207078  2662 net.cpp:234] Memory required for data: 2517896412
I0327 09:11:24.207105  2662 net.cpp:154] Setting up Layer of device :0 @cpu 0 Layer : loss2/relu_fc
I0327 09:11:24.207115  2662 layer_factory.hpp:114] Creating layer loss2/relu_fc
I0327 09:11:24.207135  2662 net.cpp:169] Creating Layer loss2/relu_fc
I0327 09:11:24.207149  2662 net.cpp:606] loss2/relu_fc <- loss2/fc
I0327 09:11:24.207165  2662 net.cpp:566] loss2/relu_fc -> loss2/fc (in-place)
I0327 09:11:24.207181  2662 net.cpp:219] Setting up loss2/relu_fc
I0327 09:11:24.207192  2662 net.cpp:226] Top shape: 50 1024 (51200)
I0327 09:11:24.207201  2662 net.cpp:234] Memory required for data: 2518101212
I0327 09:11:24.207211  2662 net.cpp:154] Setting up Layer of device :0 @cpu 0 Layer : loss2/drop_fc
I0327 09:11:24.207219  2662 layer_factory.hpp:114] Creating layer loss2/drop_fc
I0327 09:11:24.207237  2662 net.cpp:169] Creating Layer loss2/drop_fc
I0327 09:11:24.207247  2662 net.cpp:606] loss2/drop_fc <- loss2/fc
I0327 09:11:24.207257  2662 net.cpp:566] loss2/drop_fc -> loss2/fc (in-place)
I0327 09:11:24.207273  2662 net.cpp:219] Setting up loss2/drop_fc
I0327 09:11:24.207283  2662 net.cpp:226] Top shape: 50 1024 (51200)
I0327 09:11:24.207291  2662 net.cpp:234] Memory required for data: 2518306012
I0327 09:11:24.207301  2662 net.cpp:154] Setting up Layer of device :0 @cpu 0 Layer : loss2/classifier
I0327 09:11:24.207309  2662 layer_factory.hpp:114] Creating layer loss2/classifier
I0327 09:11:24.207326  2662 net.cpp:169] Creating Layer loss2/classifier
I0327 09:11:24.207335  2662 net.cpp:606] loss2/classifier <- loss2/fc
I0327 09:11:24.207348  2662 net.cpp:579] loss2/classifier -> loss2/classifier
I0327 09:11:24.207357  2662 net.cpp:582] From AppendTop @cpu: 0
I0327 09:11:24.224829  2662 net.cpp:219] Setting up loss2/classifier
I0327 09:11:24.224884  2662 net.cpp:226] Top shape: 50 1000 (50000)
I0327 09:11:24.224892  2662 net.cpp:234] Memory required for data: 2518506012
I0327 09:11:24.224912  2662 net.cpp:154] Setting up Layer of device :0 @cpu 0 Layer : loss2/classifier_loss2/classifier_0_split
I0327 09:11:24.224922  2662 layer_factory.hpp:114] Creating layer loss2/classifier_loss2/classifier_0_split
I0327 09:11:24.224941  2662 net.cpp:169] Creating Layer loss2/classifier_loss2/classifier_0_split
I0327 09:11:24.224953  2662 net.cpp:606] loss2/classifier_loss2/classifier_0_split <- loss2/classifier
I0327 09:11:24.224969  2662 net.cpp:579] loss2/classifier_loss2/classifier_0_split -> loss2/classifier_loss2/classifier_0_split_0
I0327 09:11:24.224977  2662 net.cpp:582] From AppendTop @cpu: 0
I0327 09:11:24.224994  2662 net.cpp:579] loss2/classifier_loss2/classifier_0_split -> loss2/classifier_loss2/classifier_0_split_1
I0327 09:11:24.225003  2662 net.cpp:582] From AppendTop @cpu: 0
I0327 09:11:24.225021  2662 net.cpp:579] loss2/classifier_loss2/classifier_0_split -> loss2/classifier_loss2/classifier_0_split_2
I0327 09:11:24.225033  2662 net.cpp:582] From AppendTop @cpu: 0
I0327 09:11:24.225050  2662 net.cpp:219] Setting up loss2/classifier_loss2/classifier_0_split
I0327 09:11:24.225062  2662 net.cpp:226] Top shape: 50 1000 (50000)
I0327 09:11:24.225073  2662 net.cpp:226] Top shape: 50 1000 (50000)
I0327 09:11:24.225083  2662 net.cpp:226] Top shape: 50 1000 (50000)
I0327 09:11:24.225098  2662 net.cpp:234] Memory required for data: 2519106012
I0327 09:11:24.225132  2662 net.cpp:154] Setting up Layer of device :0 @cpu 0 Layer : loss2/loss
I0327 09:11:24.225142  2662 layer_factory.hpp:114] Creating layer loss2/loss
I0327 09:11:24.225152  2662 net.cpp:169] Creating Layer loss2/loss
I0327 09:11:24.225162  2662 net.cpp:606] loss2/loss <- loss2/classifier_loss2/classifier_0_split_0
…
I0327 09:11:24.225744  2662 net.cpp:154] Setting up Layer of device :0 @cpu 0 Layer : inception_4e/1x1
I0327 09:11:24.225759  2662 layer_factory.hpp:114] Creating layer inception_4e/1x1
I0327 09:11:24.225781  2662 net.cpp:169] Creating Layer inception_4e/1x1
I0327 09:11:24.225792  2662 net.cpp:606] inception_4e/1x1 <- inception_4d/output_inception_4d/output_0_split_1
I0327 09:11:24.225808  2662 net.cpp:579] inception_4e/1x1 -> inception_4e/1x1
I0327 09:11:24.225817  2662 net.cpp:582] From AppendTop @cpu: 0
I0327 09:11:24.231897  2662 net.cpp:219] Setting up inception_4e/1x1
I0327 09:11:24.231966  2662 net.cpp:226] Top shape: 50 256 14 14 (2508800)
I0327 09:11:24.231974  2662 net.cpp:234] Memory required for data: 2529141224
I0327 09:11:24.232002  2662 net.cpp:154] Setting up Layer of device :0 @cpu 0 Layer : inception_4e/relu_1x1
I0327 09:11:24.232012  2662 layer_factory.hpp:114] Creating layer inception_4e/relu_1x1
I0327 09:11:24.232038  2662 net.cpp:169] Creating Layer inception_4e/relu_1x1
I0327 09:11:24.232050  2662 net.cpp:606] inception_4e/relu_1x1 <- inception_4e/1x1
I0327 09:11:24.232064  2662 net.cpp:566] inception_4e/relu_1x1 -> inception_4e/1x1 (in-place)
I0327 09:11:24.232084  2662 net.cpp:219] Setting up inception_4e/relu_1x1
I0327 09:11:24.232100  2662 net.cpp:226] Top shape: 50 256 14 14 (2508800)
I0327 09:11:24.232107  2662 net.cpp:234] Memory required for data: 2539176424
I0327 09:11:24.232117  2662 net.cpp:154] Setting up Layer of device :0 @cpu 0 Layer : inception_4e/3x3_reduce
I0327 09:11:24.232126  2662 layer_factory.hpp:114] Creating layer inception_4e/3x3_reduce
I0327 09:11:24.232156  2662 net.cpp:169] Creating Layer inception_4e/3x3_reduce
I0327 09:11:24.232193  2662 net.cpp:606] inception_4e/3x3_reduce <- inception_4d/output_inception_4d/output_0_split_2
I0327 09:11:24.232211  2662 net.cpp:579] inception_4e/3x3_reduce -> inception_4e/3x3_reduce
I0327 09:11:24.232220  2662 net.cpp:582] From AppendTop @cpu: 0
I0327 09:11:24.237380  2662 net.cpp:219] Setting up inception_4e/3x3_reduce
I0327 09:11:24.237434  2662 net.cpp:226] Top shape: 50 160 14 14 (1568000)
I0327 09:11:24.237443  2662 net.cpp:234] Memory required for data: 2545448424
I0327 09:11:24.237470  2662 net.cpp:154] Setting up Layer of device :0 @cpu 0 Layer : inception_4e/relu_3x3_reduce
I0327 09:11:24.237480  2662 layer_factory.hpp:114] Creating layer inception_4e/relu_3x3_reduce
I0327 09:11:24.237496  2662 net.cpp:169] Creating Layer inception_4e/relu_3x3_reduce
I0327 09:11:24.237509  2662 net.cpp:606] inception_4e/relu_3x3_reduce <- inception_4e/3x3_reduce
I0327 09:11:24.237525  2662 net.cpp:566] inception_4e/relu_3x3_reduce -> inception_4e/3x3_reduce (in-place)
I0327 09:11:24.237542  2662 net.cpp:219] Setting up inception_4e/relu_3x3_reduce
I0327 09:11:24.237555  2662 net.cpp:226] Top shape: 50 160 14 14 (1568000)
I0327 09:11:24.237562  2662 net.cpp:234] Memory required for data: 2551720424
I0327 09:11:24.237572  2662 net.cpp:154] Setting up Layer of device :0 @cpu 0 Layer : inception_4e/3x3
I0327 09:11:24.237581  2662 layer_factory.hpp:114] Creating layer inception_4e/3x3
I0327 09:11:24.237598  2662 net.cpp:169] Creating Layer inception_4e/3x3
I0327 09:11:24.237608  2662 net.cpp:606] inception_4e/3x3 <- inception_4e/3x3_reduce
I0327 09:11:24.237624  2662 net.cpp:579] inception_4e/3x3 -> inception_4e/3x3
I0327 09:11:24.237633  2662 net.cpp:582] From AppendTop @cpu: 0
I0327 09:11:24.254434  2662 net.cpp:219] Setting up inception_4e/3x3
I0327 09:11:24.254516  2662 net.cpp:226] Top shape: 50 320 14 14 (3136000)
I0327 09:11:24.254525  2662 net.cpp:234] Memory required for data: 2564264424
I0327 09:11:24.254556  2662 net.cpp:154] Setting up Layer of device :0 @cpu 0 Layer : inception_4e/relu_3x3
I0327 09:11:24.254566  2662 layer_factory.hpp:114] Creating layer inception_4e/relu_3x3
I0327 09:11:24.254587  2662 net.cpp:169] Creating Layer inception_4e/relu_3x3
I0327 09:11:24.254601  2662 net.cpp:606] inception_4e/relu_3x3 <- inception_4e/3x3
I0327 09:11:24.254616  2662 net.cpp:566] inception_4e/relu_3x3 -> inception_4e/3x3 (in-place)
I0327 09:11:24.254636  2662 net.cpp:219] Setting up inception_4e/relu_3x3
I0327 09:11:24.254647  2662 net.cpp:226] Top shape: 50 320 14 14 (3136000)
I0327 09:11:24.254673  2662 net.cpp:234] Memory required for data: 2576808424
I0327 09:11:24.254684  2662 net.cpp:154] Setting up Layer of device :0 @cpu 0 Layer : inception_4e/5x5_reduce
I0327 09:11:24.254693  2662 layer_factory.hpp:114] Creating layer inception_4e/5x5_reduce
I0327 09:11:24.254716  2662 net.cpp:169] Creating Layer inception_4e/5x5_reduce
I0327 09:11:24.254727  2662 net.cpp:606] inception_4e/5x5_reduce <- inception_4d/output_inception_4d/output_0_split_3
I0327 09:11:24.254741  2662 net.cpp:579] inception_4e/5x5_reduce -> inception_4e/5x5_reduce
I0327 09:11:24.254750  2662 net.cpp:582] From AppendTop @cpu: 0
I0327 09:11:24.257148  2662 net.cpp:219] Setting up inception_4e/5x5_reduce
I0327 09:11:24.257189  2662 net.cpp:226] Top shape: 50 32 14 14 (313600)
I0327 09:11:24.257197  2662 net.cpp:234] Memory required for data: 2578062824
I0327 09:11:24.257220  2662 net.cpp:154] Setting up Layer of device :0 @cpu 0 Layer : inception_4e/relu_5x5_reduce
I0327 09:11:24.257230  2662 layer_factory.hpp:114] Creating layer inception_4e/relu_5x5_reduce
I0327 09:11:24.257243  2662 net.cpp:169] Creating Layer inception_4e/relu_5x5_reduce
I0327 09:11:24.257254  2662 net.cpp:606] inception_4e/relu_5x5_reduce <- inception_4e/5x5_reduce
I0327 09:11:24.257267  2662 net.cpp:566] inception_4e/relu_5x5_reduce -> inception_4e/5x5_reduce (in-place)
I0327 09:11:24.257282  2662 net.cpp:219] Setting up inception_4e/relu_5x5_reduce
I0327 09:11:24.257294  2662 net.cpp:226] Top shape: 50 32 14 14 (313600)
I0327 09:11:24.257302  2662 net.cpp:234] Memory required for data: 2579317224
I0327 09:11:24.257334  2662 net.cpp:154] Setting up Layer of device :0 @cpu 0 Layer : inception_4e/5x5
I0327 09:11:24.257344  2662 layer_factory.hpp:114] Creating layer inception_4e/5x5
I0327 09:11:24.257364  2662 net.cpp:169] Creating Layer inception_4e/5x5
I0327 09:11:24.257374  2662 net.cpp:606] inception_4e/5x5 <- inception_4e/5x5_reduce
I0327 09:11:24.257390  2662 net.cpp:579] inception_4e/5x5 -> inception_4e/5x5
I0327 09:11:24.257397  2662 net.cpp:582] From AppendTop @cpu: 0
I0327 09:11:24.263485  2662 net.cpp:219] Setting up inception_4e/5x5
I0327 09:11:24.263555  2662 net.cpp:226] Top shape: 50 128 14 14 (1254400)
I0327 09:11:24.263563  2662 net.cpp:234] Memory required for data: 2584334824
I0327 09:11:24.263593  2662 net.cpp:154] Setting up Layer of device :0 @cpu 0 Layer : inception_4e/relu_5x5
I0327 09:11:24.263603  2662 layer_factory.hpp:114] Creating layer inception_4e/relu_5x5
I0327 09:11:24.263625  2662 net.cpp:169] Creating Layer inception_4e/relu_5x5
I0327 09:11:24.263638  2662 net.cpp:606] inception_4e/relu_5x5 <- inception_4e/5x5
I0327 09:11:24.263653  2662 net.cpp:566] inception_4e/relu_5x5 -> inception_4e/5x5 (in-place)
I0327 09:11:24.263674  2662 net.cpp:219] Setting up inception_4e/relu_5x5
I0327 09:11:24.263686  2662 net.cpp:226] Top shape: 50 128 14 14 (1254400)
I0327 09:11:24.263695  2662 net.cpp:234] Memory required for data: 2589352424
I0327 09:11:24.263705  2662 net.cpp:154] Setting up Layer of device :0 @cpu 0 Layer : inception_4e/pool
I0327 09:11:24.263712  2662 layer_factory.hpp:114] Creating layer inception_4e/pool
I0327 09:11:24.263762  2662 net.cpp:169] Creating Layer inception_4e/pool
I0327 09:11:24.263774  2662 net.cpp:606] inception_4e/pool <- inception_4d/output_inception_4d/output_0_split_4
I0327 09:11:24.263788  2662 net.cpp:579] inception_4e/pool -> inception_4e/pool
I0327 09:11:24.263797  2662 net.cpp:582] From AppendTop @cpu: 0
I0327 09:11:24.263816  2662 net.cpp:219] Setting up inception_4e/pool
I0327 09:11:24.263828  2662 net.cpp:226] Top shape: 50 528 14 14 (5174400)
I0327 09:11:24.263836  2662 net.cpp:234] Memory required for data: 2610050024
I0327 09:11:24.263845  2662 net.cpp:154] Setting up Layer of device :0 @cpu 0 Layer : inception_4e/pool_proj
I0327 09:11:24.263854  2662 layer_factory.hpp:114] Creating layer inception_4e/pool_proj
I0327 09:11:24.263878  2662 net.cpp:169] Creating Layer inception_4e/pool_proj
I0327 09:11:24.263888  2662 net.cpp:606] inception_4e/pool_proj <- inception_4e/pool
I0327 09:11:24.263916  2662 net.cpp:579] inception_4e/pool_proj -> inception_4e/pool_proj
I0327 09:11:24.263926  2662 net.cpp:582] From AppendTop @cpu: 0
I0327 09:11:24.267674  2662 net.cpp:219] Setting up inception_4e/pool_proj
I0327 09:11:24.267724  2662 net.cpp:226] Top shape: 50 128 14 14 (1254400)
I0327 09:11:24.267734  2662 net.cpp:234] Memory required for data: 2615067624
I0327 09:11:24.267758  2662 net.cpp:154] Setting up Layer of device :0 @cpu 0 Layer : inception_4e/relu_pool_proj
I0327 09:11:24.267767  2662 layer_factory.hpp:114] Creating layer inception_4e/relu_pool_proj
I0327 09:11:24.267786  2662 net.cpp:169] Creating Layer inception_4e/relu_pool_proj
I0327 09:11:24.267796  2662 net.cpp:606] inception_4e/relu_pool_proj <- inception_4e/pool_proj
I0327 09:11:24.267809  2662 net.cpp:566] inception_4e/relu_pool_proj -> inception_4e/pool_proj (in-place)
I0327 09:11:24.267827  2662 net.cpp:219] Setting up inception_4e/relu_pool_proj
I0327 09:11:24.267838  2662 net.cpp:226] Top shape: 50 128 14 14 (1254400)
I0327 09:11:24.267845  2662 net.cpp:234] Memory required for data: 2620085224
I0327 09:11:24.267855  2662 net.cpp:154] Setting up Layer of device :0 @cpu 0 Layer : inception_4e/output
I0327 09:11:24.267864  2662 layer_factory.hpp:114] Creating layer inception_4e/output
I0327 09:11:24.267876  2662 net.cpp:169] Creating Layer inception_4e/output
I0327 09:11:24.267886  2662 net.cpp:606] inception_4e/output <- inception_4e/1x1
I0327 09:11:24.267896  2662 net.cpp:606] inception_4e/output <- inception_4e/3x3
I0327 09:11:24.267907  2662 net.cpp:606] inception_4e/output <- inception_4e/5x5
I0327 09:11:24.267941  2662 net.cpp:606] inception_4e/output <- inception_4e/pool_proj
I0327 09:11:24.267953  2662 net.cpp:579] inception_4e/output -> inception_4e/output
I0327 09:11:24.267961  2662 net.cpp:582] From AppendTop @cpu: 0
I0327 09:11:24.267979  2662 net.cpp:219] Setting up inception_4e/output
I0327 09:11:24.267990  2662 net.cpp:226] Top shape: 50 832 14 14 (8153600)
I0327 09:11:24.267998  2662 net.cpp:234] Memory required for data: 2652699624
I0327 09:11:24.268008  2662 net.cpp:154] Setting up Layer of device :0 @cpu 0 Layer : pool4/3x3_s2
I0327 09:11:24.268023  2662 layer_factory.hpp:114] Creating layer pool4/3x3_s2
I0327 09:11:24.268066  2662 net.cpp:169] Creating Layer pool4/3x3_s2
I0327 09:11:24.268077  2662 net.cpp:606] pool4/3x3_s2 <- inception_4e/output
I0327 09:11:24.268095  2662 net.cpp:579] pool4/3x3_s2 -> pool4/3x3_s2
I0327 09:11:24.268105  2662 net.cpp:582] From AppendTop @cpu: 0
I0327 09:11:24.268122  2662 net.cpp:219] Setting up pool4/3x3_s2
I0327 09:11:24.268133  2662 net.cpp:226] Top shape: 50 832 7 7 (2038400)
I0327 09:11:24.268142  2662 net.cpp:234] Memory required for data: 2660853224
I0327 09:11:24.268151  2662 net.cpp:154] Setting up Layer of device :0 @cpu 0 Layer : pool4/3x3_s2_pool4/3x3_s2_0_split
I0327 09:11:24.268160  2662 layer_factory.hpp:114] Creating layer pool4/3x3_s2_pool4/3x3_s2_0_split
I0327 09:11:24.268173  2662 net.cpp:169] Creating Layer pool4/3x3_s2_pool4/3x3_s2_0_split
I0327 09:11:24.268182  2662 net.cpp:606] pool4/3x3_s2_pool4/3x3_s2_0_split <- pool4/3x3_s2
I0327 09:11:24.268196  2662 net.cpp:579] pool4/3x3_s2_pool4/3x3_s2_0_split -> pool4/3x3_s2_pool4/3x3_s2_0_split_0
I0327 09:11:24.268205  2662 net.cpp:582] From AppendTop @cpu: 0
I0327 09:11:24.268218  2662 net.cpp:579] pool4/3x3_s2_pool4/3x3_s2_0_split -> pool4/3x3_s2_pool4/3x3_s2_0_split_1
I0327 09:11:24.268227  2662 net.cpp:582] From AppendTop @cpu: 0
I0327 09:11:24.268240  2662 net.cpp:579] pool4/3x3_s2_pool4/3x3_s2_0_split -> pool4/3x3_s2_pool4/3x3_s2_0_split_2
I0327 09:11:24.268249  2662 net.cpp:582] From AppendTop @cpu: 0
I0327 09:11:24.268270  2662 net.cpp:579] pool4/3x3_s2_pool4/3x3_s2_0_split -> pool4/3x3_s2_pool4/3x3_s2_0_split_3
I0327 09:11:24.268280  2662 net.cpp:582] From AppendTop @cpu: 0
I0327 09:11:24.268295  2662 net.cpp:219] Setting up pool4/3x3_s2_pool4/3x3_s2_0_split
I0327 09:11:24.268306  2662 net.cpp:226] Top shape: 50 832 7 7 (2038400)
I0327 09:11:24.268317  2662 net.cpp:226] Top shape: 50 832 7 7 (2038400)
I0327 09:11:24.268335  2662 net.cpp:226] Top shape: 50 832 7 7 (2038400)
I0327 09:11:24.268347  2662 net.cpp:226] Top shape: 50 832 7 7 (2038400)
I0327 09:11:24.268354  2662 net.cpp:234] Memory required for data: 2693467624
I0327 09:11:24.268364  2662 net.cpp:154] Setting up Layer of device :0 @cpu 0 Layer : inception_5a/1x1
I0327 09:11:24.268373  2662 layer_factory.hpp:114] Creating layer inception_5a/1x1
I0327 09:11:24.268390  2662 net.cpp:169] Creating Layer inception_5a/1x1
I0327 09:11:24.268400  2662 net.cpp:606] inception_5a/1x1 <- pool4/3x3_s2_pool4/3x3_s2_0_split_0
I0327 09:11:24.268416  2662 net.cpp:579] inception_5a/1x1 -> inception_5a/1x1
I0327 09:11:24.268425  2662 net.cpp:582] From AppendTop @cpu: 0
I0327 09:11:24.275527  2662 net.cpp:219] Setting up inception_5a/1x1
I0327 09:11:24.275593  2662 net.cpp:226] Top shape: 50 256 7 7 (627200)
I0327 09:11:24.275601  2662 net.cpp:234] Memory required for data: 2695976424
I0327 09:11:24.275629  2662 net.cpp:154] Setting up Layer of device :0 @cpu 0 Layer : inception_5a/relu_1x1
I0327 09:11:24.275640  2662 layer_factory.hpp:114] Creating layer inception_5a/relu_1x1
I0327 09:11:24.275657  2662 net.cpp:169] Creating Layer inception_5a/relu_1x1
I0327 09:11:24.275670  2662 net.cpp:606] inception_5a/relu_1x1 <- inception_5a/1x1
I0327 09:11:24.275684  2662 net.cpp:566] inception_5a/relu_1x1 -> inception_5a/1x1 (in-place)
I0327 09:11:24.275702  2662 net.cpp:219] Setting up inception_5a/relu_1x1
I0327 09:11:24.275713  2662 net.cpp:226] Top shape: 50 256 7 7 (627200)
I0327 09:11:24.275722  2662 net.cpp:234] Memory required for data: 2698485224
I0327 09:11:24.275758  2662 net.cpp:154] Setting up Layer of device :0 @cpu 0 Layer : inception_5a/3x3_reduce
I0327 09:11:24.275766  2662 layer_factory.hpp:114] Creating layer inception_5a/3x3_reduce
I0327 09:11:24.275789  2662 net.cpp:169] Creating Layer inception_5a/3x3_reduce
I0327 09:11:24.275800  2662 net.cpp:606] inception_5a/3x3_reduce <- pool4/3x3_s2_pool4/3x3_s2_0_split_1
I0327 09:11:24.275815  2662 net.cpp:579] inception_5a/3x3_reduce -> inception_5a/3x3_reduce
I0327 09:11:24.275823  2662 net.cpp:582] From AppendTop @cpu: 0
I0327 09:11:24.280779  2662 net.cpp:219] Setting up inception_5a/3x3_reduce
I0327 09:11:24.280828  2662 net.cpp:226] Top shape: 50 160 7 7 (392000)
I0327 09:11:24.280838  2662 net.cpp:234] Memory required for data: 2700053224
I0327 09:11:24.280863  2662 net.cpp:154] Setting up Layer of device :0 @cpu 0 Layer : inception_5a/relu_3x3_reduce
I0327 09:11:24.280871  2662 layer_factory.hpp:114] Creating layer inception_5a/relu_3x3_reduce
I0327 09:11:24.280892  2662 net.cpp:169] Creating Layer inception_5a/relu_3x3_reduce
I0327 09:11:24.280905  2662 net.cpp:606] inception_5a/relu_3x3_reduce <- inception_5a/3x3_reduce
I0327 09:11:24.280917  2662 net.cpp:566] inception_5a/relu_3x3_reduce -> inception_5a/3x3_reduce (in-place)
I0327 09:11:24.280935  2662 net.cpp:219] Setting up inception_5a/relu_3x3_reduce
I0327 09:11:24.280946  2662 net.cpp:226] Top shape: 50 160 7 7 (392000)
I0327 09:11:24.280953  2662 net.cpp:234] Memory required for data: 2701621224
I0327 09:11:24.280963  2662 net.cpp:154] Setting up Layer of device :0 @cpu 0 Layer : inception_5a/3x3
I0327 09:11:24.280972  2662 layer_factory.hpp:114] Creating layer inception_5a/3x3
I0327 09:11:24.280989  2662 net.cpp:169] Creating Layer inception_5a/3x3
I0327 09:11:24.280999  2662 net.cpp:606] inception_5a/3x3 <- inception_5a/3x3_reduce
I0327 09:11:24.281023  2662 net.cpp:579] inception_5a/3x3 -> inception_5a/3x3
I0327 09:11:24.281033  2662 net.cpp:582] From AppendTop @cpu: 0
I0327 09:11:24.296026  2662 net.cpp:219] Setting up inception_5a/3x3
I0327 09:11:24.296113  2662 net.cpp:226] Top shape: 50 320 7 7 (784000)
I0327 09:11:24.296123  2662 net.cpp:234] Memory required for data: 2704757224
I0327 09:11:24.296154  2662 net.cpp:154] Setting up Layer of device :0 @cpu 0 Layer : inception_5a/relu_3x3
I0327 09:11:24.296164  2662 layer_factory.hpp:114] Creating layer inception_5a/relu_3x3
I0327 09:11:24.296185  2662 net.cpp:169] Creating Layer inception_5a/relu_3x3
I0327 09:11:24.296216  2662 net.cpp:606] inception_5a/relu_3x3 <- inception_5a/3x3
I0327 09:11:24.296231  2662 net.cpp:566] inception_5a/relu_3x3 -> inception_5a/3x3 (in-place)
I0327 09:11:24.296250  2662 net.cpp:219] Setting up inception_5a/relu_3x3
I0327 09:11:24.296262  2662 net.cpp:226] Top shape: 50 320 7 7 (784000)
I0327 09:11:24.296270  2662 net.cpp:234] Memory required for data: 2707893224
I0327 09:11:24.296280  2662 net.cpp:154] Setting up Layer of device :0 @cpu 0 Layer : inception_5a/5x5_reduce
I0327 09:11:24.296288  2662 layer_factory.hpp:114] Creating layer inception_5a/5x5_reduce
I0327 09:11:24.296311  2662 net.cpp:169] Creating Layer inception_5a/5x5_reduce
I0327 09:11:24.296324  2662 net.cpp:606] inception_5a/5x5_reduce <- pool4/3x3_s2_pool4/3x3_s2_0_split_2
I0327 09:11:24.296337  2662 net.cpp:579] inception_5a/5x5_reduce -> inception_5a/5x5_reduce
I0327 09:11:24.296346  2662 net.cpp:582] From AppendTop @cpu: 0
I0327 09:11:24.298072  2662 net.cpp:219] Setting up inception_5a/5x5_reduce
I0327 09:11:24.298110  2662 net.cpp:226] Top shape: 50 32 7 7 (78400)
I0327 09:11:24.298118  2662 net.cpp:234] Memory required for data: 2708206824
I0327 09:11:24.298138  2662 net.cpp:154] Setting up Layer of device :0 @cpu 0 Layer : inception_5a/relu_5x5_reduce
I0327 09:11:24.298148  2662 layer_factory.hpp:114] Creating layer inception_5a/relu_5x5_reduce
I0327 09:11:24.298161  2662 net.cpp:169] Creating Layer inception_5a/relu_5x5_reduce
I0327 09:11:24.298172  2662 net.cpp:606] inception_5a/relu_5x5_reduce <- inception_5a/5x5_reduce
I0327 09:11:24.298187  2662 net.cpp:566] inception_5a/relu_5x5_reduce -> inception_5a/5x5_reduce (in-place)
I0327 09:11:24.298223  2662 net.cpp:219] Setting up inception_5a/relu_5x5_reduce
I0327 09:11:24.298234  2662 net.cpp:226] Top shape: 50 32 7 7 (78400)
I0327 09:11:24.298243  2662 net.cpp:234] Memory required for data: 2708520424
I0327 09:11:24.298254  2662 net.cpp:154] Setting up Layer of device :0 @cpu 0 Layer : inception_5a/5x5
I0327 09:11:24.298262  2662 layer_factory.hpp:114] Creating layer inception_5a/5x5
I0327 09:11:24.298285  2662 net.cpp:169] Creating Layer inception_5a/5x5
I0327 09:11:24.298295  2662 net.cpp:606] inception_5a/5x5 <- inception_5a/5x5_reduce
I0327 09:11:24.298310  2662 net.cpp:579] inception_5a/5x5 -> inception_5a/5x5
I0327 09:11:24.298319  2662 net.cpp:582] From AppendTop @cpu: 0
I0327 09:11:24.302000  2662 net.cpp:219] Setting up inception_5a/5x5
I0327 09:11:24.302054  2662 net.cpp:226] Top shape: 50 128 7 7 (313600)
I0327 09:11:24.302063  2662 net.cpp:234] Memory required for data: 2709774824
I0327 09:11:24.302086  2662 net.cpp:154] Setting up Layer of device :0 @cpu 0 Layer : inception_5a/relu_5x5
I0327 09:11:24.302101  2662 layer_factory.hpp:114] Creating layer inception_5a/relu_5x5
I0327 09:11:24.302117  2662 net.cpp:169] Creating Layer inception_5a/relu_5x5
I0327 09:11:24.302130  2662 net.cpp:606] inception_5a/relu_5x5 <- inception_5a/5x5
I0327 09:11:24.302146  2662 net.cpp:566] inception_5a/relu_5x5 -> inception_5a/5x5 (in-place)
I0327 09:11:24.302163  2662 net.cpp:219] Setting up inception_5a/relu_5x5
I0327 09:11:24.302175  2662 net.cpp:226] Top shape: 50 128 7 7 (313600)
I0327 09:11:24.302183  2662 net.cpp:234] Memory required for data: 2711029224
I0327 09:11:24.302193  2662 net.cpp:154] Setting up Layer of device :0 @cpu 0 Layer : inception_5a/pool
I0327 09:11:24.302201  2662 layer_factory.hpp:114] Creating layer inception_5a/pool
I0327 09:11:24.302251  2662 net.cpp:169] Creating Layer inception_5a/pool
I0327 09:11:24.302264  2662 net.cpp:606] inception_5a/pool <- pool4/3x3_s2_pool4/3x3_s2_0_split_3
I0327 09:11:24.302279  2662 net.cpp:579] inception_5a/pool -> inception_5a/pool
I0327 09:11:24.302289  2662 net.cpp:582] From AppendTop @cpu: 0
I0327 09:11:24.302309  2662 net.cpp:219] Setting up inception_5a/pool
I0327 09:11:24.302320  2662 net.cpp:226] Top shape: 50 832 7 7 (2038400)
I0327 09:11:24.302328  2662 net.cpp:234] Memory required for data: 2719182824
I0327 09:11:24.302338  2662 net.cpp:154] Setting up Layer of device :0 @cpu 0 Layer : inception_5a/pool_proj
I0327 09:11:24.302359  2662 layer_factory.hpp:114] Creating layer inception_5a/pool_proj
I0327 09:11:24.302381  2662 net.cpp:169] Creating Layer inception_5a/pool_proj
I0327 09:11:24.302390  2662 net.cpp:606] inception_5a/pool_proj <- inception_5a/pool
I0327 09:11:24.302404  2662 net.cpp:579] inception_5a/pool_proj -> inception_5a/pool_proj
I0327 09:11:24.302415  2662 net.cpp:582] From AppendTop @cpu: 0
I0327 09:11:24.307200  2662 net.cpp:219] Setting up inception_5a/pool_proj
I0327 09:11:24.307248  2662 net.cpp:226] Top shape: 50 128 7 7 (313600)
I0327 09:11:24.307257  2662 net.cpp:234] Memory required for data: 2720437224
I0327 09:11:24.307281  2662 net.cpp:154] Setting up Layer of device :0 @cpu 0 Layer : inception_5a/relu_pool_proj
I0327 09:11:24.307291  2662 layer_factory.hpp:114] Creating layer inception_5a/relu_pool_proj
I0327 09:11:24.307307  2662 net.cpp:169] Creating Layer inception_5a/relu_pool_proj
I0327 09:11:24.307318  2662 net.cpp:606] inception_5a/relu_pool_proj <- inception_5a/pool_proj
I0327 09:11:24.307332  2662 net.cpp:566] inception_5a/relu_pool_proj -> inception_5a/pool_proj (in-place)
I0327 09:11:24.307348  2662 net.cpp:219] Setting up inception_5a/relu_pool_proj
I0327 09:11:24.307358  2662 net.cpp:226] Top shape: 50 128 7 7 (313600)
I0327 09:11:24.307368  2662 net.cpp:234] Memory required for data: 2721691624
I0327 09:11:24.307377  2662 net.cpp:154] Setting up Layer of device :0 @cpu 0 Layer : inception_5a/output
I0327 09:11:24.307385  2662 layer_factory.hpp:114] Creating layer inception_5a/output
I0327 09:11:24.307397  2662 net.cpp:169] Creating Layer inception_5a/output
I0327 09:11:24.307430  2662 net.cpp:606] inception_5a/output <- inception_5a/1x1
I0327 09:11:24.307440  2662 net.cpp:606] inception_5a/output <- inception_5a/3x3
I0327 09:11:24.307451  2662 net.cpp:606] inception_5a/output <- inception_5a/5x5
I0327 09:11:24.307461  2662 net.cpp:606] inception_5a/output <- inception_5a/pool_proj
I0327 09:11:24.307473  2662 net.cpp:579] inception_5a/output -> inception_5a/output
I0327 09:11:24.307482  2662 net.cpp:582] From AppendTop @cpu: 0
I0327 09:11:24.307498  2662 net.cpp:219] Setting up inception_5a/output
I0327 09:11:24.307510  2662 net.cpp:226] Top shape: 50 832 7 7 (2038400)
I0327 09:11:24.307518  2662 net.cpp:234] Memory required for data: 2729845224
I0327 09:11:24.307528  2662 net.cpp:154] Setting up Layer of device :0 @cpu 0 Layer : inception_5a/output_inception_5a/output_0_split
I0327 09:11:24.307536  2662 layer_factory.hpp:114] Creating layer inception_5a/output_inception_5a/output_0_split
I0327 09:11:24.307552  2662 net.cpp:169] Creating Layer inception_5a/output_inception_5a/output_0_split
…
I0327 09:11:24.307603  2662 net.cpp:582] From AppendTop @cpu: 0
I0327 09:11:24.307617  2662 net.cpp:579] inception_5a/output_inception_5a/output_0_split -> inception_5a/output_inception_5a/output_0_split_2
I0327 09:11:24.307626  2662 net.cpp:582] From AppendTop @cpu: 0
I0327 09:11:24.307638  2662 net.cpp:579] inception_5a/output_inception_5a/output_0_split -> inception_5a/output_inception_5a/output_0_split_3
I0327 09:11:24.307647  2662 net.cpp:582] From AppendTop @cpu: 0
I0327 09:11:24.307662  2662 net.cpp:219] Setting up inception_5a/output_inception_5a/output_0_split
I0327 09:11:24.307673  2662 net.cpp:226] Top shape: 50 832 7 7 (2038400)
I0327 09:11:24.307684  2662 net.cpp:226] Top shape: 50 832 7 7 (2038400)
I0327 09:11:24.307694  2662 net.cpp:226] Top shape: 50 832 7 7 (2038400)
I0327 09:11:24.307704  2662 net.cpp:226] Top shape: 50 832 7 7 (2038400)
I0327 09:11:24.307713  2662 net.cpp:234] Memory required for data: 2762459624
I0327 09:11:24.307729  2662 net.cpp:154] Setting up Layer of device :0 @cpu 0 Layer : inception_5b/1x1
I0327 09:11:24.307737  2662 layer_factory.hpp:114] Creating layer inception_5b/1x1
I0327 09:11:24.307757  2662 net.cpp:169] Creating Layer inception_5b/1x1
I0327 09:11:24.307767  2662 net.cpp:606] inception_5b/1x1 <- inception_5a/output_inception_5a/output_0_split_0
I0327 09:11:24.307781  2662 net.cpp:579] inception_5b/1x1 -> inception_5b/1x1
I0327 09:11:24.307790  2662 net.cpp:582] From AppendTop @cpu: 0
I0327 09:11:24.318711  2662 net.cpp:219] Setting up inception_5b/1x1
I0327 09:11:24.318790  2662 net.cpp:226] Top shape: 50 384 7 7 (940800)
I0327 09:11:24.318799  2662 net.cpp:234] Memory required for data: 2766222824
I0327 09:11:24.318831  2662 net.cpp:154] Setting up Layer of device :0 @cpu 0 Layer : inception_5b/relu_1x1
I0327 09:11:24.318841  2662 layer_factory.hpp:114] Creating layer inception_5b/relu_1x1
I0327 09:11:24.318861  2662 net.cpp:169] Creating Layer inception_5b/relu_1x1
I0327 09:11:24.318876  2662 net.cpp:606] inception_5b/relu_1x1 <- inception_5b/1x1
I0327 09:11:24.318891  2662 net.cpp:566] inception_5b/relu_1x1 -> inception_5b/1x1 (in-place)
I0327 09:11:24.318909  2662 net.cpp:219] Setting up inception_5b/relu_1x1
I0327 09:11:24.318920  2662 net.cpp:226] Top shape: 50 384 7 7 (940800)
I0327 09:11:24.318928  2662 net.cpp:234] Memory required for data: 2769986024
I0327 09:11:24.318938  2662 net.cpp:154] Setting up Layer of device :0 @cpu 0 Layer : inception_5b/3x3_reduce
I0327 09:11:24.318948  2662 layer_factory.hpp:114] Creating layer inception_5b/3x3_reduce
I0327 09:11:24.319000  2662 net.cpp:169] Creating Layer inception_5b/3x3_reduce
I0327 09:11:24.319010  2662 net.cpp:606] inception_5b/3x3_reduce <- inception_5a/output_inception_5a/output_0_split_1
I0327 09:11:24.319058  2662 net.cpp:579] inception_5b/3x3_reduce -> inception_5b/3x3_reduce
I0327 09:11:24.319069  2662 net.cpp:582] From AppendTop @cpu: 0
I0327 09:11:24.325009  2662 net.cpp:219] Setting up inception_5b/3x3_reduce
I0327 09:11:24.325073  2662 net.cpp:226] Top shape: 50 192 7 7 (470400)
I0327 09:11:24.325083  2662 net.cpp:234] Memory required for data: 2771867624
I0327 09:11:24.325109  2662 net.cpp:154] Setting up Layer of device :0 @cpu 0 Layer : inception_5b/relu_3x3_reduce
I0327 09:11:24.325117  2662 layer_factory.hpp:114] Creating layer inception_5b/relu_3x3_reduce
I0327 09:11:24.325135  2662 net.cpp:169] Creating Layer inception_5b/relu_3x3_reduce
I0327 09:11:24.325147  2662 net.cpp:606] inception_5b/relu_3x3_reduce <- inception_5b/3x3_reduce
I0327 09:11:24.325165  2662 net.cpp:566] inception_5b/relu_3x3_reduce -> inception_5b/3x3_reduce (in-place)
I0327 09:11:24.325182  2662 net.cpp:219] Setting up inception_5b/relu_3x3_reduce
I0327 09:11:24.325198  2662 net.cpp:226] Top shape: 50 192 7 7 (470400)
I0327 09:11:24.325207  2662 net.cpp:234] Memory required for data: 2773749224
I0327 09:11:24.325217  2662 net.cpp:154] Setting up Layer of device :0 @cpu 0 Layer : inception_5b/3x3
I0327 09:11:24.325225  2662 layer_factory.hpp:114] Creating layer inception_5b/3x3
I0327 09:11:24.325243  2662 net.cpp:169] Creating Layer inception_5b/3x3
I0327 09:11:24.325253  2662 net.cpp:606] inception_5b/3x3 <- inception_5b/3x3_reduce
I0327 09:11:24.325266  2662 net.cpp:579] inception_5b/3x3 -> inception_5b/3x3
I0327 09:11:24.325274  2662 net.cpp:582] From AppendTop @cpu: 0
I0327 09:11:24.345371  2662 net.cpp:219] Setting up inception_5b/3x3
I0327 09:11:24.345453  2662 net.cpp:226] Top shape: 50 384 7 7 (940800)
I0327 09:11:24.345463  2662 net.cpp:234] Memory required for data: 2777512424
I0327 09:11:24.345495  2662 net.cpp:154] Setting up Layer of device :0 @cpu 0 Layer : inception_5b/relu_3x3
I0327 09:11:24.345505  2662 layer_factory.hpp:114] Creating layer inception_5b/relu_3x3
I0327 09:11:24.345526  2662 net.cpp:169] Creating Layer inception_5b/relu_3x3
I0327 09:11:24.345541  2662 net.cpp:606] inception_5b/relu_3x3 <- inception_5b/3x3
I0327 09:11:24.345556  2662 net.cpp:566] inception_5b/relu_3x3 -> inception_5b/3x3 (in-place)
I0327 09:11:24.345592  2662 net.cpp:219] Setting up inception_5b/relu_3x3
I0327 09:11:24.345604  2662 net.cpp:226] Top shape: 50 384 7 7 (940800)
I0327 09:11:24.345613  2662 net.cpp:234] Memory required for data: 2781275624
I0327 09:11:24.345623  2662 net.cpp:154] Setting up Layer of device :0 @cpu 0 Layer : inception_5b/5x5_reduce
I0327 09:11:24.345631  2662 layer_factory.hpp:114] Creating layer inception_5b/5x5_reduce
I0327 09:11:24.345654  2662 net.cpp:169] Creating Layer inception_5b/5x5_reduce
I0327 09:11:24.345666  2662 net.cpp:606] inception_5b/5x5_reduce <- inception_5a/output_inception_5a/output_0_split_2
I0327 09:11:24.345685  2662 net.cpp:579] inception_5b/5x5_reduce -> inception_5b/5x5_reduce
I0327 09:11:24.345695  2662 net.cpp:582] From AppendTop @cpu: 0
I0327 09:11:24.348026  2662 net.cpp:219] Setting up inception_5b/5x5_reduce
I0327 09:11:24.348057  2662 net.cpp:226] Top shape: 50 48 7 7 (117600)
I0327 09:11:24.348067  2662 net.cpp:234] Memory required for data: 2781746024
I0327 09:11:24.348086  2662 net.cpp:154] Setting up Layer of device :0 @cpu 0 Layer : inception_5b/relu_5x5_reduce
I0327 09:11:24.348096  2662 layer_factory.hpp:114] Creating layer inception_5b/relu_5x5_reduce
I0327 09:11:24.348109  2662 net.cpp:169] Creating Layer inception_5b/relu_5x5_reduce
I0327 09:11:24.348120  2662 net.cpp:606] inception_5b/relu_5x5_reduce <- inception_5b/5x5_reduce
I0327 09:11:24.348134  2662 net.cpp:566] inception_5b/relu_5x5_reduce -> inception_5b/5x5_reduce (in-place)
I0327 09:11:24.348147  2662 net.cpp:219] Setting up inception_5b/relu_5x5_reduce
I0327 09:11:24.348160  2662 net.cpp:226] Top shape: 50 48 7 7 (117600)
I0327 09:11:24.348188  2662 net.cpp:234] Memory required for data: 2782216424
I0327 09:11:24.348204  2662 net.cpp:154] Setting up Layer of device :0 @cpu 0 Layer : inception_5b/5x5
I0327 09:11:24.348213  2662 layer_factory.hpp:114] Creating layer inception_5b/5x5
I0327 09:11:24.348234  2662 net.cpp:169] Creating Layer inception_5b/5x5
I0327 09:11:24.348244  2662 net.cpp:606] inception_5b/5x5 <- inception_5b/5x5_reduce
I0327 09:11:24.348258  2662 net.cpp:579] inception_5b/5x5 -> inception_5b/5x5
I0327 09:11:24.348266  2662 net.cpp:582] From AppendTop @cpu: 0
I0327 09:11:24.354929  2662 net.cpp:219] Setting up inception_5b/5x5
I0327 09:11:24.354993  2662 net.cpp:226] Top shape: 50 128 7 7 (313600)
I0327 09:11:24.355002  2662 net.cpp:234] Memory required for data: 2783470824
I0327 09:11:24.355036  2662 net.cpp:154] Setting up Layer of device :0 @cpu 0 Layer : inception_5b/relu_5x5
I0327 09:11:24.355047  2662 layer_factory.hpp:114] Creating layer inception_5b/relu_5x5
I0327 09:11:24.355068  2662 net.cpp:169] Creating Layer inception_5b/relu_5x5
I0327 09:11:24.355082  2662 net.cpp:606] inception_5b/relu_5x5 <- inception_5b/5x5
I0327 09:11:24.355096  2662 net.cpp:566] inception_5b/relu_5x5 -> inception_5b/5x5 (in-place)
I0327 09:11:24.355113  2662 net.cpp:219] Setting up inception_5b/relu_5x5
I0327 09:11:24.355125  2662 net.cpp:226] Top shape: 50 128 7 7 (313600)
I0327 09:11:24.355134  2662 net.cpp:234] Memory required for data: 2784725224
I0327 09:11:24.355144  2662 net.cpp:154] Setting up Layer of device :0 @cpu 0 Layer : inception_5b/pool
I0327 09:11:24.355152  2662 layer_factory.hpp:114] Creating layer inception_5b/pool
I0327 09:11:24.355211  2662 net.cpp:169] Creating Layer inception_5b/pool
I0327 09:11:24.355223  2662 net.cpp:606] inception_5b/pool <- inception_5a/output_inception_5a/output_0_split_3
I0327 09:11:24.355237  2662 net.cpp:579] inception_5b/pool -> inception_5b/pool
I0327 09:11:24.355245  2662 net.cpp:582] From AppendTop @cpu: 0
I0327 09:11:24.355264  2662 net.cpp:219] Setting up inception_5b/pool
I0327 09:11:24.355276  2662 net.cpp:226] Top shape: 50 832 7 7 (2038400)
I0327 09:11:24.355284  2662 net.cpp:234] Memory required for data: 2792878824
I0327 09:11:24.355294  2662 net.cpp:154] Setting up Layer of device :0 @cpu 0 Layer : inception_5b/pool_proj
I0327 09:11:24.355304  2662 layer_factory.hpp:114] Creating layer inception_5b/pool_proj
I0327 09:11:24.355324  2662 net.cpp:169] Creating Layer inception_5b/pool_proj
I0327 09:11:24.355356  2662 net.cpp:606] inception_5b/pool_proj <- inception_5b/pool
I0327 09:11:24.355370  2662 net.cpp:579] inception_5b/pool_proj -> inception_5b/pool_proj
I0327 09:11:24.355379  2662 net.cpp:582] From AppendTop @cpu: 0
I0327 09:11:24.359897  2662 net.cpp:219] Setting up inception_5b/pool_proj
I0327 09:11:24.359941  2662 net.cpp:226] Top shape: 50 128 7 7 (313600)
I0327 09:11:24.359951  2662 net.cpp:234] Memory required for data: 2794133224
I0327 09:11:24.359973  2662 net.cpp:154] Setting up Layer of device :0 @cpu 0 Layer : inception_5b/relu_pool_proj
I0327 09:11:24.359983  2662 layer_factory.hpp:114] Creating layer inception_5b/relu_pool_proj
I0327 09:11:24.360002  2662 net.cpp:169] Creating Layer inception_5b/relu_pool_proj
I0327 09:11:24.360014  2662 net.cpp:606] inception_5b/relu_pool_proj <- inception_5b/pool_proj
I0327 09:11:24.360035  2662 net.cpp:566] inception_5b/relu_pool_proj -> inception_5b/pool_proj (in-place)
I0327 09:11:24.360051  2662 net.cpp:219] Setting up inception_5b/relu_pool_proj
I0327 09:11:24.360064  2662 net.cpp:226] Top shape: 50 128 7 7 (313600)
I0327 09:11:24.360071  2662 net.cpp:234] Memory required for data: 2795387624
I0327 09:11:24.360081  2662 net.cpp:154] Setting up Layer of device :0 @cpu 0 Layer : inception_5b/output
I0327 09:11:24.360090  2662 layer_factory.hpp:114] Creating layer inception_5b/output
I0327 09:11:24.360101  2662 net.cpp:169] Creating Layer inception_5b/output
I0327 09:11:24.360111  2662 net.cpp:606] inception_5b/output <- inception_5b/1x1
I0327 09:11:24.360122  2662 net.cpp:606] inception_5b/output <- inception_5b/3x3
I0327 09:11:24.360154  2662 net.cpp:606] inception_5b/output <- inception_5b/5x5
I0327 09:11:24.360165  2662 net.cpp:606] inception_5b/output <- inception_5b/pool_proj
I0327 09:11:24.360177  2662 net.cpp:579] inception_5b/output -> inception_5b/output
I0327 09:11:24.360185  2662 net.cpp:582] From AppendTop @cpu: 0
I0327 09:11:24.360208  2662 net.cpp:219] Setting up inception_5b/output
I0327 09:11:24.360219  2662 net.cpp:226] Top shape: 50 1024 7 7 (2508800)
I0327 09:11:24.360227  2662 net.cpp:234] Memory required for data: 2805422824
I0327 09:11:24.360237  2662 net.cpp:154] Setting up Layer of device :0 @cpu 0 Layer : pool5/7x7_s1
I0327 09:11:24.360245  2662 layer_factory.hpp:114] Creating layer pool5/7x7_s1
I0327 09:11:24.360285  2662 net.cpp:169] Creating Layer pool5/7x7_s1
I0327 09:11:24.360296  2662 net.cpp:606] pool5/7x7_s1 <- inception_5b/output
I0327 09:11:24.360312  2662 net.cpp:579] pool5/7x7_s1 -> pool5/7x7_s1
I0327 09:11:24.360321  2662 net.cpp:582] From AppendTop @cpu: 0
I0327 09:11:24.360337  2662 net.cpp:219] Setting up pool5/7x7_s1
I0327 09:11:24.360348  2662 net.cpp:226] Top shape: 50 1024 1 1 (51200)
I0327 09:11:24.360357  2662 net.cpp:234] Memory required for data: 2805627624
I0327 09:11:24.360368  2662 net.cpp:154] Setting up Layer of device :0 @cpu 0 Layer : pool5/drop_7x7_s1
I0327 09:11:24.360375  2662 layer_factory.hpp:114] Creating layer pool5/drop_7x7_s1
I0327 09:11:24.360389  2662 net.cpp:169] Creating Layer pool5/drop_7x7_s1
I0327 09:11:24.360399  2662 net.cpp:606] pool5/drop_7x7_s1 <- pool5/7x7_s1
I0327 09:11:24.360409  2662 net.cpp:566] pool5/drop_7x7_s1 -> pool5/7x7_s1 (in-place)
I0327 09:11:24.360425  2662 net.cpp:219] Setting up pool5/drop_7x7_s1
I0327 09:11:24.360436  2662 net.cpp:226] Top shape: 50 1024 1 1 (51200)
I0327 09:11:24.360445  2662 net.cpp:234] Memory required for data: 2805832424
I0327 09:11:24.360453  2662 net.cpp:154] Setting up Layer of device :0 @cpu 0 Layer : loss3/classifier
I0327 09:11:24.360462  2662 layer_factory.hpp:114] Creating layer loss3/classifier
I0327 09:11:24.360482  2662 net.cpp:169] Creating Layer loss3/classifier
I0327 09:11:24.360492  2662 net.cpp:606] loss3/classifier <- pool5/7x7_s1
I0327 09:11:24.360505  2662 net.cpp:579] loss3/classifier -> loss3/classifier
I0327 09:11:24.360514  2662 net.cpp:582] From AppendTop @cpu: 0
I0327 09:11:24.377837  2662 net.cpp:219] Setting up loss3/classifier
I0327 09:11:24.377882  2662 net.cpp:226] Top shape: 50 1000 (50000)
I0327 09:11:24.377903  2662 net.cpp:234] Memory required for data: 2806032424
I0327 09:11:24.377923  2662 net.cpp:154] Setting up Layer of device :0 @cpu 0 Layer : loss3/classifier_loss3/classifier_0_split
I0327 09:11:24.377933  2662 layer_factory.hpp:114] Creating layer loss3/classifier_loss3/classifier_0_split
I0327 09:11:24.377951  2662 net.cpp:169] Creating Layer loss3/classifier_loss3/classifier_0_split
I0327 09:11:24.377962  2662 net.cpp:606] loss3/classifier_loss3/classifier_0_split <- loss3/classifier
I0327 09:11:24.377979  2662 net.cpp:579] loss3/classifier_loss3/classifier_0_split -> loss3/classifier_loss3/classifier_0_split_0
I0327 09:11:24.377988  2662 net.cpp:582] From AppendTop @cpu: 0
I0327 09:11:24.378005  2662 net.cpp:579] loss3/classifier_loss3/classifier_0_split -> loss3/classifier_loss3/classifier_0_split_1
I0327 09:11:24.378013  2662 net.cpp:582] From AppendTop @cpu: 0
I0327 09:11:24.378034  2662 net.cpp:579] loss3/classifier_loss3/classifier_0_split -> loss3/classifier_loss3/classifier_0_split_2
I0327 09:11:24.378042  2662 net.cpp:582] From AppendTop @cpu: 0
I0327 09:11:24.378057  2662 net.cpp:219] Setting up loss3/classifier_loss3/classifier_0_split
I0327 09:11:24.378068  2662 net.cpp:226] Top shape: 50 1000 (50000)
I0327 09:11:24.378079  2662 net.cpp:226] Top shape: 50 1000 (50000)
I0327 09:11:24.378089  2662 net.cpp:226] Top shape: 50 1000 (50000)
I0327 09:11:24.378098  2662 net.cpp:234] Memory required for data: 2806632424
I0327 09:11:24.378106  2662 net.cpp:154] Setting up Layer of device :0 @cpu 0 Layer : loss3/loss3
I0327 09:11:24.378131  2662 layer_factory.hpp:114] Creating layer loss3/loss3
I0327 09:11:24.378144  2662 net.cpp:169] Creating Layer loss3/loss3
I0327 09:11:24.378154  2662 net.cpp:606] loss3/loss3 <- loss3/classifier_loss3/classifier_0_split_0
…
