…
I0116 18:53:31.519315 18926 net.cpp:322] The NetState phase (0) differed from the phase (1) specified by a rule in layer accuracy
I0116 18:53:31.519754 18926 net.cpp:58] Initializing net from parameters: 
name: "CIFAR10_full"
state {
  phase: TRAIN
  level: 0
  stage: ""
}
layer {
  name: "cifar"
  type: "Data"
  top: "data"
  top: "label"
  include {
    phase: TRAIN
  }
  transform_param {
    mean_file: "examples/cifar10/mean.binaryproto"
  }
  data_param {
    source: "examples/cifar10/cifar10_train_lmdb"
    batch_size: 128
    backend: LMDB
  }
}
layer {
  name: "conv1"
  type: "Convolution"
  bottom: "data"
  top: "conv1"
  param {
    lr_mult: 1
  }
  param {
    lr_mult: 2
  }
  convolution_param {
    num_output: 32
    pad: 2
    kernel_size: 5
    stride: 1
    weight_filler {
      type: "gaussian"
      std: 0.0001
    }
    bias_filler {
      type: "constant"
    }
  }
}
layer {
  name: "pool1"
  type: "Pooling"
  bottom: "conv1"
  top: "pool1"
  pooling_param {
    pool: MAX
    kernel_size: 3
    stride: 2
  }
}
layer {
  name: "relu1"
  type: "ReLU"
  bottom: "pool1"
  top: "pool1"
}
layer {
  name: "norm1"
  type: "LRN"
  bottom: "pool1"
  top: "norm1"
  lrn_param {
    local_size: 3
    alpha: 5e-05
    beta: 0.75
    norm_region: WITHIN_CHANNEL
  }
}
layer {
  name: "conv2"
  type: "Convolution"
  bottom: "norm1"
  top: "conv2"
  param {
    lr_mult: 1
  }
  param {
    lr_mult: 2
  }
  convolution_param {
    num_output: 32
    pad: 2
    kernel_size: 5
    stride: 1
    weight_filler {
      type: "gaussian"
      std: 0.01
    }
    bias_filler {
      type: "constant"
    }
  }
}
layer {
  name: "relu2"
  type: "ReLU"
  bottom: "conv2"
  top: "conv2"
}
layer {
  name: "pool2"
  type: "Pooling"
  bottom: "conv2"
  top: "pool2"
  pooling_param {
    pool: AVE
    kernel_size: 3
    stride: 2
  }
}
layer {
  name: "norm2"
  type: "LRN"
  bottom: "pool2"
  top: "norm2"
  lrn_param {
    local_size: 3
    alpha: 5e-05
    beta: 0.75
    norm_region: WITHIN_CHANNEL
  }
}
layer {
  name: "conv3"
  type: "Convolution"
  bottom: "norm2"
  top: "conv3"
  convolution_param {
    num_output: 64
    pad: 2
    kernel_size: 5
    stride: 1
    weight_filler {
      type: "gaussian"
      std: 0.01
    }
    bias_filler {
      type: "constant"
    }
  }
}
layer {
  name: "relu3"
  type: "ReLU"
  bottom: "conv3"
  top: "conv3"
}
layer {
  name: "pool3"
  type: "Pooling"
  bottom: "conv3"
  top: "pool3"
  pooling_param {
    pool: AVE
    kernel_size: 3
    stride: 2
  }
}
layer {
  name: "ip1"
  type: "InnerProduct"
  bottom: "pool3"
  top: "ip1"
  param {
    lr_mult: 1
    decay_mult: 250
  }
  param {
    lr_mult: 2
    decay_mult: 0
  }
  inner_product_param {
    num_output: 10
    weight_filler {
      type: "gaussian"
      std: 0.01
    }
    bias_filler {
      type: "constant"
    }
  }
}
layer {
  name: "loss"
  type: "SoftmaxWithLoss"
  bottom: "ip1"
  bottom: "label"
  top: "loss"
}
I0116 18:53:31.519891 18926 layer_factory.hpp:77] Creating layer cifar
I0116 18:53:31.535106 18926 net.cpp:100] Creating Layer cifar
I0116 18:53:31.535245 18926 net.cpp:408] cifar -> data
I0116 18:53:31.535400 18926 net.cpp:408] cifar -> label
I0116 18:53:31.535466 18926 data_transformer.cpp:25] Loading mean file from: examples/cifar10/mean.binaryproto
I0116 18:53:31.559520 18927 db_lmdb.cpp:35] Opened lmdb examples/cifar10/cifar10_train_lmdb
I0116 18:53:31.573788 18926 data_layer.cpp:41] output data size: 128,3,32,32
I0116 18:53:31.597041 18926 net.cpp:150] Setting up cifar
I0116 18:53:31.597110 18926 net.cpp:157] Top shape: 128 3 32 32 (393216)
I0116 18:53:31.597141 18926 net.cpp:157] Top shape: 128 (128)
I0116 18:53:31.597157 18926 net.cpp:165] Memory required for data: 1573376
I0116 18:53:31.597193 18926 layer_factory.hpp:77] Creating layer conv1
I0116 18:53:31.597265 18926 net.cpp:100] Creating Layer conv1
I0116 18:53:31.597287 18926 net.cpp:434] conv1 <- data
I0116 18:53:31.597332 18926 net.cpp:408] conv1 -> conv1
I0116 18:53:31.601327 18926 net.cpp:150] Setting up conv1
I0116 18:53:31.601529 18926 net.cpp:157] Top shape: 128 32 32 32 (4194304)
I0116 18:53:31.601550 18926 net.cpp:165] Memory required for data: 18350592
I0116 18:53:31.601608 18926 layer_factory.hpp:77] Creating layer pool1
I0116 18:53:31.601644 18926 net.cpp:100] Creating Layer pool1
I0116 18:53:31.601661 18926 net.cpp:434] pool1 <- conv1
I0116 18:53:31.601682 18926 net.cpp:408] pool1 -> pool1
I0116 18:53:31.601735 18926 net.cpp:150] Setting up pool1
I0116 18:53:31.601757 18926 net.cpp:157] Top shape: 128 32 16 16 (1048576)
I0116 18:53:31.601770 18926 net.cpp:165] Memory required for data: 22544896
I0116 18:53:31.601785 18926 layer_factory.hpp:77] Creating layer relu1
I0116 18:53:31.601806 18926 net.cpp:100] Creating Layer relu1
I0116 18:53:31.601821 18926 net.cpp:434] relu1 <- pool1
I0116 18:53:31.601847 18926 net.cpp:395] relu1 -> pool1 (in-place)
I0116 18:53:31.604446 18926 net.cpp:150] Setting up relu1
I0116 18:53:31.604480 18926 net.cpp:157] Top shape: 128 32 16 16 (1048576)
I0116 18:53:31.604493 18926 net.cpp:165] Memory required for data: 26739200
I0116 18:53:31.604509 18926 layer_factory.hpp:77] Creating layer norm1
I0116 18:53:31.604538 18926 net.cpp:100] Creating Layer norm1
I0116 18:53:31.604553 18926 net.cpp:434] norm1 <- pool1
I0116 18:53:31.604573 18926 net.cpp:408] norm1 -> norm1
I0116 18:53:31.611479 18926 net.cpp:150] Setting up norm1
I0116 18:53:31.611512 18926 net.cpp:157] Top shape: 128 32 16 16 (1048576)
I0116 18:53:31.611526 18926 net.cpp:165] Memory required for data: 30933504
I0116 18:53:31.611541 18926 layer_factory.hpp:77] Creating layer conv2
I0116 18:53:31.611575 18926 net.cpp:100] Creating Layer conv2
I0116 18:53:31.611591 18926 net.cpp:434] conv2 <- norm1
I0116 18:53:31.611616 18926 net.cpp:408] conv2 -> conv2
I0116 18:53:31.613664 18926 net.cpp:150] Setting up conv2
I0116 18:53:31.613703 18926 net.cpp:157] Top shape: 128 32 16 16 (1048576)
I0116 18:53:31.613718 18926 net.cpp:165] Memory required for data: 35127808
I0116 18:53:31.613746 18926 layer_factory.hpp:77] Creating layer relu2
I0116 18:53:31.613768 18926 net.cpp:100] Creating Layer relu2
I0116 18:53:31.613783 18926 net.cpp:434] relu2 <- conv2
I0116 18:53:31.613806 18926 net.cpp:395] relu2 -> conv2 (in-place)
I0116 18:53:31.613828 18926 net.cpp:150] Setting up relu2
I0116 18:53:31.613847 18926 net.cpp:157] Top shape: 128 32 16 16 (1048576)
I0116 18:53:31.613859 18926 net.cpp:165] Memory required for data: 39322112
I0116 18:53:31.613874 18926 layer_factory.hpp:77] Creating layer pool2
I0116 18:53:31.613894 18926 net.cpp:100] Creating Layer pool2
I0116 18:53:31.613909 18926 net.cpp:434] pool2 <- conv2
I0116 18:53:31.613931 18926 net.cpp:408] pool2 -> pool2
I0116 18:53:31.613957 18926 net.cpp:150] Setting up pool2
I0116 18:53:31.613976 18926 net.cpp:157] Top shape: 128 32 8 8 (262144)
I0116 18:53:31.614004 18926 net.cpp:165] Memory required for data: 40370688
I0116 18:53:31.614027 18926 layer_factory.hpp:77] Creating layer norm2
I0116 18:53:31.614049 18926 net.cpp:100] Creating Layer norm2
I0116 18:53:31.614063 18926 net.cpp:434] norm2 <- pool2
I0116 18:53:31.614087 18926 net.cpp:408] norm2 -> norm2
I0116 18:53:31.614150 18926 net.cpp:150] Setting up norm2
I0116 18:53:31.614171 18926 net.cpp:157] Top shape: 128 32 8 8 (262144)
I0116 18:53:31.614184 18926 net.cpp:165] Memory required for data: 41419264
I0116 18:53:31.614198 18926 layer_factory.hpp:77] Creating layer conv3
I0116 18:53:31.614253 18926 net.cpp:100] Creating Layer conv3
I0116 18:53:31.614302 18926 net.cpp:434] conv3 <- norm2
I0116 18:53:31.614323 18926 net.cpp:408] conv3 -> conv3
I0116 18:53:31.618314 18926 net.cpp:150] Setting up conv3
I0116 18:53:31.618345 18926 net.cpp:157] Top shape: 128 64 8 8 (524288)
I0116 18:53:31.618357 18926 net.cpp:165] Memory required for data: 43516416
I0116 18:53:31.618386 18926 layer_factory.hpp:77] Creating layer relu3
I0116 18:53:31.618412 18926 net.cpp:100] Creating Layer relu3
I0116 18:53:31.618427 18926 net.cpp:434] relu3 <- conv3
I0116 18:53:31.618445 18926 net.cpp:395] relu3 -> conv3 (in-place)
I0116 18:53:31.618465 18926 net.cpp:150] Setting up relu3
I0116 18:53:31.618482 18926 net.cpp:157] Top shape: 128 64 8 8 (524288)
I0116 18:53:31.618495 18926 net.cpp:165] Memory required for data: 45613568
I0116 18:53:31.618510 18926 layer_factory.hpp:77] Creating layer pool3
I0116 18:53:31.618531 18926 net.cpp:100] Creating Layer pool3
I0116 18:53:31.618546 18926 net.cpp:434] pool3 <- conv3
I0116 18:53:31.618563 18926 net.cpp:408] pool3 -> pool3
I0116 18:53:31.618587 18926 net.cpp:150] Setting up pool3
I0116 18:53:31.618604 18926 net.cpp:157] Top shape: 128 64 4 4 (131072)
I0116 18:53:31.618618 18926 net.cpp:165] Memory required for data: 46137856
I0116 18:53:31.618630 18926 layer_factory.hpp:77] Creating layer ip1
I0116 18:53:31.618664 18926 net.cpp:100] Creating Layer ip1
I0116 18:53:31.618679 18926 net.cpp:434] ip1 <- pool3
I0116 18:53:31.618697 18926 net.cpp:408] ip1 -> ip1
I0116 18:53:31.619545 18926 net.cpp:150] Setting up ip1
I0116 18:53:31.619572 18926 net.cpp:157] Top shape: 128 10 (1280)
I0116 18:53:31.619586 18926 net.cpp:165] Memory required for data: 46142976
I0116 18:53:31.619607 18926 layer_factory.hpp:77] Creating layer loss
I0116 18:53:31.619642 18926 net.cpp:100] Creating Layer loss
I0116 18:53:31.619658 18926 net.cpp:434] loss <- ip1
I0116 18:53:31.619675 18926 net.cpp:434] loss <- label
I0116 18:53:31.619696 18926 net.cpp:408] loss -> loss
I0116 18:53:31.619802 18926 layer_factory.hpp:77] Creating layer loss
…
I0116 18:53:31.621783 18926 solver.cpp:181] Creating test net (#0) specified by net file: examples/cifar10/cifar10_full_train_test_bsize128.prototxt
I0116 18:53:31.621887 18926 net.cpp:322] The NetState phase (1) differed from the phase (0) specified by a rule in layer cifar
I0116 18:53:31.622630 18926 net.cpp:58] Initializing net from parameters: 
name: "CIFAR10_full"
state {
  phase: TEST
}
layer {
  name: "cifar"
  type: "Data"
  top: "data"
  top: "label"
  include {
    phase: TEST
  }
  transform_param {
    mean_file: "examples/cifar10/mean.binaryproto"
  }
  data_param {
    source: "examples/cifar10/cifar10_test_lmdb"
    batch_size: 100
    backend: LMDB
  }
}
layer {
  name: "conv1"
  type: "Convolution"
  bottom: "data"
  top: "conv1"
  param {
    lr_mult: 1
  }
  param {
    lr_mult: 2
  }
  convolution_param {
    num_output: 32
    pad: 2
    kernel_size: 5
    stride: 1
    weight_filler {
      type: "gaussian"
      std: 0.0001
    }
    bias_filler {
      type: "constant"
    }
  }
}
layer {
  name: "pool1"
  type: "Pooling"
  bottom: "conv1"
  top: "pool1"
  pooling_param {
    pool: MAX
    kernel_size: 3
    stride: 2
  }
}
layer {
  name: "relu1"
  type: "ReLU"
  bottom: "pool1"
  top: "pool1"
}
layer {
  name: "norm1"
  type: "LRN"
  bottom: "pool1"
  top: "norm1"
  lrn_param {
    local_size: 3
    alpha: 5e-05
    beta: 0.75
    norm_region: WITHIN_CHANNEL
  }
}
layer {
  name: "conv2"
  type: "Convolution"
  bottom: "norm1"
  top: "conv2"
  param {
    lr_mult: 1
  }
  param {
    lr_mult: 2
  }
  convolution_param {
    num_output: 32
    pad: 2
    kernel_size: 5
    stride: 1
    weight_filler {
      type: "gaussian"
      std: 0.01
    }
    bias_filler {
      type: "constant"
    }
  }
}
layer {
  name: "relu2"
  type: "ReLU"
  bottom: "conv2"
  top: "conv2"
}
layer {
  name: "pool2"
  type: "Pooling"
  bottom: "conv2"
  top: "pool2"
  pooling_param {
    pool: AVE
    kernel_size: 3
    stride: 2
  }
}
layer {
  name: "norm2"
  type: "LRN"
  bottom: "pool2"
  top: "norm2"
  lrn_param {
    local_size: 3
    alpha: 5e-05
    beta: 0.75
    norm_region: WITHIN_CHANNEL
  }
}
layer {
  name: "conv3"
  type: "Convolution"
  bottom: "norm2"
  top: "conv3"
  convolution_param {
    num_output: 64
    pad: 2
    kernel_size: 5
    stride: 1
    weight_filler {
      type: "gaussian"
      std: 0.01
    }
    bias_filler {
      type: "constant"
    }
  }
}
layer {
  name: "relu3"
  type: "ReLU"
  bottom: "conv3"
  top: "conv3"
}
layer {
  name: "pool3"
  type: "Pooling"
  bottom: "conv3"
  top: "pool3"
  pooling_param {
    pool: AVE
    kernel_size: 3
    stride: 2
  }
}
layer {
  name: "ip1"
  type: "InnerProduct"
  bottom: "pool3"
  top: "ip1"
  param {
    lr_mult: 1
    decay_mult: 250
  }
  param {
    lr_mult: 2
    decay_mult: 0
  }
  inner_product_param {
    num_output: 10
    weight_filler {
      type: "gaussian"
      std: 0.01
    }
    bias_filler {
      type: "constant"
    }
  }
}
layer {
  name: "accuracy"
  type: "Accuracy"
  bottom: "ip1"
  bottom: "label"
  top: "accuracy"
  include {
    phase: TEST
  }
}
layer {
  name: "loss"
  type: "SoftmaxWithLoss"
  bottom: "ip1"
  bottom: "label"
  top: "loss"
}
I0116 18:53:31.622866 18926 layer_factory.hpp:77] Creating layer cifar
I0116 18:53:31.623141 18926 net.cpp:100] Creating Layer cifar
I0116 18:53:31.623178 18926 net.cpp:408] cifar -> data
I0116 18:53:31.623209 18926 net.cpp:408] cifar -> label
I0116 18:53:31.623234 18926 data_transformer.cpp:25] Loading mean file from: examples/cifar10/mean.binaryproto
I0116 18:53:31.646744 18929 db_lmdb.cpp:35] Opened lmdb examples/cifar10/cifar10_test_lmdb
I0116 18:53:31.660616 18926 data_layer.cpp:41] output data size: 100,3,32,32
I0116 18:53:31.671967 18926 net.cpp:150] Setting up cifar
I0116 18:53:31.672049 18926 net.cpp:157] Top shape: 100 3 32 32 (307200)
I0116 18:53:31.672070 18926 net.cpp:157] Top shape: 100 (100)
I0116 18:53:31.672086 18926 net.cpp:165] Memory required for data: 1229200
I0116 18:53:31.672102 18926 layer_factory.hpp:77] Creating layer label_cifar_1_split
I0116 18:53:31.672135 18926 net.cpp:100] Creating Layer label_cifar_1_split
I0116 18:53:31.672154 18926 net.cpp:434] label_cifar_1_split <- label
I0116 18:53:31.672176 18926 net.cpp:408] label_cifar_1_split -> label_cifar_1_split_0
I0116 18:53:31.672210 18926 net.cpp:408] label_cifar_1_split -> label_cifar_1_split_1
I0116 18:53:31.672238 18926 net.cpp:150] Setting up label_cifar_1_split
I0116 18:53:31.672258 18926 net.cpp:157] Top shape: 100 (100)
I0116 18:53:31.672273 18926 net.cpp:157] Top shape: 100 (100)
I0116 18:53:31.672287 18926 net.cpp:165] Memory required for data: 1230000
I0116 18:53:31.672334 18926 layer_factory.hpp:77] Creating layer conv1
I0116 18:53:31.672366 18926 net.cpp:100] Creating Layer conv1
I0116 18:53:31.672384 18926 net.cpp:434] conv1 <- data
I0116 18:53:31.672406 18926 net.cpp:408] conv1 -> conv1
I0116 18:53:31.672652 18926 net.cpp:150] Setting up conv1
I0116 18:53:31.672677 18926 net.cpp:157] Top shape: 100 32 32 32 (3276800)
I0116 18:53:31.672690 18926 net.cpp:165] Memory required for data: 14337200
I0116 18:53:31.672719 18926 layer_factory.hpp:77] Creating layer pool1
I0116 18:53:31.672740 18926 net.cpp:100] Creating Layer pool1
I0116 18:53:31.672755 18926 net.cpp:434] pool1 <- conv1
I0116 18:53:31.672775 18926 net.cpp:408] pool1 -> pool1
I0116 18:53:31.672802 18926 net.cpp:150] Setting up pool1
I0116 18:53:31.672821 18926 net.cpp:157] Top shape: 100 32 16 16 (819200)
I0116 18:53:31.672833 18926 net.cpp:165] Memory required for data: 17614000
I0116 18:53:31.672847 18926 layer_factory.hpp:77] Creating layer relu1
I0116 18:53:31.672871 18926 net.cpp:100] Creating Layer relu1
I0116 18:53:31.672886 18926 net.cpp:434] relu1 <- pool1
I0116 18:53:31.672904 18926 net.cpp:395] relu1 -> pool1 (in-place)
I0116 18:53:31.672924 18926 net.cpp:150] Setting up relu1
I0116 18:53:31.672945 18926 net.cpp:157] Top shape: 100 32 16 16 (819200)
I0116 18:53:31.672958 18926 net.cpp:165] Memory required for data: 20890800
I0116 18:53:31.672973 18926 layer_factory.hpp:77] Creating layer norm1
I0116 18:53:31.673008 18926 net.cpp:100] Creating Layer norm1
I0116 18:53:31.673025 18926 net.cpp:434] norm1 <- pool1
I0116 18:53:31.673044 18926 net.cpp:408] norm1 -> norm1
I0116 18:53:31.673104 18926 net.cpp:150] Setting up norm1
I0116 18:53:31.673127 18926 net.cpp:157] Top shape: 100 32 16 16 (819200)
I0116 18:53:31.673141 18926 net.cpp:165] Memory required for data: 24167600
I0116 18:53:31.673156 18926 layer_factory.hpp:77] Creating layer conv2
I0116 18:53:31.673183 18926 net.cpp:100] Creating Layer conv2
I0116 18:53:31.673198 18926 net.cpp:434] conv2 <- norm1
I0116 18:53:31.673223 18926 net.cpp:408] conv2 -> conv2
I0116 18:53:31.675292 18926 net.cpp:150] Setting up conv2
I0116 18:53:31.675325 18926 net.cpp:157] Top shape: 100 32 16 16 (819200)
I0116 18:53:31.675340 18926 net.cpp:165] Memory required for data: 27444400
I0116 18:53:31.675369 18926 layer_factory.hpp:77] Creating layer relu2
I0116 18:53:31.675395 18926 net.cpp:100] Creating Layer relu2
I0116 18:53:31.675410 18926 net.cpp:434] relu2 <- conv2
I0116 18:53:31.675428 18926 net.cpp:395] relu2 -> conv2 (in-place)
I0116 18:53:31.675477 18926 net.cpp:150] Setting up relu2
I0116 18:53:31.675498 18926 net.cpp:157] Top shape: 100 32 16 16 (819200)
I0116 18:53:31.675513 18926 net.cpp:165] Memory required for data: 30721200
I0116 18:53:31.675528 18926 layer_factory.hpp:77] Creating layer pool2
I0116 18:53:31.675554 18926 net.cpp:100] Creating Layer pool2
I0116 18:53:31.675570 18926 net.cpp:434] pool2 <- conv2
I0116 18:53:31.675590 18926 net.cpp:408] pool2 -> pool2
I0116 18:53:31.675617 18926 net.cpp:150] Setting up pool2
I0116 18:53:31.675637 18926 net.cpp:157] Top shape: 100 32 8 8 (204800)
I0116 18:53:31.675649 18926 net.cpp:165] Memory required for data: 31540400
I0116 18:53:31.675663 18926 layer_factory.hpp:77] Creating layer norm2
I0116 18:53:31.675686 18926 net.cpp:100] Creating Layer norm2
I0116 18:53:31.675703 18926 net.cpp:434] norm2 <- pool2
I0116 18:53:31.675721 18926 net.cpp:408] norm2 -> norm2
I0116 18:53:31.675777 18926 net.cpp:150] Setting up norm2
I0116 18:53:31.675799 18926 net.cpp:157] Top shape: 100 32 8 8 (204800)
I0116 18:53:31.675812 18926 net.cpp:165] Memory required for data: 32359600
I0116 18:53:31.675827 18926 layer_factory.hpp:77] Creating layer conv3
I0116 18:53:31.675853 18926 net.cpp:100] Creating Layer conv3
I0116 18:53:31.675869 18926 net.cpp:434] conv3 <- norm2
I0116 18:53:31.675895 18926 net.cpp:408] conv3 -> conv3
I0116 18:53:31.679980 18926 net.cpp:150] Setting up conv3
I0116 18:53:31.680040 18926 net.cpp:157] Top shape: 100 64 8 8 (409600)
I0116 18:53:31.680055 18926 net.cpp:165] Memory required for data: 33998000
I0116 18:53:31.680111 18926 layer_factory.hpp:77] Creating layer relu3
I0116 18:53:31.680133 18926 net.cpp:100] Creating Layer relu3
I0116 18:53:31.680150 18926 net.cpp:434] relu3 <- conv3
I0116 18:53:31.680169 18926 net.cpp:395] relu3 -> conv3 (in-place)
I0116 18:53:31.680191 18926 net.cpp:150] Setting up relu3
I0116 18:53:31.680209 18926 net.cpp:157] Top shape: 100 64 8 8 (409600)
I0116 18:53:31.680223 18926 net.cpp:165] Memory required for data: 35636400
I0116 18:53:31.680238 18926 layer_factory.hpp:77] Creating layer pool3
I0116 18:53:31.680263 18926 net.cpp:100] Creating Layer pool3
I0116 18:53:31.680279 18926 net.cpp:434] pool3 <- conv3
I0116 18:53:31.680300 18926 net.cpp:408] pool3 -> pool3
I0116 18:53:31.680325 18926 net.cpp:150] Setting up pool3
I0116 18:53:31.680343 18926 net.cpp:157] Top shape: 100 64 4 4 (102400)
I0116 18:53:31.680357 18926 net.cpp:165] Memory required for data: 36046000
I0116 18:53:31.680371 18926 layer_factory.hpp:77] Creating layer ip1
I0116 18:53:31.680397 18926 net.cpp:100] Creating Layer ip1
I0116 18:53:31.680413 18926 net.cpp:434] ip1 <- pool3
I0116 18:53:31.680433 18926 net.cpp:408] ip1 -> ip1
I0116 18:53:31.681275 18926 net.cpp:150] Setting up ip1
I0116 18:53:31.681305 18926 net.cpp:157] Top shape: 100 10 (1000)
I0116 18:53:31.681319 18926 net.cpp:165] Memory required for data: 36050000
I0116 18:53:31.681340 18926 layer_factory.hpp:77] Creating layer ip1_ip1_0_split
I0116 18:53:31.681365 18926 net.cpp:100] Creating Layer ip1_ip1_0_split
I0116 18:53:31.681382 18926 net.cpp:434] ip1_ip1_0_split <- ip1
I0116 18:53:31.681401 18926 net.cpp:408] ip1_ip1_0_split -> ip1_ip1_0_split_0
I0116 18:53:31.681424 18926 net.cpp:408] ip1_ip1_0_split -> ip1_ip1_0_split_1
I0116 18:53:31.681448 18926 net.cpp:150] Setting up ip1_ip1_0_split
I0116 18:53:31.681493 18926 net.cpp:157] Top shape: 100 10 (1000)
I0116 18:53:31.681512 18926 net.cpp:157] Top shape: 100 10 (1000)
I0116 18:53:31.681526 18926 net.cpp:165] Memory required for data: 36058000
I0116 18:53:31.681540 18926 layer_factory.hpp:77] Creating layer accuracy
I0116 18:53:31.681571 18926 net.cpp:100] Creating Layer accuracy
I0116 18:53:31.681588 18926 net.cpp:434] accuracy <- ip1_ip1_0_split_0
I0116 18:53:31.681607 18926 net.cpp:434] accuracy <- label_cifar_1_split_0
I0116 18:53:31.681629 18926 net.cpp:408] accuracy -> accuracy
…
