…
I0224 09:26:54.500797  1057 net.cpp:322] The NetState phase (0) differed from the phase (1) specified by a rule in layer loss3/top-5
I0224 09:26:54.507707  1057 net.cpp:58] Initializing net from parameters: 
name: "GoogleNet"
state {
  phase: TRAIN
  level: 0
  stage: ""
}
layer {
  name: "data"
  type: "Data"
  top: "data"
  top: "label"
  include {
    phase: TRAIN
  }
  transform_param {
    mirror: true
    crop_size: 224
    mean_value: 104
    mean_value: 117
    mean_value: 123
  }
  data_param {
    source: "/home/user/user/LIBRARIES/caffeLibs/caffe/examples/imagenet/ilsvrc12_train_lmdb"
    batch_size: 48
    backend: LMDB
  }
}
layer {
  name: "conv1/7x7_s2"
  type: "Convolution"
  bottom: "data"
  top: "conv1/7x7_s2"
  param {
    lr_mult: 1
    decay_mult: 1
  }
  param {
    lr_mult: 2
    decay_mult: 0
  }
  convolution_param {
    num_output: 64
    pad: 3
    kernel_size: 7
    stride: 2
    weight_filler {
      type: "xavier"
    }
    bias_filler {
      type: "constant"
      value: 0.2
    }
  }
}
layer {
  name: "conv1/relu_7x7"
  type: "ReLU"
  bottom: "conv1/7x7_s2"
  top: "conv1/7x7_s2"
}
layer {
  name: "pool1/3x3_s2"
  type: "Pooling"
  bottom: "conv1/7x7_s2"
  top: "pool1/3x3_s2"
  pooling_param {
    pool: MAX
    kernel_size: 3
    stride: 2
  }
}
layer {
  name: "pool1/norm1"
  type: "LRN"
  bottom: "pool1/3x3_s2"
  top: "pool1/norm1"
  lrn_param {
    local_size: 5
    alpha: 0.0001
    beta: 0.75
  }
}
layer {
  name: "conv2/3x3_reduce"
  type: "Convolution"
  bottom: "pool1/norm1"
  top: "conv2/3x3_reduce"
  param {
    lr_mult: 1
    decay_mult: 1
  }
  param {
    lr_mult: 2
    decay_mult: 0
  }
  convolution_param {
    num_output: 64
    kernel_size: 1
    weight_filler {
      type: "xavier"
    }
    bias_filler {
      type: "constant"
      value: 0.2
    }
  }
}
layer {
  name: "conv2/relu_3x3_reduce"
  type: "ReLU"
  bottom: "conv2/3x3_reduce"
  top: "conv2/3x3_reduce"
}
layer {
  name: "conv2/3x3"
  type: "Convolution"
  bottom: "conv2/3x3_reduce"
  top: "conv2/3x3"
  param {
    lr_mult: 1
    decay_mult: 1
  }
  param {
    lr_mult: 2
    decay_mult: 0
  }
  convolution_param {
    num_output: 192
    pad: 1
    kernel_size: 3
    weight_filler {
      type: "xavier"
    }
    bias_filler {
      type: "constant"
      value: 0.2
    }
  }
}
layer {
  name: "conv2/relu_3x3"
  type: "ReLU"
  bottom: "conv2/3x3"
  top: "conv2/3x3"
}
layer {
  name: "conv2/norm2"
  type: "LRN"
  bottom: "conv2/3x3"
  top: "conv2/norm2"
  lrn_param {
    local_size: 5
    alpha: 0.0001
    beta: 0.75
  }
}
layer {
  name: "pool2/3x3_s2"
  type: "Pooling"
  bottom: "conv2/norm2"
  top: "pool2/3x3_s2"
  pooling_param {
    pool: MAX
    kernel_size: 3
    stride: 2
  }
}
layer {
  name: "inception_3a/1x1"
  type: "Convolution"
  bottom: "pool2/3x3_s2"
  top: "inception_3a/1x1"
  param {
    lr_mult: 1
    decay_mult: 1
  }
  param {
    lr_mult: 2
    decay_mult: 0
  }
  convolution_param {
    num_output: 64
    kernel_size: 1
    weight_filler {
      type: "xavier"
    }
    bias_filler {
      type: "constant"
      value: 0.2
    }
  }
}
layer {
  name: "inception_3a/relu_1x1"
  type: "ReLU"
  bottom: "inception_3a/1x1"
  top: "inception_3a/1x1"
}
layer {
  name: "inception_3a/3x3_reduce"
  type: "Convolution"
  bottom: "pool2/3x3_s2"
  top: "inception_3a/3x3_reduce"
  param {
    lr_mult: 1
    decay_mult: 1
  }
  param {
    lr_mult: 2
    decay_mult: 0
  }
  convolution_param {
    num_output: 96
    kernel_size: 1
    weight_filler {
      type: "xavier"
    }
    bias_filler {
      type: "constant"
      value: 0.2
    }
  }
}
layer {
  name: "inception_3a/relu_3x3_reduce"
  type: "ReLU"
  bottom: "inception_3a/3x3_reduce"
  top: "inception_3a/3x3_reduce"
}
layer {
  name: "inception_3a/3x3"
  type: "Convolution"
  bottom: "inception_3a/3x3_reduce"
  top: "inception_3a/3x3"
  param {
    lr_mult: 1
    decay_mult: 1
  }
  param {
    lr_mult: 2
    decay_mult: 0
  }
  convolution_param {
    num_output: 128
    pad: 1
    kernel_size: 3
    weight_filler {
      type: "xavier"
    }
    bias_filler {
      type: "constant"
      value: 0.2
    }
  }
}
layer {
  name: "inception_3a/relu_3x3"
  type: "ReLU"
  bottom: "inception_3a/3x3"
  top: "inception_3a/3x3"
}
layer {
  name: "inception_3a/5x5_reduce"
  type: "Convolution"
  bottom: "pool2/3x3_s2"
  top: "inception_3a/5x5_reduce"
  param {
    lr_mult: 1
    decay_mult: 1
  }
  param {
    lr_mult: 2
    decay_mult: 0
  }
  convolution_param {
    num_output: 16
    kernel_size: 1
    weight_filler {
      type: "xavier"
    }
    bias_filler {
      type: "constant"
      value: 0.2
    }
  }
}
layer {
  name: "inception_3a/relu_5x5_reduce"
  type: "ReLU"
  bottom: "inception_3a/5x5_reduce"
  top: "inception_3a/5x5_reduce"
}
layer {
  name: "inception_3a/5x5"
  type: "Convolution"
  bottom: "inception_3a/5x5_reduce"
  top: "inception_3a/5x5"
  param {
    lr_mult: 1
    decay_mult: 1
  }
  param {
    lr_mult: 2
    decay_mult: 0
  }
  convolution_param {
    num_output: 32
    pad: 2
    kernel_size: 5
    weight_filler {
      type: "xavier"
    }
    bias_filler {
      type: "constant"
      value: 0.2
    }
  }
}
layer {
  name: "inception_3a/relu_5x5"
  type: "ReLU"
  bottom: "inception_3a/5x5"
  top: "inception_3a/5x5"
}
layer {
  name: "inception_3a/pool"
  type: "Pooling"
  bottom: "pool2/3x3_s2"
  top: "inception_3a/pool"
  pooling_param {
    pool: MAX
    kernel_size: 3
    stride: 1
    pad: 1
  }
}
layer {
  name: "inception_3a/pool_proj"
  type: "Convolution"
  bottom: "inception_3a/pool"
  top: "inception_3a/pool_proj"
  param {
    lr_mult: 1
    decay_mult: 1
  }
  param {
    lr_mult: 2
    decay_mult: 0
  }
  convolution_param {
    num_output: 32
    kernel_size: 1
    weight_filler {
      type: "xavier"
    }
    bias_filler {
      type: "constant"
      value: 0.2
    }
  }
}
layer {
  name: "inception_3a/relu_pool_proj"
  type: "ReLU"
  bottom: "inception_3a/pool_proj"
  top: "inception_3a/pool_proj"
}
layer {
  name: "inception_3a/output"
  type: "Concat"
  bottom: "inception_3a/1x1"
  bottom: "inception_3a/3x3"
  bottom: "inception_3a/5x5"
  bottom: "inception_3a/pool_proj"
  top: "inception_3a/output"
}
layer {
  name: "inception_3b/1x1"
  type: "Convolution"
  bottom: "inception_3a/output"
  top: "inception_3b/1x1"
  param {
    lr_mult: 1
    decay_mult: 1
  }
  param {
    lr_mult: 2
    decay_mult: 0
  }
  convolution_param {
    num_output: 128
    kernel_size: 1
    weight_filler {
      type: "xavier"
    }
    bias_filler {
      type: "constant"
      value: 0.2
    }
  }
}
layer {
  name: "inception_3b/relu_1x1"
  type: "ReLU"
  bottom: "inception_3b/1x1"
  top: "inception_3b/1x1"
}
layer {
  name: "inception_3b/3x3_reduce"
  type: "Convolution"
  bottom: "inception_3a/output"
  top: "inception_3b/3x3_reduce"
  param {
    lr_mult: 1
    decay_mult: 1
  }
  param {
    lr_mult: 2
    decay_mult: 0
  }
  convolution_param {
    num_output: 128
    kernel_size: 1
    weight_filler {
      type: "xavier"
    }
    bias_filler {
      type: "constant"
      value: 0.2
    }
  }
}
layer {
  name: "inception_3b/relu_3x3_reduce"
  type: "ReLU"
  bottom: "inception_3b/3x3_reduce"
  top: "inception_3b/3x3_reduce"
}
layer {
  name: "inception_3b/3x3"
  type: "Convolution"
  bottom: "inception_3b/3x3_reduce"
  top: "inception_3b/3x3"
  param {
    lr_mult: 1
    decay_mult: 1
  }
  param {
    lr_mult: 2
    decay_mult: 0
  }
  convolution_param {
    num_output: 192
    pad: 1
    kernel_size: 3
    weight_filler {
      type: "xavier"
    }
    bias_filler {
      type: "constant"
      value: 0.2
    }
  }
}
layer {
  name: "inception_3b/relu_3x3"
  type: "ReLU"
  bottom: "inception_3b/3x3"
  top: "inception_3b/3x3"
}
layer {
  name: "inception_3b/5x5_reduce"
  type: "Convolution"
  bottom: "inception_3a/output"
  top: "inception_3b/5x5_reduce"
  param {
    lr_mult: 1
    decay_mult: 1
  }
  param {
    lr_mult: 2
    decay_mult: 0
  }
  convolution_param {
    num_output: 32
    kernel_size: 1
    weight_filler {
      type: "xavier"
    }
    bias_filler {
      type: "constant"
      value: 0.2
    }
  }
}
layer {
  name: "inception_3b/relu_5x5_reduce"
  type: "ReLU"
  bottom: "inception_3b/5x5_reduce"
  top: "inception_3b/5x5_reduce"
}
layer {
  name: "inception_3b/5x5"
  type: "Convolution"
  bottom: "inception_3b/5x5_reduce"
  top: "inception_3b/5x5"
  param {
    lr_mult: 1
    decay_mult: 1
  }
  param {
    lr_mult: 2
    decay_mult: 0
  }
  convolution_param {
    num_output: 96
    pad: 2
    kernel_size: 5
    weight_filler {
      type: "xavier"
    }
    bias_filler {
      type: "constant"
      value: 0.2
    }
  }
}
layer {
  name: "inception_3b/relu_5x5"
  type: "ReLU"
  bottom: "inception_3b/5x5"
  top: "inception_3b/5x5"
}
layer {
  name: "inception_3b/pool"
  type: "Pooling"
  bottom: "inception_3a/output"
  top: "inception_3b/pool"
  pooling_param {
    pool: MAX
    kernel_size: 3
    stride: 1
    pad: 1
  }
}
layer {
  name: "inception_3b/pool_proj"
  type: "Convolution"
  bottom: "inception_3b/pool"
  top: "inception_3b/pool_proj"
  param {
    lr_mult: 1
    decay_mult: 1
  }
  param {
    lr_mult: 2
    decay_mult: 0
  }
  convolution_param {
    num_output: 64
    kernel_size: 1
    weight_filler {
      type: "xavier"
    }
    bias_filler {
      type: "constant"
      value: 0.2
    }
  }
}
layer {
  name: "inception_3b/relu_pool_proj"
  type: "ReLU"
  bottom: "inception_3b/pool_proj"
  top: "inception_3b/pool_proj"
}
layer {
  name: "inception_3b/output"
  type: "Concat"
  bottom: "inception_3b/1x1"
  bottom: "inception_3b/3x3"
  bottom: "inception_3b/5x5"
  bottom: "inception_3b/pool_proj"
  top: "inception_3b/output"
}
layer {
  name: "pool3/3x3_s2"
  type: "Pooling"
  bottom: "inception_3b/output"
  top: "pool3/3x3_s2"
  pooling_param {
    pool: MAX
    kernel_size: 3
    stride: 2
  }
}
layer {
  name: "inception_4a/1x1"
  type: "Convolution"
  bottom: "pool3/3x3_s2"
  top: "inception_4a/1x1"
  param {
    lr_mult: 1
    decay_mult: 1
  }
  param {
    lr_mult: 2
    decay_mult: 0
  }
  convolution_param {
    num_output: 192
    kernel_size: 1
    weight_filler {
      type: "xavier"
    }
    bias_filler {
      type: "constant"
      value: 0.2
    }
  }
}
layer {
  name: "inception_4a/relu_1x1"
  type: "ReLU"
  bottom: "inception_4a/1x1"
  top: "inception_4a/1x1"
}
layer {
  name: "inception_4a/3x3_reduce"
  type: "Convolution"
  bottom: "pool3/3x3_s2"
  top: "inception_4a/3x3_reduce"
  param {
    lr_mult: 1
    decay_mult: 1
  }
  param {
    lr_mult: 2
    decay_mult: 0
  }
  convolution_param {
    num_output: 96
    kernel_size: 1
    weight_filler {
      type: "xavier"
    }
    bias_filler {
      type: "constant"
      value: 0.2
    }
  }
}
layer {
  name: "inception_4a/relu_3x3_reduce"
  type: "ReLU"
  bottom: "inception_4a/3x3_reduce"
  top: "inception_4a/3x3_reduce"
}
layer {
  name: "inception_4a/3x3"
  type: "Convolution"
  bottom: "inception_4a/3x3_reduce"
  top: "inception_4a/3x3"
  param {
    lr_mult: 1
    decay_mult: 1
  }
  param {
    lr_mult: 2
    decay_mult: 0
  }
  convolution_param {
    num_output: 208
    pad: 1
    kernel_size: 3
    weight_filler {
      type: "xavier"
    }
    bias_filler {
      type: "constant"
      value: 0.2
    }
  }
}
layer {
  name: "inception_4a/relu_3x3"
  type: "ReLU"
  bottom: "inception_4a/3x3"
  top: "inception_4a/3x3"
}
layer {
  name: "inception_4a/5x5_reduce"
  type: "Convolution"
  bottom: "pool3/3x3_s2"
  top: "inception_4a/5x5_reduce"
  param {
    lr_mult: 1
    decay_mult: 1
  }
  param {
    lr_mult: 2
    decay_mult: 0
  }
  convolution_param {
    num_output: 16
    kernel_size: 1
    weight_filler {
      type: "xavier"
    }
    bias_filler {
      type: "constant"
      value: 0.2
    }
  }
}
layer {
  name: "inception_4a/relu_5x5_reduce"
  type: "ReLU"
  bottom: "inception_4a/5x5_reduce"
  top: "inception_4a/5x5_reduce"
}
layer {
  name: "inception_4a/5x5"
  type: "Convolution"
  bottom: "inception_4a/5x5_reduce"
  top: "inception_4a/5x5"
  param {
    lr_mult: 1
    decay_mult: 1
  }
  param {
    lr_mult: 2
    decay_mult: 0
  }
  convolution_param {
    num_output: 48
    pad: 2
    kernel_size: 5
    weight_filler {
      type: "xavier"
    }
    bias_filler {
      type: "constant"
      value: 0.2
    }
  }
}
layer {
  name: "inception_4a/relu_5x5"
  type: "ReLU"
  bottom: "inception_4a/5x5"
  top: "inception_4a/5x5"
}
layer {
  name: "inception_4a/pool"
  type: "Pooling"
  bottom: "pool3/3x3_s2"
  top: "inception_4a/pool"
  pooling_param {
    pool: MAX
    kernel_size: 3
    stride: 1
    pad: 1
  }
}
layer {
  name: "inception_4a/pool_proj"
  type: "Convolution"
  bottom: "inception_4a/pool"
  top: "inception_4a/pool_proj"
  param {
    lr_mult: 1
    decay_mult: 1
  }
  param {
    lr_mult: 2
    decay_mult: 0
  }
  convolution_param {
    num_output: 64
    kernel_size: 1
    weight_filler {
      type: "xavier"
    }
    bias_filler {
      type: "constant"
      value: 0.2
    }
  }
}
layer {
  name: "inception_4a/relu_pool_proj"
  type: "ReLU"
  bottom: "inception_4a/pool_proj"
  top: "inception_4a/pool_proj"
}
layer {
  name: "inception_4a/output"
  type: "Concat"
  bottom: "inception_4a/1x1"
  bottom: "inception_4a/3x3"
  bottom: "inception_4a/5x5"
  bottom: "inception_4a/pool_proj"
  top: "inception_4a/output"
}
layer {
  name: "loss1/ave_pool"
  type: "Pooling"
  bottom: "inception_4a/output"
  top: "loss1/ave_pool"
  pooling_param {
    pool: AVE
    kernel_size: 5
    stride: 3
  }
}
layer {
  name: "loss1/conv"
  type: "Convolution"
  bottom: "loss1/ave_pool"
  top: "loss1/conv"
  param {
    lr_mult: 1
    decay_mult: 1
  }
  param {
    lr_mult: 2
    decay_mult: 0
  }
  convolution_param {
    num_output: 128
    kernel_size: 1
    weight_filler {
      type: "xavier"
    }
    bias_filler {
      type: "constant"
      value: 0.2
    }
  }
}
layer {
  name: "loss1/relu_conv"
  type: "ReLU"
  bottom: "loss1/conv"
  top: "loss1/conv"
}
layer {
  name: "loss1/fc"
  type: "InnerProduct"
  bottom: "loss1/conv"
  top: "loss1/fc"
  param {
    lr_mult: 1
    decay_mult: 1
  }
  param {
    lr_mult: 2
    decay_mult: 0
  }
  inner_product_param {
    num_output: 1024
    weight_filler {
      type: "xavier"
    }
    bias_filler {
      type: "constant"
      value: 0.2
    }
  }
}
layer {
  name: "loss1/relu_fc"
  type: "ReLU"
  bottom: "loss1/fc"
  top: "loss1/fc"
}
layer {
  name: "loss1/drop_fc"
  type: "Dropout"
  bottom: "loss1/fc"
  top: "loss1/fc"
  dropout_param {
    dropout_ratio: 0.7
  }
}
layer {
  name: "loss1/classifier"
  type: "InnerProduct"
  bottom: "loss1/fc"
  top: "loss1/classifier"
  param {
    lr_mult: 1
    decay_mult: 1
  }
  param {
    lr_mult: 2
    decay_mult: 0
  }
  inner_product_param {
    num_output: 1000
    weight_filler {
      type: "xavier"
    }
    bias_filler {
      type: "constant"
      value: 0
    }
  }
}
layer {
  name: "loss1/loss"
  type: "SoftmaxWithLoss"
  bottom: "loss1/classifier"
  bottom: "label"
  top: "loss1/loss1"
  loss_weight: 0.3
}
layer {
  name: "inception_4b/1x1"
  type: "Convolution"
  bottom: "inception_4a/output"
  top: "inception_4b/1x1"
  param {
    lr_mult: 1
    decay_mult: 1
  }
  param {
    lr_mult: 2
    decay_mult: 0
  }
  convolution_param {
    num_output: 160
    kernel_size: 1
    weight_filler {
      type: "xavier"
    }
    bias_filler {
      type: "constant"
      value: 0.2
    }
  }
}
layer {
  name: "inception_4b/relu_1x1"
  type: "ReLU"
  bottom: "inception_4b/1x1"
  top: "inception_4b/1x1"
}
layer {
  name: "inception_4b/3x3_reduce"
  type: "Convolution"
  bottom: "inception_4a/output"
  top: "inception_4b/3x3_reduce"
  param {
    lr_mult: 1
    decay_mult: 1
  }
  param {
    lr_mult: 2
    decay_mult: 0
  }
  convolution_param {
    num_output: 112
    kernel_size: 1
    weight_filler {
      type: "xavier"
    }
    bias_filler {
      type: "constant"
      value: 0.2
    }
  }
}
layer {
  name: "inception_4b/relu_3x3_reduce"
  type: "ReLU"
  bottom: "inception_4b/3x3_reduce"
  top: "inception_4b/3x3_reduce"
}
layer {
  name: "inception_4b/3x3"
  type: "Convolution"
  bottom: "inception_4b/3x3_reduce"
  top: "inception_4b/3x3"
  param {
    lr_mult: 1
    decay_mult: 1
  }
  param {
    lr_mult: 2
    decay_mult: 0
  }
  convolution_param {
    num_output: 224
    pad: 1
    kernel_size: 3
    weight_filler {
      type: "xavier"
    }
    bias_filler {
      type: "constant"
      value: 0.2
    }
  }
}
layer {
  name: "inception_4b/relu_3x3"
  type: "ReLU"
  bottom: "inception_4b/3x3"
  top: "inception_4b/3x3"
}
layer {
  name: "inception_4b/5x5_reduce"
  type: "Convolution"
  bottom: "inception_4a/output"
  top: "inception_4b/5x5_reduce"
  param {
    lr_mult: 1
    decay_mult: 1
  }
  param {
    lr_mult: 2
    decay_mult: 0
  }
  convolution_param {
    num_output: 24
    kernel_size: 1
    weight_filler {
      type: "xavier"
    }
    bias_filler {
      type: "constant"
      value: 0.2
    }
  }
}
layer {
  name: "inception_4b/relu_5x5_reduce"
  type: "ReLU"
  bottom: "inception_4b/5x5_reduce"
  top: "inception_4b/5x5_reduce"
}
layer {
  name: "inception_4b/5x5"
  type: "Convolution"
  bottom: "inception_4b/5x5_reduce"
  top: "inception_4b/5x5"
  param {
    lr_mult: 1
    decay_mult: 1
  }
  param {
    lr_mult: 2
    decay_mult: 0
  }
  convolution_param {
    num_output: 64
    pad: 2
    kernel_size: 5
    weight_filler {
      type: "xavier"
    }
    bias_filler {
      type: "constant"
      value: 0.2
    }
  }
}
layer {
  name: "inception_4b/relu_5x5"
  type: "ReLU"
  bottom: "inception_4b/5x5"
  top: "inception_4b/5x5"
}
layer {
  name: "inception_4b/pool"
  type: "Pooling"
  bottom: "inception_4a/output"
  top: "inception_4b/pool"
  pooling_param {
    pool: MAX
    kernel_size: 3
    stride: 1
    pad: 1
  }
}
layer {
  name: "inception_4b/pool_proj"
  type: "Convolution"
  bottom: "inception_4b/pool"
  top: "inception_4b/pool_proj"
  param {
    lr_mult: 1
    decay_mult: 1
  }
  param {
    lr_mult: 2
    decay_mult: 0
  }
  convolution_param {
    num_output: 64
    kernel_size: 1
    weight_filler {
      type: "xavier"
    }
    bias_filler {
      type: "constant"
      value: 0.2
    }
  }
}
layer {
  name: "inception_4b/relu_pool_proj"
  type: "ReLU"
  bottom: "inception_4b/pool_proj"
  top: "inception_4b/pool_proj"
}
layer {
  name: "inception_4b/output"
  type: "Concat"
  bottom: "inception_4b/1x1"
  bottom: "inception_4b/3x3"
  bottom: "inception_4b/5x5"
  bottom: "inception_4b/pool_proj"
  top: "inception_4b/output"
}
layer {
  name: "inception_4c/1x1"
  type: "Convolution"
  bottom: "inception_4b/output"
  top: "inception_4c/1x1"
  param {
    lr_mult: 1
    decay_mult: 1
  }
  param {
    lr_mult: 2
    decay_mult: 0
  }
  convolution_param {
    num_output: 128
    kernel_size: 1
    weight_filler {
      type: "xavier"
    }
    bias_filler {
      type: "constant"
      value: 0.2
    }
  }
}
layer {
  name: "inception_4c/relu_1x1"
  type: "ReLU"
  bottom: "inception_4c/1x1"
  top: "inception_4c/1x1"
}
layer {
  name: "inception_4c/3x3_reduce"
  type: "Convolution"
  bottom: "inception_4b/output"
  top: "inception_4c/3x3_reduce"
  param {
    lr_mult: 1
    decay_mult: 1
  }
  param {
    lr_mult: 2
    decay_mult: 0
  }
  convolution_param {
    num_output: 128
    kernel_size: 1
    weight_filler {
      type: "xavier"
    }
    bias_filler {
      type: "constant"
      value: 0.2
    }
  }
}
layer {
  name: "inception_4c/relu_3x3_reduce"
  type: "ReLU"
  bottom: "inception_4c/3x3_reduce"
  top: "inception_4c/3x3_reduce"
}
layer {
  name: "inception_4c/3x3"
  type: "Convolution"
  bottom: "inception_4c/3x3_reduce"
  top: "inception_4c/3x3"
  param {
    lr_mult: 1
    decay_mult: 1
  }
  param {
    lr_mult: 2
    decay_mult: 0
  }
  convolution_param {
    num_output: 256
    pad: 1
    kernel_size: 3
    weight_filler {
      type: "xavier"
    }
    bias_filler {
      type: "constant"
      value: 0.2
    }
  }
}
layer {
  name: "inception_4c/relu_3x3"
  type: "ReLU"
  bottom: "inception_4c/3x3"
  top: "inception_4c/3x3"
}
layer {
  name: "inception_4c/5x5_reduce"
  type: "Convolution"
  bottom: "inception_4b/output"
  top: "inception_4c/5x5_reduce"
  param {
    lr_mult: 1
    decay_mult: 1
  }
  param {
    lr_mult: 2
    decay_mult: 0
  }
  convolution_param {
    num_output: 24
    kernel_size: 1
    weight_filler {
      type: "xavier"
    }
    bias_filler {
      type: "constant"
      value: 0.2
    }
  }
}
layer {
  name: "inception_4c/relu_5x5_reduce"
  type: "ReLU"
  bottom: "inception_4c/5x5_reduce"
  top: "inception_4c/5x5_reduce"
}
layer {
  name: "inception_4c/5x5"
  type: "Convolution"
  bottom: "inception_4c/5x5_reduce"
  top: "inception_4c/5x5"
  param {
    lr_mult: 1
    decay_mult: 1
  }
  param {
    lr_mult: 2
    decay_mult: 0
  }
  convolution_param {
    num_output: 64
    pad: 2
    kernel_size: 5
    weight_filler {
      type: "xavier"
    }
    bias_filler {
      type: "constant"
      value: 0.2
    }
  }
}
layer {
  name: "inception_4c/relu_5x5"
  type: "ReLU"
  bottom: "inception_4c/5x5"
  top: "inception_4c/5x5"
}
layer {
  name: "inception_4c/pool"
  type: "Pooling"
  bottom: "inception_4b/output"
  top: "inception_4c/pool"
  pooling_param {
    pool: MAX
    kernel_size: 3
    stride: 1
    pad: 1
  }
}
layer {
  name: "inception_4c/pool_proj"
  type: "Convolution"
  bottom: "inception_4c/pool"
  top: "inception_4c/pool_proj"
  param {
    lr_mult: 1
    decay_mult: 1
  }
  param {
    lr_mult: 2
    decay_mult: 0
  }
  convolution_param {
    num_output: 64
    kernel_size: 1
    weight_filler {
      type: "xavier"
    }
    bias_filler {
      type: "constant"
      value: 0.2
    }
  }
}
layer {
  name: "inception_4c/relu_pool_proj"
  type: "ReLU"
  bottom: "inception_4c/pool_proj"
  top: "inception_4c/pool_proj"
}
layer {
  name: "inception_4c/output"
  type: "Concat"
  bottom: "inception_4c/1x1"
  bottom: "inception_4c/3x3"
  bottom: "inception_4c/5x5"
  bottom: "inception_4c/pool_proj"
  top: "inception_4c/output"
}
layer {
  name: "inception_4d/1x1"
  type: "Convolution"
  bottom: "inception_4c/output"
  top: "inception_4d/1x1"
  param {
    lr_mult: 1
    decay_mult: 1
  }
  param {
    lr_mult: 2
    decay_mult: 0
  }
  convolution_param {
    num_output: 112
    kernel_size: 1
    weight_filler {
      type: "xavier"
    }
    bias_filler {
      type: "constant"
      value: 0.2
    }
  }
}
layer {
  name: "inception_4d/relu_1x1"
  type: "ReLU"
  bottom: "inception_4d/1x1"
  top: "inception_4d/1x1"
}
layer {
  name: "inception_4d/3x3_reduce"
  type: "Convolution"
  bottom: "inception_4c/output"
  top: "inception_4d/3x3_reduce"
  param {
    lr_mult: 1
    decay_mult: 1
  }
  param {
    lr_mult: 2
    decay_mult: 0
  }
  convolution_param {
    num_output: 144
    kernel_size: 1
    weight_filler {
      type: "xavier"
    }
    bias_filler {
      type: "constant"
      value: 0.2
    }
  }
}
layer {
  name: "inception_4d/relu_3x3_reduce"
  type: "ReLU"
  bottom: "inception_4d/3x3_reduce"
  top: "inception_4d/3x3_reduce"
}
layer {
  name: "inception_4d/3x3"
  type: "Convolution"
  bottom: "inception_4d/3x3_reduce"
  top: "inception_4d/3x3"
  param {
    lr_mult: 1
    decay_mult: 1
  }
  param {
    lr_mult: 2
    decay_mult: 0
  }
  convolution_param {
    num_output: 288
    pad: 1
    kernel_size: 3
    weight_filler {
      type: "xavier"
    }
    bias_filler {
      type: "constant"
      value: 0.2
    }
  }
}
layer {
  name: "inception_4d/relu_3x3"
  type: "ReLU"
  bottom: "inception_4d/3x3"
  top: "inception_4d/3x3"
}
layer {
  name: "inception_4d/5x5_reduce"
  type: "Convolution"
  bottom: "inception_4c/output"
  top: "inception_4d/5x5_reduce"
  param {
    lr_mult: 1
    decay_mult: 1
  }
  param {
    lr_mult: 2
    decay_mult: 0
  }
  convolution_param {
    num_output: 32
    kernel_size: 1
    weight_filler {
      type: "xavier"
    }
    bias_filler {
      type: "constant"
      value: 0.2
    }
  }
}
layer {
  name: "inception_4d/relu_5x5_reduce"
  type: "ReLU"
  bottom: "inception_4d/5x5_reduce"
  top: "inception_4d/5x5_reduce"
}
layer {
  name: "inception_4d/5x5"
  type: "Convolution"
  bottom: "inception_4d/5x5_reduce"
  top: "inception_4d/5x5"
  param {
    lr_mult: 1
    decay_mult: 1
  }
  param {
    lr_mult: 2
    decay_mult: 0
  }
  convolution_param {
    num_output: 64
    pad: 2
    kernel_size: 5
    weight_filler {
      type: "xavier"
    }
    bias_filler {
      type: "constant"
      value: 0.2
    }
  }
}
layer {
  name: "inception_4d/relu_5x5"
  type: "ReLU"
  bottom: "inception_4d/5x5"
  top: "inception_4d/5x5"
}
layer {
  name: "inception_4d/pool"
  type: "Pooling"
  bottom: "inception_4c/output"
  top: "inception_4d/pool"
  pooling_param {
    pool: MAX
    kernel_size: 3
    stride: 1
    pad: 1
  }
}
layer {
  name: "inception_4d/pool_proj"
  type: "Convolution"
  bottom: "inception_4d/pool"
  top: "inception_4d/pool_proj"
  param {
    lr_mult: 1
    decay_mult: 1
  }
  param {
    lr_mult: 2
    decay_mult: 0
  }
  convolution_param {
    num_output: 64
    kernel_size: 1
    weight_filler {
      type: "xavier"
    }
    bias_filler {
      type: "constant"
      value: 0.2
    }
  }
}
layer {
  name: "inception_4d/relu_pool_proj"
  type: "ReLU"
  bottom: "inception_4d/pool_proj"
  top: "inception_4d/pool_proj"
}
layer {
  name: "inception_4d/output"
  type: "Concat"
  bottom: "inception_4d/1x1"
  bottom: "inception_4d/3x3"
  bottom: "inception_4d/5x5"
  bottom: "inception_4d/pool_proj"
  top: "inception_4d/output"
}
layer {
  name: "loss2/ave_pool"
  type: "Pooling"
  bottom: "inception_4d/output"
  top: "loss2/ave_pool"
  pooling_param {
    pool: AVE
    kernel_size: 5
    stride: 3
  }
}
layer {
  name: "loss2/conv"
  type: "Convolution"
  bottom: "loss2/ave_pool"
  top: "loss2/conv"
  param {
    lr_mult: 1
    decay_mult: 1
  }
  param {
    lr_mult: 2
    decay_mult: 0
  }
  convolution_param {
    num_output: 128
    kernel_size: 1
    weight_filler {
      type: "xavier"
    }
    bias_filler {
      type: "constant"
      value: 0.2
    }
  }
}
layer {
  name: "loss2/relu_conv"
  type: "ReLU"
  bottom: "loss2/conv"
  top: "loss2/conv"
}
layer {
  name: "loss2/fc"
  type: "InnerProduct"
  bottom: "loss2/conv"
  top: "loss2/fc"
  param {
    lr_mult: 1
    decay_mult: 1
  }
  param {
    lr_mult: 2
    decay_mult: 0
  }
  inner_product_param {
    num_output: 1024
    weight_filler {
      type: "xavier"
    }
    bias_filler {
      type: "constant"
      value: 0.2
    }
  }
}
layer {
  name: "loss2/relu_fc"
  type: "ReLU"
  bottom: "loss2/fc"
  top: "loss2/fc"
}
layer {
  name: "loss2/drop_fc"
  type: "Dropout"
  bottom: "loss2/fc"
  top: "loss2/fc"
  dropout_param {
    dropout_ratio: 0.7
  }
}
layer {
  name: "loss2/classifier"
  type: "InnerProduct"
  bottom: "loss2/fc"
  top: "loss2/classifier"
  param {
    lr_mult: 1
    decay_mult: 1
  }
  param {
    lr_mult: 2
    decay_mult: 0
  }
  inner_product_param {
    num_output: 1000
    weight_filler {
      type: "xavier"
    }
    bias_filler {
      type: "constant"
      value: 0
    }
  }
}
layer {
  name: "loss2/loss"
  type: "SoftmaxWithLoss"
  bottom: "loss2/classifier"
  bottom: "label"
  top: "loss2/loss1"
  loss_weight: 0.3
}
layer {
  name: "inception_4e/1x1"
  type: "Convolution"
  bottom: "inception_4d/output"
  top: "inception_4e/1x1"
  param {
    lr_mult: 1
    decay_mult: 1
  }
  param {
    lr_mult: 2
    decay_mult: 0
  }
  convolution_param {
    num_output: 256
    kernel_size: 1
    weight_filler {
      type: "xavier"
    }
    bias_filler {
      type: "constant"
      value: 0.2
    }
  }
}
layer {
  name: "inception_4e/relu_1x1"
  type: "ReLU"
  bottom: "inception_4e/1x1"
  top: "inception_4e/1x1"
}
layer {
  name: "inception_4e/3x3_reduce"
  type: "Convolution"
  bottom: "inception_4d/output"
  top: "inception_4e/3x3_reduce"
  param {
    lr_mult: 1
    decay_mult: 1
  }
  param {
    lr_mult: 2
    decay_mult: 0
  }
  convolution_param {
    num_output: 160
    kernel_size: 1
    weight_filler {
      type: "xavier"
    }
    bias_filler {
      type: "constant"
      value: 0.2
    }
  }
}
layer {
  name: "inception_4e/relu_3x3_reduce"
  type: "ReLU"
  bottom: "inception_4e/3x3_reduce"
  top: "inception_4e/3x3_reduce"
}
layer {
  name: "inception_4e/3x3"
  type: "Convolution"
  bottom: "inception_4e/3x3_reduce"
  top: "inception_4e/3x3"
  param {
    lr_mult: 1
    decay_mult: 1
  }
  param {
    lr_mult: 2
    decay_mult: 0
  }
  convolution_param {
    num_output: 320
    pad: 1
    kernel_size: 3
    weight_filler {
      type: "xavier"
    }
    bias_filler {
      type: "constant"
      value: 0.2
    }
  }
}
layer {
  name: "inception_4e/relu_3x3"
  type: "ReLU"
  bottom: "inception_4e/3x3"
  top: "inception_4e/3x3"
}
layer {
  name: "inception_4e/5x5_reduce"
  type: "Convolution"
  bottom: "inception_4d/output"
  top: "inception_4e/5x5_reduce"
  param {
    lr_mult: 1
    decay_mult: 1
  }
  param {
    lr_mult: 2
    decay_mult: 0
  }
  convolution_param {
    num_output: 32
    kernel_size: 1
    weight_filler {
      type: "xavier"
    }
    bias_filler {
      type: "constant"
      value: 0.2
    }
  }
}
layer {
  name: "inception_4e/relu_5x5_reduce"
  type: "ReLU"
  bottom: "inception_4e/5x5_reduce"
  top: "inception_4e/5x5_reduce"
}
layer {
  name: "inception_4e/5x5"
  type: "Convolution"
  bottom: "inception_4e/5x5_reduce"
  top: "inception_4e/5x5"
  param {
    lr_mult: 1
    decay_mult: 1
  }
  param {
    lr_mult: 2
    decay_mult: 0
  }
  convolution_param {
    num_output: 128
    pad: 2
    kernel_size: 5
    weight_filler {
      type: "xavier"
    }
    bias_filler {
      type: "constant"
      value: 0.2
    }
  }
}
layer {
  name: "inception_4e/relu_5x5"
  type: "ReLU"
  bottom: "inception_4e/5x5"
  top: "inception_4e/5x5"
}
layer {
  name: "inception_4e/pool"
  type: "Pooling"
  bottom: "inception_4d/output"
  top: "inception_4e/pool"
I0224 09:26:54.509443  1057 layer_factory.hpp:77] Creating layer data
I0224 09:26:54.510386  1057 net.cpp:100] Creating Layer data
I0224 09:26:54.510426  1057 net.cpp:408] data -> data
I0224 09:26:54.510506  1057 net.cpp:408] data -> label
I0224 09:26:54.511098  1058 db_lmdb.cpp:35] Opened lmdb /home/user/user/LIBRARIES/caffeLibs/caffe/examples/imagenet/ilsvrc12_train_lmdb
I0224 09:26:54.512884  1057 data_layer.cpp:41] output data size: 48,3,224,224
I0224 09:26:54.568508  1057 net.cpp:150] Setting up data
I0224 09:26:54.568563  1057 net.cpp:157] Top shape: 48 3 224 224 (7225344)
I0224 09:26:54.568578  1057 net.cpp:157] Top shape: 48 (48)
I0224 09:26:54.568588  1057 net.cpp:165] Memory required for data: 28901568
I0224 09:26:54.568612  1057 layer_factory.hpp:77] Creating layer label_data_1_split
I0224 09:26:54.568687  1057 net.cpp:100] Creating Layer label_data_1_split
I0224 09:26:54.568714  1057 net.cpp:434] label_data_1_split <- label
I0224 09:26:54.568742  1057 net.cpp:408] label_data_1_split -> label_data_1_split_0
I0224 09:26:54.568763  1057 net.cpp:408] label_data_1_split -> label_data_1_split_1
I0224 09:26:54.568814  1057 net.cpp:408] label_data_1_split -> label_data_1_split_2
I0224 09:26:54.568871  1057 net.cpp:150] Setting up label_data_1_split
I0224 09:26:54.568902  1057 net.cpp:157] Top shape: 48 (48)
I0224 09:26:54.568914  1057 net.cpp:157] Top shape: 48 (48)
I0224 09:26:54.568941  1057 net.cpp:157] Top shape: 48 (48)
I0224 09:26:54.568950  1057 net.cpp:165] Memory required for data: 28902144
I0224 09:26:54.568960  1057 layer_factory.hpp:77] Creating layer conv1/7x7_s2
I0224 09:26:54.568995  1057 net.cpp:100] Creating Layer conv1/7x7_s2
I0224 09:26:54.569006  1057 net.cpp:434] conv1/7x7_s2 <- data
I0224 09:26:54.569025  1057 net.cpp:408] conv1/7x7_s2 -> conv1/7x7_s2
I0224 09:26:54.569334  1057 net.cpp:150] Setting up conv1/7x7_s2
I0224 09:26:54.569352  1057 net.cpp:157] Top shape: 48 64 112 112 (38535168)
I0224 09:26:54.569361  1057 net.cpp:165] Memory required for data: 183042816
I0224 09:26:54.569391  1057 layer_factory.hpp:77] Creating layer conv1/relu_7x7
I0224 09:26:54.569409  1057 net.cpp:100] Creating Layer conv1/relu_7x7
I0224 09:26:54.569420  1057 net.cpp:434] conv1/relu_7x7 <- conv1/7x7_s2
I0224 09:26:54.569433  1057 net.cpp:395] conv1/relu_7x7 -> conv1/7x7_s2 (in-place)
I0224 09:26:54.569448  1057 net.cpp:150] Setting up conv1/relu_7x7
I0224 09:26:54.569461  1057 net.cpp:157] Top shape: 48 64 112 112 (38535168)
I0224 09:26:54.569470  1057 net.cpp:165] Memory required for data: 337183488
I0224 09:26:54.569479  1057 layer_factory.hpp:77] Creating layer pool1/3x3_s2
I0224 09:26:54.569497  1057 net.cpp:100] Creating Layer pool1/3x3_s2
I0224 09:26:54.569507  1057 net.cpp:434] pool1/3x3_s2 <- conv1/7x7_s2
I0224 09:26:54.569520  1057 net.cpp:408] pool1/3x3_s2 -> pool1/3x3_s2
I0224 09:26:54.569555  1057 net.cpp:150] Setting up pool1/3x3_s2
I0224 09:26:54.569568  1057 net.cpp:157] Top shape: 48 64 56 56 (9633792)
I0224 09:26:54.569577  1057 net.cpp:165] Memory required for data: 375718656
I0224 09:26:54.569586  1057 layer_factory.hpp:77] Creating layer pool1/norm1
I0224 09:26:54.569603  1057 net.cpp:100] Creating Layer pool1/norm1
I0224 09:26:54.569613  1057 net.cpp:434] pool1/norm1 <- pool1/3x3_s2
I0224 09:26:54.569625  1057 net.cpp:408] pool1/norm1 -> pool1/norm1
I0224 09:26:54.569650  1057 net.cpp:150] Setting up pool1/norm1
I0224 09:26:54.569663  1057 net.cpp:157] Top shape: 48 64 56 56 (9633792)
I0224 09:26:54.569671  1057 net.cpp:165] Memory required for data: 414253824
I0224 09:26:54.569681  1057 layer_factory.hpp:77] Creating layer conv2/3x3_reduce
I0224 09:26:54.569700  1057 net.cpp:100] Creating Layer conv2/3x3_reduce
I0224 09:26:54.569711  1057 net.cpp:434] conv2/3x3_reduce <- pool1/norm1
I0224 09:26:54.569725  1057 net.cpp:408] conv2/3x3_reduce -> conv2/3x3_reduce
I0224 09:26:54.569835  1057 net.cpp:150] Setting up conv2/3x3_reduce
I0224 09:26:54.569850  1057 net.cpp:157] Top shape: 48 64 56 56 (9633792)
I0224 09:26:54.569859  1057 net.cpp:165] Memory required for data: 452788992
I0224 09:26:54.569875  1057 layer_factory.hpp:77] Creating layer conv2/relu_3x3_reduce
I0224 09:26:54.569891  1057 net.cpp:100] Creating Layer conv2/relu_3x3_reduce
I0224 09:26:54.569901  1057 net.cpp:434] conv2/relu_3x3_reduce <- conv2/3x3_reduce
I0224 09:26:54.569912  1057 net.cpp:395] conv2/relu_3x3_reduce -> conv2/3x3_reduce (in-place)
I0224 09:26:54.569926  1057 net.cpp:150] Setting up conv2/relu_3x3_reduce
I0224 09:26:54.569938  1057 net.cpp:157] Top shape: 48 64 56 56 (9633792)
I0224 09:26:54.569947  1057 net.cpp:165] Memory required for data: 491324160
I0224 09:26:54.569957  1057 layer_factory.hpp:77] Creating layer conv2/3x3
I0224 09:26:54.569975  1057 net.cpp:100] Creating Layer conv2/3x3
I0224 09:26:54.569985  1057 net.cpp:434] conv2/3x3 <- conv2/3x3_reduce
I0224 09:26:54.570001  1057 net.cpp:408] conv2/3x3 -> conv2/3x3
I0224 09:26:54.572015  1057 net.cpp:150] Setting up conv2/3x3
I0224 09:26:54.572041  1057 net.cpp:157] Top shape: 48 192 56 56 (28901376)
I0224 09:26:54.572052  1057 net.cpp:165] Memory required for data: 606929664
I0224 09:26:54.572072  1057 layer_factory.hpp:77] Creating layer conv2/relu_3x3
I0224 09:26:54.572087  1057 net.cpp:100] Creating Layer conv2/relu_3x3
I0224 09:26:54.572106  1057 net.cpp:434] conv2/relu_3x3 <- conv2/3x3
I0224 09:26:54.572135  1057 net.cpp:395] conv2/relu_3x3 -> conv2/3x3 (in-place)
I0224 09:26:54.572151  1057 net.cpp:150] Setting up conv2/relu_3x3
I0224 09:26:54.572163  1057 net.cpp:157] Top shape: 48 192 56 56 (28901376)
I0224 09:26:54.572172  1057 net.cpp:165] Memory required for data: 722535168
I0224 09:26:54.572181  1057 layer_factory.hpp:77] Creating layer conv2/norm2
I0224 09:26:54.572194  1057 net.cpp:100] Creating Layer conv2/norm2
I0224 09:26:54.572203  1057 net.cpp:434] conv2/norm2 <- conv2/3x3
I0224 09:26:54.572219  1057 net.cpp:408] conv2/norm2 -> conv2/norm2
I0224 09:26:54.572237  1057 net.cpp:150] Setting up conv2/norm2
I0224 09:26:54.572257  1057 net.cpp:157] Top shape: 48 192 56 56 (28901376)
I0224 09:26:54.572266  1057 net.cpp:165] Memory required for data: 838140672
I0224 09:26:54.572275  1057 layer_factory.hpp:77] Creating layer pool2/3x3_s2
I0224 09:26:54.572288  1057 net.cpp:100] Creating Layer pool2/3x3_s2
I0224 09:26:54.572298  1057 net.cpp:434] pool2/3x3_s2 <- conv2/norm2
I0224 09:26:54.572314  1057 net.cpp:408] pool2/3x3_s2 -> pool2/3x3_s2
I0224 09:26:54.572330  1057 net.cpp:150] Setting up pool2/3x3_s2
I0224 09:26:54.572342  1057 net.cpp:157] Top shape: 48 192 28 28 (7225344)
I0224 09:26:54.572351  1057 net.cpp:165] Memory required for data: 867042048
I0224 09:26:54.572360  1057 layer_factory.hpp:77] Creating layer pool2/3x3_s2_pool2/3x3_s2_0_split
I0224 09:26:54.572372  1057 net.cpp:100] Creating Layer pool2/3x3_s2_pool2/3x3_s2_0_split
I0224 09:26:54.572382  1057 net.cpp:434] pool2/3x3_s2_pool2/3x3_s2_0_split <- pool2/3x3_s2
I0224 09:26:54.572396  1057 net.cpp:408] pool2/3x3_s2_pool2/3x3_s2_0_split -> pool2/3x3_s2_pool2/3x3_s2_0_split_0
I0224 09:26:54.572409  1057 net.cpp:408] pool2/3x3_s2_pool2/3x3_s2_0_split -> pool2/3x3_s2_pool2/3x3_s2_0_split_1
I0224 09:26:54.572427  1057 net.cpp:408] pool2/3x3_s2_pool2/3x3_s2_0_split -> pool2/3x3_s2_pool2/3x3_s2_0_split_2
I0224 09:26:54.572441  1057 net.cpp:408] pool2/3x3_s2_pool2/3x3_s2_0_split -> pool2/3x3_s2_pool2/3x3_s2_0_split_3
I0224 09:26:54.572461  1057 net.cpp:150] Setting up pool2/3x3_s2_pool2/3x3_s2_0_split
I0224 09:26:54.572474  1057 net.cpp:157] Top shape: 48 192 28 28 (7225344)
I0224 09:26:54.572485  1057 net.cpp:157] Top shape: 48 192 28 28 (7225344)
I0224 09:26:54.572496  1057 net.cpp:157] Top shape: 48 192 28 28 (7225344)
I0224 09:26:54.572507  1057 net.cpp:157] Top shape: 48 192 28 28 (7225344)
I0224 09:26:54.572516  1057 net.cpp:165] Memory required for data: 982647552
I0224 09:26:54.572525  1057 layer_factory.hpp:77] Creating layer inception_3a/1x1
I0224 09:26:54.572541  1057 net.cpp:100] Creating Layer inception_3a/1x1
I0224 09:26:54.572551  1057 net.cpp:434] inception_3a/1x1 <- pool2/3x3_s2_pool2/3x3_s2_0_split_0
I0224 09:26:54.572568  1057 net.cpp:408] inception_3a/1x1 -> inception_3a/1x1
I0224 09:26:54.572931  1057 net.cpp:150] Setting up inception_3a/1x1
I0224 09:26:54.572960  1057 net.cpp:157] Top shape: 48 64 28 28 (2408448)
I0224 09:26:54.572969  1057 net.cpp:165] Memory required for data: 992281344
I0224 09:26:54.572985  1057 layer_factory.hpp:77] Creating layer inception_3a/relu_1x1
I0224 09:26:54.572999  1057 net.cpp:100] Creating Layer inception_3a/relu_1x1
I0224 09:26:54.573010  1057 net.cpp:434] inception_3a/relu_1x1 <- inception_3a/1x1
I0224 09:26:54.573025  1057 net.cpp:395] inception_3a/relu_1x1 -> inception_3a/1x1 (in-place)
I0224 09:26:54.573041  1057 net.cpp:150] Setting up inception_3a/relu_1x1
I0224 09:26:54.573053  1057 net.cpp:157] Top shape: 48 64 28 28 (2408448)
I0224 09:26:54.573062  1057 net.cpp:165] Memory required for data: 1001915136
I0224 09:26:54.573071  1057 layer_factory.hpp:77] Creating layer inception_3a/3x3_reduce
I0224 09:26:54.573091  1057 net.cpp:100] Creating Layer inception_3a/3x3_reduce
I0224 09:26:54.573102  1057 net.cpp:434] inception_3a/3x3_reduce <- pool2/3x3_s2_pool2/3x3_s2_0_split_1
I0224 09:26:54.573117  1057 net.cpp:408] inception_3a/3x3_reduce -> inception_3a/3x3_reduce
I0224 09:26:54.573498  1057 net.cpp:150] Setting up inception_3a/3x3_reduce
I0224 09:26:54.573521  1057 net.cpp:157] Top shape: 48 96 28 28 (3612672)
I0224 09:26:54.573542  1057 net.cpp:165] Memory required for data: 1016365824
I0224 09:26:54.573561  1057 layer_factory.hpp:77] Creating layer inception_3a/relu_3x3_reduce
I0224 09:26:54.573576  1057 net.cpp:100] Creating Layer inception_3a/relu_3x3_reduce
I0224 09:26:54.573586  1057 net.cpp:434] inception_3a/relu_3x3_reduce <- inception_3a/3x3_reduce
I0224 09:26:54.573603  1057 net.cpp:395] inception_3a/relu_3x3_reduce -> inception_3a/3x3_reduce (in-place)
I0224 09:26:54.573618  1057 net.cpp:150] Setting up inception_3a/relu_3x3_reduce
I0224 09:26:54.573631  1057 net.cpp:157] Top shape: 48 96 28 28 (3612672)
I0224 09:26:54.573639  1057 net.cpp:165] Memory required for data: 1030816512
I0224 09:26:54.573648  1057 layer_factory.hpp:77] Creating layer inception_3a/3x3
I0224 09:26:54.573668  1057 net.cpp:100] Creating Layer inception_3a/3x3
I0224 09:26:54.573678  1057 net.cpp:434] inception_3a/3x3 <- inception_3a/3x3_reduce
I0224 09:26:54.573690  1057 net.cpp:408] inception_3a/3x3 -> inception_3a/3x3
I0224 09:26:54.575711  1057 net.cpp:150] Setting up inception_3a/3x3
I0224 09:26:54.575738  1057 net.cpp:157] Top shape: 48 128 28 28 (4816896)
I0224 09:26:54.575747  1057 net.cpp:165] Memory required for data: 1050084096
I0224 09:26:54.575763  1057 layer_factory.hpp:77] Creating layer inception_3a/relu_3x3
I0224 09:26:54.575778  1057 net.cpp:100] Creating Layer inception_3a/relu_3x3
I0224 09:26:54.575788  1057 net.cpp:434] inception_3a/relu_3x3 <- inception_3a/3x3
I0224 09:26:54.575800  1057 net.cpp:395] inception_3a/relu_3x3 -> inception_3a/3x3 (in-place)
I0224 09:26:54.575815  1057 net.cpp:150] Setting up inception_3a/relu_3x3
I0224 09:26:54.575827  1057 net.cpp:157] Top shape: 48 128 28 28 (4816896)
I0224 09:26:54.575836  1057 net.cpp:165] Memory required for data: 1069351680
I0224 09:26:54.575845  1057 layer_factory.hpp:77] Creating layer inception_3a/5x5_reduce
I0224 09:26:54.575865  1057 net.cpp:100] Creating Layer inception_3a/5x5_reduce
I0224 09:26:54.575878  1057 net.cpp:434] inception_3a/5x5_reduce <- pool2/3x3_s2_pool2/3x3_s2_0_split_2
I0224 09:26:54.575892  1057 net.cpp:408] inception_3a/5x5_reduce -> inception_3a/5x5_reduce
I0224 09:26:54.575980  1057 net.cpp:150] Setting up inception_3a/5x5_reduce
I0224 09:26:54.575994  1057 net.cpp:157] Top shape: 48 16 28 28 (602112)
I0224 09:26:54.576002  1057 net.cpp:165] Memory required for data: 1071760128
I0224 09:26:54.576016  1057 layer_factory.hpp:77] Creating layer inception_3a/relu_5x5_reduce
I0224 09:26:54.576031  1057 net.cpp:100] Creating Layer inception_3a/relu_5x5_reduce
I0224 09:26:54.576041  1057 net.cpp:434] inception_3a/relu_5x5_reduce <- inception_3a/5x5_reduce
I0224 09:26:54.576053  1057 net.cpp:395] inception_3a/relu_5x5_reduce -> inception_3a/5x5_reduce (in-place)
I0224 09:26:54.576066  1057 net.cpp:150] Setting up inception_3a/relu_5x5_reduce
I0224 09:26:54.576077  1057 net.cpp:157] Top shape: 48 16 28 28 (602112)
I0224 09:26:54.576086  1057 net.cpp:165] Memory required for data: 1074168576
I0224 09:26:54.576097  1057 layer_factory.hpp:77] Creating layer inception_3a/5x5
I0224 09:26:54.576113  1057 net.cpp:100] Creating Layer inception_3a/5x5
I0224 09:26:54.576124  1057 net.cpp:434] inception_3a/5x5 <- inception_3a/5x5_reduce
I0224 09:26:54.576138  1057 net.cpp:408] inception_3a/5x5 -> inception_3a/5x5
I0224 09:26:54.576406  1057 net.cpp:150] Setting up inception_3a/5x5
I0224 09:26:54.576422  1057 net.cpp:157] Top shape: 48 32 28 28 (1204224)
I0224 09:26:54.576431  1057 net.cpp:165] Memory required for data: 1078985472
I0224 09:26:54.576444  1057 layer_factory.hpp:77] Creating layer inception_3a/relu_5x5
I0224 09:26:54.576457  1057 net.cpp:100] Creating Layer inception_3a/relu_5x5
I0224 09:26:54.576467  1057 net.cpp:434] inception_3a/relu_5x5 <- inception_3a/5x5
I0224 09:26:54.576478  1057 net.cpp:395] inception_3a/relu_5x5 -> inception_3a/5x5 (in-place)
I0224 09:26:54.576491  1057 net.cpp:150] Setting up inception_3a/relu_5x5
I0224 09:26:54.576503  1057 net.cpp:157] Top shape: 48 32 28 28 (1204224)
I0224 09:26:54.576521  1057 net.cpp:165] Memory required for data: 1083802368
I0224 09:26:54.576544  1057 layer_factory.hpp:77] Creating layer inception_3a/pool
I0224 09:26:54.576563  1057 net.cpp:100] Creating Layer inception_3a/pool
I0224 09:26:54.576573  1057 net.cpp:434] inception_3a/pool <- pool2/3x3_s2_pool2/3x3_s2_0_split_3
I0224 09:26:54.576589  1057 net.cpp:408] inception_3a/pool -> inception_3a/pool
I0224 09:26:54.576608  1057 net.cpp:150] Setting up inception_3a/pool
I0224 09:26:54.576620  1057 net.cpp:157] Top shape: 48 192 28 28 (7225344)
I0224 09:26:54.576629  1057 net.cpp:165] Memory required for data: 1112703744
I0224 09:26:54.576639  1057 layer_factory.hpp:77] Creating layer inception_3a/pool_proj
I0224 09:26:54.576654  1057 net.cpp:100] Creating Layer inception_3a/pool_proj
I0224 09:26:54.576664  1057 net.cpp:434] inception_3a/pool_proj <- inception_3a/pool
I0224 09:26:54.576680  1057 net.cpp:408] inception_3a/pool_proj -> inception_3a/pool_proj
I0224 09:26:54.576822  1057 net.cpp:150] Setting up inception_3a/pool_proj
I0224 09:26:54.576835  1057 net.cpp:157] Top shape: 48 32 28 28 (1204224)
I0224 09:26:54.576843  1057 net.cpp:165] Memory required for data: 1117520640
I0224 09:26:54.576865  1057 layer_factory.hpp:77] Creating layer inception_3a/relu_pool_proj
I0224 09:26:54.576879  1057 net.cpp:100] Creating Layer inception_3a/relu_pool_proj
I0224 09:26:54.576887  1057 net.cpp:434] inception_3a/relu_pool_proj <- inception_3a/pool_proj
I0224 09:26:54.576903  1057 net.cpp:395] inception_3a/relu_pool_proj -> inception_3a/pool_proj (in-place)
I0224 09:26:54.576916  1057 net.cpp:150] Setting up inception_3a/relu_pool_proj
I0224 09:26:54.576928  1057 net.cpp:157] Top shape: 48 32 28 28 (1204224)
I0224 09:26:54.576937  1057 net.cpp:165] Memory required for data: 1122337536
I0224 09:26:54.576946  1057 layer_factory.hpp:77] Creating layer inception_3a/output
I0224 09:26:54.576961  1057 net.cpp:100] Creating Layer inception_3a/output
I0224 09:26:54.576972  1057 net.cpp:434] inception_3a/output <- inception_3a/1x1
I0224 09:26:54.576982  1057 net.cpp:434] inception_3a/output <- inception_3a/3x3
I0224 09:26:54.576993  1057 net.cpp:434] inception_3a/output <- inception_3a/5x5
I0224 09:26:54.577003  1057 net.cpp:434] inception_3a/output <- inception_3a/pool_proj
I0224 09:26:54.577015  1057 net.cpp:408] inception_3a/output -> inception_3a/output
I0224 09:26:54.577034  1057 net.cpp:150] Setting up inception_3a/output
I0224 09:26:54.577047  1057 net.cpp:157] Top shape: 48 256 28 28 (9633792)
I0224 09:26:54.577056  1057 net.cpp:165] Memory required for data: 1160872704
I0224 09:26:54.577065  1057 layer_factory.hpp:77] Creating layer inception_3a/output_inception_3a/output_0_split
I0224 09:26:54.577081  1057 net.cpp:100] Creating Layer inception_3a/output_inception_3a/output_0_split
I0224 09:26:54.577092  1057 net.cpp:434] inception_3a/output_inception_3a/output_0_split <- inception_3a/output
I0224 09:26:54.577105  1057 net.cpp:408] inception_3a/output_inception_3a/output_0_split -> inception_3a/output_inception_3a/output_0_split_0
I0224 09:26:54.577122  1057 net.cpp:408] inception_3a/output_inception_3a/output_0_split -> inception_3a/output_inception_3a/output_0_split_1
I0224 09:26:54.577137  1057 net.cpp:408] inception_3a/output_inception_3a/output_0_split -> inception_3a/output_inception_3a/output_0_split_2
I0224 09:26:54.577152  1057 net.cpp:408] inception_3a/output_inception_3a/output_0_split -> inception_3a/output_inception_3a/output_0_split_3
I0224 09:26:54.577168  1057 net.cpp:150] Setting up inception_3a/output_inception_3a/output_0_split
I0224 09:26:54.577180  1057 net.cpp:157] Top shape: 48 256 28 28 (9633792)
I0224 09:26:54.577191  1057 net.cpp:157] Top shape: 48 256 28 28 (9633792)
I0224 09:26:54.577203  1057 net.cpp:157] Top shape: 48 256 28 28 (9633792)
I0224 09:26:54.577214  1057 net.cpp:157] Top shape: 48 256 28 28 (9633792)
I0224 09:26:54.577222  1057 net.cpp:165] Memory required for data: 1315013376
I0224 09:26:54.577231  1057 layer_factory.hpp:77] Creating layer inception_3b/1x1
I0224 09:26:54.577261  1057 net.cpp:100] Creating Layer inception_3b/1x1
I0224 09:26:54.577286  1057 net.cpp:434] inception_3b/1x1 <- inception_3a/output_inception_3a/output_0_split_0
I0224 09:26:54.577304  1057 net.cpp:408] inception_3b/1x1 -> inception_3b/1x1
I0224 09:26:54.577924  1057 net.cpp:150] Setting up inception_3b/1x1
I0224 09:26:54.577939  1057 net.cpp:157] Top shape: 48 128 28 28 (4816896)
I0224 09:26:54.577947  1057 net.cpp:165] Memory required for data: 1334280960
I0224 09:26:54.577961  1057 layer_factory.hpp:77] Creating layer inception_3b/relu_1x1
I0224 09:26:54.577977  1057 net.cpp:100] Creating Layer inception_3b/relu_1x1
I0224 09:26:54.577987  1057 net.cpp:434] inception_3b/relu_1x1 <- inception_3b/1x1
I0224 09:26:54.577999  1057 net.cpp:395] inception_3b/relu_1x1 -> inception_3b/1x1 (in-place)
I0224 09:26:54.578013  1057 net.cpp:150] Setting up inception_3b/relu_1x1
I0224 09:26:54.578025  1057 net.cpp:157] Top shape: 48 128 28 28 (4816896)
I0224 09:26:54.578034  1057 net.cpp:165] Memory required for data: 1353548544
I0224 09:26:54.578043  1057 layer_factory.hpp:77] Creating layer inception_3b/3x3_reduce
I0224 09:26:54.578061  1057 net.cpp:100] Creating Layer inception_3b/3x3_reduce
I0224 09:26:54.578073  1057 net.cpp:434] inception_3b/3x3_reduce <- inception_3a/output_inception_3a/output_0_split_1
I0224 09:26:54.578089  1057 net.cpp:408] inception_3b/3x3_reduce -> inception_3b/3x3_reduce
I0224 09:26:54.578721  1057 net.cpp:150] Setting up inception_3b/3x3_reduce
I0224 09:26:54.578735  1057 net.cpp:157] Top shape: 48 128 28 28 (4816896)
I0224 09:26:54.578744  1057 net.cpp:165] Memory required for data: 1372816128
I0224 09:26:54.578758  1057 layer_factory.hpp:77] Creating layer inception_3b/relu_3x3_reduce
I0224 09:26:54.578770  1057 net.cpp:100] Creating Layer inception_3b/relu_3x3_reduce
I0224 09:26:54.578780  1057 net.cpp:434] inception_3b/relu_3x3_reduce <- inception_3b/3x3_reduce
I0224 09:26:54.578795  1057 net.cpp:395] inception_3b/relu_3x3_reduce -> inception_3b/3x3_reduce (in-place)
I0224 09:26:54.578809  1057 net.cpp:150] Setting up inception_3b/relu_3x3_reduce
I0224 09:26:54.578821  1057 net.cpp:157] Top shape: 48 128 28 28 (4816896)
I0224 09:26:54.578830  1057 net.cpp:165] Memory required for data: 1392083712
I0224 09:26:54.578840  1057 layer_factory.hpp:77] Creating layer inception_3b/3x3
I0224 09:26:54.578862  1057 net.cpp:100] Creating Layer inception_3b/3x3
I0224 09:26:54.578872  1057 net.cpp:434] inception_3b/3x3 <- inception_3b/3x3_reduce
I0224 09:26:54.578889  1057 net.cpp:408] inception_3b/3x3 -> inception_3b/3x3
I0224 09:26:54.582656  1057 net.cpp:150] Setting up inception_3b/3x3
I0224 09:26:54.582687  1057 net.cpp:157] Top shape: 48 192 28 28 (7225344)
I0224 09:26:54.582696  1057 net.cpp:165] Memory required for data: 1420985088
I0224 09:26:54.582712  1057 layer_factory.hpp:77] Creating layer inception_3b/relu_3x3
I0224 09:26:54.582726  1057 net.cpp:100] Creating Layer inception_3b/relu_3x3
I0224 09:26:54.582741  1057 net.cpp:434] inception_3b/relu_3x3 <- inception_3b/3x3
I0224 09:26:54.582754  1057 net.cpp:395] inception_3b/relu_3x3 -> inception_3b/3x3 (in-place)
I0224 09:26:54.582770  1057 net.cpp:150] Setting up inception_3b/relu_3x3
I0224 09:26:54.582782  1057 net.cpp:157] Top shape: 48 192 28 28 (7225344)
I0224 09:26:54.582792  1057 net.cpp:165] Memory required for data: 1449886464
I0224 09:26:54.582800  1057 layer_factory.hpp:77] Creating layer inception_3b/5x5_reduce
I0224 09:26:54.582820  1057 net.cpp:100] Creating Layer inception_3b/5x5_reduce
I0224 09:26:54.582830  1057 net.cpp:434] inception_3b/5x5_reduce <- inception_3a/output_inception_3a/output_0_split_2
I0224 09:26:54.582845  1057 net.cpp:408] inception_3b/5x5_reduce -> inception_3b/5x5_reduce
I0224 09:26:54.583020  1057 net.cpp:150] Setting up inception_3b/5x5_reduce
I0224 09:26:54.583034  1057 net.cpp:157] Top shape: 48 32 28 28 (1204224)
I0224 09:26:54.583043  1057 net.cpp:165] Memory required for data: 1454703360
I0224 09:26:54.583057  1057 layer_factory.hpp:77] Creating layer inception_3b/relu_5x5_reduce
I0224 09:26:54.583083  1057 net.cpp:100] Creating Layer inception_3b/relu_5x5_reduce
I0224 09:26:54.583106  1057 net.cpp:434] inception_3b/relu_5x5_reduce <- inception_3b/5x5_reduce
I0224 09:26:54.583117  1057 net.cpp:395] inception_3b/relu_5x5_reduce -> inception_3b/5x5_reduce (in-place)
I0224 09:26:54.583132  1057 net.cpp:150] Setting up inception_3b/relu_5x5_reduce
I0224 09:26:54.583143  1057 net.cpp:157] Top shape: 48 32 28 28 (1204224)
I0224 09:26:54.583153  1057 net.cpp:165] Memory required for data: 1459520256
I0224 09:26:54.583161  1057 layer_factory.hpp:77] Creating layer inception_3b/5x5
I0224 09:26:54.583179  1057 net.cpp:100] Creating Layer inception_3b/5x5
I0224 09:26:54.583190  1057 net.cpp:434] inception_3b/5x5 <- inception_3b/5x5_reduce
I0224 09:26:54.583206  1057 net.cpp:408] inception_3b/5x5 -> inception_3b/5x5
I0224 09:26:54.584650  1057 net.cpp:150] Setting up inception_3b/5x5
I0224 09:26:54.584676  1057 net.cpp:157] Top shape: 48 96 28 28 (3612672)
I0224 09:26:54.584684  1057 net.cpp:165] Memory required for data: 1473970944
I0224 09:26:54.584700  1057 layer_factory.hpp:77] Creating layer inception_3b/relu_5x5
I0224 09:26:54.584719  1057 net.cpp:100] Creating Layer inception_3b/relu_5x5
I0224 09:26:54.584730  1057 net.cpp:434] inception_3b/relu_5x5 <- inception_3b/5x5
I0224 09:26:54.584748  1057 net.cpp:395] inception_3b/relu_5x5 -> inception_3b/5x5 (in-place)
I0224 09:26:54.584763  1057 net.cpp:150] Setting up inception_3b/relu_5x5
I0224 09:26:54.584774  1057 net.cpp:157] Top shape: 48 96 28 28 (3612672)
I0224 09:26:54.584784  1057 net.cpp:165] Memory required for data: 1488421632
I0224 09:26:54.584792  1057 layer_factory.hpp:77] Creating layer inception_3b/pool
I0224 09:26:54.584805  1057 net.cpp:100] Creating Layer inception_3b/pool
I0224 09:26:54.584816  1057 net.cpp:434] inception_3b/pool <- inception_3a/output_inception_3a/output_0_split_3
I0224 09:26:54.584830  1057 net.cpp:408] inception_3b/pool -> inception_3b/pool
I0224 09:26:54.584847  1057 net.cpp:150] Setting up inception_3b/pool
I0224 09:26:54.584859  1057 net.cpp:157] Top shape: 48 256 28 28 (9633792)
I0224 09:26:54.584868  1057 net.cpp:165] Memory required for data: 1526956800
I0224 09:26:54.584878  1057 layer_factory.hpp:77] Creating layer inception_3b/pool_proj
I0224 09:26:54.584900  1057 net.cpp:100] Creating Layer inception_3b/pool_proj
I0224 09:26:54.584910  1057 net.cpp:434] inception_3b/pool_proj <- inception_3b/pool
I0224 09:26:54.584924  1057 net.cpp:408] inception_3b/pool_proj -> inception_3b/pool_proj
I0224 09:26:54.585253  1057 net.cpp:150] Setting up inception_3b/pool_proj
I0224 09:26:54.585269  1057 net.cpp:157] Top shape: 48 64 28 28 (2408448)
I0224 09:26:54.585278  1057 net.cpp:165] Memory required for data: 1536590592
I0224 09:26:54.585292  1057 layer_factory.hpp:77] Creating layer inception_3b/relu_pool_proj
I0224 09:26:54.585307  1057 net.cpp:100] Creating Layer inception_3b/relu_pool_proj
I0224 09:26:54.585317  1057 net.cpp:434] inception_3b/relu_pool_proj <- inception_3b/pool_proj
I0224 09:26:54.585330  1057 net.cpp:395] inception_3b/relu_pool_proj -> inception_3b/pool_proj (in-place)
I0224 09:26:54.585342  1057 net.cpp:150] Setting up inception_3b/relu_pool_proj
I0224 09:26:54.585355  1057 net.cpp:157] Top shape: 48 64 28 28 (2408448)
I0224 09:26:54.585363  1057 net.cpp:165] Memory required for data: 1546224384
I0224 09:26:54.585373  1057 layer_factory.hpp:77] Creating layer inception_3b/output
I0224 09:26:54.585386  1057 net.cpp:100] Creating Layer inception_3b/output
I0224 09:26:54.585396  1057 net.cpp:434] inception_3b/output <- inception_3b/1x1
I0224 09:26:54.585407  1057 net.cpp:434] inception_3b/output <- inception_3b/3x3
I0224 09:26:54.585417  1057 net.cpp:434] inception_3b/output <- inception_3b/5x5
I0224 09:26:54.585428  1057 net.cpp:434] inception_3b/output <- inception_3b/pool_proj
I0224 09:26:54.585444  1057 net.cpp:408] inception_3b/output -> inception_3b/output
I0224 09:26:54.585461  1057 net.cpp:150] Setting up inception_3b/output
I0224 09:26:54.585474  1057 net.cpp:157] Top shape: 48 480 28 28 (18063360)
I0224 09:26:54.585491  1057 net.cpp:165] Memory required for data: 1618477824
I0224 09:26:54.585513  1057 layer_factory.hpp:77] Creating layer pool3/3x3_s2
I0224 09:26:54.585525  1057 net.cpp:100] Creating Layer pool3/3x3_s2
I0224 09:26:54.585536  1057 net.cpp:434] pool3/3x3_s2 <- inception_3b/output
I0224 09:26:54.585552  1057 net.cpp:408] pool3/3x3_s2 -> pool3/3x3_s2
I0224 09:26:54.585569  1057 net.cpp:150] Setting up pool3/3x3_s2
I0224 09:26:54.585582  1057 net.cpp:157] Top shape: 48 480 14 14 (4515840)
I0224 09:26:54.585590  1057 net.cpp:165] Memory required for data: 1636541184
I0224 09:26:54.585600  1057 layer_factory.hpp:77] Creating layer pool3/3x3_s2_pool3/3x3_s2_0_split
I0224 09:26:54.585613  1057 net.cpp:100] Creating Layer pool3/3x3_s2_pool3/3x3_s2_0_split
I0224 09:26:54.585623  1057 net.cpp:434] pool3/3x3_s2_pool3/3x3_s2_0_split <- pool3/3x3_s2
I0224 09:26:54.585638  1057 net.cpp:408] pool3/3x3_s2_pool3/3x3_s2_0_split -> pool3/3x3_s2_pool3/3x3_s2_0_split_0
I0224 09:26:54.585652  1057 net.cpp:408] pool3/3x3_s2_pool3/3x3_s2_0_split -> pool3/3x3_s2_pool3/3x3_s2_0_split_1
I0224 09:26:54.585667  1057 net.cpp:408] pool3/3x3_s2_pool3/3x3_s2_0_split -> pool3/3x3_s2_pool3/3x3_s2_0_split_2
I0224 09:26:54.585685  1057 net.cpp:408] pool3/3x3_s2_pool3/3x3_s2_0_split -> pool3/3x3_s2_pool3/3x3_s2_0_split_3
I0224 09:26:54.585701  1057 net.cpp:150] Setting up pool3/3x3_s2_pool3/3x3_s2_0_split
I0224 09:26:54.585713  1057 net.cpp:157] Top shape: 48 480 14 14 (4515840)
I0224 09:26:54.585726  1057 net.cpp:157] Top shape: 48 480 14 14 (4515840)
I0224 09:26:54.585736  1057 net.cpp:157] Top shape: 48 480 14 14 (4515840)
I0224 09:26:54.585747  1057 net.cpp:157] Top shape: 48 480 14 14 (4515840)
I0224 09:26:54.585757  1057 net.cpp:165] Memory required for data: 1708794624
I0224 09:26:54.585765  1057 layer_factory.hpp:77] Creating layer inception_4a/1x1
I0224 09:26:54.585783  1057 net.cpp:100] Creating Layer inception_4a/1x1
I0224 09:26:54.585793  1057 net.cpp:434] inception_4a/1x1 <- pool3/3x3_s2_pool3/3x3_s2_0_split_0
I0224 09:26:54.585811  1057 net.cpp:408] inception_4a/1x1 -> inception_4a/1x1
I0224 09:26:54.587561  1057 net.cpp:150] Setting up inception_4a/1x1
I0224 09:26:54.587589  1057 net.cpp:157] Top shape: 48 192 14 14 (1806336)
I0224 09:26:54.587597  1057 net.cpp:165] Memory required for data: 1716019968
I0224 09:26:54.587612  1057 layer_factory.hpp:77] Creating layer inception_4a/relu_1x1
I0224 09:26:54.587626  1057 net.cpp:100] Creating Layer inception_4a/relu_1x1
I0224 09:26:54.587637  1057 net.cpp:434] inception_4a/relu_1x1 <- inception_4a/1x1
I0224 09:26:54.587653  1057 net.cpp:395] inception_4a/relu_1x1 -> inception_4a/1x1 (in-place)
I0224 09:26:54.587669  1057 net.cpp:150] Setting up inception_4a/relu_1x1
I0224 09:26:54.587682  1057 net.cpp:157] Top shape: 48 192 14 14 (1806336)
I0224 09:26:54.587690  1057 net.cpp:165] Memory required for data: 1723245312
I0224 09:26:54.587699  1057 layer_factory.hpp:77] Creating layer inception_4a/3x3_reduce
I0224 09:26:54.587718  1057 net.cpp:100] Creating Layer inception_4a/3x3_reduce
I0224 09:26:54.587730  1057 net.cpp:434] inception_4a/3x3_reduce <- pool3/3x3_s2_pool3/3x3_s2_0_split_1
I0224 09:26:54.587744  1057 net.cpp:408] inception_4a/3x3_reduce -> inception_4a/3x3_reduce
I0224 09:26:54.588610  1057 net.cpp:150] Setting up inception_4a/3x3_reduce
I0224 09:26:54.588627  1057 net.cpp:157] Top shape: 48 96 14 14 (903168)
I0224 09:26:54.588637  1057 net.cpp:165] Memory required for data: 1726857984
I0224 09:26:54.588668  1057 layer_factory.hpp:77] Creating layer inception_4a/relu_3x3_reduce
I0224 09:26:54.588682  1057 net.cpp:100] Creating Layer inception_4a/relu_3x3_reduce
I0224 09:26:54.588692  1057 net.cpp:434] inception_4a/relu_3x3_reduce <- inception_4a/3x3_reduce
I0224 09:26:54.588704  1057 net.cpp:395] inception_4a/relu_3x3_reduce -> inception_4a/3x3_reduce (in-place)
I0224 09:26:54.588718  1057 net.cpp:150] Setting up inception_4a/relu_3x3_reduce
I0224 09:26:54.588731  1057 net.cpp:157] Top shape: 48 96 14 14 (903168)
I0224 09:26:54.588738  1057 net.cpp:165] Memory required for data: 1730470656
I0224 09:26:54.588757  1057 layer_factory.hpp:77] Creating layer inception_4a/3x3
I0224 09:26:54.588788  1057 net.cpp:100] Creating Layer inception_4a/3x3
I0224 09:26:54.588798  1057 net.cpp:434] inception_4a/3x3 <- inception_4a/3x3_reduce
I0224 09:26:54.588814  1057 net.cpp:408] inception_4a/3x3 -> inception_4a/3x3
I0224 09:26:54.592099  1057 net.cpp:150] Setting up inception_4a/3x3
I0224 09:26:54.592130  1057 net.cpp:157] Top shape: 48 208 14 14 (1956864)
I0224 09:26:54.592139  1057 net.cpp:165] Memory required for data: 1738298112
I0224 09:26:54.592155  1057 layer_factory.hpp:77] Creating layer inception_4a/relu_3x3
I0224 09:26:54.592170  1057 net.cpp:100] Creating Layer inception_4a/relu_3x3
I0224 09:26:54.592181  1057 net.cpp:434] inception_4a/relu_3x3 <- inception_4a/3x3
I0224 09:26:54.592197  1057 net.cpp:395] inception_4a/relu_3x3 -> inception_4a/3x3 (in-place)
I0224 09:26:54.592213  1057 net.cpp:150] Setting up inception_4a/relu_3x3
I0224 09:26:54.592224  1057 net.cpp:157] Top shape: 48 208 14 14 (1956864)
I0224 09:26:54.592233  1057 net.cpp:165] Memory required for data: 1746125568
I0224 09:26:54.592248  1057 layer_factory.hpp:77] Creating layer inception_4a/5x5_reduce
I0224 09:26:54.592269  1057 net.cpp:100] Creating Layer inception_4a/5x5_reduce
I0224 09:26:54.592280  1057 net.cpp:434] inception_4a/5x5_reduce <- pool3/3x3_s2_pool3/3x3_s2_0_split_2
I0224 09:26:54.592294  1057 net.cpp:408] inception_4a/5x5_reduce -> inception_4a/5x5_reduce
I0224 09:26:54.592458  1057 net.cpp:150] Setting up inception_4a/5x5_reduce
I0224 09:26:54.592471  1057 net.cpp:157] Top shape: 48 16 14 14 (150528)
I0224 09:26:54.592480  1057 net.cpp:165] Memory required for data: 1746727680
I0224 09:26:54.592494  1057 layer_factory.hpp:77] Creating layer inception_4a/relu_5x5_reduce
I0224 09:26:54.592509  1057 net.cpp:100] Creating Layer inception_4a/relu_5x5_reduce
I0224 09:26:54.592519  1057 net.cpp:434] inception_4a/relu_5x5_reduce <- inception_4a/5x5_reduce
I0224 09:26:54.592530  1057 net.cpp:395] inception_4a/relu_5x5_reduce -> inception_4a/5x5_reduce (in-place)
I0224 09:26:54.592543  1057 net.cpp:150] Setting up inception_4a/relu_5x5_reduce
I0224 09:26:54.592555  1057 net.cpp:157] Top shape: 48 16 14 14 (150528)
I0224 09:26:54.592564  1057 net.cpp:165] Memory required for data: 1747329792
I0224 09:26:54.592573  1057 layer_factory.hpp:77] Creating layer inception_4a/5x5
I0224 09:26:54.592591  1057 net.cpp:100] Creating Layer inception_4a/5x5
I0224 09:26:54.592600  1057 net.cpp:434] inception_4a/5x5 <- inception_4a/5x5_reduce
I0224 09:26:54.592617  1057 net.cpp:408] inception_4a/5x5 -> inception_4a/5x5
I0224 09:26:54.593031  1057 net.cpp:150] Setting up inception_4a/5x5
I0224 09:26:54.593050  1057 net.cpp:157] Top shape: 48 48 14 14 (451584)
I0224 09:26:54.593060  1057 net.cpp:165] Memory required for data: 1749136128
I0224 09:26:54.593073  1057 layer_factory.hpp:77] Creating layer inception_4a/relu_5x5
I0224 09:26:54.593088  1057 net.cpp:100] Creating Layer inception_4a/relu_5x5
I0224 09:26:54.593099  1057 net.cpp:434] inception_4a/relu_5x5 <- inception_4a/5x5
I0224 09:26:54.593111  1057 net.cpp:395] inception_4a/relu_5x5 -> inception_4a/5x5 (in-place)
I0224 09:26:54.593125  1057 net.cpp:150] Setting up inception_4a/relu_5x5
I0224 09:26:54.593137  1057 net.cpp:157] Top shape: 48 48 14 14 (451584)
I0224 09:26:54.593147  1057 net.cpp:165] Memory required for data: 1750942464
I0224 09:26:54.593155  1057 layer_factory.hpp:77] Creating layer inception_4a/pool
I0224 09:26:54.593168  1057 net.cpp:100] Creating Layer inception_4a/pool
I0224 09:26:54.593178  1057 net.cpp:434] inception_4a/pool <- pool3/3x3_s2_pool3/3x3_s2_0_split_3
I0224 09:26:54.593194  1057 net.cpp:408] inception_4a/pool -> inception_4a/pool
I0224 09:26:54.593212  1057 net.cpp:150] Setting up inception_4a/pool
I0224 09:26:54.593225  1057 net.cpp:157] Top shape: 48 480 14 14 (4515840)
I0224 09:26:54.593233  1057 net.cpp:165] Memory required for data: 1769005824
I0224 09:26:54.593250  1057 layer_factory.hpp:77] Creating layer inception_4a/pool_proj
I0224 09:26:54.593278  1057 net.cpp:100] Creating Layer inception_4a/pool_proj
I0224 09:26:54.593302  1057 net.cpp:434] inception_4a/pool_proj <- inception_4a/pool
I0224 09:26:54.593318  1057 net.cpp:408] inception_4a/pool_proj -> inception_4a/pool_proj
I0224 09:26:54.593902  1057 net.cpp:150] Setting up inception_4a/pool_proj
I0224 09:26:54.593916  1057 net.cpp:157] Top shape: 48 64 14 14 (602112)
I0224 09:26:54.593926  1057 net.cpp:165] Memory required for data: 1771414272
I0224 09:26:54.593940  1057 layer_factory.hpp:77] Creating layer inception_4a/relu_pool_proj
I0224 09:26:54.593952  1057 net.cpp:100] Creating Layer inception_4a/relu_pool_proj
I0224 09:26:54.593962  1057 net.cpp:434] inception_4a/relu_pool_proj <- inception_4a/pool_proj
I0224 09:26:54.593978  1057 net.cpp:395] inception_4a/relu_pool_proj -> inception_4a/pool_proj (in-place)
I0224 09:26:54.593992  1057 net.cpp:150] Setting up inception_4a/relu_pool_proj
I0224 09:26:54.594004  1057 net.cpp:157] Top shape: 48 64 14 14 (602112)
I0224 09:26:54.594013  1057 net.cpp:165] Memory required for data: 1773822720
I0224 09:26:54.594022  1057 layer_factory.hpp:77] Creating layer inception_4a/output
I0224 09:26:54.594035  1057 net.cpp:100] Creating Layer inception_4a/output
I0224 09:26:54.594044  1057 net.cpp:434] inception_4a/output <- inception_4a/1x1
I0224 09:26:54.594055  1057 net.cpp:434] inception_4a/output <- inception_4a/3x3
I0224 09:26:54.594066  1057 net.cpp:434] inception_4a/output <- inception_4a/5x5
I0224 09:26:54.594077  1057 net.cpp:434] inception_4a/output <- inception_4a/pool_proj
I0224 09:26:54.594089  1057 net.cpp:408] inception_4a/output -> inception_4a/output
I0224 09:26:54.594105  1057 net.cpp:150] Setting up inception_4a/output
I0224 09:26:54.594117  1057 net.cpp:157] Top shape: 48 512 14 14 (4816896)
I0224 09:26:54.594126  1057 net.cpp:165] Memory required for data: 1793090304
I0224 09:26:54.594135  1057 layer_factory.hpp:77] Creating layer inception_4a/output_inception_4a/output_0_split
I0224 09:26:54.594156  1057 net.cpp:100] Creating Layer inception_4a/output_inception_4a/output_0_split
I0224 09:26:54.594166  1057 net.cpp:434] inception_4a/output_inception_4a/output_0_split <- inception_4a/output
I0224 09:26:54.594179  1057 net.cpp:408] inception_4a/output_inception_4a/output_0_split -> inception_4a/output_inception_4a/output_0_split_0
I0224 09:26:54.594205  1057 net.cpp:408] inception_4a/output_inception_4a/output_0_split -> inception_4a/output_inception_4a/output_0_split_1
I0224 09:26:54.594221  1057 net.cpp:408] inception_4a/output_inception_4a/output_0_split -> inception_4a/output_inception_4a/output_0_split_2
I0224 09:26:54.594236  1057 net.cpp:408] inception_4a/output_inception_4a/output_0_split -> inception_4a/output_inception_4a/output_0_split_3
I0224 09:26:54.594259  1057 net.cpp:408] inception_4a/output_inception_4a/output_0_split -> inception_4a/output_inception_4a/output_0_split_4
I0224 09:26:54.594277  1057 net.cpp:150] Setting up inception_4a/output_inception_4a/output_0_split
I0224 09:26:54.594290  1057 net.cpp:157] Top shape: 48 512 14 14 (4816896)
I0224 09:26:54.594300  1057 net.cpp:157] Top shape: 48 512 14 14 (4816896)
I0224 09:26:54.594311  1057 net.cpp:157] Top shape: 48 512 14 14 (4816896)
I0224 09:26:54.594322  1057 net.cpp:157] Top shape: 48 512 14 14 (4816896)
I0224 09:26:54.594333  1057 net.cpp:157] Top shape: 48 512 14 14 (4816896)
I0224 09:26:54.594342  1057 net.cpp:165] Memory required for data: 1889428224
I0224 09:26:54.594352  1057 layer_factory.hpp:77] Creating layer loss1/ave_pool
I0224 09:26:54.594367  1057 net.cpp:100] Creating Layer loss1/ave_pool
I0224 09:26:54.594377  1057 net.cpp:434] loss1/ave_pool <- inception_4a/output_inception_4a/output_0_split_0
I0224 09:26:54.594390  1057 net.cpp:408] loss1/ave_pool -> loss1/ave_pool
I0224 09:26:54.594409  1057 net.cpp:150] Setting up loss1/ave_pool
I0224 09:26:54.594421  1057 net.cpp:157] Top shape: 48 512 4 4 (393216)
I0224 09:26:54.594430  1057 net.cpp:165] Memory required for data: 1891001088
I0224 09:26:54.594439  1057 layer_factory.hpp:77] Creating layer loss1/conv
I0224 09:26:54.594462  1057 net.cpp:100] Creating Layer loss1/conv
I0224 09:26:54.594483  1057 net.cpp:434] loss1/conv <- loss1/ave_pool
I0224 09:26:54.594501  1057 net.cpp:408] loss1/conv -> loss1/conv
I0224 09:26:54.595734  1057 net.cpp:150] Setting up loss1/conv
I0224 09:26:54.595754  1057 net.cpp:157] Top shape: 48 128 4 4 (98304)
I0224 09:26:54.595764  1057 net.cpp:165] Memory required for data: 1891394304
I0224 09:26:54.595779  1057 layer_factory.hpp:77] Creating layer loss1/relu_conv
I0224 09:26:54.595793  1057 net.cpp:100] Creating Layer loss1/relu_conv
I0224 09:26:54.595803  1057 net.cpp:434] loss1/relu_conv <- loss1/conv
I0224 09:26:54.595819  1057 net.cpp:395] loss1/relu_conv -> loss1/conv (in-place)
I0224 09:26:54.595834  1057 net.cpp:150] Setting up loss1/relu_conv
I0224 09:26:54.595845  1057 net.cpp:157] Top shape: 48 128 4 4 (98304)
I0224 09:26:54.595854  1057 net.cpp:165] Memory required for data: 1891787520
I0224 09:26:54.595863  1057 layer_factory.hpp:77] Creating layer loss1/fc
I0224 09:26:54.595882  1057 net.cpp:100] Creating Layer loss1/fc
I0224 09:26:54.595892  1057 net.cpp:434] loss1/fc <- loss1/conv
I0224 09:26:54.595909  1057 net.cpp:408] loss1/fc -> loss1/fc
I0224 09:26:54.632606  1057 net.cpp:150] Setting up loss1/fc
I0224 09:26:54.632678  1057 net.cpp:157] Top shape: 48 1024 (49152)
I0224 09:26:54.632688  1057 net.cpp:165] Memory required for data: 1891984128
I0224 09:26:54.632709  1057 layer_factory.hpp:77] Creating layer loss1/relu_fc
I0224 09:26:54.632727  1057 net.cpp:100] Creating Layer loss1/relu_fc
I0224 09:26:54.632740  1057 net.cpp:434] loss1/relu_fc <- loss1/fc
I0224 09:26:54.632755  1057 net.cpp:395] loss1/relu_fc -> loss1/fc (in-place)
I0224 09:26:54.632772  1057 net.cpp:150] Setting up loss1/relu_fc
I0224 09:26:54.632784  1057 net.cpp:157] Top shape: 48 1024 (49152)
I0224 09:26:54.632793  1057 net.cpp:165] Memory required for data: 1892180736
I0224 09:26:54.632802  1057 layer_factory.hpp:77] Creating layer loss1/drop_fc
I0224 09:26:54.632843  1057 net.cpp:100] Creating Layer loss1/drop_fc
I0224 09:26:54.632853  1057 net.cpp:434] loss1/drop_fc <- loss1/fc
I0224 09:26:54.632865  1057 net.cpp:395] loss1/drop_fc -> loss1/fc (in-place)
I0224 09:26:54.632890  1057 net.cpp:150] Setting up loss1/drop_fc
I0224 09:26:54.632902  1057 net.cpp:157] Top shape: 48 1024 (49152)
I0224 09:26:54.632911  1057 net.cpp:165] Memory required for data: 1892377344
I0224 09:26:54.632921  1057 layer_factory.hpp:77] Creating layer loss1/classifier
I0224 09:26:54.632937  1057 net.cpp:100] Creating Layer loss1/classifier
I0224 09:26:54.632946  1057 net.cpp:434] loss1/classifier <- loss1/fc
I0224 09:26:54.632963  1057 net.cpp:408] loss1/classifier -> loss1/classifier
I0224 09:26:54.651293  1057 net.cpp:150] Setting up loss1/classifier
I0224 09:26:54.651340  1057 net.cpp:157] Top shape: 48 1000 (48000)
I0224 09:26:54.651350  1057 net.cpp:165] Memory required for data: 1892569344
I0224 09:26:54.651367  1057 layer_factory.hpp:77] Creating layer loss1/loss
I0224 09:26:54.651391  1057 net.cpp:100] Creating Layer loss1/loss
I0224 09:26:54.651402  1057 net.cpp:434] loss1/loss <- loss1/classifier
I0224 09:26:54.651417  1057 net.cpp:434] loss1/loss <- label_data_1_split_0
I0224 09:26:54.651428  1057 net.cpp:408] loss1/loss -> loss1/loss1
I0224 09:26:54.651458  1057 layer_factory.hpp:77] Creating layer loss1/loss
I0224 09:26:54.651850  1057 net.cpp:150] Setting up loss1/loss
I0224 09:26:54.651865  1057 net.cpp:157] Top shape: (1)
I0224 09:26:54.651873  1057 net.cpp:160]     with loss weight 0.3
I0224 09:26:54.651938  1057 net.cpp:165] Memory required for data: 1892569348
I0224 09:26:54.651948  1057 layer_factory.hpp:77] Creating layer inception_4b/1x1
I0224 09:26:54.651971  1057 net.cpp:100] Creating Layer inception_4b/1x1
I0224 09:26:54.651983  1057 net.cpp:434] inception_4b/1x1 <- inception_4a/output_inception_4a/output_0_split_1
I0224 09:26:54.652001  1057 net.cpp:408] inception_4b/1x1 -> inception_4b/1x1
I0224 09:26:54.653534  1057 net.cpp:150] Setting up inception_4b/1x1
I0224 09:26:54.653560  1057 net.cpp:157] Top shape: 48 160 14 14 (1505280)
I0224 09:26:54.653607  1057 net.cpp:165] Memory required for data: 1898590468
I0224 09:26:54.653623  1057 layer_factory.hpp:77] Creating layer inception_4b/relu_1x1
I0224 09:26:54.653638  1057 net.cpp:100] Creating Layer inception_4b/relu_1x1
I0224 09:26:54.653653  1057 net.cpp:434] inception_4b/relu_1x1 <- inception_4b/1x1
I0224 09:26:54.653666  1057 net.cpp:395] inception_4b/relu_1x1 -> inception_4b/1x1 (in-place)
I0224 09:26:54.653681  1057 net.cpp:150] Setting up inception_4b/relu_1x1
I0224 09:26:54.653693  1057 net.cpp:157] Top shape: 48 160 14 14 (1505280)
I0224 09:26:54.653702  1057 net.cpp:165] Memory required for data: 1904611588
I0224 09:26:54.653712  1057 layer_factory.hpp:77] Creating layer inception_4b/3x3_reduce
I0224 09:26:54.653730  1057 net.cpp:100] Creating Layer inception_4b/3x3_reduce
I0224 09:26:54.653741  1057 net.cpp:434] inception_4b/3x3_reduce <- inception_4a/output_inception_4a/output_0_split_2
I0224 09:26:54.653759  1057 net.cpp:408] inception_4b/3x3_reduce -> inception_4b/3x3_reduce
I0224 09:26:54.654834  1057 net.cpp:150] Setting up inception_4b/3x3_reduce
I0224 09:26:54.654852  1057 net.cpp:157] Top shape: 48 112 14 14 (1053696)
I0224 09:26:54.654861  1057 net.cpp:165] Memory required for data: 1908826372
I0224 09:26:54.654876  1057 layer_factory.hpp:77] Creating layer inception_4b/relu_3x3_reduce
I0224 09:26:54.654889  1057 net.cpp:100] Creating Layer inception_4b/relu_3x3_reduce
I0224 09:26:54.654899  1057 net.cpp:434] inception_4b/relu_3x3_reduce <- inception_4b/3x3_reduce
I0224 09:26:54.654911  1057 net.cpp:395] inception_4b/relu_3x3_reduce -> inception_4b/3x3_reduce (in-place)
I0224 09:26:54.654925  1057 net.cpp:150] Setting up inception_4b/relu_3x3_reduce
I0224 09:26:54.654937  1057 net.cpp:157] Top shape: 48 112 14 14 (1053696)
I0224 09:26:54.654947  1057 net.cpp:165] Memory required for data: 1913041156
I0224 09:26:54.654955  1057 layer_factory.hpp:77] Creating layer inception_4b/3x3
I0224 09:26:54.654974  1057 net.cpp:100] Creating Layer inception_4b/3x3
I0224 09:26:54.654984  1057 net.cpp:434] inception_4b/3x3 <- inception_4b/3x3_reduce
I0224 09:26:54.655000  1057 net.cpp:408] inception_4b/3x3 -> inception_4b/3x3
I0224 09:26:54.658859  1057 net.cpp:150] Setting up inception_4b/3x3
I0224 09:26:54.658888  1057 net.cpp:157] Top shape: 48 224 14 14 (2107392)
I0224 09:26:54.658898  1057 net.cpp:165] Memory required for data: 1921470724
I0224 09:26:54.658913  1057 layer_factory.hpp:77] Creating layer inception_4b/relu_3x3
I0224 09:26:54.658931  1057 net.cpp:100] Creating Layer inception_4b/relu_3x3
I0224 09:26:54.658942  1057 net.cpp:434] inception_4b/relu_3x3 <- inception_4b/3x3
I0224 09:26:54.658956  1057 net.cpp:395] inception_4b/relu_3x3 -> inception_4b/3x3 (in-place)
I0224 09:26:54.658970  1057 net.cpp:150] Setting up inception_4b/relu_3x3
I0224 09:26:54.658982  1057 net.cpp:157] Top shape: 48 224 14 14 (2107392)
I0224 09:26:54.658991  1057 net.cpp:165] Memory required for data: 1929900292
I0224 09:26:54.659000  1057 layer_factory.hpp:77] Creating layer inception_4b/5x5_reduce
I0224 09:26:54.659016  1057 net.cpp:100] Creating Layer inception_4b/5x5_reduce
I0224 09:26:54.659026  1057 net.cpp:434] inception_4b/5x5_reduce <- inception_4a/output_inception_4a/output_0_split_3
I0224 09:26:54.659044  1057 net.cpp:408] inception_4b/5x5_reduce -> inception_4b/5x5_reduce
I0224 09:26:54.659281  1057 net.cpp:150] Setting up inception_4b/5x5_reduce
I0224 09:26:54.659296  1057 net.cpp:157] Top shape: 48 24 14 14 (225792)
I0224 09:26:54.659304  1057 net.cpp:165] Memory required for data: 1930803460
I0224 09:26:54.659317  1057 layer_factory.hpp:77] Creating layer inception_4b/relu_5x5_reduce
I0224 09:26:54.659332  1057 net.cpp:100] Creating Layer inception_4b/relu_5x5_reduce
I0224 09:26:54.659343  1057 net.cpp:434] inception_4b/relu_5x5_reduce <- inception_4b/5x5_reduce
I0224 09:26:54.659358  1057 net.cpp:395] inception_4b/relu_5x5_reduce -> inception_4b/5x5_reduce (in-place)
I0224 09:26:54.659370  1057 net.cpp:150] Setting up inception_4b/relu_5x5_reduce
I0224 09:26:54.659392  1057 net.cpp:157] Top shape: 48 24 14 14 (225792)
I0224 09:26:54.659413  1057 net.cpp:165] Memory required for data: 1931706628
I0224 09:26:54.659423  1057 layer_factory.hpp:77] Creating layer inception_4b/5x5
I0224 09:26:54.659438  1057 net.cpp:100] Creating Layer inception_4b/5x5
I0224 09:26:54.659448  1057 net.cpp:434] inception_4b/5x5 <- inception_4b/5x5_reduce
I0224 09:26:54.659464  1057 net.cpp:408] inception_4b/5x5 -> inception_4b/5x5
I0224 09:26:54.660179  1057 net.cpp:150] Setting up inception_4b/5x5
I0224 09:26:54.660194  1057 net.cpp:157] Top shape: 48 64 14 14 (602112)
I0224 09:26:54.660203  1057 net.cpp:165] Memory required for data: 1934115076
I0224 09:26:54.660217  1057 layer_factory.hpp:77] Creating layer inception_4b/relu_5x5
I0224 09:26:54.660228  1057 net.cpp:100] Creating Layer inception_4b/relu_5x5
I0224 09:26:54.660238  1057 net.cpp:434] inception_4b/relu_5x5 <- inception_4b/5x5
I0224 09:26:54.660260  1057 net.cpp:395] inception_4b/relu_5x5 -> inception_4b/5x5 (in-place)
I0224 09:26:54.660274  1057 net.cpp:150] Setting up inception_4b/relu_5x5
I0224 09:26:54.660285  1057 net.cpp:157] Top shape: 48 64 14 14 (602112)
I0224 09:26:54.660295  1057 net.cpp:165] Memory required for data: 1936523524
I0224 09:26:54.660303  1057 layer_factory.hpp:77] Creating layer inception_4b/pool
I0224 09:26:54.660317  1057 net.cpp:100] Creating Layer inception_4b/pool
I0224 09:26:54.660334  1057 net.cpp:434] inception_4b/pool <- inception_4a/output_inception_4a/output_0_split_4
I0224 09:26:54.660347  1057 net.cpp:408] inception_4b/pool -> inception_4b/pool
I0224 09:26:54.660382  1057 net.cpp:150] Setting up inception_4b/pool
I0224 09:26:54.660396  1057 net.cpp:157] Top shape: 48 512 14 14 (4816896)
I0224 09:26:54.660405  1057 net.cpp:165] Memory required for data: 1955791108
I0224 09:26:54.660414  1057 layer_factory.hpp:77] Creating layer inception_4b/pool_proj
I0224 09:26:54.660434  1057 net.cpp:100] Creating Layer inception_4b/pool_proj
I0224 09:26:54.660444  1057 net.cpp:434] inception_4b/pool_proj <- inception_4b/pool
I0224 09:26:54.660459  1057 net.cpp:408] inception_4b/pool_proj -> inception_4b/pool_proj
I0224 09:26:54.661065  1057 net.cpp:150] Setting up inception_4b/pool_proj
I0224 09:26:54.661080  1057 net.cpp:157] Top shape: 48 64 14 14 (602112)
I0224 09:26:54.661089  1057 net.cpp:165] Memory required for data: 1958199556
I0224 09:26:54.661103  1057 layer_factory.hpp:77] Creating layer inception_4b/relu_pool_proj
I0224 09:26:54.661118  1057 net.cpp:100] Creating Layer inception_4b/relu_pool_proj
I0224 09:26:54.661128  1057 net.cpp:434] inception_4b/relu_pool_proj <- inception_4b/pool_proj
I0224 09:26:54.661140  1057 net.cpp:395] inception_4b/relu_pool_proj -> inception_4b/pool_proj (in-place)
I0224 09:26:54.661154  1057 net.cpp:150] Setting up inception_4b/relu_pool_proj
I0224 09:26:54.661166  1057 net.cpp:157] Top shape: 48 64 14 14 (602112)
I0224 09:26:54.661175  1057 net.cpp:165] Memory required for data: 1960608004
I0224 09:26:54.661185  1057 layer_factory.hpp:77] Creating layer inception_4b/output
I0224 09:26:54.661201  1057 net.cpp:100] Creating Layer inception_4b/output
I0224 09:26:54.661211  1057 net.cpp:434] inception_4b/output <- inception_4b/1x1
I0224 09:26:54.661221  1057 net.cpp:434] inception_4b/output <- inception_4b/3x3
I0224 09:26:54.661232  1057 net.cpp:434] inception_4b/output <- inception_4b/5x5
I0224 09:26:54.661248  1057 net.cpp:434] inception_4b/output <- inception_4b/pool_proj
I0224 09:26:54.661262  1057 net.cpp:408] inception_4b/output -> inception_4b/output
I0224 09:26:54.661278  1057 net.cpp:150] Setting up inception_4b/output
I0224 09:26:54.661291  1057 net.cpp:157] Top shape: 48 512 14 14 (4816896)
I0224 09:26:54.661299  1057 net.cpp:165] Memory required for data: 1979875588
I0224 09:26:54.661309  1057 layer_factory.hpp:77] Creating layer inception_4b/output_inception_4b/output_0_split
I0224 09:26:54.661322  1057 net.cpp:100] Creating Layer inception_4b/output_inception_4b/output_0_split
I0224 09:26:54.661331  1057 net.cpp:434] inception_4b/output_inception_4b/output_0_split <- inception_4b/output
I0224 09:26:54.661366  1057 net.cpp:408] inception_4b/output_inception_4b/output_0_split -> inception_4b/output_inception_4b/output_0_split_0
I0224 09:26:54.661382  1057 net.cpp:408] inception_4b/output_inception_4b/output_0_split -> inception_4b/output_inception_4b/output_0_split_1
I0224 09:26:54.661397  1057 net.cpp:408] inception_4b/output_inception_4b/output_0_split -> inception_4b/output_inception_4b/output_0_split_2
I0224 09:26:54.661417  1057 net.cpp:408] inception_4b/output_inception_4b/output_0_split -> inception_4b/output_inception_4b/output_0_split_3
I0224 09:26:54.661434  1057 net.cpp:150] Setting up inception_4b/output_inception_4b/output_0_split
I0224 09:26:54.661447  1057 net.cpp:157] Top shape: 48 512 14 14 (4816896)
I0224 09:26:54.661458  1057 net.cpp:157] Top shape: 48 512 14 14 (4816896)
I0224 09:26:54.661468  1057 net.cpp:157] Top shape: 48 512 14 14 (4816896)
I0224 09:26:54.661479  1057 net.cpp:157] Top shape: 48 512 14 14 (4816896)
I0224 09:26:54.661489  1057 net.cpp:165] Memory required for data: 2056945924
I0224 09:26:54.661497  1057 layer_factory.hpp:77] Creating layer inception_4c/1x1
I0224 09:26:54.661515  1057 net.cpp:100] Creating Layer inception_4c/1x1
I0224 09:26:54.661526  1057 net.cpp:434] inception_4c/1x1 <- inception_4b/output_inception_4b/output_0_split_0
I0224 09:26:54.661543  1057 net.cpp:408] inception_4c/1x1 -> inception_4c/1x1
I0224 09:26:54.662752  1057 net.cpp:150] Setting up inception_4c/1x1
I0224 09:26:54.662771  1057 net.cpp:157] Top shape: 48 128 14 14 (1204224)
I0224 09:26:54.662781  1057 net.cpp:165] Memory required for data: 2061762820
I0224 09:26:54.662796  1057 layer_factory.hpp:77] Creating layer inception_4c/relu_1x1
I0224 09:26:54.662808  1057 net.cpp:100] Creating Layer inception_4c/relu_1x1
I0224 09:26:54.662818  1057 net.cpp:434] inception_4c/relu_1x1 <- inception_4c/1x1
I0224 09:26:54.662832  1057 net.cpp:395] inception_4c/relu_1x1 -> inception_4c/1x1 (in-place)
I0224 09:26:54.662844  1057 net.cpp:150] Setting up inception_4c/relu_1x1
I0224 09:26:54.662856  1057 net.cpp:157] Top shape: 48 128 14 14 (1204224)
I0224 09:26:54.662865  1057 net.cpp:165] Memory required for data: 2066579716
I0224 09:26:54.662874  1057 layer_factory.hpp:77] Creating layer inception_4c/3x3_reduce
I0224 09:26:54.662896  1057 net.cpp:100] Creating Layer inception_4c/3x3_reduce
I0224 09:26:54.662907  1057 net.cpp:434] inception_4c/3x3_reduce <- inception_4b/output_inception_4b/output_0_split_1
I0224 09:26:54.662921  1057 net.cpp:408] inception_4c/3x3_reduce -> inception_4c/3x3_reduce
I0224 09:26:54.664141  1057 net.cpp:150] Setting up inception_4c/3x3_reduce
I0224 09:26:54.664165  1057 net.cpp:157] Top shape: 48 128 14 14 (1204224)
I0224 09:26:54.664173  1057 net.cpp:165] Memory required for data: 2071396612
I0224 09:26:54.664188  1057 layer_factory.hpp:77] Creating layer inception_4c/relu_3x3_reduce
I0224 09:26:54.664204  1057 net.cpp:100] Creating Layer inception_4c/relu_3x3_reduce
I0224 09:26:54.664216  1057 net.cpp:434] inception_4c/relu_3x3_reduce <- inception_4c/3x3_reduce
I0224 09:26:54.664228  1057 net.cpp:395] inception_4c/relu_3x3_reduce -> inception_4c/3x3_reduce (in-place)
I0224 09:26:54.664248  1057 net.cpp:150] Setting up inception_4c/relu_3x3_reduce
I0224 09:26:54.664263  1057 net.cpp:157] Top shape: 48 128 14 14 (1204224)
I0224 09:26:54.664271  1057 net.cpp:165] Memory required for data: 2076213508
I0224 09:26:54.664280  1057 layer_factory.hpp:77] Creating layer inception_4c/3x3
I0224 09:26:54.664296  1057 net.cpp:100] Creating Layer inception_4c/3x3
I0224 09:26:54.664306  1057 net.cpp:434] inception_4c/3x3 <- inception_4c/3x3_reduce
I0224 09:26:54.664324  1057 net.cpp:408] inception_4c/3x3 -> inception_4c/3x3
I0224 09:26:54.669555  1057 net.cpp:150] Setting up inception_4c/3x3
I0224 09:26:54.669585  1057 net.cpp:157] Top shape: 48 256 14 14 (2408448)
I0224 09:26:54.669595  1057 net.cpp:165] Memory required for data: 2085847300
I0224 09:26:54.669632  1057 layer_factory.hpp:77] Creating layer inception_4c/relu_3x3
I0224 09:26:54.669648  1057 net.cpp:100] Creating Layer inception_4c/relu_3x3
I0224 09:26:54.669689  1057 net.cpp:434] inception_4c/relu_3x3 <- inception_4c/3x3
I0224 09:26:54.669703  1057 net.cpp:395] inception_4c/relu_3x3 -> inception_4c/3x3 (in-place)
I0224 09:26:54.669719  1057 net.cpp:150] Setting up inception_4c/relu_3x3
I0224 09:26:54.669731  1057 net.cpp:157] Top shape: 48 256 14 14 (2408448)
I0224 09:26:54.669740  1057 net.cpp:165] Memory required for data: 2095481092
I0224 09:26:54.669749  1057 layer_factory.hpp:77] Creating layer inception_4c/5x5_reduce
I0224 09:26:54.669766  1057 net.cpp:100] Creating Layer inception_4c/5x5_reduce
I0224 09:26:54.669776  1057 net.cpp:434] inception_4c/5x5_reduce <- inception_4b/output_inception_4b/output_0_split_2
I0224 09:26:54.669795  1057 net.cpp:408] inception_4c/5x5_reduce -> inception_4c/5x5_reduce
I0224 09:26:54.670027  1057 net.cpp:150] Setting up inception_4c/5x5_reduce
I0224 09:26:54.670040  1057 net.cpp:157] Top shape: 48 24 14 14 (225792)
I0224 09:26:54.670048  1057 net.cpp:165] Memory required for data: 2096384260
I0224 09:26:54.670063  1057 layer_factory.hpp:77] Creating layer inception_4c/relu_5x5_reduce
I0224 09:26:54.670076  1057 net.cpp:100] Creating Layer inception_4c/relu_5x5_reduce
I0224 09:26:54.670087  1057 net.cpp:434] inception_4c/relu_5x5_reduce <- inception_4c/5x5_reduce
I0224 09:26:54.670099  1057 net.cpp:395] inception_4c/relu_5x5_reduce -> inception_4c/5x5_reduce (in-place)
I0224 09:26:54.670111  1057 net.cpp:150] Setting up inception_4c/relu_5x5_reduce
I0224 09:26:54.670123  1057 net.cpp:157] Top shape: 48 24 14 14 (225792)
I0224 09:26:54.670132  1057 net.cpp:165] Memory required for data: 2097287428
I0224 09:26:54.670142  1057 layer_factory.hpp:77] Creating layer inception_4c/5x5
I0224 09:26:54.670164  1057 net.cpp:100] Creating Layer inception_4c/5x5
I0224 09:26:54.670176  1057 net.cpp:434] inception_4c/5x5 <- inception_4c/5x5_reduce
I0224 09:26:54.670192  1057 net.cpp:408] inception_4c/5x5 -> inception_4c/5x5
I0224 09:26:54.670902  1057 net.cpp:150] Setting up inception_4c/5x5
I0224 09:26:54.670918  1057 net.cpp:157] Top shape: 48 64 14 14 (602112)
I0224 09:26:54.670928  1057 net.cpp:165] Memory required for data: 2099695876
I0224 09:26:54.670941  1057 layer_factory.hpp:77] Creating layer inception_4c/relu_5x5
I0224 09:26:54.670956  1057 net.cpp:100] Creating Layer inception_4c/relu_5x5
I0224 09:26:54.670966  1057 net.cpp:434] inception_4c/relu_5x5 <- inception_4c/5x5
I0224 09:26:54.670979  1057 net.cpp:395] inception_4c/relu_5x5 -> inception_4c/5x5 (in-place)
I0224 09:26:54.670994  1057 net.cpp:150] Setting up inception_4c/relu_5x5
I0224 09:26:54.671006  1057 net.cpp:157] Top shape: 48 64 14 14 (602112)
I0224 09:26:54.671015  1057 net.cpp:165] Memory required for data: 2102104324
I0224 09:26:54.671025  1057 layer_factory.hpp:77] Creating layer inception_4c/pool
I0224 09:26:54.671038  1057 net.cpp:100] Creating Layer inception_4c/pool
I0224 09:26:54.671048  1057 net.cpp:434] inception_4c/pool <- inception_4b/output_inception_4b/output_0_split_3
I0224 09:26:54.671062  1057 net.cpp:408] inception_4c/pool -> inception_4c/pool
I0224 09:26:54.671080  1057 net.cpp:150] Setting up inception_4c/pool
I0224 09:26:54.671092  1057 net.cpp:157] Top shape: 48 512 14 14 (4816896)
I0224 09:26:54.671102  1057 net.cpp:165] Memory required for data: 2121371908
I0224 09:26:54.671111  1057 layer_factory.hpp:77] Creating layer inception_4c/pool_proj
I0224 09:26:54.671130  1057 net.cpp:100] Creating Layer inception_4c/pool_proj
I0224 09:26:54.671141  1057 net.cpp:434] inception_4c/pool_proj <- inception_4c/pool
I0224 09:26:54.671155  1057 net.cpp:408] inception_4c/pool_proj -> inception_4c/pool_proj
I0224 09:26:54.671768  1057 net.cpp:150] Setting up inception_4c/pool_proj
I0224 09:26:54.671783  1057 net.cpp:157] Top shape: 48 64 14 14 (602112)
I0224 09:26:54.671792  1057 net.cpp:165] Memory required for data: 2123780356
I0224 09:26:54.671807  1057 layer_factory.hpp:77] Creating layer inception_4c/relu_pool_proj
I0224 09:26:54.671818  1057 net.cpp:100] Creating Layer inception_4c/relu_pool_proj
I0224 09:26:54.671836  1057 net.cpp:434] inception_4c/relu_pool_proj <- inception_4c/pool_proj
I0224 09:26:54.671865  1057 net.cpp:395] inception_4c/relu_pool_proj -> inception_4c/pool_proj (in-place)
I0224 09:26:54.671880  1057 net.cpp:150] Setting up inception_4c/relu_pool_proj
I0224 09:26:54.671891  1057 net.cpp:157] Top shape: 48 64 14 14 (602112)
I0224 09:26:54.671900  1057 net.cpp:165] Memory required for data: 2126188804
I0224 09:26:54.671910  1057 layer_factory.hpp:77] Creating layer inception_4c/output
I0224 09:26:54.671928  1057 net.cpp:100] Creating Layer inception_4c/output
I0224 09:26:54.671938  1057 net.cpp:434] inception_4c/output <- inception_4c/1x1
I0224 09:26:54.671949  1057 net.cpp:434] inception_4c/output <- inception_4c/3x3
I0224 09:26:54.671960  1057 net.cpp:434] inception_4c/output <- inception_4c/5x5
I0224 09:26:54.671972  1057 net.cpp:434] inception_4c/output <- inception_4c/pool_proj
I0224 09:26:54.671983  1057 net.cpp:408] inception_4c/output -> inception_4c/output
I0224 09:26:54.671999  1057 net.cpp:150] Setting up inception_4c/output
I0224 09:26:54.672013  1057 net.cpp:157] Top shape: 48 512 14 14 (4816896)
I0224 09:26:54.672021  1057 net.cpp:165] Memory required for data: 2145456388
I0224 09:26:54.672030  1057 layer_factory.hpp:77] Creating layer inception_4c/output_inception_4c/output_0_split
I0224 09:26:54.672042  1057 net.cpp:100] Creating Layer inception_4c/output_inception_4c/output_0_split
I0224 09:26:54.672052  1057 net.cpp:434] inception_4c/output_inception_4c/output_0_split <- inception_4c/output
I0224 09:26:54.672067  1057 net.cpp:408] inception_4c/output_inception_4c/output_0_split -> inception_4c/output_inception_4c/output_0_split_0
I0224 09:26:54.672082  1057 net.cpp:408] inception_4c/output_inception_4c/output_0_split -> inception_4c/output_inception_4c/output_0_split_1
I0224 09:26:54.672097  1057 net.cpp:408] inception_4c/output_inception_4c/output_0_split -> inception_4c/output_inception_4c/output_0_split_2
I0224 09:26:54.672111  1057 net.cpp:408] inception_4c/output_inception_4c/output_0_split -> inception_4c/output_inception_4c/output_0_split_3
I0224 09:26:54.672128  1057 net.cpp:150] Setting up inception_4c/output_inception_4c/output_0_split
I0224 09:26:54.672147  1057 net.cpp:157] Top shape: 48 512 14 14 (4816896)
I0224 09:26:54.672163  1057 net.cpp:157] Top shape: 48 512 14 14 (4816896)
I0224 09:26:54.672173  1057 net.cpp:157] Top shape: 48 512 14 14 (4816896)
I0224 09:26:54.672184  1057 net.cpp:157] Top shape: 48 512 14 14 (4816896)
I0224 09:26:54.672194  1057 net.cpp:165] Memory required for data: 2222526724
I0224 09:26:54.672202  1057 layer_factory.hpp:77] Creating layer inception_4d/1x1
I0224 09:26:54.672219  1057 net.cpp:100] Creating Layer inception_4d/1x1
I0224 09:26:54.672229  1057 net.cpp:434] inception_4d/1x1 <- inception_4c/output_inception_4c/output_0_split_0
I0224 09:26:54.672250  1057 net.cpp:408] inception_4d/1x1 -> inception_4d/1x1
I0224 09:26:54.673279  1057 net.cpp:150] Setting up inception_4d/1x1
I0224 09:26:54.673296  1057 net.cpp:157] Top shape: 48 112 14 14 (1053696)
I0224 09:26:54.673305  1057 net.cpp:165] Memory required for data: 2226741508
I0224 09:26:54.673321  1057 layer_factory.hpp:77] Creating layer inception_4d/relu_1x1
I0224 09:26:54.673336  1057 net.cpp:100] Creating Layer inception_4d/relu_1x1
I0224 09:26:54.673346  1057 net.cpp:434] inception_4d/relu_1x1 <- inception_4d/1x1
I0224 09:26:54.673358  1057 net.cpp:395] inception_4d/relu_1x1 -> inception_4d/1x1 (in-place)
I0224 09:26:54.673372  1057 net.cpp:150] Setting up inception_4d/relu_1x1
I0224 09:26:54.673384  1057 net.cpp:157] Top shape: 48 112 14 14 (1053696)
I0224 09:26:54.673393  1057 net.cpp:165] Memory required for data: 2230956292
I0224 09:26:54.673403  1057 layer_factory.hpp:77] Creating layer inception_4d/3x3_reduce
I0224 09:26:54.673419  1057 net.cpp:100] Creating Layer inception_4d/3x3_reduce
I0224 09:26:54.673430  1057 net.cpp:434] inception_4d/3x3_reduce <- inception_4c/output_inception_4c/output_0_split_1
I0224 09:26:54.673447  1057 net.cpp:408] inception_4d/3x3_reduce -> inception_4d/3x3_reduce
I0224 09:26:54.674746  1057 net.cpp:150] Setting up inception_4d/3x3_reduce
I0224 09:26:54.674768  1057 net.cpp:157] Top shape: 48 144 14 14 (1354752)
I0224 09:26:54.674777  1057 net.cpp:165] Memory required for data: 2236375300
I0224 09:26:54.674793  1057 layer_factory.hpp:77] Creating layer inception_4d/relu_3x3_reduce
I0224 09:26:54.674805  1057 net.cpp:100] Creating Layer inception_4d/relu_3x3_reduce
I0224 09:26:54.674816  1057 net.cpp:434] inception_4d/relu_3x3_reduce <- inception_4d/3x3_reduce
I0224 09:26:54.674832  1057 net.cpp:395] inception_4d/relu_3x3_reduce -> inception_4d/3x3_reduce (in-place)
I0224 09:26:54.674846  1057 net.cpp:150] Setting up inception_4d/relu_3x3_reduce
I0224 09:26:54.674859  1057 net.cpp:157] Top shape: 48 144 14 14 (1354752)
I0224 09:26:54.674867  1057 net.cpp:165] Memory required for data: 2241794308
I0224 09:26:54.674876  1057 layer_factory.hpp:77] Creating layer inception_4d/3x3
I0224 09:26:54.674892  1057 net.cpp:100] Creating Layer inception_4d/3x3
I0224 09:26:54.674902  1057 net.cpp:434] inception_4d/3x3 <- inception_4d/3x3_reduce
I0224 09:26:54.674916  1057 net.cpp:408] inception_4d/3x3 -> inception_4d/3x3
I0224 09:26:54.681587  1057 net.cpp:150] Setting up inception_4d/3x3
I0224 09:26:54.681618  1057 net.cpp:157] Top shape: 48 288 14 14 (2709504)
I0224 09:26:54.681628  1057 net.cpp:165] Memory required for data: 2252632324
I0224 09:26:54.681644  1057 layer_factory.hpp:77] Creating layer inception_4d/relu_3x3
I0224 09:26:54.681658  1057 net.cpp:100] Creating Layer inception_4d/relu_3x3
I0224 09:26:54.681670  1057 net.cpp:434] inception_4d/relu_3x3 <- inception_4d/3x3
I0224 09:26:54.681684  1057 net.cpp:395] inception_4d/relu_3x3 -> inception_4d/3x3 (in-place)
I0224 09:26:54.681699  1057 net.cpp:150] Setting up inception_4d/relu_3x3
I0224 09:26:54.681710  1057 net.cpp:157] Top shape: 48 288 14 14 (2709504)
I0224 09:26:54.681720  1057 net.cpp:165] Memory required for data: 2263470340
I0224 09:26:54.681730  1057 layer_factory.hpp:77] Creating layer inception_4d/5x5_reduce
I0224 09:26:54.681746  1057 net.cpp:100] Creating Layer inception_4d/5x5_reduce
I0224 09:26:54.681756  1057 net.cpp:434] inception_4d/5x5_reduce <- inception_4c/output_inception_4c/output_0_split_2
I0224 09:26:54.681773  1057 net.cpp:408] inception_4d/5x5_reduce -> inception_4d/5x5_reduce
I0224 09:26:54.682077  1057 net.cpp:150] Setting up inception_4d/5x5_reduce
I0224 09:26:54.682091  1057 net.cpp:157] Top shape: 48 32 14 14 (301056)
I0224 09:26:54.682099  1057 net.cpp:165] Memory required for data: 2264674564
I0224 09:26:54.682113  1057 layer_factory.hpp:77] Creating layer inception_4d/relu_5x5_reduce
I0224 09:26:54.682127  1057 net.cpp:100] Creating Layer inception_4d/relu_5x5_reduce
I0224 09:26:54.682138  1057 net.cpp:434] inception_4d/relu_5x5_reduce <- inception_4d/5x5_reduce
I0224 09:26:54.682149  1057 net.cpp:395] inception_4d/relu_5x5_reduce -> inception_4d/5x5_reduce (in-place)
I0224 09:26:54.682163  1057 net.cpp:150] Setting up inception_4d/relu_5x5_reduce
I0224 09:26:54.682174  1057 net.cpp:157] Top shape: 48 32 14 14 (301056)
I0224 09:26:54.682183  1057 net.cpp:165] Memory required for data: 2265878788
I0224 09:26:54.682193  1057 layer_factory.hpp:77] Creating layer inception_4d/5x5
I0224 09:26:54.682210  1057 net.cpp:100] Creating Layer inception_4d/5x5
I0224 09:26:54.682221  1057 net.cpp:434] inception_4d/5x5 <- inception_4d/5x5_reduce
I0224 09:26:54.682237  1057 net.cpp:408] inception_4d/5x5 -> inception_4d/5x5
I0224 09:26:54.683185  1057 net.cpp:150] Setting up inception_4d/5x5
I0224 09:26:54.683202  1057 net.cpp:157] Top shape: 48 64 14 14 (602112)
I0224 09:26:54.683212  1057 net.cpp:165] Memory required for data: 2268287236
I0224 09:26:54.683225  1057 layer_factory.hpp:77] Creating layer inception_4d/relu_5x5
I0224 09:26:54.683238  1057 net.cpp:100] Creating Layer inception_4d/relu_5x5
I0224 09:26:54.683272  1057 net.cpp:434] inception_4d/relu_5x5 <- inception_4d/5x5
I0224 09:26:54.683285  1057 net.cpp:395] inception_4d/relu_5x5 -> inception_4d/5x5 (in-place)
I0224 09:26:54.683310  1057 net.cpp:150] Setting up inception_4d/relu_5x5
I0224 09:26:54.683336  1057 net.cpp:157] Top shape: 48 64 14 14 (602112)
I0224 09:26:54.683344  1057 net.cpp:165] Memory required for data: 2270695684
I0224 09:26:54.683353  1057 layer_factory.hpp:77] Creating layer inception_4d/pool
I0224 09:26:54.683369  1057 net.cpp:100] Creating Layer inception_4d/pool
I0224 09:26:54.683382  1057 net.cpp:434] inception_4d/pool <- inception_4c/output_inception_4c/output_0_split_3
I0224 09:26:54.683394  1057 net.cpp:408] inception_4d/pool -> inception_4d/pool
I0224 09:26:54.683413  1057 net.cpp:150] Setting up inception_4d/pool
I0224 09:26:54.683425  1057 net.cpp:157] Top shape: 48 512 14 14 (4816896)
I0224 09:26:54.683434  1057 net.cpp:165] Memory required for data: 2289963268
I0224 09:26:54.683444  1057 layer_factory.hpp:77] Creating layer inception_4d/pool_proj
I0224 09:26:54.683462  1057 net.cpp:100] Creating Layer inception_4d/pool_proj
I0224 09:26:54.683473  1057 net.cpp:434] inception_4d/pool_proj <- inception_4d/pool
I0224 09:26:54.683490  1057 net.cpp:408] inception_4d/pool_proj -> inception_4d/pool_proj
I0224 09:26:54.684094  1057 net.cpp:150] Setting up inception_4d/pool_proj
I0224 09:26:54.684109  1057 net.cpp:157] Top shape: 48 64 14 14 (602112)
I0224 09:26:54.684118  1057 net.cpp:165] Memory required for data: 2292371716
I0224 09:26:54.684132  1057 layer_factory.hpp:77] Creating layer inception_4d/relu_pool_proj
I0224 09:26:54.684146  1057 net.cpp:100] Creating Layer inception_4d/relu_pool_proj
I0224 09:26:54.684157  1057 net.cpp:434] inception_4d/relu_pool_proj <- inception_4d/pool_proj
I0224 09:26:54.684170  1057 net.cpp:395] inception_4d/relu_pool_proj -> inception_4d/pool_proj (in-place)
I0224 09:26:54.684183  1057 net.cpp:150] Setting up inception_4d/relu_pool_proj
I0224 09:26:54.684195  1057 net.cpp:157] Top shape: 48 64 14 14 (602112)
I0224 09:26:54.684204  1057 net.cpp:165] Memory required for data: 2294780164
I0224 09:26:54.684213  1057 layer_factory.hpp:77] Creating layer inception_4d/output
I0224 09:26:54.684226  1057 net.cpp:100] Creating Layer inception_4d/output
I0224 09:26:54.684237  1057 net.cpp:434] inception_4d/output <- inception_4d/1x1
I0224 09:26:54.684254  1057 net.cpp:434] inception_4d/output <- inception_4d/3x3
I0224 09:26:54.684267  1057 net.cpp:434] inception_4d/output <- inception_4d/5x5
I0224 09:26:54.684278  1057 net.cpp:434] inception_4d/output <- inception_4d/pool_proj
I0224 09:26:54.684293  1057 net.cpp:408] inception_4d/output -> inception_4d/output
I0224 09:26:54.684310  1057 net.cpp:150] Setting up inception_4d/output
I0224 09:26:54.684322  1057 net.cpp:157] Top shape: 48 528 14 14 (4967424)
I0224 09:26:54.684331  1057 net.cpp:165] Memory required for data: 2314649860
I0224 09:26:54.684340  1057 layer_factory.hpp:77] Creating layer inception_4d/output_inception_4d/output_0_split
I0224 09:26:54.684355  1057 net.cpp:100] Creating Layer inception_4d/output_inception_4d/output_0_split
I0224 09:26:54.684365  1057 net.cpp:434] inception_4d/output_inception_4d/output_0_split <- inception_4d/output
I0224 09:26:54.684381  1057 net.cpp:408] inception_4d/output_inception_4d/output_0_split -> inception_4d/output_inception_4d/output_0_split_0
I0224 09:26:54.684396  1057 net.cpp:408] inception_4d/output_inception_4d/output_0_split -> inception_4d/output_inception_4d/output_0_split_1
I0224 09:26:54.684412  1057 net.cpp:408] inception_4d/output_inception_4d/output_0_split -> inception_4d/output_inception_4d/output_0_split_2
I0224 09:26:54.684427  1057 net.cpp:408] inception_4d/output_inception_4d/output_0_split -> inception_4d/output_inception_4d/output_0_split_3
I0224 09:26:54.684440  1057 net.cpp:408] inception_4d/output_inception_4d/output_0_split -> inception_4d/output_inception_4d/output_0_split_4
I0224 09:26:54.684463  1057 net.cpp:150] Setting up inception_4d/output_inception_4d/output_0_split
I0224 09:26:54.684475  1057 net.cpp:157] Top shape: 48 528 14 14 (4967424)
I0224 09:26:54.684486  1057 net.cpp:157] Top shape: 48 528 14 14 (4967424)
I0224 09:26:54.684497  1057 net.cpp:157] Top shape: 48 528 14 14 (4967424)
I0224 09:26:54.684526  1057 net.cpp:157] Top shape: 48 528 14 14 (4967424)
I0224 09:26:54.684537  1057 net.cpp:157] Top shape: 48 528 14 14 (4967424)
I0224 09:26:54.684546  1057 net.cpp:165] Memory required for data: 2413998340
I0224 09:26:54.684556  1057 layer_factory.hpp:77] Creating layer loss2/ave_pool
I0224 09:26:54.684567  1057 net.cpp:100] Creating Layer loss2/ave_pool
I0224 09:26:54.684577  1057 net.cpp:434] loss2/ave_pool <- inception_4d/output_inception_4d/output_0_split_0
I0224 09:26:54.684594  1057 net.cpp:408] loss2/ave_pool -> loss2/ave_pool
I0224 09:26:54.684610  1057 net.cpp:150] Setting up loss2/ave_pool
I0224 09:26:54.684623  1057 net.cpp:157] Top shape: 48 528 4 4 (405504)
I0224 09:26:54.684633  1057 net.cpp:165] Memory required for data: 2415620356
I0224 09:26:54.684641  1057 layer_factory.hpp:77] Creating layer loss2/conv
I0224 09:26:54.684659  1057 net.cpp:100] Creating Layer loss2/conv
I0224 09:26:54.684670  1057 net.cpp:434] loss2/conv <- loss2/ave_pool
I0224 09:26:54.684689  1057 net.cpp:408] loss2/conv -> loss2/conv
I0224 09:26:54.685915  1057 net.cpp:150] Setting up loss2/conv
I0224 09:26:54.685935  1057 net.cpp:157] Top shape: 48 128 4 4 (98304)
I0224 09:26:54.685945  1057 net.cpp:165] Memory required for data: 2416013572
I0224 09:26:54.685959  1057 layer_factory.hpp:77] Creating layer loss2/relu_conv
I0224 09:26:54.685976  1057 net.cpp:100] Creating Layer loss2/relu_conv
I0224 09:26:54.685986  1057 net.cpp:434] loss2/relu_conv <- loss2/conv
I0224 09:26:54.685998  1057 net.cpp:395] loss2/relu_conv -> loss2/conv (in-place)
I0224 09:26:54.686012  1057 net.cpp:150] Setting up loss2/relu_conv
I0224 09:26:54.686024  1057 net.cpp:157] Top shape: 48 128 4 4 (98304)
I0224 09:26:54.686033  1057 net.cpp:165] Memory required for data: 2416406788
I0224 09:26:54.686043  1057 layer_factory.hpp:77] Creating layer loss2/fc
I0224 09:26:54.686061  1057 net.cpp:100] Creating Layer loss2/fc
I0224 09:26:54.686071  1057 net.cpp:434] loss2/fc <- loss2/conv
I0224 09:26:54.686085  1057 net.cpp:408] loss2/fc -> loss2/fc
I0224 09:26:54.721725  1057 net.cpp:150] Setting up loss2/fc
I0224 09:26:54.721796  1057 net.cpp:157] Top shape: 48 1024 (49152)
I0224 09:26:54.721807  1057 net.cpp:165] Memory required for data: 2416603396
I0224 09:26:54.721827  1057 layer_factory.hpp:77] Creating layer loss2/relu_fc
I0224 09:26:54.721846  1057 net.cpp:100] Creating Layer loss2/relu_fc
I0224 09:26:54.721858  1057 net.cpp:434] loss2/relu_fc <- loss2/fc
I0224 09:26:54.721874  1057 net.cpp:395] loss2/relu_fc -> loss2/fc (in-place)
I0224 09:26:54.721892  1057 net.cpp:150] Setting up loss2/relu_fc
I0224 09:26:54.721904  1057 net.cpp:157] Top shape: 48 1024 (49152)
I0224 09:26:54.721912  1057 net.cpp:165] Memory required for data: 2416800004
I0224 09:26:54.721921  1057 layer_factory.hpp:77] Creating layer loss2/drop_fc
I0224 09:26:54.721935  1057 net.cpp:100] Creating Layer loss2/drop_fc
I0224 09:26:54.721945  1057 net.cpp:434] loss2/drop_fc <- loss2/fc
I0224 09:26:54.721963  1057 net.cpp:395] loss2/drop_fc -> loss2/fc (in-place)
I0224 09:26:54.721981  1057 net.cpp:150] Setting up loss2/drop_fc
I0224 09:26:54.721992  1057 net.cpp:157] Top shape: 48 1024 (49152)
I0224 09:26:54.722000  1057 net.cpp:165] Memory required for data: 2416996612
I0224 09:26:54.722009  1057 layer_factory.hpp:77] Creating layer loss2/classifier
I0224 09:26:54.722025  1057 net.cpp:100] Creating Layer loss2/classifier
I0224 09:26:54.722035  1057 net.cpp:434] loss2/classifier <- loss2/fc
I0224 09:26:54.722048  1057 net.cpp:408] loss2/classifier -> loss2/classifier
I0224 09:26:54.740732  1057 net.cpp:150] Setting up loss2/classifier
I0224 09:26:54.740779  1057 net.cpp:157] Top shape: 48 1000 (48000)
I0224 09:26:54.740789  1057 net.cpp:165] Memory required for data: 2417188612
I0224 09:26:54.740808  1057 layer_factory.hpp:77] Creating layer loss2/loss
I0224 09:26:54.740824  1057 net.cpp:100] Creating Layer loss2/loss
I0224 09:26:54.740838  1057 net.cpp:434] loss2/loss <- loss2/classifier
I0224 09:26:54.740851  1057 net.cpp:434] loss2/loss <- label_data_1_split_1
I0224 09:26:54.740885  1057 net.cpp:408] loss2/loss -> loss2/loss1
I0224 09:26:54.740921  1057 layer_factory.hpp:77] Creating layer loss2/loss
I0224 09:26:54.741148  1057 net.cpp:150] Setting up loss2/loss
I0224 09:26:54.741163  1057 net.cpp:157] Top shape: (1)
I0224 09:26:54.741171  1057 net.cpp:160]     with loss weight 0.3
I0224 09:26:54.741201  1057 net.cpp:165] Memory required for data: 2417188616
I0224 09:26:54.741210  1057 layer_factory.hpp:77] Creating layer inception_4e/1x1
I0224 09:26:54.741235  1057 net.cpp:100] Creating Layer inception_4e/1x1
I0224 09:26:54.741255  1057 net.cpp:434] inception_4e/1x1 <- inception_4d/output_inception_4d/output_0_split_1
I0224 09:26:54.741271  1057 net.cpp:408] inception_4e/1x1 -> inception_4e/1x1
I0224 09:26:54.743703  1057 net.cpp:150] Setting up inception_4e/1x1
I0224 09:26:54.743732  1057 net.cpp:157] Top shape: 48 256 14 14 (2408448)
I0224 09:26:54.743741  1057 net.cpp:165] Memory required for data: 2426822408
I0224 09:26:54.743757  1057 layer_factory.hpp:77] Creating layer inception_4e/relu_1x1
I0224 09:26:54.743772  1057 net.cpp:100] Creating Layer inception_4e/relu_1x1
I0224 09:26:54.743784  1057 net.cpp:434] inception_4e/relu_1x1 <- inception_4e/1x1
I0224 09:26:54.743800  1057 net.cpp:395] inception_4e/relu_1x1 -> inception_4e/1x1 (in-place)
I0224 09:26:54.743818  1057 net.cpp:150] Setting up inception_4e/relu_1x1
I0224 09:26:54.743829  1057 net.cpp:157] Top shape: 48 256 14 14 (2408448)
I0224 09:26:54.743837  1057 net.cpp:165] Memory required for data: 2436456200
I0224 09:26:54.743846  1057 layer_factory.hpp:77] Creating layer inception_4e/3x3_reduce
I0224 09:26:54.743865  1057 net.cpp:100] Creating Layer inception_4e/3x3_reduce
I0224 09:26:54.743877  1057 net.cpp:434] inception_4e/3x3_reduce <- inception_4d/output_inception_4d/output_0_split_2
I0224 09:26:54.743891  1057 net.cpp:408] inception_4e/3x3_reduce -> inception_4e/3x3_reduce
I0224 09:26:54.745436  1057 net.cpp:150] Setting up inception_4e/3x3_reduce
I0224 09:26:54.745460  1057 net.cpp:157] Top shape: 48 160 14 14 (1505280)
I0224 09:26:54.745470  1057 net.cpp:165] Memory required for data: 2442477320
I0224 09:26:54.745484  1057 layer_factory.hpp:77] Creating layer inception_4e/relu_3x3_reduce
I0224 09:26:54.745497  1057 net.cpp:100] Creating Layer inception_4e/relu_3x3_reduce
I0224 09:26:54.745508  1057 net.cpp:434] inception_4e/relu_3x3_reduce <- inception_4e/3x3_reduce
I0224 09:26:54.745520  1057 net.cpp:395] inception_4e/relu_3x3_reduce -> inception_4e/3x3_reduce (in-place)
I0224 09:26:54.745535  1057 net.cpp:150] Setting up inception_4e/relu_3x3_reduce
I0224 09:26:54.745548  1057 net.cpp:157] Top shape: 48 160 14 14 (1505280)
I0224 09:26:54.745556  1057 net.cpp:165] Memory required for data: 2448498440
I0224 09:26:54.745565  1057 layer_factory.hpp:77] Creating layer inception_4e/3x3
I0224 09:26:54.745584  1057 net.cpp:100] Creating Layer inception_4e/3x3
I0224 09:26:54.745595  1057 net.cpp:434] inception_4e/3x3 <- inception_4e/3x3_reduce
I0224 09:26:54.745614  1057 net.cpp:408] inception_4e/3x3 -> inception_4e/3x3
I0224 09:26:54.753938  1057 net.cpp:150] Setting up inception_4e/3x3
I0224 09:26:54.753969  1057 net.cpp:157] Top shape: 48 320 14 14 (3010560)
I0224 09:26:54.753979  1057 net.cpp:165] Memory required for data: 2460540680
I0224 09:26:54.753995  1057 layer_factory.hpp:77] Creating layer inception_4e/relu_3x3
I0224 09:26:54.754014  1057 net.cpp:100] Creating Layer inception_4e/relu_3x3
I0224 09:26:54.754026  1057 net.cpp:434] inception_4e/relu_3x3 <- inception_4e/3x3
I0224 09:26:54.754040  1057 net.cpp:395] inception_4e/relu_3x3 -> inception_4e/3x3 (in-place)
I0224 09:26:54.754053  1057 net.cpp:150] Setting up inception_4e/relu_3x3
I0224 09:26:54.754065  1057 net.cpp:157] Top shape: 48 320 14 14 (3010560)
I0224 09:26:54.754075  1057 net.cpp:165] Memory required for data: 2472582920
I0224 09:26:54.754083  1057 layer_factory.hpp:77] Creating layer inception_4e/5x5_reduce
I0224 09:26:54.754099  1057 net.cpp:100] Creating Layer inception_4e/5x5_reduce
I0224 09:26:54.754111  1057 net.cpp:434] inception_4e/5x5_reduce <- inception_4d/output_inception_4d/output_0_split_3
I0224 09:26:54.754155  1057 net.cpp:408] inception_4e/5x5_reduce -> inception_4e/5x5_reduce
I0224 09:26:54.754487  1057 net.cpp:150] Setting up inception_4e/5x5_reduce
I0224 09:26:54.754503  1057 net.cpp:157] Top shape: 48 32 14 14 (301056)
I0224 09:26:54.754511  1057 net.cpp:165] Memory required for data: 2473787144
I0224 09:26:54.754525  1057 layer_factory.hpp:77] Creating layer inception_4e/relu_5x5_reduce
I0224 09:26:54.754536  1057 net.cpp:100] Creating Layer inception_4e/relu_5x5_reduce
I0224 09:26:54.754546  1057 net.cpp:434] inception_4e/relu_5x5_reduce <- inception_4e/5x5_reduce
I0224 09:26:54.754561  1057 net.cpp:395] inception_4e/relu_5x5_reduce -> inception_4e/5x5_reduce (in-place)
I0224 09:26:54.754575  1057 net.cpp:150] Setting up inception_4e/relu_5x5_reduce
I0224 09:26:54.754587  1057 net.cpp:157] Top shape: 48 32 14 14 (301056)
I0224 09:26:54.754596  1057 net.cpp:165] Memory required for data: 2474991368
I0224 09:26:54.754606  1057 layer_factory.hpp:77] Creating layer inception_4e/5x5
I0224 09:26:54.754657  1057 net.cpp:100] Creating Layer inception_4e/5x5
I0224 09:26:54.754669  1057 net.cpp:434] inception_4e/5x5 <- inception_4e/5x5_reduce
I0224 09:26:54.754683  1057 net.cpp:408] inception_4e/5x5 -> inception_4e/5x5
I0224 09:26:54.756440  1057 net.cpp:150] Setting up inception_4e/5x5
I0224 09:26:54.756465  1057 net.cpp:157] Top shape: 48 128 14 14 (1204224)
I0224 09:26:54.756474  1057 net.cpp:165] Memory required for data: 2479808264
I0224 09:26:54.756491  1057 layer_factory.hpp:77] Creating layer inception_4e/relu_5x5
I0224 09:26:54.756505  1057 net.cpp:100] Creating Layer inception_4e/relu_5x5
I0224 09:26:54.756516  1057 net.cpp:434] inception_4e/relu_5x5 <- inception_4e/5x5
I0224 09:26:54.756531  1057 net.cpp:395] inception_4e/relu_5x5 -> inception_4e/5x5 (in-place)
I0224 09:26:54.756547  1057 net.cpp:150] Setting up inception_4e/relu_5x5
I0224 09:26:54.756559  1057 net.cpp:157] Top shape: 48 128 14 14 (1204224)
I0224 09:26:54.756568  1057 net.cpp:165] Memory required for data: 2484625160
I0224 09:26:54.756577  1057 layer_factory.hpp:77] Creating layer inception_4e/pool
I0224 09:26:54.756592  1057 net.cpp:100] Creating Layer inception_4e/pool
I0224 09:26:54.756603  1057 net.cpp:434] inception_4e/pool <- inception_4d/output_inception_4d/output_0_split_4
I0224 09:26:54.756618  1057 net.cpp:408] inception_4e/pool -> inception_4e/pool
I0224 09:26:54.756639  1057 net.cpp:150] Setting up inception_4e/pool
I0224 09:26:54.756650  1057 net.cpp:157] Top shape: 48 528 14 14 (4967424)
I0224 09:26:54.756660  1057 net.cpp:165] Memory required for data: 2504494856
I0224 09:26:54.756669  1057 layer_factory.hpp:77] Creating layer inception_4e/pool_proj
I0224 09:26:54.756687  1057 net.cpp:100] Creating Layer inception_4e/pool_proj
I0224 09:26:54.756698  1057 net.cpp:434] inception_4e/pool_proj <- inception_4e/pool
I0224 09:26:54.756711  1057 net.cpp:408] inception_4e/pool_proj -> inception_4e/pool_proj
I0224 09:26:54.757959  1057 net.cpp:150] Setting up inception_4e/pool_proj
I0224 09:26:54.757980  1057 net.cpp:157] Top shape: 48 128 14 14 (1204224)
I0224 09:26:54.757989  1057 net.cpp:165] Memory required for data: 2509311752
I0224 09:26:54.758003  1057 layer_factory.hpp:77] Creating layer inception_4e/relu_pool_proj
I0224 09:26:54.758018  1057 net.cpp:100] Creating Layer inception_4e/relu_pool_proj
I0224 09:26:54.758028  1057 net.cpp:434] inception_4e/relu_pool_proj <- inception_4e/pool_proj
I0224 09:26:54.758039  1057 net.cpp:395] inception_4e/relu_pool_proj -> inception_4e/pool_proj (in-place)
I0224 09:26:54.758054  1057 net.cpp:150] Setting up inception_4e/relu_pool_proj
I0224 09:26:54.758065  1057 net.cpp:157] Top shape: 48 128 14 14 (1204224)
I0224 09:26:54.758074  1057 net.cpp:165] Memory required for data: 2514128648
I0224 09:26:54.758083  1057 layer_factory.hpp:77] Creating layer inception_4e/output
I0224 09:26:54.758100  1057 net.cpp:100] Creating Layer inception_4e/output
I0224 09:26:54.758111  1057 net.cpp:434] inception_4e/output <- inception_4e/1x1
I0224 09:26:54.758146  1057 net.cpp:434] inception_4e/output <- inception_4e/3x3
I0224 09:26:54.758157  1057 net.cpp:434] inception_4e/output <- inception_4e/5x5
I0224 09:26:54.758168  1057 net.cpp:434] inception_4e/output <- inception_4e/pool_proj
I0224 09:26:54.758180  1057 net.cpp:408] inception_4e/output -> inception_4e/output
I0224 09:26:54.758198  1057 net.cpp:150] Setting up inception_4e/output
I0224 09:26:54.758210  1057 net.cpp:157] Top shape: 48 832 14 14 (7827456)
I0224 09:26:54.758219  1057 net.cpp:165] Memory required for data: 2545438472
I0224 09:26:54.758229  1057 layer_factory.hpp:77] Creating layer pool4/3x3_s2
I0224 09:26:54.758245  1057 net.cpp:100] Creating Layer pool4/3x3_s2
I0224 09:26:54.758256  1057 net.cpp:434] pool4/3x3_s2 <- inception_4e/output
I0224 09:26:54.758270  1057 net.cpp:408] pool4/3x3_s2 -> pool4/3x3_s2
I0224 09:26:54.758287  1057 net.cpp:150] Setting up pool4/3x3_s2
I0224 09:26:54.758299  1057 net.cpp:157] Top shape: 48 832 7 7 (1956864)
I0224 09:26:54.758308  1057 net.cpp:165] Memory required for data: 2553265928
I0224 09:26:54.758316  1057 layer_factory.hpp:77] Creating layer pool4/3x3_s2_pool4/3x3_s2_0_split
I0224 09:26:54.758333  1057 net.cpp:100] Creating Layer pool4/3x3_s2_pool4/3x3_s2_0_split
I0224 09:26:54.758343  1057 net.cpp:434] pool4/3x3_s2_pool4/3x3_s2_0_split <- pool4/3x3_s2
I0224 09:26:54.758357  1057 net.cpp:408] pool4/3x3_s2_pool4/3x3_s2_0_split -> pool4/3x3_s2_pool4/3x3_s2_0_split_0
I0224 09:26:54.758370  1057 net.cpp:408] pool4/3x3_s2_pool4/3x3_s2_0_split -> pool4/3x3_s2_pool4/3x3_s2_0_split_1
I0224 09:26:54.758385  1057 net.cpp:408] pool4/3x3_s2_pool4/3x3_s2_0_split -> pool4/3x3_s2_pool4/3x3_s2_0_split_2
I0224 09:26:54.758399  1057 net.cpp:408] pool4/3x3_s2_pool4/3x3_s2_0_split -> pool4/3x3_s2_pool4/3x3_s2_0_split_3
I0224 09:26:54.758415  1057 net.cpp:150] Setting up pool4/3x3_s2_pool4/3x3_s2_0_split
I0224 09:26:54.758427  1057 net.cpp:157] Top shape: 48 832 7 7 (1956864)
I0224 09:26:54.758440  1057 net.cpp:157] Top shape: 48 832 7 7 (1956864)
I0224 09:26:54.758450  1057 net.cpp:157] Top shape: 48 832 7 7 (1956864)
I0224 09:26:54.758461  1057 net.cpp:157] Top shape: 48 832 7 7 (1956864)
I0224 09:26:54.758469  1057 net.cpp:165] Memory required for data: 2584575752
I0224 09:26:54.758478  1057 layer_factory.hpp:77] Creating layer inception_5a/1x1
I0224 09:26:54.758497  1057 net.cpp:100] Creating Layer inception_5a/1x1
I0224 09:26:54.758507  1057 net.cpp:434] inception_5a/1x1 <- pool4/3x3_s2_pool4/3x3_s2_0_split_0
I0224 09:26:54.758522  1057 net.cpp:408] inception_5a/1x1 -> inception_5a/1x1
I0224 09:26:54.762311  1057 net.cpp:150] Setting up inception_5a/1x1
I0224 09:26:54.762341  1057 net.cpp:157] Top shape: 48 256 7 7 (602112)
I0224 09:26:54.762351  1057 net.cpp:165] Memory required for data: 2586984200
I0224 09:26:54.762367  1057 layer_factory.hpp:77] Creating layer inception_5a/relu_1x1
I0224 09:26:54.762380  1057 net.cpp:100] Creating Layer inception_5a/relu_1x1
I0224 09:26:54.762392  1057 net.cpp:434] inception_5a/relu_1x1 <- inception_5a/1x1
I0224 09:26:54.762408  1057 net.cpp:395] inception_5a/relu_1x1 -> inception_5a/1x1 (in-place)
I0224 09:26:54.762423  1057 net.cpp:150] Setting up inception_5a/relu_1x1
I0224 09:26:54.762435  1057 net.cpp:157] Top shape: 48 256 7 7 (602112)
I0224 09:26:54.762444  1057 net.cpp:165] Memory required for data: 2589392648
I0224 09:26:54.762454  1057 layer_factory.hpp:77] Creating layer inception_5a/3x3_reduce
I0224 09:26:54.762470  1057 net.cpp:100] Creating Layer inception_5a/3x3_reduce
I0224 09:26:54.762480  1057 net.cpp:434] inception_5a/3x3_reduce <- pool4/3x3_s2_pool4/3x3_s2_0_split_1
I0224 09:26:54.762493  1057 net.cpp:408] inception_5a/3x3_reduce -> inception_5a/3x3_reduce
I0224 09:26:54.764906  1057 net.cpp:150] Setting up inception_5a/3x3_reduce
I0224 09:26:54.764936  1057 net.cpp:157] Top shape: 48 160 7 7 (376320)
I0224 09:26:54.764945  1057 net.cpp:165] Memory required for data: 2590897928
I0224 09:26:54.764961  1057 layer_factory.hpp:77] Creating layer inception_5a/relu_3x3_reduce
I0224 09:26:54.764986  1057 net.cpp:100] Creating Layer inception_5a/relu_3x3_reduce
I0224 09:26:54.765008  1057 net.cpp:434] inception_5a/relu_3x3_reduce <- inception_5a/3x3_reduce
I0224 09:26:54.765025  1057 net.cpp:395] inception_5a/relu_3x3_reduce -> inception_5a/3x3_reduce (in-place)
I0224 09:26:54.765043  1057 net.cpp:150] Setting up inception_5a/relu_3x3_reduce
I0224 09:26:54.765054  1057 net.cpp:157] Top shape: 48 160 7 7 (376320)
I0224 09:26:54.765064  1057 net.cpp:165] Memory required for data: 2592403208
I0224 09:26:54.765072  1057 layer_factory.hpp:77] Creating layer inception_5a/3x3
I0224 09:26:54.765089  1057 net.cpp:100] Creating Layer inception_5a/3x3
I0224 09:26:54.765099  1057 net.cpp:434] inception_5a/3x3 <- inception_5a/3x3_reduce
I0224 09:26:54.765115  1057 net.cpp:408] inception_5a/3x3 -> inception_5a/3x3
I0224 09:26:54.773198  1057 net.cpp:150] Setting up inception_5a/3x3
I0224 09:26:54.773231  1057 net.cpp:157] Top shape: 48 320 7 7 (752640)
I0224 09:26:54.773239  1057 net.cpp:165] Memory required for data: 2595413768
I0224 09:26:54.773262  1057 layer_factory.hpp:77] Creating layer inception_5a/relu_3x3
I0224 09:26:54.773277  1057 net.cpp:100] Creating Layer inception_5a/relu_3x3
I0224 09:26:54.773288  1057 net.cpp:434] inception_5a/relu_3x3 <- inception_5a/3x3
I0224 09:26:54.773301  1057 net.cpp:395] inception_5a/relu_3x3 -> inception_5a/3x3 (in-place)
I0224 09:26:54.773317  1057 net.cpp:150] Setting up inception_5a/relu_3x3
I0224 09:26:54.773329  1057 net.cpp:157] Top shape: 48 320 7 7 (752640)
I0224 09:26:54.773339  1057 net.cpp:165] Memory required for data: 2598424328
I0224 09:26:54.773347  1057 layer_factory.hpp:77] Creating layer inception_5a/5x5_reduce
I0224 09:26:54.773365  1057 net.cpp:100] Creating Layer inception_5a/5x5_reduce
I0224 09:26:54.773375  1057 net.cpp:434] inception_5a/5x5_reduce <- pool4/3x3_s2_pool4/3x3_s2_0_split_2
I0224 09:26:54.773392  1057 net.cpp:408] inception_5a/5x5_reduce -> inception_5a/5x5_reduce
I0224 09:26:54.773888  1057 net.cpp:150] Setting up inception_5a/5x5_reduce
I0224 09:26:54.773903  1057 net.cpp:157] Top shape: 48 32 7 7 (75264)
I0224 09:26:54.773911  1057 net.cpp:165] Memory required for data: 2598725384
I0224 09:26:54.773926  1057 layer_factory.hpp:77] Creating layer inception_5a/relu_5x5_reduce
I0224 09:26:54.773937  1057 net.cpp:100] Creating Layer inception_5a/relu_5x5_reduce
I0224 09:26:54.773947  1057 net.cpp:434] inception_5a/relu_5x5_reduce <- inception_5a/5x5_reduce
I0224 09:26:54.773962  1057 net.cpp:395] inception_5a/relu_5x5_reduce -> inception_5a/5x5_reduce (in-place)
I0224 09:26:54.773977  1057 net.cpp:150] Setting up inception_5a/relu_5x5_reduce
I0224 09:26:54.773988  1057 net.cpp:157] Top shape: 48 32 7 7 (75264)
I0224 09:26:54.773996  1057 net.cpp:165] Memory required for data: 2599026440
I0224 09:26:54.774006  1057 layer_factory.hpp:77] Creating layer inception_5a/5x5
I0224 09:26:54.774024  1057 net.cpp:100] Creating Layer inception_5a/5x5
I0224 09:26:54.774035  1057 net.cpp:434] inception_5a/5x5 <- inception_5a/5x5_reduce
I0224 09:26:54.774049  1057 net.cpp:408] inception_5a/5x5 -> inception_5a/5x5
I0224 09:26:54.775908  1057 net.cpp:150] Setting up inception_5a/5x5
I0224 09:26:54.775934  1057 net.cpp:157] Top shape: 48 128 7 7 (301056)
I0224 09:26:54.775943  1057 net.cpp:165] Memory required for data: 2600230664
I0224 09:26:54.775959  1057 layer_factory.hpp:77] Creating layer inception_5a/relu_5x5
I0224 09:26:54.775975  1057 net.cpp:100] Creating Layer inception_5a/relu_5x5
I0224 09:26:54.775987  1057 net.cpp:434] inception_5a/relu_5x5 <- inception_5a/5x5
I0224 09:26:54.776000  1057 net.cpp:395] inception_5a/relu_5x5 -> inception_5a/5x5 (in-place)
I0224 09:26:54.776015  1057 net.cpp:150] Setting up inception_5a/relu_5x5
I0224 09:26:54.776026  1057 net.cpp:157] Top shape: 48 128 7 7 (301056)
I0224 09:26:54.776036  1057 net.cpp:165] Memory required for data: 2601434888
I0224 09:26:54.776046  1057 layer_factory.hpp:77] Creating layer inception_5a/pool
I0224 09:26:54.776058  1057 net.cpp:100] Creating Layer inception_5a/pool
I0224 09:26:54.776079  1057 net.cpp:434] inception_5a/pool <- pool4/3x3_s2_pool4/3x3_s2_0_split_3
I0224 09:26:54.776111  1057 net.cpp:408] inception_5a/pool -> inception_5a/pool
I0224 09:26:54.776132  1057 net.cpp:150] Setting up inception_5a/pool
I0224 09:26:54.776144  1057 net.cpp:157] Top shape: 48 832 7 7 (1956864)
I0224 09:26:54.776154  1057 net.cpp:165] Memory required for data: 2609262344
I0224 09:26:54.776162  1057 layer_factory.hpp:77] Creating layer inception_5a/pool_proj
I0224 09:26:54.776182  1057 net.cpp:100] Creating Layer inception_5a/pool_proj
I0224 09:26:54.776193  1057 net.cpp:434] inception_5a/pool_proj <- inception_5a/pool
I0224 09:26:54.776209  1057 net.cpp:408] inception_5a/pool_proj -> inception_5a/pool_proj
I0224 09:26:54.778131  1057 net.cpp:150] Setting up inception_5a/pool_proj
I0224 09:26:54.778157  1057 net.cpp:157] Top shape: 48 128 7 7 (301056)
I0224 09:26:54.778167  1057 net.cpp:165] Memory required for data: 2610466568
I0224 09:26:54.778182  1057 layer_factory.hpp:77] Creating layer inception_5a/relu_pool_proj
I0224 09:26:54.778199  1057 net.cpp:100] Creating Layer inception_5a/relu_pool_proj
I0224 09:26:54.778211  1057 net.cpp:434] inception_5a/relu_pool_proj <- inception_5a/pool_proj
I0224 09:26:54.778224  1057 net.cpp:395] inception_5a/relu_pool_proj -> inception_5a/pool_proj (in-place)
I0224 09:26:54.778249  1057 net.cpp:150] Setting up inception_5a/relu_pool_proj
I0224 09:26:54.778261  1057 net.cpp:157] Top shape: 48 128 7 7 (301056)
I0224 09:26:54.778270  1057 net.cpp:165] Memory required for data: 2611670792
I0224 09:26:54.778280  1057 layer_factory.hpp:77] Creating layer inception_5a/output
I0224 09:26:54.778293  1057 net.cpp:100] Creating Layer inception_5a/output
I0224 09:26:54.778303  1057 net.cpp:434] inception_5a/output <- inception_5a/1x1
I0224 09:26:54.778314  1057 net.cpp:434] inception_5a/output <- inception_5a/3x3
I0224 09:26:54.778326  1057 net.cpp:434] inception_5a/output <- inception_5a/5x5
I0224 09:26:54.778337  1057 net.cpp:434] inception_5a/output <- inception_5a/pool_proj
I0224 09:26:54.778349  1057 net.cpp:408] inception_5a/output -> inception_5a/output
I0224 09:26:54.778367  1057 net.cpp:150] Setting up inception_5a/output
I0224 09:26:54.778378  1057 net.cpp:157] Top shape: 48 832 7 7 (1956864)
I0224 09:26:54.778388  1057 net.cpp:165] Memory required for data: 2619498248
I0224 09:26:54.778396  1057 layer_factory.hpp:77] Creating layer inception_5a/output_inception_5a/output_0_split
I0224 09:26:54.778409  1057 net.cpp:100] Creating Layer inception_5a/output_inception_5a/output_0_split
I0224 09:26:54.778419  1057 net.cpp:434] inception_5a/output_inception_5a/output_0_split <- inception_5a/output
I0224 09:26:54.778434  1057 net.cpp:408] inception_5a/output_inception_5a/output_0_split -> inception_5a/output_inception_5a/output_0_split_0
I0224 09:26:54.778450  1057 net.cpp:408] inception_5a/output_inception_5a/output_0_split -> inception_5a/output_inception_5a/output_0_split_1
I0224 09:26:54.778465  1057 net.cpp:408] inception_5a/output_inception_5a/output_0_split -> inception_5a/output_inception_5a/output_0_split_2
I0224 09:26:54.778484  1057 net.cpp:408] inception_5a/output_inception_5a/output_0_split -> inception_5a/output_inception_5a/output_0_split_3
I0224 09:26:54.778502  1057 net.cpp:150] Setting up inception_5a/output_inception_5a/output_0_split
I0224 09:26:54.778514  1057 net.cpp:157] Top shape: 48 832 7 7 (1956864)
I0224 09:26:54.778525  1057 net.cpp:157] Top shape: 48 832 7 7 (1956864)
I0224 09:26:54.778537  1057 net.cpp:157] Top shape: 48 832 7 7 (1956864)
I0224 09:26:54.778548  1057 net.cpp:157] Top shape: 48 832 7 7 (1956864)
I0224 09:26:54.778556  1057 net.cpp:165] Memory required for data: 2650808072
I0224 09:26:54.778565  1057 layer_factory.hpp:77] Creating layer inception_5b/1x1
I0224 09:26:54.778584  1057 net.cpp:100] Creating Layer inception_5b/1x1
I0224 09:26:54.778594  1057 net.cpp:434] inception_5b/1x1 <- inception_5a/output_inception_5a/output_0_split_0
I0224 09:26:54.778609  1057 net.cpp:408] inception_5b/1x1 -> inception_5b/1x1
I0224 09:26:54.784349  1057 net.cpp:150] Setting up inception_5b/1x1
I0224 09:26:54.784401  1057 net.cpp:157] Top shape: 48 384 7 7 (903168)
I0224 09:26:54.784411  1057 net.cpp:165] Memory required for data: 2654420744
I0224 09:26:54.784427  1057 layer_factory.hpp:77] Creating layer inception_5b/relu_1x1
I0224 09:26:54.784442  1057 net.cpp:100] Creating Layer inception_5b/relu_1x1
I0224 09:26:54.784453  1057 net.cpp:434] inception_5b/relu_1x1 <- inception_5b/1x1
I0224 09:26:54.784469  1057 net.cpp:395] inception_5b/relu_1x1 -> inception_5b/1x1 (in-place)
I0224 09:26:54.784485  1057 net.cpp:150] Setting up inception_5b/relu_1x1
I0224 09:26:54.784497  1057 net.cpp:157] Top shape: 48 384 7 7 (903168)
I0224 09:26:54.784507  1057 net.cpp:165] Memory required for data: 2658033416
I0224 09:26:54.784515  1057 layer_factory.hpp:77] Creating layer inception_5b/3x3_reduce
I0224 09:26:54.784531  1057 net.cpp:100] Creating Layer inception_5b/3x3_reduce
I0224 09:26:54.784543  1057 net.cpp:434] inception_5b/3x3_reduce <- inception_5a/output_inception_5a/output_0_split_1
I0224 09:26:54.784556  1057 net.cpp:408] inception_5b/3x3_reduce -> inception_5b/3x3_reduce
I0224 09:26:54.787286  1057 net.cpp:150] Setting up inception_5b/3x3_reduce
I0224 09:26:54.787315  1057 net.cpp:157] Top shape: 48 192 7 7 (451584)
I0224 09:26:54.787324  1057 net.cpp:165] Memory required for data: 2659839752
I0224 09:26:54.787340  1057 layer_factory.hpp:77] Creating layer inception_5b/relu_3x3_reduce
I0224 09:26:54.787358  1057 net.cpp:100] Creating Layer inception_5b/relu_3x3_reduce
I0224 09:26:54.787369  1057 net.cpp:434] inception_5b/relu_3x3_reduce <- inception_5b/3x3_reduce
I0224 09:26:54.787382  1057 net.cpp:395] inception_5b/relu_3x3_reduce -> inception_5b/3x3_reduce (in-place)
I0224 09:26:54.787397  1057 net.cpp:150] Setting up inception_5b/relu_3x3_reduce
I0224 09:26:54.787410  1057 net.cpp:157] Top shape: 48 192 7 7 (451584)
I0224 09:26:54.787418  1057 net.cpp:165] Memory required for data: 2661646088
I0224 09:26:54.787427  1057 layer_factory.hpp:77] Creating layer inception_5b/3x3
I0224 09:26:54.787443  1057 net.cpp:100] Creating Layer inception_5b/3x3
I0224 09:26:54.787452  1057 net.cpp:434] inception_5b/3x3 <- inception_5b/3x3_reduce
I0224 09:26:54.787469  1057 net.cpp:408] inception_5b/3x3 -> inception_5b/3x3
I0224 09:26:54.799502  1057 net.cpp:150] Setting up inception_5b/3x3
I0224 09:26:54.799543  1057 net.cpp:157] Top shape: 48 384 7 7 (903168)
I0224 09:26:54.799553  1057 net.cpp:165] Memory required for data: 2665258760
I0224 09:26:54.799571  1057 layer_factory.hpp:77] Creating layer inception_5b/relu_3x3
I0224 09:26:54.799585  1057 net.cpp:100] Creating Layer inception_5b/relu_3x3
I0224 09:26:54.799597  1057 net.cpp:434] inception_5b/relu_3x3 <- inception_5b/3x3
I0224 09:26:54.799610  1057 net.cpp:395] inception_5b/relu_3x3 -> inception_5b/3x3 (in-place)
I0224 09:26:54.799626  1057 net.cpp:150] Setting up inception_5b/relu_3x3
I0224 09:26:54.799638  1057 net.cpp:157] Top shape: 48 384 7 7 (903168)
I0224 09:26:54.799648  1057 net.cpp:165] Memory required for data: 2668871432
I0224 09:26:54.799656  1057 layer_factory.hpp:77] Creating layer inception_5b/5x5_reduce
I0224 09:26:54.799674  1057 net.cpp:100] Creating Layer inception_5b/5x5_reduce
I0224 09:26:54.799685  1057 net.cpp:434] inception_5b/5x5_reduce <- inception_5a/output_inception_5a/output_0_split_2
I0224 09:26:54.799702  1057 net.cpp:408] inception_5b/5x5_reduce -> inception_5b/5x5_reduce
I0224 09:26:54.800433  1057 net.cpp:150] Setting up inception_5b/5x5_reduce
I0224 09:26:54.800448  1057 net.cpp:157] Top shape: 48 48 7 7 (112896)
I0224 09:26:54.800457  1057 net.cpp:165] Memory required for data: 2669323016
I0224 09:26:54.800472  1057 layer_factory.hpp:77] Creating layer inception_5b/relu_5x5_reduce
I0224 09:26:54.800483  1057 net.cpp:100] Creating Layer inception_5b/relu_5x5_reduce
I0224 09:26:54.800493  1057 net.cpp:434] inception_5b/relu_5x5_reduce <- inception_5b/5x5_reduce
I0224 09:26:54.800508  1057 net.cpp:395] inception_5b/relu_5x5_reduce -> inception_5b/5x5_reduce (in-place)
I0224 09:26:54.800523  1057 net.cpp:150] Setting up inception_5b/relu_5x5_reduce
I0224 09:26:54.800559  1057 net.cpp:157] Top shape: 48 48 7 7 (112896)
I0224 09:26:54.800567  1057 net.cpp:165] Memory required for data: 2669774600
I0224 09:26:54.800577  1057 layer_factory.hpp:77] Creating layer inception_5b/5x5
I0224 09:26:54.800595  1057 net.cpp:100] Creating Layer inception_5b/5x5
I0224 09:26:54.800606  1057 net.cpp:434] inception_5b/5x5 <- inception_5b/5x5_reduce
I0224 09:26:54.800619  1057 net.cpp:408] inception_5b/5x5 -> inception_5b/5x5
I0224 09:26:54.803417  1057 net.cpp:150] Setting up inception_5b/5x5
I0224 09:26:54.803447  1057 net.cpp:157] Top shape: 48 128 7 7 (301056)
I0224 09:26:54.803455  1057 net.cpp:165] Memory required for data: 2670978824
I0224 09:26:54.803472  1057 layer_factory.hpp:77] Creating layer inception_5b/relu_5x5
I0224 09:26:54.803488  1057 net.cpp:100] Creating Layer inception_5b/relu_5x5
I0224 09:26:54.803499  1057 net.cpp:434] inception_5b/relu_5x5 <- inception_5b/5x5
I0224 09:26:54.803513  1057 net.cpp:395] inception_5b/relu_5x5 -> inception_5b/5x5 (in-place)
I0224 09:26:54.803527  1057 net.cpp:150] Setting up inception_5b/relu_5x5
I0224 09:26:54.803539  1057 net.cpp:157] Top shape: 48 128 7 7 (301056)
I0224 09:26:54.803547  1057 net.cpp:165] Memory required for data: 2672183048
I0224 09:26:54.803556  1057 layer_factory.hpp:77] Creating layer inception_5b/pool
I0224 09:26:54.803570  1057 net.cpp:100] Creating Layer inception_5b/pool
I0224 09:26:54.803580  1057 net.cpp:434] inception_5b/pool <- inception_5a/output_inception_5a/output_0_split_3
I0224 09:26:54.803596  1057 net.cpp:408] inception_5b/pool -> inception_5b/pool
I0224 09:26:54.803614  1057 net.cpp:150] Setting up inception_5b/pool
I0224 09:26:54.803627  1057 net.cpp:157] Top shape: 48 832 7 7 (1956864)
I0224 09:26:54.803635  1057 net.cpp:165] Memory required for data: 2680010504
I0224 09:26:54.803644  1057 layer_factory.hpp:77] Creating layer inception_5b/pool_proj
I0224 09:26:54.803664  1057 net.cpp:100] Creating Layer inception_5b/pool_proj
I0224 09:26:54.803674  1057 net.cpp:434] inception_5b/pool_proj <- inception_5b/pool
I0224 09:26:54.803691  1057 net.cpp:408] inception_5b/pool_proj -> inception_5b/pool_proj
I0224 09:26:54.805626  1057 net.cpp:150] Setting up inception_5b/pool_proj
I0224 09:26:54.805651  1057 net.cpp:157] Top shape: 48 128 7 7 (301056)
I0224 09:26:54.805660  1057 net.cpp:165] Memory required for data: 2681214728
I0224 09:26:54.805675  1057 layer_factory.hpp:77] Creating layer inception_5b/relu_pool_proj
I0224 09:26:54.805692  1057 net.cpp:100] Creating Layer inception_5b/relu_pool_proj
I0224 09:26:54.805704  1057 net.cpp:434] inception_5b/relu_pool_proj <- inception_5b/pool_proj
I0224 09:26:54.805719  1057 net.cpp:395] inception_5b/relu_pool_proj -> inception_5b/pool_proj (in-place)
I0224 09:26:54.805735  1057 net.cpp:150] Setting up inception_5b/relu_pool_proj
I0224 09:26:54.805747  1057 net.cpp:157] Top shape: 48 128 7 7 (301056)
I0224 09:26:54.805757  1057 net.cpp:165] Memory required for data: 2682418952
I0224 09:26:54.805765  1057 layer_factory.hpp:77] Creating layer inception_5b/output
I0224 09:26:54.805778  1057 net.cpp:100] Creating Layer inception_5b/output
I0224 09:26:54.805788  1057 net.cpp:434] inception_5b/output <- inception_5b/1x1
I0224 09:26:54.805799  1057 net.cpp:434] inception_5b/output <- inception_5b/3x3
I0224 09:26:54.805810  1057 net.cpp:434] inception_5b/output <- inception_5b/5x5
I0224 09:26:54.805821  1057 net.cpp:434] inception_5b/output <- inception_5b/pool_proj
I0224 09:26:54.805833  1057 net.cpp:408] inception_5b/output -> inception_5b/output
I0224 09:26:54.805850  1057 net.cpp:150] Setting up inception_5b/output
I0224 09:26:54.805862  1057 net.cpp:157] Top shape: 48 1024 7 7 (2408448)
I0224 09:26:54.805871  1057 net.cpp:165] Memory required for data: 2692052744
I0224 09:26:54.805881  1057 layer_factory.hpp:77] Creating layer pool5/7x7_s1
I0224 09:26:54.805896  1057 net.cpp:100] Creating Layer pool5/7x7_s1
I0224 09:26:54.805905  1057 net.cpp:434] pool5/7x7_s1 <- inception_5b/output
I0224 09:26:54.805930  1057 net.cpp:408] pool5/7x7_s1 -> pool5/7x7_s1
I0224 09:26:54.805959  1057 net.cpp:150] Setting up pool5/7x7_s1
I0224 09:26:54.805971  1057 net.cpp:157] Top shape: 48 1024 1 1 (49152)
I0224 09:26:54.805980  1057 net.cpp:165] Memory required for data: 2692249352
I0224 09:26:54.805990  1057 layer_factory.hpp:77] Creating layer pool5/drop_7x7_s1
I0224 09:26:54.806007  1057 net.cpp:100] Creating Layer pool5/drop_7x7_s1
I0224 09:26:54.806017  1057 net.cpp:434] pool5/drop_7x7_s1 <- pool5/7x7_s1
I0224 09:26:54.806030  1057 net.cpp:395] pool5/drop_7x7_s1 -> pool5/7x7_s1 (in-place)
I0224 09:26:54.806046  1057 net.cpp:150] Setting up pool5/drop_7x7_s1
I0224 09:26:54.806057  1057 net.cpp:157] Top shape: 48 1024 1 1 (49152)
I0224 09:26:54.806066  1057 net.cpp:165] Memory required for data: 2692445960
I0224 09:26:54.806076  1057 layer_factory.hpp:77] Creating layer loss3/classifier
I0224 09:26:54.806092  1057 net.cpp:100] Creating Layer loss3/classifier
I0224 09:26:54.806103  1057 net.cpp:434] loss3/classifier <- pool5/7x7_s1
I0224 09:26:54.806116  1057 net.cpp:408] loss3/classifier -> loss3/classifier
I0224 09:26:54.824062  1057 net.cpp:150] Setting up loss3/classifier
I0224 09:26:54.824105  1057 net.cpp:157] Top shape: 48 1000 (48000)
I0224 09:26:54.824115  1057 net.cpp:165] Memory required for data: 2692637960
I0224 09:26:54.824132  1057 layer_factory.hpp:77] Creating layer loss3/loss3
I0224 09:26:54.824149  1057 net.cpp:100] Creating Layer loss3/loss3
I0224 09:26:54.824162  1057 net.cpp:434] loss3/loss3 <- loss3/classifier
I0224 09:26:54.824173  1057 net.cpp:434] loss3/loss3 <- label_data_1_split_2
I0224 09:26:54.824189  1057 net.cpp:408] loss3/loss3 -> loss3/loss3
…
I0224 09:26:54.837389  1057 net.cpp:322] The NetState phase (1) differed from the phase (0) specified by a rule in layer data
I0224 09:26:54.843060  1057 net.cpp:58] Initializing net from parameters: 
name: "GoogleNet"
state {
  phase: TEST
}
layer {
  name: "data"
  type: "Data"
  top: "data"
  top: "label"
  include {
    phase: TEST
  }
  transform_param {
    mirror: false
    crop_size: 224
    mean_value: 104
    mean_value: 117
    mean_value: 123
  }
  data_param {
    source: "/home/user/user/LIBRARIES/caffeLibs/caffe/examples/imagenet/ilsvrc12_val_lmdb"
    batch_size: 50
    backend: LMDB
  }
}
layer {
  name: "conv1/7x7_s2"
  type: "Convolution"
  bottom: "data"
  top: "conv1/7x7_s2"
  param {
    lr_mult: 1
    decay_mult: 1
  }
  param {
    lr_mult: 2
    decay_mult: 0
  }
  convolution_param {
    num_output: 64
    pad: 3
    kernel_size: 7
    stride: 2
    weight_filler {
      type: "xavier"
    }
    bias_filler {
      type: "constant"
      value: 0.2
    }
  }
}
layer {
  name: "conv1/relu_7x7"
  type: "ReLU"
  bottom: "conv1/7x7_s2"
  top: "conv1/7x7_s2"
}
layer {
  name: "pool1/3x3_s2"
  type: "Pooling"
  bottom: "conv1/7x7_s2"
  top: "pool1/3x3_s2"
  pooling_param {
    pool: MAX
    kernel_size: 3
    stride: 2
  }
}
layer {
  name: "pool1/norm1"
  type: "LRN"
  bottom: "pool1/3x3_s2"
  top: "pool1/norm1"
  lrn_param {
    local_size: 5
    alpha: 0.0001
    beta: 0.75
  }
}
layer {
  name: "conv2/3x3_reduce"
  type: "Convolution"
  bottom: "pool1/norm1"
  top: "conv2/3x3_reduce"
  param {
    lr_mult: 1
    decay_mult: 1
  }
  param {
    lr_mult: 2
    decay_mult: 0
  }
  convolution_param {
    num_output: 64
    kernel_size: 1
    weight_filler {
      type: "xavier"
    }
    bias_filler {
      type: "constant"
      value: 0.2
    }
  }
}
layer {
  name: "conv2/relu_3x3_reduce"
  type: "ReLU"
  bottom: "conv2/3x3_reduce"
  top: "conv2/3x3_reduce"
}
layer {
  name: "conv2/3x3"
  type: "Convolution"
  bottom: "conv2/3x3_reduce"
  top: "conv2/3x3"
  param {
    lr_mult: 1
    decay_mult: 1
  }
  param {
    lr_mult: 2
    decay_mult: 0
  }
  convolution_param {
    num_output: 192
    pad: 1
    kernel_size: 3
    weight_filler {
      type: "xavier"
    }
    bias_filler {
      type: "constant"
      value: 0.2
    }
  }
}
layer {
  name: "conv2/relu_3x3"
  type: "ReLU"
  bottom: "conv2/3x3"
  top: "conv2/3x3"
}
layer {
  name: "conv2/norm2"
  type: "LRN"
  bottom: "conv2/3x3"
  top: "conv2/norm2"
  lrn_param {
    local_size: 5
    alpha: 0.0001
    beta: 0.75
  }
}
layer {
  name: "pool2/3x3_s2"
  type: "Pooling"
  bottom: "conv2/norm2"
  top: "pool2/3x3_s2"
  pooling_param {
    pool: MAX
    kernel_size: 3
    stride: 2
  }
}
layer {
  name: "inception_3a/1x1"
  type: "Convolution"
  bottom: "pool2/3x3_s2"
  top: "inception_3a/1x1"
  param {
    lr_mult: 1
    decay_mult: 1
  }
  param {
    lr_mult: 2
    decay_mult: 0
  }
  convolution_param {
    num_output: 64
    kernel_size: 1
    weight_filler {
      type: "xavier"
    }
    bias_filler {
      type: "constant"
      value: 0.2
    }
  }
}
layer {
  name: "inception_3a/relu_1x1"
  type: "ReLU"
  bottom: "inception_3a/1x1"
  top: "inception_3a/1x1"
}
layer {
  name: "inception_3a/3x3_reduce"
  type: "Convolution"
  bottom: "pool2/3x3_s2"
  top: "inception_3a/3x3_reduce"
  param {
    lr_mult: 1
    decay_mult: 1
  }
  param {
    lr_mult: 2
    decay_mult: 0
  }
  convolution_param {
    num_output: 96
    kernel_size: 1
    weight_filler {
      type: "xavier"
    }
    bias_filler {
      type: "constant"
      value: 0.2
    }
  }
}
layer {
  name: "inception_3a/relu_3x3_reduce"
  type: "ReLU"
  bottom: "inception_3a/3x3_reduce"
  top: "inception_3a/3x3_reduce"
}
layer {
  name: "inception_3a/3x3"
  type: "Convolution"
  bottom: "inception_3a/3x3_reduce"
  top: "inception_3a/3x3"
  param {
    lr_mult: 1
    decay_mult: 1
  }
  param {
    lr_mult: 2
    decay_mult: 0
  }
  convolution_param {
    num_output: 128
    pad: 1
    kernel_size: 3
    weight_filler {
      type: "xavier"
    }
    bias_filler {
      type: "constant"
      value: 0.2
    }
  }
}
layer {
  name: "inception_3a/relu_3x3"
  type: "ReLU"
  bottom: "inception_3a/3x3"
  top: "inception_3a/3x3"
}
layer {
  name: "inception_3a/5x5_reduce"
  type: "Convolution"
  bottom: "pool2/3x3_s2"
  top: "inception_3a/5x5_reduce"
  param {
    lr_mult: 1
    decay_mult: 1
  }
  param {
    lr_mult: 2
    decay_mult: 0
  }
  convolution_param {
    num_output: 16
    kernel_size: 1
    weight_filler {
      type: "xavier"
    }
    bias_filler {
      type: "constant"
      value: 0.2
    }
  }
}
layer {
  name: "inception_3a/relu_5x5_reduce"
  type: "ReLU"
  bottom: "inception_3a/5x5_reduce"
  top: "inception_3a/5x5_reduce"
}
layer {
  name: "inception_3a/5x5"
  type: "Convolution"
  bottom: "inception_3a/5x5_reduce"
  top: "inception_3a/5x5"
  param {
    lr_mult: 1
    decay_mult: 1
  }
  param {
    lr_mult: 2
    decay_mult: 0
  }
  convolution_param {
    num_output: 32
    pad: 2
    kernel_size: 5
    weight_filler {
      type: "xavier"
    }
    bias_filler {
      type: "constant"
      value: 0.2
    }
  }
}
layer {
  name: "inception_3a/relu_5x5"
  type: "ReLU"
  bottom: "inception_3a/5x5"
  top: "inception_3a/5x5"
}
layer {
  name: "inception_3a/pool"
  type: "Pooling"
  bottom: "pool2/3x3_s2"
  top: "inception_3a/pool"
  pooling_param {
    pool: MAX
    kernel_size: 3
    stride: 1
    pad: 1
  }
}
layer {
  name: "inception_3a/pool_proj"
  type: "Convolution"
  bottom: "inception_3a/pool"
  top: "inception_3a/pool_proj"
  param {
    lr_mult: 1
    decay_mult: 1
  }
  param {
    lr_mult: 2
    decay_mult: 0
  }
  convolution_param {
    num_output: 32
    kernel_size: 1
    weight_filler {
      type: "xavier"
    }
    bias_filler {
      type: "constant"
      value: 0.2
    }
  }
}
layer {
  name: "inception_3a/relu_pool_proj"
  type: "ReLU"
  bottom: "inception_3a/pool_proj"
  top: "inception_3a/pool_proj"
}
layer {
  name: "inception_3a/output"
  type: "Concat"
  bottom: "inception_3a/1x1"
  bottom: "inception_3a/3x3"
  bottom: "inception_3a/5x5"
  bottom: "inception_3a/pool_proj"
  top: "inception_3a/output"
}
layer {
  name: "inception_3b/1x1"
  type: "Convolution"
  bottom: "inception_3a/output"
  top: "inception_3b/1x1"
  param {
    lr_mult: 1
    decay_mult: 1
  }
  param {
    lr_mult: 2
    decay_mult: 0
  }
  convolution_param {
    num_output: 128
    kernel_size: 1
    weight_filler {
      type: "xavier"
    }
    bias_filler {
      type: "constant"
      value: 0.2
    }
  }
}
layer {
  name: "inception_3b/relu_1x1"
  type: "ReLU"
  bottom: "inception_3b/1x1"
  top: "inception_3b/1x1"
}
layer {
  name: "inception_3b/3x3_reduce"
  type: "Convolution"
  bottom: "inception_3a/output"
  top: "inception_3b/3x3_reduce"
  param {
    lr_mult: 1
    decay_mult: 1
  }
  param {
    lr_mult: 2
    decay_mult: 0
  }
  convolution_param {
    num_output: 128
    kernel_size: 1
    weight_filler {
      type: "xavier"
    }
    bias_filler {
      type: "constant"
      value: 0.2
    }
  }
}
layer {
  name: "inception_3b/relu_3x3_reduce"
  type: "ReLU"
  bottom: "inception_3b/3x3_reduce"
  top: "inception_3b/3x3_reduce"
}
layer {
  name: "inception_3b/3x3"
  type: "Convolution"
  bottom: "inception_3b/3x3_reduce"
  top: "inception_3b/3x3"
  param {
    lr_mult: 1
    decay_mult: 1
  }
  param {
    lr_mult: 2
    decay_mult: 0
  }
  convolution_param {
    num_output: 192
    pad: 1
    kernel_size: 3
    weight_filler {
      type: "xavier"
    }
    bias_filler {
      type: "constant"
      value: 0.2
    }
  }
}
layer {
  name: "inception_3b/relu_3x3"
  type: "ReLU"
  bottom: "inception_3b/3x3"
  top: "inception_3b/3x3"
}
layer {
  name: "inception_3b/5x5_reduce"
  type: "Convolution"
  bottom: "inception_3a/output"
  top: "inception_3b/5x5_reduce"
  param {
    lr_mult: 1
    decay_mult: 1
  }
  param {
    lr_mult: 2
    decay_mult: 0
  }
  convolution_param {
    num_output: 32
    kernel_size: 1
    weight_filler {
      type: "xavier"
    }
    bias_filler {
      type: "constant"
      value: 0.2
    }
  }
}
layer {
  name: "inception_3b/relu_5x5_reduce"
  type: "ReLU"
  bottom: "inception_3b/5x5_reduce"
  top: "inception_3b/5x5_reduce"
}
layer {
  name: "inception_3b/5x5"
  type: "Convolution"
  bottom: "inception_3b/5x5_reduce"
  top: "inception_3b/5x5"
  param {
    lr_mult: 1
    decay_mult: 1
  }
  param {
    lr_mult: 2
    decay_mult: 0
  }
  convolution_param {
    num_output: 96
    pad: 2
    kernel_size: 5
    weight_filler {
      type: "xavier"
    }
    bias_filler {
      type: "constant"
      value: 0.2
    }
  }
}
layer {
  name: "inception_3b/relu_5x5"
  type: "ReLU"
  bottom: "inception_3b/5x5"
  top: "inception_3b/5x5"
}
layer {
  name: "inception_3b/pool"
  type: "Pooling"
  bottom: "inception_3a/output"
  top: "inception_3b/pool"
  pooling_param {
    pool: MAX
    kernel_size: 3
    stride: 1
    pad: 1
  }
}
layer {
  name: "inception_3b/pool_proj"
  type: "Convolution"
  bottom: "inception_3b/pool"
  top: "inception_3b/pool_proj"
  param {
    lr_mult: 1
    decay_mult: 1
  }
  param {
    lr_mult: 2
    decay_mult: 0
  }
  convolution_param {
    num_output: 64
    kernel_size: 1
    weight_filler {
      type: "xavier"
    }
    bias_filler {
      type: "constant"
      value: 0.2
    }
  }
}
layer {
  name: "inception_3b/relu_pool_proj"
  type: "ReLU"
  bottom: "inception_3b/pool_proj"
  top: "inception_3b/pool_proj"
}
layer {
  name: "inception_3b/output"
  type: "Concat"
  bottom: "inception_3b/1x1"
  bottom: "inception_3b/3x3"
  bottom: "inception_3b/5x5"
  bottom: "inception_3b/pool_proj"
  top: "inception_3b/output"
}
layer {
  name: "pool3/3x3_s2"
  type: "Pooling"
  bottom: "inception_3b/output"
  top: "pool3/3x3_s2"
  pooling_param {
    pool: MAX
    kernel_size: 3
    stride: 2
  }
}
layer {
  name: "inception_4a/1x1"
  type: "Convolution"
  bottom: "pool3/3x3_s2"
  top: "inception_4a/1x1"
  param {
    lr_mult: 1
    decay_mult: 1
  }
  param {
    lr_mult: 2
    decay_mult: 0
  }
  convolution_param {
    num_output: 192
    kernel_size: 1
    weight_filler {
      type: "xavier"
    }
    bias_filler {
      type: "constant"
      value: 0.2
    }
  }
}
layer {
  name: "inception_4a/relu_1x1"
  type: "ReLU"
  bottom: "inception_4a/1x1"
  top: "inception_4a/1x1"
}
layer {
  name: "inception_4a/3x3_reduce"
  type: "Convolution"
  bottom: "pool3/3x3_s2"
  top: "inception_4a/3x3_reduce"
  param {
    lr_mult: 1
    decay_mult: 1
  }
  param {
    lr_mult: 2
    decay_mult: 0
  }
  convolution_param {
    num_output: 96
    kernel_size: 1
    weight_filler {
      type: "xavier"
    }
    bias_filler {
      type: "constant"
      value: 0.2
    }
  }
}
layer {
  name: "inception_4a/relu_3x3_reduce"
  type: "ReLU"
  bottom: "inception_4a/3x3_reduce"
  top: "inception_4a/3x3_reduce"
}
layer {
  name: "inception_4a/3x3"
  type: "Convolution"
  bottom: "inception_4a/3x3_reduce"
  top: "inception_4a/3x3"
  param {
    lr_mult: 1
    decay_mult: 1
  }
  param {
    lr_mult: 2
    decay_mult: 0
  }
  convolution_param {
    num_output: 208
    pad: 1
    kernel_size: 3
    weight_filler {
      type: "xavier"
    }
    bias_filler {
      type: "constant"
      value: 0.2
    }
  }
}
layer {
  name: "inception_4a/relu_3x3"
  type: "ReLU"
  bottom: "inception_4a/3x3"
  top: "inception_4a/3x3"
}
layer {
  name: "inception_4a/5x5_reduce"
  type: "Convolution"
  bottom: "pool3/3x3_s2"
  top: "inception_4a/5x5_reduce"
  param {
    lr_mult: 1
    decay_mult: 1
  }
  param {
    lr_mult: 2
    decay_mult: 0
  }
  convolution_param {
    num_output: 16
    kernel_size: 1
    weight_filler {
      type: "xavier"
    }
    bias_filler {
      type: "constant"
      value: 0.2
    }
  }
}
layer {
  name: "inception_4a/relu_5x5_reduce"
  type: "ReLU"
  bottom: "inception_4a/5x5_reduce"
  top: "inception_4a/5x5_reduce"
}
layer {
  name: "inception_4a/5x5"
  type: "Convolution"
  bottom: "inception_4a/5x5_reduce"
  top: "inception_4a/5x5"
  param {
    lr_mult: 1
    decay_mult: 1
  }
  param {
    lr_mult: 2
    decay_mult: 0
  }
  convolution_param {
    num_output: 48
    pad: 2
    kernel_size: 5
    weight_filler {
      type: "xavier"
    }
    bias_filler {
      type: "constant"
      value: 0.2
    }
  }
}
layer {
  name: "inception_4a/relu_5x5"
  type: "ReLU"
  bottom: "inception_4a/5x5"
  top: "inception_4a/5x5"
}
layer {
  name: "inception_4a/pool"
  type: "Pooling"
  bottom: "pool3/3x3_s2"
  top: "inception_4a/pool"
  pooling_param {
    pool: MAX
    kernel_size: 3
    stride: 1
    pad: 1
  }
}
layer {
  name: "inception_4a/pool_proj"
  type: "Convolution"
  bottom: "inception_4a/pool"
  top: "inception_4a/pool_proj"
  param {
    lr_mult: 1
    decay_mult: 1
  }
  param {
    lr_mult: 2
    decay_mult: 0
  }
  convolution_param {
    num_output: 64
    kernel_size: 1
    weight_filler {
      type: "xavier"
    }
    bias_filler {
      type: "constant"
      value: 0.2
    }
  }
}
layer {
  name: "inception_4a/relu_pool_proj"
  type: "ReLU"
  bottom: "inception_4a/pool_proj"
  top: "inception_4a/pool_proj"
}
layer {
  name: "inception_4a/output"
  type: "Concat"
  bottom: "inception_4a/1x1"
  bottom: "inception_4a/3x3"
  bottom: "inception_4a/5x5"
  bottom: "inception_4a/pool_proj"
  top: "inception_4a/output"
}
layer {
  name: "loss1/ave_pool"
  type: "Pooling"
  bottom: "inception_4a/output"
  top: "loss1/ave_pool"
  pooling_param {
    pool: AVE
    kernel_size: 5
    stride: 3
  }
}
layer {
  name: "loss1/conv"
  type: "Convolution"
  bottom: "loss1/ave_pool"
  top: "loss1/conv"
  param {
    lr_mult: 1
    decay_mult: 1
  }
  param {
    lr_mult: 2
    decay_mult: 0
  }
  convolution_param {
    num_output: 128
    kernel_size: 1
    weight_filler {
      type: "xavier"
    }
    bias_filler {
      type: "constant"
      value: 0.2
    }
  }
}
layer {
  name: "loss1/relu_conv"
  type: "ReLU"
  bottom: "loss1/conv"
  top: "loss1/conv"
}
layer {
  name: "loss1/fc"
  type: "InnerProduct"
  bottom: "loss1/conv"
  top: "loss1/fc"
  param {
    lr_mult: 1
    decay_mult: 1
  }
  param {
    lr_mult: 2
    decay_mult: 0
  }
  inner_product_param {
    num_output: 1024
    weight_filler {
      type: "xavier"
    }
    bias_filler {
      type: "constant"
      value: 0.2
    }
  }
}
layer {
  name: "loss1/relu_fc"
  type: "ReLU"
  bottom: "loss1/fc"
  top: "loss1/fc"
}
layer {
  name: "loss1/drop_fc"
  type: "Dropout"
  bottom: "loss1/fc"
  top: "loss1/fc"
…
I0224 09:26:55.007520  1057 net.cpp:165] Memory required for data: 2190293212
I0224 09:26:55.007529  1057 layer_factory.hpp:77] Creating layer inception_4c/pool
I0224 09:26:55.007542  1057 net.cpp:100] Creating Layer inception_4c/pool
I0224 09:26:55.007552  1057 net.cpp:434] inception_4c/pool <- inception_4b/output_inception_4b/output_0_split_3
I0224 09:26:55.007568  1057 net.cpp:408] inception_4c/pool -> inception_4c/pool
I0224 09:26:55.007586  1057 net.cpp:150] Setting up inception_4c/pool
I0224 09:26:55.007599  1057 net.cpp:157] Top shape: 50 512 14 14 (5017600)
I0224 09:26:55.007608  1057 net.cpp:165] Memory required for data: 2210363612
I0224 09:26:55.007617  1057 layer_factory.hpp:77] Creating layer inception_4c/pool_proj
I0224 09:26:55.007635  1057 net.cpp:100] Creating Layer inception_4c/pool_proj
I0224 09:26:55.007647  1057 net.cpp:434] inception_4c/pool_proj <- inception_4c/pool
I0224 09:26:55.007659  1057 net.cpp:408] inception_4c/pool_proj -> inception_4c/pool_proj
I0224 09:26:55.008275  1057 net.cpp:150] Setting up inception_4c/pool_proj
I0224 09:26:55.008293  1057 net.cpp:157] Top shape: 50 64 14 14 (627200)
I0224 09:26:55.008303  1057 net.cpp:165] Memory required for data: 2212872412
I0224 09:26:55.008317  1057 layer_factory.hpp:77] Creating layer inception_4c/relu_pool_proj
I0224 09:26:55.008329  1057 net.cpp:100] Creating Layer inception_4c/relu_pool_proj
I0224 09:26:55.008339  1057 net.cpp:434] inception_4c/relu_pool_proj <- inception_4c/pool_proj
I0224 09:26:55.008352  1057 net.cpp:395] inception_4c/relu_pool_proj -> inception_4c/pool_proj (in-place)
I0224 09:26:55.008364  1057 net.cpp:150] Setting up inception_4c/relu_pool_proj
I0224 09:26:55.008376  1057 net.cpp:157] Top shape: 50 64 14 14 (627200)
I0224 09:26:55.008385  1057 net.cpp:165] Memory required for data: 2215381212
I0224 09:26:55.008394  1057 layer_factory.hpp:77] Creating layer inception_4c/output
I0224 09:26:55.008407  1057 net.cpp:100] Creating Layer inception_4c/output
I0224 09:26:55.008417  1057 net.cpp:434] inception_4c/output <- inception_4c/1x1
I0224 09:26:55.008429  1057 net.cpp:434] inception_4c/output <- inception_4c/3x3
I0224 09:26:55.008440  1057 net.cpp:434] inception_4c/output <- inception_4c/5x5
I0224 09:26:55.008450  1057 net.cpp:434] inception_4c/output <- inception_4c/pool_proj
I0224 09:26:55.008473  1057 net.cpp:408] inception_4c/output -> inception_4c/output
I0224 09:26:55.008502  1057 net.cpp:150] Setting up inception_4c/output
I0224 09:26:55.008514  1057 net.cpp:157] Top shape: 50 512 14 14 (5017600)
I0224 09:26:55.008523  1057 net.cpp:165] Memory required for data: 2235451612
I0224 09:26:55.008533  1057 layer_factory.hpp:77] Creating layer inception_4c/output_inception_4c/output_0_split
I0224 09:26:55.008545  1057 net.cpp:100] Creating Layer inception_4c/output_inception_4c/output_0_split
I0224 09:26:55.008554  1057 net.cpp:434] inception_4c/output_inception_4c/output_0_split <- inception_4c/output
I0224 09:26:55.008570  1057 net.cpp:408] inception_4c/output_inception_4c/output_0_split -> inception_4c/output_inception_4c/output_0_split_0
I0224 09:26:55.008585  1057 net.cpp:408] inception_4c/output_inception_4c/output_0_split -> inception_4c/output_inception_4c/output_0_split_1
I0224 09:26:55.008599  1057 net.cpp:408] inception_4c/output_inception_4c/output_0_split -> inception_4c/output_inception_4c/output_0_split_2
I0224 09:26:55.008615  1057 net.cpp:408] inception_4c/output_inception_4c/output_0_split -> inception_4c/output_inception_4c/output_0_split_3
I0224 09:26:55.008630  1057 net.cpp:150] Setting up inception_4c/output_inception_4c/output_0_split
I0224 09:26:55.008642  1057 net.cpp:157] Top shape: 50 512 14 14 (5017600)
I0224 09:26:55.008654  1057 net.cpp:157] Top shape: 50 512 14 14 (5017600)
I0224 09:26:55.008666  1057 net.cpp:157] Top shape: 50 512 14 14 (5017600)
I0224 09:26:55.008677  1057 net.cpp:157] Top shape: 50 512 14 14 (5017600)
I0224 09:26:55.008684  1057 net.cpp:165] Memory required for data: 2315733212
I0224 09:26:55.008693  1057 layer_factory.hpp:77] Creating layer inception_4d/1x1
I0224 09:26:55.008714  1057 net.cpp:100] Creating Layer inception_4d/1x1
I0224 09:26:55.008725  1057 net.cpp:434] inception_4d/1x1 <- inception_4c/output_inception_4c/output_0_split_0
I0224 09:26:55.008739  1057 net.cpp:408] inception_4d/1x1 -> inception_4d/1x1
I0224 09:26:55.009793  1057 net.cpp:150] Setting up inception_4d/1x1
I0224 09:26:55.009811  1057 net.cpp:157] Top shape: 50 112 14 14 (1097600)
I0224 09:26:55.009820  1057 net.cpp:165] Memory required for data: 2320123612
I0224 09:26:55.009835  1057 layer_factory.hpp:77] Creating layer inception_4d/relu_1x1
I0224 09:26:55.009850  1057 net.cpp:100] Creating Layer inception_4d/relu_1x1
I0224 09:26:55.009861  1057 net.cpp:434] inception_4d/relu_1x1 <- inception_4d/1x1
I0224 09:26:55.009874  1057 net.cpp:395] inception_4d/relu_1x1 -> inception_4d/1x1 (in-place)
I0224 09:26:55.009891  1057 net.cpp:150] Setting up inception_4d/relu_1x1
I0224 09:26:55.009903  1057 net.cpp:157] Top shape: 50 112 14 14 (1097600)
I0224 09:26:55.009912  1057 net.cpp:165] Memory required for data: 2324514012
I0224 09:26:55.009922  1057 layer_factory.hpp:77] Creating layer inception_4d/3x3_reduce
I0224 09:26:55.009938  1057 net.cpp:100] Creating Layer inception_4d/3x3_reduce
I0224 09:26:55.009948  1057 net.cpp:434] inception_4d/3x3_reduce <- inception_4c/output_inception_4c/output_0_split_1
I0224 09:26:55.009965  1057 net.cpp:408] inception_4d/3x3_reduce -> inception_4d/3x3_reduce
I0224 09:26:55.011304  1057 net.cpp:150] Setting up inception_4d/3x3_reduce
I0224 09:26:55.011325  1057 net.cpp:157] Top shape: 50 144 14 14 (1411200)
I0224 09:26:55.011335  1057 net.cpp:165] Memory required for data: 2330158812
I0224 09:26:55.011350  1057 layer_factory.hpp:77] Creating layer inception_4d/relu_3x3_reduce
I0224 09:26:55.011366  1057 net.cpp:100] Creating Layer inception_4d/relu_3x3_reduce
I0224 09:26:55.011378  1057 net.cpp:434] inception_4d/relu_3x3_reduce <- inception_4d/3x3_reduce
I0224 09:26:55.011390  1057 net.cpp:395] inception_4d/relu_3x3_reduce -> inception_4d/3x3_reduce (in-place)
I0224 09:26:55.011404  1057 net.cpp:150] Setting up inception_4d/relu_3x3_reduce
I0224 09:26:55.011416  1057 net.cpp:157] Top shape: 50 144 14 14 (1411200)
I0224 09:26:55.011425  1057 net.cpp:165] Memory required for data: 2335803612
I0224 09:26:55.011435  1057 layer_factory.hpp:77] Creating layer inception_4d/3x3
I0224 09:26:55.011464  1057 net.cpp:100] Creating Layer inception_4d/3x3
I0224 09:26:55.011487  1057 net.cpp:434] inception_4d/3x3 <- inception_4d/3x3_reduce
I0224 09:26:55.011502  1057 net.cpp:408] inception_4d/3x3 -> inception_4d/3x3
I0224 09:26:55.018174  1057 net.cpp:150] Setting up inception_4d/3x3
I0224 09:26:55.018205  1057 net.cpp:157] Top shape: 50 288 14 14 (2822400)
I0224 09:26:55.018214  1057 net.cpp:165] Memory required for data: 2347093212
I0224 09:26:55.018230  1057 layer_factory.hpp:77] Creating layer inception_4d/relu_3x3
I0224 09:26:55.018250  1057 net.cpp:100] Creating Layer inception_4d/relu_3x3
I0224 09:26:55.018263  1057 net.cpp:434] inception_4d/relu_3x3 <- inception_4d/3x3
I0224 09:26:55.018280  1057 net.cpp:395] inception_4d/relu_3x3 -> inception_4d/3x3 (in-place)
I0224 09:26:55.018296  1057 net.cpp:150] Setting up inception_4d/relu_3x3
I0224 09:26:55.018307  1057 net.cpp:157] Top shape: 50 288 14 14 (2822400)
I0224 09:26:55.018316  1057 net.cpp:165] Memory required for data: 2358382812
I0224 09:26:55.018326  1057 layer_factory.hpp:77] Creating layer inception_4d/5x5_reduce
I0224 09:26:55.018342  1057 net.cpp:100] Creating Layer inception_4d/5x5_reduce
I0224 09:26:55.018353  1057 net.cpp:434] inception_4d/5x5_reduce <- inception_4c/output_inception_4c/output_0_split_2
I0224 09:26:55.018368  1057 net.cpp:408] inception_4d/5x5_reduce -> inception_4d/5x5_reduce
I0224 09:26:55.018679  1057 net.cpp:150] Setting up inception_4d/5x5_reduce
I0224 09:26:55.018694  1057 net.cpp:157] Top shape: 50 32 14 14 (313600)
I0224 09:26:55.018702  1057 net.cpp:165] Memory required for data: 2359637212
I0224 09:26:55.018717  1057 layer_factory.hpp:77] Creating layer inception_4d/relu_5x5_reduce
I0224 09:26:55.018730  1057 net.cpp:100] Creating Layer inception_4d/relu_5x5_reduce
I0224 09:26:55.018740  1057 net.cpp:434] inception_4d/relu_5x5_reduce <- inception_4d/5x5_reduce
I0224 09:26:55.018753  1057 net.cpp:395] inception_4d/relu_5x5_reduce -> inception_4d/5x5_reduce (in-place)
I0224 09:26:55.018766  1057 net.cpp:150] Setting up inception_4d/relu_5x5_reduce
I0224 09:26:55.018777  1057 net.cpp:157] Top shape: 50 32 14 14 (313600)
I0224 09:26:55.018786  1057 net.cpp:165] Memory required for data: 2360891612
I0224 09:26:55.018796  1057 layer_factory.hpp:77] Creating layer inception_4d/5x5
I0224 09:26:55.018815  1057 net.cpp:100] Creating Layer inception_4d/5x5
I0224 09:26:55.018824  1057 net.cpp:434] inception_4d/5x5 <- inception_4d/5x5_reduce
I0224 09:26:55.018841  1057 net.cpp:408] inception_4d/5x5 -> inception_4d/5x5
I0224 09:26:55.019788  1057 net.cpp:150] Setting up inception_4d/5x5
I0224 09:26:55.019804  1057 net.cpp:157] Top shape: 50 64 14 14 (627200)
I0224 09:26:55.019814  1057 net.cpp:165] Memory required for data: 2363400412
I0224 09:26:55.019829  1057 layer_factory.hpp:77] Creating layer inception_4d/relu_5x5
I0224 09:26:55.019840  1057 net.cpp:100] Creating Layer inception_4d/relu_5x5
I0224 09:26:55.019850  1057 net.cpp:434] inception_4d/relu_5x5 <- inception_4d/5x5
I0224 09:26:55.019865  1057 net.cpp:395] inception_4d/relu_5x5 -> inception_4d/5x5 (in-place)
I0224 09:26:55.019879  1057 net.cpp:150] Setting up inception_4d/relu_5x5
I0224 09:26:55.019891  1057 net.cpp:157] Top shape: 50 64 14 14 (627200)
I0224 09:26:55.019901  1057 net.cpp:165] Memory required for data: 2365909212
I0224 09:26:55.019912  1057 layer_factory.hpp:77] Creating layer inception_4d/pool
I0224 09:26:55.019925  1057 net.cpp:100] Creating Layer inception_4d/pool
I0224 09:26:55.019937  1057 net.cpp:434] inception_4d/pool <- inception_4c/output_inception_4c/output_0_split_3
I0224 09:26:55.019950  1057 net.cpp:408] inception_4d/pool -> inception_4d/pool
I0224 09:26:55.019968  1057 net.cpp:150] Setting up inception_4d/pool
I0224 09:26:55.019979  1057 net.cpp:157] Top shape: 50 512 14 14 (5017600)
I0224 09:26:55.019989  1057 net.cpp:165] Memory required for data: 2385979612
I0224 09:26:55.019997  1057 layer_factory.hpp:77] Creating layer inception_4d/pool_proj
I0224 09:26:55.020021  1057 net.cpp:100] Creating Layer inception_4d/pool_proj
I0224 09:26:55.020042  1057 net.cpp:434] inception_4d/pool_proj <- inception_4d/pool
I0224 09:26:55.020068  1057 net.cpp:408] inception_4d/pool_proj -> inception_4d/pool_proj
I0224 09:26:55.020681  1057 net.cpp:150] Setting up inception_4d/pool_proj
I0224 09:26:55.020699  1057 net.cpp:157] Top shape: 50 64 14 14 (627200)
I0224 09:26:55.020707  1057 net.cpp:165] Memory required for data: 2388488412
I0224 09:26:55.020721  1057 layer_factory.hpp:77] Creating layer inception_4d/relu_pool_proj
I0224 09:26:55.020736  1057 net.cpp:100] Creating Layer inception_4d/relu_pool_proj
I0224 09:26:55.020747  1057 net.cpp:434] inception_4d/relu_pool_proj <- inception_4d/pool_proj
I0224 09:26:55.020759  1057 net.cpp:395] inception_4d/relu_pool_proj -> inception_4d/pool_proj (in-place)
I0224 09:26:55.020772  1057 net.cpp:150] Setting up inception_4d/relu_pool_proj
I0224 09:26:55.020784  1057 net.cpp:157] Top shape: 50 64 14 14 (627200)
I0224 09:26:55.020793  1057 net.cpp:165] Memory required for data: 2390997212
I0224 09:26:55.020802  1057 layer_factory.hpp:77] Creating layer inception_4d/output
I0224 09:26:55.020818  1057 net.cpp:100] Creating Layer inception_4d/output
I0224 09:26:55.020828  1057 net.cpp:434] inception_4d/output <- inception_4d/1x1
I0224 09:26:55.020839  1057 net.cpp:434] inception_4d/output <- inception_4d/3x3
I0224 09:26:55.020850  1057 net.cpp:434] inception_4d/output <- inception_4d/5x5
I0224 09:26:55.020861  1057 net.cpp:434] inception_4d/output <- inception_4d/pool_proj
I0224 09:26:55.020874  1057 net.cpp:408] inception_4d/output -> inception_4d/output
I0224 09:26:55.020890  1057 net.cpp:150] Setting up inception_4d/output
I0224 09:26:55.020902  1057 net.cpp:157] Top shape: 50 528 14 14 (5174400)
I0224 09:26:55.020911  1057 net.cpp:165] Memory required for data: 2411694812
I0224 09:26:55.020920  1057 layer_factory.hpp:77] Creating layer inception_4d/output_inception_4d/output_0_split
I0224 09:26:55.020934  1057 net.cpp:100] Creating Layer inception_4d/output_inception_4d/output_0_split
I0224 09:26:55.020943  1057 net.cpp:434] inception_4d/output_inception_4d/output_0_split <- inception_4d/output
I0224 09:26:55.020959  1057 net.cpp:408] inception_4d/output_inception_4d/output_0_split -> inception_4d/output_inception_4d/output_0_split_0
I0224 09:26:55.020975  1057 net.cpp:408] inception_4d/output_inception_4d/output_0_split -> inception_4d/output_inception_4d/output_0_split_1
I0224 09:26:55.020990  1057 net.cpp:408] inception_4d/output_inception_4d/output_0_split -> inception_4d/output_inception_4d/output_0_split_2
I0224 09:26:55.021005  1057 net.cpp:408] inception_4d/output_inception_4d/output_0_split -> inception_4d/output_inception_4d/output_0_split_3
I0224 09:26:55.021023  1057 net.cpp:408] inception_4d/output_inception_4d/output_0_split -> inception_4d/output_inception_4d/output_0_split_4
I0224 09:26:55.021040  1057 net.cpp:150] Setting up inception_4d/output_inception_4d/output_0_split
I0224 09:26:55.021052  1057 net.cpp:157] Top shape: 50 528 14 14 (5174400)
I0224 09:26:55.021064  1057 net.cpp:157] Top shape: 50 528 14 14 (5174400)
I0224 09:26:55.021075  1057 net.cpp:157] Top shape: 50 528 14 14 (5174400)
I0224 09:26:55.021086  1057 net.cpp:157] Top shape: 50 528 14 14 (5174400)
I0224 09:26:55.021097  1057 net.cpp:157] Top shape: 50 528 14 14 (5174400)
I0224 09:26:55.021106  1057 net.cpp:165] Memory required for data: 2515182812
I0224 09:26:55.021116  1057 layer_factory.hpp:77] Creating layer loss2/ave_pool
I0224 09:26:55.021127  1057 net.cpp:100] Creating Layer loss2/ave_pool
I0224 09:26:55.021137  1057 net.cpp:434] loss2/ave_pool <- inception_4d/output_inception_4d/output_0_split_0
I0224 09:26:55.021153  1057 net.cpp:408] loss2/ave_pool -> loss2/ave_pool
I0224 09:26:55.021169  1057 net.cpp:150] Setting up loss2/ave_pool
I0224 09:26:55.021183  1057 net.cpp:157] Top shape: 50 528 4 4 (422400)
I0224 09:26:55.021190  1057 net.cpp:165] Memory required for data: 2516872412
I0224 09:26:55.021206  1057 layer_factory.hpp:77] Creating layer loss2/conv
I0224 09:26:55.021227  1057 net.cpp:100] Creating Layer loss2/conv
I0224 09:26:55.021250  1057 net.cpp:434] loss2/conv <- loss2/ave_pool
I0224 09:26:55.021278  1057 net.cpp:408] loss2/conv -> loss2/conv
I0224 09:26:55.022512  1057 net.cpp:150] Setting up loss2/conv
I0224 09:26:55.022532  1057 net.cpp:157] Top shape: 50 128 4 4 (102400)
I0224 09:26:55.022541  1057 net.cpp:165] Memory required for data: 2517282012
I0224 09:26:55.022555  1057 layer_factory.hpp:77] Creating layer loss2/relu_conv
I0224 09:26:55.022572  1057 net.cpp:100] Creating Layer loss2/relu_conv
I0224 09:26:55.022583  1057 net.cpp:434] loss2/relu_conv <- loss2/conv
I0224 09:26:55.022598  1057 net.cpp:395] loss2/relu_conv -> loss2/conv (in-place)
I0224 09:26:55.022614  1057 net.cpp:150] Setting up loss2/relu_conv
I0224 09:26:55.022625  1057 net.cpp:157] Top shape: 50 128 4 4 (102400)
I0224 09:26:55.022634  1057 net.cpp:165] Memory required for data: 2517691612
I0224 09:26:55.022644  1057 layer_factory.hpp:77] Creating layer loss2/fc
I0224 09:26:55.022660  1057 net.cpp:100] Creating Layer loss2/fc
I0224 09:26:55.022670  1057 net.cpp:434] loss2/fc <- loss2/conv
I0224 09:26:55.022683  1057 net.cpp:408] loss2/fc -> loss2/fc
I0224 09:26:55.058949  1057 net.cpp:150] Setting up loss2/fc
I0224 09:26:55.059026  1057 net.cpp:157] Top shape: 50 1024 (51200)
I0224 09:26:55.059036  1057 net.cpp:165] Memory required for data: 2517896412
I0224 09:26:55.059056  1057 layer_factory.hpp:77] Creating layer loss2/relu_fc
I0224 09:26:55.059075  1057 net.cpp:100] Creating Layer loss2/relu_fc
I0224 09:26:55.059088  1057 net.cpp:434] loss2/relu_fc <- loss2/fc
I0224 09:26:55.059103  1057 net.cpp:395] loss2/relu_fc -> loss2/fc (in-place)
I0224 09:26:55.059123  1057 net.cpp:150] Setting up loss2/relu_fc
I0224 09:26:55.059134  1057 net.cpp:157] Top shape: 50 1024 (51200)
I0224 09:26:55.059142  1057 net.cpp:165] Memory required for data: 2518101212
I0224 09:26:55.059152  1057 layer_factory.hpp:77] Creating layer loss2/drop_fc
I0224 09:26:55.059166  1057 net.cpp:100] Creating Layer loss2/drop_fc
I0224 09:26:55.059176  1057 net.cpp:434] loss2/drop_fc <- loss2/fc
I0224 09:26:55.059191  1057 net.cpp:395] loss2/drop_fc -> loss2/fc (in-place)
I0224 09:26:55.059208  1057 net.cpp:150] Setting up loss2/drop_fc
I0224 09:26:55.059219  1057 net.cpp:157] Top shape: 50 1024 (51200)
I0224 09:26:55.059228  1057 net.cpp:165] Memory required for data: 2518306012
I0224 09:26:55.059237  1057 layer_factory.hpp:77] Creating layer loss2/classifier
I0224 09:26:55.059258  1057 net.cpp:100] Creating Layer loss2/classifier
I0224 09:26:55.059268  1057 net.cpp:434] loss2/classifier <- loss2/fc
I0224 09:26:55.059283  1057 net.cpp:408] loss2/classifier -> loss2/classifier
I0224 09:26:55.077419  1057 net.cpp:150] Setting up loss2/classifier
I0224 09:26:55.077469  1057 net.cpp:157] Top shape: 50 1000 (50000)
I0224 09:26:55.077479  1057 net.cpp:165] Memory required for data: 2518506012
I0224 09:26:55.077497  1057 layer_factory.hpp:77] Creating layer loss2/classifier_loss2/classifier_0_split
I0224 09:26:55.077518  1057 net.cpp:100] Creating Layer loss2/classifier_loss2/classifier_0_split
I0224 09:26:55.077531  1057 net.cpp:434] loss2/classifier_loss2/classifier_0_split <- loss2/classifier
I0224 09:26:55.077548  1057 net.cpp:408] loss2/classifier_loss2/classifier_0_split -> loss2/classifier_loss2/classifier_0_split_0
I0224 09:26:55.077565  1057 net.cpp:408] loss2/classifier_loss2/classifier_0_split -> loss2/classifier_loss2/classifier_0_split_1
I0224 09:26:55.077580  1057 net.cpp:408] loss2/classifier_loss2/classifier_0_split -> loss2/classifier_loss2/classifier_0_split_2
I0224 09:26:55.077597  1057 net.cpp:150] Setting up loss2/classifier_loss2/classifier_0_split
I0224 09:26:55.077610  1057 net.cpp:157] Top shape: 50 1000 (50000)
I0224 09:26:55.077620  1057 net.cpp:157] Top shape: 50 1000 (50000)
I0224 09:26:55.077631  1057 net.cpp:157] Top shape: 50 1000 (50000)
I0224 09:26:55.077641  1057 net.cpp:165] Memory required for data: 2519106012
I0224 09:26:55.077648  1057 layer_factory.hpp:77] Creating layer loss2/loss
I0224 09:26:55.077661  1057 net.cpp:100] Creating Layer loss2/loss
I0224 09:26:55.077693  1057 net.cpp:434] loss2/loss <- loss2/classifier_loss2/classifier_0_split_0
I0224 09:26:55.077724  1057 net.cpp:434] loss2/loss <- label_data_1_split_3
…
I0224 09:26:55.078232  1057 net.cpp:150] Setting up loss2/top-5
I0224 09:26:55.078250  1057 net.cpp:157] Top shape: (1)
I0224 09:26:55.078261  1057 net.cpp:165] Memory required for data: 2519106024
I0224 09:26:55.078270  1057 layer_factory.hpp:77] Creating layer inception_4e/1x1
I0224 09:26:55.078294  1057 net.cpp:100] Creating Layer inception_4e/1x1
I0224 09:26:55.078305  1057 net.cpp:434] inception_4e/1x1 <- inception_4d/output_inception_4d/output_0_split_1
I0224 09:26:55.078322  1057 net.cpp:408] inception_4e/1x1 -> inception_4e/1x1
I0224 09:26:55.080786  1057 net.cpp:150] Setting up inception_4e/1x1
I0224 09:26:55.080816  1057 net.cpp:157] Top shape: 50 256 14 14 (2508800)
I0224 09:26:55.080826  1057 net.cpp:165] Memory required for data: 2529141224
I0224 09:26:55.080840  1057 layer_factory.hpp:77] Creating layer inception_4e/relu_1x1
I0224 09:26:55.080855  1057 net.cpp:100] Creating Layer inception_4e/relu_1x1
I0224 09:26:55.080866  1057 net.cpp:434] inception_4e/relu_1x1 <- inception_4e/1x1
I0224 09:26:55.080883  1057 net.cpp:395] inception_4e/relu_1x1 -> inception_4e/1x1 (in-place)
I0224 09:26:55.080898  1057 net.cpp:150] Setting up inception_4e/relu_1x1
I0224 09:26:55.080909  1057 net.cpp:157] Top shape: 50 256 14 14 (2508800)
I0224 09:26:55.080919  1057 net.cpp:165] Memory required for data: 2539176424
I0224 09:26:55.080927  1057 layer_factory.hpp:77] Creating layer inception_4e/3x3_reduce
I0224 09:26:55.080991  1057 net.cpp:100] Creating Layer inception_4e/3x3_reduce
I0224 09:26:55.081002  1057 net.cpp:434] inception_4e/3x3_reduce <- inception_4d/output_inception_4d/output_0_split_2
I0224 09:26:55.081017  1057 net.cpp:408] inception_4e/3x3_reduce -> inception_4e/3x3_reduce
I0224 09:26:55.082568  1057 net.cpp:150] Setting up inception_4e/3x3_reduce
I0224 09:26:55.082588  1057 net.cpp:157] Top shape: 50 160 14 14 (1568000)
I0224 09:26:55.082597  1057 net.cpp:165] Memory required for data: 2545448424
I0224 09:26:55.082613  1057 layer_factory.hpp:77] Creating layer inception_4e/relu_3x3_reduce
I0224 09:26:55.082628  1057 net.cpp:100] Creating Layer inception_4e/relu_3x3_reduce
I0224 09:26:55.082638  1057 net.cpp:434] inception_4e/relu_3x3_reduce <- inception_4e/3x3_reduce
I0224 09:26:55.082655  1057 net.cpp:395] inception_4e/relu_3x3_reduce -> inception_4e/3x3_reduce (in-place)
I0224 09:26:55.082670  1057 net.cpp:150] Setting up inception_4e/relu_3x3_reduce
I0224 09:26:55.082682  1057 net.cpp:157] Top shape: 50 160 14 14 (1568000)
I0224 09:26:55.082691  1057 net.cpp:165] Memory required for data: 2551720424
I0224 09:26:55.082726  1057 layer_factory.hpp:77] Creating layer inception_4e/3x3
I0224 09:26:55.082742  1057 net.cpp:100] Creating Layer inception_4e/3x3
I0224 09:26:55.082752  1057 net.cpp:434] inception_4e/3x3 <- inception_4e/3x3_reduce
I0224 09:26:55.082765  1057 net.cpp:408] inception_4e/3x3 -> inception_4e/3x3
I0224 09:26:55.091063  1057 net.cpp:150] Setting up inception_4e/3x3
I0224 09:26:55.091095  1057 net.cpp:157] Top shape: 50 320 14 14 (3136000)
I0224 09:26:55.091105  1057 net.cpp:165] Memory required for data: 2564264424
I0224 09:26:55.091120  1057 layer_factory.hpp:77] Creating layer inception_4e/relu_3x3
I0224 09:26:55.091135  1057 net.cpp:100] Creating Layer inception_4e/relu_3x3
I0224 09:26:55.091147  1057 net.cpp:434] inception_4e/relu_3x3 <- inception_4e/3x3
I0224 09:26:55.091161  1057 net.cpp:395] inception_4e/relu_3x3 -> inception_4e/3x3 (in-place)
I0224 09:26:55.091176  1057 net.cpp:150] Setting up inception_4e/relu_3x3
I0224 09:26:55.091187  1057 net.cpp:157] Top shape: 50 320 14 14 (3136000)
I0224 09:26:55.091197  1057 net.cpp:165] Memory required for data: 2576808424
I0224 09:26:55.091205  1057 layer_factory.hpp:77] Creating layer inception_4e/5x5_reduce
I0224 09:26:55.091225  1057 net.cpp:100] Creating Layer inception_4e/5x5_reduce
I0224 09:26:55.091236  1057 net.cpp:434] inception_4e/5x5_reduce <- inception_4d/output_inception_4d/output_0_split_3
I0224 09:26:55.091255  1057 net.cpp:408] inception_4e/5x5_reduce -> inception_4e/5x5_reduce
I0224 09:26:55.091588  1057 net.cpp:150] Setting up inception_4e/5x5_reduce
I0224 09:26:55.091601  1057 net.cpp:157] Top shape: 50 32 14 14 (313600)
I0224 09:26:55.091609  1057 net.cpp:165] Memory required for data: 2578062824
I0224 09:26:55.091624  1057 layer_factory.hpp:77] Creating layer inception_4e/relu_5x5_reduce
I0224 09:26:55.091639  1057 net.cpp:100] Creating Layer inception_4e/relu_5x5_reduce
I0224 09:26:55.091648  1057 net.cpp:434] inception_4e/relu_5x5_reduce <- inception_4e/5x5_reduce
I0224 09:26:55.091660  1057 net.cpp:395] inception_4e/relu_5x5_reduce -> inception_4e/5x5_reduce (in-place)
I0224 09:26:55.091673  1057 net.cpp:150] Setting up inception_4e/relu_5x5_reduce
I0224 09:26:55.091686  1057 net.cpp:157] Top shape: 50 32 14 14 (313600)
I0224 09:26:55.091694  1057 net.cpp:165] Memory required for data: 2579317224
I0224 09:26:55.091703  1057 layer_factory.hpp:77] Creating layer inception_4e/5x5
I0224 09:26:55.091722  1057 net.cpp:100] Creating Layer inception_4e/5x5
I0224 09:26:55.091732  1057 net.cpp:434] inception_4e/5x5 <- inception_4e/5x5_reduce
I0224 09:26:55.091747  1057 net.cpp:408] inception_4e/5x5 -> inception_4e/5x5
I0224 09:26:55.093585  1057 net.cpp:150] Setting up inception_4e/5x5
I0224 09:26:55.093610  1057 net.cpp:157] Top shape: 50 128 14 14 (1254400)
I0224 09:26:55.093618  1057 net.cpp:165] Memory required for data: 2584334824
I0224 09:26:55.093633  1057 layer_factory.hpp:77] Creating layer inception_4e/relu_5x5
I0224 09:26:55.093647  1057 net.cpp:100] Creating Layer inception_4e/relu_5x5
I0224 09:26:55.093658  1057 net.cpp:434] inception_4e/relu_5x5 <- inception_4e/5x5
I0224 09:26:55.093675  1057 net.cpp:395] inception_4e/relu_5x5 -> inception_4e/5x5 (in-place)
I0224 09:26:55.093690  1057 net.cpp:150] Setting up inception_4e/relu_5x5
I0224 09:26:55.093703  1057 net.cpp:157] Top shape: 50 128 14 14 (1254400)
I0224 09:26:55.093711  1057 net.cpp:165] Memory required for data: 2589352424
I0224 09:26:55.093721  1057 layer_factory.hpp:77] Creating layer inception_4e/pool
I0224 09:26:55.093734  1057 net.cpp:100] Creating Layer inception_4e/pool
I0224 09:26:55.093744  1057 net.cpp:434] inception_4e/pool <- inception_4d/output_inception_4d/output_0_split_4
I0224 09:26:55.093760  1057 net.cpp:408] inception_4e/pool -> inception_4e/pool
I0224 09:26:55.093781  1057 net.cpp:150] Setting up inception_4e/pool
I0224 09:26:55.093793  1057 net.cpp:157] Top shape: 50 528 14 14 (5174400)
I0224 09:26:55.093802  1057 net.cpp:165] Memory required for data: 2610050024
I0224 09:26:55.093812  1057 layer_factory.hpp:77] Creating layer inception_4e/pool_proj
I0224 09:26:55.093852  1057 net.cpp:100] Creating Layer inception_4e/pool_proj
I0224 09:26:55.093863  1057 net.cpp:434] inception_4e/pool_proj <- inception_4e/pool
I0224 09:26:55.093878  1057 net.cpp:408] inception_4e/pool_proj -> inception_4e/pool_proj
I0224 09:26:55.095116  1057 net.cpp:150] Setting up inception_4e/pool_proj
I0224 09:26:55.095136  1057 net.cpp:157] Top shape: 50 128 14 14 (1254400)
I0224 09:26:55.095145  1057 net.cpp:165] Memory required for data: 2615067624
I0224 09:26:55.095160  1057 layer_factory.hpp:77] Creating layer inception_4e/relu_pool_proj
I0224 09:26:55.095175  1057 net.cpp:100] Creating Layer inception_4e/relu_pool_proj
I0224 09:26:55.095186  1057 net.cpp:434] inception_4e/relu_pool_proj <- inception_4e/pool_proj
I0224 09:26:55.095201  1057 net.cpp:395] inception_4e/relu_pool_proj -> inception_4e/pool_proj (in-place)
I0224 09:26:55.095216  1057 net.cpp:150] Setting up inception_4e/relu_pool_proj
I0224 09:26:55.095228  1057 net.cpp:157] Top shape: 50 128 14 14 (1254400)
I0224 09:26:55.095237  1057 net.cpp:165] Memory required for data: 2620085224
I0224 09:26:55.095253  1057 layer_factory.hpp:77] Creating layer inception_4e/output
I0224 09:26:55.095266  1057 net.cpp:100] Creating Layer inception_4e/output
I0224 09:26:55.095276  1057 net.cpp:434] inception_4e/output <- inception_4e/1x1
I0224 09:26:55.095288  1057 net.cpp:434] inception_4e/output <- inception_4e/3x3
I0224 09:26:55.095299  1057 net.cpp:434] inception_4e/output <- inception_4e/5x5
I0224 09:26:55.095310  1057 net.cpp:434] inception_4e/output <- inception_4e/pool_proj
I0224 09:26:55.095324  1057 net.cpp:408] inception_4e/output -> inception_4e/output
I0224 09:26:55.095341  1057 net.cpp:150] Setting up inception_4e/output
I0224 09:26:55.095353  1057 net.cpp:157] Top shape: 50 832 14 14 (8153600)
I0224 09:26:55.095362  1057 net.cpp:165] Memory required for data: 2652699624
I0224 09:26:55.095371  1057 layer_factory.hpp:77] Creating layer pool4/3x3_s2
I0224 09:26:55.095387  1057 net.cpp:100] Creating Layer pool4/3x3_s2
I0224 09:26:55.095397  1057 net.cpp:434] pool4/3x3_s2 <- inception_4e/output
I0224 09:26:55.095412  1057 net.cpp:408] pool4/3x3_s2 -> pool4/3x3_s2
I0224 09:26:55.095430  1057 net.cpp:150] Setting up pool4/3x3_s2
I0224 09:26:55.095443  1057 net.cpp:157] Top shape: 50 832 7 7 (2038400)
I0224 09:26:55.095451  1057 net.cpp:165] Memory required for data: 2660853224
I0224 09:26:55.095460  1057 layer_factory.hpp:77] Creating layer pool4/3x3_s2_pool4/3x3_s2_0_split
I0224 09:26:55.095474  1057 net.cpp:100] Creating Layer pool4/3x3_s2_pool4/3x3_s2_0_split
I0224 09:26:55.095484  1057 net.cpp:434] pool4/3x3_s2_pool4/3x3_s2_0_split <- pool4/3x3_s2
I0224 09:26:55.095496  1057 net.cpp:408] pool4/3x3_s2_pool4/3x3_s2_0_split -> pool4/3x3_s2_pool4/3x3_s2_0_split_0
I0224 09:26:55.095510  1057 net.cpp:408] pool4/3x3_s2_pool4/3x3_s2_0_split -> pool4/3x3_s2_pool4/3x3_s2_0_split_1
I0224 09:26:55.095531  1057 net.cpp:408] pool4/3x3_s2_pool4/3x3_s2_0_split -> pool4/3x3_s2_pool4/3x3_s2_0_split_2
I0224 09:26:55.095571  1057 net.cpp:408] pool4/3x3_s2_pool4/3x3_s2_0_split -> pool4/3x3_s2_pool4/3x3_s2_0_split_3
I0224 09:26:55.095588  1057 net.cpp:150] Setting up pool4/3x3_s2_pool4/3x3_s2_0_split
I0224 09:26:55.095600  1057 net.cpp:157] Top shape: 50 832 7 7 (2038400)
I0224 09:26:55.095613  1057 net.cpp:157] Top shape: 50 832 7 7 (2038400)
I0224 09:26:55.095628  1057 net.cpp:157] Top shape: 50 832 7 7 (2038400)
I0224 09:26:55.095639  1057 net.cpp:157] Top shape: 50 832 7 7 (2038400)
I0224 09:26:55.095649  1057 net.cpp:165] Memory required for data: 2693467624
I0224 09:26:55.095657  1057 layer_factory.hpp:77] Creating layer inception_5a/1x1
I0224 09:26:55.095674  1057 net.cpp:100] Creating Layer inception_5a/1x1
I0224 09:26:55.095685  1057 net.cpp:434] inception_5a/1x1 <- pool4/3x3_s2_pool4/3x3_s2_0_split_0
I0224 09:26:55.095701  1057 net.cpp:408] inception_5a/1x1 -> inception_5a/1x1
I0224 09:26:55.099436  1057 net.cpp:150] Setting up inception_5a/1x1
I0224 09:26:55.099465  1057 net.cpp:157] Top shape: 50 256 7 7 (627200)
I0224 09:26:55.099483  1057 net.cpp:165] Memory required for data: 2695976424
I0224 09:26:55.099514  1057 layer_factory.hpp:77] Creating layer inception_5a/relu_1x1
I0224 09:26:55.099529  1057 net.cpp:100] Creating Layer inception_5a/relu_1x1
I0224 09:26:55.099539  1057 net.cpp:434] inception_5a/relu_1x1 <- inception_5a/1x1
I0224 09:26:55.099552  1057 net.cpp:395] inception_5a/relu_1x1 -> inception_5a/1x1 (in-place)
I0224 09:26:55.099566  1057 net.cpp:150] Setting up inception_5a/relu_1x1
I0224 09:26:55.099578  1057 net.cpp:157] Top shape: 50 256 7 7 (627200)
I0224 09:26:55.099591  1057 net.cpp:165] Memory required for data: 2698485224
I0224 09:26:55.099601  1057 layer_factory.hpp:77] Creating layer inception_5a/3x3_reduce
I0224 09:26:55.099617  1057 net.cpp:100] Creating Layer inception_5a/3x3_reduce
I0224 09:26:55.099627  1057 net.cpp:434] inception_5a/3x3_reduce <- pool4/3x3_s2_pool4/3x3_s2_0_split_1
I0224 09:26:55.099643  1057 net.cpp:408] inception_5a/3x3_reduce -> inception_5a/3x3_reduce
I0224 09:26:55.102020  1057 net.cpp:150] Setting up inception_5a/3x3_reduce
I0224 09:26:55.102049  1057 net.cpp:157] Top shape: 50 160 7 7 (392000)
I0224 09:26:55.102058  1057 net.cpp:165] Memory required for data: 2700053224
I0224 09:26:55.102073  1057 layer_factory.hpp:77] Creating layer inception_5a/relu_3x3_reduce
I0224 09:26:55.102087  1057 net.cpp:100] Creating Layer inception_5a/relu_3x3_reduce
I0224 09:26:55.102098  1057 net.cpp:434] inception_5a/relu_3x3_reduce <- inception_5a/3x3_reduce
I0224 09:26:55.102111  1057 net.cpp:395] inception_5a/relu_3x3_reduce -> inception_5a/3x3_reduce (in-place)
I0224 09:26:55.102126  1057 net.cpp:150] Setting up inception_5a/relu_3x3_reduce
I0224 09:26:55.102138  1057 net.cpp:157] Top shape: 50 160 7 7 (392000)
I0224 09:26:55.102147  1057 net.cpp:165] Memory required for data: 2701621224
I0224 09:26:55.102156  1057 layer_factory.hpp:77] Creating layer inception_5a/3x3
I0224 09:26:55.102176  1057 net.cpp:100] Creating Layer inception_5a/3x3
I0224 09:26:55.102186  1057 net.cpp:434] inception_5a/3x3 <- inception_5a/3x3_reduce
I0224 09:26:55.102200  1057 net.cpp:408] inception_5a/3x3 -> inception_5a/3x3
I0224 09:26:55.110429  1057 net.cpp:150] Setting up inception_5a/3x3
I0224 09:26:55.110461  1057 net.cpp:157] Top shape: 50 320 7 7 (784000)
I0224 09:26:55.110471  1057 net.cpp:165] Memory required for data: 2704757224
I0224 09:26:55.110486  1057 layer_factory.hpp:77] Creating layer inception_5a/relu_3x3
I0224 09:26:55.110502  1057 net.cpp:100] Creating Layer inception_5a/relu_3x3
I0224 09:26:55.110512  1057 net.cpp:434] inception_5a/relu_3x3 <- inception_5a/3x3
I0224 09:26:55.110527  1057 net.cpp:395] inception_5a/relu_3x3 -> inception_5a/3x3 (in-place)
I0224 09:26:55.110541  1057 net.cpp:150] Setting up inception_5a/relu_3x3
I0224 09:26:55.110553  1057 net.cpp:157] Top shape: 50 320 7 7 (784000)
I0224 09:26:55.110563  1057 net.cpp:165] Memory required for data: 2707893224
I0224 09:26:55.110571  1057 layer_factory.hpp:77] Creating layer inception_5a/5x5_reduce
I0224 09:26:55.110591  1057 net.cpp:100] Creating Layer inception_5a/5x5_reduce
I0224 09:26:55.110602  1057 net.cpp:434] inception_5a/5x5_reduce <- pool4/3x3_s2_pool4/3x3_s2_0_split_2
I0224 09:26:55.110616  1057 net.cpp:408] inception_5a/5x5_reduce -> inception_5a/5x5_reduce
I0224 09:26:55.111111  1057 net.cpp:150] Setting up inception_5a/5x5_reduce
I0224 09:26:55.111125  1057 net.cpp:157] Top shape: 50 32 7 7 (78400)
I0224 09:26:55.111135  1057 net.cpp:165] Memory required for data: 2708206824
I0224 09:26:55.111147  1057 layer_factory.hpp:77] Creating layer inception_5a/relu_5x5_reduce
I0224 09:26:55.111160  1057 net.cpp:100] Creating Layer inception_5a/relu_5x5_reduce
I0224 09:26:55.111169  1057 net.cpp:434] inception_5a/relu_5x5_reduce <- inception_5a/5x5_reduce
I0224 09:26:55.111184  1057 net.cpp:395] inception_5a/relu_5x5_reduce -> inception_5a/5x5_reduce (in-place)
I0224 09:26:55.111198  1057 net.cpp:150] Setting up inception_5a/relu_5x5_reduce
I0224 09:26:55.111210  1057 net.cpp:157] Top shape: 50 32 7 7 (78400)
I0224 09:26:55.111230  1057 net.cpp:165] Memory required for data: 2708520424
I0224 09:26:55.111260  1057 layer_factory.hpp:77] Creating layer inception_5a/5x5
I0224 09:26:55.111279  1057 net.cpp:100] Creating Layer inception_5a/5x5
I0224 09:26:55.111290  1057 net.cpp:434] inception_5a/5x5 <- inception_5a/5x5_reduce
I0224 09:26:55.111304  1057 net.cpp:408] inception_5a/5x5 -> inception_5a/5x5
I0224 09:26:55.113168  1057 net.cpp:150] Setting up inception_5a/5x5
I0224 09:26:55.113194  1057 net.cpp:157] Top shape: 50 128 7 7 (313600)
I0224 09:26:55.113204  1057 net.cpp:165] Memory required for data: 2709774824
I0224 09:26:55.113219  1057 layer_factory.hpp:77] Creating layer inception_5a/relu_5x5
I0224 09:26:55.113234  1057 net.cpp:100] Creating Layer inception_5a/relu_5x5
I0224 09:26:55.113250  1057 net.cpp:434] inception_5a/relu_5x5 <- inception_5a/5x5
I0224 09:26:55.113270  1057 net.cpp:395] inception_5a/relu_5x5 -> inception_5a/5x5 (in-place)
I0224 09:26:55.113286  1057 net.cpp:150] Setting up inception_5a/relu_5x5
I0224 09:26:55.113297  1057 net.cpp:157] Top shape: 50 128 7 7 (313600)
I0224 09:26:55.113306  1057 net.cpp:165] Memory required for data: 2711029224
I0224 09:26:55.113317  1057 layer_factory.hpp:77] Creating layer inception_5a/pool
I0224 09:26:55.113329  1057 net.cpp:100] Creating Layer inception_5a/pool
I0224 09:26:55.113340  1057 net.cpp:434] inception_5a/pool <- pool4/3x3_s2_pool4/3x3_s2_0_split_3
I0224 09:26:55.113356  1057 net.cpp:408] inception_5a/pool -> inception_5a/pool
I0224 09:26:55.113376  1057 net.cpp:150] Setting up inception_5a/pool
I0224 09:26:55.113389  1057 net.cpp:157] Top shape: 50 832 7 7 (2038400)
I0224 09:26:55.113399  1057 net.cpp:165] Memory required for data: 2719182824
I0224 09:26:55.113407  1057 layer_factory.hpp:77] Creating layer inception_5a/pool_proj
I0224 09:26:55.113426  1057 net.cpp:100] Creating Layer inception_5a/pool_proj
I0224 09:26:55.113436  1057 net.cpp:434] inception_5a/pool_proj <- inception_5a/pool
I0224 09:26:55.113453  1057 net.cpp:408] inception_5a/pool_proj -> inception_5a/pool_proj
I0224 09:26:55.115392  1057 net.cpp:150] Setting up inception_5a/pool_proj
I0224 09:26:55.115423  1057 net.cpp:157] Top shape: 50 128 7 7 (313600)
I0224 09:26:55.115433  1057 net.cpp:165] Memory required for data: 2720437224
I0224 09:26:55.115448  1057 layer_factory.hpp:77] Creating layer inception_5a/relu_pool_proj
I0224 09:26:55.115463  1057 net.cpp:100] Creating Layer inception_5a/relu_pool_proj
I0224 09:26:55.115473  1057 net.cpp:434] inception_5a/relu_pool_proj <- inception_5a/pool_proj
I0224 09:26:55.115486  1057 net.cpp:395] inception_5a/relu_pool_proj -> inception_5a/pool_proj (in-place)
I0224 09:26:55.115501  1057 net.cpp:150] Setting up inception_5a/relu_pool_proj
I0224 09:26:55.115514  1057 net.cpp:157] Top shape: 50 128 7 7 (313600)
I0224 09:26:55.115522  1057 net.cpp:165] Memory required for data: 2721691624
I0224 09:26:55.115531  1057 layer_factory.hpp:77] Creating layer inception_5a/output
I0224 09:26:55.115545  1057 net.cpp:100] Creating Layer inception_5a/output
I0224 09:26:55.115555  1057 net.cpp:434] inception_5a/output <- inception_5a/1x1
I0224 09:26:55.115566  1057 net.cpp:434] inception_5a/output <- inception_5a/3x3
I0224 09:26:55.115577  1057 net.cpp:434] inception_5a/output <- inception_5a/5x5
I0224 09:26:55.115588  1057 net.cpp:434] inception_5a/output <- inception_5a/pool_proj
I0224 09:26:55.115604  1057 net.cpp:408] inception_5a/output -> inception_5a/output
I0224 09:26:55.115622  1057 net.cpp:150] Setting up inception_5a/output
I0224 09:26:55.115634  1057 net.cpp:157] Top shape: 50 832 7 7 (2038400)
I0224 09:26:55.115643  1057 net.cpp:165] Memory required for data: 2729845224
I0224 09:26:55.115653  1057 layer_factory.hpp:77] Creating layer inception_5a/output_inception_5a/output_0_split
I0224 09:26:55.115665  1057 net.cpp:100] Creating Layer inception_5a/output_inception_5a/output_0_split
I0224 09:26:55.115675  1057 net.cpp:434] inception_5a/output_inception_5a/output_0_split <- inception_5a/output
I0224 09:26:55.115691  1057 net.cpp:408] inception_5a/output_inception_5a/output_0_split -> inception_5a/output_inception_5a/output_0_split_0
I0224 09:26:55.115727  1057 net.cpp:408] inception_5a/output_inception_5a/output_0_split -> inception_5a/output_inception_5a/output_0_split_1
I0224 09:26:55.115742  1057 net.cpp:408] inception_5a/output_inception_5a/output_0_split -> inception_5a/output_inception_5a/output_0_split_2
I0224 09:26:55.115758  1057 net.cpp:408] inception_5a/output_inception_5a/output_0_split -> inception_5a/output_inception_5a/output_0_split_3
I0224 09:26:55.115775  1057 net.cpp:150] Setting up inception_5a/output_inception_5a/output_0_split
I0224 09:26:55.115787  1057 net.cpp:157] Top shape: 50 832 7 7 (2038400)
I0224 09:26:55.115798  1057 net.cpp:157] Top shape: 50 832 7 7 (2038400)
I0224 09:26:55.115810  1057 net.cpp:157] Top shape: 50 832 7 7 (2038400)
I0224 09:26:55.115821  1057 net.cpp:157] Top shape: 50 832 7 7 (2038400)
I0224 09:26:55.115829  1057 net.cpp:165] Memory required for data: 2762459624
I0224 09:26:55.115839  1057 layer_factory.hpp:77] Creating layer inception_5b/1x1
I0224 09:26:55.115857  1057 net.cpp:100] Creating Layer inception_5b/1x1
I0224 09:26:55.115869  1057 net.cpp:434] inception_5b/1x1 <- inception_5a/output_inception_5a/output_0_split_0
I0224 09:26:55.115882  1057 net.cpp:408] inception_5b/1x1 -> inception_5b/1x1
I0224 09:26:55.121467  1057 net.cpp:150] Setting up inception_5b/1x1
I0224 09:26:55.121495  1057 net.cpp:157] Top shape: 50 384 7 7 (940800)
I0224 09:26:55.121505  1057 net.cpp:165] Memory required for data: 2766222824
I0224 09:26:55.121520  1057 layer_factory.hpp:77] Creating layer inception_5b/relu_1x1
I0224 09:26:55.121534  1057 net.cpp:100] Creating Layer inception_5b/relu_1x1
I0224 09:26:55.121546  1057 net.cpp:434] inception_5b/relu_1x1 <- inception_5b/1x1
I0224 09:26:55.121558  1057 net.cpp:395] inception_5b/relu_1x1 -> inception_5b/1x1 (in-place)
I0224 09:26:55.121573  1057 net.cpp:150] Setting up inception_5b/relu_1x1
I0224 09:26:55.121585  1057 net.cpp:157] Top shape: 50 384 7 7 (940800)
I0224 09:26:55.121593  1057 net.cpp:165] Memory required for data: 2769986024
I0224 09:26:55.121603  1057 layer_factory.hpp:77] Creating layer inception_5b/3x3_reduce
I0224 09:26:55.121618  1057 net.cpp:100] Creating Layer inception_5b/3x3_reduce
I0224 09:26:55.121628  1057 net.cpp:434] inception_5b/3x3_reduce <- inception_5a/output_inception_5a/output_0_split_1
I0224 09:26:55.121645  1057 net.cpp:408] inception_5b/3x3_reduce -> inception_5b/3x3_reduce
I0224 09:26:55.124476  1057 net.cpp:150] Setting up inception_5b/3x3_reduce
I0224 09:26:55.124505  1057 net.cpp:157] Top shape: 50 192 7 7 (470400)
I0224 09:26:55.124514  1057 net.cpp:165] Memory required for data: 2771867624
I0224 09:26:55.124529  1057 layer_factory.hpp:77] Creating layer inception_5b/relu_3x3_reduce
I0224 09:26:55.124543  1057 net.cpp:100] Creating Layer inception_5b/relu_3x3_reduce
I0224 09:26:55.124554  1057 net.cpp:434] inception_5b/relu_3x3_reduce <- inception_5b/3x3_reduce
I0224 09:26:55.124567  1057 net.cpp:395] inception_5b/relu_3x3_reduce -> inception_5b/3x3_reduce (in-place)
I0224 09:26:55.124583  1057 net.cpp:150] Setting up inception_5b/relu_3x3_reduce
I0224 09:26:55.124594  1057 net.cpp:157] Top shape: 50 192 7 7 (470400)
I0224 09:26:55.124603  1057 net.cpp:165] Memory required for data: 2773749224
I0224 09:26:55.124613  1057 layer_factory.hpp:77] Creating layer inception_5b/3x3
I0224 09:26:55.124631  1057 net.cpp:100] Creating Layer inception_5b/3x3
I0224 09:26:55.124641  1057 net.cpp:434] inception_5b/3x3 <- inception_5b/3x3_reduce
I0224 09:26:55.124655  1057 net.cpp:408] inception_5b/3x3 -> inception_5b/3x3
I0224 09:26:55.135900  1057 net.cpp:150] Setting up inception_5b/3x3
I0224 09:26:55.135932  1057 net.cpp:157] Top shape: 50 384 7 7 (940800)
I0224 09:26:55.135941  1057 net.cpp:165] Memory required for data: 2777512424
I0224 09:26:55.135957  1057 layer_factory.hpp:77] Creating layer inception_5b/relu_3x3
I0224 09:26:55.135972  1057 net.cpp:100] Creating Layer inception_5b/relu_3x3
I0224 09:26:55.135983  1057 net.cpp:434] inception_5b/relu_3x3 <- inception_5b/3x3
I0224 09:26:55.136014  1057 net.cpp:395] inception_5b/relu_3x3 -> inception_5b/3x3 (in-place)
I0224 09:26:55.136044  1057 net.cpp:150] Setting up inception_5b/relu_3x3
I0224 09:26:55.136056  1057 net.cpp:157] Top shape: 50 384 7 7 (940800)
I0224 09:26:55.136065  1057 net.cpp:165] Memory required for data: 2781275624
I0224 09:26:55.136073  1057 layer_factory.hpp:77] Creating layer inception_5b/5x5_reduce
I0224 09:26:55.136090  1057 net.cpp:100] Creating Layer inception_5b/5x5_reduce
I0224 09:26:55.136101  1057 net.cpp:434] inception_5b/5x5_reduce <- inception_5a/output_inception_5a/output_0_split_2
I0224 09:26:55.136116  1057 net.cpp:408] inception_5b/5x5_reduce -> inception_5b/5x5_reduce
I0224 09:26:55.136816  1057 net.cpp:150] Setting up inception_5b/5x5_reduce
I0224 09:26:55.136831  1057 net.cpp:157] Top shape: 50 48 7 7 (117600)
I0224 09:26:55.136839  1057 net.cpp:165] Memory required for data: 2781746024
I0224 09:26:55.136853  1057 layer_factory.hpp:77] Creating layer inception_5b/relu_5x5_reduce
I0224 09:26:55.136865  1057 net.cpp:100] Creating Layer inception_5b/relu_5x5_reduce
I0224 09:26:55.136875  1057 net.cpp:434] inception_5b/relu_5x5_reduce <- inception_5b/5x5_reduce
I0224 09:26:55.136890  1057 net.cpp:395] inception_5b/relu_5x5_reduce -> inception_5b/5x5_reduce (in-place)
I0224 09:26:55.136904  1057 net.cpp:150] Setting up inception_5b/relu_5x5_reduce
I0224 09:26:55.136916  1057 net.cpp:157] Top shape: 50 48 7 7 (117600)
I0224 09:26:55.136925  1057 net.cpp:165] Memory required for data: 2782216424
I0224 09:26:55.136934  1057 layer_factory.hpp:77] Creating layer inception_5b/5x5
I0224 09:26:55.136952  1057 net.cpp:100] Creating Layer inception_5b/5x5
I0224 09:26:55.136963  1057 net.cpp:434] inception_5b/5x5 <- inception_5b/5x5_reduce
I0224 09:26:55.136976  1057 net.cpp:408] inception_5b/5x5 -> inception_5b/5x5
I0224 09:26:55.139696  1057 net.cpp:150] Setting up inception_5b/5x5
I0224 09:26:55.139724  1057 net.cpp:157] Top shape: 50 128 7 7 (313600)
I0224 09:26:55.139734  1057 net.cpp:165] Memory required for data: 2783470824
I0224 09:26:55.139749  1057 layer_factory.hpp:77] Creating layer inception_5b/relu_5x5
I0224 09:26:55.139766  1057 net.cpp:100] Creating Layer inception_5b/relu_5x5
I0224 09:26:55.139778  1057 net.cpp:434] inception_5b/relu_5x5 <- inception_5b/5x5
I0224 09:26:55.139791  1057 net.cpp:395] inception_5b/relu_5x5 -> inception_5b/5x5 (in-place)
I0224 09:26:55.139806  1057 net.cpp:150] Setting up inception_5b/relu_5x5
I0224 09:26:55.139817  1057 net.cpp:157] Top shape: 50 128 7 7 (313600)
I0224 09:26:55.139827  1057 net.cpp:165] Memory required for data: 2784725224
I0224 09:26:55.139835  1057 layer_factory.hpp:77] Creating layer inception_5b/pool
I0224 09:26:55.139852  1057 net.cpp:100] Creating Layer inception_5b/pool
I0224 09:26:55.139863  1057 net.cpp:434] inception_5b/pool <- inception_5a/output_inception_5a/output_0_split_3
I0224 09:26:55.139875  1057 net.cpp:408] inception_5b/pool -> inception_5b/pool
I0224 09:26:55.139894  1057 net.cpp:150] Setting up inception_5b/pool
I0224 09:26:55.139906  1057 net.cpp:157] Top shape: 50 832 7 7 (2038400)
I0224 09:26:55.139915  1057 net.cpp:165] Memory required for data: 2792878824
I0224 09:26:55.139925  1057 layer_factory.hpp:77] Creating layer inception_5b/pool_proj
I0224 09:26:55.139943  1057 net.cpp:100] Creating Layer inception_5b/pool_proj
I0224 09:26:55.139953  1057 net.cpp:434] inception_5b/pool_proj <- inception_5b/pool
I0224 09:26:55.139969  1057 net.cpp:408] inception_5b/pool_proj -> inception_5b/pool_proj
I0224 09:26:55.141890  1057 net.cpp:150] Setting up inception_5b/pool_proj
I0224 09:26:55.141916  1057 net.cpp:157] Top shape: 50 128 7 7 (313600)
I0224 09:26:55.141924  1057 net.cpp:165] Memory required for data: 2794133224
I0224 09:26:55.141939  1057 layer_factory.hpp:77] Creating layer inception_5b/relu_pool_proj
I0224 09:26:55.141954  1057 net.cpp:100] Creating Layer inception_5b/relu_pool_proj
I0224 09:26:55.141965  1057 net.cpp:434] inception_5b/relu_pool_proj <- inception_5b/pool_proj
I0224 09:26:55.141978  1057 net.cpp:395] inception_5b/relu_pool_proj -> inception_5b/pool_proj (in-place)
I0224 09:26:55.142016  1057 net.cpp:150] Setting up inception_5b/relu_pool_proj
I0224 09:26:55.142029  1057 net.cpp:157] Top shape: 50 128 7 7 (313600)
I0224 09:26:55.142037  1057 net.cpp:165] Memory required for data: 2795387624
I0224 09:26:55.142047  1057 layer_factory.hpp:77] Creating layer inception_5b/output
I0224 09:26:55.142063  1057 net.cpp:100] Creating Layer inception_5b/output
I0224 09:26:55.142073  1057 net.cpp:434] inception_5b/output <- inception_5b/1x1
I0224 09:26:55.142086  1057 net.cpp:434] inception_5b/output <- inception_5b/3x3
I0224 09:26:55.142096  1057 net.cpp:434] inception_5b/output <- inception_5b/5x5
I0224 09:26:55.142107  1057 net.cpp:434] inception_5b/output <- inception_5b/pool_proj
I0224 09:26:55.142119  1057 net.cpp:408] inception_5b/output -> inception_5b/output
I0224 09:26:55.142140  1057 net.cpp:150] Setting up inception_5b/output
I0224 09:26:55.142153  1057 net.cpp:157] Top shape: 50 1024 7 7 (2508800)
I0224 09:26:55.142161  1057 net.cpp:165] Memory required for data: 2805422824
I0224 09:26:55.142170  1057 layer_factory.hpp:77] Creating layer pool5/7x7_s1
I0224 09:26:55.142184  1057 net.cpp:100] Creating Layer pool5/7x7_s1
I0224 09:26:55.142194  1057 net.cpp:434] pool5/7x7_s1 <- inception_5b/output
I0224 09:26:55.142206  1057 net.cpp:408] pool5/7x7_s1 -> pool5/7x7_s1
I0224 09:26:55.142222  1057 net.cpp:150] Setting up pool5/7x7_s1
I0224 09:26:55.142235  1057 net.cpp:157] Top shape: 50 1024 1 1 (51200)
I0224 09:26:55.142249  1057 net.cpp:165] Memory required for data: 2805627624
I0224 09:26:55.142261  1057 layer_factory.hpp:77] Creating layer pool5/drop_7x7_s1
I0224 09:26:55.142277  1057 net.cpp:100] Creating Layer pool5/drop_7x7_s1
I0224 09:26:55.142288  1057 net.cpp:434] pool5/drop_7x7_s1 <- pool5/7x7_s1
I0224 09:26:55.142300  1057 net.cpp:395] pool5/drop_7x7_s1 -> pool5/7x7_s1 (in-place)
I0224 09:26:55.142316  1057 net.cpp:150] Setting up pool5/drop_7x7_s1
I0224 09:26:55.142328  1057 net.cpp:157] Top shape: 50 1024 1 1 (51200)
I0224 09:26:55.142338  1057 net.cpp:165] Memory required for data: 2805832424
I0224 09:26:55.142346  1057 layer_factory.hpp:77] Creating layer loss3/classifier
I0224 09:26:55.142361  1057 net.cpp:100] Creating Layer loss3/classifier
I0224 09:26:55.142371  1057 net.cpp:434] loss3/classifier <- pool5/7x7_s1
I0224 09:26:55.142385  1057 net.cpp:408] loss3/classifier -> loss3/classifier
I0224 09:26:55.160363  1057 net.cpp:150] Setting up loss3/classifier
I0224 09:26:55.160409  1057 net.cpp:157] Top shape: 50 1000 (50000)
I0224 09:26:55.160419  1057 net.cpp:165] Memory required for data: 2806032424
I0224 09:26:55.160436  1057 layer_factory.hpp:77] Creating layer loss3/classifier_loss3/classifier_0_split
I0224 09:26:55.160454  1057 net.cpp:100] Creating Layer loss3/classifier_loss3/classifier_0_split
I0224 09:26:55.160466  1057 net.cpp:434] loss3/classifier_loss3/classifier_0_split <- loss3/classifier
I0224 09:26:55.160480  1057 net.cpp:408] loss3/classifier_loss3/classifier_0_split -> loss3/classifier_loss3/classifier_0_split_0
I0224 09:26:55.160497  1057 net.cpp:408] loss3/classifier_loss3/classifier_0_split -> loss3/classifier_loss3/classifier_0_split_1
I0224 09:26:55.160513  1057 net.cpp:408] loss3/classifier_loss3/classifier_0_split -> loss3/classifier_loss3/classifier_0_split_2
I0224 09:26:55.160531  1057 net.cpp:150] Setting up loss3/classifier_loss3/classifier_0_split
I0224 09:26:55.160542  1057 net.cpp:157] Top shape: 50 1000 (50000)
I0224 09:26:55.160552  1057 net.cpp:157] Top shape: 50 1000 (50000)
I0224 09:26:55.160563  1057 net.cpp:157] Top shape: 50 1000 (50000)
I0224 09:26:55.160571  1057 net.cpp:165] Memory required for data: 2806632424
I0224 09:26:55.160580  1057 layer_factory.hpp:77] Creating layer loss3/loss3
I0224 09:26:55.160596  1057 net.cpp:100] Creating Layer loss3/loss3
I0224 09:26:55.160606  1057 net.cpp:434] loss3/loss3 <- loss3/classifier_loss3/classifier_0_split_0
I0224 09:26:55.160619  1057 net.cpp:434] loss3/loss3 <- label_data_1_split_6
…
