…
I0224 09:53:01.328593  2097 net.cpp:322] The NetState phase (0) differed from the phase (1) specified by a rule in layer loss3/top-5
I0224 09:53:01.338865  2097 net.cpp:58] Initializing net from parameters: 
name: "GoogleNet"
state {
  phase: TRAIN
  level: 0
  stage: ""
}
layer {
  name: "data"
  type: "Data"
  top: "data"
  top: "label"
  include {
    phase: TRAIN
  }
  transform_param {
    mirror: true
    crop_size: 224
    mean_value: 104
    mean_value: 117
    mean_value: 123
  }
  data_param {
    source: "/home/user/user/LIBRARIES/caffeLibs/caffe/examples/imagenet/ilsvrc12_train_lmdb"
    batch_size: 48
    backend: LMDB
  }
}
layer {
  name: "conv1/7x7_s2"
  type: "Convolution"
  bottom: "data"
  top: "conv1/7x7_s2"
  param {
    lr_mult: 1
    decay_mult: 1
  }
  param {
    lr_mult: 2
    decay_mult: 0
  }
  convolution_param {
    num_output: 64
    pad: 3
    kernel_size: 7
    stride: 2
    weight_filler {
      type: "xavier"
    }
    bias_filler {
      type: "constant"
      value: 0.2
    }
  }
}
layer {
  name: "conv1/relu_7x7"
  type: "ReLU"
  bottom: "conv1/7x7_s2"
  top: "conv1/7x7_s2"
}
layer {
  name: "pool1/3x3_s2"
  type: "Pooling"
  bottom: "conv1/7x7_s2"
  top: "pool1/3x3_s2"
  pooling_param {
    pool: MAX
    kernel_size: 3
    stride: 2
  }
}
layer {
  name: "pool1/norm1"
  type: "LRN"
  bottom: "pool1/3x3_s2"
  top: "pool1/norm1"
  lrn_param {
    local_size: 5
    alpha: 0.0001
    beta: 0.75
  }
}
layer {
  name: "conv2/3x3_reduce"
  type: "Convolution"
  bottom: "pool1/norm1"
  top: "conv2/3x3_reduce"
  param {
    lr_mult: 1
    decay_mult: 1
  }
  param {
    lr_mult: 2
    decay_mult: 0
  }
  convolution_param {
    num_output: 64
    kernel_size: 1
    weight_filler {
      type: "xavier"
    }
    bias_filler {
      type: "constant"
      value: 0.2
    }
  }
}
layer {
  name: "conv2/relu_3x3_reduce"
  type: "ReLU"
  bottom: "conv2/3x3_reduce"
  top: "conv2/3x3_reduce"
}
layer {
  name: "conv2/3x3"
  type: "Convolution"
  bottom: "conv2/3x3_reduce"
  top: "conv2/3x3"
  param {
    lr_mult: 1
    decay_mult: 1
  }
  param {
    lr_mult: 2
    decay_mult: 0
  }
  convolution_param {
    num_output: 192
    pad: 1
    kernel_size: 3
    weight_filler {
      type: "xavier"
    }
    bias_filler {
      type: "constant"
      value: 0.2
    }
  }
}
layer {
  name: "conv2/relu_3x3"
  type: "ReLU"
  bottom: "conv2/3x3"
  top: "conv2/3x3"
}
layer {
  name: "conv2/norm2"
  type: "LRN"
  bottom: "conv2/3x3"
  top: "conv2/norm2"
  lrn_param {
    local_size: 5
    alpha: 0.0001
    beta: 0.75
  }
}
layer {
  name: "pool2/3x3_s2"
  type: "Pooling"
  bottom: "conv2/norm2"
  top: "pool2/3x3_s2"
  pooling_param {
    pool: MAX
    kernel_size: 3
    stride: 2
  }
}
layer {
  name: "inception_3a/1x1"
  type: "Convolution"
  bottom: "pool2/3x3_s2"
  top: "inception_3a/1x1"
  param {
    lr_mult: 1
    decay_mult: 1
  }
  param {
    lr_mult: 2
    decay_mult: 0
  }
  convolution_param {
    num_output: 64
    kernel_size: 1
    weight_filler {
      type: "xavier"
    }
    bias_filler {
      type: "constant"
      value: 0.2
    }
  }
}
layer {
  name: "inception_3a/relu_1x1"
  type: "ReLU"
  bottom: "inception_3a/1x1"
  top: "inception_3a/1x1"
}
layer {
  name: "inception_3a/3x3_reduce"
  type: "Convolution"
  bottom: "pool2/3x3_s2"
  top: "inception_3a/3x3_reduce"
  param {
    lr_mult: 1
    decay_mult: 1
  }
  param {
    lr_mult: 2
    decay_mult: 0
  }
  convolution_param {
    num_output: 96
    kernel_size: 1
    weight_filler {
      type: "xavier"
    }
    bias_filler {
      type: "constant"
      value: 0.2
    }
  }
}
layer {
  name: "inception_3a/relu_3x3_reduce"
  type: "ReLU"
  bottom: "inception_3a/3x3_reduce"
  top: "inception_3a/3x3_reduce"
}
layer {
  name: "inception_3a/3x3"
  type: "Convolution"
  bottom: "inception_3a/3x3_reduce"
  top: "inception_3a/3x3"
  param {
    lr_mult: 1
    decay_mult: 1
  }
  param {
    lr_mult: 2
    decay_mult: 0
  }
  convolution_param {
    num_output: 128
    pad: 1
    kernel_size: 3
    weight_filler {
      type: "xavier"
    }
    bias_filler {
      type: "constant"
      value: 0.2
    }
  }
}
layer {
  name: "inception_3a/relu_3x3"
  type: "ReLU"
  bottom: "inception_3a/3x3"
  top: "inception_3a/3x3"
}
layer {
  name: "inception_3a/5x5_reduce"
  type: "Convolution"
  bottom: "pool2/3x3_s2"
  top: "inception_3a/5x5_reduce"
  param {
    lr_mult: 1
    decay_mult: 1
  }
  param {
    lr_mult: 2
    decay_mult: 0
  }
  convolution_param {
    num_output: 16
    kernel_size: 1
    weight_filler {
      type: "xavier"
    }
    bias_filler {
      type: "constant"
      value: 0.2
    }
  }
}
layer {
  name: "inception_3a/relu_5x5_reduce"
  type: "ReLU"
  bottom: "inception_3a/5x5_reduce"
  top: "inception_3a/5x5_reduce"
}
layer {
  name: "inception_3a/5x5"
  type: "Convolution"
  bottom: "inception_3a/5x5_reduce"
  top: "inception_3a/5x5"
  param {
    lr_mult: 1
    decay_mult: 1
  }
  param {
    lr_mult: 2
    decay_mult: 0
  }
  convolution_param {
    num_output: 32
    pad: 2
    kernel_size: 5
    weight_filler {
      type: "xavier"
    }
    bias_filler {
      type: "constant"
      value: 0.2
    }
  }
}
layer {
  name: "inception_3a/relu_5x5"
  type: "ReLU"
  bottom: "inception_3a/5x5"
  top: "inception_3a/5x5"
}
layer {
  name: "inception_3a/pool"
  type: "Pooling"
  bottom: "pool2/3x3_s2"
  top: "inception_3a/pool"
  pooling_param {
    pool: MAX
    kernel_size: 3
    stride: 1
    pad: 1
  }
}
layer {
  name: "inception_3a/pool_proj"
  type: "Convolution"
  bottom: "inception_3a/pool"
  top: "inception_3a/pool_proj"
  param {
    lr_mult: 1
    decay_mult: 1
  }
  param {
    lr_mult: 2
    decay_mult: 0
  }
  convolution_param {
    num_output: 32
    kernel_size: 1
    weight_filler {
      type: "xavier"
    }
    bias_filler {
      type: "constant"
      value: 0.2
    }
  }
}
layer {
  name: "inception_3a/relu_pool_proj"
  type: "ReLU"
  bottom: "inception_3a/pool_proj"
  top: "inception_3a/pool_proj"
}
layer {
  name: "inception_3a/output"
  type: "Concat"
  bottom: "inception_3a/1x1"
  bottom: "inception_3a/3x3"
  bottom: "inception_3a/5x5"
  bottom: "inception_3a/pool_proj"
  top: "inception_3a/output"
}
layer {
  name: "inception_3b/1x1"
  type: "Convolution"
  bottom: "inception_3a/output"
  top: "inception_3b/1x1"
  param {
    lr_mult: 1
    decay_mult: 1
  }
  param {
    lr_mult: 2
    decay_mult: 0
  }
  convolution_param {
    num_output: 128
    kernel_size: 1
    weight_filler {
      type: "xavier"
    }
    bias_filler {
      type: "constant"
      value: 0.2
    }
  }
}
layer {
  name: "inception_3b/relu_1x1"
  type: "ReLU"
  bottom: "inception_3b/1x1"
  top: "inception_3b/1x1"
}
layer {
  name: "inception_3b/3x3_reduce"
  type: "Convolution"
  bottom: "inception_3a/output"
  top: "inception_3b/3x3_reduce"
  param {
    lr_mult: 1
    decay_mult: 1
  }
  param {
    lr_mult: 2
    decay_mult: 0
  }
  convolution_param {
    num_output: 128
    kernel_size: 1
    weight_filler {
      type: "xavier"
    }
    bias_filler {
      type: "constant"
      value: 0.2
    }
  }
}
layer {
  name: "inception_3b/relu_3x3_reduce"
  type: "ReLU"
  bottom: "inception_3b/3x3_reduce"
  top: "inception_3b/3x3_reduce"
}
layer {
  name: "inception_3b/3x3"
  type: "Convolution"
  bottom: "inception_3b/3x3_reduce"
  top: "inception_3b/3x3"
  param {
    lr_mult: 1
    decay_mult: 1
  }
  param {
    lr_mult: 2
    decay_mult: 0
  }
  convolution_param {
    num_output: 192
    pad: 1
    kernel_size: 3
    weight_filler {
      type: "xavier"
    }
    bias_filler {
      type: "constant"
      value: 0.2
    }
  }
}
layer {
  name: "inception_3b/relu_3x3"
  type: "ReLU"
  bottom: "inception_3b/3x3"
  top: "inception_3b/3x3"
}
layer {
  name: "inception_3b/5x5_reduce"
  type: "Convolution"
  bottom: "inception_3a/output"
  top: "inception_3b/5x5_reduce"
  param {
    lr_mult: 1
    decay_mult: 1
  }
  param {
    lr_mult: 2
    decay_mult: 0
  }
  convolution_param {
    num_output: 32
    kernel_size: 1
    weight_filler {
      type: "xavier"
    }
    bias_filler {
      type: "constant"
      value: 0.2
    }
  }
}
layer {
  name: "inception_3b/relu_5x5_reduce"
  type: "ReLU"
  bottom: "inception_3b/5x5_reduce"
  top: "inception_3b/5x5_reduce"
}
layer {
  name: "inception_3b/5x5"
  type: "Convolution"
  bottom: "inception_3b/5x5_reduce"
  top: "inception_3b/5x5"
  param {
    lr_mult: 1
    decay_mult: 1
  }
  param {
    lr_mult: 2
    decay_mult: 0
  }
  convolution_param {
    num_output: 96
    pad: 2
    kernel_size: 5
    weight_filler {
      type: "xavier"
    }
    bias_filler {
      type: "constant"
      value: 0.2
    }
  }
}
layer {
  name: "inception_3b/relu_5x5"
  type: "ReLU"
  bottom: "inception_3b/5x5"
  top: "inception_3b/5x5"
}
layer {
  name: "inception_3b/pool"
  type: "Pooling"
  bottom: "inception_3a/output"
  top: "inception_3b/pool"
  pooling_param {
    pool: MAX
    kernel_size: 3
    stride: 1
    pad: 1
  }
}
layer {
  name: "inception_3b/pool_proj"
  type: "Convolution"
  bottom: "inception_3b/pool"
  top: "inception_3b/pool_proj"
  param {
    lr_mult: 1
    decay_mult: 1
  }
  param {
    lr_mult: 2
    decay_mult: 0
  }
  convolution_param {
    num_output: 64
    kernel_size: 1
    weight_filler {
      type: "xavier"
    }
    bias_filler {
      type: "constant"
      value: 0.2
    }
  }
}
layer {
  name: "inception_3b/relu_pool_proj"
  type: "ReLU"
  bottom: "inception_3b/pool_proj"
  top: "inception_3b/pool_proj"
}
layer {
  name: "inception_3b/output"
  type: "Concat"
  bottom: "inception_3b/1x1"
  bottom: "inception_3b/3x3"
  bottom: "inception_3b/5x5"
  bottom: "inception_3b/pool_proj"
  top: "inception_3b/output"
}
layer {
  name: "pool3/3x3_s2"
  type: "Pooling"
  bottom: "inception_3b/output"
  top: "pool3/3x3_s2"
  pooling_param {
    pool: MAX
    kernel_size: 3
    stride: 2
  }
}
layer {
  name: "inception_4a/1x1"
  type: "Convolution"
  bottom: "pool3/3x3_s2"
  top: "inception_4a/1x1"
  param {
    lr_mult: 1
    decay_mult: 1
  }
  param {
    lr_mult: 2
    decay_mult: 0
  }
  convolution_param {
    num_output: 192
    kernel_size: 1
    weight_filler {
      type: "xavier"
    }
    bias_filler {
      type: "constant"
      value: 0.2
    }
  }
}
layer {
  name: "inception_4a/relu_1x1"
  type: "ReLU"
  bottom: "inception_4a/1x1"
  top: "inception_4a/1x1"
}
layer {
  name: "inception_4a/3x3_reduce"
  type: "Convolution"
  bottom: "pool3/3x3_s2"
  top: "inception_4a/3x3_reduce"
  param {
    lr_mult: 1
    decay_mult: 1
  }
  param {
    lr_mult: 2
    decay_mult: 0
  }
  convolution_param {
    num_output: 96
    kernel_size: 1
    weight_filler {
      type: "xavier"
    }
    bias_filler {
      type: "constant"
      value: 0.2
    }
  }
}
layer {
  name: "inception_4a/relu_3x3_reduce"
  type: "ReLU"
  bottom: "inception_4a/3x3_reduce"
  top: "inception_4a/3x3_reduce"
}
layer {
  name: "inception_4a/3x3"
  type: "Convolution"
  bottom: "inception_4a/3x3_reduce"
  top: "inception_4a/3x3"
  param {
    lr_mult: 1
    decay_mult: 1
  }
  param {
    lr_mult: 2
    decay_mult: 0
  }
  convolution_param {
    num_output: 208
    pad: 1
    kernel_size: 3
    weight_filler {
      type: "xavier"
    }
    bias_filler {
      type: "constant"
      value: 0.2
    }
  }
}
layer {
  name: "inception_4a/relu_3x3"
  type: "ReLU"
  bottom: "inception_4a/3x3"
  top: "inception_4a/3x3"
}
layer {
  name: "inception_4a/5x5_reduce"
  type: "Convolution"
  bottom: "pool3/3x3_s2"
  top: "inception_4a/5x5_reduce"
  param {
    lr_mult: 1
    decay_mult: 1
  }
  param {
    lr_mult: 2
    decay_mult: 0
  }
  convolution_param {
    num_output: 16
    kernel_size: 1
    weight_filler {
      type: "xavier"
    }
    bias_filler {
      type: "constant"
      value: 0.2
    }
  }
}
layer {
  name: "inception_4a/relu_5x5_reduce"
  type: "ReLU"
  bottom: "inception_4a/5x5_reduce"
  top: "inception_4a/5x5_reduce"
}
layer {
  name: "inception_4a/5x5"
  type: "Convolution"
  bottom: "inception_4a/5x5_reduce"
  top: "inception_4a/5x5"
  param {
    lr_mult: 1
    decay_mult: 1
  }
  param {
    lr_mult: 2
    decay_mult: 0
  }
  convolution_param {
    num_output: 48
    pad: 2
    kernel_size: 5
    weight_filler {
      type: "xavier"
    }
    bias_filler {
      type: "constant"
      value: 0.2
    }
  }
}
layer {
  name: "inception_4a/relu_5x5"
  type: "ReLU"
  bottom: "inception_4a/5x5"
  top: "inception_4a/5x5"
}
layer {
  name: "inception_4a/pool"
  type: "Pooling"
  bottom: "pool3/3x3_s2"
  top: "inception_4a/pool"
  pooling_param {
    pool: MAX
    kernel_size: 3
    stride: 1
    pad: 1
  }
}
layer {
  name: "inception_4a/pool_proj"
  type: "Convolution"
  bottom: "inception_4a/pool"
  top: "inception_4a/pool_proj"
  param {
    lr_mult: 1
    decay_mult: 1
  }
  param {
    lr_mult: 2
    decay_mult: 0
  }
  convolution_param {
    num_output: 64
    kernel_size: 1
    weight_filler {
      type: "xavier"
    }
    bias_filler {
      type: "constant"
      value: 0.2
    }
  }
}
layer {
  name: "inception_4a/relu_pool_proj"
  type: "ReLU"
  bottom: "inception_4a/pool_proj"
  top: "inception_4a/pool_proj"
}
layer {
  name: "inception_4a/output"
  type: "Concat"
  bottom: "inception_4a/1x1"
  bottom: "inception_4a/3x3"
  bottom: "inception_4a/5x5"
  bottom: "inception_4a/pool_proj"
  top: "inception_4a/output"
}
layer {
  name: "loss1/ave_pool"
  type: "Pooling"
  bottom: "inception_4a/output"
  top: "loss1/ave_pool"
  pooling_param {
    pool: AVE
    kernel_size: 5
    stride: 3
  }
}
layer {
  name: "loss1/conv"
  type: "Convolution"
  bottom: "loss1/ave_pool"
  top: "loss1/conv"
  param {
    lr_mult: 1
    decay_mult: 1
  }
  param {
    lr_mult: 2
    decay_mult: 0
  }
  convolution_param {
    num_output: 128
    kernel_size: 1
    weight_filler {
      type: "xavier"
    }
    bias_filler {
      type: "constant"
      value: 0.2
    }
  }
}
layer {
  name: "loss1/relu_conv"
  type: "ReLU"
  bottom: "loss1/conv"
  top: "loss1/conv"
}
layer {
  name: "loss1/fc"
  type: "InnerProduct"
  bottom: "loss1/conv"
  top: "loss1/fc"
  param {
    lr_mult: 1
    decay_mult: 1
  }
  param {
    lr_mult: 2
    decay_mult: 0
  }
  inner_product_param {
    num_output: 1024
    weight_filler {
      type: "xavier"
    }
    bias_filler {
      type: "constant"
      value: 0.2
    }
  }
}
layer {
  name: "loss1/relu_fc"
  type: "ReLU"
  bottom: "loss1/fc"
  top: "loss1/fc"
}
layer {
  name: "loss1/drop_fc"
  type: "Dropout"
  bottom: "loss1/fc"
  top: "loss1/fc"
  dropout_param {
    dropout_ratio: 0.7
  }
}
layer {
  name: "loss1/classifier"
  type: "InnerProduct"
  bottom: "loss1/fc"
  top: "loss1/classifier"
  param {
    lr_mult: 1
    decay_mult: 1
  }
  param {
    lr_mult: 2
    decay_mult: 0
  }
  inner_product_param {
    num_output: 1000
    weight_filler {
      type: "xavier"
    }
    bias_filler {
      type: "constant"
      value: 0
    }
  }
}
layer {
  name: "loss1/loss"
  type: "SoftmaxWithLoss"
  bottom: "loss1/classifier"
  bottom: "label"
  top: "loss1/loss1"
  loss_weight: 0.3
}
layer {
  name: "inception_4b/1x1"
  type: "Convolution"
  bottom: "inception_4a/output"
  top: "inception_4b/1x1"
  param {
    lr_mult: 1
    decay_mult: 1
  }
  param {
    lr_mult: 2
    decay_mult: 0
  }
  convolution_param {
    num_output: 160
    kernel_size: 1
    weight_filler {
      type: "xavier"
    }
    bias_filler {
      type: "constant"
      value: 0.2
    }
  }
}
layer {
  name: "inception_4b/relu_1x1"
  type: "ReLU"
  bottom: "inception_4b/1x1"
  top: "inception_4b/1x1"
}
layer {
  name: "inception_4b/3x3_reduce"
  type: "Convolution"
  bottom: "inception_4a/output"
  top: "inception_4b/3x3_reduce"
  param {
    lr_mult: 1
    decay_mult: 1
  }
  param {
    lr_mult: 2
    decay_mult: 0
  }
  convolution_param {
    num_output: 112
    kernel_size: 1
    weight_filler {
      type: "xavier"
    }
    bias_filler {
      type: "constant"
      value: 0.2
    }
  }
}
layer {
  name: "inception_4b/relu_3x3_reduce"
  type: "ReLU"
  bottom: "inception_4b/3x3_reduce"
  top: "inception_4b/3x3_reduce"
}
layer {
  name: "inception_4b/3x3"
  type: "Convolution"
  bottom: "inception_4b/3x3_reduce"
  top: "inception_4b/3x3"
  param {
    lr_mult: 1
    decay_mult: 1
  }
  param {
    lr_mult: 2
    decay_mult: 0
  }
  convolution_param {
    num_output: 224
    pad: 1
    kernel_size: 3
    weight_filler {
      type: "xavier"
    }
    bias_filler {
      type: "constant"
      value: 0.2
    }
  }
}
layer {
  name: "inception_4b/relu_3x3"
  type: "ReLU"
  bottom: "inception_4b/3x3"
  top: "inception_4b/3x3"
}
layer {
  name: "inception_4b/5x5_reduce"
  type: "Convolution"
  bottom: "inception_4a/output"
  top: "inception_4b/5x5_reduce"
  param {
    lr_mult: 1
    decay_mult: 1
  }
  param {
    lr_mult: 2
    decay_mult: 0
  }
  convolution_param {
    num_output: 24
    kernel_size: 1
    weight_filler {
      type: "xavier"
    }
    bias_filler {
      type: "constant"
      value: 0.2
    }
  }
}
layer {
  name: "inception_4b/relu_5x5_reduce"
  type: "ReLU"
  bottom: "inception_4b/5x5_reduce"
  top: "inception_4b/5x5_reduce"
}
layer {
  name: "inception_4b/5x5"
  type: "Convolution"
  bottom: "inception_4b/5x5_reduce"
  top: "inception_4b/5x5"
  param {
    lr_mult: 1
    decay_mult: 1
  }
  param {
    lr_mult: 2
    decay_mult: 0
  }
  convolution_param {
    num_output: 64
    pad: 2
    kernel_size: 5
    weight_filler {
      type: "xavier"
    }
    bias_filler {
      type: "constant"
      value: 0.2
    }
  }
}
layer {
  name: "inception_4b/relu_5x5"
  type: "ReLU"
  bottom: "inception_4b/5x5"
  top: "inception_4b/5x5"
}
layer {
  name: "inception_4b/pool"
  type: "Pooling"
  bottom: "inception_4a/output"
  top: "inception_4b/pool"
  pooling_param {
    pool: MAX
    kernel_size: 3
    stride: 1
    pad: 1
  }
}
layer {
  name: "inception_4b/pool_proj"
  type: "Convolution"
  bottom: "inception_4b/pool"
  top: "inception_4b/pool_proj"
  param {
    lr_mult: 1
    decay_mult: 1
  }
  param {
    lr_mult: 2
    decay_mult: 0
  }
  convolution_param {
    num_output: 64
    kernel_size: 1
    weight_filler {
      type: "xavier"
    }
    bias_filler {
      type: "constant"
      value: 0.2
    }
  }
}
layer {
  name: "inception_4b/relu_pool_proj"
  type: "ReLU"
  bottom: "inception_4b/pool_proj"
  top: "inception_4b/pool_proj"
}
layer {
  name: "inception_4b/output"
  type: "Concat"
  bottom: "inception_4b/1x1"
  bottom: "inception_4b/3x3"
  bottom: "inception_4b/5x5"
  bottom: "inception_4b/pool_proj"
  top: "inception_4b/output"
}
layer {
  name: "inception_4c/1x1"
  type: "Convolution"
  bottom: "inception_4b/output"
  top: "inception_4c/1x1"
  param {
    lr_mult: 1
    decay_mult: 1
  }
  param {
    lr_mult: 2
    decay_mult: 0
  }
  convolution_param {
    num_output: 128
    kernel_size: 1
    weight_filler {
      type: "xavier"
    }
    bias_filler {
      type: "constant"
      value: 0.2
    }
  }
}
layer {
  name: "inception_4c/relu_1x1"
  type: "ReLU"
  bottom: "inception_4c/1x1"
  top: "inception_4c/1x1"
}
layer {
  name: "inception_4c/3x3_reduce"
  type: "Convolution"
  bottom: "inception_4b/output"
  top: "inception_4c/3x3_reduce"
  param {
    lr_mult: 1
    decay_mult: 1
  }
  param {
    lr_mult: 2
    decay_mult: 0
  }
  convolution_param {
    num_output: 128
    kernel_size: 1
    weight_filler {
      type: "xavier"
    }
    bias_filler {
      type: "constant"
      value: 0.2
    }
  }
}
layer {
  name: "inception_4c/relu_3x3_reduce"
  type: "ReLU"
  bottom: "inception_4c/3x3_reduce"
  top: "inception_4c/3x3_reduce"
}
layer {
  name: "inception_4c/3x3"
  type: "Convolution"
  bottom: "inception_4c/3x3_reduce"
  top: "inception_4c/3x3"
  param {
    lr_mult: 1
    decay_mult: 1
  }
  param {
    lr_mult: 2
    decay_mult: 0
  }
  convolution_param {
    num_output: 256
    pad: 1
    kernel_size: 3
    weight_filler {
      type: "xavier"
    }
    bias_filler {
      type: "constant"
      value: 0.2
    }
  }
}
layer {
  name: "inception_4c/relu_3x3"
  type: "ReLU"
  bottom: "inception_4c/3x3"
  top: "inception_4c/3x3"
}
layer {
  name: "inception_4c/5x5_reduce"
  type: "Convolution"
  bottom: "inception_4b/output"
  top: "inception_4c/5x5_reduce"
  param {
    lr_mult: 1
    decay_mult: 1
  }
  param {
    lr_mult: 2
    decay_mult: 0
  }
  convolution_param {
    num_output: 24
    kernel_size: 1
    weight_filler {
      type: "xavier"
    }
    bias_filler {
      type: "constant"
      value: 0.2
    }
  }
}
layer {
  name: "inception_4c/relu_5x5_reduce"
  type: "ReLU"
  bottom: "inception_4c/5x5_reduce"
  top: "inception_4c/5x5_reduce"
}
layer {
  name: "inception_4c/5x5"
  type: "Convolution"
  bottom: "inception_4c/5x5_reduce"
  top: "inception_4c/5x5"
  param {
    lr_mult: 1
    decay_mult: 1
  }
  param {
    lr_mult: 2
    decay_mult: 0
  }
  convolution_param {
    num_output: 64
    pad: 2
    kernel_size: 5
    weight_filler {
      type: "xavier"
    }
    bias_filler {
      type: "constant"
      value: 0.2
    }
  }
}
layer {
  name: "inception_4c/relu_5x5"
  type: "ReLU"
  bottom: "inception_4c/5x5"
  top: "inception_4c/5x5"
}
layer {
  name: "inception_4c/pool"
  type: "Pooling"
  bottom: "inception_4b/output"
  top: "inception_4c/pool"
  pooling_param {
    pool: MAX
    kernel_size: 3
    stride: 1
    pad: 1
  }
}
layer {
  name: "inception_4c/pool_proj"
  type: "Convolution"
  bottom: "inception_4c/pool"
  top: "inception_4c/pool_proj"
  param {
    lr_mult: 1
    decay_mult: 1
  }
  param {
    lr_mult: 2
    decay_mult: 0
  }
  convolution_param {
    num_output: 64
    kernel_size: 1
    weight_filler {
      type: "xavier"
    }
    bias_filler {
      type: "constant"
      value: 0.2
    }
  }
}
layer {
  name: "inception_4c/relu_pool_proj"
  type: "ReLU"
  bottom: "inception_4c/pool_proj"
  top: "inception_4c/pool_proj"
}
layer {
  name: "inception_4c/output"
  type: "Concat"
  bottom: "inception_4c/1x1"
  bottom: "inception_4c/3x3"
  bottom: "inception_4c/5x5"
  bottom: "inception_4c/pool_proj"
  top: "inception_4c/output"
}
layer {
  name: "inception_4d/1x1"
  type: "Convolution"
  bottom: "inception_4c/output"
  top: "inception_4d/1x1"
  param {
    lr_mult: 1
    decay_mult: 1
  }
  param {
    lr_mult: 2
    decay_mult: 0
  }
  convolution_param {
    num_output: 112
    kernel_size: 1
    weight_filler {
      type: "xavier"
    }
    bias_filler {
      type: "constant"
      value: 0.2
    }
  }
}
layer {
  name: "inception_4d/relu_1x1"
  type: "ReLU"
  bottom: "inception_4d/1x1"
  top: "inception_4d/1x1"
}
layer {
  name: "inception_4d/3x3_reduce"
  type: "Convolution"
  bottom: "inception_4c/output"
  top: "inception_4d/3x3_reduce"
  param {
    lr_mult: 1
    decay_mult: 1
  }
  param {
    lr_mult: 2
    decay_mult: 0
  }
  convolution_param {
    num_output: 144
    kernel_size: 1
    weight_filler {
      type: "xavier"
    }
    bias_filler {
      type: "constant"
      value: 0.2
    }
  }
}
layer {
  name: "inception_4d/relu_3x3_reduce"
  type: "ReLU"
  bottom: "inception_4d/3x3_reduce"
  top: "inception_4d/3x3_reduce"
}
layer {
  name: "inception_4d/3x3"
  type: "Convolution"
  bottom: "inception_4d/3x3_reduce"
  top: "inception_4d/3x3"
  param {
    lr_mult: 1
    decay_mult: 1
  }
  param {
    lr_mult: 2
    decay_mult: 0
  }
  convolution_param {
    num_output: 288
    pad: 1
    kernel_size: 3
    weight_filler {
      type: "xavier"
    }
    bias_filler {
      type: "constant"
      value: 0.2
    }
  }
}
layer {
  name: "inception_4d/relu_3x3"
  type: "ReLU"
  bottom: "inception_4d/3x3"
  top: "inception_4d/3x3"
}
layer {
  name: "inception_4d/5x5_reduce"
  type: "Convolution"
  bottom: "inception_4c/output"
  top: "inception_4d/5x5_reduce"
  param {
    lr_mult: 1
    decay_mult: 1
  }
  param {
    lr_mult: 2
    decay_mult: 0
  }
  convolution_param {
    num_output: 32
    kernel_size: 1
    weight_filler {
      type: "xavier"
    }
    bias_filler {
      type: "constant"
      value: 0.2
    }
  }
}
layer {
  name: "inception_4d/relu_5x5_reduce"
  type: "ReLU"
  bottom: "inception_4d/5x5_reduce"
  top: "inception_4d/5x5_reduce"
}
layer {
  name: "inception_4d/5x5"
  type: "Convolution"
  bottom: "inception_4d/5x5_reduce"
  top: "inception_4d/5x5"
  param {
    lr_mult: 1
    decay_mult: 1
  }
  param {
    lr_mult: 2
    decay_mult: 0
  }
  convolution_param {
    num_output: 64
    pad: 2
    kernel_size: 5
    weight_filler {
      type: "xavier"
    }
    bias_filler {
      type: "constant"
      value: 0.2
    }
  }
}
layer {
  name: "inception_4d/relu_5x5"
  type: "ReLU"
  bottom: "inception_4d/5x5"
  top: "inception_4d/5x5"
}
layer {
  name: "inception_4d/pool"
  type: "Pooling"
  bottom: "inception_4c/output"
  top: "inception_4d/pool"
  pooling_param {
    pool: MAX
    kernel_size: 3
    stride: 1
    pad: 1
  }
}
layer {
  name: "inception_4d/pool_proj"
  type: "Convolution"
  bottom: "inception_4d/pool"
  top: "inception_4d/pool_proj"
  param {
    lr_mult: 1
    decay_mult: 1
  }
  param {
    lr_mult: 2
    decay_mult: 0
  }
  convolution_param {
    num_output: 64
    kernel_size: 1
    weight_filler {
      type: "xavier"
    }
    bias_filler {
      type: "constant"
      value: 0.2
    }
  }
}
layer {
  name: "inception_4d/relu_pool_proj"
  type: "ReLU"
  bottom: "inception_4d/pool_proj"
  top: "inception_4d/pool_proj"
}
layer {
  name: "inception_4d/output"
  type: "Concat"
  bottom: "inception_4d/1x1"
  bottom: "inception_4d/3x3"
  bottom: "inception_4d/5x5"
  bottom: "inception_4d/pool_proj"
  top: "inception_4d/output"
}
layer {
  name: "loss2/ave_pool"
  type: "Pooling"
  bottom: "inception_4d/output"
  top: "loss2/ave_pool"
  pooling_param {
    pool: AVE
    kernel_size: 5
    stride: 3
  }
}
layer {
  name: "loss2/conv"
  type: "Convolution"
  bottom: "loss2/ave_pool"
  top: "loss2/conv"
  param {
    lr_mult: 1
    decay_mult: 1
  }
  param {
    lr_mult: 2
    decay_mult: 0
  }
  convolution_param {
    num_output: 128
    kernel_size: 1
    weight_filler {
      type: "xavier"
    }
    bias_filler {
      type: "constant"
      value: 0.2
    }
  }
}
layer {
  name: "loss2/relu_conv"
  type: "ReLU"
  bottom: "loss2/conv"
  top: "loss2/conv"
}
layer {
  name: "loss2/fc"
  type: "InnerProduct"
  bottom: "loss2/conv"
  top: "loss2/fc"
  param {
    lr_mult: 1
    decay_mult: 1
  }
  param {
    lr_mult: 2
    decay_mult: 0
  }
  inner_product_param {
    num_output: 1024
    weight_filler {
      type: "xavier"
    }
    bias_filler {
      type: "constant"
      value: 0.2
    }
  }
}
layer {
  name: "loss2/relu_fc"
  type: "ReLU"
  bottom: "loss2/fc"
  top: "loss2/fc"
}
layer {
  name: "loss2/drop_fc"
  type: "Dropout"
  bottom: "loss2/fc"
  top: "loss2/fc"
  dropout_param {
    dropout_ratio: 0.7
  }
}
layer {
  name: "loss2/classifier"
  type: "InnerProduct"
  bottom: "loss2/fc"
  top: "loss2/classifier"
  param {
    lr_mult: 1
    decay_mult: 1
  }
  param {
    lr_mult: 2
    decay_mult: 0
  }
  inner_product_param {
    num_output: 1000
    weight_filler {
      type: "xavier"
    }
    bias_filler {
      type: "constant"
      value: 0
    }
  }
}
layer {
  name: "loss2/loss"
  type: "SoftmaxWithLoss"
  bottom: "loss2/classifier"
  bottom: "label"
  top: "loss2/loss1"
  loss_weight: 0.3
}
layer {
  name: "inception_4e/1x1"
  type: "Convolution"
  bottom: "inception_4d/output"
  top: "inception_4e/1x1"
  param {
    lr_mult: 1
    decay_mult: 1
  }
  param {
    lr_mult: 2
    decay_mult: 0
  }
  convolution_param {
    num_output: 256
    kernel_size: 1
    weight_filler {
      type: "xavier"
    }
    bias_filler {
      type: "constant"
      value: 0.2
    }
  }
}
layer {
  name: "inception_4e/relu_1x1"
  type: "ReLU"
  bottom: "inception_4e/1x1"
  top: "inception_4e/1x1"
}
layer {
  name: "inception_4e/3x3_reduce"
  type: "Convolution"
  bottom: "inception_4d/output"
  top: "inception_4e/3x3_reduce"
  param {
    lr_mult: 1
    decay_mult: 1
  }
  param {
    lr_mult: 2
    decay_mult: 0
  }
  convolution_param {
    num_output: 160
    kernel_size: 1
    weight_filler {
      type: "xavier"
    }
    bias_filler {
      type: "constant"
      value: 0.2
    }
  }
}
layer {
  name: "inception_4e/relu_3x3_reduce"
  type: "ReLU"
  bottom: "inception_4e/3x3_reduce"
  top: "inception_4e/3x3_reduce"
}
layer {
  name: "inception_4e/3x3"
  type: "Convolution"
  bottom: "inception_4e/3x3_reduce"
  top: "inception_4e/3x3"
  param {
    lr_mult: 1
    decay_mult: 1
  }
  param {
    lr_mult: 2
    decay_mult: 0
  }
  convolution_param {
    num_output: 320
    pad: 1
    kernel_size: 3
    weight_filler {
      type: "xavier"
    }
    bias_filler {
      type: "constant"
      value: 0.2
    }
  }
}
layer {
  name: "inception_4e/relu_3x3"
  type: "ReLU"
  bottom: "inception_4e/3x3"
  top: "inception_4e/3x3"
}
layer {
  name: "inception_4e/5x5_reduce"
  type: "Convolution"
  bottom: "inception_4d/output"
  top: "inception_4e/5x5_reduce"
  param {
    lr_mult: 1
    decay_mult: 1
  }
  param {
    lr_mult: 2
    decay_mult: 0
  }
  convolution_param {
    num_output: 32
    kernel_size: 1
    weight_filler {
      type: "xavier"
    }
    bias_filler {
      type: "constant"
      value: 0.2
    }
  }
}
layer {
  name: "inception_4e/relu_5x5_reduce"
  type: "ReLU"
  bottom: "inception_4e/5x5_reduce"
  top: "inception_4e/5x5_reduce"
}
layer {
  name: "inception_4e/5x5"
  type: "Convolution"
  bottom: "inception_4e/5x5_reduce"
  top: "inception_4e/5x5"
  param {
    lr_mult: 1
    decay_mult: 1
  }
  param {
    lr_mult: 2
    decay_mult: 0
  }
  convolution_param {
    num_output: 128
    pad: 2
    kernel_size: 5
    weight_filler {
      type: "xavier"
    }
    bias_filler {
      type: "constant"
      value: 0.2
    }
  }
}
layer {
  name: "inception_4e/relu_5x5"
  type: "ReLU"
  bottom: "inception_4e/5x5"
  top: "inception_4e/5x5"
}
layer {
  name: "inception_4e/pool"
  type: "Pooling"
  bottom: "inception_4d/output"
  top: "inception_4e/pool"
I0224 09:53:01.341500  2097 layer_factory.hpp:77] Creating layer data
I0224 09:53:01.342952  2097 net.cpp:100] Creating Layer data
I0224 09:53:01.343168  2097 net.cpp:408] data -> data
I0224 09:53:01.343307  2097 net.cpp:408] data -> label
I0224 09:53:01.343533  2098 db_lmdb.cpp:35] Opened lmdb /home/user/user/LIBRARIES/caffeLibs/caffe/examples/imagenet/ilsvrc12_train_lmdb
I0224 09:53:01.344435  2097 data_layer.cpp:41] output data size: 48,3,224,224
I0224 09:53:01.407425  2097 net.cpp:150] Setting up data
I0224 09:53:01.407536  2097 net.cpp:157] Top shape: 48 3 224 224 (7225344)
I0224 09:53:01.407569  2097 net.cpp:157] Top shape: 48 (48)
I0224 09:53:01.407582  2097 net.cpp:165] Memory required for data: 28901568
I0224 09:53:01.407613  2097 layer_factory.hpp:77] Creating layer label_data_1_split
I0224 09:53:01.407688  2097 net.cpp:100] Creating Layer label_data_1_split
I0224 09:53:01.407722  2097 net.cpp:434] label_data_1_split <- label
I0224 09:53:01.407768  2097 net.cpp:408] label_data_1_split -> label_data_1_split_0
I0224 09:53:01.407795  2097 net.cpp:408] label_data_1_split -> label_data_1_split_1
I0224 09:53:01.407814  2097 net.cpp:408] label_data_1_split -> label_data_1_split_2
I0224 09:53:01.407865  2097 net.cpp:150] Setting up label_data_1_split
I0224 09:53:01.407904  2097 net.cpp:157] Top shape: 48 (48)
I0224 09:53:01.407918  2097 net.cpp:157] Top shape: 48 (48)
I0224 09:53:01.407932  2097 net.cpp:157] Top shape: 48 (48)
I0224 09:53:01.407943  2097 net.cpp:165] Memory required for data: 28902144
I0224 09:53:01.407954  2097 layer_factory.hpp:77] Creating layer conv1/7x7_s2
I0224 09:53:01.407995  2097 net.cpp:100] Creating Layer conv1/7x7_s2
I0224 09:53:01.408007  2097 net.cpp:434] conv1/7x7_s2 <- data
I0224 09:53:01.408025  2097 net.cpp:408] conv1/7x7_s2 -> conv1/7x7_s2
I0224 09:53:01.408444  2097 net.cpp:150] Setting up conv1/7x7_s2
I0224 09:53:01.408465  2097 net.cpp:157] Top shape: 48 64 112 112 (38535168)
I0224 09:53:01.408476  2097 net.cpp:165] Memory required for data: 183042816
I0224 09:53:01.408516  2097 layer_factory.hpp:77] Creating layer conv1/relu_7x7
I0224 09:53:01.408537  2097 net.cpp:100] Creating Layer conv1/relu_7x7
I0224 09:53:01.408550  2097 net.cpp:434] conv1/relu_7x7 <- conv1/7x7_s2
I0224 09:53:01.408568  2097 net.cpp:395] conv1/relu_7x7 -> conv1/7x7_s2 (in-place)
I0224 09:53:01.408589  2097 net.cpp:150] Setting up conv1/relu_7x7
I0224 09:53:01.408604  2097 net.cpp:157] Top shape: 48 64 112 112 (38535168)
I0224 09:53:01.408615  2097 net.cpp:165] Memory required for data: 337183488
I0224 09:53:01.408627  2097 layer_factory.hpp:77] Creating layer pool1/3x3_s2
I0224 09:53:01.408644  2097 net.cpp:100] Creating Layer pool1/3x3_s2
I0224 09:53:01.408656  2097 net.cpp:434] pool1/3x3_s2 <- conv1/7x7_s2
I0224 09:53:01.408676  2097 net.cpp:408] pool1/3x3_s2 -> pool1/3x3_s2
I0224 09:53:01.408722  2097 net.cpp:150] Setting up pool1/3x3_s2
I0224 09:53:01.408738  2097 net.cpp:157] Top shape: 48 64 56 56 (9633792)
I0224 09:53:01.408749  2097 net.cpp:165] Memory required for data: 375718656
I0224 09:53:01.408761  2097 layer_factory.hpp:77] Creating layer pool1/norm1
I0224 09:53:01.408782  2097 net.cpp:100] Creating Layer pool1/norm1
I0224 09:53:01.408794  2097 net.cpp:434] pool1/norm1 <- pool1/3x3_s2
I0224 09:53:01.408809  2097 net.cpp:408] pool1/norm1 -> pool1/norm1
I0224 09:53:01.408835  2097 net.cpp:150] Setting up pool1/norm1
I0224 09:53:01.408854  2097 net.cpp:157] Top shape: 48 64 56 56 (9633792)
I0224 09:53:01.408866  2097 net.cpp:165] Memory required for data: 414253824
I0224 09:53:01.408877  2097 layer_factory.hpp:77] Creating layer conv2/3x3_reduce
I0224 09:53:01.408897  2097 net.cpp:100] Creating Layer conv2/3x3_reduce
I0224 09:53:01.408910  2097 net.cpp:434] conv2/3x3_reduce <- pool1/norm1
I0224 09:53:01.408931  2097 net.cpp:408] conv2/3x3_reduce -> conv2/3x3_reduce
I0224 09:53:01.409080  2097 net.cpp:150] Setting up conv2/3x3_reduce
I0224 09:53:01.409097  2097 net.cpp:157] Top shape: 48 64 56 56 (9633792)
I0224 09:53:01.409108  2097 net.cpp:165] Memory required for data: 452788992
I0224 09:53:01.409128  2097 layer_factory.hpp:77] Creating layer conv2/relu_3x3_reduce
I0224 09:53:01.409147  2097 net.cpp:100] Creating Layer conv2/relu_3x3_reduce
I0224 09:53:01.409160  2097 net.cpp:434] conv2/relu_3x3_reduce <- conv2/3x3_reduce
I0224 09:53:01.409174  2097 net.cpp:395] conv2/relu_3x3_reduce -> conv2/3x3_reduce (in-place)
I0224 09:53:01.409191  2097 net.cpp:150] Setting up conv2/relu_3x3_reduce
I0224 09:53:01.409205  2097 net.cpp:157] Top shape: 48 64 56 56 (9633792)
I0224 09:53:01.409216  2097 net.cpp:165] Memory required for data: 491324160
I0224 09:53:01.409229  2097 layer_factory.hpp:77] Creating layer conv2/3x3
I0224 09:53:01.409260  2097 net.cpp:100] Creating Layer conv2/3x3
I0224 09:53:01.409276  2097 net.cpp:434] conv2/3x3 <- conv2/3x3_reduce
I0224 09:53:01.409296  2097 net.cpp:408] conv2/3x3 -> conv2/3x3
I0224 09:53:01.411873  2097 net.cpp:150] Setting up conv2/3x3
I0224 09:53:01.411914  2097 net.cpp:157] Top shape: 48 192 56 56 (28901376)
I0224 09:53:01.411926  2097 net.cpp:165] Memory required for data: 606929664
I0224 09:53:01.411950  2097 layer_factory.hpp:77] Creating layer conv2/relu_3x3
I0224 09:53:01.411968  2097 net.cpp:100] Creating Layer conv2/relu_3x3
I0224 09:53:01.411993  2097 net.cpp:434] conv2/relu_3x3 <- conv2/3x3
I0224 09:53:01.412025  2097 net.cpp:395] conv2/relu_3x3 -> conv2/3x3 (in-place)
I0224 09:53:01.412045  2097 net.cpp:150] Setting up conv2/relu_3x3
I0224 09:53:01.412060  2097 net.cpp:157] Top shape: 48 192 56 56 (28901376)
I0224 09:53:01.412071  2097 net.cpp:165] Memory required for data: 722535168
I0224 09:53:01.412082  2097 layer_factory.hpp:77] Creating layer conv2/norm2
I0224 09:53:01.412102  2097 net.cpp:100] Creating Layer conv2/norm2
I0224 09:53:01.412114  2097 net.cpp:434] conv2/norm2 <- conv2/3x3
I0224 09:53:01.412134  2097 net.cpp:408] conv2/norm2 -> conv2/norm2
I0224 09:53:01.412154  2097 net.cpp:150] Setting up conv2/norm2
I0224 09:53:01.412169  2097 net.cpp:157] Top shape: 48 192 56 56 (28901376)
I0224 09:53:01.412179  2097 net.cpp:165] Memory required for data: 838140672
I0224 09:53:01.412191  2097 layer_factory.hpp:77] Creating layer pool2/3x3_s2
I0224 09:53:01.412206  2097 net.cpp:100] Creating Layer pool2/3x3_s2
I0224 09:53:01.412217  2097 net.cpp:434] pool2/3x3_s2 <- conv2/norm2
I0224 09:53:01.412250  2097 net.cpp:408] pool2/3x3_s2 -> pool2/3x3_s2
I0224 09:53:01.412273  2097 net.cpp:150] Setting up pool2/3x3_s2
I0224 09:53:01.412288  2097 net.cpp:157] Top shape: 48 192 28 28 (7225344)
I0224 09:53:01.412299  2097 net.cpp:165] Memory required for data: 867042048
I0224 09:53:01.412310  2097 layer_factory.hpp:77] Creating layer pool2/3x3_s2_pool2/3x3_s2_0_split
I0224 09:53:01.412325  2097 net.cpp:100] Creating Layer pool2/3x3_s2_pool2/3x3_s2_0_split
I0224 09:53:01.412338  2097 net.cpp:434] pool2/3x3_s2_pool2/3x3_s2_0_split <- pool2/3x3_s2
I0224 09:53:01.412353  2097 net.cpp:408] pool2/3x3_s2_pool2/3x3_s2_0_split -> pool2/3x3_s2_pool2/3x3_s2_0_split_0
I0224 09:53:01.412370  2097 net.cpp:408] pool2/3x3_s2_pool2/3x3_s2_0_split -> pool2/3x3_s2_pool2/3x3_s2_0_split_1
I0224 09:53:01.412387  2097 net.cpp:408] pool2/3x3_s2_pool2/3x3_s2_0_split -> pool2/3x3_s2_pool2/3x3_s2_0_split_2
I0224 09:53:01.412405  2097 net.cpp:408] pool2/3x3_s2_pool2/3x3_s2_0_split -> pool2/3x3_s2_pool2/3x3_s2_0_split_3
I0224 09:53:01.412425  2097 net.cpp:150] Setting up pool2/3x3_s2_pool2/3x3_s2_0_split
I0224 09:53:01.412441  2097 net.cpp:157] Top shape: 48 192 28 28 (7225344)
I0224 09:53:01.412454  2097 net.cpp:157] Top shape: 48 192 28 28 (7225344)
I0224 09:53:01.412468  2097 net.cpp:157] Top shape: 48 192 28 28 (7225344)
I0224 09:53:01.412482  2097 net.cpp:157] Top shape: 48 192 28 28 (7225344)
I0224 09:53:01.412492  2097 net.cpp:165] Memory required for data: 982647552
I0224 09:53:01.412503  2097 layer_factory.hpp:77] Creating layer inception_3a/1x1
I0224 09:53:01.412528  2097 net.cpp:100] Creating Layer inception_3a/1x1
I0224 09:53:01.412540  2097 net.cpp:434] inception_3a/1x1 <- pool2/3x3_s2_pool2/3x3_s2_0_split_0
I0224 09:53:01.412557  2097 net.cpp:408] inception_3a/1x1 -> inception_3a/1x1
I0224 09:53:01.412886  2097 net.cpp:150] Setting up inception_3a/1x1
I0224 09:53:01.412905  2097 net.cpp:157] Top shape: 48 64 28 28 (2408448)
I0224 09:53:01.412916  2097 net.cpp:165] Memory required for data: 992281344
I0224 09:53:01.412933  2097 layer_factory.hpp:77] Creating layer inception_3a/relu_1x1
I0224 09:53:01.412948  2097 net.cpp:100] Creating Layer inception_3a/relu_1x1
I0224 09:53:01.412961  2097 net.cpp:434] inception_3a/relu_1x1 <- inception_3a/1x1
I0224 09:53:01.412979  2097 net.cpp:395] inception_3a/relu_1x1 -> inception_3a/1x1 (in-place)
I0224 09:53:01.412997  2097 net.cpp:150] Setting up inception_3a/relu_1x1
I0224 09:53:01.413012  2097 net.cpp:157] Top shape: 48 64 28 28 (2408448)
I0224 09:53:01.413022  2097 net.cpp:165] Memory required for data: 1001915136
I0224 09:53:01.413033  2097 layer_factory.hpp:77] Creating layer inception_3a/3x3_reduce
I0224 09:53:01.413058  2097 net.cpp:100] Creating Layer inception_3a/3x3_reduce
I0224 09:53:01.413070  2097 net.cpp:434] inception_3a/3x3_reduce <- pool2/3x3_s2_pool2/3x3_s2_0_split_1
I0224 09:53:01.413086  2097 net.cpp:408] inception_3a/3x3_reduce -> inception_3a/3x3_reduce
I0224 09:53:01.413560  2097 net.cpp:150] Setting up inception_3a/3x3_reduce
I0224 09:53:01.413594  2097 net.cpp:157] Top shape: 48 96 28 28 (3612672)
I0224 09:53:01.413620  2097 net.cpp:165] Memory required for data: 1016365824
I0224 09:53:01.413642  2097 layer_factory.hpp:77] Creating layer inception_3a/relu_3x3_reduce
I0224 09:53:01.413661  2097 net.cpp:100] Creating Layer inception_3a/relu_3x3_reduce
I0224 09:53:01.413672  2097 net.cpp:434] inception_3a/relu_3x3_reduce <- inception_3a/3x3_reduce
I0224 09:53:01.413694  2097 net.cpp:395] inception_3a/relu_3x3_reduce -> inception_3a/3x3_reduce (in-place)
I0224 09:53:01.413712  2097 net.cpp:150] Setting up inception_3a/relu_3x3_reduce
I0224 09:53:01.413727  2097 net.cpp:157] Top shape: 48 96 28 28 (3612672)
I0224 09:53:01.413738  2097 net.cpp:165] Memory required for data: 1030816512
I0224 09:53:01.413748  2097 layer_factory.hpp:77] Creating layer inception_3a/3x3
I0224 09:53:01.413770  2097 net.cpp:100] Creating Layer inception_3a/3x3
I0224 09:53:01.413782  2097 net.cpp:434] inception_3a/3x3 <- inception_3a/3x3_reduce
I0224 09:53:01.413799  2097 net.cpp:408] inception_3a/3x3 -> inception_3a/3x3
I0224 09:53:01.416455  2097 net.cpp:150] Setting up inception_3a/3x3
I0224 09:53:01.416497  2097 net.cpp:157] Top shape: 48 128 28 28 (4816896)
I0224 09:53:01.416508  2097 net.cpp:165] Memory required for data: 1050084096
I0224 09:53:01.416527  2097 layer_factory.hpp:77] Creating layer inception_3a/relu_3x3
I0224 09:53:01.416545  2097 net.cpp:100] Creating Layer inception_3a/relu_3x3
I0224 09:53:01.416558  2097 net.cpp:434] inception_3a/relu_3x3 <- inception_3a/3x3
I0224 09:53:01.416574  2097 net.cpp:395] inception_3a/relu_3x3 -> inception_3a/3x3 (in-place)
I0224 09:53:01.416594  2097 net.cpp:150] Setting up inception_3a/relu_3x3
I0224 09:53:01.416609  2097 net.cpp:157] Top shape: 48 128 28 28 (4816896)
I0224 09:53:01.416620  2097 net.cpp:165] Memory required for data: 1069351680
I0224 09:53:01.416630  2097 layer_factory.hpp:77] Creating layer inception_3a/5x5_reduce
I0224 09:53:01.416656  2097 net.cpp:100] Creating Layer inception_3a/5x5_reduce
I0224 09:53:01.416669  2097 net.cpp:434] inception_3a/5x5_reduce <- pool2/3x3_s2_pool2/3x3_s2_0_split_2
I0224 09:53:01.416690  2097 net.cpp:408] inception_3a/5x5_reduce -> inception_3a/5x5_reduce
I0224 09:53:01.416806  2097 net.cpp:150] Setting up inception_3a/5x5_reduce
I0224 09:53:01.416823  2097 net.cpp:157] Top shape: 48 16 28 28 (602112)
I0224 09:53:01.416834  2097 net.cpp:165] Memory required for data: 1071760128
I0224 09:53:01.416851  2097 layer_factory.hpp:77] Creating layer inception_3a/relu_5x5_reduce
I0224 09:53:01.416865  2097 net.cpp:100] Creating Layer inception_3a/relu_5x5_reduce
I0224 09:53:01.416877  2097 net.cpp:434] inception_3a/relu_5x5_reduce <- inception_3a/5x5_reduce
I0224 09:53:01.416901  2097 net.cpp:395] inception_3a/relu_5x5_reduce -> inception_3a/5x5_reduce (in-place)
I0224 09:53:01.416918  2097 net.cpp:150] Setting up inception_3a/relu_5x5_reduce
I0224 09:53:01.416934  2097 net.cpp:157] Top shape: 48 16 28 28 (602112)
I0224 09:53:01.416944  2097 net.cpp:165] Memory required for data: 1074168576
I0224 09:53:01.416955  2097 layer_factory.hpp:77] Creating layer inception_3a/5x5
I0224 09:53:01.416978  2097 net.cpp:100] Creating Layer inception_3a/5x5
I0224 09:53:01.416990  2097 net.cpp:434] inception_3a/5x5 <- inception_3a/5x5_reduce
I0224 09:53:01.417007  2097 net.cpp:408] inception_3a/5x5 -> inception_3a/5x5
I0224 09:53:01.417346  2097 net.cpp:150] Setting up inception_3a/5x5
I0224 09:53:01.417371  2097 net.cpp:157] Top shape: 48 32 28 28 (1204224)
I0224 09:53:01.417382  2097 net.cpp:165] Memory required for data: 1078985472
I0224 09:53:01.417398  2097 layer_factory.hpp:77] Creating layer inception_3a/relu_5x5
I0224 09:53:01.417413  2097 net.cpp:100] Creating Layer inception_3a/relu_5x5
I0224 09:53:01.417425  2097 net.cpp:434] inception_3a/relu_5x5 <- inception_3a/5x5
I0224 09:53:01.417444  2097 net.cpp:395] inception_3a/relu_5x5 -> inception_3a/5x5 (in-place)
I0224 09:53:01.417461  2097 net.cpp:150] Setting up inception_3a/relu_5x5
I0224 09:53:01.417475  2097 net.cpp:157] Top shape: 48 32 28 28 (1204224)
I0224 09:53:01.417500  2097 net.cpp:165] Memory required for data: 1083802368
I0224 09:53:01.417529  2097 layer_factory.hpp:77] Creating layer inception_3a/pool
I0224 09:53:01.417549  2097 net.cpp:100] Creating Layer inception_3a/pool
I0224 09:53:01.417563  2097 net.cpp:434] inception_3a/pool <- pool2/3x3_s2_pool2/3x3_s2_0_split_3
I0224 09:53:01.417579  2097 net.cpp:408] inception_3a/pool -> inception_3a/pool
I0224 09:53:01.417601  2097 net.cpp:150] Setting up inception_3a/pool
I0224 09:53:01.417616  2097 net.cpp:157] Top shape: 48 192 28 28 (7225344)
I0224 09:53:01.417628  2097 net.cpp:165] Memory required for data: 1112703744
I0224 09:53:01.417639  2097 layer_factory.hpp:77] Creating layer inception_3a/pool_proj
I0224 09:53:01.417661  2097 net.cpp:100] Creating Layer inception_3a/pool_proj
I0224 09:53:01.417675  2097 net.cpp:434] inception_3a/pool_proj <- inception_3a/pool
I0224 09:53:01.417695  2097 net.cpp:408] inception_3a/pool_proj -> inception_3a/pool_proj
I0224 09:53:01.417876  2097 net.cpp:150] Setting up inception_3a/pool_proj
I0224 09:53:01.417893  2097 net.cpp:157] Top shape: 48 32 28 28 (1204224)
I0224 09:53:01.417904  2097 net.cpp:165] Memory required for data: 1117520640
I0224 09:53:01.417932  2097 layer_factory.hpp:77] Creating layer inception_3a/relu_pool_proj
I0224 09:53:01.417948  2097 net.cpp:100] Creating Layer inception_3a/relu_pool_proj
I0224 09:53:01.417959  2097 net.cpp:434] inception_3a/relu_pool_proj <- inception_3a/pool_proj
I0224 09:53:01.417979  2097 net.cpp:395] inception_3a/relu_pool_proj -> inception_3a/pool_proj (in-place)
I0224 09:53:01.417995  2097 net.cpp:150] Setting up inception_3a/relu_pool_proj
I0224 09:53:01.418010  2097 net.cpp:157] Top shape: 48 32 28 28 (1204224)
I0224 09:53:01.418021  2097 net.cpp:165] Memory required for data: 1122337536
I0224 09:53:01.418032  2097 layer_factory.hpp:77] Creating layer inception_3a/output
I0224 09:53:01.418051  2097 net.cpp:100] Creating Layer inception_3a/output
I0224 09:53:01.418063  2097 net.cpp:434] inception_3a/output <- inception_3a/1x1
I0224 09:53:01.418076  2097 net.cpp:434] inception_3a/output <- inception_3a/3x3
I0224 09:53:01.418089  2097 net.cpp:434] inception_3a/output <- inception_3a/5x5
I0224 09:53:01.418102  2097 net.cpp:434] inception_3a/output <- inception_3a/pool_proj
I0224 09:53:01.418118  2097 net.cpp:408] inception_3a/output -> inception_3a/output
I0224 09:53:01.418143  2097 net.cpp:150] Setting up inception_3a/output
I0224 09:53:01.418157  2097 net.cpp:157] Top shape: 48 256 28 28 (9633792)
I0224 09:53:01.418169  2097 net.cpp:165] Memory required for data: 1160872704
I0224 09:53:01.418180  2097 layer_factory.hpp:77] Creating layer inception_3a/output_inception_3a/output_0_split
I0224 09:53:01.418201  2097 net.cpp:100] Creating Layer inception_3a/output_inception_3a/output_0_split
I0224 09:53:01.418215  2097 net.cpp:434] inception_3a/output_inception_3a/output_0_split <- inception_3a/output
I0224 09:53:01.418231  2097 net.cpp:408] inception_3a/output_inception_3a/output_0_split -> inception_3a/output_inception_3a/output_0_split_0
I0224 09:53:01.418254  2097 net.cpp:408] inception_3a/output_inception_3a/output_0_split -> inception_3a/output_inception_3a/output_0_split_1
I0224 09:53:01.418274  2097 net.cpp:408] inception_3a/output_inception_3a/output_0_split -> inception_3a/output_inception_3a/output_0_split_2
I0224 09:53:01.418296  2097 net.cpp:408] inception_3a/output_inception_3a/output_0_split -> inception_3a/output_inception_3a/output_0_split_3
I0224 09:53:01.418318  2097 net.cpp:150] Setting up inception_3a/output_inception_3a/output_0_split
I0224 09:53:01.418334  2097 net.cpp:157] Top shape: 48 256 28 28 (9633792)
I0224 09:53:01.418347  2097 net.cpp:157] Top shape: 48 256 28 28 (9633792)
I0224 09:53:01.418360  2097 net.cpp:157] Top shape: 48 256 28 28 (9633792)
I0224 09:53:01.418375  2097 net.cpp:157] Top shape: 48 256 28 28 (9633792)
I0224 09:53:01.418385  2097 net.cpp:165] Memory required for data: 1315013376
I0224 09:53:01.418396  2097 layer_factory.hpp:77] Creating layer inception_3b/1x1
I0224 09:53:01.418427  2097 net.cpp:100] Creating Layer inception_3b/1x1
I0224 09:53:01.418460  2097 net.cpp:434] inception_3b/1x1 <- inception_3a/output_inception_3a/output_0_split_0
I0224 09:53:01.418483  2097 net.cpp:408] inception_3b/1x1 -> inception_3b/1x1
I0224 09:53:01.419273  2097 net.cpp:150] Setting up inception_3b/1x1
I0224 09:53:01.419293  2097 net.cpp:157] Top shape: 48 128 28 28 (4816896)
I0224 09:53:01.419304  2097 net.cpp:165] Memory required for data: 1334280960
I0224 09:53:01.419322  2097 layer_factory.hpp:77] Creating layer inception_3b/relu_1x1
I0224 09:53:01.419337  2097 net.cpp:100] Creating Layer inception_3b/relu_1x1
I0224 09:53:01.419349  2097 net.cpp:434] inception_3b/relu_1x1 <- inception_3b/1x1
I0224 09:53:01.419371  2097 net.cpp:395] inception_3b/relu_1x1 -> inception_3b/1x1 (in-place)
I0224 09:53:01.419389  2097 net.cpp:150] Setting up inception_3b/relu_1x1
I0224 09:53:01.419404  2097 net.cpp:157] Top shape: 48 128 28 28 (4816896)
I0224 09:53:01.419416  2097 net.cpp:165] Memory required for data: 1353548544
I0224 09:53:01.419428  2097 layer_factory.hpp:77] Creating layer inception_3b/3x3_reduce
I0224 09:53:01.419450  2097 net.cpp:100] Creating Layer inception_3b/3x3_reduce
I0224 09:53:01.419464  2097 net.cpp:434] inception_3b/3x3_reduce <- inception_3a/output_inception_3a/output_0_split_1
I0224 09:53:01.419481  2097 net.cpp:408] inception_3b/3x3_reduce -> inception_3b/3x3_reduce
I0224 09:53:01.420269  2097 net.cpp:150] Setting up inception_3b/3x3_reduce
I0224 09:53:01.420289  2097 net.cpp:157] Top shape: 48 128 28 28 (4816896)
I0224 09:53:01.420300  2097 net.cpp:165] Memory required for data: 1372816128
I0224 09:53:01.420316  2097 layer_factory.hpp:77] Creating layer inception_3b/relu_3x3_reduce
I0224 09:53:01.420336  2097 net.cpp:100] Creating Layer inception_3b/relu_3x3_reduce
I0224 09:53:01.420348  2097 net.cpp:434] inception_3b/relu_3x3_reduce <- inception_3b/3x3_reduce
I0224 09:53:01.420367  2097 net.cpp:395] inception_3b/relu_3x3_reduce -> inception_3b/3x3_reduce (in-place)
I0224 09:53:01.420384  2097 net.cpp:150] Setting up inception_3b/relu_3x3_reduce
I0224 09:53:01.420398  2097 net.cpp:157] Top shape: 48 128 28 28 (4816896)
I0224 09:53:01.420409  2097 net.cpp:165] Memory required for data: 1392083712
I0224 09:53:01.420421  2097 layer_factory.hpp:77] Creating layer inception_3b/3x3
I0224 09:53:01.420449  2097 net.cpp:100] Creating Layer inception_3b/3x3
I0224 09:53:01.420462  2097 net.cpp:434] inception_3b/3x3 <- inception_3b/3x3_reduce
I0224 09:53:01.420480  2097 net.cpp:408] inception_3b/3x3 -> inception_3b/3x3
I0224 09:53:01.425607  2097 net.cpp:150] Setting up inception_3b/3x3
I0224 09:53:01.425647  2097 net.cpp:157] Top shape: 48 192 28 28 (7225344)
I0224 09:53:01.425658  2097 net.cpp:165] Memory required for data: 1420985088
I0224 09:53:01.425678  2097 layer_factory.hpp:77] Creating layer inception_3b/relu_3x3
I0224 09:53:01.425695  2097 net.cpp:100] Creating Layer inception_3b/relu_3x3
I0224 09:53:01.425709  2097 net.cpp:434] inception_3b/relu_3x3 <- inception_3b/3x3
I0224 09:53:01.425729  2097 net.cpp:395] inception_3b/relu_3x3 -> inception_3b/3x3 (in-place)
I0224 09:53:01.425748  2097 net.cpp:150] Setting up inception_3b/relu_3x3
I0224 09:53:01.425763  2097 net.cpp:157] Top shape: 48 192 28 28 (7225344)
I0224 09:53:01.425775  2097 net.cpp:165] Memory required for data: 1449886464
I0224 09:53:01.425788  2097 layer_factory.hpp:77] Creating layer inception_3b/5x5_reduce
I0224 09:53:01.425809  2097 net.cpp:100] Creating Layer inception_3b/5x5_reduce
I0224 09:53:01.425822  2097 net.cpp:434] inception_3b/5x5_reduce <- inception_3a/output_inception_3a/output_0_split_2
I0224 09:53:01.425843  2097 net.cpp:408] inception_3b/5x5_reduce -> inception_3b/5x5_reduce
I0224 09:53:01.426059  2097 net.cpp:150] Setting up inception_3b/5x5_reduce
I0224 09:53:01.426077  2097 net.cpp:157] Top shape: 48 32 28 28 (1204224)
I0224 09:53:01.426089  2097 net.cpp:165] Memory required for data: 1454703360
I0224 09:53:01.426105  2097 layer_factory.hpp:77] Creating layer inception_3b/relu_5x5_reduce
I0224 09:53:01.426139  2097 net.cpp:100] Creating Layer inception_3b/relu_5x5_reduce
I0224 09:53:01.426172  2097 net.cpp:434] inception_3b/relu_5x5_reduce <- inception_3b/5x5_reduce
I0224 09:53:01.426188  2097 net.cpp:395] inception_3b/relu_5x5_reduce -> inception_3b/5x5_reduce (in-place)
I0224 09:53:01.426204  2097 net.cpp:150] Setting up inception_3b/relu_5x5_reduce
I0224 09:53:01.426219  2097 net.cpp:157] Top shape: 48 32 28 28 (1204224)
I0224 09:53:01.426230  2097 net.cpp:165] Memory required for data: 1459520256
I0224 09:53:01.426247  2097 layer_factory.hpp:77] Creating layer inception_3b/5x5
I0224 09:53:01.426272  2097 net.cpp:100] Creating Layer inception_3b/5x5
I0224 09:53:01.426285  2097 net.cpp:434] inception_3b/5x5 <- inception_3b/5x5_reduce
I0224 09:53:01.426306  2097 net.cpp:408] inception_3b/5x5 -> inception_3b/5x5
I0224 09:53:01.428120  2097 net.cpp:150] Setting up inception_3b/5x5
I0224 09:53:01.428148  2097 net.cpp:157] Top shape: 48 96 28 28 (3612672)
I0224 09:53:01.428159  2097 net.cpp:165] Memory required for data: 1473970944
I0224 09:53:01.428179  2097 layer_factory.hpp:77] Creating layer inception_3b/relu_5x5
I0224 09:53:01.428201  2097 net.cpp:100] Creating Layer inception_3b/relu_5x5
I0224 09:53:01.428215  2097 net.cpp:434] inception_3b/relu_5x5 <- inception_3b/5x5
I0224 09:53:01.428231  2097 net.cpp:395] inception_3b/relu_5x5 -> inception_3b/5x5 (in-place)
I0224 09:53:01.428256  2097 net.cpp:150] Setting up inception_3b/relu_5x5
I0224 09:53:01.428272  2097 net.cpp:157] Top shape: 48 96 28 28 (3612672)
I0224 09:53:01.428283  2097 net.cpp:165] Memory required for data: 1488421632
I0224 09:53:01.428295  2097 layer_factory.hpp:77] Creating layer inception_3b/pool
I0224 09:53:01.428315  2097 net.cpp:100] Creating Layer inception_3b/pool
I0224 09:53:01.428329  2097 net.cpp:434] inception_3b/pool <- inception_3a/output_inception_3a/output_0_split_3
I0224 09:53:01.428345  2097 net.cpp:408] inception_3b/pool -> inception_3b/pool
I0224 09:53:01.428367  2097 net.cpp:150] Setting up inception_3b/pool
I0224 09:53:01.428382  2097 net.cpp:157] Top shape: 48 256 28 28 (9633792)
I0224 09:53:01.428393  2097 net.cpp:165] Memory required for data: 1526956800
I0224 09:53:01.428405  2097 layer_factory.hpp:77] Creating layer inception_3b/pool_proj
I0224 09:53:01.428427  2097 net.cpp:100] Creating Layer inception_3b/pool_proj
I0224 09:53:01.428439  2097 net.cpp:434] inception_3b/pool_proj <- inception_3b/pool
I0224 09:53:01.428460  2097 net.cpp:408] inception_3b/pool_proj -> inception_3b/pool_proj
I0224 09:53:01.428911  2097 net.cpp:150] Setting up inception_3b/pool_proj
I0224 09:53:01.428935  2097 net.cpp:157] Top shape: 48 64 28 28 (2408448)
I0224 09:53:01.428946  2097 net.cpp:165] Memory required for data: 1536590592
I0224 09:53:01.428963  2097 layer_factory.hpp:77] Creating layer inception_3b/relu_pool_proj
I0224 09:53:01.428983  2097 net.cpp:100] Creating Layer inception_3b/relu_pool_proj
I0224 09:53:01.428997  2097 net.cpp:434] inception_3b/relu_pool_proj <- inception_3b/pool_proj
I0224 09:53:01.429011  2097 net.cpp:395] inception_3b/relu_pool_proj -> inception_3b/pool_proj (in-place)
I0224 09:53:01.429029  2097 net.cpp:150] Setting up inception_3b/relu_pool_proj
I0224 09:53:01.429044  2097 net.cpp:157] Top shape: 48 64 28 28 (2408448)
I0224 09:53:01.429054  2097 net.cpp:165] Memory required for data: 1546224384
I0224 09:53:01.429065  2097 layer_factory.hpp:77] Creating layer inception_3b/output
I0224 09:53:01.429081  2097 net.cpp:100] Creating Layer inception_3b/output
I0224 09:53:01.429093  2097 net.cpp:434] inception_3b/output <- inception_3b/1x1
I0224 09:53:01.429106  2097 net.cpp:434] inception_3b/output <- inception_3b/3x3
I0224 09:53:01.429119  2097 net.cpp:434] inception_3b/output <- inception_3b/5x5
I0224 09:53:01.429132  2097 net.cpp:434] inception_3b/output <- inception_3b/pool_proj
I0224 09:53:01.429152  2097 net.cpp:408] inception_3b/output -> inception_3b/output
I0224 09:53:01.429172  2097 net.cpp:150] Setting up inception_3b/output
I0224 09:53:01.429188  2097 net.cpp:157] Top shape: 48 480 28 28 (18063360)
I0224 09:53:01.429210  2097 net.cpp:165] Memory required for data: 1618477824
I0224 09:53:01.429236  2097 layer_factory.hpp:77] Creating layer pool3/3x3_s2
I0224 09:53:01.429261  2097 net.cpp:100] Creating Layer pool3/3x3_s2
I0224 09:53:01.429273  2097 net.cpp:434] pool3/3x3_s2 <- inception_3b/output
I0224 09:53:01.429293  2097 net.cpp:408] pool3/3x3_s2 -> pool3/3x3_s2
I0224 09:53:01.429316  2097 net.cpp:150] Setting up pool3/3x3_s2
I0224 09:53:01.429330  2097 net.cpp:157] Top shape: 48 480 14 14 (4515840)
I0224 09:53:01.429342  2097 net.cpp:165] Memory required for data: 1636541184
I0224 09:53:01.429352  2097 layer_factory.hpp:77] Creating layer pool3/3x3_s2_pool3/3x3_s2_0_split
I0224 09:53:01.429368  2097 net.cpp:100] Creating Layer pool3/3x3_s2_pool3/3x3_s2_0_split
I0224 09:53:01.429380  2097 net.cpp:434] pool3/3x3_s2_pool3/3x3_s2_0_split <- pool3/3x3_s2
I0224 09:53:01.429405  2097 net.cpp:408] pool3/3x3_s2_pool3/3x3_s2_0_split -> pool3/3x3_s2_pool3/3x3_s2_0_split_0
I0224 09:53:01.429425  2097 net.cpp:408] pool3/3x3_s2_pool3/3x3_s2_0_split -> pool3/3x3_s2_pool3/3x3_s2_0_split_1
I0224 09:53:01.429441  2097 net.cpp:408] pool3/3x3_s2_pool3/3x3_s2_0_split -> pool3/3x3_s2_pool3/3x3_s2_0_split_2
I0224 09:53:01.429460  2097 net.cpp:408] pool3/3x3_s2_pool3/3x3_s2_0_split -> pool3/3x3_s2_pool3/3x3_s2_0_split_3
I0224 09:53:01.429479  2097 net.cpp:150] Setting up pool3/3x3_s2_pool3/3x3_s2_0_split
I0224 09:53:01.429498  2097 net.cpp:157] Top shape: 48 480 14 14 (4515840)
I0224 09:53:01.429512  2097 net.cpp:157] Top shape: 48 480 14 14 (4515840)
I0224 09:53:01.429527  2097 net.cpp:157] Top shape: 48 480 14 14 (4515840)
I0224 09:53:01.429540  2097 net.cpp:157] Top shape: 48 480 14 14 (4515840)
I0224 09:53:01.429551  2097 net.cpp:165] Memory required for data: 1708794624
I0224 09:53:01.429563  2097 layer_factory.hpp:77] Creating layer inception_4a/1x1
I0224 09:53:01.429585  2097 net.cpp:100] Creating Layer inception_4a/1x1
I0224 09:53:01.429599  2097 net.cpp:434] inception_4a/1x1 <- pool3/3x3_s2_pool3/3x3_s2_0_split_0
I0224 09:53:01.429615  2097 net.cpp:408] inception_4a/1x1 -> inception_4a/1x1
I0224 09:53:01.431797  2097 net.cpp:150] Setting up inception_4a/1x1
I0224 09:53:01.431833  2097 net.cpp:157] Top shape: 48 192 14 14 (1806336)
I0224 09:53:01.431845  2097 net.cpp:165] Memory required for data: 1716019968
I0224 09:53:01.431865  2097 layer_factory.hpp:77] Creating layer inception_4a/relu_1x1
I0224 09:53:01.431882  2097 net.cpp:100] Creating Layer inception_4a/relu_1x1
I0224 09:53:01.431895  2097 net.cpp:434] inception_4a/relu_1x1 <- inception_4a/1x1
I0224 09:53:01.431911  2097 net.cpp:395] inception_4a/relu_1x1 -> inception_4a/1x1 (in-place)
I0224 09:53:01.431928  2097 net.cpp:150] Setting up inception_4a/relu_1x1
I0224 09:53:01.431943  2097 net.cpp:157] Top shape: 48 192 14 14 (1806336)
I0224 09:53:01.431954  2097 net.cpp:165] Memory required for data: 1723245312
I0224 09:53:01.431967  2097 layer_factory.hpp:77] Creating layer inception_4a/3x3_reduce
I0224 09:53:01.431990  2097 net.cpp:100] Creating Layer inception_4a/3x3_reduce
I0224 09:53:01.432003  2097 net.cpp:434] inception_4a/3x3_reduce <- pool3/3x3_s2_pool3/3x3_s2_0_split_1
I0224 09:53:01.432025  2097 net.cpp:408] inception_4a/3x3_reduce -> inception_4a/3x3_reduce
I0224 09:53:01.433107  2097 net.cpp:150] Setting up inception_4a/3x3_reduce
I0224 09:53:01.433130  2097 net.cpp:157] Top shape: 48 96 14 14 (903168)
I0224 09:53:01.433140  2097 net.cpp:165] Memory required for data: 1726857984
I0224 09:53:01.433172  2097 layer_factory.hpp:77] Creating layer inception_4a/relu_3x3_reduce
I0224 09:53:01.433189  2097 net.cpp:100] Creating Layer inception_4a/relu_3x3_reduce
I0224 09:53:01.433202  2097 net.cpp:434] inception_4a/relu_3x3_reduce <- inception_4a/3x3_reduce
I0224 09:53:01.433221  2097 net.cpp:395] inception_4a/relu_3x3_reduce -> inception_4a/3x3_reduce (in-place)
I0224 09:53:01.433238  2097 net.cpp:150] Setting up inception_4a/relu_3x3_reduce
I0224 09:53:01.433260  2097 net.cpp:157] Top shape: 48 96 14 14 (903168)
I0224 09:53:01.433271  2097 net.cpp:165] Memory required for data: 1730470656
I0224 09:53:01.433295  2097 layer_factory.hpp:77] Creating layer inception_4a/3x3
I0224 09:53:01.433329  2097 net.cpp:100] Creating Layer inception_4a/3x3
I0224 09:53:01.433342  2097 net.cpp:434] inception_4a/3x3 <- inception_4a/3x3_reduce
I0224 09:53:01.433362  2097 net.cpp:408] inception_4a/3x3 -> inception_4a/3x3
I0224 09:53:01.437453  2097 net.cpp:150] Setting up inception_4a/3x3
I0224 09:53:01.437492  2097 net.cpp:157] Top shape: 48 208 14 14 (1956864)
I0224 09:53:01.437505  2097 net.cpp:165] Memory required for data: 1738298112
I0224 09:53:01.437523  2097 layer_factory.hpp:77] Creating layer inception_4a/relu_3x3
I0224 09:53:01.437541  2097 net.cpp:100] Creating Layer inception_4a/relu_3x3
I0224 09:53:01.437554  2097 net.cpp:434] inception_4a/relu_3x3 <- inception_4a/3x3
I0224 09:53:01.437569  2097 net.cpp:395] inception_4a/relu_3x3 -> inception_4a/3x3 (in-place)
I0224 09:53:01.437588  2097 net.cpp:150] Setting up inception_4a/relu_3x3
I0224 09:53:01.437603  2097 net.cpp:157] Top shape: 48 208 14 14 (1956864)
I0224 09:53:01.437614  2097 net.cpp:165] Memory required for data: 1746125568
I0224 09:53:01.437625  2097 layer_factory.hpp:77] Creating layer inception_4a/5x5_reduce
I0224 09:53:01.437649  2097 net.cpp:100] Creating Layer inception_4a/5x5_reduce
I0224 09:53:01.437664  2097 net.cpp:434] inception_4a/5x5_reduce <- pool3/3x3_s2_pool3/3x3_s2_0_split_2
I0224 09:53:01.437685  2097 net.cpp:408] inception_4a/5x5_reduce -> inception_4a/5x5_reduce
I0224 09:53:01.437888  2097 net.cpp:150] Setting up inception_4a/5x5_reduce
I0224 09:53:01.437906  2097 net.cpp:157] Top shape: 48 16 14 14 (150528)
I0224 09:53:01.437916  2097 net.cpp:165] Memory required for data: 1746727680
I0224 09:53:01.437932  2097 layer_factory.hpp:77] Creating layer inception_4a/relu_5x5_reduce
I0224 09:53:01.437947  2097 net.cpp:100] Creating Layer inception_4a/relu_5x5_reduce
I0224 09:53:01.437959  2097 net.cpp:434] inception_4a/relu_5x5_reduce <- inception_4a/5x5_reduce
I0224 09:53:01.437978  2097 net.cpp:395] inception_4a/relu_5x5_reduce -> inception_4a/5x5_reduce (in-place)
I0224 09:53:01.437994  2097 net.cpp:150] Setting up inception_4a/relu_5x5_reduce
I0224 09:53:01.438058  2097 net.cpp:157] Top shape: 48 16 14 14 (150528)
I0224 09:53:01.438069  2097 net.cpp:165] Memory required for data: 1747329792
I0224 09:53:01.438081  2097 layer_factory.hpp:77] Creating layer inception_4a/5x5
I0224 09:53:01.438099  2097 net.cpp:100] Creating Layer inception_4a/5x5
I0224 09:53:01.438112  2097 net.cpp:434] inception_4a/5x5 <- inception_4a/5x5_reduce
I0224 09:53:01.438132  2097 net.cpp:408] inception_4a/5x5 -> inception_4a/5x5
I0224 09:53:01.438613  2097 net.cpp:150] Setting up inception_4a/5x5
I0224 09:53:01.438632  2097 net.cpp:157] Top shape: 48 48 14 14 (451584)
I0224 09:53:01.438643  2097 net.cpp:165] Memory required for data: 1749136128
I0224 09:53:01.438660  2097 layer_factory.hpp:77] Creating layer inception_4a/relu_5x5
I0224 09:53:01.438678  2097 net.cpp:100] Creating Layer inception_4a/relu_5x5
I0224 09:53:01.438691  2097 net.cpp:434] inception_4a/relu_5x5 <- inception_4a/5x5
I0224 09:53:01.438709  2097 net.cpp:395] inception_4a/relu_5x5 -> inception_4a/5x5 (in-place)
I0224 09:53:01.438725  2097 net.cpp:150] Setting up inception_4a/relu_5x5
I0224 09:53:01.438740  2097 net.cpp:157] Top shape: 48 48 14 14 (451584)
I0224 09:53:01.438750  2097 net.cpp:165] Memory required for data: 1750942464
I0224 09:53:01.438762  2097 layer_factory.hpp:77] Creating layer inception_4a/pool
I0224 09:53:01.438778  2097 net.cpp:100] Creating Layer inception_4a/pool
I0224 09:53:01.438791  2097 net.cpp:434] inception_4a/pool <- pool3/3x3_s2_pool3/3x3_s2_0_split_3
I0224 09:53:01.438807  2097 net.cpp:408] inception_4a/pool -> inception_4a/pool
I0224 09:53:01.438828  2097 net.cpp:150] Setting up inception_4a/pool
I0224 09:53:01.438843  2097 net.cpp:157] Top shape: 48 480 14 14 (4515840)
I0224 09:53:01.438854  2097 net.cpp:165] Memory required for data: 1769005824
I0224 09:53:01.438866  2097 layer_factory.hpp:77] Creating layer inception_4a/pool_proj
I0224 09:53:01.438901  2097 net.cpp:100] Creating Layer inception_4a/pool_proj
I0224 09:53:01.438930  2097 net.cpp:434] inception_4a/pool_proj <- inception_4a/pool
I0224 09:53:01.438946  2097 net.cpp:408] inception_4a/pool_proj -> inception_4a/pool_proj
I0224 09:53:01.439682  2097 net.cpp:150] Setting up inception_4a/pool_proj
I0224 09:53:01.439702  2097 net.cpp:157] Top shape: 48 64 14 14 (602112)
I0224 09:53:01.439713  2097 net.cpp:165] Memory required for data: 1771414272
I0224 09:53:01.439731  2097 layer_factory.hpp:77] Creating layer inception_4a/relu_pool_proj
I0224 09:53:01.439746  2097 net.cpp:100] Creating Layer inception_4a/relu_pool_proj
I0224 09:53:01.439759  2097 net.cpp:434] inception_4a/relu_pool_proj <- inception_4a/pool_proj
I0224 09:53:01.439777  2097 net.cpp:395] inception_4a/relu_pool_proj -> inception_4a/pool_proj (in-place)
I0224 09:53:01.439795  2097 net.cpp:150] Setting up inception_4a/relu_pool_proj
I0224 09:53:01.439810  2097 net.cpp:157] Top shape: 48 64 14 14 (602112)
I0224 09:53:01.439821  2097 net.cpp:165] Memory required for data: 1773822720
I0224 09:53:01.439832  2097 layer_factory.hpp:77] Creating layer inception_4a/output
I0224 09:53:01.439852  2097 net.cpp:100] Creating Layer inception_4a/output
I0224 09:53:01.439864  2097 net.cpp:434] inception_4a/output <- inception_4a/1x1
I0224 09:53:01.439878  2097 net.cpp:434] inception_4a/output <- inception_4a/3x3
I0224 09:53:01.439891  2097 net.cpp:434] inception_4a/output <- inception_4a/5x5
I0224 09:53:01.439905  2097 net.cpp:434] inception_4a/output <- inception_4a/pool_proj
I0224 09:53:01.439921  2097 net.cpp:408] inception_4a/output -> inception_4a/output
I0224 09:53:01.439941  2097 net.cpp:150] Setting up inception_4a/output
I0224 09:53:01.439956  2097 net.cpp:157] Top shape: 48 512 14 14 (4816896)
I0224 09:53:01.439967  2097 net.cpp:165] Memory required for data: 1793090304
I0224 09:53:01.439978  2097 layer_factory.hpp:77] Creating layer inception_4a/output_inception_4a/output_0_split
I0224 09:53:01.439996  2097 net.cpp:100] Creating Layer inception_4a/output_inception_4a/output_0_split
I0224 09:53:01.440007  2097 net.cpp:434] inception_4a/output_inception_4a/output_0_split <- inception_4a/output
I0224 09:53:01.440026  2097 net.cpp:408] inception_4a/output_inception_4a/output_0_split -> inception_4a/output_inception_4a/output_0_split_0
I0224 09:53:01.440055  2097 net.cpp:408] inception_4a/output_inception_4a/output_0_split -> inception_4a/output_inception_4a/output_0_split_1
I0224 09:53:01.440074  2097 net.cpp:408] inception_4a/output_inception_4a/output_0_split -> inception_4a/output_inception_4a/output_0_split_2
I0224 09:53:01.440093  2097 net.cpp:408] inception_4a/output_inception_4a/output_0_split -> inception_4a/output_inception_4a/output_0_split_3
I0224 09:53:01.440110  2097 net.cpp:408] inception_4a/output_inception_4a/output_0_split -> inception_4a/output_inception_4a/output_0_split_4
I0224 09:53:01.440137  2097 net.cpp:150] Setting up inception_4a/output_inception_4a/output_0_split
I0224 09:53:01.440152  2097 net.cpp:157] Top shape: 48 512 14 14 (4816896)
I0224 09:53:01.440166  2097 net.cpp:157] Top shape: 48 512 14 14 (4816896)
I0224 09:53:01.440181  2097 net.cpp:157] Top shape: 48 512 14 14 (4816896)
I0224 09:53:01.440194  2097 net.cpp:157] Top shape: 48 512 14 14 (4816896)
I0224 09:53:01.440208  2097 net.cpp:157] Top shape: 48 512 14 14 (4816896)
I0224 09:53:01.440219  2097 net.cpp:165] Memory required for data: 1889428224
I0224 09:53:01.440230  2097 layer_factory.hpp:77] Creating layer loss1/ave_pool
I0224 09:53:01.440251  2097 net.cpp:100] Creating Layer loss1/ave_pool
I0224 09:53:01.440266  2097 net.cpp:434] loss1/ave_pool <- inception_4a/output_inception_4a/output_0_split_0
I0224 09:53:01.440286  2097 net.cpp:408] loss1/ave_pool -> loss1/ave_pool
I0224 09:53:01.440305  2097 net.cpp:150] Setting up loss1/ave_pool
I0224 09:53:01.440320  2097 net.cpp:157] Top shape: 48 512 4 4 (393216)
I0224 09:53:01.440331  2097 net.cpp:165] Memory required for data: 1891001088
I0224 09:53:01.440343  2097 layer_factory.hpp:77] Creating layer loss1/conv
I0224 09:53:01.440374  2097 net.cpp:100] Creating Layer loss1/conv
I0224 09:53:01.440402  2097 net.cpp:434] loss1/conv <- loss1/ave_pool
I0224 09:53:01.440423  2097 net.cpp:408] loss1/conv -> loss1/conv
I0224 09:53:01.441973  2097 net.cpp:150] Setting up loss1/conv
I0224 09:53:01.441999  2097 net.cpp:157] Top shape: 48 128 4 4 (98304)
I0224 09:53:01.442011  2097 net.cpp:165] Memory required for data: 1891394304
I0224 09:53:01.442029  2097 layer_factory.hpp:77] Creating layer loss1/relu_conv
I0224 09:53:01.442049  2097 net.cpp:100] Creating Layer loss1/relu_conv
I0224 09:53:01.442061  2097 net.cpp:434] loss1/relu_conv <- loss1/conv
I0224 09:53:01.442077  2097 net.cpp:395] loss1/relu_conv -> loss1/conv (in-place)
I0224 09:53:01.442095  2097 net.cpp:150] Setting up loss1/relu_conv
I0224 09:53:01.442108  2097 net.cpp:157] Top shape: 48 128 4 4 (98304)
I0224 09:53:01.442119  2097 net.cpp:165] Memory required for data: 1891787520
I0224 09:53:01.442131  2097 layer_factory.hpp:77] Creating layer loss1/fc
I0224 09:53:01.442157  2097 net.cpp:100] Creating Layer loss1/fc
I0224 09:53:01.442170  2097 net.cpp:434] loss1/fc <- loss1/conv
I0224 09:53:01.442188  2097 net.cpp:408] loss1/fc -> loss1/fc
I0224 09:53:01.482287  2097 net.cpp:150] Setting up loss1/fc
I0224 09:53:01.482352  2097 net.cpp:157] Top shape: 48 1024 (49152)
I0224 09:53:01.482362  2097 net.cpp:165] Memory required for data: 1891984128
I0224 09:53:01.482381  2097 layer_factory.hpp:77] Creating layer loss1/relu_fc
I0224 09:53:01.482400  2097 net.cpp:100] Creating Layer loss1/relu_fc
I0224 09:53:01.482412  2097 net.cpp:434] loss1/relu_fc <- loss1/fc
I0224 09:53:01.482427  2097 net.cpp:395] loss1/relu_fc -> loss1/fc (in-place)
I0224 09:53:01.482445  2097 net.cpp:150] Setting up loss1/relu_fc
I0224 09:53:01.482457  2097 net.cpp:157] Top shape: 48 1024 (49152)
I0224 09:53:01.482465  2097 net.cpp:165] Memory required for data: 1892180736
I0224 09:53:01.482475  2097 layer_factory.hpp:77] Creating layer loss1/drop_fc
I0224 09:53:01.482514  2097 net.cpp:100] Creating Layer loss1/drop_fc
I0224 09:53:01.482524  2097 net.cpp:434] loss1/drop_fc <- loss1/fc
I0224 09:53:01.482537  2097 net.cpp:395] loss1/drop_fc -> loss1/fc (in-place)
I0224 09:53:01.482563  2097 net.cpp:150] Setting up loss1/drop_fc
I0224 09:53:01.482575  2097 net.cpp:157] Top shape: 48 1024 (49152)
I0224 09:53:01.482584  2097 net.cpp:165] Memory required for data: 1892377344
I0224 09:53:01.482594  2097 layer_factory.hpp:77] Creating layer loss1/classifier
I0224 09:53:01.482610  2097 net.cpp:100] Creating Layer loss1/classifier
I0224 09:53:01.482620  2097 net.cpp:434] loss1/classifier <- loss1/fc
I0224 09:53:01.482636  2097 net.cpp:408] loss1/classifier -> loss1/classifier
I0224 09:53:01.500577  2097 net.cpp:150] Setting up loss1/classifier
I0224 09:53:01.500620  2097 net.cpp:157] Top shape: 48 1000 (48000)
I0224 09:53:01.500629  2097 net.cpp:165] Memory required for data: 1892569344
I0224 09:53:01.500648  2097 layer_factory.hpp:77] Creating layer loss1/loss
I0224 09:53:01.500669  2097 net.cpp:100] Creating Layer loss1/loss
I0224 09:53:01.500679  2097 net.cpp:434] loss1/loss <- loss1/classifier
I0224 09:53:01.500691  2097 net.cpp:434] loss1/loss <- label_data_1_split_0
I0224 09:53:01.500705  2097 net.cpp:408] loss1/loss -> loss1/loss1
I0224 09:53:01.500735  2097 layer_factory.hpp:77] Creating layer loss1/loss
I0224 09:53:01.500985  2097 net.cpp:150] Setting up loss1/loss
I0224 09:53:01.500999  2097 net.cpp:157] Top shape: (1)
I0224 09:53:01.501008  2097 net.cpp:160]     with loss weight 0.3
I0224 09:53:01.501073  2097 net.cpp:165] Memory required for data: 1892569348
I0224 09:53:01.501083  2097 layer_factory.hpp:77] Creating layer inception_4b/1x1
I0224 09:53:01.501106  2097 net.cpp:100] Creating Layer inception_4b/1x1
I0224 09:53:01.501118  2097 net.cpp:434] inception_4b/1x1 <- inception_4a/output_inception_4a/output_0_split_1
I0224 09:53:01.501137  2097 net.cpp:408] inception_4b/1x1 -> inception_4b/1x1
I0224 09:53:01.502665  2097 net.cpp:150] Setting up inception_4b/1x1
I0224 09:53:01.502691  2097 net.cpp:157] Top shape: 48 160 14 14 (1505280)
I0224 09:53:01.502743  2097 net.cpp:165] Memory required for data: 1898590468
I0224 09:53:01.502758  2097 layer_factory.hpp:77] Creating layer inception_4b/relu_1x1
I0224 09:53:01.502773  2097 net.cpp:100] Creating Layer inception_4b/relu_1x1
I0224 09:53:01.502787  2097 net.cpp:434] inception_4b/relu_1x1 <- inception_4b/1x1
I0224 09:53:01.502800  2097 net.cpp:395] inception_4b/relu_1x1 -> inception_4b/1x1 (in-place)
I0224 09:53:01.502815  2097 net.cpp:150] Setting up inception_4b/relu_1x1
I0224 09:53:01.502827  2097 net.cpp:157] Top shape: 48 160 14 14 (1505280)
I0224 09:53:01.502836  2097 net.cpp:165] Memory required for data: 1904611588
I0224 09:53:01.502846  2097 layer_factory.hpp:77] Creating layer inception_4b/3x3_reduce
I0224 09:53:01.502864  2097 net.cpp:100] Creating Layer inception_4b/3x3_reduce
I0224 09:53:01.502876  2097 net.cpp:434] inception_4b/3x3_reduce <- inception_4a/output_inception_4a/output_0_split_2
I0224 09:53:01.502892  2097 net.cpp:408] inception_4b/3x3_reduce -> inception_4b/3x3_reduce
I0224 09:53:01.503973  2097 net.cpp:150] Setting up inception_4b/3x3_reduce
I0224 09:53:01.503993  2097 net.cpp:157] Top shape: 48 112 14 14 (1053696)
I0224 09:53:01.504003  2097 net.cpp:165] Memory required for data: 1908826372
I0224 09:53:01.504017  2097 layer_factory.hpp:77] Creating layer inception_4b/relu_3x3_reduce
I0224 09:53:01.504030  2097 net.cpp:100] Creating Layer inception_4b/relu_3x3_reduce
I0224 09:53:01.504040  2097 net.cpp:434] inception_4b/relu_3x3_reduce <- inception_4b/3x3_reduce
I0224 09:53:01.504053  2097 net.cpp:395] inception_4b/relu_3x3_reduce -> inception_4b/3x3_reduce (in-place)
I0224 09:53:01.504067  2097 net.cpp:150] Setting up inception_4b/relu_3x3_reduce
I0224 09:53:01.504079  2097 net.cpp:157] Top shape: 48 112 14 14 (1053696)
I0224 09:53:01.504088  2097 net.cpp:165] Memory required for data: 1913041156
I0224 09:53:01.504097  2097 layer_factory.hpp:77] Creating layer inception_4b/3x3
I0224 09:53:01.504115  2097 net.cpp:100] Creating Layer inception_4b/3x3
I0224 09:53:01.504127  2097 net.cpp:434] inception_4b/3x3 <- inception_4b/3x3_reduce
I0224 09:53:01.504142  2097 net.cpp:408] inception_4b/3x3 -> inception_4b/3x3
I0224 09:53:01.508138  2097 net.cpp:150] Setting up inception_4b/3x3
I0224 09:53:01.508167  2097 net.cpp:157] Top shape: 48 224 14 14 (2107392)
I0224 09:53:01.508177  2097 net.cpp:165] Memory required for data: 1921470724
I0224 09:53:01.508193  2097 layer_factory.hpp:77] Creating layer inception_4b/relu_3x3
I0224 09:53:01.508209  2097 net.cpp:100] Creating Layer inception_4b/relu_3x3
I0224 09:53:01.508221  2097 net.cpp:434] inception_4b/relu_3x3 <- inception_4b/3x3
I0224 09:53:01.508234  2097 net.cpp:395] inception_4b/relu_3x3 -> inception_4b/3x3 (in-place)
I0224 09:53:01.508258  2097 net.cpp:150] Setting up inception_4b/relu_3x3
I0224 09:53:01.508272  2097 net.cpp:157] Top shape: 48 224 14 14 (2107392)
I0224 09:53:01.508281  2097 net.cpp:165] Memory required for data: 1929900292
I0224 09:53:01.508291  2097 layer_factory.hpp:77] Creating layer inception_4b/5x5_reduce
I0224 09:53:01.508306  2097 net.cpp:100] Creating Layer inception_4b/5x5_reduce
I0224 09:53:01.508316  2097 net.cpp:434] inception_4b/5x5_reduce <- inception_4a/output_inception_4a/output_0_split_3
I0224 09:53:01.508333  2097 net.cpp:408] inception_4b/5x5_reduce -> inception_4b/5x5_reduce
I0224 09:53:01.508575  2097 net.cpp:150] Setting up inception_4b/5x5_reduce
I0224 09:53:01.508589  2097 net.cpp:157] Top shape: 48 24 14 14 (225792)
I0224 09:53:01.508599  2097 net.cpp:165] Memory required for data: 1930803460
I0224 09:53:01.508611  2097 layer_factory.hpp:77] Creating layer inception_4b/relu_5x5_reduce
I0224 09:53:01.508626  2097 net.cpp:100] Creating Layer inception_4b/relu_5x5_reduce
I0224 09:53:01.508636  2097 net.cpp:434] inception_4b/relu_5x5_reduce <- inception_4b/5x5_reduce
I0224 09:53:01.508651  2097 net.cpp:395] inception_4b/relu_5x5_reduce -> inception_4b/5x5_reduce (in-place)
I0224 09:53:01.508664  2097 net.cpp:150] Setting up inception_4b/relu_5x5_reduce
I0224 09:53:01.508687  2097 net.cpp:157] Top shape: 48 24 14 14 (225792)
I0224 09:53:01.508708  2097 net.cpp:165] Memory required for data: 1931706628
I0224 09:53:01.508718  2097 layer_factory.hpp:77] Creating layer inception_4b/5x5
I0224 09:53:01.508733  2097 net.cpp:100] Creating Layer inception_4b/5x5
I0224 09:53:01.508741  2097 net.cpp:434] inception_4b/5x5 <- inception_4b/5x5_reduce
I0224 09:53:01.508757  2097 net.cpp:408] inception_4b/5x5 -> inception_4b/5x5
I0224 09:53:01.509466  2097 net.cpp:150] Setting up inception_4b/5x5
I0224 09:53:01.509482  2097 net.cpp:157] Top shape: 48 64 14 14 (602112)
I0224 09:53:01.509491  2097 net.cpp:165] Memory required for data: 1934115076
I0224 09:53:01.509505  2097 layer_factory.hpp:77] Creating layer inception_4b/relu_5x5
I0224 09:53:01.509516  2097 net.cpp:100] Creating Layer inception_4b/relu_5x5
I0224 09:53:01.509526  2097 net.cpp:434] inception_4b/relu_5x5 <- inception_4b/5x5
I0224 09:53:01.509541  2097 net.cpp:395] inception_4b/relu_5x5 -> inception_4b/5x5 (in-place)
I0224 09:53:01.509554  2097 net.cpp:150] Setting up inception_4b/relu_5x5
I0224 09:53:01.509567  2097 net.cpp:157] Top shape: 48 64 14 14 (602112)
I0224 09:53:01.509574  2097 net.cpp:165] Memory required for data: 1936523524
I0224 09:53:01.509583  2097 layer_factory.hpp:77] Creating layer inception_4b/pool
I0224 09:53:01.509598  2097 net.cpp:100] Creating Layer inception_4b/pool
I0224 09:53:01.509611  2097 net.cpp:434] inception_4b/pool <- inception_4a/output_inception_4a/output_0_split_4
I0224 09:53:01.509624  2097 net.cpp:408] inception_4b/pool -> inception_4b/pool
I0224 09:53:01.509660  2097 net.cpp:150] Setting up inception_4b/pool
I0224 09:53:01.509673  2097 net.cpp:157] Top shape: 48 512 14 14 (4816896)
I0224 09:53:01.509682  2097 net.cpp:165] Memory required for data: 1955791108
I0224 09:53:01.509691  2097 layer_factory.hpp:77] Creating layer inception_4b/pool_proj
I0224 09:53:01.509709  2097 net.cpp:100] Creating Layer inception_4b/pool_proj
I0224 09:53:01.509721  2097 net.cpp:434] inception_4b/pool_proj <- inception_4b/pool
I0224 09:53:01.509733  2097 net.cpp:408] inception_4b/pool_proj -> inception_4b/pool_proj
I0224 09:53:01.510345  2097 net.cpp:150] Setting up inception_4b/pool_proj
I0224 09:53:01.510361  2097 net.cpp:157] Top shape: 48 64 14 14 (602112)
I0224 09:53:01.510370  2097 net.cpp:165] Memory required for data: 1958199556
I0224 09:53:01.510383  2097 layer_factory.hpp:77] Creating layer inception_4b/relu_pool_proj
I0224 09:53:01.510398  2097 net.cpp:100] Creating Layer inception_4b/relu_pool_proj
I0224 09:53:01.510409  2097 net.cpp:434] inception_4b/relu_pool_proj <- inception_4b/pool_proj
I0224 09:53:01.510421  2097 net.cpp:395] inception_4b/relu_pool_proj -> inception_4b/pool_proj (in-place)
I0224 09:53:01.510434  2097 net.cpp:150] Setting up inception_4b/relu_pool_proj
I0224 09:53:01.510445  2097 net.cpp:157] Top shape: 48 64 14 14 (602112)
I0224 09:53:01.510454  2097 net.cpp:165] Memory required for data: 1960608004
I0224 09:53:01.510463  2097 layer_factory.hpp:77] Creating layer inception_4b/output
I0224 09:53:01.510479  2097 net.cpp:100] Creating Layer inception_4b/output
I0224 09:53:01.510490  2097 net.cpp:434] inception_4b/output <- inception_4b/1x1
I0224 09:53:01.510500  2097 net.cpp:434] inception_4b/output <- inception_4b/3x3
I0224 09:53:01.510511  2097 net.cpp:434] inception_4b/output <- inception_4b/5x5
I0224 09:53:01.510521  2097 net.cpp:434] inception_4b/output <- inception_4b/pool_proj
I0224 09:53:01.510535  2097 net.cpp:408] inception_4b/output -> inception_4b/output
I0224 09:53:01.510551  2097 net.cpp:150] Setting up inception_4b/output
I0224 09:53:01.510563  2097 net.cpp:157] Top shape: 48 512 14 14 (4816896)
I0224 09:53:01.510571  2097 net.cpp:165] Memory required for data: 1979875588
I0224 09:53:01.510581  2097 layer_factory.hpp:77] Creating layer inception_4b/output_inception_4b/output_0_split
I0224 09:53:01.510593  2097 net.cpp:100] Creating Layer inception_4b/output_inception_4b/output_0_split
I0224 09:53:01.510603  2097 net.cpp:434] inception_4b/output_inception_4b/output_0_split <- inception_4b/output
I0224 09:53:01.510638  2097 net.cpp:408] inception_4b/output_inception_4b/output_0_split -> inception_4b/output_inception_4b/output_0_split_0
I0224 09:53:01.510654  2097 net.cpp:408] inception_4b/output_inception_4b/output_0_split -> inception_4b/output_inception_4b/output_0_split_1
I0224 09:53:01.510669  2097 net.cpp:408] inception_4b/output_inception_4b/output_0_split -> inception_4b/output_inception_4b/output_0_split_2
I0224 09:53:01.510684  2097 net.cpp:408] inception_4b/output_inception_4b/output_0_split -> inception_4b/output_inception_4b/output_0_split_3
I0224 09:53:01.510705  2097 net.cpp:150] Setting up inception_4b/output_inception_4b/output_0_split
I0224 09:53:01.510717  2097 net.cpp:157] Top shape: 48 512 14 14 (4816896)
I0224 09:53:01.510728  2097 net.cpp:157] Top shape: 48 512 14 14 (4816896)
I0224 09:53:01.510740  2097 net.cpp:157] Top shape: 48 512 14 14 (4816896)
I0224 09:53:01.510751  2097 net.cpp:157] Top shape: 48 512 14 14 (4816896)
I0224 09:53:01.510758  2097 net.cpp:165] Memory required for data: 2056945924
I0224 09:53:01.510767  2097 layer_factory.hpp:77] Creating layer inception_4c/1x1
I0224 09:53:01.510785  2097 net.cpp:100] Creating Layer inception_4c/1x1
I0224 09:53:01.510797  2097 net.cpp:434] inception_4c/1x1 <- inception_4b/output_inception_4b/output_0_split_0
I0224 09:53:01.510813  2097 net.cpp:408] inception_4c/1x1 -> inception_4c/1x1
I0224 09:53:01.512032  2097 net.cpp:150] Setting up inception_4c/1x1
I0224 09:53:01.512053  2097 net.cpp:157] Top shape: 48 128 14 14 (1204224)
I0224 09:53:01.512061  2097 net.cpp:165] Memory required for data: 2061762820
I0224 09:53:01.512076  2097 layer_factory.hpp:77] Creating layer inception_4c/relu_1x1
I0224 09:53:01.512089  2097 net.cpp:100] Creating Layer inception_4c/relu_1x1
I0224 09:53:01.512099  2097 net.cpp:434] inception_4c/relu_1x1 <- inception_4c/1x1
I0224 09:53:01.512111  2097 net.cpp:395] inception_4c/relu_1x1 -> inception_4c/1x1 (in-place)
I0224 09:53:01.512125  2097 net.cpp:150] Setting up inception_4c/relu_1x1
I0224 09:53:01.512136  2097 net.cpp:157] Top shape: 48 128 14 14 (1204224)
I0224 09:53:01.512145  2097 net.cpp:165] Memory required for data: 2066579716
I0224 09:53:01.512154  2097 layer_factory.hpp:77] Creating layer inception_4c/3x3_reduce
I0224 09:53:01.512176  2097 net.cpp:100] Creating Layer inception_4c/3x3_reduce
I0224 09:53:01.512187  2097 net.cpp:434] inception_4c/3x3_reduce <- inception_4b/output_inception_4b/output_0_split_1
I0224 09:53:01.512202  2097 net.cpp:408] inception_4c/3x3_reduce -> inception_4c/3x3_reduce
I0224 09:53:01.513414  2097 net.cpp:150] Setting up inception_4c/3x3_reduce
I0224 09:53:01.513435  2097 net.cpp:157] Top shape: 48 128 14 14 (1204224)
I0224 09:53:01.513444  2097 net.cpp:165] Memory required for data: 2071396612
I0224 09:53:01.513459  2097 layer_factory.hpp:77] Creating layer inception_4c/relu_3x3_reduce
I0224 09:53:01.513476  2097 net.cpp:100] Creating Layer inception_4c/relu_3x3_reduce
I0224 09:53:01.513486  2097 net.cpp:434] inception_4c/relu_3x3_reduce <- inception_4c/3x3_reduce
I0224 09:53:01.513499  2097 net.cpp:395] inception_4c/relu_3x3_reduce -> inception_4c/3x3_reduce (in-place)
I0224 09:53:01.513514  2097 net.cpp:150] Setting up inception_4c/relu_3x3_reduce
I0224 09:53:01.513525  2097 net.cpp:157] Top shape: 48 128 14 14 (1204224)
I0224 09:53:01.513533  2097 net.cpp:165] Memory required for data: 2076213508
I0224 09:53:01.513542  2097 layer_factory.hpp:77] Creating layer inception_4c/3x3
I0224 09:53:01.513558  2097 net.cpp:100] Creating Layer inception_4c/3x3
I0224 09:53:01.513567  2097 net.cpp:434] inception_4c/3x3 <- inception_4c/3x3_reduce
I0224 09:53:01.513586  2097 net.cpp:408] inception_4c/3x3 -> inception_4c/3x3
I0224 09:53:01.518857  2097 net.cpp:150] Setting up inception_4c/3x3
I0224 09:53:01.518887  2097 net.cpp:157] Top shape: 48 256 14 14 (2408448)
I0224 09:53:01.518896  2097 net.cpp:165] Memory required for data: 2085847300
I0224 09:53:01.518934  2097 layer_factory.hpp:77] Creating layer inception_4c/relu_3x3
I0224 09:53:01.518949  2097 net.cpp:100] Creating Layer inception_4c/relu_3x3
I0224 09:53:01.518987  2097 net.cpp:434] inception_4c/relu_3x3 <- inception_4c/3x3
I0224 09:53:01.519001  2097 net.cpp:395] inception_4c/relu_3x3 -> inception_4c/3x3 (in-place)
I0224 09:53:01.519016  2097 net.cpp:150] Setting up inception_4c/relu_3x3
I0224 09:53:01.519028  2097 net.cpp:157] Top shape: 48 256 14 14 (2408448)
I0224 09:53:01.519037  2097 net.cpp:165] Memory required for data: 2095481092
I0224 09:53:01.519047  2097 layer_factory.hpp:77] Creating layer inception_4c/5x5_reduce
I0224 09:53:01.519062  2097 net.cpp:100] Creating Layer inception_4c/5x5_reduce
I0224 09:53:01.519073  2097 net.cpp:434] inception_4c/5x5_reduce <- inception_4b/output_inception_4b/output_0_split_2
I0224 09:53:01.519091  2097 net.cpp:408] inception_4c/5x5_reduce -> inception_4c/5x5_reduce
I0224 09:53:01.519331  2097 net.cpp:150] Setting up inception_4c/5x5_reduce
I0224 09:53:01.519346  2097 net.cpp:157] Top shape: 48 24 14 14 (225792)
I0224 09:53:01.519356  2097 net.cpp:165] Memory required for data: 2096384260
I0224 09:53:01.519369  2097 layer_factory.hpp:77] Creating layer inception_4c/relu_5x5_reduce
I0224 09:53:01.519387  2097 net.cpp:100] Creating Layer inception_4c/relu_5x5_reduce
I0224 09:53:01.519398  2097 net.cpp:434] inception_4c/relu_5x5_reduce <- inception_4c/5x5_reduce
I0224 09:53:01.519410  2097 net.cpp:395] inception_4c/relu_5x5_reduce -> inception_4c/5x5_reduce (in-place)
I0224 09:53:01.519423  2097 net.cpp:150] Setting up inception_4c/relu_5x5_reduce
I0224 09:53:01.519434  2097 net.cpp:157] Top shape: 48 24 14 14 (225792)
I0224 09:53:01.519443  2097 net.cpp:165] Memory required for data: 2097287428
I0224 09:53:01.519453  2097 layer_factory.hpp:77] Creating layer inception_4c/5x5
I0224 09:53:01.519474  2097 net.cpp:100] Creating Layer inception_4c/5x5
I0224 09:53:01.519485  2097 net.cpp:434] inception_4c/5x5 <- inception_4c/5x5_reduce
I0224 09:53:01.519501  2097 net.cpp:408] inception_4c/5x5 -> inception_4c/5x5
I0224 09:53:01.520210  2097 net.cpp:150] Setting up inception_4c/5x5
I0224 09:53:01.520225  2097 net.cpp:157] Top shape: 48 64 14 14 (602112)
I0224 09:53:01.520232  2097 net.cpp:165] Memory required for data: 2099695876
I0224 09:53:01.520252  2097 layer_factory.hpp:77] Creating layer inception_4c/relu_5x5
I0224 09:53:01.520268  2097 net.cpp:100] Creating Layer inception_4c/relu_5x5
I0224 09:53:01.520279  2097 net.cpp:434] inception_4c/relu_5x5 <- inception_4c/5x5
I0224 09:53:01.520290  2097 net.cpp:395] inception_4c/relu_5x5 -> inception_4c/5x5 (in-place)
I0224 09:53:01.520306  2097 net.cpp:150] Setting up inception_4c/relu_5x5
I0224 09:53:01.520318  2097 net.cpp:157] Top shape: 48 64 14 14 (602112)
I0224 09:53:01.520328  2097 net.cpp:165] Memory required for data: 2102104324
I0224 09:53:01.520336  2097 layer_factory.hpp:77] Creating layer inception_4c/pool
I0224 09:53:01.520349  2097 net.cpp:100] Creating Layer inception_4c/pool
I0224 09:53:01.520359  2097 net.cpp:434] inception_4c/pool <- inception_4b/output_inception_4b/output_0_split_3
I0224 09:53:01.520372  2097 net.cpp:408] inception_4c/pool -> inception_4c/pool
I0224 09:53:01.520390  2097 net.cpp:150] Setting up inception_4c/pool
I0224 09:53:01.520401  2097 net.cpp:157] Top shape: 48 512 14 14 (4816896)
I0224 09:53:01.520411  2097 net.cpp:165] Memory required for data: 2121371908
I0224 09:53:01.520419  2097 layer_factory.hpp:77] Creating layer inception_4c/pool_proj
I0224 09:53:01.520439  2097 net.cpp:100] Creating Layer inception_4c/pool_proj
I0224 09:53:01.520449  2097 net.cpp:434] inception_4c/pool_proj <- inception_4c/pool
I0224 09:53:01.520463  2097 net.cpp:408] inception_4c/pool_proj -> inception_4c/pool_proj
I0224 09:53:01.521070  2097 net.cpp:150] Setting up inception_4c/pool_proj
I0224 09:53:01.521085  2097 net.cpp:157] Top shape: 48 64 14 14 (602112)
I0224 09:53:01.521093  2097 net.cpp:165] Memory required for data: 2123780356
I0224 09:53:01.521107  2097 layer_factory.hpp:77] Creating layer inception_4c/relu_pool_proj
I0224 09:53:01.521119  2097 net.cpp:100] Creating Layer inception_4c/relu_pool_proj
I0224 09:53:01.521137  2097 net.cpp:434] inception_4c/relu_pool_proj <- inception_4c/pool_proj
I0224 09:53:01.521169  2097 net.cpp:395] inception_4c/relu_pool_proj -> inception_4c/pool_proj (in-place)
I0224 09:53:01.521183  2097 net.cpp:150] Setting up inception_4c/relu_pool_proj
I0224 09:53:01.521195  2097 net.cpp:157] Top shape: 48 64 14 14 (602112)
I0224 09:53:01.521203  2097 net.cpp:165] Memory required for data: 2126188804
I0224 09:53:01.521214  2097 layer_factory.hpp:77] Creating layer inception_4c/output
I0224 09:53:01.521225  2097 net.cpp:100] Creating Layer inception_4c/output
I0224 09:53:01.521239  2097 net.cpp:434] inception_4c/output <- inception_4c/1x1
I0224 09:53:01.521258  2097 net.cpp:434] inception_4c/output <- inception_4c/3x3
I0224 09:53:01.521268  2097 net.cpp:434] inception_4c/output <- inception_4c/5x5
I0224 09:53:01.521280  2097 net.cpp:434] inception_4c/output <- inception_4c/pool_proj
I0224 09:53:01.521291  2097 net.cpp:408] inception_4c/output -> inception_4c/output
I0224 09:53:01.521307  2097 net.cpp:150] Setting up inception_4c/output
I0224 09:53:01.521319  2097 net.cpp:157] Top shape: 48 512 14 14 (4816896)
I0224 09:53:01.521328  2097 net.cpp:165] Memory required for data: 2145456388
I0224 09:53:01.521337  2097 layer_factory.hpp:77] Creating layer inception_4c/output_inception_4c/output_0_split
I0224 09:53:01.521349  2097 net.cpp:100] Creating Layer inception_4c/output_inception_4c/output_0_split
I0224 09:53:01.521359  2097 net.cpp:434] inception_4c/output_inception_4c/output_0_split <- inception_4c/output
I0224 09:53:01.521374  2097 net.cpp:408] inception_4c/output_inception_4c/output_0_split -> inception_4c/output_inception_4c/output_0_split_0
I0224 09:53:01.521389  2097 net.cpp:408] inception_4c/output_inception_4c/output_0_split -> inception_4c/output_inception_4c/output_0_split_1
I0224 09:53:01.521404  2097 net.cpp:408] inception_4c/output_inception_4c/output_0_split -> inception_4c/output_inception_4c/output_0_split_2
I0224 09:53:01.521417  2097 net.cpp:408] inception_4c/output_inception_4c/output_0_split -> inception_4c/output_inception_4c/output_0_split_3
I0224 09:53:01.521433  2097 net.cpp:150] Setting up inception_4c/output_inception_4c/output_0_split
I0224 09:53:01.521448  2097 net.cpp:157] Top shape: 48 512 14 14 (4816896)
I0224 09:53:01.521459  2097 net.cpp:157] Top shape: 48 512 14 14 (4816896)
I0224 09:53:01.521471  2097 net.cpp:157] Top shape: 48 512 14 14 (4816896)
I0224 09:53:01.521481  2097 net.cpp:157] Top shape: 48 512 14 14 (4816896)
I0224 09:53:01.521491  2097 net.cpp:165] Memory required for data: 2222526724
I0224 09:53:01.521499  2097 layer_factory.hpp:77] Creating layer inception_4d/1x1
I0224 09:53:01.521514  2097 net.cpp:100] Creating Layer inception_4d/1x1
I0224 09:53:01.521524  2097 net.cpp:434] inception_4d/1x1 <- inception_4c/output_inception_4c/output_0_split_0
I0224 09:53:01.521541  2097 net.cpp:408] inception_4d/1x1 -> inception_4d/1x1
I0224 09:53:01.522615  2097 net.cpp:150] Setting up inception_4d/1x1
I0224 09:53:01.522635  2097 net.cpp:157] Top shape: 48 112 14 14 (1053696)
I0224 09:53:01.522644  2097 net.cpp:165] Memory required for data: 2226741508
I0224 09:53:01.522658  2097 layer_factory.hpp:77] Creating layer inception_4d/relu_1x1
I0224 09:53:01.522673  2097 net.cpp:100] Creating Layer inception_4d/relu_1x1
I0224 09:53:01.522685  2097 net.cpp:434] inception_4d/relu_1x1 <- inception_4d/1x1
I0224 09:53:01.522696  2097 net.cpp:395] inception_4d/relu_1x1 -> inception_4d/1x1 (in-place)
I0224 09:53:01.522709  2097 net.cpp:150] Setting up inception_4d/relu_1x1
I0224 09:53:01.522722  2097 net.cpp:157] Top shape: 48 112 14 14 (1053696)
I0224 09:53:01.522730  2097 net.cpp:165] Memory required for data: 2230956292
I0224 09:53:01.522739  2097 layer_factory.hpp:77] Creating layer inception_4d/3x3_reduce
I0224 09:53:01.522758  2097 net.cpp:100] Creating Layer inception_4d/3x3_reduce
I0224 09:53:01.522768  2097 net.cpp:434] inception_4d/3x3_reduce <- inception_4c/output_inception_4c/output_0_split_1
I0224 09:53:01.522784  2097 net.cpp:408] inception_4d/3x3_reduce -> inception_4d/3x3_reduce
I0224 09:53:01.524183  2097 net.cpp:150] Setting up inception_4d/3x3_reduce
I0224 09:53:01.524209  2097 net.cpp:157] Top shape: 48 144 14 14 (1354752)
I0224 09:53:01.524217  2097 net.cpp:165] Memory required for data: 2236375300
I0224 09:53:01.524232  2097 layer_factory.hpp:77] Creating layer inception_4d/relu_3x3_reduce
I0224 09:53:01.524252  2097 net.cpp:100] Creating Layer inception_4d/relu_3x3_reduce
I0224 09:53:01.524265  2097 net.cpp:434] inception_4d/relu_3x3_reduce <- inception_4d/3x3_reduce
I0224 09:53:01.524281  2097 net.cpp:395] inception_4d/relu_3x3_reduce -> inception_4d/3x3_reduce (in-place)
I0224 09:53:01.524296  2097 net.cpp:150] Setting up inception_4d/relu_3x3_reduce
I0224 09:53:01.524307  2097 net.cpp:157] Top shape: 48 144 14 14 (1354752)
I0224 09:53:01.524317  2097 net.cpp:165] Memory required for data: 2241794308
I0224 09:53:01.524325  2097 layer_factory.hpp:77] Creating layer inception_4d/3x3
I0224 09:53:01.524340  2097 net.cpp:100] Creating Layer inception_4d/3x3
I0224 09:53:01.524350  2097 net.cpp:434] inception_4d/3x3 <- inception_4d/3x3_reduce
I0224 09:53:01.524363  2097 net.cpp:408] inception_4d/3x3 -> inception_4d/3x3
I0224 09:53:01.531021  2097 net.cpp:150] Setting up inception_4d/3x3
I0224 09:53:01.531054  2097 net.cpp:157] Top shape: 48 288 14 14 (2709504)
I0224 09:53:01.531062  2097 net.cpp:165] Memory required for data: 2252632324
I0224 09:53:01.531077  2097 layer_factory.hpp:77] Creating layer inception_4d/relu_3x3
I0224 09:53:01.531092  2097 net.cpp:100] Creating Layer inception_4d/relu_3x3
I0224 09:53:01.531103  2097 net.cpp:434] inception_4d/relu_3x3 <- inception_4d/3x3
I0224 09:53:01.531116  2097 net.cpp:395] inception_4d/relu_3x3 -> inception_4d/3x3 (in-place)
I0224 09:53:01.531131  2097 net.cpp:150] Setting up inception_4d/relu_3x3
I0224 09:53:01.531142  2097 net.cpp:157] Top shape: 48 288 14 14 (2709504)
I0224 09:53:01.531153  2097 net.cpp:165] Memory required for data: 2263470340
I0224 09:53:01.531162  2097 layer_factory.hpp:77] Creating layer inception_4d/5x5_reduce
I0224 09:53:01.531177  2097 net.cpp:100] Creating Layer inception_4d/5x5_reduce
I0224 09:53:01.531188  2097 net.cpp:434] inception_4d/5x5_reduce <- inception_4c/output_inception_4c/output_0_split_2
I0224 09:53:01.531208  2097 net.cpp:408] inception_4d/5x5_reduce -> inception_4d/5x5_reduce
I0224 09:53:01.531517  2097 net.cpp:150] Setting up inception_4d/5x5_reduce
I0224 09:53:01.531533  2097 net.cpp:157] Top shape: 48 32 14 14 (301056)
I0224 09:53:01.531541  2097 net.cpp:165] Memory required for data: 2264674564
I0224 09:53:01.531554  2097 layer_factory.hpp:77] Creating layer inception_4d/relu_5x5_reduce
I0224 09:53:01.531569  2097 net.cpp:100] Creating Layer inception_4d/relu_5x5_reduce
I0224 09:53:01.531579  2097 net.cpp:434] inception_4d/relu_5x5_reduce <- inception_4d/5x5_reduce
I0224 09:53:01.531590  2097 net.cpp:395] inception_4d/relu_5x5_reduce -> inception_4d/5x5_reduce (in-place)
I0224 09:53:01.531604  2097 net.cpp:150] Setting up inception_4d/relu_5x5_reduce
I0224 09:53:01.531615  2097 net.cpp:157] Top shape: 48 32 14 14 (301056)
I0224 09:53:01.531623  2097 net.cpp:165] Memory required for data: 2265878788
I0224 09:53:01.531632  2097 layer_factory.hpp:77] Creating layer inception_4d/5x5
I0224 09:53:01.531651  2097 net.cpp:100] Creating Layer inception_4d/5x5
I0224 09:53:01.531661  2097 net.cpp:434] inception_4d/5x5 <- inception_4d/5x5_reduce
I0224 09:53:01.531677  2097 net.cpp:408] inception_4d/5x5 -> inception_4d/5x5
I0224 09:53:01.532619  2097 net.cpp:150] Setting up inception_4d/5x5
I0224 09:53:01.532639  2097 net.cpp:157] Top shape: 48 64 14 14 (602112)
I0224 09:53:01.532647  2097 net.cpp:165] Memory required for data: 2268287236
I0224 09:53:01.532661  2097 layer_factory.hpp:77] Creating layer inception_4d/relu_5x5
I0224 09:53:01.532673  2097 net.cpp:100] Creating Layer inception_4d/relu_5x5
I0224 09:53:01.532683  2097 net.cpp:434] inception_4d/relu_5x5 <- inception_4d/5x5
I0224 09:53:01.532696  2097 net.cpp:395] inception_4d/relu_5x5 -> inception_4d/5x5 (in-place)
I0224 09:53:01.532719  2097 net.cpp:150] Setting up inception_4d/relu_5x5
I0224 09:53:01.532744  2097 net.cpp:157] Top shape: 48 64 14 14 (602112)
I0224 09:53:01.532753  2097 net.cpp:165] Memory required for data: 2270695684
I0224 09:53:01.532763  2097 layer_factory.hpp:77] Creating layer inception_4d/pool
I0224 09:53:01.532778  2097 net.cpp:100] Creating Layer inception_4d/pool
I0224 09:53:01.532789  2097 net.cpp:434] inception_4d/pool <- inception_4c/output_inception_4c/output_0_split_3
I0224 09:53:01.532802  2097 net.cpp:408] inception_4d/pool -> inception_4d/pool
I0224 09:53:01.532820  2097 net.cpp:150] Setting up inception_4d/pool
I0224 09:53:01.532832  2097 net.cpp:157] Top shape: 48 512 14 14 (4816896)
I0224 09:53:01.532840  2097 net.cpp:165] Memory required for data: 2289963268
I0224 09:53:01.532850  2097 layer_factory.hpp:77] Creating layer inception_4d/pool_proj
I0224 09:53:01.532867  2097 net.cpp:100] Creating Layer inception_4d/pool_proj
I0224 09:53:01.532877  2097 net.cpp:434] inception_4d/pool_proj <- inception_4d/pool
I0224 09:53:01.532893  2097 net.cpp:408] inception_4d/pool_proj -> inception_4d/pool_proj
I0224 09:53:01.533509  2097 net.cpp:150] Setting up inception_4d/pool_proj
I0224 09:53:01.533524  2097 net.cpp:157] Top shape: 48 64 14 14 (602112)
I0224 09:53:01.533534  2097 net.cpp:165] Memory required for data: 2292371716
I0224 09:53:01.533546  2097 layer_factory.hpp:77] Creating layer inception_4d/relu_pool_proj
I0224 09:53:01.533562  2097 net.cpp:100] Creating Layer inception_4d/relu_pool_proj
I0224 09:53:01.533572  2097 net.cpp:434] inception_4d/relu_pool_proj <- inception_4d/pool_proj
I0224 09:53:01.533584  2097 net.cpp:395] inception_4d/relu_pool_proj -> inception_4d/pool_proj (in-place)
I0224 09:53:01.533605  2097 net.cpp:150] Setting up inception_4d/relu_pool_proj
I0224 09:53:01.533617  2097 net.cpp:157] Top shape: 48 64 14 14 (602112)
I0224 09:53:01.533627  2097 net.cpp:165] Memory required for data: 2294780164
I0224 09:53:01.533635  2097 layer_factory.hpp:77] Creating layer inception_4d/output
I0224 09:53:01.533648  2097 net.cpp:100] Creating Layer inception_4d/output
I0224 09:53:01.533658  2097 net.cpp:434] inception_4d/output <- inception_4d/1x1
I0224 09:53:01.533668  2097 net.cpp:434] inception_4d/output <- inception_4d/3x3
I0224 09:53:01.533679  2097 net.cpp:434] inception_4d/output <- inception_4d/5x5
I0224 09:53:01.533689  2097 net.cpp:434] inception_4d/output <- inception_4d/pool_proj
I0224 09:53:01.533701  2097 net.cpp:408] inception_4d/output -> inception_4d/output
I0224 09:53:01.533717  2097 net.cpp:150] Setting up inception_4d/output
I0224 09:53:01.533730  2097 net.cpp:157] Top shape: 48 528 14 14 (4967424)
I0224 09:53:01.533737  2097 net.cpp:165] Memory required for data: 2314649860
I0224 09:53:01.533746  2097 layer_factory.hpp:77] Creating layer inception_4d/output_inception_4d/output_0_split
I0224 09:53:01.533766  2097 net.cpp:100] Creating Layer inception_4d/output_inception_4d/output_0_split
I0224 09:53:01.533776  2097 net.cpp:434] inception_4d/output_inception_4d/output_0_split <- inception_4d/output
I0224 09:53:01.533792  2097 net.cpp:408] inception_4d/output_inception_4d/output_0_split -> inception_4d/output_inception_4d/output_0_split_0
I0224 09:53:01.533808  2097 net.cpp:408] inception_4d/output_inception_4d/output_0_split -> inception_4d/output_inception_4d/output_0_split_1
I0224 09:53:01.533823  2097 net.cpp:408] inception_4d/output_inception_4d/output_0_split -> inception_4d/output_inception_4d/output_0_split_2
I0224 09:53:01.533838  2097 net.cpp:408] inception_4d/output_inception_4d/output_0_split -> inception_4d/output_inception_4d/output_0_split_3
I0224 09:53:01.533852  2097 net.cpp:408] inception_4d/output_inception_4d/output_0_split -> inception_4d/output_inception_4d/output_0_split_4
I0224 09:53:01.533869  2097 net.cpp:150] Setting up inception_4d/output_inception_4d/output_0_split
I0224 09:53:01.533881  2097 net.cpp:157] Top shape: 48 528 14 14 (4967424)
I0224 09:53:01.533892  2097 net.cpp:157] Top shape: 48 528 14 14 (4967424)
I0224 09:53:01.533903  2097 net.cpp:157] Top shape: 48 528 14 14 (4967424)
I0224 09:53:01.533933  2097 net.cpp:157] Top shape: 48 528 14 14 (4967424)
I0224 09:53:01.533946  2097 net.cpp:157] Top shape: 48 528 14 14 (4967424)
I0224 09:53:01.533953  2097 net.cpp:165] Memory required for data: 2413998340
I0224 09:53:01.533962  2097 layer_factory.hpp:77] Creating layer loss2/ave_pool
I0224 09:53:01.533977  2097 net.cpp:100] Creating Layer loss2/ave_pool
I0224 09:53:01.533987  2097 net.cpp:434] loss2/ave_pool <- inception_4d/output_inception_4d/output_0_split_0
I0224 09:53:01.534004  2097 net.cpp:408] loss2/ave_pool -> loss2/ave_pool
I0224 09:53:01.534020  2097 net.cpp:150] Setting up loss2/ave_pool
I0224 09:53:01.534032  2097 net.cpp:157] Top shape: 48 528 4 4 (405504)
I0224 09:53:01.534040  2097 net.cpp:165] Memory required for data: 2415620356
I0224 09:53:01.534049  2097 layer_factory.hpp:77] Creating layer loss2/conv
I0224 09:53:01.534068  2097 net.cpp:100] Creating Layer loss2/conv
I0224 09:53:01.534078  2097 net.cpp:434] loss2/conv <- loss2/ave_pool
I0224 09:53:01.534091  2097 net.cpp:408] loss2/conv -> loss2/conv
I0224 09:53:01.535339  2097 net.cpp:150] Setting up loss2/conv
I0224 09:53:01.535361  2097 net.cpp:157] Top shape: 48 128 4 4 (98304)
I0224 09:53:01.535369  2097 net.cpp:165] Memory required for data: 2416013572
I0224 09:53:01.535384  2097 layer_factory.hpp:77] Creating layer loss2/relu_conv
I0224 09:53:01.535398  2097 net.cpp:100] Creating Layer loss2/relu_conv
I0224 09:53:01.535408  2097 net.cpp:434] loss2/relu_conv <- loss2/conv
I0224 09:53:01.535423  2097 net.cpp:395] loss2/relu_conv -> loss2/conv (in-place)
I0224 09:53:01.535439  2097 net.cpp:150] Setting up loss2/relu_conv
I0224 09:53:01.535450  2097 net.cpp:157] Top shape: 48 128 4 4 (98304)
I0224 09:53:01.535459  2097 net.cpp:165] Memory required for data: 2416406788
I0224 09:53:01.535468  2097 layer_factory.hpp:77] Creating layer loss2/fc
I0224 09:53:01.535485  2097 net.cpp:100] Creating Layer loss2/fc
I0224 09:53:01.535493  2097 net.cpp:434] loss2/fc <- loss2/conv
I0224 09:53:01.535511  2097 net.cpp:408] loss2/fc -> loss2/fc
I0224 09:53:01.571727  2097 net.cpp:150] Setting up loss2/fc
I0224 09:53:01.571805  2097 net.cpp:157] Top shape: 48 1024 (49152)
I0224 09:53:01.571815  2097 net.cpp:165] Memory required for data: 2416603396
I0224 09:53:01.571836  2097 layer_factory.hpp:77] Creating layer loss2/relu_fc
I0224 09:53:01.571856  2097 net.cpp:100] Creating Layer loss2/relu_fc
I0224 09:53:01.571869  2097 net.cpp:434] loss2/relu_fc <- loss2/fc
I0224 09:53:01.571884  2097 net.cpp:395] loss2/relu_fc -> loss2/fc (in-place)
I0224 09:53:01.571903  2097 net.cpp:150] Setting up loss2/relu_fc
I0224 09:53:01.571914  2097 net.cpp:157] Top shape: 48 1024 (49152)
I0224 09:53:01.571923  2097 net.cpp:165] Memory required for data: 2416800004
I0224 09:53:01.571933  2097 layer_factory.hpp:77] Creating layer loss2/drop_fc
I0224 09:53:01.571948  2097 net.cpp:100] Creating Layer loss2/drop_fc
I0224 09:53:01.571956  2097 net.cpp:434] loss2/drop_fc <- loss2/fc
I0224 09:53:01.571971  2097 net.cpp:395] loss2/drop_fc -> loss2/fc (in-place)
I0224 09:53:01.571987  2097 net.cpp:150] Setting up loss2/drop_fc
I0224 09:53:01.572000  2097 net.cpp:157] Top shape: 48 1024 (49152)
I0224 09:53:01.572007  2097 net.cpp:165] Memory required for data: 2416996612
I0224 09:53:01.572016  2097 layer_factory.hpp:77] Creating layer loss2/classifier
I0224 09:53:01.572032  2097 net.cpp:100] Creating Layer loss2/classifier
I0224 09:53:01.572041  2097 net.cpp:434] loss2/classifier <- loss2/fc
I0224 09:53:01.572055  2097 net.cpp:408] loss2/classifier -> loss2/classifier
I0224 09:53:01.590136  2097 net.cpp:150] Setting up loss2/classifier
I0224 09:53:01.590180  2097 net.cpp:157] Top shape: 48 1000 (48000)
I0224 09:53:01.590189  2097 net.cpp:165] Memory required for data: 2417188612
I0224 09:53:01.590207  2097 layer_factory.hpp:77] Creating layer loss2/loss
I0224 09:53:01.590225  2097 net.cpp:100] Creating Layer loss2/loss
I0224 09:53:01.590237  2097 net.cpp:434] loss2/loss <- loss2/classifier
I0224 09:53:01.590256  2097 net.cpp:434] loss2/loss <- label_data_1_split_1
I0224 09:53:01.590293  2097 net.cpp:408] loss2/loss -> loss2/loss1
I0224 09:53:01.590330  2097 layer_factory.hpp:77] Creating layer loss2/loss
I0224 09:53:01.590571  2097 net.cpp:150] Setting up loss2/loss
I0224 09:53:01.590586  2097 net.cpp:157] Top shape: (1)
I0224 09:53:01.590595  2097 net.cpp:160]     with loss weight 0.3
I0224 09:53:01.590625  2097 net.cpp:165] Memory required for data: 2417188616
I0224 09:53:01.590633  2097 layer_factory.hpp:77] Creating layer inception_4e/1x1
I0224 09:53:01.590659  2097 net.cpp:100] Creating Layer inception_4e/1x1
I0224 09:53:01.590672  2097 net.cpp:434] inception_4e/1x1 <- inception_4d/output_inception_4d/output_0_split_1
I0224 09:53:01.590688  2097 net.cpp:408] inception_4e/1x1 -> inception_4e/1x1
I0224 09:53:01.593085  2097 net.cpp:150] Setting up inception_4e/1x1
I0224 09:53:01.593114  2097 net.cpp:157] Top shape: 48 256 14 14 (2408448)
I0224 09:53:01.593123  2097 net.cpp:165] Memory required for data: 2426822408
I0224 09:53:01.593138  2097 layer_factory.hpp:77] Creating layer inception_4e/relu_1x1
I0224 09:53:01.593153  2097 net.cpp:100] Creating Layer inception_4e/relu_1x1
I0224 09:53:01.593164  2097 net.cpp:434] inception_4e/relu_1x1 <- inception_4e/1x1
I0224 09:53:01.593181  2097 net.cpp:395] inception_4e/relu_1x1 -> inception_4e/1x1 (in-place)
I0224 09:53:01.593196  2097 net.cpp:150] Setting up inception_4e/relu_1x1
I0224 09:53:01.593209  2097 net.cpp:157] Top shape: 48 256 14 14 (2408448)
I0224 09:53:01.593217  2097 net.cpp:165] Memory required for data: 2436456200
I0224 09:53:01.593226  2097 layer_factory.hpp:77] Creating layer inception_4e/3x3_reduce
I0224 09:53:01.593251  2097 net.cpp:100] Creating Layer inception_4e/3x3_reduce
I0224 09:53:01.593264  2097 net.cpp:434] inception_4e/3x3_reduce <- inception_4d/output_inception_4d/output_0_split_2
I0224 09:53:01.593278  2097 net.cpp:408] inception_4e/3x3_reduce -> inception_4e/3x3_reduce
I0224 09:53:01.594822  2097 net.cpp:150] Setting up inception_4e/3x3_reduce
I0224 09:53:01.594846  2097 net.cpp:157] Top shape: 48 160 14 14 (1505280)
I0224 09:53:01.594856  2097 net.cpp:165] Memory required for data: 2442477320
I0224 09:53:01.594871  2097 layer_factory.hpp:77] Creating layer inception_4e/relu_3x3_reduce
I0224 09:53:01.594883  2097 net.cpp:100] Creating Layer inception_4e/relu_3x3_reduce
I0224 09:53:01.594893  2097 net.cpp:434] inception_4e/relu_3x3_reduce <- inception_4e/3x3_reduce
I0224 09:53:01.594907  2097 net.cpp:395] inception_4e/relu_3x3_reduce -> inception_4e/3x3_reduce (in-place)
I0224 09:53:01.594920  2097 net.cpp:150] Setting up inception_4e/relu_3x3_reduce
I0224 09:53:01.594933  2097 net.cpp:157] Top shape: 48 160 14 14 (1505280)
I0224 09:53:01.594940  2097 net.cpp:165] Memory required for data: 2448498440
I0224 09:53:01.594949  2097 layer_factory.hpp:77] Creating layer inception_4e/3x3
I0224 09:53:01.594972  2097 net.cpp:100] Creating Layer inception_4e/3x3
I0224 09:53:01.594982  2097 net.cpp:434] inception_4e/3x3 <- inception_4e/3x3_reduce
I0224 09:53:01.595001  2097 net.cpp:408] inception_4e/3x3 -> inception_4e/3x3
I0224 09:53:01.603353  2097 net.cpp:150] Setting up inception_4e/3x3
I0224 09:53:01.603385  2097 net.cpp:157] Top shape: 48 320 14 14 (3010560)
I0224 09:53:01.603394  2097 net.cpp:165] Memory required for data: 2460540680
I0224 09:53:01.603410  2097 layer_factory.hpp:77] Creating layer inception_4e/relu_3x3
I0224 09:53:01.603428  2097 net.cpp:100] Creating Layer inception_4e/relu_3x3
I0224 09:53:01.603440  2097 net.cpp:434] inception_4e/relu_3x3 <- inception_4e/3x3
I0224 09:53:01.603453  2097 net.cpp:395] inception_4e/relu_3x3 -> inception_4e/3x3 (in-place)
I0224 09:53:01.603467  2097 net.cpp:150] Setting up inception_4e/relu_3x3
I0224 09:53:01.603479  2097 net.cpp:157] Top shape: 48 320 14 14 (3010560)
I0224 09:53:01.603488  2097 net.cpp:165] Memory required for data: 2472582920
I0224 09:53:01.603497  2097 layer_factory.hpp:77] Creating layer inception_4e/5x5_reduce
I0224 09:53:01.603513  2097 net.cpp:100] Creating Layer inception_4e/5x5_reduce
I0224 09:53:01.603523  2097 net.cpp:434] inception_4e/5x5_reduce <- inception_4d/output_inception_4d/output_0_split_3
I0224 09:53:01.603565  2097 net.cpp:408] inception_4e/5x5_reduce -> inception_4e/5x5_reduce
I0224 09:53:01.603894  2097 net.cpp:150] Setting up inception_4e/5x5_reduce
I0224 09:53:01.603909  2097 net.cpp:157] Top shape: 48 32 14 14 (301056)
I0224 09:53:01.603917  2097 net.cpp:165] Memory required for data: 2473787144
I0224 09:53:01.603930  2097 layer_factory.hpp:77] Creating layer inception_4e/relu_5x5_reduce
I0224 09:53:01.603942  2097 net.cpp:100] Creating Layer inception_4e/relu_5x5_reduce
I0224 09:53:01.603952  2097 net.cpp:434] inception_4e/relu_5x5_reduce <- inception_4e/5x5_reduce
I0224 09:53:01.603967  2097 net.cpp:395] inception_4e/relu_5x5_reduce -> inception_4e/5x5_reduce (in-place)
I0224 09:53:01.603981  2097 net.cpp:150] Setting up inception_4e/relu_5x5_reduce
I0224 09:53:01.603993  2097 net.cpp:157] Top shape: 48 32 14 14 (301056)
I0224 09:53:01.604001  2097 net.cpp:165] Memory required for data: 2474991368
I0224 09:53:01.604010  2097 layer_factory.hpp:77] Creating layer inception_4e/5x5
I0224 09:53:01.604061  2097 net.cpp:100] Creating Layer inception_4e/5x5
I0224 09:53:01.604076  2097 net.cpp:434] inception_4e/5x5 <- inception_4e/5x5_reduce
I0224 09:53:01.604090  2097 net.cpp:408] inception_4e/5x5 -> inception_4e/5x5
I0224 09:53:01.605937  2097 net.cpp:150] Setting up inception_4e/5x5
I0224 09:53:01.605965  2097 net.cpp:157] Top shape: 48 128 14 14 (1204224)
I0224 09:53:01.605974  2097 net.cpp:165] Memory required for data: 2479808264
I0224 09:53:01.605990  2097 layer_factory.hpp:77] Creating layer inception_4e/relu_5x5
I0224 09:53:01.606004  2097 net.cpp:100] Creating Layer inception_4e/relu_5x5
I0224 09:53:01.606014  2097 net.cpp:434] inception_4e/relu_5x5 <- inception_4e/5x5
I0224 09:53:01.606030  2097 net.cpp:395] inception_4e/relu_5x5 -> inception_4e/5x5 (in-place)
I0224 09:53:01.606045  2097 net.cpp:150] Setting up inception_4e/relu_5x5
I0224 09:53:01.606056  2097 net.cpp:157] Top shape: 48 128 14 14 (1204224)
I0224 09:53:01.606065  2097 net.cpp:165] Memory required for data: 2484625160
I0224 09:53:01.606075  2097 layer_factory.hpp:77] Creating layer inception_4e/pool
I0224 09:53:01.606088  2097 net.cpp:100] Creating Layer inception_4e/pool
I0224 09:53:01.606099  2097 net.cpp:434] inception_4e/pool <- inception_4d/output_inception_4d/output_0_split_4
I0224 09:53:01.606115  2097 net.cpp:408] inception_4e/pool -> inception_4e/pool
I0224 09:53:01.606135  2097 net.cpp:150] Setting up inception_4e/pool
I0224 09:53:01.606148  2097 net.cpp:157] Top shape: 48 528 14 14 (4967424)
I0224 09:53:01.606156  2097 net.cpp:165] Memory required for data: 2504494856
I0224 09:53:01.606165  2097 layer_factory.hpp:77] Creating layer inception_4e/pool_proj
I0224 09:53:01.606184  2097 net.cpp:100] Creating Layer inception_4e/pool_proj
I0224 09:53:01.606194  2097 net.cpp:434] inception_4e/pool_proj <- inception_4e/pool
I0224 09:53:01.606207  2097 net.cpp:408] inception_4e/pool_proj -> inception_4e/pool_proj
I0224 09:53:01.607450  2097 net.cpp:150] Setting up inception_4e/pool_proj
I0224 09:53:01.607471  2097 net.cpp:157] Top shape: 48 128 14 14 (1204224)
I0224 09:53:01.607481  2097 net.cpp:165] Memory required for data: 2509311752
I0224 09:53:01.607496  2097 layer_factory.hpp:77] Creating layer inception_4e/relu_pool_proj
I0224 09:53:01.607507  2097 net.cpp:100] Creating Layer inception_4e/relu_pool_proj
I0224 09:53:01.607517  2097 net.cpp:434] inception_4e/relu_pool_proj <- inception_4e/pool_proj
I0224 09:53:01.607529  2097 net.cpp:395] inception_4e/relu_pool_proj -> inception_4e/pool_proj (in-place)
I0224 09:53:01.607543  2097 net.cpp:150] Setting up inception_4e/relu_pool_proj
I0224 09:53:01.607554  2097 net.cpp:157] Top shape: 48 128 14 14 (1204224)
I0224 09:53:01.607563  2097 net.cpp:165] Memory required for data: 2514128648
I0224 09:53:01.607573  2097 layer_factory.hpp:77] Creating layer inception_4e/output
I0224 09:53:01.607585  2097 net.cpp:100] Creating Layer inception_4e/output
I0224 09:53:01.607595  2097 net.cpp:434] inception_4e/output <- inception_4e/1x1
I0224 09:53:01.607630  2097 net.cpp:434] inception_4e/output <- inception_4e/3x3
I0224 09:53:01.607642  2097 net.cpp:434] inception_4e/output <- inception_4e/5x5
I0224 09:53:01.607652  2097 net.cpp:434] inception_4e/output <- inception_4e/pool_proj
I0224 09:53:01.607668  2097 net.cpp:408] inception_4e/output -> inception_4e/output
I0224 09:53:01.607687  2097 net.cpp:150] Setting up inception_4e/output
I0224 09:53:01.607699  2097 net.cpp:157] Top shape: 48 832 14 14 (7827456)
I0224 09:53:01.607708  2097 net.cpp:165] Memory required for data: 2545438472
I0224 09:53:01.607717  2097 layer_factory.hpp:77] Creating layer pool4/3x3_s2
I0224 09:53:01.607729  2097 net.cpp:100] Creating Layer pool4/3x3_s2
I0224 09:53:01.607738  2097 net.cpp:434] pool4/3x3_s2 <- inception_4e/output
I0224 09:53:01.607751  2097 net.cpp:408] pool4/3x3_s2 -> pool4/3x3_s2
I0224 09:53:01.607769  2097 net.cpp:150] Setting up pool4/3x3_s2
I0224 09:53:01.607780  2097 net.cpp:157] Top shape: 48 832 7 7 (1956864)
I0224 09:53:01.607789  2097 net.cpp:165] Memory required for data: 2553265928
I0224 09:53:01.607797  2097 layer_factory.hpp:77] Creating layer pool4/3x3_s2_pool4/3x3_s2_0_split
I0224 09:53:01.607815  2097 net.cpp:100] Creating Layer pool4/3x3_s2_pool4/3x3_s2_0_split
I0224 09:53:01.607825  2097 net.cpp:434] pool4/3x3_s2_pool4/3x3_s2_0_split <- pool4/3x3_s2
I0224 09:53:01.607836  2097 net.cpp:408] pool4/3x3_s2_pool4/3x3_s2_0_split -> pool4/3x3_s2_pool4/3x3_s2_0_split_0
I0224 09:53:01.607851  2097 net.cpp:408] pool4/3x3_s2_pool4/3x3_s2_0_split -> pool4/3x3_s2_pool4/3x3_s2_0_split_1
I0224 09:53:01.607864  2097 net.cpp:408] pool4/3x3_s2_pool4/3x3_s2_0_split -> pool4/3x3_s2_pool4/3x3_s2_0_split_2
I0224 09:53:01.607878  2097 net.cpp:408] pool4/3x3_s2_pool4/3x3_s2_0_split -> pool4/3x3_s2_pool4/3x3_s2_0_split_3
I0224 09:53:01.607895  2097 net.cpp:150] Setting up pool4/3x3_s2_pool4/3x3_s2_0_split
I0224 09:53:01.607906  2097 net.cpp:157] Top shape: 48 832 7 7 (1956864)
I0224 09:53:01.607918  2097 net.cpp:157] Top shape: 48 832 7 7 (1956864)
I0224 09:53:01.607928  2097 net.cpp:157] Top shape: 48 832 7 7 (1956864)
I0224 09:53:01.607939  2097 net.cpp:157] Top shape: 48 832 7 7 (1956864)
I0224 09:53:01.607949  2097 net.cpp:165] Memory required for data: 2584575752
I0224 09:53:01.607957  2097 layer_factory.hpp:77] Creating layer inception_5a/1x1
I0224 09:53:01.607975  2097 net.cpp:100] Creating Layer inception_5a/1x1
I0224 09:53:01.607985  2097 net.cpp:434] inception_5a/1x1 <- pool4/3x3_s2_pool4/3x3_s2_0_split_0
I0224 09:53:01.608000  2097 net.cpp:408] inception_5a/1x1 -> inception_5a/1x1
I0224 09:53:01.611798  2097 net.cpp:150] Setting up inception_5a/1x1
I0224 09:53:01.611827  2097 net.cpp:157] Top shape: 48 256 7 7 (602112)
I0224 09:53:01.611836  2097 net.cpp:165] Memory required for data: 2586984200
I0224 09:53:01.611851  2097 layer_factory.hpp:77] Creating layer inception_5a/relu_1x1
I0224 09:53:01.611865  2097 net.cpp:100] Creating Layer inception_5a/relu_1x1
I0224 09:53:01.611876  2097 net.cpp:434] inception_5a/relu_1x1 <- inception_5a/1x1
I0224 09:53:01.611891  2097 net.cpp:395] inception_5a/relu_1x1 -> inception_5a/1x1 (in-place)
I0224 09:53:01.611907  2097 net.cpp:150] Setting up inception_5a/relu_1x1
I0224 09:53:01.611918  2097 net.cpp:157] Top shape: 48 256 7 7 (602112)
I0224 09:53:01.611927  2097 net.cpp:165] Memory required for data: 2589392648
I0224 09:53:01.611937  2097 layer_factory.hpp:77] Creating layer inception_5a/3x3_reduce
I0224 09:53:01.611951  2097 net.cpp:100] Creating Layer inception_5a/3x3_reduce
I0224 09:53:01.611961  2097 net.cpp:434] inception_5a/3x3_reduce <- pool4/3x3_s2_pool4/3x3_s2_0_split_1
I0224 09:53:01.611975  2097 net.cpp:408] inception_5a/3x3_reduce -> inception_5a/3x3_reduce
I0224 09:53:01.614388  2097 net.cpp:150] Setting up inception_5a/3x3_reduce
I0224 09:53:01.614415  2097 net.cpp:157] Top shape: 48 160 7 7 (376320)
I0224 09:53:01.614424  2097 net.cpp:165] Memory required for data: 2590897928
I0224 09:53:01.614440  2097 layer_factory.hpp:77] Creating layer inception_5a/relu_3x3_reduce
I0224 09:53:01.614464  2097 net.cpp:100] Creating Layer inception_5a/relu_3x3_reduce
I0224 09:53:01.614486  2097 net.cpp:434] inception_5a/relu_3x3_reduce <- inception_5a/3x3_reduce
I0224 09:53:01.614503  2097 net.cpp:395] inception_5a/relu_3x3_reduce -> inception_5a/3x3_reduce (in-place)
I0224 09:53:01.614519  2097 net.cpp:150] Setting up inception_5a/relu_3x3_reduce
I0224 09:53:01.614531  2097 net.cpp:157] Top shape: 48 160 7 7 (376320)
I0224 09:53:01.614539  2097 net.cpp:165] Memory required for data: 2592403208
I0224 09:53:01.614549  2097 layer_factory.hpp:77] Creating layer inception_5a/3x3
I0224 09:53:01.614565  2097 net.cpp:100] Creating Layer inception_5a/3x3
I0224 09:53:01.614574  2097 net.cpp:434] inception_5a/3x3 <- inception_5a/3x3_reduce
I0224 09:53:01.614588  2097 net.cpp:408] inception_5a/3x3 -> inception_5a/3x3
I0224 09:53:01.622879  2097 net.cpp:150] Setting up inception_5a/3x3
I0224 09:53:01.622910  2097 net.cpp:157] Top shape: 48 320 7 7 (752640)
I0224 09:53:01.622920  2097 net.cpp:165] Memory required for data: 2595413768
I0224 09:53:01.622934  2097 layer_factory.hpp:77] Creating layer inception_5a/relu_3x3
I0224 09:53:01.622949  2097 net.cpp:100] Creating Layer inception_5a/relu_3x3
I0224 09:53:01.622961  2097 net.cpp:434] inception_5a/relu_3x3 <- inception_5a/3x3
I0224 09:53:01.622973  2097 net.cpp:395] inception_5a/relu_3x3 -> inception_5a/3x3 (in-place)
I0224 09:53:01.622988  2097 net.cpp:150] Setting up inception_5a/relu_3x3
I0224 09:53:01.622999  2097 net.cpp:157] Top shape: 48 320 7 7 (752640)
I0224 09:53:01.623008  2097 net.cpp:165] Memory required for data: 2598424328
I0224 09:53:01.623016  2097 layer_factory.hpp:77] Creating layer inception_5a/5x5_reduce
I0224 09:53:01.623033  2097 net.cpp:100] Creating Layer inception_5a/5x5_reduce
I0224 09:53:01.623044  2097 net.cpp:434] inception_5a/5x5_reduce <- pool4/3x3_s2_pool4/3x3_s2_0_split_2
I0224 09:53:01.623059  2097 net.cpp:408] inception_5a/5x5_reduce -> inception_5a/5x5_reduce
I0224 09:53:01.623576  2097 net.cpp:150] Setting up inception_5a/5x5_reduce
I0224 09:53:01.623594  2097 net.cpp:157] Top shape: 48 32 7 7 (75264)
I0224 09:53:01.623602  2097 net.cpp:165] Memory required for data: 2598725384
I0224 09:53:01.623615  2097 layer_factory.hpp:77] Creating layer inception_5a/relu_5x5_reduce
I0224 09:53:01.623627  2097 net.cpp:100] Creating Layer inception_5a/relu_5x5_reduce
I0224 09:53:01.623637  2097 net.cpp:434] inception_5a/relu_5x5_reduce <- inception_5a/5x5_reduce
I0224 09:53:01.623652  2097 net.cpp:395] inception_5a/relu_5x5_reduce -> inception_5a/5x5_reduce (in-place)
I0224 09:53:01.623667  2097 net.cpp:150] Setting up inception_5a/relu_5x5_reduce
I0224 09:53:01.623677  2097 net.cpp:157] Top shape: 48 32 7 7 (75264)
I0224 09:53:01.623687  2097 net.cpp:165] Memory required for data: 2599026440
I0224 09:53:01.623695  2097 layer_factory.hpp:77] Creating layer inception_5a/5x5
I0224 09:53:01.623710  2097 net.cpp:100] Creating Layer inception_5a/5x5
I0224 09:53:01.623720  2097 net.cpp:434] inception_5a/5x5 <- inception_5a/5x5_reduce
I0224 09:53:01.623735  2097 net.cpp:408] inception_5a/5x5 -> inception_5a/5x5
I0224 09:53:01.625525  2097 net.cpp:150] Setting up inception_5a/5x5
I0224 09:53:01.625551  2097 net.cpp:157] Top shape: 48 128 7 7 (301056)
I0224 09:53:01.625560  2097 net.cpp:165] Memory required for data: 2600230664
I0224 09:53:01.625576  2097 layer_factory.hpp:77] Creating layer inception_5a/relu_5x5
I0224 09:53:01.625596  2097 net.cpp:100] Creating Layer inception_5a/relu_5x5
I0224 09:53:01.625607  2097 net.cpp:434] inception_5a/relu_5x5 <- inception_5a/5x5
I0224 09:53:01.625619  2097 net.cpp:395] inception_5a/relu_5x5 -> inception_5a/5x5 (in-place)
I0224 09:53:01.625634  2097 net.cpp:150] Setting up inception_5a/relu_5x5
I0224 09:53:01.625646  2097 net.cpp:157] Top shape: 48 128 7 7 (301056)
I0224 09:53:01.625654  2097 net.cpp:165] Memory required for data: 2601434888
I0224 09:53:01.625663  2097 layer_factory.hpp:77] Creating layer inception_5a/pool
I0224 09:53:01.625677  2097 net.cpp:100] Creating Layer inception_5a/pool
I0224 09:53:01.625699  2097 net.cpp:434] inception_5a/pool <- pool4/3x3_s2_pool4/3x3_s2_0_split_3
I0224 09:53:01.625730  2097 net.cpp:408] inception_5a/pool -> inception_5a/pool
I0224 09:53:01.625748  2097 net.cpp:150] Setting up inception_5a/pool
I0224 09:53:01.625761  2097 net.cpp:157] Top shape: 48 832 7 7 (1956864)
I0224 09:53:01.625769  2097 net.cpp:165] Memory required for data: 2609262344
I0224 09:53:01.625778  2097 layer_factory.hpp:77] Creating layer inception_5a/pool_proj
I0224 09:53:01.625797  2097 net.cpp:100] Creating Layer inception_5a/pool_proj
I0224 09:53:01.625808  2097 net.cpp:434] inception_5a/pool_proj <- inception_5a/pool
I0224 09:53:01.625823  2097 net.cpp:408] inception_5a/pool_proj -> inception_5a/pool_proj
I0224 09:53:01.627748  2097 net.cpp:150] Setting up inception_5a/pool_proj
I0224 09:53:01.627774  2097 net.cpp:157] Top shape: 48 128 7 7 (301056)
I0224 09:53:01.627784  2097 net.cpp:165] Memory required for data: 2610466568
I0224 09:53:01.627799  2097 layer_factory.hpp:77] Creating layer inception_5a/relu_pool_proj
I0224 09:53:01.627818  2097 net.cpp:100] Creating Layer inception_5a/relu_pool_proj
I0224 09:53:01.627830  2097 net.cpp:434] inception_5a/relu_pool_proj <- inception_5a/pool_proj
I0224 09:53:01.627842  2097 net.cpp:395] inception_5a/relu_pool_proj -> inception_5a/pool_proj (in-place)
I0224 09:53:01.627861  2097 net.cpp:150] Setting up inception_5a/relu_pool_proj
I0224 09:53:01.627872  2097 net.cpp:157] Top shape: 48 128 7 7 (301056)
I0224 09:53:01.627882  2097 net.cpp:165] Memory required for data: 2611670792
I0224 09:53:01.627890  2097 layer_factory.hpp:77] Creating layer inception_5a/output
I0224 09:53:01.627903  2097 net.cpp:100] Creating Layer inception_5a/output
I0224 09:53:01.627912  2097 net.cpp:434] inception_5a/output <- inception_5a/1x1
I0224 09:53:01.627923  2097 net.cpp:434] inception_5a/output <- inception_5a/3x3
I0224 09:53:01.627933  2097 net.cpp:434] inception_5a/output <- inception_5a/5x5
I0224 09:53:01.627944  2097 net.cpp:434] inception_5a/output <- inception_5a/pool_proj
I0224 09:53:01.627955  2097 net.cpp:408] inception_5a/output -> inception_5a/output
I0224 09:53:01.627972  2097 net.cpp:150] Setting up inception_5a/output
I0224 09:53:01.627985  2097 net.cpp:157] Top shape: 48 832 7 7 (1956864)
I0224 09:53:01.627992  2097 net.cpp:165] Memory required for data: 2619498248
I0224 09:53:01.628001  2097 layer_factory.hpp:77] Creating layer inception_5a/output_inception_5a/output_0_split
I0224 09:53:01.628013  2097 net.cpp:100] Creating Layer inception_5a/output_inception_5a/output_0_split
I0224 09:53:01.628022  2097 net.cpp:434] inception_5a/output_inception_5a/output_0_split <- inception_5a/output
I0224 09:53:01.628038  2097 net.cpp:408] inception_5a/output_inception_5a/output_0_split -> inception_5a/output_inception_5a/output_0_split_0
I0224 09:53:01.628053  2097 net.cpp:408] inception_5a/output_inception_5a/output_0_split -> inception_5a/output_inception_5a/output_0_split_1
I0224 09:53:01.628068  2097 net.cpp:408] inception_5a/output_inception_5a/output_0_split -> inception_5a/output_inception_5a/output_0_split_2
I0224 09:53:01.628083  2097 net.cpp:408] inception_5a/output_inception_5a/output_0_split -> inception_5a/output_inception_5a/output_0_split_3
I0224 09:53:01.628099  2097 net.cpp:150] Setting up inception_5a/output_inception_5a/output_0_split
I0224 09:53:01.628111  2097 net.cpp:157] Top shape: 48 832 7 7 (1956864)
I0224 09:53:01.628123  2097 net.cpp:157] Top shape: 48 832 7 7 (1956864)
I0224 09:53:01.628132  2097 net.cpp:157] Top shape: 48 832 7 7 (1956864)
I0224 09:53:01.628144  2097 net.cpp:157] Top shape: 48 832 7 7 (1956864)
I0224 09:53:01.628152  2097 net.cpp:165] Memory required for data: 2650808072
I0224 09:53:01.628160  2097 layer_factory.hpp:77] Creating layer inception_5b/1x1
I0224 09:53:01.628178  2097 net.cpp:100] Creating Layer inception_5b/1x1
I0224 09:53:01.628190  2097 net.cpp:434] inception_5b/1x1 <- inception_5a/output_inception_5a/output_0_split_0
I0224 09:53:01.628202  2097 net.cpp:408] inception_5b/1x1 -> inception_5b/1x1
I0224 09:53:01.633746  2097 net.cpp:150] Setting up inception_5b/1x1
I0224 09:53:01.633798  2097 net.cpp:157] Top shape: 48 384 7 7 (903168)
I0224 09:53:01.633807  2097 net.cpp:165] Memory required for data: 2654420744
I0224 09:53:01.633822  2097 layer_factory.hpp:77] Creating layer inception_5b/relu_1x1
I0224 09:53:01.633836  2097 net.cpp:100] Creating Layer inception_5b/relu_1x1
I0224 09:53:01.633847  2097 net.cpp:434] inception_5b/relu_1x1 <- inception_5b/1x1
I0224 09:53:01.633863  2097 net.cpp:395] inception_5b/relu_1x1 -> inception_5b/1x1 (in-place)
I0224 09:53:01.633878  2097 net.cpp:150] Setting up inception_5b/relu_1x1
I0224 09:53:01.633890  2097 net.cpp:157] Top shape: 48 384 7 7 (903168)
I0224 09:53:01.633899  2097 net.cpp:165] Memory required for data: 2658033416
I0224 09:53:01.633908  2097 layer_factory.hpp:77] Creating layer inception_5b/3x3_reduce
I0224 09:53:01.633924  2097 net.cpp:100] Creating Layer inception_5b/3x3_reduce
I0224 09:53:01.633934  2097 net.cpp:434] inception_5b/3x3_reduce <- inception_5a/output_inception_5a/output_0_split_1
I0224 09:53:01.633949  2097 net.cpp:408] inception_5b/3x3_reduce -> inception_5b/3x3_reduce
I0224 09:53:01.636813  2097 net.cpp:150] Setting up inception_5b/3x3_reduce
I0224 09:53:01.636842  2097 net.cpp:157] Top shape: 48 192 7 7 (451584)
I0224 09:53:01.636850  2097 net.cpp:165] Memory required for data: 2659839752
I0224 09:53:01.636865  2097 layer_factory.hpp:77] Creating layer inception_5b/relu_3x3_reduce
I0224 09:53:01.636883  2097 net.cpp:100] Creating Layer inception_5b/relu_3x3_reduce
I0224 09:53:01.636893  2097 net.cpp:434] inception_5b/relu_3x3_reduce <- inception_5b/3x3_reduce
I0224 09:53:01.636906  2097 net.cpp:395] inception_5b/relu_3x3_reduce -> inception_5b/3x3_reduce (in-place)
I0224 09:53:01.636922  2097 net.cpp:150] Setting up inception_5b/relu_3x3_reduce
I0224 09:53:01.636934  2097 net.cpp:157] Top shape: 48 192 7 7 (451584)
I0224 09:53:01.636942  2097 net.cpp:165] Memory required for data: 2661646088
I0224 09:53:01.636951  2097 layer_factory.hpp:77] Creating layer inception_5b/3x3
I0224 09:53:01.636967  2097 net.cpp:100] Creating Layer inception_5b/3x3
I0224 09:53:01.636977  2097 net.cpp:434] inception_5b/3x3 <- inception_5b/3x3_reduce
I0224 09:53:01.636993  2097 net.cpp:408] inception_5b/3x3 -> inception_5b/3x3
I0224 09:53:01.649050  2097 net.cpp:150] Setting up inception_5b/3x3
I0224 09:53:01.649091  2097 net.cpp:157] Top shape: 48 384 7 7 (903168)
I0224 09:53:01.649101  2097 net.cpp:165] Memory required for data: 2665258760
I0224 09:53:01.649117  2097 layer_factory.hpp:77] Creating layer inception_5b/relu_3x3
I0224 09:53:01.649132  2097 net.cpp:100] Creating Layer inception_5b/relu_3x3
I0224 09:53:01.649143  2097 net.cpp:434] inception_5b/relu_3x3 <- inception_5b/3x3
I0224 09:53:01.649157  2097 net.cpp:395] inception_5b/relu_3x3 -> inception_5b/3x3 (in-place)
I0224 09:53:01.649173  2097 net.cpp:150] Setting up inception_5b/relu_3x3
I0224 09:53:01.649184  2097 net.cpp:157] Top shape: 48 384 7 7 (903168)
I0224 09:53:01.649193  2097 net.cpp:165] Memory required for data: 2668871432
I0224 09:53:01.649201  2097 layer_factory.hpp:77] Creating layer inception_5b/5x5_reduce
I0224 09:53:01.649219  2097 net.cpp:100] Creating Layer inception_5b/5x5_reduce
I0224 09:53:01.649229  2097 net.cpp:434] inception_5b/5x5_reduce <- inception_5a/output_inception_5a/output_0_split_2
I0224 09:53:01.649251  2097 net.cpp:408] inception_5b/5x5_reduce -> inception_5b/5x5_reduce
I0224 09:53:01.649981  2097 net.cpp:150] Setting up inception_5b/5x5_reduce
I0224 09:53:01.649996  2097 net.cpp:157] Top shape: 48 48 7 7 (112896)
I0224 09:53:01.650005  2097 net.cpp:165] Memory required for data: 2669323016
I0224 09:53:01.650019  2097 layer_factory.hpp:77] Creating layer inception_5b/relu_5x5_reduce
I0224 09:53:01.650030  2097 net.cpp:100] Creating Layer inception_5b/relu_5x5_reduce
I0224 09:53:01.650040  2097 net.cpp:434] inception_5b/relu_5x5_reduce <- inception_5b/5x5_reduce
I0224 09:53:01.650055  2097 net.cpp:395] inception_5b/relu_5x5_reduce -> inception_5b/5x5_reduce (in-place)
I0224 09:53:01.650069  2097 net.cpp:150] Setting up inception_5b/relu_5x5_reduce
I0224 09:53:01.650105  2097 net.cpp:157] Top shape: 48 48 7 7 (112896)
I0224 09:53:01.650115  2097 net.cpp:165] Memory required for data: 2669774600
I0224 09:53:01.650123  2097 layer_factory.hpp:77] Creating layer inception_5b/5x5
I0224 09:53:01.650141  2097 net.cpp:100] Creating Layer inception_5b/5x5
I0224 09:53:01.650152  2097 net.cpp:434] inception_5b/5x5 <- inception_5b/5x5_reduce
I0224 09:53:01.650166  2097 net.cpp:408] inception_5b/5x5 -> inception_5b/5x5
I0224 09:53:01.652927  2097 net.cpp:150] Setting up inception_5b/5x5
I0224 09:53:01.652956  2097 net.cpp:157] Top shape: 48 128 7 7 (301056)
I0224 09:53:01.652966  2097 net.cpp:165] Memory required for data: 2670978824
I0224 09:53:01.652981  2097 layer_factory.hpp:77] Creating layer inception_5b/relu_5x5
I0224 09:53:01.652997  2097 net.cpp:100] Creating Layer inception_5b/relu_5x5
I0224 09:53:01.653008  2097 net.cpp:434] inception_5b/relu_5x5 <- inception_5b/5x5
I0224 09:53:01.653022  2097 net.cpp:395] inception_5b/relu_5x5 -> inception_5b/5x5 (in-place)
I0224 09:53:01.653035  2097 net.cpp:150] Setting up inception_5b/relu_5x5
I0224 09:53:01.653048  2097 net.cpp:157] Top shape: 48 128 7 7 (301056)
I0224 09:53:01.653055  2097 net.cpp:165] Memory required for data: 2672183048
I0224 09:53:01.653064  2097 layer_factory.hpp:77] Creating layer inception_5b/pool
I0224 09:53:01.653077  2097 net.cpp:100] Creating Layer inception_5b/pool
I0224 09:53:01.653087  2097 net.cpp:434] inception_5b/pool <- inception_5a/output_inception_5a/output_0_split_3
I0224 09:53:01.653103  2097 net.cpp:408] inception_5b/pool -> inception_5b/pool
I0224 09:53:01.653123  2097 net.cpp:150] Setting up inception_5b/pool
I0224 09:53:01.653136  2097 net.cpp:157] Top shape: 48 832 7 7 (1956864)
I0224 09:53:01.653143  2097 net.cpp:165] Memory required for data: 2680010504
I0224 09:53:01.653152  2097 layer_factory.hpp:77] Creating layer inception_5b/pool_proj
I0224 09:53:01.653170  2097 net.cpp:100] Creating Layer inception_5b/pool_proj
I0224 09:53:01.653180  2097 net.cpp:434] inception_5b/pool_proj <- inception_5b/pool
I0224 09:53:01.653197  2097 net.cpp:408] inception_5b/pool_proj -> inception_5b/pool_proj
I0224 09:53:01.655123  2097 net.cpp:150] Setting up inception_5b/pool_proj
I0224 09:53:01.655149  2097 net.cpp:157] Top shape: 48 128 7 7 (301056)
I0224 09:53:01.655158  2097 net.cpp:165] Memory required for data: 2681214728
I0224 09:53:01.655172  2097 layer_factory.hpp:77] Creating layer inception_5b/relu_pool_proj
I0224 09:53:01.655189  2097 net.cpp:100] Creating Layer inception_5b/relu_pool_proj
I0224 09:53:01.655201  2097 net.cpp:434] inception_5b/relu_pool_proj <- inception_5b/pool_proj
I0224 09:53:01.655213  2097 net.cpp:395] inception_5b/relu_pool_proj -> inception_5b/pool_proj (in-place)
I0224 09:53:01.655232  2097 net.cpp:150] Setting up inception_5b/relu_pool_proj
I0224 09:53:01.655252  2097 net.cpp:157] Top shape: 48 128 7 7 (301056)
I0224 09:53:01.655263  2097 net.cpp:165] Memory required for data: 2682418952
I0224 09:53:01.655272  2097 layer_factory.hpp:77] Creating layer inception_5b/output
I0224 09:53:01.655285  2097 net.cpp:100] Creating Layer inception_5b/output
I0224 09:53:01.655295  2097 net.cpp:434] inception_5b/output <- inception_5b/1x1
I0224 09:53:01.655306  2097 net.cpp:434] inception_5b/output <- inception_5b/3x3
I0224 09:53:01.655318  2097 net.cpp:434] inception_5b/output <- inception_5b/5x5
I0224 09:53:01.655328  2097 net.cpp:434] inception_5b/output <- inception_5b/pool_proj
I0224 09:53:01.655344  2097 net.cpp:408] inception_5b/output -> inception_5b/output
I0224 09:53:01.655360  2097 net.cpp:150] Setting up inception_5b/output
I0224 09:53:01.655372  2097 net.cpp:157] Top shape: 48 1024 7 7 (2408448)
I0224 09:53:01.655381  2097 net.cpp:165] Memory required for data: 2692052744
I0224 09:53:01.655390  2097 layer_factory.hpp:77] Creating layer pool5/7x7_s1
I0224 09:53:01.655405  2097 net.cpp:100] Creating Layer pool5/7x7_s1
I0224 09:53:01.655416  2097 net.cpp:434] pool5/7x7_s1 <- inception_5b/output
I0224 09:53:01.655438  2097 net.cpp:408] pool5/7x7_s1 -> pool5/7x7_s1
I0224 09:53:01.655467  2097 net.cpp:150] Setting up pool5/7x7_s1
I0224 09:53:01.655479  2097 net.cpp:157] Top shape: 48 1024 1 1 (49152)
I0224 09:53:01.655488  2097 net.cpp:165] Memory required for data: 2692249352
I0224 09:53:01.655496  2097 layer_factory.hpp:77] Creating layer pool5/drop_7x7_s1
I0224 09:53:01.655519  2097 net.cpp:100] Creating Layer pool5/drop_7x7_s1
I0224 09:53:01.655529  2097 net.cpp:434] pool5/drop_7x7_s1 <- pool5/7x7_s1
I0224 09:53:01.655540  2097 net.cpp:395] pool5/drop_7x7_s1 -> pool5/7x7_s1 (in-place)
I0224 09:53:01.655557  2097 net.cpp:150] Setting up pool5/drop_7x7_s1
I0224 09:53:01.655568  2097 net.cpp:157] Top shape: 48 1024 1 1 (49152)
I0224 09:53:01.655577  2097 net.cpp:165] Memory required for data: 2692445960
I0224 09:53:01.655586  2097 layer_factory.hpp:77] Creating layer loss3/classifier
I0224 09:53:01.655606  2097 net.cpp:100] Creating Layer loss3/classifier
I0224 09:53:01.655616  2097 net.cpp:434] loss3/classifier <- pool5/7x7_s1
I0224 09:53:01.655629  2097 net.cpp:408] loss3/classifier -> loss3/classifier
I0224 09:53:01.673552  2097 net.cpp:150] Setting up loss3/classifier
I0224 09:53:01.673598  2097 net.cpp:157] Top shape: 48 1000 (48000)
I0224 09:53:01.673606  2097 net.cpp:165] Memory required for data: 2692637960
I0224 09:53:01.673624  2097 layer_factory.hpp:77] Creating layer loss3/loss3
I0224 09:53:01.673642  2097 net.cpp:100] Creating Layer loss3/loss3
I0224 09:53:01.673653  2097 net.cpp:434] loss3/loss3 <- loss3/classifier
I0224 09:53:01.673666  2097 net.cpp:434] loss3/loss3 <- label_data_1_split_2
I0224 09:53:01.673682  2097 net.cpp:408] loss3/loss3 -> loss3/loss3
…
I0224 09:53:01.686921  2097 net.cpp:322] The NetState phase (1) differed from the phase (0) specified by a rule in layer data
I0224 09:53:01.692628  2097 net.cpp:58] Initializing net from parameters: 
name: "GoogleNet"
state {
  phase: TEST
}
layer {
  name: "data"
  type: "Data"
  top: "data"
  top: "label"
  include {
    phase: TEST
  }
  transform_param {
    mirror: false
    crop_size: 224
    mean_value: 104
    mean_value: 117
    mean_value: 123
  }
  data_param {
    source: "/home/user/user/LIBRARIES/caffeLibs/caffe/examples/imagenet/ilsvrc12_val_lmdb"
    batch_size: 50
    backend: LMDB
  }
}
layer {
  name: "conv1/7x7_s2"
  type: "Convolution"
  bottom: "data"
  top: "conv1/7x7_s2"
  param {
    lr_mult: 1
    decay_mult: 1
  }
  param {
    lr_mult: 2
    decay_mult: 0
  }
  convolution_param {
    num_output: 64
    pad: 3
    kernel_size: 7
    stride: 2
    weight_filler {
      type: "xavier"
    }
    bias_filler {
      type: "constant"
      value: 0.2
    }
  }
}
layer {
  name: "conv1/relu_7x7"
  type: "ReLU"
  bottom: "conv1/7x7_s2"
  top: "conv1/7x7_s2"
}
layer {
  name: "pool1/3x3_s2"
  type: "Pooling"
  bottom: "conv1/7x7_s2"
  top: "pool1/3x3_s2"
  pooling_param {
    pool: MAX
    kernel_size: 3
    stride: 2
  }
}
layer {
  name: "pool1/norm1"
  type: "LRN"
  bottom: "pool1/3x3_s2"
  top: "pool1/norm1"
  lrn_param {
    local_size: 5
    alpha: 0.0001
    beta: 0.75
  }
}
layer {
  name: "conv2/3x3_reduce"
  type: "Convolution"
  bottom: "pool1/norm1"
  top: "conv2/3x3_reduce"
  param {
    lr_mult: 1
    decay_mult: 1
  }
  param {
    lr_mult: 2
    decay_mult: 0
  }
  convolution_param {
    num_output: 64
    kernel_size: 1
    weight_filler {
      type: "xavier"
    }
    bias_filler {
      type: "constant"
      value: 0.2
    }
  }
}
layer {
  name: "conv2/relu_3x3_reduce"
  type: "ReLU"
  bottom: "conv2/3x3_reduce"
  top: "conv2/3x3_reduce"
}
layer {
  name: "conv2/3x3"
  type: "Convolution"
  bottom: "conv2/3x3_reduce"
  top: "conv2/3x3"
  param {
    lr_mult: 1
    decay_mult: 1
  }
  param {
    lr_mult: 2
    decay_mult: 0
  }
  convolution_param {
    num_output: 192
    pad: 1
    kernel_size: 3
    weight_filler {
      type: "xavier"
    }
    bias_filler {
      type: "constant"
      value: 0.2
    }
  }
}
layer {
  name: "conv2/relu_3x3"
  type: "ReLU"
  bottom: "conv2/3x3"
  top: "conv2/3x3"
}
layer {
  name: "conv2/norm2"
  type: "LRN"
  bottom: "conv2/3x3"
  top: "conv2/norm2"
  lrn_param {
    local_size: 5
    alpha: 0.0001
    beta: 0.75
  }
}
layer {
  name: "pool2/3x3_s2"
  type: "Pooling"
  bottom: "conv2/norm2"
  top: "pool2/3x3_s2"
  pooling_param {
    pool: MAX
    kernel_size: 3
    stride: 2
  }
}
layer {
  name: "inception_3a/1x1"
  type: "Convolution"
  bottom: "pool2/3x3_s2"
  top: "inception_3a/1x1"
  param {
    lr_mult: 1
    decay_mult: 1
  }
  param {
    lr_mult: 2
    decay_mult: 0
  }
  convolution_param {
    num_output: 64
    kernel_size: 1
    weight_filler {
      type: "xavier"
    }
    bias_filler {
      type: "constant"
      value: 0.2
    }
  }
}
layer {
  name: "inception_3a/relu_1x1"
  type: "ReLU"
  bottom: "inception_3a/1x1"
  top: "inception_3a/1x1"
}
layer {
  name: "inception_3a/3x3_reduce"
  type: "Convolution"
  bottom: "pool2/3x3_s2"
  top: "inception_3a/3x3_reduce"
  param {
    lr_mult: 1
    decay_mult: 1
  }
  param {
    lr_mult: 2
    decay_mult: 0
  }
  convolution_param {
    num_output: 96
    kernel_size: 1
    weight_filler {
      type: "xavier"
    }
    bias_filler {
      type: "constant"
      value: 0.2
    }
  }
}
layer {
  name: "inception_3a/relu_3x3_reduce"
  type: "ReLU"
  bottom: "inception_3a/3x3_reduce"
  top: "inception_3a/3x3_reduce"
}
layer {
  name: "inception_3a/3x3"
  type: "Convolution"
  bottom: "inception_3a/3x3_reduce"
  top: "inception_3a/3x3"
  param {
    lr_mult: 1
    decay_mult: 1
  }
  param {
    lr_mult: 2
    decay_mult: 0
  }
  convolution_param {
    num_output: 128
    pad: 1
    kernel_size: 3
    weight_filler {
      type: "xavier"
    }
    bias_filler {
      type: "constant"
      value: 0.2
    }
  }
}
layer {
  name: "inception_3a/relu_3x3"
  type: "ReLU"
  bottom: "inception_3a/3x3"
  top: "inception_3a/3x3"
}
layer {
  name: "inception_3a/5x5_reduce"
  type: "Convolution"
  bottom: "pool2/3x3_s2"
  top: "inception_3a/5x5_reduce"
  param {
    lr_mult: 1
    decay_mult: 1
  }
  param {
    lr_mult: 2
    decay_mult: 0
  }
  convolution_param {
    num_output: 16
    kernel_size: 1
    weight_filler {
      type: "xavier"
    }
    bias_filler {
      type: "constant"
      value: 0.2
    }
  }
}
layer {
  name: "inception_3a/relu_5x5_reduce"
  type: "ReLU"
  bottom: "inception_3a/5x5_reduce"
  top: "inception_3a/5x5_reduce"
}
layer {
  name: "inception_3a/5x5"
  type: "Convolution"
  bottom: "inception_3a/5x5_reduce"
  top: "inception_3a/5x5"
  param {
    lr_mult: 1
    decay_mult: 1
  }
  param {
    lr_mult: 2
    decay_mult: 0
  }
  convolution_param {
    num_output: 32
    pad: 2
    kernel_size: 5
    weight_filler {
      type: "xavier"
    }
    bias_filler {
      type: "constant"
      value: 0.2
    }
  }
}
layer {
  name: "inception_3a/relu_5x5"
  type: "ReLU"
  bottom: "inception_3a/5x5"
  top: "inception_3a/5x5"
}
layer {
  name: "inception_3a/pool"
  type: "Pooling"
  bottom: "pool2/3x3_s2"
  top: "inception_3a/pool"
  pooling_param {
    pool: MAX
    kernel_size: 3
    stride: 1
    pad: 1
  }
}
layer {
  name: "inception_3a/pool_proj"
  type: "Convolution"
  bottom: "inception_3a/pool"
  top: "inception_3a/pool_proj"
  param {
    lr_mult: 1
    decay_mult: 1
  }
  param {
    lr_mult: 2
    decay_mult: 0
  }
  convolution_param {
    num_output: 32
    kernel_size: 1
    weight_filler {
      type: "xavier"
    }
    bias_filler {
      type: "constant"
      value: 0.2
    }
  }
}
layer {
  name: "inception_3a/relu_pool_proj"
  type: "ReLU"
  bottom: "inception_3a/pool_proj"
  top: "inception_3a/pool_proj"
}
layer {
  name: "inception_3a/output"
  type: "Concat"
  bottom: "inception_3a/1x1"
  bottom: "inception_3a/3x3"
  bottom: "inception_3a/5x5"
  bottom: "inception_3a/pool_proj"
  top: "inception_3a/output"
}
layer {
  name: "inception_3b/1x1"
  type: "Convolution"
  bottom: "inception_3a/output"
  top: "inception_3b/1x1"
  param {
    lr_mult: 1
    decay_mult: 1
  }
  param {
    lr_mult: 2
    decay_mult: 0
  }
  convolution_param {
    num_output: 128
    kernel_size: 1
    weight_filler {
      type: "xavier"
    }
    bias_filler {
      type: "constant"
      value: 0.2
    }
  }
}
layer {
  name: "inception_3b/relu_1x1"
  type: "ReLU"
  bottom: "inception_3b/1x1"
  top: "inception_3b/1x1"
}
layer {
  name: "inception_3b/3x3_reduce"
  type: "Convolution"
  bottom: "inception_3a/output"
  top: "inception_3b/3x3_reduce"
  param {
    lr_mult: 1
    decay_mult: 1
  }
  param {
    lr_mult: 2
    decay_mult: 0
  }
  convolution_param {
    num_output: 128
    kernel_size: 1
    weight_filler {
      type: "xavier"
    }
    bias_filler {
      type: "constant"
      value: 0.2
    }
  }
}
layer {
  name: "inception_3b/relu_3x3_reduce"
  type: "ReLU"
  bottom: "inception_3b/3x3_reduce"
  top: "inception_3b/3x3_reduce"
}
layer {
  name: "inception_3b/3x3"
  type: "Convolution"
  bottom: "inception_3b/3x3_reduce"
  top: "inception_3b/3x3"
  param {
    lr_mult: 1
    decay_mult: 1
  }
  param {
    lr_mult: 2
    decay_mult: 0
  }
  convolution_param {
    num_output: 192
    pad: 1
    kernel_size: 3
    weight_filler {
      type: "xavier"
    }
    bias_filler {
      type: "constant"
      value: 0.2
    }
  }
}
layer {
  name: "inception_3b/relu_3x3"
  type: "ReLU"
  bottom: "inception_3b/3x3"
  top: "inception_3b/3x3"
}
layer {
  name: "inception_3b/5x5_reduce"
  type: "Convolution"
  bottom: "inception_3a/output"
  top: "inception_3b/5x5_reduce"
  param {
    lr_mult: 1
    decay_mult: 1
  }
  param {
    lr_mult: 2
    decay_mult: 0
  }
  convolution_param {
    num_output: 32
    kernel_size: 1
    weight_filler {
      type: "xavier"
    }
    bias_filler {
      type: "constant"
      value: 0.2
    }
  }
}
layer {
  name: "inception_3b/relu_5x5_reduce"
  type: "ReLU"
  bottom: "inception_3b/5x5_reduce"
  top: "inception_3b/5x5_reduce"
}
layer {
  name: "inception_3b/5x5"
  type: "Convolution"
  bottom: "inception_3b/5x5_reduce"
  top: "inception_3b/5x5"
  param {
    lr_mult: 1
    decay_mult: 1
  }
  param {
    lr_mult: 2
    decay_mult: 0
  }
  convolution_param {
    num_output: 96
    pad: 2
    kernel_size: 5
    weight_filler {
      type: "xavier"
    }
    bias_filler {
      type: "constant"
      value: 0.2
    }
  }
}
layer {
  name: "inception_3b/relu_5x5"
  type: "ReLU"
  bottom: "inception_3b/5x5"
  top: "inception_3b/5x5"
}
layer {
  name: "inception_3b/pool"
  type: "Pooling"
  bottom: "inception_3a/output"
  top: "inception_3b/pool"
  pooling_param {
    pool: MAX
    kernel_size: 3
    stride: 1
    pad: 1
  }
}
layer {
  name: "inception_3b/pool_proj"
  type: "Convolution"
  bottom: "inception_3b/pool"
  top: "inception_3b/pool_proj"
  param {
    lr_mult: 1
    decay_mult: 1
  }
  param {
    lr_mult: 2
    decay_mult: 0
  }
  convolution_param {
    num_output: 64
    kernel_size: 1
    weight_filler {
      type: "xavier"
    }
    bias_filler {
      type: "constant"
      value: 0.2
    }
  }
}
layer {
  name: "inception_3b/relu_pool_proj"
  type: "ReLU"
  bottom: "inception_3b/pool_proj"
  top: "inception_3b/pool_proj"
}
layer {
  name: "inception_3b/output"
  type: "Concat"
  bottom: "inception_3b/1x1"
  bottom: "inception_3b/3x3"
  bottom: "inception_3b/5x5"
  bottom: "inception_3b/pool_proj"
  top: "inception_3b/output"
}
layer {
  name: "pool3/3x3_s2"
  type: "Pooling"
  bottom: "inception_3b/output"
  top: "pool3/3x3_s2"
  pooling_param {
    pool: MAX
    kernel_size: 3
    stride: 2
  }
}
layer {
  name: "inception_4a/1x1"
  type: "Convolution"
  bottom: "pool3/3x3_s2"
  top: "inception_4a/1x1"
  param {
    lr_mult: 1
    decay_mult: 1
  }
  param {
    lr_mult: 2
    decay_mult: 0
  }
  convolution_param {
    num_output: 192
    kernel_size: 1
    weight_filler {
      type: "xavier"
    }
    bias_filler {
      type: "constant"
      value: 0.2
    }
  }
}
layer {
  name: "inception_4a/relu_1x1"
  type: "ReLU"
  bottom: "inception_4a/1x1"
  top: "inception_4a/1x1"
}
layer {
  name: "inception_4a/3x3_reduce"
  type: "Convolution"
  bottom: "pool3/3x3_s2"
  top: "inception_4a/3x3_reduce"
  param {
    lr_mult: 1
    decay_mult: 1
  }
  param {
    lr_mult: 2
    decay_mult: 0
  }
  convolution_param {
    num_output: 96
    kernel_size: 1
    weight_filler {
      type: "xavier"
    }
    bias_filler {
      type: "constant"
      value: 0.2
    }
  }
}
layer {
  name: "inception_4a/relu_3x3_reduce"
  type: "ReLU"
  bottom: "inception_4a/3x3_reduce"
  top: "inception_4a/3x3_reduce"
}
layer {
  name: "inception_4a/3x3"
  type: "Convolution"
  bottom: "inception_4a/3x3_reduce"
  top: "inception_4a/3x3"
  param {
    lr_mult: 1
    decay_mult: 1
  }
  param {
    lr_mult: 2
    decay_mult: 0
  }
  convolution_param {
    num_output: 208
    pad: 1
    kernel_size: 3
    weight_filler {
      type: "xavier"
    }
    bias_filler {
      type: "constant"
      value: 0.2
    }
  }
}
layer {
  name: "inception_4a/relu_3x3"
  type: "ReLU"
  bottom: "inception_4a/3x3"
  top: "inception_4a/3x3"
}
layer {
  name: "inception_4a/5x5_reduce"
  type: "Convolution"
  bottom: "pool3/3x3_s2"
  top: "inception_4a/5x5_reduce"
  param {
    lr_mult: 1
    decay_mult: 1
  }
  param {
    lr_mult: 2
    decay_mult: 0
  }
  convolution_param {
    num_output: 16
    kernel_size: 1
    weight_filler {
      type: "xavier"
    }
    bias_filler {
      type: "constant"
      value: 0.2
    }
  }
}
layer {
  name: "inception_4a/relu_5x5_reduce"
  type: "ReLU"
  bottom: "inception_4a/5x5_reduce"
  top: "inception_4a/5x5_reduce"
}
layer {
  name: "inception_4a/5x5"
  type: "Convolution"
  bottom: "inception_4a/5x5_reduce"
  top: "inception_4a/5x5"
  param {
    lr_mult: 1
    decay_mult: 1
  }
  param {
    lr_mult: 2
    decay_mult: 0
  }
  convolution_param {
    num_output: 48
    pad: 2
    kernel_size: 5
    weight_filler {
      type: "xavier"
    }
    bias_filler {
      type: "constant"
      value: 0.2
    }
  }
}
layer {
  name: "inception_4a/relu_5x5"
  type: "ReLU"
  bottom: "inception_4a/5x5"
  top: "inception_4a/5x5"
}
layer {
  name: "inception_4a/pool"
  type: "Pooling"
  bottom: "pool3/3x3_s2"
  top: "inception_4a/pool"
  pooling_param {
    pool: MAX
    kernel_size: 3
    stride: 1
    pad: 1
  }
}
layer {
  name: "inception_4a/pool_proj"
  type: "Convolution"
  bottom: "inception_4a/pool"
  top: "inception_4a/pool_proj"
  param {
    lr_mult: 1
    decay_mult: 1
  }
  param {
    lr_mult: 2
    decay_mult: 0
  }
  convolution_param {
    num_output: 64
    kernel_size: 1
    weight_filler {
      type: "xavier"
    }
    bias_filler {
      type: "constant"
      value: 0.2
    }
  }
}
layer {
  name: "inception_4a/relu_pool_proj"
  type: "ReLU"
  bottom: "inception_4a/pool_proj"
  top: "inception_4a/pool_proj"
}
layer {
  name: "inception_4a/output"
  type: "Concat"
  bottom: "inception_4a/1x1"
  bottom: "inception_4a/3x3"
  bottom: "inception_4a/5x5"
  bottom: "inception_4a/pool_proj"
  top: "inception_4a/output"
}
layer {
  name: "loss1/ave_pool"
  type: "Pooling"
  bottom: "inception_4a/output"
  top: "loss1/ave_pool"
  pooling_param {
    pool: AVE
    kernel_size: 5
    stride: 3
  }
}
layer {
  name: "loss1/conv"
  type: "Convolution"
  bottom: "loss1/ave_pool"
  top: "loss1/conv"
  param {
    lr_mult: 1
    decay_mult: 1
  }
  param {
    lr_mult: 2
    decay_mult: 0
  }
  convolution_param {
    num_output: 128
    kernel_size: 1
    weight_filler {
      type: "xavier"
    }
    bias_filler {
      type: "constant"
      value: 0.2
    }
  }
}
layer {
  name: "loss1/relu_conv"
  type: "ReLU"
  bottom: "loss1/conv"
  top: "loss1/conv"
}
layer {
  name: "loss1/fc"
  type: "InnerProduct"
  bottom: "loss1/conv"
  top: "loss1/fc"
  param {
    lr_mult: 1
    decay_mult: 1
  }
  param {
    lr_mult: 2
    decay_mult: 0
  }
  inner_product_param {
    num_output: 1024
    weight_filler {
      type: "xavier"
    }
    bias_filler {
      type: "constant"
      value: 0.2
    }
  }
}
layer {
  name: "loss1/relu_fc"
  type: "ReLU"
  bottom: "loss1/fc"
  top: "loss1/fc"
}
layer {
  name: "loss1/drop_fc"
  type: "Dropout"
  bottom: "loss1/fc"
  top: "loss1/fc"
…
I0224 09:53:01.852329  2097 net.cpp:165] Memory required for data: 2190293212
I0224 09:53:01.852337  2097 layer_factory.hpp:77] Creating layer inception_4c/pool
I0224 09:53:01.852350  2097 net.cpp:100] Creating Layer inception_4c/pool
I0224 09:53:01.852360  2097 net.cpp:434] inception_4c/pool <- inception_4b/output_inception_4b/output_0_split_3
I0224 09:53:01.852376  2097 net.cpp:408] inception_4c/pool -> inception_4c/pool
I0224 09:53:01.852394  2097 net.cpp:150] Setting up inception_4c/pool
I0224 09:53:01.852406  2097 net.cpp:157] Top shape: 50 512 14 14 (5017600)
I0224 09:53:01.852416  2097 net.cpp:165] Memory required for data: 2210363612
I0224 09:53:01.852424  2097 layer_factory.hpp:77] Creating layer inception_4c/pool_proj
I0224 09:53:01.852442  2097 net.cpp:100] Creating Layer inception_4c/pool_proj
I0224 09:53:01.852453  2097 net.cpp:434] inception_4c/pool_proj <- inception_4c/pool
I0224 09:53:01.852466  2097 net.cpp:408] inception_4c/pool_proj -> inception_4c/pool_proj
I0224 09:53:01.853071  2097 net.cpp:150] Setting up inception_4c/pool_proj
I0224 09:53:01.853088  2097 net.cpp:157] Top shape: 50 64 14 14 (627200)
I0224 09:53:01.853097  2097 net.cpp:165] Memory required for data: 2212872412
I0224 09:53:01.853111  2097 layer_factory.hpp:77] Creating layer inception_4c/relu_pool_proj
I0224 09:53:01.853122  2097 net.cpp:100] Creating Layer inception_4c/relu_pool_proj
I0224 09:53:01.853132  2097 net.cpp:434] inception_4c/relu_pool_proj <- inception_4c/pool_proj
I0224 09:53:01.853143  2097 net.cpp:395] inception_4c/relu_pool_proj -> inception_4c/pool_proj (in-place)
I0224 09:53:01.853157  2097 net.cpp:150] Setting up inception_4c/relu_pool_proj
I0224 09:53:01.853168  2097 net.cpp:157] Top shape: 50 64 14 14 (627200)
I0224 09:53:01.853178  2097 net.cpp:165] Memory required for data: 2215381212
I0224 09:53:01.853186  2097 layer_factory.hpp:77] Creating layer inception_4c/output
I0224 09:53:01.853199  2097 net.cpp:100] Creating Layer inception_4c/output
I0224 09:53:01.853209  2097 net.cpp:434] inception_4c/output <- inception_4c/1x1
I0224 09:53:01.853219  2097 net.cpp:434] inception_4c/output <- inception_4c/3x3
I0224 09:53:01.853230  2097 net.cpp:434] inception_4c/output <- inception_4c/5x5
I0224 09:53:01.853246  2097 net.cpp:434] inception_4c/output <- inception_4c/pool_proj
I0224 09:53:01.853271  2097 net.cpp:408] inception_4c/output -> inception_4c/output
I0224 09:53:01.853299  2097 net.cpp:150] Setting up inception_4c/output
I0224 09:53:01.853312  2097 net.cpp:157] Top shape: 50 512 14 14 (5017600)
I0224 09:53:01.853320  2097 net.cpp:165] Memory required for data: 2235451612
I0224 09:53:01.853329  2097 layer_factory.hpp:77] Creating layer inception_4c/output_inception_4c/output_0_split
I0224 09:53:01.853341  2097 net.cpp:100] Creating Layer inception_4c/output_inception_4c/output_0_split
I0224 09:53:01.853350  2097 net.cpp:434] inception_4c/output_inception_4c/output_0_split <- inception_4c/output
I0224 09:53:01.853365  2097 net.cpp:408] inception_4c/output_inception_4c/output_0_split -> inception_4c/output_inception_4c/output_0_split_0
I0224 09:53:01.853380  2097 net.cpp:408] inception_4c/output_inception_4c/output_0_split -> inception_4c/output_inception_4c/output_0_split_1
I0224 09:53:01.853395  2097 net.cpp:408] inception_4c/output_inception_4c/output_0_split -> inception_4c/output_inception_4c/output_0_split_2
I0224 09:53:01.853410  2097 net.cpp:408] inception_4c/output_inception_4c/output_0_split -> inception_4c/output_inception_4c/output_0_split_3
I0224 09:53:01.853425  2097 net.cpp:150] Setting up inception_4c/output_inception_4c/output_0_split
I0224 09:53:01.853437  2097 net.cpp:157] Top shape: 50 512 14 14 (5017600)
I0224 09:53:01.853448  2097 net.cpp:157] Top shape: 50 512 14 14 (5017600)
I0224 09:53:01.853458  2097 net.cpp:157] Top shape: 50 512 14 14 (5017600)
I0224 09:53:01.853469  2097 net.cpp:157] Top shape: 50 512 14 14 (5017600)
I0224 09:53:01.853478  2097 net.cpp:165] Memory required for data: 2315733212
I0224 09:53:01.853487  2097 layer_factory.hpp:77] Creating layer inception_4d/1x1
I0224 09:53:01.853507  2097 net.cpp:100] Creating Layer inception_4d/1x1
I0224 09:53:01.853518  2097 net.cpp:434] inception_4d/1x1 <- inception_4c/output_inception_4c/output_0_split_0
I0224 09:53:01.853531  2097 net.cpp:408] inception_4d/1x1 -> inception_4d/1x1
I0224 09:53:01.854589  2097 net.cpp:150] Setting up inception_4d/1x1
I0224 09:53:01.854607  2097 net.cpp:157] Top shape: 50 112 14 14 (1097600)
I0224 09:53:01.854616  2097 net.cpp:165] Memory required for data: 2320123612
I0224 09:53:01.854630  2097 layer_factory.hpp:77] Creating layer inception_4d/relu_1x1
I0224 09:53:01.854646  2097 net.cpp:100] Creating Layer inception_4d/relu_1x1
I0224 09:53:01.854657  2097 net.cpp:434] inception_4d/relu_1x1 <- inception_4d/1x1
I0224 09:53:01.854670  2097 net.cpp:395] inception_4d/relu_1x1 -> inception_4d/1x1 (in-place)
I0224 09:53:01.854687  2097 net.cpp:150] Setting up inception_4d/relu_1x1
I0224 09:53:01.854699  2097 net.cpp:157] Top shape: 50 112 14 14 (1097600)
I0224 09:53:01.854707  2097 net.cpp:165] Memory required for data: 2324514012
I0224 09:53:01.854717  2097 layer_factory.hpp:77] Creating layer inception_4d/3x3_reduce
I0224 09:53:01.854732  2097 net.cpp:100] Creating Layer inception_4d/3x3_reduce
I0224 09:53:01.854743  2097 net.cpp:434] inception_4d/3x3_reduce <- inception_4c/output_inception_4c/output_0_split_1
I0224 09:53:01.854760  2097 net.cpp:408] inception_4d/3x3_reduce -> inception_4d/3x3_reduce
I0224 09:53:01.856111  2097 net.cpp:150] Setting up inception_4d/3x3_reduce
I0224 09:53:01.856132  2097 net.cpp:157] Top shape: 50 144 14 14 (1411200)
I0224 09:53:01.856140  2097 net.cpp:165] Memory required for data: 2330158812
I0224 09:53:01.856155  2097 layer_factory.hpp:77] Creating layer inception_4d/relu_3x3_reduce
I0224 09:53:01.856171  2097 net.cpp:100] Creating Layer inception_4d/relu_3x3_reduce
I0224 09:53:01.856184  2097 net.cpp:434] inception_4d/relu_3x3_reduce <- inception_4d/3x3_reduce
I0224 09:53:01.856195  2097 net.cpp:395] inception_4d/relu_3x3_reduce -> inception_4d/3x3_reduce (in-place)
I0224 09:53:01.856209  2097 net.cpp:150] Setting up inception_4d/relu_3x3_reduce
I0224 09:53:01.856221  2097 net.cpp:157] Top shape: 50 144 14 14 (1411200)
I0224 09:53:01.856230  2097 net.cpp:165] Memory required for data: 2335803612
I0224 09:53:01.856240  2097 layer_factory.hpp:77] Creating layer inception_4d/3x3
I0224 09:53:01.856272  2097 net.cpp:100] Creating Layer inception_4d/3x3
I0224 09:53:01.856294  2097 net.cpp:434] inception_4d/3x3 <- inception_4d/3x3_reduce
I0224 09:53:01.856308  2097 net.cpp:408] inception_4d/3x3 -> inception_4d/3x3
I0224 09:53:01.862977  2097 net.cpp:150] Setting up inception_4d/3x3
I0224 09:53:01.863008  2097 net.cpp:157] Top shape: 50 288 14 14 (2822400)
I0224 09:53:01.863016  2097 net.cpp:165] Memory required for data: 2347093212
I0224 09:53:01.863031  2097 layer_factory.hpp:77] Creating layer inception_4d/relu_3x3
I0224 09:53:01.863045  2097 net.cpp:100] Creating Layer inception_4d/relu_3x3
I0224 09:53:01.863056  2097 net.cpp:434] inception_4d/relu_3x3 <- inception_4d/3x3
I0224 09:53:01.863072  2097 net.cpp:395] inception_4d/relu_3x3 -> inception_4d/3x3 (in-place)
I0224 09:53:01.863088  2097 net.cpp:150] Setting up inception_4d/relu_3x3
I0224 09:53:01.863099  2097 net.cpp:157] Top shape: 50 288 14 14 (2822400)
I0224 09:53:01.863108  2097 net.cpp:165] Memory required for data: 2358382812
I0224 09:53:01.863117  2097 layer_factory.hpp:77] Creating layer inception_4d/5x5_reduce
I0224 09:53:01.863132  2097 net.cpp:100] Creating Layer inception_4d/5x5_reduce
I0224 09:53:01.863143  2097 net.cpp:434] inception_4d/5x5_reduce <- inception_4c/output_inception_4c/output_0_split_2
I0224 09:53:01.863157  2097 net.cpp:408] inception_4d/5x5_reduce -> inception_4d/5x5_reduce
I0224 09:53:01.863490  2097 net.cpp:150] Setting up inception_4d/5x5_reduce
I0224 09:53:01.863507  2097 net.cpp:157] Top shape: 50 32 14 14 (313600)
I0224 09:53:01.863514  2097 net.cpp:165] Memory required for data: 2359637212
I0224 09:53:01.863528  2097 layer_factory.hpp:77] Creating layer inception_4d/relu_5x5_reduce
I0224 09:53:01.863543  2097 net.cpp:100] Creating Layer inception_4d/relu_5x5_reduce
I0224 09:53:01.863553  2097 net.cpp:434] inception_4d/relu_5x5_reduce <- inception_4d/5x5_reduce
I0224 09:53:01.863564  2097 net.cpp:395] inception_4d/relu_5x5_reduce -> inception_4d/5x5_reduce (in-place)
I0224 09:53:01.863576  2097 net.cpp:150] Setting up inception_4d/relu_5x5_reduce
I0224 09:53:01.863587  2097 net.cpp:157] Top shape: 50 32 14 14 (313600)
I0224 09:53:01.863596  2097 net.cpp:165] Memory required for data: 2360891612
I0224 09:53:01.863605  2097 layer_factory.hpp:77] Creating layer inception_4d/5x5
I0224 09:53:01.863623  2097 net.cpp:100] Creating Layer inception_4d/5x5
I0224 09:53:01.863633  2097 net.cpp:434] inception_4d/5x5 <- inception_4d/5x5_reduce
I0224 09:53:01.863648  2097 net.cpp:408] inception_4d/5x5 -> inception_4d/5x5
I0224 09:53:01.864593  2097 net.cpp:150] Setting up inception_4d/5x5
I0224 09:53:01.864609  2097 net.cpp:157] Top shape: 50 64 14 14 (627200)
I0224 09:53:01.864617  2097 net.cpp:165] Memory required for data: 2363400412
I0224 09:53:01.864631  2097 layer_factory.hpp:77] Creating layer inception_4d/relu_5x5
I0224 09:53:01.864642  2097 net.cpp:100] Creating Layer inception_4d/relu_5x5
I0224 09:53:01.864652  2097 net.cpp:434] inception_4d/relu_5x5 <- inception_4d/5x5
I0224 09:53:01.864668  2097 net.cpp:395] inception_4d/relu_5x5 -> inception_4d/5x5 (in-place)
I0224 09:53:01.864682  2097 net.cpp:150] Setting up inception_4d/relu_5x5
I0224 09:53:01.864693  2097 net.cpp:157] Top shape: 50 64 14 14 (627200)
I0224 09:53:01.864702  2097 net.cpp:165] Memory required for data: 2365909212
I0224 09:53:01.864711  2097 layer_factory.hpp:77] Creating layer inception_4d/pool
I0224 09:53:01.864723  2097 net.cpp:100] Creating Layer inception_4d/pool
I0224 09:53:01.864733  2097 net.cpp:434] inception_4d/pool <- inception_4c/output_inception_4c/output_0_split_3
I0224 09:53:01.864747  2097 net.cpp:408] inception_4d/pool -> inception_4d/pool
I0224 09:53:01.864764  2097 net.cpp:150] Setting up inception_4d/pool
I0224 09:53:01.864775  2097 net.cpp:157] Top shape: 50 512 14 14 (5017600)
I0224 09:53:01.864784  2097 net.cpp:165] Memory required for data: 2385979612
I0224 09:53:01.864792  2097 layer_factory.hpp:77] Creating layer inception_4d/pool_proj
I0224 09:53:01.864816  2097 net.cpp:100] Creating Layer inception_4d/pool_proj
I0224 09:53:01.864836  2097 net.cpp:434] inception_4d/pool_proj <- inception_4d/pool
I0224 09:53:01.864863  2097 net.cpp:408] inception_4d/pool_proj -> inception_4d/pool_proj
I0224 09:53:01.865473  2097 net.cpp:150] Setting up inception_4d/pool_proj
I0224 09:53:01.865489  2097 net.cpp:157] Top shape: 50 64 14 14 (627200)
I0224 09:53:01.865497  2097 net.cpp:165] Memory required for data: 2388488412
I0224 09:53:01.865511  2097 layer_factory.hpp:77] Creating layer inception_4d/relu_pool_proj
I0224 09:53:01.865526  2097 net.cpp:100] Creating Layer inception_4d/relu_pool_proj
I0224 09:53:01.865540  2097 net.cpp:434] inception_4d/relu_pool_proj <- inception_4d/pool_proj
I0224 09:53:01.865551  2097 net.cpp:395] inception_4d/relu_pool_proj -> inception_4d/pool_proj (in-place)
I0224 09:53:01.865566  2097 net.cpp:150] Setting up inception_4d/relu_pool_proj
I0224 09:53:01.865576  2097 net.cpp:157] Top shape: 50 64 14 14 (627200)
I0224 09:53:01.865586  2097 net.cpp:165] Memory required for data: 2390997212
I0224 09:53:01.865594  2097 layer_factory.hpp:77] Creating layer inception_4d/output
I0224 09:53:01.865612  2097 net.cpp:100] Creating Layer inception_4d/output
I0224 09:53:01.865622  2097 net.cpp:434] inception_4d/output <- inception_4d/1x1
I0224 09:53:01.865633  2097 net.cpp:434] inception_4d/output <- inception_4d/3x3
I0224 09:53:01.865643  2097 net.cpp:434] inception_4d/output <- inception_4d/5x5
I0224 09:53:01.865653  2097 net.cpp:434] inception_4d/output <- inception_4d/pool_proj
I0224 09:53:01.865666  2097 net.cpp:408] inception_4d/output -> inception_4d/output
I0224 09:53:01.865681  2097 net.cpp:150] Setting up inception_4d/output
I0224 09:53:01.865694  2097 net.cpp:157] Top shape: 50 528 14 14 (5174400)
I0224 09:53:01.865702  2097 net.cpp:165] Memory required for data: 2411694812
I0224 09:53:01.865711  2097 layer_factory.hpp:77] Creating layer inception_4d/output_inception_4d/output_0_split
I0224 09:53:01.865725  2097 net.cpp:100] Creating Layer inception_4d/output_inception_4d/output_0_split
I0224 09:53:01.865734  2097 net.cpp:434] inception_4d/output_inception_4d/output_0_split <- inception_4d/output
I0224 09:53:01.865751  2097 net.cpp:408] inception_4d/output_inception_4d/output_0_split -> inception_4d/output_inception_4d/output_0_split_0
I0224 09:53:01.865766  2097 net.cpp:408] inception_4d/output_inception_4d/output_0_split -> inception_4d/output_inception_4d/output_0_split_1
I0224 09:53:01.865780  2097 net.cpp:408] inception_4d/output_inception_4d/output_0_split -> inception_4d/output_inception_4d/output_0_split_2
I0224 09:53:01.865795  2097 net.cpp:408] inception_4d/output_inception_4d/output_0_split -> inception_4d/output_inception_4d/output_0_split_3
I0224 09:53:01.865813  2097 net.cpp:408] inception_4d/output_inception_4d/output_0_split -> inception_4d/output_inception_4d/output_0_split_4
I0224 09:53:01.865830  2097 net.cpp:150] Setting up inception_4d/output_inception_4d/output_0_split
I0224 09:53:01.865842  2097 net.cpp:157] Top shape: 50 528 14 14 (5174400)
I0224 09:53:01.865854  2097 net.cpp:157] Top shape: 50 528 14 14 (5174400)
I0224 09:53:01.865864  2097 net.cpp:157] Top shape: 50 528 14 14 (5174400)
I0224 09:53:01.865883  2097 net.cpp:157] Top shape: 50 528 14 14 (5174400)
I0224 09:53:01.865895  2097 net.cpp:157] Top shape: 50 528 14 14 (5174400)
I0224 09:53:01.865903  2097 net.cpp:165] Memory required for data: 2515182812
I0224 09:53:01.865912  2097 layer_factory.hpp:77] Creating layer loss2/ave_pool
I0224 09:53:01.865924  2097 net.cpp:100] Creating Layer loss2/ave_pool
I0224 09:53:01.865933  2097 net.cpp:434] loss2/ave_pool <- inception_4d/output_inception_4d/output_0_split_0
I0224 09:53:01.865952  2097 net.cpp:408] loss2/ave_pool -> loss2/ave_pool
I0224 09:53:01.865967  2097 net.cpp:150] Setting up loss2/ave_pool
I0224 09:53:01.865978  2097 net.cpp:157] Top shape: 50 528 4 4 (422400)
I0224 09:53:01.865988  2097 net.cpp:165] Memory required for data: 2516872412
I0224 09:53:01.865996  2097 layer_factory.hpp:77] Creating layer loss2/conv
I0224 09:53:01.866015  2097 net.cpp:100] Creating Layer loss2/conv
I0224 09:53:01.866032  2097 net.cpp:434] loss2/conv <- loss2/ave_pool
I0224 09:53:01.866060  2097 net.cpp:408] loss2/conv -> loss2/conv
I0224 09:53:01.867293  2097 net.cpp:150] Setting up loss2/conv
I0224 09:53:01.867314  2097 net.cpp:157] Top shape: 50 128 4 4 (102400)
I0224 09:53:01.867323  2097 net.cpp:165] Memory required for data: 2517282012
I0224 09:53:01.867337  2097 layer_factory.hpp:77] Creating layer loss2/relu_conv
I0224 09:53:01.867353  2097 net.cpp:100] Creating Layer loss2/relu_conv
I0224 09:53:01.867364  2097 net.cpp:434] loss2/relu_conv <- loss2/conv
I0224 09:53:01.867377  2097 net.cpp:395] loss2/relu_conv -> loss2/conv (in-place)
I0224 09:53:01.867394  2097 net.cpp:150] Setting up loss2/relu_conv
I0224 09:53:01.867406  2097 net.cpp:157] Top shape: 50 128 4 4 (102400)
I0224 09:53:01.867414  2097 net.cpp:165] Memory required for data: 2517691612
I0224 09:53:01.867424  2097 layer_factory.hpp:77] Creating layer loss2/fc
I0224 09:53:01.867439  2097 net.cpp:100] Creating Layer loss2/fc
I0224 09:53:01.867449  2097 net.cpp:434] loss2/fc <- loss2/conv
I0224 09:53:01.867462  2097 net.cpp:408] loss2/fc -> loss2/fc
I0224 09:53:01.902905  2097 net.cpp:150] Setting up loss2/fc
I0224 09:53:01.902977  2097 net.cpp:157] Top shape: 50 1024 (51200)
I0224 09:53:01.902987  2097 net.cpp:165] Memory required for data: 2517896412
I0224 09:53:01.903007  2097 layer_factory.hpp:77] Creating layer loss2/relu_fc
I0224 09:53:01.903028  2097 net.cpp:100] Creating Layer loss2/relu_fc
I0224 09:53:01.903041  2097 net.cpp:434] loss2/relu_fc <- loss2/fc
I0224 09:53:01.903060  2097 net.cpp:395] loss2/relu_fc -> loss2/fc (in-place)
I0224 09:53:01.903079  2097 net.cpp:150] Setting up loss2/relu_fc
I0224 09:53:01.903090  2097 net.cpp:157] Top shape: 50 1024 (51200)
I0224 09:53:01.903098  2097 net.cpp:165] Memory required for data: 2518101212
I0224 09:53:01.903107  2097 layer_factory.hpp:77] Creating layer loss2/drop_fc
I0224 09:53:01.903122  2097 net.cpp:100] Creating Layer loss2/drop_fc
I0224 09:53:01.903131  2097 net.cpp:434] loss2/drop_fc <- loss2/fc
I0224 09:53:01.903146  2097 net.cpp:395] loss2/drop_fc -> loss2/fc (in-place)
I0224 09:53:01.903163  2097 net.cpp:150] Setting up loss2/drop_fc
I0224 09:53:01.903174  2097 net.cpp:157] Top shape: 50 1024 (51200)
I0224 09:53:01.903182  2097 net.cpp:165] Memory required for data: 2518306012
I0224 09:53:01.903192  2097 layer_factory.hpp:77] Creating layer loss2/classifier
I0224 09:53:01.903208  2097 net.cpp:100] Creating Layer loss2/classifier
I0224 09:53:01.903216  2097 net.cpp:434] loss2/classifier <- loss2/fc
I0224 09:53:01.903230  2097 net.cpp:408] loss2/classifier -> loss2/classifier
I0224 09:53:01.921825  2097 net.cpp:150] Setting up loss2/classifier
I0224 09:53:01.921874  2097 net.cpp:157] Top shape: 50 1000 (50000)
I0224 09:53:01.921882  2097 net.cpp:165] Memory required for data: 2518506012
I0224 09:53:01.921901  2097 layer_factory.hpp:77] Creating layer loss2/classifier_loss2/classifier_0_split
I0224 09:53:01.921921  2097 net.cpp:100] Creating Layer loss2/classifier_loss2/classifier_0_split
I0224 09:53:01.921934  2097 net.cpp:434] loss2/classifier_loss2/classifier_0_split <- loss2/classifier
I0224 09:53:01.921949  2097 net.cpp:408] loss2/classifier_loss2/classifier_0_split -> loss2/classifier_loss2/classifier_0_split_0
I0224 09:53:01.921965  2097 net.cpp:408] loss2/classifier_loss2/classifier_0_split -> loss2/classifier_loss2/classifier_0_split_1
I0224 09:53:01.921980  2097 net.cpp:408] loss2/classifier_loss2/classifier_0_split -> loss2/classifier_loss2/classifier_0_split_2
I0224 09:53:01.921998  2097 net.cpp:150] Setting up loss2/classifier_loss2/classifier_0_split
I0224 09:53:01.922009  2097 net.cpp:157] Top shape: 50 1000 (50000)
I0224 09:53:01.922019  2097 net.cpp:157] Top shape: 50 1000 (50000)
I0224 09:53:01.922030  2097 net.cpp:157] Top shape: 50 1000 (50000)
I0224 09:53:01.922039  2097 net.cpp:165] Memory required for data: 2519106012
I0224 09:53:01.922046  2097 layer_factory.hpp:77] Creating layer loss2/loss
I0224 09:53:01.922060  2097 net.cpp:100] Creating Layer loss2/loss
I0224 09:53:01.922096  2097 net.cpp:434] loss2/loss <- loss2/classifier_loss2/classifier_0_split_0
I0224 09:53:01.922125  2097 net.cpp:434] loss2/loss <- label_data_1_split_3
…
I0224 09:53:01.922623  2097 net.cpp:150] Setting up loss2/top-5
I0224 09:53:01.922634  2097 net.cpp:157] Top shape: (1)
I0224 09:53:01.922642  2097 net.cpp:165] Memory required for data: 2519106024
I0224 09:53:01.922652  2097 layer_factory.hpp:77] Creating layer inception_4e/1x1
I0224 09:53:01.922674  2097 net.cpp:100] Creating Layer inception_4e/1x1
I0224 09:53:01.922685  2097 net.cpp:434] inception_4e/1x1 <- inception_4d/output_inception_4d/output_0_split_1
I0224 09:53:01.922703  2097 net.cpp:408] inception_4e/1x1 -> inception_4e/1x1
I0224 09:53:01.925060  2097 net.cpp:150] Setting up inception_4e/1x1
I0224 09:53:01.925091  2097 net.cpp:157] Top shape: 50 256 14 14 (2508800)
I0224 09:53:01.925099  2097 net.cpp:165] Memory required for data: 2529141224
I0224 09:53:01.925114  2097 layer_factory.hpp:77] Creating layer inception_4e/relu_1x1
I0224 09:53:01.925128  2097 net.cpp:100] Creating Layer inception_4e/relu_1x1
I0224 09:53:01.925138  2097 net.cpp:434] inception_4e/relu_1x1 <- inception_4e/1x1
I0224 09:53:01.925154  2097 net.cpp:395] inception_4e/relu_1x1 -> inception_4e/1x1 (in-place)
I0224 09:53:01.925170  2097 net.cpp:150] Setting up inception_4e/relu_1x1
I0224 09:53:01.925181  2097 net.cpp:157] Top shape: 50 256 14 14 (2508800)
I0224 09:53:01.925189  2097 net.cpp:165] Memory required for data: 2539176424
I0224 09:53:01.925199  2097 layer_factory.hpp:77] Creating layer inception_4e/3x3_reduce
I0224 09:53:01.925262  2097 net.cpp:100] Creating Layer inception_4e/3x3_reduce
I0224 09:53:01.925276  2097 net.cpp:434] inception_4e/3x3_reduce <- inception_4d/output_inception_4d/output_0_split_2
I0224 09:53:01.925290  2097 net.cpp:408] inception_4e/3x3_reduce -> inception_4e/3x3_reduce
I0224 09:53:01.926827  2097 net.cpp:150] Setting up inception_4e/3x3_reduce
I0224 09:53:01.926848  2097 net.cpp:157] Top shape: 50 160 14 14 (1568000)
I0224 09:53:01.926857  2097 net.cpp:165] Memory required for data: 2545448424
I0224 09:53:01.926872  2097 layer_factory.hpp:77] Creating layer inception_4e/relu_3x3_reduce
I0224 09:53:01.926887  2097 net.cpp:100] Creating Layer inception_4e/relu_3x3_reduce
I0224 09:53:01.926897  2097 net.cpp:434] inception_4e/relu_3x3_reduce <- inception_4e/3x3_reduce
I0224 09:53:01.926914  2097 net.cpp:395] inception_4e/relu_3x3_reduce -> inception_4e/3x3_reduce (in-place)
I0224 09:53:01.926934  2097 net.cpp:150] Setting up inception_4e/relu_3x3_reduce
I0224 09:53:01.926944  2097 net.cpp:157] Top shape: 50 160 14 14 (1568000)
I0224 09:53:01.926954  2097 net.cpp:165] Memory required for data: 2551720424
I0224 09:53:01.926985  2097 layer_factory.hpp:77] Creating layer inception_4e/3x3
I0224 09:53:01.927002  2097 net.cpp:100] Creating Layer inception_4e/3x3
I0224 09:53:01.927012  2097 net.cpp:434] inception_4e/3x3 <- inception_4e/3x3_reduce
I0224 09:53:01.927026  2097 net.cpp:408] inception_4e/3x3 -> inception_4e/3x3
I0224 09:53:01.935319  2097 net.cpp:150] Setting up inception_4e/3x3
I0224 09:53:01.935351  2097 net.cpp:157] Top shape: 50 320 14 14 (3136000)
I0224 09:53:01.935360  2097 net.cpp:165] Memory required for data: 2564264424
I0224 09:53:01.935375  2097 layer_factory.hpp:77] Creating layer inception_4e/relu_3x3
I0224 09:53:01.935389  2097 net.cpp:100] Creating Layer inception_4e/relu_3x3
I0224 09:53:01.935400  2097 net.cpp:434] inception_4e/relu_3x3 <- inception_4e/3x3
I0224 09:53:01.935412  2097 net.cpp:395] inception_4e/relu_3x3 -> inception_4e/3x3 (in-place)
I0224 09:53:01.935427  2097 net.cpp:150] Setting up inception_4e/relu_3x3
I0224 09:53:01.935438  2097 net.cpp:157] Top shape: 50 320 14 14 (3136000)
I0224 09:53:01.935447  2097 net.cpp:165] Memory required for data: 2576808424
I0224 09:53:01.935456  2097 layer_factory.hpp:77] Creating layer inception_4e/5x5_reduce
I0224 09:53:01.935474  2097 net.cpp:100] Creating Layer inception_4e/5x5_reduce
I0224 09:53:01.935485  2097 net.cpp:434] inception_4e/5x5_reduce <- inception_4d/output_inception_4d/output_0_split_3
I0224 09:53:01.935499  2097 net.cpp:408] inception_4e/5x5_reduce -> inception_4e/5x5_reduce
I0224 09:53:01.935817  2097 net.cpp:150] Setting up inception_4e/5x5_reduce
I0224 09:53:01.935832  2097 net.cpp:157] Top shape: 50 32 14 14 (313600)
I0224 09:53:01.935839  2097 net.cpp:165] Memory required for data: 2578062824
I0224 09:53:01.935853  2097 layer_factory.hpp:77] Creating layer inception_4e/relu_5x5_reduce
I0224 09:53:01.935868  2097 net.cpp:100] Creating Layer inception_4e/relu_5x5_reduce
I0224 09:53:01.935878  2097 net.cpp:434] inception_4e/relu_5x5_reduce <- inception_4e/5x5_reduce
I0224 09:53:01.935889  2097 net.cpp:395] inception_4e/relu_5x5_reduce -> inception_4e/5x5_reduce (in-place)
I0224 09:53:01.935904  2097 net.cpp:150] Setting up inception_4e/relu_5x5_reduce
I0224 09:53:01.935914  2097 net.cpp:157] Top shape: 50 32 14 14 (313600)
I0224 09:53:01.935923  2097 net.cpp:165] Memory required for data: 2579317224
I0224 09:53:01.935932  2097 layer_factory.hpp:77] Creating layer inception_4e/5x5
I0224 09:53:01.935950  2097 net.cpp:100] Creating Layer inception_4e/5x5
I0224 09:53:01.935961  2097 net.cpp:434] inception_4e/5x5 <- inception_4e/5x5_reduce
I0224 09:53:01.935976  2097 net.cpp:408] inception_4e/5x5 -> inception_4e/5x5
I0224 09:53:01.937842  2097 net.cpp:150] Setting up inception_4e/5x5
I0224 09:53:01.937867  2097 net.cpp:157] Top shape: 50 128 14 14 (1254400)
I0224 09:53:01.937876  2097 net.cpp:165] Memory required for data: 2584334824
I0224 09:53:01.937891  2097 layer_factory.hpp:77] Creating layer inception_4e/relu_5x5
I0224 09:53:01.937904  2097 net.cpp:100] Creating Layer inception_4e/relu_5x5
I0224 09:53:01.937916  2097 net.cpp:434] inception_4e/relu_5x5 <- inception_4e/5x5
I0224 09:53:01.937930  2097 net.cpp:395] inception_4e/relu_5x5 -> inception_4e/5x5 (in-place)
I0224 09:53:01.937945  2097 net.cpp:150] Setting up inception_4e/relu_5x5
I0224 09:53:01.937957  2097 net.cpp:157] Top shape: 50 128 14 14 (1254400)
I0224 09:53:01.937964  2097 net.cpp:165] Memory required for data: 2589352424
I0224 09:53:01.937974  2097 layer_factory.hpp:77] Creating layer inception_4e/pool
I0224 09:53:01.937988  2097 net.cpp:100] Creating Layer inception_4e/pool
I0224 09:53:01.937997  2097 net.cpp:434] inception_4e/pool <- inception_4d/output_inception_4d/output_0_split_4
I0224 09:53:01.938014  2097 net.cpp:408] inception_4e/pool -> inception_4e/pool
I0224 09:53:01.938033  2097 net.cpp:150] Setting up inception_4e/pool
I0224 09:53:01.938045  2097 net.cpp:157] Top shape: 50 528 14 14 (5174400)
I0224 09:53:01.938053  2097 net.cpp:165] Memory required for data: 2610050024
I0224 09:53:01.938062  2097 layer_factory.hpp:77] Creating layer inception_4e/pool_proj
I0224 09:53:01.938104  2097 net.cpp:100] Creating Layer inception_4e/pool_proj
I0224 09:53:01.938115  2097 net.cpp:434] inception_4e/pool_proj <- inception_4e/pool
I0224 09:53:01.938128  2097 net.cpp:408] inception_4e/pool_proj -> inception_4e/pool_proj
I0224 09:53:01.939368  2097 net.cpp:150] Setting up inception_4e/pool_proj
I0224 09:53:01.939385  2097 net.cpp:157] Top shape: 50 128 14 14 (1254400)
I0224 09:53:01.939393  2097 net.cpp:165] Memory required for data: 2615067624
I0224 09:53:01.939409  2097 layer_factory.hpp:77] Creating layer inception_4e/relu_pool_proj
I0224 09:53:01.939424  2097 net.cpp:100] Creating Layer inception_4e/relu_pool_proj
I0224 09:53:01.939435  2097 net.cpp:434] inception_4e/relu_pool_proj <- inception_4e/pool_proj
I0224 09:53:01.939450  2097 net.cpp:395] inception_4e/relu_pool_proj -> inception_4e/pool_proj (in-place)
I0224 09:53:01.939465  2097 net.cpp:150] Setting up inception_4e/relu_pool_proj
I0224 09:53:01.939476  2097 net.cpp:157] Top shape: 50 128 14 14 (1254400)
I0224 09:53:01.939484  2097 net.cpp:165] Memory required for data: 2620085224
I0224 09:53:01.939493  2097 layer_factory.hpp:77] Creating layer inception_4e/output
I0224 09:53:01.939507  2097 net.cpp:100] Creating Layer inception_4e/output
I0224 09:53:01.939517  2097 net.cpp:434] inception_4e/output <- inception_4e/1x1
I0224 09:53:01.939527  2097 net.cpp:434] inception_4e/output <- inception_4e/3x3
I0224 09:53:01.939538  2097 net.cpp:434] inception_4e/output <- inception_4e/5x5
I0224 09:53:01.939549  2097 net.cpp:434] inception_4e/output <- inception_4e/pool_proj
I0224 09:53:01.939564  2097 net.cpp:408] inception_4e/output -> inception_4e/output
I0224 09:53:01.939582  2097 net.cpp:150] Setting up inception_4e/output
I0224 09:53:01.939594  2097 net.cpp:157] Top shape: 50 832 14 14 (8153600)
I0224 09:53:01.939604  2097 net.cpp:165] Memory required for data: 2652699624
I0224 09:53:01.939612  2097 layer_factory.hpp:77] Creating layer pool4/3x3_s2
I0224 09:53:01.939627  2097 net.cpp:100] Creating Layer pool4/3x3_s2
I0224 09:53:01.939637  2097 net.cpp:434] pool4/3x3_s2 <- inception_4e/output
I0224 09:53:01.939651  2097 net.cpp:408] pool4/3x3_s2 -> pool4/3x3_s2
I0224 09:53:01.939667  2097 net.cpp:150] Setting up pool4/3x3_s2
I0224 09:53:01.939680  2097 net.cpp:157] Top shape: 50 832 7 7 (2038400)
I0224 09:53:01.939688  2097 net.cpp:165] Memory required for data: 2660853224
I0224 09:53:01.939697  2097 layer_factory.hpp:77] Creating layer pool4/3x3_s2_pool4/3x3_s2_0_split
I0224 09:53:01.939710  2097 net.cpp:100] Creating Layer pool4/3x3_s2_pool4/3x3_s2_0_split
I0224 09:53:01.939719  2097 net.cpp:434] pool4/3x3_s2_pool4/3x3_s2_0_split <- pool4/3x3_s2
I0224 09:53:01.939731  2097 net.cpp:408] pool4/3x3_s2_pool4/3x3_s2_0_split -> pool4/3x3_s2_pool4/3x3_s2_0_split_0
I0224 09:53:01.939745  2097 net.cpp:408] pool4/3x3_s2_pool4/3x3_s2_0_split -> pool4/3x3_s2_pool4/3x3_s2_0_split_1
I0224 09:53:01.939760  2097 net.cpp:408] pool4/3x3_s2_pool4/3x3_s2_0_split -> pool4/3x3_s2_pool4/3x3_s2_0_split_2
I0224 09:53:01.939805  2097 net.cpp:408] pool4/3x3_s2_pool4/3x3_s2_0_split -> pool4/3x3_s2_pool4/3x3_s2_0_split_3
I0224 09:53:01.939823  2097 net.cpp:150] Setting up pool4/3x3_s2_pool4/3x3_s2_0_split
I0224 09:53:01.939836  2097 net.cpp:157] Top shape: 50 832 7 7 (2038400)
I0224 09:53:01.939846  2097 net.cpp:157] Top shape: 50 832 7 7 (2038400)
I0224 09:53:01.939862  2097 net.cpp:157] Top shape: 50 832 7 7 (2038400)
I0224 09:53:01.939873  2097 net.cpp:157] Top shape: 50 832 7 7 (2038400)
I0224 09:53:01.939882  2097 net.cpp:165] Memory required for data: 2693467624
I0224 09:53:01.939893  2097 layer_factory.hpp:77] Creating layer inception_5a/1x1
I0224 09:53:01.939908  2097 net.cpp:100] Creating Layer inception_5a/1x1
I0224 09:53:01.939918  2097 net.cpp:434] inception_5a/1x1 <- pool4/3x3_s2_pool4/3x3_s2_0_split_0
I0224 09:53:01.939934  2097 net.cpp:408] inception_5a/1x1 -> inception_5a/1x1
I0224 09:53:01.943733  2097 net.cpp:150] Setting up inception_5a/1x1
I0224 09:53:01.943763  2097 net.cpp:157] Top shape: 50 256 7 7 (627200)
I0224 09:53:01.943781  2097 net.cpp:165] Memory required for data: 2695976424
I0224 09:53:01.943809  2097 layer_factory.hpp:77] Creating layer inception_5a/relu_1x1
I0224 09:53:01.943823  2097 net.cpp:100] Creating Layer inception_5a/relu_1x1
I0224 09:53:01.943833  2097 net.cpp:434] inception_5a/relu_1x1 <- inception_5a/1x1
I0224 09:53:01.943846  2097 net.cpp:395] inception_5a/relu_1x1 -> inception_5a/1x1 (in-place)
I0224 09:53:01.943861  2097 net.cpp:150] Setting up inception_5a/relu_1x1
I0224 09:53:01.943871  2097 net.cpp:157] Top shape: 50 256 7 7 (627200)
I0224 09:53:01.943881  2097 net.cpp:165] Memory required for data: 2698485224
I0224 09:53:01.943889  2097 layer_factory.hpp:77] Creating layer inception_5a/3x3_reduce
I0224 09:53:01.943905  2097 net.cpp:100] Creating Layer inception_5a/3x3_reduce
I0224 09:53:01.943915  2097 net.cpp:434] inception_5a/3x3_reduce <- pool4/3x3_s2_pool4/3x3_s2_0_split_1
I0224 09:53:01.943933  2097 net.cpp:408] inception_5a/3x3_reduce -> inception_5a/3x3_reduce
I0224 09:53:01.946341  2097 net.cpp:150] Setting up inception_5a/3x3_reduce
I0224 09:53:01.946369  2097 net.cpp:157] Top shape: 50 160 7 7 (392000)
I0224 09:53:01.946378  2097 net.cpp:165] Memory required for data: 2700053224
I0224 09:53:01.946393  2097 layer_factory.hpp:77] Creating layer inception_5a/relu_3x3_reduce
I0224 09:53:01.946408  2097 net.cpp:100] Creating Layer inception_5a/relu_3x3_reduce
I0224 09:53:01.946419  2097 net.cpp:434] inception_5a/relu_3x3_reduce <- inception_5a/3x3_reduce
I0224 09:53:01.946430  2097 net.cpp:395] inception_5a/relu_3x3_reduce -> inception_5a/3x3_reduce (in-place)
I0224 09:53:01.946445  2097 net.cpp:150] Setting up inception_5a/relu_3x3_reduce
I0224 09:53:01.946456  2097 net.cpp:157] Top shape: 50 160 7 7 (392000)
I0224 09:53:01.946465  2097 net.cpp:165] Memory required for data: 2701621224
I0224 09:53:01.946475  2097 layer_factory.hpp:77] Creating layer inception_5a/3x3
I0224 09:53:01.946493  2097 net.cpp:100] Creating Layer inception_5a/3x3
I0224 09:53:01.946503  2097 net.cpp:434] inception_5a/3x3 <- inception_5a/3x3_reduce
I0224 09:53:01.946516  2097 net.cpp:408] inception_5a/3x3 -> inception_5a/3x3
I0224 09:53:01.954777  2097 net.cpp:150] Setting up inception_5a/3x3
I0224 09:53:01.954807  2097 net.cpp:157] Top shape: 50 320 7 7 (784000)
I0224 09:53:01.954818  2097 net.cpp:165] Memory required for data: 2704757224
I0224 09:53:01.954833  2097 layer_factory.hpp:77] Creating layer inception_5a/relu_3x3
I0224 09:53:01.954846  2097 net.cpp:100] Creating Layer inception_5a/relu_3x3
I0224 09:53:01.954857  2097 net.cpp:434] inception_5a/relu_3x3 <- inception_5a/3x3
I0224 09:53:01.954870  2097 net.cpp:395] inception_5a/relu_3x3 -> inception_5a/3x3 (in-place)
I0224 09:53:01.954885  2097 net.cpp:150] Setting up inception_5a/relu_3x3
I0224 09:53:01.954896  2097 net.cpp:157] Top shape: 50 320 7 7 (784000)
I0224 09:53:01.954905  2097 net.cpp:165] Memory required for data: 2707893224
I0224 09:53:01.954915  2097 layer_factory.hpp:77] Creating layer inception_5a/5x5_reduce
I0224 09:53:01.954932  2097 net.cpp:100] Creating Layer inception_5a/5x5_reduce
I0224 09:53:01.954943  2097 net.cpp:434] inception_5a/5x5_reduce <- pool4/3x3_s2_pool4/3x3_s2_0_split_2
I0224 09:53:01.954957  2097 net.cpp:408] inception_5a/5x5_reduce -> inception_5a/5x5_reduce
I0224 09:53:01.955451  2097 net.cpp:150] Setting up inception_5a/5x5_reduce
I0224 09:53:01.955467  2097 net.cpp:157] Top shape: 50 32 7 7 (78400)
I0224 09:53:01.955476  2097 net.cpp:165] Memory required for data: 2708206824
I0224 09:53:01.955489  2097 layer_factory.hpp:77] Creating layer inception_5a/relu_5x5_reduce
I0224 09:53:01.955500  2097 net.cpp:100] Creating Layer inception_5a/relu_5x5_reduce
I0224 09:53:01.955510  2097 net.cpp:434] inception_5a/relu_5x5_reduce <- inception_5a/5x5_reduce
I0224 09:53:01.955523  2097 net.cpp:395] inception_5a/relu_5x5_reduce -> inception_5a/5x5_reduce (in-place)
I0224 09:53:01.955535  2097 net.cpp:150] Setting up inception_5a/relu_5x5_reduce
I0224 09:53:01.955546  2097 net.cpp:157] Top shape: 50 32 7 7 (78400)
I0224 09:53:01.955567  2097 net.cpp:165] Memory required for data: 2708520424
I0224 09:53:01.955590  2097 layer_factory.hpp:77] Creating layer inception_5a/5x5
I0224 09:53:01.955610  2097 net.cpp:100] Creating Layer inception_5a/5x5
I0224 09:53:01.955621  2097 net.cpp:434] inception_5a/5x5 <- inception_5a/5x5_reduce
I0224 09:53:01.955633  2097 net.cpp:408] inception_5a/5x5 -> inception_5a/5x5
I0224 09:53:01.957463  2097 net.cpp:150] Setting up inception_5a/5x5
I0224 09:53:01.957489  2097 net.cpp:157] Top shape: 50 128 7 7 (313600)
I0224 09:53:01.957497  2097 net.cpp:165] Memory required for data: 2709774824
I0224 09:53:01.957512  2097 layer_factory.hpp:77] Creating layer inception_5a/relu_5x5
I0224 09:53:01.957525  2097 net.cpp:100] Creating Layer inception_5a/relu_5x5
I0224 09:53:01.957536  2097 net.cpp:434] inception_5a/relu_5x5 <- inception_5a/5x5
I0224 09:53:01.957554  2097 net.cpp:395] inception_5a/relu_5x5 -> inception_5a/5x5 (in-place)
I0224 09:53:01.957569  2097 net.cpp:150] Setting up inception_5a/relu_5x5
I0224 09:53:01.957581  2097 net.cpp:157] Top shape: 50 128 7 7 (313600)
I0224 09:53:01.957589  2097 net.cpp:165] Memory required for data: 2711029224
I0224 09:53:01.957598  2097 layer_factory.hpp:77] Creating layer inception_5a/pool
I0224 09:53:01.957612  2097 net.cpp:100] Creating Layer inception_5a/pool
I0224 09:53:01.957623  2097 net.cpp:434] inception_5a/pool <- pool4/3x3_s2_pool4/3x3_s2_0_split_3
I0224 09:53:01.957638  2097 net.cpp:408] inception_5a/pool -> inception_5a/pool
I0224 09:53:01.957659  2097 net.cpp:150] Setting up inception_5a/pool
I0224 09:53:01.957670  2097 net.cpp:157] Top shape: 50 832 7 7 (2038400)
I0224 09:53:01.957679  2097 net.cpp:165] Memory required for data: 2719182824
I0224 09:53:01.957689  2097 layer_factory.hpp:77] Creating layer inception_5a/pool_proj
I0224 09:53:01.957705  2097 net.cpp:100] Creating Layer inception_5a/pool_proj
I0224 09:53:01.957715  2097 net.cpp:434] inception_5a/pool_proj <- inception_5a/pool
I0224 09:53:01.957731  2097 net.cpp:408] inception_5a/pool_proj -> inception_5a/pool_proj
I0224 09:53:01.959642  2097 net.cpp:150] Setting up inception_5a/pool_proj
I0224 09:53:01.959671  2097 net.cpp:157] Top shape: 50 128 7 7 (313600)
I0224 09:53:01.959679  2097 net.cpp:165] Memory required for data: 2720437224
I0224 09:53:01.959694  2097 layer_factory.hpp:77] Creating layer inception_5a/relu_pool_proj
I0224 09:53:01.959707  2097 net.cpp:100] Creating Layer inception_5a/relu_pool_proj
I0224 09:53:01.959718  2097 net.cpp:434] inception_5a/relu_pool_proj <- inception_5a/pool_proj
I0224 09:53:01.959731  2097 net.cpp:395] inception_5a/relu_pool_proj -> inception_5a/pool_proj (in-place)
I0224 09:53:01.959746  2097 net.cpp:150] Setting up inception_5a/relu_pool_proj
I0224 09:53:01.959758  2097 net.cpp:157] Top shape: 50 128 7 7 (313600)
I0224 09:53:01.959765  2097 net.cpp:165] Memory required for data: 2721691624
I0224 09:53:01.959774  2097 layer_factory.hpp:77] Creating layer inception_5a/output
I0224 09:53:01.959787  2097 net.cpp:100] Creating Layer inception_5a/output
I0224 09:53:01.959797  2097 net.cpp:434] inception_5a/output <- inception_5a/1x1
I0224 09:53:01.959807  2097 net.cpp:434] inception_5a/output <- inception_5a/3x3
I0224 09:53:01.959818  2097 net.cpp:434] inception_5a/output <- inception_5a/5x5
I0224 09:53:01.959830  2097 net.cpp:434] inception_5a/output <- inception_5a/pool_proj
I0224 09:53:01.959844  2097 net.cpp:408] inception_5a/output -> inception_5a/output
I0224 09:53:01.959861  2097 net.cpp:150] Setting up inception_5a/output
I0224 09:53:01.959873  2097 net.cpp:157] Top shape: 50 832 7 7 (2038400)
I0224 09:53:01.959882  2097 net.cpp:165] Memory required for data: 2729845224
I0224 09:53:01.959890  2097 layer_factory.hpp:77] Creating layer inception_5a/output_inception_5a/output_0_split
I0224 09:53:01.959903  2097 net.cpp:100] Creating Layer inception_5a/output_inception_5a/output_0_split
I0224 09:53:01.959913  2097 net.cpp:434] inception_5a/output_inception_5a/output_0_split <- inception_5a/output
I0224 09:53:01.959928  2097 net.cpp:408] inception_5a/output_inception_5a/output_0_split -> inception_5a/output_inception_5a/output_0_split_0
I0224 09:53:01.959964  2097 net.cpp:408] inception_5a/output_inception_5a/output_0_split -> inception_5a/output_inception_5a/output_0_split_1
I0224 09:53:01.959980  2097 net.cpp:408] inception_5a/output_inception_5a/output_0_split -> inception_5a/output_inception_5a/output_0_split_2
I0224 09:53:01.959995  2097 net.cpp:408] inception_5a/output_inception_5a/output_0_split -> inception_5a/output_inception_5a/output_0_split_3
I0224 09:53:01.960011  2097 net.cpp:150] Setting up inception_5a/output_inception_5a/output_0_split
I0224 09:53:01.960022  2097 net.cpp:157] Top shape: 50 832 7 7 (2038400)
I0224 09:53:01.960033  2097 net.cpp:157] Top shape: 50 832 7 7 (2038400)
I0224 09:53:01.960044  2097 net.cpp:157] Top shape: 50 832 7 7 (2038400)
I0224 09:53:01.960055  2097 net.cpp:157] Top shape: 50 832 7 7 (2038400)
I0224 09:53:01.960063  2097 net.cpp:165] Memory required for data: 2762459624
I0224 09:53:01.960072  2097 layer_factory.hpp:77] Creating layer inception_5b/1x1
I0224 09:53:01.960090  2097 net.cpp:100] Creating Layer inception_5b/1x1
I0224 09:53:01.960100  2097 net.cpp:434] inception_5b/1x1 <- inception_5a/output_inception_5a/output_0_split_0
I0224 09:53:01.960114  2097 net.cpp:408] inception_5b/1x1 -> inception_5b/1x1
I0224 09:53:01.965739  2097 net.cpp:150] Setting up inception_5b/1x1
I0224 09:53:01.965770  2097 net.cpp:157] Top shape: 50 384 7 7 (940800)
I0224 09:53:01.965780  2097 net.cpp:165] Memory required for data: 2766222824
I0224 09:53:01.965795  2097 layer_factory.hpp:77] Creating layer inception_5b/relu_1x1
I0224 09:53:01.965808  2097 net.cpp:100] Creating Layer inception_5b/relu_1x1
I0224 09:53:01.965819  2097 net.cpp:434] inception_5b/relu_1x1 <- inception_5b/1x1
I0224 09:53:01.965832  2097 net.cpp:395] inception_5b/relu_1x1 -> inception_5b/1x1 (in-place)
I0224 09:53:01.965847  2097 net.cpp:150] Setting up inception_5b/relu_1x1
I0224 09:53:01.965858  2097 net.cpp:157] Top shape: 50 384 7 7 (940800)
I0224 09:53:01.965867  2097 net.cpp:165] Memory required for data: 2769986024
I0224 09:53:01.965876  2097 layer_factory.hpp:77] Creating layer inception_5b/3x3_reduce
I0224 09:53:01.965891  2097 net.cpp:100] Creating Layer inception_5b/3x3_reduce
I0224 09:53:01.965903  2097 net.cpp:434] inception_5b/3x3_reduce <- inception_5a/output_inception_5a/output_0_split_1
I0224 09:53:01.965919  2097 net.cpp:408] inception_5b/3x3_reduce -> inception_5b/3x3_reduce
I0224 09:53:01.968613  2097 net.cpp:150] Setting up inception_5b/3x3_reduce
I0224 09:53:01.968642  2097 net.cpp:157] Top shape: 50 192 7 7 (470400)
I0224 09:53:01.968652  2097 net.cpp:165] Memory required for data: 2771867624
I0224 09:53:01.968665  2097 layer_factory.hpp:77] Creating layer inception_5b/relu_3x3_reduce
I0224 09:53:01.968679  2097 net.cpp:100] Creating Layer inception_5b/relu_3x3_reduce
I0224 09:53:01.968690  2097 net.cpp:434] inception_5b/relu_3x3_reduce <- inception_5b/3x3_reduce
I0224 09:53:01.968703  2097 net.cpp:395] inception_5b/relu_3x3_reduce -> inception_5b/3x3_reduce (in-place)
I0224 09:53:01.968717  2097 net.cpp:150] Setting up inception_5b/relu_3x3_reduce
I0224 09:53:01.968729  2097 net.cpp:157] Top shape: 50 192 7 7 (470400)
I0224 09:53:01.968737  2097 net.cpp:165] Memory required for data: 2773749224
I0224 09:53:01.968746  2097 layer_factory.hpp:77] Creating layer inception_5b/3x3
I0224 09:53:01.968765  2097 net.cpp:100] Creating Layer inception_5b/3x3
I0224 09:53:01.968775  2097 net.cpp:434] inception_5b/3x3 <- inception_5b/3x3_reduce
I0224 09:53:01.968788  2097 net.cpp:408] inception_5b/3x3 -> inception_5b/3x3
I0224 09:53:01.980418  2097 net.cpp:150] Setting up inception_5b/3x3
I0224 09:53:01.980450  2097 net.cpp:157] Top shape: 50 384 7 7 (940800)
I0224 09:53:01.980459  2097 net.cpp:165] Memory required for data: 2777512424
I0224 09:53:01.980474  2097 layer_factory.hpp:77] Creating layer inception_5b/relu_3x3
I0224 09:53:01.980489  2097 net.cpp:100] Creating Layer inception_5b/relu_3x3
I0224 09:53:01.980500  2097 net.cpp:434] inception_5b/relu_3x3 <- inception_5b/3x3
I0224 09:53:01.980533  2097 net.cpp:395] inception_5b/relu_3x3 -> inception_5b/3x3 (in-place)
I0224 09:53:01.980562  2097 net.cpp:150] Setting up inception_5b/relu_3x3
I0224 09:53:01.980574  2097 net.cpp:157] Top shape: 50 384 7 7 (940800)
I0224 09:53:01.980582  2097 net.cpp:165] Memory required for data: 2781275624
I0224 09:53:01.980592  2097 layer_factory.hpp:77] Creating layer inception_5b/5x5_reduce
I0224 09:53:01.980607  2097 net.cpp:100] Creating Layer inception_5b/5x5_reduce
I0224 09:53:01.980618  2097 net.cpp:434] inception_5b/5x5_reduce <- inception_5a/output_inception_5a/output_0_split_2
I0224 09:53:01.980631  2097 net.cpp:408] inception_5b/5x5_reduce -> inception_5b/5x5_reduce
I0224 09:53:01.981355  2097 net.cpp:150] Setting up inception_5b/5x5_reduce
I0224 09:53:01.981371  2097 net.cpp:157] Top shape: 50 48 7 7 (117600)
I0224 09:53:01.981380  2097 net.cpp:165] Memory required for data: 2781746024
I0224 09:53:01.981395  2097 layer_factory.hpp:77] Creating layer inception_5b/relu_5x5_reduce
I0224 09:53:01.981406  2097 net.cpp:100] Creating Layer inception_5b/relu_5x5_reduce
I0224 09:53:01.981416  2097 net.cpp:434] inception_5b/relu_5x5_reduce <- inception_5b/5x5_reduce
I0224 09:53:01.981431  2097 net.cpp:395] inception_5b/relu_5x5_reduce -> inception_5b/5x5_reduce (in-place)
I0224 09:53:01.981444  2097 net.cpp:150] Setting up inception_5b/relu_5x5_reduce
I0224 09:53:01.981456  2097 net.cpp:157] Top shape: 50 48 7 7 (117600)
I0224 09:53:01.981465  2097 net.cpp:165] Memory required for data: 2782216424
I0224 09:53:01.981474  2097 layer_factory.hpp:77] Creating layer inception_5b/5x5
I0224 09:53:01.981493  2097 net.cpp:100] Creating Layer inception_5b/5x5
I0224 09:53:01.981503  2097 net.cpp:434] inception_5b/5x5 <- inception_5b/5x5_reduce
I0224 09:53:01.981516  2097 net.cpp:408] inception_5b/5x5 -> inception_5b/5x5
I0224 09:53:01.984112  2097 net.cpp:150] Setting up inception_5b/5x5
I0224 09:53:01.984141  2097 net.cpp:157] Top shape: 50 128 7 7 (313600)
I0224 09:53:01.984150  2097 net.cpp:165] Memory required for data: 2783470824
I0224 09:53:01.984165  2097 layer_factory.hpp:77] Creating layer inception_5b/relu_5x5
I0224 09:53:01.984184  2097 net.cpp:100] Creating Layer inception_5b/relu_5x5
I0224 09:53:01.984194  2097 net.cpp:434] inception_5b/relu_5x5 <- inception_5b/5x5
I0224 09:53:01.984207  2097 net.cpp:395] inception_5b/relu_5x5 -> inception_5b/5x5 (in-place)
I0224 09:53:01.984221  2097 net.cpp:150] Setting up inception_5b/relu_5x5
I0224 09:53:01.984233  2097 net.cpp:157] Top shape: 50 128 7 7 (313600)
I0224 09:53:01.984246  2097 net.cpp:165] Memory required for data: 2784725224
I0224 09:53:01.984257  2097 layer_factory.hpp:77] Creating layer inception_5b/pool
I0224 09:53:01.984274  2097 net.cpp:100] Creating Layer inception_5b/pool
I0224 09:53:01.984284  2097 net.cpp:434] inception_5b/pool <- inception_5a/output_inception_5a/output_0_split_3
I0224 09:53:01.984297  2097 net.cpp:408] inception_5b/pool -> inception_5b/pool
I0224 09:53:01.984318  2097 net.cpp:150] Setting up inception_5b/pool
I0224 09:53:01.984328  2097 net.cpp:157] Top shape: 50 832 7 7 (2038400)
I0224 09:53:01.984338  2097 net.cpp:165] Memory required for data: 2792878824
I0224 09:53:01.984346  2097 layer_factory.hpp:77] Creating layer inception_5b/pool_proj
I0224 09:53:01.984364  2097 net.cpp:100] Creating Layer inception_5b/pool_proj
I0224 09:53:01.984375  2097 net.cpp:434] inception_5b/pool_proj <- inception_5b/pool
I0224 09:53:01.984391  2097 net.cpp:408] inception_5b/pool_proj -> inception_5b/pool_proj
I0224 09:53:01.986299  2097 net.cpp:150] Setting up inception_5b/pool_proj
I0224 09:53:01.986325  2097 net.cpp:157] Top shape: 50 128 7 7 (313600)
I0224 09:53:01.986333  2097 net.cpp:165] Memory required for data: 2794133224
I0224 09:53:01.986348  2097 layer_factory.hpp:77] Creating layer inception_5b/relu_pool_proj
I0224 09:53:01.986361  2097 net.cpp:100] Creating Layer inception_5b/relu_pool_proj
I0224 09:53:01.986372  2097 net.cpp:434] inception_5b/relu_pool_proj <- inception_5b/pool_proj
I0224 09:53:01.986385  2097 net.cpp:395] inception_5b/relu_pool_proj -> inception_5b/pool_proj (in-place)
I0224 09:53:01.986423  2097 net.cpp:150] Setting up inception_5b/relu_pool_proj
I0224 09:53:01.986435  2097 net.cpp:157] Top shape: 50 128 7 7 (313600)
I0224 09:53:01.986443  2097 net.cpp:165] Memory required for data: 2795387624
I0224 09:53:01.986452  2097 layer_factory.hpp:77] Creating layer inception_5b/output
I0224 09:53:01.986469  2097 net.cpp:100] Creating Layer inception_5b/output
I0224 09:53:01.986479  2097 net.cpp:434] inception_5b/output <- inception_5b/1x1
I0224 09:53:01.986490  2097 net.cpp:434] inception_5b/output <- inception_5b/3x3
I0224 09:53:01.986500  2097 net.cpp:434] inception_5b/output <- inception_5b/5x5
I0224 09:53:01.986510  2097 net.cpp:434] inception_5b/output <- inception_5b/pool_proj
I0224 09:53:01.986523  2097 net.cpp:408] inception_5b/output -> inception_5b/output
I0224 09:53:01.986544  2097 net.cpp:150] Setting up inception_5b/output
I0224 09:53:01.986557  2097 net.cpp:157] Top shape: 50 1024 7 7 (2508800)
I0224 09:53:01.986564  2097 net.cpp:165] Memory required for data: 2805422824
I0224 09:53:01.986573  2097 layer_factory.hpp:77] Creating layer pool5/7x7_s1
I0224 09:53:01.986585  2097 net.cpp:100] Creating Layer pool5/7x7_s1
I0224 09:53:01.986595  2097 net.cpp:434] pool5/7x7_s1 <- inception_5b/output
I0224 09:53:01.986608  2097 net.cpp:408] pool5/7x7_s1 -> pool5/7x7_s1
I0224 09:53:01.986625  2097 net.cpp:150] Setting up pool5/7x7_s1
I0224 09:53:01.986637  2097 net.cpp:157] Top shape: 50 1024 1 1 (51200)
I0224 09:53:01.986645  2097 net.cpp:165] Memory required for data: 2805627624
I0224 09:53:01.986654  2097 layer_factory.hpp:77] Creating layer pool5/drop_7x7_s1
I0224 09:53:01.986672  2097 net.cpp:100] Creating Layer pool5/drop_7x7_s1
I0224 09:53:01.986682  2097 net.cpp:434] pool5/drop_7x7_s1 <- pool5/7x7_s1
I0224 09:53:01.986695  2097 net.cpp:395] pool5/drop_7x7_s1 -> pool5/7x7_s1 (in-place)
I0224 09:53:01.986711  2097 net.cpp:150] Setting up pool5/drop_7x7_s1
I0224 09:53:01.986722  2097 net.cpp:157] Top shape: 50 1024 1 1 (51200)
I0224 09:53:01.986732  2097 net.cpp:165] Memory required for data: 2805832424
I0224 09:53:01.986739  2097 layer_factory.hpp:77] Creating layer loss3/classifier
I0224 09:53:01.986755  2097 net.cpp:100] Creating Layer loss3/classifier
I0224 09:53:01.986764  2097 net.cpp:434] loss3/classifier <- pool5/7x7_s1
I0224 09:53:01.986778  2097 net.cpp:408] loss3/classifier -> loss3/classifier
I0224 09:53:02.004624  2097 net.cpp:150] Setting up loss3/classifier
I0224 09:53:02.004667  2097 net.cpp:157] Top shape: 50 1000 (50000)
I0224 09:53:02.004675  2097 net.cpp:165] Memory required for data: 2806032424
I0224 09:53:02.004693  2097 layer_factory.hpp:77] Creating layer loss3/classifier_loss3/classifier_0_split
I0224 09:53:02.004710  2097 net.cpp:100] Creating Layer loss3/classifier_loss3/classifier_0_split
I0224 09:53:02.004722  2097 net.cpp:434] loss3/classifier_loss3/classifier_0_split <- loss3/classifier
I0224 09:53:02.004736  2097 net.cpp:408] loss3/classifier_loss3/classifier_0_split -> loss3/classifier_loss3/classifier_0_split_0
I0224 09:53:02.004753  2097 net.cpp:408] loss3/classifier_loss3/classifier_0_split -> loss3/classifier_loss3/classifier_0_split_1
I0224 09:53:02.004768  2097 net.cpp:408] loss3/classifier_loss3/classifier_0_split -> loss3/classifier_loss3/classifier_0_split_2
I0224 09:53:02.004786  2097 net.cpp:150] Setting up loss3/classifier_loss3/classifier_0_split
I0224 09:53:02.004797  2097 net.cpp:157] Top shape: 50 1000 (50000)
I0224 09:53:02.004807  2097 net.cpp:157] Top shape: 50 1000 (50000)
I0224 09:53:02.004818  2097 net.cpp:157] Top shape: 50 1000 (50000)
I0224 09:53:02.004827  2097 net.cpp:165] Memory required for data: 2806632424
I0224 09:53:02.004835  2097 layer_factory.hpp:77] Creating layer loss3/loss3
I0224 09:53:02.004850  2097 net.cpp:100] Creating Layer loss3/loss3
I0224 09:53:02.004861  2097 net.cpp:434] loss3/loss3 <- loss3/classifier_loss3/classifier_0_split_0
I0224 09:53:02.004873  2097 net.cpp:434] loss3/loss3 <- label_data_1_split_6
…
