…
I0224 09:37:14.911849  1880 net.cpp:322] The NetState phase (0) differed from the phase (1) specified by a rule in layer loss3/top-5
I0224 09:37:14.917253  1880 net.cpp:58] Initializing net from parameters: 
name: "GoogleNet"
state {
  phase: TRAIN
  level: 0
  stage: ""
}
layer {
  name: "data"
  type: "Data"
  top: "data"
  top: "label"
  include {
    phase: TRAIN
  }
  transform_param {
    mirror: true
    crop_size: 224
    mean_value: 104
    mean_value: 117
    mean_value: 123
  }
  data_param {
    source: "/home/user/user/LIBRARIES/caffeLibs/caffe/examples/imagenet/ilsvrc12_train_lmdb"
    batch_size: 48
    backend: LMDB
  }
}
layer {
  name: "conv1/7x7_s2"
  type: "Convolution"
  bottom: "data"
  top: "conv1/7x7_s2"
  param {
    lr_mult: 1
    decay_mult: 1
  }
  param {
    lr_mult: 2
    decay_mult: 0
  }
  convolution_param {
    num_output: 64
    pad: 3
    kernel_size: 7
    stride: 2
    weight_filler {
      type: "xavier"
    }
    bias_filler {
      type: "constant"
      value: 0.2
    }
  }
}
layer {
  name: "conv1/relu_7x7"
  type: "ReLU"
  bottom: "conv1/7x7_s2"
  top: "conv1/7x7_s2"
}
layer {
  name: "pool1/3x3_s2"
  type: "Pooling"
  bottom: "conv1/7x7_s2"
  top: "pool1/3x3_s2"
  pooling_param {
    pool: MAX
    kernel_size: 3
    stride: 2
  }
}
layer {
  name: "pool1/norm1"
  type: "LRN"
  bottom: "pool1/3x3_s2"
  top: "pool1/norm1"
  lrn_param {
    local_size: 5
    alpha: 0.0001
    beta: 0.75
  }
}
layer {
  name: "conv2/3x3_reduce"
  type: "Convolution"
  bottom: "pool1/norm1"
  top: "conv2/3x3_reduce"
  param {
    lr_mult: 1
    decay_mult: 1
  }
  param {
    lr_mult: 2
    decay_mult: 0
  }
  convolution_param {
    num_output: 64
    kernel_size: 1
    weight_filler {
      type: "xavier"
    }
    bias_filler {
      type: "constant"
      value: 0.2
    }
  }
}
layer {
  name: "conv2/relu_3x3_reduce"
  type: "ReLU"
  bottom: "conv2/3x3_reduce"
  top: "conv2/3x3_reduce"
}
layer {
  name: "conv2/3x3"
  type: "Convolution"
  bottom: "conv2/3x3_reduce"
  top: "conv2/3x3"
  param {
    lr_mult: 1
    decay_mult: 1
  }
  param {
    lr_mult: 2
    decay_mult: 0
  }
  convolution_param {
    num_output: 192
    pad: 1
    kernel_size: 3
    weight_filler {
      type: "xavier"
    }
    bias_filler {
      type: "constant"
      value: 0.2
    }
  }
}
layer {
  name: "conv2/relu_3x3"
  type: "ReLU"
  bottom: "conv2/3x3"
  top: "conv2/3x3"
}
layer {
  name: "conv2/norm2"
  type: "LRN"
  bottom: "conv2/3x3"
  top: "conv2/norm2"
  lrn_param {
    local_size: 5
    alpha: 0.0001
    beta: 0.75
  }
}
layer {
  name: "pool2/3x3_s2"
  type: "Pooling"
  bottom: "conv2/norm2"
  top: "pool2/3x3_s2"
  pooling_param {
    pool: MAX
    kernel_size: 3
    stride: 2
  }
}
layer {
  name: "inception_3a/1x1"
  type: "Convolution"
  bottom: "pool2/3x3_s2"
  top: "inception_3a/1x1"
  param {
    lr_mult: 1
    decay_mult: 1
  }
  param {
    lr_mult: 2
    decay_mult: 0
  }
  convolution_param {
    num_output: 64
    kernel_size: 1
    weight_filler {
      type: "xavier"
    }
    bias_filler {
      type: "constant"
      value: 0.2
    }
  }
}
layer {
  name: "inception_3a/relu_1x1"
  type: "ReLU"
  bottom: "inception_3a/1x1"
  top: "inception_3a/1x1"
}
layer {
  name: "inception_3a/3x3_reduce"
  type: "Convolution"
  bottom: "pool2/3x3_s2"
  top: "inception_3a/3x3_reduce"
  param {
    lr_mult: 1
    decay_mult: 1
  }
  param {
    lr_mult: 2
    decay_mult: 0
  }
  convolution_param {
    num_output: 96
    kernel_size: 1
    weight_filler {
      type: "xavier"
    }
    bias_filler {
      type: "constant"
      value: 0.2
    }
  }
}
layer {
  name: "inception_3a/relu_3x3_reduce"
  type: "ReLU"
  bottom: "inception_3a/3x3_reduce"
  top: "inception_3a/3x3_reduce"
}
layer {
  name: "inception_3a/3x3"
  type: "Convolution"
  bottom: "inception_3a/3x3_reduce"
  top: "inception_3a/3x3"
  param {
    lr_mult: 1
    decay_mult: 1
  }
  param {
    lr_mult: 2
    decay_mult: 0
  }
  convolution_param {
    num_output: 128
    pad: 1
    kernel_size: 3
    weight_filler {
      type: "xavier"
    }
    bias_filler {
      type: "constant"
      value: 0.2
    }
  }
}
layer {
  name: "inception_3a/relu_3x3"
  type: "ReLU"
  bottom: "inception_3a/3x3"
  top: "inception_3a/3x3"
}
layer {
  name: "inception_3a/5x5_reduce"
  type: "Convolution"
  bottom: "pool2/3x3_s2"
  top: "inception_3a/5x5_reduce"
  param {
    lr_mult: 1
    decay_mult: 1
  }
  param {
    lr_mult: 2
    decay_mult: 0
  }
  convolution_param {
    num_output: 16
    kernel_size: 1
    weight_filler {
      type: "xavier"
    }
    bias_filler {
      type: "constant"
      value: 0.2
    }
  }
}
layer {
  name: "inception_3a/relu_5x5_reduce"
  type: "ReLU"
  bottom: "inception_3a/5x5_reduce"
  top: "inception_3a/5x5_reduce"
}
layer {
  name: "inception_3a/5x5"
  type: "Convolution"
  bottom: "inception_3a/5x5_reduce"
  top: "inception_3a/5x5"
  param {
    lr_mult: 1
    decay_mult: 1
  }
  param {
    lr_mult: 2
    decay_mult: 0
  }
  convolution_param {
    num_output: 32
    pad: 2
    kernel_size: 5
    weight_filler {
      type: "xavier"
    }
    bias_filler {
      type: "constant"
      value: 0.2
    }
  }
}
layer {
  name: "inception_3a/relu_5x5"
  type: "ReLU"
  bottom: "inception_3a/5x5"
  top: "inception_3a/5x5"
}
layer {
  name: "inception_3a/pool"
  type: "Pooling"
  bottom: "pool2/3x3_s2"
  top: "inception_3a/pool"
  pooling_param {
    pool: MAX
    kernel_size: 3
    stride: 1
    pad: 1
  }
}
layer {
  name: "inception_3a/pool_proj"
  type: "Convolution"
  bottom: "inception_3a/pool"
  top: "inception_3a/pool_proj"
  param {
    lr_mult: 1
    decay_mult: 1
  }
  param {
    lr_mult: 2
    decay_mult: 0
  }
  convolution_param {
    num_output: 32
    kernel_size: 1
    weight_filler {
      type: "xavier"
    }
    bias_filler {
      type: "constant"
      value: 0.2
    }
  }
}
layer {
  name: "inception_3a/relu_pool_proj"
  type: "ReLU"
  bottom: "inception_3a/pool_proj"
  top: "inception_3a/pool_proj"
}
layer {
  name: "inception_3a/output"
  type: "Concat"
  bottom: "inception_3a/1x1"
  bottom: "inception_3a/3x3"
  bottom: "inception_3a/5x5"
  bottom: "inception_3a/pool_proj"
  top: "inception_3a/output"
}
layer {
  name: "inception_3b/1x1"
  type: "Convolution"
  bottom: "inception_3a/output"
  top: "inception_3b/1x1"
  param {
    lr_mult: 1
    decay_mult: 1
  }
  param {
    lr_mult: 2
    decay_mult: 0
  }
  convolution_param {
    num_output: 128
    kernel_size: 1
    weight_filler {
      type: "xavier"
    }
    bias_filler {
      type: "constant"
      value: 0.2
    }
  }
}
layer {
  name: "inception_3b/relu_1x1"
  type: "ReLU"
  bottom: "inception_3b/1x1"
  top: "inception_3b/1x1"
}
layer {
  name: "inception_3b/3x3_reduce"
  type: "Convolution"
  bottom: "inception_3a/output"
  top: "inception_3b/3x3_reduce"
  param {
    lr_mult: 1
    decay_mult: 1
  }
  param {
    lr_mult: 2
    decay_mult: 0
  }
  convolution_param {
    num_output: 128
    kernel_size: 1
    weight_filler {
      type: "xavier"
    }
    bias_filler {
      type: "constant"
      value: 0.2
    }
  }
}
layer {
  name: "inception_3b/relu_3x3_reduce"
  type: "ReLU"
  bottom: "inception_3b/3x3_reduce"
  top: "inception_3b/3x3_reduce"
}
layer {
  name: "inception_3b/3x3"
  type: "Convolution"
  bottom: "inception_3b/3x3_reduce"
  top: "inception_3b/3x3"
  param {
    lr_mult: 1
    decay_mult: 1
  }
  param {
    lr_mult: 2
    decay_mult: 0
  }
  convolution_param {
    num_output: 192
    pad: 1
    kernel_size: 3
    weight_filler {
      type: "xavier"
    }
    bias_filler {
      type: "constant"
      value: 0.2
    }
  }
}
layer {
  name: "inception_3b/relu_3x3"
  type: "ReLU"
  bottom: "inception_3b/3x3"
  top: "inception_3b/3x3"
}
layer {
  name: "inception_3b/5x5_reduce"
  type: "Convolution"
  bottom: "inception_3a/output"
  top: "inception_3b/5x5_reduce"
  param {
    lr_mult: 1
    decay_mult: 1
  }
  param {
    lr_mult: 2
    decay_mult: 0
  }
  convolution_param {
    num_output: 32
    kernel_size: 1
    weight_filler {
      type: "xavier"
    }
    bias_filler {
      type: "constant"
      value: 0.2
    }
  }
}
layer {
  name: "inception_3b/relu_5x5_reduce"
  type: "ReLU"
  bottom: "inception_3b/5x5_reduce"
  top: "inception_3b/5x5_reduce"
}
layer {
  name: "inception_3b/5x5"
  type: "Convolution"
  bottom: "inception_3b/5x5_reduce"
  top: "inception_3b/5x5"
  param {
    lr_mult: 1
    decay_mult: 1
  }
  param {
    lr_mult: 2
    decay_mult: 0
  }
  convolution_param {
    num_output: 96
    pad: 2
    kernel_size: 5
    weight_filler {
      type: "xavier"
    }
    bias_filler {
      type: "constant"
      value: 0.2
    }
  }
}
layer {
  name: "inception_3b/relu_5x5"
  type: "ReLU"
  bottom: "inception_3b/5x5"
  top: "inception_3b/5x5"
}
layer {
  name: "inception_3b/pool"
  type: "Pooling"
  bottom: "inception_3a/output"
  top: "inception_3b/pool"
  pooling_param {
    pool: MAX
    kernel_size: 3
    stride: 1
    pad: 1
  }
}
layer {
  name: "inception_3b/pool_proj"
  type: "Convolution"
  bottom: "inception_3b/pool"
  top: "inception_3b/pool_proj"
  param {
    lr_mult: 1
    decay_mult: 1
  }
  param {
    lr_mult: 2
    decay_mult: 0
  }
  convolution_param {
    num_output: 64
    kernel_size: 1
    weight_filler {
      type: "xavier"
    }
    bias_filler {
      type: "constant"
      value: 0.2
    }
  }
}
layer {
  name: "inception_3b/relu_pool_proj"
  type: "ReLU"
  bottom: "inception_3b/pool_proj"
  top: "inception_3b/pool_proj"
}
layer {
  name: "inception_3b/output"
  type: "Concat"
  bottom: "inception_3b/1x1"
  bottom: "inception_3b/3x3"
  bottom: "inception_3b/5x5"
  bottom: "inception_3b/pool_proj"
  top: "inception_3b/output"
}
layer {
  name: "pool3/3x3_s2"
  type: "Pooling"
  bottom: "inception_3b/output"
  top: "pool3/3x3_s2"
  pooling_param {
    pool: MAX
    kernel_size: 3
    stride: 2
  }
}
layer {
  name: "inception_4a/1x1"
  type: "Convolution"
  bottom: "pool3/3x3_s2"
  top: "inception_4a/1x1"
  param {
    lr_mult: 1
    decay_mult: 1
  }
  param {
    lr_mult: 2
    decay_mult: 0
  }
  convolution_param {
    num_output: 192
    kernel_size: 1
    weight_filler {
      type: "xavier"
    }
    bias_filler {
      type: "constant"
      value: 0.2
    }
  }
}
layer {
  name: "inception_4a/relu_1x1"
  type: "ReLU"
  bottom: "inception_4a/1x1"
  top: "inception_4a/1x1"
}
layer {
  name: "inception_4a/3x3_reduce"
  type: "Convolution"
  bottom: "pool3/3x3_s2"
  top: "inception_4a/3x3_reduce"
  param {
    lr_mult: 1
    decay_mult: 1
  }
  param {
    lr_mult: 2
    decay_mult: 0
  }
  convolution_param {
    num_output: 96
    kernel_size: 1
    weight_filler {
      type: "xavier"
    }
    bias_filler {
      type: "constant"
      value: 0.2
    }
  }
}
layer {
  name: "inception_4a/relu_3x3_reduce"
  type: "ReLU"
  bottom: "inception_4a/3x3_reduce"
  top: "inception_4a/3x3_reduce"
}
layer {
  name: "inception_4a/3x3"
  type: "Convolution"
  bottom: "inception_4a/3x3_reduce"
  top: "inception_4a/3x3"
  param {
    lr_mult: 1
    decay_mult: 1
  }
  param {
    lr_mult: 2
    decay_mult: 0
  }
  convolution_param {
    num_output: 208
    pad: 1
    kernel_size: 3
    weight_filler {
      type: "xavier"
    }
    bias_filler {
      type: "constant"
      value: 0.2
    }
  }
}
layer {
  name: "inception_4a/relu_3x3"
  type: "ReLU"
  bottom: "inception_4a/3x3"
  top: "inception_4a/3x3"
}
layer {
  name: "inception_4a/5x5_reduce"
  type: "Convolution"
  bottom: "pool3/3x3_s2"
  top: "inception_4a/5x5_reduce"
  param {
    lr_mult: 1
    decay_mult: 1
  }
  param {
    lr_mult: 2
    decay_mult: 0
  }
  convolution_param {
    num_output: 16
    kernel_size: 1
    weight_filler {
      type: "xavier"
    }
    bias_filler {
      type: "constant"
      value: 0.2
    }
  }
}
layer {
  name: "inception_4a/relu_5x5_reduce"
  type: "ReLU"
  bottom: "inception_4a/5x5_reduce"
  top: "inception_4a/5x5_reduce"
}
layer {
  name: "inception_4a/5x5"
  type: "Convolution"
  bottom: "inception_4a/5x5_reduce"
  top: "inception_4a/5x5"
  param {
    lr_mult: 1
    decay_mult: 1
  }
  param {
    lr_mult: 2
    decay_mult: 0
  }
  convolution_param {
    num_output: 48
    pad: 2
    kernel_size: 5
    weight_filler {
      type: "xavier"
    }
    bias_filler {
      type: "constant"
      value: 0.2
    }
  }
}
layer {
  name: "inception_4a/relu_5x5"
  type: "ReLU"
  bottom: "inception_4a/5x5"
  top: "inception_4a/5x5"
}
layer {
  name: "inception_4a/pool"
  type: "Pooling"
  bottom: "pool3/3x3_s2"
  top: "inception_4a/pool"
  pooling_param {
    pool: MAX
    kernel_size: 3
    stride: 1
    pad: 1
  }
}
layer {
  name: "inception_4a/pool_proj"
  type: "Convolution"
  bottom: "inception_4a/pool"
  top: "inception_4a/pool_proj"
  param {
    lr_mult: 1
    decay_mult: 1
  }
  param {
    lr_mult: 2
    decay_mult: 0
  }
  convolution_param {
    num_output: 64
    kernel_size: 1
    weight_filler {
      type: "xavier"
    }
    bias_filler {
      type: "constant"
      value: 0.2
    }
  }
}
layer {
  name: "inception_4a/relu_pool_proj"
  type: "ReLU"
  bottom: "inception_4a/pool_proj"
  top: "inception_4a/pool_proj"
}
layer {
  name: "inception_4a/output"
  type: "Concat"
  bottom: "inception_4a/1x1"
  bottom: "inception_4a/3x3"
  bottom: "inception_4a/5x5"
  bottom: "inception_4a/pool_proj"
  top: "inception_4a/output"
}
layer {
  name: "loss1/ave_pool"
  type: "Pooling"
  bottom: "inception_4a/output"
  top: "loss1/ave_pool"
  pooling_param {
    pool: AVE
    kernel_size: 5
    stride: 3
  }
}
layer {
  name: "loss1/conv"
  type: "Convolution"
  bottom: "loss1/ave_pool"
  top: "loss1/conv"
  param {
    lr_mult: 1
    decay_mult: 1
  }
  param {
    lr_mult: 2
    decay_mult: 0
  }
  convolution_param {
    num_output: 128
    kernel_size: 1
    weight_filler {
      type: "xavier"
    }
    bias_filler {
      type: "constant"
      value: 0.2
    }
  }
}
layer {
  name: "loss1/relu_conv"
  type: "ReLU"
  bottom: "loss1/conv"
  top: "loss1/conv"
}
layer {
  name: "loss1/fc"
  type: "InnerProduct"
  bottom: "loss1/conv"
  top: "loss1/fc"
  param {
    lr_mult: 1
    decay_mult: 1
  }
  param {
    lr_mult: 2
    decay_mult: 0
  }
  inner_product_param {
    num_output: 1024
    weight_filler {
      type: "xavier"
    }
    bias_filler {
      type: "constant"
      value: 0.2
    }
  }
}
layer {
  name: "loss1/relu_fc"
  type: "ReLU"
  bottom: "loss1/fc"
  top: "loss1/fc"
}
layer {
  name: "loss1/drop_fc"
  type: "Dropout"
  bottom: "loss1/fc"
  top: "loss1/fc"
  dropout_param {
    dropout_ratio: 0.7
  }
}
layer {
  name: "loss1/classifier"
  type: "InnerProduct"
  bottom: "loss1/fc"
  top: "loss1/classifier"
  param {
    lr_mult: 1
    decay_mult: 1
  }
  param {
    lr_mult: 2
    decay_mult: 0
  }
  inner_product_param {
    num_output: 1000
    weight_filler {
      type: "xavier"
    }
    bias_filler {
      type: "constant"
      value: 0
    }
  }
}
layer {
  name: "loss1/loss"
  type: "SoftmaxWithLoss"
  bottom: "loss1/classifier"
  bottom: "label"
  top: "loss1/loss1"
  loss_weight: 0.3
}
layer {
  name: "inception_4b/1x1"
  type: "Convolution"
  bottom: "inception_4a/output"
  top: "inception_4b/1x1"
  param {
    lr_mult: 1
    decay_mult: 1
  }
  param {
    lr_mult: 2
    decay_mult: 0
  }
  convolution_param {
    num_output: 160
    kernel_size: 1
    weight_filler {
      type: "xavier"
    }
    bias_filler {
      type: "constant"
      value: 0.2
    }
  }
}
layer {
  name: "inception_4b/relu_1x1"
  type: "ReLU"
  bottom: "inception_4b/1x1"
  top: "inception_4b/1x1"
}
layer {
  name: "inception_4b/3x3_reduce"
  type: "Convolution"
  bottom: "inception_4a/output"
  top: "inception_4b/3x3_reduce"
  param {
    lr_mult: 1
    decay_mult: 1
  }
  param {
    lr_mult: 2
    decay_mult: 0
  }
  convolution_param {
    num_output: 112
    kernel_size: 1
    weight_filler {
      type: "xavier"
    }
    bias_filler {
      type: "constant"
      value: 0.2
    }
  }
}
layer {
  name: "inception_4b/relu_3x3_reduce"
  type: "ReLU"
  bottom: "inception_4b/3x3_reduce"
  top: "inception_4b/3x3_reduce"
}
layer {
  name: "inception_4b/3x3"
  type: "Convolution"
  bottom: "inception_4b/3x3_reduce"
  top: "inception_4b/3x3"
  param {
    lr_mult: 1
    decay_mult: 1
  }
  param {
    lr_mult: 2
    decay_mult: 0
  }
  convolution_param {
    num_output: 224
    pad: 1
    kernel_size: 3
    weight_filler {
      type: "xavier"
    }
    bias_filler {
      type: "constant"
      value: 0.2
    }
  }
}
layer {
  name: "inception_4b/relu_3x3"
  type: "ReLU"
  bottom: "inception_4b/3x3"
  top: "inception_4b/3x3"
}
layer {
  name: "inception_4b/5x5_reduce"
  type: "Convolution"
  bottom: "inception_4a/output"
  top: "inception_4b/5x5_reduce"
  param {
    lr_mult: 1
    decay_mult: 1
  }
  param {
    lr_mult: 2
    decay_mult: 0
  }
  convolution_param {
    num_output: 24
    kernel_size: 1
    weight_filler {
      type: "xavier"
    }
    bias_filler {
      type: "constant"
      value: 0.2
    }
  }
}
layer {
  name: "inception_4b/relu_5x5_reduce"
  type: "ReLU"
  bottom: "inception_4b/5x5_reduce"
  top: "inception_4b/5x5_reduce"
}
layer {
  name: "inception_4b/5x5"
  type: "Convolution"
  bottom: "inception_4b/5x5_reduce"
  top: "inception_4b/5x5"
  param {
    lr_mult: 1
    decay_mult: 1
  }
  param {
    lr_mult: 2
    decay_mult: 0
  }
  convolution_param {
    num_output: 64
    pad: 2
    kernel_size: 5
    weight_filler {
      type: "xavier"
    }
    bias_filler {
      type: "constant"
      value: 0.2
    }
  }
}
layer {
  name: "inception_4b/relu_5x5"
  type: "ReLU"
  bottom: "inception_4b/5x5"
  top: "inception_4b/5x5"
}
layer {
  name: "inception_4b/pool"
  type: "Pooling"
  bottom: "inception_4a/output"
  top: "inception_4b/pool"
  pooling_param {
    pool: MAX
    kernel_size: 3
    stride: 1
    pad: 1
  }
}
layer {
  name: "inception_4b/pool_proj"
  type: "Convolution"
  bottom: "inception_4b/pool"
  top: "inception_4b/pool_proj"
  param {
    lr_mult: 1
    decay_mult: 1
  }
  param {
    lr_mult: 2
    decay_mult: 0
  }
  convolution_param {
    num_output: 64
    kernel_size: 1
    weight_filler {
      type: "xavier"
    }
    bias_filler {
      type: "constant"
      value: 0.2
    }
  }
}
layer {
  name: "inception_4b/relu_pool_proj"
  type: "ReLU"
  bottom: "inception_4b/pool_proj"
  top: "inception_4b/pool_proj"
}
layer {
  name: "inception_4b/output"
  type: "Concat"
  bottom: "inception_4b/1x1"
  bottom: "inception_4b/3x3"
  bottom: "inception_4b/5x5"
  bottom: "inception_4b/pool_proj"
  top: "inception_4b/output"
}
layer {
  name: "inception_4c/1x1"
  type: "Convolution"
  bottom: "inception_4b/output"
  top: "inception_4c/1x1"
  param {
    lr_mult: 1
    decay_mult: 1
  }
  param {
    lr_mult: 2
    decay_mult: 0
  }
  convolution_param {
    num_output: 128
    kernel_size: 1
    weight_filler {
      type: "xavier"
    }
    bias_filler {
      type: "constant"
      value: 0.2
    }
  }
}
layer {
  name: "inception_4c/relu_1x1"
  type: "ReLU"
  bottom: "inception_4c/1x1"
  top: "inception_4c/1x1"
}
layer {
  name: "inception_4c/3x3_reduce"
  type: "Convolution"
  bottom: "inception_4b/output"
  top: "inception_4c/3x3_reduce"
  param {
    lr_mult: 1
    decay_mult: 1
  }
  param {
    lr_mult: 2
    decay_mult: 0
  }
  convolution_param {
    num_output: 128
    kernel_size: 1
    weight_filler {
      type: "xavier"
    }
    bias_filler {
      type: "constant"
      value: 0.2
    }
  }
}
layer {
  name: "inception_4c/relu_3x3_reduce"
  type: "ReLU"
  bottom: "inception_4c/3x3_reduce"
  top: "inception_4c/3x3_reduce"
}
layer {
  name: "inception_4c/3x3"
  type: "Convolution"
  bottom: "inception_4c/3x3_reduce"
  top: "inception_4c/3x3"
  param {
    lr_mult: 1
    decay_mult: 1
  }
  param {
    lr_mult: 2
    decay_mult: 0
  }
  convolution_param {
    num_output: 256
    pad: 1
    kernel_size: 3
    weight_filler {
      type: "xavier"
    }
    bias_filler {
      type: "constant"
      value: 0.2
    }
  }
}
layer {
  name: "inception_4c/relu_3x3"
  type: "ReLU"
  bottom: "inception_4c/3x3"
  top: "inception_4c/3x3"
}
layer {
  name: "inception_4c/5x5_reduce"
  type: "Convolution"
  bottom: "inception_4b/output"
  top: "inception_4c/5x5_reduce"
  param {
    lr_mult: 1
    decay_mult: 1
  }
  param {
    lr_mult: 2
    decay_mult: 0
  }
  convolution_param {
    num_output: 24
    kernel_size: 1
    weight_filler {
      type: "xavier"
    }
    bias_filler {
      type: "constant"
      value: 0.2
    }
  }
}
layer {
  name: "inception_4c/relu_5x5_reduce"
  type: "ReLU"
  bottom: "inception_4c/5x5_reduce"
  top: "inception_4c/5x5_reduce"
}
layer {
  name: "inception_4c/5x5"
  type: "Convolution"
  bottom: "inception_4c/5x5_reduce"
  top: "inception_4c/5x5"
  param {
    lr_mult: 1
    decay_mult: 1
  }
  param {
    lr_mult: 2
    decay_mult: 0
  }
  convolution_param {
    num_output: 64
    pad: 2
    kernel_size: 5
    weight_filler {
      type: "xavier"
    }
    bias_filler {
      type: "constant"
      value: 0.2
    }
  }
}
layer {
  name: "inception_4c/relu_5x5"
  type: "ReLU"
  bottom: "inception_4c/5x5"
  top: "inception_4c/5x5"
}
layer {
  name: "inception_4c/pool"
  type: "Pooling"
  bottom: "inception_4b/output"
  top: "inception_4c/pool"
  pooling_param {
    pool: MAX
    kernel_size: 3
    stride: 1
    pad: 1
  }
}
layer {
  name: "inception_4c/pool_proj"
  type: "Convolution"
  bottom: "inception_4c/pool"
  top: "inception_4c/pool_proj"
  param {
    lr_mult: 1
    decay_mult: 1
  }
  param {
    lr_mult: 2
    decay_mult: 0
  }
  convolution_param {
    num_output: 64
    kernel_size: 1
    weight_filler {
      type: "xavier"
    }
    bias_filler {
      type: "constant"
      value: 0.2
    }
  }
}
layer {
  name: "inception_4c/relu_pool_proj"
  type: "ReLU"
  bottom: "inception_4c/pool_proj"
  top: "inception_4c/pool_proj"
}
layer {
  name: "inception_4c/output"
  type: "Concat"
  bottom: "inception_4c/1x1"
  bottom: "inception_4c/3x3"
  bottom: "inception_4c/5x5"
  bottom: "inception_4c/pool_proj"
  top: "inception_4c/output"
}
layer {
  name: "inception_4d/1x1"
  type: "Convolution"
  bottom: "inception_4c/output"
  top: "inception_4d/1x1"
  param {
    lr_mult: 1
    decay_mult: 1
  }
  param {
    lr_mult: 2
    decay_mult: 0
  }
  convolution_param {
    num_output: 112
    kernel_size: 1
    weight_filler {
      type: "xavier"
    }
    bias_filler {
      type: "constant"
      value: 0.2
    }
  }
}
layer {
  name: "inception_4d/relu_1x1"
  type: "ReLU"
  bottom: "inception_4d/1x1"
  top: "inception_4d/1x1"
}
layer {
  name: "inception_4d/3x3_reduce"
  type: "Convolution"
  bottom: "inception_4c/output"
  top: "inception_4d/3x3_reduce"
  param {
    lr_mult: 1
    decay_mult: 1
  }
  param {
    lr_mult: 2
    decay_mult: 0
  }
  convolution_param {
    num_output: 144
    kernel_size: 1
    weight_filler {
      type: "xavier"
    }
    bias_filler {
      type: "constant"
      value: 0.2
    }
  }
}
layer {
  name: "inception_4d/relu_3x3_reduce"
  type: "ReLU"
  bottom: "inception_4d/3x3_reduce"
  top: "inception_4d/3x3_reduce"
}
layer {
  name: "inception_4d/3x3"
  type: "Convolution"
  bottom: "inception_4d/3x3_reduce"
  top: "inception_4d/3x3"
  param {
    lr_mult: 1
    decay_mult: 1
  }
  param {
    lr_mult: 2
    decay_mult: 0
  }
  convolution_param {
    num_output: 288
    pad: 1
    kernel_size: 3
    weight_filler {
      type: "xavier"
    }
    bias_filler {
      type: "constant"
      value: 0.2
    }
  }
}
layer {
  name: "inception_4d/relu_3x3"
  type: "ReLU"
  bottom: "inception_4d/3x3"
  top: "inception_4d/3x3"
}
layer {
  name: "inception_4d/5x5_reduce"
  type: "Convolution"
  bottom: "inception_4c/output"
  top: "inception_4d/5x5_reduce"
  param {
    lr_mult: 1
    decay_mult: 1
  }
  param {
    lr_mult: 2
    decay_mult: 0
  }
  convolution_param {
    num_output: 32
    kernel_size: 1
    weight_filler {
      type: "xavier"
    }
    bias_filler {
      type: "constant"
      value: 0.2
    }
  }
}
layer {
  name: "inception_4d/relu_5x5_reduce"
  type: "ReLU"
  bottom: "inception_4d/5x5_reduce"
  top: "inception_4d/5x5_reduce"
}
layer {
  name: "inception_4d/5x5"
  type: "Convolution"
  bottom: "inception_4d/5x5_reduce"
  top: "inception_4d/5x5"
  param {
    lr_mult: 1
    decay_mult: 1
  }
  param {
    lr_mult: 2
    decay_mult: 0
  }
  convolution_param {
    num_output: 64
    pad: 2
    kernel_size: 5
    weight_filler {
      type: "xavier"
    }
    bias_filler {
      type: "constant"
      value: 0.2
    }
  }
}
layer {
  name: "inception_4d/relu_5x5"
  type: "ReLU"
  bottom: "inception_4d/5x5"
  top: "inception_4d/5x5"
}
layer {
  name: "inception_4d/pool"
  type: "Pooling"
  bottom: "inception_4c/output"
  top: "inception_4d/pool"
  pooling_param {
    pool: MAX
    kernel_size: 3
    stride: 1
    pad: 1
  }
}
layer {
  name: "inception_4d/pool_proj"
  type: "Convolution"
  bottom: "inception_4d/pool"
  top: "inception_4d/pool_proj"
  param {
    lr_mult: 1
    decay_mult: 1
  }
  param {
    lr_mult: 2
    decay_mult: 0
  }
  convolution_param {
    num_output: 64
    kernel_size: 1
    weight_filler {
      type: "xavier"
    }
    bias_filler {
      type: "constant"
      value: 0.2
    }
  }
}
layer {
  name: "inception_4d/relu_pool_proj"
  type: "ReLU"
  bottom: "inception_4d/pool_proj"
  top: "inception_4d/pool_proj"
}
layer {
  name: "inception_4d/output"
  type: "Concat"
  bottom: "inception_4d/1x1"
  bottom: "inception_4d/3x3"
  bottom: "inception_4d/5x5"
  bottom: "inception_4d/pool_proj"
  top: "inception_4d/output"
}
layer {
  name: "loss2/ave_pool"
  type: "Pooling"
  bottom: "inception_4d/output"
  top: "loss2/ave_pool"
  pooling_param {
    pool: AVE
    kernel_size: 5
    stride: 3
  }
}
layer {
  name: "loss2/conv"
  type: "Convolution"
  bottom: "loss2/ave_pool"
  top: "loss2/conv"
  param {
    lr_mult: 1
    decay_mult: 1
  }
  param {
    lr_mult: 2
    decay_mult: 0
  }
  convolution_param {
    num_output: 128
    kernel_size: 1
    weight_filler {
      type: "xavier"
    }
    bias_filler {
      type: "constant"
      value: 0.2
    }
  }
}
layer {
  name: "loss2/relu_conv"
  type: "ReLU"
  bottom: "loss2/conv"
  top: "loss2/conv"
}
layer {
  name: "loss2/fc"
  type: "InnerProduct"
  bottom: "loss2/conv"
  top: "loss2/fc"
  param {
    lr_mult: 1
    decay_mult: 1
  }
  param {
    lr_mult: 2
    decay_mult: 0
  }
  inner_product_param {
    num_output: 1024
    weight_filler {
      type: "xavier"
    }
    bias_filler {
      type: "constant"
      value: 0.2
    }
  }
}
layer {
  name: "loss2/relu_fc"
  type: "ReLU"
  bottom: "loss2/fc"
  top: "loss2/fc"
}
layer {
  name: "loss2/drop_fc"
  type: "Dropout"
  bottom: "loss2/fc"
  top: "loss2/fc"
  dropout_param {
    dropout_ratio: 0.7
  }
}
layer {
  name: "loss2/classifier"
  type: "InnerProduct"
  bottom: "loss2/fc"
  top: "loss2/classifier"
  param {
    lr_mult: 1
    decay_mult: 1
  }
  param {
    lr_mult: 2
    decay_mult: 0
  }
  inner_product_param {
    num_output: 1000
    weight_filler {
      type: "xavier"
    }
    bias_filler {
      type: "constant"
      value: 0
    }
  }
}
layer {
  name: "loss2/loss"
  type: "SoftmaxWithLoss"
  bottom: "loss2/classifier"
  bottom: "label"
  top: "loss2/loss1"
  loss_weight: 0.3
}
layer {
  name: "inception_4e/1x1"
  type: "Convolution"
  bottom: "inception_4d/output"
  top: "inception_4e/1x1"
  param {
    lr_mult: 1
    decay_mult: 1
  }
  param {
    lr_mult: 2
    decay_mult: 0
  }
  convolution_param {
    num_output: 256
    kernel_size: 1
    weight_filler {
      type: "xavier"
    }
    bias_filler {
      type: "constant"
      value: 0.2
    }
  }
}
layer {
  name: "inception_4e/relu_1x1"
  type: "ReLU"
  bottom: "inception_4e/1x1"
  top: "inception_4e/1x1"
}
layer {
  name: "inception_4e/3x3_reduce"
  type: "Convolution"
  bottom: "inception_4d/output"
  top: "inception_4e/3x3_reduce"
  param {
    lr_mult: 1
    decay_mult: 1
  }
  param {
    lr_mult: 2
    decay_mult: 0
  }
  convolution_param {
    num_output: 160
    kernel_size: 1
    weight_filler {
      type: "xavier"
    }
    bias_filler {
      type: "constant"
      value: 0.2
    }
  }
}
layer {
  name: "inception_4e/relu_3x3_reduce"
  type: "ReLU"
  bottom: "inception_4e/3x3_reduce"
  top: "inception_4e/3x3_reduce"
}
layer {
  name: "inception_4e/3x3"
  type: "Convolution"
  bottom: "inception_4e/3x3_reduce"
  top: "inception_4e/3x3"
  param {
    lr_mult: 1
    decay_mult: 1
  }
  param {
    lr_mult: 2
    decay_mult: 0
  }
  convolution_param {
    num_output: 320
    pad: 1
    kernel_size: 3
    weight_filler {
      type: "xavier"
    }
    bias_filler {
      type: "constant"
      value: 0.2
    }
  }
}
layer {
  name: "inception_4e/relu_3x3"
  type: "ReLU"
  bottom: "inception_4e/3x3"
  top: "inception_4e/3x3"
}
layer {
  name: "inception_4e/5x5_reduce"
  type: "Convolution"
  bottom: "inception_4d/output"
  top: "inception_4e/5x5_reduce"
  param {
    lr_mult: 1
    decay_mult: 1
  }
  param {
    lr_mult: 2
    decay_mult: 0
  }
  convolution_param {
    num_output: 32
    kernel_size: 1
    weight_filler {
      type: "xavier"
    }
    bias_filler {
      type: "constant"
      value: 0.2
    }
  }
}
layer {
  name: "inception_4e/relu_5x5_reduce"
  type: "ReLU"
  bottom: "inception_4e/5x5_reduce"
  top: "inception_4e/5x5_reduce"
}
layer {
  name: "inception_4e/5x5"
  type: "Convolution"
  bottom: "inception_4e/5x5_reduce"
  top: "inception_4e/5x5"
  param {
    lr_mult: 1
    decay_mult: 1
  }
  param {
    lr_mult: 2
    decay_mult: 0
  }
  convolution_param {
    num_output: 128
    pad: 2
    kernel_size: 5
    weight_filler {
      type: "xavier"
    }
    bias_filler {
      type: "constant"
      value: 0.2
    }
  }
}
layer {
  name: "inception_4e/relu_5x5"
  type: "ReLU"
  bottom: "inception_4e/5x5"
  top: "inception_4e/5x5"
}
layer {
  name: "inception_4e/pool"
  type: "Pooling"
  bottom: "inception_4d/output"
  top: "inception_4e/pool"
I0224 09:37:14.918653  1880 layer_factory.hpp:77] Creating layer data
I0224 09:37:14.919466  1880 net.cpp:100] Creating Layer data
I0224 09:37:14.919497  1880 net.cpp:408] data -> data
I0224 09:37:14.919615  1880 net.cpp:408] data -> label
I0224 09:37:14.919903  1881 db_lmdb.cpp:35] Opened lmdb /home/user/user/LIBRARIES/caffeLibs/caffe/examples/imagenet/ilsvrc12_train_lmdb
I0224 09:37:14.920768  1880 data_layer.cpp:41] output data size: 48,3,224,224
I0224 09:37:14.974797  1880 net.cpp:150] Setting up data
I0224 09:37:14.974921  1880 net.cpp:157] Top shape: 48 3 224 224 (7225344)
I0224 09:37:14.974954  1880 net.cpp:157] Top shape: 48 (48)
I0224 09:37:14.974963  1880 net.cpp:165] Memory required for data: 28901568
I0224 09:37:14.974989  1880 layer_factory.hpp:77] Creating layer label_data_1_split
I0224 09:37:14.975064  1880 net.cpp:100] Creating Layer label_data_1_split
I0224 09:37:14.975092  1880 net.cpp:434] label_data_1_split <- label
I0224 09:37:14.975121  1880 net.cpp:408] label_data_1_split -> label_data_1_split_0
I0224 09:37:14.975144  1880 net.cpp:408] label_data_1_split -> label_data_1_split_1
I0224 09:37:14.975162  1880 net.cpp:408] label_data_1_split -> label_data_1_split_2
I0224 09:37:14.975204  1880 net.cpp:150] Setting up label_data_1_split
I0224 09:37:14.975234  1880 net.cpp:157] Top shape: 48 (48)
I0224 09:37:14.975257  1880 net.cpp:157] Top shape: 48 (48)
I0224 09:37:14.975270  1880 net.cpp:157] Top shape: 48 (48)
I0224 09:37:14.975277  1880 net.cpp:165] Memory required for data: 28902144
I0224 09:37:14.975287  1880 layer_factory.hpp:77] Creating layer conv1/7x7_s2
I0224 09:37:14.975319  1880 net.cpp:100] Creating Layer conv1/7x7_s2
I0224 09:37:14.975329  1880 net.cpp:434] conv1/7x7_s2 <- data
I0224 09:37:14.975347  1880 net.cpp:408] conv1/7x7_s2 -> conv1/7x7_s2
I0224 09:37:14.975693  1880 net.cpp:150] Setting up conv1/7x7_s2
I0224 09:37:14.975709  1880 net.cpp:157] Top shape: 48 64 112 112 (38535168)
I0224 09:37:14.975718  1880 net.cpp:165] Memory required for data: 183042816
I0224 09:37:14.975749  1880 layer_factory.hpp:77] Creating layer conv1/relu_7x7
I0224 09:37:14.975769  1880 net.cpp:100] Creating Layer conv1/relu_7x7
I0224 09:37:14.975778  1880 net.cpp:434] conv1/relu_7x7 <- conv1/7x7_s2
I0224 09:37:14.975790  1880 net.cpp:395] conv1/relu_7x7 -> conv1/7x7_s2 (in-place)
I0224 09:37:14.975806  1880 net.cpp:150] Setting up conv1/relu_7x7
I0224 09:37:14.975818  1880 net.cpp:157] Top shape: 48 64 112 112 (38535168)
I0224 09:37:14.975827  1880 net.cpp:165] Memory required for data: 337183488
I0224 09:37:14.975836  1880 layer_factory.hpp:77] Creating layer pool1/3x3_s2
I0224 09:37:14.975854  1880 net.cpp:100] Creating Layer pool1/3x3_s2
I0224 09:37:14.975863  1880 net.cpp:434] pool1/3x3_s2 <- conv1/7x7_s2
I0224 09:37:14.975875  1880 net.cpp:408] pool1/3x3_s2 -> pool1/3x3_s2
I0224 09:37:14.975953  1880 net.cpp:150] Setting up pool1/3x3_s2
I0224 09:37:14.975975  1880 net.cpp:157] Top shape: 48 64 56 56 (9633792)
I0224 09:37:14.975985  1880 net.cpp:165] Memory required for data: 375718656
I0224 09:37:14.975993  1880 layer_factory.hpp:77] Creating layer pool1/norm1
I0224 09:37:14.976013  1880 net.cpp:100] Creating Layer pool1/norm1
I0224 09:37:14.976023  1880 net.cpp:434] pool1/norm1 <- pool1/3x3_s2
I0224 09:37:14.976037  1880 net.cpp:408] pool1/norm1 -> pool1/norm1
I0224 09:37:14.976063  1880 net.cpp:150] Setting up pool1/norm1
I0224 09:37:14.976075  1880 net.cpp:157] Top shape: 48 64 56 56 (9633792)
I0224 09:37:14.976084  1880 net.cpp:165] Memory required for data: 414253824
I0224 09:37:14.976094  1880 layer_factory.hpp:77] Creating layer conv2/3x3_reduce
I0224 09:37:14.976112  1880 net.cpp:100] Creating Layer conv2/3x3_reduce
I0224 09:37:14.976122  1880 net.cpp:434] conv2/3x3_reduce <- pool1/norm1
I0224 09:37:14.976136  1880 net.cpp:408] conv2/3x3_reduce -> conv2/3x3_reduce
I0224 09:37:14.976259  1880 net.cpp:150] Setting up conv2/3x3_reduce
I0224 09:37:14.976276  1880 net.cpp:157] Top shape: 48 64 56 56 (9633792)
I0224 09:37:14.976285  1880 net.cpp:165] Memory required for data: 452788992
I0224 09:37:14.976301  1880 layer_factory.hpp:77] Creating layer conv2/relu_3x3_reduce
I0224 09:37:14.976316  1880 net.cpp:100] Creating Layer conv2/relu_3x3_reduce
I0224 09:37:14.976326  1880 net.cpp:434] conv2/relu_3x3_reduce <- conv2/3x3_reduce
I0224 09:37:14.976338  1880 net.cpp:395] conv2/relu_3x3_reduce -> conv2/3x3_reduce (in-place)
I0224 09:37:14.976351  1880 net.cpp:150] Setting up conv2/relu_3x3_reduce
I0224 09:37:14.976362  1880 net.cpp:157] Top shape: 48 64 56 56 (9633792)
I0224 09:37:14.976372  1880 net.cpp:165] Memory required for data: 491324160
I0224 09:37:14.976380  1880 layer_factory.hpp:77] Creating layer conv2/3x3
I0224 09:37:14.976402  1880 net.cpp:100] Creating Layer conv2/3x3
I0224 09:37:14.976411  1880 net.cpp:434] conv2/3x3 <- conv2/3x3_reduce
I0224 09:37:14.976428  1880 net.cpp:408] conv2/3x3 -> conv2/3x3
I0224 09:37:14.978502  1880 net.cpp:150] Setting up conv2/3x3
I0224 09:37:14.978533  1880 net.cpp:157] Top shape: 48 192 56 56 (28901376)
I0224 09:37:14.978543  1880 net.cpp:165] Memory required for data: 606929664
I0224 09:37:14.978562  1880 layer_factory.hpp:77] Creating layer conv2/relu_3x3
I0224 09:37:14.978576  1880 net.cpp:100] Creating Layer conv2/relu_3x3
I0224 09:37:14.978597  1880 net.cpp:434] conv2/relu_3x3 <- conv2/3x3
I0224 09:37:14.978623  1880 net.cpp:395] conv2/relu_3x3 -> conv2/3x3 (in-place)
I0224 09:37:14.978638  1880 net.cpp:150] Setting up conv2/relu_3x3
I0224 09:37:14.978651  1880 net.cpp:157] Top shape: 48 192 56 56 (28901376)
I0224 09:37:14.978658  1880 net.cpp:165] Memory required for data: 722535168
I0224 09:37:14.978667  1880 layer_factory.hpp:77] Creating layer conv2/norm2
I0224 09:37:14.978682  1880 net.cpp:100] Creating Layer conv2/norm2
I0224 09:37:14.978693  1880 net.cpp:434] conv2/norm2 <- conv2/3x3
I0224 09:37:14.978708  1880 net.cpp:408] conv2/norm2 -> conv2/norm2
I0224 09:37:14.978724  1880 net.cpp:150] Setting up conv2/norm2
I0224 09:37:14.978735  1880 net.cpp:157] Top shape: 48 192 56 56 (28901376)
I0224 09:37:14.978744  1880 net.cpp:165] Memory required for data: 838140672
I0224 09:37:14.978752  1880 layer_factory.hpp:77] Creating layer pool2/3x3_s2
I0224 09:37:14.978765  1880 net.cpp:100] Creating Layer pool2/3x3_s2
I0224 09:37:14.978773  1880 net.cpp:434] pool2/3x3_s2 <- conv2/norm2
I0224 09:37:14.978788  1880 net.cpp:408] pool2/3x3_s2 -> pool2/3x3_s2
I0224 09:37:14.978806  1880 net.cpp:150] Setting up pool2/3x3_s2
I0224 09:37:14.978817  1880 net.cpp:157] Top shape: 48 192 28 28 (7225344)
I0224 09:37:14.978826  1880 net.cpp:165] Memory required for data: 867042048
I0224 09:37:14.978834  1880 layer_factory.hpp:77] Creating layer pool2/3x3_s2_pool2/3x3_s2_0_split
I0224 09:37:14.978847  1880 net.cpp:100] Creating Layer pool2/3x3_s2_pool2/3x3_s2_0_split
I0224 09:37:14.978857  1880 net.cpp:434] pool2/3x3_s2_pool2/3x3_s2_0_split <- pool2/3x3_s2
I0224 09:37:14.978868  1880 net.cpp:408] pool2/3x3_s2_pool2/3x3_s2_0_split -> pool2/3x3_s2_pool2/3x3_s2_0_split_0
I0224 09:37:14.978883  1880 net.cpp:408] pool2/3x3_s2_pool2/3x3_s2_0_split -> pool2/3x3_s2_pool2/3x3_s2_0_split_1
I0224 09:37:14.978896  1880 net.cpp:408] pool2/3x3_s2_pool2/3x3_s2_0_split -> pool2/3x3_s2_pool2/3x3_s2_0_split_2
I0224 09:37:14.978909  1880 net.cpp:408] pool2/3x3_s2_pool2/3x3_s2_0_split -> pool2/3x3_s2_pool2/3x3_s2_0_split_3
I0224 09:37:14.978925  1880 net.cpp:150] Setting up pool2/3x3_s2_pool2/3x3_s2_0_split
I0224 09:37:14.978937  1880 net.cpp:157] Top shape: 48 192 28 28 (7225344)
I0224 09:37:14.978948  1880 net.cpp:157] Top shape: 48 192 28 28 (7225344)
I0224 09:37:14.978958  1880 net.cpp:157] Top shape: 48 192 28 28 (7225344)
I0224 09:37:14.978970  1880 net.cpp:157] Top shape: 48 192 28 28 (7225344)
I0224 09:37:14.978977  1880 net.cpp:165] Memory required for data: 982647552
I0224 09:37:14.978986  1880 layer_factory.hpp:77] Creating layer inception_3a/1x1
I0224 09:37:14.979005  1880 net.cpp:100] Creating Layer inception_3a/1x1
I0224 09:37:14.979017  1880 net.cpp:434] inception_3a/1x1 <- pool2/3x3_s2_pool2/3x3_s2_0_split_0
I0224 09:37:14.979029  1880 net.cpp:408] inception_3a/1x1 -> inception_3a/1x1
I0224 09:37:14.979367  1880 net.cpp:150] Setting up inception_3a/1x1
I0224 09:37:14.979392  1880 net.cpp:157] Top shape: 48 64 28 28 (2408448)
I0224 09:37:14.979400  1880 net.cpp:165] Memory required for data: 992281344
I0224 09:37:14.979415  1880 layer_factory.hpp:77] Creating layer inception_3a/relu_1x1
I0224 09:37:14.979429  1880 net.cpp:100] Creating Layer inception_3a/relu_1x1
I0224 09:37:14.979439  1880 net.cpp:434] inception_3a/relu_1x1 <- inception_3a/1x1
I0224 09:37:14.979454  1880 net.cpp:395] inception_3a/relu_1x1 -> inception_3a/1x1 (in-place)
I0224 09:37:14.979470  1880 net.cpp:150] Setting up inception_3a/relu_1x1
I0224 09:37:14.979481  1880 net.cpp:157] Top shape: 48 64 28 28 (2408448)
I0224 09:37:14.979490  1880 net.cpp:165] Memory required for data: 1001915136
I0224 09:37:14.979499  1880 layer_factory.hpp:77] Creating layer inception_3a/3x3_reduce
I0224 09:37:14.979518  1880 net.cpp:100] Creating Layer inception_3a/3x3_reduce
I0224 09:37:14.979529  1880 net.cpp:434] inception_3a/3x3_reduce <- pool2/3x3_s2_pool2/3x3_s2_0_split_1
I0224 09:37:14.979542  1880 net.cpp:408] inception_3a/3x3_reduce -> inception_3a/3x3_reduce
I0224 09:37:14.979919  1880 net.cpp:150] Setting up inception_3a/3x3_reduce
I0224 09:37:14.979944  1880 net.cpp:157] Top shape: 48 96 28 28 (3612672)
I0224 09:37:14.979965  1880 net.cpp:165] Memory required for data: 1016365824
I0224 09:37:14.979984  1880 layer_factory.hpp:77] Creating layer inception_3a/relu_3x3_reduce
I0224 09:37:14.979998  1880 net.cpp:100] Creating Layer inception_3a/relu_3x3_reduce
I0224 09:37:14.980007  1880 net.cpp:434] inception_3a/relu_3x3_reduce <- inception_3a/3x3_reduce
I0224 09:37:14.980024  1880 net.cpp:395] inception_3a/relu_3x3_reduce -> inception_3a/3x3_reduce (in-place)
I0224 09:37:14.980038  1880 net.cpp:150] Setting up inception_3a/relu_3x3_reduce
I0224 09:37:14.980051  1880 net.cpp:157] Top shape: 48 96 28 28 (3612672)
I0224 09:37:14.980058  1880 net.cpp:165] Memory required for data: 1030816512
I0224 09:37:14.980067  1880 layer_factory.hpp:77] Creating layer inception_3a/3x3
I0224 09:37:14.980085  1880 net.cpp:100] Creating Layer inception_3a/3x3
I0224 09:37:14.980095  1880 net.cpp:434] inception_3a/3x3 <- inception_3a/3x3_reduce
I0224 09:37:14.980108  1880 net.cpp:408] inception_3a/3x3 -> inception_3a/3x3
I0224 09:37:14.982167  1880 net.cpp:150] Setting up inception_3a/3x3
I0224 09:37:14.982200  1880 net.cpp:157] Top shape: 48 128 28 28 (4816896)
I0224 09:37:14.982210  1880 net.cpp:165] Memory required for data: 1050084096
I0224 09:37:14.982225  1880 layer_factory.hpp:77] Creating layer inception_3a/relu_3x3
I0224 09:37:14.982239  1880 net.cpp:100] Creating Layer inception_3a/relu_3x3
I0224 09:37:14.982256  1880 net.cpp:434] inception_3a/relu_3x3 <- inception_3a/3x3
I0224 09:37:14.982270  1880 net.cpp:395] inception_3a/relu_3x3 -> inception_3a/3x3 (in-place)
I0224 09:37:14.982283  1880 net.cpp:150] Setting up inception_3a/relu_3x3
I0224 09:37:14.982295  1880 net.cpp:157] Top shape: 48 128 28 28 (4816896)
I0224 09:37:14.982305  1880 net.cpp:165] Memory required for data: 1069351680
I0224 09:37:14.982313  1880 layer_factory.hpp:77] Creating layer inception_3a/5x5_reduce
I0224 09:37:14.982332  1880 net.cpp:100] Creating Layer inception_3a/5x5_reduce
I0224 09:37:14.982343  1880 net.cpp:434] inception_3a/5x5_reduce <- pool2/3x3_s2_pool2/3x3_s2_0_split_2
I0224 09:37:14.982359  1880 net.cpp:408] inception_3a/5x5_reduce -> inception_3a/5x5_reduce
I0224 09:37:14.982451  1880 net.cpp:150] Setting up inception_3a/5x5_reduce
I0224 09:37:14.982465  1880 net.cpp:157] Top shape: 48 16 28 28 (602112)
I0224 09:37:14.982472  1880 net.cpp:165] Memory required for data: 1071760128
I0224 09:37:14.982486  1880 layer_factory.hpp:77] Creating layer inception_3a/relu_5x5_reduce
I0224 09:37:14.982497  1880 net.cpp:100] Creating Layer inception_3a/relu_5x5_reduce
I0224 09:37:14.982507  1880 net.cpp:434] inception_3a/relu_5x5_reduce <- inception_3a/5x5_reduce
I0224 09:37:14.982522  1880 net.cpp:395] inception_3a/relu_5x5_reduce -> inception_3a/5x5_reduce (in-place)
I0224 09:37:14.982535  1880 net.cpp:150] Setting up inception_3a/relu_5x5_reduce
I0224 09:37:14.982547  1880 net.cpp:157] Top shape: 48 16 28 28 (602112)
I0224 09:37:14.982555  1880 net.cpp:165] Memory required for data: 1074168576
I0224 09:37:14.982564  1880 layer_factory.hpp:77] Creating layer inception_3a/5x5
I0224 09:37:14.982583  1880 net.cpp:100] Creating Layer inception_3a/5x5
I0224 09:37:14.982592  1880 net.cpp:434] inception_3a/5x5 <- inception_3a/5x5_reduce
I0224 09:37:14.982605  1880 net.cpp:408] inception_3a/5x5 -> inception_3a/5x5
I0224 09:37:14.982949  1880 net.cpp:150] Setting up inception_3a/5x5
I0224 09:37:14.982975  1880 net.cpp:157] Top shape: 48 32 28 28 (1204224)
I0224 09:37:14.982985  1880 net.cpp:165] Memory required for data: 1078985472
I0224 09:37:14.982998  1880 layer_factory.hpp:77] Creating layer inception_3a/relu_5x5
I0224 09:37:14.983011  1880 net.cpp:100] Creating Layer inception_3a/relu_5x5
I0224 09:37:14.983021  1880 net.cpp:434] inception_3a/relu_5x5 <- inception_3a/5x5
I0224 09:37:14.983033  1880 net.cpp:395] inception_3a/relu_5x5 -> inception_3a/5x5 (in-place)
I0224 09:37:14.983047  1880 net.cpp:150] Setting up inception_3a/relu_5x5
I0224 09:37:14.983059  1880 net.cpp:157] Top shape: 48 32 28 28 (1204224)
I0224 09:37:14.983078  1880 net.cpp:165] Memory required for data: 1083802368
I0224 09:37:14.983099  1880 layer_factory.hpp:77] Creating layer inception_3a/pool
I0224 09:37:14.983115  1880 net.cpp:100] Creating Layer inception_3a/pool
I0224 09:37:14.983126  1880 net.cpp:434] inception_3a/pool <- pool2/3x3_s2_pool2/3x3_s2_0_split_3
I0224 09:37:14.983139  1880 net.cpp:408] inception_3a/pool -> inception_3a/pool
I0224 09:37:14.983157  1880 net.cpp:150] Setting up inception_3a/pool
I0224 09:37:14.983170  1880 net.cpp:157] Top shape: 48 192 28 28 (7225344)
I0224 09:37:14.983177  1880 net.cpp:165] Memory required for data: 1112703744
I0224 09:37:14.983186  1880 layer_factory.hpp:77] Creating layer inception_3a/pool_proj
I0224 09:37:14.983206  1880 net.cpp:100] Creating Layer inception_3a/pool_proj
I0224 09:37:14.983217  1880 net.cpp:434] inception_3a/pool_proj <- inception_3a/pool
I0224 09:37:14.983232  1880 net.cpp:408] inception_3a/pool_proj -> inception_3a/pool_proj
I0224 09:37:14.983402  1880 net.cpp:150] Setting up inception_3a/pool_proj
I0224 09:37:14.983417  1880 net.cpp:157] Top shape: 48 32 28 28 (1204224)
I0224 09:37:14.983427  1880 net.cpp:165] Memory required for data: 1117520640
I0224 09:37:14.983448  1880 layer_factory.hpp:77] Creating layer inception_3a/relu_pool_proj
I0224 09:37:14.983460  1880 net.cpp:100] Creating Layer inception_3a/relu_pool_proj
I0224 09:37:14.983470  1880 net.cpp:434] inception_3a/relu_pool_proj <- inception_3a/pool_proj
I0224 09:37:14.983485  1880 net.cpp:395] inception_3a/relu_pool_proj -> inception_3a/pool_proj (in-place)
I0224 09:37:14.983500  1880 net.cpp:150] Setting up inception_3a/relu_pool_proj
I0224 09:37:14.983510  1880 net.cpp:157] Top shape: 48 32 28 28 (1204224)
I0224 09:37:14.983518  1880 net.cpp:165] Memory required for data: 1122337536
I0224 09:37:14.983527  1880 layer_factory.hpp:77] Creating layer inception_3a/output
I0224 09:37:14.983542  1880 net.cpp:100] Creating Layer inception_3a/output
I0224 09:37:14.983551  1880 net.cpp:434] inception_3a/output <- inception_3a/1x1
I0224 09:37:14.983561  1880 net.cpp:434] inception_3a/output <- inception_3a/3x3
I0224 09:37:14.983572  1880 net.cpp:434] inception_3a/output <- inception_3a/5x5
I0224 09:37:14.983582  1880 net.cpp:434] inception_3a/output <- inception_3a/pool_proj
I0224 09:37:14.983593  1880 net.cpp:408] inception_3a/output -> inception_3a/output
I0224 09:37:14.983613  1880 net.cpp:150] Setting up inception_3a/output
I0224 09:37:14.983625  1880 net.cpp:157] Top shape: 48 256 28 28 (9633792)
I0224 09:37:14.983633  1880 net.cpp:165] Memory required for data: 1160872704
I0224 09:37:14.983644  1880 layer_factory.hpp:77] Creating layer inception_3a/output_inception_3a/output_0_split
I0224 09:37:14.983659  1880 net.cpp:100] Creating Layer inception_3a/output_inception_3a/output_0_split
I0224 09:37:14.983669  1880 net.cpp:434] inception_3a/output_inception_3a/output_0_split <- inception_3a/output
I0224 09:37:14.983681  1880 net.cpp:408] inception_3a/output_inception_3a/output_0_split -> inception_3a/output_inception_3a/output_0_split_0
I0224 09:37:14.983695  1880 net.cpp:408] inception_3a/output_inception_3a/output_0_split -> inception_3a/output_inception_3a/output_0_split_1
I0224 09:37:14.983710  1880 net.cpp:408] inception_3a/output_inception_3a/output_0_split -> inception_3a/output_inception_3a/output_0_split_2
I0224 09:37:14.983726  1880 net.cpp:408] inception_3a/output_inception_3a/output_0_split -> inception_3a/output_inception_3a/output_0_split_3
I0224 09:37:14.983743  1880 net.cpp:150] Setting up inception_3a/output_inception_3a/output_0_split
I0224 09:37:14.983755  1880 net.cpp:157] Top shape: 48 256 28 28 (9633792)
I0224 09:37:14.983767  1880 net.cpp:157] Top shape: 48 256 28 28 (9633792)
I0224 09:37:14.983777  1880 net.cpp:157] Top shape: 48 256 28 28 (9633792)
I0224 09:37:14.983788  1880 net.cpp:157] Top shape: 48 256 28 28 (9633792)
I0224 09:37:14.983796  1880 net.cpp:165] Memory required for data: 1315013376
I0224 09:37:14.983805  1880 layer_factory.hpp:77] Creating layer inception_3b/1x1
I0224 09:37:14.983830  1880 net.cpp:100] Creating Layer inception_3b/1x1
I0224 09:37:14.983852  1880 net.cpp:434] inception_3b/1x1 <- inception_3a/output_inception_3a/output_0_split_0
I0224 09:37:14.983868  1880 net.cpp:408] inception_3b/1x1 -> inception_3b/1x1
I0224 09:37:14.984494  1880 net.cpp:150] Setting up inception_3b/1x1
I0224 09:37:14.984510  1880 net.cpp:157] Top shape: 48 128 28 28 (4816896)
I0224 09:37:14.984519  1880 net.cpp:165] Memory required for data: 1334280960
I0224 09:37:14.984534  1880 layer_factory.hpp:77] Creating layer inception_3b/relu_1x1
I0224 09:37:14.984545  1880 net.cpp:100] Creating Layer inception_3b/relu_1x1
I0224 09:37:14.984555  1880 net.cpp:434] inception_3b/relu_1x1 <- inception_3b/1x1
I0224 09:37:14.984573  1880 net.cpp:395] inception_3b/relu_1x1 -> inception_3b/1x1 (in-place)
I0224 09:37:14.984586  1880 net.cpp:150] Setting up inception_3b/relu_1x1
I0224 09:37:14.984598  1880 net.cpp:157] Top shape: 48 128 28 28 (4816896)
I0224 09:37:14.984606  1880 net.cpp:165] Memory required for data: 1353548544
I0224 09:37:14.984616  1880 layer_factory.hpp:77] Creating layer inception_3b/3x3_reduce
I0224 09:37:14.984633  1880 net.cpp:100] Creating Layer inception_3b/3x3_reduce
I0224 09:37:14.984644  1880 net.cpp:434] inception_3b/3x3_reduce <- inception_3a/output_inception_3a/output_0_split_1
I0224 09:37:14.984658  1880 net.cpp:408] inception_3b/3x3_reduce -> inception_3b/3x3_reduce
I0224 09:37:14.985347  1880 net.cpp:150] Setting up inception_3b/3x3_reduce
I0224 09:37:14.985369  1880 net.cpp:157] Top shape: 48 128 28 28 (4816896)
I0224 09:37:14.985378  1880 net.cpp:165] Memory required for data: 1372816128
I0224 09:37:14.985393  1880 layer_factory.hpp:77] Creating layer inception_3b/relu_3x3_reduce
I0224 09:37:14.985409  1880 net.cpp:100] Creating Layer inception_3b/relu_3x3_reduce
I0224 09:37:14.985419  1880 net.cpp:434] inception_3b/relu_3x3_reduce <- inception_3b/3x3_reduce
I0224 09:37:14.985435  1880 net.cpp:395] inception_3b/relu_3x3_reduce -> inception_3b/3x3_reduce (in-place)
I0224 09:37:14.985450  1880 net.cpp:150] Setting up inception_3b/relu_3x3_reduce
I0224 09:37:14.985461  1880 net.cpp:157] Top shape: 48 128 28 28 (4816896)
I0224 09:37:14.985471  1880 net.cpp:165] Memory required for data: 1392083712
I0224 09:37:14.985479  1880 layer_factory.hpp:77] Creating layer inception_3b/3x3
I0224 09:37:14.985503  1880 net.cpp:100] Creating Layer inception_3b/3x3
I0224 09:37:14.985514  1880 net.cpp:434] inception_3b/3x3 <- inception_3b/3x3_reduce
I0224 09:37:14.985528  1880 net.cpp:408] inception_3b/3x3 -> inception_3b/3x3
I0224 09:37:14.989620  1880 net.cpp:150] Setting up inception_3b/3x3
I0224 09:37:14.989653  1880 net.cpp:157] Top shape: 48 192 28 28 (7225344)
I0224 09:37:14.989662  1880 net.cpp:165] Memory required for data: 1420985088
I0224 09:37:14.989678  1880 layer_factory.hpp:77] Creating layer inception_3b/relu_3x3
I0224 09:37:14.989692  1880 net.cpp:100] Creating Layer inception_3b/relu_3x3
I0224 09:37:14.989703  1880 net.cpp:434] inception_3b/relu_3x3 <- inception_3b/3x3
I0224 09:37:14.989718  1880 net.cpp:395] inception_3b/relu_3x3 -> inception_3b/3x3 (in-place)
I0224 09:37:14.989735  1880 net.cpp:150] Setting up inception_3b/relu_3x3
I0224 09:37:14.989747  1880 net.cpp:157] Top shape: 48 192 28 28 (7225344)
I0224 09:37:14.989754  1880 net.cpp:165] Memory required for data: 1449886464
I0224 09:37:14.989763  1880 layer_factory.hpp:77] Creating layer inception_3b/5x5_reduce
I0224 09:37:14.989779  1880 net.cpp:100] Creating Layer inception_3b/5x5_reduce
I0224 09:37:14.989789  1880 net.cpp:434] inception_3b/5x5_reduce <- inception_3a/output_inception_3a/output_0_split_2
I0224 09:37:14.989806  1880 net.cpp:408] inception_3b/5x5_reduce -> inception_3b/5x5_reduce
I0224 09:37:14.989979  1880 net.cpp:150] Setting up inception_3b/5x5_reduce
I0224 09:37:14.989992  1880 net.cpp:157] Top shape: 48 32 28 28 (1204224)
I0224 09:37:14.990000  1880 net.cpp:165] Memory required for data: 1454703360
I0224 09:37:14.990015  1880 layer_factory.hpp:77] Creating layer inception_3b/relu_5x5_reduce
I0224 09:37:14.990046  1880 net.cpp:100] Creating Layer inception_3b/relu_5x5_reduce
I0224 09:37:14.990068  1880 net.cpp:434] inception_3b/relu_5x5_reduce <- inception_3b/5x5_reduce
I0224 09:37:14.990080  1880 net.cpp:395] inception_3b/relu_5x5_reduce -> inception_3b/5x5_reduce (in-place)
I0224 09:37:14.990093  1880 net.cpp:150] Setting up inception_3b/relu_5x5_reduce
I0224 09:37:14.990105  1880 net.cpp:157] Top shape: 48 32 28 28 (1204224)
I0224 09:37:14.990114  1880 net.cpp:165] Memory required for data: 1459520256
I0224 09:37:14.990123  1880 layer_factory.hpp:77] Creating layer inception_3b/5x5
I0224 09:37:14.990140  1880 net.cpp:100] Creating Layer inception_3b/5x5
I0224 09:37:14.990150  1880 net.cpp:434] inception_3b/5x5 <- inception_3b/5x5_reduce
I0224 09:37:14.990166  1880 net.cpp:408] inception_3b/5x5 -> inception_3b/5x5
I0224 09:37:14.991633  1880 net.cpp:150] Setting up inception_3b/5x5
I0224 09:37:14.991657  1880 net.cpp:157] Top shape: 48 96 28 28 (3612672)
I0224 09:37:14.991667  1880 net.cpp:165] Memory required for data: 1473970944
I0224 09:37:14.991683  1880 layer_factory.hpp:77] Creating layer inception_3b/relu_5x5
I0224 09:37:14.991701  1880 net.cpp:100] Creating Layer inception_3b/relu_5x5
I0224 09:37:14.991713  1880 net.cpp:434] inception_3b/relu_5x5 <- inception_3b/5x5
I0224 09:37:14.991725  1880 net.cpp:395] inception_3b/relu_5x5 -> inception_3b/5x5 (in-place)
I0224 09:37:14.991740  1880 net.cpp:150] Setting up inception_3b/relu_5x5
I0224 09:37:14.991752  1880 net.cpp:157] Top shape: 48 96 28 28 (3612672)
I0224 09:37:14.991760  1880 net.cpp:165] Memory required for data: 1488421632
I0224 09:37:14.991770  1880 layer_factory.hpp:77] Creating layer inception_3b/pool
I0224 09:37:14.991786  1880 net.cpp:100] Creating Layer inception_3b/pool
I0224 09:37:14.991796  1880 net.cpp:434] inception_3b/pool <- inception_3a/output_inception_3a/output_0_split_3
I0224 09:37:14.991809  1880 net.cpp:408] inception_3b/pool -> inception_3b/pool
I0224 09:37:14.991827  1880 net.cpp:150] Setting up inception_3b/pool
I0224 09:37:14.991840  1880 net.cpp:157] Top shape: 48 256 28 28 (9633792)
I0224 09:37:14.991848  1880 net.cpp:165] Memory required for data: 1526956800
I0224 09:37:14.991858  1880 layer_factory.hpp:77] Creating layer inception_3b/pool_proj
I0224 09:37:14.991875  1880 net.cpp:100] Creating Layer inception_3b/pool_proj
I0224 09:37:14.991885  1880 net.cpp:434] inception_3b/pool_proj <- inception_3b/pool
I0224 09:37:14.991902  1880 net.cpp:408] inception_3b/pool_proj -> inception_3b/pool_proj
I0224 09:37:14.992282  1880 net.cpp:150] Setting up inception_3b/pool_proj
I0224 09:37:14.992302  1880 net.cpp:157] Top shape: 48 64 28 28 (2408448)
I0224 09:37:14.992311  1880 net.cpp:165] Memory required for data: 1536590592
I0224 09:37:14.992326  1880 layer_factory.hpp:77] Creating layer inception_3b/relu_pool_proj
I0224 09:37:14.992341  1880 net.cpp:100] Creating Layer inception_3b/relu_pool_proj
I0224 09:37:14.992352  1880 net.cpp:434] inception_3b/relu_pool_proj <- inception_3b/pool_proj
I0224 09:37:14.992363  1880 net.cpp:395] inception_3b/relu_pool_proj -> inception_3b/pool_proj (in-place)
I0224 09:37:14.992378  1880 net.cpp:150] Setting up inception_3b/relu_pool_proj
I0224 09:37:14.992390  1880 net.cpp:157] Top shape: 48 64 28 28 (2408448)
I0224 09:37:14.992398  1880 net.cpp:165] Memory required for data: 1546224384
I0224 09:37:14.992408  1880 layer_factory.hpp:77] Creating layer inception_3b/output
I0224 09:37:14.992420  1880 net.cpp:100] Creating Layer inception_3b/output
I0224 09:37:14.992429  1880 net.cpp:434] inception_3b/output <- inception_3b/1x1
I0224 09:37:14.992440  1880 net.cpp:434] inception_3b/output <- inception_3b/3x3
I0224 09:37:14.992450  1880 net.cpp:434] inception_3b/output <- inception_3b/5x5
I0224 09:37:14.992461  1880 net.cpp:434] inception_3b/output <- inception_3b/pool_proj
I0224 09:37:14.992476  1880 net.cpp:408] inception_3b/output -> inception_3b/output
I0224 09:37:14.992494  1880 net.cpp:150] Setting up inception_3b/output
I0224 09:37:14.992506  1880 net.cpp:157] Top shape: 48 480 28 28 (18063360)
I0224 09:37:14.992525  1880 net.cpp:165] Memory required for data: 1618477824
I0224 09:37:14.992548  1880 layer_factory.hpp:77] Creating layer pool3/3x3_s2
I0224 09:37:14.992560  1880 net.cpp:100] Creating Layer pool3/3x3_s2
I0224 09:37:14.992570  1880 net.cpp:434] pool3/3x3_s2 <- inception_3b/output
I0224 09:37:14.992585  1880 net.cpp:408] pool3/3x3_s2 -> pool3/3x3_s2
I0224 09:37:14.992602  1880 net.cpp:150] Setting up pool3/3x3_s2
I0224 09:37:14.992615  1880 net.cpp:157] Top shape: 48 480 14 14 (4515840)
I0224 09:37:14.992624  1880 net.cpp:165] Memory required for data: 1636541184
I0224 09:37:14.992632  1880 layer_factory.hpp:77] Creating layer pool3/3x3_s2_pool3/3x3_s2_0_split
I0224 09:37:14.992645  1880 net.cpp:100] Creating Layer pool3/3x3_s2_pool3/3x3_s2_0_split
I0224 09:37:14.992653  1880 net.cpp:434] pool3/3x3_s2_pool3/3x3_s2_0_split <- pool3/3x3_s2
I0224 09:37:14.992668  1880 net.cpp:408] pool3/3x3_s2_pool3/3x3_s2_0_split -> pool3/3x3_s2_pool3/3x3_s2_0_split_0
I0224 09:37:14.992683  1880 net.cpp:408] pool3/3x3_s2_pool3/3x3_s2_0_split -> pool3/3x3_s2_pool3/3x3_s2_0_split_1
I0224 09:37:14.992697  1880 net.cpp:408] pool3/3x3_s2_pool3/3x3_s2_0_split -> pool3/3x3_s2_pool3/3x3_s2_0_split_2
I0224 09:37:14.992712  1880 net.cpp:408] pool3/3x3_s2_pool3/3x3_s2_0_split -> pool3/3x3_s2_pool3/3x3_s2_0_split_3
I0224 09:37:14.992728  1880 net.cpp:150] Setting up pool3/3x3_s2_pool3/3x3_s2_0_split
I0224 09:37:14.992744  1880 net.cpp:157] Top shape: 48 480 14 14 (4515840)
I0224 09:37:14.992755  1880 net.cpp:157] Top shape: 48 480 14 14 (4515840)
I0224 09:37:14.992765  1880 net.cpp:157] Top shape: 48 480 14 14 (4515840)
I0224 09:37:14.992776  1880 net.cpp:157] Top shape: 48 480 14 14 (4515840)
I0224 09:37:14.992785  1880 net.cpp:165] Memory required for data: 1708794624
I0224 09:37:14.992794  1880 layer_factory.hpp:77] Creating layer inception_4a/1x1
I0224 09:37:14.992812  1880 net.cpp:100] Creating Layer inception_4a/1x1
I0224 09:37:14.992822  1880 net.cpp:434] inception_4a/1x1 <- pool3/3x3_s2_pool3/3x3_s2_0_split_0
I0224 09:37:14.992836  1880 net.cpp:408] inception_4a/1x1 -> inception_4a/1x1
I0224 09:37:14.994568  1880 net.cpp:150] Setting up inception_4a/1x1
I0224 09:37:14.994596  1880 net.cpp:157] Top shape: 48 192 14 14 (1806336)
I0224 09:37:14.994604  1880 net.cpp:165] Memory required for data: 1716019968
I0224 09:37:14.994619  1880 layer_factory.hpp:77] Creating layer inception_4a/relu_1x1
I0224 09:37:14.994633  1880 net.cpp:100] Creating Layer inception_4a/relu_1x1
I0224 09:37:14.994643  1880 net.cpp:434] inception_4a/relu_1x1 <- inception_4a/1x1
I0224 09:37:14.994655  1880 net.cpp:395] inception_4a/relu_1x1 -> inception_4a/1x1 (in-place)
I0224 09:37:14.994670  1880 net.cpp:150] Setting up inception_4a/relu_1x1
I0224 09:37:14.994681  1880 net.cpp:157] Top shape: 48 192 14 14 (1806336)
I0224 09:37:14.994689  1880 net.cpp:165] Memory required for data: 1723245312
I0224 09:37:14.994699  1880 layer_factory.hpp:77] Creating layer inception_4a/3x3_reduce
I0224 09:37:14.994719  1880 net.cpp:100] Creating Layer inception_4a/3x3_reduce
I0224 09:37:14.994729  1880 net.cpp:434] inception_4a/3x3_reduce <- pool3/3x3_s2_pool3/3x3_s2_0_split_1
I0224 09:37:14.994745  1880 net.cpp:408] inception_4a/3x3_reduce -> inception_4a/3x3_reduce
I0224 09:37:14.995602  1880 net.cpp:150] Setting up inception_4a/3x3_reduce
I0224 09:37:14.995620  1880 net.cpp:157] Top shape: 48 96 14 14 (903168)
I0224 09:37:14.995628  1880 net.cpp:165] Memory required for data: 1726857984
I0224 09:37:14.995654  1880 layer_factory.hpp:77] Creating layer inception_4a/relu_3x3_reduce
I0224 09:37:14.995671  1880 net.cpp:100] Creating Layer inception_4a/relu_3x3_reduce
I0224 09:37:14.995681  1880 net.cpp:434] inception_4a/relu_3x3_reduce <- inception_4a/3x3_reduce
I0224 09:37:14.995692  1880 net.cpp:395] inception_4a/relu_3x3_reduce -> inception_4a/3x3_reduce (in-place)
I0224 09:37:14.995705  1880 net.cpp:150] Setting up inception_4a/relu_3x3_reduce
I0224 09:37:14.995718  1880 net.cpp:157] Top shape: 48 96 14 14 (903168)
I0224 09:37:14.995725  1880 net.cpp:165] Memory required for data: 1730470656
I0224 09:37:14.995744  1880 layer_factory.hpp:77] Creating layer inception_4a/3x3
I0224 09:37:14.995782  1880 net.cpp:100] Creating Layer inception_4a/3x3
I0224 09:37:14.995792  1880 net.cpp:434] inception_4a/3x3 <- inception_4a/3x3_reduce
I0224 09:37:14.995805  1880 net.cpp:408] inception_4a/3x3 -> inception_4a/3x3
I0224 09:37:14.999114  1880 net.cpp:150] Setting up inception_4a/3x3
I0224 09:37:14.999143  1880 net.cpp:157] Top shape: 48 208 14 14 (1956864)
I0224 09:37:14.999152  1880 net.cpp:165] Memory required for data: 1738298112
I0224 09:37:14.999167  1880 layer_factory.hpp:77] Creating layer inception_4a/relu_3x3
I0224 09:37:14.999181  1880 net.cpp:100] Creating Layer inception_4a/relu_3x3
I0224 09:37:14.999191  1880 net.cpp:434] inception_4a/relu_3x3 <- inception_4a/3x3
I0224 09:37:14.999203  1880 net.cpp:395] inception_4a/relu_3x3 -> inception_4a/3x3 (in-place)
I0224 09:37:14.999217  1880 net.cpp:150] Setting up inception_4a/relu_3x3
I0224 09:37:14.999229  1880 net.cpp:157] Top shape: 48 208 14 14 (1956864)
I0224 09:37:14.999238  1880 net.cpp:165] Memory required for data: 1746125568
I0224 09:37:14.999253  1880 layer_factory.hpp:77] Creating layer inception_4a/5x5_reduce
I0224 09:37:14.999272  1880 net.cpp:100] Creating Layer inception_4a/5x5_reduce
I0224 09:37:14.999284  1880 net.cpp:434] inception_4a/5x5_reduce <- pool3/3x3_s2_pool3/3x3_s2_0_split_2
I0224 09:37:14.999300  1880 net.cpp:408] inception_4a/5x5_reduce -> inception_4a/5x5_reduce
I0224 09:37:14.999465  1880 net.cpp:150] Setting up inception_4a/5x5_reduce
I0224 09:37:14.999478  1880 net.cpp:157] Top shape: 48 16 14 14 (150528)
I0224 09:37:14.999487  1880 net.cpp:165] Memory required for data: 1746727680
I0224 09:37:14.999500  1880 layer_factory.hpp:77] Creating layer inception_4a/relu_5x5_reduce
I0224 09:37:14.999511  1880 net.cpp:100] Creating Layer inception_4a/relu_5x5_reduce
I0224 09:37:14.999521  1880 net.cpp:434] inception_4a/relu_5x5_reduce <- inception_4a/5x5_reduce
I0224 09:37:14.999536  1880 net.cpp:395] inception_4a/relu_5x5_reduce -> inception_4a/5x5_reduce (in-place)
I0224 09:37:14.999548  1880 net.cpp:150] Setting up inception_4a/relu_5x5_reduce
I0224 09:37:14.999560  1880 net.cpp:157] Top shape: 48 16 14 14 (150528)
I0224 09:37:14.999569  1880 net.cpp:165] Memory required for data: 1747329792
I0224 09:37:14.999577  1880 layer_factory.hpp:77] Creating layer inception_4a/5x5
I0224 09:37:14.999595  1880 net.cpp:100] Creating Layer inception_4a/5x5
I0224 09:37:14.999605  1880 net.cpp:434] inception_4a/5x5 <- inception_4a/5x5_reduce
I0224 09:37:14.999619  1880 net.cpp:408] inception_4a/5x5 -> inception_4a/5x5
I0224 09:37:15.000005  1880 net.cpp:150] Setting up inception_4a/5x5
I0224 09:37:15.000018  1880 net.cpp:157] Top shape: 48 48 14 14 (451584)
I0224 09:37:15.000026  1880 net.cpp:165] Memory required for data: 1749136128
I0224 09:37:15.000039  1880 layer_factory.hpp:77] Creating layer inception_4a/relu_5x5
I0224 09:37:15.000051  1880 net.cpp:100] Creating Layer inception_4a/relu_5x5
I0224 09:37:15.000061  1880 net.cpp:434] inception_4a/relu_5x5 <- inception_4a/5x5
I0224 09:37:15.000075  1880 net.cpp:395] inception_4a/relu_5x5 -> inception_4a/5x5 (in-place)
I0224 09:37:15.000088  1880 net.cpp:150] Setting up inception_4a/relu_5x5
I0224 09:37:15.000100  1880 net.cpp:157] Top shape: 48 48 14 14 (451584)
I0224 09:37:15.000108  1880 net.cpp:165] Memory required for data: 1750942464
I0224 09:37:15.000118  1880 layer_factory.hpp:77] Creating layer inception_4a/pool
I0224 09:37:15.000130  1880 net.cpp:100] Creating Layer inception_4a/pool
I0224 09:37:15.000139  1880 net.cpp:434] inception_4a/pool <- pool3/3x3_s2_pool3/3x3_s2_0_split_3
I0224 09:37:15.000155  1880 net.cpp:408] inception_4a/pool -> inception_4a/pool
I0224 09:37:15.000174  1880 net.cpp:150] Setting up inception_4a/pool
I0224 09:37:15.000186  1880 net.cpp:157] Top shape: 48 480 14 14 (4515840)
I0224 09:37:15.000195  1880 net.cpp:165] Memory required for data: 1769005824
I0224 09:37:15.000203  1880 layer_factory.hpp:77] Creating layer inception_4a/pool_proj
I0224 09:37:15.000231  1880 net.cpp:100] Creating Layer inception_4a/pool_proj
I0224 09:37:15.000259  1880 net.cpp:434] inception_4a/pool_proj <- inception_4a/pool
I0224 09:37:15.000273  1880 net.cpp:408] inception_4a/pool_proj -> inception_4a/pool_proj
I0224 09:37:15.000860  1880 net.cpp:150] Setting up inception_4a/pool_proj
I0224 09:37:15.000874  1880 net.cpp:157] Top shape: 48 64 14 14 (602112)
I0224 09:37:15.000883  1880 net.cpp:165] Memory required for data: 1771414272
I0224 09:37:15.000897  1880 layer_factory.hpp:77] Creating layer inception_4a/relu_pool_proj
I0224 09:37:15.000911  1880 net.cpp:100] Creating Layer inception_4a/relu_pool_proj
I0224 09:37:15.000921  1880 net.cpp:434] inception_4a/relu_pool_proj <- inception_4a/pool_proj
I0224 09:37:15.000933  1880 net.cpp:395] inception_4a/relu_pool_proj -> inception_4a/pool_proj (in-place)
I0224 09:37:15.000946  1880 net.cpp:150] Setting up inception_4a/relu_pool_proj
I0224 09:37:15.000957  1880 net.cpp:157] Top shape: 48 64 14 14 (602112)
I0224 09:37:15.000967  1880 net.cpp:165] Memory required for data: 1773822720
I0224 09:37:15.000974  1880 layer_factory.hpp:77] Creating layer inception_4a/output
I0224 09:37:15.000990  1880 net.cpp:100] Creating Layer inception_4a/output
I0224 09:37:15.001000  1880 net.cpp:434] inception_4a/output <- inception_4a/1x1
I0224 09:37:15.001010  1880 net.cpp:434] inception_4a/output <- inception_4a/3x3
I0224 09:37:15.001021  1880 net.cpp:434] inception_4a/output <- inception_4a/5x5
I0224 09:37:15.001031  1880 net.cpp:434] inception_4a/output <- inception_4a/pool_proj
I0224 09:37:15.001044  1880 net.cpp:408] inception_4a/output -> inception_4a/output
I0224 09:37:15.001060  1880 net.cpp:150] Setting up inception_4a/output
I0224 09:37:15.001071  1880 net.cpp:157] Top shape: 48 512 14 14 (4816896)
I0224 09:37:15.001080  1880 net.cpp:165] Memory required for data: 1793090304
I0224 09:37:15.001090  1880 layer_factory.hpp:77] Creating layer inception_4a/output_inception_4a/output_0_split
I0224 09:37:15.001102  1880 net.cpp:100] Creating Layer inception_4a/output_inception_4a/output_0_split
I0224 09:37:15.001111  1880 net.cpp:434] inception_4a/output_inception_4a/output_0_split <- inception_4a/output
I0224 09:37:15.001127  1880 net.cpp:408] inception_4a/output_inception_4a/output_0_split -> inception_4a/output_inception_4a/output_0_split_0
I0224 09:37:15.001150  1880 net.cpp:408] inception_4a/output_inception_4a/output_0_split -> inception_4a/output_inception_4a/output_0_split_1
I0224 09:37:15.001165  1880 net.cpp:408] inception_4a/output_inception_4a/output_0_split -> inception_4a/output_inception_4a/output_0_split_2
I0224 09:37:15.001183  1880 net.cpp:408] inception_4a/output_inception_4a/output_0_split -> inception_4a/output_inception_4a/output_0_split_3
I0224 09:37:15.001199  1880 net.cpp:408] inception_4a/output_inception_4a/output_0_split -> inception_4a/output_inception_4a/output_0_split_4
I0224 09:37:15.001215  1880 net.cpp:150] Setting up inception_4a/output_inception_4a/output_0_split
I0224 09:37:15.001227  1880 net.cpp:157] Top shape: 48 512 14 14 (4816896)
I0224 09:37:15.001238  1880 net.cpp:157] Top shape: 48 512 14 14 (4816896)
I0224 09:37:15.001256  1880 net.cpp:157] Top shape: 48 512 14 14 (4816896)
I0224 09:37:15.001267  1880 net.cpp:157] Top shape: 48 512 14 14 (4816896)
I0224 09:37:15.001278  1880 net.cpp:157] Top shape: 48 512 14 14 (4816896)
I0224 09:37:15.001286  1880 net.cpp:165] Memory required for data: 1889428224
I0224 09:37:15.001296  1880 layer_factory.hpp:77] Creating layer loss1/ave_pool
I0224 09:37:15.001310  1880 net.cpp:100] Creating Layer loss1/ave_pool
I0224 09:37:15.001320  1880 net.cpp:434] loss1/ave_pool <- inception_4a/output_inception_4a/output_0_split_0
I0224 09:37:15.001332  1880 net.cpp:408] loss1/ave_pool -> loss1/ave_pool
I0224 09:37:15.001348  1880 net.cpp:150] Setting up loss1/ave_pool
I0224 09:37:15.001360  1880 net.cpp:157] Top shape: 48 512 4 4 (393216)
I0224 09:37:15.001368  1880 net.cpp:165] Memory required for data: 1891001088
I0224 09:37:15.001377  1880 layer_factory.hpp:77] Creating layer loss1/conv
I0224 09:37:15.001410  1880 net.cpp:100] Creating Layer loss1/conv
I0224 09:37:15.001431  1880 net.cpp:434] loss1/conv <- loss1/ave_pool
I0224 09:37:15.001448  1880 net.cpp:408] loss1/conv -> loss1/conv
I0224 09:37:15.002701  1880 net.cpp:150] Setting up loss1/conv
I0224 09:37:15.002722  1880 net.cpp:157] Top shape: 48 128 4 4 (98304)
I0224 09:37:15.002732  1880 net.cpp:165] Memory required for data: 1891394304
I0224 09:37:15.002746  1880 layer_factory.hpp:77] Creating layer loss1/relu_conv
I0224 09:37:15.002763  1880 net.cpp:100] Creating Layer loss1/relu_conv
I0224 09:37:15.002774  1880 net.cpp:434] loss1/relu_conv <- loss1/conv
I0224 09:37:15.002789  1880 net.cpp:395] loss1/relu_conv -> loss1/conv (in-place)
I0224 09:37:15.002804  1880 net.cpp:150] Setting up loss1/relu_conv
I0224 09:37:15.002816  1880 net.cpp:157] Top shape: 48 128 4 4 (98304)
I0224 09:37:15.002825  1880 net.cpp:165] Memory required for data: 1891787520
I0224 09:37:15.002835  1880 layer_factory.hpp:77] Creating layer loss1/fc
I0224 09:37:15.002852  1880 net.cpp:100] Creating Layer loss1/fc
I0224 09:37:15.002861  1880 net.cpp:434] loss1/fc <- loss1/conv
I0224 09:37:15.002878  1880 net.cpp:408] loss1/fc -> loss1/fc
I0224 09:37:15.039737  1880 net.cpp:150] Setting up loss1/fc
I0224 09:37:15.039808  1880 net.cpp:157] Top shape: 48 1024 (49152)
I0224 09:37:15.039819  1880 net.cpp:165] Memory required for data: 1891984128
I0224 09:37:15.039839  1880 layer_factory.hpp:77] Creating layer loss1/relu_fc
I0224 09:37:15.039856  1880 net.cpp:100] Creating Layer loss1/relu_fc
I0224 09:37:15.039868  1880 net.cpp:434] loss1/relu_fc <- loss1/fc
I0224 09:37:15.039883  1880 net.cpp:395] loss1/relu_fc -> loss1/fc (in-place)
I0224 09:37:15.039901  1880 net.cpp:150] Setting up loss1/relu_fc
I0224 09:37:15.039912  1880 net.cpp:157] Top shape: 48 1024 (49152)
I0224 09:37:15.039921  1880 net.cpp:165] Memory required for data: 1892180736
I0224 09:37:15.039930  1880 layer_factory.hpp:77] Creating layer loss1/drop_fc
I0224 09:37:15.039968  1880 net.cpp:100] Creating Layer loss1/drop_fc
I0224 09:37:15.039978  1880 net.cpp:434] loss1/drop_fc <- loss1/fc
I0224 09:37:15.039990  1880 net.cpp:395] loss1/drop_fc -> loss1/fc (in-place)
I0224 09:37:15.040015  1880 net.cpp:150] Setting up loss1/drop_fc
I0224 09:37:15.040026  1880 net.cpp:157] Top shape: 48 1024 (49152)
I0224 09:37:15.040035  1880 net.cpp:165] Memory required for data: 1892377344
I0224 09:37:15.040045  1880 layer_factory.hpp:77] Creating layer loss1/classifier
I0224 09:37:15.040060  1880 net.cpp:100] Creating Layer loss1/classifier
I0224 09:37:15.040071  1880 net.cpp:434] loss1/classifier <- loss1/fc
I0224 09:37:15.040102  1880 net.cpp:408] loss1/classifier -> loss1/classifier
I0224 09:37:15.058290  1880 net.cpp:150] Setting up loss1/classifier
I0224 09:37:15.058336  1880 net.cpp:157] Top shape: 48 1000 (48000)
I0224 09:37:15.058346  1880 net.cpp:165] Memory required for data: 1892569344
I0224 09:37:15.058363  1880 layer_factory.hpp:77] Creating layer loss1/loss
I0224 09:37:15.058385  1880 net.cpp:100] Creating Layer loss1/loss
I0224 09:37:15.058396  1880 net.cpp:434] loss1/loss <- loss1/classifier
I0224 09:37:15.058409  1880 net.cpp:434] loss1/loss <- label_data_1_split_0
I0224 09:37:15.058421  1880 net.cpp:408] loss1/loss -> loss1/loss1
I0224 09:37:15.058449  1880 layer_factory.hpp:77] Creating layer loss1/loss
I0224 09:37:15.058699  1880 net.cpp:150] Setting up loss1/loss
I0224 09:37:15.058713  1880 net.cpp:157] Top shape: (1)
I0224 09:37:15.058722  1880 net.cpp:160]     with loss weight 0.3
I0224 09:37:15.058786  1880 net.cpp:165] Memory required for data: 1892569348
I0224 09:37:15.058795  1880 layer_factory.hpp:77] Creating layer inception_4b/1x1
I0224 09:37:15.058818  1880 net.cpp:100] Creating Layer inception_4b/1x1
I0224 09:37:15.058830  1880 net.cpp:434] inception_4b/1x1 <- inception_4a/output_inception_4a/output_0_split_1
I0224 09:37:15.058853  1880 net.cpp:408] inception_4b/1x1 -> inception_4b/1x1
I0224 09:37:15.060392  1880 net.cpp:150] Setting up inception_4b/1x1
I0224 09:37:15.060416  1880 net.cpp:157] Top shape: 48 160 14 14 (1505280)
I0224 09:37:15.060463  1880 net.cpp:165] Memory required for data: 1898590468
I0224 09:37:15.060478  1880 layer_factory.hpp:77] Creating layer inception_4b/relu_1x1
I0224 09:37:15.060497  1880 net.cpp:100] Creating Layer inception_4b/relu_1x1
I0224 09:37:15.060508  1880 net.cpp:434] inception_4b/relu_1x1 <- inception_4b/1x1
I0224 09:37:15.060520  1880 net.cpp:395] inception_4b/relu_1x1 -> inception_4b/1x1 (in-place)
I0224 09:37:15.060534  1880 net.cpp:150] Setting up inception_4b/relu_1x1
I0224 09:37:15.060546  1880 net.cpp:157] Top shape: 48 160 14 14 (1505280)
I0224 09:37:15.060554  1880 net.cpp:165] Memory required for data: 1904611588
I0224 09:37:15.060564  1880 layer_factory.hpp:77] Creating layer inception_4b/3x3_reduce
I0224 09:37:15.060588  1880 net.cpp:100] Creating Layer inception_4b/3x3_reduce
I0224 09:37:15.060600  1880 net.cpp:434] inception_4b/3x3_reduce <- inception_4a/output_inception_4a/output_0_split_2
I0224 09:37:15.060616  1880 net.cpp:408] inception_4b/3x3_reduce -> inception_4b/3x3_reduce
I0224 09:37:15.061684  1880 net.cpp:150] Setting up inception_4b/3x3_reduce
I0224 09:37:15.061702  1880 net.cpp:157] Top shape: 48 112 14 14 (1053696)
I0224 09:37:15.061712  1880 net.cpp:165] Memory required for data: 1908826372
I0224 09:37:15.061725  1880 layer_factory.hpp:77] Creating layer inception_4b/relu_3x3_reduce
I0224 09:37:15.061738  1880 net.cpp:100] Creating Layer inception_4b/relu_3x3_reduce
I0224 09:37:15.061750  1880 net.cpp:434] inception_4b/relu_3x3_reduce <- inception_4b/3x3_reduce
I0224 09:37:15.061764  1880 net.cpp:395] inception_4b/relu_3x3_reduce -> inception_4b/3x3_reduce (in-place)
I0224 09:37:15.061776  1880 net.cpp:150] Setting up inception_4b/relu_3x3_reduce
I0224 09:37:15.061787  1880 net.cpp:157] Top shape: 48 112 14 14 (1053696)
I0224 09:37:15.061796  1880 net.cpp:165] Memory required for data: 1913041156
I0224 09:37:15.061805  1880 layer_factory.hpp:77] Creating layer inception_4b/3x3
I0224 09:37:15.061827  1880 net.cpp:100] Creating Layer inception_4b/3x3
I0224 09:37:15.061837  1880 net.cpp:434] inception_4b/3x3 <- inception_4b/3x3_reduce
I0224 09:37:15.061851  1880 net.cpp:408] inception_4b/3x3 -> inception_4b/3x3
I0224 09:37:15.065919  1880 net.cpp:150] Setting up inception_4b/3x3
I0224 09:37:15.065949  1880 net.cpp:157] Top shape: 48 224 14 14 (2107392)
I0224 09:37:15.065958  1880 net.cpp:165] Memory required for data: 1921470724
I0224 09:37:15.065973  1880 layer_factory.hpp:77] Creating layer inception_4b/relu_3x3
I0224 09:37:15.065986  1880 net.cpp:100] Creating Layer inception_4b/relu_3x3
I0224 09:37:15.065997  1880 net.cpp:434] inception_4b/relu_3x3 <- inception_4b/3x3
I0224 09:37:15.066010  1880 net.cpp:395] inception_4b/relu_3x3 -> inception_4b/3x3 (in-place)
I0224 09:37:15.066025  1880 net.cpp:150] Setting up inception_4b/relu_3x3
I0224 09:37:15.066036  1880 net.cpp:157] Top shape: 48 224 14 14 (2107392)
I0224 09:37:15.066045  1880 net.cpp:165] Memory required for data: 1929900292
I0224 09:37:15.066053  1880 layer_factory.hpp:77] Creating layer inception_4b/5x5_reduce
I0224 09:37:15.066072  1880 net.cpp:100] Creating Layer inception_4b/5x5_reduce
I0224 09:37:15.066082  1880 net.cpp:434] inception_4b/5x5_reduce <- inception_4a/output_inception_4a/output_0_split_3
I0224 09:37:15.066097  1880 net.cpp:408] inception_4b/5x5_reduce -> inception_4b/5x5_reduce
I0224 09:37:15.066337  1880 net.cpp:150] Setting up inception_4b/5x5_reduce
I0224 09:37:15.066352  1880 net.cpp:157] Top shape: 48 24 14 14 (225792)
I0224 09:37:15.066360  1880 net.cpp:165] Memory required for data: 1930803460
I0224 09:37:15.066373  1880 layer_factory.hpp:77] Creating layer inception_4b/relu_5x5_reduce
I0224 09:37:15.066385  1880 net.cpp:100] Creating Layer inception_4b/relu_5x5_reduce
I0224 09:37:15.066395  1880 net.cpp:434] inception_4b/relu_5x5_reduce <- inception_4b/5x5_reduce
I0224 09:37:15.066408  1880 net.cpp:395] inception_4b/relu_5x5_reduce -> inception_4b/5x5_reduce (in-place)
I0224 09:37:15.066422  1880 net.cpp:150] Setting up inception_4b/relu_5x5_reduce
I0224 09:37:15.066445  1880 net.cpp:157] Top shape: 48 24 14 14 (225792)
I0224 09:37:15.066467  1880 net.cpp:165] Memory required for data: 1931706628
I0224 09:37:15.066475  1880 layer_factory.hpp:77] Creating layer inception_4b/5x5
I0224 09:37:15.066493  1880 net.cpp:100] Creating Layer inception_4b/5x5
I0224 09:37:15.066504  1880 net.cpp:434] inception_4b/5x5 <- inception_4b/5x5_reduce
I0224 09:37:15.066515  1880 net.cpp:408] inception_4b/5x5 -> inception_4b/5x5
I0224 09:37:15.067229  1880 net.cpp:150] Setting up inception_4b/5x5
I0224 09:37:15.067251  1880 net.cpp:157] Top shape: 48 64 14 14 (602112)
I0224 09:37:15.067261  1880 net.cpp:165] Memory required for data: 1934115076
I0224 09:37:15.067276  1880 layer_factory.hpp:77] Creating layer inception_4b/relu_5x5
I0224 09:37:15.067287  1880 net.cpp:100] Creating Layer inception_4b/relu_5x5
I0224 09:37:15.067296  1880 net.cpp:434] inception_4b/relu_5x5 <- inception_4b/5x5
I0224 09:37:15.067307  1880 net.cpp:395] inception_4b/relu_5x5 -> inception_4b/5x5 (in-place)
I0224 09:37:15.067320  1880 net.cpp:150] Setting up inception_4b/relu_5x5
I0224 09:37:15.067332  1880 net.cpp:157] Top shape: 48 64 14 14 (602112)
I0224 09:37:15.067340  1880 net.cpp:165] Memory required for data: 1936523524
I0224 09:37:15.067349  1880 layer_factory.hpp:77] Creating layer inception_4b/pool
I0224 09:37:15.067365  1880 net.cpp:100] Creating Layer inception_4b/pool
I0224 09:37:15.067376  1880 net.cpp:434] inception_4b/pool <- inception_4a/output_inception_4a/output_0_split_4
I0224 09:37:15.067389  1880 net.cpp:408] inception_4b/pool -> inception_4b/pool
I0224 09:37:15.067423  1880 net.cpp:150] Setting up inception_4b/pool
I0224 09:37:15.067437  1880 net.cpp:157] Top shape: 48 512 14 14 (4816896)
I0224 09:37:15.067445  1880 net.cpp:165] Memory required for data: 1955791108
I0224 09:37:15.067456  1880 layer_factory.hpp:77] Creating layer inception_4b/pool_proj
I0224 09:37:15.067473  1880 net.cpp:100] Creating Layer inception_4b/pool_proj
I0224 09:37:15.067483  1880 net.cpp:434] inception_4b/pool_proj <- inception_4b/pool
I0224 09:37:15.067499  1880 net.cpp:408] inception_4b/pool_proj -> inception_4b/pool_proj
I0224 09:37:15.068107  1880 net.cpp:150] Setting up inception_4b/pool_proj
I0224 09:37:15.068121  1880 net.cpp:157] Top shape: 48 64 14 14 (602112)
I0224 09:37:15.068130  1880 net.cpp:165] Memory required for data: 1958199556
I0224 09:37:15.068143  1880 layer_factory.hpp:77] Creating layer inception_4b/relu_pool_proj
I0224 09:37:15.068156  1880 net.cpp:100] Creating Layer inception_4b/relu_pool_proj
I0224 09:37:15.068164  1880 net.cpp:434] inception_4b/relu_pool_proj <- inception_4b/pool_proj
I0224 09:37:15.068184  1880 net.cpp:395] inception_4b/relu_pool_proj -> inception_4b/pool_proj (in-place)
I0224 09:37:15.068198  1880 net.cpp:150] Setting up inception_4b/relu_pool_proj
I0224 09:37:15.068209  1880 net.cpp:157] Top shape: 48 64 14 14 (602112)
I0224 09:37:15.068218  1880 net.cpp:165] Memory required for data: 1960608004
I0224 09:37:15.068228  1880 layer_factory.hpp:77] Creating layer inception_4b/output
I0224 09:37:15.068239  1880 net.cpp:100] Creating Layer inception_4b/output
I0224 09:37:15.068258  1880 net.cpp:434] inception_4b/output <- inception_4b/1x1
I0224 09:37:15.068269  1880 net.cpp:434] inception_4b/output <- inception_4b/3x3
I0224 09:37:15.068279  1880 net.cpp:434] inception_4b/output <- inception_4b/5x5
I0224 09:37:15.068289  1880 net.cpp:434] inception_4b/output <- inception_4b/pool_proj
I0224 09:37:15.068305  1880 net.cpp:408] inception_4b/output -> inception_4b/output
I0224 09:37:15.068321  1880 net.cpp:150] Setting up inception_4b/output
I0224 09:37:15.068333  1880 net.cpp:157] Top shape: 48 512 14 14 (4816896)
I0224 09:37:15.068342  1880 net.cpp:165] Memory required for data: 1979875588
I0224 09:37:15.068351  1880 layer_factory.hpp:77] Creating layer inception_4b/output_inception_4b/output_0_split
I0224 09:37:15.068364  1880 net.cpp:100] Creating Layer inception_4b/output_inception_4b/output_0_split
I0224 09:37:15.068373  1880 net.cpp:434] inception_4b/output_inception_4b/output_0_split <- inception_4b/output
I0224 09:37:15.068404  1880 net.cpp:408] inception_4b/output_inception_4b/output_0_split -> inception_4b/output_inception_4b/output_0_split_0
I0224 09:37:15.068423  1880 net.cpp:408] inception_4b/output_inception_4b/output_0_split -> inception_4b/output_inception_4b/output_0_split_1
I0224 09:37:15.068439  1880 net.cpp:408] inception_4b/output_inception_4b/output_0_split -> inception_4b/output_inception_4b/output_0_split_2
I0224 09:37:15.068454  1880 net.cpp:408] inception_4b/output_inception_4b/output_0_split -> inception_4b/output_inception_4b/output_0_split_3
I0224 09:37:15.068470  1880 net.cpp:150] Setting up inception_4b/output_inception_4b/output_0_split
I0224 09:37:15.068481  1880 net.cpp:157] Top shape: 48 512 14 14 (4816896)
I0224 09:37:15.068492  1880 net.cpp:157] Top shape: 48 512 14 14 (4816896)
I0224 09:37:15.068503  1880 net.cpp:157] Top shape: 48 512 14 14 (4816896)
I0224 09:37:15.068513  1880 net.cpp:157] Top shape: 48 512 14 14 (4816896)
I0224 09:37:15.068522  1880 net.cpp:165] Memory required for data: 2056945924
I0224 09:37:15.068531  1880 layer_factory.hpp:77] Creating layer inception_4c/1x1
I0224 09:37:15.068550  1880 net.cpp:100] Creating Layer inception_4c/1x1
I0224 09:37:15.068560  1880 net.cpp:434] inception_4c/1x1 <- inception_4b/output_inception_4b/output_0_split_0
I0224 09:37:15.068577  1880 net.cpp:408] inception_4c/1x1 -> inception_4c/1x1
I0224 09:37:15.069773  1880 net.cpp:150] Setting up inception_4c/1x1
I0224 09:37:15.069793  1880 net.cpp:157] Top shape: 48 128 14 14 (1204224)
I0224 09:37:15.069802  1880 net.cpp:165] Memory required for data: 2061762820
I0224 09:37:15.069816  1880 layer_factory.hpp:77] Creating layer inception_4c/relu_1x1
I0224 09:37:15.069831  1880 net.cpp:100] Creating Layer inception_4c/relu_1x1
I0224 09:37:15.069842  1880 net.cpp:434] inception_4c/relu_1x1 <- inception_4c/1x1
I0224 09:37:15.069854  1880 net.cpp:395] inception_4c/relu_1x1 -> inception_4c/1x1 (in-place)
I0224 09:37:15.069867  1880 net.cpp:150] Setting up inception_4c/relu_1x1
I0224 09:37:15.069880  1880 net.cpp:157] Top shape: 48 128 14 14 (1204224)
I0224 09:37:15.069887  1880 net.cpp:165] Memory required for data: 2066579716
I0224 09:37:15.069896  1880 layer_factory.hpp:77] Creating layer inception_4c/3x3_reduce
I0224 09:37:15.069916  1880 net.cpp:100] Creating Layer inception_4c/3x3_reduce
I0224 09:37:15.069927  1880 net.cpp:434] inception_4c/3x3_reduce <- inception_4b/output_inception_4b/output_0_split_1
I0224 09:37:15.069943  1880 net.cpp:408] inception_4c/3x3_reduce -> inception_4c/3x3_reduce
I0224 09:37:15.071133  1880 net.cpp:150] Setting up inception_4c/3x3_reduce
I0224 09:37:15.071153  1880 net.cpp:157] Top shape: 48 128 14 14 (1204224)
I0224 09:37:15.071162  1880 net.cpp:165] Memory required for data: 2071396612
I0224 09:37:15.071177  1880 layer_factory.hpp:77] Creating layer inception_4c/relu_3x3_reduce
I0224 09:37:15.071189  1880 net.cpp:100] Creating Layer inception_4c/relu_3x3_reduce
I0224 09:37:15.071199  1880 net.cpp:434] inception_4c/relu_3x3_reduce <- inception_4c/3x3_reduce
I0224 09:37:15.071210  1880 net.cpp:395] inception_4c/relu_3x3_reduce -> inception_4c/3x3_reduce (in-place)
I0224 09:37:15.071224  1880 net.cpp:150] Setting up inception_4c/relu_3x3_reduce
I0224 09:37:15.071235  1880 net.cpp:157] Top shape: 48 128 14 14 (1204224)
I0224 09:37:15.071249  1880 net.cpp:165] Memory required for data: 2076213508
I0224 09:37:15.071259  1880 layer_factory.hpp:77] Creating layer inception_4c/3x3
I0224 09:37:15.071277  1880 net.cpp:100] Creating Layer inception_4c/3x3
I0224 09:37:15.071287  1880 net.cpp:434] inception_4c/3x3 <- inception_4c/3x3_reduce
I0224 09:37:15.071300  1880 net.cpp:408] inception_4c/3x3 -> inception_4c/3x3
I0224 09:37:15.076583  1880 net.cpp:150] Setting up inception_4c/3x3
I0224 09:37:15.076613  1880 net.cpp:157] Top shape: 48 256 14 14 (2408448)
I0224 09:37:15.076622  1880 net.cpp:165] Memory required for data: 2085847300
I0224 09:37:15.076660  1880 layer_factory.hpp:77] Creating layer inception_4c/relu_3x3
I0224 09:37:15.076678  1880 net.cpp:100] Creating Layer inception_4c/relu_3x3
I0224 09:37:15.076716  1880 net.cpp:434] inception_4c/relu_3x3 <- inception_4c/3x3
I0224 09:37:15.076730  1880 net.cpp:395] inception_4c/relu_3x3 -> inception_4c/3x3 (in-place)
I0224 09:37:15.076745  1880 net.cpp:150] Setting up inception_4c/relu_3x3
I0224 09:37:15.076757  1880 net.cpp:157] Top shape: 48 256 14 14 (2408448)
I0224 09:37:15.076766  1880 net.cpp:165] Memory required for data: 2095481092
I0224 09:37:15.076774  1880 layer_factory.hpp:77] Creating layer inception_4c/5x5_reduce
I0224 09:37:15.076791  1880 net.cpp:100] Creating Layer inception_4c/5x5_reduce
I0224 09:37:15.076802  1880 net.cpp:434] inception_4c/5x5_reduce <- inception_4b/output_inception_4b/output_0_split_2
I0224 09:37:15.076820  1880 net.cpp:408] inception_4c/5x5_reduce -> inception_4c/5x5_reduce
I0224 09:37:15.077054  1880 net.cpp:150] Setting up inception_4c/5x5_reduce
I0224 09:37:15.077066  1880 net.cpp:157] Top shape: 48 24 14 14 (225792)
I0224 09:37:15.077075  1880 net.cpp:165] Memory required for data: 2096384260
I0224 09:37:15.077087  1880 layer_factory.hpp:77] Creating layer inception_4c/relu_5x5_reduce
I0224 09:37:15.077101  1880 net.cpp:100] Creating Layer inception_4c/relu_5x5_reduce
I0224 09:37:15.077111  1880 net.cpp:434] inception_4c/relu_5x5_reduce <- inception_4c/5x5_reduce
I0224 09:37:15.077126  1880 net.cpp:395] inception_4c/relu_5x5_reduce -> inception_4c/5x5_reduce (in-place)
I0224 09:37:15.077138  1880 net.cpp:150] Setting up inception_4c/relu_5x5_reduce
I0224 09:37:15.077149  1880 net.cpp:157] Top shape: 48 24 14 14 (225792)
I0224 09:37:15.077158  1880 net.cpp:165] Memory required for data: 2097287428
I0224 09:37:15.077167  1880 layer_factory.hpp:77] Creating layer inception_4c/5x5
I0224 09:37:15.077181  1880 net.cpp:100] Creating Layer inception_4c/5x5
I0224 09:37:15.077190  1880 net.cpp:434] inception_4c/5x5 <- inception_4c/5x5_reduce
I0224 09:37:15.077211  1880 net.cpp:408] inception_4c/5x5 -> inception_4c/5x5
I0224 09:37:15.077921  1880 net.cpp:150] Setting up inception_4c/5x5
I0224 09:37:15.077937  1880 net.cpp:157] Top shape: 48 64 14 14 (602112)
I0224 09:37:15.077946  1880 net.cpp:165] Memory required for data: 2099695876
I0224 09:37:15.077960  1880 layer_factory.hpp:77] Creating layer inception_4c/relu_5x5
I0224 09:37:15.077970  1880 net.cpp:100] Creating Layer inception_4c/relu_5x5
I0224 09:37:15.077980  1880 net.cpp:434] inception_4c/relu_5x5 <- inception_4c/5x5
I0224 09:37:15.077994  1880 net.cpp:395] inception_4c/relu_5x5 -> inception_4c/5x5 (in-place)
I0224 09:37:15.078007  1880 net.cpp:150] Setting up inception_4c/relu_5x5
I0224 09:37:15.078019  1880 net.cpp:157] Top shape: 48 64 14 14 (602112)
I0224 09:37:15.078027  1880 net.cpp:165] Memory required for data: 2102104324
I0224 09:37:15.078037  1880 layer_factory.hpp:77] Creating layer inception_4c/pool
I0224 09:37:15.078048  1880 net.cpp:100] Creating Layer inception_4c/pool
I0224 09:37:15.078061  1880 net.cpp:434] inception_4c/pool <- inception_4b/output_inception_4b/output_0_split_3
I0224 09:37:15.078074  1880 net.cpp:408] inception_4c/pool -> inception_4c/pool
I0224 09:37:15.078092  1880 net.cpp:150] Setting up inception_4c/pool
I0224 09:37:15.078104  1880 net.cpp:157] Top shape: 48 512 14 14 (4816896)
I0224 09:37:15.078112  1880 net.cpp:165] Memory required for data: 2121371908
I0224 09:37:15.078120  1880 layer_factory.hpp:77] Creating layer inception_4c/pool_proj
I0224 09:37:15.078137  1880 net.cpp:100] Creating Layer inception_4c/pool_proj
I0224 09:37:15.078147  1880 net.cpp:434] inception_4c/pool_proj <- inception_4c/pool
I0224 09:37:15.078164  1880 net.cpp:408] inception_4c/pool_proj -> inception_4c/pool_proj
I0224 09:37:15.078780  1880 net.cpp:150] Setting up inception_4c/pool_proj
I0224 09:37:15.078795  1880 net.cpp:157] Top shape: 48 64 14 14 (602112)
I0224 09:37:15.078804  1880 net.cpp:165] Memory required for data: 2123780356
I0224 09:37:15.078817  1880 layer_factory.hpp:77] Creating layer inception_4c/relu_pool_proj
I0224 09:37:15.078829  1880 net.cpp:100] Creating Layer inception_4c/relu_pool_proj
I0224 09:37:15.078847  1880 net.cpp:434] inception_4c/relu_pool_proj <- inception_4c/pool_proj
I0224 09:37:15.078871  1880 net.cpp:395] inception_4c/relu_pool_proj -> inception_4c/pool_proj (in-place)
I0224 09:37:15.078886  1880 net.cpp:150] Setting up inception_4c/relu_pool_proj
I0224 09:37:15.078897  1880 net.cpp:157] Top shape: 48 64 14 14 (602112)
I0224 09:37:15.078905  1880 net.cpp:165] Memory required for data: 2126188804
I0224 09:37:15.078915  1880 layer_factory.hpp:77] Creating layer inception_4c/output
I0224 09:37:15.078933  1880 net.cpp:100] Creating Layer inception_4c/output
I0224 09:37:15.078943  1880 net.cpp:434] inception_4c/output <- inception_4c/1x1
I0224 09:37:15.078954  1880 net.cpp:434] inception_4c/output <- inception_4c/3x3
I0224 09:37:15.078964  1880 net.cpp:434] inception_4c/output <- inception_4c/5x5
I0224 09:37:15.078975  1880 net.cpp:434] inception_4c/output <- inception_4c/pool_proj
I0224 09:37:15.078987  1880 net.cpp:408] inception_4c/output -> inception_4c/output
I0224 09:37:15.079004  1880 net.cpp:150] Setting up inception_4c/output
I0224 09:37:15.079020  1880 net.cpp:157] Top shape: 48 512 14 14 (4816896)
I0224 09:37:15.079028  1880 net.cpp:165] Memory required for data: 2145456388
I0224 09:37:15.079036  1880 layer_factory.hpp:77] Creating layer inception_4c/output_inception_4c/output_0_split
I0224 09:37:15.079053  1880 net.cpp:100] Creating Layer inception_4c/output_inception_4c/output_0_split
I0224 09:37:15.079063  1880 net.cpp:434] inception_4c/output_inception_4c/output_0_split <- inception_4c/output
I0224 09:37:15.079076  1880 net.cpp:408] inception_4c/output_inception_4c/output_0_split -> inception_4c/output_inception_4c/output_0_split_0
I0224 09:37:15.079089  1880 net.cpp:408] inception_4c/output_inception_4c/output_0_split -> inception_4c/output_inception_4c/output_0_split_1
I0224 09:37:15.079104  1880 net.cpp:408] inception_4c/output_inception_4c/output_0_split -> inception_4c/output_inception_4c/output_0_split_2
I0224 09:37:15.079118  1880 net.cpp:408] inception_4c/output_inception_4c/output_0_split -> inception_4c/output_inception_4c/output_0_split_3
I0224 09:37:15.079138  1880 net.cpp:150] Setting up inception_4c/output_inception_4c/output_0_split
I0224 09:37:15.079150  1880 net.cpp:157] Top shape: 48 512 14 14 (4816896)
I0224 09:37:15.079161  1880 net.cpp:157] Top shape: 48 512 14 14 (4816896)
I0224 09:37:15.079172  1880 net.cpp:157] Top shape: 48 512 14 14 (4816896)
I0224 09:37:15.079183  1880 net.cpp:157] Top shape: 48 512 14 14 (4816896)
I0224 09:37:15.079192  1880 net.cpp:165] Memory required for data: 2222526724
I0224 09:37:15.079201  1880 layer_factory.hpp:77] Creating layer inception_4d/1x1
I0224 09:37:15.079218  1880 net.cpp:100] Creating Layer inception_4d/1x1
I0224 09:37:15.079228  1880 net.cpp:434] inception_4d/1x1 <- inception_4c/output_inception_4c/output_0_split_0
I0224 09:37:15.079252  1880 net.cpp:408] inception_4d/1x1 -> inception_4d/1x1
I0224 09:37:15.080317  1880 net.cpp:150] Setting up inception_4d/1x1
I0224 09:37:15.080337  1880 net.cpp:157] Top shape: 48 112 14 14 (1053696)
I0224 09:37:15.080344  1880 net.cpp:165] Memory required for data: 2226741508
I0224 09:37:15.080359  1880 layer_factory.hpp:77] Creating layer inception_4d/relu_1x1
I0224 09:37:15.080371  1880 net.cpp:100] Creating Layer inception_4d/relu_1x1
I0224 09:37:15.080381  1880 net.cpp:434] inception_4d/relu_1x1 <- inception_4d/1x1
I0224 09:37:15.080397  1880 net.cpp:395] inception_4d/relu_1x1 -> inception_4d/1x1 (in-place)
I0224 09:37:15.080411  1880 net.cpp:150] Setting up inception_4d/relu_1x1
I0224 09:37:15.080422  1880 net.cpp:157] Top shape: 48 112 14 14 (1053696)
I0224 09:37:15.080431  1880 net.cpp:165] Memory required for data: 2230956292
I0224 09:37:15.080440  1880 layer_factory.hpp:77] Creating layer inception_4d/3x3_reduce
I0224 09:37:15.080456  1880 net.cpp:100] Creating Layer inception_4d/3x3_reduce
I0224 09:37:15.080466  1880 net.cpp:434] inception_4d/3x3_reduce <- inception_4c/output_inception_4c/output_0_split_1
I0224 09:37:15.080482  1880 net.cpp:408] inception_4d/3x3_reduce -> inception_4d/3x3_reduce
I0224 09:37:15.081840  1880 net.cpp:150] Setting up inception_4d/3x3_reduce
I0224 09:37:15.081866  1880 net.cpp:157] Top shape: 48 144 14 14 (1354752)
I0224 09:37:15.081876  1880 net.cpp:165] Memory required for data: 2236375300
I0224 09:37:15.081889  1880 layer_factory.hpp:77] Creating layer inception_4d/relu_3x3_reduce
I0224 09:37:15.081902  1880 net.cpp:100] Creating Layer inception_4d/relu_3x3_reduce
I0224 09:37:15.081912  1880 net.cpp:434] inception_4d/relu_3x3_reduce <- inception_4d/3x3_reduce
I0224 09:37:15.081923  1880 net.cpp:395] inception_4d/relu_3x3_reduce -> inception_4d/3x3_reduce (in-place)
I0224 09:37:15.081938  1880 net.cpp:150] Setting up inception_4d/relu_3x3_reduce
I0224 09:37:15.081949  1880 net.cpp:157] Top shape: 48 144 14 14 (1354752)
I0224 09:37:15.081959  1880 net.cpp:165] Memory required for data: 2241794308
I0224 09:37:15.081967  1880 layer_factory.hpp:77] Creating layer inception_4d/3x3
I0224 09:37:15.081985  1880 net.cpp:100] Creating Layer inception_4d/3x3
I0224 09:37:15.081995  1880 net.cpp:434] inception_4d/3x3 <- inception_4d/3x3_reduce
I0224 09:37:15.082008  1880 net.cpp:408] inception_4d/3x3 -> inception_4d/3x3
I0224 09:37:15.088763  1880 net.cpp:150] Setting up inception_4d/3x3
I0224 09:37:15.088796  1880 net.cpp:157] Top shape: 48 288 14 14 (2709504)
I0224 09:37:15.088805  1880 net.cpp:165] Memory required for data: 2252632324
I0224 09:37:15.088821  1880 layer_factory.hpp:77] Creating layer inception_4d/relu_3x3
I0224 09:37:15.088838  1880 net.cpp:100] Creating Layer inception_4d/relu_3x3
I0224 09:37:15.088850  1880 net.cpp:434] inception_4d/relu_3x3 <- inception_4d/3x3
I0224 09:37:15.088863  1880 net.cpp:395] inception_4d/relu_3x3 -> inception_4d/3x3 (in-place)
I0224 09:37:15.088879  1880 net.cpp:150] Setting up inception_4d/relu_3x3
I0224 09:37:15.088891  1880 net.cpp:157] Top shape: 48 288 14 14 (2709504)
I0224 09:37:15.088901  1880 net.cpp:165] Memory required for data: 2263470340
I0224 09:37:15.088910  1880 layer_factory.hpp:77] Creating layer inception_4d/5x5_reduce
I0224 09:37:15.088925  1880 net.cpp:100] Creating Layer inception_4d/5x5_reduce
I0224 09:37:15.088937  1880 net.cpp:434] inception_4d/5x5_reduce <- inception_4c/output_inception_4c/output_0_split_2
I0224 09:37:15.088953  1880 net.cpp:408] inception_4d/5x5_reduce -> inception_4d/5x5_reduce
I0224 09:37:15.089262  1880 net.cpp:150] Setting up inception_4d/5x5_reduce
I0224 09:37:15.089277  1880 net.cpp:157] Top shape: 48 32 14 14 (301056)
I0224 09:37:15.089284  1880 net.cpp:165] Memory required for data: 2264674564
I0224 09:37:15.089298  1880 layer_factory.hpp:77] Creating layer inception_4d/relu_5x5_reduce
I0224 09:37:15.089311  1880 net.cpp:100] Creating Layer inception_4d/relu_5x5_reduce
I0224 09:37:15.089321  1880 net.cpp:434] inception_4d/relu_5x5_reduce <- inception_4d/5x5_reduce
I0224 09:37:15.089332  1880 net.cpp:395] inception_4d/relu_5x5_reduce -> inception_4d/5x5_reduce (in-place)
I0224 09:37:15.089349  1880 net.cpp:150] Setting up inception_4d/relu_5x5_reduce
I0224 09:37:15.089360  1880 net.cpp:157] Top shape: 48 32 14 14 (301056)
I0224 09:37:15.089370  1880 net.cpp:165] Memory required for data: 2265878788
I0224 09:37:15.089378  1880 layer_factory.hpp:77] Creating layer inception_4d/5x5
I0224 09:37:15.089392  1880 net.cpp:100] Creating Layer inception_4d/5x5
I0224 09:37:15.089401  1880 net.cpp:434] inception_4d/5x5 <- inception_4d/5x5_reduce
I0224 09:37:15.089417  1880 net.cpp:408] inception_4d/5x5 -> inception_4d/5x5
I0224 09:37:15.090373  1880 net.cpp:150] Setting up inception_4d/5x5
I0224 09:37:15.090390  1880 net.cpp:157] Top shape: 48 64 14 14 (602112)
I0224 09:37:15.090399  1880 net.cpp:165] Memory required for data: 2268287236
I0224 09:37:15.090412  1880 layer_factory.hpp:77] Creating layer inception_4d/relu_5x5
I0224 09:37:15.090425  1880 net.cpp:100] Creating Layer inception_4d/relu_5x5
I0224 09:37:15.090435  1880 net.cpp:434] inception_4d/relu_5x5 <- inception_4d/5x5
I0224 09:37:15.090450  1880 net.cpp:395] inception_4d/relu_5x5 -> inception_4d/5x5 (in-place)
I0224 09:37:15.090473  1880 net.cpp:150] Setting up inception_4d/relu_5x5
I0224 09:37:15.090497  1880 net.cpp:157] Top shape: 48 64 14 14 (602112)
I0224 09:37:15.090507  1880 net.cpp:165] Memory required for data: 2270695684
I0224 09:37:15.090515  1880 layer_factory.hpp:77] Creating layer inception_4d/pool
I0224 09:37:15.090528  1880 net.cpp:100] Creating Layer inception_4d/pool
I0224 09:37:15.090538  1880 net.cpp:434] inception_4d/pool <- inception_4c/output_inception_4c/output_0_split_3
I0224 09:37:15.090553  1880 net.cpp:408] inception_4d/pool -> inception_4d/pool
I0224 09:37:15.090572  1880 net.cpp:150] Setting up inception_4d/pool
I0224 09:37:15.090584  1880 net.cpp:157] Top shape: 48 512 14 14 (4816896)
I0224 09:37:15.090592  1880 net.cpp:165] Memory required for data: 2289963268
I0224 09:37:15.090601  1880 layer_factory.hpp:77] Creating layer inception_4d/pool_proj
I0224 09:37:15.090618  1880 net.cpp:100] Creating Layer inception_4d/pool_proj
I0224 09:37:15.090628  1880 net.cpp:434] inception_4d/pool_proj <- inception_4d/pool
I0224 09:37:15.090644  1880 net.cpp:408] inception_4d/pool_proj -> inception_4d/pool_proj
I0224 09:37:15.091253  1880 net.cpp:150] Setting up inception_4d/pool_proj
I0224 09:37:15.091269  1880 net.cpp:157] Top shape: 48 64 14 14 (602112)
I0224 09:37:15.091277  1880 net.cpp:165] Memory required for data: 2292371716
I0224 09:37:15.091291  1880 layer_factory.hpp:77] Creating layer inception_4d/relu_pool_proj
I0224 09:37:15.091305  1880 net.cpp:100] Creating Layer inception_4d/relu_pool_proj
I0224 09:37:15.091316  1880 net.cpp:434] inception_4d/relu_pool_proj <- inception_4d/pool_proj
I0224 09:37:15.091331  1880 net.cpp:395] inception_4d/relu_pool_proj -> inception_4d/pool_proj (in-place)
I0224 09:37:15.091346  1880 net.cpp:150] Setting up inception_4d/relu_pool_proj
I0224 09:37:15.091356  1880 net.cpp:157] Top shape: 48 64 14 14 (602112)
I0224 09:37:15.091365  1880 net.cpp:165] Memory required for data: 2294780164
I0224 09:37:15.091374  1880 layer_factory.hpp:77] Creating layer inception_4d/output
I0224 09:37:15.091387  1880 net.cpp:100] Creating Layer inception_4d/output
I0224 09:37:15.091395  1880 net.cpp:434] inception_4d/output <- inception_4d/1x1
I0224 09:37:15.091406  1880 net.cpp:434] inception_4d/output <- inception_4d/3x3
I0224 09:37:15.091416  1880 net.cpp:434] inception_4d/output <- inception_4d/5x5
I0224 09:37:15.091428  1880 net.cpp:434] inception_4d/output <- inception_4d/pool_proj
I0224 09:37:15.091439  1880 net.cpp:408] inception_4d/output -> inception_4d/output
I0224 09:37:15.091455  1880 net.cpp:150] Setting up inception_4d/output
I0224 09:37:15.091467  1880 net.cpp:157] Top shape: 48 528 14 14 (4967424)
I0224 09:37:15.091475  1880 net.cpp:165] Memory required for data: 2314649860
I0224 09:37:15.091485  1880 layer_factory.hpp:77] Creating layer inception_4d/output_inception_4d/output_0_split
I0224 09:37:15.091498  1880 net.cpp:100] Creating Layer inception_4d/output_inception_4d/output_0_split
I0224 09:37:15.091507  1880 net.cpp:434] inception_4d/output_inception_4d/output_0_split <- inception_4d/output
I0224 09:37:15.091522  1880 net.cpp:408] inception_4d/output_inception_4d/output_0_split -> inception_4d/output_inception_4d/output_0_split_0
I0224 09:37:15.091537  1880 net.cpp:408] inception_4d/output_inception_4d/output_0_split -> inception_4d/output_inception_4d/output_0_split_1
I0224 09:37:15.091557  1880 net.cpp:408] inception_4d/output_inception_4d/output_0_split -> inception_4d/output_inception_4d/output_0_split_2
I0224 09:37:15.091573  1880 net.cpp:408] inception_4d/output_inception_4d/output_0_split -> inception_4d/output_inception_4d/output_0_split_3
I0224 09:37:15.091588  1880 net.cpp:408] inception_4d/output_inception_4d/output_0_split -> inception_4d/output_inception_4d/output_0_split_4
I0224 09:37:15.091605  1880 net.cpp:150] Setting up inception_4d/output_inception_4d/output_0_split
I0224 09:37:15.091617  1880 net.cpp:157] Top shape: 48 528 14 14 (4967424)
I0224 09:37:15.091629  1880 net.cpp:157] Top shape: 48 528 14 14 (4967424)
I0224 09:37:15.091639  1880 net.cpp:157] Top shape: 48 528 14 14 (4967424)
I0224 09:37:15.091670  1880 net.cpp:157] Top shape: 48 528 14 14 (4967424)
I0224 09:37:15.091681  1880 net.cpp:157] Top shape: 48 528 14 14 (4967424)
I0224 09:37:15.091689  1880 net.cpp:165] Memory required for data: 2413998340
I0224 09:37:15.091698  1880 layer_factory.hpp:77] Creating layer loss2/ave_pool
I0224 09:37:15.091712  1880 net.cpp:100] Creating Layer loss2/ave_pool
I0224 09:37:15.091722  1880 net.cpp:434] loss2/ave_pool <- inception_4d/output_inception_4d/output_0_split_0
I0224 09:37:15.091735  1880 net.cpp:408] loss2/ave_pool -> loss2/ave_pool
I0224 09:37:15.091750  1880 net.cpp:150] Setting up loss2/ave_pool
I0224 09:37:15.091763  1880 net.cpp:157] Top shape: 48 528 4 4 (405504)
I0224 09:37:15.091771  1880 net.cpp:165] Memory required for data: 2415620356
I0224 09:37:15.091780  1880 layer_factory.hpp:77] Creating layer loss2/conv
I0224 09:37:15.091799  1880 net.cpp:100] Creating Layer loss2/conv
I0224 09:37:15.091809  1880 net.cpp:434] loss2/conv <- loss2/ave_pool
I0224 09:37:15.091825  1880 net.cpp:408] loss2/conv -> loss2/conv
I0224 09:37:15.093049  1880 net.cpp:150] Setting up loss2/conv
I0224 09:37:15.093068  1880 net.cpp:157] Top shape: 48 128 4 4 (98304)
I0224 09:37:15.093077  1880 net.cpp:165] Memory required for data: 2416013572
I0224 09:37:15.093092  1880 layer_factory.hpp:77] Creating layer loss2/relu_conv
I0224 09:37:15.093106  1880 net.cpp:100] Creating Layer loss2/relu_conv
I0224 09:37:15.093116  1880 net.cpp:434] loss2/relu_conv <- loss2/conv
I0224 09:37:15.093130  1880 net.cpp:395] loss2/relu_conv -> loss2/conv (in-place)
I0224 09:37:15.093144  1880 net.cpp:150] Setting up loss2/relu_conv
I0224 09:37:15.093156  1880 net.cpp:157] Top shape: 48 128 4 4 (98304)
I0224 09:37:15.093165  1880 net.cpp:165] Memory required for data: 2416406788
I0224 09:37:15.093174  1880 layer_factory.hpp:77] Creating layer loss2/fc
I0224 09:37:15.093189  1880 net.cpp:100] Creating Layer loss2/fc
I0224 09:37:15.093199  1880 net.cpp:434] loss2/fc <- loss2/conv
I0224 09:37:15.093214  1880 net.cpp:408] loss2/fc -> loss2/fc
I0224 09:37:15.129612  1880 net.cpp:150] Setting up loss2/fc
I0224 09:37:15.129683  1880 net.cpp:157] Top shape: 48 1024 (49152)
I0224 09:37:15.129693  1880 net.cpp:165] Memory required for data: 2416603396
I0224 09:37:15.129717  1880 layer_factory.hpp:77] Creating layer loss2/relu_fc
I0224 09:37:15.129736  1880 net.cpp:100] Creating Layer loss2/relu_fc
I0224 09:37:15.129748  1880 net.cpp:434] loss2/relu_fc <- loss2/fc
I0224 09:37:15.129763  1880 net.cpp:395] loss2/relu_fc -> loss2/fc (in-place)
I0224 09:37:15.129781  1880 net.cpp:150] Setting up loss2/relu_fc
I0224 09:37:15.129792  1880 net.cpp:157] Top shape: 48 1024 (49152)
I0224 09:37:15.129801  1880 net.cpp:165] Memory required for data: 2416800004
I0224 09:37:15.129809  1880 layer_factory.hpp:77] Creating layer loss2/drop_fc
I0224 09:37:15.129823  1880 net.cpp:100] Creating Layer loss2/drop_fc
I0224 09:37:15.129832  1880 net.cpp:434] loss2/drop_fc <- loss2/fc
I0224 09:37:15.129848  1880 net.cpp:395] loss2/drop_fc -> loss2/fc (in-place)
I0224 09:37:15.129864  1880 net.cpp:150] Setting up loss2/drop_fc
I0224 09:37:15.129875  1880 net.cpp:157] Top shape: 48 1024 (49152)
I0224 09:37:15.129884  1880 net.cpp:165] Memory required for data: 2416996612
I0224 09:37:15.129892  1880 layer_factory.hpp:77] Creating layer loss2/classifier
I0224 09:37:15.129907  1880 net.cpp:100] Creating Layer loss2/classifier
I0224 09:37:15.129916  1880 net.cpp:434] loss2/classifier <- loss2/fc
I0224 09:37:15.129930  1880 net.cpp:408] loss2/classifier -> loss2/classifier
I0224 09:37:15.148039  1880 net.cpp:150] Setting up loss2/classifier
I0224 09:37:15.148085  1880 net.cpp:157] Top shape: 48 1000 (48000)
I0224 09:37:15.148094  1880 net.cpp:165] Memory required for data: 2417188612
I0224 09:37:15.148111  1880 layer_factory.hpp:77] Creating layer loss2/loss
I0224 09:37:15.148128  1880 net.cpp:100] Creating Layer loss2/loss
I0224 09:37:15.148140  1880 net.cpp:434] loss2/loss <- loss2/classifier
I0224 09:37:15.148154  1880 net.cpp:434] loss2/loss <- label_data_1_split_1
I0224 09:37:15.148186  1880 net.cpp:408] loss2/loss -> loss2/loss1
I0224 09:37:15.148222  1880 layer_factory.hpp:77] Creating layer loss2/loss
I0224 09:37:15.148476  1880 net.cpp:150] Setting up loss2/loss
I0224 09:37:15.148493  1880 net.cpp:157] Top shape: (1)
I0224 09:37:15.148501  1880 net.cpp:160]     with loss weight 0.3
I0224 09:37:15.148531  1880 net.cpp:165] Memory required for data: 2417188616
I0224 09:37:15.148540  1880 layer_factory.hpp:77] Creating layer inception_4e/1x1
I0224 09:37:15.148564  1880 net.cpp:100] Creating Layer inception_4e/1x1
I0224 09:37:15.148576  1880 net.cpp:434] inception_4e/1x1 <- inception_4d/output_inception_4d/output_0_split_1
I0224 09:37:15.148591  1880 net.cpp:408] inception_4e/1x1 -> inception_4e/1x1
I0224 09:37:15.151034  1880 net.cpp:150] Setting up inception_4e/1x1
I0224 09:37:15.151065  1880 net.cpp:157] Top shape: 48 256 14 14 (2408448)
I0224 09:37:15.151074  1880 net.cpp:165] Memory required for data: 2426822408
I0224 09:37:15.151088  1880 layer_factory.hpp:77] Creating layer inception_4e/relu_1x1
I0224 09:37:15.151103  1880 net.cpp:100] Creating Layer inception_4e/relu_1x1
I0224 09:37:15.151113  1880 net.cpp:434] inception_4e/relu_1x1 <- inception_4e/1x1
I0224 09:37:15.151129  1880 net.cpp:395] inception_4e/relu_1x1 -> inception_4e/1x1 (in-place)
I0224 09:37:15.151144  1880 net.cpp:150] Setting up inception_4e/relu_1x1
I0224 09:37:15.151156  1880 net.cpp:157] Top shape: 48 256 14 14 (2408448)
I0224 09:37:15.151165  1880 net.cpp:165] Memory required for data: 2436456200
I0224 09:37:15.151173  1880 layer_factory.hpp:77] Creating layer inception_4e/3x3_reduce
I0224 09:37:15.151190  1880 net.cpp:100] Creating Layer inception_4e/3x3_reduce
I0224 09:37:15.151199  1880 net.cpp:434] inception_4e/3x3_reduce <- inception_4d/output_inception_4d/output_0_split_2
I0224 09:37:15.151216  1880 net.cpp:408] inception_4e/3x3_reduce -> inception_4e/3x3_reduce
I0224 09:37:15.152786  1880 net.cpp:150] Setting up inception_4e/3x3_reduce
I0224 09:37:15.152813  1880 net.cpp:157] Top shape: 48 160 14 14 (1505280)
I0224 09:37:15.152822  1880 net.cpp:165] Memory required for data: 2442477320
I0224 09:37:15.152837  1880 layer_factory.hpp:77] Creating layer inception_4e/relu_3x3_reduce
I0224 09:37:15.152849  1880 net.cpp:100] Creating Layer inception_4e/relu_3x3_reduce
I0224 09:37:15.152859  1880 net.cpp:434] inception_4e/relu_3x3_reduce <- inception_4e/3x3_reduce
I0224 09:37:15.152871  1880 net.cpp:395] inception_4e/relu_3x3_reduce -> inception_4e/3x3_reduce (in-place)
I0224 09:37:15.152885  1880 net.cpp:150] Setting up inception_4e/relu_3x3_reduce
I0224 09:37:15.152897  1880 net.cpp:157] Top shape: 48 160 14 14 (1505280)
I0224 09:37:15.152905  1880 net.cpp:165] Memory required for data: 2448498440
I0224 09:37:15.152915  1880 layer_factory.hpp:77] Creating layer inception_4e/3x3
I0224 09:37:15.152935  1880 net.cpp:100] Creating Layer inception_4e/3x3
I0224 09:37:15.152945  1880 net.cpp:434] inception_4e/3x3 <- inception_4e/3x3_reduce
I0224 09:37:15.152961  1880 net.cpp:408] inception_4e/3x3 -> inception_4e/3x3
I0224 09:37:15.161227  1880 net.cpp:150] Setting up inception_4e/3x3
I0224 09:37:15.161264  1880 net.cpp:157] Top shape: 48 320 14 14 (3010560)
I0224 09:37:15.161273  1880 net.cpp:165] Memory required for data: 2460540680
I0224 09:37:15.161289  1880 layer_factory.hpp:77] Creating layer inception_4e/relu_3x3
I0224 09:37:15.161306  1880 net.cpp:100] Creating Layer inception_4e/relu_3x3
I0224 09:37:15.161319  1880 net.cpp:434] inception_4e/relu_3x3 <- inception_4e/3x3
I0224 09:37:15.161331  1880 net.cpp:395] inception_4e/relu_3x3 -> inception_4e/3x3 (in-place)
I0224 09:37:15.161346  1880 net.cpp:150] Setting up inception_4e/relu_3x3
I0224 09:37:15.161357  1880 net.cpp:157] Top shape: 48 320 14 14 (3010560)
I0224 09:37:15.161366  1880 net.cpp:165] Memory required for data: 2472582920
I0224 09:37:15.161375  1880 layer_factory.hpp:77] Creating layer inception_4e/5x5_reduce
I0224 09:37:15.161391  1880 net.cpp:100] Creating Layer inception_4e/5x5_reduce
I0224 09:37:15.161401  1880 net.cpp:434] inception_4e/5x5_reduce <- inception_4d/output_inception_4d/output_0_split_3
I0224 09:37:15.161442  1880 net.cpp:408] inception_4e/5x5_reduce -> inception_4e/5x5_reduce
I0224 09:37:15.161770  1880 net.cpp:150] Setting up inception_4e/5x5_reduce
I0224 09:37:15.161783  1880 net.cpp:157] Top shape: 48 32 14 14 (301056)
I0224 09:37:15.161792  1880 net.cpp:165] Memory required for data: 2473787144
I0224 09:37:15.161805  1880 layer_factory.hpp:77] Creating layer inception_4e/relu_5x5_reduce
I0224 09:37:15.161816  1880 net.cpp:100] Creating Layer inception_4e/relu_5x5_reduce
I0224 09:37:15.161826  1880 net.cpp:434] inception_4e/relu_5x5_reduce <- inception_4e/5x5_reduce
I0224 09:37:15.161837  1880 net.cpp:395] inception_4e/relu_5x5_reduce -> inception_4e/5x5_reduce (in-place)
I0224 09:37:15.161850  1880 net.cpp:150] Setting up inception_4e/relu_5x5_reduce
I0224 09:37:15.161861  1880 net.cpp:157] Top shape: 48 32 14 14 (301056)
I0224 09:37:15.161870  1880 net.cpp:165] Memory required for data: 2474991368
I0224 09:37:15.161880  1880 layer_factory.hpp:77] Creating layer inception_4e/5x5
I0224 09:37:15.161928  1880 net.cpp:100] Creating Layer inception_4e/5x5
I0224 09:37:15.161939  1880 net.cpp:434] inception_4e/5x5 <- inception_4e/5x5_reduce
I0224 09:37:15.161955  1880 net.cpp:408] inception_4e/5x5 -> inception_4e/5x5
I0224 09:37:15.163835  1880 net.cpp:150] Setting up inception_4e/5x5
I0224 09:37:15.163861  1880 net.cpp:157] Top shape: 48 128 14 14 (1204224)
I0224 09:37:15.163871  1880 net.cpp:165] Memory required for data: 2479808264
I0224 09:37:15.163887  1880 layer_factory.hpp:77] Creating layer inception_4e/relu_5x5
I0224 09:37:15.163900  1880 net.cpp:100] Creating Layer inception_4e/relu_5x5
I0224 09:37:15.163911  1880 net.cpp:434] inception_4e/relu_5x5 <- inception_4e/5x5
I0224 09:37:15.163923  1880 net.cpp:395] inception_4e/relu_5x5 -> inception_4e/5x5 (in-place)
I0224 09:37:15.163938  1880 net.cpp:150] Setting up inception_4e/relu_5x5
I0224 09:37:15.163949  1880 net.cpp:157] Top shape: 48 128 14 14 (1204224)
I0224 09:37:15.163957  1880 net.cpp:165] Memory required for data: 2484625160
I0224 09:37:15.163966  1880 layer_factory.hpp:77] Creating layer inception_4e/pool
I0224 09:37:15.163982  1880 net.cpp:100] Creating Layer inception_4e/pool
I0224 09:37:15.163993  1880 net.cpp:434] inception_4e/pool <- inception_4d/output_inception_4d/output_0_split_4
I0224 09:37:15.164013  1880 net.cpp:408] inception_4e/pool -> inception_4e/pool
I0224 09:37:15.164032  1880 net.cpp:150] Setting up inception_4e/pool
I0224 09:37:15.164044  1880 net.cpp:157] Top shape: 48 528 14 14 (4967424)
I0224 09:37:15.164053  1880 net.cpp:165] Memory required for data: 2504494856
I0224 09:37:15.164062  1880 layer_factory.hpp:77] Creating layer inception_4e/pool_proj
I0224 09:37:15.164080  1880 net.cpp:100] Creating Layer inception_4e/pool_proj
I0224 09:37:15.164090  1880 net.cpp:434] inception_4e/pool_proj <- inception_4e/pool
I0224 09:37:15.164103  1880 net.cpp:408] inception_4e/pool_proj -> inception_4e/pool_proj
I0224 09:37:15.165355  1880 net.cpp:150] Setting up inception_4e/pool_proj
I0224 09:37:15.165379  1880 net.cpp:157] Top shape: 48 128 14 14 (1204224)
I0224 09:37:15.165387  1880 net.cpp:165] Memory required for data: 2509311752
I0224 09:37:15.165401  1880 layer_factory.hpp:77] Creating layer inception_4e/relu_pool_proj
I0224 09:37:15.165413  1880 net.cpp:100] Creating Layer inception_4e/relu_pool_proj
I0224 09:37:15.165423  1880 net.cpp:434] inception_4e/relu_pool_proj <- inception_4e/pool_proj
I0224 09:37:15.165436  1880 net.cpp:395] inception_4e/relu_pool_proj -> inception_4e/pool_proj (in-place)
I0224 09:37:15.165449  1880 net.cpp:150] Setting up inception_4e/relu_pool_proj
I0224 09:37:15.165460  1880 net.cpp:157] Top shape: 48 128 14 14 (1204224)
I0224 09:37:15.165468  1880 net.cpp:165] Memory required for data: 2514128648
I0224 09:37:15.165477  1880 layer_factory.hpp:77] Creating layer inception_4e/output
I0224 09:37:15.165489  1880 net.cpp:100] Creating Layer inception_4e/output
I0224 09:37:15.165499  1880 net.cpp:434] inception_4e/output <- inception_4e/1x1
I0224 09:37:15.165531  1880 net.cpp:434] inception_4e/output <- inception_4e/3x3
I0224 09:37:15.165542  1880 net.cpp:434] inception_4e/output <- inception_4e/5x5
I0224 09:37:15.165552  1880 net.cpp:434] inception_4e/output <- inception_4e/pool_proj
I0224 09:37:15.165567  1880 net.cpp:408] inception_4e/output -> inception_4e/output
I0224 09:37:15.165585  1880 net.cpp:150] Setting up inception_4e/output
I0224 09:37:15.165597  1880 net.cpp:157] Top shape: 48 832 14 14 (7827456)
I0224 09:37:15.165606  1880 net.cpp:165] Memory required for data: 2545438472
I0224 09:37:15.165614  1880 layer_factory.hpp:77] Creating layer pool4/3x3_s2
I0224 09:37:15.165627  1880 net.cpp:100] Creating Layer pool4/3x3_s2
I0224 09:37:15.165639  1880 net.cpp:434] pool4/3x3_s2 <- inception_4e/output
I0224 09:37:15.165652  1880 net.cpp:408] pool4/3x3_s2 -> pool4/3x3_s2
I0224 09:37:15.165668  1880 net.cpp:150] Setting up pool4/3x3_s2
I0224 09:37:15.165679  1880 net.cpp:157] Top shape: 48 832 7 7 (1956864)
I0224 09:37:15.165688  1880 net.cpp:165] Memory required for data: 2553265928
I0224 09:37:15.165696  1880 layer_factory.hpp:77] Creating layer pool4/3x3_s2_pool4/3x3_s2_0_split
I0224 09:37:15.165712  1880 net.cpp:100] Creating Layer pool4/3x3_s2_pool4/3x3_s2_0_split
I0224 09:37:15.165722  1880 net.cpp:434] pool4/3x3_s2_pool4/3x3_s2_0_split <- pool4/3x3_s2
I0224 09:37:15.165733  1880 net.cpp:408] pool4/3x3_s2_pool4/3x3_s2_0_split -> pool4/3x3_s2_pool4/3x3_s2_0_split_0
I0224 09:37:15.165747  1880 net.cpp:408] pool4/3x3_s2_pool4/3x3_s2_0_split -> pool4/3x3_s2_pool4/3x3_s2_0_split_1
I0224 09:37:15.165761  1880 net.cpp:408] pool4/3x3_s2_pool4/3x3_s2_0_split -> pool4/3x3_s2_pool4/3x3_s2_0_split_2
I0224 09:37:15.165779  1880 net.cpp:408] pool4/3x3_s2_pool4/3x3_s2_0_split -> pool4/3x3_s2_pool4/3x3_s2_0_split_3
I0224 09:37:15.165796  1880 net.cpp:150] Setting up pool4/3x3_s2_pool4/3x3_s2_0_split
I0224 09:37:15.165807  1880 net.cpp:157] Top shape: 48 832 7 7 (1956864)
I0224 09:37:15.165817  1880 net.cpp:157] Top shape: 48 832 7 7 (1956864)
I0224 09:37:15.165828  1880 net.cpp:157] Top shape: 48 832 7 7 (1956864)
I0224 09:37:15.165838  1880 net.cpp:157] Top shape: 48 832 7 7 (1956864)
I0224 09:37:15.165846  1880 net.cpp:165] Memory required for data: 2584575752
I0224 09:37:15.165855  1880 layer_factory.hpp:77] Creating layer inception_5a/1x1
I0224 09:37:15.165873  1880 net.cpp:100] Creating Layer inception_5a/1x1
I0224 09:37:15.165882  1880 net.cpp:434] inception_5a/1x1 <- pool4/3x3_s2_pool4/3x3_s2_0_split_0
I0224 09:37:15.165896  1880 net.cpp:408] inception_5a/1x1 -> inception_5a/1x1
I0224 09:37:15.169708  1880 net.cpp:150] Setting up inception_5a/1x1
I0224 09:37:15.169736  1880 net.cpp:157] Top shape: 48 256 7 7 (602112)
I0224 09:37:15.169745  1880 net.cpp:165] Memory required for data: 2586984200
I0224 09:37:15.169760  1880 layer_factory.hpp:77] Creating layer inception_5a/relu_1x1
I0224 09:37:15.169773  1880 net.cpp:100] Creating Layer inception_5a/relu_1x1
I0224 09:37:15.169785  1880 net.cpp:434] inception_5a/relu_1x1 <- inception_5a/1x1
I0224 09:37:15.169800  1880 net.cpp:395] inception_5a/relu_1x1 -> inception_5a/1x1 (in-place)
I0224 09:37:15.169813  1880 net.cpp:150] Setting up inception_5a/relu_1x1
I0224 09:37:15.169826  1880 net.cpp:157] Top shape: 48 256 7 7 (602112)
I0224 09:37:15.169833  1880 net.cpp:165] Memory required for data: 2589392648
I0224 09:37:15.169842  1880 layer_factory.hpp:77] Creating layer inception_5a/3x3_reduce
I0224 09:37:15.169857  1880 net.cpp:100] Creating Layer inception_5a/3x3_reduce
I0224 09:37:15.169867  1880 net.cpp:434] inception_5a/3x3_reduce <- pool4/3x3_s2_pool4/3x3_s2_0_split_1
I0224 09:37:15.169880  1880 net.cpp:408] inception_5a/3x3_reduce -> inception_5a/3x3_reduce
I0224 09:37:15.172266  1880 net.cpp:150] Setting up inception_5a/3x3_reduce
I0224 09:37:15.172292  1880 net.cpp:157] Top shape: 48 160 7 7 (376320)
I0224 09:37:15.172302  1880 net.cpp:165] Memory required for data: 2590897928
I0224 09:37:15.172317  1880 layer_factory.hpp:77] Creating layer inception_5a/relu_3x3_reduce
I0224 09:37:15.172339  1880 net.cpp:100] Creating Layer inception_5a/relu_3x3_reduce
I0224 09:37:15.172363  1880 net.cpp:434] inception_5a/relu_3x3_reduce <- inception_5a/3x3_reduce
I0224 09:37:15.172379  1880 net.cpp:395] inception_5a/relu_3x3_reduce -> inception_5a/3x3_reduce (in-place)
I0224 09:37:15.172394  1880 net.cpp:150] Setting up inception_5a/relu_3x3_reduce
I0224 09:37:15.172405  1880 net.cpp:157] Top shape: 48 160 7 7 (376320)
I0224 09:37:15.172413  1880 net.cpp:165] Memory required for data: 2592403208
I0224 09:37:15.172421  1880 layer_factory.hpp:77] Creating layer inception_5a/3x3
I0224 09:37:15.172436  1880 net.cpp:100] Creating Layer inception_5a/3x3
I0224 09:37:15.172446  1880 net.cpp:434] inception_5a/3x3 <- inception_5a/3x3_reduce
I0224 09:37:15.172458  1880 net.cpp:408] inception_5a/3x3 -> inception_5a/3x3
I0224 09:37:15.180694  1880 net.cpp:150] Setting up inception_5a/3x3
I0224 09:37:15.180723  1880 net.cpp:157] Top shape: 48 320 7 7 (752640)
I0224 09:37:15.180732  1880 net.cpp:165] Memory required for data: 2595413768
I0224 09:37:15.180747  1880 layer_factory.hpp:77] Creating layer inception_5a/relu_3x3
I0224 09:37:15.180761  1880 net.cpp:100] Creating Layer inception_5a/relu_3x3
I0224 09:37:15.180773  1880 net.cpp:434] inception_5a/relu_3x3 <- inception_5a/3x3
I0224 09:37:15.180784  1880 net.cpp:395] inception_5a/relu_3x3 -> inception_5a/3x3 (in-place)
I0224 09:37:15.180799  1880 net.cpp:150] Setting up inception_5a/relu_3x3
I0224 09:37:15.180810  1880 net.cpp:157] Top shape: 48 320 7 7 (752640)
I0224 09:37:15.180819  1880 net.cpp:165] Memory required for data: 2598424328
I0224 09:37:15.180829  1880 layer_factory.hpp:77] Creating layer inception_5a/5x5_reduce
I0224 09:37:15.180843  1880 net.cpp:100] Creating Layer inception_5a/5x5_reduce
I0224 09:37:15.180855  1880 net.cpp:434] inception_5a/5x5_reduce <- pool4/3x3_s2_pool4/3x3_s2_0_split_2
I0224 09:37:15.180871  1880 net.cpp:408] inception_5a/5x5_reduce -> inception_5a/5x5_reduce
I0224 09:37:15.181365  1880 net.cpp:150] Setting up inception_5a/5x5_reduce
I0224 09:37:15.181380  1880 net.cpp:157] Top shape: 48 32 7 7 (75264)
I0224 09:37:15.181388  1880 net.cpp:165] Memory required for data: 2598725384
I0224 09:37:15.181401  1880 layer_factory.hpp:77] Creating layer inception_5a/relu_5x5_reduce
I0224 09:37:15.181412  1880 net.cpp:100] Creating Layer inception_5a/relu_5x5_reduce
I0224 09:37:15.181421  1880 net.cpp:434] inception_5a/relu_5x5_reduce <- inception_5a/5x5_reduce
I0224 09:37:15.181439  1880 net.cpp:395] inception_5a/relu_5x5_reduce -> inception_5a/5x5_reduce (in-place)
I0224 09:37:15.181452  1880 net.cpp:150] Setting up inception_5a/relu_5x5_reduce
I0224 09:37:15.181464  1880 net.cpp:157] Top shape: 48 32 7 7 (75264)
I0224 09:37:15.181473  1880 net.cpp:165] Memory required for data: 2599026440
I0224 09:37:15.181481  1880 layer_factory.hpp:77] Creating layer inception_5a/5x5
I0224 09:37:15.181495  1880 net.cpp:100] Creating Layer inception_5a/5x5
I0224 09:37:15.181505  1880 net.cpp:434] inception_5a/5x5 <- inception_5a/5x5_reduce
I0224 09:37:15.181520  1880 net.cpp:408] inception_5a/5x5 -> inception_5a/5x5
I0224 09:37:15.183379  1880 net.cpp:150] Setting up inception_5a/5x5
I0224 09:37:15.183405  1880 net.cpp:157] Top shape: 48 128 7 7 (301056)
I0224 09:37:15.183414  1880 net.cpp:165] Memory required for data: 2600230664
I0224 09:37:15.183429  1880 layer_factory.hpp:77] Creating layer inception_5a/relu_5x5
I0224 09:37:15.183445  1880 net.cpp:100] Creating Layer inception_5a/relu_5x5
I0224 09:37:15.183456  1880 net.cpp:434] inception_5a/relu_5x5 <- inception_5a/5x5
I0224 09:37:15.183468  1880 net.cpp:395] inception_5a/relu_5x5 -> inception_5a/5x5 (in-place)
I0224 09:37:15.183483  1880 net.cpp:150] Setting up inception_5a/relu_5x5
I0224 09:37:15.183495  1880 net.cpp:157] Top shape: 48 128 7 7 (301056)
I0224 09:37:15.183503  1880 net.cpp:165] Memory required for data: 2601434888
I0224 09:37:15.183512  1880 layer_factory.hpp:77] Creating layer inception_5a/pool
I0224 09:37:15.183524  1880 net.cpp:100] Creating Layer inception_5a/pool
I0224 09:37:15.183544  1880 net.cpp:434] inception_5a/pool <- pool4/3x3_s2_pool4/3x3_s2_0_split_3
I0224 09:37:15.183574  1880 net.cpp:408] inception_5a/pool -> inception_5a/pool
I0224 09:37:15.183594  1880 net.cpp:150] Setting up inception_5a/pool
I0224 09:37:15.183606  1880 net.cpp:157] Top shape: 48 832 7 7 (1956864)
I0224 09:37:15.183615  1880 net.cpp:165] Memory required for data: 2609262344
I0224 09:37:15.183624  1880 layer_factory.hpp:77] Creating layer inception_5a/pool_proj
I0224 09:37:15.183641  1880 net.cpp:100] Creating Layer inception_5a/pool_proj
I0224 09:37:15.183652  1880 net.cpp:434] inception_5a/pool_proj <- inception_5a/pool
I0224 09:37:15.183667  1880 net.cpp:408] inception_5a/pool_proj -> inception_5a/pool_proj
I0224 09:37:15.185590  1880 net.cpp:150] Setting up inception_5a/pool_proj
I0224 09:37:15.185614  1880 net.cpp:157] Top shape: 48 128 7 7 (301056)
I0224 09:37:15.185623  1880 net.cpp:165] Memory required for data: 2610466568
I0224 09:37:15.185638  1880 layer_factory.hpp:77] Creating layer inception_5a/relu_pool_proj
I0224 09:37:15.185662  1880 net.cpp:100] Creating Layer inception_5a/relu_pool_proj
I0224 09:37:15.185673  1880 net.cpp:434] inception_5a/relu_pool_proj <- inception_5a/pool_proj
I0224 09:37:15.185686  1880 net.cpp:395] inception_5a/relu_pool_proj -> inception_5a/pool_proj (in-place)
I0224 09:37:15.185701  1880 net.cpp:150] Setting up inception_5a/relu_pool_proj
I0224 09:37:15.185712  1880 net.cpp:157] Top shape: 48 128 7 7 (301056)
I0224 09:37:15.185721  1880 net.cpp:165] Memory required for data: 2611670792
I0224 09:37:15.185730  1880 layer_factory.hpp:77] Creating layer inception_5a/output
I0224 09:37:15.185745  1880 net.cpp:100] Creating Layer inception_5a/output
I0224 09:37:15.185755  1880 net.cpp:434] inception_5a/output <- inception_5a/1x1
I0224 09:37:15.185765  1880 net.cpp:434] inception_5a/output <- inception_5a/3x3
I0224 09:37:15.185776  1880 net.cpp:434] inception_5a/output <- inception_5a/5x5
I0224 09:37:15.185786  1880 net.cpp:434] inception_5a/output <- inception_5a/pool_proj
I0224 09:37:15.185799  1880 net.cpp:408] inception_5a/output -> inception_5a/output
I0224 09:37:15.185816  1880 net.cpp:150] Setting up inception_5a/output
I0224 09:37:15.185827  1880 net.cpp:157] Top shape: 48 832 7 7 (1956864)
I0224 09:37:15.185837  1880 net.cpp:165] Memory required for data: 2619498248
I0224 09:37:15.185844  1880 layer_factory.hpp:77] Creating layer inception_5a/output_inception_5a/output_0_split
I0224 09:37:15.185858  1880 net.cpp:100] Creating Layer inception_5a/output_inception_5a/output_0_split
I0224 09:37:15.185866  1880 net.cpp:434] inception_5a/output_inception_5a/output_0_split <- inception_5a/output
I0224 09:37:15.185883  1880 net.cpp:408] inception_5a/output_inception_5a/output_0_split -> inception_5a/output_inception_5a/output_0_split_0
I0224 09:37:15.185897  1880 net.cpp:408] inception_5a/output_inception_5a/output_0_split -> inception_5a/output_inception_5a/output_0_split_1
I0224 09:37:15.185912  1880 net.cpp:408] inception_5a/output_inception_5a/output_0_split -> inception_5a/output_inception_5a/output_0_split_2
I0224 09:37:15.185926  1880 net.cpp:408] inception_5a/output_inception_5a/output_0_split -> inception_5a/output_inception_5a/output_0_split_3
I0224 09:37:15.185943  1880 net.cpp:150] Setting up inception_5a/output_inception_5a/output_0_split
I0224 09:37:15.185956  1880 net.cpp:157] Top shape: 48 832 7 7 (1956864)
I0224 09:37:15.185966  1880 net.cpp:157] Top shape: 48 832 7 7 (1956864)
I0224 09:37:15.185976  1880 net.cpp:157] Top shape: 48 832 7 7 (1956864)
I0224 09:37:15.185987  1880 net.cpp:157] Top shape: 48 832 7 7 (1956864)
I0224 09:37:15.185995  1880 net.cpp:165] Memory required for data: 2650808072
I0224 09:37:15.186004  1880 layer_factory.hpp:77] Creating layer inception_5b/1x1
I0224 09:37:15.186022  1880 net.cpp:100] Creating Layer inception_5b/1x1
I0224 09:37:15.186031  1880 net.cpp:434] inception_5b/1x1 <- inception_5a/output_inception_5a/output_0_split_0
I0224 09:37:15.186044  1880 net.cpp:408] inception_5b/1x1 -> inception_5b/1x1
I0224 09:37:15.191694  1880 net.cpp:150] Setting up inception_5b/1x1
I0224 09:37:15.191743  1880 net.cpp:157] Top shape: 48 384 7 7 (903168)
I0224 09:37:15.191752  1880 net.cpp:165] Memory required for data: 2654420744
I0224 09:37:15.191767  1880 layer_factory.hpp:77] Creating layer inception_5b/relu_1x1
I0224 09:37:15.191781  1880 net.cpp:100] Creating Layer inception_5b/relu_1x1
I0224 09:37:15.191792  1880 net.cpp:434] inception_5b/relu_1x1 <- inception_5b/1x1
I0224 09:37:15.191807  1880 net.cpp:395] inception_5b/relu_1x1 -> inception_5b/1x1 (in-place)
I0224 09:37:15.191823  1880 net.cpp:150] Setting up inception_5b/relu_1x1
I0224 09:37:15.191834  1880 net.cpp:157] Top shape: 48 384 7 7 (903168)
I0224 09:37:15.191843  1880 net.cpp:165] Memory required for data: 2658033416
I0224 09:37:15.191851  1880 layer_factory.hpp:77] Creating layer inception_5b/3x3_reduce
I0224 09:37:15.191866  1880 net.cpp:100] Creating Layer inception_5b/3x3_reduce
I0224 09:37:15.191877  1880 net.cpp:434] inception_5b/3x3_reduce <- inception_5a/output_inception_5a/output_0_split_1
I0224 09:37:15.191890  1880 net.cpp:408] inception_5b/3x3_reduce -> inception_5b/3x3_reduce
I0224 09:37:15.194736  1880 net.cpp:150] Setting up inception_5b/3x3_reduce
I0224 09:37:15.194766  1880 net.cpp:157] Top shape: 48 192 7 7 (451584)
I0224 09:37:15.194774  1880 net.cpp:165] Memory required for data: 2659839752
I0224 09:37:15.194789  1880 layer_factory.hpp:77] Creating layer inception_5b/relu_3x3_reduce
I0224 09:37:15.194805  1880 net.cpp:100] Creating Layer inception_5b/relu_3x3_reduce
I0224 09:37:15.194816  1880 net.cpp:434] inception_5b/relu_3x3_reduce <- inception_5b/3x3_reduce
I0224 09:37:15.194828  1880 net.cpp:395] inception_5b/relu_3x3_reduce -> inception_5b/3x3_reduce (in-place)
I0224 09:37:15.194844  1880 net.cpp:150] Setting up inception_5b/relu_3x3_reduce
I0224 09:37:15.194854  1880 net.cpp:157] Top shape: 48 192 7 7 (451584)
I0224 09:37:15.194862  1880 net.cpp:165] Memory required for data: 2661646088
I0224 09:37:15.194871  1880 layer_factory.hpp:77] Creating layer inception_5b/3x3
I0224 09:37:15.194886  1880 net.cpp:100] Creating Layer inception_5b/3x3
I0224 09:37:15.194895  1880 net.cpp:434] inception_5b/3x3 <- inception_5b/3x3_reduce
I0224 09:37:15.194911  1880 net.cpp:408] inception_5b/3x3 -> inception_5b/3x3
I0224 09:37:15.206841  1880 net.cpp:150] Setting up inception_5b/3x3
I0224 09:37:15.206881  1880 net.cpp:157] Top shape: 48 384 7 7 (903168)
I0224 09:37:15.206892  1880 net.cpp:165] Memory required for data: 2665258760
I0224 09:37:15.206907  1880 layer_factory.hpp:77] Creating layer inception_5b/relu_3x3
I0224 09:37:15.206923  1880 net.cpp:100] Creating Layer inception_5b/relu_3x3
I0224 09:37:15.206933  1880 net.cpp:434] inception_5b/relu_3x3 <- inception_5b/3x3
I0224 09:37:15.206946  1880 net.cpp:395] inception_5b/relu_3x3 -> inception_5b/3x3 (in-place)
I0224 09:37:15.206964  1880 net.cpp:150] Setting up inception_5b/relu_3x3
I0224 09:37:15.206974  1880 net.cpp:157] Top shape: 48 384 7 7 (903168)
I0224 09:37:15.206982  1880 net.cpp:165] Memory required for data: 2668871432
I0224 09:37:15.206991  1880 layer_factory.hpp:77] Creating layer inception_5b/5x5_reduce
I0224 09:37:15.207007  1880 net.cpp:100] Creating Layer inception_5b/5x5_reduce
I0224 09:37:15.207018  1880 net.cpp:434] inception_5b/5x5_reduce <- inception_5a/output_inception_5a/output_0_split_2
I0224 09:37:15.207034  1880 net.cpp:408] inception_5b/5x5_reduce -> inception_5b/5x5_reduce
I0224 09:37:15.207767  1880 net.cpp:150] Setting up inception_5b/5x5_reduce
I0224 09:37:15.207782  1880 net.cpp:157] Top shape: 48 48 7 7 (112896)
I0224 09:37:15.207789  1880 net.cpp:165] Memory required for data: 2669323016
I0224 09:37:15.207803  1880 layer_factory.hpp:77] Creating layer inception_5b/relu_5x5_reduce
I0224 09:37:15.207813  1880 net.cpp:100] Creating Layer inception_5b/relu_5x5_reduce
I0224 09:37:15.207823  1880 net.cpp:434] inception_5b/relu_5x5_reduce <- inception_5b/5x5_reduce
I0224 09:37:15.207837  1880 net.cpp:395] inception_5b/relu_5x5_reduce -> inception_5b/5x5_reduce (in-place)
I0224 09:37:15.207851  1880 net.cpp:150] Setting up inception_5b/relu_5x5_reduce
I0224 09:37:15.207888  1880 net.cpp:157] Top shape: 48 48 7 7 (112896)
I0224 09:37:15.207897  1880 net.cpp:165] Memory required for data: 2669774600
I0224 09:37:15.207906  1880 layer_factory.hpp:77] Creating layer inception_5b/5x5
I0224 09:37:15.207923  1880 net.cpp:100] Creating Layer inception_5b/5x5
I0224 09:37:15.207933  1880 net.cpp:434] inception_5b/5x5 <- inception_5b/5x5_reduce
I0224 09:37:15.207947  1880 net.cpp:408] inception_5b/5x5 -> inception_5b/5x5
I0224 09:37:15.210677  1880 net.cpp:150] Setting up inception_5b/5x5
I0224 09:37:15.210706  1880 net.cpp:157] Top shape: 48 128 7 7 (301056)
I0224 09:37:15.210714  1880 net.cpp:165] Memory required for data: 2670978824
I0224 09:37:15.210729  1880 layer_factory.hpp:77] Creating layer inception_5b/relu_5x5
I0224 09:37:15.210746  1880 net.cpp:100] Creating Layer inception_5b/relu_5x5
I0224 09:37:15.210757  1880 net.cpp:434] inception_5b/relu_5x5 <- inception_5b/5x5
I0224 09:37:15.210769  1880 net.cpp:395] inception_5b/relu_5x5 -> inception_5b/5x5 (in-place)
I0224 09:37:15.210783  1880 net.cpp:150] Setting up inception_5b/relu_5x5
I0224 09:37:15.210794  1880 net.cpp:157] Top shape: 48 128 7 7 (301056)
I0224 09:37:15.210803  1880 net.cpp:165] Memory required for data: 2672183048
I0224 09:37:15.210811  1880 layer_factory.hpp:77] Creating layer inception_5b/pool
I0224 09:37:15.210824  1880 net.cpp:100] Creating Layer inception_5b/pool
I0224 09:37:15.210834  1880 net.cpp:434] inception_5b/pool <- inception_5a/output_inception_5a/output_0_split_3
I0224 09:37:15.210850  1880 net.cpp:408] inception_5b/pool -> inception_5b/pool
I0224 09:37:15.210868  1880 net.cpp:150] Setting up inception_5b/pool
I0224 09:37:15.210880  1880 net.cpp:157] Top shape: 48 832 7 7 (1956864)
I0224 09:37:15.210888  1880 net.cpp:165] Memory required for data: 2680010504
I0224 09:37:15.210897  1880 layer_factory.hpp:77] Creating layer inception_5b/pool_proj
I0224 09:37:15.210914  1880 net.cpp:100] Creating Layer inception_5b/pool_proj
I0224 09:37:15.210924  1880 net.cpp:434] inception_5b/pool_proj <- inception_5b/pool
I0224 09:37:15.210940  1880 net.cpp:408] inception_5b/pool_proj -> inception_5b/pool_proj
I0224 09:37:15.212852  1880 net.cpp:150] Setting up inception_5b/pool_proj
I0224 09:37:15.212877  1880 net.cpp:157] Top shape: 48 128 7 7 (301056)
I0224 09:37:15.212885  1880 net.cpp:165] Memory required for data: 2681214728
I0224 09:37:15.212899  1880 layer_factory.hpp:77] Creating layer inception_5b/relu_pool_proj
I0224 09:37:15.212915  1880 net.cpp:100] Creating Layer inception_5b/relu_pool_proj
I0224 09:37:15.212926  1880 net.cpp:434] inception_5b/relu_pool_proj <- inception_5b/pool_proj
I0224 09:37:15.212939  1880 net.cpp:395] inception_5b/relu_pool_proj -> inception_5b/pool_proj (in-place)
I0224 09:37:15.212956  1880 net.cpp:150] Setting up inception_5b/relu_pool_proj
I0224 09:37:15.212967  1880 net.cpp:157] Top shape: 48 128 7 7 (301056)
I0224 09:37:15.212976  1880 net.cpp:165] Memory required for data: 2682418952
I0224 09:37:15.212985  1880 layer_factory.hpp:77] Creating layer inception_5b/output
I0224 09:37:15.212997  1880 net.cpp:100] Creating Layer inception_5b/output
I0224 09:37:15.213006  1880 net.cpp:434] inception_5b/output <- inception_5b/1x1
I0224 09:37:15.213017  1880 net.cpp:434] inception_5b/output <- inception_5b/3x3
I0224 09:37:15.213028  1880 net.cpp:434] inception_5b/output <- inception_5b/5x5
I0224 09:37:15.213038  1880 net.cpp:434] inception_5b/output <- inception_5b/pool_proj
I0224 09:37:15.213050  1880 net.cpp:408] inception_5b/output -> inception_5b/output
I0224 09:37:15.213066  1880 net.cpp:150] Setting up inception_5b/output
I0224 09:37:15.213078  1880 net.cpp:157] Top shape: 48 1024 7 7 (2408448)
I0224 09:37:15.213086  1880 net.cpp:165] Memory required for data: 2692052744
I0224 09:37:15.213095  1880 layer_factory.hpp:77] Creating layer pool5/7x7_s1
I0224 09:37:15.213106  1880 net.cpp:100] Creating Layer pool5/7x7_s1
I0224 09:37:15.213115  1880 net.cpp:434] pool5/7x7_s1 <- inception_5b/output
I0224 09:37:15.213141  1880 net.cpp:408] pool5/7x7_s1 -> pool5/7x7_s1
I0224 09:37:15.213170  1880 net.cpp:150] Setting up pool5/7x7_s1
I0224 09:37:15.213181  1880 net.cpp:157] Top shape: 48 1024 1 1 (49152)
I0224 09:37:15.213191  1880 net.cpp:165] Memory required for data: 2692249352
I0224 09:37:15.213198  1880 layer_factory.hpp:77] Creating layer pool5/drop_7x7_s1
I0224 09:37:15.213215  1880 net.cpp:100] Creating Layer pool5/drop_7x7_s1
I0224 09:37:15.213225  1880 net.cpp:434] pool5/drop_7x7_s1 <- pool5/7x7_s1
I0224 09:37:15.213237  1880 net.cpp:395] pool5/drop_7x7_s1 -> pool5/7x7_s1 (in-place)
I0224 09:37:15.213259  1880 net.cpp:150] Setting up pool5/drop_7x7_s1
I0224 09:37:15.213271  1880 net.cpp:157] Top shape: 48 1024 1 1 (49152)
I0224 09:37:15.213279  1880 net.cpp:165] Memory required for data: 2692445960
I0224 09:37:15.213289  1880 layer_factory.hpp:77] Creating layer loss3/classifier
I0224 09:37:15.213306  1880 net.cpp:100] Creating Layer loss3/classifier
I0224 09:37:15.213315  1880 net.cpp:434] loss3/classifier <- pool5/7x7_s1
I0224 09:37:15.213328  1880 net.cpp:408] loss3/classifier -> loss3/classifier
I0224 09:37:15.231220  1880 net.cpp:150] Setting up loss3/classifier
I0224 09:37:15.231268  1880 net.cpp:157] Top shape: 48 1000 (48000)
I0224 09:37:15.231279  1880 net.cpp:165] Memory required for data: 2692637960
I0224 09:37:15.231297  1880 layer_factory.hpp:77] Creating layer loss3/loss3
I0224 09:37:15.231312  1880 net.cpp:100] Creating Layer loss3/loss3
I0224 09:37:15.231323  1880 net.cpp:434] loss3/loss3 <- loss3/classifier
I0224 09:37:15.231335  1880 net.cpp:434] loss3/loss3 <- label_data_1_split_2
I0224 09:37:15.231351  1880 net.cpp:408] loss3/loss3 -> loss3/loss3
…
I0224 09:37:15.244482  1880 net.cpp:322] The NetState phase (1) differed from the phase (0) specified by a rule in layer data
I0224 09:37:15.250151  1880 net.cpp:58] Initializing net from parameters: 
name: "GoogleNet"
state {
  phase: TEST
}
layer {
  name: "data"
  type: "Data"
  top: "data"
  top: "label"
  include {
    phase: TEST
  }
  transform_param {
    mirror: false
    crop_size: 224
    mean_value: 104
    mean_value: 117
    mean_value: 123
  }
  data_param {
    source: "/home/user/user/LIBRARIES/caffeLibs/caffe/examples/imagenet/ilsvrc12_val_lmdb"
    batch_size: 50
    backend: LMDB
  }
}
layer {
  name: "conv1/7x7_s2"
  type: "Convolution"
  bottom: "data"
  top: "conv1/7x7_s2"
  param {
    lr_mult: 1
    decay_mult: 1
  }
  param {
    lr_mult: 2
    decay_mult: 0
  }
  convolution_param {
    num_output: 64
    pad: 3
    kernel_size: 7
    stride: 2
    weight_filler {
      type: "xavier"
    }
    bias_filler {
      type: "constant"
      value: 0.2
    }
  }
}
layer {
  name: "conv1/relu_7x7"
  type: "ReLU"
  bottom: "conv1/7x7_s2"
  top: "conv1/7x7_s2"
}
layer {
  name: "pool1/3x3_s2"
  type: "Pooling"
  bottom: "conv1/7x7_s2"
  top: "pool1/3x3_s2"
  pooling_param {
    pool: MAX
    kernel_size: 3
    stride: 2
  }
}
layer {
  name: "pool1/norm1"
  type: "LRN"
  bottom: "pool1/3x3_s2"
  top: "pool1/norm1"
  lrn_param {
    local_size: 5
    alpha: 0.0001
    beta: 0.75
  }
}
layer {
  name: "conv2/3x3_reduce"
  type: "Convolution"
  bottom: "pool1/norm1"
  top: "conv2/3x3_reduce"
  param {
    lr_mult: 1
    decay_mult: 1
  }
  param {
    lr_mult: 2
    decay_mult: 0
  }
  convolution_param {
    num_output: 64
    kernel_size: 1
    weight_filler {
      type: "xavier"
    }
    bias_filler {
      type: "constant"
      value: 0.2
    }
  }
}
layer {
  name: "conv2/relu_3x3_reduce"
  type: "ReLU"
  bottom: "conv2/3x3_reduce"
  top: "conv2/3x3_reduce"
}
layer {
  name: "conv2/3x3"
  type: "Convolution"
  bottom: "conv2/3x3_reduce"
  top: "conv2/3x3"
  param {
    lr_mult: 1
    decay_mult: 1
  }
  param {
    lr_mult: 2
    decay_mult: 0
  }
  convolution_param {
    num_output: 192
    pad: 1
    kernel_size: 3
    weight_filler {
      type: "xavier"
    }
    bias_filler {
      type: "constant"
      value: 0.2
    }
  }
}
layer {
  name: "conv2/relu_3x3"
  type: "ReLU"
  bottom: "conv2/3x3"
  top: "conv2/3x3"
}
layer {
  name: "conv2/norm2"
  type: "LRN"
  bottom: "conv2/3x3"
  top: "conv2/norm2"
  lrn_param {
    local_size: 5
    alpha: 0.0001
    beta: 0.75
  }
}
layer {
  name: "pool2/3x3_s2"
  type: "Pooling"
  bottom: "conv2/norm2"
  top: "pool2/3x3_s2"
  pooling_param {
    pool: MAX
    kernel_size: 3
    stride: 2
  }
}
layer {
  name: "inception_3a/1x1"
  type: "Convolution"
  bottom: "pool2/3x3_s2"
  top: "inception_3a/1x1"
  param {
    lr_mult: 1
    decay_mult: 1
  }
  param {
    lr_mult: 2
    decay_mult: 0
  }
  convolution_param {
    num_output: 64
    kernel_size: 1
    weight_filler {
      type: "xavier"
    }
    bias_filler {
      type: "constant"
      value: 0.2
    }
  }
}
layer {
  name: "inception_3a/relu_1x1"
  type: "ReLU"
  bottom: "inception_3a/1x1"
  top: "inception_3a/1x1"
}
layer {
  name: "inception_3a/3x3_reduce"
  type: "Convolution"
  bottom: "pool2/3x3_s2"
  top: "inception_3a/3x3_reduce"
  param {
    lr_mult: 1
    decay_mult: 1
  }
  param {
    lr_mult: 2
    decay_mult: 0
  }
  convolution_param {
    num_output: 96
    kernel_size: 1
    weight_filler {
      type: "xavier"
    }
    bias_filler {
      type: "constant"
      value: 0.2
    }
  }
}
layer {
  name: "inception_3a/relu_3x3_reduce"
  type: "ReLU"
  bottom: "inception_3a/3x3_reduce"
  top: "inception_3a/3x3_reduce"
}
layer {
  name: "inception_3a/3x3"
  type: "Convolution"
  bottom: "inception_3a/3x3_reduce"
  top: "inception_3a/3x3"
  param {
    lr_mult: 1
    decay_mult: 1
  }
  param {
    lr_mult: 2
    decay_mult: 0
  }
  convolution_param {
    num_output: 128
    pad: 1
    kernel_size: 3
    weight_filler {
      type: "xavier"
    }
    bias_filler {
      type: "constant"
      value: 0.2
    }
  }
}
layer {
  name: "inception_3a/relu_3x3"
  type: "ReLU"
  bottom: "inception_3a/3x3"
  top: "inception_3a/3x3"
}
layer {
  name: "inception_3a/5x5_reduce"
  type: "Convolution"
  bottom: "pool2/3x3_s2"
  top: "inception_3a/5x5_reduce"
  param {
    lr_mult: 1
    decay_mult: 1
  }
  param {
    lr_mult: 2
    decay_mult: 0
  }
  convolution_param {
    num_output: 16
    kernel_size: 1
    weight_filler {
      type: "xavier"
    }
    bias_filler {
      type: "constant"
      value: 0.2
    }
  }
}
layer {
  name: "inception_3a/relu_5x5_reduce"
  type: "ReLU"
  bottom: "inception_3a/5x5_reduce"
  top: "inception_3a/5x5_reduce"
}
layer {
  name: "inception_3a/5x5"
  type: "Convolution"
  bottom: "inception_3a/5x5_reduce"
  top: "inception_3a/5x5"
  param {
    lr_mult: 1
    decay_mult: 1
  }
  param {
    lr_mult: 2
    decay_mult: 0
  }
  convolution_param {
    num_output: 32
    pad: 2
    kernel_size: 5
    weight_filler {
      type: "xavier"
    }
    bias_filler {
      type: "constant"
      value: 0.2
    }
  }
}
layer {
  name: "inception_3a/relu_5x5"
  type: "ReLU"
  bottom: "inception_3a/5x5"
  top: "inception_3a/5x5"
}
layer {
  name: "inception_3a/pool"
  type: "Pooling"
  bottom: "pool2/3x3_s2"
  top: "inception_3a/pool"
  pooling_param {
    pool: MAX
    kernel_size: 3
    stride: 1
    pad: 1
  }
}
layer {
  name: "inception_3a/pool_proj"
  type: "Convolution"
  bottom: "inception_3a/pool"
  top: "inception_3a/pool_proj"
  param {
    lr_mult: 1
    decay_mult: 1
  }
  param {
    lr_mult: 2
    decay_mult: 0
  }
  convolution_param {
    num_output: 32
    kernel_size: 1
    weight_filler {
      type: "xavier"
    }
    bias_filler {
      type: "constant"
      value: 0.2
    }
  }
}
layer {
  name: "inception_3a/relu_pool_proj"
  type: "ReLU"
  bottom: "inception_3a/pool_proj"
  top: "inception_3a/pool_proj"
}
layer {
  name: "inception_3a/output"
  type: "Concat"
  bottom: "inception_3a/1x1"
  bottom: "inception_3a/3x3"
  bottom: "inception_3a/5x5"
  bottom: "inception_3a/pool_proj"
  top: "inception_3a/output"
}
layer {
  name: "inception_3b/1x1"
  type: "Convolution"
  bottom: "inception_3a/output"
  top: "inception_3b/1x1"
  param {
    lr_mult: 1
    decay_mult: 1
  }
  param {
    lr_mult: 2
    decay_mult: 0
  }
  convolution_param {
    num_output: 128
    kernel_size: 1
    weight_filler {
      type: "xavier"
    }
    bias_filler {
      type: "constant"
      value: 0.2
    }
  }
}
layer {
  name: "inception_3b/relu_1x1"
  type: "ReLU"
  bottom: "inception_3b/1x1"
  top: "inception_3b/1x1"
}
layer {
  name: "inception_3b/3x3_reduce"
  type: "Convolution"
  bottom: "inception_3a/output"
  top: "inception_3b/3x3_reduce"
  param {
    lr_mult: 1
    decay_mult: 1
  }
  param {
    lr_mult: 2
    decay_mult: 0
  }
  convolution_param {
    num_output: 128
    kernel_size: 1
    weight_filler {
      type: "xavier"
    }
    bias_filler {
      type: "constant"
      value: 0.2
    }
  }
}
layer {
  name: "inception_3b/relu_3x3_reduce"
  type: "ReLU"
  bottom: "inception_3b/3x3_reduce"
  top: "inception_3b/3x3_reduce"
}
layer {
  name: "inception_3b/3x3"
  type: "Convolution"
  bottom: "inception_3b/3x3_reduce"
  top: "inception_3b/3x3"
  param {
    lr_mult: 1
    decay_mult: 1
  }
  param {
    lr_mult: 2
    decay_mult: 0
  }
  convolution_param {
    num_output: 192
    pad: 1
    kernel_size: 3
    weight_filler {
      type: "xavier"
    }
    bias_filler {
      type: "constant"
      value: 0.2
    }
  }
}
layer {
  name: "inception_3b/relu_3x3"
  type: "ReLU"
  bottom: "inception_3b/3x3"
  top: "inception_3b/3x3"
}
layer {
  name: "inception_3b/5x5_reduce"
  type: "Convolution"
  bottom: "inception_3a/output"
  top: "inception_3b/5x5_reduce"
  param {
    lr_mult: 1
    decay_mult: 1
  }
  param {
    lr_mult: 2
    decay_mult: 0
  }
  convolution_param {
    num_output: 32
    kernel_size: 1
    weight_filler {
      type: "xavier"
    }
    bias_filler {
      type: "constant"
      value: 0.2
    }
  }
}
layer {
  name: "inception_3b/relu_5x5_reduce"
  type: "ReLU"
  bottom: "inception_3b/5x5_reduce"
  top: "inception_3b/5x5_reduce"
}
layer {
  name: "inception_3b/5x5"
  type: "Convolution"
  bottom: "inception_3b/5x5_reduce"
  top: "inception_3b/5x5"
  param {
    lr_mult: 1
    decay_mult: 1
  }
  param {
    lr_mult: 2
    decay_mult: 0
  }
  convolution_param {
    num_output: 96
    pad: 2
    kernel_size: 5
    weight_filler {
      type: "xavier"
    }
    bias_filler {
      type: "constant"
      value: 0.2
    }
  }
}
layer {
  name: "inception_3b/relu_5x5"
  type: "ReLU"
  bottom: "inception_3b/5x5"
  top: "inception_3b/5x5"
}
layer {
  name: "inception_3b/pool"
  type: "Pooling"
  bottom: "inception_3a/output"
  top: "inception_3b/pool"
  pooling_param {
    pool: MAX
    kernel_size: 3
    stride: 1
    pad: 1
  }
}
layer {
  name: "inception_3b/pool_proj"
  type: "Convolution"
  bottom: "inception_3b/pool"
  top: "inception_3b/pool_proj"
  param {
    lr_mult: 1
    decay_mult: 1
  }
  param {
    lr_mult: 2
    decay_mult: 0
  }
  convolution_param {
    num_output: 64
    kernel_size: 1
    weight_filler {
      type: "xavier"
    }
    bias_filler {
      type: "constant"
      value: 0.2
    }
  }
}
layer {
  name: "inception_3b/relu_pool_proj"
  type: "ReLU"
  bottom: "inception_3b/pool_proj"
  top: "inception_3b/pool_proj"
}
layer {
  name: "inception_3b/output"
  type: "Concat"
  bottom: "inception_3b/1x1"
  bottom: "inception_3b/3x3"
  bottom: "inception_3b/5x5"
  bottom: "inception_3b/pool_proj"
  top: "inception_3b/output"
}
layer {
  name: "pool3/3x3_s2"
  type: "Pooling"
  bottom: "inception_3b/output"
  top: "pool3/3x3_s2"
  pooling_param {
    pool: MAX
    kernel_size: 3
    stride: 2
  }
}
layer {
  name: "inception_4a/1x1"
  type: "Convolution"
  bottom: "pool3/3x3_s2"
  top: "inception_4a/1x1"
  param {
    lr_mult: 1
    decay_mult: 1
  }
  param {
    lr_mult: 2
    decay_mult: 0
  }
  convolution_param {
    num_output: 192
    kernel_size: 1
    weight_filler {
      type: "xavier"
    }
    bias_filler {
      type: "constant"
      value: 0.2
    }
  }
}
layer {
  name: "inception_4a/relu_1x1"
  type: "ReLU"
  bottom: "inception_4a/1x1"
  top: "inception_4a/1x1"
}
layer {
  name: "inception_4a/3x3_reduce"
  type: "Convolution"
  bottom: "pool3/3x3_s2"
  top: "inception_4a/3x3_reduce"
  param {
    lr_mult: 1
    decay_mult: 1
  }
  param {
    lr_mult: 2
    decay_mult: 0
  }
  convolution_param {
    num_output: 96
    kernel_size: 1
    weight_filler {
      type: "xavier"
    }
    bias_filler {
      type: "constant"
      value: 0.2
    }
  }
}
layer {
  name: "inception_4a/relu_3x3_reduce"
  type: "ReLU"
  bottom: "inception_4a/3x3_reduce"
  top: "inception_4a/3x3_reduce"
}
layer {
  name: "inception_4a/3x3"
  type: "Convolution"
  bottom: "inception_4a/3x3_reduce"
  top: "inception_4a/3x3"
  param {
    lr_mult: 1
    decay_mult: 1
  }
  param {
    lr_mult: 2
    decay_mult: 0
  }
  convolution_param {
    num_output: 208
    pad: 1
    kernel_size: 3
    weight_filler {
      type: "xavier"
    }
    bias_filler {
      type: "constant"
      value: 0.2
    }
  }
}
layer {
  name: "inception_4a/relu_3x3"
  type: "ReLU"
  bottom: "inception_4a/3x3"
  top: "inception_4a/3x3"
}
layer {
  name: "inception_4a/5x5_reduce"
  type: "Convolution"
  bottom: "pool3/3x3_s2"
  top: "inception_4a/5x5_reduce"
  param {
    lr_mult: 1
    decay_mult: 1
  }
  param {
    lr_mult: 2
    decay_mult: 0
  }
  convolution_param {
    num_output: 16
    kernel_size: 1
    weight_filler {
      type: "xavier"
    }
    bias_filler {
      type: "constant"
      value: 0.2
    }
  }
}
layer {
  name: "inception_4a/relu_5x5_reduce"
  type: "ReLU"
  bottom: "inception_4a/5x5_reduce"
  top: "inception_4a/5x5_reduce"
}
layer {
  name: "inception_4a/5x5"
  type: "Convolution"
  bottom: "inception_4a/5x5_reduce"
  top: "inception_4a/5x5"
  param {
    lr_mult: 1
    decay_mult: 1
  }
  param {
    lr_mult: 2
    decay_mult: 0
  }
  convolution_param {
    num_output: 48
    pad: 2
    kernel_size: 5
    weight_filler {
      type: "xavier"
    }
    bias_filler {
      type: "constant"
      value: 0.2
    }
  }
}
layer {
  name: "inception_4a/relu_5x5"
  type: "ReLU"
  bottom: "inception_4a/5x5"
  top: "inception_4a/5x5"
}
layer {
  name: "inception_4a/pool"
  type: "Pooling"
  bottom: "pool3/3x3_s2"
  top: "inception_4a/pool"
  pooling_param {
    pool: MAX
    kernel_size: 3
    stride: 1
    pad: 1
  }
}
layer {
  name: "inception_4a/pool_proj"
  type: "Convolution"
  bottom: "inception_4a/pool"
  top: "inception_4a/pool_proj"
  param {
    lr_mult: 1
    decay_mult: 1
  }
  param {
    lr_mult: 2
    decay_mult: 0
  }
  convolution_param {
    num_output: 64
    kernel_size: 1
    weight_filler {
      type: "xavier"
    }
    bias_filler {
      type: "constant"
      value: 0.2
    }
  }
}
layer {
  name: "inception_4a/relu_pool_proj"
  type: "ReLU"
  bottom: "inception_4a/pool_proj"
  top: "inception_4a/pool_proj"
}
layer {
  name: "inception_4a/output"
  type: "Concat"
  bottom: "inception_4a/1x1"
  bottom: "inception_4a/3x3"
  bottom: "inception_4a/5x5"
  bottom: "inception_4a/pool_proj"
  top: "inception_4a/output"
}
layer {
  name: "loss1/ave_pool"
  type: "Pooling"
  bottom: "inception_4a/output"
  top: "loss1/ave_pool"
  pooling_param {
    pool: AVE
    kernel_size: 5
    stride: 3
  }
}
layer {
  name: "loss1/conv"
  type: "Convolution"
  bottom: "loss1/ave_pool"
  top: "loss1/conv"
  param {
    lr_mult: 1
    decay_mult: 1
  }
  param {
    lr_mult: 2
    decay_mult: 0
  }
  convolution_param {
    num_output: 128
    kernel_size: 1
    weight_filler {
      type: "xavier"
    }
    bias_filler {
      type: "constant"
      value: 0.2
    }
  }
}
layer {
  name: "loss1/relu_conv"
  type: "ReLU"
  bottom: "loss1/conv"
  top: "loss1/conv"
}
layer {
  name: "loss1/fc"
  type: "InnerProduct"
  bottom: "loss1/conv"
  top: "loss1/fc"
  param {
    lr_mult: 1
    decay_mult: 1
  }
  param {
    lr_mult: 2
    decay_mult: 0
  }
  inner_product_param {
    num_output: 1024
    weight_filler {
      type: "xavier"
    }
    bias_filler {
      type: "constant"
      value: 0.2
    }
  }
}
layer {
  name: "loss1/relu_fc"
  type: "ReLU"
  bottom: "loss1/fc"
  top: "loss1/fc"
}
layer {
  name: "loss1/drop_fc"
  type: "Dropout"
  bottom: "loss1/fc"
  top: "loss1/fc"
…
I0224 09:37:15.411314  1880 net.cpp:165] Memory required for data: 2190293212
I0224 09:37:15.411322  1880 layer_factory.hpp:77] Creating layer inception_4c/pool
I0224 09:37:15.411334  1880 net.cpp:100] Creating Layer inception_4c/pool
I0224 09:37:15.411345  1880 net.cpp:434] inception_4c/pool <- inception_4b/output_inception_4b/output_0_split_3
I0224 09:37:15.411360  1880 net.cpp:408] inception_4c/pool -> inception_4c/pool
I0224 09:37:15.411378  1880 net.cpp:150] Setting up inception_4c/pool
I0224 09:37:15.411391  1880 net.cpp:157] Top shape: 50 512 14 14 (5017600)
I0224 09:37:15.411398  1880 net.cpp:165] Memory required for data: 2210363612
I0224 09:37:15.411407  1880 layer_factory.hpp:77] Creating layer inception_4c/pool_proj
I0224 09:37:15.411425  1880 net.cpp:100] Creating Layer inception_4c/pool_proj
I0224 09:37:15.411435  1880 net.cpp:434] inception_4c/pool_proj <- inception_4c/pool
I0224 09:37:15.411448  1880 net.cpp:408] inception_4c/pool_proj -> inception_4c/pool_proj
I0224 09:37:15.412070  1880 net.cpp:150] Setting up inception_4c/pool_proj
I0224 09:37:15.412087  1880 net.cpp:157] Top shape: 50 64 14 14 (627200)
I0224 09:37:15.412096  1880 net.cpp:165] Memory required for data: 2212872412
I0224 09:37:15.412109  1880 layer_factory.hpp:77] Creating layer inception_4c/relu_pool_proj
I0224 09:37:15.412122  1880 net.cpp:100] Creating Layer inception_4c/relu_pool_proj
I0224 09:37:15.412132  1880 net.cpp:434] inception_4c/relu_pool_proj <- inception_4c/pool_proj
I0224 09:37:15.412142  1880 net.cpp:395] inception_4c/relu_pool_proj -> inception_4c/pool_proj (in-place)
I0224 09:37:15.412156  1880 net.cpp:150] Setting up inception_4c/relu_pool_proj
I0224 09:37:15.412168  1880 net.cpp:157] Top shape: 50 64 14 14 (627200)
I0224 09:37:15.412175  1880 net.cpp:165] Memory required for data: 2215381212
I0224 09:37:15.412185  1880 layer_factory.hpp:77] Creating layer inception_4c/output
I0224 09:37:15.412196  1880 net.cpp:100] Creating Layer inception_4c/output
I0224 09:37:15.412206  1880 net.cpp:434] inception_4c/output <- inception_4c/1x1
I0224 09:37:15.412217  1880 net.cpp:434] inception_4c/output <- inception_4c/3x3
I0224 09:37:15.412227  1880 net.cpp:434] inception_4c/output <- inception_4c/5x5
I0224 09:37:15.412238  1880 net.cpp:434] inception_4c/output <- inception_4c/pool_proj
I0224 09:37:15.412268  1880 net.cpp:408] inception_4c/output -> inception_4c/output
I0224 09:37:15.412297  1880 net.cpp:150] Setting up inception_4c/output
I0224 09:37:15.412308  1880 net.cpp:157] Top shape: 50 512 14 14 (5017600)
I0224 09:37:15.412317  1880 net.cpp:165] Memory required for data: 2235451612
I0224 09:37:15.412327  1880 layer_factory.hpp:77] Creating layer inception_4c/output_inception_4c/output_0_split
I0224 09:37:15.412338  1880 net.cpp:100] Creating Layer inception_4c/output_inception_4c/output_0_split
I0224 09:37:15.412348  1880 net.cpp:434] inception_4c/output_inception_4c/output_0_split <- inception_4c/output
I0224 09:37:15.412362  1880 net.cpp:408] inception_4c/output_inception_4c/output_0_split -> inception_4c/output_inception_4c/output_0_split_0
I0224 09:37:15.412377  1880 net.cpp:408] inception_4c/output_inception_4c/output_0_split -> inception_4c/output_inception_4c/output_0_split_1
I0224 09:37:15.412391  1880 net.cpp:408] inception_4c/output_inception_4c/output_0_split -> inception_4c/output_inception_4c/output_0_split_2
I0224 09:37:15.412406  1880 net.cpp:408] inception_4c/output_inception_4c/output_0_split -> inception_4c/output_inception_4c/output_0_split_3
I0224 09:37:15.412423  1880 net.cpp:150] Setting up inception_4c/output_inception_4c/output_0_split
I0224 09:37:15.412434  1880 net.cpp:157] Top shape: 50 512 14 14 (5017600)
I0224 09:37:15.412446  1880 net.cpp:157] Top shape: 50 512 14 14 (5017600)
I0224 09:37:15.412456  1880 net.cpp:157] Top shape: 50 512 14 14 (5017600)
I0224 09:37:15.412467  1880 net.cpp:157] Top shape: 50 512 14 14 (5017600)
I0224 09:37:15.412475  1880 net.cpp:165] Memory required for data: 2315733212
I0224 09:37:15.412484  1880 layer_factory.hpp:77] Creating layer inception_4d/1x1
I0224 09:37:15.412504  1880 net.cpp:100] Creating Layer inception_4d/1x1
I0224 09:37:15.412514  1880 net.cpp:434] inception_4d/1x1 <- inception_4c/output_inception_4c/output_0_split_0
I0224 09:37:15.412528  1880 net.cpp:408] inception_4d/1x1 -> inception_4d/1x1
I0224 09:37:15.413583  1880 net.cpp:150] Setting up inception_4d/1x1
I0224 09:37:15.413601  1880 net.cpp:157] Top shape: 50 112 14 14 (1097600)
I0224 09:37:15.413609  1880 net.cpp:165] Memory required for data: 2320123612
I0224 09:37:15.413625  1880 layer_factory.hpp:77] Creating layer inception_4d/relu_1x1
I0224 09:37:15.413640  1880 net.cpp:100] Creating Layer inception_4d/relu_1x1
I0224 09:37:15.413650  1880 net.cpp:434] inception_4d/relu_1x1 <- inception_4d/1x1
I0224 09:37:15.413661  1880 net.cpp:395] inception_4d/relu_1x1 -> inception_4d/1x1 (in-place)
I0224 09:37:15.413678  1880 net.cpp:150] Setting up inception_4d/relu_1x1
I0224 09:37:15.413691  1880 net.cpp:157] Top shape: 50 112 14 14 (1097600)
I0224 09:37:15.413699  1880 net.cpp:165] Memory required for data: 2324514012
I0224 09:37:15.413708  1880 layer_factory.hpp:77] Creating layer inception_4d/3x3_reduce
I0224 09:37:15.413723  1880 net.cpp:100] Creating Layer inception_4d/3x3_reduce
I0224 09:37:15.413733  1880 net.cpp:434] inception_4d/3x3_reduce <- inception_4c/output_inception_4c/output_0_split_1
I0224 09:37:15.413751  1880 net.cpp:408] inception_4d/3x3_reduce -> inception_4d/3x3_reduce
I0224 09:37:15.415110  1880 net.cpp:150] Setting up inception_4d/3x3_reduce
I0224 09:37:15.415130  1880 net.cpp:157] Top shape: 50 144 14 14 (1411200)
I0224 09:37:15.415138  1880 net.cpp:165] Memory required for data: 2330158812
I0224 09:37:15.415153  1880 layer_factory.hpp:77] Creating layer inception_4d/relu_3x3_reduce
I0224 09:37:15.415169  1880 net.cpp:100] Creating Layer inception_4d/relu_3x3_reduce
I0224 09:37:15.415179  1880 net.cpp:434] inception_4d/relu_3x3_reduce <- inception_4d/3x3_reduce
I0224 09:37:15.415191  1880 net.cpp:395] inception_4d/relu_3x3_reduce -> inception_4d/3x3_reduce (in-place)
I0224 09:37:15.415205  1880 net.cpp:150] Setting up inception_4d/relu_3x3_reduce
I0224 09:37:15.415216  1880 net.cpp:157] Top shape: 50 144 14 14 (1411200)
I0224 09:37:15.415225  1880 net.cpp:165] Memory required for data: 2335803612
I0224 09:37:15.415233  1880 layer_factory.hpp:77] Creating layer inception_4d/3x3
I0224 09:37:15.415266  1880 net.cpp:100] Creating Layer inception_4d/3x3
I0224 09:37:15.415288  1880 net.cpp:434] inception_4d/3x3 <- inception_4d/3x3_reduce
I0224 09:37:15.415302  1880 net.cpp:408] inception_4d/3x3 -> inception_4d/3x3
I0224 09:37:15.421988  1880 net.cpp:150] Setting up inception_4d/3x3
I0224 09:37:15.422019  1880 net.cpp:157] Top shape: 50 288 14 14 (2822400)
I0224 09:37:15.422029  1880 net.cpp:165] Memory required for data: 2347093212
I0224 09:37:15.422044  1880 layer_factory.hpp:77] Creating layer inception_4d/relu_3x3
I0224 09:37:15.422057  1880 net.cpp:100] Creating Layer inception_4d/relu_3x3
I0224 09:37:15.422070  1880 net.cpp:434] inception_4d/relu_3x3 <- inception_4d/3x3
I0224 09:37:15.422086  1880 net.cpp:395] inception_4d/relu_3x3 -> inception_4d/3x3 (in-place)
I0224 09:37:15.422101  1880 net.cpp:150] Setting up inception_4d/relu_3x3
I0224 09:37:15.422112  1880 net.cpp:157] Top shape: 50 288 14 14 (2822400)
I0224 09:37:15.422122  1880 net.cpp:165] Memory required for data: 2358382812
I0224 09:37:15.422129  1880 layer_factory.hpp:77] Creating layer inception_4d/5x5_reduce
I0224 09:37:15.422145  1880 net.cpp:100] Creating Layer inception_4d/5x5_reduce
I0224 09:37:15.422155  1880 net.cpp:434] inception_4d/5x5_reduce <- inception_4c/output_inception_4c/output_0_split_2
I0224 09:37:15.422169  1880 net.cpp:408] inception_4d/5x5_reduce -> inception_4d/5x5_reduce
I0224 09:37:15.422482  1880 net.cpp:150] Setting up inception_4d/5x5_reduce
I0224 09:37:15.422497  1880 net.cpp:157] Top shape: 50 32 14 14 (313600)
I0224 09:37:15.422504  1880 net.cpp:165] Memory required for data: 2359637212
I0224 09:37:15.422518  1880 layer_factory.hpp:77] Creating layer inception_4d/relu_5x5_reduce
I0224 09:37:15.422531  1880 net.cpp:100] Creating Layer inception_4d/relu_5x5_reduce
I0224 09:37:15.422541  1880 net.cpp:434] inception_4d/relu_5x5_reduce <- inception_4d/5x5_reduce
I0224 09:37:15.422552  1880 net.cpp:395] inception_4d/relu_5x5_reduce -> inception_4d/5x5_reduce (in-place)
I0224 09:37:15.422565  1880 net.cpp:150] Setting up inception_4d/relu_5x5_reduce
I0224 09:37:15.422577  1880 net.cpp:157] Top shape: 50 32 14 14 (313600)
I0224 09:37:15.422585  1880 net.cpp:165] Memory required for data: 2360891612
I0224 09:37:15.422595  1880 layer_factory.hpp:77] Creating layer inception_4d/5x5
I0224 09:37:15.422612  1880 net.cpp:100] Creating Layer inception_4d/5x5
I0224 09:37:15.422622  1880 net.cpp:434] inception_4d/5x5 <- inception_4d/5x5_reduce
I0224 09:37:15.422637  1880 net.cpp:408] inception_4d/5x5 -> inception_4d/5x5
I0224 09:37:15.423593  1880 net.cpp:150] Setting up inception_4d/5x5
I0224 09:37:15.423610  1880 net.cpp:157] Top shape: 50 64 14 14 (627200)
I0224 09:37:15.423619  1880 net.cpp:165] Memory required for data: 2363400412
I0224 09:37:15.423631  1880 layer_factory.hpp:77] Creating layer inception_4d/relu_5x5
I0224 09:37:15.423643  1880 net.cpp:100] Creating Layer inception_4d/relu_5x5
I0224 09:37:15.423653  1880 net.cpp:434] inception_4d/relu_5x5 <- inception_4d/5x5
I0224 09:37:15.423668  1880 net.cpp:395] inception_4d/relu_5x5 -> inception_4d/5x5 (in-place)
I0224 09:37:15.423682  1880 net.cpp:150] Setting up inception_4d/relu_5x5
I0224 09:37:15.423694  1880 net.cpp:157] Top shape: 50 64 14 14 (627200)
I0224 09:37:15.423702  1880 net.cpp:165] Memory required for data: 2365909212
I0224 09:37:15.423712  1880 layer_factory.hpp:77] Creating layer inception_4d/pool
I0224 09:37:15.423723  1880 net.cpp:100] Creating Layer inception_4d/pool
I0224 09:37:15.423733  1880 net.cpp:434] inception_4d/pool <- inception_4c/output_inception_4c/output_0_split_3
I0224 09:37:15.423746  1880 net.cpp:408] inception_4d/pool -> inception_4d/pool
I0224 09:37:15.423764  1880 net.cpp:150] Setting up inception_4d/pool
I0224 09:37:15.423775  1880 net.cpp:157] Top shape: 50 512 14 14 (5017600)
I0224 09:37:15.423784  1880 net.cpp:165] Memory required for data: 2385979612
I0224 09:37:15.423792  1880 layer_factory.hpp:77] Creating layer inception_4d/pool_proj
I0224 09:37:15.423812  1880 net.cpp:100] Creating Layer inception_4d/pool_proj
I0224 09:37:15.423832  1880 net.cpp:434] inception_4d/pool_proj <- inception_4d/pool
I0224 09:37:15.423861  1880 net.cpp:408] inception_4d/pool_proj -> inception_4d/pool_proj
I0224 09:37:15.424461  1880 net.cpp:150] Setting up inception_4d/pool_proj
I0224 09:37:15.424479  1880 net.cpp:157] Top shape: 50 64 14 14 (627200)
I0224 09:37:15.424486  1880 net.cpp:165] Memory required for data: 2388488412
I0224 09:37:15.424499  1880 layer_factory.hpp:77] Creating layer inception_4d/relu_pool_proj
I0224 09:37:15.424515  1880 net.cpp:100] Creating Layer inception_4d/relu_pool_proj
I0224 09:37:15.424528  1880 net.cpp:434] inception_4d/relu_pool_proj <- inception_4d/pool_proj
I0224 09:37:15.424540  1880 net.cpp:395] inception_4d/relu_pool_proj -> inception_4d/pool_proj (in-place)
I0224 09:37:15.424553  1880 net.cpp:150] Setting up inception_4d/relu_pool_proj
I0224 09:37:15.424566  1880 net.cpp:157] Top shape: 50 64 14 14 (627200)
I0224 09:37:15.424573  1880 net.cpp:165] Memory required for data: 2390997212
I0224 09:37:15.424583  1880 layer_factory.hpp:77] Creating layer inception_4d/output
I0224 09:37:15.424598  1880 net.cpp:100] Creating Layer inception_4d/output
I0224 09:37:15.424608  1880 net.cpp:434] inception_4d/output <- inception_4d/1x1
I0224 09:37:15.424618  1880 net.cpp:434] inception_4d/output <- inception_4d/3x3
I0224 09:37:15.424629  1880 net.cpp:434] inception_4d/output <- inception_4d/5x5
I0224 09:37:15.424639  1880 net.cpp:434] inception_4d/output <- inception_4d/pool_proj
I0224 09:37:15.424651  1880 net.cpp:408] inception_4d/output -> inception_4d/output
I0224 09:37:15.424669  1880 net.cpp:150] Setting up inception_4d/output
I0224 09:37:15.424680  1880 net.cpp:157] Top shape: 50 528 14 14 (5174400)
I0224 09:37:15.424688  1880 net.cpp:165] Memory required for data: 2411694812
I0224 09:37:15.424697  1880 layer_factory.hpp:77] Creating layer inception_4d/output_inception_4d/output_0_split
I0224 09:37:15.424711  1880 net.cpp:100] Creating Layer inception_4d/output_inception_4d/output_0_split
I0224 09:37:15.424721  1880 net.cpp:434] inception_4d/output_inception_4d/output_0_split <- inception_4d/output
I0224 09:37:15.424736  1880 net.cpp:408] inception_4d/output_inception_4d/output_0_split -> inception_4d/output_inception_4d/output_0_split_0
I0224 09:37:15.424751  1880 net.cpp:408] inception_4d/output_inception_4d/output_0_split -> inception_4d/output_inception_4d/output_0_split_1
I0224 09:37:15.424767  1880 net.cpp:408] inception_4d/output_inception_4d/output_0_split -> inception_4d/output_inception_4d/output_0_split_2
I0224 09:37:15.424782  1880 net.cpp:408] inception_4d/output_inception_4d/output_0_split -> inception_4d/output_inception_4d/output_0_split_3
I0224 09:37:15.424798  1880 net.cpp:408] inception_4d/output_inception_4d/output_0_split -> inception_4d/output_inception_4d/output_0_split_4
I0224 09:37:15.424816  1880 net.cpp:150] Setting up inception_4d/output_inception_4d/output_0_split
I0224 09:37:15.424829  1880 net.cpp:157] Top shape: 50 528 14 14 (5174400)
I0224 09:37:15.424839  1880 net.cpp:157] Top shape: 50 528 14 14 (5174400)
I0224 09:37:15.424849  1880 net.cpp:157] Top shape: 50 528 14 14 (5174400)
I0224 09:37:15.424865  1880 net.cpp:157] Top shape: 50 528 14 14 (5174400)
I0224 09:37:15.424875  1880 net.cpp:157] Top shape: 50 528 14 14 (5174400)
I0224 09:37:15.424883  1880 net.cpp:165] Memory required for data: 2515182812
I0224 09:37:15.424891  1880 layer_factory.hpp:77] Creating layer loss2/ave_pool
I0224 09:37:15.424903  1880 net.cpp:100] Creating Layer loss2/ave_pool
I0224 09:37:15.424912  1880 net.cpp:434] loss2/ave_pool <- inception_4d/output_inception_4d/output_0_split_0
I0224 09:37:15.424929  1880 net.cpp:408] loss2/ave_pool -> loss2/ave_pool
I0224 09:37:15.424945  1880 net.cpp:150] Setting up loss2/ave_pool
I0224 09:37:15.424957  1880 net.cpp:157] Top shape: 50 528 4 4 (422400)
I0224 09:37:15.424967  1880 net.cpp:165] Memory required for data: 2516872412
I0224 09:37:15.424974  1880 layer_factory.hpp:77] Creating layer loss2/conv
I0224 09:37:15.424993  1880 net.cpp:100] Creating Layer loss2/conv
I0224 09:37:15.425010  1880 net.cpp:434] loss2/conv <- loss2/ave_pool
I0224 09:37:15.425038  1880 net.cpp:408] loss2/conv -> loss2/conv
I0224 09:37:15.426267  1880 net.cpp:150] Setting up loss2/conv
I0224 09:37:15.426285  1880 net.cpp:157] Top shape: 50 128 4 4 (102400)
I0224 09:37:15.426295  1880 net.cpp:165] Memory required for data: 2517282012
I0224 09:37:15.426308  1880 layer_factory.hpp:77] Creating layer loss2/relu_conv
I0224 09:37:15.426326  1880 net.cpp:100] Creating Layer loss2/relu_conv
I0224 09:37:15.426337  1880 net.cpp:434] loss2/relu_conv <- loss2/conv
I0224 09:37:15.426348  1880 net.cpp:395] loss2/relu_conv -> loss2/conv (in-place)
I0224 09:37:15.426365  1880 net.cpp:150] Setting up loss2/relu_conv
I0224 09:37:15.426378  1880 net.cpp:157] Top shape: 50 128 4 4 (102400)
I0224 09:37:15.426385  1880 net.cpp:165] Memory required for data: 2517691612
I0224 09:37:15.426394  1880 layer_factory.hpp:77] Creating layer loss2/fc
I0224 09:37:15.426409  1880 net.cpp:100] Creating Layer loss2/fc
I0224 09:37:15.426419  1880 net.cpp:434] loss2/fc <- loss2/conv
I0224 09:37:15.426432  1880 net.cpp:408] loss2/fc -> loss2/fc
I0224 09:37:15.462749  1880 net.cpp:150] Setting up loss2/fc
I0224 09:37:15.462821  1880 net.cpp:157] Top shape: 50 1024 (51200)
I0224 09:37:15.462831  1880 net.cpp:165] Memory required for data: 2517896412
I0224 09:37:15.462849  1880 layer_factory.hpp:77] Creating layer loss2/relu_fc
I0224 09:37:15.462867  1880 net.cpp:100] Creating Layer loss2/relu_fc
I0224 09:37:15.462880  1880 net.cpp:434] loss2/relu_fc <- loss2/fc
I0224 09:37:15.462894  1880 net.cpp:395] loss2/relu_fc -> loss2/fc (in-place)
I0224 09:37:15.462913  1880 net.cpp:150] Setting up loss2/relu_fc
I0224 09:37:15.462924  1880 net.cpp:157] Top shape: 50 1024 (51200)
I0224 09:37:15.462931  1880 net.cpp:165] Memory required for data: 2518101212
I0224 09:37:15.462940  1880 layer_factory.hpp:77] Creating layer loss2/drop_fc
I0224 09:37:15.462954  1880 net.cpp:100] Creating Layer loss2/drop_fc
I0224 09:37:15.462963  1880 net.cpp:434] loss2/drop_fc <- loss2/fc
I0224 09:37:15.462977  1880 net.cpp:395] loss2/drop_fc -> loss2/fc (in-place)
I0224 09:37:15.462993  1880 net.cpp:150] Setting up loss2/drop_fc
I0224 09:37:15.463004  1880 net.cpp:157] Top shape: 50 1024 (51200)
I0224 09:37:15.463012  1880 net.cpp:165] Memory required for data: 2518306012
I0224 09:37:15.463021  1880 layer_factory.hpp:77] Creating layer loss2/classifier
I0224 09:37:15.463037  1880 net.cpp:100] Creating Layer loss2/classifier
I0224 09:37:15.463045  1880 net.cpp:434] loss2/classifier <- loss2/fc
I0224 09:37:15.463058  1880 net.cpp:408] loss2/classifier -> loss2/classifier
I0224 09:37:15.481009  1880 net.cpp:150] Setting up loss2/classifier
I0224 09:37:15.481053  1880 net.cpp:157] Top shape: 50 1000 (50000)
I0224 09:37:15.481062  1880 net.cpp:165] Memory required for data: 2518506012
I0224 09:37:15.481079  1880 layer_factory.hpp:77] Creating layer loss2/classifier_loss2/classifier_0_split
I0224 09:37:15.481099  1880 net.cpp:100] Creating Layer loss2/classifier_loss2/classifier_0_split
I0224 09:37:15.481112  1880 net.cpp:434] loss2/classifier_loss2/classifier_0_split <- loss2/classifier
I0224 09:37:15.481125  1880 net.cpp:408] loss2/classifier_loss2/classifier_0_split -> loss2/classifier_loss2/classifier_0_split_0
I0224 09:37:15.481143  1880 net.cpp:408] loss2/classifier_loss2/classifier_0_split -> loss2/classifier_loss2/classifier_0_split_1
I0224 09:37:15.481158  1880 net.cpp:408] loss2/classifier_loss2/classifier_0_split -> loss2/classifier_loss2/classifier_0_split_2
I0224 09:37:15.481175  1880 net.cpp:150] Setting up loss2/classifier_loss2/classifier_0_split
I0224 09:37:15.481187  1880 net.cpp:157] Top shape: 50 1000 (50000)
I0224 09:37:15.481197  1880 net.cpp:157] Top shape: 50 1000 (50000)
I0224 09:37:15.481207  1880 net.cpp:157] Top shape: 50 1000 (50000)
I0224 09:37:15.481215  1880 net.cpp:165] Memory required for data: 2519106012
I0224 09:37:15.481225  1880 layer_factory.hpp:77] Creating layer loss2/loss
I0224 09:37:15.481236  1880 net.cpp:100] Creating Layer loss2/loss
I0224 09:37:15.481277  1880 net.cpp:434] loss2/loss <- loss2/classifier_loss2/classifier_0_split_0
I0224 09:37:15.481307  1880 net.cpp:434] loss2/loss <- label_data_1_split_3
…
I0224 09:37:15.481806  1880 net.cpp:150] Setting up loss2/top-5
I0224 09:37:15.481817  1880 net.cpp:157] Top shape: (1)
I0224 09:37:15.481825  1880 net.cpp:165] Memory required for data: 2519106024
I0224 09:37:15.481834  1880 layer_factory.hpp:77] Creating layer inception_4e/1x1
I0224 09:37:15.481855  1880 net.cpp:100] Creating Layer inception_4e/1x1
I0224 09:37:15.481866  1880 net.cpp:434] inception_4e/1x1 <- inception_4d/output_inception_4d/output_0_split_1
I0224 09:37:15.481884  1880 net.cpp:408] inception_4e/1x1 -> inception_4e/1x1
I0224 09:37:15.484372  1880 net.cpp:150] Setting up inception_4e/1x1
I0224 09:37:15.484402  1880 net.cpp:157] Top shape: 50 256 14 14 (2508800)
I0224 09:37:15.484411  1880 net.cpp:165] Memory required for data: 2529141224
I0224 09:37:15.484426  1880 layer_factory.hpp:77] Creating layer inception_4e/relu_1x1
I0224 09:37:15.484439  1880 net.cpp:100] Creating Layer inception_4e/relu_1x1
I0224 09:37:15.484449  1880 net.cpp:434] inception_4e/relu_1x1 <- inception_4e/1x1
I0224 09:37:15.484464  1880 net.cpp:395] inception_4e/relu_1x1 -> inception_4e/1x1 (in-place)
I0224 09:37:15.484480  1880 net.cpp:150] Setting up inception_4e/relu_1x1
I0224 09:37:15.484491  1880 net.cpp:157] Top shape: 50 256 14 14 (2508800)
I0224 09:37:15.484500  1880 net.cpp:165] Memory required for data: 2539176424
I0224 09:37:15.484509  1880 layer_factory.hpp:77] Creating layer inception_4e/3x3_reduce
I0224 09:37:15.484568  1880 net.cpp:100] Creating Layer inception_4e/3x3_reduce
I0224 09:37:15.484580  1880 net.cpp:434] inception_4e/3x3_reduce <- inception_4d/output_inception_4d/output_0_split_2
I0224 09:37:15.484593  1880 net.cpp:408] inception_4e/3x3_reduce -> inception_4e/3x3_reduce
I0224 09:37:15.486150  1880 net.cpp:150] Setting up inception_4e/3x3_reduce
I0224 09:37:15.486171  1880 net.cpp:157] Top shape: 50 160 14 14 (1568000)
I0224 09:37:15.486179  1880 net.cpp:165] Memory required for data: 2545448424
I0224 09:37:15.486196  1880 layer_factory.hpp:77] Creating layer inception_4e/relu_3x3_reduce
I0224 09:37:15.486208  1880 net.cpp:100] Creating Layer inception_4e/relu_3x3_reduce
I0224 09:37:15.486217  1880 net.cpp:434] inception_4e/relu_3x3_reduce <- inception_4e/3x3_reduce
I0224 09:37:15.486232  1880 net.cpp:395] inception_4e/relu_3x3_reduce -> inception_4e/3x3_reduce (in-place)
I0224 09:37:15.486251  1880 net.cpp:150] Setting up inception_4e/relu_3x3_reduce
I0224 09:37:15.486265  1880 net.cpp:157] Top shape: 50 160 14 14 (1568000)
I0224 09:37:15.486274  1880 net.cpp:165] Memory required for data: 2551720424
I0224 09:37:15.486305  1880 layer_factory.hpp:77] Creating layer inception_4e/3x3
I0224 09:37:15.486321  1880 net.cpp:100] Creating Layer inception_4e/3x3
I0224 09:37:15.486331  1880 net.cpp:434] inception_4e/3x3 <- inception_4e/3x3_reduce
I0224 09:37:15.486344  1880 net.cpp:408] inception_4e/3x3 -> inception_4e/3x3
I0224 09:37:15.494621  1880 net.cpp:150] Setting up inception_4e/3x3
I0224 09:37:15.494650  1880 net.cpp:157] Top shape: 50 320 14 14 (3136000)
I0224 09:37:15.494659  1880 net.cpp:165] Memory required for data: 2564264424
I0224 09:37:15.494674  1880 layer_factory.hpp:77] Creating layer inception_4e/relu_3x3
I0224 09:37:15.494688  1880 net.cpp:100] Creating Layer inception_4e/relu_3x3
I0224 09:37:15.494699  1880 net.cpp:434] inception_4e/relu_3x3 <- inception_4e/3x3
I0224 09:37:15.494712  1880 net.cpp:395] inception_4e/relu_3x3 -> inception_4e/3x3 (in-place)
I0224 09:37:15.494726  1880 net.cpp:150] Setting up inception_4e/relu_3x3
I0224 09:37:15.494738  1880 net.cpp:157] Top shape: 50 320 14 14 (3136000)
I0224 09:37:15.494746  1880 net.cpp:165] Memory required for data: 2576808424
I0224 09:37:15.494755  1880 layer_factory.hpp:77] Creating layer inception_4e/5x5_reduce
I0224 09:37:15.494774  1880 net.cpp:100] Creating Layer inception_4e/5x5_reduce
I0224 09:37:15.494784  1880 net.cpp:434] inception_4e/5x5_reduce <- inception_4d/output_inception_4d/output_0_split_3
I0224 09:37:15.494797  1880 net.cpp:408] inception_4e/5x5_reduce -> inception_4e/5x5_reduce
I0224 09:37:15.495122  1880 net.cpp:150] Setting up inception_4e/5x5_reduce
I0224 09:37:15.495136  1880 net.cpp:157] Top shape: 50 32 14 14 (313600)
I0224 09:37:15.495144  1880 net.cpp:165] Memory required for data: 2578062824
I0224 09:37:15.495157  1880 layer_factory.hpp:77] Creating layer inception_4e/relu_5x5_reduce
I0224 09:37:15.495172  1880 net.cpp:100] Creating Layer inception_4e/relu_5x5_reduce
I0224 09:37:15.495182  1880 net.cpp:434] inception_4e/relu_5x5_reduce <- inception_4e/5x5_reduce
I0224 09:37:15.495193  1880 net.cpp:395] inception_4e/relu_5x5_reduce -> inception_4e/5x5_reduce (in-place)
I0224 09:37:15.495205  1880 net.cpp:150] Setting up inception_4e/relu_5x5_reduce
I0224 09:37:15.495218  1880 net.cpp:157] Top shape: 50 32 14 14 (313600)
I0224 09:37:15.495225  1880 net.cpp:165] Memory required for data: 2579317224
I0224 09:37:15.495234  1880 layer_factory.hpp:77] Creating layer inception_4e/5x5
I0224 09:37:15.495257  1880 net.cpp:100] Creating Layer inception_4e/5x5
I0224 09:37:15.495268  1880 net.cpp:434] inception_4e/5x5 <- inception_4e/5x5_reduce
I0224 09:37:15.495285  1880 net.cpp:408] inception_4e/5x5 -> inception_4e/5x5
I0224 09:37:15.497119  1880 net.cpp:150] Setting up inception_4e/5x5
I0224 09:37:15.497143  1880 net.cpp:157] Top shape: 50 128 14 14 (1254400)
I0224 09:37:15.497151  1880 net.cpp:165] Memory required for data: 2584334824
I0224 09:37:15.497166  1880 layer_factory.hpp:77] Creating layer inception_4e/relu_5x5
I0224 09:37:15.497179  1880 net.cpp:100] Creating Layer inception_4e/relu_5x5
I0224 09:37:15.497189  1880 net.cpp:434] inception_4e/relu_5x5 <- inception_4e/5x5
I0224 09:37:15.497205  1880 net.cpp:395] inception_4e/relu_5x5 -> inception_4e/5x5 (in-place)
I0224 09:37:15.497220  1880 net.cpp:150] Setting up inception_4e/relu_5x5
I0224 09:37:15.497231  1880 net.cpp:157] Top shape: 50 128 14 14 (1254400)
I0224 09:37:15.497239  1880 net.cpp:165] Memory required for data: 2589352424
I0224 09:37:15.497256  1880 layer_factory.hpp:77] Creating layer inception_4e/pool
I0224 09:37:15.497268  1880 net.cpp:100] Creating Layer inception_4e/pool
I0224 09:37:15.497278  1880 net.cpp:434] inception_4e/pool <- inception_4d/output_inception_4d/output_0_split_4
I0224 09:37:15.497294  1880 net.cpp:408] inception_4e/pool -> inception_4e/pool
I0224 09:37:15.497315  1880 net.cpp:150] Setting up inception_4e/pool
I0224 09:37:15.497328  1880 net.cpp:157] Top shape: 50 528 14 14 (5174400)
I0224 09:37:15.497336  1880 net.cpp:165] Memory required for data: 2610050024
I0224 09:37:15.497345  1880 layer_factory.hpp:77] Creating layer inception_4e/pool_proj
I0224 09:37:15.497391  1880 net.cpp:100] Creating Layer inception_4e/pool_proj
I0224 09:37:15.497401  1880 net.cpp:434] inception_4e/pool_proj <- inception_4e/pool
I0224 09:37:15.497416  1880 net.cpp:408] inception_4e/pool_proj -> inception_4e/pool_proj
I0224 09:37:15.498647  1880 net.cpp:150] Setting up inception_4e/pool_proj
I0224 09:37:15.498666  1880 net.cpp:157] Top shape: 50 128 14 14 (1254400)
I0224 09:37:15.498674  1880 net.cpp:165] Memory required for data: 2615067624
I0224 09:37:15.498688  1880 layer_factory.hpp:77] Creating layer inception_4e/relu_pool_proj
I0224 09:37:15.498705  1880 net.cpp:100] Creating Layer inception_4e/relu_pool_proj
I0224 09:37:15.498716  1880 net.cpp:434] inception_4e/relu_pool_proj <- inception_4e/pool_proj
I0224 09:37:15.498731  1880 net.cpp:395] inception_4e/relu_pool_proj -> inception_4e/pool_proj (in-place)
I0224 09:37:15.498745  1880 net.cpp:150] Setting up inception_4e/relu_pool_proj
I0224 09:37:15.498757  1880 net.cpp:157] Top shape: 50 128 14 14 (1254400)
I0224 09:37:15.498766  1880 net.cpp:165] Memory required for data: 2620085224
I0224 09:37:15.498775  1880 layer_factory.hpp:77] Creating layer inception_4e/output
I0224 09:37:15.498788  1880 net.cpp:100] Creating Layer inception_4e/output
I0224 09:37:15.498798  1880 net.cpp:434] inception_4e/output <- inception_4e/1x1
I0224 09:37:15.498808  1880 net.cpp:434] inception_4e/output <- inception_4e/3x3
I0224 09:37:15.498819  1880 net.cpp:434] inception_4e/output <- inception_4e/5x5
I0224 09:37:15.498831  1880 net.cpp:434] inception_4e/output <- inception_4e/pool_proj
I0224 09:37:15.498845  1880 net.cpp:408] inception_4e/output -> inception_4e/output
I0224 09:37:15.498862  1880 net.cpp:150] Setting up inception_4e/output
I0224 09:37:15.498874  1880 net.cpp:157] Top shape: 50 832 14 14 (8153600)
I0224 09:37:15.498883  1880 net.cpp:165] Memory required for data: 2652699624
I0224 09:37:15.498891  1880 layer_factory.hpp:77] Creating layer pool4/3x3_s2
I0224 09:37:15.498906  1880 net.cpp:100] Creating Layer pool4/3x3_s2
I0224 09:37:15.498916  1880 net.cpp:434] pool4/3x3_s2 <- inception_4e/output
I0224 09:37:15.498930  1880 net.cpp:408] pool4/3x3_s2 -> pool4/3x3_s2
I0224 09:37:15.498949  1880 net.cpp:150] Setting up pool4/3x3_s2
I0224 09:37:15.498960  1880 net.cpp:157] Top shape: 50 832 7 7 (2038400)
I0224 09:37:15.498968  1880 net.cpp:165] Memory required for data: 2660853224
I0224 09:37:15.498977  1880 layer_factory.hpp:77] Creating layer pool4/3x3_s2_pool4/3x3_s2_0_split
I0224 09:37:15.498991  1880 net.cpp:100] Creating Layer pool4/3x3_s2_pool4/3x3_s2_0_split
I0224 09:37:15.499003  1880 net.cpp:434] pool4/3x3_s2_pool4/3x3_s2_0_split <- pool4/3x3_s2
I0224 09:37:15.499016  1880 net.cpp:408] pool4/3x3_s2_pool4/3x3_s2_0_split -> pool4/3x3_s2_pool4/3x3_s2_0_split_0
I0224 09:37:15.499029  1880 net.cpp:408] pool4/3x3_s2_pool4/3x3_s2_0_split -> pool4/3x3_s2_pool4/3x3_s2_0_split_1
I0224 09:37:15.499044  1880 net.cpp:408] pool4/3x3_s2_pool4/3x3_s2_0_split -> pool4/3x3_s2_pool4/3x3_s2_0_split_2
I0224 09:37:15.499086  1880 net.cpp:408] pool4/3x3_s2_pool4/3x3_s2_0_split -> pool4/3x3_s2_pool4/3x3_s2_0_split_3
I0224 09:37:15.499104  1880 net.cpp:150] Setting up pool4/3x3_s2_pool4/3x3_s2_0_split
I0224 09:37:15.499116  1880 net.cpp:157] Top shape: 50 832 7 7 (2038400)
I0224 09:37:15.499127  1880 net.cpp:157] Top shape: 50 832 7 7 (2038400)
I0224 09:37:15.499142  1880 net.cpp:157] Top shape: 50 832 7 7 (2038400)
I0224 09:37:15.499155  1880 net.cpp:157] Top shape: 50 832 7 7 (2038400)
I0224 09:37:15.499162  1880 net.cpp:165] Memory required for data: 2693467624
I0224 09:37:15.499171  1880 layer_factory.hpp:77] Creating layer inception_5a/1x1
I0224 09:37:15.499188  1880 net.cpp:100] Creating Layer inception_5a/1x1
I0224 09:37:15.499198  1880 net.cpp:434] inception_5a/1x1 <- pool4/3x3_s2_pool4/3x3_s2_0_split_0
I0224 09:37:15.499214  1880 net.cpp:408] inception_5a/1x1 -> inception_5a/1x1
I0224 09:37:15.503011  1880 net.cpp:150] Setting up inception_5a/1x1
I0224 09:37:15.503041  1880 net.cpp:157] Top shape: 50 256 7 7 (627200)
I0224 09:37:15.503059  1880 net.cpp:165] Memory required for data: 2695976424
I0224 09:37:15.503087  1880 layer_factory.hpp:77] Creating layer inception_5a/relu_1x1
I0224 09:37:15.503100  1880 net.cpp:100] Creating Layer inception_5a/relu_1x1
I0224 09:37:15.503111  1880 net.cpp:434] inception_5a/relu_1x1 <- inception_5a/1x1
I0224 09:37:15.503124  1880 net.cpp:395] inception_5a/relu_1x1 -> inception_5a/1x1 (in-place)
I0224 09:37:15.503139  1880 net.cpp:150] Setting up inception_5a/relu_1x1
I0224 09:37:15.503150  1880 net.cpp:157] Top shape: 50 256 7 7 (627200)
I0224 09:37:15.503159  1880 net.cpp:165] Memory required for data: 2698485224
I0224 09:37:15.503167  1880 layer_factory.hpp:77] Creating layer inception_5a/3x3_reduce
I0224 09:37:15.503182  1880 net.cpp:100] Creating Layer inception_5a/3x3_reduce
I0224 09:37:15.503193  1880 net.cpp:434] inception_5a/3x3_reduce <- pool4/3x3_s2_pool4/3x3_s2_0_split_1
I0224 09:37:15.503211  1880 net.cpp:408] inception_5a/3x3_reduce -> inception_5a/3x3_reduce
I0224 09:37:15.505609  1880 net.cpp:150] Setting up inception_5a/3x3_reduce
I0224 09:37:15.505637  1880 net.cpp:157] Top shape: 50 160 7 7 (392000)
I0224 09:37:15.505646  1880 net.cpp:165] Memory required for data: 2700053224
I0224 09:37:15.505661  1880 layer_factory.hpp:77] Creating layer inception_5a/relu_3x3_reduce
I0224 09:37:15.505676  1880 net.cpp:100] Creating Layer inception_5a/relu_3x3_reduce
I0224 09:37:15.505686  1880 net.cpp:434] inception_5a/relu_3x3_reduce <- inception_5a/3x3_reduce
I0224 09:37:15.505698  1880 net.cpp:395] inception_5a/relu_3x3_reduce -> inception_5a/3x3_reduce (in-place)
I0224 09:37:15.505713  1880 net.cpp:150] Setting up inception_5a/relu_3x3_reduce
I0224 09:37:15.505724  1880 net.cpp:157] Top shape: 50 160 7 7 (392000)
I0224 09:37:15.505733  1880 net.cpp:165] Memory required for data: 2701621224
I0224 09:37:15.505743  1880 layer_factory.hpp:77] Creating layer inception_5a/3x3
I0224 09:37:15.505760  1880 net.cpp:100] Creating Layer inception_5a/3x3
I0224 09:37:15.505770  1880 net.cpp:434] inception_5a/3x3 <- inception_5a/3x3_reduce
I0224 09:37:15.505784  1880 net.cpp:408] inception_5a/3x3 -> inception_5a/3x3
I0224 09:37:15.514014  1880 net.cpp:150] Setting up inception_5a/3x3
I0224 09:37:15.514045  1880 net.cpp:157] Top shape: 50 320 7 7 (784000)
I0224 09:37:15.514053  1880 net.cpp:165] Memory required for data: 2704757224
I0224 09:37:15.514070  1880 layer_factory.hpp:77] Creating layer inception_5a/relu_3x3
I0224 09:37:15.514083  1880 net.cpp:100] Creating Layer inception_5a/relu_3x3
I0224 09:37:15.514094  1880 net.cpp:434] inception_5a/relu_3x3 <- inception_5a/3x3
I0224 09:37:15.514106  1880 net.cpp:395] inception_5a/relu_3x3 -> inception_5a/3x3 (in-place)
I0224 09:37:15.514122  1880 net.cpp:150] Setting up inception_5a/relu_3x3
I0224 09:37:15.514132  1880 net.cpp:157] Top shape: 50 320 7 7 (784000)
I0224 09:37:15.514142  1880 net.cpp:165] Memory required for data: 2707893224
I0224 09:37:15.514149  1880 layer_factory.hpp:77] Creating layer inception_5a/5x5_reduce
I0224 09:37:15.514168  1880 net.cpp:100] Creating Layer inception_5a/5x5_reduce
I0224 09:37:15.514179  1880 net.cpp:434] inception_5a/5x5_reduce <- pool4/3x3_s2_pool4/3x3_s2_0_split_2
I0224 09:37:15.514194  1880 net.cpp:408] inception_5a/5x5_reduce -> inception_5a/5x5_reduce
I0224 09:37:15.514684  1880 net.cpp:150] Setting up inception_5a/5x5_reduce
I0224 09:37:15.514699  1880 net.cpp:157] Top shape: 50 32 7 7 (78400)
I0224 09:37:15.514708  1880 net.cpp:165] Memory required for data: 2708206824
I0224 09:37:15.514720  1880 layer_factory.hpp:77] Creating layer inception_5a/relu_5x5_reduce
I0224 09:37:15.514731  1880 net.cpp:100] Creating Layer inception_5a/relu_5x5_reduce
I0224 09:37:15.514741  1880 net.cpp:434] inception_5a/relu_5x5_reduce <- inception_5a/5x5_reduce
I0224 09:37:15.514752  1880 net.cpp:395] inception_5a/relu_5x5_reduce -> inception_5a/5x5_reduce (in-place)
I0224 09:37:15.514765  1880 net.cpp:150] Setting up inception_5a/relu_5x5_reduce
I0224 09:37:15.514777  1880 net.cpp:157] Top shape: 50 32 7 7 (78400)
I0224 09:37:15.514798  1880 net.cpp:165] Memory required for data: 2708520424
I0224 09:37:15.514820  1880 layer_factory.hpp:77] Creating layer inception_5a/5x5
I0224 09:37:15.514843  1880 net.cpp:100] Creating Layer inception_5a/5x5
I0224 09:37:15.514853  1880 net.cpp:434] inception_5a/5x5 <- inception_5a/5x5_reduce
I0224 09:37:15.514868  1880 net.cpp:408] inception_5a/5x5 -> inception_5a/5x5
I0224 09:37:15.516691  1880 net.cpp:150] Setting up inception_5a/5x5
I0224 09:37:15.516716  1880 net.cpp:157] Top shape: 50 128 7 7 (313600)
I0224 09:37:15.516726  1880 net.cpp:165] Memory required for data: 2709774824
I0224 09:37:15.516739  1880 layer_factory.hpp:77] Creating layer inception_5a/relu_5x5
I0224 09:37:15.516753  1880 net.cpp:100] Creating Layer inception_5a/relu_5x5
I0224 09:37:15.516763  1880 net.cpp:434] inception_5a/relu_5x5 <- inception_5a/5x5
I0224 09:37:15.516779  1880 net.cpp:395] inception_5a/relu_5x5 -> inception_5a/5x5 (in-place)
I0224 09:37:15.516794  1880 net.cpp:150] Setting up inception_5a/relu_5x5
I0224 09:37:15.516806  1880 net.cpp:157] Top shape: 50 128 7 7 (313600)
I0224 09:37:15.516814  1880 net.cpp:165] Memory required for data: 2711029224
I0224 09:37:15.516824  1880 layer_factory.hpp:77] Creating layer inception_5a/pool
I0224 09:37:15.516835  1880 net.cpp:100] Creating Layer inception_5a/pool
I0224 09:37:15.516846  1880 net.cpp:434] inception_5a/pool <- pool4/3x3_s2_pool4/3x3_s2_0_split_3
I0224 09:37:15.516861  1880 net.cpp:408] inception_5a/pool -> inception_5a/pool
I0224 09:37:15.516881  1880 net.cpp:150] Setting up inception_5a/pool
I0224 09:37:15.516893  1880 net.cpp:157] Top shape: 50 832 7 7 (2038400)
I0224 09:37:15.516902  1880 net.cpp:165] Memory required for data: 2719182824
I0224 09:37:15.516911  1880 layer_factory.hpp:77] Creating layer inception_5a/pool_proj
I0224 09:37:15.516929  1880 net.cpp:100] Creating Layer inception_5a/pool_proj
I0224 09:37:15.516939  1880 net.cpp:434] inception_5a/pool_proj <- inception_5a/pool
I0224 09:37:15.516955  1880 net.cpp:408] inception_5a/pool_proj -> inception_5a/pool_proj
I0224 09:37:15.518859  1880 net.cpp:150] Setting up inception_5a/pool_proj
I0224 09:37:15.518887  1880 net.cpp:157] Top shape: 50 128 7 7 (313600)
I0224 09:37:15.518896  1880 net.cpp:165] Memory required for data: 2720437224
I0224 09:37:15.518911  1880 layer_factory.hpp:77] Creating layer inception_5a/relu_pool_proj
I0224 09:37:15.518924  1880 net.cpp:100] Creating Layer inception_5a/relu_pool_proj
I0224 09:37:15.518935  1880 net.cpp:434] inception_5a/relu_pool_proj <- inception_5a/pool_proj
I0224 09:37:15.518947  1880 net.cpp:395] inception_5a/relu_pool_proj -> inception_5a/pool_proj (in-place)
I0224 09:37:15.518962  1880 net.cpp:150] Setting up inception_5a/relu_pool_proj
I0224 09:37:15.518973  1880 net.cpp:157] Top shape: 50 128 7 7 (313600)
I0224 09:37:15.518981  1880 net.cpp:165] Memory required for data: 2721691624
I0224 09:37:15.518990  1880 layer_factory.hpp:77] Creating layer inception_5a/output
I0224 09:37:15.519002  1880 net.cpp:100] Creating Layer inception_5a/output
I0224 09:37:15.519012  1880 net.cpp:434] inception_5a/output <- inception_5a/1x1
I0224 09:37:15.519022  1880 net.cpp:434] inception_5a/output <- inception_5a/3x3
I0224 09:37:15.519033  1880 net.cpp:434] inception_5a/output <- inception_5a/5x5
I0224 09:37:15.519043  1880 net.cpp:434] inception_5a/output <- inception_5a/pool_proj
I0224 09:37:15.519059  1880 net.cpp:408] inception_5a/output -> inception_5a/output
I0224 09:37:15.519076  1880 net.cpp:150] Setting up inception_5a/output
I0224 09:37:15.519088  1880 net.cpp:157] Top shape: 50 832 7 7 (2038400)
I0224 09:37:15.519096  1880 net.cpp:165] Memory required for data: 2729845224
I0224 09:37:15.519105  1880 layer_factory.hpp:77] Creating layer inception_5a/output_inception_5a/output_0_split
I0224 09:37:15.519117  1880 net.cpp:100] Creating Layer inception_5a/output_inception_5a/output_0_split
I0224 09:37:15.519126  1880 net.cpp:434] inception_5a/output_inception_5a/output_0_split <- inception_5a/output
I0224 09:37:15.519145  1880 net.cpp:408] inception_5a/output_inception_5a/output_0_split -> inception_5a/output_inception_5a/output_0_split_0
I0224 09:37:15.519181  1880 net.cpp:408] inception_5a/output_inception_5a/output_0_split -> inception_5a/output_inception_5a/output_0_split_1
I0224 09:37:15.519196  1880 net.cpp:408] inception_5a/output_inception_5a/output_0_split -> inception_5a/output_inception_5a/output_0_split_2
I0224 09:37:15.519209  1880 net.cpp:408] inception_5a/output_inception_5a/output_0_split -> inception_5a/output_inception_5a/output_0_split_3
I0224 09:37:15.519227  1880 net.cpp:150] Setting up inception_5a/output_inception_5a/output_0_split
I0224 09:37:15.519237  1880 net.cpp:157] Top shape: 50 832 7 7 (2038400)
I0224 09:37:15.519256  1880 net.cpp:157] Top shape: 50 832 7 7 (2038400)
I0224 09:37:15.519268  1880 net.cpp:157] Top shape: 50 832 7 7 (2038400)
I0224 09:37:15.519278  1880 net.cpp:157] Top shape: 50 832 7 7 (2038400)
I0224 09:37:15.519285  1880 net.cpp:165] Memory required for data: 2762459624
I0224 09:37:15.519294  1880 layer_factory.hpp:77] Creating layer inception_5b/1x1
I0224 09:37:15.519314  1880 net.cpp:100] Creating Layer inception_5b/1x1
I0224 09:37:15.519323  1880 net.cpp:434] inception_5b/1x1 <- inception_5a/output_inception_5a/output_0_split_0
I0224 09:37:15.519336  1880 net.cpp:408] inception_5b/1x1 -> inception_5b/1x1
I0224 09:37:15.524974  1880 net.cpp:150] Setting up inception_5b/1x1
I0224 09:37:15.525004  1880 net.cpp:157] Top shape: 50 384 7 7 (940800)
I0224 09:37:15.525013  1880 net.cpp:165] Memory required for data: 2766222824
I0224 09:37:15.525029  1880 layer_factory.hpp:77] Creating layer inception_5b/relu_1x1
I0224 09:37:15.525043  1880 net.cpp:100] Creating Layer inception_5b/relu_1x1
I0224 09:37:15.525053  1880 net.cpp:434] inception_5b/relu_1x1 <- inception_5b/1x1
I0224 09:37:15.525065  1880 net.cpp:395] inception_5b/relu_1x1 -> inception_5b/1x1 (in-place)
I0224 09:37:15.525080  1880 net.cpp:150] Setting up inception_5b/relu_1x1
I0224 09:37:15.525092  1880 net.cpp:157] Top shape: 50 384 7 7 (940800)
I0224 09:37:15.525100  1880 net.cpp:165] Memory required for data: 2769986024
I0224 09:37:15.525110  1880 layer_factory.hpp:77] Creating layer inception_5b/3x3_reduce
I0224 09:37:15.525125  1880 net.cpp:100] Creating Layer inception_5b/3x3_reduce
I0224 09:37:15.525135  1880 net.cpp:434] inception_5b/3x3_reduce <- inception_5a/output_inception_5a/output_0_split_1
I0224 09:37:15.525152  1880 net.cpp:408] inception_5b/3x3_reduce -> inception_5b/3x3_reduce
I0224 09:37:15.527978  1880 net.cpp:150] Setting up inception_5b/3x3_reduce
I0224 09:37:15.528007  1880 net.cpp:157] Top shape: 50 192 7 7 (470400)
I0224 09:37:15.528015  1880 net.cpp:165] Memory required for data: 2771867624
I0224 09:37:15.528030  1880 layer_factory.hpp:77] Creating layer inception_5b/relu_3x3_reduce
I0224 09:37:15.528043  1880 net.cpp:100] Creating Layer inception_5b/relu_3x3_reduce
I0224 09:37:15.528054  1880 net.cpp:434] inception_5b/relu_3x3_reduce <- inception_5b/3x3_reduce
I0224 09:37:15.528066  1880 net.cpp:395] inception_5b/relu_3x3_reduce -> inception_5b/3x3_reduce (in-place)
I0224 09:37:15.528081  1880 net.cpp:150] Setting up inception_5b/relu_3x3_reduce
I0224 09:37:15.528092  1880 net.cpp:157] Top shape: 50 192 7 7 (470400)
I0224 09:37:15.528101  1880 net.cpp:165] Memory required for data: 2773749224
I0224 09:37:15.528110  1880 layer_factory.hpp:77] Creating layer inception_5b/3x3
I0224 09:37:15.528127  1880 net.cpp:100] Creating Layer inception_5b/3x3
I0224 09:37:15.528137  1880 net.cpp:434] inception_5b/3x3 <- inception_5b/3x3_reduce
I0224 09:37:15.528151  1880 net.cpp:408] inception_5b/3x3 -> inception_5b/3x3
I0224 09:37:15.539381  1880 net.cpp:150] Setting up inception_5b/3x3
I0224 09:37:15.539412  1880 net.cpp:157] Top shape: 50 384 7 7 (940800)
I0224 09:37:15.539422  1880 net.cpp:165] Memory required for data: 2777512424
I0224 09:37:15.539435  1880 layer_factory.hpp:77] Creating layer inception_5b/relu_3x3
I0224 09:37:15.539449  1880 net.cpp:100] Creating Layer inception_5b/relu_3x3
I0224 09:37:15.539460  1880 net.cpp:434] inception_5b/relu_3x3 <- inception_5b/3x3
I0224 09:37:15.539489  1880 net.cpp:395] inception_5b/relu_3x3 -> inception_5b/3x3 (in-place)
I0224 09:37:15.539518  1880 net.cpp:150] Setting up inception_5b/relu_3x3
I0224 09:37:15.539530  1880 net.cpp:157] Top shape: 50 384 7 7 (940800)
I0224 09:37:15.539538  1880 net.cpp:165] Memory required for data: 2781275624
I0224 09:37:15.539547  1880 layer_factory.hpp:77] Creating layer inception_5b/5x5_reduce
I0224 09:37:15.539562  1880 net.cpp:100] Creating Layer inception_5b/5x5_reduce
I0224 09:37:15.539573  1880 net.cpp:434] inception_5b/5x5_reduce <- inception_5a/output_inception_5a/output_0_split_2
I0224 09:37:15.539587  1880 net.cpp:408] inception_5b/5x5_reduce -> inception_5b/5x5_reduce
I0224 09:37:15.540316  1880 net.cpp:150] Setting up inception_5b/5x5_reduce
I0224 09:37:15.540333  1880 net.cpp:157] Top shape: 50 48 7 7 (117600)
I0224 09:37:15.540340  1880 net.cpp:165] Memory required for data: 2781746024
I0224 09:37:15.540354  1880 layer_factory.hpp:77] Creating layer inception_5b/relu_5x5_reduce
I0224 09:37:15.540365  1880 net.cpp:100] Creating Layer inception_5b/relu_5x5_reduce
I0224 09:37:15.540374  1880 net.cpp:434] inception_5b/relu_5x5_reduce <- inception_5b/5x5_reduce
I0224 09:37:15.540388  1880 net.cpp:395] inception_5b/relu_5x5_reduce -> inception_5b/5x5_reduce (in-place)
I0224 09:37:15.540402  1880 net.cpp:150] Setting up inception_5b/relu_5x5_reduce
I0224 09:37:15.540413  1880 net.cpp:157] Top shape: 50 48 7 7 (117600)
I0224 09:37:15.540422  1880 net.cpp:165] Memory required for data: 2782216424
I0224 09:37:15.540431  1880 layer_factory.hpp:77] Creating layer inception_5b/5x5
I0224 09:37:15.540448  1880 net.cpp:100] Creating Layer inception_5b/5x5
I0224 09:37:15.540458  1880 net.cpp:434] inception_5b/5x5 <- inception_5b/5x5_reduce
I0224 09:37:15.540472  1880 net.cpp:408] inception_5b/5x5 -> inception_5b/5x5
I0224 09:37:15.543187  1880 net.cpp:150] Setting up inception_5b/5x5
I0224 09:37:15.543215  1880 net.cpp:157] Top shape: 50 128 7 7 (313600)
I0224 09:37:15.543225  1880 net.cpp:165] Memory required for data: 2783470824
I0224 09:37:15.543238  1880 layer_factory.hpp:77] Creating layer inception_5b/relu_5x5
I0224 09:37:15.543277  1880 net.cpp:100] Creating Layer inception_5b/relu_5x5
I0224 09:37:15.543287  1880 net.cpp:434] inception_5b/relu_5x5 <- inception_5b/5x5
I0224 09:37:15.543300  1880 net.cpp:395] inception_5b/relu_5x5 -> inception_5b/5x5 (in-place)
I0224 09:37:15.543314  1880 net.cpp:150] Setting up inception_5b/relu_5x5
I0224 09:37:15.543326  1880 net.cpp:157] Top shape: 50 128 7 7 (313600)
I0224 09:37:15.543334  1880 net.cpp:165] Memory required for data: 2784725224
I0224 09:37:15.543344  1880 layer_factory.hpp:77] Creating layer inception_5b/pool
I0224 09:37:15.543359  1880 net.cpp:100] Creating Layer inception_5b/pool
I0224 09:37:15.543370  1880 net.cpp:434] inception_5b/pool <- inception_5a/output_inception_5a/output_0_split_3
I0224 09:37:15.543381  1880 net.cpp:408] inception_5b/pool -> inception_5b/pool
I0224 09:37:15.543401  1880 net.cpp:150] Setting up inception_5b/pool
I0224 09:37:15.543412  1880 net.cpp:157] Top shape: 50 832 7 7 (2038400)
I0224 09:37:15.543421  1880 net.cpp:165] Memory required for data: 2792878824
I0224 09:37:15.543428  1880 layer_factory.hpp:77] Creating layer inception_5b/pool_proj
I0224 09:37:15.543447  1880 net.cpp:100] Creating Layer inception_5b/pool_proj
I0224 09:37:15.543457  1880 net.cpp:434] inception_5b/pool_proj <- inception_5b/pool
I0224 09:37:15.543473  1880 net.cpp:408] inception_5b/pool_proj -> inception_5b/pool_proj
I0224 09:37:15.545385  1880 net.cpp:150] Setting up inception_5b/pool_proj
I0224 09:37:15.545410  1880 net.cpp:157] Top shape: 50 128 7 7 (313600)
I0224 09:37:15.545419  1880 net.cpp:165] Memory required for data: 2794133224
I0224 09:37:15.545434  1880 layer_factory.hpp:77] Creating layer inception_5b/relu_pool_proj
I0224 09:37:15.545447  1880 net.cpp:100] Creating Layer inception_5b/relu_pool_proj
I0224 09:37:15.545459  1880 net.cpp:434] inception_5b/relu_pool_proj <- inception_5b/pool_proj
I0224 09:37:15.545470  1880 net.cpp:395] inception_5b/relu_pool_proj -> inception_5b/pool_proj (in-place)
I0224 09:37:15.545506  1880 net.cpp:150] Setting up inception_5b/relu_pool_proj
I0224 09:37:15.545517  1880 net.cpp:157] Top shape: 50 128 7 7 (313600)
I0224 09:37:15.545526  1880 net.cpp:165] Memory required for data: 2795387624
I0224 09:37:15.545536  1880 layer_factory.hpp:77] Creating layer inception_5b/output
I0224 09:37:15.545550  1880 net.cpp:100] Creating Layer inception_5b/output
I0224 09:37:15.545562  1880 net.cpp:434] inception_5b/output <- inception_5b/1x1
I0224 09:37:15.545572  1880 net.cpp:434] inception_5b/output <- inception_5b/3x3
I0224 09:37:15.545583  1880 net.cpp:434] inception_5b/output <- inception_5b/5x5
I0224 09:37:15.545593  1880 net.cpp:434] inception_5b/output <- inception_5b/pool_proj
I0224 09:37:15.545605  1880 net.cpp:408] inception_5b/output -> inception_5b/output
I0224 09:37:15.545625  1880 net.cpp:150] Setting up inception_5b/output
I0224 09:37:15.545637  1880 net.cpp:157] Top shape: 50 1024 7 7 (2508800)
I0224 09:37:15.545645  1880 net.cpp:165] Memory required for data: 2805422824
I0224 09:37:15.545655  1880 layer_factory.hpp:77] Creating layer pool5/7x7_s1
I0224 09:37:15.545665  1880 net.cpp:100] Creating Layer pool5/7x7_s1
I0224 09:37:15.545675  1880 net.cpp:434] pool5/7x7_s1 <- inception_5b/output
I0224 09:37:15.545687  1880 net.cpp:408] pool5/7x7_s1 -> pool5/7x7_s1
I0224 09:37:15.545703  1880 net.cpp:150] Setting up pool5/7x7_s1
I0224 09:37:15.545716  1880 net.cpp:157] Top shape: 50 1024 1 1 (51200)
I0224 09:37:15.545723  1880 net.cpp:165] Memory required for data: 2805627624
I0224 09:37:15.545732  1880 layer_factory.hpp:77] Creating layer pool5/drop_7x7_s1
I0224 09:37:15.545748  1880 net.cpp:100] Creating Layer pool5/drop_7x7_s1
I0224 09:37:15.545758  1880 net.cpp:434] pool5/drop_7x7_s1 <- pool5/7x7_s1
I0224 09:37:15.545769  1880 net.cpp:395] pool5/drop_7x7_s1 -> pool5/7x7_s1 (in-place)
I0224 09:37:15.545785  1880 net.cpp:150] Setting up pool5/drop_7x7_s1
I0224 09:37:15.545796  1880 net.cpp:157] Top shape: 50 1024 1 1 (51200)
I0224 09:37:15.545805  1880 net.cpp:165] Memory required for data: 2805832424
I0224 09:37:15.545814  1880 layer_factory.hpp:77] Creating layer loss3/classifier
I0224 09:37:15.545828  1880 net.cpp:100] Creating Layer loss3/classifier
I0224 09:37:15.545837  1880 net.cpp:434] loss3/classifier <- pool5/7x7_s1
I0224 09:37:15.545850  1880 net.cpp:408] loss3/classifier -> loss3/classifier
I0224 09:37:15.563709  1880 net.cpp:150] Setting up loss3/classifier
I0224 09:37:15.563753  1880 net.cpp:157] Top shape: 50 1000 (50000)
I0224 09:37:15.563762  1880 net.cpp:165] Memory required for data: 2806032424
I0224 09:37:15.563779  1880 layer_factory.hpp:77] Creating layer loss3/classifier_loss3/classifier_0_split
I0224 09:37:15.563796  1880 net.cpp:100] Creating Layer loss3/classifier_loss3/classifier_0_split
I0224 09:37:15.563807  1880 net.cpp:434] loss3/classifier_loss3/classifier_0_split <- loss3/classifier
I0224 09:37:15.563820  1880 net.cpp:408] loss3/classifier_loss3/classifier_0_split -> loss3/classifier_loss3/classifier_0_split_0
I0224 09:37:15.563837  1880 net.cpp:408] loss3/classifier_loss3/classifier_0_split -> loss3/classifier_loss3/classifier_0_split_1
I0224 09:37:15.563851  1880 net.cpp:408] loss3/classifier_loss3/classifier_0_split -> loss3/classifier_loss3/classifier_0_split_2
I0224 09:37:15.563868  1880 net.cpp:150] Setting up loss3/classifier_loss3/classifier_0_split
I0224 09:37:15.563879  1880 net.cpp:157] Top shape: 50 1000 (50000)
I0224 09:37:15.563889  1880 net.cpp:157] Top shape: 50 1000 (50000)
I0224 09:37:15.563899  1880 net.cpp:157] Top shape: 50 1000 (50000)
I0224 09:37:15.563907  1880 net.cpp:165] Memory required for data: 2806632424
I0224 09:37:15.563916  1880 layer_factory.hpp:77] Creating layer loss3/loss3
I0224 09:37:15.563931  1880 net.cpp:100] Creating Layer loss3/loss3
I0224 09:37:15.563941  1880 net.cpp:434] loss3/loss3 <- loss3/classifier_loss3/classifier_0_split_0
I0224 09:37:15.563952  1880 net.cpp:434] loss3/loss3 <- label_data_1_split_6
…
