…
I0224 09:45:34.839257  1997 net.cpp:322] The NetState phase (0) differed from the phase (1) specified by a rule in layer loss3/top-5
I0224 09:45:34.844727  1997 net.cpp:58] Initializing net from parameters: 
name: "GoogleNet"
state {
  phase: TRAIN
  level: 0
  stage: ""
}
layer {
  name: "data"
  type: "Data"
  top: "data"
  top: "label"
  include {
    phase: TRAIN
  }
  transform_param {
    mirror: true
    crop_size: 224
    mean_value: 104
    mean_value: 117
    mean_value: 123
  }
  data_param {
    source: "/home/user/user/LIBRARIES/caffeLibs/caffe/examples/imagenet/ilsvrc12_train_lmdb"
    batch_size: 48
    backend: LMDB
  }
}
layer {
  name: "conv1/7x7_s2"
  type: "Convolution"
  bottom: "data"
  top: "conv1/7x7_s2"
  param {
    lr_mult: 1
    decay_mult: 1
  }
  param {
    lr_mult: 2
    decay_mult: 0
  }
  convolution_param {
    num_output: 64
    pad: 3
    kernel_size: 7
    stride: 2
    weight_filler {
      type: "xavier"
    }
    bias_filler {
      type: "constant"
      value: 0.2
    }
  }
}
layer {
  name: "conv1/relu_7x7"
  type: "ReLU"
  bottom: "conv1/7x7_s2"
  top: "conv1/7x7_s2"
}
layer {
  name: "pool1/3x3_s2"
  type: "Pooling"
  bottom: "conv1/7x7_s2"
  top: "pool1/3x3_s2"
  pooling_param {
    pool: MAX
    kernel_size: 3
    stride: 2
  }
}
layer {
  name: "pool1/norm1"
  type: "LRN"
  bottom: "pool1/3x3_s2"
  top: "pool1/norm1"
  lrn_param {
    local_size: 5
    alpha: 0.0001
    beta: 0.75
  }
}
layer {
  name: "conv2/3x3_reduce"
  type: "Convolution"
  bottom: "pool1/norm1"
  top: "conv2/3x3_reduce"
  param {
    lr_mult: 1
    decay_mult: 1
  }
  param {
    lr_mult: 2
    decay_mult: 0
  }
  convolution_param {
    num_output: 64
    kernel_size: 1
    weight_filler {
      type: "xavier"
    }
    bias_filler {
      type: "constant"
      value: 0.2
    }
  }
}
layer {
  name: "conv2/relu_3x3_reduce"
  type: "ReLU"
  bottom: "conv2/3x3_reduce"
  top: "conv2/3x3_reduce"
}
layer {
  name: "conv2/3x3"
  type: "Convolution"
  bottom: "conv2/3x3_reduce"
  top: "conv2/3x3"
  param {
    lr_mult: 1
    decay_mult: 1
  }
  param {
    lr_mult: 2
    decay_mult: 0
  }
  convolution_param {
    num_output: 192
    pad: 1
    kernel_size: 3
    weight_filler {
      type: "xavier"
    }
    bias_filler {
      type: "constant"
      value: 0.2
    }
  }
}
layer {
  name: "conv2/relu_3x3"
  type: "ReLU"
  bottom: "conv2/3x3"
  top: "conv2/3x3"
}
layer {
  name: "conv2/norm2"
  type: "LRN"
  bottom: "conv2/3x3"
  top: "conv2/norm2"
  lrn_param {
    local_size: 5
    alpha: 0.0001
    beta: 0.75
  }
}
layer {
  name: "pool2/3x3_s2"
  type: "Pooling"
  bottom: "conv2/norm2"
  top: "pool2/3x3_s2"
  pooling_param {
    pool: MAX
    kernel_size: 3
    stride: 2
  }
}
layer {
  name: "inception_3a/1x1"
  type: "Convolution"
  bottom: "pool2/3x3_s2"
  top: "inception_3a/1x1"
  param {
    lr_mult: 1
    decay_mult: 1
  }
  param {
    lr_mult: 2
    decay_mult: 0
  }
  convolution_param {
    num_output: 64
    kernel_size: 1
    weight_filler {
      type: "xavier"
    }
    bias_filler {
      type: "constant"
      value: 0.2
    }
  }
}
layer {
  name: "inception_3a/relu_1x1"
  type: "ReLU"
  bottom: "inception_3a/1x1"
  top: "inception_3a/1x1"
}
layer {
  name: "inception_3a/3x3_reduce"
  type: "Convolution"
  bottom: "pool2/3x3_s2"
  top: "inception_3a/3x3_reduce"
  param {
    lr_mult: 1
    decay_mult: 1
  }
  param {
    lr_mult: 2
    decay_mult: 0
  }
  convolution_param {
    num_output: 96
    kernel_size: 1
    weight_filler {
      type: "xavier"
    }
    bias_filler {
      type: "constant"
      value: 0.2
    }
  }
}
layer {
  name: "inception_3a/relu_3x3_reduce"
  type: "ReLU"
  bottom: "inception_3a/3x3_reduce"
  top: "inception_3a/3x3_reduce"
}
layer {
  name: "inception_3a/3x3"
  type: "Convolution"
  bottom: "inception_3a/3x3_reduce"
  top: "inception_3a/3x3"
  param {
    lr_mult: 1
    decay_mult: 1
  }
  param {
    lr_mult: 2
    decay_mult: 0
  }
  convolution_param {
    num_output: 128
    pad: 1
    kernel_size: 3
    weight_filler {
      type: "xavier"
    }
    bias_filler {
      type: "constant"
      value: 0.2
    }
  }
}
layer {
  name: "inception_3a/relu_3x3"
  type: "ReLU"
  bottom: "inception_3a/3x3"
  top: "inception_3a/3x3"
}
layer {
  name: "inception_3a/5x5_reduce"
  type: "Convolution"
  bottom: "pool2/3x3_s2"
  top: "inception_3a/5x5_reduce"
  param {
    lr_mult: 1
    decay_mult: 1
  }
  param {
    lr_mult: 2
    decay_mult: 0
  }
  convolution_param {
    num_output: 16
    kernel_size: 1
    weight_filler {
      type: "xavier"
    }
    bias_filler {
      type: "constant"
      value: 0.2
    }
  }
}
layer {
  name: "inception_3a/relu_5x5_reduce"
  type: "ReLU"
  bottom: "inception_3a/5x5_reduce"
  top: "inception_3a/5x5_reduce"
}
layer {
  name: "inception_3a/5x5"
  type: "Convolution"
  bottom: "inception_3a/5x5_reduce"
  top: "inception_3a/5x5"
  param {
    lr_mult: 1
    decay_mult: 1
  }
  param {
    lr_mult: 2
    decay_mult: 0
  }
  convolution_param {
    num_output: 32
    pad: 2
    kernel_size: 5
    weight_filler {
      type: "xavier"
    }
    bias_filler {
      type: "constant"
      value: 0.2
    }
  }
}
layer {
  name: "inception_3a/relu_5x5"
  type: "ReLU"
  bottom: "inception_3a/5x5"
  top: "inception_3a/5x5"
}
layer {
  name: "inception_3a/pool"
  type: "Pooling"
  bottom: "pool2/3x3_s2"
  top: "inception_3a/pool"
  pooling_param {
    pool: MAX
    kernel_size: 3
    stride: 1
    pad: 1
  }
}
layer {
  name: "inception_3a/pool_proj"
  type: "Convolution"
  bottom: "inception_3a/pool"
  top: "inception_3a/pool_proj"
  param {
    lr_mult: 1
    decay_mult: 1
  }
  param {
    lr_mult: 2
    decay_mult: 0
  }
  convolution_param {
    num_output: 32
    kernel_size: 1
    weight_filler {
      type: "xavier"
    }
    bias_filler {
      type: "constant"
      value: 0.2
    }
  }
}
layer {
  name: "inception_3a/relu_pool_proj"
  type: "ReLU"
  bottom: "inception_3a/pool_proj"
  top: "inception_3a/pool_proj"
}
layer {
  name: "inception_3a/output"
  type: "Concat"
  bottom: "inception_3a/1x1"
  bottom: "inception_3a/3x3"
  bottom: "inception_3a/5x5"
  bottom: "inception_3a/pool_proj"
  top: "inception_3a/output"
}
layer {
  name: "inception_3b/1x1"
  type: "Convolution"
  bottom: "inception_3a/output"
  top: "inception_3b/1x1"
  param {
    lr_mult: 1
    decay_mult: 1
  }
  param {
    lr_mult: 2
    decay_mult: 0
  }
  convolution_param {
    num_output: 128
    kernel_size: 1
    weight_filler {
      type: "xavier"
    }
    bias_filler {
      type: "constant"
      value: 0.2
    }
  }
}
layer {
  name: "inception_3b/relu_1x1"
  type: "ReLU"
  bottom: "inception_3b/1x1"
  top: "inception_3b/1x1"
}
layer {
  name: "inception_3b/3x3_reduce"
  type: "Convolution"
  bottom: "inception_3a/output"
  top: "inception_3b/3x3_reduce"
  param {
    lr_mult: 1
    decay_mult: 1
  }
  param {
    lr_mult: 2
    decay_mult: 0
  }
  convolution_param {
    num_output: 128
    kernel_size: 1
    weight_filler {
      type: "xavier"
    }
    bias_filler {
      type: "constant"
      value: 0.2
    }
  }
}
layer {
  name: "inception_3b/relu_3x3_reduce"
  type: "ReLU"
  bottom: "inception_3b/3x3_reduce"
  top: "inception_3b/3x3_reduce"
}
layer {
  name: "inception_3b/3x3"
  type: "Convolution"
  bottom: "inception_3b/3x3_reduce"
  top: "inception_3b/3x3"
  param {
    lr_mult: 1
    decay_mult: 1
  }
  param {
    lr_mult: 2
    decay_mult: 0
  }
  convolution_param {
    num_output: 192
    pad: 1
    kernel_size: 3
    weight_filler {
      type: "xavier"
    }
    bias_filler {
      type: "constant"
      value: 0.2
    }
  }
}
layer {
  name: "inception_3b/relu_3x3"
  type: "ReLU"
  bottom: "inception_3b/3x3"
  top: "inception_3b/3x3"
}
layer {
  name: "inception_3b/5x5_reduce"
  type: "Convolution"
  bottom: "inception_3a/output"
  top: "inception_3b/5x5_reduce"
  param {
    lr_mult: 1
    decay_mult: 1
  }
  param {
    lr_mult: 2
    decay_mult: 0
  }
  convolution_param {
    num_output: 32
    kernel_size: 1
    weight_filler {
      type: "xavier"
    }
    bias_filler {
      type: "constant"
      value: 0.2
    }
  }
}
layer {
  name: "inception_3b/relu_5x5_reduce"
  type: "ReLU"
  bottom: "inception_3b/5x5_reduce"
  top: "inception_3b/5x5_reduce"
}
layer {
  name: "inception_3b/5x5"
  type: "Convolution"
  bottom: "inception_3b/5x5_reduce"
  top: "inception_3b/5x5"
  param {
    lr_mult: 1
    decay_mult: 1
  }
  param {
    lr_mult: 2
    decay_mult: 0
  }
  convolution_param {
    num_output: 96
    pad: 2
    kernel_size: 5
    weight_filler {
      type: "xavier"
    }
    bias_filler {
      type: "constant"
      value: 0.2
    }
  }
}
layer {
  name: "inception_3b/relu_5x5"
  type: "ReLU"
  bottom: "inception_3b/5x5"
  top: "inception_3b/5x5"
}
layer {
  name: "inception_3b/pool"
  type: "Pooling"
  bottom: "inception_3a/output"
  top: "inception_3b/pool"
  pooling_param {
    pool: MAX
    kernel_size: 3
    stride: 1
    pad: 1
  }
}
layer {
  name: "inception_3b/pool_proj"
  type: "Convolution"
  bottom: "inception_3b/pool"
  top: "inception_3b/pool_proj"
  param {
    lr_mult: 1
    decay_mult: 1
  }
  param {
    lr_mult: 2
    decay_mult: 0
  }
  convolution_param {
    num_output: 64
    kernel_size: 1
    weight_filler {
      type: "xavier"
    }
    bias_filler {
      type: "constant"
      value: 0.2
    }
  }
}
layer {
  name: "inception_3b/relu_pool_proj"
  type: "ReLU"
  bottom: "inception_3b/pool_proj"
  top: "inception_3b/pool_proj"
}
layer {
  name: "inception_3b/output"
  type: "Concat"
  bottom: "inception_3b/1x1"
  bottom: "inception_3b/3x3"
  bottom: "inception_3b/5x5"
  bottom: "inception_3b/pool_proj"
  top: "inception_3b/output"
}
layer {
  name: "pool3/3x3_s2"
  type: "Pooling"
  bottom: "inception_3b/output"
  top: "pool3/3x3_s2"
  pooling_param {
    pool: MAX
    kernel_size: 3
    stride: 2
  }
}
layer {
  name: "inception_4a/1x1"
  type: "Convolution"
  bottom: "pool3/3x3_s2"
  top: "inception_4a/1x1"
  param {
    lr_mult: 1
    decay_mult: 1
  }
  param {
    lr_mult: 2
    decay_mult: 0
  }
  convolution_param {
    num_output: 192
    kernel_size: 1
    weight_filler {
      type: "xavier"
    }
    bias_filler {
      type: "constant"
      value: 0.2
    }
  }
}
layer {
  name: "inception_4a/relu_1x1"
  type: "ReLU"
  bottom: "inception_4a/1x1"
  top: "inception_4a/1x1"
}
layer {
  name: "inception_4a/3x3_reduce"
  type: "Convolution"
  bottom: "pool3/3x3_s2"
  top: "inception_4a/3x3_reduce"
  param {
    lr_mult: 1
    decay_mult: 1
  }
  param {
    lr_mult: 2
    decay_mult: 0
  }
  convolution_param {
    num_output: 96
    kernel_size: 1
    weight_filler {
      type: "xavier"
    }
    bias_filler {
      type: "constant"
      value: 0.2
    }
  }
}
layer {
  name: "inception_4a/relu_3x3_reduce"
  type: "ReLU"
  bottom: "inception_4a/3x3_reduce"
  top: "inception_4a/3x3_reduce"
}
layer {
  name: "inception_4a/3x3"
  type: "Convolution"
  bottom: "inception_4a/3x3_reduce"
  top: "inception_4a/3x3"
  param {
    lr_mult: 1
    decay_mult: 1
  }
  param {
    lr_mult: 2
    decay_mult: 0
  }
  convolution_param {
    num_output: 208
    pad: 1
    kernel_size: 3
    weight_filler {
      type: "xavier"
    }
    bias_filler {
      type: "constant"
      value: 0.2
    }
  }
}
layer {
  name: "inception_4a/relu_3x3"
  type: "ReLU"
  bottom: "inception_4a/3x3"
  top: "inception_4a/3x3"
}
layer {
  name: "inception_4a/5x5_reduce"
  type: "Convolution"
  bottom: "pool3/3x3_s2"
  top: "inception_4a/5x5_reduce"
  param {
    lr_mult: 1
    decay_mult: 1
  }
  param {
    lr_mult: 2
    decay_mult: 0
  }
  convolution_param {
    num_output: 16
    kernel_size: 1
    weight_filler {
      type: "xavier"
    }
    bias_filler {
      type: "constant"
      value: 0.2
    }
  }
}
layer {
  name: "inception_4a/relu_5x5_reduce"
  type: "ReLU"
  bottom: "inception_4a/5x5_reduce"
  top: "inception_4a/5x5_reduce"
}
layer {
  name: "inception_4a/5x5"
  type: "Convolution"
  bottom: "inception_4a/5x5_reduce"
  top: "inception_4a/5x5"
  param {
    lr_mult: 1
    decay_mult: 1
  }
  param {
    lr_mult: 2
    decay_mult: 0
  }
  convolution_param {
    num_output: 48
    pad: 2
    kernel_size: 5
    weight_filler {
      type: "xavier"
    }
    bias_filler {
      type: "constant"
      value: 0.2
    }
  }
}
layer {
  name: "inception_4a/relu_5x5"
  type: "ReLU"
  bottom: "inception_4a/5x5"
  top: "inception_4a/5x5"
}
layer {
  name: "inception_4a/pool"
  type: "Pooling"
  bottom: "pool3/3x3_s2"
  top: "inception_4a/pool"
  pooling_param {
    pool: MAX
    kernel_size: 3
    stride: 1
    pad: 1
  }
}
layer {
  name: "inception_4a/pool_proj"
  type: "Convolution"
  bottom: "inception_4a/pool"
  top: "inception_4a/pool_proj"
  param {
    lr_mult: 1
    decay_mult: 1
  }
  param {
    lr_mult: 2
    decay_mult: 0
  }
  convolution_param {
    num_output: 64
    kernel_size: 1
    weight_filler {
      type: "xavier"
    }
    bias_filler {
      type: "constant"
      value: 0.2
    }
  }
}
layer {
  name: "inception_4a/relu_pool_proj"
  type: "ReLU"
  bottom: "inception_4a/pool_proj"
  top: "inception_4a/pool_proj"
}
layer {
  name: "inception_4a/output"
  type: "Concat"
  bottom: "inception_4a/1x1"
  bottom: "inception_4a/3x3"
  bottom: "inception_4a/5x5"
  bottom: "inception_4a/pool_proj"
  top: "inception_4a/output"
}
layer {
  name: "loss1/ave_pool"
  type: "Pooling"
  bottom: "inception_4a/output"
  top: "loss1/ave_pool"
  pooling_param {
    pool: AVE
    kernel_size: 5
    stride: 3
  }
}
layer {
  name: "loss1/conv"
  type: "Convolution"
  bottom: "loss1/ave_pool"
  top: "loss1/conv"
  param {
    lr_mult: 1
    decay_mult: 1
  }
  param {
    lr_mult: 2
    decay_mult: 0
  }
  convolution_param {
    num_output: 128
    kernel_size: 1
    weight_filler {
      type: "xavier"
    }
    bias_filler {
      type: "constant"
      value: 0.2
    }
  }
}
layer {
  name: "loss1/relu_conv"
  type: "ReLU"
  bottom: "loss1/conv"
  top: "loss1/conv"
}
layer {
  name: "loss1/fc"
  type: "InnerProduct"
  bottom: "loss1/conv"
  top: "loss1/fc"
  param {
    lr_mult: 1
    decay_mult: 1
  }
  param {
    lr_mult: 2
    decay_mult: 0
  }
  inner_product_param {
    num_output: 1024
    weight_filler {
      type: "xavier"
    }
    bias_filler {
      type: "constant"
      value: 0.2
    }
  }
}
layer {
  name: "loss1/relu_fc"
  type: "ReLU"
  bottom: "loss1/fc"
  top: "loss1/fc"
}
layer {
  name: "loss1/drop_fc"
  type: "Dropout"
  bottom: "loss1/fc"
  top: "loss1/fc"
  dropout_param {
    dropout_ratio: 0.7
  }
}
layer {
  name: "loss1/classifier"
  type: "InnerProduct"
  bottom: "loss1/fc"
  top: "loss1/classifier"
  param {
    lr_mult: 1
    decay_mult: 1
  }
  param {
    lr_mult: 2
    decay_mult: 0
  }
  inner_product_param {
    num_output: 1000
    weight_filler {
      type: "xavier"
    }
    bias_filler {
      type: "constant"
      value: 0
    }
  }
}
layer {
  name: "loss1/loss"
  type: "SoftmaxWithLoss"
  bottom: "loss1/classifier"
  bottom: "label"
  top: "loss1/loss1"
  loss_weight: 0.3
}
layer {
  name: "inception_4b/1x1"
  type: "Convolution"
  bottom: "inception_4a/output"
  top: "inception_4b/1x1"
  param {
    lr_mult: 1
    decay_mult: 1
  }
  param {
    lr_mult: 2
    decay_mult: 0
  }
  convolution_param {
    num_output: 160
    kernel_size: 1
    weight_filler {
      type: "xavier"
    }
    bias_filler {
      type: "constant"
      value: 0.2
    }
  }
}
layer {
  name: "inception_4b/relu_1x1"
  type: "ReLU"
  bottom: "inception_4b/1x1"
  top: "inception_4b/1x1"
}
layer {
  name: "inception_4b/3x3_reduce"
  type: "Convolution"
  bottom: "inception_4a/output"
  top: "inception_4b/3x3_reduce"
  param {
    lr_mult: 1
    decay_mult: 1
  }
  param {
    lr_mult: 2
    decay_mult: 0
  }
  convolution_param {
    num_output: 112
    kernel_size: 1
    weight_filler {
      type: "xavier"
    }
    bias_filler {
      type: "constant"
      value: 0.2
    }
  }
}
layer {
  name: "inception_4b/relu_3x3_reduce"
  type: "ReLU"
  bottom: "inception_4b/3x3_reduce"
  top: "inception_4b/3x3_reduce"
}
layer {
  name: "inception_4b/3x3"
  type: "Convolution"
  bottom: "inception_4b/3x3_reduce"
  top: "inception_4b/3x3"
  param {
    lr_mult: 1
    decay_mult: 1
  }
  param {
    lr_mult: 2
    decay_mult: 0
  }
  convolution_param {
    num_output: 224
    pad: 1
    kernel_size: 3
    weight_filler {
      type: "xavier"
    }
    bias_filler {
      type: "constant"
      value: 0.2
    }
  }
}
layer {
  name: "inception_4b/relu_3x3"
  type: "ReLU"
  bottom: "inception_4b/3x3"
  top: "inception_4b/3x3"
}
layer {
  name: "inception_4b/5x5_reduce"
  type: "Convolution"
  bottom: "inception_4a/output"
  top: "inception_4b/5x5_reduce"
  param {
    lr_mult: 1
    decay_mult: 1
  }
  param {
    lr_mult: 2
    decay_mult: 0
  }
  convolution_param {
    num_output: 24
    kernel_size: 1
    weight_filler {
      type: "xavier"
    }
    bias_filler {
      type: "constant"
      value: 0.2
    }
  }
}
layer {
  name: "inception_4b/relu_5x5_reduce"
  type: "ReLU"
  bottom: "inception_4b/5x5_reduce"
  top: "inception_4b/5x5_reduce"
}
layer {
  name: "inception_4b/5x5"
  type: "Convolution"
  bottom: "inception_4b/5x5_reduce"
  top: "inception_4b/5x5"
  param {
    lr_mult: 1
    decay_mult: 1
  }
  param {
    lr_mult: 2
    decay_mult: 0
  }
  convolution_param {
    num_output: 64
    pad: 2
    kernel_size: 5
    weight_filler {
      type: "xavier"
    }
    bias_filler {
      type: "constant"
      value: 0.2
    }
  }
}
layer {
  name: "inception_4b/relu_5x5"
  type: "ReLU"
  bottom: "inception_4b/5x5"
  top: "inception_4b/5x5"
}
layer {
  name: "inception_4b/pool"
  type: "Pooling"
  bottom: "inception_4a/output"
  top: "inception_4b/pool"
  pooling_param {
    pool: MAX
    kernel_size: 3
    stride: 1
    pad: 1
  }
}
layer {
  name: "inception_4b/pool_proj"
  type: "Convolution"
  bottom: "inception_4b/pool"
  top: "inception_4b/pool_proj"
  param {
    lr_mult: 1
    decay_mult: 1
  }
  param {
    lr_mult: 2
    decay_mult: 0
  }
  convolution_param {
    num_output: 64
    kernel_size: 1
    weight_filler {
      type: "xavier"
    }
    bias_filler {
      type: "constant"
      value: 0.2
    }
  }
}
layer {
  name: "inception_4b/relu_pool_proj"
  type: "ReLU"
  bottom: "inception_4b/pool_proj"
  top: "inception_4b/pool_proj"
}
layer {
  name: "inception_4b/output"
  type: "Concat"
  bottom: "inception_4b/1x1"
  bottom: "inception_4b/3x3"
  bottom: "inception_4b/5x5"
  bottom: "inception_4b/pool_proj"
  top: "inception_4b/output"
}
layer {
  name: "inception_4c/1x1"
  type: "Convolution"
  bottom: "inception_4b/output"
  top: "inception_4c/1x1"
  param {
    lr_mult: 1
    decay_mult: 1
  }
  param {
    lr_mult: 2
    decay_mult: 0
  }
  convolution_param {
    num_output: 128
    kernel_size: 1
    weight_filler {
      type: "xavier"
    }
    bias_filler {
      type: "constant"
      value: 0.2
    }
  }
}
layer {
  name: "inception_4c/relu_1x1"
  type: "ReLU"
  bottom: "inception_4c/1x1"
  top: "inception_4c/1x1"
}
layer {
  name: "inception_4c/3x3_reduce"
  type: "Convolution"
  bottom: "inception_4b/output"
  top: "inception_4c/3x3_reduce"
  param {
    lr_mult: 1
    decay_mult: 1
  }
  param {
    lr_mult: 2
    decay_mult: 0
  }
  convolution_param {
    num_output: 128
    kernel_size: 1
    weight_filler {
      type: "xavier"
    }
    bias_filler {
      type: "constant"
      value: 0.2
    }
  }
}
layer {
  name: "inception_4c/relu_3x3_reduce"
  type: "ReLU"
  bottom: "inception_4c/3x3_reduce"
  top: "inception_4c/3x3_reduce"
}
layer {
  name: "inception_4c/3x3"
  type: "Convolution"
  bottom: "inception_4c/3x3_reduce"
  top: "inception_4c/3x3"
  param {
    lr_mult: 1
    decay_mult: 1
  }
  param {
    lr_mult: 2
    decay_mult: 0
  }
  convolution_param {
    num_output: 256
    pad: 1
    kernel_size: 3
    weight_filler {
      type: "xavier"
    }
    bias_filler {
      type: "constant"
      value: 0.2
    }
  }
}
layer {
  name: "inception_4c/relu_3x3"
  type: "ReLU"
  bottom: "inception_4c/3x3"
  top: "inception_4c/3x3"
}
layer {
  name: "inception_4c/5x5_reduce"
  type: "Convolution"
  bottom: "inception_4b/output"
  top: "inception_4c/5x5_reduce"
  param {
    lr_mult: 1
    decay_mult: 1
  }
  param {
    lr_mult: 2
    decay_mult: 0
  }
  convolution_param {
    num_output: 24
    kernel_size: 1
    weight_filler {
      type: "xavier"
    }
    bias_filler {
      type: "constant"
      value: 0.2
    }
  }
}
layer {
  name: "inception_4c/relu_5x5_reduce"
  type: "ReLU"
  bottom: "inception_4c/5x5_reduce"
  top: "inception_4c/5x5_reduce"
}
layer {
  name: "inception_4c/5x5"
  type: "Convolution"
  bottom: "inception_4c/5x5_reduce"
  top: "inception_4c/5x5"
  param {
    lr_mult: 1
    decay_mult: 1
  }
  param {
    lr_mult: 2
    decay_mult: 0
  }
  convolution_param {
    num_output: 64
    pad: 2
    kernel_size: 5
    weight_filler {
      type: "xavier"
    }
    bias_filler {
      type: "constant"
      value: 0.2
    }
  }
}
layer {
  name: "inception_4c/relu_5x5"
  type: "ReLU"
  bottom: "inception_4c/5x5"
  top: "inception_4c/5x5"
}
layer {
  name: "inception_4c/pool"
  type: "Pooling"
  bottom: "inception_4b/output"
  top: "inception_4c/pool"
  pooling_param {
    pool: MAX
    kernel_size: 3
    stride: 1
    pad: 1
  }
}
layer {
  name: "inception_4c/pool_proj"
  type: "Convolution"
  bottom: "inception_4c/pool"
  top: "inception_4c/pool_proj"
  param {
    lr_mult: 1
    decay_mult: 1
  }
  param {
    lr_mult: 2
    decay_mult: 0
  }
  convolution_param {
    num_output: 64
    kernel_size: 1
    weight_filler {
      type: "xavier"
    }
    bias_filler {
      type: "constant"
      value: 0.2
    }
  }
}
layer {
  name: "inception_4c/relu_pool_proj"
  type: "ReLU"
  bottom: "inception_4c/pool_proj"
  top: "inception_4c/pool_proj"
}
layer {
  name: "inception_4c/output"
  type: "Concat"
  bottom: "inception_4c/1x1"
  bottom: "inception_4c/3x3"
  bottom: "inception_4c/5x5"
  bottom: "inception_4c/pool_proj"
  top: "inception_4c/output"
}
layer {
  name: "inception_4d/1x1"
  type: "Convolution"
  bottom: "inception_4c/output"
  top: "inception_4d/1x1"
  param {
    lr_mult: 1
    decay_mult: 1
  }
  param {
    lr_mult: 2
    decay_mult: 0
  }
  convolution_param {
    num_output: 112
    kernel_size: 1
    weight_filler {
      type: "xavier"
    }
    bias_filler {
      type: "constant"
      value: 0.2
    }
  }
}
layer {
  name: "inception_4d/relu_1x1"
  type: "ReLU"
  bottom: "inception_4d/1x1"
  top: "inception_4d/1x1"
}
layer {
  name: "inception_4d/3x3_reduce"
  type: "Convolution"
  bottom: "inception_4c/output"
  top: "inception_4d/3x3_reduce"
  param {
    lr_mult: 1
    decay_mult: 1
  }
  param {
    lr_mult: 2
    decay_mult: 0
  }
  convolution_param {
    num_output: 144
    kernel_size: 1
    weight_filler {
      type: "xavier"
    }
    bias_filler {
      type: "constant"
      value: 0.2
    }
  }
}
layer {
  name: "inception_4d/relu_3x3_reduce"
  type: "ReLU"
  bottom: "inception_4d/3x3_reduce"
  top: "inception_4d/3x3_reduce"
}
layer {
  name: "inception_4d/3x3"
  type: "Convolution"
  bottom: "inception_4d/3x3_reduce"
  top: "inception_4d/3x3"
  param {
    lr_mult: 1
    decay_mult: 1
  }
  param {
    lr_mult: 2
    decay_mult: 0
  }
  convolution_param {
    num_output: 288
    pad: 1
    kernel_size: 3
    weight_filler {
      type: "xavier"
    }
    bias_filler {
      type: "constant"
      value: 0.2
    }
  }
}
layer {
  name: "inception_4d/relu_3x3"
  type: "ReLU"
  bottom: "inception_4d/3x3"
  top: "inception_4d/3x3"
}
layer {
  name: "inception_4d/5x5_reduce"
  type: "Convolution"
  bottom: "inception_4c/output"
  top: "inception_4d/5x5_reduce"
  param {
    lr_mult: 1
    decay_mult: 1
  }
  param {
    lr_mult: 2
    decay_mult: 0
  }
  convolution_param {
    num_output: 32
    kernel_size: 1
    weight_filler {
      type: "xavier"
    }
    bias_filler {
      type: "constant"
      value: 0.2
    }
  }
}
layer {
  name: "inception_4d/relu_5x5_reduce"
  type: "ReLU"
  bottom: "inception_4d/5x5_reduce"
  top: "inception_4d/5x5_reduce"
}
layer {
  name: "inception_4d/5x5"
  type: "Convolution"
  bottom: "inception_4d/5x5_reduce"
  top: "inception_4d/5x5"
  param {
    lr_mult: 1
    decay_mult: 1
  }
  param {
    lr_mult: 2
    decay_mult: 0
  }
  convolution_param {
    num_output: 64
    pad: 2
    kernel_size: 5
    weight_filler {
      type: "xavier"
    }
    bias_filler {
      type: "constant"
      value: 0.2
    }
  }
}
layer {
  name: "inception_4d/relu_5x5"
  type: "ReLU"
  bottom: "inception_4d/5x5"
  top: "inception_4d/5x5"
}
layer {
  name: "inception_4d/pool"
  type: "Pooling"
  bottom: "inception_4c/output"
  top: "inception_4d/pool"
  pooling_param {
    pool: MAX
    kernel_size: 3
    stride: 1
    pad: 1
  }
}
layer {
  name: "inception_4d/pool_proj"
  type: "Convolution"
  bottom: "inception_4d/pool"
  top: "inception_4d/pool_proj"
  param {
    lr_mult: 1
    decay_mult: 1
  }
  param {
    lr_mult: 2
    decay_mult: 0
  }
  convolution_param {
    num_output: 64
    kernel_size: 1
    weight_filler {
      type: "xavier"
    }
    bias_filler {
      type: "constant"
      value: 0.2
    }
  }
}
layer {
  name: "inception_4d/relu_pool_proj"
  type: "ReLU"
  bottom: "inception_4d/pool_proj"
  top: "inception_4d/pool_proj"
}
layer {
  name: "inception_4d/output"
  type: "Concat"
  bottom: "inception_4d/1x1"
  bottom: "inception_4d/3x3"
  bottom: "inception_4d/5x5"
  bottom: "inception_4d/pool_proj"
  top: "inception_4d/output"
}
layer {
  name: "loss2/ave_pool"
  type: "Pooling"
  bottom: "inception_4d/output"
  top: "loss2/ave_pool"
  pooling_param {
    pool: AVE
    kernel_size: 5
    stride: 3
  }
}
layer {
  name: "loss2/conv"
  type: "Convolution"
  bottom: "loss2/ave_pool"
  top: "loss2/conv"
  param {
    lr_mult: 1
    decay_mult: 1
  }
  param {
    lr_mult: 2
    decay_mult: 0
  }
  convolution_param {
    num_output: 128
    kernel_size: 1
    weight_filler {
      type: "xavier"
    }
    bias_filler {
      type: "constant"
      value: 0.2
    }
  }
}
layer {
  name: "loss2/relu_conv"
  type: "ReLU"
  bottom: "loss2/conv"
  top: "loss2/conv"
}
layer {
  name: "loss2/fc"
  type: "InnerProduct"
  bottom: "loss2/conv"
  top: "loss2/fc"
  param {
    lr_mult: 1
    decay_mult: 1
  }
  param {
    lr_mult: 2
    decay_mult: 0
  }
  inner_product_param {
    num_output: 1024
    weight_filler {
      type: "xavier"
    }
    bias_filler {
      type: "constant"
      value: 0.2
    }
  }
}
layer {
  name: "loss2/relu_fc"
  type: "ReLU"
  bottom: "loss2/fc"
  top: "loss2/fc"
}
layer {
  name: "loss2/drop_fc"
  type: "Dropout"
  bottom: "loss2/fc"
  top: "loss2/fc"
  dropout_param {
    dropout_ratio: 0.7
  }
}
layer {
  name: "loss2/classifier"
  type: "InnerProduct"
  bottom: "loss2/fc"
  top: "loss2/classifier"
  param {
    lr_mult: 1
    decay_mult: 1
  }
  param {
    lr_mult: 2
    decay_mult: 0
  }
  inner_product_param {
    num_output: 1000
    weight_filler {
      type: "xavier"
    }
    bias_filler {
      type: "constant"
      value: 0
    }
  }
}
layer {
  name: "loss2/loss"
  type: "SoftmaxWithLoss"
  bottom: "loss2/classifier"
  bottom: "label"
  top: "loss2/loss1"
  loss_weight: 0.3
}
layer {
  name: "inception_4e/1x1"
  type: "Convolution"
  bottom: "inception_4d/output"
  top: "inception_4e/1x1"
  param {
    lr_mult: 1
    decay_mult: 1
  }
  param {
    lr_mult: 2
    decay_mult: 0
  }
  convolution_param {
    num_output: 256
    kernel_size: 1
    weight_filler {
      type: "xavier"
    }
    bias_filler {
      type: "constant"
      value: 0.2
    }
  }
}
layer {
  name: "inception_4e/relu_1x1"
  type: "ReLU"
  bottom: "inception_4e/1x1"
  top: "inception_4e/1x1"
}
layer {
  name: "inception_4e/3x3_reduce"
  type: "Convolution"
  bottom: "inception_4d/output"
  top: "inception_4e/3x3_reduce"
  param {
    lr_mult: 1
    decay_mult: 1
  }
  param {
    lr_mult: 2
    decay_mult: 0
  }
  convolution_param {
    num_output: 160
    kernel_size: 1
    weight_filler {
      type: "xavier"
    }
    bias_filler {
      type: "constant"
      value: 0.2
    }
  }
}
layer {
  name: "inception_4e/relu_3x3_reduce"
  type: "ReLU"
  bottom: "inception_4e/3x3_reduce"
  top: "inception_4e/3x3_reduce"
}
layer {
  name: "inception_4e/3x3"
  type: "Convolution"
  bottom: "inception_4e/3x3_reduce"
  top: "inception_4e/3x3"
  param {
    lr_mult: 1
    decay_mult: 1
  }
  param {
    lr_mult: 2
    decay_mult: 0
  }
  convolution_param {
    num_output: 320
    pad: 1
    kernel_size: 3
    weight_filler {
      type: "xavier"
    }
    bias_filler {
      type: "constant"
      value: 0.2
    }
  }
}
layer {
  name: "inception_4e/relu_3x3"
  type: "ReLU"
  bottom: "inception_4e/3x3"
  top: "inception_4e/3x3"
}
layer {
  name: "inception_4e/5x5_reduce"
  type: "Convolution"
  bottom: "inception_4d/output"
  top: "inception_4e/5x5_reduce"
  param {
    lr_mult: 1
    decay_mult: 1
  }
  param {
    lr_mult: 2
    decay_mult: 0
  }
  convolution_param {
    num_output: 32
    kernel_size: 1
    weight_filler {
      type: "xavier"
    }
    bias_filler {
      type: "constant"
      value: 0.2
    }
  }
}
layer {
  name: "inception_4e/relu_5x5_reduce"
  type: "ReLU"
  bottom: "inception_4e/5x5_reduce"
  top: "inception_4e/5x5_reduce"
}
layer {
  name: "inception_4e/5x5"
  type: "Convolution"
  bottom: "inception_4e/5x5_reduce"
  top: "inception_4e/5x5"
  param {
    lr_mult: 1
    decay_mult: 1
  }
  param {
    lr_mult: 2
    decay_mult: 0
  }
  convolution_param {
    num_output: 128
    pad: 2
    kernel_size: 5
    weight_filler {
      type: "xavier"
    }
    bias_filler {
      type: "constant"
      value: 0.2
    }
  }
}
layer {
  name: "inception_4e/relu_5x5"
  type: "ReLU"
  bottom: "inception_4e/5x5"
  top: "inception_4e/5x5"
}
layer {
  name: "inception_4e/pool"
  type: "Pooling"
  bottom: "inception_4d/output"
  top: "inception_4e/pool"
I0224 09:45:34.846123  1997 layer_factory.hpp:77] Creating layer data
I0224 09:45:34.846933  1997 net.cpp:100] Creating Layer data
I0224 09:45:34.846966  1997 net.cpp:408] data -> data
I0224 09:45:34.847086  1997 net.cpp:408] data -> label
I0224 09:45:34.847403  1998 db_lmdb.cpp:35] Opened lmdb /home/user/user/LIBRARIES/caffeLibs/caffe/examples/imagenet/ilsvrc12_train_lmdb
I0224 09:45:34.848238  1997 data_layer.cpp:41] output data size: 48,3,224,224
I0224 09:45:34.903293  1997 net.cpp:150] Setting up data
I0224 09:45:34.903408  1997 net.cpp:157] Top shape: 48 3 224 224 (7225344)
I0224 09:45:34.903435  1997 net.cpp:157] Top shape: 48 (48)
I0224 09:45:34.903445  1997 net.cpp:165] Memory required for data: 28901568
I0224 09:45:34.903472  1997 layer_factory.hpp:77] Creating layer label_data_1_split
I0224 09:45:34.903535  1997 net.cpp:100] Creating Layer label_data_1_split
I0224 09:45:34.903566  1997 net.cpp:434] label_data_1_split <- label
I0224 09:45:34.903599  1997 net.cpp:408] label_data_1_split -> label_data_1_split_0
I0224 09:45:34.903621  1997 net.cpp:408] label_data_1_split -> label_data_1_split_1
I0224 09:45:34.903636  1997 net.cpp:408] label_data_1_split -> label_data_1_split_2
I0224 09:45:34.903677  1997 net.cpp:150] Setting up label_data_1_split
I0224 09:45:34.903708  1997 net.cpp:157] Top shape: 48 (48)
I0224 09:45:34.903719  1997 net.cpp:157] Top shape: 48 (48)
I0224 09:45:34.903730  1997 net.cpp:157] Top shape: 48 (48)
I0224 09:45:34.903738  1997 net.cpp:165] Memory required for data: 28902144
I0224 09:45:34.903748  1997 layer_factory.hpp:77] Creating layer conv1/7x7_s2
I0224 09:45:34.903779  1997 net.cpp:100] Creating Layer conv1/7x7_s2
I0224 09:45:34.903789  1997 net.cpp:434] conv1/7x7_s2 <- data
I0224 09:45:34.903803  1997 net.cpp:408] conv1/7x7_s2 -> conv1/7x7_s2
I0224 09:45:34.904180  1997 net.cpp:150] Setting up conv1/7x7_s2
I0224 09:45:34.904201  1997 net.cpp:157] Top shape: 48 64 112 112 (38535168)
I0224 09:45:34.904211  1997 net.cpp:165] Memory required for data: 183042816
I0224 09:45:34.904253  1997 layer_factory.hpp:77] Creating layer conv1/relu_7x7
I0224 09:45:34.904271  1997 net.cpp:100] Creating Layer conv1/relu_7x7
I0224 09:45:34.904281  1997 net.cpp:434] conv1/relu_7x7 <- conv1/7x7_s2
I0224 09:45:34.904297  1997 net.cpp:395] conv1/relu_7x7 -> conv1/7x7_s2 (in-place)
I0224 09:45:34.904315  1997 net.cpp:150] Setting up conv1/relu_7x7
I0224 09:45:34.904327  1997 net.cpp:157] Top shape: 48 64 112 112 (38535168)
I0224 09:45:34.904335  1997 net.cpp:165] Memory required for data: 337183488
I0224 09:45:34.904345  1997 layer_factory.hpp:77] Creating layer pool1/3x3_s2
I0224 09:45:34.904359  1997 net.cpp:100] Creating Layer pool1/3x3_s2
I0224 09:45:34.904368  1997 net.cpp:434] pool1/3x3_s2 <- conv1/7x7_s2
I0224 09:45:34.904384  1997 net.cpp:408] pool1/3x3_s2 -> pool1/3x3_s2
I0224 09:45:34.904422  1997 net.cpp:150] Setting up pool1/3x3_s2
I0224 09:45:34.904435  1997 net.cpp:157] Top shape: 48 64 56 56 (9633792)
I0224 09:45:34.904443  1997 net.cpp:165] Memory required for data: 375718656
I0224 09:45:34.904453  1997 layer_factory.hpp:77] Creating layer pool1/norm1
I0224 09:45:34.904469  1997 net.cpp:100] Creating Layer pool1/norm1
I0224 09:45:34.904479  1997 net.cpp:434] pool1/norm1 <- pool1/3x3_s2
I0224 09:45:34.904491  1997 net.cpp:408] pool1/norm1 -> pool1/norm1
I0224 09:45:34.904512  1997 net.cpp:150] Setting up pool1/norm1
I0224 09:45:34.904527  1997 net.cpp:157] Top shape: 48 64 56 56 (9633792)
I0224 09:45:34.904537  1997 net.cpp:165] Memory required for data: 414253824
I0224 09:45:34.904546  1997 layer_factory.hpp:77] Creating layer conv2/3x3_reduce
I0224 09:45:34.904562  1997 net.cpp:100] Creating Layer conv2/3x3_reduce
I0224 09:45:34.904572  1997 net.cpp:434] conv2/3x3_reduce <- pool1/norm1
I0224 09:45:34.904588  1997 net.cpp:408] conv2/3x3_reduce -> conv2/3x3_reduce
I0224 09:45:34.904705  1997 net.cpp:150] Setting up conv2/3x3_reduce
I0224 09:45:34.904718  1997 net.cpp:157] Top shape: 48 64 56 56 (9633792)
I0224 09:45:34.904727  1997 net.cpp:165] Memory required for data: 452788992
I0224 09:45:34.904743  1997 layer_factory.hpp:77] Creating layer conv2/relu_3x3_reduce
I0224 09:45:34.904759  1997 net.cpp:100] Creating Layer conv2/relu_3x3_reduce
I0224 09:45:34.904769  1997 net.cpp:434] conv2/relu_3x3_reduce <- conv2/3x3_reduce
I0224 09:45:34.904780  1997 net.cpp:395] conv2/relu_3x3_reduce -> conv2/3x3_reduce (in-place)
I0224 09:45:34.904793  1997 net.cpp:150] Setting up conv2/relu_3x3_reduce
I0224 09:45:34.904805  1997 net.cpp:157] Top shape: 48 64 56 56 (9633792)
I0224 09:45:34.904814  1997 net.cpp:165] Memory required for data: 491324160
I0224 09:45:34.904822  1997 layer_factory.hpp:77] Creating layer conv2/3x3
I0224 09:45:34.904842  1997 net.cpp:100] Creating Layer conv2/3x3
I0224 09:45:34.904852  1997 net.cpp:434] conv2/3x3 <- conv2/3x3_reduce
I0224 09:45:34.904868  1997 net.cpp:408] conv2/3x3 -> conv2/3x3
I0224 09:45:34.906968  1997 net.cpp:150] Setting up conv2/3x3
I0224 09:45:34.907004  1997 net.cpp:157] Top shape: 48 192 56 56 (28901376)
I0224 09:45:34.907014  1997 net.cpp:165] Memory required for data: 606929664
I0224 09:45:34.907034  1997 layer_factory.hpp:77] Creating layer conv2/relu_3x3
I0224 09:45:34.907049  1997 net.cpp:100] Creating Layer conv2/relu_3x3
I0224 09:45:34.907070  1997 net.cpp:434] conv2/relu_3x3 <- conv2/3x3
I0224 09:45:34.907096  1997 net.cpp:395] conv2/relu_3x3 -> conv2/3x3 (in-place)
I0224 09:45:34.907112  1997 net.cpp:150] Setting up conv2/relu_3x3
I0224 09:45:34.907124  1997 net.cpp:157] Top shape: 48 192 56 56 (28901376)
I0224 09:45:34.907132  1997 net.cpp:165] Memory required for data: 722535168
I0224 09:45:34.907141  1997 layer_factory.hpp:77] Creating layer conv2/norm2
I0224 09:45:34.907157  1997 net.cpp:100] Creating Layer conv2/norm2
I0224 09:45:34.907167  1997 net.cpp:434] conv2/norm2 <- conv2/3x3
I0224 09:45:34.907182  1997 net.cpp:408] conv2/norm2 -> conv2/norm2
I0224 09:45:34.907199  1997 net.cpp:150] Setting up conv2/norm2
I0224 09:45:34.907212  1997 net.cpp:157] Top shape: 48 192 56 56 (28901376)
I0224 09:45:34.907220  1997 net.cpp:165] Memory required for data: 838140672
I0224 09:45:34.907229  1997 layer_factory.hpp:77] Creating layer pool2/3x3_s2
I0224 09:45:34.907246  1997 net.cpp:100] Creating Layer pool2/3x3_s2
I0224 09:45:34.907258  1997 net.cpp:434] pool2/3x3_s2 <- conv2/norm2
I0224 09:45:34.907274  1997 net.cpp:408] pool2/3x3_s2 -> pool2/3x3_s2
I0224 09:45:34.907290  1997 net.cpp:150] Setting up pool2/3x3_s2
I0224 09:45:34.907302  1997 net.cpp:157] Top shape: 48 192 28 28 (7225344)
I0224 09:45:34.907310  1997 net.cpp:165] Memory required for data: 867042048
I0224 09:45:34.907320  1997 layer_factory.hpp:77] Creating layer pool2/3x3_s2_pool2/3x3_s2_0_split
I0224 09:45:34.907332  1997 net.cpp:100] Creating Layer pool2/3x3_s2_pool2/3x3_s2_0_split
I0224 09:45:34.907341  1997 net.cpp:434] pool2/3x3_s2_pool2/3x3_s2_0_split <- pool2/3x3_s2
I0224 09:45:34.907353  1997 net.cpp:408] pool2/3x3_s2_pool2/3x3_s2_0_split -> pool2/3x3_s2_pool2/3x3_s2_0_split_0
I0224 09:45:34.907367  1997 net.cpp:408] pool2/3x3_s2_pool2/3x3_s2_0_split -> pool2/3x3_s2_pool2/3x3_s2_0_split_1
I0224 09:45:34.907382  1997 net.cpp:408] pool2/3x3_s2_pool2/3x3_s2_0_split -> pool2/3x3_s2_pool2/3x3_s2_0_split_2
I0224 09:45:34.907395  1997 net.cpp:408] pool2/3x3_s2_pool2/3x3_s2_0_split -> pool2/3x3_s2_pool2/3x3_s2_0_split_3
I0224 09:45:34.907411  1997 net.cpp:150] Setting up pool2/3x3_s2_pool2/3x3_s2_0_split
I0224 09:45:34.907423  1997 net.cpp:157] Top shape: 48 192 28 28 (7225344)
I0224 09:45:34.907434  1997 net.cpp:157] Top shape: 48 192 28 28 (7225344)
I0224 09:45:34.907444  1997 net.cpp:157] Top shape: 48 192 28 28 (7225344)
I0224 09:45:34.907455  1997 net.cpp:157] Top shape: 48 192 28 28 (7225344)
I0224 09:45:34.907464  1997 net.cpp:165] Memory required for data: 982647552
I0224 09:45:34.907472  1997 layer_factory.hpp:77] Creating layer inception_3a/1x1
I0224 09:45:34.907492  1997 net.cpp:100] Creating Layer inception_3a/1x1
I0224 09:45:34.907502  1997 net.cpp:434] inception_3a/1x1 <- pool2/3x3_s2_pool2/3x3_s2_0_split_0
I0224 09:45:34.907516  1997 net.cpp:408] inception_3a/1x1 -> inception_3a/1x1
I0224 09:45:34.907783  1997 net.cpp:150] Setting up inception_3a/1x1
I0224 09:45:34.907798  1997 net.cpp:157] Top shape: 48 64 28 28 (2408448)
I0224 09:45:34.907806  1997 net.cpp:165] Memory required for data: 992281344
I0224 09:45:34.907820  1997 layer_factory.hpp:77] Creating layer inception_3a/relu_1x1
I0224 09:45:34.907832  1997 net.cpp:100] Creating Layer inception_3a/relu_1x1
I0224 09:45:34.907841  1997 net.cpp:434] inception_3a/relu_1x1 <- inception_3a/1x1
I0224 09:45:34.907856  1997 net.cpp:395] inception_3a/relu_1x1 -> inception_3a/1x1 (in-place)
I0224 09:45:34.907871  1997 net.cpp:150] Setting up inception_3a/relu_1x1
I0224 09:45:34.907882  1997 net.cpp:157] Top shape: 48 64 28 28 (2408448)
I0224 09:45:34.907891  1997 net.cpp:165] Memory required for data: 1001915136
I0224 09:45:34.907899  1997 layer_factory.hpp:77] Creating layer inception_3a/3x3_reduce
I0224 09:45:34.907917  1997 net.cpp:100] Creating Layer inception_3a/3x3_reduce
I0224 09:45:34.907928  1997 net.cpp:434] inception_3a/3x3_reduce <- pool2/3x3_s2_pool2/3x3_s2_0_split_1
I0224 09:45:34.907941  1997 net.cpp:408] inception_3a/3x3_reduce -> inception_3a/3x3_reduce
I0224 09:45:34.908306  1997 net.cpp:150] Setting up inception_3a/3x3_reduce
I0224 09:45:34.908332  1997 net.cpp:157] Top shape: 48 96 28 28 (3612672)
I0224 09:45:34.908352  1997 net.cpp:165] Memory required for data: 1016365824
I0224 09:45:34.908370  1997 layer_factory.hpp:77] Creating layer inception_3a/relu_3x3_reduce
I0224 09:45:34.908385  1997 net.cpp:100] Creating Layer inception_3a/relu_3x3_reduce
I0224 09:45:34.908394  1997 net.cpp:434] inception_3a/relu_3x3_reduce <- inception_3a/3x3_reduce
I0224 09:45:34.908411  1997 net.cpp:395] inception_3a/relu_3x3_reduce -> inception_3a/3x3_reduce (in-place)
I0224 09:45:34.908427  1997 net.cpp:150] Setting up inception_3a/relu_3x3_reduce
I0224 09:45:34.908437  1997 net.cpp:157] Top shape: 48 96 28 28 (3612672)
I0224 09:45:34.908447  1997 net.cpp:165] Memory required for data: 1030816512
I0224 09:45:34.908454  1997 layer_factory.hpp:77] Creating layer inception_3a/3x3
I0224 09:45:34.908473  1997 net.cpp:100] Creating Layer inception_3a/3x3
I0224 09:45:34.908483  1997 net.cpp:434] inception_3a/3x3 <- inception_3a/3x3_reduce
I0224 09:45:34.908495  1997 net.cpp:408] inception_3a/3x3 -> inception_3a/3x3
I0224 09:45:34.910558  1997 net.cpp:150] Setting up inception_3a/3x3
I0224 09:45:34.910591  1997 net.cpp:157] Top shape: 48 128 28 28 (4816896)
I0224 09:45:34.910601  1997 net.cpp:165] Memory required for data: 1050084096
I0224 09:45:34.910616  1997 layer_factory.hpp:77] Creating layer inception_3a/relu_3x3
I0224 09:45:34.910630  1997 net.cpp:100] Creating Layer inception_3a/relu_3x3
I0224 09:45:34.910641  1997 net.cpp:434] inception_3a/relu_3x3 <- inception_3a/3x3
I0224 09:45:34.910655  1997 net.cpp:395] inception_3a/relu_3x3 -> inception_3a/3x3 (in-place)
I0224 09:45:34.910670  1997 net.cpp:150] Setting up inception_3a/relu_3x3
I0224 09:45:34.910682  1997 net.cpp:157] Top shape: 48 128 28 28 (4816896)
I0224 09:45:34.910691  1997 net.cpp:165] Memory required for data: 1069351680
I0224 09:45:34.910699  1997 layer_factory.hpp:77] Creating layer inception_3a/5x5_reduce
I0224 09:45:34.910719  1997 net.cpp:100] Creating Layer inception_3a/5x5_reduce
I0224 09:45:34.910730  1997 net.cpp:434] inception_3a/5x5_reduce <- pool2/3x3_s2_pool2/3x3_s2_0_split_2
I0224 09:45:34.910748  1997 net.cpp:408] inception_3a/5x5_reduce -> inception_3a/5x5_reduce
I0224 09:45:34.910837  1997 net.cpp:150] Setting up inception_3a/5x5_reduce
I0224 09:45:34.910851  1997 net.cpp:157] Top shape: 48 16 28 28 (602112)
I0224 09:45:34.910859  1997 net.cpp:165] Memory required for data: 1071760128
I0224 09:45:34.910872  1997 layer_factory.hpp:77] Creating layer inception_3a/relu_5x5_reduce
I0224 09:45:34.910883  1997 net.cpp:100] Creating Layer inception_3a/relu_5x5_reduce
I0224 09:45:34.910893  1997 net.cpp:434] inception_3a/relu_5x5_reduce <- inception_3a/5x5_reduce
I0224 09:45:34.910908  1997 net.cpp:395] inception_3a/relu_5x5_reduce -> inception_3a/5x5_reduce (in-place)
I0224 09:45:34.910923  1997 net.cpp:150] Setting up inception_3a/relu_5x5_reduce
I0224 09:45:34.910934  1997 net.cpp:157] Top shape: 48 16 28 28 (602112)
I0224 09:45:34.910943  1997 net.cpp:165] Memory required for data: 1074168576
I0224 09:45:34.910951  1997 layer_factory.hpp:77] Creating layer inception_3a/5x5
I0224 09:45:34.910969  1997 net.cpp:100] Creating Layer inception_3a/5x5
I0224 09:45:34.910979  1997 net.cpp:434] inception_3a/5x5 <- inception_3a/5x5_reduce
I0224 09:45:34.910992  1997 net.cpp:408] inception_3a/5x5 -> inception_3a/5x5
I0224 09:45:34.911315  1997 net.cpp:150] Setting up inception_3a/5x5
I0224 09:45:34.911339  1997 net.cpp:157] Top shape: 48 32 28 28 (1204224)
I0224 09:45:34.911348  1997 net.cpp:165] Memory required for data: 1078985472
I0224 09:45:34.911362  1997 layer_factory.hpp:77] Creating layer inception_3a/relu_5x5
I0224 09:45:34.911375  1997 net.cpp:100] Creating Layer inception_3a/relu_5x5
I0224 09:45:34.911386  1997 net.cpp:434] inception_3a/relu_5x5 <- inception_3a/5x5
I0224 09:45:34.911397  1997 net.cpp:395] inception_3a/relu_5x5 -> inception_3a/5x5 (in-place)
I0224 09:45:34.911412  1997 net.cpp:150] Setting up inception_3a/relu_5x5
I0224 09:45:34.911423  1997 net.cpp:157] Top shape: 48 32 28 28 (1204224)
I0224 09:45:34.911443  1997 net.cpp:165] Memory required for data: 1083802368
I0224 09:45:34.911464  1997 layer_factory.hpp:77] Creating layer inception_3a/pool
I0224 09:45:34.911486  1997 net.cpp:100] Creating Layer inception_3a/pool
I0224 09:45:34.911497  1997 net.cpp:434] inception_3a/pool <- pool2/3x3_s2_pool2/3x3_s2_0_split_3
I0224 09:45:34.911509  1997 net.cpp:408] inception_3a/pool -> inception_3a/pool
I0224 09:45:34.911528  1997 net.cpp:150] Setting up inception_3a/pool
I0224 09:45:34.911540  1997 net.cpp:157] Top shape: 48 192 28 28 (7225344)
I0224 09:45:34.911548  1997 net.cpp:165] Memory required for data: 1112703744
I0224 09:45:34.911557  1997 layer_factory.hpp:77] Creating layer inception_3a/pool_proj
I0224 09:45:34.911576  1997 net.cpp:100] Creating Layer inception_3a/pool_proj
I0224 09:45:34.911586  1997 net.cpp:434] inception_3a/pool_proj <- inception_3a/pool
I0224 09:45:34.911603  1997 net.cpp:408] inception_3a/pool_proj -> inception_3a/pool_proj
I0224 09:45:34.911749  1997 net.cpp:150] Setting up inception_3a/pool_proj
I0224 09:45:34.911762  1997 net.cpp:157] Top shape: 48 32 28 28 (1204224)
I0224 09:45:34.911772  1997 net.cpp:165] Memory required for data: 1117520640
I0224 09:45:34.911794  1997 layer_factory.hpp:77] Creating layer inception_3a/relu_pool_proj
I0224 09:45:34.911808  1997 net.cpp:100] Creating Layer inception_3a/relu_pool_proj
I0224 09:45:34.911816  1997 net.cpp:434] inception_3a/relu_pool_proj <- inception_3a/pool_proj
I0224 09:45:34.911831  1997 net.cpp:395] inception_3a/relu_pool_proj -> inception_3a/pool_proj (in-place)
I0224 09:45:34.911845  1997 net.cpp:150] Setting up inception_3a/relu_pool_proj
I0224 09:45:34.911857  1997 net.cpp:157] Top shape: 48 32 28 28 (1204224)
I0224 09:45:34.911865  1997 net.cpp:165] Memory required for data: 1122337536
I0224 09:45:34.911873  1997 layer_factory.hpp:77] Creating layer inception_3a/output
I0224 09:45:34.911890  1997 net.cpp:100] Creating Layer inception_3a/output
I0224 09:45:34.911900  1997 net.cpp:434] inception_3a/output <- inception_3a/1x1
I0224 09:45:34.911909  1997 net.cpp:434] inception_3a/output <- inception_3a/3x3
I0224 09:45:34.911921  1997 net.cpp:434] inception_3a/output <- inception_3a/5x5
I0224 09:45:34.911931  1997 net.cpp:434] inception_3a/output <- inception_3a/pool_proj
I0224 09:45:34.911942  1997 net.cpp:408] inception_3a/output -> inception_3a/output
I0224 09:45:34.911960  1997 net.cpp:150] Setting up inception_3a/output
I0224 09:45:34.911972  1997 net.cpp:157] Top shape: 48 256 28 28 (9633792)
I0224 09:45:34.911981  1997 net.cpp:165] Memory required for data: 1160872704
I0224 09:45:34.911990  1997 layer_factory.hpp:77] Creating layer inception_3a/output_inception_3a/output_0_split
I0224 09:45:34.912006  1997 net.cpp:100] Creating Layer inception_3a/output_inception_3a/output_0_split
I0224 09:45:34.912016  1997 net.cpp:434] inception_3a/output_inception_3a/output_0_split <- inception_3a/output
I0224 09:45:34.912029  1997 net.cpp:408] inception_3a/output_inception_3a/output_0_split -> inception_3a/output_inception_3a/output_0_split_0
I0224 09:45:34.912044  1997 net.cpp:408] inception_3a/output_inception_3a/output_0_split -> inception_3a/output_inception_3a/output_0_split_1
I0224 09:45:34.912057  1997 net.cpp:408] inception_3a/output_inception_3a/output_0_split -> inception_3a/output_inception_3a/output_0_split_2
I0224 09:45:34.912075  1997 net.cpp:408] inception_3a/output_inception_3a/output_0_split -> inception_3a/output_inception_3a/output_0_split_3
I0224 09:45:34.912092  1997 net.cpp:150] Setting up inception_3a/output_inception_3a/output_0_split
I0224 09:45:34.912104  1997 net.cpp:157] Top shape: 48 256 28 28 (9633792)
I0224 09:45:34.912116  1997 net.cpp:157] Top shape: 48 256 28 28 (9633792)
I0224 09:45:34.912125  1997 net.cpp:157] Top shape: 48 256 28 28 (9633792)
I0224 09:45:34.912137  1997 net.cpp:157] Top shape: 48 256 28 28 (9633792)
I0224 09:45:34.912145  1997 net.cpp:165] Memory required for data: 1315013376
I0224 09:45:34.912153  1997 layer_factory.hpp:77] Creating layer inception_3b/1x1
I0224 09:45:34.912178  1997 net.cpp:100] Creating Layer inception_3b/1x1
I0224 09:45:34.912199  1997 net.cpp:434] inception_3b/1x1 <- inception_3a/output_inception_3a/output_0_split_0
I0224 09:45:34.912216  1997 net.cpp:408] inception_3b/1x1 -> inception_3b/1x1
I0224 09:45:34.912845  1997 net.cpp:150] Setting up inception_3b/1x1
I0224 09:45:34.912863  1997 net.cpp:157] Top shape: 48 128 28 28 (4816896)
I0224 09:45:34.912871  1997 net.cpp:165] Memory required for data: 1334280960
I0224 09:45:34.912885  1997 layer_factory.hpp:77] Creating layer inception_3b/relu_1x1
I0224 09:45:34.912899  1997 net.cpp:100] Creating Layer inception_3b/relu_1x1
I0224 09:45:34.912909  1997 net.cpp:434] inception_3b/relu_1x1 <- inception_3b/1x1
I0224 09:45:34.912931  1997 net.cpp:395] inception_3b/relu_1x1 -> inception_3b/1x1 (in-place)
I0224 09:45:34.912945  1997 net.cpp:150] Setting up inception_3b/relu_1x1
I0224 09:45:34.912957  1997 net.cpp:157] Top shape: 48 128 28 28 (4816896)
I0224 09:45:34.912966  1997 net.cpp:165] Memory required for data: 1353548544
I0224 09:45:34.912976  1997 layer_factory.hpp:77] Creating layer inception_3b/3x3_reduce
I0224 09:45:34.912994  1997 net.cpp:100] Creating Layer inception_3b/3x3_reduce
I0224 09:45:34.913005  1997 net.cpp:434] inception_3b/3x3_reduce <- inception_3a/output_inception_3a/output_0_split_1
I0224 09:45:34.913018  1997 net.cpp:408] inception_3b/3x3_reduce -> inception_3b/3x3_reduce
I0224 09:45:34.913728  1997 net.cpp:150] Setting up inception_3b/3x3_reduce
I0224 09:45:34.913753  1997 net.cpp:157] Top shape: 48 128 28 28 (4816896)
I0224 09:45:34.913763  1997 net.cpp:165] Memory required for data: 1372816128
I0224 09:45:34.913777  1997 layer_factory.hpp:77] Creating layer inception_3b/relu_3x3_reduce
I0224 09:45:34.913794  1997 net.cpp:100] Creating Layer inception_3b/relu_3x3_reduce
I0224 09:45:34.913805  1997 net.cpp:434] inception_3b/relu_3x3_reduce <- inception_3b/3x3_reduce
I0224 09:45:34.913820  1997 net.cpp:395] inception_3b/relu_3x3_reduce -> inception_3b/3x3_reduce (in-place)
I0224 09:45:34.913837  1997 net.cpp:150] Setting up inception_3b/relu_3x3_reduce
I0224 09:45:34.913849  1997 net.cpp:157] Top shape: 48 128 28 28 (4816896)
I0224 09:45:34.913857  1997 net.cpp:165] Memory required for data: 1392083712
I0224 09:45:34.913866  1997 layer_factory.hpp:77] Creating layer inception_3b/3x3
I0224 09:45:34.913892  1997 net.cpp:100] Creating Layer inception_3b/3x3
I0224 09:45:34.913902  1997 net.cpp:434] inception_3b/3x3 <- inception_3b/3x3_reduce
I0224 09:45:34.913916  1997 net.cpp:408] inception_3b/3x3 -> inception_3b/3x3
I0224 09:45:34.918004  1997 net.cpp:150] Setting up inception_3b/3x3
I0224 09:45:34.918038  1997 net.cpp:157] Top shape: 48 192 28 28 (7225344)
I0224 09:45:34.918048  1997 net.cpp:165] Memory required for data: 1420985088
I0224 09:45:34.918064  1997 layer_factory.hpp:77] Creating layer inception_3b/relu_3x3
I0224 09:45:34.918079  1997 net.cpp:100] Creating Layer inception_3b/relu_3x3
I0224 09:45:34.918090  1997 net.cpp:434] inception_3b/relu_3x3 <- inception_3b/3x3
I0224 09:45:34.918107  1997 net.cpp:395] inception_3b/relu_3x3 -> inception_3b/3x3 (in-place)
I0224 09:45:34.918123  1997 net.cpp:150] Setting up inception_3b/relu_3x3
I0224 09:45:34.918134  1997 net.cpp:157] Top shape: 48 192 28 28 (7225344)
I0224 09:45:34.918143  1997 net.cpp:165] Memory required for data: 1449886464
I0224 09:45:34.918153  1997 layer_factory.hpp:77] Creating layer inception_3b/5x5_reduce
I0224 09:45:34.918169  1997 net.cpp:100] Creating Layer inception_3b/5x5_reduce
I0224 09:45:34.918179  1997 net.cpp:434] inception_3b/5x5_reduce <- inception_3a/output_inception_3a/output_0_split_2
I0224 09:45:34.918195  1997 net.cpp:408] inception_3b/5x5_reduce -> inception_3b/5x5_reduce
I0224 09:45:34.918377  1997 net.cpp:150] Setting up inception_3b/5x5_reduce
I0224 09:45:34.918393  1997 net.cpp:157] Top shape: 48 32 28 28 (1204224)
I0224 09:45:34.918401  1997 net.cpp:165] Memory required for data: 1454703360
I0224 09:45:34.918416  1997 layer_factory.hpp:77] Creating layer inception_3b/relu_5x5_reduce
I0224 09:45:34.918443  1997 net.cpp:100] Creating Layer inception_3b/relu_5x5_reduce
I0224 09:45:34.918467  1997 net.cpp:434] inception_3b/relu_5x5_reduce <- inception_3b/5x5_reduce
I0224 09:45:34.918479  1997 net.cpp:395] inception_3b/relu_5x5_reduce -> inception_3b/5x5_reduce (in-place)
I0224 09:45:34.918493  1997 net.cpp:150] Setting up inception_3b/relu_5x5_reduce
I0224 09:45:34.918504  1997 net.cpp:157] Top shape: 48 32 28 28 (1204224)
I0224 09:45:34.918512  1997 net.cpp:165] Memory required for data: 1459520256
I0224 09:45:34.918521  1997 layer_factory.hpp:77] Creating layer inception_3b/5x5
I0224 09:45:34.918540  1997 net.cpp:100] Creating Layer inception_3b/5x5
I0224 09:45:34.918550  1997 net.cpp:434] inception_3b/5x5 <- inception_3b/5x5_reduce
I0224 09:45:34.918566  1997 net.cpp:408] inception_3b/5x5 -> inception_3b/5x5
I0224 09:45:34.920008  1997 net.cpp:150] Setting up inception_3b/5x5
I0224 09:45:34.920033  1997 net.cpp:157] Top shape: 48 96 28 28 (3612672)
I0224 09:45:34.920042  1997 net.cpp:165] Memory required for data: 1473970944
I0224 09:45:34.920056  1997 layer_factory.hpp:77] Creating layer inception_3b/relu_5x5
I0224 09:45:34.920074  1997 net.cpp:100] Creating Layer inception_3b/relu_5x5
I0224 09:45:34.920085  1997 net.cpp:434] inception_3b/relu_5x5 <- inception_3b/5x5
I0224 09:45:34.920099  1997 net.cpp:395] inception_3b/relu_5x5 -> inception_3b/5x5 (in-place)
I0224 09:45:34.920111  1997 net.cpp:150] Setting up inception_3b/relu_5x5
I0224 09:45:34.920123  1997 net.cpp:157] Top shape: 48 96 28 28 (3612672)
I0224 09:45:34.920132  1997 net.cpp:165] Memory required for data: 1488421632
I0224 09:45:34.920141  1997 layer_factory.hpp:77] Creating layer inception_3b/pool
I0224 09:45:34.920156  1997 net.cpp:100] Creating Layer inception_3b/pool
I0224 09:45:34.920167  1997 net.cpp:434] inception_3b/pool <- inception_3a/output_inception_3a/output_0_split_3
I0224 09:45:34.920181  1997 net.cpp:408] inception_3b/pool -> inception_3b/pool
I0224 09:45:34.920198  1997 net.cpp:150] Setting up inception_3b/pool
I0224 09:45:34.920210  1997 net.cpp:157] Top shape: 48 256 28 28 (9633792)
I0224 09:45:34.920219  1997 net.cpp:165] Memory required for data: 1526956800
I0224 09:45:34.920228  1997 layer_factory.hpp:77] Creating layer inception_3b/pool_proj
I0224 09:45:34.920253  1997 net.cpp:100] Creating Layer inception_3b/pool_proj
I0224 09:45:34.920264  1997 net.cpp:434] inception_3b/pool_proj <- inception_3b/pool
I0224 09:45:34.920280  1997 net.cpp:408] inception_3b/pool_proj -> inception_3b/pool_proj
I0224 09:45:34.920608  1997 net.cpp:150] Setting up inception_3b/pool_proj
I0224 09:45:34.920621  1997 net.cpp:157] Top shape: 48 64 28 28 (2408448)
I0224 09:45:34.920630  1997 net.cpp:165] Memory required for data: 1536590592
I0224 09:45:34.920644  1997 layer_factory.hpp:77] Creating layer inception_3b/relu_pool_proj
I0224 09:45:34.920660  1997 net.cpp:100] Creating Layer inception_3b/relu_pool_proj
I0224 09:45:34.920670  1997 net.cpp:434] inception_3b/relu_pool_proj <- inception_3b/pool_proj
I0224 09:45:34.920681  1997 net.cpp:395] inception_3b/relu_pool_proj -> inception_3b/pool_proj (in-place)
I0224 09:45:34.920694  1997 net.cpp:150] Setting up inception_3b/relu_pool_proj
I0224 09:45:34.920706  1997 net.cpp:157] Top shape: 48 64 28 28 (2408448)
I0224 09:45:34.920714  1997 net.cpp:165] Memory required for data: 1546224384
I0224 09:45:34.920723  1997 layer_factory.hpp:77] Creating layer inception_3b/output
I0224 09:45:34.920735  1997 net.cpp:100] Creating Layer inception_3b/output
I0224 09:45:34.920744  1997 net.cpp:434] inception_3b/output <- inception_3b/1x1
I0224 09:45:34.920755  1997 net.cpp:434] inception_3b/output <- inception_3b/3x3
I0224 09:45:34.920766  1997 net.cpp:434] inception_3b/output <- inception_3b/5x5
I0224 09:45:34.920776  1997 net.cpp:434] inception_3b/output <- inception_3b/pool_proj
I0224 09:45:34.920791  1997 net.cpp:408] inception_3b/output -> inception_3b/output
I0224 09:45:34.920809  1997 net.cpp:150] Setting up inception_3b/output
I0224 09:45:34.920820  1997 net.cpp:157] Top shape: 48 480 28 28 (18063360)
I0224 09:45:34.920837  1997 net.cpp:165] Memory required for data: 1618477824
I0224 09:45:34.920858  1997 layer_factory.hpp:77] Creating layer pool3/3x3_s2
I0224 09:45:34.920871  1997 net.cpp:100] Creating Layer pool3/3x3_s2
I0224 09:45:34.920881  1997 net.cpp:434] pool3/3x3_s2 <- inception_3b/output
I0224 09:45:34.920897  1997 net.cpp:408] pool3/3x3_s2 -> pool3/3x3_s2
I0224 09:45:34.920913  1997 net.cpp:150] Setting up pool3/3x3_s2
I0224 09:45:34.920927  1997 net.cpp:157] Top shape: 48 480 14 14 (4515840)
I0224 09:45:34.920934  1997 net.cpp:165] Memory required for data: 1636541184
I0224 09:45:34.920943  1997 layer_factory.hpp:77] Creating layer pool3/3x3_s2_pool3/3x3_s2_0_split
I0224 09:45:34.920956  1997 net.cpp:100] Creating Layer pool3/3x3_s2_pool3/3x3_s2_0_split
I0224 09:45:34.920965  1997 net.cpp:434] pool3/3x3_s2_pool3/3x3_s2_0_split <- pool3/3x3_s2
I0224 09:45:34.920981  1997 net.cpp:408] pool3/3x3_s2_pool3/3x3_s2_0_split -> pool3/3x3_s2_pool3/3x3_s2_0_split_0
I0224 09:45:34.920996  1997 net.cpp:408] pool3/3x3_s2_pool3/3x3_s2_0_split -> pool3/3x3_s2_pool3/3x3_s2_0_split_1
I0224 09:45:34.921010  1997 net.cpp:408] pool3/3x3_s2_pool3/3x3_s2_0_split -> pool3/3x3_s2_pool3/3x3_s2_0_split_2
I0224 09:45:34.921025  1997 net.cpp:408] pool3/3x3_s2_pool3/3x3_s2_0_split -> pool3/3x3_s2_pool3/3x3_s2_0_split_3
I0224 09:45:34.921041  1997 net.cpp:150] Setting up pool3/3x3_s2_pool3/3x3_s2_0_split
I0224 09:45:34.921057  1997 net.cpp:157] Top shape: 48 480 14 14 (4515840)
I0224 09:45:34.921068  1997 net.cpp:157] Top shape: 48 480 14 14 (4515840)
I0224 09:45:34.921079  1997 net.cpp:157] Top shape: 48 480 14 14 (4515840)
I0224 09:45:34.921090  1997 net.cpp:157] Top shape: 48 480 14 14 (4515840)
I0224 09:45:34.921098  1997 net.cpp:165] Memory required for data: 1708794624
I0224 09:45:34.921108  1997 layer_factory.hpp:77] Creating layer inception_4a/1x1
I0224 09:45:34.921125  1997 net.cpp:100] Creating Layer inception_4a/1x1
I0224 09:45:34.921136  1997 net.cpp:434] inception_4a/1x1 <- pool3/3x3_s2_pool3/3x3_s2_0_split_0
I0224 09:45:34.921149  1997 net.cpp:408] inception_4a/1x1 -> inception_4a/1x1
I0224 09:45:34.922888  1997 net.cpp:150] Setting up inception_4a/1x1
I0224 09:45:34.922915  1997 net.cpp:157] Top shape: 48 192 14 14 (1806336)
I0224 09:45:34.922925  1997 net.cpp:165] Memory required for data: 1716019968
I0224 09:45:34.922940  1997 layer_factory.hpp:77] Creating layer inception_4a/relu_1x1
I0224 09:45:34.922955  1997 net.cpp:100] Creating Layer inception_4a/relu_1x1
I0224 09:45:34.922965  1997 net.cpp:434] inception_4a/relu_1x1 <- inception_4a/1x1
I0224 09:45:34.922977  1997 net.cpp:395] inception_4a/relu_1x1 -> inception_4a/1x1 (in-place)
I0224 09:45:34.922991  1997 net.cpp:150] Setting up inception_4a/relu_1x1
I0224 09:45:34.923002  1997 net.cpp:157] Top shape: 48 192 14 14 (1806336)
I0224 09:45:34.923012  1997 net.cpp:165] Memory required for data: 1723245312
I0224 09:45:34.923020  1997 layer_factory.hpp:77] Creating layer inception_4a/3x3_reduce
I0224 09:45:34.923039  1997 net.cpp:100] Creating Layer inception_4a/3x3_reduce
I0224 09:45:34.923050  1997 net.cpp:434] inception_4a/3x3_reduce <- pool3/3x3_s2_pool3/3x3_s2_0_split_1
I0224 09:45:34.923068  1997 net.cpp:408] inception_4a/3x3_reduce -> inception_4a/3x3_reduce
I0224 09:45:34.923959  1997 net.cpp:150] Setting up inception_4a/3x3_reduce
I0224 09:45:34.923979  1997 net.cpp:157] Top shape: 48 96 14 14 (903168)
I0224 09:45:34.923987  1997 net.cpp:165] Memory required for data: 1726857984
I0224 09:45:34.924018  1997 layer_factory.hpp:77] Creating layer inception_4a/relu_3x3_reduce
I0224 09:45:34.924036  1997 net.cpp:100] Creating Layer inception_4a/relu_3x3_reduce
I0224 09:45:34.924046  1997 net.cpp:434] inception_4a/relu_3x3_reduce <- inception_4a/3x3_reduce
I0224 09:45:34.924058  1997 net.cpp:395] inception_4a/relu_3x3_reduce -> inception_4a/3x3_reduce (in-place)
I0224 09:45:34.924072  1997 net.cpp:150] Setting up inception_4a/relu_3x3_reduce
I0224 09:45:34.924084  1997 net.cpp:157] Top shape: 48 96 14 14 (903168)
I0224 09:45:34.924093  1997 net.cpp:165] Memory required for data: 1730470656
I0224 09:45:34.924113  1997 layer_factory.hpp:77] Creating layer inception_4a/3x3
I0224 09:45:34.924146  1997 net.cpp:100] Creating Layer inception_4a/3x3
I0224 09:45:34.924157  1997 net.cpp:434] inception_4a/3x3 <- inception_4a/3x3_reduce
I0224 09:45:34.924170  1997 net.cpp:408] inception_4a/3x3 -> inception_4a/3x3
I0224 09:45:34.927573  1997 net.cpp:150] Setting up inception_4a/3x3
I0224 09:45:34.927608  1997 net.cpp:157] Top shape: 48 208 14 14 (1956864)
I0224 09:45:34.927616  1997 net.cpp:165] Memory required for data: 1738298112
I0224 09:45:34.927633  1997 layer_factory.hpp:77] Creating layer inception_4a/relu_3x3
I0224 09:45:34.927646  1997 net.cpp:100] Creating Layer inception_4a/relu_3x3
I0224 09:45:34.927657  1997 net.cpp:434] inception_4a/relu_3x3 <- inception_4a/3x3
I0224 09:45:34.927670  1997 net.cpp:395] inception_4a/relu_3x3 -> inception_4a/3x3 (in-place)
I0224 09:45:34.927685  1997 net.cpp:150] Setting up inception_4a/relu_3x3
I0224 09:45:34.927696  1997 net.cpp:157] Top shape: 48 208 14 14 (1956864)
I0224 09:45:34.927706  1997 net.cpp:165] Memory required for data: 1746125568
I0224 09:45:34.927713  1997 layer_factory.hpp:77] Creating layer inception_4a/5x5_reduce
I0224 09:45:34.927733  1997 net.cpp:100] Creating Layer inception_4a/5x5_reduce
I0224 09:45:34.927744  1997 net.cpp:434] inception_4a/5x5_reduce <- pool3/3x3_s2_pool3/3x3_s2_0_split_2
I0224 09:45:34.927762  1997 net.cpp:408] inception_4a/5x5_reduce -> inception_4a/5x5_reduce
I0224 09:45:34.927932  1997 net.cpp:150] Setting up inception_4a/5x5_reduce
I0224 09:45:34.927944  1997 net.cpp:157] Top shape: 48 16 14 14 (150528)
I0224 09:45:34.927953  1997 net.cpp:165] Memory required for data: 1746727680
I0224 09:45:34.927966  1997 layer_factory.hpp:77] Creating layer inception_4a/relu_5x5_reduce
I0224 09:45:34.927978  1997 net.cpp:100] Creating Layer inception_4a/relu_5x5_reduce
I0224 09:45:34.927987  1997 net.cpp:434] inception_4a/relu_5x5_reduce <- inception_4a/5x5_reduce
I0224 09:45:34.928002  1997 net.cpp:395] inception_4a/relu_5x5_reduce -> inception_4a/5x5_reduce (in-place)
I0224 09:45:34.928016  1997 net.cpp:150] Setting up inception_4a/relu_5x5_reduce
I0224 09:45:34.928028  1997 net.cpp:157] Top shape: 48 16 14 14 (150528)
I0224 09:45:34.928037  1997 net.cpp:165] Memory required for data: 1747329792
I0224 09:45:34.928046  1997 layer_factory.hpp:77] Creating layer inception_4a/5x5
I0224 09:45:34.928063  1997 net.cpp:100] Creating Layer inception_4a/5x5
I0224 09:45:34.928074  1997 net.cpp:434] inception_4a/5x5 <- inception_4a/5x5_reduce
I0224 09:45:34.928087  1997 net.cpp:408] inception_4a/5x5 -> inception_4a/5x5
I0224 09:45:34.928480  1997 net.cpp:150] Setting up inception_4a/5x5
I0224 09:45:34.928495  1997 net.cpp:157] Top shape: 48 48 14 14 (451584)
I0224 09:45:34.928504  1997 net.cpp:165] Memory required for data: 1749136128
I0224 09:45:34.928517  1997 layer_factory.hpp:77] Creating layer inception_4a/relu_5x5
I0224 09:45:34.928529  1997 net.cpp:100] Creating Layer inception_4a/relu_5x5
I0224 09:45:34.928539  1997 net.cpp:434] inception_4a/relu_5x5 <- inception_4a/5x5
I0224 09:45:34.928552  1997 net.cpp:395] inception_4a/relu_5x5 -> inception_4a/5x5 (in-place)
I0224 09:45:34.928566  1997 net.cpp:150] Setting up inception_4a/relu_5x5
I0224 09:45:34.928577  1997 net.cpp:157] Top shape: 48 48 14 14 (451584)
I0224 09:45:34.928586  1997 net.cpp:165] Memory required for data: 1750942464
I0224 09:45:34.928594  1997 layer_factory.hpp:77] Creating layer inception_4a/pool
I0224 09:45:34.928606  1997 net.cpp:100] Creating Layer inception_4a/pool
I0224 09:45:34.928617  1997 net.cpp:434] inception_4a/pool <- pool3/3x3_s2_pool3/3x3_s2_0_split_3
I0224 09:45:34.928632  1997 net.cpp:408] inception_4a/pool -> inception_4a/pool
I0224 09:45:34.928652  1997 net.cpp:150] Setting up inception_4a/pool
I0224 09:45:34.928663  1997 net.cpp:157] Top shape: 48 480 14 14 (4515840)
I0224 09:45:34.928673  1997 net.cpp:165] Memory required for data: 1769005824
I0224 09:45:34.928681  1997 layer_factory.hpp:77] Creating layer inception_4a/pool_proj
I0224 09:45:34.928709  1997 net.cpp:100] Creating Layer inception_4a/pool_proj
I0224 09:45:34.928731  1997 net.cpp:434] inception_4a/pool_proj <- inception_4a/pool
I0224 09:45:34.928745  1997 net.cpp:408] inception_4a/pool_proj -> inception_4a/pool_proj
I0224 09:45:34.929385  1997 net.cpp:150] Setting up inception_4a/pool_proj
I0224 09:45:34.929407  1997 net.cpp:157] Top shape: 48 64 14 14 (602112)
I0224 09:45:34.929416  1997 net.cpp:165] Memory required for data: 1771414272
I0224 09:45:34.929431  1997 layer_factory.hpp:77] Creating layer inception_4a/relu_pool_proj
I0224 09:45:34.929447  1997 net.cpp:100] Creating Layer inception_4a/relu_pool_proj
I0224 09:45:34.929457  1997 net.cpp:434] inception_4a/relu_pool_proj <- inception_4a/pool_proj
I0224 09:45:34.929471  1997 net.cpp:395] inception_4a/relu_pool_proj -> inception_4a/pool_proj (in-place)
I0224 09:45:34.929484  1997 net.cpp:150] Setting up inception_4a/relu_pool_proj
I0224 09:45:34.929497  1997 net.cpp:157] Top shape: 48 64 14 14 (602112)
I0224 09:45:34.929505  1997 net.cpp:165] Memory required for data: 1773822720
I0224 09:45:34.929513  1997 layer_factory.hpp:77] Creating layer inception_4a/output
I0224 09:45:34.929529  1997 net.cpp:100] Creating Layer inception_4a/output
I0224 09:45:34.929539  1997 net.cpp:434] inception_4a/output <- inception_4a/1x1
I0224 09:45:34.929550  1997 net.cpp:434] inception_4a/output <- inception_4a/3x3
I0224 09:45:34.929561  1997 net.cpp:434] inception_4a/output <- inception_4a/5x5
I0224 09:45:34.929571  1997 net.cpp:434] inception_4a/output <- inception_4a/pool_proj
I0224 09:45:34.929584  1997 net.cpp:408] inception_4a/output -> inception_4a/output
I0224 09:45:34.929600  1997 net.cpp:150] Setting up inception_4a/output
I0224 09:45:34.929612  1997 net.cpp:157] Top shape: 48 512 14 14 (4816896)
I0224 09:45:34.929621  1997 net.cpp:165] Memory required for data: 1793090304
I0224 09:45:34.929630  1997 layer_factory.hpp:77] Creating layer inception_4a/output_inception_4a/output_0_split
I0224 09:45:34.929643  1997 net.cpp:100] Creating Layer inception_4a/output_inception_4a/output_0_split
I0224 09:45:34.929652  1997 net.cpp:434] inception_4a/output_inception_4a/output_0_split <- inception_4a/output
I0224 09:45:34.929673  1997 net.cpp:408] inception_4a/output_inception_4a/output_0_split -> inception_4a/output_inception_4a/output_0_split_0
I0224 09:45:34.929697  1997 net.cpp:408] inception_4a/output_inception_4a/output_0_split -> inception_4a/output_inception_4a/output_0_split_1
I0224 09:45:34.929713  1997 net.cpp:408] inception_4a/output_inception_4a/output_0_split -> inception_4a/output_inception_4a/output_0_split_2
I0224 09:45:34.929728  1997 net.cpp:408] inception_4a/output_inception_4a/output_0_split -> inception_4a/output_inception_4a/output_0_split_3
I0224 09:45:34.929741  1997 net.cpp:408] inception_4a/output_inception_4a/output_0_split -> inception_4a/output_inception_4a/output_0_split_4
I0224 09:45:34.929762  1997 net.cpp:150] Setting up inception_4a/output_inception_4a/output_0_split
I0224 09:45:34.929774  1997 net.cpp:157] Top shape: 48 512 14 14 (4816896)
I0224 09:45:34.929785  1997 net.cpp:157] Top shape: 48 512 14 14 (4816896)
I0224 09:45:34.929796  1997 net.cpp:157] Top shape: 48 512 14 14 (4816896)
I0224 09:45:34.929807  1997 net.cpp:157] Top shape: 48 512 14 14 (4816896)
I0224 09:45:34.929818  1997 net.cpp:157] Top shape: 48 512 14 14 (4816896)
I0224 09:45:34.929827  1997 net.cpp:165] Memory required for data: 1889428224
I0224 09:45:34.929836  1997 layer_factory.hpp:77] Creating layer loss1/ave_pool
I0224 09:45:34.929848  1997 net.cpp:100] Creating Layer loss1/ave_pool
I0224 09:45:34.929857  1997 net.cpp:434] loss1/ave_pool <- inception_4a/output_inception_4a/output_0_split_0
I0224 09:45:34.929873  1997 net.cpp:408] loss1/ave_pool -> loss1/ave_pool
I0224 09:45:34.929889  1997 net.cpp:150] Setting up loss1/ave_pool
I0224 09:45:34.929901  1997 net.cpp:157] Top shape: 48 512 4 4 (393216)
I0224 09:45:34.929910  1997 net.cpp:165] Memory required for data: 1891001088
I0224 09:45:34.929919  1997 layer_factory.hpp:77] Creating layer loss1/conv
I0224 09:45:34.929946  1997 net.cpp:100] Creating Layer loss1/conv
I0224 09:45:34.929968  1997 net.cpp:434] loss1/conv <- loss1/ave_pool
I0224 09:45:34.929986  1997 net.cpp:408] loss1/conv -> loss1/conv
I0224 09:45:34.931216  1997 net.cpp:150] Setting up loss1/conv
I0224 09:45:34.931237  1997 net.cpp:157] Top shape: 48 128 4 4 (98304)
I0224 09:45:34.931252  1997 net.cpp:165] Memory required for data: 1891394304
I0224 09:45:34.931267  1997 layer_factory.hpp:77] Creating layer loss1/relu_conv
I0224 09:45:34.931283  1997 net.cpp:100] Creating Layer loss1/relu_conv
I0224 09:45:34.931294  1997 net.cpp:434] loss1/relu_conv <- loss1/conv
I0224 09:45:34.931306  1997 net.cpp:395] loss1/relu_conv -> loss1/conv (in-place)
I0224 09:45:34.931320  1997 net.cpp:150] Setting up loss1/relu_conv
I0224 09:45:34.931332  1997 net.cpp:157] Top shape: 48 128 4 4 (98304)
I0224 09:45:34.931340  1997 net.cpp:165] Memory required for data: 1891787520
I0224 09:45:34.931349  1997 layer_factory.hpp:77] Creating layer loss1/fc
I0224 09:45:34.931370  1997 net.cpp:100] Creating Layer loss1/fc
I0224 09:45:34.931380  1997 net.cpp:434] loss1/fc <- loss1/conv
I0224 09:45:34.931393  1997 net.cpp:408] loss1/fc -> loss1/fc
I0224 09:45:34.968024  1997 net.cpp:150] Setting up loss1/fc
I0224 09:45:34.968080  1997 net.cpp:157] Top shape: 48 1024 (49152)
I0224 09:45:34.968091  1997 net.cpp:165] Memory required for data: 1891984128
I0224 09:45:34.968109  1997 layer_factory.hpp:77] Creating layer loss1/relu_fc
I0224 09:45:34.968127  1997 net.cpp:100] Creating Layer loss1/relu_fc
I0224 09:45:34.968138  1997 net.cpp:434] loss1/relu_fc <- loss1/fc
I0224 09:45:34.968153  1997 net.cpp:395] loss1/relu_fc -> loss1/fc (in-place)
I0224 09:45:34.968170  1997 net.cpp:150] Setting up loss1/relu_fc
I0224 09:45:34.968181  1997 net.cpp:157] Top shape: 48 1024 (49152)
I0224 09:45:34.968190  1997 net.cpp:165] Memory required for data: 1892180736
I0224 09:45:34.968199  1997 layer_factory.hpp:77] Creating layer loss1/drop_fc
I0224 09:45:34.968235  1997 net.cpp:100] Creating Layer loss1/drop_fc
I0224 09:45:34.968250  1997 net.cpp:434] loss1/drop_fc <- loss1/fc
I0224 09:45:34.968264  1997 net.cpp:395] loss1/drop_fc -> loss1/fc (in-place)
I0224 09:45:34.968289  1997 net.cpp:150] Setting up loss1/drop_fc
I0224 09:45:34.968300  1997 net.cpp:157] Top shape: 48 1024 (49152)
I0224 09:45:34.968309  1997 net.cpp:165] Memory required for data: 1892377344
I0224 09:45:34.968318  1997 layer_factory.hpp:77] Creating layer loss1/classifier
I0224 09:45:34.968333  1997 net.cpp:100] Creating Layer loss1/classifier
I0224 09:45:34.968343  1997 net.cpp:434] loss1/classifier <- loss1/fc
I0224 09:45:34.968358  1997 net.cpp:408] loss1/classifier -> loss1/classifier
I0224 09:45:34.986588  1997 net.cpp:150] Setting up loss1/classifier
I0224 09:45:34.986631  1997 net.cpp:157] Top shape: 48 1000 (48000)
I0224 09:45:34.986641  1997 net.cpp:165] Memory required for data: 1892569344
I0224 09:45:34.986659  1997 layer_factory.hpp:77] Creating layer loss1/loss
I0224 09:45:34.986680  1997 net.cpp:100] Creating Layer loss1/loss
I0224 09:45:34.986690  1997 net.cpp:434] loss1/loss <- loss1/classifier
I0224 09:45:34.986703  1997 net.cpp:434] loss1/loss <- label_data_1_split_0
I0224 09:45:34.986716  1997 net.cpp:408] loss1/loss -> loss1/loss1
I0224 09:45:34.986743  1997 layer_factory.hpp:77] Creating layer loss1/loss
I0224 09:45:34.987005  1997 net.cpp:150] Setting up loss1/loss
I0224 09:45:34.987020  1997 net.cpp:157] Top shape: (1)
I0224 09:45:34.987030  1997 net.cpp:160]     with loss weight 0.3
I0224 09:45:34.987093  1997 net.cpp:165] Memory required for data: 1892569348
I0224 09:45:34.987102  1997 layer_factory.hpp:77] Creating layer inception_4b/1x1
I0224 09:45:34.987126  1997 net.cpp:100] Creating Layer inception_4b/1x1
I0224 09:45:34.987138  1997 net.cpp:434] inception_4b/1x1 <- inception_4a/output_inception_4a/output_0_split_1
I0224 09:45:34.987156  1997 net.cpp:408] inception_4b/1x1 -> inception_4b/1x1
I0224 09:45:34.988692  1997 net.cpp:150] Setting up inception_4b/1x1
I0224 09:45:34.988716  1997 net.cpp:157] Top shape: 48 160 14 14 (1505280)
I0224 09:45:34.988767  1997 net.cpp:165] Memory required for data: 1898590468
I0224 09:45:34.988783  1997 layer_factory.hpp:77] Creating layer inception_4b/relu_1x1
I0224 09:45:34.988803  1997 net.cpp:100] Creating Layer inception_4b/relu_1x1
I0224 09:45:34.988816  1997 net.cpp:434] inception_4b/relu_1x1 <- inception_4b/1x1
I0224 09:45:34.988827  1997 net.cpp:395] inception_4b/relu_1x1 -> inception_4b/1x1 (in-place)
I0224 09:45:34.988842  1997 net.cpp:150] Setting up inception_4b/relu_1x1
I0224 09:45:34.988854  1997 net.cpp:157] Top shape: 48 160 14 14 (1505280)
I0224 09:45:34.988862  1997 net.cpp:165] Memory required for data: 1904611588
I0224 09:45:34.988872  1997 layer_factory.hpp:77] Creating layer inception_4b/3x3_reduce
I0224 09:45:34.988890  1997 net.cpp:100] Creating Layer inception_4b/3x3_reduce
I0224 09:45:34.988900  1997 net.cpp:434] inception_4b/3x3_reduce <- inception_4a/output_inception_4a/output_0_split_2
I0224 09:45:34.988919  1997 net.cpp:408] inception_4b/3x3_reduce -> inception_4b/3x3_reduce
I0224 09:45:34.989991  1997 net.cpp:150] Setting up inception_4b/3x3_reduce
I0224 09:45:34.990011  1997 net.cpp:157] Top shape: 48 112 14 14 (1053696)
I0224 09:45:34.990020  1997 net.cpp:165] Memory required for data: 1908826372
I0224 09:45:34.990036  1997 layer_factory.hpp:77] Creating layer inception_4b/relu_3x3_reduce
I0224 09:45:34.990047  1997 net.cpp:100] Creating Layer inception_4b/relu_3x3_reduce
I0224 09:45:34.990061  1997 net.cpp:434] inception_4b/relu_3x3_reduce <- inception_4b/3x3_reduce
I0224 09:45:34.990074  1997 net.cpp:395] inception_4b/relu_3x3_reduce -> inception_4b/3x3_reduce (in-place)
I0224 09:45:34.990087  1997 net.cpp:150] Setting up inception_4b/relu_3x3_reduce
I0224 09:45:34.990098  1997 net.cpp:157] Top shape: 48 112 14 14 (1053696)
I0224 09:45:34.990108  1997 net.cpp:165] Memory required for data: 1913041156
I0224 09:45:34.990116  1997 layer_factory.hpp:77] Creating layer inception_4b/3x3
I0224 09:45:34.990134  1997 net.cpp:100] Creating Layer inception_4b/3x3
I0224 09:45:34.990144  1997 net.cpp:434] inception_4b/3x3 <- inception_4b/3x3_reduce
I0224 09:45:34.990160  1997 net.cpp:408] inception_4b/3x3 -> inception_4b/3x3
I0224 09:45:34.994210  1997 net.cpp:150] Setting up inception_4b/3x3
I0224 09:45:34.994244  1997 net.cpp:157] Top shape: 48 224 14 14 (2107392)
I0224 09:45:34.994256  1997 net.cpp:165] Memory required for data: 1921470724
I0224 09:45:34.994271  1997 layer_factory.hpp:77] Creating layer inception_4b/relu_3x3
I0224 09:45:34.994285  1997 net.cpp:100] Creating Layer inception_4b/relu_3x3
I0224 09:45:34.994297  1997 net.cpp:434] inception_4b/relu_3x3 <- inception_4b/3x3
I0224 09:45:34.994313  1997 net.cpp:395] inception_4b/relu_3x3 -> inception_4b/3x3 (in-place)
I0224 09:45:34.994328  1997 net.cpp:150] Setting up inception_4b/relu_3x3
I0224 09:45:34.994339  1997 net.cpp:157] Top shape: 48 224 14 14 (2107392)
I0224 09:45:34.994348  1997 net.cpp:165] Memory required for data: 1929900292
I0224 09:45:34.994356  1997 layer_factory.hpp:77] Creating layer inception_4b/5x5_reduce
I0224 09:45:34.994371  1997 net.cpp:100] Creating Layer inception_4b/5x5_reduce
I0224 09:45:34.994381  1997 net.cpp:434] inception_4b/5x5_reduce <- inception_4a/output_inception_4a/output_0_split_3
I0224 09:45:34.994395  1997 net.cpp:408] inception_4b/5x5_reduce -> inception_4b/5x5_reduce
I0224 09:45:34.994630  1997 net.cpp:150] Setting up inception_4b/5x5_reduce
I0224 09:45:34.994644  1997 net.cpp:157] Top shape: 48 24 14 14 (225792)
I0224 09:45:34.994652  1997 net.cpp:165] Memory required for data: 1930803460
I0224 09:45:34.994665  1997 layer_factory.hpp:77] Creating layer inception_4b/relu_5x5_reduce
I0224 09:45:34.994676  1997 net.cpp:100] Creating Layer inception_4b/relu_5x5_reduce
I0224 09:45:34.994686  1997 net.cpp:434] inception_4b/relu_5x5_reduce <- inception_4b/5x5_reduce
I0224 09:45:34.994701  1997 net.cpp:395] inception_4b/relu_5x5_reduce -> inception_4b/5x5_reduce (in-place)
I0224 09:45:34.994715  1997 net.cpp:150] Setting up inception_4b/relu_5x5_reduce
I0224 09:45:34.994736  1997 net.cpp:157] Top shape: 48 24 14 14 (225792)
I0224 09:45:34.994757  1997 net.cpp:165] Memory required for data: 1931706628
I0224 09:45:34.994767  1997 layer_factory.hpp:77] Creating layer inception_4b/5x5
I0224 09:45:34.994786  1997 net.cpp:100] Creating Layer inception_4b/5x5
I0224 09:45:34.994796  1997 net.cpp:434] inception_4b/5x5 <- inception_4b/5x5_reduce
I0224 09:45:34.994808  1997 net.cpp:408] inception_4b/5x5 -> inception_4b/5x5
I0224 09:45:34.995532  1997 net.cpp:150] Setting up inception_4b/5x5
I0224 09:45:34.995548  1997 net.cpp:157] Top shape: 48 64 14 14 (602112)
I0224 09:45:34.995555  1997 net.cpp:165] Memory required for data: 1934115076
I0224 09:45:34.995569  1997 layer_factory.hpp:77] Creating layer inception_4b/relu_5x5
I0224 09:45:34.995580  1997 net.cpp:100] Creating Layer inception_4b/relu_5x5
I0224 09:45:34.995590  1997 net.cpp:434] inception_4b/relu_5x5 <- inception_4b/5x5
I0224 09:45:34.995601  1997 net.cpp:395] inception_4b/relu_5x5 -> inception_4b/5x5 (in-place)
I0224 09:45:34.995615  1997 net.cpp:150] Setting up inception_4b/relu_5x5
I0224 09:45:34.995626  1997 net.cpp:157] Top shape: 48 64 14 14 (602112)
I0224 09:45:34.995635  1997 net.cpp:165] Memory required for data: 1936523524
I0224 09:45:34.995645  1997 layer_factory.hpp:77] Creating layer inception_4b/pool
I0224 09:45:34.995661  1997 net.cpp:100] Creating Layer inception_4b/pool
I0224 09:45:34.995671  1997 net.cpp:434] inception_4b/pool <- inception_4a/output_inception_4a/output_0_split_4
I0224 09:45:34.995683  1997 net.cpp:408] inception_4b/pool -> inception_4b/pool
I0224 09:45:34.995723  1997 net.cpp:150] Setting up inception_4b/pool
I0224 09:45:34.995736  1997 net.cpp:157] Top shape: 48 512 14 14 (4816896)
I0224 09:45:34.995745  1997 net.cpp:165] Memory required for data: 1955791108
I0224 09:45:34.995754  1997 layer_factory.hpp:77] Creating layer inception_4b/pool_proj
I0224 09:45:34.995772  1997 net.cpp:100] Creating Layer inception_4b/pool_proj
I0224 09:45:34.995782  1997 net.cpp:434] inception_4b/pool_proj <- inception_4b/pool
I0224 09:45:34.995798  1997 net.cpp:408] inception_4b/pool_proj -> inception_4b/pool_proj
I0224 09:45:34.996414  1997 net.cpp:150] Setting up inception_4b/pool_proj
I0224 09:45:34.996430  1997 net.cpp:157] Top shape: 48 64 14 14 (602112)
I0224 09:45:34.996438  1997 net.cpp:165] Memory required for data: 1958199556
I0224 09:45:34.996453  1997 layer_factory.hpp:77] Creating layer inception_4b/relu_pool_proj
I0224 09:45:34.996464  1997 net.cpp:100] Creating Layer inception_4b/relu_pool_proj
I0224 09:45:34.996474  1997 net.cpp:434] inception_4b/relu_pool_proj <- inception_4b/pool_proj
I0224 09:45:34.996489  1997 net.cpp:395] inception_4b/relu_pool_proj -> inception_4b/pool_proj (in-place)
I0224 09:45:34.996501  1997 net.cpp:150] Setting up inception_4b/relu_pool_proj
I0224 09:45:34.996513  1997 net.cpp:157] Top shape: 48 64 14 14 (602112)
I0224 09:45:34.996521  1997 net.cpp:165] Memory required for data: 1960608004
I0224 09:45:34.996531  1997 layer_factory.hpp:77] Creating layer inception_4b/output
I0224 09:45:34.996543  1997 net.cpp:100] Creating Layer inception_4b/output
I0224 09:45:34.996553  1997 net.cpp:434] inception_4b/output <- inception_4b/1x1
I0224 09:45:34.996563  1997 net.cpp:434] inception_4b/output <- inception_4b/3x3
I0224 09:45:34.996574  1997 net.cpp:434] inception_4b/output <- inception_4b/5x5
I0224 09:45:34.996584  1997 net.cpp:434] inception_4b/output <- inception_4b/pool_proj
I0224 09:45:34.996600  1997 net.cpp:408] inception_4b/output -> inception_4b/output
I0224 09:45:34.996618  1997 net.cpp:150] Setting up inception_4b/output
I0224 09:45:34.996630  1997 net.cpp:157] Top shape: 48 512 14 14 (4816896)
I0224 09:45:34.996639  1997 net.cpp:165] Memory required for data: 1979875588
I0224 09:45:34.996647  1997 layer_factory.hpp:77] Creating layer inception_4b/output_inception_4b/output_0_split
I0224 09:45:34.996660  1997 net.cpp:100] Creating Layer inception_4b/output_inception_4b/output_0_split
I0224 09:45:34.996670  1997 net.cpp:434] inception_4b/output_inception_4b/output_0_split <- inception_4b/output
I0224 09:45:34.996703  1997 net.cpp:408] inception_4b/output_inception_4b/output_0_split -> inception_4b/output_inception_4b/output_0_split_0
I0224 09:45:34.996721  1997 net.cpp:408] inception_4b/output_inception_4b/output_0_split -> inception_4b/output_inception_4b/output_0_split_1
I0224 09:45:34.996737  1997 net.cpp:408] inception_4b/output_inception_4b/output_0_split -> inception_4b/output_inception_4b/output_0_split_2
I0224 09:45:34.996752  1997 net.cpp:408] inception_4b/output_inception_4b/output_0_split -> inception_4b/output_inception_4b/output_0_split_3
I0224 09:45:34.996768  1997 net.cpp:150] Setting up inception_4b/output_inception_4b/output_0_split
I0224 09:45:34.996779  1997 net.cpp:157] Top shape: 48 512 14 14 (4816896)
I0224 09:45:34.996790  1997 net.cpp:157] Top shape: 48 512 14 14 (4816896)
I0224 09:45:34.996801  1997 net.cpp:157] Top shape: 48 512 14 14 (4816896)
I0224 09:45:34.996812  1997 net.cpp:157] Top shape: 48 512 14 14 (4816896)
I0224 09:45:34.996820  1997 net.cpp:165] Memory required for data: 2056945924
I0224 09:45:34.996829  1997 layer_factory.hpp:77] Creating layer inception_4c/1x1
I0224 09:45:34.996848  1997 net.cpp:100] Creating Layer inception_4c/1x1
I0224 09:45:34.996860  1997 net.cpp:434] inception_4c/1x1 <- inception_4b/output_inception_4b/output_0_split_0
I0224 09:45:34.996876  1997 net.cpp:408] inception_4c/1x1 -> inception_4c/1x1
I0224 09:45:34.998097  1997 net.cpp:150] Setting up inception_4c/1x1
I0224 09:45:34.998118  1997 net.cpp:157] Top shape: 48 128 14 14 (1204224)
I0224 09:45:34.998126  1997 net.cpp:165] Memory required for data: 2061762820
I0224 09:45:34.998141  1997 layer_factory.hpp:77] Creating layer inception_4c/relu_1x1
I0224 09:45:34.998157  1997 net.cpp:100] Creating Layer inception_4c/relu_1x1
I0224 09:45:34.998167  1997 net.cpp:434] inception_4c/relu_1x1 <- inception_4c/1x1
I0224 09:45:34.998179  1997 net.cpp:395] inception_4c/relu_1x1 -> inception_4c/1x1 (in-place)
I0224 09:45:34.998193  1997 net.cpp:150] Setting up inception_4c/relu_1x1
I0224 09:45:34.998205  1997 net.cpp:157] Top shape: 48 128 14 14 (1204224)
I0224 09:45:34.998214  1997 net.cpp:165] Memory required for data: 2066579716
I0224 09:45:34.998224  1997 layer_factory.hpp:77] Creating layer inception_4c/3x3_reduce
I0224 09:45:34.998248  1997 net.cpp:100] Creating Layer inception_4c/3x3_reduce
I0224 09:45:34.998260  1997 net.cpp:434] inception_4c/3x3_reduce <- inception_4b/output_inception_4b/output_0_split_1
I0224 09:45:34.998278  1997 net.cpp:408] inception_4c/3x3_reduce -> inception_4c/3x3_reduce
I0224 09:45:34.999491  1997 net.cpp:150] Setting up inception_4c/3x3_reduce
I0224 09:45:34.999511  1997 net.cpp:157] Top shape: 48 128 14 14 (1204224)
I0224 09:45:34.999521  1997 net.cpp:165] Memory required for data: 2071396612
I0224 09:45:34.999536  1997 layer_factory.hpp:77] Creating layer inception_4c/relu_3x3_reduce
I0224 09:45:34.999548  1997 net.cpp:100] Creating Layer inception_4c/relu_3x3_reduce
I0224 09:45:34.999558  1997 net.cpp:434] inception_4c/relu_3x3_reduce <- inception_4c/3x3_reduce
I0224 09:45:34.999570  1997 net.cpp:395] inception_4c/relu_3x3_reduce -> inception_4c/3x3_reduce (in-place)
I0224 09:45:34.999583  1997 net.cpp:150] Setting up inception_4c/relu_3x3_reduce
I0224 09:45:34.999595  1997 net.cpp:157] Top shape: 48 128 14 14 (1204224)
I0224 09:45:34.999603  1997 net.cpp:165] Memory required for data: 2076213508
I0224 09:45:34.999613  1997 layer_factory.hpp:77] Creating layer inception_4c/3x3
I0224 09:45:34.999629  1997 net.cpp:100] Creating Layer inception_4c/3x3
I0224 09:45:34.999640  1997 net.cpp:434] inception_4c/3x3 <- inception_4c/3x3_reduce
I0224 09:45:34.999652  1997 net.cpp:408] inception_4c/3x3 -> inception_4c/3x3
I0224 09:45:35.004961  1997 net.cpp:150] Setting up inception_4c/3x3
I0224 09:45:35.004992  1997 net.cpp:157] Top shape: 48 256 14 14 (2408448)
I0224 09:45:35.005002  1997 net.cpp:165] Memory required for data: 2085847300
I0224 09:45:35.005040  1997 layer_factory.hpp:77] Creating layer inception_4c/relu_3x3
I0224 09:45:35.005059  1997 net.cpp:100] Creating Layer inception_4c/relu_3x3
I0224 09:45:35.005098  1997 net.cpp:434] inception_4c/relu_3x3 <- inception_4c/3x3
I0224 09:45:35.005112  1997 net.cpp:395] inception_4c/relu_3x3 -> inception_4c/3x3 (in-place)
I0224 09:45:35.005128  1997 net.cpp:150] Setting up inception_4c/relu_3x3
I0224 09:45:35.005141  1997 net.cpp:157] Top shape: 48 256 14 14 (2408448)
I0224 09:45:35.005148  1997 net.cpp:165] Memory required for data: 2095481092
I0224 09:45:35.005157  1997 layer_factory.hpp:77] Creating layer inception_4c/5x5_reduce
I0224 09:45:35.005174  1997 net.cpp:100] Creating Layer inception_4c/5x5_reduce
I0224 09:45:35.005184  1997 net.cpp:434] inception_4c/5x5_reduce <- inception_4b/output_inception_4b/output_0_split_2
I0224 09:45:35.005204  1997 net.cpp:408] inception_4c/5x5_reduce -> inception_4c/5x5_reduce
I0224 09:45:35.005444  1997 net.cpp:150] Setting up inception_4c/5x5_reduce
I0224 09:45:35.005460  1997 net.cpp:157] Top shape: 48 24 14 14 (225792)
I0224 09:45:35.005467  1997 net.cpp:165] Memory required for data: 2096384260
I0224 09:45:35.005481  1997 layer_factory.hpp:77] Creating layer inception_4c/relu_5x5_reduce
I0224 09:45:35.005496  1997 net.cpp:100] Creating Layer inception_4c/relu_5x5_reduce
I0224 09:45:35.005506  1997 net.cpp:434] inception_4c/relu_5x5_reduce <- inception_4c/5x5_reduce
I0224 09:45:35.005520  1997 net.cpp:395] inception_4c/relu_5x5_reduce -> inception_4c/5x5_reduce (in-place)
I0224 09:45:35.005533  1997 net.cpp:150] Setting up inception_4c/relu_5x5_reduce
I0224 09:45:35.005545  1997 net.cpp:157] Top shape: 48 24 14 14 (225792)
I0224 09:45:35.005554  1997 net.cpp:165] Memory required for data: 2097287428
I0224 09:45:35.005563  1997 layer_factory.hpp:77] Creating layer inception_4c/5x5
I0224 09:45:35.005578  1997 net.cpp:100] Creating Layer inception_4c/5x5
I0224 09:45:35.005587  1997 net.cpp:434] inception_4c/5x5 <- inception_4c/5x5_reduce
I0224 09:45:35.005609  1997 net.cpp:408] inception_4c/5x5 -> inception_4c/5x5
I0224 09:45:35.006325  1997 net.cpp:150] Setting up inception_4c/5x5
I0224 09:45:35.006340  1997 net.cpp:157] Top shape: 48 64 14 14 (602112)
I0224 09:45:35.006348  1997 net.cpp:165] Memory required for data: 2099695876
I0224 09:45:35.006362  1997 layer_factory.hpp:77] Creating layer inception_4c/relu_5x5
I0224 09:45:35.006373  1997 net.cpp:100] Creating Layer inception_4c/relu_5x5
I0224 09:45:35.006383  1997 net.cpp:434] inception_4c/relu_5x5 <- inception_4c/5x5
I0224 09:45:35.006398  1997 net.cpp:395] inception_4c/relu_5x5 -> inception_4c/5x5 (in-place)
I0224 09:45:35.006412  1997 net.cpp:150] Setting up inception_4c/relu_5x5
I0224 09:45:35.006423  1997 net.cpp:157] Top shape: 48 64 14 14 (602112)
I0224 09:45:35.006433  1997 net.cpp:165] Memory required for data: 2102104324
I0224 09:45:35.006441  1997 layer_factory.hpp:77] Creating layer inception_4c/pool
I0224 09:45:35.006453  1997 net.cpp:100] Creating Layer inception_4c/pool
I0224 09:45:35.006467  1997 net.cpp:434] inception_4c/pool <- inception_4b/output_inception_4b/output_0_split_3
I0224 09:45:35.006480  1997 net.cpp:408] inception_4c/pool -> inception_4c/pool
I0224 09:45:35.006500  1997 net.cpp:150] Setting up inception_4c/pool
I0224 09:45:35.006511  1997 net.cpp:157] Top shape: 48 512 14 14 (4816896)
I0224 09:45:35.006520  1997 net.cpp:165] Memory required for data: 2121371908
I0224 09:45:35.006528  1997 layer_factory.hpp:77] Creating layer inception_4c/pool_proj
I0224 09:45:35.006546  1997 net.cpp:100] Creating Layer inception_4c/pool_proj
I0224 09:45:35.006556  1997 net.cpp:434] inception_4c/pool_proj <- inception_4c/pool
I0224 09:45:35.006572  1997 net.cpp:408] inception_4c/pool_proj -> inception_4c/pool_proj
I0224 09:45:35.007181  1997 net.cpp:150] Setting up inception_4c/pool_proj
I0224 09:45:35.007194  1997 net.cpp:157] Top shape: 48 64 14 14 (602112)
I0224 09:45:35.007203  1997 net.cpp:165] Memory required for data: 2123780356
I0224 09:45:35.007217  1997 layer_factory.hpp:77] Creating layer inception_4c/relu_pool_proj
I0224 09:45:35.007228  1997 net.cpp:100] Creating Layer inception_4c/relu_pool_proj
I0224 09:45:35.007253  1997 net.cpp:434] inception_4c/relu_pool_proj <- inception_4c/pool_proj
I0224 09:45:35.007278  1997 net.cpp:395] inception_4c/relu_pool_proj -> inception_4c/pool_proj (in-place)
I0224 09:45:35.007292  1997 net.cpp:150] Setting up inception_4c/relu_pool_proj
I0224 09:45:35.007304  1997 net.cpp:157] Top shape: 48 64 14 14 (602112)
I0224 09:45:35.007313  1997 net.cpp:165] Memory required for data: 2126188804
I0224 09:45:35.007323  1997 layer_factory.hpp:77] Creating layer inception_4c/output
I0224 09:45:35.007340  1997 net.cpp:100] Creating Layer inception_4c/output
I0224 09:45:35.007350  1997 net.cpp:434] inception_4c/output <- inception_4c/1x1
I0224 09:45:35.007361  1997 net.cpp:434] inception_4c/output <- inception_4c/3x3
I0224 09:45:35.007372  1997 net.cpp:434] inception_4c/output <- inception_4c/5x5
I0224 09:45:35.007382  1997 net.cpp:434] inception_4c/output <- inception_4c/pool_proj
I0224 09:45:35.007395  1997 net.cpp:408] inception_4c/output -> inception_4c/output
I0224 09:45:35.007411  1997 net.cpp:150] Setting up inception_4c/output
I0224 09:45:35.007423  1997 net.cpp:157] Top shape: 48 512 14 14 (4816896)
I0224 09:45:35.007431  1997 net.cpp:165] Memory required for data: 2145456388
I0224 09:45:35.007441  1997 layer_factory.hpp:77] Creating layer inception_4c/output_inception_4c/output_0_split
I0224 09:45:35.007462  1997 net.cpp:100] Creating Layer inception_4c/output_inception_4c/output_0_split
I0224 09:45:35.007472  1997 net.cpp:434] inception_4c/output_inception_4c/output_0_split <- inception_4c/output
I0224 09:45:35.007484  1997 net.cpp:408] inception_4c/output_inception_4c/output_0_split -> inception_4c/output_inception_4c/output_0_split_0
I0224 09:45:35.007498  1997 net.cpp:408] inception_4c/output_inception_4c/output_0_split -> inception_4c/output_inception_4c/output_0_split_1
I0224 09:45:35.007513  1997 net.cpp:408] inception_4c/output_inception_4c/output_0_split -> inception_4c/output_inception_4c/output_0_split_2
I0224 09:45:35.007527  1997 net.cpp:408] inception_4c/output_inception_4c/output_0_split -> inception_4c/output_inception_4c/output_0_split_3
I0224 09:45:35.007546  1997 net.cpp:150] Setting up inception_4c/output_inception_4c/output_0_split
I0224 09:45:35.007560  1997 net.cpp:157] Top shape: 48 512 14 14 (4816896)
I0224 09:45:35.007570  1997 net.cpp:157] Top shape: 48 512 14 14 (4816896)
I0224 09:45:35.007581  1997 net.cpp:157] Top shape: 48 512 14 14 (4816896)
I0224 09:45:35.007591  1997 net.cpp:157] Top shape: 48 512 14 14 (4816896)
I0224 09:45:35.007601  1997 net.cpp:165] Memory required for data: 2222526724
I0224 09:45:35.007609  1997 layer_factory.hpp:77] Creating layer inception_4d/1x1
I0224 09:45:35.007627  1997 net.cpp:100] Creating Layer inception_4d/1x1
I0224 09:45:35.007637  1997 net.cpp:434] inception_4d/1x1 <- inception_4c/output_inception_4c/output_0_split_0
I0224 09:45:35.007653  1997 net.cpp:408] inception_4d/1x1 -> inception_4d/1x1
I0224 09:45:35.008726  1997 net.cpp:150] Setting up inception_4d/1x1
I0224 09:45:35.008744  1997 net.cpp:157] Top shape: 48 112 14 14 (1053696)
I0224 09:45:35.008754  1997 net.cpp:165] Memory required for data: 2226741508
I0224 09:45:35.008769  1997 layer_factory.hpp:77] Creating layer inception_4d/relu_1x1
I0224 09:45:35.008781  1997 net.cpp:100] Creating Layer inception_4d/relu_1x1
I0224 09:45:35.008791  1997 net.cpp:434] inception_4d/relu_1x1 <- inception_4d/1x1
I0224 09:45:35.008806  1997 net.cpp:395] inception_4d/relu_1x1 -> inception_4d/1x1 (in-place)
I0224 09:45:35.008821  1997 net.cpp:150] Setting up inception_4d/relu_1x1
I0224 09:45:35.008832  1997 net.cpp:157] Top shape: 48 112 14 14 (1053696)
I0224 09:45:35.008841  1997 net.cpp:165] Memory required for data: 2230956292
I0224 09:45:35.008851  1997 layer_factory.hpp:77] Creating layer inception_4d/3x3_reduce
I0224 09:45:35.008865  1997 net.cpp:100] Creating Layer inception_4d/3x3_reduce
I0224 09:45:35.008874  1997 net.cpp:434] inception_4d/3x3_reduce <- inception_4c/output_inception_4c/output_0_split_1
I0224 09:45:35.008891  1997 net.cpp:408] inception_4d/3x3_reduce -> inception_4d/3x3_reduce
I0224 09:45:35.010264  1997 net.cpp:150] Setting up inception_4d/3x3_reduce
I0224 09:45:35.010289  1997 net.cpp:157] Top shape: 48 144 14 14 (1354752)
I0224 09:45:35.010299  1997 net.cpp:165] Memory required for data: 2236375300
I0224 09:45:35.010313  1997 layer_factory.hpp:77] Creating layer inception_4d/relu_3x3_reduce
I0224 09:45:35.010327  1997 net.cpp:100] Creating Layer inception_4d/relu_3x3_reduce
I0224 09:45:35.010337  1997 net.cpp:434] inception_4d/relu_3x3_reduce <- inception_4d/3x3_reduce
I0224 09:45:35.010349  1997 net.cpp:395] inception_4d/relu_3x3_reduce -> inception_4d/3x3_reduce (in-place)
I0224 09:45:35.010365  1997 net.cpp:150] Setting up inception_4d/relu_3x3_reduce
I0224 09:45:35.010375  1997 net.cpp:157] Top shape: 48 144 14 14 (1354752)
I0224 09:45:35.010383  1997 net.cpp:165] Memory required for data: 2241794308
I0224 09:45:35.010392  1997 layer_factory.hpp:77] Creating layer inception_4d/3x3
I0224 09:45:35.010412  1997 net.cpp:100] Creating Layer inception_4d/3x3
I0224 09:45:35.010422  1997 net.cpp:434] inception_4d/3x3 <- inception_4d/3x3_reduce
I0224 09:45:35.010435  1997 net.cpp:408] inception_4d/3x3 -> inception_4d/3x3
I0224 09:45:35.017180  1997 net.cpp:150] Setting up inception_4d/3x3
I0224 09:45:35.017212  1997 net.cpp:157] Top shape: 48 288 14 14 (2709504)
I0224 09:45:35.017221  1997 net.cpp:165] Memory required for data: 2252632324
I0224 09:45:35.017237  1997 layer_factory.hpp:77] Creating layer inception_4d/relu_3x3
I0224 09:45:35.017261  1997 net.cpp:100] Creating Layer inception_4d/relu_3x3
I0224 09:45:35.017273  1997 net.cpp:434] inception_4d/relu_3x3 <- inception_4d/3x3
I0224 09:45:35.017285  1997 net.cpp:395] inception_4d/relu_3x3 -> inception_4d/3x3 (in-place)
I0224 09:45:35.017300  1997 net.cpp:150] Setting up inception_4d/relu_3x3
I0224 09:45:35.017313  1997 net.cpp:157] Top shape: 48 288 14 14 (2709504)
I0224 09:45:35.017323  1997 net.cpp:165] Memory required for data: 2263470340
I0224 09:45:35.017333  1997 layer_factory.hpp:77] Creating layer inception_4d/5x5_reduce
I0224 09:45:35.017348  1997 net.cpp:100] Creating Layer inception_4d/5x5_reduce
I0224 09:45:35.017357  1997 net.cpp:434] inception_4d/5x5_reduce <- inception_4c/output_inception_4c/output_0_split_2
I0224 09:45:35.017374  1997 net.cpp:408] inception_4d/5x5_reduce -> inception_4d/5x5_reduce
I0224 09:45:35.017678  1997 net.cpp:150] Setting up inception_4d/5x5_reduce
I0224 09:45:35.017691  1997 net.cpp:157] Top shape: 48 32 14 14 (301056)
I0224 09:45:35.017699  1997 net.cpp:165] Memory required for data: 2264674564
I0224 09:45:35.017712  1997 layer_factory.hpp:77] Creating layer inception_4d/relu_5x5_reduce
I0224 09:45:35.017726  1997 net.cpp:100] Creating Layer inception_4d/relu_5x5_reduce
I0224 09:45:35.017736  1997 net.cpp:434] inception_4d/relu_5x5_reduce <- inception_4d/5x5_reduce
I0224 09:45:35.017750  1997 net.cpp:395] inception_4d/relu_5x5_reduce -> inception_4d/5x5_reduce (in-place)
I0224 09:45:35.017765  1997 net.cpp:150] Setting up inception_4d/relu_5x5_reduce
I0224 09:45:35.017776  1997 net.cpp:157] Top shape: 48 32 14 14 (301056)
I0224 09:45:35.017784  1997 net.cpp:165] Memory required for data: 2265878788
I0224 09:45:35.017793  1997 layer_factory.hpp:77] Creating layer inception_4d/5x5
I0224 09:45:35.017807  1997 net.cpp:100] Creating Layer inception_4d/5x5
I0224 09:45:35.017817  1997 net.cpp:434] inception_4d/5x5 <- inception_4d/5x5_reduce
I0224 09:45:35.017832  1997 net.cpp:408] inception_4d/5x5 -> inception_4d/5x5
I0224 09:45:35.018795  1997 net.cpp:150] Setting up inception_4d/5x5
I0224 09:45:35.018813  1997 net.cpp:157] Top shape: 48 64 14 14 (602112)
I0224 09:45:35.018821  1997 net.cpp:165] Memory required for data: 2268287236
I0224 09:45:35.018836  1997 layer_factory.hpp:77] Creating layer inception_4d/relu_5x5
I0224 09:45:35.018847  1997 net.cpp:100] Creating Layer inception_4d/relu_5x5
I0224 09:45:35.018857  1997 net.cpp:434] inception_4d/relu_5x5 <- inception_4d/5x5
I0224 09:45:35.018872  1997 net.cpp:395] inception_4d/relu_5x5 -> inception_4d/5x5 (in-place)
I0224 09:45:35.018896  1997 net.cpp:150] Setting up inception_4d/relu_5x5
I0224 09:45:35.018920  1997 net.cpp:157] Top shape: 48 64 14 14 (602112)
I0224 09:45:35.018929  1997 net.cpp:165] Memory required for data: 2270695684
I0224 09:45:35.018939  1997 layer_factory.hpp:77] Creating layer inception_4d/pool
I0224 09:45:35.018951  1997 net.cpp:100] Creating Layer inception_4d/pool
I0224 09:45:35.018961  1997 net.cpp:434] inception_4d/pool <- inception_4c/output_inception_4c/output_0_split_3
I0224 09:45:35.018977  1997 net.cpp:408] inception_4d/pool -> inception_4d/pool
I0224 09:45:35.018996  1997 net.cpp:150] Setting up inception_4d/pool
I0224 09:45:35.019007  1997 net.cpp:157] Top shape: 48 512 14 14 (4816896)
I0224 09:45:35.019016  1997 net.cpp:165] Memory required for data: 2289963268
I0224 09:45:35.019026  1997 layer_factory.hpp:77] Creating layer inception_4d/pool_proj
I0224 09:45:35.019043  1997 net.cpp:100] Creating Layer inception_4d/pool_proj
I0224 09:45:35.019053  1997 net.cpp:434] inception_4d/pool_proj <- inception_4d/pool
I0224 09:45:35.019070  1997 net.cpp:408] inception_4d/pool_proj -> inception_4d/pool_proj
I0224 09:45:35.019680  1997 net.cpp:150] Setting up inception_4d/pool_proj
I0224 09:45:35.019696  1997 net.cpp:157] Top shape: 48 64 14 14 (602112)
I0224 09:45:35.019704  1997 net.cpp:165] Memory required for data: 2292371716
I0224 09:45:35.019718  1997 layer_factory.hpp:77] Creating layer inception_4d/relu_pool_proj
I0224 09:45:35.019732  1997 net.cpp:100] Creating Layer inception_4d/relu_pool_proj
I0224 09:45:35.019743  1997 net.cpp:434] inception_4d/relu_pool_proj <- inception_4d/pool_proj
I0224 09:45:35.019757  1997 net.cpp:395] inception_4d/relu_pool_proj -> inception_4d/pool_proj (in-place)
I0224 09:45:35.019773  1997 net.cpp:150] Setting up inception_4d/relu_pool_proj
I0224 09:45:35.019783  1997 net.cpp:157] Top shape: 48 64 14 14 (602112)
I0224 09:45:35.019793  1997 net.cpp:165] Memory required for data: 2294780164
I0224 09:45:35.019801  1997 layer_factory.hpp:77] Creating layer inception_4d/output
I0224 09:45:35.019814  1997 net.cpp:100] Creating Layer inception_4d/output
I0224 09:45:35.019824  1997 net.cpp:434] inception_4d/output <- inception_4d/1x1
I0224 09:45:35.019834  1997 net.cpp:434] inception_4d/output <- inception_4d/3x3
I0224 09:45:35.019845  1997 net.cpp:434] inception_4d/output <- inception_4d/5x5
I0224 09:45:35.019855  1997 net.cpp:434] inception_4d/output <- inception_4d/pool_proj
I0224 09:45:35.019867  1997 net.cpp:408] inception_4d/output -> inception_4d/output
I0224 09:45:35.019884  1997 net.cpp:150] Setting up inception_4d/output
I0224 09:45:35.019896  1997 net.cpp:157] Top shape: 48 528 14 14 (4967424)
I0224 09:45:35.019904  1997 net.cpp:165] Memory required for data: 2314649860
I0224 09:45:35.019913  1997 layer_factory.hpp:77] Creating layer inception_4d/output_inception_4d/output_0_split
I0224 09:45:35.019930  1997 net.cpp:100] Creating Layer inception_4d/output_inception_4d/output_0_split
I0224 09:45:35.019940  1997 net.cpp:434] inception_4d/output_inception_4d/output_0_split <- inception_4d/output
I0224 09:45:35.019953  1997 net.cpp:408] inception_4d/output_inception_4d/output_0_split -> inception_4d/output_inception_4d/output_0_split_0
I0224 09:45:35.019968  1997 net.cpp:408] inception_4d/output_inception_4d/output_0_split -> inception_4d/output_inception_4d/output_0_split_1
I0224 09:45:35.019989  1997 net.cpp:408] inception_4d/output_inception_4d/output_0_split -> inception_4d/output_inception_4d/output_0_split_2
I0224 09:45:35.020004  1997 net.cpp:408] inception_4d/output_inception_4d/output_0_split -> inception_4d/output_inception_4d/output_0_split_3
I0224 09:45:35.020018  1997 net.cpp:408] inception_4d/output_inception_4d/output_0_split -> inception_4d/output_inception_4d/output_0_split_4
I0224 09:45:35.020036  1997 net.cpp:150] Setting up inception_4d/output_inception_4d/output_0_split
I0224 09:45:35.020048  1997 net.cpp:157] Top shape: 48 528 14 14 (4967424)
I0224 09:45:35.020059  1997 net.cpp:157] Top shape: 48 528 14 14 (4967424)
I0224 09:45:35.020071  1997 net.cpp:157] Top shape: 48 528 14 14 (4967424)
I0224 09:45:35.020098  1997 net.cpp:157] Top shape: 48 528 14 14 (4967424)
I0224 09:45:35.020109  1997 net.cpp:157] Top shape: 48 528 14 14 (4967424)
I0224 09:45:35.020118  1997 net.cpp:165] Memory required for data: 2413998340
I0224 09:45:35.020128  1997 layer_factory.hpp:77] Creating layer loss2/ave_pool
I0224 09:45:35.020143  1997 net.cpp:100] Creating Layer loss2/ave_pool
I0224 09:45:35.020153  1997 net.cpp:434] loss2/ave_pool <- inception_4d/output_inception_4d/output_0_split_0
I0224 09:45:35.020166  1997 net.cpp:408] loss2/ave_pool -> loss2/ave_pool
I0224 09:45:35.020181  1997 net.cpp:150] Setting up loss2/ave_pool
I0224 09:45:35.020193  1997 net.cpp:157] Top shape: 48 528 4 4 (405504)
I0224 09:45:35.020202  1997 net.cpp:165] Memory required for data: 2415620356
I0224 09:45:35.020211  1997 layer_factory.hpp:77] Creating layer loss2/conv
I0224 09:45:35.020229  1997 net.cpp:100] Creating Layer loss2/conv
I0224 09:45:35.020244  1997 net.cpp:434] loss2/conv <- loss2/ave_pool
I0224 09:45:35.020267  1997 net.cpp:408] loss2/conv -> loss2/conv
I0224 09:45:35.021520  1997 net.cpp:150] Setting up loss2/conv
I0224 09:45:35.021543  1997 net.cpp:157] Top shape: 48 128 4 4 (98304)
I0224 09:45:35.021551  1997 net.cpp:165] Memory required for data: 2416013572
I0224 09:45:35.021565  1997 layer_factory.hpp:77] Creating layer loss2/relu_conv
I0224 09:45:35.021579  1997 net.cpp:100] Creating Layer loss2/relu_conv
I0224 09:45:35.021589  1997 net.cpp:434] loss2/relu_conv <- loss2/conv
I0224 09:45:35.021605  1997 net.cpp:395] loss2/relu_conv -> loss2/conv (in-place)
I0224 09:45:35.021620  1997 net.cpp:150] Setting up loss2/relu_conv
I0224 09:45:35.021631  1997 net.cpp:157] Top shape: 48 128 4 4 (98304)
I0224 09:45:35.021641  1997 net.cpp:165] Memory required for data: 2416406788
I0224 09:45:35.021649  1997 layer_factory.hpp:77] Creating layer loss2/fc
I0224 09:45:35.021664  1997 net.cpp:100] Creating Layer loss2/fc
I0224 09:45:35.021674  1997 net.cpp:434] loss2/fc <- loss2/conv
I0224 09:45:35.021690  1997 net.cpp:408] loss2/fc -> loss2/fc
I0224 09:45:35.058167  1997 net.cpp:150] Setting up loss2/fc
I0224 09:45:35.058219  1997 net.cpp:157] Top shape: 48 1024 (49152)
I0224 09:45:35.058229  1997 net.cpp:165] Memory required for data: 2416603396
I0224 09:45:35.058253  1997 layer_factory.hpp:77] Creating layer loss2/relu_fc
I0224 09:45:35.058272  1997 net.cpp:100] Creating Layer loss2/relu_fc
I0224 09:45:35.058285  1997 net.cpp:434] loss2/relu_fc <- loss2/fc
I0224 09:45:35.058300  1997 net.cpp:395] loss2/relu_fc -> loss2/fc (in-place)
I0224 09:45:35.058320  1997 net.cpp:150] Setting up loss2/relu_fc
I0224 09:45:35.058332  1997 net.cpp:157] Top shape: 48 1024 (49152)
I0224 09:45:35.058341  1997 net.cpp:165] Memory required for data: 2416800004
I0224 09:45:35.058349  1997 layer_factory.hpp:77] Creating layer loss2/drop_fc
I0224 09:45:35.058363  1997 net.cpp:100] Creating Layer loss2/drop_fc
I0224 09:45:35.058373  1997 net.cpp:434] loss2/drop_fc <- loss2/fc
I0224 09:45:35.058388  1997 net.cpp:395] loss2/drop_fc -> loss2/fc (in-place)
I0224 09:45:35.058405  1997 net.cpp:150] Setting up loss2/drop_fc
I0224 09:45:35.058416  1997 net.cpp:157] Top shape: 48 1024 (49152)
I0224 09:45:35.058425  1997 net.cpp:165] Memory required for data: 2416996612
I0224 09:45:35.058434  1997 layer_factory.hpp:77] Creating layer loss2/classifier
I0224 09:45:35.058447  1997 net.cpp:100] Creating Layer loss2/classifier
I0224 09:45:35.058456  1997 net.cpp:434] loss2/classifier <- loss2/fc
I0224 09:45:35.058470  1997 net.cpp:408] loss2/classifier -> loss2/classifier
I0224 09:45:35.077292  1997 net.cpp:150] Setting up loss2/classifier
I0224 09:45:35.077337  1997 net.cpp:157] Top shape: 48 1000 (48000)
I0224 09:45:35.077345  1997 net.cpp:165] Memory required for data: 2417188612
I0224 09:45:35.077363  1997 layer_factory.hpp:77] Creating layer loss2/loss
I0224 09:45:35.077379  1997 net.cpp:100] Creating Layer loss2/loss
I0224 09:45:35.077391  1997 net.cpp:434] loss2/loss <- loss2/classifier
I0224 09:45:35.077404  1997 net.cpp:434] loss2/loss <- label_data_1_split_1
I0224 09:45:35.077438  1997 net.cpp:408] loss2/loss -> loss2/loss1
I0224 09:45:35.077474  1997 layer_factory.hpp:77] Creating layer loss2/loss
I0224 09:45:35.077708  1997 net.cpp:150] Setting up loss2/loss
I0224 09:45:35.077721  1997 net.cpp:157] Top shape: (1)
I0224 09:45:35.077729  1997 net.cpp:160]     with loss weight 0.3
I0224 09:45:35.077759  1997 net.cpp:165] Memory required for data: 2417188616
I0224 09:45:35.077769  1997 layer_factory.hpp:77] Creating layer inception_4e/1x1
I0224 09:45:35.077793  1997 net.cpp:100] Creating Layer inception_4e/1x1
I0224 09:45:35.077805  1997 net.cpp:434] inception_4e/1x1 <- inception_4d/output_inception_4d/output_0_split_1
I0224 09:45:35.077821  1997 net.cpp:408] inception_4e/1x1 -> inception_4e/1x1
I0224 09:45:35.080293  1997 net.cpp:150] Setting up inception_4e/1x1
I0224 09:45:35.080322  1997 net.cpp:157] Top shape: 48 256 14 14 (2408448)
I0224 09:45:35.080332  1997 net.cpp:165] Memory required for data: 2426822408
I0224 09:45:35.080346  1997 layer_factory.hpp:77] Creating layer inception_4e/relu_1x1
I0224 09:45:35.080361  1997 net.cpp:100] Creating Layer inception_4e/relu_1x1
I0224 09:45:35.080371  1997 net.cpp:434] inception_4e/relu_1x1 <- inception_4e/1x1
I0224 09:45:35.080387  1997 net.cpp:395] inception_4e/relu_1x1 -> inception_4e/1x1 (in-place)
I0224 09:45:35.080404  1997 net.cpp:150] Setting up inception_4e/relu_1x1
I0224 09:45:35.080415  1997 net.cpp:157] Top shape: 48 256 14 14 (2408448)
I0224 09:45:35.080423  1997 net.cpp:165] Memory required for data: 2436456200
I0224 09:45:35.080432  1997 layer_factory.hpp:77] Creating layer inception_4e/3x3_reduce
I0224 09:45:35.080448  1997 net.cpp:100] Creating Layer inception_4e/3x3_reduce
I0224 09:45:35.080458  1997 net.cpp:434] inception_4e/3x3_reduce <- inception_4d/output_inception_4d/output_0_split_2
I0224 09:45:35.080476  1997 net.cpp:408] inception_4e/3x3_reduce -> inception_4e/3x3_reduce
I0224 09:45:35.082025  1997 net.cpp:150] Setting up inception_4e/3x3_reduce
I0224 09:45:35.082053  1997 net.cpp:157] Top shape: 48 160 14 14 (1505280)
I0224 09:45:35.082062  1997 net.cpp:165] Memory required for data: 2442477320
I0224 09:45:35.082077  1997 layer_factory.hpp:77] Creating layer inception_4e/relu_3x3_reduce
I0224 09:45:35.082090  1997 net.cpp:100] Creating Layer inception_4e/relu_3x3_reduce
I0224 09:45:35.082101  1997 net.cpp:434] inception_4e/relu_3x3_reduce <- inception_4e/3x3_reduce
I0224 09:45:35.082113  1997 net.cpp:395] inception_4e/relu_3x3_reduce -> inception_4e/3x3_reduce (in-place)
I0224 09:45:35.082129  1997 net.cpp:150] Setting up inception_4e/relu_3x3_reduce
I0224 09:45:35.082139  1997 net.cpp:157] Top shape: 48 160 14 14 (1505280)
I0224 09:45:35.082149  1997 net.cpp:165] Memory required for data: 2448498440
I0224 09:45:35.082157  1997 layer_factory.hpp:77] Creating layer inception_4e/3x3
I0224 09:45:35.082180  1997 net.cpp:100] Creating Layer inception_4e/3x3
I0224 09:45:35.082190  1997 net.cpp:434] inception_4e/3x3 <- inception_4e/3x3_reduce
I0224 09:45:35.082206  1997 net.cpp:408] inception_4e/3x3 -> inception_4e/3x3
I0224 09:45:35.090590  1997 net.cpp:150] Setting up inception_4e/3x3
I0224 09:45:35.090625  1997 net.cpp:157] Top shape: 48 320 14 14 (3010560)
I0224 09:45:35.090633  1997 net.cpp:165] Memory required for data: 2460540680
I0224 09:45:35.090649  1997 layer_factory.hpp:77] Creating layer inception_4e/relu_3x3
I0224 09:45:35.090667  1997 net.cpp:100] Creating Layer inception_4e/relu_3x3
I0224 09:45:35.090679  1997 net.cpp:434] inception_4e/relu_3x3 <- inception_4e/3x3
I0224 09:45:35.090692  1997 net.cpp:395] inception_4e/relu_3x3 -> inception_4e/3x3 (in-place)
I0224 09:45:35.090708  1997 net.cpp:150] Setting up inception_4e/relu_3x3
I0224 09:45:35.090719  1997 net.cpp:157] Top shape: 48 320 14 14 (3010560)
I0224 09:45:35.090728  1997 net.cpp:165] Memory required for data: 2472582920
I0224 09:45:35.090736  1997 layer_factory.hpp:77] Creating layer inception_4e/5x5_reduce
I0224 09:45:35.090754  1997 net.cpp:100] Creating Layer inception_4e/5x5_reduce
I0224 09:45:35.090764  1997 net.cpp:434] inception_4e/5x5_reduce <- inception_4d/output_inception_4d/output_0_split_3
I0224 09:45:35.090808  1997 net.cpp:408] inception_4e/5x5_reduce -> inception_4e/5x5_reduce
I0224 09:45:35.091132  1997 net.cpp:150] Setting up inception_4e/5x5_reduce
I0224 09:45:35.091146  1997 net.cpp:157] Top shape: 48 32 14 14 (301056)
I0224 09:45:35.091154  1997 net.cpp:165] Memory required for data: 2473787144
I0224 09:45:35.091167  1997 layer_factory.hpp:77] Creating layer inception_4e/relu_5x5_reduce
I0224 09:45:35.091178  1997 net.cpp:100] Creating Layer inception_4e/relu_5x5_reduce
I0224 09:45:35.091188  1997 net.cpp:434] inception_4e/relu_5x5_reduce <- inception_4e/5x5_reduce
I0224 09:45:35.091199  1997 net.cpp:395] inception_4e/relu_5x5_reduce -> inception_4e/5x5_reduce (in-place)
I0224 09:45:35.091213  1997 net.cpp:150] Setting up inception_4e/relu_5x5_reduce
I0224 09:45:35.091224  1997 net.cpp:157] Top shape: 48 32 14 14 (301056)
I0224 09:45:35.091233  1997 net.cpp:165] Memory required for data: 2474991368
I0224 09:45:35.091248  1997 layer_factory.hpp:77] Creating layer inception_4e/5x5
I0224 09:45:35.091301  1997 net.cpp:100] Creating Layer inception_4e/5x5
I0224 09:45:35.091313  1997 net.cpp:434] inception_4e/5x5 <- inception_4e/5x5_reduce
I0224 09:45:35.091331  1997 net.cpp:408] inception_4e/5x5 -> inception_4e/5x5
I0224 09:45:35.093150  1997 net.cpp:150] Setting up inception_4e/5x5
I0224 09:45:35.093175  1997 net.cpp:157] Top shape: 48 128 14 14 (1204224)
I0224 09:45:35.093184  1997 net.cpp:165] Memory required for data: 2479808264
I0224 09:45:35.093200  1997 layer_factory.hpp:77] Creating layer inception_4e/relu_5x5
I0224 09:45:35.093214  1997 net.cpp:100] Creating Layer inception_4e/relu_5x5
I0224 09:45:35.093225  1997 net.cpp:434] inception_4e/relu_5x5 <- inception_4e/5x5
I0224 09:45:35.093236  1997 net.cpp:395] inception_4e/relu_5x5 -> inception_4e/5x5 (in-place)
I0224 09:45:35.093258  1997 net.cpp:150] Setting up inception_4e/relu_5x5
I0224 09:45:35.093269  1997 net.cpp:157] Top shape: 48 128 14 14 (1204224)
I0224 09:45:35.093278  1997 net.cpp:165] Memory required for data: 2484625160
I0224 09:45:35.093287  1997 layer_factory.hpp:77] Creating layer inception_4e/pool
I0224 09:45:35.093304  1997 net.cpp:100] Creating Layer inception_4e/pool
I0224 09:45:35.093315  1997 net.cpp:434] inception_4e/pool <- inception_4d/output_inception_4d/output_0_split_4
I0224 09:45:35.093330  1997 net.cpp:408] inception_4e/pool -> inception_4e/pool
I0224 09:45:35.093350  1997 net.cpp:150] Setting up inception_4e/pool
I0224 09:45:35.093364  1997 net.cpp:157] Top shape: 48 528 14 14 (4967424)
I0224 09:45:35.093371  1997 net.cpp:165] Memory required for data: 2504494856
I0224 09:45:35.093380  1997 layer_factory.hpp:77] Creating layer inception_4e/pool_proj
I0224 09:45:35.093400  1997 net.cpp:100] Creating Layer inception_4e/pool_proj
I0224 09:45:35.093410  1997 net.cpp:434] inception_4e/pool_proj <- inception_4e/pool
I0224 09:45:35.093423  1997 net.cpp:408] inception_4e/pool_proj -> inception_4e/pool_proj
I0224 09:45:35.094676  1997 net.cpp:150] Setting up inception_4e/pool_proj
I0224 09:45:35.094699  1997 net.cpp:157] Top shape: 48 128 14 14 (1204224)
I0224 09:45:35.094708  1997 net.cpp:165] Memory required for data: 2509311752
I0224 09:45:35.094722  1997 layer_factory.hpp:77] Creating layer inception_4e/relu_pool_proj
I0224 09:45:35.094735  1997 net.cpp:100] Creating Layer inception_4e/relu_pool_proj
I0224 09:45:35.094745  1997 net.cpp:434] inception_4e/relu_pool_proj <- inception_4e/pool_proj
I0224 09:45:35.094758  1997 net.cpp:395] inception_4e/relu_pool_proj -> inception_4e/pool_proj (in-place)
I0224 09:45:35.094771  1997 net.cpp:150] Setting up inception_4e/relu_pool_proj
I0224 09:45:35.094784  1997 net.cpp:157] Top shape: 48 128 14 14 (1204224)
I0224 09:45:35.094791  1997 net.cpp:165] Memory required for data: 2514128648
I0224 09:45:35.094800  1997 layer_factory.hpp:77] Creating layer inception_4e/output
I0224 09:45:35.094813  1997 net.cpp:100] Creating Layer inception_4e/output
I0224 09:45:35.094823  1997 net.cpp:434] inception_4e/output <- inception_4e/1x1
I0224 09:45:35.094856  1997 net.cpp:434] inception_4e/output <- inception_4e/3x3
I0224 09:45:35.094867  1997 net.cpp:434] inception_4e/output <- inception_4e/5x5
I0224 09:45:35.094877  1997 net.cpp:434] inception_4e/output <- inception_4e/pool_proj
I0224 09:45:35.094897  1997 net.cpp:408] inception_4e/output -> inception_4e/output
I0224 09:45:35.094915  1997 net.cpp:150] Setting up inception_4e/output
I0224 09:45:35.094928  1997 net.cpp:157] Top shape: 48 832 14 14 (7827456)
I0224 09:45:35.094936  1997 net.cpp:165] Memory required for data: 2545438472
I0224 09:45:35.094945  1997 layer_factory.hpp:77] Creating layer pool4/3x3_s2
I0224 09:45:35.094957  1997 net.cpp:100] Creating Layer pool4/3x3_s2
I0224 09:45:35.094966  1997 net.cpp:434] pool4/3x3_s2 <- inception_4e/output
I0224 09:45:35.094980  1997 net.cpp:408] pool4/3x3_s2 -> pool4/3x3_s2
I0224 09:45:35.094997  1997 net.cpp:150] Setting up pool4/3x3_s2
I0224 09:45:35.095010  1997 net.cpp:157] Top shape: 48 832 7 7 (1956864)
I0224 09:45:35.095017  1997 net.cpp:165] Memory required for data: 2553265928
I0224 09:45:35.095026  1997 layer_factory.hpp:77] Creating layer pool4/3x3_s2_pool4/3x3_s2_0_split
I0224 09:45:35.095043  1997 net.cpp:100] Creating Layer pool4/3x3_s2_pool4/3x3_s2_0_split
I0224 09:45:35.095054  1997 net.cpp:434] pool4/3x3_s2_pool4/3x3_s2_0_split <- pool4/3x3_s2
I0224 09:45:35.095067  1997 net.cpp:408] pool4/3x3_s2_pool4/3x3_s2_0_split -> pool4/3x3_s2_pool4/3x3_s2_0_split_0
I0224 09:45:35.095080  1997 net.cpp:408] pool4/3x3_s2_pool4/3x3_s2_0_split -> pool4/3x3_s2_pool4/3x3_s2_0_split_1
I0224 09:45:35.095095  1997 net.cpp:408] pool4/3x3_s2_pool4/3x3_s2_0_split -> pool4/3x3_s2_pool4/3x3_s2_0_split_2
I0224 09:45:35.095113  1997 net.cpp:408] pool4/3x3_s2_pool4/3x3_s2_0_split -> pool4/3x3_s2_pool4/3x3_s2_0_split_3
I0224 09:45:35.095130  1997 net.cpp:150] Setting up pool4/3x3_s2_pool4/3x3_s2_0_split
I0224 09:45:35.095142  1997 net.cpp:157] Top shape: 48 832 7 7 (1956864)
I0224 09:45:35.095152  1997 net.cpp:157] Top shape: 48 832 7 7 (1956864)
I0224 09:45:35.095163  1997 net.cpp:157] Top shape: 48 832 7 7 (1956864)
I0224 09:45:35.095175  1997 net.cpp:157] Top shape: 48 832 7 7 (1956864)
I0224 09:45:35.095182  1997 net.cpp:165] Memory required for data: 2584575752
I0224 09:45:35.095191  1997 layer_factory.hpp:77] Creating layer inception_5a/1x1
I0224 09:45:35.095209  1997 net.cpp:100] Creating Layer inception_5a/1x1
I0224 09:45:35.095219  1997 net.cpp:434] inception_5a/1x1 <- pool4/3x3_s2_pool4/3x3_s2_0_split_0
I0224 09:45:35.095233  1997 net.cpp:408] inception_5a/1x1 -> inception_5a/1x1
I0224 09:45:35.099067  1997 net.cpp:150] Setting up inception_5a/1x1
I0224 09:45:35.099097  1997 net.cpp:157] Top shape: 48 256 7 7 (602112)
I0224 09:45:35.099107  1997 net.cpp:165] Memory required for data: 2586984200
I0224 09:45:35.099122  1997 layer_factory.hpp:77] Creating layer inception_5a/relu_1x1
I0224 09:45:35.099135  1997 net.cpp:100] Creating Layer inception_5a/relu_1x1
I0224 09:45:35.099146  1997 net.cpp:434] inception_5a/relu_1x1 <- inception_5a/1x1
I0224 09:45:35.099161  1997 net.cpp:395] inception_5a/relu_1x1 -> inception_5a/1x1 (in-place)
I0224 09:45:35.099177  1997 net.cpp:150] Setting up inception_5a/relu_1x1
I0224 09:45:35.099189  1997 net.cpp:157] Top shape: 48 256 7 7 (602112)
I0224 09:45:35.099197  1997 net.cpp:165] Memory required for data: 2589392648
I0224 09:45:35.099205  1997 layer_factory.hpp:77] Creating layer inception_5a/3x3_reduce
I0224 09:45:35.099221  1997 net.cpp:100] Creating Layer inception_5a/3x3_reduce
I0224 09:45:35.099231  1997 net.cpp:434] inception_5a/3x3_reduce <- pool4/3x3_s2_pool4/3x3_s2_0_split_1
I0224 09:45:35.099249  1997 net.cpp:408] inception_5a/3x3_reduce -> inception_5a/3x3_reduce
I0224 09:45:35.101595  1997 net.cpp:150] Setting up inception_5a/3x3_reduce
I0224 09:45:35.101624  1997 net.cpp:157] Top shape: 48 160 7 7 (376320)
I0224 09:45:35.101632  1997 net.cpp:165] Memory required for data: 2590897928
I0224 09:45:35.101646  1997 layer_factory.hpp:77] Creating layer inception_5a/relu_3x3_reduce
I0224 09:45:35.101670  1997 net.cpp:100] Creating Layer inception_5a/relu_3x3_reduce
I0224 09:45:35.101693  1997 net.cpp:434] inception_5a/relu_3x3_reduce <- inception_5a/3x3_reduce
I0224 09:45:35.101708  1997 net.cpp:395] inception_5a/relu_3x3_reduce -> inception_5a/3x3_reduce (in-place)
I0224 09:45:35.101724  1997 net.cpp:150] Setting up inception_5a/relu_3x3_reduce
I0224 09:45:35.101737  1997 net.cpp:157] Top shape: 48 160 7 7 (376320)
I0224 09:45:35.101744  1997 net.cpp:165] Memory required for data: 2592403208
I0224 09:45:35.101753  1997 layer_factory.hpp:77] Creating layer inception_5a/3x3
I0224 09:45:35.101768  1997 net.cpp:100] Creating Layer inception_5a/3x3
I0224 09:45:35.101778  1997 net.cpp:434] inception_5a/3x3 <- inception_5a/3x3_reduce
I0224 09:45:35.101790  1997 net.cpp:408] inception_5a/3x3 -> inception_5a/3x3
I0224 09:45:35.110062  1997 net.cpp:150] Setting up inception_5a/3x3
I0224 09:45:35.110095  1997 net.cpp:157] Top shape: 48 320 7 7 (752640)
I0224 09:45:35.110105  1997 net.cpp:165] Memory required for data: 2595413768
I0224 09:45:35.110119  1997 layer_factory.hpp:77] Creating layer inception_5a/relu_3x3
I0224 09:45:35.110134  1997 net.cpp:100] Creating Layer inception_5a/relu_3x3
I0224 09:45:35.110146  1997 net.cpp:434] inception_5a/relu_3x3 <- inception_5a/3x3
I0224 09:45:35.110158  1997 net.cpp:395] inception_5a/relu_3x3 -> inception_5a/3x3 (in-place)
I0224 09:45:35.110173  1997 net.cpp:150] Setting up inception_5a/relu_3x3
I0224 09:45:35.110185  1997 net.cpp:157] Top shape: 48 320 7 7 (752640)
I0224 09:45:35.110193  1997 net.cpp:165] Memory required for data: 2598424328
I0224 09:45:35.110203  1997 layer_factory.hpp:77] Creating layer inception_5a/5x5_reduce
I0224 09:45:35.110219  1997 net.cpp:100] Creating Layer inception_5a/5x5_reduce
I0224 09:45:35.110229  1997 net.cpp:434] inception_5a/5x5_reduce <- pool4/3x3_s2_pool4/3x3_s2_0_split_2
I0224 09:45:35.110250  1997 net.cpp:408] inception_5a/5x5_reduce -> inception_5a/5x5_reduce
I0224 09:45:35.110731  1997 net.cpp:150] Setting up inception_5a/5x5_reduce
I0224 09:45:35.110745  1997 net.cpp:157] Top shape: 48 32 7 7 (75264)
I0224 09:45:35.110754  1997 net.cpp:165] Memory required for data: 2598725384
I0224 09:45:35.110766  1997 layer_factory.hpp:77] Creating layer inception_5a/relu_5x5_reduce
I0224 09:45:35.110779  1997 net.cpp:100] Creating Layer inception_5a/relu_5x5_reduce
I0224 09:45:35.110787  1997 net.cpp:434] inception_5a/relu_5x5_reduce <- inception_5a/5x5_reduce
I0224 09:45:35.110802  1997 net.cpp:395] inception_5a/relu_5x5_reduce -> inception_5a/5x5_reduce (in-place)
I0224 09:45:35.110816  1997 net.cpp:150] Setting up inception_5a/relu_5x5_reduce
I0224 09:45:35.110828  1997 net.cpp:157] Top shape: 48 32 7 7 (75264)
I0224 09:45:35.110836  1997 net.cpp:165] Memory required for data: 2599026440
I0224 09:45:35.110846  1997 layer_factory.hpp:77] Creating layer inception_5a/5x5
I0224 09:45:35.110860  1997 net.cpp:100] Creating Layer inception_5a/5x5
I0224 09:45:35.110870  1997 net.cpp:434] inception_5a/5x5 <- inception_5a/5x5_reduce
I0224 09:45:35.110887  1997 net.cpp:408] inception_5a/5x5 -> inception_5a/5x5
I0224 09:45:35.112730  1997 net.cpp:150] Setting up inception_5a/5x5
I0224 09:45:35.112752  1997 net.cpp:157] Top shape: 48 128 7 7 (301056)
I0224 09:45:35.112761  1997 net.cpp:165] Memory required for data: 2600230664
I0224 09:45:35.112776  1997 layer_factory.hpp:77] Creating layer inception_5a/relu_5x5
I0224 09:45:35.112794  1997 net.cpp:100] Creating Layer inception_5a/relu_5x5
I0224 09:45:35.112805  1997 net.cpp:434] inception_5a/relu_5x5 <- inception_5a/5x5
I0224 09:45:35.112818  1997 net.cpp:395] inception_5a/relu_5x5 -> inception_5a/5x5 (in-place)
I0224 09:45:35.112830  1997 net.cpp:150] Setting up inception_5a/relu_5x5
I0224 09:45:35.112843  1997 net.cpp:157] Top shape: 48 128 7 7 (301056)
I0224 09:45:35.112850  1997 net.cpp:165] Memory required for data: 2601434888
I0224 09:45:35.112859  1997 layer_factory.hpp:77] Creating layer inception_5a/pool
I0224 09:45:35.112872  1997 net.cpp:100] Creating Layer inception_5a/pool
I0224 09:45:35.112893  1997 net.cpp:434] inception_5a/pool <- pool4/3x3_s2_pool4/3x3_s2_0_split_3
I0224 09:45:35.112921  1997 net.cpp:408] inception_5a/pool -> inception_5a/pool
I0224 09:45:35.112941  1997 net.cpp:150] Setting up inception_5a/pool
I0224 09:45:35.112953  1997 net.cpp:157] Top shape: 48 832 7 7 (1956864)
I0224 09:45:35.112962  1997 net.cpp:165] Memory required for data: 2609262344
I0224 09:45:35.112972  1997 layer_factory.hpp:77] Creating layer inception_5a/pool_proj
I0224 09:45:35.112989  1997 net.cpp:100] Creating Layer inception_5a/pool_proj
I0224 09:45:35.113000  1997 net.cpp:434] inception_5a/pool_proj <- inception_5a/pool
I0224 09:45:35.113016  1997 net.cpp:408] inception_5a/pool_proj -> inception_5a/pool_proj
I0224 09:45:35.114933  1997 net.cpp:150] Setting up inception_5a/pool_proj
I0224 09:45:35.114959  1997 net.cpp:157] Top shape: 48 128 7 7 (301056)
I0224 09:45:35.114969  1997 net.cpp:165] Memory required for data: 2610466568
I0224 09:45:35.114984  1997 layer_factory.hpp:77] Creating layer inception_5a/relu_pool_proj
I0224 09:45:35.115000  1997 net.cpp:100] Creating Layer inception_5a/relu_pool_proj
I0224 09:45:35.115011  1997 net.cpp:434] inception_5a/relu_pool_proj <- inception_5a/pool_proj
I0224 09:45:35.115025  1997 net.cpp:395] inception_5a/relu_pool_proj -> inception_5a/pool_proj (in-place)
I0224 09:45:35.115038  1997 net.cpp:150] Setting up inception_5a/relu_pool_proj
I0224 09:45:35.115051  1997 net.cpp:157] Top shape: 48 128 7 7 (301056)
I0224 09:45:35.115058  1997 net.cpp:165] Memory required for data: 2611670792
I0224 09:45:35.115067  1997 layer_factory.hpp:77] Creating layer inception_5a/output
I0224 09:45:35.115082  1997 net.cpp:100] Creating Layer inception_5a/output
I0224 09:45:35.115093  1997 net.cpp:434] inception_5a/output <- inception_5a/1x1
I0224 09:45:35.115103  1997 net.cpp:434] inception_5a/output <- inception_5a/3x3
I0224 09:45:35.115113  1997 net.cpp:434] inception_5a/output <- inception_5a/5x5
I0224 09:45:35.115124  1997 net.cpp:434] inception_5a/output <- inception_5a/pool_proj
I0224 09:45:35.115136  1997 net.cpp:408] inception_5a/output -> inception_5a/output
I0224 09:45:35.115152  1997 net.cpp:150] Setting up inception_5a/output
I0224 09:45:35.115164  1997 net.cpp:157] Top shape: 48 832 7 7 (1956864)
I0224 09:45:35.115172  1997 net.cpp:165] Memory required for data: 2619498248
I0224 09:45:35.115180  1997 layer_factory.hpp:77] Creating layer inception_5a/output_inception_5a/output_0_split
I0224 09:45:35.115193  1997 net.cpp:100] Creating Layer inception_5a/output_inception_5a/output_0_split
I0224 09:45:35.115202  1997 net.cpp:434] inception_5a/output_inception_5a/output_0_split <- inception_5a/output
I0224 09:45:35.115217  1997 net.cpp:408] inception_5a/output_inception_5a/output_0_split -> inception_5a/output_inception_5a/output_0_split_0
I0224 09:45:35.115232  1997 net.cpp:408] inception_5a/output_inception_5a/output_0_split -> inception_5a/output_inception_5a/output_0_split_1
I0224 09:45:35.115252  1997 net.cpp:408] inception_5a/output_inception_5a/output_0_split -> inception_5a/output_inception_5a/output_0_split_2
I0224 09:45:35.115267  1997 net.cpp:408] inception_5a/output_inception_5a/output_0_split -> inception_5a/output_inception_5a/output_0_split_3
I0224 09:45:35.115284  1997 net.cpp:150] Setting up inception_5a/output_inception_5a/output_0_split
I0224 09:45:35.115296  1997 net.cpp:157] Top shape: 48 832 7 7 (1956864)
I0224 09:45:35.115306  1997 net.cpp:157] Top shape: 48 832 7 7 (1956864)
I0224 09:45:35.115317  1997 net.cpp:157] Top shape: 48 832 7 7 (1956864)
I0224 09:45:35.115329  1997 net.cpp:157] Top shape: 48 832 7 7 (1956864)
I0224 09:45:35.115336  1997 net.cpp:165] Memory required for data: 2650808072
I0224 09:45:35.115345  1997 layer_factory.hpp:77] Creating layer inception_5b/1x1
I0224 09:45:35.115363  1997 net.cpp:100] Creating Layer inception_5b/1x1
I0224 09:45:35.115373  1997 net.cpp:434] inception_5b/1x1 <- inception_5a/output_inception_5a/output_0_split_0
I0224 09:45:35.115387  1997 net.cpp:408] inception_5b/1x1 -> inception_5b/1x1
I0224 09:45:35.121048  1997 net.cpp:150] Setting up inception_5b/1x1
I0224 09:45:35.121099  1997 net.cpp:157] Top shape: 48 384 7 7 (903168)
I0224 09:45:35.121109  1997 net.cpp:165] Memory required for data: 2654420744
I0224 09:45:35.121124  1997 layer_factory.hpp:77] Creating layer inception_5b/relu_1x1
I0224 09:45:35.121140  1997 net.cpp:100] Creating Layer inception_5b/relu_1x1
I0224 09:45:35.121150  1997 net.cpp:434] inception_5b/relu_1x1 <- inception_5b/1x1
I0224 09:45:35.121165  1997 net.cpp:395] inception_5b/relu_1x1 -> inception_5b/1x1 (in-place)
I0224 09:45:35.121181  1997 net.cpp:150] Setting up inception_5b/relu_1x1
I0224 09:45:35.121192  1997 net.cpp:157] Top shape: 48 384 7 7 (903168)
I0224 09:45:35.121201  1997 net.cpp:165] Memory required for data: 2658033416
I0224 09:45:35.121210  1997 layer_factory.hpp:77] Creating layer inception_5b/3x3_reduce
I0224 09:45:35.121227  1997 net.cpp:100] Creating Layer inception_5b/3x3_reduce
I0224 09:45:35.121237  1997 net.cpp:434] inception_5b/3x3_reduce <- inception_5a/output_inception_5a/output_0_split_1
I0224 09:45:35.121256  1997 net.cpp:408] inception_5b/3x3_reduce -> inception_5b/3x3_reduce
I0224 09:45:35.124109  1997 net.cpp:150] Setting up inception_5b/3x3_reduce
I0224 09:45:35.124138  1997 net.cpp:157] Top shape: 48 192 7 7 (451584)
I0224 09:45:35.124146  1997 net.cpp:165] Memory required for data: 2659839752
I0224 09:45:35.124161  1997 layer_factory.hpp:77] Creating layer inception_5b/relu_3x3_reduce
I0224 09:45:35.124178  1997 net.cpp:100] Creating Layer inception_5b/relu_3x3_reduce
I0224 09:45:35.124191  1997 net.cpp:434] inception_5b/relu_3x3_reduce <- inception_5b/3x3_reduce
I0224 09:45:35.124202  1997 net.cpp:395] inception_5b/relu_3x3_reduce -> inception_5b/3x3_reduce (in-place)
I0224 09:45:35.124217  1997 net.cpp:150] Setting up inception_5b/relu_3x3_reduce
I0224 09:45:35.124229  1997 net.cpp:157] Top shape: 48 192 7 7 (451584)
I0224 09:45:35.124238  1997 net.cpp:165] Memory required for data: 2661646088
I0224 09:45:35.124253  1997 layer_factory.hpp:77] Creating layer inception_5b/3x3
I0224 09:45:35.124269  1997 net.cpp:100] Creating Layer inception_5b/3x3
I0224 09:45:35.124279  1997 net.cpp:434] inception_5b/3x3 <- inception_5b/3x3_reduce
I0224 09:45:35.124295  1997 net.cpp:408] inception_5b/3x3 -> inception_5b/3x3
I0224 09:45:35.136245  1997 net.cpp:150] Setting up inception_5b/3x3
I0224 09:45:35.136282  1997 net.cpp:157] Top shape: 48 384 7 7 (903168)
I0224 09:45:35.136292  1997 net.cpp:165] Memory required for data: 2665258760
I0224 09:45:35.136308  1997 layer_factory.hpp:77] Creating layer inception_5b/relu_3x3
I0224 09:45:35.136323  1997 net.cpp:100] Creating Layer inception_5b/relu_3x3
I0224 09:45:35.136335  1997 net.cpp:434] inception_5b/relu_3x3 <- inception_5b/3x3
I0224 09:45:35.136349  1997 net.cpp:395] inception_5b/relu_3x3 -> inception_5b/3x3 (in-place)
I0224 09:45:35.136365  1997 net.cpp:150] Setting up inception_5b/relu_3x3
I0224 09:45:35.136378  1997 net.cpp:157] Top shape: 48 384 7 7 (903168)
I0224 09:45:35.136385  1997 net.cpp:165] Memory required for data: 2668871432
I0224 09:45:35.136394  1997 layer_factory.hpp:77] Creating layer inception_5b/5x5_reduce
I0224 09:45:35.136411  1997 net.cpp:100] Creating Layer inception_5b/5x5_reduce
I0224 09:45:35.136421  1997 net.cpp:434] inception_5b/5x5_reduce <- inception_5a/output_inception_5a/output_0_split_2
I0224 09:45:35.136438  1997 net.cpp:408] inception_5b/5x5_reduce -> inception_5b/5x5_reduce
I0224 09:45:35.137157  1997 net.cpp:150] Setting up inception_5b/5x5_reduce
I0224 09:45:35.137171  1997 net.cpp:157] Top shape: 48 48 7 7 (112896)
I0224 09:45:35.137181  1997 net.cpp:165] Memory required for data: 2669323016
I0224 09:45:35.137193  1997 layer_factory.hpp:77] Creating layer inception_5b/relu_5x5_reduce
I0224 09:45:35.137204  1997 net.cpp:100] Creating Layer inception_5b/relu_5x5_reduce
I0224 09:45:35.137214  1997 net.cpp:434] inception_5b/relu_5x5_reduce <- inception_5b/5x5_reduce
I0224 09:45:35.137229  1997 net.cpp:395] inception_5b/relu_5x5_reduce -> inception_5b/5x5_reduce (in-place)
I0224 09:45:35.137248  1997 net.cpp:150] Setting up inception_5b/relu_5x5_reduce
I0224 09:45:35.137287  1997 net.cpp:157] Top shape: 48 48 7 7 (112896)
I0224 09:45:35.137296  1997 net.cpp:165] Memory required for data: 2669774600
I0224 09:45:35.137306  1997 layer_factory.hpp:77] Creating layer inception_5b/5x5
I0224 09:45:35.137323  1997 net.cpp:100] Creating Layer inception_5b/5x5
I0224 09:45:35.137334  1997 net.cpp:434] inception_5b/5x5 <- inception_5b/5x5_reduce
I0224 09:45:35.137348  1997 net.cpp:408] inception_5b/5x5 -> inception_5b/5x5
I0224 09:45:35.140074  1997 net.cpp:150] Setting up inception_5b/5x5
I0224 09:45:35.140103  1997 net.cpp:157] Top shape: 48 128 7 7 (301056)
I0224 09:45:35.140112  1997 net.cpp:165] Memory required for data: 2670978824
I0224 09:45:35.140127  1997 layer_factory.hpp:77] Creating layer inception_5b/relu_5x5
I0224 09:45:35.140144  1997 net.cpp:100] Creating Layer inception_5b/relu_5x5
I0224 09:45:35.140156  1997 net.cpp:434] inception_5b/relu_5x5 <- inception_5b/5x5
I0224 09:45:35.140168  1997 net.cpp:395] inception_5b/relu_5x5 -> inception_5b/5x5 (in-place)
I0224 09:45:35.140182  1997 net.cpp:150] Setting up inception_5b/relu_5x5
I0224 09:45:35.140194  1997 net.cpp:157] Top shape: 48 128 7 7 (301056)
I0224 09:45:35.140202  1997 net.cpp:165] Memory required for data: 2672183048
I0224 09:45:35.140211  1997 layer_factory.hpp:77] Creating layer inception_5b/pool
I0224 09:45:35.140223  1997 net.cpp:100] Creating Layer inception_5b/pool
I0224 09:45:35.140233  1997 net.cpp:434] inception_5b/pool <- inception_5a/output_inception_5a/output_0_split_3
I0224 09:45:35.140254  1997 net.cpp:408] inception_5b/pool -> inception_5b/pool
I0224 09:45:35.140275  1997 net.cpp:150] Setting up inception_5b/pool
I0224 09:45:35.140287  1997 net.cpp:157] Top shape: 48 832 7 7 (1956864)
I0224 09:45:35.140295  1997 net.cpp:165] Memory required for data: 2680010504
I0224 09:45:35.140305  1997 layer_factory.hpp:77] Creating layer inception_5b/pool_proj
I0224 09:45:35.140324  1997 net.cpp:100] Creating Layer inception_5b/pool_proj
I0224 09:45:35.140334  1997 net.cpp:434] inception_5b/pool_proj <- inception_5b/pool
I0224 09:45:35.140352  1997 net.cpp:408] inception_5b/pool_proj -> inception_5b/pool_proj
I0224 09:45:35.142262  1997 net.cpp:150] Setting up inception_5b/pool_proj
I0224 09:45:35.142287  1997 net.cpp:157] Top shape: 48 128 7 7 (301056)
I0224 09:45:35.142297  1997 net.cpp:165] Memory required for data: 2681214728
I0224 09:45:35.142310  1997 layer_factory.hpp:77] Creating layer inception_5b/relu_pool_proj
I0224 09:45:35.142326  1997 net.cpp:100] Creating Layer inception_5b/relu_pool_proj
I0224 09:45:35.142338  1997 net.cpp:434] inception_5b/relu_pool_proj <- inception_5b/pool_proj
I0224 09:45:35.142351  1997 net.cpp:395] inception_5b/relu_pool_proj -> inception_5b/pool_proj (in-place)
I0224 09:45:35.142369  1997 net.cpp:150] Setting up inception_5b/relu_pool_proj
I0224 09:45:35.142381  1997 net.cpp:157] Top shape: 48 128 7 7 (301056)
I0224 09:45:35.142390  1997 net.cpp:165] Memory required for data: 2682418952
I0224 09:45:35.142400  1997 layer_factory.hpp:77] Creating layer inception_5b/output
I0224 09:45:35.142412  1997 net.cpp:100] Creating Layer inception_5b/output
I0224 09:45:35.142422  1997 net.cpp:434] inception_5b/output <- inception_5b/1x1
I0224 09:45:35.142433  1997 net.cpp:434] inception_5b/output <- inception_5b/3x3
I0224 09:45:35.142443  1997 net.cpp:434] inception_5b/output <- inception_5b/5x5
I0224 09:45:35.142454  1997 net.cpp:434] inception_5b/output <- inception_5b/pool_proj
I0224 09:45:35.142467  1997 net.cpp:408] inception_5b/output -> inception_5b/output
I0224 09:45:35.142483  1997 net.cpp:150] Setting up inception_5b/output
I0224 09:45:35.142494  1997 net.cpp:157] Top shape: 48 1024 7 7 (2408448)
I0224 09:45:35.142503  1997 net.cpp:165] Memory required for data: 2692052744
I0224 09:45:35.142513  1997 layer_factory.hpp:77] Creating layer pool5/7x7_s1
I0224 09:45:35.142526  1997 net.cpp:100] Creating Layer pool5/7x7_s1
I0224 09:45:35.142537  1997 net.cpp:434] pool5/7x7_s1 <- inception_5b/output
I0224 09:45:35.142560  1997 net.cpp:408] pool5/7x7_s1 -> pool5/7x7_s1
I0224 09:45:35.142590  1997 net.cpp:150] Setting up pool5/7x7_s1
I0224 09:45:35.142602  1997 net.cpp:157] Top shape: 48 1024 1 1 (49152)
I0224 09:45:35.142611  1997 net.cpp:165] Memory required for data: 2692249352
I0224 09:45:35.142621  1997 layer_factory.hpp:77] Creating layer pool5/drop_7x7_s1
I0224 09:45:35.142640  1997 net.cpp:100] Creating Layer pool5/drop_7x7_s1
I0224 09:45:35.142652  1997 net.cpp:434] pool5/drop_7x7_s1 <- pool5/7x7_s1
I0224 09:45:35.142666  1997 net.cpp:395] pool5/drop_7x7_s1 -> pool5/7x7_s1 (in-place)
I0224 09:45:35.142683  1997 net.cpp:150] Setting up pool5/drop_7x7_s1
I0224 09:45:35.142694  1997 net.cpp:157] Top shape: 48 1024 1 1 (49152)
I0224 09:45:35.142702  1997 net.cpp:165] Memory required for data: 2692445960
I0224 09:45:35.142711  1997 layer_factory.hpp:77] Creating layer loss3/classifier
I0224 09:45:35.142729  1997 net.cpp:100] Creating Layer loss3/classifier
I0224 09:45:35.142738  1997 net.cpp:434] loss3/classifier <- pool5/7x7_s1
I0224 09:45:35.142751  1997 net.cpp:408] loss3/classifier -> loss3/classifier
I0224 09:45:35.160555  1997 net.cpp:150] Setting up loss3/classifier
I0224 09:45:35.160599  1997 net.cpp:157] Top shape: 48 1000 (48000)
I0224 09:45:35.160609  1997 net.cpp:165] Memory required for data: 2692637960
I0224 09:45:35.160625  1997 layer_factory.hpp:77] Creating layer loss3/loss3
I0224 09:45:35.160641  1997 net.cpp:100] Creating Layer loss3/loss3
I0224 09:45:35.160653  1997 net.cpp:434] loss3/loss3 <- loss3/classifier
I0224 09:45:35.160665  1997 net.cpp:434] loss3/loss3 <- label_data_1_split_2
I0224 09:45:35.160681  1997 net.cpp:408] loss3/loss3 -> loss3/loss3
…
I0224 09:45:35.173787  1997 net.cpp:322] The NetState phase (1) differed from the phase (0) specified by a rule in layer data
I0224 09:45:35.179447  1997 net.cpp:58] Initializing net from parameters: 
name: "GoogleNet"
state {
  phase: TEST
}
layer {
  name: "data"
  type: "Data"
  top: "data"
  top: "label"
  include {
    phase: TEST
  }
  transform_param {
    mirror: false
    crop_size: 224
    mean_value: 104
    mean_value: 117
    mean_value: 123
  }
  data_param {
    source: "/home/user/user/LIBRARIES/caffeLibs/caffe/examples/imagenet/ilsvrc12_val_lmdb"
    batch_size: 50
    backend: LMDB
  }
}
layer {
  name: "conv1/7x7_s2"
  type: "Convolution"
  bottom: "data"
  top: "conv1/7x7_s2"
  param {
    lr_mult: 1
    decay_mult: 1
  }
  param {
    lr_mult: 2
    decay_mult: 0
  }
  convolution_param {
    num_output: 64
    pad: 3
    kernel_size: 7
    stride: 2
    weight_filler {
      type: "xavier"
    }
    bias_filler {
      type: "constant"
      value: 0.2
    }
  }
}
layer {
  name: "conv1/relu_7x7"
  type: "ReLU"
  bottom: "conv1/7x7_s2"
  top: "conv1/7x7_s2"
}
layer {
  name: "pool1/3x3_s2"
  type: "Pooling"
  bottom: "conv1/7x7_s2"
  top: "pool1/3x3_s2"
  pooling_param {
    pool: MAX
    kernel_size: 3
    stride: 2
  }
}
layer {
  name: "pool1/norm1"
  type: "LRN"
  bottom: "pool1/3x3_s2"
  top: "pool1/norm1"
  lrn_param {
    local_size: 5
    alpha: 0.0001
    beta: 0.75
  }
}
layer {
  name: "conv2/3x3_reduce"
  type: "Convolution"
  bottom: "pool1/norm1"
  top: "conv2/3x3_reduce"
  param {
    lr_mult: 1
    decay_mult: 1
  }
  param {
    lr_mult: 2
    decay_mult: 0
  }
  convolution_param {
    num_output: 64
    kernel_size: 1
    weight_filler {
      type: "xavier"
    }
    bias_filler {
      type: "constant"
      value: 0.2
    }
  }
}
layer {
  name: "conv2/relu_3x3_reduce"
  type: "ReLU"
  bottom: "conv2/3x3_reduce"
  top: "conv2/3x3_reduce"
}
layer {
  name: "conv2/3x3"
  type: "Convolution"
  bottom: "conv2/3x3_reduce"
  top: "conv2/3x3"
  param {
    lr_mult: 1
    decay_mult: 1
  }
  param {
    lr_mult: 2
    decay_mult: 0
  }
  convolution_param {
    num_output: 192
    pad: 1
    kernel_size: 3
    weight_filler {
      type: "xavier"
    }
    bias_filler {
      type: "constant"
      value: 0.2
    }
  }
}
layer {
  name: "conv2/relu_3x3"
  type: "ReLU"
  bottom: "conv2/3x3"
  top: "conv2/3x3"
}
layer {
  name: "conv2/norm2"
  type: "LRN"
  bottom: "conv2/3x3"
  top: "conv2/norm2"
  lrn_param {
    local_size: 5
    alpha: 0.0001
    beta: 0.75
  }
}
layer {
  name: "pool2/3x3_s2"
  type: "Pooling"
  bottom: "conv2/norm2"
  top: "pool2/3x3_s2"
  pooling_param {
    pool: MAX
    kernel_size: 3
    stride: 2
  }
}
layer {
  name: "inception_3a/1x1"
  type: "Convolution"
  bottom: "pool2/3x3_s2"
  top: "inception_3a/1x1"
  param {
    lr_mult: 1
    decay_mult: 1
  }
  param {
    lr_mult: 2
    decay_mult: 0
  }
  convolution_param {
    num_output: 64
    kernel_size: 1
    weight_filler {
      type: "xavier"
    }
    bias_filler {
      type: "constant"
      value: 0.2
    }
  }
}
layer {
  name: "inception_3a/relu_1x1"
  type: "ReLU"
  bottom: "inception_3a/1x1"
  top: "inception_3a/1x1"
}
layer {
  name: "inception_3a/3x3_reduce"
  type: "Convolution"
  bottom: "pool2/3x3_s2"
  top: "inception_3a/3x3_reduce"
  param {
    lr_mult: 1
    decay_mult: 1
  }
  param {
    lr_mult: 2
    decay_mult: 0
  }
  convolution_param {
    num_output: 96
    kernel_size: 1
    weight_filler {
      type: "xavier"
    }
    bias_filler {
      type: "constant"
      value: 0.2
    }
  }
}
layer {
  name: "inception_3a/relu_3x3_reduce"
  type: "ReLU"
  bottom: "inception_3a/3x3_reduce"
  top: "inception_3a/3x3_reduce"
}
layer {
  name: "inception_3a/3x3"
  type: "Convolution"
  bottom: "inception_3a/3x3_reduce"
  top: "inception_3a/3x3"
  param {
    lr_mult: 1
    decay_mult: 1
  }
  param {
    lr_mult: 2
    decay_mult: 0
  }
  convolution_param {
    num_output: 128
    pad: 1
    kernel_size: 3
    weight_filler {
      type: "xavier"
    }
    bias_filler {
      type: "constant"
      value: 0.2
    }
  }
}
layer {
  name: "inception_3a/relu_3x3"
  type: "ReLU"
  bottom: "inception_3a/3x3"
  top: "inception_3a/3x3"
}
layer {
  name: "inception_3a/5x5_reduce"
  type: "Convolution"
  bottom: "pool2/3x3_s2"
  top: "inception_3a/5x5_reduce"
  param {
    lr_mult: 1
    decay_mult: 1
  }
  param {
    lr_mult: 2
    decay_mult: 0
  }
  convolution_param {
    num_output: 16
    kernel_size: 1
    weight_filler {
      type: "xavier"
    }
    bias_filler {
      type: "constant"
      value: 0.2
    }
  }
}
layer {
  name: "inception_3a/relu_5x5_reduce"
  type: "ReLU"
  bottom: "inception_3a/5x5_reduce"
  top: "inception_3a/5x5_reduce"
}
layer {
  name: "inception_3a/5x5"
  type: "Convolution"
  bottom: "inception_3a/5x5_reduce"
  top: "inception_3a/5x5"
  param {
    lr_mult: 1
    decay_mult: 1
  }
  param {
    lr_mult: 2
    decay_mult: 0
  }
  convolution_param {
    num_output: 32
    pad: 2
    kernel_size: 5
    weight_filler {
      type: "xavier"
    }
    bias_filler {
      type: "constant"
      value: 0.2
    }
  }
}
layer {
  name: "inception_3a/relu_5x5"
  type: "ReLU"
  bottom: "inception_3a/5x5"
  top: "inception_3a/5x5"
}
layer {
  name: "inception_3a/pool"
  type: "Pooling"
  bottom: "pool2/3x3_s2"
  top: "inception_3a/pool"
  pooling_param {
    pool: MAX
    kernel_size: 3
    stride: 1
    pad: 1
  }
}
layer {
  name: "inception_3a/pool_proj"
  type: "Convolution"
  bottom: "inception_3a/pool"
  top: "inception_3a/pool_proj"
  param {
    lr_mult: 1
    decay_mult: 1
  }
  param {
    lr_mult: 2
    decay_mult: 0
  }
  convolution_param {
    num_output: 32
    kernel_size: 1
    weight_filler {
      type: "xavier"
    }
    bias_filler {
      type: "constant"
      value: 0.2
    }
  }
}
layer {
  name: "inception_3a/relu_pool_proj"
  type: "ReLU"
  bottom: "inception_3a/pool_proj"
  top: "inception_3a/pool_proj"
}
layer {
  name: "inception_3a/output"
  type: "Concat"
  bottom: "inception_3a/1x1"
  bottom: "inception_3a/3x3"
  bottom: "inception_3a/5x5"
  bottom: "inception_3a/pool_proj"
  top: "inception_3a/output"
}
layer {
  name: "inception_3b/1x1"
  type: "Convolution"
  bottom: "inception_3a/output"
  top: "inception_3b/1x1"
  param {
    lr_mult: 1
    decay_mult: 1
  }
  param {
    lr_mult: 2
    decay_mult: 0
  }
  convolution_param {
    num_output: 128
    kernel_size: 1
    weight_filler {
      type: "xavier"
    }
    bias_filler {
      type: "constant"
      value: 0.2
    }
  }
}
layer {
  name: "inception_3b/relu_1x1"
  type: "ReLU"
  bottom: "inception_3b/1x1"
  top: "inception_3b/1x1"
}
layer {
  name: "inception_3b/3x3_reduce"
  type: "Convolution"
  bottom: "inception_3a/output"
  top: "inception_3b/3x3_reduce"
  param {
    lr_mult: 1
    decay_mult: 1
  }
  param {
    lr_mult: 2
    decay_mult: 0
  }
  convolution_param {
    num_output: 128
    kernel_size: 1
    weight_filler {
      type: "xavier"
    }
    bias_filler {
      type: "constant"
      value: 0.2
    }
  }
}
layer {
  name: "inception_3b/relu_3x3_reduce"
  type: "ReLU"
  bottom: "inception_3b/3x3_reduce"
  top: "inception_3b/3x3_reduce"
}
layer {
  name: "inception_3b/3x3"
  type: "Convolution"
  bottom: "inception_3b/3x3_reduce"
  top: "inception_3b/3x3"
  param {
    lr_mult: 1
    decay_mult: 1
  }
  param {
    lr_mult: 2
    decay_mult: 0
  }
  convolution_param {
    num_output: 192
    pad: 1
    kernel_size: 3
    weight_filler {
      type: "xavier"
    }
    bias_filler {
      type: "constant"
      value: 0.2
    }
  }
}
layer {
  name: "inception_3b/relu_3x3"
  type: "ReLU"
  bottom: "inception_3b/3x3"
  top: "inception_3b/3x3"
}
layer {
  name: "inception_3b/5x5_reduce"
  type: "Convolution"
  bottom: "inception_3a/output"
  top: "inception_3b/5x5_reduce"
  param {
    lr_mult: 1
    decay_mult: 1
  }
  param {
    lr_mult: 2
    decay_mult: 0
  }
  convolution_param {
    num_output: 32
    kernel_size: 1
    weight_filler {
      type: "xavier"
    }
    bias_filler {
      type: "constant"
      value: 0.2
    }
  }
}
layer {
  name: "inception_3b/relu_5x5_reduce"
  type: "ReLU"
  bottom: "inception_3b/5x5_reduce"
  top: "inception_3b/5x5_reduce"
}
layer {
  name: "inception_3b/5x5"
  type: "Convolution"
  bottom: "inception_3b/5x5_reduce"
  top: "inception_3b/5x5"
  param {
    lr_mult: 1
    decay_mult: 1
  }
  param {
    lr_mult: 2
    decay_mult: 0
  }
  convolution_param {
    num_output: 96
    pad: 2
    kernel_size: 5
    weight_filler {
      type: "xavier"
    }
    bias_filler {
      type: "constant"
      value: 0.2
    }
  }
}
layer {
  name: "inception_3b/relu_5x5"
  type: "ReLU"
  bottom: "inception_3b/5x5"
  top: "inception_3b/5x5"
}
layer {
  name: "inception_3b/pool"
  type: "Pooling"
  bottom: "inception_3a/output"
  top: "inception_3b/pool"
  pooling_param {
    pool: MAX
    kernel_size: 3
    stride: 1
    pad: 1
  }
}
layer {
  name: "inception_3b/pool_proj"
  type: "Convolution"
  bottom: "inception_3b/pool"
  top: "inception_3b/pool_proj"
  param {
    lr_mult: 1
    decay_mult: 1
  }
  param {
    lr_mult: 2
    decay_mult: 0
  }
  convolution_param {
    num_output: 64
    kernel_size: 1
    weight_filler {
      type: "xavier"
    }
    bias_filler {
      type: "constant"
      value: 0.2
    }
  }
}
layer {
  name: "inception_3b/relu_pool_proj"
  type: "ReLU"
  bottom: "inception_3b/pool_proj"
  top: "inception_3b/pool_proj"
}
layer {
  name: "inception_3b/output"
  type: "Concat"
  bottom: "inception_3b/1x1"
  bottom: "inception_3b/3x3"
  bottom: "inception_3b/5x5"
  bottom: "inception_3b/pool_proj"
  top: "inception_3b/output"
}
layer {
  name: "pool3/3x3_s2"
  type: "Pooling"
  bottom: "inception_3b/output"
  top: "pool3/3x3_s2"
  pooling_param {
    pool: MAX
    kernel_size: 3
    stride: 2
  }
}
layer {
  name: "inception_4a/1x1"
  type: "Convolution"
  bottom: "pool3/3x3_s2"
  top: "inception_4a/1x1"
  param {
    lr_mult: 1
    decay_mult: 1
  }
  param {
    lr_mult: 2
    decay_mult: 0
  }
  convolution_param {
    num_output: 192
    kernel_size: 1
    weight_filler {
      type: "xavier"
    }
    bias_filler {
      type: "constant"
      value: 0.2
    }
  }
}
layer {
  name: "inception_4a/relu_1x1"
  type: "ReLU"
  bottom: "inception_4a/1x1"
  top: "inception_4a/1x1"
}
layer {
  name: "inception_4a/3x3_reduce"
  type: "Convolution"
  bottom: "pool3/3x3_s2"
  top: "inception_4a/3x3_reduce"
  param {
    lr_mult: 1
    decay_mult: 1
  }
  param {
    lr_mult: 2
    decay_mult: 0
  }
  convolution_param {
    num_output: 96
    kernel_size: 1
    weight_filler {
      type: "xavier"
    }
    bias_filler {
      type: "constant"
      value: 0.2
    }
  }
}
layer {
  name: "inception_4a/relu_3x3_reduce"
  type: "ReLU"
  bottom: "inception_4a/3x3_reduce"
  top: "inception_4a/3x3_reduce"
}
layer {
  name: "inception_4a/3x3"
  type: "Convolution"
  bottom: "inception_4a/3x3_reduce"
  top: "inception_4a/3x3"
  param {
    lr_mult: 1
    decay_mult: 1
  }
  param {
    lr_mult: 2
    decay_mult: 0
  }
  convolution_param {
    num_output: 208
    pad: 1
    kernel_size: 3
    weight_filler {
      type: "xavier"
    }
    bias_filler {
      type: "constant"
      value: 0.2
    }
  }
}
layer {
  name: "inception_4a/relu_3x3"
  type: "ReLU"
  bottom: "inception_4a/3x3"
  top: "inception_4a/3x3"
}
layer {
  name: "inception_4a/5x5_reduce"
  type: "Convolution"
  bottom: "pool3/3x3_s2"
  top: "inception_4a/5x5_reduce"
  param {
    lr_mult: 1
    decay_mult: 1
  }
  param {
    lr_mult: 2
    decay_mult: 0
  }
  convolution_param {
    num_output: 16
    kernel_size: 1
    weight_filler {
      type: "xavier"
    }
    bias_filler {
      type: "constant"
      value: 0.2
    }
  }
}
layer {
  name: "inception_4a/relu_5x5_reduce"
  type: "ReLU"
  bottom: "inception_4a/5x5_reduce"
  top: "inception_4a/5x5_reduce"
}
layer {
  name: "inception_4a/5x5"
  type: "Convolution"
  bottom: "inception_4a/5x5_reduce"
  top: "inception_4a/5x5"
  param {
    lr_mult: 1
    decay_mult: 1
  }
  param {
    lr_mult: 2
    decay_mult: 0
  }
  convolution_param {
    num_output: 48
    pad: 2
    kernel_size: 5
    weight_filler {
      type: "xavier"
    }
    bias_filler {
      type: "constant"
      value: 0.2
    }
  }
}
layer {
  name: "inception_4a/relu_5x5"
  type: "ReLU"
  bottom: "inception_4a/5x5"
  top: "inception_4a/5x5"
}
layer {
  name: "inception_4a/pool"
  type: "Pooling"
  bottom: "pool3/3x3_s2"
  top: "inception_4a/pool"
  pooling_param {
    pool: MAX
    kernel_size: 3
    stride: 1
    pad: 1
  }
}
layer {
  name: "inception_4a/pool_proj"
  type: "Convolution"
  bottom: "inception_4a/pool"
  top: "inception_4a/pool_proj"
  param {
    lr_mult: 1
    decay_mult: 1
  }
  param {
    lr_mult: 2
    decay_mult: 0
  }
  convolution_param {
    num_output: 64
    kernel_size: 1
    weight_filler {
      type: "xavier"
    }
    bias_filler {
      type: "constant"
      value: 0.2
    }
  }
}
layer {
  name: "inception_4a/relu_pool_proj"
  type: "ReLU"
  bottom: "inception_4a/pool_proj"
  top: "inception_4a/pool_proj"
}
layer {
  name: "inception_4a/output"
  type: "Concat"
  bottom: "inception_4a/1x1"
  bottom: "inception_4a/3x3"
  bottom: "inception_4a/5x5"
  bottom: "inception_4a/pool_proj"
  top: "inception_4a/output"
}
layer {
  name: "loss1/ave_pool"
  type: "Pooling"
  bottom: "inception_4a/output"
  top: "loss1/ave_pool"
  pooling_param {
    pool: AVE
    kernel_size: 5
    stride: 3
  }
}
layer {
  name: "loss1/conv"
  type: "Convolution"
  bottom: "loss1/ave_pool"
  top: "loss1/conv"
  param {
    lr_mult: 1
    decay_mult: 1
  }
  param {
    lr_mult: 2
    decay_mult: 0
  }
  convolution_param {
    num_output: 128
    kernel_size: 1
    weight_filler {
      type: "xavier"
    }
    bias_filler {
      type: "constant"
      value: 0.2
    }
  }
}
layer {
  name: "loss1/relu_conv"
  type: "ReLU"
  bottom: "loss1/conv"
  top: "loss1/conv"
}
layer {
  name: "loss1/fc"
  type: "InnerProduct"
  bottom: "loss1/conv"
  top: "loss1/fc"
  param {
    lr_mult: 1
    decay_mult: 1
  }
  param {
    lr_mult: 2
    decay_mult: 0
  }
  inner_product_param {
    num_output: 1024
    weight_filler {
      type: "xavier"
    }
    bias_filler {
      type: "constant"
      value: 0.2
    }
  }
}
layer {
  name: "loss1/relu_fc"
  type: "ReLU"
  bottom: "loss1/fc"
  top: "loss1/fc"
}
layer {
  name: "loss1/drop_fc"
  type: "Dropout"
  bottom: "loss1/fc"
  top: "loss1/fc"
…
I0224 09:45:35.341259  1997 net.cpp:165] Memory required for data: 2190293212
I0224 09:45:35.341269  1997 layer_factory.hpp:77] Creating layer inception_4c/pool
I0224 09:45:35.341284  1997 net.cpp:100] Creating Layer inception_4c/pool
I0224 09:45:35.341295  1997 net.cpp:434] inception_4c/pool <- inception_4b/output_inception_4b/output_0_split_3
I0224 09:45:35.341311  1997 net.cpp:408] inception_4c/pool -> inception_4c/pool
I0224 09:45:35.341330  1997 net.cpp:150] Setting up inception_4c/pool
I0224 09:45:35.341341  1997 net.cpp:157] Top shape: 50 512 14 14 (5017600)
I0224 09:45:35.341351  1997 net.cpp:165] Memory required for data: 2210363612
I0224 09:45:35.341359  1997 layer_factory.hpp:77] Creating layer inception_4c/pool_proj
I0224 09:45:35.341374  1997 net.cpp:100] Creating Layer inception_4c/pool_proj
I0224 09:45:35.341384  1997 net.cpp:434] inception_4c/pool_proj <- inception_4c/pool
I0224 09:45:35.341401  1997 net.cpp:408] inception_4c/pool_proj -> inception_4c/pool_proj
I0224 09:45:35.342013  1997 net.cpp:150] Setting up inception_4c/pool_proj
I0224 09:45:35.342027  1997 net.cpp:157] Top shape: 50 64 14 14 (627200)
I0224 09:45:35.342036  1997 net.cpp:165] Memory required for data: 2212872412
I0224 09:45:35.342049  1997 layer_factory.hpp:77] Creating layer inception_4c/relu_pool_proj
I0224 09:45:35.342066  1997 net.cpp:100] Creating Layer inception_4c/relu_pool_proj
I0224 09:45:35.342075  1997 net.cpp:434] inception_4c/relu_pool_proj <- inception_4c/pool_proj
I0224 09:45:35.342087  1997 net.cpp:395] inception_4c/relu_pool_proj -> inception_4c/pool_proj (in-place)
I0224 09:45:35.342102  1997 net.cpp:150] Setting up inception_4c/relu_pool_proj
I0224 09:45:35.342113  1997 net.cpp:157] Top shape: 50 64 14 14 (627200)
I0224 09:45:35.342121  1997 net.cpp:165] Memory required for data: 2215381212
I0224 09:45:35.342130  1997 layer_factory.hpp:77] Creating layer inception_4c/output
I0224 09:45:35.342142  1997 net.cpp:100] Creating Layer inception_4c/output
I0224 09:45:35.342152  1997 net.cpp:434] inception_4c/output <- inception_4c/1x1
I0224 09:45:35.342164  1997 net.cpp:434] inception_4c/output <- inception_4c/3x3
I0224 09:45:35.342173  1997 net.cpp:434] inception_4c/output <- inception_4c/5x5
I0224 09:45:35.342185  1997 net.cpp:434] inception_4c/output <- inception_4c/pool_proj
I0224 09:45:35.342207  1997 net.cpp:408] inception_4c/output -> inception_4c/output
I0224 09:45:35.342238  1997 net.cpp:150] Setting up inception_4c/output
I0224 09:45:35.342258  1997 net.cpp:157] Top shape: 50 512 14 14 (5017600)
I0224 09:45:35.342267  1997 net.cpp:165] Memory required for data: 2235451612
I0224 09:45:35.342275  1997 layer_factory.hpp:77] Creating layer inception_4c/output_inception_4c/output_0_split
I0224 09:45:35.342288  1997 net.cpp:100] Creating Layer inception_4c/output_inception_4c/output_0_split
I0224 09:45:35.342298  1997 net.cpp:434] inception_4c/output_inception_4c/output_0_split <- inception_4c/output
I0224 09:45:35.342314  1997 net.cpp:408] inception_4c/output_inception_4c/output_0_split -> inception_4c/output_inception_4c/output_0_split_0
I0224 09:45:35.342329  1997 net.cpp:408] inception_4c/output_inception_4c/output_0_split -> inception_4c/output_inception_4c/output_0_split_1
I0224 09:45:35.342344  1997 net.cpp:408] inception_4c/output_inception_4c/output_0_split -> inception_4c/output_inception_4c/output_0_split_2
I0224 09:45:35.342360  1997 net.cpp:408] inception_4c/output_inception_4c/output_0_split -> inception_4c/output_inception_4c/output_0_split_3
I0224 09:45:35.342375  1997 net.cpp:150] Setting up inception_4c/output_inception_4c/output_0_split
I0224 09:45:35.342387  1997 net.cpp:157] Top shape: 50 512 14 14 (5017600)
I0224 09:45:35.342398  1997 net.cpp:157] Top shape: 50 512 14 14 (5017600)
I0224 09:45:35.342409  1997 net.cpp:157] Top shape: 50 512 14 14 (5017600)
I0224 09:45:35.342420  1997 net.cpp:157] Top shape: 50 512 14 14 (5017600)
I0224 09:45:35.342429  1997 net.cpp:165] Memory required for data: 2315733212
I0224 09:45:35.342438  1997 layer_factory.hpp:77] Creating layer inception_4d/1x1
I0224 09:45:35.342459  1997 net.cpp:100] Creating Layer inception_4d/1x1
I0224 09:45:35.342470  1997 net.cpp:434] inception_4d/1x1 <- inception_4c/output_inception_4c/output_0_split_0
I0224 09:45:35.342484  1997 net.cpp:408] inception_4d/1x1 -> inception_4d/1x1
I0224 09:45:35.343559  1997 net.cpp:150] Setting up inception_4d/1x1
I0224 09:45:35.343580  1997 net.cpp:157] Top shape: 50 112 14 14 (1097600)
I0224 09:45:35.343588  1997 net.cpp:165] Memory required for data: 2320123612
I0224 09:45:35.343602  1997 layer_factory.hpp:77] Creating layer inception_4d/relu_1x1
I0224 09:45:35.343618  1997 net.cpp:100] Creating Layer inception_4d/relu_1x1
I0224 09:45:35.343629  1997 net.cpp:434] inception_4d/relu_1x1 <- inception_4d/1x1
I0224 09:45:35.343641  1997 net.cpp:395] inception_4d/relu_1x1 -> inception_4d/1x1 (in-place)
I0224 09:45:35.343655  1997 net.cpp:150] Setting up inception_4d/relu_1x1
I0224 09:45:35.343667  1997 net.cpp:157] Top shape: 50 112 14 14 (1097600)
I0224 09:45:35.343677  1997 net.cpp:165] Memory required for data: 2324514012
I0224 09:45:35.343685  1997 layer_factory.hpp:77] Creating layer inception_4d/3x3_reduce
I0224 09:45:35.343703  1997 net.cpp:100] Creating Layer inception_4d/3x3_reduce
I0224 09:45:35.343714  1997 net.cpp:434] inception_4d/3x3_reduce <- inception_4c/output_inception_4c/output_0_split_1
I0224 09:45:35.343730  1997 net.cpp:408] inception_4d/3x3_reduce -> inception_4d/3x3_reduce
I0224 09:45:35.345088  1997 net.cpp:150] Setting up inception_4d/3x3_reduce
I0224 09:45:35.345108  1997 net.cpp:157] Top shape: 50 144 14 14 (1411200)
I0224 09:45:35.345118  1997 net.cpp:165] Memory required for data: 2330158812
I0224 09:45:35.345131  1997 layer_factory.hpp:77] Creating layer inception_4d/relu_3x3_reduce
I0224 09:45:35.345144  1997 net.cpp:100] Creating Layer inception_4d/relu_3x3_reduce
I0224 09:45:35.345158  1997 net.cpp:434] inception_4d/relu_3x3_reduce <- inception_4d/3x3_reduce
I0224 09:45:35.345171  1997 net.cpp:395] inception_4d/relu_3x3_reduce -> inception_4d/3x3_reduce (in-place)
I0224 09:45:35.345185  1997 net.cpp:150] Setting up inception_4d/relu_3x3_reduce
I0224 09:45:35.345197  1997 net.cpp:157] Top shape: 50 144 14 14 (1411200)
I0224 09:45:35.345206  1997 net.cpp:165] Memory required for data: 2335803612
I0224 09:45:35.345216  1997 layer_factory.hpp:77] Creating layer inception_4d/3x3
I0224 09:45:35.345249  1997 net.cpp:100] Creating Layer inception_4d/3x3
I0224 09:45:35.345273  1997 net.cpp:434] inception_4d/3x3 <- inception_4d/3x3_reduce
I0224 09:45:35.345288  1997 net.cpp:408] inception_4d/3x3 -> inception_4d/3x3
I0224 09:45:35.351958  1997 net.cpp:150] Setting up inception_4d/3x3
I0224 09:45:35.351989  1997 net.cpp:157] Top shape: 50 288 14 14 (2822400)
I0224 09:45:35.351997  1997 net.cpp:165] Memory required for data: 2347093212
I0224 09:45:35.352013  1997 layer_factory.hpp:77] Creating layer inception_4d/relu_3x3
I0224 09:45:35.352027  1997 net.cpp:100] Creating Layer inception_4d/relu_3x3
I0224 09:45:35.352039  1997 net.cpp:434] inception_4d/relu_3x3 <- inception_4d/3x3
I0224 09:45:35.352056  1997 net.cpp:395] inception_4d/relu_3x3 -> inception_4d/3x3 (in-place)
I0224 09:45:35.352072  1997 net.cpp:150] Setting up inception_4d/relu_3x3
I0224 09:45:35.352083  1997 net.cpp:157] Top shape: 50 288 14 14 (2822400)
I0224 09:45:35.352092  1997 net.cpp:165] Memory required for data: 2358382812
I0224 09:45:35.352100  1997 layer_factory.hpp:77] Creating layer inception_4d/5x5_reduce
I0224 09:45:35.352116  1997 net.cpp:100] Creating Layer inception_4d/5x5_reduce
I0224 09:45:35.352126  1997 net.cpp:434] inception_4d/5x5_reduce <- inception_4c/output_inception_4c/output_0_split_2
I0224 09:45:35.352140  1997 net.cpp:408] inception_4d/5x5_reduce -> inception_4d/5x5_reduce
I0224 09:45:35.352454  1997 net.cpp:150] Setting up inception_4d/5x5_reduce
I0224 09:45:35.352468  1997 net.cpp:157] Top shape: 50 32 14 14 (313600)
I0224 09:45:35.352478  1997 net.cpp:165] Memory required for data: 2359637212
I0224 09:45:35.352490  1997 layer_factory.hpp:77] Creating layer inception_4d/relu_5x5_reduce
I0224 09:45:35.352504  1997 net.cpp:100] Creating Layer inception_4d/relu_5x5_reduce
I0224 09:45:35.352515  1997 net.cpp:434] inception_4d/relu_5x5_reduce <- inception_4d/5x5_reduce
I0224 09:45:35.352526  1997 net.cpp:395] inception_4d/relu_5x5_reduce -> inception_4d/5x5_reduce (in-place)
I0224 09:45:35.352540  1997 net.cpp:150] Setting up inception_4d/relu_5x5_reduce
I0224 09:45:35.352551  1997 net.cpp:157] Top shape: 50 32 14 14 (313600)
I0224 09:45:35.352560  1997 net.cpp:165] Memory required for data: 2360891612
I0224 09:45:35.352569  1997 layer_factory.hpp:77] Creating layer inception_4d/5x5
I0224 09:45:35.352586  1997 net.cpp:100] Creating Layer inception_4d/5x5
I0224 09:45:35.352597  1997 net.cpp:434] inception_4d/5x5 <- inception_4d/5x5_reduce
I0224 09:45:35.352613  1997 net.cpp:408] inception_4d/5x5 -> inception_4d/5x5
I0224 09:45:35.353556  1997 net.cpp:150] Setting up inception_4d/5x5
I0224 09:45:35.353572  1997 net.cpp:157] Top shape: 50 64 14 14 (627200)
I0224 09:45:35.353581  1997 net.cpp:165] Memory required for data: 2363400412
I0224 09:45:35.353595  1997 layer_factory.hpp:77] Creating layer inception_4d/relu_5x5
I0224 09:45:35.353610  1997 net.cpp:100] Creating Layer inception_4d/relu_5x5
I0224 09:45:35.353621  1997 net.cpp:434] inception_4d/relu_5x5 <- inception_4d/5x5
I0224 09:45:35.353636  1997 net.cpp:395] inception_4d/relu_5x5 -> inception_4d/5x5 (in-place)
I0224 09:45:35.353649  1997 net.cpp:150] Setting up inception_4d/relu_5x5
I0224 09:45:35.353660  1997 net.cpp:157] Top shape: 50 64 14 14 (627200)
I0224 09:45:35.353668  1997 net.cpp:165] Memory required for data: 2365909212
I0224 09:45:35.353677  1997 layer_factory.hpp:77] Creating layer inception_4d/pool
I0224 09:45:35.353690  1997 net.cpp:100] Creating Layer inception_4d/pool
I0224 09:45:35.353700  1997 net.cpp:434] inception_4d/pool <- inception_4c/output_inception_4c/output_0_split_3
I0224 09:45:35.353713  1997 net.cpp:408] inception_4d/pool -> inception_4d/pool
I0224 09:45:35.353731  1997 net.cpp:150] Setting up inception_4d/pool
I0224 09:45:35.353744  1997 net.cpp:157] Top shape: 50 512 14 14 (5017600)
I0224 09:45:35.353751  1997 net.cpp:165] Memory required for data: 2385979612
I0224 09:45:35.353760  1997 layer_factory.hpp:77] Creating layer inception_4d/pool_proj
I0224 09:45:35.353783  1997 net.cpp:100] Creating Layer inception_4d/pool_proj
I0224 09:45:35.353803  1997 net.cpp:434] inception_4d/pool_proj <- inception_4d/pool
I0224 09:45:35.353829  1997 net.cpp:408] inception_4d/pool_proj -> inception_4d/pool_proj
I0224 09:45:35.354439  1997 net.cpp:150] Setting up inception_4d/pool_proj
I0224 09:45:35.354454  1997 net.cpp:157] Top shape: 50 64 14 14 (627200)
I0224 09:45:35.354463  1997 net.cpp:165] Memory required for data: 2388488412
I0224 09:45:35.354477  1997 layer_factory.hpp:77] Creating layer inception_4d/relu_pool_proj
I0224 09:45:35.354492  1997 net.cpp:100] Creating Layer inception_4d/relu_pool_proj
I0224 09:45:35.354502  1997 net.cpp:434] inception_4d/relu_pool_proj <- inception_4d/pool_proj
I0224 09:45:35.354514  1997 net.cpp:395] inception_4d/relu_pool_proj -> inception_4d/pool_proj (in-place)
I0224 09:45:35.354528  1997 net.cpp:150] Setting up inception_4d/relu_pool_proj
I0224 09:45:35.354540  1997 net.cpp:157] Top shape: 50 64 14 14 (627200)
I0224 09:45:35.354548  1997 net.cpp:165] Memory required for data: 2390997212
I0224 09:45:35.354557  1997 layer_factory.hpp:77] Creating layer inception_4d/output
I0224 09:45:35.354573  1997 net.cpp:100] Creating Layer inception_4d/output
I0224 09:45:35.354584  1997 net.cpp:434] inception_4d/output <- inception_4d/1x1
I0224 09:45:35.354594  1997 net.cpp:434] inception_4d/output <- inception_4d/3x3
I0224 09:45:35.354605  1997 net.cpp:434] inception_4d/output <- inception_4d/5x5
I0224 09:45:35.354616  1997 net.cpp:434] inception_4d/output <- inception_4d/pool_proj
I0224 09:45:35.354629  1997 net.cpp:408] inception_4d/output -> inception_4d/output
I0224 09:45:35.354645  1997 net.cpp:150] Setting up inception_4d/output
I0224 09:45:35.354656  1997 net.cpp:157] Top shape: 50 528 14 14 (5174400)
I0224 09:45:35.354665  1997 net.cpp:165] Memory required for data: 2411694812
I0224 09:45:35.354674  1997 layer_factory.hpp:77] Creating layer inception_4d/output_inception_4d/output_0_split
I0224 09:45:35.354688  1997 net.cpp:100] Creating Layer inception_4d/output_inception_4d/output_0_split
I0224 09:45:35.354698  1997 net.cpp:434] inception_4d/output_inception_4d/output_0_split <- inception_4d/output
I0224 09:45:35.354714  1997 net.cpp:408] inception_4d/output_inception_4d/output_0_split -> inception_4d/output_inception_4d/output_0_split_0
I0224 09:45:35.354729  1997 net.cpp:408] inception_4d/output_inception_4d/output_0_split -> inception_4d/output_inception_4d/output_0_split_1
I0224 09:45:35.354744  1997 net.cpp:408] inception_4d/output_inception_4d/output_0_split -> inception_4d/output_inception_4d/output_0_split_2
I0224 09:45:35.354760  1997 net.cpp:408] inception_4d/output_inception_4d/output_0_split -> inception_4d/output_inception_4d/output_0_split_3
I0224 09:45:35.354774  1997 net.cpp:408] inception_4d/output_inception_4d/output_0_split -> inception_4d/output_inception_4d/output_0_split_4
I0224 09:45:35.354796  1997 net.cpp:150] Setting up inception_4d/output_inception_4d/output_0_split
I0224 09:45:35.354809  1997 net.cpp:157] Top shape: 50 528 14 14 (5174400)
I0224 09:45:35.354820  1997 net.cpp:157] Top shape: 50 528 14 14 (5174400)
I0224 09:45:35.354830  1997 net.cpp:157] Top shape: 50 528 14 14 (5174400)
I0224 09:45:35.354840  1997 net.cpp:157] Top shape: 50 528 14 14 (5174400)
I0224 09:45:35.354851  1997 net.cpp:157] Top shape: 50 528 14 14 (5174400)
I0224 09:45:35.354859  1997 net.cpp:165] Memory required for data: 2515182812
I0224 09:45:35.354868  1997 layer_factory.hpp:77] Creating layer loss2/ave_pool
I0224 09:45:35.354881  1997 net.cpp:100] Creating Layer loss2/ave_pool
I0224 09:45:35.354889  1997 net.cpp:434] loss2/ave_pool <- inception_4d/output_inception_4d/output_0_split_0
I0224 09:45:35.354907  1997 net.cpp:408] loss2/ave_pool -> loss2/ave_pool
I0224 09:45:35.354923  1997 net.cpp:150] Setting up loss2/ave_pool
I0224 09:45:35.354935  1997 net.cpp:157] Top shape: 50 528 4 4 (422400)
I0224 09:45:35.354943  1997 net.cpp:165] Memory required for data: 2516872412
I0224 09:45:35.354953  1997 layer_factory.hpp:77] Creating layer loss2/conv
I0224 09:45:35.354974  1997 net.cpp:100] Creating Layer loss2/conv
I0224 09:45:35.354990  1997 net.cpp:434] loss2/conv <- loss2/ave_pool
I0224 09:45:35.355018  1997 net.cpp:408] loss2/conv -> loss2/conv
I0224 09:45:35.356256  1997 net.cpp:150] Setting up loss2/conv
I0224 09:45:35.356276  1997 net.cpp:157] Top shape: 50 128 4 4 (102400)
I0224 09:45:35.356284  1997 net.cpp:165] Memory required for data: 2517282012
I0224 09:45:35.356298  1997 layer_factory.hpp:77] Creating layer loss2/relu_conv
I0224 09:45:35.356315  1997 net.cpp:100] Creating Layer loss2/relu_conv
I0224 09:45:35.356326  1997 net.cpp:434] loss2/relu_conv <- loss2/conv
I0224 09:45:35.356338  1997 net.cpp:395] loss2/relu_conv -> loss2/conv (in-place)
I0224 09:45:35.356353  1997 net.cpp:150] Setting up loss2/relu_conv
I0224 09:45:35.356364  1997 net.cpp:157] Top shape: 50 128 4 4 (102400)
I0224 09:45:35.356372  1997 net.cpp:165] Memory required for data: 2517691612
I0224 09:45:35.356381  1997 layer_factory.hpp:77] Creating layer loss2/fc
I0224 09:45:35.356398  1997 net.cpp:100] Creating Layer loss2/fc
I0224 09:45:35.356410  1997 net.cpp:434] loss2/fc <- loss2/conv
I0224 09:45:35.356422  1997 net.cpp:408] loss2/fc -> loss2/fc
I0224 09:45:35.392992  1997 net.cpp:150] Setting up loss2/fc
I0224 09:45:35.393066  1997 net.cpp:157] Top shape: 50 1024 (51200)
I0224 09:45:35.393076  1997 net.cpp:165] Memory required for data: 2517896412
I0224 09:45:35.393095  1997 layer_factory.hpp:77] Creating layer loss2/relu_fc
I0224 09:45:35.393115  1997 net.cpp:100] Creating Layer loss2/relu_fc
I0224 09:45:35.393128  1997 net.cpp:434] loss2/relu_fc <- loss2/fc
I0224 09:45:35.393142  1997 net.cpp:395] loss2/relu_fc -> loss2/fc (in-place)
I0224 09:45:35.393159  1997 net.cpp:150] Setting up loss2/relu_fc
I0224 09:45:35.393172  1997 net.cpp:157] Top shape: 50 1024 (51200)
I0224 09:45:35.393179  1997 net.cpp:165] Memory required for data: 2518101212
I0224 09:45:35.393188  1997 layer_factory.hpp:77] Creating layer loss2/drop_fc
I0224 09:45:35.393203  1997 net.cpp:100] Creating Layer loss2/drop_fc
I0224 09:45:35.393211  1997 net.cpp:434] loss2/drop_fc <- loss2/fc
I0224 09:45:35.393226  1997 net.cpp:395] loss2/drop_fc -> loss2/fc (in-place)
I0224 09:45:35.393247  1997 net.cpp:150] Setting up loss2/drop_fc
I0224 09:45:35.393260  1997 net.cpp:157] Top shape: 50 1024 (51200)
I0224 09:45:35.393268  1997 net.cpp:165] Memory required for data: 2518306012
I0224 09:45:35.393276  1997 layer_factory.hpp:77] Creating layer loss2/classifier
I0224 09:45:35.393291  1997 net.cpp:100] Creating Layer loss2/classifier
I0224 09:45:35.393301  1997 net.cpp:434] loss2/classifier <- loss2/fc
I0224 09:45:35.393314  1997 net.cpp:408] loss2/classifier -> loss2/classifier
I0224 09:45:35.411274  1997 net.cpp:150] Setting up loss2/classifier
I0224 09:45:35.411322  1997 net.cpp:157] Top shape: 50 1000 (50000)
I0224 09:45:35.411331  1997 net.cpp:165] Memory required for data: 2518506012
I0224 09:45:35.411350  1997 layer_factory.hpp:77] Creating layer loss2/classifier_loss2/classifier_0_split
I0224 09:45:35.411370  1997 net.cpp:100] Creating Layer loss2/classifier_loss2/classifier_0_split
I0224 09:45:35.411383  1997 net.cpp:434] loss2/classifier_loss2/classifier_0_split <- loss2/classifier
I0224 09:45:35.411397  1997 net.cpp:408] loss2/classifier_loss2/classifier_0_split -> loss2/classifier_loss2/classifier_0_split_0
I0224 09:45:35.411414  1997 net.cpp:408] loss2/classifier_loss2/classifier_0_split -> loss2/classifier_loss2/classifier_0_split_1
I0224 09:45:35.411429  1997 net.cpp:408] loss2/classifier_loss2/classifier_0_split -> loss2/classifier_loss2/classifier_0_split_2
I0224 09:45:35.411448  1997 net.cpp:150] Setting up loss2/classifier_loss2/classifier_0_split
I0224 09:45:35.411458  1997 net.cpp:157] Top shape: 50 1000 (50000)
I0224 09:45:35.411469  1997 net.cpp:157] Top shape: 50 1000 (50000)
I0224 09:45:35.411479  1997 net.cpp:157] Top shape: 50 1000 (50000)
I0224 09:45:35.411487  1997 net.cpp:165] Memory required for data: 2519106012
I0224 09:45:35.411495  1997 layer_factory.hpp:77] Creating layer loss2/loss
I0224 09:45:35.411507  1997 net.cpp:100] Creating Layer loss2/loss
I0224 09:45:35.411538  1997 net.cpp:434] loss2/loss <- loss2/classifier_loss2/classifier_0_split_0
I0224 09:45:35.411568  1997 net.cpp:434] loss2/loss <- label_data_1_split_3
…
I0224 09:45:35.412060  1997 net.cpp:150] Setting up loss2/top-5
I0224 09:45:35.412070  1997 net.cpp:157] Top shape: (1)
I0224 09:45:35.412078  1997 net.cpp:165] Memory required for data: 2519106024
I0224 09:45:35.412087  1997 layer_factory.hpp:77] Creating layer inception_4e/1x1
I0224 09:45:35.412109  1997 net.cpp:100] Creating Layer inception_4e/1x1
I0224 09:45:35.412120  1997 net.cpp:434] inception_4e/1x1 <- inception_4d/output_inception_4d/output_0_split_1
I0224 09:45:35.412138  1997 net.cpp:408] inception_4e/1x1 -> inception_4e/1x1
I0224 09:45:35.414573  1997 net.cpp:150] Setting up inception_4e/1x1
I0224 09:45:35.414604  1997 net.cpp:157] Top shape: 50 256 14 14 (2508800)
I0224 09:45:35.414613  1997 net.cpp:165] Memory required for data: 2529141224
I0224 09:45:35.414628  1997 layer_factory.hpp:77] Creating layer inception_4e/relu_1x1
I0224 09:45:35.414644  1997 net.cpp:100] Creating Layer inception_4e/relu_1x1
I0224 09:45:35.414654  1997 net.cpp:434] inception_4e/relu_1x1 <- inception_4e/1x1
I0224 09:45:35.414669  1997 net.cpp:395] inception_4e/relu_1x1 -> inception_4e/1x1 (in-place)
I0224 09:45:35.414685  1997 net.cpp:150] Setting up inception_4e/relu_1x1
I0224 09:45:35.414696  1997 net.cpp:157] Top shape: 50 256 14 14 (2508800)
I0224 09:45:35.414705  1997 net.cpp:165] Memory required for data: 2539176424
I0224 09:45:35.414713  1997 layer_factory.hpp:77] Creating layer inception_4e/3x3_reduce
I0224 09:45:35.414772  1997 net.cpp:100] Creating Layer inception_4e/3x3_reduce
I0224 09:45:35.414784  1997 net.cpp:434] inception_4e/3x3_reduce <- inception_4d/output_inception_4d/output_0_split_2
I0224 09:45:35.414799  1997 net.cpp:408] inception_4e/3x3_reduce -> inception_4e/3x3_reduce
I0224 09:45:35.416335  1997 net.cpp:150] Setting up inception_4e/3x3_reduce
I0224 09:45:35.416357  1997 net.cpp:157] Top shape: 50 160 14 14 (1568000)
I0224 09:45:35.416365  1997 net.cpp:165] Memory required for data: 2545448424
I0224 09:45:35.416381  1997 layer_factory.hpp:77] Creating layer inception_4e/relu_3x3_reduce
I0224 09:45:35.416394  1997 net.cpp:100] Creating Layer inception_4e/relu_3x3_reduce
I0224 09:45:35.416404  1997 net.cpp:434] inception_4e/relu_3x3_reduce <- inception_4e/3x3_reduce
I0224 09:45:35.416424  1997 net.cpp:395] inception_4e/relu_3x3_reduce -> inception_4e/3x3_reduce (in-place)
I0224 09:45:35.416437  1997 net.cpp:150] Setting up inception_4e/relu_3x3_reduce
I0224 09:45:35.416450  1997 net.cpp:157] Top shape: 50 160 14 14 (1568000)
I0224 09:45:35.416458  1997 net.cpp:165] Memory required for data: 2551720424
I0224 09:45:35.416496  1997 layer_factory.hpp:77] Creating layer inception_4e/3x3
I0224 09:45:35.416512  1997 net.cpp:100] Creating Layer inception_4e/3x3
I0224 09:45:35.416522  1997 net.cpp:434] inception_4e/3x3 <- inception_4e/3x3_reduce
I0224 09:45:35.416534  1997 net.cpp:408] inception_4e/3x3 -> inception_4e/3x3
I0224 09:45:35.424860  1997 net.cpp:150] Setting up inception_4e/3x3
I0224 09:45:35.424891  1997 net.cpp:157] Top shape: 50 320 14 14 (3136000)
I0224 09:45:35.424901  1997 net.cpp:165] Memory required for data: 2564264424
I0224 09:45:35.424916  1997 layer_factory.hpp:77] Creating layer inception_4e/relu_3x3
I0224 09:45:35.424931  1997 net.cpp:100] Creating Layer inception_4e/relu_3x3
I0224 09:45:35.424942  1997 net.cpp:434] inception_4e/relu_3x3 <- inception_4e/3x3
I0224 09:45:35.424954  1997 net.cpp:395] inception_4e/relu_3x3 -> inception_4e/3x3 (in-place)
I0224 09:45:35.424969  1997 net.cpp:150] Setting up inception_4e/relu_3x3
I0224 09:45:35.424981  1997 net.cpp:157] Top shape: 50 320 14 14 (3136000)
I0224 09:45:35.424989  1997 net.cpp:165] Memory required for data: 2576808424
I0224 09:45:35.424998  1997 layer_factory.hpp:77] Creating layer inception_4e/5x5_reduce
I0224 09:45:35.425019  1997 net.cpp:100] Creating Layer inception_4e/5x5_reduce
I0224 09:45:35.425029  1997 net.cpp:434] inception_4e/5x5_reduce <- inception_4d/output_inception_4d/output_0_split_3
I0224 09:45:35.425042  1997 net.cpp:408] inception_4e/5x5_reduce -> inception_4e/5x5_reduce
I0224 09:45:35.425369  1997 net.cpp:150] Setting up inception_4e/5x5_reduce
I0224 09:45:35.425384  1997 net.cpp:157] Top shape: 50 32 14 14 (313600)
I0224 09:45:35.425393  1997 net.cpp:165] Memory required for data: 2578062824
I0224 09:45:35.425406  1997 layer_factory.hpp:77] Creating layer inception_4e/relu_5x5_reduce
I0224 09:45:35.425421  1997 net.cpp:100] Creating Layer inception_4e/relu_5x5_reduce
I0224 09:45:35.425431  1997 net.cpp:434] inception_4e/relu_5x5_reduce <- inception_4e/5x5_reduce
I0224 09:45:35.425442  1997 net.cpp:395] inception_4e/relu_5x5_reduce -> inception_4e/5x5_reduce (in-place)
I0224 09:45:35.425457  1997 net.cpp:150] Setting up inception_4e/relu_5x5_reduce
I0224 09:45:35.425467  1997 net.cpp:157] Top shape: 50 32 14 14 (313600)
I0224 09:45:35.425477  1997 net.cpp:165] Memory required for data: 2579317224
I0224 09:45:35.425485  1997 layer_factory.hpp:77] Creating layer inception_4e/5x5
I0224 09:45:35.425503  1997 net.cpp:100] Creating Layer inception_4e/5x5
I0224 09:45:35.425513  1997 net.cpp:434] inception_4e/5x5 <- inception_4e/5x5_reduce
I0224 09:45:35.425529  1997 net.cpp:408] inception_4e/5x5 -> inception_4e/5x5
I0224 09:45:35.427389  1997 net.cpp:150] Setting up inception_4e/5x5
I0224 09:45:35.427414  1997 net.cpp:157] Top shape: 50 128 14 14 (1254400)
I0224 09:45:35.427423  1997 net.cpp:165] Memory required for data: 2584334824
I0224 09:45:35.427438  1997 layer_factory.hpp:77] Creating layer inception_4e/relu_5x5
I0224 09:45:35.427454  1997 net.cpp:100] Creating Layer inception_4e/relu_5x5
I0224 09:45:35.427465  1997 net.cpp:434] inception_4e/relu_5x5 <- inception_4e/5x5
I0224 09:45:35.427481  1997 net.cpp:395] inception_4e/relu_5x5 -> inception_4e/5x5 (in-place)
I0224 09:45:35.427496  1997 net.cpp:150] Setting up inception_4e/relu_5x5
I0224 09:45:35.427508  1997 net.cpp:157] Top shape: 50 128 14 14 (1254400)
I0224 09:45:35.427517  1997 net.cpp:165] Memory required for data: 2589352424
I0224 09:45:35.427526  1997 layer_factory.hpp:77] Creating layer inception_4e/pool
I0224 09:45:35.427539  1997 net.cpp:100] Creating Layer inception_4e/pool
I0224 09:45:35.427549  1997 net.cpp:434] inception_4e/pool <- inception_4d/output_inception_4d/output_0_split_4
I0224 09:45:35.427561  1997 net.cpp:408] inception_4e/pool -> inception_4e/pool
I0224 09:45:35.427582  1997 net.cpp:150] Setting up inception_4e/pool
I0224 09:45:35.427593  1997 net.cpp:157] Top shape: 50 528 14 14 (5174400)
I0224 09:45:35.427603  1997 net.cpp:165] Memory required for data: 2610050024
I0224 09:45:35.427610  1997 layer_factory.hpp:77] Creating layer inception_4e/pool_proj
I0224 09:45:35.427655  1997 net.cpp:100] Creating Layer inception_4e/pool_proj
I0224 09:45:35.427666  1997 net.cpp:434] inception_4e/pool_proj <- inception_4e/pool
I0224 09:45:35.427680  1997 net.cpp:408] inception_4e/pool_proj -> inception_4e/pool_proj
I0224 09:45:35.428918  1997 net.cpp:150] Setting up inception_4e/pool_proj
I0224 09:45:35.428936  1997 net.cpp:157] Top shape: 50 128 14 14 (1254400)
I0224 09:45:35.428946  1997 net.cpp:165] Memory required for data: 2615067624
I0224 09:45:35.428961  1997 layer_factory.hpp:77] Creating layer inception_4e/relu_pool_proj
I0224 09:45:35.428977  1997 net.cpp:100] Creating Layer inception_4e/relu_pool_proj
I0224 09:45:35.428987  1997 net.cpp:434] inception_4e/relu_pool_proj <- inception_4e/pool_proj
I0224 09:45:35.428998  1997 net.cpp:395] inception_4e/relu_pool_proj -> inception_4e/pool_proj (in-place)
I0224 09:45:35.429013  1997 net.cpp:150] Setting up inception_4e/relu_pool_proj
I0224 09:45:35.429024  1997 net.cpp:157] Top shape: 50 128 14 14 (1254400)
I0224 09:45:35.429033  1997 net.cpp:165] Memory required for data: 2620085224
I0224 09:45:35.429041  1997 layer_factory.hpp:77] Creating layer inception_4e/output
I0224 09:45:35.429057  1997 net.cpp:100] Creating Layer inception_4e/output
I0224 09:45:35.429067  1997 net.cpp:434] inception_4e/output <- inception_4e/1x1
I0224 09:45:35.429078  1997 net.cpp:434] inception_4e/output <- inception_4e/3x3
I0224 09:45:35.429090  1997 net.cpp:434] inception_4e/output <- inception_4e/5x5
I0224 09:45:35.429100  1997 net.cpp:434] inception_4e/output <- inception_4e/pool_proj
I0224 09:45:35.429112  1997 net.cpp:408] inception_4e/output -> inception_4e/output
I0224 09:45:35.429129  1997 net.cpp:150] Setting up inception_4e/output
I0224 09:45:35.429141  1997 net.cpp:157] Top shape: 50 832 14 14 (8153600)
I0224 09:45:35.429149  1997 net.cpp:165] Memory required for data: 2652699624
I0224 09:45:35.429158  1997 layer_factory.hpp:77] Creating layer pool4/3x3_s2
I0224 09:45:35.429169  1997 net.cpp:100] Creating Layer pool4/3x3_s2
I0224 09:45:35.429178  1997 net.cpp:434] pool4/3x3_s2 <- inception_4e/output
I0224 09:45:35.429194  1997 net.cpp:408] pool4/3x3_s2 -> pool4/3x3_s2
I0224 09:45:35.429214  1997 net.cpp:150] Setting up pool4/3x3_s2
I0224 09:45:35.429225  1997 net.cpp:157] Top shape: 50 832 7 7 (2038400)
I0224 09:45:35.429234  1997 net.cpp:165] Memory required for data: 2660853224
I0224 09:45:35.429247  1997 layer_factory.hpp:77] Creating layer pool4/3x3_s2_pool4/3x3_s2_0_split
I0224 09:45:35.429261  1997 net.cpp:100] Creating Layer pool4/3x3_s2_pool4/3x3_s2_0_split
I0224 09:45:35.429271  1997 net.cpp:434] pool4/3x3_s2_pool4/3x3_s2_0_split <- pool4/3x3_s2
I0224 09:45:35.429283  1997 net.cpp:408] pool4/3x3_s2_pool4/3x3_s2_0_split -> pool4/3x3_s2_pool4/3x3_s2_0_split_0
I0224 09:45:35.429297  1997 net.cpp:408] pool4/3x3_s2_pool4/3x3_s2_0_split -> pool4/3x3_s2_pool4/3x3_s2_0_split_1
I0224 09:45:35.429311  1997 net.cpp:408] pool4/3x3_s2_pool4/3x3_s2_0_split -> pool4/3x3_s2_pool4/3x3_s2_0_split_2
I0224 09:45:35.429357  1997 net.cpp:408] pool4/3x3_s2_pool4/3x3_s2_0_split -> pool4/3x3_s2_pool4/3x3_s2_0_split_3
I0224 09:45:35.429375  1997 net.cpp:150] Setting up pool4/3x3_s2_pool4/3x3_s2_0_split
I0224 09:45:35.429388  1997 net.cpp:157] Top shape: 50 832 7 7 (2038400)
I0224 09:45:35.429399  1997 net.cpp:157] Top shape: 50 832 7 7 (2038400)
I0224 09:45:35.429412  1997 net.cpp:157] Top shape: 50 832 7 7 (2038400)
I0224 09:45:35.429425  1997 net.cpp:157] Top shape: 50 832 7 7 (2038400)
I0224 09:45:35.429433  1997 net.cpp:165] Memory required for data: 2693467624
I0224 09:45:35.429442  1997 layer_factory.hpp:77] Creating layer inception_5a/1x1
I0224 09:45:35.429457  1997 net.cpp:100] Creating Layer inception_5a/1x1
I0224 09:45:35.429467  1997 net.cpp:434] inception_5a/1x1 <- pool4/3x3_s2_pool4/3x3_s2_0_split_0
I0224 09:45:35.429481  1997 net.cpp:408] inception_5a/1x1 -> inception_5a/1x1
I0224 09:45:35.433084  1997 net.cpp:150] Setting up inception_5a/1x1
I0224 09:45:35.433112  1997 net.cpp:157] Top shape: 50 256 7 7 (627200)
I0224 09:45:35.433131  1997 net.cpp:165] Memory required for data: 2695976424
I0224 09:45:35.433158  1997 layer_factory.hpp:77] Creating layer inception_5a/relu_1x1
I0224 09:45:35.433177  1997 net.cpp:100] Creating Layer inception_5a/relu_1x1
I0224 09:45:35.433189  1997 net.cpp:434] inception_5a/relu_1x1 <- inception_5a/1x1
I0224 09:45:35.433202  1997 net.cpp:395] inception_5a/relu_1x1 -> inception_5a/1x1 (in-place)
I0224 09:45:35.433217  1997 net.cpp:150] Setting up inception_5a/relu_1x1
I0224 09:45:35.433228  1997 net.cpp:157] Top shape: 50 256 7 7 (627200)
I0224 09:45:35.433236  1997 net.cpp:165] Memory required for data: 2698485224
I0224 09:45:35.433251  1997 layer_factory.hpp:77] Creating layer inception_5a/3x3_reduce
I0224 09:45:35.433267  1997 net.cpp:100] Creating Layer inception_5a/3x3_reduce
I0224 09:45:35.433279  1997 net.cpp:434] inception_5a/3x3_reduce <- pool4/3x3_s2_pool4/3x3_s2_0_split_1
I0224 09:45:35.433295  1997 net.cpp:408] inception_5a/3x3_reduce -> inception_5a/3x3_reduce
I0224 09:45:35.435669  1997 net.cpp:150] Setting up inception_5a/3x3_reduce
I0224 09:45:35.435698  1997 net.cpp:157] Top shape: 50 160 7 7 (392000)
I0224 09:45:35.435706  1997 net.cpp:165] Memory required for data: 2700053224
I0224 09:45:35.435721  1997 layer_factory.hpp:77] Creating layer inception_5a/relu_3x3_reduce
I0224 09:45:35.435736  1997 net.cpp:100] Creating Layer inception_5a/relu_3x3_reduce
I0224 09:45:35.435747  1997 net.cpp:434] inception_5a/relu_3x3_reduce <- inception_5a/3x3_reduce
I0224 09:45:35.435760  1997 net.cpp:395] inception_5a/relu_3x3_reduce -> inception_5a/3x3_reduce (in-place)
I0224 09:45:35.435775  1997 net.cpp:150] Setting up inception_5a/relu_3x3_reduce
I0224 09:45:35.435786  1997 net.cpp:157] Top shape: 50 160 7 7 (392000)
I0224 09:45:35.435794  1997 net.cpp:165] Memory required for data: 2701621224
I0224 09:45:35.435803  1997 layer_factory.hpp:77] Creating layer inception_5a/3x3
I0224 09:45:35.435822  1997 net.cpp:100] Creating Layer inception_5a/3x3
I0224 09:45:35.435832  1997 net.cpp:434] inception_5a/3x3 <- inception_5a/3x3_reduce
I0224 09:45:35.435847  1997 net.cpp:408] inception_5a/3x3 -> inception_5a/3x3
I0224 09:45:35.444095  1997 net.cpp:150] Setting up inception_5a/3x3
I0224 09:45:35.444128  1997 net.cpp:157] Top shape: 50 320 7 7 (784000)
I0224 09:45:35.444136  1997 net.cpp:165] Memory required for data: 2704757224
I0224 09:45:35.444151  1997 layer_factory.hpp:77] Creating layer inception_5a/relu_3x3
I0224 09:45:35.444166  1997 net.cpp:100] Creating Layer inception_5a/relu_3x3
I0224 09:45:35.444176  1997 net.cpp:434] inception_5a/relu_3x3 <- inception_5a/3x3
I0224 09:45:35.444190  1997 net.cpp:395] inception_5a/relu_3x3 -> inception_5a/3x3 (in-place)
I0224 09:45:35.444205  1997 net.cpp:150] Setting up inception_5a/relu_3x3
I0224 09:45:35.444216  1997 net.cpp:157] Top shape: 50 320 7 7 (784000)
I0224 09:45:35.444224  1997 net.cpp:165] Memory required for data: 2707893224
I0224 09:45:35.444233  1997 layer_factory.hpp:77] Creating layer inception_5a/5x5_reduce
I0224 09:45:35.444258  1997 net.cpp:100] Creating Layer inception_5a/5x5_reduce
I0224 09:45:35.444272  1997 net.cpp:434] inception_5a/5x5_reduce <- pool4/3x3_s2_pool4/3x3_s2_0_split_2
I0224 09:45:35.444284  1997 net.cpp:408] inception_5a/5x5_reduce -> inception_5a/5x5_reduce
I0224 09:45:35.444775  1997 net.cpp:150] Setting up inception_5a/5x5_reduce
I0224 09:45:35.444789  1997 net.cpp:157] Top shape: 50 32 7 7 (78400)
I0224 09:45:35.444797  1997 net.cpp:165] Memory required for data: 2708206824
I0224 09:45:35.444810  1997 layer_factory.hpp:77] Creating layer inception_5a/relu_5x5_reduce
I0224 09:45:35.444823  1997 net.cpp:100] Creating Layer inception_5a/relu_5x5_reduce
I0224 09:45:35.444831  1997 net.cpp:434] inception_5a/relu_5x5_reduce <- inception_5a/5x5_reduce
I0224 09:45:35.444844  1997 net.cpp:395] inception_5a/relu_5x5_reduce -> inception_5a/5x5_reduce (in-place)
I0224 09:45:35.444856  1997 net.cpp:150] Setting up inception_5a/relu_5x5_reduce
I0224 09:45:35.444867  1997 net.cpp:157] Top shape: 50 32 7 7 (78400)
I0224 09:45:35.444887  1997 net.cpp:165] Memory required for data: 2708520424
I0224 09:45:35.444908  1997 layer_factory.hpp:77] Creating layer inception_5a/5x5
I0224 09:45:35.444926  1997 net.cpp:100] Creating Layer inception_5a/5x5
I0224 09:45:35.444937  1997 net.cpp:434] inception_5a/5x5 <- inception_5a/5x5_reduce
I0224 09:45:35.444953  1997 net.cpp:408] inception_5a/5x5 -> inception_5a/5x5
I0224 09:45:35.446791  1997 net.cpp:150] Setting up inception_5a/5x5
I0224 09:45:35.446817  1997 net.cpp:157] Top shape: 50 128 7 7 (313600)
I0224 09:45:35.446826  1997 net.cpp:165] Memory required for data: 2709774824
I0224 09:45:35.446841  1997 layer_factory.hpp:77] Creating layer inception_5a/relu_5x5
I0224 09:45:35.446853  1997 net.cpp:100] Creating Layer inception_5a/relu_5x5
I0224 09:45:35.446864  1997 net.cpp:434] inception_5a/relu_5x5 <- inception_5a/5x5
I0224 09:45:35.446883  1997 net.cpp:395] inception_5a/relu_5x5 -> inception_5a/5x5 (in-place)
I0224 09:45:35.446898  1997 net.cpp:150] Setting up inception_5a/relu_5x5
I0224 09:45:35.446910  1997 net.cpp:157] Top shape: 50 128 7 7 (313600)
I0224 09:45:35.446919  1997 net.cpp:165] Memory required for data: 2711029224
I0224 09:45:35.446928  1997 layer_factory.hpp:77] Creating layer inception_5a/pool
I0224 09:45:35.446941  1997 net.cpp:100] Creating Layer inception_5a/pool
I0224 09:45:35.446952  1997 net.cpp:434] inception_5a/pool <- pool4/3x3_s2_pool4/3x3_s2_0_split_3
I0224 09:45:35.446969  1997 net.cpp:408] inception_5a/pool -> inception_5a/pool
I0224 09:45:35.446988  1997 net.cpp:150] Setting up inception_5a/pool
I0224 09:45:35.447000  1997 net.cpp:157] Top shape: 50 832 7 7 (2038400)
I0224 09:45:35.447010  1997 net.cpp:165] Memory required for data: 2719182824
I0224 09:45:35.447017  1997 layer_factory.hpp:77] Creating layer inception_5a/pool_proj
I0224 09:45:35.447036  1997 net.cpp:100] Creating Layer inception_5a/pool_proj
I0224 09:45:35.447046  1997 net.cpp:434] inception_5a/pool_proj <- inception_5a/pool
I0224 09:45:35.447062  1997 net.cpp:408] inception_5a/pool_proj -> inception_5a/pool_proj
I0224 09:45:35.448880  1997 net.cpp:150] Setting up inception_5a/pool_proj
I0224 09:45:35.448905  1997 net.cpp:157] Top shape: 50 128 7 7 (313600)
I0224 09:45:35.448915  1997 net.cpp:165] Memory required for data: 2720437224
I0224 09:45:35.448930  1997 layer_factory.hpp:77] Creating layer inception_5a/relu_pool_proj
I0224 09:45:35.448947  1997 net.cpp:100] Creating Layer inception_5a/relu_pool_proj
I0224 09:45:35.448959  1997 net.cpp:434] inception_5a/relu_pool_proj <- inception_5a/pool_proj
I0224 09:45:35.448972  1997 net.cpp:395] inception_5a/relu_pool_proj -> inception_5a/pool_proj (in-place)
I0224 09:45:35.448987  1997 net.cpp:150] Setting up inception_5a/relu_pool_proj
I0224 09:45:35.448998  1997 net.cpp:157] Top shape: 50 128 7 7 (313600)
I0224 09:45:35.449007  1997 net.cpp:165] Memory required for data: 2721691624
I0224 09:45:35.449015  1997 layer_factory.hpp:77] Creating layer inception_5a/output
I0224 09:45:35.449028  1997 net.cpp:100] Creating Layer inception_5a/output
I0224 09:45:35.449038  1997 net.cpp:434] inception_5a/output <- inception_5a/1x1
I0224 09:45:35.449049  1997 net.cpp:434] inception_5a/output <- inception_5a/3x3
I0224 09:45:35.449059  1997 net.cpp:434] inception_5a/output <- inception_5a/5x5
I0224 09:45:35.449070  1997 net.cpp:434] inception_5a/output <- inception_5a/pool_proj
I0224 09:45:35.449085  1997 net.cpp:408] inception_5a/output -> inception_5a/output
I0224 09:45:35.449103  1997 net.cpp:150] Setting up inception_5a/output
I0224 09:45:35.449115  1997 net.cpp:157] Top shape: 50 832 7 7 (2038400)
I0224 09:45:35.449123  1997 net.cpp:165] Memory required for data: 2729845224
I0224 09:45:35.449132  1997 layer_factory.hpp:77] Creating layer inception_5a/output_inception_5a/output_0_split
I0224 09:45:35.449144  1997 net.cpp:100] Creating Layer inception_5a/output_inception_5a/output_0_split
I0224 09:45:35.449153  1997 net.cpp:434] inception_5a/output_inception_5a/output_0_split <- inception_5a/output
I0224 09:45:35.449169  1997 net.cpp:408] inception_5a/output_inception_5a/output_0_split -> inception_5a/output_inception_5a/output_0_split_0
I0224 09:45:35.449205  1997 net.cpp:408] inception_5a/output_inception_5a/output_0_split -> inception_5a/output_inception_5a/output_0_split_1
I0224 09:45:35.449220  1997 net.cpp:408] inception_5a/output_inception_5a/output_0_split -> inception_5a/output_inception_5a/output_0_split_2
I0224 09:45:35.449235  1997 net.cpp:408] inception_5a/output_inception_5a/output_0_split -> inception_5a/output_inception_5a/output_0_split_3
I0224 09:45:35.449257  1997 net.cpp:150] Setting up inception_5a/output_inception_5a/output_0_split
I0224 09:45:35.449270  1997 net.cpp:157] Top shape: 50 832 7 7 (2038400)
I0224 09:45:35.449281  1997 net.cpp:157] Top shape: 50 832 7 7 (2038400)
I0224 09:45:35.449291  1997 net.cpp:157] Top shape: 50 832 7 7 (2038400)
I0224 09:45:35.449302  1997 net.cpp:157] Top shape: 50 832 7 7 (2038400)
I0224 09:45:35.449311  1997 net.cpp:165] Memory required for data: 2762459624
I0224 09:45:35.449319  1997 layer_factory.hpp:77] Creating layer inception_5b/1x1
I0224 09:45:35.449337  1997 net.cpp:100] Creating Layer inception_5b/1x1
I0224 09:45:35.449347  1997 net.cpp:434] inception_5b/1x1 <- inception_5a/output_inception_5a/output_0_split_0
I0224 09:45:35.449362  1997 net.cpp:408] inception_5b/1x1 -> inception_5b/1x1
I0224 09:45:35.454979  1997 net.cpp:150] Setting up inception_5b/1x1
I0224 09:45:35.455008  1997 net.cpp:157] Top shape: 50 384 7 7 (940800)
I0224 09:45:35.455018  1997 net.cpp:165] Memory required for data: 2766222824
I0224 09:45:35.455031  1997 layer_factory.hpp:77] Creating layer inception_5b/relu_1x1
I0224 09:45:35.455045  1997 net.cpp:100] Creating Layer inception_5b/relu_1x1
I0224 09:45:35.455056  1997 net.cpp:434] inception_5b/relu_1x1 <- inception_5b/1x1
I0224 09:45:35.455068  1997 net.cpp:395] inception_5b/relu_1x1 -> inception_5b/1x1 (in-place)
I0224 09:45:35.455082  1997 net.cpp:150] Setting up inception_5b/relu_1x1
I0224 09:45:35.455094  1997 net.cpp:157] Top shape: 50 384 7 7 (940800)
I0224 09:45:35.455102  1997 net.cpp:165] Memory required for data: 2769986024
I0224 09:45:35.455111  1997 layer_factory.hpp:77] Creating layer inception_5b/3x3_reduce
I0224 09:45:35.455127  1997 net.cpp:100] Creating Layer inception_5b/3x3_reduce
I0224 09:45:35.455137  1997 net.cpp:434] inception_5b/3x3_reduce <- inception_5a/output_inception_5a/output_0_split_1
I0224 09:45:35.455152  1997 net.cpp:408] inception_5b/3x3_reduce -> inception_5b/3x3_reduce
I0224 09:45:35.457976  1997 net.cpp:150] Setting up inception_5b/3x3_reduce
I0224 09:45:35.458005  1997 net.cpp:157] Top shape: 50 192 7 7 (470400)
I0224 09:45:35.458014  1997 net.cpp:165] Memory required for data: 2771867624
I0224 09:45:35.458029  1997 layer_factory.hpp:77] Creating layer inception_5b/relu_3x3_reduce
I0224 09:45:35.458043  1997 net.cpp:100] Creating Layer inception_5b/relu_3x3_reduce
I0224 09:45:35.458055  1997 net.cpp:434] inception_5b/relu_3x3_reduce <- inception_5b/3x3_reduce
I0224 09:45:35.458067  1997 net.cpp:395] inception_5b/relu_3x3_reduce -> inception_5b/3x3_reduce (in-place)
I0224 09:45:35.458081  1997 net.cpp:150] Setting up inception_5b/relu_3x3_reduce
I0224 09:45:35.458093  1997 net.cpp:157] Top shape: 50 192 7 7 (470400)
I0224 09:45:35.458101  1997 net.cpp:165] Memory required for data: 2773749224
I0224 09:45:35.458111  1997 layer_factory.hpp:77] Creating layer inception_5b/3x3
I0224 09:45:35.458129  1997 net.cpp:100] Creating Layer inception_5b/3x3
I0224 09:45:35.458139  1997 net.cpp:434] inception_5b/3x3 <- inception_5b/3x3_reduce
I0224 09:45:35.458153  1997 net.cpp:408] inception_5b/3x3 -> inception_5b/3x3
I0224 09:45:35.470099  1997 net.cpp:150] Setting up inception_5b/3x3
I0224 09:45:35.470134  1997 net.cpp:157] Top shape: 50 384 7 7 (940800)
I0224 09:45:35.470142  1997 net.cpp:165] Memory required for data: 2777512424
I0224 09:45:35.470158  1997 layer_factory.hpp:77] Creating layer inception_5b/relu_3x3
I0224 09:45:35.470173  1997 net.cpp:100] Creating Layer inception_5b/relu_3x3
I0224 09:45:35.470185  1997 net.cpp:434] inception_5b/relu_3x3 <- inception_5b/3x3
I0224 09:45:35.470216  1997 net.cpp:395] inception_5b/relu_3x3 -> inception_5b/3x3 (in-place)
I0224 09:45:35.470250  1997 net.cpp:150] Setting up inception_5b/relu_3x3
I0224 09:45:35.470264  1997 net.cpp:157] Top shape: 50 384 7 7 (940800)
I0224 09:45:35.470273  1997 net.cpp:165] Memory required for data: 2781275624
I0224 09:45:35.470281  1997 layer_factory.hpp:77] Creating layer inception_5b/5x5_reduce
I0224 09:45:35.470299  1997 net.cpp:100] Creating Layer inception_5b/5x5_reduce
I0224 09:45:35.470309  1997 net.cpp:434] inception_5b/5x5_reduce <- inception_5a/output_inception_5a/output_0_split_2
I0224 09:45:35.470322  1997 net.cpp:408] inception_5b/5x5_reduce -> inception_5b/5x5_reduce
I0224 09:45:35.471050  1997 net.cpp:150] Setting up inception_5b/5x5_reduce
I0224 09:45:35.471065  1997 net.cpp:157] Top shape: 50 48 7 7 (117600)
I0224 09:45:35.471073  1997 net.cpp:165] Memory required for data: 2781746024
I0224 09:45:35.471086  1997 layer_factory.hpp:77] Creating layer inception_5b/relu_5x5_reduce
I0224 09:45:35.471098  1997 net.cpp:100] Creating Layer inception_5b/relu_5x5_reduce
I0224 09:45:35.471107  1997 net.cpp:434] inception_5b/relu_5x5_reduce <- inception_5b/5x5_reduce
I0224 09:45:35.471122  1997 net.cpp:395] inception_5b/relu_5x5_reduce -> inception_5b/5x5_reduce (in-place)
I0224 09:45:35.471137  1997 net.cpp:150] Setting up inception_5b/relu_5x5_reduce
I0224 09:45:35.471148  1997 net.cpp:157] Top shape: 50 48 7 7 (117600)
I0224 09:45:35.471156  1997 net.cpp:165] Memory required for data: 2782216424
I0224 09:45:35.471165  1997 layer_factory.hpp:77] Creating layer inception_5b/5x5
I0224 09:45:35.471182  1997 net.cpp:100] Creating Layer inception_5b/5x5
I0224 09:45:35.471194  1997 net.cpp:434] inception_5b/5x5 <- inception_5b/5x5_reduce
I0224 09:45:35.471206  1997 net.cpp:408] inception_5b/5x5 -> inception_5b/5x5
I0224 09:45:35.473925  1997 net.cpp:150] Setting up inception_5b/5x5
I0224 09:45:35.473953  1997 net.cpp:157] Top shape: 50 128 7 7 (313600)
I0224 09:45:35.473963  1997 net.cpp:165] Memory required for data: 2783470824
I0224 09:45:35.473978  1997 layer_factory.hpp:77] Creating layer inception_5b/relu_5x5
I0224 09:45:35.473990  1997 net.cpp:100] Creating Layer inception_5b/relu_5x5
I0224 09:45:35.474001  1997 net.cpp:434] inception_5b/relu_5x5 <- inception_5b/5x5
I0224 09:45:35.474017  1997 net.cpp:395] inception_5b/relu_5x5 -> inception_5b/5x5 (in-place)
I0224 09:45:35.474032  1997 net.cpp:150] Setting up inception_5b/relu_5x5
I0224 09:45:35.474045  1997 net.cpp:157] Top shape: 50 128 7 7 (313600)
I0224 09:45:35.474052  1997 net.cpp:165] Memory required for data: 2784725224
I0224 09:45:35.474061  1997 layer_factory.hpp:77] Creating layer inception_5b/pool
I0224 09:45:35.474077  1997 net.cpp:100] Creating Layer inception_5b/pool
I0224 09:45:35.474087  1997 net.cpp:434] inception_5b/pool <- inception_5a/output_inception_5a/output_0_split_3
I0224 09:45:35.474100  1997 net.cpp:408] inception_5b/pool -> inception_5b/pool
I0224 09:45:35.474119  1997 net.cpp:150] Setting up inception_5b/pool
I0224 09:45:35.474131  1997 net.cpp:157] Top shape: 50 832 7 7 (2038400)
I0224 09:45:35.474139  1997 net.cpp:165] Memory required for data: 2792878824
I0224 09:45:35.474148  1997 layer_factory.hpp:77] Creating layer inception_5b/pool_proj
I0224 09:45:35.474166  1997 net.cpp:100] Creating Layer inception_5b/pool_proj
I0224 09:45:35.474176  1997 net.cpp:434] inception_5b/pool_proj <- inception_5b/pool
I0224 09:45:35.474192  1997 net.cpp:408] inception_5b/pool_proj -> inception_5b/pool_proj
I0224 09:45:35.476022  1997 net.cpp:150] Setting up inception_5b/pool_proj
I0224 09:45:35.476047  1997 net.cpp:157] Top shape: 50 128 7 7 (313600)
I0224 09:45:35.476056  1997 net.cpp:165] Memory required for data: 2794133224
I0224 09:45:35.476071  1997 layer_factory.hpp:77] Creating layer inception_5b/relu_pool_proj
I0224 09:45:35.476084  1997 net.cpp:100] Creating Layer inception_5b/relu_pool_proj
I0224 09:45:35.476095  1997 net.cpp:434] inception_5b/relu_pool_proj <- inception_5b/pool_proj
I0224 09:45:35.476107  1997 net.cpp:395] inception_5b/relu_pool_proj -> inception_5b/pool_proj (in-place)
I0224 09:45:35.476150  1997 net.cpp:150] Setting up inception_5b/relu_pool_proj
I0224 09:45:35.476162  1997 net.cpp:157] Top shape: 50 128 7 7 (313600)
I0224 09:45:35.476171  1997 net.cpp:165] Memory required for data: 2795387624
I0224 09:45:35.476181  1997 layer_factory.hpp:77] Creating layer inception_5b/output
I0224 09:45:35.476196  1997 net.cpp:100] Creating Layer inception_5b/output
I0224 09:45:35.476205  1997 net.cpp:434] inception_5b/output <- inception_5b/1x1
I0224 09:45:35.476217  1997 net.cpp:434] inception_5b/output <- inception_5b/3x3
I0224 09:45:35.476227  1997 net.cpp:434] inception_5b/output <- inception_5b/5x5
I0224 09:45:35.476238  1997 net.cpp:434] inception_5b/output <- inception_5b/pool_proj
I0224 09:45:35.476258  1997 net.cpp:408] inception_5b/output -> inception_5b/output
I0224 09:45:35.476274  1997 net.cpp:150] Setting up inception_5b/output
I0224 09:45:35.476286  1997 net.cpp:157] Top shape: 50 1024 7 7 (2508800)
I0224 09:45:35.476294  1997 net.cpp:165] Memory required for data: 2805422824
I0224 09:45:35.476303  1997 layer_factory.hpp:77] Creating layer pool5/7x7_s1
I0224 09:45:35.476318  1997 net.cpp:100] Creating Layer pool5/7x7_s1
I0224 09:45:35.476328  1997 net.cpp:434] pool5/7x7_s1 <- inception_5b/output
I0224 09:45:35.476341  1997 net.cpp:408] pool5/7x7_s1 -> pool5/7x7_s1
I0224 09:45:35.476357  1997 net.cpp:150] Setting up pool5/7x7_s1
I0224 09:45:35.476369  1997 net.cpp:157] Top shape: 50 1024 1 1 (51200)
I0224 09:45:35.476377  1997 net.cpp:165] Memory required for data: 2805627624
I0224 09:45:35.476387  1997 layer_factory.hpp:77] Creating layer pool5/drop_7x7_s1
I0224 09:45:35.476403  1997 net.cpp:100] Creating Layer pool5/drop_7x7_s1
I0224 09:45:35.476413  1997 net.cpp:434] pool5/drop_7x7_s1 <- pool5/7x7_s1
I0224 09:45:35.476425  1997 net.cpp:395] pool5/drop_7x7_s1 -> pool5/7x7_s1 (in-place)
I0224 09:45:35.476441  1997 net.cpp:150] Setting up pool5/drop_7x7_s1
I0224 09:45:35.476452  1997 net.cpp:157] Top shape: 50 1024 1 1 (51200)
I0224 09:45:35.476461  1997 net.cpp:165] Memory required for data: 2805832424
I0224 09:45:35.476469  1997 layer_factory.hpp:77] Creating layer loss3/classifier
I0224 09:45:35.476485  1997 net.cpp:100] Creating Layer loss3/classifier
I0224 09:45:35.476493  1997 net.cpp:434] loss3/classifier <- pool5/7x7_s1
I0224 09:45:35.476506  1997 net.cpp:408] loss3/classifier -> loss3/classifier
I0224 09:45:35.494413  1997 net.cpp:150] Setting up loss3/classifier
I0224 09:45:35.494459  1997 net.cpp:157] Top shape: 50 1000 (50000)
I0224 09:45:35.494469  1997 net.cpp:165] Memory required for data: 2806032424
I0224 09:45:35.494487  1997 layer_factory.hpp:77] Creating layer loss3/classifier_loss3/classifier_0_split
I0224 09:45:35.494503  1997 net.cpp:100] Creating Layer loss3/classifier_loss3/classifier_0_split
I0224 09:45:35.494515  1997 net.cpp:434] loss3/classifier_loss3/classifier_0_split <- loss3/classifier
I0224 09:45:35.494529  1997 net.cpp:408] loss3/classifier_loss3/classifier_0_split -> loss3/classifier_loss3/classifier_0_split_0
I0224 09:45:35.494546  1997 net.cpp:408] loss3/classifier_loss3/classifier_0_split -> loss3/classifier_loss3/classifier_0_split_1
I0224 09:45:35.494562  1997 net.cpp:408] loss3/classifier_loss3/classifier_0_split -> loss3/classifier_loss3/classifier_0_split_2
I0224 09:45:35.494580  1997 net.cpp:150] Setting up loss3/classifier_loss3/classifier_0_split
I0224 09:45:35.494590  1997 net.cpp:157] Top shape: 50 1000 (50000)
I0224 09:45:35.494601  1997 net.cpp:157] Top shape: 50 1000 (50000)
I0224 09:45:35.494611  1997 net.cpp:157] Top shape: 50 1000 (50000)
I0224 09:45:35.494619  1997 net.cpp:165] Memory required for data: 2806632424
I0224 09:45:35.494628  1997 layer_factory.hpp:77] Creating layer loss3/loss3
I0224 09:45:35.494643  1997 net.cpp:100] Creating Layer loss3/loss3
I0224 09:45:35.494653  1997 net.cpp:434] loss3/loss3 <- loss3/classifier_loss3/classifier_0_split_0
I0224 09:45:35.494664  1997 net.cpp:434] loss3/loss3 <- label_data_1_split_6
…
