…
I0115 20:02:33.557569 52394 net.cpp:322] The NetState phase (0) differed from the phase (1) specified by a rule in layer accuracy
I0115 20:02:33.558078 52394 net.cpp:58] Initializing net from parameters: 
name: "AlexNet"
state {
  phase: TRAIN
  level: 0
  stage: ""
}
layer {
  name: "data"
  type: "Data"
  top: "data"
  top: "label"
  include {
    phase: TRAIN
  }
  transform_param {
    mirror: true
    crop_size: 227
    mean_file: "/home/user/LIBRARIES/caffeLibs/caffe/data/ilsvrc12/imagenet_mean.binaryproto"
  }
  data_param {
    source: "/home/user/LIBRARIES/caffeLibs/caffe/examples/imagenet/ilsvrc12_train_lmdb"
    batch_size: 224
    backend: LMDB
  }
}
layer {
  name: "conv1"
  type: "Convolution"
  bottom: "data"
  top: "conv1"
  param {
    lr_mult: 1
    decay_mult: 1
  }
  param {
    lr_mult: 2
    decay_mult: 0
  }
  convolution_param {
    num_output: 96
    kernel_size: 11
    stride: 4
    weight_filler {
      type: "gaussian"
      std: 0.01
    }
    bias_filler {
      type: "constant"
      value: 0
    }
  }
}
layer {
  name: "relu1"
  type: "ReLU"
  bottom: "conv1"
  top: "conv1"
}
layer {
  name: "norm1"
  type: "LRN"
  bottom: "conv1"
  top: "norm1"
  lrn_param {
    local_size: 5
    alpha: 0.0001
    beta: 0.75
  }
}
layer {
  name: "pool1"
  type: "Pooling"
  bottom: "norm1"
  top: "pool1"
  pooling_param {
    pool: MAX
    kernel_size: 3
    stride: 2
  }
}
layer {
  name: "conv2"
  type: "Convolution"
  bottom: "pool1"
  top: "conv2"
  param {
    lr_mult: 1
    decay_mult: 1
  }
  param {
    lr_mult: 2
    decay_mult: 0
  }
  convolution_param {
    num_output: 256
    pad: 2
    kernel_size: 5
    group: 2
    weight_filler {
      type: "gaussian"
      std: 0.01
    }
    bias_filler {
      type: "constant"
      value: 0.1
    }
  }
}
layer {
  name: "relu2"
  type: "ReLU"
  bottom: "conv2"
  top: "conv2"
}
layer {
  name: "norm2"
  type: "LRN"
  bottom: "conv2"
  top: "norm2"
  lrn_param {
    local_size: 5
    alpha: 0.0001
    beta: 0.75
  }
}
layer {
  name: "pool2"
  type: "Pooling"
  bottom: "norm2"
  top: "pool2"
  pooling_param {
    pool: MAX
    kernel_size: 3
    stride: 2
  }
}
layer {
  name: "conv3"
  type: "Convolution"
  bottom: "pool2"
  top: "conv3"
  param {
    lr_mult: 1
    decay_mult: 1
  }
  param {
    lr_mult: 2
    decay_mult: 0
  }
  convolution_param {
    num_output: 384
    pad: 1
    kernel_size: 3
    weight_filler {
      type: "gaussian"
      std: 0.01
    }
    bias_filler {
      type: "constant"
      value: 0
    }
  }
}
layer {
  name: "relu3"
  type: "ReLU"
  bottom: "conv3"
  top: "conv3"
}
layer {
  name: "conv4"
  type: "Convolution"
  bottom: "conv3"
  top: "conv4"
  param {
    lr_mult: 1
    decay_mult: 1
  }
  param {
    lr_mult: 2
    decay_mult: 0
  }
  convolution_param {
    num_output: 384
    pad: 1
    kernel_size: 3
    group: 2
    weight_filler {
      type: "gaussian"
      std: 0.01
    }
    bias_filler {
      type: "constant"
      value: 0.1
    }
  }
}
layer {
  name: "relu4"
  type: "ReLU"
  bottom: "conv4"
  top: "conv4"
}
layer {
  name: "conv5"
  type: "Convolution"
  bottom: "conv4"
  top: "conv5"
  param {
    lr_mult: 1
    decay_mult: 1
  }
  param {
    lr_mult: 2
    decay_mult: 0
  }
  convolution_param {
    num_output: 256
    pad: 1
    kernel_size: 3
    group: 2
    weight_filler {
      type: "gaussian"
      std: 0.01
    }
    bias_filler {
      type: "constant"
      value: 0.1
    }
  }
}
layer {
  name: "relu5"
  type: "ReLU"
  bottom: "conv5"
  top: "conv5"
}
layer {
  name: "pool5"
  type: "Pooling"
  bottom: "conv5"
  top: "pool5"
  pooling_param {
    pool: MAX
    kernel_size: 3
    stride: 2
  }
}
layer {
  name: "fc6"
  type: "InnerProduct"
  bottom: "pool5"
  top: "fc6"
  param {
    lr_mult: 1
    decay_mult: 1
  }
  param {
    lr_mult: 2
    decay_mult: 0
  }
  inner_product_param {
    num_output: 4096
    weight_filler {
      type: "gaussian"
      std: 0.005
    }
    bias_filler {
      type: "constant"
      value: 0.1
    }
  }
}
layer {
  name: "relu6"
  type: "ReLU"
  bottom: "fc6"
  top: "fc6"
}
layer {
  name: "drop6"
  type: "Dropout"
  bottom: "fc6"
  top: "fc6"
  dropout_param {
    dropout_ratio: 0.5
  }
}
layer {
  name: "fc7"
  type: "InnerProduct"
  bottom: "fc6"
  top: "fc7"
  param {
    lr_mult: 1
    decay_mult: 1
  }
  param {
    lr_mult: 2
    decay_mult: 0
  }
  inner_product_param {
    num_output: 4096
    weight_filler {
      type: "gaussian"
      std: 0.005
    }
    bias_filler {
      type: "constant"
      value: 0.1
    }
  }
}
layer {
  name: "relu7"
  type: "ReLU"
  bottom: "fc7"
  top: "fc7"
}
layer {
  name: "drop7"
  type: "Dropout"
  bottom: "fc7"
  top: "fc7"
  dropout_param {
    dropout_ratio: 0.5
  }
}
layer {
  name: "fc8"
  type: "InnerProduct"
  bottom: "fc7"
  top: "fc8"
  param {
    lr_mult: 1
    decay_mult: 1
  }
  param {
    lr_mult: 2
    decay_mult: 0
  }
  inner_product_param {
    num_output: 1000
    weight_filler {
      type: "gaussian"
      std: 0.01
    }
    bias_filler {
      type: "constant"
      value: 0
    }
  }
}
layer {
  name: "loss"
  type: "SoftmaxWithLoss"
  bottom: "fc8"
  bottom: "label"
  top: "loss"
}
I0115 20:02:33.558228 52394 layer_factory.hpp:77] Creating layer data
I0115 20:02:33.559209 52394 net.cpp:100] Creating Layer data
I0115 20:02:33.559263 52394 net.cpp:408] data -> data
I0115 20:02:33.559319 52394 net.cpp:408] data -> label
I0115 20:02:33.559350 52394 data_transformer.cpp:25] Loading mean file from: /home/user/LIBRARIES/caffeLibs/caffe/data/ilsvrc12/imagenet_mean.binaryproto
I0115 20:02:33.559500 52395 db_lmdb.cpp:35] Opened lmdb /home/user/LIBRARIES/caffeLibs/caffe/examples/imagenet/ilsvrc12_train_lmdb
I0115 20:02:33.563767 52394 data_layer.cpp:41] output data size: 224,3,227,227
I0115 20:02:33.711448 52394 net.cpp:150] Setting up data
I0115 20:02:33.711475 52394 net.cpp:157] Top shape: 224 3 227 227 (34627488)
I0115 20:02:33.711483 52394 net.cpp:157] Top shape: 224 (224)
I0115 20:02:33.711488 52394 net.cpp:165] Memory required for data: 138510848
I0115 20:02:33.711498 52394 layer_factory.hpp:77] Creating layer conv1
I0115 20:02:33.711558 52394 net.cpp:100] Creating Layer conv1
I0115 20:02:33.711573 52394 net.cpp:434] conv1 <- data
I0115 20:02:33.711588 52394 net.cpp:408] conv1 -> conv1
I0115 20:02:33.712283 52394 net.cpp:150] Setting up conv1
I0115 20:02:33.712296 52394 net.cpp:157] Top shape: 224 96 55 55 (65049600)
I0115 20:02:33.712299 52394 net.cpp:165] Memory required for data: 398709248
I0115 20:02:33.712316 52394 layer_factory.hpp:77] Creating layer relu1
I0115 20:02:33.712326 52394 net.cpp:100] Creating Layer relu1
I0115 20:02:33.712330 52394 net.cpp:434] relu1 <- conv1
I0115 20:02:33.712337 52394 net.cpp:395] relu1 -> conv1 (in-place)
I0115 20:02:33.712347 52394 net.cpp:150] Setting up relu1
I0115 20:02:33.712352 52394 net.cpp:157] Top shape: 224 96 55 55 (65049600)
I0115 20:02:33.712355 52394 net.cpp:165] Memory required for data: 658907648
I0115 20:02:33.712359 52394 layer_factory.hpp:77] Creating layer norm1
I0115 20:02:33.712365 52394 net.cpp:100] Creating Layer norm1
I0115 20:02:33.712369 52394 net.cpp:434] norm1 <- conv1
I0115 20:02:33.712374 52394 net.cpp:408] norm1 -> norm1
I0115 20:02:33.712388 52394 net.cpp:150] Setting up norm1
I0115 20:02:33.712393 52394 net.cpp:157] Top shape: 224 96 55 55 (65049600)
I0115 20:02:33.712396 52394 net.cpp:165] Memory required for data: 919106048
I0115 20:02:33.712409 52394 layer_factory.hpp:77] Creating layer pool1
I0115 20:02:33.712424 52394 net.cpp:100] Creating Layer pool1
I0115 20:02:33.712430 52394 net.cpp:434] pool1 <- norm1
I0115 20:02:33.712435 52394 net.cpp:408] pool1 -> pool1
I0115 20:02:33.712457 52394 net.cpp:150] Setting up pool1
I0115 20:02:33.712463 52394 net.cpp:157] Top shape: 224 96 27 27 (15676416)
I0115 20:02:33.712467 52394 net.cpp:165] Memory required for data: 981811712
I0115 20:02:33.712471 52394 layer_factory.hpp:77] Creating layer conv2
I0115 20:02:33.712479 52394 net.cpp:100] Creating Layer conv2
I0115 20:02:33.712483 52394 net.cpp:434] conv2 <- pool1
I0115 20:02:33.712491 52394 net.cpp:408] conv2 -> conv2
I0115 20:02:33.718514 52394 net.cpp:150] Setting up conv2
I0115 20:02:33.718526 52394 net.cpp:157] Top shape: 224 256 27 27 (41803776)
I0115 20:02:33.718530 52394 net.cpp:165] Memory required for data: 1149026816
I0115 20:02:33.718541 52394 layer_factory.hpp:77] Creating layer relu2
I0115 20:02:33.718547 52394 net.cpp:100] Creating Layer relu2
I0115 20:02:33.718551 52394 net.cpp:434] relu2 <- conv2
I0115 20:02:33.718557 52394 net.cpp:395] relu2 -> conv2 (in-place)
I0115 20:02:33.718564 52394 net.cpp:150] Setting up relu2
I0115 20:02:33.718569 52394 net.cpp:157] Top shape: 224 256 27 27 (41803776)
I0115 20:02:33.718574 52394 net.cpp:165] Memory required for data: 1316241920
I0115 20:02:33.718577 52394 layer_factory.hpp:77] Creating layer norm2
I0115 20:02:33.718583 52394 net.cpp:100] Creating Layer norm2
I0115 20:02:33.718587 52394 net.cpp:434] norm2 <- conv2
I0115 20:02:33.718592 52394 net.cpp:408] norm2 -> norm2
I0115 20:02:33.718601 52394 net.cpp:150] Setting up norm2
I0115 20:02:33.718606 52394 net.cpp:157] Top shape: 224 256 27 27 (41803776)
I0115 20:02:33.718611 52394 net.cpp:165] Memory required for data: 1483457024
I0115 20:02:33.718614 52394 layer_factory.hpp:77] Creating layer pool2
I0115 20:02:33.718621 52394 net.cpp:100] Creating Layer pool2
I0115 20:02:33.718624 52394 net.cpp:434] pool2 <- norm2
I0115 20:02:33.718629 52394 net.cpp:408] pool2 -> pool2
I0115 20:02:33.718637 52394 net.cpp:150] Setting up pool2
I0115 20:02:33.718643 52394 net.cpp:157] Top shape: 224 256 13 13 (9691136)
I0115 20:02:33.718647 52394 net.cpp:165] Memory required for data: 1522221568
I0115 20:02:33.718650 52394 layer_factory.hpp:77] Creating layer conv3
I0115 20:02:33.718658 52394 net.cpp:100] Creating Layer conv3
I0115 20:02:33.718662 52394 net.cpp:434] conv3 <- pool2
I0115 20:02:33.718668 52394 net.cpp:408] conv3 -> conv3
I0115 20:02:33.736307 52394 net.cpp:150] Setting up conv3
I0115 20:02:33.736320 52394 net.cpp:157] Top shape: 224 384 13 13 (14536704)
I0115 20:02:33.736325 52394 net.cpp:165] Memory required for data: 1580368384
I0115 20:02:33.736335 52394 layer_factory.hpp:77] Creating layer relu3
I0115 20:02:33.736341 52394 net.cpp:100] Creating Layer relu3
I0115 20:02:33.736346 52394 net.cpp:434] relu3 <- conv3
I0115 20:02:33.736351 52394 net.cpp:395] relu3 -> conv3 (in-place)
I0115 20:02:33.736357 52394 net.cpp:150] Setting up relu3
I0115 20:02:33.736363 52394 net.cpp:157] Top shape: 224 384 13 13 (14536704)
I0115 20:02:33.736366 52394 net.cpp:165] Memory required for data: 1638515200
I0115 20:02:33.736371 52394 layer_factory.hpp:77] Creating layer conv4
I0115 20:02:33.736378 52394 net.cpp:100] Creating Layer conv4
I0115 20:02:33.736382 52394 net.cpp:434] conv4 <- conv3
I0115 20:02:33.736388 52394 net.cpp:408] conv4 -> conv4
I0115 20:02:33.750263 52394 net.cpp:150] Setting up conv4
I0115 20:02:33.750275 52394 net.cpp:157] Top shape: 224 384 13 13 (14536704)
I0115 20:02:33.750279 52394 net.cpp:165] Memory required for data: 1696662016
I0115 20:02:33.750288 52394 layer_factory.hpp:77] Creating layer relu4
I0115 20:02:33.750293 52394 net.cpp:100] Creating Layer relu4
I0115 20:02:33.750298 52394 net.cpp:434] relu4 <- conv4
I0115 20:02:33.750303 52394 net.cpp:395] relu4 -> conv4 (in-place)
I0115 20:02:33.750309 52394 net.cpp:150] Setting up relu4
I0115 20:02:33.750314 52394 net.cpp:157] Top shape: 224 384 13 13 (14536704)
I0115 20:02:33.750319 52394 net.cpp:165] Memory required for data: 1754808832
I0115 20:02:33.750336 52394 layer_factory.hpp:77] Creating layer conv5
I0115 20:02:33.750345 52394 net.cpp:100] Creating Layer conv5
I0115 20:02:33.750349 52394 net.cpp:434] conv5 <- conv4
I0115 20:02:33.750355 52394 net.cpp:408] conv5 -> conv5
I0115 20:02:33.759685 52394 net.cpp:150] Setting up conv5
I0115 20:02:33.759696 52394 net.cpp:157] Top shape: 224 256 13 13 (9691136)
I0115 20:02:33.759701 52394 net.cpp:165] Memory required for data: 1793573376
I0115 20:02:33.759711 52394 layer_factory.hpp:77] Creating layer relu5
I0115 20:02:33.759717 52394 net.cpp:100] Creating Layer relu5
I0115 20:02:33.759721 52394 net.cpp:434] relu5 <- conv5
I0115 20:02:33.759727 52394 net.cpp:395] relu5 -> conv5 (in-place)
I0115 20:02:33.759732 52394 net.cpp:150] Setting up relu5
I0115 20:02:33.759738 52394 net.cpp:157] Top shape: 224 256 13 13 (9691136)
I0115 20:02:33.759742 52394 net.cpp:165] Memory required for data: 1832337920
I0115 20:02:33.759745 52394 layer_factory.hpp:77] Creating layer pool5
I0115 20:02:33.759750 52394 net.cpp:100] Creating Layer pool5
I0115 20:02:33.759754 52394 net.cpp:434] pool5 <- conv5
I0115 20:02:33.759759 52394 net.cpp:408] pool5 -> pool5
I0115 20:02:33.759768 52394 net.cpp:150] Setting up pool5
I0115 20:02:33.759773 52394 net.cpp:157] Top shape: 224 256 6 6 (2064384)
I0115 20:02:33.759776 52394 net.cpp:165] Memory required for data: 1840595456
I0115 20:02:33.759780 52394 layer_factory.hpp:77] Creating layer fc6
I0115 20:02:33.759793 52394 net.cpp:100] Creating Layer fc6
I0115 20:02:33.759796 52394 net.cpp:434] fc6 <- pool5
I0115 20:02:33.759802 52394 net.cpp:408] fc6 -> fc6
I0115 20:02:34.483173 52394 net.cpp:150] Setting up fc6
I0115 20:02:34.483227 52394 net.cpp:157] Top shape: 224 4096 (917504)
I0115 20:02:34.483233 52394 net.cpp:165] Memory required for data: 1844265472
I0115 20:02:34.483247 52394 layer_factory.hpp:77] Creating layer relu6
I0115 20:02:34.483264 52394 net.cpp:100] Creating Layer relu6
I0115 20:02:34.483271 52394 net.cpp:434] relu6 <- fc6
I0115 20:02:34.483283 52394 net.cpp:395] relu6 -> fc6 (in-place)
I0115 20:02:34.483295 52394 net.cpp:150] Setting up relu6
I0115 20:02:34.483300 52394 net.cpp:157] Top shape: 224 4096 (917504)
I0115 20:02:34.483304 52394 net.cpp:165] Memory required for data: 1847935488
I0115 20:02:34.483309 52394 layer_factory.hpp:77] Creating layer drop6
I0115 20:02:34.483324 52394 net.cpp:100] Creating Layer drop6
I0115 20:02:34.483327 52394 net.cpp:434] drop6 <- fc6
I0115 20:02:34.483335 52394 net.cpp:395] drop6 -> fc6 (in-place)
I0115 20:02:34.483352 52394 net.cpp:150] Setting up drop6
I0115 20:02:34.483357 52394 net.cpp:157] Top shape: 224 4096 (917504)
I0115 20:02:34.483361 52394 net.cpp:165] Memory required for data: 1851605504
I0115 20:02:34.483366 52394 layer_factory.hpp:77] Creating layer fc7
I0115 20:02:34.483377 52394 net.cpp:100] Creating Layer fc7
I0115 20:02:34.483381 52394 net.cpp:434] fc7 <- fc6
I0115 20:02:34.483392 52394 net.cpp:408] fc7 -> fc7
I0115 20:02:34.804496 52394 net.cpp:150] Setting up fc7
I0115 20:02:34.804543 52394 net.cpp:157] Top shape: 224 4096 (917504)
I0115 20:02:34.804548 52394 net.cpp:165] Memory required for data: 1855275520
I0115 20:02:34.804563 52394 layer_factory.hpp:77] Creating layer relu7
I0115 20:02:34.804576 52394 net.cpp:100] Creating Layer relu7
I0115 20:02:34.804582 52394 net.cpp:434] relu7 <- fc7
I0115 20:02:34.804594 52394 net.cpp:395] relu7 -> fc7 (in-place)
I0115 20:02:34.804605 52394 net.cpp:150] Setting up relu7
I0115 20:02:34.804610 52394 net.cpp:157] Top shape: 224 4096 (917504)
I0115 20:02:34.804615 52394 net.cpp:165] Memory required for data: 1858945536
I0115 20:02:34.804618 52394 layer_factory.hpp:77] Creating layer drop7
I0115 20:02:34.804627 52394 net.cpp:100] Creating Layer drop7
I0115 20:02:34.804631 52394 net.cpp:434] drop7 <- fc7
I0115 20:02:34.804641 52394 net.cpp:395] drop7 -> fc7 (in-place)
I0115 20:02:34.804651 52394 net.cpp:150] Setting up drop7
I0115 20:02:34.804656 52394 net.cpp:157] Top shape: 224 4096 (917504)
I0115 20:02:34.804659 52394 net.cpp:165] Memory required for data: 1862615552
I0115 20:02:34.804697 52394 layer_factory.hpp:77] Creating layer fc8
I0115 20:02:34.804710 52394 net.cpp:100] Creating Layer fc8
I0115 20:02:34.804714 52394 net.cpp:434] fc8 <- fc7
I0115 20:02:34.804721 52394 net.cpp:408] fc8 -> fc8
I0115 20:02:34.883591 52394 net.cpp:150] Setting up fc8
I0115 20:02:34.883602 52394 net.cpp:157] Top shape: 224 1000 (224000)
I0115 20:02:34.883605 52394 net.cpp:165] Memory required for data: 1863511552
I0115 20:02:34.883613 52394 layer_factory.hpp:77] Creating layer loss
I0115 20:02:34.883626 52394 net.cpp:100] Creating Layer loss
I0115 20:02:34.883631 52394 net.cpp:434] loss <- fc8
I0115 20:02:34.883636 52394 net.cpp:434] loss <- label
I0115 20:02:34.883646 52394 net.cpp:408] loss -> loss
I0115 20:02:34.883678 52394 layer_factory.hpp:77] Creating layer loss
…
I0115 20:02:34.885802 52394 net.cpp:322] The NetState phase (1) differed from the phase (0) specified by a rule in layer data
I0115 20:02:34.886373 52394 net.cpp:58] Initializing net from parameters: 
name: "AlexNet"
state {
  phase: TEST
}
layer {
  name: "data"
  type: "Data"
  top: "data"
  top: "label"
  include {
    phase: TEST
  }
  transform_param {
    mirror: false
    crop_size: 227
    mean_file: "/home/user/LIBRARIES/caffeLibs/caffe/data/ilsvrc12/imagenet_mean.binaryproto"
  }
  data_param {
    source: "/home/user/LIBRARIES/caffeLibs/caffe/examples/imagenet/ilsvrc12_val_lmdb"
    batch_size: 50
    backend: LMDB
  }
}
layer {
  name: "conv1"
  type: "Convolution"
  bottom: "data"
  top: "conv1"
  param {
    lr_mult: 1
    decay_mult: 1
  }
  param {
    lr_mult: 2
    decay_mult: 0
  }
  convolution_param {
    num_output: 96
    kernel_size: 11
    stride: 4
    weight_filler {
      type: "gaussian"
      std: 0.01
    }
    bias_filler {
      type: "constant"
      value: 0
    }
  }
}
layer {
  name: "relu1"
  type: "ReLU"
  bottom: "conv1"
  top: "conv1"
}
layer {
  name: "norm1"
  type: "LRN"
  bottom: "conv1"
  top: "norm1"
  lrn_param {
    local_size: 5
    alpha: 0.0001
    beta: 0.75
  }
}
layer {
  name: "pool1"
  type: "Pooling"
  bottom: "norm1"
  top: "pool1"
  pooling_param {
    pool: MAX
    kernel_size: 3
    stride: 2
  }
}
layer {
  name: "conv2"
  type: "Convolution"
  bottom: "pool1"
  top: "conv2"
  param {
    lr_mult: 1
    decay_mult: 1
  }
  param {
    lr_mult: 2
    decay_mult: 0
  }
  convolution_param {
    num_output: 256
    pad: 2
    kernel_size: 5
    group: 2
    weight_filler {
      type: "gaussian"
      std: 0.01
    }
    bias_filler {
      type: "constant"
      value: 0.1
    }
  }
}
layer {
  name: "relu2"
  type: "ReLU"
  bottom: "conv2"
  top: "conv2"
}
layer {
  name: "norm2"
  type: "LRN"
  bottom: "conv2"
  top: "norm2"
  lrn_param {
    local_size: 5
    alpha: 0.0001
    beta: 0.75
  }
}
layer {
  name: "pool2"
  type: "Pooling"
  bottom: "norm2"
  top: "pool2"
  pooling_param {
    pool: MAX
    kernel_size: 3
    stride: 2
  }
}
layer {
  name: "conv3"
  type: "Convolution"
  bottom: "pool2"
  top: "conv3"
  param {
    lr_mult: 1
    decay_mult: 1
  }
  param {
    lr_mult: 2
    decay_mult: 0
  }
  convolution_param {
    num_output: 384
    pad: 1
    kernel_size: 3
    weight_filler {
      type: "gaussian"
      std: 0.01
    }
    bias_filler {
      type: "constant"
      value: 0
    }
  }
}
layer {
  name: "relu3"
  type: "ReLU"
  bottom: "conv3"
  top: "conv3"
}
layer {
  name: "conv4"
  type: "Convolution"
  bottom: "conv3"
  top: "conv4"
  param {
    lr_mult: 1
    decay_mult: 1
  }
  param {
    lr_mult: 2
    decay_mult: 0
  }
  convolution_param {
    num_output: 384
    pad: 1
    kernel_size: 3
    group: 2
    weight_filler {
      type: "gaussian"
      std: 0.01
    }
    bias_filler {
      type: "constant"
      value: 0.1
    }
  }
}
layer {
  name: "relu4"
  type: "ReLU"
  bottom: "conv4"
  top: "conv4"
}
layer {
  name: "conv5"
  type: "Convolution"
  bottom: "conv4"
  top: "conv5"
  param {
    lr_mult: 1
    decay_mult: 1
  }
  param {
    lr_mult: 2
    decay_mult: 0
  }
  convolution_param {
    num_output: 256
    pad: 1
    kernel_size: 3
    group: 2
    weight_filler {
      type: "gaussian"
      std: 0.01
    }
    bias_filler {
      type: "constant"
      value: 0.1
    }
  }
}
layer {
  name: "relu5"
  type: "ReLU"
  bottom: "conv5"
  top: "conv5"
}
layer {
  name: "pool5"
  type: "Pooling"
  bottom: "conv5"
  top: "pool5"
  pooling_param {
    pool: MAX
    kernel_size: 3
    stride: 2
  }
}
layer {
  name: "fc6"
  type: "InnerProduct"
  bottom: "pool5"
  top: "fc6"
  param {
    lr_mult: 1
    decay_mult: 1
  }
  param {
    lr_mult: 2
    decay_mult: 0
  }
  inner_product_param {
    num_output: 4096
    weight_filler {
      type: "gaussian"
      std: 0.005
    }
    bias_filler {
      type: "constant"
      value: 0.1
    }
  }
}
layer {
  name: "relu6"
  type: "ReLU"
  bottom: "fc6"
  top: "fc6"
}
layer {
  name: "drop6"
  type: "Dropout"
  bottom: "fc6"
  top: "fc6"
  dropout_param {
    dropout_ratio: 0.5
  }
}
layer {
  name: "fc7"
  type: "InnerProduct"
  bottom: "fc6"
  top: "fc7"
  param {
    lr_mult: 1
    decay_mult: 1
  }
  param {
    lr_mult: 2
    decay_mult: 0
  }
  inner_product_param {
    num_output: 4096
    weight_filler {
      type: "gaussian"
      std: 0.005
    }
    bias_filler {
      type: "constant"
      value: 0.1
    }
  }
}
layer {
  name: "relu7"
  type: "ReLU"
  bottom: "fc7"
  top: "fc7"
}
layer {
  name: "drop7"
  type: "Dropout"
  bottom: "fc7"
  top: "fc7"
  dropout_param {
    dropout_ratio: 0.5
  }
}
layer {
  name: "fc8"
  type: "InnerProduct"
  bottom: "fc7"
  top: "fc8"
  param {
    lr_mult: 1
    decay_mult: 1
  }
  param {
    lr_mult: 2
    decay_mult: 0
  }
  inner_product_param {
    num_output: 1000
    weight_filler {
      type: "gaussian"
      std: 0.01
    }
    bias_filler {
      type: "constant"
      value: 0
    }
  }
}
layer {
  name: "accuracy"
  type: "Accuracy"
  bottom: "fc8"
  bottom: "label"
  top: "accuracy"
  include {
    phase: TEST
  }
}
layer {
  name: "loss"
  type: "SoftmaxWithLoss"
  bottom: "fc8"
  bottom: "label"
  top: "loss"
}
I0115 20:02:34.886557 52394 layer_factory.hpp:77] Creating layer data
I0115 20:02:34.886687 52394 net.cpp:100] Creating Layer data
I0115 20:02:34.886698 52394 net.cpp:408] data -> data
I0115 20:02:34.886709 52394 net.cpp:408] data -> label
I0115 20:02:34.886720 52394 data_transformer.cpp:25] Loading mean file from: /home/user/LIBRARIES/caffeLibs/caffe/data/ilsvrc12/imagenet_mean.binaryproto
I0115 20:02:34.886958 52397 db_lmdb.cpp:35] Opened lmdb /home/user/LIBRARIES/caffeLibs/caffe/examples/imagenet/ilsvrc12_val_lmdb
I0115 20:02:34.890738 52394 data_layer.cpp:41] output data size: 50,3,227,227
I0115 20:02:34.927628 52394 net.cpp:150] Setting up data
I0115 20:02:34.927644 52394 net.cpp:157] Top shape: 50 3 227 227 (7729350)
I0115 20:02:34.927650 52394 net.cpp:157] Top shape: 50 (50)
I0115 20:02:34.927654 52394 net.cpp:165] Memory required for data: 30917600
I0115 20:02:34.927659 52394 layer_factory.hpp:77] Creating layer label_data_1_split
I0115 20:02:34.927671 52394 net.cpp:100] Creating Layer label_data_1_split
I0115 20:02:34.927676 52394 net.cpp:434] label_data_1_split <- label
I0115 20:02:34.927685 52394 net.cpp:408] label_data_1_split -> label_data_1_split_0
I0115 20:02:34.927693 52394 net.cpp:408] label_data_1_split -> label_data_1_split_1
I0115 20:02:34.927727 52394 net.cpp:150] Setting up label_data_1_split
I0115 20:02:34.927734 52394 net.cpp:157] Top shape: 50 (50)
I0115 20:02:34.927739 52394 net.cpp:157] Top shape: 50 (50)
I0115 20:02:34.927745 52394 net.cpp:165] Memory required for data: 30918000
I0115 20:02:34.927749 52394 layer_factory.hpp:77] Creating layer conv1
I0115 20:02:34.927760 52394 net.cpp:100] Creating Layer conv1
I0115 20:02:34.927768 52394 net.cpp:434] conv1 <- data
I0115 20:02:34.927775 52394 net.cpp:408] conv1 -> conv1
I0115 20:02:34.928418 52394 net.cpp:150] Setting up conv1
I0115 20:02:34.928429 52394 net.cpp:157] Top shape: 50 96 55 55 (14520000)
I0115 20:02:34.928433 52394 net.cpp:165] Memory required for data: 88998000
I0115 20:02:34.928447 52394 layer_factory.hpp:77] Creating layer relu1
I0115 20:02:34.928452 52394 net.cpp:100] Creating Layer relu1
I0115 20:02:34.928457 52394 net.cpp:434] relu1 <- conv1
I0115 20:02:34.928463 52394 net.cpp:395] relu1 -> conv1 (in-place)
I0115 20:02:34.928470 52394 net.cpp:150] Setting up relu1
I0115 20:02:34.928475 52394 net.cpp:157] Top shape: 50 96 55 55 (14520000)
I0115 20:02:34.928479 52394 net.cpp:165] Memory required for data: 147078000
I0115 20:02:34.928483 52394 layer_factory.hpp:77] Creating layer norm1
I0115 20:02:34.928490 52394 net.cpp:100] Creating Layer norm1
I0115 20:02:34.928494 52394 net.cpp:434] norm1 <- conv1
I0115 20:02:34.928499 52394 net.cpp:408] norm1 -> norm1
I0115 20:02:34.928508 52394 net.cpp:150] Setting up norm1
I0115 20:02:34.928514 52394 net.cpp:157] Top shape: 50 96 55 55 (14520000)
I0115 20:02:34.928517 52394 net.cpp:165] Memory required for data: 205158000
I0115 20:02:34.928520 52394 layer_factory.hpp:77] Creating layer pool1
I0115 20:02:34.928526 52394 net.cpp:100] Creating Layer pool1
I0115 20:02:34.928530 52394 net.cpp:434] pool1 <- norm1
I0115 20:02:34.928535 52394 net.cpp:408] pool1 -> pool1
I0115 20:02:34.928545 52394 net.cpp:150] Setting up pool1
I0115 20:02:34.928551 52394 net.cpp:157] Top shape: 50 96 27 27 (3499200)
I0115 20:02:34.928555 52394 net.cpp:165] Memory required for data: 219154800
I0115 20:02:34.928558 52394 layer_factory.hpp:77] Creating layer conv2
I0115 20:02:34.928566 52394 net.cpp:100] Creating Layer conv2
I0115 20:02:34.928570 52394 net.cpp:434] conv2 <- pool1
I0115 20:02:34.928575 52394 net.cpp:408] conv2 -> conv2
I0115 20:02:34.934248 52394 net.cpp:150] Setting up conv2
I0115 20:02:34.934260 52394 net.cpp:157] Top shape: 50 256 27 27 (9331200)
I0115 20:02:34.934264 52394 net.cpp:165] Memory required for data: 256479600
I0115 20:02:34.934280 52394 layer_factory.hpp:77] Creating layer relu2
I0115 20:02:34.934298 52394 net.cpp:100] Creating Layer relu2
I0115 20:02:34.934303 52394 net.cpp:434] relu2 <- conv2
I0115 20:02:34.934311 52394 net.cpp:395] relu2 -> conv2 (in-place)
I0115 20:02:34.934319 52394 net.cpp:150] Setting up relu2
I0115 20:02:34.934324 52394 net.cpp:157] Top shape: 50 256 27 27 (9331200)
I0115 20:02:34.934329 52394 net.cpp:165] Memory required for data: 293804400
I0115 20:02:34.934332 52394 layer_factory.hpp:77] Creating layer norm2
I0115 20:02:34.934340 52394 net.cpp:100] Creating Layer norm2
I0115 20:02:34.934342 52394 net.cpp:434] norm2 <- conv2
I0115 20:02:34.934351 52394 net.cpp:408] norm2 -> norm2
I0115 20:02:34.934360 52394 net.cpp:150] Setting up norm2
I0115 20:02:34.934366 52394 net.cpp:157] Top shape: 50 256 27 27 (9331200)
I0115 20:02:34.934370 52394 net.cpp:165] Memory required for data: 331129200
I0115 20:02:34.934373 52394 layer_factory.hpp:77] Creating layer pool2
I0115 20:02:34.934381 52394 net.cpp:100] Creating Layer pool2
I0115 20:02:34.934386 52394 net.cpp:434] pool2 <- norm2
I0115 20:02:34.934391 52394 net.cpp:408] pool2 -> pool2
I0115 20:02:34.934398 52394 net.cpp:150] Setting up pool2
I0115 20:02:34.934403 52394 net.cpp:157] Top shape: 50 256 13 13 (2163200)
I0115 20:02:34.934407 52394 net.cpp:165] Memory required for data: 339782000
I0115 20:02:34.934412 52394 layer_factory.hpp:77] Creating layer conv3
I0115 20:02:34.934435 52394 net.cpp:100] Creating Layer conv3
I0115 20:02:34.934440 52394 net.cpp:434] conv3 <- pool2
I0115 20:02:34.934450 52394 net.cpp:408] conv3 -> conv3
I0115 20:02:34.952580 52394 net.cpp:150] Setting up conv3
I0115 20:02:34.952594 52394 net.cpp:157] Top shape: 50 384 13 13 (3244800)
I0115 20:02:34.952597 52394 net.cpp:165] Memory required for data: 352761200
I0115 20:02:34.952608 52394 layer_factory.hpp:77] Creating layer relu3
I0115 20:02:34.952617 52394 net.cpp:100] Creating Layer relu3
I0115 20:02:34.952622 52394 net.cpp:434] relu3 <- conv3
I0115 20:02:34.952628 52394 net.cpp:395] relu3 -> conv3 (in-place)
I0115 20:02:34.952636 52394 net.cpp:150] Setting up relu3
I0115 20:02:34.952641 52394 net.cpp:157] Top shape: 50 384 13 13 (3244800)
I0115 20:02:34.952644 52394 net.cpp:165] Memory required for data: 365740400
I0115 20:02:34.952648 52394 layer_factory.hpp:77] Creating layer conv4
I0115 20:02:34.952659 52394 net.cpp:100] Creating Layer conv4
I0115 20:02:34.952663 52394 net.cpp:434] conv4 <- conv3
I0115 20:02:34.952672 52394 net.cpp:408] conv4 -> conv4
I0115 20:02:34.966003 52394 net.cpp:150] Setting up conv4
I0115 20:02:34.966015 52394 net.cpp:157] Top shape: 50 384 13 13 (3244800)
I0115 20:02:34.966019 52394 net.cpp:165] Memory required for data: 378719600
I0115 20:02:34.966027 52394 layer_factory.hpp:77] Creating layer relu4
I0115 20:02:34.966032 52394 net.cpp:100] Creating Layer relu4
I0115 20:02:34.966037 52394 net.cpp:434] relu4 <- conv4
I0115 20:02:34.966042 52394 net.cpp:395] relu4 -> conv4 (in-place)
I0115 20:02:34.966049 52394 net.cpp:150] Setting up relu4
I0115 20:02:34.966054 52394 net.cpp:157] Top shape: 50 384 13 13 (3244800)
I0115 20:02:34.966063 52394 net.cpp:165] Memory required for data: 391698800
I0115 20:02:34.966068 52394 layer_factory.hpp:77] Creating layer conv5
I0115 20:02:34.966080 52394 net.cpp:100] Creating Layer conv5
I0115 20:02:34.966084 52394 net.cpp:434] conv5 <- conv4
I0115 20:02:34.966091 52394 net.cpp:408] conv5 -> conv5
I0115 20:02:34.975567 52394 net.cpp:150] Setting up conv5
I0115 20:02:34.975579 52394 net.cpp:157] Top shape: 50 256 13 13 (2163200)
I0115 20:02:34.975582 52394 net.cpp:165] Memory required for data: 400351600
I0115 20:02:34.975594 52394 layer_factory.hpp:77] Creating layer relu5
I0115 20:02:34.975600 52394 net.cpp:100] Creating Layer relu5
I0115 20:02:34.975603 52394 net.cpp:434] relu5 <- conv5
I0115 20:02:34.975608 52394 net.cpp:395] relu5 -> conv5 (in-place)
I0115 20:02:34.975615 52394 net.cpp:150] Setting up relu5
I0115 20:02:34.975620 52394 net.cpp:157] Top shape: 50 256 13 13 (2163200)
I0115 20:02:34.975630 52394 net.cpp:165] Memory required for data: 409004400
I0115 20:02:34.975641 52394 layer_factory.hpp:77] Creating layer pool5
I0115 20:02:34.975657 52394 net.cpp:100] Creating Layer pool5
I0115 20:02:34.975661 52394 net.cpp:434] pool5 <- conv5
I0115 20:02:34.975667 52394 net.cpp:408] pool5 -> pool5
I0115 20:02:34.975677 52394 net.cpp:150] Setting up pool5
I0115 20:02:34.975682 52394 net.cpp:157] Top shape: 50 256 6 6 (460800)
I0115 20:02:34.975685 52394 net.cpp:165] Memory required for data: 410847600
I0115 20:02:34.975689 52394 layer_factory.hpp:77] Creating layer fc6
I0115 20:02:34.975697 52394 net.cpp:100] Creating Layer fc6
I0115 20:02:34.975700 52394 net.cpp:434] fc6 <- pool5
I0115 20:02:34.975709 52394 net.cpp:408] fc6 -> fc6
I0115 20:02:35.696424 52394 net.cpp:150] Setting up fc6
I0115 20:02:35.696482 52394 net.cpp:157] Top shape: 50 4096 (204800)
I0115 20:02:35.696487 52394 net.cpp:165] Memory required for data: 411666800
I0115 20:02:35.696501 52394 layer_factory.hpp:77] Creating layer relu6
I0115 20:02:35.696518 52394 net.cpp:100] Creating Layer relu6
I0115 20:02:35.696524 52394 net.cpp:434] relu6 <- fc6
I0115 20:02:35.696535 52394 net.cpp:395] relu6 -> fc6 (in-place)
I0115 20:02:35.696548 52394 net.cpp:150] Setting up relu6
I0115 20:02:35.696553 52394 net.cpp:157] Top shape: 50 4096 (204800)
I0115 20:02:35.696557 52394 net.cpp:165] Memory required for data: 412486000
I0115 20:02:35.696562 52394 layer_factory.hpp:77] Creating layer drop6
I0115 20:02:35.696573 52394 net.cpp:100] Creating Layer drop6
I0115 20:02:35.696576 52394 net.cpp:434] drop6 <- fc6
I0115 20:02:35.696586 52394 net.cpp:395] drop6 -> fc6 (in-place)
I0115 20:02:35.696597 52394 net.cpp:150] Setting up drop6
I0115 20:02:35.696602 52394 net.cpp:157] Top shape: 50 4096 (204800)
I0115 20:02:35.696606 52394 net.cpp:165] Memory required for data: 413305200
I0115 20:02:35.696610 52394 layer_factory.hpp:77] Creating layer fc7
I0115 20:02:35.696624 52394 net.cpp:100] Creating Layer fc7
I0115 20:02:35.696627 52394 net.cpp:434] fc7 <- fc6
I0115 20:02:35.696635 52394 net.cpp:408] fc7 -> fc7
I0115 20:02:36.017768 52394 net.cpp:150] Setting up fc7
I0115 20:02:36.017814 52394 net.cpp:157] Top shape: 50 4096 (204800)
I0115 20:02:36.017819 52394 net.cpp:165] Memory required for data: 414124400
I0115 20:02:36.017832 52394 layer_factory.hpp:77] Creating layer relu7
I0115 20:02:36.017845 52394 net.cpp:100] Creating Layer relu7
I0115 20:02:36.017851 52394 net.cpp:434] relu7 <- fc7
I0115 20:02:36.017864 52394 net.cpp:395] relu7 -> fc7 (in-place)
I0115 20:02:36.017875 52394 net.cpp:150] Setting up relu7
I0115 20:02:36.017881 52394 net.cpp:157] Top shape: 50 4096 (204800)
I0115 20:02:36.017885 52394 net.cpp:165] Memory required for data: 414943600
I0115 20:02:36.017890 52394 layer_factory.hpp:77] Creating layer drop7
I0115 20:02:36.017899 52394 net.cpp:100] Creating Layer drop7
I0115 20:02:36.017904 52394 net.cpp:434] drop7 <- fc7
I0115 20:02:36.017910 52394 net.cpp:395] drop7 -> fc7 (in-place)
I0115 20:02:36.017918 52394 net.cpp:150] Setting up drop7
I0115 20:02:36.017923 52394 net.cpp:157] Top shape: 50 4096 (204800)
I0115 20:02:36.017927 52394 net.cpp:165] Memory required for data: 415762800
I0115 20:02:36.017931 52394 layer_factory.hpp:77] Creating layer fc8
I0115 20:02:36.017946 52394 net.cpp:100] Creating Layer fc8
I0115 20:02:36.017949 52394 net.cpp:434] fc8 <- fc7
I0115 20:02:36.017957 52394 net.cpp:408] fc8 -> fc8
I0115 20:02:36.096860 52394 net.cpp:150] Setting up fc8
I0115 20:02:36.096875 52394 net.cpp:157] Top shape: 50 1000 (50000)
I0115 20:02:36.096879 52394 net.cpp:165] Memory required for data: 415962800
I0115 20:02:36.096887 52394 layer_factory.hpp:77] Creating layer fc8_fc8_0_split
I0115 20:02:36.096899 52394 net.cpp:100] Creating Layer fc8_fc8_0_split
I0115 20:02:36.096904 52394 net.cpp:434] fc8_fc8_0_split <- fc8
I0115 20:02:36.096911 52394 net.cpp:408] fc8_fc8_0_split -> fc8_fc8_0_split_0
I0115 20:02:36.096922 52394 net.cpp:408] fc8_fc8_0_split -> fc8_fc8_0_split_1
I0115 20:02:36.096931 52394 net.cpp:150] Setting up fc8_fc8_0_split
I0115 20:02:36.096957 52394 net.cpp:157] Top shape: 50 1000 (50000)
I0115 20:02:36.096979 52394 net.cpp:157] Top shape: 50 1000 (50000)
I0115 20:02:36.096983 52394 net.cpp:165] Memory required for data: 416362800
I0115 20:02:36.096987 52394 layer_factory.hpp:77] Creating layer accuracy
I0115 20:02:36.097003 52394 net.cpp:100] Creating Layer accuracy
I0115 20:02:36.097008 52394 net.cpp:434] accuracy <- fc8_fc8_0_split_0
I0115 20:02:36.097013 52394 net.cpp:434] accuracy <- label_data_1_split_0
I0115 20:02:36.097023 52394 net.cpp:408] accuracy -> accuracy
…
