…
I0116 18:04:06.748220 17086 net.cpp:493] The NetState phase (0) differed from the phase (1) specified by a rule in layer accuracy
I0116 18:04:06.749411 17086 net.cpp:125] Initializing net from parameters: 
name: "CIFAR10_full"
state {
  phase: TRAIN
  level: 0
  stage: ""
}
layer {
  name: "cifar"
  type: "Data"
  top: "data"
  top: "label"
  include {
    phase: TRAIN
  }
  transform_param {
    mean_file: "examples/cifar10/mean.binaryproto"
  }
  data_param {
    source: "examples/cifar10/cifar10_train_lmdb"
    batch_size: 32
    backend: LMDB
  }
}
layer {
  name: "conv1"
  type: "Convolution"
  bottom: "data"
  top: "conv1"
  param {
    lr_mult: 1
  }
  param {
    lr_mult: 2
  }
  convolution_param {
    num_output: 32
    pad: 2
    kernel_size: 5
    stride: 1
    weight_filler {
      type: "gaussian"
      std: 0.0001
    }
    bias_filler {
      type: "constant"
    }
  }
}
layer {
  name: "pool1"
  type: "Pooling"
  bottom: "conv1"
  top: "pool1"
  pooling_param {
    pool: MAX
    kernel_size: 3
    stride: 2
  }
}
layer {
  name: "relu1"
  type: "ReLU"
  bottom: "pool1"
  top: "pool1"
}
layer {
  name: "norm1"
  type: "LRN"
  bottom: "pool1"
  top: "norm1"
  lrn_param {
    local_size: 3
    alpha: 5e-05
    beta: 0.75
    norm_region: WITHIN_CHANNEL
  }
}
layer {
  name: "conv2"
  type: "Convolution"
  bottom: "norm1"
  top: "conv2"
  param {
    lr_mult: 1
  }
  param {
    lr_mult: 2
  }
  convolution_param {
    num_output: 32
    pad: 2
    kernel_size: 5
    stride: 1
    weight_filler {
      type: "gaussian"
      std: 0.01
    }
    bias_filler {
      type: "constant"
    }
  }
}
layer {
  name: "relu2"
  type: "ReLU"
  bottom: "conv2"
  top: "conv2"
}
layer {
  name: "pool2"
  type: "Pooling"
  bottom: "conv2"
  top: "pool2"
  pooling_param {
    pool: AVE
    kernel_size: 3
    stride: 2
  }
}
layer {
  name: "norm2"
  type: "LRN"
  bottom: "pool2"
  top: "norm2"
  lrn_param {
    local_size: 3
    alpha: 5e-05
    beta: 0.75
    norm_region: WITHIN_CHANNEL
  }
}
layer {
  name: "conv3"
  type: "Convolution"
  bottom: "norm2"
  top: "conv3"
  convolution_param {
    num_output: 64
    pad: 2
    kernel_size: 5
    stride: 1
    weight_filler {
      type: "gaussian"
      std: 0.01
    }
    bias_filler {
      type: "constant"
    }
  }
}
layer {
  name: "relu3"
  type: "ReLU"
  bottom: "conv3"
  top: "conv3"
}
layer {
  name: "pool3"
  type: "Pooling"
  bottom: "conv3"
  top: "pool3"
  pooling_param {
    pool: AVE
    kernel_size: 3
    stride: 2
  }
}
layer {
  name: "ip1"
  type: "InnerProduct"
  bottom: "pool3"
  top: "ip1"
  param {
    lr_mult: 1
    decay_mult: 250
  }
  param {
    lr_mult: 2
    decay_mult: 0
  }
  inner_product_param {
    num_output: 10
    weight_filler {
      type: "gaussian"
      std: 0.01
    }
    bias_filler {
      type: "constant"
    }
  }
}
layer {
  name: "loss"
  type: "SoftmaxWithLoss"
  bottom: "ip1"
  bottom: "label"
  top: "loss"
}
I0116 18:04:06.749523 17086 net.cpp:154] Setting up Layer of device :0 @cpu 0 Layer : cifar
I0116 18:04:06.749544 17086 layer_factory.hpp:114] Creating layer cifar
I0116 18:04:06.750821 17086 net.cpp:169] Creating Layer cifar
I0116 18:04:06.750900 17086 net.cpp:579] cifar -> data
I0116 18:04:06.750921 17086 net.cpp:582] From AppendTop @cpu: 0
I0116 18:04:06.750972 17086 net.cpp:579] cifar -> label
I0116 18:04:06.751006 17086 net.cpp:582] From AppendTop @cpu: 0
I0116 18:04:06.751050 17086 data_transformer.cpp:62] Loading mean file from: examples/cifar10/mean.binaryproto
I0116 18:04:06.751688 17087 db_lmdb.cpp:72] Opened lmdb examples/cifar10/cifar10_train_lmdb
I0116 18:04:06.751787 17087 virtDev_device.cpp:310] found a CPU core 14 for Data Reader on device 0 thread ID 139696459298560
I0116 18:04:06.751807 17087 data_reader.cpp:128] inside DATAREADER 4
I0116 18:04:06.751826 17087 data_reader.cpp:139] NUMA DOMAIN 0
I0116 18:04:06.751935 17086 data_layer.cpp:80] output data size: 32,3,32,32
I0116 18:04:06.751960 17087 data_reader.cpp:139] NUMA DOMAIN 0
I0116 18:04:06.752799 17086 base_data_layer.cpp:96] Done cpu data
I0116 18:04:06.752847 17086 net.cpp:219] Setting up cifar
I0116 18:04:06.752885 17086 net.cpp:226] Top shape: 32 3 32 32 (98304)
I0116 18:04:06.752905 17086 net.cpp:226] Top shape: 32 (32)
I0116 18:04:06.752919 17086 net.cpp:234] Memory required for data: 393344
I0116 18:04:06.752941 17086 net.cpp:154] Setting up Layer of device :0 @cpu 1 Layer : conv1
I0116 18:04:06.752955 17086 layer_factory.hpp:114] Creating layer conv1
I0116 18:04:06.753020 17086 net.cpp:169] Creating Layer conv1
I0116 18:04:06.753044 17086 net.cpp:606] conv1 <- data
I0116 18:04:06.753070 17086 net.cpp:579] conv1 -> conv1
I0116 18:04:06.753085 17086 net.cpp:582] From AppendTop @cpu: 1
I0116 18:04:06.756348 17086 net.cpp:219] Setting up conv1
I0116 18:04:06.756386 17086 net.cpp:226] Top shape: 32 32 32 32 (1048576)
I0116 18:04:06.756400 17086 net.cpp:234] Memory required for data: 4587648
I0116 18:04:06.756449 17086 net.cpp:154] Setting up Layer of device :0 @cpu 1 Layer : pool1
I0116 18:04:06.756465 17086 layer_factory.hpp:114] Creating layer pool1
I0116 18:04:06.756556 17086 net.cpp:169] Creating Layer pool1
I0116 18:04:06.756577 17086 net.cpp:606] pool1 <- conv1
I0116 18:04:06.756600 17086 net.cpp:579] pool1 -> pool1
I0116 18:04:06.756615 17086 net.cpp:582] From AppendTop @cpu: 1
I0116 18:04:06.756652 17086 net.cpp:219] Setting up pool1
I0116 18:04:06.756675 17086 net.cpp:226] Top shape: 32 32 16 16 (262144)
I0116 18:04:06.756690 17086 net.cpp:234] Memory required for data: 5636224
I0116 18:04:06.756707 17086 net.cpp:154] Setting up Layer of device :0 @cpu 1 Layer : relu1
I0116 18:04:06.756738 17086 layer_factory.hpp:114] Creating layer relu1
I0116 18:04:06.756764 17086 net.cpp:169] Creating Layer relu1
I0116 18:04:06.756781 17086 net.cpp:606] relu1 <- pool1
I0116 18:04:06.756801 17086 net.cpp:566] relu1 -> pool1 (in-place)
I0116 18:04:06.756829 17086 net.cpp:219] Setting up relu1
I0116 18:04:06.756847 17086 net.cpp:226] Top shape: 32 32 16 16 (262144)
I0116 18:04:06.756862 17086 net.cpp:234] Memory required for data: 6684800
I0116 18:04:06.756880 17086 net.cpp:154] Setting up Layer of device :0 @cpu 1 Layer : norm1
I0116 18:04:06.756893 17086 layer_factory.hpp:114] Creating layer norm1
I0116 18:04:06.756919 17086 net.cpp:169] Creating Layer norm1
I0116 18:04:06.756937 17086 net.cpp:606] norm1 <- pool1
I0116 18:04:06.756956 17086 net.cpp:579] norm1 -> norm1
I0116 18:04:06.756970 17086 net.cpp:582] From AppendTop @cpu: 1
I0116 18:04:06.757102 17086 net.cpp:219] Setting up norm1
I0116 18:04:06.757133 17086 net.cpp:226] Top shape: 32 32 16 16 (262144)
I0116 18:04:06.757149 17086 net.cpp:234] Memory required for data: 7733376
I0116 18:04:06.757167 17086 net.cpp:154] Setting up Layer of device :0 @cpu 1 Layer : conv2
I0116 18:04:06.757206 17086 layer_factory.hpp:114] Creating layer conv2
I0116 18:04:06.757236 17086 net.cpp:169] Creating Layer conv2
I0116 18:04:06.757252 17086 net.cpp:606] conv2 <- norm1
I0116 18:04:06.757273 17086 net.cpp:579] conv2 -> conv2
I0116 18:04:06.757287 17086 net.cpp:582] From AppendTop @cpu: 1
I0116 18:04:06.766715 17086 net.cpp:219] Setting up conv2
I0116 18:04:06.766748 17086 net.cpp:226] Top shape: 32 32 16 16 (262144)
I0116 18:04:06.766762 17086 net.cpp:234] Memory required for data: 8781952
I0116 18:04:06.766793 17086 net.cpp:154] Setting up Layer of device :0 @cpu 1 Layer : relu2
I0116 18:04:06.766808 17086 layer_factory.hpp:114] Creating layer relu2
I0116 18:04:06.766826 17086 net.cpp:169] Creating Layer relu2
I0116 18:04:06.766841 17086 net.cpp:606] relu2 <- conv2
I0116 18:04:06.766860 17086 net.cpp:566] relu2 -> conv2 (in-place)
I0116 18:04:06.766880 17086 net.cpp:219] Setting up relu2
I0116 18:04:06.766897 17086 net.cpp:226] Top shape: 32 32 16 16 (262144)
I0116 18:04:06.766911 17086 net.cpp:234] Memory required for data: 9830528
I0116 18:04:06.766926 17086 net.cpp:154] Setting up Layer of device :0 @cpu 1 Layer : pool2
I0116 18:04:06.766938 17086 layer_factory.hpp:114] Creating layer pool2
I0116 18:04:06.766978 17086 net.cpp:169] Creating Layer pool2
I0116 18:04:06.767009 17086 net.cpp:606] pool2 <- conv2
I0116 18:04:06.767030 17086 net.cpp:579] pool2 -> pool2
I0116 18:04:06.767042 17086 net.cpp:582] From AppendTop @cpu: 1
I0116 18:04:06.767066 17086 net.cpp:219] Setting up pool2
I0116 18:04:06.767084 17086 net.cpp:226] Top shape: 32 32 8 8 (65536)
I0116 18:04:06.767098 17086 net.cpp:234] Memory required for data: 10092672
I0116 18:04:06.767114 17086 net.cpp:154] Setting up Layer of device :0 @cpu 1 Layer : norm2
I0116 18:04:06.767127 17086 layer_factory.hpp:114] Creating layer norm2
I0116 18:04:06.767148 17086 net.cpp:169] Creating Layer norm2
I0116 18:04:06.767163 17086 net.cpp:606] norm2 <- pool2
I0116 18:04:06.767182 17086 net.cpp:579] norm2 -> norm2
I0116 18:04:06.767194 17086 net.cpp:582] From AppendTop @cpu: 1
I0116 18:04:06.767285 17086 net.cpp:219] Setting up norm2
I0116 18:04:06.767318 17086 net.cpp:226] Top shape: 32 32 8 8 (65536)
I0116 18:04:06.767333 17086 net.cpp:234] Memory required for data: 10354816
I0116 18:04:06.767349 17086 net.cpp:154] Setting up Layer of device :0 @cpu 1 Layer : conv3
I0116 18:04:06.767362 17086 layer_factory.hpp:114] Creating layer conv3
I0116 18:04:06.767391 17086 net.cpp:169] Creating Layer conv3
I0116 18:04:06.767406 17086 net.cpp:606] conv3 <- norm2
I0116 18:04:06.767426 17086 net.cpp:579] conv3 -> conv3
I0116 18:04:06.767439 17086 net.cpp:582] From AppendTop @cpu: 1
I0116 18:04:06.774906 17086 net.cpp:219] Setting up conv3
I0116 18:04:06.774938 17086 net.cpp:226] Top shape: 32 64 8 8 (131072)
I0116 18:04:06.774951 17086 net.cpp:234] Memory required for data: 10879104
I0116 18:04:06.774981 17086 net.cpp:154] Setting up Layer of device :0 @cpu 1 Layer : relu3
I0116 18:04:06.775024 17086 layer_factory.hpp:114] Creating layer relu3
I0116 18:04:06.775043 17086 net.cpp:169] Creating Layer relu3
I0116 18:04:06.775063 17086 net.cpp:606] relu3 <- conv3
I0116 18:04:06.775080 17086 net.cpp:566] relu3 -> conv3 (in-place)
I0116 18:04:06.775100 17086 net.cpp:219] Setting up relu3
I0116 18:04:06.775116 17086 net.cpp:226] Top shape: 32 64 8 8 (131072)
I0116 18:04:06.775128 17086 net.cpp:234] Memory required for data: 11403392
I0116 18:04:06.775143 17086 net.cpp:154] Setting up Layer of device :0 @cpu 1 Layer : pool3
I0116 18:04:06.775156 17086 layer_factory.hpp:114] Creating layer pool3
I0116 18:04:06.775216 17086 net.cpp:169] Creating Layer pool3
I0116 18:04:06.775233 17086 net.cpp:606] pool3 <- conv3
I0116 18:04:06.775254 17086 net.cpp:579] pool3 -> pool3
I0116 18:04:06.775267 17086 net.cpp:582] From AppendTop @cpu: 1
I0116 18:04:06.775290 17086 net.cpp:219] Setting up pool3
I0116 18:04:06.775306 17086 net.cpp:226] Top shape: 32 64 4 4 (32768)
I0116 18:04:06.775319 17086 net.cpp:234] Memory required for data: 11534464
I0116 18:04:06.775359 17086 net.cpp:154] Setting up Layer of device :0 @cpu 1 Layer : ip1
I0116 18:04:06.775372 17086 layer_factory.hpp:114] Creating layer ip1
I0116 18:04:06.775398 17086 net.cpp:169] Creating Layer ip1
I0116 18:04:06.775411 17086 net.cpp:606] ip1 <- pool3
I0116 18:04:06.775429 17086 net.cpp:579] ip1 -> ip1
I0116 18:04:06.775441 17086 net.cpp:582] From AppendTop @cpu: 1
I0116 18:04:06.776201 17086 net.cpp:219] Setting up ip1
I0116 18:04:06.776226 17086 net.cpp:226] Top shape: 32 10 (320)
I0116 18:04:06.776238 17086 net.cpp:234] Memory required for data: 11535744
I0116 18:04:06.776260 17086 net.cpp:154] Setting up Layer of device :0 @cpu 1 Layer : loss
I0116 18:04:06.776273 17086 layer_factory.hpp:114] Creating layer loss
I0116 18:04:06.776295 17086 net.cpp:169] Creating Layer loss
I0116 18:04:06.776309 17086 net.cpp:606] loss <- ip1
I0116 18:04:06.776324 17086 net.cpp:606] loss <- label
…
I0116 18:04:06.778122 17086 cpu_info.cpp:473] Number of OpenMP threads: 8
I0116 18:04:06.778183 17086 net.cpp:493] The NetState phase (1) differed from the phase (0) specified by a rule in layer cifar
I0116 18:04:06.779036 17086 net.cpp:125] Initializing net from parameters: 
name: "CIFAR10_full"
state {
  phase: TEST
}
layer {
  name: "cifar"
  type: "Data"
  top: "data"
  top: "label"
  include {
    phase: TEST
  }
  transform_param {
    mean_file: "examples/cifar10/mean.binaryproto"
  }
  data_param {
    source: "examples/cifar10/cifar10_test_lmdb"
    batch_size: 100
    backend: LMDB
  }
}
layer {
  name: "label_cifar_1_split"
  type: "Split"
  bottom: "label"
  top: "label_cifar_1_split_0"
  top: "label_cifar_1_split_1"
}
layer {
  name: "conv1"
  type: "Convolution"
  bottom: "data"
  top: "conv1"
  param {
    lr_mult: 1
  }
  param {
    lr_mult: 2
  }
  convolution_param {
    num_output: 32
    pad: 2
    kernel_size: 5
    stride: 1
    weight_filler {
      type: "gaussian"
      std: 0.0001
    }
    bias_filler {
      type: "constant"
    }
  }
}
layer {
  name: "pool1"
  type: "Pooling"
  bottom: "conv1"
  top: "pool1"
  pooling_param {
    pool: MAX
    kernel_size: 3
    stride: 2
  }
}
layer {
  name: "relu1"
  type: "ReLU"
  bottom: "pool1"
  top: "pool1"
}
layer {
  name: "norm1"
  type: "LRN"
  bottom: "pool1"
  top: "norm1"
  lrn_param {
    local_size: 3
    alpha: 5e-05
    beta: 0.75
    norm_region: WITHIN_CHANNEL
  }
}
layer {
  name: "conv2"
  type: "Convolution"
  bottom: "norm1"
  top: "conv2"
  param {
    lr_mult: 1
  }
  param {
    lr_mult: 2
  }
  convolution_param {
    num_output: 32
    pad: 2
    kernel_size: 5
    stride: 1
    weight_filler {
      type: "gaussian"
      std: 0.01
    }
    bias_filler {
      type: "constant"
    }
  }
}
layer {
  name: "relu2"
  type: "ReLU"
  bottom: "conv2"
  top: "conv2"
}
layer {
  name: "pool2"
  type: "Pooling"
  bottom: "conv2"
  top: "pool2"
  pooling_param {
    pool: AVE
    kernel_size: 3
    stride: 2
  }
}
layer {
  name: "norm2"
  type: "LRN"
  bottom: "pool2"
  top: "norm2"
  lrn_param {
    local_size: 3
    alpha: 5e-05
    beta: 0.75
    norm_region: WITHIN_CHANNEL
  }
}
layer {
  name: "conv3"
  type: "Convolution"
  bottom: "norm2"
  top: "conv3"
  convolution_param {
    num_output: 64
    pad: 2
    kernel_size: 5
    stride: 1
    weight_filler {
      type: "gaussian"
      std: 0.01
    }
    bias_filler {
      type: "constant"
    }
  }
}
layer {
  name: "relu3"
  type: "ReLU"
  bottom: "conv3"
  top: "conv3"
}
layer {
  name: "pool3"
  type: "Pooling"
  bottom: "conv3"
  top: "pool3"
  pooling_param {
    pool: AVE
    kernel_size: 3
    stride: 2
  }
}
layer {
  name: "ip1"
  type: "InnerProduct"
  bottom: "pool3"
  top: "ip1"
  param {
    lr_mult: 1
    decay_mult: 250
  }
  param {
    lr_mult: 2
    decay_mult: 0
  }
  inner_product_param {
    num_output: 10
    weight_filler {
      type: "gaussian"
      std: 0.01
    }
    bias_filler {
      type: "constant"
    }
  }
}
layer {
  name: "ip1_ip1_0_split"
  type: "Split"
  bottom: "ip1"
  top: "ip1_ip1_0_split_0"
  top: "ip1_ip1_0_split_1"
}
layer {
  name: "accuracy"
  type: "Accuracy"
  bottom: "ip1_ip1_0_split_0"
  bottom: "label_cifar_1_split_0"
  top: "accuracy"
  include {
    phase: TEST
  }
}
layer {
  name: "loss"
  type: "SoftmaxWithLoss"
  bottom: "ip1_ip1_0_split_1"
  bottom: "label_cifar_1_split_1"
  top: "loss"
}
I0116 18:04:06.779096 17086 net.cpp:154] Setting up Layer of device :0 @cpu 1 Layer : cifar
I0116 18:04:06.779112 17086 layer_factory.hpp:114] Creating layer cifar
I0116 18:04:06.779391 17086 net.cpp:169] Creating Layer cifar
I0116 18:04:06.779454 17086 net.cpp:579] cifar -> data
I0116 18:04:06.779471 17086 net.cpp:582] From AppendTop @cpu: 1
I0116 18:04:06.779502 17086 net.cpp:579] cifar -> label
I0116 18:04:06.779527 17086 net.cpp:582] From AppendTop @cpu: 1
I0116 18:04:06.779542 17088 db_lmdb.cpp:72] Opened lmdb examples/cifar10/cifar10_test_lmdb
I0116 18:04:06.779549 17086 data_transformer.cpp:62] Loading mean file from: examples/cifar10/mean.binaryproto
I0116 18:04:06.779585 17088 virtDev_device.cpp:310] found a CPU core 12 for Data Reader on device 0 thread ID 139696437778176
I0116 18:04:06.779602 17088 data_reader.cpp:128] inside DATAREADER 1
I0116 18:04:06.779616 17088 data_reader.cpp:139] NUMA DOMAIN 0
I0116 18:04:06.780012 17086 data_layer.cpp:80] output data size: 100,3,32,32
I0116 18:04:06.793578 17086 base_data_layer.cpp:96] Done cpu data
I0116 18:04:06.793619 17086 net.cpp:219] Setting up cifar
I0116 18:04:06.793658 17086 net.cpp:226] Top shape: 100 3 32 32 (307200)
I0116 18:04:06.793676 17086 net.cpp:226] Top shape: 100 (100)
I0116 18:04:06.793690 17086 net.cpp:234] Memory required for data: 1229200
I0116 18:04:06.793783 17086 net.cpp:154] Setting up Layer of device :0 @cpu 0 Layer : label_cifar_1_split
I0116 18:04:06.793823 17086 layer_factory.hpp:114] Creating layer label_cifar_1_split
I0116 18:04:06.793879 17086 net.cpp:169] Creating Layer label_cifar_1_split
I0116 18:04:06.793896 17086 net.cpp:606] label_cifar_1_split <- label
I0116 18:04:06.793920 17086 net.cpp:579] label_cifar_1_split -> label_cifar_1_split_0
I0116 18:04:06.793933 17086 net.cpp:582] From AppendTop @cpu: 0
I0116 18:04:06.793962 17086 net.cpp:579] label_cifar_1_split -> label_cifar_1_split_1
I0116 18:04:06.793975 17086 net.cpp:582] From AppendTop @cpu: 0
I0116 18:04:06.794018 17086 net.cpp:219] Setting up label_cifar_1_split
I0116 18:04:06.794041 17086 net.cpp:226] Top shape: 100 (100)
I0116 18:04:06.794057 17086 net.cpp:226] Top shape: 100 (100)
I0116 18:04:06.794070 17086 net.cpp:234] Memory required for data: 1230000
I0116 18:04:06.794088 17086 net.cpp:154] Setting up Layer of device :0 @cpu 0 Layer : conv1
I0116 18:04:06.794101 17086 layer_factory.hpp:114] Creating layer conv1
I0116 18:04:06.794140 17086 net.cpp:169] Creating Layer conv1
I0116 18:04:06.794157 17086 net.cpp:606] conv1 <- data
I0116 18:04:06.794180 17086 net.cpp:579] conv1 -> conv1
I0116 18:04:06.794194 17086 net.cpp:582] From AppendTop @cpu: 0
I0116 18:04:06.797271 17086 net.cpp:219] Setting up conv1
I0116 18:04:06.797315 17086 net.cpp:226] Top shape: 100 32 32 32 (3276800)
I0116 18:04:06.797329 17086 net.cpp:234] Memory required for data: 14337200
I0116 18:04:06.797363 17086 net.cpp:154] Setting up Layer of device :0 @cpu 0 Layer : pool1
I0116 18:04:06.797377 17086 layer_factory.hpp:114] Creating layer pool1
I0116 18:04:06.797430 17086 net.cpp:169] Creating Layer pool1
I0116 18:04:06.797448 17086 net.cpp:606] pool1 <- conv1
I0116 18:04:06.797468 17086 net.cpp:579] pool1 -> pool1
I0116 18:04:06.797482 17086 net.cpp:582] From AppendTop @cpu: 0
I0116 18:04:06.797509 17086 net.cpp:219] Setting up pool1
I0116 18:04:06.797533 17086 net.cpp:226] Top shape: 100 32 16 16 (819200)
I0116 18:04:06.797547 17086 net.cpp:234] Memory required for data: 17614000
I0116 18:04:06.797562 17086 net.cpp:154] Setting up Layer of device :0 @cpu 0 Layer : relu1
I0116 18:04:06.797576 17086 layer_factory.hpp:114] Creating layer relu1
I0116 18:04:06.797595 17086 net.cpp:169] Creating Layer relu1
I0116 18:04:06.797610 17086 net.cpp:606] relu1 <- pool1
I0116 18:04:06.797626 17086 net.cpp:566] relu1 -> pool1 (in-place)
I0116 18:04:06.797646 17086 net.cpp:219] Setting up relu1
I0116 18:04:06.797663 17086 net.cpp:226] Top shape: 100 32 16 16 (819200)
I0116 18:04:06.797677 17086 net.cpp:234] Memory required for data: 20890800
I0116 18:04:06.797691 17086 net.cpp:154] Setting up Layer of device :0 @cpu 0 Layer : norm1
I0116 18:04:06.797704 17086 layer_factory.hpp:114] Creating layer norm1
I0116 18:04:06.797726 17086 net.cpp:169] Creating Layer norm1
I0116 18:04:06.797741 17086 net.cpp:606] norm1 <- pool1
I0116 18:04:06.797760 17086 net.cpp:579] norm1 -> norm1
I0116 18:04:06.797772 17086 net.cpp:582] From AppendTop @cpu: 0
I0116 18:04:06.797855 17086 net.cpp:219] Setting up norm1
I0116 18:04:06.797904 17086 net.cpp:226] Top shape: 100 32 16 16 (819200)
I0116 18:04:06.797917 17086 net.cpp:234] Memory required for data: 24167600
I0116 18:04:06.797933 17086 net.cpp:154] Setting up Layer of device :0 @cpu 0 Layer : conv2
I0116 18:04:06.797947 17086 layer_factory.hpp:114] Creating layer conv2
I0116 18:04:06.797976 17086 net.cpp:169] Creating Layer conv2
I0116 18:04:06.798007 17086 net.cpp:606] conv2 <- norm1
I0116 18:04:06.798032 17086 net.cpp:579] conv2 -> conv2
I0116 18:04:06.798046 17086 net.cpp:582] From AppendTop @cpu: 0
I0116 18:04:06.805745 17086 net.cpp:219] Setting up conv2
I0116 18:04:06.805783 17086 net.cpp:226] Top shape: 100 32 16 16 (819200)
I0116 18:04:06.805796 17086 net.cpp:234] Memory required for data: 27444400
I0116 18:04:06.805824 17086 net.cpp:154] Setting up Layer of device :0 @cpu 0 Layer : relu2
I0116 18:04:06.805837 17086 layer_factory.hpp:114] Creating layer relu2
I0116 18:04:06.805855 17086 net.cpp:169] Creating Layer relu2
I0116 18:04:06.805869 17086 net.cpp:606] relu2 <- conv2
I0116 18:04:06.805891 17086 net.cpp:566] relu2 -> conv2 (in-place)
I0116 18:04:06.805929 17086 net.cpp:219] Setting up relu2
I0116 18:04:06.805946 17086 net.cpp:226] Top shape: 100 32 16 16 (819200)
I0116 18:04:06.805958 17086 net.cpp:234] Memory required for data: 30721200
I0116 18:04:06.805972 17086 net.cpp:154] Setting up Layer of device :0 @cpu 0 Layer : pool2
I0116 18:04:06.805995 17086 layer_factory.hpp:114] Creating layer pool2
I0116 18:04:06.806044 17086 net.cpp:169] Creating Layer pool2
I0116 18:04:06.806061 17086 net.cpp:606] pool2 <- conv2
I0116 18:04:06.806078 17086 net.cpp:579] pool2 -> pool2
I0116 18:04:06.806092 17086 net.cpp:582] From AppendTop @cpu: 0
I0116 18:04:06.806115 17086 net.cpp:219] Setting up pool2
I0116 18:04:06.806134 17086 net.cpp:226] Top shape: 100 32 8 8 (204800)
I0116 18:04:06.806146 17086 net.cpp:234] Memory required for data: 31540400
I0116 18:04:06.806161 17086 net.cpp:154] Setting up Layer of device :0 @cpu 0 Layer : norm2
I0116 18:04:06.806174 17086 layer_factory.hpp:114] Creating layer norm2
I0116 18:04:06.806195 17086 net.cpp:169] Creating Layer norm2
I0116 18:04:06.806210 17086 net.cpp:606] norm2 <- pool2
I0116 18:04:06.806226 17086 net.cpp:579] norm2 -> norm2
I0116 18:04:06.806243 17086 net.cpp:582] From AppendTop @cpu: 0
I0116 18:04:06.806320 17086 net.cpp:219] Setting up norm2
I0116 18:04:06.806342 17086 net.cpp:226] Top shape: 100 32 8 8 (204800)
I0116 18:04:06.806354 17086 net.cpp:234] Memory required for data: 32359600
I0116 18:04:06.806370 17086 net.cpp:154] Setting up Layer of device :0 @cpu 0 Layer : conv3
I0116 18:04:06.806381 17086 layer_factory.hpp:114] Creating layer conv3
I0116 18:04:06.806402 17086 net.cpp:169] Creating Layer conv3
I0116 18:04:06.806416 17086 net.cpp:606] conv3 <- norm2
I0116 18:04:06.806447 17086 net.cpp:579] conv3 -> conv3
I0116 18:04:06.806459 17086 net.cpp:582] From AppendTop @cpu: 0
I0116 18:04:06.813485 17086 net.cpp:219] Setting up conv3
I0116 18:04:06.813514 17086 net.cpp:226] Top shape: 100 64 8 8 (409600)
I0116 18:04:06.813526 17086 net.cpp:234] Memory required for data: 33998000
I0116 18:04:06.813552 17086 net.cpp:154] Setting up Layer of device :0 @cpu 0 Layer : relu3
I0116 18:04:06.813565 17086 layer_factory.hpp:114] Creating layer relu3
I0116 18:04:06.813581 17086 net.cpp:169] Creating Layer relu3
I0116 18:04:06.813594 17086 net.cpp:606] relu3 <- conv3
I0116 18:04:06.813608 17086 net.cpp:566] relu3 -> conv3 (in-place)
I0116 18:04:06.813627 17086 net.cpp:219] Setting up relu3
I0116 18:04:06.813642 17086 net.cpp:226] Top shape: 100 64 8 8 (409600)
I0116 18:04:06.813652 17086 net.cpp:234] Memory required for data: 35636400
I0116 18:04:06.813665 17086 net.cpp:154] Setting up Layer of device :0 @cpu 0 Layer : pool3
I0116 18:04:06.813678 17086 layer_factory.hpp:114] Creating layer pool3
I0116 18:04:06.813717 17086 net.cpp:169] Creating Layer pool3
I0116 18:04:06.813732 17086 net.cpp:606] pool3 <- conv3
I0116 18:04:06.813750 17086 net.cpp:579] pool3 -> pool3
I0116 18:04:06.813760 17086 net.cpp:582] From AppendTop @cpu: 0
I0116 18:04:06.813791 17086 net.cpp:219] Setting up pool3
I0116 18:04:06.813809 17086 net.cpp:226] Top shape: 100 64 4 4 (102400)
I0116 18:04:06.813822 17086 net.cpp:234] Memory required for data: 36046000
I0116 18:04:06.813835 17086 net.cpp:154] Setting up Layer of device :0 @cpu 0 Layer : ip1
I0116 18:04:06.813846 17086 layer_factory.hpp:114] Creating layer ip1
I0116 18:04:06.813874 17086 net.cpp:169] Creating Layer ip1
I0116 18:04:06.813889 17086 net.cpp:606] ip1 <- pool3
I0116 18:04:06.813905 17086 net.cpp:579] ip1 -> ip1
I0116 18:04:06.813917 17086 net.cpp:582] From AppendTop @cpu: 0
I0116 18:04:06.814621 17086 net.cpp:219] Setting up ip1
I0116 18:04:06.814646 17086 net.cpp:226] Top shape: 100 10 (1000)
I0116 18:04:06.814656 17086 net.cpp:234] Memory required for data: 36050000
I0116 18:04:06.814677 17086 net.cpp:154] Setting up Layer of device :0 @cpu 0 Layer : ip1_ip1_0_split
I0116 18:04:06.814689 17086 layer_factory.hpp:114] Creating layer ip1_ip1_0_split
I0116 18:04:06.814713 17086 net.cpp:169] Creating Layer ip1_ip1_0_split
I0116 18:04:06.814726 17086 net.cpp:606] ip1_ip1_0_split <- ip1
I0116 18:04:06.814764 17086 net.cpp:579] ip1_ip1_0_split -> ip1_ip1_0_split_0
I0116 18:04:06.814776 17086 net.cpp:582] From AppendTop @cpu: 0
I0116 18:04:06.814795 17086 net.cpp:579] ip1_ip1_0_split -> ip1_ip1_0_split_1
I0116 18:04:06.814806 17086 net.cpp:582] From AppendTop @cpu: 0
I0116 18:04:06.814824 17086 net.cpp:219] Setting up ip1_ip1_0_split
I0116 18:04:06.814839 17086 net.cpp:226] Top shape: 100 10 (1000)
I0116 18:04:06.814853 17086 net.cpp:226] Top shape: 100 10 (1000)
I0116 18:04:06.814864 17086 net.cpp:234] Memory required for data: 36058000
I0116 18:04:06.814878 17086 net.cpp:154] Setting up Layer of device :0 @cpu 0 Layer : accuracy
I0116 18:04:06.814890 17086 layer_factory.hpp:114] Creating layer accuracy
I0116 18:04:06.814915 17086 net.cpp:169] Creating Layer accuracy
I0116 18:04:06.814929 17086 net.cpp:606] accuracy <- ip1_ip1_0_split_0
I0116 18:04:06.814942 17086 net.cpp:606] accuracy <- label_cifar_1_split_0
…
