…
I0327 09:03:09.859141  2226 net.cpp:484] The NetState phase (0) differed from the phase (1) specified by a rule in layer loss3/top-5
I0327 09:03:09.876480  2226 net.cpp:120] Initializing net from parameters: 
name: "GoogleNet"
state {
  phase: TRAIN
  level: 0
  stage: ""
}
layer {
  name: "data"
  type: "Data"
  top: "data"
  top: "label"
  include {
    phase: TRAIN
  }
  transform_param {
    mirror: true
    crop_size: 224
    mean_value: 104
    mean_value: 117
    mean_value: 123
  }
  data_param {
    source: "/home/user/user/LIBRARIES/caffeLibs/caffe/examples/imagenet/ilsvrc12_train_lmdb"
    batch_size: 48
    backend: LMDB
  }
}
layer {
  name: "label_data_1_split"
  type: "Split"
  bottom: "label"
  top: "label_data_1_split_0"
  top: "label_data_1_split_1"
  top: "label_data_1_split_2"
}
layer {
  name: "conv1/7x7_s2"
  type: "Convolution"
  bottom: "data"
  top: "conv1/7x7_s2"
  param {
    lr_mult: 1
    decay_mult: 1
  }
  param {
    lr_mult: 2
    decay_mult: 0
  }
  convolution_param {
    num_output: 64
    pad: 3
    kernel_size: 7
    stride: 2
    weight_filler {
      type: "xavier"
    }
    bias_filler {
      type: "constant"
      value: 0.2
    }
  }
}
layer {
  name: "conv1/relu_7x7"
  type: "ReLU"
  bottom: "conv1/7x7_s2"
  top: "conv1/7x7_s2"
}
layer {
  name: "pool1/3x3_s2"
  type: "Pooling"
  bottom: "conv1/7x7_s2"
  top: "pool1/3x3_s2"
  pooling_param {
    pool: MAX
    kernel_size: 3
    stride: 2
  }
}
layer {
  name: "pool1/norm1"
  type: "LRN"
  bottom: "pool1/3x3_s2"
  top: "pool1/norm1"
  lrn_param {
    local_size: 5
    alpha: 0.0001
    beta: 0.75
  }
}
layer {
  name: "conv2/3x3_reduce"
  type: "Convolution"
  bottom: "pool1/norm1"
  top: "conv2/3x3_reduce"
  param {
    lr_mult: 1
    decay_mult: 1
  }
  param {
    lr_mult: 2
    decay_mult: 0
  }
  convolution_param {
    num_output: 64
    kernel_size: 1
    weight_filler {
      type: "xavier"
    }
    bias_filler {
      type: "constant"
      value: 0.2
    }
  }
}
layer {
  name: "conv2/relu_3x3_reduce"
  type: "ReLU"
  bottom: "conv2/3x3_reduce"
  top: "conv2/3x3_reduce"
}
layer {
  name: "conv2/3x3"
  type: "Convolution"
  bottom: "conv2/3x3_reduce"
  top: "conv2/3x3"
  param {
    lr_mult: 1
    decay_mult: 1
  }
  param {
    lr_mult: 2
    decay_mult: 0
  }
  convolution_param {
    num_output: 192
    pad: 1
    kernel_size: 3
    weight_filler {
      type: "xavier"
    }
    bias_filler {
      type: "constant"
      value: 0.2
    }
  }
}
layer {
  name: "conv2/relu_3x3"
  type: "ReLU"
  bottom: "conv2/3x3"
  top: "conv2/3x3"
}
layer {
  name: "conv2/norm2"
  type: "LRN"
  bottom: "conv2/3x3"
  top: "conv2/norm2"
  lrn_param {
    local_size: 5
    alpha: 0.0001
    beta: 0.75
  }
}
layer {
  name: "pool2/3x3_s2"
  type: "Pooling"
  bottom: "conv2/norm2"
  top: "pool2/3x3_s2"
  pooling_param {
    pool: MAX
    kernel_size: 3
    stride: 2
  }
}
layer {
  name: "pool2/3x3_s2_pool2/3x3_s2_0_split"
  type: "Split"
  bottom: "pool2/3x3_s2"
  top: "pool2/3x3_s2_pool2/3x3_s2_0_split_0"
  top: "pool2/3x3_s2_pool2/3x3_s2_0_split_1"
  top: "pool2/3x3_s2_pool2/3x3_s2_0_split_2"
  top: "pool2/3x3_s2_pool2/3x3_s2_0_split_3"
}
layer {
  name: "inception_3a/1x1"
  type: "Convolution"
  bottom: "pool2/3x3_s2_pool2/3x3_s2_0_split_0"
  top: "inception_3a/1x1"
  param {
    lr_mult: 1
    decay_mult: 1
  }
  param {
    lr_mult: 2
    decay_mult: 0
  }
  convolution_param {
    num_output: 64
    kernel_size: 1
    weight_filler {
      type: "xavier"
    }
    bias_filler {
      type: "constant"
      value: 0.2
    }
  }
}
layer {
  name: "inception_3a/relu_1x1"
  type: "ReLU"
  bottom: "inception_3a/1x1"
  top: "inception_3a/1x1"
}
layer {
  name: "inception_3a/3x3_reduce"
  type: "Convolution"
  bottom: "pool2/3x3_s2_pool2/3x3_s2_0_split_1"
  top: "inception_3a/3x3_reduce"
  param {
    lr_mult: 1
    decay_mult: 1
  }
  param {
    lr_mult: 2
    decay_mult: 0
  }
  convolution_param {
    num_output: 96
    kernel_size: 1
    weight_filler {
      type: "xavier"
    }
    bias_filler {
      type: "constant"
      value: 0.2
    }
  }
}
layer {
  name: "inception_3a/relu_3x3_reduce"
  type: "ReLU"
  bottom: "inception_3a/3x3_reduce"
  top: "inception_3a/3x3_reduce"
}
layer {
  name: "inception_3a/3x3"
  type: "Convolution"
  bottom: "inception_3a/3x3_reduce"
  top: "inception_3a/3x3"
  param {
    lr_mult: 1
    decay_mult: 1
  }
  param {
    lr_mult: 2
    decay_mult: 0
  }
  convolution_param {
    num_output: 128
    pad: 1
    kernel_size: 3
    weight_filler {
      type: "xavier"
    }
    bias_filler {
      type: "constant"
      value: 0.2
    }
  }
}
layer {
  name: "inception_3a/relu_3x3"
  type: "ReLU"
  bottom: "inception_3a/3x3"
  top: "inception_3a/3x3"
}
layer {
  name: "inception_3a/5x5_reduce"
  type: "Convolution"
  bottom: "pool2/3x3_s2_pool2/3x3_s2_0_split_2"
  top: "inception_3a/5x5_reduce"
  param {
    lr_mult: 1
    decay_mult: 1
  }
  param {
    lr_mult: 2
    decay_mult: 0
  }
  convolution_param {
    num_output: 16
    kernel_size: 1
    weight_filler {
      type: "xavier"
    }
    bias_filler {
      type: "constant"
      value: 0.2
    }
  }
}
layer {
  name: "inception_3a/relu_5x5_reduce"
  type: "ReLU"
  bottom: "inception_3a/5x5_reduce"
  top: "inception_3a/5x5_reduce"
}
layer {
  name: "inception_3a/5x5"
  type: "Convolution"
  bottom: "inception_3a/5x5_reduce"
  top: "inception_3a/5x5"
  param {
    lr_mult: 1
    decay_mult: 1
  }
  param {
    lr_mult: 2
    decay_mult: 0
  }
  convolution_param {
    num_output: 32
    pad: 2
    kernel_size: 5
    weight_filler {
      type: "xavier"
    }
    bias_filler {
      type: "constant"
      value: 0.2
    }
  }
}
layer {
  name: "inception_3a/relu_5x5"
  type: "ReLU"
  bottom: "inception_3a/5x5"
  top: "inception_3a/5x5"
}
layer {
  name: "inception_3a/pool"
  type: "Pooling"
  bottom: "pool2/3x3_s2_pool2/3x3_s2_0_split_3"
  top: "inception_3a/pool"
  pooling_param {
    pool: MAX
    kernel_size: 3
    stride: 1
    pad: 1
  }
}
layer {
  name: "inception_3a/pool_proj"
  type: "Convolution"
  bottom: "inception_3a/pool"
  top: "inception_3a/pool_proj"
  param {
    lr_mult: 1
    decay_mult: 1
  }
  param {
    lr_mult: 2
    decay_mult: 0
  }
  convolution_param {
    num_output: 32
    kernel_size: 1
    weight_filler {
      type: "xavier"
    }
    bias_filler {
      type: "constant"
      value: 0.2
    }
  }
}
layer {
  name: "inception_3a/relu_pool_proj"
  type: "ReLU"
  bottom: "inception_3a/pool_proj"
  top: "inception_3a/pool_proj"
}
layer {
  name: "inception_3a/output"
  type: "Concat"
  bottom: "inception_3a/1x1"
  bottom: "inception_3a/3x3"
  bottom: "inception_3a/5x5"
  bottom: "inception_3a/pool_proj"
  top: "inception_3a/output"
}
layer {
  name: "inception_3a/output_inception_3a/output_0_split"
  type: "Split"
  bottom: "inception_3a/output"
  top: "inception_3a/output_inception_3a/output_0_split_0"
  top: "inception_3a/output_inception_3a/output_0_split_1"
  top: "inception_3a/output_inception_3a/output_0_split_2"
  top: "inception_3a/output_inception_3a/output_0_split_3"
}
layer {
  name: "inception_3b/1x1"
  type: "Convolution"
  bottom: "inception_3a/output_inception_3a/output_0_split_0"
  top: "inception_3b/1x1"
  param {
    lr_mult: 1
    decay_mult: 1
  }
  param {
    lr_mult: 2
    decay_mult: 0
  }
  convolution_param {
    num_output: 128
    kernel_size: 1
    weight_filler {
      type: "xavier"
    }
    bias_filler {
      type: "constant"
      value: 0.2
    }
  }
}
layer {
  name: "inception_3b/relu_1x1"
  type: "ReLU"
  bottom: "inception_3b/1x1"
  top: "inception_3b/1x1"
}
layer {
  name: "inception_3b/3x3_reduce"
  type: "Convolution"
  bottom: "inception_3a/output_inception_3a/output_0_split_1"
  top: "inception_3b/3x3_reduce"
  param {
    lr_mult: 1
    decay_mult: 1
  }
  param {
    lr_mult: 2
    decay_mult: 0
  }
  convolution_param {
    num_output: 128
    kernel_size: 1
    weight_filler {
      type: "xavier"
    }
    bias_filler {
      type: "constant"
      value: 0.2
    }
  }
}
layer {
  name: "inception_3b/relu_3x3_reduce"
  type: "ReLU"
  bottom: "inception_3b/3x3_reduce"
  top: "inception_3b/3x3_reduce"
}
layer {
  name: "inception_3b/3x3"
  type: "Convolution"
  bottom: "inception_3b/3x3_reduce"
  top: "inception_3b/3x3"
  param {
    lr_mult: 1
    decay_mult: 1
  }
  param {
    lr_mult: 2
    decay_mult: 0
  }
  convolution_param {
    num_output: 192
    pad: 1
    kernel_size: 3
    weight_filler {
      type: "xavier"
    }
    bias_filler {
      type: "constant"
      value: 0.2
    }
  }
}
layer {
  name: "inception_3b/relu_3x3"
  type: "ReLU"
  bottom: "inception_3b/3x3"
  top: "inception_3b/3x3"
}
layer {
  name: "inception_3b/5x5_reduce"
  type: "Convolution"
  bottom: "inception_3a/output_inception_3a/output_0_split_2"
  top: "inception_3b/5x5_reduce"
  param {
    lr_mult: 1
    decay_mult: 1
  }
  param {
    lr_mult: 2
    decay_mult: 0
  }
  convolution_param {
    num_output: 32
    kernel_size: 1
    weight_filler {
      type: "xavier"
    }
    bias_filler {
      type: "constant"
      value: 0.2
    }
  }
}
layer {
  name: "inception_3b/relu_5x5_reduce"
  type: "ReLU"
  bottom: "inception_3b/5x5_reduce"
  top: "inception_3b/5x5_reduce"
}
layer {
  name: "inception_3b/5x5"
  type: "Convolution"
  bottom: "inception_3b/5x5_reduce"
  top: "inception_3b/5x5"
  param {
    lr_mult: 1
    decay_mult: 1
  }
  param {
    lr_mult: 2
    decay_mult: 0
  }
  convolution_param {
    num_output: 96
    pad: 2
    kernel_size: 5
    weight_filler {
      type: "xavier"
    }
    bias_filler {
      type: "constant"
      value: 0.2
    }
  }
}
layer {
  name: "inception_3b/relu_5x5"
  type: "ReLU"
  bottom: "inception_3b/5x5"
  top: "inception_3b/5x5"
}
layer {
  name: "inception_3b/pool"
  type: "Pooling"
  bottom: "inception_3a/output_inception_3a/output_0_split_3"
  top: "inception_3b/pool"
  pooling_param {
    pool: MAX
    kernel_size: 3
    stride: 1
    pad: 1
  }
}
layer {
  name: "inception_3b/pool_proj"
  type: "Convolution"
  bottom: "inception_3b/pool"
  top: "inception_3b/pool_proj"
  param {
    lr_mult: 1
    decay_mult: 1
  }
  param {
    lr_mult: 2
    decay_mult: 0
  }
  convolution_param {
    num_output: 64
    kernel_size: 1
    weight_filler {
      type: "xavier"
    }
    bias_filler {
      type: "constant"
      value: 0.2
    }
  }
}
layer {
  name: "inception_3b/relu_pool_proj"
  type: "ReLU"
  bottom: "inception_3b/pool_proj"
  top: "inception_3b/pool_proj"
}
layer {
  name: "inception_3b/output"
  type: "Concat"
  bottom: "inception_3b/1x1"
  bottom: "inception_3b/3x3"
  bottom: "inception_3b/5x5"
  bottom: "inception_3b/pool_proj"
  top: "inception_3b/output"
}
layer {
  name: "pool3/3x3_s2"
  type: "Pooling"
  bottom: "inception_3b/output"
  top: "pool3/3x3_s2"
  pooling_param {
    pool: MAX
    kernel_size: 3
    stride: 2
  }
}
layer {
  name: "pool3/3x3_s2_pool3/3x3_s2_0_split"
  type: "Split"
  bottom: "pool3/3x3_s2"
  top: "pool3/3x3_s2_pool3/3x3_s2_0_split_0"
  top: "pool3/3x3_s2_pool3/3x3_s2_0_split_1"
  top: "pool3/3x3_s2_pool3/3x3_s2_0_split_2"
  top: "pool3/3x3_s2_pool3/3x3_s2_0_split_3"
}
layer {
  name: "inception_4a/1x1"
  type: "Convolution"
  bottom: "pool3/3x3_s2_pool3/3x3_s2_0_split_0"
  top: "inception_4a/1x1"
  param {
    lr_mult: 1
    decay_mult: 1
  }
  param {
    lr_mult: 2
    decay_mult: 0
  }
  convolution_param {
    num_output: 192
    kernel_size: 1
    weight_filler {
      type: "xavier"
    }
    bias_filler {
      type: "constant"
      value: 0.2
    }
  }
}
layer {
  name: "inception_4a/relu_1x1"
  type: "ReLU"
  bottom: "inception_4a/1x1"
  top: "inception_4a/1x1"
}
layer {
  name: "inception_4a/3x3_reduce"
  type: "Convolution"
  bottom: "pool3/3x3_s2_pool3/3x3_s2_0_split_1"
  top: "inception_4a/3x3_reduce"
  param {
    lr_mult: 1
    decay_mult: 1
  }
  param {
    lr_mult: 2
    decay_mult: 0
  }
  convolution_param {
    num_output: 96
    kernel_size: 1
    weight_filler {
      type: "xavier"
    }
    bias_filler {
      type: "constant"
      value: 0.2
    }
  }
}
layer {
  name: "inception_4a/relu_3x3_reduce"
  type: "ReLU"
  bottom: "inception_4a/3x3_reduce"
  top: "inception_4a/3x3_reduce"
}
layer {
  name: "inception_4a/3x3"
  type: "Convolution"
  bottom: "inception_4a/3x3_reduce"
  top: "inception_4a/3x3"
  param {
    lr_mult: 1
    decay_mult: 1
  }
  param {
    lr_mult: 2
    decay_mult: 0
  }
  convolution_param {
    num_output: 208
    pad: 1
    kernel_size: 3
    weight_filler {
      type: "xavier"
    }
    bias_filler {
      type: "constant"
      value: 0.2
    }
  }
}
layer {
  name: "inception_4a/relu_3x3"
  type: "ReLU"
  bottom: "inception_4a/3x3"
  top: "inception_4a/3x3"
}
layer {
  name: "inception_4a/5x5_reduce"
  type: "Convolution"
  bottom: "pool3/3x3_s2_pool3/3x3_s2_0_split_2"
  top: "inception_4a/5x5_reduce"
  param {
    lr_mult: 1
    decay_mult: 1
  }
  param {
    lr_mult: 2
    decay_mult: 0
  }
  convolution_param {
    num_output: 16
    kernel_size: 1
    weight_filler {
      type: "xavier"
    }
    bias_filler {
      type: "constant"
      value: 0.2
    }
  }
}
layer {
  name: "inception_4a/relu_5x5_reduce"
  type: "ReLU"
  bottom: "inception_4a/5x5_reduce"
  top: "inception_4a/5x5_reduce"
}
layer {
  name: "inception_4a/5x5"
  type: "Convolution"
  bottom: "inception_4a/5x5_reduce"
  top: "inception_4a/5x5"
  param {
    lr_mult: 1
    decay_mult: 1
  }
  param {
    lr_mult: 2
    decay_mult: 0
  }
  convolution_param {
    num_output: 48
    pad: 2
    kernel_size: 5
    weight_filler {
      type: "xavier"
    }
    bias_filler {
      type: "constant"
      value: 0.2
    }
  }
}
layer {
  name: "inception_4a/relu_5x5"
  type: "ReLU"
  bottom: "inception_4a/5x5"
  top: "inception_4a/5x5"
}
layer {
  name: "inception_4a/pool"
  type: "Pooling"
  bottom: "pool3/3x3_s2_pool3/3x3_s2_0_split_3"
  top: "inception_4a/pool"
  pooling_param {
    pool: MAX
    kernel_size: 3
    stride: 1
    pad: 1
  }
}
layer {
  name: "inception_4a/pool_proj"
  type: "Convolution"
  bottom: "inception_4a/pool"
  top: "inception_4a/pool_proj"
  param {
    lr_mult: 1
    decay_mult: 1
  }
  param {
    lr_mult: 2
    decay_mult: 0
  }
  convolution_param {
    num_output: 64
    kernel_size: 1
    weight_filler {
      type: "xavier"
    }
    bias_filler {
      type: "constant"
      value: 0.2
    }
  }
}
layer {
  name: "inception_4a/relu_pool_proj"
  type: "ReLU"
  bottom: "inception_4a/pool_proj"
  top: "inception_4a/pool_proj"
}
layer {
  name: "inception_4a/output"
  type: "Concat"
  bottom: "inception_4a/1x1"
  bottom: "inception_4a/3x3"
  bottom: "inception_4a/5x5"
  bottom: "inception_4a/pool_proj"
  top: "inception_4a/output"
}
layer {
  name: "inception_4a/output_inception_4a/output_0_split"
  type: "Split"
  bottom: "inception_4a/output"
  top: "inception_4a/output_inception_4a/output_0_split_0"
  top: "inception_4a/output_inception_4a/output_0_split_1"
  top: "inception_4a/output_inception_4a/output_0_split_2"
  top: "inception_4a/output_inception_4a/output_0_split_3"
  top: "inception_4a/output_inception_4a/output_0_split_4"
}
layer {
  name: "loss1/ave_pool"
  type: "Pooling"
  bottom: "inception_4a/output_inception_4a/output_0_split_0"
  top: "loss1/ave_pool"
  pooling_param {
    pool: AVE
    kernel_size: 5
    stride: 3
  }
}
layer {
  name: "loss1/conv"
  type: "Convolution"
  bottom: "loss1/ave_pool"
  top: "loss1/conv"
  param {
    lr_mult: 1
    decay_mult: 1
  }
  param {
    lr_mult: 2
    decay_mult: 0
  }
  convolution_param {
    num_output: 128
    kernel_size: 1
    weight_filler {
      type: "xavier"
    }
    bias_filler {
      type: "constant"
      value: 0.2
    }
  }
}
layer {
  name: "loss1/relu_conv"
  type: "ReLU"
  bottom: "loss1/conv"
  top: "loss1/conv"
}
layer {
  name: "loss1/fc"
  type: "InnerProduct"
  bottom: "loss1/conv"
  top: "loss1/fc"
  param {
    lr_mult: 1
    decay_mult: 1
  }
  param {
    lr_mult: 2
    decay_mult: 0
  }
  inner_product_param {
    num_output: 1024
    weight_filler {
      type: "xavier"
    }
    bias_filler {
      type: "constant"
      value: 0.2
    }
  }
}
layer {
  name: "loss1/relu_fc"
  type: "ReLU"
  bottom: "loss1/fc"
  top: "loss1/fc"
}
layer {
  name: "loss1/drop_fc"
  type: "Dropout"
  bottom: "loss1/fc"
  top: "loss1/fc"
  dropout_param {
    dropout_ratio: 0.7
  }
}
layer {
  name: "loss1/classifier"
  type: "InnerProduct"
  bottom: "loss1/fc"
  top: "loss1/classifier"
  param {
    lr_mult: 1
    decay_mult: 1
  }
  param {
    lr_mult: 2
    decay_mult: 0
  }
  inner_product_param {
    num_output: 1000
    weight_filler {
      type: "xavier"
    }
    bias_filler {
      type: "constant"
      value: 0
    }
  }
}
layer {
  name: "loss1/loss"
  type: "SoftmaxWithLoss"
  bottom: "loss1/classifier"
  bottom: "label_data_1_split_0"
  top: "loss1/loss1"
  loss_weight: 0.3
}
layer {
  name: "inception_4b/1x1"
  type: "Convolution"
  bottom: "inception_4a/output_inception_4a/output_0_split_1"
  top: "inception_4b/1x1"
  param {
    lr_mult: 1
    decay_mult: 1
  }
  param {
    lr_mult: 2
    decay_mult: 0
  }
  convolution_param {
    num_output: 160
    kernel_size: 1
    weight_filler {
      type: "xavier"
    }
    bias_filler {
      type: "constant"
      value: 0.2
    }
  }
}
layer {
  name: "inception_4b/relu_1x1"
  type: "ReLU"
  bottom: "inception_4b/1x1"
  top: "inception_4b/1x1"
}
layer {
  name: "inception_4b/3x3_reduce"
  type: "Convolution"
  bottom: "inception_4a/output_inception_4a/output_0_split_2"
  top: "inception_4b/3x3_reduce"
  param {
    lr_mult: 1
    decay_mult: 1
  }
  param {
    lr_mult: 2
    decay_mult: 0
  }
  convolution_param {
    num_output: 112
    kernel_size: 1
    weight_filler {
      type: "xavier"
    }
    bias_filler {
      type: "constant"
      value: 0.2
    }
  }
}
layer {
  name: "inception_4b/relu_3x3_reduce"
  type: "ReLU"
  bottom: "inception_4b/3x3_reduce"
  top: "inception_4b/3x3_reduce"
}
layer {
  name: "inception_4b/3x3"
  type: "Convolution"
  bottom: "inception_4b/3x3_reduce"
  top: "inception_4b/3x3"
  param {
    lr_mult: 1
    decay_mult: 1
  }
  param {
    lr_mult: 2
    decay_mult: 0
  }
  convolution_param {
    num_output: 224
    pad: 1
    kernel_size: 3
    weight_filler {
      type: "xavier"
    }
    bias_filler {
      type: "constant"
      value: 0.2
    }
  }
}
layer {
  name: "inception_4b/relu_3x3"
  type: "ReLU"
  bottom: "inception_4b/3x3"
  top: "inception_4b/3x3"
}
layer {
  name: "inception_4b/5x5_reduce"
  type: "Convolution"
  bottom: "inception_4a/output_inception_4a/output_0_split_3"
  top: "inception_4b/5x5_reduce"
  param {
    lr_mult: 1
    decay_mult: 1
  }
  param {
    lr_mult: 2
    decay_mult: 0
  }
  convolution_param {
    num_output: 24
    kernel_size: 1
    weight_filler {
      type: "xavier"
    }
    bias_filler {
      type: "constant"
      value: 0.2
    }
  }
}
layer {
  name: "inception_4b/relu_5x5_reduce"
  type: "ReLU"
  bottom: "inception_4b/5x5_reduce"
  top: "inception_4b/5x5_reduce"
}
layer {
  name: "inception_4b/5x5"
  type: "Convolution"
  bottom: "inception_4b/5x5_reduce"
  top: "inception_4b/5x5"
  param {
    lr_mult: 1
    decay_mult: 1
  }
  param {
    lr_mult: 2
    decay_mult: 0
  }
  convolution_param {
    num_output: 64
    pad: 2
    kernel_size: 5
    weight_filler {
      type: "xavier"
    }
    bias_filler {
      type: "constant"
      value: 0.2
    }
  }
}
layer {
  name: "inception_4b/relu_5x5"
  type: "ReLU"
  bottom: "inception_4b/5x5"
  top: "inception_4b/5x5"
}
layer {
  name: "inception_4b/pool"
  type: "Pooling"
  bottom: "inception_4a/output_inception_4a/output_0_split_4"
  top: "inception_4b/pool"
  pooling_param {
    pool: MAX
    kernel_size: 3
    stride: 1
    pad: 1
  }
}
layer {
  name: "inception_4b/pool_proj"
  type: "Convolution"
  bottom: "inception_4b/pool"
  top: "inception_4b/pool_proj"
  param {
    lr_mult: 1
    decay_mult: 1
  }
  param {
    lr_mult: 2
    decay_mult: 0
  }
  convolution_param {
    num_output: 64
    kernel_size: 1
    weight_filler {
      type: "xavier"
    }
    bias_filler {
      type: "constant"
      value: 0.2
    }
  }
}
layer {
  name: "inception_4b/relu_pool_proj"
  type: "ReLU"
  bottom: "inception_4b/pool_proj"
  top: "inception_4b/pool_proj"
}
layer {
  name: "inception_4b/output"
  type: "Concat"
  bottom: "inception_4b/1x1"
  bottom: "inception_4b/3x3"
  bottom: "inception_4b/5x5"
  bottom: "inception_4b/pool_proj"
  top: "inception_4b/output"
}
layer {
  name: "inception_4b/output_inception_4b/output_0_split"
  type: "Split"
  bottom: "inception_4b/output"
  top: "inception_4b/output_inception_4b/output_0_split_0"
  top: "inception_4b/output_inception_4b/output_0_split_1"
  top: "inception_4b/output_inception_4b/output_0_split_2"
  top: "inception_4b/output_inception_4b/output_0_split_3"
}
layer {
  name: "inception_4c/1x1"
  type: "Convolution"
  bottom: "inception_4b/output_inception_4b/output_0_split_0"
  top: "inception_4c/1x1"
  param {
    lr_mult: 1
    decay_mult: 1
  }
  param {
    lr_mult: 2
    decay_mult: 0
  }
  convolution_param {
    num_output: 128
    kernel_size: 1
    weight_filler {
      type: "xavier"
    }
    bias_filler {
      type: "constant"
      value: 0.2
    }
  }
}
layer {
  name: "inception_4c/relu_1x1"
  type: "ReLU"
  bottom: "inception_4c/1x1"
  top: "inception_4c/1x1"
}
layer {
  name: "inception_4c/3x3_reduce"
  type: "Convolution"
  bottom: "inception_4b/output_inception_4b/output_0_split_1"
  top: "inception_4c/3x3_reduce"
  param {
    lr_mult: 1
    decay_mult: 1
  }
  param {
    lr_mult: 2
    decay_mult: 0
  }
  convolution_param {
    num_output: 128
    kernel_size: 1
    weight_filler {
      type: "xavier"
    }
    bias_filler {
      type: "constant"
      value: 0.2
    }
  }
}
layer {
  name: "inception_4c/relu_3x3_reduce"
  type: "ReLU"
  bottom: "inception_4c/3x3_reduce"
  top: "inception_4c/3x3_reduce"
}
layer {
  name: "inception_4c/3x3"
  type: "Convolution"
  bottom: "inception_4c/3x3_reduce"
  top: "inception_4c/3x3"
  param {
    lr_mult: 1
    decay_mult: 1
  }
  param {
    lr_mult: 2
    decay_mult: 0
  }
  convolution_param {
    num_output: 256
    pad: 1
    kernel_size: 3
    weight_filler {
      type: "xavier"
    }
    bias_filler {
      type: "constant"
      value: 0.2
    }
  }
}
layer {
  name: "inception_4c/relu_3x3"
  type: "ReLU"
  bottom: "inception_4c/3x3"
  top: "inception_4c/3x3"
}
layer {
  name: "inception_4c/5x5_reduce"
  type: "Convolution"
  bottom: "inception_4b/output_inception_4b/output_0_split_2"
  top: "inception_4c/5x5_reduce"
  param {
    lr_mult: 1
    decay_mult: 1
  }
  param {
    lr_mult: 2
    decay_mult: 0
  }
  convolution_param {
    num_output: 24
    kernel_size: 1
    weight_filler {
      type: "xavier"
    }
    bias_filler {
      type: "constant"
      value: 0.2
    }
  }
}
layer {
  name: "inception_4c/relu_5x5_reduce"
  type: "ReLU"
  bottom: "inception_4c/5x5_reduce"
  top: "inception_4c/5x5_reduce"
}
layer {
  name: "inception_4c/5x5"
  type: "Convolution"
  bottom: "inception_4c/5x5_reduce"
  top: "inception_4c/5x5"
  param {
    lr_mult: 1
    decay_mult: 1
  }
  param {
    lr_mult: 2
    decay_mult: 0
  }
  convolution_param {
    num_output: 64
    pad: 2
    kernel_size: 5
    weight_filler {
      type: "xavier"
    }
    bias_filler {
      type: "constant"
      value: 0.2
    }
  }
}
layer {
  name: "inception_4c/relu_5x5"
  type: "ReLU"
  bottom: "inception_4c/5x5"
  top: "inception_4c/5x5"
}
layer {
  name: "inception_4c/pool"
  type: "Pooling"
  bottom: "inception_4b/output_inception_4b/output_0_split_3"
  top: "inception_4c/pool"
  pooling_param {
    pool: MAX
    kernel_size: 3
    stride: 1
    pad: 1
  }
}
layer {
  name: "inception_4c/pool_proj"
  type: "Convolution"
  bottom: "inception_4c/pool"
  top: "inception_4c/pool_proj"
  param {
    lr_mult: 1
    decay_mult: 1
  }
  param {
    lr_mult: 2
    decay_mult: 0
  }
  convolution_param {
    num_output: 64
    kernel_size: 1
    weight_filler {
      type: "xavier"
    }
    bias_filler {
      type: "constant"
      value: 0.2
    }
  }
}
layer {
  name: "inception_4c/relu_pool_proj"
  type: "ReLU"
  bottom: "inception_4c/pool_proj"
  top: "inception_4c/pool_proj"
}
layer {
  name: "inception_4c/output"
  type: "Concat"
  bottom: "inception_4c/1x1"
  bottom: "inception_4c/3x3"
  bottom: "inception_4c/5x5"
  bottom: "inception_4c/pool_proj"
  top: "inception_4c/output"
}
layer {
  name: "inception_4c/output_inception_4c/output_0_split"
  type: "Split"
  bottom: "inception_4c/output"
  top: "inception_4c/output_inception_4c/output_0_split_0"
  top: "inception_4c/output_inception_4c/output_0_split_1"
  top: "inception_4c/output_inception_4c/output_0_split_2"
  top: "inception_4c/output_inception_4c/output_0_split_3"
}
layer {
  name: "inception_4d/1x1"
  type: "Convolution"
  bottom: "inception_4c/output_inception_4c/output_0_split_0"
  top: "inception_4d/1x1"
  param {
    lr_mult: 1
    decay_mult: 1
  }
  param {
    lr_mult: 2
    decay_mult: 0
  }
  convolution_param {
    num_output: 112
    kernel_size: 1
    weight_filler {
      type: "xavier"
    }
    bias_filler {
      type: "constant"
      value: 0.2
    }
  }
}
layer {
  name: "inception_4d/relu_1x1"
  type: "ReLU"
  bottom: "inception_4d/1x1"
  top: "inception_4d/1x1"
}
layer {
  name: "inception_4d/3x3_reduce"
  type: "Convolution"
  bottom: "inception_4c/output_inception_4c/output_0_split_1"
  top: "inception_4d/3x3_reduce"
  param {
    lr_mult: 1
    decay_mult: 1
  }
  param {
    lr_mult: 2
    decay_mult: 0
  }
  convolution_param {
    num_output: 144
    kernel_size: 1
    weight_filler {
      type: "xavier"
    }
    bias_filler {
      type: "constant"
      value: 0.2
    }
  }
}
layer {
  name: "inception_4d/relu_3x3_reduce"
  type: "ReLU"
  bottom: "inception_4d/3x3_reduce"
  top: "inception_4d/3x3_reduce"
}
layer {
  name: "inception_4d/3x3"
  type: "Convolution"
  bottom: "inception_4d/3x3_reduce"
  top: "inception_4d/3x3"
  param {
    lr_mult: 1
    decay_mult: 1
  }
  param {
    lr_mult: 2
    decay_mult: 0
  }
  convolution_param {
    num_output: 288
    pad: 1
    kernel_size: 3
    weight_filler {
      type: "xavier"
    }
    bias_filler {
      type: "constant"
      value: 0.2
    }
  }
}
layer {
  name: "inception_4d/relu_3x3"
  type: "ReLU"
  bottom: "inception_4d/3x3"
  top: "inception_4d/3x3"
}
layer {
  name: "inception_4d/5x5_reduce"
  type: "Convolution"
  bottom: "inception_4c/output_inception_4c/output_0_split_2"
  top: "inception_4d/5x5_reduce"
  param {
    lr_mult: 1
    decay_mult: 1
  }
  param {
    lr_mult: 2
    decay_mult: 0
  }
  convolution_param {
    num_output: 32
    kernel_size: 1
    weight_filler {
      type: "xavier"
    }
    bias_filler {
      type: "constant"
      value: 0.2
    }
  }
}
layer {
  name: "inception_4d/relu_5x5_reduce"
  type: "ReLU"
  bottom: "inception_4d/5x5_reduce"
  top: "inception_4d/5x5_reduce"
}
layer {
  name: "inception_4d/5x5"
  type: "Convolution"
  bottom: "inception_4d/5x5_reduce"
  top: "inception_4d/5x5"
  param {
    lr_mult: 1
    decay_mult: 1
  }
  param {
    lr_mult: 2
    decay_mult: 0
  }
  convolution_param {
    num_output: 64
    pad: 2
    kernel_size: 5
    weight_filler {
      type: "xavier"
    }
    bias_filler {
      type: "constant"
      value: 0.2
    }
  }
}
layer {
  name: "inception_4d/relu_5x5"
  type: "ReLU"
  bottom: "inception_4d/5x5"
  top: "inception_4d/5x5"
}
layer {
  name: "inception_4d/pool"
  type: "Pooling"
  bottom: "inception_4c/output_inception_4c/output_0_split_3"
  top: "inception_4d/pool"
  pooling_param {
    pool: MAX
    kernel_size: 3
    stride: 1
    pad: 1
  }
}
layer {
  name: "inception_4d/pool_proj"
  type: "Convolution"
  bottom: "inception_4d/pool"
  top: "inception_4d/pool_proj"
  param {
    lr_mult: 1
    decay_mult: 1
  }
  param {
    lr_mult: 2
    decay_mult: 0
  }
  convolution_param {
    num_output: 64
    kernel_size: 1
    weight_filler {
      type: "xavier"
    }
    bias_filler {
      type: "constant"
      value: 0.2
    }
  }
}
layer {
  name: "inception_4d/relu_pool_proj"
  type: "ReLU"
  bottom: "inception_4d/pool_proj"
  top: "inception_4d/pool_proj"
}
layer {
  name: "inception_4d/output"
  type: "Concat"
  bottom: "inception_4d/1x1"
  bottom: "inception_4d/3x3"
  bottom: "inception_4d/5x5"
  bottom: "inception_4d/pool_proj"
  top: "inception_4d/output"
}
layer {
  name: "inception_4d/output_inception_4d/output_0_split"
  type: "Split"
  bottom: "inception_4d/output"
  top: "inception_4d/output_inception_4d/output_0_split_0"
  top: "inception_4d/output_inception_4d/output_0_split_1"
  top: "inception_4d/output_inception_4d/output_0_split_2"
  top: "inception_4d/output_inception_4d/output_0_split_3"
  top: "inception_4d/output_inception_4d/output_0_split_4"
}
layer {
  name: "loss2/ave_pool"
  type: "Pooling"
  bottom: "inception_4d/output_inception_4d/output_0_split_0"
  top: "loss2/ave_pool"
  pooling_param {
    pool: AVE
    kernel_size: 5
    stride: 3
  }
}
layer {
  name: "loss2/conv"
  type: "Convolution"
  bottom: "loss2/ave_pool"
  top: "loss2/conv"
  param {
    lr_mult: 1
    decay_mult: 1
  }
  param {
    lr_mult: 2
    decay_mult: 0
  }
  convolution_param {
    num_output: 128
    kernel_size: 1
    weight_filler {
      type: "xavier"
    }
    bias_filler {
      type: "constant"
      value: 0.2
    }
  }
}
layer {
  name: "loss2/relu_conv"
  type: "ReLU"
  bottom: "loss2/conv"
  top: "loss2/conv"
}
layer {
  name: "loss2/fc"
  type: "InnerProduct"
  bottom: "loss2/conv"
  top: "loss2/fc"
  param {
    lr_mult: 1
    decay_mult: 1
  }
  param {
    lr_mult: 2
    decay_mult: 0
  }
  inner_product_param {
    num_output: 1024
    weight_filler {
      type: "xavier"
    }
    bias_filler {
      type: "constant"
      value: 0.2
    }
  }
}
layer {
  name: "loss2/relu_fc"
  type: "ReLU"
  bottom: "loss2/fc"
  top: "loss2/fc"
}
layer {
  name:
I0327 09:03:09.877043  2226 layer_factory.hpp:114] Creating layer data
I0327 09:03:09.878612  2226 net.cpp:160] Creating Layer data
I0327 09:03:09.878712  2226 net.cpp:570] data -> data
I0327 09:03:09.878787  2226 net.cpp:570] data -> label
I0327 09:03:09.878993  2227 db_lmdb.cpp:72] Opened lmdb /home/user/user/LIBRARIES/caffeLibs/caffe/examples/imagenet/ilsvrc12_train_lmdb
I0327 09:03:09.880296  2226 data_layer.cpp:80] output data size: 48,3,224,224
I0327 09:03:09.973609  2226 net.cpp:210] Setting up data
I0327 09:03:09.973721  2226 net.cpp:217] Top shape: 48 3 224 224 (7225344)
I0327 09:03:09.973739  2226 net.cpp:217] Top shape: 48 (48)
I0327 09:03:09.973790  2226 net.cpp:225] Memory required for data: 28901568
I0327 09:03:09.973812  2226 layer_factory.hpp:114] Creating layer label_data_1_split
I0327 09:03:09.973855  2226 net.cpp:160] Creating Layer label_data_1_split
I0327 09:03:09.973873  2226 net.cpp:596] label_data_1_split <- label
I0327 09:03:09.973897  2226 net.cpp:570] label_data_1_split -> label_data_1_split_0
I0327 09:03:09.973927  2226 net.cpp:570] label_data_1_split -> label_data_1_split_1
I0327 09:03:09.973947  2226 net.cpp:570] label_data_1_split -> label_data_1_split_2
I0327 09:03:09.973978  2226 net.cpp:210] Setting up label_data_1_split
I0327 09:03:09.973996  2226 net.cpp:217] Top shape: 48 (48)
I0327 09:03:09.974012  2226 net.cpp:217] Top shape: 48 (48)
I0327 09:03:09.974040  2226 net.cpp:217] Top shape: 48 (48)
I0327 09:03:09.974053  2226 net.cpp:225] Memory required for data: 28902144
I0327 09:03:09.974066  2226 layer_factory.hpp:114] Creating layer conv1/7x7_s2
I0327 09:03:09.974117  2226 net.cpp:160] Creating Layer conv1/7x7_s2
I0327 09:03:09.974131  2226 net.cpp:596] conv1/7x7_s2 <- data
I0327 09:03:09.974154  2226 net.cpp:570] conv1/7x7_s2 -> conv1/7x7_s2
OMP: Info #242: KMP_AFFINITY: pid 2226 thread 1 bound to OS proc set {0,1,2,3,4,5,6,7,8,9,10,11}
…
OMP: Info #242: KMP_AFFINITY: pid 2226 thread 6 bound to OS proc set {0,1,2,3,4,5,6,7,8,9,10,11}
OMP: Info #242: KMP_AFFINITY: pid 2226 thread 7 bound to OS proc set {0,1,2,3,4,5,6,7,8,9,10,11}
OMP: Info #242: KMP_AFFINITY: pid 2226 thread 11 bound to OS proc set {0,1,2,3,4,5,6,7,8,9,10,11}
OMP: Info #242: KMP_AFFINITY: pid 2226 thread 8 bound to OS proc set {0,1,2,3,4,5,6,7,8,9,10,11}
OMP: Info #242: KMP_AFFINITY: pid 2226 thread 9 bound to OS proc set {0,1,2,3,4,5,6,7,8,9,10,11}
OMP: Info #242: KMP_AFFINITY: pid 2226 thread 10 bound to OS proc set {0,1,2,3,4,5,6,7,8,9,10,11}
I0327 09:03:10.040910  2226 net.cpp:210] Setting up conv1/7x7_s2
I0327 09:03:10.040998  2226 net.cpp:217] Top shape: 48 64 112 112 (38535168)
I0327 09:03:10.041012  2226 net.cpp:225] Memory required for data: 183042816
I0327 09:03:10.041081  2226 layer_factory.hpp:114] Creating layer conv1/relu_7x7
I0327 09:03:10.041132  2226 net.cpp:160] Creating Layer conv1/relu_7x7
I0327 09:03:10.041148  2226 net.cpp:596] conv1/relu_7x7 <- conv1/7x7_s2
I0327 09:03:10.041167  2226 net.cpp:557] conv1/relu_7x7 -> conv1/7x7_s2 (in-place)
I0327 09:03:10.041196  2226 net.cpp:210] Setting up conv1/relu_7x7
I0327 09:03:10.041211  2226 net.cpp:217] Top shape: 48 64 112 112 (38535168)
I0327 09:03:10.041223  2226 net.cpp:225] Memory required for data: 337183488
I0327 09:03:10.041234  2226 layer_factory.hpp:114] Creating layer pool1/3x3_s2
I0327 09:03:10.041337  2226 net.cpp:160] Creating Layer pool1/3x3_s2
I0327 09:03:10.041352  2226 net.cpp:596] pool1/3x3_s2 <- conv1/7x7_s2
I0327 09:03:10.041370  2226 net.cpp:570] pool1/3x3_s2 -> pool1/3x3_s2
I0327 09:03:10.041409  2226 net.cpp:210] Setting up pool1/3x3_s2
I0327 09:03:10.041424  2226 net.cpp:217] Top shape: 48 64 56 56 (9633792)
I0327 09:03:10.041435  2226 net.cpp:225] Memory required for data: 375718656
I0327 09:03:10.041445  2226 layer_factory.hpp:114] Creating layer pool1/norm1
I0327 09:03:10.041466  2226 net.cpp:160] Creating Layer pool1/norm1
I0327 09:03:10.041478  2226 net.cpp:596] pool1/norm1 <- pool1/3x3_s2
I0327 09:03:10.041493  2226 net.cpp:570] pool1/norm1 -> pool1/norm1
I0327 09:03:10.041524  2226 net.cpp:210] Setting up pool1/norm1
I0327 09:03:10.041539  2226 net.cpp:217] Top shape: 48 64 56 56 (9633792)
I0327 09:03:10.041550  2226 net.cpp:225] Memory required for data: 414253824
I0327 09:03:10.041561  2226 layer_factory.hpp:114] Creating layer conv2/3x3_reduce
I0327 09:03:10.041594  2226 net.cpp:160] Creating Layer conv2/3x3_reduce
I0327 09:03:10.041606  2226 net.cpp:596] conv2/3x3_reduce <- pool1/norm1
I0327 09:03:10.041625  2226 net.cpp:570] conv2/3x3_reduce -> conv2/3x3_reduce
I0327 09:03:10.047968  2226 net.cpp:210] Setting up conv2/3x3_reduce
I0327 09:03:10.048054  2226 net.cpp:217] Top shape: 48 64 56 56 (9633792)
I0327 09:03:10.048069  2226 net.cpp:225] Memory required for data: 452788992
I0327 09:03:10.048107  2226 layer_factory.hpp:114] Creating layer conv2/relu_3x3_reduce
I0327 09:03:10.048132  2226 net.cpp:160] Creating Layer conv2/relu_3x3_reduce
I0327 09:03:10.048146  2226 net.cpp:596] conv2/relu_3x3_reduce <- conv2/3x3_reduce
I0327 09:03:10.048164  2226 net.cpp:557] conv2/relu_3x3_reduce -> conv2/3x3_reduce (in-place)
I0327 09:03:10.048188  2226 net.cpp:210] Setting up conv2/relu_3x3_reduce
I0327 09:03:10.048202  2226 net.cpp:217] Top shape: 48 64 56 56 (9633792)
I0327 09:03:10.048213  2226 net.cpp:225] Memory required for data: 491324160
I0327 09:03:10.048223  2226 layer_factory.hpp:114] Creating layer conv2/3x3
I0327 09:03:10.048283  2226 net.cpp:160] Creating Layer conv2/3x3
I0327 09:03:10.048296  2226 net.cpp:596] conv2/3x3 <- conv2/3x3_reduce
I0327 09:03:10.048316  2226 net.cpp:570] conv2/3x3 -> conv2/3x3
I0327 09:03:10.102244  2226 net.cpp:210] Setting up conv2/3x3
I0327 09:03:10.102324  2226 net.cpp:217] Top shape: 48 192 56 56 (28901376)
I0327 09:03:10.102334  2226 net.cpp:225] Memory required for data: 606929664
I0327 09:03:10.102365  2226 layer_factory.hpp:114] Creating layer conv2/relu_3x3
I0327 09:03:10.102392  2226 net.cpp:160] Creating Layer conv2/relu_3x3
I0327 09:03:10.102406  2226 net.cpp:596] conv2/relu_3x3 <- conv2/3x3
I0327 09:03:10.102421  2226 net.cpp:557] conv2/relu_3x3 -> conv2/3x3 (in-place)
I0327 09:03:10.102442  2226 net.cpp:210] Setting up conv2/relu_3x3
I0327 09:03:10.102454  2226 net.cpp:217] Top shape: 48 192 56 56 (28901376)
I0327 09:03:10.102463  2226 net.cpp:225] Memory required for data: 722535168
I0327 09:03:10.102471  2226 layer_factory.hpp:114] Creating layer conv2/norm2
I0327 09:03:10.102490  2226 net.cpp:160] Creating Layer conv2/norm2
I0327 09:03:10.102500  2226 net.cpp:596] conv2/norm2 <- conv2/3x3
I0327 09:03:10.102512  2226 net.cpp:570] conv2/norm2 -> conv2/norm2
I0327 09:03:10.102536  2226 net.cpp:210] Setting up conv2/norm2
I0327 09:03:10.102548  2226 net.cpp:217] Top shape: 48 192 56 56 (28901376)
I0327 09:03:10.102557  2226 net.cpp:225] Memory required for data: 838140672
I0327 09:03:10.102584  2226 layer_factory.hpp:114] Creating layer pool2/3x3_s2
I0327 09:03:10.102634  2226 net.cpp:160] Creating Layer pool2/3x3_s2
I0327 09:03:10.102645  2226 net.cpp:596] pool2/3x3_s2 <- conv2/norm2
I0327 09:03:10.102658  2226 net.cpp:570] pool2/3x3_s2 -> pool2/3x3_s2
I0327 09:03:10.102679  2226 net.cpp:210] Setting up pool2/3x3_s2
I0327 09:03:10.102690  2226 net.cpp:217] Top shape: 48 192 28 28 (7225344)
I0327 09:03:10.102699  2226 net.cpp:225] Memory required for data: 867042048
I0327 09:03:10.102708  2226 layer_factory.hpp:114] Creating layer pool2/3x3_s2_pool2/3x3_s2_0_split
I0327 09:03:10.102721  2226 net.cpp:160] Creating Layer pool2/3x3_s2_pool2/3x3_s2_0_split
I0327 09:03:10.102731  2226 net.cpp:596] pool2/3x3_s2_pool2/3x3_s2_0_split <- pool2/3x3_s2
I0327 09:03:10.102751  2226 net.cpp:570] pool2/3x3_s2_pool2/3x3_s2_0_split -> pool2/3x3_s2_pool2/3x3_s2_0_split_0
I0327 09:03:10.102766  2226 net.cpp:570] pool2/3x3_s2_pool2/3x3_s2_0_split -> pool2/3x3_s2_pool2/3x3_s2_0_split_1
I0327 09:03:10.102780  2226 net.cpp:570] pool2/3x3_s2_pool2/3x3_s2_0_split -> pool2/3x3_s2_pool2/3x3_s2_0_split_2
I0327 09:03:10.102794  2226 net.cpp:570] pool2/3x3_s2_pool2/3x3_s2_0_split -> pool2/3x3_s2_pool2/3x3_s2_0_split_3
I0327 09:03:10.102815  2226 net.cpp:210] Setting up pool2/3x3_s2_pool2/3x3_s2_0_split
I0327 09:03:10.102828  2226 net.cpp:217] Top shape: 48 192 28 28 (7225344)
I0327 09:03:10.102838  2226 net.cpp:217] Top shape: 48 192 28 28 (7225344)
I0327 09:03:10.102849  2226 net.cpp:217] Top shape: 48 192 28 28 (7225344)
I0327 09:03:10.102859  2226 net.cpp:217] Top shape: 48 192 28 28 (7225344)
I0327 09:03:10.102867  2226 net.cpp:225] Memory required for data: 982647552
I0327 09:03:10.102876  2226 layer_factory.hpp:114] Creating layer inception_3a/1x1
I0327 09:03:10.102902  2226 net.cpp:160] Creating Layer inception_3a/1x1
I0327 09:03:10.102912  2226 net.cpp:596] inception_3a/1x1 <- pool2/3x3_s2_pool2/3x3_s2_0_split_0
I0327 09:03:10.102926  2226 net.cpp:570] inception_3a/1x1 -> inception_3a/1x1
I0327 09:03:10.108130  2226 net.cpp:210] Setting up inception_3a/1x1
I0327 09:03:10.108201  2226 net.cpp:217] Top shape: 48 64 28 28 (2408448)
I0327 09:03:10.108211  2226 net.cpp:225] Memory required for data: 992281344
I0327 09:03:10.108234  2226 layer_factory.hpp:114] Creating layer inception_3a/relu_1x1
I0327 09:03:10.108264  2226 net.cpp:160] Creating Layer inception_3a/relu_1x1
I0327 09:03:10.108276  2226 net.cpp:596] inception_3a/relu_1x1 <- inception_3a/1x1
I0327 09:03:10.108292  2226 net.cpp:557] inception_3a/relu_1x1 -> inception_3a/1x1 (in-place)
I0327 09:03:10.108314  2226 net.cpp:210] Setting up inception_3a/relu_1x1
I0327 09:03:10.108350  2226 net.cpp:217] Top shape: 48 64 28 28 (2408448)
I0327 09:03:10.108359  2226 net.cpp:225] Memory required for data: 1001915136
I0327 09:03:10.108368  2226 layer_factory.hpp:114] Creating layer inception_3a/3x3_reduce
I0327 09:03:10.108394  2226 net.cpp:160] Creating Layer inception_3a/3x3_reduce
I0327 09:03:10.108405  2226 net.cpp:596] inception_3a/3x3_reduce <- pool2/3x3_s2_pool2/3x3_s2_0_split_1
I0327 09:03:10.108422  2226 net.cpp:570] inception_3a/3x3_reduce -> inception_3a/3x3_reduce
I0327 09:03:10.113317  2226 net.cpp:210] Setting up inception_3a/3x3_reduce
I0327 09:03:10.113387  2226 net.cpp:217] Top shape: 48 96 28 28 (3612672)
I0327 09:03:10.113396  2226 net.cpp:225] Memory required for data: 1016365824
I0327 09:03:10.113428  2226 layer_factory.hpp:114] Creating layer inception_3a/relu_3x3_reduce
I0327 09:03:10.113453  2226 net.cpp:160] Creating Layer inception_3a/relu_3x3_reduce
I0327 09:03:10.113464  2226 net.cpp:596] inception_3a/relu_3x3_reduce <- inception_3a/3x3_reduce
I0327 09:03:10.113484  2226 net.cpp:557] inception_3a/relu_3x3_reduce -> inception_3a/3x3_reduce (in-place)
I0327 09:03:10.113505  2226 net.cpp:210] Setting up inception_3a/relu_3x3_reduce
I0327 09:03:10.113517  2226 net.cpp:217] Top shape: 48 96 28 28 (3612672)
I0327 09:03:10.113525  2226 net.cpp:225] Memory required for data: 1030816512
I0327 09:03:10.113533  2226 layer_factory.hpp:114] Creating layer inception_3a/3x3
I0327 09:03:10.113574  2226 net.cpp:160] Creating Layer inception_3a/3x3
I0327 09:03:10.113585  2226 net.cpp:596] inception_3a/3x3 <- inception_3a/3x3_reduce
I0327 09:03:10.113600  2226 net.cpp:570] inception_3a/3x3 -> inception_3a/3x3
I0327 09:03:10.135771  2226 net.cpp:210] Setting up inception_3a/3x3
I0327 09:03:10.135850  2226 net.cpp:217] Top shape: 48 128 28 28 (4816896)
I0327 09:03:10.135860  2226 net.cpp:225] Memory required for data: 1050084096
I0327 09:03:10.135885  2226 layer_factory.hpp:114] Creating layer inception_3a/relu_3x3
I0327 09:03:10.135908  2226 net.cpp:160] Creating Layer inception_3a/relu_3x3
I0327 09:03:10.135921  2226 net.cpp:596] inception_3a/relu_3x3 <- inception_3a/3x3
I0327 09:03:10.135941  2226 net.cpp:557] inception_3a/relu_3x3 -> inception_3a/3x3 (in-place)
I0327 09:03:10.135963  2226 net.cpp:210] Setting up inception_3a/relu_3x3
I0327 09:03:10.135974  2226 net.cpp:217] Top shape: 48 128 28 28 (4816896)
I0327 09:03:10.135983  2226 net.cpp:225] Memory required for data: 1069351680
I0327 09:03:10.135992  2226 layer_factory.hpp:114] Creating layer inception_3a/5x5_reduce
I0327 09:03:10.136026  2226 net.cpp:160] Creating Layer inception_3a/5x5_reduce
I0327 09:03:10.136039  2226 net.cpp:596] inception_3a/5x5_reduce <- pool2/3x3_s2_pool2/3x3_s2_0_split_2
I0327 09:03:10.136054  2226 net.cpp:570] inception_3a/5x5_reduce -> inception_3a/5x5_reduce
I0327 09:03:10.140099  2226 net.cpp:210] Setting up inception_3a/5x5_reduce
I0327 09:03:10.140164  2226 net.cpp:217] Top shape: 48 16 28 28 (602112)
I0327 09:03:10.140174  2226 net.cpp:225] Memory required for data: 1071760128
I0327 09:03:10.140197  2226 layer_factory.hpp:114] Creating layer inception_3a/relu_5x5_reduce
I0327 09:03:10.140218  2226 net.cpp:160] Creating Layer inception_3a/relu_5x5_reduce
I0327 09:03:10.140230  2226 net.cpp:596] inception_3a/relu_5x5_reduce <- inception_3a/5x5_reduce
I0327 09:03:10.140249  2226 net.cpp:557] inception_3a/relu_5x5_reduce -> inception_3a/5x5_reduce (in-place)
I0327 09:03:10.140269  2226 net.cpp:210] Setting up inception_3a/relu_5x5_reduce
I0327 09:03:10.140281  2226 net.cpp:217] Top shape: 48 16 28 28 (602112)
I0327 09:03:10.140290  2226 net.cpp:225] Memory required for data: 1074168576
I0327 09:03:10.140298  2226 layer_factory.hpp:114] Creating layer inception_3a/5x5
I0327 09:03:10.140322  2226 net.cpp:160] Creating Layer inception_3a/5x5
I0327 09:03:10.140332  2226 net.cpp:596] inception_3a/5x5 <- inception_3a/5x5_reduce
I0327 09:03:10.140346  2226 net.cpp:570] inception_3a/5x5 -> inception_3a/5x5
I0327 09:03:10.149271  2226 net.cpp:210] Setting up inception_3a/5x5
I0327 09:03:10.149343  2226 net.cpp:217] Top shape: 48 32 28 28 (1204224)
I0327 09:03:10.149380  2226 net.cpp:225] Memory required for data: 1078985472
I0327 09:03:10.149405  2226 layer_factory.hpp:114] Creating layer inception_3a/relu_5x5
I0327 09:03:10.149427  2226 net.cpp:160] Creating Layer inception_3a/relu_5x5
I0327 09:03:10.149440  2226 net.cpp:596] inception_3a/relu_5x5 <- inception_3a/5x5
I0327 09:03:10.149459  2226 net.cpp:557] inception_3a/relu_5x5 -> inception_3a/5x5 (in-place)
I0327 09:03:10.149480  2226 net.cpp:210] Setting up inception_3a/relu_5x5
I0327 09:03:10.149492  2226 net.cpp:217] Top shape: 48 32 28 28 (1204224)
I0327 09:03:10.149500  2226 net.cpp:225] Memory required for data: 1083802368
I0327 09:03:10.149509  2226 layer_factory.hpp:114] Creating layer inception_3a/pool
I0327 09:03:10.149560  2226 net.cpp:160] Creating Layer inception_3a/pool
I0327 09:03:10.149572  2226 net.cpp:596] inception_3a/pool <- pool2/3x3_s2_pool2/3x3_s2_0_split_3
I0327 09:03:10.149586  2226 net.cpp:570] inception_3a/pool -> inception_3a/pool
I0327 09:03:10.149612  2226 net.cpp:210] Setting up inception_3a/pool
I0327 09:03:10.149626  2226 net.cpp:217] Top shape: 48 192 28 28 (7225344)
I0327 09:03:10.149633  2226 net.cpp:225] Memory required for data: 1112703744
I0327 09:03:10.149642  2226 layer_factory.hpp:114] Creating layer inception_3a/pool_proj
I0327 09:03:10.149667  2226 net.cpp:160] Creating Layer inception_3a/pool_proj
I0327 09:03:10.149683  2226 net.cpp:596] inception_3a/pool_proj <- inception_3a/pool
I0327 09:03:10.149698  2226 net.cpp:570] inception_3a/pool_proj -> inception_3a/pool_proj
I0327 09:03:10.153954  2226 net.cpp:210] Setting up inception_3a/pool_proj
I0327 09:03:10.154026  2226 net.cpp:217] Top shape: 48 32 28 28 (1204224)
I0327 09:03:10.154038  2226 net.cpp:225] Memory required for data: 1117520640
I0327 09:03:10.154068  2226 layer_factory.hpp:114] Creating layer inception_3a/relu_pool_proj
I0327 09:03:10.154098  2226 net.cpp:160] Creating Layer inception_3a/relu_pool_proj
I0327 09:03:10.154111  2226 net.cpp:596] inception_3a/relu_pool_proj <- inception_3a/pool_proj
I0327 09:03:10.154129  2226 net.cpp:557] inception_3a/relu_pool_proj -> inception_3a/pool_proj (in-place)
I0327 09:03:10.154150  2226 net.cpp:210] Setting up inception_3a/relu_pool_proj
I0327 09:03:10.154161  2226 net.cpp:217] Top shape: 48 32 28 28 (1204224)
I0327 09:03:10.154170  2226 net.cpp:225] Memory required for data: 1122337536
I0327 09:03:10.154178  2226 layer_factory.hpp:114] Creating layer inception_3a/output
I0327 09:03:10.154192  2226 net.cpp:160] Creating Layer inception_3a/output
I0327 09:03:10.154201  2226 net.cpp:596] inception_3a/output <- inception_3a/1x1
I0327 09:03:10.154212  2226 net.cpp:596] inception_3a/output <- inception_3a/3x3
I0327 09:03:10.154223  2226 net.cpp:596] inception_3a/output <- inception_3a/5x5
I0327 09:03:10.154233  2226 net.cpp:596] inception_3a/output <- inception_3a/pool_proj
I0327 09:03:10.154245  2226 net.cpp:570] inception_3a/output -> inception_3a/output
I0327 09:03:10.154271  2226 net.cpp:210] Setting up inception_3a/output
I0327 09:03:10.154284  2226 net.cpp:217] Top shape: 48 256 28 28 (9633792)
I0327 09:03:10.154292  2226 net.cpp:225] Memory required for data: 1160872704
I0327 09:03:10.154301  2226 layer_factory.hpp:114] Creating layer inception_3a/output_inception_3a/output_0_split
I0327 09:03:10.154317  2226 net.cpp:160] Creating Layer inception_3a/output_inception_3a/output_0_split
I0327 09:03:10.154326  2226 net.cpp:596] inception_3a/output_inception_3a/output_0_split <- inception_3a/output
I0327 09:03:10.154340  2226 net.cpp:570] inception_3a/output_inception_3a/output_0_split -> inception_3a/output_inception_3a/output_0_split_0
I0327 09:03:10.154353  2226 net.cpp:570] inception_3a/output_inception_3a/output_0_split -> inception_3a/output_inception_3a/output_0_split_1
I0327 09:03:10.154367  2226 net.cpp:570] inception_3a/output_inception_3a/output_0_split -> inception_3a/output_inception_3a/output_0_split_2
I0327 09:03:10.154384  2226 net.cpp:570] inception_3a/output_inception_3a/output_0_split -> inception_3a/output_inception_3a/output_0_split_3
I0327 09:03:10.154425  2226 net.cpp:210] Setting up inception_3a/output_inception_3a/output_0_split
I0327 09:03:10.154438  2226 net.cpp:217] Top shape: 48 256 28 28 (9633792)
I0327 09:03:10.154448  2226 net.cpp:217] Top shape: 48 256 28 28 (9633792)
I0327 09:03:10.154458  2226 net.cpp:217] Top shape: 48 256 28 28 (9633792)
I0327 09:03:10.154469  2226 net.cpp:217] Top shape: 48 256 28 28 (9633792)
I0327 09:03:10.154477  2226 net.cpp:225] Memory required for data: 1315013376
I0327 09:03:10.154486  2226 layer_factory.hpp:114] Creating layer inception_3b/1x1
I0327 09:03:10.154510  2226 net.cpp:160] Creating Layer inception_3b/1x1
I0327 09:03:10.154520  2226 net.cpp:596] inception_3b/1x1 <- inception_3a/output_inception_3a/output_0_split_0
I0327 09:03:10.154536  2226 net.cpp:570] inception_3b/1x1 -> inception_3b/1x1
I0327 09:03:10.162237  2226 net.cpp:210] Setting up inception_3b/1x1
I0327 09:03:10.162307  2226 net.cpp:217] Top shape: 48 128 28 28 (4816896)
I0327 09:03:10.162317  2226 net.cpp:225] Memory required for data: 1334280960
I0327 09:03:10.162339  2226 layer_factory.hpp:114] Creating layer inception_3b/relu_1x1
I0327 09:03:10.162360  2226 net.cpp:160] Creating Layer inception_3b/relu_1x1
I0327 09:03:10.162374  2226 net.cpp:596] inception_3b/relu_1x1 <- inception_3b/1x1
I0327 09:03:10.162389  2226 net.cpp:557] inception_3b/relu_1x1 -> inception_3b/1x1 (in-place)
I0327 09:03:10.162426  2226 net.cpp:210] Setting up inception_3b/relu_1x1
I0327 09:03:10.162438  2226 net.cpp:217] Top shape: 48 128 28 28 (4816896)
I0327 09:03:10.162447  2226 net.cpp:225] Memory required for data: 1353548544
I0327 09:03:10.162456  2226 layer_factory.hpp:114] Creating layer inception_3b/3x3_reduce
I0327 09:03:10.162480  2226 net.cpp:160] Creating Layer inception_3b/3x3_reduce
I0327 09:03:10.162492  2226 net.cpp:596] inception_3b/3x3_reduce <- inception_3a/output_inception_3a/output_0_split_1
I0327 09:03:10.162508  2226 net.cpp:570] inception_3b/3x3_reduce -> inception_3b/3x3_reduce
I0327 09:03:10.169390  2226 net.cpp:210] Setting up inception_3b/3x3_reduce
I0327 09:03:10.169463  2226 net.cpp:217] Top shape: 48 128 28 28 (4816896)
I0327 09:03:10.169473  2226 net.cpp:225] Memory required for data: 1372816128
I0327 09:03:10.169497  2226 layer_factory.hpp:114] Creating layer inception_3b/relu_3x3_reduce
I0327 09:03:10.169519  2226 net.cpp:160] Creating Layer inception_3b/relu_3x3_reduce
I0327 09:03:10.169533  2226 net.cpp:596] inception_3b/relu_3x3_reduce <- inception_3b/3x3_reduce
I0327 09:03:10.169549  2226 net.cpp:557] inception_3b/relu_3x3_reduce -> inception_3b/3x3_reduce (in-place)
I0327 09:03:10.169570  2226 net.cpp:210] Setting up inception_3b/relu_3x3_reduce
I0327 09:03:10.169581  2226 net.cpp:217] Top shape: 48 128 28 28 (4816896)
I0327 09:03:10.169589  2226 net.cpp:225] Memory required for data: 1392083712
I0327 09:03:10.169598  2226 layer_factory.hpp:114] Creating layer inception_3b/3x3
I0327 09:03:10.169630  2226 net.cpp:160] Creating Layer inception_3b/3x3
I0327 09:03:10.169639  2226 net.cpp:596] inception_3b/3x3 <- inception_3b/3x3_reduce
I0327 09:03:10.169653  2226 net.cpp:570] inception_3b/3x3 -> inception_3b/3x3
I0327 09:03:10.201961  2226 net.cpp:210] Setting up inception_3b/3x3
I0327 09:03:10.202047  2226 net.cpp:217] Top shape: 48 192 28 28 (7225344)
I0327 09:03:10.202059  2226 net.cpp:225] Memory required for data: 1420985088
I0327 09:03:10.202085  2226 layer_factory.hpp:114] Creating layer inception_3b/relu_3x3
I0327 09:03:10.202109  2226 net.cpp:160] Creating Layer inception_3b/relu_3x3
I0327 09:03:10.202122  2226 net.cpp:596] inception_3b/relu_3x3 <- inception_3b/3x3
I0327 09:03:10.202147  2226 net.cpp:557] inception_3b/relu_3x3 -> inception_3b/3x3 (in-place)
I0327 09:03:10.202169  2226 net.cpp:210] Setting up inception_3b/relu_3x3
I0327 09:03:10.202181  2226 net.cpp:217] Top shape: 48 192 28 28 (7225344)
I0327 09:03:10.202189  2226 net.cpp:225] Memory required for data: 1449886464
I0327 09:03:10.202198  2226 layer_factory.hpp:114] Creating layer inception_3b/5x5_reduce
I0327 09:03:10.202251  2226 net.cpp:160] Creating Layer inception_3b/5x5_reduce
I0327 09:03:10.202262  2226 net.cpp:596] inception_3b/5x5_reduce <- inception_3a/output_inception_3a/output_0_split_2
I0327 09:03:10.202276  2226 net.cpp:570] inception_3b/5x5_reduce -> inception_3b/5x5_reduce
I0327 09:03:10.207948  2226 net.cpp:210] Setting up inception_3b/5x5_reduce
I0327 09:03:10.208031  2226 net.cpp:217] Top shape: 48 32 28 28 (1204224)
I0327 09:03:10.208042  2226 net.cpp:225] Memory required for data: 1454703360
I0327 09:03:10.208067  2226 layer_factory.hpp:114] Creating layer inception_3b/relu_5x5_reduce
I0327 09:03:10.208096  2226 net.cpp:160] Creating Layer inception_3b/relu_5x5_reduce
I0327 09:03:10.208109  2226 net.cpp:596] inception_3b/relu_5x5_reduce <- inception_3b/5x5_reduce
I0327 09:03:10.208128  2226 net.cpp:557] inception_3b/relu_5x5_reduce -> inception_3b/5x5_reduce (in-place)
I0327 09:03:10.208150  2226 net.cpp:210] Setting up inception_3b/relu_5x5_reduce
I0327 09:03:10.208161  2226 net.cpp:217] Top shape: 48 32 28 28 (1204224)
I0327 09:03:10.208170  2226 net.cpp:225] Memory required for data: 1459520256
I0327 09:03:10.208179  2226 layer_factory.hpp:114] Creating layer inception_3b/5x5
I0327 09:03:10.208204  2226 net.cpp:160] Creating Layer inception_3b/5x5
I0327 09:03:10.208214  2226 net.cpp:596] inception_3b/5x5 <- inception_3b/5x5_reduce
I0327 09:03:10.208226  2226 net.cpp:570] inception_3b/5x5 -> inception_3b/5x5
I0327 09:03:10.227236  2226 net.cpp:210] Setting up inception_3b/5x5
I0327 09:03:10.227316  2226 net.cpp:217] Top shape: 48 96 28 28 (3612672)
I0327 09:03:10.227327  2226 net.cpp:225] Memory required for data: 1473970944
I0327 09:03:10.227351  2226 layer_factory.hpp:114] Creating layer inception_3b/relu_5x5
I0327 09:03:10.227375  2226 net.cpp:160] Creating Layer inception_3b/relu_5x5
I0327 09:03:10.227390  2226 net.cpp:596] inception_3b/relu_5x5 <- inception_3b/5x5
I0327 09:03:10.227408  2226 net.cpp:557] inception_3b/relu_5x5 -> inception_3b/5x5 (in-place)
I0327 09:03:10.227430  2226 net.cpp:210] Setting up inception_3b/relu_5x5
I0327 09:03:10.227442  2226 net.cpp:217] Top shape: 48 96 28 28 (3612672)
I0327 09:03:10.227450  2226 net.cpp:225] Memory required for data: 1488421632
I0327 09:03:10.227459  2226 layer_factory.hpp:114] Creating layer inception_3b/pool
I0327 09:03:10.227511  2226 net.cpp:160] Creating Layer inception_3b/pool
I0327 09:03:10.227522  2226 net.cpp:596] inception_3b/pool <- inception_3a/output_inception_3a/output_0_split_3
I0327 09:03:10.227536  2226 net.cpp:570] inception_3b/pool -> inception_3b/pool
I0327 09:03:10.227560  2226 net.cpp:210] Setting up inception_3b/pool
I0327 09:03:10.227576  2226 net.cpp:217] Top shape: 48 256 28 28 (9633792)
I0327 09:03:10.227584  2226 net.cpp:225] Memory required for data: 1526956800
I0327 09:03:10.227593  2226 layer_factory.hpp:114] Creating layer inception_3b/pool_proj
I0327 09:03:10.227622  2226 net.cpp:160] Creating Layer inception_3b/pool_proj
I0327 09:03:10.227632  2226 net.cpp:596] inception_3b/pool_proj <- inception_3b/pool
I0327 09:03:10.227645  2226 net.cpp:570] inception_3b/pool_proj -> inception_3b/pool_proj
I0327 09:03:10.234158  2226 net.cpp:210] Setting up inception_3b/pool_proj
I0327 09:03:10.234228  2226 net.cpp:217] Top shape: 48 64 28 28 (2408448)
I0327 09:03:10.234238  2226 net.cpp:225] Memory required for data: 1536590592
I0327 09:03:10.234261  2226 layer_factory.hpp:114] Creating layer inception_3b/relu_pool_proj
I0327 09:03:10.234285  2226 net.cpp:160] Creating Layer inception_3b/relu_pool_proj
I0327 09:03:10.234299  2226 net.cpp:596] inception_3b/relu_pool_proj <- inception_3b/pool_proj
I0327 09:03:10.234318  2226 net.cpp:557] inception_3b/relu_pool_proj -> inception_3b/pool_proj (in-place)
I0327 09:03:10.234340  2226 net.cpp:210] Setting up inception_3b/relu_pool_proj
I0327 09:03:10.234351  2226 net.cpp:217] Top shape: 48 64 28 28 (2408448)
I0327 09:03:10.234359  2226 net.cpp:225] Memory required for data: 1546224384
I0327 09:03:10.234369  2226 layer_factory.hpp:114] Creating layer inception_3b/output
I0327 09:03:10.234382  2226 net.cpp:160] Creating Layer inception_3b/output
I0327 09:03:10.234423  2226 net.cpp:596] inception_3b/output <- inception_3b/1x1
I0327 09:03:10.234436  2226 net.cpp:596] inception_3b/output <- inception_3b/3x3
I0327 09:03:10.234447  2226 net.cpp:596] inception_3b/output <- inception_3b/5x5
I0327 09:03:10.234457  2226 net.cpp:596] inception_3b/output <- inception_3b/pool_proj
I0327 09:03:10.234472  2226 net.cpp:570] inception_3b/output -> inception_3b/output
I0327 09:03:10.234493  2226 net.cpp:210] Setting up inception_3b/output
I0327 09:03:10.234503  2226 net.cpp:217] Top shape: 48 480 28 28 (18063360)
I0327 09:03:10.234513  2226 net.cpp:225] Memory required for data: 1618477824
I0327 09:03:10.234521  2226 layer_factory.hpp:114] Creating layer pool3/3x3_s2
I0327 09:03:10.234570  2226 net.cpp:160] Creating Layer pool3/3x3_s2
I0327 09:03:10.234580  2226 net.cpp:596] pool3/3x3_s2 <- inception_3b/output
I0327 09:03:10.234592  2226 net.cpp:570] pool3/3x3_s2 -> pool3/3x3_s2
I0327 09:03:10.234614  2226 net.cpp:210] Setting up pool3/3x3_s2
I0327 09:03:10.234625  2226 net.cpp:217] Top shape: 48 480 14 14 (4515840)
I0327 09:03:10.234634  2226 net.cpp:225] Memory required for data: 1636541184
I0327 09:03:10.234642  2226 layer_factory.hpp:114] Creating layer pool3/3x3_s2_pool3/3x3_s2_0_split
I0327 09:03:10.234658  2226 net.cpp:160] Creating Layer pool3/3x3_s2_pool3/3x3_s2_0_split
I0327 09:03:10.234668  2226 net.cpp:596] pool3/3x3_s2_pool3/3x3_s2_0_split <- pool3/3x3_s2
I0327 09:03:10.234689  2226 net.cpp:570] pool3/3x3_s2_pool3/3x3_s2_0_split -> pool3/3x3_s2_pool3/3x3_s2_0_split_0
I0327 09:03:10.234704  2226 net.cpp:570] pool3/3x3_s2_pool3/3x3_s2_0_split -> pool3/3x3_s2_pool3/3x3_s2_0_split_1
I0327 09:03:10.234719  2226 net.cpp:570] pool3/3x3_s2_pool3/3x3_s2_0_split -> pool3/3x3_s2_pool3/3x3_s2_0_split_2
I0327 09:03:10.234732  2226 net.cpp:570] pool3/3x3_s2_pool3/3x3_s2_0_split -> pool3/3x3_s2_pool3/3x3_s2_0_split_3
I0327 09:03:10.234748  2226 net.cpp:210] Setting up pool3/3x3_s2_pool3/3x3_s2_0_split
I0327 09:03:10.234760  2226 net.cpp:217] Top shape: 48 480 14 14 (4515840)
I0327 09:03:10.234771  2226 net.cpp:217] Top shape: 48 480 14 14 (4515840)
I0327 09:03:10.234781  2226 net.cpp:217] Top shape: 48 480 14 14 (4515840)
I0327 09:03:10.234791  2226 net.cpp:217] Top shape: 48 480 14 14 (4515840)
I0327 09:03:10.234800  2226 net.cpp:225] Memory required for data: 1708794624
I0327 09:03:10.234808  2226 layer_factory.hpp:114] Creating layer inception_4a/1x1
I0327 09:03:10.234834  2226 net.cpp:160] Creating Layer inception_4a/1x1
I0327 09:03:10.234845  2226 net.cpp:596] inception_4a/1x1 <- pool3/3x3_s2_pool3/3x3_s2_0_split_0
I0327 09:03:10.234858  2226 net.cpp:570] inception_4a/1x1 -> inception_4a/1x1
I0327 09:03:10.242236  2226 net.cpp:210] Setting up inception_4a/1x1
I0327 09:03:10.242312  2226 net.cpp:217] Top shape: 48 192 14 14 (1806336)
I0327 09:03:10.242322  2226 net.cpp:225] Memory required for data: 1716019968
I0327 09:03:10.242347  2226 layer_factory.hpp:114] Creating layer inception_4a/relu_1x1
I0327 09:03:10.242368  2226 net.cpp:160] Creating Layer inception_4a/relu_1x1
I0327 09:03:10.242383  2226 net.cpp:596] inception_4a/relu_1x1 <- inception_4a/1x1
I0327 09:03:10.242403  2226 net.cpp:557] inception_4a/relu_1x1 -> inception_4a/1x1 (in-place)
I0327 09:03:10.242424  2226 net.cpp:210] Setting up inception_4a/relu_1x1
I0327 09:03:10.242434  2226 net.cpp:217] Top shape: 48 192 14 14 (1806336)
I0327 09:03:10.242444  2226 net.cpp:225] Memory required for data: 1723245312
I0327 09:03:10.242452  2226 layer_factory.hpp:114] Creating layer inception_4a/3x3_reduce
I0327 09:03:10.242475  2226 net.cpp:160] Creating Layer inception_4a/3x3_reduce
I0327 09:03:10.242486  2226 net.cpp:596] inception_4a/3x3_reduce <- pool3/3x3_s2_pool3/3x3_s2_0_split_1
I0327 09:03:10.242502  2226 net.cpp:570] inception_4a/3x3_reduce -> inception_4a/3x3_reduce
I0327 09:03:10.247936  2226 net.cpp:210] Setting up inception_4a/3x3_reduce
I0327 09:03:10.247997  2226 net.cpp:217] Top shape: 48 96 14 14 (903168)
I0327 09:03:10.248005  2226 net.cpp:225] Memory required for data: 1726857984
I0327 09:03:10.248082  2226 layer_factory.hpp:114] Creating layer inception_4a/relu_3x3_reduce
I0327 09:03:10.248106  2226 net.cpp:160] Creating Layer inception_4a/relu_3x3_reduce
I0327 09:03:10.248121  2226 net.cpp:596] inception_4a/relu_3x3_reduce <- inception_4a/3x3_reduce
I0327 09:03:10.248136  2226 net.cpp:557] inception_4a/relu_3x3_reduce -> inception_4a/3x3_reduce (in-place)
I0327 09:03:10.248155  2226 net.cpp:210] Setting up inception_4a/relu_3x3_reduce
I0327 09:03:10.248167  2226 net.cpp:217] Top shape: 48 96 14 14 (903168)
I0327 09:03:10.248174  2226 net.cpp:225] Memory required for data: 1730470656
I0327 09:03:10.248183  2226 layer_factory.hpp:114] Creating layer inception_4a/3x3
I0327 09:03:10.248203  2226 net.cpp:160] Creating Layer inception_4a/3x3
I0327 09:03:10.248212  2226 net.cpp:596] inception_4a/3x3 <- inception_4a/3x3_reduce
I0327 09:03:10.248229  2226 net.cpp:570] inception_4a/3x3 -> inception_4a/3x3
I0327 09:03:10.260962  2226 net.cpp:210] Setting up inception_4a/3x3
I0327 09:03:10.261047  2226 net.cpp:217] Top shape: 48 208 14 14 (1956864)
I0327 09:03:10.261059  2226 net.cpp:225] Memory required for data: 1738298112
I0327 09:03:10.261087  2226 layer_factory.hpp:114] Creating layer inception_4a/relu_3x3
I0327 09:03:10.261111  2226 net.cpp:160] Creating Layer inception_4a/relu_3x3
I0327 09:03:10.261124  2226 net.cpp:596] inception_4a/relu_3x3 <- inception_4a/3x3
I0327 09:03:10.261163  2226 net.cpp:557] inception_4a/relu_3x3 -> inception_4a/3x3 (in-place)
I0327 09:03:10.261185  2226 net.cpp:210] Setting up inception_4a/relu_3x3
I0327 09:03:10.261198  2226 net.cpp:217] Top shape: 48 208 14 14 (1956864)
I0327 09:03:10.261206  2226 net.cpp:225] Memory required for data: 1746125568
I0327 09:03:10.261215  2226 layer_factory.hpp:114] Creating layer inception_4a/5x5_reduce
I0327 09:03:10.261240  2226 net.cpp:160] Creating Layer inception_4a/5x5_reduce
I0327 09:03:10.261252  2226 net.cpp:596] inception_4a/5x5_reduce <- pool3/3x3_s2_pool3/3x3_s2_0_split_2
I0327 09:03:10.261265  2226 net.cpp:570] inception_4a/5x5_reduce -> inception_4a/5x5_reduce
I0327 09:03:10.264114  2226 net.cpp:210] Setting up inception_4a/5x5_reduce
I0327 09:03:10.264164  2226 net.cpp:217] Top shape: 48 16 14 14 (150528)
I0327 09:03:10.264173  2226 net.cpp:225] Memory required for data: 1746727680
I0327 09:03:10.264192  2226 layer_factory.hpp:114] Creating layer inception_4a/relu_5x5_reduce
I0327 09:03:10.264211  2226 net.cpp:160] Creating Layer inception_4a/relu_5x5_reduce
I0327 09:03:10.264223  2226 net.cpp:596] inception_4a/relu_5x5_reduce <- inception_4a/5x5_reduce
I0327 09:03:10.264238  2226 net.cpp:557] inception_4a/relu_5x5_reduce -> inception_4a/5x5_reduce (in-place)
I0327 09:03:10.264256  2226 net.cpp:210] Setting up inception_4a/relu_5x5_reduce
I0327 09:03:10.264267  2226 net.cpp:217] Top shape: 48 16 14 14 (150528)
I0327 09:03:10.264276  2226 net.cpp:225] Memory required for data: 1747329792
I0327 09:03:10.264284  2226 layer_factory.hpp:114] Creating layer inception_4a/5x5
I0327 09:03:10.264305  2226 net.cpp:160] Creating Layer inception_4a/5x5
I0327 09:03:10.264315  2226 net.cpp:596] inception_4a/5x5 <- inception_4a/5x5_reduce
I0327 09:03:10.264330  2226 net.cpp:570] inception_4a/5x5 -> inception_4a/5x5
I0327 09:03:10.267758  2226 net.cpp:210] Setting up inception_4a/5x5
I0327 09:03:10.267822  2226 net.cpp:217] Top shape: 48 48 14 14 (451584)
I0327 09:03:10.267832  2226 net.cpp:225] Memory required for data: 1749136128
I0327 09:03:10.267854  2226 layer_factory.hpp:114] Creating layer inception_4a/relu_5x5
I0327 09:03:10.267874  2226 net.cpp:160] Creating Layer inception_4a/relu_5x5
I0327 09:03:10.267886  2226 net.cpp:596] inception_4a/relu_5x5 <- inception_4a/5x5
I0327 09:03:10.267904  2226 net.cpp:557] inception_4a/relu_5x5 -> inception_4a/5x5 (in-place)
I0327 09:03:10.267925  2226 net.cpp:210] Setting up inception_4a/relu_5x5
I0327 09:03:10.267935  2226 net.cpp:217] Top shape: 48 48 14 14 (451584)
I0327 09:03:10.267943  2226 net.cpp:225] Memory required for data: 1750942464
I0327 09:03:10.267952  2226 layer_factory.hpp:114] Creating layer inception_4a/pool
I0327 09:03:10.268038  2226 net.cpp:160] Creating Layer inception_4a/pool
I0327 09:03:10.268051  2226 net.cpp:596] inception_4a/pool <- pool3/3x3_s2_pool3/3x3_s2_0_split_3
I0327 09:03:10.268076  2226 net.cpp:570] inception_4a/pool -> inception_4a/pool
I0327 09:03:10.268100  2226 net.cpp:210] Setting up inception_4a/pool
I0327 09:03:10.268112  2226 net.cpp:217] Top shape: 48 480 14 14 (4515840)
I0327 09:03:10.268121  2226 net.cpp:225] Memory required for data: 1769005824
I0327 09:03:10.268129  2226 layer_factory.hpp:114] Creating layer inception_4a/pool_proj
I0327 09:03:10.268156  2226 net.cpp:160] Creating Layer inception_4a/pool_proj
I0327 09:03:10.268165  2226 net.cpp:596] inception_4a/pool_proj <- inception_4a/pool
I0327 09:03:10.268182  2226 net.cpp:570] inception_4a/pool_proj -> inception_4a/pool_proj
I0327 09:03:10.272867  2226 net.cpp:210] Setting up inception_4a/pool_proj
I0327 09:03:10.272927  2226 net.cpp:217] Top shape: 48 64 14 14 (602112)
I0327 09:03:10.272936  2226 net.cpp:225] Memory required for data: 1771414272
I0327 09:03:10.272958  2226 layer_factory.hpp:114] Creating layer inception_4a/relu_pool_proj
I0327 09:03:10.272977  2226 net.cpp:160] Creating Layer inception_4a/relu_pool_proj
I0327 09:03:10.272990  2226 net.cpp:596] inception_4a/relu_pool_proj <- inception_4a/pool_proj
I0327 09:03:10.273008  2226 net.cpp:557] inception_4a/relu_pool_proj -> inception_4a/pool_proj (in-place)
I0327 09:03:10.273051  2226 net.cpp:210] Setting up inception_4a/relu_pool_proj
I0327 09:03:10.273066  2226 net.cpp:217] Top shape: 48 64 14 14 (602112)
I0327 09:03:10.273078  2226 net.cpp:225] Memory required for data: 1773822720
I0327 09:03:10.273087  2226 layer_factory.hpp:114] Creating layer inception_4a/output
I0327 09:03:10.273104  2226 net.cpp:160] Creating Layer inception_4a/output
I0327 09:03:10.273114  2226 net.cpp:596] inception_4a/output <- inception_4a/1x1
I0327 09:03:10.273125  2226 net.cpp:596] inception_4a/output <- inception_4a/3x3
I0327 09:03:10.273136  2226 net.cpp:596] inception_4a/output <- inception_4a/5x5
I0327 09:03:10.273147  2226 net.cpp:596] inception_4a/output <- inception_4a/pool_proj
I0327 09:03:10.273159  2226 net.cpp:570] inception_4a/output -> inception_4a/output
I0327 09:03:10.273178  2226 net.cpp:210] Setting up inception_4a/output
I0327 09:03:10.273190  2226 net.cpp:217] Top shape: 48 512 14 14 (4816896)
I0327 09:03:10.273198  2226 net.cpp:225] Memory required for data: 1793090304
I0327 09:03:10.273207  2226 layer_factory.hpp:114] Creating layer inception_4a/output_inception_4a/output_0_split
I0327 09:03:10.273221  2226 net.cpp:160] Creating Layer inception_4a/output_inception_4a/output_0_split
I0327 09:03:10.273231  2226 net.cpp:596] inception_4a/output_inception_4a/output_0_split <- inception_4a/output
I0327 09:03:10.273246  2226 net.cpp:570] inception_4a/output_inception_4a/output_0_split -> inception_4a/output_inception_4a/output_0_split_0
I0327 09:03:10.273262  2226 net.cpp:570] inception_4a/output_inception_4a/output_0_split -> inception_4a/output_inception_4a/output_0_split_1
I0327 09:03:10.273277  2226 net.cpp:570] inception_4a/output_inception_4a/output_0_split -> inception_4a/output_inception_4a/output_0_split_2
I0327 09:03:10.273291  2226 net.cpp:570] inception_4a/output_inception_4a/output_0_split -> inception_4a/output_inception_4a/output_0_split_3
I0327 09:03:10.273305  2226 net.cpp:570] inception_4a/output_inception_4a/output_0_split -> inception_4a/output_inception_4a/output_0_split_4
I0327 09:03:10.273325  2226 net.cpp:210] Setting up inception_4a/output_inception_4a/output_0_split
I0327 09:03:10.273336  2226 net.cpp:217] Top shape: 48 512 14 14 (4816896)
I0327 09:03:10.273347  2226 net.cpp:217] Top shape: 48 512 14 14 (4816896)
I0327 09:03:10.273357  2226 net.cpp:217] Top shape: 48 512 14 14 (4816896)
I0327 09:03:10.273368  2226 net.cpp:217] Top shape: 48 512 14 14 (4816896)
I0327 09:03:10.273378  2226 net.cpp:217] Top shape: 48 512 14 14 (4816896)
I0327 09:03:10.273387  2226 net.cpp:225] Memory required for data: 1889428224
I0327 09:03:10.273417  2226 layer_factory.hpp:114] Creating layer loss1/ave_pool
I0327 09:03:10.273463  2226 net.cpp:160] Creating Layer loss1/ave_pool
I0327 09:03:10.273473  2226 net.cpp:596] loss1/ave_pool <- inception_4a/output_inception_4a/output_0_split_0
I0327 09:03:10.273488  2226 net.cpp:570] loss1/ave_pool -> loss1/ave_pool
I0327 09:03:10.273505  2226 net.cpp:210] Setting up loss1/ave_pool
I0327 09:03:10.273517  2226 net.cpp:217] Top shape: 48 512 4 4 (393216)
I0327 09:03:10.273526  2226 net.cpp:225] Memory required for data: 1891001088
I0327 09:03:10.273535  2226 layer_factory.hpp:114] Creating layer loss1/conv
I0327 09:03:10.273561  2226 net.cpp:160] Creating Layer loss1/conv
I0327 09:03:10.273571  2226 net.cpp:596] loss1/conv <- loss1/ave_pool
I0327 09:03:10.273587  2226 net.cpp:570] loss1/conv -> loss1/conv
I0327 09:03:10.276975  2226 net.cpp:210] Setting up loss1/conv
I0327 09:03:10.277029  2226 net.cpp:217] Top shape: 48 128 4 4 (98304)
I0327 09:03:10.277040  2226 net.cpp:225] Memory required for data: 1891394304
I0327 09:03:10.277060  2226 layer_factory.hpp:114] Creating layer loss1/relu_conv
I0327 09:03:10.277082  2226 net.cpp:160] Creating Layer loss1/relu_conv
I0327 09:03:10.277093  2226 net.cpp:596] loss1/relu_conv <- loss1/conv
I0327 09:03:10.277112  2226 net.cpp:557] loss1/relu_conv -> loss1/conv (in-place)
I0327 09:03:10.277129  2226 net.cpp:210] Setting up loss1/relu_conv
I0327 09:03:10.277153  2226 net.cpp:217] Top shape: 48 128 4 4 (98304)
I0327 09:03:10.277161  2226 net.cpp:225] Memory required for data: 1891787520
I0327 09:03:10.277171  2226 layer_factory.hpp:114] Creating layer loss1/fc
I0327 09:03:10.277191  2226 net.cpp:160] Creating Layer loss1/fc
I0327 09:03:10.277200  2226 net.cpp:596] loss1/fc <- loss1/conv
I0327 09:03:10.277216  2226 net.cpp:570] loss1/fc -> loss1/fc
I0327 09:03:10.312767  2226 net.cpp:210] Setting up loss1/fc
I0327 09:03:10.312840  2226 net.cpp:217] Top shape: 48 1024 (49152)
I0327 09:03:10.312850  2226 net.cpp:225] Memory required for data: 1891984128
I0327 09:03:10.312872  2226 layer_factory.hpp:114] Creating layer loss1/relu_fc
I0327 09:03:10.312894  2226 net.cpp:160] Creating Layer loss1/relu_fc
I0327 09:03:10.312907  2226 net.cpp:596] loss1/relu_fc <- loss1/fc
I0327 09:03:10.312923  2226 net.cpp:557] loss1/relu_fc -> loss1/fc (in-place)
I0327 09:03:10.312942  2226 net.cpp:210] Setting up loss1/relu_fc
I0327 09:03:10.312953  2226 net.cpp:217] Top shape: 48 1024 (49152)
I0327 09:03:10.312961  2226 net.cpp:225] Memory required for data: 1892180736
I0327 09:03:10.312970  2226 layer_factory.hpp:114] Creating layer loss1/drop_fc
I0327 09:03:10.313000  2226 net.cpp:160] Creating Layer loss1/drop_fc
I0327 09:03:10.313010  2226 net.cpp:596] loss1/drop_fc <- loss1/fc
I0327 09:03:10.313029  2226 net.cpp:557] loss1/drop_fc -> loss1/fc (in-place)
I0327 09:03:10.313053  2226 net.cpp:210] Setting up loss1/drop_fc
I0327 09:03:10.313066  2226 net.cpp:217] Top shape: 48 1024 (49152)
I0327 09:03:10.313078  2226 net.cpp:225] Memory required for data: 1892377344
I0327 09:03:10.313087  2226 layer_factory.hpp:114] Creating layer loss1/classifier
I0327 09:03:10.313110  2226 net.cpp:160] Creating Layer loss1/classifier
I0327 09:03:10.313120  2226 net.cpp:596] loss1/classifier <- loss1/fc
I0327 09:03:10.313133  2226 net.cpp:570] loss1/classifier -> loss1/classifier
I0327 09:03:10.330715  2226 net.cpp:210] Setting up loss1/classifier
I0327 09:03:10.330768  2226 net.cpp:217] Top shape: 48 1000 (48000)
I0327 09:03:10.330778  2226 net.cpp:225] Memory required for data: 1892569344
I0327 09:03:10.330797  2226 layer_factory.hpp:114] Creating layer loss1/loss
I0327 09:03:10.330821  2226 net.cpp:160] Creating Layer loss1/loss
I0327 09:03:10.330833  2226 net.cpp:596] loss1/loss <- loss1/classifier
I0327 09:03:10.330845  2226 net.cpp:596] loss1/loss <- label_data_1_split_0
I0327 09:03:10.330862  2226 net.cpp:570] loss1/loss -> loss1/loss1
I0327 09:03:10.330886  2226 layer_factory.hpp:114] Creating layer loss1/loss
I0327 09:03:10.331123  2226 net.cpp:210] Setting up loss1/loss
I0327 09:03:10.331166  2226 net.cpp:217] Top shape: (1)
I0327 09:03:10.331173  2226 net.cpp:220]     with loss weight 0.3
I0327 09:03:10.331233  2226 net.cpp:225] Memory required for data: 1892569348
I0327 09:03:10.331243  2226 layer_factory.hpp:114] Creating layer inception_4b/1x1
I0327 09:03:10.331267  2226 net.cpp:160] Creating Layer inception_4b/1x1
I0327 09:03:10.331279  2226 net.cpp:596] inception_4b/1x1 <- inception_4a/output_inception_4a/output_0_split_1
I0327 09:03:10.331296  2226 net.cpp:570] inception_4b/1x1 -> inception_4b/1x1
I0327 09:03:10.338135  2226 net.cpp:210] Setting up inception_4b/1x1
I0327 09:03:10.338210  2226 net.cpp:217] Top shape: 48 160 14 14 (1505280)
I0327 09:03:10.338220  2226 net.cpp:225] Memory required for data: 1898590468
I0327 09:03:10.338244  2226 layer_factory.hpp:114] Creating layer inception_4b/relu_1x1
I0327 09:03:10.338269  2226 net.cpp:160] Creating Layer inception_4b/relu_1x1
I0327 09:03:10.338284  2226 net.cpp:596] inception_4b/relu_1x1 <- inception_4b/1x1
I0327 09:03:10.338300  2226 net.cpp:557] inception_4b/relu_1x1 -> inception_4b/1x1 (in-place)
I0327 09:03:10.338320  2226 net.cpp:210] Setting up inception_4b/relu_1x1
I0327 09:03:10.338331  2226 net.cpp:217] Top shape: 48 160 14 14 (1505280)
I0327 09:03:10.338340  2226 net.cpp:225] Memory required for data: 1904611588
I0327 09:03:10.338348  2226 layer_factory.hpp:114] Creating layer inception_4b/3x3_reduce
I0327 09:03:10.338390  2226 net.cpp:160] Creating Layer inception_4b/3x3_reduce
I0327 09:03:10.338402  2226 net.cpp:596] inception_4b/3x3_reduce <- inception_4a/output_inception_4a/output_0_split_2
I0327 09:03:10.338419  2226 net.cpp:570] inception_4b/3x3_reduce -> inception_4b/3x3_reduce
I0327 09:03:10.344040  2226 net.cpp:210] Setting up inception_4b/3x3_reduce
I0327 09:03:10.344110  2226 net.cpp:217] Top shape: 48 112 14 14 (1053696)
I0327 09:03:10.344120  2226 net.cpp:225] Memory required for data: 1908826372
I0327 09:03:10.344141  2226 layer_factory.hpp:114] Creating layer inception_4b/relu_3x3_reduce
I0327 09:03:10.344166  2226 net.cpp:160] Creating Layer inception_4b/relu_3x3_reduce
I0327 09:03:10.344179  2226 net.cpp:596] inception_4b/relu_3x3_reduce <- inception_4b/3x3_reduce
I0327 09:03:10.344195  2226 net.cpp:557] inception_4b/relu_3x3_reduce -> inception_4b/3x3_reduce (in-place)
I0327 09:03:10.344213  2226 net.cpp:210] Setting up inception_4b/relu_3x3_reduce
I0327 09:03:10.344225  2226 net.cpp:217] Top shape: 48 112 14 14 (1053696)
I0327 09:03:10.344233  2226 net.cpp:225] Memory required for data: 1913041156
I0327 09:03:10.344243  2226 layer_factory.hpp:114] Creating layer inception_4b/3x3
I0327 09:03:10.344269  2226 net.cpp:160] Creating Layer inception_4b/3x3
I0327 09:03:10.344280  2226 net.cpp:596] inception_4b/3x3 <- inception_4b/3x3_reduce
I0327 09:03:10.344296  2226 net.cpp:570] inception_4b/3x3 -> inception_4b/3x3
I0327 09:03:10.359159  2226 net.cpp:210] Setting up inception_4b/3x3
I0327 09:03:10.359237  2226 net.cpp:217] Top shape: 48 224 14 14 (2107392)
I0327 09:03:10.359246  2226 net.cpp:225] Memory required for data: 1921470724
I0327 09:03:10.359272  2226 layer_factory.hpp:114] Creating layer inception_4b/relu_3x3
I0327 09:03:10.359297  2226 net.cpp:160] Creating Layer inception_4b/relu_3x3
I0327 09:03:10.359313  2226 net.cpp:596] inception_4b/relu_3x3 <- inception_4b/3x3
I0327 09:03:10.359328  2226 net.cpp:557] inception_4b/relu_3x3 -> inception_4b/3x3 (in-place)
I0327 09:03:10.359349  2226 net.cpp:210] Setting up inception_4b/relu_3x3
I0327 09:03:10.359360  2226 net.cpp:217] Top shape: 48 224 14 14 (2107392)
I0327 09:03:10.359369  2226 net.cpp:225] Memory required for data: 1929900292
I0327 09:03:10.359377  2226 layer_factory.hpp:114] Creating layer inception_4b/5x5_reduce
I0327 09:03:10.359400  2226 net.cpp:160] Creating Layer inception_4b/5x5_reduce
I0327 09:03:10.359411  2226 net.cpp:596] inception_4b/5x5_reduce <- inception_4a/output_inception_4a/output_0_split_3
I0327 09:03:10.359427  2226 net.cpp:570] inception_4b/5x5_reduce -> inception_4b/5x5_reduce
I0327 09:03:10.363239  2226 net.cpp:210] Setting up inception_4b/5x5_reduce
I0327 09:03:10.363322  2226 net.cpp:217] Top shape: 48 24 14 14 (225792)
I0327 09:03:10.363332  2226 net.cpp:225] Memory required for data: 1930803460
I0327 09:03:10.363353  2226 layer_factory.hpp:114] Creating layer inception_4b/relu_5x5_reduce
I0327 09:03:10.363374  2226 net.cpp:160] Creating Layer inception_4b/relu_5x5_reduce
I0327 09:03:10.363387  2226 net.cpp:596] inception_4b/relu_5x5_reduce <- inception_4b/5x5_reduce
I0327 09:03:10.363402  2226 net.cpp:557] inception_4b/relu_5x5_reduce -> inception_4b/5x5_reduce (in-place)
I0327 09:03:10.363420  2226 net.cpp:210] Setting up inception_4b/relu_5x5_reduce
I0327 09:03:10.363432  2226 net.cpp:217] Top shape: 48 24 14 14 (225792)
I0327 09:03:10.363440  2226 net.cpp:225] Memory required for data: 1931706628
I0327 09:03:10.363450  2226 layer_factory.hpp:114] Creating layer inception_4b/5x5
I0327 09:03:10.363471  2226 net.cpp:160] Creating Layer inception_4b/5x5
I0327 09:03:10.363481  2226 net.cpp:596] inception_4b/5x5 <- inception_4b/5x5_reduce
I0327 09:03:10.363497  2226 net.cpp:570] inception_4b/5x5 -> inception_4b/5x5
I0327 09:03:10.368640  2226 net.cpp:210] Setting up inception_4b/5x5
I0327 09:03:10.368707  2226 net.cpp:217] Top shape: 48 64 14 14 (602112)
I0327 09:03:10.368717  2226 net.cpp:225] Memory required for data: 1934115076
I0327 09:03:10.368741  2226 layer_factory.hpp:114] Creating layer inception_4b/relu_5x5
I0327 09:03:10.368782  2226 net.cpp:160] Creating Layer inception_4b/relu_5x5
I0327 09:03:10.368795  2226 net.cpp:596] inception_4b/relu_5x5 <- inception_4b/5x5
I0327 09:03:10.368810  2226 net.cpp:557] inception_4b/relu_5x5 -> inception_4b/5x5 (in-place)
I0327 09:03:10.368830  2226 net.cpp:210] Setting up inception_4b/relu_5x5
I0327 09:03:10.368841  2226 net.cpp:217] Top shape: 48 64 14 14 (602112)
I0327 09:03:10.368850  2226 net.cpp:225] Memory required for data: 1936523524
I0327 09:03:10.368858  2226 layer_factory.hpp:114] Creating layer inception_4b/pool
I0327 09:03:10.368914  2226 net.cpp:160] Creating Layer inception_4b/pool
I0327 09:03:10.368927  2226 net.cpp:596] inception_4b/pool <- inception_4a/output_inception_4a/output_0_split_4
I0327 09:03:10.368942  2226 net.cpp:570] inception_4b/pool -> inception_4b/pool
I0327 09:03:10.368973  2226 net.cpp:210] Setting up inception_4b/pool
I0327 09:03:10.368988  2226 net.cpp:217] Top shape: 48 512 14 14 (4816896)
I0327 09:03:10.368995  2226 net.cpp:225] Memory required for data: 1955791108
I0327 09:03:10.369004  2226 layer_factory.hpp:114] Creating layer inception_4b/pool_proj
I0327 09:03:10.369035  2226 net.cpp:160] Creating Layer inception_4b/pool_proj
I0327 09:03:10.369047  2226 net.cpp:596] inception_4b/pool_proj <- inception_4b/pool
I0327 09:03:10.369062  2226 net.cpp:570] inception_4b/pool_proj -> inception_4b/pool_proj
I0327 09:03:10.374063  2226 net.cpp:210] Setting up inception_4b/pool_proj
I0327 09:03:10.374125  2226 net.cpp:217] Top shape: 48 64 14 14 (602112)
I0327 09:03:10.374135  2226 net.cpp:225] Memory required for data: 1958199556
I0327 09:03:10.374155  2226 layer_factory.hpp:114] Creating layer inception_4b/relu_pool_proj
I0327 09:03:10.374176  2226 net.cpp:160] Creating Layer inception_4b/relu_pool_proj
I0327 09:03:10.374188  2226 net.cpp:596] inception_4b/relu_pool_proj <- inception_4b/pool_proj
I0327 09:03:10.374210  2226 net.cpp:557] inception_4b/relu_pool_proj -> inception_4b/pool_proj (in-place)
I0327 09:03:10.374229  2226 net.cpp:210] Setting up inception_4b/relu_pool_proj
I0327 09:03:10.374241  2226 net.cpp:217] Top shape: 48 64 14 14 (602112)
I0327 09:03:10.374249  2226 net.cpp:225] Memory required for data: 1960608004
I0327 09:03:10.374258  2226 layer_factory.hpp:114] Creating layer inception_4b/output
I0327 09:03:10.374274  2226 net.cpp:160] Creating Layer inception_4b/output
I0327 09:03:10.374284  2226 net.cpp:596] inception_4b/output <- inception_4b/1x1
I0327 09:03:10.374295  2226 net.cpp:596] inception_4b/output <- inception_4b/3x3
I0327 09:03:10.374306  2226 net.cpp:596] inception_4b/output <- inception_4b/5x5
I0327 09:03:10.374317  2226 net.cpp:596] inception_4b/output <- inception_4b/pool_proj
I0327 09:03:10.374354  2226 net.cpp:570] inception_4b/output -> inception_4b/output
I0327 09:03:10.374374  2226 net.cpp:210] Setting up inception_4b/output
I0327 09:03:10.374387  2226 net.cpp:217] Top shape: 48 512 14 14 (4816896)
I0327 09:03:10.374394  2226 net.cpp:225] Memory required for data: 1979875588
I0327 09:03:10.374403  2226 layer_factory.hpp:114] Creating layer inception_4b/output_inception_4b/output_0_split
I0327 09:03:10.374415  2226 net.cpp:160] Creating Layer inception_4b/output_inception_4b/output_0_split
I0327 09:03:10.374424  2226 net.cpp:596] inception_4b/output_inception_4b/output_0_split <- inception_4b/output
I0327 09:03:10.374439  2226 net.cpp:570] inception_4b/output_inception_4b/output_0_split -> inception_4b/output_inception_4b/output_0_split_0
I0327 09:03:10.374455  2226 net.cpp:570] inception_4b/output_inception_4b/output_0_split -> inception_4b/output_inception_4b/output_0_split_1
I0327 09:03:10.374469  2226 net.cpp:570] inception_4b/output_inception_4b/output_0_split -> inception_4b/output_inception_4b/output_0_split_2
I0327 09:03:10.374485  2226 net.cpp:570] inception_4b/output_inception_4b/output_0_split -> inception_4b/output_inception_4b/output_0_split_3
I0327 09:03:10.374500  2226 net.cpp:210] Setting up inception_4b/output_inception_4b/output_0_split
I0327 09:03:10.374513  2226 net.cpp:217] Top shape: 48 512 14 14 (4816896)
I0327 09:03:10.374531  2226 net.cpp:217] Top shape: 48 512 14 14 (4816896)
I0327 09:03:10.374541  2226 net.cpp:217] Top shape: 48 512 14 14 (4816896)
I0327 09:03:10.374552  2226 net.cpp:217] Top shape: 48 512 14 14 (4816896)
I0327 09:03:10.374560  2226 net.cpp:225] Memory required for data: 2056945924
I0327 09:03:10.374569  2226 layer_factory.hpp:114] Creating layer inception_4c/1x1
I0327 09:03:10.374593  2226 net.cpp:160] Creating Layer inception_4c/1x1
I0327 09:03:10.374604  2226 net.cpp:596] inception_4c/1x1 <- inception_4b/output_inception_4b/output_0_split_0
I0327 09:03:10.374617  2226 net.cpp:570] inception_4c/1x1 -> inception_4c/1x1
I0327 09:03:10.380815  2226 net.cpp:210] Setting up inception_4c/1x1
I0327 09:03:10.380887  2226 net.cpp:217] Top shape: 48 128 14 14 (1204224)
I0327 09:03:10.380897  2226 net.cpp:225] Memory required for data: 2061762820
I0327 09:03:10.380920  2226 layer_factory.hpp:114] Creating layer inception_4c/relu_1x1
I0327 09:03:10.380944  2226 net.cpp:160] Creating Layer inception_4c/relu_1x1
I0327 09:03:10.380956  2226 net.cpp:596] inception_4c/relu_1x1 <- inception_4c/1x1
I0327 09:03:10.380976  2226 net.cpp:557] inception_4c/relu_1x1 -> inception_4c/1x1 (in-place)
I0327 09:03:10.380998  2226 net.cpp:210] Setting up inception_4c/relu_1x1
I0327 09:03:10.381011  2226 net.cpp:217] Top shape: 48 128 14 14 (1204224)
I0327 09:03:10.381026  2226 net.cpp:225] Memory required for data: 2066579716
I0327 09:03:10.381036  2226 layer_factory.hpp:114] Creating layer inception_4c/3x3_reduce
I0327 09:03:10.381062  2226 net.cpp:160] Creating Layer inception_4c/3x3_reduce
I0327 09:03:10.381078  2226 net.cpp:596] inception_4c/3x3_reduce <- inception_4b/output_inception_4b/output_0_split_1
I0327 09:03:10.381093  2226 net.cpp:570] inception_4c/3x3_reduce -> inception_4c/3x3_reduce
I0327 09:03:10.387280  2226 net.cpp:210] Setting up inception_4c/3x3_reduce
I0327 09:03:10.387346  2226 net.cpp:217] Top shape: 48 128 14 14 (1204224)
I0327 09:03:10.387356  2226 net.cpp:225] Memory required for data: 2071396612
I0327 09:03:10.387377  2226 layer_factory.hpp:114] Creating layer inception_4c/relu_3x3_reduce
I0327 09:03:10.387398  2226 net.cpp:160] Creating Layer inception_4c/relu_3x3_reduce
I0327 09:03:10.387410  2226 net.cpp:596] inception_4c/relu_3x3_reduce <- inception_4c/3x3_reduce
I0327 09:03:10.387426  2226 net.cpp:557] inception_4c/relu_3x3_reduce -> inception_4c/3x3_reduce (in-place)
I0327 09:03:10.387445  2226 net.cpp:210] Setting up inception_4c/relu_3x3_reduce
I0327 09:03:10.387457  2226 net.cpp:217] Top shape: 48 128 14 14 (1204224)
I0327 09:03:10.387465  2226 net.cpp:225] Memory required for data: 2076213508
I0327 09:03:10.387501  2226 layer_factory.hpp:114] Creating layer inception_4c/3x3
I0327 09:03:10.387523  2226 net.cpp:160] Creating Layer inception_4c/3x3
I0327 09:03:10.387533  2226 net.cpp:596] inception_4c/3x3 <- inception_4c/3x3_reduce
I0327 09:03:10.387552  2226 net.cpp:570] inception_4c/3x3 -> inception_4c/3x3
I0327 09:03:10.406736  2226 net.cpp:210] Setting up inception_4c/3x3
I0327 09:03:10.406814  2226 net.cpp:217] Top shape: 48 256 14 14 (2408448)
I0327 09:03:10.406824  2226 net.cpp:225] Memory required for data: 2085847300
I0327 09:03:10.406864  2226 layer_factory.hpp:114] Creating layer inception_4c/relu_3x3
I0327 09:03:10.406888  2226 net.cpp:160] Creating Layer inception_4c/relu_3x3
I0327 09:03:10.406903  2226 net.cpp:596] inception_4c/relu_3x3 <- inception_4c/3x3
I0327 09:03:10.406920  2226 net.cpp:557] inception_4c/relu_3x3 -> inception_4c/3x3 (in-place)
I0327 09:03:10.406942  2226 net.cpp:210] Setting up inception_4c/relu_3x3
I0327 09:03:10.406955  2226 net.cpp:217] Top shape: 48 256 14 14 (2408448)
I0327 09:03:10.406962  2226 net.cpp:225] Memory required for data: 2095481092
I0327 09:03:10.406971  2226 layer_factory.hpp:114] Creating layer inception_4c/5x5_reduce
I0327 09:03:10.406993  2226 net.cpp:160] Creating Layer inception_4c/5x5_reduce
I0327 09:03:10.407004  2226 net.cpp:596] inception_4c/5x5_reduce <- inception_4b/output_inception_4b/output_0_split_2
I0327 09:03:10.407025  2226 net.cpp:570] inception_4c/5x5_reduce -> inception_4c/5x5_reduce
I0327 09:03:10.410327  2226 net.cpp:210] Setting up inception_4c/5x5_reduce
I0327 09:03:10.410383  2226 net.cpp:217] Top shape: 48 24 14 14 (225792)
I0327 09:03:10.410392  2226 net.cpp:225] Memory required for data: 2096384260
I0327 09:03:10.410413  2226 layer_factory.hpp:114] Creating layer inception_4c/relu_5x5_reduce
I0327 09:03:10.410439  2226 net.cpp:160] Creating Layer inception_4c/relu_5x5_reduce
I0327 09:03:10.410452  2226 net.cpp:596] inception_4c/relu_5x5_reduce <- inception_4c/5x5_reduce
I0327 09:03:10.410470  2226 net.cpp:557] inception_4c/relu_5x5_reduce -> inception_4c/5x5_reduce (in-place)
I0327 09:03:10.410490  2226 net.cpp:210] Setting up inception_4c/relu_5x5_reduce
I0327 09:03:10.410501  2226 net.cpp:217] Top shape: 48 24 14 14 (225792)
I0327 09:03:10.410511  2226 net.cpp:225] Memory required for data: 2097287428
I0327 09:03:10.410519  2226 layer_factory.hpp:114] Creating layer inception_4c/5x5
I0327 09:03:10.410542  2226 net.cpp:160] Creating Layer inception_4c/5x5
I0327 09:03:10.410552  2226 net.cpp:596] inception_4c/5x5 <- inception_4c/5x5_reduce
I0327 09:03:10.410567  2226 net.cpp:570] inception_4c/5x5 -> inception_4c/5x5
I0327 09:03:10.415727  2226 net.cpp:210] Setting up inception_4c/5x5
I0327 09:03:10.415796  2226 net.cpp:217] Top shape: 48 64 14 14 (602112)
I0327 09:03:10.415804  2226 net.cpp:225] Memory required for data: 2099695876
I0327 09:03:10.415827  2226 layer_factory.hpp:114] Creating layer inception_4c/relu_5x5
I0327 09:03:10.415854  2226 net.cpp:160] Creating Layer inception_4c/relu_5x5
I0327 09:03:10.415868  2226 net.cpp:596] inception_4c/relu_5x5 <- inception_4c/5x5
I0327 09:03:10.415884  2226 net.cpp:557] inception_4c/relu_5x5 -> inception_4c/5x5 (in-place)
I0327 09:03:10.415907  2226 net.cpp:210] Setting up inception_4c/relu_5x5
I0327 09:03:10.415918  2226 net.cpp:217] Top shape: 48 64 14 14 (602112)
I0327 09:03:10.415927  2226 net.cpp:225] Memory required for data: 2102104324
I0327 09:03:10.415935  2226 layer_factory.hpp:114] Creating layer inception_4c/pool
I0327 09:03:10.415984  2226 net.cpp:160] Creating Layer inception_4c/pool
I0327 09:03:10.415997  2226 net.cpp:596] inception_4c/pool <- inception_4b/output_inception_4b/output_0_split_3
I0327 09:03:10.416010  2226 net.cpp:570] inception_4c/pool -> inception_4c/pool
I0327 09:03:10.416039  2226 net.cpp:210] Setting up inception_4c/pool
I0327 09:03:10.416054  2226 net.cpp:217] Top shape: 48 512 14 14 (4816896)
I0327 09:03:10.416061  2226 net.cpp:225] Memory required for data: 2121371908
I0327 09:03:10.416070  2226 layer_factory.hpp:114] Creating layer inception_4c/pool_proj
I0327 09:03:10.416128  2226 net.cpp:160] Creating Layer inception_4c/pool_proj
I0327 09:03:10.416139  2226 net.cpp:596] inception_4c/pool_proj <- inception_4c/pool
I0327 09:03:10.416152  2226 net.cpp:570] inception_4c/pool_proj -> inception_4c/pool_proj
I0327 09:03:10.420883  2226 net.cpp:210] Setting up inception_4c/pool_proj
I0327 09:03:10.420941  2226 net.cpp:217] Top shape: 48 64 14 14 (602112)
I0327 09:03:10.420950  2226 net.cpp:225] Memory required for data: 2123780356
I0327 09:03:10.420974  2226 layer_factory.hpp:114] Creating layer inception_4c/relu_pool_proj
I0327 09:03:10.420996  2226 net.cpp:160] Creating Layer inception_4c/relu_pool_proj
I0327 09:03:10.421010  2226 net.cpp:596] inception_4c/relu_pool_proj <- inception_4c/pool_proj
I0327 09:03:10.421036  2226 net.cpp:557] inception_4c/relu_pool_proj -> inception_4c/pool_proj (in-place)
I0327 09:03:10.421057  2226 net.cpp:210] Setting up inception_4c/relu_pool_proj
I0327 09:03:10.421069  2226 net.cpp:217] Top shape: 48 64 14 14 (602112)
I0327 09:03:10.421083  2226 net.cpp:225] Memory required for data: 2126188804
I0327 09:03:10.421092  2226 layer_factory.hpp:114] Creating layer inception_4c/output
I0327 09:03:10.421106  2226 net.cpp:160] Creating Layer inception_4c/output
I0327 09:03:10.421115  2226 net.cpp:596] inception_4c/output <- inception_4c/1x1
I0327 09:03:10.421126  2226 net.cpp:596] inception_4c/output <- inception_4c/3x3
I0327 09:03:10.421152  2226 net.cpp:596] inception_4c/output <- inception_4c/5x5
I0327 09:03:10.421164  2226 net.cpp:596] inception_4c/output <- inception_4c/pool_proj
I0327 09:03:10.421175  2226 net.cpp:570] inception_4c/output -> inception_4c/output
I0327 09:03:10.421195  2226 net.cpp:210] Setting up inception_4c/output
I0327 09:03:10.421206  2226 net.cpp:217] Top shape: 48 512 14 14 (4816896)
I0327 09:03:10.421216  2226 net.cpp:225] Memory required for data: 2145456388
I0327 09:03:10.421223  2226 layer_factory.hpp:114] Creating layer inception_4c/output_inception_4c/output_0_split
I0327 09:03:10.421239  2226 net.cpp:160] Creating Layer inception_4c/output_inception_4c/output_0_split
I0327 09:03:10.421249  2226 net.cpp:596] inception_4c/output_inception_4c/output_0_split <- inception_4c/output
I0327 09:03:10.421262  2226 net.cpp:570] inception_4c/output_inception_4c/output_0_split -> inception_4c/output_inception_4c/output_0_split_0
I0327 09:03:10.421277  2226 net.cpp:570] inception_4c/output_inception_4c/output_0_split -> inception_4c/output_inception_4c/output_0_split_1
I0327 09:03:10.421295  2226 net.cpp:570] inception_4c/output_inception_4c/output_0_split -> inception_4c/output_inception_4c/output_0_split_2
I0327 09:03:10.421310  2226 net.cpp:570] inception_4c/output_inception_4c/output_0_split -> inception_4c/output_inception_4c/output_0_split_3
I0327 09:03:10.421326  2226 net.cpp:210] Setting up inception_4c/output_inception_4c/output_0_split
I0327 09:03:10.421337  2226 net.cpp:217] Top shape: 48 512 14 14 (4816896)
I0327 09:03:10.421349  2226 net.cpp:217] Top shape: 48 512 14 14 (4816896)
I0327 09:03:10.421358  2226 net.cpp:217] Top shape: 48 512 14 14 (4816896)
I0327 09:03:10.421370  2226 net.cpp:217] Top shape: 48 512 14 14 (4816896)
I0327 09:03:10.421377  2226 net.cpp:225] Memory required for data: 2222526724
I0327 09:03:10.421386  2226 layer_factory.hpp:114] Creating layer inception_4d/1x1
I0327 09:03:10.421409  2226 net.cpp:160] Creating Layer inception_4d/1x1
I0327 09:03:10.421419  2226 net.cpp:596] inception_4d/1x1 <- inception_4c/output_inception_4c/output_0_split_0
I0327 09:03:10.421435  2226 net.cpp:570] inception_4d/1x1 -> inception_4d/1x1
I0327 09:03:10.427779  2226 net.cpp:210] Setting up inception_4d/1x1
I0327 09:03:10.427846  2226 net.cpp:217] Top shape: 48 112 14 14 (1053696)
I0327 09:03:10.427856  2226 net.cpp:225] Memory required for data: 2226741508
I0327 09:03:10.427880  2226 layer_factory.hpp:114] Creating layer inception_4d/relu_1x1
I0327 09:03:10.427906  2226 net.cpp:160] Creating Layer inception_4d/relu_1x1
I0327 09:03:10.427919  2226 net.cpp:596] inception_4d/relu_1x1 <- inception_4d/1x1
I0327 09:03:10.427960  2226 net.cpp:557] inception_4d/relu_1x1 -> inception_4d/1x1 (in-place)
I0327 09:03:10.427981  2226 net.cpp:210] Setting up inception_4d/relu_1x1
I0327 09:03:10.427992  2226 net.cpp:217] Top shape: 48 112 14 14 (1053696)
I0327 09:03:10.428001  2226 net.cpp:225] Memory required for data: 2230956292
I0327 09:03:10.428009  2226 layer_factory.hpp:114] Creating layer inception_4d/3x3_reduce
I0327 09:03:10.428040  2226 net.cpp:160] Creating Layer inception_4d/3x3_reduce
I0327 09:03:10.428052  2226 net.cpp:596] inception_4d/3x3_reduce <- inception_4c/output_inception_4c/output_0_split_1
I0327 09:03:10.428069  2226 net.cpp:570] inception_4d/3x3_reduce -> inception_4d/3x3_reduce
I0327 09:03:10.435292  2226 net.cpp:210] Setting up inception_4d/3x3_reduce
I0327 09:03:10.435364  2226 net.cpp:217] Top shape: 48 144 14 14 (1354752)
I0327 09:03:10.435372  2226 net.cpp:225] Memory required for data: 2236375300
I0327 09:03:10.435396  2226 layer_factory.hpp:114] Creating layer inception_4d/relu_3x3_reduce
I0327 09:03:10.435418  2226 net.cpp:160] Creating Layer inception_4d/relu_3x3_reduce
I0327 09:03:10.435432  2226 net.cpp:596] inception_4d/relu_3x3_reduce <- inception_4d/3x3_reduce
I0327 09:03:10.435447  2226 net.cpp:557] inception_4d/relu_3x3_reduce -> inception_4d/3x3_reduce (in-place)
I0327 09:03:10.435468  2226 net.cpp:210] Setting up inception_4d/relu_3x3_reduce
I0327 09:03:10.435479  2226 net.cpp:217] Top shape: 48 144 14 14 (1354752)
I0327 09:03:10.435506  2226 net.cpp:225] Memory required for data: 2241794308
I0327 09:03:10.435515  2226 layer_factory.hpp:114] Creating layer inception_4d/3x3
I0327 09:03:10.435540  2226 net.cpp:160] Creating Layer inception_4d/3x3
I0327 09:03:10.435550  2226 net.cpp:596] inception_4d/3x3 <- inception_4d/3x3_reduce
I0327 09:03:10.435564  2226 net.cpp:570] inception_4d/3x3 -> inception_4d/3x3
I0327 09:03:10.457577  2226 net.cpp:210] Setting up inception_4d/3x3
I0327 09:03:10.457657  2226 net.cpp:217] Top shape: 48 288 14 14 (2709504)
I0327 09:03:10.457667  2226 net.cpp:225] Memory required for data: 2252632324
I0327 09:03:10.457691  2226 layer_factory.hpp:114] Creating layer inception_4d/relu_3x3
I0327 09:03:10.457720  2226 net.cpp:160] Creating Layer inception_4d/relu_3x3
I0327 09:03:10.457734  2226 net.cpp:596] inception_4d/relu_3x3 <- inception_4d/3x3
I0327 09:03:10.457751  2226 net.cpp:557] inception_4d/relu_3x3 -> inception_4d/3x3 (in-place)
I0327 09:03:10.457770  2226 net.cpp:210] Setting up inception_4d/relu_3x3
I0327 09:03:10.457782  2226 net.cpp:217] Top shape: 48 288 14 14 (2709504)
I0327 09:03:10.457790  2226 net.cpp:225] Memory required for data: 2263470340
I0327 09:03:10.457799  2226 layer_factory.hpp:114] Creating layer inception_4d/5x5_reduce
I0327 09:03:10.457821  2226 net.cpp:160] Creating Layer inception_4d/5x5_reduce
I0327 09:03:10.457833  2226 net.cpp:596] inception_4d/5x5_reduce <- inception_4c/output_inception_4c/output_0_split_2
I0327 09:03:10.457849  2226 net.cpp:570] inception_4d/5x5_reduce -> inception_4d/5x5_reduce
I0327 09:03:10.461707  2226 net.cpp:210] Setting up inception_4d/5x5_reduce
I0327 09:03:10.461769  2226 net.cpp:217] Top shape: 48 32 14 14 (301056)
I0327 09:03:10.461779  2226 net.cpp:225] Memory required for data: 2264674564
I0327 09:03:10.461802  2226 layer_factory.hpp:114] Creating layer inception_4d/relu_5x5_reduce
I0327 09:03:10.461820  2226 net.cpp:160] Creating Layer inception_4d/relu_5x5_reduce
I0327 09:03:10.461834  2226 net.cpp:596] inception_4d/relu_5x5_reduce <- inception_4d/5x5_reduce
I0327 09:03:10.461849  2226 net.cpp:557] inception_4d/relu_5x5_reduce -> inception_4d/5x5_reduce (in-place)
I0327 09:03:10.461869  2226 net.cpp:210] Setting up inception_4d/relu_5x5_reduce
I0327 09:03:10.461880  2226 net.cpp:217] Top shape: 48 32 14 14 (301056)
I0327 09:03:10.461889  2226 net.cpp:225] Memory required for data: 2265878788
I0327 09:03:10.461897  2226 layer_factory.hpp:114] Creating layer inception_4d/5x5
I0327 09:03:10.461920  2226 net.cpp:160] Creating Layer inception_4d/5x5
I0327 09:03:10.461930  2226 net.cpp:596] inception_4d/5x5 <- inception_4d/5x5_reduce
I0327 09:03:10.461972  2226 net.cpp:570] inception_4d/5x5 -> inception_4d/5x5
I0327 09:03:10.468289  2226 net.cpp:210] Setting up inception_4d/5x5
I0327 09:03:10.468361  2226 net.cpp:217] Top shape: 48 64 14 14 (602112)
I0327 09:03:10.468370  2226 net.cpp:225] Memory required for data: 2268287236
I0327 09:03:10.468395  2226 layer_factory.hpp:114] Creating layer inception_4d/relu_5x5
I0327 09:03:10.468417  2226 net.cpp:160] Creating Layer inception_4d/relu_5x5
I0327 09:03:10.468432  2226 net.cpp:596] inception_4d/relu_5x5 <- inception_4d/5x5
I0327 09:03:10.468452  2226 net.cpp:557] inception_4d/relu_5x5 -> inception_4d/5x5 (in-place)
I0327 09:03:10.468474  2226 net.cpp:210] Setting up inception_4d/relu_5x5
I0327 09:03:10.468485  2226 net.cpp:217] Top shape: 48 64 14 14 (602112)
I0327 09:03:10.468493  2226 net.cpp:225] Memory required for data: 2270695684
I0327 09:03:10.468502  2226 layer_factory.hpp:114] Creating layer inception_4d/pool
I0327 09:03:10.468552  2226 net.cpp:160] Creating Layer inception_4d/pool
I0327 09:03:10.468564  2226 net.cpp:596] inception_4d/pool <- inception_4c/output_inception_4c/output_0_split_3
I0327 09:03:10.468580  2226 net.cpp:570] inception_4d/pool -> inception_4d/pool
I0327 09:03:10.468603  2226 net.cpp:210] Setting up inception_4d/pool
I0327 09:03:10.468616  2226 net.cpp:217] Top shape: 48 512 14 14 (4816896)
I0327 09:03:10.468623  2226 net.cpp:225] Memory required for data: 2289963268
I0327 09:03:10.468650  2226 layer_factory.hpp:114] Creating layer inception_4d/pool_proj
I0327 09:03:10.468683  2226 net.cpp:160] Creating Layer inception_4d/pool_proj
I0327 09:03:10.468693  2226 net.cpp:596] inception_4d/pool_proj <- inception_4d/pool
I0327 09:03:10.468709  2226 net.cpp:570] inception_4d/pool_proj -> inception_4d/pool_proj
I0327 09:03:10.473670  2226 net.cpp:210] Setting up inception_4d/pool_proj
I0327 09:03:10.473731  2226 net.cpp:217] Top shape: 48 64 14 14 (602112)
I0327 09:03:10.473740  2226 net.cpp:225] Memory required for data: 2292371716
I0327 09:03:10.473762  2226 layer_factory.hpp:114] Creating layer inception_4d/relu_pool_proj
I0327 09:03:10.473785  2226 net.cpp:160] Creating Layer inception_4d/relu_pool_proj
I0327 09:03:10.473800  2226 net.cpp:596] inception_4d/relu_pool_proj <- inception_4d/pool_proj
I0327 09:03:10.473815  2226 net.cpp:557] inception_4d/relu_pool_proj -> inception_4d/pool_proj (in-place)
I0327 09:03:10.473835  2226 net.cpp:210] Setting up inception_4d/relu_pool_proj
I0327 09:03:10.473847  2226 net.cpp:217] Top shape: 48 64 14 14 (602112)
I0327 09:03:10.473855  2226 net.cpp:225] Memory required for data: 2294780164
I0327 09:03:10.473865  2226 layer_factory.hpp:114] Creating layer inception_4d/output
I0327 09:03:10.473881  2226 net.cpp:160] Creating Layer inception_4d/output
I0327 09:03:10.473891  2226 net.cpp:596] inception_4d/output <- inception_4d/1x1
I0327 09:03:10.473902  2226 net.cpp:596] inception_4d/output <- inception_4d/3x3
I0327 09:03:10.473913  2226 net.cpp:596] inception_4d/output <- inception_4d/5x5
I0327 09:03:10.473924  2226 net.cpp:596] inception_4d/output <- inception_4d/pool_proj
I0327 09:03:10.473937  2226 net.cpp:570] inception_4d/output -> inception_4d/output
I0327 09:03:10.473955  2226 net.cpp:210] Setting up inception_4d/output
I0327 09:03:10.473968  2226 net.cpp:217] Top shape: 48 528 14 14 (4967424)
I0327 09:03:10.473976  2226 net.cpp:225] Memory required for data: 2314649860
I0327 09:03:10.473984  2226 layer_factory.hpp:114] Creating layer inception_4d/output_inception_4d/output_0_split
I0327 09:03:10.473999  2226 net.cpp:160] Creating Layer inception_4d/output_inception_4d/output_0_split
I0327 09:03:10.474007  2226 net.cpp:596] inception_4d/output_inception_4d/output_0_split <- inception_4d/output
I0327 09:03:10.474030  2226 net.cpp:570] inception_4d/output_inception_4d/output_0_split -> inception_4d/output_inception_4d/output_0_split_0
I0327 09:03:10.474046  2226 net.cpp:570] inception_4d/output_inception_4d/output_0_split -> inception_4d/output_inception_4d/output_0_split_1
I0327 09:03:10.474061  2226 net.cpp:570] inception_4d/output_inception_4d/output_0_split -> inception_4d/output_inception_4d/output_0_split_2
I0327 09:03:10.474107  2226 net.cpp:570] inception_4d/output_inception_4d/output_0_split -> inception_4d/output_inception_4d/output_0_split_3
I0327 09:03:10.474123  2226 net.cpp:570] inception_4d/output_inception_4d/output_0_split -> inception_4d/output_inception_4d/output_0_split_4
I0327 09:03:10.474141  2226 net.cpp:210] Setting up inception_4d/output_inception_4d/output_0_split
I0327 09:03:10.474153  2226 net.cpp:217] Top shape: 48 528 14 14 (4967424)
I0327 09:03:10.474164  2226 net.cpp:217] Top shape: 48 528 14 14 (4967424)
I0327 09:03:10.474174  2226 net.cpp:217] Top shape: 48 528 14 14 (4967424)
I0327 09:03:10.474184  2226 net.cpp:217] Top shape: 48 528 14 14 (4967424)
I0327 09:03:10.474195  2226 net.cpp:217] Top shape: 48 528 14 14 (4967424)
I0327 09:03:10.474203  2226 net.cpp:225] Memory required for data: 2413998340
I0327 09:03:10.474211  2226 layer_factory.hpp:114] Creating layer loss2/ave_pool
I0327 09:03:10.474257  2226 net.cpp:160] Creating Layer loss2/ave_pool
I0327 09:03:10.474269  2226 net.cpp:596] loss2/ave_pool <- inception_4d/output_inception_4d/output_0_split_0
I0327 09:03:10.474285  2226 net.cpp:570] loss2/ave_pool -> loss2/ave_pool
I0327 09:03:10.474303  2226 net.cpp:210] Setting up loss2/ave_pool
I0327 09:03:10.474315  2226 net.cpp:217] Top shape: 48 528 4 4 (405504)
I0327 09:03:10.474330  2226 net.cpp:225] Memory required for data: 2415620356
I0327 09:03:10.474339  2226 layer_factory.hpp:114] Creating layer loss2/conv
I0327 09:03:10.474362  2226 net.cpp:160] Creating Layer loss2/conv
I0327 09:03:10.474372  2226 net.cpp:596] loss2/conv <- loss2/ave_pool
I0327 09:03:10.474391  2226 net.cpp:570] loss2/conv -> loss2/conv
I0327 09:03:10.477740  2226 net.cpp:210] Setting up loss2/conv
I0327 09:03:10.477784  2226 net.cpp:217] Top shape: 48 128 4 4 (98304)
I0327 09:03:10.477793  2226 net.cpp:225] Memory required for data: 2416013572
I0327 09:03:10.477811  2226 layer_factory.hpp:114] Creating layer loss2/relu_conv
I0327 09:03:10.477828  2226 net.cpp:160] Creating Layer loss2/relu_conv
I0327 09:03:10.477843  2226 net.cpp:596] loss2/relu_conv <- loss2/conv
I0327 09:03:10.477856  2226 net.cpp:557] loss2/relu_conv -> loss2/conv (in-place)
I0327 09:03:10.477874  2226 net.cpp:210] Setting up loss2/relu_conv
I0327 09:03:10.477885  2226 net.cpp:217] Top shape: 48 128 4 4 (98304)
I0327 09:03:10.477893  2226 net.cpp:225] Memory required for data: 2416406788
I0327 09:03:10.477901  2226 layer_factory.hpp:114] Creating layer loss2/fc
I0327 09:03:10.477921  2226 net.cpp:160] Creating Layer loss2/fc
I0327 09:03:10.477931  2226 net.cpp:596] loss2/fc <- loss2/conv
I0327 09:03:10.477946  2226 net.cpp:570] loss2/fc -> loss2/fc
I0327 09:03:10.513221  2226 net.cpp:210] Setting up loss2/fc
I0327 09:03:10.513296  2226 net.cpp:217] Top shape: 48 1024 (49152)
I0327 09:03:10.513306  2226 net.cpp:225] Memory required for data: 2416603396
I0327 09:03:10.513330  2226 layer_factory.hpp:114] Creating layer loss2/relu_fc
I0327 09:03:10.513352  2226 net.cpp:160] Creating Layer loss2/relu_fc
I0327 09:03:10.513366  2226 net.cpp:596] loss2/relu_fc <- loss2/fc
I0327 09:03:10.513384  2226 net.cpp:557] loss2/relu_fc -> loss2/fc (in-place)
I0327 09:03:10.513404  2226 net.cpp:210] Setting up loss2/relu_fc
I0327 09:03:10.513417  2226 net.cpp:217] Top shape: 48 1024 (49152)
I0327 09:03:10.513424  2226 net.cpp:225] Memory required for data: 2416800004
I0327 09:03:10.513433  2226 layer_factory.hpp:114] Creating layer loss2/drop_fc
I0327 09:03:10.513449  2226 net.cpp:160] Creating Layer loss2/drop_fc
I0327 09:03:10.513458  2226 net.cpp:596] loss2/drop_fc <- loss2/fc
I0327 09:03:10.513469  2226 net.cpp:557] loss2/drop_fc -> loss2/fc (in-place)
I0327 09:03:10.513485  2226 net.cpp:210] Setting up loss2/drop_fc
I0327 09:03:10.513496  2226 net.cpp:217] Top shape: 48 1024 (49152)
I0327 09:03:10.513504  2226 net.cpp:225] Memory required for data: 2416996612
I0327 09:03:10.513512  2226 layer_factory.hpp:114] Creating layer loss2/classifier
I0327 09:03:10.513531  2226 net.cpp:160] Creating Layer loss2/classifier
I0327 09:03:10.513567  2226 net.cpp:596] loss2/classifier <- loss2/fc
I0327 09:03:10.513586  2226 net.cpp:570] loss2/classifier -> loss2/classifier
I0327 09:03:10.531095  2226 net.cpp:210] Setting up loss2/classifier
I0327 09:03:10.531148  2226 net.cpp:217] Top shape: 48 1000 (48000)
I0327 09:03:10.531157  2226 net.cpp:225] Memory required for data: 2417188612
I0327 09:03:10.531177  2226 layer_factory.hpp:114] Creating layer loss2/loss
I0327 09:03:10.531195  2226 net.cpp:160] Creating Layer loss2/loss
I0327 09:03:10.531208  2226 net.cpp:596] loss2/loss <- loss2/classifier
I0327 09:03:10.531222  2226 net.cpp:596] loss2/loss <- label_data_1_split_1
I0327 09:03:10.531234  2226 net.cpp:570] loss2/loss -> loss2/loss1
I0327 09:03:10.531256  2226 layer_factory.hpp:114] Creating layer loss2/loss
I0327 09:03:10.531464  2226 net.cpp:210] Setting up loss2/loss
I0327 09:03:10.531481  2226 net.cpp:217] Top shape: (1)
I0327 09:03:10.531489  2226 net.cpp:220]     with loss weight 0.3
I0327 09:03:10.531512  2226 net.cpp:225] Memory required for data: 2417188616
I0327 09:03:10.531522  2226 layer_factory.hpp:114] Creating layer inception_4e/1x1
I0327 09:03:10.531543  2226 net.cpp:160] Creating Layer inception_4e/1x1
I0327 09:03:10.531553  2226 net.cpp:596] inception_4e/1x1 <- inception_4d/output_inception_4d/output_0_split_1
I0327 09:03:10.531572  2226 net.cpp:570] inception_4e/1x1 -> inception_4e/1x1
I0327 09:03:10.540526  2226 net.cpp:210] Setting up inception_4e/1x1
I0327 09:03:10.540604  2226 net.cpp:217] Top shape: 48 256 14 14 (2408448)
I0327 09:03:10.540614  2226 net.cpp:225] Memory required for data: 2426822408
I0327 09:03:10.540638  2226 layer_factory.hpp:114] Creating layer inception_4e/relu_1x1
I0327 09:03:10.540663  2226 net.cpp:160] Creating Layer inception_4e/relu_1x1
I0327 09:03:10.540676  2226 net.cpp:596] inception_4e/relu_1x1 <- inception_4e/1x1
I0327 09:03:10.540696  2226 net.cpp:557] inception_4e/relu_1x1 -> inception_4e/1x1 (in-place)
I0327 09:03:10.540717  2226 net.cpp:210] Setting up inception_4e/relu_1x1
I0327 09:03:10.540729  2226 net.cpp:217] Top shape: 48 256 14 14 (2408448)
I0327 09:03:10.540738  2226 net.cpp:225] Memory required for data: 2436456200
I0327 09:03:10.540747  2226 layer_factory.hpp:114] Creating layer inception_4e/3x3_reduce
I0327 09:03:10.540773  2226 net.cpp:160] Creating Layer inception_4e/3x3_reduce
I0327 09:03:10.540784  2226 net.cpp:596] inception_4e/3x3_reduce <- inception_4d/output_inception_4d/output_0_split_2
I0327 09:03:10.540799  2226 net.cpp:570] inception_4e/3x3_reduce -> inception_4e/3x3_reduce
I0327 09:03:10.547855  2226 net.cpp:210] Setting up inception_4e/3x3_reduce
I0327 09:03:10.547924  2226 net.cpp:217] Top shape: 48 160 14 14 (1505280)
I0327 09:03:10.547933  2226 net.cpp:225] Memory required for data: 2442477320
I0327 09:03:10.547958  2226 layer_factory.hpp:114] Creating layer inception_4e/relu_3x3_reduce
I0327 09:03:10.547979  2226 net.cpp:160] Creating Layer inception_4e/relu_3x3_reduce
I0327 09:03:10.548002  2226 net.cpp:596] inception_4e/relu_3x3_reduce <- inception_4e/3x3_reduce
I0327 09:03:10.548023  2226 net.cpp:557] inception_4e/relu_3x3_reduce -> inception_4e/3x3_reduce (in-place)
I0327 09:03:10.548045  2226 net.cpp:210] Setting up inception_4e/relu_3x3_reduce
I0327 09:03:10.548058  2226 net.cpp:217] Top shape: 48 160 14 14 (1505280)
I0327 09:03:10.548065  2226 net.cpp:225] Memory required for data: 2448498440
I0327 09:03:10.548079  2226 layer_factory.hpp:114] Creating layer inception_4e/3x3
I0327 09:03:10.548104  2226 net.cpp:160] Creating Layer inception_4e/3x3
I0327 09:03:10.548113  2226 net.cpp:596] inception_4e/3x3 <- inception_4e/3x3_reduce
I0327 09:03:10.548130  2226 net.cpp:570] inception_4e/3x3 -> inception_4e/3x3
I0327 09:03:10.575088  2226 net.cpp:210] Setting up inception_4e/3x3
I0327 09:03:10.575166  2226 net.cpp:217] Top shape: 48 320 14 14 (3010560)
I0327 09:03:10.575176  2226 net.cpp:225] Memory required for data: 2460540680
I0327 09:03:10.575199  2226 layer_factory.hpp:114] Creating layer inception_4e/relu_3x3
I0327 09:03:10.575254  2226 net.cpp:160] Creating Layer inception_4e/relu_3x3
I0327 09:03:10.575269  2226 net.cpp:596] inception_4e/relu_3x3 <- inception_4e/3x3
I0327 09:03:10.575286  2226 net.cpp:557] inception_4e/relu_3x3 -> inception_4e/3x3 (in-place)
I0327 09:03:10.575307  2226 net.cpp:210] Setting up inception_4e/relu_3x3
I0327 09:03:10.575319  2226 net.cpp:217] Top shape: 48 320 14 14 (3010560)
I0327 09:03:10.575327  2226 net.cpp:225] Memory required for data: 2472582920
I0327 09:03:10.575336  2226 layer_factory.hpp:114] Creating layer inception_4e/5x5_reduce
I0327 09:03:10.575358  2226 net.cpp:160] Creating Layer inception_4e/5x5_reduce
I0327 09:03:10.575368  2226 net.cpp:596] inception_4e/5x5_reduce <- inception_4d/output_inception_4d/output_0_split_3
I0327 09:03:10.575387  2226 net.cpp:570] inception_4e/5x5_reduce -> inception_4e/5x5_reduce
I0327 09:03:10.579546  2226 net.cpp:210] Setting up inception_4e/5x5_reduce
I0327 09:03:10.579604  2226 net.cpp:217] Top shape: 48 32 14 14 (301056)
I0327 09:03:10.579614  2226 net.cpp:225] Memory required for data: 2473787144
I0327 09:03:10.579634  2226 layer_factory.hpp:114] Creating layer inception_4e/relu_5x5_reduce
I0327 09:03:10.579653  2226 net.cpp:160] Creating Layer inception_4e/relu_5x5_reduce
I0327 09:03:10.579666  2226 net.cpp:596] inception_4e/relu_5x5_reduce <- inception_4e/5x5_reduce
I0327 09:03:10.579684  2226 net.cpp:557] inception_4e/relu_5x5_reduce -> inception_4e/5x5_reduce (in-place)
I0327 09:03:10.579718  2226 net.cpp:210] Setting up inception_4e/relu_5x5_reduce
I0327 09:03:10.579730  2226 net.cpp:217] Top shape: 48 32 14 14 (301056)
I0327 09:03:10.579740  2226 net.cpp:225] Memory required for data: 2474991368
I0327 09:03:10.579748  2226 layer_factory.hpp:114] Creating layer inception_4e/5x5
I0327 09:03:10.579783  2226 net.cpp:160] Creating Layer inception_4e/5x5
I0327 09:03:10.579794  2226 net.cpp:596] inception_4e/5x5 <- inception_4e/5x5_reduce
I0327 09:03:10.579807  2226 net.cpp:570] inception_4e/5x5 -> inception_4e/5x5
I0327 09:03:10.588865  2226 net.cpp:210] Setting up inception_4e/5x5
I0327 09:03:10.588937  2226 net.cpp:217] Top shape: 48 128 14 14 (1204224)
I0327 09:03:10.588948  2226 net.cpp:225] Memory required for data: 2479808264
I0327 09:03:10.588973  2226 layer_factory.hpp:114] Creating layer inception_4e/relu_5x5
I0327 09:03:10.588999  2226 net.cpp:160] Creating Layer inception_4e/relu_5x5
I0327 09:03:10.589013  2226 net.cpp:596] inception_4e/relu_5x5 <- inception_4e/5x5
I0327 09:03:10.589040  2226 net.cpp:557] inception_4e/relu_5x5 -> inception_4e/5x5 (in-place)
I0327 09:03:10.589061  2226 net.cpp:210] Setting up inception_4e/relu_5x5
I0327 09:03:10.589076  2226 net.cpp:217] Top shape: 48 128 14 14 (1204224)
I0327 09:03:10.589085  2226 net.cpp:225] Memory required for data: 2484625160
I0327 09:03:10.589094  2226 layer_factory.hpp:114] Creating layer inception_4e/pool
I0327 09:03:10.589144  2226 net.cpp:160] Creating Layer inception_4e/pool
I0327 09:03:10.589156  2226 net.cpp:596] inception_4e/pool <- inception_4d/output_inception_4d/output_0_split_4
I0327 09:03:10.589169  2226 net.cpp:570] inception_4e/pool -> inception_4e/pool
I0327 09:03:10.589192  2226 net.cpp:210] Setting up inception_4e/pool
I0327 09:03:10.589205  2226 net.cpp:217] Top shape: 48 528 14 14 (4967424)
I0327 09:03:10.589213  2226 net.cpp:225] Memory required for data: 2504494856
I0327 09:03:10.589221  2226 layer_factory.hpp:114] Creating layer inception_4e/pool_proj
I0327 09:03:10.589253  2226 net.cpp:160] Creating Layer inception_4e/pool_proj
I0327 09:03:10.589264  2226 net.cpp:596] inception_4e/pool_proj <- inception_4e/pool
I0327 09:03:10.589277  2226 net.cpp:570] inception_4e/pool_proj -> inception_4e/pool_proj
I0327 09:03:10.595602  2226 net.cpp:210] Setting up inception_4e/pool_proj
I0327 09:03:10.595674  2226 net.cpp:217] Top shape: 48 128 14 14 (1204224)
I0327 09:03:10.595682  2226 net.cpp:225] Memory required for data: 2509311752
I0327 09:03:10.595706  2226 layer_factory.hpp:114] Creating layer inception_4e/relu_pool_proj
I0327 09:03:10.595727  2226 net.cpp:160] Creating Layer inception_4e/relu_pool_proj
I0327 09:03:10.595770  2226 net.cpp:596] inception_4e/relu_pool_proj <- inception_4e/pool_proj
I0327 09:03:10.595788  2226 net.cpp:557] inception_4e/relu_pool_proj -> inception_4e/pool_proj (in-place)
I0327 09:03:10.595808  2226 net.cpp:210] Setting up inception_4e/relu_pool_proj
I0327 09:03:10.595820  2226 net.cpp:217] Top shape: 48 128 14 14 (1204224)
I0327 09:03:10.595829  2226 net.cpp:225] Memory required for data: 2514128648
I0327 09:03:10.595837  2226 layer_factory.hpp:114] Creating layer inception_4e/output
I0327 09:03:10.595851  2226 net.cpp:160] Creating Layer inception_4e/output
I0327 09:03:10.595860  2226 net.cpp:596] inception_4e/output <- inception_4e/1x1
I0327 09:03:10.595871  2226 net.cpp:596] inception_4e/output <- inception_4e/3x3
I0327 09:03:10.595882  2226 net.cpp:596] inception_4e/output <- inception_4e/5x5
I0327 09:03:10.595893  2226 net.cpp:596] inception_4e/output <- inception_4e/pool_proj
I0327 09:03:10.595906  2226 net.cpp:570] inception_4e/output -> inception_4e/output
I0327 09:03:10.595926  2226 net.cpp:210] Setting up inception_4e/output
I0327 09:03:10.595937  2226 net.cpp:217] Top shape: 48 832 14 14 (7827456)
I0327 09:03:10.595945  2226 net.cpp:225] Memory required for data: 2545438472
I0327 09:03:10.595954  2226 layer_factory.hpp:114] Creating layer pool4/3x3_s2
I0327 09:03:10.596000  2226 net.cpp:160] Creating Layer pool4/3x3_s2
I0327 09:03:10.596027  2226 net.cpp:596] pool4/3x3_s2 <- inception_4e/output
I0327 09:03:10.596043  2226 net.cpp:570] pool4/3x3_s2 -> pool4/3x3_s2
I0327 09:03:10.596065  2226 net.cpp:210] Setting up pool4/3x3_s2
I0327 09:03:10.596081  2226 net.cpp:217] Top shape: 48 832 7 7 (1956864)
I0327 09:03:10.596089  2226 net.cpp:225] Memory required for data: 2553265928
I0327 09:03:10.596098  2226 layer_factory.hpp:114] Creating layer pool4/3x3_s2_pool4/3x3_s2_0_split
I0327 09:03:10.596112  2226 net.cpp:160] Creating Layer pool4/3x3_s2_pool4/3x3_s2_0_split
I0327 09:03:10.596120  2226 net.cpp:596] pool4/3x3_s2_pool4/3x3_s2_0_split <- pool4/3x3_s2
I0327 09:03:10.596135  2226 net.cpp:570] pool4/3x3_s2_pool4/3x3_s2_0_split -> pool4/3x3_s2_pool4/3x3_s2_0_split_0
I0327 09:03:10.596149  2226 net.cpp:570] pool4/3x3_s2_pool4/3x3_s2_0_split -> pool4/3x3_s2_pool4/3x3_s2_0_split_1
I0327 09:03:10.596164  2226 net.cpp:570] pool4/3x3_s2_pool4/3x3_s2_0_split -> pool4/3x3_s2_pool4/3x3_s2_0_split_2
I0327 09:03:10.596179  2226 net.cpp:570] pool4/3x3_s2_pool4/3x3_s2_0_split -> pool4/3x3_s2_pool4/3x3_s2_0_split_3
I0327 09:03:10.596194  2226 net.cpp:210] Setting up pool4/3x3_s2_pool4/3x3_s2_0_split
I0327 09:03:10.596205  2226 net.cpp:217] Top shape: 48 832 7 7 (1956864)
I0327 09:03:10.596216  2226 net.cpp:217] Top shape: 48 832 7 7 (1956864)
I0327 09:03:10.596227  2226 net.cpp:217] Top shape: 48 832 7 7 (1956864)
I0327 09:03:10.596237  2226 net.cpp:217] Top shape: 48 832 7 7 (1956864)
I0327 09:03:10.596246  2226 net.cpp:225] Memory required for data: 2584575752
I0327 09:03:10.596254  2226 layer_factory.hpp:114] Creating layer inception_5a/1x1
I0327 09:03:10.596276  2226 net.cpp:160] Creating Layer inception_5a/1x1
I0327 09:03:10.596287  2226 net.cpp:596] inception_5a/1x1 <- pool4/3x3_s2_pool4/3x3_s2_0_split_0
I0327 09:03:10.596302  2226 net.cpp:570] inception_5a/1x1 -> inception_5a/1x1
I0327 09:03:10.607069  2226 net.cpp:210] Setting up inception_5a/1x1
I0327 09:03:10.607151  2226 net.cpp:217] Top shape: 48 256 7 7 (602112)
I0327 09:03:10.607161  2226 net.cpp:225] Memory required for data: 2586984200
I0327 09:03:10.607184  2226 layer_factory.hpp:114] Creating layer inception_5a/relu_1x1
I0327 09:03:10.607208  2226 net.cpp:160] Creating Layer inception_5a/relu_1x1
I0327 09:03:10.607223  2226 net.cpp:596] inception_5a/relu_1x1 <- inception_5a/1x1
I0327 09:03:10.607239  2226 net.cpp:557] inception_5a/relu_1x1 -> inception_5a/1x1 (in-place)
I0327 09:03:10.607260  2226 net.cpp:210] Setting up inception_5a/relu_1x1
I0327 09:03:10.607271  2226 net.cpp:217] Top shape: 48 256 7 7 (602112)
I0327 09:03:10.607280  2226 net.cpp:225] Memory required for data: 2589392648
I0327 09:03:10.607316  2226 layer_factory.hpp:114] Creating layer inception_5a/3x3_reduce
I0327 09:03:10.607343  2226 net.cpp:160] Creating Layer inception_5a/3x3_reduce
I0327 09:03:10.607355  2226 net.cpp:596] inception_5a/3x3_reduce <- pool4/3x3_s2_pool4/3x3_s2_0_split_1
I0327 09:03:10.607370  2226 net.cpp:570] inception_5a/3x3_reduce -> inception_5a/3x3_reduce
I0327 09:03:10.614467  2226 net.cpp:210] Setting up inception_5a/3x3_reduce
I0327 09:03:10.614542  2226 net.cpp:217] Top shape: 48 160 7 7 (376320)
I0327 09:03:10.614552  2226 net.cpp:225] Memory required for data: 2590897928
I0327 09:03:10.614576  2226 layer_factory.hpp:114] Creating layer inception_5a/relu_3x3_reduce
I0327 09:03:10.614603  2226 net.cpp:160] Creating Layer inception_5a/relu_3x3_reduce
I0327 09:03:10.614617  2226 net.cpp:596] inception_5a/relu_3x3_reduce <- inception_5a/3x3_reduce
I0327 09:03:10.614634  2226 net.cpp:557] inception_5a/relu_3x3_reduce -> inception_5a/3x3_reduce (in-place)
I0327 09:03:10.614655  2226 net.cpp:210] Setting up inception_5a/relu_3x3_reduce
I0327 09:03:10.614667  2226 net.cpp:217] Top shape: 48 160 7 7 (376320)
I0327 09:03:10.614675  2226 net.cpp:225] Memory required for data: 2592403208
I0327 09:03:10.614684  2226 layer_factory.hpp:114] Creating layer inception_5a/3x3
I0327 09:03:10.614711  2226 net.cpp:160] Creating Layer inception_5a/3x3
I0327 09:03:10.614720  2226 net.cpp:596] inception_5a/3x3 <- inception_5a/3x3_reduce
I0327 09:03:10.614753  2226 net.cpp:570] inception_5a/3x3 -> inception_5a/3x3
I0327 09:03:10.635957  2226 net.cpp:210] Setting up inception_5a/3x3
I0327 09:03:10.636042  2226 net.cpp:217] Top shape: 48 320 7 7 (752640)
I0327 09:03:10.636054  2226 net.cpp:225] Memory required for data: 2595413768
I0327 09:03:10.636083  2226 layer_factory.hpp:114] Creating layer inception_5a/relu_3x3
I0327 09:03:10.636107  2226 net.cpp:160] Creating Layer inception_5a/relu_3x3
I0327 09:03:10.636121  2226 net.cpp:596] inception_5a/relu_3x3 <- inception_5a/3x3
I0327 09:03:10.636137  2226 net.cpp:557] inception_5a/relu_3x3 -> inception_5a/3x3 (in-place)
I0327 09:03:10.636158  2226 net.cpp:210] Setting up inception_5a/relu_3x3
I0327 09:03:10.636170  2226 net.cpp:217] Top shape: 48 320 7 7 (752640)
I0327 09:03:10.636178  2226 net.cpp:225] Memory required for data: 2598424328
I0327 09:03:10.636188  2226 layer_factory.hpp:114] Creating layer inception_5a/5x5_reduce
I0327 09:03:10.636214  2226 net.cpp:160] Creating Layer inception_5a/5x5_reduce
I0327 09:03:10.636225  2226 net.cpp:596] inception_5a/5x5_reduce <- pool4/3x3_s2_pool4/3x3_s2_0_split_2
I0327 09:03:10.636240  2226 net.cpp:570] inception_5a/5x5_reduce -> inception_5a/5x5_reduce
I0327 09:03:10.639292  2226 net.cpp:210] Setting up inception_5a/5x5_reduce
I0327 09:03:10.639333  2226 net.cpp:217] Top shape: 48 32 7 7 (75264)
I0327 09:03:10.639343  2226 net.cpp:225] Memory required for data: 2598725384
I0327 09:03:10.639359  2226 layer_factory.hpp:114] Creating layer inception_5a/relu_5x5_reduce
I0327 09:03:10.639375  2226 net.cpp:160] Creating Layer inception_5a/relu_5x5_reduce
I0327 09:03:10.639387  2226 net.cpp:596] inception_5a/relu_5x5_reduce <- inception_5a/5x5_reduce
I0327 09:03:10.639406  2226 net.cpp:557] inception_5a/relu_5x5_reduce -> inception_5a/5x5_reduce (in-place)
I0327 09:03:10.639423  2226 net.cpp:210] Setting up inception_5a/relu_5x5_reduce
I0327 09:03:10.639436  2226 net.cpp:217] Top shape: 48 32 7 7 (75264)
I0327 09:03:10.639443  2226 net.cpp:225] Memory required for data: 2599026440
I0327 09:03:10.639452  2226 layer_factory.hpp:114] Creating layer inception_5a/5x5
I0327 09:03:10.639472  2226 net.cpp:160] Creating Layer inception_5a/5x5
I0327 09:03:10.639482  2226 net.cpp:596] inception_5a/5x5 <- inception_5a/5x5_reduce
I0327 09:03:10.639495  2226 net.cpp:570] inception_5a/5x5 -> inception_5a/5x5
I0327 09:03:10.646023  2226 net.cpp:210] Setting up inception_5a/5x5
I0327 09:03:10.646092  2226 net.cpp:217] Top shape: 48 128 7 7 (301056)
I0327 09:03:10.646102  2226 net.cpp:225] Memory required for data: 2600230664
I0327 09:03:10.646123  2226 layer_factory.hpp:114] Creating layer inception_5a/relu_5x5
I0327 09:03:10.646170  2226 net.cpp:160] Creating Layer inception_5a/relu_5x5
I0327 09:03:10.646184  2226 net.cpp:596] inception_5a/relu_5x5 <- inception_5a/5x5
I0327 09:03:10.646204  2226 net.cpp:557] inception_5a/relu_5x5 -> inception_5a/5x5 (in-place)
I0327 09:03:10.646224  2226 net.cpp:210] Setting up inception_5a/relu_5x5
I0327 09:03:10.646236  2226 net.cpp:217] Top shape: 48 128 7 7 (301056)
I0327 09:03:10.646245  2226 net.cpp:225] Memory required for data: 2601434888
I0327 09:03:10.646253  2226 layer_factory.hpp:114] Creating layer inception_5a/pool
I0327 09:03:10.646303  2226 net.cpp:160] Creating Layer inception_5a/pool
I0327 09:03:10.646317  2226 net.cpp:596] inception_5a/pool <- pool4/3x3_s2_pool4/3x3_s2_0_split_3
I0327 09:03:10.646329  2226 net.cpp:570] inception_5a/pool -> inception_5a/pool
I0327 09:03:10.646353  2226 net.cpp:210] Setting up inception_5a/pool
I0327 09:03:10.646364  2226 net.cpp:217] Top shape: 48 832 7 7 (1956864)
I0327 09:03:10.646373  2226 net.cpp:225] Memory required for data: 2609262344
I0327 09:03:10.646381  2226 layer_factory.hpp:114] Creating layer inception_5a/pool_proj
I0327 09:03:10.646407  2226 net.cpp:160] Creating Layer inception_5a/pool_proj
I0327 09:03:10.646417  2226 net.cpp:596] inception_5a/pool_proj <- inception_5a/pool
I0327 09:03:10.646431  2226 net.cpp:570] inception_5a/pool_proj -> inception_5a/pool_proj
I0327 09:03:10.653267  2226 net.cpp:210] Setting up inception_5a/pool_proj
I0327 09:03:10.653332  2226 net.cpp:217] Top shape: 48 128 7 7 (301056)
I0327 09:03:10.653342  2226 net.cpp:225] Memory required for data: 2610466568
I0327 09:03:10.653363  2226 layer_factory.hpp:114] Creating layer inception_5a/relu_pool_proj
I0327 09:03:10.653388  2226 net.cpp:160] Creating Layer inception_5a/relu_pool_proj
I0327 09:03:10.653403  2226 net.cpp:596] inception_5a/relu_pool_proj <- inception_5a/pool_proj
I0327 09:03:10.653419  2226 net.cpp:557] inception_5a/relu_pool_proj -> inception_5a/pool_proj (in-place)
I0327 09:03:10.653439  2226 net.cpp:210] Setting up inception_5a/relu_pool_proj
I0327 09:03:10.653450  2226 net.cpp:217] Top shape: 48 128 7 7 (301056)
I0327 09:03:10.653458  2226 net.cpp:225] Memory required for data: 2611670792
I0327 09:03:10.653467  2226 layer_factory.hpp:114] Creating layer inception_5a/output
I0327 09:03:10.653481  2226 net.cpp:160] Creating Layer inception_5a/output
I0327 09:03:10.653491  2226 net.cpp:596] inception_5a/output <- inception_5a/1x1
I0327 09:03:10.653502  2226 net.cpp:596] inception_5a/output <- inception_5a/3x3
I0327 09:03:10.653513  2226 net.cpp:596] inception_5a/output <- inception_5a/5x5
I0327 09:03:10.653524  2226 net.cpp:596] inception_5a/output <- inception_5a/pool_proj
I0327 09:03:10.653537  2226 net.cpp:570] inception_5a/output -> inception_5a/output
I0327 09:03:10.653555  2226 net.cpp:210] Setting up inception_5a/output
I0327 09:03:10.653568  2226 net.cpp:217] Top shape: 48 832 7 7 (1956864)
I0327 09:03:10.653578  2226 net.cpp:225] Memory required for data: 2619498248
I0327 09:03:10.653586  2226 layer_factory.hpp:114] Creating layer inception_5a/output_inception_5a/output_0_split
I0327 09:03:10.653599  2226 net.cpp:160] Creating Layer inception_5a/output_inception_5a/output_0_split
I0327 09:03:10.653609  2226 net.cpp:596] inception_5a/output_inception_5a/output_0_split <- inception_5a/output
I0327 09:03:10.653625  2226 net.cpp:570] inception_5a/output_inception_5a/output_0_split -> inception_5a/output_inception_5a/output_0_split_0
I0327 09:03:10.653640  2226 net.cpp:570] inception_5a/output_inception_5a/output_0_split -> inception_5a/output_inception_5a/output_0_split_1
I0327 09:03:10.653654  2226 net.cpp:570] inception_5a/output_inception_5a/output_0_split -> inception_5a/output_inception_5a/output_0_split_2
I0327 09:03:10.653669  2226 net.cpp:570] inception_5a/output_inception_5a/output_0_split -> inception_5a/output_inception_5a/output_0_split_3
I0327 09:03:10.653686  2226 net.cpp:210] Setting up inception_5a/output_inception_5a/output_0_split
I0327 09:03:10.653697  2226 net.cpp:217] Top shape: 48 832 7 7 (1956864)
I0327 09:03:10.653733  2226 net.cpp:217] Top shape: 48 832 7 7 (1956864)
I0327 09:03:10.653743  2226 net.cpp:217] Top shape: 48 832 7 7 (1956864)
I0327 09:03:10.653753  2226 net.cpp:217] Top shape: 48 832 7 7 (1956864)
I0327 09:03:10.653761  2226 net.cpp:225] Memory required for data: 2650808072
I0327 09:03:10.653770  2226 layer_factory.hpp:114] Creating layer inception_5b/1x1
I0327 09:03:10.653792  2226 net.cpp:160] Creating Layer inception_5b/1x1
I0327 09:03:10.653802  2226 net.cpp:596] inception_5b/1x1 <- inception_5a/output_inception_5a/output_0_split_0
I0327 09:03:10.653815  2226 net.cpp:570] inception_5b/1x1 -> inception_5b/1x1
I0327 09:03:10.669195  2226 net.cpp:210] Setting up inception_5b/1x1
I0327 09:03:10.669275  2226 net.cpp:217] Top shape: 48 384 7 7 (903168)
I0327 09:03:10.669283  2226 net.cpp:225] Memory required for data: 2654420744
I0327 09:03:10.669307  2226 layer_factory.hpp:114] Creating layer inception_5b/relu_1x1
I0327 09:03:10.669334  2226 net.cpp:160] Creating Layer inception_5b/relu_1x1
I0327 09:03:10.669349  2226 net.cpp:596] inception_5b/relu_1x1 <- inception_5b/1x1
I0327 09:03:10.669365  2226 net.cpp:557] inception_5b/relu_1x1 -> inception_5b/1x1 (in-place)
I0327 09:03:10.669386  2226 net.cpp:210] Setting up inception_5b/relu_1x1
I0327 09:03:10.669399  2226 net.cpp:217] Top shape: 48 384 7 7 (903168)
I0327 09:03:10.669406  2226 net.cpp:225] Memory required for data: 2658033416
I0327 09:03:10.669433  2226 layer_factory.hpp:114] Creating layer inception_5b/3x3_reduce
I0327 09:03:10.669457  2226 net.cpp:160] Creating Layer inception_5b/3x3_reduce
I0327 09:03:10.669468  2226 net.cpp:596] inception_5b/3x3_reduce <- inception_5a/output_inception_5a/output_0_split_1
I0327 09:03:10.669486  2226 net.cpp:570] inception_5b/3x3_reduce -> inception_5b/3x3_reduce
I0327 09:03:10.677952  2226 net.cpp:210] Setting up inception_5b/3x3_reduce
I0327 09:03:10.678026  2226 net.cpp:217] Top shape: 48 192 7 7 (451584)
I0327 09:03:10.678037  2226 net.cpp:225] Memory required for data: 2659839752
I0327 09:03:10.678061  2226 layer_factory.hpp:114] Creating layer inception_5b/relu_3x3_reduce
I0327 09:03:10.678086  2226 net.cpp:160] Creating Layer inception_5b/relu_3x3_reduce
I0327 09:03:10.678100  2226 net.cpp:596] inception_5b/relu_3x3_reduce <- inception_5b/3x3_reduce
I0327 09:03:10.678115  2226 net.cpp:557] inception_5b/relu_3x3_reduce -> inception_5b/3x3_reduce (in-place)
I0327 09:03:10.678135  2226 net.cpp:210] Setting up inception_5b/relu_3x3_reduce
I0327 09:03:10.678146  2226 net.cpp:217] Top shape: 48 192 7 7 (451584)
I0327 09:03:10.678154  2226 net.cpp:225] Memory required for data: 2661646088
I0327 09:03:10.678164  2226 layer_factory.hpp:114] Creating layer inception_5b/3x3
I0327 09:03:10.678189  2226 net.cpp:160] Creating Layer inception_5b/3x3
I0327 09:03:10.678198  2226 net.cpp:596] inception_5b/3x3 <- inception_5b/3x3_reduce
I0327 09:03:10.678211  2226 net.cpp:570] inception_5b/3x3 -> inception_5b/3x3
I0327 09:03:10.708917  2226 net.cpp:210] Setting up inception_5b/3x3
I0327 09:03:10.708998  2226 net.cpp:217] Top shape: 48 384 7 7 (903168)
I0327 09:03:10.709008  2226 net.cpp:225] Memory required for data: 2665258760
I0327 09:03:10.709039  2226 layer_factory.hpp:114] Creating layer inception_5b/relu_3x3
I0327 09:03:10.709069  2226 net.cpp:160] Creating Layer inception_5b/relu_3x3
I0327 09:03:10.709089  2226 net.cpp:596] inception_5b/relu_3x3 <- inception_5b/3x3
I0327 09:03:10.709105  2226 net.cpp:557] inception_5b/relu_3x3 -> inception_5b/3x3 (in-place)
I0327 09:03:10.709127  2226 net.cpp:210] Setting up inception_5b/relu_3x3
I0327 09:03:10.709138  2226 net.cpp:217] Top shape: 48 384 7 7 (903168)
I0327 09:03:10.709147  2226 net.cpp:225] Memory required for data: 2668871432
I0327 09:03:10.709156  2226 layer_factory.hpp:114] Creating layer inception_5b/5x5_reduce
I0327 09:03:10.709178  2226 net.cpp:160] Creating Layer inception_5b/5x5_reduce
I0327 09:03:10.709189  2226 net.cpp:596] inception_5b/5x5_reduce <- inception_5a/output_inception_5a/output_0_split_2
I0327 09:03:10.709233  2226 net.cpp:570] inception_5b/5x5_reduce -> inception_5b/5x5_reduce
I0327 09:03:10.712960  2226 net.cpp:210] Setting up inception_5b/5x5_reduce
I0327 09:03:10.713006  2226 net.cpp:217] Top shape: 48 48 7 7 (112896)
I0327 09:03:10.713021  2226 net.cpp:225] Memory required for data: 2669323016
I0327 09:03:10.713042  2226 layer_factory.hpp:114] Creating layer inception_5b/relu_5x5_reduce
I0327 09:03:10.713060  2226 net.cpp:160] Creating Layer inception_5b/relu_5x5_reduce
I0327 09:03:10.713078  2226 net.cpp:596] inception_5b/relu_5x5_reduce <- inception_5b/5x5_reduce
I0327 09:03:10.713095  2226 net.cpp:557] inception_5b/relu_5x5_reduce -> inception_5b/5x5_reduce (in-place)
I0327 09:03:10.713114  2226 net.cpp:210] Setting up inception_5b/relu_5x5_reduce
I0327 09:03:10.713125  2226 net.cpp:217] Top shape: 48 48 7 7 (112896)
I0327 09:03:10.713134  2226 net.cpp:225] Memory required for data: 2669774600
I0327 09:03:10.713142  2226 layer_factory.hpp:114] Creating layer inception_5b/5x5
I0327 09:03:10.713160  2226 net.cpp:160] Creating Layer inception_5b/5x5
I0327 09:03:10.713171  2226 net.cpp:596] inception_5b/5x5 <- inception_5b/5x5_reduce
I0327 09:03:10.713186  2226 net.cpp:570] inception_5b/5x5 -> inception_5b/5x5
I0327 09:03:10.721926  2226 net.cpp:210] Setting up inception_5b/5x5
I0327 09:03:10.722007  2226 net.cpp:217] Top shape: 48 128 7 7 (301056)
I0327 09:03:10.722023  2226 net.cpp:225] Memory required for data: 2670978824
I0327 09:03:10.722075  2226 layer_factory.hpp:114] Creating layer inception_5b/relu_5x5
I0327 09:03:10.722100  2226 net.cpp:160] Creating Layer inception_5b/relu_5x5
I0327 09:03:10.722115  2226 net.cpp:596] inception_5b/relu_5x5 <- inception_5b/5x5
I0327 09:03:10.722131  2226 net.cpp:557] inception_5b/relu_5x5 -> inception_5b/5x5 (in-place)
I0327 09:03:10.722152  2226 net.cpp:210] Setting up inception_5b/relu_5x5
I0327 09:03:10.722164  2226 net.cpp:217] Top shape: 48 128 7 7 (301056)
I0327 09:03:10.722173  2226 net.cpp:225] Memory required for data: 2672183048
I0327 09:03:10.722182  2226 layer_factory.hpp:114] Creating layer inception_5b/pool
I0327 09:03:10.722235  2226 net.cpp:160] Creating Layer inception_5b/pool
I0327 09:03:10.722249  2226 net.cpp:596] inception_5b/pool <- inception_5a/output_inception_5a/output_0_split_3
I0327 09:03:10.722261  2226 net.cpp:570] inception_5b/pool -> inception_5b/pool
I0327 09:03:10.722285  2226 net.cpp:210] Setting up inception_5b/pool
I0327 09:03:10.722301  2226 net.cpp:217] Top shape: 48 832 7 7 (1956864)
I0327 09:03:10.722311  2226 net.cpp:225] Memory required for data: 2680010504
I0327 09:03:10.722319  2226 layer_factory.hpp:114] Creating layer inception_5b/pool_proj
I0327 09:03:10.722342  2226 net.cpp:160] Creating Layer inception_5b/pool_proj
I0327 09:03:10.722352  2226 net.cpp:596] inception_5b/pool_proj <- inception_5b/pool
I0327 09:03:10.722368  2226 net.cpp:570] inception_5b/pool_proj -> inception_5b/pool_proj
I0327 09:03:10.728464  2226 net.cpp:210] Setting up inception_5b/pool_proj
I0327 09:03:10.728525  2226 net.cpp:217] Top shape: 48 128 7 7 (301056)
I0327 09:03:10.728534  2226 net.cpp:225] Memory required for data: 2681214728
I0327 09:03:10.728556  2226 layer_factory.hpp:114] Creating layer inception_5b/relu_pool_proj
I0327 09:03:10.728577  2226 net.cpp:160] Creating Layer inception_5b/relu_pool_proj
I0327 09:03:10.728590  2226 net.cpp:596] inception_5b/relu_pool_proj <- inception_5b/pool_proj
I0327 09:03:10.728605  2226 net.cpp:557] inception_5b/relu_pool_proj -> inception_5b/pool_proj (in-place)
I0327 09:03:10.728624  2226 net.cpp:210] Setting up inception_5b/relu_pool_proj
I0327 09:03:10.728636  2226 net.cpp:217] Top shape: 48 128 7 7 (301056)
I0327 09:03:10.728644  2226 net.cpp:225] Memory required for data: 2682418952
I0327 09:03:10.728653  2226 layer_factory.hpp:114] Creating layer inception_5b/output
I0327 09:03:10.728667  2226 net.cpp:160] Creating Layer inception_5b/output
I0327 09:03:10.728677  2226 net.cpp:596] inception_5b/output <- inception_5b/1x1
I0327 09:03:10.728688  2226 net.cpp:596] inception_5b/output <- inception_5b/3x3
I0327 09:03:10.728724  2226 net.cpp:596] inception_5b/output <- inception_5b/5x5
I0327 09:03:10.728735  2226 net.cpp:596] inception_5b/output <- inception_5b/pool_proj
I0327 09:03:10.728750  2226 net.cpp:570] inception_5b/output -> inception_5b/output
I0327 09:03:10.728771  2226 net.cpp:210] Setting up inception_5b/output
I0327 09:03:10.728782  2226 net.cpp:217] Top shape: 48 1024 7 7 (2408448)
I0327 09:03:10.728791  2226 net.cpp:225] Memory required for data: 2692052744
I0327 09:03:10.728799  2226 layer_factory.hpp:114] Creating layer pool5/7x7_s1
I0327 09:03:10.728843  2226 net.cpp:160] Creating Layer pool5/7x7_s1
I0327 09:03:10.728854  2226 net.cpp:596] pool5/7x7_s1 <- inception_5b/output
I0327 09:03:10.728868  2226 net.cpp:570] pool5/7x7_s1 -> pool5/7x7_s1
I0327 09:03:10.728885  2226 net.cpp:210] Setting up pool5/7x7_s1
I0327 09:03:10.728898  2226 net.cpp:217] Top shape: 48 1024 1 1 (49152)
I0327 09:03:10.728905  2226 net.cpp:225] Memory required for data: 2692249352
I0327 09:03:10.728914  2226 layer_factory.hpp:114] Creating layer pool5/drop_7x7_s1
I0327 09:03:10.728929  2226 net.cpp:160] Creating Layer pool5/drop_7x7_s1
I0327 09:03:10.728938  2226 net.cpp:596] pool5/drop_7x7_s1 <- pool5/7x7_s1
I0327 09:03:10.728952  2226 net.cpp:557] pool5/drop_7x7_s1 -> pool5/7x7_s1 (in-place)
I0327 09:03:10.728970  2226 net.cpp:210] Setting up pool5/drop_7x7_s1
I0327 09:03:10.728981  2226 net.cpp:217] Top shape: 48 1024 1 1 (49152)
I0327 09:03:10.728996  2226 net.cpp:225] Memory required for data: 2692445960
I0327 09:03:10.729004  2226 layer_factory.hpp:114] Creating layer loss3/classifier
I0327 09:03:10.729032  2226 net.cpp:160] Creating Layer loss3/classifier
I0327 09:03:10.729043  2226 net.cpp:596] loss3/classifier <- pool5/7x7_s1
I0327 09:03:10.729055  2226 net.cpp:570] loss3/classifier -> loss3/classifier
I0327 09:03:10.746516  2226 net.cpp:210] Setting up loss3/classifier
I0327 09:03:10.746572  2226 net.cpp:217] Top shape: 48 1000 (48000)
I0327 09:03:10.746582  2226 net.cpp:225] Memory required for data: 2692637960
I0327 09:03:10.746601  2226 layer_factory.hpp:114] Creating layer loss3/loss3
I0327 09:03:10.746621  2226 net.cpp:160] Creating Layer loss3/loss3
I0327 09:03:10.746634  2226 net.cpp:596] loss3/loss3 <- loss3/classifier
I0327 09:03:10.746649  2226 net.cpp:596] loss3/loss3 <- label_data_1_split_2
I0327 09:03:10.746661  2226 net.cpp:570] loss3/loss3 -> loss3/loss3
…
I0327 09:03:10.760205  2226 net.cpp:484] The NetState phase (1) differed from the phase (0) specified by a rule in layer data
I0327 09:03:10.767855  2226 net.cpp:120] Initializing net from parameters: 
name: "GoogleNet"
state {
  phase: TEST
}
layer {
  name: "data"
  type: "Data"
  top: "data"
  top: "label"
  include {
    phase: TEST
  }
  transform_param {
    mirror: false
    crop_size: 224
    mean_value: 104
    mean_value: 117
    mean_value: 123
  }
  data_param {
    source: "/home/user/user/LIBRARIES/caffeLibs/caffe/examples/imagenet/ilsvrc12_val_lmdb"
    batch_size: 50
    backend: LMDB
  }
}
layer {
  name: "label_data_1_split"
  type: "Split"
  bottom: "label"
  top: "label_data_1_split_0"
  top: "label_data_1_split_1"
  top: "label_data_1_split_2"
  top: "label_data_1_split_3"
  top: "label_data_1_split_4"
  top: "label_data_1_split_5"
  top: "label_data_1_split_6"
  top: "label_data_1_split_7"
  top: "label_data_1_split_8"
}
layer {
  name: "conv1/7x7_s2"
  type: "Convolution"
  bottom: "data"
  top: "conv1/7x7_s2"
  param {
    lr_mult: 1
    decay_mult: 1
  }
  param {
    lr_mult: 2
    decay_mult: 0
  }
  convolution_param {
    num_output: 64
    pad: 3
    kernel_size: 7
    stride: 2
    weight_filler {
      type: "xavier"
    }
    bias_filler {
      type: "constant"
      value: 0.2
    }
  }
}
layer {
  name: "conv1/relu_7x7"
  type: "ReLU"
  bottom: "conv1/7x7_s2"
  top: "conv1/7x7_s2"
}
layer {
  name: "pool1/3x3_s2"
  type: "Pooling"
  bottom: "conv1/7x7_s2"
  top: "pool1/3x3_s2"
  pooling_param {
    pool: MAX
    kernel_size: 3
    stride: 2
  }
}
layer {
  name: "pool1/norm1"
  type: "LRN"
  bottom: "pool1/3x3_s2"
  top: "pool1/norm1"
  lrn_param {
    local_size: 5
    alpha: 0.0001
    beta: 0.75
  }
}
layer {
  name: "conv2/3x3_reduce"
  type: "Convolution"
  bottom: "pool1/norm1"
  top: "conv2/3x3_reduce"
  param {
    lr_mult: 1
    decay_mult: 1
  }
  param {
    lr_mult: 2
    decay_mult: 0
  }
  convolution_param {
    num_output: 64
    kernel_size: 1
    weight_filler {
      type: "xavier"
    }
    bias_filler {
      type: "constant"
      value: 0.2
    }
  }
}
layer {
  name: "conv2/relu_3x3_reduce"
  type: "ReLU"
  bottom: "conv2/3x3_reduce"
  top: "conv2/3x3_reduce"
}
layer {
  name: "conv2/3x3"
  type: "Convolution"
  bottom: "conv2/3x3_reduce"
  top: "conv2/3x3"
  param {
    lr_mult: 1
    decay_mult: 1
  }
  param {
    lr_mult: 2
    decay_mult: 0
  }
  convolution_param {
    num_output: 192
    pad: 1
    kernel_size: 3
    weight_filler {
      type: "xavier"
    }
    bias_filler {
      type: "constant"
      value: 0.2
    }
  }
}
layer {
  name: "conv2/relu_3x3"
  type: "ReLU"
  bottom: "conv2/3x3"
  top: "conv2/3x3"
}
layer {
  name: "conv2/norm2"
  type: "LRN"
  bottom: "conv2/3x3"
  top: "conv2/norm2"
  lrn_param {
    local_size: 5
    alpha: 0.0001
    beta: 0.75
  }
}
layer {
  name: "pool2/3x3_s2"
  type: "Pooling"
  bottom: "conv2/norm2"
  top: "pool2/3x3_s2"
  pooling_param {
    pool: MAX
    kernel_size: 3
    stride: 2
  }
}
layer {
  name: "pool2/3x3_s2_pool2/3x3_s2_0_split"
  type: "Split"
  bottom: "pool2/3x3_s2"
  top: "pool2/3x3_s2_pool2/3x3_s2_0_split_0"
  top: "pool2/3x3_s2_pool2/3x3_s2_0_split_1"
  top: "pool2/3x3_s2_pool2/3x3_s2_0_split_2"
  top: "pool2/3x3_s2_pool2/3x3_s2_0_split_3"
}
layer {
  name: "inception_3a/1x1"
  type: "Convolution"
  bottom: "pool2/3x3_s2_pool2/3x3_s2_0_split_0"
  top: "inception_3a/1x1"
  param {
    lr_mult: 1
    decay_mult: 1
  }
  param {
    lr_mult: 2
    decay_mult: 0
  }
  convolution_param {
    num_output: 64
    kernel_size: 1
    weight_filler {
      type: "xavier"
    }
    bias_filler {
      type: "constant"
      value: 0.2
    }
  }
}
layer {
  name: "inception_3a/relu_1x1"
  type: "ReLU"
  bottom: "inception_3a/1x1"
  top: "inception_3a/1x1"
}
layer {
  name: "inception_3a/3x3_reduce"
  type: "Convolution"
  bottom: "pool2/3x3_s2_pool2/3x3_s2_0_split_1"
  top: "inception_3a/3x3_reduce"
  param {
    lr_mult: 1
    decay_mult: 1
  }
  param {
    lr_mult: 2
    decay_mult: 0
  }
  convolution_param {
    num_output: 96
    kernel_size: 1
    weight_filler {
      type: "xavier"
    }
    bias_filler {
      type: "constant"
      value: 0.2
    }
  }
}
layer {
  name: "inception_3a/relu_3x3_reduce"
  type: "ReLU"
  bottom: "inception_3a/3x3_reduce"
  top: "inception_3a/3x3_reduce"
}
layer {
  name: "inception_3a/3x3"
  type: "Convolution"
  bottom: "inception_3a/3x3_reduce"
  top: "inception_3a/3x3"
  param {
    lr_mult: 1
    decay_mult: 1
  }
  param {
    lr_mult: 2
    decay_mult: 0
  }
  convolution_param {
    num_output: 128
    pad: 1
    kernel_size: 3
    weight_filler {
      type: "xavier"
    }
    bias_filler {
      type: "constant"
      value: 0.2
    }
  }
}
layer {
  name: "inception_3a/relu_3x3"
  type: "ReLU"
  bottom: "inception_3a/3x3"
  top: "inception_3a/3x3"
}
layer {
  name: "inception_3a/5x5_reduce"
  type: "Convolution"
  bottom: "pool2/3x3_s2_pool2/3x3_s2_0_split_2"
  top: "inception_3a/5x5_reduce"
  param {
    lr_mult: 1
    decay_mult: 1
  }
  param {
    lr_mult: 2
    decay_mult: 0
  }
  convolution_param {
    num_output: 16
    kernel_size: 1
    weight_filler {
      type: "xavier"
    }
    bias_filler {
      type: "constant"
      value: 0.2
    }
  }
}
layer {
  name: "inception_3a/relu_5x5_reduce"
  type: "ReLU"
  bottom: "inception_3a/5x5_reduce"
  top: "inception_3a/5x5_reduce"
}
layer {
  name: "inception_3a/5x5"
  type: "Convolution"
  bottom: "inception_3a/5x5_reduce"
  top: "inception_3a/5x5"
  param {
    lr_mult: 1
    decay_mult: 1
  }
  param {
    lr_mult: 2
    decay_mult: 0
  }
  convolution_param {
    num_output: 32
    pad: 2
    kernel_size: 5
    weight_filler {
      type: "xavier"
    }
    bias_filler {
      type: "constant"
      value: 0.2
    }
  }
}
layer {
  name: "inception_3a/relu_5x5"
  type: "ReLU"
  bottom: "inception_3a/5x5"
  top: "inception_3a/5x5"
}
layer {
  name: "inception_3a/pool"
  type: "Pooling"
  bottom: "pool2/3x3_s2_pool2/3x3_s2_0_split_3"
  top: "inception_3a/pool"
  pooling_param {
    pool: MAX
    kernel_size: 3
    stride: 1
    pad: 1
  }
}
layer {
  name: "inception_3a/pool_proj"
  type: "Convolution"
  bottom: "inception_3a/pool"
  top: "inception_3a/pool_proj"
  param {
    lr_mult: 1
    decay_mult: 1
  }
  param {
    lr_mult: 2
    decay_mult: 0
  }
  convolution_param {
    num_output: 32
    kernel_size: 1
    weight_filler {
      type: "xavier"
    }
    bias_filler {
      type: "constant"
      value: 0.2
    }
  }
}
layer {
  name: "inception_3a/relu_pool_proj"
  type: "ReLU"
  bottom: "inception_3a/pool_proj"
  top: "inception_3a/pool_proj"
}
layer {
  name: "inception_3a/output"
  type: "Concat"
  bottom: "inception_3a/1x1"
  bottom: "inception_3a/3x3"
  bottom: "inception_3a/5x5"
  bottom: "inception_3a/pool_proj"
  top: "inception_3a/output"
}
layer {
  name: "inception_3a/output_inception_3a/output_0_split"
  type: "Split"
  bottom: "inception_3a/output"
  top: "inception_3a/output_inception_3a/output_0_split_0"
  top: "inception_3a/output_inception_3a/output_0_split_1"
  top: "inception_3a/output_inception_3a/output_0_split_2"
  top: "inception_3a/output_inception_3a/output_0_split_3"
}
layer {
  name: "inception_3b/1x1"
  type: "Convolution"
  bottom: "inception_3a/output_inception_3a/output_0_split_0"
  top: "inception_3b/1x1"
  param {
    lr_mult: 1
    decay_mult: 1
  }
  param {
    lr_mult: 2
    decay_mult: 0
  }
  convolution_param {
    num_output: 128
    kernel_size: 1
    weight_filler {
      type: "xavier"
    }
    bias_filler {
      type: "constant"
      value: 0.2
    }
  }
}
layer {
  name: "inception_3b/relu_1x1"
  type: "ReLU"
  bottom: "inception_3b/1x1"
  top: "inception_3b/1x1"
}
layer {
  name: "inception_3b/3x3_reduce"
  type: "Convolution"
  bottom: "inception_3a/output_inception_3a/output_0_split_1"
  top: "inception_3b/3x3_reduce"
  param {
    lr_mult: 1
    decay_mult: 1
  }
  param {
    lr_mult: 2
    decay_mult: 0
  }
  convolution_param {
    num_output: 128
    kernel_size: 1
    weight_filler {
      type: "xavier"
    }
    bias_filler {
      type: "constant"
      value: 0.2
    }
  }
}
layer {
  name: "inception_3b/relu_3x3_reduce"
  type: "ReLU"
  bottom: "inception_3b/3x3_reduce"
  top: "inception_3b/3x3_reduce"
}
layer {
  name: "inception_3b/3x3"
  type: "Convolution"
  bottom: "inception_3b/3x3_reduce"
  top: "inception_3b/3x3"
  param {
    lr_mult: 1
    decay_mult: 1
  }
  param {
    lr_mult: 2
    decay_mult: 0
  }
  convolution_param {
    num_output: 192
    pad: 1
    kernel_size: 3
    weight_filler {
      type: "xavier"
    }
    bias_filler {
      type: "constant"
      value: 0.2
    }
  }
}
layer {
  name: "inception_3b/relu_3x3"
  type: "ReLU"
  bottom: "inception_3b/3x3"
  top: "inception_3b/3x3"
}
layer {
  name: "inception_3b/5x5_reduce"
  type: "Convolution"
  bottom: "inception_3a/output_inception_3a/output_0_split_2"
  top: "inception_3b/5x5_reduce"
  param {
    lr_mult: 1
    decay_mult: 1
  }
  param {
    lr_mult: 2
    decay_mult: 0
  }
  convolution_param {
    num_output: 32
    kernel_size: 1
    weight_filler {
      type: "xavier"
    }
    bias_filler {
      type: "constant"
      value: 0.2
    }
  }
}
layer {
  name: "inception_3b/relu_5x5_reduce"
  type: "ReLU"
  bottom: "inception_3b/5x5_reduce"
  top: "inception_3b/5x5_reduce"
}
layer {
  name: "inception_3b/5x5"
  type: "Convolution"
  bottom: "inception_3b/5x5_reduce"
  top: "inception_3b/5x5"
  param {
    lr_mult: 1
    decay_mult: 1
  }
  param {
    lr_mult: 2
    decay_mult: 0
  }
  convolution_param {
    num_output: 96
    pad: 2
    kernel_size: 5
    weight_filler {
      type: "xavier"
    }
    bias_filler {
      type: "constant"
      value: 0.2
    }
  }
}
layer {
  name: "inception_3b/relu_5x5"
  type: "ReLU"
  bottom: "inception_3b/5x5"
  top: "inception_3b/5x5"
}
layer {
  name: "inception_3b/pool"
  type: "Pooling"
  bottom: "inception_3a/output_inception_3a/output_0_split_3"
  top: "inception_3b/pool"
  pooling_param {
    pool: MAX
    kernel_size: 3
    stride: 1
    pad: 1
  }
}
layer {
  name: "inception_3b/pool_proj"
  type: "Convolution"
  bottom: "inception_3b/pool"
  top: "inception_3b/pool_proj"
  param {
    lr_mult: 1
    decay_mult: 1
  }
  param {
    lr_mult: 2
    decay_mult: 0
  }
  convolution_param {
    num_output: 64
    kernel_size: 1
    weight_filler {
      type: "xavier"
    }
    bias_filler {
      type: "constant"
      value: 0.2
    }
  }
}
layer {
  name: "inception_3b/relu_pool_proj"
  type: "ReLU"
  bottom: "inception_3b/pool_proj"
  top: "inception_3b/pool_proj"
}
layer {
  name: "inception_3b/output"
  type: "Concat"
  bottom: "inception_3b/1x1"
  bottom: "inception_3b/3x3"
  bottom: "inception_3b/5x5"
  bottom: "inception_3b/pool_proj"
  top: "inception_3b/output"
}
layer {
  name: "pool3/3x3_s2"
  type: "Pooling"
  bottom: "inception_3b/output"
  top: "pool3/3x3_s2"
  pooling_param {
    pool: MAX
    kernel_size: 3
    stride: 2
  }
}
layer {
  name: "pool3/3x3_s2_pool3/3x3_s2_0_split"
  type: "Split"
  bottom: "pool3/3x3_s2"
  top: "pool3/3x3_s2_pool3/3x3_s2_0_split_0"
  top: "pool3/3x3_s2_pool3/3x3_s2_0_split_1"
  top: "pool3/3x3_s2_pool3/3x3_s2_0_split_2"
  top: "pool3/3x3_s2_pool3/3x3_s2_0_split_3"
}
layer {
  name: "inception_4a/1x1"
  type: "Convolution"
  bottom: "pool3/3x3_s2_pool3/3x3_s2_0_split_0"
  top: "inception_4a/1x1"
  param {
    lr_mult: 1
    decay_mult: 1
  }
  param {
    lr_mult: 2
    decay_mult: 0
  }
  convolution_param {
    num_output: 192
    kernel_size: 1
    weight_filler {
      type: "xavier"
    }
    bias_filler {
      type: "constant"
      value: 0.2
    }
  }
}
layer {
  name: "inception_4a/relu_1x1"
  type: "ReLU"
  bottom: "inception_4a/1x1"
  top: "inception_4a/1x1"
}
layer {
  name: "inception_4a/3x3_reduce"
  type: "Convolution"
  bottom: "pool3/3x3_s2_pool3/3x3_s2_0_split_1"
  top: "inception_4a/3x3_reduce"
  param {
    lr_mult: 1
    decay_mult: 1
  }
  param {
    lr_mult: 2
    decay_mult: 0
  }
  convolution_param {
    num_output: 96
    kernel_size: 1
    weight_filler {
      type: "xavier"
    }
    bias_filler {
      type: "constant"
      value: 0.2
    }
  }
}
layer {
  name: "inception_4a/relu_3x3_reduce"
  type: "ReLU"
  bottom: "inception_4a/3x3_reduce"
  top: "inception_4a/3x3_reduce"
}
layer {
  name: "inception_4a/3x3"
  type: "Convolution"
  bottom: "inception_4a/3x3_reduce"
  top: "inception_4a/3x3"
  param {
    lr_mult: 1
    decay_mult: 1
  }
  param {
    lr_mult: 2
    decay_mult: 0
  }
  convolution_param {
    num_output: 208
    pad: 1
    kernel_size: 3
    weight_filler {
      type: "xavier"
    }
    bias_filler {
      type: "constant"
      value: 0.2
    }
  }
}
layer {
  name: "inception_4a/relu_3x3"
  type: "ReLU"
  bottom: "inception_4a/3x3"
  top: "inception_4a/3x3"
}
layer {
  name: "inception_4a/5x5_reduce"
  type: "Convolution"
  bottom: "pool3/3x3_s2_pool3/3x3_s2_0_split_2"
  top: "inception_4a/5x5_reduce"
  param {
    lr_mult: 1
    decay_mult: 1
  }
  param {
    lr_mult: 2
    decay_mult: 0
  }
  convolution_param {
    num_output: 16
    kernel_size: 1
    weight_filler {
      type: "xavier"
    }
    bias_filler {
      type: "constant"
      value: 0.2
    }
  }
}
layer {
  name: "inception_4a/relu_5x5_reduce"
  type: "ReLU"
  bottom: "inception_4a/5x5_reduce"
  top: "inception_4a/5x5_reduce"
}
layer {
  name: "inception_4a/5x5"
  type: "Convolution"
  bottom: "inception_4a/5x5_reduce"
  top: "inception_4a/5x5"
  param {
    lr_mult: 1
    decay_mult: 1
  }
  param {
    lr_mult: 2
    decay_mult: 0
  }
…
I0327 09:03:11.275087  2226 layer_factory.hpp:114] Creating layer inception_4c/pool
I0327 09:03:11.275143  2226 net.cpp:160] Creating Layer inception_4c/pool
I0327 09:03:11.275156  2226 net.cpp:596] inception_4c/pool <- inception_4b/output_inception_4b/output_0_split_3
I0327 09:03:11.275169  2226 net.cpp:570] inception_4c/pool -> inception_4c/pool
I0327 09:03:11.275192  2226 net.cpp:210] Setting up inception_4c/pool
I0327 09:03:11.275207  2226 net.cpp:217] Top shape: 50 512 14 14 (5017600)
I0327 09:03:11.275215  2226 net.cpp:225] Memory required for data: 2210363612
I0327 09:03:11.275224  2226 layer_factory.hpp:114] Creating layer inception_4c/pool_proj
I0327 09:03:11.275245  2226 net.cpp:160] Creating Layer inception_4c/pool_proj
I0327 09:03:11.275255  2226 net.cpp:596] inception_4c/pool_proj <- inception_4c/pool
I0327 09:03:11.275297  2226 net.cpp:570] inception_4c/pool_proj -> inception_4c/pool_proj
I0327 09:03:11.279640  2226 net.cpp:210] Setting up inception_4c/pool_proj
I0327 09:03:11.279698  2226 net.cpp:217] Top shape: 50 64 14 14 (627200)
I0327 09:03:11.279708  2226 net.cpp:225] Memory required for data: 2212872412
I0327 09:03:11.279729  2226 layer_factory.hpp:114] Creating layer inception_4c/relu_pool_proj
I0327 09:03:11.279749  2226 net.cpp:160] Creating Layer inception_4c/relu_pool_proj
I0327 09:03:11.279762  2226 net.cpp:596] inception_4c/relu_pool_proj <- inception_4c/pool_proj
I0327 09:03:11.279778  2226 net.cpp:557] inception_4c/relu_pool_proj -> inception_4c/pool_proj (in-place)
I0327 09:03:11.279796  2226 net.cpp:210] Setting up inception_4c/relu_pool_proj
I0327 09:03:11.279808  2226 net.cpp:217] Top shape: 50 64 14 14 (627200)
I0327 09:03:11.279816  2226 net.cpp:225] Memory required for data: 2215381212
I0327 09:03:11.279825  2226 layer_factory.hpp:114] Creating layer inception_4c/output
I0327 09:03:11.279841  2226 net.cpp:160] Creating Layer inception_4c/output
I0327 09:03:11.279852  2226 net.cpp:596] inception_4c/output <- inception_4c/1x1
I0327 09:03:11.279863  2226 net.cpp:596] inception_4c/output <- inception_4c/3x3
I0327 09:03:11.279875  2226 net.cpp:596] inception_4c/output <- inception_4c/5x5
I0327 09:03:11.279886  2226 net.cpp:596] inception_4c/output <- inception_4c/pool_proj
I0327 09:03:11.279912  2226 net.cpp:570] inception_4c/output -> inception_4c/output
I0327 09:03:11.279937  2226 net.cpp:210] Setting up inception_4c/output
I0327 09:03:11.279948  2226 net.cpp:217] Top shape: 50 512 14 14 (5017600)
I0327 09:03:11.279958  2226 net.cpp:225] Memory required for data: 2235451612
I0327 09:03:11.279965  2226 layer_factory.hpp:114] Creating layer inception_4c/output_inception_4c/output_0_split
I0327 09:03:11.279978  2226 net.cpp:160] Creating Layer inception_4c/output_inception_4c/output_0_split
I0327 09:03:11.279988  2226 net.cpp:596] inception_4c/output_inception_4c/output_0_split <- inception_4c/output
I0327 09:03:11.279999  2226 net.cpp:570] inception_4c/output_inception_4c/output_0_split -> inception_4c/output_inception_4c/output_0_split_0
I0327 09:03:11.280014  2226 net.cpp:570] inception_4c/output_inception_4c/output_0_split -> inception_4c/output_inception_4c/output_0_split_1
I0327 09:03:11.280037  2226 net.cpp:570] inception_4c/output_inception_4c/output_0_split -> inception_4c/output_inception_4c/output_0_split_2
I0327 09:03:11.280056  2226 net.cpp:570] inception_4c/output_inception_4c/output_0_split -> inception_4c/output_inception_4c/output_0_split_3
I0327 09:03:11.280077  2226 net.cpp:210] Setting up inception_4c/output_inception_4c/output_0_split
I0327 09:03:11.280089  2226 net.cpp:217] Top shape: 50 512 14 14 (5017600)
I0327 09:03:11.280099  2226 net.cpp:217] Top shape: 50 512 14 14 (5017600)
I0327 09:03:11.280110  2226 net.cpp:217] Top shape: 50 512 14 14 (5017600)
I0327 09:03:11.280120  2226 net.cpp:217] Top shape: 50 512 14 14 (5017600)
I0327 09:03:11.280128  2226 net.cpp:225] Memory required for data: 2315733212
I0327 09:03:11.280138  2226 layer_factory.hpp:114] Creating layer inception_4d/1x1
I0327 09:03:11.280160  2226 net.cpp:160] Creating Layer inception_4d/1x1
I0327 09:03:11.280170  2226 net.cpp:596] inception_4d/1x1 <- inception_4c/output_inception_4c/output_0_split_0
I0327 09:03:11.280186  2226 net.cpp:570] inception_4d/1x1 -> inception_4d/1x1
I0327 09:03:11.285809  2226 net.cpp:210] Setting up inception_4d/1x1
I0327 09:03:11.285873  2226 net.cpp:217] Top shape: 50 112 14 14 (1097600)
I0327 09:03:11.285883  2226 net.cpp:225] Memory required for data: 2320123612
I0327 09:03:11.285907  2226 layer_factory.hpp:114] Creating layer inception_4d/relu_1x1
I0327 09:03:11.285930  2226 net.cpp:160] Creating Layer inception_4d/relu_1x1
I0327 09:03:11.285945  2226 net.cpp:596] inception_4d/relu_1x1 <- inception_4d/1x1
I0327 09:03:11.285961  2226 net.cpp:557] inception_4d/relu_1x1 -> inception_4d/1x1 (in-place)
I0327 09:03:11.285981  2226 net.cpp:210] Setting up inception_4d/relu_1x1
I0327 09:03:11.286026  2226 net.cpp:217] Top shape: 50 112 14 14 (1097600)
I0327 09:03:11.286036  2226 net.cpp:225] Memory required for data: 2324514012
I0327 09:03:11.286046  2226 layer_factory.hpp:114] Creating layer inception_4d/3x3_reduce
I0327 09:03:11.286069  2226 net.cpp:160] Creating Layer inception_4d/3x3_reduce
I0327 09:03:11.286085  2226 net.cpp:596] inception_4d/3x3_reduce <- inception_4c/output_inception_4c/output_0_split_1
I0327 09:03:11.286103  2226 net.cpp:570] inception_4d/3x3_reduce -> inception_4d/3x3_reduce
I0327 09:03:11.292572  2226 net.cpp:210] Setting up inception_4d/3x3_reduce
I0327 09:03:11.292642  2226 net.cpp:217] Top shape: 50 144 14 14 (1411200)
I0327 09:03:11.292652  2226 net.cpp:225] Memory required for data: 2330158812
I0327 09:03:11.292676  2226 layer_factory.hpp:114] Creating layer inception_4d/relu_3x3_reduce
I0327 09:03:11.292702  2226 net.cpp:160] Creating Layer inception_4d/relu_3x3_reduce
I0327 09:03:11.292717  2226 net.cpp:596] inception_4d/relu_3x3_reduce <- inception_4d/3x3_reduce
I0327 09:03:11.292733  2226 net.cpp:557] inception_4d/relu_3x3_reduce -> inception_4d/3x3_reduce (in-place)
I0327 09:03:11.292754  2226 net.cpp:210] Setting up inception_4d/relu_3x3_reduce
I0327 09:03:11.292765  2226 net.cpp:217] Top shape: 50 144 14 14 (1411200)
I0327 09:03:11.292774  2226 net.cpp:225] Memory required for data: 2335803612
I0327 09:03:11.292783  2226 layer_factory.hpp:114] Creating layer inception_4d/3x3
I0327 09:03:11.292821  2226 net.cpp:160] Creating Layer inception_4d/3x3
I0327 09:03:11.292832  2226 net.cpp:596] inception_4d/3x3 <- inception_4d/3x3_reduce
I0327 09:03:11.292848  2226 net.cpp:570] inception_4d/3x3 -> inception_4d/3x3
I0327 09:03:11.315389  2226 net.cpp:210] Setting up inception_4d/3x3
I0327 09:03:11.315466  2226 net.cpp:217] Top shape: 50 288 14 14 (2822400)
I0327 09:03:11.315476  2226 net.cpp:225] Memory required for data: 2347093212
I0327 09:03:11.315500  2226 layer_factory.hpp:114] Creating layer inception_4d/relu_3x3
I0327 09:03:11.315522  2226 net.cpp:160] Creating Layer inception_4d/relu_3x3
I0327 09:03:11.315538  2226 net.cpp:596] inception_4d/relu_3x3 <- inception_4d/3x3
I0327 09:03:11.315553  2226 net.cpp:557] inception_4d/relu_3x3 -> inception_4d/3x3 (in-place)
I0327 09:03:11.315574  2226 net.cpp:210] Setting up inception_4d/relu_3x3
I0327 09:03:11.315587  2226 net.cpp:217] Top shape: 50 288 14 14 (2822400)
I0327 09:03:11.315594  2226 net.cpp:225] Memory required for data: 2358382812
I0327 09:03:11.315603  2226 layer_factory.hpp:114] Creating layer inception_4d/5x5_reduce
I0327 09:03:11.315629  2226 net.cpp:160] Creating Layer inception_4d/5x5_reduce
I0327 09:03:11.315639  2226 net.cpp:596] inception_4d/5x5_reduce <- inception_4c/output_inception_4c/output_0_split_2
I0327 09:03:11.315654  2226 net.cpp:570] inception_4d/5x5_reduce -> inception_4d/5x5_reduce
I0327 09:03:11.319169  2226 net.cpp:210] Setting up inception_4d/5x5_reduce
I0327 09:03:11.319236  2226 net.cpp:217] Top shape: 50 32 14 14 (313600)
I0327 09:03:11.319245  2226 net.cpp:225] Memory required for data: 2359637212
I0327 09:03:11.319268  2226 layer_factory.hpp:114] Creating layer inception_4d/relu_5x5_reduce
I0327 09:03:11.319293  2226 net.cpp:160] Creating Layer inception_4d/relu_5x5_reduce
I0327 09:03:11.319309  2226 net.cpp:596] inception_4d/relu_5x5_reduce <- inception_4d/5x5_reduce
I0327 09:03:11.319325  2226 net.cpp:557] inception_4d/relu_5x5_reduce -> inception_4d/5x5_reduce (in-place)
I0327 09:03:11.319345  2226 net.cpp:210] Setting up inception_4d/relu_5x5_reduce
I0327 09:03:11.319357  2226 net.cpp:217] Top shape: 50 32 14 14 (313600)
I0327 09:03:11.319365  2226 net.cpp:225] Memory required for data: 2360891612
I0327 09:03:11.319375  2226 layer_factory.hpp:114] Creating layer inception_4d/5x5
I0327 09:03:11.319398  2226 net.cpp:160] Creating Layer inception_4d/5x5
I0327 09:03:11.319409  2226 net.cpp:596] inception_4d/5x5 <- inception_4d/5x5_reduce
I0327 09:03:11.319427  2226 net.cpp:570] inception_4d/5x5 -> inception_4d/5x5
I0327 09:03:11.326165  2226 net.cpp:210] Setting up inception_4d/5x5
I0327 09:03:11.326266  2226 net.cpp:217] Top shape: 50 64 14 14 (627200)
I0327 09:03:11.326275  2226 net.cpp:225] Memory required for data: 2363400412
I0327 09:03:11.326298  2226 layer_factory.hpp:114] Creating layer inception_4d/relu_5x5
I0327 09:03:11.326325  2226 net.cpp:160] Creating Layer inception_4d/relu_5x5
I0327 09:03:11.326340  2226 net.cpp:596] inception_4d/relu_5x5 <- inception_4d/5x5
I0327 09:03:11.326356  2226 net.cpp:557] inception_4d/relu_5x5 -> inception_4d/5x5 (in-place)
I0327 09:03:11.326377  2226 net.cpp:210] Setting up inception_4d/relu_5x5
I0327 09:03:11.326390  2226 net.cpp:217] Top shape: 50 64 14 14 (627200)
I0327 09:03:11.326397  2226 net.cpp:225] Memory required for data: 2365909212
I0327 09:03:11.326406  2226 layer_factory.hpp:114] Creating layer inception_4d/pool
I0327 09:03:11.326460  2226 net.cpp:160] Creating Layer inception_4d/pool
I0327 09:03:11.326473  2226 net.cpp:596] inception_4d/pool <- inception_4c/output_inception_4c/output_0_split_3
I0327 09:03:11.326489  2226 net.cpp:570] inception_4d/pool -> inception_4d/pool
I0327 09:03:11.326514  2226 net.cpp:210] Setting up inception_4d/pool
I0327 09:03:11.326525  2226 net.cpp:217] Top shape: 50 512 14 14 (5017600)
I0327 09:03:11.326534  2226 net.cpp:225] Memory required for data: 2385979612
I0327 09:03:11.326542  2226 layer_factory.hpp:114] Creating layer inception_4d/pool_proj
I0327 09:03:11.326567  2226 net.cpp:160] Creating Layer inception_4d/pool_proj
I0327 09:03:11.326588  2226 net.cpp:596] inception_4d/pool_proj <- inception_4d/pool
I0327 09:03:11.326611  2226 net.cpp:570] inception_4d/pool_proj -> inception_4d/pool_proj
I0327 09:03:11.331475  2226 net.cpp:210] Setting up inception_4d/pool_proj
I0327 09:03:11.331537  2226 net.cpp:217] Top shape: 50 64 14 14 (627200)
I0327 09:03:11.331547  2226 net.cpp:225] Memory required for data: 2388488412
I0327 09:03:11.331569  2226 layer_factory.hpp:114] Creating layer inception_4d/relu_pool_proj
I0327 09:03:11.331589  2226 net.cpp:160] Creating Layer inception_4d/relu_pool_proj
I0327 09:03:11.331604  2226 net.cpp:596] inception_4d/relu_pool_proj <- inception_4d/pool_proj
I0327 09:03:11.331619  2226 net.cpp:557] inception_4d/relu_pool_proj -> inception_4d/pool_proj (in-place)
I0327 09:03:11.331640  2226 net.cpp:210] Setting up inception_4d/relu_pool_proj
I0327 09:03:11.331650  2226 net.cpp:217] Top shape: 50 64 14 14 (627200)
I0327 09:03:11.331658  2226 net.cpp:225] Memory required for data: 2390997212
I0327 09:03:11.331667  2226 layer_factory.hpp:114] Creating layer inception_4d/output
I0327 09:03:11.331681  2226 net.cpp:160] Creating Layer inception_4d/output
I0327 09:03:11.331691  2226 net.cpp:596] inception_4d/output <- inception_4d/1x1
I0327 09:03:11.331702  2226 net.cpp:596] inception_4d/output <- inception_4d/3x3
I0327 09:03:11.331713  2226 net.cpp:596] inception_4d/output <- inception_4d/5x5
I0327 09:03:11.331724  2226 net.cpp:596] inception_4d/output <- inception_4d/pool_proj
I0327 09:03:11.331738  2226 net.cpp:570] inception_4d/output -> inception_4d/output
I0327 09:03:11.331758  2226 net.cpp:210] Setting up inception_4d/output
I0327 09:03:11.331770  2226 net.cpp:217] Top shape: 50 528 14 14 (5174400)
I0327 09:03:11.331779  2226 net.cpp:225] Memory required for data: 2411694812
I0327 09:03:11.331787  2226 layer_factory.hpp:114] Creating layer inception_4d/output_inception_4d/output_0_split
I0327 09:03:11.331801  2226 net.cpp:160] Creating Layer inception_4d/output_inception_4d/output_0_split
I0327 09:03:11.331814  2226 net.cpp:596] inception_4d/output_inception_4d/output_0_split <- inception_4d/output
I0327 09:03:11.331826  2226 net.cpp:570] inception_4d/output_inception_4d/output_0_split -> inception_4d/output_inception_4d/output_0_split_0
I0327 09:03:11.331841  2226 net.cpp:570] inception_4d/output_inception_4d/output_0_split -> inception_4d/output_inception_4d/output_0_split_1
I0327 09:03:11.331856  2226 net.cpp:570] inception_4d/output_inception_4d/output_0_split -> inception_4d/output_inception_4d/output_0_split_2
I0327 09:03:11.331871  2226 net.cpp:570] inception_4d/output_inception_4d/output_0_split -> inception_4d/output_inception_4d/output_0_split_3
I0327 09:03:11.331909  2226 net.cpp:570] inception_4d/output_inception_4d/output_0_split -> inception_4d/output_inception_4d/output_0_split_4
I0327 09:03:11.331930  2226 net.cpp:210] Setting up inception_4d/output_inception_4d/output_0_split
I0327 09:03:11.331943  2226 net.cpp:217] Top shape: 50 528 14 14 (5174400)
I0327 09:03:11.331953  2226 net.cpp:217] Top shape: 50 528 14 14 (5174400)
I0327 09:03:11.331964  2226 net.cpp:217] Top shape: 50 528 14 14 (5174400)
I0327 09:03:11.331974  2226 net.cpp:217] Top shape: 50 528 14 14 (5174400)
I0327 09:03:11.331984  2226 net.cpp:217] Top shape: 50 528 14 14 (5174400)
I0327 09:03:11.331992  2226 net.cpp:225] Memory required for data: 2515182812
I0327 09:03:11.332001  2226 layer_factory.hpp:114] Creating layer loss2/ave_pool
I0327 09:03:11.332058  2226 net.cpp:160] Creating Layer loss2/ave_pool
I0327 09:03:11.332077  2226 net.cpp:596] loss2/ave_pool <- inception_4d/output_inception_4d/output_0_split_0
I0327 09:03:11.332092  2226 net.cpp:570] loss2/ave_pool -> loss2/ave_pool
I0327 09:03:11.332109  2226 net.cpp:210] Setting up loss2/ave_pool
I0327 09:03:11.332121  2226 net.cpp:217] Top shape: 50 528 4 4 (422400)
I0327 09:03:11.332130  2226 net.cpp:225] Memory required for data: 2516872412
I0327 09:03:11.332139  2226 layer_factory.hpp:114] Creating layer loss2/conv
I0327 09:03:11.332170  2226 net.cpp:160] Creating Layer loss2/conv
I0327 09:03:11.332180  2226 net.cpp:596] loss2/conv <- loss2/ave_pool
I0327 09:03:11.332197  2226 net.cpp:570] loss2/conv -> loss2/conv
I0327 09:03:11.335409  2226 net.cpp:210] Setting up loss2/conv
I0327 09:03:11.335453  2226 net.cpp:217] Top shape: 50 128 4 4 (102400)
I0327 09:03:11.335464  2226 net.cpp:225] Memory required for data: 2517282012
I0327 09:03:11.335481  2226 layer_factory.hpp:114] Creating layer loss2/relu_conv
I0327 09:03:11.335497  2226 net.cpp:160] Creating Layer loss2/relu_conv
I0327 09:03:11.335510  2226 net.cpp:596] loss2/relu_conv <- loss2/conv
I0327 09:03:11.335526  2226 net.cpp:557] loss2/relu_conv -> loss2/conv (in-place)
I0327 09:03:11.335544  2226 net.cpp:210] Setting up loss2/relu_conv
I0327 09:03:11.335556  2226 net.cpp:217] Top shape: 50 128 4 4 (102400)
I0327 09:03:11.335564  2226 net.cpp:225] Memory required for data: 2517691612
I0327 09:03:11.335572  2226 layer_factory.hpp:114] Creating layer loss2/fc
I0327 09:03:11.335594  2226 net.cpp:160] Creating Layer loss2/fc
I0327 09:03:11.335604  2226 net.cpp:596] loss2/fc <- loss2/conv
I0327 09:03:11.335618  2226 net.cpp:570] loss2/fc -> loss2/fc
I0327 09:03:11.371124  2226 net.cpp:210] Setting up loss2/fc
I0327 09:03:11.371201  2226 net.cpp:217] Top shape: 50 1024 (51200)
I0327 09:03:11.371210  2226 net.cpp:225] Memory required for data: 2517896412
I0327 09:03:11.371232  2226 layer_factory.hpp:114] Creating layer loss2/relu_fc
I0327 09:03:11.371254  2226 net.cpp:160] Creating Layer loss2/relu_fc
I0327 09:03:11.371268  2226 net.cpp:596] loss2/relu_fc <- loss2/fc
I0327 09:03:11.371284  2226 net.cpp:557] loss2/relu_fc -> loss2/fc (in-place)
I0327 09:03:11.371302  2226 net.cpp:210] Setting up loss2/relu_fc
I0327 09:03:11.371315  2226 net.cpp:217] Top shape: 50 1024 (51200)
I0327 09:03:11.371322  2226 net.cpp:225] Memory required for data: 2518101212
I0327 09:03:11.371331  2226 layer_factory.hpp:114] Creating layer loss2/drop_fc
I0327 09:03:11.371347  2226 net.cpp:160] Creating Layer loss2/drop_fc
I0327 09:03:11.371356  2226 net.cpp:596] loss2/drop_fc <- loss2/fc
I0327 09:03:11.371368  2226 net.cpp:557] loss2/drop_fc -> loss2/fc (in-place)
I0327 09:03:11.371383  2226 net.cpp:210] Setting up loss2/drop_fc
I0327 09:03:11.371394  2226 net.cpp:217] Top shape: 50 1024 (51200)
I0327 09:03:11.371402  2226 net.cpp:225] Memory required for data: 2518306012
I0327 09:03:11.371412  2226 layer_factory.hpp:114] Creating layer loss2/classifier
I0327 09:03:11.371433  2226 net.cpp:160] Creating Layer loss2/classifier
I0327 09:03:11.371443  2226 net.cpp:596] loss2/classifier <- loss2/fc
I0327 09:03:11.371456  2226 net.cpp:570] loss2/classifier -> loss2/classifier
I0327 09:03:11.388962  2226 net.cpp:210] Setting up loss2/classifier
I0327 09:03:11.389025  2226 net.cpp:217] Top shape: 50 1000 (50000)
I0327 09:03:11.389037  2226 net.cpp:225] Memory required for data: 2518506012
I0327 09:03:11.389057  2226 layer_factory.hpp:114] Creating layer loss2/classifier_loss2/classifier_0_split
I0327 09:03:11.389084  2226 net.cpp:160] Creating Layer loss2/classifier_loss2/classifier_0_split
I0327 09:03:11.389099  2226 net.cpp:596] loss2/classifier_loss2/classifier_0_split <- loss2/classifier
I0327 09:03:11.389116  2226 net.cpp:570] loss2/classifier_loss2/classifier_0_split -> loss2/classifier_loss2/classifier_0_split_0
I0327 09:03:11.389135  2226 net.cpp:570] loss2/classifier_loss2/classifier_0_split -> loss2/classifier_loss2/classifier_0_split_1
I0327 09:03:11.389150  2226 net.cpp:570] loss2/classifier_loss2/classifier_0_split -> loss2/classifier_loss2/classifier_0_split_2
I0327 09:03:11.389168  2226 net.cpp:210] Setting up loss2/classifier_loss2/classifier_0_split
I0327 09:03:11.389179  2226 net.cpp:217] Top shape: 50 1000 (50000)
I0327 09:03:11.389189  2226 net.cpp:217] Top shape: 50 1000 (50000)
I0327 09:03:11.389200  2226 net.cpp:217] Top shape: 50 1000 (50000)
I0327 09:03:11.389209  2226 net.cpp:225] Memory required for data: 2519106012
I0327 09:03:11.389217  2226 layer_factory.hpp:114] Creating layer loss2/loss
I0327 09:03:11.389245  2226 net.cpp:160] Creating Layer loss2/loss
I0327 09:03:11.389256  2226 net.cpp:596] loss2/loss <- loss2/classifier_loss2/classifier_0_split_0
I0327 09:03:11.389268  2226 net.cpp:596] loss2/loss <- label_data_1_split_3
…
I0327 09:03:11.389739  2226 net.cpp:210] Setting up loss2/top-5
I0327 09:03:11.389750  2226 net.cpp:217] Top shape: (1)
I0327 09:03:11.389758  2226 net.cpp:225] Memory required for data: 2519106024
I0327 09:03:11.389766  2226 layer_factory.hpp:114] Creating layer inception_4e/1x1
I0327 09:03:11.389792  2226 net.cpp:160] Creating Layer inception_4e/1x1
I0327 09:03:11.389803  2226 net.cpp:596] inception_4e/1x1 <- inception_4d/output_inception_4d/output_0_split_1
I0327 09:03:11.389819  2226 net.cpp:570] inception_4e/1x1 -> inception_4e/1x1
I0327 09:03:11.399201  2226 net.cpp:210] Setting up inception_4e/1x1
I0327 09:03:11.399276  2226 net.cpp:217] Top shape: 50 256 14 14 (2508800)
I0327 09:03:11.399286  2226 net.cpp:225] Memory required for data: 2529141224
I0327 09:03:11.399309  2226 layer_factory.hpp:114] Creating layer inception_4e/relu_1x1
I0327 09:03:11.399333  2226 net.cpp:160] Creating Layer inception_4e/relu_1x1
I0327 09:03:11.399348  2226 net.cpp:596] inception_4e/relu_1x1 <- inception_4e/1x1
I0327 09:03:11.399368  2226 net.cpp:557] inception_4e/relu_1x1 -> inception_4e/1x1 (in-place)
I0327 09:03:11.399420  2226 net.cpp:210] Setting up inception_4e/relu_1x1
I0327 09:03:11.399431  2226 net.cpp:217] Top shape: 50 256 14 14 (2508800)
I0327 09:03:11.399441  2226 net.cpp:225] Memory required for data: 2539176424
I0327 09:03:11.399449  2226 layer_factory.hpp:114] Creating layer inception_4e/3x3_reduce
I0327 09:03:11.399482  2226 net.cpp:160] Creating Layer inception_4e/3x3_reduce
I0327 09:03:11.399492  2226 net.cpp:596] inception_4e/3x3_reduce <- inception_4d/output_inception_4d/output_0_split_2
I0327 09:03:11.399507  2226 net.cpp:570] inception_4e/3x3_reduce -> inception_4e/3x3_reduce
I0327 09:03:11.406191  2226 net.cpp:210] Setting up inception_4e/3x3_reduce
I0327 09:03:11.406257  2226 net.cpp:217] Top shape: 50 160 14 14 (1568000)
I0327 09:03:11.406267  2226 net.cpp:225] Memory required for data: 2545448424
I0327 09:03:11.406291  2226 layer_factory.hpp:114] Creating layer inception_4e/relu_3x3_reduce
I0327 09:03:11.406312  2226 net.cpp:160] Creating Layer inception_4e/relu_3x3_reduce
I0327 09:03:11.406327  2226 net.cpp:596] inception_4e/relu_3x3_reduce <- inception_4e/3x3_reduce
I0327 09:03:11.406342  2226 net.cpp:557] inception_4e/relu_3x3_reduce -> inception_4e/3x3_reduce (in-place)
I0327 09:03:11.406360  2226 net.cpp:210] Setting up inception_4e/relu_3x3_reduce
I0327 09:03:11.406371  2226 net.cpp:217] Top shape: 50 160 14 14 (1568000)
I0327 09:03:11.406399  2226 net.cpp:225] Memory required for data: 2551720424
I0327 09:03:11.406409  2226 layer_factory.hpp:114] Creating layer inception_4e/3x3
I0327 09:03:11.406432  2226 net.cpp:160] Creating Layer inception_4e/3x3
I0327 09:03:11.406442  2226 net.cpp:596] inception_4e/3x3 <- inception_4e/3x3_reduce
I0327 09:03:11.406456  2226 net.cpp:570] inception_4e/3x3 -> inception_4e/3x3
I0327 09:03:11.432557  2226 net.cpp:210] Setting up inception_4e/3x3
I0327 09:03:11.432637  2226 net.cpp:217] Top shape: 50 320 14 14 (3136000)
I0327 09:03:11.432647  2226 net.cpp:225] Memory required for data: 2564264424
I0327 09:03:11.432672  2226 layer_factory.hpp:114] Creating layer inception_4e/relu_3x3
I0327 09:03:11.432700  2226 net.cpp:160] Creating Layer inception_4e/relu_3x3
I0327 09:03:11.432715  2226 net.cpp:596] inception_4e/relu_3x3 <- inception_4e/3x3
I0327 09:03:11.432731  2226 net.cpp:557] inception_4e/relu_3x3 -> inception_4e/3x3 (in-place)
I0327 09:03:11.432754  2226 net.cpp:210] Setting up inception_4e/relu_3x3
I0327 09:03:11.432765  2226 net.cpp:217] Top shape: 50 320 14 14 (3136000)
I0327 09:03:11.432773  2226 net.cpp:225] Memory required for data: 2576808424
I0327 09:03:11.432782  2226 layer_factory.hpp:114] Creating layer inception_4e/5x5_reduce
I0327 09:03:11.432804  2226 net.cpp:160] Creating Layer inception_4e/5x5_reduce
I0327 09:03:11.432814  2226 net.cpp:596] inception_4e/5x5_reduce <- inception_4d/output_inception_4d/output_0_split_3
I0327 09:03:11.432832  2226 net.cpp:570] inception_4e/5x5_reduce -> inception_4e/5x5_reduce
I0327 09:03:11.437005  2226 net.cpp:210] Setting up inception_4e/5x5_reduce
I0327 09:03:11.437069  2226 net.cpp:217] Top shape: 50 32 14 14 (313600)
I0327 09:03:11.437084  2226 net.cpp:225] Memory required for data: 2578062824
I0327 09:03:11.437105  2226 layer_factory.hpp:114] Creating layer inception_4e/relu_5x5_reduce
I0327 09:03:11.437129  2226 net.cpp:160] Creating Layer inception_4e/relu_5x5_reduce
I0327 09:03:11.437141  2226 net.cpp:596] inception_4e/relu_5x5_reduce <- inception_4e/5x5_reduce
I0327 09:03:11.437156  2226 net.cpp:557] inception_4e/relu_5x5_reduce -> inception_4e/5x5_reduce (in-place)
I0327 09:03:11.437176  2226 net.cpp:210] Setting up inception_4e/relu_5x5_reduce
I0327 09:03:11.437187  2226 net.cpp:217] Top shape: 50 32 14 14 (313600)
I0327 09:03:11.437196  2226 net.cpp:225] Memory required for data: 2579317224
I0327 09:03:11.437204  2226 layer_factory.hpp:114] Creating layer inception_4e/5x5
I0327 09:03:11.437227  2226 net.cpp:160] Creating Layer inception_4e/5x5
I0327 09:03:11.437237  2226 net.cpp:596] inception_4e/5x5 <- inception_4e/5x5_reduce
I0327 09:03:11.437284  2226 net.cpp:570] inception_4e/5x5 -> inception_4e/5x5
I0327 09:03:11.446210  2226 net.cpp:210] Setting up inception_4e/5x5
I0327 09:03:11.446286  2226 net.cpp:217] Top shape: 50 128 14 14 (1254400)
I0327 09:03:11.446296  2226 net.cpp:225] Memory required for data: 2584334824
I0327 09:03:11.446321  2226 layer_factory.hpp:114] Creating layer inception_4e/relu_5x5
I0327 09:03:11.446347  2226 net.cpp:160] Creating Layer inception_4e/relu_5x5
I0327 09:03:11.446362  2226 net.cpp:596] inception_4e/relu_5x5 <- inception_4e/5x5
I0327 09:03:11.446378  2226 net.cpp:557] inception_4e/relu_5x5 -> inception_4e/5x5 (in-place)
I0327 09:03:11.446398  2226 net.cpp:210] Setting up inception_4e/relu_5x5
I0327 09:03:11.446410  2226 net.cpp:217] Top shape: 50 128 14 14 (1254400)
I0327 09:03:11.446419  2226 net.cpp:225] Memory required for data: 2589352424
I0327 09:03:11.446427  2226 layer_factory.hpp:114] Creating layer inception_4e/pool
I0327 09:03:11.446485  2226 net.cpp:160] Creating Layer inception_4e/pool
I0327 09:03:11.446498  2226 net.cpp:596] inception_4e/pool <- inception_4d/output_inception_4d/output_0_split_4
I0327 09:03:11.446514  2226 net.cpp:570] inception_4e/pool -> inception_4e/pool
I0327 09:03:11.446538  2226 net.cpp:210] Setting up inception_4e/pool
I0327 09:03:11.446552  2226 net.cpp:217] Top shape: 50 528 14 14 (5174400)
I0327 09:03:11.446559  2226 net.cpp:225] Memory required for data: 2610050024
I0327 09:03:11.446586  2226 layer_factory.hpp:114] Creating layer inception_4e/pool_proj
I0327 09:03:11.446614  2226 net.cpp:160] Creating Layer inception_4e/pool_proj
I0327 09:03:11.446624  2226 net.cpp:596] inception_4e/pool_proj <- inception_4e/pool
I0327 09:03:11.446640  2226 net.cpp:570] inception_4e/pool_proj -> inception_4e/pool_proj
I0327 09:03:11.452960  2226 net.cpp:210] Setting up inception_4e/pool_proj
I0327 09:03:11.453039  2226 net.cpp:217] Top shape: 50 128 14 14 (1254400)
I0327 09:03:11.453052  2226 net.cpp:225] Memory required for data: 2615067624
I0327 09:03:11.453079  2226 layer_factory.hpp:114] Creating layer inception_4e/relu_pool_proj
I0327 09:03:11.453102  2226 net.cpp:160] Creating Layer inception_4e/relu_pool_proj
I0327 09:03:11.453116  2226 net.cpp:596] inception_4e/relu_pool_proj <- inception_4e/pool_proj
I0327 09:03:11.453131  2226 net.cpp:557] inception_4e/relu_pool_proj -> inception_4e/pool_proj (in-place)
I0327 09:03:11.453152  2226 net.cpp:210] Setting up inception_4e/relu_pool_proj
I0327 09:03:11.453164  2226 net.cpp:217] Top shape: 50 128 14 14 (1254400)
I0327 09:03:11.453173  2226 net.cpp:225] Memory required for data: 2620085224
I0327 09:03:11.453181  2226 layer_factory.hpp:114] Creating layer inception_4e/output
I0327 09:03:11.453196  2226 net.cpp:160] Creating Layer inception_4e/output
I0327 09:03:11.453205  2226 net.cpp:596] inception_4e/output <- inception_4e/1x1
I0327 09:03:11.453217  2226 net.cpp:596] inception_4e/output <- inception_4e/3x3
I0327 09:03:11.453227  2226 net.cpp:596] inception_4e/output <- inception_4e/5x5
I0327 09:03:11.453238  2226 net.cpp:596] inception_4e/output <- inception_4e/pool_proj
I0327 09:03:11.453254  2226 net.cpp:570] inception_4e/output -> inception_4e/output
I0327 09:03:11.453276  2226 net.cpp:210] Setting up inception_4e/output
I0327 09:03:11.453287  2226 net.cpp:217] Top shape: 50 832 14 14 (8153600)
I0327 09:03:11.453296  2226 net.cpp:225] Memory required for data: 2652699624
I0327 09:03:11.453305  2226 layer_factory.hpp:114] Creating layer pool4/3x3_s2
I0327 09:03:11.453356  2226 net.cpp:160] Creating Layer pool4/3x3_s2
I0327 09:03:11.453366  2226 net.cpp:596] pool4/3x3_s2 <- inception_4e/output
I0327 09:03:11.453380  2226 net.cpp:570] pool4/3x3_s2 -> pool4/3x3_s2
I0327 09:03:11.453402  2226 net.cpp:210] Setting up pool4/3x3_s2
I0327 09:03:11.453413  2226 net.cpp:217] Top shape: 50 832 7 7 (2038400)
I0327 09:03:11.453423  2226 net.cpp:225] Memory required for data: 2660853224
I0327 09:03:11.453431  2226 layer_factory.hpp:114] Creating layer pool4/3x3_s2_pool4/3x3_s2_0_split
I0327 09:03:11.453447  2226 net.cpp:160] Creating Layer pool4/3x3_s2_pool4/3x3_s2_0_split
I0327 09:03:11.453485  2226 net.cpp:596] pool4/3x3_s2_pool4/3x3_s2_0_split <- pool4/3x3_s2
I0327 09:03:11.453496  2226 net.cpp:570] pool4/3x3_s2_pool4/3x3_s2_0_split -> pool4/3x3_s2_pool4/3x3_s2_0_split_0
I0327 09:03:11.453511  2226 net.cpp:570] pool4/3x3_s2_pool4/3x3_s2_0_split -> pool4/3x3_s2_pool4/3x3_s2_0_split_1
I0327 09:03:11.453526  2226 net.cpp:570] pool4/3x3_s2_pool4/3x3_s2_0_split -> pool4/3x3_s2_pool4/3x3_s2_0_split_2
I0327 09:03:11.453549  2226 net.cpp:570] pool4/3x3_s2_pool4/3x3_s2_0_split -> pool4/3x3_s2_pool4/3x3_s2_0_split_3
I0327 09:03:11.453567  2226 net.cpp:210] Setting up pool4/3x3_s2_pool4/3x3_s2_0_split
I0327 09:03:11.453578  2226 net.cpp:217] Top shape: 50 832 7 7 (2038400)
I0327 09:03:11.453589  2226 net.cpp:217] Top shape: 50 832 7 7 (2038400)
I0327 09:03:11.453601  2226 net.cpp:217] Top shape: 50 832 7 7 (2038400)
I0327 09:03:11.453613  2226 net.cpp:217] Top shape: 50 832 7 7 (2038400)
I0327 09:03:11.453620  2226 net.cpp:225] Memory required for data: 2693467624
I0327 09:03:11.453629  2226 layer_factory.hpp:114] Creating layer inception_5a/1x1
I0327 09:03:11.453655  2226 net.cpp:160] Creating Layer inception_5a/1x1
I0327 09:03:11.453665  2226 net.cpp:596] inception_5a/1x1 <- pool4/3x3_s2_pool4/3x3_s2_0_split_0
I0327 09:03:11.453678  2226 net.cpp:570] inception_5a/1x1 -> inception_5a/1x1
I0327 09:03:11.464304  2226 net.cpp:210] Setting up inception_5a/1x1
I0327 09:03:11.464401  2226 net.cpp:217] Top shape: 50 256 7 7 (627200)
I0327 09:03:11.464411  2226 net.cpp:225] Memory required for data: 2695976424
I0327 09:03:11.464435  2226 layer_factory.hpp:114] Creating layer inception_5a/relu_1x1
I0327 09:03:11.464459  2226 net.cpp:160] Creating Layer inception_5a/relu_1x1
I0327 09:03:11.464473  2226 net.cpp:596] inception_5a/relu_1x1 <- inception_5a/1x1
I0327 09:03:11.464493  2226 net.cpp:557] inception_5a/relu_1x1 -> inception_5a/1x1 (in-place)
I0327 09:03:11.464515  2226 net.cpp:210] Setting up inception_5a/relu_1x1
I0327 09:03:11.464526  2226 net.cpp:217] Top shape: 50 256 7 7 (627200)
I0327 09:03:11.464535  2226 net.cpp:225] Memory required for data: 2698485224
I0327 09:03:11.464545  2226 layer_factory.hpp:114] Creating layer inception_5a/3x3_reduce
I0327 09:03:11.464567  2226 net.cpp:160] Creating Layer inception_5a/3x3_reduce
I0327 09:03:11.464578  2226 net.cpp:596] inception_5a/3x3_reduce <- pool4/3x3_s2_pool4/3x3_s2_0_split_1
I0327 09:03:11.464592  2226 net.cpp:570] inception_5a/3x3_reduce -> inception_5a/3x3_reduce
I0327 09:03:11.472100  2226 net.cpp:210] Setting up inception_5a/3x3_reduce
I0327 09:03:11.472173  2226 net.cpp:217] Top shape: 50 160 7 7 (392000)
I0327 09:03:11.472182  2226 net.cpp:225] Memory required for data: 2700053224
I0327 09:03:11.472205  2226 layer_factory.hpp:114] Creating layer inception_5a/relu_3x3_reduce
I0327 09:03:11.472229  2226 net.cpp:160] Creating Layer inception_5a/relu_3x3_reduce
I0327 09:03:11.472242  2226 net.cpp:596] inception_5a/relu_3x3_reduce <- inception_5a/3x3_reduce
I0327 09:03:11.472259  2226 net.cpp:557] inception_5a/relu_3x3_reduce -> inception_5a/3x3_reduce (in-place)
I0327 09:03:11.472280  2226 net.cpp:210] Setting up inception_5a/relu_3x3_reduce
I0327 09:03:11.472290  2226 net.cpp:217] Top shape: 50 160 7 7 (392000)
I0327 09:03:11.472299  2226 net.cpp:225] Memory required for data: 2701621224
I0327 09:03:11.472308  2226 layer_factory.hpp:114] Creating layer inception_5a/3x3
I0327 09:03:11.472329  2226 net.cpp:160] Creating Layer inception_5a/3x3
I0327 09:03:11.472339  2226 net.cpp:596] inception_5a/3x3 <- inception_5a/3x3_reduce
I0327 09:03:11.472357  2226 net.cpp:570] inception_5a/3x3 -> inception_5a/3x3
I0327 09:03:11.494180  2226 net.cpp:210] Setting up inception_5a/3x3
I0327 09:03:11.494258  2226 net.cpp:217] Top shape: 50 320 7 7 (784000)
I0327 09:03:11.494267  2226 net.cpp:225] Memory required for data: 2704757224
I0327 09:03:11.494292  2226 layer_factory.hpp:114] Creating layer inception_5a/relu_3x3
I0327 09:03:11.494315  2226 net.cpp:160] Creating Layer inception_5a/relu_3x3
I0327 09:03:11.494329  2226 net.cpp:596] inception_5a/relu_3x3 <- inception_5a/3x3
I0327 09:03:11.494377  2226 net.cpp:557] inception_5a/relu_3x3 -> inception_5a/3x3 (in-place)
I0327 09:03:11.494398  2226 net.cpp:210] Setting up inception_5a/relu_3x3
I0327 09:03:11.494410  2226 net.cpp:217] Top shape: 50 320 7 7 (784000)
I0327 09:03:11.494418  2226 net.cpp:225] Memory required for data: 2707893224
I0327 09:03:11.494426  2226 layer_factory.hpp:114] Creating layer inception_5a/5x5_reduce
I0327 09:03:11.494449  2226 net.cpp:160] Creating Layer inception_5a/5x5_reduce
I0327 09:03:11.494462  2226 net.cpp:596] inception_5a/5x5_reduce <- pool4/3x3_s2_pool4/3x3_s2_0_split_2
I0327 09:03:11.494474  2226 net.cpp:570] inception_5a/5x5_reduce -> inception_5a/5x5_reduce
I0327 09:03:11.497445  2226 net.cpp:210] Setting up inception_5a/5x5_reduce
I0327 09:03:11.497488  2226 net.cpp:217] Top shape: 50 32 7 7 (78400)
I0327 09:03:11.497498  2226 net.cpp:225] Memory required for data: 2708206824
I0327 09:03:11.497515  2226 layer_factory.hpp:114] Creating layer inception_5a/relu_5x5_reduce
I0327 09:03:11.497534  2226 net.cpp:160] Creating Layer inception_5a/relu_5x5_reduce
I0327 09:03:11.497546  2226 net.cpp:596] inception_5a/relu_5x5_reduce <- inception_5a/5x5_reduce
I0327 09:03:11.497560  2226 net.cpp:557] inception_5a/relu_5x5_reduce -> inception_5a/5x5_reduce (in-place)
I0327 09:03:11.497577  2226 net.cpp:210] Setting up inception_5a/relu_5x5_reduce
I0327 09:03:11.497601  2226 net.cpp:217] Top shape: 50 32 7 7 (78400)
I0327 09:03:11.497609  2226 net.cpp:225] Memory required for data: 2708520424
I0327 09:03:11.497618  2226 layer_factory.hpp:114] Creating layer inception_5a/5x5
I0327 09:03:11.497639  2226 net.cpp:160] Creating Layer inception_5a/5x5
I0327 09:03:11.497650  2226 net.cpp:596] inception_5a/5x5 <- inception_5a/5x5_reduce
I0327 09:03:11.497666  2226 net.cpp:570] inception_5a/5x5 -> inception_5a/5x5
I0327 09:03:11.504086  2226 net.cpp:210] Setting up inception_5a/5x5
I0327 09:03:11.504153  2226 net.cpp:217] Top shape: 50 128 7 7 (313600)
I0327 09:03:11.504163  2226 net.cpp:225] Memory required for data: 2709774824
I0327 09:03:11.504184  2226 layer_factory.hpp:114] Creating layer inception_5a/relu_5x5
I0327 09:03:11.504204  2226 net.cpp:160] Creating Layer inception_5a/relu_5x5
I0327 09:03:11.504223  2226 net.cpp:596] inception_5a/relu_5x5 <- inception_5a/5x5
I0327 09:03:11.504240  2226 net.cpp:557] inception_5a/relu_5x5 -> inception_5a/5x5 (in-place)
I0327 09:03:11.504259  2226 net.cpp:210] Setting up inception_5a/relu_5x5
I0327 09:03:11.504271  2226 net.cpp:217] Top shape: 50 128 7 7 (313600)
I0327 09:03:11.504279  2226 net.cpp:225] Memory required for data: 2711029224
I0327 09:03:11.504288  2226 layer_factory.hpp:114] Creating layer inception_5a/pool
I0327 09:03:11.504343  2226 net.cpp:160] Creating Layer inception_5a/pool
I0327 09:03:11.504356  2226 net.cpp:596] inception_5a/pool <- pool4/3x3_s2_pool4/3x3_s2_0_split_3
I0327 09:03:11.504374  2226 net.cpp:570] inception_5a/pool -> inception_5a/pool
I0327 09:03:11.504396  2226 net.cpp:210] Setting up inception_5a/pool
I0327 09:03:11.504408  2226 net.cpp:217] Top shape: 50 832 7 7 (2038400)
I0327 09:03:11.504417  2226 net.cpp:225] Memory required for data: 2719182824
I0327 09:03:11.504426  2226 layer_factory.hpp:114] Creating layer inception_5a/pool_proj
I0327 09:03:11.504454  2226 net.cpp:160] Creating Layer inception_5a/pool_proj
I0327 09:03:11.504464  2226 net.cpp:596] inception_5a/pool_proj <- inception_5a/pool
I0327 09:03:11.504480  2226 net.cpp:570] inception_5a/pool_proj -> inception_5a/pool_proj
I0327 09:03:11.510550  2226 net.cpp:210] Setting up inception_5a/pool_proj
I0327 09:03:11.510620  2226 net.cpp:217] Top shape: 50 128 7 7 (313600)
I0327 09:03:11.510630  2226 net.cpp:225] Memory required for data: 2720437224
I0327 09:03:11.510653  2226 layer_factory.hpp:114] Creating layer inception_5a/relu_pool_proj
I0327 09:03:11.510674  2226 net.cpp:160] Creating Layer inception_5a/relu_pool_proj
I0327 09:03:11.510689  2226 net.cpp:596] inception_5a/relu_pool_proj <- inception_5a/pool_proj
I0327 09:03:11.510705  2226 net.cpp:557] inception_5a/relu_pool_proj -> inception_5a/pool_proj (in-place)
I0327 09:03:11.510754  2226 net.cpp:210] Setting up inception_5a/relu_pool_proj
I0327 09:03:11.510766  2226 net.cpp:217] Top shape: 50 128 7 7 (313600)
I0327 09:03:11.510774  2226 net.cpp:225] Memory required for data: 2721691624
I0327 09:03:11.510783  2226 layer_factory.hpp:114] Creating layer inception_5a/output
I0327 09:03:11.510797  2226 net.cpp:160] Creating Layer inception_5a/output
I0327 09:03:11.510807  2226 net.cpp:596] inception_5a/output <- inception_5a/1x1
I0327 09:03:11.510819  2226 net.cpp:596] inception_5a/output <- inception_5a/3x3
I0327 09:03:11.510830  2226 net.cpp:596] inception_5a/output <- inception_5a/5x5
I0327 09:03:11.510841  2226 net.cpp:596] inception_5a/output <- inception_5a/pool_proj
I0327 09:03:11.510856  2226 net.cpp:570] inception_5a/output -> inception_5a/output
I0327 09:03:11.510876  2226 net.cpp:210] Setting up inception_5a/output
I0327 09:03:11.510888  2226 net.cpp:217] Top shape: 50 832 7 7 (2038400)
I0327 09:03:11.510896  2226 net.cpp:225] Memory required for data: 2729845224
I0327 09:03:11.510905  2226 layer_factory.hpp:114] Creating layer inception_5a/output_inception_5a/output_0_split
I0327 09:03:11.510918  2226 net.cpp:160] Creating Layer inception_5a/output_inception_5a/output_0_split
I0327 09:03:11.510928  2226 net.cpp:596] inception_5a/output_inception_5a/output_0_split <- inception_5a/output
I0327 09:03:11.510946  2226 net.cpp:570] inception_5a/output_inception_5a/output_0_split -> inception_5a/output_inception_5a/output_0_split_0
I0327 09:03:11.510962  2226 net.cpp:570] inception_5a/output_inception_5a/output_0_split -> inception_5a/output_inception_5a/output_0_split_1
I0327 09:03:11.510977  2226 net.cpp:570] inception_5a/output_inception_5a/output_0_split -> inception_5a/output_inception_5a/output_0_split_2
I0327 09:03:11.510992  2226 net.cpp:570] inception_5a/output_inception_5a/output_0_split -> inception_5a/output_inception_5a/output_0_split_3
I0327 09:03:11.511008  2226 net.cpp:210] Setting up inception_5a/output_inception_5a/output_0_split
I0327 09:03:11.511024  2226 net.cpp:217] Top shape: 50 832 7 7 (2038400)
I0327 09:03:11.511037  2226 net.cpp:217] Top shape: 50 832 7 7 (2038400)
I0327 09:03:11.511047  2226 net.cpp:217] Top shape: 50 832 7 7 (2038400)
I0327 09:03:11.511059  2226 net.cpp:217] Top shape: 50 832 7 7 (2038400)
I0327 09:03:11.511066  2226 net.cpp:225] Memory required for data: 2762459624
I0327 09:03:11.511080  2226 layer_factory.hpp:114] Creating layer inception_5b/1x1
I0327 09:03:11.511104  2226 net.cpp:160] Creating Layer inception_5b/1x1
I0327 09:03:11.511114  2226 net.cpp:596] inception_5b/1x1 <- inception_5a/output_inception_5a/output_0_split_0
I0327 09:03:11.511127  2226 net.cpp:570] inception_5b/1x1 -> inception_5b/1x1
I0327 09:03:11.525441  2226 net.cpp:210] Setting up inception_5b/1x1
I0327 09:03:11.525521  2226 net.cpp:217] Top shape: 50 384 7 7 (940800)
I0327 09:03:11.525530  2226 net.cpp:225] Memory required for data: 2766222824
I0327 09:03:11.525554  2226 layer_factory.hpp:114] Creating layer inception_5b/relu_1x1
I0327 09:03:11.525578  2226 net.cpp:160] Creating Layer inception_5b/relu_1x1
I0327 09:03:11.525593  2226 net.cpp:596] inception_5b/relu_1x1 <- inception_5b/1x1
I0327 09:03:11.525609  2226 net.cpp:557] inception_5b/relu_1x1 -> inception_5b/1x1 (in-place)
I0327 09:03:11.525630  2226 net.cpp:210] Setting up inception_5b/relu_1x1
I0327 09:03:11.525642  2226 net.cpp:217] Top shape: 50 384 7 7 (940800)
I0327 09:03:11.525651  2226 net.cpp:225] Memory required for data: 2769986024
I0327 09:03:11.525660  2226 layer_factory.hpp:114] Creating layer inception_5b/3x3_reduce
I0327 09:03:11.525682  2226 net.cpp:160] Creating Layer inception_5b/3x3_reduce
I0327 09:03:11.525692  2226 net.cpp:596] inception_5b/3x3_reduce <- inception_5a/output_inception_5a/output_0_split_1
I0327 09:03:11.525709  2226 net.cpp:570] inception_5b/3x3_reduce -> inception_5b/3x3_reduce
I0327 09:03:11.533990  2226 net.cpp:210] Setting up inception_5b/3x3_reduce
I0327 09:03:11.534080  2226 net.cpp:217] Top shape: 50 192 7 7 (470400)
I0327 09:03:11.534118  2226 net.cpp:225] Memory required for data: 2771867624
I0327 09:03:11.534142  2226 layer_factory.hpp:114] Creating layer inception_5b/relu_3x3_reduce
I0327 09:03:11.534165  2226 net.cpp:160] Creating Layer inception_5b/relu_3x3_reduce
I0327 09:03:11.534180  2226 net.cpp:596] inception_5b/relu_3x3_reduce <- inception_5b/3x3_reduce
I0327 09:03:11.534196  2226 net.cpp:557] inception_5b/relu_3x3_reduce -> inception_5b/3x3_reduce (in-place)
I0327 09:03:11.534216  2226 net.cpp:210] Setting up inception_5b/relu_3x3_reduce
I0327 09:03:11.534229  2226 net.cpp:217] Top shape: 50 192 7 7 (470400)
I0327 09:03:11.534236  2226 net.cpp:225] Memory required for data: 2773749224
I0327 09:03:11.534245  2226 layer_factory.hpp:114] Creating layer inception_5b/3x3
I0327 09:03:11.534270  2226 net.cpp:160] Creating Layer inception_5b/3x3
I0327 09:03:11.534279  2226 net.cpp:596] inception_5b/3x3 <- inception_5b/3x3_reduce
I0327 09:03:11.534293  2226 net.cpp:570] inception_5b/3x3 -> inception_5b/3x3
I0327 09:03:11.564936  2226 net.cpp:210] Setting up inception_5b/3x3
I0327 09:03:11.565024  2226 net.cpp:217] Top shape: 50 384 7 7 (940800)
I0327 09:03:11.565037  2226 net.cpp:225] Memory required for data: 2777512424
I0327 09:03:11.565060  2226 layer_factory.hpp:114] Creating layer inception_5b/relu_3x3
I0327 09:03:11.565088  2226 net.cpp:160] Creating Layer inception_5b/relu_3x3
I0327 09:03:11.565122  2226 net.cpp:596] inception_5b/relu_3x3 <- inception_5b/3x3
I0327 09:03:11.565140  2226 net.cpp:557] inception_5b/relu_3x3 -> inception_5b/3x3 (in-place)
I0327 09:03:11.565161  2226 net.cpp:210] Setting up inception_5b/relu_3x3
I0327 09:03:11.565173  2226 net.cpp:217] Top shape: 50 384 7 7 (940800)
I0327 09:03:11.565181  2226 net.cpp:225] Memory required for data: 2781275624
I0327 09:03:11.565191  2226 layer_factory.hpp:114] Creating layer inception_5b/5x5_reduce
I0327 09:03:11.565212  2226 net.cpp:160] Creating Layer inception_5b/5x5_reduce
I0327 09:03:11.565223  2226 net.cpp:596] inception_5b/5x5_reduce <- inception_5a/output_inception_5a/output_0_split_2
I0327 09:03:11.565241  2226 net.cpp:570] inception_5b/5x5_reduce -> inception_5b/5x5_reduce
I0327 09:03:11.568927  2226 net.cpp:210] Setting up inception_5b/5x5_reduce
I0327 09:03:11.568976  2226 net.cpp:217] Top shape: 50 48 7 7 (117600)
I0327 09:03:11.568985  2226 net.cpp:225] Memory required for data: 2781746024
I0327 09:03:11.569005  2226 layer_factory.hpp:114] Creating layer inception_5b/relu_5x5_reduce
I0327 09:03:11.569027  2226 net.cpp:160] Creating Layer inception_5b/relu_5x5_reduce
I0327 09:03:11.569041  2226 net.cpp:596] inception_5b/relu_5x5_reduce <- inception_5b/5x5_reduce
I0327 09:03:11.569056  2226 net.cpp:557] inception_5b/relu_5x5_reduce -> inception_5b/5x5_reduce (in-place)
I0327 09:03:11.569077  2226 net.cpp:210] Setting up inception_5b/relu_5x5_reduce
I0327 09:03:11.569089  2226 net.cpp:217] Top shape: 50 48 7 7 (117600)
I0327 09:03:11.569097  2226 net.cpp:225] Memory required for data: 2782216424
I0327 09:03:11.569106  2226 layer_factory.hpp:114] Creating layer inception_5b/5x5
I0327 09:03:11.569128  2226 net.cpp:160] Creating Layer inception_5b/5x5
I0327 09:03:11.569139  2226 net.cpp:596] inception_5b/5x5 <- inception_5b/5x5_reduce
I0327 09:03:11.569154  2226 net.cpp:570] inception_5b/5x5 -> inception_5b/5x5
I0327 09:03:11.577787  2226 net.cpp:210] Setting up inception_5b/5x5
I0327 09:03:11.577863  2226 net.cpp:217] Top shape: 50 128 7 7 (313600)
I0327 09:03:11.577872  2226 net.cpp:225] Memory required for data: 2783470824
I0327 09:03:11.577896  2226 layer_factory.hpp:114] Creating layer inception_5b/relu_5x5
I0327 09:03:11.577919  2226 net.cpp:160] Creating Layer inception_5b/relu_5x5
I0327 09:03:11.577934  2226 net.cpp:596] inception_5b/relu_5x5 <- inception_5b/5x5
I0327 09:03:11.577955  2226 net.cpp:557] inception_5b/relu_5x5 -> inception_5b/5x5 (in-place)
I0327 09:03:11.577975  2226 net.cpp:210] Setting up inception_5b/relu_5x5
I0327 09:03:11.577986  2226 net.cpp:217] Top shape: 50 128 7 7 (313600)
I0327 09:03:11.577996  2226 net.cpp:225] Memory required for data: 2784725224
I0327 09:03:11.578040  2226 layer_factory.hpp:114] Creating layer inception_5b/pool
I0327 09:03:11.578104  2226 net.cpp:160] Creating Layer inception_5b/pool
I0327 09:03:11.578116  2226 net.cpp:596] inception_5b/pool <- inception_5a/output_inception_5a/output_0_split_3
I0327 09:03:11.578132  2226 net.cpp:570] inception_5b/pool -> inception_5b/pool
I0327 09:03:11.578156  2226 net.cpp:210] Setting up inception_5b/pool
I0327 09:03:11.578168  2226 net.cpp:217] Top shape: 50 832 7 7 (2038400)
I0327 09:03:11.578177  2226 net.cpp:225] Memory required for data: 2792878824
I0327 09:03:11.578186  2226 layer_factory.hpp:114] Creating layer inception_5b/pool_proj
I0327 09:03:11.578212  2226 net.cpp:160] Creating Layer inception_5b/pool_proj
I0327 09:03:11.578222  2226 net.cpp:596] inception_5b/pool_proj <- inception_5b/pool
I0327 09:03:11.578239  2226 net.cpp:570] inception_5b/pool_proj -> inception_5b/pool_proj
I0327 09:03:11.583760  2226 net.cpp:210] Setting up inception_5b/pool_proj
I0327 09:03:11.583830  2226 net.cpp:217] Top shape: 50 128 7 7 (313600)
I0327 09:03:11.583839  2226 net.cpp:225] Memory required for data: 2794133224
I0327 09:03:11.583861  2226 layer_factory.hpp:114] Creating layer inception_5b/relu_pool_proj
I0327 09:03:11.583884  2226 net.cpp:160] Creating Layer inception_5b/relu_pool_proj
I0327 09:03:11.583899  2226 net.cpp:596] inception_5b/relu_pool_proj <- inception_5b/pool_proj
I0327 09:03:11.583935  2226 net.cpp:557] inception_5b/relu_pool_proj -> inception_5b/pool_proj (in-place)
I0327 09:03:11.583956  2226 net.cpp:210] Setting up inception_5b/relu_pool_proj
I0327 09:03:11.583967  2226 net.cpp:217] Top shape: 50 128 7 7 (313600)
I0327 09:03:11.583976  2226 net.cpp:225] Memory required for data: 2795387624
I0327 09:03:11.583986  2226 layer_factory.hpp:114] Creating layer inception_5b/output
I0327 09:03:11.583998  2226 net.cpp:160] Creating Layer inception_5b/output
I0327 09:03:11.584009  2226 net.cpp:596] inception_5b/output <- inception_5b/1x1
I0327 09:03:11.584028  2226 net.cpp:596] inception_5b/output <- inception_5b/3x3
I0327 09:03:11.584040  2226 net.cpp:596] inception_5b/output <- inception_5b/5x5
I0327 09:03:11.584051  2226 net.cpp:596] inception_5b/output <- inception_5b/pool_proj
I0327 09:03:11.584064  2226 net.cpp:570] inception_5b/output -> inception_5b/output
I0327 09:03:11.584089  2226 net.cpp:210] Setting up inception_5b/output
I0327 09:03:11.584101  2226 net.cpp:217] Top shape: 50 1024 7 7 (2508800)
I0327 09:03:11.584110  2226 net.cpp:225] Memory required for data: 2805422824
I0327 09:03:11.584118  2226 layer_factory.hpp:114] Creating layer pool5/7x7_s1
I0327 09:03:11.584168  2226 net.cpp:160] Creating Layer pool5/7x7_s1
I0327 09:03:11.584179  2226 net.cpp:596] pool5/7x7_s1 <- inception_5b/output
I0327 09:03:11.584193  2226 net.cpp:570] pool5/7x7_s1 -> pool5/7x7_s1
I0327 09:03:11.584213  2226 net.cpp:210] Setting up pool5/7x7_s1
I0327 09:03:11.584224  2226 net.cpp:217] Top shape: 50 1024 1 1 (51200)
I0327 09:03:11.584233  2226 net.cpp:225] Memory required for data: 2805627624
I0327 09:03:11.584241  2226 layer_factory.hpp:114] Creating layer pool5/drop_7x7_s1
I0327 09:03:11.584260  2226 net.cpp:160] Creating Layer pool5/drop_7x7_s1
I0327 09:03:11.584270  2226 net.cpp:596] pool5/drop_7x7_s1 <- pool5/7x7_s1
I0327 09:03:11.584281  2226 net.cpp:557] pool5/drop_7x7_s1 -> pool5/7x7_s1 (in-place)
I0327 09:03:11.584298  2226 net.cpp:210] Setting up pool5/drop_7x7_s1
I0327 09:03:11.584309  2226 net.cpp:217] Top shape: 50 1024 1 1 (51200)
I0327 09:03:11.584317  2226 net.cpp:225] Memory required for data: 2805832424
I0327 09:03:11.584326  2226 layer_factory.hpp:114] Creating layer loss3/classifier
I0327 09:03:11.584345  2226 net.cpp:160] Creating Layer loss3/classifier
I0327 09:03:11.584354  2226 net.cpp:596] loss3/classifier <- pool5/7x7_s1
I0327 09:03:11.584372  2226 net.cpp:570] loss3/classifier -> loss3/classifier
I0327 09:03:11.602385  2226 net.cpp:210] Setting up loss3/classifier
I0327 09:03:11.602432  2226 net.cpp:217] Top shape: 50 1000 (50000)
I0327 09:03:11.602465  2226 net.cpp:225] Memory required for data: 2806032424
I0327 09:03:11.602484  2226 layer_factory.hpp:114] Creating layer loss3/classifier_loss3/classifier_0_split
I0327 09:03:11.602504  2226 net.cpp:160] Creating Layer loss3/classifier_loss3/classifier_0_split
I0327 09:03:11.602516  2226 net.cpp:596] loss3/classifier_loss3/classifier_0_split <- loss3/classifier
I0327 09:03:11.602531  2226 net.cpp:570] loss3/classifier_loss3/classifier_0_split -> loss3/classifier_loss3/classifier_0_split_0
I0327 09:03:11.602550  2226 net.cpp:570] loss3/classifier_loss3/classifier_0_split -> loss3/classifier_loss3/classifier_0_split_1
I0327 09:03:11.602568  2226 net.cpp:570] loss3/classifier_loss3/classifier_0_split -> loss3/classifier_loss3/classifier_0_split_2
I0327 09:03:11.602586  2226 net.cpp:210] Setting up loss3/classifier_loss3/classifier_0_split
I0327 09:03:11.602597  2226 net.cpp:217] Top shape: 50 1000 (50000)
I0327 09:03:11.602608  2226 net.cpp:217] Top shape: 50 1000 (50000)
I0327 09:03:11.602618  2226 net.cpp:217] Top shape: 50 1000 (50000)
I0327 09:03:11.602627  2226 net.cpp:225] Memory required for data: 2806632424
I0327 09:03:11.602635  2226 layer_factory.hpp:114] Creating layer loss3/loss3
I0327 09:03:11.602648  2226 net.cpp:160] Creating Layer loss3/loss3
I0327 09:03:11.602658  2226 net.cpp:596] loss3/loss3 <- loss3/classifier_loss3/classifier_0_split_0
I0327 09:03:11.602669  2226 net.cpp:596] loss3/loss3 <- label_data_1_split_6
…
