…
I0327 09:08:24.861903  2326 net.cpp:484] The NetState phase (0) differed from the phase (1) specified by a rule in layer loss3/top-5
I0327 09:08:24.869303  2326 net.cpp:120] Initializing net from parameters: 
name: "GoogleNet"
state {
  phase: TRAIN
  level: 0
  stage: ""
}
layer {
  name: "data"
  type: "Data"
  top: "data"
  top: "label"
  include {
    phase: TRAIN
  }
  transform_param {
    mirror: true
    crop_size: 224
    mean_value: 104
    mean_value: 117
    mean_value: 123
  }
  data_param {
    source: "/home/user/user/LIBRARIES/caffeLibs/caffe/examples/imagenet/ilsvrc12_train_lmdb"
    batch_size: 48
    backend: LMDB
  }
}
layer {
  name: "label_data_1_split"
  type: "Split"
  bottom: "label"
  top: "label_data_1_split_0"
  top: "label_data_1_split_1"
  top: "label_data_1_split_2"
}
layer {
  name: "conv1/7x7_s2"
  type: "Convolution"
  bottom: "data"
  top: "conv1/7x7_s2"
  param {
    lr_mult: 1
    decay_mult: 1
  }
  param {
    lr_mult: 2
    decay_mult: 0
  }
  convolution_param {
    num_output: 64
    pad: 3
    kernel_size: 7
    stride: 2
    weight_filler {
      type: "xavier"
    }
    bias_filler {
      type: "constant"
      value: 0.2
    }
  }
}
layer {
  name: "conv1/relu_7x7"
  type: "ReLU"
  bottom: "conv1/7x7_s2"
  top: "conv1/7x7_s2"
}
layer {
  name: "pool1/3x3_s2"
  type: "Pooling"
  bottom: "conv1/7x7_s2"
  top: "pool1/3x3_s2"
  pooling_param {
    pool: MAX
    kernel_size: 3
    stride: 2
  }
}
layer {
  name: "pool1/norm1"
  type: "LRN"
  bottom: "pool1/3x3_s2"
  top: "pool1/norm1"
  lrn_param {
    local_size: 5
    alpha: 0.0001
    beta: 0.75
  }
}
layer {
  name: "conv2/3x3_reduce"
  type: "Convolution"
  bottom: "pool1/norm1"
  top: "conv2/3x3_reduce"
  param {
    lr_mult: 1
    decay_mult: 1
  }
  param {
    lr_mult: 2
    decay_mult: 0
  }
  convolution_param {
    num_output: 64
    kernel_size: 1
    weight_filler {
      type: "xavier"
    }
    bias_filler {
      type: "constant"
      value: 0.2
    }
  }
}
layer {
  name: "conv2/relu_3x3_reduce"
  type: "ReLU"
  bottom: "conv2/3x3_reduce"
  top: "conv2/3x3_reduce"
}
layer {
  name: "conv2/3x3"
  type: "Convolution"
  bottom: "conv2/3x3_reduce"
  top: "conv2/3x3"
  param {
    lr_mult: 1
    decay_mult: 1
  }
  param {
    lr_mult: 2
    decay_mult: 0
  }
  convolution_param {
    num_output: 192
    pad: 1
    kernel_size: 3
    weight_filler {
      type: "xavier"
    }
    bias_filler {
      type: "constant"
      value: 0.2
    }
  }
}
layer {
  name: "conv2/relu_3x3"
  type: "ReLU"
  bottom: "conv2/3x3"
  top: "conv2/3x3"
}
layer {
  name: "conv2/norm2"
  type: "LRN"
  bottom: "conv2/3x3"
  top: "conv2/norm2"
  lrn_param {
    local_size: 5
    alpha: 0.0001
    beta: 0.75
  }
}
layer {
  name: "pool2/3x3_s2"
  type: "Pooling"
  bottom: "conv2/norm2"
  top: "pool2/3x3_s2"
  pooling_param {
    pool: MAX
    kernel_size: 3
    stride: 2
  }
}
layer {
  name: "pool2/3x3_s2_pool2/3x3_s2_0_split"
  type: "Split"
  bottom: "pool2/3x3_s2"
  top: "pool2/3x3_s2_pool2/3x3_s2_0_split_0"
  top: "pool2/3x3_s2_pool2/3x3_s2_0_split_1"
  top: "pool2/3x3_s2_pool2/3x3_s2_0_split_2"
  top: "pool2/3x3_s2_pool2/3x3_s2_0_split_3"
}
layer {
  name: "inception_3a/1x1"
  type: "Convolution"
  bottom: "pool2/3x3_s2_pool2/3x3_s2_0_split_0"
  top: "inception_3a/1x1"
  param {
    lr_mult: 1
    decay_mult: 1
  }
  param {
    lr_mult: 2
    decay_mult: 0
  }
  convolution_param {
    num_output: 64
    kernel_size: 1
    weight_filler {
      type: "xavier"
    }
    bias_filler {
      type: "constant"
      value: 0.2
    }
  }
}
layer {
  name: "inception_3a/relu_1x1"
  type: "ReLU"
  bottom: "inception_3a/1x1"
  top: "inception_3a/1x1"
}
layer {
  name: "inception_3a/3x3_reduce"
  type: "Convolution"
  bottom: "pool2/3x3_s2_pool2/3x3_s2_0_split_1"
  top: "inception_3a/3x3_reduce"
  param {
    lr_mult: 1
    decay_mult: 1
  }
  param {
    lr_mult: 2
    decay_mult: 0
  }
  convolution_param {
    num_output: 96
    kernel_size: 1
    weight_filler {
      type: "xavier"
    }
    bias_filler {
      type: "constant"
      value: 0.2
    }
  }
}
layer {
  name: "inception_3a/relu_3x3_reduce"
  type: "ReLU"
  bottom: "inception_3a/3x3_reduce"
  top: "inception_3a/3x3_reduce"
}
layer {
  name: "inception_3a/3x3"
  type: "Convolution"
  bottom: "inception_3a/3x3_reduce"
  top: "inception_3a/3x3"
  param {
    lr_mult: 1
    decay_mult: 1
  }
  param {
    lr_mult: 2
    decay_mult: 0
  }
  convolution_param {
    num_output: 128
    pad: 1
    kernel_size: 3
    weight_filler {
      type: "xavier"
    }
    bias_filler {
      type: "constant"
      value: 0.2
    }
  }
}
layer {
  name: "inception_3a/relu_3x3"
  type: "ReLU"
  bottom: "inception_3a/3x3"
  top: "inception_3a/3x3"
}
layer {
  name: "inception_3a/5x5_reduce"
  type: "Convolution"
  bottom: "pool2/3x3_s2_pool2/3x3_s2_0_split_2"
  top: "inception_3a/5x5_reduce"
  param {
    lr_mult: 1
    decay_mult: 1
  }
  param {
    lr_mult: 2
    decay_mult: 0
  }
  convolution_param {
    num_output: 16
    kernel_size: 1
    weight_filler {
      type: "xavier"
    }
    bias_filler {
      type: "constant"
      value: 0.2
    }
  }
}
layer {
  name: "inception_3a/relu_5x5_reduce"
  type: "ReLU"
  bottom: "inception_3a/5x5_reduce"
  top: "inception_3a/5x5_reduce"
}
layer {
  name: "inception_3a/5x5"
  type: "Convolution"
  bottom: "inception_3a/5x5_reduce"
  top: "inception_3a/5x5"
  param {
    lr_mult: 1
    decay_mult: 1
  }
  param {
    lr_mult: 2
    decay_mult: 0
  }
  convolution_param {
    num_output: 32
    pad: 2
    kernel_size: 5
    weight_filler {
      type: "xavier"
    }
    bias_filler {
      type: "constant"
      value: 0.2
    }
  }
}
layer {
  name: "inception_3a/relu_5x5"
  type: "ReLU"
  bottom: "inception_3a/5x5"
  top: "inception_3a/5x5"
}
layer {
  name: "inception_3a/pool"
  type: "Pooling"
  bottom: "pool2/3x3_s2_pool2/3x3_s2_0_split_3"
  top: "inception_3a/pool"
  pooling_param {
    pool: MAX
    kernel_size: 3
    stride: 1
    pad: 1
  }
}
layer {
  name: "inception_3a/pool_proj"
  type: "Convolution"
  bottom: "inception_3a/pool"
  top: "inception_3a/pool_proj"
  param {
    lr_mult: 1
    decay_mult: 1
  }
  param {
    lr_mult: 2
    decay_mult: 0
  }
  convolution_param {
    num_output: 32
    kernel_size: 1
    weight_filler {
      type: "xavier"
    }
    bias_filler {
      type: "constant"
      value: 0.2
    }
  }
}
layer {
  name: "inception_3a/relu_pool_proj"
  type: "ReLU"
  bottom: "inception_3a/pool_proj"
  top: "inception_3a/pool_proj"
}
layer {
  name: "inception_3a/output"
  type: "Concat"
  bottom: "inception_3a/1x1"
  bottom: "inception_3a/3x3"
  bottom: "inception_3a/5x5"
  bottom: "inception_3a/pool_proj"
  top: "inception_3a/output"
}
layer {
  name: "inception_3a/output_inception_3a/output_0_split"
  type: "Split"
  bottom: "inception_3a/output"
  top: "inception_3a/output_inception_3a/output_0_split_0"
  top: "inception_3a/output_inception_3a/output_0_split_1"
  top: "inception_3a/output_inception_3a/output_0_split_2"
  top: "inception_3a/output_inception_3a/output_0_split_3"
}
layer {
  name: "inception_3b/1x1"
  type: "Convolution"
  bottom: "inception_3a/output_inception_3a/output_0_split_0"
  top: "inception_3b/1x1"
  param {
    lr_mult: 1
    decay_mult: 1
  }
  param {
    lr_mult: 2
    decay_mult: 0
  }
  convolution_param {
    num_output: 128
    kernel_size: 1
    weight_filler {
      type: "xavier"
    }
    bias_filler {
      type: "constant"
      value: 0.2
    }
  }
}
layer {
  name: "inception_3b/relu_1x1"
  type: "ReLU"
  bottom: "inception_3b/1x1"
  top: "inception_3b/1x1"
}
layer {
  name: "inception_3b/3x3_reduce"
  type: "Convolution"
  bottom: "inception_3a/output_inception_3a/output_0_split_1"
  top: "inception_3b/3x3_reduce"
  param {
    lr_mult: 1
    decay_mult: 1
  }
  param {
    lr_mult: 2
    decay_mult: 0
  }
  convolution_param {
    num_output: 128
    kernel_size: 1
    weight_filler {
      type: "xavier"
    }
    bias_filler {
      type: "constant"
      value: 0.2
    }
  }
}
layer {
  name: "inception_3b/relu_3x3_reduce"
  type: "ReLU"
  bottom: "inception_3b/3x3_reduce"
  top: "inception_3b/3x3_reduce"
}
layer {
  name: "inception_3b/3x3"
  type: "Convolution"
  bottom: "inception_3b/3x3_reduce"
  top: "inception_3b/3x3"
  param {
    lr_mult: 1
    decay_mult: 1
  }
  param {
    lr_mult: 2
    decay_mult: 0
  }
  convolution_param {
    num_output: 192
    pad: 1
    kernel_size: 3
    weight_filler {
      type: "xavier"
    }
    bias_filler {
      type: "constant"
      value: 0.2
    }
  }
}
layer {
  name: "inception_3b/relu_3x3"
  type: "ReLU"
  bottom: "inception_3b/3x3"
  top: "inception_3b/3x3"
}
layer {
  name: "inception_3b/5x5_reduce"
  type: "Convolution"
  bottom: "inception_3a/output_inception_3a/output_0_split_2"
  top: "inception_3b/5x5_reduce"
  param {
    lr_mult: 1
    decay_mult: 1
  }
  param {
    lr_mult: 2
    decay_mult: 0
  }
  convolution_param {
    num_output: 32
    kernel_size: 1
    weight_filler {
      type: "xavier"
    }
    bias_filler {
      type: "constant"
      value: 0.2
    }
  }
}
layer {
  name: "inception_3b/relu_5x5_reduce"
  type: "ReLU"
  bottom: "inception_3b/5x5_reduce"
  top: "inception_3b/5x5_reduce"
}
layer {
  name: "inception_3b/5x5"
  type: "Convolution"
  bottom: "inception_3b/5x5_reduce"
  top: "inception_3b/5x5"
  param {
    lr_mult: 1
    decay_mult: 1
  }
  param {
    lr_mult: 2
    decay_mult: 0
  }
  convolution_param {
    num_output: 96
    pad: 2
    kernel_size: 5
    weight_filler {
      type: "xavier"
    }
    bias_filler {
      type: "constant"
      value: 0.2
    }
  }
}
layer {
  name: "inception_3b/relu_5x5"
  type: "ReLU"
  bottom: "inception_3b/5x5"
  top: "inception_3b/5x5"
}
layer {
  name: "inception_3b/pool"
  type: "Pooling"
  bottom: "inception_3a/output_inception_3a/output_0_split_3"
  top: "inception_3b/pool"
  pooling_param {
    pool: MAX
    kernel_size: 3
    stride: 1
    pad: 1
  }
}
layer {
  name: "inception_3b/pool_proj"
  type: "Convolution"
  bottom: "inception_3b/pool"
  top: "inception_3b/pool_proj"
  param {
    lr_mult: 1
    decay_mult: 1
  }
  param {
    lr_mult: 2
    decay_mult: 0
  }
  convolution_param {
    num_output: 64
    kernel_size: 1
    weight_filler {
      type: "xavier"
    }
    bias_filler {
      type: "constant"
      value: 0.2
    }
  }
}
layer {
  name: "inception_3b/relu_pool_proj"
  type: "ReLU"
  bottom: "inception_3b/pool_proj"
  top: "inception_3b/pool_proj"
}
layer {
  name: "inception_3b/output"
  type: "Concat"
  bottom: "inception_3b/1x1"
  bottom: "inception_3b/3x3"
  bottom: "inception_3b/5x5"
  bottom: "inception_3b/pool_proj"
  top: "inception_3b/output"
}
layer {
  name: "pool3/3x3_s2"
  type: "Pooling"
  bottom: "inception_3b/output"
  top: "pool3/3x3_s2"
  pooling_param {
    pool: MAX
    kernel_size: 3
    stride: 2
  }
}
layer {
  name: "pool3/3x3_s2_pool3/3x3_s2_0_split"
  type: "Split"
  bottom: "pool3/3x3_s2"
  top: "pool3/3x3_s2_pool3/3x3_s2_0_split_0"
  top: "pool3/3x3_s2_pool3/3x3_s2_0_split_1"
  top: "pool3/3x3_s2_pool3/3x3_s2_0_split_2"
  top: "pool3/3x3_s2_pool3/3x3_s2_0_split_3"
}
layer {
  name: "inception_4a/1x1"
  type: "Convolution"
  bottom: "pool3/3x3_s2_pool3/3x3_s2_0_split_0"
  top: "inception_4a/1x1"
  param {
    lr_mult: 1
    decay_mult: 1
  }
  param {
    lr_mult: 2
    decay_mult: 0
  }
  convolution_param {
    num_output: 192
    kernel_size: 1
    weight_filler {
      type: "xavier"
    }
    bias_filler {
      type: "constant"
      value: 0.2
    }
  }
}
layer {
  name: "inception_4a/relu_1x1"
  type: "ReLU"
  bottom: "inception_4a/1x1"
  top: "inception_4a/1x1"
}
layer {
  name: "inception_4a/3x3_reduce"
  type: "Convolution"
  bottom: "pool3/3x3_s2_pool3/3x3_s2_0_split_1"
  top: "inception_4a/3x3_reduce"
  param {
    lr_mult: 1
    decay_mult: 1
  }
  param {
    lr_mult: 2
    decay_mult: 0
  }
  convolution_param {
    num_output: 96
    kernel_size: 1
    weight_filler {
      type: "xavier"
    }
    bias_filler {
      type: "constant"
      value: 0.2
    }
  }
}
layer {
  name: "inception_4a/relu_3x3_reduce"
  type: "ReLU"
  bottom: "inception_4a/3x3_reduce"
  top: "inception_4a/3x3_reduce"
}
layer {
  name: "inception_4a/3x3"
  type: "Convolution"
  bottom: "inception_4a/3x3_reduce"
  top: "inception_4a/3x3"
  param {
    lr_mult: 1
    decay_mult: 1
  }
  param {
    lr_mult: 2
    decay_mult: 0
  }
  convolution_param {
    num_output: 208
    pad: 1
    kernel_size: 3
    weight_filler {
      type: "xavier"
    }
    bias_filler {
      type: "constant"
      value: 0.2
    }
  }
}
layer {
  name: "inception_4a/relu_3x3"
  type: "ReLU"
  bottom: "inception_4a/3x3"
  top: "inception_4a/3x3"
}
layer {
  name: "inception_4a/5x5_reduce"
  type: "Convolution"
  bottom: "pool3/3x3_s2_pool3/3x3_s2_0_split_2"
  top: "inception_4a/5x5_reduce"
  param {
    lr_mult: 1
    decay_mult: 1
  }
  param {
    lr_mult: 2
    decay_mult: 0
  }
  convolution_param {
    num_output: 16
    kernel_size: 1
    weight_filler {
      type: "xavier"
    }
    bias_filler {
      type: "constant"
      value: 0.2
    }
  }
}
layer {
  name: "inception_4a/relu_5x5_reduce"
  type: "ReLU"
  bottom: "inception_4a/5x5_reduce"
  top: "inception_4a/5x5_reduce"
}
layer {
  name: "inception_4a/5x5"
  type: "Convolution"
  bottom: "inception_4a/5x5_reduce"
  top: "inception_4a/5x5"
  param {
    lr_mult: 1
    decay_mult: 1
  }
  param {
    lr_mult: 2
    decay_mult: 0
  }
  convolution_param {
    num_output: 48
    pad: 2
    kernel_size: 5
    weight_filler {
      type: "xavier"
    }
    bias_filler {
      type: "constant"
      value: 0.2
    }
  }
}
layer {
  name: "inception_4a/relu_5x5"
  type: "ReLU"
  bottom: "inception_4a/5x5"
  top: "inception_4a/5x5"
}
layer {
  name: "inception_4a/pool"
  type: "Pooling"
  bottom: "pool3/3x3_s2_pool3/3x3_s2_0_split_3"
  top: "inception_4a/pool"
  pooling_param {
    pool: MAX
    kernel_size: 3
    stride: 1
    pad: 1
  }
}
layer {
  name: "inception_4a/pool_proj"
  type: "Convolution"
  bottom: "inception_4a/pool"
  top: "inception_4a/pool_proj"
  param {
    lr_mult: 1
    decay_mult: 1
  }
  param {
    lr_mult: 2
    decay_mult: 0
  }
  convolution_param {
    num_output: 64
    kernel_size: 1
    weight_filler {
      type: "xavier"
    }
    bias_filler {
      type: "constant"
      value: 0.2
    }
  }
}
layer {
  name: "inception_4a/relu_pool_proj"
  type: "ReLU"
  bottom: "inception_4a/pool_proj"
  top: "inception_4a/pool_proj"
}
layer {
  name: "inception_4a/output"
  type: "Concat"
  bottom: "inception_4a/1x1"
  bottom: "inception_4a/3x3"
  bottom: "inception_4a/5x5"
  bottom: "inception_4a/pool_proj"
  top: "inception_4a/output"
}
layer {
  name: "inception_4a/output_inception_4a/output_0_split"
  type: "Split"
  bottom: "inception_4a/output"
  top: "inception_4a/output_inception_4a/output_0_split_0"
  top: "inception_4a/output_inception_4a/output_0_split_1"
  top: "inception_4a/output_inception_4a/output_0_split_2"
  top: "inception_4a/output_inception_4a/output_0_split_3"
  top: "inception_4a/output_inception_4a/output_0_split_4"
}
layer {
  name: "loss1/ave_pool"
  type: "Pooling"
  bottom: "inception_4a/output_inception_4a/output_0_split_0"
  top: "loss1/ave_pool"
  pooling_param {
    pool: AVE
    kernel_size: 5
    stride: 3
  }
}
layer {
  name: "loss1/conv"
  type: "Convolution"
  bottom: "loss1/ave_pool"
  top: "loss1/conv"
  param {
    lr_mult: 1
    decay_mult: 1
  }
  param {
    lr_mult: 2
    decay_mult: 0
  }
  convolution_param {
    num_output: 128
    kernel_size: 1
    weight_filler {
      type: "xavier"
    }
    bias_filler {
      type: "constant"
      value: 0.2
    }
  }
}
layer {
  name: "loss1/relu_conv"
  type: "ReLU"
  bottom: "loss1/conv"
  top: "loss1/conv"
}
layer {
  name: "loss1/fc"
  type: "InnerProduct"
  bottom: "loss1/conv"
  top: "loss1/fc"
  param {
    lr_mult: 1
    decay_mult: 1
  }
  param {
    lr_mult: 2
    decay_mult: 0
  }
  inner_product_param {
    num_output: 1024
    weight_filler {
      type: "xavier"
    }
    bias_filler {
      type: "constant"
      value: 0.2
    }
  }
}
layer {
  name: "loss1/relu_fc"
  type: "ReLU"
  bottom: "loss1/fc"
  top: "loss1/fc"
}
layer {
  name: "loss1/drop_fc"
  type: "Dropout"
  bottom: "loss1/fc"
  top: "loss1/fc"
  dropout_param {
    dropout_ratio: 0.7
  }
}
layer {
  name: "loss1/classifier"
  type: "InnerProduct"
  bottom: "loss1/fc"
  top: "loss1/classifier"
  param {
    lr_mult: 1
    decay_mult: 1
  }
  param {
    lr_mult: 2
    decay_mult: 0
  }
  inner_product_param {
    num_output: 1000
    weight_filler {
      type: "xavier"
    }
    bias_filler {
      type: "constant"
      value: 0
    }
  }
}
layer {
  name: "loss1/loss"
  type: "SoftmaxWithLoss"
  bottom: "loss1/classifier"
  bottom: "label_data_1_split_0"
  top: "loss1/loss1"
  loss_weight: 0.3
}
layer {
  name: "inception_4b/1x1"
  type: "Convolution"
  bottom: "inception_4a/output_inception_4a/output_0_split_1"
  top: "inception_4b/1x1"
  param {
    lr_mult: 1
    decay_mult: 1
  }
  param {
    lr_mult: 2
    decay_mult: 0
  }
  convolution_param {
    num_output: 160
    kernel_size: 1
    weight_filler {
      type: "xavier"
    }
    bias_filler {
      type: "constant"
      value: 0.2
    }
  }
}
layer {
  name: "inception_4b/relu_1x1"
  type: "ReLU"
  bottom: "inception_4b/1x1"
  top: "inception_4b/1x1"
}
layer {
  name: "inception_4b/3x3_reduce"
  type: "Convolution"
  bottom: "inception_4a/output_inception_4a/output_0_split_2"
  top: "inception_4b/3x3_reduce"
  param {
    lr_mult: 1
    decay_mult: 1
  }
  param {
    lr_mult: 2
    decay_mult: 0
  }
  convolution_param {
    num_output: 112
    kernel_size: 1
    weight_filler {
      type: "xavier"
    }
    bias_filler {
      type: "constant"
      value: 0.2
    }
  }
}
layer {
  name: "inception_4b/relu_3x3_reduce"
  type: "ReLU"
  bottom: "inception_4b/3x3_reduce"
  top: "inception_4b/3x3_reduce"
}
layer {
  name: "inception_4b/3x3"
  type: "Convolution"
  bottom: "inception_4b/3x3_reduce"
  top: "inception_4b/3x3"
  param {
    lr_mult: 1
    decay_mult: 1
  }
  param {
    lr_mult: 2
    decay_mult: 0
  }
  convolution_param {
    num_output: 224
    pad: 1
    kernel_size: 3
    weight_filler {
      type: "xavier"
    }
    bias_filler {
      type: "constant"
      value: 0.2
    }
  }
}
layer {
  name: "inception_4b/relu_3x3"
  type: "ReLU"
  bottom: "inception_4b/3x3"
  top: "inception_4b/3x3"
}
layer {
  name: "inception_4b/5x5_reduce"
  type: "Convolution"
  bottom: "inception_4a/output_inception_4a/output_0_split_3"
  top: "inception_4b/5x5_reduce"
  param {
    lr_mult: 1
    decay_mult: 1
  }
  param {
    lr_mult: 2
    decay_mult: 0
  }
  convolution_param {
    num_output: 24
    kernel_size: 1
    weight_filler {
      type: "xavier"
    }
    bias_filler {
      type: "constant"
      value: 0.2
    }
  }
}
layer {
  name: "inception_4b/relu_5x5_reduce"
  type: "ReLU"
  bottom: "inception_4b/5x5_reduce"
  top: "inception_4b/5x5_reduce"
}
layer {
  name: "inception_4b/5x5"
  type: "Convolution"
  bottom: "inception_4b/5x5_reduce"
  top: "inception_4b/5x5"
  param {
    lr_mult: 1
    decay_mult: 1
  }
  param {
    lr_mult: 2
    decay_mult: 0
  }
  convolution_param {
    num_output: 64
    pad: 2
    kernel_size: 5
    weight_filler {
      type: "xavier"
    }
    bias_filler {
      type: "constant"
      value: 0.2
    }
  }
}
layer {
  name: "inception_4b/relu_5x5"
  type: "ReLU"
  bottom: "inception_4b/5x5"
  top: "inception_4b/5x5"
}
layer {
  name: "inception_4b/pool"
  type: "Pooling"
  bottom: "inception_4a/output_inception_4a/output_0_split_4"
  top: "inception_4b/pool"
  pooling_param {
    pool: MAX
    kernel_size: 3
    stride: 1
    pad: 1
  }
}
layer {
  name: "inception_4b/pool_proj"
  type: "Convolution"
  bottom: "inception_4b/pool"
  top: "inception_4b/pool_proj"
  param {
    lr_mult: 1
    decay_mult: 1
  }
  param {
    lr_mult: 2
    decay_mult: 0
  }
  convolution_param {
    num_output: 64
    kernel_size: 1
    weight_filler {
      type: "xavier"
    }
    bias_filler {
      type: "constant"
      value: 0.2
    }
  }
}
layer {
  name: "inception_4b/relu_pool_proj"
  type: "ReLU"
  bottom: "inception_4b/pool_proj"
  top: "inception_4b/pool_proj"
}
layer {
  name: "inception_4b/output"
  type: "Concat"
  bottom: "inception_4b/1x1"
  bottom: "inception_4b/3x3"
  bottom: "inception_4b/5x5"
  bottom: "inception_4b/pool_proj"
  top: "inception_4b/output"
}
layer {
  name: "inception_4b/output_inception_4b/output_0_split"
  type: "Split"
  bottom: "inception_4b/output"
  top: "inception_4b/output_inception_4b/output_0_split_0"
  top: "inception_4b/output_inception_4b/output_0_split_1"
  top: "inception_4b/output_inception_4b/output_0_split_2"
  top: "inception_4b/output_inception_4b/output_0_split_3"
}
layer {
  name: "inception_4c/1x1"
  type: "Convolution"
  bottom: "inception_4b/output_inception_4b/output_0_split_0"
  top: "inception_4c/1x1"
  param {
    lr_mult: 1
    decay_mult: 1
  }
  param {
    lr_mult: 2
    decay_mult: 0
  }
  convolution_param {
    num_output: 128
    kernel_size: 1
    weight_filler {
      type: "xavier"
    }
    bias_filler {
      type: "constant"
      value: 0.2
    }
  }
}
layer {
  name: "inception_4c/relu_1x1"
  type: "ReLU"
  bottom: "inception_4c/1x1"
  top: "inception_4c/1x1"
}
layer {
  name: "inception_4c/3x3_reduce"
  type: "Convolution"
  bottom: "inception_4b/output_inception_4b/output_0_split_1"
  top: "inception_4c/3x3_reduce"
  param {
    lr_mult: 1
    decay_mult: 1
  }
  param {
    lr_mult: 2
    decay_mult: 0
  }
  convolution_param {
    num_output: 128
    kernel_size: 1
    weight_filler {
      type: "xavier"
    }
    bias_filler {
      type: "constant"
      value: 0.2
    }
  }
}
layer {
  name: "inception_4c/relu_3x3_reduce"
  type: "ReLU"
  bottom: "inception_4c/3x3_reduce"
  top: "inception_4c/3x3_reduce"
}
layer {
  name: "inception_4c/3x3"
  type: "Convolution"
  bottom: "inception_4c/3x3_reduce"
  top: "inception_4c/3x3"
  param {
    lr_mult: 1
    decay_mult: 1
  }
  param {
    lr_mult: 2
    decay_mult: 0
  }
  convolution_param {
    num_output: 256
    pad: 1
    kernel_size: 3
    weight_filler {
      type: "xavier"
    }
    bias_filler {
      type: "constant"
      value: 0.2
    }
  }
}
layer {
  name: "inception_4c/relu_3x3"
  type: "ReLU"
  bottom: "inception_4c/3x3"
  top: "inception_4c/3x3"
}
layer {
  name: "inception_4c/5x5_reduce"
  type: "Convolution"
  bottom: "inception_4b/output_inception_4b/output_0_split_2"
  top: "inception_4c/5x5_reduce"
  param {
    lr_mult: 1
    decay_mult: 1
  }
  param {
    lr_mult: 2
    decay_mult: 0
  }
  convolution_param {
    num_output: 24
    kernel_size: 1
    weight_filler {
      type: "xavier"
    }
    bias_filler {
      type: "constant"
      value: 0.2
    }
  }
}
layer {
  name: "inception_4c/relu_5x5_reduce"
  type: "ReLU"
  bottom: "inception_4c/5x5_reduce"
  top: "inception_4c/5x5_reduce"
}
layer {
  name: "inception_4c/5x5"
  type: "Convolution"
  bottom: "inception_4c/5x5_reduce"
  top: "inception_4c/5x5"
  param {
    lr_mult: 1
    decay_mult: 1
  }
  param {
    lr_mult: 2
    decay_mult: 0
  }
  convolution_param {
    num_output: 64
    pad: 2
    kernel_size: 5
    weight_filler {
      type: "xavier"
    }
    bias_filler {
      type: "constant"
      value: 0.2
    }
  }
}
layer {
  name: "inception_4c/relu_5x5"
  type: "ReLU"
  bottom: "inception_4c/5x5"
  top: "inception_4c/5x5"
}
layer {
  name: "inception_4c/pool"
  type: "Pooling"
  bottom: "inception_4b/output_inception_4b/output_0_split_3"
  top: "inception_4c/pool"
  pooling_param {
    pool: MAX
    kernel_size: 3
    stride: 1
    pad: 1
  }
}
layer {
  name: "inception_4c/pool_proj"
  type: "Convolution"
  bottom: "inception_4c/pool"
  top: "inception_4c/pool_proj"
  param {
    lr_mult: 1
    decay_mult: 1
  }
  param {
    lr_mult: 2
    decay_mult: 0
  }
  convolution_param {
    num_output: 64
    kernel_size: 1
    weight_filler {
      type: "xavier"
    }
    bias_filler {
      type: "constant"
      value: 0.2
    }
  }
}
layer {
  name: "inception_4c/relu_pool_proj"
  type: "ReLU"
  bottom: "inception_4c/pool_proj"
  top: "inception_4c/pool_proj"
}
layer {
  name: "inception_4c/output"
  type: "Concat"
  bottom: "inception_4c/1x1"
  bottom: "inception_4c/3x3"
  bottom: "inception_4c/5x5"
  bottom: "inception_4c/pool_proj"
  top: "inception_4c/output"
}
layer {
  name: "inception_4c/output_inception_4c/output_0_split"
  type: "Split"
  bottom: "inception_4c/output"
  top: "inception_4c/output_inception_4c/output_0_split_0"
  top: "inception_4c/output_inception_4c/output_0_split_1"
  top: "inception_4c/output_inception_4c/output_0_split_2"
  top: "inception_4c/output_inception_4c/output_0_split_3"
}
layer {
  name: "inception_4d/1x1"
  type: "Convolution"
  bottom: "inception_4c/output_inception_4c/output_0_split_0"
  top: "inception_4d/1x1"
  param {
    lr_mult: 1
    decay_mult: 1
  }
  param {
    lr_mult: 2
    decay_mult: 0
  }
  convolution_param {
    num_output: 112
    kernel_size: 1
    weight_filler {
      type: "xavier"
    }
    bias_filler {
      type: "constant"
      value: 0.2
    }
  }
}
layer {
  name: "inception_4d/relu_1x1"
  type: "ReLU"
  bottom: "inception_4d/1x1"
  top: "inception_4d/1x1"
}
layer {
  name: "inception_4d/3x3_reduce"
  type: "Convolution"
  bottom: "inception_4c/output_inception_4c/output_0_split_1"
  top: "inception_4d/3x3_reduce"
  param {
    lr_mult: 1
    decay_mult: 1
  }
  param {
    lr_mult: 2
    decay_mult: 0
  }
  convolution_param {
    num_output: 144
    kernel_size: 1
    weight_filler {
      type: "xavier"
    }
    bias_filler {
      type: "constant"
      value: 0.2
    }
  }
}
layer {
  name: "inception_4d/relu_3x3_reduce"
  type: "ReLU"
  bottom: "inception_4d/3x3_reduce"
  top: "inception_4d/3x3_reduce"
}
layer {
  name: "inception_4d/3x3"
  type: "Convolution"
  bottom: "inception_4d/3x3_reduce"
  top: "inception_4d/3x3"
  param {
    lr_mult: 1
    decay_mult: 1
  }
  param {
    lr_mult: 2
    decay_mult: 0
  }
  convolution_param {
    num_output: 288
    pad: 1
    kernel_size: 3
    weight_filler {
      type: "xavier"
    }
    bias_filler {
      type: "constant"
      value: 0.2
    }
  }
}
layer {
  name: "inception_4d/relu_3x3"
  type: "ReLU"
  bottom: "inception_4d/3x3"
  top: "inception_4d/3x3"
}
layer {
  name: "inception_4d/5x5_reduce"
  type: "Convolution"
  bottom: "inception_4c/output_inception_4c/output_0_split_2"
  top: "inception_4d/5x5_reduce"
  param {
    lr_mult: 1
    decay_mult: 1
  }
  param {
    lr_mult: 2
    decay_mult: 0
  }
  convolution_param {
    num_output: 32
    kernel_size: 1
    weight_filler {
      type: "xavier"
    }
    bias_filler {
      type: "constant"
      value: 0.2
    }
  }
}
layer {
  name: "inception_4d/relu_5x5_reduce"
  type: "ReLU"
  bottom: "inception_4d/5x5_reduce"
  top: "inception_4d/5x5_reduce"
}
layer {
  name: "inception_4d/5x5"
  type: "Convolution"
  bottom: "inception_4d/5x5_reduce"
  top: "inception_4d/5x5"
  param {
    lr_mult: 1
    decay_mult: 1
  }
  param {
    lr_mult: 2
    decay_mult: 0
  }
  convolution_param {
    num_output: 64
    pad: 2
    kernel_size: 5
    weight_filler {
      type: "xavier"
    }
    bias_filler {
      type: "constant"
      value: 0.2
    }
  }
}
layer {
  name: "inception_4d/relu_5x5"
  type: "ReLU"
  bottom: "inception_4d/5x5"
  top: "inception_4d/5x5"
}
layer {
  name: "inception_4d/pool"
  type: "Pooling"
  bottom: "inception_4c/output_inception_4c/output_0_split_3"
  top: "inception_4d/pool"
  pooling_param {
    pool: MAX
    kernel_size: 3
    stride: 1
    pad: 1
  }
}
layer {
  name: "inception_4d/pool_proj"
  type: "Convolution"
  bottom: "inception_4d/pool"
  top: "inception_4d/pool_proj"
  param {
    lr_mult: 1
    decay_mult: 1
  }
  param {
    lr_mult: 2
    decay_mult: 0
  }
  convolution_param {
    num_output: 64
    kernel_size: 1
    weight_filler {
      type: "xavier"
    }
    bias_filler {
      type: "constant"
      value: 0.2
    }
  }
}
layer {
  name: "inception_4d/relu_pool_proj"
  type: "ReLU"
  bottom: "inception_4d/pool_proj"
  top: "inception_4d/pool_proj"
}
layer {
  name: "inception_4d/output"
  type: "Concat"
  bottom: "inception_4d/1x1"
  bottom: "inception_4d/3x3"
  bottom: "inception_4d/5x5"
  bottom: "inception_4d/pool_proj"
  top: "inception_4d/output"
}
layer {
  name: "inception_4d/output_inception_4d/output_0_split"
  type: "Split"
  bottom: "inception_4d/output"
  top: "inception_4d/output_inception_4d/output_0_split_0"
  top: "inception_4d/output_inception_4d/output_0_split_1"
  top: "inception_4d/output_inception_4d/output_0_split_2"
  top: "inception_4d/output_inception_4d/output_0_split_3"
  top: "inception_4d/output_inception_4d/output_0_split_4"
}
layer {
  name: "loss2/ave_pool"
  type: "Pooling"
  bottom: "inception_4d/output_inception_4d/output_0_split_0"
  top: "loss2/ave_pool"
  pooling_param {
    pool: AVE
    kernel_size: 5
    stride: 3
  }
}
layer {
  name: "loss2/conv"
  type: "Convolution"
  bottom: "loss2/ave_pool"
  top: "loss2/conv"
  param {
    lr_mult: 1
    decay_mult: 1
  }
  param {
    lr_mult: 2
    decay_mult: 0
  }
  convolution_param {
    num_output: 128
    kernel_size: 1
    weight_filler {
      type: "xavier"
    }
    bias_filler {
      type: "constant"
      value: 0.2
    }
  }
}
layer {
  name: "loss2/relu_conv"
  type: "ReLU"
  bottom: "loss2/conv"
  top: "loss2/conv"
}
layer {
  name: "loss2/fc"
  type: "InnerProduct"
  bottom: "loss2/conv"
  top: "loss2/fc"
  param {
    lr_mult: 1
    decay_mult: 1
  }
  param {
    lr_mult: 2
    decay_mult: 0
  }
  inner_product_param {
    num_output: 1024
    weight_filler {
      type: "xavier"
    }
    bias_filler {
      type: "constant"
      value: 0.2
    }
  }
}
layer {
  name: "loss2/relu_fc"
  type: "ReLU"
  bottom: "loss2/fc"
  top: "loss2/fc"
}
layer {
  name:
I0327 09:08:24.869621  2326 layer_factory.hpp:114] Creating layer data
I0327 09:08:24.870430  2326 net.cpp:160] Creating Layer data
I0327 09:08:24.870453  2326 net.cpp:570] data -> data
I0327 09:08:24.870501  2326 net.cpp:570] data -> label
I0327 09:08:24.870771  2327 db_lmdb.cpp:72] Opened lmdb /home/user/user/LIBRARIES/caffeLibs/caffe/examples/imagenet/ilsvrc12_train_lmdb
I0327 09:08:24.871578  2326 data_layer.cpp:80] output data size: 48,3,224,224
I0327 09:08:24.926182  2326 net.cpp:210] Setting up data
I0327 09:08:24.926290  2326 net.cpp:217] Top shape: 48 3 224 224 (7225344)
I0327 09:08:24.926322  2326 net.cpp:217] Top shape: 48 (48)
I0327 09:08:24.926349  2326 net.cpp:225] Memory required for data: 28901568
I0327 09:08:24.926368  2326 layer_factory.hpp:114] Creating layer label_data_1_split
I0327 09:08:24.926409  2326 net.cpp:160] Creating Layer label_data_1_split
I0327 09:08:24.926424  2326 net.cpp:596] label_data_1_split <- label
I0327 09:08:24.926443  2326 net.cpp:570] label_data_1_split -> label_data_1_split_0
I0327 09:08:24.926468  2326 net.cpp:570] label_data_1_split -> label_data_1_split_1
I0327 09:08:24.926482  2326 net.cpp:570] label_data_1_split -> label_data_1_split_2
I0327 09:08:24.926508  2326 net.cpp:210] Setting up label_data_1_split
I0327 09:08:24.926520  2326 net.cpp:217] Top shape: 48 (48)
I0327 09:08:24.926532  2326 net.cpp:217] Top shape: 48 (48)
I0327 09:08:24.926542  2326 net.cpp:217] Top shape: 48 (48)
I0327 09:08:24.926549  2326 net.cpp:225] Memory required for data: 28902144
I0327 09:08:24.926558  2326 layer_factory.hpp:114] Creating layer conv1/7x7_s2
I0327 09:08:24.926594  2326 net.cpp:160] Creating Layer conv1/7x7_s2
I0327 09:08:24.926604  2326 net.cpp:596] conv1/7x7_s2 <- data
I0327 09:08:24.926620  2326 net.cpp:570] conv1/7x7_s2 -> conv1/7x7_s2
OMP: Info #242: KMP_AFFINITY: pid 2326 thread 1 bound to OS proc set {12,13,14,15,16,17,18,19,20,21,22,23}
…
OMP: Info #242: KMP_AFFINITY: pid 2326 thread 43 bound to OS proc set {36,37,38,39,40,41,42,43,44,45,46,47}
OMP: Info #242: KMP_AFFINITY: pid 2326 thread 44 bound to OS proc set {0,1,2,3,4,5,6,7,8,9,10,11}
OMP: Info #242: KMP_AFFINITY: pid 2326 thread 45 bound to OS proc set {12,13,14,15,16,17,18,19,20,21,22,23}
OMP: Info #242: KMP_AFFINITY: pid 2326 thread 46 bound to OS proc set {24,25,26,27,28,29,30,31,32,33,34,35}
OMP: Info #242: KMP_AFFINITY: pid 2326 thread 47 bound to OS proc set {36,37,38,39,40,41,42,43,44,45,46,47}
I0327 09:08:25.117346  2326 net.cpp:210] Setting up conv1/7x7_s2
I0327 09:08:25.117444  2326 net.cpp:217] Top shape: 48 64 112 112 (38535168)
I0327 09:08:25.117455  2326 net.cpp:225] Memory required for data: 183042816
I0327 09:08:25.117506  2326 layer_factory.hpp:114] Creating layer conv1/relu_7x7
I0327 09:08:25.117537  2326 net.cpp:160] Creating Layer conv1/relu_7x7
I0327 09:08:25.117549  2326 net.cpp:596] conv1/relu_7x7 <- conv1/7x7_s2
I0327 09:08:25.117570  2326 net.cpp:557] conv1/relu_7x7 -> conv1/7x7_s2 (in-place)
I0327 09:08:25.117599  2326 net.cpp:210] Setting up conv1/relu_7x7
I0327 09:08:25.117612  2326 net.cpp:217] Top shape: 48 64 112 112 (38535168)
I0327 09:08:25.117621  2326 net.cpp:225] Memory required for data: 337183488
I0327 09:08:25.117630  2326 layer_factory.hpp:114] Creating layer pool1/3x3_s2
I0327 09:08:25.117730  2326 net.cpp:160] Creating Layer pool1/3x3_s2
I0327 09:08:25.117743  2326 net.cpp:596] pool1/3x3_s2 <- conv1/7x7_s2
I0327 09:08:25.117756  2326 net.cpp:570] pool1/3x3_s2 -> pool1/3x3_s2
I0327 09:08:25.117790  2326 net.cpp:210] Setting up pool1/3x3_s2
I0327 09:08:25.117805  2326 net.cpp:217] Top shape: 48 64 56 56 (9633792)
I0327 09:08:25.117815  2326 net.cpp:225] Memory required for data: 375718656
I0327 09:08:25.117823  2326 layer_factory.hpp:114] Creating layer pool1/norm1
I0327 09:08:25.117840  2326 net.cpp:160] Creating Layer pool1/norm1
I0327 09:08:25.117849  2326 net.cpp:596] pool1/norm1 <- pool1/3x3_s2
I0327 09:08:25.117864  2326 net.cpp:570] pool1/norm1 -> pool1/norm1
I0327 09:08:25.117892  2326 net.cpp:210] Setting up pool1/norm1
I0327 09:08:25.117904  2326 net.cpp:217] Top shape: 48 64 56 56 (9633792)
I0327 09:08:25.117913  2326 net.cpp:225] Memory required for data: 414253824
I0327 09:08:25.117921  2326 layer_factory.hpp:114] Creating layer conv2/3x3_reduce
I0327 09:08:25.117954  2326 net.cpp:160] Creating Layer conv2/3x3_reduce
I0327 09:08:25.117964  2326 net.cpp:596] conv2/3x3_reduce <- pool1/norm1
I0327 09:08:25.117998  2326 net.cpp:570] conv2/3x3_reduce -> conv2/3x3_reduce
I0327 09:08:25.135872  2326 net.cpp:210] Setting up conv2/3x3_reduce
I0327 09:08:25.135962  2326 net.cpp:217] Top shape: 48 64 56 56 (9633792)
I0327 09:08:25.135973  2326 net.cpp:225] Memory required for data: 452788992
I0327 09:08:25.136010  2326 layer_factory.hpp:114] Creating layer conv2/relu_3x3_reduce
I0327 09:08:25.136049  2326 net.cpp:160] Creating Layer conv2/relu_3x3_reduce
I0327 09:08:25.136063  2326 net.cpp:596] conv2/relu_3x3_reduce <- conv2/3x3_reduce
I0327 09:08:25.136085  2326 net.cpp:557] conv2/relu_3x3_reduce -> conv2/3x3_reduce (in-place)
I0327 09:08:25.136111  2326 net.cpp:210] Setting up conv2/relu_3x3_reduce
I0327 09:08:25.136123  2326 net.cpp:217] Top shape: 48 64 56 56 (9633792)
I0327 09:08:25.136132  2326 net.cpp:225] Memory required for data: 491324160
I0327 09:08:25.136139  2326 layer_factory.hpp:114] Creating layer conv2/3x3
I0327 09:08:25.136210  2326 net.cpp:160] Creating Layer conv2/3x3
I0327 09:08:25.136221  2326 net.cpp:596] conv2/3x3 <- conv2/3x3_reduce
I0327 09:08:25.136235  2326 net.cpp:570] conv2/3x3 -> conv2/3x3
I0327 09:08:25.292155  2326 net.cpp:210] Setting up conv2/3x3
I0327 09:08:25.292244  2326 net.cpp:217] Top shape: 48 192 56 56 (28901376)
I0327 09:08:25.292254  2326 net.cpp:225] Memory required for data: 606929664
I0327 09:08:25.292292  2326 layer_factory.hpp:114] Creating layer conv2/relu_3x3
I0327 09:08:25.292322  2326 net.cpp:160] Creating Layer conv2/relu_3x3
I0327 09:08:25.292335  2326 net.cpp:596] conv2/relu_3x3 <- conv2/3x3
I0327 09:08:25.292356  2326 net.cpp:557] conv2/relu_3x3 -> conv2/3x3 (in-place)
I0327 09:08:25.292382  2326 net.cpp:210] Setting up conv2/relu_3x3
I0327 09:08:25.292393  2326 net.cpp:217] Top shape: 48 192 56 56 (28901376)
I0327 09:08:25.292402  2326 net.cpp:225] Memory required for data: 722535168
I0327 09:08:25.292412  2326 layer_factory.hpp:114] Creating layer conv2/norm2
I0327 09:08:25.292429  2326 net.cpp:160] Creating Layer conv2/norm2
I0327 09:08:25.292438  2326 net.cpp:596] conv2/norm2 <- conv2/3x3
I0327 09:08:25.292454  2326 net.cpp:570] conv2/norm2 -> conv2/norm2
I0327 09:08:25.292480  2326 net.cpp:210] Setting up conv2/norm2
I0327 09:08:25.292492  2326 net.cpp:217] Top shape: 48 192 56 56 (28901376)
I0327 09:08:25.292501  2326 net.cpp:225] Memory required for data: 838140672
I0327 09:08:25.292510  2326 layer_factory.hpp:114] Creating layer pool2/3x3_s2
I0327 09:08:25.292562  2326 net.cpp:160] Creating Layer pool2/3x3_s2
I0327 09:08:25.292572  2326 net.cpp:596] pool2/3x3_s2 <- conv2/norm2
I0327 09:08:25.292584  2326 net.cpp:570] pool2/3x3_s2 -> pool2/3x3_s2
I0327 09:08:25.292604  2326 net.cpp:210] Setting up pool2/3x3_s2
I0327 09:08:25.292616  2326 net.cpp:217] Top shape: 48 192 28 28 (7225344)
I0327 09:08:25.292624  2326 net.cpp:225] Memory required for data: 867042048
I0327 09:08:25.292634  2326 layer_factory.hpp:114] Creating layer pool2/3x3_s2_pool2/3x3_s2_0_split
I0327 09:08:25.292650  2326 net.cpp:160] Creating Layer pool2/3x3_s2_pool2/3x3_s2_0_split
I0327 09:08:25.292660  2326 net.cpp:596] pool2/3x3_s2_pool2/3x3_s2_0_split <- pool2/3x3_s2
I0327 09:08:25.292671  2326 net.cpp:570] pool2/3x3_s2_pool2/3x3_s2_0_split -> pool2/3x3_s2_pool2/3x3_s2_0_split_0
I0327 09:08:25.292686  2326 net.cpp:570] pool2/3x3_s2_pool2/3x3_s2_0_split -> pool2/3x3_s2_pool2/3x3_s2_0_split_1
I0327 09:08:25.292704  2326 net.cpp:570] pool2/3x3_s2_pool2/3x3_s2_0_split -> pool2/3x3_s2_pool2/3x3_s2_0_split_2
I0327 09:08:25.292719  2326 net.cpp:570] pool2/3x3_s2_pool2/3x3_s2_0_split -> pool2/3x3_s2_pool2/3x3_s2_0_split_3
I0327 09:08:25.292734  2326 net.cpp:210] Setting up pool2/3x3_s2_pool2/3x3_s2_0_split
I0327 09:08:25.292747  2326 net.cpp:217] Top shape: 48 192 28 28 (7225344)
I0327 09:08:25.292757  2326 net.cpp:217] Top shape: 48 192 28 28 (7225344)
I0327 09:08:25.292768  2326 net.cpp:217] Top shape: 48 192 28 28 (7225344)
I0327 09:08:25.292778  2326 net.cpp:217] Top shape: 48 192 28 28 (7225344)
I0327 09:08:25.292786  2326 net.cpp:225] Memory required for data: 982647552
I0327 09:08:25.292811  2326 layer_factory.hpp:114] Creating layer inception_3a/1x1
I0327 09:08:25.292842  2326 net.cpp:160] Creating Layer inception_3a/1x1
I0327 09:08:25.292852  2326 net.cpp:596] inception_3a/1x1 <- pool2/3x3_s2_pool2/3x3_s2_0_split_0
I0327 09:08:25.292868  2326 net.cpp:570] inception_3a/1x1 -> inception_3a/1x1
I0327 09:08:25.307790  2326 net.cpp:210] Setting up inception_3a/1x1
I0327 09:08:25.307878  2326 net.cpp:217] Top shape: 48 64 28 28 (2408448)
I0327 09:08:25.307888  2326 net.cpp:225] Memory required for data: 992281344
I0327 09:08:25.307916  2326 layer_factory.hpp:114] Creating layer inception_3a/relu_1x1
I0327 09:08:25.307943  2326 net.cpp:160] Creating Layer inception_3a/relu_1x1
I0327 09:08:25.307955  2326 net.cpp:596] inception_3a/relu_1x1 <- inception_3a/1x1
I0327 09:08:25.307974  2326 net.cpp:557] inception_3a/relu_1x1 -> inception_3a/1x1 (in-place)
I0327 09:08:25.307999  2326 net.cpp:210] Setting up inception_3a/relu_1x1
I0327 09:08:25.308050  2326 net.cpp:217] Top shape: 48 64 28 28 (2408448)
I0327 09:08:25.308059  2326 net.cpp:225] Memory required for data: 1001915136
I0327 09:08:25.308068  2326 layer_factory.hpp:114] Creating layer inception_3a/3x3_reduce
I0327 09:08:25.308099  2326 net.cpp:160] Creating Layer inception_3a/3x3_reduce
I0327 09:08:25.308109  2326 net.cpp:596] inception_3a/3x3_reduce <- pool2/3x3_s2_pool2/3x3_s2_0_split_1
I0327 09:08:25.308132  2326 net.cpp:570] inception_3a/3x3_reduce -> inception_3a/3x3_reduce
I0327 09:08:25.323808  2326 net.cpp:210] Setting up inception_3a/3x3_reduce
I0327 09:08:25.323896  2326 net.cpp:217] Top shape: 48 96 28 28 (3612672)
I0327 09:08:25.323906  2326 net.cpp:225] Memory required for data: 1016365824
I0327 09:08:25.323945  2326 layer_factory.hpp:114] Creating layer inception_3a/relu_3x3_reduce
I0327 09:08:25.323979  2326 net.cpp:160] Creating Layer inception_3a/relu_3x3_reduce
I0327 09:08:25.323993  2326 net.cpp:596] inception_3a/relu_3x3_reduce <- inception_3a/3x3_reduce
I0327 09:08:25.324012  2326 net.cpp:557] inception_3a/relu_3x3_reduce -> inception_3a/3x3_reduce (in-place)
I0327 09:08:25.324051  2326 net.cpp:210] Setting up inception_3a/relu_3x3_reduce
I0327 09:08:25.324062  2326 net.cpp:217] Top shape: 48 96 28 28 (3612672)
I0327 09:08:25.324070  2326 net.cpp:225] Memory required for data: 1030816512
I0327 09:08:25.324079  2326 layer_factory.hpp:114] Creating layer inception_3a/3x3
I0327 09:08:25.324110  2326 net.cpp:160] Creating Layer inception_3a/3x3
I0327 09:08:25.324123  2326 net.cpp:596] inception_3a/3x3 <- inception_3a/3x3_reduce
I0327 09:08:25.324141  2326 net.cpp:570] inception_3a/3x3 -> inception_3a/3x3
I0327 09:08:25.388746  2326 net.cpp:210] Setting up inception_3a/3x3
I0327 09:08:25.388839  2326 net.cpp:217] Top shape: 48 128 28 28 (4816896)
I0327 09:08:25.388849  2326 net.cpp:225] Memory required for data: 1050084096
I0327 09:08:25.388880  2326 layer_factory.hpp:114] Creating layer inception_3a/relu_3x3
I0327 09:08:25.388912  2326 net.cpp:160] Creating Layer inception_3a/relu_3x3
I0327 09:08:25.388926  2326 net.cpp:596] inception_3a/relu_3x3 <- inception_3a/3x3
I0327 09:08:25.388944  2326 net.cpp:557] inception_3a/relu_3x3 -> inception_3a/3x3 (in-place)
I0327 09:08:25.388972  2326 net.cpp:210] Setting up inception_3a/relu_3x3
I0327 09:08:25.388983  2326 net.cpp:217] Top shape: 48 128 28 28 (4816896)
I0327 09:08:25.388991  2326 net.cpp:225] Memory required for data: 1069351680
I0327 09:08:25.389000  2326 layer_factory.hpp:114] Creating layer inception_3a/5x5_reduce
I0327 09:08:25.389039  2326 net.cpp:160] Creating Layer inception_3a/5x5_reduce
I0327 09:08:25.389051  2326 net.cpp:596] inception_3a/5x5_reduce <- pool2/3x3_s2_pool2/3x3_s2_0_split_2
I0327 09:08:25.389068  2326 net.cpp:570] inception_3a/5x5_reduce -> inception_3a/5x5_reduce
I0327 09:08:25.402034  2326 net.cpp:210] Setting up inception_3a/5x5_reduce
I0327 09:08:25.402125  2326 net.cpp:217] Top shape: 48 16 28 28 (602112)
I0327 09:08:25.402135  2326 net.cpp:225] Memory required for data: 1071760128
I0327 09:08:25.402164  2326 layer_factory.hpp:114] Creating layer inception_3a/relu_5x5_reduce
I0327 09:08:25.402214  2326 net.cpp:160] Creating Layer inception_3a/relu_5x5_reduce
I0327 09:08:25.402227  2326 net.cpp:596] inception_3a/relu_5x5_reduce <- inception_3a/5x5_reduce
I0327 09:08:25.402247  2326 net.cpp:557] inception_3a/relu_5x5_reduce -> inception_3a/5x5_reduce (in-place)
I0327 09:08:25.402272  2326 net.cpp:210] Setting up inception_3a/relu_5x5_reduce
I0327 09:08:25.402283  2326 net.cpp:217] Top shape: 48 16 28 28 (602112)
I0327 09:08:25.402292  2326 net.cpp:225] Memory required for data: 1074168576
I0327 09:08:25.402302  2326 layer_factory.hpp:114] Creating layer inception_3a/5x5
I0327 09:08:25.402326  2326 net.cpp:160] Creating Layer inception_3a/5x5
I0327 09:08:25.402336  2326 net.cpp:596] inception_3a/5x5 <- inception_3a/5x5_reduce
I0327 09:08:25.402354  2326 net.cpp:570] inception_3a/5x5 -> inception_3a/5x5
I0327 09:08:25.430466  2326 net.cpp:210] Setting up inception_3a/5x5
I0327 09:08:25.430554  2326 net.cpp:217] Top shape: 48 32 28 28 (1204224)
I0327 09:08:25.430593  2326 net.cpp:225] Memory required for data: 1078985472
I0327 09:08:25.430621  2326 layer_factory.hpp:114] Creating layer inception_3a/relu_5x5
I0327 09:08:25.430652  2326 net.cpp:160] Creating Layer inception_3a/relu_5x5
I0327 09:08:25.430665  2326 net.cpp:596] inception_3a/relu_5x5 <- inception_3a/5x5
I0327 09:08:25.430685  2326 net.cpp:557] inception_3a/relu_5x5 -> inception_3a/5x5 (in-place)
I0327 09:08:25.430709  2326 net.cpp:210] Setting up inception_3a/relu_5x5
I0327 09:08:25.430721  2326 net.cpp:217] Top shape: 48 32 28 28 (1204224)
I0327 09:08:25.430729  2326 net.cpp:225] Memory required for data: 1083802368
I0327 09:08:25.430737  2326 layer_factory.hpp:114] Creating layer inception_3a/pool
I0327 09:08:25.430789  2326 net.cpp:160] Creating Layer inception_3a/pool
I0327 09:08:25.430801  2326 net.cpp:596] inception_3a/pool <- pool2/3x3_s2_pool2/3x3_s2_0_split_3
I0327 09:08:25.430819  2326 net.cpp:570] inception_3a/pool -> inception_3a/pool
I0327 09:08:25.430845  2326 net.cpp:210] Setting up inception_3a/pool
I0327 09:08:25.430856  2326 net.cpp:217] Top shape: 48 192 28 28 (7225344)
I0327 09:08:25.430865  2326 net.cpp:225] Memory required for data: 1112703744
I0327 09:08:25.430873  2326 layer_factory.hpp:114] Creating layer inception_3a/pool_proj
I0327 09:08:25.430903  2326 net.cpp:160] Creating Layer inception_3a/pool_proj
I0327 09:08:25.430913  2326 net.cpp:596] inception_3a/pool_proj <- inception_3a/pool
I0327 09:08:25.430929  2326 net.cpp:570] inception_3a/pool_proj -> inception_3a/pool_proj
I0327 09:08:25.444485  2326 net.cpp:210] Setting up inception_3a/pool_proj
I0327 09:08:25.444571  2326 net.cpp:217] Top shape: 48 32 28 28 (1204224)
I0327 09:08:25.444581  2326 net.cpp:225] Memory required for data: 1117520640
I0327 09:08:25.444623  2326 layer_factory.hpp:114] Creating layer inception_3a/relu_pool_proj
I0327 09:08:25.444654  2326 net.cpp:160] Creating Layer inception_3a/relu_pool_proj
I0327 09:08:25.444669  2326 net.cpp:596] inception_3a/relu_pool_proj <- inception_3a/pool_proj
I0327 09:08:25.444687  2326 net.cpp:557] inception_3a/relu_pool_proj -> inception_3a/pool_proj (in-place)
I0327 09:08:25.444712  2326 net.cpp:210] Setting up inception_3a/relu_pool_proj
I0327 09:08:25.444723  2326 net.cpp:217] Top shape: 48 32 28 28 (1204224)
I0327 09:08:25.444731  2326 net.cpp:225] Memory required for data: 1122337536
I0327 09:08:25.444741  2326 layer_factory.hpp:114] Creating layer inception_3a/output
I0327 09:08:25.444754  2326 net.cpp:160] Creating Layer inception_3a/output
I0327 09:08:25.444764  2326 net.cpp:596] inception_3a/output <- inception_3a/1x1
I0327 09:08:25.444775  2326 net.cpp:596] inception_3a/output <- inception_3a/3x3
I0327 09:08:25.444785  2326 net.cpp:596] inception_3a/output <- inception_3a/5x5
I0327 09:08:25.444795  2326 net.cpp:596] inception_3a/output <- inception_3a/pool_proj
I0327 09:08:25.444808  2326 net.cpp:570] inception_3a/output -> inception_3a/output
I0327 09:08:25.444835  2326 net.cpp:210] Setting up inception_3a/output
I0327 09:08:25.444847  2326 net.cpp:217] Top shape: 48 256 28 28 (9633792)
I0327 09:08:25.444872  2326 net.cpp:225] Memory required for data: 1160872704
I0327 09:08:25.444882  2326 layer_factory.hpp:114] Creating layer inception_3a/output_inception_3a/output_0_split
I0327 09:08:25.444900  2326 net.cpp:160] Creating Layer inception_3a/output_inception_3a/output_0_split
I0327 09:08:25.444910  2326 net.cpp:596] inception_3a/output_inception_3a/output_0_split <- inception_3a/output
I0327 09:08:25.444928  2326 net.cpp:570] inception_3a/output_inception_3a/output_0_split -> inception_3a/output_inception_3a/output_0_split_0
I0327 09:08:25.444943  2326 net.cpp:570] inception_3a/output_inception_3a/output_0_split -> inception_3a/output_inception_3a/output_0_split_1
I0327 09:08:25.444958  2326 net.cpp:570] inception_3a/output_inception_3a/output_0_split -> inception_3a/output_inception_3a/output_0_split_2
I0327 09:08:25.444972  2326 net.cpp:570] inception_3a/output_inception_3a/output_0_split -> inception_3a/output_inception_3a/output_0_split_3
I0327 09:08:25.445006  2326 net.cpp:210] Setting up inception_3a/output_inception_3a/output_0_split
I0327 09:08:25.445025  2326 net.cpp:217] Top shape: 48 256 28 28 (9633792)
I0327 09:08:25.445039  2326 net.cpp:217] Top shape: 48 256 28 28 (9633792)
I0327 09:08:25.445049  2326 net.cpp:217] Top shape: 48 256 28 28 (9633792)
I0327 09:08:25.445060  2326 net.cpp:217] Top shape: 48 256 28 28 (9633792)
I0327 09:08:25.445067  2326 net.cpp:225] Memory required for data: 1315013376
I0327 09:08:25.445076  2326 layer_factory.hpp:114] Creating layer inception_3b/1x1
I0327 09:08:25.445104  2326 net.cpp:160] Creating Layer inception_3b/1x1
I0327 09:08:25.445119  2326 net.cpp:596] inception_3b/1x1 <- inception_3a/output_inception_3a/output_0_split_0
I0327 09:08:25.445137  2326 net.cpp:570] inception_3b/1x1 -> inception_3b/1x1
I0327 09:08:25.464967  2326 net.cpp:210] Setting up inception_3b/1x1
I0327 09:08:25.465060  2326 net.cpp:217] Top shape: 48 128 28 28 (4816896)
I0327 09:08:25.465072  2326 net.cpp:225] Memory required for data: 1334280960
I0327 09:08:25.465101  2326 layer_factory.hpp:114] Creating layer inception_3b/relu_1x1
I0327 09:08:25.465132  2326 net.cpp:160] Creating Layer inception_3b/relu_1x1
I0327 09:08:25.465147  2326 net.cpp:596] inception_3b/relu_1x1 <- inception_3b/1x1
I0327 09:08:25.465169  2326 net.cpp:557] inception_3b/relu_1x1 -> inception_3b/1x1 (in-place)
I0327 09:08:25.465195  2326 net.cpp:210] Setting up inception_3b/relu_1x1
I0327 09:08:25.465206  2326 net.cpp:217] Top shape: 48 128 28 28 (4816896)
I0327 09:08:25.465215  2326 net.cpp:225] Memory required for data: 1353548544
I0327 09:08:25.465224  2326 layer_factory.hpp:114] Creating layer inception_3b/3x3_reduce
I0327 09:08:25.465252  2326 net.cpp:160] Creating Layer inception_3b/3x3_reduce
I0327 09:08:25.465263  2326 net.cpp:596] inception_3b/3x3_reduce <- inception_3a/output_inception_3a/output_0_split_1
I0327 09:08:25.465278  2326 net.cpp:570] inception_3b/3x3_reduce -> inception_3b/3x3_reduce
I0327 09:08:25.485353  2326 net.cpp:210] Setting up inception_3b/3x3_reduce
I0327 09:08:25.485442  2326 net.cpp:217] Top shape: 48 128 28 28 (4816896)
I0327 09:08:25.485452  2326 net.cpp:225] Memory required for data: 1372816128
I0327 09:08:25.485481  2326 layer_factory.hpp:114] Creating layer inception_3b/relu_3x3_reduce
I0327 09:08:25.485508  2326 net.cpp:160] Creating Layer inception_3b/relu_3x3_reduce
I0327 09:08:25.485522  2326 net.cpp:596] inception_3b/relu_3x3_reduce <- inception_3b/3x3_reduce
I0327 09:08:25.485543  2326 net.cpp:557] inception_3b/relu_3x3_reduce -> inception_3b/3x3_reduce (in-place)
I0327 09:08:25.485569  2326 net.cpp:210] Setting up inception_3b/relu_3x3_reduce
I0327 09:08:25.485581  2326 net.cpp:217] Top shape: 48 128 28 28 (4816896)
I0327 09:08:25.485589  2326 net.cpp:225] Memory required for data: 1392083712
I0327 09:08:25.485599  2326 layer_factory.hpp:114] Creating layer inception_3b/3x3
I0327 09:08:25.485631  2326 net.cpp:160] Creating Layer inception_3b/3x3
I0327 09:08:25.485642  2326 net.cpp:596] inception_3b/3x3 <- inception_3b/3x3_reduce
I0327 09:08:25.485676  2326 net.cpp:570] inception_3b/3x3 -> inception_3b/3x3
I0327 09:08:25.577721  2326 net.cpp:210] Setting up inception_3b/3x3
I0327 09:08:25.577811  2326 net.cpp:217] Top shape: 48 192 28 28 (7225344)
I0327 09:08:25.577821  2326 net.cpp:225] Memory required for data: 1420985088
I0327 09:08:25.577848  2326 layer_factory.hpp:114] Creating layer inception_3b/relu_3x3
I0327 09:08:25.577879  2326 net.cpp:160] Creating Layer inception_3b/relu_3x3
I0327 09:08:25.577894  2326 net.cpp:596] inception_3b/relu_3x3 <- inception_3b/3x3
I0327 09:08:25.577919  2326 net.cpp:557] inception_3b/relu_3x3 -> inception_3b/3x3 (in-place)
I0327 09:08:25.577945  2326 net.cpp:210] Setting up inception_3b/relu_3x3
I0327 09:08:25.577957  2326 net.cpp:217] Top shape: 48 192 28 28 (7225344)
I0327 09:08:25.577965  2326 net.cpp:225] Memory required for data: 1449886464
I0327 09:08:25.577975  2326 layer_factory.hpp:114] Creating layer inception_3b/5x5_reduce
I0327 09:08:25.578037  2326 net.cpp:160] Creating Layer inception_3b/5x5_reduce
I0327 09:08:25.578049  2326 net.cpp:596] inception_3b/5x5_reduce <- inception_3a/output_inception_3a/output_0_split_2
I0327 09:08:25.578068  2326 net.cpp:570] inception_3b/5x5_reduce -> inception_3b/5x5_reduce
I0327 09:08:25.596195  2326 net.cpp:210] Setting up inception_3b/5x5_reduce
I0327 09:08:25.596283  2326 net.cpp:217] Top shape: 48 32 28 28 (1204224)
I0327 09:08:25.596293  2326 net.cpp:225] Memory required for data: 1454703360
I0327 09:08:25.596321  2326 layer_factory.hpp:114] Creating layer inception_3b/relu_5x5_reduce
I0327 09:08:25.596351  2326 net.cpp:160] Creating Layer inception_3b/relu_5x5_reduce
I0327 09:08:25.596366  2326 net.cpp:596] inception_3b/relu_5x5_reduce <- inception_3b/5x5_reduce
I0327 09:08:25.596385  2326 net.cpp:557] inception_3b/relu_5x5_reduce -> inception_3b/5x5_reduce (in-place)
I0327 09:08:25.596415  2326 net.cpp:210] Setting up inception_3b/relu_5x5_reduce
I0327 09:08:25.596426  2326 net.cpp:217] Top shape: 48 32 28 28 (1204224)
I0327 09:08:25.596434  2326 net.cpp:225] Memory required for data: 1459520256
I0327 09:08:25.596443  2326 layer_factory.hpp:114] Creating layer inception_3b/5x5
I0327 09:08:25.596468  2326 net.cpp:160] Creating Layer inception_3b/5x5
I0327 09:08:25.596478  2326 net.cpp:596] inception_3b/5x5 <- inception_3b/5x5_reduce
I0327 09:08:25.596495  2326 net.cpp:570] inception_3b/5x5 -> inception_3b/5x5
I0327 09:08:25.653379  2326 net.cpp:210] Setting up inception_3b/5x5
I0327 09:08:25.653470  2326 net.cpp:217] Top shape: 48 96 28 28 (3612672)
I0327 09:08:25.653479  2326 net.cpp:225] Memory required for data: 1473970944
I0327 09:08:25.653507  2326 layer_factory.hpp:114] Creating layer inception_3b/relu_5x5
I0327 09:08:25.653537  2326 net.cpp:160] Creating Layer inception_3b/relu_5x5
I0327 09:08:25.653553  2326 net.cpp:596] inception_3b/relu_5x5 <- inception_3b/5x5
I0327 09:08:25.653571  2326 net.cpp:557] inception_3b/relu_5x5 -> inception_3b/5x5 (in-place)
I0327 09:08:25.653597  2326 net.cpp:210] Setting up inception_3b/relu_5x5
I0327 09:08:25.653609  2326 net.cpp:217] Top shape: 48 96 28 28 (3612672)
I0327 09:08:25.653617  2326 net.cpp:225] Memory required for data: 1488421632
I0327 09:08:25.653626  2326 layer_factory.hpp:114] Creating layer inception_3b/pool
I0327 09:08:25.653686  2326 net.cpp:160] Creating Layer inception_3b/pool
I0327 09:08:25.653698  2326 net.cpp:596] inception_3b/pool <- inception_3a/output_inception_3a/output_0_split_3
I0327 09:08:25.653715  2326 net.cpp:570] inception_3b/pool -> inception_3b/pool
I0327 09:08:25.653741  2326 net.cpp:210] Setting up inception_3b/pool
I0327 09:08:25.653753  2326 net.cpp:217] Top shape: 48 256 28 28 (9633792)
I0327 09:08:25.653762  2326 net.cpp:225] Memory required for data: 1526956800
I0327 09:08:25.653771  2326 layer_factory.hpp:114] Creating layer inception_3b/pool_proj
I0327 09:08:25.653802  2326 net.cpp:160] Creating Layer inception_3b/pool_proj
I0327 09:08:25.653813  2326 net.cpp:596] inception_3b/pool_proj <- inception_3b/pool
I0327 09:08:25.653830  2326 net.cpp:570] inception_3b/pool_proj -> inception_3b/pool_proj
I0327 09:08:25.672579  2326 net.cpp:210] Setting up inception_3b/pool_proj
I0327 09:08:25.672665  2326 net.cpp:217] Top shape: 48 64 28 28 (2408448)
I0327 09:08:25.672675  2326 net.cpp:225] Memory required for data: 1536590592
I0327 09:08:25.672704  2326 layer_factory.hpp:114] Creating layer inception_3b/relu_pool_proj
I0327 09:08:25.672735  2326 net.cpp:160] Creating Layer inception_3b/relu_pool_proj
I0327 09:08:25.672750  2326 net.cpp:596] inception_3b/relu_pool_proj <- inception_3b/pool_proj
I0327 09:08:25.672770  2326 net.cpp:557] inception_3b/relu_pool_proj -> inception_3b/pool_proj (in-place)
I0327 09:08:25.672794  2326 net.cpp:210] Setting up inception_3b/relu_pool_proj
I0327 09:08:25.672806  2326 net.cpp:217] Top shape: 48 64 28 28 (2408448)
I0327 09:08:25.672814  2326 net.cpp:225] Memory required for data: 1546224384
I0327 09:08:25.672823  2326 layer_factory.hpp:114] Creating layer inception_3b/output
I0327 09:08:25.672842  2326 net.cpp:160] Creating Layer inception_3b/output
I0327 09:08:25.672881  2326 net.cpp:596] inception_3b/output <- inception_3b/1x1
I0327 09:08:25.672894  2326 net.cpp:596] inception_3b/output <- inception_3b/3x3
I0327 09:08:25.672904  2326 net.cpp:596] inception_3b/output <- inception_3b/5x5
I0327 09:08:25.672919  2326 net.cpp:596] inception_3b/output <- inception_3b/pool_proj
I0327 09:08:25.672930  2326 net.cpp:570] inception_3b/output -> inception_3b/output
I0327 09:08:25.672952  2326 net.cpp:210] Setting up inception_3b/output
I0327 09:08:25.672963  2326 net.cpp:217] Top shape: 48 480 28 28 (18063360)
I0327 09:08:25.672972  2326 net.cpp:225] Memory required for data: 1618477824
I0327 09:08:25.672981  2326 layer_factory.hpp:114] Creating layer pool3/3x3_s2
I0327 09:08:25.673040  2326 net.cpp:160] Creating Layer pool3/3x3_s2
I0327 09:08:25.673053  2326 net.cpp:596] pool3/3x3_s2 <- inception_3b/output
I0327 09:08:25.673069  2326 net.cpp:570] pool3/3x3_s2 -> pool3/3x3_s2
I0327 09:08:25.673089  2326 net.cpp:210] Setting up pool3/3x3_s2
I0327 09:08:25.673101  2326 net.cpp:217] Top shape: 48 480 14 14 (4515840)
I0327 09:08:25.673115  2326 net.cpp:225] Memory required for data: 1636541184
I0327 09:08:25.673123  2326 layer_factory.hpp:114] Creating layer pool3/3x3_s2_pool3/3x3_s2_0_split
I0327 09:08:25.673140  2326 net.cpp:160] Creating Layer pool3/3x3_s2_pool3/3x3_s2_0_split
I0327 09:08:25.673149  2326 net.cpp:596] pool3/3x3_s2_pool3/3x3_s2_0_split <- pool3/3x3_s2
I0327 09:08:25.673161  2326 net.cpp:570] pool3/3x3_s2_pool3/3x3_s2_0_split -> pool3/3x3_s2_pool3/3x3_s2_0_split_0
I0327 09:08:25.673174  2326 net.cpp:570] pool3/3x3_s2_pool3/3x3_s2_0_split -> pool3/3x3_s2_pool3/3x3_s2_0_split_1
I0327 09:08:25.673188  2326 net.cpp:570] pool3/3x3_s2_pool3/3x3_s2_0_split -> pool3/3x3_s2_pool3/3x3_s2_0_split_2
I0327 09:08:25.673202  2326 net.cpp:570] pool3/3x3_s2_pool3/3x3_s2_0_split -> pool3/3x3_s2_pool3/3x3_s2_0_split_3
I0327 09:08:25.673220  2326 net.cpp:210] Setting up pool3/3x3_s2_pool3/3x3_s2_0_split
I0327 09:08:25.673233  2326 net.cpp:217] Top shape: 48 480 14 14 (4515840)
I0327 09:08:25.673243  2326 net.cpp:217] Top shape: 48 480 14 14 (4515840)
I0327 09:08:25.673254  2326 net.cpp:217] Top shape: 48 480 14 14 (4515840)
I0327 09:08:25.673264  2326 net.cpp:217] Top shape: 48 480 14 14 (4515840)
I0327 09:08:25.673272  2326 net.cpp:225] Memory required for data: 1708794624
I0327 09:08:25.673280  2326 layer_factory.hpp:114] Creating layer inception_4a/1x1
I0327 09:08:25.673308  2326 net.cpp:160] Creating Layer inception_4a/1x1
I0327 09:08:25.673318  2326 net.cpp:596] inception_4a/1x1 <- pool3/3x3_s2_pool3/3x3_s2_0_split_0
I0327 09:08:25.673334  2326 net.cpp:570] inception_4a/1x1 -> inception_4a/1x1
I0327 09:08:25.691256  2326 net.cpp:210] Setting up inception_4a/1x1
I0327 09:08:25.691347  2326 net.cpp:217] Top shape: 48 192 14 14 (1806336)
I0327 09:08:25.691357  2326 net.cpp:225] Memory required for data: 1716019968
I0327 09:08:25.691386  2326 layer_factory.hpp:114] Creating layer inception_4a/relu_1x1
I0327 09:08:25.691416  2326 net.cpp:160] Creating Layer inception_4a/relu_1x1
I0327 09:08:25.691448  2326 net.cpp:596] inception_4a/relu_1x1 <- inception_4a/1x1
I0327 09:08:25.691468  2326 net.cpp:557] inception_4a/relu_1x1 -> inception_4a/1x1 (in-place)
I0327 09:08:25.691493  2326 net.cpp:210] Setting up inception_4a/relu_1x1
I0327 09:08:25.691504  2326 net.cpp:217] Top shape: 48 192 14 14 (1806336)
I0327 09:08:25.691514  2326 net.cpp:225] Memory required for data: 1723245312
I0327 09:08:25.691521  2326 layer_factory.hpp:114] Creating layer inception_4a/3x3_reduce
I0327 09:08:25.691550  2326 net.cpp:160] Creating Layer inception_4a/3x3_reduce
I0327 09:08:25.691562  2326 net.cpp:596] inception_4a/3x3_reduce <- pool3/3x3_s2_pool3/3x3_s2_0_split_1
I0327 09:08:25.691576  2326 net.cpp:570] inception_4a/3x3_reduce -> inception_4a/3x3_reduce
I0327 09:08:25.705461  2326 net.cpp:210] Setting up inception_4a/3x3_reduce
I0327 09:08:25.705551  2326 net.cpp:217] Top shape: 48 96 14 14 (903168)
I0327 09:08:25.705561  2326 net.cpp:225] Memory required for data: 1726857984
I0327 09:08:25.705639  2326 layer_factory.hpp:114] Creating layer inception_4a/relu_3x3_reduce
I0327 09:08:25.705667  2326 net.cpp:160] Creating Layer inception_4a/relu_3x3_reduce
I0327 09:08:25.705682  2326 net.cpp:596] inception_4a/relu_3x3_reduce <- inception_4a/3x3_reduce
I0327 09:08:25.705699  2326 net.cpp:557] inception_4a/relu_3x3_reduce -> inception_4a/3x3_reduce (in-place)
I0327 09:08:25.705725  2326 net.cpp:210] Setting up inception_4a/relu_3x3_reduce
I0327 09:08:25.705736  2326 net.cpp:217] Top shape: 48 96 14 14 (903168)
I0327 09:08:25.705744  2326 net.cpp:225] Memory required for data: 1730470656
I0327 09:08:25.705752  2326 layer_factory.hpp:114] Creating layer inception_4a/3x3
I0327 09:08:25.705781  2326 net.cpp:160] Creating Layer inception_4a/3x3
I0327 09:08:25.705791  2326 net.cpp:596] inception_4a/3x3 <- inception_4a/3x3_reduce
I0327 09:08:25.705807  2326 net.cpp:570] inception_4a/3x3 -> inception_4a/3x3
I0327 09:08:25.737627  2326 net.cpp:210] Setting up inception_4a/3x3
I0327 09:08:25.737717  2326 net.cpp:217] Top shape: 48 208 14 14 (1956864)
I0327 09:08:25.737728  2326 net.cpp:225] Memory required for data: 1738298112
I0327 09:08:25.737756  2326 layer_factory.hpp:114] Creating layer inception_4a/relu_3x3
I0327 09:08:25.737787  2326 net.cpp:160] Creating Layer inception_4a/relu_3x3
I0327 09:08:25.737802  2326 net.cpp:596] inception_4a/relu_3x3 <- inception_4a/3x3
I0327 09:08:25.737819  2326 net.cpp:557] inception_4a/relu_3x3 -> inception_4a/3x3 (in-place)
I0327 09:08:25.737844  2326 net.cpp:210] Setting up inception_4a/relu_3x3
I0327 09:08:25.737856  2326 net.cpp:217] Top shape: 48 208 14 14 (1956864)
I0327 09:08:25.737864  2326 net.cpp:225] Memory required for data: 1746125568
I0327 09:08:25.737874  2326 layer_factory.hpp:114] Creating layer inception_4a/5x5_reduce
I0327 09:08:25.737902  2326 net.cpp:160] Creating Layer inception_4a/5x5_reduce
I0327 09:08:25.737915  2326 net.cpp:596] inception_4a/5x5_reduce <- pool3/3x3_s2_pool3/3x3_s2_0_split_2
I0327 09:08:25.737931  2326 net.cpp:570] inception_4a/5x5_reduce -> inception_4a/5x5_reduce
I0327 09:08:25.747776  2326 net.cpp:210] Setting up inception_4a/5x5_reduce
I0327 09:08:25.747865  2326 net.cpp:217] Top shape: 48 16 14 14 (150528)
I0327 09:08:25.747874  2326 net.cpp:225] Memory required for data: 1746727680
I0327 09:08:25.747902  2326 layer_factory.hpp:114] Creating layer inception_4a/relu_5x5_reduce
I0327 09:08:25.747930  2326 net.cpp:160] Creating Layer inception_4a/relu_5x5_reduce
I0327 09:08:25.747944  2326 net.cpp:596] inception_4a/relu_5x5_reduce <- inception_4a/5x5_reduce
I0327 09:08:25.747967  2326 net.cpp:557] inception_4a/relu_5x5_reduce -> inception_4a/5x5_reduce (in-place)
I0327 09:08:25.747992  2326 net.cpp:210] Setting up inception_4a/relu_5x5_reduce
I0327 09:08:25.748003  2326 net.cpp:217] Top shape: 48 16 14 14 (150528)
I0327 09:08:25.748011  2326 net.cpp:225] Memory required for data: 1747329792
I0327 09:08:25.748034  2326 layer_factory.hpp:114] Creating layer inception_4a/5x5
I0327 09:08:25.748066  2326 net.cpp:160] Creating Layer inception_4a/5x5
I0327 09:08:25.748095  2326 net.cpp:596] inception_4a/5x5 <- inception_4a/5x5_reduce
I0327 09:08:25.748109  2326 net.cpp:570] inception_4a/5x5 -> inception_4a/5x5
I0327 09:08:25.757732  2326 net.cpp:210] Setting up inception_4a/5x5
I0327 09:08:25.757822  2326 net.cpp:217] Top shape: 48 48 14 14 (451584)
I0327 09:08:25.757830  2326 net.cpp:225] Memory required for data: 1749136128
I0327 09:08:25.757859  2326 layer_factory.hpp:114] Creating layer inception_4a/relu_5x5
I0327 09:08:25.757889  2326 net.cpp:160] Creating Layer inception_4a/relu_5x5
I0327 09:08:25.757905  2326 net.cpp:596] inception_4a/relu_5x5 <- inception_4a/5x5
I0327 09:08:25.757923  2326 net.cpp:557] inception_4a/relu_5x5 -> inception_4a/5x5 (in-place)
I0327 09:08:25.757947  2326 net.cpp:210] Setting up inception_4a/relu_5x5
I0327 09:08:25.757959  2326 net.cpp:217] Top shape: 48 48 14 14 (451584)
I0327 09:08:25.757968  2326 net.cpp:225] Memory required for data: 1750942464
I0327 09:08:25.757977  2326 layer_factory.hpp:114] Creating layer inception_4a/pool
I0327 09:08:25.758072  2326 net.cpp:160] Creating Layer inception_4a/pool
I0327 09:08:25.758086  2326 net.cpp:596] inception_4a/pool <- pool3/3x3_s2_pool3/3x3_s2_0_split_3
I0327 09:08:25.758100  2326 net.cpp:570] inception_4a/pool -> inception_4a/pool
I0327 09:08:25.758131  2326 net.cpp:210] Setting up inception_4a/pool
I0327 09:08:25.758142  2326 net.cpp:217] Top shape: 48 480 14 14 (4515840)
I0327 09:08:25.758150  2326 net.cpp:225] Memory required for data: 1769005824
I0327 09:08:25.758159  2326 layer_factory.hpp:114] Creating layer inception_4a/pool_proj
I0327 09:08:25.758189  2326 net.cpp:160] Creating Layer inception_4a/pool_proj
I0327 09:08:25.758199  2326 net.cpp:596] inception_4a/pool_proj <- inception_4a/pool
I0327 09:08:25.758215  2326 net.cpp:570] inception_4a/pool_proj -> inception_4a/pool_proj
I0327 09:08:25.770354  2326 net.cpp:210] Setting up inception_4a/pool_proj
I0327 09:08:25.770443  2326 net.cpp:217] Top shape: 48 64 14 14 (602112)
I0327 09:08:25.770453  2326 net.cpp:225] Memory required for data: 1771414272
I0327 09:08:25.770481  2326 layer_factory.hpp:114] Creating layer inception_4a/relu_pool_proj
I0327 09:08:25.770511  2326 net.cpp:160] Creating Layer inception_4a/relu_pool_proj
I0327 09:08:25.770526  2326 net.cpp:596] inception_4a/relu_pool_proj <- inception_4a/pool_proj
I0327 09:08:25.770545  2326 net.cpp:557] inception_4a/relu_pool_proj -> inception_4a/pool_proj (in-place)
I0327 09:08:25.770576  2326 net.cpp:210] Setting up inception_4a/relu_pool_proj
I0327 09:08:25.770586  2326 net.cpp:217] Top shape: 48 64 14 14 (602112)
I0327 09:08:25.770596  2326 net.cpp:225] Memory required for data: 1773822720
I0327 09:08:25.770604  2326 layer_factory.hpp:114] Creating layer inception_4a/output
I0327 09:08:25.770619  2326 net.cpp:160] Creating Layer inception_4a/output
I0327 09:08:25.770628  2326 net.cpp:596] inception_4a/output <- inception_4a/1x1
I0327 09:08:25.770640  2326 net.cpp:596] inception_4a/output <- inception_4a/3x3
I0327 09:08:25.770651  2326 net.cpp:596] inception_4a/output <- inception_4a/5x5
I0327 09:08:25.770663  2326 net.cpp:596] inception_4a/output <- inception_4a/pool_proj
I0327 09:08:25.770674  2326 net.cpp:570] inception_4a/output -> inception_4a/output
I0327 09:08:25.770694  2326 net.cpp:210] Setting up inception_4a/output
I0327 09:08:25.770706  2326 net.cpp:217] Top shape: 48 512 14 14 (4816896)
I0327 09:08:25.770714  2326 net.cpp:225] Memory required for data: 1793090304
I0327 09:08:25.770723  2326 layer_factory.hpp:114] Creating layer inception_4a/output_inception_4a/output_0_split
I0327 09:08:25.770738  2326 net.cpp:160] Creating Layer inception_4a/output_inception_4a/output_0_split
I0327 09:08:25.770747  2326 net.cpp:596] inception_4a/output_inception_4a/output_0_split <- inception_4a/output
I0327 09:08:25.770762  2326 net.cpp:570] inception_4a/output_inception_4a/output_0_split -> inception_4a/output_inception_4a/output_0_split_0
I0327 09:08:25.770778  2326 net.cpp:570] inception_4a/output_inception_4a/output_0_split -> inception_4a/output_inception_4a/output_0_split_1
I0327 09:08:25.770812  2326 net.cpp:570] inception_4a/output_inception_4a/output_0_split -> inception_4a/output_inception_4a/output_0_split_2
I0327 09:08:25.770828  2326 net.cpp:570] inception_4a/output_inception_4a/output_0_split -> inception_4a/output_inception_4a/output_0_split_3
I0327 09:08:25.770843  2326 net.cpp:570] inception_4a/output_inception_4a/output_0_split -> inception_4a/output_inception_4a/output_0_split_4
I0327 09:08:25.770859  2326 net.cpp:210] Setting up inception_4a/output_inception_4a/output_0_split
I0327 09:08:25.770870  2326 net.cpp:217] Top shape: 48 512 14 14 (4816896)
I0327 09:08:25.770881  2326 net.cpp:217] Top shape: 48 512 14 14 (4816896)
I0327 09:08:25.770892  2326 net.cpp:217] Top shape: 48 512 14 14 (4816896)
I0327 09:08:25.770902  2326 net.cpp:217] Top shape: 48 512 14 14 (4816896)
I0327 09:08:25.770913  2326 net.cpp:217] Top shape: 48 512 14 14 (4816896)
I0327 09:08:25.770921  2326 net.cpp:225] Memory required for data: 1889428224
I0327 09:08:25.770946  2326 layer_factory.hpp:114] Creating layer loss1/ave_pool
I0327 09:08:25.770998  2326 net.cpp:160] Creating Layer loss1/ave_pool
I0327 09:08:25.771010  2326 net.cpp:596] loss1/ave_pool <- inception_4a/output_inception_4a/output_0_split_0
I0327 09:08:25.771035  2326 net.cpp:570] loss1/ave_pool -> loss1/ave_pool
I0327 09:08:25.771054  2326 net.cpp:210] Setting up loss1/ave_pool
I0327 09:08:25.771066  2326 net.cpp:217] Top shape: 48 512 4 4 (393216)
I0327 09:08:25.771075  2326 net.cpp:225] Memory required for data: 1891001088
I0327 09:08:25.771083  2326 layer_factory.hpp:114] Creating layer loss1/conv
I0327 09:08:25.771112  2326 net.cpp:160] Creating Layer loss1/conv
I0327 09:08:25.771123  2326 net.cpp:596] loss1/conv <- loss1/ave_pool
I0327 09:08:25.771138  2326 net.cpp:570] loss1/conv -> loss1/conv
I0327 09:08:25.779636  2326 net.cpp:210] Setting up loss1/conv
I0327 09:08:25.779726  2326 net.cpp:217] Top shape: 48 128 4 4 (98304)
I0327 09:08:25.779736  2326 net.cpp:225] Memory required for data: 1891394304
I0327 09:08:25.779763  2326 layer_factory.hpp:114] Creating layer loss1/relu_conv
I0327 09:08:25.779796  2326 net.cpp:160] Creating Layer loss1/relu_conv
I0327 09:08:25.779809  2326 net.cpp:596] loss1/relu_conv <- loss1/conv
I0327 09:08:25.779829  2326 net.cpp:557] loss1/relu_conv -> loss1/conv (in-place)
I0327 09:08:25.779852  2326 net.cpp:210] Setting up loss1/relu_conv
I0327 09:08:25.779863  2326 net.cpp:217] Top shape: 48 128 4 4 (98304)
I0327 09:08:25.779872  2326 net.cpp:225] Memory required for data: 1891787520
I0327 09:08:25.779881  2326 layer_factory.hpp:114] Creating layer loss1/fc
I0327 09:08:25.779907  2326 net.cpp:160] Creating Layer loss1/fc
I0327 09:08:25.779917  2326 net.cpp:596] loss1/fc <- loss1/conv
I0327 09:08:25.779932  2326 net.cpp:570] loss1/fc -> loss1/fc
I0327 09:08:25.815135  2326 net.cpp:210] Setting up loss1/fc
I0327 09:08:25.815219  2326 net.cpp:217] Top shape: 48 1024 (49152)
I0327 09:08:25.815229  2326 net.cpp:225] Memory required for data: 1891984128
I0327 09:08:25.815253  2326 layer_factory.hpp:114] Creating layer loss1/relu_fc
I0327 09:08:25.815279  2326 net.cpp:160] Creating Layer loss1/relu_fc
I0327 09:08:25.815292  2326 net.cpp:596] loss1/relu_fc <- loss1/fc
I0327 09:08:25.815313  2326 net.cpp:557] loss1/relu_fc -> loss1/fc (in-place)
I0327 09:08:25.815335  2326 net.cpp:210] Setting up loss1/relu_fc
I0327 09:08:25.815346  2326 net.cpp:217] Top shape: 48 1024 (49152)
I0327 09:08:25.815356  2326 net.cpp:225] Memory required for data: 1892180736
I0327 09:08:25.815364  2326 layer_factory.hpp:114] Creating layer loss1/drop_fc
I0327 09:08:25.815392  2326 net.cpp:160] Creating Layer loss1/drop_fc
I0327 09:08:25.815402  2326 net.cpp:596] loss1/drop_fc <- loss1/fc
I0327 09:08:25.815412  2326 net.cpp:557] loss1/drop_fc -> loss1/fc (in-place)
I0327 09:08:25.815436  2326 net.cpp:210] Setting up loss1/drop_fc
I0327 09:08:25.815448  2326 net.cpp:217] Top shape: 48 1024 (49152)
I0327 09:08:25.815456  2326 net.cpp:225] Memory required for data: 1892377344
I0327 09:08:25.815465  2326 layer_factory.hpp:114] Creating layer loss1/classifier
I0327 09:08:25.815507  2326 net.cpp:160] Creating Layer loss1/classifier
I0327 09:08:25.815517  2326 net.cpp:596] loss1/classifier <- loss1/fc
I0327 09:08:25.815531  2326 net.cpp:570] loss1/classifier -> loss1/classifier
I0327 09:08:25.833142  2326 net.cpp:210] Setting up loss1/classifier
I0327 09:08:25.833199  2326 net.cpp:217] Top shape: 48 1000 (48000)
I0327 09:08:25.833209  2326 net.cpp:225] Memory required for data: 1892569344
I0327 09:08:25.833228  2326 layer_factory.hpp:114] Creating layer loss1/loss
I0327 09:08:25.833256  2326 net.cpp:160] Creating Layer loss1/loss
I0327 09:08:25.833267  2326 net.cpp:596] loss1/loss <- loss1/classifier
I0327 09:08:25.833281  2326 net.cpp:596] loss1/loss <- label_data_1_split_0
I0327 09:08:25.833295  2326 net.cpp:570] loss1/loss -> loss1/loss1
I0327 09:08:25.833320  2326 layer_factory.hpp:114] Creating layer loss1/loss
I0327 09:08:25.833595  2326 net.cpp:210] Setting up loss1/loss
I0327 09:08:25.833631  2326 net.cpp:217] Top shape: (1)
I0327 09:08:25.833640  2326 net.cpp:220]     with loss weight 0.3
I0327 09:08:25.833717  2326 net.cpp:225] Memory required for data: 1892569348
I0327 09:08:25.833727  2326 layer_factory.hpp:114] Creating layer inception_4b/1x1
I0327 09:08:25.833760  2326 net.cpp:160] Creating Layer inception_4b/1x1
I0327 09:08:25.833773  2326 net.cpp:596] inception_4b/1x1 <- inception_4a/output_inception_4a/output_0_split_1
I0327 09:08:25.833787  2326 net.cpp:570] inception_4b/1x1 -> inception_4b/1x1
I0327 09:08:25.850915  2326 net.cpp:210] Setting up inception_4b/1x1
I0327 09:08:25.851006  2326 net.cpp:217] Top shape: 48 160 14 14 (1505280)
I0327 09:08:25.851022  2326 net.cpp:225] Memory required for data: 1898590468
I0327 09:08:25.851052  2326 layer_factory.hpp:114] Creating layer inception_4b/relu_1x1
I0327 09:08:25.851079  2326 net.cpp:160] Creating Layer inception_4b/relu_1x1
I0327 09:08:25.851094  2326 net.cpp:596] inception_4b/relu_1x1 <- inception_4b/1x1
I0327 09:08:25.851121  2326 net.cpp:557] inception_4b/relu_1x1 -> inception_4b/1x1 (in-place)
I0327 09:08:25.851146  2326 net.cpp:210] Setting up inception_4b/relu_1x1
I0327 09:08:25.851157  2326 net.cpp:217] Top shape: 48 160 14 14 (1505280)
I0327 09:08:25.851166  2326 net.cpp:225] Memory required for data: 1904611588
I0327 09:08:25.851176  2326 layer_factory.hpp:114] Creating layer inception_4b/3x3_reduce
I0327 09:08:25.851202  2326 net.cpp:160] Creating Layer inception_4b/3x3_reduce
I0327 09:08:25.851212  2326 net.cpp:596] inception_4b/3x3_reduce <- inception_4a/output_inception_4a/output_0_split_2
I0327 09:08:25.851230  2326 net.cpp:570] inception_4b/3x3_reduce -> inception_4b/3x3_reduce
I0327 09:08:25.866715  2326 net.cpp:210] Setting up inception_4b/3x3_reduce
I0327 09:08:25.866806  2326 net.cpp:217] Top shape: 48 112 14 14 (1053696)
I0327 09:08:25.866816  2326 net.cpp:225] Memory required for data: 1908826372
I0327 09:08:25.866844  2326 layer_factory.hpp:114] Creating layer inception_4b/relu_3x3_reduce
I0327 09:08:25.866871  2326 net.cpp:160] Creating Layer inception_4b/relu_3x3_reduce
I0327 09:08:25.866885  2326 net.cpp:596] inception_4b/relu_3x3_reduce <- inception_4b/3x3_reduce
I0327 09:08:25.866906  2326 net.cpp:557] inception_4b/relu_3x3_reduce -> inception_4b/3x3_reduce (in-place)
I0327 09:08:25.866931  2326 net.cpp:210] Setting up inception_4b/relu_3x3_reduce
I0327 09:08:25.866943  2326 net.cpp:217] Top shape: 48 112 14 14 (1053696)
I0327 09:08:25.866951  2326 net.cpp:225] Memory required for data: 1913041156
I0327 09:08:25.866961  2326 layer_factory.hpp:114] Creating layer inception_4b/3x3
I0327 09:08:25.866989  2326 net.cpp:160] Creating Layer inception_4b/3x3
I0327 09:08:25.866999  2326 net.cpp:596] inception_4b/3x3 <- inception_4b/3x3_reduce
I0327 09:08:25.867013  2326 net.cpp:570] inception_4b/3x3 -> inception_4b/3x3
I0327 09:08:25.906312  2326 net.cpp:210] Setting up inception_4b/3x3
I0327 09:08:25.906402  2326 net.cpp:217] Top shape: 48 224 14 14 (2107392)
I0327 09:08:25.906412  2326 net.cpp:225] Memory required for data: 1921470724
I0327 09:08:25.906440  2326 layer_factory.hpp:114] Creating layer inception_4b/relu_3x3
I0327 09:08:25.906484  2326 net.cpp:160] Creating Layer inception_4b/relu_3x3
I0327 09:08:25.906500  2326 net.cpp:596] inception_4b/relu_3x3 <- inception_4b/3x3
I0327 09:08:25.906518  2326 net.cpp:557] inception_4b/relu_3x3 -> inception_4b/3x3 (in-place)
I0327 09:08:25.906543  2326 net.cpp:210] Setting up inception_4b/relu_3x3
I0327 09:08:25.906555  2326 net.cpp:217] Top shape: 48 224 14 14 (2107392)
I0327 09:08:25.906563  2326 net.cpp:225] Memory required for data: 1929900292
I0327 09:08:25.906572  2326 layer_factory.hpp:114] Creating layer inception_4b/5x5_reduce
I0327 09:08:25.906599  2326 net.cpp:160] Creating Layer inception_4b/5x5_reduce
I0327 09:08:25.906608  2326 net.cpp:596] inception_4b/5x5_reduce <- inception_4a/output_inception_4a/output_0_split_3
I0327 09:08:25.906627  2326 net.cpp:570] inception_4b/5x5_reduce -> inception_4b/5x5_reduce
I0327 09:08:25.916751  2326 net.cpp:210] Setting up inception_4b/5x5_reduce
I0327 09:08:25.916867  2326 net.cpp:217] Top shape: 48 24 14 14 (225792)
I0327 09:08:25.916877  2326 net.cpp:225] Memory required for data: 1930803460
I0327 09:08:25.916905  2326 layer_factory.hpp:114] Creating layer inception_4b/relu_5x5_reduce
I0327 09:08:25.916934  2326 net.cpp:160] Creating Layer inception_4b/relu_5x5_reduce
I0327 09:08:25.916949  2326 net.cpp:596] inception_4b/relu_5x5_reduce <- inception_4b/5x5_reduce
I0327 09:08:25.916965  2326 net.cpp:557] inception_4b/relu_5x5_reduce -> inception_4b/5x5_reduce (in-place)
I0327 09:08:25.916990  2326 net.cpp:210] Setting up inception_4b/relu_5x5_reduce
I0327 09:08:25.917001  2326 net.cpp:217] Top shape: 48 24 14 14 (225792)
I0327 09:08:25.917009  2326 net.cpp:225] Memory required for data: 1931706628
I0327 09:08:25.917026  2326 layer_factory.hpp:114] Creating layer inception_4b/5x5
I0327 09:08:25.917054  2326 net.cpp:160] Creating Layer inception_4b/5x5
I0327 09:08:25.917068  2326 net.cpp:596] inception_4b/5x5 <- inception_4b/5x5_reduce
I0327 09:08:25.917080  2326 net.cpp:570] inception_4b/5x5 -> inception_4b/5x5
I0327 09:08:25.931920  2326 net.cpp:210] Setting up inception_4b/5x5
I0327 09:08:25.932009  2326 net.cpp:217] Top shape: 48 64 14 14 (602112)
I0327 09:08:25.932030  2326 net.cpp:225] Memory required for data: 1934115076
I0327 09:08:25.932060  2326 layer_factory.hpp:114] Creating layer inception_4b/relu_5x5
I0327 09:08:25.932088  2326 net.cpp:160] Creating Layer inception_4b/relu_5x5
I0327 09:08:25.932103  2326 net.cpp:596] inception_4b/relu_5x5 <- inception_4b/5x5
I0327 09:08:25.932126  2326 net.cpp:557] inception_4b/relu_5x5 -> inception_4b/5x5 (in-place)
I0327 09:08:25.932152  2326 net.cpp:210] Setting up inception_4b/relu_5x5
I0327 09:08:25.932163  2326 net.cpp:217] Top shape: 48 64 14 14 (602112)
I0327 09:08:25.932171  2326 net.cpp:225] Memory required for data: 1936523524
I0327 09:08:25.932180  2326 layer_factory.hpp:114] Creating layer inception_4b/pool
I0327 09:08:25.932240  2326 net.cpp:160] Creating Layer inception_4b/pool
I0327 09:08:25.932252  2326 net.cpp:596] inception_4b/pool <- inception_4a/output_inception_4a/output_0_split_4
I0327 09:08:25.932266  2326 net.cpp:570] inception_4b/pool -> inception_4b/pool
I0327 09:08:25.932301  2326 net.cpp:210] Setting up inception_4b/pool
I0327 09:08:25.932315  2326 net.cpp:217] Top shape: 48 512 14 14 (4816896)
I0327 09:08:25.932323  2326 net.cpp:225] Memory required for data: 1955791108
I0327 09:08:25.932332  2326 layer_factory.hpp:114] Creating layer inception_4b/pool_proj
I0327 09:08:25.932361  2326 net.cpp:160] Creating Layer inception_4b/pool_proj
I0327 09:08:25.932371  2326 net.cpp:596] inception_4b/pool_proj <- inception_4b/pool
I0327 09:08:25.932389  2326 net.cpp:570] inception_4b/pool_proj -> inception_4b/pool_proj
I0327 09:08:25.945315  2326 net.cpp:210] Setting up inception_4b/pool_proj
I0327 09:08:25.945403  2326 net.cpp:217] Top shape: 48 64 14 14 (602112)
I0327 09:08:25.945413  2326 net.cpp:225] Memory required for data: 1958199556
I0327 09:08:25.945442  2326 layer_factory.hpp:114] Creating layer inception_4b/relu_pool_proj
I0327 09:08:25.945489  2326 net.cpp:160] Creating Layer inception_4b/relu_pool_proj
I0327 09:08:25.945507  2326 net.cpp:596] inception_4b/relu_pool_proj <- inception_4b/pool_proj
I0327 09:08:25.945528  2326 net.cpp:557] inception_4b/relu_pool_proj -> inception_4b/pool_proj (in-place)
I0327 09:08:25.945554  2326 net.cpp:210] Setting up inception_4b/relu_pool_proj
I0327 09:08:25.945565  2326 net.cpp:217] Top shape: 48 64 14 14 (602112)
I0327 09:08:25.945574  2326 net.cpp:225] Memory required for data: 1960608004
I0327 09:08:25.945582  2326 layer_factory.hpp:114] Creating layer inception_4b/output
I0327 09:08:25.945597  2326 net.cpp:160] Creating Layer inception_4b/output
I0327 09:08:25.945607  2326 net.cpp:596] inception_4b/output <- inception_4b/1x1
I0327 09:08:25.945619  2326 net.cpp:596] inception_4b/output <- inception_4b/3x3
I0327 09:08:25.945631  2326 net.cpp:596] inception_4b/output <- inception_4b/5x5
I0327 09:08:25.945641  2326 net.cpp:596] inception_4b/output <- inception_4b/pool_proj
I0327 09:08:25.945672  2326 net.cpp:570] inception_4b/output -> inception_4b/output
I0327 09:08:25.945694  2326 net.cpp:210] Setting up inception_4b/output
I0327 09:08:25.945706  2326 net.cpp:217] Top shape: 48 512 14 14 (4816896)
I0327 09:08:25.945714  2326 net.cpp:225] Memory required for data: 1979875588
I0327 09:08:25.945722  2326 layer_factory.hpp:114] Creating layer inception_4b/output_inception_4b/output_0_split
I0327 09:08:25.945736  2326 net.cpp:160] Creating Layer inception_4b/output_inception_4b/output_0_split
I0327 09:08:25.945745  2326 net.cpp:596] inception_4b/output_inception_4b/output_0_split <- inception_4b/output
I0327 09:08:25.945760  2326 net.cpp:570] inception_4b/output_inception_4b/output_0_split -> inception_4b/output_inception_4b/output_0_split_0
I0327 09:08:25.945775  2326 net.cpp:570] inception_4b/output_inception_4b/output_0_split -> inception_4b/output_inception_4b/output_0_split_1
I0327 09:08:25.945791  2326 net.cpp:570] inception_4b/output_inception_4b/output_0_split -> inception_4b/output_inception_4b/output_0_split_2
I0327 09:08:25.945807  2326 net.cpp:570] inception_4b/output_inception_4b/output_0_split -> inception_4b/output_inception_4b/output_0_split_3
I0327 09:08:25.945824  2326 net.cpp:210] Setting up inception_4b/output_inception_4b/output_0_split
I0327 09:08:25.945835  2326 net.cpp:217] Top shape: 48 512 14 14 (4816896)
I0327 09:08:25.945847  2326 net.cpp:217] Top shape: 48 512 14 14 (4816896)
I0327 09:08:25.945857  2326 net.cpp:217] Top shape: 48 512 14 14 (4816896)
I0327 09:08:25.945866  2326 net.cpp:217] Top shape: 48 512 14 14 (4816896)
I0327 09:08:25.945875  2326 net.cpp:225] Memory required for data: 2056945924
I0327 09:08:25.945883  2326 layer_factory.hpp:114] Creating layer inception_4c/1x1
I0327 09:08:25.945911  2326 net.cpp:160] Creating Layer inception_4c/1x1
I0327 09:08:25.945921  2326 net.cpp:596] inception_4c/1x1 <- inception_4b/output_inception_4b/output_0_split_0
I0327 09:08:25.945937  2326 net.cpp:570] inception_4c/1x1 -> inception_4c/1x1
I0327 09:08:25.961904  2326 net.cpp:210] Setting up inception_4c/1x1
I0327 09:08:25.961997  2326 net.cpp:217] Top shape: 48 128 14 14 (1204224)
I0327 09:08:25.962007  2326 net.cpp:225] Memory required for data: 2061762820
I0327 09:08:25.962046  2326 layer_factory.hpp:114] Creating layer inception_4c/relu_1x1
I0327 09:08:25.962080  2326 net.cpp:160] Creating Layer inception_4c/relu_1x1
I0327 09:08:25.962095  2326 net.cpp:596] inception_4c/relu_1x1 <- inception_4c/1x1
I0327 09:08:25.962119  2326 net.cpp:557] inception_4c/relu_1x1 -> inception_4c/1x1 (in-place)
I0327 09:08:25.962146  2326 net.cpp:210] Setting up inception_4c/relu_1x1
I0327 09:08:25.962158  2326 net.cpp:217] Top shape: 48 128 14 14 (1204224)
I0327 09:08:25.962167  2326 net.cpp:225] Memory required for data: 2066579716
I0327 09:08:25.962175  2326 layer_factory.hpp:114] Creating layer inception_4c/3x3_reduce
I0327 09:08:25.962210  2326 net.cpp:160] Creating Layer inception_4c/3x3_reduce
I0327 09:08:25.962222  2326 net.cpp:596] inception_4c/3x3_reduce <- inception_4b/output_inception_4b/output_0_split_1
I0327 09:08:25.962258  2326 net.cpp:570] inception_4c/3x3_reduce -> inception_4c/3x3_reduce
I0327 09:08:25.977327  2326 net.cpp:210] Setting up inception_4c/3x3_reduce
I0327 09:08:25.977417  2326 net.cpp:217] Top shape: 48 128 14 14 (1204224)
I0327 09:08:25.977427  2326 net.cpp:225] Memory required for data: 2071396612
I0327 09:08:25.977455  2326 layer_factory.hpp:114] Creating layer inception_4c/relu_3x3_reduce
I0327 09:08:25.977483  2326 net.cpp:160] Creating Layer inception_4c/relu_3x3_reduce
I0327 09:08:25.977497  2326 net.cpp:596] inception_4c/relu_3x3_reduce <- inception_4c/3x3_reduce
I0327 09:08:25.977516  2326 net.cpp:557] inception_4c/relu_3x3_reduce -> inception_4c/3x3_reduce (in-place)
I0327 09:08:25.977542  2326 net.cpp:210] Setting up inception_4c/relu_3x3_reduce
I0327 09:08:25.977555  2326 net.cpp:217] Top shape: 48 128 14 14 (1204224)
I0327 09:08:25.977562  2326 net.cpp:225] Memory required for data: 2076213508
I0327 09:08:25.977601  2326 layer_factory.hpp:114] Creating layer inception_4c/3x3
I0327 09:08:25.977630  2326 net.cpp:160] Creating Layer inception_4c/3x3
I0327 09:08:25.977640  2326 net.cpp:596] inception_4c/3x3 <- inception_4c/3x3_reduce
I0327 09:08:25.977654  2326 net.cpp:570] inception_4c/3x3 -> inception_4c/3x3
I0327 09:08:26.024524  2326 net.cpp:210] Setting up inception_4c/3x3
I0327 09:08:26.024615  2326 net.cpp:217] Top shape: 48 256 14 14 (2408448)
I0327 09:08:26.024624  2326 net.cpp:225] Memory required for data: 2085847300
I0327 09:08:26.024672  2326 layer_factory.hpp:114] Creating layer inception_4c/relu_3x3
I0327 09:08:26.024704  2326 net.cpp:160] Creating Layer inception_4c/relu_3x3
I0327 09:08:26.024719  2326 net.cpp:596] inception_4c/relu_3x3 <- inception_4c/3x3
I0327 09:08:26.024736  2326 net.cpp:557] inception_4c/relu_3x3 -> inception_4c/3x3 (in-place)
I0327 09:08:26.024762  2326 net.cpp:210] Setting up inception_4c/relu_3x3
I0327 09:08:26.024775  2326 net.cpp:217] Top shape: 48 256 14 14 (2408448)
I0327 09:08:26.024782  2326 net.cpp:225] Memory required for data: 2095481092
I0327 09:08:26.024791  2326 layer_factory.hpp:114] Creating layer inception_4c/5x5_reduce
I0327 09:08:26.024817  2326 net.cpp:160] Creating Layer inception_4c/5x5_reduce
I0327 09:08:26.024828  2326 net.cpp:596] inception_4c/5x5_reduce <- inception_4b/output_inception_4b/output_0_split_2
I0327 09:08:26.024847  2326 net.cpp:570] inception_4c/5x5_reduce -> inception_4c/5x5_reduce
I0327 09:08:26.035543  2326 net.cpp:210] Setting up inception_4c/5x5_reduce
I0327 09:08:26.035629  2326 net.cpp:217] Top shape: 48 24 14 14 (225792)
I0327 09:08:26.035639  2326 net.cpp:225] Memory required for data: 2096384260
I0327 09:08:26.035666  2326 layer_factory.hpp:114] Creating layer inception_4c/relu_5x5_reduce
I0327 09:08:26.035693  2326 net.cpp:160] Creating Layer inception_4c/relu_5x5_reduce
I0327 09:08:26.035712  2326 net.cpp:596] inception_4c/relu_5x5_reduce <- inception_4c/5x5_reduce
I0327 09:08:26.035732  2326 net.cpp:557] inception_4c/relu_5x5_reduce -> inception_4c/5x5_reduce (in-place)
I0327 09:08:26.035756  2326 net.cpp:210] Setting up inception_4c/relu_5x5_reduce
I0327 09:08:26.035768  2326 net.cpp:217] Top shape: 48 24 14 14 (225792)
I0327 09:08:26.035776  2326 net.cpp:225] Memory required for data: 2097287428
I0327 09:08:26.035784  2326 layer_factory.hpp:114] Creating layer inception_4c/5x5
I0327 09:08:26.035814  2326 net.cpp:160] Creating Layer inception_4c/5x5
I0327 09:08:26.035823  2326 net.cpp:596] inception_4c/5x5 <- inception_4c/5x5_reduce
I0327 09:08:26.035840  2326 net.cpp:570] inception_4c/5x5 -> inception_4c/5x5
I0327 09:08:26.050550  2326 net.cpp:210] Setting up inception_4c/5x5
I0327 09:08:26.050637  2326 net.cpp:217] Top shape: 48 64 14 14 (602112)
I0327 09:08:26.050647  2326 net.cpp:225] Memory required for data: 2099695876
I0327 09:08:26.050674  2326 layer_factory.hpp:114] Creating layer inception_4c/relu_5x5
I0327 09:08:26.050703  2326 net.cpp:160] Creating Layer inception_4c/relu_5x5
I0327 09:08:26.050717  2326 net.cpp:596] inception_4c/relu_5x5 <- inception_4c/5x5
I0327 09:08:26.050756  2326 net.cpp:557] inception_4c/relu_5x5 -> inception_4c/5x5 (in-place)
I0327 09:08:26.050782  2326 net.cpp:210] Setting up inception_4c/relu_5x5
I0327 09:08:26.050794  2326 net.cpp:217] Top shape: 48 64 14 14 (602112)
I0327 09:08:26.050802  2326 net.cpp:225] Memory required for data: 2102104324
I0327 09:08:26.050812  2326 layer_factory.hpp:114] Creating layer inception_4c/pool
I0327 09:08:26.050865  2326 net.cpp:160] Creating Layer inception_4c/pool
I0327 09:08:26.050879  2326 net.cpp:596] inception_4c/pool <- inception_4b/output_inception_4b/output_0_split_3
I0327 09:08:26.050894  2326 net.cpp:570] inception_4c/pool -> inception_4c/pool
I0327 09:08:26.050921  2326 net.cpp:210] Setting up inception_4c/pool
I0327 09:08:26.050933  2326 net.cpp:217] Top shape: 48 512 14 14 (4816896)
I0327 09:08:26.050941  2326 net.cpp:225] Memory required for data: 2121371908
I0327 09:08:26.050951  2326 layer_factory.hpp:114] Creating layer inception_4c/pool_proj
I0327 09:08:26.050997  2326 net.cpp:160] Creating Layer inception_4c/pool_proj
I0327 09:08:26.051007  2326 net.cpp:596] inception_4c/pool_proj <- inception_4c/pool
I0327 09:08:26.051029  2326 net.cpp:570] inception_4c/pool_proj -> inception_4c/pool_proj
I0327 09:08:26.063093  2326 net.cpp:210] Setting up inception_4c/pool_proj
I0327 09:08:26.063187  2326 net.cpp:217] Top shape: 48 64 14 14 (602112)
I0327 09:08:26.063197  2326 net.cpp:225] Memory required for data: 2123780356
I0327 09:08:26.063228  2326 layer_factory.hpp:114] Creating layer inception_4c/relu_pool_proj
I0327 09:08:26.063257  2326 net.cpp:160] Creating Layer inception_4c/relu_pool_proj
I0327 09:08:26.063277  2326 net.cpp:596] inception_4c/relu_pool_proj <- inception_4c/pool_proj
I0327 09:08:26.063294  2326 net.cpp:557] inception_4c/relu_pool_proj -> inception_4c/pool_proj (in-place)
I0327 09:08:26.063321  2326 net.cpp:210] Setting up inception_4c/relu_pool_proj
I0327 09:08:26.063333  2326 net.cpp:217] Top shape: 48 64 14 14 (602112)
I0327 09:08:26.063341  2326 net.cpp:225] Memory required for data: 2126188804
I0327 09:08:26.063350  2326 layer_factory.hpp:114] Creating layer inception_4c/output
I0327 09:08:26.063365  2326 net.cpp:160] Creating Layer inception_4c/output
I0327 09:08:26.063375  2326 net.cpp:596] inception_4c/output <- inception_4c/1x1
I0327 09:08:26.063386  2326 net.cpp:596] inception_4c/output <- inception_4c/3x3
I0327 09:08:26.063397  2326 net.cpp:596] inception_4c/output <- inception_4c/5x5
I0327 09:08:26.063408  2326 net.cpp:596] inception_4c/output <- inception_4c/pool_proj
I0327 09:08:26.063423  2326 net.cpp:570] inception_4c/output -> inception_4c/output
I0327 09:08:26.063446  2326 net.cpp:210] Setting up inception_4c/output
I0327 09:08:26.063457  2326 net.cpp:217] Top shape: 48 512 14 14 (4816896)
I0327 09:08:26.063465  2326 net.cpp:225] Memory required for data: 2145456388
I0327 09:08:26.063473  2326 layer_factory.hpp:114] Creating layer inception_4c/output_inception_4c/output_0_split
I0327 09:08:26.063488  2326 net.cpp:160] Creating Layer inception_4c/output_inception_4c/output_0_split
I0327 09:08:26.063496  2326 net.cpp:596] inception_4c/output_inception_4c/output_0_split <- inception_4c/output
I0327 09:08:26.063513  2326 net.cpp:570] inception_4c/output_inception_4c/output_0_split -> inception_4c/output_inception_4c/output_0_split_0
I0327 09:08:26.063529  2326 net.cpp:570] inception_4c/output_inception_4c/output_0_split -> inception_4c/output_inception_4c/output_0_split_1
I0327 09:08:26.063544  2326 net.cpp:570] inception_4c/output_inception_4c/output_0_split -> inception_4c/output_inception_4c/output_0_split_2
I0327 09:08:26.063557  2326 net.cpp:570] inception_4c/output_inception_4c/output_0_split -> inception_4c/output_inception_4c/output_0_split_3
I0327 09:08:26.063575  2326 net.cpp:210] Setting up inception_4c/output_inception_4c/output_0_split
I0327 09:08:26.063585  2326 net.cpp:217] Top shape: 48 512 14 14 (4816896)
I0327 09:08:26.063596  2326 net.cpp:217] Top shape: 48 512 14 14 (4816896)
I0327 09:08:26.063607  2326 net.cpp:217] Top shape: 48 512 14 14 (4816896)
I0327 09:08:26.063634  2326 net.cpp:217] Top shape: 48 512 14 14 (4816896)
I0327 09:08:26.063643  2326 net.cpp:225] Memory required for data: 2222526724
I0327 09:08:26.063652  2326 layer_factory.hpp:114] Creating layer inception_4d/1x1
I0327 09:08:26.063683  2326 net.cpp:160] Creating Layer inception_4d/1x1
I0327 09:08:26.063694  2326 net.cpp:596] inception_4d/1x1 <- inception_4c/output_inception_4c/output_0_split_0
I0327 09:08:26.063706  2326 net.cpp:570] inception_4d/1x1 -> inception_4d/1x1
I0327 09:08:26.078793  2326 net.cpp:210] Setting up inception_4d/1x1
I0327 09:08:26.078882  2326 net.cpp:217] Top shape: 48 112 14 14 (1053696)
I0327 09:08:26.078893  2326 net.cpp:225] Memory required for data: 2226741508
I0327 09:08:26.078922  2326 layer_factory.hpp:114] Creating layer inception_4d/relu_1x1
I0327 09:08:26.078953  2326 net.cpp:160] Creating Layer inception_4d/relu_1x1
I0327 09:08:26.078969  2326 net.cpp:596] inception_4d/relu_1x1 <- inception_4d/1x1
I0327 09:08:26.079094  2326 net.cpp:557] inception_4d/relu_1x1 -> inception_4d/1x1 (in-place)
I0327 09:08:26.079126  2326 net.cpp:210] Setting up inception_4d/relu_1x1
I0327 09:08:26.079139  2326 net.cpp:217] Top shape: 48 112 14 14 (1053696)
I0327 09:08:26.079147  2326 net.cpp:225] Memory required for data: 2230956292
I0327 09:08:26.079157  2326 layer_factory.hpp:114] Creating layer inception_4d/3x3_reduce
I0327 09:08:26.079182  2326 net.cpp:160] Creating Layer inception_4d/3x3_reduce
I0327 09:08:26.079193  2326 net.cpp:596] inception_4d/3x3_reduce <- inception_4c/output_inception_4c/output_0_split_1
I0327 09:08:26.079211  2326 net.cpp:570] inception_4d/3x3_reduce -> inception_4d/3x3_reduce
I0327 09:08:26.095736  2326 net.cpp:210] Setting up inception_4d/3x3_reduce
I0327 09:08:26.095825  2326 net.cpp:217] Top shape: 48 144 14 14 (1354752)
I0327 09:08:26.095835  2326 net.cpp:225] Memory required for data: 2236375300
I0327 09:08:26.095863  2326 layer_factory.hpp:114] Creating layer inception_4d/relu_3x3_reduce
I0327 09:08:26.095890  2326 net.cpp:160] Creating Layer inception_4d/relu_3x3_reduce
I0327 09:08:26.095906  2326 net.cpp:596] inception_4d/relu_3x3_reduce <- inception_4d/3x3_reduce
I0327 09:08:26.095923  2326 net.cpp:557] inception_4d/relu_3x3_reduce -> inception_4d/3x3_reduce (in-place)
I0327 09:08:26.095949  2326 net.cpp:210] Setting up inception_4d/relu_3x3_reduce
I0327 09:08:26.095962  2326 net.cpp:217] Top shape: 48 144 14 14 (1354752)
I0327 09:08:26.095969  2326 net.cpp:225] Memory required for data: 2241794308
I0327 09:08:26.095978  2326 layer_factory.hpp:114] Creating layer inception_4d/3x3
I0327 09:08:26.096007  2326 net.cpp:160] Creating Layer inception_4d/3x3
I0327 09:08:26.096026  2326 net.cpp:596] inception_4d/3x3 <- inception_4d/3x3_reduce
I0327 09:08:26.096042  2326 net.cpp:570] inception_4d/3x3 -> inception_4d/3x3
I0327 09:08:26.153105  2326 net.cpp:210] Setting up inception_4d/3x3
I0327 09:08:26.153199  2326 net.cpp:217] Top shape: 48 288 14 14 (2709504)
I0327 09:08:26.153209  2326 net.cpp:225] Memory required for data: 2252632324
I0327 09:08:26.153237  2326 layer_factory.hpp:114] Creating layer inception_4d/relu_3x3
I0327 09:08:26.153265  2326 net.cpp:160] Creating Layer inception_4d/relu_3x3
I0327 09:08:26.153280  2326 net.cpp:596] inception_4d/relu_3x3 <- inception_4d/3x3
I0327 09:08:26.153298  2326 net.cpp:557] inception_4d/relu_3x3 -> inception_4d/3x3 (in-place)
I0327 09:08:26.153323  2326 net.cpp:210] Setting up inception_4d/relu_3x3
I0327 09:08:26.153336  2326 net.cpp:217] Top shape: 48 288 14 14 (2709504)
I0327 09:08:26.153343  2326 net.cpp:225] Memory required for data: 2263470340
I0327 09:08:26.153352  2326 layer_factory.hpp:114] Creating layer inception_4d/5x5_reduce
I0327 09:08:26.153383  2326 net.cpp:160] Creating Layer inception_4d/5x5_reduce
I0327 09:08:26.153394  2326 net.cpp:596] inception_4d/5x5_reduce <- inception_4c/output_inception_4c/output_0_split_2
I0327 09:08:26.153409  2326 net.cpp:570] inception_4d/5x5_reduce -> inception_4d/5x5_reduce
I0327 09:08:26.164350  2326 net.cpp:210] Setting up inception_4d/5x5_reduce
I0327 09:08:26.164438  2326 net.cpp:217] Top shape: 48 32 14 14 (301056)
I0327 09:08:26.164466  2326 net.cpp:225] Memory required for data: 2264674564
I0327 09:08:26.164495  2326 layer_factory.hpp:114] Creating layer inception_4d/relu_5x5_reduce
I0327 09:08:26.164523  2326 net.cpp:160] Creating Layer inception_4d/relu_5x5_reduce
I0327 09:08:26.164538  2326 net.cpp:596] inception_4d/relu_5x5_reduce <- inception_4d/5x5_reduce
I0327 09:08:26.164561  2326 net.cpp:557] inception_4d/relu_5x5_reduce -> inception_4d/5x5_reduce (in-place)
I0327 09:08:26.164587  2326 net.cpp:210] Setting up inception_4d/relu_5x5_reduce
I0327 09:08:26.164598  2326 net.cpp:217] Top shape: 48 32 14 14 (301056)
I0327 09:08:26.164607  2326 net.cpp:225] Memory required for data: 2265878788
I0327 09:08:26.164615  2326 layer_factory.hpp:114] Creating layer inception_4d/5x5
I0327 09:08:26.164645  2326 net.cpp:160] Creating Layer inception_4d/5x5
I0327 09:08:26.164656  2326 net.cpp:596] inception_4d/5x5 <- inception_4d/5x5_reduce
I0327 09:08:26.164686  2326 net.cpp:570] inception_4d/5x5 -> inception_4d/5x5
I0327 09:08:26.183516  2326 net.cpp:210] Setting up inception_4d/5x5
I0327 09:08:26.183606  2326 net.cpp:217] Top shape: 48 64 14 14 (602112)
I0327 09:08:26.183615  2326 net.cpp:225] Memory required for data: 2268287236
I0327 09:08:26.183645  2326 layer_factory.hpp:114] Creating layer inception_4d/relu_5x5
I0327 09:08:26.183676  2326 net.cpp:160] Creating Layer inception_4d/relu_5x5
I0327 09:08:26.183692  2326 net.cpp:596] inception_4d/relu_5x5 <- inception_4d/5x5
I0327 09:08:26.183713  2326 net.cpp:557] inception_4d/relu_5x5 -> inception_4d/5x5 (in-place)
I0327 09:08:26.183739  2326 net.cpp:210] Setting up inception_4d/relu_5x5
I0327 09:08:26.183750  2326 net.cpp:217] Top shape: 48 64 14 14 (602112)
I0327 09:08:26.183759  2326 net.cpp:225] Memory required for data: 2270695684
I0327 09:08:26.183768  2326 layer_factory.hpp:114] Creating layer inception_4d/pool
I0327 09:08:26.183821  2326 net.cpp:160] Creating Layer inception_4d/pool
I0327 09:08:26.183835  2326 net.cpp:596] inception_4d/pool <- inception_4c/output_inception_4c/output_0_split_3
I0327 09:08:26.183847  2326 net.cpp:570] inception_4d/pool -> inception_4d/pool
I0327 09:08:26.183874  2326 net.cpp:210] Setting up inception_4d/pool
I0327 09:08:26.183886  2326 net.cpp:217] Top shape: 48 512 14 14 (4816896)
I0327 09:08:26.183894  2326 net.cpp:225] Memory required for data: 2289963268
I0327 09:08:26.183902  2326 layer_factory.hpp:114] Creating layer inception_4d/pool_proj
I0327 09:08:26.183934  2326 net.cpp:160] Creating Layer inception_4d/pool_proj
I0327 09:08:26.183944  2326 net.cpp:596] inception_4d/pool_proj <- inception_4d/pool
I0327 09:08:26.183959  2326 net.cpp:570] inception_4d/pool_proj -> inception_4d/pool_proj
I0327 09:08:26.196727  2326 net.cpp:210] Setting up inception_4d/pool_proj
I0327 09:08:26.196815  2326 net.cpp:217] Top shape: 48 64 14 14 (602112)
I0327 09:08:26.196825  2326 net.cpp:225] Memory required for data: 2292371716
I0327 09:08:26.196852  2326 layer_factory.hpp:114] Creating layer inception_4d/relu_pool_proj
I0327 09:08:26.196879  2326 net.cpp:160] Creating Layer inception_4d/relu_pool_proj
I0327 09:08:26.196895  2326 net.cpp:596] inception_4d/relu_pool_proj <- inception_4d/pool_proj
I0327 09:08:26.196916  2326 net.cpp:557] inception_4d/relu_pool_proj -> inception_4d/pool_proj (in-place)
I0327 09:08:26.196941  2326 net.cpp:210] Setting up inception_4d/relu_pool_proj
I0327 09:08:26.196954  2326 net.cpp:217] Top shape: 48 64 14 14 (602112)
I0327 09:08:26.196961  2326 net.cpp:225] Memory required for data: 2294780164
I0327 09:08:26.196970  2326 layer_factory.hpp:114] Creating layer inception_4d/output
I0327 09:08:26.196985  2326 net.cpp:160] Creating Layer inception_4d/output
I0327 09:08:26.196995  2326 net.cpp:596] inception_4d/output <- inception_4d/1x1
I0327 09:08:26.197006  2326 net.cpp:596] inception_4d/output <- inception_4d/3x3
I0327 09:08:26.197026  2326 net.cpp:596] inception_4d/output <- inception_4d/5x5
I0327 09:08:26.197038  2326 net.cpp:596] inception_4d/output <- inception_4d/pool_proj
I0327 09:08:26.197068  2326 net.cpp:570] inception_4d/output -> inception_4d/output
I0327 09:08:26.197090  2326 net.cpp:210] Setting up inception_4d/output
I0327 09:08:26.197103  2326 net.cpp:217] Top shape: 48 528 14 14 (4967424)
I0327 09:08:26.197110  2326 net.cpp:225] Memory required for data: 2314649860
I0327 09:08:26.197119  2326 layer_factory.hpp:114] Creating layer inception_4d/output_inception_4d/output_0_split
I0327 09:08:26.197141  2326 net.cpp:160] Creating Layer inception_4d/output_inception_4d/output_0_split
I0327 09:08:26.197151  2326 net.cpp:596] inception_4d/output_inception_4d/output_0_split <- inception_4d/output
I0327 09:08:26.197163  2326 net.cpp:570] inception_4d/output_inception_4d/output_0_split -> inception_4d/output_inception_4d/output_0_split_0
I0327 09:08:26.197182  2326 net.cpp:570] inception_4d/output_inception_4d/output_0_split -> inception_4d/output_inception_4d/output_0_split_1
I0327 09:08:26.197197  2326 net.cpp:570] inception_4d/output_inception_4d/output_0_split -> inception_4d/output_inception_4d/output_0_split_2
I0327 09:08:26.197228  2326 net.cpp:570] inception_4d/output_inception_4d/output_0_split -> inception_4d/output_inception_4d/output_0_split_3
I0327 09:08:26.197242  2326 net.cpp:570] inception_4d/output_inception_4d/output_0_split -> inception_4d/output_inception_4d/output_0_split_4
I0327 09:08:26.197260  2326 net.cpp:210] Setting up inception_4d/output_inception_4d/output_0_split
I0327 09:08:26.197271  2326 net.cpp:217] Top shape: 48 528 14 14 (4967424)
I0327 09:08:26.197283  2326 net.cpp:217] Top shape: 48 528 14 14 (4967424)
I0327 09:08:26.197293  2326 net.cpp:217] Top shape: 48 528 14 14 (4967424)
I0327 09:08:26.197304  2326 net.cpp:217] Top shape: 48 528 14 14 (4967424)
I0327 09:08:26.197314  2326 net.cpp:217] Top shape: 48 528 14 14 (4967424)
I0327 09:08:26.197322  2326 net.cpp:225] Memory required for data: 2413998340
I0327 09:08:26.197330  2326 layer_factory.hpp:114] Creating layer loss2/ave_pool
I0327 09:08:26.197381  2326 net.cpp:160] Creating Layer loss2/ave_pool
I0327 09:08:26.197392  2326 net.cpp:596] loss2/ave_pool <- inception_4d/output_inception_4d/output_0_split_0
I0327 09:08:26.197408  2326 net.cpp:570] loss2/ave_pool -> loss2/ave_pool
I0327 09:08:26.197427  2326 net.cpp:210] Setting up loss2/ave_pool
I0327 09:08:26.197438  2326 net.cpp:217] Top shape: 48 528 4 4 (405504)
I0327 09:08:26.197448  2326 net.cpp:225] Memory required for data: 2415620356
I0327 09:08:26.197455  2326 layer_factory.hpp:114] Creating layer loss2/conv
I0327 09:08:26.197480  2326 net.cpp:160] Creating Layer loss2/conv
I0327 09:08:26.197490  2326 net.cpp:596] loss2/conv <- loss2/ave_pool
I0327 09:08:26.197506  2326 net.cpp:570] loss2/conv -> loss2/conv
I0327 09:08:26.206425  2326 net.cpp:210] Setting up loss2/conv
I0327 09:08:26.206518  2326 net.cpp:217] Top shape: 48 128 4 4 (98304)
I0327 09:08:26.206529  2326 net.cpp:225] Memory required for data: 2416013572
I0327 09:08:26.206557  2326 layer_factory.hpp:114] Creating layer loss2/relu_conv
I0327 09:08:26.206585  2326 net.cpp:160] Creating Layer loss2/relu_conv
I0327 09:08:26.206600  2326 net.cpp:596] loss2/relu_conv <- loss2/conv
I0327 09:08:26.206619  2326 net.cpp:557] loss2/relu_conv -> loss2/conv (in-place)
I0327 09:08:26.206645  2326 net.cpp:210] Setting up loss2/relu_conv
I0327 09:08:26.206656  2326 net.cpp:217] Top shape: 48 128 4 4 (98304)
I0327 09:08:26.206665  2326 net.cpp:225] Memory required for data: 2416406788
I0327 09:08:26.206673  2326 layer_factory.hpp:114] Creating layer loss2/fc
I0327 09:08:26.206701  2326 net.cpp:160] Creating Layer loss2/fc
I0327 09:08:26.206712  2326 net.cpp:596] loss2/fc <- loss2/conv
I0327 09:08:26.206724  2326 net.cpp:570] loss2/fc -> loss2/fc
I0327 09:08:26.242030  2326 net.cpp:210] Setting up loss2/fc
I0327 09:08:26.242117  2326 net.cpp:217] Top shape: 48 1024 (49152)
I0327 09:08:26.242132  2326 net.cpp:225] Memory required for data: 2416603396
I0327 09:08:26.242157  2326 layer_factory.hpp:114] Creating layer loss2/relu_fc
I0327 09:08:26.242183  2326 net.cpp:160] Creating Layer loss2/relu_fc
I0327 09:08:26.242215  2326 net.cpp:596] loss2/relu_fc <- loss2/fc
I0327 09:08:26.242238  2326 net.cpp:557] loss2/relu_fc -> loss2/fc (in-place)
I0327 09:08:26.242260  2326 net.cpp:210] Setting up loss2/relu_fc
I0327 09:08:26.242271  2326 net.cpp:217] Top shape: 48 1024 (49152)
I0327 09:08:26.242280  2326 net.cpp:225] Memory required for data: 2416800004
I0327 09:08:26.242290  2326 layer_factory.hpp:114] Creating layer loss2/drop_fc
I0327 09:08:26.242305  2326 net.cpp:160] Creating Layer loss2/drop_fc
I0327 09:08:26.242316  2326 net.cpp:596] loss2/drop_fc <- loss2/fc
I0327 09:08:26.242326  2326 net.cpp:557] loss2/drop_fc -> loss2/fc (in-place)
I0327 09:08:26.242342  2326 net.cpp:210] Setting up loss2/drop_fc
I0327 09:08:26.242353  2326 net.cpp:217] Top shape: 48 1024 (49152)
I0327 09:08:26.242362  2326 net.cpp:225] Memory required for data: 2416996612
I0327 09:08:26.242369  2326 layer_factory.hpp:114] Creating layer loss2/classifier
I0327 09:08:26.242390  2326 net.cpp:160] Creating Layer loss2/classifier
I0327 09:08:26.242418  2326 net.cpp:596] loss2/classifier <- loss2/fc
I0327 09:08:26.242435  2326 net.cpp:570] loss2/classifier -> loss2/classifier
I0327 09:08:26.260056  2326 net.cpp:210] Setting up loss2/classifier
I0327 09:08:26.260109  2326 net.cpp:217] Top shape: 48 1000 (48000)
I0327 09:08:26.260118  2326 net.cpp:225] Memory required for data: 2417188612
I0327 09:08:26.260143  2326 layer_factory.hpp:114] Creating layer loss2/loss
I0327 09:08:26.260162  2326 net.cpp:160] Creating Layer loss2/loss
I0327 09:08:26.260176  2326 net.cpp:596] loss2/loss <- loss2/classifier
I0327 09:08:26.260190  2326 net.cpp:596] loss2/loss <- label_data_1_split_1
I0327 09:08:26.260206  2326 net.cpp:570] loss2/loss -> loss2/loss1
I0327 09:08:26.260231  2326 layer_factory.hpp:114] Creating layer loss2/loss
I0327 09:08:26.260494  2326 net.cpp:210] Setting up loss2/loss
I0327 09:08:26.260509  2326 net.cpp:217] Top shape: (1)
I0327 09:08:26.260517  2326 net.cpp:220]     with loss weight 0.3
I0327 09:08:26.260547  2326 net.cpp:225] Memory required for data: 2417188616
I0327 09:08:26.260556  2326 layer_factory.hpp:114] Creating layer inception_4e/1x1
I0327 09:08:26.260582  2326 net.cpp:160] Creating Layer inception_4e/1x1
I0327 09:08:26.260596  2326 net.cpp:596] inception_4e/1x1 <- inception_4d/output_inception_4d/output_0_split_1
I0327 09:08:26.260612  2326 net.cpp:570] inception_4e/1x1 -> inception_4e/1x1
I0327 09:08:26.283083  2326 net.cpp:210] Setting up inception_4e/1x1
I0327 09:08:26.283177  2326 net.cpp:217] Top shape: 48 256 14 14 (2408448)
I0327 09:08:26.283187  2326 net.cpp:225] Memory required for data: 2426822408
I0327 09:08:26.283216  2326 layer_factory.hpp:114] Creating layer inception_4e/relu_1x1
I0327 09:08:26.283247  2326 net.cpp:160] Creating Layer inception_4e/relu_1x1
I0327 09:08:26.283263  2326 net.cpp:596] inception_4e/relu_1x1 <- inception_4e/1x1
I0327 09:08:26.283282  2326 net.cpp:557] inception_4e/relu_1x1 -> inception_4e/1x1 (in-place)
I0327 09:08:26.283306  2326 net.cpp:210] Setting up inception_4e/relu_1x1
I0327 09:08:26.283318  2326 net.cpp:217] Top shape: 48 256 14 14 (2408448)
I0327 09:08:26.283326  2326 net.cpp:225] Memory required for data: 2436456200
I0327 09:08:26.283335  2326 layer_factory.hpp:114] Creating layer inception_4e/3x3_reduce
I0327 09:08:26.283365  2326 net.cpp:160] Creating Layer inception_4e/3x3_reduce
I0327 09:08:26.283375  2326 net.cpp:596] inception_4e/3x3_reduce <- inception_4d/output_inception_4d/output_0_split_2
I0327 09:08:26.283394  2326 net.cpp:570] inception_4e/3x3_reduce -> inception_4e/3x3_reduce
I0327 09:08:26.300484  2326 net.cpp:210] Setting up inception_4e/3x3_reduce
I0327 09:08:26.300576  2326 net.cpp:217] Top shape: 48 160 14 14 (1505280)
I0327 09:08:26.300587  2326 net.cpp:225] Memory required for data: 2442477320
I0327 09:08:26.300616  2326 layer_factory.hpp:114] Creating layer inception_4e/relu_3x3_reduce
I0327 09:08:26.300642  2326 net.cpp:160] Creating Layer inception_4e/relu_3x3_reduce
I0327 09:08:26.300658  2326 net.cpp:596] inception_4e/relu_3x3_reduce <- inception_4e/3x3_reduce
I0327 09:08:26.300695  2326 net.cpp:557] inception_4e/relu_3x3_reduce -> inception_4e/3x3_reduce (in-place)
I0327 09:08:26.300721  2326 net.cpp:210] Setting up inception_4e/relu_3x3_reduce
I0327 09:08:26.300734  2326 net.cpp:217] Top shape: 48 160 14 14 (1505280)
I0327 09:08:26.300741  2326 net.cpp:225] Memory required for data: 2448498440
I0327 09:08:26.300750  2326 layer_factory.hpp:114] Creating layer inception_4e/3x3
I0327 09:08:26.300778  2326 net.cpp:160] Creating Layer inception_4e/3x3
I0327 09:08:26.300789  2326 net.cpp:596] inception_4e/3x3 <- inception_4e/3x3_reduce
I0327 09:08:26.300806  2326 net.cpp:570] inception_4e/3x3 -> inception_4e/3x3
I0327 09:08:26.367957  2326 net.cpp:210] Setting up inception_4e/3x3
I0327 09:08:26.368057  2326 net.cpp:217] Top shape: 48 320 14 14 (3010560)
I0327 09:08:26.368069  2326 net.cpp:225] Memory required for data: 2460540680
I0327 09:08:26.368098  2326 layer_factory.hpp:114] Creating layer inception_4e/relu_3x3
I0327 09:08:26.368158  2326 net.cpp:160] Creating Layer inception_4e/relu_3x3
I0327 09:08:26.368173  2326 net.cpp:596] inception_4e/relu_3x3 <- inception_4e/3x3
I0327 09:08:26.368192  2326 net.cpp:557] inception_4e/relu_3x3 -> inception_4e/3x3 (in-place)
I0327 09:08:26.368216  2326 net.cpp:210] Setting up inception_4e/relu_3x3
I0327 09:08:26.368228  2326 net.cpp:217] Top shape: 48 320 14 14 (3010560)
I0327 09:08:26.368237  2326 net.cpp:225] Memory required for data: 2472582920
I0327 09:08:26.368245  2326 layer_factory.hpp:114] Creating layer inception_4e/5x5_reduce
I0327 09:08:26.368271  2326 net.cpp:160] Creating Layer inception_4e/5x5_reduce
I0327 09:08:26.368283  2326 net.cpp:596] inception_4e/5x5_reduce <- inception_4d/output_inception_4d/output_0_split_3
I0327 09:08:26.368301  2326 net.cpp:570] inception_4e/5x5_reduce -> inception_4e/5x5_reduce
I0327 09:08:26.379778  2326 net.cpp:210] Setting up inception_4e/5x5_reduce
I0327 09:08:26.379863  2326 net.cpp:217] Top shape: 48 32 14 14 (301056)
I0327 09:08:26.379873  2326 net.cpp:225] Memory required for data: 2473787144
I0327 09:08:26.379902  2326 layer_factory.hpp:114] Creating layer inception_4e/relu_5x5_reduce
I0327 09:08:26.379932  2326 net.cpp:160] Creating Layer inception_4e/relu_5x5_reduce
I0327 09:08:26.379950  2326 net.cpp:596] inception_4e/relu_5x5_reduce <- inception_4e/5x5_reduce
I0327 09:08:26.379971  2326 net.cpp:557] inception_4e/relu_5x5_reduce -> inception_4e/5x5_reduce (in-place)
I0327 09:08:26.379997  2326 net.cpp:210] Setting up inception_4e/relu_5x5_reduce
I0327 09:08:26.380007  2326 net.cpp:217] Top shape: 48 32 14 14 (301056)
I0327 09:08:26.380028  2326 net.cpp:225] Memory required for data: 2474991368
I0327 09:08:26.380038  2326 layer_factory.hpp:114] Creating layer inception_4e/5x5
I0327 09:08:26.380079  2326 net.cpp:160] Creating Layer inception_4e/5x5
I0327 09:08:26.380089  2326 net.cpp:596] inception_4e/5x5 <- inception_4e/5x5_reduce
I0327 09:08:26.380103  2326 net.cpp:570] inception_4e/5x5 -> inception_4e/5x5
I0327 09:08:26.403499  2326 net.cpp:210] Setting up inception_4e/5x5
I0327 09:08:26.403589  2326 net.cpp:217] Top shape: 48 128 14 14 (1204224)
I0327 09:08:26.403599  2326 net.cpp:225] Memory required for data: 2479808264
I0327 09:08:26.403630  2326 layer_factory.hpp:114] Creating layer inception_4e/relu_5x5
I0327 09:08:26.403661  2326 net.cpp:160] Creating Layer inception_4e/relu_5x5
I0327 09:08:26.403677  2326 net.cpp:596] inception_4e/relu_5x5 <- inception_4e/5x5
I0327 09:08:26.403694  2326 net.cpp:557] inception_4e/relu_5x5 -> inception_4e/5x5 (in-place)
I0327 09:08:26.403719  2326 net.cpp:210] Setting up inception_4e/relu_5x5
I0327 09:08:26.403731  2326 net.cpp:217] Top shape: 48 128 14 14 (1204224)
I0327 09:08:26.403739  2326 net.cpp:225] Memory required for data: 2484625160
I0327 09:08:26.403748  2326 layer_factory.hpp:114] Creating layer inception_4e/pool
I0327 09:08:26.403806  2326 net.cpp:160] Creating Layer inception_4e/pool
I0327 09:08:26.403818  2326 net.cpp:596] inception_4e/pool <- inception_4d/output_inception_4d/output_0_split_4
I0327 09:08:26.403836  2326 net.cpp:570] inception_4e/pool -> inception_4e/pool
I0327 09:08:26.403879  2326 net.cpp:210] Setting up inception_4e/pool
I0327 09:08:26.403892  2326 net.cpp:217] Top shape: 48 528 14 14 (4967424)
I0327 09:08:26.403900  2326 net.cpp:225] Memory required for data: 2504494856
I0327 09:08:26.403909  2326 layer_factory.hpp:114] Creating layer inception_4e/pool_proj
I0327 09:08:26.403940  2326 net.cpp:160] Creating Layer inception_4e/pool_proj
I0327 09:08:26.403950  2326 net.cpp:596] inception_4e/pool_proj <- inception_4e/pool
I0327 09:08:26.403966  2326 net.cpp:570] inception_4e/pool_proj -> inception_4e/pool_proj
I0327 09:08:26.420593  2326 net.cpp:210] Setting up inception_4e/pool_proj
I0327 09:08:26.420682  2326 net.cpp:217] Top shape: 48 128 14 14 (1204224)
I0327 09:08:26.420692  2326 net.cpp:225] Memory required for data: 2509311752
I0327 09:08:26.420720  2326 layer_factory.hpp:114] Creating layer inception_4e/relu_pool_proj
I0327 09:08:26.420747  2326 net.cpp:160] Creating Layer inception_4e/relu_pool_proj
I0327 09:08:26.420799  2326 net.cpp:596] inception_4e/relu_pool_proj <- inception_4e/pool_proj
I0327 09:08:26.420817  2326 net.cpp:557] inception_4e/relu_pool_proj -> inception_4e/pool_proj (in-place)
I0327 09:08:26.420842  2326 net.cpp:210] Setting up inception_4e/relu_pool_proj
I0327 09:08:26.420855  2326 net.cpp:217] Top shape: 48 128 14 14 (1204224)
I0327 09:08:26.420862  2326 net.cpp:225] Memory required for data: 2514128648
I0327 09:08:26.420871  2326 layer_factory.hpp:114] Creating layer inception_4e/output
I0327 09:08:26.420886  2326 net.cpp:160] Creating Layer inception_4e/output
I0327 09:08:26.420895  2326 net.cpp:596] inception_4e/output <- inception_4e/1x1
I0327 09:08:26.420907  2326 net.cpp:596] inception_4e/output <- inception_4e/3x3
I0327 09:08:26.420918  2326 net.cpp:596] inception_4e/output <- inception_4e/5x5
I0327 09:08:26.420929  2326 net.cpp:596] inception_4e/output <- inception_4e/pool_proj
I0327 09:08:26.420945  2326 net.cpp:570] inception_4e/output -> inception_4e/output
I0327 09:08:26.420967  2326 net.cpp:210] Setting up inception_4e/output
I0327 09:08:26.420979  2326 net.cpp:217] Top shape: 48 832 14 14 (7827456)
I0327 09:08:26.420986  2326 net.cpp:225] Memory required for data: 2545438472
I0327 09:08:26.420995  2326 layer_factory.hpp:114] Creating layer pool4/3x3_s2
I0327 09:08:26.421051  2326 net.cpp:160] Creating Layer pool4/3x3_s2
I0327 09:08:26.421063  2326 net.cpp:596] pool4/3x3_s2 <- inception_4e/output
I0327 09:08:26.421080  2326 net.cpp:570] pool4/3x3_s2 -> pool4/3x3_s2
I0327 09:08:26.421103  2326 net.cpp:210] Setting up pool4/3x3_s2
I0327 09:08:26.421114  2326 net.cpp:217] Top shape: 48 832 7 7 (1956864)
I0327 09:08:26.421128  2326 net.cpp:225] Memory required for data: 2553265928
I0327 09:08:26.421138  2326 layer_factory.hpp:114] Creating layer pool4/3x3_s2_pool4/3x3_s2_0_split
I0327 09:08:26.421150  2326 net.cpp:160] Creating Layer pool4/3x3_s2_pool4/3x3_s2_0_split
I0327 09:08:26.421160  2326 net.cpp:596] pool4/3x3_s2_pool4/3x3_s2_0_split <- pool4/3x3_s2
I0327 09:08:26.421175  2326 net.cpp:570] pool4/3x3_s2_pool4/3x3_s2_0_split -> pool4/3x3_s2_pool4/3x3_s2_0_split_0
I0327 09:08:26.421190  2326 net.cpp:570] pool4/3x3_s2_pool4/3x3_s2_0_split -> pool4/3x3_s2_pool4/3x3_s2_0_split_1
I0327 09:08:26.421203  2326 net.cpp:570] pool4/3x3_s2_pool4/3x3_s2_0_split -> pool4/3x3_s2_pool4/3x3_s2_0_split_2
I0327 09:08:26.421217  2326 net.cpp:570] pool4/3x3_s2_pool4/3x3_s2_0_split -> pool4/3x3_s2_pool4/3x3_s2_0_split_3
I0327 09:08:26.421233  2326 net.cpp:210] Setting up pool4/3x3_s2_pool4/3x3_s2_0_split
I0327 09:08:26.421244  2326 net.cpp:217] Top shape: 48 832 7 7 (1956864)
I0327 09:08:26.421255  2326 net.cpp:217] Top shape: 48 832 7 7 (1956864)
I0327 09:08:26.421267  2326 net.cpp:217] Top shape: 48 832 7 7 (1956864)
I0327 09:08:26.421277  2326 net.cpp:217] Top shape: 48 832 7 7 (1956864)
I0327 09:08:26.421285  2326 net.cpp:225] Memory required for data: 2584575752
I0327 09:08:26.421293  2326 layer_factory.hpp:114] Creating layer inception_5a/1x1
I0327 09:08:26.421321  2326 net.cpp:160] Creating Layer inception_5a/1x1
I0327 09:08:26.421337  2326 net.cpp:596] inception_5a/1x1 <- pool4/3x3_s2_pool4/3x3_s2_0_split_0
I0327 09:08:26.421352  2326 net.cpp:570] inception_5a/1x1 -> inception_5a/1x1
I0327 09:08:26.446696  2326 net.cpp:210] Setting up inception_5a/1x1
I0327 09:08:26.446784  2326 net.cpp:217] Top shape: 48 256 7 7 (602112)
I0327 09:08:26.446794  2326 net.cpp:225] Memory required for data: 2586984200
I0327 09:08:26.446822  2326 layer_factory.hpp:114] Creating layer inception_5a/relu_1x1
I0327 09:08:26.446851  2326 net.cpp:160] Creating Layer inception_5a/relu_1x1
I0327 09:08:26.446866  2326 net.cpp:596] inception_5a/relu_1x1 <- inception_5a/1x1
I0327 09:08:26.446890  2326 net.cpp:557] inception_5a/relu_1x1 -> inception_5a/1x1 (in-place)
I0327 09:08:26.446916  2326 net.cpp:210] Setting up inception_5a/relu_1x1
I0327 09:08:26.446928  2326 net.cpp:217] Top shape: 48 256 7 7 (602112)
I0327 09:08:26.446936  2326 net.cpp:225] Memory required for data: 2589392648
I0327 09:08:26.446974  2326 layer_factory.hpp:114] Creating layer inception_5a/3x3_reduce
I0327 09:08:26.447000  2326 net.cpp:160] Creating Layer inception_5a/3x3_reduce
I0327 09:08:26.447011  2326 net.cpp:596] inception_5a/3x3_reduce <- pool4/3x3_s2_pool4/3x3_s2_0_split_1
I0327 09:08:26.447033  2326 net.cpp:570] inception_5a/3x3_reduce -> inception_5a/3x3_reduce
I0327 09:08:26.464414  2326 net.cpp:210] Setting up inception_5a/3x3_reduce
I0327 09:08:26.464504  2326 net.cpp:217] Top shape: 48 160 7 7 (376320)
I0327 09:08:26.464514  2326 net.cpp:225] Memory required for data: 2590897928
I0327 09:08:26.464543  2326 layer_factory.hpp:114] Creating layer inception_5a/relu_3x3_reduce
I0327 09:08:26.464570  2326 net.cpp:160] Creating Layer inception_5a/relu_3x3_reduce
I0327 09:08:26.464586  2326 net.cpp:596] inception_5a/relu_3x3_reduce <- inception_5a/3x3_reduce
I0327 09:08:26.464603  2326 net.cpp:557] inception_5a/relu_3x3_reduce -> inception_5a/3x3_reduce (in-place)
I0327 09:08:26.464629  2326 net.cpp:210] Setting up inception_5a/relu_3x3_reduce
I0327 09:08:26.464640  2326 net.cpp:217] Top shape: 48 160 7 7 (376320)
I0327 09:08:26.464649  2326 net.cpp:225] Memory required for data: 2592403208
I0327 09:08:26.464658  2326 layer_factory.hpp:114] Creating layer inception_5a/3x3
I0327 09:08:26.464684  2326 net.cpp:160] Creating Layer inception_5a/3x3
I0327 09:08:26.464694  2326 net.cpp:596] inception_5a/3x3 <- inception_5a/3x3_reduce
I0327 09:08:26.464712  2326 net.cpp:570] inception_5a/3x3 -> inception_5a/3x3
I0327 09:08:26.515100  2326 net.cpp:210] Setting up inception_5a/3x3
I0327 09:08:26.515194  2326 net.cpp:217] Top shape: 48 320 7 7 (752640)
I0327 09:08:26.515204  2326 net.cpp:225] Memory required for data: 2595413768
I0327 09:08:26.515233  2326 layer_factory.hpp:114] Creating layer inception_5a/relu_3x3
I0327 09:08:26.515260  2326 net.cpp:160] Creating Layer inception_5a/relu_3x3
I0327 09:08:26.515276  2326 net.cpp:596] inception_5a/relu_3x3 <- inception_5a/3x3
I0327 09:08:26.515300  2326 net.cpp:557] inception_5a/relu_3x3 -> inception_5a/3x3 (in-place)
I0327 09:08:26.515326  2326 net.cpp:210] Setting up inception_5a/relu_3x3
I0327 09:08:26.515336  2326 net.cpp:217] Top shape: 48 320 7 7 (752640)
I0327 09:08:26.515346  2326 net.cpp:225] Memory required for data: 2598424328
I0327 09:08:26.515354  2326 layer_factory.hpp:114] Creating layer inception_5a/5x5_reduce
I0327 09:08:26.515382  2326 net.cpp:160] Creating Layer inception_5a/5x5_reduce
I0327 09:08:26.515393  2326 net.cpp:596] inception_5a/5x5_reduce <- pool4/3x3_s2_pool4/3x3_s2_0_split_2
I0327 09:08:26.515408  2326 net.cpp:570] inception_5a/5x5_reduce -> inception_5a/5x5_reduce
I0327 09:08:26.523133  2326 net.cpp:210] Setting up inception_5a/5x5_reduce
I0327 09:08:26.523221  2326 net.cpp:217] Top shape: 48 32 7 7 (75264)
I0327 09:08:26.523231  2326 net.cpp:225] Memory required for data: 2598725384
I0327 09:08:26.523258  2326 layer_factory.hpp:114] Creating layer inception_5a/relu_5x5_reduce
I0327 09:08:26.523289  2326 net.cpp:160] Creating Layer inception_5a/relu_5x5_reduce
I0327 09:08:26.523306  2326 net.cpp:596] inception_5a/relu_5x5_reduce <- inception_5a/5x5_reduce
I0327 09:08:26.523342  2326 net.cpp:557] inception_5a/relu_5x5_reduce -> inception_5a/5x5_reduce (in-place)
I0327 09:08:26.523368  2326 net.cpp:210] Setting up inception_5a/relu_5x5_reduce
I0327 09:08:26.523380  2326 net.cpp:217] Top shape: 48 32 7 7 (75264)
I0327 09:08:26.523389  2326 net.cpp:225] Memory required for data: 2599026440
I0327 09:08:26.523397  2326 layer_factory.hpp:114] Creating layer inception_5a/5x5
I0327 09:08:26.523427  2326 net.cpp:160] Creating Layer inception_5a/5x5
I0327 09:08:26.523437  2326 net.cpp:596] inception_5a/5x5 <- inception_5a/5x5_reduce
I0327 09:08:26.523453  2326 net.cpp:570] inception_5a/5x5 -> inception_5a/5x5
I0327 09:08:26.537799  2326 net.cpp:210] Setting up inception_5a/5x5
I0327 09:08:26.537888  2326 net.cpp:217] Top shape: 48 128 7 7 (301056)
I0327 09:08:26.537899  2326 net.cpp:225] Memory required for data: 2600230664
I0327 09:08:26.537925  2326 layer_factory.hpp:114] Creating layer inception_5a/relu_5x5
I0327 09:08:26.537984  2326 net.cpp:160] Creating Layer inception_5a/relu_5x5
I0327 09:08:26.538002  2326 net.cpp:596] inception_5a/relu_5x5 <- inception_5a/5x5
I0327 09:08:26.538028  2326 net.cpp:557] inception_5a/relu_5x5 -> inception_5a/5x5 (in-place)
I0327 09:08:26.538054  2326 net.cpp:210] Setting up inception_5a/relu_5x5
I0327 09:08:26.538066  2326 net.cpp:217] Top shape: 48 128 7 7 (301056)
I0327 09:08:26.538074  2326 net.cpp:225] Memory required for data: 2601434888
I0327 09:08:26.538084  2326 layer_factory.hpp:114] Creating layer inception_5a/pool
I0327 09:08:26.538144  2326 net.cpp:160] Creating Layer inception_5a/pool
I0327 09:08:26.538157  2326 net.cpp:596] inception_5a/pool <- pool4/3x3_s2_pool4/3x3_s2_0_split_3
I0327 09:08:26.538174  2326 net.cpp:570] inception_5a/pool -> inception_5a/pool
I0327 09:08:26.538202  2326 net.cpp:210] Setting up inception_5a/pool
I0327 09:08:26.538213  2326 net.cpp:217] Top shape: 48 832 7 7 (1956864)
I0327 09:08:26.538221  2326 net.cpp:225] Memory required for data: 2609262344
I0327 09:08:26.538230  2326 layer_factory.hpp:114] Creating layer inception_5a/pool_proj
I0327 09:08:26.538259  2326 net.cpp:160] Creating Layer inception_5a/pool_proj
I0327 09:08:26.538269  2326 net.cpp:596] inception_5a/pool_proj <- inception_5a/pool
I0327 09:08:26.538285  2326 net.cpp:570] inception_5a/pool_proj -> inception_5a/pool_proj
I0327 09:08:26.553009  2326 net.cpp:210] Setting up inception_5a/pool_proj
I0327 09:08:26.553103  2326 net.cpp:217] Top shape: 48 128 7 7 (301056)
I0327 09:08:26.553114  2326 net.cpp:225] Memory required for data: 2610466568
I0327 09:08:26.553146  2326 layer_factory.hpp:114] Creating layer inception_5a/relu_pool_proj
I0327 09:08:26.553174  2326 net.cpp:160] Creating Layer inception_5a/relu_pool_proj
I0327 09:08:26.553190  2326 net.cpp:596] inception_5a/relu_pool_proj <- inception_5a/pool_proj
I0327 09:08:26.553208  2326 net.cpp:557] inception_5a/relu_pool_proj -> inception_5a/pool_proj (in-place)
I0327 09:08:26.553233  2326 net.cpp:210] Setting up inception_5a/relu_pool_proj
I0327 09:08:26.553246  2326 net.cpp:217] Top shape: 48 128 7 7 (301056)
I0327 09:08:26.553253  2326 net.cpp:225] Memory required for data: 2611670792
I0327 09:08:26.553262  2326 layer_factory.hpp:114] Creating layer inception_5a/output
I0327 09:08:26.553277  2326 net.cpp:160] Creating Layer inception_5a/output
I0327 09:08:26.553287  2326 net.cpp:596] inception_5a/output <- inception_5a/1x1
I0327 09:08:26.553299  2326 net.cpp:596] inception_5a/output <- inception_5a/3x3
I0327 09:08:26.553310  2326 net.cpp:596] inception_5a/output <- inception_5a/5x5
I0327 09:08:26.553320  2326 net.cpp:596] inception_5a/output <- inception_5a/pool_proj
I0327 09:08:26.553338  2326 net.cpp:570] inception_5a/output -> inception_5a/output
I0327 09:08:26.553359  2326 net.cpp:210] Setting up inception_5a/output
I0327 09:08:26.553370  2326 net.cpp:217] Top shape: 48 832 7 7 (1956864)
I0327 09:08:26.553380  2326 net.cpp:225] Memory required for data: 2619498248
I0327 09:08:26.553387  2326 layer_factory.hpp:114] Creating layer inception_5a/output_inception_5a/output_0_split
I0327 09:08:26.553419  2326 net.cpp:160] Creating Layer inception_5a/output_inception_5a/output_0_split
I0327 09:08:26.553429  2326 net.cpp:596] inception_5a/output_inception_5a/output_0_split <- inception_5a/output
I0327 09:08:26.553442  2326 net.cpp:570] inception_5a/output_inception_5a/output_0_split -> inception_5a/output_inception_5a/output_0_split_0
I0327 09:08:26.553457  2326 net.cpp:570] inception_5a/output_inception_5a/output_0_split -> inception_5a/output_inception_5a/output_0_split_1
I0327 09:08:26.553472  2326 net.cpp:570] inception_5a/output_inception_5a/output_0_split -> inception_5a/output_inception_5a/output_0_split_2
I0327 09:08:26.553486  2326 net.cpp:570] inception_5a/output_inception_5a/output_0_split -> inception_5a/output_inception_5a/output_0_split_3
I0327 09:08:26.553503  2326 net.cpp:210] Setting up inception_5a/output_inception_5a/output_0_split
I0327 09:08:26.553514  2326 net.cpp:217] Top shape: 48 832 7 7 (1956864)
I0327 09:08:26.553541  2326 net.cpp:217] Top shape: 48 832 7 7 (1956864)
I0327 09:08:26.553552  2326 net.cpp:217] Top shape: 48 832 7 7 (1956864)
I0327 09:08:26.553562  2326 net.cpp:217] Top shape: 48 832 7 7 (1956864)
I0327 09:08:26.553570  2326 net.cpp:225] Memory required for data: 2650808072
I0327 09:08:26.553580  2326 layer_factory.hpp:114] Creating layer inception_5b/1x1
I0327 09:08:26.553607  2326 net.cpp:160] Creating Layer inception_5b/1x1
I0327 09:08:26.553617  2326 net.cpp:596] inception_5b/1x1 <- inception_5a/output_inception_5a/output_0_split_0
I0327 09:08:26.553630  2326 net.cpp:570] inception_5b/1x1 -> inception_5b/1x1
I0327 09:08:26.588687  2326 net.cpp:210] Setting up inception_5b/1x1
I0327 09:08:26.588778  2326 net.cpp:217] Top shape: 48 384 7 7 (903168)
I0327 09:08:26.588788  2326 net.cpp:225] Memory required for data: 2654420744
I0327 09:08:26.588817  2326 layer_factory.hpp:114] Creating layer inception_5b/relu_1x1
I0327 09:08:26.588845  2326 net.cpp:160] Creating Layer inception_5b/relu_1x1
I0327 09:08:26.588860  2326 net.cpp:596] inception_5b/relu_1x1 <- inception_5b/1x1
I0327 09:08:26.588877  2326 net.cpp:557] inception_5b/relu_1x1 -> inception_5b/1x1 (in-place)
I0327 09:08:26.588903  2326 net.cpp:210] Setting up inception_5b/relu_1x1
I0327 09:08:26.588914  2326 net.cpp:217] Top shape: 48 384 7 7 (903168)
I0327 09:08:26.588923  2326 net.cpp:225] Memory required for data: 2658033416
I0327 09:08:26.588932  2326 layer_factory.hpp:114] Creating layer inception_5b/3x3_reduce
I0327 09:08:26.588958  2326 net.cpp:160] Creating Layer inception_5b/3x3_reduce
I0327 09:08:26.588969  2326 net.cpp:596] inception_5b/3x3_reduce <- inception_5a/output_inception_5a/output_0_split_1
I0327 09:08:26.588990  2326 net.cpp:570] inception_5b/3x3_reduce -> inception_5b/3x3_reduce
I0327 09:08:26.609375  2326 net.cpp:210] Setting up inception_5b/3x3_reduce
I0327 09:08:26.609465  2326 net.cpp:217] Top shape: 48 192 7 7 (451584)
I0327 09:08:26.609477  2326 net.cpp:225] Memory required for data: 2659839752
I0327 09:08:26.609504  2326 layer_factory.hpp:114] Creating layer inception_5b/relu_3x3_reduce
I0327 09:08:26.609531  2326 net.cpp:160] Creating Layer inception_5b/relu_3x3_reduce
I0327 09:08:26.609547  2326 net.cpp:596] inception_5b/relu_3x3_reduce <- inception_5b/3x3_reduce
I0327 09:08:26.609565  2326 net.cpp:557] inception_5b/relu_3x3_reduce -> inception_5b/3x3_reduce (in-place)
I0327 09:08:26.609591  2326 net.cpp:210] Setting up inception_5b/relu_3x3_reduce
I0327 09:08:26.609602  2326 net.cpp:217] Top shape: 48 192 7 7 (451584)
I0327 09:08:26.609611  2326 net.cpp:225] Memory required for data: 2661646088
I0327 09:08:26.609619  2326 layer_factory.hpp:114] Creating layer inception_5b/3x3
I0327 09:08:26.609650  2326 net.cpp:160] Creating Layer inception_5b/3x3
I0327 09:08:26.609661  2326 net.cpp:596] inception_5b/3x3 <- inception_5b/3x3_reduce
I0327 09:08:26.609674  2326 net.cpp:570] inception_5b/3x3 -> inception_5b/3x3
I0327 09:08:26.680686  2326 net.cpp:210] Setting up inception_5b/3x3
I0327 09:08:26.680784  2326 net.cpp:217] Top shape: 48 384 7 7 (903168)
I0327 09:08:26.680812  2326 net.cpp:225] Memory required for data: 2665258760
I0327 09:08:26.680842  2326 layer_factory.hpp:114] Creating layer inception_5b/relu_3x3
I0327 09:08:26.680869  2326 net.cpp:160] Creating Layer inception_5b/relu_3x3
I0327 09:08:26.680886  2326 net.cpp:596] inception_5b/relu_3x3 <- inception_5b/3x3
I0327 09:08:26.680903  2326 net.cpp:557] inception_5b/relu_3x3 -> inception_5b/3x3 (in-place)
I0327 09:08:26.680929  2326 net.cpp:210] Setting up inception_5b/relu_3x3
I0327 09:08:26.680940  2326 net.cpp:217] Top shape: 48 384 7 7 (903168)
I0327 09:08:26.680948  2326 net.cpp:225] Memory required for data: 2668871432
I0327 09:08:26.680958  2326 layer_factory.hpp:114] Creating layer inception_5b/5x5_reduce
I0327 09:08:26.680984  2326 net.cpp:160] Creating Layer inception_5b/5x5_reduce
I0327 09:08:26.680994  2326 net.cpp:596] inception_5b/5x5_reduce <- inception_5a/output_inception_5a/output_0_split_2
I0327 09:08:26.681042  2326 net.cpp:570] inception_5b/5x5_reduce -> inception_5b/5x5_reduce
I0327 09:08:26.689872  2326 net.cpp:210] Setting up inception_5b/5x5_reduce
I0327 09:08:26.689959  2326 net.cpp:217] Top shape: 48 48 7 7 (112896)
I0327 09:08:26.689968  2326 net.cpp:225] Memory required for data: 2669323016
I0327 09:08:26.689996  2326 layer_factory.hpp:114] Creating layer inception_5b/relu_5x5_reduce
I0327 09:08:26.690035  2326 net.cpp:160] Creating Layer inception_5b/relu_5x5_reduce
I0327 09:08:26.690053  2326 net.cpp:596] inception_5b/relu_5x5_reduce <- inception_5b/5x5_reduce
I0327 09:08:26.690071  2326 net.cpp:557] inception_5b/relu_5x5_reduce -> inception_5b/5x5_reduce (in-place)
I0327 09:08:26.690098  2326 net.cpp:210] Setting up inception_5b/relu_5x5_reduce
I0327 09:08:26.690109  2326 net.cpp:217] Top shape: 48 48 7 7 (112896)
I0327 09:08:26.690117  2326 net.cpp:225] Memory required for data: 2669774600
I0327 09:08:26.690131  2326 layer_factory.hpp:114] Creating layer inception_5b/5x5
I0327 09:08:26.690161  2326 net.cpp:160] Creating Layer inception_5b/5x5
I0327 09:08:26.690171  2326 net.cpp:596] inception_5b/5x5 <- inception_5b/5x5_reduce
I0327 09:08:26.690188  2326 net.cpp:570] inception_5b/5x5 -> inception_5b/5x5
I0327 09:08:26.710522  2326 net.cpp:210] Setting up inception_5b/5x5
I0327 09:08:26.710614  2326 net.cpp:217] Top shape: 48 128 7 7 (301056)
I0327 09:08:26.710624  2326 net.cpp:225] Memory required for data: 2670978824
I0327 09:08:26.710652  2326 layer_factory.hpp:114] Creating layer inception_5b/relu_5x5
I0327 09:08:26.710680  2326 net.cpp:160] Creating Layer inception_5b/relu_5x5
I0327 09:08:26.710696  2326 net.cpp:596] inception_5b/relu_5x5 <- inception_5b/5x5
I0327 09:08:26.710723  2326 net.cpp:557] inception_5b/relu_5x5 -> inception_5b/5x5 (in-place)
I0327 09:08:26.710749  2326 net.cpp:210] Setting up inception_5b/relu_5x5
I0327 09:08:26.710762  2326 net.cpp:217] Top shape: 48 128 7 7 (301056)
I0327 09:08:26.710769  2326 net.cpp:225] Memory required for data: 2672183048
I0327 09:08:26.710778  2326 layer_factory.hpp:114] Creating layer inception_5b/pool
I0327 09:08:26.710834  2326 net.cpp:160] Creating Layer inception_5b/pool
I0327 09:08:26.710845  2326 net.cpp:596] inception_5b/pool <- inception_5a/output_inception_5a/output_0_split_3
I0327 09:08:26.710861  2326 net.cpp:570] inception_5b/pool -> inception_5b/pool
I0327 09:08:26.710887  2326 net.cpp:210] Setting up inception_5b/pool
I0327 09:08:26.710899  2326 net.cpp:217] Top shape: 48 832 7 7 (1956864)
I0327 09:08:26.710908  2326 net.cpp:225] Memory required for data: 2680010504
I0327 09:08:26.710916  2326 layer_factory.hpp:114] Creating layer inception_5b/pool_proj
I0327 09:08:26.710945  2326 net.cpp:160] Creating Layer inception_5b/pool_proj
I0327 09:08:26.710955  2326 net.cpp:596] inception_5b/pool_proj <- inception_5b/pool
I0327 09:08:26.710973  2326 net.cpp:570] inception_5b/pool_proj -> inception_5b/pool_proj
I0327 09:08:26.725476  2326 net.cpp:210] Setting up inception_5b/pool_proj
I0327 09:08:26.725564  2326 net.cpp:217] Top shape: 48 128 7 7 (301056)
I0327 09:08:26.725574  2326 net.cpp:225] Memory required for data: 2681214728
I0327 09:08:26.725620  2326 layer_factory.hpp:114] Creating layer inception_5b/relu_pool_proj
I0327 09:08:26.725647  2326 net.cpp:160] Creating Layer inception_5b/relu_pool_proj
I0327 09:08:26.725663  2326 net.cpp:596] inception_5b/relu_pool_proj <- inception_5b/pool_proj
I0327 09:08:26.725685  2326 net.cpp:557] inception_5b/relu_pool_proj -> inception_5b/pool_proj (in-place)
I0327 09:08:26.725711  2326 net.cpp:210] Setting up inception_5b/relu_pool_proj
I0327 09:08:26.725723  2326 net.cpp:217] Top shape: 48 128 7 7 (301056)
I0327 09:08:26.725731  2326 net.cpp:225] Memory required for data: 2682418952
I0327 09:08:26.725740  2326 layer_factory.hpp:114] Creating layer inception_5b/output
I0327 09:08:26.725755  2326 net.cpp:160] Creating Layer inception_5b/output
I0327 09:08:26.725766  2326 net.cpp:596] inception_5b/output <- inception_5b/1x1
I0327 09:08:26.725777  2326 net.cpp:596] inception_5b/output <- inception_5b/3x3
I0327 09:08:26.725805  2326 net.cpp:596] inception_5b/output <- inception_5b/5x5
I0327 09:08:26.725817  2326 net.cpp:596] inception_5b/output <- inception_5b/pool_proj
I0327 09:08:26.725829  2326 net.cpp:570] inception_5b/output -> inception_5b/output
I0327 09:08:26.725849  2326 net.cpp:210] Setting up inception_5b/output
I0327 09:08:26.725862  2326 net.cpp:217] Top shape: 48 1024 7 7 (2408448)
I0327 09:08:26.725869  2326 net.cpp:225] Memory required for data: 2692052744
I0327 09:08:26.725878  2326 layer_factory.hpp:114] Creating layer pool5/7x7_s1
I0327 09:08:26.725927  2326 net.cpp:160] Creating Layer pool5/7x7_s1
I0327 09:08:26.725939  2326 net.cpp:596] pool5/7x7_s1 <- inception_5b/output
I0327 09:08:26.725951  2326 net.cpp:570] pool5/7x7_s1 -> pool5/7x7_s1
I0327 09:08:26.725971  2326 net.cpp:210] Setting up pool5/7x7_s1
I0327 09:08:26.725982  2326 net.cpp:217] Top shape: 48 1024 1 1 (49152)
I0327 09:08:26.725991  2326 net.cpp:225] Memory required for data: 2692249352
I0327 09:08:26.725999  2326 layer_factory.hpp:114] Creating layer pool5/drop_7x7_s1
I0327 09:08:26.726027  2326 net.cpp:160] Creating Layer pool5/drop_7x7_s1
I0327 09:08:26.726038  2326 net.cpp:596] pool5/drop_7x7_s1 <- pool5/7x7_s1
I0327 09:08:26.726050  2326 net.cpp:557] pool5/drop_7x7_s1 -> pool5/7x7_s1 (in-place)
I0327 09:08:26.726066  2326 net.cpp:210] Setting up pool5/drop_7x7_s1
I0327 09:08:26.726078  2326 net.cpp:217] Top shape: 48 1024 1 1 (49152)
I0327 09:08:26.726085  2326 net.cpp:225] Memory required for data: 2692445960
I0327 09:08:26.726094  2326 layer_factory.hpp:114] Creating layer loss3/classifier
I0327 09:08:26.726116  2326 net.cpp:160] Creating Layer loss3/classifier
I0327 09:08:26.726131  2326 net.cpp:596] loss3/classifier <- pool5/7x7_s1
I0327 09:08:26.726147  2326 net.cpp:570] loss3/classifier -> loss3/classifier
I0327 09:08:26.743818  2326 net.cpp:210] Setting up loss3/classifier
I0327 09:08:26.743883  2326 net.cpp:217] Top shape: 48 1000 (48000)
I0327 09:08:26.743893  2326 net.cpp:225] Memory required for data: 2692637960
I0327 09:08:26.743916  2326 layer_factory.hpp:114] Creating layer loss3/loss3
I0327 09:08:26.743937  2326 net.cpp:160] Creating Layer loss3/loss3
I0327 09:08:26.743950  2326 net.cpp:596] loss3/loss3 <- loss3/classifier
I0327 09:08:26.743964  2326 net.cpp:596] loss3/loss3 <- label_data_1_split_2
I0327 09:08:26.743978  2326 net.cpp:570] loss3/loss3 -> loss3/loss3
…
I0327 09:08:26.758098  2326 net.cpp:484] The NetState phase (1) differed from the phase (0) specified by a rule in layer data
I0327 09:08:26.765857  2326 net.cpp:120] Initializing net from parameters: 
name: "GoogleNet"
state {
  phase: TEST
}
layer {
  name: "data"
  type: "Data"
  top: "data"
  top: "label"
  include {
    phase: TEST
  }
  transform_param {
    mirror: false
    crop_size: 224
    mean_value: 104
    mean_value: 117
    mean_value: 123
  }
  data_param {
    source: "/home/user/user/LIBRARIES/caffeLibs/caffe/examples/imagenet/ilsvrc12_val_lmdb"
    batch_size: 50
    backend: LMDB
  }
}
layer {
  name: "label_data_1_split"
  type: "Split"
  bottom: "label"
  top: "label_data_1_split_0"
  top: "label_data_1_split_1"
  top: "label_data_1_split_2"
  top: "label_data_1_split_3"
  top: "label_data_1_split_4"
  top: "label_data_1_split_5"
  top: "label_data_1_split_6"
  top: "label_data_1_split_7"
  top: "label_data_1_split_8"
}
layer {
  name: "conv1/7x7_s2"
  type: "Convolution"
  bottom: "data"
  top: "conv1/7x7_s2"
  param {
    lr_mult: 1
    decay_mult: 1
  }
  param {
    lr_mult: 2
    decay_mult: 0
  }
  convolution_param {
    num_output: 64
    pad: 3
    kernel_size: 7
    stride: 2
    weight_filler {
      type: "xavier"
    }
    bias_filler {
      type: "constant"
      value: 0.2
    }
  }
}
layer {
  name: "conv1/relu_7x7"
  type: "ReLU"
  bottom: "conv1/7x7_s2"
  top: "conv1/7x7_s2"
}
layer {
  name: "pool1/3x3_s2"
  type: "Pooling"
  bottom: "conv1/7x7_s2"
  top: "pool1/3x3_s2"
  pooling_param {
    pool: MAX
    kernel_size: 3
    stride: 2
  }
}
layer {
  name: "pool1/norm1"
  type: "LRN"
  bottom: "pool1/3x3_s2"
  top: "pool1/norm1"
  lrn_param {
    local_size: 5
    alpha: 0.0001
    beta: 0.75
  }
}
layer {
  name: "conv2/3x3_reduce"
  type: "Convolution"
  bottom: "pool1/norm1"
  top: "conv2/3x3_reduce"
  param {
    lr_mult: 1
    decay_mult: 1
  }
  param {
    lr_mult: 2
    decay_mult: 0
  }
  convolution_param {
    num_output: 64
    kernel_size: 1
    weight_filler {
      type: "xavier"
    }
    bias_filler {
      type: "constant"
      value: 0.2
    }
  }
}
layer {
  name: "conv2/relu_3x3_reduce"
  type: "ReLU"
  bottom: "conv2/3x3_reduce"
  top: "conv2/3x3_reduce"
}
layer {
  name: "conv2/3x3"
  type: "Convolution"
  bottom: "conv2/3x3_reduce"
  top: "conv2/3x3"
  param {
    lr_mult: 1
    decay_mult: 1
  }
  param {
    lr_mult: 2
    decay_mult: 0
  }
  convolution_param {
    num_output: 192
    pad: 1
    kernel_size: 3
    weight_filler {
      type: "xavier"
    }
    bias_filler {
      type: "constant"
      value: 0.2
    }
  }
}
layer {
  name: "conv2/relu_3x3"
  type: "ReLU"
  bottom: "conv2/3x3"
  top: "conv2/3x3"
}
layer {
  name: "conv2/norm2"
  type: "LRN"
  bottom: "conv2/3x3"
  top: "conv2/norm2"
  lrn_param {
    local_size: 5
    alpha: 0.0001
    beta: 0.75
  }
}
layer {
  name: "pool2/3x3_s2"
  type: "Pooling"
  bottom: "conv2/norm2"
  top: "pool2/3x3_s2"
  pooling_param {
    pool: MAX
    kernel_size: 3
    stride: 2
  }
}
layer {
  name: "pool2/3x3_s2_pool2/3x3_s2_0_split"
  type: "Split"
  bottom: "pool2/3x3_s2"
  top: "pool2/3x3_s2_pool2/3x3_s2_0_split_0"
  top: "pool2/3x3_s2_pool2/3x3_s2_0_split_1"
  top: "pool2/3x3_s2_pool2/3x3_s2_0_split_2"
  top: "pool2/3x3_s2_pool2/3x3_s2_0_split_3"
}
layer {
  name: "inception_3a/1x1"
  type: "Convolution"
  bottom: "pool2/3x3_s2_pool2/3x3_s2_0_split_0"
  top: "inception_3a/1x1"
  param {
    lr_mult: 1
    decay_mult: 1
  }
  param {
    lr_mult: 2
    decay_mult: 0
  }
  convolution_param {
    num_output: 64
    kernel_size: 1
    weight_filler {
      type: "xavier"
    }
    bias_filler {
      type: "constant"
      value: 0.2
    }
  }
}
layer {
  name: "inception_3a/relu_1x1"
  type: "ReLU"
  bottom: "inception_3a/1x1"
  top: "inception_3a/1x1"
}
layer {
  name: "inception_3a/3x3_reduce"
  type: "Convolution"
  bottom: "pool2/3x3_s2_pool2/3x3_s2_0_split_1"
  top: "inception_3a/3x3_reduce"
  param {
    lr_mult: 1
    decay_mult: 1
  }
  param {
    lr_mult: 2
    decay_mult: 0
  }
  convolution_param {
    num_output: 96
    kernel_size: 1
    weight_filler {
      type: "xavier"
    }
    bias_filler {
      type: "constant"
      value: 0.2
    }
  }
}
layer {
  name: "inception_3a/relu_3x3_reduce"
  type: "ReLU"
  bottom: "inception_3a/3x3_reduce"
  top: "inception_3a/3x3_reduce"
}
layer {
  name: "inception_3a/3x3"
  type: "Convolution"
  bottom: "inception_3a/3x3_reduce"
  top: "inception_3a/3x3"
  param {
    lr_mult: 1
    decay_mult: 1
  }
  param {
    lr_mult: 2
    decay_mult: 0
  }
  convolution_param {
    num_output: 128
    pad: 1
    kernel_size: 3
    weight_filler {
      type: "xavier"
    }
    bias_filler {
      type: "constant"
      value: 0.2
    }
  }
}
layer {
  name: "inception_3a/relu_3x3"
  type: "ReLU"
  bottom: "inception_3a/3x3"
  top: "inception_3a/3x3"
}
layer {
  name: "inception_3a/5x5_reduce"
  type: "Convolution"
  bottom: "pool2/3x3_s2_pool2/3x3_s2_0_split_2"
  top: "inception_3a/5x5_reduce"
  param {
    lr_mult: 1
    decay_mult: 1
  }
  param {
    lr_mult: 2
    decay_mult: 0
  }
  convolution_param {
    num_output: 16
    kernel_size: 1
    weight_filler {
      type: "xavier"
    }
    bias_filler {
      type: "constant"
      value: 0.2
    }
  }
}
layer {
  name: "inception_3a/relu_5x5_reduce"
  type: "ReLU"
  bottom: "inception_3a/5x5_reduce"
  top: "inception_3a/5x5_reduce"
}
layer {
  name: "inception_3a/5x5"
  type: "Convolution"
  bottom: "inception_3a/5x5_reduce"
  top: "inception_3a/5x5"
  param {
    lr_mult: 1
    decay_mult: 1
  }
  param {
    lr_mult: 2
    decay_mult: 0
  }
  convolution_param {
    num_output: 32
    pad: 2
    kernel_size: 5
    weight_filler {
      type: "xavier"
    }
    bias_filler {
      type: "constant"
      value: 0.2
    }
  }
}
layer {
  name: "inception_3a/relu_5x5"
  type: "ReLU"
  bottom: "inception_3a/5x5"
  top: "inception_3a/5x5"
}
layer {
  name: "inception_3a/pool"
  type: "Pooling"
  bottom: "pool2/3x3_s2_pool2/3x3_s2_0_split_3"
  top: "inception_3a/pool"
  pooling_param {
    pool: MAX
    kernel_size: 3
    stride: 1
    pad: 1
  }
}
layer {
  name: "inception_3a/pool_proj"
  type: "Convolution"
  bottom: "inception_3a/pool"
  top: "inception_3a/pool_proj"
  param {
    lr_mult: 1
    decay_mult: 1
  }
  param {
    lr_mult: 2
    decay_mult: 0
  }
  convolution_param {
    num_output: 32
    kernel_size: 1
    weight_filler {
      type: "xavier"
    }
    bias_filler {
      type: "constant"
      value: 0.2
    }
  }
}
layer {
  name: "inception_3a/relu_pool_proj"
  type: "ReLU"
  bottom: "inception_3a/pool_proj"
  top: "inception_3a/pool_proj"
}
layer {
  name: "inception_3a/output"
  type: "Concat"
  bottom: "inception_3a/1x1"
  bottom: "inception_3a/3x3"
  bottom: "inception_3a/5x5"
  bottom: "inception_3a/pool_proj"
  top: "inception_3a/output"
}
layer {
  name: "inception_3a/output_inception_3a/output_0_split"
  type: "Split"
  bottom: "inception_3a/output"
  top: "inception_3a/output_inception_3a/output_0_split_0"
  top: "inception_3a/output_inception_3a/output_0_split_1"
  top: "inception_3a/output_inception_3a/output_0_split_2"
  top: "inception_3a/output_inception_3a/output_0_split_3"
}
layer {
  name: "inception_3b/1x1"
  type: "Convolution"
  bottom: "inception_3a/output_inception_3a/output_0_split_0"
  top: "inception_3b/1x1"
  param {
    lr_mult: 1
    decay_mult: 1
  }
  param {
    lr_mult: 2
    decay_mult: 0
  }
  convolution_param {
    num_output: 128
    kernel_size: 1
    weight_filler {
      type: "xavier"
    }
    bias_filler {
      type: "constant"
      value: 0.2
    }
  }
}
layer {
  name: "inception_3b/relu_1x1"
  type: "ReLU"
  bottom: "inception_3b/1x1"
  top: "inception_3b/1x1"
}
layer {
  name: "inception_3b/3x3_reduce"
  type: "Convolution"
  bottom: "inception_3a/output_inception_3a/output_0_split_1"
  top: "inception_3b/3x3_reduce"
  param {
    lr_mult: 1
    decay_mult: 1
  }
  param {
    lr_mult: 2
    decay_mult: 0
  }
  convolution_param {
    num_output: 128
    kernel_size: 1
    weight_filler {
      type: "xavier"
    }
    bias_filler {
      type: "constant"
      value: 0.2
    }
  }
}
layer {
  name: "inception_3b/relu_3x3_reduce"
  type: "ReLU"
  bottom: "inception_3b/3x3_reduce"
  top: "inception_3b/3x3_reduce"
}
layer {
  name: "inception_3b/3x3"
  type: "Convolution"
  bottom: "inception_3b/3x3_reduce"
  top: "inception_3b/3x3"
  param {
    lr_mult: 1
    decay_mult: 1
  }
  param {
    lr_mult: 2
    decay_mult: 0
  }
  convolution_param {
    num_output: 192
    pad: 1
    kernel_size: 3
    weight_filler {
      type: "xavier"
    }
    bias_filler {
      type: "constant"
      value: 0.2
    }
  }
}
layer {
  name: "inception_3b/relu_3x3"
  type: "ReLU"
  bottom: "inception_3b/3x3"
  top: "inception_3b/3x3"
}
layer {
  name: "inception_3b/5x5_reduce"
  type: "Convolution"
  bottom: "inception_3a/output_inception_3a/output_0_split_2"
  top: "inception_3b/5x5_reduce"
  param {
    lr_mult: 1
    decay_mult: 1
  }
  param {
    lr_mult: 2
    decay_mult: 0
  }
  convolution_param {
    num_output: 32
    kernel_size: 1
    weight_filler {
      type: "xavier"
    }
    bias_filler {
      type: "constant"
      value: 0.2
    }
  }
}
layer {
  name: "inception_3b/relu_5x5_reduce"
  type: "ReLU"
  bottom: "inception_3b/5x5_reduce"
  top: "inception_3b/5x5_reduce"
}
layer {
  name: "inception_3b/5x5"
  type: "Convolution"
  bottom: "inception_3b/5x5_reduce"
  top: "inception_3b/5x5"
  param {
    lr_mult: 1
    decay_mult: 1
  }
  param {
    lr_mult: 2
    decay_mult: 0
  }
  convolution_param {
    num_output: 96
    pad: 2
    kernel_size: 5
    weight_filler {
      type: "xavier"
    }
    bias_filler {
      type: "constant"
      value: 0.2
    }
  }
}
layer {
  name: "inception_3b/relu_5x5"
  type: "ReLU"
  bottom: "inception_3b/5x5"
  top: "inception_3b/5x5"
}
layer {
  name: "inception_3b/pool"
  type: "Pooling"
  bottom: "inception_3a/output_inception_3a/output_0_split_3"
  top: "inception_3b/pool"
  pooling_param {
    pool: MAX
    kernel_size: 3
    stride: 1
    pad: 1
  }
}
layer {
  name: "inception_3b/pool_proj"
  type: "Convolution"
  bottom: "inception_3b/pool"
  top: "inception_3b/pool_proj"
  param {
    lr_mult: 1
    decay_mult: 1
  }
  param {
    lr_mult: 2
    decay_mult: 0
  }
  convolution_param {
    num_output: 64
    kernel_size: 1
    weight_filler {
      type: "xavier"
    }
    bias_filler {
      type: "constant"
      value: 0.2
    }
  }
}
layer {
  name: "inception_3b/relu_pool_proj"
  type: "ReLU"
  bottom: "inception_3b/pool_proj"
  top: "inception_3b/pool_proj"
}
layer {
  name: "inception_3b/output"
  type: "Concat"
  bottom: "inception_3b/1x1"
  bottom: "inception_3b/3x3"
  bottom: "inception_3b/5x5"
  bottom: "inception_3b/pool_proj"
  top: "inception_3b/output"
}
layer {
  name: "pool3/3x3_s2"
  type: "Pooling"
  bottom: "inception_3b/output"
  top: "pool3/3x3_s2"
  pooling_param {
    pool: MAX
    kernel_size: 3
    stride: 2
  }
}
layer {
  name: "pool3/3x3_s2_pool3/3x3_s2_0_split"
  type: "Split"
  bottom: "pool3/3x3_s2"
  top: "pool3/3x3_s2_pool3/3x3_s2_0_split_0"
  top: "pool3/3x3_s2_pool3/3x3_s2_0_split_1"
  top: "pool3/3x3_s2_pool3/3x3_s2_0_split_2"
  top: "pool3/3x3_s2_pool3/3x3_s2_0_split_3"
}
layer {
  name: "inception_4a/1x1"
  type: "Convolution"
  bottom: "pool3/3x3_s2_pool3/3x3_s2_0_split_0"
  top: "inception_4a/1x1"
  param {
    lr_mult: 1
    decay_mult: 1
  }
  param {
    lr_mult: 2
    decay_mult: 0
  }
  convolution_param {
    num_output: 192
    kernel_size: 1
    weight_filler {
      type: "xavier"
    }
    bias_filler {
      type: "constant"
      value: 0.2
    }
  }
}
layer {
  name: "inception_4a/relu_1x1"
  type: "ReLU"
  bottom: "inception_4a/1x1"
  top: "inception_4a/1x1"
}
layer {
  name: "inception_4a/3x3_reduce"
  type: "Convolution"
  bottom: "pool3/3x3_s2_pool3/3x3_s2_0_split_1"
  top: "inception_4a/3x3_reduce"
  param {
    lr_mult: 1
    decay_mult: 1
  }
  param {
    lr_mult: 2
    decay_mult: 0
  }
  convolution_param {
    num_output: 96
    kernel_size: 1
    weight_filler {
      type: "xavier"
    }
    bias_filler {
      type: "constant"
      value: 0.2
    }
  }
}
layer {
  name: "inception_4a/relu_3x3_reduce"
  type: "ReLU"
  bottom: "inception_4a/3x3_reduce"
  top: "inception_4a/3x3_reduce"
}
layer {
  name: "inception_4a/3x3"
  type: "Convolution"
  bottom: "inception_4a/3x3_reduce"
  top: "inception_4a/3x3"
  param {
    lr_mult: 1
    decay_mult: 1
  }
  param {
    lr_mult: 2
    decay_mult: 0
  }
  convolution_param {
    num_output: 208
    pad: 1
    kernel_size: 3
    weight_filler {
      type: "xavier"
    }
    bias_filler {
      type: "constant"
      value: 0.2
    }
  }
}
layer {
  name: "inception_4a/relu_3x3"
  type: "ReLU"
  bottom: "inception_4a/3x3"
  top: "inception_4a/3x3"
}
layer {
  name: "inception_4a/5x5_reduce"
  type: "Convolution"
  bottom: "pool3/3x3_s2_pool3/3x3_s2_0_split_2"
  top: "inception_4a/5x5_reduce"
  param {
    lr_mult: 1
    decay_mult: 1
  }
  param {
    lr_mult: 2
    decay_mult: 0
  }
  convolution_param {
    num_output: 16
    kernel_size: 1
    weight_filler {
      type: "xavier"
    }
    bias_filler {
      type: "constant"
      value: 0.2
    }
  }
}
layer {
  name: "inception_4a/relu_5x5_reduce"
  type: "ReLU"
  bottom: "inception_4a/5x5_reduce"
  top: "inception_4a/5x5_reduce"
}
layer {
  name: "inception_4a/5x5"
  type: "Convolution"
  bottom: "inception_4a/5x5_reduce"
  top: "inception_4a/5x5"
  param {
    lr_mult: 1
    decay_mult: 1
  }
  param {
    lr_mult: 2
    decay_mult: 0
  }
  convolution_param {
    num_output: 48
    pad: 2
…
I0327 09:08:27.951920  2326 layer_factory.hpp:114] Creating layer inception_4c/pool
I0327 09:08:27.951977  2326 net.cpp:160] Creating Layer inception_4c/pool
I0327 09:08:27.951989  2326 net.cpp:596] inception_4c/pool <- inception_4b/output_inception_4b/output_0_split_3
I0327 09:08:27.952005  2326 net.cpp:570] inception_4c/pool -> inception_4c/pool
I0327 09:08:27.952039  2326 net.cpp:210] Setting up inception_4c/pool
I0327 09:08:27.952052  2326 net.cpp:217] Top shape: 50 512 14 14 (5017600)
I0327 09:08:27.952061  2326 net.cpp:225] Memory required for data: 2210363612
I0327 09:08:27.952069  2326 layer_factory.hpp:114] Creating layer inception_4c/pool_proj
I0327 09:08:27.952098  2326 net.cpp:160] Creating Layer inception_4c/pool_proj
I0327 09:08:27.952109  2326 net.cpp:596] inception_4c/pool_proj <- inception_4c/pool
I0327 09:08:27.952149  2326 net.cpp:570] inception_4c/pool_proj -> inception_4c/pool_proj
I0327 09:08:27.964198  2326 net.cpp:210] Setting up inception_4c/pool_proj
I0327 09:08:27.964284  2326 net.cpp:217] Top shape: 50 64 14 14 (627200)
I0327 09:08:27.964294  2326 net.cpp:225] Memory required for data: 2212872412
I0327 09:08:27.964323  2326 layer_factory.hpp:114] Creating layer inception_4c/relu_pool_proj
I0327 09:08:27.964349  2326 net.cpp:160] Creating Layer inception_4c/relu_pool_proj
I0327 09:08:27.964365  2326 net.cpp:596] inception_4c/relu_pool_proj <- inception_4c/pool_proj
I0327 09:08:27.964386  2326 net.cpp:557] inception_4c/relu_pool_proj -> inception_4c/pool_proj (in-place)
I0327 09:08:27.964413  2326 net.cpp:210] Setting up inception_4c/relu_pool_proj
I0327 09:08:27.964424  2326 net.cpp:217] Top shape: 50 64 14 14 (627200)
I0327 09:08:27.964433  2326 net.cpp:225] Memory required for data: 2215381212
I0327 09:08:27.964442  2326 layer_factory.hpp:114] Creating layer inception_4c/output
I0327 09:08:27.964457  2326 net.cpp:160] Creating Layer inception_4c/output
I0327 09:08:27.964468  2326 net.cpp:596] inception_4c/output <- inception_4c/1x1
I0327 09:08:27.964527  2326 net.cpp:596] inception_4c/output <- inception_4c/3x3
I0327 09:08:27.964539  2326 net.cpp:596] inception_4c/output <- inception_4c/5x5
I0327 09:08:27.964550  2326 net.cpp:596] inception_4c/output <- inception_4c/pool_proj
I0327 09:08:27.964562  2326 net.cpp:570] inception_4c/output -> inception_4c/output
I0327 09:08:27.964583  2326 net.cpp:210] Setting up inception_4c/output
I0327 09:08:27.964596  2326 net.cpp:217] Top shape: 50 512 14 14 (5017600)
I0327 09:08:27.964603  2326 net.cpp:225] Memory required for data: 2235451612
I0327 09:08:27.964612  2326 layer_factory.hpp:114] Creating layer inception_4c/output_inception_4c/output_0_split
I0327 09:08:27.964627  2326 net.cpp:160] Creating Layer inception_4c/output_inception_4c/output_0_split
I0327 09:08:27.964635  2326 net.cpp:596] inception_4c/output_inception_4c/output_0_split <- inception_4c/output
I0327 09:08:27.964649  2326 net.cpp:570] inception_4c/output_inception_4c/output_0_split -> inception_4c/output_inception_4c/output_0_split_0
I0327 09:08:27.964665  2326 net.cpp:570] inception_4c/output_inception_4c/output_0_split -> inception_4c/output_inception_4c/output_0_split_1
I0327 09:08:27.964679  2326 net.cpp:570] inception_4c/output_inception_4c/output_0_split -> inception_4c/output_inception_4c/output_0_split_2
I0327 09:08:27.964694  2326 net.cpp:570] inception_4c/output_inception_4c/output_0_split -> inception_4c/output_inception_4c/output_0_split_3
I0327 09:08:27.964710  2326 net.cpp:210] Setting up inception_4c/output_inception_4c/output_0_split
I0327 09:08:27.964725  2326 net.cpp:217] Top shape: 50 512 14 14 (5017600)
I0327 09:08:27.964735  2326 net.cpp:217] Top shape: 50 512 14 14 (5017600)
I0327 09:08:27.964745  2326 net.cpp:217] Top shape: 50 512 14 14 (5017600)
I0327 09:08:27.964756  2326 net.cpp:217] Top shape: 50 512 14 14 (5017600)
I0327 09:08:27.964764  2326 net.cpp:225] Memory required for data: 2315733212
I0327 09:08:27.964789  2326 layer_factory.hpp:114] Creating layer inception_4d/1x1
I0327 09:08:27.964815  2326 net.cpp:160] Creating Layer inception_4d/1x1
I0327 09:08:27.964825  2326 net.cpp:596] inception_4d/1x1 <- inception_4c/output_inception_4c/output_0_split_0
I0327 09:08:27.964844  2326 net.cpp:570] inception_4d/1x1 -> inception_4d/1x1
I0327 09:08:27.980285  2326 net.cpp:210] Setting up inception_4d/1x1
I0327 09:08:27.980375  2326 net.cpp:217] Top shape: 50 112 14 14 (1097600)
I0327 09:08:27.980384  2326 net.cpp:225] Memory required for data: 2320123612
I0327 09:08:27.980412  2326 layer_factory.hpp:114] Creating layer inception_4d/relu_1x1
I0327 09:08:27.980439  2326 net.cpp:160] Creating Layer inception_4d/relu_1x1
I0327 09:08:27.980455  2326 net.cpp:596] inception_4d/relu_1x1 <- inception_4d/1x1
I0327 09:08:27.980473  2326 net.cpp:557] inception_4d/relu_1x1 -> inception_4d/1x1 (in-place)
I0327 09:08:27.980499  2326 net.cpp:210] Setting up inception_4d/relu_1x1
I0327 09:08:27.980540  2326 net.cpp:217] Top shape: 50 112 14 14 (1097600)
I0327 09:08:27.980547  2326 net.cpp:225] Memory required for data: 2324514012
I0327 09:08:27.980556  2326 layer_factory.hpp:114] Creating layer inception_4d/3x3_reduce
I0327 09:08:27.980587  2326 net.cpp:160] Creating Layer inception_4d/3x3_reduce
I0327 09:08:27.980602  2326 net.cpp:596] inception_4d/3x3_reduce <- inception_4c/output_inception_4c/output_0_split_1
I0327 09:08:27.980615  2326 net.cpp:570] inception_4d/3x3_reduce -> inception_4d/3x3_reduce
I0327 09:08:27.996942  2326 net.cpp:210] Setting up inception_4d/3x3_reduce
I0327 09:08:27.997038  2326 net.cpp:217] Top shape: 50 144 14 14 (1411200)
I0327 09:08:27.997051  2326 net.cpp:225] Memory required for data: 2330158812
I0327 09:08:27.997077  2326 layer_factory.hpp:114] Creating layer inception_4d/relu_3x3_reduce
I0327 09:08:27.997105  2326 net.cpp:160] Creating Layer inception_4d/relu_3x3_reduce
I0327 09:08:27.997125  2326 net.cpp:596] inception_4d/relu_3x3_reduce <- inception_4d/3x3_reduce
I0327 09:08:27.997144  2326 net.cpp:557] inception_4d/relu_3x3_reduce -> inception_4d/3x3_reduce (in-place)
I0327 09:08:27.997169  2326 net.cpp:210] Setting up inception_4d/relu_3x3_reduce
I0327 09:08:27.997181  2326 net.cpp:217] Top shape: 50 144 14 14 (1411200)
I0327 09:08:27.997190  2326 net.cpp:225] Memory required for data: 2335803612
I0327 09:08:27.997198  2326 layer_factory.hpp:114] Creating layer inception_4d/3x3
I0327 09:08:27.997225  2326 net.cpp:160] Creating Layer inception_4d/3x3
I0327 09:08:27.997234  2326 net.cpp:596] inception_4d/3x3 <- inception_4d/3x3_reduce
I0327 09:08:27.997251  2326 net.cpp:570] inception_4d/3x3 -> inception_4d/3x3
I0327 09:08:28.054541  2326 net.cpp:210] Setting up inception_4d/3x3
I0327 09:08:28.054631  2326 net.cpp:217] Top shape: 50 288 14 14 (2822400)
I0327 09:08:28.054641  2326 net.cpp:225] Memory required for data: 2347093212
I0327 09:08:28.054671  2326 layer_factory.hpp:114] Creating layer inception_4d/relu_3x3
I0327 09:08:28.054697  2326 net.cpp:160] Creating Layer inception_4d/relu_3x3
I0327 09:08:28.054714  2326 net.cpp:596] inception_4d/relu_3x3 <- inception_4d/3x3
I0327 09:08:28.054735  2326 net.cpp:557] inception_4d/relu_3x3 -> inception_4d/3x3 (in-place)
I0327 09:08:28.054762  2326 net.cpp:210] Setting up inception_4d/relu_3x3
I0327 09:08:28.054774  2326 net.cpp:217] Top shape: 50 288 14 14 (2822400)
I0327 09:08:28.054782  2326 net.cpp:225] Memory required for data: 2358382812
I0327 09:08:28.054790  2326 layer_factory.hpp:114] Creating layer inception_4d/5x5_reduce
I0327 09:08:28.054816  2326 net.cpp:160] Creating Layer inception_4d/5x5_reduce
I0327 09:08:28.054828  2326 net.cpp:596] inception_4d/5x5_reduce <- inception_4c/output_inception_4c/output_0_split_2
I0327 09:08:28.054843  2326 net.cpp:570] inception_4d/5x5_reduce -> inception_4d/5x5_reduce
I0327 09:08:28.065876  2326 net.cpp:210] Setting up inception_4d/5x5_reduce
I0327 09:08:28.065968  2326 net.cpp:217] Top shape: 50 32 14 14 (313600)
I0327 09:08:28.065979  2326 net.cpp:225] Memory required for data: 2359637212
I0327 09:08:28.066009  2326 layer_factory.hpp:114] Creating layer inception_4d/relu_5x5_reduce
I0327 09:08:28.066064  2326 net.cpp:160] Creating Layer inception_4d/relu_5x5_reduce
I0327 09:08:28.066082  2326 net.cpp:596] inception_4d/relu_5x5_reduce <- inception_4d/5x5_reduce
I0327 09:08:28.066109  2326 net.cpp:557] inception_4d/relu_5x5_reduce -> inception_4d/5x5_reduce (in-place)
I0327 09:08:28.066138  2326 net.cpp:210] Setting up inception_4d/relu_5x5_reduce
I0327 09:08:28.066148  2326 net.cpp:217] Top shape: 50 32 14 14 (313600)
I0327 09:08:28.066157  2326 net.cpp:225] Memory required for data: 2360891612
I0327 09:08:28.066166  2326 layer_factory.hpp:114] Creating layer inception_4d/5x5
I0327 09:08:28.066193  2326 net.cpp:160] Creating Layer inception_4d/5x5
I0327 09:08:28.066203  2326 net.cpp:596] inception_4d/5x5 <- inception_4d/5x5_reduce
I0327 09:08:28.066220  2326 net.cpp:570] inception_4d/5x5 -> inception_4d/5x5
I0327 09:08:28.085193  2326 net.cpp:210] Setting up inception_4d/5x5
I0327 09:08:28.085311  2326 net.cpp:217] Top shape: 50 64 14 14 (627200)
I0327 09:08:28.085321  2326 net.cpp:225] Memory required for data: 2363400412
I0327 09:08:28.085350  2326 layer_factory.hpp:114] Creating layer inception_4d/relu_5x5
I0327 09:08:28.085377  2326 net.cpp:160] Creating Layer inception_4d/relu_5x5
I0327 09:08:28.085393  2326 net.cpp:596] inception_4d/relu_5x5 <- inception_4d/5x5
I0327 09:08:28.085412  2326 net.cpp:557] inception_4d/relu_5x5 -> inception_4d/5x5 (in-place)
I0327 09:08:28.085438  2326 net.cpp:210] Setting up inception_4d/relu_5x5
I0327 09:08:28.085449  2326 net.cpp:217] Top shape: 50 64 14 14 (627200)
I0327 09:08:28.085458  2326 net.cpp:225] Memory required for data: 2365909212
I0327 09:08:28.085466  2326 layer_factory.hpp:114] Creating layer inception_4d/pool
I0327 09:08:28.085530  2326 net.cpp:160] Creating Layer inception_4d/pool
I0327 09:08:28.085542  2326 net.cpp:596] inception_4d/pool <- inception_4c/output_inception_4c/output_0_split_3
I0327 09:08:28.085556  2326 net.cpp:570] inception_4d/pool -> inception_4d/pool
I0327 09:08:28.085582  2326 net.cpp:210] Setting up inception_4d/pool
I0327 09:08:28.085599  2326 net.cpp:217] Top shape: 50 512 14 14 (5017600)
I0327 09:08:28.085608  2326 net.cpp:225] Memory required for data: 2385979612
I0327 09:08:28.085616  2326 layer_factory.hpp:114] Creating layer inception_4d/pool_proj
I0327 09:08:28.085644  2326 net.cpp:160] Creating Layer inception_4d/pool_proj
I0327 09:08:28.085654  2326 net.cpp:596] inception_4d/pool_proj <- inception_4d/pool
I0327 09:08:28.085675  2326 net.cpp:570] inception_4d/pool_proj -> inception_4d/pool_proj
I0327 09:08:28.098321  2326 net.cpp:210] Setting up inception_4d/pool_proj
I0327 09:08:28.098409  2326 net.cpp:217] Top shape: 50 64 14 14 (627200)
I0327 09:08:28.098420  2326 net.cpp:225] Memory required for data: 2388488412
I0327 09:08:28.098448  2326 layer_factory.hpp:114] Creating layer inception_4d/relu_pool_proj
I0327 09:08:28.098476  2326 net.cpp:160] Creating Layer inception_4d/relu_pool_proj
I0327 09:08:28.098493  2326 net.cpp:596] inception_4d/relu_pool_proj <- inception_4d/pool_proj
I0327 09:08:28.098515  2326 net.cpp:557] inception_4d/relu_pool_proj -> inception_4d/pool_proj (in-place)
I0327 09:08:28.098539  2326 net.cpp:210] Setting up inception_4d/relu_pool_proj
I0327 09:08:28.098551  2326 net.cpp:217] Top shape: 50 64 14 14 (627200)
I0327 09:08:28.098559  2326 net.cpp:225] Memory required for data: 2390997212
I0327 09:08:28.098568  2326 layer_factory.hpp:114] Creating layer inception_4d/output
I0327 09:08:28.098583  2326 net.cpp:160] Creating Layer inception_4d/output
I0327 09:08:28.098593  2326 net.cpp:596] inception_4d/output <- inception_4d/1x1
I0327 09:08:28.098605  2326 net.cpp:596] inception_4d/output <- inception_4d/3x3
I0327 09:08:28.098616  2326 net.cpp:596] inception_4d/output <- inception_4d/5x5
I0327 09:08:28.098628  2326 net.cpp:596] inception_4d/output <- inception_4d/pool_proj
I0327 09:08:28.098642  2326 net.cpp:570] inception_4d/output -> inception_4d/output
I0327 09:08:28.098665  2326 net.cpp:210] Setting up inception_4d/output
I0327 09:08:28.098696  2326 net.cpp:217] Top shape: 50 528 14 14 (5174400)
I0327 09:08:28.098706  2326 net.cpp:225] Memory required for data: 2411694812
I0327 09:08:28.098714  2326 layer_factory.hpp:114] Creating layer inception_4d/output_inception_4d/output_0_split
I0327 09:08:28.098731  2326 net.cpp:160] Creating Layer inception_4d/output_inception_4d/output_0_split
I0327 09:08:28.098739  2326 net.cpp:596] inception_4d/output_inception_4d/output_0_split <- inception_4d/output
I0327 09:08:28.098752  2326 net.cpp:570] inception_4d/output_inception_4d/output_0_split -> inception_4d/output_inception_4d/output_0_split_0
I0327 09:08:28.098767  2326 net.cpp:570] inception_4d/output_inception_4d/output_0_split -> inception_4d/output_inception_4d/output_0_split_1
I0327 09:08:28.098784  2326 net.cpp:570] inception_4d/output_inception_4d/output_0_split -> inception_4d/output_inception_4d/output_0_split_2
I0327 09:08:28.098799  2326 net.cpp:570] inception_4d/output_inception_4d/output_0_split -> inception_4d/output_inception_4d/output_0_split_3
I0327 09:08:28.098831  2326 net.cpp:570] inception_4d/output_inception_4d/output_0_split -> inception_4d/output_inception_4d/output_0_split_4
I0327 09:08:28.098850  2326 net.cpp:210] Setting up inception_4d/output_inception_4d/output_0_split
I0327 09:08:28.098865  2326 net.cpp:217] Top shape: 50 528 14 14 (5174400)
I0327 09:08:28.098875  2326 net.cpp:217] Top shape: 50 528 14 14 (5174400)
I0327 09:08:28.098886  2326 net.cpp:217] Top shape: 50 528 14 14 (5174400)
I0327 09:08:28.098896  2326 net.cpp:217] Top shape: 50 528 14 14 (5174400)
I0327 09:08:28.098906  2326 net.cpp:217] Top shape: 50 528 14 14 (5174400)
I0327 09:08:28.098914  2326 net.cpp:225] Memory required for data: 2515182812
I0327 09:08:28.098922  2326 layer_factory.hpp:114] Creating layer loss2/ave_pool
I0327 09:08:28.098975  2326 net.cpp:160] Creating Layer loss2/ave_pool
I0327 09:08:28.098987  2326 net.cpp:596] loss2/ave_pool <- inception_4d/output_inception_4d/output_0_split_0
I0327 09:08:28.099001  2326 net.cpp:570] loss2/ave_pool -> loss2/ave_pool
I0327 09:08:28.099098  2326 net.cpp:210] Setting up loss2/ave_pool
I0327 09:08:28.099117  2326 net.cpp:217] Top shape: 50 528 4 4 (422400)
I0327 09:08:28.099126  2326 net.cpp:225] Memory required for data: 2516872412
I0327 09:08:28.099134  2326 layer_factory.hpp:114] Creating layer loss2/conv
I0327 09:08:28.099165  2326 net.cpp:160] Creating Layer loss2/conv
I0327 09:08:28.099175  2326 net.cpp:596] loss2/conv <- loss2/ave_pool
I0327 09:08:28.099189  2326 net.cpp:570] loss2/conv -> loss2/conv
I0327 09:08:28.107802  2326 net.cpp:210] Setting up loss2/conv
I0327 09:08:28.107892  2326 net.cpp:217] Top shape: 50 128 4 4 (102400)
I0327 09:08:28.107903  2326 net.cpp:225] Memory required for data: 2517282012
I0327 09:08:28.107929  2326 layer_factory.hpp:114] Creating layer loss2/relu_conv
I0327 09:08:28.107960  2326 net.cpp:160] Creating Layer loss2/relu_conv
I0327 09:08:28.107976  2326 net.cpp:596] loss2/relu_conv <- loss2/conv
I0327 09:08:28.107995  2326 net.cpp:557] loss2/relu_conv -> loss2/conv (in-place)
I0327 09:08:28.108028  2326 net.cpp:210] Setting up loss2/relu_conv
I0327 09:08:28.108042  2326 net.cpp:217] Top shape: 50 128 4 4 (102400)
I0327 09:08:28.108050  2326 net.cpp:225] Memory required for data: 2517691612
I0327 09:08:28.108059  2326 layer_factory.hpp:114] Creating layer loss2/fc
I0327 09:08:28.108089  2326 net.cpp:160] Creating Layer loss2/fc
I0327 09:08:28.108099  2326 net.cpp:596] loss2/fc <- loss2/conv
I0327 09:08:28.108119  2326 net.cpp:570] loss2/fc -> loss2/fc
I0327 09:08:28.143241  2326 net.cpp:210] Setting up loss2/fc
I0327 09:08:28.143327  2326 net.cpp:217] Top shape: 50 1024 (51200)
I0327 09:08:28.143337  2326 net.cpp:225] Memory required for data: 2517896412
I0327 09:08:28.143362  2326 layer_factory.hpp:114] Creating layer loss2/relu_fc
I0327 09:08:28.143388  2326 net.cpp:160] Creating Layer loss2/relu_fc
I0327 09:08:28.143402  2326 net.cpp:596] loss2/relu_fc <- loss2/fc
I0327 09:08:28.143421  2326 net.cpp:557] loss2/relu_fc -> loss2/fc (in-place)
I0327 09:08:28.143477  2326 net.cpp:210] Setting up loss2/relu_fc
I0327 09:08:28.143491  2326 net.cpp:217] Top shape: 50 1024 (51200)
I0327 09:08:28.143498  2326 net.cpp:225] Memory required for data: 2518101212
I0327 09:08:28.143507  2326 layer_factory.hpp:114] Creating layer loss2/drop_fc
I0327 09:08:28.143525  2326 net.cpp:160] Creating Layer loss2/drop_fc
I0327 09:08:28.143534  2326 net.cpp:596] loss2/drop_fc <- loss2/fc
I0327 09:08:28.143549  2326 net.cpp:557] loss2/drop_fc -> loss2/fc (in-place)
I0327 09:08:28.143566  2326 net.cpp:210] Setting up loss2/drop_fc
I0327 09:08:28.143577  2326 net.cpp:217] Top shape: 50 1024 (51200)
I0327 09:08:28.143585  2326 net.cpp:225] Memory required for data: 2518306012
I0327 09:08:28.143594  2326 layer_factory.hpp:114] Creating layer loss2/classifier
I0327 09:08:28.143615  2326 net.cpp:160] Creating Layer loss2/classifier
I0327 09:08:28.143625  2326 net.cpp:596] loss2/classifier <- loss2/fc
I0327 09:08:28.143638  2326 net.cpp:570] loss2/classifier -> loss2/classifier
I0327 09:08:28.168697  2326 net.cpp:210] Setting up loss2/classifier
I0327 09:08:28.168750  2326 net.cpp:217] Top shape: 50 1000 (50000)
I0327 09:08:28.168758  2326 net.cpp:225] Memory required for data: 2518506012
I0327 09:08:28.168778  2326 layer_factory.hpp:114] Creating layer loss2/classifier_loss2/classifier_0_split
I0327 09:08:28.168798  2326 net.cpp:160] Creating Layer loss2/classifier_loss2/classifier_0_split
I0327 09:08:28.168812  2326 net.cpp:596] loss2/classifier_loss2/classifier_0_split <- loss2/classifier
I0327 09:08:28.168826  2326 net.cpp:570] loss2/classifier_loss2/classifier_0_split -> loss2/classifier_loss2/classifier_0_split_0
I0327 09:08:28.168845  2326 net.cpp:570] loss2/classifier_loss2/classifier_0_split -> loss2/classifier_loss2/classifier_0_split_1
I0327 09:08:28.168860  2326 net.cpp:570] loss2/classifier_loss2/classifier_0_split -> loss2/classifier_loss2/classifier_0_split_2
I0327 09:08:28.168877  2326 net.cpp:210] Setting up loss2/classifier_loss2/classifier_0_split
I0327 09:08:28.168889  2326 net.cpp:217] Top shape: 50 1000 (50000)
I0327 09:08:28.168898  2326 net.cpp:217] Top shape: 50 1000 (50000)
I0327 09:08:28.168908  2326 net.cpp:217] Top shape: 50 1000 (50000)
I0327 09:08:28.168916  2326 net.cpp:225] Memory required for data: 2519106012
I0327 09:08:28.168925  2326 layer_factory.hpp:114] Creating layer loss2/loss
I0327 09:08:28.168941  2326 net.cpp:160] Creating Layer loss2/loss
I0327 09:08:28.168951  2326 net.cpp:596] loss2/loss <- loss2/classifier_loss2/classifier_0_split_0
I0327 09:08:28.168962  2326 net.cpp:596] loss2/loss <- label_data_1_split_3
…
I0327 09:08:28.169462  2326 net.cpp:210] Setting up loss2/top-5
I0327 09:08:28.169473  2326 net.cpp:217] Top shape: (1)
I0327 09:08:28.169495  2326 net.cpp:225] Memory required for data: 2519106024
I0327 09:08:28.169504  2326 layer_factory.hpp:114] Creating layer inception_4e/1x1
I0327 09:08:28.169533  2326 net.cpp:160] Creating Layer inception_4e/1x1
I0327 09:08:28.169543  2326 net.cpp:596] inception_4e/1x1 <- inception_4d/output_inception_4d/output_0_split_1
I0327 09:08:28.169559  2326 net.cpp:570] inception_4e/1x1 -> inception_4e/1x1
I0327 09:08:28.192389  2326 net.cpp:210] Setting up inception_4e/1x1
I0327 09:08:28.192479  2326 net.cpp:217] Top shape: 50 256 14 14 (2508800)
I0327 09:08:28.192489  2326 net.cpp:225] Memory required for data: 2529141224
I0327 09:08:28.192517  2326 layer_factory.hpp:114] Creating layer inception_4e/relu_1x1
I0327 09:08:28.192544  2326 net.cpp:160] Creating Layer inception_4e/relu_1x1
I0327 09:08:28.192559  2326 net.cpp:596] inception_4e/relu_1x1 <- inception_4e/1x1
I0327 09:08:28.192580  2326 net.cpp:557] inception_4e/relu_1x1 -> inception_4e/1x1 (in-place)
I0327 09:08:28.192634  2326 net.cpp:210] Setting up inception_4e/relu_1x1
I0327 09:08:28.192647  2326 net.cpp:217] Top shape: 50 256 14 14 (2508800)
I0327 09:08:28.192656  2326 net.cpp:225] Memory required for data: 2539176424
I0327 09:08:28.192664  2326 layer_factory.hpp:114] Creating layer inception_4e/3x3_reduce
I0327 09:08:28.192705  2326 net.cpp:160] Creating Layer inception_4e/3x3_reduce
I0327 09:08:28.192718  2326 net.cpp:596] inception_4e/3x3_reduce <- inception_4d/output_inception_4d/output_0_split_2
I0327 09:08:28.192735  2326 net.cpp:570] inception_4e/3x3_reduce -> inception_4e/3x3_reduce
I0327 09:08:28.210850  2326 net.cpp:210] Setting up inception_4e/3x3_reduce
I0327 09:08:28.210938  2326 net.cpp:217] Top shape: 50 160 14 14 (1568000)
I0327 09:08:28.210949  2326 net.cpp:225] Memory required for data: 2545448424
I0327 09:08:28.210980  2326 layer_factory.hpp:114] Creating layer inception_4e/relu_3x3_reduce
I0327 09:08:28.211007  2326 net.cpp:160] Creating Layer inception_4e/relu_3x3_reduce
I0327 09:08:28.211035  2326 net.cpp:596] inception_4e/relu_3x3_reduce <- inception_4e/3x3_reduce
I0327 09:08:28.211055  2326 net.cpp:557] inception_4e/relu_3x3_reduce -> inception_4e/3x3_reduce (in-place)
I0327 09:08:28.211078  2326 net.cpp:210] Setting up inception_4e/relu_3x3_reduce
I0327 09:08:28.211091  2326 net.cpp:217] Top shape: 50 160 14 14 (1568000)
I0327 09:08:28.211098  2326 net.cpp:225] Memory required for data: 2551720424
I0327 09:08:28.211112  2326 layer_factory.hpp:114] Creating layer inception_4e/3x3
I0327 09:08:28.211141  2326 net.cpp:160] Creating Layer inception_4e/3x3
I0327 09:08:28.211151  2326 net.cpp:596] inception_4e/3x3 <- inception_4e/3x3_reduce
I0327 09:08:28.211165  2326 net.cpp:570] inception_4e/3x3 -> inception_4e/3x3
I0327 09:08:28.278174  2326 net.cpp:210] Setting up inception_4e/3x3
I0327 09:08:28.278265  2326 net.cpp:217] Top shape: 50 320 14 14 (3136000)
I0327 09:08:28.278275  2326 net.cpp:225] Memory required for data: 2564264424
I0327 09:08:28.278303  2326 layer_factory.hpp:114] Creating layer inception_4e/relu_3x3
I0327 09:08:28.278331  2326 net.cpp:160] Creating Layer inception_4e/relu_3x3
I0327 09:08:28.278347  2326 net.cpp:596] inception_4e/relu_3x3 <- inception_4e/3x3
I0327 09:08:28.278368  2326 net.cpp:557] inception_4e/relu_3x3 -> inception_4e/3x3 (in-place)
I0327 09:08:28.278393  2326 net.cpp:210] Setting up inception_4e/relu_3x3
I0327 09:08:28.278405  2326 net.cpp:217] Top shape: 50 320 14 14 (3136000)
I0327 09:08:28.278414  2326 net.cpp:225] Memory required for data: 2576808424
I0327 09:08:28.278422  2326 layer_factory.hpp:114] Creating layer inception_4e/5x5_reduce
I0327 09:08:28.278450  2326 net.cpp:160] Creating Layer inception_4e/5x5_reduce
I0327 09:08:28.278460  2326 net.cpp:596] inception_4e/5x5_reduce <- inception_4d/output_inception_4d/output_0_split_3
I0327 09:08:28.278477  2326 net.cpp:570] inception_4e/5x5_reduce -> inception_4e/5x5_reduce
I0327 09:08:28.289888  2326 net.cpp:210] Setting up inception_4e/5x5_reduce
I0327 09:08:28.289974  2326 net.cpp:217] Top shape: 50 32 14 14 (313600)
I0327 09:08:28.290004  2326 net.cpp:225] Memory required for data: 2578062824
I0327 09:08:28.290042  2326 layer_factory.hpp:114] Creating layer inception_4e/relu_5x5_reduce
I0327 09:08:28.290076  2326 net.cpp:160] Creating Layer inception_4e/relu_5x5_reduce
I0327 09:08:28.290091  2326 net.cpp:596] inception_4e/relu_5x5_reduce <- inception_4e/5x5_reduce
I0327 09:08:28.290117  2326 net.cpp:557] inception_4e/relu_5x5_reduce -> inception_4e/5x5_reduce (in-place)
I0327 09:08:28.290143  2326 net.cpp:210] Setting up inception_4e/relu_5x5_reduce
I0327 09:08:28.290154  2326 net.cpp:217] Top shape: 50 32 14 14 (313600)
I0327 09:08:28.290163  2326 net.cpp:225] Memory required for data: 2579317224
I0327 09:08:28.290172  2326 layer_factory.hpp:114] Creating layer inception_4e/5x5
I0327 09:08:28.290197  2326 net.cpp:160] Creating Layer inception_4e/5x5
I0327 09:08:28.290207  2326 net.cpp:596] inception_4e/5x5 <- inception_4e/5x5_reduce
I0327 09:08:28.290241  2326 net.cpp:570] inception_4e/5x5 -> inception_4e/5x5
I0327 09:08:28.313683  2326 net.cpp:210] Setting up inception_4e/5x5
I0327 09:08:28.313774  2326 net.cpp:217] Top shape: 50 128 14 14 (1254400)
I0327 09:08:28.313783  2326 net.cpp:225] Memory required for data: 2584334824
I0327 09:08:28.313812  2326 layer_factory.hpp:114] Creating layer inception_4e/relu_5x5
I0327 09:08:28.313839  2326 net.cpp:160] Creating Layer inception_4e/relu_5x5
I0327 09:08:28.313854  2326 net.cpp:596] inception_4e/relu_5x5 <- inception_4e/5x5
I0327 09:08:28.313874  2326 net.cpp:557] inception_4e/relu_5x5 -> inception_4e/5x5 (in-place)
I0327 09:08:28.313899  2326 net.cpp:210] Setting up inception_4e/relu_5x5
I0327 09:08:28.313910  2326 net.cpp:217] Top shape: 50 128 14 14 (1254400)
I0327 09:08:28.313917  2326 net.cpp:225] Memory required for data: 2589352424
I0327 09:08:28.313926  2326 layer_factory.hpp:114] Creating layer inception_4e/pool
I0327 09:08:28.313988  2326 net.cpp:160] Creating Layer inception_4e/pool
I0327 09:08:28.314000  2326 net.cpp:596] inception_4e/pool <- inception_4d/output_inception_4d/output_0_split_4
I0327 09:08:28.314014  2326 net.cpp:570] inception_4e/pool -> inception_4e/pool
I0327 09:08:28.314052  2326 net.cpp:210] Setting up inception_4e/pool
I0327 09:08:28.314067  2326 net.cpp:217] Top shape: 50 528 14 14 (5174400)
I0327 09:08:28.314076  2326 net.cpp:225] Memory required for data: 2610050024
I0327 09:08:28.314085  2326 layer_factory.hpp:114] Creating layer inception_4e/pool_proj
I0327 09:08:28.314116  2326 net.cpp:160] Creating Layer inception_4e/pool_proj
I0327 09:08:28.314126  2326 net.cpp:596] inception_4e/pool_proj <- inception_4e/pool
I0327 09:08:28.314142  2326 net.cpp:570] inception_4e/pool_proj -> inception_4e/pool_proj
I0327 09:08:28.330931  2326 net.cpp:210] Setting up inception_4e/pool_proj
I0327 09:08:28.331040  2326 net.cpp:217] Top shape: 50 128 14 14 (1254400)
I0327 09:08:28.331051  2326 net.cpp:225] Memory required for data: 2615067624
I0327 09:08:28.331079  2326 layer_factory.hpp:114] Creating layer inception_4e/relu_pool_proj
I0327 09:08:28.331111  2326 net.cpp:160] Creating Layer inception_4e/relu_pool_proj
I0327 09:08:28.331126  2326 net.cpp:596] inception_4e/relu_pool_proj <- inception_4e/pool_proj
I0327 09:08:28.331149  2326 net.cpp:557] inception_4e/relu_pool_proj -> inception_4e/pool_proj (in-place)
I0327 09:08:28.331176  2326 net.cpp:210] Setting up inception_4e/relu_pool_proj
I0327 09:08:28.331187  2326 net.cpp:217] Top shape: 50 128 14 14 (1254400)
I0327 09:08:28.331194  2326 net.cpp:225] Memory required for data: 2620085224
I0327 09:08:28.331203  2326 layer_factory.hpp:114] Creating layer inception_4e/output
I0327 09:08:28.331218  2326 net.cpp:160] Creating Layer inception_4e/output
I0327 09:08:28.331228  2326 net.cpp:596] inception_4e/output <- inception_4e/1x1
I0327 09:08:28.331239  2326 net.cpp:596] inception_4e/output <- inception_4e/3x3
I0327 09:08:28.331251  2326 net.cpp:596] inception_4e/output <- inception_4e/5x5
I0327 09:08:28.331262  2326 net.cpp:596] inception_4e/output <- inception_4e/pool_proj
I0327 09:08:28.331274  2326 net.cpp:570] inception_4e/output -> inception_4e/output
I0327 09:08:28.331312  2326 net.cpp:210] Setting up inception_4e/output
I0327 09:08:28.331324  2326 net.cpp:217] Top shape: 50 832 14 14 (8153600)
I0327 09:08:28.331333  2326 net.cpp:225] Memory required for data: 2652699624
I0327 09:08:28.331342  2326 layer_factory.hpp:114] Creating layer pool4/3x3_s2
I0327 09:08:28.331398  2326 net.cpp:160] Creating Layer pool4/3x3_s2
I0327 09:08:28.331409  2326 net.cpp:596] pool4/3x3_s2 <- inception_4e/output
I0327 09:08:28.331423  2326 net.cpp:570] pool4/3x3_s2 -> pool4/3x3_s2
I0327 09:08:28.331445  2326 net.cpp:210] Setting up pool4/3x3_s2
I0327 09:08:28.331456  2326 net.cpp:217] Top shape: 50 832 7 7 (2038400)
I0327 09:08:28.331465  2326 net.cpp:225] Memory required for data: 2660853224
I0327 09:08:28.331473  2326 layer_factory.hpp:114] Creating layer pool4/3x3_s2_pool4/3x3_s2_0_split
I0327 09:08:28.331491  2326 net.cpp:160] Creating Layer pool4/3x3_s2_pool4/3x3_s2_0_split
I0327 09:08:28.331517  2326 net.cpp:596] pool4/3x3_s2_pool4/3x3_s2_0_split <- pool4/3x3_s2
I0327 09:08:28.331531  2326 net.cpp:570] pool4/3x3_s2_pool4/3x3_s2_0_split -> pool4/3x3_s2_pool4/3x3_s2_0_split_0
I0327 09:08:28.331544  2326 net.cpp:570] pool4/3x3_s2_pool4/3x3_s2_0_split -> pool4/3x3_s2_pool4/3x3_s2_0_split_1
I0327 09:08:28.331558  2326 net.cpp:570] pool4/3x3_s2_pool4/3x3_s2_0_split -> pool4/3x3_s2_pool4/3x3_s2_0_split_2
I0327 09:08:28.331583  2326 net.cpp:570] pool4/3x3_s2_pool4/3x3_s2_0_split -> pool4/3x3_s2_pool4/3x3_s2_0_split_3
I0327 09:08:28.331601  2326 net.cpp:210] Setting up pool4/3x3_s2_pool4/3x3_s2_0_split
I0327 09:08:28.331612  2326 net.cpp:217] Top shape: 50 832 7 7 (2038400)
I0327 09:08:28.331624  2326 net.cpp:217] Top shape: 50 832 7 7 (2038400)
I0327 09:08:28.331636  2326 net.cpp:217] Top shape: 50 832 7 7 (2038400)
I0327 09:08:28.331646  2326 net.cpp:217] Top shape: 50 832 7 7 (2038400)
I0327 09:08:28.331655  2326 net.cpp:225] Memory required for data: 2693467624
I0327 09:08:28.331665  2326 layer_factory.hpp:114] Creating layer inception_5a/1x1
I0327 09:08:28.331691  2326 net.cpp:160] Creating Layer inception_5a/1x1
I0327 09:08:28.331702  2326 net.cpp:596] inception_5a/1x1 <- pool4/3x3_s2_pool4/3x3_s2_0_split_0
I0327 09:08:28.331715  2326 net.cpp:570] inception_5a/1x1 -> inception_5a/1x1
I0327 09:08:28.356688  2326 net.cpp:210] Setting up inception_5a/1x1
I0327 09:08:28.356778  2326 net.cpp:217] Top shape: 50 256 7 7 (627200)
I0327 09:08:28.356788  2326 net.cpp:225] Memory required for data: 2695976424
I0327 09:08:28.356817  2326 layer_factory.hpp:114] Creating layer inception_5a/relu_1x1
I0327 09:08:28.356848  2326 net.cpp:160] Creating Layer inception_5a/relu_1x1
I0327 09:08:28.356863  2326 net.cpp:596] inception_5a/relu_1x1 <- inception_5a/1x1
I0327 09:08:28.356881  2326 net.cpp:557] inception_5a/relu_1x1 -> inception_5a/1x1 (in-place)
I0327 09:08:28.356906  2326 net.cpp:210] Setting up inception_5a/relu_1x1
I0327 09:08:28.356919  2326 net.cpp:217] Top shape: 50 256 7 7 (627200)
I0327 09:08:28.356926  2326 net.cpp:225] Memory required for data: 2698485224
I0327 09:08:28.356935  2326 layer_factory.hpp:114] Creating layer inception_5a/3x3_reduce
I0327 09:08:28.356961  2326 net.cpp:160] Creating Layer inception_5a/3x3_reduce
I0327 09:08:28.356973  2326 net.cpp:596] inception_5a/3x3_reduce <- pool4/3x3_s2_pool4/3x3_s2_0_split_1
I0327 09:08:28.356992  2326 net.cpp:570] inception_5a/3x3_reduce -> inception_5a/3x3_reduce
I0327 09:08:28.374044  2326 net.cpp:210] Setting up inception_5a/3x3_reduce
I0327 09:08:28.374138  2326 net.cpp:217] Top shape: 50 160 7 7 (392000)
I0327 09:08:28.374148  2326 net.cpp:225] Memory required for data: 2700053224
I0327 09:08:28.374176  2326 layer_factory.hpp:114] Creating layer inception_5a/relu_3x3_reduce
I0327 09:08:28.374203  2326 net.cpp:160] Creating Layer inception_5a/relu_3x3_reduce
I0327 09:08:28.374218  2326 net.cpp:596] inception_5a/relu_3x3_reduce <- inception_5a/3x3_reduce
I0327 09:08:28.374236  2326 net.cpp:557] inception_5a/relu_3x3_reduce -> inception_5a/3x3_reduce (in-place)
I0327 09:08:28.374279  2326 net.cpp:210] Setting up inception_5a/relu_3x3_reduce
I0327 09:08:28.374291  2326 net.cpp:217] Top shape: 50 160 7 7 (392000)
I0327 09:08:28.374300  2326 net.cpp:225] Memory required for data: 2701621224
I0327 09:08:28.374310  2326 layer_factory.hpp:114] Creating layer inception_5a/3x3
I0327 09:08:28.374337  2326 net.cpp:160] Creating Layer inception_5a/3x3
I0327 09:08:28.374347  2326 net.cpp:596] inception_5a/3x3 <- inception_5a/3x3_reduce
I0327 09:08:28.374361  2326 net.cpp:570] inception_5a/3x3 -> inception_5a/3x3
I0327 09:08:28.425213  2326 net.cpp:210] Setting up inception_5a/3x3
I0327 09:08:28.425304  2326 net.cpp:217] Top shape: 50 320 7 7 (784000)
I0327 09:08:28.425314  2326 net.cpp:225] Memory required for data: 2704757224
I0327 09:08:28.425343  2326 layer_factory.hpp:114] Creating layer inception_5a/relu_3x3
I0327 09:08:28.425370  2326 net.cpp:160] Creating Layer inception_5a/relu_3x3
I0327 09:08:28.425386  2326 net.cpp:596] inception_5a/relu_3x3 <- inception_5a/3x3
I0327 09:08:28.425436  2326 net.cpp:557] inception_5a/relu_3x3 -> inception_5a/3x3 (in-place)
I0327 09:08:28.425462  2326 net.cpp:210] Setting up inception_5a/relu_3x3
I0327 09:08:28.425473  2326 net.cpp:217] Top shape: 50 320 7 7 (784000)
I0327 09:08:28.425482  2326 net.cpp:225] Memory required for data: 2707893224
I0327 09:08:28.425490  2326 layer_factory.hpp:114] Creating layer inception_5a/5x5_reduce
I0327 09:08:28.425518  2326 net.cpp:160] Creating Layer inception_5a/5x5_reduce
I0327 09:08:28.425529  2326 net.cpp:596] inception_5a/5x5_reduce <- pool4/3x3_s2_pool4/3x3_s2_0_split_2
I0327 09:08:28.425546  2326 net.cpp:570] inception_5a/5x5_reduce -> inception_5a/5x5_reduce
I0327 09:08:28.433111  2326 net.cpp:210] Setting up inception_5a/5x5_reduce
I0327 09:08:28.433198  2326 net.cpp:217] Top shape: 50 32 7 7 (78400)
I0327 09:08:28.433208  2326 net.cpp:225] Memory required for data: 2708206824
I0327 09:08:28.433235  2326 layer_factory.hpp:114] Creating layer inception_5a/relu_5x5_reduce
I0327 09:08:28.433264  2326 net.cpp:160] Creating Layer inception_5a/relu_5x5_reduce
I0327 09:08:28.433279  2326 net.cpp:596] inception_5a/relu_5x5_reduce <- inception_5a/5x5_reduce
I0327 09:08:28.433300  2326 net.cpp:557] inception_5a/relu_5x5_reduce -> inception_5a/5x5_reduce (in-place)
I0327 09:08:28.433324  2326 net.cpp:210] Setting up inception_5a/relu_5x5_reduce
I0327 09:08:28.433336  2326 net.cpp:217] Top shape: 50 32 7 7 (78400)
I0327 09:08:28.433346  2326 net.cpp:225] Memory required for data: 2708520424
I0327 09:08:28.433353  2326 layer_factory.hpp:114] Creating layer inception_5a/5x5
I0327 09:08:28.433379  2326 net.cpp:160] Creating Layer inception_5a/5x5
I0327 09:08:28.433389  2326 net.cpp:596] inception_5a/5x5 <- inception_5a/5x5_reduce
I0327 09:08:28.433406  2326 net.cpp:570] inception_5a/5x5 -> inception_5a/5x5
I0327 09:08:28.447932  2326 net.cpp:210] Setting up inception_5a/5x5
I0327 09:08:28.448035  2326 net.cpp:217] Top shape: 50 128 7 7 (313600)
I0327 09:08:28.448046  2326 net.cpp:225] Memory required for data: 2709774824
I0327 09:08:28.448074  2326 layer_factory.hpp:114] Creating layer inception_5a/relu_5x5
I0327 09:08:28.448107  2326 net.cpp:160] Creating Layer inception_5a/relu_5x5
I0327 09:08:28.448122  2326 net.cpp:596] inception_5a/relu_5x5 <- inception_5a/5x5
I0327 09:08:28.448140  2326 net.cpp:557] inception_5a/relu_5x5 -> inception_5a/5x5 (in-place)
I0327 09:08:28.448165  2326 net.cpp:210] Setting up inception_5a/relu_5x5
I0327 09:08:28.448176  2326 net.cpp:217] Top shape: 50 128 7 7 (313600)
I0327 09:08:28.448185  2326 net.cpp:225] Memory required for data: 2711029224
I0327 09:08:28.448194  2326 layer_factory.hpp:114] Creating layer inception_5a/pool
I0327 09:08:28.448256  2326 net.cpp:160] Creating Layer inception_5a/pool
I0327 09:08:28.448269  2326 net.cpp:596] inception_5a/pool <- pool4/3x3_s2_pool4/3x3_s2_0_split_3
I0327 09:08:28.448287  2326 net.cpp:570] inception_5a/pool -> inception_5a/pool
I0327 09:08:28.448312  2326 net.cpp:210] Setting up inception_5a/pool
I0327 09:08:28.448324  2326 net.cpp:217] Top shape: 50 832 7 7 (2038400)
I0327 09:08:28.448349  2326 net.cpp:225] Memory required for data: 2719182824
I0327 09:08:28.448359  2326 layer_factory.hpp:114] Creating layer inception_5a/pool_proj
I0327 09:08:28.448390  2326 net.cpp:160] Creating Layer inception_5a/pool_proj
I0327 09:08:28.448400  2326 net.cpp:596] inception_5a/pool_proj <- inception_5a/pool
I0327 09:08:28.448416  2326 net.cpp:570] inception_5a/pool_proj -> inception_5a/pool_proj
I0327 09:08:28.463284  2326 net.cpp:210] Setting up inception_5a/pool_proj
I0327 09:08:28.463373  2326 net.cpp:217] Top shape: 50 128 7 7 (313600)
I0327 09:08:28.463382  2326 net.cpp:225] Memory required for data: 2720437224
I0327 09:08:28.463412  2326 layer_factory.hpp:114] Creating layer inception_5a/relu_pool_proj
I0327 09:08:28.463438  2326 net.cpp:160] Creating Layer inception_5a/relu_pool_proj
I0327 09:08:28.463454  2326 net.cpp:596] inception_5a/relu_pool_proj <- inception_5a/pool_proj
I0327 09:08:28.463472  2326 net.cpp:557] inception_5a/relu_pool_proj -> inception_5a/pool_proj (in-place)
I0327 09:08:28.463526  2326 net.cpp:210] Setting up inception_5a/relu_pool_proj
I0327 09:08:28.463538  2326 net.cpp:217] Top shape: 50 128 7 7 (313600)
I0327 09:08:28.463546  2326 net.cpp:225] Memory required for data: 2721691624
I0327 09:08:28.463556  2326 layer_factory.hpp:114] Creating layer inception_5a/output
I0327 09:08:28.463570  2326 net.cpp:160] Creating Layer inception_5a/output
I0327 09:08:28.463580  2326 net.cpp:596] inception_5a/output <- inception_5a/1x1
I0327 09:08:28.463591  2326 net.cpp:596] inception_5a/output <- inception_5a/3x3
I0327 09:08:28.463603  2326 net.cpp:596] inception_5a/output <- inception_5a/5x5
I0327 09:08:28.463613  2326 net.cpp:596] inception_5a/output <- inception_5a/pool_proj
I0327 09:08:28.463629  2326 net.cpp:570] inception_5a/output -> inception_5a/output
I0327 09:08:28.463651  2326 net.cpp:210] Setting up inception_5a/output
I0327 09:08:28.463662  2326 net.cpp:217] Top shape: 50 832 7 7 (2038400)
I0327 09:08:28.463670  2326 net.cpp:225] Memory required for data: 2729845224
I0327 09:08:28.463678  2326 layer_factory.hpp:114] Creating layer inception_5a/output_inception_5a/output_0_split
I0327 09:08:28.463692  2326 net.cpp:160] Creating Layer inception_5a/output_inception_5a/output_0_split
I0327 09:08:28.463701  2326 net.cpp:596] inception_5a/output_inception_5a/output_0_split <- inception_5a/output
I0327 09:08:28.463713  2326 net.cpp:570] inception_5a/output_inception_5a/output_0_split -> inception_5a/output_inception_5a/output_0_split_0
I0327 09:08:28.463728  2326 net.cpp:570] inception_5a/output_inception_5a/output_0_split -> inception_5a/output_inception_5a/output_0_split_1
I0327 09:08:28.463743  2326 net.cpp:570] inception_5a/output_inception_5a/output_0_split -> inception_5a/output_inception_5a/output_0_split_2
I0327 09:08:28.463757  2326 net.cpp:570] inception_5a/output_inception_5a/output_0_split -> inception_5a/output_inception_5a/output_0_split_3
I0327 09:08:28.463774  2326 net.cpp:210] Setting up inception_5a/output_inception_5a/output_0_split
I0327 09:08:28.463785  2326 net.cpp:217] Top shape: 50 832 7 7 (2038400)
I0327 09:08:28.463795  2326 net.cpp:217] Top shape: 50 832 7 7 (2038400)
I0327 09:08:28.463806  2326 net.cpp:217] Top shape: 50 832 7 7 (2038400)
I0327 09:08:28.463816  2326 net.cpp:217] Top shape: 50 832 7 7 (2038400)
I0327 09:08:28.463825  2326 net.cpp:225] Memory required for data: 2762459624
I0327 09:08:28.463834  2326 layer_factory.hpp:114] Creating layer inception_5b/1x1
I0327 09:08:28.463861  2326 net.cpp:160] Creating Layer inception_5b/1x1
I0327 09:08:28.463871  2326 net.cpp:596] inception_5b/1x1 <- inception_5a/output_inception_5a/output_0_split_0
I0327 09:08:28.463884  2326 net.cpp:570] inception_5b/1x1 -> inception_5b/1x1
I0327 09:08:28.499272  2326 net.cpp:210] Setting up inception_5b/1x1
I0327 09:08:28.499361  2326 net.cpp:217] Top shape: 50 384 7 7 (940800)
I0327 09:08:28.499372  2326 net.cpp:225] Memory required for data: 2766222824
I0327 09:08:28.499399  2326 layer_factory.hpp:114] Creating layer inception_5b/relu_1x1
I0327 09:08:28.499445  2326 net.cpp:160] Creating Layer inception_5b/relu_1x1
I0327 09:08:28.499461  2326 net.cpp:596] inception_5b/relu_1x1 <- inception_5b/1x1
I0327 09:08:28.499480  2326 net.cpp:557] inception_5b/relu_1x1 -> inception_5b/1x1 (in-place)
I0327 09:08:28.499505  2326 net.cpp:210] Setting up inception_5b/relu_1x1
I0327 09:08:28.499516  2326 net.cpp:217] Top shape: 50 384 7 7 (940800)
I0327 09:08:28.499526  2326 net.cpp:225] Memory required for data: 2769986024
I0327 09:08:28.499533  2326 layer_factory.hpp:114] Creating layer inception_5b/3x3_reduce
I0327 09:08:28.499563  2326 net.cpp:160] Creating Layer inception_5b/3x3_reduce
I0327 09:08:28.499575  2326 net.cpp:596] inception_5b/3x3_reduce <- inception_5a/output_inception_5a/output_0_split_1
I0327 09:08:28.499590  2326 net.cpp:570] inception_5b/3x3_reduce -> inception_5b/3x3_reduce
I0327 09:08:28.520149  2326 net.cpp:210] Setting up inception_5b/3x3_reduce
I0327 09:08:28.520236  2326 net.cpp:217] Top shape: 50 192 7 7 (470400)
I0327 09:08:28.520275  2326 net.cpp:225] Memory required for data: 2771867624
I0327 09:08:28.520303  2326 layer_factory.hpp:114] Creating layer inception_5b/relu_3x3_reduce
I0327 09:08:28.520331  2326 net.cpp:160] Creating Layer inception_5b/relu_3x3_reduce
I0327 09:08:28.520347  2326 net.cpp:596] inception_5b/relu_3x3_reduce <- inception_5b/3x3_reduce
I0327 09:08:28.520368  2326 net.cpp:557] inception_5b/relu_3x3_reduce -> inception_5b/3x3_reduce (in-place)
I0327 09:08:28.520393  2326 net.cpp:210] Setting up inception_5b/relu_3x3_reduce
I0327 09:08:28.520406  2326 net.cpp:217] Top shape: 50 192 7 7 (470400)
I0327 09:08:28.520413  2326 net.cpp:225] Memory required for data: 2773749224
I0327 09:08:28.520422  2326 layer_factory.hpp:114] Creating layer inception_5b/3x3
I0327 09:08:28.520447  2326 net.cpp:160] Creating Layer inception_5b/3x3
I0327 09:08:28.520457  2326 net.cpp:596] inception_5b/3x3 <- inception_5b/3x3_reduce
I0327 09:08:28.520470  2326 net.cpp:570] inception_5b/3x3 -> inception_5b/3x3
I0327 09:08:28.591408  2326 net.cpp:210] Setting up inception_5b/3x3
I0327 09:08:28.591500  2326 net.cpp:217] Top shape: 50 384 7 7 (940800)
I0327 09:08:28.591511  2326 net.cpp:225] Memory required for data: 2777512424
I0327 09:08:28.591538  2326 layer_factory.hpp:114] Creating layer inception_5b/relu_3x3
I0327 09:08:28.591565  2326 net.cpp:160] Creating Layer inception_5b/relu_3x3
I0327 09:08:28.591581  2326 net.cpp:596] inception_5b/relu_3x3 <- inception_5b/3x3
I0327 09:08:28.591599  2326 net.cpp:557] inception_5b/relu_3x3 -> inception_5b/3x3 (in-place)
I0327 09:08:28.591625  2326 net.cpp:210] Setting up inception_5b/relu_3x3
I0327 09:08:28.591636  2326 net.cpp:217] Top shape: 50 384 7 7 (940800)
I0327 09:08:28.591645  2326 net.cpp:225] Memory required for data: 2781275624
I0327 09:08:28.591653  2326 layer_factory.hpp:114] Creating layer inception_5b/5x5_reduce
I0327 09:08:28.591682  2326 net.cpp:160] Creating Layer inception_5b/5x5_reduce
I0327 09:08:28.591693  2326 net.cpp:596] inception_5b/5x5_reduce <- inception_5a/output_inception_5a/output_0_split_2
I0327 09:08:28.591711  2326 net.cpp:570] inception_5b/5x5_reduce -> inception_5b/5x5_reduce
I0327 09:08:28.600121  2326 net.cpp:210] Setting up inception_5b/5x5_reduce
I0327 09:08:28.600209  2326 net.cpp:217] Top shape: 50 48 7 7 (117600)
I0327 09:08:28.600219  2326 net.cpp:225] Memory required for data: 2781746024
I0327 09:08:28.600247  2326 layer_factory.hpp:114] Creating layer inception_5b/relu_5x5_reduce
I0327 09:08:28.600275  2326 net.cpp:160] Creating Layer inception_5b/relu_5x5_reduce
I0327 09:08:28.600291  2326 net.cpp:596] inception_5b/relu_5x5_reduce <- inception_5b/5x5_reduce
I0327 09:08:28.600312  2326 net.cpp:557] inception_5b/relu_5x5_reduce -> inception_5b/5x5_reduce (in-place)
I0327 09:08:28.600337  2326 net.cpp:210] Setting up inception_5b/relu_5x5_reduce
I0327 09:08:28.600349  2326 net.cpp:217] Top shape: 50 48 7 7 (117600)
I0327 09:08:28.600358  2326 net.cpp:225] Memory required for data: 2782216424
I0327 09:08:28.600366  2326 layer_factory.hpp:114] Creating layer inception_5b/5x5
I0327 09:08:28.600411  2326 net.cpp:160] Creating Layer inception_5b/5x5
I0327 09:08:28.600422  2326 net.cpp:596] inception_5b/5x5 <- inception_5b/5x5_reduce
I0327 09:08:28.600436  2326 net.cpp:570] inception_5b/5x5 -> inception_5b/5x5
I0327 09:08:28.621583  2326 net.cpp:210] Setting up inception_5b/5x5
I0327 09:08:28.621672  2326 net.cpp:217] Top shape: 50 128 7 7 (313600)
I0327 09:08:28.621682  2326 net.cpp:225] Memory required for data: 2783470824
I0327 09:08:28.621711  2326 layer_factory.hpp:114] Creating layer inception_5b/relu_5x5
I0327 09:08:28.621740  2326 net.cpp:160] Creating Layer inception_5b/relu_5x5
I0327 09:08:28.621757  2326 net.cpp:596] inception_5b/relu_5x5 <- inception_5b/5x5
I0327 09:08:28.621776  2326 net.cpp:557] inception_5b/relu_5x5 -> inception_5b/5x5 (in-place)
I0327 09:08:28.621801  2326 net.cpp:210] Setting up inception_5b/relu_5x5
I0327 09:08:28.621812  2326 net.cpp:217] Top shape: 50 128 7 7 (313600)
I0327 09:08:28.621821  2326 net.cpp:225] Memory required for data: 2784725224
I0327 09:08:28.621858  2326 layer_factory.hpp:114] Creating layer inception_5b/pool
I0327 09:08:28.621919  2326 net.cpp:160] Creating Layer inception_5b/pool
I0327 09:08:28.621932  2326 net.cpp:596] inception_5b/pool <- inception_5a/output_inception_5a/output_0_split_3
I0327 09:08:28.621947  2326 net.cpp:570] inception_5b/pool -> inception_5b/pool
I0327 09:08:28.621971  2326 net.cpp:210] Setting up inception_5b/pool
I0327 09:08:28.621984  2326 net.cpp:217] Top shape: 50 832 7 7 (2038400)
I0327 09:08:28.621991  2326 net.cpp:225] Memory required for data: 2792878824
I0327 09:08:28.622000  2326 layer_factory.hpp:114] Creating layer inception_5b/pool_proj
I0327 09:08:28.622040  2326 net.cpp:160] Creating Layer inception_5b/pool_proj
I0327 09:08:28.622051  2326 net.cpp:596] inception_5b/pool_proj <- inception_5b/pool
I0327 09:08:28.622068  2326 net.cpp:570] inception_5b/pool_proj -> inception_5b/pool_proj
I0327 09:08:28.636339  2326 net.cpp:210] Setting up inception_5b/pool_proj
I0327 09:08:28.636430  2326 net.cpp:217] Top shape: 50 128 7 7 (313600)
I0327 09:08:28.636438  2326 net.cpp:225] Memory required for data: 2794133224
I0327 09:08:28.636466  2326 layer_factory.hpp:114] Creating layer inception_5b/relu_pool_proj
I0327 09:08:28.636497  2326 net.cpp:160] Creating Layer inception_5b/relu_pool_proj
I0327 09:08:28.636514  2326 net.cpp:596] inception_5b/relu_pool_proj <- inception_5b/pool_proj
I0327 09:08:28.636533  2326 net.cpp:557] inception_5b/relu_pool_proj -> inception_5b/pool_proj (in-place)
I0327 09:08:28.636556  2326 net.cpp:210] Setting up inception_5b/relu_pool_proj
I0327 09:08:28.636567  2326 net.cpp:217] Top shape: 50 128 7 7 (313600)
I0327 09:08:28.636576  2326 net.cpp:225] Memory required for data: 2795387624
I0327 09:08:28.636585  2326 layer_factory.hpp:114] Creating layer inception_5b/output
I0327 09:08:28.636600  2326 net.cpp:160] Creating Layer inception_5b/output
I0327 09:08:28.636610  2326 net.cpp:596] inception_5b/output <- inception_5b/1x1
I0327 09:08:28.636621  2326 net.cpp:596] inception_5b/output <- inception_5b/3x3
I0327 09:08:28.636632  2326 net.cpp:596] inception_5b/output <- inception_5b/5x5
I0327 09:08:28.636643  2326 net.cpp:596] inception_5b/output <- inception_5b/pool_proj
I0327 09:08:28.636656  2326 net.cpp:570] inception_5b/output -> inception_5b/output
I0327 09:08:28.636677  2326 net.cpp:210] Setting up inception_5b/output
I0327 09:08:28.636688  2326 net.cpp:217] Top shape: 50 1024 7 7 (2508800)
I0327 09:08:28.636696  2326 net.cpp:225] Memory required for data: 2805422824
I0327 09:08:28.636704  2326 layer_factory.hpp:114] Creating layer pool5/7x7_s1
I0327 09:08:28.636760  2326 net.cpp:160] Creating Layer pool5/7x7_s1
I0327 09:08:28.636771  2326 net.cpp:596] pool5/7x7_s1 <- inception_5b/output
I0327 09:08:28.636787  2326 net.cpp:570] pool5/7x7_s1 -> pool5/7x7_s1
I0327 09:08:28.636807  2326 net.cpp:210] Setting up pool5/7x7_s1
I0327 09:08:28.636818  2326 net.cpp:217] Top shape: 50 1024 1 1 (51200)
I0327 09:08:28.636827  2326 net.cpp:225] Memory required for data: 2805627624
I0327 09:08:28.636852  2326 layer_factory.hpp:114] Creating layer pool5/drop_7x7_s1
I0327 09:08:28.636869  2326 net.cpp:160] Creating Layer pool5/drop_7x7_s1
I0327 09:08:28.636879  2326 net.cpp:596] pool5/drop_7x7_s1 <- pool5/7x7_s1
I0327 09:08:28.636890  2326 net.cpp:557] pool5/drop_7x7_s1 -> pool5/7x7_s1 (in-place)
I0327 09:08:28.636907  2326 net.cpp:210] Setting up pool5/drop_7x7_s1
I0327 09:08:28.636919  2326 net.cpp:217] Top shape: 50 1024 1 1 (51200)
I0327 09:08:28.636927  2326 net.cpp:225] Memory required for data: 2805832424
I0327 09:08:28.636935  2326 layer_factory.hpp:114] Creating layer loss3/classifier
I0327 09:08:28.636958  2326 net.cpp:160] Creating Layer loss3/classifier
I0327 09:08:28.636967  2326 net.cpp:596] loss3/classifier <- pool5/7x7_s1
I0327 09:08:28.636984  2326 net.cpp:570] loss3/classifier -> loss3/classifier
I0327 09:08:28.654573  2326 net.cpp:210] Setting up loss3/classifier
I0327 09:08:28.654641  2326 net.cpp:217] Top shape: 50 1000 (50000)
I0327 09:08:28.654675  2326 net.cpp:225] Memory required for data: 2806032424
I0327 09:08:28.654698  2326 layer_factory.hpp:114] Creating layer loss3/classifier_loss3/classifier_0_split
I0327 09:08:28.654721  2326 net.cpp:160] Creating Layer loss3/classifier_loss3/classifier_0_split
I0327 09:08:28.654734  2326 net.cpp:596] loss3/classifier_loss3/classifier_0_split <- loss3/classifier
I0327 09:08:28.654753  2326 net.cpp:570] loss3/classifier_loss3/classifier_0_split -> loss3/classifier_loss3/classifier_0_split_0
I0327 09:08:28.654775  2326 net.cpp:570] loss3/classifier_loss3/classifier_0_split -> loss3/classifier_loss3/classifier_0_split_1
I0327 09:08:28.654790  2326 net.cpp:570] loss3/classifier_loss3/classifier_0_split -> loss3/classifier_loss3/classifier_0_split_2
I0327 09:08:28.654808  2326 net.cpp:210] Setting up loss3/classifier_loss3/classifier_0_split
I0327 09:08:28.654819  2326 net.cpp:217] Top shape: 50 1000 (50000)
I0327 09:08:28.654829  2326 net.cpp:217] Top shape: 50 1000 (50000)
I0327 09:08:28.654839  2326 net.cpp:217] Top shape: 50 1000 (50000)
I0327 09:08:28.654847  2326 net.cpp:225] Memory required for data: 2806632424
I0327 09:08:28.654856  2326 layer_factory.hpp:114] Creating layer loss3/loss3
I0327 09:08:28.654868  2326 net.cpp:160] Creating Layer loss3/loss3
I0327 09:08:28.654877  2326 net.cpp:596] loss3/loss3 <- loss3/classifier_loss3/classifier_0_split_0
I0327 09:08:28.654888  2326 net.cpp:596] loss3/loss3 <- label_data_1_split_6
…
