…
I0327 09:05:26.095798  2261 net.cpp:484] The NetState phase (0) differed from the phase (1) specified by a rule in layer loss3/top-5
I0327 09:05:26.103258  2261 net.cpp:120] Initializing net from parameters: 
name: "GoogleNet"
state {
  phase: TRAIN
  level: 0
  stage: ""
}
layer {
  name: "data"
  type: "Data"
  top: "data"
  top: "label"
  include {
    phase: TRAIN
  }
  transform_param {
    mirror: true
    crop_size: 224
    mean_value: 104
    mean_value: 117
    mean_value: 123
  }
  data_param {
    source: "/home/user/user/LIBRARIES/caffeLibs/caffe/examples/imagenet/ilsvrc12_train_lmdb"
    batch_size: 48
    backend: LMDB
  }
}
layer {
  name: "label_data_1_split"
  type: "Split"
  bottom: "label"
  top: "label_data_1_split_0"
  top: "label_data_1_split_1"
  top: "label_data_1_split_2"
}
layer {
  name: "conv1/7x7_s2"
  type: "Convolution"
  bottom: "data"
  top: "conv1/7x7_s2"
  param {
    lr_mult: 1
    decay_mult: 1
  }
  param {
    lr_mult: 2
    decay_mult: 0
  }
  convolution_param {
    num_output: 64
    pad: 3
    kernel_size: 7
    stride: 2
    weight_filler {
      type: "xavier"
    }
    bias_filler {
      type: "constant"
      value: 0.2
    }
  }
}
layer {
  name: "conv1/relu_7x7"
  type: "ReLU"
  bottom: "conv1/7x7_s2"
  top: "conv1/7x7_s2"
}
layer {
  name: "pool1/3x3_s2"
  type: "Pooling"
  bottom: "conv1/7x7_s2"
  top: "pool1/3x3_s2"
  pooling_param {
    pool: MAX
    kernel_size: 3
    stride: 2
  }
}
layer {
  name: "pool1/norm1"
  type: "LRN"
  bottom: "pool1/3x3_s2"
  top: "pool1/norm1"
  lrn_param {
    local_size: 5
    alpha: 0.0001
    beta: 0.75
  }
}
layer {
  name: "conv2/3x3_reduce"
  type: "Convolution"
  bottom: "pool1/norm1"
  top: "conv2/3x3_reduce"
  param {
    lr_mult: 1
    decay_mult: 1
  }
  param {
    lr_mult: 2
    decay_mult: 0
  }
  convolution_param {
    num_output: 64
    kernel_size: 1
    weight_filler {
      type: "xavier"
    }
    bias_filler {
      type: "constant"
      value: 0.2
    }
  }
}
layer {
  name: "conv2/relu_3x3_reduce"
  type: "ReLU"
  bottom: "conv2/3x3_reduce"
  top: "conv2/3x3_reduce"
}
layer {
  name: "conv2/3x3"
  type: "Convolution"
  bottom: "conv2/3x3_reduce"
  top: "conv2/3x3"
  param {
    lr_mult: 1
    decay_mult: 1
  }
  param {
    lr_mult: 2
    decay_mult: 0
  }
  convolution_param {
    num_output: 192
    pad: 1
    kernel_size: 3
    weight_filler {
      type: "xavier"
    }
    bias_filler {
      type: "constant"
      value: 0.2
    }
  }
}
layer {
  name: "conv2/relu_3x3"
  type: "ReLU"
  bottom: "conv2/3x3"
  top: "conv2/3x3"
}
layer {
  name: "conv2/norm2"
  type: "LRN"
  bottom: "conv2/3x3"
  top: "conv2/norm2"
  lrn_param {
    local_size: 5
    alpha: 0.0001
    beta: 0.75
  }
}
layer {
  name: "pool2/3x3_s2"
  type: "Pooling"
  bottom: "conv2/norm2"
  top: "pool2/3x3_s2"
  pooling_param {
    pool: MAX
    kernel_size: 3
    stride: 2
  }
}
layer {
  name: "pool2/3x3_s2_pool2/3x3_s2_0_split"
  type: "Split"
  bottom: "pool2/3x3_s2"
  top: "pool2/3x3_s2_pool2/3x3_s2_0_split_0"
  top: "pool2/3x3_s2_pool2/3x3_s2_0_split_1"
  top: "pool2/3x3_s2_pool2/3x3_s2_0_split_2"
  top: "pool2/3x3_s2_pool2/3x3_s2_0_split_3"
}
layer {
  name: "inception_3a/1x1"
  type: "Convolution"
  bottom: "pool2/3x3_s2_pool2/3x3_s2_0_split_0"
  top: "inception_3a/1x1"
  param {
    lr_mult: 1
    decay_mult: 1
  }
  param {
    lr_mult: 2
    decay_mult: 0
  }
  convolution_param {
    num_output: 64
    kernel_size: 1
    weight_filler {
      type: "xavier"
    }
    bias_filler {
      type: "constant"
      value: 0.2
    }
  }
}
layer {
  name: "inception_3a/relu_1x1"
  type: "ReLU"
  bottom: "inception_3a/1x1"
  top: "inception_3a/1x1"
}
layer {
  name: "inception_3a/3x3_reduce"
  type: "Convolution"
  bottom: "pool2/3x3_s2_pool2/3x3_s2_0_split_1"
  top: "inception_3a/3x3_reduce"
  param {
    lr_mult: 1
    decay_mult: 1
  }
  param {
    lr_mult: 2
    decay_mult: 0
  }
  convolution_param {
    num_output: 96
    kernel_size: 1
    weight_filler {
      type: "xavier"
    }
    bias_filler {
      type: "constant"
      value: 0.2
    }
  }
}
layer {
  name: "inception_3a/relu_3x3_reduce"
  type: "ReLU"
  bottom: "inception_3a/3x3_reduce"
  top: "inception_3a/3x3_reduce"
}
layer {
  name: "inception_3a/3x3"
  type: "Convolution"
  bottom: "inception_3a/3x3_reduce"
  top: "inception_3a/3x3"
  param {
    lr_mult: 1
    decay_mult: 1
  }
  param {
    lr_mult: 2
    decay_mult: 0
  }
  convolution_param {
    num_output: 128
    pad: 1
    kernel_size: 3
    weight_filler {
      type: "xavier"
    }
    bias_filler {
      type: "constant"
      value: 0.2
    }
  }
}
layer {
  name: "inception_3a/relu_3x3"
  type: "ReLU"
  bottom: "inception_3a/3x3"
  top: "inception_3a/3x3"
}
layer {
  name: "inception_3a/5x5_reduce"
  type: "Convolution"
  bottom: "pool2/3x3_s2_pool2/3x3_s2_0_split_2"
  top: "inception_3a/5x5_reduce"
  param {
    lr_mult: 1
    decay_mult: 1
  }
  param {
    lr_mult: 2
    decay_mult: 0
  }
  convolution_param {
    num_output: 16
    kernel_size: 1
    weight_filler {
      type: "xavier"
    }
    bias_filler {
      type: "constant"
      value: 0.2
    }
  }
}
layer {
  name: "inception_3a/relu_5x5_reduce"
  type: "ReLU"
  bottom: "inception_3a/5x5_reduce"
  top: "inception_3a/5x5_reduce"
}
layer {
  name: "inception_3a/5x5"
  type: "Convolution"
  bottom: "inception_3a/5x5_reduce"
  top: "inception_3a/5x5"
  param {
    lr_mult: 1
    decay_mult: 1
  }
  param {
    lr_mult: 2
    decay_mult: 0
  }
  convolution_param {
    num_output: 32
    pad: 2
    kernel_size: 5
    weight_filler {
      type: "xavier"
    }
    bias_filler {
      type: "constant"
      value: 0.2
    }
  }
}
layer {
  name: "inception_3a/relu_5x5"
  type: "ReLU"
  bottom: "inception_3a/5x5"
  top: "inception_3a/5x5"
}
layer {
  name: "inception_3a/pool"
  type: "Pooling"
  bottom: "pool2/3x3_s2_pool2/3x3_s2_0_split_3"
  top: "inception_3a/pool"
  pooling_param {
    pool: MAX
    kernel_size: 3
    stride: 1
    pad: 1
  }
}
layer {
  name: "inception_3a/pool_proj"
  type: "Convolution"
  bottom: "inception_3a/pool"
  top: "inception_3a/pool_proj"
  param {
    lr_mult: 1
    decay_mult: 1
  }
  param {
    lr_mult: 2
    decay_mult: 0
  }
  convolution_param {
    num_output: 32
    kernel_size: 1
    weight_filler {
      type: "xavier"
    }
    bias_filler {
      type: "constant"
      value: 0.2
    }
  }
}
layer {
  name: "inception_3a/relu_pool_proj"
  type: "ReLU"
  bottom: "inception_3a/pool_proj"
  top: "inception_3a/pool_proj"
}
layer {
  name: "inception_3a/output"
  type: "Concat"
  bottom: "inception_3a/1x1"
  bottom: "inception_3a/3x3"
  bottom: "inception_3a/5x5"
  bottom: "inception_3a/pool_proj"
  top: "inception_3a/output"
}
layer {
  name: "inception_3a/output_inception_3a/output_0_split"
  type: "Split"
  bottom: "inception_3a/output"
  top: "inception_3a/output_inception_3a/output_0_split_0"
  top: "inception_3a/output_inception_3a/output_0_split_1"
  top: "inception_3a/output_inception_3a/output_0_split_2"
  top: "inception_3a/output_inception_3a/output_0_split_3"
}
layer {
  name: "inception_3b/1x1"
  type: "Convolution"
  bottom: "inception_3a/output_inception_3a/output_0_split_0"
  top: "inception_3b/1x1"
  param {
    lr_mult: 1
    decay_mult: 1
  }
  param {
    lr_mult: 2
    decay_mult: 0
  }
  convolution_param {
    num_output: 128
    kernel_size: 1
    weight_filler {
      type: "xavier"
    }
    bias_filler {
      type: "constant"
      value: 0.2
    }
  }
}
layer {
  name: "inception_3b/relu_1x1"
  type: "ReLU"
  bottom: "inception_3b/1x1"
  top: "inception_3b/1x1"
}
layer {
  name: "inception_3b/3x3_reduce"
  type: "Convolution"
  bottom: "inception_3a/output_inception_3a/output_0_split_1"
  top: "inception_3b/3x3_reduce"
  param {
    lr_mult: 1
    decay_mult: 1
  }
  param {
    lr_mult: 2
    decay_mult: 0
  }
  convolution_param {
    num_output: 128
    kernel_size: 1
    weight_filler {
      type: "xavier"
    }
    bias_filler {
      type: "constant"
      value: 0.2
    }
  }
}
layer {
  name: "inception_3b/relu_3x3_reduce"
  type: "ReLU"
  bottom: "inception_3b/3x3_reduce"
  top: "inception_3b/3x3_reduce"
}
layer {
  name: "inception_3b/3x3"
  type: "Convolution"
  bottom: "inception_3b/3x3_reduce"
  top: "inception_3b/3x3"
  param {
    lr_mult: 1
    decay_mult: 1
  }
  param {
    lr_mult: 2
    decay_mult: 0
  }
  convolution_param {
    num_output: 192
    pad: 1
    kernel_size: 3
    weight_filler {
      type: "xavier"
    }
    bias_filler {
      type: "constant"
      value: 0.2
    }
  }
}
layer {
  name: "inception_3b/relu_3x3"
  type: "ReLU"
  bottom: "inception_3b/3x3"
  top: "inception_3b/3x3"
}
layer {
  name: "inception_3b/5x5_reduce"
  type: "Convolution"
  bottom: "inception_3a/output_inception_3a/output_0_split_2"
  top: "inception_3b/5x5_reduce"
  param {
    lr_mult: 1
    decay_mult: 1
  }
  param {
    lr_mult: 2
    decay_mult: 0
  }
  convolution_param {
    num_output: 32
    kernel_size: 1
    weight_filler {
      type: "xavier"
    }
    bias_filler {
      type: "constant"
      value: 0.2
    }
  }
}
layer {
  name: "inception_3b/relu_5x5_reduce"
  type: "ReLU"
  bottom: "inception_3b/5x5_reduce"
  top: "inception_3b/5x5_reduce"
}
layer {
  name: "inception_3b/5x5"
  type: "Convolution"
  bottom: "inception_3b/5x5_reduce"
  top: "inception_3b/5x5"
  param {
    lr_mult: 1
    decay_mult: 1
  }
  param {
    lr_mult: 2
    decay_mult: 0
  }
  convolution_param {
    num_output: 96
    pad: 2
    kernel_size: 5
    weight_filler {
      type: "xavier"
    }
    bias_filler {
      type: "constant"
      value: 0.2
    }
  }
}
layer {
  name: "inception_3b/relu_5x5"
  type: "ReLU"
  bottom: "inception_3b/5x5"
  top: "inception_3b/5x5"
}
layer {
  name: "inception_3b/pool"
  type: "Pooling"
  bottom: "inception_3a/output_inception_3a/output_0_split_3"
  top: "inception_3b/pool"
  pooling_param {
    pool: MAX
    kernel_size: 3
    stride: 1
    pad: 1
  }
}
layer {
  name: "inception_3b/pool_proj"
  type: "Convolution"
  bottom: "inception_3b/pool"
  top: "inception_3b/pool_proj"
  param {
    lr_mult: 1
    decay_mult: 1
  }
  param {
    lr_mult: 2
    decay_mult: 0
  }
  convolution_param {
    num_output: 64
    kernel_size: 1
    weight_filler {
      type: "xavier"
    }
    bias_filler {
      type: "constant"
      value: 0.2
    }
  }
}
layer {
  name: "inception_3b/relu_pool_proj"
  type: "ReLU"
  bottom: "inception_3b/pool_proj"
  top: "inception_3b/pool_proj"
}
layer {
  name: "inception_3b/output"
  type: "Concat"
  bottom: "inception_3b/1x1"
  bottom: "inception_3b/3x3"
  bottom: "inception_3b/5x5"
  bottom: "inception_3b/pool_proj"
  top: "inception_3b/output"
}
layer {
  name: "pool3/3x3_s2"
  type: "Pooling"
  bottom: "inception_3b/output"
  top: "pool3/3x3_s2"
  pooling_param {
    pool: MAX
    kernel_size: 3
    stride: 2
  }
}
layer {
  name: "pool3/3x3_s2_pool3/3x3_s2_0_split"
  type: "Split"
  bottom: "pool3/3x3_s2"
  top: "pool3/3x3_s2_pool3/3x3_s2_0_split_0"
  top: "pool3/3x3_s2_pool3/3x3_s2_0_split_1"
  top: "pool3/3x3_s2_pool3/3x3_s2_0_split_2"
  top: "pool3/3x3_s2_pool3/3x3_s2_0_split_3"
}
layer {
  name: "inception_4a/1x1"
  type: "Convolution"
  bottom: "pool3/3x3_s2_pool3/3x3_s2_0_split_0"
  top: "inception_4a/1x1"
  param {
    lr_mult: 1
    decay_mult: 1
  }
  param {
    lr_mult: 2
    decay_mult: 0
  }
  convolution_param {
    num_output: 192
    kernel_size: 1
    weight_filler {
      type: "xavier"
    }
    bias_filler {
      type: "constant"
      value: 0.2
    }
  }
}
layer {
  name: "inception_4a/relu_1x1"
  type: "ReLU"
  bottom: "inception_4a/1x1"
  top: "inception_4a/1x1"
}
layer {
  name: "inception_4a/3x3_reduce"
  type: "Convolution"
  bottom: "pool3/3x3_s2_pool3/3x3_s2_0_split_1"
  top: "inception_4a/3x3_reduce"
  param {
    lr_mult: 1
    decay_mult: 1
  }
  param {
    lr_mult: 2
    decay_mult: 0
  }
  convolution_param {
    num_output: 96
    kernel_size: 1
    weight_filler {
      type: "xavier"
    }
    bias_filler {
      type: "constant"
      value: 0.2
    }
  }
}
layer {
  name: "inception_4a/relu_3x3_reduce"
  type: "ReLU"
  bottom: "inception_4a/3x3_reduce"
  top: "inception_4a/3x3_reduce"
}
layer {
  name: "inception_4a/3x3"
  type: "Convolution"
  bottom: "inception_4a/3x3_reduce"
  top: "inception_4a/3x3"
  param {
    lr_mult: 1
    decay_mult: 1
  }
  param {
    lr_mult: 2
    decay_mult: 0
  }
  convolution_param {
    num_output: 208
    pad: 1
    kernel_size: 3
    weight_filler {
      type: "xavier"
    }
    bias_filler {
      type: "constant"
      value: 0.2
    }
  }
}
layer {
  name: "inception_4a/relu_3x3"
  type: "ReLU"
  bottom: "inception_4a/3x3"
  top: "inception_4a/3x3"
}
layer {
  name: "inception_4a/5x5_reduce"
  type: "Convolution"
  bottom: "pool3/3x3_s2_pool3/3x3_s2_0_split_2"
  top: "inception_4a/5x5_reduce"
  param {
    lr_mult: 1
    decay_mult: 1
  }
  param {
    lr_mult: 2
    decay_mult: 0
  }
  convolution_param {
    num_output: 16
    kernel_size: 1
    weight_filler {
      type: "xavier"
    }
    bias_filler {
      type: "constant"
      value: 0.2
    }
  }
}
layer {
  name: "inception_4a/relu_5x5_reduce"
  type: "ReLU"
  bottom: "inception_4a/5x5_reduce"
  top: "inception_4a/5x5_reduce"
}
layer {
  name: "inception_4a/5x5"
  type: "Convolution"
  bottom: "inception_4a/5x5_reduce"
  top: "inception_4a/5x5"
  param {
    lr_mult: 1
    decay_mult: 1
  }
  param {
    lr_mult: 2
    decay_mult: 0
  }
  convolution_param {
    num_output: 48
    pad: 2
    kernel_size: 5
    weight_filler {
      type: "xavier"
    }
    bias_filler {
      type: "constant"
      value: 0.2
    }
  }
}
layer {
  name: "inception_4a/relu_5x5"
  type: "ReLU"
  bottom: "inception_4a/5x5"
  top: "inception_4a/5x5"
}
layer {
  name: "inception_4a/pool"
  type: "Pooling"
  bottom: "pool3/3x3_s2_pool3/3x3_s2_0_split_3"
  top: "inception_4a/pool"
  pooling_param {
    pool: MAX
    kernel_size: 3
    stride: 1
    pad: 1
  }
}
layer {
  name: "inception_4a/pool_proj"
  type: "Convolution"
  bottom: "inception_4a/pool"
  top: "inception_4a/pool_proj"
  param {
    lr_mult: 1
    decay_mult: 1
  }
  param {
    lr_mult: 2
    decay_mult: 0
  }
  convolution_param {
    num_output: 64
    kernel_size: 1
    weight_filler {
      type: "xavier"
    }
    bias_filler {
      type: "constant"
      value: 0.2
    }
  }
}
layer {
  name: "inception_4a/relu_pool_proj"
  type: "ReLU"
  bottom: "inception_4a/pool_proj"
  top: "inception_4a/pool_proj"
}
layer {
  name: "inception_4a/output"
  type: "Concat"
  bottom: "inception_4a/1x1"
  bottom: "inception_4a/3x3"
  bottom: "inception_4a/5x5"
  bottom: "inception_4a/pool_proj"
  top: "inception_4a/output"
}
layer {
  name: "inception_4a/output_inception_4a/output_0_split"
  type: "Split"
  bottom: "inception_4a/output"
  top: "inception_4a/output_inception_4a/output_0_split_0"
  top: "inception_4a/output_inception_4a/output_0_split_1"
  top: "inception_4a/output_inception_4a/output_0_split_2"
  top: "inception_4a/output_inception_4a/output_0_split_3"
  top: "inception_4a/output_inception_4a/output_0_split_4"
}
layer {
  name: "loss1/ave_pool"
  type: "Pooling"
  bottom: "inception_4a/output_inception_4a/output_0_split_0"
  top: "loss1/ave_pool"
  pooling_param {
    pool: AVE
    kernel_size: 5
    stride: 3
  }
}
layer {
  name: "loss1/conv"
  type: "Convolution"
  bottom: "loss1/ave_pool"
  top: "loss1/conv"
  param {
    lr_mult: 1
    decay_mult: 1
  }
  param {
    lr_mult: 2
    decay_mult: 0
  }
  convolution_param {
    num_output: 128
    kernel_size: 1
    weight_filler {
      type: "xavier"
    }
    bias_filler {
      type: "constant"
      value: 0.2
    }
  }
}
layer {
  name: "loss1/relu_conv"
  type: "ReLU"
  bottom: "loss1/conv"
  top: "loss1/conv"
}
layer {
  name: "loss1/fc"
  type: "InnerProduct"
  bottom: "loss1/conv"
  top: "loss1/fc"
  param {
    lr_mult: 1
    decay_mult: 1
  }
  param {
    lr_mult: 2
    decay_mult: 0
  }
  inner_product_param {
    num_output: 1024
    weight_filler {
      type: "xavier"
    }
    bias_filler {
      type: "constant"
      value: 0.2
    }
  }
}
layer {
  name: "loss1/relu_fc"
  type: "ReLU"
  bottom: "loss1/fc"
  top: "loss1/fc"
}
layer {
  name: "loss1/drop_fc"
  type: "Dropout"
  bottom: "loss1/fc"
  top: "loss1/fc"
  dropout_param {
    dropout_ratio: 0.7
  }
}
layer {
  name: "loss1/classifier"
  type: "InnerProduct"
  bottom: "loss1/fc"
  top: "loss1/classifier"
  param {
    lr_mult: 1
    decay_mult: 1
  }
  param {
    lr_mult: 2
    decay_mult: 0
  }
  inner_product_param {
    num_output: 1000
    weight_filler {
      type: "xavier"
    }
    bias_filler {
      type: "constant"
      value: 0
    }
  }
}
layer {
  name: "loss1/loss"
  type: "SoftmaxWithLoss"
  bottom: "loss1/classifier"
  bottom: "label_data_1_split_0"
  top: "loss1/loss1"
  loss_weight: 0.3
}
layer {
  name: "inception_4b/1x1"
  type: "Convolution"
  bottom: "inception_4a/output_inception_4a/output_0_split_1"
  top: "inception_4b/1x1"
  param {
    lr_mult: 1
    decay_mult: 1
  }
  param {
    lr_mult: 2
    decay_mult: 0
  }
  convolution_param {
    num_output: 160
    kernel_size: 1
    weight_filler {
      type: "xavier"
    }
    bias_filler {
      type: "constant"
      value: 0.2
    }
  }
}
layer {
  name: "inception_4b/relu_1x1"
  type: "ReLU"
  bottom: "inception_4b/1x1"
  top: "inception_4b/1x1"
}
layer {
  name: "inception_4b/3x3_reduce"
  type: "Convolution"
  bottom: "inception_4a/output_inception_4a/output_0_split_2"
  top: "inception_4b/3x3_reduce"
  param {
    lr_mult: 1
    decay_mult: 1
  }
  param {
    lr_mult: 2
    decay_mult: 0
  }
  convolution_param {
    num_output: 112
    kernel_size: 1
    weight_filler {
      type: "xavier"
    }
    bias_filler {
      type: "constant"
      value: 0.2
    }
  }
}
layer {
  name: "inception_4b/relu_3x3_reduce"
  type: "ReLU"
  bottom: "inception_4b/3x3_reduce"
  top: "inception_4b/3x3_reduce"
}
layer {
  name: "inception_4b/3x3"
  type: "Convolution"
  bottom: "inception_4b/3x3_reduce"
  top: "inception_4b/3x3"
  param {
    lr_mult: 1
    decay_mult: 1
  }
  param {
    lr_mult: 2
    decay_mult: 0
  }
  convolution_param {
    num_output: 224
    pad: 1
    kernel_size: 3
    weight_filler {
      type: "xavier"
    }
    bias_filler {
      type: "constant"
      value: 0.2
    }
  }
}
layer {
  name: "inception_4b/relu_3x3"
  type: "ReLU"
  bottom: "inception_4b/3x3"
  top: "inception_4b/3x3"
}
layer {
  name: "inception_4b/5x5_reduce"
  type: "Convolution"
  bottom: "inception_4a/output_inception_4a/output_0_split_3"
  top: "inception_4b/5x5_reduce"
  param {
    lr_mult: 1
    decay_mult: 1
  }
  param {
    lr_mult: 2
    decay_mult: 0
  }
  convolution_param {
    num_output: 24
    kernel_size: 1
    weight_filler {
      type: "xavier"
    }
    bias_filler {
      type: "constant"
      value: 0.2
    }
  }
}
layer {
  name: "inception_4b/relu_5x5_reduce"
  type: "ReLU"
  bottom: "inception_4b/5x5_reduce"
  top: "inception_4b/5x5_reduce"
}
layer {
  name: "inception_4b/5x5"
  type: "Convolution"
  bottom: "inception_4b/5x5_reduce"
  top: "inception_4b/5x5"
  param {
    lr_mult: 1
    decay_mult: 1
  }
  param {
    lr_mult: 2
    decay_mult: 0
  }
  convolution_param {
    num_output: 64
    pad: 2
    kernel_size: 5
    weight_filler {
      type: "xavier"
    }
    bias_filler {
      type: "constant"
      value: 0.2
    }
  }
}
layer {
  name: "inception_4b/relu_5x5"
  type: "ReLU"
  bottom: "inception_4b/5x5"
  top: "inception_4b/5x5"
}
layer {
  name: "inception_4b/pool"
  type: "Pooling"
  bottom: "inception_4a/output_inception_4a/output_0_split_4"
  top: "inception_4b/pool"
  pooling_param {
    pool: MAX
    kernel_size: 3
    stride: 1
    pad: 1
  }
}
layer {
  name: "inception_4b/pool_proj"
  type: "Convolution"
  bottom: "inception_4b/pool"
  top: "inception_4b/pool_proj"
  param {
    lr_mult: 1
    decay_mult: 1
  }
  param {
    lr_mult: 2
    decay_mult: 0
  }
  convolution_param {
    num_output: 64
    kernel_size: 1
    weight_filler {
      type: "xavier"
    }
    bias_filler {
      type: "constant"
      value: 0.2
    }
  }
}
layer {
  name: "inception_4b/relu_pool_proj"
  type: "ReLU"
  bottom: "inception_4b/pool_proj"
  top: "inception_4b/pool_proj"
}
layer {
  name: "inception_4b/output"
  type: "Concat"
  bottom: "inception_4b/1x1"
  bottom: "inception_4b/3x3"
  bottom: "inception_4b/5x5"
  bottom: "inception_4b/pool_proj"
  top: "inception_4b/output"
}
layer {
  name: "inception_4b/output_inception_4b/output_0_split"
  type: "Split"
  bottom: "inception_4b/output"
  top: "inception_4b/output_inception_4b/output_0_split_0"
  top: "inception_4b/output_inception_4b/output_0_split_1"
  top: "inception_4b/output_inception_4b/output_0_split_2"
  top: "inception_4b/output_inception_4b/output_0_split_3"
}
layer {
  name: "inception_4c/1x1"
  type: "Convolution"
  bottom: "inception_4b/output_inception_4b/output_0_split_0"
  top: "inception_4c/1x1"
  param {
    lr_mult: 1
    decay_mult: 1
  }
  param {
    lr_mult: 2
    decay_mult: 0
  }
  convolution_param {
    num_output: 128
    kernel_size: 1
    weight_filler {
      type: "xavier"
    }
    bias_filler {
      type: "constant"
      value: 0.2
    }
  }
}
layer {
  name: "inception_4c/relu_1x1"
  type: "ReLU"
  bottom: "inception_4c/1x1"
  top: "inception_4c/1x1"
}
layer {
  name: "inception_4c/3x3_reduce"
  type: "Convolution"
  bottom: "inception_4b/output_inception_4b/output_0_split_1"
  top: "inception_4c/3x3_reduce"
  param {
    lr_mult: 1
    decay_mult: 1
  }
  param {
    lr_mult: 2
    decay_mult: 0
  }
  convolution_param {
    num_output: 128
    kernel_size: 1
    weight_filler {
      type: "xavier"
    }
    bias_filler {
      type: "constant"
      value: 0.2
    }
  }
}
layer {
  name: "inception_4c/relu_3x3_reduce"
  type: "ReLU"
  bottom: "inception_4c/3x3_reduce"
  top: "inception_4c/3x3_reduce"
}
layer {
  name: "inception_4c/3x3"
  type: "Convolution"
  bottom: "inception_4c/3x3_reduce"
  top: "inception_4c/3x3"
  param {
    lr_mult: 1
    decay_mult: 1
  }
  param {
    lr_mult: 2
    decay_mult: 0
  }
  convolution_param {
    num_output: 256
    pad: 1
    kernel_size: 3
    weight_filler {
      type: "xavier"
    }
    bias_filler {
      type: "constant"
      value: 0.2
    }
  }
}
layer {
  name: "inception_4c/relu_3x3"
  type: "ReLU"
  bottom: "inception_4c/3x3"
  top: "inception_4c/3x3"
}
layer {
  name: "inception_4c/5x5_reduce"
  type: "Convolution"
  bottom: "inception_4b/output_inception_4b/output_0_split_2"
  top: "inception_4c/5x5_reduce"
  param {
    lr_mult: 1
    decay_mult: 1
  }
  param {
    lr_mult: 2
    decay_mult: 0
  }
  convolution_param {
    num_output: 24
    kernel_size: 1
    weight_filler {
      type: "xavier"
    }
    bias_filler {
      type: "constant"
      value: 0.2
    }
  }
}
layer {
  name: "inception_4c/relu_5x5_reduce"
  type: "ReLU"
  bottom: "inception_4c/5x5_reduce"
  top: "inception_4c/5x5_reduce"
}
layer {
  name: "inception_4c/5x5"
  type: "Convolution"
  bottom: "inception_4c/5x5_reduce"
  top: "inception_4c/5x5"
  param {
    lr_mult: 1
    decay_mult: 1
  }
  param {
    lr_mult: 2
    decay_mult: 0
  }
  convolution_param {
    num_output: 64
    pad: 2
    kernel_size: 5
    weight_filler {
      type: "xavier"
    }
    bias_filler {
      type: "constant"
      value: 0.2
    }
  }
}
layer {
  name: "inception_4c/relu_5x5"
  type: "ReLU"
  bottom: "inception_4c/5x5"
  top: "inception_4c/5x5"
}
layer {
  name: "inception_4c/pool"
  type: "Pooling"
  bottom: "inception_4b/output_inception_4b/output_0_split_3"
  top: "inception_4c/pool"
  pooling_param {
    pool: MAX
    kernel_size: 3
    stride: 1
    pad: 1
  }
}
layer {
  name: "inception_4c/pool_proj"
  type: "Convolution"
  bottom: "inception_4c/pool"
  top: "inception_4c/pool_proj"
  param {
    lr_mult: 1
    decay_mult: 1
  }
  param {
    lr_mult: 2
    decay_mult: 0
  }
  convolution_param {
    num_output: 64
    kernel_size: 1
    weight_filler {
      type: "xavier"
    }
    bias_filler {
      type: "constant"
      value: 0.2
    }
  }
}
layer {
  name: "inception_4c/relu_pool_proj"
  type: "ReLU"
  bottom: "inception_4c/pool_proj"
  top: "inception_4c/pool_proj"
}
layer {
  name: "inception_4c/output"
  type: "Concat"
  bottom: "inception_4c/1x1"
  bottom: "inception_4c/3x3"
  bottom: "inception_4c/5x5"
  bottom: "inception_4c/pool_proj"
  top: "inception_4c/output"
}
layer {
  name: "inception_4c/output_inception_4c/output_0_split"
  type: "Split"
  bottom: "inception_4c/output"
  top: "inception_4c/output_inception_4c/output_0_split_0"
  top: "inception_4c/output_inception_4c/output_0_split_1"
  top: "inception_4c/output_inception_4c/output_0_split_2"
  top: "inception_4c/output_inception_4c/output_0_split_3"
}
layer {
  name: "inception_4d/1x1"
  type: "Convolution"
  bottom: "inception_4c/output_inception_4c/output_0_split_0"
  top: "inception_4d/1x1"
  param {
    lr_mult: 1
    decay_mult: 1
  }
  param {
    lr_mult: 2
    decay_mult: 0
  }
  convolution_param {
    num_output: 112
    kernel_size: 1
    weight_filler {
      type: "xavier"
    }
    bias_filler {
      type: "constant"
      value: 0.2
    }
  }
}
layer {
  name: "inception_4d/relu_1x1"
  type: "ReLU"
  bottom: "inception_4d/1x1"
  top: "inception_4d/1x1"
}
layer {
  name: "inception_4d/3x3_reduce"
  type: "Convolution"
  bottom: "inception_4c/output_inception_4c/output_0_split_1"
  top: "inception_4d/3x3_reduce"
  param {
    lr_mult: 1
    decay_mult: 1
  }
  param {
    lr_mult: 2
    decay_mult: 0
  }
  convolution_param {
    num_output: 144
    kernel_size: 1
    weight_filler {
      type: "xavier"
    }
    bias_filler {
      type: "constant"
      value: 0.2
    }
  }
}
layer {
  name: "inception_4d/relu_3x3_reduce"
  type: "ReLU"
  bottom: "inception_4d/3x3_reduce"
  top: "inception_4d/3x3_reduce"
}
layer {
  name: "inception_4d/3x3"
  type: "Convolution"
  bottom: "inception_4d/3x3_reduce"
  top: "inception_4d/3x3"
  param {
    lr_mult: 1
    decay_mult: 1
  }
  param {
    lr_mult: 2
    decay_mult: 0
  }
  convolution_param {
    num_output: 288
    pad: 1
    kernel_size: 3
    weight_filler {
      type: "xavier"
    }
    bias_filler {
      type: "constant"
      value: 0.2
    }
  }
}
layer {
  name: "inception_4d/relu_3x3"
  type: "ReLU"
  bottom: "inception_4d/3x3"
  top: "inception_4d/3x3"
}
layer {
  name: "inception_4d/5x5_reduce"
  type: "Convolution"
  bottom: "inception_4c/output_inception_4c/output_0_split_2"
  top: "inception_4d/5x5_reduce"
  param {
    lr_mult: 1
    decay_mult: 1
  }
  param {
    lr_mult: 2
    decay_mult: 0
  }
  convolution_param {
    num_output: 32
    kernel_size: 1
    weight_filler {
      type: "xavier"
    }
    bias_filler {
      type: "constant"
      value: 0.2
    }
  }
}
layer {
  name: "inception_4d/relu_5x5_reduce"
  type: "ReLU"
  bottom: "inception_4d/5x5_reduce"
  top: "inception_4d/5x5_reduce"
}
layer {
  name: "inception_4d/5x5"
  type: "Convolution"
  bottom: "inception_4d/5x5_reduce"
  top: "inception_4d/5x5"
  param {
    lr_mult: 1
    decay_mult: 1
  }
  param {
    lr_mult: 2
    decay_mult: 0
  }
  convolution_param {
    num_output: 64
    pad: 2
    kernel_size: 5
    weight_filler {
      type: "xavier"
    }
    bias_filler {
      type: "constant"
      value: 0.2
    }
  }
}
layer {
  name: "inception_4d/relu_5x5"
  type: "ReLU"
  bottom: "inception_4d/5x5"
  top: "inception_4d/5x5"
}
layer {
  name: "inception_4d/pool"
  type: "Pooling"
  bottom: "inception_4c/output_inception_4c/output_0_split_3"
  top: "inception_4d/pool"
  pooling_param {
    pool: MAX
    kernel_size: 3
    stride: 1
    pad: 1
  }
}
layer {
  name: "inception_4d/pool_proj"
  type: "Convolution"
  bottom: "inception_4d/pool"
  top: "inception_4d/pool_proj"
  param {
    lr_mult: 1
    decay_mult: 1
  }
  param {
    lr_mult: 2
    decay_mult: 0
  }
  convolution_param {
    num_output: 64
    kernel_size: 1
    weight_filler {
      type: "xavier"
    }
    bias_filler {
      type: "constant"
      value: 0.2
    }
  }
}
layer {
  name: "inception_4d/relu_pool_proj"
  type: "ReLU"
  bottom: "inception_4d/pool_proj"
  top: "inception_4d/pool_proj"
}
layer {
  name: "inception_4d/output"
  type: "Concat"
  bottom: "inception_4d/1x1"
  bottom: "inception_4d/3x3"
  bottom: "inception_4d/5x5"
  bottom: "inception_4d/pool_proj"
  top: "inception_4d/output"
}
layer {
  name: "inception_4d/output_inception_4d/output_0_split"
  type: "Split"
  bottom: "inception_4d/output"
  top: "inception_4d/output_inception_4d/output_0_split_0"
  top: "inception_4d/output_inception_4d/output_0_split_1"
  top: "inception_4d/output_inception_4d/output_0_split_2"
  top: "inception_4d/output_inception_4d/output_0_split_3"
  top: "inception_4d/output_inception_4d/output_0_split_4"
}
layer {
  name: "loss2/ave_pool"
  type: "Pooling"
  bottom: "inception_4d/output_inception_4d/output_0_split_0"
  top: "loss2/ave_pool"
  pooling_param {
    pool: AVE
    kernel_size: 5
    stride: 3
  }
}
layer {
  name: "loss2/conv"
  type: "Convolution"
  bottom: "loss2/ave_pool"
  top: "loss2/conv"
  param {
    lr_mult: 1
    decay_mult: 1
  }
  param {
    lr_mult: 2
    decay_mult: 0
  }
  convolution_param {
    num_output: 128
    kernel_size: 1
    weight_filler {
      type: "xavier"
    }
    bias_filler {
      type: "constant"
      value: 0.2
    }
  }
}
layer {
  name: "loss2/relu_conv"
  type: "ReLU"
  bottom: "loss2/conv"
  top: "loss2/conv"
}
layer {
  name: "loss2/fc"
  type: "InnerProduct"
  bottom: "loss2/conv"
  top: "loss2/fc"
  param {
    lr_mult: 1
    decay_mult: 1
  }
  param {
    lr_mult: 2
    decay_mult: 0
  }
  inner_product_param {
    num_output: 1024
    weight_filler {
      type: "xavier"
    }
    bias_filler {
      type: "constant"
      value: 0.2
    }
  }
}
layer {
  name: "loss2/relu_fc"
  type: "ReLU"
  bottom: "loss2/fc"
  top: "loss2/fc"
}
layer {
  name:
I0327 09:05:26.103548  2261 layer_factory.hpp:114] Creating layer data
I0327 09:05:26.104336  2261 net.cpp:160] Creating Layer data
I0327 09:05:26.104358  2261 net.cpp:570] data -> data
I0327 09:05:26.104573  2261 net.cpp:570] data -> label
I0327 09:05:26.104733  2262 db_lmdb.cpp:72] Opened lmdb /home/user/user/LIBRARIES/caffeLibs/caffe/examples/imagenet/ilsvrc12_train_lmdb
I0327 09:05:26.105532  2261 data_layer.cpp:80] output data size: 48,3,224,224
I0327 09:05:26.156739  2261 net.cpp:210] Setting up data
I0327 09:05:26.156841  2261 net.cpp:217] Top shape: 48 3 224 224 (7225344)
I0327 09:05:26.156855  2261 net.cpp:217] Top shape: 48 (48)
I0327 09:05:26.156893  2261 net.cpp:225] Memory required for data: 28901568
I0327 09:05:26.156911  2261 layer_factory.hpp:114] Creating layer label_data_1_split
I0327 09:05:26.156950  2261 net.cpp:160] Creating Layer label_data_1_split
I0327 09:05:26.156965  2261 net.cpp:596] label_data_1_split <- label
I0327 09:05:26.156985  2261 net.cpp:570] label_data_1_split -> label_data_1_split_0
I0327 09:05:26.157008  2261 net.cpp:570] label_data_1_split -> label_data_1_split_1
I0327 09:05:26.157033  2261 net.cpp:570] label_data_1_split -> label_data_1_split_2
I0327 09:05:26.157060  2261 net.cpp:210] Setting up label_data_1_split
I0327 09:05:26.157073  2261 net.cpp:217] Top shape: 48 (48)
I0327 09:05:26.157084  2261 net.cpp:217] Top shape: 48 (48)
I0327 09:05:26.157095  2261 net.cpp:217] Top shape: 48 (48)
I0327 09:05:26.157104  2261 net.cpp:225] Memory required for data: 28902144
I0327 09:05:26.157112  2261 layer_factory.hpp:114] Creating layer conv1/7x7_s2
I0327 09:05:26.157145  2261 net.cpp:160] Creating Layer conv1/7x7_s2
I0327 09:05:26.157156  2261 net.cpp:596] conv1/7x7_s2 <- data
I0327 09:05:26.157172  2261 net.cpp:570] conv1/7x7_s2 -> conv1/7x7_s2
OMP: Info #242: KMP_AFFINITY: pid 2261 thread 1 bound to OS proc set {12,13,14,15,16,17,18,19,20,21,22,23}
…
OMP: Info #242: KMP_AFFINITY: pid 2261 thread 20 bound to OS proc set {0,1,2,3,4,5,6,7,8,9,10,11}
OMP: Info #242: KMP_AFFINITY: pid 2261 thread 19 bound to OS proc set {12,13,14,15,16,17,18,19,20,21,22,23}
OMP: Info #242: KMP_AFFINITY: pid 2261 thread 22 bound to OS proc set {0,1,2,3,4,5,6,7,8,9,10,11}
OMP: Info #242: KMP_AFFINITY: pid 2261 thread 21 bound to OS proc set {12,13,14,15,16,17,18,19,20,21,22,23}
OMP: Info #242: KMP_AFFINITY: pid 2261 thread 23 bound to OS proc set {12,13,14,15,16,17,18,19,20,21,22,23}
I0327 09:05:26.242751  2261 net.cpp:210] Setting up conv1/7x7_s2
I0327 09:05:26.242841  2261 net.cpp:217] Top shape: 48 64 112 112 (38535168)
I0327 09:05:26.242852  2261 net.cpp:225] Memory required for data: 183042816
I0327 09:05:26.242900  2261 layer_factory.hpp:114] Creating layer conv1/relu_7x7
I0327 09:05:26.242929  2261 net.cpp:160] Creating Layer conv1/relu_7x7
I0327 09:05:26.242943  2261 net.cpp:596] conv1/relu_7x7 <- conv1/7x7_s2
I0327 09:05:26.242964  2261 net.cpp:557] conv1/relu_7x7 -> conv1/7x7_s2 (in-place)
I0327 09:05:26.242992  2261 net.cpp:210] Setting up conv1/relu_7x7
I0327 09:05:26.243005  2261 net.cpp:217] Top shape: 48 64 112 112 (38535168)
I0327 09:05:26.243015  2261 net.cpp:225] Memory required for data: 337183488
I0327 09:05:26.243036  2261 layer_factory.hpp:114] Creating layer pool1/3x3_s2
I0327 09:05:26.243129  2261 net.cpp:160] Creating Layer pool1/3x3_s2
I0327 09:05:26.243140  2261 net.cpp:596] pool1/3x3_s2 <- conv1/7x7_s2
I0327 09:05:26.243155  2261 net.cpp:570] pool1/3x3_s2 -> pool1/3x3_s2
I0327 09:05:26.243186  2261 net.cpp:210] Setting up pool1/3x3_s2
I0327 09:05:26.243199  2261 net.cpp:217] Top shape: 48 64 56 56 (9633792)
I0327 09:05:26.243207  2261 net.cpp:225] Memory required for data: 375718656
I0327 09:05:26.243217  2261 layer_factory.hpp:114] Creating layer pool1/norm1
I0327 09:05:26.243237  2261 net.cpp:160] Creating Layer pool1/norm1
I0327 09:05:26.243247  2261 net.cpp:596] pool1/norm1 <- pool1/3x3_s2
I0327 09:05:26.243258  2261 net.cpp:570] pool1/norm1 -> pool1/norm1
I0327 09:05:26.243283  2261 net.cpp:210] Setting up pool1/norm1
I0327 09:05:26.243295  2261 net.cpp:217] Top shape: 48 64 56 56 (9633792)
I0327 09:05:26.243304  2261 net.cpp:225] Memory required for data: 414253824
I0327 09:05:26.243317  2261 layer_factory.hpp:114] Creating layer conv2/3x3_reduce
I0327 09:05:26.243350  2261 net.cpp:160] Creating Layer conv2/3x3_reduce
I0327 09:05:26.243360  2261 net.cpp:596] conv2/3x3_reduce <- pool1/norm1
I0327 09:05:26.243373  2261 net.cpp:570] conv2/3x3_reduce -> conv2/3x3_reduce
I0327 09:05:26.252338  2261 net.cpp:210] Setting up conv2/3x3_reduce
I0327 09:05:26.252424  2261 net.cpp:217] Top shape: 48 64 56 56 (9633792)
I0327 09:05:26.252454  2261 net.cpp:225] Memory required for data: 452788992
I0327 09:05:26.252490  2261 layer_factory.hpp:114] Creating layer conv2/relu_3x3_reduce
I0327 09:05:26.252518  2261 net.cpp:160] Creating Layer conv2/relu_3x3_reduce
I0327 09:05:26.252532  2261 net.cpp:596] conv2/relu_3x3_reduce <- conv2/3x3_reduce
I0327 09:05:26.252553  2261 net.cpp:557] conv2/relu_3x3_reduce -> conv2/3x3_reduce (in-place)
I0327 09:05:26.252578  2261 net.cpp:210] Setting up conv2/relu_3x3_reduce
I0327 09:05:26.252589  2261 net.cpp:217] Top shape: 48 64 56 56 (9633792)
I0327 09:05:26.252599  2261 net.cpp:225] Memory required for data: 491324160
I0327 09:05:26.252606  2261 layer_factory.hpp:114] Creating layer conv2/3x3
I0327 09:05:26.252657  2261 net.cpp:160] Creating Layer conv2/3x3
I0327 09:05:26.252668  2261 net.cpp:596] conv2/3x3 <- conv2/3x3_reduce
I0327 09:05:26.252682  2261 net.cpp:570] conv2/3x3 -> conv2/3x3
I0327 09:05:26.331759  2261 net.cpp:210] Setting up conv2/3x3
I0327 09:05:26.331846  2261 net.cpp:217] Top shape: 48 192 56 56 (28901376)
I0327 09:05:26.331857  2261 net.cpp:225] Memory required for data: 606929664
I0327 09:05:26.331894  2261 layer_factory.hpp:114] Creating layer conv2/relu_3x3
I0327 09:05:26.331925  2261 net.cpp:160] Creating Layer conv2/relu_3x3
I0327 09:05:26.331938  2261 net.cpp:596] conv2/relu_3x3 <- conv2/3x3
I0327 09:05:26.331956  2261 net.cpp:557] conv2/relu_3x3 -> conv2/3x3 (in-place)
I0327 09:05:26.331980  2261 net.cpp:210] Setting up conv2/relu_3x3
I0327 09:05:26.331992  2261 net.cpp:217] Top shape: 48 192 56 56 (28901376)
I0327 09:05:26.332001  2261 net.cpp:225] Memory required for data: 722535168
I0327 09:05:26.332010  2261 layer_factory.hpp:114] Creating layer conv2/norm2
I0327 09:05:26.332041  2261 net.cpp:160] Creating Layer conv2/norm2
I0327 09:05:26.332052  2261 net.cpp:596] conv2/norm2 <- conv2/3x3
I0327 09:05:26.332064  2261 net.cpp:570] conv2/norm2 -> conv2/norm2
I0327 09:05:26.332094  2261 net.cpp:210] Setting up conv2/norm2
I0327 09:05:26.332106  2261 net.cpp:217] Top shape: 48 192 56 56 (28901376)
I0327 09:05:26.332115  2261 net.cpp:225] Memory required for data: 838140672
I0327 09:05:26.332124  2261 layer_factory.hpp:114] Creating layer pool2/3x3_s2
I0327 09:05:26.332172  2261 net.cpp:160] Creating Layer pool2/3x3_s2
I0327 09:05:26.332183  2261 net.cpp:596] pool2/3x3_s2 <- conv2/norm2
I0327 09:05:26.332196  2261 net.cpp:570] pool2/3x3_s2 -> pool2/3x3_s2
I0327 09:05:26.332216  2261 net.cpp:210] Setting up pool2/3x3_s2
I0327 09:05:26.332228  2261 net.cpp:217] Top shape: 48 192 28 28 (7225344)
I0327 09:05:26.332237  2261 net.cpp:225] Memory required for data: 867042048
I0327 09:05:26.332247  2261 layer_factory.hpp:114] Creating layer pool2/3x3_s2_pool2/3x3_s2_0_split
I0327 09:05:26.332260  2261 net.cpp:160] Creating Layer pool2/3x3_s2_pool2/3x3_s2_0_split
I0327 09:05:26.332269  2261 net.cpp:596] pool2/3x3_s2_pool2/3x3_s2_0_split <- pool2/3x3_s2
I0327 09:05:26.332284  2261 net.cpp:570] pool2/3x3_s2_pool2/3x3_s2_0_split -> pool2/3x3_s2_pool2/3x3_s2_0_split_0
I0327 09:05:26.332299  2261 net.cpp:570] pool2/3x3_s2_pool2/3x3_s2_0_split -> pool2/3x3_s2_pool2/3x3_s2_0_split_1
I0327 09:05:26.332319  2261 net.cpp:570] pool2/3x3_s2_pool2/3x3_s2_0_split -> pool2/3x3_s2_pool2/3x3_s2_0_split_2
I0327 09:05:26.332334  2261 net.cpp:570] pool2/3x3_s2_pool2/3x3_s2_0_split -> pool2/3x3_s2_pool2/3x3_s2_0_split_3
I0327 09:05:26.332353  2261 net.cpp:210] Setting up pool2/3x3_s2_pool2/3x3_s2_0_split
I0327 09:05:26.332365  2261 net.cpp:217] Top shape: 48 192 28 28 (7225344)
I0327 09:05:26.332376  2261 net.cpp:217] Top shape: 48 192 28 28 (7225344)
I0327 09:05:26.332387  2261 net.cpp:217] Top shape: 48 192 28 28 (7225344)
I0327 09:05:26.332398  2261 net.cpp:217] Top shape: 48 192 28 28 (7225344)
I0327 09:05:26.332407  2261 net.cpp:225] Memory required for data: 982647552
I0327 09:05:26.332417  2261 layer_factory.hpp:114] Creating layer inception_3a/1x1
I0327 09:05:26.332444  2261 net.cpp:160] Creating Layer inception_3a/1x1
I0327 09:05:26.332454  2261 net.cpp:596] inception_3a/1x1 <- pool2/3x3_s2_pool2/3x3_s2_0_split_0
I0327 09:05:26.332489  2261 net.cpp:570] inception_3a/1x1 -> inception_3a/1x1
I0327 09:05:26.340474  2261 net.cpp:210] Setting up inception_3a/1x1
I0327 09:05:26.340562  2261 net.cpp:217] Top shape: 48 64 28 28 (2408448)
I0327 09:05:26.340572  2261 net.cpp:225] Memory required for data: 992281344
I0327 09:05:26.340600  2261 layer_factory.hpp:114] Creating layer inception_3a/relu_1x1
I0327 09:05:26.340626  2261 net.cpp:160] Creating Layer inception_3a/relu_1x1
I0327 09:05:26.340639  2261 net.cpp:596] inception_3a/relu_1x1 <- inception_3a/1x1
I0327 09:05:26.340657  2261 net.cpp:557] inception_3a/relu_1x1 -> inception_3a/1x1 (in-place)
I0327 09:05:26.340682  2261 net.cpp:210] Setting up inception_3a/relu_1x1
I0327 09:05:26.340720  2261 net.cpp:217] Top shape: 48 64 28 28 (2408448)
I0327 09:05:26.340729  2261 net.cpp:225] Memory required for data: 1001915136
I0327 09:05:26.340739  2261 layer_factory.hpp:114] Creating layer inception_3a/3x3_reduce
I0327 09:05:26.340767  2261 net.cpp:160] Creating Layer inception_3a/3x3_reduce
I0327 09:05:26.340780  2261 net.cpp:596] inception_3a/3x3_reduce <- pool2/3x3_s2_pool2/3x3_s2_0_split_1
I0327 09:05:26.340797  2261 net.cpp:570] inception_3a/3x3_reduce -> inception_3a/3x3_reduce
I0327 09:05:26.349256  2261 net.cpp:210] Setting up inception_3a/3x3_reduce
I0327 09:05:26.349351  2261 net.cpp:217] Top shape: 48 96 28 28 (3612672)
I0327 09:05:26.349362  2261 net.cpp:225] Memory required for data: 1016365824
I0327 09:05:26.349398  2261 layer_factory.hpp:114] Creating layer inception_3a/relu_3x3_reduce
I0327 09:05:26.349428  2261 net.cpp:160] Creating Layer inception_3a/relu_3x3_reduce
I0327 09:05:26.349442  2261 net.cpp:596] inception_3a/relu_3x3_reduce <- inception_3a/3x3_reduce
I0327 09:05:26.349462  2261 net.cpp:557] inception_3a/relu_3x3_reduce -> inception_3a/3x3_reduce (in-place)
I0327 09:05:26.349486  2261 net.cpp:210] Setting up inception_3a/relu_3x3_reduce
I0327 09:05:26.349498  2261 net.cpp:217] Top shape: 48 96 28 28 (3612672)
I0327 09:05:26.349506  2261 net.cpp:225] Memory required for data: 1030816512
I0327 09:05:26.349515  2261 layer_factory.hpp:114] Creating layer inception_3a/3x3
I0327 09:05:26.349544  2261 net.cpp:160] Creating Layer inception_3a/3x3
I0327 09:05:26.349553  2261 net.cpp:596] inception_3a/3x3 <- inception_3a/3x3_reduce
I0327 09:05:26.349567  2261 net.cpp:570] inception_3a/3x3 -> inception_3a/3x3
I0327 09:05:26.384073  2261 net.cpp:210] Setting up inception_3a/3x3
I0327 09:05:26.384160  2261 net.cpp:217] Top shape: 48 128 28 28 (4816896)
I0327 09:05:26.384169  2261 net.cpp:225] Memory required for data: 1050084096
I0327 09:05:26.384196  2261 layer_factory.hpp:114] Creating layer inception_3a/relu_3x3
I0327 09:05:26.384222  2261 net.cpp:160] Creating Layer inception_3a/relu_3x3
I0327 09:05:26.384235  2261 net.cpp:596] inception_3a/relu_3x3 <- inception_3a/3x3
I0327 09:05:26.384258  2261 net.cpp:557] inception_3a/relu_3x3 -> inception_3a/3x3 (in-place)
I0327 09:05:26.384282  2261 net.cpp:210] Setting up inception_3a/relu_3x3
I0327 09:05:26.384294  2261 net.cpp:217] Top shape: 48 128 28 28 (4816896)
I0327 09:05:26.384304  2261 net.cpp:225] Memory required for data: 1069351680
I0327 09:05:26.384316  2261 layer_factory.hpp:114] Creating layer inception_3a/5x5_reduce
I0327 09:05:26.384346  2261 net.cpp:160] Creating Layer inception_3a/5x5_reduce
I0327 09:05:26.384357  2261 net.cpp:596] inception_3a/5x5_reduce <- pool2/3x3_s2_pool2/3x3_s2_0_split_2
I0327 09:05:26.384372  2261 net.cpp:570] inception_3a/5x5_reduce -> inception_3a/5x5_reduce
I0327 09:05:26.391381  2261 net.cpp:210] Setting up inception_3a/5x5_reduce
I0327 09:05:26.391464  2261 net.cpp:217] Top shape: 48 16 28 28 (602112)
I0327 09:05:26.391474  2261 net.cpp:225] Memory required for data: 1071760128
I0327 09:05:26.391501  2261 layer_factory.hpp:114] Creating layer inception_3a/relu_5x5_reduce
I0327 09:05:26.391527  2261 net.cpp:160] Creating Layer inception_3a/relu_5x5_reduce
I0327 09:05:26.391541  2261 net.cpp:596] inception_3a/relu_5x5_reduce <- inception_3a/5x5_reduce
I0327 09:05:26.391562  2261 net.cpp:557] inception_3a/relu_5x5_reduce -> inception_3a/5x5_reduce (in-place)
I0327 09:05:26.391603  2261 net.cpp:210] Setting up inception_3a/relu_5x5_reduce
I0327 09:05:26.391615  2261 net.cpp:217] Top shape: 48 16 28 28 (602112)
I0327 09:05:26.391624  2261 net.cpp:225] Memory required for data: 1074168576
I0327 09:05:26.391633  2261 layer_factory.hpp:114] Creating layer inception_3a/5x5
I0327 09:05:26.391657  2261 net.cpp:160] Creating Layer inception_3a/5x5
I0327 09:05:26.391667  2261 net.cpp:596] inception_3a/5x5 <- inception_3a/5x5_reduce
I0327 09:05:26.391680  2261 net.cpp:570] inception_3a/5x5 -> inception_3a/5x5
I0327 09:05:26.406430  2261 net.cpp:210] Setting up inception_3a/5x5
I0327 09:05:26.406513  2261 net.cpp:217] Top shape: 48 32 28 28 (1204224)
I0327 09:05:26.406550  2261 net.cpp:225] Memory required for data: 1078985472
I0327 09:05:26.406579  2261 layer_factory.hpp:114] Creating layer inception_3a/relu_5x5
I0327 09:05:26.406605  2261 net.cpp:160] Creating Layer inception_3a/relu_5x5
I0327 09:05:26.406620  2261 net.cpp:596] inception_3a/relu_5x5 <- inception_3a/5x5
I0327 09:05:26.406643  2261 net.cpp:557] inception_3a/relu_5x5 -> inception_3a/5x5 (in-place)
I0327 09:05:26.406667  2261 net.cpp:210] Setting up inception_3a/relu_5x5
I0327 09:05:26.406679  2261 net.cpp:217] Top shape: 48 32 28 28 (1204224)
I0327 09:05:26.406688  2261 net.cpp:225] Memory required for data: 1083802368
I0327 09:05:26.406697  2261 layer_factory.hpp:114] Creating layer inception_3a/pool
I0327 09:05:26.406745  2261 net.cpp:160] Creating Layer inception_3a/pool
I0327 09:05:26.406759  2261 net.cpp:596] inception_3a/pool <- pool2/3x3_s2_pool2/3x3_s2_0_split_3
I0327 09:05:26.406774  2261 net.cpp:570] inception_3a/pool -> inception_3a/pool
I0327 09:05:26.406798  2261 net.cpp:210] Setting up inception_3a/pool
I0327 09:05:26.406811  2261 net.cpp:217] Top shape: 48 192 28 28 (7225344)
I0327 09:05:26.406819  2261 net.cpp:225] Memory required for data: 1112703744
I0327 09:05:26.406828  2261 layer_factory.hpp:114] Creating layer inception_3a/pool_proj
I0327 09:05:26.406860  2261 net.cpp:160] Creating Layer inception_3a/pool_proj
I0327 09:05:26.406872  2261 net.cpp:596] inception_3a/pool_proj <- inception_3a/pool
I0327 09:05:26.406888  2261 net.cpp:570] inception_3a/pool_proj -> inception_3a/pool_proj
I0327 09:05:26.414217  2261 net.cpp:210] Setting up inception_3a/pool_proj
I0327 09:05:26.414300  2261 net.cpp:217] Top shape: 48 32 28 28 (1204224)
I0327 09:05:26.414309  2261 net.cpp:225] Memory required for data: 1117520640
I0327 09:05:26.414357  2261 layer_factory.hpp:114] Creating layer inception_3a/relu_pool_proj
I0327 09:05:26.414383  2261 net.cpp:160] Creating Layer inception_3a/relu_pool_proj
I0327 09:05:26.414397  2261 net.cpp:596] inception_3a/relu_pool_proj <- inception_3a/pool_proj
I0327 09:05:26.414418  2261 net.cpp:557] inception_3a/relu_pool_proj -> inception_3a/pool_proj (in-place)
I0327 09:05:26.414443  2261 net.cpp:210] Setting up inception_3a/relu_pool_proj
I0327 09:05:26.414454  2261 net.cpp:217] Top shape: 48 32 28 28 (1204224)
I0327 09:05:26.414463  2261 net.cpp:225] Memory required for data: 1122337536
I0327 09:05:26.414472  2261 layer_factory.hpp:114] Creating layer inception_3a/output
I0327 09:05:26.414486  2261 net.cpp:160] Creating Layer inception_3a/output
I0327 09:05:26.414496  2261 net.cpp:596] inception_3a/output <- inception_3a/1x1
I0327 09:05:26.414507  2261 net.cpp:596] inception_3a/output <- inception_3a/3x3
I0327 09:05:26.414518  2261 net.cpp:596] inception_3a/output <- inception_3a/5x5
I0327 09:05:26.414530  2261 net.cpp:596] inception_3a/output <- inception_3a/pool_proj
I0327 09:05:26.414541  2261 net.cpp:570] inception_3a/output -> inception_3a/output
I0327 09:05:26.414568  2261 net.cpp:210] Setting up inception_3a/output
I0327 09:05:26.414580  2261 net.cpp:217] Top shape: 48 256 28 28 (9633792)
I0327 09:05:26.414589  2261 net.cpp:225] Memory required for data: 1160872704
I0327 09:05:26.414598  2261 layer_factory.hpp:114] Creating layer inception_3a/output_inception_3a/output_0_split
I0327 09:05:26.414633  2261 net.cpp:160] Creating Layer inception_3a/output_inception_3a/output_0_split
I0327 09:05:26.414644  2261 net.cpp:596] inception_3a/output_inception_3a/output_0_split <- inception_3a/output
I0327 09:05:26.414656  2261 net.cpp:570] inception_3a/output_inception_3a/output_0_split -> inception_3a/output_inception_3a/output_0_split_0
I0327 09:05:26.414670  2261 net.cpp:570] inception_3a/output_inception_3a/output_0_split -> inception_3a/output_inception_3a/output_0_split_1
I0327 09:05:26.414688  2261 net.cpp:570] inception_3a/output_inception_3a/output_0_split -> inception_3a/output_inception_3a/output_0_split_2
I0327 09:05:26.414703  2261 net.cpp:570] inception_3a/output_inception_3a/output_0_split -> inception_3a/output_inception_3a/output_0_split_3
I0327 09:05:26.414736  2261 net.cpp:210] Setting up inception_3a/output_inception_3a/output_0_split
I0327 09:05:26.414748  2261 net.cpp:217] Top shape: 48 256 28 28 (9633792)
I0327 09:05:26.414759  2261 net.cpp:217] Top shape: 48 256 28 28 (9633792)
I0327 09:05:26.414769  2261 net.cpp:217] Top shape: 48 256 28 28 (9633792)
I0327 09:05:26.414780  2261 net.cpp:217] Top shape: 48 256 28 28 (9633792)
I0327 09:05:26.414788  2261 net.cpp:225] Memory required for data: 1315013376
I0327 09:05:26.414798  2261 layer_factory.hpp:114] Creating layer inception_3b/1x1
I0327 09:05:26.414825  2261 net.cpp:160] Creating Layer inception_3b/1x1
I0327 09:05:26.414835  2261 net.cpp:596] inception_3b/1x1 <- inception_3a/output_inception_3a/output_0_split_0
I0327 09:05:26.414851  2261 net.cpp:570] inception_3b/1x1 -> inception_3b/1x1
I0327 09:05:26.426045  2261 net.cpp:210] Setting up inception_3b/1x1
I0327 09:05:26.426131  2261 net.cpp:217] Top shape: 48 128 28 28 (4816896)
I0327 09:05:26.426142  2261 net.cpp:225] Memory required for data: 1334280960
I0327 09:05:26.426169  2261 layer_factory.hpp:114] Creating layer inception_3b/relu_1x1
I0327 09:05:26.426194  2261 net.cpp:160] Creating Layer inception_3b/relu_1x1
I0327 09:05:26.426209  2261 net.cpp:596] inception_3b/relu_1x1 <- inception_3b/1x1
I0327 09:05:26.426228  2261 net.cpp:557] inception_3b/relu_1x1 -> inception_3b/1x1 (in-place)
I0327 09:05:26.426252  2261 net.cpp:210] Setting up inception_3b/relu_1x1
I0327 09:05:26.426265  2261 net.cpp:217] Top shape: 48 128 28 28 (4816896)
I0327 09:05:26.426273  2261 net.cpp:225] Memory required for data: 1353548544
I0327 09:05:26.426282  2261 layer_factory.hpp:114] Creating layer inception_3b/3x3_reduce
I0327 09:05:26.426309  2261 net.cpp:160] Creating Layer inception_3b/3x3_reduce
I0327 09:05:26.426326  2261 net.cpp:596] inception_3b/3x3_reduce <- inception_3a/output_inception_3a/output_0_split_1
I0327 09:05:26.426343  2261 net.cpp:570] inception_3b/3x3_reduce -> inception_3b/3x3_reduce
I0327 09:05:26.437583  2261 net.cpp:210] Setting up inception_3b/3x3_reduce
I0327 09:05:26.437666  2261 net.cpp:217] Top shape: 48 128 28 28 (4816896)
I0327 09:05:26.437677  2261 net.cpp:225] Memory required for data: 1372816128
I0327 09:05:26.437703  2261 layer_factory.hpp:114] Creating layer inception_3b/relu_3x3_reduce
I0327 09:05:26.437729  2261 net.cpp:160] Creating Layer inception_3b/relu_3x3_reduce
I0327 09:05:26.437743  2261 net.cpp:596] inception_3b/relu_3x3_reduce <- inception_3b/3x3_reduce
I0327 09:05:26.437760  2261 net.cpp:557] inception_3b/relu_3x3_reduce -> inception_3b/3x3_reduce (in-place)
I0327 09:05:26.437785  2261 net.cpp:210] Setting up inception_3b/relu_3x3_reduce
I0327 09:05:26.437796  2261 net.cpp:217] Top shape: 48 128 28 28 (4816896)
I0327 09:05:26.437805  2261 net.cpp:225] Memory required for data: 1392083712
I0327 09:05:26.437814  2261 layer_factory.hpp:114] Creating layer inception_3b/3x3
I0327 09:05:26.437849  2261 net.cpp:160] Creating Layer inception_3b/3x3
I0327 09:05:26.437860  2261 net.cpp:596] inception_3b/3x3 <- inception_3b/3x3_reduce
I0327 09:05:26.437875  2261 net.cpp:570] inception_3b/3x3 -> inception_3b/3x3
I0327 09:05:26.487570  2261 net.cpp:210] Setting up inception_3b/3x3
I0327 09:05:26.487656  2261 net.cpp:217] Top shape: 48 192 28 28 (7225344)
I0327 09:05:26.487684  2261 net.cpp:225] Memory required for data: 1420985088
I0327 09:05:26.487711  2261 layer_factory.hpp:114] Creating layer inception_3b/relu_3x3
I0327 09:05:26.487741  2261 net.cpp:160] Creating Layer inception_3b/relu_3x3
I0327 09:05:26.487756  2261 net.cpp:596] inception_3b/relu_3x3 <- inception_3b/3x3
I0327 09:05:26.487773  2261 net.cpp:557] inception_3b/relu_3x3 -> inception_3b/3x3 (in-place)
I0327 09:05:26.487798  2261 net.cpp:210] Setting up inception_3b/relu_3x3
I0327 09:05:26.487810  2261 net.cpp:217] Top shape: 48 192 28 28 (7225344)
I0327 09:05:26.487819  2261 net.cpp:225] Memory required for data: 1449886464
I0327 09:05:26.487828  2261 layer_factory.hpp:114] Creating layer inception_3b/5x5_reduce
I0327 09:05:26.487874  2261 net.cpp:160] Creating Layer inception_3b/5x5_reduce
I0327 09:05:26.487884  2261 net.cpp:596] inception_3b/5x5_reduce <- inception_3a/output_inception_3a/output_0_split_2
I0327 09:05:26.487903  2261 net.cpp:570] inception_3b/5x5_reduce -> inception_3b/5x5_reduce
I0327 09:05:26.497563  2261 net.cpp:210] Setting up inception_3b/5x5_reduce
I0327 09:05:26.497644  2261 net.cpp:217] Top shape: 48 32 28 28 (1204224)
I0327 09:05:26.497655  2261 net.cpp:225] Memory required for data: 1454703360
I0327 09:05:26.497683  2261 layer_factory.hpp:114] Creating layer inception_3b/relu_5x5_reduce
I0327 09:05:26.497710  2261 net.cpp:160] Creating Layer inception_3b/relu_5x5_reduce
I0327 09:05:26.497725  2261 net.cpp:596] inception_3b/relu_5x5_reduce <- inception_3b/5x5_reduce
I0327 09:05:26.497745  2261 net.cpp:557] inception_3b/relu_5x5_reduce -> inception_3b/5x5_reduce (in-place)
I0327 09:05:26.497768  2261 net.cpp:210] Setting up inception_3b/relu_5x5_reduce
I0327 09:05:26.497781  2261 net.cpp:217] Top shape: 48 32 28 28 (1204224)
I0327 09:05:26.497788  2261 net.cpp:225] Memory required for data: 1459520256
I0327 09:05:26.497798  2261 layer_factory.hpp:114] Creating layer inception_3b/5x5
I0327 09:05:26.497826  2261 net.cpp:160] Creating Layer inception_3b/5x5
I0327 09:05:26.497838  2261 net.cpp:596] inception_3b/5x5 <- inception_3b/5x5_reduce
I0327 09:05:26.497853  2261 net.cpp:570] inception_3b/5x5 -> inception_3b/5x5
I0327 09:05:26.528499  2261 net.cpp:210] Setting up inception_3b/5x5
I0327 09:05:26.528590  2261 net.cpp:217] Top shape: 48 96 28 28 (3612672)
I0327 09:05:26.528600  2261 net.cpp:225] Memory required for data: 1473970944
I0327 09:05:26.528630  2261 layer_factory.hpp:114] Creating layer inception_3b/relu_5x5
I0327 09:05:26.528657  2261 net.cpp:160] Creating Layer inception_3b/relu_5x5
I0327 09:05:26.528671  2261 net.cpp:596] inception_3b/relu_5x5 <- inception_3b/5x5
I0327 09:05:26.528694  2261 net.cpp:557] inception_3b/relu_5x5 -> inception_3b/5x5 (in-place)
I0327 09:05:26.528720  2261 net.cpp:210] Setting up inception_3b/relu_5x5
I0327 09:05:26.528733  2261 net.cpp:217] Top shape: 48 96 28 28 (3612672)
I0327 09:05:26.528741  2261 net.cpp:225] Memory required for data: 1488421632
I0327 09:05:26.528750  2261 layer_factory.hpp:114] Creating layer inception_3b/pool
I0327 09:05:26.528800  2261 net.cpp:160] Creating Layer inception_3b/pool
I0327 09:05:26.528812  2261 net.cpp:596] inception_3b/pool <- inception_3a/output_inception_3a/output_0_split_3
I0327 09:05:26.528826  2261 net.cpp:570] inception_3b/pool -> inception_3b/pool
I0327 09:05:26.528852  2261 net.cpp:210] Setting up inception_3b/pool
I0327 09:05:26.528864  2261 net.cpp:217] Top shape: 48 256 28 28 (9633792)
I0327 09:05:26.528873  2261 net.cpp:225] Memory required for data: 1526956800
I0327 09:05:26.528882  2261 layer_factory.hpp:114] Creating layer inception_3b/pool_proj
I0327 09:05:26.528913  2261 net.cpp:160] Creating Layer inception_3b/pool_proj
I0327 09:05:26.528924  2261 net.cpp:596] inception_3b/pool_proj <- inception_3b/pool
I0327 09:05:26.528937  2261 net.cpp:570] inception_3b/pool_proj -> inception_3b/pool_proj
I0327 09:05:26.539409  2261 net.cpp:210] Setting up inception_3b/pool_proj
I0327 09:05:26.539492  2261 net.cpp:217] Top shape: 48 64 28 28 (2408448)
I0327 09:05:26.539502  2261 net.cpp:225] Memory required for data: 1536590592
I0327 09:05:26.539546  2261 layer_factory.hpp:114] Creating layer inception_3b/relu_pool_proj
I0327 09:05:26.539573  2261 net.cpp:160] Creating Layer inception_3b/relu_pool_proj
I0327 09:05:26.539588  2261 net.cpp:596] inception_3b/relu_pool_proj <- inception_3b/pool_proj
I0327 09:05:26.539609  2261 net.cpp:557] inception_3b/relu_pool_proj -> inception_3b/pool_proj (in-place)
I0327 09:05:26.539635  2261 net.cpp:210] Setting up inception_3b/relu_pool_proj
I0327 09:05:26.539646  2261 net.cpp:217] Top shape: 48 64 28 28 (2408448)
I0327 09:05:26.539655  2261 net.cpp:225] Memory required for data: 1546224384
I0327 09:05:26.539664  2261 layer_factory.hpp:114] Creating layer inception_3b/output
I0327 09:05:26.539680  2261 net.cpp:160] Creating Layer inception_3b/output
I0327 09:05:26.539706  2261 net.cpp:596] inception_3b/output <- inception_3b/1x1
I0327 09:05:26.539718  2261 net.cpp:596] inception_3b/output <- inception_3b/3x3
I0327 09:05:26.539729  2261 net.cpp:596] inception_3b/output <- inception_3b/5x5
I0327 09:05:26.539741  2261 net.cpp:596] inception_3b/output <- inception_3b/pool_proj
I0327 09:05:26.539757  2261 net.cpp:570] inception_3b/output -> inception_3b/output
I0327 09:05:26.539778  2261 net.cpp:210] Setting up inception_3b/output
I0327 09:05:26.539790  2261 net.cpp:217] Top shape: 48 480 28 28 (18063360)
I0327 09:05:26.539798  2261 net.cpp:225] Memory required for data: 1618477824
I0327 09:05:26.539808  2261 layer_factory.hpp:114] Creating layer pool3/3x3_s2
I0327 09:05:26.539855  2261 net.cpp:160] Creating Layer pool3/3x3_s2
I0327 09:05:26.539866  2261 net.cpp:596] pool3/3x3_s2 <- inception_3b/output
I0327 09:05:26.539882  2261 net.cpp:570] pool3/3x3_s2 -> pool3/3x3_s2
I0327 09:05:26.539903  2261 net.cpp:210] Setting up pool3/3x3_s2
I0327 09:05:26.539916  2261 net.cpp:217] Top shape: 48 480 14 14 (4515840)
I0327 09:05:26.539924  2261 net.cpp:225] Memory required for data: 1636541184
I0327 09:05:26.539932  2261 layer_factory.hpp:114] Creating layer pool3/3x3_s2_pool3/3x3_s2_0_split
I0327 09:05:26.539947  2261 net.cpp:160] Creating Layer pool3/3x3_s2_pool3/3x3_s2_0_split
I0327 09:05:26.539957  2261 net.cpp:596] pool3/3x3_s2_pool3/3x3_s2_0_split <- pool3/3x3_s2
I0327 09:05:26.539975  2261 net.cpp:570] pool3/3x3_s2_pool3/3x3_s2_0_split -> pool3/3x3_s2_pool3/3x3_s2_0_split_0
I0327 09:05:26.539990  2261 net.cpp:570] pool3/3x3_s2_pool3/3x3_s2_0_split -> pool3/3x3_s2_pool3/3x3_s2_0_split_1
I0327 09:05:26.540004  2261 net.cpp:570] pool3/3x3_s2_pool3/3x3_s2_0_split -> pool3/3x3_s2_pool3/3x3_s2_0_split_2
I0327 09:05:26.540025  2261 net.cpp:570] pool3/3x3_s2_pool3/3x3_s2_0_split -> pool3/3x3_s2_pool3/3x3_s2_0_split_3
I0327 09:05:26.540043  2261 net.cpp:210] Setting up pool3/3x3_s2_pool3/3x3_s2_0_split
I0327 09:05:26.540055  2261 net.cpp:217] Top shape: 48 480 14 14 (4515840)
I0327 09:05:26.540066  2261 net.cpp:217] Top shape: 48 480 14 14 (4515840)
I0327 09:05:26.540077  2261 net.cpp:217] Top shape: 48 480 14 14 (4515840)
I0327 09:05:26.540087  2261 net.cpp:217] Top shape: 48 480 14 14 (4515840)
I0327 09:05:26.540096  2261 net.cpp:225] Memory required for data: 1708794624
I0327 09:05:26.540105  2261 layer_factory.hpp:114] Creating layer inception_4a/1x1
I0327 09:05:26.540138  2261 net.cpp:160] Creating Layer inception_4a/1x1
I0327 09:05:26.540148  2261 net.cpp:596] inception_4a/1x1 <- pool3/3x3_s2_pool3/3x3_s2_0_split_0
I0327 09:05:26.540161  2261 net.cpp:570] inception_4a/1x1 -> inception_4a/1x1
I0327 09:05:26.551201  2261 net.cpp:210] Setting up inception_4a/1x1
I0327 09:05:26.551286  2261 net.cpp:217] Top shape: 48 192 14 14 (1806336)
I0327 09:05:26.551296  2261 net.cpp:225] Memory required for data: 1716019968
I0327 09:05:26.551328  2261 layer_factory.hpp:114] Creating layer inception_4a/relu_1x1
I0327 09:05:26.551354  2261 net.cpp:160] Creating Layer inception_4a/relu_1x1
I0327 09:05:26.551373  2261 net.cpp:596] inception_4a/relu_1x1 <- inception_4a/1x1
I0327 09:05:26.551391  2261 net.cpp:557] inception_4a/relu_1x1 -> inception_4a/1x1 (in-place)
I0327 09:05:26.551415  2261 net.cpp:210] Setting up inception_4a/relu_1x1
I0327 09:05:26.551445  2261 net.cpp:217] Top shape: 48 192 14 14 (1806336)
I0327 09:05:26.551455  2261 net.cpp:225] Memory required for data: 1723245312
I0327 09:05:26.551463  2261 layer_factory.hpp:114] Creating layer inception_4a/3x3_reduce
I0327 09:05:26.551491  2261 net.cpp:160] Creating Layer inception_4a/3x3_reduce
I0327 09:05:26.551502  2261 net.cpp:596] inception_4a/3x3_reduce <- pool3/3x3_s2_pool3/3x3_s2_0_split_1
I0327 09:05:26.551517  2261 net.cpp:570] inception_4a/3x3_reduce -> inception_4a/3x3_reduce
I0327 09:05:26.559002  2261 net.cpp:210] Setting up inception_4a/3x3_reduce
I0327 09:05:26.559129  2261 net.cpp:217] Top shape: 48 96 14 14 (903168)
I0327 09:05:26.559139  2261 net.cpp:225] Memory required for data: 1726857984
I0327 09:05:26.559208  2261 layer_factory.hpp:114] Creating layer inception_4a/relu_3x3_reduce
I0327 09:05:26.559238  2261 net.cpp:160] Creating Layer inception_4a/relu_3x3_reduce
I0327 09:05:26.559253  2261 net.cpp:596] inception_4a/relu_3x3_reduce <- inception_4a/3x3_reduce
I0327 09:05:26.559272  2261 net.cpp:557] inception_4a/relu_3x3_reduce -> inception_4a/3x3_reduce (in-place)
I0327 09:05:26.559296  2261 net.cpp:210] Setting up inception_4a/relu_3x3_reduce
I0327 09:05:26.559307  2261 net.cpp:217] Top shape: 48 96 14 14 (903168)
I0327 09:05:26.559319  2261 net.cpp:225] Memory required for data: 1730470656
I0327 09:05:26.559329  2261 layer_factory.hpp:114] Creating layer inception_4a/3x3
I0327 09:05:26.559353  2261 net.cpp:160] Creating Layer inception_4a/3x3
I0327 09:05:26.559363  2261 net.cpp:596] inception_4a/3x3 <- inception_4a/3x3_reduce
I0327 09:05:26.559381  2261 net.cpp:570] inception_4a/3x3 -> inception_4a/3x3
I0327 09:05:26.577675  2261 net.cpp:210] Setting up inception_4a/3x3
I0327 09:05:26.577760  2261 net.cpp:217] Top shape: 48 208 14 14 (1956864)
I0327 09:05:26.577770  2261 net.cpp:225] Memory required for data: 1738298112
I0327 09:05:26.577796  2261 layer_factory.hpp:114] Creating layer inception_4a/relu_3x3
I0327 09:05:26.577822  2261 net.cpp:160] Creating Layer inception_4a/relu_3x3
I0327 09:05:26.577836  2261 net.cpp:596] inception_4a/relu_3x3 <- inception_4a/3x3
I0327 09:05:26.577858  2261 net.cpp:557] inception_4a/relu_3x3 -> inception_4a/3x3 (in-place)
I0327 09:05:26.577883  2261 net.cpp:210] Setting up inception_4a/relu_3x3
I0327 09:05:26.577894  2261 net.cpp:217] Top shape: 48 208 14 14 (1956864)
I0327 09:05:26.577903  2261 net.cpp:225] Memory required for data: 1746125568
I0327 09:05:26.577913  2261 layer_factory.hpp:114] Creating layer inception_4a/5x5_reduce
I0327 09:05:26.577939  2261 net.cpp:160] Creating Layer inception_4a/5x5_reduce
I0327 09:05:26.577951  2261 net.cpp:596] inception_4a/5x5_reduce <- pool3/3x3_s2_pool3/3x3_s2_0_split_2
I0327 09:05:26.577965  2261 net.cpp:570] inception_4a/5x5_reduce -> inception_4a/5x5_reduce
I0327 09:05:26.583547  2261 net.cpp:210] Setting up inception_4a/5x5_reduce
I0327 09:05:26.583631  2261 net.cpp:217] Top shape: 48 16 14 14 (150528)
I0327 09:05:26.583642  2261 net.cpp:225] Memory required for data: 1746727680
I0327 09:05:26.583667  2261 layer_factory.hpp:114] Creating layer inception_4a/relu_5x5_reduce
I0327 09:05:26.583693  2261 net.cpp:160] Creating Layer inception_4a/relu_5x5_reduce
I0327 09:05:26.583709  2261 net.cpp:596] inception_4a/relu_5x5_reduce <- inception_4a/5x5_reduce
I0327 09:05:26.583729  2261 net.cpp:557] inception_4a/relu_5x5_reduce -> inception_4a/5x5_reduce (in-place)
I0327 09:05:26.583755  2261 net.cpp:210] Setting up inception_4a/relu_5x5_reduce
I0327 09:05:26.583766  2261 net.cpp:217] Top shape: 48 16 14 14 (150528)
I0327 09:05:26.583775  2261 net.cpp:225] Memory required for data: 1747329792
I0327 09:05:26.583783  2261 layer_factory.hpp:114] Creating layer inception_4a/5x5
I0327 09:05:26.583811  2261 net.cpp:160] Creating Layer inception_4a/5x5
I0327 09:05:26.583822  2261 net.cpp:596] inception_4a/5x5 <- inception_4a/5x5_reduce
I0327 09:05:26.583834  2261 net.cpp:570] inception_4a/5x5 -> inception_4a/5x5
I0327 09:05:26.590189  2261 net.cpp:210] Setting up inception_4a/5x5
I0327 09:05:26.590288  2261 net.cpp:217] Top shape: 48 48 14 14 (451584)
I0327 09:05:26.590298  2261 net.cpp:225] Memory required for data: 1749136128
I0327 09:05:26.590330  2261 layer_factory.hpp:114] Creating layer inception_4a/relu_5x5
I0327 09:05:26.590355  2261 net.cpp:160] Creating Layer inception_4a/relu_5x5
I0327 09:05:26.590370  2261 net.cpp:596] inception_4a/relu_5x5 <- inception_4a/5x5
I0327 09:05:26.590394  2261 net.cpp:557] inception_4a/relu_5x5 -> inception_4a/5x5 (in-place)
I0327 09:05:26.590417  2261 net.cpp:210] Setting up inception_4a/relu_5x5
I0327 09:05:26.590428  2261 net.cpp:217] Top shape: 48 48 14 14 (451584)
I0327 09:05:26.590437  2261 net.cpp:225] Memory required for data: 1750942464
I0327 09:05:26.590446  2261 layer_factory.hpp:114] Creating layer inception_4a/pool
I0327 09:05:26.590510  2261 net.cpp:160] Creating Layer inception_4a/pool
I0327 09:05:26.590523  2261 net.cpp:596] inception_4a/pool <- pool3/3x3_s2_pool3/3x3_s2_0_split_3
I0327 09:05:26.590539  2261 net.cpp:570] inception_4a/pool -> inception_4a/pool
I0327 09:05:26.590564  2261 net.cpp:210] Setting up inception_4a/pool
I0327 09:05:26.590576  2261 net.cpp:217] Top shape: 48 480 14 14 (4515840)
I0327 09:05:26.590585  2261 net.cpp:225] Memory required for data: 1769005824
I0327 09:05:26.590595  2261 layer_factory.hpp:114] Creating layer inception_4a/pool_proj
I0327 09:05:26.590621  2261 net.cpp:160] Creating Layer inception_4a/pool_proj
I0327 09:05:26.590631  2261 net.cpp:596] inception_4a/pool_proj <- inception_4a/pool
I0327 09:05:26.590647  2261 net.cpp:570] inception_4a/pool_proj -> inception_4a/pool_proj
I0327 09:05:26.597461  2261 net.cpp:210] Setting up inception_4a/pool_proj
I0327 09:05:26.597544  2261 net.cpp:217] Top shape: 48 64 14 14 (602112)
I0327 09:05:26.597554  2261 net.cpp:225] Memory required for data: 1771414272
I0327 09:05:26.597581  2261 layer_factory.hpp:114] Creating layer inception_4a/relu_pool_proj
I0327 09:05:26.597611  2261 net.cpp:160] Creating Layer inception_4a/relu_pool_proj
I0327 09:05:26.597626  2261 net.cpp:596] inception_4a/relu_pool_proj <- inception_4a/pool_proj
I0327 09:05:26.597645  2261 net.cpp:557] inception_4a/relu_pool_proj -> inception_4a/pool_proj (in-place)
I0327 09:05:26.597668  2261 net.cpp:210] Setting up inception_4a/relu_pool_proj
I0327 09:05:26.597681  2261 net.cpp:217] Top shape: 48 64 14 14 (602112)
I0327 09:05:26.597688  2261 net.cpp:225] Memory required for data: 1773822720
I0327 09:05:26.597697  2261 layer_factory.hpp:114] Creating layer inception_4a/output
I0327 09:05:26.597715  2261 net.cpp:160] Creating Layer inception_4a/output
I0327 09:05:26.597725  2261 net.cpp:596] inception_4a/output <- inception_4a/1x1
I0327 09:05:26.597736  2261 net.cpp:596] inception_4a/output <- inception_4a/3x3
I0327 09:05:26.597748  2261 net.cpp:596] inception_4a/output <- inception_4a/5x5
I0327 09:05:26.597759  2261 net.cpp:596] inception_4a/output <- inception_4a/pool_proj
I0327 09:05:26.597771  2261 net.cpp:570] inception_4a/output -> inception_4a/output
I0327 09:05:26.597791  2261 net.cpp:210] Setting up inception_4a/output
I0327 09:05:26.597803  2261 net.cpp:217] Top shape: 48 512 14 14 (4816896)
I0327 09:05:26.597811  2261 net.cpp:225] Memory required for data: 1793090304
I0327 09:05:26.597820  2261 layer_factory.hpp:114] Creating layer inception_4a/output_inception_4a/output_0_split
I0327 09:05:26.597836  2261 net.cpp:160] Creating Layer inception_4a/output_inception_4a/output_0_split
I0327 09:05:26.597844  2261 net.cpp:596] inception_4a/output_inception_4a/output_0_split <- inception_4a/output
I0327 09:05:26.597859  2261 net.cpp:570] inception_4a/output_inception_4a/output_0_split -> inception_4a/output_inception_4a/output_0_split_0
I0327 09:05:26.597875  2261 net.cpp:570] inception_4a/output_inception_4a/output_0_split -> inception_4a/output_inception_4a/output_0_split_1
I0327 09:05:26.597890  2261 net.cpp:570] inception_4a/output_inception_4a/output_0_split -> inception_4a/output_inception_4a/output_0_split_2
I0327 09:05:26.597905  2261 net.cpp:570] inception_4a/output_inception_4a/output_0_split -> inception_4a/output_inception_4a/output_0_split_3
I0327 09:05:26.597939  2261 net.cpp:570] inception_4a/output_inception_4a/output_0_split -> inception_4a/output_inception_4a/output_0_split_4
I0327 09:05:26.597959  2261 net.cpp:210] Setting up inception_4a/output_inception_4a/output_0_split
I0327 09:05:26.597971  2261 net.cpp:217] Top shape: 48 512 14 14 (4816896)
I0327 09:05:26.597982  2261 net.cpp:217] Top shape: 48 512 14 14 (4816896)
I0327 09:05:26.597992  2261 net.cpp:217] Top shape: 48 512 14 14 (4816896)
I0327 09:05:26.598003  2261 net.cpp:217] Top shape: 48 512 14 14 (4816896)
I0327 09:05:26.598014  2261 net.cpp:217] Top shape: 48 512 14 14 (4816896)
I0327 09:05:26.598034  2261 net.cpp:225] Memory required for data: 1889428224
I0327 09:05:26.598060  2261 layer_factory.hpp:114] Creating layer loss1/ave_pool
I0327 09:05:26.598111  2261 net.cpp:160] Creating Layer loss1/ave_pool
I0327 09:05:26.598122  2261 net.cpp:596] loss1/ave_pool <- inception_4a/output_inception_4a/output_0_split_0
I0327 09:05:26.598139  2261 net.cpp:570] loss1/ave_pool -> loss1/ave_pool
I0327 09:05:26.598156  2261 net.cpp:210] Setting up loss1/ave_pool
I0327 09:05:26.598168  2261 net.cpp:217] Top shape: 48 512 4 4 (393216)
I0327 09:05:26.598177  2261 net.cpp:225] Memory required for data: 1891001088
I0327 09:05:26.598186  2261 layer_factory.hpp:114] Creating layer loss1/conv
I0327 09:05:26.598213  2261 net.cpp:160] Creating Layer loss1/conv
I0327 09:05:26.598223  2261 net.cpp:596] loss1/conv <- loss1/ave_pool
I0327 09:05:26.598239  2261 net.cpp:570] loss1/conv -> loss1/conv
I0327 09:05:26.603490  2261 net.cpp:210] Setting up loss1/conv
I0327 09:05:26.603570  2261 net.cpp:217] Top shape: 48 128 4 4 (98304)
I0327 09:05:26.603579  2261 net.cpp:225] Memory required for data: 1891394304
I0327 09:05:26.603605  2261 layer_factory.hpp:114] Creating layer loss1/relu_conv
I0327 09:05:26.603629  2261 net.cpp:160] Creating Layer loss1/relu_conv
I0327 09:05:26.603643  2261 net.cpp:596] loss1/relu_conv <- loss1/conv
I0327 09:05:26.603664  2261 net.cpp:557] loss1/relu_conv -> loss1/conv (in-place)
I0327 09:05:26.603688  2261 net.cpp:210] Setting up loss1/relu_conv
I0327 09:05:26.603699  2261 net.cpp:217] Top shape: 48 128 4 4 (98304)
I0327 09:05:26.603708  2261 net.cpp:225] Memory required for data: 1891787520
I0327 09:05:26.603718  2261 layer_factory.hpp:114] Creating layer loss1/fc
I0327 09:05:26.603739  2261 net.cpp:160] Creating Layer loss1/fc
I0327 09:05:26.603749  2261 net.cpp:596] loss1/fc <- loss1/conv
I0327 09:05:26.603766  2261 net.cpp:570] loss1/fc -> loss1/fc
I0327 09:05:26.638708  2261 net.cpp:210] Setting up loss1/fc
I0327 09:05:26.638792  2261 net.cpp:217] Top shape: 48 1024 (49152)
I0327 09:05:26.638802  2261 net.cpp:225] Memory required for data: 1891984128
I0327 09:05:26.638825  2261 layer_factory.hpp:114] Creating layer loss1/relu_fc
I0327 09:05:26.638849  2261 net.cpp:160] Creating Layer loss1/relu_fc
I0327 09:05:26.638864  2261 net.cpp:596] loss1/relu_fc <- loss1/fc
I0327 09:05:26.638888  2261 net.cpp:557] loss1/relu_fc -> loss1/fc (in-place)
I0327 09:05:26.638908  2261 net.cpp:210] Setting up loss1/relu_fc
I0327 09:05:26.638921  2261 net.cpp:217] Top shape: 48 1024 (49152)
I0327 09:05:26.638928  2261 net.cpp:225] Memory required for data: 1892180736
I0327 09:05:26.638937  2261 layer_factory.hpp:114] Creating layer loss1/drop_fc
I0327 09:05:26.638964  2261 net.cpp:160] Creating Layer loss1/drop_fc
I0327 09:05:26.638974  2261 net.cpp:596] loss1/drop_fc <- loss1/fc
I0327 09:05:26.638986  2261 net.cpp:557] loss1/drop_fc -> loss1/fc (in-place)
I0327 09:05:26.639010  2261 net.cpp:210] Setting up loss1/drop_fc
I0327 09:05:26.639050  2261 net.cpp:217] Top shape: 48 1024 (49152)
I0327 09:05:26.639060  2261 net.cpp:225] Memory required for data: 1892377344
I0327 09:05:26.639070  2261 layer_factory.hpp:114] Creating layer loss1/classifier
I0327 09:05:26.639094  2261 net.cpp:160] Creating Layer loss1/classifier
I0327 09:05:26.639106  2261 net.cpp:596] loss1/classifier <- loss1/fc
I0327 09:05:26.639119  2261 net.cpp:570] loss1/classifier -> loss1/classifier
I0327 09:05:26.657340  2261 net.cpp:210] Setting up loss1/classifier
I0327 09:05:26.657397  2261 net.cpp:217] Top shape: 48 1000 (48000)
I0327 09:05:26.657405  2261 net.cpp:225] Memory required for data: 1892569344
I0327 09:05:26.657425  2261 layer_factory.hpp:114] Creating layer loss1/loss
I0327 09:05:26.657451  2261 net.cpp:160] Creating Layer loss1/loss
I0327 09:05:26.657464  2261 net.cpp:596] loss1/loss <- loss1/classifier
I0327 09:05:26.657477  2261 net.cpp:596] loss1/loss <- label_data_1_split_0
I0327 09:05:26.657495  2261 net.cpp:570] loss1/loss -> loss1/loss1
I0327 09:05:26.657519  2261 layer_factory.hpp:114] Creating layer loss1/loss
I0327 09:05:26.657773  2261 net.cpp:210] Setting up loss1/loss
I0327 09:05:26.657807  2261 net.cpp:217] Top shape: (1)
I0327 09:05:26.657816  2261 net.cpp:220]     with loss weight 0.3
I0327 09:05:26.657886  2261 net.cpp:225] Memory required for data: 1892569348
I0327 09:05:26.657894  2261 layer_factory.hpp:114] Creating layer inception_4b/1x1
I0327 09:05:26.657922  2261 net.cpp:160] Creating Layer inception_4b/1x1
I0327 09:05:26.657933  2261 net.cpp:596] inception_4b/1x1 <- inception_4a/output_inception_4a/output_0_split_1
I0327 09:05:26.657953  2261 net.cpp:570] inception_4b/1x1 -> inception_4b/1x1
I0327 09:05:26.668262  2261 net.cpp:210] Setting up inception_4b/1x1
I0327 09:05:26.668352  2261 net.cpp:217] Top shape: 48 160 14 14 (1505280)
I0327 09:05:26.668362  2261 net.cpp:225] Memory required for data: 1898590468
I0327 09:05:26.668390  2261 layer_factory.hpp:114] Creating layer inception_4b/relu_1x1
I0327 09:05:26.668419  2261 net.cpp:160] Creating Layer inception_4b/relu_1x1
I0327 09:05:26.668434  2261 net.cpp:596] inception_4b/relu_1x1 <- inception_4b/1x1
I0327 09:05:26.668453  2261 net.cpp:557] inception_4b/relu_1x1 -> inception_4b/1x1 (in-place)
I0327 09:05:26.668480  2261 net.cpp:210] Setting up inception_4b/relu_1x1
I0327 09:05:26.668493  2261 net.cpp:217] Top shape: 48 160 14 14 (1505280)
I0327 09:05:26.668500  2261 net.cpp:225] Memory required for data: 1904611588
I0327 09:05:26.668510  2261 layer_factory.hpp:114] Creating layer inception_4b/3x3_reduce
I0327 09:05:26.668535  2261 net.cpp:160] Creating Layer inception_4b/3x3_reduce
I0327 09:05:26.668546  2261 net.cpp:596] inception_4b/3x3_reduce <- inception_4a/output_inception_4a/output_0_split_2
I0327 09:05:26.668565  2261 net.cpp:570] inception_4b/3x3_reduce -> inception_4b/3x3_reduce
I0327 09:05:26.677634  2261 net.cpp:210] Setting up inception_4b/3x3_reduce
I0327 09:05:26.677722  2261 net.cpp:217] Top shape: 48 112 14 14 (1053696)
I0327 09:05:26.677732  2261 net.cpp:225] Memory required for data: 1908826372
I0327 09:05:26.677759  2261 layer_factory.hpp:114] Creating layer inception_4b/relu_3x3_reduce
I0327 09:05:26.677786  2261 net.cpp:160] Creating Layer inception_4b/relu_3x3_reduce
I0327 09:05:26.677800  2261 net.cpp:596] inception_4b/relu_3x3_reduce <- inception_4b/3x3_reduce
I0327 09:05:26.677819  2261 net.cpp:557] inception_4b/relu_3x3_reduce -> inception_4b/3x3_reduce (in-place)
I0327 09:05:26.677841  2261 net.cpp:210] Setting up inception_4b/relu_3x3_reduce
I0327 09:05:26.677853  2261 net.cpp:217] Top shape: 48 112 14 14 (1053696)
I0327 09:05:26.677862  2261 net.cpp:225] Memory required for data: 1913041156
I0327 09:05:26.677871  2261 layer_factory.hpp:114] Creating layer inception_4b/3x3
I0327 09:05:26.677898  2261 net.cpp:160] Creating Layer inception_4b/3x3
I0327 09:05:26.677909  2261 net.cpp:596] inception_4b/3x3 <- inception_4b/3x3_reduce
I0327 09:05:26.677927  2261 net.cpp:570] inception_4b/3x3 -> inception_4b/3x3
I0327 09:05:26.700409  2261 net.cpp:210] Setting up inception_4b/3x3
I0327 09:05:26.700495  2261 net.cpp:217] Top shape: 48 224 14 14 (2107392)
I0327 09:05:26.700505  2261 net.cpp:225] Memory required for data: 1921470724
I0327 09:05:26.700532  2261 layer_factory.hpp:114] Creating layer inception_4b/relu_3x3
I0327 09:05:26.700562  2261 net.cpp:160] Creating Layer inception_4b/relu_3x3
I0327 09:05:26.700577  2261 net.cpp:596] inception_4b/relu_3x3 <- inception_4b/3x3
I0327 09:05:26.700595  2261 net.cpp:557] inception_4b/relu_3x3 -> inception_4b/3x3 (in-place)
I0327 09:05:26.700634  2261 net.cpp:210] Setting up inception_4b/relu_3x3
I0327 09:05:26.700647  2261 net.cpp:217] Top shape: 48 224 14 14 (2107392)
I0327 09:05:26.700655  2261 net.cpp:225] Memory required for data: 1929900292
I0327 09:05:26.700665  2261 layer_factory.hpp:114] Creating layer inception_4b/5x5_reduce
I0327 09:05:26.700690  2261 net.cpp:160] Creating Layer inception_4b/5x5_reduce
I0327 09:05:26.700700  2261 net.cpp:596] inception_4b/5x5_reduce <- inception_4a/output_inception_4a/output_0_split_3
I0327 09:05:26.700718  2261 net.cpp:570] inception_4b/5x5_reduce -> inception_4b/5x5_reduce
I0327 09:05:26.706497  2261 net.cpp:210] Setting up inception_4b/5x5_reduce
I0327 09:05:26.706609  2261 net.cpp:217] Top shape: 48 24 14 14 (225792)
I0327 09:05:26.706619  2261 net.cpp:225] Memory required for data: 1930803460
I0327 09:05:26.706646  2261 layer_factory.hpp:114] Creating layer inception_4b/relu_5x5_reduce
I0327 09:05:26.706672  2261 net.cpp:160] Creating Layer inception_4b/relu_5x5_reduce
I0327 09:05:26.706687  2261 net.cpp:596] inception_4b/relu_5x5_reduce <- inception_4b/5x5_reduce
I0327 09:05:26.706706  2261 net.cpp:557] inception_4b/relu_5x5_reduce -> inception_4b/5x5_reduce (in-place)
I0327 09:05:26.706727  2261 net.cpp:210] Setting up inception_4b/relu_5x5_reduce
I0327 09:05:26.706739  2261 net.cpp:217] Top shape: 48 24 14 14 (225792)
I0327 09:05:26.706748  2261 net.cpp:225] Memory required for data: 1931706628
I0327 09:05:26.706758  2261 layer_factory.hpp:114] Creating layer inception_4b/5x5
I0327 09:05:26.706784  2261 net.cpp:160] Creating Layer inception_4b/5x5
I0327 09:05:26.706794  2261 net.cpp:596] inception_4b/5x5 <- inception_4b/5x5_reduce
I0327 09:05:26.706810  2261 net.cpp:570] inception_4b/5x5 -> inception_4b/5x5
I0327 09:05:26.715363  2261 net.cpp:210] Setting up inception_4b/5x5
I0327 09:05:26.715446  2261 net.cpp:217] Top shape: 48 64 14 14 (602112)
I0327 09:05:26.715456  2261 net.cpp:225] Memory required for data: 1934115076
I0327 09:05:26.715482  2261 layer_factory.hpp:114] Creating layer inception_4b/relu_5x5
I0327 09:05:26.715512  2261 net.cpp:160] Creating Layer inception_4b/relu_5x5
I0327 09:05:26.715528  2261 net.cpp:596] inception_4b/relu_5x5 <- inception_4b/5x5
I0327 09:05:26.715545  2261 net.cpp:557] inception_4b/relu_5x5 -> inception_4b/5x5 (in-place)
I0327 09:05:26.715569  2261 net.cpp:210] Setting up inception_4b/relu_5x5
I0327 09:05:26.715580  2261 net.cpp:217] Top shape: 48 64 14 14 (602112)
I0327 09:05:26.715590  2261 net.cpp:225] Memory required for data: 1936523524
I0327 09:05:26.715598  2261 layer_factory.hpp:114] Creating layer inception_4b/pool
I0327 09:05:26.715647  2261 net.cpp:160] Creating Layer inception_4b/pool
I0327 09:05:26.715661  2261 net.cpp:596] inception_4b/pool <- inception_4a/output_inception_4a/output_0_split_4
I0327 09:05:26.715677  2261 net.cpp:570] inception_4b/pool -> inception_4b/pool
I0327 09:05:26.715709  2261 net.cpp:210] Setting up inception_4b/pool
I0327 09:05:26.715724  2261 net.cpp:217] Top shape: 48 512 14 14 (4816896)
I0327 09:05:26.715733  2261 net.cpp:225] Memory required for data: 1955791108
I0327 09:05:26.715741  2261 layer_factory.hpp:114] Creating layer inception_4b/pool_proj
I0327 09:05:26.715770  2261 net.cpp:160] Creating Layer inception_4b/pool_proj
I0327 09:05:26.715780  2261 net.cpp:596] inception_4b/pool_proj <- inception_4b/pool
I0327 09:05:26.715795  2261 net.cpp:570] inception_4b/pool_proj -> inception_4b/pool_proj
I0327 09:05:26.722548  2261 net.cpp:210] Setting up inception_4b/pool_proj
I0327 09:05:26.722628  2261 net.cpp:217] Top shape: 48 64 14 14 (602112)
I0327 09:05:26.722640  2261 net.cpp:225] Memory required for data: 1958199556
I0327 09:05:26.722666  2261 layer_factory.hpp:114] Creating layer inception_4b/relu_pool_proj
I0327 09:05:26.722697  2261 net.cpp:160] Creating Layer inception_4b/relu_pool_proj
I0327 09:05:26.722713  2261 net.cpp:596] inception_4b/relu_pool_proj <- inception_4b/pool_proj
I0327 09:05:26.722731  2261 net.cpp:557] inception_4b/relu_pool_proj -> inception_4b/pool_proj (in-place)
I0327 09:05:26.722776  2261 net.cpp:210] Setting up inception_4b/relu_pool_proj
I0327 09:05:26.722789  2261 net.cpp:217] Top shape: 48 64 14 14 (602112)
I0327 09:05:26.722797  2261 net.cpp:225] Memory required for data: 1960608004
I0327 09:05:26.722806  2261 layer_factory.hpp:114] Creating layer inception_4b/output
I0327 09:05:26.722825  2261 net.cpp:160] Creating Layer inception_4b/output
I0327 09:05:26.722836  2261 net.cpp:596] inception_4b/output <- inception_4b/1x1
I0327 09:05:26.722846  2261 net.cpp:596] inception_4b/output <- inception_4b/3x3
I0327 09:05:26.722857  2261 net.cpp:596] inception_4b/output <- inception_4b/5x5
I0327 09:05:26.722868  2261 net.cpp:596] inception_4b/output <- inception_4b/pool_proj
I0327 09:05:26.722898  2261 net.cpp:570] inception_4b/output -> inception_4b/output
I0327 09:05:26.722919  2261 net.cpp:210] Setting up inception_4b/output
I0327 09:05:26.722931  2261 net.cpp:217] Top shape: 48 512 14 14 (4816896)
I0327 09:05:26.722939  2261 net.cpp:225] Memory required for data: 1979875588
I0327 09:05:26.722949  2261 layer_factory.hpp:114] Creating layer inception_4b/output_inception_4b/output_0_split
I0327 09:05:26.722962  2261 net.cpp:160] Creating Layer inception_4b/output_inception_4b/output_0_split
I0327 09:05:26.722971  2261 net.cpp:596] inception_4b/output_inception_4b/output_0_split <- inception_4b/output
I0327 09:05:26.722986  2261 net.cpp:570] inception_4b/output_inception_4b/output_0_split -> inception_4b/output_inception_4b/output_0_split_0
I0327 09:05:26.723002  2261 net.cpp:570] inception_4b/output_inception_4b/output_0_split -> inception_4b/output_inception_4b/output_0_split_1
I0327 09:05:26.723026  2261 net.cpp:570] inception_4b/output_inception_4b/output_0_split -> inception_4b/output_inception_4b/output_0_split_2
I0327 09:05:26.723042  2261 net.cpp:570] inception_4b/output_inception_4b/output_0_split -> inception_4b/output_inception_4b/output_0_split_3
I0327 09:05:26.723062  2261 net.cpp:210] Setting up inception_4b/output_inception_4b/output_0_split
I0327 09:05:26.723073  2261 net.cpp:217] Top shape: 48 512 14 14 (4816896)
I0327 09:05:26.723084  2261 net.cpp:217] Top shape: 48 512 14 14 (4816896)
I0327 09:05:26.723095  2261 net.cpp:217] Top shape: 48 512 14 14 (4816896)
I0327 09:05:26.723105  2261 net.cpp:217] Top shape: 48 512 14 14 (4816896)
I0327 09:05:26.723114  2261 net.cpp:225] Memory required for data: 2056945924
I0327 09:05:26.723124  2261 layer_factory.hpp:114] Creating layer inception_4c/1x1
I0327 09:05:26.723150  2261 net.cpp:160] Creating Layer inception_4c/1x1
I0327 09:05:26.723160  2261 net.cpp:596] inception_4c/1x1 <- inception_4b/output_inception_4b/output_0_split_0
I0327 09:05:26.723176  2261 net.cpp:570] inception_4c/1x1 -> inception_4c/1x1
I0327 09:05:26.732759  2261 net.cpp:210] Setting up inception_4c/1x1
I0327 09:05:26.732844  2261 net.cpp:217] Top shape: 48 128 14 14 (1204224)
I0327 09:05:26.732854  2261 net.cpp:225] Memory required for data: 2061762820
I0327 09:05:26.732882  2261 layer_factory.hpp:114] Creating layer inception_4c/relu_1x1
I0327 09:05:26.732908  2261 net.cpp:160] Creating Layer inception_4c/relu_1x1
I0327 09:05:26.732923  2261 net.cpp:596] inception_4c/relu_1x1 <- inception_4c/1x1
I0327 09:05:26.732944  2261 net.cpp:557] inception_4c/relu_1x1 -> inception_4c/1x1 (in-place)
I0327 09:05:26.732969  2261 net.cpp:210] Setting up inception_4c/relu_1x1
I0327 09:05:26.732980  2261 net.cpp:217] Top shape: 48 128 14 14 (1204224)
I0327 09:05:26.732990  2261 net.cpp:225] Memory required for data: 2066579716
I0327 09:05:26.732998  2261 layer_factory.hpp:114] Creating layer inception_4c/3x3_reduce
I0327 09:05:26.733036  2261 net.cpp:160] Creating Layer inception_4c/3x3_reduce
I0327 09:05:26.733048  2261 net.cpp:596] inception_4c/3x3_reduce <- inception_4b/output_inception_4b/output_0_split_1
I0327 09:05:26.733062  2261 net.cpp:570] inception_4c/3x3_reduce -> inception_4c/3x3_reduce
I0327 09:05:26.742003  2261 net.cpp:210] Setting up inception_4c/3x3_reduce
I0327 09:05:26.742095  2261 net.cpp:217] Top shape: 48 128 14 14 (1204224)
I0327 09:05:26.742125  2261 net.cpp:225] Memory required for data: 2071396612
I0327 09:05:26.742152  2261 layer_factory.hpp:114] Creating layer inception_4c/relu_3x3_reduce
I0327 09:05:26.742179  2261 net.cpp:160] Creating Layer inception_4c/relu_3x3_reduce
I0327 09:05:26.742194  2261 net.cpp:596] inception_4c/relu_3x3_reduce <- inception_4c/3x3_reduce
I0327 09:05:26.742213  2261 net.cpp:557] inception_4c/relu_3x3_reduce -> inception_4c/3x3_reduce (in-place)
I0327 09:05:26.742236  2261 net.cpp:210] Setting up inception_4c/relu_3x3_reduce
I0327 09:05:26.742249  2261 net.cpp:217] Top shape: 48 128 14 14 (1204224)
I0327 09:05:26.742256  2261 net.cpp:225] Memory required for data: 2076213508
I0327 09:05:26.742282  2261 layer_factory.hpp:114] Creating layer inception_4c/3x3
I0327 09:05:26.742311  2261 net.cpp:160] Creating Layer inception_4c/3x3
I0327 09:05:26.742326  2261 net.cpp:596] inception_4c/3x3 <- inception_4c/3x3_reduce
I0327 09:05:26.742341  2261 net.cpp:570] inception_4c/3x3 -> inception_4c/3x3
I0327 09:05:26.770185  2261 net.cpp:210] Setting up inception_4c/3x3
I0327 09:05:26.770272  2261 net.cpp:217] Top shape: 48 256 14 14 (2408448)
I0327 09:05:26.770283  2261 net.cpp:225] Memory required for data: 2085847300
I0327 09:05:26.770333  2261 layer_factory.hpp:114] Creating layer inception_4c/relu_3x3
I0327 09:05:26.770360  2261 net.cpp:160] Creating Layer inception_4c/relu_3x3
I0327 09:05:26.770375  2261 net.cpp:596] inception_4c/relu_3x3 <- inception_4c/3x3
I0327 09:05:26.770395  2261 net.cpp:557] inception_4c/relu_3x3 -> inception_4c/3x3 (in-place)
I0327 09:05:26.770421  2261 net.cpp:210] Setting up inception_4c/relu_3x3
I0327 09:05:26.770432  2261 net.cpp:217] Top shape: 48 256 14 14 (2408448)
I0327 09:05:26.770442  2261 net.cpp:225] Memory required for data: 2095481092
I0327 09:05:26.770450  2261 layer_factory.hpp:114] Creating layer inception_4c/5x5_reduce
I0327 09:05:26.770475  2261 net.cpp:160] Creating Layer inception_4c/5x5_reduce
I0327 09:05:26.770486  2261 net.cpp:596] inception_4c/5x5_reduce <- inception_4b/output_inception_4b/output_0_split_2
I0327 09:05:26.770501  2261 net.cpp:570] inception_4c/5x5_reduce -> inception_4c/5x5_reduce
I0327 09:05:26.776273  2261 net.cpp:210] Setting up inception_4c/5x5_reduce
I0327 09:05:26.776355  2261 net.cpp:217] Top shape: 48 24 14 14 (225792)
I0327 09:05:26.776365  2261 net.cpp:225] Memory required for data: 2096384260
I0327 09:05:26.776391  2261 layer_factory.hpp:114] Creating layer inception_4c/relu_5x5_reduce
I0327 09:05:26.776417  2261 net.cpp:160] Creating Layer inception_4c/relu_5x5_reduce
I0327 09:05:26.776432  2261 net.cpp:596] inception_4c/relu_5x5_reduce <- inception_4c/5x5_reduce
I0327 09:05:26.776453  2261 net.cpp:557] inception_4c/relu_5x5_reduce -> inception_4c/5x5_reduce (in-place)
I0327 09:05:26.776477  2261 net.cpp:210] Setting up inception_4c/relu_5x5_reduce
I0327 09:05:26.776489  2261 net.cpp:217] Top shape: 48 24 14 14 (225792)
I0327 09:05:26.776499  2261 net.cpp:225] Memory required for data: 2097287428
I0327 09:05:26.776507  2261 layer_factory.hpp:114] Creating layer inception_4c/5x5
I0327 09:05:26.776530  2261 net.cpp:160] Creating Layer inception_4c/5x5
I0327 09:05:26.776541  2261 net.cpp:596] inception_4c/5x5 <- inception_4c/5x5_reduce
I0327 09:05:26.776558  2261 net.cpp:570] inception_4c/5x5 -> inception_4c/5x5
I0327 09:05:26.785131  2261 net.cpp:210] Setting up inception_4c/5x5
I0327 09:05:26.785215  2261 net.cpp:217] Top shape: 48 64 14 14 (602112)
I0327 09:05:26.785225  2261 net.cpp:225] Memory required for data: 2099695876
I0327 09:05:26.785254  2261 layer_factory.hpp:114] Creating layer inception_4c/relu_5x5
I0327 09:05:26.785282  2261 net.cpp:160] Creating Layer inception_4c/relu_5x5
I0327 09:05:26.785297  2261 net.cpp:596] inception_4c/relu_5x5 <- inception_4c/5x5
I0327 09:05:26.785323  2261 net.cpp:557] inception_4c/relu_5x5 -> inception_4c/5x5 (in-place)
I0327 09:05:26.785349  2261 net.cpp:210] Setting up inception_4c/relu_5x5
I0327 09:05:26.785362  2261 net.cpp:217] Top shape: 48 64 14 14 (602112)
I0327 09:05:26.785389  2261 net.cpp:225] Memory required for data: 2102104324
I0327 09:05:26.785399  2261 layer_factory.hpp:114] Creating layer inception_4c/pool
I0327 09:05:26.785449  2261 net.cpp:160] Creating Layer inception_4c/pool
I0327 09:05:26.785460  2261 net.cpp:596] inception_4c/pool <- inception_4b/output_inception_4b/output_0_split_3
I0327 09:05:26.785475  2261 net.cpp:570] inception_4c/pool -> inception_4c/pool
I0327 09:05:26.785500  2261 net.cpp:210] Setting up inception_4c/pool
I0327 09:05:26.785512  2261 net.cpp:217] Top shape: 48 512 14 14 (4816896)
I0327 09:05:26.785521  2261 net.cpp:225] Memory required for data: 2121371908
I0327 09:05:26.785531  2261 layer_factory.hpp:114] Creating layer inception_4c/pool_proj
I0327 09:05:26.785576  2261 net.cpp:160] Creating Layer inception_4c/pool_proj
I0327 09:05:26.785588  2261 net.cpp:596] inception_4c/pool_proj <- inception_4c/pool
I0327 09:05:26.785601  2261 net.cpp:570] inception_4c/pool_proj -> inception_4c/pool_proj
I0327 09:05:26.793232  2261 net.cpp:210] Setting up inception_4c/pool_proj
I0327 09:05:26.793318  2261 net.cpp:217] Top shape: 48 64 14 14 (602112)
I0327 09:05:26.793329  2261 net.cpp:225] Memory required for data: 2123780356
I0327 09:05:26.793355  2261 layer_factory.hpp:114] Creating layer inception_4c/relu_pool_proj
I0327 09:05:26.793381  2261 net.cpp:160] Creating Layer inception_4c/relu_pool_proj
I0327 09:05:26.793396  2261 net.cpp:596] inception_4c/relu_pool_proj <- inception_4c/pool_proj
I0327 09:05:26.793421  2261 net.cpp:557] inception_4c/relu_pool_proj -> inception_4c/pool_proj (in-place)
I0327 09:05:26.793445  2261 net.cpp:210] Setting up inception_4c/relu_pool_proj
I0327 09:05:26.793457  2261 net.cpp:217] Top shape: 48 64 14 14 (602112)
I0327 09:05:26.793467  2261 net.cpp:225] Memory required for data: 2126188804
I0327 09:05:26.793475  2261 layer_factory.hpp:114] Creating layer inception_4c/output
I0327 09:05:26.793489  2261 net.cpp:160] Creating Layer inception_4c/output
I0327 09:05:26.793499  2261 net.cpp:596] inception_4c/output <- inception_4c/1x1
I0327 09:05:26.793511  2261 net.cpp:596] inception_4c/output <- inception_4c/3x3
I0327 09:05:26.793522  2261 net.cpp:596] inception_4c/output <- inception_4c/5x5
I0327 09:05:26.793534  2261 net.cpp:596] inception_4c/output <- inception_4c/pool_proj
I0327 09:05:26.793546  2261 net.cpp:570] inception_4c/output -> inception_4c/output
I0327 09:05:26.793567  2261 net.cpp:210] Setting up inception_4c/output
I0327 09:05:26.793579  2261 net.cpp:217] Top shape: 48 512 14 14 (4816896)
I0327 09:05:26.793587  2261 net.cpp:225] Memory required for data: 2145456388
I0327 09:05:26.793596  2261 layer_factory.hpp:114] Creating layer inception_4c/output_inception_4c/output_0_split
I0327 09:05:26.793613  2261 net.cpp:160] Creating Layer inception_4c/output_inception_4c/output_0_split
I0327 09:05:26.793622  2261 net.cpp:596] inception_4c/output_inception_4c/output_0_split <- inception_4c/output
I0327 09:05:26.793634  2261 net.cpp:570] inception_4c/output_inception_4c/output_0_split -> inception_4c/output_inception_4c/output_0_split_0
I0327 09:05:26.793653  2261 net.cpp:570] inception_4c/output_inception_4c/output_0_split -> inception_4c/output_inception_4c/output_0_split_1
I0327 09:05:26.793668  2261 net.cpp:570] inception_4c/output_inception_4c/output_0_split -> inception_4c/output_inception_4c/output_0_split_2
I0327 09:05:26.793682  2261 net.cpp:570] inception_4c/output_inception_4c/output_0_split -> inception_4c/output_inception_4c/output_0_split_3
I0327 09:05:26.793699  2261 net.cpp:210] Setting up inception_4c/output_inception_4c/output_0_split
I0327 09:05:26.793709  2261 net.cpp:217] Top shape: 48 512 14 14 (4816896)
I0327 09:05:26.793720  2261 net.cpp:217] Top shape: 48 512 14 14 (4816896)
I0327 09:05:26.793731  2261 net.cpp:217] Top shape: 48 512 14 14 (4816896)
I0327 09:05:26.793742  2261 net.cpp:217] Top shape: 48 512 14 14 (4816896)
I0327 09:05:26.793751  2261 net.cpp:225] Memory required for data: 2222526724
I0327 09:05:26.793759  2261 layer_factory.hpp:114] Creating layer inception_4d/1x1
I0327 09:05:26.793802  2261 net.cpp:160] Creating Layer inception_4d/1x1
I0327 09:05:26.793813  2261 net.cpp:596] inception_4d/1x1 <- inception_4c/output_inception_4c/output_0_split_0
I0327 09:05:26.793831  2261 net.cpp:570] inception_4d/1x1 -> inception_4d/1x1
I0327 09:05:26.802897  2261 net.cpp:210] Setting up inception_4d/1x1
I0327 09:05:26.802983  2261 net.cpp:217] Top shape: 48 112 14 14 (1053696)
I0327 09:05:26.802994  2261 net.cpp:225] Memory required for data: 2226741508
I0327 09:05:26.803028  2261 layer_factory.hpp:114] Creating layer inception_4d/relu_1x1
I0327 09:05:26.803059  2261 net.cpp:160] Creating Layer inception_4d/relu_1x1
I0327 09:05:26.803074  2261 net.cpp:596] inception_4d/relu_1x1 <- inception_4d/1x1
I0327 09:05:26.803123  2261 net.cpp:557] inception_4d/relu_1x1 -> inception_4d/1x1 (in-place)
I0327 09:05:26.803148  2261 net.cpp:210] Setting up inception_4d/relu_1x1
I0327 09:05:26.803159  2261 net.cpp:217] Top shape: 48 112 14 14 (1053696)
I0327 09:05:26.803169  2261 net.cpp:225] Memory required for data: 2230956292
I0327 09:05:26.803177  2261 layer_factory.hpp:114] Creating layer inception_4d/3x3_reduce
I0327 09:05:26.803206  2261 net.cpp:160] Creating Layer inception_4d/3x3_reduce
I0327 09:05:26.803217  2261 net.cpp:596] inception_4d/3x3_reduce <- inception_4c/output_inception_4c/output_0_split_1
I0327 09:05:26.803236  2261 net.cpp:570] inception_4d/3x3_reduce -> inception_4d/3x3_reduce
I0327 09:05:26.812991  2261 net.cpp:210] Setting up inception_4d/3x3_reduce
I0327 09:05:26.813083  2261 net.cpp:217] Top shape: 48 144 14 14 (1354752)
I0327 09:05:26.813094  2261 net.cpp:225] Memory required for data: 2236375300
I0327 09:05:26.813122  2261 layer_factory.hpp:114] Creating layer inception_4d/relu_3x3_reduce
I0327 09:05:26.813146  2261 net.cpp:160] Creating Layer inception_4d/relu_3x3_reduce
I0327 09:05:26.813163  2261 net.cpp:596] inception_4d/relu_3x3_reduce <- inception_4d/3x3_reduce
I0327 09:05:26.813180  2261 net.cpp:557] inception_4d/relu_3x3_reduce -> inception_4d/3x3_reduce (in-place)
I0327 09:05:26.813205  2261 net.cpp:210] Setting up inception_4d/relu_3x3_reduce
I0327 09:05:26.813217  2261 net.cpp:217] Top shape: 48 144 14 14 (1354752)
I0327 09:05:26.813226  2261 net.cpp:225] Memory required for data: 2241794308
I0327 09:05:26.813235  2261 layer_factory.hpp:114] Creating layer inception_4d/3x3
I0327 09:05:26.813262  2261 net.cpp:160] Creating Layer inception_4d/3x3
I0327 09:05:26.813272  2261 net.cpp:596] inception_4d/3x3 <- inception_4d/3x3_reduce
I0327 09:05:26.813287  2261 net.cpp:570] inception_4d/3x3 -> inception_4d/3x3
I0327 09:05:26.845508  2261 net.cpp:210] Setting up inception_4d/3x3
I0327 09:05:26.845597  2261 net.cpp:217] Top shape: 48 288 14 14 (2709504)
I0327 09:05:26.845607  2261 net.cpp:225] Memory required for data: 2252632324
I0327 09:05:26.845633  2261 layer_factory.hpp:114] Creating layer inception_4d/relu_3x3
I0327 09:05:26.845667  2261 net.cpp:160] Creating Layer inception_4d/relu_3x3
I0327 09:05:26.845682  2261 net.cpp:596] inception_4d/relu_3x3 <- inception_4d/3x3
I0327 09:05:26.845700  2261 net.cpp:557] inception_4d/relu_3x3 -> inception_4d/3x3 (in-place)
I0327 09:05:26.845726  2261 net.cpp:210] Setting up inception_4d/relu_3x3
I0327 09:05:26.845737  2261 net.cpp:217] Top shape: 48 288 14 14 (2709504)
I0327 09:05:26.845746  2261 net.cpp:225] Memory required for data: 2263470340
I0327 09:05:26.845755  2261 layer_factory.hpp:114] Creating layer inception_4d/5x5_reduce
I0327 09:05:26.845780  2261 net.cpp:160] Creating Layer inception_4d/5x5_reduce
I0327 09:05:26.845791  2261 net.cpp:596] inception_4d/5x5_reduce <- inception_4c/output_inception_4c/output_0_split_2
I0327 09:05:26.845809  2261 net.cpp:570] inception_4d/5x5_reduce -> inception_4d/5x5_reduce
I0327 09:05:26.852383  2261 net.cpp:210] Setting up inception_4d/5x5_reduce
I0327 09:05:26.852469  2261 net.cpp:217] Top shape: 48 32 14 14 (301056)
I0327 09:05:26.852479  2261 net.cpp:225] Memory required for data: 2264674564
I0327 09:05:26.852506  2261 layer_factory.hpp:114] Creating layer inception_4d/relu_5x5_reduce
I0327 09:05:26.852550  2261 net.cpp:160] Creating Layer inception_4d/relu_5x5_reduce
I0327 09:05:26.852566  2261 net.cpp:596] inception_4d/relu_5x5_reduce <- inception_4d/5x5_reduce
I0327 09:05:26.852584  2261 net.cpp:557] inception_4d/relu_5x5_reduce -> inception_4d/5x5_reduce (in-place)
I0327 09:05:26.852608  2261 net.cpp:210] Setting up inception_4d/relu_5x5_reduce
I0327 09:05:26.852620  2261 net.cpp:217] Top shape: 48 32 14 14 (301056)
I0327 09:05:26.852629  2261 net.cpp:225] Memory required for data: 2265878788
I0327 09:05:26.852638  2261 layer_factory.hpp:114] Creating layer inception_4d/5x5
I0327 09:05:26.852665  2261 net.cpp:160] Creating Layer inception_4d/5x5
I0327 09:05:26.852675  2261 net.cpp:596] inception_4d/5x5 <- inception_4d/5x5_reduce
I0327 09:05:26.852707  2261 net.cpp:570] inception_4d/5x5 -> inception_4d/5x5
I0327 09:05:26.863034  2261 net.cpp:210] Setting up inception_4d/5x5
I0327 09:05:26.863119  2261 net.cpp:217] Top shape: 48 64 14 14 (602112)
I0327 09:05:26.863129  2261 net.cpp:225] Memory required for data: 2268287236
I0327 09:05:26.863157  2261 layer_factory.hpp:114] Creating layer inception_4d/relu_5x5
I0327 09:05:26.863186  2261 net.cpp:160] Creating Layer inception_4d/relu_5x5
I0327 09:05:26.863201  2261 net.cpp:596] inception_4d/relu_5x5 <- inception_4d/5x5
I0327 09:05:26.863219  2261 net.cpp:557] inception_4d/relu_5x5 -> inception_4d/5x5 (in-place)
I0327 09:05:26.863243  2261 net.cpp:210] Setting up inception_4d/relu_5x5
I0327 09:05:26.863255  2261 net.cpp:217] Top shape: 48 64 14 14 (602112)
I0327 09:05:26.863263  2261 net.cpp:225] Memory required for data: 2270695684
I0327 09:05:26.863272  2261 layer_factory.hpp:114] Creating layer inception_4d/pool
I0327 09:05:26.863330  2261 net.cpp:160] Creating Layer inception_4d/pool
I0327 09:05:26.863343  2261 net.cpp:596] inception_4d/pool <- inception_4c/output_inception_4c/output_0_split_3
I0327 09:05:26.863356  2261 net.cpp:570] inception_4d/pool -> inception_4d/pool
I0327 09:05:26.863381  2261 net.cpp:210] Setting up inception_4d/pool
I0327 09:05:26.863394  2261 net.cpp:217] Top shape: 48 512 14 14 (4816896)
I0327 09:05:26.863401  2261 net.cpp:225] Memory required for data: 2289963268
I0327 09:05:26.863410  2261 layer_factory.hpp:114] Creating layer inception_4d/pool_proj
I0327 09:05:26.863445  2261 net.cpp:160] Creating Layer inception_4d/pool_proj
I0327 09:05:26.863456  2261 net.cpp:596] inception_4d/pool_proj <- inception_4d/pool
I0327 09:05:26.863471  2261 net.cpp:570] inception_4d/pool_proj -> inception_4d/pool_proj
I0327 09:05:26.871008  2261 net.cpp:210] Setting up inception_4d/pool_proj
I0327 09:05:26.871096  2261 net.cpp:217] Top shape: 48 64 14 14 (602112)
I0327 09:05:26.871107  2261 net.cpp:225] Memory required for data: 2292371716
I0327 09:05:26.871134  2261 layer_factory.hpp:114] Creating layer inception_4d/relu_pool_proj
I0327 09:05:26.871163  2261 net.cpp:160] Creating Layer inception_4d/relu_pool_proj
I0327 09:05:26.871179  2261 net.cpp:596] inception_4d/relu_pool_proj <- inception_4d/pool_proj
I0327 09:05:26.871197  2261 net.cpp:557] inception_4d/relu_pool_proj -> inception_4d/pool_proj (in-place)
I0327 09:05:26.871222  2261 net.cpp:210] Setting up inception_4d/relu_pool_proj
I0327 09:05:26.871234  2261 net.cpp:217] Top shape: 48 64 14 14 (602112)
I0327 09:05:26.871243  2261 net.cpp:225] Memory required for data: 2294780164
I0327 09:05:26.871253  2261 layer_factory.hpp:114] Creating layer inception_4d/output
I0327 09:05:26.871270  2261 net.cpp:160] Creating Layer inception_4d/output
I0327 09:05:26.871281  2261 net.cpp:596] inception_4d/output <- inception_4d/1x1
I0327 09:05:26.871294  2261 net.cpp:596] inception_4d/output <- inception_4d/3x3
I0327 09:05:26.871304  2261 net.cpp:596] inception_4d/output <- inception_4d/5x5
I0327 09:05:26.871320  2261 net.cpp:596] inception_4d/output <- inception_4d/pool_proj
I0327 09:05:26.871333  2261 net.cpp:570] inception_4d/output -> inception_4d/output
I0327 09:05:26.871354  2261 net.cpp:210] Setting up inception_4d/output
I0327 09:05:26.871366  2261 net.cpp:217] Top shape: 48 528 14 14 (4967424)
I0327 09:05:26.871392  2261 net.cpp:225] Memory required for data: 2314649860
I0327 09:05:26.871402  2261 layer_factory.hpp:114] Creating layer inception_4d/output_inception_4d/output_0_split
I0327 09:05:26.871417  2261 net.cpp:160] Creating Layer inception_4d/output_inception_4d/output_0_split
I0327 09:05:26.871426  2261 net.cpp:596] inception_4d/output_inception_4d/output_0_split <- inception_4d/output
I0327 09:05:26.871441  2261 net.cpp:570] inception_4d/output_inception_4d/output_0_split -> inception_4d/output_inception_4d/output_0_split_0
I0327 09:05:26.871457  2261 net.cpp:570] inception_4d/output_inception_4d/output_0_split -> inception_4d/output_inception_4d/output_0_split_1
I0327 09:05:26.871472  2261 net.cpp:570] inception_4d/output_inception_4d/output_0_split -> inception_4d/output_inception_4d/output_0_split_2
I0327 09:05:26.871506  2261 net.cpp:570] inception_4d/output_inception_4d/output_0_split -> inception_4d/output_inception_4d/output_0_split_3
I0327 09:05:26.871520  2261 net.cpp:570] inception_4d/output_inception_4d/output_0_split -> inception_4d/output_inception_4d/output_0_split_4
I0327 09:05:26.871538  2261 net.cpp:210] Setting up inception_4d/output_inception_4d/output_0_split
I0327 09:05:26.871549  2261 net.cpp:217] Top shape: 48 528 14 14 (4967424)
I0327 09:05:26.871561  2261 net.cpp:217] Top shape: 48 528 14 14 (4967424)
I0327 09:05:26.871572  2261 net.cpp:217] Top shape: 48 528 14 14 (4967424)
I0327 09:05:26.871582  2261 net.cpp:217] Top shape: 48 528 14 14 (4967424)
I0327 09:05:26.871592  2261 net.cpp:217] Top shape: 48 528 14 14 (4967424)
I0327 09:05:26.871601  2261 net.cpp:225] Memory required for data: 2413998340
I0327 09:05:26.871610  2261 layer_factory.hpp:114] Creating layer loss2/ave_pool
I0327 09:05:26.871662  2261 net.cpp:160] Creating Layer loss2/ave_pool
I0327 09:05:26.871675  2261 net.cpp:596] loss2/ave_pool <- inception_4d/output_inception_4d/output_0_split_0
I0327 09:05:26.871687  2261 net.cpp:570] loss2/ave_pool -> loss2/ave_pool
I0327 09:05:26.871706  2261 net.cpp:210] Setting up loss2/ave_pool
I0327 09:05:26.871718  2261 net.cpp:217] Top shape: 48 528 4 4 (405504)
I0327 09:05:26.871726  2261 net.cpp:225] Memory required for data: 2415620356
I0327 09:05:26.871737  2261 layer_factory.hpp:114] Creating layer loss2/conv
I0327 09:05:26.871762  2261 net.cpp:160] Creating Layer loss2/conv
I0327 09:05:26.871773  2261 net.cpp:596] loss2/conv <- loss2/ave_pool
I0327 09:05:26.871788  2261 net.cpp:570] loss2/conv -> loss2/conv
I0327 09:05:26.877120  2261 net.cpp:210] Setting up loss2/conv
I0327 09:05:26.877197  2261 net.cpp:217] Top shape: 48 128 4 4 (98304)
I0327 09:05:26.877207  2261 net.cpp:225] Memory required for data: 2416013572
I0327 09:05:26.877233  2261 layer_factory.hpp:114] Creating layer loss2/relu_conv
I0327 09:05:26.877261  2261 net.cpp:160] Creating Layer loss2/relu_conv
I0327 09:05:26.877276  2261 net.cpp:596] loss2/relu_conv <- loss2/conv
I0327 09:05:26.877295  2261 net.cpp:557] loss2/relu_conv -> loss2/conv (in-place)
I0327 09:05:26.877321  2261 net.cpp:210] Setting up loss2/relu_conv
I0327 09:05:26.877334  2261 net.cpp:217] Top shape: 48 128 4 4 (98304)
I0327 09:05:26.877343  2261 net.cpp:225] Memory required for data: 2416406788
I0327 09:05:26.877352  2261 layer_factory.hpp:114] Creating layer loss2/fc
I0327 09:05:26.877377  2261 net.cpp:160] Creating Layer loss2/fc
I0327 09:05:26.877388  2261 net.cpp:596] loss2/fc <- loss2/conv
I0327 09:05:26.877401  2261 net.cpp:570] loss2/fc -> loss2/fc
I0327 09:05:26.912307  2261 net.cpp:210] Setting up loss2/fc
I0327 09:05:26.912395  2261 net.cpp:217] Top shape: 48 1024 (49152)
I0327 09:05:26.912405  2261 net.cpp:225] Memory required for data: 2416603396
I0327 09:05:26.912428  2261 layer_factory.hpp:114] Creating layer loss2/relu_fc
I0327 09:05:26.912453  2261 net.cpp:160] Creating Layer loss2/relu_fc
I0327 09:05:26.912468  2261 net.cpp:596] loss2/relu_fc <- loss2/fc
I0327 09:05:26.912490  2261 net.cpp:557] loss2/relu_fc -> loss2/fc (in-place)
I0327 09:05:26.912511  2261 net.cpp:210] Setting up loss2/relu_fc
I0327 09:05:26.912523  2261 net.cpp:217] Top shape: 48 1024 (49152)
I0327 09:05:26.912549  2261 net.cpp:225] Memory required for data: 2416800004
I0327 09:05:26.912559  2261 layer_factory.hpp:114] Creating layer loss2/drop_fc
I0327 09:05:26.912575  2261 net.cpp:160] Creating Layer loss2/drop_fc
I0327 09:05:26.912585  2261 net.cpp:596] loss2/drop_fc <- loss2/fc
I0327 09:05:26.912596  2261 net.cpp:557] loss2/drop_fc -> loss2/fc (in-place)
I0327 09:05:26.912612  2261 net.cpp:210] Setting up loss2/drop_fc
I0327 09:05:26.912623  2261 net.cpp:217] Top shape: 48 1024 (49152)
I0327 09:05:26.912632  2261 net.cpp:225] Memory required for data: 2416996612
I0327 09:05:26.912641  2261 layer_factory.hpp:114] Creating layer loss2/classifier
I0327 09:05:26.912662  2261 net.cpp:160] Creating Layer loss2/classifier
I0327 09:05:26.912688  2261 net.cpp:596] loss2/classifier <- loss2/fc
I0327 09:05:26.912705  2261 net.cpp:570] loss2/classifier -> loss2/classifier
I0327 09:05:26.930177  2261 net.cpp:210] Setting up loss2/classifier
I0327 09:05:26.930234  2261 net.cpp:217] Top shape: 48 1000 (48000)
I0327 09:05:26.930244  2261 net.cpp:225] Memory required for data: 2417188612
I0327 09:05:26.930264  2261 layer_factory.hpp:114] Creating layer loss2/loss
I0327 09:05:26.930284  2261 net.cpp:160] Creating Layer loss2/loss
I0327 09:05:26.930297  2261 net.cpp:596] loss2/loss <- loss2/classifier
I0327 09:05:26.930310  2261 net.cpp:596] loss2/loss <- label_data_1_split_1
I0327 09:05:26.930330  2261 net.cpp:570] loss2/loss -> loss2/loss1
I0327 09:05:26.930351  2261 layer_factory.hpp:114] Creating layer loss2/loss
I0327 09:05:26.930603  2261 net.cpp:210] Setting up loss2/loss
I0327 09:05:26.930616  2261 net.cpp:217] Top shape: (1)
I0327 09:05:26.930625  2261 net.cpp:220]     with loss weight 0.3
I0327 09:05:26.930654  2261 net.cpp:225] Memory required for data: 2417188616
I0327 09:05:26.930662  2261 layer_factory.hpp:114] Creating layer inception_4e/1x1
I0327 09:05:26.930688  2261 net.cpp:160] Creating Layer inception_4e/1x1
I0327 09:05:26.930701  2261 net.cpp:596] inception_4e/1x1 <- inception_4d/output_inception_4d/output_0_split_1
I0327 09:05:26.930716  2261 net.cpp:570] inception_4e/1x1 -> inception_4e/1x1
I0327 09:05:26.944039  2261 net.cpp:210] Setting up inception_4e/1x1
I0327 09:05:26.944126  2261 net.cpp:217] Top shape: 48 256 14 14 (2408448)
I0327 09:05:26.944136  2261 net.cpp:225] Memory required for data: 2426822408
I0327 09:05:26.944164  2261 layer_factory.hpp:114] Creating layer inception_4e/relu_1x1
I0327 09:05:26.944190  2261 net.cpp:160] Creating Layer inception_4e/relu_1x1
I0327 09:05:26.944205  2261 net.cpp:596] inception_4e/relu_1x1 <- inception_4e/1x1
I0327 09:05:26.944227  2261 net.cpp:557] inception_4e/relu_1x1 -> inception_4e/1x1 (in-place)
I0327 09:05:26.944252  2261 net.cpp:210] Setting up inception_4e/relu_1x1
I0327 09:05:26.944264  2261 net.cpp:217] Top shape: 48 256 14 14 (2408448)
I0327 09:05:26.944273  2261 net.cpp:225] Memory required for data: 2436456200
I0327 09:05:26.944283  2261 layer_factory.hpp:114] Creating layer inception_4e/3x3_reduce
I0327 09:05:26.944310  2261 net.cpp:160] Creating Layer inception_4e/3x3_reduce
I0327 09:05:26.944327  2261 net.cpp:596] inception_4e/3x3_reduce <- inception_4d/output_inception_4d/output_0_split_2
I0327 09:05:26.944342  2261 net.cpp:570] inception_4e/3x3_reduce -> inception_4e/3x3_reduce
I0327 09:05:26.955340  2261 net.cpp:210] Setting up inception_4e/3x3_reduce
I0327 09:05:26.955427  2261 net.cpp:217] Top shape: 48 160 14 14 (1505280)
I0327 09:05:26.955437  2261 net.cpp:225] Memory required for data: 2442477320
I0327 09:05:26.955464  2261 layer_factory.hpp:114] Creating layer inception_4e/relu_3x3_reduce
I0327 09:05:26.955494  2261 net.cpp:160] Creating Layer inception_4e/relu_3x3_reduce
I0327 09:05:26.955510  2261 net.cpp:596] inception_4e/relu_3x3_reduce <- inception_4e/3x3_reduce
I0327 09:05:26.955528  2261 net.cpp:557] inception_4e/relu_3x3_reduce -> inception_4e/3x3_reduce (in-place)
I0327 09:05:26.955552  2261 net.cpp:210] Setting up inception_4e/relu_3x3_reduce
I0327 09:05:26.955564  2261 net.cpp:217] Top shape: 48 160 14 14 (1505280)
I0327 09:05:26.955590  2261 net.cpp:225] Memory required for data: 2448498440
I0327 09:05:26.955600  2261 layer_factory.hpp:114] Creating layer inception_4e/3x3
I0327 09:05:26.955631  2261 net.cpp:160] Creating Layer inception_4e/3x3
I0327 09:05:26.955641  2261 net.cpp:596] inception_4e/3x3 <- inception_4e/3x3_reduce
I0327 09:05:26.955658  2261 net.cpp:570] inception_4e/3x3 -> inception_4e/3x3
I0327 09:05:26.994079  2261 net.cpp:210] Setting up inception_4e/3x3
I0327 09:05:26.994165  2261 net.cpp:217] Top shape: 48 320 14 14 (3010560)
I0327 09:05:26.994176  2261 net.cpp:225] Memory required for data: 2460540680
I0327 09:05:26.994204  2261 layer_factory.hpp:114] Creating layer inception_4e/relu_3x3
I0327 09:05:26.994263  2261 net.cpp:160] Creating Layer inception_4e/relu_3x3
I0327 09:05:26.994279  2261 net.cpp:596] inception_4e/relu_3x3 <- inception_4e/3x3
I0327 09:05:26.994297  2261 net.cpp:557] inception_4e/relu_3x3 -> inception_4e/3x3 (in-place)
I0327 09:05:26.994326  2261 net.cpp:210] Setting up inception_4e/relu_3x3
I0327 09:05:26.994338  2261 net.cpp:217] Top shape: 48 320 14 14 (3010560)
I0327 09:05:26.994348  2261 net.cpp:225] Memory required for data: 2472582920
I0327 09:05:26.994356  2261 layer_factory.hpp:114] Creating layer inception_4e/5x5_reduce
I0327 09:05:26.994382  2261 net.cpp:160] Creating Layer inception_4e/5x5_reduce
I0327 09:05:26.994392  2261 net.cpp:596] inception_4e/5x5_reduce <- inception_4d/output_inception_4d/output_0_split_3
I0327 09:05:26.994410  2261 net.cpp:570] inception_4e/5x5_reduce -> inception_4e/5x5_reduce
I0327 09:05:27.000808  2261 net.cpp:210] Setting up inception_4e/5x5_reduce
I0327 09:05:27.000890  2261 net.cpp:217] Top shape: 48 32 14 14 (301056)
I0327 09:05:27.000900  2261 net.cpp:225] Memory required for data: 2473787144
I0327 09:05:27.000927  2261 layer_factory.hpp:114] Creating layer inception_4e/relu_5x5_reduce
I0327 09:05:27.000957  2261 net.cpp:160] Creating Layer inception_4e/relu_5x5_reduce
I0327 09:05:27.000973  2261 net.cpp:596] inception_4e/relu_5x5_reduce <- inception_4e/5x5_reduce
I0327 09:05:27.000990  2261 net.cpp:557] inception_4e/relu_5x5_reduce -> inception_4e/5x5_reduce (in-place)
I0327 09:05:27.001015  2261 net.cpp:210] Setting up inception_4e/relu_5x5_reduce
I0327 09:05:27.001036  2261 net.cpp:217] Top shape: 48 32 14 14 (301056)
I0327 09:05:27.001044  2261 net.cpp:225] Memory required for data: 2474991368
I0327 09:05:27.001055  2261 layer_factory.hpp:114] Creating layer inception_4e/5x5
I0327 09:05:27.001093  2261 net.cpp:160] Creating Layer inception_4e/5x5
I0327 09:05:27.001106  2261 net.cpp:596] inception_4e/5x5 <- inception_4e/5x5_reduce
I0327 09:05:27.001119  2261 net.cpp:570] inception_4e/5x5 -> inception_4e/5x5
I0327 09:05:27.014652  2261 net.cpp:210] Setting up inception_4e/5x5
I0327 09:05:27.014739  2261 net.cpp:217] Top shape: 48 128 14 14 (1204224)
I0327 09:05:27.014750  2261 net.cpp:225] Memory required for data: 2479808264
I0327 09:05:27.014781  2261 layer_factory.hpp:114] Creating layer inception_4e/relu_5x5
I0327 09:05:27.014809  2261 net.cpp:160] Creating Layer inception_4e/relu_5x5
I0327 09:05:27.014824  2261 net.cpp:596] inception_4e/relu_5x5 <- inception_4e/5x5
I0327 09:05:27.014844  2261 net.cpp:557] inception_4e/relu_5x5 -> inception_4e/5x5 (in-place)
I0327 09:05:27.014869  2261 net.cpp:210] Setting up inception_4e/relu_5x5
I0327 09:05:27.014881  2261 net.cpp:217] Top shape: 48 128 14 14 (1204224)
I0327 09:05:27.014890  2261 net.cpp:225] Memory required for data: 2484625160
I0327 09:05:27.014899  2261 layer_factory.hpp:114] Creating layer inception_4e/pool
I0327 09:05:27.014950  2261 net.cpp:160] Creating Layer inception_4e/pool
I0327 09:05:27.014963  2261 net.cpp:596] inception_4e/pool <- inception_4d/output_inception_4d/output_0_split_4
I0327 09:05:27.014977  2261 net.cpp:570] inception_4e/pool -> inception_4e/pool
I0327 09:05:27.015002  2261 net.cpp:210] Setting up inception_4e/pool
I0327 09:05:27.015014  2261 net.cpp:217] Top shape: 48 528 14 14 (4967424)
I0327 09:05:27.015033  2261 net.cpp:225] Memory required for data: 2504494856
I0327 09:05:27.015064  2261 layer_factory.hpp:114] Creating layer inception_4e/pool_proj
I0327 09:05:27.015096  2261 net.cpp:160] Creating Layer inception_4e/pool_proj
I0327 09:05:27.015107  2261 net.cpp:596] inception_4e/pool_proj <- inception_4e/pool
I0327 09:05:27.015121  2261 net.cpp:570] inception_4e/pool_proj -> inception_4e/pool_proj
I0327 09:05:27.024574  2261 net.cpp:210] Setting up inception_4e/pool_proj
I0327 09:05:27.024659  2261 net.cpp:217] Top shape: 48 128 14 14 (1204224)
I0327 09:05:27.024669  2261 net.cpp:225] Memory required for data: 2509311752
I0327 09:05:27.024698  2261 layer_factory.hpp:114] Creating layer inception_4e/relu_pool_proj
I0327 09:05:27.024724  2261 net.cpp:160] Creating Layer inception_4e/relu_pool_proj
I0327 09:05:27.024767  2261 net.cpp:596] inception_4e/relu_pool_proj <- inception_4e/pool_proj
I0327 09:05:27.024786  2261 net.cpp:557] inception_4e/relu_pool_proj -> inception_4e/pool_proj (in-place)
I0327 09:05:27.024811  2261 net.cpp:210] Setting up inception_4e/relu_pool_proj
I0327 09:05:27.024822  2261 net.cpp:217] Top shape: 48 128 14 14 (1204224)
I0327 09:05:27.024830  2261 net.cpp:225] Memory required for data: 2514128648
I0327 09:05:27.024840  2261 layer_factory.hpp:114] Creating layer inception_4e/output
I0327 09:05:27.024854  2261 net.cpp:160] Creating Layer inception_4e/output
I0327 09:05:27.024864  2261 net.cpp:596] inception_4e/output <- inception_4e/1x1
I0327 09:05:27.024876  2261 net.cpp:596] inception_4e/output <- inception_4e/3x3
I0327 09:05:27.024888  2261 net.cpp:596] inception_4e/output <- inception_4e/5x5
I0327 09:05:27.024899  2261 net.cpp:596] inception_4e/output <- inception_4e/pool_proj
I0327 09:05:27.024914  2261 net.cpp:570] inception_4e/output -> inception_4e/output
I0327 09:05:27.024936  2261 net.cpp:210] Setting up inception_4e/output
I0327 09:05:27.024947  2261 net.cpp:217] Top shape: 48 832 14 14 (7827456)
I0327 09:05:27.024956  2261 net.cpp:225] Memory required for data: 2545438472
I0327 09:05:27.024966  2261 layer_factory.hpp:114] Creating layer pool4/3x3_s2
I0327 09:05:27.025012  2261 net.cpp:160] Creating Layer pool4/3x3_s2
I0327 09:05:27.025032  2261 net.cpp:596] pool4/3x3_s2 <- inception_4e/output
I0327 09:05:27.025046  2261 net.cpp:570] pool4/3x3_s2 -> pool4/3x3_s2
I0327 09:05:27.025068  2261 net.cpp:210] Setting up pool4/3x3_s2
I0327 09:05:27.025079  2261 net.cpp:217] Top shape: 48 832 7 7 (1956864)
I0327 09:05:27.025089  2261 net.cpp:225] Memory required for data: 2553265928
I0327 09:05:27.025097  2261 layer_factory.hpp:114] Creating layer pool4/3x3_s2_pool4/3x3_s2_0_split
I0327 09:05:27.025110  2261 net.cpp:160] Creating Layer pool4/3x3_s2_pool4/3x3_s2_0_split
I0327 09:05:27.025120  2261 net.cpp:596] pool4/3x3_s2_pool4/3x3_s2_0_split <- pool4/3x3_s2
I0327 09:05:27.025135  2261 net.cpp:570] pool4/3x3_s2_pool4/3x3_s2_0_split -> pool4/3x3_s2_pool4/3x3_s2_0_split_0
I0327 09:05:27.025151  2261 net.cpp:570] pool4/3x3_s2_pool4/3x3_s2_0_split -> pool4/3x3_s2_pool4/3x3_s2_0_split_1
I0327 09:05:27.025166  2261 net.cpp:570] pool4/3x3_s2_pool4/3x3_s2_0_split -> pool4/3x3_s2_pool4/3x3_s2_0_split_2
I0327 09:05:27.025179  2261 net.cpp:570] pool4/3x3_s2_pool4/3x3_s2_0_split -> pool4/3x3_s2_pool4/3x3_s2_0_split_3
I0327 09:05:27.025195  2261 net.cpp:210] Setting up pool4/3x3_s2_pool4/3x3_s2_0_split
I0327 09:05:27.025207  2261 net.cpp:217] Top shape: 48 832 7 7 (1956864)
I0327 09:05:27.025218  2261 net.cpp:217] Top shape: 48 832 7 7 (1956864)
I0327 09:05:27.025229  2261 net.cpp:217] Top shape: 48 832 7 7 (1956864)
I0327 09:05:27.025240  2261 net.cpp:217] Top shape: 48 832 7 7 (1956864)
I0327 09:05:27.025249  2261 net.cpp:225] Memory required for data: 2584575752
I0327 09:05:27.025259  2261 layer_factory.hpp:114] Creating layer inception_5a/1x1
I0327 09:05:27.025282  2261 net.cpp:160] Creating Layer inception_5a/1x1
I0327 09:05:27.025292  2261 net.cpp:596] inception_5a/1x1 <- pool4/3x3_s2_pool4/3x3_s2_0_split_0
I0327 09:05:27.025310  2261 net.cpp:570] inception_5a/1x1 -> inception_5a/1x1
I0327 09:05:27.040343  2261 net.cpp:210] Setting up inception_5a/1x1
I0327 09:05:27.040446  2261 net.cpp:217] Top shape: 48 256 7 7 (602112)
I0327 09:05:27.040457  2261 net.cpp:225] Memory required for data: 2586984200
I0327 09:05:27.040485  2261 layer_factory.hpp:114] Creating layer inception_5a/relu_1x1
I0327 09:05:27.040510  2261 net.cpp:160] Creating Layer inception_5a/relu_1x1
I0327 09:05:27.040526  2261 net.cpp:596] inception_5a/relu_1x1 <- inception_5a/1x1
I0327 09:05:27.040549  2261 net.cpp:557] inception_5a/relu_1x1 -> inception_5a/1x1 (in-place)
I0327 09:05:27.040573  2261 net.cpp:210] Setting up inception_5a/relu_1x1
I0327 09:05:27.040585  2261 net.cpp:217] Top shape: 48 256 7 7 (602112)
I0327 09:05:27.040593  2261 net.cpp:225] Memory required for data: 2589392648
I0327 09:05:27.040618  2261 layer_factory.hpp:114] Creating layer inception_5a/3x3_reduce
I0327 09:05:27.040647  2261 net.cpp:160] Creating Layer inception_5a/3x3_reduce
I0327 09:05:27.040659  2261 net.cpp:596] inception_5a/3x3_reduce <- pool4/3x3_s2_pool4/3x3_s2_0_split_1
I0327 09:05:27.040674  2261 net.cpp:570] inception_5a/3x3_reduce -> inception_5a/3x3_reduce
I0327 09:05:27.051573  2261 net.cpp:210] Setting up inception_5a/3x3_reduce
I0327 09:05:27.051659  2261 net.cpp:217] Top shape: 48 160 7 7 (376320)
I0327 09:05:27.051668  2261 net.cpp:225] Memory required for data: 2590897928
I0327 09:05:27.051695  2261 layer_factory.hpp:114] Creating layer inception_5a/relu_3x3_reduce
I0327 09:05:27.051725  2261 net.cpp:160] Creating Layer inception_5a/relu_3x3_reduce
I0327 09:05:27.051740  2261 net.cpp:596] inception_5a/relu_3x3_reduce <- inception_5a/3x3_reduce
I0327 09:05:27.051759  2261 net.cpp:557] inception_5a/relu_3x3_reduce -> inception_5a/3x3_reduce (in-place)
I0327 09:05:27.051784  2261 net.cpp:210] Setting up inception_5a/relu_3x3_reduce
I0327 09:05:27.051795  2261 net.cpp:217] Top shape: 48 160 7 7 (376320)
I0327 09:05:27.051805  2261 net.cpp:225] Memory required for data: 2592403208
I0327 09:05:27.051813  2261 layer_factory.hpp:114] Creating layer inception_5a/3x3
I0327 09:05:27.051837  2261 net.cpp:160] Creating Layer inception_5a/3x3
I0327 09:05:27.051847  2261 net.cpp:596] inception_5a/3x3 <- inception_5a/3x3_reduce
I0327 09:05:27.051864  2261 net.cpp:570] inception_5a/3x3 -> inception_5a/3x3
I0327 09:05:27.082504  2261 net.cpp:210] Setting up inception_5a/3x3
I0327 09:05:27.082592  2261 net.cpp:217] Top shape: 48 320 7 7 (752640)
I0327 09:05:27.082602  2261 net.cpp:225] Memory required for data: 2595413768
I0327 09:05:27.082628  2261 layer_factory.hpp:114] Creating layer inception_5a/relu_3x3
I0327 09:05:27.082653  2261 net.cpp:160] Creating Layer inception_5a/relu_3x3
I0327 09:05:27.082669  2261 net.cpp:596] inception_5a/relu_3x3 <- inception_5a/3x3
I0327 09:05:27.082687  2261 net.cpp:557] inception_5a/relu_3x3 -> inception_5a/3x3 (in-place)
I0327 09:05:27.082712  2261 net.cpp:210] Setting up inception_5a/relu_3x3
I0327 09:05:27.082725  2261 net.cpp:217] Top shape: 48 320 7 7 (752640)
I0327 09:05:27.082732  2261 net.cpp:225] Memory required for data: 2598424328
I0327 09:05:27.082741  2261 layer_factory.hpp:114] Creating layer inception_5a/5x5_reduce
I0327 09:05:27.082769  2261 net.cpp:160] Creating Layer inception_5a/5x5_reduce
I0327 09:05:27.082782  2261 net.cpp:596] inception_5a/5x5_reduce <- pool4/3x3_s2_pool4/3x3_s2_0_split_2
I0327 09:05:27.082797  2261 net.cpp:570] inception_5a/5x5_reduce -> inception_5a/5x5_reduce
I0327 09:05:27.087652  2261 net.cpp:210] Setting up inception_5a/5x5_reduce
I0327 09:05:27.087723  2261 net.cpp:217] Top shape: 48 32 7 7 (75264)
I0327 09:05:27.087733  2261 net.cpp:225] Memory required for data: 2598725384
I0327 09:05:27.087759  2261 layer_factory.hpp:114] Creating layer inception_5a/relu_5x5_reduce
I0327 09:05:27.087781  2261 net.cpp:160] Creating Layer inception_5a/relu_5x5_reduce
I0327 09:05:27.087795  2261 net.cpp:596] inception_5a/relu_5x5_reduce <- inception_5a/5x5_reduce
I0327 09:05:27.087816  2261 net.cpp:557] inception_5a/relu_5x5_reduce -> inception_5a/5x5_reduce (in-place)
I0327 09:05:27.087839  2261 net.cpp:210] Setting up inception_5a/relu_5x5_reduce
I0327 09:05:27.087869  2261 net.cpp:217] Top shape: 48 32 7 7 (75264)
I0327 09:05:27.087878  2261 net.cpp:225] Memory required for data: 2599026440
I0327 09:05:27.087888  2261 layer_factory.hpp:114] Creating layer inception_5a/5x5
I0327 09:05:27.087913  2261 net.cpp:160] Creating Layer inception_5a/5x5
I0327 09:05:27.087924  2261 net.cpp:596] inception_5a/5x5 <- inception_5a/5x5_reduce
I0327 09:05:27.087937  2261 net.cpp:570] inception_5a/5x5 -> inception_5a/5x5
I0327 09:05:27.096484  2261 net.cpp:210] Setting up inception_5a/5x5
I0327 09:05:27.096570  2261 net.cpp:217] Top shape: 48 128 7 7 (301056)
I0327 09:05:27.096580  2261 net.cpp:225] Memory required for data: 2600230664
I0327 09:05:27.096606  2261 layer_factory.hpp:114] Creating layer inception_5a/relu_5x5
I0327 09:05:27.096662  2261 net.cpp:160] Creating Layer inception_5a/relu_5x5
I0327 09:05:27.096678  2261 net.cpp:596] inception_5a/relu_5x5 <- inception_5a/5x5
I0327 09:05:27.096698  2261 net.cpp:557] inception_5a/relu_5x5 -> inception_5a/5x5 (in-place)
I0327 09:05:27.096722  2261 net.cpp:210] Setting up inception_5a/relu_5x5
I0327 09:05:27.096735  2261 net.cpp:217] Top shape: 48 128 7 7 (301056)
I0327 09:05:27.096743  2261 net.cpp:225] Memory required for data: 2601434888
I0327 09:05:27.096752  2261 layer_factory.hpp:114] Creating layer inception_5a/pool
I0327 09:05:27.096804  2261 net.cpp:160] Creating Layer inception_5a/pool
I0327 09:05:27.096819  2261 net.cpp:596] inception_5a/pool <- pool4/3x3_s2_pool4/3x3_s2_0_split_3
I0327 09:05:27.096833  2261 net.cpp:570] inception_5a/pool -> inception_5a/pool
I0327 09:05:27.096858  2261 net.cpp:210] Setting up inception_5a/pool
I0327 09:05:27.096870  2261 net.cpp:217] Top shape: 48 832 7 7 (1956864)
I0327 09:05:27.096879  2261 net.cpp:225] Memory required for data: 2609262344
I0327 09:05:27.096889  2261 layer_factory.hpp:114] Creating layer inception_5a/pool_proj
I0327 09:05:27.096920  2261 net.cpp:160] Creating Layer inception_5a/pool_proj
I0327 09:05:27.096931  2261 net.cpp:596] inception_5a/pool_proj <- inception_5a/pool
I0327 09:05:27.096945  2261 net.cpp:570] inception_5a/pool_proj -> inception_5a/pool_proj
I0327 09:05:27.105947  2261 net.cpp:210] Setting up inception_5a/pool_proj
I0327 09:05:27.106043  2261 net.cpp:217] Top shape: 48 128 7 7 (301056)
I0327 09:05:27.106055  2261 net.cpp:225] Memory required for data: 2610466568
I0327 09:05:27.106081  2261 layer_factory.hpp:114] Creating layer inception_5a/relu_pool_proj
I0327 09:05:27.106107  2261 net.cpp:160] Creating Layer inception_5a/relu_pool_proj
I0327 09:05:27.106124  2261 net.cpp:596] inception_5a/relu_pool_proj <- inception_5a/pool_proj
I0327 09:05:27.106142  2261 net.cpp:557] inception_5a/relu_pool_proj -> inception_5a/pool_proj (in-place)
I0327 09:05:27.106168  2261 net.cpp:210] Setting up inception_5a/relu_pool_proj
I0327 09:05:27.106179  2261 net.cpp:217] Top shape: 48 128 7 7 (301056)
I0327 09:05:27.106187  2261 net.cpp:225] Memory required for data: 2611670792
I0327 09:05:27.106197  2261 layer_factory.hpp:114] Creating layer inception_5a/output
I0327 09:05:27.106211  2261 net.cpp:160] Creating Layer inception_5a/output
I0327 09:05:27.106221  2261 net.cpp:596] inception_5a/output <- inception_5a/1x1
I0327 09:05:27.106233  2261 net.cpp:596] inception_5a/output <- inception_5a/3x3
I0327 09:05:27.106245  2261 net.cpp:596] inception_5a/output <- inception_5a/5x5
I0327 09:05:27.106256  2261 net.cpp:596] inception_5a/output <- inception_5a/pool_proj
I0327 09:05:27.106268  2261 net.cpp:570] inception_5a/output -> inception_5a/output
I0327 09:05:27.106290  2261 net.cpp:210] Setting up inception_5a/output
I0327 09:05:27.106302  2261 net.cpp:217] Top shape: 48 832 7 7 (1956864)
I0327 09:05:27.106310  2261 net.cpp:225] Memory required for data: 2619498248
I0327 09:05:27.106324  2261 layer_factory.hpp:114] Creating layer inception_5a/output_inception_5a/output_0_split
I0327 09:05:27.106341  2261 net.cpp:160] Creating Layer inception_5a/output_inception_5a/output_0_split
I0327 09:05:27.106351  2261 net.cpp:596] inception_5a/output_inception_5a/output_0_split <- inception_5a/output
I0327 09:05:27.106380  2261 net.cpp:570] inception_5a/output_inception_5a/output_0_split -> inception_5a/output_inception_5a/output_0_split_0
I0327 09:05:27.106396  2261 net.cpp:570] inception_5a/output_inception_5a/output_0_split -> inception_5a/output_inception_5a/output_0_split_1
I0327 09:05:27.106412  2261 net.cpp:570] inception_5a/output_inception_5a/output_0_split -> inception_5a/output_inception_5a/output_0_split_2
I0327 09:05:27.106427  2261 net.cpp:570] inception_5a/output_inception_5a/output_0_split -> inception_5a/output_inception_5a/output_0_split_3
I0327 09:05:27.106443  2261 net.cpp:210] Setting up inception_5a/output_inception_5a/output_0_split
I0327 09:05:27.106456  2261 net.cpp:217] Top shape: 48 832 7 7 (1956864)
I0327 09:05:27.106487  2261 net.cpp:217] Top shape: 48 832 7 7 (1956864)
I0327 09:05:27.106498  2261 net.cpp:217] Top shape: 48 832 7 7 (1956864)
I0327 09:05:27.106508  2261 net.cpp:217] Top shape: 48 832 7 7 (1956864)
I0327 09:05:27.106516  2261 net.cpp:225] Memory required for data: 2650808072
I0327 09:05:27.106525  2261 layer_factory.hpp:114] Creating layer inception_5b/1x1
I0327 09:05:27.106552  2261 net.cpp:160] Creating Layer inception_5b/1x1
I0327 09:05:27.106564  2261 net.cpp:596] inception_5b/1x1 <- inception_5a/output_inception_5a/output_0_split_0
I0327 09:05:27.106577  2261 net.cpp:570] inception_5b/1x1 -> inception_5b/1x1
I0327 09:05:27.127399  2261 net.cpp:210] Setting up inception_5b/1x1
I0327 09:05:27.127487  2261 net.cpp:217] Top shape: 48 384 7 7 (903168)
I0327 09:05:27.127497  2261 net.cpp:225] Memory required for data: 2654420744
I0327 09:05:27.127526  2261 layer_factory.hpp:114] Creating layer inception_5b/relu_1x1
I0327 09:05:27.127554  2261 net.cpp:160] Creating Layer inception_5b/relu_1x1
I0327 09:05:27.127569  2261 net.cpp:596] inception_5b/relu_1x1 <- inception_5b/1x1
I0327 09:05:27.127588  2261 net.cpp:557] inception_5b/relu_1x1 -> inception_5b/1x1 (in-place)
I0327 09:05:27.127612  2261 net.cpp:210] Setting up inception_5b/relu_1x1
I0327 09:05:27.127624  2261 net.cpp:217] Top shape: 48 384 7 7 (903168)
I0327 09:05:27.127634  2261 net.cpp:225] Memory required for data: 2658033416
I0327 09:05:27.127642  2261 layer_factory.hpp:114] Creating layer inception_5b/3x3_reduce
I0327 09:05:27.127667  2261 net.cpp:160] Creating Layer inception_5b/3x3_reduce
I0327 09:05:27.127678  2261 net.cpp:596] inception_5b/3x3_reduce <- inception_5a/output_inception_5a/output_0_split_1
I0327 09:05:27.127696  2261 net.cpp:570] inception_5b/3x3_reduce -> inception_5b/3x3_reduce
I0327 09:05:27.140136  2261 net.cpp:210] Setting up inception_5b/3x3_reduce
I0327 09:05:27.140223  2261 net.cpp:217] Top shape: 48 192 7 7 (451584)
I0327 09:05:27.140233  2261 net.cpp:225] Memory required for data: 2659839752
I0327 09:05:27.140259  2261 layer_factory.hpp:114] Creating layer inception_5b/relu_3x3_reduce
I0327 09:05:27.140285  2261 net.cpp:160] Creating Layer inception_5b/relu_3x3_reduce
I0327 09:05:27.140301  2261 net.cpp:596] inception_5b/relu_3x3_reduce <- inception_5b/3x3_reduce
I0327 09:05:27.140324  2261 net.cpp:557] inception_5b/relu_3x3_reduce -> inception_5b/3x3_reduce (in-place)
I0327 09:05:27.140350  2261 net.cpp:210] Setting up inception_5b/relu_3x3_reduce
I0327 09:05:27.140362  2261 net.cpp:217] Top shape: 48 192 7 7 (451584)
I0327 09:05:27.140370  2261 net.cpp:225] Memory required for data: 2661646088
I0327 09:05:27.140379  2261 layer_factory.hpp:114] Creating layer inception_5b/3x3
I0327 09:05:27.140408  2261 net.cpp:160] Creating Layer inception_5b/3x3
I0327 09:05:27.140419  2261 net.cpp:596] inception_5b/3x3 <- inception_5b/3x3_reduce
I0327 09:05:27.140432  2261 net.cpp:570] inception_5b/3x3 -> inception_5b/3x3
I0327 09:05:27.182162  2261 net.cpp:210] Setting up inception_5b/3x3
I0327 09:05:27.182250  2261 net.cpp:217] Top shape: 48 384 7 7 (903168)
I0327 09:05:27.182260  2261 net.cpp:225] Memory required for data: 2665258760
I0327 09:05:27.182287  2261 layer_factory.hpp:114] Creating layer inception_5b/relu_3x3
I0327 09:05:27.182322  2261 net.cpp:160] Creating Layer inception_5b/relu_3x3
I0327 09:05:27.182355  2261 net.cpp:596] inception_5b/relu_3x3 <- inception_5b/3x3
I0327 09:05:27.182374  2261 net.cpp:557] inception_5b/relu_3x3 -> inception_5b/3x3 (in-place)
I0327 09:05:27.182399  2261 net.cpp:210] Setting up inception_5b/relu_3x3
I0327 09:05:27.182410  2261 net.cpp:217] Top shape: 48 384 7 7 (903168)
I0327 09:05:27.182420  2261 net.cpp:225] Memory required for data: 2668871432
I0327 09:05:27.182428  2261 layer_factory.hpp:114] Creating layer inception_5b/5x5_reduce
I0327 09:05:27.182453  2261 net.cpp:160] Creating Layer inception_5b/5x5_reduce
I0327 09:05:27.182466  2261 net.cpp:596] inception_5b/5x5_reduce <- inception_5a/output_inception_5a/output_0_split_2
I0327 09:05:27.182499  2261 net.cpp:570] inception_5b/5x5_reduce -> inception_5b/5x5_reduce
I0327 09:05:27.187885  2261 net.cpp:210] Setting up inception_5b/5x5_reduce
I0327 09:05:27.187963  2261 net.cpp:217] Top shape: 48 48 7 7 (112896)
I0327 09:05:27.187973  2261 net.cpp:225] Memory required for data: 2669323016
I0327 09:05:27.187999  2261 layer_factory.hpp:114] Creating layer inception_5b/relu_5x5_reduce
I0327 09:05:27.188031  2261 net.cpp:160] Creating Layer inception_5b/relu_5x5_reduce
I0327 09:05:27.188047  2261 net.cpp:596] inception_5b/relu_5x5_reduce <- inception_5b/5x5_reduce
I0327 09:05:27.188069  2261 net.cpp:557] inception_5b/relu_5x5_reduce -> inception_5b/5x5_reduce (in-place)
I0327 09:05:27.188093  2261 net.cpp:210] Setting up inception_5b/relu_5x5_reduce
I0327 09:05:27.188104  2261 net.cpp:217] Top shape: 48 48 7 7 (112896)
I0327 09:05:27.188113  2261 net.cpp:225] Memory required for data: 2669774600
I0327 09:05:27.188122  2261 layer_factory.hpp:114] Creating layer inception_5b/5x5
I0327 09:05:27.188148  2261 net.cpp:160] Creating Layer inception_5b/5x5
I0327 09:05:27.188158  2261 net.cpp:596] inception_5b/5x5 <- inception_5b/5x5_reduce
I0327 09:05:27.188171  2261 net.cpp:570] inception_5b/5x5 -> inception_5b/5x5
I0327 09:05:27.200652  2261 net.cpp:210] Setting up inception_5b/5x5
I0327 09:05:27.200736  2261 net.cpp:217] Top shape: 48 128 7 7 (301056)
I0327 09:05:27.200747  2261 net.cpp:225] Memory required for data: 2670978824
I0327 09:05:27.200773  2261 layer_factory.hpp:114] Creating layer inception_5b/relu_5x5
I0327 09:05:27.200798  2261 net.cpp:160] Creating Layer inception_5b/relu_5x5
I0327 09:05:27.200815  2261 net.cpp:596] inception_5b/relu_5x5 <- inception_5b/5x5
I0327 09:05:27.200834  2261 net.cpp:557] inception_5b/relu_5x5 -> inception_5b/5x5 (in-place)
I0327 09:05:27.200857  2261 net.cpp:210] Setting up inception_5b/relu_5x5
I0327 09:05:27.200870  2261 net.cpp:217] Top shape: 48 128 7 7 (301056)
I0327 09:05:27.200878  2261 net.cpp:225] Memory required for data: 2672183048
I0327 09:05:27.200887  2261 layer_factory.hpp:114] Creating layer inception_5b/pool
I0327 09:05:27.200940  2261 net.cpp:160] Creating Layer inception_5b/pool
I0327 09:05:27.200953  2261 net.cpp:596] inception_5b/pool <- inception_5a/output_inception_5a/output_0_split_3
I0327 09:05:27.200966  2261 net.cpp:570] inception_5b/pool -> inception_5b/pool
I0327 09:05:27.200991  2261 net.cpp:210] Setting up inception_5b/pool
I0327 09:05:27.201006  2261 net.cpp:217] Top shape: 48 832 7 7 (1956864)
I0327 09:05:27.201015  2261 net.cpp:225] Memory required for data: 2680010504
I0327 09:05:27.201033  2261 layer_factory.hpp:114] Creating layer inception_5b/pool_proj
I0327 09:05:27.201058  2261 net.cpp:160] Creating Layer inception_5b/pool_proj
I0327 09:05:27.201068  2261 net.cpp:596] inception_5b/pool_proj <- inception_5b/pool
I0327 09:05:27.201086  2261 net.cpp:570] inception_5b/pool_proj -> inception_5b/pool_proj
I0327 09:05:27.210114  2261 net.cpp:210] Setting up inception_5b/pool_proj
I0327 09:05:27.210199  2261 net.cpp:217] Top shape: 48 128 7 7 (301056)
I0327 09:05:27.210209  2261 net.cpp:225] Memory required for data: 2681214728
I0327 09:05:27.210237  2261 layer_factory.hpp:114] Creating layer inception_5b/relu_pool_proj
I0327 09:05:27.210263  2261 net.cpp:160] Creating Layer inception_5b/relu_pool_proj
I0327 09:05:27.210296  2261 net.cpp:596] inception_5b/relu_pool_proj <- inception_5b/pool_proj
I0327 09:05:27.210320  2261 net.cpp:557] inception_5b/relu_pool_proj -> inception_5b/pool_proj (in-place)
I0327 09:05:27.210345  2261 net.cpp:210] Setting up inception_5b/relu_pool_proj
I0327 09:05:27.210358  2261 net.cpp:217] Top shape: 48 128 7 7 (301056)
I0327 09:05:27.210366  2261 net.cpp:225] Memory required for data: 2682418952
I0327 09:05:27.210376  2261 layer_factory.hpp:114] Creating layer inception_5b/output
I0327 09:05:27.210393  2261 net.cpp:160] Creating Layer inception_5b/output
I0327 09:05:27.210404  2261 net.cpp:596] inception_5b/output <- inception_5b/1x1
I0327 09:05:27.210417  2261 net.cpp:596] inception_5b/output <- inception_5b/3x3
I0327 09:05:27.210444  2261 net.cpp:596] inception_5b/output <- inception_5b/5x5
I0327 09:05:27.210455  2261 net.cpp:596] inception_5b/output <- inception_5b/pool_proj
I0327 09:05:27.210469  2261 net.cpp:570] inception_5b/output -> inception_5b/output
I0327 09:05:27.210489  2261 net.cpp:210] Setting up inception_5b/output
I0327 09:05:27.210501  2261 net.cpp:217] Top shape: 48 1024 7 7 (2408448)
I0327 09:05:27.210510  2261 net.cpp:225] Memory required for data: 2692052744
I0327 09:05:27.210518  2261 layer_factory.hpp:114] Creating layer pool5/7x7_s1
I0327 09:05:27.210566  2261 net.cpp:160] Creating Layer pool5/7x7_s1
I0327 09:05:27.210577  2261 net.cpp:596] pool5/7x7_s1 <- inception_5b/output
I0327 09:05:27.210592  2261 net.cpp:570] pool5/7x7_s1 -> pool5/7x7_s1
I0327 09:05:27.210610  2261 net.cpp:210] Setting up pool5/7x7_s1
I0327 09:05:27.210623  2261 net.cpp:217] Top shape: 48 1024 1 1 (49152)
I0327 09:05:27.210631  2261 net.cpp:225] Memory required for data: 2692249352
I0327 09:05:27.210640  2261 layer_factory.hpp:114] Creating layer pool5/drop_7x7_s1
I0327 09:05:27.210659  2261 net.cpp:160] Creating Layer pool5/drop_7x7_s1
I0327 09:05:27.210669  2261 net.cpp:596] pool5/drop_7x7_s1 <- pool5/7x7_s1
I0327 09:05:27.210681  2261 net.cpp:557] pool5/drop_7x7_s1 -> pool5/7x7_s1 (in-place)
I0327 09:05:27.210697  2261 net.cpp:210] Setting up pool5/drop_7x7_s1
I0327 09:05:27.210710  2261 net.cpp:217] Top shape: 48 1024 1 1 (49152)
I0327 09:05:27.210717  2261 net.cpp:225] Memory required for data: 2692445960
I0327 09:05:27.210726  2261 layer_factory.hpp:114] Creating layer loss3/classifier
I0327 09:05:27.210748  2261 net.cpp:160] Creating Layer loss3/classifier
I0327 09:05:27.210758  2261 net.cpp:596] loss3/classifier <- pool5/7x7_s1
I0327 09:05:27.210772  2261 net.cpp:570] loss3/classifier -> loss3/classifier
I0327 09:05:27.228180  2261 net.cpp:210] Setting up loss3/classifier
I0327 09:05:27.228235  2261 net.cpp:217] Top shape: 48 1000 (48000)
I0327 09:05:27.228245  2261 net.cpp:225] Memory required for data: 2692637960
I0327 09:05:27.228266  2261 layer_factory.hpp:114] Creating layer loss3/loss3
I0327 09:05:27.228284  2261 net.cpp:160] Creating Layer loss3/loss3
I0327 09:05:27.228296  2261 net.cpp:596] loss3/loss3 <- loss3/classifier
I0327 09:05:27.228309  2261 net.cpp:596] loss3/loss3 <- label_data_1_split_2
I0327 09:05:27.228327  2261 net.cpp:570] loss3/loss3 -> loss3/loss3
…
I0327 09:05:27.242090  2261 net.cpp:484] The NetState phase (1) differed from the phase (0) specified by a rule in layer data
I0327 09:05:27.249835  2261 net.cpp:120] Initializing net from parameters: 
name: "GoogleNet"
state {
  phase: TEST
}
layer {
  name: "data"
  type: "Data"
  top: "data"
  top: "label"
  include {
    phase: TEST
  }
  transform_param {
    mirror: false
    crop_size: 224
    mean_value: 104
    mean_value: 117
    mean_value: 123
  }
  data_param {
    source: "/home/user/user/LIBRARIES/caffeLibs/caffe/examples/imagenet/ilsvrc12_val_lmdb"
    batch_size: 50
    backend: LMDB
  }
}
layer {
  name: "label_data_1_split"
  type: "Split"
  bottom: "label"
  top: "label_data_1_split_0"
  top: "label_data_1_split_1"
  top: "label_data_1_split_2"
  top: "label_data_1_split_3"
  top: "label_data_1_split_4"
  top: "label_data_1_split_5"
  top: "label_data_1_split_6"
  top: "label_data_1_split_7"
  top: "label_data_1_split_8"
}
layer {
  name: "conv1/7x7_s2"
  type: "Convolution"
  bottom: "data"
  top: "conv1/7x7_s2"
  param {
    lr_mult: 1
    decay_mult: 1
  }
  param {
    lr_mult: 2
    decay_mult: 0
  }
  convolution_param {
    num_output: 64
    pad: 3
    kernel_size: 7
    stride: 2
    weight_filler {
      type: "xavier"
    }
    bias_filler {
      type: "constant"
      value: 0.2
    }
  }
}
layer {
  name: "conv1/relu_7x7"
  type: "ReLU"
  bottom: "conv1/7x7_s2"
  top: "conv1/7x7_s2"
}
layer {
  name: "pool1/3x3_s2"
  type: "Pooling"
  bottom: "conv1/7x7_s2"
  top: "pool1/3x3_s2"
  pooling_param {
    pool: MAX
    kernel_size: 3
    stride: 2
  }
}
layer {
  name: "pool1/norm1"
  type: "LRN"
  bottom: "pool1/3x3_s2"
  top: "pool1/norm1"
  lrn_param {
    local_size: 5
    alpha: 0.0001
    beta: 0.75
  }
}
layer {
  name: "conv2/3x3_reduce"
  type: "Convolution"
  bottom: "pool1/norm1"
  top: "conv2/3x3_reduce"
  param {
    lr_mult: 1
    decay_mult: 1
  }
  param {
    lr_mult: 2
    decay_mult: 0
  }
  convolution_param {
    num_output: 64
    kernel_size: 1
    weight_filler {
      type: "xavier"
    }
    bias_filler {
      type: "constant"
      value: 0.2
    }
  }
}
layer {
  name: "conv2/relu_3x3_reduce"
  type: "ReLU"
  bottom: "conv2/3x3_reduce"
  top: "conv2/3x3_reduce"
}
layer {
  name: "conv2/3x3"
  type: "Convolution"
  bottom: "conv2/3x3_reduce"
  top: "conv2/3x3"
  param {
    lr_mult: 1
    decay_mult: 1
  }
  param {
    lr_mult: 2
    decay_mult: 0
  }
  convolution_param {
    num_output: 192
    pad: 1
    kernel_size: 3
    weight_filler {
      type: "xavier"
    }
    bias_filler {
      type: "constant"
      value: 0.2
    }
  }
}
layer {
  name: "conv2/relu_3x3"
  type: "ReLU"
  bottom: "conv2/3x3"
  top: "conv2/3x3"
}
layer {
  name: "conv2/norm2"
  type: "LRN"
  bottom: "conv2/3x3"
  top: "conv2/norm2"
  lrn_param {
    local_size: 5
    alpha: 0.0001
    beta: 0.75
  }
}
layer {
  name: "pool2/3x3_s2"
  type: "Pooling"
  bottom: "conv2/norm2"
  top: "pool2/3x3_s2"
  pooling_param {
    pool: MAX
    kernel_size: 3
    stride: 2
  }
}
layer {
  name: "pool2/3x3_s2_pool2/3x3_s2_0_split"
  type: "Split"
  bottom: "pool2/3x3_s2"
  top: "pool2/3x3_s2_pool2/3x3_s2_0_split_0"
  top: "pool2/3x3_s2_pool2/3x3_s2_0_split_1"
  top: "pool2/3x3_s2_pool2/3x3_s2_0_split_2"
  top: "pool2/3x3_s2_pool2/3x3_s2_0_split_3"
}
layer {
  name: "inception_3a/1x1"
  type: "Convolution"
  bottom: "pool2/3x3_s2_pool2/3x3_s2_0_split_0"
  top: "inception_3a/1x1"
  param {
    lr_mult: 1
    decay_mult: 1
  }
  param {
    lr_mult: 2
    decay_mult: 0
  }
  convolution_param {
    num_output: 64
    kernel_size: 1
    weight_filler {
      type: "xavier"
    }
    bias_filler {
      type: "constant"
      value: 0.2
    }
  }
}
layer {
  name: "inception_3a/relu_1x1"
  type: "ReLU"
  bottom: "inception_3a/1x1"
  top: "inception_3a/1x1"
}
layer {
  name: "inception_3a/3x3_reduce"
  type: "Convolution"
  bottom: "pool2/3x3_s2_pool2/3x3_s2_0_split_1"
  top: "inception_3a/3x3_reduce"
  param {
    lr_mult: 1
    decay_mult: 1
  }
  param {
    lr_mult: 2
    decay_mult: 0
  }
  convolution_param {
    num_output: 96
    kernel_size: 1
    weight_filler {
      type: "xavier"
    }
    bias_filler {
      type: "constant"
      value: 0.2
    }
  }
}
layer {
  name: "inception_3a/relu_3x3_reduce"
  type: "ReLU"
  bottom: "inception_3a/3x3_reduce"
  top: "inception_3a/3x3_reduce"
}
layer {
  name: "inception_3a/3x3"
  type: "Convolution"
  bottom: "inception_3a/3x3_reduce"
  top: "inception_3a/3x3"
  param {
    lr_mult: 1
    decay_mult: 1
  }
  param {
    lr_mult: 2
    decay_mult: 0
  }
  convolution_param {
    num_output: 128
    pad: 1
    kernel_size: 3
    weight_filler {
      type: "xavier"
    }
    bias_filler {
      type: "constant"
      value: 0.2
    }
  }
}
layer {
  name: "inception_3a/relu_3x3"
  type: "ReLU"
  bottom: "inception_3a/3x3"
  top: "inception_3a/3x3"
}
layer {
  name: "inception_3a/5x5_reduce"
  type: "Convolution"
  bottom: "pool2/3x3_s2_pool2/3x3_s2_0_split_2"
  top: "inception_3a/5x5_reduce"
  param {
    lr_mult: 1
    decay_mult: 1
  }
  param {
    lr_mult: 2
    decay_mult: 0
  }
  convolution_param {
    num_output: 16
    kernel_size: 1
    weight_filler {
      type: "xavier"
    }
    bias_filler {
      type: "constant"
      value: 0.2
    }
  }
}
layer {
  name: "inception_3a/relu_5x5_reduce"
  type: "ReLU"
  bottom: "inception_3a/5x5_reduce"
  top: "inception_3a/5x5_reduce"
}
layer {
  name: "inception_3a/5x5"
  type: "Convolution"
  bottom: "inception_3a/5x5_reduce"
  top: "inception_3a/5x5"
  param {
    lr_mult: 1
    decay_mult: 1
  }
  param {
    lr_mult: 2
    decay_mult: 0
  }
  convolution_param {
    num_output: 32
    pad: 2
    kernel_size: 5
    weight_filler {
      type: "xavier"
    }
    bias_filler {
      type: "constant"
      value: 0.2
    }
  }
}
layer {
  name: "inception_3a/relu_5x5"
  type: "ReLU"
  bottom: "inception_3a/5x5"
  top: "inception_3a/5x5"
}
layer {
  name: "inception_3a/pool"
  type: "Pooling"
  bottom: "pool2/3x3_s2_pool2/3x3_s2_0_split_3"
  top: "inception_3a/pool"
  pooling_param {
    pool: MAX
    kernel_size: 3
    stride: 1
    pad: 1
  }
}
layer {
  name: "inception_3a/pool_proj"
  type: "Convolution"
  bottom: "inception_3a/pool"
  top: "inception_3a/pool_proj"
  param {
    lr_mult: 1
    decay_mult: 1
  }
  param {
    lr_mult: 2
    decay_mult: 0
  }
  convolution_param {
    num_output: 32
    kernel_size: 1
    weight_filler {
      type: "xavier"
    }
    bias_filler {
      type: "constant"
      value: 0.2
    }
  }
}
layer {
  name: "inception_3a/relu_pool_proj"
  type: "ReLU"
  bottom: "inception_3a/pool_proj"
  top: "inception_3a/pool_proj"
}
layer {
  name: "inception_3a/output"
  type: "Concat"
  bottom: "inception_3a/1x1"
  bottom: "inception_3a/3x3"
  bottom: "inception_3a/5x5"
  bottom: "inception_3a/pool_proj"
  top: "inception_3a/output"
}
layer {
  name: "inception_3a/output_inception_3a/output_0_split"
  type: "Split"
  bottom: "inception_3a/output"
  top: "inception_3a/output_inception_3a/output_0_split_0"
  top: "inception_3a/output_inception_3a/output_0_split_1"
  top: "inception_3a/output_inception_3a/output_0_split_2"
  top: "inception_3a/output_inception_3a/output_0_split_3"
}
layer {
  name: "inception_3b/1x1"
  type: "Convolution"
  bottom: "inception_3a/output_inception_3a/output_0_split_0"
  top: "inception_3b/1x1"
  param {
    lr_mult: 1
    decay_mult: 1
  }
  param {
    lr_mult: 2
    decay_mult: 0
  }
  convolution_param {
    num_output: 128
    kernel_size: 1
    weight_filler {
      type: "xavier"
    }
    bias_filler {
      type: "constant"
      value: 0.2
    }
  }
}
layer {
  name: "inception_3b/relu_1x1"
  type: "ReLU"
  bottom: "inception_3b/1x1"
  top: "inception_3b/1x1"
}
layer {
  name: "inception_3b/3x3_reduce"
  type: "Convolution"
  bottom: "inception_3a/output_inception_3a/output_0_split_1"
  top: "inception_3b/3x3_reduce"
  param {
    lr_mult: 1
    decay_mult: 1
  }
  param {
    lr_mult: 2
    decay_mult: 0
  }
  convolution_param {
    num_output: 128
    kernel_size: 1
    weight_filler {
      type: "xavier"
    }
    bias_filler {
      type: "constant"
      value: 0.2
    }
  }
}
layer {
  name: "inception_3b/relu_3x3_reduce"
  type: "ReLU"
  bottom: "inception_3b/3x3_reduce"
  top: "inception_3b/3x3_reduce"
}
layer {
  name: "inception_3b/3x3"
  type: "Convolution"
  bottom: "inception_3b/3x3_reduce"
  top: "inception_3b/3x3"
  param {
    lr_mult: 1
    decay_mult: 1
  }
  param {
    lr_mult: 2
    decay_mult: 0
  }
  convolution_param {
    num_output: 192
    pad: 1
    kernel_size: 3
    weight_filler {
      type: "xavier"
    }
    bias_filler {
      type: "constant"
      value: 0.2
    }
  }
}
layer {
  name: "inception_3b/relu_3x3"
  type: "ReLU"
  bottom: "inception_3b/3x3"
  top: "inception_3b/3x3"
}
layer {
  name: "inception_3b/5x5_reduce"
  type: "Convolution"
  bottom: "inception_3a/output_inception_3a/output_0_split_2"
  top: "inception_3b/5x5_reduce"
  param {
    lr_mult: 1
    decay_mult: 1
  }
  param {
    lr_mult: 2
    decay_mult: 0
  }
  convolution_param {
    num_output: 32
    kernel_size: 1
    weight_filler {
      type: "xavier"
    }
    bias_filler {
      type: "constant"
      value: 0.2
    }
  }
}
layer {
  name: "inception_3b/relu_5x5_reduce"
  type: "ReLU"
  bottom: "inception_3b/5x5_reduce"
  top: "inception_3b/5x5_reduce"
}
layer {
  name: "inception_3b/5x5"
  type: "Convolution"
  bottom: "inception_3b/5x5_reduce"
  top: "inception_3b/5x5"
  param {
    lr_mult: 1
    decay_mult: 1
  }
  param {
    lr_mult: 2
    decay_mult: 0
  }
  convolution_param {
    num_output: 96
    pad: 2
    kernel_size: 5
    weight_filler {
      type: "xavier"
    }
    bias_filler {
      type: "constant"
      value: 0.2
    }
  }
}
layer {
  name: "inception_3b/relu_5x5"
  type: "ReLU"
  bottom: "inception_3b/5x5"
  top: "inception_3b/5x5"
}
layer {
  name: "inception_3b/pool"
  type: "Pooling"
  bottom: "inception_3a/output_inception_3a/output_0_split_3"
  top: "inception_3b/pool"
  pooling_param {
    pool: MAX
    kernel_size: 3
    stride: 1
    pad: 1
  }
}
layer {
  name: "inception_3b/pool_proj"
  type: "Convolution"
  bottom: "inception_3b/pool"
  top: "inception_3b/pool_proj"
  param {
    lr_mult: 1
    decay_mult: 1
  }
  param {
    lr_mult: 2
    decay_mult: 0
  }
  convolution_param {
    num_output: 64
    kernel_size: 1
    weight_filler {
      type: "xavier"
    }
    bias_filler {
      type: "constant"
      value: 0.2
    }
  }
}
layer {
  name: "inception_3b/relu_pool_proj"
  type: "ReLU"
  bottom: "inception_3b/pool_proj"
  top: "inception_3b/pool_proj"
}
layer {
  name: "inception_3b/output"
  type: "Concat"
  bottom: "inception_3b/1x1"
  bottom: "inception_3b/3x3"
  bottom: "inception_3b/5x5"
  bottom: "inception_3b/pool_proj"
  top: "inception_3b/output"
}
layer {
  name: "pool3/3x3_s2"
  type: "Pooling"
  bottom: "inception_3b/output"
  top: "pool3/3x3_s2"
  pooling_param {
    pool: MAX
    kernel_size: 3
    stride: 2
  }
}
layer {
  name: "pool3/3x3_s2_pool3/3x3_s2_0_split"
  type: "Split"
  bottom: "pool3/3x3_s2"
  top: "pool3/3x3_s2_pool3/3x3_s2_0_split_0"
  top: "pool3/3x3_s2_pool3/3x3_s2_0_split_1"
  top: "pool3/3x3_s2_pool3/3x3_s2_0_split_2"
  top: "pool3/3x3_s2_pool3/3x3_s2_0_split_3"
}
layer {
  name: "inception_4a/1x1"
  type: "Convolution"
  bottom: "pool3/3x3_s2_pool3/3x3_s2_0_split_0"
  top: "inception_4a/1x1"
  param {
    lr_mult: 1
    decay_mult: 1
  }
  param {
    lr_mult: 2
    decay_mult: 0
  }
  convolution_param {
    num_output: 192
    kernel_size: 1
    weight_filler {
      type: "xavier"
    }
    bias_filler {
      type: "constant"
      value: 0.2
    }
  }
}
layer {
  name: "inception_4a/relu_1x1"
  type: "ReLU"
  bottom: "inception_4a/1x1"
  top: "inception_4a/1x1"
}
layer {
  name: "inception_4a/3x3_reduce"
  type: "Convolution"
  bottom: "pool3/3x3_s2_pool3/3x3_s2_0_split_1"
  top: "inception_4a/3x3_reduce"
  param {
    lr_mult: 1
    decay_mult: 1
  }
  param {
    lr_mult: 2
    decay_mult: 0
  }
  convolution_param {
    num_output: 96
    kernel_size: 1
    weight_filler {
      type: "xavier"
    }
    bias_filler {
      type: "constant"
      value: 0.2
    }
  }
}
layer {
  name: "inception_4a/relu_3x3_reduce"
  type: "ReLU"
  bottom: "inception_4a/3x3_reduce"
  top: "inception_4a/3x3_reduce"
}
layer {
  name: "inception_4a/3x3"
  type: "Convolution"
  bottom: "inception_4a/3x3_reduce"
  top: "inception_4a/3x3"
  param {
    lr_mult: 1
    decay_mult: 1
  }
  param {
    lr_mult: 2
    decay_mult: 0
  }
  convolution_param {
    num_output: 208
    pad: 1
    kernel_size: 3
    weight_filler {
      type: "xavier"
    }
    bias_filler {
      type: "constant"
      value: 0.2
    }
  }
}
layer {
  name: "inception_4a/relu_3x3"
  type: "ReLU"
  bottom: "inception_4a/3x3"
  top: "inception_4a/3x3"
}
layer {
  name: "inception_4a/5x5_reduce"
  type: "Convolution"
  bottom: "pool3/3x3_s2_pool3/3x3_s2_0_split_2"
  top: "inception_4a/5x5_reduce"
  param {
    lr_mult: 1
    decay_mult: 1
  }
  param {
    lr_mult: 2
    decay_mult: 0
  }
  convolution_param {
    num_output: 16
    kernel_size: 1
    weight_filler {
      type: "xavier"
    }
    bias_filler {
      type: "constant"
      value: 0.2
    }
  }
}
layer {
  name: "inception_4a/relu_5x5_reduce"
  type: "ReLU"
  bottom: "inception_4a/5x5_reduce"
  top: "inception_4a/5x5_reduce"
}
layer {
  name: "inception_4a/5x5"
  type: "Convolution"
  bottom: "inception_4a/5x5_reduce"
  top: "inception_4a/5x5"
  param {
    lr_mult: 1
    decay_mult: 1
  }
  param {
    lr_mult: 2
    decay_mult: 0
  }
  convolution_param {
    num_output: 48
    pad: 2
…
I0327 09:05:27.936920  2261 layer_factory.hpp:114] Creating layer inception_4c/pool
I0327 09:05:27.936991  2261 net.cpp:160] Creating Layer inception_4c/pool
I0327 09:05:27.937005  2261 net.cpp:596] inception_4c/pool <- inception_4b/output_inception_4b/output_0_split_3
I0327 09:05:27.937028  2261 net.cpp:570] inception_4c/pool -> inception_4c/pool
I0327 09:05:27.937058  2261 net.cpp:210] Setting up inception_4c/pool
I0327 09:05:27.937070  2261 net.cpp:217] Top shape: 50 512 14 14 (5017600)
I0327 09:05:27.937078  2261 net.cpp:225] Memory required for data: 2210363612
I0327 09:05:27.937088  2261 layer_factory.hpp:114] Creating layer inception_4c/pool_proj
I0327 09:05:27.937116  2261 net.cpp:160] Creating Layer inception_4c/pool_proj
I0327 09:05:27.937126  2261 net.cpp:596] inception_4c/pool_proj <- inception_4c/pool
I0327 09:05:27.937160  2261 net.cpp:570] inception_4c/pool_proj -> inception_4c/pool_proj
I0327 09:05:27.944793  2261 net.cpp:210] Setting up inception_4c/pool_proj
I0327 09:05:27.944876  2261 net.cpp:217] Top shape: 50 64 14 14 (627200)
I0327 09:05:27.944886  2261 net.cpp:225] Memory required for data: 2212872412
I0327 09:05:27.944913  2261 layer_factory.hpp:114] Creating layer inception_4c/relu_pool_proj
I0327 09:05:27.944938  2261 net.cpp:160] Creating Layer inception_4c/relu_pool_proj
I0327 09:05:27.944955  2261 net.cpp:596] inception_4c/relu_pool_proj <- inception_4c/pool_proj
I0327 09:05:27.944977  2261 net.cpp:557] inception_4c/relu_pool_proj -> inception_4c/pool_proj (in-place)
I0327 09:05:27.945001  2261 net.cpp:210] Setting up inception_4c/relu_pool_proj
I0327 09:05:27.945013  2261 net.cpp:217] Top shape: 50 64 14 14 (627200)
I0327 09:05:27.945032  2261 net.cpp:225] Memory required for data: 2215381212
I0327 09:05:27.945041  2261 layer_factory.hpp:114] Creating layer inception_4c/output
I0327 09:05:27.945055  2261 net.cpp:160] Creating Layer inception_4c/output
I0327 09:05:27.945065  2261 net.cpp:596] inception_4c/output <- inception_4c/1x1
I0327 09:05:27.945078  2261 net.cpp:596] inception_4c/output <- inception_4c/3x3
I0327 09:05:27.945089  2261 net.cpp:596] inception_4c/output <- inception_4c/5x5
I0327 09:05:27.945101  2261 net.cpp:596] inception_4c/output <- inception_4c/pool_proj
I0327 09:05:27.945117  2261 net.cpp:570] inception_4c/output -> inception_4c/output
I0327 09:05:27.945138  2261 net.cpp:210] Setting up inception_4c/output
I0327 09:05:27.945150  2261 net.cpp:217] Top shape: 50 512 14 14 (5017600)
I0327 09:05:27.945158  2261 net.cpp:225] Memory required for data: 2235451612
I0327 09:05:27.945168  2261 layer_factory.hpp:114] Creating layer inception_4c/output_inception_4c/output_0_split
I0327 09:05:27.945181  2261 net.cpp:160] Creating Layer inception_4c/output_inception_4c/output_0_split
I0327 09:05:27.945190  2261 net.cpp:596] inception_4c/output_inception_4c/output_0_split <- inception_4c/output
I0327 09:05:27.945202  2261 net.cpp:570] inception_4c/output_inception_4c/output_0_split -> inception_4c/output_inception_4c/output_0_split_0
I0327 09:05:27.945219  2261 net.cpp:570] inception_4c/output_inception_4c/output_0_split -> inception_4c/output_inception_4c/output_0_split_1
I0327 09:05:27.945235  2261 net.cpp:570] inception_4c/output_inception_4c/output_0_split -> inception_4c/output_inception_4c/output_0_split_2
I0327 09:05:27.945250  2261 net.cpp:570] inception_4c/output_inception_4c/output_0_split -> inception_4c/output_inception_4c/output_0_split_3
I0327 09:05:27.945267  2261 net.cpp:210] Setting up inception_4c/output_inception_4c/output_0_split
I0327 09:05:27.945278  2261 net.cpp:217] Top shape: 50 512 14 14 (5017600)
I0327 09:05:27.945289  2261 net.cpp:217] Top shape: 50 512 14 14 (5017600)
I0327 09:05:27.945299  2261 net.cpp:217] Top shape: 50 512 14 14 (5017600)
I0327 09:05:27.945310  2261 net.cpp:217] Top shape: 50 512 14 14 (5017600)
I0327 09:05:27.945324  2261 net.cpp:225] Memory required for data: 2315733212
I0327 09:05:27.945333  2261 layer_factory.hpp:114] Creating layer inception_4d/1x1
I0327 09:05:27.945360  2261 net.cpp:160] Creating Layer inception_4d/1x1
I0327 09:05:27.945371  2261 net.cpp:596] inception_4d/1x1 <- inception_4c/output_inception_4c/output_0_split_0
I0327 09:05:27.945405  2261 net.cpp:570] inception_4d/1x1 -> inception_4d/1x1
I0327 09:05:27.954391  2261 net.cpp:210] Setting up inception_4d/1x1
I0327 09:05:27.954476  2261 net.cpp:217] Top shape: 50 112 14 14 (1097600)
I0327 09:05:27.954488  2261 net.cpp:225] Memory required for data: 2320123612
I0327 09:05:27.954514  2261 layer_factory.hpp:114] Creating layer inception_4d/relu_1x1
I0327 09:05:27.954540  2261 net.cpp:160] Creating Layer inception_4d/relu_1x1
I0327 09:05:27.954555  2261 net.cpp:596] inception_4d/relu_1x1 <- inception_4d/1x1
I0327 09:05:27.954574  2261 net.cpp:557] inception_4d/relu_1x1 -> inception_4d/1x1 (in-place)
I0327 09:05:27.954598  2261 net.cpp:210] Setting up inception_4d/relu_1x1
I0327 09:05:27.954638  2261 net.cpp:217] Top shape: 50 112 14 14 (1097600)
I0327 09:05:27.954646  2261 net.cpp:225] Memory required for data: 2324514012
I0327 09:05:27.954655  2261 layer_factory.hpp:114] Creating layer inception_4d/3x3_reduce
I0327 09:05:27.954686  2261 net.cpp:160] Creating Layer inception_4d/3x3_reduce
I0327 09:05:27.954699  2261 net.cpp:596] inception_4d/3x3_reduce <- inception_4c/output_inception_4c/output_0_split_1
I0327 09:05:27.954715  2261 net.cpp:570] inception_4d/3x3_reduce -> inception_4d/3x3_reduce
I0327 09:05:27.964581  2261 net.cpp:210] Setting up inception_4d/3x3_reduce
I0327 09:05:27.964668  2261 net.cpp:217] Top shape: 50 144 14 14 (1411200)
I0327 09:05:27.964679  2261 net.cpp:225] Memory required for data: 2330158812
I0327 09:05:27.964704  2261 layer_factory.hpp:114] Creating layer inception_4d/relu_3x3_reduce
I0327 09:05:27.964735  2261 net.cpp:160] Creating Layer inception_4d/relu_3x3_reduce
I0327 09:05:27.964751  2261 net.cpp:596] inception_4d/relu_3x3_reduce <- inception_4d/3x3_reduce
I0327 09:05:27.964769  2261 net.cpp:557] inception_4d/relu_3x3_reduce -> inception_4d/3x3_reduce (in-place)
I0327 09:05:27.964793  2261 net.cpp:210] Setting up inception_4d/relu_3x3_reduce
I0327 09:05:27.964805  2261 net.cpp:217] Top shape: 50 144 14 14 (1411200)
I0327 09:05:27.964814  2261 net.cpp:225] Memory required for data: 2335803612
I0327 09:05:27.964823  2261 layer_factory.hpp:114] Creating layer inception_4d/3x3
I0327 09:05:27.964848  2261 net.cpp:160] Creating Layer inception_4d/3x3
I0327 09:05:27.964859  2261 net.cpp:596] inception_4d/3x3 <- inception_4d/3x3_reduce
I0327 09:05:27.964875  2261 net.cpp:570] inception_4d/3x3 -> inception_4d/3x3
I0327 09:05:27.998214  2261 net.cpp:210] Setting up inception_4d/3x3
I0327 09:05:27.998303  2261 net.cpp:217] Top shape: 50 288 14 14 (2822400)
I0327 09:05:27.998313  2261 net.cpp:225] Memory required for data: 2347093212
I0327 09:05:27.998344  2261 layer_factory.hpp:114] Creating layer inception_4d/relu_3x3
I0327 09:05:27.998373  2261 net.cpp:160] Creating Layer inception_4d/relu_3x3
I0327 09:05:27.998389  2261 net.cpp:596] inception_4d/relu_3x3 <- inception_4d/3x3
I0327 09:05:27.998414  2261 net.cpp:557] inception_4d/relu_3x3 -> inception_4d/3x3 (in-place)
I0327 09:05:27.998441  2261 net.cpp:210] Setting up inception_4d/relu_3x3
I0327 09:05:27.998453  2261 net.cpp:217] Top shape: 50 288 14 14 (2822400)
I0327 09:05:27.998462  2261 net.cpp:225] Memory required for data: 2358382812
I0327 09:05:27.998471  2261 layer_factory.hpp:114] Creating layer inception_4d/5x5_reduce
I0327 09:05:27.998498  2261 net.cpp:160] Creating Layer inception_4d/5x5_reduce
I0327 09:05:27.998509  2261 net.cpp:596] inception_4d/5x5_reduce <- inception_4c/output_inception_4c/output_0_split_2
I0327 09:05:27.998525  2261 net.cpp:570] inception_4d/5x5_reduce -> inception_4d/5x5_reduce
I0327 09:05:28.005394  2261 net.cpp:210] Setting up inception_4d/5x5_reduce
I0327 09:05:28.005477  2261 net.cpp:217] Top shape: 50 32 14 14 (313600)
I0327 09:05:28.005487  2261 net.cpp:225] Memory required for data: 2359637212
I0327 09:05:28.005514  2261 layer_factory.hpp:114] Creating layer inception_4d/relu_5x5_reduce
I0327 09:05:28.005545  2261 net.cpp:160] Creating Layer inception_4d/relu_5x5_reduce
I0327 09:05:28.005561  2261 net.cpp:596] inception_4d/relu_5x5_reduce <- inception_4d/5x5_reduce
I0327 09:05:28.005602  2261 net.cpp:557] inception_4d/relu_5x5_reduce -> inception_4d/5x5_reduce (in-place)
I0327 09:05:28.005628  2261 net.cpp:210] Setting up inception_4d/relu_5x5_reduce
I0327 09:05:28.005640  2261 net.cpp:217] Top shape: 50 32 14 14 (313600)
I0327 09:05:28.005650  2261 net.cpp:225] Memory required for data: 2360891612
I0327 09:05:28.005658  2261 layer_factory.hpp:114] Creating layer inception_4d/5x5
I0327 09:05:28.005683  2261 net.cpp:160] Creating Layer inception_4d/5x5
I0327 09:05:28.005693  2261 net.cpp:596] inception_4d/5x5 <- inception_4d/5x5_reduce
I0327 09:05:28.005712  2261 net.cpp:570] inception_4d/5x5 -> inception_4d/5x5
I0327 09:05:28.015856  2261 net.cpp:210] Setting up inception_4d/5x5
I0327 09:05:28.015977  2261 net.cpp:217] Top shape: 50 64 14 14 (627200)
I0327 09:05:28.015988  2261 net.cpp:225] Memory required for data: 2363400412
I0327 09:05:28.016026  2261 layer_factory.hpp:114] Creating layer inception_4d/relu_5x5
I0327 09:05:28.016057  2261 net.cpp:160] Creating Layer inception_4d/relu_5x5
I0327 09:05:28.016072  2261 net.cpp:596] inception_4d/relu_5x5 <- inception_4d/5x5
I0327 09:05:28.016091  2261 net.cpp:557] inception_4d/relu_5x5 -> inception_4d/5x5 (in-place)
I0327 09:05:28.016116  2261 net.cpp:210] Setting up inception_4d/relu_5x5
I0327 09:05:28.016129  2261 net.cpp:217] Top shape: 50 64 14 14 (627200)
I0327 09:05:28.016136  2261 net.cpp:225] Memory required for data: 2365909212
I0327 09:05:28.016145  2261 layer_factory.hpp:114] Creating layer inception_4d/pool
I0327 09:05:28.016201  2261 net.cpp:160] Creating Layer inception_4d/pool
I0327 09:05:28.016213  2261 net.cpp:596] inception_4d/pool <- inception_4c/output_inception_4c/output_0_split_3
I0327 09:05:28.016230  2261 net.cpp:570] inception_4d/pool -> inception_4d/pool
I0327 09:05:28.016257  2261 net.cpp:210] Setting up inception_4d/pool
I0327 09:05:28.016268  2261 net.cpp:217] Top shape: 50 512 14 14 (5017600)
I0327 09:05:28.016278  2261 net.cpp:225] Memory required for data: 2385979612
I0327 09:05:28.016286  2261 layer_factory.hpp:114] Creating layer inception_4d/pool_proj
I0327 09:05:28.016314  2261 net.cpp:160] Creating Layer inception_4d/pool_proj
I0327 09:05:28.016325  2261 net.cpp:596] inception_4d/pool_proj <- inception_4d/pool
I0327 09:05:28.016347  2261 net.cpp:570] inception_4d/pool_proj -> inception_4d/pool_proj
I0327 09:05:28.023881  2261 net.cpp:210] Setting up inception_4d/pool_proj
I0327 09:05:28.023972  2261 net.cpp:217] Top shape: 50 64 14 14 (627200)
I0327 09:05:28.023983  2261 net.cpp:225] Memory required for data: 2388488412
I0327 09:05:28.024009  2261 layer_factory.hpp:114] Creating layer inception_4d/relu_pool_proj
I0327 09:05:28.024044  2261 net.cpp:160] Creating Layer inception_4d/relu_pool_proj
I0327 09:05:28.024061  2261 net.cpp:596] inception_4d/relu_pool_proj <- inception_4d/pool_proj
I0327 09:05:28.024080  2261 net.cpp:557] inception_4d/relu_pool_proj -> inception_4d/pool_proj (in-place)
I0327 09:05:28.024104  2261 net.cpp:210] Setting up inception_4d/relu_pool_proj
I0327 09:05:28.024116  2261 net.cpp:217] Top shape: 50 64 14 14 (627200)
I0327 09:05:28.024124  2261 net.cpp:225] Memory required for data: 2390997212
I0327 09:05:28.024133  2261 layer_factory.hpp:114] Creating layer inception_4d/output
I0327 09:05:28.024150  2261 net.cpp:160] Creating Layer inception_4d/output
I0327 09:05:28.024163  2261 net.cpp:596] inception_4d/output <- inception_4d/1x1
I0327 09:05:28.024173  2261 net.cpp:596] inception_4d/output <- inception_4d/3x3
I0327 09:05:28.024185  2261 net.cpp:596] inception_4d/output <- inception_4d/5x5
I0327 09:05:28.024196  2261 net.cpp:596] inception_4d/output <- inception_4d/pool_proj
I0327 09:05:28.024209  2261 net.cpp:570] inception_4d/output -> inception_4d/output
I0327 09:05:28.024230  2261 net.cpp:210] Setting up inception_4d/output
I0327 09:05:28.024242  2261 net.cpp:217] Top shape: 50 528 14 14 (5174400)
I0327 09:05:28.024251  2261 net.cpp:225] Memory required for data: 2411694812
I0327 09:05:28.024260  2261 layer_factory.hpp:114] Creating layer inception_4d/output_inception_4d/output_0_split
I0327 09:05:28.024296  2261 net.cpp:160] Creating Layer inception_4d/output_inception_4d/output_0_split
I0327 09:05:28.024307  2261 net.cpp:596] inception_4d/output_inception_4d/output_0_split <- inception_4d/output
I0327 09:05:28.024319  2261 net.cpp:570] inception_4d/output_inception_4d/output_0_split -> inception_4d/output_inception_4d/output_0_split_0
I0327 09:05:28.024335  2261 net.cpp:570] inception_4d/output_inception_4d/output_0_split -> inception_4d/output_inception_4d/output_0_split_1
I0327 09:05:28.024350  2261 net.cpp:570] inception_4d/output_inception_4d/output_0_split -> inception_4d/output_inception_4d/output_0_split_2
I0327 09:05:28.024366  2261 net.cpp:570] inception_4d/output_inception_4d/output_0_split -> inception_4d/output_inception_4d/output_0_split_3
I0327 09:05:28.024406  2261 net.cpp:570] inception_4d/output_inception_4d/output_0_split -> inception_4d/output_inception_4d/output_0_split_4
I0327 09:05:28.024426  2261 net.cpp:210] Setting up inception_4d/output_inception_4d/output_0_split
I0327 09:05:28.024437  2261 net.cpp:217] Top shape: 50 528 14 14 (5174400)
I0327 09:05:28.024448  2261 net.cpp:217] Top shape: 50 528 14 14 (5174400)
I0327 09:05:28.024459  2261 net.cpp:217] Top shape: 50 528 14 14 (5174400)
I0327 09:05:28.024471  2261 net.cpp:217] Top shape: 50 528 14 14 (5174400)
I0327 09:05:28.024482  2261 net.cpp:217] Top shape: 50 528 14 14 (5174400)
I0327 09:05:28.024489  2261 net.cpp:225] Memory required for data: 2515182812
I0327 09:05:28.024498  2261 layer_factory.hpp:114] Creating layer loss2/ave_pool
I0327 09:05:28.024549  2261 net.cpp:160] Creating Layer loss2/ave_pool
I0327 09:05:28.024561  2261 net.cpp:596] loss2/ave_pool <- inception_4d/output_inception_4d/output_0_split_0
I0327 09:05:28.024575  2261 net.cpp:570] loss2/ave_pool -> loss2/ave_pool
I0327 09:05:28.024595  2261 net.cpp:210] Setting up loss2/ave_pool
I0327 09:05:28.024607  2261 net.cpp:217] Top shape: 50 528 4 4 (422400)
I0327 09:05:28.024616  2261 net.cpp:225] Memory required for data: 2516872412
I0327 09:05:28.024626  2261 layer_factory.hpp:114] Creating layer loss2/conv
I0327 09:05:28.024653  2261 net.cpp:160] Creating Layer loss2/conv
I0327 09:05:28.024663  2261 net.cpp:596] loss2/conv <- loss2/ave_pool
I0327 09:05:28.024680  2261 net.cpp:570] loss2/conv -> loss2/conv
I0327 09:05:28.030119  2261 net.cpp:210] Setting up loss2/conv
I0327 09:05:28.030196  2261 net.cpp:217] Top shape: 50 128 4 4 (102400)
I0327 09:05:28.030207  2261 net.cpp:225] Memory required for data: 2517282012
I0327 09:05:28.030233  2261 layer_factory.hpp:114] Creating layer loss2/relu_conv
I0327 09:05:28.030261  2261 net.cpp:160] Creating Layer loss2/relu_conv
I0327 09:05:28.030277  2261 net.cpp:596] loss2/relu_conv <- loss2/conv
I0327 09:05:28.030294  2261 net.cpp:557] loss2/relu_conv -> loss2/conv (in-place)
I0327 09:05:28.030318  2261 net.cpp:210] Setting up loss2/relu_conv
I0327 09:05:28.030329  2261 net.cpp:217] Top shape: 50 128 4 4 (102400)
I0327 09:05:28.030339  2261 net.cpp:225] Memory required for data: 2517691612
I0327 09:05:28.030347  2261 layer_factory.hpp:114] Creating layer loss2/fc
I0327 09:05:28.030374  2261 net.cpp:160] Creating Layer loss2/fc
I0327 09:05:28.030383  2261 net.cpp:596] loss2/fc <- loss2/conv
I0327 09:05:28.030402  2261 net.cpp:570] loss2/fc -> loss2/fc
I0327 09:05:28.065325  2261 net.cpp:210] Setting up loss2/fc
I0327 09:05:28.065413  2261 net.cpp:217] Top shape: 50 1024 (51200)
I0327 09:05:28.065424  2261 net.cpp:225] Memory required for data: 2517896412
I0327 09:05:28.065449  2261 layer_factory.hpp:114] Creating layer loss2/relu_fc
I0327 09:05:28.065474  2261 net.cpp:160] Creating Layer loss2/relu_fc
I0327 09:05:28.065488  2261 net.cpp:596] loss2/relu_fc <- loss2/fc
I0327 09:05:28.065506  2261 net.cpp:557] loss2/relu_fc -> loss2/fc (in-place)
I0327 09:05:28.065527  2261 net.cpp:210] Setting up loss2/relu_fc
I0327 09:05:28.065539  2261 net.cpp:217] Top shape: 50 1024 (51200)
I0327 09:05:28.065548  2261 net.cpp:225] Memory required for data: 2518101212
I0327 09:05:28.065557  2261 layer_factory.hpp:114] Creating layer loss2/drop_fc
I0327 09:05:28.065593  2261 net.cpp:160] Creating Layer loss2/drop_fc
I0327 09:05:28.065603  2261 net.cpp:596] loss2/drop_fc <- loss2/fc
I0327 09:05:28.065618  2261 net.cpp:557] loss2/drop_fc -> loss2/fc (in-place)
I0327 09:05:28.065635  2261 net.cpp:210] Setting up loss2/drop_fc
I0327 09:05:28.065646  2261 net.cpp:217] Top shape: 50 1024 (51200)
I0327 09:05:28.065654  2261 net.cpp:225] Memory required for data: 2518306012
I0327 09:05:28.065663  2261 layer_factory.hpp:114] Creating layer loss2/classifier
I0327 09:05:28.065685  2261 net.cpp:160] Creating Layer loss2/classifier
I0327 09:05:28.065693  2261 net.cpp:596] loss2/classifier <- loss2/fc
I0327 09:05:28.065707  2261 net.cpp:570] loss2/classifier -> loss2/classifier
I0327 09:05:28.083124  2261 net.cpp:210] Setting up loss2/classifier
I0327 09:05:28.083181  2261 net.cpp:217] Top shape: 50 1000 (50000)
I0327 09:05:28.083191  2261 net.cpp:225] Memory required for data: 2518506012
I0327 09:05:28.083212  2261 layer_factory.hpp:114] Creating layer loss2/classifier_loss2/classifier_0_split
I0327 09:05:28.083235  2261 net.cpp:160] Creating Layer loss2/classifier_loss2/classifier_0_split
I0327 09:05:28.083250  2261 net.cpp:596] loss2/classifier_loss2/classifier_0_split <- loss2/classifier
I0327 09:05:28.083266  2261 net.cpp:570] loss2/classifier_loss2/classifier_0_split -> loss2/classifier_loss2/classifier_0_split_0
I0327 09:05:28.083287  2261 net.cpp:570] loss2/classifier_loss2/classifier_0_split -> loss2/classifier_loss2/classifier_0_split_1
I0327 09:05:28.083302  2261 net.cpp:570] loss2/classifier_loss2/classifier_0_split -> loss2/classifier_loss2/classifier_0_split_2
I0327 09:05:28.083319  2261 net.cpp:210] Setting up loss2/classifier_loss2/classifier_0_split
I0327 09:05:28.083331  2261 net.cpp:217] Top shape: 50 1000 (50000)
I0327 09:05:28.083341  2261 net.cpp:217] Top shape: 50 1000 (50000)
I0327 09:05:28.083353  2261 net.cpp:217] Top shape: 50 1000 (50000)
I0327 09:05:28.083360  2261 net.cpp:225] Memory required for data: 2519106012
I0327 09:05:28.083369  2261 layer_factory.hpp:114] Creating layer loss2/loss
I0327 09:05:28.083382  2261 net.cpp:160] Creating Layer loss2/loss
I0327 09:05:28.083396  2261 net.cpp:596] loss2/loss <- loss2/classifier_loss2/classifier_0_split_0
I0327 09:05:28.083410  2261 net.cpp:596] loss2/loss <- label_data_1_split_3
…
I0327 09:05:28.083935  2261 net.cpp:210] Setting up loss2/top-5
I0327 09:05:28.083946  2261 net.cpp:217] Top shape: (1)
I0327 09:05:28.083956  2261 net.cpp:225] Memory required for data: 2519106024
I0327 09:05:28.083964  2261 layer_factory.hpp:114] Creating layer inception_4e/1x1
I0327 09:05:28.083989  2261 net.cpp:160] Creating Layer inception_4e/1x1
I0327 09:05:28.084014  2261 net.cpp:596] inception_4e/1x1 <- inception_4d/output_inception_4d/output_0_split_1
I0327 09:05:28.084043  2261 net.cpp:570] inception_4e/1x1 -> inception_4e/1x1
I0327 09:05:28.097439  2261 net.cpp:210] Setting up inception_4e/1x1
I0327 09:05:28.097523  2261 net.cpp:217] Top shape: 50 256 14 14 (2508800)
I0327 09:05:28.097533  2261 net.cpp:225] Memory required for data: 2529141224
I0327 09:05:28.097560  2261 layer_factory.hpp:114] Creating layer inception_4e/relu_1x1
I0327 09:05:28.097586  2261 net.cpp:160] Creating Layer inception_4e/relu_1x1
I0327 09:05:28.097601  2261 net.cpp:596] inception_4e/relu_1x1 <- inception_4e/1x1
I0327 09:05:28.097623  2261 net.cpp:557] inception_4e/relu_1x1 -> inception_4e/1x1 (in-place)
I0327 09:05:28.097674  2261 net.cpp:210] Setting up inception_4e/relu_1x1
I0327 09:05:28.097687  2261 net.cpp:217] Top shape: 50 256 14 14 (2508800)
I0327 09:05:28.097697  2261 net.cpp:225] Memory required for data: 2539176424
I0327 09:05:28.097705  2261 layer_factory.hpp:114] Creating layer inception_4e/3x3_reduce
I0327 09:05:28.097740  2261 net.cpp:160] Creating Layer inception_4e/3x3_reduce
I0327 09:05:28.097753  2261 net.cpp:596] inception_4e/3x3_reduce <- inception_4d/output_inception_4d/output_0_split_2
I0327 09:05:28.097770  2261 net.cpp:570] inception_4e/3x3_reduce -> inception_4e/3x3_reduce
I0327 09:05:28.108259  2261 net.cpp:210] Setting up inception_4e/3x3_reduce
I0327 09:05:28.108345  2261 net.cpp:217] Top shape: 50 160 14 14 (1568000)
I0327 09:05:28.108355  2261 net.cpp:225] Memory required for data: 2545448424
I0327 09:05:28.108386  2261 layer_factory.hpp:114] Creating layer inception_4e/relu_3x3_reduce
I0327 09:05:28.108417  2261 net.cpp:160] Creating Layer inception_4e/relu_3x3_reduce
I0327 09:05:28.108433  2261 net.cpp:596] inception_4e/relu_3x3_reduce <- inception_4e/3x3_reduce
I0327 09:05:28.108450  2261 net.cpp:557] inception_4e/relu_3x3_reduce -> inception_4e/3x3_reduce (in-place)
I0327 09:05:28.108474  2261 net.cpp:210] Setting up inception_4e/relu_3x3_reduce
I0327 09:05:28.108485  2261 net.cpp:217] Top shape: 50 160 14 14 (1568000)
I0327 09:05:28.108494  2261 net.cpp:225] Memory required for data: 2551720424
I0327 09:05:28.108503  2261 layer_factory.hpp:114] Creating layer inception_4e/3x3
I0327 09:05:28.108531  2261 net.cpp:160] Creating Layer inception_4e/3x3
I0327 09:05:28.108541  2261 net.cpp:596] inception_4e/3x3 <- inception_4e/3x3_reduce
I0327 09:05:28.108556  2261 net.cpp:570] inception_4e/3x3 -> inception_4e/3x3
I0327 09:05:28.146997  2261 net.cpp:210] Setting up inception_4e/3x3
I0327 09:05:28.147090  2261 net.cpp:217] Top shape: 50 320 14 14 (3136000)
I0327 09:05:28.147100  2261 net.cpp:225] Memory required for data: 2564264424
I0327 09:05:28.147127  2261 layer_factory.hpp:114] Creating layer inception_4e/relu_3x3
I0327 09:05:28.147158  2261 net.cpp:160] Creating Layer inception_4e/relu_3x3
I0327 09:05:28.147173  2261 net.cpp:596] inception_4e/relu_3x3 <- inception_4e/3x3
I0327 09:05:28.147192  2261 net.cpp:557] inception_4e/relu_3x3 -> inception_4e/3x3 (in-place)
I0327 09:05:28.147217  2261 net.cpp:210] Setting up inception_4e/relu_3x3
I0327 09:05:28.147228  2261 net.cpp:217] Top shape: 50 320 14 14 (3136000)
I0327 09:05:28.147236  2261 net.cpp:225] Memory required for data: 2576808424
I0327 09:05:28.147245  2261 layer_factory.hpp:114] Creating layer inception_4e/5x5_reduce
I0327 09:05:28.147269  2261 net.cpp:160] Creating Layer inception_4e/5x5_reduce
I0327 09:05:28.147280  2261 net.cpp:596] inception_4e/5x5_reduce <- inception_4d/output_inception_4d/output_0_split_3
I0327 09:05:28.147299  2261 net.cpp:570] inception_4e/5x5_reduce -> inception_4e/5x5_reduce
I0327 09:05:28.153594  2261 net.cpp:210] Setting up inception_4e/5x5_reduce
I0327 09:05:28.153676  2261 net.cpp:217] Top shape: 50 32 14 14 (313600)
I0327 09:05:28.153687  2261 net.cpp:225] Memory required for data: 2578062824
I0327 09:05:28.153713  2261 layer_factory.hpp:114] Creating layer inception_4e/relu_5x5_reduce
I0327 09:05:28.153743  2261 net.cpp:160] Creating Layer inception_4e/relu_5x5_reduce
I0327 09:05:28.153776  2261 net.cpp:596] inception_4e/relu_5x5_reduce <- inception_4e/5x5_reduce
I0327 09:05:28.153795  2261 net.cpp:557] inception_4e/relu_5x5_reduce -> inception_4e/5x5_reduce (in-place)
I0327 09:05:28.153818  2261 net.cpp:210] Setting up inception_4e/relu_5x5_reduce
I0327 09:05:28.153831  2261 net.cpp:217] Top shape: 50 32 14 14 (313600)
I0327 09:05:28.153839  2261 net.cpp:225] Memory required for data: 2579317224
I0327 09:05:28.153848  2261 layer_factory.hpp:114] Creating layer inception_4e/5x5
I0327 09:05:28.153875  2261 net.cpp:160] Creating Layer inception_4e/5x5
I0327 09:05:28.153885  2261 net.cpp:596] inception_4e/5x5 <- inception_4e/5x5_reduce
I0327 09:05:28.153918  2261 net.cpp:570] inception_4e/5x5 -> inception_4e/5x5
I0327 09:05:28.167413  2261 net.cpp:210] Setting up inception_4e/5x5
I0327 09:05:28.167503  2261 net.cpp:217] Top shape: 50 128 14 14 (1254400)
I0327 09:05:28.167515  2261 net.cpp:225] Memory required for data: 2584334824
I0327 09:05:28.167541  2261 layer_factory.hpp:114] Creating layer inception_4e/relu_5x5
I0327 09:05:28.167567  2261 net.cpp:160] Creating Layer inception_4e/relu_5x5
I0327 09:05:28.167582  2261 net.cpp:596] inception_4e/relu_5x5 <- inception_4e/5x5
I0327 09:05:28.167601  2261 net.cpp:557] inception_4e/relu_5x5 -> inception_4e/5x5 (in-place)
I0327 09:05:28.167625  2261 net.cpp:210] Setting up inception_4e/relu_5x5
I0327 09:05:28.167637  2261 net.cpp:217] Top shape: 50 128 14 14 (1254400)
I0327 09:05:28.167645  2261 net.cpp:225] Memory required for data: 2589352424
I0327 09:05:28.167654  2261 layer_factory.hpp:114] Creating layer inception_4e/pool
I0327 09:05:28.167711  2261 net.cpp:160] Creating Layer inception_4e/pool
I0327 09:05:28.167723  2261 net.cpp:596] inception_4e/pool <- inception_4d/output_inception_4d/output_0_split_4
I0327 09:05:28.167739  2261 net.cpp:570] inception_4e/pool -> inception_4e/pool
I0327 09:05:28.167765  2261 net.cpp:210] Setting up inception_4e/pool
I0327 09:05:28.167778  2261 net.cpp:217] Top shape: 50 528 14 14 (5174400)
I0327 09:05:28.167786  2261 net.cpp:225] Memory required for data: 2610050024
I0327 09:05:28.167795  2261 layer_factory.hpp:114] Creating layer inception_4e/pool_proj
I0327 09:05:28.167824  2261 net.cpp:160] Creating Layer inception_4e/pool_proj
I0327 09:05:28.167834  2261 net.cpp:596] inception_4e/pool_proj <- inception_4e/pool
I0327 09:05:28.167850  2261 net.cpp:570] inception_4e/pool_proj -> inception_4e/pool_proj
I0327 09:05:28.177244  2261 net.cpp:210] Setting up inception_4e/pool_proj
I0327 09:05:28.177330  2261 net.cpp:217] Top shape: 50 128 14 14 (1254400)
I0327 09:05:28.177340  2261 net.cpp:225] Memory required for data: 2615067624
I0327 09:05:28.177367  2261 layer_factory.hpp:114] Creating layer inception_4e/relu_pool_proj
I0327 09:05:28.177398  2261 net.cpp:160] Creating Layer inception_4e/relu_pool_proj
I0327 09:05:28.177414  2261 net.cpp:596] inception_4e/relu_pool_proj <- inception_4e/pool_proj
I0327 09:05:28.177433  2261 net.cpp:557] inception_4e/relu_pool_proj -> inception_4e/pool_proj (in-place)
I0327 09:05:28.177458  2261 net.cpp:210] Setting up inception_4e/relu_pool_proj
I0327 09:05:28.177469  2261 net.cpp:217] Top shape: 50 128 14 14 (1254400)
I0327 09:05:28.177477  2261 net.cpp:225] Memory required for data: 2620085224
I0327 09:05:28.177486  2261 layer_factory.hpp:114] Creating layer inception_4e/output
I0327 09:05:28.177503  2261 net.cpp:160] Creating Layer inception_4e/output
I0327 09:05:28.177515  2261 net.cpp:596] inception_4e/output <- inception_4e/1x1
I0327 09:05:28.177526  2261 net.cpp:596] inception_4e/output <- inception_4e/3x3
I0327 09:05:28.177538  2261 net.cpp:596] inception_4e/output <- inception_4e/5x5
I0327 09:05:28.177549  2261 net.cpp:596] inception_4e/output <- inception_4e/pool_proj
I0327 09:05:28.177562  2261 net.cpp:570] inception_4e/output -> inception_4e/output
I0327 09:05:28.177583  2261 net.cpp:210] Setting up inception_4e/output
I0327 09:05:28.177595  2261 net.cpp:217] Top shape: 50 832 14 14 (8153600)
I0327 09:05:28.177603  2261 net.cpp:225] Memory required for data: 2652699624
I0327 09:05:28.177629  2261 layer_factory.hpp:114] Creating layer pool4/3x3_s2
I0327 09:05:28.177680  2261 net.cpp:160] Creating Layer pool4/3x3_s2
I0327 09:05:28.177692  2261 net.cpp:596] pool4/3x3_s2 <- inception_4e/output
I0327 09:05:28.177706  2261 net.cpp:570] pool4/3x3_s2 -> pool4/3x3_s2
I0327 09:05:28.177727  2261 net.cpp:210] Setting up pool4/3x3_s2
I0327 09:05:28.177739  2261 net.cpp:217] Top shape: 50 832 7 7 (2038400)
I0327 09:05:28.177747  2261 net.cpp:225] Memory required for data: 2660853224
I0327 09:05:28.177757  2261 layer_factory.hpp:114] Creating layer pool4/3x3_s2_pool4/3x3_s2_0_split
I0327 09:05:28.177773  2261 net.cpp:160] Creating Layer pool4/3x3_s2_pool4/3x3_s2_0_split
I0327 09:05:28.177799  2261 net.cpp:596] pool4/3x3_s2_pool4/3x3_s2_0_split <- pool4/3x3_s2
I0327 09:05:28.177811  2261 net.cpp:570] pool4/3x3_s2_pool4/3x3_s2_0_split -> pool4/3x3_s2_pool4/3x3_s2_0_split_0
I0327 09:05:28.177826  2261 net.cpp:570] pool4/3x3_s2_pool4/3x3_s2_0_split -> pool4/3x3_s2_pool4/3x3_s2_0_split_1
I0327 09:05:28.177841  2261 net.cpp:570] pool4/3x3_s2_pool4/3x3_s2_0_split -> pool4/3x3_s2_pool4/3x3_s2_0_split_2
I0327 09:05:28.177865  2261 net.cpp:570] pool4/3x3_s2_pool4/3x3_s2_0_split -> pool4/3x3_s2_pool4/3x3_s2_0_split_3
I0327 09:05:28.177881  2261 net.cpp:210] Setting up pool4/3x3_s2_pool4/3x3_s2_0_split
I0327 09:05:28.177893  2261 net.cpp:217] Top shape: 50 832 7 7 (2038400)
I0327 09:05:28.177904  2261 net.cpp:217] Top shape: 50 832 7 7 (2038400)
I0327 09:05:28.177917  2261 net.cpp:217] Top shape: 50 832 7 7 (2038400)
I0327 09:05:28.177928  2261 net.cpp:217] Top shape: 50 832 7 7 (2038400)
I0327 09:05:28.177937  2261 net.cpp:225] Memory required for data: 2693467624
I0327 09:05:28.177947  2261 layer_factory.hpp:114] Creating layer inception_5a/1x1
I0327 09:05:28.177973  2261 net.cpp:160] Creating Layer inception_5a/1x1
I0327 09:05:28.177983  2261 net.cpp:596] inception_5a/1x1 <- pool4/3x3_s2_pool4/3x3_s2_0_split_0
I0327 09:05:28.177997  2261 net.cpp:570] inception_5a/1x1 -> inception_5a/1x1
I0327 09:05:28.192919  2261 net.cpp:210] Setting up inception_5a/1x1
I0327 09:05:28.193006  2261 net.cpp:217] Top shape: 50 256 7 7 (627200)
I0327 09:05:28.193023  2261 net.cpp:225] Memory required for data: 2695976424
I0327 09:05:28.193051  2261 layer_factory.hpp:114] Creating layer inception_5a/relu_1x1
I0327 09:05:28.193076  2261 net.cpp:160] Creating Layer inception_5a/relu_1x1
I0327 09:05:28.193091  2261 net.cpp:596] inception_5a/relu_1x1 <- inception_5a/1x1
I0327 09:05:28.193114  2261 net.cpp:557] inception_5a/relu_1x1 -> inception_5a/1x1 (in-place)
I0327 09:05:28.193138  2261 net.cpp:210] Setting up inception_5a/relu_1x1
I0327 09:05:28.193150  2261 net.cpp:217] Top shape: 50 256 7 7 (627200)
I0327 09:05:28.193158  2261 net.cpp:225] Memory required for data: 2698485224
I0327 09:05:28.193167  2261 layer_factory.hpp:114] Creating layer inception_5a/3x3_reduce
I0327 09:05:28.193193  2261 net.cpp:160] Creating Layer inception_5a/3x3_reduce
I0327 09:05:28.193205  2261 net.cpp:596] inception_5a/3x3_reduce <- pool4/3x3_s2_pool4/3x3_s2_0_split_1
I0327 09:05:28.193219  2261 net.cpp:570] inception_5a/3x3_reduce -> inception_5a/3x3_reduce
I0327 09:05:28.203879  2261 net.cpp:210] Setting up inception_5a/3x3_reduce
I0327 09:05:28.203969  2261 net.cpp:217] Top shape: 50 160 7 7 (392000)
I0327 09:05:28.203979  2261 net.cpp:225] Memory required for data: 2700053224
I0327 09:05:28.204005  2261 layer_factory.hpp:114] Creating layer inception_5a/relu_3x3_reduce
I0327 09:05:28.204041  2261 net.cpp:160] Creating Layer inception_5a/relu_3x3_reduce
I0327 09:05:28.204059  2261 net.cpp:596] inception_5a/relu_3x3_reduce <- inception_5a/3x3_reduce
I0327 09:05:28.204077  2261 net.cpp:557] inception_5a/relu_3x3_reduce -> inception_5a/3x3_reduce (in-place)
I0327 09:05:28.204102  2261 net.cpp:210] Setting up inception_5a/relu_3x3_reduce
I0327 09:05:28.204113  2261 net.cpp:217] Top shape: 50 160 7 7 (392000)
I0327 09:05:28.204121  2261 net.cpp:225] Memory required for data: 2701621224
I0327 09:05:28.204149  2261 layer_factory.hpp:114] Creating layer inception_5a/3x3
I0327 09:05:28.204175  2261 net.cpp:160] Creating Layer inception_5a/3x3
I0327 09:05:28.204185  2261 net.cpp:596] inception_5a/3x3 <- inception_5a/3x3_reduce
I0327 09:05:28.204202  2261 net.cpp:570] inception_5a/3x3 -> inception_5a/3x3
I0327 09:05:28.234761  2261 net.cpp:210] Setting up inception_5a/3x3
I0327 09:05:28.234849  2261 net.cpp:217] Top shape: 50 320 7 7 (784000)
I0327 09:05:28.234859  2261 net.cpp:225] Memory required for data: 2704757224
I0327 09:05:28.234886  2261 layer_factory.hpp:114] Creating layer inception_5a/relu_3x3
I0327 09:05:28.234912  2261 net.cpp:160] Creating Layer inception_5a/relu_3x3
I0327 09:05:28.234930  2261 net.cpp:596] inception_5a/relu_3x3 <- inception_5a/3x3
I0327 09:05:28.234979  2261 net.cpp:557] inception_5a/relu_3x3 -> inception_5a/3x3 (in-place)
I0327 09:05:28.235004  2261 net.cpp:210] Setting up inception_5a/relu_3x3
I0327 09:05:28.235023  2261 net.cpp:217] Top shape: 50 320 7 7 (784000)
I0327 09:05:28.235034  2261 net.cpp:225] Memory required for data: 2707893224
I0327 09:05:28.235044  2261 layer_factory.hpp:114] Creating layer inception_5a/5x5_reduce
I0327 09:05:28.235069  2261 net.cpp:160] Creating Layer inception_5a/5x5_reduce
I0327 09:05:28.235080  2261 net.cpp:596] inception_5a/5x5_reduce <- pool4/3x3_s2_pool4/3x3_s2_0_split_2
I0327 09:05:28.235095  2261 net.cpp:570] inception_5a/5x5_reduce -> inception_5a/5x5_reduce
I0327 09:05:28.239991  2261 net.cpp:210] Setting up inception_5a/5x5_reduce
I0327 09:05:28.240070  2261 net.cpp:217] Top shape: 50 32 7 7 (78400)
I0327 09:05:28.240080  2261 net.cpp:225] Memory required for data: 2708206824
I0327 09:05:28.240104  2261 layer_factory.hpp:114] Creating layer inception_5a/relu_5x5_reduce
I0327 09:05:28.240131  2261 net.cpp:160] Creating Layer inception_5a/relu_5x5_reduce
I0327 09:05:28.240145  2261 net.cpp:596] inception_5a/relu_5x5_reduce <- inception_5a/5x5_reduce
I0327 09:05:28.240160  2261 net.cpp:557] inception_5a/relu_5x5_reduce -> inception_5a/5x5_reduce (in-place)
I0327 09:05:28.240182  2261 net.cpp:210] Setting up inception_5a/relu_5x5_reduce
I0327 09:05:28.240195  2261 net.cpp:217] Top shape: 50 32 7 7 (78400)
I0327 09:05:28.240203  2261 net.cpp:225] Memory required for data: 2708520424
I0327 09:05:28.240212  2261 layer_factory.hpp:114] Creating layer inception_5a/5x5
I0327 09:05:28.240237  2261 net.cpp:160] Creating Layer inception_5a/5x5
I0327 09:05:28.240248  2261 net.cpp:596] inception_5a/5x5 <- inception_5a/5x5_reduce
I0327 09:05:28.240264  2261 net.cpp:570] inception_5a/5x5 -> inception_5a/5x5
I0327 09:05:28.248771  2261 net.cpp:210] Setting up inception_5a/5x5
I0327 09:05:28.248858  2261 net.cpp:217] Top shape: 50 128 7 7 (313600)
I0327 09:05:28.248868  2261 net.cpp:225] Memory required for data: 2709774824
I0327 09:05:28.248894  2261 layer_factory.hpp:114] Creating layer inception_5a/relu_5x5
I0327 09:05:28.248924  2261 net.cpp:160] Creating Layer inception_5a/relu_5x5
I0327 09:05:28.248940  2261 net.cpp:596] inception_5a/relu_5x5 <- inception_5a/5x5
I0327 09:05:28.248958  2261 net.cpp:557] inception_5a/relu_5x5 -> inception_5a/5x5 (in-place)
I0327 09:05:28.248981  2261 net.cpp:210] Setting up inception_5a/relu_5x5
I0327 09:05:28.248993  2261 net.cpp:217] Top shape: 50 128 7 7 (313600)
I0327 09:05:28.249002  2261 net.cpp:225] Memory required for data: 2711029224
I0327 09:05:28.249011  2261 layer_factory.hpp:114] Creating layer inception_5a/pool
I0327 09:05:28.249080  2261 net.cpp:160] Creating Layer inception_5a/pool
I0327 09:05:28.249094  2261 net.cpp:596] inception_5a/pool <- pool4/3x3_s2_pool4/3x3_s2_0_split_3
I0327 09:05:28.249110  2261 net.cpp:570] inception_5a/pool -> inception_5a/pool
I0327 09:05:28.249136  2261 net.cpp:210] Setting up inception_5a/pool
I0327 09:05:28.249148  2261 net.cpp:217] Top shape: 50 832 7 7 (2038400)
I0327 09:05:28.249157  2261 net.cpp:225] Memory required for data: 2719182824
I0327 09:05:28.249166  2261 layer_factory.hpp:114] Creating layer inception_5a/pool_proj
I0327 09:05:28.249193  2261 net.cpp:160] Creating Layer inception_5a/pool_proj
I0327 09:05:28.249223  2261 net.cpp:596] inception_5a/pool_proj <- inception_5a/pool
I0327 09:05:28.249240  2261 net.cpp:570] inception_5a/pool_proj -> inception_5a/pool_proj
I0327 09:05:28.258261  2261 net.cpp:210] Setting up inception_5a/pool_proj
I0327 09:05:28.258347  2261 net.cpp:217] Top shape: 50 128 7 7 (313600)
I0327 09:05:28.258358  2261 net.cpp:225] Memory required for data: 2720437224
I0327 09:05:28.258383  2261 layer_factory.hpp:114] Creating layer inception_5a/relu_pool_proj
I0327 09:05:28.258414  2261 net.cpp:160] Creating Layer inception_5a/relu_pool_proj
I0327 09:05:28.258430  2261 net.cpp:596] inception_5a/relu_pool_proj <- inception_5a/pool_proj
I0327 09:05:28.258448  2261 net.cpp:557] inception_5a/relu_pool_proj -> inception_5a/pool_proj (in-place)
I0327 09:05:28.258499  2261 net.cpp:210] Setting up inception_5a/relu_pool_proj
I0327 09:05:28.258512  2261 net.cpp:217] Top shape: 50 128 7 7 (313600)
I0327 09:05:28.258520  2261 net.cpp:225] Memory required for data: 2721691624
I0327 09:05:28.258529  2261 layer_factory.hpp:114] Creating layer inception_5a/output
I0327 09:05:28.258543  2261 net.cpp:160] Creating Layer inception_5a/output
I0327 09:05:28.258553  2261 net.cpp:596] inception_5a/output <- inception_5a/1x1
I0327 09:05:28.258565  2261 net.cpp:596] inception_5a/output <- inception_5a/3x3
I0327 09:05:28.258577  2261 net.cpp:596] inception_5a/output <- inception_5a/5x5
I0327 09:05:28.258589  2261 net.cpp:596] inception_5a/output <- inception_5a/pool_proj
I0327 09:05:28.258606  2261 net.cpp:570] inception_5a/output -> inception_5a/output
I0327 09:05:28.258628  2261 net.cpp:210] Setting up inception_5a/output
I0327 09:05:28.258641  2261 net.cpp:217] Top shape: 50 832 7 7 (2038400)
I0327 09:05:28.258649  2261 net.cpp:225] Memory required for data: 2729845224
I0327 09:05:28.258658  2261 layer_factory.hpp:114] Creating layer inception_5a/output_inception_5a/output_0_split
I0327 09:05:28.258671  2261 net.cpp:160] Creating Layer inception_5a/output_inception_5a/output_0_split
I0327 09:05:28.258682  2261 net.cpp:596] inception_5a/output_inception_5a/output_0_split <- inception_5a/output
I0327 09:05:28.258693  2261 net.cpp:570] inception_5a/output_inception_5a/output_0_split -> inception_5a/output_inception_5a/output_0_split_0
I0327 09:05:28.258708  2261 net.cpp:570] inception_5a/output_inception_5a/output_0_split -> inception_5a/output_inception_5a/output_0_split_1
I0327 09:05:28.258723  2261 net.cpp:570] inception_5a/output_inception_5a/output_0_split -> inception_5a/output_inception_5a/output_0_split_2
I0327 09:05:28.258738  2261 net.cpp:570] inception_5a/output_inception_5a/output_0_split -> inception_5a/output_inception_5a/output_0_split_3
I0327 09:05:28.258754  2261 net.cpp:210] Setting up inception_5a/output_inception_5a/output_0_split
I0327 09:05:28.258765  2261 net.cpp:217] Top shape: 50 832 7 7 (2038400)
I0327 09:05:28.258776  2261 net.cpp:217] Top shape: 50 832 7 7 (2038400)
I0327 09:05:28.258787  2261 net.cpp:217] Top shape: 50 832 7 7 (2038400)
I0327 09:05:28.258798  2261 net.cpp:217] Top shape: 50 832 7 7 (2038400)
I0327 09:05:28.258806  2261 net.cpp:225] Memory required for data: 2762459624
I0327 09:05:28.258816  2261 layer_factory.hpp:114] Creating layer inception_5b/1x1
I0327 09:05:28.258841  2261 net.cpp:160] Creating Layer inception_5b/1x1
I0327 09:05:28.258852  2261 net.cpp:596] inception_5b/1x1 <- inception_5a/output_inception_5a/output_0_split_0
I0327 09:05:28.258867  2261 net.cpp:570] inception_5b/1x1 -> inception_5b/1x1
I0327 09:05:28.279664  2261 net.cpp:210] Setting up inception_5b/1x1
I0327 09:05:28.279749  2261 net.cpp:217] Top shape: 50 384 7 7 (940800)
I0327 09:05:28.279759  2261 net.cpp:225] Memory required for data: 2766222824
I0327 09:05:28.279786  2261 layer_factory.hpp:114] Creating layer inception_5b/relu_1x1
I0327 09:05:28.279813  2261 net.cpp:160] Creating Layer inception_5b/relu_1x1
I0327 09:05:28.279829  2261 net.cpp:596] inception_5b/relu_1x1 <- inception_5b/1x1
I0327 09:05:28.279846  2261 net.cpp:557] inception_5b/relu_1x1 -> inception_5b/1x1 (in-place)
I0327 09:05:28.279887  2261 net.cpp:210] Setting up inception_5b/relu_1x1
I0327 09:05:28.279899  2261 net.cpp:217] Top shape: 50 384 7 7 (940800)
I0327 09:05:28.279908  2261 net.cpp:225] Memory required for data: 2769986024
I0327 09:05:28.279917  2261 layer_factory.hpp:114] Creating layer inception_5b/3x3_reduce
I0327 09:05:28.279947  2261 net.cpp:160] Creating Layer inception_5b/3x3_reduce
I0327 09:05:28.279958  2261 net.cpp:596] inception_5b/3x3_reduce <- inception_5a/output_inception_5a/output_0_split_1
I0327 09:05:28.279973  2261 net.cpp:570] inception_5b/3x3_reduce -> inception_5b/3x3_reduce
I0327 09:05:28.292011  2261 net.cpp:210] Setting up inception_5b/3x3_reduce
I0327 09:05:28.292105  2261 net.cpp:217] Top shape: 50 192 7 7 (470400)
I0327 09:05:28.292145  2261 net.cpp:225] Memory required for data: 2771867624
I0327 09:05:28.292172  2261 layer_factory.hpp:114] Creating layer inception_5b/relu_3x3_reduce
I0327 09:05:28.292198  2261 net.cpp:160] Creating Layer inception_5b/relu_3x3_reduce
I0327 09:05:28.292214  2261 net.cpp:596] inception_5b/relu_3x3_reduce <- inception_5b/3x3_reduce
I0327 09:05:28.292237  2261 net.cpp:557] inception_5b/relu_3x3_reduce -> inception_5b/3x3_reduce (in-place)
I0327 09:05:28.292261  2261 net.cpp:210] Setting up inception_5b/relu_3x3_reduce
I0327 09:05:28.292273  2261 net.cpp:217] Top shape: 50 192 7 7 (470400)
I0327 09:05:28.292281  2261 net.cpp:225] Memory required for data: 2773749224
I0327 09:05:28.292290  2261 layer_factory.hpp:114] Creating layer inception_5b/3x3
I0327 09:05:28.292315  2261 net.cpp:160] Creating Layer inception_5b/3x3
I0327 09:05:28.292325  2261 net.cpp:596] inception_5b/3x3 <- inception_5b/3x3_reduce
I0327 09:05:28.292338  2261 net.cpp:570] inception_5b/3x3 -> inception_5b/3x3
I0327 09:05:28.333950  2261 net.cpp:210] Setting up inception_5b/3x3
I0327 09:05:28.334045  2261 net.cpp:217] Top shape: 50 384 7 7 (940800)
I0327 09:05:28.334058  2261 net.cpp:225] Memory required for data: 2777512424
I0327 09:05:28.334084  2261 layer_factory.hpp:114] Creating layer inception_5b/relu_3x3
I0327 09:05:28.334110  2261 net.cpp:160] Creating Layer inception_5b/relu_3x3
I0327 09:05:28.334125  2261 net.cpp:596] inception_5b/relu_3x3 <- inception_5b/3x3
I0327 09:05:28.334143  2261 net.cpp:557] inception_5b/relu_3x3 -> inception_5b/3x3 (in-place)
I0327 09:05:28.334167  2261 net.cpp:210] Setting up inception_5b/relu_3x3
I0327 09:05:28.334179  2261 net.cpp:217] Top shape: 50 384 7 7 (940800)
I0327 09:05:28.334188  2261 net.cpp:225] Memory required for data: 2781275624
I0327 09:05:28.334197  2261 layer_factory.hpp:114] Creating layer inception_5b/5x5_reduce
I0327 09:05:28.334226  2261 net.cpp:160] Creating Layer inception_5b/5x5_reduce
I0327 09:05:28.334239  2261 net.cpp:596] inception_5b/5x5_reduce <- inception_5a/output_inception_5a/output_0_split_2
I0327 09:05:28.334254  2261 net.cpp:570] inception_5b/5x5_reduce -> inception_5b/5x5_reduce
I0327 09:05:28.339582  2261 net.cpp:210] Setting up inception_5b/5x5_reduce
I0327 09:05:28.339666  2261 net.cpp:217] Top shape: 50 48 7 7 (117600)
I0327 09:05:28.339678  2261 net.cpp:225] Memory required for data: 2781746024
I0327 09:05:28.339704  2261 layer_factory.hpp:114] Creating layer inception_5b/relu_5x5_reduce
I0327 09:05:28.339728  2261 net.cpp:160] Creating Layer inception_5b/relu_5x5_reduce
I0327 09:05:28.339745  2261 net.cpp:596] inception_5b/relu_5x5_reduce <- inception_5b/5x5_reduce
I0327 09:05:28.339761  2261 net.cpp:557] inception_5b/relu_5x5_reduce -> inception_5b/5x5_reduce (in-place)
I0327 09:05:28.339785  2261 net.cpp:210] Setting up inception_5b/relu_5x5_reduce
I0327 09:05:28.339797  2261 net.cpp:217] Top shape: 50 48 7 7 (117600)
I0327 09:05:28.339805  2261 net.cpp:225] Memory required for data: 2782216424
I0327 09:05:28.339814  2261 layer_factory.hpp:114] Creating layer inception_5b/5x5
I0327 09:05:28.339840  2261 net.cpp:160] Creating Layer inception_5b/5x5
I0327 09:05:28.339850  2261 net.cpp:596] inception_5b/5x5 <- inception_5b/5x5_reduce
I0327 09:05:28.339866  2261 net.cpp:570] inception_5b/5x5 -> inception_5b/5x5
I0327 09:05:28.351902  2261 net.cpp:210] Setting up inception_5b/5x5
I0327 09:05:28.351985  2261 net.cpp:217] Top shape: 50 128 7 7 (313600)
I0327 09:05:28.351994  2261 net.cpp:225] Memory required for data: 2783470824
I0327 09:05:28.352028  2261 layer_factory.hpp:114] Creating layer inception_5b/relu_5x5
I0327 09:05:28.352056  2261 net.cpp:160] Creating Layer inception_5b/relu_5x5
I0327 09:05:28.352077  2261 net.cpp:596] inception_5b/relu_5x5 <- inception_5b/5x5
I0327 09:05:28.352098  2261 net.cpp:557] inception_5b/relu_5x5 -> inception_5b/5x5 (in-place)
I0327 09:05:28.352123  2261 net.cpp:210] Setting up inception_5b/relu_5x5
I0327 09:05:28.352134  2261 net.cpp:217] Top shape: 50 128 7 7 (313600)
I0327 09:05:28.352143  2261 net.cpp:225] Memory required for data: 2784725224
I0327 09:05:28.352179  2261 layer_factory.hpp:114] Creating layer inception_5b/pool
I0327 09:05:28.352239  2261 net.cpp:160] Creating Layer inception_5b/pool
I0327 09:05:28.352252  2261 net.cpp:596] inception_5b/pool <- inception_5a/output_inception_5a/output_0_split_3
I0327 09:05:28.352272  2261 net.cpp:570] inception_5b/pool -> inception_5b/pool
I0327 09:05:28.352298  2261 net.cpp:210] Setting up inception_5b/pool
I0327 09:05:28.352309  2261 net.cpp:217] Top shape: 50 832 7 7 (2038400)
I0327 09:05:28.352319  2261 net.cpp:225] Memory required for data: 2792878824
I0327 09:05:28.352327  2261 layer_factory.hpp:114] Creating layer inception_5b/pool_proj
I0327 09:05:28.352356  2261 net.cpp:160] Creating Layer inception_5b/pool_proj
I0327 09:05:28.352366  2261 net.cpp:596] inception_5b/pool_proj <- inception_5b/pool
I0327 09:05:28.352382  2261 net.cpp:570] inception_5b/pool_proj -> inception_5b/pool_proj
I0327 09:05:28.361227  2261 net.cpp:210] Setting up inception_5b/pool_proj
I0327 09:05:28.361312  2261 net.cpp:217] Top shape: 50 128 7 7 (313600)
I0327 09:05:28.361323  2261 net.cpp:225] Memory required for data: 2794133224
I0327 09:05:28.361349  2261 layer_factory.hpp:114] Creating layer inception_5b/relu_pool_proj
I0327 09:05:28.361376  2261 net.cpp:160] Creating Layer inception_5b/relu_pool_proj
I0327 09:05:28.361397  2261 net.cpp:596] inception_5b/relu_pool_proj <- inception_5b/pool_proj
I0327 09:05:28.361419  2261 net.cpp:557] inception_5b/relu_pool_proj -> inception_5b/pool_proj (in-place)
I0327 09:05:28.361444  2261 net.cpp:210] Setting up inception_5b/relu_pool_proj
I0327 09:05:28.361455  2261 net.cpp:217] Top shape: 50 128 7 7 (313600)
I0327 09:05:28.361464  2261 net.cpp:225] Memory required for data: 2795387624
I0327 09:05:28.361474  2261 layer_factory.hpp:114] Creating layer inception_5b/output
I0327 09:05:28.361487  2261 net.cpp:160] Creating Layer inception_5b/output
I0327 09:05:28.361497  2261 net.cpp:596] inception_5b/output <- inception_5b/1x1
I0327 09:05:28.361510  2261 net.cpp:596] inception_5b/output <- inception_5b/3x3
I0327 09:05:28.361521  2261 net.cpp:596] inception_5b/output <- inception_5b/5x5
I0327 09:05:28.361532  2261 net.cpp:596] inception_5b/output <- inception_5b/pool_proj
I0327 09:05:28.361544  2261 net.cpp:570] inception_5b/output -> inception_5b/output
I0327 09:05:28.361567  2261 net.cpp:210] Setting up inception_5b/output
I0327 09:05:28.361577  2261 net.cpp:217] Top shape: 50 1024 7 7 (2508800)
I0327 09:05:28.361587  2261 net.cpp:225] Memory required for data: 2805422824
I0327 09:05:28.361595  2261 layer_factory.hpp:114] Creating layer pool5/7x7_s1
I0327 09:05:28.361649  2261 net.cpp:160] Creating Layer pool5/7x7_s1
I0327 09:05:28.361660  2261 net.cpp:596] pool5/7x7_s1 <- inception_5b/output
I0327 09:05:28.361676  2261 net.cpp:570] pool5/7x7_s1 -> pool5/7x7_s1
I0327 09:05:28.361696  2261 net.cpp:210] Setting up pool5/7x7_s1
I0327 09:05:28.361708  2261 net.cpp:217] Top shape: 50 1024 1 1 (51200)
I0327 09:05:28.361717  2261 net.cpp:225] Memory required for data: 2805627624
I0327 09:05:28.361726  2261 layer_factory.hpp:114] Creating layer pool5/drop_7x7_s1
I0327 09:05:28.361742  2261 net.cpp:160] Creating Layer pool5/drop_7x7_s1
I0327 09:05:28.361752  2261 net.cpp:596] pool5/drop_7x7_s1 <- pool5/7x7_s1
I0327 09:05:28.361783  2261 net.cpp:557] pool5/drop_7x7_s1 -> pool5/7x7_s1 (in-place)
I0327 09:05:28.361800  2261 net.cpp:210] Setting up pool5/drop_7x7_s1
I0327 09:05:28.361812  2261 net.cpp:217] Top shape: 50 1024 1 1 (51200)
I0327 09:05:28.361821  2261 net.cpp:225] Memory required for data: 2805832424
I0327 09:05:28.361830  2261 layer_factory.hpp:114] Creating layer loss3/classifier
I0327 09:05:28.361851  2261 net.cpp:160] Creating Layer loss3/classifier
I0327 09:05:28.361861  2261 net.cpp:596] loss3/classifier <- pool5/7x7_s1
I0327 09:05:28.361879  2261 net.cpp:570] loss3/classifier -> loss3/classifier
I0327 09:05:28.379264  2261 net.cpp:210] Setting up loss3/classifier
I0327 09:05:28.379320  2261 net.cpp:217] Top shape: 50 1000 (50000)
I0327 09:05:28.379353  2261 net.cpp:225] Memory required for data: 2806032424
I0327 09:05:28.379374  2261 layer_factory.hpp:114] Creating layer loss3/classifier_loss3/classifier_0_split
I0327 09:05:28.379396  2261 net.cpp:160] Creating Layer loss3/classifier_loss3/classifier_0_split
I0327 09:05:28.379410  2261 net.cpp:596] loss3/classifier_loss3/classifier_0_split <- loss3/classifier
I0327 09:05:28.379427  2261 net.cpp:570] loss3/classifier_loss3/classifier_0_split -> loss3/classifier_loss3/classifier_0_split_0
I0327 09:05:28.379451  2261 net.cpp:570] loss3/classifier_loss3/classifier_0_split -> loss3/classifier_loss3/classifier_0_split_1
I0327 09:05:28.379467  2261 net.cpp:570] loss3/classifier_loss3/classifier_0_split -> loss3/classifier_loss3/classifier_0_split_2
I0327 09:05:28.379483  2261 net.cpp:210] Setting up loss3/classifier_loss3/classifier_0_split
I0327 09:05:28.379495  2261 net.cpp:217] Top shape: 50 1000 (50000)
I0327 09:05:28.379506  2261 net.cpp:217] Top shape: 50 1000 (50000)
I0327 09:05:28.379518  2261 net.cpp:217] Top shape: 50 1000 (50000)
I0327 09:05:28.379525  2261 net.cpp:225] Memory required for data: 2806632424
I0327 09:05:28.379534  2261 layer_factory.hpp:114] Creating layer loss3/loss3
I0327 09:05:28.379546  2261 net.cpp:160] Creating Layer loss3/loss3
I0327 09:05:28.379556  2261 net.cpp:596] loss3/loss3 <- loss3/classifier_loss3/classifier_0_split_0
I0327 09:05:28.379568  2261 net.cpp:596] loss3/loss3 <- label_data_1_split_6
…
