…
I0327 09:42:53.879681  4586 net.cpp:484] The NetState phase (0) differed from the phase (1) specified by a rule in layer loss3/top-5
I0327 09:42:53.896867  4586 net.cpp:120] Initializing net from parameters: 
name: "GoogleNet"
state {
  phase: TRAIN
  level: 0
  stage: ""
}
layer {
  name: "data"
  type: "Data"
  top: "data"
  top: "label"
  include {
    phase: TRAIN
  }
  transform_param {
    mirror: true
    crop_size: 224
    mean_value: 104
    mean_value: 117
    mean_value: 123
  }
  data_param {
    source: "/home/user/user/LIBRARIES/caffeLibs/caffe/examples/imagenet/ilsvrc12_train_lmdb"
    batch_size: 48
    backend: LMDB
  }
}
layer {
  name: "label_data_1_split"
  type: "Split"
  bottom: "label"
  top: "label_data_1_split_0"
  top: "label_data_1_split_1"
  top: "label_data_1_split_2"
}
layer {
  name: "conv1/7x7_s2"
  type: "Convolution"
  bottom: "data"
  top: "conv1/7x7_s2"
  param {
    lr_mult: 1
    decay_mult: 1
  }
  param {
    lr_mult: 2
    decay_mult: 0
  }
  convolution_param {
    num_output: 64
    pad: 3
    kernel_size: 7
    stride: 2
    weight_filler {
      type: "xavier"
    }
    bias_filler {
      type: "constant"
      value: 0.2
    }
  }
}
layer {
  name: "conv1/relu_7x7"
  type: "ReLU"
  bottom: "conv1/7x7_s2"
  top: "conv1/7x7_s2"
}
layer {
  name: "pool1/3x3_s2"
  type: "Pooling"
  bottom: "conv1/7x7_s2"
  top: "pool1/3x3_s2"
  pooling_param {
    pool: MAX
    kernel_size: 3
    stride: 2
  }
}
layer {
  name: "pool1/norm1"
  type: "LRN"
  bottom: "pool1/3x3_s2"
  top: "pool1/norm1"
  lrn_param {
    local_size: 5
    alpha: 0.0001
    beta: 0.75
  }
}
layer {
  name: "conv2/3x3_reduce"
  type: "Convolution"
  bottom: "pool1/norm1"
  top: "conv2/3x3_reduce"
  param {
    lr_mult: 1
    decay_mult: 1
  }
  param {
    lr_mult: 2
    decay_mult: 0
  }
  convolution_param {
    num_output: 64
    kernel_size: 1
    weight_filler {
      type: "xavier"
    }
    bias_filler {
      type: "constant"
      value: 0.2
    }
  }
}
layer {
  name: "conv2/relu_3x3_reduce"
  type: "ReLU"
  bottom: "conv2/3x3_reduce"
  top: "conv2/3x3_reduce"
}
layer {
  name: "conv2/3x3"
  type: "Convolution"
  bottom: "conv2/3x3_reduce"
  top: "conv2/3x3"
  param {
    lr_mult: 1
    decay_mult: 1
  }
  param {
    lr_mult: 2
    decay_mult: 0
  }
  convolution_param {
    num_output: 192
    pad: 1
    kernel_size: 3
    weight_filler {
      type: "xavier"
    }
    bias_filler {
      type: "constant"
      value: 0.2
    }
  }
}
layer {
  name: "conv2/relu_3x3"
  type: "ReLU"
  bottom: "conv2/3x3"
  top: "conv2/3x3"
}
layer {
  name: "conv2/norm2"
  type: "LRN"
  bottom: "conv2/3x3"
  top: "conv2/norm2"
  lrn_param {
    local_size: 5
    alpha: 0.0001
    beta: 0.75
  }
}
layer {
  name: "pool2/3x3_s2"
  type: "Pooling"
  bottom: "conv2/norm2"
  top: "pool2/3x3_s2"
  pooling_param {
    pool: MAX
    kernel_size: 3
    stride: 2
  }
}
layer {
  name: "pool2/3x3_s2_pool2/3x3_s2_0_split"
  type: "Split"
  bottom: "pool2/3x3_s2"
  top: "pool2/3x3_s2_pool2/3x3_s2_0_split_0"
  top: "pool2/3x3_s2_pool2/3x3_s2_0_split_1"
  top: "pool2/3x3_s2_pool2/3x3_s2_0_split_2"
  top: "pool2/3x3_s2_pool2/3x3_s2_0_split_3"
}
layer {
  name: "inception_3a/1x1"
  type: "Convolution"
  bottom: "pool2/3x3_s2_pool2/3x3_s2_0_split_0"
  top: "inception_3a/1x1"
  param {
    lr_mult: 1
    decay_mult: 1
  }
  param {
    lr_mult: 2
    decay_mult: 0
  }
  convolution_param {
    num_output: 64
    kernel_size: 1
    weight_filler {
      type: "xavier"
    }
    bias_filler {
      type: "constant"
      value: 0.2
    }
  }
}
layer {
  name: "inception_3a/relu_1x1"
  type: "ReLU"
  bottom: "inception_3a/1x1"
  top: "inception_3a/1x1"
}
layer {
  name: "inception_3a/3x3_reduce"
  type: "Convolution"
  bottom: "pool2/3x3_s2_pool2/3x3_s2_0_split_1"
  top: "inception_3a/3x3_reduce"
  param {
    lr_mult: 1
    decay_mult: 1
  }
  param {
    lr_mult: 2
    decay_mult: 0
  }
  convolution_param {
    num_output: 96
    kernel_size: 1
    weight_filler {
      type: "xavier"
    }
    bias_filler {
      type: "constant"
      value: 0.2
    }
  }
}
layer {
  name: "inception_3a/relu_3x3_reduce"
  type: "ReLU"
  bottom: "inception_3a/3x3_reduce"
  top: "inception_3a/3x3_reduce"
}
layer {
  name: "inception_3a/3x3"
  type: "Convolution"
  bottom: "inception_3a/3x3_reduce"
  top: "inception_3a/3x3"
  param {
    lr_mult: 1
    decay_mult: 1
  }
  param {
    lr_mult: 2
    decay_mult: 0
  }
  convolution_param {
    num_output: 128
    pad: 1
    kernel_size: 3
    weight_filler {
      type: "xavier"
    }
    bias_filler {
      type: "constant"
      value: 0.2
    }
  }
}
layer {
  name: "inception_3a/relu_3x3"
  type: "ReLU"
  bottom: "inception_3a/3x3"
  top: "inception_3a/3x3"
}
layer {
  name: "inception_3a/5x5_reduce"
  type: "Convolution"
  bottom: "pool2/3x3_s2_pool2/3x3_s2_0_split_2"
  top: "inception_3a/5x5_reduce"
  param {
    lr_mult: 1
    decay_mult: 1
  }
  param {
    lr_mult: 2
    decay_mult: 0
  }
  convolution_param {
    num_output: 16
    kernel_size: 1
    weight_filler {
      type: "xavier"
    }
    bias_filler {
      type: "constant"
      value: 0.2
    }
  }
}
layer {
  name: "inception_3a/relu_5x5_reduce"
  type: "ReLU"
  bottom: "inception_3a/5x5_reduce"
  top: "inception_3a/5x5_reduce"
}
layer {
  name: "inception_3a/5x5"
  type: "Convolution"
  bottom: "inception_3a/5x5_reduce"
  top: "inception_3a/5x5"
  param {
    lr_mult: 1
    decay_mult: 1
  }
  param {
    lr_mult: 2
    decay_mult: 0
  }
  convolution_param {
    num_output: 32
    pad: 2
    kernel_size: 5
    weight_filler {
      type: "xavier"
    }
    bias_filler {
      type: "constant"
      value: 0.2
    }
  }
}
layer {
  name: "inception_3a/relu_5x5"
  type: "ReLU"
  bottom: "inception_3a/5x5"
  top: "inception_3a/5x5"
}
layer {
  name: "inception_3a/pool"
  type: "Pooling"
  bottom: "pool2/3x3_s2_pool2/3x3_s2_0_split_3"
  top: "inception_3a/pool"
  pooling_param {
    pool: MAX
    kernel_size: 3
    stride: 1
    pad: 1
  }
}
layer {
  name: "inception_3a/pool_proj"
  type: "Convolution"
  bottom: "inception_3a/pool"
  top: "inception_3a/pool_proj"
  param {
    lr_mult: 1
    decay_mult: 1
  }
  param {
    lr_mult: 2
    decay_mult: 0
  }
  convolution_param {
    num_output: 32
    kernel_size: 1
    weight_filler {
      type: "xavier"
    }
    bias_filler {
      type: "constant"
      value: 0.2
    }
  }
}
layer {
  name: "inception_3a/relu_pool_proj"
  type: "ReLU"
  bottom: "inception_3a/pool_proj"
  top: "inception_3a/pool_proj"
}
layer {
  name: "inception_3a/output"
  type: "Concat"
  bottom: "inception_3a/1x1"
  bottom: "inception_3a/3x3"
  bottom: "inception_3a/5x5"
  bottom: "inception_3a/pool_proj"
  top: "inception_3a/output"
}
layer {
  name: "inception_3a/output_inception_3a/output_0_split"
  type: "Split"
  bottom: "inception_3a/output"
  top: "inception_3a/output_inception_3a/output_0_split_0"
  top: "inception_3a/output_inception_3a/output_0_split_1"
  top: "inception_3a/output_inception_3a/output_0_split_2"
  top: "inception_3a/output_inception_3a/output_0_split_3"
}
layer {
  name: "inception_3b/1x1"
  type: "Convolution"
  bottom: "inception_3a/output_inception_3a/output_0_split_0"
  top: "inception_3b/1x1"
  param {
    lr_mult: 1
    decay_mult: 1
  }
  param {
    lr_mult: 2
    decay_mult: 0
  }
  convolution_param {
    num_output: 128
    kernel_size: 1
    weight_filler {
      type: "xavier"
    }
    bias_filler {
      type: "constant"
      value: 0.2
    }
  }
}
layer {
  name: "inception_3b/relu_1x1"
  type: "ReLU"
  bottom: "inception_3b/1x1"
  top: "inception_3b/1x1"
}
layer {
  name: "inception_3b/3x3_reduce"
  type: "Convolution"
  bottom: "inception_3a/output_inception_3a/output_0_split_1"
  top: "inception_3b/3x3_reduce"
  param {
    lr_mult: 1
    decay_mult: 1
  }
  param {
    lr_mult: 2
    decay_mult: 0
  }
  convolution_param {
    num_output: 128
    kernel_size: 1
    weight_filler {
      type: "xavier"
    }
    bias_filler {
      type: "constant"
      value: 0.2
    }
  }
}
layer {
  name: "inception_3b/relu_3x3_reduce"
  type: "ReLU"
  bottom: "inception_3b/3x3_reduce"
  top: "inception_3b/3x3_reduce"
}
layer {
  name: "inception_3b/3x3"
  type: "Convolution"
  bottom: "inception_3b/3x3_reduce"
  top: "inception_3b/3x3"
  param {
    lr_mult: 1
    decay_mult: 1
  }
  param {
    lr_mult: 2
    decay_mult: 0
  }
  convolution_param {
    num_output: 192
    pad: 1
    kernel_size: 3
    weight_filler {
      type: "xavier"
    }
    bias_filler {
      type: "constant"
      value: 0.2
    }
  }
}
layer {
  name: "inception_3b/relu_3x3"
  type: "ReLU"
  bottom: "inception_3b/3x3"
  top: "inception_3b/3x3"
}
layer {
  name: "inception_3b/5x5_reduce"
  type: "Convolution"
  bottom: "inception_3a/output_inception_3a/output_0_split_2"
  top: "inception_3b/5x5_reduce"
  param {
    lr_mult: 1
    decay_mult: 1
  }
  param {
    lr_mult: 2
    decay_mult: 0
  }
  convolution_param {
    num_output: 32
    kernel_size: 1
    weight_filler {
      type: "xavier"
    }
    bias_filler {
      type: "constant"
      value: 0.2
    }
  }
}
layer {
  name: "inception_3b/relu_5x5_reduce"
  type: "ReLU"
  bottom: "inception_3b/5x5_reduce"
  top: "inception_3b/5x5_reduce"
}
layer {
  name: "inception_3b/5x5"
  type: "Convolution"
  bottom: "inception_3b/5x5_reduce"
  top: "inception_3b/5x5"
  param {
    lr_mult: 1
    decay_mult: 1
  }
  param {
    lr_mult: 2
    decay_mult: 0
  }
  convolution_param {
    num_output: 96
    pad: 2
    kernel_size: 5
    weight_filler {
      type: "xavier"
    }
    bias_filler {
      type: "constant"
      value: 0.2
    }
  }
}
layer {
  name: "inception_3b/relu_5x5"
  type: "ReLU"
  bottom: "inception_3b/5x5"
  top: "inception_3b/5x5"
}
layer {
  name: "inception_3b/pool"
  type: "Pooling"
  bottom: "inception_3a/output_inception_3a/output_0_split_3"
  top: "inception_3b/pool"
  pooling_param {
    pool: MAX
    kernel_size: 3
    stride: 1
    pad: 1
  }
}
layer {
  name: "inception_3b/pool_proj"
  type: "Convolution"
  bottom: "inception_3b/pool"
  top: "inception_3b/pool_proj"
  param {
    lr_mult: 1
    decay_mult: 1
  }
  param {
    lr_mult: 2
    decay_mult: 0
  }
  convolution_param {
    num_output: 64
    kernel_size: 1
    weight_filler {
      type: "xavier"
    }
    bias_filler {
      type: "constant"
      value: 0.2
    }
  }
}
layer {
  name: "inception_3b/relu_pool_proj"
  type: "ReLU"
  bottom: "inception_3b/pool_proj"
  top: "inception_3b/pool_proj"
}
layer {
  name: "inception_3b/output"
  type: "Concat"
  bottom: "inception_3b/1x1"
  bottom: "inception_3b/3x3"
  bottom: "inception_3b/5x5"
  bottom: "inception_3b/pool_proj"
  top: "inception_3b/output"
}
layer {
  name: "pool3/3x3_s2"
  type: "Pooling"
  bottom: "inception_3b/output"
  top: "pool3/3x3_s2"
  pooling_param {
    pool: MAX
    kernel_size: 3
    stride: 2
  }
}
layer {
  name: "pool3/3x3_s2_pool3/3x3_s2_0_split"
  type: "Split"
  bottom: "pool3/3x3_s2"
  top: "pool3/3x3_s2_pool3/3x3_s2_0_split_0"
  top: "pool3/3x3_s2_pool3/3x3_s2_0_split_1"
  top: "pool3/3x3_s2_pool3/3x3_s2_0_split_2"
  top: "pool3/3x3_s2_pool3/3x3_s2_0_split_3"
}
layer {
  name: "inception_4a/1x1"
  type: "Convolution"
  bottom: "pool3/3x3_s2_pool3/3x3_s2_0_split_0"
  top: "inception_4a/1x1"
  param {
    lr_mult: 1
    decay_mult: 1
  }
  param {
    lr_mult: 2
    decay_mult: 0
  }
  convolution_param {
    num_output: 192
    kernel_size: 1
    weight_filler {
      type: "xavier"
    }
    bias_filler {
      type: "constant"
      value: 0.2
    }
  }
}
layer {
  name: "inception_4a/relu_1x1"
  type: "ReLU"
  bottom: "inception_4a/1x1"
  top: "inception_4a/1x1"
}
layer {
  name: "inception_4a/3x3_reduce"
  type: "Convolution"
  bottom: "pool3/3x3_s2_pool3/3x3_s2_0_split_1"
  top: "inception_4a/3x3_reduce"
  param {
    lr_mult: 1
    decay_mult: 1
  }
  param {
    lr_mult: 2
    decay_mult: 0
  }
  convolution_param {
    num_output: 96
    kernel_size: 1
    weight_filler {
      type: "xavier"
    }
    bias_filler {
      type: "constant"
      value: 0.2
    }
  }
}
layer {
  name: "inception_4a/relu_3x3_reduce"
  type: "ReLU"
  bottom: "inception_4a/3x3_reduce"
  top: "inception_4a/3x3_reduce"
}
layer {
  name: "inception_4a/3x3"
  type: "Convolution"
  bottom: "inception_4a/3x3_reduce"
  top: "inception_4a/3x3"
  param {
    lr_mult: 1
    decay_mult: 1
  }
  param {
    lr_mult: 2
    decay_mult: 0
  }
  convolution_param {
    num_output: 208
    pad: 1
    kernel_size: 3
    weight_filler {
      type: "xavier"
    }
    bias_filler {
      type: "constant"
      value: 0.2
    }
  }
}
layer {
  name: "inception_4a/relu_3x3"
  type: "ReLU"
  bottom: "inception_4a/3x3"
  top: "inception_4a/3x3"
}
layer {
  name: "inception_4a/5x5_reduce"
  type: "Convolution"
  bottom: "pool3/3x3_s2_pool3/3x3_s2_0_split_2"
  top: "inception_4a/5x5_reduce"
  param {
    lr_mult: 1
    decay_mult: 1
  }
  param {
    lr_mult: 2
    decay_mult: 0
  }
  convolution_param {
    num_output: 16
    kernel_size: 1
    weight_filler {
      type: "xavier"
    }
    bias_filler {
      type: "constant"
      value: 0.2
    }
  }
}
layer {
  name: "inception_4a/relu_5x5_reduce"
  type: "ReLU"
  bottom: "inception_4a/5x5_reduce"
  top: "inception_4a/5x5_reduce"
}
layer {
  name: "inception_4a/5x5"
  type: "Convolution"
  bottom: "inception_4a/5x5_reduce"
  top: "inception_4a/5x5"
  param {
    lr_mult: 1
    decay_mult: 1
  }
  param {
    lr_mult: 2
    decay_mult: 0
  }
  convolution_param {
    num_output: 48
    pad: 2
    kernel_size: 5
    weight_filler {
      type: "xavier"
    }
    bias_filler {
      type: "constant"
      value: 0.2
    }
  }
}
layer {
  name: "inception_4a/relu_5x5"
  type: "ReLU"
  bottom: "inception_4a/5x5"
  top: "inception_4a/5x5"
}
layer {
  name: "inception_4a/pool"
  type: "Pooling"
  bottom: "pool3/3x3_s2_pool3/3x3_s2_0_split_3"
  top: "inception_4a/pool"
  pooling_param {
    pool: MAX
    kernel_size: 3
    stride: 1
    pad: 1
  }
}
layer {
  name: "inception_4a/pool_proj"
  type: "Convolution"
  bottom: "inception_4a/pool"
  top: "inception_4a/pool_proj"
  param {
    lr_mult: 1
    decay_mult: 1
  }
  param {
    lr_mult: 2
    decay_mult: 0
  }
  convolution_param {
    num_output: 64
    kernel_size: 1
    weight_filler {
      type: "xavier"
    }
    bias_filler {
      type: "constant"
      value: 0.2
    }
  }
}
layer {
  name: "inception_4a/relu_pool_proj"
  type: "ReLU"
  bottom: "inception_4a/pool_proj"
  top: "inception_4a/pool_proj"
}
layer {
  name: "inception_4a/output"
  type: "Concat"
  bottom: "inception_4a/1x1"
  bottom: "inception_4a/3x3"
  bottom: "inception_4a/5x5"
  bottom: "inception_4a/pool_proj"
  top: "inception_4a/output"
}
layer {
  name: "inception_4a/output_inception_4a/output_0_split"
  type: "Split"
  bottom: "inception_4a/output"
  top: "inception_4a/output_inception_4a/output_0_split_0"
  top: "inception_4a/output_inception_4a/output_0_split_1"
  top: "inception_4a/output_inception_4a/output_0_split_2"
  top: "inception_4a/output_inception_4a/output_0_split_3"
  top: "inception_4a/output_inception_4a/output_0_split_4"
}
layer {
  name: "loss1/ave_pool"
  type: "Pooling"
  bottom: "inception_4a/output_inception_4a/output_0_split_0"
  top: "loss1/ave_pool"
  pooling_param {
    pool: AVE
    kernel_size: 5
    stride: 3
  }
}
layer {
  name: "loss1/conv"
  type: "Convolution"
  bottom: "loss1/ave_pool"
  top: "loss1/conv"
  param {
    lr_mult: 1
    decay_mult: 1
  }
  param {
    lr_mult: 2
    decay_mult: 0
  }
  convolution_param {
    num_output: 128
    kernel_size: 1
    weight_filler {
      type: "xavier"
    }
    bias_filler {
      type: "constant"
      value: 0.2
    }
  }
}
layer {
  name: "loss1/relu_conv"
  type: "ReLU"
  bottom: "loss1/conv"
  top: "loss1/conv"
}
layer {
  name: "loss1/fc"
  type: "InnerProduct"
  bottom: "loss1/conv"
  top: "loss1/fc"
  param {
    lr_mult: 1
    decay_mult: 1
  }
  param {
    lr_mult: 2
    decay_mult: 0
  }
  inner_product_param {
    num_output: 1024
    weight_filler {
      type: "xavier"
    }
    bias_filler {
      type: "constant"
      value: 0.2
    }
  }
}
layer {
  name: "loss1/relu_fc"
  type: "ReLU"
  bottom: "loss1/fc"
  top: "loss1/fc"
}
layer {
  name: "loss1/drop_fc"
  type: "Dropout"
  bottom: "loss1/fc"
  top: "loss1/fc"
  dropout_param {
    dropout_ratio: 0.7
  }
}
layer {
  name: "loss1/classifier"
  type: "InnerProduct"
  bottom: "loss1/fc"
  top: "loss1/classifier"
  param {
    lr_mult: 1
    decay_mult: 1
  }
  param {
    lr_mult: 2
    decay_mult: 0
  }
  inner_product_param {
    num_output: 1000
    weight_filler {
      type: "xavier"
    }
    bias_filler {
      type: "constant"
      value: 0
    }
  }
}
layer {
  name: "loss1/loss"
  type: "SoftmaxWithLoss"
  bottom: "loss1/classifier"
  bottom: "label_data_1_split_0"
  top: "loss1/loss1"
  loss_weight: 0.3
}
layer {
  name: "inception_4b/1x1"
  type: "Convolution"
  bottom: "inception_4a/output_inception_4a/output_0_split_1"
  top: "inception_4b/1x1"
  param {
    lr_mult: 1
    decay_mult: 1
  }
  param {
    lr_mult: 2
    decay_mult: 0
  }
  convolution_param {
    num_output: 160
    kernel_size: 1
    weight_filler {
      type: "xavier"
    }
    bias_filler {
      type: "constant"
      value: 0.2
    }
  }
}
layer {
  name: "inception_4b/relu_1x1"
  type: "ReLU"
  bottom: "inception_4b/1x1"
  top: "inception_4b/1x1"
}
layer {
  name: "inception_4b/3x3_reduce"
  type: "Convolution"
  bottom: "inception_4a/output_inception_4a/output_0_split_2"
  top: "inception_4b/3x3_reduce"
  param {
    lr_mult: 1
    decay_mult: 1
  }
  param {
    lr_mult: 2
    decay_mult: 0
  }
  convolution_param {
    num_output: 112
    kernel_size: 1
    weight_filler {
      type: "xavier"
    }
    bias_filler {
      type: "constant"
      value: 0.2
    }
  }
}
layer {
  name: "inception_4b/relu_3x3_reduce"
  type: "ReLU"
  bottom: "inception_4b/3x3_reduce"
  top: "inception_4b/3x3_reduce"
}
layer {
  name: "inception_4b/3x3"
  type: "Convolution"
  bottom: "inception_4b/3x3_reduce"
  top: "inception_4b/3x3"
  param {
    lr_mult: 1
    decay_mult: 1
  }
  param {
    lr_mult: 2
    decay_mult: 0
  }
  convolution_param {
    num_output: 224
    pad: 1
    kernel_size: 3
    weight_filler {
      type: "xavier"
    }
    bias_filler {
      type: "constant"
      value: 0.2
    }
  }
}
layer {
  name: "inception_4b/relu_3x3"
  type: "ReLU"
  bottom: "inception_4b/3x3"
  top: "inception_4b/3x3"
}
layer {
  name: "inception_4b/5x5_reduce"
  type: "Convolution"
  bottom: "inception_4a/output_inception_4a/output_0_split_3"
  top: "inception_4b/5x5_reduce"
  param {
    lr_mult: 1
    decay_mult: 1
  }
  param {
    lr_mult: 2
    decay_mult: 0
  }
  convolution_param {
    num_output: 24
    kernel_size: 1
    weight_filler {
      type: "xavier"
    }
    bias_filler {
      type: "constant"
      value: 0.2
    }
  }
}
layer {
  name: "inception_4b/relu_5x5_reduce"
  type: "ReLU"
  bottom: "inception_4b/5x5_reduce"
  top: "inception_4b/5x5_reduce"
}
layer {
  name: "inception_4b/5x5"
  type: "Convolution"
  bottom: "inception_4b/5x5_reduce"
  top: "inception_4b/5x5"
  param {
    lr_mult: 1
    decay_mult: 1
  }
  param {
    lr_mult: 2
    decay_mult: 0
  }
  convolution_param {
    num_output: 64
    pad: 2
    kernel_size: 5
    weight_filler {
      type: "xavier"
    }
    bias_filler {
      type: "constant"
      value: 0.2
    }
  }
}
layer {
  name: "inception_4b/relu_5x5"
  type: "ReLU"
  bottom: "inception_4b/5x5"
  top: "inception_4b/5x5"
}
layer {
  name: "inception_4b/pool"
  type: "Pooling"
  bottom: "inception_4a/output_inception_4a/output_0_split_4"
  top: "inception_4b/pool"
  pooling_param {
    pool: MAX
    kernel_size: 3
    stride: 1
    pad: 1
  }
}
layer {
  name: "inception_4b/pool_proj"
  type: "Convolution"
  bottom: "inception_4b/pool"
  top: "inception_4b/pool_proj"
  param {
    lr_mult: 1
    decay_mult: 1
  }
  param {
    lr_mult: 2
    decay_mult: 0
  }
  convolution_param {
    num_output: 64
    kernel_size: 1
    weight_filler {
      type: "xavier"
    }
    bias_filler {
      type: "constant"
      value: 0.2
    }
  }
}
layer {
  name: "inception_4b/relu_pool_proj"
  type: "ReLU"
  bottom: "inception_4b/pool_proj"
  top: "inception_4b/pool_proj"
}
layer {
  name: "inception_4b/output"
  type: "Concat"
  bottom: "inception_4b/1x1"
  bottom: "inception_4b/3x3"
  bottom: "inception_4b/5x5"
  bottom: "inception_4b/pool_proj"
  top: "inception_4b/output"
}
layer {
  name: "inception_4b/output_inception_4b/output_0_split"
  type: "Split"
  bottom: "inception_4b/output"
  top: "inception_4b/output_inception_4b/output_0_split_0"
  top: "inception_4b/output_inception_4b/output_0_split_1"
  top: "inception_4b/output_inception_4b/output_0_split_2"
  top: "inception_4b/output_inception_4b/output_0_split_3"
}
layer {
  name: "inception_4c/1x1"
  type: "Convolution"
  bottom: "inception_4b/output_inception_4b/output_0_split_0"
  top: "inception_4c/1x1"
  param {
    lr_mult: 1
    decay_mult: 1
  }
  param {
    lr_mult: 2
    decay_mult: 0
  }
  convolution_param {
    num_output: 128
    kernel_size: 1
    weight_filler {
      type: "xavier"
    }
    bias_filler {
      type: "constant"
      value: 0.2
    }
  }
}
layer {
  name: "inception_4c/relu_1x1"
  type: "ReLU"
  bottom: "inception_4c/1x1"
  top: "inception_4c/1x1"
}
layer {
  name: "inception_4c/3x3_reduce"
  type: "Convolution"
  bottom: "inception_4b/output_inception_4b/output_0_split_1"
  top: "inception_4c/3x3_reduce"
  param {
    lr_mult: 1
    decay_mult: 1
  }
  param {
    lr_mult: 2
    decay_mult: 0
  }
  convolution_param {
    num_output: 128
    kernel_size: 1
    weight_filler {
      type: "xavier"
    }
    bias_filler {
      type: "constant"
      value: 0.2
    }
  }
}
layer {
  name: "inception_4c/relu_3x3_reduce"
  type: "ReLU"
  bottom: "inception_4c/3x3_reduce"
  top: "inception_4c/3x3_reduce"
}
layer {
  name: "inception_4c/3x3"
  type: "Convolution"
  bottom: "inception_4c/3x3_reduce"
  top: "inception_4c/3x3"
  param {
    lr_mult: 1
    decay_mult: 1
  }
  param {
    lr_mult: 2
    decay_mult: 0
  }
  convolution_param {
    num_output: 256
    pad: 1
    kernel_size: 3
    weight_filler {
      type: "xavier"
    }
    bias_filler {
      type: "constant"
      value: 0.2
    }
  }
}
layer {
  name: "inception_4c/relu_3x3"
  type: "ReLU"
  bottom: "inception_4c/3x3"
  top: "inception_4c/3x3"
}
layer {
  name: "inception_4c/5x5_reduce"
  type: "Convolution"
  bottom: "inception_4b/output_inception_4b/output_0_split_2"
  top: "inception_4c/5x5_reduce"
  param {
    lr_mult: 1
    decay_mult: 1
  }
  param {
    lr_mult: 2
    decay_mult: 0
  }
  convolution_param {
    num_output: 24
    kernel_size: 1
    weight_filler {
      type: "xavier"
    }
    bias_filler {
      type: "constant"
      value: 0.2
    }
  }
}
layer {
  name: "inception_4c/relu_5x5_reduce"
  type: "ReLU"
  bottom: "inception_4c/5x5_reduce"
  top: "inception_4c/5x5_reduce"
}
layer {
  name: "inception_4c/5x5"
  type: "Convolution"
  bottom: "inception_4c/5x5_reduce"
  top: "inception_4c/5x5"
  param {
    lr_mult: 1
    decay_mult: 1
  }
  param {
    lr_mult: 2
    decay_mult: 0
  }
  convolution_param {
    num_output: 64
    pad: 2
    kernel_size: 5
    weight_filler {
      type: "xavier"
    }
    bias_filler {
      type: "constant"
      value: 0.2
    }
  }
}
layer {
  name: "inception_4c/relu_5x5"
  type: "ReLU"
  bottom: "inception_4c/5x5"
  top: "inception_4c/5x5"
}
layer {
  name: "inception_4c/pool"
  type: "Pooling"
  bottom: "inception_4b/output_inception_4b/output_0_split_3"
  top: "inception_4c/pool"
  pooling_param {
    pool: MAX
    kernel_size: 3
    stride: 1
    pad: 1
  }
}
layer {
  name: "inception_4c/pool_proj"
  type: "Convolution"
  bottom: "inception_4c/pool"
  top: "inception_4c/pool_proj"
  param {
    lr_mult: 1
    decay_mult: 1
  }
  param {
    lr_mult: 2
    decay_mult: 0
  }
  convolution_param {
    num_output: 64
    kernel_size: 1
    weight_filler {
      type: "xavier"
    }
    bias_filler {
      type: "constant"
      value: 0.2
    }
  }
}
layer {
  name: "inception_4c/relu_pool_proj"
  type: "ReLU"
  bottom: "inception_4c/pool_proj"
  top: "inception_4c/pool_proj"
}
layer {
  name: "inception_4c/output"
  type: "Concat"
  bottom: "inception_4c/1x1"
  bottom: "inception_4c/3x3"
  bottom: "inception_4c/5x5"
  bottom: "inception_4c/pool_proj"
  top: "inception_4c/output"
}
layer {
  name: "inception_4c/output_inception_4c/output_0_split"
  type: "Split"
  bottom: "inception_4c/output"
  top: "inception_4c/output_inception_4c/output_0_split_0"
  top: "inception_4c/output_inception_4c/output_0_split_1"
  top: "inception_4c/output_inception_4c/output_0_split_2"
  top: "inception_4c/output_inception_4c/output_0_split_3"
}
layer {
  name: "inception_4d/1x1"
  type: "Convolution"
  bottom: "inception_4c/output_inception_4c/output_0_split_0"
  top: "inception_4d/1x1"
  param {
    lr_mult: 1
    decay_mult: 1
  }
  param {
    lr_mult: 2
    decay_mult: 0
  }
  convolution_param {
    num_output: 112
    kernel_size: 1
    weight_filler {
      type: "xavier"
    }
    bias_filler {
      type: "constant"
      value: 0.2
    }
  }
}
layer {
  name: "inception_4d/relu_1x1"
  type: "ReLU"
  bottom: "inception_4d/1x1"
  top: "inception_4d/1x1"
}
layer {
  name: "inception_4d/3x3_reduce"
  type: "Convolution"
  bottom: "inception_4c/output_inception_4c/output_0_split_1"
  top: "inception_4d/3x3_reduce"
  param {
    lr_mult: 1
    decay_mult: 1
  }
  param {
    lr_mult: 2
    decay_mult: 0
  }
  convolution_param {
    num_output: 144
    kernel_size: 1
    weight_filler {
      type: "xavier"
    }
    bias_filler {
      type: "constant"
      value: 0.2
    }
  }
}
layer {
  name: "inception_4d/relu_3x3_reduce"
  type: "ReLU"
  bottom: "inception_4d/3x3_reduce"
  top: "inception_4d/3x3_reduce"
}
layer {
  name: "inception_4d/3x3"
  type: "Convolution"
  bottom: "inception_4d/3x3_reduce"
  top: "inception_4d/3x3"
  param {
    lr_mult: 1
    decay_mult: 1
  }
  param {
    lr_mult: 2
    decay_mult: 0
  }
  convolution_param {
    num_output: 288
    pad: 1
    kernel_size: 3
    weight_filler {
      type: "xavier"
    }
    bias_filler {
      type: "constant"
      value: 0.2
    }
  }
}
layer {
  name: "inception_4d/relu_3x3"
  type: "ReLU"
  bottom: "inception_4d/3x3"
  top: "inception_4d/3x3"
}
layer {
  name: "inception_4d/5x5_reduce"
  type: "Convolution"
  bottom: "inception_4c/output_inception_4c/output_0_split_2"
  top: "inception_4d/5x5_reduce"
  param {
    lr_mult: 1
    decay_mult: 1
  }
  param {
    lr_mult: 2
    decay_mult: 0
  }
  convolution_param {
    num_output: 32
    kernel_size: 1
    weight_filler {
      type: "xavier"
    }
    bias_filler {
      type: "constant"
      value: 0.2
    }
  }
}
layer {
  name: "inception_4d/relu_5x5_reduce"
  type: "ReLU"
  bottom: "inception_4d/5x5_reduce"
  top: "inception_4d/5x5_reduce"
}
layer {
  name: "inception_4d/5x5"
  type: "Convolution"
  bottom: "inception_4d/5x5_reduce"
  top: "inception_4d/5x5"
  param {
    lr_mult: 1
    decay_mult: 1
  }
  param {
    lr_mult: 2
    decay_mult: 0
  }
  convolution_param {
    num_output: 64
    pad: 2
    kernel_size: 5
    weight_filler {
      type: "xavier"
    }
    bias_filler {
      type: "constant"
      value: 0.2
    }
  }
}
layer {
  name: "inception_4d/relu_5x5"
  type: "ReLU"
  bottom: "inception_4d/5x5"
  top: "inception_4d/5x5"
}
layer {
  name: "inception_4d/pool"
  type: "Pooling"
  bottom: "inception_4c/output_inception_4c/output_0_split_3"
  top: "inception_4d/pool"
  pooling_param {
    pool: MAX
    kernel_size: 3
    stride: 1
    pad: 1
  }
}
layer {
  name: "inception_4d/pool_proj"
  type: "Convolution"
  bottom: "inception_4d/pool"
  top: "inception_4d/pool_proj"
  param {
    lr_mult: 1
    decay_mult: 1
  }
  param {
    lr_mult: 2
    decay_mult: 0
  }
  convolution_param {
    num_output: 64
    kernel_size: 1
    weight_filler {
      type: "xavier"
    }
    bias_filler {
      type: "constant"
      value: 0.2
    }
  }
}
layer {
  name: "inception_4d/relu_pool_proj"
  type: "ReLU"
  bottom: "inception_4d/pool_proj"
  top: "inception_4d/pool_proj"
}
layer {
  name: "inception_4d/output"
  type: "Concat"
  bottom: "inception_4d/1x1"
  bottom: "inception_4d/3x3"
  bottom: "inception_4d/5x5"
  bottom: "inception_4d/pool_proj"
  top: "inception_4d/output"
}
layer {
  name: "inception_4d/output_inception_4d/output_0_split"
  type: "Split"
  bottom: "inception_4d/output"
  top: "inception_4d/output_inception_4d/output_0_split_0"
  top: "inception_4d/output_inception_4d/output_0_split_1"
  top: "inception_4d/output_inception_4d/output_0_split_2"
  top: "inception_4d/output_inception_4d/output_0_split_3"
  top: "inception_4d/output_inception_4d/output_0_split_4"
}
layer {
  name: "loss2/ave_pool"
  type: "Pooling"
  bottom: "inception_4d/output_inception_4d/output_0_split_0"
  top: "loss2/ave_pool"
  pooling_param {
    pool: AVE
    kernel_size: 5
    stride: 3
  }
}
layer {
  name: "loss2/conv"
  type: "Convolution"
  bottom: "loss2/ave_pool"
  top: "loss2/conv"
  param {
    lr_mult: 1
    decay_mult: 1
  }
  param {
    lr_mult: 2
    decay_mult: 0
  }
  convolution_param {
    num_output: 128
    kernel_size: 1
    weight_filler {
      type: "xavier"
    }
    bias_filler {
      type: "constant"
      value: 0.2
    }
  }
}
layer {
  name: "loss2/relu_conv"
  type: "ReLU"
  bottom: "loss2/conv"
  top: "loss2/conv"
}
layer {
  name: "loss2/fc"
  type: "InnerProduct"
  bottom: "loss2/conv"
  top: "loss2/fc"
  param {
    lr_mult: 1
    decay_mult: 1
  }
  param {
    lr_mult: 2
    decay_mult: 0
  }
  inner_product_param {
    num_output: 1024
    weight_filler {
      type: "xavier"
    }
    bias_filler {
      type: "constant"
      value: 0.2
    }
  }
}
layer {
  name: "loss2/relu_fc"
  type: "ReLU"
  bottom: "loss2/fc"
  top: "loss2/fc"
}
layer {
  name:
I0327 09:42:53.897402  4586 layer_factory.hpp:114] Creating layer data
I0327 09:42:53.898946  4586 net.cpp:160] Creating Layer data
I0327 09:42:53.898994  4586 net.cpp:570] data -> data
I0327 09:42:53.899179  4586 net.cpp:570] data -> label
I0327 09:42:53.899502  4587 db_lmdb.cpp:72] Opened lmdb /home/user/user/LIBRARIES/caffeLibs/caffe/examples/imagenet/ilsvrc12_train_lmdb
I0327 09:42:53.901111  4586 data_layer.cpp:80] output data size: 48,3,224,224
I0327 09:42:53.986760  4586 net.cpp:210] Setting up data
I0327 09:42:53.986874  4586 net.cpp:217] Top shape: 48 3 224 224 (7225344)
I0327 09:42:53.986892  4586 net.cpp:217] Top shape: 48 (48)
I0327 09:42:53.986943  4586 net.cpp:225] Memory required for data: 28901568
I0327 09:42:53.986965  4586 layer_factory.hpp:114] Creating layer label_data_1_split
I0327 09:42:53.987007  4586 net.cpp:160] Creating Layer label_data_1_split
I0327 09:42:53.987036  4586 net.cpp:596] label_data_1_split <- label
I0327 09:42:53.987063  4586 net.cpp:570] label_data_1_split -> label_data_1_split_0
I0327 09:42:53.987092  4586 net.cpp:570] label_data_1_split -> label_data_1_split_1
I0327 09:42:53.987113  4586 net.cpp:570] label_data_1_split -> label_data_1_split_2
I0327 09:42:53.987144  4586 net.cpp:210] Setting up label_data_1_split
I0327 09:42:53.987162  4586 net.cpp:217] Top shape: 48 (48)
I0327 09:42:53.987179  4586 net.cpp:217] Top shape: 48 (48)
I0327 09:42:53.987193  4586 net.cpp:217] Top shape: 48 (48)
I0327 09:42:53.987205  4586 net.cpp:225] Memory required for data: 28902144
I0327 09:42:53.987216  4586 layer_factory.hpp:114] Creating layer conv1/7x7_s2
I0327 09:42:53.987257  4586 net.cpp:160] Creating Layer conv1/7x7_s2
I0327 09:42:53.987272  4586 net.cpp:596] conv1/7x7_s2 <- data
I0327 09:42:53.987295  4586 net.cpp:570] conv1/7x7_s2 -> conv1/7x7_s2
OMP: Info #242: KMP_AFFINITY: pid 4586 thread 1 bound to OS proc set {0,1,2,3,4,5}
OMP: Info #242: KMP_AFFINITY: pid 4586 thread 2 bound to OS proc set {0,1,2,3,4,5}
OMP: Info #242: KMP_AFFINITY: pid 4586 thread 3 bound to OS proc set {0,1,2,3,4,5}
OMP: Info #242: KMP_AFFINITY: pid 4586 thread 4 bound to OS proc set {0,1,2,3,4,5}
OMP: Info #242: KMP_AFFINITY: pid 4586 thread 5 bound to OS proc set {0,1,2,3,4,5}
I0327 09:42:54.028679  4586 net.cpp:210] Setting up conv1/7x7_s2
I0327 09:42:54.028765  4586 net.cpp:217] Top shape: 48 64 112 112 (38535168)
I0327 09:42:54.028777  4586 net.cpp:225] Memory required for data: 183042816
I0327 09:42:54.028827  4586 layer_factory.hpp:114] Creating layer conv1/relu_7x7
I0327 09:42:54.028857  4586 net.cpp:160] Creating Layer conv1/relu_7x7
I0327 09:42:54.028872  4586 net.cpp:596] conv1/relu_7x7 <- conv1/7x7_s2
I0327 09:42:54.028971  4586 net.cpp:557] conv1/relu_7x7 -> conv1/7x7_s2 (in-place)
I0327 09:42:54.029003  4586 net.cpp:210] Setting up conv1/relu_7x7
I0327 09:42:54.029028  4586 net.cpp:217] Top shape: 48 64 112 112 (38535168)
I0327 09:42:54.029042  4586 net.cpp:225] Memory required for data: 337183488
I0327 09:42:54.029053  4586 layer_factory.hpp:114] Creating layer pool1/3x3_s2
I0327 09:42:54.029249  4586 net.cpp:160] Creating Layer pool1/3x3_s2
I0327 09:42:54.029265  4586 net.cpp:596] pool1/3x3_s2 <- conv1/7x7_s2
I0327 09:42:54.029281  4586 net.cpp:570] pool1/3x3_s2 -> pool1/3x3_s2
I0327 09:42:54.029320  4586 net.cpp:210] Setting up pool1/3x3_s2
I0327 09:42:54.029335  4586 net.cpp:217] Top shape: 48 64 56 56 (9633792)
I0327 09:42:54.029345  4586 net.cpp:225] Memory required for data: 375718656
I0327 09:42:54.029356  4586 layer_factory.hpp:114] Creating layer pool1/norm1
I0327 09:42:54.029383  4586 net.cpp:160] Creating Layer pool1/norm1
I0327 09:42:54.029419  4586 net.cpp:596] pool1/norm1 <- pool1/3x3_s2
I0327 09:42:54.029435  4586 net.cpp:570] pool1/norm1 -> pool1/norm1
I0327 09:42:54.029470  4586 net.cpp:210] Setting up pool1/norm1
I0327 09:42:54.029486  4586 net.cpp:217] Top shape: 48 64 56 56 (9633792)
I0327 09:42:54.029496  4586 net.cpp:225] Memory required for data: 414253824
I0327 09:42:54.029507  4586 layer_factory.hpp:114] Creating layer conv2/3x3_reduce
I0327 09:42:54.029539  4586 net.cpp:160] Creating Layer conv2/3x3_reduce
I0327 09:42:54.029552  4586 net.cpp:596] conv2/3x3_reduce <- pool1/norm1
I0327 09:42:54.029568  4586 net.cpp:570] conv2/3x3_reduce -> conv2/3x3_reduce
I0327 09:42:54.041954  4586 net.cpp:210] Setting up conv2/3x3_reduce
I0327 09:42:54.042024  4586 net.cpp:217] Top shape: 48 64 56 56 (9633792)
I0327 09:42:54.042038  4586 net.cpp:225] Memory required for data: 452788992
I0327 09:42:54.042070  4586 layer_factory.hpp:114] Creating layer conv2/relu_3x3_reduce
I0327 09:42:54.042098  4586 net.cpp:160] Creating Layer conv2/relu_3x3_reduce
I0327 09:42:54.042111  4586 net.cpp:596] conv2/relu_3x3_reduce <- conv2/3x3_reduce
I0327 09:42:54.042129  4586 net.cpp:557] conv2/relu_3x3_reduce -> conv2/3x3_reduce (in-place)
I0327 09:42:54.042151  4586 net.cpp:210] Setting up conv2/relu_3x3_reduce
I0327 09:42:54.042165  4586 net.cpp:217] Top shape: 48 64 56 56 (9633792)
I0327 09:42:54.042176  4586 net.cpp:225] Memory required for data: 491324160
I0327 09:42:54.042186  4586 layer_factory.hpp:114] Creating layer conv2/3x3
I0327 09:42:54.042249  4586 net.cpp:160] Creating Layer conv2/3x3
I0327 09:42:54.042263  4586 net.cpp:596] conv2/3x3 <- conv2/3x3_reduce
I0327 09:42:54.042284  4586 net.cpp:570] conv2/3x3 -> conv2/3x3
I0327 09:42:54.083871  4586 net.cpp:210] Setting up conv2/3x3
I0327 09:42:54.083959  4586 net.cpp:217] Top shape: 48 192 56 56 (28901376)
I0327 09:42:54.083971  4586 net.cpp:225] Memory required for data: 606929664
I0327 09:42:54.084010  4586 layer_factory.hpp:114] Creating layer conv2/relu_3x3
I0327 09:42:54.084051  4586 net.cpp:160] Creating Layer conv2/relu_3x3
I0327 09:42:54.084066  4586 net.cpp:596] conv2/relu_3x3 <- conv2/3x3
I0327 09:42:54.084086  4586 net.cpp:557] conv2/relu_3x3 -> conv2/3x3 (in-place)
I0327 09:42:54.084113  4586 net.cpp:210] Setting up conv2/relu_3x3
I0327 09:42:54.084127  4586 net.cpp:217] Top shape: 48 192 56 56 (28901376)
I0327 09:42:54.084143  4586 net.cpp:225] Memory required for data: 722535168
I0327 09:42:54.084154  4586 layer_factory.hpp:114] Creating layer conv2/norm2
I0327 09:42:54.084172  4586 net.cpp:160] Creating Layer conv2/norm2
I0327 09:42:54.084183  4586 net.cpp:596] conv2/norm2 <- conv2/3x3
I0327 09:42:54.084203  4586 net.cpp:570] conv2/norm2 -> conv2/norm2
I0327 09:42:54.084231  4586 net.cpp:210] Setting up conv2/norm2
I0327 09:42:54.084246  4586 net.cpp:217] Top shape: 48 192 56 56 (28901376)
I0327 09:42:54.084256  4586 net.cpp:225] Memory required for data: 838140672
I0327 09:42:54.084267  4586 layer_factory.hpp:114] Creating layer pool2/3x3_s2
I0327 09:42:54.084319  4586 net.cpp:160] Creating Layer pool2/3x3_s2
I0327 09:42:54.084332  4586 net.cpp:596] pool2/3x3_s2 <- conv2/norm2
I0327 09:42:54.084348  4586 net.cpp:570] pool2/3x3_s2 -> pool2/3x3_s2
I0327 09:42:54.084372  4586 net.cpp:210] Setting up pool2/3x3_s2
I0327 09:42:54.084388  4586 net.cpp:217] Top shape: 48 192 28 28 (7225344)
I0327 09:42:54.084398  4586 net.cpp:225] Memory required for data: 867042048
I0327 09:42:54.084409  4586 layer_factory.hpp:114] Creating layer pool2/3x3_s2_pool2/3x3_s2_0_split
I0327 09:42:54.084429  4586 net.cpp:160] Creating Layer pool2/3x3_s2_pool2/3x3_s2_0_split
I0327 09:42:54.084441  4586 net.cpp:596] pool2/3x3_s2_pool2/3x3_s2_0_split <- pool2/3x3_s2
I0327 09:42:54.084457  4586 net.cpp:570] pool2/3x3_s2_pool2/3x3_s2_0_split -> pool2/3x3_s2_pool2/3x3_s2_0_split_0
I0327 09:42:54.084475  4586 net.cpp:570] pool2/3x3_s2_pool2/3x3_s2_0_split -> pool2/3x3_s2_pool2/3x3_s2_0_split_1
I0327 09:42:54.084492  4586 net.cpp:570] pool2/3x3_s2_pool2/3x3_s2_0_split -> pool2/3x3_s2_pool2/3x3_s2_0_split_2
I0327 09:42:54.084533  4586 net.cpp:570] pool2/3x3_s2_pool2/3x3_s2_0_split -> pool2/3x3_s2_pool2/3x3_s2_0_split_3
I0327 09:42:54.084553  4586 net.cpp:210] Setting up pool2/3x3_s2_pool2/3x3_s2_0_split
I0327 09:42:54.084569  4586 net.cpp:217] Top shape: 48 192 28 28 (7225344)
I0327 09:42:54.084583  4586 net.cpp:217] Top shape: 48 192 28 28 (7225344)
I0327 09:42:54.084596  4586 net.cpp:217] Top shape: 48 192 28 28 (7225344)
I0327 09:42:54.084609  4586 net.cpp:217] Top shape: 48 192 28 28 (7225344)
I0327 09:42:54.084620  4586 net.cpp:225] Memory required for data: 982647552
I0327 09:42:54.084631  4586 layer_factory.hpp:114] Creating layer inception_3a/1x1
I0327 09:42:54.084664  4586 net.cpp:160] Creating Layer inception_3a/1x1
I0327 09:42:54.084677  4586 net.cpp:596] inception_3a/1x1 <- pool2/3x3_s2_pool2/3x3_s2_0_split_0
I0327 09:42:54.084697  4586 net.cpp:570] inception_3a/1x1 -> inception_3a/1x1
I0327 09:42:54.089046  4586 net.cpp:210] Setting up inception_3a/1x1
I0327 09:42:54.089105  4586 net.cpp:217] Top shape: 48 64 28 28 (2408448)
I0327 09:42:54.089117  4586 net.cpp:225] Memory required for data: 992281344
I0327 09:42:54.089144  4586 layer_factory.hpp:114] Creating layer inception_3a/relu_1x1
I0327 09:42:54.089166  4586 net.cpp:160] Creating Layer inception_3a/relu_1x1
I0327 09:42:54.089179  4586 net.cpp:596] inception_3a/relu_1x1 <- inception_3a/1x1
I0327 09:42:54.089195  4586 net.cpp:557] inception_3a/relu_1x1 -> inception_3a/1x1 (in-place)
I0327 09:42:54.089217  4586 net.cpp:210] Setting up inception_3a/relu_1x1
I0327 09:42:54.089259  4586 net.cpp:217] Top shape: 48 64 28 28 (2408448)
I0327 09:42:54.089270  4586 net.cpp:225] Memory required for data: 1001915136
I0327 09:42:54.089282  4586 layer_factory.hpp:114] Creating layer inception_3a/3x3_reduce
I0327 09:42:54.089313  4586 net.cpp:160] Creating Layer inception_3a/3x3_reduce
I0327 09:42:54.089329  4586 net.cpp:596] inception_3a/3x3_reduce <- pool2/3x3_s2_pool2/3x3_s2_0_split_1
I0327 09:42:54.089346  4586 net.cpp:570] inception_3a/3x3_reduce -> inception_3a/3x3_reduce
I0327 09:42:54.099259  4586 net.cpp:210] Setting up inception_3a/3x3_reduce
I0327 09:42:54.099335  4586 net.cpp:217] Top shape: 48 96 28 28 (3612672)
I0327 09:42:54.099345  4586 net.cpp:225] Memory required for data: 1016365824
I0327 09:42:54.099381  4586 layer_factory.hpp:114] Creating layer inception_3a/relu_3x3_reduce
I0327 09:42:54.099409  4586 net.cpp:160] Creating Layer inception_3a/relu_3x3_reduce
I0327 09:42:54.099422  4586 net.cpp:596] inception_3a/relu_3x3_reduce <- inception_3a/3x3_reduce
I0327 09:42:54.099442  4586 net.cpp:557] inception_3a/relu_3x3_reduce -> inception_3a/3x3_reduce (in-place)
I0327 09:42:54.099467  4586 net.cpp:210] Setting up inception_3a/relu_3x3_reduce
I0327 09:42:54.099478  4586 net.cpp:217] Top shape: 48 96 28 28 (3612672)
I0327 09:42:54.099486  4586 net.cpp:225] Memory required for data: 1030816512
I0327 09:42:54.099495  4586 layer_factory.hpp:114] Creating layer inception_3a/3x3
I0327 09:42:54.099522  4586 net.cpp:160] Creating Layer inception_3a/3x3
I0327 09:42:54.099532  4586 net.cpp:596] inception_3a/3x3 <- inception_3a/3x3_reduce
I0327 09:42:54.099545  4586 net.cpp:570] inception_3a/3x3 -> inception_3a/3x3
I0327 09:42:54.110349  4586 net.cpp:210] Setting up inception_3a/3x3
I0327 09:42:54.110430  4586 net.cpp:217] Top shape: 48 128 28 28 (4816896)
I0327 09:42:54.110438  4586 net.cpp:225] Memory required for data: 1050084096
I0327 09:42:54.110465  4586 layer_factory.hpp:114] Creating layer inception_3a/relu_3x3
I0327 09:42:54.110488  4586 net.cpp:160] Creating Layer inception_3a/relu_3x3
I0327 09:42:54.110502  4586 net.cpp:596] inception_3a/relu_3x3 <- inception_3a/3x3
I0327 09:42:54.110522  4586 net.cpp:557] inception_3a/relu_3x3 -> inception_3a/3x3 (in-place)
I0327 09:42:54.110548  4586 net.cpp:210] Setting up inception_3a/relu_3x3
I0327 09:42:54.110559  4586 net.cpp:217] Top shape: 48 128 28 28 (4816896)
I0327 09:42:54.110568  4586 net.cpp:225] Memory required for data: 1069351680
I0327 09:42:54.110576  4586 layer_factory.hpp:114] Creating layer inception_3a/5x5_reduce
I0327 09:42:54.110621  4586 net.cpp:160] Creating Layer inception_3a/5x5_reduce
I0327 09:42:54.110633  4586 net.cpp:596] inception_3a/5x5_reduce <- pool2/3x3_s2_pool2/3x3_s2_0_split_2
I0327 09:42:54.110647  4586 net.cpp:570] inception_3a/5x5_reduce -> inception_3a/5x5_reduce
I0327 09:42:54.113780  4586 net.cpp:210] Setting up inception_3a/5x5_reduce
I0327 09:42:54.113826  4586 net.cpp:217] Top shape: 48 16 28 28 (602112)
I0327 09:42:54.113836  4586 net.cpp:225] Memory required for data: 1071760128
I0327 09:42:54.113854  4586 layer_factory.hpp:114] Creating layer inception_3a/relu_5x5_reduce
I0327 09:42:54.113872  4586 net.cpp:160] Creating Layer inception_3a/relu_5x5_reduce
I0327 09:42:54.113883  4586 net.cpp:596] inception_3a/relu_5x5_reduce <- inception_3a/5x5_reduce
I0327 09:42:54.113899  4586 net.cpp:557] inception_3a/relu_5x5_reduce -> inception_3a/5x5_reduce (in-place)
I0327 09:42:54.113919  4586 net.cpp:210] Setting up inception_3a/relu_5x5_reduce
I0327 09:42:54.113929  4586 net.cpp:217] Top shape: 48 16 28 28 (602112)
I0327 09:42:54.113939  4586 net.cpp:225] Memory required for data: 1074168576
I0327 09:42:54.113946  4586 layer_factory.hpp:114] Creating layer inception_3a/5x5
I0327 09:42:54.113967  4586 net.cpp:160] Creating Layer inception_3a/5x5
I0327 09:42:54.113978  4586 net.cpp:596] inception_3a/5x5 <- inception_3a/5x5_reduce
I0327 09:42:54.113991  4586 net.cpp:570] inception_3a/5x5 -> inception_3a/5x5
I0327 09:42:54.118119  4586 net.cpp:210] Setting up inception_3a/5x5
I0327 09:42:54.118197  4586 net.cpp:217] Top shape: 48 32 28 28 (1204224)
I0327 09:42:54.118235  4586 net.cpp:225] Memory required for data: 1078985472
I0327 09:42:54.118263  4586 layer_factory.hpp:114] Creating layer inception_3a/relu_5x5
I0327 09:42:54.118285  4586 net.cpp:160] Creating Layer inception_3a/relu_5x5
I0327 09:42:54.118297  4586 net.cpp:596] inception_3a/relu_5x5 <- inception_3a/5x5
I0327 09:42:54.118316  4586 net.cpp:557] inception_3a/relu_5x5 -> inception_3a/5x5 (in-place)
I0327 09:42:54.118340  4586 net.cpp:210] Setting up inception_3a/relu_5x5
I0327 09:42:54.118350  4586 net.cpp:217] Top shape: 48 32 28 28 (1204224)
I0327 09:42:54.118360  4586 net.cpp:225] Memory required for data: 1083802368
I0327 09:42:54.118367  4586 layer_factory.hpp:114] Creating layer inception_3a/pool
I0327 09:42:54.118413  4586 net.cpp:160] Creating Layer inception_3a/pool
I0327 09:42:54.118427  4586 net.cpp:596] inception_3a/pool <- pool2/3x3_s2_pool2/3x3_s2_0_split_3
I0327 09:42:54.118439  4586 net.cpp:570] inception_3a/pool -> inception_3a/pool
I0327 09:42:54.118463  4586 net.cpp:210] Setting up inception_3a/pool
I0327 09:42:54.118474  4586 net.cpp:217] Top shape: 48 192 28 28 (7225344)
I0327 09:42:54.118482  4586 net.cpp:225] Memory required for data: 1112703744
I0327 09:42:54.118491  4586 layer_factory.hpp:114] Creating layer inception_3a/pool_proj
I0327 09:42:54.118520  4586 net.cpp:160] Creating Layer inception_3a/pool_proj
I0327 09:42:54.118530  4586 net.cpp:596] inception_3a/pool_proj <- inception_3a/pool
I0327 09:42:54.118542  4586 net.cpp:570] inception_3a/pool_proj -> inception_3a/pool_proj
I0327 09:42:54.121047  4586 net.cpp:210] Setting up inception_3a/pool_proj
I0327 09:42:54.121093  4586 net.cpp:217] Top shape: 48 32 28 28 (1204224)
I0327 09:42:54.121103  4586 net.cpp:225] Memory required for data: 1117520640
I0327 09:42:54.121130  4586 layer_factory.hpp:114] Creating layer inception_3a/relu_pool_proj
I0327 09:42:54.121155  4586 net.cpp:160] Creating Layer inception_3a/relu_pool_proj
I0327 09:42:54.121167  4586 net.cpp:596] inception_3a/relu_pool_proj <- inception_3a/pool_proj
I0327 09:42:54.121181  4586 net.cpp:557] inception_3a/relu_pool_proj -> inception_3a/pool_proj (in-place)
I0327 09:42:54.121202  4586 net.cpp:210] Setting up inception_3a/relu_pool_proj
I0327 09:42:54.121213  4586 net.cpp:217] Top shape: 48 32 28 28 (1204224)
I0327 09:42:54.121222  4586 net.cpp:225] Memory required for data: 1122337536
I0327 09:42:54.121230  4586 layer_factory.hpp:114] Creating layer inception_3a/output
I0327 09:42:54.121255  4586 net.cpp:160] Creating Layer inception_3a/output
I0327 09:42:54.121265  4586 net.cpp:596] inception_3a/output <- inception_3a/1x1
I0327 09:42:54.121275  4586 net.cpp:596] inception_3a/output <- inception_3a/3x3
I0327 09:42:54.121285  4586 net.cpp:596] inception_3a/output <- inception_3a/5x5
I0327 09:42:54.121295  4586 net.cpp:596] inception_3a/output <- inception_3a/pool_proj
I0327 09:42:54.121307  4586 net.cpp:570] inception_3a/output -> inception_3a/output
I0327 09:42:54.121330  4586 net.cpp:210] Setting up inception_3a/output
I0327 09:42:54.121342  4586 net.cpp:217] Top shape: 48 256 28 28 (9633792)
I0327 09:42:54.121351  4586 net.cpp:225] Memory required for data: 1160872704
I0327 09:42:54.121359  4586 layer_factory.hpp:114] Creating layer inception_3a/output_inception_3a/output_0_split
I0327 09:42:54.121372  4586 net.cpp:160] Creating Layer inception_3a/output_inception_3a/output_0_split
I0327 09:42:54.121381  4586 net.cpp:596] inception_3a/output_inception_3a/output_0_split <- inception_3a/output
I0327 09:42:54.121397  4586 net.cpp:570] inception_3a/output_inception_3a/output_0_split -> inception_3a/output_inception_3a/output_0_split_0
I0327 09:42:54.121412  4586 net.cpp:570] inception_3a/output_inception_3a/output_0_split -> inception_3a/output_inception_3a/output_0_split_1
I0327 09:42:54.121425  4586 net.cpp:570] inception_3a/output_inception_3a/output_0_split -> inception_3a/output_inception_3a/output_0_split_2
I0327 09:42:54.121439  4586 net.cpp:570] inception_3a/output_inception_3a/output_0_split -> inception_3a/output_inception_3a/output_0_split_3
I0327 09:42:54.121474  4586 net.cpp:210] Setting up inception_3a/output_inception_3a/output_0_split
I0327 09:42:54.121485  4586 net.cpp:217] Top shape: 48 256 28 28 (9633792)
I0327 09:42:54.121495  4586 net.cpp:217] Top shape: 48 256 28 28 (9633792)
I0327 09:42:54.121506  4586 net.cpp:217] Top shape: 48 256 28 28 (9633792)
I0327 09:42:54.121516  4586 net.cpp:217] Top shape: 48 256 28 28 (9633792)
I0327 09:42:54.121525  4586 net.cpp:225] Memory required for data: 1315013376
I0327 09:42:54.121533  4586 layer_factory.hpp:114] Creating layer inception_3b/1x1
I0327 09:42:54.121556  4586 net.cpp:160] Creating Layer inception_3b/1x1
I0327 09:42:54.121565  4586 net.cpp:596] inception_3b/1x1 <- inception_3a/output_inception_3a/output_0_split_0
I0327 09:42:54.121583  4586 net.cpp:570] inception_3b/1x1 -> inception_3b/1x1
I0327 09:42:54.126049  4586 net.cpp:210] Setting up inception_3b/1x1
I0327 09:42:54.126106  4586 net.cpp:217] Top shape: 48 128 28 28 (4816896)
I0327 09:42:54.126116  4586 net.cpp:225] Memory required for data: 1334280960
I0327 09:42:54.126142  4586 layer_factory.hpp:114] Creating layer inception_3b/relu_1x1
I0327 09:42:54.126168  4586 net.cpp:160] Creating Layer inception_3b/relu_1x1
I0327 09:42:54.126180  4586 net.cpp:596] inception_3b/relu_1x1 <- inception_3b/1x1
I0327 09:42:54.126195  4586 net.cpp:557] inception_3b/relu_1x1 -> inception_3b/1x1 (in-place)
I0327 09:42:54.126215  4586 net.cpp:210] Setting up inception_3b/relu_1x1
I0327 09:42:54.126226  4586 net.cpp:217] Top shape: 48 128 28 28 (4816896)
I0327 09:42:54.126235  4586 net.cpp:225] Memory required for data: 1353548544
I0327 09:42:54.126245  4586 layer_factory.hpp:114] Creating layer inception_3b/3x3_reduce
I0327 09:42:54.126267  4586 net.cpp:160] Creating Layer inception_3b/3x3_reduce
I0327 09:42:54.126278  4586 net.cpp:596] inception_3b/3x3_reduce <- inception_3a/output_inception_3a/output_0_split_1
I0327 09:42:54.126296  4586 net.cpp:570] inception_3b/3x3_reduce -> inception_3b/3x3_reduce
I0327 09:42:54.130735  4586 net.cpp:210] Setting up inception_3b/3x3_reduce
I0327 09:42:54.130795  4586 net.cpp:217] Top shape: 48 128 28 28 (4816896)
I0327 09:42:54.130805  4586 net.cpp:225] Memory required for data: 1372816128
I0327 09:42:54.130825  4586 layer_factory.hpp:114] Creating layer inception_3b/relu_3x3_reduce
I0327 09:42:54.130844  4586 net.cpp:160] Creating Layer inception_3b/relu_3x3_reduce
I0327 09:42:54.130856  4586 net.cpp:596] inception_3b/relu_3x3_reduce <- inception_3b/3x3_reduce
I0327 09:42:54.130888  4586 net.cpp:557] inception_3b/relu_3x3_reduce -> inception_3b/3x3_reduce (in-place)
I0327 09:42:54.130908  4586 net.cpp:210] Setting up inception_3b/relu_3x3_reduce
I0327 09:42:54.130919  4586 net.cpp:217] Top shape: 48 128 28 28 (4816896)
I0327 09:42:54.130928  4586 net.cpp:225] Memory required for data: 1392083712
I0327 09:42:54.130936  4586 layer_factory.hpp:114] Creating layer inception_3b/3x3
I0327 09:42:54.130965  4586 net.cpp:160] Creating Layer inception_3b/3x3
I0327 09:42:54.130976  4586 net.cpp:596] inception_3b/3x3 <- inception_3b/3x3_reduce
I0327 09:42:54.130990  4586 net.cpp:570] inception_3b/3x3 -> inception_3b/3x3
I0327 09:42:54.147426  4586 net.cpp:210] Setting up inception_3b/3x3
I0327 09:42:54.147506  4586 net.cpp:217] Top shape: 48 192 28 28 (7225344)
I0327 09:42:54.147516  4586 net.cpp:225] Memory required for data: 1420985088
I0327 09:42:54.147542  4586 layer_factory.hpp:114] Creating layer inception_3b/relu_3x3
I0327 09:42:54.147567  4586 net.cpp:160] Creating Layer inception_3b/relu_3x3
I0327 09:42:54.147579  4586 net.cpp:596] inception_3b/relu_3x3 <- inception_3b/3x3
I0327 09:42:54.147599  4586 net.cpp:557] inception_3b/relu_3x3 -> inception_3b/3x3 (in-place)
I0327 09:42:54.147624  4586 net.cpp:210] Setting up inception_3b/relu_3x3
I0327 09:42:54.147634  4586 net.cpp:217] Top shape: 48 192 28 28 (7225344)
I0327 09:42:54.147644  4586 net.cpp:225] Memory required for data: 1449886464
I0327 09:42:54.147651  4586 layer_factory.hpp:114] Creating layer inception_3b/5x5_reduce
I0327 09:42:54.147678  4586 net.cpp:160] Creating Layer inception_3b/5x5_reduce
I0327 09:42:54.147716  4586 net.cpp:596] inception_3b/5x5_reduce <- inception_3a/output_inception_3a/output_0_split_2
I0327 09:42:54.147730  4586 net.cpp:570] inception_3b/5x5_reduce -> inception_3b/5x5_reduce
I0327 09:42:54.151129  4586 net.cpp:210] Setting up inception_3b/5x5_reduce
I0327 09:42:54.151187  4586 net.cpp:217] Top shape: 48 32 28 28 (1204224)
I0327 09:42:54.151196  4586 net.cpp:225] Memory required for data: 1454703360
I0327 09:42:54.151216  4586 layer_factory.hpp:114] Creating layer inception_3b/relu_5x5_reduce
I0327 09:42:54.151235  4586 net.cpp:160] Creating Layer inception_3b/relu_5x5_reduce
I0327 09:42:54.151247  4586 net.cpp:596] inception_3b/relu_5x5_reduce <- inception_3b/5x5_reduce
I0327 09:42:54.151267  4586 net.cpp:557] inception_3b/relu_5x5_reduce -> inception_3b/5x5_reduce (in-place)
I0327 09:42:54.151286  4586 net.cpp:210] Setting up inception_3b/relu_5x5_reduce
I0327 09:42:54.151298  4586 net.cpp:217] Top shape: 48 32 28 28 (1204224)
I0327 09:42:54.151306  4586 net.cpp:225] Memory required for data: 1459520256
I0327 09:42:54.151314  4586 layer_factory.hpp:114] Creating layer inception_3b/5x5
I0327 09:42:54.151337  4586 net.cpp:160] Creating Layer inception_3b/5x5
I0327 09:42:54.151347  4586 net.cpp:596] inception_3b/5x5 <- inception_3b/5x5_reduce
I0327 09:42:54.151360  4586 net.cpp:570] inception_3b/5x5 -> inception_3b/5x5
I0327 09:42:54.160612  4586 net.cpp:210] Setting up inception_3b/5x5
I0327 09:42:54.160692  4586 net.cpp:217] Top shape: 48 96 28 28 (3612672)
I0327 09:42:54.160703  4586 net.cpp:225] Memory required for data: 1473970944
I0327 09:42:54.160727  4586 layer_factory.hpp:114] Creating layer inception_3b/relu_5x5
I0327 09:42:54.160755  4586 net.cpp:160] Creating Layer inception_3b/relu_5x5
I0327 09:42:54.160768  4586 net.cpp:596] inception_3b/relu_5x5 <- inception_3b/5x5
I0327 09:42:54.160789  4586 net.cpp:557] inception_3b/relu_5x5 -> inception_3b/5x5 (in-place)
I0327 09:42:54.160814  4586 net.cpp:210] Setting up inception_3b/relu_5x5
I0327 09:42:54.160825  4586 net.cpp:217] Top shape: 48 96 28 28 (3612672)
I0327 09:42:54.160832  4586 net.cpp:225] Memory required for data: 1488421632
I0327 09:42:54.160841  4586 layer_factory.hpp:114] Creating layer inception_3b/pool
I0327 09:42:54.160887  4586 net.cpp:160] Creating Layer inception_3b/pool
I0327 09:42:54.160899  4586 net.cpp:596] inception_3b/pool <- inception_3a/output_inception_3a/output_0_split_3
I0327 09:42:54.160912  4586 net.cpp:570] inception_3b/pool -> inception_3b/pool
I0327 09:42:54.160954  4586 net.cpp:210] Setting up inception_3b/pool
I0327 09:42:54.160967  4586 net.cpp:217] Top shape: 48 256 28 28 (9633792)
I0327 09:42:54.160975  4586 net.cpp:225] Memory required for data: 1526956800
I0327 09:42:54.160984  4586 layer_factory.hpp:114] Creating layer inception_3b/pool_proj
I0327 09:42:54.161012  4586 net.cpp:160] Creating Layer inception_3b/pool_proj
I0327 09:42:54.161031  4586 net.cpp:596] inception_3b/pool_proj <- inception_3b/pool
I0327 09:42:54.161044  4586 net.cpp:570] inception_3b/pool_proj -> inception_3b/pool_proj
I0327 09:42:54.163971  4586 net.cpp:210] Setting up inception_3b/pool_proj
I0327 09:42:54.164037  4586 net.cpp:217] Top shape: 48 64 28 28 (2408448)
I0327 09:42:54.164048  4586 net.cpp:225] Memory required for data: 1536590592
I0327 09:42:54.164069  4586 layer_factory.hpp:114] Creating layer inception_3b/relu_pool_proj
I0327 09:42:54.164088  4586 net.cpp:160] Creating Layer inception_3b/relu_pool_proj
I0327 09:42:54.164100  4586 net.cpp:596] inception_3b/relu_pool_proj <- inception_3b/pool_proj
I0327 09:42:54.164119  4586 net.cpp:557] inception_3b/relu_pool_proj -> inception_3b/pool_proj (in-place)
I0327 09:42:54.164144  4586 net.cpp:210] Setting up inception_3b/relu_pool_proj
I0327 09:42:54.164156  4586 net.cpp:217] Top shape: 48 64 28 28 (2408448)
I0327 09:42:54.164165  4586 net.cpp:225] Memory required for data: 1546224384
I0327 09:42:54.164175  4586 layer_factory.hpp:114] Creating layer inception_3b/output
I0327 09:42:54.164186  4586 net.cpp:160] Creating Layer inception_3b/output
I0327 09:42:54.164221  4586 net.cpp:596] inception_3b/output <- inception_3b/1x1
I0327 09:42:54.164232  4586 net.cpp:596] inception_3b/output <- inception_3b/3x3
I0327 09:42:54.164242  4586 net.cpp:596] inception_3b/output <- inception_3b/5x5
I0327 09:42:54.164253  4586 net.cpp:596] inception_3b/output <- inception_3b/pool_proj
I0327 09:42:54.164270  4586 net.cpp:570] inception_3b/output -> inception_3b/output
I0327 09:42:54.164289  4586 net.cpp:210] Setting up inception_3b/output
I0327 09:42:54.164301  4586 net.cpp:217] Top shape: 48 480 28 28 (18063360)
I0327 09:42:54.164309  4586 net.cpp:225] Memory required for data: 1618477824
I0327 09:42:54.164317  4586 layer_factory.hpp:114] Creating layer pool3/3x3_s2
I0327 09:42:54.164361  4586 net.cpp:160] Creating Layer pool3/3x3_s2
I0327 09:42:54.164371  4586 net.cpp:596] pool3/3x3_s2 <- inception_3b/output
I0327 09:42:54.164384  4586 net.cpp:570] pool3/3x3_s2 -> pool3/3x3_s2
I0327 09:42:54.164402  4586 net.cpp:210] Setting up pool3/3x3_s2
I0327 09:42:54.164413  4586 net.cpp:217] Top shape: 48 480 14 14 (4515840)
I0327 09:42:54.164422  4586 net.cpp:225] Memory required for data: 1636541184
I0327 09:42:54.164430  4586 layer_factory.hpp:114] Creating layer pool3/3x3_s2_pool3/3x3_s2_0_split
I0327 09:42:54.164446  4586 net.cpp:160] Creating Layer pool3/3x3_s2_pool3/3x3_s2_0_split
I0327 09:42:54.164455  4586 net.cpp:596] pool3/3x3_s2_pool3/3x3_s2_0_split <- pool3/3x3_s2
I0327 09:42:54.164470  4586 net.cpp:570] pool3/3x3_s2_pool3/3x3_s2_0_split -> pool3/3x3_s2_pool3/3x3_s2_0_split_0
I0327 09:42:54.164484  4586 net.cpp:570] pool3/3x3_s2_pool3/3x3_s2_0_split -> pool3/3x3_s2_pool3/3x3_s2_0_split_1
I0327 09:42:54.164497  4586 net.cpp:570] pool3/3x3_s2_pool3/3x3_s2_0_split -> pool3/3x3_s2_pool3/3x3_s2_0_split_2
I0327 09:42:54.164511  4586 net.cpp:570] pool3/3x3_s2_pool3/3x3_s2_0_split -> pool3/3x3_s2_pool3/3x3_s2_0_split_3
I0327 09:42:54.164527  4586 net.cpp:210] Setting up pool3/3x3_s2_pool3/3x3_s2_0_split
I0327 09:42:54.164538  4586 net.cpp:217] Top shape: 48 480 14 14 (4515840)
I0327 09:42:54.164548  4586 net.cpp:217] Top shape: 48 480 14 14 (4515840)
I0327 09:42:54.164559  4586 net.cpp:217] Top shape: 48 480 14 14 (4515840)
I0327 09:42:54.164569  4586 net.cpp:217] Top shape: 48 480 14 14 (4515840)
I0327 09:42:54.164577  4586 net.cpp:225] Memory required for data: 1708794624
I0327 09:42:54.164587  4586 layer_factory.hpp:114] Creating layer inception_4a/1x1
I0327 09:42:54.164608  4586 net.cpp:160] Creating Layer inception_4a/1x1
I0327 09:42:54.164626  4586 net.cpp:596] inception_4a/1x1 <- pool3/3x3_s2_pool3/3x3_s2_0_split_0
I0327 09:42:54.164640  4586 net.cpp:570] inception_4a/1x1 -> inception_4a/1x1
I0327 09:42:54.170122  4586 net.cpp:210] Setting up inception_4a/1x1
I0327 09:42:54.170181  4586 net.cpp:217] Top shape: 48 192 14 14 (1806336)
I0327 09:42:54.170191  4586 net.cpp:225] Memory required for data: 1716019968
I0327 09:42:54.170210  4586 layer_factory.hpp:114] Creating layer inception_4a/relu_1x1
I0327 09:42:54.170228  4586 net.cpp:160] Creating Layer inception_4a/relu_1x1
I0327 09:42:54.170239  4586 net.cpp:596] inception_4a/relu_1x1 <- inception_4a/1x1
I0327 09:42:54.170258  4586 net.cpp:557] inception_4a/relu_1x1 -> inception_4a/1x1 (in-place)
I0327 09:42:54.170276  4586 net.cpp:210] Setting up inception_4a/relu_1x1
I0327 09:42:54.170287  4586 net.cpp:217] Top shape: 48 192 14 14 (1806336)
I0327 09:42:54.170296  4586 net.cpp:225] Memory required for data: 1723245312
I0327 09:42:54.170305  4586 layer_factory.hpp:114] Creating layer inception_4a/3x3_reduce
I0327 09:42:54.170322  4586 net.cpp:160] Creating Layer inception_4a/3x3_reduce
I0327 09:42:54.170333  4586 net.cpp:596] inception_4a/3x3_reduce <- pool3/3x3_s2_pool3/3x3_s2_0_split_1
I0327 09:42:54.170351  4586 net.cpp:570] inception_4a/3x3_reduce -> inception_4a/3x3_reduce
I0327 09:42:54.173842  4586 net.cpp:210] Setting up inception_4a/3x3_reduce
I0327 09:42:54.173884  4586 net.cpp:217] Top shape: 48 96 14 14 (903168)
I0327 09:42:54.173893  4586 net.cpp:225] Memory required for data: 1726857984
I0327 09:42:54.173954  4586 layer_factory.hpp:114] Creating layer inception_4a/relu_3x3_reduce
I0327 09:42:54.173972  4586 net.cpp:160] Creating Layer inception_4a/relu_3x3_reduce
I0327 09:42:54.173982  4586 net.cpp:596] inception_4a/relu_3x3_reduce <- inception_4a/3x3_reduce
I0327 09:42:54.173998  4586 net.cpp:557] inception_4a/relu_3x3_reduce -> inception_4a/3x3_reduce (in-place)
I0327 09:42:54.174021  4586 net.cpp:210] Setting up inception_4a/relu_3x3_reduce
I0327 09:42:54.174034  4586 net.cpp:217] Top shape: 48 96 14 14 (903168)
I0327 09:42:54.174042  4586 net.cpp:225] Memory required for data: 1730470656
I0327 09:42:54.174052  4586 layer_factory.hpp:114] Creating layer inception_4a/3x3
I0327 09:42:54.174068  4586 net.cpp:160] Creating Layer inception_4a/3x3
I0327 09:42:54.174078  4586 net.cpp:596] inception_4a/3x3 <- inception_4a/3x3_reduce
I0327 09:42:54.174094  4586 net.cpp:570] inception_4a/3x3 -> inception_4a/3x3
I0327 09:42:54.182379  4586 net.cpp:210] Setting up inception_4a/3x3
I0327 09:42:54.182453  4586 net.cpp:217] Top shape: 48 208 14 14 (1956864)
I0327 09:42:54.182462  4586 net.cpp:225] Memory required for data: 1738298112
I0327 09:42:54.182487  4586 layer_factory.hpp:114] Creating layer inception_4a/relu_3x3
I0327 09:42:54.182509  4586 net.cpp:160] Creating Layer inception_4a/relu_3x3
I0327 09:42:54.182523  4586 net.cpp:596] inception_4a/relu_3x3 <- inception_4a/3x3
I0327 09:42:54.182543  4586 net.cpp:557] inception_4a/relu_3x3 -> inception_4a/3x3 (in-place)
I0327 09:42:54.182565  4586 net.cpp:210] Setting up inception_4a/relu_3x3
I0327 09:42:54.182576  4586 net.cpp:217] Top shape: 48 208 14 14 (1956864)
I0327 09:42:54.182585  4586 net.cpp:225] Memory required for data: 1746125568
I0327 09:42:54.182593  4586 layer_factory.hpp:114] Creating layer inception_4a/5x5_reduce
I0327 09:42:54.182618  4586 net.cpp:160] Creating Layer inception_4a/5x5_reduce
I0327 09:42:54.182631  4586 net.cpp:596] inception_4a/5x5_reduce <- pool3/3x3_s2_pool3/3x3_s2_0_split_2
I0327 09:42:54.182644  4586 net.cpp:570] inception_4a/5x5_reduce -> inception_4a/5x5_reduce
I0327 09:42:54.184849  4586 net.cpp:210] Setting up inception_4a/5x5_reduce
I0327 09:42:54.184885  4586 net.cpp:217] Top shape: 48 16 14 14 (150528)
I0327 09:42:54.184893  4586 net.cpp:225] Memory required for data: 1746727680
I0327 09:42:54.184911  4586 layer_factory.hpp:114] Creating layer inception_4a/relu_5x5_reduce
I0327 09:42:54.184926  4586 net.cpp:160] Creating Layer inception_4a/relu_5x5_reduce
I0327 09:42:54.184953  4586 net.cpp:596] inception_4a/relu_5x5_reduce <- inception_4a/5x5_reduce
I0327 09:42:54.184967  4586 net.cpp:557] inception_4a/relu_5x5_reduce -> inception_4a/5x5_reduce (in-place)
I0327 09:42:54.184983  4586 net.cpp:210] Setting up inception_4a/relu_5x5_reduce
I0327 09:42:54.184994  4586 net.cpp:217] Top shape: 48 16 14 14 (150528)
I0327 09:42:54.185003  4586 net.cpp:225] Memory required for data: 1747329792
I0327 09:42:54.185011  4586 layer_factory.hpp:114] Creating layer inception_4a/5x5
I0327 09:42:54.185037  4586 net.cpp:160] Creating Layer inception_4a/5x5
I0327 09:42:54.185048  4586 net.cpp:596] inception_4a/5x5 <- inception_4a/5x5_reduce
I0327 09:42:54.185063  4586 net.cpp:570] inception_4a/5x5 -> inception_4a/5x5
I0327 09:42:54.187432  4586 net.cpp:210] Setting up inception_4a/5x5
I0327 09:42:54.187466  4586 net.cpp:217] Top shape: 48 48 14 14 (451584)
I0327 09:42:54.187475  4586 net.cpp:225] Memory required for data: 1749136128
I0327 09:42:54.187492  4586 layer_factory.hpp:114] Creating layer inception_4a/relu_5x5
I0327 09:42:54.187506  4586 net.cpp:160] Creating Layer inception_4a/relu_5x5
I0327 09:42:54.187516  4586 net.cpp:596] inception_4a/relu_5x5 <- inception_4a/5x5
I0327 09:42:54.187532  4586 net.cpp:557] inception_4a/relu_5x5 -> inception_4a/5x5 (in-place)
I0327 09:42:54.187548  4586 net.cpp:210] Setting up inception_4a/relu_5x5
I0327 09:42:54.187559  4586 net.cpp:217] Top shape: 48 48 14 14 (451584)
I0327 09:42:54.187568  4586 net.cpp:225] Memory required for data: 1750942464
I0327 09:42:54.187577  4586 layer_factory.hpp:114] Creating layer inception_4a/pool
I0327 09:42:54.187643  4586 net.cpp:160] Creating Layer inception_4a/pool
I0327 09:42:54.187654  4586 net.cpp:596] inception_4a/pool <- pool3/3x3_s2_pool3/3x3_s2_0_split_3
I0327 09:42:54.187670  4586 net.cpp:570] inception_4a/pool -> inception_4a/pool
I0327 09:42:54.187690  4586 net.cpp:210] Setting up inception_4a/pool
I0327 09:42:54.187702  4586 net.cpp:217] Top shape: 48 480 14 14 (4515840)
I0327 09:42:54.187711  4586 net.cpp:225] Memory required for data: 1769005824
I0327 09:42:54.187719  4586 layer_factory.hpp:114] Creating layer inception_4a/pool_proj
I0327 09:42:54.187739  4586 net.cpp:160] Creating Layer inception_4a/pool_proj
I0327 09:42:54.187749  4586 net.cpp:596] inception_4a/pool_proj <- inception_4a/pool
I0327 09:42:54.187765  4586 net.cpp:570] inception_4a/pool_proj -> inception_4a/pool_proj
I0327 09:42:54.190659  4586 net.cpp:210] Setting up inception_4a/pool_proj
I0327 09:42:54.190706  4586 net.cpp:217] Top shape: 48 64 14 14 (602112)
I0327 09:42:54.190716  4586 net.cpp:225] Memory required for data: 1771414272
I0327 09:42:54.190732  4586 layer_factory.hpp:114] Creating layer inception_4a/relu_pool_proj
I0327 09:42:54.190758  4586 net.cpp:160] Creating Layer inception_4a/relu_pool_proj
I0327 09:42:54.190770  4586 net.cpp:596] inception_4a/relu_pool_proj <- inception_4a/pool_proj
I0327 09:42:54.190788  4586 net.cpp:557] inception_4a/relu_pool_proj -> inception_4a/pool_proj (in-place)
I0327 09:42:54.190807  4586 net.cpp:210] Setting up inception_4a/relu_pool_proj
I0327 09:42:54.190819  4586 net.cpp:217] Top shape: 48 64 14 14 (602112)
I0327 09:42:54.190827  4586 net.cpp:225] Memory required for data: 1773822720
I0327 09:42:54.190836  4586 layer_factory.hpp:114] Creating layer inception_4a/output
I0327 09:42:54.190848  4586 net.cpp:160] Creating Layer inception_4a/output
I0327 09:42:54.190858  4586 net.cpp:596] inception_4a/output <- inception_4a/1x1
I0327 09:42:54.190868  4586 net.cpp:596] inception_4a/output <- inception_4a/3x3
I0327 09:42:54.190879  4586 net.cpp:596] inception_4a/output <- inception_4a/5x5
I0327 09:42:54.190889  4586 net.cpp:596] inception_4a/output <- inception_4a/pool_proj
I0327 09:42:54.190907  4586 net.cpp:570] inception_4a/output -> inception_4a/output
I0327 09:42:54.190923  4586 net.cpp:210] Setting up inception_4a/output
I0327 09:42:54.190935  4586 net.cpp:217] Top shape: 48 512 14 14 (4816896)
I0327 09:42:54.190943  4586 net.cpp:225] Memory required for data: 1793090304
I0327 09:42:54.190963  4586 layer_factory.hpp:114] Creating layer inception_4a/output_inception_4a/output_0_split
I0327 09:42:54.190978  4586 net.cpp:160] Creating Layer inception_4a/output_inception_4a/output_0_split
I0327 09:42:54.190986  4586 net.cpp:596] inception_4a/output_inception_4a/output_0_split <- inception_4a/output
I0327 09:42:54.191001  4586 net.cpp:570] inception_4a/output_inception_4a/output_0_split -> inception_4a/output_inception_4a/output_0_split_0
I0327 09:42:54.191023  4586 net.cpp:570] inception_4a/output_inception_4a/output_0_split -> inception_4a/output_inception_4a/output_0_split_1
I0327 09:42:54.191040  4586 net.cpp:570] inception_4a/output_inception_4a/output_0_split -> inception_4a/output_inception_4a/output_0_split_2
I0327 09:42:54.191056  4586 net.cpp:570] inception_4a/output_inception_4a/output_0_split -> inception_4a/output_inception_4a/output_0_split_3
I0327 09:42:54.191068  4586 net.cpp:570] inception_4a/output_inception_4a/output_0_split -> inception_4a/output_inception_4a/output_0_split_4
I0327 09:42:54.191088  4586 net.cpp:210] Setting up inception_4a/output_inception_4a/output_0_split
I0327 09:42:54.191100  4586 net.cpp:217] Top shape: 48 512 14 14 (4816896)
I0327 09:42:54.191110  4586 net.cpp:217] Top shape: 48 512 14 14 (4816896)
I0327 09:42:54.191121  4586 net.cpp:217] Top shape: 48 512 14 14 (4816896)
I0327 09:42:54.191131  4586 net.cpp:217] Top shape: 48 512 14 14 (4816896)
I0327 09:42:54.191146  4586 net.cpp:217] Top shape: 48 512 14 14 (4816896)
I0327 09:42:54.191154  4586 net.cpp:225] Memory required for data: 1889428224
I0327 09:42:54.223907  4586 layer_factory.hpp:114] Creating layer loss1/ave_pool
I0327 09:42:54.223959  4586 net.cpp:160] Creating Layer loss1/ave_pool
I0327 09:42:54.223973  4586 net.cpp:596] loss1/ave_pool <- inception_4a/output_inception_4a/output_0_split_0
I0327 09:42:54.223989  4586 net.cpp:570] loss1/ave_pool -> loss1/ave_pool
I0327 09:42:54.224009  4586 net.cpp:210] Setting up loss1/ave_pool
I0327 09:42:54.224053  4586 net.cpp:217] Top shape: 48 512 4 4 (393216)
I0327 09:42:54.224064  4586 net.cpp:225] Memory required for data: 1891001088
I0327 09:42:54.224073  4586 layer_factory.hpp:114] Creating layer loss1/conv
I0327 09:42:54.224095  4586 net.cpp:160] Creating Layer loss1/conv
I0327 09:42:54.224105  4586 net.cpp:596] loss1/conv <- loss1/ave_pool
I0327 09:42:54.224118  4586 net.cpp:570] loss1/conv -> loss1/conv
I0327 09:42:54.226745  4586 net.cpp:210] Setting up loss1/conv
I0327 09:42:54.226778  4586 net.cpp:217] Top shape: 48 128 4 4 (98304)
I0327 09:42:54.226788  4586 net.cpp:225] Memory required for data: 1891394304
I0327 09:42:54.226804  4586 layer_factory.hpp:114] Creating layer loss1/relu_conv
I0327 09:42:54.226817  4586 net.cpp:160] Creating Layer loss1/relu_conv
I0327 09:42:54.226827  4586 net.cpp:596] loss1/relu_conv <- loss1/conv
I0327 09:42:54.226843  4586 net.cpp:557] loss1/relu_conv -> loss1/conv (in-place)
I0327 09:42:54.226864  4586 net.cpp:210] Setting up loss1/relu_conv
I0327 09:42:54.226876  4586 net.cpp:217] Top shape: 48 128 4 4 (98304)
I0327 09:42:54.226884  4586 net.cpp:225] Memory required for data: 1891787520
I0327 09:42:54.226893  4586 layer_factory.hpp:114] Creating layer loss1/fc
I0327 09:42:54.226912  4586 net.cpp:160] Creating Layer loss1/fc
I0327 09:42:54.226922  4586 net.cpp:596] loss1/fc <- loss1/conv
I0327 09:42:54.226938  4586 net.cpp:570] loss1/fc -> loss1/fc
I0327 09:42:54.261667  4586 net.cpp:210] Setting up loss1/fc
I0327 09:42:54.261752  4586 net.cpp:217] Top shape: 48 1024 (49152)
I0327 09:42:54.261764  4586 net.cpp:225] Memory required for data: 1891984128
I0327 09:42:54.261787  4586 layer_factory.hpp:114] Creating layer loss1/relu_fc
I0327 09:42:54.261811  4586 net.cpp:160] Creating Layer loss1/relu_fc
I0327 09:42:54.261826  4586 net.cpp:596] loss1/relu_fc <- loss1/fc
I0327 09:42:54.261843  4586 net.cpp:557] loss1/relu_fc -> loss1/fc (in-place)
I0327 09:42:54.261868  4586 net.cpp:210] Setting up loss1/relu_fc
I0327 09:42:54.261881  4586 net.cpp:217] Top shape: 48 1024 (49152)
I0327 09:42:54.261890  4586 net.cpp:225] Memory required for data: 1892180736
I0327 09:42:54.261917  4586 layer_factory.hpp:114] Creating layer loss1/drop_fc
I0327 09:42:54.261950  4586 net.cpp:160] Creating Layer loss1/drop_fc
I0327 09:42:54.261960  4586 net.cpp:596] loss1/drop_fc <- loss1/fc
I0327 09:42:54.261972  4586 net.cpp:557] loss1/drop_fc -> loss1/fc (in-place)
I0327 09:42:54.261996  4586 net.cpp:210] Setting up loss1/drop_fc
I0327 09:42:54.262006  4586 net.cpp:217] Top shape: 48 1024 (49152)
I0327 09:42:54.262015  4586 net.cpp:225] Memory required for data: 1892377344
I0327 09:42:54.262030  4586 layer_factory.hpp:114] Creating layer loss1/classifier
I0327 09:42:54.262049  4586 net.cpp:160] Creating Layer loss1/classifier
I0327 09:42:54.262059  4586 net.cpp:596] loss1/classifier <- loss1/fc
I0327 09:42:54.262075  4586 net.cpp:570] loss1/classifier -> loss1/classifier
I0327 09:42:54.279479  4586 net.cpp:210] Setting up loss1/classifier
I0327 09:42:54.279531  4586 net.cpp:217] Top shape: 48 1000 (48000)
I0327 09:42:54.279541  4586 net.cpp:225] Memory required for data: 1892569344
I0327 09:42:54.279558  4586 layer_factory.hpp:114] Creating layer loss1/loss
I0327 09:42:54.279580  4586 net.cpp:160] Creating Layer loss1/loss
I0327 09:42:54.279592  4586 net.cpp:596] loss1/loss <- loss1/classifier
I0327 09:42:54.279605  4586 net.cpp:596] loss1/loss <- label_data_1_split_0
I0327 09:42:54.279621  4586 net.cpp:570] loss1/loss -> loss1/loss1
I0327 09:42:54.279646  4586 layer_factory.hpp:114] Creating layer loss1/loss
I0327 09:42:54.279865  4586 net.cpp:210] Setting up loss1/loss
I0327 09:42:54.279906  4586 net.cpp:217] Top shape: (1)
I0327 09:42:54.279916  4586 net.cpp:220]     with loss weight 0.3
I0327 09:42:54.279978  4586 net.cpp:225] Memory required for data: 1892569348
I0327 09:42:54.279988  4586 layer_factory.hpp:114] Creating layer inception_4b/1x1
I0327 09:42:54.280011  4586 net.cpp:160] Creating Layer inception_4b/1x1
I0327 09:42:54.280031  4586 net.cpp:596] inception_4b/1x1 <- inception_4a/output_inception_4a/output_0_split_1
I0327 09:42:54.280050  4586 net.cpp:570] inception_4b/1x1 -> inception_4b/1x1
I0327 09:42:54.284978  4586 net.cpp:210] Setting up inception_4b/1x1
I0327 09:42:54.285044  4586 net.cpp:217] Top shape: 48 160 14 14 (1505280)
I0327 09:42:54.285056  4586 net.cpp:225] Memory required for data: 1898590468
I0327 09:42:54.285078  4586 layer_factory.hpp:114] Creating layer inception_4b/relu_1x1
I0327 09:42:54.285099  4586 net.cpp:160] Creating Layer inception_4b/relu_1x1
I0327 09:42:54.285112  4586 net.cpp:596] inception_4b/relu_1x1 <- inception_4b/1x1
I0327 09:42:54.285126  4586 net.cpp:557] inception_4b/relu_1x1 -> inception_4b/1x1 (in-place)
I0327 09:42:54.285145  4586 net.cpp:210] Setting up inception_4b/relu_1x1
I0327 09:42:54.285157  4586 net.cpp:217] Top shape: 48 160 14 14 (1505280)
I0327 09:42:54.285166  4586 net.cpp:225] Memory required for data: 1904611588
I0327 09:42:54.285176  4586 layer_factory.hpp:114] Creating layer inception_4b/3x3_reduce
I0327 09:42:54.285199  4586 net.cpp:160] Creating Layer inception_4b/3x3_reduce
I0327 09:42:54.285210  4586 net.cpp:596] inception_4b/3x3_reduce <- inception_4a/output_inception_4a/output_0_split_2
I0327 09:42:54.285228  4586 net.cpp:570] inception_4b/3x3_reduce -> inception_4b/3x3_reduce
I0327 09:42:54.289280  4586 net.cpp:210] Setting up inception_4b/3x3_reduce
I0327 09:42:54.289326  4586 net.cpp:217] Top shape: 48 112 14 14 (1053696)
I0327 09:42:54.289335  4586 net.cpp:225] Memory required for data: 1908826372
I0327 09:42:54.289355  4586 layer_factory.hpp:114] Creating layer inception_4b/relu_3x3_reduce
I0327 09:42:54.289376  4586 net.cpp:160] Creating Layer inception_4b/relu_3x3_reduce
I0327 09:42:54.289388  4586 net.cpp:596] inception_4b/relu_3x3_reduce <- inception_4b/3x3_reduce
I0327 09:42:54.289402  4586 net.cpp:557] inception_4b/relu_3x3_reduce -> inception_4b/3x3_reduce (in-place)
I0327 09:42:54.289420  4586 net.cpp:210] Setting up inception_4b/relu_3x3_reduce
I0327 09:42:54.289433  4586 net.cpp:217] Top shape: 48 112 14 14 (1053696)
I0327 09:42:54.289443  4586 net.cpp:225] Memory required for data: 1913041156
I0327 09:42:54.289469  4586 layer_factory.hpp:114] Creating layer inception_4b/3x3
I0327 09:42:54.289490  4586 net.cpp:160] Creating Layer inception_4b/3x3
I0327 09:42:54.289501  4586 net.cpp:596] inception_4b/3x3 <- inception_4b/3x3_reduce
I0327 09:42:54.289517  4586 net.cpp:570] inception_4b/3x3 -> inception_4b/3x3
I0327 09:42:54.299156  4586 net.cpp:210] Setting up inception_4b/3x3
I0327 09:42:54.299235  4586 net.cpp:217] Top shape: 48 224 14 14 (2107392)
I0327 09:42:54.299245  4586 net.cpp:225] Memory required for data: 1921470724
I0327 09:42:54.299270  4586 layer_factory.hpp:114] Creating layer inception_4b/relu_3x3
I0327 09:42:54.299299  4586 net.cpp:160] Creating Layer inception_4b/relu_3x3
I0327 09:42:54.299312  4586 net.cpp:596] inception_4b/relu_3x3 <- inception_4b/3x3
I0327 09:42:54.299329  4586 net.cpp:557] inception_4b/relu_3x3 -> inception_4b/3x3 (in-place)
I0327 09:42:54.299352  4586 net.cpp:210] Setting up inception_4b/relu_3x3
I0327 09:42:54.299363  4586 net.cpp:217] Top shape: 48 224 14 14 (2107392)
I0327 09:42:54.299372  4586 net.cpp:225] Memory required for data: 1929900292
I0327 09:42:54.299381  4586 layer_factory.hpp:114] Creating layer inception_4b/5x5_reduce
I0327 09:42:54.299403  4586 net.cpp:160] Creating Layer inception_4b/5x5_reduce
I0327 09:42:54.299414  4586 net.cpp:596] inception_4b/5x5_reduce <- inception_4a/output_inception_4a/output_0_split_3
I0327 09:42:54.299433  4586 net.cpp:570] inception_4b/5x5_reduce -> inception_4b/5x5_reduce
I0327 09:42:54.301949  4586 net.cpp:210] Setting up inception_4b/5x5_reduce
I0327 09:42:54.302026  4586 net.cpp:217] Top shape: 48 24 14 14 (225792)
I0327 09:42:54.302036  4586 net.cpp:225] Memory required for data: 1930803460
I0327 09:42:54.302053  4586 layer_factory.hpp:114] Creating layer inception_4b/relu_5x5_reduce
I0327 09:42:54.302073  4586 net.cpp:160] Creating Layer inception_4b/relu_5x5_reduce
I0327 09:42:54.302084  4586 net.cpp:596] inception_4b/relu_5x5_reduce <- inception_4b/5x5_reduce
I0327 09:42:54.302098  4586 net.cpp:557] inception_4b/relu_5x5_reduce -> inception_4b/5x5_reduce (in-place)
I0327 09:42:54.302114  4586 net.cpp:210] Setting up inception_4b/relu_5x5_reduce
I0327 09:42:54.302124  4586 net.cpp:217] Top shape: 48 24 14 14 (225792)
I0327 09:42:54.302134  4586 net.cpp:225] Memory required for data: 1931706628
I0327 09:42:54.302142  4586 layer_factory.hpp:114] Creating layer inception_4b/5x5
I0327 09:42:54.302161  4586 net.cpp:160] Creating Layer inception_4b/5x5
I0327 09:42:54.302171  4586 net.cpp:596] inception_4b/5x5 <- inception_4b/5x5_reduce
I0327 09:42:54.302189  4586 net.cpp:570] inception_4b/5x5 -> inception_4b/5x5
I0327 09:42:54.305153  4586 net.cpp:210] Setting up inception_4b/5x5
I0327 09:42:54.305202  4586 net.cpp:217] Top shape: 48 64 14 14 (602112)
I0327 09:42:54.305210  4586 net.cpp:225] Memory required for data: 1934115076
I0327 09:42:54.305229  4586 layer_factory.hpp:114] Creating layer inception_4b/relu_5x5
I0327 09:42:54.305250  4586 net.cpp:160] Creating Layer inception_4b/relu_5x5
I0327 09:42:54.305261  4586 net.cpp:596] inception_4b/relu_5x5 <- inception_4b/5x5
I0327 09:42:54.305275  4586 net.cpp:557] inception_4b/relu_5x5 -> inception_4b/5x5 (in-place)
I0327 09:42:54.305292  4586 net.cpp:210] Setting up inception_4b/relu_5x5
I0327 09:42:54.305305  4586 net.cpp:217] Top shape: 48 64 14 14 (602112)
I0327 09:42:54.305312  4586 net.cpp:225] Memory required for data: 1936523524
I0327 09:42:54.305320  4586 layer_factory.hpp:114] Creating layer inception_4b/pool
I0327 09:42:54.305366  4586 net.cpp:160] Creating Layer inception_4b/pool
I0327 09:42:54.305378  4586 net.cpp:596] inception_4b/pool <- inception_4a/output_inception_4a/output_0_split_4
I0327 09:42:54.305395  4586 net.cpp:570] inception_4b/pool -> inception_4b/pool
I0327 09:42:54.305423  4586 net.cpp:210] Setting up inception_4b/pool
I0327 09:42:54.305438  4586 net.cpp:217] Top shape: 48 512 14 14 (4816896)
I0327 09:42:54.305445  4586 net.cpp:225] Memory required for data: 1955791108
I0327 09:42:54.305454  4586 layer_factory.hpp:114] Creating layer inception_4b/pool_proj
I0327 09:42:54.305495  4586 net.cpp:160] Creating Layer inception_4b/pool_proj
I0327 09:42:54.305506  4586 net.cpp:596] inception_4b/pool_proj <- inception_4b/pool
I0327 09:42:54.305522  4586 net.cpp:570] inception_4b/pool_proj -> inception_4b/pool_proj
I0327 09:42:54.308789  4586 net.cpp:210] Setting up inception_4b/pool_proj
I0327 09:42:54.308830  4586 net.cpp:217] Top shape: 48 64 14 14 (602112)
I0327 09:42:54.308838  4586 net.cpp:225] Memory required for data: 1958199556
I0327 09:42:54.308856  4586 layer_factory.hpp:114] Creating layer inception_4b/relu_pool_proj
I0327 09:42:54.308876  4586 net.cpp:160] Creating Layer inception_4b/relu_pool_proj
I0327 09:42:54.308888  4586 net.cpp:596] inception_4b/relu_pool_proj <- inception_4b/pool_proj
I0327 09:42:54.308903  4586 net.cpp:557] inception_4b/relu_pool_proj -> inception_4b/pool_proj (in-place)
I0327 09:42:54.308920  4586 net.cpp:210] Setting up inception_4b/relu_pool_proj
I0327 09:42:54.308933  4586 net.cpp:217] Top shape: 48 64 14 14 (602112)
I0327 09:42:54.308940  4586 net.cpp:225] Memory required for data: 1960608004
I0327 09:42:54.308949  4586 layer_factory.hpp:114] Creating layer inception_4b/output
I0327 09:42:54.308965  4586 net.cpp:160] Creating Layer inception_4b/output
I0327 09:42:54.308975  4586 net.cpp:596] inception_4b/output <- inception_4b/1x1
I0327 09:42:54.308986  4586 net.cpp:596] inception_4b/output <- inception_4b/3x3
I0327 09:42:54.308996  4586 net.cpp:596] inception_4b/output <- inception_4b/5x5
I0327 09:42:54.309007  4586 net.cpp:596] inception_4b/output <- inception_4b/pool_proj
I0327 09:42:54.309048  4586 net.cpp:570] inception_4b/output -> inception_4b/output
I0327 09:42:54.309067  4586 net.cpp:210] Setting up inception_4b/output
I0327 09:42:54.309078  4586 net.cpp:217] Top shape: 48 512 14 14 (4816896)
I0327 09:42:54.309087  4586 net.cpp:225] Memory required for data: 1979875588
I0327 09:42:54.309095  4586 layer_factory.hpp:114] Creating layer inception_4b/output_inception_4b/output_0_split
I0327 09:42:54.309108  4586 net.cpp:160] Creating Layer inception_4b/output_inception_4b/output_0_split
I0327 09:42:54.309116  4586 net.cpp:596] inception_4b/output_inception_4b/output_0_split <- inception_4b/output
I0327 09:42:54.309131  4586 net.cpp:570] inception_4b/output_inception_4b/output_0_split -> inception_4b/output_inception_4b/output_0_split_0
I0327 09:42:54.309146  4586 net.cpp:570] inception_4b/output_inception_4b/output_0_split -> inception_4b/output_inception_4b/output_0_split_1
I0327 09:42:54.309161  4586 net.cpp:570] inception_4b/output_inception_4b/output_0_split -> inception_4b/output_inception_4b/output_0_split_2
I0327 09:42:54.309175  4586 net.cpp:570] inception_4b/output_inception_4b/output_0_split -> inception_4b/output_inception_4b/output_0_split_3
I0327 09:42:54.309191  4586 net.cpp:210] Setting up inception_4b/output_inception_4b/output_0_split
I0327 09:42:54.309206  4586 net.cpp:217] Top shape: 48 512 14 14 (4816896)
I0327 09:42:54.309216  4586 net.cpp:217] Top shape: 48 512 14 14 (4816896)
I0327 09:42:54.309227  4586 net.cpp:217] Top shape: 48 512 14 14 (4816896)
I0327 09:42:54.309237  4586 net.cpp:217] Top shape: 48 512 14 14 (4816896)
I0327 09:42:54.309245  4586 net.cpp:225] Memory required for data: 2056945924
I0327 09:42:54.309254  4586 layer_factory.hpp:114] Creating layer inception_4c/1x1
I0327 09:42:54.309270  4586 net.cpp:160] Creating Layer inception_4c/1x1
I0327 09:42:54.309280  4586 net.cpp:596] inception_4c/1x1 <- inception_4b/output_inception_4b/output_0_split_0
I0327 09:42:54.309298  4586 net.cpp:570] inception_4c/1x1 -> inception_4c/1x1
I0327 09:42:54.313776  4586 net.cpp:210] Setting up inception_4c/1x1
I0327 09:42:54.313822  4586 net.cpp:217] Top shape: 48 128 14 14 (1204224)
I0327 09:42:54.313832  4586 net.cpp:225] Memory required for data: 2061762820
I0327 09:42:54.313850  4586 layer_factory.hpp:114] Creating layer inception_4c/relu_1x1
I0327 09:42:54.313871  4586 net.cpp:160] Creating Layer inception_4c/relu_1x1
I0327 09:42:54.313884  4586 net.cpp:596] inception_4c/relu_1x1 <- inception_4c/1x1
I0327 09:42:54.313915  4586 net.cpp:557] inception_4c/relu_1x1 -> inception_4c/1x1 (in-place)
I0327 09:42:54.313935  4586 net.cpp:210] Setting up inception_4c/relu_1x1
I0327 09:42:54.313946  4586 net.cpp:217] Top shape: 48 128 14 14 (1204224)
I0327 09:42:54.313954  4586 net.cpp:225] Memory required for data: 2066579716
I0327 09:42:54.313963  4586 layer_factory.hpp:114] Creating layer inception_4c/3x3_reduce
I0327 09:42:54.313983  4586 net.cpp:160] Creating Layer inception_4c/3x3_reduce
I0327 09:42:54.313994  4586 net.cpp:596] inception_4c/3x3_reduce <- inception_4b/output_inception_4b/output_0_split_1
I0327 09:42:54.314008  4586 net.cpp:570] inception_4c/3x3_reduce -> inception_4c/3x3_reduce
I0327 09:42:54.318353  4586 net.cpp:210] Setting up inception_4c/3x3_reduce
I0327 09:42:54.318397  4586 net.cpp:217] Top shape: 48 128 14 14 (1204224)
I0327 09:42:54.318405  4586 net.cpp:225] Memory required for data: 2071396612
I0327 09:42:54.318423  4586 layer_factory.hpp:114] Creating layer inception_4c/relu_3x3_reduce
I0327 09:42:54.318439  4586 net.cpp:160] Creating Layer inception_4c/relu_3x3_reduce
I0327 09:42:54.318450  4586 net.cpp:596] inception_4c/relu_3x3_reduce <- inception_4c/3x3_reduce
I0327 09:42:54.318464  4586 net.cpp:557] inception_4c/relu_3x3_reduce -> inception_4c/3x3_reduce (in-place)
I0327 09:42:54.318480  4586 net.cpp:210] Setting up inception_4c/relu_3x3_reduce
I0327 09:42:54.318491  4586 net.cpp:217] Top shape: 48 128 14 14 (1204224)
I0327 09:42:54.318500  4586 net.cpp:225] Memory required for data: 2076213508
I0327 09:42:54.318538  4586 layer_factory.hpp:114] Creating layer inception_4c/3x3
I0327 09:42:54.318557  4586 net.cpp:160] Creating Layer inception_4c/3x3
I0327 09:42:54.318565  4586 net.cpp:596] inception_4c/3x3 <- inception_4c/3x3_reduce
I0327 09:42:54.318581  4586 net.cpp:570] inception_4c/3x3 -> inception_4c/3x3
I0327 09:42:54.330672  4586 net.cpp:210] Setting up inception_4c/3x3
I0327 09:42:54.330752  4586 net.cpp:217] Top shape: 48 256 14 14 (2408448)
I0327 09:42:54.330762  4586 net.cpp:225] Memory required for data: 2085847300
I0327 09:42:54.330806  4586 layer_factory.hpp:114] Creating layer inception_4c/relu_3x3
I0327 09:42:54.330831  4586 net.cpp:160] Creating Layer inception_4c/relu_3x3
I0327 09:42:54.330844  4586 net.cpp:596] inception_4c/relu_3x3 <- inception_4c/3x3
I0327 09:42:54.330869  4586 net.cpp:557] inception_4c/relu_3x3 -> inception_4c/3x3 (in-place)
I0327 09:42:54.330894  4586 net.cpp:210] Setting up inception_4c/relu_3x3
I0327 09:42:54.330905  4586 net.cpp:217] Top shape: 48 256 14 14 (2408448)
I0327 09:42:54.330914  4586 net.cpp:225] Memory required for data: 2095481092
I0327 09:42:54.330922  4586 layer_factory.hpp:114] Creating layer inception_4c/5x5_reduce
I0327 09:42:54.330945  4586 net.cpp:160] Creating Layer inception_4c/5x5_reduce
I0327 09:42:54.330956  4586 net.cpp:596] inception_4c/5x5_reduce <- inception_4b/output_inception_4b/output_0_split_2
I0327 09:42:54.330971  4586 net.cpp:570] inception_4c/5x5_reduce -> inception_4c/5x5_reduce
I0327 09:42:54.333488  4586 net.cpp:210] Setting up inception_4c/5x5_reduce
I0327 09:42:54.333525  4586 net.cpp:217] Top shape: 48 24 14 14 (225792)
I0327 09:42:54.333534  4586 net.cpp:225] Memory required for data: 2096384260
I0327 09:42:54.333552  4586 layer_factory.hpp:114] Creating layer inception_4c/relu_5x5_reduce
I0327 09:42:54.333575  4586 net.cpp:160] Creating Layer inception_4c/relu_5x5_reduce
I0327 09:42:54.333587  4586 net.cpp:596] inception_4c/relu_5x5_reduce <- inception_4c/5x5_reduce
I0327 09:42:54.333607  4586 net.cpp:557] inception_4c/relu_5x5_reduce -> inception_4c/5x5_reduce (in-place)
I0327 09:42:54.333624  4586 net.cpp:210] Setting up inception_4c/relu_5x5_reduce
I0327 09:42:54.333636  4586 net.cpp:217] Top shape: 48 24 14 14 (225792)
I0327 09:42:54.333644  4586 net.cpp:225] Memory required for data: 2097287428
I0327 09:42:54.333652  4586 layer_factory.hpp:114] Creating layer inception_4c/5x5
I0327 09:42:54.333669  4586 net.cpp:160] Creating Layer inception_4c/5x5
I0327 09:42:54.333679  4586 net.cpp:596] inception_4c/5x5 <- inception_4c/5x5_reduce
I0327 09:42:54.333712  4586 net.cpp:570] inception_4c/5x5 -> inception_4c/5x5
I0327 09:42:54.337386  4586 net.cpp:210] Setting up inception_4c/5x5
I0327 09:42:54.337433  4586 net.cpp:217] Top shape: 48 64 14 14 (602112)
I0327 09:42:54.337443  4586 net.cpp:225] Memory required for data: 2099695876
I0327 09:42:54.337461  4586 layer_factory.hpp:114] Creating layer inception_4c/relu_5x5
I0327 09:42:54.337481  4586 net.cpp:160] Creating Layer inception_4c/relu_5x5
I0327 09:42:54.337493  4586 net.cpp:596] inception_4c/relu_5x5 <- inception_4c/5x5
I0327 09:42:54.337507  4586 net.cpp:557] inception_4c/relu_5x5 -> inception_4c/5x5 (in-place)
I0327 09:42:54.337523  4586 net.cpp:210] Setting up inception_4c/relu_5x5
I0327 09:42:54.337534  4586 net.cpp:217] Top shape: 48 64 14 14 (602112)
I0327 09:42:54.337543  4586 net.cpp:225] Memory required for data: 2102104324
I0327 09:42:54.337551  4586 layer_factory.hpp:114] Creating layer inception_4c/pool
I0327 09:42:54.337601  4586 net.cpp:160] Creating Layer inception_4c/pool
I0327 09:42:54.337613  4586 net.cpp:596] inception_4c/pool <- inception_4b/output_inception_4b/output_0_split_3
I0327 09:42:54.337626  4586 net.cpp:570] inception_4c/pool -> inception_4c/pool
I0327 09:42:54.337647  4586 net.cpp:210] Setting up inception_4c/pool
I0327 09:42:54.337658  4586 net.cpp:217] Top shape: 48 512 14 14 (4816896)
I0327 09:42:54.337667  4586 net.cpp:225] Memory required for data: 2121371908
I0327 09:42:54.337676  4586 layer_factory.hpp:114] Creating layer inception_4c/pool_proj
I0327 09:42:54.337720  4586 net.cpp:160] Creating Layer inception_4c/pool_proj
I0327 09:42:54.337730  4586 net.cpp:596] inception_4c/pool_proj <- inception_4c/pool
I0327 09:42:54.337748  4586 net.cpp:570] inception_4c/pool_proj -> inception_4c/pool_proj
I0327 09:42:54.340219  4586 net.cpp:210] Setting up inception_4c/pool_proj
I0327 09:42:54.340260  4586 net.cpp:217] Top shape: 48 64 14 14 (602112)
I0327 09:42:54.340268  4586 net.cpp:225] Memory required for data: 2123780356
I0327 09:42:54.340286  4586 layer_factory.hpp:114] Creating layer inception_4c/relu_pool_proj
I0327 09:42:54.340306  4586 net.cpp:160] Creating Layer inception_4c/relu_pool_proj
I0327 09:42:54.340317  4586 net.cpp:596] inception_4c/relu_pool_proj <- inception_4c/pool_proj
I0327 09:42:54.340334  4586 net.cpp:557] inception_4c/relu_pool_proj -> inception_4c/pool_proj (in-place)
I0327 09:42:54.340353  4586 net.cpp:210] Setting up inception_4c/relu_pool_proj
I0327 09:42:54.340363  4586 net.cpp:217] Top shape: 48 64 14 14 (602112)
I0327 09:42:54.340371  4586 net.cpp:225] Memory required for data: 2126188804
I0327 09:42:54.340380  4586 layer_factory.hpp:114] Creating layer inception_4c/output
I0327 09:42:54.340392  4586 net.cpp:160] Creating Layer inception_4c/output
I0327 09:42:54.340402  4586 net.cpp:596] inception_4c/output <- inception_4c/1x1
I0327 09:42:54.340412  4586 net.cpp:596] inception_4c/output <- inception_4c/3x3
I0327 09:42:54.340423  4586 net.cpp:596] inception_4c/output <- inception_4c/5x5
I0327 09:42:54.340435  4586 net.cpp:596] inception_4c/output <- inception_4c/pool_proj
I0327 09:42:54.340445  4586 net.cpp:570] inception_4c/output -> inception_4c/output
I0327 09:42:54.340462  4586 net.cpp:210] Setting up inception_4c/output
I0327 09:42:54.340474  4586 net.cpp:217] Top shape: 48 512 14 14 (4816896)
I0327 09:42:54.340482  4586 net.cpp:225] Memory required for data: 2145456388
I0327 09:42:54.340490  4586 layer_factory.hpp:114] Creating layer inception_4c/output_inception_4c/output_0_split
I0327 09:42:54.340502  4586 net.cpp:160] Creating Layer inception_4c/output_inception_4c/output_0_split
I0327 09:42:54.340512  4586 net.cpp:596] inception_4c/output_inception_4c/output_0_split <- inception_4c/output
I0327 09:42:54.340526  4586 net.cpp:570] inception_4c/output_inception_4c/output_0_split -> inception_4c/output_inception_4c/output_0_split_0
I0327 09:42:54.340543  4586 net.cpp:570] inception_4c/output_inception_4c/output_0_split -> inception_4c/output_inception_4c/output_0_split_1
I0327 09:42:54.340572  4586 net.cpp:570] inception_4c/output_inception_4c/output_0_split -> inception_4c/output_inception_4c/output_0_split_2
I0327 09:42:54.340590  4586 net.cpp:570] inception_4c/output_inception_4c/output_0_split -> inception_4c/output_inception_4c/output_0_split_3
I0327 09:42:54.340607  4586 net.cpp:210] Setting up inception_4c/output_inception_4c/output_0_split
I0327 09:42:54.340618  4586 net.cpp:217] Top shape: 48 512 14 14 (4816896)
I0327 09:42:54.340628  4586 net.cpp:217] Top shape: 48 512 14 14 (4816896)
I0327 09:42:54.340639  4586 net.cpp:217] Top shape: 48 512 14 14 (4816896)
I0327 09:42:54.340649  4586 net.cpp:217] Top shape: 48 512 14 14 (4816896)
I0327 09:42:54.340657  4586 net.cpp:225] Memory required for data: 2222526724
I0327 09:42:54.340667  4586 layer_factory.hpp:114] Creating layer inception_4d/1x1
I0327 09:42:54.340687  4586 net.cpp:160] Creating Layer inception_4d/1x1
I0327 09:42:54.340697  4586 net.cpp:596] inception_4d/1x1 <- inception_4c/output_inception_4c/output_0_split_0
I0327 09:42:54.340713  4586 net.cpp:570] inception_4d/1x1 -> inception_4d/1x1
I0327 09:42:54.344681  4586 net.cpp:210] Setting up inception_4d/1x1
I0327 09:42:54.344724  4586 net.cpp:217] Top shape: 48 112 14 14 (1053696)
I0327 09:42:54.344733  4586 net.cpp:225] Memory required for data: 2226741508
I0327 09:42:54.344753  4586 layer_factory.hpp:114] Creating layer inception_4d/relu_1x1
I0327 09:42:54.344771  4586 net.cpp:160] Creating Layer inception_4d/relu_1x1
I0327 09:42:54.344784  4586 net.cpp:596] inception_4d/relu_1x1 <- inception_4d/1x1
I0327 09:42:54.344820  4586 net.cpp:557] inception_4d/relu_1x1 -> inception_4d/1x1 (in-place)
I0327 09:42:54.344837  4586 net.cpp:210] Setting up inception_4d/relu_1x1
I0327 09:42:54.344849  4586 net.cpp:217] Top shape: 48 112 14 14 (1053696)
I0327 09:42:54.344862  4586 net.cpp:225] Memory required for data: 2230956292
I0327 09:42:54.344871  4586 layer_factory.hpp:114] Creating layer inception_4d/3x3_reduce
I0327 09:42:54.344893  4586 net.cpp:160] Creating Layer inception_4d/3x3_reduce
I0327 09:42:54.344904  4586 net.cpp:596] inception_4d/3x3_reduce <- inception_4c/output_inception_4c/output_0_split_1
I0327 09:42:54.344925  4586 net.cpp:570] inception_4d/3x3_reduce -> inception_4d/3x3_reduce
I0327 09:42:54.349656  4586 net.cpp:210] Setting up inception_4d/3x3_reduce
I0327 09:42:54.349704  4586 net.cpp:217] Top shape: 48 144 14 14 (1354752)
I0327 09:42:54.349712  4586 net.cpp:225] Memory required for data: 2236375300
I0327 09:42:54.349730  4586 layer_factory.hpp:114] Creating layer inception_4d/relu_3x3_reduce
I0327 09:42:54.349748  4586 net.cpp:160] Creating Layer inception_4d/relu_3x3_reduce
I0327 09:42:54.349759  4586 net.cpp:596] inception_4d/relu_3x3_reduce <- inception_4d/3x3_reduce
I0327 09:42:54.349773  4586 net.cpp:557] inception_4d/relu_3x3_reduce -> inception_4d/3x3_reduce (in-place)
I0327 09:42:54.349792  4586 net.cpp:210] Setting up inception_4d/relu_3x3_reduce
I0327 09:42:54.349802  4586 net.cpp:217] Top shape: 48 144 14 14 (1354752)
I0327 09:42:54.349810  4586 net.cpp:225] Memory required for data: 2241794308
I0327 09:42:54.349819  4586 layer_factory.hpp:114] Creating layer inception_4d/3x3
I0327 09:42:54.349840  4586 net.cpp:160] Creating Layer inception_4d/3x3
I0327 09:42:54.349851  4586 net.cpp:596] inception_4d/3x3 <- inception_4d/3x3_reduce
I0327 09:42:54.349870  4586 net.cpp:570] inception_4d/3x3 -> inception_4d/3x3
I0327 09:42:54.364729  4586 net.cpp:210] Setting up inception_4d/3x3
I0327 09:42:54.364811  4586 net.cpp:217] Top shape: 48 288 14 14 (2709504)
I0327 09:42:54.364820  4586 net.cpp:225] Memory required for data: 2252632324
I0327 09:42:54.364846  4586 layer_factory.hpp:114] Creating layer inception_4d/relu_3x3
I0327 09:42:54.364884  4586 net.cpp:160] Creating Layer inception_4d/relu_3x3
I0327 09:42:54.364899  4586 net.cpp:596] inception_4d/relu_3x3 <- inception_4d/3x3
I0327 09:42:54.364917  4586 net.cpp:557] inception_4d/relu_3x3 -> inception_4d/3x3 (in-place)
I0327 09:42:54.364940  4586 net.cpp:210] Setting up inception_4d/relu_3x3
I0327 09:42:54.364953  4586 net.cpp:217] Top shape: 48 288 14 14 (2709504)
I0327 09:42:54.364977  4586 net.cpp:225] Memory required for data: 2263470340
I0327 09:42:54.364986  4586 layer_factory.hpp:114] Creating layer inception_4d/5x5_reduce
I0327 09:42:54.365010  4586 net.cpp:160] Creating Layer inception_4d/5x5_reduce
I0327 09:42:54.365026  4586 net.cpp:596] inception_4d/5x5_reduce <- inception_4c/output_inception_4c/output_0_split_2
I0327 09:42:54.365046  4586 net.cpp:570] inception_4d/5x5_reduce -> inception_4d/5x5_reduce
I0327 09:42:54.367566  4586 net.cpp:210] Setting up inception_4d/5x5_reduce
I0327 09:42:54.367604  4586 net.cpp:217] Top shape: 48 32 14 14 (301056)
I0327 09:42:54.367611  4586 net.cpp:225] Memory required for data: 2264674564
I0327 09:42:54.367630  4586 layer_factory.hpp:114] Creating layer inception_4d/relu_5x5_reduce
I0327 09:42:54.367648  4586 net.cpp:160] Creating Layer inception_4d/relu_5x5_reduce
I0327 09:42:54.367660  4586 net.cpp:596] inception_4d/relu_5x5_reduce <- inception_4d/5x5_reduce
I0327 09:42:54.367673  4586 net.cpp:557] inception_4d/relu_5x5_reduce -> inception_4d/5x5_reduce (in-place)
I0327 09:42:54.367689  4586 net.cpp:210] Setting up inception_4d/relu_5x5_reduce
I0327 09:42:54.367702  4586 net.cpp:217] Top shape: 48 32 14 14 (301056)
I0327 09:42:54.367709  4586 net.cpp:225] Memory required for data: 2265878788
I0327 09:42:54.367718  4586 layer_factory.hpp:114] Creating layer inception_4d/5x5
I0327 09:42:54.367738  4586 net.cpp:160] Creating Layer inception_4d/5x5
I0327 09:42:54.367748  4586 net.cpp:596] inception_4d/5x5 <- inception_4d/5x5_reduce
I0327 09:42:54.367785  4586 net.cpp:570] inception_4d/5x5 -> inception_4d/5x5
I0327 09:42:54.372050  4586 net.cpp:210] Setting up inception_4d/5x5
I0327 09:42:54.372104  4586 net.cpp:217] Top shape: 48 64 14 14 (602112)
I0327 09:42:54.372113  4586 net.cpp:225] Memory required for data: 2268287236
I0327 09:42:54.372134  4586 layer_factory.hpp:114] Creating layer inception_4d/relu_5x5
I0327 09:42:54.372153  4586 net.cpp:160] Creating Layer inception_4d/relu_5x5
I0327 09:42:54.372164  4586 net.cpp:596] inception_4d/relu_5x5 <- inception_4d/5x5
I0327 09:42:54.372182  4586 net.cpp:557] inception_4d/relu_5x5 -> inception_4d/5x5 (in-place)
I0327 09:42:54.372201  4586 net.cpp:210] Setting up inception_4d/relu_5x5
I0327 09:42:54.372213  4586 net.cpp:217] Top shape: 48 64 14 14 (602112)
I0327 09:42:54.372221  4586 net.cpp:225] Memory required for data: 2270695684
I0327 09:42:54.372231  4586 layer_factory.hpp:114] Creating layer inception_4d/pool
I0327 09:42:54.372277  4586 net.cpp:160] Creating Layer inception_4d/pool
I0327 09:42:54.372288  4586 net.cpp:596] inception_4d/pool <- inception_4c/output_inception_4c/output_0_split_3
I0327 09:42:54.372304  4586 net.cpp:570] inception_4d/pool -> inception_4d/pool
I0327 09:42:54.372326  4586 net.cpp:210] Setting up inception_4d/pool
I0327 09:42:54.372339  4586 net.cpp:217] Top shape: 48 512 14 14 (4816896)
I0327 09:42:54.372346  4586 net.cpp:225] Memory required for data: 2289963268
I0327 09:42:54.372355  4586 layer_factory.hpp:114] Creating layer inception_4d/pool_proj
I0327 09:42:54.372382  4586 net.cpp:160] Creating Layer inception_4d/pool_proj
I0327 09:42:54.372392  4586 net.cpp:596] inception_4d/pool_proj <- inception_4d/pool
I0327 09:42:54.372409  4586 net.cpp:570] inception_4d/pool_proj -> inception_4d/pool_proj
I0327 09:42:54.375516  4586 net.cpp:210] Setting up inception_4d/pool_proj
I0327 09:42:54.375555  4586 net.cpp:217] Top shape: 48 64 14 14 (602112)
I0327 09:42:54.375564  4586 net.cpp:225] Memory required for data: 2292371716
I0327 09:42:54.375581  4586 layer_factory.hpp:114] Creating layer inception_4d/relu_pool_proj
I0327 09:42:54.375600  4586 net.cpp:160] Creating Layer inception_4d/relu_pool_proj
I0327 09:42:54.375612  4586 net.cpp:596] inception_4d/relu_pool_proj <- inception_4d/pool_proj
I0327 09:42:54.375625  4586 net.cpp:557] inception_4d/relu_pool_proj -> inception_4d/pool_proj (in-place)
I0327 09:42:54.375643  4586 net.cpp:210] Setting up inception_4d/relu_pool_proj
I0327 09:42:54.375654  4586 net.cpp:217] Top shape: 48 64 14 14 (602112)
I0327 09:42:54.375680  4586 net.cpp:225] Memory required for data: 2294780164
I0327 09:42:54.375689  4586 layer_factory.hpp:114] Creating layer inception_4d/output
I0327 09:42:54.375706  4586 net.cpp:160] Creating Layer inception_4d/output
I0327 09:42:54.375716  4586 net.cpp:596] inception_4d/output <- inception_4d/1x1
I0327 09:42:54.375726  4586 net.cpp:596] inception_4d/output <- inception_4d/3x3
I0327 09:42:54.375737  4586 net.cpp:596] inception_4d/output <- inception_4d/5x5
I0327 09:42:54.375748  4586 net.cpp:596] inception_4d/output <- inception_4d/pool_proj
I0327 09:42:54.375761  4586 net.cpp:570] inception_4d/output -> inception_4d/output
I0327 09:42:54.375778  4586 net.cpp:210] Setting up inception_4d/output
I0327 09:42:54.375789  4586 net.cpp:217] Top shape: 48 528 14 14 (4967424)
I0327 09:42:54.375798  4586 net.cpp:225] Memory required for data: 2314649860
I0327 09:42:54.375807  4586 layer_factory.hpp:114] Creating layer inception_4d/output_inception_4d/output_0_split
I0327 09:42:54.375819  4586 net.cpp:160] Creating Layer inception_4d/output_inception_4d/output_0_split
I0327 09:42:54.375828  4586 net.cpp:596] inception_4d/output_inception_4d/output_0_split <- inception_4d/output
I0327 09:42:54.375844  4586 net.cpp:570] inception_4d/output_inception_4d/output_0_split -> inception_4d/output_inception_4d/output_0_split_0
I0327 09:42:54.375865  4586 net.cpp:570] inception_4d/output_inception_4d/output_0_split -> inception_4d/output_inception_4d/output_0_split_1
I0327 09:42:54.375880  4586 net.cpp:570] inception_4d/output_inception_4d/output_0_split -> inception_4d/output_inception_4d/output_0_split_2
I0327 09:42:54.375915  4586 net.cpp:570] inception_4d/output_inception_4d/output_0_split -> inception_4d/output_inception_4d/output_0_split_3
I0327 09:42:54.375928  4586 net.cpp:570] inception_4d/output_inception_4d/output_0_split -> inception_4d/output_inception_4d/output_0_split_4
I0327 09:42:54.375949  4586 net.cpp:210] Setting up inception_4d/output_inception_4d/output_0_split
I0327 09:42:54.375960  4586 net.cpp:217] Top shape: 48 528 14 14 (4967424)
I0327 09:42:54.375972  4586 net.cpp:217] Top shape: 48 528 14 14 (4967424)
I0327 09:42:54.375982  4586 net.cpp:217] Top shape: 48 528 14 14 (4967424)
I0327 09:42:54.375993  4586 net.cpp:217] Top shape: 48 528 14 14 (4967424)
I0327 09:42:54.376003  4586 net.cpp:217] Top shape: 48 528 14 14 (4967424)
I0327 09:42:54.376010  4586 net.cpp:225] Memory required for data: 2413998340
I0327 09:42:54.376025  4586 layer_factory.hpp:114] Creating layer loss2/ave_pool
I0327 09:42:54.376065  4586 net.cpp:160] Creating Layer loss2/ave_pool
I0327 09:42:54.376076  4586 net.cpp:596] loss2/ave_pool <- inception_4d/output_inception_4d/output_0_split_0
I0327 09:42:54.376092  4586 net.cpp:570] loss2/ave_pool -> loss2/ave_pool
I0327 09:42:54.376109  4586 net.cpp:210] Setting up loss2/ave_pool
I0327 09:42:54.376121  4586 net.cpp:217] Top shape: 48 528 4 4 (405504)
I0327 09:42:54.376129  4586 net.cpp:225] Memory required for data: 2415620356
I0327 09:42:54.376137  4586 layer_factory.hpp:114] Creating layer loss2/conv
I0327 09:42:54.376158  4586 net.cpp:160] Creating Layer loss2/conv
I0327 09:42:54.376168  4586 net.cpp:596] loss2/conv <- loss2/ave_pool
I0327 09:42:54.376184  4586 net.cpp:570] loss2/conv -> loss2/conv
I0327 09:42:54.378942  4586 net.cpp:210] Setting up loss2/conv
I0327 09:42:54.378973  4586 net.cpp:217] Top shape: 48 128 4 4 (98304)
I0327 09:42:54.378983  4586 net.cpp:225] Memory required for data: 2416013572
I0327 09:42:54.378998  4586 layer_factory.hpp:114] Creating layer loss2/relu_conv
I0327 09:42:54.379014  4586 net.cpp:160] Creating Layer loss2/relu_conv
I0327 09:42:54.379056  4586 net.cpp:596] loss2/relu_conv <- loss2/conv
I0327 09:42:54.379072  4586 net.cpp:557] loss2/relu_conv -> loss2/conv (in-place)
I0327 09:42:54.379088  4586 net.cpp:210] Setting up loss2/relu_conv
I0327 09:42:54.379099  4586 net.cpp:217] Top shape: 48 128 4 4 (98304)
I0327 09:42:54.379108  4586 net.cpp:225] Memory required for data: 2416406788
I0327 09:42:54.379127  4586 layer_factory.hpp:114] Creating layer loss2/fc
I0327 09:42:54.379148  4586 net.cpp:160] Creating Layer loss2/fc
I0327 09:42:54.379156  4586 net.cpp:596] loss2/fc <- loss2/conv
I0327 09:42:54.379173  4586 net.cpp:570] loss2/fc -> loss2/fc
I0327 09:42:54.413895  4586 net.cpp:210] Setting up loss2/fc
I0327 09:42:54.413971  4586 net.cpp:217] Top shape: 48 1024 (49152)
I0327 09:42:54.413981  4586 net.cpp:225] Memory required for data: 2416603396
I0327 09:42:54.414005  4586 layer_factory.hpp:114] Creating layer loss2/relu_fc
I0327 09:42:54.414033  4586 net.cpp:160] Creating Layer loss2/relu_fc
I0327 09:42:54.414048  4586 net.cpp:596] loss2/relu_fc <- loss2/fc
I0327 09:42:54.414069  4586 net.cpp:557] loss2/relu_fc -> loss2/fc (in-place)
I0327 09:42:54.414089  4586 net.cpp:210] Setting up loss2/relu_fc
I0327 09:42:54.414101  4586 net.cpp:217] Top shape: 48 1024 (49152)
I0327 09:42:54.414109  4586 net.cpp:225] Memory required for data: 2416800004
I0327 09:42:54.414119  4586 layer_factory.hpp:114] Creating layer loss2/drop_fc
I0327 09:42:54.414132  4586 net.cpp:160] Creating Layer loss2/drop_fc
I0327 09:42:54.414141  4586 net.cpp:596] loss2/drop_fc <- loss2/fc
I0327 09:42:54.414153  4586 net.cpp:557] loss2/drop_fc -> loss2/fc (in-place)
I0327 09:42:54.414168  4586 net.cpp:210] Setting up loss2/drop_fc
I0327 09:42:54.414180  4586 net.cpp:217] Top shape: 48 1024 (49152)
I0327 09:42:54.414187  4586 net.cpp:225] Memory required for data: 2416996612
I0327 09:42:54.414196  4586 layer_factory.hpp:114] Creating layer loss2/classifier
I0327 09:42:54.414214  4586 net.cpp:160] Creating Layer loss2/classifier
I0327 09:42:54.414252  4586 net.cpp:596] loss2/classifier <- loss2/fc
I0327 09:42:54.414269  4586 net.cpp:570] loss2/classifier -> loss2/classifier
I0327 09:42:54.431563  4586 net.cpp:210] Setting up loss2/classifier
I0327 09:42:54.431617  4586 net.cpp:217] Top shape: 48 1000 (48000)
I0327 09:42:54.431625  4586 net.cpp:225] Memory required for data: 2417188612
I0327 09:42:54.431644  4586 layer_factory.hpp:114] Creating layer loss2/loss
I0327 09:42:54.431663  4586 net.cpp:160] Creating Layer loss2/loss
I0327 09:42:54.431675  4586 net.cpp:596] loss2/loss <- loss2/classifier
I0327 09:42:54.431689  4586 net.cpp:596] loss2/loss <- label_data_1_split_1
I0327 09:42:54.431702  4586 net.cpp:570] loss2/loss -> loss2/loss1
I0327 09:42:54.431723  4586 layer_factory.hpp:114] Creating layer loss2/loss
I0327 09:42:54.431954  4586 net.cpp:210] Setting up loss2/loss
I0327 09:42:54.431972  4586 net.cpp:217] Top shape: (1)
I0327 09:42:54.431980  4586 net.cpp:220]     with loss weight 0.3
I0327 09:42:54.432008  4586 net.cpp:225] Memory required for data: 2417188616
I0327 09:42:54.432023  4586 layer_factory.hpp:114] Creating layer inception_4e/1x1
I0327 09:42:54.432045  4586 net.cpp:160] Creating Layer inception_4e/1x1
I0327 09:42:54.432057  4586 net.cpp:596] inception_4e/1x1 <- inception_4d/output_inception_4d/output_0_split_1
I0327 09:42:54.432075  4586 net.cpp:570] inception_4e/1x1 -> inception_4e/1x1
I0327 09:42:54.438354  4586 net.cpp:210] Setting up inception_4e/1x1
I0327 09:42:54.438419  4586 net.cpp:217] Top shape: 48 256 14 14 (2408448)
I0327 09:42:54.438428  4586 net.cpp:225] Memory required for data: 2426822408
I0327 09:42:54.438452  4586 layer_factory.hpp:114] Creating layer inception_4e/relu_1x1
I0327 09:42:54.438472  4586 net.cpp:160] Creating Layer inception_4e/relu_1x1
I0327 09:42:54.438485  4586 net.cpp:596] inception_4e/relu_1x1 <- inception_4e/1x1
I0327 09:42:54.438504  4586 net.cpp:557] inception_4e/relu_1x1 -> inception_4e/1x1 (in-place)
I0327 09:42:54.438525  4586 net.cpp:210] Setting up inception_4e/relu_1x1
I0327 09:42:54.438537  4586 net.cpp:217] Top shape: 48 256 14 14 (2408448)
I0327 09:42:54.438545  4586 net.cpp:225] Memory required for data: 2436456200
I0327 09:42:54.438555  4586 layer_factory.hpp:114] Creating layer inception_4e/3x3_reduce
I0327 09:42:54.438577  4586 net.cpp:160] Creating Layer inception_4e/3x3_reduce
I0327 09:42:54.438588  4586 net.cpp:596] inception_4e/3x3_reduce <- inception_4d/output_inception_4d/output_0_split_2
I0327 09:42:54.438621  4586 net.cpp:570] inception_4e/3x3_reduce -> inception_4e/3x3_reduce
I0327 09:42:54.443110  4586 net.cpp:210] Setting up inception_4e/3x3_reduce
I0327 09:42:54.443167  4586 net.cpp:217] Top shape: 48 160 14 14 (1505280)
I0327 09:42:54.443177  4586 net.cpp:225] Memory required for data: 2442477320
I0327 09:42:54.443198  4586 layer_factory.hpp:114] Creating layer inception_4e/relu_3x3_reduce
I0327 09:42:54.443217  4586 net.cpp:160] Creating Layer inception_4e/relu_3x3_reduce
I0327 09:42:54.443229  4586 net.cpp:596] inception_4e/relu_3x3_reduce <- inception_4e/3x3_reduce
I0327 09:42:54.443248  4586 net.cpp:557] inception_4e/relu_3x3_reduce -> inception_4e/3x3_reduce (in-place)
I0327 09:42:54.443269  4586 net.cpp:210] Setting up inception_4e/relu_3x3_reduce
I0327 09:42:54.443279  4586 net.cpp:217] Top shape: 48 160 14 14 (1505280)
I0327 09:42:54.443287  4586 net.cpp:225] Memory required for data: 2448498440
I0327 09:42:54.443296  4586 layer_factory.hpp:114] Creating layer inception_4e/3x3
I0327 09:42:54.443318  4586 net.cpp:160] Creating Layer inception_4e/3x3
I0327 09:42:54.443328  4586 net.cpp:596] inception_4e/3x3 <- inception_4e/3x3_reduce
I0327 09:42:54.443341  4586 net.cpp:570] inception_4e/3x3 -> inception_4e/3x3
I0327 09:42:54.460033  4586 net.cpp:210] Setting up inception_4e/3x3
I0327 09:42:54.460115  4586 net.cpp:217] Top shape: 48 320 14 14 (3010560)
I0327 09:42:54.460124  4586 net.cpp:225] Memory required for data: 2460540680
I0327 09:42:54.460150  4586 layer_factory.hpp:114] Creating layer inception_4e/relu_3x3
I0327 09:42:54.460207  4586 net.cpp:160] Creating Layer inception_4e/relu_3x3
I0327 09:42:54.460223  4586 net.cpp:596] inception_4e/relu_3x3 <- inception_4e/3x3
I0327 09:42:54.460242  4586 net.cpp:557] inception_4e/relu_3x3 -> inception_4e/3x3 (in-place)
I0327 09:42:54.460264  4586 net.cpp:210] Setting up inception_4e/relu_3x3
I0327 09:42:54.460275  4586 net.cpp:217] Top shape: 48 320 14 14 (3010560)
I0327 09:42:54.460284  4586 net.cpp:225] Memory required for data: 2472582920
I0327 09:42:54.460292  4586 layer_factory.hpp:114] Creating layer inception_4e/5x5_reduce
I0327 09:42:54.460316  4586 net.cpp:160] Creating Layer inception_4e/5x5_reduce
I0327 09:42:54.460326  4586 net.cpp:596] inception_4e/5x5_reduce <- inception_4d/output_inception_4d/output_0_split_3
I0327 09:42:54.460345  4586 net.cpp:570] inception_4e/5x5_reduce -> inception_4e/5x5_reduce
I0327 09:42:54.463062  4586 net.cpp:210] Setting up inception_4e/5x5_reduce
I0327 09:42:54.463101  4586 net.cpp:217] Top shape: 48 32 14 14 (301056)
I0327 09:42:54.463110  4586 net.cpp:225] Memory required for data: 2473787144
I0327 09:42:54.463129  4586 layer_factory.hpp:114] Creating layer inception_4e/relu_5x5_reduce
I0327 09:42:54.463145  4586 net.cpp:160] Creating Layer inception_4e/relu_5x5_reduce
I0327 09:42:54.463155  4586 net.cpp:596] inception_4e/relu_5x5_reduce <- inception_4e/5x5_reduce
I0327 09:42:54.463171  4586 net.cpp:557] inception_4e/relu_5x5_reduce -> inception_4e/5x5_reduce (in-place)
I0327 09:42:54.463188  4586 net.cpp:210] Setting up inception_4e/relu_5x5_reduce
I0327 09:42:54.463199  4586 net.cpp:217] Top shape: 48 32 14 14 (301056)
I0327 09:42:54.463208  4586 net.cpp:225] Memory required for data: 2474991368
I0327 09:42:54.463217  4586 layer_factory.hpp:114] Creating layer inception_4e/5x5
I0327 09:42:54.463248  4586 net.cpp:160] Creating Layer inception_4e/5x5
I0327 09:42:54.463258  4586 net.cpp:596] inception_4e/5x5 <- inception_4e/5x5_reduce
I0327 09:42:54.463271  4586 net.cpp:570] inception_4e/5x5 -> inception_4e/5x5
I0327 09:42:54.469332  4586 net.cpp:210] Setting up inception_4e/5x5
I0327 09:42:54.469403  4586 net.cpp:217] Top shape: 48 128 14 14 (1204224)
I0327 09:42:54.469413  4586 net.cpp:225] Memory required for data: 2479808264
I0327 09:42:54.469437  4586 layer_factory.hpp:114] Creating layer inception_4e/relu_5x5
I0327 09:42:54.469460  4586 net.cpp:160] Creating Layer inception_4e/relu_5x5
I0327 09:42:54.469475  4586 net.cpp:596] inception_4e/relu_5x5 <- inception_4e/5x5
I0327 09:42:54.469511  4586 net.cpp:557] inception_4e/relu_5x5 -> inception_4e/5x5 (in-place)
I0327 09:42:54.469532  4586 net.cpp:210] Setting up inception_4e/relu_5x5
I0327 09:42:54.469543  4586 net.cpp:217] Top shape: 48 128 14 14 (1204224)
I0327 09:42:54.469552  4586 net.cpp:225] Memory required for data: 2484625160
I0327 09:42:54.469560  4586 layer_factory.hpp:114] Creating layer inception_4e/pool
I0327 09:42:54.469607  4586 net.cpp:160] Creating Layer inception_4e/pool
I0327 09:42:54.469620  4586 net.cpp:596] inception_4e/pool <- inception_4d/output_inception_4d/output_0_split_4
I0327 09:42:54.469633  4586 net.cpp:570] inception_4e/pool -> inception_4e/pool
I0327 09:42:54.469656  4586 net.cpp:210] Setting up inception_4e/pool
I0327 09:42:54.469667  4586 net.cpp:217] Top shape: 48 528 14 14 (4967424)
I0327 09:42:54.469676  4586 net.cpp:225] Memory required for data: 2504494856
I0327 09:42:54.469684  4586 layer_factory.hpp:114] Creating layer inception_4e/pool_proj
I0327 09:42:54.469710  4586 net.cpp:160] Creating Layer inception_4e/pool_proj
I0327 09:42:54.469720  4586 net.cpp:596] inception_4e/pool_proj <- inception_4e/pool
I0327 09:42:54.469733  4586 net.cpp:570] inception_4e/pool_proj -> inception_4e/pool_proj
I0327 09:42:54.474330  4586 net.cpp:210] Setting up inception_4e/pool_proj
I0327 09:42:54.474380  4586 net.cpp:217] Top shape: 48 128 14 14 (1204224)
I0327 09:42:54.474390  4586 net.cpp:225] Memory required for data: 2509311752
I0327 09:42:54.474408  4586 layer_factory.hpp:114] Creating layer inception_4e/relu_pool_proj
I0327 09:42:54.474426  4586 net.cpp:160] Creating Layer inception_4e/relu_pool_proj
I0327 09:42:54.474462  4586 net.cpp:596] inception_4e/relu_pool_proj <- inception_4e/pool_proj
I0327 09:42:54.474475  4586 net.cpp:557] inception_4e/relu_pool_proj -> inception_4e/pool_proj (in-place)
I0327 09:42:54.474494  4586 net.cpp:210] Setting up inception_4e/relu_pool_proj
I0327 09:42:54.474505  4586 net.cpp:217] Top shape: 48 128 14 14 (1204224)
I0327 09:42:54.474514  4586 net.cpp:225] Memory required for data: 2514128648
I0327 09:42:54.474522  4586 layer_factory.hpp:114] Creating layer inception_4e/output
I0327 09:42:54.474535  4586 net.cpp:160] Creating Layer inception_4e/output
I0327 09:42:54.474545  4586 net.cpp:596] inception_4e/output <- inception_4e/1x1
I0327 09:42:54.474556  4586 net.cpp:596] inception_4e/output <- inception_4e/3x3
I0327 09:42:54.474566  4586 net.cpp:596] inception_4e/output <- inception_4e/5x5
I0327 09:42:54.474577  4586 net.cpp:596] inception_4e/output <- inception_4e/pool_proj
I0327 09:42:54.474589  4586 net.cpp:570] inception_4e/output -> inception_4e/output
I0327 09:42:54.474606  4586 net.cpp:210] Setting up inception_4e/output
I0327 09:42:54.474618  4586 net.cpp:217] Top shape: 48 832 14 14 (7827456)
I0327 09:42:54.474627  4586 net.cpp:225] Memory required for data: 2545438472
I0327 09:42:54.474634  4586 layer_factory.hpp:114] Creating layer pool4/3x3_s2
I0327 09:42:54.474674  4586 net.cpp:160] Creating Layer pool4/3x3_s2
I0327 09:42:54.474685  4586 net.cpp:596] pool4/3x3_s2 <- inception_4e/output
I0327 09:42:54.474699  4586 net.cpp:570] pool4/3x3_s2 -> pool4/3x3_s2
I0327 09:42:54.474716  4586 net.cpp:210] Setting up pool4/3x3_s2
I0327 09:42:54.474728  4586 net.cpp:217] Top shape: 48 832 7 7 (1956864)
I0327 09:42:54.474736  4586 net.cpp:225] Memory required for data: 2553265928
I0327 09:42:54.474745  4586 layer_factory.hpp:114] Creating layer pool4/3x3_s2_pool4/3x3_s2_0_split
I0327 09:42:54.474757  4586 net.cpp:160] Creating Layer pool4/3x3_s2_pool4/3x3_s2_0_split
I0327 09:42:54.474766  4586 net.cpp:596] pool4/3x3_s2_pool4/3x3_s2_0_split <- pool4/3x3_s2
I0327 09:42:54.474778  4586 net.cpp:570] pool4/3x3_s2_pool4/3x3_s2_0_split -> pool4/3x3_s2_pool4/3x3_s2_0_split_0
I0327 09:42:54.474795  4586 net.cpp:570] pool4/3x3_s2_pool4/3x3_s2_0_split -> pool4/3x3_s2_pool4/3x3_s2_0_split_1
I0327 09:42:54.474810  4586 net.cpp:570] pool4/3x3_s2_pool4/3x3_s2_0_split -> pool4/3x3_s2_pool4/3x3_s2_0_split_2
I0327 09:42:54.474824  4586 net.cpp:570] pool4/3x3_s2_pool4/3x3_s2_0_split -> pool4/3x3_s2_pool4/3x3_s2_0_split_3
I0327 09:42:54.474846  4586 net.cpp:210] Setting up pool4/3x3_s2_pool4/3x3_s2_0_split
I0327 09:42:54.474864  4586 net.cpp:217] Top shape: 48 832 7 7 (1956864)
I0327 09:42:54.474875  4586 net.cpp:217] Top shape: 48 832 7 7 (1956864)
I0327 09:42:54.474885  4586 net.cpp:217] Top shape: 48 832 7 7 (1956864)
I0327 09:42:54.474896  4586 net.cpp:217] Top shape: 48 832 7 7 (1956864)
I0327 09:42:54.474905  4586 net.cpp:225] Memory required for data: 2584575752
I0327 09:42:54.474912  4586 layer_factory.hpp:114] Creating layer inception_5a/1x1
I0327 09:42:54.474931  4586 net.cpp:160] Creating Layer inception_5a/1x1
I0327 09:42:54.474941  4586 net.cpp:596] inception_5a/1x1 <- pool4/3x3_s2_pool4/3x3_s2_0_split_0
I0327 09:42:54.474957  4586 net.cpp:570] inception_5a/1x1 -> inception_5a/1x1
I0327 09:42:54.482062  4586 net.cpp:210] Setting up inception_5a/1x1
I0327 09:42:54.482133  4586 net.cpp:217] Top shape: 48 256 7 7 (602112)
I0327 09:42:54.482142  4586 net.cpp:225] Memory required for data: 2586984200
I0327 09:42:54.482165  4586 layer_factory.hpp:114] Creating layer inception_5a/relu_1x1
I0327 09:42:54.482187  4586 net.cpp:160] Creating Layer inception_5a/relu_1x1
I0327 09:42:54.482200  4586 net.cpp:596] inception_5a/relu_1x1 <- inception_5a/1x1
I0327 09:42:54.482218  4586 net.cpp:557] inception_5a/relu_1x1 -> inception_5a/1x1 (in-place)
I0327 09:42:54.482239  4586 net.cpp:210] Setting up inception_5a/relu_1x1
I0327 09:42:54.482250  4586 net.cpp:217] Top shape: 48 256 7 7 (602112)
I0327 09:42:54.482259  4586 net.cpp:225] Memory required for data: 2589392648
I0327 09:42:54.482293  4586 layer_factory.hpp:114] Creating layer inception_5a/3x3_reduce
I0327 09:42:54.482318  4586 net.cpp:160] Creating Layer inception_5a/3x3_reduce
I0327 09:42:54.482331  4586 net.cpp:596] inception_5a/3x3_reduce <- pool4/3x3_s2_pool4/3x3_s2_0_split_1
I0327 09:42:54.482343  4586 net.cpp:570] inception_5a/3x3_reduce -> inception_5a/3x3_reduce
I0327 09:42:54.488142  4586 net.cpp:210] Setting up inception_5a/3x3_reduce
I0327 09:42:54.488195  4586 net.cpp:217] Top shape: 48 160 7 7 (376320)
I0327 09:42:54.488204  4586 net.cpp:225] Memory required for data: 2590897928
I0327 09:42:54.488225  4586 layer_factory.hpp:114] Creating layer inception_5a/relu_3x3_reduce
I0327 09:42:54.488247  4586 net.cpp:160] Creating Layer inception_5a/relu_3x3_reduce
I0327 09:42:54.488260  4586 net.cpp:596] inception_5a/relu_3x3_reduce <- inception_5a/3x3_reduce
I0327 09:42:54.488273  4586 net.cpp:557] inception_5a/relu_3x3_reduce -> inception_5a/3x3_reduce (in-place)
I0327 09:42:54.488291  4586 net.cpp:210] Setting up inception_5a/relu_3x3_reduce
I0327 09:42:54.488303  4586 net.cpp:217] Top shape: 48 160 7 7 (376320)
I0327 09:42:54.488312  4586 net.cpp:225] Memory required for data: 2592403208
I0327 09:42:54.488320  4586 layer_factory.hpp:114] Creating layer inception_5a/3x3
I0327 09:42:54.488342  4586 net.cpp:160] Creating Layer inception_5a/3x3
I0327 09:42:54.488351  4586 net.cpp:596] inception_5a/3x3 <- inception_5a/3x3_reduce
I0327 09:42:54.488368  4586 net.cpp:570] inception_5a/3x3 -> inception_5a/3x3
I0327 09:42:54.503437  4586 net.cpp:210] Setting up inception_5a/3x3
I0327 09:42:54.503521  4586 net.cpp:217] Top shape: 48 320 7 7 (752640)
I0327 09:42:54.503530  4586 net.cpp:225] Memory required for data: 2595413768
I0327 09:42:54.503556  4586 layer_factory.hpp:114] Creating layer inception_5a/relu_3x3
I0327 09:42:54.503581  4586 net.cpp:160] Creating Layer inception_5a/relu_3x3
I0327 09:42:54.503595  4586 net.cpp:596] inception_5a/relu_3x3 <- inception_5a/3x3
I0327 09:42:54.503612  4586 net.cpp:557] inception_5a/relu_3x3 -> inception_5a/3x3 (in-place)
I0327 09:42:54.503635  4586 net.cpp:210] Setting up inception_5a/relu_3x3
I0327 09:42:54.503648  4586 net.cpp:217] Top shape: 48 320 7 7 (752640)
I0327 09:42:54.503655  4586 net.cpp:225] Memory required for data: 2598424328
I0327 09:42:54.503664  4586 layer_factory.hpp:114] Creating layer inception_5a/5x5_reduce
I0327 09:42:54.503690  4586 net.cpp:160] Creating Layer inception_5a/5x5_reduce
I0327 09:42:54.503702  4586 net.cpp:596] inception_5a/5x5_reduce <- pool4/3x3_s2_pool4/3x3_s2_0_split_2
I0327 09:42:54.503734  4586 net.cpp:570] inception_5a/5x5_reduce -> inception_5a/5x5_reduce
I0327 09:42:54.505592  4586 net.cpp:210] Setting up inception_5a/5x5_reduce
I0327 09:42:54.505625  4586 net.cpp:217] Top shape: 48 32 7 7 (75264)
I0327 09:42:54.505633  4586 net.cpp:225] Memory required for data: 2598725384
I0327 09:42:54.505650  4586 layer_factory.hpp:114] Creating layer inception_5a/relu_5x5_reduce
I0327 09:42:54.505664  4586 net.cpp:160] Creating Layer inception_5a/relu_5x5_reduce
I0327 09:42:54.505676  4586 net.cpp:596] inception_5a/relu_5x5_reduce <- inception_5a/5x5_reduce
I0327 09:42:54.505692  4586 net.cpp:557] inception_5a/relu_5x5_reduce -> inception_5a/5x5_reduce (in-place)
I0327 09:42:54.505708  4586 net.cpp:210] Setting up inception_5a/relu_5x5_reduce
I0327 09:42:54.505720  4586 net.cpp:217] Top shape: 48 32 7 7 (75264)
I0327 09:42:54.505729  4586 net.cpp:225] Memory required for data: 2599026440
I0327 09:42:54.505738  4586 layer_factory.hpp:114] Creating layer inception_5a/5x5
I0327 09:42:54.505756  4586 net.cpp:160] Creating Layer inception_5a/5x5
I0327 09:42:54.505767  4586 net.cpp:596] inception_5a/5x5 <- inception_5a/5x5_reduce
I0327 09:42:54.505780  4586 net.cpp:570] inception_5a/5x5 -> inception_5a/5x5
I0327 09:42:54.509631  4586 net.cpp:210] Setting up inception_5a/5x5
I0327 09:42:54.509680  4586 net.cpp:217] Top shape: 48 128 7 7 (301056)
I0327 09:42:54.509688  4586 net.cpp:225] Memory required for data: 2600230664
I0327 09:42:54.509707  4586 layer_factory.hpp:114] Creating layer inception_5a/relu_5x5
I0327 09:42:54.509754  4586 net.cpp:160] Creating Layer inception_5a/relu_5x5
I0327 09:42:54.509768  4586 net.cpp:596] inception_5a/relu_5x5 <- inception_5a/5x5
I0327 09:42:54.509785  4586 net.cpp:557] inception_5a/relu_5x5 -> inception_5a/5x5 (in-place)
I0327 09:42:54.509802  4586 net.cpp:210] Setting up inception_5a/relu_5x5
I0327 09:42:54.509814  4586 net.cpp:217] Top shape: 48 128 7 7 (301056)
I0327 09:42:54.509822  4586 net.cpp:225] Memory required for data: 2601434888
I0327 09:42:54.509831  4586 layer_factory.hpp:114] Creating layer inception_5a/pool
I0327 09:42:54.509881  4586 net.cpp:160] Creating Layer inception_5a/pool
I0327 09:42:54.509894  4586 net.cpp:596] inception_5a/pool <- pool4/3x3_s2_pool4/3x3_s2_0_split_3
I0327 09:42:54.509907  4586 net.cpp:570] inception_5a/pool -> inception_5a/pool
I0327 09:42:54.509928  4586 net.cpp:210] Setting up inception_5a/pool
I0327 09:42:54.509940  4586 net.cpp:217] Top shape: 48 832 7 7 (1956864)
I0327 09:42:54.509948  4586 net.cpp:225] Memory required for data: 2609262344
I0327 09:42:54.509958  4586 layer_factory.hpp:114] Creating layer inception_5a/pool_proj
I0327 09:42:54.509987  4586 net.cpp:160] Creating Layer inception_5a/pool_proj
I0327 09:42:54.509997  4586 net.cpp:596] inception_5a/pool_proj <- inception_5a/pool
I0327 09:42:54.510010  4586 net.cpp:570] inception_5a/pool_proj -> inception_5a/pool_proj
I0327 09:42:54.513972  4586 net.cpp:210] Setting up inception_5a/pool_proj
I0327 09:42:54.514021  4586 net.cpp:217] Top shape: 48 128 7 7 (301056)
I0327 09:42:54.514032  4586 net.cpp:225] Memory required for data: 2610466568
I0327 09:42:54.514050  4586 layer_factory.hpp:114] Creating layer inception_5a/relu_pool_proj
I0327 09:42:54.514071  4586 net.cpp:160] Creating Layer inception_5a/relu_pool_proj
I0327 09:42:54.514083  4586 net.cpp:596] inception_5a/relu_pool_proj <- inception_5a/pool_proj
I0327 09:42:54.514097  4586 net.cpp:557] inception_5a/relu_pool_proj -> inception_5a/pool_proj (in-place)
I0327 09:42:54.514116  4586 net.cpp:210] Setting up inception_5a/relu_pool_proj
I0327 09:42:54.514127  4586 net.cpp:217] Top shape: 48 128 7 7 (301056)
I0327 09:42:54.514135  4586 net.cpp:225] Memory required for data: 2611670792
I0327 09:42:54.514144  4586 layer_factory.hpp:114] Creating layer inception_5a/output
I0327 09:42:54.514158  4586 net.cpp:160] Creating Layer inception_5a/output
I0327 09:42:54.514166  4586 net.cpp:596] inception_5a/output <- inception_5a/1x1
I0327 09:42:54.514192  4586 net.cpp:596] inception_5a/output <- inception_5a/3x3
I0327 09:42:54.514204  4586 net.cpp:596] inception_5a/output <- inception_5a/5x5
I0327 09:42:54.514214  4586 net.cpp:596] inception_5a/output <- inception_5a/pool_proj
I0327 09:42:54.514226  4586 net.cpp:570] inception_5a/output -> inception_5a/output
I0327 09:42:54.514243  4586 net.cpp:210] Setting up inception_5a/output
I0327 09:42:54.514255  4586 net.cpp:217] Top shape: 48 832 7 7 (1956864)
I0327 09:42:54.514263  4586 net.cpp:225] Memory required for data: 2619498248
I0327 09:42:54.514271  4586 layer_factory.hpp:114] Creating layer inception_5a/output_inception_5a/output_0_split
I0327 09:42:54.514284  4586 net.cpp:160] Creating Layer inception_5a/output_inception_5a/output_0_split
I0327 09:42:54.514292  4586 net.cpp:596] inception_5a/output_inception_5a/output_0_split <- inception_5a/output
I0327 09:42:54.514307  4586 net.cpp:570] inception_5a/output_inception_5a/output_0_split -> inception_5a/output_inception_5a/output_0_split_0
I0327 09:42:54.514323  4586 net.cpp:570] inception_5a/output_inception_5a/output_0_split -> inception_5a/output_inception_5a/output_0_split_1
I0327 09:42:54.514338  4586 net.cpp:570] inception_5a/output_inception_5a/output_0_split -> inception_5a/output_inception_5a/output_0_split_2
I0327 09:42:54.514351  4586 net.cpp:570] inception_5a/output_inception_5a/output_0_split -> inception_5a/output_inception_5a/output_0_split_3
I0327 09:42:54.514367  4586 net.cpp:210] Setting up inception_5a/output_inception_5a/output_0_split
I0327 09:42:54.514379  4586 net.cpp:217] Top shape: 48 832 7 7 (1956864)
I0327 09:42:54.514403  4586 net.cpp:217] Top shape: 48 832 7 7 (1956864)
I0327 09:42:54.514413  4586 net.cpp:217] Top shape: 48 832 7 7 (1956864)
I0327 09:42:54.514425  4586 net.cpp:217] Top shape: 48 832 7 7 (1956864)
I0327 09:42:54.514432  4586 net.cpp:225] Memory required for data: 2650808072
I0327 09:42:54.514441  4586 layer_factory.hpp:114] Creating layer inception_5b/1x1
I0327 09:42:54.514466  4586 net.cpp:160] Creating Layer inception_5b/1x1
I0327 09:42:54.514477  4586 net.cpp:596] inception_5b/1x1 <- inception_5a/output_inception_5a/output_0_split_0
I0327 09:42:54.514489  4586 net.cpp:570] inception_5b/1x1 -> inception_5b/1x1
I0327 09:42:54.525521  4586 net.cpp:210] Setting up inception_5b/1x1
I0327 09:42:54.525602  4586 net.cpp:217] Top shape: 48 384 7 7 (903168)
I0327 09:42:54.525612  4586 net.cpp:225] Memory required for data: 2654420744
I0327 09:42:54.525637  4586 layer_factory.hpp:114] Creating layer inception_5b/relu_1x1
I0327 09:42:54.525665  4586 net.cpp:160] Creating Layer inception_5b/relu_1x1
I0327 09:42:54.525679  4586 net.cpp:596] inception_5b/relu_1x1 <- inception_5b/1x1
I0327 09:42:54.525696  4586 net.cpp:557] inception_5b/relu_1x1 -> inception_5b/1x1 (in-place)
I0327 09:42:54.525720  4586 net.cpp:210] Setting up inception_5b/relu_1x1
I0327 09:42:54.525732  4586 net.cpp:217] Top shape: 48 384 7 7 (903168)
I0327 09:42:54.525739  4586 net.cpp:225] Memory required for data: 2658033416
I0327 09:42:54.525748  4586 layer_factory.hpp:114] Creating layer inception_5b/3x3_reduce
I0327 09:42:54.525771  4586 net.cpp:160] Creating Layer inception_5b/3x3_reduce
I0327 09:42:54.525782  4586 net.cpp:596] inception_5b/3x3_reduce <- inception_5a/output_inception_5a/output_0_split_1
I0327 09:42:54.525800  4586 net.cpp:570] inception_5b/3x3_reduce -> inception_5b/3x3_reduce
I0327 09:42:54.531867  4586 net.cpp:210] Setting up inception_5b/3x3_reduce
I0327 09:42:54.531926  4586 net.cpp:217] Top shape: 48 192 7 7 (451584)
I0327 09:42:54.531935  4586 net.cpp:225] Memory required for data: 2659839752
I0327 09:42:54.531957  4586 layer_factory.hpp:114] Creating layer inception_5b/relu_3x3_reduce
I0327 09:42:54.531976  4586 net.cpp:160] Creating Layer inception_5b/relu_3x3_reduce
I0327 09:42:54.531990  4586 net.cpp:596] inception_5b/relu_3x3_reduce <- inception_5b/3x3_reduce
I0327 09:42:54.532004  4586 net.cpp:557] inception_5b/relu_3x3_reduce -> inception_5b/3x3_reduce (in-place)
I0327 09:42:54.532030  4586 net.cpp:210] Setting up inception_5b/relu_3x3_reduce
I0327 09:42:54.532063  4586 net.cpp:217] Top shape: 48 192 7 7 (451584)
I0327 09:42:54.532071  4586 net.cpp:225] Memory required for data: 2661646088
I0327 09:42:54.532080  4586 layer_factory.hpp:114] Creating layer inception_5b/3x3
I0327 09:42:54.532104  4586 net.cpp:160] Creating Layer inception_5b/3x3
I0327 09:42:54.532114  4586 net.cpp:596] inception_5b/3x3 <- inception_5b/3x3_reduce
I0327 09:42:54.532126  4586 net.cpp:570] inception_5b/3x3 -> inception_5b/3x3
I0327 09:42:54.552542  4586 net.cpp:210] Setting up inception_5b/3x3
I0327 09:42:54.552628  4586 net.cpp:217] Top shape: 48 384 7 7 (903168)
I0327 09:42:54.552639  4586 net.cpp:225] Memory required for data: 2665258760
I0327 09:42:54.552664  4586 layer_factory.hpp:114] Creating layer inception_5b/relu_3x3
I0327 09:42:54.552692  4586 net.cpp:160] Creating Layer inception_5b/relu_3x3
I0327 09:42:54.552707  4586 net.cpp:596] inception_5b/relu_3x3 <- inception_5b/3x3
I0327 09:42:54.552724  4586 net.cpp:557] inception_5b/relu_3x3 -> inception_5b/3x3 (in-place)
I0327 09:42:54.552748  4586 net.cpp:210] Setting up inception_5b/relu_3x3
I0327 09:42:54.552759  4586 net.cpp:217] Top shape: 48 384 7 7 (903168)
I0327 09:42:54.552767  4586 net.cpp:225] Memory required for data: 2668871432
I0327 09:42:54.552776  4586 layer_factory.hpp:114] Creating layer inception_5b/5x5_reduce
I0327 09:42:54.552799  4586 net.cpp:160] Creating Layer inception_5b/5x5_reduce
I0327 09:42:54.552810  4586 net.cpp:596] inception_5b/5x5_reduce <- inception_5a/output_inception_5a/output_0_split_2
I0327 09:42:54.552863  4586 net.cpp:570] inception_5b/5x5_reduce -> inception_5b/5x5_reduce
I0327 09:42:54.555232  4586 net.cpp:210] Setting up inception_5b/5x5_reduce
I0327 09:42:54.555266  4586 net.cpp:217] Top shape: 48 48 7 7 (112896)
I0327 09:42:54.555275  4586 net.cpp:225] Memory required for data: 2669323016
I0327 09:42:54.555291  4586 layer_factory.hpp:114] Creating layer inception_5b/relu_5x5_reduce
I0327 09:42:54.555306  4586 net.cpp:160] Creating Layer inception_5b/relu_5x5_reduce
I0327 09:42:54.555317  4586 net.cpp:596] inception_5b/relu_5x5_reduce <- inception_5b/5x5_reduce
I0327 09:42:54.555333  4586 net.cpp:557] inception_5b/relu_5x5_reduce -> inception_5b/5x5_reduce (in-place)
I0327 09:42:54.555349  4586 net.cpp:210] Setting up inception_5b/relu_5x5_reduce
I0327 09:42:54.555361  4586 net.cpp:217] Top shape: 48 48 7 7 (112896)
I0327 09:42:54.555369  4586 net.cpp:225] Memory required for data: 2669774600
I0327 09:42:54.555378  4586 layer_factory.hpp:114] Creating layer inception_5b/5x5
I0327 09:42:54.555394  4586 net.cpp:160] Creating Layer inception_5b/5x5
I0327 09:42:54.555404  4586 net.cpp:596] inception_5b/5x5 <- inception_5b/5x5_reduce
I0327 09:42:54.555423  4586 net.cpp:570] inception_5b/5x5 -> inception_5b/5x5
I0327 09:42:54.562341  4586 net.cpp:210] Setting up inception_5b/5x5
I0327 09:42:54.562404  4586 net.cpp:217] Top shape: 48 128 7 7 (301056)
I0327 09:42:54.562413  4586 net.cpp:225] Memory required for data: 2670978824
I0327 09:42:54.562435  4586 layer_factory.hpp:114] Creating layer inception_5b/relu_5x5
I0327 09:42:54.562454  4586 net.cpp:160] Creating Layer inception_5b/relu_5x5
I0327 09:42:54.562467  4586 net.cpp:596] inception_5b/relu_5x5 <- inception_5b/5x5
I0327 09:42:54.562482  4586 net.cpp:557] inception_5b/relu_5x5 -> inception_5b/5x5 (in-place)
I0327 09:42:54.562501  4586 net.cpp:210] Setting up inception_5b/relu_5x5
I0327 09:42:54.562513  4586 net.cpp:217] Top shape: 48 128 7 7 (301056)
I0327 09:42:54.562521  4586 net.cpp:225] Memory required for data: 2672183048
I0327 09:42:54.562530  4586 layer_factory.hpp:114] Creating layer inception_5b/pool
I0327 09:42:54.562579  4586 net.cpp:160] Creating Layer inception_5b/pool
I0327 09:42:54.562592  4586 net.cpp:596] inception_5b/pool <- inception_5a/output_inception_5a/output_0_split_3
I0327 09:42:54.562604  4586 net.cpp:570] inception_5b/pool -> inception_5b/pool
I0327 09:42:54.562626  4586 net.cpp:210] Setting up inception_5b/pool
I0327 09:42:54.562641  4586 net.cpp:217] Top shape: 48 832 7 7 (1956864)
I0327 09:42:54.562666  4586 net.cpp:225] Memory required for data: 2680010504
I0327 09:42:54.562676  4586 layer_factory.hpp:114] Creating layer inception_5b/pool_proj
I0327 09:42:54.562698  4586 net.cpp:160] Creating Layer inception_5b/pool_proj
I0327 09:42:54.562708  4586 net.cpp:596] inception_5b/pool_proj <- inception_5b/pool
I0327 09:42:54.562726  4586 net.cpp:570] inception_5b/pool_proj -> inception_5b/pool_proj
I0327 09:42:54.567541  4586 net.cpp:210] Setting up inception_5b/pool_proj
I0327 09:42:54.567589  4586 net.cpp:217] Top shape: 48 128 7 7 (301056)
I0327 09:42:54.567597  4586 net.cpp:225] Memory required for data: 2681214728
I0327 09:42:54.567615  4586 layer_factory.hpp:114] Creating layer inception_5b/relu_pool_proj
I0327 09:42:54.567632  4586 net.cpp:160] Creating Layer inception_5b/relu_pool_proj
I0327 09:42:54.567644  4586 net.cpp:596] inception_5b/relu_pool_proj <- inception_5b/pool_proj
I0327 09:42:54.567657  4586 net.cpp:557] inception_5b/relu_pool_proj -> inception_5b/pool_proj (in-place)
I0327 09:42:54.567675  4586 net.cpp:210] Setting up inception_5b/relu_pool_proj
I0327 09:42:54.567687  4586 net.cpp:217] Top shape: 48 128 7 7 (301056)
I0327 09:42:54.567694  4586 net.cpp:225] Memory required for data: 2682418952
I0327 09:42:54.567703  4586 layer_factory.hpp:114] Creating layer inception_5b/output
I0327 09:42:54.567716  4586 net.cpp:160] Creating Layer inception_5b/output
I0327 09:42:54.567726  4586 net.cpp:596] inception_5b/output <- inception_5b/1x1
I0327 09:42:54.567737  4586 net.cpp:596] inception_5b/output <- inception_5b/3x3
I0327 09:42:54.567770  4586 net.cpp:596] inception_5b/output <- inception_5b/5x5
I0327 09:42:54.567781  4586 net.cpp:596] inception_5b/output <- inception_5b/pool_proj
I0327 09:42:54.567797  4586 net.cpp:570] inception_5b/output -> inception_5b/output
I0327 09:42:54.567816  4586 net.cpp:210] Setting up inception_5b/output
I0327 09:42:54.567826  4586 net.cpp:217] Top shape: 48 1024 7 7 (2408448)
I0327 09:42:54.567836  4586 net.cpp:225] Memory required for data: 2692052744
I0327 09:42:54.567843  4586 layer_factory.hpp:114] Creating layer pool5/7x7_s1
I0327 09:42:54.567883  4586 net.cpp:160] Creating Layer pool5/7x7_s1
I0327 09:42:54.567894  4586 net.cpp:596] pool5/7x7_s1 <- inception_5b/output
I0327 09:42:54.567909  4586 net.cpp:570] pool5/7x7_s1 -> pool5/7x7_s1
I0327 09:42:54.567924  4586 net.cpp:210] Setting up pool5/7x7_s1
I0327 09:42:54.567936  4586 net.cpp:217] Top shape: 48 1024 1 1 (49152)
I0327 09:42:54.567945  4586 net.cpp:225] Memory required for data: 2692249352
I0327 09:42:54.567953  4586 layer_factory.hpp:114] Creating layer pool5/drop_7x7_s1
I0327 09:42:54.567967  4586 net.cpp:160] Creating Layer pool5/drop_7x7_s1
I0327 09:42:54.567977  4586 net.cpp:596] pool5/drop_7x7_s1 <- pool5/7x7_s1
I0327 09:42:54.567991  4586 net.cpp:557] pool5/drop_7x7_s1 -> pool5/7x7_s1 (in-place)
I0327 09:42:54.568007  4586 net.cpp:210] Setting up pool5/drop_7x7_s1
I0327 09:42:54.568024  4586 net.cpp:217] Top shape: 48 1024 1 1 (49152)
I0327 09:42:54.568034  4586 net.cpp:225] Memory required for data: 2692445960
I0327 09:42:54.568042  4586 layer_factory.hpp:114] Creating layer loss3/classifier
I0327 09:42:54.568061  4586 net.cpp:160] Creating Layer loss3/classifier
I0327 09:42:54.568071  4586 net.cpp:596] loss3/classifier <- pool5/7x7_s1
I0327 09:42:54.568084  4586 net.cpp:570] loss3/classifier -> loss3/classifier
I0327 09:42:54.585418  4586 net.cpp:210] Setting up loss3/classifier
I0327 09:42:54.585469  4586 net.cpp:217] Top shape: 48 1000 (48000)
I0327 09:42:54.585477  4586 net.cpp:225] Memory required for data: 2692637960
I0327 09:42:54.585495  4586 layer_factory.hpp:114] Creating layer loss3/loss3
I0327 09:42:54.585515  4586 net.cpp:160] Creating Layer loss3/loss3
I0327 09:42:54.585525  4586 net.cpp:596] loss3/loss3 <- loss3/classifier
I0327 09:42:54.585539  4586 net.cpp:596] loss3/loss3 <- label_data_1_split_2
I0327 09:42:54.585552  4586 net.cpp:570] loss3/loss3 -> loss3/loss3
…
I0327 09:42:54.598903  4586 net.cpp:484] The NetState phase (1) differed from the phase (0) specified by a rule in layer data
I0327 09:42:54.606607  4586 net.cpp:120] Initializing net from parameters: 
name: "GoogleNet"
state {
  phase: TEST
}
layer {
  name: "data"
  type: "Data"
  top: "data"
  top: "label"
  include {
    phase: TEST
  }
  transform_param {
    mirror: false
    crop_size: 224
    mean_value: 104
    mean_value: 117
    mean_value: 123
  }
  data_param {
    source: "/home/user/user/LIBRARIES/caffeLibs/caffe/examples/imagenet/ilsvrc12_val_lmdb"
    batch_size: 50
    backend: LMDB
  }
}
layer {
  name: "label_data_1_split"
  type: "Split"
  bottom: "label"
  top: "label_data_1_split_0"
  top: "label_data_1_split_1"
  top: "label_data_1_split_2"
  top: "label_data_1_split_3"
  top: "label_data_1_split_4"
  top: "label_data_1_split_5"
  top: "label_data_1_split_6"
  top: "label_data_1_split_7"
  top: "label_data_1_split_8"
}
layer {
  name: "conv1/7x7_s2"
  type: "Convolution"
  bottom: "data"
  top: "conv1/7x7_s2"
  param {
    lr_mult: 1
    decay_mult: 1
  }
  param {
    lr_mult: 2
    decay_mult: 0
  }
  convolution_param {
    num_output: 64
    pad: 3
    kernel_size: 7
    stride: 2
    weight_filler {
      type: "xavier"
    }
    bias_filler {
      type: "constant"
      value: 0.2
    }
  }
}
layer {
  name: "conv1/relu_7x7"
  type: "ReLU"
  bottom: "conv1/7x7_s2"
  top: "conv1/7x7_s2"
}
layer {
  name: "pool1/3x3_s2"
  type: "Pooling"
  bottom: "conv1/7x7_s2"
  top: "pool1/3x3_s2"
  pooling_param {
    pool: MAX
    kernel_size: 3
    stride: 2
  }
}
layer {
  name: "pool1/norm1"
  type: "LRN"
  bottom: "pool1/3x3_s2"
  top: "pool1/norm1"
  lrn_param {
    local_size: 5
    alpha: 0.0001
    beta: 0.75
  }
}
layer {
  name: "conv2/3x3_reduce"
  type: "Convolution"
  bottom: "pool1/norm1"
  top: "conv2/3x3_reduce"
  param {
    lr_mult: 1
    decay_mult: 1
  }
  param {
    lr_mult: 2
    decay_mult: 0
  }
  convolution_param {
    num_output: 64
    kernel_size: 1
    weight_filler {
      type: "xavier"
    }
    bias_filler {
      type: "constant"
      value: 0.2
    }
  }
}
layer {
  name: "conv2/relu_3x3_reduce"
  type: "ReLU"
  bottom: "conv2/3x3_reduce"
  top: "conv2/3x3_reduce"
}
layer {
  name: "conv2/3x3"
  type: "Convolution"
  bottom: "conv2/3x3_reduce"
  top: "conv2/3x3"
  param {
    lr_mult: 1
    decay_mult: 1
  }
  param {
    lr_mult: 2
    decay_mult: 0
  }
  convolution_param {
    num_output: 192
    pad: 1
    kernel_size: 3
    weight_filler {
      type: "xavier"
    }
    bias_filler {
      type: "constant"
      value: 0.2
    }
  }
}
layer {
  name: "conv2/relu_3x3"
  type: "ReLU"
  bottom: "conv2/3x3"
  top: "conv2/3x3"
}
layer {
  name: "conv2/norm2"
  type: "LRN"
  bottom: "conv2/3x3"
  top: "conv2/norm2"
  lrn_param {
    local_size: 5
    alpha: 0.0001
    beta: 0.75
  }
}
layer {
  name: "pool2/3x3_s2"
  type: "Pooling"
  bottom: "conv2/norm2"
  top: "pool2/3x3_s2"
  pooling_param {
    pool: MAX
    kernel_size: 3
    stride: 2
  }
}
layer {
  name: "pool2/3x3_s2_pool2/3x3_s2_0_split"
  type: "Split"
  bottom: "pool2/3x3_s2"
  top: "pool2/3x3_s2_pool2/3x3_s2_0_split_0"
  top: "pool2/3x3_s2_pool2/3x3_s2_0_split_1"
  top: "pool2/3x3_s2_pool2/3x3_s2_0_split_2"
  top: "pool2/3x3_s2_pool2/3x3_s2_0_split_3"
}
layer {
  name: "inception_3a/1x1"
  type: "Convolution"
  bottom: "pool2/3x3_s2_pool2/3x3_s2_0_split_0"
  top: "inception_3a/1x1"
  param {
    lr_mult: 1
    decay_mult: 1
  }
  param {
    lr_mult: 2
    decay_mult: 0
  }
  convolution_param {
    num_output: 64
    kernel_size: 1
    weight_filler {
      type: "xavier"
    }
    bias_filler {
      type: "constant"
      value: 0.2
    }
  }
}
layer {
  name: "inception_3a/relu_1x1"
  type: "ReLU"
  bottom: "inception_3a/1x1"
  top: "inception_3a/1x1"
}
layer {
  name: "inception_3a/3x3_reduce"
  type: "Convolution"
  bottom: "pool2/3x3_s2_pool2/3x3_s2_0_split_1"
  top: "inception_3a/3x3_reduce"
  param {
    lr_mult: 1
    decay_mult: 1
  }
  param {
    lr_mult: 2
    decay_mult: 0
  }
  convolution_param {
    num_output: 96
    kernel_size: 1
    weight_filler {
      type: "xavier"
    }
    bias_filler {
      type: "constant"
      value: 0.2
    }
  }
}
layer {
  name: "inception_3a/relu_3x3_reduce"
  type: "ReLU"
  bottom: "inception_3a/3x3_reduce"
  top: "inception_3a/3x3_reduce"
}
layer {
  name: "inception_3a/3x3"
  type: "Convolution"
  bottom: "inception_3a/3x3_reduce"
  top: "inception_3a/3x3"
  param {
    lr_mult: 1
    decay_mult: 1
  }
  param {
    lr_mult: 2
    decay_mult: 0
  }
  convolution_param {
    num_output: 128
    pad: 1
    kernel_size: 3
    weight_filler {
      type: "xavier"
    }
    bias_filler {
      type: "constant"
      value: 0.2
    }
  }
}
layer {
  name: "inception_3a/relu_3x3"
  type: "ReLU"
  bottom: "inception_3a/3x3"
  top: "inception_3a/3x3"
}
layer {
  name: "inception_3a/5x5_reduce"
  type: "Convolution"
  bottom: "pool2/3x3_s2_pool2/3x3_s2_0_split_2"
  top: "inception_3a/5x5_reduce"
  param {
    lr_mult: 1
    decay_mult: 1
  }
  param {
    lr_mult: 2
    decay_mult: 0
  }
  convolution_param {
    num_output: 16
    kernel_size: 1
    weight_filler {
      type: "xavier"
    }
    bias_filler {
      type: "constant"
      value: 0.2
    }
  }
}
layer {
  name: "inception_3a/relu_5x5_reduce"
  type: "ReLU"
  bottom: "inception_3a/5x5_reduce"
  top: "inception_3a/5x5_reduce"
}
layer {
  name: "inception_3a/5x5"
  type: "Convolution"
  bottom: "inception_3a/5x5_reduce"
  top: "inception_3a/5x5"
  param {
    lr_mult: 1
    decay_mult: 1
  }
  param {
    lr_mult: 2
    decay_mult: 0
  }
  convolution_param {
    num_output: 32
    pad: 2
    kernel_size: 5
    weight_filler {
      type: "xavier"
    }
    bias_filler {
      type: "constant"
      value: 0.2
    }
  }
}
layer {
  name: "inception_3a/relu_5x5"
  type: "ReLU"
  bottom: "inception_3a/5x5"
  top: "inception_3a/5x5"
}
layer {
  name: "inception_3a/pool"
  type: "Pooling"
  bottom: "pool2/3x3_s2_pool2/3x3_s2_0_split_3"
  top: "inception_3a/pool"
  pooling_param {
    pool: MAX
    kernel_size: 3
    stride: 1
    pad: 1
  }
}
layer {
  name: "inception_3a/pool_proj"
  type: "Convolution"
  bottom: "inception_3a/pool"
  top: "inception_3a/pool_proj"
  param {
    lr_mult: 1
    decay_mult: 1
  }
  param {
    lr_mult: 2
    decay_mult: 0
  }
  convolution_param {
    num_output: 32
    kernel_size: 1
    weight_filler {
      type: "xavier"
    }
    bias_filler {
      type: "constant"
      value: 0.2
    }
  }
}
layer {
  name: "inception_3a/relu_pool_proj"
  type: "ReLU"
  bottom: "inception_3a/pool_proj"
  top: "inception_3a/pool_proj"
}
layer {
  name: "inception_3a/output"
  type: "Concat"
  bottom: "inception_3a/1x1"
  bottom: "inception_3a/3x3"
  bottom: "inception_3a/5x5"
  bottom: "inception_3a/pool_proj"
  top: "inception_3a/output"
}
layer {
  name: "inception_3a/output_inception_3a/output_0_split"
  type: "Split"
  bottom: "inception_3a/output"
  top: "inception_3a/output_inception_3a/output_0_split_0"
  top: "inception_3a/output_inception_3a/output_0_split_1"
  top: "inception_3a/output_inception_3a/output_0_split_2"
  top: "inception_3a/output_inception_3a/output_0_split_3"
}
layer {
  name: "inception_3b/1x1"
  type: "Convolution"
  bottom: "inception_3a/output_inception_3a/output_0_split_0"
  top: "inception_3b/1x1"
  param {
    lr_mult: 1
    decay_mult: 1
  }
  param {
    lr_mult: 2
    decay_mult: 0
  }
  convolution_param {
    num_output: 128
    kernel_size: 1
    weight_filler {
      type: "xavier"
    }
    bias_filler {
      type: "constant"
      value: 0.2
    }
  }
}
layer {
  name: "inception_3b/relu_1x1"
  type: "ReLU"
  bottom: "inception_3b/1x1"
  top: "inception_3b/1x1"
}
layer {
  name: "inception_3b/3x3_reduce"
  type: "Convolution"
  bottom: "inception_3a/output_inception_3a/output_0_split_1"
  top: "inception_3b/3x3_reduce"
  param {
    lr_mult: 1
    decay_mult: 1
  }
  param {
    lr_mult: 2
    decay_mult: 0
  }
  convolution_param {
    num_output: 128
    kernel_size: 1
    weight_filler {
      type: "xavier"
    }
    bias_filler {
      type: "constant"
      value: 0.2
    }
  }
}
layer {
  name: "inception_3b/relu_3x3_reduce"
  type: "ReLU"
  bottom: "inception_3b/3x3_reduce"
  top: "inception_3b/3x3_reduce"
}
layer {
  name: "inception_3b/3x3"
  type: "Convolution"
  bottom: "inception_3b/3x3_reduce"
  top: "inception_3b/3x3"
  param {
    lr_mult: 1
    decay_mult: 1
  }
  param {
    lr_mult: 2
    decay_mult: 0
  }
  convolution_param {
    num_output: 192
    pad: 1
    kernel_size: 3
    weight_filler {
      type: "xavier"
    }
    bias_filler {
      type: "constant"
      value: 0.2
    }
  }
}
layer {
  name: "inception_3b/relu_3x3"
  type: "ReLU"
  bottom: "inception_3b/3x3"
  top: "inception_3b/3x3"
}
layer {
  name: "inception_3b/5x5_reduce"
  type: "Convolution"
  bottom: "inception_3a/output_inception_3a/output_0_split_2"
  top: "inception_3b/5x5_reduce"
  param {
    lr_mult: 1
    decay_mult: 1
  }
  param {
    lr_mult: 2
    decay_mult: 0
  }
  convolution_param {
    num_output: 32
    kernel_size: 1
    weight_filler {
      type: "xavier"
    }
    bias_filler {
      type: "constant"
      value: 0.2
    }
  }
}
layer {
  name: "inception_3b/relu_5x5_reduce"
  type: "ReLU"
  bottom: "inception_3b/5x5_reduce"
  top: "inception_3b/5x5_reduce"
}
layer {
  name: "inception_3b/5x5"
  type: "Convolution"
  bottom: "inception_3b/5x5_reduce"
  top: "inception_3b/5x5"
  param {
    lr_mult: 1
    decay_mult: 1
  }
  param {
    lr_mult: 2
    decay_mult: 0
  }
  convolution_param {
    num_output: 96
    pad: 2
    kernel_size: 5
    weight_filler {
      type: "xavier"
    }
    bias_filler {
      type: "constant"
      value: 0.2
    }
  }
}
layer {
  name: "inception_3b/relu_5x5"
  type: "ReLU"
  bottom: "inception_3b/5x5"
  top: "inception_3b/5x5"
}
layer {
  name: "inception_3b/pool"
  type: "Pooling"
  bottom: "inception_3a/output_inception_3a/output_0_split_3"
  top: "inception_3b/pool"
  pooling_param {
    pool: MAX
    kernel_size: 3
    stride: 1
    pad: 1
  }
}
layer {
  name: "inception_3b/pool_proj"
  type: "Convolution"
  bottom: "inception_3b/pool"
  top: "inception_3b/pool_proj"
  param {
    lr_mult: 1
    decay_mult: 1
  }
  param {
    lr_mult: 2
    decay_mult: 0
  }
  convolution_param {
    num_output: 64
    kernel_size: 1
    weight_filler {
      type: "xavier"
    }
    bias_filler {
      type: "constant"
      value: 0.2
    }
  }
}
layer {
  name: "inception_3b/relu_pool_proj"
  type: "ReLU"
  bottom: "inception_3b/pool_proj"
  top: "inception_3b/pool_proj"
}
layer {
  name: "inception_3b/output"
  type: "Concat"
  bottom: "inception_3b/1x1"
  bottom: "inception_3b/3x3"
  bottom: "inception_3b/5x5"
  bottom: "inception_3b/pool_proj"
  top: "inception_3b/output"
}
layer {
  name: "pool3/3x3_s2"
  type: "Pooling"
  bottom: "inception_3b/output"
  top: "pool3/3x3_s2"
  pooling_param {
    pool: MAX
    kernel_size: 3
    stride: 2
  }
}
layer {
  name: "pool3/3x3_s2_pool3/3x3_s2_0_split"
  type: "Split"
  bottom: "pool3/3x3_s2"
  top: "pool3/3x3_s2_pool3/3x3_s2_0_split_0"
  top: "pool3/3x3_s2_pool3/3x3_s2_0_split_1"
  top: "pool3/3x3_s2_pool3/3x3_s2_0_split_2"
  top: "pool3/3x3_s2_pool3/3x3_s2_0_split_3"
}
layer {
  name: "inception_4a/1x1"
  type: "Convolution"
  bottom: "pool3/3x3_s2_pool3/3x3_s2_0_split_0"
  top: "inception_4a/1x1"
  param {
    lr_mult: 1
    decay_mult: 1
  }
  param {
    lr_mult: 2
    decay_mult: 0
  }
  convolution_param {
    num_output: 192
    kernel_size: 1
    weight_filler {
      type: "xavier"
    }
    bias_filler {
      type: "constant"
      value: 0.2
    }
  }
}
layer {
  name: "inception_4a/relu_1x1"
  type: "ReLU"
  bottom: "inception_4a/1x1"
  top: "inception_4a/1x1"
}
layer {
  name: "inception_4a/3x3_reduce"
  type: "Convolution"
  bottom: "pool3/3x3_s2_pool3/3x3_s2_0_split_1"
  top: "inception_4a/3x3_reduce"
  param {
    lr_mult: 1
    decay_mult: 1
  }
  param {
    lr_mult: 2
    decay_mult: 0
  }
  convolution_param {
    num_output: 96
    kernel_size: 1
    weight_filler {
      type: "xavier"
    }
    bias_filler {
      type: "constant"
      value: 0.2
    }
  }
}
layer {
  name: "inception_4a/relu_3x3_reduce"
  type: "ReLU"
  bottom: "inception_4a/3x3_reduce"
  top: "inception_4a/3x3_reduce"
}
layer {
  name: "inception_4a/3x3"
  type: "Convolution"
  bottom: "inception_4a/3x3_reduce"
  top: "inception_4a/3x3"
  param {
    lr_mult: 1
    decay_mult: 1
  }
  param {
    lr_mult: 2
    decay_mult: 0
  }
  convolution_param {
    num_output: 208
    pad: 1
    kernel_size: 3
    weight_filler {
      type: "xavier"
    }
    bias_filler {
      type: "constant"
      value: 0.2
    }
  }
}
layer {
  name: "inception_4a/relu_3x3"
  type: "ReLU"
  bottom: "inception_4a/3x3"
  top: "inception_4a/3x3"
}
layer {
  name: "inception_4a/5x5_reduce"
  type: "Convolution"
  bottom: "pool3/3x3_s2_pool3/3x3_s2_0_split_2"
  top: "inception_4a/5x5_reduce"
  param {
    lr_mult: 1
    decay_mult: 1
  }
  param {
    lr_mult: 2
    decay_mult: 0
  }
  convolution_param {
    num_output: 16
    kernel_size: 1
    weight_filler {
      type: "xavier"
    }
    bias_filler {
      type: "constant"
      value: 0.2
    }
  }
}
layer {
  name: "inception_4a/relu_5x5_reduce"
  type: "ReLU"
  bottom: "inception_4a/5x5_reduce"
  top: "inception_4a/5x5_reduce"
}
layer {
  name: "inception_4a/5x5"
  type: "Convolution"
  bottom: "inception_4a/5x5_reduce"
  top: "inception_4a/5x5"
  param {
    lr_mult: 1
    decay_mult: 1
  }
  param {
    lr_mult: 2
    decay_mult: 0
  }
  convolution_param {
    num_output: 48
    pad: 2
    kernel_size: 5
    weight_filler {
      type: "xavier"
    }
    bias_filler {
      type: "constant"
      value: 0.2
    }
  }
}
layer {
  name: "inception_4a/relu_5x5"
  type: "ReLU"
  bottom: "inception_4a/5x5"
…
I0327 09:42:54.970008  4586 layer_factory.hpp:114] Creating layer inception_4c/pool
I0327 09:42:54.970068  4586 net.cpp:160] Creating Layer inception_4c/pool
I0327 09:42:54.970082  4586 net.cpp:596] inception_4c/pool <- inception_4b/output_inception_4b/output_0_split_3
I0327 09:42:54.970095  4586 net.cpp:570] inception_4c/pool -> inception_4c/pool
I0327 09:42:54.970116  4586 net.cpp:210] Setting up inception_4c/pool
I0327 09:42:54.970132  4586 net.cpp:217] Top shape: 50 512 14 14 (5017600)
I0327 09:42:54.970140  4586 net.cpp:225] Memory required for data: 2210363612
I0327 09:42:54.970149  4586 layer_factory.hpp:114] Creating layer inception_4c/pool_proj
I0327 09:42:54.970167  4586 net.cpp:160] Creating Layer inception_4c/pool_proj
I0327 09:42:54.970177  4586 net.cpp:596] inception_4c/pool_proj <- inception_4c/pool
I0327 09:42:54.970211  4586 net.cpp:570] inception_4c/pool_proj -> inception_4c/pool_proj
I0327 09:42:54.972496  4586 net.cpp:210] Setting up inception_4c/pool_proj
I0327 09:42:54.972534  4586 net.cpp:217] Top shape: 50 64 14 14 (627200)
I0327 09:42:54.972543  4586 net.cpp:225] Memory required for data: 2212872412
I0327 09:42:54.972560  4586 layer_factory.hpp:114] Creating layer inception_4c/relu_pool_proj
I0327 09:42:54.972575  4586 net.cpp:160] Creating Layer inception_4c/relu_pool_proj
I0327 09:42:54.972586  4586 net.cpp:596] inception_4c/relu_pool_proj <- inception_4c/pool_proj
I0327 09:42:54.972599  4586 net.cpp:557] inception_4c/relu_pool_proj -> inception_4c/pool_proj (in-place)
I0327 09:42:54.972615  4586 net.cpp:210] Setting up inception_4c/relu_pool_proj
I0327 09:42:54.972626  4586 net.cpp:217] Top shape: 50 64 14 14 (627200)
I0327 09:42:54.972635  4586 net.cpp:225] Memory required for data: 2215381212
I0327 09:42:54.972643  4586 layer_factory.hpp:114] Creating layer inception_4c/output
I0327 09:42:54.972659  4586 net.cpp:160] Creating Layer inception_4c/output
I0327 09:42:54.972669  4586 net.cpp:596] inception_4c/output <- inception_4c/1x1
I0327 09:42:54.972681  4586 net.cpp:596] inception_4c/output <- inception_4c/3x3
I0327 09:42:54.972690  4586 net.cpp:596] inception_4c/output <- inception_4c/5x5
I0327 09:42:54.972702  4586 net.cpp:596] inception_4c/output <- inception_4c/pool_proj
I0327 09:42:54.972712  4586 net.cpp:570] inception_4c/output -> inception_4c/output
I0327 09:42:54.972733  4586 net.cpp:210] Setting up inception_4c/output
I0327 09:42:54.972744  4586 net.cpp:217] Top shape: 50 512 14 14 (5017600)
I0327 09:42:54.972753  4586 net.cpp:225] Memory required for data: 2235451612
I0327 09:42:54.972761  4586 layer_factory.hpp:114] Creating layer inception_4c/output_inception_4c/output_0_split
I0327 09:42:54.972774  4586 net.cpp:160] Creating Layer inception_4c/output_inception_4c/output_0_split
I0327 09:42:54.972782  4586 net.cpp:596] inception_4c/output_inception_4c/output_0_split <- inception_4c/output
I0327 09:42:54.972795  4586 net.cpp:570] inception_4c/output_inception_4c/output_0_split -> inception_4c/output_inception_4c/output_0_split_0
I0327 09:42:54.972808  4586 net.cpp:570] inception_4c/output_inception_4c/output_0_split -> inception_4c/output_inception_4c/output_0_split_1
I0327 09:42:54.972822  4586 net.cpp:570] inception_4c/output_inception_4c/output_0_split -> inception_4c/output_inception_4c/output_0_split_2
I0327 09:42:54.972839  4586 net.cpp:570] inception_4c/output_inception_4c/output_0_split -> inception_4c/output_inception_4c/output_0_split_3
I0327 09:42:54.972873  4586 net.cpp:210] Setting up inception_4c/output_inception_4c/output_0_split
I0327 09:42:54.972885  4586 net.cpp:217] Top shape: 50 512 14 14 (5017600)
I0327 09:42:54.972896  4586 net.cpp:217] Top shape: 50 512 14 14 (5017600)
I0327 09:42:54.972906  4586 net.cpp:217] Top shape: 50 512 14 14 (5017600)
I0327 09:42:54.972918  4586 net.cpp:217] Top shape: 50 512 14 14 (5017600)
I0327 09:42:54.972925  4586 net.cpp:225] Memory required for data: 2315733212
I0327 09:42:54.972934  4586 layer_factory.hpp:114] Creating layer inception_4d/1x1
I0327 09:42:54.972954  4586 net.cpp:160] Creating Layer inception_4d/1x1
I0327 09:42:54.972965  4586 net.cpp:596] inception_4d/1x1 <- inception_4c/output_inception_4c/output_0_split_0
I0327 09:42:54.972980  4586 net.cpp:570] inception_4d/1x1 -> inception_4d/1x1
I0327 09:42:54.976843  4586 net.cpp:210] Setting up inception_4d/1x1
I0327 09:42:54.976891  4586 net.cpp:217] Top shape: 50 112 14 14 (1097600)
I0327 09:42:54.976899  4586 net.cpp:225] Memory required for data: 2320123612
I0327 09:42:54.976918  4586 layer_factory.hpp:114] Creating layer inception_4d/relu_1x1
I0327 09:42:54.976938  4586 net.cpp:160] Creating Layer inception_4d/relu_1x1
I0327 09:42:54.976949  4586 net.cpp:596] inception_4d/relu_1x1 <- inception_4d/1x1
I0327 09:42:54.976963  4586 net.cpp:557] inception_4d/relu_1x1 -> inception_4d/1x1 (in-place)
I0327 09:42:54.976979  4586 net.cpp:210] Setting up inception_4d/relu_1x1
I0327 09:42:54.977015  4586 net.cpp:217] Top shape: 50 112 14 14 (1097600)
I0327 09:42:54.977030  4586 net.cpp:225] Memory required for data: 2324514012
I0327 09:42:54.977038  4586 layer_factory.hpp:114] Creating layer inception_4d/3x3_reduce
I0327 09:42:54.977059  4586 net.cpp:160] Creating Layer inception_4d/3x3_reduce
I0327 09:42:54.977071  4586 net.cpp:596] inception_4d/3x3_reduce <- inception_4c/output_inception_4c/output_0_split_1
I0327 09:42:54.977087  4586 net.cpp:570] inception_4d/3x3_reduce -> inception_4d/3x3_reduce
I0327 09:42:54.981673  4586 net.cpp:210] Setting up inception_4d/3x3_reduce
I0327 09:42:54.981719  4586 net.cpp:217] Top shape: 50 144 14 14 (1411200)
I0327 09:42:54.981729  4586 net.cpp:225] Memory required for data: 2330158812
I0327 09:42:54.981746  4586 layer_factory.hpp:114] Creating layer inception_4d/relu_3x3_reduce
I0327 09:42:54.981765  4586 net.cpp:160] Creating Layer inception_4d/relu_3x3_reduce
I0327 09:42:54.981777  4586 net.cpp:596] inception_4d/relu_3x3_reduce <- inception_4d/3x3_reduce
I0327 09:42:54.981791  4586 net.cpp:557] inception_4d/relu_3x3_reduce -> inception_4d/3x3_reduce (in-place)
I0327 09:42:54.981808  4586 net.cpp:210] Setting up inception_4d/relu_3x3_reduce
I0327 09:42:54.981819  4586 net.cpp:217] Top shape: 50 144 14 14 (1411200)
I0327 09:42:54.981827  4586 net.cpp:225] Memory required for data: 2335803612
I0327 09:42:54.981837  4586 layer_factory.hpp:114] Creating layer inception_4d/3x3
I0327 09:42:54.981853  4586 net.cpp:160] Creating Layer inception_4d/3x3
I0327 09:42:54.981868  4586 net.cpp:596] inception_4d/3x3 <- inception_4d/3x3_reduce
I0327 09:42:54.981886  4586 net.cpp:570] inception_4d/3x3 -> inception_4d/3x3
I0327 09:42:54.996402  4586 net.cpp:210] Setting up inception_4d/3x3
I0327 09:42:54.996486  4586 net.cpp:217] Top shape: 50 288 14 14 (2822400)
I0327 09:42:54.996496  4586 net.cpp:225] Memory required for data: 2347093212
I0327 09:42:54.996522  4586 layer_factory.hpp:114] Creating layer inception_4d/relu_3x3
I0327 09:42:54.996546  4586 net.cpp:160] Creating Layer inception_4d/relu_3x3
I0327 09:42:54.996562  4586 net.cpp:596] inception_4d/relu_3x3 <- inception_4d/3x3
I0327 09:42:54.996578  4586 net.cpp:557] inception_4d/relu_3x3 -> inception_4d/3x3 (in-place)
I0327 09:42:54.996601  4586 net.cpp:210] Setting up inception_4d/relu_3x3
I0327 09:42:54.996613  4586 net.cpp:217] Top shape: 50 288 14 14 (2822400)
I0327 09:42:54.996620  4586 net.cpp:225] Memory required for data: 2358382812
I0327 09:42:54.996629  4586 layer_factory.hpp:114] Creating layer inception_4d/5x5_reduce
I0327 09:42:54.996673  4586 net.cpp:160] Creating Layer inception_4d/5x5_reduce
I0327 09:42:54.996686  4586 net.cpp:596] inception_4d/5x5_reduce <- inception_4c/output_inception_4c/output_0_split_2
I0327 09:42:54.996701  4586 net.cpp:570] inception_4d/5x5_reduce -> inception_4d/5x5_reduce
I0327 09:42:54.999368  4586 net.cpp:210] Setting up inception_4d/5x5_reduce
I0327 09:42:54.999408  4586 net.cpp:217] Top shape: 50 32 14 14 (313600)
I0327 09:42:54.999418  4586 net.cpp:225] Memory required for data: 2359637212
I0327 09:42:54.999433  4586 layer_factory.hpp:114] Creating layer inception_4d/relu_5x5_reduce
I0327 09:42:54.999452  4586 net.cpp:160] Creating Layer inception_4d/relu_5x5_reduce
I0327 09:42:54.999464  4586 net.cpp:596] inception_4d/relu_5x5_reduce <- inception_4d/5x5_reduce
I0327 09:42:54.999477  4586 net.cpp:557] inception_4d/relu_5x5_reduce -> inception_4d/5x5_reduce (in-place)
I0327 09:42:54.999495  4586 net.cpp:210] Setting up inception_4d/relu_5x5_reduce
I0327 09:42:54.999505  4586 net.cpp:217] Top shape: 50 32 14 14 (313600)
I0327 09:42:54.999513  4586 net.cpp:225] Memory required for data: 2360891612
I0327 09:42:54.999522  4586 layer_factory.hpp:114] Creating layer inception_4d/5x5
I0327 09:42:54.999542  4586 net.cpp:160] Creating Layer inception_4d/5x5
I0327 09:42:54.999552  4586 net.cpp:596] inception_4d/5x5 <- inception_4d/5x5_reduce
I0327 09:42:54.999568  4586 net.cpp:570] inception_4d/5x5 -> inception_4d/5x5
I0327 09:42:55.003700  4586 net.cpp:210] Setting up inception_4d/5x5
I0327 09:42:55.003785  4586 net.cpp:217] Top shape: 50 64 14 14 (627200)
I0327 09:42:55.003794  4586 net.cpp:225] Memory required for data: 2363400412
I0327 09:42:55.003816  4586 layer_factory.hpp:114] Creating layer inception_4d/relu_5x5
I0327 09:42:55.003840  4586 net.cpp:160] Creating Layer inception_4d/relu_5x5
I0327 09:42:55.003854  4586 net.cpp:596] inception_4d/relu_5x5 <- inception_4d/5x5
I0327 09:42:55.003875  4586 net.cpp:557] inception_4d/relu_5x5 -> inception_4d/5x5 (in-place)
I0327 09:42:55.003893  4586 net.cpp:210] Setting up inception_4d/relu_5x5
I0327 09:42:55.003906  4586 net.cpp:217] Top shape: 50 64 14 14 (627200)
I0327 09:42:55.003913  4586 net.cpp:225] Memory required for data: 2365909212
I0327 09:42:55.003922  4586 layer_factory.hpp:114] Creating layer inception_4d/pool
I0327 09:42:55.003974  4586 net.cpp:160] Creating Layer inception_4d/pool
I0327 09:42:55.003986  4586 net.cpp:596] inception_4d/pool <- inception_4c/output_inception_4c/output_0_split_3
I0327 09:42:55.004003  4586 net.cpp:570] inception_4d/pool -> inception_4d/pool
I0327 09:42:55.004029  4586 net.cpp:210] Setting up inception_4d/pool
I0327 09:42:55.004043  4586 net.cpp:217] Top shape: 50 512 14 14 (5017600)
I0327 09:42:55.004051  4586 net.cpp:225] Memory required for data: 2385979612
I0327 09:42:55.004060  4586 layer_factory.hpp:114] Creating layer inception_4d/pool_proj
I0327 09:42:55.004082  4586 net.cpp:160] Creating Layer inception_4d/pool_proj
I0327 09:42:55.004093  4586 net.cpp:596] inception_4d/pool_proj <- inception_4d/pool
I0327 09:42:55.004113  4586 net.cpp:570] inception_4d/pool_proj -> inception_4d/pool_proj
I0327 09:42:55.007333  4586 net.cpp:210] Setting up inception_4d/pool_proj
I0327 09:42:55.007375  4586 net.cpp:217] Top shape: 50 64 14 14 (627200)
I0327 09:42:55.007383  4586 net.cpp:225] Memory required for data: 2388488412
I0327 09:42:55.007401  4586 layer_factory.hpp:114] Creating layer inception_4d/relu_pool_proj
I0327 09:42:55.007417  4586 net.cpp:160] Creating Layer inception_4d/relu_pool_proj
I0327 09:42:55.007429  4586 net.cpp:596] inception_4d/relu_pool_proj <- inception_4d/pool_proj
I0327 09:42:55.007442  4586 net.cpp:557] inception_4d/relu_pool_proj -> inception_4d/pool_proj (in-place)
I0327 09:42:55.007458  4586 net.cpp:210] Setting up inception_4d/relu_pool_proj
I0327 09:42:55.007469  4586 net.cpp:217] Top shape: 50 64 14 14 (627200)
I0327 09:42:55.007477  4586 net.cpp:225] Memory required for data: 2390997212
I0327 09:42:55.007486  4586 layer_factory.hpp:114] Creating layer inception_4d/output
I0327 09:42:55.007515  4586 net.cpp:160] Creating Layer inception_4d/output
I0327 09:42:55.007525  4586 net.cpp:596] inception_4d/output <- inception_4d/1x1
I0327 09:42:55.007536  4586 net.cpp:596] inception_4d/output <- inception_4d/3x3
I0327 09:42:55.007547  4586 net.cpp:596] inception_4d/output <- inception_4d/5x5
I0327 09:42:55.007558  4586 net.cpp:596] inception_4d/output <- inception_4d/pool_proj
I0327 09:42:55.007573  4586 net.cpp:570] inception_4d/output -> inception_4d/output
I0327 09:42:55.007591  4586 net.cpp:210] Setting up inception_4d/output
I0327 09:42:55.007602  4586 net.cpp:217] Top shape: 50 528 14 14 (5174400)
I0327 09:42:55.007611  4586 net.cpp:225] Memory required for data: 2411694812
I0327 09:42:55.007619  4586 layer_factory.hpp:114] Creating layer inception_4d/output_inception_4d/output_0_split
I0327 09:42:55.007633  4586 net.cpp:160] Creating Layer inception_4d/output_inception_4d/output_0_split
I0327 09:42:55.007645  4586 net.cpp:596] inception_4d/output_inception_4d/output_0_split <- inception_4d/output
I0327 09:42:55.007658  4586 net.cpp:570] inception_4d/output_inception_4d/output_0_split -> inception_4d/output_inception_4d/output_0_split_0
I0327 09:42:55.007673  4586 net.cpp:570] inception_4d/output_inception_4d/output_0_split -> inception_4d/output_inception_4d/output_0_split_1
I0327 09:42:55.007688  4586 net.cpp:570] inception_4d/output_inception_4d/output_0_split -> inception_4d/output_inception_4d/output_0_split_2
I0327 09:42:55.007702  4586 net.cpp:570] inception_4d/output_inception_4d/output_0_split -> inception_4d/output_inception_4d/output_0_split_3
I0327 09:42:55.007730  4586 net.cpp:570] inception_4d/output_inception_4d/output_0_split -> inception_4d/output_inception_4d/output_0_split_4
I0327 09:42:55.007750  4586 net.cpp:210] Setting up inception_4d/output_inception_4d/output_0_split
I0327 09:42:55.007762  4586 net.cpp:217] Top shape: 50 528 14 14 (5174400)
I0327 09:42:55.007773  4586 net.cpp:217] Top shape: 50 528 14 14 (5174400)
I0327 09:42:55.007783  4586 net.cpp:217] Top shape: 50 528 14 14 (5174400)
I0327 09:42:55.007794  4586 net.cpp:217] Top shape: 50 528 14 14 (5174400)
I0327 09:42:55.007804  4586 net.cpp:217] Top shape: 50 528 14 14 (5174400)
I0327 09:42:55.007812  4586 net.cpp:225] Memory required for data: 2515182812
I0327 09:42:55.007820  4586 layer_factory.hpp:114] Creating layer loss2/ave_pool
I0327 09:42:55.007869  4586 net.cpp:160] Creating Layer loss2/ave_pool
I0327 09:42:55.007880  4586 net.cpp:596] loss2/ave_pool <- inception_4d/output_inception_4d/output_0_split_0
I0327 09:42:55.007894  4586 net.cpp:570] loss2/ave_pool -> loss2/ave_pool
I0327 09:42:55.007910  4586 net.cpp:210] Setting up loss2/ave_pool
I0327 09:42:55.007921  4586 net.cpp:217] Top shape: 50 528 4 4 (422400)
I0327 09:42:55.007930  4586 net.cpp:225] Memory required for data: 2516872412
I0327 09:42:55.007938  4586 layer_factory.hpp:114] Creating layer loss2/conv
I0327 09:42:55.007959  4586 net.cpp:160] Creating Layer loss2/conv
I0327 09:42:55.007969  4586 net.cpp:596] loss2/conv <- loss2/ave_pool
I0327 09:42:55.007985  4586 net.cpp:570] loss2/conv -> loss2/conv
I0327 09:42:55.010692  4586 net.cpp:210] Setting up loss2/conv
I0327 09:42:55.010725  4586 net.cpp:217] Top shape: 50 128 4 4 (102400)
I0327 09:42:55.010735  4586 net.cpp:225] Memory required for data: 2517282012
I0327 09:42:55.010751  4586 layer_factory.hpp:114] Creating layer loss2/relu_conv
I0327 09:42:55.010766  4586 net.cpp:160] Creating Layer loss2/relu_conv
I0327 09:42:55.010776  4586 net.cpp:596] loss2/relu_conv <- loss2/conv
I0327 09:42:55.010792  4586 net.cpp:557] loss2/relu_conv -> loss2/conv (in-place)
I0327 09:42:55.010807  4586 net.cpp:210] Setting up loss2/relu_conv
I0327 09:42:55.010818  4586 net.cpp:217] Top shape: 50 128 4 4 (102400)
I0327 09:42:55.010828  4586 net.cpp:225] Memory required for data: 2517691612
I0327 09:42:55.010836  4586 layer_factory.hpp:114] Creating layer loss2/fc
I0327 09:42:55.010866  4586 net.cpp:160] Creating Layer loss2/fc
I0327 09:42:55.010876  4586 net.cpp:596] loss2/fc <- loss2/conv
I0327 09:42:55.010902  4586 net.cpp:570] loss2/fc -> loss2/fc
I0327 09:42:55.045599  4586 net.cpp:210] Setting up loss2/fc
I0327 09:42:55.045678  4586 net.cpp:217] Top shape: 50 1024 (51200)
I0327 09:42:55.045688  4586 net.cpp:225] Memory required for data: 2517896412
I0327 09:42:55.045711  4586 layer_factory.hpp:114] Creating layer loss2/relu_fc
I0327 09:42:55.045735  4586 net.cpp:160] Creating Layer loss2/relu_fc
I0327 09:42:55.045748  4586 net.cpp:596] loss2/relu_fc <- loss2/fc
I0327 09:42:55.045766  4586 net.cpp:557] loss2/relu_fc -> loss2/fc (in-place)
I0327 09:42:55.045786  4586 net.cpp:210] Setting up loss2/relu_fc
I0327 09:42:55.045797  4586 net.cpp:217] Top shape: 50 1024 (51200)
I0327 09:42:55.045806  4586 net.cpp:225] Memory required for data: 2518101212
I0327 09:42:55.045814  4586 layer_factory.hpp:114] Creating layer loss2/drop_fc
I0327 09:42:55.045830  4586 net.cpp:160] Creating Layer loss2/drop_fc
I0327 09:42:55.045838  4586 net.cpp:596] loss2/drop_fc <- loss2/fc
I0327 09:42:55.045850  4586 net.cpp:557] loss2/drop_fc -> loss2/fc (in-place)
I0327 09:42:55.045869  4586 net.cpp:210] Setting up loss2/drop_fc
I0327 09:42:55.045881  4586 net.cpp:217] Top shape: 50 1024 (51200)
I0327 09:42:55.045888  4586 net.cpp:225] Memory required for data: 2518306012
I0327 09:42:55.045897  4586 layer_factory.hpp:114] Creating layer loss2/classifier
I0327 09:42:55.045919  4586 net.cpp:160] Creating Layer loss2/classifier
I0327 09:42:55.045929  4586 net.cpp:596] loss2/classifier <- loss2/fc
I0327 09:42:55.045943  4586 net.cpp:570] loss2/classifier -> loss2/classifier
I0327 09:42:55.063199  4586 net.cpp:210] Setting up loss2/classifier
I0327 09:42:55.063251  4586 net.cpp:217] Top shape: 50 1000 (50000)
I0327 09:42:55.063259  4586 net.cpp:225] Memory required for data: 2518506012
I0327 09:42:55.063278  4586 layer_factory.hpp:114] Creating layer loss2/classifier_loss2/classifier_0_split
I0327 09:42:55.063300  4586 net.cpp:160] Creating Layer loss2/classifier_loss2/classifier_0_split
I0327 09:42:55.063313  4586 net.cpp:596] loss2/classifier_loss2/classifier_0_split <- loss2/classifier
I0327 09:42:55.063328  4586 net.cpp:570] loss2/classifier_loss2/classifier_0_split -> loss2/classifier_loss2/classifier_0_split_0
I0327 09:42:55.063349  4586 net.cpp:570] loss2/classifier_loss2/classifier_0_split -> loss2/classifier_loss2/classifier_0_split_1
I0327 09:42:55.063364  4586 net.cpp:570] loss2/classifier_loss2/classifier_0_split -> loss2/classifier_loss2/classifier_0_split_2
I0327 09:42:55.063381  4586 net.cpp:210] Setting up loss2/classifier_loss2/classifier_0_split
I0327 09:42:55.063392  4586 net.cpp:217] Top shape: 50 1000 (50000)
I0327 09:42:55.063403  4586 net.cpp:217] Top shape: 50 1000 (50000)
I0327 09:42:55.063413  4586 net.cpp:217] Top shape: 50 1000 (50000)
I0327 09:42:55.063421  4586 net.cpp:225] Memory required for data: 2519106012
I0327 09:42:55.063429  4586 layer_factory.hpp:114] Creating layer loss2/loss
I0327 09:42:55.063441  4586 net.cpp:160] Creating Layer loss2/loss
I0327 09:42:55.063451  4586 net.cpp:596] loss2/loss <- loss2/classifier_loss2/classifier_0_split_0
I0327 09:42:55.063462  4586 net.cpp:596] loss2/loss <- label_data_1_split_3
…
I0327 09:42:55.063961  4586 net.cpp:210] Setting up loss2/top-5
I0327 09:42:55.063972  4586 net.cpp:217] Top shape: (1)
I0327 09:42:55.063980  4586 net.cpp:225] Memory required for data: 2519106024
I0327 09:42:55.063989  4586 layer_factory.hpp:114] Creating layer inception_4e/1x1
I0327 09:42:55.064013  4586 net.cpp:160] Creating Layer inception_4e/1x1
I0327 09:42:55.064033  4586 net.cpp:596] inception_4e/1x1 <- inception_4d/output_inception_4d/output_0_split_1
I0327 09:42:55.064050  4586 net.cpp:570] inception_4e/1x1 -> inception_4e/1x1
I0327 09:42:55.070133  4586 net.cpp:210] Setting up inception_4e/1x1
I0327 09:42:55.070199  4586 net.cpp:217] Top shape: 50 256 14 14 (2508800)
I0327 09:42:55.070209  4586 net.cpp:225] Memory required for data: 2529141224
I0327 09:42:55.070230  4586 layer_factory.hpp:114] Creating layer inception_4e/relu_1x1
I0327 09:42:55.070256  4586 net.cpp:160] Creating Layer inception_4e/relu_1x1
I0327 09:42:55.070271  4586 net.cpp:596] inception_4e/relu_1x1 <- inception_4e/1x1
I0327 09:42:55.070291  4586 net.cpp:557] inception_4e/relu_1x1 -> inception_4e/1x1 (in-place)
I0327 09:42:55.070338  4586 net.cpp:210] Setting up inception_4e/relu_1x1
I0327 09:42:55.070351  4586 net.cpp:217] Top shape: 50 256 14 14 (2508800)
I0327 09:42:55.070359  4586 net.cpp:225] Memory required for data: 2539176424
I0327 09:42:55.070369  4586 layer_factory.hpp:114] Creating layer inception_4e/3x3_reduce
I0327 09:42:55.070400  4586 net.cpp:160] Creating Layer inception_4e/3x3_reduce
I0327 09:42:55.070411  4586 net.cpp:596] inception_4e/3x3_reduce <- inception_4d/output_inception_4d/output_0_split_2
I0327 09:42:55.070426  4586 net.cpp:570] inception_4e/3x3_reduce -> inception_4e/3x3_reduce
I0327 09:42:55.075603  4586 net.cpp:210] Setting up inception_4e/3x3_reduce
I0327 09:42:55.075655  4586 net.cpp:217] Top shape: 50 160 14 14 (1568000)
I0327 09:42:55.075664  4586 net.cpp:225] Memory required for data: 2545448424
I0327 09:42:55.075686  4586 layer_factory.hpp:114] Creating layer inception_4e/relu_3x3_reduce
I0327 09:42:55.075705  4586 net.cpp:160] Creating Layer inception_4e/relu_3x3_reduce
I0327 09:42:55.075716  4586 net.cpp:596] inception_4e/relu_3x3_reduce <- inception_4e/3x3_reduce
I0327 09:42:55.075729  4586 net.cpp:557] inception_4e/relu_3x3_reduce -> inception_4e/3x3_reduce (in-place)
I0327 09:42:55.075748  4586 net.cpp:210] Setting up inception_4e/relu_3x3_reduce
I0327 09:42:55.075759  4586 net.cpp:217] Top shape: 50 160 14 14 (1568000)
I0327 09:42:55.075767  4586 net.cpp:225] Memory required for data: 2551720424
I0327 09:42:55.075776  4586 layer_factory.hpp:114] Creating layer inception_4e/3x3
I0327 09:42:55.075798  4586 net.cpp:160] Creating Layer inception_4e/3x3
I0327 09:42:55.075808  4586 net.cpp:596] inception_4e/3x3 <- inception_4e/3x3_reduce
I0327 09:42:55.075820  4586 net.cpp:570] inception_4e/3x3 -> inception_4e/3x3
I0327 09:42:55.092542  4586 net.cpp:210] Setting up inception_4e/3x3
I0327 09:42:55.092623  4586 net.cpp:217] Top shape: 50 320 14 14 (3136000)
I0327 09:42:55.092633  4586 net.cpp:225] Memory required for data: 2564264424
I0327 09:42:55.092659  4586 layer_factory.hpp:114] Creating layer inception_4e/relu_3x3
I0327 09:42:55.092687  4586 net.cpp:160] Creating Layer inception_4e/relu_3x3
I0327 09:42:55.092701  4586 net.cpp:596] inception_4e/relu_3x3 <- inception_4e/3x3
I0327 09:42:55.092720  4586 net.cpp:557] inception_4e/relu_3x3 -> inception_4e/3x3 (in-place)
I0327 09:42:55.092742  4586 net.cpp:210] Setting up inception_4e/relu_3x3
I0327 09:42:55.092754  4586 net.cpp:217] Top shape: 50 320 14 14 (3136000)
I0327 09:42:55.092780  4586 net.cpp:225] Memory required for data: 2576808424
I0327 09:42:55.092789  4586 layer_factory.hpp:114] Creating layer inception_4e/5x5_reduce
I0327 09:42:55.092813  4586 net.cpp:160] Creating Layer inception_4e/5x5_reduce
I0327 09:42:55.092823  4586 net.cpp:596] inception_4e/5x5_reduce <- inception_4d/output_inception_4d/output_0_split_3
I0327 09:42:55.092841  4586 net.cpp:570] inception_4e/5x5_reduce -> inception_4e/5x5_reduce
I0327 09:42:55.095249  4586 net.cpp:210] Setting up inception_4e/5x5_reduce
I0327 09:42:55.095289  4586 net.cpp:217] Top shape: 50 32 14 14 (313600)
I0327 09:42:55.095297  4586 net.cpp:225] Memory required for data: 2578062824
I0327 09:42:55.095315  4586 layer_factory.hpp:114] Creating layer inception_4e/relu_5x5_reduce
I0327 09:42:55.095335  4586 net.cpp:160] Creating Layer inception_4e/relu_5x5_reduce
I0327 09:42:55.095347  4586 net.cpp:596] inception_4e/relu_5x5_reduce <- inception_4e/5x5_reduce
I0327 09:42:55.095360  4586 net.cpp:557] inception_4e/relu_5x5_reduce -> inception_4e/5x5_reduce (in-place)
I0327 09:42:55.095376  4586 net.cpp:210] Setting up inception_4e/relu_5x5_reduce
I0327 09:42:55.095387  4586 net.cpp:217] Top shape: 50 32 14 14 (313600)
I0327 09:42:55.095396  4586 net.cpp:225] Memory required for data: 2579317224
I0327 09:42:55.095404  4586 layer_factory.hpp:114] Creating layer inception_4e/5x5
I0327 09:42:55.095424  4586 net.cpp:160] Creating Layer inception_4e/5x5
I0327 09:42:55.095434  4586 net.cpp:596] inception_4e/5x5 <- inception_4e/5x5_reduce
I0327 09:42:55.095474  4586 net.cpp:570] inception_4e/5x5 -> inception_4e/5x5
I0327 09:42:55.101583  4586 net.cpp:210] Setting up inception_4e/5x5
I0327 09:42:55.101655  4586 net.cpp:217] Top shape: 50 128 14 14 (1254400)
I0327 09:42:55.101665  4586 net.cpp:225] Memory required for data: 2584334824
I0327 09:42:55.101688  4586 layer_factory.hpp:114] Creating layer inception_4e/relu_5x5
I0327 09:42:55.101713  4586 net.cpp:160] Creating Layer inception_4e/relu_5x5
I0327 09:42:55.101727  4586 net.cpp:596] inception_4e/relu_5x5 <- inception_4e/5x5
I0327 09:42:55.101743  4586 net.cpp:557] inception_4e/relu_5x5 -> inception_4e/5x5 (in-place)
I0327 09:42:55.101765  4586 net.cpp:210] Setting up inception_4e/relu_5x5
I0327 09:42:55.101776  4586 net.cpp:217] Top shape: 50 128 14 14 (1254400)
I0327 09:42:55.101784  4586 net.cpp:225] Memory required for data: 2589352424
I0327 09:42:55.101794  4586 layer_factory.hpp:114] Creating layer inception_4e/pool
I0327 09:42:55.101845  4586 net.cpp:160] Creating Layer inception_4e/pool
I0327 09:42:55.101863  4586 net.cpp:596] inception_4e/pool <- inception_4d/output_inception_4d/output_0_split_4
I0327 09:42:55.101881  4586 net.cpp:570] inception_4e/pool -> inception_4e/pool
I0327 09:42:55.101904  4586 net.cpp:210] Setting up inception_4e/pool
I0327 09:42:55.101917  4586 net.cpp:217] Top shape: 50 528 14 14 (5174400)
I0327 09:42:55.101924  4586 net.cpp:225] Memory required for data: 2610050024
I0327 09:42:55.101933  4586 layer_factory.hpp:114] Creating layer inception_4e/pool_proj
I0327 09:42:55.101958  4586 net.cpp:160] Creating Layer inception_4e/pool_proj
I0327 09:42:55.101969  4586 net.cpp:596] inception_4e/pool_proj <- inception_4e/pool
I0327 09:42:55.101984  4586 net.cpp:570] inception_4e/pool_proj -> inception_4e/pool_proj
I0327 09:42:55.105613  4586 net.cpp:210] Setting up inception_4e/pool_proj
I0327 09:42:55.105665  4586 net.cpp:217] Top shape: 50 128 14 14 (1254400)
I0327 09:42:55.105674  4586 net.cpp:225] Memory required for data: 2615067624
I0327 09:42:55.105695  4586 layer_factory.hpp:114] Creating layer inception_4e/relu_pool_proj
I0327 09:42:55.105712  4586 net.cpp:160] Creating Layer inception_4e/relu_pool_proj
I0327 09:42:55.105725  4586 net.cpp:596] inception_4e/relu_pool_proj <- inception_4e/pool_proj
I0327 09:42:55.105738  4586 net.cpp:557] inception_4e/relu_pool_proj -> inception_4e/pool_proj (in-place)
I0327 09:42:55.105756  4586 net.cpp:210] Setting up inception_4e/relu_pool_proj
I0327 09:42:55.105767  4586 net.cpp:217] Top shape: 50 128 14 14 (1254400)
I0327 09:42:55.105793  4586 net.cpp:225] Memory required for data: 2620085224
I0327 09:42:55.105803  4586 layer_factory.hpp:114] Creating layer inception_4e/output
I0327 09:42:55.105816  4586 net.cpp:160] Creating Layer inception_4e/output
I0327 09:42:55.105826  4586 net.cpp:596] inception_4e/output <- inception_4e/1x1
I0327 09:42:55.105837  4586 net.cpp:596] inception_4e/output <- inception_4e/3x3
I0327 09:42:55.105847  4586 net.cpp:596] inception_4e/output <- inception_4e/5x5
I0327 09:42:55.105865  4586 net.cpp:596] inception_4e/output <- inception_4e/pool_proj
I0327 09:42:55.105880  4586 net.cpp:570] inception_4e/output -> inception_4e/output
I0327 09:42:55.105898  4586 net.cpp:210] Setting up inception_4e/output
I0327 09:42:55.105911  4586 net.cpp:217] Top shape: 50 832 14 14 (8153600)
I0327 09:42:55.105918  4586 net.cpp:225] Memory required for data: 2652699624
I0327 09:42:55.105926  4586 layer_factory.hpp:114] Creating layer pool4/3x3_s2
I0327 09:42:55.105968  4586 net.cpp:160] Creating Layer pool4/3x3_s2
I0327 09:42:55.105979  4586 net.cpp:596] pool4/3x3_s2 <- inception_4e/output
I0327 09:42:55.105993  4586 net.cpp:570] pool4/3x3_s2 -> pool4/3x3_s2
I0327 09:42:55.106011  4586 net.cpp:210] Setting up pool4/3x3_s2
I0327 09:42:55.106029  4586 net.cpp:217] Top shape: 50 832 7 7 (2038400)
I0327 09:42:55.106039  4586 net.cpp:225] Memory required for data: 2660853224
I0327 09:42:55.106047  4586 layer_factory.hpp:114] Creating layer pool4/3x3_s2_pool4/3x3_s2_0_split
I0327 09:42:55.106063  4586 net.cpp:160] Creating Layer pool4/3x3_s2_pool4/3x3_s2_0_split
I0327 09:42:55.106091  4586 net.cpp:596] pool4/3x3_s2_pool4/3x3_s2_0_split <- pool4/3x3_s2
I0327 09:42:55.106102  4586 net.cpp:570] pool4/3x3_s2_pool4/3x3_s2_0_split -> pool4/3x3_s2_pool4/3x3_s2_0_split_0
I0327 09:42:55.106117  4586 net.cpp:570] pool4/3x3_s2_pool4/3x3_s2_0_split -> pool4/3x3_s2_pool4/3x3_s2_0_split_1
I0327 09:42:55.106130  4586 net.cpp:570] pool4/3x3_s2_pool4/3x3_s2_0_split -> pool4/3x3_s2_pool4/3x3_s2_0_split_2
I0327 09:42:55.106153  4586 net.cpp:570] pool4/3x3_s2_pool4/3x3_s2_0_split -> pool4/3x3_s2_pool4/3x3_s2_0_split_3
I0327 09:42:55.106171  4586 net.cpp:210] Setting up pool4/3x3_s2_pool4/3x3_s2_0_split
I0327 09:42:55.106182  4586 net.cpp:217] Top shape: 50 832 7 7 (2038400)
I0327 09:42:55.106194  4586 net.cpp:217] Top shape: 50 832 7 7 (2038400)
I0327 09:42:55.106206  4586 net.cpp:217] Top shape: 50 832 7 7 (2038400)
I0327 09:42:55.106216  4586 net.cpp:217] Top shape: 50 832 7 7 (2038400)
I0327 09:42:55.106225  4586 net.cpp:225] Memory required for data: 2693467624
I0327 09:42:55.106233  4586 layer_factory.hpp:114] Creating layer inception_5a/1x1
I0327 09:42:55.106256  4586 net.cpp:160] Creating Layer inception_5a/1x1
I0327 09:42:55.106266  4586 net.cpp:596] inception_5a/1x1 <- pool4/3x3_s2_pool4/3x3_s2_0_split_0
I0327 09:42:55.106279  4586 net.cpp:570] inception_5a/1x1 -> inception_5a/1x1
I0327 09:42:55.113358  4586 net.cpp:210] Setting up inception_5a/1x1
I0327 09:42:55.113427  4586 net.cpp:217] Top shape: 50 256 7 7 (627200)
I0327 09:42:55.113437  4586 net.cpp:225] Memory required for data: 2695976424
I0327 09:42:55.113461  4586 layer_factory.hpp:114] Creating layer inception_5a/relu_1x1
I0327 09:42:55.113483  4586 net.cpp:160] Creating Layer inception_5a/relu_1x1
I0327 09:42:55.113497  4586 net.cpp:596] inception_5a/relu_1x1 <- inception_5a/1x1
I0327 09:42:55.113517  4586 net.cpp:557] inception_5a/relu_1x1 -> inception_5a/1x1 (in-place)
I0327 09:42:55.113538  4586 net.cpp:210] Setting up inception_5a/relu_1x1
I0327 09:42:55.113549  4586 net.cpp:217] Top shape: 50 256 7 7 (627200)
I0327 09:42:55.113557  4586 net.cpp:225] Memory required for data: 2698485224
I0327 09:42:55.113566  4586 layer_factory.hpp:114] Creating layer inception_5a/3x3_reduce
I0327 09:42:55.113587  4586 net.cpp:160] Creating Layer inception_5a/3x3_reduce
I0327 09:42:55.113600  4586 net.cpp:596] inception_5a/3x3_reduce <- pool4/3x3_s2_pool4/3x3_s2_0_split_1
I0327 09:42:55.113613  4586 net.cpp:570] inception_5a/3x3_reduce -> inception_5a/3x3_reduce
I0327 09:42:55.118430  4586 net.cpp:210] Setting up inception_5a/3x3_reduce
I0327 09:42:55.118497  4586 net.cpp:217] Top shape: 50 160 7 7 (392000)
I0327 09:42:55.118506  4586 net.cpp:225] Memory required for data: 2700053224
I0327 09:42:55.118525  4586 layer_factory.hpp:114] Creating layer inception_5a/relu_3x3_reduce
I0327 09:42:55.118543  4586 net.cpp:160] Creating Layer inception_5a/relu_3x3_reduce
I0327 09:42:55.118556  4586 net.cpp:596] inception_5a/relu_3x3_reduce <- inception_5a/3x3_reduce
I0327 09:42:55.118569  4586 net.cpp:557] inception_5a/relu_3x3_reduce -> inception_5a/3x3_reduce (in-place)
I0327 09:42:55.118587  4586 net.cpp:210] Setting up inception_5a/relu_3x3_reduce
I0327 09:42:55.118597  4586 net.cpp:217] Top shape: 50 160 7 7 (392000)
I0327 09:42:55.118605  4586 net.cpp:225] Memory required for data: 2701621224
I0327 09:42:55.118614  4586 layer_factory.hpp:114] Creating layer inception_5a/3x3
I0327 09:42:55.118631  4586 net.cpp:160] Creating Layer inception_5a/3x3
I0327 09:42:55.118641  4586 net.cpp:596] inception_5a/3x3 <- inception_5a/3x3_reduce
I0327 09:42:55.118657  4586 net.cpp:570] inception_5a/3x3 -> inception_5a/3x3
I0327 09:42:55.133462  4586 net.cpp:210] Setting up inception_5a/3x3
I0327 09:42:55.133545  4586 net.cpp:217] Top shape: 50 320 7 7 (784000)
I0327 09:42:55.133554  4586 net.cpp:225] Memory required for data: 2704757224
I0327 09:42:55.133579  4586 layer_factory.hpp:114] Creating layer inception_5a/relu_3x3
I0327 09:42:55.133605  4586 net.cpp:160] Creating Layer inception_5a/relu_3x3
I0327 09:42:55.133618  4586 net.cpp:596] inception_5a/relu_3x3 <- inception_5a/3x3
I0327 09:42:55.133673  4586 net.cpp:557] inception_5a/relu_3x3 -> inception_5a/3x3 (in-place)
I0327 09:42:55.133697  4586 net.cpp:210] Setting up inception_5a/relu_3x3
I0327 09:42:55.133709  4586 net.cpp:217] Top shape: 50 320 7 7 (784000)
I0327 09:42:55.133718  4586 net.cpp:225] Memory required for data: 2707893224
I0327 09:42:55.133726  4586 layer_factory.hpp:114] Creating layer inception_5a/5x5_reduce
I0327 09:42:55.133749  4586 net.cpp:160] Creating Layer inception_5a/5x5_reduce
I0327 09:42:55.133761  4586 net.cpp:596] inception_5a/5x5_reduce <- pool4/3x3_s2_pool4/3x3_s2_0_split_2
I0327 09:42:55.133775  4586 net.cpp:570] inception_5a/5x5_reduce -> inception_5a/5x5_reduce
I0327 09:42:55.135632  4586 net.cpp:210] Setting up inception_5a/5x5_reduce
I0327 09:42:55.135664  4586 net.cpp:217] Top shape: 50 32 7 7 (78400)
I0327 09:42:55.135673  4586 net.cpp:225] Memory required for data: 2708206824
I0327 09:42:55.135689  4586 layer_factory.hpp:114] Creating layer inception_5a/relu_5x5_reduce
I0327 09:42:55.135706  4586 net.cpp:160] Creating Layer inception_5a/relu_5x5_reduce
I0327 09:42:55.135718  4586 net.cpp:596] inception_5a/relu_5x5_reduce <- inception_5a/5x5_reduce
I0327 09:42:55.135730  4586 net.cpp:557] inception_5a/relu_5x5_reduce -> inception_5a/5x5_reduce (in-place)
I0327 09:42:55.135746  4586 net.cpp:210] Setting up inception_5a/relu_5x5_reduce
I0327 09:42:55.135756  4586 net.cpp:217] Top shape: 50 32 7 7 (78400)
I0327 09:42:55.135766  4586 net.cpp:225] Memory required for data: 2708520424
I0327 09:42:55.135773  4586 layer_factory.hpp:114] Creating layer inception_5a/5x5
I0327 09:42:55.135793  4586 net.cpp:160] Creating Layer inception_5a/5x5
I0327 09:42:55.135803  4586 net.cpp:596] inception_5a/5x5 <- inception_5a/5x5_reduce
I0327 09:42:55.135818  4586 net.cpp:570] inception_5a/5x5 -> inception_5a/5x5
I0327 09:42:55.139789  4586 net.cpp:210] Setting up inception_5a/5x5
I0327 09:42:55.139838  4586 net.cpp:217] Top shape: 50 128 7 7 (313600)
I0327 09:42:55.139847  4586 net.cpp:225] Memory required for data: 2709774824
I0327 09:42:55.139873  4586 layer_factory.hpp:114] Creating layer inception_5a/relu_5x5
I0327 09:42:55.139889  4586 net.cpp:160] Creating Layer inception_5a/relu_5x5
I0327 09:42:55.139905  4586 net.cpp:596] inception_5a/relu_5x5 <- inception_5a/5x5
I0327 09:42:55.139919  4586 net.cpp:557] inception_5a/relu_5x5 -> inception_5a/5x5 (in-place)
I0327 09:42:55.139937  4586 net.cpp:210] Setting up inception_5a/relu_5x5
I0327 09:42:55.139964  4586 net.cpp:217] Top shape: 50 128 7 7 (313600)
I0327 09:42:55.139973  4586 net.cpp:225] Memory required for data: 2711029224
I0327 09:42:55.139982  4586 layer_factory.hpp:114] Creating layer inception_5a/pool
I0327 09:42:55.140043  4586 net.cpp:160] Creating Layer inception_5a/pool
I0327 09:42:55.140058  4586 net.cpp:596] inception_5a/pool <- pool4/3x3_s2_pool4/3x3_s2_0_split_3
I0327 09:42:55.140074  4586 net.cpp:570] inception_5a/pool -> inception_5a/pool
I0327 09:42:55.140096  4586 net.cpp:210] Setting up inception_5a/pool
I0327 09:42:55.140107  4586 net.cpp:217] Top shape: 50 832 7 7 (2038400)
I0327 09:42:55.140116  4586 net.cpp:225] Memory required for data: 2719182824
I0327 09:42:55.140125  4586 layer_factory.hpp:114] Creating layer inception_5a/pool_proj
I0327 09:42:55.140146  4586 net.cpp:160] Creating Layer inception_5a/pool_proj
I0327 09:42:55.140156  4586 net.cpp:596] inception_5a/pool_proj <- inception_5a/pool
I0327 09:42:55.140172  4586 net.cpp:570] inception_5a/pool_proj -> inception_5a/pool_proj
I0327 09:42:55.144899  4586 net.cpp:210] Setting up inception_5a/pool_proj
I0327 09:42:55.144944  4586 net.cpp:217] Top shape: 50 128 7 7 (313600)
I0327 09:42:55.144953  4586 net.cpp:225] Memory required for data: 2720437224
I0327 09:42:55.144971  4586 layer_factory.hpp:114] Creating layer inception_5a/relu_pool_proj
I0327 09:42:55.144989  4586 net.cpp:160] Creating Layer inception_5a/relu_pool_proj
I0327 09:42:55.145001  4586 net.cpp:596] inception_5a/relu_pool_proj <- inception_5a/pool_proj
I0327 09:42:55.145015  4586 net.cpp:557] inception_5a/relu_pool_proj -> inception_5a/pool_proj (in-place)
I0327 09:42:55.145063  4586 net.cpp:210] Setting up inception_5a/relu_pool_proj
I0327 09:42:55.145076  4586 net.cpp:217] Top shape: 50 128 7 7 (313600)
I0327 09:42:55.145083  4586 net.cpp:225] Memory required for data: 2721691624
I0327 09:42:55.145092  4586 layer_factory.hpp:114] Creating layer inception_5a/output
I0327 09:42:55.145105  4586 net.cpp:160] Creating Layer inception_5a/output
I0327 09:42:55.145115  4586 net.cpp:596] inception_5a/output <- inception_5a/1x1
I0327 09:42:55.145125  4586 net.cpp:596] inception_5a/output <- inception_5a/3x3
I0327 09:42:55.145136  4586 net.cpp:596] inception_5a/output <- inception_5a/5x5
I0327 09:42:55.145148  4586 net.cpp:596] inception_5a/output <- inception_5a/pool_proj
I0327 09:42:55.145164  4586 net.cpp:570] inception_5a/output -> inception_5a/output
I0327 09:42:55.145182  4586 net.cpp:210] Setting up inception_5a/output
I0327 09:42:55.145193  4586 net.cpp:217] Top shape: 50 832 7 7 (2038400)
I0327 09:42:55.145201  4586 net.cpp:225] Memory required for data: 2729845224
I0327 09:42:55.145210  4586 layer_factory.hpp:114] Creating layer inception_5a/output_inception_5a/output_0_split
I0327 09:42:55.145222  4586 net.cpp:160] Creating Layer inception_5a/output_inception_5a/output_0_split
I0327 09:42:55.145231  4586 net.cpp:596] inception_5a/output_inception_5a/output_0_split <- inception_5a/output
I0327 09:42:55.145243  4586 net.cpp:570] inception_5a/output_inception_5a/output_0_split -> inception_5a/output_inception_5a/output_0_split_0
I0327 09:42:55.145257  4586 net.cpp:570] inception_5a/output_inception_5a/output_0_split -> inception_5a/output_inception_5a/output_0_split_1
I0327 09:42:55.145272  4586 net.cpp:570] inception_5a/output_inception_5a/output_0_split -> inception_5a/output_inception_5a/output_0_split_2
I0327 09:42:55.145287  4586 net.cpp:570] inception_5a/output_inception_5a/output_0_split -> inception_5a/output_inception_5a/output_0_split_3
I0327 09:42:55.145303  4586 net.cpp:210] Setting up inception_5a/output_inception_5a/output_0_split
I0327 09:42:55.145314  4586 net.cpp:217] Top shape: 50 832 7 7 (2038400)
I0327 09:42:55.145324  4586 net.cpp:217] Top shape: 50 832 7 7 (2038400)
I0327 09:42:55.145335  4586 net.cpp:217] Top shape: 50 832 7 7 (2038400)
I0327 09:42:55.145345  4586 net.cpp:217] Top shape: 50 832 7 7 (2038400)
I0327 09:42:55.145354  4586 net.cpp:225] Memory required for data: 2762459624
I0327 09:42:55.145362  4586 layer_factory.hpp:114] Creating layer inception_5b/1x1
I0327 09:42:55.145391  4586 net.cpp:160] Creating Layer inception_5b/1x1
I0327 09:42:55.145402  4586 net.cpp:596] inception_5b/1x1 <- inception_5a/output_inception_5a/output_0_split_0
I0327 09:42:55.145416  4586 net.cpp:570] inception_5b/1x1 -> inception_5b/1x1
I0327 09:42:55.155374  4586 net.cpp:210] Setting up inception_5b/1x1
I0327 09:42:55.155454  4586 net.cpp:217] Top shape: 50 384 7 7 (940800)
I0327 09:42:55.155463  4586 net.cpp:225] Memory required for data: 2766222824
I0327 09:42:55.155488  4586 layer_factory.hpp:114] Creating layer inception_5b/relu_1x1
I0327 09:42:55.155513  4586 net.cpp:160] Creating Layer inception_5b/relu_1x1
I0327 09:42:55.155527  4586 net.cpp:596] inception_5b/relu_1x1 <- inception_5b/1x1
I0327 09:42:55.155544  4586 net.cpp:557] inception_5b/relu_1x1 -> inception_5b/1x1 (in-place)
I0327 09:42:55.155567  4586 net.cpp:210] Setting up inception_5b/relu_1x1
I0327 09:42:55.155578  4586 net.cpp:217] Top shape: 50 384 7 7 (940800)
I0327 09:42:55.155587  4586 net.cpp:225] Memory required for data: 2769986024
I0327 09:42:55.155596  4586 layer_factory.hpp:114] Creating layer inception_5b/3x3_reduce
I0327 09:42:55.155618  4586 net.cpp:160] Creating Layer inception_5b/3x3_reduce
I0327 09:42:55.155629  4586 net.cpp:596] inception_5b/3x3_reduce <- inception_5a/output_inception_5a/output_0_split_1
I0327 09:42:55.155647  4586 net.cpp:570] inception_5b/3x3_reduce -> inception_5b/3x3_reduce
I0327 09:42:55.161638  4586 net.cpp:210] Setting up inception_5b/3x3_reduce
I0327 09:42:55.161702  4586 net.cpp:217] Top shape: 50 192 7 7 (470400)
I0327 09:42:55.161739  4586 net.cpp:225] Memory required for data: 2771867624
I0327 09:42:55.161762  4586 layer_factory.hpp:114] Creating layer inception_5b/relu_3x3_reduce
I0327 09:42:55.161784  4586 net.cpp:160] Creating Layer inception_5b/relu_3x3_reduce
I0327 09:42:55.161798  4586 net.cpp:596] inception_5b/relu_3x3_reduce <- inception_5b/3x3_reduce
I0327 09:42:55.161813  4586 net.cpp:557] inception_5b/relu_3x3_reduce -> inception_5b/3x3_reduce (in-place)
I0327 09:42:55.161834  4586 net.cpp:210] Setting up inception_5b/relu_3x3_reduce
I0327 09:42:55.161844  4586 net.cpp:217] Top shape: 50 192 7 7 (470400)
I0327 09:42:55.161854  4586 net.cpp:225] Memory required for data: 2773749224
I0327 09:42:55.161867  4586 layer_factory.hpp:114] Creating layer inception_5b/3x3
I0327 09:42:55.161893  4586 net.cpp:160] Creating Layer inception_5b/3x3
I0327 09:42:55.161905  4586 net.cpp:596] inception_5b/3x3 <- inception_5b/3x3_reduce
I0327 09:42:55.161917  4586 net.cpp:570] inception_5b/3x3 -> inception_5b/3x3
I0327 09:42:55.182281  4586 net.cpp:210] Setting up inception_5b/3x3
I0327 09:42:55.182361  4586 net.cpp:217] Top shape: 50 384 7 7 (940800)
I0327 09:42:55.182373  4586 net.cpp:225] Memory required for data: 2777512424
I0327 09:42:55.182399  4586 layer_factory.hpp:114] Creating layer inception_5b/relu_3x3
I0327 09:42:55.182422  4586 net.cpp:160] Creating Layer inception_5b/relu_3x3
I0327 09:42:55.182437  4586 net.cpp:596] inception_5b/relu_3x3 <- inception_5b/3x3
I0327 09:42:55.182456  4586 net.cpp:557] inception_5b/relu_3x3 -> inception_5b/3x3 (in-place)
I0327 09:42:55.182478  4586 net.cpp:210] Setting up inception_5b/relu_3x3
I0327 09:42:55.182489  4586 net.cpp:217] Top shape: 50 384 7 7 (940800)
I0327 09:42:55.182497  4586 net.cpp:225] Memory required for data: 2781275624
I0327 09:42:55.182507  4586 layer_factory.hpp:114] Creating layer inception_5b/5x5_reduce
I0327 09:42:55.182529  4586 net.cpp:160] Creating Layer inception_5b/5x5_reduce
I0327 09:42:55.182540  4586 net.cpp:596] inception_5b/5x5_reduce <- inception_5a/output_inception_5a/output_0_split_2
I0327 09:42:55.182559  4586 net.cpp:570] inception_5b/5x5_reduce -> inception_5b/5x5_reduce
I0327 09:42:55.184900  4586 net.cpp:210] Setting up inception_5b/5x5_reduce
I0327 09:42:55.184937  4586 net.cpp:217] Top shape: 50 48 7 7 (117600)
I0327 09:42:55.184947  4586 net.cpp:225] Memory required for data: 2781746024
I0327 09:42:55.184962  4586 layer_factory.hpp:114] Creating layer inception_5b/relu_5x5_reduce
I0327 09:42:55.184995  4586 net.cpp:160] Creating Layer inception_5b/relu_5x5_reduce
I0327 09:42:55.185009  4586 net.cpp:596] inception_5b/relu_5x5_reduce <- inception_5b/5x5_reduce
I0327 09:42:55.185027  4586 net.cpp:557] inception_5b/relu_5x5_reduce -> inception_5b/5x5_reduce (in-place)
I0327 09:42:55.185045  4586 net.cpp:210] Setting up inception_5b/relu_5x5_reduce
I0327 09:42:55.185055  4586 net.cpp:217] Top shape: 50 48 7 7 (117600)
I0327 09:42:55.185063  4586 net.cpp:225] Memory required for data: 2782216424
I0327 09:42:55.185072  4586 layer_factory.hpp:114] Creating layer inception_5b/5x5
I0327 09:42:55.185092  4586 net.cpp:160] Creating Layer inception_5b/5x5
I0327 09:42:55.185102  4586 net.cpp:596] inception_5b/5x5 <- inception_5b/5x5_reduce
I0327 09:42:55.185119  4586 net.cpp:570] inception_5b/5x5 -> inception_5b/5x5
I0327 09:42:55.191082  4586 net.cpp:210] Setting up inception_5b/5x5
I0327 09:42:55.191148  4586 net.cpp:217] Top shape: 50 128 7 7 (313600)
I0327 09:42:55.191156  4586 net.cpp:225] Memory required for data: 2783470824
I0327 09:42:55.191179  4586 layer_factory.hpp:114] Creating layer inception_5b/relu_5x5
I0327 09:42:55.191198  4586 net.cpp:160] Creating Layer inception_5b/relu_5x5
I0327 09:42:55.191211  4586 net.cpp:596] inception_5b/relu_5x5 <- inception_5b/5x5
I0327 09:42:55.191231  4586 net.cpp:557] inception_5b/relu_5x5 -> inception_5b/5x5 (in-place)
I0327 09:42:55.191251  4586 net.cpp:210] Setting up inception_5b/relu_5x5
I0327 09:42:55.191262  4586 net.cpp:217] Top shape: 50 128 7 7 (313600)
I0327 09:42:55.191270  4586 net.cpp:225] Memory required for data: 2784725224
I0327 09:42:55.191304  4586 layer_factory.hpp:114] Creating layer inception_5b/pool
I0327 09:42:55.191359  4586 net.cpp:160] Creating Layer inception_5b/pool
I0327 09:42:55.191371  4586 net.cpp:596] inception_5b/pool <- inception_5a/output_inception_5a/output_0_split_3
I0327 09:42:55.191388  4586 net.cpp:570] inception_5b/pool -> inception_5b/pool
I0327 09:42:55.191411  4586 net.cpp:210] Setting up inception_5b/pool
I0327 09:42:55.191421  4586 net.cpp:217] Top shape: 50 832 7 7 (2038400)
I0327 09:42:55.191431  4586 net.cpp:225] Memory required for data: 2792878824
I0327 09:42:55.191438  4586 layer_factory.hpp:114] Creating layer inception_5b/pool_proj
I0327 09:42:55.191462  4586 net.cpp:160] Creating Layer inception_5b/pool_proj
I0327 09:42:55.191473  4586 net.cpp:596] inception_5b/pool_proj <- inception_5b/pool
I0327 09:42:55.191489  4586 net.cpp:570] inception_5b/pool_proj -> inception_5b/pool_proj
I0327 09:42:55.196275  4586 net.cpp:210] Setting up inception_5b/pool_proj
I0327 09:42:55.196324  4586 net.cpp:217] Top shape: 50 128 7 7 (313600)
I0327 09:42:55.196332  4586 net.cpp:225] Memory required for data: 2794133224
I0327 09:42:55.196352  4586 layer_factory.hpp:114] Creating layer inception_5b/relu_pool_proj
I0327 09:42:55.196367  4586 net.cpp:160] Creating Layer inception_5b/relu_pool_proj
I0327 09:42:55.196379  4586 net.cpp:596] inception_5b/relu_pool_proj <- inception_5b/pool_proj
I0327 09:42:55.196396  4586 net.cpp:557] inception_5b/relu_pool_proj -> inception_5b/pool_proj (in-place)
I0327 09:42:55.196415  4586 net.cpp:210] Setting up inception_5b/relu_pool_proj
I0327 09:42:55.196426  4586 net.cpp:217] Top shape: 50 128 7 7 (313600)
I0327 09:42:55.196434  4586 net.cpp:225] Memory required for data: 2795387624
I0327 09:42:55.196444  4586 layer_factory.hpp:114] Creating layer inception_5b/output
I0327 09:42:55.196455  4586 net.cpp:160] Creating Layer inception_5b/output
I0327 09:42:55.196465  4586 net.cpp:596] inception_5b/output <- inception_5b/1x1
I0327 09:42:55.196476  4586 net.cpp:596] inception_5b/output <- inception_5b/3x3
I0327 09:42:55.196486  4586 net.cpp:596] inception_5b/output <- inception_5b/5x5
I0327 09:42:55.196497  4586 net.cpp:596] inception_5b/output <- inception_5b/pool_proj
I0327 09:42:55.196508  4586 net.cpp:570] inception_5b/output -> inception_5b/output
I0327 09:42:55.196527  4586 net.cpp:210] Setting up inception_5b/output
I0327 09:42:55.196538  4586 net.cpp:217] Top shape: 50 1024 7 7 (2508800)
I0327 09:42:55.196559  4586 net.cpp:225] Memory required for data: 2805422824
I0327 09:42:55.196568  4586 layer_factory.hpp:114] Creating layer pool5/7x7_s1
I0327 09:42:55.196610  4586 net.cpp:160] Creating Layer pool5/7x7_s1
I0327 09:42:55.196621  4586 net.cpp:596] pool5/7x7_s1 <- inception_5b/output
I0327 09:42:55.196635  4586 net.cpp:570] pool5/7x7_s1 -> pool5/7x7_s1
I0327 09:42:55.196651  4586 net.cpp:210] Setting up pool5/7x7_s1
I0327 09:42:55.196663  4586 net.cpp:217] Top shape: 50 1024 1 1 (51200)
I0327 09:42:55.196671  4586 net.cpp:225] Memory required for data: 2805627624
I0327 09:42:55.196681  4586 layer_factory.hpp:114] Creating layer pool5/drop_7x7_s1
I0327 09:42:55.196697  4586 net.cpp:160] Creating Layer pool5/drop_7x7_s1
I0327 09:42:55.196707  4586 net.cpp:596] pool5/drop_7x7_s1 <- pool5/7x7_s1
I0327 09:42:55.196718  4586 net.cpp:557] pool5/drop_7x7_s1 -> pool5/7x7_s1 (in-place)
I0327 09:42:55.196735  4586 net.cpp:210] Setting up pool5/drop_7x7_s1
I0327 09:42:55.196746  4586 net.cpp:217] Top shape: 50 1024 1 1 (51200)
I0327 09:42:55.196754  4586 net.cpp:225] Memory required for data: 2805832424
I0327 09:42:55.196763  4586 layer_factory.hpp:114] Creating layer loss3/classifier
I0327 09:42:55.196782  4586 net.cpp:160] Creating Layer loss3/classifier
I0327 09:42:55.196791  4586 net.cpp:596] loss3/classifier <- pool5/7x7_s1
I0327 09:42:55.196808  4586 net.cpp:570] loss3/classifier -> loss3/classifier
I0327 09:42:55.213822  4586 net.cpp:210] Setting up loss3/classifier
I0327 09:42:55.213877  4586 net.cpp:217] Top shape: 50 1000 (50000)
I0327 09:42:55.213912  4586 net.cpp:225] Memory required for data: 2806032424
I0327 09:42:55.213930  4586 layer_factory.hpp:114] Creating layer loss3/classifier_loss3/classifier_0_split
I0327 09:42:55.213948  4586 net.cpp:160] Creating Layer loss3/classifier_loss3/classifier_0_split
I0327 09:42:55.213961  4586 net.cpp:596] loss3/classifier_loss3/classifier_0_split <- loss3/classifier
I0327 09:42:55.213976  4586 net.cpp:570] loss3/classifier_loss3/classifier_0_split -> loss3/classifier_loss3/classifier_0_split_0
I0327 09:42:55.213995  4586 net.cpp:570] loss3/classifier_loss3/classifier_0_split -> loss3/classifier_loss3/classifier_0_split_1
I0327 09:42:55.214015  4586 net.cpp:570] loss3/classifier_loss3/classifier_0_split -> loss3/classifier_loss3/classifier_0_split_2
I0327 09:42:55.214038  4586 net.cpp:210] Setting up loss3/classifier_loss3/classifier_0_split
I0327 09:42:55.214051  4586 net.cpp:217] Top shape: 50 1000 (50000)
I0327 09:42:55.214061  4586 net.cpp:217] Top shape: 50 1000 (50000)
I0327 09:42:55.214071  4586 net.cpp:217] Top shape: 50 1000 (50000)
I0327 09:42:55.214079  4586 net.cpp:225] Memory required for data: 2806632424
I0327 09:42:55.214087  4586 layer_factory.hpp:114] Creating layer loss3/loss3
I0327 09:42:55.214099  4586 net.cpp:160] Creating Layer loss3/loss3
I0327 09:42:55.214108  4586 net.cpp:596] loss3/loss3 <- loss3/classifier_loss3/classifier_0_split_0
I0327 09:42:55.214120  4586 net.cpp:596] loss3/loss3 <- label_data_1_split_6
…
