…
I0116 19:52:52.670230 13663 net.cpp:322] The NetState phase (0) differed from the phase (1) specified by a rule in layer accuracy
I0116 19:52:52.670765 13663 net.cpp:58] Initializing net from parameters: 
name: "CIFAR10_full"
state {
  phase: TRAIN
  level: 0
  stage: ""
}
layer {
  name: "cifar"
  type: "Data"
  top: "data"
  top: "label"
  include {
    phase: TRAIN
  }
  transform_param {
    mean_file: "examples/cifar10/mean.binaryproto"
  }
  data_param {
    source: "examples/cifar10/cifar10_train_lmdb"
    batch_size: 128
    backend: LMDB
  }
}
layer {
  name: "conv1"
  type: "Convolution"
  bottom: "data"
  top: "conv1"
  param {
    lr_mult: 1
  }
  param {
    lr_mult: 2
  }
  convolution_param {
    num_output: 32
    pad: 2
    kernel_size: 5
    stride: 1
    weight_filler {
      type: "gaussian"
      std: 0.0001
    }
    bias_filler {
      type: "constant"
    }
  }
}
layer {
  name: "pool1"
  type: "Pooling"
  bottom: "conv1"
  top: "pool1"
  pooling_param {
    pool: MAX
    kernel_size: 3
    stride: 2
  }
}
layer {
  name: "relu1"
  type: "ReLU"
  bottom: "pool1"
  top: "pool1"
}
layer {
  name: "norm1"
  type: "LRN"
  bottom: "pool1"
  top: "norm1"
  lrn_param {
    local_size: 3
    alpha: 5e-05
    beta: 0.75
    norm_region: WITHIN_CHANNEL
  }
}
layer {
  name: "conv2"
  type: "Convolution"
  bottom: "norm1"
  top: "conv2"
  param {
    lr_mult: 1
  }
  param {
    lr_mult: 2
  }
  convolution_param {
    num_output: 32
    pad: 2
    kernel_size: 5
    stride: 1
    weight_filler {
      type: "gaussian"
      std: 0.01
    }
    bias_filler {
      type: "constant"
    }
  }
}
layer {
  name: "relu2"
  type: "ReLU"
  bottom: "conv2"
  top: "conv2"
}
layer {
  name: "pool2"
  type: "Pooling"
  bottom: "conv2"
  top: "pool2"
  pooling_param {
    pool: AVE
    kernel_size: 3
    stride: 2
  }
}
layer {
  name: "norm2"
  type: "LRN"
  bottom: "pool2"
  top: "norm2"
  lrn_param {
    local_size: 3
    alpha: 5e-05
    beta: 0.75
    norm_region: WITHIN_CHANNEL
  }
}
layer {
  name: "conv3"
  type: "Convolution"
  bottom: "norm2"
  top: "conv3"
  convolution_param {
    num_output: 64
    pad: 2
    kernel_size: 5
    stride: 1
    weight_filler {
      type: "gaussian"
      std: 0.01
    }
    bias_filler {
      type: "constant"
    }
  }
}
layer {
  name: "relu3"
  type: "ReLU"
  bottom: "conv3"
  top: "conv3"
}
layer {
  name: "pool3"
  type: "Pooling"
  bottom: "conv3"
  top: "pool3"
  pooling_param {
    pool: AVE
    kernel_size: 3
    stride: 2
  }
}
layer {
  name: "ip1"
  type: "InnerProduct"
  bottom: "pool3"
  top: "ip1"
  param {
    lr_mult: 1
    decay_mult: 250
  }
  param {
    lr_mult: 2
    decay_mult: 0
  }
  inner_product_param {
    num_output: 10
    weight_filler {
      type: "gaussian"
      std: 0.01
    }
    bias_filler {
      type: "constant"
    }
  }
}
layer {
  name: "loss"
  type: "SoftmaxWithLoss"
  bottom: "ip1"
  bottom: "label"
  top: "loss"
}
I0116 19:52:52.670917 13663 layer_factory.hpp:77] Creating layer cifar
I0116 19:52:52.671702 13663 net.cpp:100] Creating Layer cifar
I0116 19:52:52.671735 13663 net.cpp:408] cifar -> data
I0116 19:52:52.671789 13663 net.cpp:408] cifar -> label
I0116 19:52:52.671943 13663 data_transformer.cpp:25] Loading mean file from: examples/cifar10/mean.binaryproto
I0116 19:52:52.672358 13664 db_lmdb.cpp:35] Opened lmdb examples/cifar10/cifar10_train_lmdb
I0116 19:52:52.672708 13663 data_layer.cpp:41] output data size: 128,3,32,32
I0116 19:52:52.683202 13663 net.cpp:150] Setting up cifar
I0116 19:52:52.683349 13663 net.cpp:157] Top shape: 128 3 32 32 (393216)
I0116 19:52:52.683385 13663 net.cpp:157] Top shape: 128 (128)
I0116 19:52:52.683396 13663 net.cpp:165] Memory required for data: 1573376
I0116 19:52:52.683424 13663 layer_factory.hpp:77] Creating layer conv1
I0116 19:52:52.683468 13663 net.cpp:100] Creating Layer conv1
I0116 19:52:52.683485 13663 net.cpp:434] conv1 <- data
I0116 19:52:52.683513 13663 net.cpp:408] conv1 -> conv1
I0116 19:52:52.683876 13663 net.cpp:150] Setting up conv1
I0116 19:52:52.684021 13663 net.cpp:157] Top shape: 128 32 32 32 (4194304)
I0116 19:52:52.684046 13663 net.cpp:165] Memory required for data: 18350592
I0116 19:52:52.684097 13663 layer_factory.hpp:77] Creating layer pool1
I0116 19:52:52.684123 13663 net.cpp:100] Creating Layer pool1
I0116 19:52:52.684134 13663 net.cpp:434] pool1 <- conv1
I0116 19:52:52.684147 13663 net.cpp:408] pool1 -> pool1
I0116 19:52:52.684192 13663 net.cpp:150] Setting up pool1
I0116 19:52:52.684206 13663 net.cpp:157] Top shape: 128 32 16 16 (1048576)
I0116 19:52:52.684216 13663 net.cpp:165] Memory required for data: 22544896
I0116 19:52:52.684224 13663 layer_factory.hpp:77] Creating layer relu1
I0116 19:52:52.684237 13663 net.cpp:100] Creating Layer relu1
I0116 19:52:52.684258 13663 net.cpp:434] relu1 <- pool1
I0116 19:52:52.684274 13663 net.cpp:395] relu1 -> pool1 (in-place)
I0116 19:52:52.684293 13663 net.cpp:150] Setting up relu1
I0116 19:52:52.684321 13663 net.cpp:157] Top shape: 128 32 16 16 (1048576)
I0116 19:52:52.684331 13663 net.cpp:165] Memory required for data: 26739200
I0116 19:52:52.684340 13663 layer_factory.hpp:77] Creating layer norm1
I0116 19:52:52.684356 13663 net.cpp:100] Creating Layer norm1
I0116 19:52:52.684366 13663 net.cpp:434] norm1 <- pool1
I0116 19:52:52.684378 13663 net.cpp:408] norm1 -> norm1
I0116 19:52:52.684459 13663 net.cpp:150] Setting up norm1
I0116 19:52:52.684473 13663 net.cpp:157] Top shape: 128 32 16 16 (1048576)
I0116 19:52:52.684483 13663 net.cpp:165] Memory required for data: 30933504
I0116 19:52:52.684492 13663 layer_factory.hpp:77] Creating layer conv2
I0116 19:52:52.684512 13663 net.cpp:100] Creating Layer conv2
I0116 19:52:52.684522 13663 net.cpp:434] conv2 <- norm1
I0116 19:52:52.684543 13663 net.cpp:408] conv2 -> conv2
I0116 19:52:52.686794 13663 net.cpp:150] Setting up conv2
I0116 19:52:52.686853 13663 net.cpp:157] Top shape: 128 32 16 16 (1048576)
I0116 19:52:52.686874 13663 net.cpp:165] Memory required for data: 35127808
I0116 19:52:52.686893 13663 layer_factory.hpp:77] Creating layer relu2
I0116 19:52:52.686906 13663 net.cpp:100] Creating Layer relu2
I0116 19:52:52.686916 13663 net.cpp:434] relu2 <- conv2
I0116 19:52:52.686933 13663 net.cpp:395] relu2 -> conv2 (in-place)
I0116 19:52:52.686949 13663 net.cpp:150] Setting up relu2
I0116 19:52:52.686962 13663 net.cpp:157] Top shape: 128 32 16 16 (1048576)
I0116 19:52:52.686971 13663 net.cpp:165] Memory required for data: 39322112
I0116 19:52:52.686980 13663 layer_factory.hpp:77] Creating layer pool2
I0116 19:52:52.686993 13663 net.cpp:100] Creating Layer pool2
I0116 19:52:52.687003 13663 net.cpp:434] pool2 <- conv2
I0116 19:52:52.687019 13663 net.cpp:408] pool2 -> pool2
I0116 19:52:52.687036 13663 net.cpp:150] Setting up pool2
I0116 19:52:52.687049 13663 net.cpp:157] Top shape: 128 32 8 8 (262144)
I0116 19:52:52.687058 13663 net.cpp:165] Memory required for data: 40370688
I0116 19:52:52.687067 13663 layer_factory.hpp:77] Creating layer norm2
I0116 19:52:52.687084 13663 net.cpp:100] Creating Layer norm2
I0116 19:52:52.687095 13663 net.cpp:434] norm2 <- pool2
I0116 19:52:52.687108 13663 net.cpp:408] norm2 -> norm2
I0116 19:52:52.687150 13663 net.cpp:150] Setting up norm2
I0116 19:52:52.687165 13663 net.cpp:157] Top shape: 128 32 8 8 (262144)
I0116 19:52:52.687173 13663 net.cpp:165] Memory required for data: 41419264
I0116 19:52:52.687181 13663 layer_factory.hpp:77] Creating layer conv3
I0116 19:52:52.687221 13663 net.cpp:100] Creating Layer conv3
I0116 19:52:52.687266 13663 net.cpp:434] conv3 <- norm2
I0116 19:52:52.687289 13663 net.cpp:408] conv3 -> conv3
I0116 19:52:52.692523 13663 net.cpp:150] Setting up conv3
I0116 19:52:52.692549 13663 net.cpp:157] Top shape: 128 64 8 8 (524288)
I0116 19:52:52.692559 13663 net.cpp:165] Memory required for data: 43516416
I0116 19:52:52.692582 13663 layer_factory.hpp:77] Creating layer relu3
I0116 19:52:52.692596 13663 net.cpp:100] Creating Layer relu3
I0116 19:52:52.692610 13663 net.cpp:434] relu3 <- conv3
I0116 19:52:52.692625 13663 net.cpp:395] relu3 -> conv3 (in-place)
I0116 19:52:52.692642 13663 net.cpp:150] Setting up relu3
I0116 19:52:52.692654 13663 net.cpp:157] Top shape: 128 64 8 8 (524288)
I0116 19:52:52.692664 13663 net.cpp:165] Memory required for data: 45613568
I0116 19:52:52.692673 13663 layer_factory.hpp:77] Creating layer pool3
I0116 19:52:52.692687 13663 net.cpp:100] Creating Layer pool3
I0116 19:52:52.692695 13663 net.cpp:434] pool3 <- conv3
I0116 19:52:52.692708 13663 net.cpp:408] pool3 -> pool3
I0116 19:52:52.692723 13663 net.cpp:150] Setting up pool3
I0116 19:52:52.692736 13663 net.cpp:157] Top shape: 128 64 4 4 (131072)
I0116 19:52:52.692745 13663 net.cpp:165] Memory required for data: 46137856
I0116 19:52:52.692754 13663 layer_factory.hpp:77] Creating layer ip1
I0116 19:52:52.692778 13663 net.cpp:100] Creating Layer ip1
I0116 19:52:52.692788 13663 net.cpp:434] ip1 <- pool3
I0116 19:52:52.692806 13663 net.cpp:408] ip1 -> ip1
I0116 19:52:52.693846 13663 net.cpp:150] Setting up ip1
I0116 19:52:52.693861 13663 net.cpp:157] Top shape: 128 10 (1280)
I0116 19:52:52.693871 13663 net.cpp:165] Memory required for data: 46142976
I0116 19:52:52.693886 13663 layer_factory.hpp:77] Creating layer loss
I0116 19:52:52.693907 13663 net.cpp:100] Creating Layer loss
I0116 19:52:52.693917 13663 net.cpp:434] loss <- ip1
I0116 19:52:52.693928 13663 net.cpp:434] loss <- label
I0116 19:52:52.693951 13663 net.cpp:408] loss -> loss
I0116 19:52:52.693980 13663 layer_factory.hpp:77] Creating layer loss
…
I0116 19:52:52.695344 13663 solver.cpp:181] Creating test net (#0) specified by net file: examples/cifar10/cifar10_full_train_test_bsize128.prototxt
I0116 19:52:52.695405 13663 net.cpp:322] The NetState phase (1) differed from the phase (0) specified by a rule in layer cifar
I0116 19:52:52.695950 13663 net.cpp:58] Initializing net from parameters: 
name: "CIFAR10_full"
state {
  phase: TEST
}
layer {
  name: "cifar"
  type: "Data"
  top: "data"
  top: "label"
  include {
    phase: TEST
  }
  transform_param {
    mean_file: "examples/cifar10/mean.binaryproto"
  }
  data_param {
    source: "examples/cifar10/cifar10_test_lmdb"
    batch_size: 100
    backend: LMDB
  }
}
layer {
  name: "conv1"
  type: "Convolution"
  bottom: "data"
  top: "conv1"
  param {
    lr_mult: 1
  }
  param {
    lr_mult: 2
  }
  convolution_param {
    num_output: 32
    pad: 2
    kernel_size: 5
    stride: 1
    weight_filler {
      type: "gaussian"
      std: 0.0001
    }
    bias_filler {
      type: "constant"
    }
  }
}
layer {
  name: "pool1"
  type: "Pooling"
  bottom: "conv1"
  top: "pool1"
  pooling_param {
    pool: MAX
    kernel_size: 3
    stride: 2
  }
}
layer {
  name: "relu1"
  type: "ReLU"
  bottom: "pool1"
  top: "pool1"
}
layer {
  name: "norm1"
  type: "LRN"
  bottom: "pool1"
  top: "norm1"
  lrn_param {
    local_size: 3
    alpha: 5e-05
    beta: 0.75
    norm_region: WITHIN_CHANNEL
  }
}
layer {
  name: "conv2"
  type: "Convolution"
  bottom: "norm1"
  top: "conv2"
  param {
    lr_mult: 1
  }
  param {
    lr_mult: 2
  }
  convolution_param {
    num_output: 32
    pad: 2
    kernel_size: 5
    stride: 1
    weight_filler {
      type: "gaussian"
      std: 0.01
    }
    bias_filler {
      type: "constant"
    }
  }
}
layer {
  name: "relu2"
  type: "ReLU"
  bottom: "conv2"
  top: "conv2"
}
layer {
  name: "pool2"
  type: "Pooling"
  bottom: "conv2"
  top: "pool2"
  pooling_param {
    pool: AVE
    kernel_size: 3
    stride: 2
  }
}
layer {
  name: "norm2"
  type: "LRN"
  bottom: "pool2"
  top: "norm2"
  lrn_param {
    local_size: 3
    alpha: 5e-05
    beta: 0.75
    norm_region: WITHIN_CHANNEL
  }
}
layer {
  name: "conv3"
  type: "Convolution"
  bottom: "norm2"
  top: "conv3"
  convolution_param {
    num_output: 64
    pad: 2
    kernel_size: 5
    stride: 1
    weight_filler {
      type: "gaussian"
      std: 0.01
    }
    bias_filler {
      type: "constant"
    }
  }
}
layer {
  name: "relu3"
  type: "ReLU"
  bottom: "conv3"
  top: "conv3"
}
layer {
  name: "pool3"
  type: "Pooling"
  bottom: "conv3"
  top: "pool3"
  pooling_param {
    pool: AVE
    kernel_size: 3
    stride: 2
  }
}
layer {
  name: "ip1"
  type: "InnerProduct"
  bottom: "pool3"
  top: "ip1"
  param {
    lr_mult: 1
    decay_mult: 250
  }
  param {
    lr_mult: 2
    decay_mult: 0
  }
  inner_product_param {
    num_output: 10
    weight_filler {
      type: "gaussian"
      std: 0.01
    }
    bias_filler {
      type: "constant"
    }
  }
}
layer {
  name: "accuracy"
  type: "Accuracy"
  bottom: "ip1"
  bottom: "label"
  top: "accuracy"
  include {
    phase: TEST
  }
}
layer {
  name: "loss"
  type: "SoftmaxWithLoss"
  bottom: "ip1"
  bottom: "label"
  top: "loss"
}
I0116 19:52:52.696122 13663 layer_factory.hpp:77] Creating layer cifar
I0116 19:52:52.696765 13663 net.cpp:100] Creating Layer cifar
I0116 19:52:52.696796 13663 net.cpp:408] cifar -> data
I0116 19:52:52.696816 13663 net.cpp:408] cifar -> label
I0116 19:52:52.696835 13663 data_transformer.cpp:25] Loading mean file from: examples/cifar10/mean.binaryproto
I0116 19:52:52.697015 13666 db_lmdb.cpp:35] Opened lmdb examples/cifar10/cifar10_test_lmdb
I0116 19:52:52.697163 13663 data_layer.cpp:41] output data size: 100,3,32,32
I0116 19:52:52.705741 13663 net.cpp:150] Setting up cifar
I0116 19:52:52.705790 13663 net.cpp:157] Top shape: 100 3 32 32 (307200)
I0116 19:52:52.705801 13663 net.cpp:157] Top shape: 100 (100)
I0116 19:52:52.705811 13663 net.cpp:165] Memory required for data: 1229200
I0116 19:52:52.705824 13663 layer_factory.hpp:77] Creating layer label_cifar_1_split
I0116 19:52:52.705904 13663 net.cpp:100] Creating Layer label_cifar_1_split
I0116 19:52:52.705945 13663 net.cpp:434] label_cifar_1_split <- label
I0116 19:52:52.705974 13663 net.cpp:408] label_cifar_1_split -> label_cifar_1_split_0
I0116 19:52:52.705996 13663 net.cpp:408] label_cifar_1_split -> label_cifar_1_split_1
I0116 19:52:52.706013 13663 net.cpp:150] Setting up label_cifar_1_split
I0116 19:52:52.706028 13663 net.cpp:157] Top shape: 100 (100)
I0116 19:52:52.706039 13663 net.cpp:157] Top shape: 100 (100)
I0116 19:52:52.706049 13663 net.cpp:165] Memory required for data: 1230000
I0116 19:52:52.706099 13663 layer_factory.hpp:77] Creating layer conv1
I0116 19:52:52.706125 13663 net.cpp:100] Creating Layer conv1
I0116 19:52:52.706135 13663 net.cpp:434] conv1 <- data
I0116 19:52:52.706152 13663 net.cpp:408] conv1 -> conv1
I0116 19:52:52.706429 13663 net.cpp:150] Setting up conv1
I0116 19:52:52.706446 13663 net.cpp:157] Top shape: 100 32 32 32 (3276800)
I0116 19:52:52.706455 13663 net.cpp:165] Memory required for data: 14337200
I0116 19:52:52.706478 13663 layer_factory.hpp:77] Creating layer pool1
I0116 19:52:52.706495 13663 net.cpp:100] Creating Layer pool1
I0116 19:52:52.706504 13663 net.cpp:434] pool1 <- conv1
I0116 19:52:52.706517 13663 net.cpp:408] pool1 -> pool1
I0116 19:52:52.706537 13663 net.cpp:150] Setting up pool1
I0116 19:52:52.706550 13663 net.cpp:157] Top shape: 100 32 16 16 (819200)
I0116 19:52:52.706559 13663 net.cpp:165] Memory required for data: 17614000
I0116 19:52:52.706568 13663 layer_factory.hpp:77] Creating layer relu1
I0116 19:52:52.706586 13663 net.cpp:100] Creating Layer relu1
I0116 19:52:52.706596 13663 net.cpp:434] relu1 <- pool1
I0116 19:52:52.706609 13663 net.cpp:395] relu1 -> pool1 (in-place)
I0116 19:52:52.706624 13663 net.cpp:150] Setting up relu1
I0116 19:52:52.706640 13663 net.cpp:157] Top shape: 100 32 16 16 (819200)
I0116 19:52:52.706648 13663 net.cpp:165] Memory required for data: 20890800
I0116 19:52:52.706658 13663 layer_factory.hpp:77] Creating layer norm1
I0116 19:52:52.706673 13663 net.cpp:100] Creating Layer norm1
I0116 19:52:52.706683 13663 net.cpp:434] norm1 <- pool1
I0116 19:52:52.706696 13663 net.cpp:408] norm1 -> norm1
I0116 19:52:52.706745 13663 net.cpp:150] Setting up norm1
I0116 19:52:52.706758 13663 net.cpp:157] Top shape: 100 32 16 16 (819200)
I0116 19:52:52.706768 13663 net.cpp:165] Memory required for data: 24167600
I0116 19:52:52.706776 13663 layer_factory.hpp:77] Creating layer conv2
I0116 19:52:52.706795 13663 net.cpp:100] Creating Layer conv2
I0116 19:52:52.706805 13663 net.cpp:434] conv2 <- norm1
I0116 19:52:52.706822 13663 net.cpp:408] conv2 -> conv2
I0116 19:52:52.709220 13663 net.cpp:150] Setting up conv2
I0116 19:52:52.709256 13663 net.cpp:157] Top shape: 100 32 16 16 (819200)
I0116 19:52:52.709267 13663 net.cpp:165] Memory required for data: 27444400
I0116 19:52:52.709287 13663 layer_factory.hpp:77] Creating layer relu2
I0116 19:52:52.709305 13663 net.cpp:100] Creating Layer relu2
I0116 19:52:52.709314 13663 net.cpp:434] relu2 <- conv2
I0116 19:52:52.709334 13663 net.cpp:395] relu2 -> conv2 (in-place)
I0116 19:52:52.709350 13663 net.cpp:150] Setting up relu2
I0116 19:52:52.709362 13663 net.cpp:157] Top shape: 100 32 16 16 (819200)
I0116 19:52:52.709372 13663 net.cpp:165] Memory required for data: 30721200
I0116 19:52:52.709381 13663 layer_factory.hpp:77] Creating layer pool2
I0116 19:52:52.709395 13663 net.cpp:100] Creating Layer pool2
I0116 19:52:52.709405 13663 net.cpp:434] pool2 <- conv2
I0116 19:52:52.709421 13663 net.cpp:408] pool2 -> pool2
I0116 19:52:52.709444 13663 net.cpp:150] Setting up pool2
I0116 19:52:52.709456 13663 net.cpp:157] Top shape: 100 32 8 8 (204800)
I0116 19:52:52.709466 13663 net.cpp:165] Memory required for data: 31540400
I0116 19:52:52.709475 13663 layer_factory.hpp:77] Creating layer norm2
I0116 19:52:52.709492 13663 net.cpp:100] Creating Layer norm2
I0116 19:52:52.709502 13663 net.cpp:434] norm2 <- pool2
I0116 19:52:52.709516 13663 net.cpp:408] norm2 -> norm2
I0116 19:52:52.709559 13663 net.cpp:150] Setting up norm2
I0116 19:52:52.709573 13663 net.cpp:157] Top shape: 100 32 8 8 (204800)
I0116 19:52:52.709581 13663 net.cpp:165] Memory required for data: 32359600
I0116 19:52:52.709590 13663 layer_factory.hpp:77] Creating layer conv3
I0116 19:52:52.709610 13663 net.cpp:100] Creating Layer conv3
I0116 19:52:52.709621 13663 net.cpp:434] conv3 <- norm2
I0116 19:52:52.709637 13663 net.cpp:408] conv3 -> conv3
I0116 19:52:52.714139 13663 net.cpp:150] Setting up conv3
I0116 19:52:52.714159 13663 net.cpp:157] Top shape: 100 64 8 8 (409600)
I0116 19:52:52.714169 13663 net.cpp:165] Memory required for data: 33998000
I0116 19:52:52.714212 13663 layer_factory.hpp:77] Creating layer relu3
I0116 19:52:52.714226 13663 net.cpp:100] Creating Layer relu3
I0116 19:52:52.714236 13663 net.cpp:434] relu3 <- conv3
I0116 19:52:52.714262 13663 net.cpp:395] relu3 -> conv3 (in-place)
I0116 19:52:52.714277 13663 net.cpp:150] Setting up relu3
I0116 19:52:52.714288 13663 net.cpp:157] Top shape: 100 64 8 8 (409600)
I0116 19:52:52.714296 13663 net.cpp:165] Memory required for data: 35636400
I0116 19:52:52.714305 13663 layer_factory.hpp:77] Creating layer pool3
I0116 19:52:52.714318 13663 net.cpp:100] Creating Layer pool3
I0116 19:52:52.714326 13663 net.cpp:434] pool3 <- conv3
I0116 19:52:52.714339 13663 net.cpp:408] pool3 -> pool3
I0116 19:52:52.714354 13663 net.cpp:150] Setting up pool3
I0116 19:52:52.714370 13663 net.cpp:157] Top shape: 100 64 4 4 (102400)
I0116 19:52:52.714380 13663 net.cpp:165] Memory required for data: 36046000
I0116 19:52:52.714387 13663 layer_factory.hpp:77] Creating layer ip1
I0116 19:52:52.714403 13663 net.cpp:100] Creating Layer ip1
I0116 19:52:52.714412 13663 net.cpp:434] ip1 <- pool3
I0116 19:52:52.714428 13663 net.cpp:408] ip1 -> ip1
I0116 19:52:52.715351 13663 net.cpp:150] Setting up ip1
I0116 19:52:52.715368 13663 net.cpp:157] Top shape: 100 10 (1000)
I0116 19:52:52.715378 13663 net.cpp:165] Memory required for data: 36050000
I0116 19:52:52.715391 13663 layer_factory.hpp:77] Creating layer ip1_ip1_0_split
I0116 19:52:52.715404 13663 net.cpp:100] Creating Layer ip1_ip1_0_split
I0116 19:52:52.715412 13663 net.cpp:434] ip1_ip1_0_split <- ip1
I0116 19:52:52.715423 13663 net.cpp:408] ip1_ip1_0_split -> ip1_ip1_0_split_0
I0116 19:52:52.715437 13663 net.cpp:408] ip1_ip1_0_split -> ip1_ip1_0_split_1
I0116 19:52:52.715451 13663 net.cpp:150] Setting up ip1_ip1_0_split
I0116 19:52:52.715463 13663 net.cpp:157] Top shape: 100 10 (1000)
I0116 19:52:52.715474 13663 net.cpp:157] Top shape: 100 10 (1000)
I0116 19:52:52.715482 13663 net.cpp:165] Memory required for data: 36058000
I0116 19:52:52.715492 13663 layer_factory.hpp:77] Creating layer accuracy
I0116 19:52:52.715512 13663 net.cpp:100] Creating Layer accuracy
I0116 19:52:52.715523 13663 net.cpp:434] accuracy <- ip1_ip1_0_split_0
I0116 19:52:52.715533 13663 net.cpp:434] accuracy <- label_cifar_1_split_0
I0116 19:52:52.715549 13663 net.cpp:408] accuracy -> accuracy
…
