…
I0201 12:09:22.937041 12021 net.cpp:322] The NetState phase (0) differed from the phase (1) specified by a rule in layer loss3/top-5
I0201 12:09:22.940558 12021 net.cpp:58] Initializing net from parameters: 
name: "GoogleNet"
state {
  phase: TRAIN
  level: 0
  stage: ""
}
layer {
  name: "data"
  type: "Data"
  top: "data"
  top: "label"
  include {
    phase: TRAIN
  }
  transform_param {
    mirror: true
    crop_size: 224
    mean_value: 104
    mean_value: 117
    mean_value: 123
  }
  data_param {
    source: "/home/user/caffeOMP/original/caffe/examples/imagenet/ilsvrc12_train_lmdb"
    batch_size: 32
    backend: LMDB
  }
}
layer {
  name: "conv1/7x7_s2"
  type: "Convolution"
  bottom: "data"
  top: "conv1/7x7_s2"
  param {
    lr_mult: 1
    decay_mult: 1
  }
  param {
    lr_mult: 2
    decay_mult: 0
  }
  convolution_param {
    num_output: 64
    pad: 3
    kernel_size: 7
    stride: 2
    weight_filler {
      type: "xavier"
    }
    bias_filler {
      type: "constant"
      value: 0.2
    }
  }
}
layer {
  name: "conv1/relu_7x7"
  type: "ReLU"
  bottom: "conv1/7x7_s2"
  top: "conv1/7x7_s2"
}
layer {
  name: "pool1/3x3_s2"
  type: "Pooling"
  bottom: "conv1/7x7_s2"
  top: "pool1/3x3_s2"
  pooling_param {
    pool: MAX
    kernel_size: 3
    stride: 2
  }
}
layer {
  name: "pool1/norm1"
  type: "LRN"
  bottom: "pool1/3x3_s2"
  top: "pool1/norm1"
  lrn_param {
    local_size: 5
    alpha: 0.0001
    beta: 0.75
  }
}
layer {
  name: "conv2/3x3_reduce"
  type: "Convolution"
  bottom: "pool1/norm1"
  top: "conv2/3x3_reduce"
  param {
    lr_mult: 1
    decay_mult: 1
  }
  param {
    lr_mult: 2
    decay_mult: 0
  }
  convolution_param {
    num_output: 64
    kernel_size: 1
    weight_filler {
      type: "xavier"
    }
    bias_filler {
      type: "constant"
      value: 0.2
    }
  }
}
layer {
  name: "conv2/relu_3x3_reduce"
  type: "ReLU"
  bottom: "conv2/3x3_reduce"
  top: "conv2/3x3_reduce"
}
layer {
  name: "conv2/3x3"
  type: "Convolution"
  bottom: "conv2/3x3_reduce"
  top: "conv2/3x3"
  param {
    lr_mult: 1
    decay_mult: 1
  }
  param {
    lr_mult: 2
    decay_mult: 0
  }
  convolution_param {
    num_output: 192
    pad: 1
    kernel_size: 3
    weight_filler {
      type: "xavier"
    }
    bias_filler {
      type: "constant"
      value: 0.2
    }
  }
}
layer {
  name: "conv2/relu_3x3"
  type: "ReLU"
  bottom: "conv2/3x3"
  top: "conv2/3x3"
}
layer {
  name: "conv2/norm2"
  type: "LRN"
  bottom: "conv2/3x3"
  top: "conv2/norm2"
  lrn_param {
    local_size: 5
    alpha: 0.0001
    beta: 0.75
  }
}
layer {
  name: "pool2/3x3_s2"
  type: "Pooling"
  bottom: "conv2/norm2"
  top: "pool2/3x3_s2"
  pooling_param {
    pool: MAX
    kernel_size: 3
    stride: 2
  }
}
layer {
  name: "inception_3a/1x1"
  type: "Convolution"
  bottom: "pool2/3x3_s2"
  top: "inception_3a/1x1"
  param {
    lr_mult: 1
    decay_mult: 1
  }
  param {
    lr_mult: 2
    decay_mult: 0
  }
  convolution_param {
    num_output: 64
    kernel_size: 1
    weight_filler {
      type: "xavier"
    }
    bias_filler {
      type: "constant"
      value: 0.2
    }
  }
}
layer {
  name: "inception_3a/relu_1x1"
  type: "ReLU"
  bottom: "inception_3a/1x1"
  top: "inception_3a/1x1"
}
layer {
  name: "inception_3a/3x3_reduce"
  type: "Convolution"
  bottom: "pool2/3x3_s2"
  top: "inception_3a/3x3_reduce"
  param {
    lr_mult: 1
    decay_mult: 1
  }
  param {
    lr_mult: 2
    decay_mult: 0
  }
  convolution_param {
    num_output: 96
    kernel_size: 1
    weight_filler {
      type: "xavier"
    }
    bias_filler {
      type: "constant"
      value: 0.2
    }
  }
}
layer {
  name: "inception_3a/relu_3x3_reduce"
  type: "ReLU"
  bottom: "inception_3a/3x3_reduce"
  top: "inception_3a/3x3_reduce"
}
layer {
  name: "inception_3a/3x3"
  type: "Convolution"
  bottom: "inception_3a/3x3_reduce"
  top: "inception_3a/3x3"
  param {
    lr_mult: 1
    decay_mult: 1
  }
  param {
    lr_mult: 2
    decay_mult: 0
  }
  convolution_param {
    num_output: 128
    pad: 1
    kernel_size: 3
    weight_filler {
      type: "xavier"
    }
    bias_filler {
      type: "constant"
      value: 0.2
    }
  }
}
layer {
  name: "inception_3a/relu_3x3"
  type: "ReLU"
  bottom: "inception_3a/3x3"
  top: "inception_3a/3x3"
}
layer {
  name: "inception_3a/5x5_reduce"
  type: "Convolution"
  bottom: "pool2/3x3_s2"
  top: "inception_3a/5x5_reduce"
  param {
    lr_mult: 1
    decay_mult: 1
  }
  param {
    lr_mult: 2
    decay_mult: 0
  }
  convolution_param {
    num_output: 16
    kernel_size: 1
    weight_filler {
      type: "xavier"
    }
    bias_filler {
      type: "constant"
      value: 0.2
    }
  }
}
layer {
  name: "inception_3a/relu_5x5_reduce"
  type: "ReLU"
  bottom: "inception_3a/5x5_reduce"
  top: "inception_3a/5x5_reduce"
}
layer {
  name: "inception_3a/5x5"
  type: "Convolution"
  bottom: "inception_3a/5x5_reduce"
  top: "inception_3a/5x5"
  param {
    lr_mult: 1
    decay_mult: 1
  }
  param {
    lr_mult: 2
    decay_mult: 0
  }
  convolution_param {
    num_output: 32
    pad: 2
    kernel_size: 5
    weight_filler {
      type: "xavier"
    }
    bias_filler {
      type: "constant"
      value: 0.2
    }
  }
}
layer {
  name: "inception_3a/relu_5x5"
  type: "ReLU"
  bottom: "inception_3a/5x5"
  top: "inception_3a/5x5"
}
layer {
  name: "inception_3a/pool"
  type: "Pooling"
  bottom: "pool2/3x3_s2"
  top: "inception_3a/pool"
  pooling_param {
    pool: MAX
    kernel_size: 3
    stride: 1
    pad: 1
  }
}
layer {
  name: "inception_3a/pool_proj"
  type: "Convolution"
  bottom: "inception_3a/pool"
  top: "inception_3a/pool_proj"
  param {
    lr_mult: 1
    decay_mult: 1
  }
  param {
    lr_mult: 2
    decay_mult: 0
  }
  convolution_param {
    num_output: 32
    kernel_size: 1
    weight_filler {
      type: "xavier"
    }
    bias_filler {
      type: "constant"
      value: 0.2
    }
  }
}
layer {
  name: "inception_3a/relu_pool_proj"
  type: "ReLU"
  bottom: "inception_3a/pool_proj"
  top: "inception_3a/pool_proj"
}
layer {
  name: "inception_3a/output"
  type: "Concat"
  bottom: "inception_3a/1x1"
  bottom: "inception_3a/3x3"
  bottom: "inception_3a/5x5"
  bottom: "inception_3a/pool_proj"
  top: "inception_3a/output"
}
layer {
  name: "inception_3b/1x1"
  type: "Convolution"
  bottom: "inception_3a/output"
  top: "inception_3b/1x1"
  param {
    lr_mult: 1
    decay_mult: 1
  }
  param {
    lr_mult: 2
    decay_mult: 0
  }
  convolution_param {
    num_output: 128
    kernel_size: 1
    weight_filler {
      type: "xavier"
    }
    bias_filler {
      type: "constant"
      value: 0.2
    }
  }
}
layer {
  name: "inception_3b/relu_1x1"
  type: "ReLU"
  bottom: "inception_3b/1x1"
  top: "inception_3b/1x1"
}
layer {
  name: "inception_3b/3x3_reduce"
  type: "Convolution"
  bottom: "inception_3a/output"
  top: "inception_3b/3x3_reduce"
  param {
    lr_mult: 1
    decay_mult: 1
  }
  param {
    lr_mult: 2
    decay_mult: 0
  }
  convolution_param {
    num_output: 128
    kernel_size: 1
    weight_filler {
      type: "xavier"
    }
    bias_filler {
      type: "constant"
      value: 0.2
    }
  }
}
layer {
  name: "inception_3b/relu_3x3_reduce"
  type: "ReLU"
  bottom: "inception_3b/3x3_reduce"
  top: "inception_3b/3x3_reduce"
}
layer {
  name: "inception_3b/3x3"
  type: "Convolution"
  bottom: "inception_3b/3x3_reduce"
  top: "inception_3b/3x3"
  param {
    lr_mult: 1
    decay_mult: 1
  }
  param {
    lr_mult: 2
    decay_mult: 0
  }
  convolution_param {
    num_output: 192
    pad: 1
    kernel_size: 3
    weight_filler {
      type: "xavier"
    }
    bias_filler {
      type: "constant"
      value: 0.2
    }
  }
}
layer {
  name: "inception_3b/relu_3x3"
  type: "ReLU"
  bottom: "inception_3b/3x3"
  top: "inception_3b/3x3"
}
layer {
  name: "inception_3b/5x5_reduce"
  type: "Convolution"
  bottom: "inception_3a/output"
  top: "inception_3b/5x5_reduce"
  param {
    lr_mult: 1
    decay_mult: 1
  }
  param {
    lr_mult: 2
    decay_mult: 0
  }
  convolution_param {
    num_output: 32
    kernel_size: 1
    weight_filler {
      type: "xavier"
    }
    bias_filler {
      type: "constant"
      value: 0.2
    }
  }
}
layer {
  name: "inception_3b/relu_5x5_reduce"
  type: "ReLU"
  bottom: "inception_3b/5x5_reduce"
  top: "inception_3b/5x5_reduce"
}
layer {
  name: "inception_3b/5x5"
  type: "Convolution"
  bottom: "inception_3b/5x5_reduce"
  top: "inception_3b/5x5"
  param {
    lr_mult: 1
    decay_mult: 1
  }
  param {
    lr_mult: 2
    decay_mult: 0
  }
  convolution_param {
    num_output: 96
    pad: 2
    kernel_size: 5
    weight_filler {
      type: "xavier"
    }
    bias_filler {
      type: "constant"
      value: 0.2
    }
  }
}
layer {
  name: "inception_3b/relu_5x5"
  type: "ReLU"
  bottom: "inception_3b/5x5"
  top: "inception_3b/5x5"
}
layer {
  name: "inception_3b/pool"
  type: "Pooling"
  bottom: "inception_3a/output"
  top: "inception_3b/pool"
  pooling_param {
    pool: MAX
    kernel_size: 3
    stride: 1
    pad: 1
  }
}
layer {
  name: "inception_3b/pool_proj"
  type: "Convolution"
  bottom: "inception_3b/pool"
  top: "inception_3b/pool_proj"
  param {
    lr_mult: 1
    decay_mult: 1
  }
  param {
    lr_mult: 2
    decay_mult: 0
  }
  convolution_param {
    num_output: 64
    kernel_size: 1
    weight_filler {
      type: "xavier"
    }
    bias_filler {
      type: "constant"
      value: 0.2
    }
  }
}
layer {
  name: "inception_3b/relu_pool_proj"
  type: "ReLU"
  bottom: "inception_3b/pool_proj"
  top: "inception_3b/pool_proj"
}
layer {
  name: "inception_3b/output"
  type: "Concat"
  bottom: "inception_3b/1x1"
  bottom: "inception_3b/3x3"
  bottom: "inception_3b/5x5"
  bottom: "inception_3b/pool_proj"
  top: "inception_3b/output"
}
layer {
  name: "pool3/3x3_s2"
  type: "Pooling"
  bottom: "inception_3b/output"
  top: "pool3/3x3_s2"
  pooling_param {
    pool: MAX
    kernel_size: 3
    stride: 2
  }
}
layer {
  name: "inception_4a/1x1"
  type: "Convolution"
  bottom: "pool3/3x3_s2"
  top: "inception_4a/1x1"
  param {
    lr_mult: 1
    decay_mult: 1
  }
  param {
    lr_mult: 2
    decay_mult: 0
  }
  convolution_param {
    num_output: 192
    kernel_size: 1
    weight_filler {
      type: "xavier"
    }
    bias_filler {
      type: "constant"
      value: 0.2
    }
  }
}
layer {
  name: "inception_4a/relu_1x1"
  type: "ReLU"
  bottom: "inception_4a/1x1"
  top: "inception_4a/1x1"
}
layer {
  name: "inception_4a/3x3_reduce"
  type: "Convolution"
  bottom: "pool3/3x3_s2"
  top: "inception_4a/3x3_reduce"
  param {
    lr_mult: 1
    decay_mult: 1
  }
  param {
    lr_mult: 2
    decay_mult: 0
  }
  convolution_param {
    num_output: 96
    kernel_size: 1
    weight_filler {
      type: "xavier"
    }
    bias_filler {
      type: "constant"
      value: 0.2
    }
  }
}
layer {
  name: "inception_4a/relu_3x3_reduce"
  type: "ReLU"
  bottom: "inception_4a/3x3_reduce"
  top: "inception_4a/3x3_reduce"
}
layer {
  name: "inception_4a/3x3"
  type: "Convolution"
  bottom: "inception_4a/3x3_reduce"
  top: "inception_4a/3x3"
  param {
    lr_mult: 1
    decay_mult: 1
  }
  param {
    lr_mult: 2
    decay_mult: 0
  }
  convolution_param {
    num_output: 208
    pad: 1
    kernel_size: 3
    weight_filler {
      type: "xavier"
    }
    bias_filler {
      type: "constant"
      value: 0.2
    }
  }
}
layer {
  name: "inception_4a/relu_3x3"
  type: "ReLU"
  bottom: "inception_4a/3x3"
  top: "inception_4a/3x3"
}
layer {
  name: "inception_4a/5x5_reduce"
  type: "Convolution"
  bottom: "pool3/3x3_s2"
  top: "inception_4a/5x5_reduce"
  param {
    lr_mult: 1
    decay_mult: 1
  }
  param {
    lr_mult: 2
    decay_mult: 0
  }
  convolution_param {
    num_output: 16
    kernel_size: 1
    weight_filler {
      type: "xavier"
    }
    bias_filler {
      type: "constant"
      value: 0.2
    }
  }
}
layer {
  name: "inception_4a/relu_5x5_reduce"
  type: "ReLU"
  bottom: "inception_4a/5x5_reduce"
  top: "inception_4a/5x5_reduce"
}
layer {
  name: "inception_4a/5x5"
  type: "Convolution"
  bottom: "inception_4a/5x5_reduce"
  top: "inception_4a/5x5"
  param {
    lr_mult: 1
    decay_mult: 1
  }
  param {
    lr_mult: 2
    decay_mult: 0
  }
  convolution_param {
    num_output: 48
    pad: 2
    kernel_size: 5
    weight_filler {
      type: "xavier"
    }
    bias_filler {
      type: "constant"
      value: 0.2
    }
  }
}
layer {
  name: "inception_4a/relu_5x5"
  type: "ReLU"
  bottom: "inception_4a/5x5"
  top: "inception_4a/5x5"
}
layer {
  name: "inception_4a/pool"
  type: "Pooling"
  bottom: "pool3/3x3_s2"
  top: "inception_4a/pool"
  pooling_param {
    pool: MAX
    kernel_size: 3
    stride: 1
    pad: 1
  }
}
layer {
  name: "inception_4a/pool_proj"
  type: "Convolution"
  bottom: "inception_4a/pool"
  top: "inception_4a/pool_proj"
  param {
    lr_mult: 1
    decay_mult: 1
  }
  param {
    lr_mult: 2
    decay_mult: 0
  }
  convolution_param {
    num_output: 64
    kernel_size: 1
    weight_filler {
      type: "xavier"
    }
    bias_filler {
      type: "constant"
      value: 0.2
    }
  }
}
layer {
  name: "inception_4a/relu_pool_proj"
  type: "ReLU"
  bottom: "inception_4a/pool_proj"
  top: "inception_4a/pool_proj"
}
layer {
  name: "inception_4a/output"
  type: "Concat"
  bottom: "inception_4a/1x1"
  bottom: "inception_4a/3x3"
  bottom: "inception_4a/5x5"
  bottom: "inception_4a/pool_proj"
  top: "inception_4a/output"
}
layer {
  name: "loss1/ave_pool"
  type: "Pooling"
  bottom: "inception_4a/output"
  top: "loss1/ave_pool"
  pooling_param {
    pool: AVE
    kernel_size: 5
    stride: 3
  }
}
layer {
  name: "loss1/conv"
  type: "Convolution"
  bottom: "loss1/ave_pool"
  top: "loss1/conv"
  param {
    lr_mult: 1
    decay_mult: 1
  }
  param {
    lr_mult: 2
    decay_mult: 0
  }
  convolution_param {
    num_output: 128
    kernel_size: 1
    weight_filler {
      type: "xavier"
    }
    bias_filler {
      type: "constant"
      value: 0.2
    }
  }
}
layer {
  name: "loss1/relu_conv"
  type: "ReLU"
  bottom: "loss1/conv"
  top: "loss1/conv"
}
layer {
  name: "loss1/fc"
  type: "InnerProduct"
  bottom: "loss1/conv"
  top: "loss1/fc"
  param {
    lr_mult: 1
    decay_mult: 1
  }
  param {
    lr_mult: 2
    decay_mult: 0
  }
  inner_product_param {
    num_output: 1024
    weight_filler {
      type: "xavier"
    }
    bias_filler {
      type: "constant"
      value: 0.2
    }
  }
}
layer {
  name: "loss1/relu_fc"
  type: "ReLU"
  bottom: "loss1/fc"
  top: "loss1/fc"
}
layer {
  name: "loss1/drop_fc"
  type: "Dropout"
  bottom: "loss1/fc"
  top: "loss1/fc"
  dropout_param {
    dropout_ratio: 0.7
  }
}
layer {
  name: "loss1/classifier"
  type: "InnerProduct"
  bottom: "loss1/fc"
  top: "loss1/classifier"
  param {
    lr_mult: 1
    decay_mult: 1
  }
  param {
    lr_mult: 2
    decay_mult: 0
  }
  inner_product_param {
    num_output: 1000
    weight_filler {
      type: "xavier"
    }
    bias_filler {
      type: "constant"
      value: 0
    }
  }
}
layer {
  name: "loss1/loss"
  type: "SoftmaxWithLoss"
  bottom: "loss1/classifier"
  bottom: "label"
  top: "loss1/loss1"
  loss_weight: 0.3
}
layer {
  name: "inception_4b/1x1"
  type: "Convolution"
  bottom: "inception_4a/output"
  top: "inception_4b/1x1"
  param {
    lr_mult: 1
    decay_mult: 1
  }
  param {
    lr_mult: 2
    decay_mult: 0
  }
  convolution_param {
    num_output: 160
    kernel_size: 1
    weight_filler {
      type: "xavier"
    }
    bias_filler {
      type: "constant"
      value: 0.2
    }
  }
}
layer {
  name: "inception_4b/relu_1x1"
  type: "ReLU"
  bottom: "inception_4b/1x1"
  top: "inception_4b/1x1"
}
layer {
  name: "inception_4b/3x3_reduce"
  type: "Convolution"
  bottom: "inception_4a/output"
  top: "inception_4b/3x3_reduce"
  param {
    lr_mult: 1
    decay_mult: 1
  }
  param {
    lr_mult: 2
    decay_mult: 0
  }
  convolution_param {
    num_output: 112
    kernel_size: 1
    weight_filler {
      type: "xavier"
    }
    bias_filler {
      type: "constant"
      value: 0.2
    }
  }
}
layer {
  name: "inception_4b/relu_3x3_reduce"
  type: "ReLU"
  bottom: "inception_4b/3x3_reduce"
  top: "inception_4b/3x3_reduce"
}
layer {
  name: "inception_4b/3x3"
  type: "Convolution"
  bottom: "inception_4b/3x3_reduce"
  top: "inception_4b/3x3"
  param {
    lr_mult: 1
    decay_mult: 1
  }
  param {
    lr_mult: 2
    decay_mult: 0
  }
  convolution_param {
    num_output: 224
    pad: 1
    kernel_size: 3
    weight_filler {
      type: "xavier"
    }
    bias_filler {
      type: "constant"
      value: 0.2
    }
  }
}
layer {
  name: "inception_4b/relu_3x3"
  type: "ReLU"
  bottom: "inception_4b/3x3"
  top: "inception_4b/3x3"
}
layer {
  name: "inception_4b/5x5_reduce"
  type: "Convolution"
  bottom: "inception_4a/output"
  top: "inception_4b/5x5_reduce"
  param {
    lr_mult: 1
    decay_mult: 1
  }
  param {
    lr_mult: 2
    decay_mult: 0
  }
  convolution_param {
    num_output: 24
    kernel_size: 1
    weight_filler {
      type: "xavier"
    }
    bias_filler {
      type: "constant"
      value: 0.2
    }
  }
}
layer {
  name: "inception_4b/relu_5x5_reduce"
  type: "ReLU"
  bottom: "inception_4b/5x5_reduce"
  top: "inception_4b/5x5_reduce"
}
layer {
  name: "inception_4b/5x5"
  type: "Convolution"
  bottom: "inception_4b/5x5_reduce"
  top: "inception_4b/5x5"
  param {
    lr_mult: 1
    decay_mult: 1
  }
  param {
    lr_mult: 2
    decay_mult: 0
  }
  convolution_param {
    num_output: 64
    pad: 2
    kernel_size: 5
    weight_filler {
      type: "xavier"
    }
    bias_filler {
      type: "constant"
      value: 0.2
    }
  }
}
layer {
  name: "inception_4b/relu_5x5"
  type: "ReLU"
  bottom: "inception_4b/5x5"
  top: "inception_4b/5x5"
}
layer {
  name: "inception_4b/pool"
  type: "Pooling"
  bottom: "inception_4a/output"
  top: "inception_4b/pool"
  pooling_param {
    pool: MAX
    kernel_size: 3
    stride: 1
    pad: 1
  }
}
layer {
  name: "inception_4b/pool_proj"
  type: "Convolution"
  bottom: "inception_4b/pool"
  top: "inception_4b/pool_proj"
  param {
    lr_mult: 1
    decay_mult: 1
  }
  param {
    lr_mult: 2
    decay_mult: 0
  }
  convolution_param {
    num_output: 64
    kernel_size: 1
    weight_filler {
      type: "xavier"
    }
    bias_filler {
      type: "constant"
      value: 0.2
    }
  }
}
layer {
  name: "inception_4b/relu_pool_proj"
  type: "ReLU"
  bottom: "inception_4b/pool_proj"
  top: "inception_4b/pool_proj"
}
layer {
  name: "inception_4b/output"
  type: "Concat"
  bottom: "inception_4b/1x1"
  bottom: "inception_4b/3x3"
  bottom: "inception_4b/5x5"
  bottom: "inception_4b/pool_proj"
  top: "inception_4b/output"
}
layer {
  name: "inception_4c/1x1"
  type: "Convolution"
  bottom: "inception_4b/output"
  top: "inception_4c/1x1"
  param {
    lr_mult: 1
    decay_mult: 1
  }
  param {
    lr_mult: 2
    decay_mult: 0
  }
  convolution_param {
    num_output: 128
    kernel_size: 1
    weight_filler {
      type: "xavier"
    }
    bias_filler {
      type: "constant"
      value: 0.2
    }
  }
}
layer {
  name: "inception_4c/relu_1x1"
  type: "ReLU"
  bottom: "inception_4c/1x1"
  top: "inception_4c/1x1"
}
layer {
  name: "inception_4c/3x3_reduce"
  type: "Convolution"
  bottom: "inception_4b/output"
  top: "inception_4c/3x3_reduce"
  param {
    lr_mult: 1
    decay_mult: 1
  }
  param {
    lr_mult: 2
    decay_mult: 0
  }
  convolution_param {
    num_output: 128
    kernel_size: 1
    weight_filler {
      type: "xavier"
    }
    bias_filler {
      type: "constant"
      value: 0.2
    }
  }
}
layer {
  name: "inception_4c/relu_3x3_reduce"
  type: "ReLU"
  bottom: "inception_4c/3x3_reduce"
  top: "inception_4c/3x3_reduce"
}
layer {
  name: "inception_4c/3x3"
  type: "Convolution"
  bottom: "inception_4c/3x3_reduce"
  top: "inception_4c/3x3"
  param {
    lr_mult: 1
    decay_mult: 1
  }
  param {
    lr_mult: 2
    decay_mult: 0
  }
  convolution_param {
    num_output: 256
    pad: 1
    kernel_size: 3
    weight_filler {
      type: "xavier"
    }
    bias_filler {
      type: "constant"
      value: 0.2
    }
  }
}
layer {
  name: "inception_4c/relu_3x3"
  type: "ReLU"
  bottom: "inception_4c/3x3"
  top: "inception_4c/3x3"
}
layer {
  name: "inception_4c/5x5_reduce"
  type: "Convolution"
  bottom: "inception_4b/output"
  top: "inception_4c/5x5_reduce"
  param {
    lr_mult: 1
    decay_mult: 1
  }
  param {
    lr_mult: 2
    decay_mult: 0
  }
  convolution_param {
    num_output: 24
    kernel_size: 1
    weight_filler {
      type: "xavier"
    }
    bias_filler {
      type: "constant"
      value: 0.2
    }
  }
}
layer {
  name: "inception_4c/relu_5x5_reduce"
  type: "ReLU"
  bottom: "inception_4c/5x5_reduce"
  top: "inception_4c/5x5_reduce"
}
layer {
  name: "inception_4c/5x5"
  type: "Convolution"
  bottom: "inception_4c/5x5_reduce"
  top: "inception_4c/5x5"
  param {
    lr_mult: 1
    decay_mult: 1
  }
  param {
    lr_mult: 2
    decay_mult: 0
  }
  convolution_param {
    num_output: 64
    pad: 2
    kernel_size: 5
    weight_filler {
      type: "xavier"
    }
    bias_filler {
      type: "constant"
      value: 0.2
    }
  }
}
layer {
  name: "inception_4c/relu_5x5"
  type: "ReLU"
  bottom: "inception_4c/5x5"
  top: "inception_4c/5x5"
}
layer {
  name: "inception_4c/pool"
  type: "Pooling"
  bottom: "inception_4b/output"
  top: "inception_4c/pool"
  pooling_param {
    pool: MAX
    kernel_size: 3
    stride: 1
    pad: 1
  }
}
layer {
  name: "inception_4c/pool_proj"
  type: "Convolution"
  bottom: "inception_4c/pool"
  top: "inception_4c/pool_proj"
  param {
    lr_mult: 1
    decay_mult: 1
  }
  param {
    lr_mult: 2
    decay_mult: 0
  }
  convolution_param {
    num_output: 64
    kernel_size: 1
    weight_filler {
      type: "xavier"
    }
    bias_filler {
      type: "constant"
      value: 0.2
    }
  }
}
layer {
  name: "inception_4c/relu_pool_proj"
  type: "ReLU"
  bottom: "inception_4c/pool_proj"
  top: "inception_4c/pool_proj"
}
layer {
  name: "inception_4c/output"
  type: "Concat"
  bottom: "inception_4c/1x1"
  bottom: "inception_4c/3x3"
  bottom: "inception_4c/5x5"
  bottom: "inception_4c/pool_proj"
  top: "inception_4c/output"
}
layer {
  name: "inception_4d/1x1"
  type: "Convolution"
  bottom: "inception_4c/output"
  top: "inception_4d/1x1"
  param {
    lr_mult: 1
    decay_mult: 1
  }
  param {
    lr_mult: 2
    decay_mult: 0
  }
  convolution_param {
    num_output: 112
    kernel_size: 1
    weight_filler {
      type: "xavier"
    }
    bias_filler {
      type: "constant"
      value: 0.2
    }
  }
}
layer {
  name: "inception_4d/relu_1x1"
  type: "ReLU"
  bottom: "inception_4d/1x1"
  top: "inception_4d/1x1"
}
layer {
  name: "inception_4d/3x3_reduce"
  type: "Convolution"
  bottom: "inception_4c/output"
  top: "inception_4d/3x3_reduce"
  param {
    lr_mult: 1
    decay_mult: 1
  }
  param {
    lr_mult: 2
    decay_mult: 0
  }
  convolution_param {
    num_output: 144
    kernel_size: 1
    weight_filler {
      type: "xavier"
    }
    bias_filler {
      type: "constant"
      value: 0.2
    }
  }
}
layer {
  name: "inception_4d/relu_3x3_reduce"
  type: "ReLU"
  bottom: "inception_4d/3x3_reduce"
  top: "inception_4d/3x3_reduce"
}
layer {
  name: "inception_4d/3x3"
  type: "Convolution"
  bottom: "inception_4d/3x3_reduce"
  top: "inception_4d/3x3"
  param {
    lr_mult: 1
    decay_mult: 1
  }
  param {
    lr_mult: 2
    decay_mult: 0
  }
  convolution_param {
    num_output: 288
    pad: 1
    kernel_size: 3
    weight_filler {
      type: "xavier"
    }
    bias_filler {
      type: "constant"
      value: 0.2
    }
  }
}
layer {
  name: "inception_4d/relu_3x3"
  type: "ReLU"
  bottom: "inception_4d/3x3"
  top: "inception_4d/3x3"
}
layer {
  name: "inception_4d/5x5_reduce"
  type: "Convolution"
  bottom: "inception_4c/output"
  top: "inception_4d/5x5_reduce"
  param {
    lr_mult: 1
    decay_mult: 1
  }
  param {
    lr_mult: 2
    decay_mult: 0
  }
  convolution_param {
    num_output: 32
    kernel_size: 1
    weight_filler {
      type: "xavier"
    }
    bias_filler {
      type: "constant"
      value: 0.2
    }
  }
}
layer {
  name: "inception_4d/relu_5x5_reduce"
  type: "ReLU"
  bottom: "inception_4d/5x5_reduce"
  top: "inception_4d/5x5_reduce"
}
layer {
  name: "inception_4d/5x5"
  type: "Convolution"
  bottom: "inception_4d/5x5_reduce"
  top: "inception_4d/5x5"
  param {
    lr_mult: 1
    decay_mult: 1
  }
  param {
    lr_mult: 2
    decay_mult: 0
  }
  convolution_param {
    num_output: 64
    pad: 2
    kernel_size: 5
    weight_filler {
      type: "xavier"
    }
    bias_filler {
      type: "constant"
      value: 0.2
    }
  }
}
layer {
  name: "inception_4d/relu_5x5"
  type: "ReLU"
  bottom: "inception_4d/5x5"
  top: "inception_4d/5x5"
}
layer {
  name: "inception_4d/pool"
  type: "Pooling"
  bottom: "inception_4c/output"
  top: "inception_4d/pool"
  pooling_param {
    pool: MAX
    kernel_size: 3
    stride: 1
    pad: 1
  }
}
layer {
  name: "inception_4d/pool_proj"
  type: "Convolution"
  bottom: "inception_4d/pool"
  top: "inception_4d/pool_proj"
  param {
    lr_mult: 1
    decay_mult: 1
  }
  param {
    lr_mult: 2
    decay_mult: 0
  }
  convolution_param {
    num_output: 64
    kernel_size: 1
    weight_filler {
      type: "xavier"
    }
    bias_filler {
      type: "constant"
      value: 0.2
    }
  }
}
layer {
  name: "inception_4d/relu_pool_proj"
  type: "ReLU"
  bottom: "inception_4d/pool_proj"
  top: "inception_4d/pool_proj"
}
layer {
  name: "inception_4d/output"
  type: "Concat"
  bottom: "inception_4d/1x1"
  bottom: "inception_4d/3x3"
  bottom: "inception_4d/5x5"
  bottom: "inception_4d/pool_proj"
  top: "inception_4d/output"
}
layer {
  name: "loss2/ave_pool"
  type: "Pooling"
  bottom: "inception_4d/output"
  top: "loss2/ave_pool"
  pooling_param {
    pool: AVE
    kernel_size: 5
    stride: 3
  }
}
layer {
  name: "loss2/conv"
  type: "Convolution"
  bottom: "loss2/ave_pool"
  top: "loss2/conv"
  param {
    lr_mult: 1
    decay_mult: 1
  }
  param {
    lr_mult: 2
    decay_mult: 0
  }
  convolution_param {
    num_output: 128
    kernel_size: 1
    weight_filler {
      type: "xavier"
    }
    bias_filler {
      type: "constant"
      value: 0.2
    }
  }
}
layer {
  name: "loss2/relu_conv"
  type: "ReLU"
  bottom: "loss2/conv"
  top: "loss2/conv"
}
layer {
  name: "loss2/fc"
  type: "InnerProduct"
  bottom: "loss2/conv"
  top: "loss2/fc"
  param {
    lr_mult: 1
    decay_mult: 1
  }
  param {
    lr_mult: 2
    decay_mult: 0
  }
  inner_product_param {
    num_output: 1024
    weight_filler {
      type: "xavier"
    }
    bias_filler {
      type: "constant"
      value: 0.2
    }
  }
}
layer {
  name: "loss2/relu_fc"
  type: "ReLU"
  bottom: "loss2/fc"
  top: "loss2/fc"
}
layer {
  name: "loss2/drop_fc"
  type: "Dropout"
  bottom: "loss2/fc"
  top: "loss2/fc"
  dropout_param {
    dropout_ratio: 0.7
  }
}
layer {
  name: "loss2/classifier"
  type: "InnerProduct"
  bottom: "loss2/fc"
  top: "loss2/classifier"
  param {
    lr_mult: 1
    decay_mult: 1
  }
  param {
    lr_mult: 2
    decay_mult: 0
  }
  inner_product_param {
    num_output: 1000
    weight_filler {
      type: "xavier"
    }
    bias_filler {
      type: "constant"
      value: 0
    }
  }
}
layer {
  name: "loss2/loss"
  type: "SoftmaxWithLoss"
  bottom: "loss2/classifier"
  bottom: "label"
  top: "loss2/loss1"
  loss_weight: 0.3
}
layer {
  name: "inception_4e/1x1"
  type: "Convolution"
  bottom: "inception_4d/output"
  top: "inception_4e/1x1"
  param {
    lr_mult: 1
    decay_mult: 1
  }
  param {
    lr_mult: 2
    decay_mult: 0
  }
  convolution_param {
    num_output: 256
    kernel_size: 1
    weight_filler {
      type: "xavier"
    }
    bias_filler {
      type: "constant"
      value: 0.2
    }
  }
}
layer {
  name: "inception_4e/relu_1x1"
  type: "ReLU"
  bottom: "inception_4e/1x1"
  top: "inception_4e/1x1"
}
layer {
  name: "inception_4e/3x3_reduce"
  type: "Convolution"
  bottom: "inception_4d/output"
  top: "inception_4e/3x3_reduce"
  param {
    lr_mult: 1
    decay_mult: 1
  }
  param {
    lr_mult: 2
    decay_mult: 0
  }
  convolution_param {
    num_output: 160
    kernel_size: 1
    weight_filler {
      type: "xavier"
    }
    bias_filler {
      type: "constant"
      value: 0.2
    }
  }
}
layer {
  name: "inception_4e/relu_3x3_reduce"
  type: "ReLU"
  bottom: "inception_4e/3x3_reduce"
  top: "inception_4e/3x3_reduce"
}
layer {
  name: "inception_4e/3x3"
  type: "Convolution"
  bottom: "inception_4e/3x3_reduce"
  top: "inception_4e/3x3"
  param {
    lr_mult: 1
    decay_mult: 1
  }
  param {
    lr_mult: 2
    decay_mult: 0
  }
  convolution_param {
    num_output: 320
    pad: 1
    kernel_size: 3
    weight_filler {
      type: "xavier"
    }
    bias_filler {
      type: "constant"
      value: 0.2
    }
  }
}
layer {
  name: "inception_4e/relu_3x3"
  type: "ReLU"
  bottom: "inception_4e/3x3"
  top: "inception_4e/3x3"
}
layer {
  name: "inception_4e/5x5_reduce"
  type: "Convolution"
  bottom: "inception_4d/output"
  top: "inception_4e/5x5_reduce"
  param {
    lr_mult: 1
    decay_mult: 1
  }
  param {
    lr_mult: 2
    decay_mult: 0
  }
  convolution_param {
    num_output: 32
    kernel_size: 1
    weight_filler {
      type: "xavier"
    }
    bias_filler {
      type: "constant"
      value: 0.2
    }
  }
}
layer {
  name: "inception_4e/relu_5x5_reduce"
  type: "ReLU"
  bottom: "inception_4e/5x5_reduce"
  top: "inception_4e/5x5_reduce"
}
layer {
  name: "inception_4e/5x5"
  type: "Convolution"
  bottom: "inception_4e/5x5_reduce"
  top: "inception_4e/5x5"
  param {
    lr_mult: 1
    decay_mult: 1
  }
  param {
    lr_mult: 2
    decay_mult: 0
  }
  convolution_param {
    num_output: 128
    pad: 2
    kernel_size: 5
    weight_filler {
      type: "xavier"
    }
    bias_filler {
      type: "constant"
      value: 0.2
    }
  }
}
layer {
  name: "inception_4e/relu_5x5"
  type: "ReLU"
  bottom: "inception_4e/5x5"
  top: "inception_4e/5x5"
}
layer {
  name: "inception_4e/pool"
  type: "Pooling"
  bottom: "inception_4d/output"
  top: "inception_4e/pool"
  pooli
I0201 12:09:22.941570 12021 layer_factory.hpp:77] Creating layer data
I0201 12:09:22.942297 12021 net.cpp:100] Creating Layer data
I0201 12:09:22.942332 12021 net.cpp:408] data -> data
I0201 12:09:22.942605 12021 net.cpp:408] data -> label
I0201 12:09:22.942879 12022 db_lmdb.cpp:35] Opened lmdb /home/user/caffeOMP/original/caffe/examples/imagenet/ilsvrc12_train_lmdb
I0201 12:09:22.943871 12021 data_layer.cpp:41] output data size: 32,3,224,224
I0201 12:09:22.969792 12021 net.cpp:150] Setting up data
I0201 12:09:22.969825 12021 net.cpp:157] Top shape: 32 3 224 224 (4816896)
I0201 12:09:22.969835 12021 net.cpp:157] Top shape: 32 (32)
I0201 12:09:22.969843 12021 net.cpp:165] Memory required for data: 19267712
I0201 12:09:22.969859 12021 layer_factory.hpp:77] Creating layer label_data_1_split
I0201 12:09:22.969939 12021 net.cpp:100] Creating Layer label_data_1_split
I0201 12:09:22.969974 12021 net.cpp:434] label_data_1_split <- label
I0201 12:09:22.969992 12021 net.cpp:408] label_data_1_split -> label_data_1_split_0
I0201 12:09:22.970008 12021 net.cpp:408] label_data_1_split -> label_data_1_split_1
I0201 12:09:22.970019 12021 net.cpp:408] label_data_1_split -> label_data_1_split_2
I0201 12:09:22.970051 12021 net.cpp:150] Setting up label_data_1_split
I0201 12:09:22.970072 12021 net.cpp:157] Top shape: 32 (32)
I0201 12:09:22.970082 12021 net.cpp:157] Top shape: 32 (32)
I0201 12:09:22.970093 12021 net.cpp:157] Top shape: 32 (32)
I0201 12:09:22.970100 12021 net.cpp:165] Memory required for data: 19268096
I0201 12:09:22.970108 12021 layer_factory.hpp:77] Creating layer conv1/7x7_s2
I0201 12:09:22.970139 12021 net.cpp:100] Creating Layer conv1/7x7_s2
I0201 12:09:22.970149 12021 net.cpp:434] conv1/7x7_s2 <- data
I0201 12:09:22.970163 12021 net.cpp:408] conv1/7x7_s2 -> conv1/7x7_s2
I0201 12:09:22.970506 12021 net.cpp:150] Setting up conv1/7x7_s2
I0201 12:09:22.970537 12021 net.cpp:157] Top shape: 32 64 112 112 (25690112)
I0201 12:09:22.970546 12021 net.cpp:165] Memory required for data: 122028544
I0201 12:09:22.970573 12021 layer_factory.hpp:77] Creating layer conv1/relu_7x7
I0201 12:09:22.970594 12021 net.cpp:100] Creating Layer conv1/relu_7x7
I0201 12:09:22.970603 12021 net.cpp:434] conv1/relu_7x7 <- conv1/7x7_s2
I0201 12:09:22.970613 12021 net.cpp:395] conv1/relu_7x7 -> conv1/7x7_s2 (in-place)
I0201 12:09:22.970631 12021 net.cpp:150] Setting up conv1/relu_7x7
I0201 12:09:22.970641 12021 net.cpp:157] Top shape: 32 64 112 112 (25690112)
I0201 12:09:22.970649 12021 net.cpp:165] Memory required for data: 224788992
I0201 12:09:22.970656 12021 layer_factory.hpp:77] Creating layer pool1/3x3_s2
I0201 12:09:22.970669 12021 net.cpp:100] Creating Layer pool1/3x3_s2
I0201 12:09:22.970677 12021 net.cpp:434] pool1/3x3_s2 <- conv1/7x7_s2
I0201 12:09:22.970687 12021 net.cpp:408] pool1/3x3_s2 -> pool1/3x3_s2
I0201 12:09:22.970716 12021 net.cpp:150] Setting up pool1/3x3_s2
I0201 12:09:22.970727 12021 net.cpp:157] Top shape: 32 64 56 56 (6422528)
I0201 12:09:22.970736 12021 net.cpp:165] Memory required for data: 250479104
I0201 12:09:22.970742 12021 layer_factory.hpp:77] Creating layer pool1/norm1
I0201 12:09:22.970757 12021 net.cpp:100] Creating Layer pool1/norm1
I0201 12:09:22.970765 12021 net.cpp:434] pool1/norm1 <- pool1/3x3_s2
I0201 12:09:22.970778 12021 net.cpp:408] pool1/norm1 -> pool1/norm1
I0201 12:09:22.970798 12021 net.cpp:150] Setting up pool1/norm1
I0201 12:09:22.970808 12021 net.cpp:157] Top shape: 32 64 56 56 (6422528)
I0201 12:09:22.970815 12021 net.cpp:165] Memory required for data: 276169216
I0201 12:09:22.970824 12021 layer_factory.hpp:77] Creating layer conv2/3x3_reduce
I0201 12:09:22.970846 12021 net.cpp:100] Creating Layer conv2/3x3_reduce
I0201 12:09:22.970855 12021 net.cpp:434] conv2/3x3_reduce <- pool1/norm1
I0201 12:09:22.970870 12021 net.cpp:408] conv2/3x3_reduce -> conv2/3x3_reduce
I0201 12:09:22.970942 12021 net.cpp:150] Setting up conv2/3x3_reduce
I0201 12:09:22.970957 12021 net.cpp:157] Top shape: 32 64 56 56 (6422528)
I0201 12:09:22.970964 12021 net.cpp:165] Memory required for data: 301859328
I0201 12:09:22.970978 12021 layer_factory.hpp:77] Creating layer conv2/relu_3x3_reduce
I0201 12:09:22.970988 12021 net.cpp:100] Creating Layer conv2/relu_3x3_reduce
I0201 12:09:22.970996 12021 net.cpp:434] conv2/relu_3x3_reduce <- conv2/3x3_reduce
I0201 12:09:22.971006 12021 net.cpp:395] conv2/relu_3x3_reduce -> conv2/3x3_reduce (in-place)
I0201 12:09:22.971019 12021 net.cpp:150] Setting up conv2/relu_3x3_reduce
I0201 12:09:22.971027 12021 net.cpp:157] Top shape: 32 64 56 56 (6422528)
I0201 12:09:22.971035 12021 net.cpp:165] Memory required for data: 327549440
I0201 12:09:22.971042 12021 layer_factory.hpp:77] Creating layer conv2/3x3
I0201 12:09:22.971058 12021 net.cpp:100] Creating Layer conv2/3x3
I0201 12:09:22.971067 12021 net.cpp:434] conv2/3x3 <- conv2/3x3_reduce
I0201 12:09:22.971081 12021 net.cpp:408] conv2/3x3 -> conv2/3x3
I0201 12:09:22.972317 12021 net.cpp:150] Setting up conv2/3x3
I0201 12:09:22.972335 12021 net.cpp:157] Top shape: 32 192 56 56 (19267584)
I0201 12:09:22.972343 12021 net.cpp:165] Memory required for data: 404619776
I0201 12:09:22.972357 12021 layer_factory.hpp:77] Creating layer conv2/relu_3x3
I0201 12:09:22.972368 12021 net.cpp:100] Creating Layer conv2/relu_3x3
I0201 12:09:22.972376 12021 net.cpp:434] conv2/relu_3x3 <- conv2/3x3
I0201 12:09:22.972404 12021 net.cpp:395] conv2/relu_3x3 -> conv2/3x3 (in-place)
I0201 12:09:22.972416 12021 net.cpp:150] Setting up conv2/relu_3x3
I0201 12:09:22.972426 12021 net.cpp:157] Top shape: 32 192 56 56 (19267584)
I0201 12:09:22.972434 12021 net.cpp:165] Memory required for data: 481690112
I0201 12:09:22.972441 12021 layer_factory.hpp:77] Creating layer conv2/norm2
I0201 12:09:22.972455 12021 net.cpp:100] Creating Layer conv2/norm2
I0201 12:09:22.972462 12021 net.cpp:434] conv2/norm2 <- conv2/3x3
I0201 12:09:22.972472 12021 net.cpp:408] conv2/norm2 -> conv2/norm2
I0201 12:09:22.972486 12021 net.cpp:150] Setting up conv2/norm2
I0201 12:09:22.972496 12021 net.cpp:157] Top shape: 32 192 56 56 (19267584)
I0201 12:09:22.972503 12021 net.cpp:165] Memory required for data: 558760448
I0201 12:09:22.972512 12021 layer_factory.hpp:77] Creating layer pool2/3x3_s2
I0201 12:09:22.972523 12021 net.cpp:100] Creating Layer pool2/3x3_s2
I0201 12:09:22.972532 12021 net.cpp:434] pool2/3x3_s2 <- conv2/norm2
I0201 12:09:22.972542 12021 net.cpp:408] pool2/3x3_s2 -> pool2/3x3_s2
I0201 12:09:22.972555 12021 net.cpp:150] Setting up pool2/3x3_s2
I0201 12:09:22.972564 12021 net.cpp:157] Top shape: 32 192 28 28 (4816896)
I0201 12:09:22.972573 12021 net.cpp:165] Memory required for data: 578028032
I0201 12:09:22.972579 12021 layer_factory.hpp:77] Creating layer pool2/3x3_s2_pool2/3x3_s2_0_split
I0201 12:09:22.972589 12021 net.cpp:100] Creating Layer pool2/3x3_s2_pool2/3x3_s2_0_split
I0201 12:09:22.972597 12021 net.cpp:434] pool2/3x3_s2_pool2/3x3_s2_0_split <- pool2/3x3_s2
I0201 12:09:22.972607 12021 net.cpp:408] pool2/3x3_s2_pool2/3x3_s2_0_split -> pool2/3x3_s2_pool2/3x3_s2_0_split_0
I0201 12:09:22.972618 12021 net.cpp:408] pool2/3x3_s2_pool2/3x3_s2_0_split -> pool2/3x3_s2_pool2/3x3_s2_0_split_1
I0201 12:09:22.972633 12021 net.cpp:408] pool2/3x3_s2_pool2/3x3_s2_0_split -> pool2/3x3_s2_pool2/3x3_s2_0_split_2
I0201 12:09:22.972645 12021 net.cpp:408] pool2/3x3_s2_pool2/3x3_s2_0_split -> pool2/3x3_s2_pool2/3x3_s2_0_split_3
I0201 12:09:22.972656 12021 net.cpp:150] Setting up pool2/3x3_s2_pool2/3x3_s2_0_split
I0201 12:09:22.972666 12021 net.cpp:157] Top shape: 32 192 28 28 (4816896)
I0201 12:09:22.972676 12021 net.cpp:157] Top shape: 32 192 28 28 (4816896)
I0201 12:09:22.972683 12021 net.cpp:157] Top shape: 32 192 28 28 (4816896)
I0201 12:09:22.972692 12021 net.cpp:157] Top shape: 32 192 28 28 (4816896)
I0201 12:09:22.972699 12021 net.cpp:165] Memory required for data: 655098368
I0201 12:09:22.972707 12021 layer_factory.hpp:77] Creating layer inception_3a/1x1
I0201 12:09:22.972719 12021 net.cpp:100] Creating Layer inception_3a/1x1
I0201 12:09:22.972728 12021 net.cpp:434] inception_3a/1x1 <- pool2/3x3_s2_pool2/3x3_s2_0_split_0
I0201 12:09:22.972743 12021 net.cpp:408] inception_3a/1x1 -> inception_3a/1x1
I0201 12:09:22.972965 12021 net.cpp:150] Setting up inception_3a/1x1
I0201 12:09:22.973006 12021 net.cpp:157] Top shape: 32 64 28 28 (1605632)
I0201 12:09:22.973014 12021 net.cpp:165] Memory required for data: 661520896
I0201 12:09:22.973026 12021 layer_factory.hpp:77] Creating layer inception_3a/relu_1x1
I0201 12:09:22.973039 12021 net.cpp:100] Creating Layer inception_3a/relu_1x1
I0201 12:09:22.973048 12021 net.cpp:434] inception_3a/relu_1x1 <- inception_3a/1x1
I0201 12:09:22.973058 12021 net.cpp:395] inception_3a/relu_1x1 -> inception_3a/1x1 (in-place)
I0201 12:09:22.973070 12021 net.cpp:150] Setting up inception_3a/relu_1x1
I0201 12:09:22.973080 12021 net.cpp:157] Top shape: 32 64 28 28 (1605632)
I0201 12:09:22.973088 12021 net.cpp:165] Memory required for data: 667943424
I0201 12:09:22.973095 12021 layer_factory.hpp:77] Creating layer inception_3a/3x3_reduce
I0201 12:09:22.973109 12021 net.cpp:100] Creating Layer inception_3a/3x3_reduce
I0201 12:09:22.973119 12021 net.cpp:434] inception_3a/3x3_reduce <- pool2/3x3_s2_pool2/3x3_s2_0_split_1
I0201 12:09:22.973132 12021 net.cpp:408] inception_3a/3x3_reduce -> inception_3a/3x3_reduce
I0201 12:09:22.973364 12021 net.cpp:150] Setting up inception_3a/3x3_reduce
I0201 12:09:22.973387 12021 net.cpp:157] Top shape: 32 96 28 28 (2408448)
I0201 12:09:22.973402 12021 net.cpp:165] Memory required for data: 677577216
I0201 12:09:22.973417 12021 layer_factory.hpp:77] Creating layer inception_3a/relu_3x3_reduce
I0201 12:09:22.973433 12021 net.cpp:100] Creating Layer inception_3a/relu_3x3_reduce
I0201 12:09:22.973443 12021 net.cpp:434] inception_3a/relu_3x3_reduce <- inception_3a/3x3_reduce
I0201 12:09:22.973453 12021 net.cpp:395] inception_3a/relu_3x3_reduce -> inception_3a/3x3_reduce (in-place)
I0201 12:09:22.973464 12021 net.cpp:150] Setting up inception_3a/relu_3x3_reduce
I0201 12:09:22.973474 12021 net.cpp:157] Top shape: 32 96 28 28 (2408448)
I0201 12:09:22.973481 12021 net.cpp:165] Memory required for data: 687211008
I0201 12:09:22.973489 12021 layer_factory.hpp:77] Creating layer inception_3a/3x3
I0201 12:09:22.973503 12021 net.cpp:100] Creating Layer inception_3a/3x3
I0201 12:09:22.973512 12021 net.cpp:434] inception_3a/3x3 <- inception_3a/3x3_reduce
I0201 12:09:22.973526 12021 net.cpp:408] inception_3a/3x3 -> inception_3a/3x3
I0201 12:09:22.974704 12021 net.cpp:150] Setting up inception_3a/3x3
I0201 12:09:22.974722 12021 net.cpp:157] Top shape: 32 128 28 28 (3211264)
I0201 12:09:22.974730 12021 net.cpp:165] Memory required for data: 700056064
I0201 12:09:22.974741 12021 layer_factory.hpp:77] Creating layer inception_3a/relu_3x3
I0201 12:09:22.974752 12021 net.cpp:100] Creating Layer inception_3a/relu_3x3
I0201 12:09:22.974761 12021 net.cpp:434] inception_3a/relu_3x3 <- inception_3a/3x3
I0201 12:09:22.974773 12021 net.cpp:395] inception_3a/relu_3x3 -> inception_3a/3x3 (in-place)
I0201 12:09:22.974786 12021 net.cpp:150] Setting up inception_3a/relu_3x3
I0201 12:09:22.974794 12021 net.cpp:157] Top shape: 32 128 28 28 (3211264)
I0201 12:09:22.974802 12021 net.cpp:165] Memory required for data: 712901120
I0201 12:09:22.974810 12021 layer_factory.hpp:77] Creating layer inception_3a/5x5_reduce
I0201 12:09:22.974825 12021 net.cpp:100] Creating Layer inception_3a/5x5_reduce
I0201 12:09:22.974834 12021 net.cpp:434] inception_3a/5x5_reduce <- pool2/3x3_s2_pool2/3x3_s2_0_split_2
I0201 12:09:22.974845 12021 net.cpp:408] inception_3a/5x5_reduce -> inception_3a/5x5_reduce
I0201 12:09:22.974901 12021 net.cpp:150] Setting up inception_3a/5x5_reduce
I0201 12:09:22.974913 12021 net.cpp:157] Top shape: 32 16 28 28 (401408)
I0201 12:09:22.974921 12021 net.cpp:165] Memory required for data: 714506752
I0201 12:09:22.974931 12021 layer_factory.hpp:77] Creating layer inception_3a/relu_5x5_reduce
I0201 12:09:22.974941 12021 net.cpp:100] Creating Layer inception_3a/relu_5x5_reduce
I0201 12:09:22.974949 12021 net.cpp:434] inception_3a/relu_5x5_reduce <- inception_3a/5x5_reduce
I0201 12:09:22.974959 12021 net.cpp:395] inception_3a/relu_5x5_reduce -> inception_3a/5x5_reduce (in-place)
I0201 12:09:22.974970 12021 net.cpp:150] Setting up inception_3a/relu_5x5_reduce
I0201 12:09:22.974980 12021 net.cpp:157] Top shape: 32 16 28 28 (401408)
I0201 12:09:22.974987 12021 net.cpp:165] Memory required for data: 716112384
I0201 12:09:22.974994 12021 layer_factory.hpp:77] Creating layer inception_3a/5x5
I0201 12:09:22.975009 12021 net.cpp:100] Creating Layer inception_3a/5x5
I0201 12:09:22.975018 12021 net.cpp:434] inception_3a/5x5 <- inception_3a/5x5_reduce
I0201 12:09:22.975028 12021 net.cpp:408] inception_3a/5x5 -> inception_3a/5x5
I0201 12:09:22.975311 12021 net.cpp:150] Setting up inception_3a/5x5
I0201 12:09:22.975327 12021 net.cpp:157] Top shape: 32 32 28 28 (802816)
I0201 12:09:22.975335 12021 net.cpp:165] Memory required for data: 719323648
I0201 12:09:22.975347 12021 layer_factory.hpp:77] Creating layer inception_3a/relu_5x5
I0201 12:09:22.975356 12021 net.cpp:100] Creating Layer inception_3a/relu_5x5
I0201 12:09:22.975364 12021 net.cpp:434] inception_3a/relu_5x5 <- inception_3a/5x5
I0201 12:09:22.975378 12021 net.cpp:395] inception_3a/relu_5x5 -> inception_3a/5x5 (in-place)
I0201 12:09:22.975389 12021 net.cpp:150] Setting up inception_3a/relu_5x5
I0201 12:09:22.975399 12021 net.cpp:157] Top shape: 32 32 28 28 (802816)
I0201 12:09:22.975414 12021 net.cpp:165] Memory required for data: 722534912
I0201 12:09:22.975431 12021 layer_factory.hpp:77] Creating layer inception_3a/pool
I0201 12:09:22.975441 12021 net.cpp:100] Creating Layer inception_3a/pool
I0201 12:09:22.975450 12021 net.cpp:434] inception_3a/pool <- pool2/3x3_s2_pool2/3x3_s2_0_split_3
I0201 12:09:22.975463 12021 net.cpp:408] inception_3a/pool -> inception_3a/pool
I0201 12:09:22.975478 12021 net.cpp:150] Setting up inception_3a/pool
I0201 12:09:22.975488 12021 net.cpp:157] Top shape: 32 192 28 28 (4816896)
I0201 12:09:22.975497 12021 net.cpp:165] Memory required for data: 741802496
I0201 12:09:22.975503 12021 layer_factory.hpp:77] Creating layer inception_3a/pool_proj
I0201 12:09:22.975518 12021 net.cpp:100] Creating Layer inception_3a/pool_proj
I0201 12:09:22.975528 12021 net.cpp:434] inception_3a/pool_proj <- inception_3a/pool
I0201 12:09:22.975540 12021 net.cpp:408] inception_3a/pool_proj -> inception_3a/pool_proj
I0201 12:09:22.975635 12021 net.cpp:150] Setting up inception_3a/pool_proj
I0201 12:09:22.975647 12021 net.cpp:157] Top shape: 32 32 28 28 (802816)
I0201 12:09:22.975654 12021 net.cpp:165] Memory required for data: 745013760
I0201 12:09:22.975672 12021 layer_factory.hpp:77] Creating layer inception_3a/relu_pool_proj
I0201 12:09:22.975684 12021 net.cpp:100] Creating Layer inception_3a/relu_pool_proj
I0201 12:09:22.975693 12021 net.cpp:434] inception_3a/relu_pool_proj <- inception_3a/pool_proj
I0201 12:09:22.975703 12021 net.cpp:395] inception_3a/relu_pool_proj -> inception_3a/pool_proj (in-place)
I0201 12:09:22.975714 12021 net.cpp:150] Setting up inception_3a/relu_pool_proj
I0201 12:09:22.975724 12021 net.cpp:157] Top shape: 32 32 28 28 (802816)
I0201 12:09:22.975731 12021 net.cpp:165] Memory required for data: 748225024
I0201 12:09:22.975739 12021 layer_factory.hpp:77] Creating layer inception_3a/output
I0201 12:09:22.975752 12021 net.cpp:100] Creating Layer inception_3a/output
I0201 12:09:22.975760 12021 net.cpp:434] inception_3a/output <- inception_3a/1x1
I0201 12:09:22.975769 12021 net.cpp:434] inception_3a/output <- inception_3a/3x3
I0201 12:09:22.975778 12021 net.cpp:434] inception_3a/output <- inception_3a/5x5
I0201 12:09:22.975786 12021 net.cpp:434] inception_3a/output <- inception_3a/pool_proj
I0201 12:09:22.975800 12021 net.cpp:408] inception_3a/output -> inception_3a/output
I0201 12:09:22.975821 12021 net.cpp:150] Setting up inception_3a/output
I0201 12:09:22.975831 12021 net.cpp:157] Top shape: 32 256 28 28 (6422528)
I0201 12:09:22.975838 12021 net.cpp:165] Memory required for data: 773915136
I0201 12:09:22.975845 12021 layer_factory.hpp:77] Creating layer inception_3a/output_inception_3a/output_0_split
I0201 12:09:22.975855 12021 net.cpp:100] Creating Layer inception_3a/output_inception_3a/output_0_split
I0201 12:09:22.975863 12021 net.cpp:434] inception_3a/output_inception_3a/output_0_split <- inception_3a/output
I0201 12:09:22.975877 12021 net.cpp:408] inception_3a/output_inception_3a/output_0_split -> inception_3a/output_inception_3a/output_0_split_0
I0201 12:09:22.975889 12021 net.cpp:408] inception_3a/output_inception_3a/output_0_split -> inception_3a/output_inception_3a/output_0_split_1
I0201 12:09:22.975900 12021 net.cpp:408] inception_3a/output_inception_3a/output_0_split -> inception_3a/output_inception_3a/output_0_split_2
I0201 12:09:22.975913 12021 net.cpp:408] inception_3a/output_inception_3a/output_0_split -> inception_3a/output_inception_3a/output_0_split_3
I0201 12:09:22.975924 12021 net.cpp:150] Setting up inception_3a/output_inception_3a/output_0_split
I0201 12:09:22.975934 12021 net.cpp:157] Top shape: 32 256 28 28 (6422528)
I0201 12:09:22.975944 12021 net.cpp:157] Top shape: 32 256 28 28 (6422528)
I0201 12:09:22.975952 12021 net.cpp:157] Top shape: 32 256 28 28 (6422528)
I0201 12:09:22.975960 12021 net.cpp:157] Top shape: 32 256 28 28 (6422528)
I0201 12:09:22.975968 12021 net.cpp:165] Memory required for data: 876675584
I0201 12:09:22.975975 12021 layer_factory.hpp:77] Creating layer inception_3b/1x1
I0201 12:09:22.975998 12021 net.cpp:100] Creating Layer inception_3b/1x1
I0201 12:09:22.976016 12021 net.cpp:434] inception_3b/1x1 <- inception_3a/output_inception_3a/output_0_split_0
I0201 12:09:22.976028 12021 net.cpp:408] inception_3b/1x1 -> inception_3b/1x1
I0201 12:09:22.976423 12021 net.cpp:150] Setting up inception_3b/1x1
I0201 12:09:22.976444 12021 net.cpp:157] Top shape: 32 128 28 28 (3211264)
I0201 12:09:22.976452 12021 net.cpp:165] Memory required for data: 889520640
I0201 12:09:22.976464 12021 layer_factory.hpp:77] Creating layer inception_3b/relu_1x1
I0201 12:09:22.976475 12021 net.cpp:100] Creating Layer inception_3b/relu_1x1
I0201 12:09:22.976483 12021 net.cpp:434] inception_3b/relu_1x1 <- inception_3b/1x1
I0201 12:09:22.976493 12021 net.cpp:395] inception_3b/relu_1x1 -> inception_3b/1x1 (in-place)
I0201 12:09:22.976505 12021 net.cpp:150] Setting up inception_3b/relu_1x1
I0201 12:09:22.976514 12021 net.cpp:157] Top shape: 32 128 28 28 (3211264)
I0201 12:09:22.976521 12021 net.cpp:165] Memory required for data: 902365696
I0201 12:09:22.976529 12021 layer_factory.hpp:77] Creating layer inception_3b/3x3_reduce
I0201 12:09:22.976543 12021 net.cpp:100] Creating Layer inception_3b/3x3_reduce
I0201 12:09:22.976552 12021 net.cpp:434] inception_3b/3x3_reduce <- inception_3a/output_inception_3a/output_0_split_1
I0201 12:09:22.976567 12021 net.cpp:408] inception_3b/3x3_reduce -> inception_3b/3x3_reduce
I0201 12:09:22.976933 12021 net.cpp:150] Setting up inception_3b/3x3_reduce
I0201 12:09:22.976948 12021 net.cpp:157] Top shape: 32 128 28 28 (3211264)
I0201 12:09:22.976956 12021 net.cpp:165] Memory required for data: 915210752
I0201 12:09:22.976968 12021 layer_factory.hpp:77] Creating layer inception_3b/relu_3x3_reduce
I0201 12:09:22.976980 12021 net.cpp:100] Creating Layer inception_3b/relu_3x3_reduce
I0201 12:09:22.976989 12021 net.cpp:434] inception_3b/relu_3x3_reduce <- inception_3b/3x3_reduce
I0201 12:09:22.976999 12021 net.cpp:395] inception_3b/relu_3x3_reduce -> inception_3b/3x3_reduce (in-place)
I0201 12:09:22.977010 12021 net.cpp:150] Setting up inception_3b/relu_3x3_reduce
I0201 12:09:22.977020 12021 net.cpp:157] Top shape: 32 128 28 28 (3211264)
I0201 12:09:22.977027 12021 net.cpp:165] Memory required for data: 928055808
I0201 12:09:22.977035 12021 layer_factory.hpp:77] Creating layer inception_3b/3x3
I0201 12:09:22.977052 12021 net.cpp:100] Creating Layer inception_3b/3x3
I0201 12:09:22.977061 12021 net.cpp:434] inception_3b/3x3 <- inception_3b/3x3_reduce
I0201 12:09:22.977075 12021 net.cpp:408] inception_3b/3x3 -> inception_3b/3x3
I0201 12:09:22.979565 12021 net.cpp:150] Setting up inception_3b/3x3
I0201 12:09:22.979584 12021 net.cpp:157] Top shape: 32 192 28 28 (4816896)
I0201 12:09:22.979591 12021 net.cpp:165] Memory required for data: 947323392
I0201 12:09:22.979604 12021 layer_factory.hpp:77] Creating layer inception_3b/relu_3x3
I0201 12:09:22.979616 12021 net.cpp:100] Creating Layer inception_3b/relu_3x3
I0201 12:09:22.979625 12021 net.cpp:434] inception_3b/relu_3x3 <- inception_3b/3x3
I0201 12:09:22.979635 12021 net.cpp:395] inception_3b/relu_3x3 -> inception_3b/3x3 (in-place)
I0201 12:09:22.979647 12021 net.cpp:150] Setting up inception_3b/relu_3x3
I0201 12:09:22.979656 12021 net.cpp:157] Top shape: 32 192 28 28 (4816896)
I0201 12:09:22.979663 12021 net.cpp:165] Memory required for data: 966590976
I0201 12:09:22.979671 12021 layer_factory.hpp:77] Creating layer inception_3b/5x5_reduce
I0201 12:09:22.979686 12021 net.cpp:100] Creating Layer inception_3b/5x5_reduce
I0201 12:09:22.979694 12021 net.cpp:434] inception_3b/5x5_reduce <- inception_3a/output_inception_3a/output_0_split_2
I0201 12:09:22.979709 12021 net.cpp:408] inception_3b/5x5_reduce -> inception_3b/5x5_reduce
I0201 12:09:22.979815 12021 net.cpp:150] Setting up inception_3b/5x5_reduce
I0201 12:09:22.979828 12021 net.cpp:157] Top shape: 32 32 28 28 (802816)
I0201 12:09:22.979835 12021 net.cpp:165] Memory required for data: 969802240
I0201 12:09:22.979846 12021 layer_factory.hpp:77] Creating layer inception_3b/relu_5x5_reduce
I0201 12:09:22.979856 12021 net.cpp:100] Creating Layer inception_3b/relu_5x5_reduce
I0201 12:09:22.979879 12021 net.cpp:434] inception_3b/relu_5x5_reduce <- inception_3b/5x5_reduce
I0201 12:09:22.979902 12021 net.cpp:395] inception_3b/relu_5x5_reduce -> inception_3b/5x5_reduce (in-place)
I0201 12:09:22.979913 12021 net.cpp:150] Setting up inception_3b/relu_5x5_reduce
I0201 12:09:22.979923 12021 net.cpp:157] Top shape: 32 32 28 28 (802816)
I0201 12:09:22.979930 12021 net.cpp:165] Memory required for data: 973013504
I0201 12:09:22.979938 12021 layer_factory.hpp:77] Creating layer inception_3b/5x5
I0201 12:09:22.979949 12021 net.cpp:100] Creating Layer inception_3b/5x5
I0201 12:09:22.979957 12021 net.cpp:434] inception_3b/5x5 <- inception_3b/5x5_reduce
I0201 12:09:22.979970 12021 net.cpp:408] inception_3b/5x5 -> inception_3b/5x5
I0201 12:09:22.980816 12021 net.cpp:150] Setting up inception_3b/5x5
I0201 12:09:22.980837 12021 net.cpp:157] Top shape: 32 96 28 28 (2408448)
I0201 12:09:22.980845 12021 net.cpp:165] Memory required for data: 982647296
I0201 12:09:22.980857 12021 layer_factory.hpp:77] Creating layer inception_3b/relu_5x5
I0201 12:09:22.980867 12021 net.cpp:100] Creating Layer inception_3b/relu_5x5
I0201 12:09:22.980876 12021 net.cpp:434] inception_3b/relu_5x5 <- inception_3b/5x5
I0201 12:09:22.980888 12021 net.cpp:395] inception_3b/relu_5x5 -> inception_3b/5x5 (in-place)
I0201 12:09:22.980901 12021 net.cpp:150] Setting up inception_3b/relu_5x5
I0201 12:09:22.980911 12021 net.cpp:157] Top shape: 32 96 28 28 (2408448)
I0201 12:09:22.980917 12021 net.cpp:165] Memory required for data: 992281088
I0201 12:09:22.980926 12021 layer_factory.hpp:77] Creating layer inception_3b/pool
I0201 12:09:22.980936 12021 net.cpp:100] Creating Layer inception_3b/pool
I0201 12:09:22.980943 12021 net.cpp:434] inception_3b/pool <- inception_3a/output_inception_3a/output_0_split_3
I0201 12:09:22.980954 12021 net.cpp:408] inception_3b/pool -> inception_3b/pool
I0201 12:09:22.980968 12021 net.cpp:150] Setting up inception_3b/pool
I0201 12:09:22.980978 12021 net.cpp:157] Top shape: 32 256 28 28 (6422528)
I0201 12:09:22.980985 12021 net.cpp:165] Memory required for data: 1017971200
I0201 12:09:22.980993 12021 layer_factory.hpp:77] Creating layer inception_3b/pool_proj
I0201 12:09:22.981010 12021 net.cpp:100] Creating Layer inception_3b/pool_proj
I0201 12:09:22.981019 12021 net.cpp:434] inception_3b/pool_proj <- inception_3b/pool
I0201 12:09:22.981030 12021 net.cpp:408] inception_3b/pool_proj -> inception_3b/pool_proj
I0201 12:09:22.981261 12021 net.cpp:150] Setting up inception_3b/pool_proj
I0201 12:09:22.981281 12021 net.cpp:157] Top shape: 32 64 28 28 (1605632)
I0201 12:09:22.981288 12021 net.cpp:165] Memory required for data: 1024393728
I0201 12:09:22.981299 12021 layer_factory.hpp:77] Creating layer inception_3b/relu_pool_proj
I0201 12:09:22.981310 12021 net.cpp:100] Creating Layer inception_3b/relu_pool_proj
I0201 12:09:22.981318 12021 net.cpp:434] inception_3b/relu_pool_proj <- inception_3b/pool_proj
I0201 12:09:22.981328 12021 net.cpp:395] inception_3b/relu_pool_proj -> inception_3b/pool_proj (in-place)
I0201 12:09:22.981340 12021 net.cpp:150] Setting up inception_3b/relu_pool_proj
I0201 12:09:22.981350 12021 net.cpp:157] Top shape: 32 64 28 28 (1605632)
I0201 12:09:22.981358 12021 net.cpp:165] Memory required for data: 1030816256
I0201 12:09:22.981364 12021 layer_factory.hpp:77] Creating layer inception_3b/output
I0201 12:09:22.981374 12021 net.cpp:100] Creating Layer inception_3b/output
I0201 12:09:22.981382 12021 net.cpp:434] inception_3b/output <- inception_3b/1x1
I0201 12:09:22.981391 12021 net.cpp:434] inception_3b/output <- inception_3b/3x3
I0201 12:09:22.981400 12021 net.cpp:434] inception_3b/output <- inception_3b/5x5
I0201 12:09:22.981408 12021 net.cpp:434] inception_3b/output <- inception_3b/pool_proj
I0201 12:09:22.981421 12021 net.cpp:408] inception_3b/output -> inception_3b/output
I0201 12:09:22.981436 12021 net.cpp:150] Setting up inception_3b/output
I0201 12:09:22.981446 12021 net.cpp:157] Top shape: 32 480 28 28 (12042240)
I0201 12:09:22.981453 12021 net.cpp:165] Memory required for data: 1078985216
I0201 12:09:22.981477 12021 layer_factory.hpp:77] Creating layer pool3/3x3_s2
I0201 12:09:22.981487 12021 net.cpp:100] Creating Layer pool3/3x3_s2
I0201 12:09:22.981500 12021 net.cpp:434] pool3/3x3_s2 <- inception_3b/output
I0201 12:09:22.981511 12021 net.cpp:408] pool3/3x3_s2 -> pool3/3x3_s2
I0201 12:09:22.981524 12021 net.cpp:150] Setting up pool3/3x3_s2
I0201 12:09:22.981535 12021 net.cpp:157] Top shape: 32 480 14 14 (3010560)
I0201 12:09:22.981542 12021 net.cpp:165] Memory required for data: 1091027456
I0201 12:09:22.981550 12021 layer_factory.hpp:77] Creating layer pool3/3x3_s2_pool3/3x3_s2_0_split
I0201 12:09:22.981560 12021 net.cpp:100] Creating Layer pool3/3x3_s2_pool3/3x3_s2_0_split
I0201 12:09:22.981569 12021 net.cpp:434] pool3/3x3_s2_pool3/3x3_s2_0_split <- pool3/3x3_s2
I0201 12:09:22.981580 12021 net.cpp:408] pool3/3x3_s2_pool3/3x3_s2_0_split -> pool3/3x3_s2_pool3/3x3_s2_0_split_0
I0201 12:09:22.981593 12021 net.cpp:408] pool3/3x3_s2_pool3/3x3_s2_0_split -> pool3/3x3_s2_pool3/3x3_s2_0_split_1
I0201 12:09:22.981606 12021 net.cpp:408] pool3/3x3_s2_pool3/3x3_s2_0_split -> pool3/3x3_s2_pool3/3x3_s2_0_split_2
I0201 12:09:22.981618 12021 net.cpp:408] pool3/3x3_s2_pool3/3x3_s2_0_split -> pool3/3x3_s2_pool3/3x3_s2_0_split_3
I0201 12:09:22.981631 12021 net.cpp:150] Setting up pool3/3x3_s2_pool3/3x3_s2_0_split
I0201 12:09:22.981642 12021 net.cpp:157] Top shape: 32 480 14 14 (3010560)
I0201 12:09:22.981650 12021 net.cpp:157] Top shape: 32 480 14 14 (3010560)
I0201 12:09:22.981659 12021 net.cpp:157] Top shape: 32 480 14 14 (3010560)
I0201 12:09:22.981667 12021 net.cpp:157] Top shape: 32 480 14 14 (3010560)
I0201 12:09:22.981674 12021 net.cpp:165] Memory required for data: 1139196416
I0201 12:09:22.981683 12021 layer_factory.hpp:77] Creating layer inception_4a/1x1
I0201 12:09:22.981698 12021 net.cpp:100] Creating Layer inception_4a/1x1
I0201 12:09:22.981705 12021 net.cpp:434] inception_4a/1x1 <- pool3/3x3_s2_pool3/3x3_s2_0_split_0
I0201 12:09:22.981719 12021 net.cpp:408] inception_4a/1x1 -> inception_4a/1x1
I0201 12:09:22.982740 12021 net.cpp:150] Setting up inception_4a/1x1
I0201 12:09:22.982758 12021 net.cpp:157] Top shape: 32 192 14 14 (1204224)
I0201 12:09:22.982765 12021 net.cpp:165] Memory required for data: 1144013312
I0201 12:09:22.982776 12021 layer_factory.hpp:77] Creating layer inception_4a/relu_1x1
I0201 12:09:22.982787 12021 net.cpp:100] Creating Layer inception_4a/relu_1x1
I0201 12:09:22.982795 12021 net.cpp:434] inception_4a/relu_1x1 <- inception_4a/1x1
I0201 12:09:22.982808 12021 net.cpp:395] inception_4a/relu_1x1 -> inception_4a/1x1 (in-place)
I0201 12:09:22.982821 12021 net.cpp:150] Setting up inception_4a/relu_1x1
I0201 12:09:22.982831 12021 net.cpp:157] Top shape: 32 192 14 14 (1204224)
I0201 12:09:22.982838 12021 net.cpp:165] Memory required for data: 1148830208
I0201 12:09:22.982846 12021 layer_factory.hpp:77] Creating layer inception_4a/3x3_reduce
I0201 12:09:22.982861 12021 net.cpp:100] Creating Layer inception_4a/3x3_reduce
I0201 12:09:22.982870 12021 net.cpp:434] inception_4a/3x3_reduce <- pool3/3x3_s2_pool3/3x3_s2_0_split_1
I0201 12:09:22.982882 12021 net.cpp:408] inception_4a/3x3_reduce -> inception_4a/3x3_reduce
I0201 12:09:22.983494 12021 net.cpp:150] Setting up inception_4a/3x3_reduce
I0201 12:09:22.983511 12021 net.cpp:157] Top shape: 32 96 14 14 (602112)
I0201 12:09:22.983518 12021 net.cpp:165] Memory required for data: 1151238656
I0201 12:09:22.983539 12021 layer_factory.hpp:77] Creating layer inception_4a/relu_3x3_reduce
I0201 12:09:22.983551 12021 net.cpp:100] Creating Layer inception_4a/relu_3x3_reduce
I0201 12:09:22.983559 12021 net.cpp:434] inception_4a/relu_3x3_reduce <- inception_4a/3x3_reduce
I0201 12:09:22.983569 12021 net.cpp:395] inception_4a/relu_3x3_reduce -> inception_4a/3x3_reduce (in-place)
I0201 12:09:22.983582 12021 net.cpp:150] Setting up inception_4a/relu_3x3_reduce
I0201 12:09:22.983590 12021 net.cpp:157] Top shape: 32 96 14 14 (602112)
I0201 12:09:22.983597 12021 net.cpp:165] Memory required for data: 1153647104
I0201 12:09:22.983611 12021 layer_factory.hpp:77] Creating layer inception_4a/3x3
I0201 12:09:22.983639 12021 net.cpp:100] Creating Layer inception_4a/3x3
I0201 12:09:22.983649 12021 net.cpp:434] inception_4a/3x3 <- inception_4a/3x3_reduce
I0201 12:09:22.983662 12021 net.cpp:408] inception_4a/3x3 -> inception_4a/3x3
I0201 12:09:22.985594 12021 net.cpp:150] Setting up inception_4a/3x3
I0201 12:09:22.985612 12021 net.cpp:157] Top shape: 32 208 14 14 (1304576)
I0201 12:09:22.985620 12021 net.cpp:165] Memory required for data: 1158865408
I0201 12:09:22.985632 12021 layer_factory.hpp:77] Creating layer inception_4a/relu_3x3
I0201 12:09:22.985643 12021 net.cpp:100] Creating Layer inception_4a/relu_3x3
I0201 12:09:22.985651 12021 net.cpp:434] inception_4a/relu_3x3 <- inception_4a/3x3
I0201 12:09:22.985664 12021 net.cpp:395] inception_4a/relu_3x3 -> inception_4a/3x3 (in-place)
I0201 12:09:22.985677 12021 net.cpp:150] Setting up inception_4a/relu_3x3
I0201 12:09:22.985687 12021 net.cpp:157] Top shape: 32 208 14 14 (1304576)
I0201 12:09:22.985693 12021 net.cpp:165] Memory required for data: 1164083712
I0201 12:09:22.985700 12021 layer_factory.hpp:77] Creating layer inception_4a/5x5_reduce
I0201 12:09:22.985715 12021 net.cpp:100] Creating Layer inception_4a/5x5_reduce
I0201 12:09:22.985724 12021 net.cpp:434] inception_4a/5x5_reduce <- pool3/3x3_s2_pool3/3x3_s2_0_split_2
I0201 12:09:22.985736 12021 net.cpp:408] inception_4a/5x5_reduce -> inception_4a/5x5_reduce
I0201 12:09:22.985833 12021 net.cpp:150] Setting up inception_4a/5x5_reduce
I0201 12:09:22.985846 12021 net.cpp:157] Top shape: 32 16 14 14 (100352)
I0201 12:09:22.985853 12021 net.cpp:165] Memory required for data: 1164485120
I0201 12:09:22.985863 12021 layer_factory.hpp:77] Creating layer inception_4a/relu_5x5_reduce
I0201 12:09:22.985877 12021 net.cpp:100] Creating Layer inception_4a/relu_5x5_reduce
I0201 12:09:22.985885 12021 net.cpp:434] inception_4a/relu_5x5_reduce <- inception_4a/5x5_reduce
I0201 12:09:22.985895 12021 net.cpp:395] inception_4a/relu_5x5_reduce -> inception_4a/5x5_reduce (in-place)
I0201 12:09:22.985906 12021 net.cpp:150] Setting up inception_4a/relu_5x5_reduce
I0201 12:09:22.985915 12021 net.cpp:157] Top shape: 32 16 14 14 (100352)
I0201 12:09:22.985924 12021 net.cpp:165] Memory required for data: 1164886528
I0201 12:09:22.985930 12021 layer_factory.hpp:77] Creating layer inception_4a/5x5
I0201 12:09:22.985944 12021 net.cpp:100] Creating Layer inception_4a/5x5
I0201 12:09:22.985954 12021 net.cpp:434] inception_4a/5x5 <- inception_4a/5x5_reduce
I0201 12:09:22.985975 12021 net.cpp:408] inception_4a/5x5 -> inception_4a/5x5
I0201 12:09:22.986259 12021 net.cpp:150] Setting up inception_4a/5x5
I0201 12:09:22.986276 12021 net.cpp:157] Top shape: 32 48 14 14 (301056)
I0201 12:09:22.986284 12021 net.cpp:165] Memory required for data: 1166090752
I0201 12:09:22.986295 12021 layer_factory.hpp:77] Creating layer inception_4a/relu_5x5
I0201 12:09:22.986309 12021 net.cpp:100] Creating Layer inception_4a/relu_5x5
I0201 12:09:22.986318 12021 net.cpp:434] inception_4a/relu_5x5 <- inception_4a/5x5
I0201 12:09:22.986328 12021 net.cpp:395] inception_4a/relu_5x5 -> inception_4a/5x5 (in-place)
I0201 12:09:22.986340 12021 net.cpp:150] Setting up inception_4a/relu_5x5
I0201 12:09:22.986349 12021 net.cpp:157] Top shape: 32 48 14 14 (301056)
I0201 12:09:22.986356 12021 net.cpp:165] Memory required for data: 1167294976
I0201 12:09:22.986363 12021 layer_factory.hpp:77] Creating layer inception_4a/pool
I0201 12:09:22.986373 12021 net.cpp:100] Creating Layer inception_4a/pool
I0201 12:09:22.986382 12021 net.cpp:434] inception_4a/pool <- pool3/3x3_s2_pool3/3x3_s2_0_split_3
I0201 12:09:22.986394 12021 net.cpp:408] inception_4a/pool -> inception_4a/pool
I0201 12:09:22.986409 12021 net.cpp:150] Setting up inception_4a/pool
I0201 12:09:22.986419 12021 net.cpp:157] Top shape: 32 480 14 14 (3010560)
I0201 12:09:22.986426 12021 net.cpp:165] Memory required for data: 1179337216
I0201 12:09:22.986434 12021 layer_factory.hpp:77] Creating layer inception_4a/pool_proj
I0201 12:09:22.986449 12021 net.cpp:100] Creating Layer inception_4a/pool_proj
I0201 12:09:22.986474 12021 net.cpp:434] inception_4a/pool_proj <- inception_4a/pool
I0201 12:09:22.986490 12021 net.cpp:408] inception_4a/pool_proj -> inception_4a/pool_proj
I0201 12:09:22.986837 12021 net.cpp:150] Setting up inception_4a/pool_proj
I0201 12:09:22.986852 12021 net.cpp:157] Top shape: 32 64 14 14 (401408)
I0201 12:09:22.986860 12021 net.cpp:165] Memory required for data: 1180942848
I0201 12:09:22.986871 12021 layer_factory.hpp:77] Creating layer inception_4a/relu_pool_proj
I0201 12:09:22.986881 12021 net.cpp:100] Creating Layer inception_4a/relu_pool_proj
I0201 12:09:22.986889 12021 net.cpp:434] inception_4a/relu_pool_proj <- inception_4a/pool_proj
I0201 12:09:22.986906 12021 net.cpp:395] inception_4a/relu_pool_proj -> inception_4a/pool_proj (in-place)
I0201 12:09:22.986917 12021 net.cpp:150] Setting up inception_4a/relu_pool_proj
I0201 12:09:22.986927 12021 net.cpp:157] Top shape: 32 64 14 14 (401408)
I0201 12:09:22.986934 12021 net.cpp:165] Memory required for data: 1182548480
I0201 12:09:22.986943 12021 layer_factory.hpp:77] Creating layer inception_4a/output
I0201 12:09:22.986953 12021 net.cpp:100] Creating Layer inception_4a/output
I0201 12:09:22.986960 12021 net.cpp:434] inception_4a/output <- inception_4a/1x1
I0201 12:09:22.986969 12021 net.cpp:434] inception_4a/output <- inception_4a/3x3
I0201 12:09:22.986979 12021 net.cpp:434] inception_4a/output <- inception_4a/5x5
I0201 12:09:22.986986 12021 net.cpp:434] inception_4a/output <- inception_4a/pool_proj
I0201 12:09:22.986996 12021 net.cpp:408] inception_4a/output -> inception_4a/output
I0201 12:09:22.987010 12021 net.cpp:150] Setting up inception_4a/output
I0201 12:09:22.987020 12021 net.cpp:157] Top shape: 32 512 14 14 (3211264)
I0201 12:09:22.987027 12021 net.cpp:165] Memory required for data: 1195393536
I0201 12:09:22.987035 12021 layer_factory.hpp:77] Creating layer inception_4a/output_inception_4a/output_0_split
I0201 12:09:22.987048 12021 net.cpp:100] Creating Layer inception_4a/output_inception_4a/output_0_split
I0201 12:09:22.987057 12021 net.cpp:434] inception_4a/output_inception_4a/output_0_split <- inception_4a/output
I0201 12:09:22.987067 12021 net.cpp:408] inception_4a/output_inception_4a/output_0_split -> inception_4a/output_inception_4a/output_0_split_0
I0201 12:09:22.987087 12021 net.cpp:408] inception_4a/output_inception_4a/output_0_split -> inception_4a/output_inception_4a/output_0_split_1
I0201 12:09:22.987100 12021 net.cpp:408] inception_4a/output_inception_4a/output_0_split -> inception_4a/output_inception_4a/output_0_split_2
I0201 12:09:22.987112 12021 net.cpp:408] inception_4a/output_inception_4a/output_0_split -> inception_4a/output_inception_4a/output_0_split_3
I0201 12:09:22.987124 12021 net.cpp:408] inception_4a/output_inception_4a/output_0_split -> inception_4a/output_inception_4a/output_0_split_4
I0201 12:09:22.987138 12021 net.cpp:150] Setting up inception_4a/output_inception_4a/output_0_split
I0201 12:09:22.987148 12021 net.cpp:157] Top shape: 32 512 14 14 (3211264)
I0201 12:09:22.987156 12021 net.cpp:157] Top shape: 32 512 14 14 (3211264)
I0201 12:09:22.987165 12021 net.cpp:157] Top shape: 32 512 14 14 (3211264)
I0201 12:09:22.987174 12021 net.cpp:157] Top shape: 32 512 14 14 (3211264)
I0201 12:09:22.987182 12021 net.cpp:157] Top shape: 32 512 14 14 (3211264)
I0201 12:09:22.987190 12021 net.cpp:165] Memory required for data: 1259618816
I0201 12:09:22.987197 12021 layer_factory.hpp:77] Creating layer loss1/ave_pool
I0201 12:09:22.987210 12021 net.cpp:100] Creating Layer loss1/ave_pool
I0201 12:09:22.987218 12021 net.cpp:434] loss1/ave_pool <- inception_4a/output_inception_4a/output_0_split_0
I0201 12:09:22.987231 12021 net.cpp:408] loss1/ave_pool -> loss1/ave_pool
I0201 12:09:22.987244 12021 net.cpp:150] Setting up loss1/ave_pool
I0201 12:09:22.987265 12021 net.cpp:157] Top shape: 32 512 4 4 (262144)
I0201 12:09:22.987273 12021 net.cpp:165] Memory required for data: 1260667392
I0201 12:09:22.987282 12021 layer_factory.hpp:77] Creating layer loss1/conv
I0201 12:09:22.987294 12021 net.cpp:100] Creating Layer loss1/conv
I0201 12:09:22.987315 12021 net.cpp:434] loss1/conv <- loss1/ave_pool
I0201 12:09:22.987339 12021 net.cpp:408] loss1/conv -> loss1/conv
I0201 12:09:22.988055 12021 net.cpp:150] Setting up loss1/conv
I0201 12:09:22.988071 12021 net.cpp:157] Top shape: 32 128 4 4 (65536)
I0201 12:09:22.988080 12021 net.cpp:165] Memory required for data: 1260929536
I0201 12:09:22.988090 12021 layer_factory.hpp:77] Creating layer loss1/relu_conv
I0201 12:09:22.988101 12021 net.cpp:100] Creating Layer loss1/relu_conv
I0201 12:09:22.988111 12021 net.cpp:434] loss1/relu_conv <- loss1/conv
I0201 12:09:22.988123 12021 net.cpp:395] loss1/relu_conv -> loss1/conv (in-place)
I0201 12:09:22.988134 12021 net.cpp:150] Setting up loss1/relu_conv
I0201 12:09:22.988144 12021 net.cpp:157] Top shape: 32 128 4 4 (65536)
I0201 12:09:22.988152 12021 net.cpp:165] Memory required for data: 1261191680
I0201 12:09:22.988159 12021 layer_factory.hpp:77] Creating layer loss1/fc
I0201 12:09:22.988174 12021 net.cpp:100] Creating Layer loss1/fc
I0201 12:09:22.988183 12021 net.cpp:434] loss1/fc <- loss1/conv
I0201 12:09:22.988196 12021 net.cpp:408] loss1/fc -> loss1/fc
I0201 12:09:23.009328 12021 net.cpp:150] Setting up loss1/fc
I0201 12:09:23.009356 12021 net.cpp:157] Top shape: 32 1024 (32768)
I0201 12:09:23.009364 12021 net.cpp:165] Memory required for data: 1261322752
I0201 12:09:23.009376 12021 layer_factory.hpp:77] Creating layer loss1/relu_fc
I0201 12:09:23.009385 12021 net.cpp:100] Creating Layer loss1/relu_fc
I0201 12:09:23.009394 12021 net.cpp:434] loss1/relu_fc <- loss1/fc
I0201 12:09:23.009403 12021 net.cpp:395] loss1/relu_fc -> loss1/fc (in-place)
I0201 12:09:23.009416 12021 net.cpp:150] Setting up loss1/relu_fc
I0201 12:09:23.009424 12021 net.cpp:157] Top shape: 32 1024 (32768)
I0201 12:09:23.009431 12021 net.cpp:165] Memory required for data: 1261453824
I0201 12:09:23.009438 12021 layer_factory.hpp:77] Creating layer loss1/drop_fc
I0201 12:09:23.009464 12021 net.cpp:100] Creating Layer loss1/drop_fc
I0201 12:09:23.009471 12021 net.cpp:434] loss1/drop_fc <- loss1/fc
I0201 12:09:23.009480 12021 net.cpp:395] loss1/drop_fc -> loss1/fc (in-place)
I0201 12:09:23.009501 12021 net.cpp:150] Setting up loss1/drop_fc
I0201 12:09:23.009510 12021 net.cpp:157] Top shape: 32 1024 (32768)
I0201 12:09:23.009517 12021 net.cpp:165] Memory required for data: 1261584896
I0201 12:09:23.009524 12021 layer_factory.hpp:77] Creating layer loss1/classifier
I0201 12:09:23.009534 12021 net.cpp:100] Creating Layer loss1/classifier
I0201 12:09:23.009542 12021 net.cpp:434] loss1/classifier <- loss1/fc
I0201 12:09:23.009554 12021 net.cpp:408] loss1/classifier -> loss1/classifier
I0201 12:09:23.019762 12021 net.cpp:150] Setting up loss1/classifier
I0201 12:09:23.019781 12021 net.cpp:157] Top shape: 32 1000 (32000)
I0201 12:09:23.019788 12021 net.cpp:165] Memory required for data: 1261712896
I0201 12:09:23.019799 12021 layer_factory.hpp:77] Creating layer loss1/loss
I0201 12:09:23.019812 12021 net.cpp:100] Creating Layer loss1/loss
I0201 12:09:23.019820 12021 net.cpp:434] loss1/loss <- loss1/classifier
I0201 12:09:23.019829 12021 net.cpp:434] loss1/loss <- label_data_1_split_0
I0201 12:09:23.019840 12021 net.cpp:408] loss1/loss -> loss1/loss1
I0201 12:09:23.019865 12021 layer_factory.hpp:77] Creating layer loss1/loss
I0201 12:09:23.019990 12021 net.cpp:150] Setting up loss1/loss
I0201 12:09:23.020004 12021 net.cpp:157] Top shape: (1)
I0201 12:09:23.020010 12021 net.cpp:160]     with loss weight 0.3
I0201 12:09:23.020061 12021 net.cpp:165] Memory required for data: 1261712900
I0201 12:09:23.020069 12021 layer_factory.hpp:77] Creating layer inception_4b/1x1
I0201 12:09:23.020088 12021 net.cpp:100] Creating Layer inception_4b/1x1
I0201 12:09:23.020097 12021 net.cpp:434] inception_4b/1x1 <- inception_4a/output_inception_4a/output_0_split_1
I0201 12:09:23.020110 12021 net.cpp:408] inception_4b/1x1 -> inception_4b/1x1
I0201 12:09:23.020896 12021 net.cpp:150] Setting up inception_4b/1x1
I0201 12:09:23.020911 12021 net.cpp:157] Top shape: 32 160 14 14 (1003520)
I0201 12:09:23.020931 12021 net.cpp:165] Memory required for data: 1265726980
I0201 12:09:23.020958 12021 layer_factory.hpp:77] Creating layer inception_4b/relu_1x1
I0201 12:09:23.020968 12021 net.cpp:100] Creating Layer inception_4b/relu_1x1
I0201 12:09:23.020977 12021 net.cpp:434] inception_4b/relu_1x1 <- inception_4b/1x1
I0201 12:09:23.020988 12021 net.cpp:395] inception_4b/relu_1x1 -> inception_4b/1x1 (in-place)
I0201 12:09:23.020999 12021 net.cpp:150] Setting up inception_4b/relu_1x1
I0201 12:09:23.021008 12021 net.cpp:157] Top shape: 32 160 14 14 (1003520)
I0201 12:09:23.021014 12021 net.cpp:165] Memory required for data: 1269741060
I0201 12:09:23.021021 12021 layer_factory.hpp:77] Creating layer inception_4b/3x3_reduce
I0201 12:09:23.021035 12021 net.cpp:100] Creating Layer inception_4b/3x3_reduce
I0201 12:09:23.021044 12021 net.cpp:434] inception_4b/3x3_reduce <- inception_4a/output_inception_4a/output_0_split_2
I0201 12:09:23.021054 12021 net.cpp:408] inception_4b/3x3_reduce -> inception_4b/3x3_reduce
I0201 12:09:23.021582 12021 net.cpp:150] Setting up inception_4b/3x3_reduce
I0201 12:09:23.021597 12021 net.cpp:157] Top shape: 32 112 14 14 (702464)
I0201 12:09:23.021605 12021 net.cpp:165] Memory required for data: 1272550916
I0201 12:09:23.021613 12021 layer_factory.hpp:77] Creating layer inception_4b/relu_3x3_reduce
I0201 12:09:23.021625 12021 net.cpp:100] Creating Layer inception_4b/relu_3x3_reduce
I0201 12:09:23.021633 12021 net.cpp:434] inception_4b/relu_3x3_reduce <- inception_4b/3x3_reduce
I0201 12:09:23.021642 12021 net.cpp:395] inception_4b/relu_3x3_reduce -> inception_4b/3x3_reduce (in-place)
I0201 12:09:23.021654 12021 net.cpp:150] Setting up inception_4b/relu_3x3_reduce
I0201 12:09:23.021663 12021 net.cpp:157] Top shape: 32 112 14 14 (702464)
I0201 12:09:23.021669 12021 net.cpp:165] Memory required for data: 1275360772
I0201 12:09:23.021677 12021 layer_factory.hpp:77] Creating layer inception_4b/3x3
I0201 12:09:23.021688 12021 net.cpp:100] Creating Layer inception_4b/3x3
I0201 12:09:23.021697 12021 net.cpp:434] inception_4b/3x3 <- inception_4b/3x3_reduce
I0201 12:09:23.021713 12021 net.cpp:408] inception_4b/3x3 -> inception_4b/3x3
I0201 12:09:23.023710 12021 net.cpp:150] Setting up inception_4b/3x3
I0201 12:09:23.023725 12021 net.cpp:157] Top shape: 32 224 14 14 (1404928)
I0201 12:09:23.023731 12021 net.cpp:165] Memory required for data: 1280980484
I0201 12:09:23.023741 12021 layer_factory.hpp:77] Creating layer inception_4b/relu_3x3
I0201 12:09:23.023751 12021 net.cpp:100] Creating Layer inception_4b/relu_3x3
I0201 12:09:23.023758 12021 net.cpp:434] inception_4b/relu_3x3 <- inception_4b/3x3
I0201 12:09:23.023766 12021 net.cpp:395] inception_4b/relu_3x3 -> inception_4b/3x3 (in-place)
I0201 12:09:23.023777 12021 net.cpp:150] Setting up inception_4b/relu_3x3
I0201 12:09:23.023785 12021 net.cpp:157] Top shape: 32 224 14 14 (1404928)
I0201 12:09:23.023792 12021 net.cpp:165] Memory required for data: 1286600196
I0201 12:09:23.023798 12021 layer_factory.hpp:77] Creating layer inception_4b/5x5_reduce
I0201 12:09:23.023813 12021 net.cpp:100] Creating Layer inception_4b/5x5_reduce
I0201 12:09:23.023820 12021 net.cpp:434] inception_4b/5x5_reduce <- inception_4a/output_inception_4a/output_0_split_3
I0201 12:09:23.023830 12021 net.cpp:408] inception_4b/5x5_reduce -> inception_4b/5x5_reduce
I0201 12:09:23.023952 12021 net.cpp:150] Setting up inception_4b/5x5_reduce
I0201 12:09:23.023963 12021 net.cpp:157] Top shape: 32 24 14 14 (150528)
I0201 12:09:23.023970 12021 net.cpp:165] Memory required for data: 1287202308
I0201 12:09:23.023980 12021 layer_factory.hpp:77] Creating layer inception_4b/relu_5x5_reduce
I0201 12:09:23.023989 12021 net.cpp:100] Creating Layer inception_4b/relu_5x5_reduce
I0201 12:09:23.023996 12021 net.cpp:434] inception_4b/relu_5x5_reduce <- inception_4b/5x5_reduce
I0201 12:09:23.024005 12021 net.cpp:395] inception_4b/relu_5x5_reduce -> inception_4b/5x5_reduce (in-place)
I0201 12:09:23.024015 12021 net.cpp:150] Setting up inception_4b/relu_5x5_reduce
I0201 12:09:23.024024 12021 net.cpp:157] Top shape: 32 24 14 14 (150528)
I0201 12:09:23.024042 12021 net.cpp:165] Memory required for data: 1287804420
I0201 12:09:23.024049 12021 layer_factory.hpp:77] Creating layer inception_4b/5x5
I0201 12:09:23.024067 12021 net.cpp:100] Creating Layer inception_4b/5x5
I0201 12:09:23.024075 12021 net.cpp:434] inception_4b/5x5 <- inception_4b/5x5_reduce
I0201 12:09:23.024086 12021 net.cpp:408] inception_4b/5x5 -> inception_4b/5x5
I0201 12:09:23.024446 12021 net.cpp:150] Setting up inception_4b/5x5
I0201 12:09:23.024459 12021 net.cpp:157] Top shape: 32 64 14 14 (401408)
I0201 12:09:23.024466 12021 net.cpp:165] Memory required for data: 1289410052
I0201 12:09:23.024477 12021 layer_factory.hpp:77] Creating layer inception_4b/relu_5x5
I0201 12:09:23.024485 12021 net.cpp:100] Creating Layer inception_4b/relu_5x5
I0201 12:09:23.024497 12021 net.cpp:434] inception_4b/relu_5x5 <- inception_4b/5x5
I0201 12:09:23.024505 12021 net.cpp:395] inception_4b/relu_5x5 -> inception_4b/5x5 (in-place)
I0201 12:09:23.024515 12021 net.cpp:150] Setting up inception_4b/relu_5x5
I0201 12:09:23.024523 12021 net.cpp:157] Top shape: 32 64 14 14 (401408)
I0201 12:09:23.024529 12021 net.cpp:165] Memory required for data: 1291015684
I0201 12:09:23.024536 12021 layer_factory.hpp:77] Creating layer inception_4b/pool
I0201 12:09:23.024546 12021 net.cpp:100] Creating Layer inception_4b/pool
I0201 12:09:23.024554 12021 net.cpp:434] inception_4b/pool <- inception_4a/output_inception_4a/output_0_split_4
I0201 12:09:23.024565 12021 net.cpp:408] inception_4b/pool -> inception_4b/pool
I0201 12:09:23.024590 12021 net.cpp:150] Setting up inception_4b/pool
I0201 12:09:23.024600 12021 net.cpp:157] Top shape: 32 512 14 14 (3211264)
I0201 12:09:23.024606 12021 net.cpp:165] Memory required for data: 1303860740
I0201 12:09:23.024613 12021 layer_factory.hpp:77] Creating layer inception_4b/pool_proj
I0201 12:09:23.024627 12021 net.cpp:100] Creating Layer inception_4b/pool_proj
I0201 12:09:23.024636 12021 net.cpp:434] inception_4b/pool_proj <- inception_4b/pool
I0201 12:09:23.024646 12021 net.cpp:408] inception_4b/pool_proj -> inception_4b/pool_proj
I0201 12:09:23.024952 12021 net.cpp:150] Setting up inception_4b/pool_proj
I0201 12:09:23.024966 12021 net.cpp:157] Top shape: 32 64 14 14 (401408)
I0201 12:09:23.024972 12021 net.cpp:165] Memory required for data: 1305466372
I0201 12:09:23.024982 12021 layer_factory.hpp:77] Creating layer inception_4b/relu_pool_proj
I0201 12:09:23.024992 12021 net.cpp:100] Creating Layer inception_4b/relu_pool_proj
I0201 12:09:23.024999 12021 net.cpp:434] inception_4b/relu_pool_proj <- inception_4b/pool_proj
I0201 12:09:23.025008 12021 net.cpp:395] inception_4b/relu_pool_proj -> inception_4b/pool_proj (in-place)
I0201 12:09:23.025018 12021 net.cpp:150] Setting up inception_4b/relu_pool_proj
I0201 12:09:23.025027 12021 net.cpp:157] Top shape: 32 64 14 14 (401408)
I0201 12:09:23.025032 12021 net.cpp:165] Memory required for data: 1307072004
I0201 12:09:23.025039 12021 layer_factory.hpp:77] Creating layer inception_4b/output
I0201 12:09:23.025051 12021 net.cpp:100] Creating Layer inception_4b/output
I0201 12:09:23.025058 12021 net.cpp:434] inception_4b/output <- inception_4b/1x1
I0201 12:09:23.025066 12021 net.cpp:434] inception_4b/output <- inception_4b/3x3
I0201 12:09:23.025074 12021 net.cpp:434] inception_4b/output <- inception_4b/5x5
I0201 12:09:23.025081 12021 net.cpp:434] inception_4b/output <- inception_4b/pool_proj
I0201 12:09:23.025090 12021 net.cpp:408] inception_4b/output -> inception_4b/output
I0201 12:09:23.025104 12021 net.cpp:150] Setting up inception_4b/output
I0201 12:09:23.025112 12021 net.cpp:157] Top shape: 32 512 14 14 (3211264)
I0201 12:09:23.025118 12021 net.cpp:165] Memory required for data: 1319917060
I0201 12:09:23.025125 12021 layer_factory.hpp:77] Creating layer inception_4b/output_inception_4b/output_0_split
I0201 12:09:23.025136 12021 net.cpp:100] Creating Layer inception_4b/output_inception_4b/output_0_split
I0201 12:09:23.025143 12021 net.cpp:434] inception_4b/output_inception_4b/output_0_split <- inception_4b/output
I0201 12:09:23.025158 12021 net.cpp:408] inception_4b/output_inception_4b/output_0_split -> inception_4b/output_inception_4b/output_0_split_0
I0201 12:09:23.025178 12021 net.cpp:408] inception_4b/output_inception_4b/output_0_split -> inception_4b/output_inception_4b/output_0_split_1
I0201 12:09:23.025189 12021 net.cpp:408] inception_4b/output_inception_4b/output_0_split -> inception_4b/output_inception_4b/output_0_split_2
I0201 12:09:23.025199 12021 net.cpp:408] inception_4b/output_inception_4b/output_0_split -> inception_4b/output_inception_4b/output_0_split_3
I0201 12:09:23.025213 12021 net.cpp:150] Setting up inception_4b/output_inception_4b/output_0_split
I0201 12:09:23.025223 12021 net.cpp:157] Top shape: 32 512 14 14 (3211264)
I0201 12:09:23.025230 12021 net.cpp:157] Top shape: 32 512 14 14 (3211264)
I0201 12:09:23.025238 12021 net.cpp:157] Top shape: 32 512 14 14 (3211264)
I0201 12:09:23.025246 12021 net.cpp:157] Top shape: 32 512 14 14 (3211264)
I0201 12:09:23.025262 12021 net.cpp:165] Memory required for data: 1371297284
I0201 12:09:23.025269 12021 layer_factory.hpp:77] Creating layer inception_4c/1x1
I0201 12:09:23.025284 12021 net.cpp:100] Creating Layer inception_4c/1x1
I0201 12:09:23.025291 12021 net.cpp:434] inception_4c/1x1 <- inception_4b/output_inception_4b/output_0_split_0
I0201 12:09:23.025301 12021 net.cpp:408] inception_4c/1x1 -> inception_4c/1x1
I0201 12:09:23.025888 12021 net.cpp:150] Setting up inception_4c/1x1
I0201 12:09:23.025902 12021 net.cpp:157] Top shape: 32 128 14 14 (802816)
I0201 12:09:23.025909 12021 net.cpp:165] Memory required for data: 1374508548
I0201 12:09:23.025918 12021 layer_factory.hpp:77] Creating layer inception_4c/relu_1x1
I0201 12:09:23.025928 12021 net.cpp:100] Creating Layer inception_4c/relu_1x1
I0201 12:09:23.025935 12021 net.cpp:434] inception_4c/relu_1x1 <- inception_4c/1x1
I0201 12:09:23.025948 12021 net.cpp:395] inception_4c/relu_1x1 -> inception_4c/1x1 (in-place)
I0201 12:09:23.025957 12021 net.cpp:150] Setting up inception_4c/relu_1x1
I0201 12:09:23.025965 12021 net.cpp:157] Top shape: 32 128 14 14 (802816)
I0201 12:09:23.025972 12021 net.cpp:165] Memory required for data: 1377719812
I0201 12:09:23.025979 12021 layer_factory.hpp:77] Creating layer inception_4c/3x3_reduce
I0201 12:09:23.025990 12021 net.cpp:100] Creating Layer inception_4c/3x3_reduce
I0201 12:09:23.025998 12021 net.cpp:434] inception_4c/3x3_reduce <- inception_4b/output_inception_4b/output_0_split_1
I0201 12:09:23.026010 12021 net.cpp:408] inception_4c/3x3_reduce -> inception_4c/3x3_reduce
I0201 12:09:23.026610 12021 net.cpp:150] Setting up inception_4c/3x3_reduce
I0201 12:09:23.026625 12021 net.cpp:157] Top shape: 32 128 14 14 (802816)
I0201 12:09:23.026631 12021 net.cpp:165] Memory required for data: 1380931076
I0201 12:09:23.026641 12021 layer_factory.hpp:77] Creating layer inception_4c/relu_3x3_reduce
I0201 12:09:23.026653 12021 net.cpp:100] Creating Layer inception_4c/relu_3x3_reduce
I0201 12:09:23.026660 12021 net.cpp:434] inception_4c/relu_3x3_reduce <- inception_4c/3x3_reduce
I0201 12:09:23.026670 12021 net.cpp:395] inception_4c/relu_3x3_reduce -> inception_4c/3x3_reduce (in-place)
I0201 12:09:23.026680 12021 net.cpp:150] Setting up inception_4c/relu_3x3_reduce
I0201 12:09:23.026688 12021 net.cpp:157] Top shape: 32 128 14 14 (802816)
I0201 12:09:23.026695 12021 net.cpp:165] Memory required for data: 1384142340
I0201 12:09:23.026701 12021 layer_factory.hpp:77] Creating layer inception_4c/3x3
I0201 12:09:23.026715 12021 net.cpp:100] Creating Layer inception_4c/3x3
I0201 12:09:23.026722 12021 net.cpp:434] inception_4c/3x3 <- inception_4c/3x3_reduce
I0201 12:09:23.026732 12021 net.cpp:408] inception_4c/3x3 -> inception_4c/3x3
I0201 12:09:23.029323 12021 net.cpp:150] Setting up inception_4c/3x3
I0201 12:09:23.029338 12021 net.cpp:157] Top shape: 32 256 14 14 (1605632)
I0201 12:09:23.029345 12021 net.cpp:165] Memory required for data: 1390564868
I0201 12:09:23.029366 12021 layer_factory.hpp:77] Creating layer inception_4c/relu_3x3
I0201 12:09:23.029377 12021 net.cpp:100] Creating Layer inception_4c/relu_3x3
I0201 12:09:23.029391 12021 net.cpp:434] inception_4c/relu_3x3 <- inception_4c/3x3
I0201 12:09:23.029413 12021 net.cpp:395] inception_4c/relu_3x3 -> inception_4c/3x3 (in-place)
I0201 12:09:23.029424 12021 net.cpp:150] Setting up inception_4c/relu_3x3
I0201 12:09:23.029433 12021 net.cpp:157] Top shape: 32 256 14 14 (1605632)
I0201 12:09:23.029439 12021 net.cpp:165] Memory required for data: 1396987396
I0201 12:09:23.029446 12021 layer_factory.hpp:77] Creating layer inception_4c/5x5_reduce
I0201 12:09:23.029458 12021 net.cpp:100] Creating Layer inception_4c/5x5_reduce
I0201 12:09:23.029465 12021 net.cpp:434] inception_4c/5x5_reduce <- inception_4b/output_inception_4b/output_0_split_2
I0201 12:09:23.029475 12021 net.cpp:408] inception_4c/5x5_reduce -> inception_4c/5x5_reduce
I0201 12:09:23.029595 12021 net.cpp:150] Setting up inception_4c/5x5_reduce
I0201 12:09:23.029606 12021 net.cpp:157] Top shape: 32 24 14 14 (150528)
I0201 12:09:23.029613 12021 net.cpp:165] Memory required for data: 1397589508
I0201 12:09:23.029623 12021 layer_factory.hpp:77] Creating layer inception_4c/relu_5x5_reduce
I0201 12:09:23.029631 12021 net.cpp:100] Creating Layer inception_4c/relu_5x5_reduce
I0201 12:09:23.029639 12021 net.cpp:434] inception_4c/relu_5x5_reduce <- inception_4c/5x5_reduce
I0201 12:09:23.029650 12021 net.cpp:395] inception_4c/relu_5x5_reduce -> inception_4c/5x5_reduce (in-place)
I0201 12:09:23.029660 12021 net.cpp:150] Setting up inception_4c/relu_5x5_reduce
I0201 12:09:23.029669 12021 net.cpp:157] Top shape: 32 24 14 14 (150528)
I0201 12:09:23.029675 12021 net.cpp:165] Memory required for data: 1398191620
I0201 12:09:23.029682 12021 layer_factory.hpp:77] Creating layer inception_4c/5x5
I0201 12:09:23.029695 12021 net.cpp:100] Creating Layer inception_4c/5x5
I0201 12:09:23.029703 12021 net.cpp:434] inception_4c/5x5 <- inception_4c/5x5_reduce
I0201 12:09:23.029712 12021 net.cpp:408] inception_4c/5x5 -> inception_4c/5x5
I0201 12:09:23.030089 12021 net.cpp:150] Setting up inception_4c/5x5
I0201 12:09:23.030102 12021 net.cpp:157] Top shape: 32 64 14 14 (401408)
I0201 12:09:23.030109 12021 net.cpp:165] Memory required for data: 1399797252
I0201 12:09:23.030119 12021 layer_factory.hpp:77] Creating layer inception_4c/relu_5x5
I0201 12:09:23.030128 12021 net.cpp:100] Creating Layer inception_4c/relu_5x5
I0201 12:09:23.030135 12021 net.cpp:434] inception_4c/relu_5x5 <- inception_4c/5x5
I0201 12:09:23.030144 12021 net.cpp:395] inception_4c/relu_5x5 -> inception_4c/5x5 (in-place)
I0201 12:09:23.030154 12021 net.cpp:150] Setting up inception_4c/relu_5x5
I0201 12:09:23.030163 12021 net.cpp:157] Top shape: 32 64 14 14 (401408)
I0201 12:09:23.030169 12021 net.cpp:165] Memory required for data: 1401402884
I0201 12:09:23.030175 12021 layer_factory.hpp:77] Creating layer inception_4c/pool
I0201 12:09:23.030187 12021 net.cpp:100] Creating Layer inception_4c/pool
I0201 12:09:23.030194 12021 net.cpp:434] inception_4c/pool <- inception_4b/output_inception_4b/output_0_split_3
I0201 12:09:23.030205 12021 net.cpp:408] inception_4c/pool -> inception_4c/pool
I0201 12:09:23.030216 12021 net.cpp:150] Setting up inception_4c/pool
I0201 12:09:23.030225 12021 net.cpp:157] Top shape: 32 512 14 14 (3211264)
I0201 12:09:23.030234 12021 net.cpp:165] Memory required for data: 1414247940
I0201 12:09:23.030241 12021 layer_factory.hpp:77] Creating layer inception_4c/pool_proj
I0201 12:09:23.030261 12021 net.cpp:100] Creating Layer inception_4c/pool_proj
I0201 12:09:23.030270 12021 net.cpp:434] inception_4c/pool_proj <- inception_4c/pool
I0201 12:09:23.030282 12021 net.cpp:408] inception_4c/pool_proj -> inception_4c/pool_proj
I0201 12:09:23.030606 12021 net.cpp:150] Setting up inception_4c/pool_proj
I0201 12:09:23.030619 12021 net.cpp:157] Top shape: 32 64 14 14 (401408)
I0201 12:09:23.030627 12021 net.cpp:165] Memory required for data: 1415853572
I0201 12:09:23.030635 12021 layer_factory.hpp:77] Creating layer inception_4c/relu_pool_proj
I0201 12:09:23.030648 12021 net.cpp:100] Creating Layer inception_4c/relu_pool_proj
I0201 12:09:23.030656 12021 net.cpp:434] inception_4c/relu_pool_proj <- inception_4c/pool_proj
I0201 12:09:23.030680 12021 net.cpp:395] inception_4c/relu_pool_proj -> inception_4c/pool_proj (in-place)
I0201 12:09:23.030690 12021 net.cpp:150] Setting up inception_4c/relu_pool_proj
I0201 12:09:23.030699 12021 net.cpp:157] Top shape: 32 64 14 14 (401408)
I0201 12:09:23.030705 12021 net.cpp:165] Memory required for data: 1417459204
I0201 12:09:23.030712 12021 layer_factory.hpp:77] Creating layer inception_4c/output
I0201 12:09:23.030721 12021 net.cpp:100] Creating Layer inception_4c/output
I0201 12:09:23.030730 12021 net.cpp:434] inception_4c/output <- inception_4c/1x1
I0201 12:09:23.030736 12021 net.cpp:434] inception_4c/output <- inception_4c/3x3
I0201 12:09:23.030745 12021 net.cpp:434] inception_4c/output <- inception_4c/5x5
I0201 12:09:23.030752 12021 net.cpp:434] inception_4c/output <- inception_4c/pool_proj
I0201 12:09:23.030764 12021 net.cpp:408] inception_4c/output -> inception_4c/output
I0201 12:09:23.030776 12021 net.cpp:150] Setting up inception_4c/output
I0201 12:09:23.030786 12021 net.cpp:157] Top shape: 32 512 14 14 (3211264)
I0201 12:09:23.030792 12021 net.cpp:165] Memory required for data: 1430304260
I0201 12:09:23.030799 12021 layer_factory.hpp:77] Creating layer inception_4c/output_inception_4c/output_0_split
I0201 12:09:23.030809 12021 net.cpp:100] Creating Layer inception_4c/output_inception_4c/output_0_split
I0201 12:09:23.030817 12021 net.cpp:434] inception_4c/output_inception_4c/output_0_split <- inception_4c/output
I0201 12:09:23.030833 12021 net.cpp:408] inception_4c/output_inception_4c/output_0_split -> inception_4c/output_inception_4c/output_0_split_0
I0201 12:09:23.030844 12021 net.cpp:408] inception_4c/output_inception_4c/output_0_split -> inception_4c/output_inception_4c/output_0_split_1
I0201 12:09:23.030855 12021 net.cpp:408] inception_4c/output_inception_4c/output_0_split -> inception_4c/output_inception_4c/output_0_split_2
I0201 12:09:23.030865 12021 net.cpp:408] inception_4c/output_inception_4c/output_0_split -> inception_4c/output_inception_4c/output_0_split_3
I0201 12:09:23.030876 12021 net.cpp:150] Setting up inception_4c/output_inception_4c/output_0_split
I0201 12:09:23.030885 12021 net.cpp:157] Top shape: 32 512 14 14 (3211264)
I0201 12:09:23.030894 12021 net.cpp:157] Top shape: 32 512 14 14 (3211264)
I0201 12:09:23.030900 12021 net.cpp:157] Top shape: 32 512 14 14 (3211264)
I0201 12:09:23.030908 12021 net.cpp:157] Top shape: 32 512 14 14 (3211264)
I0201 12:09:23.030915 12021 net.cpp:165] Memory required for data: 1481684484
I0201 12:09:23.030921 12021 layer_factory.hpp:77] Creating layer inception_4d/1x1
I0201 12:09:23.030938 12021 net.cpp:100] Creating Layer inception_4d/1x1
I0201 12:09:23.030946 12021 net.cpp:434] inception_4d/1x1 <- inception_4c/output_inception_4c/output_0_split_0
I0201 12:09:23.030956 12021 net.cpp:408] inception_4d/1x1 -> inception_4d/1x1
I0201 12:09:23.031551 12021 net.cpp:150] Setting up inception_4d/1x1
I0201 12:09:23.031566 12021 net.cpp:157] Top shape: 32 112 14 14 (702464)
I0201 12:09:23.031574 12021 net.cpp:165] Memory required for data: 1484494340
I0201 12:09:23.031582 12021 layer_factory.hpp:77] Creating layer inception_4d/relu_1x1
I0201 12:09:23.031594 12021 net.cpp:100] Creating Layer inception_4d/relu_1x1
I0201 12:09:23.031601 12021 net.cpp:434] inception_4d/relu_1x1 <- inception_4d/1x1
I0201 12:09:23.031610 12021 net.cpp:395] inception_4d/relu_1x1 -> inception_4d/1x1 (in-place)
I0201 12:09:23.031620 12021 net.cpp:150] Setting up inception_4d/relu_1x1
I0201 12:09:23.031630 12021 net.cpp:157] Top shape: 32 112 14 14 (702464)
I0201 12:09:23.031635 12021 net.cpp:165] Memory required for data: 1487304196
I0201 12:09:23.031642 12021 layer_factory.hpp:77] Creating layer inception_4d/3x3_reduce
I0201 12:09:23.031656 12021 net.cpp:100] Creating Layer inception_4d/3x3_reduce
I0201 12:09:23.031663 12021 net.cpp:434] inception_4d/3x3_reduce <- inception_4c/output_inception_4c/output_0_split_1
I0201 12:09:23.031675 12021 net.cpp:408] inception_4d/3x3_reduce -> inception_4d/3x3_reduce
I0201 12:09:23.032373 12021 net.cpp:150] Setting up inception_4d/3x3_reduce
I0201 12:09:23.032398 12021 net.cpp:157] Top shape: 32 144 14 14 (903168)
I0201 12:09:23.032404 12021 net.cpp:165] Memory required for data: 1490916868
I0201 12:09:23.032415 12021 layer_factory.hpp:77] Creating layer inception_4d/relu_3x3_reduce
I0201 12:09:23.032424 12021 net.cpp:100] Creating Layer inception_4d/relu_3x3_reduce
I0201 12:09:23.032433 12021 net.cpp:434] inception_4d/relu_3x3_reduce <- inception_4d/3x3_reduce
I0201 12:09:23.032444 12021 net.cpp:395] inception_4d/relu_3x3_reduce -> inception_4d/3x3_reduce (in-place)
I0201 12:09:23.032455 12021 net.cpp:150] Setting up inception_4d/relu_3x3_reduce
I0201 12:09:23.032464 12021 net.cpp:157] Top shape: 32 144 14 14 (903168)
I0201 12:09:23.032470 12021 net.cpp:165] Memory required for data: 1494529540
I0201 12:09:23.032477 12021 layer_factory.hpp:77] Creating layer inception_4d/3x3
I0201 12:09:23.032490 12021 net.cpp:100] Creating Layer inception_4d/3x3
I0201 12:09:23.032498 12021 net.cpp:434] inception_4d/3x3 <- inception_4d/3x3_reduce
I0201 12:09:23.032507 12021 net.cpp:408] inception_4d/3x3 -> inception_4d/3x3
I0201 12:09:23.036029 12021 net.cpp:150] Setting up inception_4d/3x3
I0201 12:09:23.036044 12021 net.cpp:157] Top shape: 32 288 14 14 (1806336)
I0201 12:09:23.036051 12021 net.cpp:165] Memory required for data: 1501754884
I0201 12:09:23.036062 12021 layer_factory.hpp:77] Creating layer inception_4d/relu_3x3
I0201 12:09:23.036070 12021 net.cpp:100] Creating Layer inception_4d/relu_3x3
I0201 12:09:23.036078 12021 net.cpp:434] inception_4d/relu_3x3 <- inception_4d/3x3
I0201 12:09:23.036087 12021 net.cpp:395] inception_4d/relu_3x3 -> inception_4d/3x3 (in-place)
I0201 12:09:23.036098 12021 net.cpp:150] Setting up inception_4d/relu_3x3
I0201 12:09:23.036105 12021 net.cpp:157] Top shape: 32 288 14 14 (1806336)
I0201 12:09:23.036113 12021 net.cpp:165] Memory required for data: 1508980228
I0201 12:09:23.036119 12021 layer_factory.hpp:77] Creating layer inception_4d/5x5_reduce
I0201 12:09:23.036134 12021 net.cpp:100] Creating Layer inception_4d/5x5_reduce
I0201 12:09:23.036141 12021 net.cpp:434] inception_4d/5x5_reduce <- inception_4c/output_inception_4c/output_0_split_2
I0201 12:09:23.036151 12021 net.cpp:408] inception_4d/5x5_reduce -> inception_4d/5x5_reduce
I0201 12:09:23.036334 12021 net.cpp:150] Setting up inception_4d/5x5_reduce
I0201 12:09:23.036348 12021 net.cpp:157] Top shape: 32 32 14 14 (200704)
I0201 12:09:23.036355 12021 net.cpp:165] Memory required for data: 1509783044
I0201 12:09:23.036365 12021 layer_factory.hpp:77] Creating layer inception_4d/relu_5x5_reduce
I0201 12:09:23.036373 12021 net.cpp:100] Creating Layer inception_4d/relu_5x5_reduce
I0201 12:09:23.036381 12021 net.cpp:434] inception_4d/relu_5x5_reduce <- inception_4d/5x5_reduce
I0201 12:09:23.036393 12021 net.cpp:395] inception_4d/relu_5x5_reduce -> inception_4d/5x5_reduce (in-place)
I0201 12:09:23.036404 12021 net.cpp:150] Setting up inception_4d/relu_5x5_reduce
I0201 12:09:23.036412 12021 net.cpp:157] Top shape: 32 32 14 14 (200704)
I0201 12:09:23.036418 12021 net.cpp:165] Memory required for data: 1510585860
I0201 12:09:23.036425 12021 layer_factory.hpp:77] Creating layer inception_4d/5x5
I0201 12:09:23.036440 12021 net.cpp:100] Creating Layer inception_4d/5x5
I0201 12:09:23.036448 12021 net.cpp:434] inception_4d/5x5 <- inception_4d/5x5_reduce
I0201 12:09:23.036458 12021 net.cpp:408] inception_4d/5x5 -> inception_4d/5x5
I0201 12:09:23.036959 12021 net.cpp:150] Setting up inception_4d/5x5
I0201 12:09:23.036972 12021 net.cpp:157] Top shape: 32 64 14 14 (401408)
I0201 12:09:23.036979 12021 net.cpp:165] Memory required for data: 1512191492
I0201 12:09:23.036989 12021 layer_factory.hpp:77] Creating layer inception_4d/relu_5x5
I0201 12:09:23.037001 12021 net.cpp:100] Creating Layer inception_4d/relu_5x5
I0201 12:09:23.037009 12021 net.cpp:434] inception_4d/relu_5x5 <- inception_4d/5x5
I0201 12:09:23.037017 12021 net.cpp:395] inception_4d/relu_5x5 -> inception_4d/5x5 (in-place)
I0201 12:09:23.037027 12021 net.cpp:150] Setting up inception_4d/relu_5x5
I0201 12:09:23.037041 12021 net.cpp:157] Top shape: 32 64 14 14 (401408)
I0201 12:09:23.037060 12021 net.cpp:165] Memory required for data: 1513797124
I0201 12:09:23.037067 12021 layer_factory.hpp:77] Creating layer inception_4d/pool
I0201 12:09:23.037078 12021 net.cpp:100] Creating Layer inception_4d/pool
I0201 12:09:23.037086 12021 net.cpp:434] inception_4d/pool <- inception_4c/output_inception_4c/output_0_split_3
I0201 12:09:23.037096 12021 net.cpp:408] inception_4d/pool -> inception_4d/pool
I0201 12:09:23.037108 12021 net.cpp:150] Setting up inception_4d/pool
I0201 12:09:23.037117 12021 net.cpp:157] Top shape: 32 512 14 14 (3211264)
I0201 12:09:23.037124 12021 net.cpp:165] Memory required for data: 1526642180
I0201 12:09:23.037132 12021 layer_factory.hpp:77] Creating layer inception_4d/pool_proj
I0201 12:09:23.037144 12021 net.cpp:100] Creating Layer inception_4d/pool_proj
I0201 12:09:23.037154 12021 net.cpp:434] inception_4d/pool_proj <- inception_4d/pool
I0201 12:09:23.037163 12021 net.cpp:408] inception_4d/pool_proj -> inception_4d/pool_proj
I0201 12:09:23.037495 12021 net.cpp:150] Setting up inception_4d/pool_proj
I0201 12:09:23.037510 12021 net.cpp:157] Top shape: 32 64 14 14 (401408)
I0201 12:09:23.037516 12021 net.cpp:165] Memory required for data: 1528247812
I0201 12:09:23.037526 12021 layer_factory.hpp:77] Creating layer inception_4d/relu_pool_proj
I0201 12:09:23.037535 12021 net.cpp:100] Creating Layer inception_4d/relu_pool_proj
I0201 12:09:23.037544 12021 net.cpp:434] inception_4d/relu_pool_proj <- inception_4d/pool_proj
I0201 12:09:23.037556 12021 net.cpp:395] inception_4d/relu_pool_proj -> inception_4d/pool_proj (in-place)
I0201 12:09:23.037566 12021 net.cpp:150] Setting up inception_4d/relu_pool_proj
I0201 12:09:23.037575 12021 net.cpp:157] Top shape: 32 64 14 14 (401408)
I0201 12:09:23.037582 12021 net.cpp:165] Memory required for data: 1529853444
I0201 12:09:23.037588 12021 layer_factory.hpp:77] Creating layer inception_4d/output
I0201 12:09:23.037597 12021 net.cpp:100] Creating Layer inception_4d/output
I0201 12:09:23.037606 12021 net.cpp:434] inception_4d/output <- inception_4d/1x1
I0201 12:09:23.037612 12021 net.cpp:434] inception_4d/output <- inception_4d/3x3
I0201 12:09:23.037621 12021 net.cpp:434] inception_4d/output <- inception_4d/5x5
I0201 12:09:23.037628 12021 net.cpp:434] inception_4d/output <- inception_4d/pool_proj
I0201 12:09:23.037642 12021 net.cpp:408] inception_4d/output -> inception_4d/output
I0201 12:09:23.037655 12021 net.cpp:150] Setting up inception_4d/output
I0201 12:09:23.037664 12021 net.cpp:157] Top shape: 32 528 14 14 (3311616)
I0201 12:09:23.037672 12021 net.cpp:165] Memory required for data: 1543099908
I0201 12:09:23.037678 12021 layer_factory.hpp:77] Creating layer inception_4d/output_inception_4d/output_0_split
I0201 12:09:23.037688 12021 net.cpp:100] Creating Layer inception_4d/output_inception_4d/output_0_split
I0201 12:09:23.037695 12021 net.cpp:434] inception_4d/output_inception_4d/output_0_split <- inception_4d/output
I0201 12:09:23.037708 12021 net.cpp:408] inception_4d/output_inception_4d/output_0_split -> inception_4d/output_inception_4d/output_0_split_0
I0201 12:09:23.037719 12021 net.cpp:408] inception_4d/output_inception_4d/output_0_split -> inception_4d/output_inception_4d/output_0_split_1
I0201 12:09:23.037730 12021 net.cpp:408] inception_4d/output_inception_4d/output_0_split -> inception_4d/output_inception_4d/output_0_split_2
I0201 12:09:23.037740 12021 net.cpp:408] inception_4d/output_inception_4d/output_0_split -> inception_4d/output_inception_4d/output_0_split_3
I0201 12:09:23.037751 12021 net.cpp:408] inception_4d/output_inception_4d/output_0_split -> inception_4d/output_inception_4d/output_0_split_4
I0201 12:09:23.037765 12021 net.cpp:150] Setting up inception_4d/output_inception_4d/output_0_split
I0201 12:09:23.037775 12021 net.cpp:157] Top shape: 32 528 14 14 (3311616)
I0201 12:09:23.037782 12021 net.cpp:157] Top shape: 32 528 14 14 (3311616)
I0201 12:09:23.037791 12021 net.cpp:157] Top shape: 32 528 14 14 (3311616)
I0201 12:09:23.037806 12021 net.cpp:157] Top shape: 32 528 14 14 (3311616)
I0201 12:09:23.037823 12021 net.cpp:157] Top shape: 32 528 14 14 (3311616)
I0201 12:09:23.037830 12021 net.cpp:165] Memory required for data: 1609332228
I0201 12:09:23.037837 12021 layer_factory.hpp:77] Creating layer loss2/ave_pool
I0201 12:09:23.037847 12021 net.cpp:100] Creating Layer loss2/ave_pool
I0201 12:09:23.037854 12021 net.cpp:434] loss2/ave_pool <- inception_4d/output_inception_4d/output_0_split_0
I0201 12:09:23.037866 12021 net.cpp:408] loss2/ave_pool -> loss2/ave_pool
I0201 12:09:23.037878 12021 net.cpp:150] Setting up loss2/ave_pool
I0201 12:09:23.037888 12021 net.cpp:157] Top shape: 32 528 4 4 (270336)
I0201 12:09:23.037894 12021 net.cpp:165] Memory required for data: 1610413572
I0201 12:09:23.037901 12021 layer_factory.hpp:77] Creating layer loss2/conv
I0201 12:09:23.037916 12021 net.cpp:100] Creating Layer loss2/conv
I0201 12:09:23.037925 12021 net.cpp:434] loss2/conv <- loss2/ave_pool
I0201 12:09:23.037935 12021 net.cpp:408] loss2/conv -> loss2/conv
I0201 12:09:23.038596 12021 net.cpp:150] Setting up loss2/conv
I0201 12:09:23.038610 12021 net.cpp:157] Top shape: 32 128 4 4 (65536)
I0201 12:09:23.038617 12021 net.cpp:165] Memory required for data: 1610675716
I0201 12:09:23.038626 12021 layer_factory.hpp:77] Creating layer loss2/relu_conv
I0201 12:09:23.038640 12021 net.cpp:100] Creating Layer loss2/relu_conv
I0201 12:09:23.038648 12021 net.cpp:434] loss2/relu_conv <- loss2/conv
I0201 12:09:23.038657 12021 net.cpp:395] loss2/relu_conv -> loss2/conv (in-place)
I0201 12:09:23.038667 12021 net.cpp:150] Setting up loss2/relu_conv
I0201 12:09:23.038676 12021 net.cpp:157] Top shape: 32 128 4 4 (65536)
I0201 12:09:23.038682 12021 net.cpp:165] Memory required for data: 1610937860
I0201 12:09:23.038688 12021 layer_factory.hpp:77] Creating layer loss2/fc
I0201 12:09:23.038702 12021 net.cpp:100] Creating Layer loss2/fc
I0201 12:09:23.038710 12021 net.cpp:434] loss2/fc <- loss2/conv
I0201 12:09:23.038719 12021 net.cpp:408] loss2/fc -> loss2/fc
I0201 12:09:23.057636 12021 net.cpp:150] Setting up loss2/fc
I0201 12:09:23.057660 12021 net.cpp:157] Top shape: 32 1024 (32768)
I0201 12:09:23.057677 12021 net.cpp:165] Memory required for data: 1611068932
I0201 12:09:23.057687 12021 layer_factory.hpp:77] Creating layer loss2/relu_fc
I0201 12:09:23.057703 12021 net.cpp:100] Creating Layer loss2/relu_fc
I0201 12:09:23.057710 12021 net.cpp:434] loss2/relu_fc <- loss2/fc
I0201 12:09:23.057720 12021 net.cpp:395] loss2/relu_fc -> loss2/fc (in-place)
I0201 12:09:23.057732 12021 net.cpp:150] Setting up loss2/relu_fc
I0201 12:09:23.057740 12021 net.cpp:157] Top shape: 32 1024 (32768)
I0201 12:09:23.057747 12021 net.cpp:165] Memory required for data: 1611200004
I0201 12:09:23.057754 12021 layer_factory.hpp:77] Creating layer loss2/drop_fc
I0201 12:09:23.057765 12021 net.cpp:100] Creating Layer loss2/drop_fc
I0201 12:09:23.057772 12021 net.cpp:434] loss2/drop_fc <- loss2/fc
I0201 12:09:23.057781 12021 net.cpp:395] loss2/drop_fc -> loss2/fc (in-place)
I0201 12:09:23.057793 12021 net.cpp:150] Setting up loss2/drop_fc
I0201 12:09:23.057801 12021 net.cpp:157] Top shape: 32 1024 (32768)
I0201 12:09:23.057808 12021 net.cpp:165] Memory required for data: 1611331076
I0201 12:09:23.057816 12021 layer_factory.hpp:77] Creating layer loss2/classifier
I0201 12:09:23.057826 12021 net.cpp:100] Creating Layer loss2/classifier
I0201 12:09:23.057832 12021 net.cpp:434] loss2/classifier <- loss2/fc
I0201 12:09:23.057845 12021 net.cpp:408] loss2/classifier -> loss2/classifier
I0201 12:09:23.067531 12021 net.cpp:150] Setting up loss2/classifier
I0201 12:09:23.067548 12021 net.cpp:157] Top shape: 32 1000 (32000)
I0201 12:09:23.067555 12021 net.cpp:165] Memory required for data: 1611459076
I0201 12:09:23.067565 12021 layer_factory.hpp:77] Creating layer loss2/loss
I0201 12:09:23.067577 12021 net.cpp:100] Creating Layer loss2/loss
I0201 12:09:23.067585 12021 net.cpp:434] loss2/loss <- loss2/classifier
I0201 12:09:23.067594 12021 net.cpp:434] loss2/loss <- label_data_1_split_1
I0201 12:09:23.067618 12021 net.cpp:408] loss2/loss -> loss2/loss1
I0201 12:09:23.067646 12021 layer_factory.hpp:77] Creating layer loss2/loss
I0201 12:09:23.067756 12021 net.cpp:150] Setting up loss2/loss
I0201 12:09:23.067770 12021 net.cpp:157] Top shape: (1)
I0201 12:09:23.067776 12021 net.cpp:160]     with loss weight 0.3
I0201 12:09:23.067806 12021 net.cpp:165] Memory required for data: 1611459080
I0201 12:09:23.067813 12021 layer_factory.hpp:77] Creating layer inception_4e/1x1
I0201 12:09:23.067833 12021 net.cpp:100] Creating Layer inception_4e/1x1
I0201 12:09:23.067842 12021 net.cpp:434] inception_4e/1x1 <- inception_4d/output_inception_4d/output_0_split_1
I0201 12:09:23.067852 12021 net.cpp:408] inception_4e/1x1 -> inception_4e/1x1
I0201 12:09:23.069166 12021 net.cpp:150] Setting up inception_4e/1x1
I0201 12:09:23.069181 12021 net.cpp:157] Top shape: 32 256 14 14 (1605632)
I0201 12:09:23.069187 12021 net.cpp:165] Memory required for data: 1617881608
I0201 12:09:23.069198 12021 layer_factory.hpp:77] Creating layer inception_4e/relu_1x1
I0201 12:09:23.069211 12021 net.cpp:100] Creating Layer inception_4e/relu_1x1
I0201 12:09:23.069218 12021 net.cpp:434] inception_4e/relu_1x1 <- inception_4e/1x1
I0201 12:09:23.069227 12021 net.cpp:395] inception_4e/relu_1x1 -> inception_4e/1x1 (in-place)
I0201 12:09:23.069241 12021 net.cpp:150] Setting up inception_4e/relu_1x1
I0201 12:09:23.069259 12021 net.cpp:157] Top shape: 32 256 14 14 (1605632)
I0201 12:09:23.069267 12021 net.cpp:165] Memory required for data: 1624304136
I0201 12:09:23.069274 12021 layer_factory.hpp:77] Creating layer inception_4e/3x3_reduce
I0201 12:09:23.069286 12021 net.cpp:100] Creating Layer inception_4e/3x3_reduce
I0201 12:09:23.069293 12021 net.cpp:434] inception_4e/3x3_reduce <- inception_4d/output_inception_4d/output_0_split_2
I0201 12:09:23.069306 12021 net.cpp:408] inception_4e/3x3_reduce -> inception_4e/3x3_reduce
I0201 12:09:23.070114 12021 net.cpp:150] Setting up inception_4e/3x3_reduce
I0201 12:09:23.070128 12021 net.cpp:157] Top shape: 32 160 14 14 (1003520)
I0201 12:09:23.070135 12021 net.cpp:165] Memory required for data: 1628318216
I0201 12:09:23.070145 12021 layer_factory.hpp:77] Creating layer inception_4e/relu_3x3_reduce
I0201 12:09:23.070158 12021 net.cpp:100] Creating Layer inception_4e/relu_3x3_reduce
I0201 12:09:23.070166 12021 net.cpp:434] inception_4e/relu_3x3_reduce <- inception_4e/3x3_reduce
I0201 12:09:23.070175 12021 net.cpp:395] inception_4e/relu_3x3_reduce -> inception_4e/3x3_reduce (in-place)
I0201 12:09:23.070185 12021 net.cpp:150] Setting up inception_4e/relu_3x3_reduce
I0201 12:09:23.070194 12021 net.cpp:157] Top shape: 32 160 14 14 (1003520)
I0201 12:09:23.070200 12021 net.cpp:165] Memory required for data: 1632332296
I0201 12:09:23.070207 12021 layer_factory.hpp:77] Creating layer inception_4e/3x3
I0201 12:09:23.070221 12021 net.cpp:100] Creating Layer inception_4e/3x3
I0201 12:09:23.070230 12021 net.cpp:434] inception_4e/3x3 <- inception_4e/3x3_reduce
I0201 12:09:23.070242 12021 net.cpp:408] inception_4e/3x3 -> inception_4e/3x3
I0201 12:09:23.074865 12021 net.cpp:150] Setting up inception_4e/3x3
I0201 12:09:23.074888 12021 net.cpp:157] Top shape: 32 320 14 14 (2007040)
I0201 12:09:23.074894 12021 net.cpp:165] Memory required for data: 1640360456
I0201 12:09:23.074905 12021 layer_factory.hpp:77] Creating layer inception_4e/relu_3x3
I0201 12:09:23.074914 12021 net.cpp:100] Creating Layer inception_4e/relu_3x3
I0201 12:09:23.074923 12021 net.cpp:434] inception_4e/relu_3x3 <- inception_4e/3x3
I0201 12:09:23.074942 12021 net.cpp:395] inception_4e/relu_3x3 -> inception_4e/3x3 (in-place)
I0201 12:09:23.074952 12021 net.cpp:150] Setting up inception_4e/relu_3x3
I0201 12:09:23.074961 12021 net.cpp:157] Top shape: 32 320 14 14 (2007040)
I0201 12:09:23.074967 12021 net.cpp:165] Memory required for data: 1648388616
I0201 12:09:23.074975 12021 layer_factory.hpp:77] Creating layer inception_4e/5x5_reduce
I0201 12:09:23.074986 12021 net.cpp:100] Creating Layer inception_4e/5x5_reduce
I0201 12:09:23.074995 12021 net.cpp:434] inception_4e/5x5_reduce <- inception_4d/output_inception_4d/output_0_split_3
I0201 12:09:23.075023 12021 net.cpp:408] inception_4e/5x5_reduce -> inception_4e/5x5_reduce
I0201 12:09:23.075197 12021 net.cpp:150] Setting up inception_4e/5x5_reduce
I0201 12:09:23.075212 12021 net.cpp:157] Top shape: 32 32 14 14 (200704)
I0201 12:09:23.075219 12021 net.cpp:165] Memory required for data: 1649191432
I0201 12:09:23.075228 12021 layer_factory.hpp:77] Creating layer inception_4e/relu_5x5_reduce
I0201 12:09:23.075238 12021 net.cpp:100] Creating Layer inception_4e/relu_5x5_reduce
I0201 12:09:23.075247 12021 net.cpp:434] inception_4e/relu_5x5_reduce <- inception_4e/5x5_reduce
I0201 12:09:23.075263 12021 net.cpp:395] inception_4e/relu_5x5_reduce -> inception_4e/5x5_reduce (in-place)
I0201 12:09:23.075273 12021 net.cpp:150] Setting up inception_4e/relu_5x5_reduce
I0201 12:09:23.075283 12021 net.cpp:157] Top shape: 32 32 14 14 (200704)
I0201 12:09:23.075289 12021 net.cpp:165] Memory required for data: 1649994248
I0201 12:09:23.075295 12021 layer_factory.hpp:77] Creating layer inception_4e/5x5
I0201 12:09:23.075327 12021 net.cpp:100] Creating Layer inception_4e/5x5
I0201 12:09:23.075336 12021 net.cpp:434] inception_4e/5x5 <- inception_4e/5x5_reduce
I0201 12:09:23.075346 12021 net.cpp:408] inception_4e/5x5 -> inception_4e/5x5
I0201 12:09:23.076303 12021 net.cpp:150] Setting up inception_4e/5x5
I0201 12:09:23.076319 12021 net.cpp:157] Top shape: 32 128 14 14 (802816)
I0201 12:09:23.076326 12021 net.cpp:165] Memory required for data: 1653205512
I0201 12:09:23.076337 12021 layer_factory.hpp:77] Creating layer inception_4e/relu_5x5
I0201 12:09:23.076346 12021 net.cpp:100] Creating Layer inception_4e/relu_5x5
I0201 12:09:23.076354 12021 net.cpp:434] inception_4e/relu_5x5 <- inception_4e/5x5
I0201 12:09:23.076362 12021 net.cpp:395] inception_4e/relu_5x5 -> inception_4e/5x5 (in-place)
I0201 12:09:23.076372 12021 net.cpp:150] Setting up inception_4e/relu_5x5
I0201 12:09:23.076381 12021 net.cpp:157] Top shape: 32 128 14 14 (802816)
I0201 12:09:23.076387 12021 net.cpp:165] Memory required for data: 1656416776
I0201 12:09:23.076395 12021 layer_factory.hpp:77] Creating layer inception_4e/pool
I0201 12:09:23.076407 12021 net.cpp:100] Creating Layer inception_4e/pool
I0201 12:09:23.076416 12021 net.cpp:434] inception_4e/pool <- inception_4d/output_inception_4d/output_0_split_4
I0201 12:09:23.076424 12021 net.cpp:408] inception_4e/pool -> inception_4e/pool
I0201 12:09:23.076441 12021 net.cpp:150] Setting up inception_4e/pool
I0201 12:09:23.076449 12021 net.cpp:157] Top shape: 32 528 14 14 (3311616)
I0201 12:09:23.076455 12021 net.cpp:165] Memory required for data: 1669663240
I0201 12:09:23.076462 12021 layer_factory.hpp:77] Creating layer inception_4e/pool_proj
I0201 12:09:23.076477 12021 net.cpp:100] Creating Layer inception_4e/pool_proj
I0201 12:09:23.076484 12021 net.cpp:434] inception_4e/pool_proj <- inception_4e/pool
I0201 12:09:23.076496 12021 net.cpp:408] inception_4e/pool_proj -> inception_4e/pool_proj
I0201 12:09:23.077097 12021 net.cpp:150] Setting up inception_4e/pool_proj
I0201 12:09:23.077111 12021 net.cpp:157] Top shape: 32 128 14 14 (802816)
I0201 12:09:23.077118 12021 net.cpp:165] Memory required for data: 1672874504
I0201 12:09:23.077128 12021 layer_factory.hpp:77] Creating layer inception_4e/relu_pool_proj
I0201 12:09:23.077141 12021 net.cpp:100] Creating Layer inception_4e/relu_pool_proj
I0201 12:09:23.077149 12021 net.cpp:434] inception_4e/relu_pool_proj <- inception_4e/pool_proj
I0201 12:09:23.077157 12021 net.cpp:395] inception_4e/relu_pool_proj -> inception_4e/pool_proj (in-place)
I0201 12:09:23.077167 12021 net.cpp:150] Setting up inception_4e/relu_pool_proj
I0201 12:09:23.077177 12021 net.cpp:157] Top shape: 32 128 14 14 (802816)
I0201 12:09:23.077183 12021 net.cpp:165] Memory required for data: 1676085768
I0201 12:09:23.077189 12021 layer_factory.hpp:77] Creating layer inception_4e/output
I0201 12:09:23.077199 12021 net.cpp:100] Creating Layer inception_4e/output
I0201 12:09:23.077206 12021 net.cpp:434] inception_4e/output <- inception_4e/1x1
I0201 12:09:23.077219 12021 net.cpp:434] inception_4e/output <- inception_4e/3x3
I0201 12:09:23.077235 12021 net.cpp:434] inception_4e/output <- inception_4e/5x5
I0201 12:09:23.077244 12021 net.cpp:434] inception_4e/output <- inception_4e/pool_proj
I0201 12:09:23.077262 12021 net.cpp:408] inception_4e/output -> inception_4e/output
I0201 12:09:23.077280 12021 net.cpp:150] Setting up inception_4e/output
I0201 12:09:23.077288 12021 net.cpp:157] Top shape: 32 832 14 14 (5218304)
I0201 12:09:23.077294 12021 net.cpp:165] Memory required for data: 1696958984
I0201 12:09:23.077301 12021 layer_factory.hpp:77] Creating layer pool4/3x3_s2
I0201 12:09:23.077311 12021 net.cpp:100] Creating Layer pool4/3x3_s2
I0201 12:09:23.077318 12021 net.cpp:434] pool4/3x3_s2 <- inception_4e/output
I0201 12:09:23.077327 12021 net.cpp:408] pool4/3x3_s2 -> pool4/3x3_s2
I0201 12:09:23.077339 12021 net.cpp:150] Setting up pool4/3x3_s2
I0201 12:09:23.077348 12021 net.cpp:157] Top shape: 32 832 7 7 (1304576)
I0201 12:09:23.077355 12021 net.cpp:165] Memory required for data: 1702177288
I0201 12:09:23.077363 12021 layer_factory.hpp:77] Creating layer pool4/3x3_s2_pool4/3x3_s2_0_split
I0201 12:09:23.077371 12021 net.cpp:100] Creating Layer pool4/3x3_s2_pool4/3x3_s2_0_split
I0201 12:09:23.077379 12021 net.cpp:434] pool4/3x3_s2_pool4/3x3_s2_0_split <- pool4/3x3_s2
I0201 12:09:23.077390 12021 net.cpp:408] pool4/3x3_s2_pool4/3x3_s2_0_split -> pool4/3x3_s2_pool4/3x3_s2_0_split_0
I0201 12:09:23.077400 12021 net.cpp:408] pool4/3x3_s2_pool4/3x3_s2_0_split -> pool4/3x3_s2_pool4/3x3_s2_0_split_1
I0201 12:09:23.077411 12021 net.cpp:408] pool4/3x3_s2_pool4/3x3_s2_0_split -> pool4/3x3_s2_pool4/3x3_s2_0_split_2
I0201 12:09:23.077421 12021 net.cpp:408] pool4/3x3_s2_pool4/3x3_s2_0_split -> pool4/3x3_s2_pool4/3x3_s2_0_split_3
I0201 12:09:23.077435 12021 net.cpp:150] Setting up pool4/3x3_s2_pool4/3x3_s2_0_split
I0201 12:09:23.077443 12021 net.cpp:157] Top shape: 32 832 7 7 (1304576)
I0201 12:09:23.077451 12021 net.cpp:157] Top shape: 32 832 7 7 (1304576)
I0201 12:09:23.077460 12021 net.cpp:157] Top shape: 32 832 7 7 (1304576)
I0201 12:09:23.077466 12021 net.cpp:157] Top shape: 32 832 7 7 (1304576)
I0201 12:09:23.077472 12021 net.cpp:165] Memory required for data: 1723050504
I0201 12:09:23.077479 12021 layer_factory.hpp:77] Creating layer inception_5a/1x1
I0201 12:09:23.077493 12021 net.cpp:100] Creating Layer inception_5a/1x1
I0201 12:09:23.077502 12021 net.cpp:434] inception_5a/1x1 <- pool4/3x3_s2_pool4/3x3_s2_0_split_0
I0201 12:09:23.077512 12021 net.cpp:408] inception_5a/1x1 -> inception_5a/1x1
I0201 12:09:23.079371 12021 net.cpp:150] Setting up inception_5a/1x1
I0201 12:09:23.079386 12021 net.cpp:157] Top shape: 32 256 7 7 (401408)
I0201 12:09:23.079393 12021 net.cpp:165] Memory required for data: 1724656136
I0201 12:09:23.079403 12021 layer_factory.hpp:77] Creating layer inception_5a/relu_1x1
I0201 12:09:23.079412 12021 net.cpp:100] Creating Layer inception_5a/relu_1x1
I0201 12:09:23.079421 12021 net.cpp:434] inception_5a/relu_1x1 <- inception_5a/1x1
I0201 12:09:23.079429 12021 net.cpp:395] inception_5a/relu_1x1 -> inception_5a/1x1 (in-place)
I0201 12:09:23.079439 12021 net.cpp:150] Setting up inception_5a/relu_1x1
I0201 12:09:23.079447 12021 net.cpp:157] Top shape: 32 256 7 7 (401408)
I0201 12:09:23.079454 12021 net.cpp:165] Memory required for data: 1726261768
I0201 12:09:23.079462 12021 layer_factory.hpp:77] Creating layer inception_5a/3x3_reduce
I0201 12:09:23.079474 12021 net.cpp:100] Creating Layer inception_5a/3x3_reduce
I0201 12:09:23.079483 12021 net.cpp:434] inception_5a/3x3_reduce <- pool4/3x3_s2_pool4/3x3_s2_0_split_1
I0201 12:09:23.079493 12021 net.cpp:408] inception_5a/3x3_reduce -> inception_5a/3x3_reduce
I0201 12:09:23.080653 12021 net.cpp:150] Setting up inception_5a/3x3_reduce
I0201 12:09:23.080668 12021 net.cpp:157] Top shape: 32 160 7 7 (250880)
I0201 12:09:23.080674 12021 net.cpp:165] Memory required for data: 1727265288
I0201 12:09:23.080684 12021 layer_factory.hpp:77] Creating layer inception_5a/relu_3x3_reduce
I0201 12:09:23.080694 12021 net.cpp:100] Creating Layer inception_5a/relu_3x3_reduce
I0201 12:09:23.080716 12021 net.cpp:434] inception_5a/relu_3x3_reduce <- inception_5a/3x3_reduce
I0201 12:09:23.080727 12021 net.cpp:395] inception_5a/relu_3x3_reduce -> inception_5a/3x3_reduce (in-place)
I0201 12:09:23.080739 12021 net.cpp:150] Setting up inception_5a/relu_3x3_reduce
I0201 12:09:23.080747 12021 net.cpp:157] Top shape: 32 160 7 7 (250880)
I0201 12:09:23.080754 12021 net.cpp:165] Memory required for data: 1728268808
I0201 12:09:23.080761 12021 layer_factory.hpp:77] Creating layer inception_5a/3x3
I0201 12:09:23.080772 12021 net.cpp:100] Creating Layer inception_5a/3x3
I0201 12:09:23.080780 12021 net.cpp:434] inception_5a/3x3 <- inception_5a/3x3_reduce
I0201 12:09:23.080790 12021 net.cpp:408] inception_5a/3x3 -> inception_5a/3x3
I0201 12:09:23.084993 12021 net.cpp:150] Setting up inception_5a/3x3
I0201 12:09:23.085008 12021 net.cpp:157] Top shape: 32 320 7 7 (501760)
I0201 12:09:23.085016 12021 net.cpp:165] Memory required for data: 1730275848
I0201 12:09:23.085026 12021 layer_factory.hpp:77] Creating layer inception_5a/relu_3x3
I0201 12:09:23.085038 12021 net.cpp:100] Creating Layer inception_5a/relu_3x3
I0201 12:09:23.085047 12021 net.cpp:434] inception_5a/relu_3x3 <- inception_5a/3x3
I0201 12:09:23.085055 12021 net.cpp:395] inception_5a/relu_3x3 -> inception_5a/3x3 (in-place)
I0201 12:09:23.085065 12021 net.cpp:150] Setting up inception_5a/relu_3x3
I0201 12:09:23.085073 12021 net.cpp:157] Top shape: 32 320 7 7 (501760)
I0201 12:09:23.085080 12021 net.cpp:165] Memory required for data: 1732282888
I0201 12:09:23.085086 12021 layer_factory.hpp:77] Creating layer inception_5a/5x5_reduce
I0201 12:09:23.085098 12021 net.cpp:100] Creating Layer inception_5a/5x5_reduce
I0201 12:09:23.085105 12021 net.cpp:434] inception_5a/5x5_reduce <- pool4/3x3_s2_pool4/3x3_s2_0_split_2
I0201 12:09:23.085117 12021 net.cpp:408] inception_5a/5x5_reduce -> inception_5a/5x5_reduce
I0201 12:09:23.085366 12021 net.cpp:150] Setting up inception_5a/5x5_reduce
I0201 12:09:23.085379 12021 net.cpp:157] Top shape: 32 32 7 7 (50176)
I0201 12:09:23.085386 12021 net.cpp:165] Memory required for data: 1732483592
I0201 12:09:23.085396 12021 layer_factory.hpp:77] Creating layer inception_5a/relu_5x5_reduce
I0201 12:09:23.085407 12021 net.cpp:100] Creating Layer inception_5a/relu_5x5_reduce
I0201 12:09:23.085415 12021 net.cpp:434] inception_5a/relu_5x5_reduce <- inception_5a/5x5_reduce
I0201 12:09:23.085424 12021 net.cpp:395] inception_5a/relu_5x5_reduce -> inception_5a/5x5_reduce (in-place)
I0201 12:09:23.085438 12021 net.cpp:150] Setting up inception_5a/relu_5x5_reduce
I0201 12:09:23.085445 12021 net.cpp:157] Top shape: 32 32 7 7 (50176)
I0201 12:09:23.085453 12021 net.cpp:165] Memory required for data: 1732684296
I0201 12:09:23.085458 12021 layer_factory.hpp:77] Creating layer inception_5a/5x5
I0201 12:09:23.085470 12021 net.cpp:100] Creating Layer inception_5a/5x5
I0201 12:09:23.085477 12021 net.cpp:434] inception_5a/5x5 <- inception_5a/5x5_reduce
I0201 12:09:23.085489 12021 net.cpp:408] inception_5a/5x5 -> inception_5a/5x5
I0201 12:09:23.086396 12021 net.cpp:150] Setting up inception_5a/5x5
I0201 12:09:23.086418 12021 net.cpp:157] Top shape: 32 128 7 7 (200704)
I0201 12:09:23.086426 12021 net.cpp:165] Memory required for data: 1733487112
I0201 12:09:23.086434 12021 layer_factory.hpp:77] Creating layer inception_5a/relu_5x5
I0201 12:09:23.086444 12021 net.cpp:100] Creating Layer inception_5a/relu_5x5
I0201 12:09:23.086452 12021 net.cpp:434] inception_5a/relu_5x5 <- inception_5a/5x5
I0201 12:09:23.086462 12021 net.cpp:395] inception_5a/relu_5x5 -> inception_5a/5x5 (in-place)
I0201 12:09:23.086473 12021 net.cpp:150] Setting up inception_5a/relu_5x5
I0201 12:09:23.086482 12021 net.cpp:157] Top shape: 32 128 7 7 (200704)
I0201 12:09:23.086488 12021 net.cpp:165] Memory required for data: 1734289928
I0201 12:09:23.086495 12021 layer_factory.hpp:77] Creating layer inception_5a/pool
I0201 12:09:23.086504 12021 net.cpp:100] Creating Layer inception_5a/pool
I0201 12:09:23.086511 12021 net.cpp:434] inception_5a/pool <- pool4/3x3_s2_pool4/3x3_s2_0_split_3
I0201 12:09:23.086534 12021 net.cpp:408] inception_5a/pool -> inception_5a/pool
I0201 12:09:23.086549 12021 net.cpp:150] Setting up inception_5a/pool
I0201 12:09:23.086557 12021 net.cpp:157] Top shape: 32 832 7 7 (1304576)
I0201 12:09:23.086565 12021 net.cpp:165] Memory required for data: 1739508232
I0201 12:09:23.086570 12021 layer_factory.hpp:77] Creating layer inception_5a/pool_proj
I0201 12:09:23.086586 12021 net.cpp:100] Creating Layer inception_5a/pool_proj
I0201 12:09:23.086594 12021 net.cpp:434] inception_5a/pool_proj <- inception_5a/pool
I0201 12:09:23.086603 12021 net.cpp:408] inception_5a/pool_proj -> inception_5a/pool_proj
I0201 12:09:23.087544 12021 net.cpp:150] Setting up inception_5a/pool_proj
I0201 12:09:23.087559 12021 net.cpp:157] Top shape: 32 128 7 7 (200704)
I0201 12:09:23.087566 12021 net.cpp:165] Memory required for data: 1740311048
I0201 12:09:23.087575 12021 layer_factory.hpp:77] Creating layer inception_5a/relu_pool_proj
I0201 12:09:23.087587 12021 net.cpp:100] Creating Layer inception_5a/relu_pool_proj
I0201 12:09:23.087595 12021 net.cpp:434] inception_5a/relu_pool_proj <- inception_5a/pool_proj
I0201 12:09:23.087604 12021 net.cpp:395] inception_5a/relu_pool_proj -> inception_5a/pool_proj (in-place)
I0201 12:09:23.087615 12021 net.cpp:150] Setting up inception_5a/relu_pool_proj
I0201 12:09:23.087622 12021 net.cpp:157] Top shape: 32 128 7 7 (200704)
I0201 12:09:23.087628 12021 net.cpp:165] Memory required for data: 1741113864
I0201 12:09:23.087635 12021 layer_factory.hpp:77] Creating layer inception_5a/output
I0201 12:09:23.087646 12021 net.cpp:100] Creating Layer inception_5a/output
I0201 12:09:23.087654 12021 net.cpp:434] inception_5a/output <- inception_5a/1x1
I0201 12:09:23.087662 12021 net.cpp:434] inception_5a/output <- inception_5a/3x3
I0201 12:09:23.087669 12021 net.cpp:434] inception_5a/output <- inception_5a/5x5
I0201 12:09:23.087677 12021 net.cpp:434] inception_5a/output <- inception_5a/pool_proj
I0201 12:09:23.087687 12021 net.cpp:408] inception_5a/output -> inception_5a/output
I0201 12:09:23.087698 12021 net.cpp:150] Setting up inception_5a/output
I0201 12:09:23.087707 12021 net.cpp:157] Top shape: 32 832 7 7 (1304576)
I0201 12:09:23.087713 12021 net.cpp:165] Memory required for data: 1746332168
I0201 12:09:23.087720 12021 layer_factory.hpp:77] Creating layer inception_5a/output_inception_5a/output_0_split
I0201 12:09:23.087729 12021 net.cpp:100] Creating Layer inception_5a/output_inception_5a/output_0_split
I0201 12:09:23.087736 12021 net.cpp:434] inception_5a/output_inception_5a/output_0_split <- inception_5a/output
I0201 12:09:23.087748 12021 net.cpp:408] inception_5a/output_inception_5a/output_0_split -> inception_5a/output_inception_5a/output_0_split_0
I0201 12:09:23.087759 12021 net.cpp:408] inception_5a/output_inception_5a/output_0_split -> inception_5a/output_inception_5a/output_0_split_1
I0201 12:09:23.087769 12021 net.cpp:408] inception_5a/output_inception_5a/output_0_split -> inception_5a/output_inception_5a/output_0_split_2
I0201 12:09:23.087780 12021 net.cpp:408] inception_5a/output_inception_5a/output_0_split -> inception_5a/output_inception_5a/output_0_split_3
I0201 12:09:23.087792 12021 net.cpp:150] Setting up inception_5a/output_inception_5a/output_0_split
I0201 12:09:23.087800 12021 net.cpp:157] Top shape: 32 832 7 7 (1304576)
I0201 12:09:23.087808 12021 net.cpp:157] Top shape: 32 832 7 7 (1304576)
I0201 12:09:23.087816 12021 net.cpp:157] Top shape: 32 832 7 7 (1304576)
I0201 12:09:23.087823 12021 net.cpp:157] Top shape: 32 832 7 7 (1304576)
I0201 12:09:23.087831 12021 net.cpp:165] Memory required for data: 1767205384
I0201 12:09:23.087836 12021 layer_factory.hpp:77] Creating layer inception_5b/1x1
I0201 12:09:23.087855 12021 net.cpp:100] Creating Layer inception_5b/1x1
I0201 12:09:23.087864 12021 net.cpp:434] inception_5b/1x1 <- inception_5a/output_inception_5a/output_0_split_0
I0201 12:09:23.087873 12021 net.cpp:408] inception_5b/1x1 -> inception_5b/1x1
I0201 12:09:23.090653 12021 net.cpp:150] Setting up inception_5b/1x1
I0201 12:09:23.090673 12021 net.cpp:157] Top shape: 32 384 7 7 (602112)
I0201 12:09:23.090687 12021 net.cpp:165] Memory required for data: 1769613832
I0201 12:09:23.090698 12021 layer_factory.hpp:77] Creating layer inception_5b/relu_1x1
I0201 12:09:23.090708 12021 net.cpp:100] Creating Layer inception_5b/relu_1x1
I0201 12:09:23.090716 12021 net.cpp:434] inception_5b/relu_1x1 <- inception_5b/1x1
I0201 12:09:23.090724 12021 net.cpp:395] inception_5b/relu_1x1 -> inception_5b/1x1 (in-place)
I0201 12:09:23.090735 12021 net.cpp:150] Setting up inception_5b/relu_1x1
I0201 12:09:23.090744 12021 net.cpp:157] Top shape: 32 384 7 7 (602112)
I0201 12:09:23.090750 12021 net.cpp:165] Memory required for data: 1772022280
I0201 12:09:23.090756 12021 layer_factory.hpp:77] Creating layer inception_5b/3x3_reduce
I0201 12:09:23.090770 12021 net.cpp:100] Creating Layer inception_5b/3x3_reduce
I0201 12:09:23.090778 12021 net.cpp:434] inception_5b/3x3_reduce <- inception_5a/output_inception_5a/output_0_split_1
I0201 12:09:23.090788 12021 net.cpp:408] inception_5b/3x3_reduce -> inception_5b/3x3_reduce
I0201 12:09:23.092255 12021 net.cpp:150] Setting up inception_5b/3x3_reduce
I0201 12:09:23.092270 12021 net.cpp:157] Top shape: 32 192 7 7 (301056)
I0201 12:09:23.092277 12021 net.cpp:165] Memory required for data: 1773226504
I0201 12:09:23.092286 12021 layer_factory.hpp:77] Creating layer inception_5b/relu_3x3_reduce
I0201 12:09:23.092296 12021 net.cpp:100] Creating Layer inception_5b/relu_3x3_reduce
I0201 12:09:23.092304 12021 net.cpp:434] inception_5b/relu_3x3_reduce <- inception_5b/3x3_reduce
I0201 12:09:23.092316 12021 net.cpp:395] inception_5b/relu_3x3_reduce -> inception_5b/3x3_reduce (in-place)
I0201 12:09:23.092327 12021 net.cpp:150] Setting up inception_5b/relu_3x3_reduce
I0201 12:09:23.092335 12021 net.cpp:157] Top shape: 32 192 7 7 (301056)
I0201 12:09:23.092342 12021 net.cpp:165] Memory required for data: 1774430728
I0201 12:09:23.092350 12021 layer_factory.hpp:77] Creating layer inception_5b/3x3
I0201 12:09:23.092360 12021 net.cpp:100] Creating Layer inception_5b/3x3
I0201 12:09:23.092368 12021 net.cpp:434] inception_5b/3x3 <- inception_5b/3x3_reduce
I0201 12:09:23.092377 12021 net.cpp:408] inception_5b/3x3 -> inception_5b/3x3
I0201 12:09:23.099074 12021 net.cpp:150] Setting up inception_5b/3x3
I0201 12:09:23.099098 12021 net.cpp:157] Top shape: 32 384 7 7 (602112)
I0201 12:09:23.099105 12021 net.cpp:165] Memory required for data: 1776839176
I0201 12:09:23.099115 12021 layer_factory.hpp:77] Creating layer inception_5b/relu_3x3
I0201 12:09:23.099128 12021 net.cpp:100] Creating Layer inception_5b/relu_3x3
I0201 12:09:23.099135 12021 net.cpp:434] inception_5b/relu_3x3 <- inception_5b/3x3
I0201 12:09:23.099144 12021 net.cpp:395] inception_5b/relu_3x3 -> inception_5b/3x3 (in-place)
I0201 12:09:23.099155 12021 net.cpp:150] Setting up inception_5b/relu_3x3
I0201 12:09:23.099164 12021 net.cpp:157] Top shape: 32 384 7 7 (602112)
I0201 12:09:23.099170 12021 net.cpp:165] Memory required for data: 1779247624
I0201 12:09:23.099177 12021 layer_factory.hpp:77] Creating layer inception_5b/5x5_reduce
I0201 12:09:23.099189 12021 net.cpp:100] Creating Layer inception_5b/5x5_reduce
I0201 12:09:23.099195 12021 net.cpp:434] inception_5b/5x5_reduce <- inception_5a/output_inception_5a/output_0_split_2
I0201 12:09:23.099208 12021 net.cpp:408] inception_5b/5x5_reduce -> inception_5b/5x5_reduce
I0201 12:09:23.099571 12021 net.cpp:150] Setting up inception_5b/5x5_reduce
I0201 12:09:23.099586 12021 net.cpp:157] Top shape: 32 48 7 7 (75264)
I0201 12:09:23.099592 12021 net.cpp:165] Memory required for data: 1779548680
I0201 12:09:23.099601 12021 layer_factory.hpp:77] Creating layer inception_5b/relu_5x5_reduce
I0201 12:09:23.099613 12021 net.cpp:100] Creating Layer inception_5b/relu_5x5_reduce
I0201 12:09:23.099622 12021 net.cpp:434] inception_5b/relu_5x5_reduce <- inception_5b/5x5_reduce
I0201 12:09:23.099633 12021 net.cpp:395] inception_5b/relu_5x5_reduce -> inception_5b/5x5_reduce (in-place)
I0201 12:09:23.099643 12021 net.cpp:150] Setting up inception_5b/relu_5x5_reduce
I0201 12:09:23.099658 12021 net.cpp:157] Top shape: 32 48 7 7 (75264)
I0201 12:09:23.099673 12021 net.cpp:165] Memory required for data: 1779849736
I0201 12:09:23.099679 12021 layer_factory.hpp:77] Creating layer inception_5b/5x5
I0201 12:09:23.099691 12021 net.cpp:100] Creating Layer inception_5b/5x5
I0201 12:09:23.099699 12021 net.cpp:434] inception_5b/5x5 <- inception_5b/5x5_reduce
I0201 12:09:23.099710 12021 net.cpp:408] inception_5b/5x5 -> inception_5b/5x5
I0201 12:09:23.101058 12021 net.cpp:150] Setting up inception_5b/5x5
I0201 12:09:23.101071 12021 net.cpp:157] Top shape: 32 128 7 7 (200704)
I0201 12:09:23.101078 12021 net.cpp:165] Memory required for data: 1780652552
I0201 12:09:23.101089 12021 layer_factory.hpp:77] Creating layer inception_5b/relu_5x5
I0201 12:09:23.101097 12021 net.cpp:100] Creating Layer inception_5b/relu_5x5
I0201 12:09:23.101105 12021 net.cpp:434] inception_5b/relu_5x5 <- inception_5b/5x5
I0201 12:09:23.101116 12021 net.cpp:395] inception_5b/relu_5x5 -> inception_5b/5x5 (in-place)
I0201 12:09:23.101126 12021 net.cpp:150] Setting up inception_5b/relu_5x5
I0201 12:09:23.101135 12021 net.cpp:157] Top shape: 32 128 7 7 (200704)
I0201 12:09:23.101141 12021 net.cpp:165] Memory required for data: 1781455368
I0201 12:09:23.101148 12021 layer_factory.hpp:77] Creating layer inception_5b/pool
I0201 12:09:23.101157 12021 net.cpp:100] Creating Layer inception_5b/pool
I0201 12:09:23.101164 12021 net.cpp:434] inception_5b/pool <- inception_5a/output_inception_5a/output_0_split_3
I0201 12:09:23.101176 12021 net.cpp:408] inception_5b/pool -> inception_5b/pool
I0201 12:09:23.101189 12021 net.cpp:150] Setting up inception_5b/pool
I0201 12:09:23.101197 12021 net.cpp:157] Top shape: 32 832 7 7 (1304576)
I0201 12:09:23.101204 12021 net.cpp:165] Memory required for data: 1786673672
I0201 12:09:23.101212 12021 layer_factory.hpp:77] Creating layer inception_5b/pool_proj
I0201 12:09:23.101228 12021 net.cpp:100] Creating Layer inception_5b/pool_proj
I0201 12:09:23.101236 12021 net.cpp:434] inception_5b/pool_proj <- inception_5b/pool
I0201 12:09:23.101245 12021 net.cpp:408] inception_5b/pool_proj -> inception_5b/pool_proj
I0201 12:09:23.102192 12021 net.cpp:150] Setting up inception_5b/pool_proj
I0201 12:09:23.102206 12021 net.cpp:157] Top shape: 32 128 7 7 (200704)
I0201 12:09:23.102213 12021 net.cpp:165] Memory required for data: 1787476488
I0201 12:09:23.102223 12021 layer_factory.hpp:77] Creating layer inception_5b/relu_pool_proj
I0201 12:09:23.102234 12021 net.cpp:100] Creating Layer inception_5b/relu_pool_proj
I0201 12:09:23.102242 12021 net.cpp:434] inception_5b/relu_pool_proj <- inception_5b/pool_proj
I0201 12:09:23.102258 12021 net.cpp:395] inception_5b/relu_pool_proj -> inception_5b/pool_proj (in-place)
I0201 12:09:23.102270 12021 net.cpp:150] Setting up inception_5b/relu_pool_proj
I0201 12:09:23.102278 12021 net.cpp:157] Top shape: 32 128 7 7 (200704)
I0201 12:09:23.102285 12021 net.cpp:165] Memory required for data: 1788279304
I0201 12:09:23.102291 12021 layer_factory.hpp:77] Creating layer inception_5b/output
I0201 12:09:23.102303 12021 net.cpp:100] Creating Layer inception_5b/output
I0201 12:09:23.102310 12021 net.cpp:434] inception_5b/output <- inception_5b/1x1
I0201 12:09:23.102319 12021 net.cpp:434] inception_5b/output <- inception_5b/3x3
I0201 12:09:23.102326 12021 net.cpp:434] inception_5b/output <- inception_5b/5x5
I0201 12:09:23.102334 12021 net.cpp:434] inception_5b/output <- inception_5b/pool_proj
I0201 12:09:23.102342 12021 net.cpp:408] inception_5b/output -> inception_5b/output
I0201 12:09:23.102355 12021 net.cpp:150] Setting up inception_5b/output
I0201 12:09:23.102363 12021 net.cpp:157] Top shape: 32 1024 7 7 (1605632)
I0201 12:09:23.102370 12021 net.cpp:165] Memory required for data: 1794701832
I0201 12:09:23.102376 12021 layer_factory.hpp:77] Creating layer pool5/7x7_s1
I0201 12:09:23.102385 12021 net.cpp:100] Creating Layer pool5/7x7_s1
I0201 12:09:23.102392 12021 net.cpp:434] pool5/7x7_s1 <- inception_5b/output
I0201 12:09:23.102403 12021 net.cpp:408] pool5/7x7_s1 -> pool5/7x7_s1
I0201 12:09:23.102421 12021 net.cpp:150] Setting up pool5/7x7_s1
I0201 12:09:23.102440 12021 net.cpp:157] Top shape: 32 1024 1 1 (32768)
I0201 12:09:23.102447 12021 net.cpp:165] Memory required for data: 1794832904
I0201 12:09:23.102454 12021 layer_factory.hpp:77] Creating layer pool5/drop_7x7_s1
I0201 12:09:23.102464 12021 net.cpp:100] Creating Layer pool5/drop_7x7_s1
I0201 12:09:23.102473 12021 net.cpp:434] pool5/drop_7x7_s1 <- pool5/7x7_s1
I0201 12:09:23.102480 12021 net.cpp:395] pool5/drop_7x7_s1 -> pool5/7x7_s1 (in-place)
I0201 12:09:23.102501 12021 net.cpp:150] Setting up pool5/drop_7x7_s1
I0201 12:09:23.102509 12021 net.cpp:157] Top shape: 32 1024 1 1 (32768)
I0201 12:09:23.102516 12021 net.cpp:165] Memory required for data: 1794963976
I0201 12:09:23.102524 12021 layer_factory.hpp:77] Creating layer loss3/classifier
I0201 12:09:23.102535 12021 net.cpp:100] Creating Layer loss3/classifier
I0201 12:09:23.102541 12021 net.cpp:434] loss3/classifier <- pool5/7x7_s1
I0201 12:09:23.102553 12021 net.cpp:408] loss3/classifier -> loss3/classifier
I0201 12:09:23.111974 12021 net.cpp:150] Setting up loss3/classifier
I0201 12:09:23.111990 12021 net.cpp:157] Top shape: 32 1000 (32000)
I0201 12:09:23.111997 12021 net.cpp:165] Memory required for data: 1795091976
I0201 12:09:23.112007 12021 layer_factory.hpp:77] Creating layer loss3/loss3
I0201 12:09:23.112018 12021 net.cpp:100] Creating Layer loss3/loss3
I0201 12:09:23.112026 12021 net.cpp:434] loss3/loss3 <- loss3/classifier
I0201 12:09:23.112035 12021 net.cpp:434] loss3/loss3 <- label_data_1_split_2
I0201 12:09:23.112043 12021 net.cpp:408] loss3/loss3 -> loss3/loss3
…
I0201 12:09:23.119496 12021 net.cpp:322] The NetState phase (1) differed from the phase (0) specified by a rule in layer data
I0201 12:09:23.122500 12021 net.cpp:58] Initializing net from parameters: 
name: "GoogleNet"
state {
  phase: TEST
}
layer {
  name: "data"
  type: "Data"
  top: "data"
  top: "label"
  include {
    phase: TEST
  }
  transform_param {
    mirror: false
    crop_size: 224
    mean_value: 104
    mean_value: 117
    mean_value: 123
  }
  data_param {
    source: "/home/user/caffeOMP/original/caffe/examples/imagenet/ilsvrc12_val_lmdb"
    batch_size: 50
    backend: LMDB
  }
}
layer {
  name: "conv1/7x7_s2"
  type: "Convolution"
  bottom: "data"
  top: "conv1/7x7_s2"
  param {
    lr_mult: 1
    decay_mult: 1
  }
  param {
    lr_mult: 2
    decay_mult: 0
  }
  convolution_param {
    num_output: 64
    pad: 3
    kernel_size: 7
    stride: 2
    weight_filler {
      type: "xavier"
    }
    bias_filler {
      type: "constant"
      value: 0.2
    }
  }
}
layer {
  name: "conv1/relu_7x7"
  type: "ReLU"
  bottom: "conv1/7x7_s2"
  top: "conv1/7x7_s2"
}
layer {
  name: "pool1/3x3_s2"
  type: "Pooling"
  bottom: "conv1/7x7_s2"
  top: "pool1/3x3_s2"
  pooling_param {
    pool: MAX
    kernel_size: 3
    stride: 2
  }
}
layer {
  name: "pool1/norm1"
  type: "LRN"
  bottom: "pool1/3x3_s2"
  top: "pool1/norm1"
  lrn_param {
    local_size: 5
    alpha: 0.0001
    beta: 0.75
  }
}
layer {
  name: "conv2/3x3_reduce"
  type: "Convolution"
  bottom: "pool1/norm1"
  top: "conv2/3x3_reduce"
  param {
    lr_mult: 1
    decay_mult: 1
  }
  param {
    lr_mult: 2
    decay_mult: 0
  }
  convolution_param {
    num_output: 64
    kernel_size: 1
    weight_filler {
      type: "xavier"
    }
    bias_filler {
      type: "constant"
      value: 0.2
    }
  }
}
layer {
  name: "conv2/relu_3x3_reduce"
  type: "ReLU"
  bottom: "conv2/3x3_reduce"
  top: "conv2/3x3_reduce"
}
layer {
  name: "conv2/3x3"
  type: "Convolution"
  bottom: "conv2/3x3_reduce"
  top: "conv2/3x3"
  param {
    lr_mult: 1
    decay_mult: 1
  }
  param {
    lr_mult: 2
    decay_mult: 0
  }
  convolution_param {
    num_output: 192
    pad: 1
    kernel_size: 3
    weight_filler {
      type: "xavier"
    }
    bias_filler {
      type: "constant"
      value: 0.2
    }
  }
}
layer {
  name: "conv2/relu_3x3"
  type: "ReLU"
  bottom: "conv2/3x3"
  top: "conv2/3x3"
}
layer {
  name: "conv2/norm2"
  type: "LRN"
  bottom: "conv2/3x3"
  top: "conv2/norm2"
  lrn_param {
    local_size: 5
    alpha: 0.0001
    beta: 0.75
  }
}
layer {
  name: "pool2/3x3_s2"
  type: "Pooling"
  bottom: "conv2/norm2"
  top: "pool2/3x3_s2"
  pooling_param {
    pool: MAX
    kernel_size: 3
    stride: 2
  }
}
layer {
  name: "inception_3a/1x1"
  type: "Convolution"
  bottom: "pool2/3x3_s2"
  top: "inception_3a/1x1"
  param {
    lr_mult: 1
    decay_mult: 1
  }
  param {
    lr_mult: 2
    decay_mult: 0
  }
  convolution_param {
    num_output: 64
    kernel_size: 1
    weight_filler {
      type: "xavier"
    }
    bias_filler {
      type: "constant"
      value: 0.2
    }
  }
}
layer {
  name: "inception_3a/relu_1x1"
  type: "ReLU"
  bottom: "inception_3a/1x1"
  top: "inception_3a/1x1"
}
layer {
  name: "inception_3a/3x3_reduce"
  type: "Convolution"
  bottom: "pool2/3x3_s2"
  top: "inception_3a/3x3_reduce"
  param {
    lr_mult: 1
    decay_mult: 1
  }
  param {
    lr_mult: 2
    decay_mult: 0
  }
  convolution_param {
    num_output: 96
    kernel_size: 1
    weight_filler {
      type: "xavier"
    }
    bias_filler {
      type: "constant"
      value: 0.2
    }
  }
}
layer {
  name: "inception_3a/relu_3x3_reduce"
  type: "ReLU"
  bottom: "inception_3a/3x3_reduce"
  top: "inception_3a/3x3_reduce"
}
layer {
  name: "inception_3a/3x3"
  type: "Convolution"
  bottom: "inception_3a/3x3_reduce"
  top: "inception_3a/3x3"
  param {
    lr_mult: 1
    decay_mult: 1
  }
  param {
    lr_mult: 2
    decay_mult: 0
  }
  convolution_param {
    num_output: 128
    pad: 1
    kernel_size: 3
    weight_filler {
      type: "xavier"
    }
    bias_filler {
      type: "constant"
      value: 0.2
    }
  }
}
layer {
  name: "inception_3a/relu_3x3"
  type: "ReLU"
  bottom: "inception_3a/3x3"
  top: "inception_3a/3x3"
}
layer {
  name: "inception_3a/5x5_reduce"
  type: "Convolution"
  bottom: "pool2/3x3_s2"
  top: "inception_3a/5x5_reduce"
  param {
    lr_mult: 1
    decay_mult: 1
  }
  param {
    lr_mult: 2
    decay_mult: 0
  }
  convolution_param {
    num_output: 16
    kernel_size: 1
    weight_filler {
      type: "xavier"
    }
    bias_filler {
      type: "constant"
      value: 0.2
    }
  }
}
layer {
  name: "inception_3a/relu_5x5_reduce"
  type: "ReLU"
  bottom: "inception_3a/5x5_reduce"
  top: "inception_3a/5x5_reduce"
}
layer {
  name: "inception_3a/5x5"
  type: "Convolution"
  bottom: "inception_3a/5x5_reduce"
  top: "inception_3a/5x5"
  param {
    lr_mult: 1
    decay_mult: 1
  }
  param {
    lr_mult: 2
    decay_mult: 0
  }
  convolution_param {
    num_output: 32
    pad: 2
    kernel_size: 5
    weight_filler {
      type: "xavier"
    }
    bias_filler {
      type: "constant"
      value: 0.2
    }
  }
}
layer {
  name: "inception_3a/relu_5x5"
  type: "ReLU"
  bottom: "inception_3a/5x5"
  top: "inception_3a/5x5"
}
layer {
  name: "inception_3a/pool"
  type: "Pooling"
  bottom: "pool2/3x3_s2"
  top: "inception_3a/pool"
  pooling_param {
    pool: MAX
    kernel_size: 3
    stride: 1
    pad: 1
  }
}
layer {
  name: "inception_3a/pool_proj"
  type: "Convolution"
  bottom: "inception_3a/pool"
  top: "inception_3a/pool_proj"
  param {
    lr_mult: 1
    decay_mult: 1
  }
  param {
    lr_mult: 2
    decay_mult: 0
  }
  convolution_param {
    num_output: 32
    kernel_size: 1
    weight_filler {
      type: "xavier"
    }
    bias_filler {
      type: "constant"
      value: 0.2
    }
  }
}
layer {
  name: "inception_3a/relu_pool_proj"
  type: "ReLU"
  bottom: "inception_3a/pool_proj"
  top: "inception_3a/pool_proj"
}
layer {
  name: "inception_3a/output"
  type: "Concat"
  bottom: "inception_3a/1x1"
  bottom: "inception_3a/3x3"
  bottom: "inception_3a/5x5"
  bottom: "inception_3a/pool_proj"
  top: "inception_3a/output"
}
layer {
  name: "inception_3b/1x1"
  type: "Convolution"
  bottom: "inception_3a/output"
  top: "inception_3b/1x1"
  param {
    lr_mult: 1
    decay_mult: 1
  }
  param {
    lr_mult: 2
    decay_mult: 0
  }
  convolution_param {
    num_output: 128
    kernel_size: 1
    weight_filler {
      type: "xavier"
    }
    bias_filler {
      type: "constant"
      value: 0.2
    }
  }
}
layer {
  name: "inception_3b/relu_1x1"
  type: "ReLU"
  bottom: "inception_3b/1x1"
  top: "inception_3b/1x1"
}
layer {
  name: "inception_3b/3x3_reduce"
  type: "Convolution"
  bottom: "inception_3a/output"
  top: "inception_3b/3x3_reduce"
  param {
    lr_mult: 1
    decay_mult: 1
  }
  param {
    lr_mult: 2
    decay_mult: 0
  }
  convolution_param {
    num_output: 128
    kernel_size: 1
    weight_filler {
      type: "xavier"
    }
    bias_filler {
      type: "constant"
      value: 0.2
    }
  }
}
layer {
  name: "inception_3b/relu_3x3_reduce"
  type: "ReLU"
  bottom: "inception_3b/3x3_reduce"
  top: "inception_3b/3x3_reduce"
}
layer {
  name: "inception_3b/3x3"
  type: "Convolution"
  bottom: "inception_3b/3x3_reduce"
  top: "inception_3b/3x3"
  param {
    lr_mult: 1
    decay_mult: 1
  }
  param {
    lr_mult: 2
    decay_mult: 0
  }
  convolution_param {
    num_output: 192
    pad: 1
    kernel_size: 3
    weight_filler {
      type: "xavier"
    }
    bias_filler {
      type: "constant"
      value: 0.2
    }
  }
}
layer {
  name: "inception_3b/relu_3x3"
  type: "ReLU"
  bottom: "inception_3b/3x3"
  top: "inception_3b/3x3"
}
layer {
  name: "inception_3b/5x5_reduce"
  type: "Convolution"
  bottom: "inception_3a/output"
  top: "inception_3b/5x5_reduce"
  param {
    lr_mult: 1
    decay_mult: 1
  }
  param {
    lr_mult: 2
    decay_mult: 0
  }
  convolution_param {
    num_output: 32
    kernel_size: 1
    weight_filler {
      type: "xavier"
    }
    bias_filler {
      type: "constant"
      value: 0.2
    }
  }
}
layer {
  name: "inception_3b/relu_5x5_reduce"
  type: "ReLU"
  bottom: "inception_3b/5x5_reduce"
  top: "inception_3b/5x5_reduce"
}
layer {
  name: "inception_3b/5x5"
  type: "Convolution"
  bottom: "inception_3b/5x5_reduce"
  top: "inception_3b/5x5"
  param {
    lr_mult: 1
    decay_mult: 1
  }
  param {
    lr_mult: 2
    decay_mult: 0
  }
  convolution_param {
    num_output: 96
    pad: 2
    kernel_size: 5
    weight_filler {
      type: "xavier"
    }
    bias_filler {
      type: "constant"
      value: 0.2
    }
  }
}
layer {
  name: "inception_3b/relu_5x5"
  type: "ReLU"
  bottom: "inception_3b/5x5"
  top: "inception_3b/5x5"
}
layer {
  name: "inception_3b/pool"
  type: "Pooling"
  bottom: "inception_3a/output"
  top: "inception_3b/pool"
  pooling_param {
    pool: MAX
    kernel_size: 3
    stride: 1
    pad: 1
  }
}
layer {
  name: "inception_3b/pool_proj"
  type: "Convolution"
  bottom: "inception_3b/pool"
  top: "inception_3b/pool_proj"
  param {
    lr_mult: 1
    decay_mult: 1
  }
  param {
    lr_mult: 2
    decay_mult: 0
  }
  convolution_param {
    num_output: 64
    kernel_size: 1
    weight_filler {
      type: "xavier"
    }
    bias_filler {
      type: "constant"
      value: 0.2
    }
  }
}
layer {
  name: "inception_3b/relu_pool_proj"
  type: "ReLU"
  bottom: "inception_3b/pool_proj"
  top: "inception_3b/pool_proj"
}
layer {
  name: "inception_3b/output"
  type: "Concat"
  bottom: "inception_3b/1x1"
  bottom: "inception_3b/3x3"
  bottom: "inception_3b/5x5"
  bottom: "inception_3b/pool_proj"
  top: "inception_3b/output"
}
layer {
  name: "pool3/3x3_s2"
  type: "Pooling"
  bottom: "inception_3b/output"
  top: "pool3/3x3_s2"
  pooling_param {
    pool: MAX
    kernel_size: 3
    stride: 2
  }
}
layer {
  name: "inception_4a/1x1"
  type: "Convolution"
  bottom: "pool3/3x3_s2"
  top: "inception_4a/1x1"
  param {
    lr_mult: 1
    decay_mult: 1
  }
  param {
    lr_mult: 2
    decay_mult: 0
  }
  convolution_param {
    num_output: 192
    kernel_size: 1
    weight_filler {
      type: "xavier"
    }
    bias_filler {
      type: "constant"
      value: 0.2
    }
  }
}
layer {
  name: "inception_4a/relu_1x1"
  type: "ReLU"
  bottom: "inception_4a/1x1"
  top: "inception_4a/1x1"
}
layer {
  name: "inception_4a/3x3_reduce"
  type: "Convolution"
  bottom: "pool3/3x3_s2"
  top: "inception_4a/3x3_reduce"
  param {
    lr_mult: 1
    decay_mult: 1
  }
  param {
    lr_mult: 2
    decay_mult: 0
  }
  convolution_param {
    num_output: 96
    kernel_size: 1
    weight_filler {
      type: "xavier"
    }
    bias_filler {
      type: "constant"
      value: 0.2
    }
  }
}
layer {
  name: "inception_4a/relu_3x3_reduce"
  type: "ReLU"
  bottom: "inception_4a/3x3_reduce"
  top: "inception_4a/3x3_reduce"
}
layer {
  name: "inception_4a/3x3"
  type: "Convolution"
  bottom: "inception_4a/3x3_reduce"
  top: "inception_4a/3x3"
  param {
    lr_mult: 1
    decay_mult: 1
  }
  param {
    lr_mult: 2
    decay_mult: 0
  }
  convolution_param {
    num_output: 208
    pad: 1
    kernel_size: 3
    weight_filler {
      type: "xavier"
    }
    bias_filler {
      type: "constant"
      value: 0.2
    }
  }
}
layer {
  name: "inception_4a/relu_3x3"
  type: "ReLU"
  bottom: "inception_4a/3x3"
  top: "inception_4a/3x3"
}
layer {
  name: "inception_4a/5x5_reduce"
  type: "Convolution"
  bottom: "pool3/3x3_s2"
  top: "inception_4a/5x5_reduce"
  param {
    lr_mult: 1
    decay_mult: 1
  }
  param {
    lr_mult: 2
    decay_mult: 0
  }
  convolution_param {
    num_output: 16
    kernel_size: 1
    weight_filler {
      type: "xavier"
    }
    bias_filler {
      type: "constant"
      value: 0.2
    }
  }
}
layer {
  name: "inception_4a/relu_5x5_reduce"
  type: "ReLU"
  bottom: "inception_4a/5x5_reduce"
  top: "inception_4a/5x5_reduce"
}
layer {
  name: "inception_4a/5x5"
  type: "Convolution"
  bottom: "inception_4a/5x5_reduce"
  top: "inception_4a/5x5"
  param {
    lr_mult: 1
    decay_mult: 1
  }
  param {
    lr_mult: 2
    decay_mult: 0
  }
  convolution_param {
    num_output: 48
    pad: 2
    kernel_size: 5
    weight_filler {
      type: "xavier"
    }
    bias_filler {
      type: "constant"
      value: 0.2
    }
  }
}
layer {
  name: "inception_4a/relu_5x5"
  type: "ReLU"
  bottom: "inception_4a/5x5"
  top: "inception_4a/5x5"
}
layer {
  name: "inception_4a/pool"
  type: "Pooling"
  bottom: "pool3/3x3_s2"
  top: "inception_4a/pool"
  pooling_param {
    pool: MAX
    kernel_size: 3
    stride: 1
    pad: 1
  }
}
layer {
  name: "inception_4a/pool_proj"
  type: "Convolution"
  bottom: "inception_4a/pool"
  top: "inception_4a/pool_proj"
  param {
    lr_mult: 1
    decay_mult: 1
  }
  param {
    lr_mult: 2
    decay_mult: 0
  }
  convolution_param {
    num_output: 64
    kernel_size: 1
    weight_filler {
      type: "xavier"
    }
    bias_filler {
      type: "constant"
      value: 0.2
    }
  }
}
layer {
  name: "inception_4a/relu_pool_proj"
  type: "ReLU"
  bottom: "inception_4a/pool_proj"
  top: "inception_4a/pool_proj"
}
layer {
  name: "inception_4a/output"
  type: "Concat"
  bottom: "inception_4a/1x1"
  bottom: "inception_4a/3x3"
  bottom: "inception_4a/5x5"
  bottom: "inception_4a/pool_proj"
  top: "inception_4a/output"
}
layer {
  name: "loss1/ave_pool"
  type: "Pooling"
  bottom: "inception_4a/output"
  top: "loss1/ave_pool"
  pooling_param {
    pool: AVE
    kernel_size: 5
    stride: 3
  }
}
layer {
  name: "loss1/conv"
  type: "Convolution"
  bottom: "loss1/ave_pool"
  top: "loss1/conv"
  param {
    lr_mult: 1
    decay_mult: 1
  }
  param {
    lr_mult: 2
    decay_mult: 0
  }
  convolution_param {
    num_output: 128
    kernel_size: 1
    weight_filler {
      type: "xavier"
    }
    bias_filler {
      type: "constant"
      value: 0.2
    }
  }
}
layer {
  name: "loss1/relu_conv"
  type: "ReLU"
  bottom: "loss1/conv"
  top: "loss1/conv"
}
layer {
  name: "loss1/fc"
  type: "InnerProduct"
  bottom: "loss1/conv"
  top: "loss1/fc"
  param {
    lr_mult: 1
    decay_mult: 1
  }
  param {
    lr_mult: 2
    decay_mult: 0
  }
  inner_product_param {
    num_output: 1024
    weight_filler {
      type: "xavier"
    }
    bias_filler {
      type: "constant"
      value: 0.2
    }
  }
}
layer {
  name: "loss1/relu_fc"
  type: "ReLU"
  bottom: "loss1/fc"
  top: "loss1/fc"
}
layer {
  name: "loss1/drop_fc"
  type: "Dropout"
  bottom: "loss1/fc"
  top: "loss1/fc"
  dropout_param {
    dropout_ratio: 0.7
  }
}
layer {
…
I0201 12:09:23.227057 12021 net.cpp:165] Memory required for data: 2190293212
I0201 12:09:23.227064 12021 layer_factory.hpp:77] Creating layer inception_4c/pool
I0201 12:09:23.227073 12021 net.cpp:100] Creating Layer inception_4c/pool
I0201 12:09:23.227080 12021 net.cpp:434] inception_4c/pool <- inception_4b/output_inception_4b/output_0_split_3
I0201 12:09:23.227092 12021 net.cpp:408] inception_4c/pool -> inception_4c/pool
I0201 12:09:23.227105 12021 net.cpp:150] Setting up inception_4c/pool
I0201 12:09:23.227114 12021 net.cpp:157] Top shape: 50 512 14 14 (5017600)
I0201 12:09:23.227121 12021 net.cpp:165] Memory required for data: 2210363612
I0201 12:09:23.227128 12021 layer_factory.hpp:77] Creating layer inception_4c/pool_proj
I0201 12:09:23.227143 12021 net.cpp:100] Creating Layer inception_4c/pool_proj
I0201 12:09:23.227150 12021 net.cpp:434] inception_4c/pool_proj <- inception_4c/pool
I0201 12:09:23.227160 12021 net.cpp:408] inception_4c/pool_proj -> inception_4c/pool_proj
I0201 12:09:23.227509 12021 net.cpp:150] Setting up inception_4c/pool_proj
I0201 12:09:23.227524 12021 net.cpp:157] Top shape: 50 64 14 14 (627200)
I0201 12:09:23.227530 12021 net.cpp:165] Memory required for data: 2212872412
I0201 12:09:23.227540 12021 layer_factory.hpp:77] Creating layer inception_4c/relu_pool_proj
I0201 12:09:23.227558 12021 net.cpp:100] Creating Layer inception_4c/relu_pool_proj
I0201 12:09:23.227566 12021 net.cpp:434] inception_4c/relu_pool_proj <- inception_4c/pool_proj
I0201 12:09:23.227576 12021 net.cpp:395] inception_4c/relu_pool_proj -> inception_4c/pool_proj (in-place)
I0201 12:09:23.227589 12021 net.cpp:150] Setting up inception_4c/relu_pool_proj
I0201 12:09:23.227598 12021 net.cpp:157] Top shape: 50 64 14 14 (627200)
I0201 12:09:23.227604 12021 net.cpp:165] Memory required for data: 2215381212
I0201 12:09:23.227612 12021 layer_factory.hpp:77] Creating layer inception_4c/output
I0201 12:09:23.227620 12021 net.cpp:100] Creating Layer inception_4c/output
I0201 12:09:23.227627 12021 net.cpp:434] inception_4c/output <- inception_4c/1x1
I0201 12:09:23.227635 12021 net.cpp:434] inception_4c/output <- inception_4c/3x3
I0201 12:09:23.227643 12021 net.cpp:434] inception_4c/output <- inception_4c/5x5
I0201 12:09:23.227651 12021 net.cpp:434] inception_4c/output <- inception_4c/pool_proj
I0201 12:09:23.227660 12021 net.cpp:408] inception_4c/output -> inception_4c/output
I0201 12:09:23.227680 12021 net.cpp:150] Setting up inception_4c/output
I0201 12:09:23.227699 12021 net.cpp:157] Top shape: 50 512 14 14 (5017600)
I0201 12:09:23.227705 12021 net.cpp:165] Memory required for data: 2235451612
I0201 12:09:23.227712 12021 layer_factory.hpp:77] Creating layer inception_4c/output_inception_4c/output_0_split
I0201 12:09:23.227722 12021 net.cpp:100] Creating Layer inception_4c/output_inception_4c/output_0_split
I0201 12:09:23.227730 12021 net.cpp:434] inception_4c/output_inception_4c/output_0_split <- inception_4c/output
I0201 12:09:23.227742 12021 net.cpp:408] inception_4c/output_inception_4c/output_0_split -> inception_4c/output_inception_4c/output_0_split_0
I0201 12:09:23.227753 12021 net.cpp:408] inception_4c/output_inception_4c/output_0_split -> inception_4c/output_inception_4c/output_0_split_1
I0201 12:09:23.227764 12021 net.cpp:408] inception_4c/output_inception_4c/output_0_split -> inception_4c/output_inception_4c/output_0_split_2
I0201 12:09:23.227778 12021 net.cpp:408] inception_4c/output_inception_4c/output_0_split -> inception_4c/output_inception_4c/output_0_split_3
I0201 12:09:23.227790 12021 net.cpp:150] Setting up inception_4c/output_inception_4c/output_0_split
I0201 12:09:23.227798 12021 net.cpp:157] Top shape: 50 512 14 14 (5017600)
I0201 12:09:23.227807 12021 net.cpp:157] Top shape: 50 512 14 14 (5017600)
I0201 12:09:23.227814 12021 net.cpp:157] Top shape: 50 512 14 14 (5017600)
I0201 12:09:23.227821 12021 net.cpp:157] Top shape: 50 512 14 14 (5017600)
I0201 12:09:23.227828 12021 net.cpp:165] Memory required for data: 2315733212
I0201 12:09:23.227835 12021 layer_factory.hpp:77] Creating layer inception_4d/1x1
I0201 12:09:23.227849 12021 net.cpp:100] Creating Layer inception_4d/1x1
I0201 12:09:23.227857 12021 net.cpp:434] inception_4d/1x1 <- inception_4c/output_inception_4c/output_0_split_0
I0201 12:09:23.227871 12021 net.cpp:408] inception_4d/1x1 -> inception_4d/1x1
I0201 12:09:23.228417 12021 net.cpp:150] Setting up inception_4d/1x1
I0201 12:09:23.228432 12021 net.cpp:157] Top shape: 50 112 14 14 (1097600)
I0201 12:09:23.228440 12021 net.cpp:165] Memory required for data: 2320123612
I0201 12:09:23.228448 12021 layer_factory.hpp:77] Creating layer inception_4d/relu_1x1
I0201 12:09:23.228458 12021 net.cpp:100] Creating Layer inception_4d/relu_1x1
I0201 12:09:23.228466 12021 net.cpp:434] inception_4d/relu_1x1 <- inception_4d/1x1
I0201 12:09:23.228474 12021 net.cpp:395] inception_4d/relu_1x1 -> inception_4d/1x1 (in-place)
I0201 12:09:23.228484 12021 net.cpp:150] Setting up inception_4d/relu_1x1
I0201 12:09:23.228492 12021 net.cpp:157] Top shape: 50 112 14 14 (1097600)
I0201 12:09:23.228499 12021 net.cpp:165] Memory required for data: 2324514012
I0201 12:09:23.228505 12021 layer_factory.hpp:77] Creating layer inception_4d/3x3_reduce
I0201 12:09:23.228520 12021 net.cpp:100] Creating Layer inception_4d/3x3_reduce
I0201 12:09:23.228529 12021 net.cpp:434] inception_4d/3x3_reduce <- inception_4c/output_inception_4c/output_0_split_1
I0201 12:09:23.228538 12021 net.cpp:408] inception_4d/3x3_reduce -> inception_4d/3x3_reduce
I0201 12:09:23.229279 12021 net.cpp:150] Setting up inception_4d/3x3_reduce
I0201 12:09:23.229293 12021 net.cpp:157] Top shape: 50 144 14 14 (1411200)
I0201 12:09:23.229300 12021 net.cpp:165] Memory required for data: 2330158812
I0201 12:09:23.229310 12021 layer_factory.hpp:77] Creating layer inception_4d/relu_3x3_reduce
I0201 12:09:23.229322 12021 net.cpp:100] Creating Layer inception_4d/relu_3x3_reduce
I0201 12:09:23.229331 12021 net.cpp:434] inception_4d/relu_3x3_reduce <- inception_4d/3x3_reduce
I0201 12:09:23.229341 12021 net.cpp:395] inception_4d/relu_3x3_reduce -> inception_4d/3x3_reduce (in-place)
I0201 12:09:23.229351 12021 net.cpp:150] Setting up inception_4d/relu_3x3_reduce
I0201 12:09:23.229358 12021 net.cpp:157] Top shape: 50 144 14 14 (1411200)
I0201 12:09:23.229365 12021 net.cpp:165] Memory required for data: 2335803612
I0201 12:09:23.229372 12021 layer_factory.hpp:77] Creating layer inception_4d/3x3
I0201 12:09:23.229382 12021 net.cpp:100] Creating Layer inception_4d/3x3
I0201 12:09:23.229405 12021 net.cpp:434] inception_4d/3x3 <- inception_4d/3x3_reduce
I0201 12:09:23.229419 12021 net.cpp:408] inception_4d/3x3 -> inception_4d/3x3
I0201 12:09:23.233209 12021 net.cpp:150] Setting up inception_4d/3x3
I0201 12:09:23.233225 12021 net.cpp:157] Top shape: 50 288 14 14 (2822400)
I0201 12:09:23.233232 12021 net.cpp:165] Memory required for data: 2347093212
I0201 12:09:23.233242 12021 layer_factory.hpp:77] Creating layer inception_4d/relu_3x3
I0201 12:09:23.233260 12021 net.cpp:100] Creating Layer inception_4d/relu_3x3
I0201 12:09:23.233269 12021 net.cpp:434] inception_4d/relu_3x3 <- inception_4d/3x3
I0201 12:09:23.233278 12021 net.cpp:395] inception_4d/relu_3x3 -> inception_4d/3x3 (in-place)
I0201 12:09:23.233289 12021 net.cpp:150] Setting up inception_4d/relu_3x3
I0201 12:09:23.233297 12021 net.cpp:157] Top shape: 50 288 14 14 (2822400)
I0201 12:09:23.233304 12021 net.cpp:165] Memory required for data: 2358382812
I0201 12:09:23.233310 12021 layer_factory.hpp:77] Creating layer inception_4d/5x5_reduce
I0201 12:09:23.233325 12021 net.cpp:100] Creating Layer inception_4d/5x5_reduce
I0201 12:09:23.233333 12021 net.cpp:434] inception_4d/5x5_reduce <- inception_4c/output_inception_4c/output_0_split_2
I0201 12:09:23.233343 12021 net.cpp:408] inception_4d/5x5_reduce -> inception_4d/5x5_reduce
I0201 12:09:23.233515 12021 net.cpp:150] Setting up inception_4d/5x5_reduce
I0201 12:09:23.233527 12021 net.cpp:157] Top shape: 50 32 14 14 (313600)
I0201 12:09:23.233533 12021 net.cpp:165] Memory required for data: 2359637212
I0201 12:09:23.233543 12021 layer_factory.hpp:77] Creating layer inception_4d/relu_5x5_reduce
I0201 12:09:23.233553 12021 net.cpp:100] Creating Layer inception_4d/relu_5x5_reduce
I0201 12:09:23.233561 12021 net.cpp:434] inception_4d/relu_5x5_reduce <- inception_4d/5x5_reduce
I0201 12:09:23.233569 12021 net.cpp:395] inception_4d/relu_5x5_reduce -> inception_4d/5x5_reduce (in-place)
I0201 12:09:23.233579 12021 net.cpp:150] Setting up inception_4d/relu_5x5_reduce
I0201 12:09:23.233588 12021 net.cpp:157] Top shape: 50 32 14 14 (313600)
I0201 12:09:23.233594 12021 net.cpp:165] Memory required for data: 2360891612
I0201 12:09:23.233602 12021 layer_factory.hpp:77] Creating layer inception_4d/5x5
I0201 12:09:23.233616 12021 net.cpp:100] Creating Layer inception_4d/5x5
I0201 12:09:23.233624 12021 net.cpp:434] inception_4d/5x5 <- inception_4d/5x5_reduce
I0201 12:09:23.233641 12021 net.cpp:408] inception_4d/5x5 -> inception_4d/5x5
I0201 12:09:23.234156 12021 net.cpp:150] Setting up inception_4d/5x5
I0201 12:09:23.234170 12021 net.cpp:157] Top shape: 50 64 14 14 (627200)
I0201 12:09:23.234177 12021 net.cpp:165] Memory required for data: 2363400412
I0201 12:09:23.234186 12021 layer_factory.hpp:77] Creating layer inception_4d/relu_5x5
I0201 12:09:23.234196 12021 net.cpp:100] Creating Layer inception_4d/relu_5x5
I0201 12:09:23.234203 12021 net.cpp:434] inception_4d/relu_5x5 <- inception_4d/5x5
I0201 12:09:23.234216 12021 net.cpp:395] inception_4d/relu_5x5 -> inception_4d/5x5 (in-place)
I0201 12:09:23.234226 12021 net.cpp:150] Setting up inception_4d/relu_5x5
I0201 12:09:23.234236 12021 net.cpp:157] Top shape: 50 64 14 14 (627200)
I0201 12:09:23.234241 12021 net.cpp:165] Memory required for data: 2365909212
I0201 12:09:23.234261 12021 layer_factory.hpp:77] Creating layer inception_4d/pool
I0201 12:09:23.234272 12021 net.cpp:100] Creating Layer inception_4d/pool
I0201 12:09:23.234279 12021 net.cpp:434] inception_4d/pool <- inception_4c/output_inception_4c/output_0_split_3
I0201 12:09:23.234292 12021 net.cpp:408] inception_4d/pool -> inception_4d/pool
I0201 12:09:23.234305 12021 net.cpp:150] Setting up inception_4d/pool
I0201 12:09:23.234314 12021 net.cpp:157] Top shape: 50 512 14 14 (5017600)
I0201 12:09:23.234320 12021 net.cpp:165] Memory required for data: 2385979612
I0201 12:09:23.234328 12021 layer_factory.hpp:77] Creating layer inception_4d/pool_proj
I0201 12:09:23.234343 12021 net.cpp:100] Creating Layer inception_4d/pool_proj
I0201 12:09:23.234350 12021 net.cpp:434] inception_4d/pool_proj <- inception_4d/pool
I0201 12:09:23.234380 12021 net.cpp:408] inception_4d/pool_proj -> inception_4d/pool_proj
I0201 12:09:23.234690 12021 net.cpp:150] Setting up inception_4d/pool_proj
I0201 12:09:23.234704 12021 net.cpp:157] Top shape: 50 64 14 14 (627200)
I0201 12:09:23.234710 12021 net.cpp:165] Memory required for data: 2388488412
I0201 12:09:23.234719 12021 layer_factory.hpp:77] Creating layer inception_4d/relu_pool_proj
I0201 12:09:23.234730 12021 net.cpp:100] Creating Layer inception_4d/relu_pool_proj
I0201 12:09:23.234737 12021 net.cpp:434] inception_4d/relu_pool_proj <- inception_4d/pool_proj
I0201 12:09:23.234745 12021 net.cpp:395] inception_4d/relu_pool_proj -> inception_4d/pool_proj (in-place)
I0201 12:09:23.234755 12021 net.cpp:150] Setting up inception_4d/relu_pool_proj
I0201 12:09:23.234764 12021 net.cpp:157] Top shape: 50 64 14 14 (627200)
I0201 12:09:23.234771 12021 net.cpp:165] Memory required for data: 2390997212
I0201 12:09:23.234777 12021 layer_factory.hpp:77] Creating layer inception_4d/output
I0201 12:09:23.234791 12021 net.cpp:100] Creating Layer inception_4d/output
I0201 12:09:23.234798 12021 net.cpp:434] inception_4d/output <- inception_4d/1x1
I0201 12:09:23.234807 12021 net.cpp:434] inception_4d/output <- inception_4d/3x3
I0201 12:09:23.234814 12021 net.cpp:434] inception_4d/output <- inception_4d/5x5
I0201 12:09:23.234822 12021 net.cpp:434] inception_4d/output <- inception_4d/pool_proj
I0201 12:09:23.234832 12021 net.cpp:408] inception_4d/output -> inception_4d/output
I0201 12:09:23.234843 12021 net.cpp:150] Setting up inception_4d/output
I0201 12:09:23.234851 12021 net.cpp:157] Top shape: 50 528 14 14 (5174400)
I0201 12:09:23.234858 12021 net.cpp:165] Memory required for data: 2411694812
I0201 12:09:23.234865 12021 layer_factory.hpp:77] Creating layer inception_4d/output_inception_4d/output_0_split
I0201 12:09:23.234879 12021 net.cpp:100] Creating Layer inception_4d/output_inception_4d/output_0_split
I0201 12:09:23.234885 12021 net.cpp:434] inception_4d/output_inception_4d/output_0_split <- inception_4d/output
I0201 12:09:23.234895 12021 net.cpp:408] inception_4d/output_inception_4d/output_0_split -> inception_4d/output_inception_4d/output_0_split_0
I0201 12:09:23.234906 12021 net.cpp:408] inception_4d/output_inception_4d/output_0_split -> inception_4d/output_inception_4d/output_0_split_1
I0201 12:09:23.234925 12021 net.cpp:408] inception_4d/output_inception_4d/output_0_split -> inception_4d/output_inception_4d/output_0_split_2
I0201 12:09:23.234936 12021 net.cpp:408] inception_4d/output_inception_4d/output_0_split -> inception_4d/output_inception_4d/output_0_split_3
I0201 12:09:23.234947 12021 net.cpp:408] inception_4d/output_inception_4d/output_0_split -> inception_4d/output_inception_4d/output_0_split_4
I0201 12:09:23.234962 12021 net.cpp:150] Setting up inception_4d/output_inception_4d/output_0_split
I0201 12:09:23.234972 12021 net.cpp:157] Top shape: 50 528 14 14 (5174400)
I0201 12:09:23.234979 12021 net.cpp:157] Top shape: 50 528 14 14 (5174400)
I0201 12:09:23.234987 12021 net.cpp:157] Top shape: 50 528 14 14 (5174400)
I0201 12:09:23.234994 12021 net.cpp:157] Top shape: 50 528 14 14 (5174400)
I0201 12:09:23.235002 12021 net.cpp:157] Top shape: 50 528 14 14 (5174400)
I0201 12:09:23.235008 12021 net.cpp:165] Memory required for data: 2515182812
I0201 12:09:23.235015 12021 layer_factory.hpp:77] Creating layer loss2/ave_pool
I0201 12:09:23.235024 12021 net.cpp:100] Creating Layer loss2/ave_pool
I0201 12:09:23.235035 12021 net.cpp:434] loss2/ave_pool <- inception_4d/output_inception_4d/output_0_split_0
I0201 12:09:23.235045 12021 net.cpp:408] loss2/ave_pool -> loss2/ave_pool
I0201 12:09:23.235056 12021 net.cpp:150] Setting up loss2/ave_pool
I0201 12:09:23.235065 12021 net.cpp:157] Top shape: 50 528 4 4 (422400)
I0201 12:09:23.235072 12021 net.cpp:165] Memory required for data: 2516872412
I0201 12:09:23.235080 12021 layer_factory.hpp:77] Creating layer loss2/conv
I0201 12:09:23.235096 12021 net.cpp:100] Creating Layer loss2/conv
I0201 12:09:23.235105 12021 net.cpp:434] loss2/conv <- loss2/ave_pool
I0201 12:09:23.235123 12021 net.cpp:408] loss2/conv -> loss2/conv
I0201 12:09:23.235788 12021 net.cpp:150] Setting up loss2/conv
I0201 12:09:23.235805 12021 net.cpp:157] Top shape: 50 128 4 4 (102400)
I0201 12:09:23.235812 12021 net.cpp:165] Memory required for data: 2517282012
I0201 12:09:23.235822 12021 layer_factory.hpp:77] Creating layer loss2/relu_conv
I0201 12:09:23.235832 12021 net.cpp:100] Creating Layer loss2/relu_conv
I0201 12:09:23.235841 12021 net.cpp:434] loss2/relu_conv <- loss2/conv
I0201 12:09:23.235849 12021 net.cpp:395] loss2/relu_conv -> loss2/conv (in-place)
I0201 12:09:23.235859 12021 net.cpp:150] Setting up loss2/relu_conv
I0201 12:09:23.235868 12021 net.cpp:157] Top shape: 50 128 4 4 (102400)
I0201 12:09:23.235874 12021 net.cpp:165] Memory required for data: 2517691612
I0201 12:09:23.235882 12021 layer_factory.hpp:77] Creating layer loss2/fc
I0201 12:09:23.235894 12021 net.cpp:100] Creating Layer loss2/fc
I0201 12:09:23.235903 12021 net.cpp:434] loss2/fc <- loss2/conv
I0201 12:09:23.235913 12021 net.cpp:408] loss2/fc -> loss2/fc
I0201 12:09:23.255110 12021 net.cpp:150] Setting up loss2/fc
I0201 12:09:23.255134 12021 net.cpp:157] Top shape: 50 1024 (51200)
I0201 12:09:23.255141 12021 net.cpp:165] Memory required for data: 2517896412
I0201 12:09:23.255152 12021 layer_factory.hpp:77] Creating layer loss2/relu_fc
I0201 12:09:23.255168 12021 net.cpp:100] Creating Layer loss2/relu_fc
I0201 12:09:23.255177 12021 net.cpp:434] loss2/relu_fc <- loss2/fc
I0201 12:09:23.255188 12021 net.cpp:395] loss2/relu_fc -> loss2/fc (in-place)
I0201 12:09:23.255198 12021 net.cpp:150] Setting up loss2/relu_fc
I0201 12:09:23.255208 12021 net.cpp:157] Top shape: 50 1024 (51200)
I0201 12:09:23.255213 12021 net.cpp:165] Memory required for data: 2518101212
I0201 12:09:23.255220 12021 layer_factory.hpp:77] Creating layer loss2/drop_fc
I0201 12:09:23.255231 12021 net.cpp:100] Creating Layer loss2/drop_fc
I0201 12:09:23.255239 12021 net.cpp:434] loss2/drop_fc <- loss2/fc
I0201 12:09:23.255247 12021 net.cpp:395] loss2/drop_fc -> loss2/fc (in-place)
I0201 12:09:23.255270 12021 net.cpp:150] Setting up loss2/drop_fc
I0201 12:09:23.255280 12021 net.cpp:157] Top shape: 50 1024 (51200)
I0201 12:09:23.255285 12021 net.cpp:165] Memory required for data: 2518306012
I0201 12:09:23.255292 12021 layer_factory.hpp:77] Creating layer loss2/classifier
I0201 12:09:23.255303 12021 net.cpp:100] Creating Layer loss2/classifier
I0201 12:09:23.255311 12021 net.cpp:434] loss2/classifier <- loss2/fc
I0201 12:09:23.255322 12021 net.cpp:408] loss2/classifier -> loss2/classifier
I0201 12:09:23.264935 12021 net.cpp:150] Setting up loss2/classifier
I0201 12:09:23.264952 12021 net.cpp:157] Top shape: 50 1000 (50000)
I0201 12:09:23.264960 12021 net.cpp:165] Memory required for data: 2518506012
I0201 12:09:23.264971 12021 layer_factory.hpp:77] Creating layer loss2/classifier_loss2/classifier_0_split
I0201 12:09:23.264981 12021 net.cpp:100] Creating Layer loss2/classifier_loss2/classifier_0_split
I0201 12:09:23.264988 12021 net.cpp:434] loss2/classifier_loss2/classifier_0_split <- loss2/classifier
I0201 12:09:23.264998 12021 net.cpp:408] loss2/classifier_loss2/classifier_0_split -> loss2/classifier_loss2/classifier_0_split_0
I0201 12:09:23.265010 12021 net.cpp:408] loss2/classifier_loss2/classifier_0_split -> loss2/classifier_loss2/classifier_0_split_1
I0201 12:09:23.265022 12021 net.cpp:408] loss2/classifier_loss2/classifier_0_split -> loss2/classifier_loss2/classifier_0_split_2
I0201 12:09:23.265033 12021 net.cpp:150] Setting up loss2/classifier_loss2/classifier_0_split
I0201 12:09:23.265041 12021 net.cpp:157] Top shape: 50 1000 (50000)
I0201 12:09:23.265048 12021 net.cpp:157] Top shape: 50 1000 (50000)
I0201 12:09:23.265056 12021 net.cpp:157] Top shape: 50 1000 (50000)
I0201 12:09:23.265063 12021 net.cpp:165] Memory required for data: 2519106012
I0201 12:09:23.265069 12021 layer_factory.hpp:77] Creating layer loss2/loss
I0201 12:09:23.265081 12021 net.cpp:100] Creating Layer loss2/loss
I0201 12:09:23.265089 12021 net.cpp:434] loss2/loss <- loss2/classifier_loss2/classifier_0_split_0
I0201 12:09:23.265120 12021 net.cpp:434] loss2/loss <- label_data_1_split_3
…
I0201 12:09:23.265519 12021 net.cpp:150] Setting up loss2/top-5
I0201 12:09:23.265527 12021 net.cpp:157] Top shape: (1)
I0201 12:09:23.265534 12021 net.cpp:165] Memory required for data: 2519106024
I0201 12:09:23.265540 12021 layer_factory.hpp:77] Creating layer inception_4e/1x1
I0201 12:09:23.265557 12021 net.cpp:100] Creating Layer inception_4e/1x1
I0201 12:09:23.265564 12021 net.cpp:434] inception_4e/1x1 <- inception_4d/output_inception_4d/output_0_split_1
I0201 12:09:23.265574 12021 net.cpp:408] inception_4e/1x1 -> inception_4e/1x1
I0201 12:09:23.266813 12021 net.cpp:150] Setting up inception_4e/1x1
I0201 12:09:23.266835 12021 net.cpp:157] Top shape: 50 256 14 14 (2508800)
I0201 12:09:23.266841 12021 net.cpp:165] Memory required for data: 2529141224
I0201 12:09:23.266851 12021 layer_factory.hpp:77] Creating layer inception_4e/relu_1x1
I0201 12:09:23.266861 12021 net.cpp:100] Creating Layer inception_4e/relu_1x1
I0201 12:09:23.266870 12021 net.cpp:434] inception_4e/relu_1x1 <- inception_4e/1x1
I0201 12:09:23.266881 12021 net.cpp:395] inception_4e/relu_1x1 -> inception_4e/1x1 (in-place)
I0201 12:09:23.266892 12021 net.cpp:150] Setting up inception_4e/relu_1x1
I0201 12:09:23.266901 12021 net.cpp:157] Top shape: 50 256 14 14 (2508800)
I0201 12:09:23.266907 12021 net.cpp:165] Memory required for data: 2539176424
I0201 12:09:23.266913 12021 layer_factory.hpp:77] Creating layer inception_4e/3x3_reduce
I0201 12:09:23.266949 12021 net.cpp:100] Creating Layer inception_4e/3x3_reduce
I0201 12:09:23.266958 12021 net.cpp:434] inception_4e/3x3_reduce <- inception_4d/output_inception_4d/output_0_split_2
I0201 12:09:23.266973 12021 net.cpp:408] inception_4e/3x3_reduce -> inception_4e/3x3_reduce
I0201 12:09:23.267788 12021 net.cpp:150] Setting up inception_4e/3x3_reduce
I0201 12:09:23.267803 12021 net.cpp:157] Top shape: 50 160 14 14 (1568000)
I0201 12:09:23.267810 12021 net.cpp:165] Memory required for data: 2545448424
I0201 12:09:23.267820 12021 layer_factory.hpp:77] Creating layer inception_4e/relu_3x3_reduce
I0201 12:09:23.267830 12021 net.cpp:100] Creating Layer inception_4e/relu_3x3_reduce
I0201 12:09:23.267838 12021 net.cpp:434] inception_4e/relu_3x3_reduce <- inception_4e/3x3_reduce
I0201 12:09:23.267848 12021 net.cpp:395] inception_4e/relu_3x3_reduce -> inception_4e/3x3_reduce (in-place)
I0201 12:09:23.267858 12021 net.cpp:150] Setting up inception_4e/relu_3x3_reduce
I0201 12:09:23.267865 12021 net.cpp:157] Top shape: 50 160 14 14 (1568000)
I0201 12:09:23.267873 12021 net.cpp:165] Memory required for data: 2551720424
I0201 12:09:23.267879 12021 layer_factory.hpp:77] Creating layer inception_4e/3x3
I0201 12:09:23.267904 12021 net.cpp:100] Creating Layer inception_4e/3x3
I0201 12:09:23.267913 12021 net.cpp:434] inception_4e/3x3 <- inception_4e/3x3_reduce
I0201 12:09:23.267925 12021 net.cpp:408] inception_4e/3x3 -> inception_4e/3x3
I0201 12:09:23.272485 12021 net.cpp:150] Setting up inception_4e/3x3
I0201 12:09:23.272500 12021 net.cpp:157] Top shape: 50 320 14 14 (3136000)
I0201 12:09:23.272506 12021 net.cpp:165] Memory required for data: 2564264424
I0201 12:09:23.272516 12021 layer_factory.hpp:77] Creating layer inception_4e/relu_3x3
I0201 12:09:23.272527 12021 net.cpp:100] Creating Layer inception_4e/relu_3x3
I0201 12:09:23.272536 12021 net.cpp:434] inception_4e/relu_3x3 <- inception_4e/3x3
I0201 12:09:23.272544 12021 net.cpp:395] inception_4e/relu_3x3 -> inception_4e/3x3 (in-place)
I0201 12:09:23.272554 12021 net.cpp:150] Setting up inception_4e/relu_3x3
I0201 12:09:23.272562 12021 net.cpp:157] Top shape: 50 320 14 14 (3136000)
I0201 12:09:23.272569 12021 net.cpp:165] Memory required for data: 2576808424
I0201 12:09:23.272577 12021 layer_factory.hpp:77] Creating layer inception_4e/5x5_reduce
I0201 12:09:23.272591 12021 net.cpp:100] Creating Layer inception_4e/5x5_reduce
I0201 12:09:23.272599 12021 net.cpp:434] inception_4e/5x5_reduce <- inception_4d/output_inception_4d/output_0_split_3
I0201 12:09:23.272609 12021 net.cpp:408] inception_4e/5x5_reduce -> inception_4e/5x5_reduce
I0201 12:09:23.272786 12021 net.cpp:150] Setting up inception_4e/5x5_reduce
I0201 12:09:23.272806 12021 net.cpp:157] Top shape: 50 32 14 14 (313600)
I0201 12:09:23.272812 12021 net.cpp:165] Memory required for data: 2578062824
I0201 12:09:23.272822 12021 layer_factory.hpp:77] Creating layer inception_4e/relu_5x5_reduce
I0201 12:09:23.272835 12021 net.cpp:100] Creating Layer inception_4e/relu_5x5_reduce
I0201 12:09:23.272843 12021 net.cpp:434] inception_4e/relu_5x5_reduce <- inception_4e/5x5_reduce
I0201 12:09:23.272851 12021 net.cpp:395] inception_4e/relu_5x5_reduce -> inception_4e/5x5_reduce (in-place)
I0201 12:09:23.272861 12021 net.cpp:150] Setting up inception_4e/relu_5x5_reduce
I0201 12:09:23.272871 12021 net.cpp:157] Top shape: 50 32 14 14 (313600)
I0201 12:09:23.272876 12021 net.cpp:165] Memory required for data: 2579317224
I0201 12:09:23.272883 12021 layer_factory.hpp:77] Creating layer inception_4e/5x5
I0201 12:09:23.272897 12021 net.cpp:100] Creating Layer inception_4e/5x5
I0201 12:09:23.272905 12021 net.cpp:434] inception_4e/5x5 <- inception_4e/5x5_reduce
I0201 12:09:23.272917 12021 net.cpp:408] inception_4e/5x5 -> inception_4e/5x5
I0201 12:09:23.273877 12021 net.cpp:150] Setting up inception_4e/5x5
I0201 12:09:23.273892 12021 net.cpp:157] Top shape: 50 128 14 14 (1254400)
I0201 12:09:23.273900 12021 net.cpp:165] Memory required for data: 2584334824
I0201 12:09:23.273908 12021 layer_factory.hpp:77] Creating layer inception_4e/relu_5x5
I0201 12:09:23.273918 12021 net.cpp:100] Creating Layer inception_4e/relu_5x5
I0201 12:09:23.273926 12021 net.cpp:434] inception_4e/relu_5x5 <- inception_4e/5x5
I0201 12:09:23.273934 12021 net.cpp:395] inception_4e/relu_5x5 -> inception_4e/5x5 (in-place)
I0201 12:09:23.273944 12021 net.cpp:150] Setting up inception_4e/relu_5x5
I0201 12:09:23.273952 12021 net.cpp:157] Top shape: 50 128 14 14 (1254400)
I0201 12:09:23.273959 12021 net.cpp:165] Memory required for data: 2589352424
I0201 12:09:23.273967 12021 layer_factory.hpp:77] Creating layer inception_4e/pool
I0201 12:09:23.273979 12021 net.cpp:100] Creating Layer inception_4e/pool
I0201 12:09:23.273988 12021 net.cpp:434] inception_4e/pool <- inception_4d/output_inception_4d/output_0_split_4
I0201 12:09:23.273996 12021 net.cpp:408] inception_4e/pool -> inception_4e/pool
I0201 12:09:23.274010 12021 net.cpp:150] Setting up inception_4e/pool
I0201 12:09:23.274022 12021 net.cpp:157] Top shape: 50 528 14 14 (5174400)
I0201 12:09:23.274029 12021 net.cpp:165] Memory required for data: 2610050024
I0201 12:09:23.274035 12021 layer_factory.hpp:77] Creating layer inception_4e/pool_proj
I0201 12:09:23.274046 12021 net.cpp:100] Creating Layer inception_4e/pool_proj
I0201 12:09:23.274067 12021 net.cpp:434] inception_4e/pool_proj <- inception_4e/pool
I0201 12:09:23.274081 12021 net.cpp:408] inception_4e/pool_proj -> inception_4e/pool_proj
I0201 12:09:23.274790 12021 net.cpp:150] Setting up inception_4e/pool_proj
I0201 12:09:23.274804 12021 net.cpp:157] Top shape: 50 128 14 14 (1254400)
I0201 12:09:23.274811 12021 net.cpp:165] Memory required for data: 2615067624
I0201 12:09:23.274821 12021 layer_factory.hpp:77] Creating layer inception_4e/relu_pool_proj
I0201 12:09:23.274833 12021 net.cpp:100] Creating Layer inception_4e/relu_pool_proj
I0201 12:09:23.274842 12021 net.cpp:434] inception_4e/relu_pool_proj <- inception_4e/pool_proj
I0201 12:09:23.274850 12021 net.cpp:395] inception_4e/relu_pool_proj -> inception_4e/pool_proj (in-place)
I0201 12:09:23.274860 12021 net.cpp:150] Setting up inception_4e/relu_pool_proj
I0201 12:09:23.274868 12021 net.cpp:157] Top shape: 50 128 14 14 (1254400)
I0201 12:09:23.274875 12021 net.cpp:165] Memory required for data: 2620085224
I0201 12:09:23.274881 12021 layer_factory.hpp:77] Creating layer inception_4e/output
I0201 12:09:23.274890 12021 net.cpp:100] Creating Layer inception_4e/output
I0201 12:09:23.274899 12021 net.cpp:434] inception_4e/output <- inception_4e/1x1
I0201 12:09:23.274906 12021 net.cpp:434] inception_4e/output <- inception_4e/3x3
I0201 12:09:23.274914 12021 net.cpp:434] inception_4e/output <- inception_4e/5x5
I0201 12:09:23.274921 12021 net.cpp:434] inception_4e/output <- inception_4e/pool_proj
I0201 12:09:23.274933 12021 net.cpp:408] inception_4e/output -> inception_4e/output
I0201 12:09:23.274948 12021 net.cpp:150] Setting up inception_4e/output
I0201 12:09:23.274957 12021 net.cpp:157] Top shape: 50 832 14 14 (8153600)
I0201 12:09:23.274965 12021 net.cpp:165] Memory required for data: 2652699624
I0201 12:09:23.274971 12021 layer_factory.hpp:77] Creating layer pool4/3x3_s2
I0201 12:09:23.274979 12021 net.cpp:100] Creating Layer pool4/3x3_s2
I0201 12:09:23.274986 12021 net.cpp:434] pool4/3x3_s2 <- inception_4e/output
I0201 12:09:23.275001 12021 net.cpp:408] pool4/3x3_s2 -> pool4/3x3_s2
I0201 12:09:23.275012 12021 net.cpp:150] Setting up pool4/3x3_s2
I0201 12:09:23.275022 12021 net.cpp:157] Top shape: 50 832 7 7 (2038400)
I0201 12:09:23.275028 12021 net.cpp:165] Memory required for data: 2660853224
I0201 12:09:23.275035 12021 layer_factory.hpp:77] Creating layer pool4/3x3_s2_pool4/3x3_s2_0_split
I0201 12:09:23.275044 12021 net.cpp:100] Creating Layer pool4/3x3_s2_pool4/3x3_s2_0_split
I0201 12:09:23.275053 12021 net.cpp:434] pool4/3x3_s2_pool4/3x3_s2_0_split <- pool4/3x3_s2
I0201 12:09:23.275064 12021 net.cpp:408] pool4/3x3_s2_pool4/3x3_s2_0_split -> pool4/3x3_s2_pool4/3x3_s2_0_split_0
I0201 12:09:23.275075 12021 net.cpp:408] pool4/3x3_s2_pool4/3x3_s2_0_split -> pool4/3x3_s2_pool4/3x3_s2_0_split_1
I0201 12:09:23.275085 12021 net.cpp:408] pool4/3x3_s2_pool4/3x3_s2_0_split -> pool4/3x3_s2_pool4/3x3_s2_0_split_2
I0201 12:09:23.275115 12021 net.cpp:408] pool4/3x3_s2_pool4/3x3_s2_0_split -> pool4/3x3_s2_pool4/3x3_s2_0_split_3
I0201 12:09:23.275127 12021 net.cpp:150] Setting up pool4/3x3_s2_pool4/3x3_s2_0_split
I0201 12:09:23.275136 12021 net.cpp:157] Top shape: 50 832 7 7 (2038400)
I0201 12:09:23.275144 12021 net.cpp:157] Top shape: 50 832 7 7 (2038400)
I0201 12:09:23.275152 12021 net.cpp:157] Top shape: 50 832 7 7 (2038400)
I0201 12:09:23.275161 12021 net.cpp:157] Top shape: 50 832 7 7 (2038400)
I0201 12:09:23.275166 12021 net.cpp:165] Memory required for data: 2693467624
I0201 12:09:23.275173 12021 layer_factory.hpp:77] Creating layer inception_5a/1x1
I0201 12:09:23.275188 12021 net.cpp:100] Creating Layer inception_5a/1x1
I0201 12:09:23.275197 12021 net.cpp:434] inception_5a/1x1 <- pool4/3x3_s2_pool4/3x3_s2_0_split_0
I0201 12:09:23.275207 12021 net.cpp:408] inception_5a/1x1 -> inception_5a/1x1
I0201 12:09:23.277268 12021 net.cpp:150] Setting up inception_5a/1x1
I0201 12:09:23.277283 12021 net.cpp:157] Top shape: 50 256 7 7 (627200)
I0201 12:09:23.277290 12021 net.cpp:165] Memory required for data: 2695976424
I0201 12:09:23.277307 12021 layer_factory.hpp:77] Creating layer inception_5a/relu_1x1
I0201 12:09:23.277325 12021 net.cpp:100] Creating Layer inception_5a/relu_1x1
I0201 12:09:23.277334 12021 net.cpp:434] inception_5a/relu_1x1 <- inception_5a/1x1
I0201 12:09:23.277343 12021 net.cpp:395] inception_5a/relu_1x1 -> inception_5a/1x1 (in-place)
I0201 12:09:23.277354 12021 net.cpp:150] Setting up inception_5a/relu_1x1
I0201 12:09:23.277361 12021 net.cpp:157] Top shape: 50 256 7 7 (627200)
I0201 12:09:23.277369 12021 net.cpp:165] Memory required for data: 2698485224
I0201 12:09:23.277375 12021 layer_factory.hpp:77] Creating layer inception_5a/3x3_reduce
I0201 12:09:23.277390 12021 net.cpp:100] Creating Layer inception_5a/3x3_reduce
I0201 12:09:23.277398 12021 net.cpp:434] inception_5a/3x3_reduce <- pool4/3x3_s2_pool4/3x3_s2_0_split_1
I0201 12:09:23.277408 12021 net.cpp:408] inception_5a/3x3_reduce -> inception_5a/3x3_reduce
I0201 12:09:23.278717 12021 net.cpp:150] Setting up inception_5a/3x3_reduce
I0201 12:09:23.278731 12021 net.cpp:157] Top shape: 50 160 7 7 (392000)
I0201 12:09:23.278738 12021 net.cpp:165] Memory required for data: 2700053224
I0201 12:09:23.278748 12021 layer_factory.hpp:77] Creating layer inception_5a/relu_3x3_reduce
I0201 12:09:23.278759 12021 net.cpp:100] Creating Layer inception_5a/relu_3x3_reduce
I0201 12:09:23.278765 12021 net.cpp:434] inception_5a/relu_3x3_reduce <- inception_5a/3x3_reduce
I0201 12:09:23.278774 12021 net.cpp:395] inception_5a/relu_3x3_reduce -> inception_5a/3x3_reduce (in-place)
I0201 12:09:23.278784 12021 net.cpp:150] Setting up inception_5a/relu_3x3_reduce
I0201 12:09:23.278792 12021 net.cpp:157] Top shape: 50 160 7 7 (392000)
I0201 12:09:23.278800 12021 net.cpp:165] Memory required for data: 2701621224
I0201 12:09:23.278806 12021 layer_factory.hpp:77] Creating layer inception_5a/3x3
I0201 12:09:23.278825 12021 net.cpp:100] Creating Layer inception_5a/3x3
I0201 12:09:23.278833 12021 net.cpp:434] inception_5a/3x3 <- inception_5a/3x3_reduce
I0201 12:09:23.278843 12021 net.cpp:408] inception_5a/3x3 -> inception_5a/3x3
I0201 12:09:23.283556 12021 net.cpp:150] Setting up inception_5a/3x3
I0201 12:09:23.283572 12021 net.cpp:157] Top shape: 50 320 7 7 (784000)
I0201 12:09:23.283579 12021 net.cpp:165] Memory required for data: 2704757224
I0201 12:09:23.283589 12021 layer_factory.hpp:77] Creating layer inception_5a/relu_3x3
I0201 12:09:23.283603 12021 net.cpp:100] Creating Layer inception_5a/relu_3x3
I0201 12:09:23.283612 12021 net.cpp:434] inception_5a/relu_3x3 <- inception_5a/3x3
I0201 12:09:23.283620 12021 net.cpp:395] inception_5a/relu_3x3 -> inception_5a/3x3 (in-place)
I0201 12:09:23.283630 12021 net.cpp:150] Setting up inception_5a/relu_3x3
I0201 12:09:23.283638 12021 net.cpp:157] Top shape: 50 320 7 7 (784000)
I0201 12:09:23.283645 12021 net.cpp:165] Memory required for data: 2707893224
I0201 12:09:23.283653 12021 layer_factory.hpp:77] Creating layer inception_5a/5x5_reduce
I0201 12:09:23.283663 12021 net.cpp:100] Creating Layer inception_5a/5x5_reduce
I0201 12:09:23.283671 12021 net.cpp:434] inception_5a/5x5_reduce <- pool4/3x3_s2_pool4/3x3_s2_0_split_2
I0201 12:09:23.283684 12021 net.cpp:408] inception_5a/5x5_reduce -> inception_5a/5x5_reduce
I0201 12:09:23.283957 12021 net.cpp:150] Setting up inception_5a/5x5_reduce
I0201 12:09:23.283972 12021 net.cpp:157] Top shape: 50 32 7 7 (78400)
I0201 12:09:23.283977 12021 net.cpp:165] Memory required for data: 2708206824
I0201 12:09:23.283987 12021 layer_factory.hpp:77] Creating layer inception_5a/relu_5x5_reduce
I0201 12:09:23.284000 12021 net.cpp:100] Creating Layer inception_5a/relu_5x5_reduce
I0201 12:09:23.284008 12021 net.cpp:434] inception_5a/relu_5x5_reduce <- inception_5a/5x5_reduce
I0201 12:09:23.284016 12021 net.cpp:395] inception_5a/relu_5x5_reduce -> inception_5a/5x5_reduce (in-place)
I0201 12:09:23.284026 12021 net.cpp:150] Setting up inception_5a/relu_5x5_reduce
I0201 12:09:23.284035 12021 net.cpp:157] Top shape: 50 32 7 7 (78400)
I0201 12:09:23.284041 12021 net.cpp:165] Memory required for data: 2708520424
I0201 12:09:23.284054 12021 layer_factory.hpp:77] Creating layer inception_5a/5x5
I0201 12:09:23.284078 12021 net.cpp:100] Creating Layer inception_5a/5x5
I0201 12:09:23.284086 12021 net.cpp:434] inception_5a/5x5 <- inception_5a/5x5_reduce
I0201 12:09:23.284098 12021 net.cpp:408] inception_5a/5x5 -> inception_5a/5x5
I0201 12:09:23.285055 12021 net.cpp:150] Setting up inception_5a/5x5
I0201 12:09:23.285070 12021 net.cpp:157] Top shape: 50 128 7 7 (313600)
I0201 12:09:23.285078 12021 net.cpp:165] Memory required for data: 2709774824
I0201 12:09:23.285087 12021 layer_factory.hpp:77] Creating layer inception_5a/relu_5x5
I0201 12:09:23.285097 12021 net.cpp:100] Creating Layer inception_5a/relu_5x5
I0201 12:09:23.285105 12021 net.cpp:434] inception_5a/relu_5x5 <- inception_5a/5x5
I0201 12:09:23.285116 12021 net.cpp:395] inception_5a/relu_5x5 -> inception_5a/5x5 (in-place)
I0201 12:09:23.285127 12021 net.cpp:150] Setting up inception_5a/relu_5x5
I0201 12:09:23.285135 12021 net.cpp:157] Top shape: 50 128 7 7 (313600)
I0201 12:09:23.285141 12021 net.cpp:165] Memory required for data: 2711029224
I0201 12:09:23.285148 12021 layer_factory.hpp:77] Creating layer inception_5a/pool
I0201 12:09:23.285157 12021 net.cpp:100] Creating Layer inception_5a/pool
I0201 12:09:23.285166 12021 net.cpp:434] inception_5a/pool <- pool4/3x3_s2_pool4/3x3_s2_0_split_3
I0201 12:09:23.285174 12021 net.cpp:408] inception_5a/pool -> inception_5a/pool
I0201 12:09:23.285187 12021 net.cpp:150] Setting up inception_5a/pool
I0201 12:09:23.285195 12021 net.cpp:157] Top shape: 50 832 7 7 (2038400)
I0201 12:09:23.285202 12021 net.cpp:165] Memory required for data: 2719182824
I0201 12:09:23.285208 12021 layer_factory.hpp:77] Creating layer inception_5a/pool_proj
I0201 12:09:23.285225 12021 net.cpp:100] Creating Layer inception_5a/pool_proj
I0201 12:09:23.285233 12021 net.cpp:434] inception_5a/pool_proj <- inception_5a/pool
I0201 12:09:23.285243 12021 net.cpp:408] inception_5a/pool_proj -> inception_5a/pool_proj
I0201 12:09:23.286299 12021 net.cpp:150] Setting up inception_5a/pool_proj
I0201 12:09:23.286314 12021 net.cpp:157] Top shape: 50 128 7 7 (313600)
I0201 12:09:23.286320 12021 net.cpp:165] Memory required for data: 2720437224
I0201 12:09:23.286330 12021 layer_factory.hpp:77] Creating layer inception_5a/relu_pool_proj
I0201 12:09:23.286340 12021 net.cpp:100] Creating Layer inception_5a/relu_pool_proj
I0201 12:09:23.286347 12021 net.cpp:434] inception_5a/relu_pool_proj <- inception_5a/pool_proj
I0201 12:09:23.286360 12021 net.cpp:395] inception_5a/relu_pool_proj -> inception_5a/pool_proj (in-place)
I0201 12:09:23.286370 12021 net.cpp:150] Setting up inception_5a/relu_pool_proj
I0201 12:09:23.286379 12021 net.cpp:157] Top shape: 50 128 7 7 (313600)
I0201 12:09:23.286386 12021 net.cpp:165] Memory required for data: 2721691624
I0201 12:09:23.286392 12021 layer_factory.hpp:77] Creating layer inception_5a/output
I0201 12:09:23.286401 12021 net.cpp:100] Creating Layer inception_5a/output
I0201 12:09:23.286409 12021 net.cpp:434] inception_5a/output <- inception_5a/1x1
I0201 12:09:23.286442 12021 net.cpp:434] inception_5a/output <- inception_5a/3x3
I0201 12:09:23.286449 12021 net.cpp:434] inception_5a/output <- inception_5a/5x5
I0201 12:09:23.286458 12021 net.cpp:434] inception_5a/output <- inception_5a/pool_proj
I0201 12:09:23.286466 12021 net.cpp:408] inception_5a/output -> inception_5a/output
I0201 12:09:23.286478 12021 net.cpp:150] Setting up inception_5a/output
I0201 12:09:23.286487 12021 net.cpp:157] Top shape: 50 832 7 7 (2038400)
I0201 12:09:23.286494 12021 net.cpp:165] Memory required for data: 2729845224
I0201 12:09:23.286500 12021 layer_factory.hpp:77] Creating layer inception_5a/output_inception_5a/output_0_split
I0201 12:09:23.286509 12021 net.cpp:100] Creating Layer inception_5a/output_inception_5a/output_0_split
I0201 12:09:23.286516 12021 net.cpp:434] inception_5a/output_inception_5a/output_0_split <- inception_5a/output
I0201 12:09:23.286528 12021 net.cpp:408] inception_5a/output_inception_5a/output_0_split -> inception_5a/output_inception_5a/output_0_split_0
I0201 12:09:23.286546 12021 net.cpp:408] inception_5a/output_inception_5a/output_0_split -> inception_5a/output_inception_5a/output_0_split_1
I0201 12:09:23.286566 12021 net.cpp:408] inception_5a/output_inception_5a/output_0_split -> inception_5a/output_inception_5a/output_0_split_2
I0201 12:09:23.286577 12021 net.cpp:408] inception_5a/output_inception_5a/output_0_split -> inception_5a/output_inception_5a/output_0_split_3
I0201 12:09:23.286589 12021 net.cpp:150] Setting up inception_5a/output_inception_5a/output_0_split
I0201 12:09:23.286597 12021 net.cpp:157] Top shape: 50 832 7 7 (2038400)
I0201 12:09:23.286605 12021 net.cpp:157] Top shape: 50 832 7 7 (2038400)
I0201 12:09:23.286613 12021 net.cpp:157] Top shape: 50 832 7 7 (2038400)
I0201 12:09:23.286622 12021 net.cpp:157] Top shape: 50 832 7 7 (2038400)
I0201 12:09:23.286628 12021 net.cpp:165] Memory required for data: 2762459624
I0201 12:09:23.286634 12021 layer_factory.hpp:77] Creating layer inception_5b/1x1
I0201 12:09:23.286646 12021 net.cpp:100] Creating Layer inception_5b/1x1
I0201 12:09:23.286654 12021 net.cpp:434] inception_5b/1x1 <- inception_5a/output_inception_5a/output_0_split_0
I0201 12:09:23.286667 12021 net.cpp:408] inception_5b/1x1 -> inception_5b/1x1
I0201 12:09:23.289703 12021 net.cpp:150] Setting up inception_5b/1x1
I0201 12:09:23.289718 12021 net.cpp:157] Top shape: 50 384 7 7 (940800)
I0201 12:09:23.289726 12021 net.cpp:165] Memory required for data: 2766222824
I0201 12:09:23.289736 12021 layer_factory.hpp:77] Creating layer inception_5b/relu_1x1
I0201 12:09:23.289744 12021 net.cpp:100] Creating Layer inception_5b/relu_1x1
I0201 12:09:23.289753 12021 net.cpp:434] inception_5b/relu_1x1 <- inception_5b/1x1
I0201 12:09:23.289762 12021 net.cpp:395] inception_5b/relu_1x1 -> inception_5b/1x1 (in-place)
I0201 12:09:23.289772 12021 net.cpp:150] Setting up inception_5b/relu_1x1
I0201 12:09:23.289780 12021 net.cpp:157] Top shape: 50 384 7 7 (940800)
I0201 12:09:23.289788 12021 net.cpp:165] Memory required for data: 2769986024
I0201 12:09:23.289793 12021 layer_factory.hpp:77] Creating layer inception_5b/3x3_reduce
I0201 12:09:23.289808 12021 net.cpp:100] Creating Layer inception_5b/3x3_reduce
I0201 12:09:23.289816 12021 net.cpp:434] inception_5b/3x3_reduce <- inception_5a/output_inception_5a/output_0_split_1
I0201 12:09:23.289826 12021 net.cpp:408] inception_5b/3x3_reduce -> inception_5b/3x3_reduce
I0201 12:09:23.291354 12021 net.cpp:150] Setting up inception_5b/3x3_reduce
I0201 12:09:23.291369 12021 net.cpp:157] Top shape: 50 192 7 7 (470400)
I0201 12:09:23.291376 12021 net.cpp:165] Memory required for data: 2771867624
I0201 12:09:23.291386 12021 layer_factory.hpp:77] Creating layer inception_5b/relu_3x3_reduce
I0201 12:09:23.291395 12021 net.cpp:100] Creating Layer inception_5b/relu_3x3_reduce
I0201 12:09:23.291404 12021 net.cpp:434] inception_5b/relu_3x3_reduce <- inception_5b/3x3_reduce
I0201 12:09:23.291415 12021 net.cpp:395] inception_5b/relu_3x3_reduce -> inception_5b/3x3_reduce (in-place)
I0201 12:09:23.291425 12021 net.cpp:150] Setting up inception_5b/relu_3x3_reduce
I0201 12:09:23.291435 12021 net.cpp:157] Top shape: 50 192 7 7 (470400)
I0201 12:09:23.291440 12021 net.cpp:165] Memory required for data: 2773749224
I0201 12:09:23.291447 12021 layer_factory.hpp:77] Creating layer inception_5b/3x3
I0201 12:09:23.291458 12021 net.cpp:100] Creating Layer inception_5b/3x3
I0201 12:09:23.291466 12021 net.cpp:434] inception_5b/3x3 <- inception_5b/3x3_reduce
I0201 12:09:23.291476 12021 net.cpp:408] inception_5b/3x3 -> inception_5b/3x3
I0201 12:09:23.297662 12021 net.cpp:150] Setting up inception_5b/3x3
I0201 12:09:23.297677 12021 net.cpp:157] Top shape: 50 384 7 7 (940800)
I0201 12:09:23.297683 12021 net.cpp:165] Memory required for data: 2777512424
I0201 12:09:23.297693 12021 layer_factory.hpp:77] Creating layer inception_5b/relu_3x3
I0201 12:09:23.297704 12021 net.cpp:100] Creating Layer inception_5b/relu_3x3
I0201 12:09:23.297713 12021 net.cpp:434] inception_5b/relu_3x3 <- inception_5b/3x3
I0201 12:09:23.297721 12021 net.cpp:395] inception_5b/relu_3x3 -> inception_5b/3x3 (in-place)
I0201 12:09:23.297750 12021 net.cpp:150] Setting up inception_5b/relu_3x3
I0201 12:09:23.297760 12021 net.cpp:157] Top shape: 50 384 7 7 (940800)
I0201 12:09:23.297766 12021 net.cpp:165] Memory required for data: 2781275624
I0201 12:09:23.297772 12021 layer_factory.hpp:77] Creating layer inception_5b/5x5_reduce
I0201 12:09:23.297785 12021 net.cpp:100] Creating Layer inception_5b/5x5_reduce
I0201 12:09:23.297791 12021 net.cpp:434] inception_5b/5x5_reduce <- inception_5a/output_inception_5a/output_0_split_2
I0201 12:09:23.297804 12021 net.cpp:408] inception_5b/5x5_reduce -> inception_5b/5x5_reduce
I0201 12:09:23.298295 12021 net.cpp:150] Setting up inception_5b/5x5_reduce
I0201 12:09:23.298310 12021 net.cpp:157] Top shape: 50 48 7 7 (117600)
I0201 12:09:23.298316 12021 net.cpp:165] Memory required for data: 2781746024
I0201 12:09:23.298326 12021 layer_factory.hpp:77] Creating layer inception_5b/relu_5x5_reduce
I0201 12:09:23.298336 12021 net.cpp:100] Creating Layer inception_5b/relu_5x5_reduce
I0201 12:09:23.298344 12021 net.cpp:434] inception_5b/relu_5x5_reduce <- inception_5b/5x5_reduce
I0201 12:09:23.298355 12021 net.cpp:395] inception_5b/relu_5x5_reduce -> inception_5b/5x5_reduce (in-place)
I0201 12:09:23.298365 12021 net.cpp:150] Setting up inception_5b/relu_5x5_reduce
I0201 12:09:23.298374 12021 net.cpp:157] Top shape: 50 48 7 7 (117600)
I0201 12:09:23.298380 12021 net.cpp:165] Memory required for data: 2782216424
I0201 12:09:23.298388 12021 layer_factory.hpp:77] Creating layer inception_5b/5x5
I0201 12:09:23.298398 12021 net.cpp:100] Creating Layer inception_5b/5x5
I0201 12:09:23.298406 12021 net.cpp:434] inception_5b/5x5 <- inception_5b/5x5_reduce
I0201 12:09:23.298418 12021 net.cpp:408] inception_5b/5x5 -> inception_5b/5x5
I0201 12:09:23.299784 12021 net.cpp:150] Setting up inception_5b/5x5
I0201 12:09:23.299799 12021 net.cpp:157] Top shape: 50 128 7 7 (313600)
I0201 12:09:23.299805 12021 net.cpp:165] Memory required for data: 2783470824
I0201 12:09:23.299815 12021 layer_factory.hpp:77] Creating layer inception_5b/relu_5x5
I0201 12:09:23.299824 12021 net.cpp:100] Creating Layer inception_5b/relu_5x5
I0201 12:09:23.299832 12021 net.cpp:434] inception_5b/relu_5x5 <- inception_5b/5x5
I0201 12:09:23.299844 12021 net.cpp:395] inception_5b/relu_5x5 -> inception_5b/5x5 (in-place)
I0201 12:09:23.299854 12021 net.cpp:150] Setting up inception_5b/relu_5x5
I0201 12:09:23.299862 12021 net.cpp:157] Top shape: 50 128 7 7 (313600)
I0201 12:09:23.299868 12021 net.cpp:165] Memory required for data: 2784725224
I0201 12:09:23.299875 12021 layer_factory.hpp:77] Creating layer inception_5b/pool
I0201 12:09:23.299885 12021 net.cpp:100] Creating Layer inception_5b/pool
I0201 12:09:23.299892 12021 net.cpp:434] inception_5b/pool <- inception_5a/output_inception_5a/output_0_split_3
I0201 12:09:23.299903 12021 net.cpp:408] inception_5b/pool -> inception_5b/pool
I0201 12:09:23.299917 12021 net.cpp:150] Setting up inception_5b/pool
I0201 12:09:23.299926 12021 net.cpp:157] Top shape: 50 832 7 7 (2038400)
I0201 12:09:23.299932 12021 net.cpp:165] Memory required for data: 2792878824
I0201 12:09:23.299939 12021 layer_factory.hpp:77] Creating layer inception_5b/pool_proj
I0201 12:09:23.299953 12021 net.cpp:100] Creating Layer inception_5b/pool_proj
I0201 12:09:23.299962 12021 net.cpp:434] inception_5b/pool_proj <- inception_5b/pool
I0201 12:09:23.299971 12021 net.cpp:408] inception_5b/pool_proj -> inception_5b/pool_proj
I0201 12:09:23.300959 12021 net.cpp:150] Setting up inception_5b/pool_proj
I0201 12:09:23.300976 12021 net.cpp:157] Top shape: 50 128 7 7 (313600)
I0201 12:09:23.300981 12021 net.cpp:165] Memory required for data: 2794133224
I0201 12:09:23.300992 12021 layer_factory.hpp:77] Creating layer inception_5b/relu_pool_proj
I0201 12:09:23.301003 12021 net.cpp:100] Creating Layer inception_5b/relu_pool_proj
I0201 12:09:23.301012 12021 net.cpp:434] inception_5b/relu_pool_proj <- inception_5b/pool_proj
I0201 12:09:23.301020 12021 net.cpp:395] inception_5b/relu_pool_proj -> inception_5b/pool_proj (in-place)
I0201 12:09:23.301038 12021 net.cpp:150] Setting up inception_5b/relu_pool_proj
I0201 12:09:23.301054 12021 net.cpp:157] Top shape: 50 128 7 7 (313600)
I0201 12:09:23.301060 12021 net.cpp:165] Memory required for data: 2795387624
I0201 12:09:23.301067 12021 layer_factory.hpp:77] Creating layer inception_5b/output
I0201 12:09:23.301079 12021 net.cpp:100] Creating Layer inception_5b/output
I0201 12:09:23.301086 12021 net.cpp:434] inception_5b/output <- inception_5b/1x1
I0201 12:09:23.301095 12021 net.cpp:434] inception_5b/output <- inception_5b/3x3
I0201 12:09:23.301102 12021 net.cpp:434] inception_5b/output <- inception_5b/5x5
I0201 12:09:23.301110 12021 net.cpp:434] inception_5b/output <- inception_5b/pool_proj
I0201 12:09:23.301120 12021 net.cpp:408] inception_5b/output -> inception_5b/output
I0201 12:09:23.301131 12021 net.cpp:150] Setting up inception_5b/output
I0201 12:09:23.301141 12021 net.cpp:157] Top shape: 50 1024 7 7 (2508800)
I0201 12:09:23.301146 12021 net.cpp:165] Memory required for data: 2805422824
I0201 12:09:23.301153 12021 layer_factory.hpp:77] Creating layer pool5/7x7_s1
I0201 12:09:23.301162 12021 net.cpp:100] Creating Layer pool5/7x7_s1
I0201 12:09:23.301169 12021 net.cpp:434] pool5/7x7_s1 <- inception_5b/output
I0201 12:09:23.301180 12021 net.cpp:408] pool5/7x7_s1 -> pool5/7x7_s1
I0201 12:09:23.301192 12021 net.cpp:150] Setting up pool5/7x7_s1
I0201 12:09:23.301201 12021 net.cpp:157] Top shape: 50 1024 1 1 (51200)
I0201 12:09:23.301208 12021 net.cpp:165] Memory required for data: 2805627624
I0201 12:09:23.301214 12021 layer_factory.hpp:77] Creating layer pool5/drop_7x7_s1
I0201 12:09:23.301225 12021 net.cpp:100] Creating Layer pool5/drop_7x7_s1
I0201 12:09:23.301232 12021 net.cpp:434] pool5/drop_7x7_s1 <- pool5/7x7_s1
I0201 12:09:23.301241 12021 net.cpp:395] pool5/drop_7x7_s1 -> pool5/7x7_s1 (in-place)
I0201 12:09:23.301271 12021 net.cpp:150] Setting up pool5/drop_7x7_s1
I0201 12:09:23.301281 12021 net.cpp:157] Top shape: 50 1024 1 1 (51200)
I0201 12:09:23.301287 12021 net.cpp:165] Memory required for data: 2805832424
I0201 12:09:23.301295 12021 layer_factory.hpp:77] Creating layer loss3/classifier
I0201 12:09:23.301306 12021 net.cpp:100] Creating Layer loss3/classifier
I0201 12:09:23.301313 12021 net.cpp:434] loss3/classifier <- pool5/7x7_s1
I0201 12:09:23.301326 12021 net.cpp:408] loss3/classifier -> loss3/classifier
I0201 12:09:23.310833 12021 net.cpp:150] Setting up loss3/classifier
I0201 12:09:23.310859 12021 net.cpp:157] Top shape: 50 1000 (50000)
I0201 12:09:23.310865 12021 net.cpp:165] Memory required for data: 2806032424
I0201 12:09:23.310876 12021 layer_factory.hpp:77] Creating layer loss3/classifier_loss3/classifier_0_split
I0201 12:09:23.310887 12021 net.cpp:100] Creating Layer loss3/classifier_loss3/classifier_0_split
I0201 12:09:23.310895 12021 net.cpp:434] loss3/classifier_loss3/classifier_0_split <- loss3/classifier
I0201 12:09:23.310907 12021 net.cpp:408] loss3/classifier_loss3/classifier_0_split -> loss3/classifier_loss3/classifier_0_split_0
I0201 12:09:23.310920 12021 net.cpp:408] loss3/classifier_loss3/classifier_0_split -> loss3/classifier_loss3/classifier_0_split_1
I0201 12:09:23.310930 12021 net.cpp:408] loss3/classifier_loss3/classifier_0_split -> loss3/classifier_loss3/classifier_0_split_2
I0201 12:09:23.310942 12021 net.cpp:150] Setting up loss3/classifier_loss3/classifier_0_split
I0201 12:09:23.310950 12021 net.cpp:157] Top shape: 50 1000 (50000)
I0201 12:09:23.310958 12021 net.cpp:157] Top shape: 50 1000 (50000)
I0201 12:09:23.310966 12021 net.cpp:157] Top shape: 50 1000 (50000)
I0201 12:09:23.310972 12021 net.cpp:165] Memory required for data: 2806632424
I0201 12:09:23.310978 12021 layer_factory.hpp:77] Creating layer loss3/loss3
I0201 12:09:23.310989 12021 net.cpp:100] Creating Layer loss3/loss3
I0201 12:09:23.310997 12021 net.cpp:434] loss3/loss3 <- loss3/classifier_loss3/classifier_0_split_0
I0201 12:09:23.311004 12021 net.cpp:434] loss3/loss3 <- label_data_1_split_6
…
