…
I0201 12:15:03.487938 12095 net.cpp:322] The NetState phase (0) differed from the phase (1) specified by a rule in layer loss3/top-5
I0201 12:15:03.492539 12095 net.cpp:58] Initializing net from parameters: 
name: "GoogleNet"
state {
  phase: TRAIN
  level: 0
  stage: ""
}
layer {
  name: "data"
  type: "Data"
  top: "data"
  top: "label"
  include {
    phase: TRAIN
  }
  transform_param {
    mirror: true
    crop_size: 224
    mean_value: 104
    mean_value: 117
    mean_value: 123
  }
  data_param {
    source: "/home/user/caffeOMP/original/caffe/examples/imagenet/ilsvrc12_train_lmdb"
    batch_size: 32
    backend: LMDB
  }
}
layer {
  name: "conv1/7x7_s2"
  type: "Convolution"
  bottom: "data"
  top: "conv1/7x7_s2"
  param {
    lr_mult: 1
    decay_mult: 1
  }
  param {
    lr_mult: 2
    decay_mult: 0
  }
  convolution_param {
    num_output: 64
    pad: 3
    kernel_size: 7
    stride: 2
    weight_filler {
      type: "xavier"
    }
    bias_filler {
      type: "constant"
      value: 0.2
    }
  }
}
layer {
  name: "conv1/relu_7x7"
  type: "ReLU"
  bottom: "conv1/7x7_s2"
  top: "conv1/7x7_s2"
}
layer {
  name: "pool1/3x3_s2"
  type: "Pooling"
  bottom: "conv1/7x7_s2"
  top: "pool1/3x3_s2"
  pooling_param {
    pool: MAX
    kernel_size: 3
    stride: 2
  }
}
layer {
  name: "pool1/norm1"
  type: "LRN"
  bottom: "pool1/3x3_s2"
  top: "pool1/norm1"
  lrn_param {
    local_size: 5
    alpha: 0.0001
    beta: 0.75
  }
}
layer {
  name: "conv2/3x3_reduce"
  type: "Convolution"
  bottom: "pool1/norm1"
  top: "conv2/3x3_reduce"
  param {
    lr_mult: 1
    decay_mult: 1
  }
  param {
    lr_mult: 2
    decay_mult: 0
  }
  convolution_param {
    num_output: 64
    kernel_size: 1
    weight_filler {
      type: "xavier"
    }
    bias_filler {
      type: "constant"
      value: 0.2
    }
  }
}
layer {
  name: "conv2/relu_3x3_reduce"
  type: "ReLU"
  bottom: "conv2/3x3_reduce"
  top: "conv2/3x3_reduce"
}
layer {
  name: "conv2/3x3"
  type: "Convolution"
  bottom: "conv2/3x3_reduce"
  top: "conv2/3x3"
  param {
    lr_mult: 1
    decay_mult: 1
  }
  param {
    lr_mult: 2
    decay_mult: 0
  }
  convolution_param {
    num_output: 192
    pad: 1
    kernel_size: 3
    weight_filler {
      type: "xavier"
    }
    bias_filler {
      type: "constant"
      value: 0.2
    }
  }
}
layer {
  name: "conv2/relu_3x3"
  type: "ReLU"
  bottom: "conv2/3x3"
  top: "conv2/3x3"
}
layer {
  name: "conv2/norm2"
  type: "LRN"
  bottom: "conv2/3x3"
  top: "conv2/norm2"
  lrn_param {
    local_size: 5
    alpha: 0.0001
    beta: 0.75
  }
}
layer {
  name: "pool2/3x3_s2"
  type: "Pooling"
  bottom: "conv2/norm2"
  top: "pool2/3x3_s2"
  pooling_param {
    pool: MAX
    kernel_size: 3
    stride: 2
  }
}
layer {
  name: "inception_3a/1x1"
  type: "Convolution"
  bottom: "pool2/3x3_s2"
  top: "inception_3a/1x1"
  param {
    lr_mult: 1
    decay_mult: 1
  }
  param {
    lr_mult: 2
    decay_mult: 0
  }
  convolution_param {
    num_output: 64
    kernel_size: 1
    weight_filler {
      type: "xavier"
    }
    bias_filler {
      type: "constant"
      value: 0.2
    }
  }
}
layer {
  name: "inception_3a/relu_1x1"
  type: "ReLU"
  bottom: "inception_3a/1x1"
  top: "inception_3a/1x1"
}
layer {
  name: "inception_3a/3x3_reduce"
  type: "Convolution"
  bottom: "pool2/3x3_s2"
  top: "inception_3a/3x3_reduce"
  param {
    lr_mult: 1
    decay_mult: 1
  }
  param {
    lr_mult: 2
    decay_mult: 0
  }
  convolution_param {
    num_output: 96
    kernel_size: 1
    weight_filler {
      type: "xavier"
    }
    bias_filler {
      type: "constant"
      value: 0.2
    }
  }
}
layer {
  name: "inception_3a/relu_3x3_reduce"
  type: "ReLU"
  bottom: "inception_3a/3x3_reduce"
  top: "inception_3a/3x3_reduce"
}
layer {
  name: "inception_3a/3x3"
  type: "Convolution"
  bottom: "inception_3a/3x3_reduce"
  top: "inception_3a/3x3"
  param {
    lr_mult: 1
    decay_mult: 1
  }
  param {
    lr_mult: 2
    decay_mult: 0
  }
  convolution_param {
    num_output: 128
    pad: 1
    kernel_size: 3
    weight_filler {
      type: "xavier"
    }
    bias_filler {
      type: "constant"
      value: 0.2
    }
  }
}
layer {
  name: "inception_3a/relu_3x3"
  type: "ReLU"
  bottom: "inception_3a/3x3"
  top: "inception_3a/3x3"
}
layer {
  name: "inception_3a/5x5_reduce"
  type: "Convolution"
  bottom: "pool2/3x3_s2"
  top: "inception_3a/5x5_reduce"
  param {
    lr_mult: 1
    decay_mult: 1
  }
  param {
    lr_mult: 2
    decay_mult: 0
  }
  convolution_param {
    num_output: 16
    kernel_size: 1
    weight_filler {
      type: "xavier"
    }
    bias_filler {
      type: "constant"
      value: 0.2
    }
  }
}
layer {
  name: "inception_3a/relu_5x5_reduce"
  type: "ReLU"
  bottom: "inception_3a/5x5_reduce"
  top: "inception_3a/5x5_reduce"
}
layer {
  name: "inception_3a/5x5"
  type: "Convolution"
  bottom: "inception_3a/5x5_reduce"
  top: "inception_3a/5x5"
  param {
    lr_mult: 1
    decay_mult: 1
  }
  param {
    lr_mult: 2
    decay_mult: 0
  }
  convolution_param {
    num_output: 32
    pad: 2
    kernel_size: 5
    weight_filler {
      type: "xavier"
    }
    bias_filler {
      type: "constant"
      value: 0.2
    }
  }
}
layer {
  name: "inception_3a/relu_5x5"
  type: "ReLU"
  bottom: "inception_3a/5x5"
  top: "inception_3a/5x5"
}
layer {
  name: "inception_3a/pool"
  type: "Pooling"
  bottom: "pool2/3x3_s2"
  top: "inception_3a/pool"
  pooling_param {
    pool: MAX
    kernel_size: 3
    stride: 1
    pad: 1
  }
}
layer {
  name: "inception_3a/pool_proj"
  type: "Convolution"
  bottom: "inception_3a/pool"
  top: "inception_3a/pool_proj"
  param {
    lr_mult: 1
    decay_mult: 1
  }
  param {
    lr_mult: 2
    decay_mult: 0
  }
  convolution_param {
    num_output: 32
    kernel_size: 1
    weight_filler {
      type: "xavier"
    }
    bias_filler {
      type: "constant"
      value: 0.2
    }
  }
}
layer {
  name: "inception_3a/relu_pool_proj"
  type: "ReLU"
  bottom: "inception_3a/pool_proj"
  top: "inception_3a/pool_proj"
}
layer {
  name: "inception_3a/output"
  type: "Concat"
  bottom: "inception_3a/1x1"
  bottom: "inception_3a/3x3"
  bottom: "inception_3a/5x5"
  bottom: "inception_3a/pool_proj"
  top: "inception_3a/output"
}
layer {
  name: "inception_3b/1x1"
  type: "Convolution"
  bottom: "inception_3a/output"
  top: "inception_3b/1x1"
  param {
    lr_mult: 1
    decay_mult: 1
  }
  param {
    lr_mult: 2
    decay_mult: 0
  }
  convolution_param {
    num_output: 128
    kernel_size: 1
    weight_filler {
      type: "xavier"
    }
    bias_filler {
      type: "constant"
      value: 0.2
    }
  }
}
layer {
  name: "inception_3b/relu_1x1"
  type: "ReLU"
  bottom: "inception_3b/1x1"
  top: "inception_3b/1x1"
}
layer {
  name: "inception_3b/3x3_reduce"
  type: "Convolution"
  bottom: "inception_3a/output"
  top: "inception_3b/3x3_reduce"
  param {
    lr_mult: 1
    decay_mult: 1
  }
  param {
    lr_mult: 2
    decay_mult: 0
  }
  convolution_param {
    num_output: 128
    kernel_size: 1
    weight_filler {
      type: "xavier"
    }
    bias_filler {
      type: "constant"
      value: 0.2
    }
  }
}
layer {
  name: "inception_3b/relu_3x3_reduce"
  type: "ReLU"
  bottom: "inception_3b/3x3_reduce"
  top: "inception_3b/3x3_reduce"
}
layer {
  name: "inception_3b/3x3"
  type: "Convolution"
  bottom: "inception_3b/3x3_reduce"
  top: "inception_3b/3x3"
  param {
    lr_mult: 1
    decay_mult: 1
  }
  param {
    lr_mult: 2
    decay_mult: 0
  }
  convolution_param {
    num_output: 192
    pad: 1
    kernel_size: 3
    weight_filler {
      type: "xavier"
    }
    bias_filler {
      type: "constant"
      value: 0.2
    }
  }
}
layer {
  name: "inception_3b/relu_3x3"
  type: "ReLU"
  bottom: "inception_3b/3x3"
  top: "inception_3b/3x3"
}
layer {
  name: "inception_3b/5x5_reduce"
  type: "Convolution"
  bottom: "inception_3a/output"
  top: "inception_3b/5x5_reduce"
  param {
    lr_mult: 1
    decay_mult: 1
  }
  param {
    lr_mult: 2
    decay_mult: 0
  }
  convolution_param {
    num_output: 32
    kernel_size: 1
    weight_filler {
      type: "xavier"
    }
    bias_filler {
      type: "constant"
      value: 0.2
    }
  }
}
layer {
  name: "inception_3b/relu_5x5_reduce"
  type: "ReLU"
  bottom: "inception_3b/5x5_reduce"
  top: "inception_3b/5x5_reduce"
}
layer {
  name: "inception_3b/5x5"
  type: "Convolution"
  bottom: "inception_3b/5x5_reduce"
  top: "inception_3b/5x5"
  param {
    lr_mult: 1
    decay_mult: 1
  }
  param {
    lr_mult: 2
    decay_mult: 0
  }
  convolution_param {
    num_output: 96
    pad: 2
    kernel_size: 5
    weight_filler {
      type: "xavier"
    }
    bias_filler {
      type: "constant"
      value: 0.2
    }
  }
}
layer {
  name: "inception_3b/relu_5x5"
  type: "ReLU"
  bottom: "inception_3b/5x5"
  top: "inception_3b/5x5"
}
layer {
  name: "inception_3b/pool"
  type: "Pooling"
  bottom: "inception_3a/output"
  top: "inception_3b/pool"
  pooling_param {
    pool: MAX
    kernel_size: 3
    stride: 1
    pad: 1
  }
}
layer {
  name: "inception_3b/pool_proj"
  type: "Convolution"
  bottom: "inception_3b/pool"
  top: "inception_3b/pool_proj"
  param {
    lr_mult: 1
    decay_mult: 1
  }
  param {
    lr_mult: 2
    decay_mult: 0
  }
  convolution_param {
    num_output: 64
    kernel_size: 1
    weight_filler {
      type: "xavier"
    }
    bias_filler {
      type: "constant"
      value: 0.2
    }
  }
}
layer {
  name: "inception_3b/relu_pool_proj"
  type: "ReLU"
  bottom: "inception_3b/pool_proj"
  top: "inception_3b/pool_proj"
}
layer {
  name: "inception_3b/output"
  type: "Concat"
  bottom: "inception_3b/1x1"
  bottom: "inception_3b/3x3"
  bottom: "inception_3b/5x5"
  bottom: "inception_3b/pool_proj"
  top: "inception_3b/output"
}
layer {
  name: "pool3/3x3_s2"
  type: "Pooling"
  bottom: "inception_3b/output"
  top: "pool3/3x3_s2"
  pooling_param {
    pool: MAX
    kernel_size: 3
    stride: 2
  }
}
layer {
  name: "inception_4a/1x1"
  type: "Convolution"
  bottom: "pool3/3x3_s2"
  top: "inception_4a/1x1"
  param {
    lr_mult: 1
    decay_mult: 1
  }
  param {
    lr_mult: 2
    decay_mult: 0
  }
  convolution_param {
    num_output: 192
    kernel_size: 1
    weight_filler {
      type: "xavier"
    }
    bias_filler {
      type: "constant"
      value: 0.2
    }
  }
}
layer {
  name: "inception_4a/relu_1x1"
  type: "ReLU"
  bottom: "inception_4a/1x1"
  top: "inception_4a/1x1"
}
layer {
  name: "inception_4a/3x3_reduce"
  type: "Convolution"
  bottom: "pool3/3x3_s2"
  top: "inception_4a/3x3_reduce"
  param {
    lr_mult: 1
    decay_mult: 1
  }
  param {
    lr_mult: 2
    decay_mult: 0
  }
  convolution_param {
    num_output: 96
    kernel_size: 1
    weight_filler {
      type: "xavier"
    }
    bias_filler {
      type: "constant"
      value: 0.2
    }
  }
}
layer {
  name: "inception_4a/relu_3x3_reduce"
  type: "ReLU"
  bottom: "inception_4a/3x3_reduce"
  top: "inception_4a/3x3_reduce"
}
layer {
  name: "inception_4a/3x3"
  type: "Convolution"
  bottom: "inception_4a/3x3_reduce"
  top: "inception_4a/3x3"
  param {
    lr_mult: 1
    decay_mult: 1
  }
  param {
    lr_mult: 2
    decay_mult: 0
  }
  convolution_param {
    num_output: 208
    pad: 1
    kernel_size: 3
    weight_filler {
      type: "xavier"
    }
    bias_filler {
      type: "constant"
      value: 0.2
    }
  }
}
layer {
  name: "inception_4a/relu_3x3"
  type: "ReLU"
  bottom: "inception_4a/3x3"
  top: "inception_4a/3x3"
}
layer {
  name: "inception_4a/5x5_reduce"
  type: "Convolution"
  bottom: "pool3/3x3_s2"
  top: "inception_4a/5x5_reduce"
  param {
    lr_mult: 1
    decay_mult: 1
  }
  param {
    lr_mult: 2
    decay_mult: 0
  }
  convolution_param {
    num_output: 16
    kernel_size: 1
    weight_filler {
      type: "xavier"
    }
    bias_filler {
      type: "constant"
      value: 0.2
    }
  }
}
layer {
  name: "inception_4a/relu_5x5_reduce"
  type: "ReLU"
  bottom: "inception_4a/5x5_reduce"
  top: "inception_4a/5x5_reduce"
}
layer {
  name: "inception_4a/5x5"
  type: "Convolution"
  bottom: "inception_4a/5x5_reduce"
  top: "inception_4a/5x5"
  param {
    lr_mult: 1
    decay_mult: 1
  }
  param {
    lr_mult: 2
    decay_mult: 0
  }
  convolution_param {
    num_output: 48
    pad: 2
    kernel_size: 5
    weight_filler {
      type: "xavier"
    }
    bias_filler {
      type: "constant"
      value: 0.2
    }
  }
}
layer {
  name: "inception_4a/relu_5x5"
  type: "ReLU"
  bottom: "inception_4a/5x5"
  top: "inception_4a/5x5"
}
layer {
  name: "inception_4a/pool"
  type: "Pooling"
  bottom: "pool3/3x3_s2"
  top: "inception_4a/pool"
  pooling_param {
    pool: MAX
    kernel_size: 3
    stride: 1
    pad: 1
  }
}
layer {
  name: "inception_4a/pool_proj"
  type: "Convolution"
  bottom: "inception_4a/pool"
  top: "inception_4a/pool_proj"
  param {
    lr_mult: 1
    decay_mult: 1
  }
  param {
    lr_mult: 2
    decay_mult: 0
  }
  convolution_param {
    num_output: 64
    kernel_size: 1
    weight_filler {
      type: "xavier"
    }
    bias_filler {
      type: "constant"
      value: 0.2
    }
  }
}
layer {
  name: "inception_4a/relu_pool_proj"
  type: "ReLU"
  bottom: "inception_4a/pool_proj"
  top: "inception_4a/pool_proj"
}
layer {
  name: "inception_4a/output"
  type: "Concat"
  bottom: "inception_4a/1x1"
  bottom: "inception_4a/3x3"
  bottom: "inception_4a/5x5"
  bottom: "inception_4a/pool_proj"
  top: "inception_4a/output"
}
layer {
  name: "loss1/ave_pool"
  type: "Pooling"
  bottom: "inception_4a/output"
  top: "loss1/ave_pool"
  pooling_param {
    pool: AVE
    kernel_size: 5
    stride: 3
  }
}
layer {
  name: "loss1/conv"
  type: "Convolution"
  bottom: "loss1/ave_pool"
  top: "loss1/conv"
  param {
    lr_mult: 1
    decay_mult: 1
  }
  param {
    lr_mult: 2
    decay_mult: 0
  }
  convolution_param {
    num_output: 128
    kernel_size: 1
    weight_filler {
      type: "xavier"
    }
    bias_filler {
      type: "constant"
      value: 0.2
    }
  }
}
layer {
  name: "loss1/relu_conv"
  type: "ReLU"
  bottom: "loss1/conv"
  top: "loss1/conv"
}
layer {
  name: "loss1/fc"
  type: "InnerProduct"
  bottom: "loss1/conv"
  top: "loss1/fc"
  param {
    lr_mult: 1
    decay_mult: 1
  }
  param {
    lr_mult: 2
    decay_mult: 0
  }
  inner_product_param {
    num_output: 1024
    weight_filler {
      type: "xavier"
    }
    bias_filler {
      type: "constant"
      value: 0.2
    }
  }
}
layer {
  name: "loss1/relu_fc"
  type: "ReLU"
  bottom: "loss1/fc"
  top: "loss1/fc"
}
layer {
  name: "loss1/drop_fc"
  type: "Dropout"
  bottom: "loss1/fc"
  top: "loss1/fc"
  dropout_param {
    dropout_ratio: 0.7
  }
}
layer {
  name: "loss1/classifier"
  type: "InnerProduct"
  bottom: "loss1/fc"
  top: "loss1/classifier"
  param {
    lr_mult: 1
    decay_mult: 1
  }
  param {
    lr_mult: 2
    decay_mult: 0
  }
  inner_product_param {
    num_output: 1000
    weight_filler {
      type: "xavier"
    }
    bias_filler {
      type: "constant"
      value: 0
    }
  }
}
layer {
  name: "loss1/loss"
  type: "SoftmaxWithLoss"
  bottom: "loss1/classifier"
  bottom: "label"
  top: "loss1/loss1"
  loss_weight: 0.3
}
layer {
  name: "inception_4b/1x1"
  type: "Convolution"
  bottom: "inception_4a/output"
  top: "inception_4b/1x1"
  param {
    lr_mult: 1
    decay_mult: 1
  }
  param {
    lr_mult: 2
    decay_mult: 0
  }
  convolution_param {
    num_output: 160
    kernel_size: 1
    weight_filler {
      type: "xavier"
    }
    bias_filler {
      type: "constant"
      value: 0.2
    }
  }
}
layer {
  name: "inception_4b/relu_1x1"
  type: "ReLU"
  bottom: "inception_4b/1x1"
  top: "inception_4b/1x1"
}
layer {
  name: "inception_4b/3x3_reduce"
  type: "Convolution"
  bottom: "inception_4a/output"
  top: "inception_4b/3x3_reduce"
  param {
    lr_mult: 1
    decay_mult: 1
  }
  param {
    lr_mult: 2
    decay_mult: 0
  }
  convolution_param {
    num_output: 112
    kernel_size: 1
    weight_filler {
      type: "xavier"
    }
    bias_filler {
      type: "constant"
      value: 0.2
    }
  }
}
layer {
  name: "inception_4b/relu_3x3_reduce"
  type: "ReLU"
  bottom: "inception_4b/3x3_reduce"
  top: "inception_4b/3x3_reduce"
}
layer {
  name: "inception_4b/3x3"
  type: "Convolution"
  bottom: "inception_4b/3x3_reduce"
  top: "inception_4b/3x3"
  param {
    lr_mult: 1
    decay_mult: 1
  }
  param {
    lr_mult: 2
    decay_mult: 0
  }
  convolution_param {
    num_output: 224
    pad: 1
    kernel_size: 3
    weight_filler {
      type: "xavier"
    }
    bias_filler {
      type: "constant"
      value: 0.2
    }
  }
}
layer {
  name: "inception_4b/relu_3x3"
  type: "ReLU"
  bottom: "inception_4b/3x3"
  top: "inception_4b/3x3"
}
layer {
  name: "inception_4b/5x5_reduce"
  type: "Convolution"
  bottom: "inception_4a/output"
  top: "inception_4b/5x5_reduce"
  param {
    lr_mult: 1
    decay_mult: 1
  }
  param {
    lr_mult: 2
    decay_mult: 0
  }
  convolution_param {
    num_output: 24
    kernel_size: 1
    weight_filler {
      type: "xavier"
    }
    bias_filler {
      type: "constant"
      value: 0.2
    }
  }
}
layer {
  name: "inception_4b/relu_5x5_reduce"
  type: "ReLU"
  bottom: "inception_4b/5x5_reduce"
  top: "inception_4b/5x5_reduce"
}
layer {
  name: "inception_4b/5x5"
  type: "Convolution"
  bottom: "inception_4b/5x5_reduce"
  top: "inception_4b/5x5"
  param {
    lr_mult: 1
    decay_mult: 1
  }
  param {
    lr_mult: 2
    decay_mult: 0
  }
  convolution_param {
    num_output: 64
    pad: 2
    kernel_size: 5
    weight_filler {
      type: "xavier"
    }
    bias_filler {
      type: "constant"
      value: 0.2
    }
  }
}
layer {
  name: "inception_4b/relu_5x5"
  type: "ReLU"
  bottom: "inception_4b/5x5"
  top: "inception_4b/5x5"
}
layer {
  name: "inception_4b/pool"
  type: "Pooling"
  bottom: "inception_4a/output"
  top: "inception_4b/pool"
  pooling_param {
    pool: MAX
    kernel_size: 3
    stride: 1
    pad: 1
  }
}
layer {
  name: "inception_4b/pool_proj"
  type: "Convolution"
  bottom: "inception_4b/pool"
  top: "inception_4b/pool_proj"
  param {
    lr_mult: 1
    decay_mult: 1
  }
  param {
    lr_mult: 2
    decay_mult: 0
  }
  convolution_param {
    num_output: 64
    kernel_size: 1
    weight_filler {
      type: "xavier"
    }
    bias_filler {
      type: "constant"
      value: 0.2
    }
  }
}
layer {
  name: "inception_4b/relu_pool_proj"
  type: "ReLU"
  bottom: "inception_4b/pool_proj"
  top: "inception_4b/pool_proj"
}
layer {
  name: "inception_4b/output"
  type: "Concat"
  bottom: "inception_4b/1x1"
  bottom: "inception_4b/3x3"
  bottom: "inception_4b/5x5"
  bottom: "inception_4b/pool_proj"
  top: "inception_4b/output"
}
layer {
  name: "inception_4c/1x1"
  type: "Convolution"
  bottom: "inception_4b/output"
  top: "inception_4c/1x1"
  param {
    lr_mult: 1
    decay_mult: 1
  }
  param {
    lr_mult: 2
    decay_mult: 0
  }
  convolution_param {
    num_output: 128
    kernel_size: 1
    weight_filler {
      type: "xavier"
    }
    bias_filler {
      type: "constant"
      value: 0.2
    }
  }
}
layer {
  name: "inception_4c/relu_1x1"
  type: "ReLU"
  bottom: "inception_4c/1x1"
  top: "inception_4c/1x1"
}
layer {
  name: "inception_4c/3x3_reduce"
  type: "Convolution"
  bottom: "inception_4b/output"
  top: "inception_4c/3x3_reduce"
  param {
    lr_mult: 1
    decay_mult: 1
  }
  param {
    lr_mult: 2
    decay_mult: 0
  }
  convolution_param {
    num_output: 128
    kernel_size: 1
    weight_filler {
      type: "xavier"
    }
    bias_filler {
      type: "constant"
      value: 0.2
    }
  }
}
layer {
  name: "inception_4c/relu_3x3_reduce"
  type: "ReLU"
  bottom: "inception_4c/3x3_reduce"
  top: "inception_4c/3x3_reduce"
}
layer {
  name: "inception_4c/3x3"
  type: "Convolution"
  bottom: "inception_4c/3x3_reduce"
  top: "inception_4c/3x3"
  param {
    lr_mult: 1
    decay_mult: 1
  }
  param {
    lr_mult: 2
    decay_mult: 0
  }
  convolution_param {
    num_output: 256
    pad: 1
    kernel_size: 3
    weight_filler {
      type: "xavier"
    }
    bias_filler {
      type: "constant"
      value: 0.2
    }
  }
}
layer {
  name: "inception_4c/relu_3x3"
  type: "ReLU"
  bottom: "inception_4c/3x3"
  top: "inception_4c/3x3"
}
layer {
  name: "inception_4c/5x5_reduce"
  type: "Convolution"
  bottom: "inception_4b/output"
  top: "inception_4c/5x5_reduce"
  param {
    lr_mult: 1
    decay_mult: 1
  }
  param {
    lr_mult: 2
    decay_mult: 0
  }
  convolution_param {
    num_output: 24
    kernel_size: 1
    weight_filler {
      type: "xavier"
    }
    bias_filler {
      type: "constant"
      value: 0.2
    }
  }
}
layer {
  name: "inception_4c/relu_5x5_reduce"
  type: "ReLU"
  bottom: "inception_4c/5x5_reduce"
  top: "inception_4c/5x5_reduce"
}
layer {
  name: "inception_4c/5x5"
  type: "Convolution"
  bottom: "inception_4c/5x5_reduce"
  top: "inception_4c/5x5"
  param {
    lr_mult: 1
    decay_mult: 1
  }
  param {
    lr_mult: 2
    decay_mult: 0
  }
  convolution_param {
    num_output: 64
    pad: 2
    kernel_size: 5
    weight_filler {
      type: "xavier"
    }
    bias_filler {
      type: "constant"
      value: 0.2
    }
  }
}
layer {
  name: "inception_4c/relu_5x5"
  type: "ReLU"
  bottom: "inception_4c/5x5"
  top: "inception_4c/5x5"
}
layer {
  name: "inception_4c/pool"
  type: "Pooling"
  bottom: "inception_4b/output"
  top: "inception_4c/pool"
  pooling_param {
    pool: MAX
    kernel_size: 3
    stride: 1
    pad: 1
  }
}
layer {
  name: "inception_4c/pool_proj"
  type: "Convolution"
  bottom: "inception_4c/pool"
  top: "inception_4c/pool_proj"
  param {
    lr_mult: 1
    decay_mult: 1
  }
  param {
    lr_mult: 2
    decay_mult: 0
  }
  convolution_param {
    num_output: 64
    kernel_size: 1
    weight_filler {
      type: "xavier"
    }
    bias_filler {
      type: "constant"
      value: 0.2
    }
  }
}
layer {
  name: "inception_4c/relu_pool_proj"
  type: "ReLU"
  bottom: "inception_4c/pool_proj"
  top: "inception_4c/pool_proj"
}
layer {
  name: "inception_4c/output"
  type: "Concat"
  bottom: "inception_4c/1x1"
  bottom: "inception_4c/3x3"
  bottom: "inception_4c/5x5"
  bottom: "inception_4c/pool_proj"
  top: "inception_4c/output"
}
layer {
  name: "inception_4d/1x1"
  type: "Convolution"
  bottom: "inception_4c/output"
  top: "inception_4d/1x1"
  param {
    lr_mult: 1
    decay_mult: 1
  }
  param {
    lr_mult: 2
    decay_mult: 0
  }
  convolution_param {
    num_output: 112
    kernel_size: 1
    weight_filler {
      type: "xavier"
    }
    bias_filler {
      type: "constant"
      value: 0.2
    }
  }
}
layer {
  name: "inception_4d/relu_1x1"
  type: "ReLU"
  bottom: "inception_4d/1x1"
  top: "inception_4d/1x1"
}
layer {
  name: "inception_4d/3x3_reduce"
  type: "Convolution"
  bottom: "inception_4c/output"
  top: "inception_4d/3x3_reduce"
  param {
    lr_mult: 1
    decay_mult: 1
  }
  param {
    lr_mult: 2
    decay_mult: 0
  }
  convolution_param {
    num_output: 144
    kernel_size: 1
    weight_filler {
      type: "xavier"
    }
    bias_filler {
      type: "constant"
      value: 0.2
    }
  }
}
layer {
  name: "inception_4d/relu_3x3_reduce"
  type: "ReLU"
  bottom: "inception_4d/3x3_reduce"
  top: "inception_4d/3x3_reduce"
}
layer {
  name: "inception_4d/3x3"
  type: "Convolution"
  bottom: "inception_4d/3x3_reduce"
  top: "inception_4d/3x3"
  param {
    lr_mult: 1
    decay_mult: 1
  }
  param {
    lr_mult: 2
    decay_mult: 0
  }
  convolution_param {
    num_output: 288
    pad: 1
    kernel_size: 3
    weight_filler {
      type: "xavier"
    }
    bias_filler {
      type: "constant"
      value: 0.2
    }
  }
}
layer {
  name: "inception_4d/relu_3x3"
  type: "ReLU"
  bottom: "inception_4d/3x3"
  top: "inception_4d/3x3"
}
layer {
  name: "inception_4d/5x5_reduce"
  type: "Convolution"
  bottom: "inception_4c/output"
  top: "inception_4d/5x5_reduce"
  param {
    lr_mult: 1
    decay_mult: 1
  }
  param {
    lr_mult: 2
    decay_mult: 0
  }
  convolution_param {
    num_output: 32
    kernel_size: 1
    weight_filler {
      type: "xavier"
    }
    bias_filler {
      type: "constant"
      value: 0.2
    }
  }
}
layer {
  name: "inception_4d/relu_5x5_reduce"
  type: "ReLU"
  bottom: "inception_4d/5x5_reduce"
  top: "inception_4d/5x5_reduce"
}
layer {
  name: "inception_4d/5x5"
  type: "Convolution"
  bottom: "inception_4d/5x5_reduce"
  top: "inception_4d/5x5"
  param {
    lr_mult: 1
    decay_mult: 1
  }
  param {
    lr_mult: 2
    decay_mult: 0
  }
  convolution_param {
    num_output: 64
    pad: 2
    kernel_size: 5
    weight_filler {
      type: "xavier"
    }
    bias_filler {
      type: "constant"
      value: 0.2
    }
  }
}
layer {
  name: "inception_4d/relu_5x5"
  type: "ReLU"
  bottom: "inception_4d/5x5"
  top: "inception_4d/5x5"
}
layer {
  name: "inception_4d/pool"
  type: "Pooling"
  bottom: "inception_4c/output"
  top: "inception_4d/pool"
  pooling_param {
    pool: MAX
    kernel_size: 3
    stride: 1
    pad: 1
  }
}
layer {
  name: "inception_4d/pool_proj"
  type: "Convolution"
  bottom: "inception_4d/pool"
  top: "inception_4d/pool_proj"
  param {
    lr_mult: 1
    decay_mult: 1
  }
  param {
    lr_mult: 2
    decay_mult: 0
  }
  convolution_param {
    num_output: 64
    kernel_size: 1
    weight_filler {
      type: "xavier"
    }
    bias_filler {
      type: "constant"
      value: 0.2
    }
  }
}
layer {
  name: "inception_4d/relu_pool_proj"
  type: "ReLU"
  bottom: "inception_4d/pool_proj"
  top: "inception_4d/pool_proj"
}
layer {
  name: "inception_4d/output"
  type: "Concat"
  bottom: "inception_4d/1x1"
  bottom: "inception_4d/3x3"
  bottom: "inception_4d/5x5"
  bottom: "inception_4d/pool_proj"
  top: "inception_4d/output"
}
layer {
  name: "loss2/ave_pool"
  type: "Pooling"
  bottom: "inception_4d/output"
  top: "loss2/ave_pool"
  pooling_param {
    pool: AVE
    kernel_size: 5
    stride: 3
  }
}
layer {
  name: "loss2/conv"
  type: "Convolution"
  bottom: "loss2/ave_pool"
  top: "loss2/conv"
  param {
    lr_mult: 1
    decay_mult: 1
  }
  param {
    lr_mult: 2
    decay_mult: 0
  }
  convolution_param {
    num_output: 128
    kernel_size: 1
    weight_filler {
      type: "xavier"
    }
    bias_filler {
      type: "constant"
      value: 0.2
    }
  }
}
layer {
  name: "loss2/relu_conv"
  type: "ReLU"
  bottom: "loss2/conv"
  top: "loss2/conv"
}
layer {
  name: "loss2/fc"
  type: "InnerProduct"
  bottom: "loss2/conv"
  top: "loss2/fc"
  param {
    lr_mult: 1
    decay_mult: 1
  }
  param {
    lr_mult: 2
    decay_mult: 0
  }
  inner_product_param {
    num_output: 1024
    weight_filler {
      type: "xavier"
    }
    bias_filler {
      type: "constant"
      value: 0.2
    }
  }
}
layer {
  name: "loss2/relu_fc"
  type: "ReLU"
  bottom: "loss2/fc"
  top: "loss2/fc"
}
layer {
  name: "loss2/drop_fc"
  type: "Dropout"
  bottom: "loss2/fc"
  top: "loss2/fc"
  dropout_param {
    dropout_ratio: 0.7
  }
}
layer {
  name: "loss2/classifier"
  type: "InnerProduct"
  bottom: "loss2/fc"
  top: "loss2/classifier"
  param {
    lr_mult: 1
    decay_mult: 1
  }
  param {
    lr_mult: 2
    decay_mult: 0
  }
  inner_product_param {
    num_output: 1000
    weight_filler {
      type: "xavier"
    }
    bias_filler {
      type: "constant"
      value: 0
    }
  }
}
layer {
  name: "loss2/loss"
  type: "SoftmaxWithLoss"
  bottom: "loss2/classifier"
  bottom: "label"
  top: "loss2/loss1"
  loss_weight: 0.3
}
layer {
  name: "inception_4e/1x1"
  type: "Convolution"
  bottom: "inception_4d/output"
  top: "inception_4e/1x1"
  param {
    lr_mult: 1
    decay_mult: 1
  }
  param {
    lr_mult: 2
    decay_mult: 0
  }
  convolution_param {
    num_output: 256
    kernel_size: 1
    weight_filler {
      type: "xavier"
    }
    bias_filler {
      type: "constant"
      value: 0.2
    }
  }
}
layer {
  name: "inception_4e/relu_1x1"
  type: "ReLU"
  bottom: "inception_4e/1x1"
  top: "inception_4e/1x1"
}
layer {
  name: "inception_4e/3x3_reduce"
  type: "Convolution"
  bottom: "inception_4d/output"
  top: "inception_4e/3x3_reduce"
  param {
    lr_mult: 1
    decay_mult: 1
  }
  param {
    lr_mult: 2
    decay_mult: 0
  }
  convolution_param {
    num_output: 160
    kernel_size: 1
    weight_filler {
      type: "xavier"
    }
    bias_filler {
      type: "constant"
      value: 0.2
    }
  }
}
layer {
  name: "inception_4e/relu_3x3_reduce"
  type: "ReLU"
  bottom: "inception_4e/3x3_reduce"
  top: "inception_4e/3x3_reduce"
}
layer {
  name: "inception_4e/3x3"
  type: "Convolution"
  bottom: "inception_4e/3x3_reduce"
  top: "inception_4e/3x3"
  param {
    lr_mult: 1
    decay_mult: 1
  }
  param {
    lr_mult: 2
    decay_mult: 0
  }
  convolution_param {
    num_output: 320
    pad: 1
    kernel_size: 3
    weight_filler {
      type: "xavier"
    }
    bias_filler {
      type: "constant"
      value: 0.2
    }
  }
}
layer {
  name: "inception_4e/relu_3x3"
  type: "ReLU"
  bottom: "inception_4e/3x3"
  top: "inception_4e/3x3"
}
layer {
  name: "inception_4e/5x5_reduce"
  type: "Convolution"
  bottom: "inception_4d/output"
  top: "inception_4e/5x5_reduce"
  param {
    lr_mult: 1
    decay_mult: 1
  }
  param {
    lr_mult: 2
    decay_mult: 0
  }
  convolution_param {
    num_output: 32
    kernel_size: 1
    weight_filler {
      type: "xavier"
    }
    bias_filler {
      type: "constant"
      value: 0.2
    }
  }
}
layer {
  name: "inception_4e/relu_5x5_reduce"
  type: "ReLU"
  bottom: "inception_4e/5x5_reduce"
  top: "inception_4e/5x5_reduce"
}
layer {
  name: "inception_4e/5x5"
  type: "Convolution"
  bottom: "inception_4e/5x5_reduce"
  top: "inception_4e/5x5"
  param {
    lr_mult: 1
    decay_mult: 1
  }
  param {
    lr_mult: 2
    decay_mult: 0
  }
  convolution_param {
    num_output: 128
    pad: 2
    kernel_size: 5
    weight_filler {
      type: "xavier"
    }
    bias_filler {
      type: "constant"
      value: 0.2
    }
  }
}
layer {
  name: "inception_4e/relu_5x5"
  type: "ReLU"
  bottom: "inception_4e/5x5"
  top: "inception_4e/5x5"
}
layer {
  name: "inception_4e/pool"
  type: "Pooling"
  bottom: "inception_4d/output"
  top: "inception_4e/pool"
  pooli
I0201 12:15:03.493772 12095 layer_factory.hpp:77] Creating layer data
I0201 12:15:03.494629 12095 net.cpp:100] Creating Layer data
I0201 12:15:03.494678 12095 net.cpp:408] data -> data
I0201 12:15:03.494909 12095 net.cpp:408] data -> label
I0201 12:15:03.495110 12096 db_lmdb.cpp:35] Opened lmdb /home/user/caffeOMP/original/caffe/examples/imagenet/ilsvrc12_train_lmdb
I0201 12:15:03.495947 12095 data_layer.cpp:41] output data size: 32,3,224,224
I0201 12:15:03.534729 12095 net.cpp:150] Setting up data
I0201 12:15:03.534855 12095 net.cpp:157] Top shape: 32 3 224 224 (4816896)
I0201 12:15:03.534878 12095 net.cpp:157] Top shape: 32 (32)
I0201 12:15:03.534903 12095 net.cpp:165] Memory required for data: 19267712
I0201 12:15:03.534920 12095 layer_factory.hpp:77] Creating layer label_data_1_split
I0201 12:15:03.534945 12095 net.cpp:100] Creating Layer label_data_1_split
I0201 12:15:03.534956 12095 net.cpp:434] label_data_1_split <- label
I0201 12:15:03.534977 12095 net.cpp:408] label_data_1_split -> label_data_1_split_0
I0201 12:15:03.534998 12095 net.cpp:408] label_data_1_split -> label_data_1_split_1
I0201 12:15:03.535012 12095 net.cpp:408] label_data_1_split -> label_data_1_split_2
I0201 12:15:03.535045 12095 net.cpp:150] Setting up label_data_1_split
I0201 12:15:03.535071 12095 net.cpp:157] Top shape: 32 (32)
I0201 12:15:03.535082 12095 net.cpp:157] Top shape: 32 (32)
I0201 12:15:03.535092 12095 net.cpp:157] Top shape: 32 (32)
I0201 12:15:03.535100 12095 net.cpp:165] Memory required for data: 19268096
I0201 12:15:03.535109 12095 layer_factory.hpp:77] Creating layer conv1/7x7_s2
I0201 12:15:03.535140 12095 net.cpp:100] Creating Layer conv1/7x7_s2
I0201 12:15:03.535151 12095 net.cpp:434] conv1/7x7_s2 <- data
I0201 12:15:03.535169 12095 net.cpp:408] conv1/7x7_s2 -> conv1/7x7_s2
I0201 12:15:03.535545 12095 net.cpp:150] Setting up conv1/7x7_s2
I0201 12:15:03.535567 12095 net.cpp:157] Top shape: 32 64 112 112 (25690112)
I0201 12:15:03.535575 12095 net.cpp:165] Memory required for data: 122028544
I0201 12:15:03.535615 12095 layer_factory.hpp:77] Creating layer conv1/relu_7x7
I0201 12:15:03.535640 12095 net.cpp:100] Creating Layer conv1/relu_7x7
I0201 12:15:03.535650 12095 net.cpp:434] conv1/relu_7x7 <- conv1/7x7_s2
I0201 12:15:03.535662 12095 net.cpp:395] conv1/relu_7x7 -> conv1/7x7_s2 (in-place)
I0201 12:15:03.535679 12095 net.cpp:150] Setting up conv1/relu_7x7
I0201 12:15:03.535691 12095 net.cpp:157] Top shape: 32 64 112 112 (25690112)
I0201 12:15:03.535701 12095 net.cpp:165] Memory required for data: 224788992
I0201 12:15:03.535709 12095 layer_factory.hpp:77] Creating layer pool1/3x3_s2
I0201 12:15:03.535728 12095 net.cpp:100] Creating Layer pool1/3x3_s2
I0201 12:15:03.535738 12095 net.cpp:434] pool1/3x3_s2 <- conv1/7x7_s2
I0201 12:15:03.535750 12095 net.cpp:408] pool1/3x3_s2 -> pool1/3x3_s2
I0201 12:15:03.535780 12095 net.cpp:150] Setting up pool1/3x3_s2
I0201 12:15:03.535794 12095 net.cpp:157] Top shape: 32 64 56 56 (6422528)
I0201 12:15:03.535802 12095 net.cpp:165] Memory required for data: 250479104
I0201 12:15:03.535811 12095 layer_factory.hpp:77] Creating layer pool1/norm1
I0201 12:15:03.535830 12095 net.cpp:100] Creating Layer pool1/norm1
I0201 12:15:03.535840 12095 net.cpp:434] pool1/norm1 <- pool1/3x3_s2
I0201 12:15:03.535856 12095 net.cpp:408] pool1/norm1 -> pool1/norm1
I0201 12:15:03.535878 12095 net.cpp:150] Setting up pool1/norm1
I0201 12:15:03.535890 12095 net.cpp:157] Top shape: 32 64 56 56 (6422528)
I0201 12:15:03.535899 12095 net.cpp:165] Memory required for data: 276169216
I0201 12:15:03.535908 12095 layer_factory.hpp:77] Creating layer conv2/3x3_reduce
I0201 12:15:03.535928 12095 net.cpp:100] Creating Layer conv2/3x3_reduce
I0201 12:15:03.535938 12095 net.cpp:434] conv2/3x3_reduce <- pool1/norm1
I0201 12:15:03.535951 12095 net.cpp:408] conv2/3x3_reduce -> conv2/3x3_reduce
I0201 12:15:03.536042 12095 net.cpp:150] Setting up conv2/3x3_reduce
I0201 12:15:03.536057 12095 net.cpp:157] Top shape: 32 64 56 56 (6422528)
I0201 12:15:03.536067 12095 net.cpp:165] Memory required for data: 301859328
I0201 12:15:03.536083 12095 layer_factory.hpp:77] Creating layer conv2/relu_3x3_reduce
I0201 12:15:03.536099 12095 net.cpp:100] Creating Layer conv2/relu_3x3_reduce
I0201 12:15:03.536109 12095 net.cpp:434] conv2/relu_3x3_reduce <- conv2/3x3_reduce
I0201 12:15:03.536121 12095 net.cpp:395] conv2/relu_3x3_reduce -> conv2/3x3_reduce (in-place)
I0201 12:15:03.536134 12095 net.cpp:150] Setting up conv2/relu_3x3_reduce
I0201 12:15:03.536145 12095 net.cpp:157] Top shape: 32 64 56 56 (6422528)
I0201 12:15:03.536154 12095 net.cpp:165] Memory required for data: 327549440
I0201 12:15:03.536164 12095 layer_factory.hpp:77] Creating layer conv2/3x3
I0201 12:15:03.536182 12095 net.cpp:100] Creating Layer conv2/3x3
I0201 12:15:03.536193 12095 net.cpp:434] conv2/3x3 <- conv2/3x3_reduce
I0201 12:15:03.536234 12095 net.cpp:408] conv2/3x3 -> conv2/3x3
I0201 12:15:03.537657 12095 net.cpp:150] Setting up conv2/3x3
I0201 12:15:03.537677 12095 net.cpp:157] Top shape: 32 192 56 56 (19267584)
I0201 12:15:03.537685 12095 net.cpp:165] Memory required for data: 404619776
I0201 12:15:03.537703 12095 layer_factory.hpp:77] Creating layer conv2/relu_3x3
I0201 12:15:03.537714 12095 net.cpp:100] Creating Layer conv2/relu_3x3
I0201 12:15:03.537724 12095 net.cpp:434] conv2/relu_3x3 <- conv2/3x3
I0201 12:15:03.537757 12095 net.cpp:395] conv2/relu_3x3 -> conv2/3x3 (in-place)
I0201 12:15:03.537772 12095 net.cpp:150] Setting up conv2/relu_3x3
I0201 12:15:03.537784 12095 net.cpp:157] Top shape: 32 192 56 56 (19267584)
I0201 12:15:03.537792 12095 net.cpp:165] Memory required for data: 481690112
I0201 12:15:03.537801 12095 layer_factory.hpp:77] Creating layer conv2/norm2
I0201 12:15:03.537813 12095 net.cpp:100] Creating Layer conv2/norm2
I0201 12:15:03.537823 12095 net.cpp:434] conv2/norm2 <- conv2/3x3
I0201 12:15:03.537838 12095 net.cpp:408] conv2/norm2 -> conv2/norm2
I0201 12:15:03.537854 12095 net.cpp:150] Setting up conv2/norm2
I0201 12:15:03.537866 12095 net.cpp:157] Top shape: 32 192 56 56 (19267584)
I0201 12:15:03.537874 12095 net.cpp:165] Memory required for data: 558760448
I0201 12:15:03.537883 12095 layer_factory.hpp:77] Creating layer pool2/3x3_s2
I0201 12:15:03.537895 12095 net.cpp:100] Creating Layer pool2/3x3_s2
I0201 12:15:03.537904 12095 net.cpp:434] pool2/3x3_s2 <- conv2/norm2
I0201 12:15:03.537919 12095 net.cpp:408] pool2/3x3_s2 -> pool2/3x3_s2
I0201 12:15:03.537935 12095 net.cpp:150] Setting up pool2/3x3_s2
I0201 12:15:03.537947 12095 net.cpp:157] Top shape: 32 192 28 28 (4816896)
I0201 12:15:03.537955 12095 net.cpp:165] Memory required for data: 578028032
I0201 12:15:03.537964 12095 layer_factory.hpp:77] Creating layer pool2/3x3_s2_pool2/3x3_s2_0_split
I0201 12:15:03.537976 12095 net.cpp:100] Creating Layer pool2/3x3_s2_pool2/3x3_s2_0_split
I0201 12:15:03.537986 12095 net.cpp:434] pool2/3x3_s2_pool2/3x3_s2_0_split <- pool2/3x3_s2
I0201 12:15:03.537997 12095 net.cpp:408] pool2/3x3_s2_pool2/3x3_s2_0_split -> pool2/3x3_s2_pool2/3x3_s2_0_split_0
I0201 12:15:03.538010 12095 net.cpp:408] pool2/3x3_s2_pool2/3x3_s2_0_split -> pool2/3x3_s2_pool2/3x3_s2_0_split_1
I0201 12:15:03.538023 12095 net.cpp:408] pool2/3x3_s2_pool2/3x3_s2_0_split -> pool2/3x3_s2_pool2/3x3_s2_0_split_2
I0201 12:15:03.538036 12095 net.cpp:408] pool2/3x3_s2_pool2/3x3_s2_0_split -> pool2/3x3_s2_pool2/3x3_s2_0_split_3
I0201 12:15:03.538054 12095 net.cpp:150] Setting up pool2/3x3_s2_pool2/3x3_s2_0_split
I0201 12:15:03.538066 12095 net.cpp:157] Top shape: 32 192 28 28 (4816896)
I0201 12:15:03.538076 12095 net.cpp:157] Top shape: 32 192 28 28 (4816896)
I0201 12:15:03.538086 12095 net.cpp:157] Top shape: 32 192 28 28 (4816896)
I0201 12:15:03.538097 12095 net.cpp:157] Top shape: 32 192 28 28 (4816896)
I0201 12:15:03.538105 12095 net.cpp:165] Memory required for data: 655098368
I0201 12:15:03.538115 12095 layer_factory.hpp:77] Creating layer inception_3a/1x1
I0201 12:15:03.538130 12095 net.cpp:100] Creating Layer inception_3a/1x1
I0201 12:15:03.538139 12095 net.cpp:434] inception_3a/1x1 <- pool2/3x3_s2_pool2/3x3_s2_0_split_0
I0201 12:15:03.538156 12095 net.cpp:408] inception_3a/1x1 -> inception_3a/1x1
I0201 12:15:03.538364 12095 net.cpp:150] Setting up inception_3a/1x1
I0201 12:15:03.538383 12095 net.cpp:157] Top shape: 32 64 28 28 (1605632)
I0201 12:15:03.538391 12095 net.cpp:165] Memory required for data: 661520896
I0201 12:15:03.538405 12095 layer_factory.hpp:77] Creating layer inception_3a/relu_1x1
I0201 12:15:03.538417 12095 net.cpp:100] Creating Layer inception_3a/relu_1x1
I0201 12:15:03.538426 12095 net.cpp:434] inception_3a/relu_1x1 <- inception_3a/1x1
I0201 12:15:03.538444 12095 net.cpp:395] inception_3a/relu_1x1 -> inception_3a/1x1 (in-place)
I0201 12:15:03.538458 12095 net.cpp:150] Setting up inception_3a/relu_1x1
I0201 12:15:03.538470 12095 net.cpp:157] Top shape: 32 64 28 28 (1605632)
I0201 12:15:03.538478 12095 net.cpp:165] Memory required for data: 667943424
I0201 12:15:03.538488 12095 layer_factory.hpp:77] Creating layer inception_3a/3x3_reduce
I0201 12:15:03.538506 12095 net.cpp:100] Creating Layer inception_3a/3x3_reduce
I0201 12:15:03.538516 12095 net.cpp:434] inception_3a/3x3_reduce <- pool2/3x3_s2_pool2/3x3_s2_0_split_1
I0201 12:15:03.538528 12095 net.cpp:408] inception_3a/3x3_reduce -> inception_3a/3x3_reduce
I0201 12:15:03.538781 12095 net.cpp:150] Setting up inception_3a/3x3_reduce
I0201 12:15:03.538803 12095 net.cpp:157] Top shape: 32 96 28 28 (2408448)
I0201 12:15:03.538822 12095 net.cpp:165] Memory required for data: 677577216
I0201 12:15:03.538839 12095 layer_factory.hpp:77] Creating layer inception_3a/relu_3x3_reduce
I0201 12:15:03.538858 12095 net.cpp:100] Creating Layer inception_3a/relu_3x3_reduce
I0201 12:15:03.538868 12095 net.cpp:434] inception_3a/relu_3x3_reduce <- inception_3a/3x3_reduce
I0201 12:15:03.538880 12095 net.cpp:395] inception_3a/relu_3x3_reduce -> inception_3a/3x3_reduce (in-place)
I0201 12:15:03.538893 12095 net.cpp:150] Setting up inception_3a/relu_3x3_reduce
I0201 12:15:03.538905 12095 net.cpp:157] Top shape: 32 96 28 28 (2408448)
I0201 12:15:03.538913 12095 net.cpp:165] Memory required for data: 687211008
I0201 12:15:03.538923 12095 layer_factory.hpp:77] Creating layer inception_3a/3x3
I0201 12:15:03.538940 12095 net.cpp:100] Creating Layer inception_3a/3x3
I0201 12:15:03.538950 12095 net.cpp:434] inception_3a/3x3 <- inception_3a/3x3_reduce
I0201 12:15:03.538962 12095 net.cpp:408] inception_3a/3x3 -> inception_3a/3x3
I0201 12:15:03.540407 12095 net.cpp:150] Setting up inception_3a/3x3
I0201 12:15:03.540429 12095 net.cpp:157] Top shape: 32 128 28 28 (3211264)
I0201 12:15:03.540437 12095 net.cpp:165] Memory required for data: 700056064
I0201 12:15:03.540452 12095 layer_factory.hpp:77] Creating layer inception_3a/relu_3x3
I0201 12:15:03.540463 12095 net.cpp:100] Creating Layer inception_3a/relu_3x3
I0201 12:15:03.540473 12095 net.cpp:434] inception_3a/relu_3x3 <- inception_3a/3x3
I0201 12:15:03.540485 12095 net.cpp:395] inception_3a/relu_3x3 -> inception_3a/3x3 (in-place)
I0201 12:15:03.540498 12095 net.cpp:150] Setting up inception_3a/relu_3x3
I0201 12:15:03.540510 12095 net.cpp:157] Top shape: 32 128 28 28 (3211264)
I0201 12:15:03.540518 12095 net.cpp:165] Memory required for data: 712901120
I0201 12:15:03.540527 12095 layer_factory.hpp:77] Creating layer inception_3a/5x5_reduce
I0201 12:15:03.540549 12095 net.cpp:100] Creating Layer inception_3a/5x5_reduce
I0201 12:15:03.540558 12095 net.cpp:434] inception_3a/5x5_reduce <- pool2/3x3_s2_pool2/3x3_s2_0_split_2
I0201 12:15:03.540571 12095 net.cpp:408] inception_3a/5x5_reduce -> inception_3a/5x5_reduce
I0201 12:15:03.540639 12095 net.cpp:150] Setting up inception_3a/5x5_reduce
I0201 12:15:03.540653 12095 net.cpp:157] Top shape: 32 16 28 28 (401408)
I0201 12:15:03.540663 12095 net.cpp:165] Memory required for data: 714506752
I0201 12:15:03.540674 12095 layer_factory.hpp:77] Creating layer inception_3a/relu_5x5_reduce
I0201 12:15:03.540689 12095 net.cpp:100] Creating Layer inception_3a/relu_5x5_reduce
I0201 12:15:03.540699 12095 net.cpp:434] inception_3a/relu_5x5_reduce <- inception_3a/5x5_reduce
I0201 12:15:03.540711 12095 net.cpp:395] inception_3a/relu_5x5_reduce -> inception_3a/5x5_reduce (in-place)
I0201 12:15:03.540724 12095 net.cpp:150] Setting up inception_3a/relu_5x5_reduce
I0201 12:15:03.540735 12095 net.cpp:157] Top shape: 32 16 28 28 (401408)
I0201 12:15:03.540743 12095 net.cpp:165] Memory required for data: 716112384
I0201 12:15:03.540752 12095 layer_factory.hpp:77] Creating layer inception_3a/5x5
I0201 12:15:03.540769 12095 net.cpp:100] Creating Layer inception_3a/5x5
I0201 12:15:03.540779 12095 net.cpp:434] inception_3a/5x5 <- inception_3a/5x5_reduce
I0201 12:15:03.540792 12095 net.cpp:408] inception_3a/5x5 -> inception_3a/5x5
I0201 12:15:03.540989 12095 net.cpp:150] Setting up inception_3a/5x5
I0201 12:15:03.541005 12095 net.cpp:157] Top shape: 32 32 28 28 (802816)
I0201 12:15:03.541013 12095 net.cpp:165] Memory required for data: 719323648
I0201 12:15:03.541026 12095 layer_factory.hpp:77] Creating layer inception_3a/relu_5x5
I0201 12:15:03.541038 12095 net.cpp:100] Creating Layer inception_3a/relu_5x5
I0201 12:15:03.541048 12095 net.cpp:434] inception_3a/relu_5x5 <- inception_3a/5x5
I0201 12:15:03.541059 12095 net.cpp:395] inception_3a/relu_5x5 -> inception_3a/5x5 (in-place)
I0201 12:15:03.541071 12095 net.cpp:150] Setting up inception_3a/relu_5x5
I0201 12:15:03.541082 12095 net.cpp:157] Top shape: 32 32 28 28 (802816)
I0201 12:15:03.541100 12095 net.cpp:165] Memory required for data: 722534912
I0201 12:15:03.541121 12095 layer_factory.hpp:77] Creating layer inception_3a/pool
I0201 12:15:03.541136 12095 net.cpp:100] Creating Layer inception_3a/pool
I0201 12:15:03.541146 12095 net.cpp:434] inception_3a/pool <- pool2/3x3_s2_pool2/3x3_s2_0_split_3
I0201 12:15:03.541162 12095 net.cpp:408] inception_3a/pool -> inception_3a/pool
I0201 12:15:03.541179 12095 net.cpp:150] Setting up inception_3a/pool
I0201 12:15:03.541191 12095 net.cpp:157] Top shape: 32 192 28 28 (4816896)
I0201 12:15:03.541200 12095 net.cpp:165] Memory required for data: 741802496
I0201 12:15:03.541209 12095 layer_factory.hpp:77] Creating layer inception_3a/pool_proj
I0201 12:15:03.541226 12095 net.cpp:100] Creating Layer inception_3a/pool_proj
I0201 12:15:03.541237 12095 net.cpp:434] inception_3a/pool_proj <- inception_3a/pool
I0201 12:15:03.541260 12095 net.cpp:408] inception_3a/pool_proj -> inception_3a/pool_proj
I0201 12:15:03.541368 12095 net.cpp:150] Setting up inception_3a/pool_proj
I0201 12:15:03.541383 12095 net.cpp:157] Top shape: 32 32 28 28 (802816)
I0201 12:15:03.541391 12095 net.cpp:165] Memory required for data: 745013760
I0201 12:15:03.541411 12095 layer_factory.hpp:77] Creating layer inception_3a/relu_pool_proj
I0201 12:15:03.541424 12095 net.cpp:100] Creating Layer inception_3a/relu_pool_proj
I0201 12:15:03.541437 12095 net.cpp:434] inception_3a/relu_pool_proj <- inception_3a/pool_proj
I0201 12:15:03.541450 12095 net.cpp:395] inception_3a/relu_pool_proj -> inception_3a/pool_proj (in-place)
I0201 12:15:03.541462 12095 net.cpp:150] Setting up inception_3a/relu_pool_proj
I0201 12:15:03.541473 12095 net.cpp:157] Top shape: 32 32 28 28 (802816)
I0201 12:15:03.541482 12095 net.cpp:165] Memory required for data: 748225024
I0201 12:15:03.541491 12095 layer_factory.hpp:77] Creating layer inception_3a/output
I0201 12:15:03.541507 12095 net.cpp:100] Creating Layer inception_3a/output
I0201 12:15:03.541517 12095 net.cpp:434] inception_3a/output <- inception_3a/1x1
I0201 12:15:03.541527 12095 net.cpp:434] inception_3a/output <- inception_3a/3x3
I0201 12:15:03.541537 12095 net.cpp:434] inception_3a/output <- inception_3a/5x5
I0201 12:15:03.541546 12095 net.cpp:434] inception_3a/output <- inception_3a/pool_proj
I0201 12:15:03.541558 12095 net.cpp:408] inception_3a/output -> inception_3a/output
I0201 12:15:03.541581 12095 net.cpp:150] Setting up inception_3a/output
I0201 12:15:03.541594 12095 net.cpp:157] Top shape: 32 256 28 28 (6422528)
I0201 12:15:03.541601 12095 net.cpp:165] Memory required for data: 773915136
I0201 12:15:03.541610 12095 layer_factory.hpp:77] Creating layer inception_3a/output_inception_3a/output_0_split
I0201 12:15:03.541626 12095 net.cpp:100] Creating Layer inception_3a/output_inception_3a/output_0_split
I0201 12:15:03.541636 12095 net.cpp:434] inception_3a/output_inception_3a/output_0_split <- inception_3a/output
I0201 12:15:03.541651 12095 net.cpp:408] inception_3a/output_inception_3a/output_0_split -> inception_3a/output_inception_3a/output_0_split_0
I0201 12:15:03.541666 12095 net.cpp:408] inception_3a/output_inception_3a/output_0_split -> inception_3a/output_inception_3a/output_0_split_1
I0201 12:15:03.541678 12095 net.cpp:408] inception_3a/output_inception_3a/output_0_split -> inception_3a/output_inception_3a/output_0_split_2
I0201 12:15:03.541692 12095 net.cpp:408] inception_3a/output_inception_3a/output_0_split -> inception_3a/output_inception_3a/output_0_split_3
I0201 12:15:03.541707 12095 net.cpp:150] Setting up inception_3a/output_inception_3a/output_0_split
I0201 12:15:03.541719 12095 net.cpp:157] Top shape: 32 256 28 28 (6422528)
I0201 12:15:03.541729 12095 net.cpp:157] Top shape: 32 256 28 28 (6422528)
I0201 12:15:03.541740 12095 net.cpp:157] Top shape: 32 256 28 28 (6422528)
I0201 12:15:03.541750 12095 net.cpp:157] Top shape: 32 256 28 28 (6422528)
I0201 12:15:03.541759 12095 net.cpp:165] Memory required for data: 876675584
I0201 12:15:03.541767 12095 layer_factory.hpp:77] Creating layer inception_3b/1x1
I0201 12:15:03.541792 12095 net.cpp:100] Creating Layer inception_3b/1x1
I0201 12:15:03.541815 12095 net.cpp:434] inception_3b/1x1 <- inception_3a/output_inception_3a/output_0_split_0
I0201 12:15:03.541831 12095 net.cpp:408] inception_3b/1x1 -> inception_3b/1x1
I0201 12:15:03.542315 12095 net.cpp:150] Setting up inception_3b/1x1
I0201 12:15:03.542335 12095 net.cpp:157] Top shape: 32 128 28 28 (3211264)
I0201 12:15:03.542343 12095 net.cpp:165] Memory required for data: 889520640
I0201 12:15:03.542356 12095 layer_factory.hpp:77] Creating layer inception_3b/relu_1x1
I0201 12:15:03.542372 12095 net.cpp:100] Creating Layer inception_3b/relu_1x1
I0201 12:15:03.542382 12095 net.cpp:434] inception_3b/relu_1x1 <- inception_3b/1x1
I0201 12:15:03.542394 12095 net.cpp:395] inception_3b/relu_1x1 -> inception_3b/1x1 (in-place)
I0201 12:15:03.542407 12095 net.cpp:150] Setting up inception_3b/relu_1x1
I0201 12:15:03.542418 12095 net.cpp:157] Top shape: 32 128 28 28 (3211264)
I0201 12:15:03.542426 12095 net.cpp:165] Memory required for data: 902365696
I0201 12:15:03.542434 12095 layer_factory.hpp:77] Creating layer inception_3b/3x3_reduce
I0201 12:15:03.542451 12095 net.cpp:100] Creating Layer inception_3b/3x3_reduce
I0201 12:15:03.542461 12095 net.cpp:434] inception_3b/3x3_reduce <- inception_3a/output_inception_3a/output_0_split_1
I0201 12:15:03.542477 12095 net.cpp:408] inception_3b/3x3_reduce -> inception_3b/3x3_reduce
I0201 12:15:03.542897 12095 net.cpp:150] Setting up inception_3b/3x3_reduce
I0201 12:15:03.542914 12095 net.cpp:157] Top shape: 32 128 28 28 (3211264)
I0201 12:15:03.542922 12095 net.cpp:165] Memory required for data: 915210752
I0201 12:15:03.542935 12095 layer_factory.hpp:77] Creating layer inception_3b/relu_3x3_reduce
I0201 12:15:03.542946 12095 net.cpp:100] Creating Layer inception_3b/relu_3x3_reduce
I0201 12:15:03.542956 12095 net.cpp:434] inception_3b/relu_3x3_reduce <- inception_3b/3x3_reduce
I0201 12:15:03.542970 12095 net.cpp:395] inception_3b/relu_3x3_reduce -> inception_3b/3x3_reduce (in-place)
I0201 12:15:03.542984 12095 net.cpp:150] Setting up inception_3b/relu_3x3_reduce
I0201 12:15:03.542994 12095 net.cpp:157] Top shape: 32 128 28 28 (3211264)
I0201 12:15:03.543002 12095 net.cpp:165] Memory required for data: 928055808
I0201 12:15:03.543011 12095 layer_factory.hpp:77] Creating layer inception_3b/3x3
I0201 12:15:03.543031 12095 net.cpp:100] Creating Layer inception_3b/3x3
I0201 12:15:03.543042 12095 net.cpp:434] inception_3b/3x3 <- inception_3b/3x3_reduce
I0201 12:15:03.543057 12095 net.cpp:408] inception_3b/3x3 -> inception_3b/3x3
I0201 12:15:03.545670 12095 net.cpp:150] Setting up inception_3b/3x3
I0201 12:15:03.545687 12095 net.cpp:157] Top shape: 32 192 28 28 (4816896)
I0201 12:15:03.545696 12095 net.cpp:165] Memory required for data: 947323392
I0201 12:15:03.545706 12095 layer_factory.hpp:77] Creating layer inception_3b/relu_3x3
I0201 12:15:03.545725 12095 net.cpp:100] Creating Layer inception_3b/relu_3x3
I0201 12:15:03.545734 12095 net.cpp:434] inception_3b/relu_3x3 <- inception_3b/3x3
I0201 12:15:03.545743 12095 net.cpp:395] inception_3b/relu_3x3 -> inception_3b/3x3 (in-place)
I0201 12:15:03.545754 12095 net.cpp:150] Setting up inception_3b/relu_3x3
I0201 12:15:03.545763 12095 net.cpp:157] Top shape: 32 192 28 28 (4816896)
I0201 12:15:03.545770 12095 net.cpp:165] Memory required for data: 966590976
I0201 12:15:03.545778 12095 layer_factory.hpp:77] Creating layer inception_3b/5x5_reduce
I0201 12:15:03.545814 12095 net.cpp:100] Creating Layer inception_3b/5x5_reduce
I0201 12:15:03.545825 12095 net.cpp:434] inception_3b/5x5_reduce <- inception_3a/output_inception_3a/output_0_split_2
I0201 12:15:03.545838 12095 net.cpp:408] inception_3b/5x5_reduce -> inception_3b/5x5_reduce
I0201 12:15:03.545936 12095 net.cpp:150] Setting up inception_3b/5x5_reduce
I0201 12:15:03.545948 12095 net.cpp:157] Top shape: 32 32 28 28 (802816)
I0201 12:15:03.545954 12095 net.cpp:165] Memory required for data: 969802240
I0201 12:15:03.545964 12095 layer_factory.hpp:77] Creating layer inception_3b/relu_5x5_reduce
I0201 12:15:03.545979 12095 net.cpp:100] Creating Layer inception_3b/relu_5x5_reduce
I0201 12:15:03.546003 12095 net.cpp:434] inception_3b/relu_5x5_reduce <- inception_3b/5x5_reduce
I0201 12:15:03.546013 12095 net.cpp:395] inception_3b/relu_5x5_reduce -> inception_3b/5x5_reduce (in-place)
I0201 12:15:03.546027 12095 net.cpp:150] Setting up inception_3b/relu_5x5_reduce
I0201 12:15:03.546036 12095 net.cpp:157] Top shape: 32 32 28 28 (802816)
I0201 12:15:03.546043 12095 net.cpp:165] Memory required for data: 973013504
I0201 12:15:03.546051 12095 layer_factory.hpp:77] Creating layer inception_3b/5x5
I0201 12:15:03.546062 12095 net.cpp:100] Creating Layer inception_3b/5x5
I0201 12:15:03.546069 12095 net.cpp:434] inception_3b/5x5 <- inception_3b/5x5_reduce
I0201 12:15:03.546082 12095 net.cpp:408] inception_3b/5x5 -> inception_3b/5x5
I0201 12:15:03.546912 12095 net.cpp:150] Setting up inception_3b/5x5
I0201 12:15:03.546939 12095 net.cpp:157] Top shape: 32 96 28 28 (2408448)
I0201 12:15:03.546947 12095 net.cpp:165] Memory required for data: 982647296
I0201 12:15:03.546958 12095 layer_factory.hpp:77] Creating layer inception_3b/relu_5x5
I0201 12:15:03.546968 12095 net.cpp:100] Creating Layer inception_3b/relu_5x5
I0201 12:15:03.546977 12095 net.cpp:434] inception_3b/relu_5x5 <- inception_3b/5x5
I0201 12:15:03.546988 12095 net.cpp:395] inception_3b/relu_5x5 -> inception_3b/5x5 (in-place)
I0201 12:15:03.546999 12095 net.cpp:150] Setting up inception_3b/relu_5x5
I0201 12:15:03.547008 12095 net.cpp:157] Top shape: 32 96 28 28 (2408448)
I0201 12:15:03.547015 12095 net.cpp:165] Memory required for data: 992281088
I0201 12:15:03.547024 12095 layer_factory.hpp:77] Creating layer inception_3b/pool
I0201 12:15:03.547034 12095 net.cpp:100] Creating Layer inception_3b/pool
I0201 12:15:03.547041 12095 net.cpp:434] inception_3b/pool <- inception_3a/output_inception_3a/output_0_split_3
I0201 12:15:03.547051 12095 net.cpp:408] inception_3b/pool -> inception_3b/pool
I0201 12:15:03.547065 12095 net.cpp:150] Setting up inception_3b/pool
I0201 12:15:03.547075 12095 net.cpp:157] Top shape: 32 256 28 28 (6422528)
I0201 12:15:03.547081 12095 net.cpp:165] Memory required for data: 1017971200
I0201 12:15:03.547088 12095 layer_factory.hpp:77] Creating layer inception_3b/pool_proj
I0201 12:15:03.547106 12095 net.cpp:100] Creating Layer inception_3b/pool_proj
I0201 12:15:03.547114 12095 net.cpp:434] inception_3b/pool_proj <- inception_3b/pool
I0201 12:15:03.547124 12095 net.cpp:408] inception_3b/pool_proj -> inception_3b/pool_proj
I0201 12:15:03.547319 12095 net.cpp:150] Setting up inception_3b/pool_proj
I0201 12:15:03.547335 12095 net.cpp:157] Top shape: 32 64 28 28 (1605632)
I0201 12:15:03.547343 12095 net.cpp:165] Memory required for data: 1024393728
I0201 12:15:03.547353 12095 layer_factory.hpp:77] Creating layer inception_3b/relu_pool_proj
I0201 12:15:03.547363 12095 net.cpp:100] Creating Layer inception_3b/relu_pool_proj
I0201 12:15:03.547371 12095 net.cpp:434] inception_3b/relu_pool_proj <- inception_3b/pool_proj
I0201 12:15:03.547380 12095 net.cpp:395] inception_3b/relu_pool_proj -> inception_3b/pool_proj (in-place)
I0201 12:15:03.547391 12095 net.cpp:150] Setting up inception_3b/relu_pool_proj
I0201 12:15:03.547400 12095 net.cpp:157] Top shape: 32 64 28 28 (1605632)
I0201 12:15:03.547407 12095 net.cpp:165] Memory required for data: 1030816256
I0201 12:15:03.547415 12095 layer_factory.hpp:77] Creating layer inception_3b/output
I0201 12:15:03.547423 12095 net.cpp:100] Creating Layer inception_3b/output
I0201 12:15:03.547431 12095 net.cpp:434] inception_3b/output <- inception_3b/1x1
I0201 12:15:03.547439 12095 net.cpp:434] inception_3b/output <- inception_3b/3x3
I0201 12:15:03.547447 12095 net.cpp:434] inception_3b/output <- inception_3b/5x5
I0201 12:15:03.547456 12095 net.cpp:434] inception_3b/output <- inception_3b/pool_proj
I0201 12:15:03.547466 12095 net.cpp:408] inception_3b/output -> inception_3b/output
I0201 12:15:03.547480 12095 net.cpp:150] Setting up inception_3b/output
I0201 12:15:03.547489 12095 net.cpp:157] Top shape: 32 480 28 28 (12042240)
I0201 12:15:03.547497 12095 net.cpp:165] Memory required for data: 1078985216
I0201 12:15:03.547518 12095 layer_factory.hpp:77] Creating layer pool3/3x3_s2
I0201 12:15:03.547529 12095 net.cpp:100] Creating Layer pool3/3x3_s2
I0201 12:15:03.547540 12095 net.cpp:434] pool3/3x3_s2 <- inception_3b/output
I0201 12:15:03.547550 12095 net.cpp:408] pool3/3x3_s2 -> pool3/3x3_s2
I0201 12:15:03.547562 12095 net.cpp:150] Setting up pool3/3x3_s2
I0201 12:15:03.547572 12095 net.cpp:157] Top shape: 32 480 14 14 (3010560)
I0201 12:15:03.547580 12095 net.cpp:165] Memory required for data: 1091027456
I0201 12:15:03.547586 12095 layer_factory.hpp:77] Creating layer pool3/3x3_s2_pool3/3x3_s2_0_split
I0201 12:15:03.547595 12095 net.cpp:100] Creating Layer pool3/3x3_s2_pool3/3x3_s2_0_split
I0201 12:15:03.547603 12095 net.cpp:434] pool3/3x3_s2_pool3/3x3_s2_0_split <- pool3/3x3_s2
I0201 12:15:03.547616 12095 net.cpp:408] pool3/3x3_s2_pool3/3x3_s2_0_split -> pool3/3x3_s2_pool3/3x3_s2_0_split_0
I0201 12:15:03.547627 12095 net.cpp:408] pool3/3x3_s2_pool3/3x3_s2_0_split -> pool3/3x3_s2_pool3/3x3_s2_0_split_1
I0201 12:15:03.547637 12095 net.cpp:408] pool3/3x3_s2_pool3/3x3_s2_0_split -> pool3/3x3_s2_pool3/3x3_s2_0_split_2
I0201 12:15:03.547650 12095 net.cpp:408] pool3/3x3_s2_pool3/3x3_s2_0_split -> pool3/3x3_s2_pool3/3x3_s2_0_split_3
I0201 12:15:03.547662 12095 net.cpp:150] Setting up pool3/3x3_s2_pool3/3x3_s2_0_split
I0201 12:15:03.547672 12095 net.cpp:157] Top shape: 32 480 14 14 (3010560)
I0201 12:15:03.547680 12095 net.cpp:157] Top shape: 32 480 14 14 (3010560)
I0201 12:15:03.547688 12095 net.cpp:157] Top shape: 32 480 14 14 (3010560)
I0201 12:15:03.547696 12095 net.cpp:157] Top shape: 32 480 14 14 (3010560)
I0201 12:15:03.547703 12095 net.cpp:165] Memory required for data: 1139196416
I0201 12:15:03.547710 12095 layer_factory.hpp:77] Creating layer inception_4a/1x1
I0201 12:15:03.547724 12095 net.cpp:100] Creating Layer inception_4a/1x1
I0201 12:15:03.547732 12095 net.cpp:434] inception_4a/1x1 <- pool3/3x3_s2_pool3/3x3_s2_0_split_0
I0201 12:15:03.547745 12095 net.cpp:408] inception_4a/1x1 -> inception_4a/1x1
I0201 12:15:03.548755 12095 net.cpp:150] Setting up inception_4a/1x1
I0201 12:15:03.548773 12095 net.cpp:157] Top shape: 32 192 14 14 (1204224)
I0201 12:15:03.548779 12095 net.cpp:165] Memory required for data: 1144013312
I0201 12:15:03.548789 12095 layer_factory.hpp:77] Creating layer inception_4a/relu_1x1
I0201 12:15:03.548799 12095 net.cpp:100] Creating Layer inception_4a/relu_1x1
I0201 12:15:03.548807 12095 net.cpp:434] inception_4a/relu_1x1 <- inception_4a/1x1
I0201 12:15:03.548821 12095 net.cpp:395] inception_4a/relu_1x1 -> inception_4a/1x1 (in-place)
I0201 12:15:03.548832 12095 net.cpp:150] Setting up inception_4a/relu_1x1
I0201 12:15:03.548842 12095 net.cpp:157] Top shape: 32 192 14 14 (1204224)
I0201 12:15:03.548849 12095 net.cpp:165] Memory required for data: 1148830208
I0201 12:15:03.548856 12095 layer_factory.hpp:77] Creating layer inception_4a/3x3_reduce
I0201 12:15:03.548871 12095 net.cpp:100] Creating Layer inception_4a/3x3_reduce
I0201 12:15:03.548879 12095 net.cpp:434] inception_4a/3x3_reduce <- pool3/3x3_s2_pool3/3x3_s2_0_split_1
I0201 12:15:03.548890 12095 net.cpp:408] inception_4a/3x3_reduce -> inception_4a/3x3_reduce
I0201 12:15:03.549450 12095 net.cpp:150] Setting up inception_4a/3x3_reduce
I0201 12:15:03.549466 12095 net.cpp:157] Top shape: 32 96 14 14 (602112)
I0201 12:15:03.549474 12095 net.cpp:165] Memory required for data: 1151238656
I0201 12:15:03.549497 12095 layer_factory.hpp:77] Creating layer inception_4a/relu_3x3_reduce
I0201 12:15:03.549509 12095 net.cpp:100] Creating Layer inception_4a/relu_3x3_reduce
I0201 12:15:03.549516 12095 net.cpp:434] inception_4a/relu_3x3_reduce <- inception_4a/3x3_reduce
I0201 12:15:03.549526 12095 net.cpp:395] inception_4a/relu_3x3_reduce -> inception_4a/3x3_reduce (in-place)
I0201 12:15:03.549537 12095 net.cpp:150] Setting up inception_4a/relu_3x3_reduce
I0201 12:15:03.549546 12095 net.cpp:157] Top shape: 32 96 14 14 (602112)
I0201 12:15:03.549552 12095 net.cpp:165] Memory required for data: 1153647104
I0201 12:15:03.549566 12095 layer_factory.hpp:77] Creating layer inception_4a/3x3
I0201 12:15:03.549595 12095 net.cpp:100] Creating Layer inception_4a/3x3
I0201 12:15:03.549604 12095 net.cpp:434] inception_4a/3x3 <- inception_4a/3x3_reduce
I0201 12:15:03.549618 12095 net.cpp:408] inception_4a/3x3 -> inception_4a/3x3
I0201 12:15:03.551643 12095 net.cpp:150] Setting up inception_4a/3x3
I0201 12:15:03.551662 12095 net.cpp:157] Top shape: 32 208 14 14 (1304576)
I0201 12:15:03.551669 12095 net.cpp:165] Memory required for data: 1158865408
I0201 12:15:03.551681 12095 layer_factory.hpp:77] Creating layer inception_4a/relu_3x3
I0201 12:15:03.551690 12095 net.cpp:100] Creating Layer inception_4a/relu_3x3
I0201 12:15:03.551698 12095 net.cpp:434] inception_4a/relu_3x3 <- inception_4a/3x3
I0201 12:15:03.551710 12095 net.cpp:395] inception_4a/relu_3x3 -> inception_4a/3x3 (in-place)
I0201 12:15:03.551722 12095 net.cpp:150] Setting up inception_4a/relu_3x3
I0201 12:15:03.551730 12095 net.cpp:157] Top shape: 32 208 14 14 (1304576)
I0201 12:15:03.551738 12095 net.cpp:165] Memory required for data: 1164083712
I0201 12:15:03.551745 12095 layer_factory.hpp:77] Creating layer inception_4a/5x5_reduce
I0201 12:15:03.551760 12095 net.cpp:100] Creating Layer inception_4a/5x5_reduce
I0201 12:15:03.551769 12095 net.cpp:434] inception_4a/5x5_reduce <- pool3/3x3_s2_pool3/3x3_s2_0_split_2
I0201 12:15:03.551779 12095 net.cpp:408] inception_4a/5x5_reduce -> inception_4a/5x5_reduce
I0201 12:15:03.551875 12095 net.cpp:150] Setting up inception_4a/5x5_reduce
I0201 12:15:03.551887 12095 net.cpp:157] Top shape: 32 16 14 14 (100352)
I0201 12:15:03.551894 12095 net.cpp:165] Memory required for data: 1164485120
I0201 12:15:03.551904 12095 layer_factory.hpp:77] Creating layer inception_4a/relu_5x5_reduce
I0201 12:15:03.551918 12095 net.cpp:100] Creating Layer inception_4a/relu_5x5_reduce
I0201 12:15:03.551926 12095 net.cpp:434] inception_4a/relu_5x5_reduce <- inception_4a/5x5_reduce
I0201 12:15:03.551935 12095 net.cpp:395] inception_4a/relu_5x5_reduce -> inception_4a/5x5_reduce (in-place)
I0201 12:15:03.551945 12095 net.cpp:150] Setting up inception_4a/relu_5x5_reduce
I0201 12:15:03.551954 12095 net.cpp:157] Top shape: 32 16 14 14 (100352)
I0201 12:15:03.551961 12095 net.cpp:165] Memory required for data: 1164886528
I0201 12:15:03.551969 12095 layer_factory.hpp:77] Creating layer inception_4a/5x5
I0201 12:15:03.551985 12095 net.cpp:100] Creating Layer inception_4a/5x5
I0201 12:15:03.551992 12095 net.cpp:434] inception_4a/5x5 <- inception_4a/5x5_reduce
I0201 12:15:03.552006 12095 net.cpp:408] inception_4a/5x5 -> inception_4a/5x5
I0201 12:15:03.552237 12095 net.cpp:150] Setting up inception_4a/5x5
I0201 12:15:03.552263 12095 net.cpp:157] Top shape: 32 48 14 14 (301056)
I0201 12:15:03.552270 12095 net.cpp:165] Memory required for data: 1166090752
I0201 12:15:03.552281 12095 layer_factory.hpp:77] Creating layer inception_4a/relu_5x5
I0201 12:15:03.552301 12095 net.cpp:100] Creating Layer inception_4a/relu_5x5
I0201 12:15:03.552310 12095 net.cpp:434] inception_4a/relu_5x5 <- inception_4a/5x5
I0201 12:15:03.552320 12095 net.cpp:395] inception_4a/relu_5x5 -> inception_4a/5x5 (in-place)
I0201 12:15:03.552330 12095 net.cpp:150] Setting up inception_4a/relu_5x5
I0201 12:15:03.552340 12095 net.cpp:157] Top shape: 32 48 14 14 (301056)
I0201 12:15:03.552345 12095 net.cpp:165] Memory required for data: 1167294976
I0201 12:15:03.552353 12095 layer_factory.hpp:77] Creating layer inception_4a/pool
I0201 12:15:03.552363 12095 net.cpp:100] Creating Layer inception_4a/pool
I0201 12:15:03.552371 12095 net.cpp:434] inception_4a/pool <- pool3/3x3_s2_pool3/3x3_s2_0_split_3
I0201 12:15:03.552384 12095 net.cpp:408] inception_4a/pool -> inception_4a/pool
I0201 12:15:03.552398 12095 net.cpp:150] Setting up inception_4a/pool
I0201 12:15:03.552408 12095 net.cpp:157] Top shape: 32 480 14 14 (3010560)
I0201 12:15:03.552415 12095 net.cpp:165] Memory required for data: 1179337216
I0201 12:15:03.552423 12095 layer_factory.hpp:77] Creating layer inception_4a/pool_proj
I0201 12:15:03.552438 12095 net.cpp:100] Creating Layer inception_4a/pool_proj
I0201 12:15:03.552467 12095 net.cpp:434] inception_4a/pool_proj <- inception_4a/pool
I0201 12:15:03.552482 12095 net.cpp:408] inception_4a/pool_proj -> inception_4a/pool_proj
I0201 12:15:03.552902 12095 net.cpp:150] Setting up inception_4a/pool_proj
I0201 12:15:03.552917 12095 net.cpp:157] Top shape: 32 64 14 14 (401408)
I0201 12:15:03.552925 12095 net.cpp:165] Memory required for data: 1180942848
I0201 12:15:03.552935 12095 layer_factory.hpp:77] Creating layer inception_4a/relu_pool_proj
I0201 12:15:03.552947 12095 net.cpp:100] Creating Layer inception_4a/relu_pool_proj
I0201 12:15:03.552954 12095 net.cpp:434] inception_4a/relu_pool_proj <- inception_4a/pool_proj
I0201 12:15:03.552969 12095 net.cpp:395] inception_4a/relu_pool_proj -> inception_4a/pool_proj (in-place)
I0201 12:15:03.552980 12095 net.cpp:150] Setting up inception_4a/relu_pool_proj
I0201 12:15:03.552989 12095 net.cpp:157] Top shape: 32 64 14 14 (401408)
I0201 12:15:03.552997 12095 net.cpp:165] Memory required for data: 1182548480
I0201 12:15:03.553004 12095 layer_factory.hpp:77] Creating layer inception_4a/output
I0201 12:15:03.553014 12095 net.cpp:100] Creating Layer inception_4a/output
I0201 12:15:03.553021 12095 net.cpp:434] inception_4a/output <- inception_4a/1x1
I0201 12:15:03.553030 12095 net.cpp:434] inception_4a/output <- inception_4a/3x3
I0201 12:15:03.553038 12095 net.cpp:434] inception_4a/output <- inception_4a/5x5
I0201 12:15:03.553046 12095 net.cpp:434] inception_4a/output <- inception_4a/pool_proj
I0201 12:15:03.553056 12095 net.cpp:408] inception_4a/output -> inception_4a/output
I0201 12:15:03.553068 12095 net.cpp:150] Setting up inception_4a/output
I0201 12:15:03.553077 12095 net.cpp:157] Top shape: 32 512 14 14 (3211264)
I0201 12:15:03.553084 12095 net.cpp:165] Memory required for data: 1195393536
I0201 12:15:03.553092 12095 layer_factory.hpp:77] Creating layer inception_4a/output_inception_4a/output_0_split
I0201 12:15:03.553108 12095 net.cpp:100] Creating Layer inception_4a/output_inception_4a/output_0_split
I0201 12:15:03.553117 12095 net.cpp:434] inception_4a/output_inception_4a/output_0_split <- inception_4a/output
I0201 12:15:03.553127 12095 net.cpp:408] inception_4a/output_inception_4a/output_0_split -> inception_4a/output_inception_4a/output_0_split_0
I0201 12:15:03.553158 12095 net.cpp:408] inception_4a/output_inception_4a/output_0_split -> inception_4a/output_inception_4a/output_0_split_1
I0201 12:15:03.553170 12095 net.cpp:408] inception_4a/output_inception_4a/output_0_split -> inception_4a/output_inception_4a/output_0_split_2
I0201 12:15:03.553182 12095 net.cpp:408] inception_4a/output_inception_4a/output_0_split -> inception_4a/output_inception_4a/output_0_split_3
I0201 12:15:03.553194 12095 net.cpp:408] inception_4a/output_inception_4a/output_0_split -> inception_4a/output_inception_4a/output_0_split_4
I0201 12:15:03.553206 12095 net.cpp:150] Setting up inception_4a/output_inception_4a/output_0_split
I0201 12:15:03.553215 12095 net.cpp:157] Top shape: 32 512 14 14 (3211264)
I0201 12:15:03.553223 12095 net.cpp:157] Top shape: 32 512 14 14 (3211264)
I0201 12:15:03.553232 12095 net.cpp:157] Top shape: 32 512 14 14 (3211264)
I0201 12:15:03.553241 12095 net.cpp:157] Top shape: 32 512 14 14 (3211264)
I0201 12:15:03.553259 12095 net.cpp:157] Top shape: 32 512 14 14 (3211264)
I0201 12:15:03.553267 12095 net.cpp:165] Memory required for data: 1259618816
I0201 12:15:03.553275 12095 layer_factory.hpp:77] Creating layer loss1/ave_pool
I0201 12:15:03.553288 12095 net.cpp:100] Creating Layer loss1/ave_pool
I0201 12:15:03.553297 12095 net.cpp:434] loss1/ave_pool <- inception_4a/output_inception_4a/output_0_split_0
I0201 12:15:03.553308 12095 net.cpp:408] loss1/ave_pool -> loss1/ave_pool
I0201 12:15:03.553321 12095 net.cpp:150] Setting up loss1/ave_pool
I0201 12:15:03.553331 12095 net.cpp:157] Top shape: 32 512 4 4 (262144)
I0201 12:15:03.553339 12095 net.cpp:165] Memory required for data: 1260667392
I0201 12:15:03.553346 12095 layer_factory.hpp:77] Creating layer loss1/conv
I0201 12:15:03.553359 12095 net.cpp:100] Creating Layer loss1/conv
I0201 12:15:03.553380 12095 net.cpp:434] loss1/conv <- loss1/ave_pool
I0201 12:15:03.553393 12095 net.cpp:408] loss1/conv -> loss1/conv
I0201 12:15:03.554126 12095 net.cpp:150] Setting up loss1/conv
I0201 12:15:03.554141 12095 net.cpp:157] Top shape: 32 128 4 4 (65536)
I0201 12:15:03.554148 12095 net.cpp:165] Memory required for data: 1260929536
I0201 12:15:03.554159 12095 layer_factory.hpp:77] Creating layer loss1/relu_conv
I0201 12:15:03.554169 12095 net.cpp:100] Creating Layer loss1/relu_conv
I0201 12:15:03.554177 12095 net.cpp:434] loss1/relu_conv <- loss1/conv
I0201 12:15:03.554190 12095 net.cpp:395] loss1/relu_conv -> loss1/conv (in-place)
I0201 12:15:03.554201 12095 net.cpp:150] Setting up loss1/relu_conv
I0201 12:15:03.554210 12095 net.cpp:157] Top shape: 32 128 4 4 (65536)
I0201 12:15:03.554217 12095 net.cpp:165] Memory required for data: 1261191680
I0201 12:15:03.554224 12095 layer_factory.hpp:77] Creating layer loss1/fc
I0201 12:15:03.554244 12095 net.cpp:100] Creating Layer loss1/fc
I0201 12:15:03.554262 12095 net.cpp:434] loss1/fc <- loss1/conv
I0201 12:15:03.554277 12095 net.cpp:408] loss1/fc -> loss1/fc
I0201 12:15:03.574177 12095 net.cpp:150] Setting up loss1/fc
I0201 12:15:03.574306 12095 net.cpp:157] Top shape: 32 1024 (32768)
I0201 12:15:03.574316 12095 net.cpp:165] Memory required for data: 1261322752
I0201 12:15:03.574337 12095 layer_factory.hpp:77] Creating layer loss1/relu_fc
I0201 12:15:03.574359 12095 net.cpp:100] Creating Layer loss1/relu_fc
I0201 12:15:03.574371 12095 net.cpp:434] loss1/relu_fc <- loss1/fc
I0201 12:15:03.574389 12095 net.cpp:395] loss1/relu_fc -> loss1/fc (in-place)
I0201 12:15:03.574409 12095 net.cpp:150] Setting up loss1/relu_fc
I0201 12:15:03.574419 12095 net.cpp:157] Top shape: 32 1024 (32768)
I0201 12:15:03.574425 12095 net.cpp:165] Memory required for data: 1261453824
I0201 12:15:03.574434 12095 layer_factory.hpp:77] Creating layer loss1/drop_fc
I0201 12:15:03.574477 12095 net.cpp:100] Creating Layer loss1/drop_fc
I0201 12:15:03.574486 12095 net.cpp:434] loss1/drop_fc <- loss1/fc
I0201 12:15:03.574496 12095 net.cpp:395] loss1/drop_fc -> loss1/fc (in-place)
I0201 12:15:03.574522 12095 net.cpp:150] Setting up loss1/drop_fc
I0201 12:15:03.574532 12095 net.cpp:157] Top shape: 32 1024 (32768)
I0201 12:15:03.574548 12095 net.cpp:165] Memory required for data: 1261584896
I0201 12:15:03.574555 12095 layer_factory.hpp:77] Creating layer loss1/classifier
I0201 12:15:03.574570 12095 net.cpp:100] Creating Layer loss1/classifier
I0201 12:15:03.574578 12095 net.cpp:434] loss1/classifier <- loss1/fc
I0201 12:15:03.574592 12095 net.cpp:408] loss1/classifier -> loss1/classifier
I0201 12:15:03.584892 12095 net.cpp:150] Setting up loss1/classifier
I0201 12:15:03.584918 12095 net.cpp:157] Top shape: 32 1000 (32000)
I0201 12:15:03.584926 12095 net.cpp:165] Memory required for data: 1261712896
I0201 12:15:03.584939 12095 layer_factory.hpp:77] Creating layer loss1/loss
I0201 12:15:03.584956 12095 net.cpp:100] Creating Layer loss1/loss
I0201 12:15:03.584966 12095 net.cpp:434] loss1/loss <- loss1/classifier
I0201 12:15:03.584975 12095 net.cpp:434] loss1/loss <- label_data_1_split_0
I0201 12:15:03.584986 12095 net.cpp:408] loss1/loss -> loss1/loss1
I0201 12:15:03.585017 12095 layer_factory.hpp:77] Creating layer loss1/loss
I0201 12:15:03.585155 12095 net.cpp:150] Setting up loss1/loss
I0201 12:15:03.585170 12095 net.cpp:157] Top shape: (1)
I0201 12:15:03.585178 12095 net.cpp:160]     with loss weight 0.3
I0201 12:15:03.585259 12095 net.cpp:165] Memory required for data: 1261712900
I0201 12:15:03.585268 12095 layer_factory.hpp:77] Creating layer inception_4b/1x1
I0201 12:15:03.585299 12095 net.cpp:100] Creating Layer inception_4b/1x1
I0201 12:15:03.585309 12095 net.cpp:434] inception_4b/1x1 <- inception_4a/output_inception_4a/output_0_split_1
I0201 12:15:03.585321 12095 net.cpp:408] inception_4b/1x1 -> inception_4b/1x1
I0201 12:15:03.586235 12095 net.cpp:150] Setting up inception_4b/1x1
I0201 12:15:03.586258 12095 net.cpp:157] Top shape: 32 160 14 14 (1003520)
I0201 12:15:03.586299 12095 net.cpp:165] Memory required for data: 1265726980
I0201 12:15:03.586331 12095 layer_factory.hpp:77] Creating layer inception_4b/relu_1x1
I0201 12:15:03.586343 12095 net.cpp:100] Creating Layer inception_4b/relu_1x1
I0201 12:15:03.586351 12095 net.cpp:434] inception_4b/relu_1x1 <- inception_4b/1x1
I0201 12:15:03.586360 12095 net.cpp:395] inception_4b/relu_1x1 -> inception_4b/1x1 (in-place)
I0201 12:15:03.586371 12095 net.cpp:150] Setting up inception_4b/relu_1x1
I0201 12:15:03.586380 12095 net.cpp:157] Top shape: 32 160 14 14 (1003520)
I0201 12:15:03.586388 12095 net.cpp:165] Memory required for data: 1269741060
I0201 12:15:03.586395 12095 layer_factory.hpp:77] Creating layer inception_4b/3x3_reduce
I0201 12:15:03.586419 12095 net.cpp:100] Creating Layer inception_4b/3x3_reduce
I0201 12:15:03.586428 12095 net.cpp:434] inception_4b/3x3_reduce <- inception_4a/output_inception_4a/output_0_split_2
I0201 12:15:03.586441 12095 net.cpp:408] inception_4b/3x3_reduce -> inception_4b/3x3_reduce
I0201 12:15:03.587061 12095 net.cpp:150] Setting up inception_4b/3x3_reduce
I0201 12:15:03.587076 12095 net.cpp:157] Top shape: 32 112 14 14 (702464)
I0201 12:15:03.587083 12095 net.cpp:165] Memory required for data: 1272550916
I0201 12:15:03.587093 12095 layer_factory.hpp:77] Creating layer inception_4b/relu_3x3_reduce
I0201 12:15:03.587103 12095 net.cpp:100] Creating Layer inception_4b/relu_3x3_reduce
I0201 12:15:03.587112 12095 net.cpp:434] inception_4b/relu_3x3_reduce <- inception_4b/3x3_reduce
I0201 12:15:03.587126 12095 net.cpp:395] inception_4b/relu_3x3_reduce -> inception_4b/3x3_reduce (in-place)
I0201 12:15:03.587136 12095 net.cpp:150] Setting up inception_4b/relu_3x3_reduce
I0201 12:15:03.587146 12095 net.cpp:157] Top shape: 32 112 14 14 (702464)
I0201 12:15:03.587152 12095 net.cpp:165] Memory required for data: 1275360772
I0201 12:15:03.587159 12095 layer_factory.hpp:77] Creating layer inception_4b/3x3
I0201 12:15:03.587175 12095 net.cpp:100] Creating Layer inception_4b/3x3
I0201 12:15:03.587183 12095 net.cpp:434] inception_4b/3x3 <- inception_4b/3x3_reduce
I0201 12:15:03.587193 12095 net.cpp:408] inception_4b/3x3 -> inception_4b/3x3
I0201 12:15:03.589576 12095 net.cpp:150] Setting up inception_4b/3x3
I0201 12:15:03.589596 12095 net.cpp:157] Top shape: 32 224 14 14 (1404928)
I0201 12:15:03.589604 12095 net.cpp:165] Memory required for data: 1280980484
I0201 12:15:03.589615 12095 layer_factory.hpp:77] Creating layer inception_4b/relu_3x3
I0201 12:15:03.589627 12095 net.cpp:100] Creating Layer inception_4b/relu_3x3
I0201 12:15:03.589634 12095 net.cpp:434] inception_4b/relu_3x3 <- inception_4b/3x3
I0201 12:15:03.589644 12095 net.cpp:395] inception_4b/relu_3x3 -> inception_4b/3x3 (in-place)
I0201 12:15:03.589655 12095 net.cpp:150] Setting up inception_4b/relu_3x3
I0201 12:15:03.589663 12095 net.cpp:157] Top shape: 32 224 14 14 (1404928)
I0201 12:15:03.589670 12095 net.cpp:165] Memory required for data: 1286600196
I0201 12:15:03.589679 12095 layer_factory.hpp:77] Creating layer inception_4b/5x5_reduce
I0201 12:15:03.589691 12095 net.cpp:100] Creating Layer inception_4b/5x5_reduce
I0201 12:15:03.589699 12095 net.cpp:434] inception_4b/5x5_reduce <- inception_4a/output_inception_4a/output_0_split_3
I0201 12:15:03.589712 12095 net.cpp:408] inception_4b/5x5_reduce -> inception_4b/5x5_reduce
I0201 12:15:03.589839 12095 net.cpp:150] Setting up inception_4b/5x5_reduce
I0201 12:15:03.589851 12095 net.cpp:157] Top shape: 32 24 14 14 (150528)
I0201 12:15:03.589859 12095 net.cpp:165] Memory required for data: 1287202308
I0201 12:15:03.589869 12095 layer_factory.hpp:77] Creating layer inception_4b/relu_5x5_reduce
I0201 12:15:03.589882 12095 net.cpp:100] Creating Layer inception_4b/relu_5x5_reduce
I0201 12:15:03.589891 12095 net.cpp:434] inception_4b/relu_5x5_reduce <- inception_4b/5x5_reduce
I0201 12:15:03.589900 12095 net.cpp:395] inception_4b/relu_5x5_reduce -> inception_4b/5x5_reduce (in-place)
I0201 12:15:03.589910 12095 net.cpp:150] Setting up inception_4b/relu_5x5_reduce
I0201 12:15:03.589920 12095 net.cpp:157] Top shape: 32 24 14 14 (150528)
I0201 12:15:03.589939 12095 net.cpp:165] Memory required for data: 1287804420
I0201 12:15:03.589947 12095 layer_factory.hpp:77] Creating layer inception_4b/5x5
I0201 12:15:03.589962 12095 net.cpp:100] Creating Layer inception_4b/5x5
I0201 12:15:03.589970 12095 net.cpp:434] inception_4b/5x5 <- inception_4b/5x5_reduce
I0201 12:15:03.589983 12095 net.cpp:408] inception_4b/5x5 -> inception_4b/5x5
I0201 12:15:03.590436 12095 net.cpp:150] Setting up inception_4b/5x5
I0201 12:15:03.590452 12095 net.cpp:157] Top shape: 32 64 14 14 (401408)
I0201 12:15:03.590459 12095 net.cpp:165] Memory required for data: 1289410052
I0201 12:15:03.590469 12095 layer_factory.hpp:77] Creating layer inception_4b/relu_5x5
I0201 12:15:03.590484 12095 net.cpp:100] Creating Layer inception_4b/relu_5x5
I0201 12:15:03.590492 12095 net.cpp:434] inception_4b/relu_5x5 <- inception_4b/5x5
I0201 12:15:03.590502 12095 net.cpp:395] inception_4b/relu_5x5 -> inception_4b/5x5 (in-place)
I0201 12:15:03.590512 12095 net.cpp:150] Setting up inception_4b/relu_5x5
I0201 12:15:03.590520 12095 net.cpp:157] Top shape: 32 64 14 14 (401408)
I0201 12:15:03.590528 12095 net.cpp:165] Memory required for data: 1291015684
I0201 12:15:03.590534 12095 layer_factory.hpp:77] Creating layer inception_4b/pool
I0201 12:15:03.590557 12095 net.cpp:100] Creating Layer inception_4b/pool
I0201 12:15:03.590565 12095 net.cpp:434] inception_4b/pool <- inception_4a/output_inception_4a/output_0_split_4
I0201 12:15:03.590575 12095 net.cpp:408] inception_4b/pool -> inception_4b/pool
I0201 12:15:03.590610 12095 net.cpp:150] Setting up inception_4b/pool
I0201 12:15:03.590623 12095 net.cpp:157] Top shape: 32 512 14 14 (3211264)
I0201 12:15:03.590631 12095 net.cpp:165] Memory required for data: 1303860740
I0201 12:15:03.590639 12095 layer_factory.hpp:77] Creating layer inception_4b/pool_proj
I0201 12:15:03.590652 12095 net.cpp:100] Creating Layer inception_4b/pool_proj
I0201 12:15:03.590667 12095 net.cpp:434] inception_4b/pool_proj <- inception_4b/pool
I0201 12:15:03.590682 12095 net.cpp:408] inception_4b/pool_proj -> inception_4b/pool_proj
I0201 12:15:03.591037 12095 net.cpp:150] Setting up inception_4b/pool_proj
I0201 12:15:03.591050 12095 net.cpp:157] Top shape: 32 64 14 14 (401408)
I0201 12:15:03.591058 12095 net.cpp:165] Memory required for data: 1305466372
I0201 12:15:03.591068 12095 layer_factory.hpp:77] Creating layer inception_4b/relu_pool_proj
I0201 12:15:03.591078 12095 net.cpp:100] Creating Layer inception_4b/relu_pool_proj
I0201 12:15:03.591089 12095 net.cpp:434] inception_4b/relu_pool_proj <- inception_4b/pool_proj
I0201 12:15:03.591099 12095 net.cpp:395] inception_4b/relu_pool_proj -> inception_4b/pool_proj (in-place)
I0201 12:15:03.591109 12095 net.cpp:150] Setting up inception_4b/relu_pool_proj
I0201 12:15:03.591119 12095 net.cpp:157] Top shape: 32 64 14 14 (401408)
I0201 12:15:03.591125 12095 net.cpp:165] Memory required for data: 1307072004
I0201 12:15:03.591132 12095 layer_factory.hpp:77] Creating layer inception_4b/output
I0201 12:15:03.591143 12095 net.cpp:100] Creating Layer inception_4b/output
I0201 12:15:03.591151 12095 net.cpp:434] inception_4b/output <- inception_4b/1x1
I0201 12:15:03.591159 12095 net.cpp:434] inception_4b/output <- inception_4b/3x3
I0201 12:15:03.591167 12095 net.cpp:434] inception_4b/output <- inception_4b/5x5
I0201 12:15:03.591176 12095 net.cpp:434] inception_4b/output <- inception_4b/pool_proj
I0201 12:15:03.591188 12095 net.cpp:408] inception_4b/output -> inception_4b/output
I0201 12:15:03.591205 12095 net.cpp:150] Setting up inception_4b/output
I0201 12:15:03.591215 12095 net.cpp:157] Top shape: 32 512 14 14 (3211264)
I0201 12:15:03.591223 12095 net.cpp:165] Memory required for data: 1319917060
I0201 12:15:03.591229 12095 layer_factory.hpp:77] Creating layer inception_4b/output_inception_4b/output_0_split
I0201 12:15:03.591240 12095 net.cpp:100] Creating Layer inception_4b/output_inception_4b/output_0_split
I0201 12:15:03.591256 12095 net.cpp:434] inception_4b/output_inception_4b/output_0_split <- inception_4b/output
I0201 12:15:03.591279 12095 net.cpp:408] inception_4b/output_inception_4b/output_0_split -> inception_4b/output_inception_4b/output_0_split_0
I0201 12:15:03.591301 12095 net.cpp:408] inception_4b/output_inception_4b/output_0_split -> inception_4b/output_inception_4b/output_0_split_1
I0201 12:15:03.591321 12095 net.cpp:408] inception_4b/output_inception_4b/output_0_split -> inception_4b/output_inception_4b/output_0_split_2
I0201 12:15:03.591332 12095 net.cpp:408] inception_4b/output_inception_4b/output_0_split -> inception_4b/output_inception_4b/output_0_split_3
I0201 12:15:03.591346 12095 net.cpp:150] Setting up inception_4b/output_inception_4b/output_0_split
I0201 12:15:03.591354 12095 net.cpp:157] Top shape: 32 512 14 14 (3211264)
I0201 12:15:03.591363 12095 net.cpp:157] Top shape: 32 512 14 14 (3211264)
I0201 12:15:03.591372 12095 net.cpp:157] Top shape: 32 512 14 14 (3211264)
I0201 12:15:03.591379 12095 net.cpp:157] Top shape: 32 512 14 14 (3211264)
I0201 12:15:03.591387 12095 net.cpp:165] Memory required for data: 1371297284
I0201 12:15:03.591393 12095 layer_factory.hpp:77] Creating layer inception_4c/1x1
I0201 12:15:03.591409 12095 net.cpp:100] Creating Layer inception_4c/1x1
I0201 12:15:03.591418 12095 net.cpp:434] inception_4c/1x1 <- inception_4b/output_inception_4b/output_0_split_0
I0201 12:15:03.591433 12095 net.cpp:408] inception_4c/1x1 -> inception_4c/1x1
I0201 12:15:03.592142 12095 net.cpp:150] Setting up inception_4c/1x1
I0201 12:15:03.592157 12095 net.cpp:157] Top shape: 32 128 14 14 (802816)
I0201 12:15:03.592164 12095 net.cpp:165] Memory required for data: 1374508548
I0201 12:15:03.592175 12095 layer_factory.hpp:77] Creating layer inception_4c/relu_1x1
I0201 12:15:03.592185 12095 net.cpp:100] Creating Layer inception_4c/relu_1x1
I0201 12:15:03.592193 12095 net.cpp:434] inception_4c/relu_1x1 <- inception_4c/1x1
I0201 12:15:03.592206 12095 net.cpp:395] inception_4c/relu_1x1 -> inception_4c/1x1 (in-place)
I0201 12:15:03.592217 12095 net.cpp:150] Setting up inception_4c/relu_1x1
I0201 12:15:03.592226 12095 net.cpp:157] Top shape: 32 128 14 14 (802816)
I0201 12:15:03.592233 12095 net.cpp:165] Memory required for data: 1377719812
I0201 12:15:03.592242 12095 layer_factory.hpp:77] Creating layer inception_4c/3x3_reduce
I0201 12:15:03.592277 12095 net.cpp:100] Creating Layer inception_4c/3x3_reduce
I0201 12:15:03.592286 12095 net.cpp:434] inception_4c/3x3_reduce <- inception_4b/output_inception_4b/output_0_split_1
I0201 12:15:03.592299 12095 net.cpp:408] inception_4c/3x3_reduce -> inception_4c/3x3_reduce
I0201 12:15:03.592998 12095 net.cpp:150] Setting up inception_4c/3x3_reduce
I0201 12:15:03.593014 12095 net.cpp:157] Top shape: 32 128 14 14 (802816)
I0201 12:15:03.593020 12095 net.cpp:165] Memory required for data: 1380931076
I0201 12:15:03.593031 12095 layer_factory.hpp:77] Creating layer inception_4c/relu_3x3_reduce
I0201 12:15:03.593040 12095 net.cpp:100] Creating Layer inception_4c/relu_3x3_reduce
I0201 12:15:03.593050 12095 net.cpp:434] inception_4c/relu_3x3_reduce <- inception_4c/3x3_reduce
I0201 12:15:03.593062 12095 net.cpp:395] inception_4c/relu_3x3_reduce -> inception_4c/3x3_reduce (in-place)
I0201 12:15:03.593073 12095 net.cpp:150] Setting up inception_4c/relu_3x3_reduce
I0201 12:15:03.593082 12095 net.cpp:157] Top shape: 32 128 14 14 (802816)
I0201 12:15:03.593089 12095 net.cpp:165] Memory required for data: 1384142340
I0201 12:15:03.593096 12095 layer_factory.hpp:77] Creating layer inception_4c/3x3
I0201 12:15:03.593107 12095 net.cpp:100] Creating Layer inception_4c/3x3
I0201 12:15:03.593116 12095 net.cpp:434] inception_4c/3x3 <- inception_4c/3x3_reduce
I0201 12:15:03.593129 12095 net.cpp:408] inception_4c/3x3 -> inception_4c/3x3
I0201 12:15:03.596083 12095 net.cpp:150] Setting up inception_4c/3x3
I0201 12:15:03.596101 12095 net.cpp:157] Top shape: 32 256 14 14 (1605632)
I0201 12:15:03.596108 12095 net.cpp:165] Memory required for data: 1390564868
I0201 12:15:03.596134 12095 layer_factory.hpp:77] Creating layer inception_4c/relu_3x3
I0201 12:15:03.596145 12095 net.cpp:100] Creating Layer inception_4c/relu_3x3
I0201 12:15:03.596170 12095 net.cpp:434] inception_4c/relu_3x3 <- inception_4c/3x3
I0201 12:15:03.596194 12095 net.cpp:395] inception_4c/relu_3x3 -> inception_4c/3x3 (in-place)
I0201 12:15:03.596205 12095 net.cpp:150] Setting up inception_4c/relu_3x3
I0201 12:15:03.596215 12095 net.cpp:157] Top shape: 32 256 14 14 (1605632)
I0201 12:15:03.596222 12095 net.cpp:165] Memory required for data: 1396987396
I0201 12:15:03.596230 12095 layer_factory.hpp:77] Creating layer inception_4c/5x5_reduce
I0201 12:15:03.596246 12095 net.cpp:100] Creating Layer inception_4c/5x5_reduce
I0201 12:15:03.596264 12095 net.cpp:434] inception_4c/5x5_reduce <- inception_4b/output_inception_4b/output_0_split_2
I0201 12:15:03.596276 12095 net.cpp:408] inception_4c/5x5_reduce -> inception_4c/5x5_reduce
I0201 12:15:03.596416 12095 net.cpp:150] Setting up inception_4c/5x5_reduce
I0201 12:15:03.596428 12095 net.cpp:157] Top shape: 32 24 14 14 (150528)
I0201 12:15:03.596436 12095 net.cpp:165] Memory required for data: 1397589508
I0201 12:15:03.596446 12095 layer_factory.hpp:77] Creating layer inception_4c/relu_5x5_reduce
I0201 12:15:03.596457 12095 net.cpp:100] Creating Layer inception_4c/relu_5x5_reduce
I0201 12:15:03.596464 12095 net.cpp:434] inception_4c/relu_5x5_reduce <- inception_4c/5x5_reduce
I0201 12:15:03.596473 12095 net.cpp:395] inception_4c/relu_5x5_reduce -> inception_4c/5x5_reduce (in-place)
I0201 12:15:03.596483 12095 net.cpp:150] Setting up inception_4c/relu_5x5_reduce
I0201 12:15:03.596493 12095 net.cpp:157] Top shape: 32 24 14 14 (150528)
I0201 12:15:03.596499 12095 net.cpp:165] Memory required for data: 1398191620
I0201 12:15:03.596508 12095 layer_factory.hpp:77] Creating layer inception_4c/5x5
I0201 12:15:03.596534 12095 net.cpp:100] Creating Layer inception_4c/5x5
I0201 12:15:03.596542 12095 net.cpp:434] inception_4c/5x5 <- inception_4c/5x5_reduce
I0201 12:15:03.596556 12095 net.cpp:408] inception_4c/5x5 -> inception_4c/5x5
I0201 12:15:03.596995 12095 net.cpp:150] Setting up inception_4c/5x5
I0201 12:15:03.597009 12095 net.cpp:157] Top shape: 32 64 14 14 (401408)
I0201 12:15:03.597017 12095 net.cpp:165] Memory required for data: 1399797252
I0201 12:15:03.597028 12095 layer_factory.hpp:77] Creating layer inception_4c/relu_5x5
I0201 12:15:03.597038 12095 net.cpp:100] Creating Layer inception_4c/relu_5x5
I0201 12:15:03.597049 12095 net.cpp:434] inception_4c/relu_5x5 <- inception_4c/5x5
I0201 12:15:03.597059 12095 net.cpp:395] inception_4c/relu_5x5 -> inception_4c/5x5 (in-place)
I0201 12:15:03.597069 12095 net.cpp:150] Setting up inception_4c/relu_5x5
I0201 12:15:03.597079 12095 net.cpp:157] Top shape: 32 64 14 14 (401408)
I0201 12:15:03.597085 12095 net.cpp:165] Memory required for data: 1401402884
I0201 12:15:03.597092 12095 layer_factory.hpp:77] Creating layer inception_4c/pool
I0201 12:15:03.597102 12095 net.cpp:100] Creating Layer inception_4c/pool
I0201 12:15:03.597110 12095 net.cpp:434] inception_4c/pool <- inception_4b/output_inception_4b/output_0_split_3
I0201 12:15:03.597123 12095 net.cpp:408] inception_4c/pool -> inception_4c/pool
I0201 12:15:03.597137 12095 net.cpp:150] Setting up inception_4c/pool
I0201 12:15:03.597146 12095 net.cpp:157] Top shape: 32 512 14 14 (3211264)
I0201 12:15:03.597153 12095 net.cpp:165] Memory required for data: 1414247940
I0201 12:15:03.597162 12095 layer_factory.hpp:77] Creating layer inception_4c/pool_proj
I0201 12:15:03.597185 12095 net.cpp:100] Creating Layer inception_4c/pool_proj
I0201 12:15:03.597194 12095 net.cpp:434] inception_4c/pool_proj <- inception_4c/pool
I0201 12:15:03.597208 12095 net.cpp:408] inception_4c/pool_proj -> inception_4c/pool_proj
I0201 12:15:03.597594 12095 net.cpp:150] Setting up inception_4c/pool_proj
I0201 12:15:03.597609 12095 net.cpp:157] Top shape: 32 64 14 14 (401408)
I0201 12:15:03.597616 12095 net.cpp:165] Memory required for data: 1415853572
I0201 12:15:03.597626 12095 layer_factory.hpp:77] Creating layer inception_4c/relu_pool_proj
I0201 12:15:03.597640 12095 net.cpp:100] Creating Layer inception_4c/relu_pool_proj
I0201 12:15:03.597650 12095 net.cpp:434] inception_4c/relu_pool_proj <- inception_4c/pool_proj
I0201 12:15:03.597678 12095 net.cpp:395] inception_4c/relu_pool_proj -> inception_4c/pool_proj (in-place)
I0201 12:15:03.597689 12095 net.cpp:150] Setting up inception_4c/relu_pool_proj
I0201 12:15:03.597699 12095 net.cpp:157] Top shape: 32 64 14 14 (401408)
I0201 12:15:03.597707 12095 net.cpp:165] Memory required for data: 1417459204
I0201 12:15:03.597713 12095 layer_factory.hpp:77] Creating layer inception_4c/output
I0201 12:15:03.597723 12095 net.cpp:100] Creating Layer inception_4c/output
I0201 12:15:03.597731 12095 net.cpp:434] inception_4c/output <- inception_4c/1x1
I0201 12:15:03.597739 12095 net.cpp:434] inception_4c/output <- inception_4c/3x3
I0201 12:15:03.597748 12095 net.cpp:434] inception_4c/output <- inception_4c/5x5
I0201 12:15:03.597755 12095 net.cpp:434] inception_4c/output <- inception_4c/pool_proj
I0201 12:15:03.597767 12095 net.cpp:408] inception_4c/output -> inception_4c/output
I0201 12:15:03.597780 12095 net.cpp:150] Setting up inception_4c/output
I0201 12:15:03.597790 12095 net.cpp:157] Top shape: 32 512 14 14 (3211264)
I0201 12:15:03.597796 12095 net.cpp:165] Memory required for data: 1430304260
I0201 12:15:03.597805 12095 layer_factory.hpp:77] Creating layer inception_4c/output_inception_4c/output_0_split
I0201 12:15:03.597813 12095 net.cpp:100] Creating Layer inception_4c/output_inception_4c/output_0_split
I0201 12:15:03.597821 12095 net.cpp:434] inception_4c/output_inception_4c/output_0_split <- inception_4c/output
I0201 12:15:03.597841 12095 net.cpp:408] inception_4c/output_inception_4c/output_0_split -> inception_4c/output_inception_4c/output_0_split_0
I0201 12:15:03.597852 12095 net.cpp:408] inception_4c/output_inception_4c/output_0_split -> inception_4c/output_inception_4c/output_0_split_1
I0201 12:15:03.597863 12095 net.cpp:408] inception_4c/output_inception_4c/output_0_split -> inception_4c/output_inception_4c/output_0_split_2
I0201 12:15:03.597878 12095 net.cpp:408] inception_4c/output_inception_4c/output_0_split -> inception_4c/output_inception_4c/output_0_split_3
I0201 12:15:03.597890 12095 net.cpp:150] Setting up inception_4c/output_inception_4c/output_0_split
I0201 12:15:03.597899 12095 net.cpp:157] Top shape: 32 512 14 14 (3211264)
I0201 12:15:03.597908 12095 net.cpp:157] Top shape: 32 512 14 14 (3211264)
I0201 12:15:03.597915 12095 net.cpp:157] Top shape: 32 512 14 14 (3211264)
I0201 12:15:03.597923 12095 net.cpp:157] Top shape: 32 512 14 14 (3211264)
I0201 12:15:03.597930 12095 net.cpp:165] Memory required for data: 1481684484
I0201 12:15:03.597937 12095 layer_factory.hpp:77] Creating layer inception_4d/1x1
I0201 12:15:03.597954 12095 net.cpp:100] Creating Layer inception_4d/1x1
I0201 12:15:03.597961 12095 net.cpp:434] inception_4d/1x1 <- inception_4c/output_inception_4c/output_0_split_0
I0201 12:15:03.597975 12095 net.cpp:408] inception_4d/1x1 -> inception_4d/1x1
I0201 12:15:03.598619 12095 net.cpp:150] Setting up inception_4d/1x1
I0201 12:15:03.598634 12095 net.cpp:157] Top shape: 32 112 14 14 (702464)
I0201 12:15:03.598641 12095 net.cpp:165] Memory required for data: 1484494340
I0201 12:15:03.598652 12095 layer_factory.hpp:77] Creating layer inception_4d/relu_1x1
I0201 12:15:03.598662 12095 net.cpp:100] Creating Layer inception_4d/relu_1x1
I0201 12:15:03.598670 12095 net.cpp:434] inception_4d/relu_1x1 <- inception_4d/1x1
I0201 12:15:03.598683 12095 net.cpp:395] inception_4d/relu_1x1 -> inception_4d/1x1 (in-place)
I0201 12:15:03.598695 12095 net.cpp:150] Setting up inception_4d/relu_1x1
I0201 12:15:03.598703 12095 net.cpp:157] Top shape: 32 112 14 14 (702464)
I0201 12:15:03.598711 12095 net.cpp:165] Memory required for data: 1487304196
I0201 12:15:03.598717 12095 layer_factory.hpp:77] Creating layer inception_4d/3x3_reduce
I0201 12:15:03.598732 12095 net.cpp:100] Creating Layer inception_4d/3x3_reduce
I0201 12:15:03.598742 12095 net.cpp:434] inception_4d/3x3_reduce <- inception_4c/output_inception_4c/output_0_split_1
I0201 12:15:03.598752 12095 net.cpp:408] inception_4d/3x3_reduce -> inception_4d/3x3_reduce
I0201 12:15:03.599552 12095 net.cpp:150] Setting up inception_4d/3x3_reduce
I0201 12:15:03.599580 12095 net.cpp:157] Top shape: 32 144 14 14 (903168)
I0201 12:15:03.599586 12095 net.cpp:165] Memory required for data: 1490916868
I0201 12:15:03.599597 12095 layer_factory.hpp:77] Creating layer inception_4d/relu_3x3_reduce
I0201 12:15:03.599611 12095 net.cpp:100] Creating Layer inception_4d/relu_3x3_reduce
I0201 12:15:03.599619 12095 net.cpp:434] inception_4d/relu_3x3_reduce <- inception_4d/3x3_reduce
I0201 12:15:03.599629 12095 net.cpp:395] inception_4d/relu_3x3_reduce -> inception_4d/3x3_reduce (in-place)
I0201 12:15:03.599639 12095 net.cpp:150] Setting up inception_4d/relu_3x3_reduce
I0201 12:15:03.599648 12095 net.cpp:157] Top shape: 32 144 14 14 (903168)
I0201 12:15:03.599655 12095 net.cpp:165] Memory required for data: 1494529540
I0201 12:15:03.599663 12095 layer_factory.hpp:77] Creating layer inception_4d/3x3
I0201 12:15:03.599675 12095 net.cpp:100] Creating Layer inception_4d/3x3
I0201 12:15:03.599684 12095 net.cpp:434] inception_4d/3x3 <- inception_4d/3x3_reduce
I0201 12:15:03.599696 12095 net.cpp:408] inception_4d/3x3 -> inception_4d/3x3
I0201 12:15:03.603675 12095 net.cpp:150] Setting up inception_4d/3x3
I0201 12:15:03.603693 12095 net.cpp:157] Top shape: 32 288 14 14 (1806336)
I0201 12:15:03.603699 12095 net.cpp:165] Memory required for data: 1501754884
I0201 12:15:03.603710 12095 layer_factory.hpp:77] Creating layer inception_4d/relu_3x3
I0201 12:15:03.603720 12095 net.cpp:100] Creating Layer inception_4d/relu_3x3
I0201 12:15:03.603729 12095 net.cpp:434] inception_4d/relu_3x3 <- inception_4d/3x3
I0201 12:15:03.603737 12095 net.cpp:395] inception_4d/relu_3x3 -> inception_4d/3x3 (in-place)
I0201 12:15:03.603749 12095 net.cpp:150] Setting up inception_4d/relu_3x3
I0201 12:15:03.603756 12095 net.cpp:157] Top shape: 32 288 14 14 (1806336)
I0201 12:15:03.603765 12095 net.cpp:165] Memory required for data: 1508980228
I0201 12:15:03.603771 12095 layer_factory.hpp:77] Creating layer inception_4d/5x5_reduce
I0201 12:15:03.603787 12095 net.cpp:100] Creating Layer inception_4d/5x5_reduce
I0201 12:15:03.603796 12095 net.cpp:434] inception_4d/5x5_reduce <- inception_4c/output_inception_4c/output_0_split_2
I0201 12:15:03.603806 12095 net.cpp:408] inception_4d/5x5_reduce -> inception_4d/5x5_reduce
I0201 12:15:03.603988 12095 net.cpp:150] Setting up inception_4d/5x5_reduce
I0201 12:15:03.604001 12095 net.cpp:157] Top shape: 32 32 14 14 (200704)
I0201 12:15:03.604007 12095 net.cpp:165] Memory required for data: 1509783044
I0201 12:15:03.604018 12095 layer_factory.hpp:77] Creating layer inception_4d/relu_5x5_reduce
I0201 12:15:03.604028 12095 net.cpp:100] Creating Layer inception_4d/relu_5x5_reduce
I0201 12:15:03.604037 12095 net.cpp:434] inception_4d/relu_5x5_reduce <- inception_4d/5x5_reduce
I0201 12:15:03.604045 12095 net.cpp:395] inception_4d/relu_5x5_reduce -> inception_4d/5x5_reduce (in-place)
I0201 12:15:03.604055 12095 net.cpp:150] Setting up inception_4d/relu_5x5_reduce
I0201 12:15:03.604064 12095 net.cpp:157] Top shape: 32 32 14 14 (200704)
I0201 12:15:03.604071 12095 net.cpp:165] Memory required for data: 1510585860
I0201 12:15:03.604079 12095 layer_factory.hpp:77] Creating layer inception_4d/5x5
I0201 12:15:03.604094 12095 net.cpp:100] Creating Layer inception_4d/5x5
I0201 12:15:03.604102 12095 net.cpp:434] inception_4d/5x5 <- inception_4d/5x5_reduce
I0201 12:15:03.604115 12095 net.cpp:408] inception_4d/5x5 -> inception_4d/5x5
I0201 12:15:03.604677 12095 net.cpp:150] Setting up inception_4d/5x5
I0201 12:15:03.604692 12095 net.cpp:157] Top shape: 32 64 14 14 (401408)
I0201 12:15:03.604699 12095 net.cpp:165] Memory required for data: 1512191492
I0201 12:15:03.604710 12095 layer_factory.hpp:77] Creating layer inception_4d/relu_5x5
I0201 12:15:03.604719 12095 net.cpp:100] Creating Layer inception_4d/relu_5x5
I0201 12:15:03.604727 12095 net.cpp:434] inception_4d/relu_5x5 <- inception_4d/5x5
I0201 12:15:03.604740 12095 net.cpp:395] inception_4d/relu_5x5 -> inception_4d/5x5 (in-place)
I0201 12:15:03.604751 12095 net.cpp:150] Setting up inception_4d/relu_5x5
I0201 12:15:03.604776 12095 net.cpp:157] Top shape: 32 64 14 14 (401408)
I0201 12:15:03.604792 12095 net.cpp:165] Memory required for data: 1513797124
I0201 12:15:03.604800 12095 layer_factory.hpp:77] Creating layer inception_4d/pool
I0201 12:15:03.604810 12095 net.cpp:100] Creating Layer inception_4d/pool
I0201 12:15:03.604818 12095 net.cpp:434] inception_4d/pool <- inception_4c/output_inception_4c/output_0_split_3
I0201 12:15:03.604832 12095 net.cpp:408] inception_4d/pool -> inception_4d/pool
I0201 12:15:03.604846 12095 net.cpp:150] Setting up inception_4d/pool
I0201 12:15:03.604856 12095 net.cpp:157] Top shape: 32 512 14 14 (3211264)
I0201 12:15:03.604862 12095 net.cpp:165] Memory required for data: 1526642180
I0201 12:15:03.604871 12095 layer_factory.hpp:77] Creating layer inception_4d/pool_proj
I0201 12:15:03.604885 12095 net.cpp:100] Creating Layer inception_4d/pool_proj
I0201 12:15:03.604893 12095 net.cpp:434] inception_4d/pool_proj <- inception_4d/pool
I0201 12:15:03.604907 12095 net.cpp:408] inception_4d/pool_proj -> inception_4d/pool_proj
I0201 12:15:03.605275 12095 net.cpp:150] Setting up inception_4d/pool_proj
I0201 12:15:03.605290 12095 net.cpp:157] Top shape: 32 64 14 14 (401408)
I0201 12:15:03.605298 12095 net.cpp:165] Memory required for data: 1528247812
I0201 12:15:03.605307 12095 layer_factory.hpp:77] Creating layer inception_4d/relu_pool_proj
I0201 12:15:03.605317 12095 net.cpp:100] Creating Layer inception_4d/relu_pool_proj
I0201 12:15:03.605325 12095 net.cpp:434] inception_4d/relu_pool_proj <- inception_4d/pool_proj
I0201 12:15:03.605335 12095 net.cpp:395] inception_4d/relu_pool_proj -> inception_4d/pool_proj (in-place)
I0201 12:15:03.605345 12095 net.cpp:150] Setting up inception_4d/relu_pool_proj
I0201 12:15:03.605355 12095 net.cpp:157] Top shape: 32 64 14 14 (401408)
I0201 12:15:03.605361 12095 net.cpp:165] Memory required for data: 1529853444
I0201 12:15:03.605368 12095 layer_factory.hpp:77] Creating layer inception_4d/output
I0201 12:15:03.605381 12095 net.cpp:100] Creating Layer inception_4d/output
I0201 12:15:03.605389 12095 net.cpp:434] inception_4d/output <- inception_4d/1x1
I0201 12:15:03.605397 12095 net.cpp:434] inception_4d/output <- inception_4d/3x3
I0201 12:15:03.605406 12095 net.cpp:434] inception_4d/output <- inception_4d/5x5
I0201 12:15:03.605413 12095 net.cpp:434] inception_4d/output <- inception_4d/pool_proj
I0201 12:15:03.605423 12095 net.cpp:408] inception_4d/output -> inception_4d/output
I0201 12:15:03.605435 12095 net.cpp:150] Setting up inception_4d/output
I0201 12:15:03.605444 12095 net.cpp:157] Top shape: 32 528 14 14 (3311616)
I0201 12:15:03.605451 12095 net.cpp:165] Memory required for data: 1543099908
I0201 12:15:03.605458 12095 layer_factory.hpp:77] Creating layer inception_4d/output_inception_4d/output_0_split
I0201 12:15:03.605481 12095 net.cpp:100] Creating Layer inception_4d/output_inception_4d/output_0_split
I0201 12:15:03.605489 12095 net.cpp:434] inception_4d/output_inception_4d/output_0_split <- inception_4d/output
I0201 12:15:03.605499 12095 net.cpp:408] inception_4d/output_inception_4d/output_0_split -> inception_4d/output_inception_4d/output_0_split_0
I0201 12:15:03.605510 12095 net.cpp:408] inception_4d/output_inception_4d/output_0_split -> inception_4d/output_inception_4d/output_0_split_1
I0201 12:15:03.605521 12095 net.cpp:408] inception_4d/output_inception_4d/output_0_split -> inception_4d/output_inception_4d/output_0_split_2
I0201 12:15:03.605536 12095 net.cpp:408] inception_4d/output_inception_4d/output_0_split -> inception_4d/output_inception_4d/output_0_split_3
I0201 12:15:03.605547 12095 net.cpp:408] inception_4d/output_inception_4d/output_0_split -> inception_4d/output_inception_4d/output_0_split_4
I0201 12:15:03.605561 12095 net.cpp:150] Setting up inception_4d/output_inception_4d/output_0_split
I0201 12:15:03.605569 12095 net.cpp:157] Top shape: 32 528 14 14 (3311616)
I0201 12:15:03.605577 12095 net.cpp:157] Top shape: 32 528 14 14 (3311616)
I0201 12:15:03.605586 12095 net.cpp:157] Top shape: 32 528 14 14 (3311616)
I0201 12:15:03.605600 12095 net.cpp:157] Top shape: 32 528 14 14 (3311616)
I0201 12:15:03.605619 12095 net.cpp:157] Top shape: 32 528 14 14 (3311616)
I0201 12:15:03.605626 12095 net.cpp:165] Memory required for data: 1609332228
I0201 12:15:03.605634 12095 layer_factory.hpp:77] Creating layer loss2/ave_pool
I0201 12:15:03.605648 12095 net.cpp:100] Creating Layer loss2/ave_pool
I0201 12:15:03.605656 12095 net.cpp:434] loss2/ave_pool <- inception_4d/output_inception_4d/output_0_split_0
I0201 12:15:03.605666 12095 net.cpp:408] loss2/ave_pool -> loss2/ave_pool
I0201 12:15:03.605679 12095 net.cpp:150] Setting up loss2/ave_pool
I0201 12:15:03.605689 12095 net.cpp:157] Top shape: 32 528 4 4 (270336)
I0201 12:15:03.605695 12095 net.cpp:165] Memory required for data: 1610413572
I0201 12:15:03.605703 12095 layer_factory.hpp:77] Creating layer loss2/conv
I0201 12:15:03.605718 12095 net.cpp:100] Creating Layer loss2/conv
I0201 12:15:03.605727 12095 net.cpp:434] loss2/conv <- loss2/ave_pool
I0201 12:15:03.605741 12095 net.cpp:408] loss2/conv -> loss2/conv
I0201 12:15:03.606470 12095 net.cpp:150] Setting up loss2/conv
I0201 12:15:03.606485 12095 net.cpp:157] Top shape: 32 128 4 4 (65536)
I0201 12:15:03.606492 12095 net.cpp:165] Memory required for data: 1610675716
I0201 12:15:03.606503 12095 layer_factory.hpp:77] Creating layer loss2/relu_conv
I0201 12:15:03.606513 12095 net.cpp:100] Creating Layer loss2/relu_conv
I0201 12:15:03.606521 12095 net.cpp:434] loss2/relu_conv <- loss2/conv
I0201 12:15:03.606534 12095 net.cpp:395] loss2/relu_conv -> loss2/conv (in-place)
I0201 12:15:03.606545 12095 net.cpp:150] Setting up loss2/relu_conv
I0201 12:15:03.606554 12095 net.cpp:157] Top shape: 32 128 4 4 (65536)
I0201 12:15:03.606562 12095 net.cpp:165] Memory required for data: 1610937860
I0201 12:15:03.606570 12095 layer_factory.hpp:77] Creating layer loss2/fc
I0201 12:15:03.606582 12095 net.cpp:100] Creating Layer loss2/fc
I0201 12:15:03.606590 12095 net.cpp:434] loss2/fc <- loss2/conv
I0201 12:15:03.606604 12095 net.cpp:408] loss2/fc -> loss2/fc
I0201 12:15:03.625854 12095 net.cpp:150] Setting up loss2/fc
I0201 12:15:03.625885 12095 net.cpp:157] Top shape: 32 1024 (32768)
I0201 12:15:03.625891 12095 net.cpp:165] Memory required for data: 1611068932
I0201 12:15:03.625905 12095 layer_factory.hpp:77] Creating layer loss2/relu_fc
I0201 12:15:03.625918 12095 net.cpp:100] Creating Layer loss2/relu_fc
I0201 12:15:03.625927 12095 net.cpp:434] loss2/relu_fc <- loss2/fc
I0201 12:15:03.625937 12095 net.cpp:395] loss2/relu_fc -> loss2/fc (in-place)
I0201 12:15:03.625951 12095 net.cpp:150] Setting up loss2/relu_fc
I0201 12:15:03.625959 12095 net.cpp:157] Top shape: 32 1024 (32768)
I0201 12:15:03.625967 12095 net.cpp:165] Memory required for data: 1611200004
I0201 12:15:03.625973 12095 layer_factory.hpp:77] Creating layer loss2/drop_fc
I0201 12:15:03.625986 12095 net.cpp:100] Creating Layer loss2/drop_fc
I0201 12:15:03.625994 12095 net.cpp:434] loss2/drop_fc <- loss2/fc
I0201 12:15:03.626003 12095 net.cpp:395] loss2/drop_fc -> loss2/fc (in-place)
I0201 12:15:03.626019 12095 net.cpp:150] Setting up loss2/drop_fc
I0201 12:15:03.626026 12095 net.cpp:157] Top shape: 32 1024 (32768)
I0201 12:15:03.626034 12095 net.cpp:165] Memory required for data: 1611331076
I0201 12:15:03.626040 12095 layer_factory.hpp:77] Creating layer loss2/classifier
I0201 12:15:03.626052 12095 net.cpp:100] Creating Layer loss2/classifier
I0201 12:15:03.626060 12095 net.cpp:434] loss2/classifier <- loss2/fc
I0201 12:15:03.626072 12095 net.cpp:408] loss2/classifier -> loss2/classifier
I0201 12:15:03.635828 12095 net.cpp:150] Setting up loss2/classifier
I0201 12:15:03.635845 12095 net.cpp:157] Top shape: 32 1000 (32000)
I0201 12:15:03.635852 12095 net.cpp:165] Memory required for data: 1611459076
I0201 12:15:03.635864 12095 layer_factory.hpp:77] Creating layer loss2/loss
I0201 12:15:03.635876 12095 net.cpp:100] Creating Layer loss2/loss
I0201 12:15:03.635885 12095 net.cpp:434] loss2/loss <- loss2/classifier
I0201 12:15:03.635895 12095 net.cpp:434] loss2/loss <- label_data_1_split_1
I0201 12:15:03.635928 12095 net.cpp:408] loss2/loss -> loss2/loss1
I0201 12:15:03.635957 12095 layer_factory.hpp:77] Creating layer loss2/loss
I0201 12:15:03.636068 12095 net.cpp:150] Setting up loss2/loss
I0201 12:15:03.636081 12095 net.cpp:157] Top shape: (1)
I0201 12:15:03.636090 12095 net.cpp:160]     with loss weight 0.3
I0201 12:15:03.636117 12095 net.cpp:165] Memory required for data: 1611459080
I0201 12:15:03.636126 12095 layer_factory.hpp:77] Creating layer inception_4e/1x1
I0201 12:15:03.636145 12095 net.cpp:100] Creating Layer inception_4e/1x1
I0201 12:15:03.636155 12095 net.cpp:434] inception_4e/1x1 <- inception_4d/output_inception_4d/output_0_split_1
I0201 12:15:03.636167 12095 net.cpp:408] inception_4e/1x1 -> inception_4e/1x1
I0201 12:15:03.637580 12095 net.cpp:150] Setting up inception_4e/1x1
I0201 12:15:03.637596 12095 net.cpp:157] Top shape: 32 256 14 14 (1605632)
I0201 12:15:03.637603 12095 net.cpp:165] Memory required for data: 1617881608
I0201 12:15:03.637614 12095 layer_factory.hpp:77] Creating layer inception_4e/relu_1x1
I0201 12:15:03.637627 12095 net.cpp:100] Creating Layer inception_4e/relu_1x1
I0201 12:15:03.637635 12095 net.cpp:434] inception_4e/relu_1x1 <- inception_4e/1x1
I0201 12:15:03.637645 12095 net.cpp:395] inception_4e/relu_1x1 -> inception_4e/1x1 (in-place)
I0201 12:15:03.637660 12095 net.cpp:150] Setting up inception_4e/relu_1x1
I0201 12:15:03.637668 12095 net.cpp:157] Top shape: 32 256 14 14 (1605632)
I0201 12:15:03.637676 12095 net.cpp:165] Memory required for data: 1624304136
I0201 12:15:03.637683 12095 layer_factory.hpp:77] Creating layer inception_4e/3x3_reduce
I0201 12:15:03.637696 12095 net.cpp:100] Creating Layer inception_4e/3x3_reduce
I0201 12:15:03.637703 12095 net.cpp:434] inception_4e/3x3_reduce <- inception_4d/output_inception_4d/output_0_split_2
I0201 12:15:03.637717 12095 net.cpp:408] inception_4e/3x3_reduce -> inception_4e/3x3_reduce
I0201 12:15:03.638617 12095 net.cpp:150] Setting up inception_4e/3x3_reduce
I0201 12:15:03.638633 12095 net.cpp:157] Top shape: 32 160 14 14 (1003520)
I0201 12:15:03.638639 12095 net.cpp:165] Memory required for data: 1628318216
I0201 12:15:03.638650 12095 layer_factory.hpp:77] Creating layer inception_4e/relu_3x3_reduce
I0201 12:15:03.638664 12095 net.cpp:100] Creating Layer inception_4e/relu_3x3_reduce
I0201 12:15:03.638672 12095 net.cpp:434] inception_4e/relu_3x3_reduce <- inception_4e/3x3_reduce
I0201 12:15:03.638682 12095 net.cpp:395] inception_4e/relu_3x3_reduce -> inception_4e/3x3_reduce (in-place)
I0201 12:15:03.638692 12095 net.cpp:150] Setting up inception_4e/relu_3x3_reduce
I0201 12:15:03.638701 12095 net.cpp:157] Top shape: 32 160 14 14 (1003520)
I0201 12:15:03.638708 12095 net.cpp:165] Memory required for data: 1632332296
I0201 12:15:03.638716 12095 layer_factory.hpp:77] Creating layer inception_4e/3x3
I0201 12:15:03.638731 12095 net.cpp:100] Creating Layer inception_4e/3x3
I0201 12:15:03.638741 12095 net.cpp:434] inception_4e/3x3 <- inception_4e/3x3_reduce
I0201 12:15:03.638753 12095 net.cpp:408] inception_4e/3x3 -> inception_4e/3x3
I0201 12:15:03.643776 12095 net.cpp:150] Setting up inception_4e/3x3
I0201 12:15:03.643800 12095 net.cpp:157] Top shape: 32 320 14 14 (2007040)
I0201 12:15:03.643806 12095 net.cpp:165] Memory required for data: 1640360456
I0201 12:15:03.643817 12095 layer_factory.hpp:77] Creating layer inception_4e/relu_3x3
I0201 12:15:03.643827 12095 net.cpp:100] Creating Layer inception_4e/relu_3x3
I0201 12:15:03.643836 12095 net.cpp:434] inception_4e/relu_3x3 <- inception_4e/3x3
I0201 12:15:03.643848 12095 net.cpp:395] inception_4e/relu_3x3 -> inception_4e/3x3 (in-place)
I0201 12:15:03.643859 12095 net.cpp:150] Setting up inception_4e/relu_3x3
I0201 12:15:03.643868 12095 net.cpp:157] Top shape: 32 320 14 14 (2007040)
I0201 12:15:03.643875 12095 net.cpp:165] Memory required for data: 1648388616
I0201 12:15:03.643882 12095 layer_factory.hpp:77] Creating layer inception_4e/5x5_reduce
I0201 12:15:03.643894 12095 net.cpp:100] Creating Layer inception_4e/5x5_reduce
I0201 12:15:03.643903 12095 net.cpp:434] inception_4e/5x5_reduce <- inception_4d/output_inception_4d/output_0_split_3
I0201 12:15:03.643930 12095 net.cpp:408] inception_4e/5x5_reduce -> inception_4e/5x5_reduce
I0201 12:15:03.644119 12095 net.cpp:150] Setting up inception_4e/5x5_reduce
I0201 12:15:03.644134 12095 net.cpp:157] Top shape: 32 32 14 14 (200704)
I0201 12:15:03.644141 12095 net.cpp:165] Memory required for data: 1649191432
I0201 12:15:03.644151 12095 layer_factory.hpp:77] Creating layer inception_4e/relu_5x5_reduce
I0201 12:15:03.644162 12095 net.cpp:100] Creating Layer inception_4e/relu_5x5_reduce
I0201 12:15:03.644170 12095 net.cpp:434] inception_4e/relu_5x5_reduce <- inception_4e/5x5_reduce
I0201 12:15:03.644179 12095 net.cpp:395] inception_4e/relu_5x5_reduce -> inception_4e/5x5_reduce (in-place)
I0201 12:15:03.644189 12095 net.cpp:150] Setting up inception_4e/relu_5x5_reduce
I0201 12:15:03.644198 12095 net.cpp:157] Top shape: 32 32 14 14 (200704)
I0201 12:15:03.644206 12095 net.cpp:165] Memory required for data: 1649994248
I0201 12:15:03.644212 12095 layer_factory.hpp:77] Creating layer inception_4e/5x5
I0201 12:15:03.644248 12095 net.cpp:100] Creating Layer inception_4e/5x5
I0201 12:15:03.644266 12095 net.cpp:434] inception_4e/5x5 <- inception_4e/5x5_reduce
I0201 12:15:03.644278 12095 net.cpp:408] inception_4e/5x5 -> inception_4e/5x5
I0201 12:15:03.645359 12095 net.cpp:150] Setting up inception_4e/5x5
I0201 12:15:03.645378 12095 net.cpp:157] Top shape: 32 128 14 14 (802816)
I0201 12:15:03.645385 12095 net.cpp:165] Memory required for data: 1653205512
I0201 12:15:03.645396 12095 layer_factory.hpp:77] Creating layer inception_4e/relu_5x5
I0201 12:15:03.645406 12095 net.cpp:100] Creating Layer inception_4e/relu_5x5
I0201 12:15:03.645414 12095 net.cpp:434] inception_4e/relu_5x5 <- inception_4e/5x5
I0201 12:15:03.645423 12095 net.cpp:395] inception_4e/relu_5x5 -> inception_4e/5x5 (in-place)
I0201 12:15:03.645434 12095 net.cpp:150] Setting up inception_4e/relu_5x5
I0201 12:15:03.645443 12095 net.cpp:157] Top shape: 32 128 14 14 (802816)
I0201 12:15:03.645449 12095 net.cpp:165] Memory required for data: 1656416776
I0201 12:15:03.645457 12095 layer_factory.hpp:77] Creating layer inception_4e/pool
I0201 12:15:03.645478 12095 net.cpp:100] Creating Layer inception_4e/pool
I0201 12:15:03.645486 12095 net.cpp:434] inception_4e/pool <- inception_4d/output_inception_4d/output_0_split_4
I0201 12:15:03.645496 12095 net.cpp:408] inception_4e/pool -> inception_4e/pool
I0201 12:15:03.645511 12095 net.cpp:150] Setting up inception_4e/pool
I0201 12:15:03.645521 12095 net.cpp:157] Top shape: 32 528 14 14 (3311616)
I0201 12:15:03.645529 12095 net.cpp:165] Memory required for data: 1669663240
I0201 12:15:03.645535 12095 layer_factory.hpp:77] Creating layer inception_4e/pool_proj
I0201 12:15:03.645551 12095 net.cpp:100] Creating Layer inception_4e/pool_proj
I0201 12:15:03.645560 12095 net.cpp:434] inception_4e/pool_proj <- inception_4e/pool
I0201 12:15:03.645573 12095 net.cpp:408] inception_4e/pool_proj -> inception_4e/pool_proj
I0201 12:15:03.646297 12095 net.cpp:150] Setting up inception_4e/pool_proj
I0201 12:15:03.646313 12095 net.cpp:157] Top shape: 32 128 14 14 (802816)
I0201 12:15:03.646320 12095 net.cpp:165] Memory required for data: 1672874504
I0201 12:15:03.646332 12095 layer_factory.hpp:77] Creating layer inception_4e/relu_pool_proj
I0201 12:15:03.646345 12095 net.cpp:100] Creating Layer inception_4e/relu_pool_proj
I0201 12:15:03.646354 12095 net.cpp:434] inception_4e/relu_pool_proj <- inception_4e/pool_proj
I0201 12:15:03.646364 12095 net.cpp:395] inception_4e/relu_pool_proj -> inception_4e/pool_proj (in-place)
I0201 12:15:03.646374 12095 net.cpp:150] Setting up inception_4e/relu_pool_proj
I0201 12:15:03.646384 12095 net.cpp:157] Top shape: 32 128 14 14 (802816)
I0201 12:15:03.646390 12095 net.cpp:165] Memory required for data: 1676085768
I0201 12:15:03.646399 12095 layer_factory.hpp:77] Creating layer inception_4e/output
I0201 12:15:03.646407 12095 net.cpp:100] Creating Layer inception_4e/output
I0201 12:15:03.646415 12095 net.cpp:434] inception_4e/output <- inception_4e/1x1
I0201 12:15:03.646431 12095 net.cpp:434] inception_4e/output <- inception_4e/3x3
I0201 12:15:03.646450 12095 net.cpp:434] inception_4e/output <- inception_4e/5x5
I0201 12:15:03.646457 12095 net.cpp:434] inception_4e/output <- inception_4e/pool_proj
I0201 12:15:03.646471 12095 net.cpp:408] inception_4e/output -> inception_4e/output
I0201 12:15:03.646487 12095 net.cpp:150] Setting up inception_4e/output
I0201 12:15:03.646497 12095 net.cpp:157] Top shape: 32 832 14 14 (5218304)
I0201 12:15:03.646503 12095 net.cpp:165] Memory required for data: 1696958984
I0201 12:15:03.646512 12095 layer_factory.hpp:77] Creating layer pool4/3x3_s2
I0201 12:15:03.646522 12095 net.cpp:100] Creating Layer pool4/3x3_s2
I0201 12:15:03.646529 12095 net.cpp:434] pool4/3x3_s2 <- inception_4e/output
I0201 12:15:03.646539 12095 net.cpp:408] pool4/3x3_s2 -> pool4/3x3_s2
I0201 12:15:03.646559 12095 net.cpp:150] Setting up pool4/3x3_s2
I0201 12:15:03.646569 12095 net.cpp:157] Top shape: 32 832 7 7 (1304576)
I0201 12:15:03.646575 12095 net.cpp:165] Memory required for data: 1702177288
I0201 12:15:03.646582 12095 layer_factory.hpp:77] Creating layer pool4/3x3_s2_pool4/3x3_s2_0_split
I0201 12:15:03.646600 12095 net.cpp:100] Creating Layer pool4/3x3_s2_pool4/3x3_s2_0_split
I0201 12:15:03.646607 12095 net.cpp:434] pool4/3x3_s2_pool4/3x3_s2_0_split <- pool4/3x3_s2
I0201 12:15:03.646620 12095 net.cpp:408] pool4/3x3_s2_pool4/3x3_s2_0_split -> pool4/3x3_s2_pool4/3x3_s2_0_split_0
I0201 12:15:03.646631 12095 net.cpp:408] pool4/3x3_s2_pool4/3x3_s2_0_split -> pool4/3x3_s2_pool4/3x3_s2_0_split_1
I0201 12:15:03.646642 12095 net.cpp:408] pool4/3x3_s2_pool4/3x3_s2_0_split -> pool4/3x3_s2_pool4/3x3_s2_0_split_2
I0201 12:15:03.646653 12095 net.cpp:408] pool4/3x3_s2_pool4/3x3_s2_0_split -> pool4/3x3_s2_pool4/3x3_s2_0_split_3
I0201 12:15:03.646668 12095 net.cpp:150] Setting up pool4/3x3_s2_pool4/3x3_s2_0_split
I0201 12:15:03.646677 12095 net.cpp:157] Top shape: 32 832 7 7 (1304576)
I0201 12:15:03.646687 12095 net.cpp:157] Top shape: 32 832 7 7 (1304576)
I0201 12:15:03.646694 12095 net.cpp:157] Top shape: 32 832 7 7 (1304576)
I0201 12:15:03.646703 12095 net.cpp:157] Top shape: 32 832 7 7 (1304576)
I0201 12:15:03.646709 12095 net.cpp:165] Memory required for data: 1723050504
I0201 12:15:03.646716 12095 layer_factory.hpp:77] Creating layer inception_5a/1x1
I0201 12:15:03.646731 12095 net.cpp:100] Creating Layer inception_5a/1x1
I0201 12:15:03.646740 12095 net.cpp:434] inception_5a/1x1 <- pool4/3x3_s2_pool4/3x3_s2_0_split_0
I0201 12:15:03.646750 12095 net.cpp:408] inception_5a/1x1 -> inception_5a/1x1
I0201 12:15:03.648942 12095 net.cpp:150] Setting up inception_5a/1x1
I0201 12:15:03.648958 12095 net.cpp:157] Top shape: 32 256 7 7 (401408)
I0201 12:15:03.648965 12095 net.cpp:165] Memory required for data: 1724656136
I0201 12:15:03.648977 12095 layer_factory.hpp:77] Creating layer inception_5a/relu_1x1
I0201 12:15:03.648986 12095 net.cpp:100] Creating Layer inception_5a/relu_1x1
I0201 12:15:03.648994 12095 net.cpp:434] inception_5a/relu_1x1 <- inception_5a/1x1
I0201 12:15:03.649004 12095 net.cpp:395] inception_5a/relu_1x1 -> inception_5a/1x1 (in-place)
I0201 12:15:03.649014 12095 net.cpp:150] Setting up inception_5a/relu_1x1
I0201 12:15:03.649024 12095 net.cpp:157] Top shape: 32 256 7 7 (401408)
I0201 12:15:03.649030 12095 net.cpp:165] Memory required for data: 1726261768
I0201 12:15:03.649037 12095 layer_factory.hpp:77] Creating layer inception_5a/3x3_reduce
I0201 12:15:03.649054 12095 net.cpp:100] Creating Layer inception_5a/3x3_reduce
I0201 12:15:03.649062 12095 net.cpp:434] inception_5a/3x3_reduce <- pool4/3x3_s2_pool4/3x3_s2_0_split_1
I0201 12:15:03.649072 12095 net.cpp:408] inception_5a/3x3_reduce -> inception_5a/3x3_reduce
I0201 12:15:03.650452 12095 net.cpp:150] Setting up inception_5a/3x3_reduce
I0201 12:15:03.650467 12095 net.cpp:157] Top shape: 32 160 7 7 (250880)
I0201 12:15:03.650475 12095 net.cpp:165] Memory required for data: 1727265288
I0201 12:15:03.650485 12095 layer_factory.hpp:77] Creating layer inception_5a/relu_3x3_reduce
I0201 12:15:03.650496 12095 net.cpp:100] Creating Layer inception_5a/relu_3x3_reduce
I0201 12:15:03.650521 12095 net.cpp:434] inception_5a/relu_3x3_reduce <- inception_5a/3x3_reduce
I0201 12:15:03.650534 12095 net.cpp:395] inception_5a/relu_3x3_reduce -> inception_5a/3x3_reduce (in-place)
I0201 12:15:03.650547 12095 net.cpp:150] Setting up inception_5a/relu_3x3_reduce
I0201 12:15:03.650555 12095 net.cpp:157] Top shape: 32 160 7 7 (250880)
I0201 12:15:03.650563 12095 net.cpp:165] Memory required for data: 1728268808
I0201 12:15:03.650569 12095 layer_factory.hpp:77] Creating layer inception_5a/3x3
I0201 12:15:03.650581 12095 net.cpp:100] Creating Layer inception_5a/3x3
I0201 12:15:03.650589 12095 net.cpp:434] inception_5a/3x3 <- inception_5a/3x3_reduce
I0201 12:15:03.650599 12095 net.cpp:408] inception_5a/3x3 -> inception_5a/3x3
I0201 12:15:03.655545 12095 net.cpp:150] Setting up inception_5a/3x3
I0201 12:15:03.655561 12095 net.cpp:157] Top shape: 32 320 7 7 (501760)
I0201 12:15:03.655568 12095 net.cpp:165] Memory required for data: 1730275848
I0201 12:15:03.655578 12095 layer_factory.hpp:77] Creating layer inception_5a/relu_3x3
I0201 12:15:03.655592 12095 net.cpp:100] Creating Layer inception_5a/relu_3x3
I0201 12:15:03.655601 12095 net.cpp:434] inception_5a/relu_3x3 <- inception_5a/3x3
I0201 12:15:03.655611 12095 net.cpp:395] inception_5a/relu_3x3 -> inception_5a/3x3 (in-place)
I0201 12:15:03.655621 12095 net.cpp:150] Setting up inception_5a/relu_3x3
I0201 12:15:03.655629 12095 net.cpp:157] Top shape: 32 320 7 7 (501760)
I0201 12:15:03.655637 12095 net.cpp:165] Memory required for data: 1732282888
I0201 12:15:03.655643 12095 layer_factory.hpp:77] Creating layer inception_5a/5x5_reduce
I0201 12:15:03.655655 12095 net.cpp:100] Creating Layer inception_5a/5x5_reduce
I0201 12:15:03.655663 12095 net.cpp:434] inception_5a/5x5_reduce <- pool4/3x3_s2_pool4/3x3_s2_0_split_2
I0201 12:15:03.655678 12095 net.cpp:408] inception_5a/5x5_reduce -> inception_5a/5x5_reduce
I0201 12:15:03.655959 12095 net.cpp:150] Setting up inception_5a/5x5_reduce
I0201 12:15:03.655972 12095 net.cpp:157] Top shape: 32 32 7 7 (50176)
I0201 12:15:03.655979 12095 net.cpp:165] Memory required for data: 1732483592
I0201 12:15:03.655989 12095 layer_factory.hpp:77] Creating layer inception_5a/relu_5x5_reduce
I0201 12:15:03.656003 12095 net.cpp:100] Creating Layer inception_5a/relu_5x5_reduce
I0201 12:15:03.656011 12095 net.cpp:434] inception_5a/relu_5x5_reduce <- inception_5a/5x5_reduce
I0201 12:15:03.656021 12095 net.cpp:395] inception_5a/relu_5x5_reduce -> inception_5a/5x5_reduce (in-place)
I0201 12:15:03.656035 12095 net.cpp:150] Setting up inception_5a/relu_5x5_reduce
I0201 12:15:03.656044 12095 net.cpp:157] Top shape: 32 32 7 7 (50176)
I0201 12:15:03.656051 12095 net.cpp:165] Memory required for data: 1732684296
I0201 12:15:03.656059 12095 layer_factory.hpp:77] Creating layer inception_5a/5x5
I0201 12:15:03.656070 12095 net.cpp:100] Creating Layer inception_5a/5x5
I0201 12:15:03.656078 12095 net.cpp:434] inception_5a/5x5 <- inception_5a/5x5_reduce
I0201 12:15:03.656091 12095 net.cpp:408] inception_5a/5x5 -> inception_5a/5x5
I0201 12:15:03.657172 12095 net.cpp:150] Setting up inception_5a/5x5
I0201 12:15:03.657187 12095 net.cpp:157] Top shape: 32 128 7 7 (200704)
I0201 12:15:03.657194 12095 net.cpp:165] Memory required for data: 1733487112
I0201 12:15:03.657204 12095 layer_factory.hpp:77] Creating layer inception_5a/relu_5x5
I0201 12:15:03.657215 12095 net.cpp:100] Creating Layer inception_5a/relu_5x5
I0201 12:15:03.657223 12095 net.cpp:434] inception_5a/relu_5x5 <- inception_5a/5x5
I0201 12:15:03.657236 12095 net.cpp:395] inception_5a/relu_5x5 -> inception_5a/5x5 (in-place)
I0201 12:15:03.657248 12095 net.cpp:150] Setting up inception_5a/relu_5x5
I0201 12:15:03.657269 12095 net.cpp:157] Top shape: 32 128 7 7 (200704)
I0201 12:15:03.657275 12095 net.cpp:165] Memory required for data: 1734289928
I0201 12:15:03.657284 12095 layer_factory.hpp:77] Creating layer inception_5a/pool
I0201 12:15:03.657294 12095 net.cpp:100] Creating Layer inception_5a/pool
I0201 12:15:03.657301 12095 net.cpp:434] inception_5a/pool <- pool4/3x3_s2_pool4/3x3_s2_0_split_3
I0201 12:15:03.657335 12095 net.cpp:408] inception_5a/pool -> inception_5a/pool
I0201 12:15:03.657349 12095 net.cpp:150] Setting up inception_5a/pool
I0201 12:15:03.657358 12095 net.cpp:157] Top shape: 32 832 7 7 (1304576)
I0201 12:15:03.657366 12095 net.cpp:165] Memory required for data: 1739508232
I0201 12:15:03.657372 12095 layer_factory.hpp:77] Creating layer inception_5a/pool_proj
I0201 12:15:03.657392 12095 net.cpp:100] Creating Layer inception_5a/pool_proj
I0201 12:15:03.657400 12095 net.cpp:434] inception_5a/pool_proj <- inception_5a/pool
I0201 12:15:03.657410 12095 net.cpp:408] inception_5a/pool_proj -> inception_5a/pool_proj
I0201 12:15:03.658501 12095 net.cpp:150] Setting up inception_5a/pool_proj
I0201 12:15:03.658516 12095 net.cpp:157] Top shape: 32 128 7 7 (200704)
I0201 12:15:03.658524 12095 net.cpp:165] Memory required for data: 1740311048
I0201 12:15:03.658535 12095 layer_factory.hpp:77] Creating layer inception_5a/relu_pool_proj
I0201 12:15:03.658547 12095 net.cpp:100] Creating Layer inception_5a/relu_pool_proj
I0201 12:15:03.658556 12095 net.cpp:434] inception_5a/relu_pool_proj <- inception_5a/pool_proj
I0201 12:15:03.658565 12095 net.cpp:395] inception_5a/relu_pool_proj -> inception_5a/pool_proj (in-place)
I0201 12:15:03.658576 12095 net.cpp:150] Setting up inception_5a/relu_pool_proj
I0201 12:15:03.658586 12095 net.cpp:157] Top shape: 32 128 7 7 (200704)
I0201 12:15:03.658592 12095 net.cpp:165] Memory required for data: 1741113864
I0201 12:15:03.658599 12095 layer_factory.hpp:77] Creating layer inception_5a/output
I0201 12:15:03.658612 12095 net.cpp:100] Creating Layer inception_5a/output
I0201 12:15:03.658620 12095 net.cpp:434] inception_5a/output <- inception_5a/1x1
I0201 12:15:03.658629 12095 net.cpp:434] inception_5a/output <- inception_5a/3x3
I0201 12:15:03.658638 12095 net.cpp:434] inception_5a/output <- inception_5a/5x5
I0201 12:15:03.658645 12095 net.cpp:434] inception_5a/output <- inception_5a/pool_proj
I0201 12:15:03.658654 12095 net.cpp:408] inception_5a/output -> inception_5a/output
I0201 12:15:03.658668 12095 net.cpp:150] Setting up inception_5a/output
I0201 12:15:03.658676 12095 net.cpp:157] Top shape: 32 832 7 7 (1304576)
I0201 12:15:03.658684 12095 net.cpp:165] Memory required for data: 1746332168
I0201 12:15:03.658691 12095 layer_factory.hpp:77] Creating layer inception_5a/output_inception_5a/output_0_split
I0201 12:15:03.658700 12095 net.cpp:100] Creating Layer inception_5a/output_inception_5a/output_0_split
I0201 12:15:03.658709 12095 net.cpp:434] inception_5a/output_inception_5a/output_0_split <- inception_5a/output
I0201 12:15:03.658721 12095 net.cpp:408] inception_5a/output_inception_5a/output_0_split -> inception_5a/output_inception_5a/output_0_split_0
I0201 12:15:03.658732 12095 net.cpp:408] inception_5a/output_inception_5a/output_0_split -> inception_5a/output_inception_5a/output_0_split_1
I0201 12:15:03.658743 12095 net.cpp:408] inception_5a/output_inception_5a/output_0_split -> inception_5a/output_inception_5a/output_0_split_2
I0201 12:15:03.658754 12095 net.cpp:408] inception_5a/output_inception_5a/output_0_split -> inception_5a/output_inception_5a/output_0_split_3
I0201 12:15:03.658766 12095 net.cpp:150] Setting up inception_5a/output_inception_5a/output_0_split
I0201 12:15:03.658776 12095 net.cpp:157] Top shape: 32 832 7 7 (1304576)
I0201 12:15:03.658783 12095 net.cpp:157] Top shape: 32 832 7 7 (1304576)
I0201 12:15:03.658792 12095 net.cpp:157] Top shape: 32 832 7 7 (1304576)
I0201 12:15:03.658800 12095 net.cpp:157] Top shape: 32 832 7 7 (1304576)
I0201 12:15:03.658807 12095 net.cpp:165] Memory required for data: 1767205384
I0201 12:15:03.658814 12095 layer_factory.hpp:77] Creating layer inception_5b/1x1
I0201 12:15:03.658829 12095 net.cpp:100] Creating Layer inception_5b/1x1
I0201 12:15:03.658838 12095 net.cpp:434] inception_5b/1x1 <- inception_5a/output_inception_5a/output_0_split_0
I0201 12:15:03.658849 12095 net.cpp:408] inception_5b/1x1 -> inception_5b/1x1
I0201 12:15:03.662060 12095 net.cpp:150] Setting up inception_5b/1x1
I0201 12:15:03.662082 12095 net.cpp:157] Top shape: 32 384 7 7 (602112)
I0201 12:15:03.662106 12095 net.cpp:165] Memory required for data: 1769613832
I0201 12:15:03.662118 12095 layer_factory.hpp:77] Creating layer inception_5b/relu_1x1
I0201 12:15:03.662129 12095 net.cpp:100] Creating Layer inception_5b/relu_1x1
I0201 12:15:03.662137 12095 net.cpp:434] inception_5b/relu_1x1 <- inception_5b/1x1
I0201 12:15:03.662147 12095 net.cpp:395] inception_5b/relu_1x1 -> inception_5b/1x1 (in-place)
I0201 12:15:03.662158 12095 net.cpp:150] Setting up inception_5b/relu_1x1
I0201 12:15:03.662166 12095 net.cpp:157] Top shape: 32 384 7 7 (602112)
I0201 12:15:03.662173 12095 net.cpp:165] Memory required for data: 1772022280
I0201 12:15:03.662180 12095 layer_factory.hpp:77] Creating layer inception_5b/3x3_reduce
I0201 12:15:03.662196 12095 net.cpp:100] Creating Layer inception_5b/3x3_reduce
I0201 12:15:03.662205 12095 net.cpp:434] inception_5b/3x3_reduce <- inception_5a/output_inception_5a/output_0_split_1
I0201 12:15:03.662215 12095 net.cpp:408] inception_5b/3x3_reduce -> inception_5b/3x3_reduce
I0201 12:15:03.663882 12095 net.cpp:150] Setting up inception_5b/3x3_reduce
I0201 12:15:03.663905 12095 net.cpp:157] Top shape: 32 192 7 7 (301056)
I0201 12:15:03.663913 12095 net.cpp:165] Memory required for data: 1773226504
I0201 12:15:03.663923 12095 layer_factory.hpp:77] Creating layer inception_5b/relu_3x3_reduce
I0201 12:15:03.663933 12095 net.cpp:100] Creating Layer inception_5b/relu_3x3_reduce
I0201 12:15:03.663942 12095 net.cpp:434] inception_5b/relu_3x3_reduce <- inception_5b/3x3_reduce
I0201 12:15:03.663955 12095 net.cpp:395] inception_5b/relu_3x3_reduce -> inception_5b/3x3_reduce (in-place)
I0201 12:15:03.663967 12095 net.cpp:150] Setting up inception_5b/relu_3x3_reduce
I0201 12:15:03.663976 12095 net.cpp:157] Top shape: 32 192 7 7 (301056)
I0201 12:15:03.663982 12095 net.cpp:165] Memory required for data: 1774430728
I0201 12:15:03.663990 12095 layer_factory.hpp:77] Creating layer inception_5b/3x3
I0201 12:15:03.664002 12095 net.cpp:100] Creating Layer inception_5b/3x3
I0201 12:15:03.664011 12095 net.cpp:434] inception_5b/3x3 <- inception_5b/3x3_reduce
I0201 12:15:03.664021 12095 net.cpp:408] inception_5b/3x3 -> inception_5b/3x3
I0201 12:15:03.670851 12095 net.cpp:150] Setting up inception_5b/3x3
I0201 12:15:03.670876 12095 net.cpp:157] Top shape: 32 384 7 7 (602112)
I0201 12:15:03.670883 12095 net.cpp:165] Memory required for data: 1776839176
I0201 12:15:03.670894 12095 layer_factory.hpp:77] Creating layer inception_5b/relu_3x3
I0201 12:15:03.670907 12095 net.cpp:100] Creating Layer inception_5b/relu_3x3
I0201 12:15:03.670917 12095 net.cpp:434] inception_5b/relu_3x3 <- inception_5b/3x3
I0201 12:15:03.670927 12095 net.cpp:395] inception_5b/relu_3x3 -> inception_5b/3x3 (in-place)
I0201 12:15:03.670938 12095 net.cpp:150] Setting up inception_5b/relu_3x3
I0201 12:15:03.670946 12095 net.cpp:157] Top shape: 32 384 7 7 (602112)
I0201 12:15:03.670953 12095 net.cpp:165] Memory required for data: 1779247624
I0201 12:15:03.670960 12095 layer_factory.hpp:77] Creating layer inception_5b/5x5_reduce
I0201 12:15:03.670974 12095 net.cpp:100] Creating Layer inception_5b/5x5_reduce
I0201 12:15:03.670981 12095 net.cpp:434] inception_5b/5x5_reduce <- inception_5a/output_inception_5a/output_0_split_2
I0201 12:15:03.670995 12095 net.cpp:408] inception_5b/5x5_reduce -> inception_5b/5x5_reduce
I0201 12:15:03.671418 12095 net.cpp:150] Setting up inception_5b/5x5_reduce
I0201 12:15:03.671433 12095 net.cpp:157] Top shape: 32 48 7 7 (75264)
I0201 12:15:03.671440 12095 net.cpp:165] Memory required for data: 1779548680
I0201 12:15:03.671450 12095 layer_factory.hpp:77] Creating layer inception_5b/relu_5x5_reduce
I0201 12:15:03.671463 12095 net.cpp:100] Creating Layer inception_5b/relu_5x5_reduce
I0201 12:15:03.671473 12095 net.cpp:434] inception_5b/relu_5x5_reduce <- inception_5b/5x5_reduce
I0201 12:15:03.671486 12095 net.cpp:395] inception_5b/relu_5x5_reduce -> inception_5b/5x5_reduce (in-place)
I0201 12:15:03.671497 12095 net.cpp:150] Setting up inception_5b/relu_5x5_reduce
I0201 12:15:03.671514 12095 net.cpp:157] Top shape: 32 48 7 7 (75264)
I0201 12:15:03.671535 12095 net.cpp:165] Memory required for data: 1779849736
I0201 12:15:03.671543 12095 layer_factory.hpp:77] Creating layer inception_5b/5x5
I0201 12:15:03.671555 12095 net.cpp:100] Creating Layer inception_5b/5x5
I0201 12:15:03.671563 12095 net.cpp:434] inception_5b/5x5 <- inception_5b/5x5_reduce
I0201 12:15:03.671577 12095 net.cpp:408] inception_5b/5x5 -> inception_5b/5x5
I0201 12:15:03.673147 12095 net.cpp:150] Setting up inception_5b/5x5
I0201 12:15:03.673163 12095 net.cpp:157] Top shape: 32 128 7 7 (200704)
I0201 12:15:03.673171 12095 net.cpp:165] Memory required for data: 1780652552
I0201 12:15:03.673180 12095 layer_factory.hpp:77] Creating layer inception_5b/relu_5x5
I0201 12:15:03.673192 12095 net.cpp:100] Creating Layer inception_5b/relu_5x5
I0201 12:15:03.673199 12095 net.cpp:434] inception_5b/relu_5x5 <- inception_5b/5x5
I0201 12:15:03.673216 12095 net.cpp:395] inception_5b/relu_5x5 -> inception_5b/5x5 (in-place)
I0201 12:15:03.673228 12095 net.cpp:150] Setting up inception_5b/relu_5x5
I0201 12:15:03.673236 12095 net.cpp:157] Top shape: 32 128 7 7 (200704)
I0201 12:15:03.673243 12095 net.cpp:165] Memory required for data: 1781455368
I0201 12:15:03.673257 12095 layer_factory.hpp:77] Creating layer inception_5b/pool
I0201 12:15:03.673269 12095 net.cpp:100] Creating Layer inception_5b/pool
I0201 12:15:03.673276 12095 net.cpp:434] inception_5b/pool <- inception_5a/output_inception_5a/output_0_split_3
I0201 12:15:03.673290 12095 net.cpp:408] inception_5b/pool -> inception_5b/pool
I0201 12:15:03.673310 12095 net.cpp:150] Setting up inception_5b/pool
I0201 12:15:03.673321 12095 net.cpp:157] Top shape: 32 832 7 7 (1304576)
I0201 12:15:03.673327 12095 net.cpp:165] Memory required for data: 1786673672
I0201 12:15:03.673334 12095 layer_factory.hpp:77] Creating layer inception_5b/pool_proj
I0201 12:15:03.673349 12095 net.cpp:100] Creating Layer inception_5b/pool_proj
I0201 12:15:03.673358 12095 net.cpp:434] inception_5b/pool_proj <- inception_5b/pool
I0201 12:15:03.673368 12095 net.cpp:408] inception_5b/pool_proj -> inception_5b/pool_proj
I0201 12:15:03.674474 12095 net.cpp:150] Setting up inception_5b/pool_proj
I0201 12:15:03.674489 12095 net.cpp:157] Top shape: 32 128 7 7 (200704)
I0201 12:15:03.674495 12095 net.cpp:165] Memory required for data: 1787476488
I0201 12:15:03.674505 12095 layer_factory.hpp:77] Creating layer inception_5b/relu_pool_proj
I0201 12:15:03.674520 12095 net.cpp:100] Creating Layer inception_5b/relu_pool_proj
I0201 12:15:03.674528 12095 net.cpp:434] inception_5b/relu_pool_proj <- inception_5b/pool_proj
I0201 12:15:03.674537 12095 net.cpp:395] inception_5b/relu_pool_proj -> inception_5b/pool_proj (in-place)
I0201 12:15:03.674548 12095 net.cpp:150] Setting up inception_5b/relu_pool_proj
I0201 12:15:03.674557 12095 net.cpp:157] Top shape: 32 128 7 7 (200704)
I0201 12:15:03.674564 12095 net.cpp:165] Memory required for data: 1788279304
I0201 12:15:03.674571 12095 layer_factory.hpp:77] Creating layer inception_5b/output
I0201 12:15:03.674585 12095 net.cpp:100] Creating Layer inception_5b/output
I0201 12:15:03.674593 12095 net.cpp:434] inception_5b/output <- inception_5b/1x1
I0201 12:15:03.674602 12095 net.cpp:434] inception_5b/output <- inception_5b/3x3
I0201 12:15:03.674610 12095 net.cpp:434] inception_5b/output <- inception_5b/5x5
I0201 12:15:03.674618 12095 net.cpp:434] inception_5b/output <- inception_5b/pool_proj
I0201 12:15:03.674628 12095 net.cpp:408] inception_5b/output -> inception_5b/output
I0201 12:15:03.674639 12095 net.cpp:150] Setting up inception_5b/output
I0201 12:15:03.674649 12095 net.cpp:157] Top shape: 32 1024 7 7 (1605632)
I0201 12:15:03.674656 12095 net.cpp:165] Memory required for data: 1794701832
I0201 12:15:03.674664 12095 layer_factory.hpp:77] Creating layer pool5/7x7_s1
I0201 12:15:03.674674 12095 net.cpp:100] Creating Layer pool5/7x7_s1
I0201 12:15:03.674681 12095 net.cpp:434] pool5/7x7_s1 <- inception_5b/output
I0201 12:15:03.674695 12095 net.cpp:408] pool5/7x7_s1 -> pool5/7x7_s1
I0201 12:15:03.674715 12095 net.cpp:150] Setting up pool5/7x7_s1
I0201 12:15:03.674734 12095 net.cpp:157] Top shape: 32 1024 1 1 (32768)
I0201 12:15:03.674741 12095 net.cpp:165] Memory required for data: 1794832904
I0201 12:15:03.674749 12095 layer_factory.hpp:77] Creating layer pool5/drop_7x7_s1
I0201 12:15:03.674760 12095 net.cpp:100] Creating Layer pool5/drop_7x7_s1
I0201 12:15:03.674768 12095 net.cpp:434] pool5/drop_7x7_s1 <- pool5/7x7_s1
I0201 12:15:03.674777 12095 net.cpp:395] pool5/drop_7x7_s1 -> pool5/7x7_s1 (in-place)
I0201 12:15:03.674804 12095 net.cpp:150] Setting up pool5/drop_7x7_s1
I0201 12:15:03.674813 12095 net.cpp:157] Top shape: 32 1024 1 1 (32768)
I0201 12:15:03.674820 12095 net.cpp:165] Memory required for data: 1794963976
I0201 12:15:03.674827 12095 layer_factory.hpp:77] Creating layer loss3/classifier
I0201 12:15:03.674839 12095 net.cpp:100] Creating Layer loss3/classifier
I0201 12:15:03.674846 12095 net.cpp:434] loss3/classifier <- pool5/7x7_s1
I0201 12:15:03.674860 12095 net.cpp:408] loss3/classifier -> loss3/classifier
I0201 12:15:03.684924 12095 net.cpp:150] Setting up loss3/classifier
I0201 12:15:03.684949 12095 net.cpp:157] Top shape: 32 1000 (32000)
I0201 12:15:03.684957 12095 net.cpp:165] Memory required for data: 1795091976
I0201 12:15:03.684967 12095 layer_factory.hpp:77] Creating layer loss3/loss3
I0201 12:15:03.684985 12095 net.cpp:100] Creating Layer loss3/loss3
I0201 12:15:03.684994 12095 net.cpp:434] loss3/loss3 <- loss3/classifier
I0201 12:15:03.685010 12095 net.cpp:434] loss3/loss3 <- label_data_1_split_2
I0201 12:15:03.685020 12095 net.cpp:408] loss3/loss3 -> loss3/loss3
…
I0201 12:15:03.693084 12095 net.cpp:322] The NetState phase (1) differed from the phase (0) specified by a rule in layer data
I0201 12:15:03.696318 12095 net.cpp:58] Initializing net from parameters: 
name: "GoogleNet"
state {
  phase: TEST
}
layer {
  name: "data"
  type: "Data"
  top: "data"
  top: "label"
  include {
    phase: TEST
  }
  transform_param {
    mirror: false
    crop_size: 224
    mean_value: 104
    mean_value: 117
    mean_value: 123
  }
  data_param {
    source: "/home/user/caffeOMP/original/caffe/examples/imagenet/ilsvrc12_val_lmdb"
    batch_size: 50
    backend: LMDB
  }
}
layer {
  name: "conv1/7x7_s2"
  type: "Convolution"
  bottom: "data"
  top: "conv1/7x7_s2"
  param {
    lr_mult: 1
    decay_mult: 1
  }
  param {
    lr_mult: 2
    decay_mult: 0
  }
  convolution_param {
    num_output: 64
    pad: 3
    kernel_size: 7
    stride: 2
    weight_filler {
      type: "xavier"
    }
    bias_filler {
      type: "constant"
      value: 0.2
    }
  }
}
layer {
  name: "conv1/relu_7x7"
  type: "ReLU"
  bottom: "conv1/7x7_s2"
  top: "conv1/7x7_s2"
}
layer {
  name: "pool1/3x3_s2"
  type: "Pooling"
  bottom: "conv1/7x7_s2"
  top: "pool1/3x3_s2"
  pooling_param {
    pool: MAX
    kernel_size: 3
    stride: 2
  }
}
layer {
  name: "pool1/norm1"
  type: "LRN"
  bottom: "pool1/3x3_s2"
  top: "pool1/norm1"
  lrn_param {
    local_size: 5
    alpha: 0.0001
    beta: 0.75
  }
}
layer {
  name: "conv2/3x3_reduce"
  type: "Convolution"
  bottom: "pool1/norm1"
  top: "conv2/3x3_reduce"
  param {
    lr_mult: 1
    decay_mult: 1
  }
  param {
    lr_mult: 2
    decay_mult: 0
  }
  convolution_param {
    num_output: 64
    kernel_size: 1
    weight_filler {
      type: "xavier"
    }
    bias_filler {
      type: "constant"
      value: 0.2
    }
  }
}
layer {
  name: "conv2/relu_3x3_reduce"
  type: "ReLU"
  bottom: "conv2/3x3_reduce"
  top: "conv2/3x3_reduce"
}
layer {
  name: "conv2/3x3"
  type: "Convolution"
  bottom: "conv2/3x3_reduce"
  top: "conv2/3x3"
  param {
    lr_mult: 1
    decay_mult: 1
  }
  param {
    lr_mult: 2
    decay_mult: 0
  }
  convolution_param {
    num_output: 192
    pad: 1
    kernel_size: 3
    weight_filler {
      type: "xavier"
    }
    bias_filler {
      type: "constant"
      value: 0.2
    }
  }
}
layer {
  name: "conv2/relu_3x3"
  type: "ReLU"
  bottom: "conv2/3x3"
  top: "conv2/3x3"
}
layer {
  name: "conv2/norm2"
  type: "LRN"
  bottom: "conv2/3x3"
  top: "conv2/norm2"
  lrn_param {
    local_size: 5
    alpha: 0.0001
    beta: 0.75
  }
}
layer {
  name: "pool2/3x3_s2"
  type: "Pooling"
  bottom: "conv2/norm2"
  top: "pool2/3x3_s2"
  pooling_param {
    pool: MAX
    kernel_size: 3
    stride: 2
  }
}
layer {
  name: "inception_3a/1x1"
  type: "Convolution"
  bottom: "pool2/3x3_s2"
  top: "inception_3a/1x1"
  param {
    lr_mult: 1
    decay_mult: 1
  }
  param {
    lr_mult: 2
    decay_mult: 0
  }
  convolution_param {
    num_output: 64
    kernel_size: 1
    weight_filler {
      type: "xavier"
    }
    bias_filler {
      type: "constant"
      value: 0.2
    }
  }
}
layer {
  name: "inception_3a/relu_1x1"
  type: "ReLU"
  bottom: "inception_3a/1x1"
  top: "inception_3a/1x1"
}
layer {
  name: "inception_3a/3x3_reduce"
  type: "Convolution"
  bottom: "pool2/3x3_s2"
  top: "inception_3a/3x3_reduce"
  param {
    lr_mult: 1
    decay_mult: 1
  }
  param {
    lr_mult: 2
    decay_mult: 0
  }
  convolution_param {
    num_output: 96
    kernel_size: 1
    weight_filler {
      type: "xavier"
    }
    bias_filler {
      type: "constant"
      value: 0.2
    }
  }
}
layer {
  name: "inception_3a/relu_3x3_reduce"
  type: "ReLU"
  bottom: "inception_3a/3x3_reduce"
  top: "inception_3a/3x3_reduce"
}
layer {
  name: "inception_3a/3x3"
  type: "Convolution"
  bottom: "inception_3a/3x3_reduce"
  top: "inception_3a/3x3"
  param {
    lr_mult: 1
    decay_mult: 1
  }
  param {
    lr_mult: 2
    decay_mult: 0
  }
  convolution_param {
    num_output: 128
    pad: 1
    kernel_size: 3
    weight_filler {
      type: "xavier"
    }
    bias_filler {
      type: "constant"
      value: 0.2
    }
  }
}
layer {
  name: "inception_3a/relu_3x3"
  type: "ReLU"
  bottom: "inception_3a/3x3"
  top: "inception_3a/3x3"
}
layer {
  name: "inception_3a/5x5_reduce"
  type: "Convolution"
  bottom: "pool2/3x3_s2"
  top: "inception_3a/5x5_reduce"
  param {
    lr_mult: 1
    decay_mult: 1
  }
  param {
    lr_mult: 2
    decay_mult: 0
  }
  convolution_param {
    num_output: 16
    kernel_size: 1
    weight_filler {
      type: "xavier"
    }
    bias_filler {
      type: "constant"
      value: 0.2
    }
  }
}
layer {
  name: "inception_3a/relu_5x5_reduce"
  type: "ReLU"
  bottom: "inception_3a/5x5_reduce"
  top: "inception_3a/5x5_reduce"
}
layer {
  name: "inception_3a/5x5"
  type: "Convolution"
  bottom: "inception_3a/5x5_reduce"
  top: "inception_3a/5x5"
  param {
    lr_mult: 1
    decay_mult: 1
  }
  param {
    lr_mult: 2
    decay_mult: 0
  }
  convolution_param {
    num_output: 32
    pad: 2
    kernel_size: 5
    weight_filler {
      type: "xavier"
    }
    bias_filler {
      type: "constant"
      value: 0.2
    }
  }
}
layer {
  name: "inception_3a/relu_5x5"
  type: "ReLU"
  bottom: "inception_3a/5x5"
  top: "inception_3a/5x5"
}
layer {
  name: "inception_3a/pool"
  type: "Pooling"
  bottom: "pool2/3x3_s2"
  top: "inception_3a/pool"
  pooling_param {
    pool: MAX
    kernel_size: 3
    stride: 1
    pad: 1
  }
}
layer {
  name: "inception_3a/pool_proj"
  type: "Convolution"
  bottom: "inception_3a/pool"
  top: "inception_3a/pool_proj"
  param {
    lr_mult: 1
    decay_mult: 1
  }
  param {
    lr_mult: 2
    decay_mult: 0
  }
  convolution_param {
    num_output: 32
    kernel_size: 1
    weight_filler {
      type: "xavier"
    }
    bias_filler {
      type: "constant"
      value: 0.2
    }
  }
}
layer {
  name: "inception_3a/relu_pool_proj"
  type: "ReLU"
  bottom: "inception_3a/pool_proj"
  top: "inception_3a/pool_proj"
}
layer {
  name: "inception_3a/output"
  type: "Concat"
  bottom: "inception_3a/1x1"
  bottom: "inception_3a/3x3"
  bottom: "inception_3a/5x5"
  bottom: "inception_3a/pool_proj"
  top: "inception_3a/output"
}
layer {
  name: "inception_3b/1x1"
  type: "Convolution"
  bottom: "inception_3a/output"
  top: "inception_3b/1x1"
  param {
    lr_mult: 1
    decay_mult: 1
  }
  param {
    lr_mult: 2
    decay_mult: 0
  }
  convolution_param {
    num_output: 128
    kernel_size: 1
    weight_filler {
      type: "xavier"
    }
    bias_filler {
      type: "constant"
      value: 0.2
    }
  }
}
layer {
  name: "inception_3b/relu_1x1"
  type: "ReLU"
  bottom: "inception_3b/1x1"
  top: "inception_3b/1x1"
}
layer {
  name: "inception_3b/3x3_reduce"
  type: "Convolution"
  bottom: "inception_3a/output"
  top: "inception_3b/3x3_reduce"
  param {
    lr_mult: 1
    decay_mult: 1
  }
  param {
    lr_mult: 2
    decay_mult: 0
  }
  convolution_param {
    num_output: 128
    kernel_size: 1
    weight_filler {
      type: "xavier"
    }
    bias_filler {
      type: "constant"
      value: 0.2
    }
  }
}
layer {
  name: "inception_3b/relu_3x3_reduce"
  type: "ReLU"
  bottom: "inception_3b/3x3_reduce"
  top: "inception_3b/3x3_reduce"
}
layer {
  name: "inception_3b/3x3"
  type: "Convolution"
  bottom: "inception_3b/3x3_reduce"
  top: "inception_3b/3x3"
  param {
    lr_mult: 1
    decay_mult: 1
  }
  param {
    lr_mult: 2
    decay_mult: 0
  }
  convolution_param {
    num_output: 192
    pad: 1
    kernel_size: 3
    weight_filler {
      type: "xavier"
    }
    bias_filler {
      type: "constant"
      value: 0.2
    }
  }
}
layer {
  name: "inception_3b/relu_3x3"
  type: "ReLU"
  bottom: "inception_3b/3x3"
  top: "inception_3b/3x3"
}
layer {
  name: "inception_3b/5x5_reduce"
  type: "Convolution"
  bottom: "inception_3a/output"
  top: "inception_3b/5x5_reduce"
  param {
    lr_mult: 1
    decay_mult: 1
  }
  param {
    lr_mult: 2
    decay_mult: 0
  }
  convolution_param {
    num_output: 32
    kernel_size: 1
    weight_filler {
      type: "xavier"
    }
    bias_filler {
      type: "constant"
      value: 0.2
    }
  }
}
layer {
  name: "inception_3b/relu_5x5_reduce"
  type: "ReLU"
  bottom: "inception_3b/5x5_reduce"
  top: "inception_3b/5x5_reduce"
}
layer {
  name: "inception_3b/5x5"
  type: "Convolution"
  bottom: "inception_3b/5x5_reduce"
  top: "inception_3b/5x5"
  param {
    lr_mult: 1
    decay_mult: 1
  }
  param {
    lr_mult: 2
    decay_mult: 0
  }
  convolution_param {
    num_output: 96
    pad: 2
    kernel_size: 5
    weight_filler {
      type: "xavier"
    }
    bias_filler {
      type: "constant"
      value: 0.2
    }
  }
}
layer {
  name: "inception_3b/relu_5x5"
  type: "ReLU"
  bottom: "inception_3b/5x5"
  top: "inception_3b/5x5"
}
layer {
  name: "inception_3b/pool"
  type: "Pooling"
  bottom: "inception_3a/output"
  top: "inception_3b/pool"
  pooling_param {
    pool: MAX
    kernel_size: 3
    stride: 1
    pad: 1
  }
}
layer {
  name: "inception_3b/pool_proj"
  type: "Convolution"
  bottom: "inception_3b/pool"
  top: "inception_3b/pool_proj"
  param {
    lr_mult: 1
    decay_mult: 1
  }
  param {
    lr_mult: 2
    decay_mult: 0
  }
  convolution_param {
    num_output: 64
    kernel_size: 1
    weight_filler {
      type: "xavier"
    }
    bias_filler {
      type: "constant"
      value: 0.2
    }
  }
}
layer {
  name: "inception_3b/relu_pool_proj"
  type: "ReLU"
  bottom: "inception_3b/pool_proj"
  top: "inception_3b/pool_proj"
}
layer {
  name: "inception_3b/output"
  type: "Concat"
  bottom: "inception_3b/1x1"
  bottom: "inception_3b/3x3"
  bottom: "inception_3b/5x5"
  bottom: "inception_3b/pool_proj"
  top: "inception_3b/output"
}
layer {
  name: "pool3/3x3_s2"
  type: "Pooling"
  bottom: "inception_3b/output"
  top: "pool3/3x3_s2"
  pooling_param {
    pool: MAX
    kernel_size: 3
    stride: 2
  }
}
layer {
  name: "inception_4a/1x1"
  type: "Convolution"
  bottom: "pool3/3x3_s2"
  top: "inception_4a/1x1"
  param {
    lr_mult: 1
    decay_mult: 1
  }
  param {
    lr_mult: 2
    decay_mult: 0
  }
  convolution_param {
    num_output: 192
    kernel_size: 1
    weight_filler {
      type: "xavier"
    }
    bias_filler {
      type: "constant"
      value: 0.2
    }
  }
}
layer {
  name: "inception_4a/relu_1x1"
  type: "ReLU"
  bottom: "inception_4a/1x1"
  top: "inception_4a/1x1"
}
layer {
  name: "inception_4a/3x3_reduce"
  type: "Convolution"
  bottom: "pool3/3x3_s2"
  top: "inception_4a/3x3_reduce"
  param {
    lr_mult: 1
    decay_mult: 1
  }
  param {
    lr_mult: 2
    decay_mult: 0
  }
  convolution_param {
    num_output: 96
    kernel_size: 1
    weight_filler {
      type: "xavier"
    }
    bias_filler {
      type: "constant"
      value: 0.2
    }
  }
}
layer {
  name: "inception_4a/relu_3x3_reduce"
  type: "ReLU"
  bottom: "inception_4a/3x3_reduce"
  top: "inception_4a/3x3_reduce"
}
layer {
  name: "inception_4a/3x3"
  type: "Convolution"
  bottom: "inception_4a/3x3_reduce"
  top: "inception_4a/3x3"
  param {
    lr_mult: 1
    decay_mult: 1
  }
  param {
    lr_mult: 2
    decay_mult: 0
  }
  convolution_param {
    num_output: 208
    pad: 1
    kernel_size: 3
    weight_filler {
      type: "xavier"
    }
    bias_filler {
      type: "constant"
      value: 0.2
    }
  }
}
layer {
  name: "inception_4a/relu_3x3"
  type: "ReLU"
  bottom: "inception_4a/3x3"
  top: "inception_4a/3x3"
}
layer {
  name: "inception_4a/5x5_reduce"
  type: "Convolution"
  bottom: "pool3/3x3_s2"
  top: "inception_4a/5x5_reduce"
  param {
    lr_mult: 1
    decay_mult: 1
  }
  param {
    lr_mult: 2
    decay_mult: 0
  }
  convolution_param {
    num_output: 16
    kernel_size: 1
    weight_filler {
      type: "xavier"
    }
    bias_filler {
      type: "constant"
      value: 0.2
    }
  }
}
layer {
  name: "inception_4a/relu_5x5_reduce"
  type: "ReLU"
  bottom: "inception_4a/5x5_reduce"
  top: "inception_4a/5x5_reduce"
}
layer {
  name: "inception_4a/5x5"
  type: "Convolution"
  bottom: "inception_4a/5x5_reduce"
  top: "inception_4a/5x5"
  param {
    lr_mult: 1
    decay_mult: 1
  }
  param {
    lr_mult: 2
    decay_mult: 0
  }
  convolution_param {
    num_output: 48
    pad: 2
    kernel_size: 5
    weight_filler {
      type: "xavier"
    }
    bias_filler {
      type: "constant"
      value: 0.2
    }
  }
}
layer {
  name: "inception_4a/relu_5x5"
  type: "ReLU"
  bottom: "inception_4a/5x5"
  top: "inception_4a/5x5"
}
layer {
  name: "inception_4a/pool"
  type: "Pooling"
  bottom: "pool3/3x3_s2"
  top: "inception_4a/pool"
  pooling_param {
    pool: MAX
    kernel_size: 3
    stride: 1
    pad: 1
  }
}
layer {
  name: "inception_4a/pool_proj"
  type: "Convolution"
  bottom: "inception_4a/pool"
  top: "inception_4a/pool_proj"
  param {
    lr_mult: 1
    decay_mult: 1
  }
  param {
    lr_mult: 2
    decay_mult: 0
  }
  convolution_param {
    num_output: 64
    kernel_size: 1
    weight_filler {
      type: "xavier"
    }
    bias_filler {
      type: "constant"
      value: 0.2
    }
  }
}
layer {
  name: "inception_4a/relu_pool_proj"
  type: "ReLU"
  bottom: "inception_4a/pool_proj"
  top: "inception_4a/pool_proj"
}
layer {
  name: "inception_4a/output"
  type: "Concat"
  bottom: "inception_4a/1x1"
  bottom: "inception_4a/3x3"
  bottom: "inception_4a/5x5"
  bottom: "inception_4a/pool_proj"
  top: "inception_4a/output"
}
layer {
  name: "loss1/ave_pool"
  type: "Pooling"
  bottom: "inception_4a/output"
  top: "loss1/ave_pool"
  pooling_param {
    pool: AVE
    kernel_size: 5
    stride: 3
  }
}
layer {
  name: "loss1/conv"
  type: "Convolution"
  bottom: "loss1/ave_pool"
  top: "loss1/conv"
  param {
    lr_mult: 1
    decay_mult: 1
  }
  param {
    lr_mult: 2
    decay_mult: 0
  }
  convolution_param {
    num_output: 128
    kernel_size: 1
    weight_filler {
      type: "xavier"
    }
    bias_filler {
      type: "constant"
      value: 0.2
    }
  }
}
layer {
  name: "loss1/relu_conv"
  type: "ReLU"
  bottom: "loss1/conv"
  top: "loss1/conv"
}
layer {
  name: "loss1/fc"
  type: "InnerProduct"
  bottom: "loss1/conv"
  top: "loss1/fc"
  param {
    lr_mult: 1
    decay_mult: 1
  }
  param {
    lr_mult: 2
    decay_mult: 0
  }
  inner_product_param {
    num_output: 1024
    weight_filler {
      type: "xavier"
    }
    bias_filler {
      type: "constant"
      value: 0.2
    }
  }
}
layer {
  name: "loss1/relu_fc"
  type: "ReLU"
  bottom: "loss1/fc"
  top: "loss1/fc"
}
layer {
  name: "loss1/drop_fc"
  type: "Dropout"
  bottom: "loss1/fc"
  top: "loss1/fc"
  dropout_param {
    dropout_ratio: 0.7
  }
}
layer {
…
I0201 12:15:03.807761 12095 net.cpp:165] Memory required for data: 2190293212
I0201 12:15:03.807768 12095 layer_factory.hpp:77] Creating layer inception_4c/pool
I0201 12:15:03.807778 12095 net.cpp:100] Creating Layer inception_4c/pool
I0201 12:15:03.807786 12095 net.cpp:434] inception_4c/pool <- inception_4b/output_inception_4b/output_0_split_3
I0201 12:15:03.807796 12095 net.cpp:408] inception_4c/pool -> inception_4c/pool
I0201 12:15:03.807811 12095 net.cpp:150] Setting up inception_4c/pool
I0201 12:15:03.807819 12095 net.cpp:157] Top shape: 50 512 14 14 (5017600)
I0201 12:15:03.807826 12095 net.cpp:165] Memory required for data: 2210363612
I0201 12:15:03.807834 12095 layer_factory.hpp:77] Creating layer inception_4c/pool_proj
I0201 12:15:03.807852 12095 net.cpp:100] Creating Layer inception_4c/pool_proj
I0201 12:15:03.807860 12095 net.cpp:434] inception_4c/pool_proj <- inception_4c/pool
I0201 12:15:03.807870 12095 net.cpp:408] inception_4c/pool_proj -> inception_4c/pool_proj
I0201 12:15:03.808212 12095 net.cpp:150] Setting up inception_4c/pool_proj
I0201 12:15:03.808226 12095 net.cpp:157] Top shape: 50 64 14 14 (627200)
I0201 12:15:03.808233 12095 net.cpp:165] Memory required for data: 2212872412
I0201 12:15:03.808243 12095 layer_factory.hpp:77] Creating layer inception_4c/relu_pool_proj
I0201 12:15:03.808269 12095 net.cpp:100] Creating Layer inception_4c/relu_pool_proj
I0201 12:15:03.808279 12095 net.cpp:434] inception_4c/relu_pool_proj <- inception_4c/pool_proj
I0201 12:15:03.808287 12095 net.cpp:395] inception_4c/relu_pool_proj -> inception_4c/pool_proj (in-place)
I0201 12:15:03.808298 12095 net.cpp:150] Setting up inception_4c/relu_pool_proj
I0201 12:15:03.808307 12095 net.cpp:157] Top shape: 50 64 14 14 (627200)
I0201 12:15:03.808315 12095 net.cpp:165] Memory required for data: 2215381212
I0201 12:15:03.808321 12095 layer_factory.hpp:77] Creating layer inception_4c/output
I0201 12:15:03.808333 12095 net.cpp:100] Creating Layer inception_4c/output
I0201 12:15:03.808342 12095 net.cpp:434] inception_4c/output <- inception_4c/1x1
I0201 12:15:03.808351 12095 net.cpp:434] inception_4c/output <- inception_4c/3x3
I0201 12:15:03.808359 12095 net.cpp:434] inception_4c/output <- inception_4c/5x5
I0201 12:15:03.808367 12095 net.cpp:434] inception_4c/output <- inception_4c/pool_proj
I0201 12:15:03.808377 12095 net.cpp:408] inception_4c/output -> inception_4c/output
I0201 12:15:03.808396 12095 net.cpp:150] Setting up inception_4c/output
I0201 12:15:03.808414 12095 net.cpp:157] Top shape: 50 512 14 14 (5017600)
I0201 12:15:03.808421 12095 net.cpp:165] Memory required for data: 2235451612
I0201 12:15:03.808429 12095 layer_factory.hpp:77] Creating layer inception_4c/output_inception_4c/output_0_split
I0201 12:15:03.808439 12095 net.cpp:100] Creating Layer inception_4c/output_inception_4c/output_0_split
I0201 12:15:03.808447 12095 net.cpp:434] inception_4c/output_inception_4c/output_0_split <- inception_4c/output
I0201 12:15:03.808465 12095 net.cpp:408] inception_4c/output_inception_4c/output_0_split -> inception_4c/output_inception_4c/output_0_split_0
I0201 12:15:03.808476 12095 net.cpp:408] inception_4c/output_inception_4c/output_0_split -> inception_4c/output_inception_4c/output_0_split_1
I0201 12:15:03.808487 12095 net.cpp:408] inception_4c/output_inception_4c/output_0_split -> inception_4c/output_inception_4c/output_0_split_2
I0201 12:15:03.808498 12095 net.cpp:408] inception_4c/output_inception_4c/output_0_split -> inception_4c/output_inception_4c/output_0_split_3
I0201 12:15:03.808511 12095 net.cpp:150] Setting up inception_4c/output_inception_4c/output_0_split
I0201 12:15:03.808522 12095 net.cpp:157] Top shape: 50 512 14 14 (5017600)
I0201 12:15:03.808531 12095 net.cpp:157] Top shape: 50 512 14 14 (5017600)
I0201 12:15:03.808539 12095 net.cpp:157] Top shape: 50 512 14 14 (5017600)
I0201 12:15:03.808547 12095 net.cpp:157] Top shape: 50 512 14 14 (5017600)
I0201 12:15:03.808554 12095 net.cpp:165] Memory required for data: 2315733212
I0201 12:15:03.808562 12095 layer_factory.hpp:77] Creating layer inception_4d/1x1
I0201 12:15:03.808576 12095 net.cpp:100] Creating Layer inception_4d/1x1
I0201 12:15:03.808585 12095 net.cpp:434] inception_4d/1x1 <- inception_4c/output_inception_4c/output_0_split_0
I0201 12:15:03.808595 12095 net.cpp:408] inception_4d/1x1 -> inception_4d/1x1
I0201 12:15:03.809175 12095 net.cpp:150] Setting up inception_4d/1x1
I0201 12:15:03.809196 12095 net.cpp:157] Top shape: 50 112 14 14 (1097600)
I0201 12:15:03.809204 12095 net.cpp:165] Memory required for data: 2320123612
I0201 12:15:03.809216 12095 layer_factory.hpp:77] Creating layer inception_4d/relu_1x1
I0201 12:15:03.809226 12095 net.cpp:100] Creating Layer inception_4d/relu_1x1
I0201 12:15:03.809233 12095 net.cpp:434] inception_4d/relu_1x1 <- inception_4d/1x1
I0201 12:15:03.809243 12095 net.cpp:395] inception_4d/relu_1x1 -> inception_4d/1x1 (in-place)
I0201 12:15:03.809265 12095 net.cpp:150] Setting up inception_4d/relu_1x1
I0201 12:15:03.809275 12095 net.cpp:157] Top shape: 50 112 14 14 (1097600)
I0201 12:15:03.809283 12095 net.cpp:165] Memory required for data: 2324514012
I0201 12:15:03.809289 12095 layer_factory.hpp:77] Creating layer inception_4d/3x3_reduce
I0201 12:15:03.809304 12095 net.cpp:100] Creating Layer inception_4d/3x3_reduce
I0201 12:15:03.809312 12095 net.cpp:434] inception_4d/3x3_reduce <- inception_4c/output_inception_4c/output_0_split_1
I0201 12:15:03.809325 12095 net.cpp:408] inception_4d/3x3_reduce -> inception_4d/3x3_reduce
I0201 12:15:03.810048 12095 net.cpp:150] Setting up inception_4d/3x3_reduce
I0201 12:15:03.810063 12095 net.cpp:157] Top shape: 50 144 14 14 (1411200)
I0201 12:15:03.810070 12095 net.cpp:165] Memory required for data: 2330158812
I0201 12:15:03.810081 12095 layer_factory.hpp:77] Creating layer inception_4d/relu_3x3_reduce
I0201 12:15:03.810091 12095 net.cpp:100] Creating Layer inception_4d/relu_3x3_reduce
I0201 12:15:03.810098 12095 net.cpp:434] inception_4d/relu_3x3_reduce <- inception_4d/3x3_reduce
I0201 12:15:03.810111 12095 net.cpp:395] inception_4d/relu_3x3_reduce -> inception_4d/3x3_reduce (in-place)
I0201 12:15:03.810122 12095 net.cpp:150] Setting up inception_4d/relu_3x3_reduce
I0201 12:15:03.810132 12095 net.cpp:157] Top shape: 50 144 14 14 (1411200)
I0201 12:15:03.810138 12095 net.cpp:165] Memory required for data: 2335803612
I0201 12:15:03.810145 12095 layer_factory.hpp:77] Creating layer inception_4d/3x3
I0201 12:15:03.810158 12095 net.cpp:100] Creating Layer inception_4d/3x3
I0201 12:15:03.810183 12095 net.cpp:434] inception_4d/3x3 <- inception_4d/3x3_reduce
I0201 12:15:03.810194 12095 net.cpp:408] inception_4d/3x3 -> inception_4d/3x3
I0201 12:15:03.814007 12095 net.cpp:150] Setting up inception_4d/3x3
I0201 12:15:03.814025 12095 net.cpp:157] Top shape: 50 288 14 14 (2822400)
I0201 12:15:03.814033 12095 net.cpp:165] Memory required for data: 2347093212
I0201 12:15:03.814043 12095 layer_factory.hpp:77] Creating layer inception_4d/relu_3x3
I0201 12:15:03.814059 12095 net.cpp:100] Creating Layer inception_4d/relu_3x3
I0201 12:15:03.814069 12095 net.cpp:434] inception_4d/relu_3x3 <- inception_4d/3x3
I0201 12:15:03.814079 12095 net.cpp:395] inception_4d/relu_3x3 -> inception_4d/3x3 (in-place)
I0201 12:15:03.814088 12095 net.cpp:150] Setting up inception_4d/relu_3x3
I0201 12:15:03.814098 12095 net.cpp:157] Top shape: 50 288 14 14 (2822400)
I0201 12:15:03.814105 12095 net.cpp:165] Memory required for data: 2358382812
I0201 12:15:03.814112 12095 layer_factory.hpp:77] Creating layer inception_4d/5x5_reduce
I0201 12:15:03.814126 12095 net.cpp:100] Creating Layer inception_4d/5x5_reduce
I0201 12:15:03.814133 12095 net.cpp:434] inception_4d/5x5_reduce <- inception_4c/output_inception_4c/output_0_split_2
I0201 12:15:03.814146 12095 net.cpp:408] inception_4d/5x5_reduce -> inception_4d/5x5_reduce
I0201 12:15:03.814321 12095 net.cpp:150] Setting up inception_4d/5x5_reduce
I0201 12:15:03.814335 12095 net.cpp:157] Top shape: 50 32 14 14 (313600)
I0201 12:15:03.814342 12095 net.cpp:165] Memory required for data: 2359637212
I0201 12:15:03.814352 12095 layer_factory.hpp:77] Creating layer inception_4d/relu_5x5_reduce
I0201 12:15:03.814363 12095 net.cpp:100] Creating Layer inception_4d/relu_5x5_reduce
I0201 12:15:03.814370 12095 net.cpp:434] inception_4d/relu_5x5_reduce <- inception_4d/5x5_reduce
I0201 12:15:03.814383 12095 net.cpp:395] inception_4d/relu_5x5_reduce -> inception_4d/5x5_reduce (in-place)
I0201 12:15:03.814394 12095 net.cpp:150] Setting up inception_4d/relu_5x5_reduce
I0201 12:15:03.814404 12095 net.cpp:157] Top shape: 50 32 14 14 (313600)
I0201 12:15:03.814410 12095 net.cpp:165] Memory required for data: 2360891612
I0201 12:15:03.814419 12095 layer_factory.hpp:77] Creating layer inception_4d/5x5
I0201 12:15:03.814432 12095 net.cpp:100] Creating Layer inception_4d/5x5
I0201 12:15:03.814441 12095 net.cpp:434] inception_4d/5x5 <- inception_4d/5x5_reduce
I0201 12:15:03.814451 12095 net.cpp:408] inception_4d/5x5 -> inception_4d/5x5
I0201 12:15:03.814970 12095 net.cpp:150] Setting up inception_4d/5x5
I0201 12:15:03.814986 12095 net.cpp:157] Top shape: 50 64 14 14 (627200)
I0201 12:15:03.814993 12095 net.cpp:165] Memory required for data: 2363400412
I0201 12:15:03.815004 12095 layer_factory.hpp:77] Creating layer inception_4d/relu_5x5
I0201 12:15:03.815014 12095 net.cpp:100] Creating Layer inception_4d/relu_5x5
I0201 12:15:03.815022 12095 net.cpp:434] inception_4d/relu_5x5 <- inception_4d/5x5
I0201 12:15:03.815032 12095 net.cpp:395] inception_4d/relu_5x5 -> inception_4d/5x5 (in-place)
I0201 12:15:03.815042 12095 net.cpp:150] Setting up inception_4d/relu_5x5
I0201 12:15:03.815052 12095 net.cpp:157] Top shape: 50 64 14 14 (627200)
I0201 12:15:03.815058 12095 net.cpp:165] Memory required for data: 2365909212
I0201 12:15:03.815065 12095 layer_factory.hpp:77] Creating layer inception_4d/pool
I0201 12:15:03.815078 12095 net.cpp:100] Creating Layer inception_4d/pool
I0201 12:15:03.815085 12095 net.cpp:434] inception_4d/pool <- inception_4c/output_inception_4c/output_0_split_3
I0201 12:15:03.815098 12095 net.cpp:408] inception_4d/pool -> inception_4d/pool
I0201 12:15:03.815114 12095 net.cpp:150] Setting up inception_4d/pool
I0201 12:15:03.815124 12095 net.cpp:157] Top shape: 50 512 14 14 (5017600)
I0201 12:15:03.815130 12095 net.cpp:165] Memory required for data: 2385979612
I0201 12:15:03.815138 12095 layer_factory.hpp:77] Creating layer inception_4d/pool_proj
I0201 12:15:03.815152 12095 net.cpp:100] Creating Layer inception_4d/pool_proj
I0201 12:15:03.815161 12095 net.cpp:434] inception_4d/pool_proj <- inception_4d/pool
I0201 12:15:03.815192 12095 net.cpp:408] inception_4d/pool_proj -> inception_4d/pool_proj
I0201 12:15:03.815543 12095 net.cpp:150] Setting up inception_4d/pool_proj
I0201 12:15:03.815558 12095 net.cpp:157] Top shape: 50 64 14 14 (627200)
I0201 12:15:03.815565 12095 net.cpp:165] Memory required for data: 2388488412
I0201 12:15:03.815577 12095 layer_factory.hpp:77] Creating layer inception_4d/relu_pool_proj
I0201 12:15:03.815587 12095 net.cpp:100] Creating Layer inception_4d/relu_pool_proj
I0201 12:15:03.815594 12095 net.cpp:434] inception_4d/relu_pool_proj <- inception_4d/pool_proj
I0201 12:15:03.815606 12095 net.cpp:395] inception_4d/relu_pool_proj -> inception_4d/pool_proj (in-place)
I0201 12:15:03.815618 12095 net.cpp:150] Setting up inception_4d/relu_pool_proj
I0201 12:15:03.815626 12095 net.cpp:157] Top shape: 50 64 14 14 (627200)
I0201 12:15:03.815634 12095 net.cpp:165] Memory required for data: 2390997212
I0201 12:15:03.815641 12095 layer_factory.hpp:77] Creating layer inception_4d/output
I0201 12:15:03.815652 12095 net.cpp:100] Creating Layer inception_4d/output
I0201 12:15:03.815660 12095 net.cpp:434] inception_4d/output <- inception_4d/1x1
I0201 12:15:03.815668 12095 net.cpp:434] inception_4d/output <- inception_4d/3x3
I0201 12:15:03.815676 12095 net.cpp:434] inception_4d/output <- inception_4d/5x5
I0201 12:15:03.815685 12095 net.cpp:434] inception_4d/output <- inception_4d/pool_proj
I0201 12:15:03.815696 12095 net.cpp:408] inception_4d/output -> inception_4d/output
I0201 12:15:03.815711 12095 net.cpp:150] Setting up inception_4d/output
I0201 12:15:03.815721 12095 net.cpp:157] Top shape: 50 528 14 14 (5174400)
I0201 12:15:03.815728 12095 net.cpp:165] Memory required for data: 2411694812
I0201 12:15:03.815735 12095 layer_factory.hpp:77] Creating layer inception_4d/output_inception_4d/output_0_split
I0201 12:15:03.815748 12095 net.cpp:100] Creating Layer inception_4d/output_inception_4d/output_0_split
I0201 12:15:03.815757 12095 net.cpp:434] inception_4d/output_inception_4d/output_0_split <- inception_4d/output
I0201 12:15:03.815769 12095 net.cpp:408] inception_4d/output_inception_4d/output_0_split -> inception_4d/output_inception_4d/output_0_split_0
I0201 12:15:03.815780 12095 net.cpp:408] inception_4d/output_inception_4d/output_0_split -> inception_4d/output_inception_4d/output_0_split_1
I0201 12:15:03.815793 12095 net.cpp:408] inception_4d/output_inception_4d/output_0_split -> inception_4d/output_inception_4d/output_0_split_2
I0201 12:15:03.815804 12095 net.cpp:408] inception_4d/output_inception_4d/output_0_split -> inception_4d/output_inception_4d/output_0_split_3
I0201 12:15:03.815814 12095 net.cpp:408] inception_4d/output_inception_4d/output_0_split -> inception_4d/output_inception_4d/output_0_split_4
I0201 12:15:03.815826 12095 net.cpp:150] Setting up inception_4d/output_inception_4d/output_0_split
I0201 12:15:03.815835 12095 net.cpp:157] Top shape: 50 528 14 14 (5174400)
I0201 12:15:03.815845 12095 net.cpp:157] Top shape: 50 528 14 14 (5174400)
I0201 12:15:03.815852 12095 net.cpp:157] Top shape: 50 528 14 14 (5174400)
I0201 12:15:03.815860 12095 net.cpp:157] Top shape: 50 528 14 14 (5174400)
I0201 12:15:03.815870 12095 net.cpp:157] Top shape: 50 528 14 14 (5174400)
I0201 12:15:03.815876 12095 net.cpp:165] Memory required for data: 2515182812
I0201 12:15:03.815883 12095 layer_factory.hpp:77] Creating layer loss2/ave_pool
I0201 12:15:03.815896 12095 net.cpp:100] Creating Layer loss2/ave_pool
I0201 12:15:03.815904 12095 net.cpp:434] loss2/ave_pool <- inception_4d/output_inception_4d/output_0_split_0
I0201 12:15:03.815917 12095 net.cpp:408] loss2/ave_pool -> loss2/ave_pool
I0201 12:15:03.815929 12095 net.cpp:150] Setting up loss2/ave_pool
I0201 12:15:03.815939 12095 net.cpp:157] Top shape: 50 528 4 4 (422400)
I0201 12:15:03.815946 12095 net.cpp:165] Memory required for data: 2516872412
I0201 12:15:03.815953 12095 layer_factory.hpp:77] Creating layer loss2/conv
I0201 12:15:03.815968 12095 net.cpp:100] Creating Layer loss2/conv
I0201 12:15:03.815978 12095 net.cpp:434] loss2/conv <- loss2/ave_pool
I0201 12:15:03.815995 12095 net.cpp:408] loss2/conv -> loss2/conv
I0201 12:15:03.816685 12095 net.cpp:150] Setting up loss2/conv
I0201 12:15:03.816701 12095 net.cpp:157] Top shape: 50 128 4 4 (102400)
I0201 12:15:03.816709 12095 net.cpp:165] Memory required for data: 2517282012
I0201 12:15:03.816720 12095 layer_factory.hpp:77] Creating layer loss2/relu_conv
I0201 12:15:03.816732 12095 net.cpp:100] Creating Layer loss2/relu_conv
I0201 12:15:03.816740 12095 net.cpp:434] loss2/relu_conv <- loss2/conv
I0201 12:15:03.816751 12095 net.cpp:395] loss2/relu_conv -> loss2/conv (in-place)
I0201 12:15:03.816761 12095 net.cpp:150] Setting up loss2/relu_conv
I0201 12:15:03.816769 12095 net.cpp:157] Top shape: 50 128 4 4 (102400)
I0201 12:15:03.816776 12095 net.cpp:165] Memory required for data: 2517691612
I0201 12:15:03.816783 12095 layer_factory.hpp:77] Creating layer loss2/fc
I0201 12:15:03.816797 12095 net.cpp:100] Creating Layer loss2/fc
I0201 12:15:03.816805 12095 net.cpp:434] loss2/fc <- loss2/conv
I0201 12:15:03.816818 12095 net.cpp:408] loss2/fc -> loss2/fc
I0201 12:15:03.837715 12095 net.cpp:150] Setting up loss2/fc
I0201 12:15:03.837817 12095 net.cpp:157] Top shape: 50 1024 (51200)
I0201 12:15:03.837826 12095 net.cpp:165] Memory required for data: 2517896412
I0201 12:15:03.837857 12095 layer_factory.hpp:77] Creating layer loss2/relu_fc
I0201 12:15:03.837880 12095 net.cpp:100] Creating Layer loss2/relu_fc
I0201 12:15:03.837893 12095 net.cpp:434] loss2/relu_fc <- loss2/fc
I0201 12:15:03.837918 12095 net.cpp:395] loss2/relu_fc -> loss2/fc (in-place)
I0201 12:15:03.837939 12095 net.cpp:150] Setting up loss2/relu_fc
I0201 12:15:03.837949 12095 net.cpp:157] Top shape: 50 1024 (51200)
I0201 12:15:03.837955 12095 net.cpp:165] Memory required for data: 2518101212
I0201 12:15:03.837963 12095 layer_factory.hpp:77] Creating layer loss2/drop_fc
I0201 12:15:03.837977 12095 net.cpp:100] Creating Layer loss2/drop_fc
I0201 12:15:03.837985 12095 net.cpp:434] loss2/drop_fc <- loss2/fc
I0201 12:15:03.837996 12095 net.cpp:395] loss2/drop_fc -> loss2/fc (in-place)
I0201 12:15:03.838011 12095 net.cpp:150] Setting up loss2/drop_fc
I0201 12:15:03.838021 12095 net.cpp:157] Top shape: 50 1024 (51200)
I0201 12:15:03.838027 12095 net.cpp:165] Memory required for data: 2518306012
I0201 12:15:03.838034 12095 layer_factory.hpp:77] Creating layer loss2/classifier
I0201 12:15:03.838048 12095 net.cpp:100] Creating Layer loss2/classifier
I0201 12:15:03.838055 12095 net.cpp:434] loss2/classifier <- loss2/fc
I0201 12:15:03.838070 12095 net.cpp:408] loss2/classifier -> loss2/classifier
I0201 12:15:03.848304 12095 net.cpp:150] Setting up loss2/classifier
I0201 12:15:03.848321 12095 net.cpp:157] Top shape: 50 1000 (50000)
I0201 12:15:03.848328 12095 net.cpp:165] Memory required for data: 2518506012
I0201 12:15:03.848340 12095 layer_factory.hpp:77] Creating layer loss2/classifier_loss2/classifier_0_split
I0201 12:15:03.848368 12095 net.cpp:100] Creating Layer loss2/classifier_loss2/classifier_0_split
I0201 12:15:03.848376 12095 net.cpp:434] loss2/classifier_loss2/classifier_0_split <- loss2/classifier
I0201 12:15:03.848388 12095 net.cpp:408] loss2/classifier_loss2/classifier_0_split -> loss2/classifier_loss2/classifier_0_split_0
I0201 12:15:03.848400 12095 net.cpp:408] loss2/classifier_loss2/classifier_0_split -> loss2/classifier_loss2/classifier_0_split_1
I0201 12:15:03.848412 12095 net.cpp:408] loss2/classifier_loss2/classifier_0_split -> loss2/classifier_loss2/classifier_0_split_2
I0201 12:15:03.848425 12095 net.cpp:150] Setting up loss2/classifier_loss2/classifier_0_split
I0201 12:15:03.848434 12095 net.cpp:157] Top shape: 50 1000 (50000)
I0201 12:15:03.848443 12095 net.cpp:157] Top shape: 50 1000 (50000)
I0201 12:15:03.848450 12095 net.cpp:157] Top shape: 50 1000 (50000)
I0201 12:15:03.848458 12095 net.cpp:165] Memory required for data: 2519106012
I0201 12:15:03.848465 12095 layer_factory.hpp:77] Creating layer loss2/loss
I0201 12:15:03.848479 12095 net.cpp:100] Creating Layer loss2/loss
I0201 12:15:03.848487 12095 net.cpp:434] loss2/loss <- loss2/classifier_loss2/classifier_0_split_0
I0201 12:15:03.848551 12095 net.cpp:434] loss2/loss <- label_data_1_split_3
…
I0201 12:15:03.848917 12095 net.cpp:150] Setting up loss2/top-5
I0201 12:15:03.848927 12095 net.cpp:157] Top shape: (1)
I0201 12:15:03.848933 12095 net.cpp:165] Memory required for data: 2519106024
I0201 12:15:03.848940 12095 layer_factory.hpp:77] Creating layer inception_4e/1x1
I0201 12:15:03.848961 12095 net.cpp:100] Creating Layer inception_4e/1x1
I0201 12:15:03.848970 12095 net.cpp:434] inception_4e/1x1 <- inception_4d/output_inception_4d/output_0_split_1
I0201 12:15:03.848983 12095 net.cpp:408] inception_4e/1x1 -> inception_4e/1x1
I0201 12:15:03.850291 12095 net.cpp:150] Setting up inception_4e/1x1
I0201 12:15:03.850307 12095 net.cpp:157] Top shape: 50 256 14 14 (2508800)
I0201 12:15:03.850314 12095 net.cpp:165] Memory required for data: 2529141224
I0201 12:15:03.850325 12095 layer_factory.hpp:77] Creating layer inception_4e/relu_1x1
I0201 12:15:03.850338 12095 net.cpp:100] Creating Layer inception_4e/relu_1x1
I0201 12:15:03.850347 12095 net.cpp:434] inception_4e/relu_1x1 <- inception_4e/1x1
I0201 12:15:03.850359 12095 net.cpp:395] inception_4e/relu_1x1 -> inception_4e/1x1 (in-place)
I0201 12:15:03.850370 12095 net.cpp:150] Setting up inception_4e/relu_1x1
I0201 12:15:03.850380 12095 net.cpp:157] Top shape: 50 256 14 14 (2508800)
I0201 12:15:03.850388 12095 net.cpp:165] Memory required for data: 2539176424
I0201 12:15:03.850394 12095 layer_factory.hpp:77] Creating layer inception_4e/3x3_reduce
I0201 12:15:03.850432 12095 net.cpp:100] Creating Layer inception_4e/3x3_reduce
I0201 12:15:03.850441 12095 net.cpp:434] inception_4e/3x3_reduce <- inception_4d/output_inception_4d/output_0_split_2
I0201 12:15:03.850453 12095 net.cpp:408] inception_4e/3x3_reduce -> inception_4e/3x3_reduce
I0201 12:15:03.851271 12095 net.cpp:150] Setting up inception_4e/3x3_reduce
I0201 12:15:03.851287 12095 net.cpp:157] Top shape: 50 160 14 14 (1568000)
I0201 12:15:03.851294 12095 net.cpp:165] Memory required for data: 2545448424
I0201 12:15:03.851305 12095 layer_factory.hpp:77] Creating layer inception_4e/relu_3x3_reduce
I0201 12:15:03.851315 12095 net.cpp:100] Creating Layer inception_4e/relu_3x3_reduce
I0201 12:15:03.851325 12095 net.cpp:434] inception_4e/relu_3x3_reduce <- inception_4e/3x3_reduce
I0201 12:15:03.851333 12095 net.cpp:395] inception_4e/relu_3x3_reduce -> inception_4e/3x3_reduce (in-place)
I0201 12:15:03.851344 12095 net.cpp:150] Setting up inception_4e/relu_3x3_reduce
I0201 12:15:03.851353 12095 net.cpp:157] Top shape: 50 160 14 14 (1568000)
I0201 12:15:03.851361 12095 net.cpp:165] Memory required for data: 2551720424
I0201 12:15:03.851368 12095 layer_factory.hpp:77] Creating layer inception_4e/3x3
I0201 12:15:03.851395 12095 net.cpp:100] Creating Layer inception_4e/3x3
I0201 12:15:03.851404 12095 net.cpp:434] inception_4e/3x3 <- inception_4e/3x3_reduce
I0201 12:15:03.851418 12095 net.cpp:408] inception_4e/3x3 -> inception_4e/3x3
I0201 12:15:03.855963 12095 net.cpp:150] Setting up inception_4e/3x3
I0201 12:15:03.855979 12095 net.cpp:157] Top shape: 50 320 14 14 (3136000)
I0201 12:15:03.855986 12095 net.cpp:165] Memory required for data: 2564264424
I0201 12:15:03.855996 12095 layer_factory.hpp:77] Creating layer inception_4e/relu_3x3
I0201 12:15:03.856006 12095 net.cpp:100] Creating Layer inception_4e/relu_3x3
I0201 12:15:03.856015 12095 net.cpp:434] inception_4e/relu_3x3 <- inception_4e/3x3
I0201 12:15:03.856024 12095 net.cpp:395] inception_4e/relu_3x3 -> inception_4e/3x3 (in-place)
I0201 12:15:03.856034 12095 net.cpp:150] Setting up inception_4e/relu_3x3
I0201 12:15:03.856043 12095 net.cpp:157] Top shape: 50 320 14 14 (3136000)
I0201 12:15:03.856050 12095 net.cpp:165] Memory required for data: 2576808424
I0201 12:15:03.856057 12095 layer_factory.hpp:77] Creating layer inception_4e/5x5_reduce
I0201 12:15:03.856072 12095 net.cpp:100] Creating Layer inception_4e/5x5_reduce
I0201 12:15:03.856081 12095 net.cpp:434] inception_4e/5x5_reduce <- inception_4d/output_inception_4d/output_0_split_3
I0201 12:15:03.856091 12095 net.cpp:408] inception_4e/5x5_reduce -> inception_4e/5x5_reduce
I0201 12:15:03.856281 12095 net.cpp:150] Setting up inception_4e/5x5_reduce
I0201 12:15:03.856294 12095 net.cpp:157] Top shape: 50 32 14 14 (313600)
I0201 12:15:03.856302 12095 net.cpp:165] Memory required for data: 2578062824
I0201 12:15:03.856312 12095 layer_factory.hpp:77] Creating layer inception_4e/relu_5x5_reduce
I0201 12:15:03.856323 12095 net.cpp:100] Creating Layer inception_4e/relu_5x5_reduce
I0201 12:15:03.856330 12095 net.cpp:434] inception_4e/relu_5x5_reduce <- inception_4e/5x5_reduce
I0201 12:15:03.856366 12095 net.cpp:395] inception_4e/relu_5x5_reduce -> inception_4e/5x5_reduce (in-place)
I0201 12:15:03.856377 12095 net.cpp:150] Setting up inception_4e/relu_5x5_reduce
I0201 12:15:03.856386 12095 net.cpp:157] Top shape: 50 32 14 14 (313600)
I0201 12:15:03.856392 12095 net.cpp:165] Memory required for data: 2579317224
I0201 12:15:03.856400 12095 layer_factory.hpp:77] Creating layer inception_4e/5x5
I0201 12:15:03.856415 12095 net.cpp:100] Creating Layer inception_4e/5x5
I0201 12:15:03.856422 12095 net.cpp:434] inception_4e/5x5 <- inception_4e/5x5_reduce
I0201 12:15:03.856433 12095 net.cpp:408] inception_4e/5x5 -> inception_4e/5x5
I0201 12:15:03.857401 12095 net.cpp:150] Setting up inception_4e/5x5
I0201 12:15:03.857416 12095 net.cpp:157] Top shape: 50 128 14 14 (1254400)
I0201 12:15:03.857424 12095 net.cpp:165] Memory required for data: 2584334824
I0201 12:15:03.857434 12095 layer_factory.hpp:77] Creating layer inception_4e/relu_5x5
I0201 12:15:03.857444 12095 net.cpp:100] Creating Layer inception_4e/relu_5x5
I0201 12:15:03.857451 12095 net.cpp:434] inception_4e/relu_5x5 <- inception_4e/5x5
I0201 12:15:03.857461 12095 net.cpp:395] inception_4e/relu_5x5 -> inception_4e/5x5 (in-place)
I0201 12:15:03.857471 12095 net.cpp:150] Setting up inception_4e/relu_5x5
I0201 12:15:03.857481 12095 net.cpp:157] Top shape: 50 128 14 14 (1254400)
I0201 12:15:03.857487 12095 net.cpp:165] Memory required for data: 2589352424
I0201 12:15:03.857494 12095 layer_factory.hpp:77] Creating layer inception_4e/pool
I0201 12:15:03.857514 12095 net.cpp:100] Creating Layer inception_4e/pool
I0201 12:15:03.857523 12095 net.cpp:434] inception_4e/pool <- inception_4d/output_inception_4d/output_0_split_4
I0201 12:15:03.857533 12095 net.cpp:408] inception_4e/pool -> inception_4e/pool
I0201 12:15:03.857571 12095 net.cpp:150] Setting up inception_4e/pool
I0201 12:15:03.857581 12095 net.cpp:157] Top shape: 50 528 14 14 (5174400)
I0201 12:15:03.857590 12095 net.cpp:165] Memory required for data: 2610050024
I0201 12:15:03.857599 12095 layer_factory.hpp:77] Creating layer inception_4e/pool_proj
I0201 12:15:03.857610 12095 net.cpp:100] Creating Layer inception_4e/pool_proj
I0201 12:15:03.857631 12095 net.cpp:434] inception_4e/pool_proj <- inception_4e/pool
I0201 12:15:03.857645 12095 net.cpp:408] inception_4e/pool_proj -> inception_4e/pool_proj
I0201 12:15:03.858301 12095 net.cpp:150] Setting up inception_4e/pool_proj
I0201 12:15:03.858316 12095 net.cpp:157] Top shape: 50 128 14 14 (1254400)
I0201 12:15:03.858324 12095 net.cpp:165] Memory required for data: 2615067624
I0201 12:15:03.858333 12095 layer_factory.hpp:77] Creating layer inception_4e/relu_pool_proj
I0201 12:15:03.858346 12095 net.cpp:100] Creating Layer inception_4e/relu_pool_proj
I0201 12:15:03.858355 12095 net.cpp:434] inception_4e/relu_pool_proj <- inception_4e/pool_proj
I0201 12:15:03.858364 12095 net.cpp:395] inception_4e/relu_pool_proj -> inception_4e/pool_proj (in-place)
I0201 12:15:03.858374 12095 net.cpp:150] Setting up inception_4e/relu_pool_proj
I0201 12:15:03.858383 12095 net.cpp:157] Top shape: 50 128 14 14 (1254400)
I0201 12:15:03.858391 12095 net.cpp:165] Memory required for data: 2620085224
I0201 12:15:03.858397 12095 layer_factory.hpp:77] Creating layer inception_4e/output
I0201 12:15:03.858409 12095 net.cpp:100] Creating Layer inception_4e/output
I0201 12:15:03.858417 12095 net.cpp:434] inception_4e/output <- inception_4e/1x1
I0201 12:15:03.858425 12095 net.cpp:434] inception_4e/output <- inception_4e/3x3
I0201 12:15:03.858434 12095 net.cpp:434] inception_4e/output <- inception_4e/5x5
I0201 12:15:03.858443 12095 net.cpp:434] inception_4e/output <- inception_4e/pool_proj
I0201 12:15:03.858454 12095 net.cpp:408] inception_4e/output -> inception_4e/output
I0201 12:15:03.858472 12095 net.cpp:150] Setting up inception_4e/output
I0201 12:15:03.858482 12095 net.cpp:157] Top shape: 50 832 14 14 (8153600)
I0201 12:15:03.858489 12095 net.cpp:165] Memory required for data: 2652699624
I0201 12:15:03.858496 12095 layer_factory.hpp:77] Creating layer pool4/3x3_s2
I0201 12:15:03.858506 12095 net.cpp:100] Creating Layer pool4/3x3_s2
I0201 12:15:03.858513 12095 net.cpp:434] pool4/3x3_s2 <- inception_4e/output
I0201 12:15:03.858525 12095 net.cpp:408] pool4/3x3_s2 -> pool4/3x3_s2
I0201 12:15:03.858539 12095 net.cpp:150] Setting up pool4/3x3_s2
I0201 12:15:03.858549 12095 net.cpp:157] Top shape: 50 832 7 7 (2038400)
I0201 12:15:03.858556 12095 net.cpp:165] Memory required for data: 2660853224
I0201 12:15:03.858563 12095 layer_factory.hpp:77] Creating layer pool4/3x3_s2_pool4/3x3_s2_0_split
I0201 12:15:03.858573 12095 net.cpp:100] Creating Layer pool4/3x3_s2_pool4/3x3_s2_0_split
I0201 12:15:03.858580 12095 net.cpp:434] pool4/3x3_s2_pool4/3x3_s2_0_split <- pool4/3x3_s2
I0201 12:15:03.858592 12095 net.cpp:408] pool4/3x3_s2_pool4/3x3_s2_0_split -> pool4/3x3_s2_pool4/3x3_s2_0_split_0
I0201 12:15:03.858604 12095 net.cpp:408] pool4/3x3_s2_pool4/3x3_s2_0_split -> pool4/3x3_s2_pool4/3x3_s2_0_split_1
I0201 12:15:03.858615 12095 net.cpp:408] pool4/3x3_s2_pool4/3x3_s2_0_split -> pool4/3x3_s2_pool4/3x3_s2_0_split_2
I0201 12:15:03.858646 12095 net.cpp:408] pool4/3x3_s2_pool4/3x3_s2_0_split -> pool4/3x3_s2_pool4/3x3_s2_0_split_3
I0201 12:15:03.858660 12095 net.cpp:150] Setting up pool4/3x3_s2_pool4/3x3_s2_0_split
I0201 12:15:03.858669 12095 net.cpp:157] Top shape: 50 832 7 7 (2038400)
I0201 12:15:03.858677 12095 net.cpp:157] Top shape: 50 832 7 7 (2038400)
I0201 12:15:03.858687 12095 net.cpp:157] Top shape: 50 832 7 7 (2038400)
I0201 12:15:03.858695 12095 net.cpp:157] Top shape: 50 832 7 7 (2038400)
I0201 12:15:03.858702 12095 net.cpp:165] Memory required for data: 2693467624
I0201 12:15:03.858710 12095 layer_factory.hpp:77] Creating layer inception_5a/1x1
I0201 12:15:03.858726 12095 net.cpp:100] Creating Layer inception_5a/1x1
I0201 12:15:03.858734 12095 net.cpp:434] inception_5a/1x1 <- pool4/3x3_s2_pool4/3x3_s2_0_split_0
I0201 12:15:03.858746 12095 net.cpp:408] inception_5a/1x1 -> inception_5a/1x1
I0201 12:15:03.860747 12095 net.cpp:150] Setting up inception_5a/1x1
I0201 12:15:03.860764 12095 net.cpp:157] Top shape: 50 256 7 7 (627200)
I0201 12:15:03.860771 12095 net.cpp:165] Memory required for data: 2695976424
I0201 12:15:03.860787 12095 layer_factory.hpp:77] Creating layer inception_5a/relu_1x1
I0201 12:15:03.860807 12095 net.cpp:100] Creating Layer inception_5a/relu_1x1
I0201 12:15:03.860816 12095 net.cpp:434] inception_5a/relu_1x1 <- inception_5a/1x1
I0201 12:15:03.860826 12095 net.cpp:395] inception_5a/relu_1x1 -> inception_5a/1x1 (in-place)
I0201 12:15:03.860836 12095 net.cpp:150] Setting up inception_5a/relu_1x1
I0201 12:15:03.860846 12095 net.cpp:157] Top shape: 50 256 7 7 (627200)
I0201 12:15:03.860852 12095 net.cpp:165] Memory required for data: 2698485224
I0201 12:15:03.860859 12095 layer_factory.hpp:77] Creating layer inception_5a/3x3_reduce
I0201 12:15:03.860877 12095 net.cpp:100] Creating Layer inception_5a/3x3_reduce
I0201 12:15:03.860887 12095 net.cpp:434] inception_5a/3x3_reduce <- pool4/3x3_s2_pool4/3x3_s2_0_split_1
I0201 12:15:03.860898 12095 net.cpp:408] inception_5a/3x3_reduce -> inception_5a/3x3_reduce
I0201 12:15:03.862144 12095 net.cpp:150] Setting up inception_5a/3x3_reduce
I0201 12:15:03.862159 12095 net.cpp:157] Top shape: 50 160 7 7 (392000)
I0201 12:15:03.862167 12095 net.cpp:165] Memory required for data: 2700053224
I0201 12:15:03.862177 12095 layer_factory.hpp:77] Creating layer inception_5a/relu_3x3_reduce
I0201 12:15:03.862187 12095 net.cpp:100] Creating Layer inception_5a/relu_3x3_reduce
I0201 12:15:03.862195 12095 net.cpp:434] inception_5a/relu_3x3_reduce <- inception_5a/3x3_reduce
I0201 12:15:03.862205 12095 net.cpp:395] inception_5a/relu_3x3_reduce -> inception_5a/3x3_reduce (in-place)
I0201 12:15:03.862216 12095 net.cpp:150] Setting up inception_5a/relu_3x3_reduce
I0201 12:15:03.862224 12095 net.cpp:157] Top shape: 50 160 7 7 (392000)
I0201 12:15:03.862231 12095 net.cpp:165] Memory required for data: 2701621224
I0201 12:15:03.862239 12095 layer_factory.hpp:77] Creating layer inception_5a/3x3
I0201 12:15:03.862262 12095 net.cpp:100] Creating Layer inception_5a/3x3
I0201 12:15:03.862272 12095 net.cpp:434] inception_5a/3x3 <- inception_5a/3x3_reduce
I0201 12:15:03.862283 12095 net.cpp:408] inception_5a/3x3 -> inception_5a/3x3
I0201 12:15:03.866802 12095 net.cpp:150] Setting up inception_5a/3x3
I0201 12:15:03.866842 12095 net.cpp:157] Top shape: 50 320 7 7 (784000)
I0201 12:15:03.866848 12095 net.cpp:165] Memory required for data: 2704757224
I0201 12:15:03.866859 12095 layer_factory.hpp:77] Creating layer inception_5a/relu_3x3
I0201 12:15:03.866875 12095 net.cpp:100] Creating Layer inception_5a/relu_3x3
I0201 12:15:03.866884 12095 net.cpp:434] inception_5a/relu_3x3 <- inception_5a/3x3
I0201 12:15:03.866894 12095 net.cpp:395] inception_5a/relu_3x3 -> inception_5a/3x3 (in-place)
I0201 12:15:03.866904 12095 net.cpp:150] Setting up inception_5a/relu_3x3
I0201 12:15:03.866914 12095 net.cpp:157] Top shape: 50 320 7 7 (784000)
I0201 12:15:03.866920 12095 net.cpp:165] Memory required for data: 2707893224
I0201 12:15:03.866927 12095 layer_factory.hpp:77] Creating layer inception_5a/5x5_reduce
I0201 12:15:03.866940 12095 net.cpp:100] Creating Layer inception_5a/5x5_reduce
I0201 12:15:03.866948 12095 net.cpp:434] inception_5a/5x5_reduce <- pool4/3x3_s2_pool4/3x3_s2_0_split_2
I0201 12:15:03.866961 12095 net.cpp:408] inception_5a/5x5_reduce -> inception_5a/5x5_reduce
I0201 12:15:03.867231 12095 net.cpp:150] Setting up inception_5a/5x5_reduce
I0201 12:15:03.867245 12095 net.cpp:157] Top shape: 50 32 7 7 (78400)
I0201 12:15:03.867260 12095 net.cpp:165] Memory required for data: 2708206824
I0201 12:15:03.867271 12095 layer_factory.hpp:77] Creating layer inception_5a/relu_5x5_reduce
I0201 12:15:03.867285 12095 net.cpp:100] Creating Layer inception_5a/relu_5x5_reduce
I0201 12:15:03.867292 12095 net.cpp:434] inception_5a/relu_5x5_reduce <- inception_5a/5x5_reduce
I0201 12:15:03.867302 12095 net.cpp:395] inception_5a/relu_5x5_reduce -> inception_5a/5x5_reduce (in-place)
I0201 12:15:03.867312 12095 net.cpp:150] Setting up inception_5a/relu_5x5_reduce
I0201 12:15:03.867321 12095 net.cpp:157] Top shape: 50 32 7 7 (78400)
I0201 12:15:03.867328 12095 net.cpp:165] Memory required for data: 2708520424
I0201 12:15:03.867342 12095 layer_factory.hpp:77] Creating layer inception_5a/5x5
I0201 12:15:03.867365 12095 net.cpp:100] Creating Layer inception_5a/5x5
I0201 12:15:03.867374 12095 net.cpp:434] inception_5a/5x5 <- inception_5a/5x5_reduce
I0201 12:15:03.867393 12095 net.cpp:408] inception_5a/5x5 -> inception_5a/5x5
I0201 12:15:03.868369 12095 net.cpp:150] Setting up inception_5a/5x5
I0201 12:15:03.868386 12095 net.cpp:157] Top shape: 50 128 7 7 (313600)
I0201 12:15:03.868392 12095 net.cpp:165] Memory required for data: 2709774824
I0201 12:15:03.868402 12095 layer_factory.hpp:77] Creating layer inception_5a/relu_5x5
I0201 12:15:03.868415 12095 net.cpp:100] Creating Layer inception_5a/relu_5x5
I0201 12:15:03.868423 12095 net.cpp:434] inception_5a/relu_5x5 <- inception_5a/5x5
I0201 12:15:03.868435 12095 net.cpp:395] inception_5a/relu_5x5 -> inception_5a/5x5 (in-place)
I0201 12:15:03.868446 12095 net.cpp:150] Setting up inception_5a/relu_5x5
I0201 12:15:03.868455 12095 net.cpp:157] Top shape: 50 128 7 7 (313600)
I0201 12:15:03.868463 12095 net.cpp:165] Memory required for data: 2711029224
I0201 12:15:03.868470 12095 layer_factory.hpp:77] Creating layer inception_5a/pool
I0201 12:15:03.868480 12095 net.cpp:100] Creating Layer inception_5a/pool
I0201 12:15:03.868489 12095 net.cpp:434] inception_5a/pool <- pool4/3x3_s2_pool4/3x3_s2_0_split_3
I0201 12:15:03.868497 12095 net.cpp:408] inception_5a/pool -> inception_5a/pool
I0201 12:15:03.868511 12095 net.cpp:150] Setting up inception_5a/pool
I0201 12:15:03.868520 12095 net.cpp:157] Top shape: 50 832 7 7 (2038400)
I0201 12:15:03.868527 12095 net.cpp:165] Memory required for data: 2719182824
I0201 12:15:03.868535 12095 layer_factory.hpp:77] Creating layer inception_5a/pool_proj
I0201 12:15:03.868551 12095 net.cpp:100] Creating Layer inception_5a/pool_proj
I0201 12:15:03.868559 12095 net.cpp:434] inception_5a/pool_proj <- inception_5a/pool
I0201 12:15:03.868571 12095 net.cpp:408] inception_5a/pool_proj -> inception_5a/pool_proj
I0201 12:15:03.869581 12095 net.cpp:150] Setting up inception_5a/pool_proj
I0201 12:15:03.869596 12095 net.cpp:157] Top shape: 50 128 7 7 (313600)
I0201 12:15:03.869603 12095 net.cpp:165] Memory required for data: 2720437224
I0201 12:15:03.869614 12095 layer_factory.hpp:77] Creating layer inception_5a/relu_pool_proj
I0201 12:15:03.869624 12095 net.cpp:100] Creating Layer inception_5a/relu_pool_proj
I0201 12:15:03.869632 12095 net.cpp:434] inception_5a/relu_pool_proj <- inception_5a/pool_proj
I0201 12:15:03.869644 12095 net.cpp:395] inception_5a/relu_pool_proj -> inception_5a/pool_proj (in-place)
I0201 12:15:03.869655 12095 net.cpp:150] Setting up inception_5a/relu_pool_proj
I0201 12:15:03.869664 12095 net.cpp:157] Top shape: 50 128 7 7 (313600)
I0201 12:15:03.869671 12095 net.cpp:165] Memory required for data: 2721691624
I0201 12:15:03.869681 12095 layer_factory.hpp:77] Creating layer inception_5a/output
I0201 12:15:03.869693 12095 net.cpp:100] Creating Layer inception_5a/output
I0201 12:15:03.869699 12095 net.cpp:434] inception_5a/output <- inception_5a/1x1
I0201 12:15:03.869709 12095 net.cpp:434] inception_5a/output <- inception_5a/3x3
I0201 12:15:03.869716 12095 net.cpp:434] inception_5a/output <- inception_5a/5x5
I0201 12:15:03.869724 12095 net.cpp:434] inception_5a/output <- inception_5a/pool_proj
I0201 12:15:03.869735 12095 net.cpp:408] inception_5a/output -> inception_5a/output
I0201 12:15:03.869748 12095 net.cpp:150] Setting up inception_5a/output
I0201 12:15:03.869758 12095 net.cpp:157] Top shape: 50 832 7 7 (2038400)
I0201 12:15:03.869765 12095 net.cpp:165] Memory required for data: 2729845224
I0201 12:15:03.869772 12095 layer_factory.hpp:77] Creating layer inception_5a/output_inception_5a/output_0_split
I0201 12:15:03.869782 12095 net.cpp:100] Creating Layer inception_5a/output_inception_5a/output_0_split
I0201 12:15:03.869791 12095 net.cpp:434] inception_5a/output_inception_5a/output_0_split <- inception_5a/output
I0201 12:15:03.869801 12095 net.cpp:408] inception_5a/output_inception_5a/output_0_split -> inception_5a/output_inception_5a/output_0_split_0
I0201 12:15:03.869827 12095 net.cpp:408] inception_5a/output_inception_5a/output_0_split -> inception_5a/output_inception_5a/output_0_split_1
I0201 12:15:03.869851 12095 net.cpp:408] inception_5a/output_inception_5a/output_0_split -> inception_5a/output_inception_5a/output_0_split_2
I0201 12:15:03.869863 12095 net.cpp:408] inception_5a/output_inception_5a/output_0_split -> inception_5a/output_inception_5a/output_0_split_3
I0201 12:15:03.869875 12095 net.cpp:150] Setting up inception_5a/output_inception_5a/output_0_split
I0201 12:15:03.869884 12095 net.cpp:157] Top shape: 50 832 7 7 (2038400)
I0201 12:15:03.869894 12095 net.cpp:157] Top shape: 50 832 7 7 (2038400)
I0201 12:15:03.869901 12095 net.cpp:157] Top shape: 50 832 7 7 (2038400)
I0201 12:15:03.869910 12095 net.cpp:157] Top shape: 50 832 7 7 (2038400)
I0201 12:15:03.869916 12095 net.cpp:165] Memory required for data: 2762459624
I0201 12:15:03.869923 12095 layer_factory.hpp:77] Creating layer inception_5b/1x1
I0201 12:15:03.869935 12095 net.cpp:100] Creating Layer inception_5b/1x1
I0201 12:15:03.869943 12095 net.cpp:434] inception_5b/1x1 <- inception_5a/output_inception_5a/output_0_split_0
I0201 12:15:03.869956 12095 net.cpp:408] inception_5b/1x1 -> inception_5b/1x1
I0201 12:15:03.872939 12095 net.cpp:150] Setting up inception_5b/1x1
I0201 12:15:03.872963 12095 net.cpp:157] Top shape: 50 384 7 7 (940800)
I0201 12:15:03.872970 12095 net.cpp:165] Memory required for data: 2766222824
I0201 12:15:03.872980 12095 layer_factory.hpp:77] Creating layer inception_5b/relu_1x1
I0201 12:15:03.872992 12095 net.cpp:100] Creating Layer inception_5b/relu_1x1
I0201 12:15:03.872999 12095 net.cpp:434] inception_5b/relu_1x1 <- inception_5b/1x1
I0201 12:15:03.873009 12095 net.cpp:395] inception_5b/relu_1x1 -> inception_5b/1x1 (in-place)
I0201 12:15:03.873019 12095 net.cpp:150] Setting up inception_5b/relu_1x1
I0201 12:15:03.873028 12095 net.cpp:157] Top shape: 50 384 7 7 (940800)
I0201 12:15:03.873035 12095 net.cpp:165] Memory required for data: 2769986024
I0201 12:15:03.873044 12095 layer_factory.hpp:77] Creating layer inception_5b/3x3_reduce
I0201 12:15:03.873059 12095 net.cpp:100] Creating Layer inception_5b/3x3_reduce
I0201 12:15:03.873066 12095 net.cpp:434] inception_5b/3x3_reduce <- inception_5a/output_inception_5a/output_0_split_1
I0201 12:15:03.873077 12095 net.cpp:408] inception_5b/3x3_reduce -> inception_5b/3x3_reduce
I0201 12:15:03.874573 12095 net.cpp:150] Setting up inception_5b/3x3_reduce
I0201 12:15:03.874588 12095 net.cpp:157] Top shape: 50 192 7 7 (470400)
I0201 12:15:03.874595 12095 net.cpp:165] Memory required for data: 2771867624
I0201 12:15:03.874606 12095 layer_factory.hpp:77] Creating layer inception_5b/relu_3x3_reduce
I0201 12:15:03.874616 12095 net.cpp:100] Creating Layer inception_5b/relu_3x3_reduce
I0201 12:15:03.874625 12095 net.cpp:434] inception_5b/relu_3x3_reduce <- inception_5b/3x3_reduce
I0201 12:15:03.874637 12095 net.cpp:395] inception_5b/relu_3x3_reduce -> inception_5b/3x3_reduce (in-place)
I0201 12:15:03.874649 12095 net.cpp:150] Setting up inception_5b/relu_3x3_reduce
I0201 12:15:03.874657 12095 net.cpp:157] Top shape: 50 192 7 7 (470400)
I0201 12:15:03.874665 12095 net.cpp:165] Memory required for data: 2773749224
I0201 12:15:03.874671 12095 layer_factory.hpp:77] Creating layer inception_5b/3x3
I0201 12:15:03.874683 12095 net.cpp:100] Creating Layer inception_5b/3x3
I0201 12:15:03.874691 12095 net.cpp:434] inception_5b/3x3 <- inception_5b/3x3_reduce
I0201 12:15:03.874701 12095 net.cpp:408] inception_5b/3x3 -> inception_5b/3x3
I0201 12:15:03.881193 12095 net.cpp:150] Setting up inception_5b/3x3
I0201 12:15:03.881217 12095 net.cpp:157] Top shape: 50 384 7 7 (940800)
I0201 12:15:03.881223 12095 net.cpp:165] Memory required for data: 2777512424
I0201 12:15:03.881234 12095 layer_factory.hpp:77] Creating layer inception_5b/relu_3x3
I0201 12:15:03.881247 12095 net.cpp:100] Creating Layer inception_5b/relu_3x3
I0201 12:15:03.881268 12095 net.cpp:434] inception_5b/relu_3x3 <- inception_5b/3x3
I0201 12:15:03.881278 12095 net.cpp:395] inception_5b/relu_3x3 -> inception_5b/3x3 (in-place)
I0201 12:15:03.881307 12095 net.cpp:150] Setting up inception_5b/relu_3x3
I0201 12:15:03.881317 12095 net.cpp:157] Top shape: 50 384 7 7 (940800)
I0201 12:15:03.881325 12095 net.cpp:165] Memory required for data: 2781275624
I0201 12:15:03.881331 12095 layer_factory.hpp:77] Creating layer inception_5b/5x5_reduce
I0201 12:15:03.881343 12095 net.cpp:100] Creating Layer inception_5b/5x5_reduce
I0201 12:15:03.881351 12095 net.cpp:434] inception_5b/5x5_reduce <- inception_5a/output_inception_5a/output_0_split_2
I0201 12:15:03.881364 12095 net.cpp:408] inception_5b/5x5_reduce -> inception_5b/5x5_reduce
I0201 12:15:03.881747 12095 net.cpp:150] Setting up inception_5b/5x5_reduce
I0201 12:15:03.881762 12095 net.cpp:157] Top shape: 50 48 7 7 (117600)
I0201 12:15:03.881768 12095 net.cpp:165] Memory required for data: 2781746024
I0201 12:15:03.881778 12095 layer_factory.hpp:77] Creating layer inception_5b/relu_5x5_reduce
I0201 12:15:03.881789 12095 net.cpp:100] Creating Layer inception_5b/relu_5x5_reduce
I0201 12:15:03.881798 12095 net.cpp:434] inception_5b/relu_5x5_reduce <- inception_5b/5x5_reduce
I0201 12:15:03.881809 12095 net.cpp:395] inception_5b/relu_5x5_reduce -> inception_5b/5x5_reduce (in-place)
I0201 12:15:03.881820 12095 net.cpp:150] Setting up inception_5b/relu_5x5_reduce
I0201 12:15:03.881829 12095 net.cpp:157] Top shape: 50 48 7 7 (117600)
I0201 12:15:03.881836 12095 net.cpp:165] Memory required for data: 2782216424
I0201 12:15:03.881844 12095 layer_factory.hpp:77] Creating layer inception_5b/5x5
I0201 12:15:03.881856 12095 net.cpp:100] Creating Layer inception_5b/5x5
I0201 12:15:03.881865 12095 net.cpp:434] inception_5b/5x5 <- inception_5b/5x5_reduce
I0201 12:15:03.881877 12095 net.cpp:408] inception_5b/5x5 -> inception_5b/5x5
I0201 12:15:03.883328 12095 net.cpp:150] Setting up inception_5b/5x5
I0201 12:15:03.883343 12095 net.cpp:157] Top shape: 50 128 7 7 (313600)
I0201 12:15:03.883350 12095 net.cpp:165] Memory required for data: 2783470824
I0201 12:15:03.883361 12095 layer_factory.hpp:77] Creating layer inception_5b/relu_5x5
I0201 12:15:03.883371 12095 net.cpp:100] Creating Layer inception_5b/relu_5x5
I0201 12:15:03.883379 12095 net.cpp:434] inception_5b/relu_5x5 <- inception_5b/5x5
I0201 12:15:03.883391 12095 net.cpp:395] inception_5b/relu_5x5 -> inception_5b/5x5 (in-place)
I0201 12:15:03.883401 12095 net.cpp:150] Setting up inception_5b/relu_5x5
I0201 12:15:03.883410 12095 net.cpp:157] Top shape: 50 128 7 7 (313600)
I0201 12:15:03.883417 12095 net.cpp:165] Memory required for data: 2784725224
I0201 12:15:03.883424 12095 layer_factory.hpp:77] Creating layer inception_5b/pool
I0201 12:15:03.883435 12095 net.cpp:100] Creating Layer inception_5b/pool
I0201 12:15:03.883442 12095 net.cpp:434] inception_5b/pool <- inception_5a/output_inception_5a/output_0_split_3
I0201 12:15:03.883455 12095 net.cpp:408] inception_5b/pool -> inception_5b/pool
I0201 12:15:03.883469 12095 net.cpp:150] Setting up inception_5b/pool
I0201 12:15:03.883478 12095 net.cpp:157] Top shape: 50 832 7 7 (2038400)
I0201 12:15:03.883486 12095 net.cpp:165] Memory required for data: 2792878824
I0201 12:15:03.883493 12095 layer_factory.hpp:77] Creating layer inception_5b/pool_proj
I0201 12:15:03.883507 12095 net.cpp:100] Creating Layer inception_5b/pool_proj
I0201 12:15:03.883517 12095 net.cpp:434] inception_5b/pool_proj <- inception_5b/pool
I0201 12:15:03.883527 12095 net.cpp:408] inception_5b/pool_proj -> inception_5b/pool_proj
I0201 12:15:03.884536 12095 net.cpp:150] Setting up inception_5b/pool_proj
I0201 12:15:03.884552 12095 net.cpp:157] Top shape: 50 128 7 7 (313600)
I0201 12:15:03.884558 12095 net.cpp:165] Memory required for data: 2794133224
I0201 12:15:03.884569 12095 layer_factory.hpp:77] Creating layer inception_5b/relu_pool_proj
I0201 12:15:03.884582 12095 net.cpp:100] Creating Layer inception_5b/relu_pool_proj
I0201 12:15:03.884590 12095 net.cpp:434] inception_5b/relu_pool_proj <- inception_5b/pool_proj
I0201 12:15:03.884600 12095 net.cpp:395] inception_5b/relu_pool_proj -> inception_5b/pool_proj (in-place)
I0201 12:15:03.884620 12095 net.cpp:150] Setting up inception_5b/relu_pool_proj
I0201 12:15:03.884639 12095 net.cpp:157] Top shape: 50 128 7 7 (313600)
I0201 12:15:03.884645 12095 net.cpp:165] Memory required for data: 2795387624
I0201 12:15:03.884652 12095 layer_factory.hpp:77] Creating layer inception_5b/output
I0201 12:15:03.884665 12095 net.cpp:100] Creating Layer inception_5b/output
I0201 12:15:03.884673 12095 net.cpp:434] inception_5b/output <- inception_5b/1x1
I0201 12:15:03.884682 12095 net.cpp:434] inception_5b/output <- inception_5b/3x3
I0201 12:15:03.884690 12095 net.cpp:434] inception_5b/output <- inception_5b/5x5
I0201 12:15:03.884698 12095 net.cpp:434] inception_5b/output <- inception_5b/pool_proj
I0201 12:15:03.884708 12095 net.cpp:408] inception_5b/output -> inception_5b/output
I0201 12:15:03.884721 12095 net.cpp:150] Setting up inception_5b/output
I0201 12:15:03.884730 12095 net.cpp:157] Top shape: 50 1024 7 7 (2508800)
I0201 12:15:03.884737 12095 net.cpp:165] Memory required for data: 2805422824
I0201 12:15:03.884744 12095 layer_factory.hpp:77] Creating layer pool5/7x7_s1
I0201 12:15:03.884760 12095 net.cpp:100] Creating Layer pool5/7x7_s1
I0201 12:15:03.884768 12095 net.cpp:434] pool5/7x7_s1 <- inception_5b/output
I0201 12:15:03.884780 12095 net.cpp:408] pool5/7x7_s1 -> pool5/7x7_s1
I0201 12:15:03.884793 12095 net.cpp:150] Setting up pool5/7x7_s1
I0201 12:15:03.884801 12095 net.cpp:157] Top shape: 50 1024 1 1 (51200)
I0201 12:15:03.884809 12095 net.cpp:165] Memory required for data: 2805627624
I0201 12:15:03.884816 12095 layer_factory.hpp:77] Creating layer pool5/drop_7x7_s1
I0201 12:15:03.884829 12095 net.cpp:100] Creating Layer pool5/drop_7x7_s1
I0201 12:15:03.884838 12095 net.cpp:434] pool5/drop_7x7_s1 <- pool5/7x7_s1
I0201 12:15:03.884848 12095 net.cpp:395] pool5/drop_7x7_s1 -> pool5/7x7_s1 (in-place)
I0201 12:15:03.884876 12095 net.cpp:150] Setting up pool5/drop_7x7_s1
I0201 12:15:03.884886 12095 net.cpp:157] Top shape: 50 1024 1 1 (51200)
I0201 12:15:03.884892 12095 net.cpp:165] Memory required for data: 2805832424
I0201 12:15:03.884899 12095 layer_factory.hpp:77] Creating layer loss3/classifier
I0201 12:15:03.884912 12095 net.cpp:100] Creating Layer loss3/classifier
I0201 12:15:03.884919 12095 net.cpp:434] loss3/classifier <- pool5/7x7_s1
I0201 12:15:03.884932 12095 net.cpp:408] loss3/classifier -> loss3/classifier
I0201 12:15:03.895051 12095 net.cpp:150] Setting up loss3/classifier
I0201 12:15:03.895067 12095 net.cpp:157] Top shape: 50 1000 (50000)
I0201 12:15:03.895076 12095 net.cpp:165] Memory required for data: 2806032424
I0201 12:15:03.895087 12095 layer_factory.hpp:77] Creating layer loss3/classifier_loss3/classifier_0_split
I0201 12:15:03.895097 12095 net.cpp:100] Creating Layer loss3/classifier_loss3/classifier_0_split
I0201 12:15:03.895105 12095 net.cpp:434] loss3/classifier_loss3/classifier_0_split <- loss3/classifier
I0201 12:15:03.895118 12095 net.cpp:408] loss3/classifier_loss3/classifier_0_split -> loss3/classifier_loss3/classifier_0_split_0
I0201 12:15:03.895130 12095 net.cpp:408] loss3/classifier_loss3/classifier_0_split -> loss3/classifier_loss3/classifier_0_split_1
I0201 12:15:03.895141 12095 net.cpp:408] loss3/classifier_loss3/classifier_0_split -> loss3/classifier_loss3/classifier_0_split_2
I0201 12:15:03.895153 12095 net.cpp:150] Setting up loss3/classifier_loss3/classifier_0_split
I0201 12:15:03.895162 12095 net.cpp:157] Top shape: 50 1000 (50000)
I0201 12:15:03.895171 12095 net.cpp:157] Top shape: 50 1000 (50000)
I0201 12:15:03.895179 12095 net.cpp:157] Top shape: 50 1000 (50000)
I0201 12:15:03.895185 12095 net.cpp:165] Memory required for data: 2806632424
I0201 12:15:03.895192 12095 layer_factory.hpp:77] Creating layer loss3/loss3
I0201 12:15:03.895203 12095 net.cpp:100] Creating Layer loss3/loss3
I0201 12:15:03.895211 12095 net.cpp:434] loss3/loss3 <- loss3/classifier_loss3/classifier_0_split_0
I0201 12:15:03.895220 12095 net.cpp:434] loss3/loss3 <- label_data_1_split_6
…
