…
I0201 12:13:20.669052 12080 net.cpp:322] The NetState phase (0) differed from the phase (1) specified by a rule in layer loss3/top-5
I0201 12:13:20.671905 12080 net.cpp:58] Initializing net from parameters: 
name: "GoogleNet"
state {
  phase: TRAIN
  level: 0
  stage: ""
}
layer {
  name: "data"
  type: "Data"
  top: "data"
  top: "label"
  include {
    phase: TRAIN
  }
  transform_param {
    mirror: true
    crop_size: 224
    mean_value: 104
    mean_value: 117
    mean_value: 123
  }
  data_param {
    source: "/home/user/caffeOMP/original/caffe/examples/imagenet/ilsvrc12_train_lmdb"
    batch_size: 32
    backend: LMDB
  }
}
layer {
  name: "conv1/7x7_s2"
  type: "Convolution"
  bottom: "data"
  top: "conv1/7x7_s2"
  param {
    lr_mult: 1
    decay_mult: 1
  }
  param {
    lr_mult: 2
    decay_mult: 0
  }
  convolution_param {
    num_output: 64
    pad: 3
    kernel_size: 7
    stride: 2
    weight_filler {
      type: "xavier"
    }
    bias_filler {
      type: "constant"
      value: 0.2
    }
  }
}
layer {
  name: "conv1/relu_7x7"
  type: "ReLU"
  bottom: "conv1/7x7_s2"
  top: "conv1/7x7_s2"
}
layer {
  name: "pool1/3x3_s2"
  type: "Pooling"
  bottom: "conv1/7x7_s2"
  top: "pool1/3x3_s2"
  pooling_param {
    pool: MAX
    kernel_size: 3
    stride: 2
  }
}
layer {
  name: "pool1/norm1"
  type: "LRN"
  bottom: "pool1/3x3_s2"
  top: "pool1/norm1"
  lrn_param {
    local_size: 5
    alpha: 0.0001
    beta: 0.75
  }
}
layer {
  name: "conv2/3x3_reduce"
  type: "Convolution"
  bottom: "pool1/norm1"
  top: "conv2/3x3_reduce"
  param {
    lr_mult: 1
    decay_mult: 1
  }
  param {
    lr_mult: 2
    decay_mult: 0
  }
  convolution_param {
    num_output: 64
    kernel_size: 1
    weight_filler {
      type: "xavier"
    }
    bias_filler {
      type: "constant"
      value: 0.2
    }
  }
}
layer {
  name: "conv2/relu_3x3_reduce"
  type: "ReLU"
  bottom: "conv2/3x3_reduce"
  top: "conv2/3x3_reduce"
}
layer {
  name: "conv2/3x3"
  type: "Convolution"
  bottom: "conv2/3x3_reduce"
  top: "conv2/3x3"
  param {
    lr_mult: 1
    decay_mult: 1
  }
  param {
    lr_mult: 2
    decay_mult: 0
  }
  convolution_param {
    num_output: 192
    pad: 1
    kernel_size: 3
    weight_filler {
      type: "xavier"
    }
    bias_filler {
      type: "constant"
      value: 0.2
    }
  }
}
layer {
  name: "conv2/relu_3x3"
  type: "ReLU"
  bottom: "conv2/3x3"
  top: "conv2/3x3"
}
layer {
  name: "conv2/norm2"
  type: "LRN"
  bottom: "conv2/3x3"
  top: "conv2/norm2"
  lrn_param {
    local_size: 5
    alpha: 0.0001
    beta: 0.75
  }
}
layer {
  name: "pool2/3x3_s2"
  type: "Pooling"
  bottom: "conv2/norm2"
  top: "pool2/3x3_s2"
  pooling_param {
    pool: MAX
    kernel_size: 3
    stride: 2
  }
}
layer {
  name: "inception_3a/1x1"
  type: "Convolution"
  bottom: "pool2/3x3_s2"
  top: "inception_3a/1x1"
  param {
    lr_mult: 1
    decay_mult: 1
  }
  param {
    lr_mult: 2
    decay_mult: 0
  }
  convolution_param {
    num_output: 64
    kernel_size: 1
    weight_filler {
      type: "xavier"
    }
    bias_filler {
      type: "constant"
      value: 0.2
    }
  }
}
layer {
  name: "inception_3a/relu_1x1"
  type: "ReLU"
  bottom: "inception_3a/1x1"
  top: "inception_3a/1x1"
}
layer {
  name: "inception_3a/3x3_reduce"
  type: "Convolution"
  bottom: "pool2/3x3_s2"
  top: "inception_3a/3x3_reduce"
  param {
    lr_mult: 1
    decay_mult: 1
  }
  param {
    lr_mult: 2
    decay_mult: 0
  }
  convolution_param {
    num_output: 96
    kernel_size: 1
    weight_filler {
      type: "xavier"
    }
    bias_filler {
      type: "constant"
      value: 0.2
    }
  }
}
layer {
  name: "inception_3a/relu_3x3_reduce"
  type: "ReLU"
  bottom: "inception_3a/3x3_reduce"
  top: "inception_3a/3x3_reduce"
}
layer {
  name: "inception_3a/3x3"
  type: "Convolution"
  bottom: "inception_3a/3x3_reduce"
  top: "inception_3a/3x3"
  param {
    lr_mult: 1
    decay_mult: 1
  }
  param {
    lr_mult: 2
    decay_mult: 0
  }
  convolution_param {
    num_output: 128
    pad: 1
    kernel_size: 3
    weight_filler {
      type: "xavier"
    }
    bias_filler {
      type: "constant"
      value: 0.2
    }
  }
}
layer {
  name: "inception_3a/relu_3x3"
  type: "ReLU"
  bottom: "inception_3a/3x3"
  top: "inception_3a/3x3"
}
layer {
  name: "inception_3a/5x5_reduce"
  type: "Convolution"
  bottom: "pool2/3x3_s2"
  top: "inception_3a/5x5_reduce"
  param {
    lr_mult: 1
    decay_mult: 1
  }
  param {
    lr_mult: 2
    decay_mult: 0
  }
  convolution_param {
    num_output: 16
    kernel_size: 1
    weight_filler {
      type: "xavier"
    }
    bias_filler {
      type: "constant"
      value: 0.2
    }
  }
}
layer {
  name: "inception_3a/relu_5x5_reduce"
  type: "ReLU"
  bottom: "inception_3a/5x5_reduce"
  top: "inception_3a/5x5_reduce"
}
layer {
  name: "inception_3a/5x5"
  type: "Convolution"
  bottom: "inception_3a/5x5_reduce"
  top: "inception_3a/5x5"
  param {
    lr_mult: 1
    decay_mult: 1
  }
  param {
    lr_mult: 2
    decay_mult: 0
  }
  convolution_param {
    num_output: 32
    pad: 2
    kernel_size: 5
    weight_filler {
      type: "xavier"
    }
    bias_filler {
      type: "constant"
      value: 0.2
    }
  }
}
layer {
  name: "inception_3a/relu_5x5"
  type: "ReLU"
  bottom: "inception_3a/5x5"
  top: "inception_3a/5x5"
}
layer {
  name: "inception_3a/pool"
  type: "Pooling"
  bottom: "pool2/3x3_s2"
  top: "inception_3a/pool"
  pooling_param {
    pool: MAX
    kernel_size: 3
    stride: 1
    pad: 1
  }
}
layer {
  name: "inception_3a/pool_proj"
  type: "Convolution"
  bottom: "inception_3a/pool"
  top: "inception_3a/pool_proj"
  param {
    lr_mult: 1
    decay_mult: 1
  }
  param {
    lr_mult: 2
    decay_mult: 0
  }
  convolution_param {
    num_output: 32
    kernel_size: 1
    weight_filler {
      type: "xavier"
    }
    bias_filler {
      type: "constant"
      value: 0.2
    }
  }
}
layer {
  name: "inception_3a/relu_pool_proj"
  type: "ReLU"
  bottom: "inception_3a/pool_proj"
  top: "inception_3a/pool_proj"
}
layer {
  name: "inception_3a/output"
  type: "Concat"
  bottom: "inception_3a/1x1"
  bottom: "inception_3a/3x3"
  bottom: "inception_3a/5x5"
  bottom: "inception_3a/pool_proj"
  top: "inception_3a/output"
}
layer {
  name: "inception_3b/1x1"
  type: "Convolution"
  bottom: "inception_3a/output"
  top: "inception_3b/1x1"
  param {
    lr_mult: 1
    decay_mult: 1
  }
  param {
    lr_mult: 2
    decay_mult: 0
  }
  convolution_param {
    num_output: 128
    kernel_size: 1
    weight_filler {
      type: "xavier"
    }
    bias_filler {
      type: "constant"
      value: 0.2
    }
  }
}
layer {
  name: "inception_3b/relu_1x1"
  type: "ReLU"
  bottom: "inception_3b/1x1"
  top: "inception_3b/1x1"
}
layer {
  name: "inception_3b/3x3_reduce"
  type: "Convolution"
  bottom: "inception_3a/output"
  top: "inception_3b/3x3_reduce"
  param {
    lr_mult: 1
    decay_mult: 1
  }
  param {
    lr_mult: 2
    decay_mult: 0
  }
  convolution_param {
    num_output: 128
    kernel_size: 1
    weight_filler {
      type: "xavier"
    }
    bias_filler {
      type: "constant"
      value: 0.2
    }
  }
}
layer {
  name: "inception_3b/relu_3x3_reduce"
  type: "ReLU"
  bottom: "inception_3b/3x3_reduce"
  top: "inception_3b/3x3_reduce"
}
layer {
  name: "inception_3b/3x3"
  type: "Convolution"
  bottom: "inception_3b/3x3_reduce"
  top: "inception_3b/3x3"
  param {
    lr_mult: 1
    decay_mult: 1
  }
  param {
    lr_mult: 2
    decay_mult: 0
  }
  convolution_param {
    num_output: 192
    pad: 1
    kernel_size: 3
    weight_filler {
      type: "xavier"
    }
    bias_filler {
      type: "constant"
      value: 0.2
    }
  }
}
layer {
  name: "inception_3b/relu_3x3"
  type: "ReLU"
  bottom: "inception_3b/3x3"
  top: "inception_3b/3x3"
}
layer {
  name: "inception_3b/5x5_reduce"
  type: "Convolution"
  bottom: "inception_3a/output"
  top: "inception_3b/5x5_reduce"
  param {
    lr_mult: 1
    decay_mult: 1
  }
  param {
    lr_mult: 2
    decay_mult: 0
  }
  convolution_param {
    num_output: 32
    kernel_size: 1
    weight_filler {
      type: "xavier"
    }
    bias_filler {
      type: "constant"
      value: 0.2
    }
  }
}
layer {
  name: "inception_3b/relu_5x5_reduce"
  type: "ReLU"
  bottom: "inception_3b/5x5_reduce"
  top: "inception_3b/5x5_reduce"
}
layer {
  name: "inception_3b/5x5"
  type: "Convolution"
  bottom: "inception_3b/5x5_reduce"
  top: "inception_3b/5x5"
  param {
    lr_mult: 1
    decay_mult: 1
  }
  param {
    lr_mult: 2
    decay_mult: 0
  }
  convolution_param {
    num_output: 96
    pad: 2
    kernel_size: 5
    weight_filler {
      type: "xavier"
    }
    bias_filler {
      type: "constant"
      value: 0.2
    }
  }
}
layer {
  name: "inception_3b/relu_5x5"
  type: "ReLU"
  bottom: "inception_3b/5x5"
  top: "inception_3b/5x5"
}
layer {
  name: "inception_3b/pool"
  type: "Pooling"
  bottom: "inception_3a/output"
  top: "inception_3b/pool"
  pooling_param {
    pool: MAX
    kernel_size: 3
    stride: 1
    pad: 1
  }
}
layer {
  name: "inception_3b/pool_proj"
  type: "Convolution"
  bottom: "inception_3b/pool"
  top: "inception_3b/pool_proj"
  param {
    lr_mult: 1
    decay_mult: 1
  }
  param {
    lr_mult: 2
    decay_mult: 0
  }
  convolution_param {
    num_output: 64
    kernel_size: 1
    weight_filler {
      type: "xavier"
    }
    bias_filler {
      type: "constant"
      value: 0.2
    }
  }
}
layer {
  name: "inception_3b/relu_pool_proj"
  type: "ReLU"
  bottom: "inception_3b/pool_proj"
  top: "inception_3b/pool_proj"
}
layer {
  name: "inception_3b/output"
  type: "Concat"
  bottom: "inception_3b/1x1"
  bottom: "inception_3b/3x3"
  bottom: "inception_3b/5x5"
  bottom: "inception_3b/pool_proj"
  top: "inception_3b/output"
}
layer {
  name: "pool3/3x3_s2"
  type: "Pooling"
  bottom: "inception_3b/output"
  top: "pool3/3x3_s2"
  pooling_param {
    pool: MAX
    kernel_size: 3
    stride: 2
  }
}
layer {
  name: "inception_4a/1x1"
  type: "Convolution"
  bottom: "pool3/3x3_s2"
  top: "inception_4a/1x1"
  param {
    lr_mult: 1
    decay_mult: 1
  }
  param {
    lr_mult: 2
    decay_mult: 0
  }
  convolution_param {
    num_output: 192
    kernel_size: 1
    weight_filler {
      type: "xavier"
    }
    bias_filler {
      type: "constant"
      value: 0.2
    }
  }
}
layer {
  name: "inception_4a/relu_1x1"
  type: "ReLU"
  bottom: "inception_4a/1x1"
  top: "inception_4a/1x1"
}
layer {
  name: "inception_4a/3x3_reduce"
  type: "Convolution"
  bottom: "pool3/3x3_s2"
  top: "inception_4a/3x3_reduce"
  param {
    lr_mult: 1
    decay_mult: 1
  }
  param {
    lr_mult: 2
    decay_mult: 0
  }
  convolution_param {
    num_output: 96
    kernel_size: 1
    weight_filler {
      type: "xavier"
    }
    bias_filler {
      type: "constant"
      value: 0.2
    }
  }
}
layer {
  name: "inception_4a/relu_3x3_reduce"
  type: "ReLU"
  bottom: "inception_4a/3x3_reduce"
  top: "inception_4a/3x3_reduce"
}
layer {
  name: "inception_4a/3x3"
  type: "Convolution"
  bottom: "inception_4a/3x3_reduce"
  top: "inception_4a/3x3"
  param {
    lr_mult: 1
    decay_mult: 1
  }
  param {
    lr_mult: 2
    decay_mult: 0
  }
  convolution_param {
    num_output: 208
    pad: 1
    kernel_size: 3
    weight_filler {
      type: "xavier"
    }
    bias_filler {
      type: "constant"
      value: 0.2
    }
  }
}
layer {
  name: "inception_4a/relu_3x3"
  type: "ReLU"
  bottom: "inception_4a/3x3"
  top: "inception_4a/3x3"
}
layer {
  name: "inception_4a/5x5_reduce"
  type: "Convolution"
  bottom: "pool3/3x3_s2"
  top: "inception_4a/5x5_reduce"
  param {
    lr_mult: 1
    decay_mult: 1
  }
  param {
    lr_mult: 2
    decay_mult: 0
  }
  convolution_param {
    num_output: 16
    kernel_size: 1
    weight_filler {
      type: "xavier"
    }
    bias_filler {
      type: "constant"
      value: 0.2
    }
  }
}
layer {
  name: "inception_4a/relu_5x5_reduce"
  type: "ReLU"
  bottom: "inception_4a/5x5_reduce"
  top: "inception_4a/5x5_reduce"
}
layer {
  name: "inception_4a/5x5"
  type: "Convolution"
  bottom: "inception_4a/5x5_reduce"
  top: "inception_4a/5x5"
  param {
    lr_mult: 1
    decay_mult: 1
  }
  param {
    lr_mult: 2
    decay_mult: 0
  }
  convolution_param {
    num_output: 48
    pad: 2
    kernel_size: 5
    weight_filler {
      type: "xavier"
    }
    bias_filler {
      type: "constant"
      value: 0.2
    }
  }
}
layer {
  name: "inception_4a/relu_5x5"
  type: "ReLU"
  bottom: "inception_4a/5x5"
  top: "inception_4a/5x5"
}
layer {
  name: "inception_4a/pool"
  type: "Pooling"
  bottom: "pool3/3x3_s2"
  top: "inception_4a/pool"
  pooling_param {
    pool: MAX
    kernel_size: 3
    stride: 1
    pad: 1
  }
}
layer {
  name: "inception_4a/pool_proj"
  type: "Convolution"
  bottom: "inception_4a/pool"
  top: "inception_4a/pool_proj"
  param {
    lr_mult: 1
    decay_mult: 1
  }
  param {
    lr_mult: 2
    decay_mult: 0
  }
  convolution_param {
    num_output: 64
    kernel_size: 1
    weight_filler {
      type: "xavier"
    }
    bias_filler {
      type: "constant"
      value: 0.2
    }
  }
}
layer {
  name: "inception_4a/relu_pool_proj"
  type: "ReLU"
  bottom: "inception_4a/pool_proj"
  top: "inception_4a/pool_proj"
}
layer {
  name: "inception_4a/output"
  type: "Concat"
  bottom: "inception_4a/1x1"
  bottom: "inception_4a/3x3"
  bottom: "inception_4a/5x5"
  bottom: "inception_4a/pool_proj"
  top: "inception_4a/output"
}
layer {
  name: "loss1/ave_pool"
  type: "Pooling"
  bottom: "inception_4a/output"
  top: "loss1/ave_pool"
  pooling_param {
    pool: AVE
    kernel_size: 5
    stride: 3
  }
}
layer {
  name: "loss1/conv"
  type: "Convolution"
  bottom: "loss1/ave_pool"
  top: "loss1/conv"
  param {
    lr_mult: 1
    decay_mult: 1
  }
  param {
    lr_mult: 2
    decay_mult: 0
  }
  convolution_param {
    num_output: 128
    kernel_size: 1
    weight_filler {
      type: "xavier"
    }
    bias_filler {
      type: "constant"
      value: 0.2
    }
  }
}
layer {
  name: "loss1/relu_conv"
  type: "ReLU"
  bottom: "loss1/conv"
  top: "loss1/conv"
}
layer {
  name: "loss1/fc"
  type: "InnerProduct"
  bottom: "loss1/conv"
  top: "loss1/fc"
  param {
    lr_mult: 1
    decay_mult: 1
  }
  param {
    lr_mult: 2
    decay_mult: 0
  }
  inner_product_param {
    num_output: 1024
    weight_filler {
      type: "xavier"
    }
    bias_filler {
      type: "constant"
      value: 0.2
    }
  }
}
layer {
  name: "loss1/relu_fc"
  type: "ReLU"
  bottom: "loss1/fc"
  top: "loss1/fc"
}
layer {
  name: "loss1/drop_fc"
  type: "Dropout"
  bottom: "loss1/fc"
  top: "loss1/fc"
  dropout_param {
    dropout_ratio: 0.7
  }
}
layer {
  name: "loss1/classifier"
  type: "InnerProduct"
  bottom: "loss1/fc"
  top: "loss1/classifier"
  param {
    lr_mult: 1
    decay_mult: 1
  }
  param {
    lr_mult: 2
    decay_mult: 0
  }
  inner_product_param {
    num_output: 1000
    weight_filler {
      type: "xavier"
    }
    bias_filler {
      type: "constant"
      value: 0
    }
  }
}
layer {
  name: "loss1/loss"
  type: "SoftmaxWithLoss"
  bottom: "loss1/classifier"
  bottom: "label"
  top: "loss1/loss1"
  loss_weight: 0.3
}
layer {
  name: "inception_4b/1x1"
  type: "Convolution"
  bottom: "inception_4a/output"
  top: "inception_4b/1x1"
  param {
    lr_mult: 1
    decay_mult: 1
  }
  param {
    lr_mult: 2
    decay_mult: 0
  }
  convolution_param {
    num_output: 160
    kernel_size: 1
    weight_filler {
      type: "xavier"
    }
    bias_filler {
      type: "constant"
      value: 0.2
    }
  }
}
layer {
  name: "inception_4b/relu_1x1"
  type: "ReLU"
  bottom: "inception_4b/1x1"
  top: "inception_4b/1x1"
}
layer {
  name: "inception_4b/3x3_reduce"
  type: "Convolution"
  bottom: "inception_4a/output"
  top: "inception_4b/3x3_reduce"
  param {
    lr_mult: 1
    decay_mult: 1
  }
  param {
    lr_mult: 2
    decay_mult: 0
  }
  convolution_param {
    num_output: 112
    kernel_size: 1
    weight_filler {
      type: "xavier"
    }
    bias_filler {
      type: "constant"
      value: 0.2
    }
  }
}
layer {
  name: "inception_4b/relu_3x3_reduce"
  type: "ReLU"
  bottom: "inception_4b/3x3_reduce"
  top: "inception_4b/3x3_reduce"
}
layer {
  name: "inception_4b/3x3"
  type: "Convolution"
  bottom: "inception_4b/3x3_reduce"
  top: "inception_4b/3x3"
  param {
    lr_mult: 1
    decay_mult: 1
  }
  param {
    lr_mult: 2
    decay_mult: 0
  }
  convolution_param {
    num_output: 224
    pad: 1
    kernel_size: 3
    weight_filler {
      type: "xavier"
    }
    bias_filler {
      type: "constant"
      value: 0.2
    }
  }
}
layer {
  name: "inception_4b/relu_3x3"
  type: "ReLU"
  bottom: "inception_4b/3x3"
  top: "inception_4b/3x3"
}
layer {
  name: "inception_4b/5x5_reduce"
  type: "Convolution"
  bottom: "inception_4a/output"
  top: "inception_4b/5x5_reduce"
  param {
    lr_mult: 1
    decay_mult: 1
  }
  param {
    lr_mult: 2
    decay_mult: 0
  }
  convolution_param {
    num_output: 24
    kernel_size: 1
    weight_filler {
      type: "xavier"
    }
    bias_filler {
      type: "constant"
      value: 0.2
    }
  }
}
layer {
  name: "inception_4b/relu_5x5_reduce"
  type: "ReLU"
  bottom: "inception_4b/5x5_reduce"
  top: "inception_4b/5x5_reduce"
}
layer {
  name: "inception_4b/5x5"
  type: "Convolution"
  bottom: "inception_4b/5x5_reduce"
  top: "inception_4b/5x5"
  param {
    lr_mult: 1
    decay_mult: 1
  }
  param {
    lr_mult: 2
    decay_mult: 0
  }
  convolution_param {
    num_output: 64
    pad: 2
    kernel_size: 5
    weight_filler {
      type: "xavier"
    }
    bias_filler {
      type: "constant"
      value: 0.2
    }
  }
}
layer {
  name: "inception_4b/relu_5x5"
  type: "ReLU"
  bottom: "inception_4b/5x5"
  top: "inception_4b/5x5"
}
layer {
  name: "inception_4b/pool"
  type: "Pooling"
  bottom: "inception_4a/output"
  top: "inception_4b/pool"
  pooling_param {
    pool: MAX
    kernel_size: 3
    stride: 1
    pad: 1
  }
}
layer {
  name: "inception_4b/pool_proj"
  type: "Convolution"
  bottom: "inception_4b/pool"
  top: "inception_4b/pool_proj"
  param {
    lr_mult: 1
    decay_mult: 1
  }
  param {
    lr_mult: 2
    decay_mult: 0
  }
  convolution_param {
    num_output: 64
    kernel_size: 1
    weight_filler {
      type: "xavier"
    }
    bias_filler {
      type: "constant"
      value: 0.2
    }
  }
}
layer {
  name: "inception_4b/relu_pool_proj"
  type: "ReLU"
  bottom: "inception_4b/pool_proj"
  top: "inception_4b/pool_proj"
}
layer {
  name: "inception_4b/output"
  type: "Concat"
  bottom: "inception_4b/1x1"
  bottom: "inception_4b/3x3"
  bottom: "inception_4b/5x5"
  bottom: "inception_4b/pool_proj"
  top: "inception_4b/output"
}
layer {
  name: "inception_4c/1x1"
  type: "Convolution"
  bottom: "inception_4b/output"
  top: "inception_4c/1x1"
  param {
    lr_mult: 1
    decay_mult: 1
  }
  param {
    lr_mult: 2
    decay_mult: 0
  }
  convolution_param {
    num_output: 128
    kernel_size: 1
    weight_filler {
      type: "xavier"
    }
    bias_filler {
      type: "constant"
      value: 0.2
    }
  }
}
layer {
  name: "inception_4c/relu_1x1"
  type: "ReLU"
  bottom: "inception_4c/1x1"
  top: "inception_4c/1x1"
}
layer {
  name: "inception_4c/3x3_reduce"
  type: "Convolution"
  bottom: "inception_4b/output"
  top: "inception_4c/3x3_reduce"
  param {
    lr_mult: 1
    decay_mult: 1
  }
  param {
    lr_mult: 2
    decay_mult: 0
  }
  convolution_param {
    num_output: 128
    kernel_size: 1
    weight_filler {
      type: "xavier"
    }
    bias_filler {
      type: "constant"
      value: 0.2
    }
  }
}
layer {
  name: "inception_4c/relu_3x3_reduce"
  type: "ReLU"
  bottom: "inception_4c/3x3_reduce"
  top: "inception_4c/3x3_reduce"
}
layer {
  name: "inception_4c/3x3"
  type: "Convolution"
  bottom: "inception_4c/3x3_reduce"
  top: "inception_4c/3x3"
  param {
    lr_mult: 1
    decay_mult: 1
  }
  param {
    lr_mult: 2
    decay_mult: 0
  }
  convolution_param {
    num_output: 256
    pad: 1
    kernel_size: 3
    weight_filler {
      type: "xavier"
    }
    bias_filler {
      type: "constant"
      value: 0.2
    }
  }
}
layer {
  name: "inception_4c/relu_3x3"
  type: "ReLU"
  bottom: "inception_4c/3x3"
  top: "inception_4c/3x3"
}
layer {
  name: "inception_4c/5x5_reduce"
  type: "Convolution"
  bottom: "inception_4b/output"
  top: "inception_4c/5x5_reduce"
  param {
    lr_mult: 1
    decay_mult: 1
  }
  param {
    lr_mult: 2
    decay_mult: 0
  }
  convolution_param {
    num_output: 24
    kernel_size: 1
    weight_filler {
      type: "xavier"
    }
    bias_filler {
      type: "constant"
      value: 0.2
    }
  }
}
layer {
  name: "inception_4c/relu_5x5_reduce"
  type: "ReLU"
  bottom: "inception_4c/5x5_reduce"
  top: "inception_4c/5x5_reduce"
}
layer {
  name: "inception_4c/5x5"
  type: "Convolution"
  bottom: "inception_4c/5x5_reduce"
  top: "inception_4c/5x5"
  param {
    lr_mult: 1
    decay_mult: 1
  }
  param {
    lr_mult: 2
    decay_mult: 0
  }
  convolution_param {
    num_output: 64
    pad: 2
    kernel_size: 5
    weight_filler {
      type: "xavier"
    }
    bias_filler {
      type: "constant"
      value: 0.2
    }
  }
}
layer {
  name: "inception_4c/relu_5x5"
  type: "ReLU"
  bottom: "inception_4c/5x5"
  top: "inception_4c/5x5"
}
layer {
  name: "inception_4c/pool"
  type: "Pooling"
  bottom: "inception_4b/output"
  top: "inception_4c/pool"
  pooling_param {
    pool: MAX
    kernel_size: 3
    stride: 1
    pad: 1
  }
}
layer {
  name: "inception_4c/pool_proj"
  type: "Convolution"
  bottom: "inception_4c/pool"
  top: "inception_4c/pool_proj"
  param {
    lr_mult: 1
    decay_mult: 1
  }
  param {
    lr_mult: 2
    decay_mult: 0
  }
  convolution_param {
    num_output: 64
    kernel_size: 1
    weight_filler {
      type: "xavier"
    }
    bias_filler {
      type: "constant"
      value: 0.2
    }
  }
}
layer {
  name: "inception_4c/relu_pool_proj"
  type: "ReLU"
  bottom: "inception_4c/pool_proj"
  top: "inception_4c/pool_proj"
}
layer {
  name: "inception_4c/output"
  type: "Concat"
  bottom: "inception_4c/1x1"
  bottom: "inception_4c/3x3"
  bottom: "inception_4c/5x5"
  bottom: "inception_4c/pool_proj"
  top: "inception_4c/output"
}
layer {
  name: "inception_4d/1x1"
  type: "Convolution"
  bottom: "inception_4c/output"
  top: "inception_4d/1x1"
  param {
    lr_mult: 1
    decay_mult: 1
  }
  param {
    lr_mult: 2
    decay_mult: 0
  }
  convolution_param {
    num_output: 112
    kernel_size: 1
    weight_filler {
      type: "xavier"
    }
    bias_filler {
      type: "constant"
      value: 0.2
    }
  }
}
layer {
  name: "inception_4d/relu_1x1"
  type: "ReLU"
  bottom: "inception_4d/1x1"
  top: "inception_4d/1x1"
}
layer {
  name: "inception_4d/3x3_reduce"
  type: "Convolution"
  bottom: "inception_4c/output"
  top: "inception_4d/3x3_reduce"
  param {
    lr_mult: 1
    decay_mult: 1
  }
  param {
    lr_mult: 2
    decay_mult: 0
  }
  convolution_param {
    num_output: 144
    kernel_size: 1
    weight_filler {
      type: "xavier"
    }
    bias_filler {
      type: "constant"
      value: 0.2
    }
  }
}
layer {
  name: "inception_4d/relu_3x3_reduce"
  type: "ReLU"
  bottom: "inception_4d/3x3_reduce"
  top: "inception_4d/3x3_reduce"
}
layer {
  name: "inception_4d/3x3"
  type: "Convolution"
  bottom: "inception_4d/3x3_reduce"
  top: "inception_4d/3x3"
  param {
    lr_mult: 1
    decay_mult: 1
  }
  param {
    lr_mult: 2
    decay_mult: 0
  }
  convolution_param {
    num_output: 288
    pad: 1
    kernel_size: 3
    weight_filler {
      type: "xavier"
    }
    bias_filler {
      type: "constant"
      value: 0.2
    }
  }
}
layer {
  name: "inception_4d/relu_3x3"
  type: "ReLU"
  bottom: "inception_4d/3x3"
  top: "inception_4d/3x3"
}
layer {
  name: "inception_4d/5x5_reduce"
  type: "Convolution"
  bottom: "inception_4c/output"
  top: "inception_4d/5x5_reduce"
  param {
    lr_mult: 1
    decay_mult: 1
  }
  param {
    lr_mult: 2
    decay_mult: 0
  }
  convolution_param {
    num_output: 32
    kernel_size: 1
    weight_filler {
      type: "xavier"
    }
    bias_filler {
      type: "constant"
      value: 0.2
    }
  }
}
layer {
  name: "inception_4d/relu_5x5_reduce"
  type: "ReLU"
  bottom: "inception_4d/5x5_reduce"
  top: "inception_4d/5x5_reduce"
}
layer {
  name: "inception_4d/5x5"
  type: "Convolution"
  bottom: "inception_4d/5x5_reduce"
  top: "inception_4d/5x5"
  param {
    lr_mult: 1
    decay_mult: 1
  }
  param {
    lr_mult: 2
    decay_mult: 0
  }
  convolution_param {
    num_output: 64
    pad: 2
    kernel_size: 5
    weight_filler {
      type: "xavier"
    }
    bias_filler {
      type: "constant"
      value: 0.2
    }
  }
}
layer {
  name: "inception_4d/relu_5x5"
  type: "ReLU"
  bottom: "inception_4d/5x5"
  top: "inception_4d/5x5"
}
layer {
  name: "inception_4d/pool"
  type: "Pooling"
  bottom: "inception_4c/output"
  top: "inception_4d/pool"
  pooling_param {
    pool: MAX
    kernel_size: 3
    stride: 1
    pad: 1
  }
}
layer {
  name: "inception_4d/pool_proj"
  type: "Convolution"
  bottom: "inception_4d/pool"
  top: "inception_4d/pool_proj"
  param {
    lr_mult: 1
    decay_mult: 1
  }
  param {
    lr_mult: 2
    decay_mult: 0
  }
  convolution_param {
    num_output: 64
    kernel_size: 1
    weight_filler {
      type: "xavier"
    }
    bias_filler {
      type: "constant"
      value: 0.2
    }
  }
}
layer {
  name: "inception_4d/relu_pool_proj"
  type: "ReLU"
  bottom: "inception_4d/pool_proj"
  top: "inception_4d/pool_proj"
}
layer {
  name: "inception_4d/output"
  type: "Concat"
  bottom: "inception_4d/1x1"
  bottom: "inception_4d/3x3"
  bottom: "inception_4d/5x5"
  bottom: "inception_4d/pool_proj"
  top: "inception_4d/output"
}
layer {
  name: "loss2/ave_pool"
  type: "Pooling"
  bottom: "inception_4d/output"
  top: "loss2/ave_pool"
  pooling_param {
    pool: AVE
    kernel_size: 5
    stride: 3
  }
}
layer {
  name: "loss2/conv"
  type: "Convolution"
  bottom: "loss2/ave_pool"
  top: "loss2/conv"
  param {
    lr_mult: 1
    decay_mult: 1
  }
  param {
    lr_mult: 2
    decay_mult: 0
  }
  convolution_param {
    num_output: 128
    kernel_size: 1
    weight_filler {
      type: "xavier"
    }
    bias_filler {
      type: "constant"
      value: 0.2
    }
  }
}
layer {
  name: "loss2/relu_conv"
  type: "ReLU"
  bottom: "loss2/conv"
  top: "loss2/conv"
}
layer {
  name: "loss2/fc"
  type: "InnerProduct"
  bottom: "loss2/conv"
  top: "loss2/fc"
  param {
    lr_mult: 1
    decay_mult: 1
  }
  param {
    lr_mult: 2
    decay_mult: 0
  }
  inner_product_param {
    num_output: 1024
    weight_filler {
      type: "xavier"
    }
    bias_filler {
      type: "constant"
      value: 0.2
    }
  }
}
layer {
  name: "loss2/relu_fc"
  type: "ReLU"
  bottom: "loss2/fc"
  top: "loss2/fc"
}
layer {
  name: "loss2/drop_fc"
  type: "Dropout"
  bottom: "loss2/fc"
  top: "loss2/fc"
  dropout_param {
    dropout_ratio: 0.7
  }
}
layer {
  name: "loss2/classifier"
  type: "InnerProduct"
  bottom: "loss2/fc"
  top: "loss2/classifier"
  param {
    lr_mult: 1
    decay_mult: 1
  }
  param {
    lr_mult: 2
    decay_mult: 0
  }
  inner_product_param {
    num_output: 1000
    weight_filler {
      type: "xavier"
    }
    bias_filler {
      type: "constant"
      value: 0
    }
  }
}
layer {
  name: "loss2/loss"
  type: "SoftmaxWithLoss"
  bottom: "loss2/classifier"
  bottom: "label"
  top: "loss2/loss1"
  loss_weight: 0.3
}
layer {
  name: "inception_4e/1x1"
  type: "Convolution"
  bottom: "inception_4d/output"
  top: "inception_4e/1x1"
  param {
    lr_mult: 1
    decay_mult: 1
  }
  param {
    lr_mult: 2
    decay_mult: 0
  }
  convolution_param {
    num_output: 256
    kernel_size: 1
    weight_filler {
      type: "xavier"
    }
    bias_filler {
      type: "constant"
      value: 0.2
    }
  }
}
layer {
  name: "inception_4e/relu_1x1"
  type: "ReLU"
  bottom: "inception_4e/1x1"
  top: "inception_4e/1x1"
}
layer {
  name: "inception_4e/3x3_reduce"
  type: "Convolution"
  bottom: "inception_4d/output"
  top: "inception_4e/3x3_reduce"
  param {
    lr_mult: 1
    decay_mult: 1
  }
  param {
    lr_mult: 2
    decay_mult: 0
  }
  convolution_param {
    num_output: 160
    kernel_size: 1
    weight_filler {
      type: "xavier"
    }
    bias_filler {
      type: "constant"
      value: 0.2
    }
  }
}
layer {
  name: "inception_4e/relu_3x3_reduce"
  type: "ReLU"
  bottom: "inception_4e/3x3_reduce"
  top: "inception_4e/3x3_reduce"
}
layer {
  name: "inception_4e/3x3"
  type: "Convolution"
  bottom: "inception_4e/3x3_reduce"
  top: "inception_4e/3x3"
  param {
    lr_mult: 1
    decay_mult: 1
  }
  param {
    lr_mult: 2
    decay_mult: 0
  }
  convolution_param {
    num_output: 320
    pad: 1
    kernel_size: 3
    weight_filler {
      type: "xavier"
    }
    bias_filler {
      type: "constant"
      value: 0.2
    }
  }
}
layer {
  name: "inception_4e/relu_3x3"
  type: "ReLU"
  bottom: "inception_4e/3x3"
  top: "inception_4e/3x3"
}
layer {
  name: "inception_4e/5x5_reduce"
  type: "Convolution"
  bottom: "inception_4d/output"
  top: "inception_4e/5x5_reduce"
  param {
    lr_mult: 1
    decay_mult: 1
  }
  param {
    lr_mult: 2
    decay_mult: 0
  }
  convolution_param {
    num_output: 32
    kernel_size: 1
    weight_filler {
      type: "xavier"
    }
    bias_filler {
      type: "constant"
      value: 0.2
    }
  }
}
layer {
  name: "inception_4e/relu_5x5_reduce"
  type: "ReLU"
  bottom: "inception_4e/5x5_reduce"
  top: "inception_4e/5x5_reduce"
}
layer {
  name: "inception_4e/5x5"
  type: "Convolution"
  bottom: "inception_4e/5x5_reduce"
  top: "inception_4e/5x5"
  param {
    lr_mult: 1
    decay_mult: 1
  }
  param {
    lr_mult: 2
    decay_mult: 0
  }
  convolution_param {
    num_output: 128
    pad: 2
    kernel_size: 5
    weight_filler {
      type: "xavier"
    }
    bias_filler {
      type: "constant"
      value: 0.2
    }
  }
}
layer {
  name: "inception_4e/relu_5x5"
  type: "ReLU"
  bottom: "inception_4e/5x5"
  top: "inception_4e/5x5"
}
layer {
  name: "inception_4e/pool"
  type: "Pooling"
  bottom: "inception_4d/output"
  top: "inception_4e/pool"
  pooli
I0201 12:13:20.672711 12080 layer_factory.hpp:77] Creating layer data
I0201 12:13:20.673317 12080 net.cpp:100] Creating Layer data
I0201 12:13:20.673398 12080 net.cpp:408] data -> data
I0201 12:13:20.673444 12080 net.cpp:408] data -> label
I0201 12:13:20.673523 12081 db_lmdb.cpp:35] Opened lmdb /home/user/caffeOMP/original/caffe/examples/imagenet/ilsvrc12_train_lmdb
I0201 12:13:20.674360 12080 data_layer.cpp:41] output data size: 32,3,224,224
I0201 12:13:20.694296 12080 net.cpp:150] Setting up data
I0201 12:13:20.694389 12080 net.cpp:157] Top shape: 32 3 224 224 (4816896)
I0201 12:13:20.694401 12080 net.cpp:157] Top shape: 32 (32)
I0201 12:13:20.694408 12080 net.cpp:165] Memory required for data: 19267712
I0201 12:13:20.694434 12080 layer_factory.hpp:77] Creating layer label_data_1_split
I0201 12:13:20.694479 12080 net.cpp:100] Creating Layer label_data_1_split
I0201 12:13:20.694494 12080 net.cpp:434] label_data_1_split <- label
I0201 12:13:20.694530 12080 net.cpp:408] label_data_1_split -> label_data_1_split_0
I0201 12:13:20.694555 12080 net.cpp:408] label_data_1_split -> label_data_1_split_1
I0201 12:13:20.694566 12080 net.cpp:408] label_data_1_split -> label_data_1_split_2
I0201 12:13:20.694610 12080 net.cpp:150] Setting up label_data_1_split
I0201 12:13:20.694640 12080 net.cpp:157] Top shape: 32 (32)
I0201 12:13:20.694648 12080 net.cpp:157] Top shape: 32 (32)
I0201 12:13:20.694656 12080 net.cpp:157] Top shape: 32 (32)
I0201 12:13:20.694663 12080 net.cpp:165] Memory required for data: 19268096
I0201 12:13:20.694669 12080 layer_factory.hpp:77] Creating layer conv1/7x7_s2
I0201 12:13:20.694710 12080 net.cpp:100] Creating Layer conv1/7x7_s2
I0201 12:13:20.694718 12080 net.cpp:434] conv1/7x7_s2 <- data
I0201 12:13:20.694731 12080 net.cpp:408] conv1/7x7_s2 -> conv1/7x7_s2
I0201 12:13:20.694962 12080 net.cpp:150] Setting up conv1/7x7_s2
I0201 12:13:20.694975 12080 net.cpp:157] Top shape: 32 64 112 112 (25690112)
I0201 12:13:20.694983 12080 net.cpp:165] Memory required for data: 122028544
I0201 12:13:20.695010 12080 layer_factory.hpp:77] Creating layer conv1/relu_7x7
I0201 12:13:20.695027 12080 net.cpp:100] Creating Layer conv1/relu_7x7
I0201 12:13:20.695035 12080 net.cpp:434] conv1/relu_7x7 <- conv1/7x7_s2
I0201 12:13:20.695044 12080 net.cpp:395] conv1/relu_7x7 -> conv1/7x7_s2 (in-place)
I0201 12:13:20.695056 12080 net.cpp:150] Setting up conv1/relu_7x7
I0201 12:13:20.695065 12080 net.cpp:157] Top shape: 32 64 112 112 (25690112)
I0201 12:13:20.695071 12080 net.cpp:165] Memory required for data: 224788992
I0201 12:13:20.695078 12080 layer_factory.hpp:77] Creating layer pool1/3x3_s2
I0201 12:13:20.695094 12080 net.cpp:100] Creating Layer pool1/3x3_s2
I0201 12:13:20.695101 12080 net.cpp:434] pool1/3x3_s2 <- conv1/7x7_s2
I0201 12:13:20.695111 12080 net.cpp:408] pool1/3x3_s2 -> pool1/3x3_s2
I0201 12:13:20.695140 12080 net.cpp:150] Setting up pool1/3x3_s2
I0201 12:13:20.695149 12080 net.cpp:157] Top shape: 32 64 56 56 (6422528)
I0201 12:13:20.695157 12080 net.cpp:165] Memory required for data: 250479104
I0201 12:13:20.695163 12080 layer_factory.hpp:77] Creating layer pool1/norm1
I0201 12:13:20.695179 12080 net.cpp:100] Creating Layer pool1/norm1
I0201 12:13:20.695188 12080 net.cpp:434] pool1/norm1 <- pool1/3x3_s2
I0201 12:13:20.695197 12080 net.cpp:408] pool1/norm1 -> pool1/norm1
I0201 12:13:20.695216 12080 net.cpp:150] Setting up pool1/norm1
I0201 12:13:20.695225 12080 net.cpp:157] Top shape: 32 64 56 56 (6422528)
I0201 12:13:20.695231 12080 net.cpp:165] Memory required for data: 276169216
I0201 12:13:20.695238 12080 layer_factory.hpp:77] Creating layer conv2/3x3_reduce
I0201 12:13:20.695262 12080 net.cpp:100] Creating Layer conv2/3x3_reduce
I0201 12:13:20.695272 12080 net.cpp:434] conv2/3x3_reduce <- pool1/norm1
I0201 12:13:20.695282 12080 net.cpp:408] conv2/3x3_reduce -> conv2/3x3_reduce
I0201 12:13:20.695345 12080 net.cpp:150] Setting up conv2/3x3_reduce
I0201 12:13:20.695356 12080 net.cpp:157] Top shape: 32 64 56 56 (6422528)
I0201 12:13:20.695363 12080 net.cpp:165] Memory required for data: 301859328
I0201 12:13:20.695374 12080 layer_factory.hpp:77] Creating layer conv2/relu_3x3_reduce
I0201 12:13:20.695386 12080 net.cpp:100] Creating Layer conv2/relu_3x3_reduce
I0201 12:13:20.695394 12080 net.cpp:434] conv2/relu_3x3_reduce <- conv2/3x3_reduce
I0201 12:13:20.695403 12080 net.cpp:395] conv2/relu_3x3_reduce -> conv2/3x3_reduce (in-place)
I0201 12:13:20.695413 12080 net.cpp:150] Setting up conv2/relu_3x3_reduce
I0201 12:13:20.695421 12080 net.cpp:157] Top shape: 32 64 56 56 (6422528)
I0201 12:13:20.695428 12080 net.cpp:165] Memory required for data: 327549440
I0201 12:13:20.695435 12080 layer_factory.hpp:77] Creating layer conv2/3x3
I0201 12:13:20.695449 12080 net.cpp:100] Creating Layer conv2/3x3
I0201 12:13:20.695456 12080 net.cpp:434] conv2/3x3 <- conv2/3x3_reduce
I0201 12:13:20.695468 12080 net.cpp:408] conv2/3x3 -> conv2/3x3
I0201 12:13:20.696485 12080 net.cpp:150] Setting up conv2/3x3
I0201 12:13:20.696499 12080 net.cpp:157] Top shape: 32 192 56 56 (19267584)
I0201 12:13:20.696506 12080 net.cpp:165] Memory required for data: 404619776
I0201 12:13:20.696518 12080 layer_factory.hpp:77] Creating layer conv2/relu_3x3
I0201 12:13:20.696528 12080 net.cpp:100] Creating Layer conv2/relu_3x3
I0201 12:13:20.696535 12080 net.cpp:434] conv2/relu_3x3 <- conv2/3x3
I0201 12:13:20.696562 12080 net.cpp:395] conv2/relu_3x3 -> conv2/3x3 (in-place)
I0201 12:13:20.696573 12080 net.cpp:150] Setting up conv2/relu_3x3
I0201 12:13:20.696583 12080 net.cpp:157] Top shape: 32 192 56 56 (19267584)
I0201 12:13:20.696588 12080 net.cpp:165] Memory required for data: 481690112
I0201 12:13:20.696595 12080 layer_factory.hpp:77] Creating layer conv2/norm2
I0201 12:13:20.696604 12080 net.cpp:100] Creating Layer conv2/norm2
I0201 12:13:20.696611 12080 net.cpp:434] conv2/norm2 <- conv2/3x3
I0201 12:13:20.696622 12080 net.cpp:408] conv2/norm2 -> conv2/norm2
I0201 12:13:20.696635 12080 net.cpp:150] Setting up conv2/norm2
I0201 12:13:20.696643 12080 net.cpp:157] Top shape: 32 192 56 56 (19267584)
I0201 12:13:20.696650 12080 net.cpp:165] Memory required for data: 558760448
I0201 12:13:20.696656 12080 layer_factory.hpp:77] Creating layer pool2/3x3_s2
I0201 12:13:20.696666 12080 net.cpp:100] Creating Layer pool2/3x3_s2
I0201 12:13:20.696672 12080 net.cpp:434] pool2/3x3_s2 <- conv2/norm2
I0201 12:13:20.696683 12080 net.cpp:408] pool2/3x3_s2 -> pool2/3x3_s2
I0201 12:13:20.696696 12080 net.cpp:150] Setting up pool2/3x3_s2
I0201 12:13:20.696704 12080 net.cpp:157] Top shape: 32 192 28 28 (4816896)
I0201 12:13:20.696710 12080 net.cpp:165] Memory required for data: 578028032
I0201 12:13:20.696717 12080 layer_factory.hpp:77] Creating layer pool2/3x3_s2_pool2/3x3_s2_0_split
I0201 12:13:20.696727 12080 net.cpp:100] Creating Layer pool2/3x3_s2_pool2/3x3_s2_0_split
I0201 12:13:20.696734 12080 net.cpp:434] pool2/3x3_s2_pool2/3x3_s2_0_split <- pool2/3x3_s2
I0201 12:13:20.696743 12080 net.cpp:408] pool2/3x3_s2_pool2/3x3_s2_0_split -> pool2/3x3_s2_pool2/3x3_s2_0_split_0
I0201 12:13:20.696753 12080 net.cpp:408] pool2/3x3_s2_pool2/3x3_s2_0_split -> pool2/3x3_s2_pool2/3x3_s2_0_split_1
I0201 12:13:20.696763 12080 net.cpp:408] pool2/3x3_s2_pool2/3x3_s2_0_split -> pool2/3x3_s2_pool2/3x3_s2_0_split_2
I0201 12:13:20.696774 12080 net.cpp:408] pool2/3x3_s2_pool2/3x3_s2_0_split -> pool2/3x3_s2_pool2/3x3_s2_0_split_3
I0201 12:13:20.696786 12080 net.cpp:150] Setting up pool2/3x3_s2_pool2/3x3_s2_0_split
I0201 12:13:20.696795 12080 net.cpp:157] Top shape: 32 192 28 28 (4816896)
I0201 12:13:20.696804 12080 net.cpp:157] Top shape: 32 192 28 28 (4816896)
I0201 12:13:20.696810 12080 net.cpp:157] Top shape: 32 192 28 28 (4816896)
I0201 12:13:20.696818 12080 net.cpp:157] Top shape: 32 192 28 28 (4816896)
I0201 12:13:20.696825 12080 net.cpp:165] Memory required for data: 655098368
I0201 12:13:20.696831 12080 layer_factory.hpp:77] Creating layer inception_3a/1x1
I0201 12:13:20.696843 12080 net.cpp:100] Creating Layer inception_3a/1x1
I0201 12:13:20.696851 12080 net.cpp:434] inception_3a/1x1 <- pool2/3x3_s2_pool2/3x3_s2_0_split_0
I0201 12:13:20.696862 12080 net.cpp:408] inception_3a/1x1 -> inception_3a/1x1
I0201 12:13:20.696997 12080 net.cpp:150] Setting up inception_3a/1x1
I0201 12:13:20.697010 12080 net.cpp:157] Top shape: 32 64 28 28 (1605632)
I0201 12:13:20.697017 12080 net.cpp:165] Memory required for data: 661520896
I0201 12:13:20.697027 12080 layer_factory.hpp:77] Creating layer inception_3a/relu_1x1
I0201 12:13:20.697036 12080 net.cpp:100] Creating Layer inception_3a/relu_1x1
I0201 12:13:20.697044 12080 net.cpp:434] inception_3a/relu_1x1 <- inception_3a/1x1
I0201 12:13:20.697059 12080 net.cpp:395] inception_3a/relu_1x1 -> inception_3a/1x1 (in-place)
I0201 12:13:20.697069 12080 net.cpp:150] Setting up inception_3a/relu_1x1
I0201 12:13:20.697078 12080 net.cpp:157] Top shape: 32 64 28 28 (1605632)
I0201 12:13:20.697084 12080 net.cpp:165] Memory required for data: 667943424
I0201 12:13:20.697091 12080 layer_factory.hpp:77] Creating layer inception_3a/3x3_reduce
I0201 12:13:20.697105 12080 net.cpp:100] Creating Layer inception_3a/3x3_reduce
I0201 12:13:20.697113 12080 net.cpp:434] inception_3a/3x3_reduce <- pool2/3x3_s2_pool2/3x3_s2_0_split_1
I0201 12:13:20.697123 12080 net.cpp:408] inception_3a/3x3_reduce -> inception_3a/3x3_reduce
I0201 12:13:20.697314 12080 net.cpp:150] Setting up inception_3a/3x3_reduce
I0201 12:13:20.697332 12080 net.cpp:157] Top shape: 32 96 28 28 (2408448)
I0201 12:13:20.697347 12080 net.cpp:165] Memory required for data: 677577216
I0201 12:13:20.697360 12080 layer_factory.hpp:77] Creating layer inception_3a/relu_3x3_reduce
I0201 12:13:20.697376 12080 net.cpp:100] Creating Layer inception_3a/relu_3x3_reduce
I0201 12:13:20.697383 12080 net.cpp:434] inception_3a/relu_3x3_reduce <- inception_3a/3x3_reduce
I0201 12:13:20.697393 12080 net.cpp:395] inception_3a/relu_3x3_reduce -> inception_3a/3x3_reduce (in-place)
I0201 12:13:20.697403 12080 net.cpp:150] Setting up inception_3a/relu_3x3_reduce
I0201 12:13:20.697412 12080 net.cpp:157] Top shape: 32 96 28 28 (2408448)
I0201 12:13:20.697418 12080 net.cpp:165] Memory required for data: 687211008
I0201 12:13:20.697424 12080 layer_factory.hpp:77] Creating layer inception_3a/3x3
I0201 12:13:20.697438 12080 net.cpp:100] Creating Layer inception_3a/3x3
I0201 12:13:20.697445 12080 net.cpp:434] inception_3a/3x3 <- inception_3a/3x3_reduce
I0201 12:13:20.697454 12080 net.cpp:408] inception_3a/3x3 -> inception_3a/3x3
I0201 12:13:20.698483 12080 net.cpp:150] Setting up inception_3a/3x3
I0201 12:13:20.698505 12080 net.cpp:157] Top shape: 32 128 28 28 (3211264)
I0201 12:13:20.698513 12080 net.cpp:165] Memory required for data: 700056064
I0201 12:13:20.698523 12080 layer_factory.hpp:77] Creating layer inception_3a/relu_3x3
I0201 12:13:20.698532 12080 net.cpp:100] Creating Layer inception_3a/relu_3x3
I0201 12:13:20.698540 12080 net.cpp:434] inception_3a/relu_3x3 <- inception_3a/3x3
I0201 12:13:20.698549 12080 net.cpp:395] inception_3a/relu_3x3 -> inception_3a/3x3 (in-place)
I0201 12:13:20.698560 12080 net.cpp:150] Setting up inception_3a/relu_3x3
I0201 12:13:20.698568 12080 net.cpp:157] Top shape: 32 128 28 28 (3211264)
I0201 12:13:20.698575 12080 net.cpp:165] Memory required for data: 712901120
I0201 12:13:20.698581 12080 layer_factory.hpp:77] Creating layer inception_3a/5x5_reduce
I0201 12:13:20.698597 12080 net.cpp:100] Creating Layer inception_3a/5x5_reduce
I0201 12:13:20.698606 12080 net.cpp:434] inception_3a/5x5_reduce <- pool2/3x3_s2_pool2/3x3_s2_0_split_2
I0201 12:13:20.698614 12080 net.cpp:408] inception_3a/5x5_reduce -> inception_3a/5x5_reduce
I0201 12:13:20.698663 12080 net.cpp:150] Setting up inception_3a/5x5_reduce
I0201 12:13:20.698674 12080 net.cpp:157] Top shape: 32 16 28 28 (401408)
I0201 12:13:20.698680 12080 net.cpp:165] Memory required for data: 714506752
I0201 12:13:20.698690 12080 layer_factory.hpp:77] Creating layer inception_3a/relu_5x5_reduce
I0201 12:13:20.698701 12080 net.cpp:100] Creating Layer inception_3a/relu_5x5_reduce
I0201 12:13:20.698709 12080 net.cpp:434] inception_3a/relu_5x5_reduce <- inception_3a/5x5_reduce
I0201 12:13:20.698717 12080 net.cpp:395] inception_3a/relu_5x5_reduce -> inception_3a/5x5_reduce (in-place)
I0201 12:13:20.698726 12080 net.cpp:150] Setting up inception_3a/relu_5x5_reduce
I0201 12:13:20.698734 12080 net.cpp:157] Top shape: 32 16 28 28 (401408)
I0201 12:13:20.698741 12080 net.cpp:165] Memory required for data: 716112384
I0201 12:13:20.698747 12080 layer_factory.hpp:77] Creating layer inception_3a/5x5
I0201 12:13:20.698760 12080 net.cpp:100] Creating Layer inception_3a/5x5
I0201 12:13:20.698767 12080 net.cpp:434] inception_3a/5x5 <- inception_3a/5x5_reduce
I0201 12:13:20.698777 12080 net.cpp:408] inception_3a/5x5 -> inception_3a/5x5
I0201 12:13:20.698946 12080 net.cpp:150] Setting up inception_3a/5x5
I0201 12:13:20.698959 12080 net.cpp:157] Top shape: 32 32 28 28 (802816)
I0201 12:13:20.698966 12080 net.cpp:165] Memory required for data: 719323648
I0201 12:13:20.698976 12080 layer_factory.hpp:77] Creating layer inception_3a/relu_5x5
I0201 12:13:20.698987 12080 net.cpp:100] Creating Layer inception_3a/relu_5x5
I0201 12:13:20.698993 12080 net.cpp:434] inception_3a/relu_5x5 <- inception_3a/5x5
I0201 12:13:20.699002 12080 net.cpp:395] inception_3a/relu_5x5 -> inception_3a/5x5 (in-place)
I0201 12:13:20.699012 12080 net.cpp:150] Setting up inception_3a/relu_5x5
I0201 12:13:20.699019 12080 net.cpp:157] Top shape: 32 32 28 28 (802816)
I0201 12:13:20.699033 12080 net.cpp:165] Memory required for data: 722534912
I0201 12:13:20.699049 12080 layer_factory.hpp:77] Creating layer inception_3a/pool
I0201 12:13:20.699062 12080 net.cpp:100] Creating Layer inception_3a/pool
I0201 12:13:20.699069 12080 net.cpp:434] inception_3a/pool <- pool2/3x3_s2_pool2/3x3_s2_0_split_3
I0201 12:13:20.699081 12080 net.cpp:408] inception_3a/pool -> inception_3a/pool
I0201 12:13:20.699095 12080 net.cpp:150] Setting up inception_3a/pool
I0201 12:13:20.699103 12080 net.cpp:157] Top shape: 32 192 28 28 (4816896)
I0201 12:13:20.699110 12080 net.cpp:165] Memory required for data: 741802496
I0201 12:13:20.699116 12080 layer_factory.hpp:77] Creating layer inception_3a/pool_proj
I0201 12:13:20.699136 12080 net.cpp:100] Creating Layer inception_3a/pool_proj
I0201 12:13:20.699143 12080 net.cpp:434] inception_3a/pool_proj <- inception_3a/pool
I0201 12:13:20.699152 12080 net.cpp:408] inception_3a/pool_proj -> inception_3a/pool_proj
I0201 12:13:20.699235 12080 net.cpp:150] Setting up inception_3a/pool_proj
I0201 12:13:20.699246 12080 net.cpp:157] Top shape: 32 32 28 28 (802816)
I0201 12:13:20.699262 12080 net.cpp:165] Memory required for data: 745013760
I0201 12:13:20.699280 12080 layer_factory.hpp:77] Creating layer inception_3a/relu_pool_proj
I0201 12:13:20.699290 12080 net.cpp:100] Creating Layer inception_3a/relu_pool_proj
I0201 12:13:20.699301 12080 net.cpp:434] inception_3a/relu_pool_proj <- inception_3a/pool_proj
I0201 12:13:20.699311 12080 net.cpp:395] inception_3a/relu_pool_proj -> inception_3a/pool_proj (in-place)
I0201 12:13:20.699321 12080 net.cpp:150] Setting up inception_3a/relu_pool_proj
I0201 12:13:20.699329 12080 net.cpp:157] Top shape: 32 32 28 28 (802816)
I0201 12:13:20.699336 12080 net.cpp:165] Memory required for data: 748225024
I0201 12:13:20.699342 12080 layer_factory.hpp:77] Creating layer inception_3a/output
I0201 12:13:20.699354 12080 net.cpp:100] Creating Layer inception_3a/output
I0201 12:13:20.699362 12080 net.cpp:434] inception_3a/output <- inception_3a/1x1
I0201 12:13:20.699369 12080 net.cpp:434] inception_3a/output <- inception_3a/3x3
I0201 12:13:20.699376 12080 net.cpp:434] inception_3a/output <- inception_3a/5x5
I0201 12:13:20.699384 12080 net.cpp:434] inception_3a/output <- inception_3a/pool_proj
I0201 12:13:20.699393 12080 net.cpp:408] inception_3a/output -> inception_3a/output
I0201 12:13:20.699409 12080 net.cpp:150] Setting up inception_3a/output
I0201 12:13:20.699417 12080 net.cpp:157] Top shape: 32 256 28 28 (6422528)
I0201 12:13:20.699424 12080 net.cpp:165] Memory required for data: 773915136
I0201 12:13:20.699430 12080 layer_factory.hpp:77] Creating layer inception_3a/output_inception_3a/output_0_split
I0201 12:13:20.699443 12080 net.cpp:100] Creating Layer inception_3a/output_inception_3a/output_0_split
I0201 12:13:20.699451 12080 net.cpp:434] inception_3a/output_inception_3a/output_0_split <- inception_3a/output
I0201 12:13:20.699463 12080 net.cpp:408] inception_3a/output_inception_3a/output_0_split -> inception_3a/output_inception_3a/output_0_split_0
I0201 12:13:20.699475 12080 net.cpp:408] inception_3a/output_inception_3a/output_0_split -> inception_3a/output_inception_3a/output_0_split_1
I0201 12:13:20.699484 12080 net.cpp:408] inception_3a/output_inception_3a/output_0_split -> inception_3a/output_inception_3a/output_0_split_2
I0201 12:13:20.699494 12080 net.cpp:408] inception_3a/output_inception_3a/output_0_split -> inception_3a/output_inception_3a/output_0_split_3
I0201 12:13:20.699506 12080 net.cpp:150] Setting up inception_3a/output_inception_3a/output_0_split
I0201 12:13:20.699515 12080 net.cpp:157] Top shape: 32 256 28 28 (6422528)
I0201 12:13:20.699522 12080 net.cpp:157] Top shape: 32 256 28 28 (6422528)
I0201 12:13:20.699530 12080 net.cpp:157] Top shape: 32 256 28 28 (6422528)
I0201 12:13:20.699537 12080 net.cpp:157] Top shape: 32 256 28 28 (6422528)
I0201 12:13:20.699544 12080 net.cpp:165] Memory required for data: 876675584
I0201 12:13:20.699550 12080 layer_factory.hpp:77] Creating layer inception_3b/1x1
I0201 12:13:20.699573 12080 net.cpp:100] Creating Layer inception_3b/1x1
I0201 12:13:20.699589 12080 net.cpp:434] inception_3b/1x1 <- inception_3a/output_inception_3a/output_0_split_0
I0201 12:13:20.699602 12080 net.cpp:408] inception_3b/1x1 -> inception_3b/1x1
I0201 12:13:20.699967 12080 net.cpp:150] Setting up inception_3b/1x1
I0201 12:13:20.699981 12080 net.cpp:157] Top shape: 32 128 28 28 (3211264)
I0201 12:13:20.699987 12080 net.cpp:165] Memory required for data: 889520640
I0201 12:13:20.699997 12080 layer_factory.hpp:77] Creating layer inception_3b/relu_1x1
I0201 12:13:20.700012 12080 net.cpp:100] Creating Layer inception_3b/relu_1x1
I0201 12:13:20.700021 12080 net.cpp:434] inception_3b/relu_1x1 <- inception_3b/1x1
I0201 12:13:20.700031 12080 net.cpp:395] inception_3b/relu_1x1 -> inception_3b/1x1 (in-place)
I0201 12:13:20.700040 12080 net.cpp:150] Setting up inception_3b/relu_1x1
I0201 12:13:20.700048 12080 net.cpp:157] Top shape: 32 128 28 28 (3211264)
I0201 12:13:20.700055 12080 net.cpp:165] Memory required for data: 902365696
I0201 12:13:20.700062 12080 layer_factory.hpp:77] Creating layer inception_3b/3x3_reduce
I0201 12:13:20.700075 12080 net.cpp:100] Creating Layer inception_3b/3x3_reduce
I0201 12:13:20.700083 12080 net.cpp:434] inception_3b/3x3_reduce <- inception_3a/output_inception_3a/output_0_split_1
I0201 12:13:20.700096 12080 net.cpp:408] inception_3b/3x3_reduce -> inception_3b/3x3_reduce
I0201 12:13:20.700426 12080 net.cpp:150] Setting up inception_3b/3x3_reduce
I0201 12:13:20.700441 12080 net.cpp:157] Top shape: 32 128 28 28 (3211264)
I0201 12:13:20.700448 12080 net.cpp:165] Memory required for data: 915210752
I0201 12:13:20.700459 12080 layer_factory.hpp:77] Creating layer inception_3b/relu_3x3_reduce
I0201 12:13:20.700467 12080 net.cpp:100] Creating Layer inception_3b/relu_3x3_reduce
I0201 12:13:20.700475 12080 net.cpp:434] inception_3b/relu_3x3_reduce <- inception_3b/3x3_reduce
I0201 12:13:20.700486 12080 net.cpp:395] inception_3b/relu_3x3_reduce -> inception_3b/3x3_reduce (in-place)
I0201 12:13:20.700496 12080 net.cpp:150] Setting up inception_3b/relu_3x3_reduce
I0201 12:13:20.700505 12080 net.cpp:157] Top shape: 32 128 28 28 (3211264)
I0201 12:13:20.700511 12080 net.cpp:165] Memory required for data: 928055808
I0201 12:13:20.700518 12080 layer_factory.hpp:77] Creating layer inception_3b/3x3
I0201 12:13:20.700533 12080 net.cpp:100] Creating Layer inception_3b/3x3
I0201 12:13:20.700541 12080 net.cpp:434] inception_3b/3x3 <- inception_3b/3x3_reduce
I0201 12:13:20.700553 12080 net.cpp:408] inception_3b/3x3 -> inception_3b/3x3
I0201 12:13:20.702534 12080 net.cpp:150] Setting up inception_3b/3x3
I0201 12:13:20.702554 12080 net.cpp:157] Top shape: 32 192 28 28 (4816896)
I0201 12:13:20.702560 12080 net.cpp:165] Memory required for data: 947323392
I0201 12:13:20.702571 12080 layer_factory.hpp:77] Creating layer inception_3b/relu_3x3
I0201 12:13:20.702584 12080 net.cpp:100] Creating Layer inception_3b/relu_3x3
I0201 12:13:20.702591 12080 net.cpp:434] inception_3b/relu_3x3 <- inception_3b/3x3
I0201 12:13:20.702600 12080 net.cpp:395] inception_3b/relu_3x3 -> inception_3b/3x3 (in-place)
I0201 12:13:20.702612 12080 net.cpp:150] Setting up inception_3b/relu_3x3
I0201 12:13:20.702620 12080 net.cpp:157] Top shape: 32 192 28 28 (4816896)
I0201 12:13:20.702626 12080 net.cpp:165] Memory required for data: 966590976
I0201 12:13:20.702633 12080 layer_factory.hpp:77] Creating layer inception_3b/5x5_reduce
I0201 12:13:20.702647 12080 net.cpp:100] Creating Layer inception_3b/5x5_reduce
I0201 12:13:20.702656 12080 net.cpp:434] inception_3b/5x5_reduce <- inception_3a/output_inception_3a/output_0_split_2
I0201 12:13:20.702666 12080 net.cpp:408] inception_3b/5x5_reduce -> inception_3b/5x5_reduce
I0201 12:13:20.702759 12080 net.cpp:150] Setting up inception_3b/5x5_reduce
I0201 12:13:20.702770 12080 net.cpp:157] Top shape: 32 32 28 28 (802816)
I0201 12:13:20.702777 12080 net.cpp:165] Memory required for data: 969802240
I0201 12:13:20.702786 12080 layer_factory.hpp:77] Creating layer inception_3b/relu_5x5_reduce
I0201 12:13:20.702800 12080 net.cpp:100] Creating Layer inception_3b/relu_5x5_reduce
I0201 12:13:20.702826 12080 net.cpp:434] inception_3b/relu_5x5_reduce <- inception_3b/5x5_reduce
I0201 12:13:20.702834 12080 net.cpp:395] inception_3b/relu_5x5_reduce -> inception_3b/5x5_reduce (in-place)
I0201 12:13:20.702847 12080 net.cpp:150] Setting up inception_3b/relu_5x5_reduce
I0201 12:13:20.702855 12080 net.cpp:157] Top shape: 32 32 28 28 (802816)
I0201 12:13:20.702862 12080 net.cpp:165] Memory required for data: 973013504
I0201 12:13:20.702869 12080 layer_factory.hpp:77] Creating layer inception_3b/5x5
I0201 12:13:20.702879 12080 net.cpp:100] Creating Layer inception_3b/5x5
I0201 12:13:20.702888 12080 net.cpp:434] inception_3b/5x5 <- inception_3b/5x5_reduce
I0201 12:13:20.702898 12080 net.cpp:408] inception_3b/5x5 -> inception_3b/5x5
I0201 12:13:20.703622 12080 net.cpp:150] Setting up inception_3b/5x5
I0201 12:13:20.703645 12080 net.cpp:157] Top shape: 32 96 28 28 (2408448)
I0201 12:13:20.703652 12080 net.cpp:165] Memory required for data: 982647296
I0201 12:13:20.703662 12080 layer_factory.hpp:77] Creating layer inception_3b/relu_5x5
I0201 12:13:20.703672 12080 net.cpp:100] Creating Layer inception_3b/relu_5x5
I0201 12:13:20.703680 12080 net.cpp:434] inception_3b/relu_5x5 <- inception_3b/5x5
I0201 12:13:20.703691 12080 net.cpp:395] inception_3b/relu_5x5 -> inception_3b/5x5 (in-place)
I0201 12:13:20.703702 12080 net.cpp:150] Setting up inception_3b/relu_5x5
I0201 12:13:20.703711 12080 net.cpp:157] Top shape: 32 96 28 28 (2408448)
I0201 12:13:20.703716 12080 net.cpp:165] Memory required for data: 992281088
I0201 12:13:20.703723 12080 layer_factory.hpp:77] Creating layer inception_3b/pool
I0201 12:13:20.703733 12080 net.cpp:100] Creating Layer inception_3b/pool
I0201 12:13:20.703742 12080 net.cpp:434] inception_3b/pool <- inception_3a/output_inception_3a/output_0_split_3
I0201 12:13:20.703750 12080 net.cpp:408] inception_3b/pool -> inception_3b/pool
I0201 12:13:20.703764 12080 net.cpp:150] Setting up inception_3b/pool
I0201 12:13:20.703773 12080 net.cpp:157] Top shape: 32 256 28 28 (6422528)
I0201 12:13:20.703779 12080 net.cpp:165] Memory required for data: 1017971200
I0201 12:13:20.703785 12080 layer_factory.hpp:77] Creating layer inception_3b/pool_proj
I0201 12:13:20.703800 12080 net.cpp:100] Creating Layer inception_3b/pool_proj
I0201 12:13:20.703809 12080 net.cpp:434] inception_3b/pool_proj <- inception_3b/pool
I0201 12:13:20.703819 12080 net.cpp:408] inception_3b/pool_proj -> inception_3b/pool_proj
I0201 12:13:20.703986 12080 net.cpp:150] Setting up inception_3b/pool_proj
I0201 12:13:20.704001 12080 net.cpp:157] Top shape: 32 64 28 28 (1605632)
I0201 12:13:20.704008 12080 net.cpp:165] Memory required for data: 1024393728
I0201 12:13:20.704017 12080 layer_factory.hpp:77] Creating layer inception_3b/relu_pool_proj
I0201 12:13:20.704027 12080 net.cpp:100] Creating Layer inception_3b/relu_pool_proj
I0201 12:13:20.704035 12080 net.cpp:434] inception_3b/relu_pool_proj <- inception_3b/pool_proj
I0201 12:13:20.704043 12080 net.cpp:395] inception_3b/relu_pool_proj -> inception_3b/pool_proj (in-place)
I0201 12:13:20.704053 12080 net.cpp:150] Setting up inception_3b/relu_pool_proj
I0201 12:13:20.704061 12080 net.cpp:157] Top shape: 32 64 28 28 (1605632)
I0201 12:13:20.704067 12080 net.cpp:165] Memory required for data: 1030816256
I0201 12:13:20.704074 12080 layer_factory.hpp:77] Creating layer inception_3b/output
I0201 12:13:20.704083 12080 net.cpp:100] Creating Layer inception_3b/output
I0201 12:13:20.704090 12080 net.cpp:434] inception_3b/output <- inception_3b/1x1
I0201 12:13:20.704097 12080 net.cpp:434] inception_3b/output <- inception_3b/3x3
I0201 12:13:20.704104 12080 net.cpp:434] inception_3b/output <- inception_3b/5x5
I0201 12:13:20.704113 12080 net.cpp:434] inception_3b/output <- inception_3b/pool_proj
I0201 12:13:20.704123 12080 net.cpp:408] inception_3b/output -> inception_3b/output
I0201 12:13:20.704136 12080 net.cpp:150] Setting up inception_3b/output
I0201 12:13:20.704145 12080 net.cpp:157] Top shape: 32 480 28 28 (12042240)
I0201 12:13:20.704151 12080 net.cpp:165] Memory required for data: 1078985216
I0201 12:13:20.704171 12080 layer_factory.hpp:77] Creating layer pool3/3x3_s2
I0201 12:13:20.704182 12080 net.cpp:100] Creating Layer pool3/3x3_s2
I0201 12:13:20.704192 12080 net.cpp:434] pool3/3x3_s2 <- inception_3b/output
I0201 12:13:20.704201 12080 net.cpp:408] pool3/3x3_s2 -> pool3/3x3_s2
I0201 12:13:20.704213 12080 net.cpp:150] Setting up pool3/3x3_s2
I0201 12:13:20.704221 12080 net.cpp:157] Top shape: 32 480 14 14 (3010560)
I0201 12:13:20.704228 12080 net.cpp:165] Memory required for data: 1091027456
I0201 12:13:20.704236 12080 layer_factory.hpp:77] Creating layer pool3/3x3_s2_pool3/3x3_s2_0_split
I0201 12:13:20.704244 12080 net.cpp:100] Creating Layer pool3/3x3_s2_pool3/3x3_s2_0_split
I0201 12:13:20.704265 12080 net.cpp:434] pool3/3x3_s2_pool3/3x3_s2_0_split <- pool3/3x3_s2
I0201 12:13:20.704277 12080 net.cpp:408] pool3/3x3_s2_pool3/3x3_s2_0_split -> pool3/3x3_s2_pool3/3x3_s2_0_split_0
I0201 12:13:20.704288 12080 net.cpp:408] pool3/3x3_s2_pool3/3x3_s2_0_split -> pool3/3x3_s2_pool3/3x3_s2_0_split_1
I0201 12:13:20.704298 12080 net.cpp:408] pool3/3x3_s2_pool3/3x3_s2_0_split -> pool3/3x3_s2_pool3/3x3_s2_0_split_2
I0201 12:13:20.704310 12080 net.cpp:408] pool3/3x3_s2_pool3/3x3_s2_0_split -> pool3/3x3_s2_pool3/3x3_s2_0_split_3
I0201 12:13:20.704322 12080 net.cpp:150] Setting up pool3/3x3_s2_pool3/3x3_s2_0_split
I0201 12:13:20.704331 12080 net.cpp:157] Top shape: 32 480 14 14 (3010560)
I0201 12:13:20.704339 12080 net.cpp:157] Top shape: 32 480 14 14 (3010560)
I0201 12:13:20.704346 12080 net.cpp:157] Top shape: 32 480 14 14 (3010560)
I0201 12:13:20.704354 12080 net.cpp:157] Top shape: 32 480 14 14 (3010560)
I0201 12:13:20.704360 12080 net.cpp:165] Memory required for data: 1139196416
I0201 12:13:20.704366 12080 layer_factory.hpp:77] Creating layer inception_4a/1x1
I0201 12:13:20.704380 12080 net.cpp:100] Creating Layer inception_4a/1x1
I0201 12:13:20.704387 12080 net.cpp:434] inception_4a/1x1 <- pool3/3x3_s2_pool3/3x3_s2_0_split_0
I0201 12:13:20.704399 12080 net.cpp:408] inception_4a/1x1 -> inception_4a/1x1
I0201 12:13:20.705292 12080 net.cpp:150] Setting up inception_4a/1x1
I0201 12:13:20.705307 12080 net.cpp:157] Top shape: 32 192 14 14 (1204224)
I0201 12:13:20.705314 12080 net.cpp:165] Memory required for data: 1144013312
I0201 12:13:20.705324 12080 layer_factory.hpp:77] Creating layer inception_4a/relu_1x1
I0201 12:13:20.705334 12080 net.cpp:100] Creating Layer inception_4a/relu_1x1
I0201 12:13:20.705341 12080 net.cpp:434] inception_4a/relu_1x1 <- inception_4a/1x1
I0201 12:13:20.705353 12080 net.cpp:395] inception_4a/relu_1x1 -> inception_4a/1x1 (in-place)
I0201 12:13:20.705364 12080 net.cpp:150] Setting up inception_4a/relu_1x1
I0201 12:13:20.705374 12080 net.cpp:157] Top shape: 32 192 14 14 (1204224)
I0201 12:13:20.705379 12080 net.cpp:165] Memory required for data: 1148830208
I0201 12:13:20.705386 12080 layer_factory.hpp:77] Creating layer inception_4a/3x3_reduce
I0201 12:13:20.705401 12080 net.cpp:100] Creating Layer inception_4a/3x3_reduce
I0201 12:13:20.705410 12080 net.cpp:434] inception_4a/3x3_reduce <- pool3/3x3_s2_pool3/3x3_s2_0_split_1
I0201 12:13:20.705418 12080 net.cpp:408] inception_4a/3x3_reduce -> inception_4a/3x3_reduce
I0201 12:13:20.705895 12080 net.cpp:150] Setting up inception_4a/3x3_reduce
I0201 12:13:20.705910 12080 net.cpp:157] Top shape: 32 96 14 14 (602112)
I0201 12:13:20.705917 12080 net.cpp:165] Memory required for data: 1151238656
I0201 12:13:20.705941 12080 layer_factory.hpp:77] Creating layer inception_4a/relu_3x3_reduce
I0201 12:13:20.705952 12080 net.cpp:100] Creating Layer inception_4a/relu_3x3_reduce
I0201 12:13:20.705960 12080 net.cpp:434] inception_4a/relu_3x3_reduce <- inception_4a/3x3_reduce
I0201 12:13:20.705968 12080 net.cpp:395] inception_4a/relu_3x3_reduce -> inception_4a/3x3_reduce (in-place)
I0201 12:13:20.705979 12080 net.cpp:150] Setting up inception_4a/relu_3x3_reduce
I0201 12:13:20.705987 12080 net.cpp:157] Top shape: 32 96 14 14 (602112)
I0201 12:13:20.705993 12080 net.cpp:165] Memory required for data: 1153647104
I0201 12:13:20.706009 12080 layer_factory.hpp:77] Creating layer inception_4a/3x3
I0201 12:13:20.706033 12080 net.cpp:100] Creating Layer inception_4a/3x3
I0201 12:13:20.706043 12080 net.cpp:434] inception_4a/3x3 <- inception_4a/3x3_reduce
I0201 12:13:20.706053 12080 net.cpp:408] inception_4a/3x3 -> inception_4a/3x3
I0201 12:13:20.707677 12080 net.cpp:150] Setting up inception_4a/3x3
I0201 12:13:20.707697 12080 net.cpp:157] Top shape: 32 208 14 14 (1304576)
I0201 12:13:20.707705 12080 net.cpp:165] Memory required for data: 1158865408
I0201 12:13:20.707715 12080 layer_factory.hpp:77] Creating layer inception_4a/relu_3x3
I0201 12:13:20.707726 12080 net.cpp:100] Creating Layer inception_4a/relu_3x3
I0201 12:13:20.707732 12080 net.cpp:434] inception_4a/relu_3x3 <- inception_4a/3x3
I0201 12:13:20.707743 12080 net.cpp:395] inception_4a/relu_3x3 -> inception_4a/3x3 (in-place)
I0201 12:13:20.707754 12080 net.cpp:150] Setting up inception_4a/relu_3x3
I0201 12:13:20.707763 12080 net.cpp:157] Top shape: 32 208 14 14 (1304576)
I0201 12:13:20.707769 12080 net.cpp:165] Memory required for data: 1164083712
I0201 12:13:20.707777 12080 layer_factory.hpp:77] Creating layer inception_4a/5x5_reduce
I0201 12:13:20.707790 12080 net.cpp:100] Creating Layer inception_4a/5x5_reduce
I0201 12:13:20.707798 12080 net.cpp:434] inception_4a/5x5_reduce <- pool3/3x3_s2_pool3/3x3_s2_0_split_2
I0201 12:13:20.707808 12080 net.cpp:408] inception_4a/5x5_reduce -> inception_4a/5x5_reduce
I0201 12:13:20.707895 12080 net.cpp:150] Setting up inception_4a/5x5_reduce
I0201 12:13:20.707906 12080 net.cpp:157] Top shape: 32 16 14 14 (100352)
I0201 12:13:20.707912 12080 net.cpp:165] Memory required for data: 1164485120
I0201 12:13:20.707922 12080 layer_factory.hpp:77] Creating layer inception_4a/relu_5x5_reduce
I0201 12:13:20.707933 12080 net.cpp:100] Creating Layer inception_4a/relu_5x5_reduce
I0201 12:13:20.707942 12080 net.cpp:434] inception_4a/relu_5x5_reduce <- inception_4a/5x5_reduce
I0201 12:13:20.707950 12080 net.cpp:395] inception_4a/relu_5x5_reduce -> inception_4a/5x5_reduce (in-place)
I0201 12:13:20.707959 12080 net.cpp:150] Setting up inception_4a/relu_5x5_reduce
I0201 12:13:20.707968 12080 net.cpp:157] Top shape: 32 16 14 14 (100352)
I0201 12:13:20.707974 12080 net.cpp:165] Memory required for data: 1164886528
I0201 12:13:20.707981 12080 layer_factory.hpp:77] Creating layer inception_4a/5x5
I0201 12:13:20.707994 12080 net.cpp:100] Creating Layer inception_4a/5x5
I0201 12:13:20.708003 12080 net.cpp:434] inception_4a/5x5 <- inception_4a/5x5_reduce
I0201 12:13:20.708014 12080 net.cpp:408] inception_4a/5x5 -> inception_4a/5x5
I0201 12:13:20.708211 12080 net.cpp:150] Setting up inception_4a/5x5
I0201 12:13:20.708225 12080 net.cpp:157] Top shape: 32 48 14 14 (301056)
I0201 12:13:20.708231 12080 net.cpp:165] Memory required for data: 1166090752
I0201 12:13:20.708240 12080 layer_factory.hpp:77] Creating layer inception_4a/relu_5x5
I0201 12:13:20.708262 12080 net.cpp:100] Creating Layer inception_4a/relu_5x5
I0201 12:13:20.708271 12080 net.cpp:434] inception_4a/relu_5x5 <- inception_4a/5x5
I0201 12:13:20.708281 12080 net.cpp:395] inception_4a/relu_5x5 -> inception_4a/5x5 (in-place)
I0201 12:13:20.708290 12080 net.cpp:150] Setting up inception_4a/relu_5x5
I0201 12:13:20.708298 12080 net.cpp:157] Top shape: 32 48 14 14 (301056)
I0201 12:13:20.708305 12080 net.cpp:165] Memory required for data: 1167294976
I0201 12:13:20.708312 12080 layer_factory.hpp:77] Creating layer inception_4a/pool
I0201 12:13:20.708323 12080 net.cpp:100] Creating Layer inception_4a/pool
I0201 12:13:20.708329 12080 net.cpp:434] inception_4a/pool <- pool3/3x3_s2_pool3/3x3_s2_0_split_3
I0201 12:13:20.708340 12080 net.cpp:408] inception_4a/pool -> inception_4a/pool
I0201 12:13:20.708354 12080 net.cpp:150] Setting up inception_4a/pool
I0201 12:13:20.708362 12080 net.cpp:157] Top shape: 32 480 14 14 (3010560)
I0201 12:13:20.708369 12080 net.cpp:165] Memory required for data: 1179337216
I0201 12:13:20.708375 12080 layer_factory.hpp:77] Creating layer inception_4a/pool_proj
I0201 12:13:20.708389 12080 net.cpp:100] Creating Layer inception_4a/pool_proj
I0201 12:13:20.708413 12080 net.cpp:434] inception_4a/pool_proj <- inception_4a/pool
I0201 12:13:20.708425 12080 net.cpp:408] inception_4a/pool_proj -> inception_4a/pool_proj
I0201 12:13:20.708748 12080 net.cpp:150] Setting up inception_4a/pool_proj
I0201 12:13:20.708762 12080 net.cpp:157] Top shape: 32 64 14 14 (401408)
I0201 12:13:20.708770 12080 net.cpp:165] Memory required for data: 1180942848
I0201 12:13:20.708780 12080 layer_factory.hpp:77] Creating layer inception_4a/relu_pool_proj
I0201 12:13:20.708788 12080 net.cpp:100] Creating Layer inception_4a/relu_pool_proj
I0201 12:13:20.708796 12080 net.cpp:434] inception_4a/relu_pool_proj <- inception_4a/pool_proj
I0201 12:13:20.708807 12080 net.cpp:395] inception_4a/relu_pool_proj -> inception_4a/pool_proj (in-place)
I0201 12:13:20.708818 12080 net.cpp:150] Setting up inception_4a/relu_pool_proj
I0201 12:13:20.708827 12080 net.cpp:157] Top shape: 32 64 14 14 (401408)
I0201 12:13:20.708833 12080 net.cpp:165] Memory required for data: 1182548480
I0201 12:13:20.708840 12080 layer_factory.hpp:77] Creating layer inception_4a/output
I0201 12:13:20.708849 12080 net.cpp:100] Creating Layer inception_4a/output
I0201 12:13:20.708856 12080 net.cpp:434] inception_4a/output <- inception_4a/1x1
I0201 12:13:20.708864 12080 net.cpp:434] inception_4a/output <- inception_4a/3x3
I0201 12:13:20.708871 12080 net.cpp:434] inception_4a/output <- inception_4a/5x5
I0201 12:13:20.708879 12080 net.cpp:434] inception_4a/output <- inception_4a/pool_proj
I0201 12:13:20.708889 12080 net.cpp:408] inception_4a/output -> inception_4a/output
I0201 12:13:20.708900 12080 net.cpp:150] Setting up inception_4a/output
I0201 12:13:20.708909 12080 net.cpp:157] Top shape: 32 512 14 14 (3211264)
I0201 12:13:20.708915 12080 net.cpp:165] Memory required for data: 1195393536
I0201 12:13:20.708922 12080 layer_factory.hpp:77] Creating layer inception_4a/output_inception_4a/output_0_split
I0201 12:13:20.708935 12080 net.cpp:100] Creating Layer inception_4a/output_inception_4a/output_0_split
I0201 12:13:20.708943 12080 net.cpp:434] inception_4a/output_inception_4a/output_0_split <- inception_4a/output
I0201 12:13:20.708952 12080 net.cpp:408] inception_4a/output_inception_4a/output_0_split -> inception_4a/output_inception_4a/output_0_split_0
I0201 12:13:20.708982 12080 net.cpp:408] inception_4a/output_inception_4a/output_0_split -> inception_4a/output_inception_4a/output_0_split_1
I0201 12:13:20.708993 12080 net.cpp:408] inception_4a/output_inception_4a/output_0_split -> inception_4a/output_inception_4a/output_0_split_2
I0201 12:13:20.709004 12080 net.cpp:408] inception_4a/output_inception_4a/output_0_split -> inception_4a/output_inception_4a/output_0_split_3
I0201 12:13:20.709014 12080 net.cpp:408] inception_4a/output_inception_4a/output_0_split -> inception_4a/output_inception_4a/output_0_split_4
I0201 12:13:20.709028 12080 net.cpp:150] Setting up inception_4a/output_inception_4a/output_0_split
I0201 12:13:20.709035 12080 net.cpp:157] Top shape: 32 512 14 14 (3211264)
I0201 12:13:20.709043 12080 net.cpp:157] Top shape: 32 512 14 14 (3211264)
I0201 12:13:20.709051 12080 net.cpp:157] Top shape: 32 512 14 14 (3211264)
I0201 12:13:20.709059 12080 net.cpp:157] Top shape: 32 512 14 14 (3211264)
I0201 12:13:20.709066 12080 net.cpp:157] Top shape: 32 512 14 14 (3211264)
I0201 12:13:20.709072 12080 net.cpp:165] Memory required for data: 1259618816
I0201 12:13:20.709079 12080 layer_factory.hpp:77] Creating layer loss1/ave_pool
I0201 12:13:20.709095 12080 net.cpp:100] Creating Layer loss1/ave_pool
I0201 12:13:20.709103 12080 net.cpp:434] loss1/ave_pool <- inception_4a/output_inception_4a/output_0_split_0
I0201 12:13:20.709115 12080 net.cpp:408] loss1/ave_pool -> loss1/ave_pool
I0201 12:13:20.709127 12080 net.cpp:150] Setting up loss1/ave_pool
I0201 12:13:20.709136 12080 net.cpp:157] Top shape: 32 512 4 4 (262144)
I0201 12:13:20.709142 12080 net.cpp:165] Memory required for data: 1260667392
I0201 12:13:20.709149 12080 layer_factory.hpp:77] Creating layer loss1/conv
I0201 12:13:20.709161 12080 net.cpp:100] Creating Layer loss1/conv
I0201 12:13:20.709182 12080 net.cpp:434] loss1/conv <- loss1/ave_pool
I0201 12:13:20.709195 12080 net.cpp:408] loss1/conv -> loss1/conv
I0201 12:13:20.709802 12080 net.cpp:150] Setting up loss1/conv
I0201 12:13:20.709818 12080 net.cpp:157] Top shape: 32 128 4 4 (65536)
I0201 12:13:20.709825 12080 net.cpp:165] Memory required for data: 1260929536
I0201 12:13:20.709834 12080 layer_factory.hpp:77] Creating layer loss1/relu_conv
I0201 12:13:20.709844 12080 net.cpp:100] Creating Layer loss1/relu_conv
I0201 12:13:20.709851 12080 net.cpp:434] loss1/relu_conv <- loss1/conv
I0201 12:13:20.709862 12080 net.cpp:395] loss1/relu_conv -> loss1/conv (in-place)
I0201 12:13:20.709873 12080 net.cpp:150] Setting up loss1/relu_conv
I0201 12:13:20.709882 12080 net.cpp:157] Top shape: 32 128 4 4 (65536)
I0201 12:13:20.709888 12080 net.cpp:165] Memory required for data: 1261191680
I0201 12:13:20.709894 12080 layer_factory.hpp:77] Creating layer loss1/fc
I0201 12:13:20.709913 12080 net.cpp:100] Creating Layer loss1/fc
I0201 12:13:20.709920 12080 net.cpp:434] loss1/fc <- loss1/conv
I0201 12:13:20.709933 12080 net.cpp:408] loss1/fc -> loss1/fc
I0201 12:13:20.727921 12080 net.cpp:150] Setting up loss1/fc
I0201 12:13:20.728010 12080 net.cpp:157] Top shape: 32 1024 (32768)
I0201 12:13:20.728018 12080 net.cpp:165] Memory required for data: 1261322752
I0201 12:13:20.728035 12080 layer_factory.hpp:77] Creating layer loss1/relu_fc
I0201 12:13:20.728060 12080 net.cpp:100] Creating Layer loss1/relu_fc
I0201 12:13:20.728072 12080 net.cpp:434] loss1/relu_fc <- loss1/fc
I0201 12:13:20.728091 12080 net.cpp:395] loss1/relu_fc -> loss1/fc (in-place)
I0201 12:13:20.728113 12080 net.cpp:150] Setting up loss1/relu_fc
I0201 12:13:20.728121 12080 net.cpp:157] Top shape: 32 1024 (32768)
I0201 12:13:20.728128 12080 net.cpp:165] Memory required for data: 1261453824
I0201 12:13:20.728135 12080 layer_factory.hpp:77] Creating layer loss1/drop_fc
I0201 12:13:20.728175 12080 net.cpp:100] Creating Layer loss1/drop_fc
I0201 12:13:20.728183 12080 net.cpp:434] loss1/drop_fc <- loss1/fc
I0201 12:13:20.728193 12080 net.cpp:395] loss1/drop_fc -> loss1/fc (in-place)
I0201 12:13:20.728219 12080 net.cpp:150] Setting up loss1/drop_fc
I0201 12:13:20.728229 12080 net.cpp:157] Top shape: 32 1024 (32768)
I0201 12:13:20.728235 12080 net.cpp:165] Memory required for data: 1261584896
I0201 12:13:20.728242 12080 layer_factory.hpp:77] Creating layer loss1/classifier
I0201 12:13:20.728266 12080 net.cpp:100] Creating Layer loss1/classifier
I0201 12:13:20.728273 12080 net.cpp:434] loss1/classifier <- loss1/fc
I0201 12:13:20.728288 12080 net.cpp:408] loss1/classifier -> loss1/classifier
I0201 12:13:20.737627 12080 net.cpp:150] Setting up loss1/classifier
I0201 12:13:20.737699 12080 net.cpp:157] Top shape: 32 1000 (32000)
I0201 12:13:20.737706 12080 net.cpp:165] Memory required for data: 1261712896
I0201 12:13:20.737723 12080 layer_factory.hpp:77] Creating layer loss1/loss
I0201 12:13:20.737748 12080 net.cpp:100] Creating Layer loss1/loss
I0201 12:13:20.737757 12080 net.cpp:434] loss1/loss <- loss1/classifier
I0201 12:13:20.737772 12080 net.cpp:434] loss1/loss <- label_data_1_split_0
I0201 12:13:20.737784 12080 net.cpp:408] loss1/loss -> loss1/loss1
I0201 12:13:20.737823 12080 layer_factory.hpp:77] Creating layer loss1/loss
I0201 12:13:20.737932 12080 net.cpp:150] Setting up loss1/loss
I0201 12:13:20.737947 12080 net.cpp:157] Top shape: (1)
I0201 12:13:20.737954 12080 net.cpp:160]     with loss weight 0.3
I0201 12:13:20.738026 12080 net.cpp:165] Memory required for data: 1261712900
I0201 12:13:20.738034 12080 layer_factory.hpp:77] Creating layer inception_4b/1x1
I0201 12:13:20.738055 12080 net.cpp:100] Creating Layer inception_4b/1x1
I0201 12:13:20.738065 12080 net.cpp:434] inception_4b/1x1 <- inception_4a/output_inception_4a/output_0_split_1
I0201 12:13:20.738076 12080 net.cpp:408] inception_4b/1x1 -> inception_4b/1x1
I0201 12:13:20.738848 12080 net.cpp:150] Setting up inception_4b/1x1
I0201 12:13:20.738864 12080 net.cpp:157] Top shape: 32 160 14 14 (1003520)
I0201 12:13:20.738893 12080 net.cpp:165] Memory required for data: 1265726980
I0201 12:13:20.738921 12080 layer_factory.hpp:77] Creating layer inception_4b/relu_1x1
I0201 12:13:20.738932 12080 net.cpp:100] Creating Layer inception_4b/relu_1x1
I0201 12:13:20.738940 12080 net.cpp:434] inception_4b/relu_1x1 <- inception_4b/1x1
I0201 12:13:20.738948 12080 net.cpp:395] inception_4b/relu_1x1 -> inception_4b/1x1 (in-place)
I0201 12:13:20.738960 12080 net.cpp:150] Setting up inception_4b/relu_1x1
I0201 12:13:20.738968 12080 net.cpp:157] Top shape: 32 160 14 14 (1003520)
I0201 12:13:20.738975 12080 net.cpp:165] Memory required for data: 1269741060
I0201 12:13:20.738981 12080 layer_factory.hpp:77] Creating layer inception_4b/3x3_reduce
I0201 12:13:20.738996 12080 net.cpp:100] Creating Layer inception_4b/3x3_reduce
I0201 12:13:20.739004 12080 net.cpp:434] inception_4b/3x3_reduce <- inception_4a/output_inception_4a/output_0_split_2
I0201 12:13:20.739017 12080 net.cpp:408] inception_4b/3x3_reduce -> inception_4b/3x3_reduce
I0201 12:13:20.739544 12080 net.cpp:150] Setting up inception_4b/3x3_reduce
I0201 12:13:20.739558 12080 net.cpp:157] Top shape: 32 112 14 14 (702464)
I0201 12:13:20.739565 12080 net.cpp:165] Memory required for data: 1272550916
I0201 12:13:20.739574 12080 layer_factory.hpp:77] Creating layer inception_4b/relu_3x3_reduce
I0201 12:13:20.739585 12080 net.cpp:100] Creating Layer inception_4b/relu_3x3_reduce
I0201 12:13:20.739593 12080 net.cpp:434] inception_4b/relu_3x3_reduce <- inception_4b/3x3_reduce
I0201 12:13:20.739604 12080 net.cpp:395] inception_4b/relu_3x3_reduce -> inception_4b/3x3_reduce (in-place)
I0201 12:13:20.739614 12080 net.cpp:150] Setting up inception_4b/relu_3x3_reduce
I0201 12:13:20.739624 12080 net.cpp:157] Top shape: 32 112 14 14 (702464)
I0201 12:13:20.739629 12080 net.cpp:165] Memory required for data: 1275360772
I0201 12:13:20.739636 12080 layer_factory.hpp:77] Creating layer inception_4b/3x3
I0201 12:13:20.739650 12080 net.cpp:100] Creating Layer inception_4b/3x3
I0201 12:13:20.739657 12080 net.cpp:434] inception_4b/3x3 <- inception_4b/3x3_reduce
I0201 12:13:20.739667 12080 net.cpp:408] inception_4b/3x3 -> inception_4b/3x3
I0201 12:13:20.741657 12080 net.cpp:150] Setting up inception_4b/3x3
I0201 12:13:20.741672 12080 net.cpp:157] Top shape: 32 224 14 14 (1404928)
I0201 12:13:20.741679 12080 net.cpp:165] Memory required for data: 1280980484
I0201 12:13:20.741689 12080 layer_factory.hpp:77] Creating layer inception_4b/relu_3x3
I0201 12:13:20.741698 12080 net.cpp:100] Creating Layer inception_4b/relu_3x3
I0201 12:13:20.741706 12080 net.cpp:434] inception_4b/relu_3x3 <- inception_4b/3x3
I0201 12:13:20.741714 12080 net.cpp:395] inception_4b/relu_3x3 -> inception_4b/3x3 (in-place)
I0201 12:13:20.741724 12080 net.cpp:150] Setting up inception_4b/relu_3x3
I0201 12:13:20.741732 12080 net.cpp:157] Top shape: 32 224 14 14 (1404928)
I0201 12:13:20.741739 12080 net.cpp:165] Memory required for data: 1286600196
I0201 12:13:20.741745 12080 layer_factory.hpp:77] Creating layer inception_4b/5x5_reduce
I0201 12:13:20.741757 12080 net.cpp:100] Creating Layer inception_4b/5x5_reduce
I0201 12:13:20.741765 12080 net.cpp:434] inception_4b/5x5_reduce <- inception_4a/output_inception_4a/output_0_split_3
I0201 12:13:20.741777 12080 net.cpp:408] inception_4b/5x5_reduce -> inception_4b/5x5_reduce
I0201 12:13:20.741904 12080 net.cpp:150] Setting up inception_4b/5x5_reduce
I0201 12:13:20.741915 12080 net.cpp:157] Top shape: 32 24 14 14 (150528)
I0201 12:13:20.741922 12080 net.cpp:165] Memory required for data: 1287202308
I0201 12:13:20.741931 12080 layer_factory.hpp:77] Creating layer inception_4b/relu_5x5_reduce
I0201 12:13:20.741945 12080 net.cpp:100] Creating Layer inception_4b/relu_5x5_reduce
I0201 12:13:20.741952 12080 net.cpp:434] inception_4b/relu_5x5_reduce <- inception_4b/5x5_reduce
I0201 12:13:20.741961 12080 net.cpp:395] inception_4b/relu_5x5_reduce -> inception_4b/5x5_reduce (in-place)
I0201 12:13:20.741971 12080 net.cpp:150] Setting up inception_4b/relu_5x5_reduce
I0201 12:13:20.741979 12080 net.cpp:157] Top shape: 32 24 14 14 (150528)
I0201 12:13:20.741997 12080 net.cpp:165] Memory required for data: 1287804420
I0201 12:13:20.742005 12080 layer_factory.hpp:77] Creating layer inception_4b/5x5
I0201 12:13:20.742018 12080 net.cpp:100] Creating Layer inception_4b/5x5
I0201 12:13:20.742027 12080 net.cpp:434] inception_4b/5x5 <- inception_4b/5x5_reduce
I0201 12:13:20.742038 12080 net.cpp:408] inception_4b/5x5 -> inception_4b/5x5
I0201 12:13:20.742393 12080 net.cpp:150] Setting up inception_4b/5x5
I0201 12:13:20.742408 12080 net.cpp:157] Top shape: 32 64 14 14 (401408)
I0201 12:13:20.742414 12080 net.cpp:165] Memory required for data: 1289410052
I0201 12:13:20.742424 12080 layer_factory.hpp:77] Creating layer inception_4b/relu_5x5
I0201 12:13:20.742436 12080 net.cpp:100] Creating Layer inception_4b/relu_5x5
I0201 12:13:20.742444 12080 net.cpp:434] inception_4b/relu_5x5 <- inception_4b/5x5
I0201 12:13:20.742453 12080 net.cpp:395] inception_4b/relu_5x5 -> inception_4b/5x5 (in-place)
I0201 12:13:20.742463 12080 net.cpp:150] Setting up inception_4b/relu_5x5
I0201 12:13:20.742471 12080 net.cpp:157] Top shape: 32 64 14 14 (401408)
I0201 12:13:20.742477 12080 net.cpp:165] Memory required for data: 1291015684
I0201 12:13:20.742485 12080 layer_factory.hpp:77] Creating layer inception_4b/pool
I0201 12:13:20.742499 12080 net.cpp:100] Creating Layer inception_4b/pool
I0201 12:13:20.742507 12080 net.cpp:434] inception_4b/pool <- inception_4a/output_inception_4a/output_0_split_4
I0201 12:13:20.742516 12080 net.cpp:408] inception_4b/pool -> inception_4b/pool
I0201 12:13:20.742545 12080 net.cpp:150] Setting up inception_4b/pool
I0201 12:13:20.742558 12080 net.cpp:157] Top shape: 32 512 14 14 (3211264)
I0201 12:13:20.742564 12080 net.cpp:165] Memory required for data: 1303860740
I0201 12:13:20.742571 12080 layer_factory.hpp:77] Creating layer inception_4b/pool_proj
I0201 12:13:20.742583 12080 net.cpp:100] Creating Layer inception_4b/pool_proj
I0201 12:13:20.742590 12080 net.cpp:434] inception_4b/pool_proj <- inception_4b/pool
I0201 12:13:20.742602 12080 net.cpp:408] inception_4b/pool_proj -> inception_4b/pool_proj
I0201 12:13:20.742903 12080 net.cpp:150] Setting up inception_4b/pool_proj
I0201 12:13:20.742916 12080 net.cpp:157] Top shape: 32 64 14 14 (401408)
I0201 12:13:20.742923 12080 net.cpp:165] Memory required for data: 1305466372
I0201 12:13:20.742933 12080 layer_factory.hpp:77] Creating layer inception_4b/relu_pool_proj
I0201 12:13:20.742943 12080 net.cpp:100] Creating Layer inception_4b/relu_pool_proj
I0201 12:13:20.742952 12080 net.cpp:434] inception_4b/relu_pool_proj <- inception_4b/pool_proj
I0201 12:13:20.742961 12080 net.cpp:395] inception_4b/relu_pool_proj -> inception_4b/pool_proj (in-place)
I0201 12:13:20.742971 12080 net.cpp:150] Setting up inception_4b/relu_pool_proj
I0201 12:13:20.742980 12080 net.cpp:157] Top shape: 32 64 14 14 (401408)
I0201 12:13:20.742986 12080 net.cpp:165] Memory required for data: 1307072004
I0201 12:13:20.742992 12080 layer_factory.hpp:77] Creating layer inception_4b/output
I0201 12:13:20.743002 12080 net.cpp:100] Creating Layer inception_4b/output
I0201 12:13:20.743010 12080 net.cpp:434] inception_4b/output <- inception_4b/1x1
I0201 12:13:20.743017 12080 net.cpp:434] inception_4b/output <- inception_4b/3x3
I0201 12:13:20.743024 12080 net.cpp:434] inception_4b/output <- inception_4b/5x5
I0201 12:13:20.743032 12080 net.cpp:434] inception_4b/output <- inception_4b/pool_proj
I0201 12:13:20.743043 12080 net.cpp:408] inception_4b/output -> inception_4b/output
I0201 12:13:20.743057 12080 net.cpp:150] Setting up inception_4b/output
I0201 12:13:20.743065 12080 net.cpp:157] Top shape: 32 512 14 14 (3211264)
I0201 12:13:20.743072 12080 net.cpp:165] Memory required for data: 1319917060
I0201 12:13:20.743079 12080 layer_factory.hpp:77] Creating layer inception_4b/output_inception_4b/output_0_split
I0201 12:13:20.743089 12080 net.cpp:100] Creating Layer inception_4b/output_inception_4b/output_0_split
I0201 12:13:20.743096 12080 net.cpp:434] inception_4b/output_inception_4b/output_0_split <- inception_4b/output
I0201 12:13:20.743114 12080 net.cpp:408] inception_4b/output_inception_4b/output_0_split -> inception_4b/output_inception_4b/output_0_split_0
I0201 12:13:20.743136 12080 net.cpp:408] inception_4b/output_inception_4b/output_0_split -> inception_4b/output_inception_4b/output_0_split_1
I0201 12:13:20.743147 12080 net.cpp:408] inception_4b/output_inception_4b/output_0_split -> inception_4b/output_inception_4b/output_0_split_2
I0201 12:13:20.743158 12080 net.cpp:408] inception_4b/output_inception_4b/output_0_split -> inception_4b/output_inception_4b/output_0_split_3
I0201 12:13:20.743170 12080 net.cpp:150] Setting up inception_4b/output_inception_4b/output_0_split
I0201 12:13:20.743180 12080 net.cpp:157] Top shape: 32 512 14 14 (3211264)
I0201 12:13:20.743187 12080 net.cpp:157] Top shape: 32 512 14 14 (3211264)
I0201 12:13:20.743194 12080 net.cpp:157] Top shape: 32 512 14 14 (3211264)
I0201 12:13:20.743202 12080 net.cpp:157] Top shape: 32 512 14 14 (3211264)
I0201 12:13:20.743208 12080 net.cpp:165] Memory required for data: 1371297284
I0201 12:13:20.743216 12080 layer_factory.hpp:77] Creating layer inception_4c/1x1
I0201 12:13:20.743229 12080 net.cpp:100] Creating Layer inception_4c/1x1
I0201 12:13:20.743237 12080 net.cpp:434] inception_4c/1x1 <- inception_4b/output_inception_4b/output_0_split_0
I0201 12:13:20.743257 12080 net.cpp:408] inception_4c/1x1 -> inception_4c/1x1
I0201 12:13:20.743846 12080 net.cpp:150] Setting up inception_4c/1x1
I0201 12:13:20.743860 12080 net.cpp:157] Top shape: 32 128 14 14 (802816)
I0201 12:13:20.743866 12080 net.cpp:165] Memory required for data: 1374508548
I0201 12:13:20.743876 12080 layer_factory.hpp:77] Creating layer inception_4c/relu_1x1
I0201 12:13:20.743885 12080 net.cpp:100] Creating Layer inception_4c/relu_1x1
I0201 12:13:20.743893 12080 net.cpp:434] inception_4c/relu_1x1 <- inception_4c/1x1
I0201 12:13:20.743904 12080 net.cpp:395] inception_4c/relu_1x1 -> inception_4c/1x1 (in-place)
I0201 12:13:20.743914 12080 net.cpp:150] Setting up inception_4c/relu_1x1
I0201 12:13:20.743922 12080 net.cpp:157] Top shape: 32 128 14 14 (802816)
I0201 12:13:20.743929 12080 net.cpp:165] Memory required for data: 1377719812
I0201 12:13:20.743937 12080 layer_factory.hpp:77] Creating layer inception_4c/3x3_reduce
I0201 12:13:20.743949 12080 net.cpp:100] Creating Layer inception_4c/3x3_reduce
I0201 12:13:20.743957 12080 net.cpp:434] inception_4c/3x3_reduce <- inception_4b/output_inception_4b/output_0_split_1
I0201 12:13:20.743968 12080 net.cpp:408] inception_4c/3x3_reduce -> inception_4c/3x3_reduce
I0201 12:13:20.744587 12080 net.cpp:150] Setting up inception_4c/3x3_reduce
I0201 12:13:20.744602 12080 net.cpp:157] Top shape: 32 128 14 14 (802816)
I0201 12:13:20.744608 12080 net.cpp:165] Memory required for data: 1380931076
I0201 12:13:20.744618 12080 layer_factory.hpp:77] Creating layer inception_4c/relu_3x3_reduce
I0201 12:13:20.744628 12080 net.cpp:100] Creating Layer inception_4c/relu_3x3_reduce
I0201 12:13:20.744637 12080 net.cpp:434] inception_4c/relu_3x3_reduce <- inception_4c/3x3_reduce
I0201 12:13:20.744648 12080 net.cpp:395] inception_4c/relu_3x3_reduce -> inception_4c/3x3_reduce (in-place)
I0201 12:13:20.744658 12080 net.cpp:150] Setting up inception_4c/relu_3x3_reduce
I0201 12:13:20.744666 12080 net.cpp:157] Top shape: 32 128 14 14 (802816)
I0201 12:13:20.744673 12080 net.cpp:165] Memory required for data: 1384142340
I0201 12:13:20.744679 12080 layer_factory.hpp:77] Creating layer inception_4c/3x3
I0201 12:13:20.744690 12080 net.cpp:100] Creating Layer inception_4c/3x3
I0201 12:13:20.744699 12080 net.cpp:434] inception_4c/3x3 <- inception_4c/3x3_reduce
I0201 12:13:20.744709 12080 net.cpp:408] inception_4c/3x3 -> inception_4c/3x3
I0201 12:13:20.747290 12080 net.cpp:150] Setting up inception_4c/3x3
I0201 12:13:20.747313 12080 net.cpp:157] Top shape: 32 256 14 14 (1605632)
I0201 12:13:20.747319 12080 net.cpp:165] Memory required for data: 1390564868
I0201 12:13:20.747345 12080 layer_factory.hpp:77] Creating layer inception_4c/relu_3x3
I0201 12:13:20.747356 12080 net.cpp:100] Creating Layer inception_4c/relu_3x3
I0201 12:13:20.747375 12080 net.cpp:434] inception_4c/relu_3x3 <- inception_4c/3x3
I0201 12:13:20.747402 12080 net.cpp:395] inception_4c/relu_3x3 -> inception_4c/3x3 (in-place)
I0201 12:13:20.747414 12080 net.cpp:150] Setting up inception_4c/relu_3x3
I0201 12:13:20.747423 12080 net.cpp:157] Top shape: 32 256 14 14 (1605632)
I0201 12:13:20.747429 12080 net.cpp:165] Memory required for data: 1396987396
I0201 12:13:20.747437 12080 layer_factory.hpp:77] Creating layer inception_4c/5x5_reduce
I0201 12:13:20.747452 12080 net.cpp:100] Creating Layer inception_4c/5x5_reduce
I0201 12:13:20.747459 12080 net.cpp:434] inception_4c/5x5_reduce <- inception_4b/output_inception_4b/output_0_split_2
I0201 12:13:20.747469 12080 net.cpp:408] inception_4c/5x5_reduce -> inception_4c/5x5_reduce
I0201 12:13:20.747591 12080 net.cpp:150] Setting up inception_4c/5x5_reduce
I0201 12:13:20.747601 12080 net.cpp:157] Top shape: 32 24 14 14 (150528)
I0201 12:13:20.747607 12080 net.cpp:165] Memory required for data: 1397589508
I0201 12:13:20.747617 12080 layer_factory.hpp:77] Creating layer inception_4c/relu_5x5_reduce
I0201 12:13:20.747627 12080 net.cpp:100] Creating Layer inception_4c/relu_5x5_reduce
I0201 12:13:20.747634 12080 net.cpp:434] inception_4c/relu_5x5_reduce <- inception_4c/5x5_reduce
I0201 12:13:20.747642 12080 net.cpp:395] inception_4c/relu_5x5_reduce -> inception_4c/5x5_reduce (in-place)
I0201 12:13:20.747651 12080 net.cpp:150] Setting up inception_4c/relu_5x5_reduce
I0201 12:13:20.747660 12080 net.cpp:157] Top shape: 32 24 14 14 (150528)
I0201 12:13:20.747666 12080 net.cpp:165] Memory required for data: 1398191620
I0201 12:13:20.747673 12080 layer_factory.hpp:77] Creating layer inception_4c/5x5
I0201 12:13:20.747686 12080 net.cpp:100] Creating Layer inception_4c/5x5
I0201 12:13:20.747694 12080 net.cpp:434] inception_4c/5x5 <- inception_4c/5x5_reduce
I0201 12:13:20.747706 12080 net.cpp:408] inception_4c/5x5 -> inception_4c/5x5
I0201 12:13:20.748064 12080 net.cpp:150] Setting up inception_4c/5x5
I0201 12:13:20.748076 12080 net.cpp:157] Top shape: 32 64 14 14 (401408)
I0201 12:13:20.748083 12080 net.cpp:165] Memory required for data: 1399797252
I0201 12:13:20.748092 12080 layer_factory.hpp:77] Creating layer inception_4c/relu_5x5
I0201 12:13:20.748101 12080 net.cpp:100] Creating Layer inception_4c/relu_5x5
I0201 12:13:20.748112 12080 net.cpp:434] inception_4c/relu_5x5 <- inception_4c/5x5
I0201 12:13:20.748121 12080 net.cpp:395] inception_4c/relu_5x5 -> inception_4c/5x5 (in-place)
I0201 12:13:20.748131 12080 net.cpp:150] Setting up inception_4c/relu_5x5
I0201 12:13:20.748138 12080 net.cpp:157] Top shape: 32 64 14 14 (401408)
I0201 12:13:20.748144 12080 net.cpp:165] Memory required for data: 1401402884
I0201 12:13:20.748152 12080 layer_factory.hpp:77] Creating layer inception_4c/pool
I0201 12:13:20.748160 12080 net.cpp:100] Creating Layer inception_4c/pool
I0201 12:13:20.748167 12080 net.cpp:434] inception_4c/pool <- inception_4b/output_inception_4b/output_0_split_3
I0201 12:13:20.748179 12080 net.cpp:408] inception_4c/pool -> inception_4c/pool
I0201 12:13:20.748193 12080 net.cpp:150] Setting up inception_4c/pool
I0201 12:13:20.748200 12080 net.cpp:157] Top shape: 32 512 14 14 (3211264)
I0201 12:13:20.748208 12080 net.cpp:165] Memory required for data: 1414247940
I0201 12:13:20.748214 12080 layer_factory.hpp:77] Creating layer inception_4c/pool_proj
I0201 12:13:20.748227 12080 net.cpp:100] Creating Layer inception_4c/pool_proj
I0201 12:13:20.748234 12080 net.cpp:434] inception_4c/pool_proj <- inception_4c/pool
I0201 12:13:20.748257 12080 net.cpp:408] inception_4c/pool_proj -> inception_4c/pool_proj
I0201 12:13:20.748565 12080 net.cpp:150] Setting up inception_4c/pool_proj
I0201 12:13:20.748579 12080 net.cpp:157] Top shape: 32 64 14 14 (401408)
I0201 12:13:20.748585 12080 net.cpp:165] Memory required for data: 1415853572
I0201 12:13:20.748594 12080 layer_factory.hpp:77] Creating layer inception_4c/relu_pool_proj
I0201 12:13:20.748606 12080 net.cpp:100] Creating Layer inception_4c/relu_pool_proj
I0201 12:13:20.748615 12080 net.cpp:434] inception_4c/relu_pool_proj <- inception_4c/pool_proj
I0201 12:13:20.748638 12080 net.cpp:395] inception_4c/relu_pool_proj -> inception_4c/pool_proj (in-place)
I0201 12:13:20.748649 12080 net.cpp:150] Setting up inception_4c/relu_pool_proj
I0201 12:13:20.748657 12080 net.cpp:157] Top shape: 32 64 14 14 (401408)
I0201 12:13:20.748664 12080 net.cpp:165] Memory required for data: 1417459204
I0201 12:13:20.748672 12080 layer_factory.hpp:77] Creating layer inception_4c/output
I0201 12:13:20.748680 12080 net.cpp:100] Creating Layer inception_4c/output
I0201 12:13:20.748687 12080 net.cpp:434] inception_4c/output <- inception_4c/1x1
I0201 12:13:20.748694 12080 net.cpp:434] inception_4c/output <- inception_4c/3x3
I0201 12:13:20.748703 12080 net.cpp:434] inception_4c/output <- inception_4c/5x5
I0201 12:13:20.748709 12080 net.cpp:434] inception_4c/output <- inception_4c/pool_proj
I0201 12:13:20.748718 12080 net.cpp:408] inception_4c/output -> inception_4c/output
I0201 12:13:20.748730 12080 net.cpp:150] Setting up inception_4c/output
I0201 12:13:20.748739 12080 net.cpp:157] Top shape: 32 512 14 14 (3211264)
I0201 12:13:20.748745 12080 net.cpp:165] Memory required for data: 1430304260
I0201 12:13:20.748752 12080 layer_factory.hpp:77] Creating layer inception_4c/output_inception_4c/output_0_split
I0201 12:13:20.748761 12080 net.cpp:100] Creating Layer inception_4c/output_inception_4c/output_0_split
I0201 12:13:20.748769 12080 net.cpp:434] inception_4c/output_inception_4c/output_0_split <- inception_4c/output
I0201 12:13:20.748780 12080 net.cpp:408] inception_4c/output_inception_4c/output_0_split -> inception_4c/output_inception_4c/output_0_split_0
I0201 12:13:20.748791 12080 net.cpp:408] inception_4c/output_inception_4c/output_0_split -> inception_4c/output_inception_4c/output_0_split_1
I0201 12:13:20.748802 12080 net.cpp:408] inception_4c/output_inception_4c/output_0_split -> inception_4c/output_inception_4c/output_0_split_2
I0201 12:13:20.748816 12080 net.cpp:408] inception_4c/output_inception_4c/output_0_split -> inception_4c/output_inception_4c/output_0_split_3
I0201 12:13:20.748826 12080 net.cpp:150] Setting up inception_4c/output_inception_4c/output_0_split
I0201 12:13:20.748836 12080 net.cpp:157] Top shape: 32 512 14 14 (3211264)
I0201 12:13:20.748843 12080 net.cpp:157] Top shape: 32 512 14 14 (3211264)
I0201 12:13:20.748850 12080 net.cpp:157] Top shape: 32 512 14 14 (3211264)
I0201 12:13:20.748857 12080 net.cpp:157] Top shape: 32 512 14 14 (3211264)
I0201 12:13:20.748864 12080 net.cpp:165] Memory required for data: 1481684484
I0201 12:13:20.748870 12080 layer_factory.hpp:77] Creating layer inception_4d/1x1
I0201 12:13:20.748883 12080 net.cpp:100] Creating Layer inception_4d/1x1
I0201 12:13:20.748891 12080 net.cpp:434] inception_4d/1x1 <- inception_4c/output_inception_4c/output_0_split_0
I0201 12:13:20.748903 12080 net.cpp:408] inception_4d/1x1 -> inception_4d/1x1
I0201 12:13:20.749439 12080 net.cpp:150] Setting up inception_4d/1x1
I0201 12:13:20.749454 12080 net.cpp:157] Top shape: 32 112 14 14 (702464)
I0201 12:13:20.749460 12080 net.cpp:165] Memory required for data: 1484494340
I0201 12:13:20.749470 12080 layer_factory.hpp:77] Creating layer inception_4d/relu_1x1
I0201 12:13:20.749480 12080 net.cpp:100] Creating Layer inception_4d/relu_1x1
I0201 12:13:20.749486 12080 net.cpp:434] inception_4d/relu_1x1 <- inception_4d/1x1
I0201 12:13:20.749497 12080 net.cpp:395] inception_4d/relu_1x1 -> inception_4d/1x1 (in-place)
I0201 12:13:20.749508 12080 net.cpp:150] Setting up inception_4d/relu_1x1
I0201 12:13:20.749516 12080 net.cpp:157] Top shape: 32 112 14 14 (702464)
I0201 12:13:20.749523 12080 net.cpp:165] Memory required for data: 1487304196
I0201 12:13:20.749531 12080 layer_factory.hpp:77] Creating layer inception_4d/3x3_reduce
I0201 12:13:20.749543 12080 net.cpp:100] Creating Layer inception_4d/3x3_reduce
I0201 12:13:20.749552 12080 net.cpp:434] inception_4d/3x3_reduce <- inception_4c/output_inception_4c/output_0_split_1
I0201 12:13:20.749562 12080 net.cpp:408] inception_4d/3x3_reduce -> inception_4d/3x3_reduce
I0201 12:13:20.750222 12080 net.cpp:150] Setting up inception_4d/3x3_reduce
I0201 12:13:20.750246 12080 net.cpp:157] Top shape: 32 144 14 14 (903168)
I0201 12:13:20.750258 12080 net.cpp:165] Memory required for data: 1490916868
I0201 12:13:20.750269 12080 layer_factory.hpp:77] Creating layer inception_4d/relu_3x3_reduce
I0201 12:13:20.750282 12080 net.cpp:100] Creating Layer inception_4d/relu_3x3_reduce
I0201 12:13:20.750290 12080 net.cpp:434] inception_4d/relu_3x3_reduce <- inception_4d/3x3_reduce
I0201 12:13:20.750299 12080 net.cpp:395] inception_4d/relu_3x3_reduce -> inception_4d/3x3_reduce (in-place)
I0201 12:13:20.750309 12080 net.cpp:150] Setting up inception_4d/relu_3x3_reduce
I0201 12:13:20.750318 12080 net.cpp:157] Top shape: 32 144 14 14 (903168)
I0201 12:13:20.750324 12080 net.cpp:165] Memory required for data: 1494529540
I0201 12:13:20.750330 12080 layer_factory.hpp:77] Creating layer inception_4d/3x3
I0201 12:13:20.750342 12080 net.cpp:100] Creating Layer inception_4d/3x3
I0201 12:13:20.750349 12080 net.cpp:434] inception_4d/3x3 <- inception_4d/3x3_reduce
I0201 12:13:20.750360 12080 net.cpp:408] inception_4d/3x3 -> inception_4d/3x3
I0201 12:13:20.753800 12080 net.cpp:150] Setting up inception_4d/3x3
I0201 12:13:20.753830 12080 net.cpp:157] Top shape: 32 288 14 14 (1806336)
I0201 12:13:20.753837 12080 net.cpp:165] Memory required for data: 1501754884
I0201 12:13:20.753846 12080 layer_factory.hpp:77] Creating layer inception_4d/relu_3x3
I0201 12:13:20.753864 12080 net.cpp:100] Creating Layer inception_4d/relu_3x3
I0201 12:13:20.753871 12080 net.cpp:434] inception_4d/relu_3x3 <- inception_4d/3x3
I0201 12:13:20.753887 12080 net.cpp:395] inception_4d/relu_3x3 -> inception_4d/3x3 (in-place)
I0201 12:13:20.753898 12080 net.cpp:150] Setting up inception_4d/relu_3x3
I0201 12:13:20.753906 12080 net.cpp:157] Top shape: 32 288 14 14 (1806336)
I0201 12:13:20.753914 12080 net.cpp:165] Memory required for data: 1508980228
I0201 12:13:20.753921 12080 layer_factory.hpp:77] Creating layer inception_4d/5x5_reduce
I0201 12:13:20.753934 12080 net.cpp:100] Creating Layer inception_4d/5x5_reduce
I0201 12:13:20.753942 12080 net.cpp:434] inception_4d/5x5_reduce <- inception_4c/output_inception_4c/output_0_split_2
I0201 12:13:20.753952 12080 net.cpp:408] inception_4d/5x5_reduce -> inception_4d/5x5_reduce
I0201 12:13:20.754107 12080 net.cpp:150] Setting up inception_4d/5x5_reduce
I0201 12:13:20.754118 12080 net.cpp:157] Top shape: 32 32 14 14 (200704)
I0201 12:13:20.754125 12080 net.cpp:165] Memory required for data: 1509783044
I0201 12:13:20.754134 12080 layer_factory.hpp:77] Creating layer inception_4d/relu_5x5_reduce
I0201 12:13:20.754144 12080 net.cpp:100] Creating Layer inception_4d/relu_5x5_reduce
I0201 12:13:20.754151 12080 net.cpp:434] inception_4d/relu_5x5_reduce <- inception_4d/5x5_reduce
I0201 12:13:20.754160 12080 net.cpp:395] inception_4d/relu_5x5_reduce -> inception_4d/5x5_reduce (in-place)
I0201 12:13:20.754169 12080 net.cpp:150] Setting up inception_4d/relu_5x5_reduce
I0201 12:13:20.754179 12080 net.cpp:157] Top shape: 32 32 14 14 (200704)
I0201 12:13:20.754184 12080 net.cpp:165] Memory required for data: 1510585860
I0201 12:13:20.754190 12080 layer_factory.hpp:77] Creating layer inception_4d/5x5
I0201 12:13:20.754207 12080 net.cpp:100] Creating Layer inception_4d/5x5
I0201 12:13:20.754215 12080 net.cpp:434] inception_4d/5x5 <- inception_4d/5x5_reduce
I0201 12:13:20.754226 12080 net.cpp:408] inception_4d/5x5 -> inception_4d/5x5
I0201 12:13:20.754693 12080 net.cpp:150] Setting up inception_4d/5x5
I0201 12:13:20.754708 12080 net.cpp:157] Top shape: 32 64 14 14 (401408)
I0201 12:13:20.754714 12080 net.cpp:165] Memory required for data: 1512191492
I0201 12:13:20.754724 12080 layer_factory.hpp:77] Creating layer inception_4d/relu_5x5
I0201 12:13:20.754732 12080 net.cpp:100] Creating Layer inception_4d/relu_5x5
I0201 12:13:20.754740 12080 net.cpp:434] inception_4d/relu_5x5 <- inception_4d/5x5
I0201 12:13:20.754750 12080 net.cpp:395] inception_4d/relu_5x5 -> inception_4d/5x5 (in-place)
I0201 12:13:20.754761 12080 net.cpp:150] Setting up inception_4d/relu_5x5
I0201 12:13:20.754775 12080 net.cpp:157] Top shape: 32 64 14 14 (401408)
I0201 12:13:20.754789 12080 net.cpp:165] Memory required for data: 1513797124
I0201 12:13:20.754796 12080 layer_factory.hpp:77] Creating layer inception_4d/pool
I0201 12:13:20.754813 12080 net.cpp:100] Creating Layer inception_4d/pool
I0201 12:13:20.754822 12080 net.cpp:434] inception_4d/pool <- inception_4c/output_inception_4c/output_0_split_3
I0201 12:13:20.754832 12080 net.cpp:408] inception_4d/pool -> inception_4d/pool
I0201 12:13:20.754845 12080 net.cpp:150] Setting up inception_4d/pool
I0201 12:13:20.754854 12080 net.cpp:157] Top shape: 32 512 14 14 (3211264)
I0201 12:13:20.754860 12080 net.cpp:165] Memory required for data: 1526642180
I0201 12:13:20.754868 12080 layer_factory.hpp:77] Creating layer inception_4d/pool_proj
I0201 12:13:20.754879 12080 net.cpp:100] Creating Layer inception_4d/pool_proj
I0201 12:13:20.754887 12080 net.cpp:434] inception_4d/pool_proj <- inception_4d/pool
I0201 12:13:20.754899 12080 net.cpp:408] inception_4d/pool_proj -> inception_4d/pool_proj
I0201 12:13:20.755198 12080 net.cpp:150] Setting up inception_4d/pool_proj
I0201 12:13:20.755210 12080 net.cpp:157] Top shape: 32 64 14 14 (401408)
I0201 12:13:20.755218 12080 net.cpp:165] Memory required for data: 1528247812
I0201 12:13:20.755226 12080 layer_factory.hpp:77] Creating layer inception_4d/relu_pool_proj
I0201 12:13:20.755236 12080 net.cpp:100] Creating Layer inception_4d/relu_pool_proj
I0201 12:13:20.755244 12080 net.cpp:434] inception_4d/relu_pool_proj <- inception_4d/pool_proj
I0201 12:13:20.755259 12080 net.cpp:395] inception_4d/relu_pool_proj -> inception_4d/pool_proj (in-place)
I0201 12:13:20.755270 12080 net.cpp:150] Setting up inception_4d/relu_pool_proj
I0201 12:13:20.755278 12080 net.cpp:157] Top shape: 32 64 14 14 (401408)
I0201 12:13:20.755285 12080 net.cpp:165] Memory required for data: 1529853444
I0201 12:13:20.755291 12080 layer_factory.hpp:77] Creating layer inception_4d/output
I0201 12:13:20.755306 12080 net.cpp:100] Creating Layer inception_4d/output
I0201 12:13:20.755314 12080 net.cpp:434] inception_4d/output <- inception_4d/1x1
I0201 12:13:20.755321 12080 net.cpp:434] inception_4d/output <- inception_4d/3x3
I0201 12:13:20.755329 12080 net.cpp:434] inception_4d/output <- inception_4d/5x5
I0201 12:13:20.755343 12080 net.cpp:434] inception_4d/output <- inception_4d/pool_proj
I0201 12:13:20.755352 12080 net.cpp:408] inception_4d/output -> inception_4d/output
I0201 12:13:20.755363 12080 net.cpp:150] Setting up inception_4d/output
I0201 12:13:20.755373 12080 net.cpp:157] Top shape: 32 528 14 14 (3311616)
I0201 12:13:20.755378 12080 net.cpp:165] Memory required for data: 1543099908
I0201 12:13:20.755385 12080 layer_factory.hpp:77] Creating layer inception_4d/output_inception_4d/output_0_split
I0201 12:13:20.755398 12080 net.cpp:100] Creating Layer inception_4d/output_inception_4d/output_0_split
I0201 12:13:20.755406 12080 net.cpp:434] inception_4d/output_inception_4d/output_0_split <- inception_4d/output
I0201 12:13:20.755415 12080 net.cpp:408] inception_4d/output_inception_4d/output_0_split -> inception_4d/output_inception_4d/output_0_split_0
I0201 12:13:20.755425 12080 net.cpp:408] inception_4d/output_inception_4d/output_0_split -> inception_4d/output_inception_4d/output_0_split_1
I0201 12:13:20.755436 12080 net.cpp:408] inception_4d/output_inception_4d/output_0_split -> inception_4d/output_inception_4d/output_0_split_2
I0201 12:13:20.755450 12080 net.cpp:408] inception_4d/output_inception_4d/output_0_split -> inception_4d/output_inception_4d/output_0_split_3
I0201 12:13:20.755460 12080 net.cpp:408] inception_4d/output_inception_4d/output_0_split -> inception_4d/output_inception_4d/output_0_split_4
I0201 12:13:20.755472 12080 net.cpp:150] Setting up inception_4d/output_inception_4d/output_0_split
I0201 12:13:20.755481 12080 net.cpp:157] Top shape: 32 528 14 14 (3311616)
I0201 12:13:20.755488 12080 net.cpp:157] Top shape: 32 528 14 14 (3311616)
I0201 12:13:20.755496 12080 net.cpp:157] Top shape: 32 528 14 14 (3311616)
I0201 12:13:20.755511 12080 net.cpp:157] Top shape: 32 528 14 14 (3311616)
I0201 12:13:20.755527 12080 net.cpp:157] Top shape: 32 528 14 14 (3311616)
I0201 12:13:20.755534 12080 net.cpp:165] Memory required for data: 1609332228
I0201 12:13:20.755542 12080 layer_factory.hpp:77] Creating layer loss2/ave_pool
I0201 12:13:20.755553 12080 net.cpp:100] Creating Layer loss2/ave_pool
I0201 12:13:20.755560 12080 net.cpp:434] loss2/ave_pool <- inception_4d/output_inception_4d/output_0_split_0
I0201 12:13:20.755570 12080 net.cpp:408] loss2/ave_pool -> loss2/ave_pool
I0201 12:13:20.755583 12080 net.cpp:150] Setting up loss2/ave_pool
I0201 12:13:20.755590 12080 net.cpp:157] Top shape: 32 528 4 4 (270336)
I0201 12:13:20.755597 12080 net.cpp:165] Memory required for data: 1610413572
I0201 12:13:20.755604 12080 layer_factory.hpp:77] Creating layer loss2/conv
I0201 12:13:20.755617 12080 net.cpp:100] Creating Layer loss2/conv
I0201 12:13:20.755625 12080 net.cpp:434] loss2/conv <- loss2/ave_pool
I0201 12:13:20.755636 12080 net.cpp:408] loss2/conv -> loss2/conv
I0201 12:13:20.756237 12080 net.cpp:150] Setting up loss2/conv
I0201 12:13:20.756259 12080 net.cpp:157] Top shape: 32 128 4 4 (65536)
I0201 12:13:20.756268 12080 net.cpp:165] Memory required for data: 1610675716
I0201 12:13:20.756278 12080 layer_factory.hpp:77] Creating layer loss2/relu_conv
I0201 12:13:20.756286 12080 net.cpp:100] Creating Layer loss2/relu_conv
I0201 12:13:20.756294 12080 net.cpp:434] loss2/relu_conv <- loss2/conv
I0201 12:13:20.756305 12080 net.cpp:395] loss2/relu_conv -> loss2/conv (in-place)
I0201 12:13:20.756315 12080 net.cpp:150] Setting up loss2/relu_conv
I0201 12:13:20.756323 12080 net.cpp:157] Top shape: 32 128 4 4 (65536)
I0201 12:13:20.756331 12080 net.cpp:165] Memory required for data: 1610937860
I0201 12:13:20.756337 12080 layer_factory.hpp:77] Creating layer loss2/fc
I0201 12:13:20.756355 12080 net.cpp:100] Creating Layer loss2/fc
I0201 12:13:20.756361 12080 net.cpp:434] loss2/fc <- loss2/conv
I0201 12:13:20.756373 12080 net.cpp:408] loss2/fc -> loss2/fc
I0201 12:13:20.773978 12080 net.cpp:150] Setting up loss2/fc
I0201 12:13:20.774003 12080 net.cpp:157] Top shape: 32 1024 (32768)
I0201 12:13:20.774010 12080 net.cpp:165] Memory required for data: 1611068932
I0201 12:13:20.774021 12080 layer_factory.hpp:77] Creating layer loss2/relu_fc
I0201 12:13:20.774035 12080 net.cpp:100] Creating Layer loss2/relu_fc
I0201 12:13:20.774044 12080 net.cpp:434] loss2/relu_fc <- loss2/fc
I0201 12:13:20.774055 12080 net.cpp:395] loss2/relu_fc -> loss2/fc (in-place)
I0201 12:13:20.774067 12080 net.cpp:150] Setting up loss2/relu_fc
I0201 12:13:20.774075 12080 net.cpp:157] Top shape: 32 1024 (32768)
I0201 12:13:20.774081 12080 net.cpp:165] Memory required for data: 1611200004
I0201 12:13:20.774088 12080 layer_factory.hpp:77] Creating layer loss2/drop_fc
I0201 12:13:20.774101 12080 net.cpp:100] Creating Layer loss2/drop_fc
I0201 12:13:20.774107 12080 net.cpp:434] loss2/drop_fc <- loss2/fc
I0201 12:13:20.774116 12080 net.cpp:395] loss2/drop_fc -> loss2/fc (in-place)
I0201 12:13:20.774128 12080 net.cpp:150] Setting up loss2/drop_fc
I0201 12:13:20.774137 12080 net.cpp:157] Top shape: 32 1024 (32768)
I0201 12:13:20.774143 12080 net.cpp:165] Memory required for data: 1611331076
I0201 12:13:20.774150 12080 layer_factory.hpp:77] Creating layer loss2/classifier
I0201 12:13:20.774159 12080 net.cpp:100] Creating Layer loss2/classifier
I0201 12:13:20.774166 12080 net.cpp:434] loss2/classifier <- loss2/fc
I0201 12:13:20.774178 12080 net.cpp:408] loss2/classifier -> loss2/classifier
I0201 12:13:20.783013 12080 net.cpp:150] Setting up loss2/classifier
I0201 12:13:20.783037 12080 net.cpp:157] Top shape: 32 1000 (32000)
I0201 12:13:20.783043 12080 net.cpp:165] Memory required for data: 1611459076
I0201 12:13:20.783053 12080 layer_factory.hpp:77] Creating layer loss2/loss
I0201 12:13:20.783064 12080 net.cpp:100] Creating Layer loss2/loss
I0201 12:13:20.783072 12080 net.cpp:434] loss2/loss <- loss2/classifier
I0201 12:13:20.783080 12080 net.cpp:434] loss2/loss <- label_data_1_split_1
I0201 12:13:20.783102 12080 net.cpp:408] loss2/loss -> loss2/loss1
I0201 12:13:20.783136 12080 layer_factory.hpp:77] Creating layer loss2/loss
I0201 12:13:20.783218 12080 net.cpp:150] Setting up loss2/loss
I0201 12:13:20.783231 12080 net.cpp:157] Top shape: (1)
I0201 12:13:20.783238 12080 net.cpp:160]     with loss weight 0.3
I0201 12:13:20.783280 12080 net.cpp:165] Memory required for data: 1611459080
I0201 12:13:20.783288 12080 layer_factory.hpp:77] Creating layer inception_4e/1x1
I0201 12:13:20.783308 12080 net.cpp:100] Creating Layer inception_4e/1x1
I0201 12:13:20.783316 12080 net.cpp:434] inception_4e/1x1 <- inception_4d/output_inception_4d/output_0_split_1
I0201 12:13:20.783326 12080 net.cpp:408] inception_4e/1x1 -> inception_4e/1x1
I0201 12:13:20.784535 12080 net.cpp:150] Setting up inception_4e/1x1
I0201 12:13:20.784550 12080 net.cpp:157] Top shape: 32 256 14 14 (1605632)
I0201 12:13:20.784557 12080 net.cpp:165] Memory required for data: 1617881608
I0201 12:13:20.784567 12080 layer_factory.hpp:77] Creating layer inception_4e/relu_1x1
I0201 12:13:20.784579 12080 net.cpp:100] Creating Layer inception_4e/relu_1x1
I0201 12:13:20.784586 12080 net.cpp:434] inception_4e/relu_1x1 <- inception_4e/1x1
I0201 12:13:20.784595 12080 net.cpp:395] inception_4e/relu_1x1 -> inception_4e/1x1 (in-place)
I0201 12:13:20.784608 12080 net.cpp:150] Setting up inception_4e/relu_1x1
I0201 12:13:20.784616 12080 net.cpp:157] Top shape: 32 256 14 14 (1605632)
I0201 12:13:20.784622 12080 net.cpp:165] Memory required for data: 1624304136
I0201 12:13:20.784629 12080 layer_factory.hpp:77] Creating layer inception_4e/3x3_reduce
I0201 12:13:20.784641 12080 net.cpp:100] Creating Layer inception_4e/3x3_reduce
I0201 12:13:20.784648 12080 net.cpp:434] inception_4e/3x3_reduce <- inception_4d/output_inception_4d/output_0_split_2
I0201 12:13:20.784660 12080 net.cpp:408] inception_4e/3x3_reduce -> inception_4e/3x3_reduce
I0201 12:13:20.785411 12080 net.cpp:150] Setting up inception_4e/3x3_reduce
I0201 12:13:20.785426 12080 net.cpp:157] Top shape: 32 160 14 14 (1003520)
I0201 12:13:20.785432 12080 net.cpp:165] Memory required for data: 1628318216
I0201 12:13:20.785442 12080 layer_factory.hpp:77] Creating layer inception_4e/relu_3x3_reduce
I0201 12:13:20.785454 12080 net.cpp:100] Creating Layer inception_4e/relu_3x3_reduce
I0201 12:13:20.785461 12080 net.cpp:434] inception_4e/relu_3x3_reduce <- inception_4e/3x3_reduce
I0201 12:13:20.785470 12080 net.cpp:395] inception_4e/relu_3x3_reduce -> inception_4e/3x3_reduce (in-place)
I0201 12:13:20.785487 12080 net.cpp:150] Setting up inception_4e/relu_3x3_reduce
I0201 12:13:20.785496 12080 net.cpp:157] Top shape: 32 160 14 14 (1003520)
I0201 12:13:20.785502 12080 net.cpp:165] Memory required for data: 1632332296
I0201 12:13:20.785508 12080 layer_factory.hpp:77] Creating layer inception_4e/3x3
I0201 12:13:20.785526 12080 net.cpp:100] Creating Layer inception_4e/3x3
I0201 12:13:20.785534 12080 net.cpp:434] inception_4e/3x3 <- inception_4e/3x3_reduce
I0201 12:13:20.785545 12080 net.cpp:408] inception_4e/3x3 -> inception_4e/3x3
I0201 12:13:20.789983 12080 net.cpp:150] Setting up inception_4e/3x3
I0201 12:13:20.789997 12080 net.cpp:157] Top shape: 32 320 14 14 (2007040)
I0201 12:13:20.790004 12080 net.cpp:165] Memory required for data: 1640360456
I0201 12:13:20.790021 12080 layer_factory.hpp:77] Creating layer inception_4e/relu_3x3
I0201 12:13:20.790030 12080 net.cpp:100] Creating Layer inception_4e/relu_3x3
I0201 12:13:20.790038 12080 net.cpp:434] inception_4e/relu_3x3 <- inception_4e/3x3
I0201 12:13:20.790050 12080 net.cpp:395] inception_4e/relu_3x3 -> inception_4e/3x3 (in-place)
I0201 12:13:20.790060 12080 net.cpp:150] Setting up inception_4e/relu_3x3
I0201 12:13:20.790068 12080 net.cpp:157] Top shape: 32 320 14 14 (2007040)
I0201 12:13:20.790074 12080 net.cpp:165] Memory required for data: 1648388616
I0201 12:13:20.790081 12080 layer_factory.hpp:77] Creating layer inception_4e/5x5_reduce
I0201 12:13:20.790092 12080 net.cpp:100] Creating Layer inception_4e/5x5_reduce
I0201 12:13:20.790101 12080 net.cpp:434] inception_4e/5x5_reduce <- inception_4d/output_inception_4d/output_0_split_3
I0201 12:13:20.790132 12080 net.cpp:408] inception_4e/5x5_reduce -> inception_4e/5x5_reduce
I0201 12:13:20.790326 12080 net.cpp:150] Setting up inception_4e/5x5_reduce
I0201 12:13:20.790349 12080 net.cpp:157] Top shape: 32 32 14 14 (200704)
I0201 12:13:20.790355 12080 net.cpp:165] Memory required for data: 1649191432
I0201 12:13:20.790365 12080 layer_factory.hpp:77] Creating layer inception_4e/relu_5x5_reduce
I0201 12:13:20.790375 12080 net.cpp:100] Creating Layer inception_4e/relu_5x5_reduce
I0201 12:13:20.790382 12080 net.cpp:434] inception_4e/relu_5x5_reduce <- inception_4e/5x5_reduce
I0201 12:13:20.790391 12080 net.cpp:395] inception_4e/relu_5x5_reduce -> inception_4e/5x5_reduce (in-place)
I0201 12:13:20.790401 12080 net.cpp:150] Setting up inception_4e/relu_5x5_reduce
I0201 12:13:20.790410 12080 net.cpp:157] Top shape: 32 32 14 14 (200704)
I0201 12:13:20.790416 12080 net.cpp:165] Memory required for data: 1649994248
I0201 12:13:20.790422 12080 layer_factory.hpp:77] Creating layer inception_4e/5x5
I0201 12:13:20.790455 12080 net.cpp:100] Creating Layer inception_4e/5x5
I0201 12:13:20.790464 12080 net.cpp:434] inception_4e/5x5 <- inception_4e/5x5_reduce
I0201 12:13:20.790474 12080 net.cpp:408] inception_4e/5x5 -> inception_4e/5x5
I0201 12:13:20.791473 12080 net.cpp:150] Setting up inception_4e/5x5
I0201 12:13:20.791491 12080 net.cpp:157] Top shape: 32 128 14 14 (802816)
I0201 12:13:20.791498 12080 net.cpp:165] Memory required for data: 1653205512
I0201 12:13:20.791508 12080 layer_factory.hpp:77] Creating layer inception_4e/relu_5x5
I0201 12:13:20.791517 12080 net.cpp:100] Creating Layer inception_4e/relu_5x5
I0201 12:13:20.791524 12080 net.cpp:434] inception_4e/relu_5x5 <- inception_4e/5x5
I0201 12:13:20.791533 12080 net.cpp:395] inception_4e/relu_5x5 -> inception_4e/5x5 (in-place)
I0201 12:13:20.791543 12080 net.cpp:150] Setting up inception_4e/relu_5x5
I0201 12:13:20.791551 12080 net.cpp:157] Top shape: 32 128 14 14 (802816)
I0201 12:13:20.791558 12080 net.cpp:165] Memory required for data: 1656416776
I0201 12:13:20.791564 12080 layer_factory.hpp:77] Creating layer inception_4e/pool
I0201 12:13:20.791584 12080 net.cpp:100] Creating Layer inception_4e/pool
I0201 12:13:20.791591 12080 net.cpp:434] inception_4e/pool <- inception_4d/output_inception_4d/output_0_split_4
I0201 12:13:20.791600 12080 net.cpp:408] inception_4e/pool -> inception_4e/pool
I0201 12:13:20.791615 12080 net.cpp:150] Setting up inception_4e/pool
I0201 12:13:20.791622 12080 net.cpp:157] Top shape: 32 528 14 14 (3311616)
I0201 12:13:20.791630 12080 net.cpp:165] Memory required for data: 1669663240
I0201 12:13:20.791636 12080 layer_factory.hpp:77] Creating layer inception_4e/pool_proj
I0201 12:13:20.791651 12080 net.cpp:100] Creating Layer inception_4e/pool_proj
I0201 12:13:20.791657 12080 net.cpp:434] inception_4e/pool_proj <- inception_4e/pool
I0201 12:13:20.791671 12080 net.cpp:408] inception_4e/pool_proj -> inception_4e/pool_proj
I0201 12:13:20.792347 12080 net.cpp:150] Setting up inception_4e/pool_proj
I0201 12:13:20.792362 12080 net.cpp:157] Top shape: 32 128 14 14 (802816)
I0201 12:13:20.792368 12080 net.cpp:165] Memory required for data: 1672874504
I0201 12:13:20.792378 12080 layer_factory.hpp:77] Creating layer inception_4e/relu_pool_proj
I0201 12:13:20.792392 12080 net.cpp:100] Creating Layer inception_4e/relu_pool_proj
I0201 12:13:20.792399 12080 net.cpp:434] inception_4e/relu_pool_proj <- inception_4e/pool_proj
I0201 12:13:20.792408 12080 net.cpp:395] inception_4e/relu_pool_proj -> inception_4e/pool_proj (in-place)
I0201 12:13:20.792418 12080 net.cpp:150] Setting up inception_4e/relu_pool_proj
I0201 12:13:20.792426 12080 net.cpp:157] Top shape: 32 128 14 14 (802816)
I0201 12:13:20.792433 12080 net.cpp:165] Memory required for data: 1676085768
I0201 12:13:20.792439 12080 layer_factory.hpp:77] Creating layer inception_4e/output
I0201 12:13:20.792448 12080 net.cpp:100] Creating Layer inception_4e/output
I0201 12:13:20.792455 12080 net.cpp:434] inception_4e/output <- inception_4e/1x1
I0201 12:13:20.792470 12080 net.cpp:434] inception_4e/output <- inception_4e/3x3
I0201 12:13:20.792487 12080 net.cpp:434] inception_4e/output <- inception_4e/5x5
I0201 12:13:20.792495 12080 net.cpp:434] inception_4e/output <- inception_4e/pool_proj
I0201 12:13:20.792507 12080 net.cpp:408] inception_4e/output -> inception_4e/output
I0201 12:13:20.792520 12080 net.cpp:150] Setting up inception_4e/output
I0201 12:13:20.792529 12080 net.cpp:157] Top shape: 32 832 14 14 (5218304)
I0201 12:13:20.792536 12080 net.cpp:165] Memory required for data: 1696958984
I0201 12:13:20.792542 12080 layer_factory.hpp:77] Creating layer pool4/3x3_s2
I0201 12:13:20.792551 12080 net.cpp:100] Creating Layer pool4/3x3_s2
I0201 12:13:20.792558 12080 net.cpp:434] pool4/3x3_s2 <- inception_4e/output
I0201 12:13:20.792567 12080 net.cpp:408] pool4/3x3_s2 -> pool4/3x3_s2
I0201 12:13:20.792579 12080 net.cpp:150] Setting up pool4/3x3_s2
I0201 12:13:20.792587 12080 net.cpp:157] Top shape: 32 832 7 7 (1304576)
I0201 12:13:20.792594 12080 net.cpp:165] Memory required for data: 1702177288
I0201 12:13:20.792601 12080 layer_factory.hpp:77] Creating layer pool4/3x3_s2_pool4/3x3_s2_0_split
I0201 12:13:20.792611 12080 net.cpp:100] Creating Layer pool4/3x3_s2_pool4/3x3_s2_0_split
I0201 12:13:20.792618 12080 net.cpp:434] pool4/3x3_s2_pool4/3x3_s2_0_split <- pool4/3x3_s2
I0201 12:13:20.792629 12080 net.cpp:408] pool4/3x3_s2_pool4/3x3_s2_0_split -> pool4/3x3_s2_pool4/3x3_s2_0_split_0
I0201 12:13:20.792640 12080 net.cpp:408] pool4/3x3_s2_pool4/3x3_s2_0_split -> pool4/3x3_s2_pool4/3x3_s2_0_split_1
I0201 12:13:20.792650 12080 net.cpp:408] pool4/3x3_s2_pool4/3x3_s2_0_split -> pool4/3x3_s2_pool4/3x3_s2_0_split_2
I0201 12:13:20.792660 12080 net.cpp:408] pool4/3x3_s2_pool4/3x3_s2_0_split -> pool4/3x3_s2_pool4/3x3_s2_0_split_3
I0201 12:13:20.792675 12080 net.cpp:150] Setting up pool4/3x3_s2_pool4/3x3_s2_0_split
I0201 12:13:20.792683 12080 net.cpp:157] Top shape: 32 832 7 7 (1304576)
I0201 12:13:20.792691 12080 net.cpp:157] Top shape: 32 832 7 7 (1304576)
I0201 12:13:20.792699 12080 net.cpp:157] Top shape: 32 832 7 7 (1304576)
I0201 12:13:20.792706 12080 net.cpp:157] Top shape: 32 832 7 7 (1304576)
I0201 12:13:20.792712 12080 net.cpp:165] Memory required for data: 1723050504
I0201 12:13:20.792719 12080 layer_factory.hpp:77] Creating layer inception_5a/1x1
I0201 12:13:20.792733 12080 net.cpp:100] Creating Layer inception_5a/1x1
I0201 12:13:20.792740 12080 net.cpp:434] inception_5a/1x1 <- pool4/3x3_s2_pool4/3x3_s2_0_split_0
I0201 12:13:20.792750 12080 net.cpp:408] inception_5a/1x1 -> inception_5a/1x1
I0201 12:13:20.794693 12080 net.cpp:150] Setting up inception_5a/1x1
I0201 12:13:20.794708 12080 net.cpp:157] Top shape: 32 256 7 7 (401408)
I0201 12:13:20.794715 12080 net.cpp:165] Memory required for data: 1724656136
I0201 12:13:20.794724 12080 layer_factory.hpp:77] Creating layer inception_5a/relu_1x1
I0201 12:13:20.794734 12080 net.cpp:100] Creating Layer inception_5a/relu_1x1
I0201 12:13:20.794741 12080 net.cpp:434] inception_5a/relu_1x1 <- inception_5a/1x1
I0201 12:13:20.794750 12080 net.cpp:395] inception_5a/relu_1x1 -> inception_5a/1x1 (in-place)
I0201 12:13:20.794760 12080 net.cpp:150] Setting up inception_5a/relu_1x1
I0201 12:13:20.794769 12080 net.cpp:157] Top shape: 32 256 7 7 (401408)
I0201 12:13:20.794775 12080 net.cpp:165] Memory required for data: 1726261768
I0201 12:13:20.794781 12080 layer_factory.hpp:77] Creating layer inception_5a/3x3_reduce
I0201 12:13:20.794795 12080 net.cpp:100] Creating Layer inception_5a/3x3_reduce
I0201 12:13:20.794802 12080 net.cpp:434] inception_5a/3x3_reduce <- pool4/3x3_s2_pool4/3x3_s2_0_split_1
I0201 12:13:20.794812 12080 net.cpp:408] inception_5a/3x3_reduce -> inception_5a/3x3_reduce
I0201 12:13:20.795974 12080 net.cpp:150] Setting up inception_5a/3x3_reduce
I0201 12:13:20.795989 12080 net.cpp:157] Top shape: 32 160 7 7 (250880)
I0201 12:13:20.795995 12080 net.cpp:165] Memory required for data: 1727265288
I0201 12:13:20.796005 12080 layer_factory.hpp:77] Creating layer inception_5a/relu_3x3_reduce
I0201 12:13:20.796015 12080 net.cpp:100] Creating Layer inception_5a/relu_3x3_reduce
I0201 12:13:20.796036 12080 net.cpp:434] inception_5a/relu_3x3_reduce <- inception_5a/3x3_reduce
I0201 12:13:20.796048 12080 net.cpp:395] inception_5a/relu_3x3_reduce -> inception_5a/3x3_reduce (in-place)
I0201 12:13:20.796059 12080 net.cpp:150] Setting up inception_5a/relu_3x3_reduce
I0201 12:13:20.796068 12080 net.cpp:157] Top shape: 32 160 7 7 (250880)
I0201 12:13:20.796074 12080 net.cpp:165] Memory required for data: 1728268808
I0201 12:13:20.796082 12080 layer_factory.hpp:77] Creating layer inception_5a/3x3
I0201 12:13:20.796092 12080 net.cpp:100] Creating Layer inception_5a/3x3
I0201 12:13:20.796099 12080 net.cpp:434] inception_5a/3x3 <- inception_5a/3x3_reduce
I0201 12:13:20.796109 12080 net.cpp:408] inception_5a/3x3 -> inception_5a/3x3
I0201 12:13:20.800297 12080 net.cpp:150] Setting up inception_5a/3x3
I0201 12:13:20.800312 12080 net.cpp:157] Top shape: 32 320 7 7 (501760)
I0201 12:13:20.800319 12080 net.cpp:165] Memory required for data: 1730275848
I0201 12:13:20.800328 12080 layer_factory.hpp:77] Creating layer inception_5a/relu_3x3
I0201 12:13:20.800340 12080 net.cpp:100] Creating Layer inception_5a/relu_3x3
I0201 12:13:20.800348 12080 net.cpp:434] inception_5a/relu_3x3 <- inception_5a/3x3
I0201 12:13:20.800357 12080 net.cpp:395] inception_5a/relu_3x3 -> inception_5a/3x3 (in-place)
I0201 12:13:20.800367 12080 net.cpp:150] Setting up inception_5a/relu_3x3
I0201 12:13:20.800375 12080 net.cpp:157] Top shape: 32 320 7 7 (501760)
I0201 12:13:20.800382 12080 net.cpp:165] Memory required for data: 1732282888
I0201 12:13:20.800389 12080 layer_factory.hpp:77] Creating layer inception_5a/5x5_reduce
I0201 12:13:20.800400 12080 net.cpp:100] Creating Layer inception_5a/5x5_reduce
I0201 12:13:20.800407 12080 net.cpp:434] inception_5a/5x5_reduce <- pool4/3x3_s2_pool4/3x3_s2_0_split_2
I0201 12:13:20.800418 12080 net.cpp:408] inception_5a/5x5_reduce -> inception_5a/5x5_reduce
I0201 12:13:20.800662 12080 net.cpp:150] Setting up inception_5a/5x5_reduce
I0201 12:13:20.800674 12080 net.cpp:157] Top shape: 32 32 7 7 (50176)
I0201 12:13:20.800680 12080 net.cpp:165] Memory required for data: 1732483592
I0201 12:13:20.800690 12080 layer_factory.hpp:77] Creating layer inception_5a/relu_5x5_reduce
I0201 12:13:20.800703 12080 net.cpp:100] Creating Layer inception_5a/relu_5x5_reduce
I0201 12:13:20.800710 12080 net.cpp:434] inception_5a/relu_5x5_reduce <- inception_5a/5x5_reduce
I0201 12:13:20.800719 12080 net.cpp:395] inception_5a/relu_5x5_reduce -> inception_5a/5x5_reduce (in-place)
I0201 12:13:20.800730 12080 net.cpp:150] Setting up inception_5a/relu_5x5_reduce
I0201 12:13:20.800740 12080 net.cpp:157] Top shape: 32 32 7 7 (50176)
I0201 12:13:20.800745 12080 net.cpp:165] Memory required for data: 1732684296
I0201 12:13:20.800752 12080 layer_factory.hpp:77] Creating layer inception_5a/5x5
I0201 12:13:20.800763 12080 net.cpp:100] Creating Layer inception_5a/5x5
I0201 12:13:20.800770 12080 net.cpp:434] inception_5a/5x5 <- inception_5a/5x5_reduce
I0201 12:13:20.800784 12080 net.cpp:408] inception_5a/5x5 -> inception_5a/5x5
I0201 12:13:20.801697 12080 net.cpp:150] Setting up inception_5a/5x5
I0201 12:13:20.801710 12080 net.cpp:157] Top shape: 32 128 7 7 (200704)
I0201 12:13:20.801717 12080 net.cpp:165] Memory required for data: 1733487112
I0201 12:13:20.801726 12080 layer_factory.hpp:77] Creating layer inception_5a/relu_5x5
I0201 12:13:20.801736 12080 net.cpp:100] Creating Layer inception_5a/relu_5x5
I0201 12:13:20.801743 12080 net.cpp:434] inception_5a/relu_5x5 <- inception_5a/5x5
I0201 12:13:20.801754 12080 net.cpp:395] inception_5a/relu_5x5 -> inception_5a/5x5 (in-place)
I0201 12:13:20.801764 12080 net.cpp:150] Setting up inception_5a/relu_5x5
I0201 12:13:20.801772 12080 net.cpp:157] Top shape: 32 128 7 7 (200704)
I0201 12:13:20.801779 12080 net.cpp:165] Memory required for data: 1734289928
I0201 12:13:20.801786 12080 layer_factory.hpp:77] Creating layer inception_5a/pool
I0201 12:13:20.801795 12080 net.cpp:100] Creating Layer inception_5a/pool
I0201 12:13:20.801802 12080 net.cpp:434] inception_5a/pool <- pool4/3x3_s2_pool4/3x3_s2_0_split_3
I0201 12:13:20.801825 12080 net.cpp:408] inception_5a/pool -> inception_5a/pool
I0201 12:13:20.801838 12080 net.cpp:150] Setting up inception_5a/pool
I0201 12:13:20.801847 12080 net.cpp:157] Top shape: 32 832 7 7 (1304576)
I0201 12:13:20.801853 12080 net.cpp:165] Memory required for data: 1739508232
I0201 12:13:20.801859 12080 layer_factory.hpp:77] Creating layer inception_5a/pool_proj
I0201 12:13:20.801874 12080 net.cpp:100] Creating Layer inception_5a/pool_proj
I0201 12:13:20.801882 12080 net.cpp:434] inception_5a/pool_proj <- inception_5a/pool
I0201 12:13:20.801892 12080 net.cpp:408] inception_5a/pool_proj -> inception_5a/pool_proj
I0201 12:13:20.802848 12080 net.cpp:150] Setting up inception_5a/pool_proj
I0201 12:13:20.802863 12080 net.cpp:157] Top shape: 32 128 7 7 (200704)
I0201 12:13:20.802870 12080 net.cpp:165] Memory required for data: 1740311048
I0201 12:13:20.802880 12080 layer_factory.hpp:77] Creating layer inception_5a/relu_pool_proj
I0201 12:13:20.802891 12080 net.cpp:100] Creating Layer inception_5a/relu_pool_proj
I0201 12:13:20.802899 12080 net.cpp:434] inception_5a/relu_pool_proj <- inception_5a/pool_proj
I0201 12:13:20.802907 12080 net.cpp:395] inception_5a/relu_pool_proj -> inception_5a/pool_proj (in-place)
I0201 12:13:20.802917 12080 net.cpp:150] Setting up inception_5a/relu_pool_proj
I0201 12:13:20.802925 12080 net.cpp:157] Top shape: 32 128 7 7 (200704)
I0201 12:13:20.802932 12080 net.cpp:165] Memory required for data: 1741113864
I0201 12:13:20.802938 12080 layer_factory.hpp:77] Creating layer inception_5a/output
I0201 12:13:20.802949 12080 net.cpp:100] Creating Layer inception_5a/output
I0201 12:13:20.802958 12080 net.cpp:434] inception_5a/output <- inception_5a/1x1
I0201 12:13:20.802965 12080 net.cpp:434] inception_5a/output <- inception_5a/3x3
I0201 12:13:20.802973 12080 net.cpp:434] inception_5a/output <- inception_5a/5x5
I0201 12:13:20.802979 12080 net.cpp:434] inception_5a/output <- inception_5a/pool_proj
I0201 12:13:20.802989 12080 net.cpp:408] inception_5a/output -> inception_5a/output
I0201 12:13:20.803000 12080 net.cpp:150] Setting up inception_5a/output
I0201 12:13:20.803009 12080 net.cpp:157] Top shape: 32 832 7 7 (1304576)
I0201 12:13:20.803015 12080 net.cpp:165] Memory required for data: 1746332168
I0201 12:13:20.803021 12080 layer_factory.hpp:77] Creating layer inception_5a/output_inception_5a/output_0_split
I0201 12:13:20.803030 12080 net.cpp:100] Creating Layer inception_5a/output_inception_5a/output_0_split
I0201 12:13:20.803037 12080 net.cpp:434] inception_5a/output_inception_5a/output_0_split <- inception_5a/output
I0201 12:13:20.803048 12080 net.cpp:408] inception_5a/output_inception_5a/output_0_split -> inception_5a/output_inception_5a/output_0_split_0
I0201 12:13:20.803059 12080 net.cpp:408] inception_5a/output_inception_5a/output_0_split -> inception_5a/output_inception_5a/output_0_split_1
I0201 12:13:20.803071 12080 net.cpp:408] inception_5a/output_inception_5a/output_0_split -> inception_5a/output_inception_5a/output_0_split_2
I0201 12:13:20.803081 12080 net.cpp:408] inception_5a/output_inception_5a/output_0_split -> inception_5a/output_inception_5a/output_0_split_3
I0201 12:13:20.803092 12080 net.cpp:150] Setting up inception_5a/output_inception_5a/output_0_split
I0201 12:13:20.803100 12080 net.cpp:157] Top shape: 32 832 7 7 (1304576)
I0201 12:13:20.803108 12080 net.cpp:157] Top shape: 32 832 7 7 (1304576)
I0201 12:13:20.803115 12080 net.cpp:157] Top shape: 32 832 7 7 (1304576)
I0201 12:13:20.803123 12080 net.cpp:157] Top shape: 32 832 7 7 (1304576)
I0201 12:13:20.803129 12080 net.cpp:165] Memory required for data: 1767205384
I0201 12:13:20.803136 12080 layer_factory.hpp:77] Creating layer inception_5b/1x1
I0201 12:13:20.803149 12080 net.cpp:100] Creating Layer inception_5b/1x1
I0201 12:13:20.803158 12080 net.cpp:434] inception_5b/1x1 <- inception_5a/output_inception_5a/output_0_split_0
I0201 12:13:20.803167 12080 net.cpp:408] inception_5b/1x1 -> inception_5b/1x1
I0201 12:13:20.805902 12080 net.cpp:150] Setting up inception_5b/1x1
I0201 12:13:20.805922 12080 net.cpp:157] Top shape: 32 384 7 7 (602112)
I0201 12:13:20.805938 12080 net.cpp:165] Memory required for data: 1769613832
I0201 12:13:20.805948 12080 layer_factory.hpp:77] Creating layer inception_5b/relu_1x1
I0201 12:13:20.805963 12080 net.cpp:100] Creating Layer inception_5b/relu_1x1
I0201 12:13:20.805971 12080 net.cpp:434] inception_5b/relu_1x1 <- inception_5b/1x1
I0201 12:13:20.805980 12080 net.cpp:395] inception_5b/relu_1x1 -> inception_5b/1x1 (in-place)
I0201 12:13:20.805990 12080 net.cpp:150] Setting up inception_5b/relu_1x1
I0201 12:13:20.805999 12080 net.cpp:157] Top shape: 32 384 7 7 (602112)
I0201 12:13:20.806005 12080 net.cpp:165] Memory required for data: 1772022280
I0201 12:13:20.806011 12080 layer_factory.hpp:77] Creating layer inception_5b/3x3_reduce
I0201 12:13:20.806025 12080 net.cpp:100] Creating Layer inception_5b/3x3_reduce
I0201 12:13:20.806032 12080 net.cpp:434] inception_5b/3x3_reduce <- inception_5a/output_inception_5a/output_0_split_1
I0201 12:13:20.806042 12080 net.cpp:408] inception_5b/3x3_reduce -> inception_5b/3x3_reduce
I0201 12:13:20.807425 12080 net.cpp:150] Setting up inception_5b/3x3_reduce
I0201 12:13:20.807440 12080 net.cpp:157] Top shape: 32 192 7 7 (301056)
I0201 12:13:20.807447 12080 net.cpp:165] Memory required for data: 1773226504
I0201 12:13:20.807456 12080 layer_factory.hpp:77] Creating layer inception_5b/relu_3x3_reduce
I0201 12:13:20.807466 12080 net.cpp:100] Creating Layer inception_5b/relu_3x3_reduce
I0201 12:13:20.807473 12080 net.cpp:434] inception_5b/relu_3x3_reduce <- inception_5b/3x3_reduce
I0201 12:13:20.807484 12080 net.cpp:395] inception_5b/relu_3x3_reduce -> inception_5b/3x3_reduce (in-place)
I0201 12:13:20.807495 12080 net.cpp:150] Setting up inception_5b/relu_3x3_reduce
I0201 12:13:20.807504 12080 net.cpp:157] Top shape: 32 192 7 7 (301056)
I0201 12:13:20.807510 12080 net.cpp:165] Memory required for data: 1774430728
I0201 12:13:20.807517 12080 layer_factory.hpp:77] Creating layer inception_5b/3x3
I0201 12:13:20.807528 12080 net.cpp:100] Creating Layer inception_5b/3x3
I0201 12:13:20.807535 12080 net.cpp:434] inception_5b/3x3 <- inception_5b/3x3_reduce
I0201 12:13:20.807544 12080 net.cpp:408] inception_5b/3x3 -> inception_5b/3x3
I0201 12:13:20.813678 12080 net.cpp:150] Setting up inception_5b/3x3
I0201 12:13:20.813704 12080 net.cpp:157] Top shape: 32 384 7 7 (602112)
I0201 12:13:20.813710 12080 net.cpp:165] Memory required for data: 1776839176
I0201 12:13:20.813720 12080 layer_factory.hpp:77] Creating layer inception_5b/relu_3x3
I0201 12:13:20.813732 12080 net.cpp:100] Creating Layer inception_5b/relu_3x3
I0201 12:13:20.813740 12080 net.cpp:434] inception_5b/relu_3x3 <- inception_5b/3x3
I0201 12:13:20.813750 12080 net.cpp:395] inception_5b/relu_3x3 -> inception_5b/3x3 (in-place)
I0201 12:13:20.813760 12080 net.cpp:150] Setting up inception_5b/relu_3x3
I0201 12:13:20.813768 12080 net.cpp:157] Top shape: 32 384 7 7 (602112)
I0201 12:13:20.813776 12080 net.cpp:165] Memory required for data: 1779247624
I0201 12:13:20.813781 12080 layer_factory.hpp:77] Creating layer inception_5b/5x5_reduce
I0201 12:13:20.813793 12080 net.cpp:100] Creating Layer inception_5b/5x5_reduce
I0201 12:13:20.813801 12080 net.cpp:434] inception_5b/5x5_reduce <- inception_5a/output_inception_5a/output_0_split_2
I0201 12:13:20.813812 12080 net.cpp:408] inception_5b/5x5_reduce -> inception_5b/5x5_reduce
I0201 12:13:20.814172 12080 net.cpp:150] Setting up inception_5b/5x5_reduce
I0201 12:13:20.814184 12080 net.cpp:157] Top shape: 32 48 7 7 (75264)
I0201 12:13:20.814191 12080 net.cpp:165] Memory required for data: 1779548680
I0201 12:13:20.814200 12080 layer_factory.hpp:77] Creating layer inception_5b/relu_5x5_reduce
I0201 12:13:20.814213 12080 net.cpp:100] Creating Layer inception_5b/relu_5x5_reduce
I0201 12:13:20.814220 12080 net.cpp:434] inception_5b/relu_5x5_reduce <- inception_5b/5x5_reduce
I0201 12:13:20.814232 12080 net.cpp:395] inception_5b/relu_5x5_reduce -> inception_5b/5x5_reduce (in-place)
I0201 12:13:20.814242 12080 net.cpp:150] Setting up inception_5b/relu_5x5_reduce
I0201 12:13:20.814265 12080 net.cpp:157] Top shape: 32 48 7 7 (75264)
I0201 12:13:20.814280 12080 net.cpp:165] Memory required for data: 1779849736
I0201 12:13:20.814287 12080 layer_factory.hpp:77] Creating layer inception_5b/5x5
I0201 12:13:20.814299 12080 net.cpp:100] Creating Layer inception_5b/5x5
I0201 12:13:20.814307 12080 net.cpp:434] inception_5b/5x5 <- inception_5b/5x5_reduce
I0201 12:13:20.814318 12080 net.cpp:408] inception_5b/5x5 -> inception_5b/5x5
I0201 12:13:20.815690 12080 net.cpp:150] Setting up inception_5b/5x5
I0201 12:13:20.815706 12080 net.cpp:157] Top shape: 32 128 7 7 (200704)
I0201 12:13:20.815712 12080 net.cpp:165] Memory required for data: 1780652552
I0201 12:13:20.815721 12080 layer_factory.hpp:77] Creating layer inception_5b/relu_5x5
I0201 12:13:20.815732 12080 net.cpp:100] Creating Layer inception_5b/relu_5x5
I0201 12:13:20.815739 12080 net.cpp:434] inception_5b/relu_5x5 <- inception_5b/5x5
I0201 12:13:20.815750 12080 net.cpp:395] inception_5b/relu_5x5 -> inception_5b/5x5 (in-place)
I0201 12:13:20.815760 12080 net.cpp:150] Setting up inception_5b/relu_5x5
I0201 12:13:20.815768 12080 net.cpp:157] Top shape: 32 128 7 7 (200704)
I0201 12:13:20.815775 12080 net.cpp:165] Memory required for data: 1781455368
I0201 12:13:20.815781 12080 layer_factory.hpp:77] Creating layer inception_5b/pool
I0201 12:13:20.815790 12080 net.cpp:100] Creating Layer inception_5b/pool
I0201 12:13:20.815798 12080 net.cpp:434] inception_5b/pool <- inception_5a/output_inception_5a/output_0_split_3
I0201 12:13:20.815809 12080 net.cpp:408] inception_5b/pool -> inception_5b/pool
I0201 12:13:20.815822 12080 net.cpp:150] Setting up inception_5b/pool
I0201 12:13:20.815831 12080 net.cpp:157] Top shape: 32 832 7 7 (1304576)
I0201 12:13:20.815837 12080 net.cpp:165] Memory required for data: 1786673672
I0201 12:13:20.815845 12080 layer_factory.hpp:77] Creating layer inception_5b/pool_proj
I0201 12:13:20.815858 12080 net.cpp:100] Creating Layer inception_5b/pool_proj
I0201 12:13:20.815866 12080 net.cpp:434] inception_5b/pool_proj <- inception_5b/pool
I0201 12:13:20.815876 12080 net.cpp:408] inception_5b/pool_proj -> inception_5b/pool_proj
I0201 12:13:20.816821 12080 net.cpp:150] Setting up inception_5b/pool_proj
I0201 12:13:20.816836 12080 net.cpp:157] Top shape: 32 128 7 7 (200704)
I0201 12:13:20.816843 12080 net.cpp:165] Memory required for data: 1787476488
I0201 12:13:20.816853 12080 layer_factory.hpp:77] Creating layer inception_5b/relu_pool_proj
I0201 12:13:20.816864 12080 net.cpp:100] Creating Layer inception_5b/relu_pool_proj
I0201 12:13:20.816872 12080 net.cpp:434] inception_5b/relu_pool_proj <- inception_5b/pool_proj
I0201 12:13:20.816880 12080 net.cpp:395] inception_5b/relu_pool_proj -> inception_5b/pool_proj (in-place)
I0201 12:13:20.816891 12080 net.cpp:150] Setting up inception_5b/relu_pool_proj
I0201 12:13:20.816900 12080 net.cpp:157] Top shape: 32 128 7 7 (200704)
I0201 12:13:20.816905 12080 net.cpp:165] Memory required for data: 1788279304
I0201 12:13:20.816912 12080 layer_factory.hpp:77] Creating layer inception_5b/output
I0201 12:13:20.816925 12080 net.cpp:100] Creating Layer inception_5b/output
I0201 12:13:20.816931 12080 net.cpp:434] inception_5b/output <- inception_5b/1x1
I0201 12:13:20.816939 12080 net.cpp:434] inception_5b/output <- inception_5b/3x3
I0201 12:13:20.816947 12080 net.cpp:434] inception_5b/output <- inception_5b/5x5
I0201 12:13:20.816954 12080 net.cpp:434] inception_5b/output <- inception_5b/pool_proj
I0201 12:13:20.816963 12080 net.cpp:408] inception_5b/output -> inception_5b/output
I0201 12:13:20.816975 12080 net.cpp:150] Setting up inception_5b/output
I0201 12:13:20.816984 12080 net.cpp:157] Top shape: 32 1024 7 7 (1605632)
I0201 12:13:20.816990 12080 net.cpp:165] Memory required for data: 1794701832
I0201 12:13:20.816998 12080 layer_factory.hpp:77] Creating layer pool5/7x7_s1
I0201 12:13:20.817006 12080 net.cpp:100] Creating Layer pool5/7x7_s1
I0201 12:13:20.817013 12080 net.cpp:434] pool5/7x7_s1 <- inception_5b/output
I0201 12:13:20.817024 12080 net.cpp:408] pool5/7x7_s1 -> pool5/7x7_s1
I0201 12:13:20.817041 12080 net.cpp:150] Setting up pool5/7x7_s1
I0201 12:13:20.817059 12080 net.cpp:157] Top shape: 32 1024 1 1 (32768)
I0201 12:13:20.817066 12080 net.cpp:165] Memory required for data: 1794832904
I0201 12:13:20.817072 12080 layer_factory.hpp:77] Creating layer pool5/drop_7x7_s1
I0201 12:13:20.817082 12080 net.cpp:100] Creating Layer pool5/drop_7x7_s1
I0201 12:13:20.817090 12080 net.cpp:434] pool5/drop_7x7_s1 <- pool5/7x7_s1
I0201 12:13:20.817098 12080 net.cpp:395] pool5/drop_7x7_s1 -> pool5/7x7_s1 (in-place)
I0201 12:13:20.817117 12080 net.cpp:150] Setting up pool5/drop_7x7_s1
I0201 12:13:20.817126 12080 net.cpp:157] Top shape: 32 1024 1 1 (32768)
I0201 12:13:20.817132 12080 net.cpp:165] Memory required for data: 1794963976
I0201 12:13:20.817138 12080 layer_factory.hpp:77] Creating layer loss3/classifier
I0201 12:13:20.817150 12080 net.cpp:100] Creating Layer loss3/classifier
I0201 12:13:20.817157 12080 net.cpp:434] loss3/classifier <- pool5/7x7_s1
I0201 12:13:20.817169 12080 net.cpp:408] loss3/classifier -> loss3/classifier
I0201 12:13:20.826043 12080 net.cpp:150] Setting up loss3/classifier
I0201 12:13:20.826066 12080 net.cpp:157] Top shape: 32 1000 (32000)
I0201 12:13:20.826072 12080 net.cpp:165] Memory required for data: 1795091976
I0201 12:13:20.826082 12080 layer_factory.hpp:77] Creating layer loss3/loss3
I0201 12:13:20.826093 12080 net.cpp:100] Creating Layer loss3/loss3
I0201 12:13:20.826100 12080 net.cpp:434] loss3/loss3 <- loss3/classifier
I0201 12:13:20.826108 12080 net.cpp:434] loss3/loss3 <- label_data_1_split_2
I0201 12:13:20.826117 12080 net.cpp:408] loss3/loss3 -> loss3/loss3
…
I0201 12:13:20.833588 12080 net.cpp:322] The NetState phase (1) differed from the phase (0) specified by a rule in layer data
I0201 12:13:20.836617 12080 net.cpp:58] Initializing net from parameters: 
name: "GoogleNet"
state {
  phase: TEST
}
layer {
  name: "data"
  type: "Data"
  top: "data"
  top: "label"
  include {
    phase: TEST
  }
  transform_param {
    mirror: false
    crop_size: 224
    mean_value: 104
    mean_value: 117
    mean_value: 123
  }
  data_param {
    source: "/home/user/caffeOMP/original/caffe/examples/imagenet/ilsvrc12_val_lmdb"
    batch_size: 50
    backend: LMDB
  }
}
layer {
  name: "conv1/7x7_s2"
  type: "Convolution"
  bottom: "data"
  top: "conv1/7x7_s2"
  param {
    lr_mult: 1
    decay_mult: 1
  }
  param {
    lr_mult: 2
    decay_mult: 0
  }
  convolution_param {
    num_output: 64
    pad: 3
    kernel_size: 7
    stride: 2
    weight_filler {
      type: "xavier"
    }
    bias_filler {
      type: "constant"
      value: 0.2
    }
  }
}
layer {
  name: "conv1/relu_7x7"
  type: "ReLU"
  bottom: "conv1/7x7_s2"
  top: "conv1/7x7_s2"
}
layer {
  name: "pool1/3x3_s2"
  type: "Pooling"
  bottom: "conv1/7x7_s2"
  top: "pool1/3x3_s2"
  pooling_param {
    pool: MAX
    kernel_size: 3
    stride: 2
  }
}
layer {
  name: "pool1/norm1"
  type: "LRN"
  bottom: "pool1/3x3_s2"
  top: "pool1/norm1"
  lrn_param {
    local_size: 5
    alpha: 0.0001
    beta: 0.75
  }
}
layer {
  name: "conv2/3x3_reduce"
  type: "Convolution"
  bottom: "pool1/norm1"
  top: "conv2/3x3_reduce"
  param {
    lr_mult: 1
    decay_mult: 1
  }
  param {
    lr_mult: 2
    decay_mult: 0
  }
  convolution_param {
    num_output: 64
    kernel_size: 1
    weight_filler {
      type: "xavier"
    }
    bias_filler {
      type: "constant"
      value: 0.2
    }
  }
}
layer {
  name: "conv2/relu_3x3_reduce"
  type: "ReLU"
  bottom: "conv2/3x3_reduce"
  top: "conv2/3x3_reduce"
}
layer {
  name: "conv2/3x3"
  type: "Convolution"
  bottom: "conv2/3x3_reduce"
  top: "conv2/3x3"
  param {
    lr_mult: 1
    decay_mult: 1
  }
  param {
    lr_mult: 2
    decay_mult: 0
  }
  convolution_param {
    num_output: 192
    pad: 1
    kernel_size: 3
    weight_filler {
      type: "xavier"
    }
    bias_filler {
      type: "constant"
      value: 0.2
    }
  }
}
layer {
  name: "conv2/relu_3x3"
  type: "ReLU"
  bottom: "conv2/3x3"
  top: "conv2/3x3"
}
layer {
  name: "conv2/norm2"
  type: "LRN"
  bottom: "conv2/3x3"
  top: "conv2/norm2"
  lrn_param {
    local_size: 5
    alpha: 0.0001
    beta: 0.75
  }
}
layer {
  name: "pool2/3x3_s2"
  type: "Pooling"
  bottom: "conv2/norm2"
  top: "pool2/3x3_s2"
  pooling_param {
    pool: MAX
    kernel_size: 3
    stride: 2
  }
}
layer {
  name: "inception_3a/1x1"
  type: "Convolution"
  bottom: "pool2/3x3_s2"
  top: "inception_3a/1x1"
  param {
    lr_mult: 1
    decay_mult: 1
  }
  param {
    lr_mult: 2
    decay_mult: 0
  }
  convolution_param {
    num_output: 64
    kernel_size: 1
    weight_filler {
      type: "xavier"
    }
    bias_filler {
      type: "constant"
      value: 0.2
    }
  }
}
layer {
  name: "inception_3a/relu_1x1"
  type: "ReLU"
  bottom: "inception_3a/1x1"
  top: "inception_3a/1x1"
}
layer {
  name: "inception_3a/3x3_reduce"
  type: "Convolution"
  bottom: "pool2/3x3_s2"
  top: "inception_3a/3x3_reduce"
  param {
    lr_mult: 1
    decay_mult: 1
  }
  param {
    lr_mult: 2
    decay_mult: 0
  }
  convolution_param {
    num_output: 96
    kernel_size: 1
    weight_filler {
      type: "xavier"
    }
    bias_filler {
      type: "constant"
      value: 0.2
    }
  }
}
layer {
  name: "inception_3a/relu_3x3_reduce"
  type: "ReLU"
  bottom: "inception_3a/3x3_reduce"
  top: "inception_3a/3x3_reduce"
}
layer {
  name: "inception_3a/3x3"
  type: "Convolution"
  bottom: "inception_3a/3x3_reduce"
  top: "inception_3a/3x3"
  param {
    lr_mult: 1
    decay_mult: 1
  }
  param {
    lr_mult: 2
    decay_mult: 0
  }
  convolution_param {
    num_output: 128
    pad: 1
    kernel_size: 3
    weight_filler {
      type: "xavier"
    }
    bias_filler {
      type: "constant"
      value: 0.2
    }
  }
}
layer {
  name: "inception_3a/relu_3x3"
  type: "ReLU"
  bottom: "inception_3a/3x3"
  top: "inception_3a/3x3"
}
layer {
  name: "inception_3a/5x5_reduce"
  type: "Convolution"
  bottom: "pool2/3x3_s2"
  top: "inception_3a/5x5_reduce"
  param {
    lr_mult: 1
    decay_mult: 1
  }
  param {
    lr_mult: 2
    decay_mult: 0
  }
  convolution_param {
    num_output: 16
    kernel_size: 1
    weight_filler {
      type: "xavier"
    }
    bias_filler {
      type: "constant"
      value: 0.2
    }
  }
}
layer {
  name: "inception_3a/relu_5x5_reduce"
  type: "ReLU"
  bottom: "inception_3a/5x5_reduce"
  top: "inception_3a/5x5_reduce"
}
layer {
  name: "inception_3a/5x5"
  type: "Convolution"
  bottom: "inception_3a/5x5_reduce"
  top: "inception_3a/5x5"
  param {
    lr_mult: 1
    decay_mult: 1
  }
  param {
    lr_mult: 2
    decay_mult: 0
  }
  convolution_param {
    num_output: 32
    pad: 2
    kernel_size: 5
    weight_filler {
      type: "xavier"
    }
    bias_filler {
      type: "constant"
      value: 0.2
    }
  }
}
layer {
  name: "inception_3a/relu_5x5"
  type: "ReLU"
  bottom: "inception_3a/5x5"
  top: "inception_3a/5x5"
}
layer {
  name: "inception_3a/pool"
  type: "Pooling"
  bottom: "pool2/3x3_s2"
  top: "inception_3a/pool"
  pooling_param {
    pool: MAX
    kernel_size: 3
    stride: 1
    pad: 1
  }
}
layer {
  name: "inception_3a/pool_proj"
  type: "Convolution"
  bottom: "inception_3a/pool"
  top: "inception_3a/pool_proj"
  param {
    lr_mult: 1
    decay_mult: 1
  }
  param {
    lr_mult: 2
    decay_mult: 0
  }
  convolution_param {
    num_output: 32
    kernel_size: 1
    weight_filler {
      type: "xavier"
    }
    bias_filler {
      type: "constant"
      value: 0.2
    }
  }
}
layer {
  name: "inception_3a/relu_pool_proj"
  type: "ReLU"
  bottom: "inception_3a/pool_proj"
  top: "inception_3a/pool_proj"
}
layer {
  name: "inception_3a/output"
  type: "Concat"
  bottom: "inception_3a/1x1"
  bottom: "inception_3a/3x3"
  bottom: "inception_3a/5x5"
  bottom: "inception_3a/pool_proj"
  top: "inception_3a/output"
}
layer {
  name: "inception_3b/1x1"
  type: "Convolution"
  bottom: "inception_3a/output"
  top: "inception_3b/1x1"
  param {
    lr_mult: 1
    decay_mult: 1
  }
  param {
    lr_mult: 2
    decay_mult: 0
  }
  convolution_param {
    num_output: 128
    kernel_size: 1
    weight_filler {
      type: "xavier"
    }
    bias_filler {
      type: "constant"
      value: 0.2
    }
  }
}
layer {
  name: "inception_3b/relu_1x1"
  type: "ReLU"
  bottom: "inception_3b/1x1"
  top: "inception_3b/1x1"
}
layer {
  name: "inception_3b/3x3_reduce"
  type: "Convolution"
  bottom: "inception_3a/output"
  top: "inception_3b/3x3_reduce"
  param {
    lr_mult: 1
    decay_mult: 1
  }
  param {
    lr_mult: 2
    decay_mult: 0
  }
  convolution_param {
    num_output: 128
    kernel_size: 1
    weight_filler {
      type: "xavier"
    }
    bias_filler {
      type: "constant"
      value: 0.2
    }
  }
}
layer {
  name: "inception_3b/relu_3x3_reduce"
  type: "ReLU"
  bottom: "inception_3b/3x3_reduce"
  top: "inception_3b/3x3_reduce"
}
layer {
  name: "inception_3b/3x3"
  type: "Convolution"
  bottom: "inception_3b/3x3_reduce"
  top: "inception_3b/3x3"
  param {
    lr_mult: 1
    decay_mult: 1
  }
  param {
    lr_mult: 2
    decay_mult: 0
  }
  convolution_param {
    num_output: 192
    pad: 1
    kernel_size: 3
    weight_filler {
      type: "xavier"
    }
    bias_filler {
      type: "constant"
      value: 0.2
    }
  }
}
layer {
  name: "inception_3b/relu_3x3"
  type: "ReLU"
  bottom: "inception_3b/3x3"
  top: "inception_3b/3x3"
}
layer {
  name: "inception_3b/5x5_reduce"
  type: "Convolution"
  bottom: "inception_3a/output"
  top: "inception_3b/5x5_reduce"
  param {
    lr_mult: 1
    decay_mult: 1
  }
  param {
    lr_mult: 2
    decay_mult: 0
  }
  convolution_param {
    num_output: 32
    kernel_size: 1
    weight_filler {
      type: "xavier"
    }
    bias_filler {
      type: "constant"
      value: 0.2
    }
  }
}
layer {
  name: "inception_3b/relu_5x5_reduce"
  type: "ReLU"
  bottom: "inception_3b/5x5_reduce"
  top: "inception_3b/5x5_reduce"
}
layer {
  name: "inception_3b/5x5"
  type: "Convolution"
  bottom: "inception_3b/5x5_reduce"
  top: "inception_3b/5x5"
  param {
    lr_mult: 1
    decay_mult: 1
  }
  param {
    lr_mult: 2
    decay_mult: 0
  }
  convolution_param {
    num_output: 96
    pad: 2
    kernel_size: 5
    weight_filler {
      type: "xavier"
    }
    bias_filler {
      type: "constant"
      value: 0.2
    }
  }
}
layer {
  name: "inception_3b/relu_5x5"
  type: "ReLU"
  bottom: "inception_3b/5x5"
  top: "inception_3b/5x5"
}
layer {
  name: "inception_3b/pool"
  type: "Pooling"
  bottom: "inception_3a/output"
  top: "inception_3b/pool"
  pooling_param {
    pool: MAX
    kernel_size: 3
    stride: 1
    pad: 1
  }
}
layer {
  name: "inception_3b/pool_proj"
  type: "Convolution"
  bottom: "inception_3b/pool"
  top: "inception_3b/pool_proj"
  param {
    lr_mult: 1
    decay_mult: 1
  }
  param {
    lr_mult: 2
    decay_mult: 0
  }
  convolution_param {
    num_output: 64
    kernel_size: 1
    weight_filler {
      type: "xavier"
    }
    bias_filler {
      type: "constant"
      value: 0.2
    }
  }
}
layer {
  name: "inception_3b/relu_pool_proj"
  type: "ReLU"
  bottom: "inception_3b/pool_proj"
  top: "inception_3b/pool_proj"
}
layer {
  name: "inception_3b/output"
  type: "Concat"
  bottom: "inception_3b/1x1"
  bottom: "inception_3b/3x3"
  bottom: "inception_3b/5x5"
  bottom: "inception_3b/pool_proj"
  top: "inception_3b/output"
}
layer {
  name: "pool3/3x3_s2"
  type: "Pooling"
  bottom: "inception_3b/output"
  top: "pool3/3x3_s2"
  pooling_param {
    pool: MAX
    kernel_size: 3
    stride: 2
  }
}
layer {
  name: "inception_4a/1x1"
  type: "Convolution"
  bottom: "pool3/3x3_s2"
  top: "inception_4a/1x1"
  param {
    lr_mult: 1
    decay_mult: 1
  }
  param {
    lr_mult: 2
    decay_mult: 0
  }
  convolution_param {
    num_output: 192
    kernel_size: 1
    weight_filler {
      type: "xavier"
    }
    bias_filler {
      type: "constant"
      value: 0.2
    }
  }
}
layer {
  name: "inception_4a/relu_1x1"
  type: "ReLU"
  bottom: "inception_4a/1x1"
  top: "inception_4a/1x1"
}
layer {
  name: "inception_4a/3x3_reduce"
  type: "Convolution"
  bottom: "pool3/3x3_s2"
  top: "inception_4a/3x3_reduce"
  param {
    lr_mult: 1
    decay_mult: 1
  }
  param {
    lr_mult: 2
    decay_mult: 0
  }
  convolution_param {
    num_output: 96
    kernel_size: 1
    weight_filler {
      type: "xavier"
    }
    bias_filler {
      type: "constant"
      value: 0.2
    }
  }
}
layer {
  name: "inception_4a/relu_3x3_reduce"
  type: "ReLU"
  bottom: "inception_4a/3x3_reduce"
  top: "inception_4a/3x3_reduce"
}
layer {
  name: "inception_4a/3x3"
  type: "Convolution"
  bottom: "inception_4a/3x3_reduce"
  top: "inception_4a/3x3"
  param {
    lr_mult: 1
    decay_mult: 1
  }
  param {
    lr_mult: 2
    decay_mult: 0
  }
  convolution_param {
    num_output: 208
    pad: 1
    kernel_size: 3
    weight_filler {
      type: "xavier"
    }
    bias_filler {
      type: "constant"
      value: 0.2
    }
  }
}
layer {
  name: "inception_4a/relu_3x3"
  type: "ReLU"
  bottom: "inception_4a/3x3"
  top: "inception_4a/3x3"
}
layer {
  name: "inception_4a/5x5_reduce"
  type: "Convolution"
  bottom: "pool3/3x3_s2"
  top: "inception_4a/5x5_reduce"
  param {
    lr_mult: 1
    decay_mult: 1
  }
  param {
    lr_mult: 2
    decay_mult: 0
  }
  convolution_param {
    num_output: 16
    kernel_size: 1
    weight_filler {
      type: "xavier"
    }
    bias_filler {
      type: "constant"
      value: 0.2
    }
  }
}
layer {
  name: "inception_4a/relu_5x5_reduce"
  type: "ReLU"
  bottom: "inception_4a/5x5_reduce"
  top: "inception_4a/5x5_reduce"
}
layer {
  name: "inception_4a/5x5"
  type: "Convolution"
  bottom: "inception_4a/5x5_reduce"
  top: "inception_4a/5x5"
  param {
    lr_mult: 1
    decay_mult: 1
  }
  param {
    lr_mult: 2
    decay_mult: 0
  }
  convolution_param {
    num_output: 48
    pad: 2
    kernel_size: 5
    weight_filler {
      type: "xavier"
    }
    bias_filler {
      type: "constant"
      value: 0.2
    }
  }
}
layer {
  name: "inception_4a/relu_5x5"
  type: "ReLU"
  bottom: "inception_4a/5x5"
  top: "inception_4a/5x5"
}
layer {
  name: "inception_4a/pool"
  type: "Pooling"
  bottom: "pool3/3x3_s2"
  top: "inception_4a/pool"
  pooling_param {
    pool: MAX
    kernel_size: 3
    stride: 1
    pad: 1
  }
}
layer {
  name: "inception_4a/pool_proj"
  type: "Convolution"
  bottom: "inception_4a/pool"
  top: "inception_4a/pool_proj"
  param {
    lr_mult: 1
    decay_mult: 1
  }
  param {
    lr_mult: 2
    decay_mult: 0
  }
  convolution_param {
    num_output: 64
    kernel_size: 1
    weight_filler {
      type: "xavier"
    }
    bias_filler {
      type: "constant"
      value: 0.2
    }
  }
}
layer {
  name: "inception_4a/relu_pool_proj"
  type: "ReLU"
  bottom: "inception_4a/pool_proj"
  top: "inception_4a/pool_proj"
}
layer {
  name: "inception_4a/output"
  type: "Concat"
  bottom: "inception_4a/1x1"
  bottom: "inception_4a/3x3"
  bottom: "inception_4a/5x5"
  bottom: "inception_4a/pool_proj"
  top: "inception_4a/output"
}
layer {
  name: "loss1/ave_pool"
  type: "Pooling"
  bottom: "inception_4a/output"
  top: "loss1/ave_pool"
  pooling_param {
    pool: AVE
    kernel_size: 5
    stride: 3
  }
}
layer {
  name: "loss1/conv"
  type: "Convolution"
  bottom: "loss1/ave_pool"
  top: "loss1/conv"
  param {
    lr_mult: 1
    decay_mult: 1
  }
  param {
    lr_mult: 2
    decay_mult: 0
  }
  convolution_param {
    num_output: 128
    kernel_size: 1
    weight_filler {
      type: "xavier"
    }
    bias_filler {
      type: "constant"
      value: 0.2
    }
  }
}
layer {
  name: "loss1/relu_conv"
  type: "ReLU"
  bottom: "loss1/conv"
  top: "loss1/conv"
}
layer {
  name: "loss1/fc"
  type: "InnerProduct"
  bottom: "loss1/conv"
  top: "loss1/fc"
  param {
    lr_mult: 1
    decay_mult: 1
  }
  param {
    lr_mult: 2
    decay_mult: 0
  }
  inner_product_param {
    num_output: 1024
    weight_filler {
      type: "xavier"
    }
    bias_filler {
      type: "constant"
      value: 0.2
    }
  }
}
layer {
  name: "loss1/relu_fc"
  type: "ReLU"
  bottom: "loss1/fc"
  top: "loss1/fc"
}
layer {
  name: "loss1/drop_fc"
  type: "Dropout"
  bottom: "loss1/fc"
  top: "loss1/fc"
  dropout_param {
    dropout_ratio: 0.7
  }
}
layer {
…
I0201 12:13:20.921641 12080 net.cpp:165] Memory required for data: 2190293212
I0201 12:13:20.921648 12080 layer_factory.hpp:77] Creating layer inception_4c/pool
I0201 12:13:20.921659 12080 net.cpp:100] Creating Layer inception_4c/pool
I0201 12:13:20.921667 12080 net.cpp:434] inception_4c/pool <- inception_4b/output_inception_4b/output_0_split_3
I0201 12:13:20.921676 12080 net.cpp:408] inception_4c/pool -> inception_4c/pool
I0201 12:13:20.921689 12080 net.cpp:150] Setting up inception_4c/pool
I0201 12:13:20.921699 12080 net.cpp:157] Top shape: 50 512 14 14 (5017600)
I0201 12:13:20.921705 12080 net.cpp:165] Memory required for data: 2210363612
I0201 12:13:20.921711 12080 layer_factory.hpp:77] Creating layer inception_4c/pool_proj
I0201 12:13:20.921725 12080 net.cpp:100] Creating Layer inception_4c/pool_proj
I0201 12:13:20.921732 12080 net.cpp:434] inception_4c/pool_proj <- inception_4c/pool
I0201 12:13:20.921743 12080 net.cpp:408] inception_4c/pool_proj -> inception_4c/pool_proj
I0201 12:13:20.922044 12080 net.cpp:150] Setting up inception_4c/pool_proj
I0201 12:13:20.922057 12080 net.cpp:157] Top shape: 50 64 14 14 (627200)
I0201 12:13:20.922065 12080 net.cpp:165] Memory required for data: 2212872412
I0201 12:13:20.922073 12080 layer_factory.hpp:77] Creating layer inception_4c/relu_pool_proj
I0201 12:13:20.922083 12080 net.cpp:100] Creating Layer inception_4c/relu_pool_proj
I0201 12:13:20.922091 12080 net.cpp:434] inception_4c/relu_pool_proj <- inception_4c/pool_proj
I0201 12:13:20.922101 12080 net.cpp:395] inception_4c/relu_pool_proj -> inception_4c/pool_proj (in-place)
I0201 12:13:20.922112 12080 net.cpp:150] Setting up inception_4c/relu_pool_proj
I0201 12:13:20.922121 12080 net.cpp:157] Top shape: 50 64 14 14 (627200)
I0201 12:13:20.922127 12080 net.cpp:165] Memory required for data: 2215381212
I0201 12:13:20.922133 12080 layer_factory.hpp:77] Creating layer inception_4c/output
I0201 12:13:20.922142 12080 net.cpp:100] Creating Layer inception_4c/output
I0201 12:13:20.922150 12080 net.cpp:434] inception_4c/output <- inception_4c/1x1
I0201 12:13:20.922158 12080 net.cpp:434] inception_4c/output <- inception_4c/3x3
I0201 12:13:20.922165 12080 net.cpp:434] inception_4c/output <- inception_4c/5x5
I0201 12:13:20.922173 12080 net.cpp:434] inception_4c/output <- inception_4c/pool_proj
I0201 12:13:20.922183 12080 net.cpp:408] inception_4c/output -> inception_4c/output
I0201 12:13:20.922204 12080 net.cpp:150] Setting up inception_4c/output
I0201 12:13:20.922220 12080 net.cpp:157] Top shape: 50 512 14 14 (5017600)
I0201 12:13:20.922226 12080 net.cpp:165] Memory required for data: 2235451612
I0201 12:13:20.922233 12080 layer_factory.hpp:77] Creating layer inception_4c/output_inception_4c/output_0_split
I0201 12:13:20.922243 12080 net.cpp:100] Creating Layer inception_4c/output_inception_4c/output_0_split
I0201 12:13:20.922257 12080 net.cpp:434] inception_4c/output_inception_4c/output_0_split <- inception_4c/output
I0201 12:13:20.922268 12080 net.cpp:408] inception_4c/output_inception_4c/output_0_split -> inception_4c/output_inception_4c/output_0_split_0
I0201 12:13:20.922281 12080 net.cpp:408] inception_4c/output_inception_4c/output_0_split -> inception_4c/output_inception_4c/output_0_split_1
I0201 12:13:20.922292 12080 net.cpp:408] inception_4c/output_inception_4c/output_0_split -> inception_4c/output_inception_4c/output_0_split_2
I0201 12:13:20.922303 12080 net.cpp:408] inception_4c/output_inception_4c/output_0_split -> inception_4c/output_inception_4c/output_0_split_3
I0201 12:13:20.922315 12080 net.cpp:150] Setting up inception_4c/output_inception_4c/output_0_split
I0201 12:13:20.922323 12080 net.cpp:157] Top shape: 50 512 14 14 (5017600)
I0201 12:13:20.922333 12080 net.cpp:157] Top shape: 50 512 14 14 (5017600)
I0201 12:13:20.922341 12080 net.cpp:157] Top shape: 50 512 14 14 (5017600)
I0201 12:13:20.922349 12080 net.cpp:157] Top shape: 50 512 14 14 (5017600)
I0201 12:13:20.922355 12080 net.cpp:165] Memory required for data: 2315733212
I0201 12:13:20.922363 12080 layer_factory.hpp:77] Creating layer inception_4d/1x1
I0201 12:13:20.922374 12080 net.cpp:100] Creating Layer inception_4d/1x1
I0201 12:13:20.922380 12080 net.cpp:434] inception_4d/1x1 <- inception_4c/output_inception_4c/output_0_split_0
I0201 12:13:20.922392 12080 net.cpp:408] inception_4d/1x1 -> inception_4d/1x1
I0201 12:13:20.922914 12080 net.cpp:150] Setting up inception_4d/1x1
I0201 12:13:20.922926 12080 net.cpp:157] Top shape: 50 112 14 14 (1097600)
I0201 12:13:20.922933 12080 net.cpp:165] Memory required for data: 2320123612
I0201 12:13:20.922942 12080 layer_factory.hpp:77] Creating layer inception_4d/relu_1x1
I0201 12:13:20.922955 12080 net.cpp:100] Creating Layer inception_4d/relu_1x1
I0201 12:13:20.922962 12080 net.cpp:434] inception_4d/relu_1x1 <- inception_4d/1x1
I0201 12:13:20.922971 12080 net.cpp:395] inception_4d/relu_1x1 -> inception_4d/1x1 (in-place)
I0201 12:13:20.922981 12080 net.cpp:150] Setting up inception_4d/relu_1x1
I0201 12:13:20.922989 12080 net.cpp:157] Top shape: 50 112 14 14 (1097600)
I0201 12:13:20.922996 12080 net.cpp:165] Memory required for data: 2324514012
I0201 12:13:20.923002 12080 layer_factory.hpp:77] Creating layer inception_4d/3x3_reduce
I0201 12:13:20.923015 12080 net.cpp:100] Creating Layer inception_4d/3x3_reduce
I0201 12:13:20.923023 12080 net.cpp:434] inception_4d/3x3_reduce <- inception_4c/output_inception_4c/output_0_split_1
I0201 12:13:20.923035 12080 net.cpp:408] inception_4d/3x3_reduce -> inception_4d/3x3_reduce
I0201 12:13:20.923701 12080 net.cpp:150] Setting up inception_4d/3x3_reduce
I0201 12:13:20.923715 12080 net.cpp:157] Top shape: 50 144 14 14 (1411200)
I0201 12:13:20.923722 12080 net.cpp:165] Memory required for data: 2330158812
I0201 12:13:20.923732 12080 layer_factory.hpp:77] Creating layer inception_4d/relu_3x3_reduce
I0201 12:13:20.923740 12080 net.cpp:100] Creating Layer inception_4d/relu_3x3_reduce
I0201 12:13:20.923748 12080 net.cpp:434] inception_4d/relu_3x3_reduce <- inception_4d/3x3_reduce
I0201 12:13:20.923758 12080 net.cpp:395] inception_4d/relu_3x3_reduce -> inception_4d/3x3_reduce (in-place)
I0201 12:13:20.923769 12080 net.cpp:150] Setting up inception_4d/relu_3x3_reduce
I0201 12:13:20.923777 12080 net.cpp:157] Top shape: 50 144 14 14 (1411200)
I0201 12:13:20.923784 12080 net.cpp:165] Memory required for data: 2335803612
I0201 12:13:20.923790 12080 layer_factory.hpp:77] Creating layer inception_4d/3x3
I0201 12:13:20.923802 12080 net.cpp:100] Creating Layer inception_4d/3x3
I0201 12:13:20.923822 12080 net.cpp:434] inception_4d/3x3 <- inception_4d/3x3_reduce
I0201 12:13:20.923832 12080 net.cpp:408] inception_4d/3x3 -> inception_4d/3x3
I0201 12:13:20.927309 12080 net.cpp:150] Setting up inception_4d/3x3
I0201 12:13:20.927328 12080 net.cpp:157] Top shape: 50 288 14 14 (2822400)
I0201 12:13:20.927335 12080 net.cpp:165] Memory required for data: 2347093212
I0201 12:13:20.927345 12080 layer_factory.hpp:77] Creating layer inception_4d/relu_3x3
I0201 12:13:20.927359 12080 net.cpp:100] Creating Layer inception_4d/relu_3x3
I0201 12:13:20.927368 12080 net.cpp:434] inception_4d/relu_3x3 <- inception_4d/3x3
I0201 12:13:20.927377 12080 net.cpp:395] inception_4d/relu_3x3 -> inception_4d/3x3 (in-place)
I0201 12:13:20.927389 12080 net.cpp:150] Setting up inception_4d/relu_3x3
I0201 12:13:20.927398 12080 net.cpp:157] Top shape: 50 288 14 14 (2822400)
I0201 12:13:20.927404 12080 net.cpp:165] Memory required for data: 2358382812
I0201 12:13:20.927412 12080 layer_factory.hpp:77] Creating layer inception_4d/5x5_reduce
I0201 12:13:20.927423 12080 net.cpp:100] Creating Layer inception_4d/5x5_reduce
I0201 12:13:20.927429 12080 net.cpp:434] inception_4d/5x5_reduce <- inception_4c/output_inception_4c/output_0_split_2
I0201 12:13:20.927441 12080 net.cpp:408] inception_4d/5x5_reduce -> inception_4d/5x5_reduce
I0201 12:13:20.927594 12080 net.cpp:150] Setting up inception_4d/5x5_reduce
I0201 12:13:20.927606 12080 net.cpp:157] Top shape: 50 32 14 14 (313600)
I0201 12:13:20.927613 12080 net.cpp:165] Memory required for data: 2359637212
I0201 12:13:20.927621 12080 layer_factory.hpp:77] Creating layer inception_4d/relu_5x5_reduce
I0201 12:13:20.927631 12080 net.cpp:100] Creating Layer inception_4d/relu_5x5_reduce
I0201 12:13:20.927641 12080 net.cpp:434] inception_4d/relu_5x5_reduce <- inception_4d/5x5_reduce
I0201 12:13:20.927649 12080 net.cpp:395] inception_4d/relu_5x5_reduce -> inception_4d/5x5_reduce (in-place)
I0201 12:13:20.927659 12080 net.cpp:150] Setting up inception_4d/relu_5x5_reduce
I0201 12:13:20.927667 12080 net.cpp:157] Top shape: 50 32 14 14 (313600)
I0201 12:13:20.927675 12080 net.cpp:165] Memory required for data: 2360891612
I0201 12:13:20.927680 12080 layer_factory.hpp:77] Creating layer inception_4d/5x5
I0201 12:13:20.927693 12080 net.cpp:100] Creating Layer inception_4d/5x5
I0201 12:13:20.927701 12080 net.cpp:434] inception_4d/5x5 <- inception_4d/5x5_reduce
I0201 12:13:20.927712 12080 net.cpp:408] inception_4d/5x5 -> inception_4d/5x5
I0201 12:13:20.928177 12080 net.cpp:150] Setting up inception_4d/5x5
I0201 12:13:20.928194 12080 net.cpp:157] Top shape: 50 64 14 14 (627200)
I0201 12:13:20.928200 12080 net.cpp:165] Memory required for data: 2363400412
I0201 12:13:20.928210 12080 layer_factory.hpp:77] Creating layer inception_4d/relu_5x5
I0201 12:13:20.928220 12080 net.cpp:100] Creating Layer inception_4d/relu_5x5
I0201 12:13:20.928226 12080 net.cpp:434] inception_4d/relu_5x5 <- inception_4d/5x5
I0201 12:13:20.928236 12080 net.cpp:395] inception_4d/relu_5x5 -> inception_4d/5x5 (in-place)
I0201 12:13:20.928244 12080 net.cpp:150] Setting up inception_4d/relu_5x5
I0201 12:13:20.928261 12080 net.cpp:157] Top shape: 50 64 14 14 (627200)
I0201 12:13:20.928267 12080 net.cpp:165] Memory required for data: 2365909212
I0201 12:13:20.928273 12080 layer_factory.hpp:77] Creating layer inception_4d/pool
I0201 12:13:20.928287 12080 net.cpp:100] Creating Layer inception_4d/pool
I0201 12:13:20.928294 12080 net.cpp:434] inception_4d/pool <- inception_4c/output_inception_4c/output_0_split_3
I0201 12:13:20.928303 12080 net.cpp:408] inception_4d/pool -> inception_4d/pool
I0201 12:13:20.928316 12080 net.cpp:150] Setting up inception_4d/pool
I0201 12:13:20.928324 12080 net.cpp:157] Top shape: 50 512 14 14 (5017600)
I0201 12:13:20.928331 12080 net.cpp:165] Memory required for data: 2385979612
I0201 12:13:20.928338 12080 layer_factory.hpp:77] Creating layer inception_4d/pool_proj
I0201 12:13:20.928351 12080 net.cpp:100] Creating Layer inception_4d/pool_proj
I0201 12:13:20.928359 12080 net.cpp:434] inception_4d/pool_proj <- inception_4d/pool
I0201 12:13:20.928390 12080 net.cpp:408] inception_4d/pool_proj -> inception_4d/pool_proj
I0201 12:13:20.928721 12080 net.cpp:150] Setting up inception_4d/pool_proj
I0201 12:13:20.928735 12080 net.cpp:157] Top shape: 50 64 14 14 (627200)
I0201 12:13:20.928741 12080 net.cpp:165] Memory required for data: 2388488412
I0201 12:13:20.928750 12080 layer_factory.hpp:77] Creating layer inception_4d/relu_pool_proj
I0201 12:13:20.928761 12080 net.cpp:100] Creating Layer inception_4d/relu_pool_proj
I0201 12:13:20.928771 12080 net.cpp:434] inception_4d/relu_pool_proj <- inception_4d/pool_proj
I0201 12:13:20.928781 12080 net.cpp:395] inception_4d/relu_pool_proj -> inception_4d/pool_proj (in-place)
I0201 12:13:20.928791 12080 net.cpp:150] Setting up inception_4d/relu_pool_proj
I0201 12:13:20.928798 12080 net.cpp:157] Top shape: 50 64 14 14 (627200)
I0201 12:13:20.928805 12080 net.cpp:165] Memory required for data: 2390997212
I0201 12:13:20.928812 12080 layer_factory.hpp:77] Creating layer inception_4d/output
I0201 12:13:20.928820 12080 net.cpp:100] Creating Layer inception_4d/output
I0201 12:13:20.928828 12080 net.cpp:434] inception_4d/output <- inception_4d/1x1
I0201 12:13:20.928835 12080 net.cpp:434] inception_4d/output <- inception_4d/3x3
I0201 12:13:20.928843 12080 net.cpp:434] inception_4d/output <- inception_4d/5x5
I0201 12:13:20.928850 12080 net.cpp:434] inception_4d/output <- inception_4d/pool_proj
I0201 12:13:20.928863 12080 net.cpp:408] inception_4d/output -> inception_4d/output
I0201 12:13:20.928875 12080 net.cpp:150] Setting up inception_4d/output
I0201 12:13:20.928884 12080 net.cpp:157] Top shape: 50 528 14 14 (5174400)
I0201 12:13:20.928890 12080 net.cpp:165] Memory required for data: 2411694812
I0201 12:13:20.928897 12080 layer_factory.hpp:77] Creating layer inception_4d/output_inception_4d/output_0_split
I0201 12:13:20.928910 12080 net.cpp:100] Creating Layer inception_4d/output_inception_4d/output_0_split
I0201 12:13:20.928916 12080 net.cpp:434] inception_4d/output_inception_4d/output_0_split <- inception_4d/output
I0201 12:13:20.928928 12080 net.cpp:408] inception_4d/output_inception_4d/output_0_split -> inception_4d/output_inception_4d/output_0_split_0
I0201 12:13:20.928941 12080 net.cpp:408] inception_4d/output_inception_4d/output_0_split -> inception_4d/output_inception_4d/output_0_split_1
I0201 12:13:20.928951 12080 net.cpp:408] inception_4d/output_inception_4d/output_0_split -> inception_4d/output_inception_4d/output_0_split_2
I0201 12:13:20.928961 12080 net.cpp:408] inception_4d/output_inception_4d/output_0_split -> inception_4d/output_inception_4d/output_0_split_3
I0201 12:13:20.928972 12080 net.cpp:408] inception_4d/output_inception_4d/output_0_split -> inception_4d/output_inception_4d/output_0_split_4
I0201 12:13:20.928983 12080 net.cpp:150] Setting up inception_4d/output_inception_4d/output_0_split
I0201 12:13:20.928992 12080 net.cpp:157] Top shape: 50 528 14 14 (5174400)
I0201 12:13:20.928999 12080 net.cpp:157] Top shape: 50 528 14 14 (5174400)
I0201 12:13:20.929008 12080 net.cpp:157] Top shape: 50 528 14 14 (5174400)
I0201 12:13:20.929014 12080 net.cpp:157] Top shape: 50 528 14 14 (5174400)
I0201 12:13:20.929021 12080 net.cpp:157] Top shape: 50 528 14 14 (5174400)
I0201 12:13:20.929028 12080 net.cpp:165] Memory required for data: 2515182812
I0201 12:13:20.929035 12080 layer_factory.hpp:77] Creating layer loss2/ave_pool
I0201 12:13:20.929049 12080 net.cpp:100] Creating Layer loss2/ave_pool
I0201 12:13:20.929056 12080 net.cpp:434] loss2/ave_pool <- inception_4d/output_inception_4d/output_0_split_0
I0201 12:13:20.929069 12080 net.cpp:408] loss2/ave_pool -> loss2/ave_pool
I0201 12:13:20.929080 12080 net.cpp:150] Setting up loss2/ave_pool
I0201 12:13:20.929090 12080 net.cpp:157] Top shape: 50 528 4 4 (422400)
I0201 12:13:20.929095 12080 net.cpp:165] Memory required for data: 2516872412
I0201 12:13:20.929102 12080 layer_factory.hpp:77] Creating layer loss2/conv
I0201 12:13:20.929116 12080 net.cpp:100] Creating Layer loss2/conv
I0201 12:13:20.929124 12080 net.cpp:434] loss2/conv <- loss2/ave_pool
I0201 12:13:20.929143 12080 net.cpp:408] loss2/conv -> loss2/conv
I0201 12:13:20.929781 12080 net.cpp:150] Setting up loss2/conv
I0201 12:13:20.929796 12080 net.cpp:157] Top shape: 50 128 4 4 (102400)
I0201 12:13:20.929802 12080 net.cpp:165] Memory required for data: 2517282012
I0201 12:13:20.929812 12080 layer_factory.hpp:77] Creating layer loss2/relu_conv
I0201 12:13:20.929824 12080 net.cpp:100] Creating Layer loss2/relu_conv
I0201 12:13:20.929832 12080 net.cpp:434] loss2/relu_conv <- loss2/conv
I0201 12:13:20.929841 12080 net.cpp:395] loss2/relu_conv -> loss2/conv (in-place)
I0201 12:13:20.929852 12080 net.cpp:150] Setting up loss2/relu_conv
I0201 12:13:20.929859 12080 net.cpp:157] Top shape: 50 128 4 4 (102400)
I0201 12:13:20.929867 12080 net.cpp:165] Memory required for data: 2517691612
I0201 12:13:20.929872 12080 layer_factory.hpp:77] Creating layer loss2/fc
I0201 12:13:20.929886 12080 net.cpp:100] Creating Layer loss2/fc
I0201 12:13:20.929894 12080 net.cpp:434] loss2/fc <- loss2/conv
I0201 12:13:20.929905 12080 net.cpp:408] loss2/fc -> loss2/fc
I0201 12:13:20.947830 12080 net.cpp:150] Setting up loss2/fc
I0201 12:13:20.947917 12080 net.cpp:157] Top shape: 50 1024 (51200)
I0201 12:13:20.947924 12080 net.cpp:165] Memory required for data: 2517896412
I0201 12:13:20.947943 12080 layer_factory.hpp:77] Creating layer loss2/relu_fc
I0201 12:13:20.947968 12080 net.cpp:100] Creating Layer loss2/relu_fc
I0201 12:13:20.947978 12080 net.cpp:434] loss2/relu_fc <- loss2/fc
I0201 12:13:20.947999 12080 net.cpp:395] loss2/relu_fc -> loss2/fc (in-place)
I0201 12:13:20.948021 12080 net.cpp:150] Setting up loss2/relu_fc
I0201 12:13:20.948029 12080 net.cpp:157] Top shape: 50 1024 (51200)
I0201 12:13:20.948036 12080 net.cpp:165] Memory required for data: 2518101212
I0201 12:13:20.948043 12080 layer_factory.hpp:77] Creating layer loss2/drop_fc
I0201 12:13:20.948056 12080 net.cpp:100] Creating Layer loss2/drop_fc
I0201 12:13:20.948063 12080 net.cpp:434] loss2/drop_fc <- loss2/fc
I0201 12:13:20.948072 12080 net.cpp:395] loss2/drop_fc -> loss2/fc (in-place)
I0201 12:13:20.948086 12080 net.cpp:150] Setting up loss2/drop_fc
I0201 12:13:20.948096 12080 net.cpp:157] Top shape: 50 1024 (51200)
I0201 12:13:20.948101 12080 net.cpp:165] Memory required for data: 2518306012
I0201 12:13:20.948108 12080 layer_factory.hpp:77] Creating layer loss2/classifier
I0201 12:13:20.948122 12080 net.cpp:100] Creating Layer loss2/classifier
I0201 12:13:20.948130 12080 net.cpp:434] loss2/classifier <- loss2/fc
I0201 12:13:20.948144 12080 net.cpp:408] loss2/classifier -> loss2/classifier
I0201 12:13:20.957636 12080 net.cpp:150] Setting up loss2/classifier
I0201 12:13:20.957706 12080 net.cpp:157] Top shape: 50 1000 (50000)
I0201 12:13:20.957713 12080 net.cpp:165] Memory required for data: 2518506012
I0201 12:13:20.957729 12080 layer_factory.hpp:77] Creating layer loss2/classifier_loss2/classifier_0_split
I0201 12:13:20.957751 12080 net.cpp:100] Creating Layer loss2/classifier_loss2/classifier_0_split
I0201 12:13:20.957762 12080 net.cpp:434] loss2/classifier_loss2/classifier_0_split <- loss2/classifier
I0201 12:13:20.957778 12080 net.cpp:408] loss2/classifier_loss2/classifier_0_split -> loss2/classifier_loss2/classifier_0_split_0
I0201 12:13:20.957799 12080 net.cpp:408] loss2/classifier_loss2/classifier_0_split -> loss2/classifier_loss2/classifier_0_split_1
I0201 12:13:20.957811 12080 net.cpp:408] loss2/classifier_loss2/classifier_0_split -> loss2/classifier_loss2/classifier_0_split_2
I0201 12:13:20.957826 12080 net.cpp:150] Setting up loss2/classifier_loss2/classifier_0_split
I0201 12:13:20.957834 12080 net.cpp:157] Top shape: 50 1000 (50000)
I0201 12:13:20.957842 12080 net.cpp:157] Top shape: 50 1000 (50000)
I0201 12:13:20.957849 12080 net.cpp:157] Top shape: 50 1000 (50000)
I0201 12:13:20.957856 12080 net.cpp:165] Memory required for data: 2519106012
I0201 12:13:20.957864 12080 layer_factory.hpp:77] Creating layer loss2/loss
I0201 12:13:20.957875 12080 net.cpp:100] Creating Layer loss2/loss
I0201 12:13:20.957883 12080 net.cpp:434] loss2/loss <- loss2/classifier_loss2/classifier_0_split_0
I0201 12:13:20.957934 12080 net.cpp:434] loss2/loss <- label_data_1_split_3
…
I0201 12:13:20.958297 12080 net.cpp:150] Setting up loss2/top-5
I0201 12:13:20.958307 12080 net.cpp:157] Top shape: (1)
I0201 12:13:20.958312 12080 net.cpp:165] Memory required for data: 2519106024
I0201 12:13:20.958319 12080 layer_factory.hpp:77] Creating layer inception_4e/1x1
I0201 12:13:20.958338 12080 net.cpp:100] Creating Layer inception_4e/1x1
I0201 12:13:20.958346 12080 net.cpp:434] inception_4e/1x1 <- inception_4d/output_inception_4d/output_0_split_1
I0201 12:13:20.958356 12080 net.cpp:408] inception_4e/1x1 -> inception_4e/1x1
I0201 12:13:20.959559 12080 net.cpp:150] Setting up inception_4e/1x1
I0201 12:13:20.959574 12080 net.cpp:157] Top shape: 50 256 14 14 (2508800)
I0201 12:13:20.959581 12080 net.cpp:165] Memory required for data: 2529141224
I0201 12:13:20.959591 12080 layer_factory.hpp:77] Creating layer inception_4e/relu_1x1
I0201 12:13:20.959614 12080 net.cpp:100] Creating Layer inception_4e/relu_1x1
I0201 12:13:20.959622 12080 net.cpp:434] inception_4e/relu_1x1 <- inception_4e/1x1
I0201 12:13:20.959632 12080 net.cpp:395] inception_4e/relu_1x1 -> inception_4e/1x1 (in-place)
I0201 12:13:20.959643 12080 net.cpp:150] Setting up inception_4e/relu_1x1
I0201 12:13:20.959651 12080 net.cpp:157] Top shape: 50 256 14 14 (2508800)
I0201 12:13:20.959658 12080 net.cpp:165] Memory required for data: 2539176424
I0201 12:13:20.959666 12080 layer_factory.hpp:77] Creating layer inception_4e/3x3_reduce
I0201 12:13:20.959698 12080 net.cpp:100] Creating Layer inception_4e/3x3_reduce
I0201 12:13:20.959707 12080 net.cpp:434] inception_4e/3x3_reduce <- inception_4d/output_inception_4d/output_0_split_2
I0201 12:13:20.959720 12080 net.cpp:408] inception_4e/3x3_reduce -> inception_4e/3x3_reduce
I0201 12:13:20.960476 12080 net.cpp:150] Setting up inception_4e/3x3_reduce
I0201 12:13:20.960491 12080 net.cpp:157] Top shape: 50 160 14 14 (1568000)
I0201 12:13:20.960497 12080 net.cpp:165] Memory required for data: 2545448424
I0201 12:13:20.960507 12080 layer_factory.hpp:77] Creating layer inception_4e/relu_3x3_reduce
I0201 12:13:20.960517 12080 net.cpp:100] Creating Layer inception_4e/relu_3x3_reduce
I0201 12:13:20.960525 12080 net.cpp:434] inception_4e/relu_3x3_reduce <- inception_4e/3x3_reduce
I0201 12:13:20.960533 12080 net.cpp:395] inception_4e/relu_3x3_reduce -> inception_4e/3x3_reduce (in-place)
I0201 12:13:20.960543 12080 net.cpp:150] Setting up inception_4e/relu_3x3_reduce
I0201 12:13:20.960551 12080 net.cpp:157] Top shape: 50 160 14 14 (1568000)
I0201 12:13:20.960558 12080 net.cpp:165] Memory required for data: 2551720424
I0201 12:13:20.960566 12080 layer_factory.hpp:77] Creating layer inception_4e/3x3
I0201 12:13:20.960592 12080 net.cpp:100] Creating Layer inception_4e/3x3
I0201 12:13:20.960602 12080 net.cpp:434] inception_4e/3x3 <- inception_4e/3x3_reduce
I0201 12:13:20.960613 12080 net.cpp:408] inception_4e/3x3 -> inception_4e/3x3
I0201 12:13:20.964784 12080 net.cpp:150] Setting up inception_4e/3x3
I0201 12:13:20.964799 12080 net.cpp:157] Top shape: 50 320 14 14 (3136000)
I0201 12:13:20.964807 12080 net.cpp:165] Memory required for data: 2564264424
I0201 12:13:20.964815 12080 layer_factory.hpp:77] Creating layer inception_4e/relu_3x3
I0201 12:13:20.964825 12080 net.cpp:100] Creating Layer inception_4e/relu_3x3
I0201 12:13:20.964833 12080 net.cpp:434] inception_4e/relu_3x3 <- inception_4e/3x3
I0201 12:13:20.964841 12080 net.cpp:395] inception_4e/relu_3x3 -> inception_4e/3x3 (in-place)
I0201 12:13:20.964851 12080 net.cpp:150] Setting up inception_4e/relu_3x3
I0201 12:13:20.964859 12080 net.cpp:157] Top shape: 50 320 14 14 (3136000)
I0201 12:13:20.964866 12080 net.cpp:165] Memory required for data: 2576808424
I0201 12:13:20.964872 12080 layer_factory.hpp:77] Creating layer inception_4e/5x5_reduce
I0201 12:13:20.964890 12080 net.cpp:100] Creating Layer inception_4e/5x5_reduce
I0201 12:13:20.964897 12080 net.cpp:434] inception_4e/5x5_reduce <- inception_4d/output_inception_4d/output_0_split_3
I0201 12:13:20.964907 12080 net.cpp:408] inception_4e/5x5_reduce -> inception_4e/5x5_reduce
I0201 12:13:20.965068 12080 net.cpp:150] Setting up inception_4e/5x5_reduce
I0201 12:13:20.965080 12080 net.cpp:157] Top shape: 50 32 14 14 (313600)
I0201 12:13:20.965087 12080 net.cpp:165] Memory required for data: 2578062824
I0201 12:13:20.965096 12080 layer_factory.hpp:77] Creating layer inception_4e/relu_5x5_reduce
I0201 12:13:20.965106 12080 net.cpp:100] Creating Layer inception_4e/relu_5x5_reduce
I0201 12:13:20.965116 12080 net.cpp:434] inception_4e/relu_5x5_reduce <- inception_4e/5x5_reduce
I0201 12:13:20.965124 12080 net.cpp:395] inception_4e/relu_5x5_reduce -> inception_4e/5x5_reduce (in-place)
I0201 12:13:20.965134 12080 net.cpp:150] Setting up inception_4e/relu_5x5_reduce
I0201 12:13:20.965142 12080 net.cpp:157] Top shape: 50 32 14 14 (313600)
I0201 12:13:20.965149 12080 net.cpp:165] Memory required for data: 2579317224
I0201 12:13:20.965157 12080 layer_factory.hpp:77] Creating layer inception_4e/5x5
I0201 12:13:20.965169 12080 net.cpp:100] Creating Layer inception_4e/5x5
I0201 12:13:20.965176 12080 net.cpp:434] inception_4e/5x5 <- inception_4e/5x5_reduce
I0201 12:13:20.965188 12080 net.cpp:408] inception_4e/5x5 -> inception_4e/5x5
I0201 12:13:20.966080 12080 net.cpp:150] Setting up inception_4e/5x5
I0201 12:13:20.966095 12080 net.cpp:157] Top shape: 50 128 14 14 (1254400)
I0201 12:13:20.966101 12080 net.cpp:165] Memory required for data: 2584334824
I0201 12:13:20.966111 12080 layer_factory.hpp:77] Creating layer inception_4e/relu_5x5
I0201 12:13:20.966120 12080 net.cpp:100] Creating Layer inception_4e/relu_5x5
I0201 12:13:20.966128 12080 net.cpp:434] inception_4e/relu_5x5 <- inception_4e/5x5
I0201 12:13:20.966136 12080 net.cpp:395] inception_4e/relu_5x5 -> inception_4e/5x5 (in-place)
I0201 12:13:20.966146 12080 net.cpp:150] Setting up inception_4e/relu_5x5
I0201 12:13:20.966154 12080 net.cpp:157] Top shape: 50 128 14 14 (1254400)
I0201 12:13:20.966161 12080 net.cpp:165] Memory required for data: 2589352424
I0201 12:13:20.966167 12080 layer_factory.hpp:77] Creating layer inception_4e/pool
I0201 12:13:20.966195 12080 net.cpp:100] Creating Layer inception_4e/pool
I0201 12:13:20.966203 12080 net.cpp:434] inception_4e/pool <- inception_4d/output_inception_4d/output_0_split_4
I0201 12:13:20.966212 12080 net.cpp:408] inception_4e/pool -> inception_4e/pool
I0201 12:13:20.966228 12080 net.cpp:150] Setting up inception_4e/pool
I0201 12:13:20.966238 12080 net.cpp:157] Top shape: 50 528 14 14 (5174400)
I0201 12:13:20.966245 12080 net.cpp:165] Memory required for data: 2610050024
I0201 12:13:20.966259 12080 layer_factory.hpp:77] Creating layer inception_4e/pool_proj
I0201 12:13:20.966271 12080 net.cpp:100] Creating Layer inception_4e/pool_proj
I0201 12:13:20.966291 12080 net.cpp:434] inception_4e/pool_proj <- inception_4e/pool
I0201 12:13:20.966305 12080 net.cpp:408] inception_4e/pool_proj -> inception_4e/pool_proj
I0201 12:13:20.966904 12080 net.cpp:150] Setting up inception_4e/pool_proj
I0201 12:13:20.966918 12080 net.cpp:157] Top shape: 50 128 14 14 (1254400)
I0201 12:13:20.966925 12080 net.cpp:165] Memory required for data: 2615067624
I0201 12:13:20.966934 12080 layer_factory.hpp:77] Creating layer inception_4e/relu_pool_proj
I0201 12:13:20.966946 12080 net.cpp:100] Creating Layer inception_4e/relu_pool_proj
I0201 12:13:20.966954 12080 net.cpp:434] inception_4e/relu_pool_proj <- inception_4e/pool_proj
I0201 12:13:20.966962 12080 net.cpp:395] inception_4e/relu_pool_proj -> inception_4e/pool_proj (in-place)
I0201 12:13:20.966972 12080 net.cpp:150] Setting up inception_4e/relu_pool_proj
I0201 12:13:20.966981 12080 net.cpp:157] Top shape: 50 128 14 14 (1254400)
I0201 12:13:20.966987 12080 net.cpp:165] Memory required for data: 2620085224
I0201 12:13:20.966995 12080 layer_factory.hpp:77] Creating layer inception_4e/output
I0201 12:13:20.967003 12080 net.cpp:100] Creating Layer inception_4e/output
I0201 12:13:20.967010 12080 net.cpp:434] inception_4e/output <- inception_4e/1x1
I0201 12:13:20.967018 12080 net.cpp:434] inception_4e/output <- inception_4e/3x3
I0201 12:13:20.967026 12080 net.cpp:434] inception_4e/output <- inception_4e/5x5
I0201 12:13:20.967033 12080 net.cpp:434] inception_4e/output <- inception_4e/pool_proj
I0201 12:13:20.967044 12080 net.cpp:408] inception_4e/output -> inception_4e/output
I0201 12:13:20.967058 12080 net.cpp:150] Setting up inception_4e/output
I0201 12:13:20.967067 12080 net.cpp:157] Top shape: 50 832 14 14 (8153600)
I0201 12:13:20.967074 12080 net.cpp:165] Memory required for data: 2652699624
I0201 12:13:20.967080 12080 layer_factory.hpp:77] Creating layer pool4/3x3_s2
I0201 12:13:20.967089 12080 net.cpp:100] Creating Layer pool4/3x3_s2
I0201 12:13:20.967097 12080 net.cpp:434] pool4/3x3_s2 <- inception_4e/output
I0201 12:13:20.967108 12080 net.cpp:408] pool4/3x3_s2 -> pool4/3x3_s2
I0201 12:13:20.967128 12080 net.cpp:150] Setting up pool4/3x3_s2
I0201 12:13:20.967136 12080 net.cpp:157] Top shape: 50 832 7 7 (2038400)
I0201 12:13:20.967142 12080 net.cpp:165] Memory required for data: 2660853224
I0201 12:13:20.967149 12080 layer_factory.hpp:77] Creating layer pool4/3x3_s2_pool4/3x3_s2_0_split
I0201 12:13:20.967159 12080 net.cpp:100] Creating Layer pool4/3x3_s2_pool4/3x3_s2_0_split
I0201 12:13:20.967165 12080 net.cpp:434] pool4/3x3_s2_pool4/3x3_s2_0_split <- pool4/3x3_s2
I0201 12:13:20.967176 12080 net.cpp:408] pool4/3x3_s2_pool4/3x3_s2_0_split -> pool4/3x3_s2_pool4/3x3_s2_0_split_0
I0201 12:13:20.967187 12080 net.cpp:408] pool4/3x3_s2_pool4/3x3_s2_0_split -> pool4/3x3_s2_pool4/3x3_s2_0_split_1
I0201 12:13:20.967197 12080 net.cpp:408] pool4/3x3_s2_pool4/3x3_s2_0_split -> pool4/3x3_s2_pool4/3x3_s2_0_split_2
I0201 12:13:20.967227 12080 net.cpp:408] pool4/3x3_s2_pool4/3x3_s2_0_split -> pool4/3x3_s2_pool4/3x3_s2_0_split_3
I0201 12:13:20.967239 12080 net.cpp:150] Setting up pool4/3x3_s2_pool4/3x3_s2_0_split
I0201 12:13:20.967257 12080 net.cpp:157] Top shape: 50 832 7 7 (2038400)
I0201 12:13:20.967267 12080 net.cpp:157] Top shape: 50 832 7 7 (2038400)
I0201 12:13:20.967274 12080 net.cpp:157] Top shape: 50 832 7 7 (2038400)
I0201 12:13:20.967283 12080 net.cpp:157] Top shape: 50 832 7 7 (2038400)
I0201 12:13:20.967288 12080 net.cpp:165] Memory required for data: 2693467624
I0201 12:13:20.967295 12080 layer_factory.hpp:77] Creating layer inception_5a/1x1
I0201 12:13:20.967309 12080 net.cpp:100] Creating Layer inception_5a/1x1
I0201 12:13:20.967317 12080 net.cpp:434] inception_5a/1x1 <- pool4/3x3_s2_pool4/3x3_s2_0_split_0
I0201 12:13:20.967329 12080 net.cpp:408] inception_5a/1x1 -> inception_5a/1x1
I0201 12:13:20.969195 12080 net.cpp:150] Setting up inception_5a/1x1
I0201 12:13:20.969210 12080 net.cpp:157] Top shape: 50 256 7 7 (627200)
I0201 12:13:20.969218 12080 net.cpp:165] Memory required for data: 2695976424
I0201 12:13:20.969233 12080 layer_factory.hpp:77] Creating layer inception_5a/relu_1x1
I0201 12:13:20.969265 12080 net.cpp:100] Creating Layer inception_5a/relu_1x1
I0201 12:13:20.969274 12080 net.cpp:434] inception_5a/relu_1x1 <- inception_5a/1x1
I0201 12:13:20.969283 12080 net.cpp:395] inception_5a/relu_1x1 -> inception_5a/1x1 (in-place)
I0201 12:13:20.969293 12080 net.cpp:150] Setting up inception_5a/relu_1x1
I0201 12:13:20.969301 12080 net.cpp:157] Top shape: 50 256 7 7 (627200)
I0201 12:13:20.969307 12080 net.cpp:165] Memory required for data: 2698485224
I0201 12:13:20.969314 12080 layer_factory.hpp:77] Creating layer inception_5a/3x3_reduce
I0201 12:13:20.969328 12080 net.cpp:100] Creating Layer inception_5a/3x3_reduce
I0201 12:13:20.969336 12080 net.cpp:434] inception_5a/3x3_reduce <- pool4/3x3_s2_pool4/3x3_s2_0_split_1
I0201 12:13:20.969347 12080 net.cpp:408] inception_5a/3x3_reduce -> inception_5a/3x3_reduce
I0201 12:13:20.970531 12080 net.cpp:150] Setting up inception_5a/3x3_reduce
I0201 12:13:20.970546 12080 net.cpp:157] Top shape: 50 160 7 7 (392000)
I0201 12:13:20.970552 12080 net.cpp:165] Memory required for data: 2700053224
I0201 12:13:20.970562 12080 layer_factory.hpp:77] Creating layer inception_5a/relu_3x3_reduce
I0201 12:13:20.970571 12080 net.cpp:100] Creating Layer inception_5a/relu_3x3_reduce
I0201 12:13:20.970579 12080 net.cpp:434] inception_5a/relu_3x3_reduce <- inception_5a/3x3_reduce
I0201 12:13:20.970587 12080 net.cpp:395] inception_5a/relu_3x3_reduce -> inception_5a/3x3_reduce (in-place)
I0201 12:13:20.970598 12080 net.cpp:150] Setting up inception_5a/relu_3x3_reduce
I0201 12:13:20.970607 12080 net.cpp:157] Top shape: 50 160 7 7 (392000)
I0201 12:13:20.970613 12080 net.cpp:165] Memory required for data: 2701621224
I0201 12:13:20.970619 12080 layer_factory.hpp:77] Creating layer inception_5a/3x3
I0201 12:13:20.970633 12080 net.cpp:100] Creating Layer inception_5a/3x3
I0201 12:13:20.970640 12080 net.cpp:434] inception_5a/3x3 <- inception_5a/3x3_reduce
I0201 12:13:20.970650 12080 net.cpp:408] inception_5a/3x3 -> inception_5a/3x3
I0201 12:13:20.974819 12080 net.cpp:150] Setting up inception_5a/3x3
I0201 12:13:20.974834 12080 net.cpp:157] Top shape: 50 320 7 7 (784000)
I0201 12:13:20.974840 12080 net.cpp:165] Memory required for data: 2704757224
I0201 12:13:20.974850 12080 layer_factory.hpp:77] Creating layer inception_5a/relu_3x3
I0201 12:13:20.974862 12080 net.cpp:100] Creating Layer inception_5a/relu_3x3
I0201 12:13:20.974870 12080 net.cpp:434] inception_5a/relu_3x3 <- inception_5a/3x3
I0201 12:13:20.974879 12080 net.cpp:395] inception_5a/relu_3x3 -> inception_5a/3x3 (in-place)
I0201 12:13:20.974889 12080 net.cpp:150] Setting up inception_5a/relu_3x3
I0201 12:13:20.974896 12080 net.cpp:157] Top shape: 50 320 7 7 (784000)
I0201 12:13:20.974903 12080 net.cpp:165] Memory required for data: 2707893224
I0201 12:13:20.974910 12080 layer_factory.hpp:77] Creating layer inception_5a/5x5_reduce
I0201 12:13:20.974920 12080 net.cpp:100] Creating Layer inception_5a/5x5_reduce
I0201 12:13:20.974928 12080 net.cpp:434] inception_5a/5x5_reduce <- pool4/3x3_s2_pool4/3x3_s2_0_split_2
I0201 12:13:20.974939 12080 net.cpp:408] inception_5a/5x5_reduce -> inception_5a/5x5_reduce
I0201 12:13:20.975188 12080 net.cpp:150] Setting up inception_5a/5x5_reduce
I0201 12:13:20.975200 12080 net.cpp:157] Top shape: 50 32 7 7 (78400)
I0201 12:13:20.975208 12080 net.cpp:165] Memory required for data: 2708206824
I0201 12:13:20.975216 12080 layer_factory.hpp:77] Creating layer inception_5a/relu_5x5_reduce
I0201 12:13:20.975227 12080 net.cpp:100] Creating Layer inception_5a/relu_5x5_reduce
I0201 12:13:20.975235 12080 net.cpp:434] inception_5a/relu_5x5_reduce <- inception_5a/5x5_reduce
I0201 12:13:20.975244 12080 net.cpp:395] inception_5a/relu_5x5_reduce -> inception_5a/5x5_reduce (in-place)
I0201 12:13:20.975261 12080 net.cpp:150] Setting up inception_5a/relu_5x5_reduce
I0201 12:13:20.975270 12080 net.cpp:157] Top shape: 50 32 7 7 (78400)
I0201 12:13:20.975277 12080 net.cpp:165] Memory required for data: 2708520424
I0201 12:13:20.975289 12080 layer_factory.hpp:77] Creating layer inception_5a/5x5
I0201 12:13:20.975311 12080 net.cpp:100] Creating Layer inception_5a/5x5
I0201 12:13:20.975319 12080 net.cpp:434] inception_5a/5x5 <- inception_5a/5x5_reduce
I0201 12:13:20.975330 12080 net.cpp:408] inception_5a/5x5 -> inception_5a/5x5
I0201 12:13:20.976212 12080 net.cpp:150] Setting up inception_5a/5x5
I0201 12:13:20.976224 12080 net.cpp:157] Top shape: 50 128 7 7 (313600)
I0201 12:13:20.976232 12080 net.cpp:165] Memory required for data: 2709774824
I0201 12:13:20.976240 12080 layer_factory.hpp:77] Creating layer inception_5a/relu_5x5
I0201 12:13:20.976259 12080 net.cpp:100] Creating Layer inception_5a/relu_5x5
I0201 12:13:20.976269 12080 net.cpp:434] inception_5a/relu_5x5 <- inception_5a/5x5
I0201 12:13:20.976279 12080 net.cpp:395] inception_5a/relu_5x5 -> inception_5a/5x5 (in-place)
I0201 12:13:20.976290 12080 net.cpp:150] Setting up inception_5a/relu_5x5
I0201 12:13:20.976299 12080 net.cpp:157] Top shape: 50 128 7 7 (313600)
I0201 12:13:20.976305 12080 net.cpp:165] Memory required for data: 2711029224
I0201 12:13:20.976312 12080 layer_factory.hpp:77] Creating layer inception_5a/pool
I0201 12:13:20.976321 12080 net.cpp:100] Creating Layer inception_5a/pool
I0201 12:13:20.976328 12080 net.cpp:434] inception_5a/pool <- pool4/3x3_s2_pool4/3x3_s2_0_split_3
I0201 12:13:20.976337 12080 net.cpp:408] inception_5a/pool -> inception_5a/pool
I0201 12:13:20.976351 12080 net.cpp:150] Setting up inception_5a/pool
I0201 12:13:20.976358 12080 net.cpp:157] Top shape: 50 832 7 7 (2038400)
I0201 12:13:20.976366 12080 net.cpp:165] Memory required for data: 2719182824
I0201 12:13:20.976372 12080 layer_factory.hpp:77] Creating layer inception_5a/pool_proj
I0201 12:13:20.976390 12080 net.cpp:100] Creating Layer inception_5a/pool_proj
I0201 12:13:20.976398 12080 net.cpp:434] inception_5a/pool_proj <- inception_5a/pool
I0201 12:13:20.976408 12080 net.cpp:408] inception_5a/pool_proj -> inception_5a/pool_proj
I0201 12:13:20.977362 12080 net.cpp:150] Setting up inception_5a/pool_proj
I0201 12:13:20.977376 12080 net.cpp:157] Top shape: 50 128 7 7 (313600)
I0201 12:13:20.977383 12080 net.cpp:165] Memory required for data: 2720437224
I0201 12:13:20.977392 12080 layer_factory.hpp:77] Creating layer inception_5a/relu_pool_proj
I0201 12:13:20.977402 12080 net.cpp:100] Creating Layer inception_5a/relu_pool_proj
I0201 12:13:20.977409 12080 net.cpp:434] inception_5a/relu_pool_proj <- inception_5a/pool_proj
I0201 12:13:20.977421 12080 net.cpp:395] inception_5a/relu_pool_proj -> inception_5a/pool_proj (in-place)
I0201 12:13:20.977432 12080 net.cpp:150] Setting up inception_5a/relu_pool_proj
I0201 12:13:20.977439 12080 net.cpp:157] Top shape: 50 128 7 7 (313600)
I0201 12:13:20.977445 12080 net.cpp:165] Memory required for data: 2721691624
I0201 12:13:20.977452 12080 layer_factory.hpp:77] Creating layer inception_5a/output
I0201 12:13:20.977461 12080 net.cpp:100] Creating Layer inception_5a/output
I0201 12:13:20.977468 12080 net.cpp:434] inception_5a/output <- inception_5a/1x1
I0201 12:13:20.977476 12080 net.cpp:434] inception_5a/output <- inception_5a/3x3
I0201 12:13:20.977483 12080 net.cpp:434] inception_5a/output <- inception_5a/5x5
I0201 12:13:20.977491 12080 net.cpp:434] inception_5a/output <- inception_5a/pool_proj
I0201 12:13:20.977502 12080 net.cpp:408] inception_5a/output -> inception_5a/output
I0201 12:13:20.977514 12080 net.cpp:150] Setting up inception_5a/output
I0201 12:13:20.977524 12080 net.cpp:157] Top shape: 50 832 7 7 (2038400)
I0201 12:13:20.977530 12080 net.cpp:165] Memory required for data: 2729845224
I0201 12:13:20.977536 12080 layer_factory.hpp:77] Creating layer inception_5a/output_inception_5a/output_0_split
I0201 12:13:20.977545 12080 net.cpp:100] Creating Layer inception_5a/output_inception_5a/output_0_split
I0201 12:13:20.977553 12080 net.cpp:434] inception_5a/output_inception_5a/output_0_split <- inception_5a/output
I0201 12:13:20.977565 12080 net.cpp:408] inception_5a/output_inception_5a/output_0_split -> inception_5a/output_inception_5a/output_0_split_0
I0201 12:13:20.977581 12080 net.cpp:408] inception_5a/output_inception_5a/output_0_split -> inception_5a/output_inception_5a/output_0_split_1
I0201 12:13:20.977602 12080 net.cpp:408] inception_5a/output_inception_5a/output_0_split -> inception_5a/output_inception_5a/output_0_split_2
I0201 12:13:20.977612 12080 net.cpp:408] inception_5a/output_inception_5a/output_0_split -> inception_5a/output_inception_5a/output_0_split_3
I0201 12:13:20.977624 12080 net.cpp:150] Setting up inception_5a/output_inception_5a/output_0_split
I0201 12:13:20.977633 12080 net.cpp:157] Top shape: 50 832 7 7 (2038400)
I0201 12:13:20.977643 12080 net.cpp:157] Top shape: 50 832 7 7 (2038400)
I0201 12:13:20.977651 12080 net.cpp:157] Top shape: 50 832 7 7 (2038400)
I0201 12:13:20.977658 12080 net.cpp:157] Top shape: 50 832 7 7 (2038400)
I0201 12:13:20.977665 12080 net.cpp:165] Memory required for data: 2762459624
I0201 12:13:20.977671 12080 layer_factory.hpp:77] Creating layer inception_5b/1x1
I0201 12:13:20.977682 12080 net.cpp:100] Creating Layer inception_5b/1x1
I0201 12:13:20.977690 12080 net.cpp:434] inception_5b/1x1 <- inception_5a/output_inception_5a/output_0_split_0
I0201 12:13:20.977702 12080 net.cpp:408] inception_5b/1x1 -> inception_5b/1x1
I0201 12:13:20.980422 12080 net.cpp:150] Setting up inception_5b/1x1
I0201 12:13:20.980435 12080 net.cpp:157] Top shape: 50 384 7 7 (940800)
I0201 12:13:20.980443 12080 net.cpp:165] Memory required for data: 2766222824
I0201 12:13:20.980451 12080 layer_factory.hpp:77] Creating layer inception_5b/relu_1x1
I0201 12:13:20.980461 12080 net.cpp:100] Creating Layer inception_5b/relu_1x1
I0201 12:13:20.980469 12080 net.cpp:434] inception_5b/relu_1x1 <- inception_5b/1x1
I0201 12:13:20.980478 12080 net.cpp:395] inception_5b/relu_1x1 -> inception_5b/1x1 (in-place)
I0201 12:13:20.980489 12080 net.cpp:150] Setting up inception_5b/relu_1x1
I0201 12:13:20.980496 12080 net.cpp:157] Top shape: 50 384 7 7 (940800)
I0201 12:13:20.980502 12080 net.cpp:165] Memory required for data: 2769986024
I0201 12:13:20.980509 12080 layer_factory.hpp:77] Creating layer inception_5b/3x3_reduce
I0201 12:13:20.980522 12080 net.cpp:100] Creating Layer inception_5b/3x3_reduce
I0201 12:13:20.980530 12080 net.cpp:434] inception_5b/3x3_reduce <- inception_5a/output_inception_5a/output_0_split_1
I0201 12:13:20.980540 12080 net.cpp:408] inception_5b/3x3_reduce -> inception_5b/3x3_reduce
I0201 12:13:20.981914 12080 net.cpp:150] Setting up inception_5b/3x3_reduce
I0201 12:13:20.981930 12080 net.cpp:157] Top shape: 50 192 7 7 (470400)
I0201 12:13:20.981936 12080 net.cpp:165] Memory required for data: 2771867624
I0201 12:13:20.981945 12080 layer_factory.hpp:77] Creating layer inception_5b/relu_3x3_reduce
I0201 12:13:20.981956 12080 net.cpp:100] Creating Layer inception_5b/relu_3x3_reduce
I0201 12:13:20.981962 12080 net.cpp:434] inception_5b/relu_3x3_reduce <- inception_5b/3x3_reduce
I0201 12:13:20.981973 12080 net.cpp:395] inception_5b/relu_3x3_reduce -> inception_5b/3x3_reduce (in-place)
I0201 12:13:20.981983 12080 net.cpp:150] Setting up inception_5b/relu_3x3_reduce
I0201 12:13:20.981992 12080 net.cpp:157] Top shape: 50 192 7 7 (470400)
I0201 12:13:20.981998 12080 net.cpp:165] Memory required for data: 2773749224
I0201 12:13:20.982005 12080 layer_factory.hpp:77] Creating layer inception_5b/3x3
I0201 12:13:20.982017 12080 net.cpp:100] Creating Layer inception_5b/3x3
I0201 12:13:20.982023 12080 net.cpp:434] inception_5b/3x3 <- inception_5b/3x3_reduce
I0201 12:13:20.982033 12080 net.cpp:408] inception_5b/3x3 -> inception_5b/3x3
I0201 12:13:20.987606 12080 net.cpp:150] Setting up inception_5b/3x3
I0201 12:13:20.987620 12080 net.cpp:157] Top shape: 50 384 7 7 (940800)
I0201 12:13:20.987627 12080 net.cpp:165] Memory required for data: 2777512424
I0201 12:13:20.987637 12080 layer_factory.hpp:77] Creating layer inception_5b/relu_3x3
I0201 12:13:20.987648 12080 net.cpp:100] Creating Layer inception_5b/relu_3x3
I0201 12:13:20.987656 12080 net.cpp:434] inception_5b/relu_3x3 <- inception_5b/3x3
I0201 12:13:20.987664 12080 net.cpp:395] inception_5b/relu_3x3 -> inception_5b/3x3 (in-place)
I0201 12:13:20.987697 12080 net.cpp:150] Setting up inception_5b/relu_3x3
I0201 12:13:20.987706 12080 net.cpp:157] Top shape: 50 384 7 7 (940800)
I0201 12:13:20.987713 12080 net.cpp:165] Memory required for data: 2781275624
I0201 12:13:20.987720 12080 layer_factory.hpp:77] Creating layer inception_5b/5x5_reduce
I0201 12:13:20.987731 12080 net.cpp:100] Creating Layer inception_5b/5x5_reduce
I0201 12:13:20.987738 12080 net.cpp:434] inception_5b/5x5_reduce <- inception_5a/output_inception_5a/output_0_split_2
I0201 12:13:20.987751 12080 net.cpp:408] inception_5b/5x5_reduce -> inception_5b/5x5_reduce
I0201 12:13:20.988107 12080 net.cpp:150] Setting up inception_5b/5x5_reduce
I0201 12:13:20.988121 12080 net.cpp:157] Top shape: 50 48 7 7 (117600)
I0201 12:13:20.988127 12080 net.cpp:165] Memory required for data: 2781746024
I0201 12:13:20.988137 12080 layer_factory.hpp:77] Creating layer inception_5b/relu_5x5_reduce
I0201 12:13:20.988147 12080 net.cpp:100] Creating Layer inception_5b/relu_5x5_reduce
I0201 12:13:20.988153 12080 net.cpp:434] inception_5b/relu_5x5_reduce <- inception_5b/5x5_reduce
I0201 12:13:20.988164 12080 net.cpp:395] inception_5b/relu_5x5_reduce -> inception_5b/5x5_reduce (in-place)
I0201 12:13:20.988175 12080 net.cpp:150] Setting up inception_5b/relu_5x5_reduce
I0201 12:13:20.988183 12080 net.cpp:157] Top shape: 50 48 7 7 (117600)
I0201 12:13:20.988190 12080 net.cpp:165] Memory required for data: 2782216424
I0201 12:13:20.988198 12080 layer_factory.hpp:77] Creating layer inception_5b/5x5
I0201 12:13:20.988209 12080 net.cpp:100] Creating Layer inception_5b/5x5
I0201 12:13:20.988215 12080 net.cpp:434] inception_5b/5x5 <- inception_5b/5x5_reduce
I0201 12:13:20.988226 12080 net.cpp:408] inception_5b/5x5 -> inception_5b/5x5
I0201 12:13:20.989567 12080 net.cpp:150] Setting up inception_5b/5x5
I0201 12:13:20.989583 12080 net.cpp:157] Top shape: 50 128 7 7 (313600)
I0201 12:13:20.989588 12080 net.cpp:165] Memory required for data: 2783470824
I0201 12:13:20.989598 12080 layer_factory.hpp:77] Creating layer inception_5b/relu_5x5
I0201 12:13:20.989608 12080 net.cpp:100] Creating Layer inception_5b/relu_5x5
I0201 12:13:20.989614 12080 net.cpp:434] inception_5b/relu_5x5 <- inception_5b/5x5
I0201 12:13:20.989625 12080 net.cpp:395] inception_5b/relu_5x5 -> inception_5b/5x5 (in-place)
I0201 12:13:20.989635 12080 net.cpp:150] Setting up inception_5b/relu_5x5
I0201 12:13:20.989644 12080 net.cpp:157] Top shape: 50 128 7 7 (313600)
I0201 12:13:20.989650 12080 net.cpp:165] Memory required for data: 2784725224
I0201 12:13:20.989657 12080 layer_factory.hpp:77] Creating layer inception_5b/pool
I0201 12:13:20.989672 12080 net.cpp:100] Creating Layer inception_5b/pool
I0201 12:13:20.989681 12080 net.cpp:434] inception_5b/pool <- inception_5a/output_inception_5a/output_0_split_3
I0201 12:13:20.989691 12080 net.cpp:408] inception_5b/pool -> inception_5b/pool
I0201 12:13:20.989704 12080 net.cpp:150] Setting up inception_5b/pool
I0201 12:13:20.989713 12080 net.cpp:157] Top shape: 50 832 7 7 (2038400)
I0201 12:13:20.989720 12080 net.cpp:165] Memory required for data: 2792878824
I0201 12:13:20.989727 12080 layer_factory.hpp:77] Creating layer inception_5b/pool_proj
I0201 12:13:20.989739 12080 net.cpp:100] Creating Layer inception_5b/pool_proj
I0201 12:13:20.989748 12080 net.cpp:434] inception_5b/pool_proj <- inception_5b/pool
I0201 12:13:20.989758 12080 net.cpp:408] inception_5b/pool_proj -> inception_5b/pool_proj
I0201 12:13:20.990694 12080 net.cpp:150] Setting up inception_5b/pool_proj
I0201 12:13:20.990710 12080 net.cpp:157] Top shape: 50 128 7 7 (313600)
I0201 12:13:20.990716 12080 net.cpp:165] Memory required for data: 2794133224
I0201 12:13:20.990725 12080 layer_factory.hpp:77] Creating layer inception_5b/relu_pool_proj
I0201 12:13:20.990737 12080 net.cpp:100] Creating Layer inception_5b/relu_pool_proj
I0201 12:13:20.990746 12080 net.cpp:434] inception_5b/relu_pool_proj <- inception_5b/pool_proj
I0201 12:13:20.990754 12080 net.cpp:395] inception_5b/relu_pool_proj -> inception_5b/pool_proj (in-place)
I0201 12:13:20.990769 12080 net.cpp:150] Setting up inception_5b/relu_pool_proj
I0201 12:13:20.990787 12080 net.cpp:157] Top shape: 50 128 7 7 (313600)
I0201 12:13:20.990793 12080 net.cpp:165] Memory required for data: 2795387624
I0201 12:13:20.990800 12080 layer_factory.hpp:77] Creating layer inception_5b/output
I0201 12:13:20.990814 12080 net.cpp:100] Creating Layer inception_5b/output
I0201 12:13:20.990823 12080 net.cpp:434] inception_5b/output <- inception_5b/1x1
I0201 12:13:20.990830 12080 net.cpp:434] inception_5b/output <- inception_5b/3x3
I0201 12:13:20.990839 12080 net.cpp:434] inception_5b/output <- inception_5b/5x5
I0201 12:13:20.990845 12080 net.cpp:434] inception_5b/output <- inception_5b/pool_proj
I0201 12:13:20.990854 12080 net.cpp:408] inception_5b/output -> inception_5b/output
I0201 12:13:20.990866 12080 net.cpp:150] Setting up inception_5b/output
I0201 12:13:20.990875 12080 net.cpp:157] Top shape: 50 1024 7 7 (2508800)
I0201 12:13:20.990881 12080 net.cpp:165] Memory required for data: 2805422824
I0201 12:13:20.990888 12080 layer_factory.hpp:77] Creating layer pool5/7x7_s1
I0201 12:13:20.990897 12080 net.cpp:100] Creating Layer pool5/7x7_s1
I0201 12:13:20.990905 12080 net.cpp:434] pool5/7x7_s1 <- inception_5b/output
I0201 12:13:20.990916 12080 net.cpp:408] pool5/7x7_s1 -> pool5/7x7_s1
I0201 12:13:20.990927 12080 net.cpp:150] Setting up pool5/7x7_s1
I0201 12:13:20.990936 12080 net.cpp:157] Top shape: 50 1024 1 1 (51200)
I0201 12:13:20.990942 12080 net.cpp:165] Memory required for data: 2805627624
I0201 12:13:20.990948 12080 layer_factory.hpp:77] Creating layer pool5/drop_7x7_s1
I0201 12:13:20.990974 12080 net.cpp:100] Creating Layer pool5/drop_7x7_s1
I0201 12:13:20.990981 12080 net.cpp:434] pool5/drop_7x7_s1 <- pool5/7x7_s1
I0201 12:13:20.990989 12080 net.cpp:395] pool5/drop_7x7_s1 -> pool5/7x7_s1 (in-place)
I0201 12:13:20.991010 12080 net.cpp:150] Setting up pool5/drop_7x7_s1
I0201 12:13:20.991019 12080 net.cpp:157] Top shape: 50 1024 1 1 (51200)
I0201 12:13:20.991025 12080 net.cpp:165] Memory required for data: 2805832424
I0201 12:13:20.991031 12080 layer_factory.hpp:77] Creating layer loss3/classifier
I0201 12:13:20.991045 12080 net.cpp:100] Creating Layer loss3/classifier
I0201 12:13:20.991052 12080 net.cpp:434] loss3/classifier <- pool5/7x7_s1
I0201 12:13:20.991063 12080 net.cpp:408] loss3/classifier -> loss3/classifier
I0201 12:13:20.999902 12080 net.cpp:150] Setting up loss3/classifier
I0201 12:13:20.999930 12080 net.cpp:157] Top shape: 50 1000 (50000)
I0201 12:13:20.999938 12080 net.cpp:165] Memory required for data: 2806032424
I0201 12:13:20.999948 12080 layer_factory.hpp:77] Creating layer loss3/classifier_loss3/classifier_0_split
I0201 12:13:20.999959 12080 net.cpp:100] Creating Layer loss3/classifier_loss3/classifier_0_split
I0201 12:13:20.999968 12080 net.cpp:434] loss3/classifier_loss3/classifier_0_split <- loss3/classifier
I0201 12:13:20.999979 12080 net.cpp:408] loss3/classifier_loss3/classifier_0_split -> loss3/classifier_loss3/classifier_0_split_0
I0201 12:13:20.999991 12080 net.cpp:408] loss3/classifier_loss3/classifier_0_split -> loss3/classifier_loss3/classifier_0_split_1
I0201 12:13:21.000002 12080 net.cpp:408] loss3/classifier_loss3/classifier_0_split -> loss3/classifier_loss3/classifier_0_split_2
I0201 12:13:21.000015 12080 net.cpp:150] Setting up loss3/classifier_loss3/classifier_0_split
I0201 12:13:21.000022 12080 net.cpp:157] Top shape: 50 1000 (50000)
I0201 12:13:21.000030 12080 net.cpp:157] Top shape: 50 1000 (50000)
I0201 12:13:21.000037 12080 net.cpp:157] Top shape: 50 1000 (50000)
I0201 12:13:21.000043 12080 net.cpp:165] Memory required for data: 2806632424
I0201 12:13:21.000051 12080 layer_factory.hpp:77] Creating layer loss3/loss3
I0201 12:13:21.000059 12080 net.cpp:100] Creating Layer loss3/loss3
I0201 12:13:21.000066 12080 net.cpp:434] loss3/loss3 <- loss3/classifier_loss3/classifier_0_split_0
I0201 12:13:21.000075 12080 net.cpp:434] loss3/loss3 <- label_data_1_split_6
…
