…
I0115 19:41:50.601157 51438 net.cpp:493] The NetState phase (0) differed from the phase (1) specified by a rule in layer accuracy
I0115 19:41:50.601913 51438 net.cpp:125] Initializing net from parameters: 
name: "AlexNet"
state {
  phase: TRAIN
  level: 0
  stage: ""
}
layer {
  name: "data"
  type: "Data"
  top: "data"
  top: "label"
  include {
    phase: TRAIN
  }
  transform_param {
    mirror: true
    crop_size: 227
    mean_file: "/home/user/LIBRARIES/caffeLibs/caffe/data/ilsvrc12/imagenet_mean.binaryproto"
  }
  data_param {
    source: "/home/user/LIBRARIES/caffeLibs/caffe/examples/imagenet/ilsvrc12_train_lmdb"
    batch_size: 56
    backend: LMDB
  }
}
layer {
  name: "conv1"
  type: "Convolution"
  bottom: "data"
  top: "conv1"
  param {
    lr_mult: 1
    decay_mult: 1
  }
  param {
    lr_mult: 2
    decay_mult: 0
  }
  convolution_param {
    num_output: 96
    kernel_size: 11
    stride: 4
    weight_filler {
      type: "gaussian"
      std: 0.01
    }
    bias_filler {
      type: "constant"
      value: 0
    }
  }
}
layer {
  name: "relu1"
  type: "ReLU"
  bottom: "conv1"
  top: "conv1"
}
layer {
  name: "norm1"
  type: "LRN"
  bottom: "conv1"
  top: "norm1"
  lrn_param {
    local_size: 5
    alpha: 0.0001
    beta: 0.75
  }
}
layer {
  name: "pool1"
  type: "Pooling"
  bottom: "norm1"
  top: "pool1"
  pooling_param {
    pool: MAX
    kernel_size: 3
    stride: 2
  }
}
layer {
  name: "conv2"
  type: "Convolution"
  bottom: "pool1"
  top: "conv2"
  param {
    lr_mult: 1
    decay_mult: 1
  }
  param {
    lr_mult: 2
    decay_mult: 0
  }
  convolution_param {
    num_output: 256
    pad: 2
    kernel_size: 5
    group: 2
    weight_filler {
      type: "gaussian"
      std: 0.01
    }
    bias_filler {
      type: "constant"
      value: 0.1
    }
  }
}
layer {
  name: "relu2"
  type: "ReLU"
  bottom: "conv2"
  top: "conv2"
}
layer {
  name: "norm2"
  type: "LRN"
  bottom: "conv2"
  top: "norm2"
  lrn_param {
    local_size: 5
    alpha: 0.0001
    beta: 0.75
  }
}
layer {
  name: "pool2"
  type: "Pooling"
  bottom: "norm2"
  top: "pool2"
  pooling_param {
    pool: MAX
    kernel_size: 3
    stride: 2
  }
}
layer {
  name: "conv3"
  type: "Convolution"
  bottom: "pool2"
  top: "conv3"
  param {
    lr_mult: 1
    decay_mult: 1
  }
  param {
    lr_mult: 2
    decay_mult: 0
  }
  convolution_param {
    num_output: 384
    pad: 1
    kernel_size: 3
    weight_filler {
      type: "gaussian"
      std: 0.01
    }
    bias_filler {
      type: "constant"
      value: 0
    }
  }
}
layer {
  name: "relu3"
  type: "ReLU"
  bottom: "conv3"
  top: "conv3"
}
layer {
  name: "conv4"
  type: "Convolution"
  bottom: "conv3"
  top: "conv4"
  param {
    lr_mult: 1
    decay_mult: 1
  }
  param {
    lr_mult: 2
    decay_mult: 0
  }
  convolution_param {
    num_output: 384
    pad: 1
    kernel_size: 3
    group: 2
    weight_filler {
      type: "gaussian"
      std: 0.01
    }
    bias_filler {
      type: "constant"
      value: 0.1
    }
  }
}
layer {
  name: "relu4"
  type: "ReLU"
  bottom: "conv4"
  top: "conv4"
}
layer {
  name: "conv5"
  type: "Convolution"
  bottom: "conv4"
  top: "conv5"
  param {
    lr_mult: 1
    decay_mult: 1
  }
  param {
    lr_mult: 2
    decay_mult: 0
  }
  convolution_param {
    num_output: 256
    pad: 1
    kernel_size: 3
    group: 2
    weight_filler {
      type: "gaussian"
      std: 0.01
    }
    bias_filler {
      type: "constant"
      value: 0.1
    }
  }
}
layer {
  name: "relu5"
  type: "ReLU"
  bottom: "conv5"
  top: "conv5"
}
layer {
  name: "pool5"
  type: "Pooling"
  bottom: "conv5"
  top: "pool5"
  pooling_param {
    pool: MAX
    kernel_size: 3
    stride: 2
  }
}
layer {
  name: "fc6"
  type: "InnerProduct"
  bottom: "pool5"
  top: "fc6"
  param {
    lr_mult: 1
    decay_mult: 1
  }
  param {
    lr_mult: 2
    decay_mult: 0
  }
  inner_product_param {
    num_output: 4096
    weight_filler {
      type: "gaussian"
      std: 0.005
    }
    bias_filler {
      type: "constant"
      value: 0.1
    }
  }
}
layer {
  name: "relu6"
  type: "ReLU"
  bottom: "fc6"
  top: "fc6"
}
layer {
  name: "drop6"
  type: "Dropout"
  bottom: "fc6"
  top: "fc6"
  dropout_param {
    dropout_ratio: 0.5
  }
}
layer {
  name: "fc7"
  type: "InnerProduct"
  bottom: "fc6"
  top: "fc7"
  param {
    lr_mult: 1
    decay_mult: 1
  }
  param {
    lr_mult: 2
    decay_mult: 0
  }
  inner_product_param {
    num_output: 4096
    weight_filler {
      type: "gaussian"
      std: 0.005
    }
    bias_filler {
      type: "constant"
      value: 0.1
    }
  }
}
layer {
  name: "relu7"
  type: "ReLU"
  bottom: "fc7"
  top: "fc7"
}
layer {
  name: "drop7"
  type: "Dropout"
  bottom: "fc7"
  top: "fc7"
  dropout_param {
    dropout_ratio: 0.5
  }
}
layer {
  name: "fc8"
  type: "InnerProduct"
  bottom: "fc7"
  top: "fc8"
  param {
    lr_mult: 1
    decay_mult: 1
  }
  param {
    lr_mult: 2
    decay_mult: 0
  }
  inner_product_param {
    num_output: 1000
    weight_filler {
      type: "gaussian"
      std: 0.01
    }
    bias_filler {
      type: "constant"
      value: 0
    }
  }
}
layer {
  name: "loss"
  type: "SoftmaxWithLoss"
  bottom: "fc8"
  bottom: "label"
  top: "loss"
}
I0115 19:41:50.601974 51438 net.cpp:154] Setting up Layer of device :0 @cpu 0 Layer : data
I0115 19:41:50.601980 51438 layer_factory.hpp:114] Creating layer data
I0115 19:41:50.602649 51438 net.cpp:169] Creating Layer data
I0115 19:41:50.602668 51438 net.cpp:579] data -> data
I0115 19:41:50.602672 51438 net.cpp:582] From AppendTop @cpu: 0
I0115 19:41:50.602696 51438 net.cpp:579] data -> label
I0115 19:41:50.602700 51438 net.cpp:582] From AppendTop @cpu: 0
I0115 19:41:50.602715 51438 data_transformer.cpp:62] Loading mean file from: /home/user/LIBRARIES/caffeLibs/caffe/data/ilsvrc12/imagenet_mean.binaryproto
I0115 19:41:50.607012 51439 db_lmdb.cpp:72] Opened lmdb /home/user/LIBRARIES/caffeLibs/caffe/examples/imagenet/ilsvrc12_train_lmdb
I0115 19:41:50.607066 51439 virtDev_device.cpp:310] found a CPU core 14 for Data Reader on device 0 thread ID 140235386439424
I0115 19:41:50.607075 51439 data_reader.cpp:128] inside DATAREADER 4
I0115 19:41:50.607081 51439 data_reader.cpp:139] NUMA DOMAIN 0
I0115 19:41:50.607352 51439 data_reader.cpp:139] NUMA DOMAIN 0
I0115 19:41:50.607453 51438 data_layer.cpp:80] output data size: 56,3,227,227
I0115 19:41:50.644580 51438 base_data_layer.cpp:96] Done cpu data
I0115 19:41:50.644603 51438 net.cpp:219] Setting up data
I0115 19:41:50.644615 51438 net.cpp:226] Top shape: 56 3 227 227 (8656872)
I0115 19:41:50.644621 51438 net.cpp:226] Top shape: 56 (56)
I0115 19:41:50.644625 51438 net.cpp:234] Memory required for data: 34627712
I0115 19:41:50.644634 51438 net.cpp:154] Setting up Layer of device :0 @cpu 4 Layer : conv1
I0115 19:41:50.644639 51438 layer_factory.hpp:114] Creating layer conv1
I0115 19:41:50.644670 51438 net.cpp:169] Creating Layer conv1
I0115 19:41:50.644677 51438 net.cpp:606] conv1 <- data
I0115 19:41:50.644685 51438 net.cpp:579] conv1 -> conv1
I0115 19:41:50.644690 51438 net.cpp:582] From AppendTop @cpu: 4
I0115 19:41:50.668941 51438 net.cpp:219] Setting up conv1
I0115 19:41:50.668956 51438 net.cpp:226] Top shape: 56 96 55 55 (16262400)
I0115 19:41:50.668959 51438 net.cpp:234] Memory required for data: 99677312
I0115 19:41:50.668979 51438 net.cpp:154] Setting up Layer of device :0 @cpu 4 Layer : relu1
I0115 19:41:50.668983 51438 layer_factory.hpp:114] Creating layer relu1
I0115 19:41:50.668993 51438 net.cpp:169] Creating Layer relu1
I0115 19:41:50.668998 51438 net.cpp:606] relu1 <- conv1
I0115 19:41:50.669004 51438 net.cpp:566] relu1 -> conv1 (in-place)
I0115 19:41:50.669014 51438 net.cpp:219] Setting up relu1
I0115 19:41:50.669020 51438 net.cpp:226] Top shape: 56 96 55 55 (16262400)
I0115 19:41:50.669023 51438 net.cpp:234] Memory required for data: 164726912
I0115 19:41:50.669028 51438 net.cpp:154] Setting up Layer of device :0 @cpu 4 Layer : norm1
I0115 19:41:50.669033 51438 layer_factory.hpp:114] Creating layer norm1
I0115 19:41:50.669040 51438 net.cpp:169] Creating Layer norm1
I0115 19:41:50.669044 51438 net.cpp:606] norm1 <- conv1
I0115 19:41:50.669050 51438 net.cpp:579] norm1 -> norm1
I0115 19:41:50.669054 51438 net.cpp:582] From AppendTop @cpu: 4
I0115 19:41:50.669069 51438 net.cpp:219] Setting up norm1
I0115 19:41:50.669076 51438 net.cpp:226] Top shape: 56 96 55 55 (16262400)
I0115 19:41:50.669080 51438 net.cpp:234] Memory required for data: 229776512
I0115 19:41:50.669085 51438 net.cpp:154] Setting up Layer of device :0 @cpu 4 Layer : pool1
I0115 19:41:50.669088 51438 layer_factory.hpp:114] Creating layer pool1
I0115 19:41:50.669129 51438 net.cpp:169] Creating Layer pool1
I0115 19:41:50.669134 51438 net.cpp:606] pool1 <- norm1
I0115 19:41:50.669140 51438 net.cpp:579] pool1 -> pool1
I0115 19:41:50.669144 51438 net.cpp:582] From AppendTop @cpu: 4
I0115 19:41:50.669157 51438 net.cpp:219] Setting up pool1
I0115 19:41:50.669163 51438 net.cpp:226] Top shape: 56 96 27 27 (3919104)
I0115 19:41:50.669167 51438 net.cpp:234] Memory required for data: 245452928
I0115 19:41:50.669173 51438 net.cpp:154] Setting up Layer of device :0 @cpu 4 Layer : conv2
I0115 19:41:50.669176 51438 layer_factory.hpp:114] Creating layer conv2
I0115 19:41:50.669184 51438 net.cpp:169] Creating Layer conv2
I0115 19:41:50.669195 51438 net.cpp:606] conv2 <- pool1
I0115 19:41:50.669201 51438 net.cpp:579] conv2 -> conv2
I0115 19:41:50.669205 51438 net.cpp:582] From AppendTop @cpu: 4
I0115 19:41:50.715703 51438 net.cpp:219] Setting up conv2
I0115 19:41:50.715716 51438 net.cpp:226] Top shape: 56 256 27 27 (10450944)
I0115 19:41:50.715719 51438 net.cpp:234] Memory required for data: 287256704
I0115 19:41:50.715731 51438 net.cpp:154] Setting up Layer of device :0 @cpu 4 Layer : relu2
I0115 19:41:50.715735 51438 layer_factory.hpp:114] Creating layer relu2
I0115 19:41:50.715742 51438 net.cpp:169] Creating Layer relu2
I0115 19:41:50.715746 51438 net.cpp:606] relu2 <- conv2
I0115 19:41:50.715752 51438 net.cpp:566] relu2 -> conv2 (in-place)
I0115 19:41:50.715759 51438 net.cpp:219] Setting up relu2
I0115 19:41:50.715765 51438 net.cpp:226] Top shape: 56 256 27 27 (10450944)
I0115 19:41:50.715768 51438 net.cpp:234] Memory required for data: 329060480
I0115 19:41:50.715773 51438 net.cpp:154] Setting up Layer of device :0 @cpu 4 Layer : norm2
I0115 19:41:50.715777 51438 layer_factory.hpp:114] Creating layer norm2
I0115 19:41:50.715783 51438 net.cpp:169] Creating Layer norm2
I0115 19:41:50.715787 51438 net.cpp:606] norm2 <- conv2
I0115 19:41:50.715793 51438 net.cpp:579] norm2 -> norm2
I0115 19:41:50.715796 51438 net.cpp:582] From AppendTop @cpu: 4
I0115 19:41:50.715806 51438 net.cpp:219] Setting up norm2
I0115 19:41:50.715811 51438 net.cpp:226] Top shape: 56 256 27 27 (10450944)
I0115 19:41:50.715814 51438 net.cpp:234] Memory required for data: 370864256
I0115 19:41:50.715818 51438 net.cpp:154] Setting up Layer of device :0 @cpu 4 Layer : pool2
I0115 19:41:50.715832 51438 layer_factory.hpp:114] Creating layer pool2
I0115 19:41:50.715849 51438 net.cpp:169] Creating Layer pool2
I0115 19:41:50.715854 51438 net.cpp:606] pool2 <- norm2
I0115 19:41:50.715859 51438 net.cpp:579] pool2 -> pool2
I0115 19:41:50.715863 51438 net.cpp:582] From AppendTop @cpu: 4
I0115 19:41:50.715872 51438 net.cpp:219] Setting up pool2
I0115 19:41:50.715878 51438 net.cpp:226] Top shape: 56 256 13 13 (2422784)
I0115 19:41:50.715881 51438 net.cpp:234] Memory required for data: 380555392
I0115 19:41:50.715886 51438 net.cpp:154] Setting up Layer of device :0 @cpu 4 Layer : conv3
I0115 19:41:50.715889 51438 layer_factory.hpp:114] Creating layer conv3
I0115 19:41:50.715898 51438 net.cpp:169] Creating Layer conv3
I0115 19:41:50.715903 51438 net.cpp:606] conv3 <- pool2
I0115 19:41:50.715908 51438 net.cpp:579] conv3 -> conv3
I0115 19:41:50.715911 51438 net.cpp:582] From AppendTop @cpu: 4
I0115 19:41:50.760013 51438 net.cpp:219] Setting up conv3
I0115 19:41:50.760027 51438 net.cpp:226] Top shape: 56 384 13 13 (3634176)
I0115 19:41:50.760031 51438 net.cpp:234] Memory required for data: 395092096
I0115 19:41:50.760043 51438 net.cpp:154] Setting up Layer of device :0 @cpu 4 Layer : relu3
I0115 19:41:50.760047 51438 layer_factory.hpp:114] Creating layer relu3
I0115 19:41:50.760054 51438 net.cpp:169] Creating Layer relu3
I0115 19:41:50.760061 51438 net.cpp:606] relu3 <- conv3
I0115 19:41:50.760068 51438 net.cpp:566] relu3 -> conv3 (in-place)
I0115 19:41:50.760076 51438 net.cpp:219] Setting up relu3
I0115 19:41:50.760082 51438 net.cpp:226] Top shape: 56 384 13 13 (3634176)
I0115 19:41:50.760085 51438 net.cpp:234] Memory required for data: 409628800
I0115 19:41:50.760090 51438 net.cpp:154] Setting up Layer of device :0 @cpu 4 Layer : conv4
I0115 19:41:50.760094 51438 layer_factory.hpp:114] Creating layer conv4
I0115 19:41:50.760102 51438 net.cpp:169] Creating Layer conv4
I0115 19:41:50.760107 51438 net.cpp:606] conv4 <- conv3
I0115 19:41:50.760113 51438 net.cpp:579] conv4 -> conv4
I0115 19:41:50.760118 51438 net.cpp:582] From AppendTop @cpu: 4
I0115 19:41:50.798893 51438 net.cpp:219] Setting up conv4
I0115 19:41:50.798905 51438 net.cpp:226] Top shape: 56 384 13 13 (3634176)
I0115 19:41:50.798910 51438 net.cpp:234] Memory required for data: 424165504
I0115 19:41:50.798919 51438 net.cpp:154] Setting up Layer of device :0 @cpu 4 Layer : relu4
I0115 19:41:50.798923 51438 layer_factory.hpp:114] Creating layer relu4
I0115 19:41:50.798934 51438 net.cpp:169] Creating Layer relu4
I0115 19:41:50.798939 51438 net.cpp:606] relu4 <- conv4
I0115 19:41:50.798945 51438 net.cpp:566] relu4 -> conv4 (in-place)
I0115 19:41:50.798952 51438 net.cpp:219] Setting up relu4
I0115 19:41:50.798957 51438 net.cpp:226] Top shape: 56 384 13 13 (3634176)
I0115 19:41:50.798961 51438 net.cpp:234] Memory required for data: 438702208
I0115 19:41:50.798965 51438 net.cpp:154] Setting up Layer of device :0 @cpu 4 Layer : conv5
I0115 19:41:50.798969 51438 layer_factory.hpp:114] Creating layer conv5
I0115 19:41:50.798977 51438 net.cpp:169] Creating Layer conv5
I0115 19:41:50.798981 51438 net.cpp:606] conv5 <- conv4
I0115 19:41:50.798988 51438 net.cpp:579] conv5 -> conv5
I0115 19:41:50.798992 51438 net.cpp:582] From AppendTop @cpu: 4
I0115 19:41:50.829797 51438 net.cpp:219] Setting up conv5
I0115 19:41:50.829809 51438 net.cpp:226] Top shape: 56 256 13 13 (2422784)
I0115 19:41:50.829813 51438 net.cpp:234] Memory required for data: 448393344
I0115 19:41:50.829825 51438 net.cpp:154] Setting up Layer of device :0 @cpu 4 Layer : relu5
I0115 19:41:50.829829 51438 layer_factory.hpp:114] Creating layer relu5
I0115 19:41:50.829836 51438 net.cpp:169] Creating Layer relu5
I0115 19:41:50.829840 51438 net.cpp:606] relu5 <- conv5
I0115 19:41:50.829846 51438 net.cpp:566] relu5 -> conv5 (in-place)
I0115 19:41:50.829852 51438 net.cpp:219] Setting up relu5
I0115 19:41:50.829859 51438 net.cpp:226] Top shape: 56 256 13 13 (2422784)
I0115 19:41:50.829861 51438 net.cpp:234] Memory required for data: 458084480
I0115 19:41:50.829876 51438 net.cpp:154] Setting up Layer of device :0 @cpu 4 Layer : pool5
I0115 19:41:50.829880 51438 layer_factory.hpp:114] Creating layer pool5
I0115 19:41:50.829898 51438 net.cpp:169] Creating Layer pool5
I0115 19:41:50.829902 51438 net.cpp:606] pool5 <- conv5
I0115 19:41:50.829908 51438 net.cpp:579] pool5 -> pool5
I0115 19:41:50.829912 51438 net.cpp:582] From AppendTop @cpu: 4
I0115 19:41:50.829921 51438 net.cpp:219] Setting up pool5
I0115 19:41:50.829927 51438 net.cpp:226] Top shape: 56 256 6 6 (516096)
I0115 19:41:50.829931 51438 net.cpp:234] Memory required for data: 460148864
I0115 19:41:50.829936 51438 net.cpp:154] Setting up Layer of device :0 @cpu 4 Layer : fc6
I0115 19:41:50.829939 51438 layer_factory.hpp:114] Creating layer fc6
I0115 19:41:50.829949 51438 net.cpp:169] Creating Layer fc6
I0115 19:41:50.829953 51438 net.cpp:606] fc6 <- pool5
I0115 19:41:50.829960 51438 net.cpp:579] fc6 -> fc6
I0115 19:41:50.829963 51438 net.cpp:582] From AppendTop @cpu: 4
I0115 19:41:51.538205 51438 net.cpp:219] Setting up fc6
I0115 19:41:51.538260 51438 net.cpp:226] Top shape: 56 4096 (229376)
I0115 19:41:51.538265 51438 net.cpp:234] Memory required for data: 461066368
I0115 19:41:51.538290 51438 net.cpp:154] Setting up Layer of device :0 @cpu 4 Layer : relu6
I0115 19:41:51.538295 51438 layer_factory.hpp:114] Creating layer relu6
I0115 19:41:51.538312 51438 net.cpp:169] Creating Layer relu6
I0115 19:41:51.538318 51438 net.cpp:606] relu6 <- fc6
I0115 19:41:51.538329 51438 net.cpp:566] relu6 -> fc6 (in-place)
I0115 19:41:51.538341 51438 net.cpp:219] Setting up relu6
I0115 19:41:51.538347 51438 net.cpp:226] Top shape: 56 4096 (229376)
I0115 19:41:51.538350 51438 net.cpp:234] Memory required for data: 461983872
I0115 19:41:51.538355 51438 net.cpp:154] Setting up Layer of device :0 @cpu 4 Layer : drop6
I0115 19:41:51.538360 51438 layer_factory.hpp:114] Creating layer drop6
I0115 19:41:51.538374 51438 net.cpp:169] Creating Layer drop6
I0115 19:41:51.538378 51438 net.cpp:606] drop6 <- fc6
I0115 19:41:51.538384 51438 net.cpp:566] drop6 -> fc6 (in-place)
I0115 19:41:51.538398 51438 net.cpp:219] Setting up drop6
I0115 19:41:51.538403 51438 net.cpp:226] Top shape: 56 4096 (229376)
I0115 19:41:51.538406 51438 net.cpp:234] Memory required for data: 462901376
I0115 19:41:51.538410 51438 net.cpp:154] Setting up Layer of device :0 @cpu 4 Layer : fc7
I0115 19:41:51.538415 51438 layer_factory.hpp:114] Creating layer fc7
I0115 19:41:51.538429 51438 net.cpp:169] Creating Layer fc7
I0115 19:41:51.538455 51438 net.cpp:606] fc7 <- fc6
I0115 19:41:51.538462 51438 net.cpp:579] fc7 -> fc7
I0115 19:41:51.538466 51438 net.cpp:582] From AppendTop @cpu: 4
I0115 19:41:51.853390 51438 net.cpp:219] Setting up fc7
I0115 19:41:51.853441 51438 net.cpp:226] Top shape: 56 4096 (229376)
I0115 19:41:51.853446 51438 net.cpp:234] Memory required for data: 463818880
I0115 19:41:51.853466 51438 net.cpp:154] Setting up Layer of device :0 @cpu 4 Layer : relu7
I0115 19:41:51.853471 51438 layer_factory.hpp:114] Creating layer relu7
I0115 19:41:51.853487 51438 net.cpp:169] Creating Layer relu7
I0115 19:41:51.853494 51438 net.cpp:606] relu7 <- fc7
I0115 19:41:51.853504 51438 net.cpp:566] relu7 -> fc7 (in-place)
I0115 19:41:51.853518 51438 net.cpp:219] Setting up relu7
I0115 19:41:51.853524 51438 net.cpp:226] Top shape: 56 4096 (229376)
I0115 19:41:51.853528 51438 net.cpp:234] Memory required for data: 464736384
I0115 19:41:51.853533 51438 net.cpp:154] Setting up Layer of device :0 @cpu 4 Layer : drop7
I0115 19:41:51.853538 51438 layer_factory.hpp:114] Creating layer drop7
I0115 19:41:51.853548 51438 net.cpp:169] Creating Layer drop7
I0115 19:41:51.853551 51438 net.cpp:606] drop7 <- fc7
I0115 19:41:51.853559 51438 net.cpp:566] drop7 -> fc7 (in-place)
I0115 19:41:51.853567 51438 net.cpp:219] Setting up drop7
I0115 19:41:51.853572 51438 net.cpp:226] Top shape: 56 4096 (229376)
I0115 19:41:51.853576 51438 net.cpp:234] Memory required for data: 465653888
I0115 19:41:51.853581 51438 net.cpp:154] Setting up Layer of device :0 @cpu 4 Layer : fc8
I0115 19:41:51.853585 51438 layer_factory.hpp:114] Creating layer fc8
I0115 19:41:51.853629 51438 net.cpp:169] Creating Layer fc8
I0115 19:41:51.853633 51438 net.cpp:606] fc8 <- fc7
I0115 19:41:51.853641 51438 net.cpp:579] fc8 -> fc8
I0115 19:41:51.853646 51438 net.cpp:582] From AppendTop @cpu: 4
I0115 19:41:51.931352 51438 net.cpp:219] Setting up fc8
I0115 19:41:51.931365 51438 net.cpp:226] Top shape: 56 1000 (56000)
I0115 19:41:51.931370 51438 net.cpp:234] Memory required for data: 465877888
I0115 19:41:51.931378 51438 net.cpp:154] Setting up Layer of device :0 @cpu 4 Layer : loss
I0115 19:41:51.931383 51438 layer_factory.hpp:114] Creating layer loss
I0115 19:41:51.931397 51438 net.cpp:169] Creating Layer loss
I0115 19:41:51.931401 51438 net.cpp:606] loss <- fc8
I0115 19:41:51.931407 51438 net.cpp:606] loss <- label
…
I0115 19:41:51.939752 51438 net.cpp:493] The NetState phase (1) differed from the phase (0) specified by a rule in layer data
I0115 19:41:51.940534 51438 net.cpp:125] Initializing net from parameters: 
name: "AlexNet"
state {
  phase: TEST
}
layer {
  name: "data"
  type: "Data"
  top: "data"
  top: "label"
  include {
    phase: TEST
  }
  transform_param {
    mirror: false
    crop_size: 227
    mean_file: "/home/user/LIBRARIES/caffeLibs/caffe/data/ilsvrc12/imagenet_mean.binaryproto"
  }
  data_param {
    source: "/home/user/LIBRARIES/caffeLibs/caffe/examples/imagenet/ilsvrc12_val_lmdb"
    batch_size: 50
    backend: LMDB
  }
}
layer {
  name: "label_data_1_split"
  type: "Split"
  bottom: "label"
  top: "label_data_1_split_0"
  top: "label_data_1_split_1"
}
layer {
  name: "conv1"
  type: "Convolution"
  bottom: "data"
  top: "conv1"
  param {
    lr_mult: 1
    decay_mult: 1
  }
  param {
    lr_mult: 2
    decay_mult: 0
  }
  convolution_param {
    num_output: 96
    kernel_size: 11
    stride: 4
    weight_filler {
      type: "gaussian"
      std: 0.01
    }
    bias_filler {
      type: "constant"
      value: 0
    }
  }
}
layer {
  name: "relu1"
  type: "ReLU"
  bottom: "conv1"
  top: "conv1"
}
layer {
  name: "norm1"
  type: "LRN"
  bottom: "conv1"
  top: "norm1"
  lrn_param {
    local_size: 5
    alpha: 0.0001
    beta: 0.75
  }
}
layer {
  name: "pool1"
  type: "Pooling"
  bottom: "norm1"
  top: "pool1"
  pooling_param {
    pool: MAX
    kernel_size: 3
    stride: 2
  }
}
layer {
  name: "conv2"
  type: "Convolution"
  bottom: "pool1"
  top: "conv2"
  param {
    lr_mult: 1
    decay_mult: 1
  }
  param {
    lr_mult: 2
    decay_mult: 0
  }
  convolution_param {
    num_output: 256
    pad: 2
    kernel_size: 5
    group: 2
    weight_filler {
      type: "gaussian"
      std: 0.01
    }
    bias_filler {
      type: "constant"
      value: 0.1
    }
  }
}
layer {
  name: "relu2"
  type: "ReLU"
  bottom: "conv2"
  top: "conv2"
}
layer {
  name: "norm2"
  type: "LRN"
  bottom: "conv2"
  top: "norm2"
  lrn_param {
    local_size: 5
    alpha: 0.0001
    beta: 0.75
  }
}
layer {
  name: "pool2"
  type: "Pooling"
  bottom: "norm2"
  top: "pool2"
  pooling_param {
    pool: MAX
    kernel_size: 3
    stride: 2
  }
}
layer {
  name: "conv3"
  type: "Convolution"
  bottom: "pool2"
  top: "conv3"
  param {
    lr_mult: 1
    decay_mult: 1
  }
  param {
    lr_mult: 2
    decay_mult: 0
  }
  convolution_param {
    num_output: 384
    pad: 1
    kernel_size: 3
    weight_filler {
      type: "gaussian"
      std: 0.01
    }
    bias_filler {
      type: "constant"
      value: 0
    }
  }
}
layer {
  name: "relu3"
  type: "ReLU"
  bottom: "conv3"
  top: "conv3"
}
layer {
  name: "conv4"
  type: "Convolution"
  bottom: "conv3"
  top: "conv4"
  param {
    lr_mult: 1
    decay_mult: 1
  }
  param {
    lr_mult: 2
    decay_mult: 0
  }
  convolution_param {
    num_output: 384
    pad: 1
    kernel_size: 3
    group: 2
    weight_filler {
      type: "gaussian"
      std: 0.01
    }
    bias_filler {
      type: "constant"
      value: 0.1
    }
  }
}
layer {
  name: "relu4"
  type: "ReLU"
  bottom: "conv4"
  top: "conv4"
}
layer {
  name: "conv5"
  type: "Convolution"
  bottom: "conv4"
  top: "conv5"
  param {
    lr_mult: 1
    decay_mult: 1
  }
  param {
    lr_mult: 2
    decay_mult: 0
  }
  convolution_param {
    num_output: 256
    pad: 1
    kernel_size: 3
    group: 2
    weight_filler {
      type: "gaussian"
      std: 0.01
    }
    bias_filler {
      type: "constant"
      value: 0.1
    }
  }
}
layer {
  name: "relu5"
  type: "ReLU"
  bottom: "conv5"
  top: "conv5"
}
layer {
  name: "pool5"
  type: "Pooling"
  bottom: "conv5"
  top: "pool5"
  pooling_param {
    pool: MAX
    kernel_size: 3
    stride: 2
  }
}
layer {
  name: "fc6"
  type: "InnerProduct"
  bottom: "pool5"
  top: "fc6"
  param {
    lr_mult: 1
    decay_mult: 1
  }
  param {
    lr_mult: 2
    decay_mult: 0
  }
  inner_product_param {
    num_output: 4096
    weight_filler {
      type: "gaussian"
      std: 0.005
    }
    bias_filler {
      type: "constant"
      value: 0.1
    }
  }
}
layer {
  name: "relu6"
  type: "ReLU"
  bottom: "fc6"
  top: "fc6"
}
layer {
  name: "drop6"
  type: "Dropout"
  bottom: "fc6"
  top: "fc6"
  dropout_param {
    dropout_ratio: 0.5
  }
}
layer {
  name: "fc7"
  type: "InnerProduct"
  bottom: "fc6"
  top: "fc7"
  param {
    lr_mult: 1
    decay_mult: 1
  }
  param {
    lr_mult: 2
    decay_mult: 0
  }
  inner_product_param {
    num_output: 4096
    weight_filler {
      type: "gaussian"
      std: 0.005
    }
    bias_filler {
      type: "constant"
      value: 0.1
    }
  }
}
layer {
  name: "relu7"
  type: "ReLU"
  bottom: "fc7"
  top: "fc7"
}
layer {
  name: "drop7"
  type: "Dropout"
  bottom: "fc7"
  top: "fc7"
  dropout_param {
    dropout_ratio: 0.5
  }
}
layer {
  name: "fc8"
  type: "InnerProduct"
  bottom: "fc7"
  top: "fc8"
  param {
    lr_mult: 1
    decay_mult: 1
  }
  param {
    lr_mult: 2
    decay_mult: 0
  }
  inner_product_param {
    num_output: 1000
    weight_filler {
      type: "gaussian"
      std: 0.01
    }
    bias_filler {
      type: "constant"
      value: 0
    }
  }
}
layer {
  name: "fc8_fc8_0_split"
  type: "Split"
  bottom: "fc8"
  top: "fc8_fc8_0_split_0"
  top: "fc8_fc8_0_split_1"
}
layer {
  name: "accuracy"
  type: "Accuracy"
  bottom: "fc8_fc8_0_split_0"
  bottom: "label_data_1_split_0"
  top: "accuracy"
  include {
    phase: TEST
  }
}
layer {
  name: "loss"
  type: "SoftmaxWithLoss"
  bottom: "fc8_fc8_0_split_1"
  bottom: "label_data_1_split_1"
  top: "loss"
}
I0115 19:41:51.940579 51438 net.cpp:154] Setting up Layer of device :0 @cpu 0 Layer : data
I0115 19:41:51.940584 51438 layer_factory.hpp:114] Creating layer data
I0115 19:41:51.940696 51438 net.cpp:169] Creating Layer data
I0115 19:41:51.940707 51438 net.cpp:579] data -> data
I0115 19:41:51.940711 51438 net.cpp:582] From AppendTop @cpu: 0
I0115 19:41:51.940721 51438 net.cpp:579] data -> label
I0115 19:41:51.940726 51438 net.cpp:582] From AppendTop @cpu: 0
I0115 19:41:51.940734 51438 data_transformer.cpp:62] Loading mean file from: /home/user/LIBRARIES/caffeLibs/caffe/data/ilsvrc12/imagenet_mean.binaryproto
I0115 19:41:51.944670 51453 db_lmdb.cpp:72] Opened lmdb /home/user/LIBRARIES/caffeLibs/caffe/examples/imagenet/ilsvrc12_val_lmdb
I0115 19:41:51.944700 51453 virtDev_device.cpp:310] found a CPU core 12 for Data Reader on device 0 thread ID 140225871300352
I0115 19:41:51.944705 51453 data_reader.cpp:128] inside DATAREADER 1
I0115 19:41:51.944710 51453 data_reader.cpp:139] NUMA DOMAIN 0
I0115 19:41:51.944974 51438 data_layer.cpp:80] output data size: 50,3,227,227
I0115 19:41:52.013914 51438 base_data_layer.cpp:96] Done cpu data
I0115 19:41:52.013937 51438 net.cpp:219] Setting up data
I0115 19:41:52.013947 51438 net.cpp:226] Top shape: 50 3 227 227 (7729350)
I0115 19:41:52.013952 51438 net.cpp:226] Top shape: 50 (50)
I0115 19:41:52.013957 51438 net.cpp:234] Memory required for data: 30917600
I0115 19:41:52.013963 51438 net.cpp:154] Setting up Layer of device :0 @cpu 12 Layer : label_data_1_split
I0115 19:41:52.013968 51438 layer_factory.hpp:114] Creating layer label_data_1_split
I0115 19:41:52.013979 51438 net.cpp:169] Creating Layer label_data_1_split
I0115 19:41:52.013985 51438 net.cpp:606] label_data_1_split <- label
I0115 19:41:52.013993 51438 net.cpp:579] label_data_1_split -> label_data_1_split_0
I0115 19:41:52.013996 51438 net.cpp:582] From AppendTop @cpu: 12
I0115 19:41:52.014006 51438 net.cpp:579] label_data_1_split -> label_data_1_split_1
I0115 19:41:52.014009 51438 net.cpp:582] From AppendTop @cpu: 12
I0115 19:41:52.014022 51438 net.cpp:219] Setting up label_data_1_split
I0115 19:41:52.014029 51438 net.cpp:226] Top shape: 50 (50)
I0115 19:41:52.014034 51438 net.cpp:226] Top shape: 50 (50)
I0115 19:41:52.014036 51438 net.cpp:234] Memory required for data: 30918000
I0115 19:41:52.014041 51438 net.cpp:154] Setting up Layer of device :0 @cpu 12 Layer : conv1
I0115 19:41:52.014045 51438 layer_factory.hpp:114] Creating layer conv1
I0115 19:41:52.014063 51438 net.cpp:169] Creating Layer conv1
I0115 19:41:52.014070 51438 net.cpp:606] conv1 <- data
I0115 19:41:52.014077 51438 net.cpp:579] conv1 -> conv1
I0115 19:41:52.014081 51438 net.cpp:582] From AppendTop @cpu: 12
I0115 19:41:52.053911 51438 net.cpp:219] Setting up conv1
I0115 19:41:52.053941 51438 net.cpp:226] Top shape: 50 96 55 55 (14520000)
I0115 19:41:52.053946 51438 net.cpp:234] Memory required for data: 88998000
I0115 19:41:52.053966 51438 net.cpp:154] Setting up Layer of device :0 @cpu 0 Layer : relu1
I0115 19:41:52.053970 51438 layer_factory.hpp:114] Creating layer relu1
I0115 19:41:52.053982 51438 net.cpp:169] Creating Layer relu1
I0115 19:41:52.053987 51438 net.cpp:606] relu1 <- conv1
I0115 19:41:52.053994 51438 net.cpp:566] relu1 -> conv1 (in-place)
I0115 19:41:52.054004 51438 net.cpp:219] Setting up relu1
I0115 19:41:52.054010 51438 net.cpp:226] Top shape: 50 96 55 55 (14520000)
I0115 19:41:52.054014 51438 net.cpp:234] Memory required for data: 147078000
I0115 19:41:52.054019 51438 net.cpp:154] Setting up Layer of device :0 @cpu 0 Layer : norm1
I0115 19:41:52.054023 51438 layer_factory.hpp:114] Creating layer norm1
I0115 19:41:52.054035 51438 net.cpp:169] Creating Layer norm1
I0115 19:41:52.054039 51438 net.cpp:606] norm1 <- conv1
I0115 19:41:52.054045 51438 net.cpp:579] norm1 -> norm1
I0115 19:41:52.054049 51438 net.cpp:582] From AppendTop @cpu: 0
I0115 19:41:52.054064 51438 net.cpp:219] Setting up norm1
I0115 19:41:52.054072 51438 net.cpp:226] Top shape: 50 96 55 55 (14520000)
I0115 19:41:52.054076 51438 net.cpp:234] Memory required for data: 205158000
I0115 19:41:52.054081 51438 net.cpp:154] Setting up Layer of device :0 @cpu 0 Layer : pool1
I0115 19:41:52.054085 51438 layer_factory.hpp:114] Creating layer pool1
I0115 19:41:52.054126 51438 net.cpp:169] Creating Layer pool1
I0115 19:41:52.054131 51438 net.cpp:606] pool1 <- norm1
I0115 19:41:52.054137 51438 net.cpp:579] pool1 -> pool1
I0115 19:41:52.054141 51438 net.cpp:582] From AppendTop @cpu: 0
I0115 19:41:52.054152 51438 net.cpp:219] Setting up pool1
I0115 19:41:52.054158 51438 net.cpp:226] Top shape: 50 96 27 27 (3499200)
I0115 19:41:52.054162 51438 net.cpp:234] Memory required for data: 219154800
I0115 19:41:52.054167 51438 net.cpp:154] Setting up Layer of device :0 @cpu 0 Layer : conv2
I0115 19:41:52.054170 51438 layer_factory.hpp:114] Creating layer conv2
I0115 19:41:52.054183 51438 net.cpp:169] Creating Layer conv2
I0115 19:41:52.054188 51438 net.cpp:606] conv2 <- pool1
I0115 19:41:52.054194 51438 net.cpp:579] conv2 -> conv2
I0115 19:41:52.054198 51438 net.cpp:582] From AppendTop @cpu: 0
I0115 19:41:52.144613 51438 net.cpp:219] Setting up conv2
I0115 19:41:52.144668 51438 net.cpp:226] Top shape: 50 256 27 27 (9331200)
I0115 19:41:52.144673 51438 net.cpp:234] Memory required for data: 256479600
I0115 19:41:52.144702 51438 net.cpp:154] Setting up Layer of device :0 @cpu 4 Layer : relu2
I0115 19:41:52.144708 51438 layer_factory.hpp:114] Creating layer relu2
I0115 19:41:52.144726 51438 net.cpp:169] Creating Layer relu2
I0115 19:41:52.144732 51438 net.cpp:606] relu2 <- conv2
I0115 19:41:52.144742 51438 net.cpp:566] relu2 -> conv2 (in-place)
I0115 19:41:52.144757 51438 net.cpp:219] Setting up relu2
I0115 19:41:52.144762 51438 net.cpp:226] Top shape: 50 256 27 27 (9331200)
I0115 19:41:52.144765 51438 net.cpp:234] Memory required for data: 293804400
I0115 19:41:52.144770 51438 net.cpp:154] Setting up Layer of device :0 @cpu 4 Layer : norm2
I0115 19:41:52.144774 51438 layer_factory.hpp:114] Creating layer norm2
I0115 19:41:52.144786 51438 net.cpp:169] Creating Layer norm2
I0115 19:41:52.144790 51438 net.cpp:606] norm2 <- conv2
I0115 19:41:52.144798 51438 net.cpp:579] norm2 -> norm2
I0115 19:41:52.144801 51438 net.cpp:582] From AppendTop @cpu: 4
I0115 19:41:52.144815 51438 net.cpp:219] Setting up norm2
I0115 19:41:52.144821 51438 net.cpp:226] Top shape: 50 256 27 27 (9331200)
I0115 19:41:52.144825 51438 net.cpp:234] Memory required for data: 331129200
I0115 19:41:52.144830 51438 net.cpp:154] Setting up Layer of device :0 @cpu 4 Layer : pool2
I0115 19:41:52.144834 51438 layer_factory.hpp:114] Creating layer pool2
I0115 19:41:52.144863 51438 net.cpp:169] Creating Layer pool2
I0115 19:41:52.144868 51438 net.cpp:606] pool2 <- norm2
I0115 19:41:52.144875 51438 net.cpp:579] pool2 -> pool2
I0115 19:41:52.144907 51438 net.cpp:582] From AppendTop @cpu: 4
I0115 19:41:52.144919 51438 net.cpp:219] Setting up pool2
I0115 19:41:52.144925 51438 net.cpp:226] Top shape: 50 256 13 13 (2163200)
I0115 19:41:52.144929 51438 net.cpp:234] Memory required for data: 339782000
I0115 19:41:52.144934 51438 net.cpp:154] Setting up Layer of device :0 @cpu 4 Layer : conv3
I0115 19:41:52.144938 51438 layer_factory.hpp:114] Creating layer conv3
I0115 19:41:52.144954 51438 net.cpp:169] Creating Layer conv3
I0115 19:41:52.144958 51438 net.cpp:606] conv3 <- pool2
I0115 19:41:52.144965 51438 net.cpp:579] conv3 -> conv3
I0115 19:41:52.144969 51438 net.cpp:582] From AppendTop @cpu: 4
I0115 19:41:52.202749 51438 net.cpp:219] Setting up conv3
I0115 19:41:52.202772 51438 net.cpp:226] Top shape: 50 384 13 13 (3244800)
I0115 19:41:52.202777 51438 net.cpp:234] Memory required for data: 352761200
I0115 19:41:52.202792 51438 net.cpp:154] Setting up Layer of device :0 @cpu 0 Layer : relu3
I0115 19:41:52.202797 51438 layer_factory.hpp:114] Creating layer relu3
I0115 19:41:52.202806 51438 net.cpp:169] Creating Layer relu3
I0115 19:41:52.202811 51438 net.cpp:606] relu3 <- conv3
I0115 19:41:52.202821 51438 net.cpp:566] relu3 -> conv3 (in-place)
I0115 19:41:52.202831 51438 net.cpp:219] Setting up relu3
I0115 19:41:52.202836 51438 net.cpp:226] Top shape: 50 384 13 13 (3244800)
I0115 19:41:52.202839 51438 net.cpp:234] Memory required for data: 365740400
I0115 19:41:52.202844 51438 net.cpp:154] Setting up Layer of device :0 @cpu 0 Layer : conv4
I0115 19:41:52.202855 51438 layer_factory.hpp:114] Creating layer conv4
I0115 19:41:52.202867 51438 net.cpp:169] Creating Layer conv4
I0115 19:41:52.202870 51438 net.cpp:606] conv4 <- conv3
I0115 19:41:52.202879 51438 net.cpp:579] conv4 -> conv4
I0115 19:41:52.202883 51438 net.cpp:582] From AppendTop @cpu: 0
I0115 19:41:52.242756 51438 net.cpp:219] Setting up conv4
I0115 19:41:52.242770 51438 net.cpp:226] Top shape: 50 384 13 13 (3244800)
I0115 19:41:52.242774 51438 net.cpp:234] Memory required for data: 378719600
I0115 19:41:52.242784 51438 net.cpp:154] Setting up Layer of device :0 @cpu 0 Layer : relu4
I0115 19:41:52.242789 51438 layer_factory.hpp:114] Creating layer relu4
I0115 19:41:52.242799 51438 net.cpp:169] Creating Layer relu4
I0115 19:41:52.242802 51438 net.cpp:606] relu4 <- conv4
I0115 19:41:52.242807 51438 net.cpp:566] relu4 -> conv4 (in-place)
I0115 19:41:52.242815 51438 net.cpp:219] Setting up relu4
I0115 19:41:52.242820 51438 net.cpp:226] Top shape: 50 384 13 13 (3244800)
I0115 19:41:52.242823 51438 net.cpp:234] Memory required for data: 391698800
I0115 19:41:52.242828 51438 net.cpp:154] Setting up Layer of device :0 @cpu 0 Layer : conv5
I0115 19:41:52.242831 51438 layer_factory.hpp:114] Creating layer conv5
I0115 19:41:52.242843 51438 net.cpp:169] Creating Layer conv5
I0115 19:41:52.242847 51438 net.cpp:606] conv5 <- conv4
I0115 19:41:52.242853 51438 net.cpp:579] conv5 -> conv5
I0115 19:41:52.242859 51438 net.cpp:582] From AppendTop @cpu: 0
I0115 19:41:52.273272 51438 net.cpp:219] Setting up conv5
I0115 19:41:52.273283 51438 net.cpp:226] Top shape: 50 256 13 13 (2163200)
I0115 19:41:52.273288 51438 net.cpp:234] Memory required for data: 400351600
I0115 19:41:52.273299 51438 net.cpp:154] Setting up Layer of device :0 @cpu 0 Layer : relu5
I0115 19:41:52.273303 51438 layer_factory.hpp:114] Creating layer relu5
I0115 19:41:52.273313 51438 net.cpp:169] Creating Layer relu5
I0115 19:41:52.273316 51438 net.cpp:606] relu5 <- conv5
I0115 19:41:52.273322 51438 net.cpp:566] relu5 -> conv5 (in-place)
I0115 19:41:52.273329 51438 net.cpp:219] Setting up relu5
I0115 19:41:52.273334 51438 net.cpp:226] Top shape: 50 256 13 13 (2163200)
I0115 19:41:52.273339 51438 net.cpp:234] Memory required for data: 409004400
I0115 19:41:52.273344 51438 net.cpp:154] Setting up Layer of device :0 @cpu 0 Layer : pool5
I0115 19:41:52.273346 51438 layer_factory.hpp:114] Creating layer pool5
I0115 19:41:52.273377 51438 net.cpp:169] Creating Layer pool5
I0115 19:41:52.273381 51438 net.cpp:606] pool5 <- conv5
I0115 19:41:52.273398 51438 net.cpp:579] pool5 -> pool5
I0115 19:41:52.273403 51438 net.cpp:582] From AppendTop @cpu: 0
I0115 19:41:52.273412 51438 net.cpp:219] Setting up pool5
I0115 19:41:52.273418 51438 net.cpp:226] Top shape: 50 256 6 6 (460800)
I0115 19:41:52.273422 51438 net.cpp:234] Memory required for data: 410847600
I0115 19:41:52.273427 51438 net.cpp:154] Setting up Layer of device :0 @cpu 0 Layer : fc6
I0115 19:41:52.273432 51438 layer_factory.hpp:114] Creating layer fc6
I0115 19:41:52.273447 51438 net.cpp:169] Creating Layer fc6
I0115 19:41:52.273452 51438 net.cpp:606] fc6 <- pool5
I0115 19:41:52.273458 51438 net.cpp:579] fc6 -> fc6
I0115 19:41:52.273461 51438 net.cpp:582] From AppendTop @cpu: 0
I0115 19:41:52.985342 51438 net.cpp:219] Setting up fc6
I0115 19:41:52.985399 51438 net.cpp:226] Top shape: 50 4096 (204800)
I0115 19:41:52.985404 51438 net.cpp:234] Memory required for data: 411666800
I0115 19:41:52.985426 51438 net.cpp:154] Setting up Layer of device :0 @cpu 0 Layer : relu6
I0115 19:41:52.985432 51438 layer_factory.hpp:114] Creating layer relu6
I0115 19:41:52.985451 51438 net.cpp:169] Creating Layer relu6
I0115 19:41:52.985458 51438 net.cpp:606] relu6 <- fc6
I0115 19:41:52.985468 51438 net.cpp:566] relu6 -> fc6 (in-place)
I0115 19:41:52.985481 51438 net.cpp:219] Setting up relu6
I0115 19:41:52.985487 51438 net.cpp:226] Top shape: 50 4096 (204800)
I0115 19:41:52.985491 51438 net.cpp:234] Memory required for data: 412486000
I0115 19:41:52.985497 51438 net.cpp:154] Setting up Layer of device :0 @cpu 0 Layer : drop6
I0115 19:41:52.985517 51438 layer_factory.hpp:114] Creating layer drop6
I0115 19:41:52.985527 51438 net.cpp:169] Creating Layer drop6
I0115 19:41:52.985532 51438 net.cpp:606] drop6 <- fc6
I0115 19:41:52.985538 51438 net.cpp:566] drop6 -> fc6 (in-place)
I0115 19:41:52.985546 51438 net.cpp:219] Setting up drop6
I0115 19:41:52.985551 51438 net.cpp:226] Top shape: 50 4096 (204800)
I0115 19:41:52.985554 51438 net.cpp:234] Memory required for data: 413305200
I0115 19:41:52.985559 51438 net.cpp:154] Setting up Layer of device :0 @cpu 0 Layer : fc7
I0115 19:41:52.985563 51438 layer_factory.hpp:114] Creating layer fc7
I0115 19:41:52.985579 51438 net.cpp:169] Creating Layer fc7
I0115 19:41:52.985584 51438 net.cpp:606] fc7 <- fc6
I0115 19:41:52.985591 51438 net.cpp:579] fc7 -> fc7
I0115 19:41:52.985595 51438 net.cpp:582] From AppendTop @cpu: 0
I0115 19:41:53.302289 51438 net.cpp:219] Setting up fc7
I0115 19:41:53.302342 51438 net.cpp:226] Top shape: 50 4096 (204800)
I0115 19:41:53.302346 51438 net.cpp:234] Memory required for data: 414124400
I0115 19:41:53.302367 51438 net.cpp:154] Setting up Layer of device :0 @cpu 0 Layer : relu7
I0115 19:41:53.302372 51438 layer_factory.hpp:114] Creating layer relu7
I0115 19:41:53.302392 51438 net.cpp:169] Creating Layer relu7
I0115 19:41:53.302399 51438 net.cpp:606] relu7 <- fc7
I0115 19:41:53.302408 51438 net.cpp:566] relu7 -> fc7 (in-place)
I0115 19:41:53.302422 51438 net.cpp:219] Setting up relu7
I0115 19:41:53.302428 51438 net.cpp:226] Top shape: 50 4096 (204800)
I0115 19:41:53.302431 51438 net.cpp:234] Memory required for data: 414943600
I0115 19:41:53.302436 51438 net.cpp:154] Setting up Layer of device :0 @cpu 0 Layer : drop7
I0115 19:41:53.302440 51438 layer_factory.hpp:114] Creating layer drop7
I0115 19:41:53.302449 51438 net.cpp:169] Creating Layer drop7
I0115 19:41:53.302453 51438 net.cpp:606] drop7 <- fc7
I0115 19:41:53.302459 51438 net.cpp:566] drop7 -> fc7 (in-place)
I0115 19:41:53.302467 51438 net.cpp:219] Setting up drop7
I0115 19:41:53.302472 51438 net.cpp:226] Top shape: 50 4096 (204800)
I0115 19:41:53.302476 51438 net.cpp:234] Memory required for data: 415762800
I0115 19:41:53.302480 51438 net.cpp:154] Setting up Layer of device :0 @cpu 0 Layer : fc8
I0115 19:41:53.302484 51438 layer_factory.hpp:114] Creating layer fc8
I0115 19:41:53.302498 51438 net.cpp:169] Creating Layer fc8
I0115 19:41:53.302502 51438 net.cpp:606] fc8 <- fc7
I0115 19:41:53.302511 51438 net.cpp:579] fc8 -> fc8
I0115 19:41:53.302516 51438 net.cpp:582] From AppendTop @cpu: 0
I0115 19:41:53.380453 51438 net.cpp:219] Setting up fc8
I0115 19:41:53.380468 51438 net.cpp:226] Top shape: 50 1000 (50000)
I0115 19:41:53.380472 51438 net.cpp:234] Memory required for data: 415962800
I0115 19:41:53.380481 51438 net.cpp:154] Setting up Layer of device :0 @cpu 0 Layer : fc8_fc8_0_split
I0115 19:41:53.380486 51438 layer_factory.hpp:114] Creating layer fc8_fc8_0_split
I0115 19:41:53.380496 51438 net.cpp:169] Creating Layer fc8_fc8_0_split
I0115 19:41:53.380499 51438 net.cpp:606] fc8_fc8_0_split <- fc8
I0115 19:41:53.380508 51438 net.cpp:579] fc8_fc8_0_split -> fc8_fc8_0_split_0
I0115 19:41:53.380512 51438 net.cpp:582] From AppendTop @cpu: 0
I0115 19:41:53.380519 51438 net.cpp:579] fc8_fc8_0_split -> fc8_fc8_0_split_1
I0115 19:41:53.380523 51438 net.cpp:582] From AppendTop @cpu: 0
I0115 19:41:53.380532 51438 net.cpp:219] Setting up fc8_fc8_0_split
I0115 19:41:53.380540 51438 net.cpp:226] Top shape: 50 1000 (50000)
I0115 19:41:53.380545 51438 net.cpp:226] Top shape: 50 1000 (50000)
I0115 19:41:53.380548 51438 net.cpp:234] Memory required for data: 416362800
I0115 19:41:53.380553 51438 net.cpp:154] Setting up Layer of device :0 @cpu 0 Layer : accuracy
I0115 19:41:53.380558 51438 layer_factory.hpp:114] Creating layer accuracy
I0115 19:41:53.380573 51438 net.cpp:169] Creating Layer accuracy
I0115 19:41:53.380578 51438 net.cpp:606] accuracy <- fc8_fc8_0_split_0
I0115 19:41:53.380584 51438 net.cpp:606] accuracy <- label_data_1_split_0
…
