…
I0115 19:41:07.712013 51399 net.cpp:493] The NetState phase (0) differed from the phase (1) specified by a rule in layer accuracy
I0115 19:41:07.712771 51399 net.cpp:125] Initializing net from parameters: 
name: "AlexNet"
state {
  phase: TRAIN
  level: 0
  stage: ""
}
layer {
  name: "data"
  type: "Data"
  top: "data"
  top: "label"
  include {
    phase: TRAIN
  }
  transform_param {
    mirror: true
    crop_size: 227
    mean_file: "/home/user/LIBRARIES/caffeLibs/caffe/data/ilsvrc12/imagenet_mean.binaryproto"
  }
  data_param {
    source: "/home/user/LIBRARIES/caffeLibs/caffe/examples/imagenet/ilsvrc12_train_lmdb"
    batch_size: 112
    backend: LMDB
  }
}
layer {
  name: "conv1"
  type: "Convolution"
  bottom: "data"
  top: "conv1"
  param {
    lr_mult: 1
    decay_mult: 1
  }
  param {
    lr_mult: 2
    decay_mult: 0
  }
  convolution_param {
    num_output: 96
    kernel_size: 11
    stride: 4
    weight_filler {
      type: "gaussian"
      std: 0.01
    }
    bias_filler {
      type: "constant"
      value: 0
    }
  }
}
layer {
  name: "relu1"
  type: "ReLU"
  bottom: "conv1"
  top: "conv1"
}
layer {
  name: "norm1"
  type: "LRN"
  bottom: "conv1"
  top: "norm1"
  lrn_param {
    local_size: 5
    alpha: 0.0001
    beta: 0.75
  }
}
layer {
  name: "pool1"
  type: "Pooling"
  bottom: "norm1"
  top: "pool1"
  pooling_param {
    pool: MAX
    kernel_size: 3
    stride: 2
  }
}
layer {
  name: "conv2"
  type: "Convolution"
  bottom: "pool1"
  top: "conv2"
  param {
    lr_mult: 1
    decay_mult: 1
  }
  param {
    lr_mult: 2
    decay_mult: 0
  }
  convolution_param {
    num_output: 256
    pad: 2
    kernel_size: 5
    group: 2
    weight_filler {
      type: "gaussian"
      std: 0.01
    }
    bias_filler {
      type: "constant"
      value: 0.1
    }
  }
}
layer {
  name: "relu2"
  type: "ReLU"
  bottom: "conv2"
  top: "conv2"
}
layer {
  name: "norm2"
  type: "LRN"
  bottom: "conv2"
  top: "norm2"
  lrn_param {
    local_size: 5
    alpha: 0.0001
    beta: 0.75
  }
}
layer {
  name: "pool2"
  type: "Pooling"
  bottom: "norm2"
  top: "pool2"
  pooling_param {
    pool: MAX
    kernel_size: 3
    stride: 2
  }
}
layer {
  name: "conv3"
  type: "Convolution"
  bottom: "pool2"
  top: "conv3"
  param {
    lr_mult: 1
    decay_mult: 1
  }
  param {
    lr_mult: 2
    decay_mult: 0
  }
  convolution_param {
    num_output: 384
    pad: 1
    kernel_size: 3
    weight_filler {
      type: "gaussian"
      std: 0.01
    }
    bias_filler {
      type: "constant"
      value: 0
    }
  }
}
layer {
  name: "relu3"
  type: "ReLU"
  bottom: "conv3"
  top: "conv3"
}
layer {
  name: "conv4"
  type: "Convolution"
  bottom: "conv3"
  top: "conv4"
  param {
    lr_mult: 1
    decay_mult: 1
  }
  param {
    lr_mult: 2
    decay_mult: 0
  }
  convolution_param {
    num_output: 384
    pad: 1
    kernel_size: 3
    group: 2
    weight_filler {
      type: "gaussian"
      std: 0.01
    }
    bias_filler {
      type: "constant"
      value: 0.1
    }
  }
}
layer {
  name: "relu4"
  type: "ReLU"
  bottom: "conv4"
  top: "conv4"
}
layer {
  name: "conv5"
  type: "Convolution"
  bottom: "conv4"
  top: "conv5"
  param {
    lr_mult: 1
    decay_mult: 1
  }
  param {
    lr_mult: 2
    decay_mult: 0
  }
  convolution_param {
    num_output: 256
    pad: 1
    kernel_size: 3
    group: 2
    weight_filler {
      type: "gaussian"
      std: 0.01
    }
    bias_filler {
      type: "constant"
      value: 0.1
    }
  }
}
layer {
  name: "relu5"
  type: "ReLU"
  bottom: "conv5"
  top: "conv5"
}
layer {
  name: "pool5"
  type: "Pooling"
  bottom: "conv5"
  top: "pool5"
  pooling_param {
    pool: MAX
    kernel_size: 3
    stride: 2
  }
}
layer {
  name: "fc6"
  type: "InnerProduct"
  bottom: "pool5"
  top: "fc6"
  param {
    lr_mult: 1
    decay_mult: 1
  }
  param {
    lr_mult: 2
    decay_mult: 0
  }
  inner_product_param {
    num_output: 4096
    weight_filler {
      type: "gaussian"
      std: 0.005
    }
    bias_filler {
      type: "constant"
      value: 0.1
    }
  }
}
layer {
  name: "relu6"
  type: "ReLU"
  bottom: "fc6"
  top: "fc6"
}
layer {
  name: "drop6"
  type: "Dropout"
  bottom: "fc6"
  top: "fc6"
  dropout_param {
    dropout_ratio: 0.5
  }
}
layer {
  name: "fc7"
  type: "InnerProduct"
  bottom: "fc6"
  top: "fc7"
  param {
    lr_mult: 1
    decay_mult: 1
  }
  param {
    lr_mult: 2
    decay_mult: 0
  }
  inner_product_param {
    num_output: 4096
    weight_filler {
      type: "gaussian"
      std: 0.005
    }
    bias_filler {
      type: "constant"
      value: 0.1
    }
  }
}
layer {
  name: "relu7"
  type: "ReLU"
  bottom: "fc7"
  top: "fc7"
}
layer {
  name: "drop7"
  type: "Dropout"
  bottom: "fc7"
  top: "fc7"
  dropout_param {
    dropout_ratio: 0.5
  }
}
layer {
  name: "fc8"
  type: "InnerProduct"
  bottom: "fc7"
  top: "fc8"
  param {
    lr_mult: 1
    decay_mult: 1
  }
  param {
    lr_mult: 2
    decay_mult: 0
  }
  inner_product_param {
    num_output: 1000
    weight_filler {
      type: "gaussian"
      std: 0.01
    }
    bias_filler {
      type: "constant"
      value: 0
    }
  }
}
layer {
  name: "loss"
  type: "SoftmaxWithLoss"
  bottom: "fc8"
  bottom: "label"
  top: "loss"
}
I0115 19:41:07.712831 51399 net.cpp:154] Setting up Layer of device :0 @cpu 0 Layer : data
I0115 19:41:07.712841 51399 layer_factory.hpp:114] Creating layer data
I0115 19:41:07.713538 51399 net.cpp:169] Creating Layer data
I0115 19:41:07.713557 51399 net.cpp:579] data -> data
I0115 19:41:07.713562 51399 net.cpp:582] From AppendTop @cpu: 0
I0115 19:41:07.713584 51399 net.cpp:579] data -> label
I0115 19:41:07.713588 51399 net.cpp:582] From AppendTop @cpu: 0
I0115 19:41:07.713603 51399 data_transformer.cpp:62] Loading mean file from: /home/user/LIBRARIES/caffeLibs/caffe/data/ilsvrc12/imagenet_mean.binaryproto
I0115 19:41:07.717867 51400 db_lmdb.cpp:72] Opened lmdb /home/user/LIBRARIES/caffeLibs/caffe/examples/imagenet/ilsvrc12_train_lmdb
I0115 19:41:07.717916 51400 virtDev_device.cpp:310] found a CPU core 14 for Data Reader on device 0 thread ID 140398893147904
I0115 19:41:07.717923 51400 data_reader.cpp:128] inside DATAREADER 2
I0115 19:41:07.717929 51400 data_reader.cpp:139] NUMA DOMAIN 0
I0115 19:41:07.718192 51400 data_reader.cpp:139] NUMA DOMAIN 0
I0115 19:41:07.718314 51399 data_layer.cpp:80] output data size: 112,3,227,227
I0115 19:41:07.791865 51399 base_data_layer.cpp:96] Done cpu data
I0115 19:41:07.791888 51399 net.cpp:219] Setting up data
I0115 19:41:07.791900 51399 net.cpp:226] Top shape: 112 3 227 227 (17313744)
I0115 19:41:07.791906 51399 net.cpp:226] Top shape: 112 (112)
I0115 19:41:07.791911 51399 net.cpp:234] Memory required for data: 69255424
I0115 19:41:07.791919 51399 net.cpp:154] Setting up Layer of device :0 @cpu 4 Layer : conv1
I0115 19:41:07.791936 51399 layer_factory.hpp:114] Creating layer conv1
I0115 19:41:07.791955 51399 net.cpp:169] Creating Layer conv1
I0115 19:41:07.791961 51399 net.cpp:606] conv1 <- data
I0115 19:41:07.791970 51399 net.cpp:579] conv1 -> conv1
I0115 19:41:07.791975 51399 net.cpp:582] From AppendTop @cpu: 4
I0115 19:41:07.816269 51399 net.cpp:219] Setting up conv1
I0115 19:41:07.816282 51399 net.cpp:226] Top shape: 112 96 55 55 (32524800)
I0115 19:41:07.816287 51399 net.cpp:234] Memory required for data: 199354624
I0115 19:41:07.816305 51399 net.cpp:154] Setting up Layer of device :0 @cpu 4 Layer : relu1
I0115 19:41:07.816310 51399 layer_factory.hpp:114] Creating layer relu1
I0115 19:41:07.816320 51399 net.cpp:169] Creating Layer relu1
I0115 19:41:07.816324 51399 net.cpp:606] relu1 <- conv1
I0115 19:41:07.816330 51399 net.cpp:566] relu1 -> conv1 (in-place)
I0115 19:41:07.816340 51399 net.cpp:219] Setting up relu1
I0115 19:41:07.816346 51399 net.cpp:226] Top shape: 112 96 55 55 (32524800)
I0115 19:41:07.816350 51399 net.cpp:234] Memory required for data: 329453824
I0115 19:41:07.816354 51399 net.cpp:154] Setting up Layer of device :0 @cpu 4 Layer : norm1
I0115 19:41:07.816359 51399 layer_factory.hpp:114] Creating layer norm1
I0115 19:41:07.816366 51399 net.cpp:169] Creating Layer norm1
I0115 19:41:07.816370 51399 net.cpp:606] norm1 <- conv1
I0115 19:41:07.816376 51399 net.cpp:579] norm1 -> norm1
I0115 19:41:07.816380 51399 net.cpp:582] From AppendTop @cpu: 4
I0115 19:41:07.816390 51399 net.cpp:219] Setting up norm1
I0115 19:41:07.816396 51399 net.cpp:226] Top shape: 112 96 55 55 (32524800)
I0115 19:41:07.816400 51399 net.cpp:234] Memory required for data: 459553024
I0115 19:41:07.816404 51399 net.cpp:154] Setting up Layer of device :0 @cpu 4 Layer : pool1
I0115 19:41:07.816408 51399 layer_factory.hpp:114] Creating layer pool1
I0115 19:41:07.816448 51399 net.cpp:169] Creating Layer pool1
I0115 19:41:07.816453 51399 net.cpp:606] pool1 <- norm1
I0115 19:41:07.816459 51399 net.cpp:579] pool1 -> pool1
I0115 19:41:07.816462 51399 net.cpp:582] From AppendTop @cpu: 4
I0115 19:41:07.816475 51399 net.cpp:219] Setting up pool1
I0115 19:41:07.816481 51399 net.cpp:226] Top shape: 112 96 27 27 (7838208)
I0115 19:41:07.816485 51399 net.cpp:234] Memory required for data: 490905856
I0115 19:41:07.816490 51399 net.cpp:154] Setting up Layer of device :0 @cpu 4 Layer : conv2
I0115 19:41:07.816494 51399 layer_factory.hpp:114] Creating layer conv2
I0115 19:41:07.816503 51399 net.cpp:169] Creating Layer conv2
I0115 19:41:07.816514 51399 net.cpp:606] conv2 <- pool1
I0115 19:41:07.816519 51399 net.cpp:579] conv2 -> conv2
I0115 19:41:07.816524 51399 net.cpp:582] From AppendTop @cpu: 4
I0115 19:41:07.863723 51399 net.cpp:219] Setting up conv2
I0115 19:41:07.863735 51399 net.cpp:226] Top shape: 112 256 27 27 (20901888)
I0115 19:41:07.863739 51399 net.cpp:234] Memory required for data: 574513408
I0115 19:41:07.863751 51399 net.cpp:154] Setting up Layer of device :0 @cpu 4 Layer : relu2
I0115 19:41:07.863755 51399 layer_factory.hpp:114] Creating layer relu2
I0115 19:41:07.863761 51399 net.cpp:169] Creating Layer relu2
I0115 19:41:07.863766 51399 net.cpp:606] relu2 <- conv2
I0115 19:41:07.863772 51399 net.cpp:566] relu2 -> conv2 (in-place)
I0115 19:41:07.863780 51399 net.cpp:219] Setting up relu2
I0115 19:41:07.863785 51399 net.cpp:226] Top shape: 112 256 27 27 (20901888)
I0115 19:41:07.863788 51399 net.cpp:234] Memory required for data: 658120960
I0115 19:41:07.863792 51399 net.cpp:154] Setting up Layer of device :0 @cpu 4 Layer : norm2
I0115 19:41:07.863796 51399 layer_factory.hpp:114] Creating layer norm2
I0115 19:41:07.863802 51399 net.cpp:169] Creating Layer norm2
I0115 19:41:07.863806 51399 net.cpp:606] norm2 <- conv2
I0115 19:41:07.863812 51399 net.cpp:579] norm2 -> norm2
I0115 19:41:07.863816 51399 net.cpp:582] From AppendTop @cpu: 4
I0115 19:41:07.863824 51399 net.cpp:219] Setting up norm2
I0115 19:41:07.863829 51399 net.cpp:226] Top shape: 112 256 27 27 (20901888)
I0115 19:41:07.863833 51399 net.cpp:234] Memory required for data: 741728512
I0115 19:41:07.863847 51399 net.cpp:154] Setting up Layer of device :0 @cpu 4 Layer : pool2
I0115 19:41:07.863852 51399 layer_factory.hpp:114] Creating layer pool2
I0115 19:41:07.863868 51399 net.cpp:169] Creating Layer pool2
I0115 19:41:07.863873 51399 net.cpp:606] pool2 <- norm2
I0115 19:41:07.863878 51399 net.cpp:579] pool2 -> pool2
I0115 19:41:07.863881 51399 net.cpp:582] From AppendTop @cpu: 4
I0115 19:41:07.863890 51399 net.cpp:219] Setting up pool2
I0115 19:41:07.863896 51399 net.cpp:226] Top shape: 112 256 13 13 (4845568)
I0115 19:41:07.863899 51399 net.cpp:234] Memory required for data: 761110784
I0115 19:41:07.863904 51399 net.cpp:154] Setting up Layer of device :0 @cpu 4 Layer : conv3
I0115 19:41:07.863909 51399 layer_factory.hpp:114] Creating layer conv3
I0115 19:41:07.863916 51399 net.cpp:169] Creating Layer conv3
I0115 19:41:07.863920 51399 net.cpp:606] conv3 <- pool2
I0115 19:41:07.863926 51399 net.cpp:579] conv3 -> conv3
I0115 19:41:07.863930 51399 net.cpp:582] From AppendTop @cpu: 4
I0115 19:41:07.907260 51399 net.cpp:219] Setting up conv3
I0115 19:41:07.907274 51399 net.cpp:226] Top shape: 112 384 13 13 (7268352)
I0115 19:41:07.907277 51399 net.cpp:234] Memory required for data: 790184192
I0115 19:41:07.907289 51399 net.cpp:154] Setting up Layer of device :0 @cpu 4 Layer : relu3
I0115 19:41:07.907294 51399 layer_factory.hpp:114] Creating layer relu3
I0115 19:41:07.907299 51399 net.cpp:169] Creating Layer relu3
I0115 19:41:07.907304 51399 net.cpp:606] relu3 <- conv3
I0115 19:41:07.907310 51399 net.cpp:566] relu3 -> conv3 (in-place)
I0115 19:41:07.907316 51399 net.cpp:219] Setting up relu3
I0115 19:41:07.907321 51399 net.cpp:226] Top shape: 112 384 13 13 (7268352)
I0115 19:41:07.907325 51399 net.cpp:234] Memory required for data: 819257600
I0115 19:41:07.907330 51399 net.cpp:154] Setting up Layer of device :0 @cpu 4 Layer : conv4
I0115 19:41:07.907333 51399 layer_factory.hpp:114] Creating layer conv4
I0115 19:41:07.907341 51399 net.cpp:169] Creating Layer conv4
I0115 19:41:07.907346 51399 net.cpp:606] conv4 <- conv3
I0115 19:41:07.907352 51399 net.cpp:579] conv4 -> conv4
I0115 19:41:07.907356 51399 net.cpp:582] From AppendTop @cpu: 4
I0115 19:41:07.946805 51399 net.cpp:219] Setting up conv4
I0115 19:41:07.946816 51399 net.cpp:226] Top shape: 112 384 13 13 (7268352)
I0115 19:41:07.946820 51399 net.cpp:234] Memory required for data: 848331008
I0115 19:41:07.946830 51399 net.cpp:154] Setting up Layer of device :0 @cpu 4 Layer : relu4
I0115 19:41:07.946833 51399 layer_factory.hpp:114] Creating layer relu4
I0115 19:41:07.946846 51399 net.cpp:169] Creating Layer relu4
I0115 19:41:07.946849 51399 net.cpp:606] relu4 <- conv4
I0115 19:41:07.946856 51399 net.cpp:566] relu4 -> conv4 (in-place)
I0115 19:41:07.946862 51399 net.cpp:219] Setting up relu4
I0115 19:41:07.946867 51399 net.cpp:226] Top shape: 112 384 13 13 (7268352)
I0115 19:41:07.946871 51399 net.cpp:234] Memory required for data: 877404416
I0115 19:41:07.946876 51399 net.cpp:154] Setting up Layer of device :0 @cpu 4 Layer : conv5
I0115 19:41:07.946879 51399 layer_factory.hpp:114] Creating layer conv5
I0115 19:41:07.946887 51399 net.cpp:169] Creating Layer conv5
I0115 19:41:07.946890 51399 net.cpp:606] conv5 <- conv4
I0115 19:41:07.946897 51399 net.cpp:579] conv5 -> conv5
I0115 19:41:07.946900 51399 net.cpp:582] From AppendTop @cpu: 4
I0115 19:41:07.977727 51399 net.cpp:219] Setting up conv5
I0115 19:41:07.977740 51399 net.cpp:226] Top shape: 112 256 13 13 (4845568)
I0115 19:41:07.977743 51399 net.cpp:234] Memory required for data: 896786688
I0115 19:41:07.977756 51399 net.cpp:154] Setting up Layer of device :0 @cpu 4 Layer : relu5
I0115 19:41:07.977759 51399 layer_factory.hpp:114] Creating layer relu5
I0115 19:41:07.977766 51399 net.cpp:169] Creating Layer relu5
I0115 19:41:07.977771 51399 net.cpp:606] relu5 <- conv5
I0115 19:41:07.977776 51399 net.cpp:566] relu5 -> conv5 (in-place)
I0115 19:41:07.977782 51399 net.cpp:219] Setting up relu5
I0115 19:41:07.977788 51399 net.cpp:226] Top shape: 112 256 13 13 (4845568)
I0115 19:41:07.977792 51399 net.cpp:234] Memory required for data: 916168960
I0115 19:41:07.977807 51399 net.cpp:154] Setting up Layer of device :0 @cpu 4 Layer : pool5
I0115 19:41:07.977809 51399 layer_factory.hpp:114] Creating layer pool5
I0115 19:41:07.977826 51399 net.cpp:169] Creating Layer pool5
I0115 19:41:07.977831 51399 net.cpp:606] pool5 <- conv5
I0115 19:41:07.977836 51399 net.cpp:579] pool5 -> pool5
I0115 19:41:07.977840 51399 net.cpp:582] From AppendTop @cpu: 4
I0115 19:41:07.977849 51399 net.cpp:219] Setting up pool5
I0115 19:41:07.977854 51399 net.cpp:226] Top shape: 112 256 6 6 (1032192)
I0115 19:41:07.977859 51399 net.cpp:234] Memory required for data: 920297728
I0115 19:41:07.977862 51399 net.cpp:154] Setting up Layer of device :0 @cpu 4 Layer : fc6
I0115 19:41:07.977866 51399 layer_factory.hpp:114] Creating layer fc6
I0115 19:41:07.977877 51399 net.cpp:169] Creating Layer fc6
I0115 19:41:07.977881 51399 net.cpp:606] fc6 <- pool5
I0115 19:41:07.977887 51399 net.cpp:579] fc6 -> fc6
I0115 19:41:07.977890 51399 net.cpp:582] From AppendTop @cpu: 4
I0115 19:41:08.683069 51399 net.cpp:219] Setting up fc6
I0115 19:41:08.683121 51399 net.cpp:226] Top shape: 112 4096 (458752)
I0115 19:41:08.683126 51399 net.cpp:234] Memory required for data: 922132736
I0115 19:41:08.683148 51399 net.cpp:154] Setting up Layer of device :0 @cpu 4 Layer : relu6
I0115 19:41:08.683153 51399 layer_factory.hpp:114] Creating layer relu6
I0115 19:41:08.683171 51399 net.cpp:169] Creating Layer relu6
I0115 19:41:08.683176 51399 net.cpp:606] relu6 <- fc6
I0115 19:41:08.683187 51399 net.cpp:566] relu6 -> fc6 (in-place)
I0115 19:41:08.683199 51399 net.cpp:219] Setting up relu6
I0115 19:41:08.683204 51399 net.cpp:226] Top shape: 112 4096 (458752)
I0115 19:41:08.683208 51399 net.cpp:234] Memory required for data: 923967744
I0115 19:41:08.683212 51399 net.cpp:154] Setting up Layer of device :0 @cpu 4 Layer : drop6
I0115 19:41:08.683218 51399 layer_factory.hpp:114] Creating layer drop6
I0115 19:41:08.683231 51399 net.cpp:169] Creating Layer drop6
I0115 19:41:08.683235 51399 net.cpp:606] drop6 <- fc6
I0115 19:41:08.683241 51399 net.cpp:566] drop6 -> fc6 (in-place)
I0115 19:41:08.683254 51399 net.cpp:219] Setting up drop6
I0115 19:41:08.683259 51399 net.cpp:226] Top shape: 112 4096 (458752)
I0115 19:41:08.683264 51399 net.cpp:234] Memory required for data: 925802752
I0115 19:41:08.683269 51399 net.cpp:154] Setting up Layer of device :0 @cpu 4 Layer : fc7
I0115 19:41:08.683272 51399 layer_factory.hpp:114] Creating layer fc7
I0115 19:41:08.683289 51399 net.cpp:169] Creating Layer fc7
I0115 19:41:08.683310 51399 net.cpp:606] fc7 <- fc6
I0115 19:41:08.683318 51399 net.cpp:579] fc7 -> fc7
I0115 19:41:08.683322 51399 net.cpp:582] From AppendTop @cpu: 4
I0115 19:41:08.997788 51399 net.cpp:219] Setting up fc7
I0115 19:41:08.997841 51399 net.cpp:226] Top shape: 112 4096 (458752)
I0115 19:41:08.997845 51399 net.cpp:234] Memory required for data: 927637760
I0115 19:41:08.997866 51399 net.cpp:154] Setting up Layer of device :0 @cpu 4 Layer : relu7
I0115 19:41:08.997872 51399 layer_factory.hpp:114] Creating layer relu7
I0115 19:41:08.997890 51399 net.cpp:169] Creating Layer relu7
I0115 19:41:08.997895 51399 net.cpp:606] relu7 <- fc7
I0115 19:41:08.997905 51399 net.cpp:566] relu7 -> fc7 (in-place)
I0115 19:41:08.997917 51399 net.cpp:219] Setting up relu7
I0115 19:41:08.997923 51399 net.cpp:226] Top shape: 112 4096 (458752)
I0115 19:41:08.997927 51399 net.cpp:234] Memory required for data: 929472768
I0115 19:41:08.997932 51399 net.cpp:154] Setting up Layer of device :0 @cpu 4 Layer : drop7
I0115 19:41:08.997937 51399 layer_factory.hpp:114] Creating layer drop7
I0115 19:41:08.997946 51399 net.cpp:169] Creating Layer drop7
I0115 19:41:08.997951 51399 net.cpp:606] drop7 <- fc7
I0115 19:41:08.997957 51399 net.cpp:566] drop7 -> fc7 (in-place)
I0115 19:41:08.997966 51399 net.cpp:219] Setting up drop7
I0115 19:41:08.997970 51399 net.cpp:226] Top shape: 112 4096 (458752)
I0115 19:41:08.997974 51399 net.cpp:234] Memory required for data: 931307776
I0115 19:41:08.997979 51399 net.cpp:154] Setting up Layer of device :0 @cpu 4 Layer : fc8
I0115 19:41:08.998013 51399 layer_factory.hpp:114] Creating layer fc8
I0115 19:41:08.998028 51399 net.cpp:169] Creating Layer fc8
I0115 19:41:08.998031 51399 net.cpp:606] fc8 <- fc7
I0115 19:41:08.998039 51399 net.cpp:579] fc8 -> fc8
I0115 19:41:08.998044 51399 net.cpp:582] From AppendTop @cpu: 4
I0115 19:41:09.075700 51399 net.cpp:219] Setting up fc8
I0115 19:41:09.075713 51399 net.cpp:226] Top shape: 112 1000 (112000)
I0115 19:41:09.075717 51399 net.cpp:234] Memory required for data: 931755776
I0115 19:41:09.075726 51399 net.cpp:154] Setting up Layer of device :0 @cpu 4 Layer : loss
I0115 19:41:09.075731 51399 layer_factory.hpp:114] Creating layer loss
I0115 19:41:09.075747 51399 net.cpp:169] Creating Layer loss
I0115 19:41:09.075752 51399 net.cpp:606] loss <- fc8
I0115 19:41:09.075757 51399 net.cpp:606] loss <- label
…
I0115 19:41:09.091331 51399 net.cpp:493] The NetState phase (1) differed from the phase (0) specified by a rule in layer data
I0115 19:41:09.092121 51399 net.cpp:125] Initializing net from parameters: 
name: "AlexNet"
state {
  phase: TEST
}
layer {
  name: "data"
  type: "Data"
  top: "data"
  top: "label"
  include {
    phase: TEST
  }
  transform_param {
    mirror: false
    crop_size: 227
    mean_file: "/home/user/LIBRARIES/caffeLibs/caffe/data/ilsvrc12/imagenet_mean.binaryproto"
  }
  data_param {
    source: "/home/user/LIBRARIES/caffeLibs/caffe/examples/imagenet/ilsvrc12_val_lmdb"
    batch_size: 50
    backend: LMDB
  }
}
layer {
  name: "label_data_1_split"
  type: "Split"
  bottom: "label"
  top: "label_data_1_split_0"
  top: "label_data_1_split_1"
}
layer {
  name: "conv1"
  type: "Convolution"
  bottom: "data"
  top: "conv1"
  param {
    lr_mult: 1
    decay_mult: 1
  }
  param {
    lr_mult: 2
    decay_mult: 0
  }
  convolution_param {
    num_output: 96
    kernel_size: 11
    stride: 4
    weight_filler {
      type: "gaussian"
      std: 0.01
    }
    bias_filler {
      type: "constant"
      value: 0
    }
  }
}
layer {
  name: "relu1"
  type: "ReLU"
  bottom: "conv1"
  top: "conv1"
}
layer {
  name: "norm1"
  type: "LRN"
  bottom: "conv1"
  top: "norm1"
  lrn_param {
    local_size: 5
    alpha: 0.0001
    beta: 0.75
  }
}
layer {
  name: "pool1"
  type: "Pooling"
  bottom: "norm1"
  top: "pool1"
  pooling_param {
    pool: MAX
    kernel_size: 3
    stride: 2
  }
}
layer {
  name: "conv2"
  type: "Convolution"
  bottom: "pool1"
  top: "conv2"
  param {
    lr_mult: 1
    decay_mult: 1
  }
  param {
    lr_mult: 2
    decay_mult: 0
  }
  convolution_param {
    num_output: 256
    pad: 2
    kernel_size: 5
    group: 2
    weight_filler {
      type: "gaussian"
      std: 0.01
    }
    bias_filler {
      type: "constant"
      value: 0.1
    }
  }
}
layer {
  name: "relu2"
  type: "ReLU"
  bottom: "conv2"
  top: "conv2"
}
layer {
  name: "norm2"
  type: "LRN"
  bottom: "conv2"
  top: "norm2"
  lrn_param {
    local_size: 5
    alpha: 0.0001
    beta: 0.75
  }
}
layer {
  name: "pool2"
  type: "Pooling"
  bottom: "norm2"
  top: "pool2"
  pooling_param {
    pool: MAX
    kernel_size: 3
    stride: 2
  }
}
layer {
  name: "conv3"
  type: "Convolution"
  bottom: "pool2"
  top: "conv3"
  param {
    lr_mult: 1
    decay_mult: 1
  }
  param {
    lr_mult: 2
    decay_mult: 0
  }
  convolution_param {
    num_output: 384
    pad: 1
    kernel_size: 3
    weight_filler {
      type: "gaussian"
      std: 0.01
    }
    bias_filler {
      type: "constant"
      value: 0
    }
  }
}
layer {
  name: "relu3"
  type: "ReLU"
  bottom: "conv3"
  top: "conv3"
}
layer {
  name: "conv4"
  type: "Convolution"
  bottom: "conv3"
  top: "conv4"
  param {
    lr_mult: 1
    decay_mult: 1
  }
  param {
    lr_mult: 2
    decay_mult: 0
  }
  convolution_param {
    num_output: 384
    pad: 1
    kernel_size: 3
    group: 2
    weight_filler {
      type: "gaussian"
      std: 0.01
    }
    bias_filler {
      type: "constant"
      value: 0.1
    }
  }
}
layer {
  name: "relu4"
  type: "ReLU"
  bottom: "conv4"
  top: "conv4"
}
layer {
  name: "conv5"
  type: "Convolution"
  bottom: "conv4"
  top: "conv5"
  param {
    lr_mult: 1
    decay_mult: 1
  }
  param {
    lr_mult: 2
    decay_mult: 0
  }
  convolution_param {
    num_output: 256
    pad: 1
    kernel_size: 3
    group: 2
    weight_filler {
      type: "gaussian"
      std: 0.01
    }
    bias_filler {
      type: "constant"
      value: 0.1
    }
  }
}
layer {
  name: "relu5"
  type: "ReLU"
  bottom: "conv5"
  top: "conv5"
}
layer {
  name: "pool5"
  type: "Pooling"
  bottom: "conv5"
  top: "pool5"
  pooling_param {
    pool: MAX
    kernel_size: 3
    stride: 2
  }
}
layer {
  name: "fc6"
  type: "InnerProduct"
  bottom: "pool5"
  top: "fc6"
  param {
    lr_mult: 1
    decay_mult: 1
  }
  param {
    lr_mult: 2
    decay_mult: 0
  }
  inner_product_param {
    num_output: 4096
    weight_filler {
      type: "gaussian"
      std: 0.005
    }
    bias_filler {
      type: "constant"
      value: 0.1
    }
  }
}
layer {
  name: "relu6"
  type: "ReLU"
  bottom: "fc6"
  top: "fc6"
}
layer {
  name: "drop6"
  type: "Dropout"
  bottom: "fc6"
  top: "fc6"
  dropout_param {
    dropout_ratio: 0.5
  }
}
layer {
  name: "fc7"
  type: "InnerProduct"
  bottom: "fc6"
  top: "fc7"
  param {
    lr_mult: 1
    decay_mult: 1
  }
  param {
    lr_mult: 2
    decay_mult: 0
  }
  inner_product_param {
    num_output: 4096
    weight_filler {
      type: "gaussian"
      std: 0.005
    }
    bias_filler {
      type: "constant"
      value: 0.1
    }
  }
}
layer {
  name: "relu7"
  type: "ReLU"
  bottom: "fc7"
  top: "fc7"
}
layer {
  name: "drop7"
  type: "Dropout"
  bottom: "fc7"
  top: "fc7"
  dropout_param {
    dropout_ratio: 0.5
  }
}
layer {
  name: "fc8"
  type: "InnerProduct"
  bottom: "fc7"
  top: "fc8"
  param {
    lr_mult: 1
    decay_mult: 1
  }
  param {
    lr_mult: 2
    decay_mult: 0
  }
  inner_product_param {
    num_output: 1000
    weight_filler {
      type: "gaussian"
      std: 0.01
    }
    bias_filler {
      type: "constant"
      value: 0
    }
  }
}
layer {
  name: "fc8_fc8_0_split"
  type: "Split"
  bottom: "fc8"
  top: "fc8_fc8_0_split_0"
  top: "fc8_fc8_0_split_1"
}
layer {
  name: "accuracy"
  type: "Accuracy"
  bottom: "fc8_fc8_0_split_0"
  bottom: "label_data_1_split_0"
  top: "accuracy"
  include {
    phase: TEST
  }
}
layer {
  name: "loss"
  type: "SoftmaxWithLoss"
  bottom: "fc8_fc8_0_split_1"
  bottom: "label_data_1_split_1"
  top: "loss"
}
I0115 19:41:09.092161 51399 net.cpp:154] Setting up Layer of device :0 @cpu 0 Layer : data
I0115 19:41:09.092166 51399 layer_factory.hpp:114] Creating layer data
I0115 19:41:09.092277 51399 net.cpp:169] Creating Layer data
I0115 19:41:09.092288 51399 net.cpp:579] data -> data
I0115 19:41:09.092291 51399 net.cpp:582] From AppendTop @cpu: 0
I0115 19:41:09.092301 51399 net.cpp:579] data -> label
I0115 19:41:09.092305 51399 net.cpp:582] From AppendTop @cpu: 0
I0115 19:41:09.092314 51399 data_transformer.cpp:62] Loading mean file from: /home/user/LIBRARIES/caffeLibs/caffe/data/ilsvrc12/imagenet_mean.binaryproto
I0115 19:41:09.096256 51414 db_lmdb.cpp:72] Opened lmdb /home/user/LIBRARIES/caffeLibs/caffe/examples/imagenet/ilsvrc12_val_lmdb
I0115 19:41:09.096287 51414 virtDev_device.cpp:310] found a CPU core 12 for Data Reader on device 0 thread ID 140389343172352
I0115 19:41:09.096292 51414 data_reader.cpp:128] inside DATAREADER 1
I0115 19:41:09.096297 51414 data_reader.cpp:139] NUMA DOMAIN 0
I0115 19:41:09.096562 51399 data_layer.cpp:80] output data size: 50,3,227,227
I0115 19:41:09.156850 51399 base_data_layer.cpp:96] Done cpu data
I0115 19:41:09.156870 51399 net.cpp:219] Setting up data
I0115 19:41:09.156879 51399 net.cpp:226] Top shape: 50 3 227 227 (7729350)
I0115 19:41:09.156885 51399 net.cpp:226] Top shape: 50 (50)
I0115 19:41:09.156888 51399 net.cpp:234] Memory required for data: 30917600
I0115 19:41:09.156896 51399 net.cpp:154] Setting up Layer of device :0 @cpu 12 Layer : label_data_1_split
I0115 19:41:09.156900 51399 layer_factory.hpp:114] Creating layer label_data_1_split
I0115 19:41:09.156913 51399 net.cpp:169] Creating Layer label_data_1_split
I0115 19:41:09.156918 51399 net.cpp:606] label_data_1_split <- label
I0115 19:41:09.156924 51399 net.cpp:579] label_data_1_split -> label_data_1_split_0
I0115 19:41:09.156929 51399 net.cpp:582] From AppendTop @cpu: 12
I0115 19:41:09.156937 51399 net.cpp:579] label_data_1_split -> label_data_1_split_1
I0115 19:41:09.156941 51399 net.cpp:582] From AppendTop @cpu: 12
I0115 19:41:09.156955 51399 net.cpp:219] Setting up label_data_1_split
I0115 19:41:09.156960 51399 net.cpp:226] Top shape: 50 (50)
I0115 19:41:09.156965 51399 net.cpp:226] Top shape: 50 (50)
I0115 19:41:09.156968 51399 net.cpp:234] Memory required for data: 30918000
I0115 19:41:09.156973 51399 net.cpp:154] Setting up Layer of device :0 @cpu 12 Layer : conv1
I0115 19:41:09.156977 51399 layer_factory.hpp:114] Creating layer conv1
I0115 19:41:09.156990 51399 net.cpp:169] Creating Layer conv1
I0115 19:41:09.156993 51399 net.cpp:606] conv1 <- data
I0115 19:41:09.157001 51399 net.cpp:579] conv1 -> conv1
I0115 19:41:09.157004 51399 net.cpp:582] From AppendTop @cpu: 12
I0115 19:41:09.207293 51399 net.cpp:219] Setting up conv1
I0115 19:41:09.207319 51399 net.cpp:226] Top shape: 50 96 55 55 (14520000)
I0115 19:41:09.207324 51399 net.cpp:234] Memory required for data: 88998000
I0115 19:41:09.207342 51399 net.cpp:154] Setting up Layer of device :0 @cpu 0 Layer : relu1
I0115 19:41:09.207347 51399 layer_factory.hpp:114] Creating layer relu1
I0115 19:41:09.207360 51399 net.cpp:169] Creating Layer relu1
I0115 19:41:09.207365 51399 net.cpp:606] relu1 <- conv1
I0115 19:41:09.207371 51399 net.cpp:566] relu1 -> conv1 (in-place)
I0115 19:41:09.207381 51399 net.cpp:219] Setting up relu1
I0115 19:41:09.207386 51399 net.cpp:226] Top shape: 50 96 55 55 (14520000)
I0115 19:41:09.207391 51399 net.cpp:234] Memory required for data: 147078000
I0115 19:41:09.207396 51399 net.cpp:154] Setting up Layer of device :0 @cpu 0 Layer : norm1
I0115 19:41:09.207399 51399 layer_factory.hpp:114] Creating layer norm1
I0115 19:41:09.207409 51399 net.cpp:169] Creating Layer norm1
I0115 19:41:09.207413 51399 net.cpp:606] norm1 <- conv1
I0115 19:41:09.207418 51399 net.cpp:579] norm1 -> norm1
I0115 19:41:09.207422 51399 net.cpp:582] From AppendTop @cpu: 0
I0115 19:41:09.207433 51399 net.cpp:219] Setting up norm1
I0115 19:41:09.207439 51399 net.cpp:226] Top shape: 50 96 55 55 (14520000)
I0115 19:41:09.207442 51399 net.cpp:234] Memory required for data: 205158000
I0115 19:41:09.207448 51399 net.cpp:154] Setting up Layer of device :0 @cpu 0 Layer : pool1
I0115 19:41:09.207451 51399 layer_factory.hpp:114] Creating layer pool1
I0115 19:41:09.207490 51399 net.cpp:169] Creating Layer pool1
I0115 19:41:09.207495 51399 net.cpp:606] pool1 <- norm1
I0115 19:41:09.207501 51399 net.cpp:579] pool1 -> pool1
I0115 19:41:09.207505 51399 net.cpp:582] From AppendTop @cpu: 0
I0115 19:41:09.207515 51399 net.cpp:219] Setting up pool1
I0115 19:41:09.207521 51399 net.cpp:226] Top shape: 50 96 27 27 (3499200)
I0115 19:41:09.207525 51399 net.cpp:234] Memory required for data: 219154800
I0115 19:41:09.207530 51399 net.cpp:154] Setting up Layer of device :0 @cpu 0 Layer : conv2
I0115 19:41:09.207533 51399 layer_factory.hpp:114] Creating layer conv2
I0115 19:41:09.207545 51399 net.cpp:169] Creating Layer conv2
I0115 19:41:09.207550 51399 net.cpp:606] conv2 <- pool1
I0115 19:41:09.207556 51399 net.cpp:579] conv2 -> conv2
I0115 19:41:09.207559 51399 net.cpp:582] From AppendTop @cpu: 0
I0115 19:41:09.280581 51399 net.cpp:219] Setting up conv2
I0115 19:41:09.280632 51399 net.cpp:226] Top shape: 50 256 27 27 (9331200)
I0115 19:41:09.280637 51399 net.cpp:234] Memory required for data: 256479600
I0115 19:41:09.280668 51399 net.cpp:154] Setting up Layer of device :0 @cpu 0 Layer : relu2
I0115 19:41:09.280673 51399 layer_factory.hpp:114] Creating layer relu2
I0115 19:41:09.280690 51399 net.cpp:169] Creating Layer relu2
I0115 19:41:09.280696 51399 net.cpp:606] relu2 <- conv2
I0115 19:41:09.280705 51399 net.cpp:566] relu2 -> conv2 (in-place)
I0115 19:41:09.280719 51399 net.cpp:219] Setting up relu2
I0115 19:41:09.280725 51399 net.cpp:226] Top shape: 50 256 27 27 (9331200)
I0115 19:41:09.280728 51399 net.cpp:234] Memory required for data: 293804400
I0115 19:41:09.280732 51399 net.cpp:154] Setting up Layer of device :0 @cpu 0 Layer : norm2
I0115 19:41:09.280737 51399 layer_factory.hpp:114] Creating layer norm2
I0115 19:41:09.280750 51399 net.cpp:169] Creating Layer norm2
I0115 19:41:09.280753 51399 net.cpp:606] norm2 <- conv2
I0115 19:41:09.280758 51399 net.cpp:579] norm2 -> norm2
I0115 19:41:09.280762 51399 net.cpp:582] From AppendTop @cpu: 0
I0115 19:41:09.280778 51399 net.cpp:219] Setting up norm2
I0115 19:41:09.280786 51399 net.cpp:226] Top shape: 50 256 27 27 (9331200)
I0115 19:41:09.280789 51399 net.cpp:234] Memory required for data: 331129200
I0115 19:41:09.280793 51399 net.cpp:154] Setting up Layer of device :0 @cpu 0 Layer : pool2
I0115 19:41:09.280798 51399 layer_factory.hpp:114] Creating layer pool2
I0115 19:41:09.280828 51399 net.cpp:169] Creating Layer pool2
I0115 19:41:09.280833 51399 net.cpp:606] pool2 <- norm2
I0115 19:41:09.280864 51399 net.cpp:579] pool2 -> pool2
I0115 19:41:09.280869 51399 net.cpp:582] From AppendTop @cpu: 0
I0115 19:41:09.280881 51399 net.cpp:219] Setting up pool2
I0115 19:41:09.280887 51399 net.cpp:226] Top shape: 50 256 13 13 (2163200)
I0115 19:41:09.280891 51399 net.cpp:234] Memory required for data: 339782000
I0115 19:41:09.280896 51399 net.cpp:154] Setting up Layer of device :0 @cpu 0 Layer : conv3
I0115 19:41:09.280900 51399 layer_factory.hpp:114] Creating layer conv3
I0115 19:41:09.280915 51399 net.cpp:169] Creating Layer conv3
I0115 19:41:09.280920 51399 net.cpp:606] conv3 <- pool2
I0115 19:41:09.280925 51399 net.cpp:579] conv3 -> conv3
I0115 19:41:09.280930 51399 net.cpp:582] From AppendTop @cpu: 0
I0115 19:41:09.323995 51399 net.cpp:219] Setting up conv3
I0115 19:41:09.324008 51399 net.cpp:226] Top shape: 50 384 13 13 (3244800)
I0115 19:41:09.324012 51399 net.cpp:234] Memory required for data: 352761200
I0115 19:41:09.324025 51399 net.cpp:154] Setting up Layer of device :0 @cpu 0 Layer : relu3
I0115 19:41:09.324029 51399 layer_factory.hpp:114] Creating layer relu3
I0115 19:41:09.324040 51399 net.cpp:169] Creating Layer relu3
I0115 19:41:09.324044 51399 net.cpp:606] relu3 <- conv3
I0115 19:41:09.324053 51399 net.cpp:566] relu3 -> conv3 (in-place)
I0115 19:41:09.324064 51399 net.cpp:219] Setting up relu3
I0115 19:41:09.324071 51399 net.cpp:226] Top shape: 50 384 13 13 (3244800)
I0115 19:41:09.324074 51399 net.cpp:234] Memory required for data: 365740400
I0115 19:41:09.324079 51399 net.cpp:154] Setting up Layer of device :0 @cpu 0 Layer : conv4
I0115 19:41:09.324092 51399 layer_factory.hpp:114] Creating layer conv4
I0115 19:41:09.324102 51399 net.cpp:169] Creating Layer conv4
I0115 19:41:09.324106 51399 net.cpp:606] conv4 <- conv3
I0115 19:41:09.324115 51399 net.cpp:579] conv4 -> conv4
I0115 19:41:09.324118 51399 net.cpp:582] From AppendTop @cpu: 0
I0115 19:41:09.364019 51399 net.cpp:219] Setting up conv4
I0115 19:41:09.364032 51399 net.cpp:226] Top shape: 50 384 13 13 (3244800)
I0115 19:41:09.364035 51399 net.cpp:234] Memory required for data: 378719600
I0115 19:41:09.364044 51399 net.cpp:154] Setting up Layer of device :0 @cpu 0 Layer : relu4
I0115 19:41:09.364048 51399 layer_factory.hpp:114] Creating layer relu4
I0115 19:41:09.364065 51399 net.cpp:169] Creating Layer relu4
I0115 19:41:09.364071 51399 net.cpp:606] relu4 <- conv4
I0115 19:41:09.364076 51399 net.cpp:566] relu4 -> conv4 (in-place)
I0115 19:41:09.364084 51399 net.cpp:219] Setting up relu4
I0115 19:41:09.364089 51399 net.cpp:226] Top shape: 50 384 13 13 (3244800)
I0115 19:41:09.364092 51399 net.cpp:234] Memory required for data: 391698800
I0115 19:41:09.364096 51399 net.cpp:154] Setting up Layer of device :0 @cpu 0 Layer : conv5
I0115 19:41:09.364100 51399 layer_factory.hpp:114] Creating layer conv5
I0115 19:41:09.364111 51399 net.cpp:169] Creating Layer conv5
I0115 19:41:09.364115 51399 net.cpp:606] conv5 <- conv4
I0115 19:41:09.364121 51399 net.cpp:579] conv5 -> conv5
I0115 19:41:09.364125 51399 net.cpp:582] From AppendTop @cpu: 0
I0115 19:41:09.395264 51399 net.cpp:219] Setting up conv5
I0115 19:41:09.395277 51399 net.cpp:226] Top shape: 50 256 13 13 (2163200)
I0115 19:41:09.395280 51399 net.cpp:234] Memory required for data: 400351600
I0115 19:41:09.395292 51399 net.cpp:154] Setting up Layer of device :0 @cpu 0 Layer : relu5
I0115 19:41:09.395297 51399 layer_factory.hpp:114] Creating layer relu5
I0115 19:41:09.395306 51399 net.cpp:169] Creating Layer relu5
I0115 19:41:09.395310 51399 net.cpp:606] relu5 <- conv5
I0115 19:41:09.395315 51399 net.cpp:566] relu5 -> conv5 (in-place)
I0115 19:41:09.395323 51399 net.cpp:219] Setting up relu5
I0115 19:41:09.395328 51399 net.cpp:226] Top shape: 50 256 13 13 (2163200)
I0115 19:41:09.395333 51399 net.cpp:234] Memory required for data: 409004400
I0115 19:41:09.395336 51399 net.cpp:154] Setting up Layer of device :0 @cpu 0 Layer : pool5
I0115 19:41:09.395340 51399 layer_factory.hpp:114] Creating layer pool5
I0115 19:41:09.395368 51399 net.cpp:169] Creating Layer pool5
I0115 19:41:09.395372 51399 net.cpp:606] pool5 <- conv5
I0115 19:41:09.395388 51399 net.cpp:579] pool5 -> pool5
I0115 19:41:09.395392 51399 net.cpp:582] From AppendTop @cpu: 0
I0115 19:41:09.395401 51399 net.cpp:219] Setting up pool5
I0115 19:41:09.395407 51399 net.cpp:226] Top shape: 50 256 6 6 (460800)
I0115 19:41:09.395411 51399 net.cpp:234] Memory required for data: 410847600
I0115 19:41:09.395416 51399 net.cpp:154] Setting up Layer of device :0 @cpu 0 Layer : fc6
I0115 19:41:09.395419 51399 layer_factory.hpp:114] Creating layer fc6
I0115 19:41:09.395434 51399 net.cpp:169] Creating Layer fc6
I0115 19:41:09.395438 51399 net.cpp:606] fc6 <- pool5
I0115 19:41:09.395444 51399 net.cpp:579] fc6 -> fc6
I0115 19:41:09.395447 51399 net.cpp:582] From AppendTop @cpu: 0
I0115 19:41:10.102078 51399 net.cpp:219] Setting up fc6
I0115 19:41:10.102134 51399 net.cpp:226] Top shape: 50 4096 (204800)
I0115 19:41:10.102138 51399 net.cpp:234] Memory required for data: 411666800
I0115 19:41:10.102160 51399 net.cpp:154] Setting up Layer of device :0 @cpu 0 Layer : relu6
I0115 19:41:10.102166 51399 layer_factory.hpp:114] Creating layer relu6
I0115 19:41:10.102185 51399 net.cpp:169] Creating Layer relu6
I0115 19:41:10.102191 51399 net.cpp:606] relu6 <- fc6
I0115 19:41:10.102201 51399 net.cpp:566] relu6 -> fc6 (in-place)
I0115 19:41:10.102215 51399 net.cpp:219] Setting up relu6
I0115 19:41:10.102221 51399 net.cpp:226] Top shape: 50 4096 (204800)
I0115 19:41:10.102224 51399 net.cpp:234] Memory required for data: 412486000
I0115 19:41:10.102229 51399 net.cpp:154] Setting up Layer of device :0 @cpu 0 Layer : drop6
I0115 19:41:10.102248 51399 layer_factory.hpp:114] Creating layer drop6
I0115 19:41:10.102258 51399 net.cpp:169] Creating Layer drop6
I0115 19:41:10.102262 51399 net.cpp:606] drop6 <- fc6
I0115 19:41:10.102269 51399 net.cpp:566] drop6 -> fc6 (in-place)
I0115 19:41:10.102278 51399 net.cpp:219] Setting up drop6
I0115 19:41:10.102283 51399 net.cpp:226] Top shape: 50 4096 (204800)
I0115 19:41:10.102286 51399 net.cpp:234] Memory required for data: 413305200
I0115 19:41:10.102291 51399 net.cpp:154] Setting up Layer of device :0 @cpu 0 Layer : fc7
I0115 19:41:10.102295 51399 layer_factory.hpp:114] Creating layer fc7
I0115 19:41:10.102311 51399 net.cpp:169] Creating Layer fc7
I0115 19:41:10.102315 51399 net.cpp:606] fc7 <- fc6
I0115 19:41:10.102324 51399 net.cpp:579] fc7 -> fc7
I0115 19:41:10.102327 51399 net.cpp:582] From AppendTop @cpu: 0
I0115 19:41:10.416541 51399 net.cpp:219] Setting up fc7
I0115 19:41:10.416589 51399 net.cpp:226] Top shape: 50 4096 (204800)
I0115 19:41:10.416594 51399 net.cpp:234] Memory required for data: 414124400
I0115 19:41:10.416612 51399 net.cpp:154] Setting up Layer of device :0 @cpu 0 Layer : relu7
I0115 19:41:10.416618 51399 layer_factory.hpp:114] Creating layer relu7
I0115 19:41:10.416632 51399 net.cpp:169] Creating Layer relu7
I0115 19:41:10.416640 51399 net.cpp:606] relu7 <- fc7
I0115 19:41:10.416651 51399 net.cpp:566] relu7 -> fc7 (in-place)
I0115 19:41:10.416663 51399 net.cpp:219] Setting up relu7
I0115 19:41:10.416669 51399 net.cpp:226] Top shape: 50 4096 (204800)
I0115 19:41:10.416673 51399 net.cpp:234] Memory required for data: 414943600
I0115 19:41:10.416678 51399 net.cpp:154] Setting up Layer of device :0 @cpu 0 Layer : drop7
I0115 19:41:10.416682 51399 layer_factory.hpp:114] Creating layer drop7
I0115 19:41:10.416692 51399 net.cpp:169] Creating Layer drop7
I0115 19:41:10.416695 51399 net.cpp:606] drop7 <- fc7
I0115 19:41:10.416702 51399 net.cpp:566] drop7 -> fc7 (in-place)
I0115 19:41:10.416710 51399 net.cpp:219] Setting up drop7
I0115 19:41:10.416716 51399 net.cpp:226] Top shape: 50 4096 (204800)
I0115 19:41:10.416719 51399 net.cpp:234] Memory required for data: 415762800
I0115 19:41:10.416724 51399 net.cpp:154] Setting up Layer of device :0 @cpu 0 Layer : fc8
I0115 19:41:10.416728 51399 layer_factory.hpp:114] Creating layer fc8
I0115 19:41:10.416741 51399 net.cpp:169] Creating Layer fc8
I0115 19:41:10.416745 51399 net.cpp:606] fc8 <- fc7
I0115 19:41:10.416755 51399 net.cpp:579] fc8 -> fc8
I0115 19:41:10.416759 51399 net.cpp:582] From AppendTop @cpu: 0
I0115 19:41:10.494108 51399 net.cpp:219] Setting up fc8
I0115 19:41:10.494123 51399 net.cpp:226] Top shape: 50 1000 (50000)
I0115 19:41:10.494127 51399 net.cpp:234] Memory required for data: 415962800
I0115 19:41:10.494137 51399 net.cpp:154] Setting up Layer of device :0 @cpu 0 Layer : fc8_fc8_0_split
I0115 19:41:10.494140 51399 layer_factory.hpp:114] Creating layer fc8_fc8_0_split
I0115 19:41:10.494149 51399 net.cpp:169] Creating Layer fc8_fc8_0_split
I0115 19:41:10.494153 51399 net.cpp:606] fc8_fc8_0_split <- fc8
I0115 19:41:10.494164 51399 net.cpp:579] fc8_fc8_0_split -> fc8_fc8_0_split_0
I0115 19:41:10.494168 51399 net.cpp:582] From AppendTop @cpu: 0
I0115 19:41:10.494175 51399 net.cpp:579] fc8_fc8_0_split -> fc8_fc8_0_split_1
I0115 19:41:10.494179 51399 net.cpp:582] From AppendTop @cpu: 0
I0115 19:41:10.494187 51399 net.cpp:219] Setting up fc8_fc8_0_split
I0115 19:41:10.494192 51399 net.cpp:226] Top shape: 50 1000 (50000)
I0115 19:41:10.494197 51399 net.cpp:226] Top shape: 50 1000 (50000)
I0115 19:41:10.494201 51399 net.cpp:234] Memory required for data: 416362800
I0115 19:41:10.494206 51399 net.cpp:154] Setting up Layer of device :0 @cpu 0 Layer : accuracy
I0115 19:41:10.494210 51399 layer_factory.hpp:114] Creating layer accuracy
I0115 19:41:10.494228 51399 net.cpp:169] Creating Layer accuracy
I0115 19:41:10.494232 51399 net.cpp:606] accuracy <- fc8_fc8_0_split_0
I0115 19:41:10.494237 51399 net.cpp:606] accuracy <- label_data_1_split_0
…
