…
I0116 15:13:14.297437 44736 net.cpp:322] The NetState phase (0) differed from the phase (1) specified by a rule in layer accuracy
I0116 15:13:14.299234 44736 net.cpp:58] Initializing net from parameters: 
name: "CIFAR10_full"
state {
  phase: TRAIN
  level: 0
  stage: ""
}
layer {
  name: "cifar"
  type: "Data"
  top: "data"
  top: "label"
  include {
    phase: TRAIN
  }
  transform_param {
    mean_file: "examples/cifar10/mean.binaryproto"
  }
  data_param {
    source: "examples/cifar10/cifar10_train_lmdb"
    batch_size: 256
    backend: LMDB
  }
}
layer {
  name: "conv1"
  type: "Convolution"
  bottom: "data"
  top: "conv1"
  param {
    lr_mult: 1
  }
  param {
    lr_mult: 2
  }
  convolution_param {
    num_output: 32
    pad: 2
    kernel_size: 5
    stride: 1
    weight_filler {
      type: "gaussian"
      std: 0.0001
    }
    bias_filler {
      type: "constant"
    }
  }
}
layer {
  name: "pool1"
  type: "Pooling"
  bottom: "conv1"
  top: "pool1"
  pooling_param {
    pool: MAX
    kernel_size: 3
    stride: 2
  }
}
layer {
  name: "relu1"
  type: "ReLU"
  bottom: "pool1"
  top: "pool1"
}
layer {
  name: "norm1"
  type: "LRN"
  bottom: "pool1"
  top: "norm1"
  lrn_param {
    local_size: 3
    alpha: 5e-05
    beta: 0.75
    norm_region: WITHIN_CHANNEL
  }
}
layer {
  name: "conv2"
  type: "Convolution"
  bottom: "norm1"
  top: "conv2"
  param {
    lr_mult: 1
  }
  param {
    lr_mult: 2
  }
  convolution_param {
    num_output: 32
    pad: 2
    kernel_size: 5
    stride: 1
    weight_filler {
      type: "gaussian"
      std: 0.01
    }
    bias_filler {
      type: "constant"
    }
  }
}
layer {
  name: "relu2"
  type: "ReLU"
  bottom: "conv2"
  top: "conv2"
}
layer {
  name: "pool2"
  type: "Pooling"
  bottom: "conv2"
  top: "pool2"
  pooling_param {
    pool: AVE
    kernel_size: 3
    stride: 2
  }
}
layer {
  name: "norm2"
  type: "LRN"
  bottom: "pool2"
  top: "norm2"
  lrn_param {
    local_size: 3
    alpha: 5e-05
    beta: 0.75
    norm_region: WITHIN_CHANNEL
  }
}
layer {
  name: "conv3"
  type: "Convolution"
  bottom: "norm2"
  top: "conv3"
  convolution_param {
    num_output: 64
    pad: 2
    kernel_size: 5
    stride: 1
    weight_filler {
      type: "gaussian"
      std: 0.01
    }
    bias_filler {
      type: "constant"
    }
  }
}
layer {
  name: "relu3"
  type: "ReLU"
  bottom: "conv3"
  top: "conv3"
}
layer {
  name: "pool3"
  type: "Pooling"
  bottom: "conv3"
  top: "pool3"
  pooling_param {
    pool: AVE
    kernel_size: 3
    stride: 2
  }
}
layer {
  name: "ip1"
  type: "InnerProduct"
  bottom: "pool3"
  top: "ip1"
  param {
    lr_mult: 1
    decay_mult: 250
  }
  param {
    lr_mult: 2
    decay_mult: 0
  }
  inner_product_param {
    num_output: 10
    weight_filler {
      type: "gaussian"
      std: 0.01
    }
    bias_filler {
      type: "constant"
    }
  }
}
layer {
  name: "loss"
  type: "SoftmaxWithLoss"
  bottom: "ip1"
  bottom: "label"
  top: "loss"
}
I0116 15:13:14.299564 44736 layer_factory.hpp:77] Creating layer cifar
I0116 15:13:14.302147 44736 net.cpp:100] Creating Layer cifar
I0116 15:13:14.302450 44736 net.cpp:408] cifar -> data
I0116 15:13:14.302577 44736 net.cpp:408] cifar -> label
I0116 15:13:14.302661 44736 data_transformer.cpp:25] Loading mean file from: examples/cifar10/mean.binaryproto
I0116 15:13:14.309288 44737 db_lmdb.cpp:35] Opened lmdb examples/cifar10/cifar10_train_lmdb
I0116 15:13:14.423457 44736 data_layer.cpp:41] output data size: 256,3,32,32
I0116 15:13:14.427570 44736 net.cpp:150] Setting up cifar
I0116 15:13:14.427732 44736 net.cpp:157] Top shape: 256 3 32 32 (786432)
I0116 15:13:14.427868 44736 net.cpp:157] Top shape: 256 (256)
I0116 15:13:14.427920 44736 net.cpp:165] Memory required for data: 3146752
I0116 15:13:14.428001 44736 layer_factory.hpp:77] Creating layer conv1
I0116 15:13:14.428122 44736 net.cpp:100] Creating Layer conv1
I0116 15:13:14.428190 44736 net.cpp:434] conv1 <- data
I0116 15:13:14.428305 44736 net.cpp:408] conv1 -> conv1
I0116 15:13:14.428907 44736 net.cpp:150] Setting up conv1
I0116 15:13:14.429031 44736 net.cpp:157] Top shape: 256 32 32 32 (8388608)
I0116 15:13:14.429072 44736 net.cpp:165] Memory required for data: 36701184
I0116 15:13:14.429194 44736 layer_factory.hpp:77] Creating layer pool1
I0116 15:13:14.429302 44736 net.cpp:100] Creating Layer pool1
I0116 15:13:14.429357 44736 net.cpp:434] pool1 <- conv1
I0116 15:13:14.429411 44736 net.cpp:408] pool1 -> pool1
I0116 15:13:14.429563 44736 net.cpp:150] Setting up pool1
I0116 15:13:14.429636 44736 net.cpp:157] Top shape: 256 32 16 16 (2097152)
I0116 15:13:14.429672 44736 net.cpp:165] Memory required for data: 45089792
I0116 15:13:14.429713 44736 layer_factory.hpp:77] Creating layer relu1
I0116 15:13:14.429803 44736 net.cpp:100] Creating Layer relu1
I0116 15:13:14.429850 44736 net.cpp:434] relu1 <- pool1
I0116 15:13:14.429924 44736 net.cpp:395] relu1 -> pool1 (in-place)
I0116 15:13:14.429998 44736 net.cpp:150] Setting up relu1
I0116 15:13:14.430053 44736 net.cpp:157] Top shape: 256 32 16 16 (2097152)
I0116 15:13:14.430088 44736 net.cpp:165] Memory required for data: 53478400
I0116 15:13:14.430124 44736 layer_factory.hpp:77] Creating layer norm1
I0116 15:13:14.430186 44736 net.cpp:100] Creating Layer norm1
I0116 15:13:14.430222 44736 net.cpp:434] norm1 <- pool1
I0116 15:13:14.430265 44736 net.cpp:408] norm1 -> norm1
I0116 15:13:14.430500 44736 net.cpp:150] Setting up norm1
I0116 15:13:14.430568 44736 net.cpp:157] Top shape: 256 32 16 16 (2097152)
I0116 15:13:14.430603 44736 net.cpp:165] Memory required for data: 61867008
I0116 15:13:14.430639 44736 layer_factory.hpp:77] Creating layer conv2
I0116 15:13:14.430721 44736 net.cpp:100] Creating Layer conv2
I0116 15:13:14.430799 44736 net.cpp:434] conv2 <- norm1
I0116 15:13:14.430858 44736 net.cpp:408] conv2 -> conv2
I0116 15:13:14.432287 44736 net.cpp:150] Setting up conv2
I0116 15:13:14.432376 44736 net.cpp:157] Top shape: 256 32 16 16 (2097152)
I0116 15:13:14.432409 44736 net.cpp:165] Memory required for data: 70255616
I0116 15:13:14.432478 44736 layer_factory.hpp:77] Creating layer relu2
I0116 15:13:14.432535 44736 net.cpp:100] Creating Layer relu2
I0116 15:13:14.432623 44736 net.cpp:434] relu2 <- conv2
I0116 15:13:14.432695 44736 net.cpp:395] relu2 -> conv2 (in-place)
I0116 15:13:14.432780 44736 net.cpp:150] Setting up relu2
I0116 15:13:14.432829 44736 net.cpp:157] Top shape: 256 32 16 16 (2097152)
I0116 15:13:14.432862 44736 net.cpp:165] Memory required for data: 78644224
I0116 15:13:14.432896 44736 layer_factory.hpp:77] Creating layer pool2
I0116 15:13:14.432965 44736 net.cpp:100] Creating Layer pool2
I0116 15:13:14.432999 44736 net.cpp:434] pool2 <- conv2
I0116 15:13:14.433044 44736 net.cpp:408] pool2 -> pool2
I0116 15:13:14.433140 44736 net.cpp:150] Setting up pool2
I0116 15:13:14.433187 44736 net.cpp:157] Top shape: 256 32 8 8 (524288)
I0116 15:13:14.433221 44736 net.cpp:165] Memory required for data: 80741376
I0116 15:13:14.433254 44736 layer_factory.hpp:77] Creating layer norm2
I0116 15:13:14.433306 44736 net.cpp:100] Creating Layer norm2
I0116 15:13:14.433339 44736 net.cpp:434] norm2 <- pool2
I0116 15:13:14.433408 44736 net.cpp:408] norm2 -> norm2
I0116 15:13:14.433594 44736 net.cpp:150] Setting up norm2
I0116 15:13:14.433651 44736 net.cpp:157] Top shape: 256 32 8 8 (524288)
I0116 15:13:14.433683 44736 net.cpp:165] Memory required for data: 82838528
I0116 15:13:14.433718 44736 layer_factory.hpp:77] Creating layer conv3
I0116 15:13:14.433838 44736 net.cpp:100] Creating Layer conv3
I0116 15:13:14.433985 44736 net.cpp:434] conv3 <- norm2
I0116 15:13:14.434049 44736 net.cpp:408] conv3 -> conv3
I0116 15:13:14.436730 44736 net.cpp:150] Setting up conv3
I0116 15:13:14.436888 44736 net.cpp:157] Top shape: 256 64 8 8 (1048576)
I0116 15:13:14.436924 44736 net.cpp:165] Memory required for data: 87032832
I0116 15:13:14.437001 44736 layer_factory.hpp:77] Creating layer relu3
I0116 15:13:14.437053 44736 net.cpp:100] Creating Layer relu3
I0116 15:13:14.437088 44736 net.cpp:434] relu3 <- conv3
I0116 15:13:14.437150 44736 net.cpp:395] relu3 -> conv3 (in-place)
I0116 15:13:14.437206 44736 net.cpp:150] Setting up relu3
I0116 15:13:14.437250 44736 net.cpp:157] Top shape: 256 64 8 8 (1048576)
I0116 15:13:14.437281 44736 net.cpp:165] Memory required for data: 91227136
I0116 15:13:14.437314 44736 layer_factory.hpp:77] Creating layer pool3
I0116 15:13:14.437358 44736 net.cpp:100] Creating Layer pool3
I0116 15:13:14.437391 44736 net.cpp:434] pool3 <- conv3
I0116 15:13:14.437433 44736 net.cpp:408] pool3 -> pool3
I0116 15:13:14.437531 44736 net.cpp:150] Setting up pool3
I0116 15:13:14.437577 44736 net.cpp:157] Top shape: 256 64 4 4 (262144)
I0116 15:13:14.437613 44736 net.cpp:165] Memory required for data: 92275712
I0116 15:13:14.437645 44736 layer_factory.hpp:77] Creating layer ip1
I0116 15:13:14.437710 44736 net.cpp:100] Creating Layer ip1
I0116 15:13:14.437748 44736 net.cpp:434] ip1 <- pool3
I0116 15:13:14.437854 44736 net.cpp:408] ip1 -> ip1
I0116 15:13:14.438479 44736 net.cpp:150] Setting up ip1
I0116 15:13:14.438544 44736 net.cpp:157] Top shape: 256 10 (2560)
I0116 15:13:14.438576 44736 net.cpp:165] Memory required for data: 92285952
I0116 15:13:14.438632 44736 layer_factory.hpp:77] Creating layer loss
I0116 15:13:14.438686 44736 net.cpp:100] Creating Layer loss
I0116 15:13:14.438721 44736 net.cpp:434] loss <- ip1
I0116 15:13:14.438792 44736 net.cpp:434] loss <- label
I0116 15:13:14.438840 44736 net.cpp:408] loss -> loss
I0116 15:13:14.438938 44736 layer_factory.hpp:77] Creating layer loss
…
I0116 15:13:14.444267 44736 solver.cpp:181] Creating test net (#0) specified by net file: examples/cifar10/cifar10_full_train_test_bsize256.prototxt
I0116 15:13:14.444478 44736 net.cpp:322] The NetState phase (1) differed from the phase (0) specified by a rule in layer cifar
I0116 15:13:14.446396 44736 net.cpp:58] Initializing net from parameters: 
name: "CIFAR10_full"
state {
  phase: TEST
}
layer {
  name: "cifar"
  type: "Data"
  top: "data"
  top: "label"
  include {
    phase: TEST
  }
  transform_param {
    mean_file: "examples/cifar10/mean.binaryproto"
  }
  data_param {
    source: "examples/cifar10/cifar10_test_lmdb"
    batch_size: 100
    backend: LMDB
  }
}
layer {
  name: "conv1"
  type: "Convolution"
  bottom: "data"
  top: "conv1"
  param {
    lr_mult: 1
  }
  param {
    lr_mult: 2
  }
  convolution_param {
    num_output: 32
    pad: 2
    kernel_size: 5
    stride: 1
    weight_filler {
      type: "gaussian"
      std: 0.0001
    }
    bias_filler {
      type: "constant"
    }
  }
}
layer {
  name: "pool1"
  type: "Pooling"
  bottom: "conv1"
  top: "pool1"
  pooling_param {
    pool: MAX
    kernel_size: 3
    stride: 2
  }
}
layer {
  name: "relu1"
  type: "ReLU"
  bottom: "pool1"
  top: "pool1"
}
layer {
  name: "norm1"
  type: "LRN"
  bottom: "pool1"
  top: "norm1"
  lrn_param {
    local_size: 3
    alpha: 5e-05
    beta: 0.75
    norm_region: WITHIN_CHANNEL
  }
}
layer {
  name: "conv2"
  type: "Convolution"
  bottom: "norm1"
  top: "conv2"
  param {
    lr_mult: 1
  }
  param {
    lr_mult: 2
  }
  convolution_param {
    num_output: 32
    pad: 2
    kernel_size: 5
    stride: 1
    weight_filler {
      type: "gaussian"
      std: 0.01
    }
    bias_filler {
      type: "constant"
    }
  }
}
layer {
  name: "relu2"
  type: "ReLU"
  bottom: "conv2"
  top: "conv2"
}
layer {
  name: "pool2"
  type: "Pooling"
  bottom: "conv2"
  top: "pool2"
  pooling_param {
    pool: AVE
    kernel_size: 3
    stride: 2
  }
}
layer {
  name: "norm2"
  type: "LRN"
  bottom: "pool2"
  top: "norm2"
  lrn_param {
    local_size: 3
    alpha: 5e-05
    beta: 0.75
    norm_region: WITHIN_CHANNEL
  }
}
layer {
  name: "conv3"
  type: "Convolution"
  bottom: "norm2"
  top: "conv3"
  convolution_param {
    num_output: 64
    pad: 2
    kernel_size: 5
    stride: 1
    weight_filler {
      type: "gaussian"
      std: 0.01
    }
    bias_filler {
      type: "constant"
    }
  }
}
layer {
  name: "relu3"
  type: "ReLU"
  bottom: "conv3"
  top: "conv3"
}
layer {
  name: "pool3"
  type: "Pooling"
  bottom: "conv3"
  top: "pool3"
  pooling_param {
    pool: AVE
    kernel_size: 3
    stride: 2
  }
}
layer {
  name: "ip1"
  type: "InnerProduct"
  bottom: "pool3"
  top: "ip1"
  param {
    lr_mult: 1
    decay_mult: 250
  }
  param {
    lr_mult: 2
    decay_mult: 0
  }
  inner_product_param {
    num_output: 10
    weight_filler {
      type: "gaussian"
      std: 0.01
    }
    bias_filler {
      type: "constant"
    }
  }
}
layer {
  name: "accuracy"
  type: "Accuracy"
  bottom: "ip1"
  bottom: "label"
  top: "accuracy"
  include {
    phase: TEST
  }
}
layer {
  name: "loss"
  type: "SoftmaxWithLoss"
  bottom: "ip1"
  bottom: "label"
  top: "loss"
}
I0116 15:13:14.447100 44736 layer_factory.hpp:77] Creating layer cifar
I0116 15:13:14.447662 44736 net.cpp:100] Creating Layer cifar
I0116 15:13:14.447839 44736 net.cpp:408] cifar -> data
I0116 15:13:14.447950 44736 net.cpp:408] cifar -> label
I0116 15:13:14.448016 44736 data_transformer.cpp:25] Loading mean file from: examples/cifar10/mean.binaryproto
I0116 15:13:14.455080 44739 db_lmdb.cpp:35] Opened lmdb examples/cifar10/cifar10_test_lmdb
I0116 15:13:14.456668 44736 data_layer.cpp:41] output data size: 100,3,32,32
I0116 15:13:14.459267 44736 net.cpp:150] Setting up cifar
I0116 15:13:14.459388 44736 net.cpp:157] Top shape: 100 3 32 32 (307200)
I0116 15:13:14.459434 44736 net.cpp:157] Top shape: 100 (100)
I0116 15:13:14.459471 44736 net.cpp:165] Memory required for data: 1229200
I0116 15:13:14.459516 44736 layer_factory.hpp:77] Creating layer label_cifar_1_split
I0116 15:13:14.459576 44736 net.cpp:100] Creating Layer label_cifar_1_split
I0116 15:13:14.459615 44736 net.cpp:434] label_cifar_1_split <- label
I0116 15:13:14.459662 44736 net.cpp:408] label_cifar_1_split -> label_cifar_1_split_0
I0116 15:13:14.459723 44736 net.cpp:408] label_cifar_1_split -> label_cifar_1_split_1
I0116 15:13:14.459842 44736 net.cpp:150] Setting up label_cifar_1_split
I0116 15:13:14.459897 44736 net.cpp:157] Top shape: 100 (100)
I0116 15:13:14.459945 44736 net.cpp:157] Top shape: 100 (100)
I0116 15:13:14.459978 44736 net.cpp:165] Memory required for data: 1230000
I0116 15:13:14.460132 44736 layer_factory.hpp:77] Creating layer conv1
I0116 15:13:14.460208 44736 net.cpp:100] Creating Layer conv1
I0116 15:13:14.460245 44736 net.cpp:434] conv1 <- data
I0116 15:13:14.460306 44736 net.cpp:408] conv1 -> conv1
I0116 15:13:14.460613 44736 net.cpp:150] Setting up conv1
I0116 15:13:14.460669 44736 net.cpp:157] Top shape: 100 32 32 32 (3276800)
I0116 15:13:14.460705 44736 net.cpp:165] Memory required for data: 14337200
I0116 15:13:14.460803 44736 layer_factory.hpp:77] Creating layer pool1
I0116 15:13:14.460891 44736 net.cpp:100] Creating Layer pool1
I0116 15:13:14.460927 44736 net.cpp:434] pool1 <- conv1
I0116 15:13:14.460985 44736 net.cpp:408] pool1 -> pool1
I0116 15:13:14.461067 44736 net.cpp:150] Setting up pool1
I0116 15:13:14.461122 44736 net.cpp:157] Top shape: 100 32 16 16 (819200)
I0116 15:13:14.461180 44736 net.cpp:165] Memory required for data: 17614000
I0116 15:13:14.461220 44736 layer_factory.hpp:77] Creating layer relu1
I0116 15:13:14.461284 44736 net.cpp:100] Creating Layer relu1
I0116 15:13:14.461318 44736 net.cpp:434] relu1 <- pool1
I0116 15:13:14.461379 44736 net.cpp:395] relu1 -> pool1 (in-place)
I0116 15:13:14.461426 44736 net.cpp:150] Setting up relu1
I0116 15:13:14.461467 44736 net.cpp:157] Top shape: 100 32 16 16 (819200)
I0116 15:13:14.461534 44736 net.cpp:165] Memory required for data: 20890800
I0116 15:13:14.461567 44736 layer_factory.hpp:77] Creating layer norm1
I0116 15:13:14.461611 44736 net.cpp:100] Creating Layer norm1
I0116 15:13:14.461643 44736 net.cpp:434] norm1 <- pool1
I0116 15:13:14.461685 44736 net.cpp:408] norm1 -> norm1
I0116 15:13:14.461884 44736 net.cpp:150] Setting up norm1
I0116 15:13:14.461936 44736 net.cpp:157] Top shape: 100 32 16 16 (819200)
I0116 15:13:14.461969 44736 net.cpp:165] Memory required for data: 24167600
I0116 15:13:14.462003 44736 layer_factory.hpp:77] Creating layer conv2
I0116 15:13:14.462059 44736 net.cpp:100] Creating Layer conv2
I0116 15:13:14.462092 44736 net.cpp:434] conv2 <- norm1
I0116 15:13:14.462152 44736 net.cpp:408] conv2 -> conv2
I0116 15:13:14.463558 44736 net.cpp:150] Setting up conv2
I0116 15:13:14.463644 44736 net.cpp:157] Top shape: 100 32 16 16 (819200)
I0116 15:13:14.463690 44736 net.cpp:165] Memory required for data: 27444400
I0116 15:13:14.463783 44736 layer_factory.hpp:77] Creating layer relu2
I0116 15:13:14.463836 44736 net.cpp:100] Creating Layer relu2
I0116 15:13:14.463872 44736 net.cpp:434] relu2 <- conv2
I0116 15:13:14.463939 44736 net.cpp:395] relu2 -> conv2 (in-place)
I0116 15:13:14.463995 44736 net.cpp:150] Setting up relu2
I0116 15:13:14.464041 44736 net.cpp:157] Top shape: 100 32 16 16 (819200)
I0116 15:13:14.464073 44736 net.cpp:165] Memory required for data: 30721200
I0116 15:13:14.464109 44736 layer_factory.hpp:77] Creating layer pool2
I0116 15:13:14.464159 44736 net.cpp:100] Creating Layer pool2
I0116 15:13:14.464192 44736 net.cpp:434] pool2 <- conv2
I0116 15:13:14.464241 44736 net.cpp:408] pool2 -> pool2
I0116 15:13:14.464330 44736 net.cpp:150] Setting up pool2
I0116 15:13:14.464380 44736 net.cpp:157] Top shape: 100 32 8 8 (204800)
I0116 15:13:14.464411 44736 net.cpp:165] Memory required for data: 31540400
I0116 15:13:14.464445 44736 layer_factory.hpp:77] Creating layer norm2
I0116 15:13:14.464514 44736 net.cpp:100] Creating Layer norm2
I0116 15:13:14.464555 44736 net.cpp:434] norm2 <- pool2
I0116 15:13:14.464598 44736 net.cpp:408] norm2 -> norm2
I0116 15:13:14.464794 44736 net.cpp:150] Setting up norm2
I0116 15:13:14.464846 44736 net.cpp:157] Top shape: 100 32 8 8 (204800)
I0116 15:13:14.464879 44736 net.cpp:165] Memory required for data: 32359600
I0116 15:13:14.464913 44736 layer_factory.hpp:77] Creating layer conv3
I0116 15:13:14.464983 44736 net.cpp:100] Creating Layer conv3
I0116 15:13:14.465018 44736 net.cpp:434] conv3 <- norm2
I0116 15:13:14.465064 44736 net.cpp:408] conv3 -> conv3
I0116 15:13:14.467734 44736 net.cpp:150] Setting up conv3
I0116 15:13:14.467859 44736 net.cpp:157] Top shape: 100 64 8 8 (409600)
I0116 15:13:14.467893 44736 net.cpp:165] Memory required for data: 33998000
I0116 15:13:14.468089 44736 layer_factory.hpp:77] Creating layer relu3
I0116 15:13:14.468158 44736 net.cpp:100] Creating Layer relu3
I0116 15:13:14.468196 44736 net.cpp:434] relu3 <- conv3
I0116 15:13:14.468241 44736 net.cpp:395] relu3 -> conv3 (in-place)
I0116 15:13:14.468305 44736 net.cpp:150] Setting up relu3
I0116 15:13:14.468348 44736 net.cpp:157] Top shape: 100 64 8 8 (409600)
I0116 15:13:14.468380 44736 net.cpp:165] Memory required for data: 35636400
I0116 15:13:14.468415 44736 layer_factory.hpp:77] Creating layer pool3
I0116 15:13:14.468457 44736 net.cpp:100] Creating Layer pool3
I0116 15:13:14.468490 44736 net.cpp:434] pool3 <- conv3
I0116 15:13:14.468565 44736 net.cpp:408] pool3 -> pool3
I0116 15:13:14.468649 44736 net.cpp:150] Setting up pool3
I0116 15:13:14.468693 44736 net.cpp:157] Top shape: 100 64 4 4 (102400)
I0116 15:13:14.468726 44736 net.cpp:165] Memory required for data: 36046000
I0116 15:13:14.468791 44736 layer_factory.hpp:77] Creating layer ip1
I0116 15:13:14.468837 44736 net.cpp:100] Creating Layer ip1
I0116 15:13:14.468870 44736 net.cpp:434] ip1 <- pool3
I0116 15:13:14.468917 44736 net.cpp:408] ip1 -> ip1
I0116 15:13:14.469514 44736 net.cpp:150] Setting up ip1
I0116 15:13:14.469578 44736 net.cpp:157] Top shape: 100 10 (1000)
I0116 15:13:14.469619 44736 net.cpp:165] Memory required for data: 36050000
I0116 15:13:14.469673 44736 layer_factory.hpp:77] Creating layer ip1_ip1_0_split
I0116 15:13:14.469730 44736 net.cpp:100] Creating Layer ip1_ip1_0_split
I0116 15:13:14.469786 44736 net.cpp:434] ip1_ip1_0_split <- ip1
I0116 15:13:14.469837 44736 net.cpp:408] ip1_ip1_0_split -> ip1_ip1_0_split_0
I0116 15:13:14.469898 44736 net.cpp:408] ip1_ip1_0_split -> ip1_ip1_0_split_1
I0116 15:13:14.469969 44736 net.cpp:150] Setting up ip1_ip1_0_split
I0116 15:13:14.470016 44736 net.cpp:157] Top shape: 100 10 (1000)
I0116 15:13:14.470067 44736 net.cpp:157] Top shape: 100 10 (1000)
I0116 15:13:14.470099 44736 net.cpp:165] Memory required for data: 36058000
I0116 15:13:14.470137 44736 layer_factory.hpp:77] Creating layer accuracy
I0116 15:13:14.470194 44736 net.cpp:100] Creating Layer accuracy
I0116 15:13:14.470237 44736 net.cpp:434] accuracy <- ip1_ip1_0_split_0
I0116 15:13:14.470285 44736 net.cpp:434] accuracy <- label_cifar_1_split_0
I0116 15:13:14.470327 44736 net.cpp:408] accuracy -> accuracy
…
