…
I0116 14:34:24.383258 43685 net.cpp:322] The NetState phase (0) differed from the phase (1) specified by a rule in layer accuracy
I0116 14:34:24.385071 43685 net.cpp:58] Initializing net from parameters: 
name: "CIFAR10_full"
state {
  phase: TRAIN
  level: 0
  stage: ""
}
layer {
  name: "cifar"
  type: "Data"
  top: "data"
  top: "label"
  include {
    phase: TRAIN
  }
  transform_param {
    mean_file: "examples/cifar10/mean.binaryproto"
  }
  data_param {
    source: "examples/cifar10/cifar10_train_lmdb"
    batch_size: 256
    backend: LMDB
  }
}
layer {
  name: "conv1"
  type: "Convolution"
  bottom: "data"
  top: "conv1"
  param {
    lr_mult: 1
  }
  param {
    lr_mult: 2
  }
  convolution_param {
    num_output: 32
    pad: 2
    kernel_size: 5
    stride: 1
    weight_filler {
      type: "gaussian"
      std: 0.0001
    }
    bias_filler {
      type: "constant"
    }
  }
}
layer {
  name: "pool1"
  type: "Pooling"
  bottom: "conv1"
  top: "pool1"
  pooling_param {
    pool: MAX
    kernel_size: 3
    stride: 2
  }
}
layer {
  name: "relu1"
  type: "ReLU"
  bottom: "pool1"
  top: "pool1"
}
layer {
  name: "norm1"
  type: "LRN"
  bottom: "pool1"
  top: "norm1"
  lrn_param {
    local_size: 3
    alpha: 5e-05
    beta: 0.75
    norm_region: WITHIN_CHANNEL
  }
}
layer {
  name: "conv2"
  type: "Convolution"
  bottom: "norm1"
  top: "conv2"
  param {
    lr_mult: 1
  }
  param {
    lr_mult: 2
  }
  convolution_param {
    num_output: 32
    pad: 2
    kernel_size: 5
    stride: 1
    weight_filler {
      type: "gaussian"
      std: 0.01
    }
    bias_filler {
      type: "constant"
    }
  }
}
layer {
  name: "relu2"
  type: "ReLU"
  bottom: "conv2"
  top: "conv2"
}
layer {
  name: "pool2"
  type: "Pooling"
  bottom: "conv2"
  top: "pool2"
  pooling_param {
    pool: AVE
    kernel_size: 3
    stride: 2
  }
}
layer {
  name: "norm2"
  type: "LRN"
  bottom: "pool2"
  top: "norm2"
  lrn_param {
    local_size: 3
    alpha: 5e-05
    beta: 0.75
    norm_region: WITHIN_CHANNEL
  }
}
layer {
  name: "conv3"
  type: "Convolution"
  bottom: "norm2"
  top: "conv3"
  convolution_param {
    num_output: 64
    pad: 2
    kernel_size: 5
    stride: 1
    weight_filler {
      type: "gaussian"
      std: 0.01
    }
    bias_filler {
      type: "constant"
    }
  }
}
layer {
  name: "relu3"
  type: "ReLU"
  bottom: "conv3"
  top: "conv3"
}
layer {
  name: "pool3"
  type: "Pooling"
  bottom: "conv3"
  top: "pool3"
  pooling_param {
    pool: AVE
    kernel_size: 3
    stride: 2
  }
}
layer {
  name: "ip1"
  type: "InnerProduct"
  bottom: "pool3"
  top: "ip1"
  param {
    lr_mult: 1
    decay_mult: 250
  }
  param {
    lr_mult: 2
    decay_mult: 0
  }
  inner_product_param {
    num_output: 10
    weight_filler {
      type: "gaussian"
      std: 0.01
    }
    bias_filler {
      type: "constant"
    }
  }
}
layer {
  name: "loss"
  type: "SoftmaxWithLoss"
  bottom: "ip1"
  bottom: "label"
  top: "loss"
}
I0116 14:34:24.388280 43685 layer_factory.hpp:77] Creating layer cifar
I0116 14:34:24.391125 43685 net.cpp:100] Creating Layer cifar
I0116 14:34:24.391644 43685 net.cpp:408] cifar -> data
I0116 14:34:24.393365 43685 net.cpp:408] cifar -> label
I0116 14:34:24.393537 43685 data_transformer.cpp:25] Loading mean file from: examples/cifar10/mean.binaryproto
I0116 14:34:24.427745 43686 db_lmdb.cpp:35] Opened lmdb examples/cifar10/cifar10_train_lmdb
I0116 14:34:24.930073 43685 data_layer.cpp:41] output data size: 256,3,32,32
I0116 14:34:24.934671 43685 net.cpp:150] Setting up cifar
I0116 14:34:24.934882 43685 net.cpp:157] Top shape: 256 3 32 32 (786432)
I0116 14:34:24.934965 43685 net.cpp:157] Top shape: 256 (256)
I0116 14:34:24.935014 43685 net.cpp:165] Memory required for data: 3146752
I0116 14:34:24.935125 43685 layer_factory.hpp:77] Creating layer conv1
I0116 14:34:24.935304 43685 net.cpp:100] Creating Layer conv1
I0116 14:34:24.935412 43685 net.cpp:434] conv1 <- data
I0116 14:34:24.935591 43685 net.cpp:408] conv1 -> conv1
I0116 14:34:24.947136 43685 net.cpp:150] Setting up conv1
I0116 14:34:24.947273 43685 net.cpp:157] Top shape: 256 32 32 32 (8388608)
I0116 14:34:24.947336 43685 net.cpp:165] Memory required for data: 36701184
I0116 14:34:24.947517 43685 layer_factory.hpp:77] Creating layer pool1
I0116 14:34:24.947671 43685 net.cpp:100] Creating Layer pool1
I0116 14:34:24.947929 43685 net.cpp:434] pool1 <- conv1
I0116 14:34:24.948015 43685 net.cpp:408] pool1 -> pool1
I0116 14:34:24.948215 43685 net.cpp:150] Setting up pool1
I0116 14:34:24.948518 43685 net.cpp:157] Top shape: 256 32 16 16 (2097152)
I0116 14:34:24.948570 43685 net.cpp:165] Memory required for data: 45089792
I0116 14:34:24.948618 43685 layer_factory.hpp:77] Creating layer relu1
I0116 14:34:24.948698 43685 net.cpp:100] Creating Layer relu1
I0116 14:34:24.948794 43685 net.cpp:434] relu1 <- pool1
I0116 14:34:24.948890 43685 net.cpp:395] relu1 -> pool1 (in-place)
I0116 14:34:24.951514 43685 net.cpp:150] Setting up relu1
I0116 14:34:24.951650 43685 net.cpp:157] Top shape: 256 32 16 16 (2097152)
I0116 14:34:24.951715 43685 net.cpp:165] Memory required for data: 53478400
I0116 14:34:24.951812 43685 layer_factory.hpp:77] Creating layer norm1
I0116 14:34:24.951951 43685 net.cpp:100] Creating Layer norm1
I0116 14:34:24.952030 43685 net.cpp:434] norm1 <- pool1
I0116 14:34:24.952112 43685 net.cpp:408] norm1 -> norm1
I0116 14:34:24.954560 43685 net.cpp:150] Setting up norm1
I0116 14:34:24.954694 43685 net.cpp:157] Top shape: 256 32 16 16 (2097152)
I0116 14:34:24.954749 43685 net.cpp:165] Memory required for data: 61867008
I0116 14:34:24.954845 43685 layer_factory.hpp:77] Creating layer conv2
I0116 14:34:24.954952 43685 net.cpp:100] Creating Layer conv2
I0116 14:34:24.955011 43685 net.cpp:434] conv2 <- norm1
I0116 14:34:24.955106 43685 net.cpp:408] conv2 -> conv2
I0116 14:34:24.956689 43685 net.cpp:150] Setting up conv2
I0116 14:34:24.956851 43685 net.cpp:157] Top shape: 256 32 16 16 (2097152)
I0116 14:34:24.956904 43685 net.cpp:165] Memory required for data: 70255616
I0116 14:34:24.956989 43685 layer_factory.hpp:77] Creating layer relu2
I0116 14:34:24.957056 43685 net.cpp:100] Creating Layer relu2
I0116 14:34:24.957104 43685 net.cpp:434] relu2 <- conv2
I0116 14:34:24.957180 43685 net.cpp:395] relu2 -> conv2 (in-place)
I0116 14:34:24.957264 43685 net.cpp:150] Setting up relu2
I0116 14:34:24.957324 43685 net.cpp:157] Top shape: 256 32 16 16 (2097152)
I0116 14:34:24.957569 43685 net.cpp:165] Memory required for data: 78644224
I0116 14:34:24.957618 43685 layer_factory.hpp:77] Creating layer pool2
I0116 14:34:24.957677 43685 net.cpp:100] Creating Layer pool2
I0116 14:34:24.957718 43685 net.cpp:434] pool2 <- conv2
I0116 14:34:24.957809 43685 net.cpp:408] pool2 -> pool2
I0116 14:34:24.957937 43685 net.cpp:150] Setting up pool2
I0116 14:34:24.958133 43685 net.cpp:157] Top shape: 256 32 8 8 (524288)
I0116 14:34:24.958178 43685 net.cpp:165] Memory required for data: 80741376
I0116 14:34:24.958227 43685 layer_factory.hpp:77] Creating layer norm2
I0116 14:34:24.958333 43685 net.cpp:100] Creating Layer norm2
I0116 14:34:24.958402 43685 net.cpp:434] norm2 <- pool2
I0116 14:34:24.958479 43685 net.cpp:408] norm2 -> norm2
I0116 14:34:24.958959 43685 net.cpp:150] Setting up norm2
I0116 14:34:24.959071 43685 net.cpp:157] Top shape: 256 32 8 8 (524288)
I0116 14:34:24.959116 43685 net.cpp:165] Memory required for data: 82838528
I0116 14:34:24.959172 43685 layer_factory.hpp:77] Creating layer conv3
I0116 14:34:24.959285 43685 net.cpp:100] Creating Layer conv3
I0116 14:34:24.959486 43685 net.cpp:434] conv3 <- norm2
I0116 14:34:24.959581 43685 net.cpp:408] conv3 -> conv3
I0116 14:34:24.962406 43685 net.cpp:150] Setting up conv3
I0116 14:34:24.962538 43685 net.cpp:157] Top shape: 256 64 8 8 (1048576)
I0116 14:34:24.962589 43685 net.cpp:165] Memory required for data: 87032832
I0116 14:34:24.962680 43685 layer_factory.hpp:77] Creating layer relu3
I0116 14:34:24.962790 43685 net.cpp:100] Creating Layer relu3
I0116 14:34:24.962846 43685 net.cpp:434] relu3 <- conv3
I0116 14:34:24.962924 43685 net.cpp:395] relu3 -> conv3 (in-place)
I0116 14:34:24.963003 43685 net.cpp:150] Setting up relu3
I0116 14:34:24.963057 43685 net.cpp:157] Top shape: 256 64 8 8 (1048576)
I0116 14:34:24.963091 43685 net.cpp:165] Memory required for data: 91227136
I0116 14:34:24.963130 43685 layer_factory.hpp:77] Creating layer pool3
I0116 14:34:24.963191 43685 net.cpp:100] Creating Layer pool3
I0116 14:34:24.963243 43685 net.cpp:434] pool3 <- conv3
I0116 14:34:24.963333 43685 net.cpp:408] pool3 -> pool3
I0116 14:34:24.963461 43685 net.cpp:150] Setting up pool3
I0116 14:34:24.963553 43685 net.cpp:157] Top shape: 256 64 4 4 (262144)
I0116 14:34:24.963594 43685 net.cpp:165] Memory required for data: 92275712
I0116 14:34:24.963639 43685 layer_factory.hpp:77] Creating layer ip1
I0116 14:34:24.963726 43685 net.cpp:100] Creating Layer ip1
I0116 14:34:24.963809 43685 net.cpp:434] ip1 <- pool3
I0116 14:34:24.963912 43685 net.cpp:408] ip1 -> ip1
I0116 14:34:24.964886 43685 net.cpp:150] Setting up ip1
I0116 14:34:24.965126 43685 net.cpp:157] Top shape: 256 10 (2560)
I0116 14:34:24.965173 43685 net.cpp:165] Memory required for data: 92285952
I0116 14:34:24.965242 43685 layer_factory.hpp:77] Creating layer loss
I0116 14:34:24.965334 43685 net.cpp:100] Creating Layer loss
I0116 14:34:24.965390 43685 net.cpp:434] loss <- ip1
I0116 14:34:24.965559 43685 net.cpp:434] loss <- label
I0116 14:34:24.965637 43685 net.cpp:408] loss -> loss
I0116 14:34:24.968658 43685 layer_factory.hpp:77] Creating layer loss
…
I0116 14:34:24.979789 43685 solver.cpp:181] Creating test net (#0) specified by net file: examples/cifar10/cifar10_full_train_test_bsize256.prototxt
I0116 14:34:24.980168 43685 net.cpp:322] The NetState phase (1) differed from the phase (0) specified by a rule in layer cifar
I0116 14:34:24.984861 43685 net.cpp:58] Initializing net from parameters: 
name: "CIFAR10_full"
state {
  phase: TEST
}
layer {
  name: "cifar"
  type: "Data"
  top: "data"
  top: "label"
  include {
    phase: TEST
  }
  transform_param {
    mean_file: "examples/cifar10/mean.binaryproto"
  }
  data_param {
    source: "examples/cifar10/cifar10_test_lmdb"
    batch_size: 100
    backend: LMDB
  }
}
layer {
  name: "conv1"
  type: "Convolution"
  bottom: "data"
  top: "conv1"
  param {
    lr_mult: 1
  }
  param {
    lr_mult: 2
  }
  convolution_param {
    num_output: 32
    pad: 2
    kernel_size: 5
    stride: 1
    weight_filler {
      type: "gaussian"
      std: 0.0001
    }
    bias_filler {
      type: "constant"
    }
  }
}
layer {
  name: "pool1"
  type: "Pooling"
  bottom: "conv1"
  top: "pool1"
  pooling_param {
    pool: MAX
    kernel_size: 3
    stride: 2
  }
}
layer {
  name: "relu1"
  type: "ReLU"
  bottom: "pool1"
  top: "pool1"
}
layer {
  name: "norm1"
  type: "LRN"
  bottom: "pool1"
  top: "norm1"
  lrn_param {
    local_size: 3
    alpha: 5e-05
    beta: 0.75
    norm_region: WITHIN_CHANNEL
  }
}
layer {
  name: "conv2"
  type: "Convolution"
  bottom: "norm1"
  top: "conv2"
  param {
    lr_mult: 1
  }
  param {
    lr_mult: 2
  }
  convolution_param {
    num_output: 32
    pad: 2
    kernel_size: 5
    stride: 1
    weight_filler {
      type: "gaussian"
      std: 0.01
    }
    bias_filler {
      type: "constant"
    }
  }
}
layer {
  name: "relu2"
  type: "ReLU"
  bottom: "conv2"
  top: "conv2"
}
layer {
  name: "pool2"
  type: "Pooling"
  bottom: "conv2"
  top: "pool2"
  pooling_param {
    pool: AVE
    kernel_size: 3
    stride: 2
  }
}
layer {
  name: "norm2"
  type: "LRN"
  bottom: "pool2"
  top: "norm2"
  lrn_param {
    local_size: 3
    alpha: 5e-05
    beta: 0.75
    norm_region: WITHIN_CHANNEL
  }
}
layer {
  name: "conv3"
  type: "Convolution"
  bottom: "norm2"
  top: "conv3"
  convolution_param {
    num_output: 64
    pad: 2
    kernel_size: 5
    stride: 1
    weight_filler {
      type: "gaussian"
      std: 0.01
    }
    bias_filler {
      type: "constant"
    }
  }
}
layer {
  name: "relu3"
  type: "ReLU"
  bottom: "conv3"
  top: "conv3"
}
layer {
  name: "pool3"
  type: "Pooling"
  bottom: "conv3"
  top: "pool3"
  pooling_param {
    pool: AVE
    kernel_size: 3
    stride: 2
  }
}
layer {
  name: "ip1"
  type: "InnerProduct"
  bottom: "pool3"
  top: "ip1"
  param {
    lr_mult: 1
    decay_mult: 250
  }
  param {
    lr_mult: 2
    decay_mult: 0
  }
  inner_product_param {
    num_output: 10
    weight_filler {
      type: "gaussian"
      std: 0.01
    }
    bias_filler {
      type: "constant"
    }
  }
}
layer {
  name: "accuracy"
  type: "Accuracy"
  bottom: "ip1"
  bottom: "label"
  top: "accuracy"
  include {
    phase: TEST
  }
}
layer {
  name: "loss"
  type: "SoftmaxWithLoss"
  bottom: "ip1"
  bottom: "label"
  top: "loss"
}
I0116 14:34:24.986588 43685 layer_factory.hpp:77] Creating layer cifar
I0116 14:34:24.989917 43685 net.cpp:100] Creating Layer cifar
I0116 14:34:24.990548 43685 net.cpp:408] cifar -> data
I0116 14:34:24.990803 43685 net.cpp:408] cifar -> label
I0116 14:34:24.990969 43685 data_transformer.cpp:25] Loading mean file from: examples/cifar10/mean.binaryproto
I0116 14:34:25.008489 43688 db_lmdb.cpp:35] Opened lmdb examples/cifar10/cifar10_test_lmdb
I0116 14:34:25.016837 43685 data_layer.cpp:41] output data size: 100,3,32,32
I0116 14:34:25.024420 43685 net.cpp:150] Setting up cifar
I0116 14:34:25.024555 43685 net.cpp:157] Top shape: 100 3 32 32 (307200)
I0116 14:34:25.024627 43685 net.cpp:157] Top shape: 100 (100)
I0116 14:34:25.024677 43685 net.cpp:165] Memory required for data: 1229200
I0116 14:34:25.024734 43685 layer_factory.hpp:77] Creating layer label_cifar_1_split
I0116 14:34:25.024852 43685 net.cpp:100] Creating Layer label_cifar_1_split
I0116 14:34:25.024917 43685 net.cpp:434] label_cifar_1_split <- label
I0116 14:34:25.024984 43685 net.cpp:408] label_cifar_1_split -> label_cifar_1_split_0
I0116 14:34:25.025069 43685 net.cpp:408] label_cifar_1_split -> label_cifar_1_split_1
I0116 14:34:25.025188 43685 net.cpp:150] Setting up label_cifar_1_split
I0116 14:34:25.025285 43685 net.cpp:157] Top shape: 100 (100)
I0116 14:34:25.025341 43685 net.cpp:157] Top shape: 100 (100)
I0116 14:34:25.025383 43685 net.cpp:165] Memory required for data: 1230000
I0116 14:34:25.025591 43685 layer_factory.hpp:77] Creating layer conv1
I0116 14:34:25.025727 43685 net.cpp:100] Creating Layer conv1
I0116 14:34:25.025825 43685 net.cpp:434] conv1 <- data
I0116 14:34:25.025915 43685 net.cpp:408] conv1 -> conv1
I0116 14:34:25.026641 43685 net.cpp:150] Setting up conv1
I0116 14:34:25.026837 43685 net.cpp:157] Top shape: 100 32 32 32 (3276800)
I0116 14:34:25.026933 43685 net.cpp:165] Memory required for data: 14337200
I0116 14:34:25.027101 43685 layer_factory.hpp:77] Creating layer pool1
I0116 14:34:25.027253 43685 net.cpp:100] Creating Layer pool1
I0116 14:34:25.027355 43685 net.cpp:434] pool1 <- conv1
I0116 14:34:25.027457 43685 net.cpp:408] pool1 -> pool1
I0116 14:34:25.027688 43685 net.cpp:150] Setting up pool1
I0116 14:34:25.027854 43685 net.cpp:157] Top shape: 100 32 16 16 (819200)
I0116 14:34:25.027945 43685 net.cpp:165] Memory required for data: 17614000
I0116 14:34:25.028030 43685 layer_factory.hpp:77] Creating layer relu1
I0116 14:34:25.028148 43685 net.cpp:100] Creating Layer relu1
I0116 14:34:25.028231 43685 net.cpp:434] relu1 <- pool1
I0116 14:34:25.028344 43685 net.cpp:395] relu1 -> pool1 (in-place)
I0116 14:34:25.028442 43685 net.cpp:150] Setting up relu1
I0116 14:34:25.028529 43685 net.cpp:157] Top shape: 100 32 16 16 (819200)
I0116 14:34:25.028586 43685 net.cpp:165] Memory required for data: 20890800
I0116 14:34:25.028645 43685 layer_factory.hpp:77] Creating layer norm1
I0116 14:34:25.028726 43685 net.cpp:100] Creating Layer norm1
I0116 14:34:25.028810 43685 net.cpp:434] norm1 <- pool1
I0116 14:34:25.028894 43685 net.cpp:408] norm1 -> norm1
I0116 14:34:25.029242 43685 net.cpp:150] Setting up norm1
I0116 14:34:25.029325 43689 blocking_queue.cpp:50] Waiting for data
I0116 14:34:25.029374 43685 net.cpp:157] Top shape: 100 32 16 16 (819200)
I0116 14:34:25.029439 43685 net.cpp:165] Memory required for data: 24167600
I0116 14:34:25.029496 43685 layer_factory.hpp:77] Creating layer conv2
I0116 14:34:25.029592 43685 net.cpp:100] Creating Layer conv2
I0116 14:34:25.029657 43685 net.cpp:434] conv2 <- norm1
I0116 14:34:25.029816 43685 net.cpp:408] conv2 -> conv2
I0116 14:34:25.032464 43685 net.cpp:150] Setting up conv2
I0116 14:34:25.032589 43685 net.cpp:157] Top shape: 100 32 16 16 (819200)
I0116 14:34:25.032636 43685 net.cpp:165] Memory required for data: 27444400
I0116 14:34:25.032723 43685 layer_factory.hpp:77] Creating layer relu2
I0116 14:34:25.032848 43685 net.cpp:100] Creating Layer relu2
I0116 14:34:25.032974 43685 net.cpp:434] relu2 <- conv2
I0116 14:34:25.033102 43685 net.cpp:395] relu2 -> conv2 (in-place)
I0116 14:34:25.033227 43685 net.cpp:150] Setting up relu2
I0116 14:34:25.033319 43685 net.cpp:157] Top shape: 100 32 16 16 (819200)
I0116 14:34:25.033375 43685 net.cpp:165] Memory required for data: 30721200
I0116 14:34:25.033432 43685 layer_factory.hpp:77] Creating layer pool2
I0116 14:34:25.033530 43685 net.cpp:100] Creating Layer pool2
I0116 14:34:25.033591 43685 net.cpp:434] pool2 <- conv2
I0116 14:34:25.033659 43685 net.cpp:408] pool2 -> pool2
I0116 14:34:25.033834 43685 net.cpp:150] Setting up pool2
I0116 14:34:25.033948 43685 net.cpp:157] Top shape: 100 32 8 8 (204800)
I0116 14:34:25.034010 43685 net.cpp:165] Memory required for data: 31540400
I0116 14:34:25.034070 43685 layer_factory.hpp:77] Creating layer norm2
I0116 14:34:25.034183 43685 net.cpp:100] Creating Layer norm2
I0116 14:34:25.034260 43685 net.cpp:434] norm2 <- pool2
I0116 14:34:25.034355 43685 net.cpp:408] norm2 -> norm2
I0116 14:34:25.034672 43685 net.cpp:150] Setting up norm2
I0116 14:34:25.034818 43685 net.cpp:157] Top shape: 100 32 8 8 (204800)
I0116 14:34:25.034871 43685 net.cpp:165] Memory required for data: 32359600
I0116 14:34:25.034914 43685 layer_factory.hpp:77] Creating layer conv3
I0116 14:34:25.035001 43685 net.cpp:100] Creating Layer conv3
I0116 14:34:25.035042 43685 net.cpp:434] conv3 <- norm2
I0116 14:34:25.035111 43685 net.cpp:408] conv3 -> conv3
I0116 14:34:25.038722 43685 net.cpp:150] Setting up conv3
I0116 14:34:25.038926 43685 net.cpp:157] Top shape: 100 64 8 8 (409600)
I0116 14:34:25.039240 43685 net.cpp:165] Memory required for data: 33998000
I0116 14:34:25.039433 43685 layer_factory.hpp:77] Creating layer relu3
I0116 14:34:25.039551 43685 net.cpp:100] Creating Layer relu3
I0116 14:34:25.039646 43685 net.cpp:434] relu3 <- conv3
I0116 14:34:25.039752 43685 net.cpp:395] relu3 -> conv3 (in-place)
I0116 14:34:25.039908 43685 net.cpp:150] Setting up relu3
I0116 14:34:25.040010 43685 net.cpp:157] Top shape: 100 64 8 8 (409600)
I0116 14:34:25.040066 43685 net.cpp:165] Memory required for data: 35636400
I0116 14:34:25.040120 43685 layer_factory.hpp:77] Creating layer pool3
I0116 14:34:25.040230 43685 net.cpp:100] Creating Layer pool3
I0116 14:34:25.040313 43685 net.cpp:434] pool3 <- conv3
I0116 14:34:25.040410 43685 net.cpp:408] pool3 -> pool3
I0116 14:34:25.040580 43685 net.cpp:150] Setting up pool3
I0116 14:34:25.040688 43685 net.cpp:157] Top shape: 100 64 4 4 (102400)
I0116 14:34:25.040748 43685 net.cpp:165] Memory required for data: 36046000
I0116 14:34:25.040861 43685 layer_factory.hpp:77] Creating layer ip1
I0116 14:34:25.040980 43685 net.cpp:100] Creating Layer ip1
I0116 14:34:25.041054 43685 net.cpp:434] ip1 <- pool3
I0116 14:34:25.041179 43685 net.cpp:408] ip1 -> ip1
I0116 14:34:25.042179 43685 net.cpp:150] Setting up ip1
I0116 14:34:25.042304 43685 net.cpp:157] Top shape: 100 10 (1000)
I0116 14:34:25.042351 43685 net.cpp:165] Memory required for data: 36050000
I0116 14:34:25.042425 43685 layer_factory.hpp:77] Creating layer ip1_ip1_0_split
I0116 14:34:25.042492 43685 net.cpp:100] Creating Layer ip1_ip1_0_split
I0116 14:34:25.042536 43685 net.cpp:434] ip1_ip1_0_split <- ip1
I0116 14:34:25.042589 43685 net.cpp:408] ip1_ip1_0_split -> ip1_ip1_0_split_0
I0116 14:34:25.042837 43685 net.cpp:408] ip1_ip1_0_split -> ip1_ip1_0_split_1
I0116 14:34:25.043215 43685 net.cpp:150] Setting up ip1_ip1_0_split
I0116 14:34:25.043308 43685 net.cpp:157] Top shape: 100 10 (1000)
I0116 14:34:25.043372 43685 net.cpp:157] Top shape: 100 10 (1000)
I0116 14:34:25.043423 43685 net.cpp:165] Memory required for data: 36058000
I0116 14:34:25.043478 43685 layer_factory.hpp:77] Creating layer accuracy
I0116 14:34:25.043581 43685 net.cpp:100] Creating Layer accuracy
I0116 14:34:25.043649 43685 net.cpp:434] accuracy <- ip1_ip1_0_split_0
I0116 14:34:25.043715 43685 net.cpp:434] accuracy <- label_cifar_1_split_0
I0116 14:34:25.043841 43685 net.cpp:408] accuracy -> accuracy
…
