…
I0115 18:27:09.047468 31378 net.cpp:484] The NetState phase (0) differed from the phase (1) specified by a rule in layer accuracy
I0115 18:27:09.048138 31378 net.cpp:120] Initializing net from parameters: 
name: "AlexNet"
state {
  phase: TRAIN
  level: 0
  stage: ""
}
layer {
  name: "data"
  type: "Data"
  top: "data"
  top: "label"
  include {
    phase: TRAIN
  }
  transform_param {
    mirror: true
    crop_size: 227
    mean_file: "/home/user/LIBRARIES/caffeLibs/caffe/data/ilsvrc12/imagenet_mean.binaryproto"
  }
  data_param {
    source: "/home/user/LIBRARIES/caffeLibs/caffe/examples/imagenet/ilsvrc12_train_lmdb"
    batch_size: 224
    backend: LMDB
  }
}
layer {
  name: "conv1"
  type: "Convolution"
  bottom: "data"
  top: "conv1"
  param {
    lr_mult: 1
    decay_mult: 1
  }
  param {
    lr_mult: 2
    decay_mult: 0
  }
  convolution_param {
    num_output: 96
    kernel_size: 11
    stride: 4
    weight_filler {
      type: "gaussian"
      std: 0.01
    }
    bias_filler {
      type: "constant"
      value: 0
    }
  }
}
layer {
  name: "relu1"
  type: "ReLU"
  bottom: "conv1"
  top: "conv1"
}
layer {
  name: "norm1"
  type: "LRN"
  bottom: "conv1"
  top: "norm1"
  lrn_param {
    local_size: 5
    alpha: 0.0001
    beta: 0.75
  }
}
layer {
  name: "pool1"
  type: "Pooling"
  bottom: "norm1"
  top: "pool1"
  pooling_param {
    pool: MAX
    kernel_size: 3
    stride: 2
  }
}
layer {
  name: "conv2"
  type: "Convolution"
  bottom: "pool1"
  top: "conv2"
  param {
    lr_mult: 1
    decay_mult: 1
  }
  param {
    lr_mult: 2
    decay_mult: 0
  }
  convolution_param {
    num_output: 256
    pad: 2
    kernel_size: 5
    group: 2
    weight_filler {
      type: "gaussian"
      std: 0.01
    }
    bias_filler {
      type: "constant"
      value: 0.1
    }
  }
}
layer {
  name: "relu2"
  type: "ReLU"
  bottom: "conv2"
  top: "conv2"
}
layer {
  name: "norm2"
  type: "LRN"
  bottom: "conv2"
  top: "norm2"
  lrn_param {
    local_size: 5
    alpha: 0.0001
    beta: 0.75
  }
}
layer {
  name: "pool2"
  type: "Pooling"
  bottom: "norm2"
  top: "pool2"
  pooling_param {
    pool: MAX
    kernel_size: 3
    stride: 2
  }
}
layer {
  name: "conv3"
  type: "Convolution"
  bottom: "pool2"
  top: "conv3"
  param {
    lr_mult: 1
    decay_mult: 1
  }
  param {
    lr_mult: 2
    decay_mult: 0
  }
  convolution_param {
    num_output: 384
    pad: 1
    kernel_size: 3
    weight_filler {
      type: "gaussian"
      std: 0.01
    }
    bias_filler {
      type: "constant"
      value: 0
    }
  }
}
layer {
  name: "relu3"
  type: "ReLU"
  bottom: "conv3"
  top: "conv3"
}
layer {
  name: "conv4"
  type: "Convolution"
  bottom: "conv3"
  top: "conv4"
  param {
    lr_mult: 1
    decay_mult: 1
  }
  param {
    lr_mult: 2
    decay_mult: 0
  }
  convolution_param {
    num_output: 384
    pad: 1
    kernel_size: 3
    group: 2
    weight_filler {
      type: "gaussian"
      std: 0.01
    }
    bias_filler {
      type: "constant"
      value: 0.1
    }
  }
}
layer {
  name: "relu4"
  type: "ReLU"
  bottom: "conv4"
  top: "conv4"
}
layer {
  name: "conv5"
  type: "Convolution"
  bottom: "conv4"
  top: "conv5"
  param {
    lr_mult: 1
    decay_mult: 1
  }
  param {
    lr_mult: 2
    decay_mult: 0
  }
  convolution_param {
    num_output: 256
    pad: 1
    kernel_size: 3
    group: 2
    weight_filler {
      type: "gaussian"
      std: 0.01
    }
    bias_filler {
      type: "constant"
      value: 0.1
    }
  }
}
layer {
  name: "relu5"
  type: "ReLU"
  bottom: "conv5"
  top: "conv5"
}
layer {
  name: "pool5"
  type: "Pooling"
  bottom: "conv5"
  top: "pool5"
  pooling_param {
    pool: MAX
    kernel_size: 3
    stride: 2
  }
}
layer {
  name: "fc6"
  type: "InnerProduct"
  bottom: "pool5"
  top: "fc6"
  param {
    lr_mult: 1
    decay_mult: 1
  }
  param {
    lr_mult: 2
    decay_mult: 0
  }
  inner_product_param {
    num_output: 4096
    weight_filler {
      type: "gaussian"
      std: 0.005
    }
    bias_filler {
      type: "constant"
      value: 0.1
    }
  }
}
layer {
  name: "relu6"
  type: "ReLU"
  bottom: "fc6"
  top: "fc6"
}
layer {
  name: "drop6"
  type: "Dropout"
  bottom: "fc6"
  top: "fc6"
  dropout_param {
    dropout_ratio: 0.5
  }
}
layer {
  name: "fc7"
  type: "InnerProduct"
  bottom: "fc6"
  top: "fc7"
  param {
    lr_mult: 1
    decay_mult: 1
  }
  param {
    lr_mult: 2
    decay_mult: 0
  }
  inner_product_param {
    num_output: 4096
    weight_filler {
      type: "gaussian"
      std: 0.005
    }
    bias_filler {
      type: "constant"
      value: 0.1
    }
  }
}
layer {
  name: "relu7"
  type: "ReLU"
  bottom: "fc7"
  top: "fc7"
}
layer {
  name: "drop7"
  type: "Dropout"
  bottom: "fc7"
  top: "fc7"
  dropout_param {
    dropout_ratio: 0.5
  }
}
layer {
  name: "fc8"
  type: "InnerProduct"
  bottom: "fc7"
  top: "fc8"
  param {
    lr_mult: 1
    decay_mult: 1
  }
  param {
    lr_mult: 2
    decay_mult: 0
  }
  inner_product_param {
    num_output: 1000
    weight_filler {
      type: "gaussian"
      std: 0.01
    }
    bias_filler {
      type: "constant"
      value: 0
    }
  }
}
layer {
  name: "loss"
  type: "SoftmaxWithLoss"
  bottom: "fc8"
  bottom: "label"
  top: "loss"
}
I0115 18:27:09.048183 31378 layer_factory.hpp:114] Creating layer data
I0115 18:27:09.048933 31378 net.cpp:160] Creating Layer data
I0115 18:27:09.048961 31378 net.cpp:570] data -> data
I0115 18:27:09.048990 31378 net.cpp:570] data -> label
I0115 18:27:09.049011 31378 data_transformer.cpp:62] Loading mean file from: /home/user/LIBRARIES/caffeLibs/caffe/data/ilsvrc12/imagenet_mean.binaryproto
I0115 18:27:09.049127 31379 db_lmdb.cpp:72] Opened lmdb /home/user/LIBRARIES/caffeLibs/caffe/examples/imagenet/ilsvrc12_train_lmdb
I0115 18:27:09.055639 31378 data_layer.cpp:80] output data size: 224,3,227,227
I0115 18:27:09.231120 31378 net.cpp:210] Setting up data
I0115 18:27:09.231211 31378 net.cpp:217] Top shape: 224 3 227 227 (34627488)
I0115 18:27:09.231225 31378 net.cpp:217] Top shape: 224 (224)
I0115 18:27:09.231232 31378 net.cpp:225] Memory required for data: 138510848
I0115 18:27:09.231250 31378 layer_factory.hpp:114] Creating layer conv1
I0115 18:27:09.231297 31378 net.cpp:160] Creating Layer conv1
I0115 18:27:09.231308 31378 net.cpp:596] conv1 <- data
I0115 18:27:09.231328 31378 net.cpp:570] conv1 -> conv1
I0115 18:27:09.338688 31378 net.cpp:210] Setting up conv1
I0115 18:27:09.338765 31378 net.cpp:217] Top shape: 224 96 55 55 (65049600)
I0115 18:27:09.338774 31378 net.cpp:225] Memory required for data: 398709248
I0115 18:27:09.338820 31378 layer_factory.hpp:114] Creating layer relu1
I0115 18:27:09.338848 31378 net.cpp:160] Creating Layer relu1
I0115 18:27:09.338860 31378 net.cpp:596] relu1 <- conv1
I0115 18:27:09.338876 31378 net.cpp:557] relu1 -> conv1 (in-place)
I0115 18:27:09.338898 31378 net.cpp:210] Setting up relu1
I0115 18:27:09.338908 31378 net.cpp:217] Top shape: 224 96 55 55 (65049600)
I0115 18:27:09.338953 31378 net.cpp:225] Memory required for data: 658907648
I0115 18:27:09.338963 31378 layer_factory.hpp:114] Creating layer norm1
I0115 18:27:09.338981 31378 net.cpp:160] Creating Layer norm1
I0115 18:27:09.338987 31378 net.cpp:596] norm1 <- conv1
I0115 18:27:09.338999 31378 net.cpp:570] norm1 -> norm1
I0115 18:27:09.339025 31378 net.cpp:210] Setting up norm1
I0115 18:27:09.339036 31378 net.cpp:217] Top shape: 224 96 55 55 (65049600)
I0115 18:27:09.339043 31378 net.cpp:225] Memory required for data: 919106048
I0115 18:27:09.339052 31378 layer_factory.hpp:114] Creating layer pool1
I0115 18:27:09.339174 31378 net.cpp:160] Creating Layer pool1
I0115 18:27:09.339185 31378 net.cpp:596] pool1 <- norm1
I0115 18:27:09.339200 31378 net.cpp:570] pool1 -> pool1
I0115 18:27:09.339227 31378 net.cpp:210] Setting up pool1
I0115 18:27:09.339239 31378 net.cpp:217] Top shape: 224 96 27 27 (15676416)
I0115 18:27:09.339246 31378 net.cpp:225] Memory required for data: 981811712
I0115 18:27:09.339254 31378 layer_factory.hpp:114] Creating layer conv2
I0115 18:27:09.339278 31378 net.cpp:160] Creating Layer conv2
I0115 18:27:09.339287 31378 net.cpp:596] conv2 <- pool1
I0115 18:27:09.339299 31378 net.cpp:570] conv2 -> conv2
I0115 18:27:09.523242 31378 net.cpp:210] Setting up conv2
I0115 18:27:09.523294 31378 net.cpp:217] Top shape: 224 256 27 27 (41803776)
I0115 18:27:09.523299 31378 net.cpp:225] Memory required for data: 1149026816
I0115 18:27:09.523324 31378 layer_factory.hpp:114] Creating layer relu2
I0115 18:27:09.523341 31378 net.cpp:160] Creating Layer relu2
I0115 18:27:09.523347 31378 net.cpp:596] relu2 <- conv2
I0115 18:27:09.523360 31378 net.cpp:557] relu2 -> conv2 (in-place)
I0115 18:27:09.523373 31378 net.cpp:210] Setting up relu2
I0115 18:27:09.523380 31378 net.cpp:217] Top shape: 224 256 27 27 (41803776)
I0115 18:27:09.523383 31378 net.cpp:225] Memory required for data: 1316241920
I0115 18:27:09.523387 31378 layer_factory.hpp:114] Creating layer norm2
I0115 18:27:09.523397 31378 net.cpp:160] Creating Layer norm2
I0115 18:27:09.523401 31378 net.cpp:596] norm2 <- conv2
I0115 18:27:09.523407 31378 net.cpp:570] norm2 -> norm2
I0115 18:27:09.523423 31378 net.cpp:210] Setting up norm2
I0115 18:27:09.523429 31378 net.cpp:217] Top shape: 224 256 27 27 (41803776)
I0115 18:27:09.523433 31378 net.cpp:225] Memory required for data: 1483457024
I0115 18:27:09.523437 31378 layer_factory.hpp:114] Creating layer pool2
I0115 18:27:09.523473 31378 net.cpp:160] Creating Layer pool2
I0115 18:27:09.523478 31378 net.cpp:596] pool2 <- norm2
I0115 18:27:09.523484 31378 net.cpp:570] pool2 -> pool2
I0115 18:27:09.523497 31378 net.cpp:210] Setting up pool2
I0115 18:27:09.523504 31378 net.cpp:217] Top shape: 224 256 13 13 (9691136)
I0115 18:27:09.523522 31378 net.cpp:225] Memory required for data: 1522221568
I0115 18:27:09.523526 31378 layer_factory.hpp:114] Creating layer conv3
I0115 18:27:09.523540 31378 net.cpp:160] Creating Layer conv3
I0115 18:27:09.523545 31378 net.cpp:596] conv3 <- pool2
I0115 18:27:09.523553 31378 net.cpp:570] conv3 -> conv3
I0115 18:27:09.642236 31378 net.cpp:210] Setting up conv3
I0115 18:27:09.642252 31378 net.cpp:217] Top shape: 224 384 13 13 (14536704)
I0115 18:27:09.642256 31378 net.cpp:225] Memory required for data: 1580368384
I0115 18:27:09.642266 31378 layer_factory.hpp:114] Creating layer relu3
I0115 18:27:09.642274 31378 net.cpp:160] Creating Layer relu3
I0115 18:27:09.642279 31378 net.cpp:596] relu3 <- conv3
I0115 18:27:09.642285 31378 net.cpp:557] relu3 -> conv3 (in-place)
I0115 18:27:09.642292 31378 net.cpp:210] Setting up relu3
I0115 18:27:09.642298 31378 net.cpp:217] Top shape: 224 384 13 13 (14536704)
I0115 18:27:09.642302 31378 net.cpp:225] Memory required for data: 1638515200
I0115 18:27:09.642305 31378 layer_factory.hpp:114] Creating layer conv4
I0115 18:27:09.642315 31378 net.cpp:160] Creating Layer conv4
I0115 18:27:09.642319 31378 net.cpp:596] conv4 <- conv3
I0115 18:27:09.642328 31378 net.cpp:570] conv4 -> conv4
I0115 18:27:09.754467 31378 net.cpp:210] Setting up conv4
I0115 18:27:09.754497 31378 net.cpp:217] Top shape: 224 384 13 13 (14536704)
I0115 18:27:09.754500 31378 net.cpp:225] Memory required for data: 1696662016
I0115 18:27:09.754508 31378 layer_factory.hpp:114] Creating layer relu4
I0115 18:27:09.754515 31378 net.cpp:160] Creating Layer relu4
I0115 18:27:09.754519 31378 net.cpp:596] relu4 <- conv4
I0115 18:27:09.754525 31378 net.cpp:557] relu4 -> conv4 (in-place)
I0115 18:27:09.754532 31378 net.cpp:210] Setting up relu4
I0115 18:27:09.754537 31378 net.cpp:217] Top shape: 224 384 13 13 (14536704)
I0115 18:27:09.754541 31378 net.cpp:225] Memory required for data: 1754808832
I0115 18:27:09.754545 31378 layer_factory.hpp:114] Creating layer conv5
I0115 18:27:09.754555 31378 net.cpp:160] Creating Layer conv5
I0115 18:27:09.754559 31378 net.cpp:596] conv5 <- conv4
I0115 18:27:09.754566 31378 net.cpp:570] conv5 -> conv5
I0115 18:27:09.846132 31378 net.cpp:210] Setting up conv5
I0115 18:27:09.846144 31378 net.cpp:217] Top shape: 224 256 13 13 (9691136)
I0115 18:27:09.846148 31378 net.cpp:225] Memory required for data: 1793573376
I0115 18:27:09.846159 31378 layer_factory.hpp:114] Creating layer relu5
I0115 18:27:09.846165 31378 net.cpp:160] Creating Layer relu5
I0115 18:27:09.846169 31378 net.cpp:596] relu5 <- conv5
I0115 18:27:09.846175 31378 net.cpp:557] relu5 -> conv5 (in-place)
I0115 18:27:09.846182 31378 net.cpp:210] Setting up relu5
I0115 18:27:09.846187 31378 net.cpp:217] Top shape: 224 256 13 13 (9691136)
I0115 18:27:09.846191 31378 net.cpp:225] Memory required for data: 1832337920
I0115 18:27:09.846195 31378 layer_factory.hpp:114] Creating layer pool5
I0115 18:27:09.846217 31378 net.cpp:160] Creating Layer pool5
I0115 18:27:09.846221 31378 net.cpp:596] pool5 <- conv5
I0115 18:27:09.846228 31378 net.cpp:570] pool5 -> pool5
I0115 18:27:09.846237 31378 net.cpp:210] Setting up pool5
I0115 18:27:09.846243 31378 net.cpp:217] Top shape: 224 256 6 6 (2064384)
I0115 18:27:09.846247 31378 net.cpp:225] Memory required for data: 1840595456
I0115 18:27:09.846251 31378 layer_factory.hpp:114] Creating layer fc6
I0115 18:27:09.846266 31378 net.cpp:160] Creating Layer fc6
I0115 18:27:09.846269 31378 net.cpp:596] fc6 <- pool5
I0115 18:27:09.846277 31378 net.cpp:570] fc6 -> fc6
I0115 18:27:10.556869 31378 net.cpp:210] Setting up fc6
I0115 18:27:10.556917 31378 net.cpp:217] Top shape: 224 4096 (917504)
I0115 18:27:10.556921 31378 net.cpp:225] Memory required for data: 1844265472
I0115 18:27:10.556934 31378 layer_factory.hpp:114] Creating layer relu6
I0115 18:27:10.556947 31378 net.cpp:160] Creating Layer relu6
I0115 18:27:10.556954 31378 net.cpp:596] relu6 <- fc6
I0115 18:27:10.556964 31378 net.cpp:557] relu6 -> fc6 (in-place)
I0115 18:27:10.556977 31378 net.cpp:210] Setting up relu6
I0115 18:27:10.556999 31378 net.cpp:217] Top shape: 224 4096 (917504)
I0115 18:27:10.557003 31378 net.cpp:225] Memory required for data: 1847935488
I0115 18:27:10.557008 31378 layer_factory.hpp:114] Creating layer drop6
I0115 18:27:10.557021 31378 net.cpp:160] Creating Layer drop6
I0115 18:27:10.557025 31378 net.cpp:596] drop6 <- fc6
I0115 18:27:10.557031 31378 net.cpp:557] drop6 -> fc6 (in-place)
I0115 18:27:10.557046 31378 net.cpp:210] Setting up drop6
I0115 18:27:10.557052 31378 net.cpp:217] Top shape: 224 4096 (917504)
I0115 18:27:10.557055 31378 net.cpp:225] Memory required for data: 1851605504
I0115 18:27:10.557065 31378 layer_factory.hpp:114] Creating layer fc7
I0115 18:27:10.557078 31378 net.cpp:160] Creating Layer fc7
I0115 18:27:10.557082 31378 net.cpp:596] fc7 <- fc6
I0115 18:27:10.557090 31378 net.cpp:570] fc7 -> fc7
I0115 18:27:10.873564 31378 net.cpp:210] Setting up fc7
I0115 18:27:10.873605 31378 net.cpp:217] Top shape: 224 4096 (917504)
I0115 18:27:10.873610 31378 net.cpp:225] Memory required for data: 1855275520
I0115 18:27:10.873622 31378 layer_factory.hpp:114] Creating layer relu7
I0115 18:27:10.873634 31378 net.cpp:160] Creating Layer relu7
I0115 18:27:10.873641 31378 net.cpp:596] relu7 <- fc7
I0115 18:27:10.873649 31378 net.cpp:557] relu7 -> fc7 (in-place)
I0115 18:27:10.873661 31378 net.cpp:210] Setting up relu7
I0115 18:27:10.873692 31378 net.cpp:217] Top shape: 224 4096 (917504)
I0115 18:27:10.873694 31378 net.cpp:225] Memory required for data: 1858945536
I0115 18:27:10.873698 31378 layer_factory.hpp:114] Creating layer drop7
I0115 18:27:10.873708 31378 net.cpp:160] Creating Layer drop7
I0115 18:27:10.873710 31378 net.cpp:596] drop7 <- fc7
I0115 18:27:10.873718 31378 net.cpp:557] drop7 -> fc7 (in-place)
I0115 18:27:10.873728 31378 net.cpp:210] Setting up drop7
I0115 18:27:10.873733 31378 net.cpp:217] Top shape: 224 4096 (917504)
I0115 18:27:10.873736 31378 net.cpp:225] Memory required for data: 1862615552
I0115 18:27:10.873740 31378 layer_factory.hpp:114] Creating layer fc8
I0115 18:27:10.873751 31378 net.cpp:160] Creating Layer fc8
I0115 18:27:10.873755 31378 net.cpp:596] fc8 <- fc7
I0115 18:27:10.873762 31378 net.cpp:570] fc8 -> fc8
I0115 18:27:10.951716 31378 net.cpp:210] Setting up fc8
I0115 18:27:10.951730 31378 net.cpp:217] Top shape: 224 1000 (224000)
I0115 18:27:10.951735 31378 net.cpp:225] Memory required for data: 1863511552
I0115 18:27:10.951741 31378 layer_factory.hpp:114] Creating layer loss
I0115 18:27:10.951757 31378 net.cpp:160] Creating Layer loss
I0115 18:27:10.951761 31378 net.cpp:596] loss <- fc8
I0115 18:27:10.951766 31378 net.cpp:596] loss <- label
I0115 18:27:10.951774 31378 net.cpp:570] loss -> loss
I0115 18:27:10.951794 31378 layer_factory.hpp:114] Creating layer loss
…
I0115 18:27:10.963614 31378 net.cpp:484] The NetState phase (1) differed from the phase (0) specified by a rule in layer data
I0115 18:27:10.964406 31378 net.cpp:120] Initializing net from parameters: 
name: "AlexNet"
state {
  phase: TEST
}
layer {
  name: "data"
  type: "Data"
  top: "data"
  top: "label"
  include {
    phase: TEST
  }
  transform_param {
    mirror: false
    crop_size: 227
    mean_file: "/home/user/LIBRARIES/caffeLibs/caffe/data/ilsvrc12/imagenet_mean.binaryproto"
  }
  data_param {
    source: "/home/user/LIBRARIES/caffeLibs/caffe/examples/imagenet/ilsvrc12_val_lmdb"
    batch_size: 50
    backend: LMDB
  }
}
layer {
  name: "label_data_1_split"
  type: "Split"
  bottom: "label"
  top: "label_data_1_split_0"
  top: "label_data_1_split_1"
}
layer {
  name: "conv1"
  type: "Convolution"
  bottom: "data"
  top: "conv1"
  param {
    lr_mult: 1
    decay_mult: 1
  }
  param {
    lr_mult: 2
    decay_mult: 0
  }
  convolution_param {
    num_output: 96
    kernel_size: 11
    stride: 4
    weight_filler {
      type: "gaussian"
      std: 0.01
    }
    bias_filler {
      type: "constant"
      value: 0
    }
  }
}
layer {
  name: "relu1"
  type: "ReLU"
  bottom: "conv1"
  top: "conv1"
}
layer {
  name: "norm1"
  type: "LRN"
  bottom: "conv1"
  top: "norm1"
  lrn_param {
    local_size: 5
    alpha: 0.0001
    beta: 0.75
  }
}
layer {
  name: "pool1"
  type: "Pooling"
  bottom: "norm1"
  top: "pool1"
  pooling_param {
    pool: MAX
    kernel_size: 3
    stride: 2
  }
}
layer {
  name: "conv2"
  type: "Convolution"
  bottom: "pool1"
  top: "conv2"
  param {
    lr_mult: 1
    decay_mult: 1
  }
  param {
    lr_mult: 2
    decay_mult: 0
  }
  convolution_param {
    num_output: 256
    pad: 2
    kernel_size: 5
    group: 2
    weight_filler {
      type: "gaussian"
      std: 0.01
    }
    bias_filler {
      type: "constant"
      value: 0.1
    }
  }
}
layer {
  name: "relu2"
  type: "ReLU"
  bottom: "conv2"
  top: "conv2"
}
layer {
  name: "norm2"
  type: "LRN"
  bottom: "conv2"
  top: "norm2"
  lrn_param {
    local_size: 5
    alpha: 0.0001
    beta: 0.75
  }
}
layer {
  name: "pool2"
  type: "Pooling"
  bottom: "norm2"
  top: "pool2"
  pooling_param {
    pool: MAX
    kernel_size: 3
    stride: 2
  }
}
layer {
  name: "conv3"
  type: "Convolution"
  bottom: "pool2"
  top: "conv3"
  param {
    lr_mult: 1
    decay_mult: 1
  }
  param {
    lr_mult: 2
    decay_mult: 0
  }
  convolution_param {
    num_output: 384
    pad: 1
    kernel_size: 3
    weight_filler {
      type: "gaussian"
      std: 0.01
    }
    bias_filler {
      type: "constant"
      value: 0
    }
  }
}
layer {
  name: "relu3"
  type: "ReLU"
  bottom: "conv3"
  top: "conv3"
}
layer {
  name: "conv4"
  type: "Convolution"
  bottom: "conv3"
  top: "conv4"
  param {
    lr_mult: 1
    decay_mult: 1
  }
  param {
    lr_mult: 2
    decay_mult: 0
  }
  convolution_param {
    num_output: 384
    pad: 1
    kernel_size: 3
    group: 2
    weight_filler {
      type: "gaussian"
      std: 0.01
    }
    bias_filler {
      type: "constant"
      value: 0.1
    }
  }
}
layer {
  name: "relu4"
  type: "ReLU"
  bottom: "conv4"
  top: "conv4"
}
layer {
  name: "conv5"
  type: "Convolution"
  bottom: "conv4"
  top: "conv5"
  param {
    lr_mult: 1
    decay_mult: 1
  }
  param {
    lr_mult: 2
    decay_mult: 0
  }
  convolution_param {
    num_output: 256
    pad: 1
    kernel_size: 3
    group: 2
    weight_filler {
      type: "gaussian"
      std: 0.01
    }
    bias_filler {
      type: "constant"
      value: 0.1
    }
  }
}
layer {
  name: "relu5"
  type: "ReLU"
  bottom: "conv5"
  top: "conv5"
}
layer {
  name: "pool5"
  type: "Pooling"
  bottom: "conv5"
  top: "pool5"
  pooling_param {
    pool: MAX
    kernel_size: 3
    stride: 2
  }
}
layer {
  name: "fc6"
  type: "InnerProduct"
  bottom: "pool5"
  top: "fc6"
  param {
    lr_mult: 1
    decay_mult: 1
  }
  param {
    lr_mult: 2
    decay_mult: 0
  }
  inner_product_param {
    num_output: 4096
    weight_filler {
      type: "gaussian"
      std: 0.005
    }
    bias_filler {
      type: "constant"
      value: 0.1
    }
  }
}
layer {
  name: "relu6"
  type: "ReLU"
  bottom: "fc6"
  top: "fc6"
}
layer {
  name: "drop6"
  type: "Dropout"
  bottom: "fc6"
  top: "fc6"
  dropout_param {
    dropout_ratio: 0.5
  }
}
layer {
  name: "fc7"
  type: "InnerProduct"
  bottom: "fc6"
  top: "fc7"
  param {
    lr_mult: 1
    decay_mult: 1
  }
  param {
    lr_mult: 2
    decay_mult: 0
  }
  inner_product_param {
    num_output: 4096
    weight_filler {
      type: "gaussian"
      std: 0.005
    }
    bias_filler {
      type: "constant"
      value: 0.1
    }
  }
}
layer {
  name: "relu7"
  type: "ReLU"
  bottom: "fc7"
  top: "fc7"
}
layer {
  name: "drop7"
  type: "Dropout"
  bottom: "fc7"
  top: "fc7"
  dropout_param {
    dropout_ratio: 0.5
  }
}
layer {
  name: "fc8"
  type: "InnerProduct"
  bottom: "fc7"
  top: "fc8"
  param {
    lr_mult: 1
    decay_mult: 1
  }
  param {
    lr_mult: 2
    decay_mult: 0
  }
  inner_product_param {
    num_output: 1000
    weight_filler {
      type: "gaussian"
      std: 0.01
    }
    bias_filler {
      type: "constant"
      value: 0
    }
  }
}
layer {
  name: "fc8_fc8_0_split"
  type: "Split"
  bottom: "fc8"
  top: "fc8_fc8_0_split_0"
  top: "fc8_fc8_0_split_1"
}
layer {
  name: "accuracy"
  type: "Accuracy"
  bottom: "fc8_fc8_0_split_0"
  bottom: "label_data_1_split_0"
  top: "accuracy"
  include {
    phase: TEST
  }
}
layer {
  name: "loss"
  type: "SoftmaxWithLoss"
  bottom: "fc8_fc8_0_split_1"
  bottom: "label_data_1_split_1"
  top: "loss"
}
I0115 18:27:10.964444 31378 layer_factory.hpp:114] Creating layer data
I0115 18:27:10.964551 31378 net.cpp:160] Creating Layer data
I0115 18:27:10.964565 31378 net.cpp:570] data -> data
I0115 18:27:10.964581 31378 net.cpp:570] data -> label
I0115 18:27:10.964593 31378 data_transformer.cpp:62] Loading mean file from: /home/user/LIBRARIES/caffeLibs/caffe/data/ilsvrc12/imagenet_mean.binaryproto
I0115 18:27:10.964694 31435 db_lmdb.cpp:72] Opened lmdb /home/user/LIBRARIES/caffeLibs/caffe/examples/imagenet/ilsvrc12_val_lmdb
I0115 18:27:10.970767 31378 data_layer.cpp:80] output data size: 50,3,227,227
I0115 18:27:11.013352 31378 net.cpp:210] Setting up data
I0115 18:27:11.013427 31378 net.cpp:217] Top shape: 50 3 227 227 (7729350)
I0115 18:27:11.013439 31378 net.cpp:217] Top shape: 50 (50)
I0115 18:27:11.013447 31378 net.cpp:225] Memory required for data: 30917600
I0115 18:27:11.013461 31378 layer_factory.hpp:114] Creating layer label_data_1_split
I0115 18:27:11.013489 31378 net.cpp:160] Creating Layer label_data_1_split
I0115 18:27:11.013499 31378 net.cpp:596] label_data_1_split <- label
I0115 18:27:11.013516 31378 net.cpp:570] label_data_1_split -> label_data_1_split_0
I0115 18:27:11.013538 31378 net.cpp:570] label_data_1_split -> label_data_1_split_1
I0115 18:27:11.013561 31378 net.cpp:210] Setting up label_data_1_split
I0115 18:27:11.013572 31378 net.cpp:217] Top shape: 50 (50)
I0115 18:27:11.013581 31378 net.cpp:217] Top shape: 50 (50)
I0115 18:27:11.013587 31378 net.cpp:225] Memory required for data: 30918000
I0115 18:27:11.013594 31378 layer_factory.hpp:114] Creating layer conv1
I0115 18:27:11.013618 31378 net.cpp:160] Creating Layer conv1
I0115 18:27:11.013626 31378 net.cpp:596] conv1 <- data
I0115 18:27:11.013640 31378 net.cpp:570] conv1 -> conv1
I0115 18:27:11.100129 31378 net.cpp:210] Setting up conv1
I0115 18:27:11.100165 31378 net.cpp:217] Top shape: 50 96 55 55 (14520000)
I0115 18:27:11.100169 31378 net.cpp:225] Memory required for data: 88998000
I0115 18:27:11.100188 31378 layer_factory.hpp:114] Creating layer relu1
I0115 18:27:11.100200 31378 net.cpp:160] Creating Layer relu1
I0115 18:27:11.100206 31378 net.cpp:596] relu1 <- conv1
I0115 18:27:11.100214 31378 net.cpp:557] relu1 -> conv1 (in-place)
I0115 18:27:11.100226 31378 net.cpp:210] Setting up relu1
I0115 18:27:11.100253 31378 net.cpp:217] Top shape: 50 96 55 55 (14520000)
I0115 18:27:11.100258 31378 net.cpp:225] Memory required for data: 147078000
I0115 18:27:11.100262 31378 layer_factory.hpp:114] Creating layer norm1
I0115 18:27:11.100273 31378 net.cpp:160] Creating Layer norm1
I0115 18:27:11.100277 31378 net.cpp:596] norm1 <- conv1
I0115 18:27:11.100284 31378 net.cpp:570] norm1 -> norm1
I0115 18:27:11.100298 31378 net.cpp:210] Setting up norm1
I0115 18:27:11.100304 31378 net.cpp:217] Top shape: 50 96 55 55 (14520000)
I0115 18:27:11.100308 31378 net.cpp:225] Memory required for data: 205158000
I0115 18:27:11.100312 31378 layer_factory.hpp:114] Creating layer pool1
I0115 18:27:11.100344 31378 net.cpp:160] Creating Layer pool1
I0115 18:27:11.100349 31378 net.cpp:596] pool1 <- norm1
I0115 18:27:11.100355 31378 net.cpp:570] pool1 -> pool1
I0115 18:27:11.100366 31378 net.cpp:210] Setting up pool1
I0115 18:27:11.100373 31378 net.cpp:217] Top shape: 50 96 27 27 (3499200)
I0115 18:27:11.100375 31378 net.cpp:225] Memory required for data: 219154800
I0115 18:27:11.100379 31378 layer_factory.hpp:114] Creating layer conv2
I0115 18:27:11.100391 31378 net.cpp:160] Creating Layer conv2
I0115 18:27:11.100395 31378 net.cpp:596] conv2 <- pool1
I0115 18:27:11.100402 31378 net.cpp:570] conv2 -> conv2
I0115 18:27:11.252490 31378 net.cpp:210] Setting up conv2
I0115 18:27:11.252502 31378 net.cpp:217] Top shape: 50 256 27 27 (9331200)
I0115 18:27:11.252506 31378 net.cpp:225] Memory required for data: 256479600
I0115 18:27:11.252517 31378 layer_factory.hpp:114] Creating layer relu2
I0115 18:27:11.252524 31378 net.cpp:160] Creating Layer relu2
I0115 18:27:11.252528 31378 net.cpp:596] relu2 <- conv2
I0115 18:27:11.252537 31378 net.cpp:557] relu2 -> conv2 (in-place)
I0115 18:27:11.252543 31378 net.cpp:210] Setting up relu2
I0115 18:27:11.252548 31378 net.cpp:217] Top shape: 50 256 27 27 (9331200)
I0115 18:27:11.252552 31378 net.cpp:225] Memory required for data: 293804400
I0115 18:27:11.252557 31378 layer_factory.hpp:114] Creating layer norm2
I0115 18:27:11.252564 31378 net.cpp:160] Creating Layer norm2
I0115 18:27:11.252568 31378 net.cpp:596] norm2 <- conv2
I0115 18:27:11.252575 31378 net.cpp:570] norm2 -> norm2
I0115 18:27:11.252585 31378 net.cpp:210] Setting up norm2
I0115 18:27:11.252593 31378 net.cpp:217] Top shape: 50 256 27 27 (9331200)
I0115 18:27:11.252595 31378 net.cpp:225] Memory required for data: 331129200
I0115 18:27:11.252599 31378 layer_factory.hpp:114] Creating layer pool2
I0115 18:27:11.252624 31378 net.cpp:160] Creating Layer pool2
I0115 18:27:11.252629 31378 net.cpp:596] pool2 <- norm2
I0115 18:27:11.252635 31378 net.cpp:570] pool2 -> pool2
I0115 18:27:11.252642 31378 net.cpp:210] Setting up pool2
I0115 18:27:11.252648 31378 net.cpp:217] Top shape: 50 256 13 13 (2163200)
I0115 18:27:11.252651 31378 net.cpp:225] Memory required for data: 339782000
I0115 18:27:11.252655 31378 layer_factory.hpp:114] Creating layer conv3
I0115 18:27:11.252665 31378 net.cpp:160] Creating Layer conv3
I0115 18:27:11.252668 31378 net.cpp:596] conv3 <- pool2
I0115 18:27:11.252676 31378 net.cpp:570] conv3 -> conv3
I0115 18:27:11.361683 31378 net.cpp:210] Setting up conv3
I0115 18:27:11.361696 31378 net.cpp:217] Top shape: 50 384 13 13 (3244800)
I0115 18:27:11.361701 31378 net.cpp:225] Memory required for data: 352761200
I0115 18:27:11.361711 31378 layer_factory.hpp:114] Creating layer relu3
I0115 18:27:11.361721 31378 net.cpp:160] Creating Layer relu3
I0115 18:27:11.361724 31378 net.cpp:596] relu3 <- conv3
I0115 18:27:11.361732 31378 net.cpp:557] relu3 -> conv3 (in-place)
I0115 18:27:11.361739 31378 net.cpp:210] Setting up relu3
I0115 18:27:11.361744 31378 net.cpp:217] Top shape: 50 384 13 13 (3244800)
I0115 18:27:11.361748 31378 net.cpp:225] Memory required for data: 365740400
I0115 18:27:11.361752 31378 layer_factory.hpp:114] Creating layer conv4
I0115 18:27:11.361760 31378 net.cpp:160] Creating Layer conv4
I0115 18:27:11.361763 31378 net.cpp:596] conv4 <- conv3
I0115 18:27:11.361769 31378 net.cpp:570] conv4 -> conv4
I0115 18:27:11.464764 31378 net.cpp:210] Setting up conv4
I0115 18:27:11.464776 31378 net.cpp:217] Top shape: 50 384 13 13 (3244800)
I0115 18:27:11.464779 31378 net.cpp:225] Memory required for data: 378719600
I0115 18:27:11.464787 31378 layer_factory.hpp:114] Creating layer relu4
I0115 18:27:11.464797 31378 net.cpp:160] Creating Layer relu4
I0115 18:27:11.464800 31378 net.cpp:596] relu4 <- conv4
I0115 18:27:11.464807 31378 net.cpp:557] relu4 -> conv4 (in-place)
I0115 18:27:11.464812 31378 net.cpp:210] Setting up relu4
I0115 18:27:11.464818 31378 net.cpp:217] Top shape: 50 384 13 13 (3244800)
I0115 18:27:11.464821 31378 net.cpp:225] Memory required for data: 391698800
I0115 18:27:11.464824 31378 layer_factory.hpp:114] Creating layer conv5
I0115 18:27:11.464833 31378 net.cpp:160] Creating Layer conv5
I0115 18:27:11.464836 31378 net.cpp:596] conv5 <- conv4
I0115 18:27:11.464845 31378 net.cpp:570] conv5 -> conv5
I0115 18:27:11.547762 31378 net.cpp:210] Setting up conv5
I0115 18:27:11.547775 31378 net.cpp:217] Top shape: 50 256 13 13 (2163200)
I0115 18:27:11.547778 31378 net.cpp:225] Memory required for data: 400351600
I0115 18:27:11.547788 31378 layer_factory.hpp:114] Creating layer relu5
I0115 18:27:11.547797 31378 net.cpp:160] Creating Layer relu5
I0115 18:27:11.547802 31378 net.cpp:596] relu5 <- conv5
I0115 18:27:11.547807 31378 net.cpp:557] relu5 -> conv5 (in-place)
I0115 18:27:11.547814 31378 net.cpp:210] Setting up relu5
I0115 18:27:11.547819 31378 net.cpp:217] Top shape: 50 256 13 13 (2163200)
I0115 18:27:11.547823 31378 net.cpp:225] Memory required for data: 409004400
I0115 18:27:11.547827 31378 layer_factory.hpp:114] Creating layer pool5
I0115 18:27:11.547848 31378 net.cpp:160] Creating Layer pool5
I0115 18:27:11.547852 31378 net.cpp:596] pool5 <- conv5
I0115 18:27:11.547857 31378 net.cpp:570] pool5 -> pool5
I0115 18:27:11.547866 31378 net.cpp:210] Setting up pool5
I0115 18:27:11.547873 31378 net.cpp:217] Top shape: 50 256 6 6 (460800)
I0115 18:27:11.547876 31378 net.cpp:225] Memory required for data: 410847600
I0115 18:27:11.547879 31378 layer_factory.hpp:114] Creating layer fc6
I0115 18:27:11.547894 31378 net.cpp:160] Creating Layer fc6
I0115 18:27:11.547899 31378 net.cpp:596] fc6 <- pool5
I0115 18:27:11.547904 31378 net.cpp:570] fc6 -> fc6
I0115 18:27:12.430603 31378 net.cpp:210] Setting up fc6
I0115 18:27:12.430655 31378 net.cpp:217] Top shape: 50 4096 (204800)
I0115 18:27:12.430660 31378 net.cpp:225] Memory required for data: 411666800
I0115 18:27:12.430687 31378 layer_factory.hpp:114] Creating layer relu6
I0115 18:27:12.430703 31378 net.cpp:160] Creating Layer relu6
I0115 18:27:12.430711 31378 net.cpp:596] relu6 <- fc6
I0115 18:27:12.430721 31378 net.cpp:557] relu6 -> fc6 (in-place)
I0115 18:27:12.430732 31378 net.cpp:210] Setting up relu6
I0115 18:27:12.430738 31378 net.cpp:217] Top shape: 50 4096 (204800)
I0115 18:27:12.430742 31378 net.cpp:225] Memory required for data: 412486000
I0115 18:27:12.430747 31378 layer_factory.hpp:114] Creating layer drop6
I0115 18:27:12.430757 31378 net.cpp:160] Creating Layer drop6
I0115 18:27:12.430760 31378 net.cpp:596] drop6 <- fc6
I0115 18:27:12.430766 31378 net.cpp:557] drop6 -> fc6 (in-place)
I0115 18:27:12.430776 31378 net.cpp:210] Setting up drop6
I0115 18:27:12.430781 31378 net.cpp:217] Top shape: 50 4096 (204800)
I0115 18:27:12.430784 31378 net.cpp:225] Memory required for data: 413305200
I0115 18:27:12.430788 31378 layer_factory.hpp:114] Creating layer fc7
I0115 18:27:12.430814 31378 net.cpp:160] Creating Layer fc7
I0115 18:27:12.430817 31378 net.cpp:596] fc7 <- fc6
I0115 18:27:12.430824 31378 net.cpp:570] fc7 -> fc7
I0115 18:27:12.823536 31378 net.cpp:210] Setting up fc7
I0115 18:27:12.823580 31378 net.cpp:217] Top shape: 50 4096 (204800)
I0115 18:27:12.823585 31378 net.cpp:225] Memory required for data: 414124400
I0115 18:27:12.823598 31378 layer_factory.hpp:114] Creating layer relu7
I0115 18:27:12.823612 31378 net.cpp:160] Creating Layer relu7
I0115 18:27:12.823619 31378 net.cpp:596] relu7 <- fc7
I0115 18:27:12.823632 31378 net.cpp:557] relu7 -> fc7 (in-place)
I0115 18:27:12.823668 31378 net.cpp:210] Setting up relu7
I0115 18:27:12.823674 31378 net.cpp:217] Top shape: 50 4096 (204800)
I0115 18:27:12.823678 31378 net.cpp:225] Memory required for data: 414943600
I0115 18:27:12.823683 31378 layer_factory.hpp:114] Creating layer drop7
I0115 18:27:12.823690 31378 net.cpp:160] Creating Layer drop7
I0115 18:27:12.823694 31378 net.cpp:596] drop7 <- fc7
I0115 18:27:12.823700 31378 net.cpp:557] drop7 -> fc7 (in-place)
I0115 18:27:12.823709 31378 net.cpp:210] Setting up drop7
I0115 18:27:12.823715 31378 net.cpp:217] Top shape: 50 4096 (204800)
I0115 18:27:12.823719 31378 net.cpp:225] Memory required for data: 415762800
I0115 18:27:12.823722 31378 layer_factory.hpp:114] Creating layer fc8
I0115 18:27:12.823734 31378 net.cpp:160] Creating Layer fc8
I0115 18:27:12.823739 31378 net.cpp:596] fc8 <- fc7
I0115 18:27:12.823748 31378 net.cpp:570] fc8 -> fc8
I0115 18:27:12.920477 31378 net.cpp:210] Setting up fc8
I0115 18:27:12.920490 31378 net.cpp:217] Top shape: 50 1000 (50000)
I0115 18:27:12.920495 31378 net.cpp:225] Memory required for data: 415962800
I0115 18:27:12.920502 31378 layer_factory.hpp:114] Creating layer fc8_fc8_0_split
I0115 18:27:12.920511 31378 net.cpp:160] Creating Layer fc8_fc8_0_split
I0115 18:27:12.920516 31378 net.cpp:596] fc8_fc8_0_split <- fc8
I0115 18:27:12.920524 31378 net.cpp:570] fc8_fc8_0_split -> fc8_fc8_0_split_0
I0115 18:27:12.920532 31378 net.cpp:570] fc8_fc8_0_split -> fc8_fc8_0_split_1
I0115 18:27:12.920542 31378 net.cpp:210] Setting up fc8_fc8_0_split
I0115 18:27:12.920547 31378 net.cpp:217] Top shape: 50 1000 (50000)
I0115 18:27:12.920552 31378 net.cpp:217] Top shape: 50 1000 (50000)
I0115 18:27:12.920555 31378 net.cpp:225] Memory required for data: 416362800
I0115 18:27:12.920559 31378 layer_factory.hpp:114] Creating layer accuracy
I0115 18:27:12.920577 31378 net.cpp:160] Creating Layer accuracy
I0115 18:27:12.920580 31378 net.cpp:596] accuracy <- fc8_fc8_0_split_0
I0115 18:27:12.920586 31378 net.cpp:596] accuracy <- label_data_1_split_0
I0115 18:27:12.920593 31378 net.cpp:570] accuracy -> accuracy
…
