…
I0331 18:47:46.000450 134812 net.cpp:493] The NetState phase (0) differed from the phase (1) specified by a rule in layer loss3/top-5
I0331 18:47:46.004740 134812 net.cpp:125] Initializing net from parameters: 
name: "GoogleNet"
state {
  phase: TRAIN
  level: 0
  stage: ""
}
layer {
  name: "data"
  type: "Data"
  top: "data"
  top: "label"
  include {
    phase: TRAIN
  }
  transform_param {
    mirror: true
    crop_size: 224
    mean_value: 104
    mean_value: 117
    mean_value: 123
  }
  data_param {
    source: "/home/user/LIBRARIES/caffeLibs/caffe/examples/imagenet/ilsvrc12_train_lmdb"
    batch_size: 28
    backend: LMDB
  }
}
layer {
  name: "label_data_1_split"
  type: "Split"
  bottom: "label"
  top: "label_data_1_split_0"
  top: "label_data_1_split_1"
  top: "label_data_1_split_2"
}
layer {
  name: "conv1/7x7_s2"
  type: "Convolution"
  bottom: "data"
  top: "conv1/7x7_s2"
  param {
    lr_mult: 1
    decay_mult: 1
  }
  param {
    lr_mult: 2
    decay_mult: 0
  }
  convolution_param {
    num_output: 64
    pad: 3
    kernel_size: 7
    stride: 2
    weight_filler {
      type: "xavier"
    }
    bias_filler {
      type: "constant"
      value: 0.2
    }
  }
}
layer {
  name: "conv1/relu_7x7"
  type: "ReLU"
  bottom: "conv1/7x7_s2"
  top: "conv1/7x7_s2"
}
layer {
  name: "pool1/3x3_s2"
  type: "Pooling"
  bottom: "conv1/7x7_s2"
  top: "pool1/3x3_s2"
  pooling_param {
    pool: MAX
    kernel_size: 3
    stride: 2
  }
}
layer {
  name: "pool1/norm1"
  type: "LRN"
  bottom: "pool1/3x3_s2"
  top: "pool1/norm1"
  lrn_param {
    local_size: 5
    alpha: 0.0001
    beta: 0.75
  }
}
layer {
  name: "conv2/3x3_reduce"
  type: "Convolution"
  bottom: "pool1/norm1"
  top: "conv2/3x3_reduce"
  param {
    lr_mult: 1
    decay_mult: 1
  }
  param {
    lr_mult: 2
    decay_mult: 0
  }
  convolution_param {
    num_output: 64
    kernel_size: 1
    weight_filler {
      type: "xavier"
    }
    bias_filler {
      type: "constant"
      value: 0.2
    }
  }
}
layer {
  name: "conv2/relu_3x3_reduce"
  type: "ReLU"
  bottom: "conv2/3x3_reduce"
  top: "conv2/3x3_reduce"
}
layer {
  name: "conv2/3x3"
  type: "Convolution"
  bottom: "conv2/3x3_reduce"
  top: "conv2/3x3"
  param {
    lr_mult: 1
    decay_mult: 1
  }
  param {
    lr_mult: 2
    decay_mult: 0
  }
  convolution_param {
    num_output: 192
    pad: 1
    kernel_size: 3
    weight_filler {
      type: "xavier"
    }
    bias_filler {
      type: "constant"
      value: 0.2
    }
  }
}
layer {
  name: "conv2/relu_3x3"
  type: "ReLU"
  bottom: "conv2/3x3"
  top: "conv2/3x3"
}
layer {
  name: "conv2/norm2"
  type: "LRN"
  bottom: "conv2/3x3"
  top: "conv2/norm2"
  lrn_param {
    local_size: 5
    alpha: 0.0001
    beta: 0.75
  }
}
layer {
  name: "pool2/3x3_s2"
  type: "Pooling"
  bottom: "conv2/norm2"
  top: "pool2/3x3_s2"
  pooling_param {
    pool: MAX
    kernel_size: 3
    stride: 2
  }
}
layer {
  name: "pool2/3x3_s2_pool2/3x3_s2_0_split"
  type: "Split"
  bottom: "pool2/3x3_s2"
  top: "pool2/3x3_s2_pool2/3x3_s2_0_split_0"
  top: "pool2/3x3_s2_pool2/3x3_s2_0_split_1"
  top: "pool2/3x3_s2_pool2/3x3_s2_0_split_2"
  top: "pool2/3x3_s2_pool2/3x3_s2_0_split_3"
}
layer {
  name: "inception_3a/1x1"
  type: "Convolution"
  bottom: "pool2/3x3_s2_pool2/3x3_s2_0_split_0"
  top: "inception_3a/1x1"
  param {
    lr_mult: 1
    decay_mult: 1
  }
  param {
    lr_mult: 2
    decay_mult: 0
  }
  convolution_param {
    num_output: 64
    kernel_size: 1
    weight_filler {
      type: "xavier"
    }
    bias_filler {
      type: "constant"
      value: 0.2
    }
  }
}
layer {
  name: "inception_3a/relu_1x1"
  type: "ReLU"
  bottom: "inception_3a/1x1"
  top: "inception_3a/1x1"
}
layer {
  name: "inception_3a/3x3_reduce"
  type: "Convolution"
  bottom: "pool2/3x3_s2_pool2/3x3_s2_0_split_1"
  top: "inception_3a/3x3_reduce"
  param {
    lr_mult: 1
    decay_mult: 1
  }
  param {
    lr_mult: 2
    decay_mult: 0
  }
  convolution_param {
    num_output: 96
    kernel_size: 1
    weight_filler {
      type: "xavier"
    }
    bias_filler {
      type: "constant"
      value: 0.2
    }
  }
}
layer {
  name: "inception_3a/relu_3x3_reduce"
  type: "ReLU"
  bottom: "inception_3a/3x3_reduce"
  top: "inception_3a/3x3_reduce"
}
layer {
  name: "inception_3a/3x3"
  type: "Convolution"
  bottom: "inception_3a/3x3_reduce"
  top: "inception_3a/3x3"
  param {
    lr_mult: 1
    decay_mult: 1
  }
  param {
    lr_mult: 2
    decay_mult: 0
  }
  convolution_param {
    num_output: 128
    pad: 1
    kernel_size: 3
    weight_filler {
      type: "xavier"
    }
    bias_filler {
      type: "constant"
      value: 0.2
    }
  }
}
layer {
  name: "inception_3a/relu_3x3"
  type: "ReLU"
  bottom: "inception_3a/3x3"
  top: "inception_3a/3x3"
}
layer {
  name: "inception_3a/5x5_reduce"
  type: "Convolution"
  bottom: "pool2/3x3_s2_pool2/3x3_s2_0_split_2"
  top: "inception_3a/5x5_reduce"
  param {
    lr_mult: 1
    decay_mult: 1
  }
  param {
    lr_mult: 2
    decay_mult: 0
  }
  convolution_param {
    num_output: 16
    kernel_size: 1
    weight_filler {
      type: "xavier"
    }
    bias_filler {
      type: "constant"
      value: 0.2
    }
  }
}
layer {
  name: "inception_3a/relu_5x5_reduce"
  type: "ReLU"
  bottom: "inception_3a/5x5_reduce"
  top: "inception_3a/5x5_reduce"
}
layer {
  name: "inception_3a/5x5"
  type: "Convolution"
  bottom: "inception_3a/5x5_reduce"
  top: "inception_3a/5x5"
  param {
    lr_mult: 1
    decay_mult: 1
  }
  param {
    lr_mult: 2
    decay_mult: 0
  }
  convolution_param {
    num_output: 32
    pad: 2
    kernel_size: 5
    weight_filler {
      type: "xavier"
    }
    bias_filler {
      type: "constant"
      value: 0.2
    }
  }
}
layer {
  name: "inception_3a/relu_5x5"
  type: "ReLU"
  bottom: "inception_3a/5x5"
  top: "inception_3a/5x5"
}
layer {
  name: "inception_3a/pool"
  type: "Pooling"
  bottom: "pool2/3x3_s2_pool2/3x3_s2_0_split_3"
  top: "inception_3a/pool"
  pooling_param {
    pool: MAX
    kernel_size: 3
    stride: 1
    pad: 1
  }
}
layer {
  name: "inception_3a/pool_proj"
  type: "Convolution"
  bottom: "inception_3a/pool"
  top: "inception_3a/pool_proj"
  param {
    lr_mult: 1
    decay_mult: 1
  }
  param {
    lr_mult: 2
    decay_mult: 0
  }
  convolution_param {
    num_output: 32
    kernel_size: 1
    weight_filler {
      type: "xavier"
    }
    bias_filler {
      type: "constant"
      value: 0.2
    }
  }
}
layer {
  name: "inception_3a/relu_pool_proj"
  type: "ReLU"
  bottom: "inception_3a/pool_proj"
  top: "inception_3a/pool_proj"
}
layer {
  name: "inception_3a/output"
  type: "Concat"
  bottom: "inception_3a/1x1"
  bottom: "inception_3a/3x3"
  bottom: "inception_3a/5x5"
  bottom: "inception_3a/pool_proj"
  top: "inception_3a/output"
}
layer {
  name: "inception_3a/output_inception_3a/output_0_split"
  type: "Split"
  bottom: "inception_3a/output"
  top: "inception_3a/output_inception_3a/output_0_split_0"
  top: "inception_3a/output_inception_3a/output_0_split_1"
  top: "inception_3a/output_inception_3a/output_0_split_2"
  top: "inception_3a/output_inception_3a/output_0_split_3"
}
layer {
  name: "inception_3b/1x1"
  type: "Convolution"
  bottom: "inception_3a/output_inception_3a/output_0_split_0"
  top: "inception_3b/1x1"
  param {
    lr_mult: 1
    decay_mult: 1
  }
  param {
    lr_mult: 2
    decay_mult: 0
  }
  convolution_param {
    num_output: 128
    kernel_size: 1
    weight_filler {
      type: "xavier"
    }
    bias_filler {
      type: "constant"
      value: 0.2
    }
  }
}
layer {
  name: "inception_3b/relu_1x1"
  type: "ReLU"
  bottom: "inception_3b/1x1"
  top: "inception_3b/1x1"
}
layer {
  name: "inception_3b/3x3_reduce"
  type: "Convolution"
  bottom: "inception_3a/output_inception_3a/output_0_split_1"
  top: "inception_3b/3x3_reduce"
  param {
    lr_mult: 1
    decay_mult: 1
  }
  param {
    lr_mult: 2
    decay_mult: 0
  }
  convolution_param {
    num_output: 128
    kernel_size: 1
    weight_filler {
      type: "xavier"
    }
    bias_filler {
      type: "constant"
      value: 0.2
    }
  }
}
layer {
  name: "inception_3b/relu_3x3_reduce"
  type: "ReLU"
  bottom: "inception_3b/3x3_reduce"
  top: "inception_3b/3x3_reduce"
}
layer {
  name: "inception_3b/3x3"
  type: "Convolution"
  bottom: "inception_3b/3x3_reduce"
  top: "inception_3b/3x3"
  param {
    lr_mult: 1
    decay_mult: 1
  }
  param {
    lr_mult: 2
    decay_mult: 0
  }
  convolution_param {
    num_output: 192
    pad: 1
    kernel_size: 3
    weight_filler {
      type: "xavier"
    }
    bias_filler {
      type: "constant"
      value: 0.2
    }
  }
}
layer {
  name: "inception_3b/relu_3x3"
  type: "ReLU"
  bottom: "inception_3b/3x3"
  top: "inception_3b/3x3"
}
layer {
  name: "inception_3b/5x5_reduce"
  type: "Convolution"
  bottom: "inception_3a/output_inception_3a/output_0_split_2"
  top: "inception_3b/5x5_reduce"
  param {
    lr_mult: 1
    decay_mult: 1
  }
  param {
    lr_mult: 2
    decay_mult: 0
  }
  convolution_param {
    num_output: 32
    kernel_size: 1
    weight_filler {
      type: "xavier"
    }
    bias_filler {
      type: "constant"
      value: 0.2
    }
  }
}
layer {
  name: "inception_3b/relu_5x5_reduce"
  type: "ReLU"
  bottom: "inception_3b/5x5_reduce"
  top: "inception_3b/5x5_reduce"
}
layer {
  name: "inception_3b/5x5"
  type: "Convolution"
  bottom: "inception_3b/5x5_reduce"
  top: "inception_3b/5x5"
  param {
    lr_mult: 1
    decay_mult: 1
  }
  param {
    lr_mult: 2
    decay_mult: 0
  }
  convolution_param {
    num_output: 96
    pad: 2
    kernel_size: 5
    weight_filler {
      type: "xavier"
    }
    bias_filler {
      type: "constant"
      value: 0.2
    }
  }
}
layer {
  name: "inception_3b/relu_5x5"
  type: "ReLU"
  bottom: "inception_3b/5x5"
  top: "inception_3b/5x5"
}
layer {
  name: "inception_3b/pool"
  type: "Pooling"
  bottom: "inception_3a/output_inception_3a/output_0_split_3"
  top: "inception_3b/pool"
  pooling_param {
    pool: MAX
    kernel_size: 3
    stride: 1
    pad: 1
  }
}
layer {
  name: "inception_3b/pool_proj"
  type: "Convolution"
  bottom: "inception_3b/pool"
  top: "inception_3b/pool_proj"
  param {
    lr_mult: 1
    decay_mult: 1
  }
  param {
    lr_mult: 2
    decay_mult: 0
  }
  convolution_param {
    num_output: 64
    kernel_size: 1
    weight_filler {
      type: "xavier"
    }
    bias_filler {
      type: "constant"
      value: 0.2
    }
  }
}
layer {
  name: "inception_3b/relu_pool_proj"
  type: "ReLU"
  bottom: "inception_3b/pool_proj"
  top: "inception_3b/pool_proj"
}
layer {
  name: "inception_3b/output"
  type: "Concat"
  bottom: "inception_3b/1x1"
  bottom: "inception_3b/3x3"
  bottom: "inception_3b/5x5"
  bottom: "inception_3b/pool_proj"
  top: "inception_3b/output"
}
layer {
  name: "pool3/3x3_s2"
  type: "Pooling"
  bottom: "inception_3b/output"
  top: "pool3/3x3_s2"
  pooling_param {
    pool: MAX
    kernel_size: 3
    stride: 2
  }
}
layer {
  name: "pool3/3x3_s2_pool3/3x3_s2_0_split"
  type: "Split"
  bottom: "pool3/3x3_s2"
  top: "pool3/3x3_s2_pool3/3x3_s2_0_split_0"
  top: "pool3/3x3_s2_pool3/3x3_s2_0_split_1"
  top: "pool3/3x3_s2_pool3/3x3_s2_0_split_2"
  top: "pool3/3x3_s2_pool3/3x3_s2_0_split_3"
}
layer {
  name: "inception_4a/1x1"
  type: "Convolution"
  bottom: "pool3/3x3_s2_pool3/3x3_s2_0_split_0"
  top: "inception_4a/1x1"
  param {
    lr_mult: 1
    decay_mult: 1
  }
  param {
    lr_mult: 2
    decay_mult: 0
  }
  convolution_param {
    num_output: 192
    kernel_size: 1
    weight_filler {
      type: "xavier"
    }
    bias_filler {
      type: "constant"
      value: 0.2
    }
  }
}
layer {
  name: "inception_4a/relu_1x1"
  type: "ReLU"
  bottom: "inception_4a/1x1"
  top: "inception_4a/1x1"
}
layer {
  name: "inception_4a/3x3_reduce"
  type: "Convolution"
  bottom: "pool3/3x3_s2_pool3/3x3_s2_0_split_1"
  top: "inception_4a/3x3_reduce"
  param {
    lr_mult: 1
    decay_mult: 1
  }
  param {
    lr_mult: 2
    decay_mult: 0
  }
  convolution_param {
    num_output: 96
    kernel_size: 1
    weight_filler {
      type: "xavier"
    }
    bias_filler {
      type: "constant"
      value: 0.2
    }
  }
}
layer {
  name: "inception_4a/relu_3x3_reduce"
  type: "ReLU"
  bottom: "inception_4a/3x3_reduce"
  top: "inception_4a/3x3_reduce"
}
layer {
  name: "inception_4a/3x3"
  type: "Convolution"
  bottom: "inception_4a/3x3_reduce"
  top: "inception_4a/3x3"
  param {
    lr_mult: 1
    decay_mult: 1
  }
  param {
    lr_mult: 2
    decay_mult: 0
  }
  convolution_param {
    num_output: 208
    pad: 1
    kernel_size: 3
    weight_filler {
      type: "xavier"
    }
    bias_filler {
      type: "constant"
      value: 0.2
    }
  }
}
layer {
  name: "inception_4a/relu_3x3"
  type: "ReLU"
  bottom: "inception_4a/3x3"
  top: "inception_4a/3x3"
}
layer {
  name: "inception_4a/5x5_reduce"
  type: "Convolution"
  bottom: "pool3/3x3_s2_pool3/3x3_s2_0_split_2"
  top: "inception_4a/5x5_reduce"
  param {
    lr_mult: 1
    decay_mult: 1
  }
  param {
    lr_mult: 2
    decay_mult: 0
  }
  convolution_param {
    num_output: 16
    kernel_size: 1
    weight_filler {
      type: "xavier"
    }
    bias_filler {
      type: "constant"
      value: 0.2
    }
  }
}
layer {
  name: "inception_4a/relu_5x5_reduce"
  type: "ReLU"
  bottom: "inception_4a/5x5_reduce"
  top: "inception_4a/5x5_reduce"
}
layer {
  name: "inception_4a/5x5"
  type: "Convolution"
  bottom: "inception_4a/5x5_reduce"
  top: "inception_4a/5x5"
  param {
    lr_mult: 1
    decay_mult: 1
  }
  param {
    lr_mult: 2
    decay_mult: 0
  }
  convolution_param {
    num_output: 48
    pad: 2
    kernel_size: 5
    weight_filler {
      type: "xavier"
    }
    bias_filler {
      type: "constant"
      value: 0.2
    }
  }
}
layer {
  name: "inception_4a/relu_5x5"
  type: "ReLU"
  bottom: "inception_4a/5x5"
  top: "inception_4a/5x5"
}
layer {
  name: "inception_4a/pool"
  type: "Pooling"
  bottom: "pool3/3x3_s2_pool3/3x3_s2_0_split_3"
  top: "inception_4a/pool"
  pooling_param {
    pool: MAX
    kernel_size: 3
    stride: 1
    pad: 1
  }
}
layer {
  name: "inception_4a/pool_proj"
  type: "Convolution"
  bottom: "inception_4a/pool"
  top: "inception_4a/pool_proj"
  param {
    lr_mult: 1
    decay_mult: 1
  }
  param {
    lr_mult: 2
    decay_mult: 0
  }
  convolution_param {
    num_output: 64
    kernel_size: 1
    weight_filler {
      type: "xavier"
    }
    bias_filler {
      type: "constant"
      value: 0.2
    }
  }
}
layer {
  name: "inception_4a/relu_pool_proj"
  type: "ReLU"
  bottom: "inception_4a/pool_proj"
  top: "inception_4a/pool_proj"
}
layer {
  name: "inception_4a/output"
  type: "Concat"
  bottom: "inception_4a/1x1"
  bottom: "inception_4a/3x3"
  bottom: "inception_4a/5x5"
  bottom: "inception_4a/pool_proj"
  top: "inception_4a/output"
}
layer {
  name: "inception_4a/output_inception_4a/output_0_split"
  type: "Split"
  bottom: "inception_4a/output"
  top: "inception_4a/output_inception_4a/output_0_split_0"
  top: "inception_4a/output_inception_4a/output_0_split_1"
  top: "inception_4a/output_inception_4a/output_0_split_2"
  top: "inception_4a/output_inception_4a/output_0_split_3"
  top: "inception_4a/output_inception_4a/output_0_split_4"
}
layer {
  name: "loss1/ave_pool"
  type: "Pooling"
  bottom: "inception_4a/output_inception_4a/output_0_split_0"
  top: "loss1/ave_pool"
  pooling_param {
    pool: AVE
    kernel_size: 5
    stride: 3
  }
}
layer {
  name: "loss1/conv"
  type: "Convolution"
  bottom: "loss1/ave_pool"
  top: "loss1/conv"
  param {
    lr_mult: 1
    decay_mult: 1
  }
  param {
    lr_mult: 2
    decay_mult: 0
  }
  convolution_param {
    num_output: 128
    kernel_size: 1
    weight_filler {
      type: "xavier"
    }
    bias_filler {
      type: "constant"
      value: 0.2
    }
  }
}
layer {
  name: "loss1/relu_conv"
  type: "ReLU"
  bottom: "loss1/conv"
  top: "loss1/conv"
}
layer {
  name: "loss1/fc"
  type: "InnerProduct"
  bottom: "loss1/conv"
  top: "loss1/fc"
  param {
    lr_mult: 1
    decay_mult: 1
  }
  param {
    lr_mult: 2
    decay_mult: 0
  }
  inner_product_param {
    num_output: 1024
    weight_filler {
      type: "xavier"
    }
    bias_filler {
      type: "constant"
      value: 0.2
    }
  }
}
layer {
  name: "loss1/relu_fc"
  type: "ReLU"
  bottom: "loss1/fc"
  top: "loss1/fc"
}
layer {
  name: "loss1/drop_fc"
  type: "Dropout"
  bottom: "loss1/fc"
  top: "loss1/fc"
  dropout_param {
    dropout_ratio: 0.7
  }
}
layer {
  name: "loss1/classifier"
  type: "InnerProduct"
  bottom: "loss1/fc"
  top: "loss1/classifier"
  param {
    lr_mult: 1
    decay_mult: 1
  }
  param {
    lr_mult: 2
    decay_mult: 0
  }
  inner_product_param {
    num_output: 1000
    weight_filler {
      type: "xavier"
    }
    bias_filler {
      type: "constant"
      value: 0
    }
  }
}
layer {
  name: "loss1/loss"
  type: "SoftmaxWithLoss"
  bottom: "loss1/classifier"
  bottom: "label_data_1_split_0"
  top: "loss1/loss1"
  loss_weight: 0.3
}
layer {
  name: "inception_4b/1x1"
  type: "Convolution"
  bottom: "inception_4a/output_inception_4a/output_0_split_1"
  top: "inception_4b/1x1"
  param {
    lr_mult: 1
    decay_mult: 1
  }
  param {
    lr_mult: 2
    decay_mult: 0
  }
  convolution_param {
    num_output: 160
    kernel_size: 1
    weight_filler {
      type: "xavier"
    }
    bias_filler {
      type: "constant"
      value: 0.2
    }
  }
}
layer {
  name: "inception_4b/relu_1x1"
  type: "ReLU"
  bottom: "inception_4b/1x1"
  top: "inception_4b/1x1"
}
layer {
  name: "inception_4b/3x3_reduce"
  type: "Convolution"
  bottom: "inception_4a/output_inception_4a/output_0_split_2"
  top: "inception_4b/3x3_reduce"
  param {
    lr_mult: 1
    decay_mult: 1
  }
  param {
    lr_mult: 2
    decay_mult: 0
  }
  convolution_param {
    num_output: 112
    kernel_size: 1
    weight_filler {
      type: "xavier"
    }
    bias_filler {
      type: "constant"
      value: 0.2
    }
  }
}
layer {
  name: "inception_4b/relu_3x3_reduce"
  type: "ReLU"
  bottom: "inception_4b/3x3_reduce"
  top: "inception_4b/3x3_reduce"
}
layer {
  name: "inception_4b/3x3"
  type: "Convolution"
  bottom: "inception_4b/3x3_reduce"
  top: "inception_4b/3x3"
  param {
    lr_mult: 1
    decay_mult: 1
  }
  param {
    lr_mult: 2
    decay_mult: 0
  }
  convolution_param {
    num_output: 224
    pad: 1
    kernel_size: 3
    weight_filler {
      type: "xavier"
    }
    bias_filler {
      type: "constant"
      value: 0.2
    }
  }
}
layer {
  name: "inception_4b/relu_3x3"
  type: "ReLU"
  bottom: "inception_4b/3x3"
  top: "inception_4b/3x3"
}
layer {
  name: "inception_4b/5x5_reduce"
  type: "Convolution"
  bottom: "inception_4a/output_inception_4a/output_0_split_3"
  top: "inception_4b/5x5_reduce"
  param {
    lr_mult: 1
    decay_mult: 1
  }
  param {
    lr_mult: 2
    decay_mult: 0
  }
  convolution_param {
    num_output: 24
    kernel_size: 1
    weight_filler {
      type: "xavier"
    }
    bias_filler {
      type: "constant"
      value: 0.2
    }
  }
}
layer {
  name: "inception_4b/relu_5x5_reduce"
  type: "ReLU"
  bottom: "inception_4b/5x5_reduce"
  top: "inception_4b/5x5_reduce"
}
layer {
  name: "inception_4b/5x5"
  type: "Convolution"
  bottom: "inception_4b/5x5_reduce"
  top: "inception_4b/5x5"
  param {
    lr_mult: 1
    decay_mult: 1
  }
  param {
    lr_mult: 2
    decay_mult: 0
  }
  convolution_param {
    num_output: 64
    pad: 2
    kernel_size: 5
    weight_filler {
      type: "xavier"
    }
    bias_filler {
      type: "constant"
      value: 0.2
    }
  }
}
layer {
  name: "inception_4b/relu_5x5"
  type: "ReLU"
  bottom: "inception_4b/5x5"
  top: "inception_4b/5x5"
}
layer {
  name: "inception_4b/pool"
  type: "Pooling"
  bottom: "inception_4a/output_inception_4a/output_0_split_4"
  top: "inception_4b/pool"
  pooling_param {
    pool: MAX
    kernel_size: 3
    stride: 1
    pad: 1
  }
}
layer {
  name: "inception_4b/pool_proj"
  type: "Convolution"
  bottom: "inception_4b/pool"
  top: "inception_4b/pool_proj"
  param {
    lr_mult: 1
    decay_mult: 1
  }
  param {
    lr_mult: 2
    decay_mult: 0
  }
  convolution_param {
    num_output: 64
    kernel_size: 1
    weight_filler {
      type: "xavier"
    }
    bias_filler {
      type: "constant"
      value: 0.2
    }
  }
}
layer {
  name: "inception_4b/relu_pool_proj"
  type: "ReLU"
  bottom: "inception_4b/pool_proj"
  top: "inception_4b/pool_proj"
}
layer {
  name: "inception_4b/output"
  type: "Concat"
  bottom: "inception_4b/1x1"
  bottom: "inception_4b/3x3"
  bottom: "inception_4b/5x5"
  bottom: "inception_4b/pool_proj"
  top: "inception_4b/output"
}
layer {
  name: "inception_4b/output_inception_4b/output_0_split"
  type: "Split"
  bottom: "inception_4b/output"
  top: "inception_4b/output_inception_4b/output_0_split_0"
  top: "inception_4b/output_inception_4b/output_0_split_1"
  top: "inception_4b/output_inception_4b/output_0_split_2"
  top: "inception_4b/output_inception_4b/output_0_split_3"
}
layer {
  name: "inception_4c/1x1"
  type: "Convolution"
  bottom: "inception_4b/output_inception_4b/output_0_split_0"
  top: "inception_4c/1x1"
  param {
    lr_mult: 1
    decay_mult: 1
  }
  param {
    lr_mult: 2
    decay_mult: 0
  }
  convolution_param {
    num_output: 128
    kernel_size: 1
    weight_filler {
      type: "xavier"
    }
    bias_filler {
      type: "constant"
      value: 0.2
    }
  }
}
layer {
  name: "inception_4c/relu_1x1"
  type: "ReLU"
  bottom: "inception_4c/1x1"
  top: "inception_4c/1x1"
}
layer {
  name: "inception_4c/3x3_reduce"
  type: "Convolution"
  bottom: "inception_4b/output_inception_4b/output_0_split_1"
  top: "inception_4c/3x3_reduce"
  param {
    lr_mult: 1
    decay_mult: 1
  }
  param {
    lr_mult: 2
    decay_mult: 0
  }
  convolution_param {
    num_output: 128
    kernel_size: 1
    weight_filler {
      type: "xavier"
    }
    bias_filler {
      type: "constant"
      value: 0.2
    }
  }
}
layer {
  name: "inception_4c/relu_3x3_reduce"
  type: "ReLU"
  bottom: "inception_4c/3x3_reduce"
  top: "inception_4c/3x3_reduce"
}
layer {
  name: "inception_4c/3x3"
  type: "Convolution"
  bottom: "inception_4c/3x3_reduce"
  top: "inception_4c/3x3"
  param {
    lr_mult: 1
    decay_mult: 1
  }
  param {
    lr_mult: 2
    decay_mult: 0
  }
  convolution_param {
    num_output: 256
    pad: 1
    kernel_size: 3
    weight_filler {
      type: "xavier"
    }
    bias_filler {
      type: "constant"
      value: 0.2
    }
  }
}
layer {
  name: "inception_4c/relu_3x3"
  type: "ReLU"
  bottom: "inception_4c/3x3"
  top: "inception_4c/3x3"
}
layer {
  name: "inception_4c/5x5_reduce"
  type: "Convolution"
  bottom: "inception_4b/output_inception_4b/output_0_split_2"
  top: "inception_4c/5x5_reduce"
  param {
    lr_mult: 1
    decay_mult: 1
  }
  param {
    lr_mult: 2
    decay_mult: 0
  }
  convolution_param {
    num_output: 24
    kernel_size: 1
    weight_filler {
      type: "xavier"
    }
    bias_filler {
      type: "constant"
      value: 0.2
    }
  }
}
layer {
  name: "inception_4c/relu_5x5_reduce"
  type: "ReLU"
  bottom: "inception_4c/5x5_reduce"
  top: "inception_4c/5x5_reduce"
}
layer {
  name: "inception_4c/5x5"
  type: "Convolution"
  bottom: "inception_4c/5x5_reduce"
  top: "inception_4c/5x5"
  param {
    lr_mult: 1
    decay_mult: 1
  }
  param {
    lr_mult: 2
    decay_mult: 0
  }
  convolution_param {
    num_output: 64
    pad: 2
    kernel_size: 5
    weight_filler {
      type: "xavier"
    }
    bias_filler {
      type: "constant"
      value: 0.2
    }
  }
}
layer {
  name: "inception_4c/relu_5x5"
  type: "ReLU"
  bottom: "inception_4c/5x5"
  top: "inception_4c/5x5"
}
layer {
  name: "inception_4c/pool"
  type: "Pooling"
  bottom: "inception_4b/output_inception_4b/output_0_split_3"
  top: "inception_4c/pool"
  pooling_param {
    pool: MAX
    kernel_size: 3
    stride: 1
    pad: 1
  }
}
layer {
  name: "inception_4c/pool_proj"
  type: "Convolution"
  bottom: "inception_4c/pool"
  top: "inception_4c/pool_proj"
  param {
    lr_mult: 1
    decay_mult: 1
  }
  param {
    lr_mult: 2
    decay_mult: 0
  }
  convolution_param {
    num_output: 64
    kernel_size: 1
    weight_filler {
      type: "xavier"
    }
    bias_filler {
      type: "constant"
      value: 0.2
    }
  }
}
layer {
  name: "inception_4c/relu_pool_proj"
  type: "ReLU"
  bottom: "inception_4c/pool_proj"
  top: "inception_4c/pool_proj"
}
layer {
  name: "inception_4c/output"
  type: "Concat"
  bottom: "inception_4c/1x1"
  bottom: "inception_4c/3x3"
  bottom: "inception_4c/5x5"
  bottom: "inception_4c/pool_proj"
  top: "inception_4c/output"
}
layer {
  name: "inception_4c/output_inception_4c/output_0_split"
  type: "Split"
  bottom: "inception_4c/output"
  top: "inception_4c/output_inception_4c/output_0_split_0"
  top: "inception_4c/output_inception_4c/output_0_split_1"
  top: "inception_4c/output_inception_4c/output_0_split_2"
  top: "inception_4c/output_inception_4c/output_0_split_3"
}
layer {
  name: "inception_4d/1x1"
  type: "Convolution"
  bottom: "inception_4c/output_inception_4c/output_0_split_0"
  top: "inception_4d/1x1"
  param {
    lr_mult: 1
    decay_mult: 1
  }
  param {
    lr_mult: 2
    decay_mult: 0
  }
  convolution_param {
    num_output: 112
    kernel_size: 1
    weight_filler {
      type: "xavier"
    }
    bias_filler {
      type: "constant"
      value: 0.2
    }
  }
}
layer {
  name: "inception_4d/relu_1x1"
  type: "ReLU"
  bottom: "inception_4d/1x1"
  top: "inception_4d/1x1"
}
layer {
  name: "inception_4d/3x3_reduce"
  type: "Convolution"
  bottom: "inception_4c/output_inception_4c/output_0_split_1"
  top: "inception_4d/3x3_reduce"
  param {
    lr_mult: 1
    decay_mult: 1
  }
  param {
    lr_mult: 2
    decay_mult: 0
  }
  convolution_param {
    num_output: 144
    kernel_size: 1
    weight_filler {
      type: "xavier"
    }
    bias_filler {
      type: "constant"
      value: 0.2
    }
  }
}
layer {
  name: "inception_4d/relu_3x3_reduce"
  type: "ReLU"
  bottom: "inception_4d/3x3_reduce"
  top: "inception_4d/3x3_reduce"
}
layer {
  name: "inception_4d/3x3"
  type: "Convolution"
  bottom: "inception_4d/3x3_reduce"
  top: "inception_4d/3x3"
  param {
    lr_mult: 1
    decay_mult: 1
  }
  param {
    lr_mult: 2
    decay_mult: 0
  }
  convolution_param {
    num_output: 288
    pad: 1
    kernel_size: 3
    weight_filler {
      type: "xavier"
    }
    bias_filler {
      type: "constant"
      value: 0.2
    }
  }
}
layer {
  name: "inception_4d/relu_3x3"
  type: "ReLU"
  bottom: "inception_4d/3x3"
  top: "inception_4d/3x3"
}
layer {
  name: "inception_4d/5x5_reduce"
  type: "Convolution"
  bottom: "inception_4c/output_inception_4c/output_0_split_2"
  top: "inception_4d/5x5_reduce"
  param {
    lr_mult: 1
    decay_mult: 1
  }
  param {
    lr_mult: 2
    decay_mult: 0
  }
  convolution_param {
    num_output: 32
    kernel_size: 1
    weight_filler {
      type: "xavier"
    }
    bias_filler {
      type: "constant"
      value: 0.2
    }
  }
}
layer {
  name: "inception_4d/relu_5x5_reduce"
  type: "ReLU"
  bottom: "inception_4d/5x5_reduce"
  top: "inception_4d/5x5_reduce"
}
layer {
  name: "inception_4d/5x5"
  type: "Convolution"
  bottom: "inception_4d/5x5_reduce"
  top: "inception_4d/5x5"
  param {
    lr_mult: 1
    decay_mult: 1
  }
  param {
    lr_mult: 2
    decay_mult: 0
  }
  convolution_param {
    num_output: 64
    pad: 2
    kernel_size: 5
    weight_filler {
      type: "xavier"
    }
    bias_filler {
      type: "constant"
      value: 0.2
    }
  }
}
layer {
  name: "inception_4d/relu_5x5"
  type: "ReLU"
  bottom: "inception_4d/5x5"
  top: "inception_4d/5x5"
}
layer {
  name: "inception_4d/pool"
  type: "Pooling"
  bottom: "inception_4c/output_inception_4c/output_0_split_3"
  top: "inception_4d/pool"
  pooling_param {
    pool: MAX
    kernel_size: 3
    stride: 1
    pad: 1
  }
}
layer {
  name: "inception_4d/pool_proj"
  type: "Convolution"
  bottom: "inception_4d/pool"
  top: "inception_4d/pool_proj"
  param {
    lr_mult: 1
    decay_mult: 1
  }
  param {
    lr_mult: 2
    decay_mult: 0
  }
  convolution_param {
    num_output: 64
    kernel_size: 1
    weight_filler {
      type: "xavier"
    }
    bias_filler {
      type: "constant"
      value: 0.2
    }
  }
}
layer {
  name: "inception_4d/relu_pool_proj"
  type: "ReLU"
  bottom: "inception_4d/pool_proj"
  top: "inception_4d/pool_proj"
}
layer {
  name: "inception_4d/output"
  type: "Concat"
  bottom: "inception_4d/1x1"
  bottom: "inception_4d/3x3"
  bottom: "inception_4d/5x5"
  bottom: "inception_4d/pool_proj"
  top: "inception_4d/output"
}
layer {
  name: "inception_4d/output_inception_4d/output_0_split"
  type: "Split"
  bottom: "inception_4d/output"
  top: "inception_4d/output_inception_4d/output_0_split_0"
  top: "inception_4d/output_inception_4d/output_0_split_1"
  top: "inception_4d/output_inception_4d/output_0_split_2"
  top: "inception_4d/output_inception_4d/output_0_split_3"
  top: "inception_4d/output_inception_4d/output_0_split_4"
}
layer {
  name: "loss2/ave_pool"
  type: "Pooling"
  bottom: "inception_4d/output_inception_4d/output_0_split_0"
  top: "loss2/ave_pool"
  pooling_param {
    pool: AVE
    kernel_size: 5
    stride: 3
  }
}
layer {
  name: "loss2/conv"
  type: "Convolution"
  bottom: "loss2/ave_pool"
  top: "loss2/conv"
  param {
    lr_mult: 1
    decay_mult: 1
  }
  param {
    lr_mult: 2
    decay_mult: 0
  }
  convolution_param {
    num_output: 128
    kernel_size: 1
    weight_filler {
      type: "xavier"
    }
    bias_filler {
      type: "constant"
      value: 0.2
    }
  }
}
layer {
  name: "loss2/relu_conv"
  type: "ReLU"
  bottom: "loss2/conv"
  top: "loss2/conv"
}
layer {
  name: "loss2/fc"
  type: "InnerProduct"
  bottom: "loss2/conv"
  top: "loss2/fc"
  param {
    lr_mult: 1
    decay_mult: 1
  }
  param {
    lr_mult: 2
    decay_mult: 0
  }
  inner_product_param {
    num_output: 1024
    weight_filler {
      type: "xavier"
    }
    bias_filler {
      type: "constant"
      value: 0.2
    }
  }
}
layer {
  name: "loss2/relu_fc"
  type: "ReLU"
  bottom: "loss2/fc"
  top: "loss2/fc"
}
layer {
  name: "lo
I0331 18:47:46.004883 134812 net.cpp:154] Setting up Layer of device :0 @cpu 0 Layer : data
I0331 18:47:46.004890 134812 layer_factory.hpp:114] Creating layer data
I0331 18:47:46.005483 134812 net.cpp:169] Creating Layer data
I0331 18:47:46.005496 134812 net.cpp:579] data -> data
I0331 18:47:46.005499 134812 net.cpp:582] From AppendTop @cpu: 0
I0331 18:47:46.005518 134812 net.cpp:579] data -> label
I0331 18:47:46.005522 134812 net.cpp:582] From AppendTop @cpu: 0
I0331 18:47:46.005658 134813 db_lmdb.cpp:72] Opened lmdb /home/user/LIBRARIES/caffeLibs/caffe/examples/imagenet/ilsvrc12_train_lmdb
I0331 18:47:46.005707 134813 virtDev_device.cpp:310] found a CPU core 14 for Data Reader on device 0 thread ID 140529204123392
I0331 18:47:46.005712 134813 data_reader.cpp:128] inside DATAREADER 4
I0331 18:47:46.006129 134812 data_layer.cpp:80] output data size: 28,3,224,224
I0331 18:47:46.023409 134812 base_data_layer.cpp:96] Done cpu data
I0331 18:47:46.023471 134812 net.cpp:219] Setting up data
I0331 18:47:46.023490 134812 net.cpp:226] Top shape: 28 3 224 224 (4214784)
I0331 18:47:46.023497 134812 net.cpp:226] Top shape: 28 (28)
I0331 18:47:46.023502 134812 net.cpp:234] Memory required for data: 16859248
I0331 18:47:46.023517 134812 net.cpp:154] Setting up Layer of device :0 @cpu 4 Layer : label_data_1_split
I0331 18:47:46.023522 134812 layer_factory.hpp:114] Creating layer label_data_1_split
I0331 18:47:46.023546 134812 net.cpp:169] Creating Layer label_data_1_split
I0331 18:47:46.023551 134812 net.cpp:606] label_data_1_split <- label
I0331 18:47:46.023561 134812 net.cpp:579] label_data_1_split -> label_data_1_split_0
I0331 18:47:46.023566 134812 net.cpp:582] From AppendTop @cpu: 4
I0331 18:47:46.023581 134812 net.cpp:579] label_data_1_split -> label_data_1_split_1
I0331 18:47:46.023584 134812 net.cpp:582] From AppendTop @cpu: 4
I0331 18:47:46.023591 134812 net.cpp:579] label_data_1_split -> label_data_1_split_2
I0331 18:47:46.023596 134812 net.cpp:582] From AppendTop @cpu: 4
I0331 18:47:46.023610 134812 net.cpp:219] Setting up label_data_1_split
I0331 18:47:46.023617 134812 net.cpp:226] Top shape: 28 (28)
I0331 18:47:46.023622 134812 net.cpp:226] Top shape: 28 (28)
I0331 18:47:46.023633 134812 net.cpp:226] Top shape: 28 (28)
I0331 18:47:46.023636 134812 net.cpp:234] Memory required for data: 16859584
I0331 18:47:46.023641 134812 net.cpp:154] Setting up Layer of device :0 @cpu 4 Layer : conv1/7x7_s2
I0331 18:47:46.023645 134812 layer_factory.hpp:114] Creating layer conv1/7x7_s2
I0331 18:47:46.023670 134812 net.cpp:169] Creating Layer conv1/7x7_s2
I0331 18:47:46.023675 134812 net.cpp:606] conv1/7x7_s2 <- data
I0331 18:47:46.023682 134812 net.cpp:579] conv1/7x7_s2 -> conv1/7x7_s2
…
OMP: Info #242: KMP_AFFINITY: pid 134812 thread 7 bound to OS proc set {28}
OMP: Info #242: KMP_AFFINITY: pid 134812 thread 8 bound to OS proc set {32}
OMP: Info #242: KMP_AFFINITY: pid 134812 thread 9 bound to OS proc set {36}
OMP: Info #242: KMP_AFFINITY: pid 134812 thread 10 bound to OS proc set {40}
OMP: Info #242: KMP_AFFINITY: pid 134812 thread 11 bound to OS proc set {44}
OMP: Info #242: KMP_AFFINITY: pid 134812 thread 13 bound to OS proc set {52}
OMP: Info #242: KMP_AFFINITY: pid 134812 thread 12 bound to OS proc set {48}
I0331 18:47:46.071144 134812 net.cpp:219] Setting up conv1/7x7_s2
I0331 18:47:46.071213 134812 net.cpp:226] Top shape: 28 64 112 112 (22478848)
I0331 18:47:46.071218 134812 net.cpp:234] Memory required for data: 106774976
I0331 18:47:46.071264 134812 net.cpp:154] Setting up Layer of device :0 @cpu 0 Layer : conv1/relu_7x7
I0331 18:47:46.071274 134812 layer_factory.hpp:114] Creating layer conv1/relu_7x7
I0331 18:47:46.071295 134812 net.cpp:169] Creating Layer conv1/relu_7x7
I0331 18:47:46.071302 134812 net.cpp:606] conv1/relu_7x7 <- conv1/7x7_s2
I0331 18:47:46.071312 134812 net.cpp:566] conv1/relu_7x7 -> conv1/7x7_s2 (in-place)
I0331 18:47:46.071331 134812 net.cpp:219] Setting up conv1/relu_7x7
I0331 18:47:46.071337 134812 net.cpp:226] Top shape: 28 64 112 112 (22478848)
I0331 18:47:46.071341 134812 net.cpp:234] Memory required for data: 196690368
I0331 18:47:46.071346 134812 net.cpp:154] Setting up Layer of device :0 @cpu 0 Layer : pool1/3x3_s2
I0331 18:47:46.071349 134812 layer_factory.hpp:114] Creating layer pool1/3x3_s2
I0331 18:47:46.071420 134812 net.cpp:169] Creating Layer pool1/3x3_s2
I0331 18:47:46.071426 134812 net.cpp:606] pool1/3x3_s2 <- conv1/7x7_s2
I0331 18:47:46.071434 134812 net.cpp:579] pool1/3x3_s2 -> pool1/3x3_s2
I0331 18:47:46.071437 134812 net.cpp:582] From AppendTop @cpu: 0
I0331 18:47:46.071456 134812 net.cpp:219] Setting up pool1/3x3_s2
I0331 18:47:46.071465 134812 net.cpp:226] Top shape: 28 64 56 56 (5619712)
I0331 18:47:46.071468 134812 net.cpp:234] Memory required for data: 219169216
I0331 18:47:46.071475 134812 net.cpp:154] Setting up Layer of device :0 @cpu 0 Layer : pool1/norm1
I0331 18:47:46.071478 134812 layer_factory.hpp:114] Creating layer pool1/norm1
I0331 18:47:46.071487 134812 net.cpp:169] Creating Layer pool1/norm1
I0331 18:47:46.071491 134812 net.cpp:606] pool1/norm1 <- pool1/3x3_s2
I0331 18:47:46.071526 134812 net.cpp:579] pool1/norm1 -> pool1/norm1
I0331 18:47:46.071529 134812 net.cpp:582] From AppendTop @cpu: 0
I0331 18:47:46.071542 134812 net.cpp:219] Setting up pool1/norm1
I0331 18:47:46.071548 134812 net.cpp:226] Top shape: 28 64 56 56 (5619712)
I0331 18:47:46.071552 134812 net.cpp:234] Memory required for data: 241648064
I0331 18:47:46.071557 134812 net.cpp:154] Setting up Layer of device :0 @cpu 0 Layer : conv2/3x3_reduce
I0331 18:47:46.071561 134812 layer_factory.hpp:114] Creating layer conv2/3x3_reduce
I0331 18:47:46.071579 134812 net.cpp:169] Creating Layer conv2/3x3_reduce
I0331 18:47:46.071583 134812 net.cpp:606] conv2/3x3_reduce <- pool1/norm1
I0331 18:47:46.071593 134812 net.cpp:579] conv2/3x3_reduce -> conv2/3x3_reduce
I0331 18:47:46.071596 134812 net.cpp:582] From AppendTop @cpu: 0
I0331 18:47:46.076133 134812 net.cpp:219] Setting up conv2/3x3_reduce
I0331 18:47:46.076148 134812 net.cpp:226] Top shape: 28 64 56 56 (5619712)
I0331 18:47:46.076153 134812 net.cpp:234] Memory required for data: 264126912
I0331 18:47:46.076165 134812 net.cpp:154] Setting up Layer of device :0 @cpu 0 Layer : conv2/relu_3x3_reduce
I0331 18:47:46.076170 134812 layer_factory.hpp:114] Creating layer conv2/relu_3x3_reduce
I0331 18:47:46.076176 134812 net.cpp:169] Creating Layer conv2/relu_3x3_reduce
I0331 18:47:46.076181 134812 net.cpp:606] conv2/relu_3x3_reduce <- conv2/3x3_reduce
I0331 18:47:46.076187 134812 net.cpp:566] conv2/relu_3x3_reduce -> conv2/3x3_reduce (in-place)
I0331 18:47:46.076201 134812 net.cpp:219] Setting up conv2/relu_3x3_reduce
I0331 18:47:46.076206 134812 net.cpp:226] Top shape: 28 64 56 56 (5619712)
I0331 18:47:46.076210 134812 net.cpp:234] Memory required for data: 286605760
I0331 18:47:46.076215 134812 net.cpp:154] Setting up Layer of device :0 @cpu 0 Layer : conv2/3x3
I0331 18:47:46.076218 134812 layer_factory.hpp:114] Creating layer conv2/3x3
I0331 18:47:46.076231 134812 net.cpp:169] Creating Layer conv2/3x3
I0331 18:47:46.076234 134812 net.cpp:606] conv2/3x3 <- conv2/3x3_reduce
I0331 18:47:46.076242 134812 net.cpp:579] conv2/3x3 -> conv2/3x3
I0331 18:47:46.076246 134812 net.cpp:582] From AppendTop @cpu: 0
I0331 18:47:46.112699 134812 net.cpp:219] Setting up conv2/3x3
I0331 18:47:46.112742 134812 net.cpp:226] Top shape: 28 192 56 56 (16859136)
I0331 18:47:46.112746 134812 net.cpp:234] Memory required for data: 354042304
I0331 18:47:46.112774 134812 net.cpp:154] Setting up Layer of device :0 @cpu 0 Layer : conv2/relu_3x3
I0331 18:47:46.112781 134812 layer_factory.hpp:114] Creating layer conv2/relu_3x3
I0331 18:47:46.112797 134812 net.cpp:169] Creating Layer conv2/relu_3x3
I0331 18:47:46.112804 134812 net.cpp:606] conv2/relu_3x3 <- conv2/3x3
I0331 18:47:46.112815 134812 net.cpp:566] conv2/relu_3x3 -> conv2/3x3 (in-place)
I0331 18:47:46.112829 134812 net.cpp:219] Setting up conv2/relu_3x3
I0331 18:47:46.112835 134812 net.cpp:226] Top shape: 28 192 56 56 (16859136)
I0331 18:47:46.112839 134812 net.cpp:234] Memory required for data: 421478848
I0331 18:47:46.112844 134812 net.cpp:154] Setting up Layer of device :0 @cpu 0 Layer : conv2/norm2
I0331 18:47:46.112848 134812 layer_factory.hpp:114] Creating layer conv2/norm2
I0331 18:47:46.112857 134812 net.cpp:169] Creating Layer conv2/norm2
I0331 18:47:46.112861 134812 net.cpp:606] conv2/norm2 <- conv2/3x3
I0331 18:47:46.112869 134812 net.cpp:579] conv2/norm2 -> conv2/norm2
I0331 18:47:46.112874 134812 net.cpp:582] From AppendTop @cpu: 0
I0331 18:47:46.112886 134812 net.cpp:219] Setting up conv2/norm2
I0331 18:47:46.112891 134812 net.cpp:226] Top shape: 28 192 56 56 (16859136)
I0331 18:47:46.112895 134812 net.cpp:234] Memory required for data: 488915392
I0331 18:47:46.112900 134812 net.cpp:154] Setting up Layer of device :0 @cpu 0 Layer : pool2/3x3_s2
I0331 18:47:46.112905 134812 layer_factory.hpp:114] Creating layer pool2/3x3_s2
I0331 18:47:46.112937 134812 net.cpp:169] Creating Layer pool2/3x3_s2
I0331 18:47:46.112942 134812 net.cpp:606] pool2/3x3_s2 <- conv2/norm2
I0331 18:47:46.112951 134812 net.cpp:579] pool2/3x3_s2 -> pool2/3x3_s2
I0331 18:47:46.112979 134812 net.cpp:582] From AppendTop @cpu: 0
I0331 18:47:46.112992 134812 net.cpp:219] Setting up pool2/3x3_s2
I0331 18:47:46.112998 134812 net.cpp:226] Top shape: 28 192 28 28 (4214784)
I0331 18:47:46.113001 134812 net.cpp:234] Memory required for data: 505774528
I0331 18:47:46.113006 134812 net.cpp:154] Setting up Layer of device :0 @cpu 0 Layer : pool2/3x3_s2_pool2/3x3_s2_0_split
I0331 18:47:46.113010 134812 layer_factory.hpp:114] Creating layer pool2/3x3_s2_pool2/3x3_s2_0_split
I0331 18:47:46.113023 134812 net.cpp:169] Creating Layer pool2/3x3_s2_pool2/3x3_s2_0_split
I0331 18:47:46.113026 134812 net.cpp:606] pool2/3x3_s2_pool2/3x3_s2_0_split <- pool2/3x3_s2
I0331 18:47:46.113034 134812 net.cpp:579] pool2/3x3_s2_pool2/3x3_s2_0_split -> pool2/3x3_s2_pool2/3x3_s2_0_split_0
I0331 18:47:46.113037 134812 net.cpp:582] From AppendTop @cpu: 0
I0331 18:47:46.113046 134812 net.cpp:579] pool2/3x3_s2_pool2/3x3_s2_0_split -> pool2/3x3_s2_pool2/3x3_s2_0_split_1
I0331 18:47:46.113049 134812 net.cpp:582] From AppendTop @cpu: 0
I0331 18:47:46.113056 134812 net.cpp:579] pool2/3x3_s2_pool2/3x3_s2_0_split -> pool2/3x3_s2_pool2/3x3_s2_0_split_2
I0331 18:47:46.113060 134812 net.cpp:582] From AppendTop @cpu: 0
I0331 18:47:46.113065 134812 net.cpp:579] pool2/3x3_s2_pool2/3x3_s2_0_split -> pool2/3x3_s2_pool2/3x3_s2_0_split_3
I0331 18:47:46.113070 134812 net.cpp:582] From AppendTop @cpu: 0
I0331 18:47:46.113077 134812 net.cpp:219] Setting up pool2/3x3_s2_pool2/3x3_s2_0_split
I0331 18:47:46.113088 134812 net.cpp:226] Top shape: 28 192 28 28 (4214784)
I0331 18:47:46.113093 134812 net.cpp:226] Top shape: 28 192 28 28 (4214784)
I0331 18:47:46.113098 134812 net.cpp:226] Top shape: 28 192 28 28 (4214784)
I0331 18:47:46.113102 134812 net.cpp:226] Top shape: 28 192 28 28 (4214784)
I0331 18:47:46.113106 134812 net.cpp:234] Memory required for data: 573211072
I0331 18:47:46.113111 134812 net.cpp:154] Setting up Layer of device :0 @cpu 0 Layer : inception_3a/1x1
I0331 18:47:46.113114 134812 layer_factory.hpp:114] Creating layer inception_3a/1x1
I0331 18:47:46.113131 134812 net.cpp:169] Creating Layer inception_3a/1x1
I0331 18:47:46.113135 134812 net.cpp:606] inception_3a/1x1 <- pool2/3x3_s2_pool2/3x3_s2_0_split_0
I0331 18:47:46.113143 134812 net.cpp:579] inception_3a/1x1 -> inception_3a/1x1
I0331 18:47:46.113147 134812 net.cpp:582] From AppendTop @cpu: 0
I0331 18:47:46.116946 134812 net.cpp:219] Setting up inception_3a/1x1
I0331 18:47:46.116960 134812 net.cpp:226] Top shape: 28 64 28 28 (1404928)
I0331 18:47:46.116963 134812 net.cpp:234] Memory required for data: 578830784
I0331 18:47:46.116973 134812 net.cpp:154] Setting up Layer of device :0 @cpu 0 Layer : inception_3a/relu_1x1
I0331 18:47:46.116977 134812 layer_factory.hpp:114] Creating layer inception_3a/relu_1x1
I0331 18:47:46.116983 134812 net.cpp:169] Creating Layer inception_3a/relu_1x1
I0331 18:47:46.116987 134812 net.cpp:606] inception_3a/relu_1x1 <- inception_3a/1x1
I0331 18:47:46.116996 134812 net.cpp:566] inception_3a/relu_1x1 -> inception_3a/1x1 (in-place)
I0331 18:47:46.117002 134812 net.cpp:219] Setting up inception_3a/relu_1x1
I0331 18:47:46.117007 134812 net.cpp:226] Top shape: 28 64 28 28 (1404928)
I0331 18:47:46.117012 134812 net.cpp:234] Memory required for data: 584450496
I0331 18:47:46.117015 134812 net.cpp:154] Setting up Layer of device :0 @cpu 0 Layer : inception_3a/3x3_reduce
I0331 18:47:46.117019 134812 layer_factory.hpp:114] Creating layer inception_3a/3x3_reduce
I0331 18:47:46.117030 134812 net.cpp:169] Creating Layer inception_3a/3x3_reduce
I0331 18:47:46.117035 134812 net.cpp:606] inception_3a/3x3_reduce <- pool2/3x3_s2_pool2/3x3_s2_0_split_1
I0331 18:47:46.117041 134812 net.cpp:579] inception_3a/3x3_reduce -> inception_3a/3x3_reduce
I0331 18:47:46.117044 134812 net.cpp:582] From AppendTop @cpu: 0
I0331 18:47:46.121093 134812 net.cpp:219] Setting up inception_3a/3x3_reduce
I0331 18:47:46.121104 134812 net.cpp:226] Top shape: 28 96 28 28 (2107392)
I0331 18:47:46.121106 134812 net.cpp:234] Memory required for data: 592880064
I0331 18:47:46.121127 134812 net.cpp:154] Setting up Layer of device :0 @cpu 0 Layer : inception_3a/relu_3x3_reduce
I0331 18:47:46.121132 134812 layer_factory.hpp:114] Creating layer inception_3a/relu_3x3_reduce
I0331 18:47:46.121142 134812 net.cpp:169] Creating Layer inception_3a/relu_3x3_reduce
I0331 18:47:46.121146 134812 net.cpp:606] inception_3a/relu_3x3_reduce <- inception_3a/3x3_reduce
I0331 18:47:46.121152 134812 net.cpp:566] inception_3a/relu_3x3_reduce -> inception_3a/3x3_reduce (in-place)
I0331 18:47:46.121161 134812 net.cpp:219] Setting up inception_3a/relu_3x3_reduce
I0331 18:47:46.121167 134812 net.cpp:226] Top shape: 28 96 28 28 (2107392)
I0331 18:47:46.121170 134812 net.cpp:234] Memory required for data: 601309632
I0331 18:47:46.121176 134812 net.cpp:154] Setting up Layer of device :0 @cpu 0 Layer : inception_3a/3x3
I0331 18:47:46.121178 134812 layer_factory.hpp:114] Creating layer inception_3a/3x3
I0331 18:47:46.121186 134812 net.cpp:169] Creating Layer inception_3a/3x3
I0331 18:47:46.121191 134812 net.cpp:606] inception_3a/3x3 <- inception_3a/3x3_reduce
I0331 18:47:46.121201 134812 net.cpp:579] inception_3a/3x3 -> inception_3a/3x3
I0331 18:47:46.121204 134812 net.cpp:582] From AppendTop @cpu: 0
I0331 18:47:46.137151 134812 net.cpp:219] Setting up inception_3a/3x3
I0331 18:47:46.137187 134812 net.cpp:226] Top shape: 28 128 28 28 (2809856)
I0331 18:47:46.137192 134812 net.cpp:234] Memory required for data: 612549056
I0331 18:47:46.137208 134812 net.cpp:154] Setting up Layer of device :0 @cpu 0 Layer : inception_3a/relu_3x3
I0331 18:47:46.137223 134812 layer_factory.hpp:114] Creating layer inception_3a/relu_3x3
I0331 18:47:46.137238 134812 net.cpp:169] Creating Layer inception_3a/relu_3x3
I0331 18:47:46.137243 134812 net.cpp:606] inception_3a/relu_3x3 <- inception_3a/3x3
I0331 18:47:46.137254 134812 net.cpp:566] inception_3a/relu_3x3 -> inception_3a/3x3 (in-place)
I0331 18:47:46.137265 134812 net.cpp:219] Setting up inception_3a/relu_3x3
I0331 18:47:46.137271 134812 net.cpp:226] Top shape: 28 128 28 28 (2809856)
I0331 18:47:46.137275 134812 net.cpp:234] Memory required for data: 623788480
I0331 18:47:46.137280 134812 net.cpp:154] Setting up Layer of device :0 @cpu 0 Layer : inception_3a/5x5_reduce
I0331 18:47:46.137284 134812 layer_factory.hpp:114] Creating layer inception_3a/5x5_reduce
I0331 18:47:46.137296 134812 net.cpp:169] Creating Layer inception_3a/5x5_reduce
I0331 18:47:46.137302 134812 net.cpp:606] inception_3a/5x5_reduce <- pool2/3x3_s2_pool2/3x3_s2_0_split_2
I0331 18:47:46.137311 134812 net.cpp:579] inception_3a/5x5_reduce -> inception_3a/5x5_reduce
I0331 18:47:46.137315 134812 net.cpp:582] From AppendTop @cpu: 0
I0331 18:47:46.140718 134812 net.cpp:219] Setting up inception_3a/5x5_reduce
I0331 18:47:46.140730 134812 net.cpp:226] Top shape: 28 16 28 28 (351232)
I0331 18:47:46.140734 134812 net.cpp:234] Memory required for data: 625193408
I0331 18:47:46.140743 134812 net.cpp:154] Setting up Layer of device :0 @cpu 0 Layer : inception_3a/relu_5x5_reduce
I0331 18:47:46.140748 134812 layer_factory.hpp:114] Creating layer inception_3a/relu_5x5_reduce
I0331 18:47:46.140755 134812 net.cpp:169] Creating Layer inception_3a/relu_5x5_reduce
I0331 18:47:46.140760 134812 net.cpp:606] inception_3a/relu_5x5_reduce <- inception_3a/5x5_reduce
I0331 18:47:46.140769 134812 net.cpp:566] inception_3a/relu_5x5_reduce -> inception_3a/5x5_reduce (in-place)
I0331 18:47:46.140775 134812 net.cpp:219] Setting up inception_3a/relu_5x5_reduce
I0331 18:47:46.140780 134812 net.cpp:226] Top shape: 28 16 28 28 (351232)
I0331 18:47:46.140784 134812 net.cpp:234] Memory required for data: 626598336
I0331 18:47:46.140789 134812 net.cpp:154] Setting up Layer of device :0 @cpu 0 Layer : inception_3a/5x5
I0331 18:47:46.140794 134812 layer_factory.hpp:114] Creating layer inception_3a/5x5
I0331 18:47:46.140801 134812 net.cpp:169] Creating Layer inception_3a/5x5
I0331 18:47:46.140805 134812 net.cpp:606] inception_3a/5x5 <- inception_3a/5x5_reduce
I0331 18:47:46.140813 134812 net.cpp:579] inception_3a/5x5 -> inception_3a/5x5
I0331 18:47:46.140817 134812 net.cpp:582] From AppendTop @cpu: 0
I0331 18:47:46.147703 134812 net.cpp:219] Setting up inception_3a/5x5
I0331 18:47:46.147716 134812 net.cpp:226] Top shape: 28 32 28 28 (702464)
I0331 18:47:46.147720 134812 net.cpp:234] Memory required for data: 629408192
I0331 18:47:46.147729 134812 net.cpp:154] Setting up Layer of device :0 @cpu 0 Layer : inception_3a/relu_5x5
I0331 18:47:46.147733 134812 layer_factory.hpp:114] Creating layer inception_3a/relu_5x5
I0331 18:47:46.147740 134812 net.cpp:169] Creating Layer inception_3a/relu_5x5
I0331 18:47:46.147744 134812 net.cpp:606] inception_3a/relu_5x5 <- inception_3a/5x5
I0331 18:47:46.147753 134812 net.cpp:566] inception_3a/relu_5x5 -> inception_3a/5x5 (in-place)
I0331 18:47:46.147760 134812 net.cpp:219] Setting up inception_3a/relu_5x5
I0331 18:47:46.147765 134812 net.cpp:226] Top shape: 28 32 28 28 (702464)
I0331 18:47:46.147769 134812 net.cpp:234] Memory required for data: 632218048
I0331 18:47:46.147773 134812 net.cpp:154] Setting up Layer of device :0 @cpu 0 Layer : inception_3a/pool
I0331 18:47:46.147778 134812 layer_factory.hpp:114] Creating layer inception_3a/pool
I0331 18:47:46.147811 134812 net.cpp:169] Creating Layer inception_3a/pool
I0331 18:47:46.147816 134812 net.cpp:606] inception_3a/pool <- pool2/3x3_s2_pool2/3x3_s2_0_split_3
I0331 18:47:46.147825 134812 net.cpp:579] inception_3a/pool -> inception_3a/pool
I0331 18:47:46.147828 134812 net.cpp:582] From AppendTop @cpu: 0
I0331 18:47:46.147840 134812 net.cpp:219] Setting up inception_3a/pool
I0331 18:47:46.147850 134812 net.cpp:226] Top shape: 28 192 28 28 (4214784)
I0331 18:47:46.147855 134812 net.cpp:234] Memory required for data: 649077184
I0331 18:47:46.147858 134812 net.cpp:154] Setting up Layer of device :0 @cpu 0 Layer : inception_3a/pool_proj
I0331 18:47:46.147862 134812 layer_factory.hpp:114] Creating layer inception_3a/pool_proj
I0331 18:47:46.147873 134812 net.cpp:169] Creating Layer inception_3a/pool_proj
I0331 18:47:46.147877 134812 net.cpp:606] inception_3a/pool_proj <- inception_3a/pool
I0331 18:47:46.147886 134812 net.cpp:579] inception_3a/pool_proj -> inception_3a/pool_proj
I0331 18:47:46.147891 134812 net.cpp:582] From AppendTop @cpu: 0
I0331 18:47:46.151401 134812 net.cpp:219] Setting up inception_3a/pool_proj
I0331 18:47:46.151412 134812 net.cpp:226] Top shape: 28 32 28 28 (702464)
I0331 18:47:46.151417 134812 net.cpp:234] Memory required for data: 651887040
I0331 18:47:46.151433 134812 net.cpp:154] Setting up Layer of device :0 @cpu 0 Layer : inception_3a/relu_pool_proj
I0331 18:47:46.151437 134812 layer_factory.hpp:114] Creating layer inception_3a/relu_pool_proj
I0331 18:47:46.151443 134812 net.cpp:169] Creating Layer inception_3a/relu_pool_proj
I0331 18:47:46.151448 134812 net.cpp:606] inception_3a/relu_pool_proj <- inception_3a/pool_proj
I0331 18:47:46.151453 134812 net.cpp:566] inception_3a/relu_pool_proj -> inception_3a/pool_proj (in-place)
I0331 18:47:46.151460 134812 net.cpp:219] Setting up inception_3a/relu_pool_proj
I0331 18:47:46.151465 134812 net.cpp:226] Top shape: 28 32 28 28 (702464)
I0331 18:47:46.151469 134812 net.cpp:234] Memory required for data: 654696896
I0331 18:47:46.151473 134812 net.cpp:154] Setting up Layer of device :0 @cpu 0 Layer : inception_3a/output
I0331 18:47:46.151477 134812 layer_factory.hpp:114] Creating layer inception_3a/output
I0331 18:47:46.151484 134812 net.cpp:169] Creating Layer inception_3a/output
I0331 18:47:46.151489 134812 net.cpp:606] inception_3a/output <- inception_3a/1x1
I0331 18:47:46.151495 134812 net.cpp:606] inception_3a/output <- inception_3a/3x3
I0331 18:47:46.151500 134812 net.cpp:606] inception_3a/output <- inception_3a/5x5
I0331 18:47:46.151505 134812 net.cpp:606] inception_3a/output <- inception_3a/pool_proj
I0331 18:47:46.151510 134812 net.cpp:579] inception_3a/output -> inception_3a/output
I0331 18:47:46.151515 134812 net.cpp:582] From AppendTop @cpu: 0
I0331 18:47:46.151531 134812 net.cpp:219] Setting up inception_3a/output
I0331 18:47:46.151536 134812 net.cpp:226] Top shape: 28 256 28 28 (5619712)
I0331 18:47:46.151540 134812 net.cpp:234] Memory required for data: 677175744
I0331 18:47:46.151554 134812 net.cpp:154] Setting up Layer of device :0 @cpu 0 Layer : inception_3a/output_inception_3a/output_0_split
I0331 18:47:46.151558 134812 layer_factory.hpp:114] Creating layer inception_3a/output_inception_3a/output_0_split
I0331 18:47:46.151569 134812 net.cpp:169] Creating Layer inception_3a/output_inception_3a/output_0_split
…
I0331 18:47:46.151594 134812 net.cpp:582] From AppendTop @cpu: 0
I0331 18:47:46.151600 134812 net.cpp:579] inception_3a/output_inception_3a/output_0_split -> inception_3a/output_inception_3a/output_0_split_2
I0331 18:47:46.151603 134812 net.cpp:582] From AppendTop @cpu: 0
I0331 18:47:46.151609 134812 net.cpp:579] inception_3a/output_inception_3a/output_0_split -> inception_3a/output_inception_3a/output_0_split_3
I0331 18:47:46.151613 134812 net.cpp:582] From AppendTop @cpu: 0
I0331 18:47:46.151626 134812 net.cpp:219] Setting up inception_3a/output_inception_3a/output_0_split
I0331 18:47:46.151634 134812 net.cpp:226] Top shape: 28 256 28 28 (5619712)
I0331 18:47:46.151643 134812 net.cpp:226] Top shape: 28 256 28 28 (5619712)
I0331 18:47:46.151648 134812 net.cpp:226] Top shape: 28 256 28 28 (5619712)
I0331 18:47:46.151653 134812 net.cpp:226] Top shape: 28 256 28 28 (5619712)
I0331 18:47:46.151655 134812 net.cpp:234] Memory required for data: 767091136
I0331 18:47:46.151660 134812 net.cpp:154] Setting up Layer of device :0 @cpu 0 Layer : inception_3b/1x1
I0331 18:47:46.151664 134812 layer_factory.hpp:114] Creating layer inception_3b/1x1
I0331 18:47:46.151676 134812 net.cpp:169] Creating Layer inception_3b/1x1
I0331 18:47:46.151680 134812 net.cpp:606] inception_3b/1x1 <- inception_3a/output_inception_3a/output_0_split_0
I0331 18:47:46.151690 134812 net.cpp:579] inception_3b/1x1 -> inception_3b/1x1
I0331 18:47:46.151693 134812 net.cpp:582] From AppendTop @cpu: 0
I0331 18:47:46.156867 134812 net.cpp:219] Setting up inception_3b/1x1
I0331 18:47:46.156878 134812 net.cpp:226] Top shape: 28 128 28 28 (2809856)
I0331 18:47:46.156882 134812 net.cpp:234] Memory required for data: 778330560
I0331 18:47:46.156890 134812 net.cpp:154] Setting up Layer of device :0 @cpu 0 Layer : inception_3b/relu_1x1
I0331 18:47:46.156894 134812 layer_factory.hpp:114] Creating layer inception_3b/relu_1x1
I0331 18:47:46.156904 134812 net.cpp:169] Creating Layer inception_3b/relu_1x1
I0331 18:47:46.156908 134812 net.cpp:606] inception_3b/relu_1x1 <- inception_3b/1x1
I0331 18:47:46.156914 134812 net.cpp:566] inception_3b/relu_1x1 -> inception_3b/1x1 (in-place)
I0331 18:47:46.156921 134812 net.cpp:219] Setting up inception_3b/relu_1x1
I0331 18:47:46.156926 134812 net.cpp:226] Top shape: 28 128 28 28 (2809856)
I0331 18:47:46.156929 134812 net.cpp:234] Memory required for data: 789569984
I0331 18:47:46.156934 134812 net.cpp:154] Setting up Layer of device :0 @cpu 0 Layer : inception_3b/3x3_reduce
I0331 18:47:46.156939 134812 layer_factory.hpp:114] Creating layer inception_3b/3x3_reduce
I0331 18:47:46.156949 134812 net.cpp:169] Creating Layer inception_3b/3x3_reduce
I0331 18:47:46.156955 134812 net.cpp:606] inception_3b/3x3_reduce <- inception_3a/output_inception_3a/output_0_split_1
I0331 18:47:46.156963 134812 net.cpp:579] inception_3b/3x3_reduce -> inception_3b/3x3_reduce
I0331 18:47:46.156966 134812 net.cpp:582] From AppendTop @cpu: 0
I0331 18:47:46.162679 134812 net.cpp:219] Setting up inception_3b/3x3_reduce
I0331 18:47:46.162691 134812 net.cpp:226] Top shape: 28 128 28 28 (2809856)
I0331 18:47:46.162695 134812 net.cpp:234] Memory required for data: 800809408
I0331 18:47:46.162704 134812 net.cpp:154] Setting up Layer of device :0 @cpu 0 Layer : inception_3b/relu_3x3_reduce
I0331 18:47:46.162720 134812 layer_factory.hpp:114] Creating layer inception_3b/relu_3x3_reduce
I0331 18:47:46.162726 134812 net.cpp:169] Creating Layer inception_3b/relu_3x3_reduce
I0331 18:47:46.162731 134812 net.cpp:606] inception_3b/relu_3x3_reduce <- inception_3b/3x3_reduce
I0331 18:47:46.162739 134812 net.cpp:566] inception_3b/relu_3x3_reduce -> inception_3b/3x3_reduce (in-place)
I0331 18:47:46.162746 134812 net.cpp:219] Setting up inception_3b/relu_3x3_reduce
I0331 18:47:46.162752 134812 net.cpp:226] Top shape: 28 128 28 28 (2809856)
I0331 18:47:46.162755 134812 net.cpp:234] Memory required for data: 812048832
I0331 18:47:46.162760 134812 net.cpp:154] Setting up Layer of device :0 @cpu 0 Layer : inception_3b/3x3
I0331 18:47:46.162765 134812 layer_factory.hpp:114] Creating layer inception_3b/3x3
I0331 18:47:46.162778 134812 net.cpp:169] Creating Layer inception_3b/3x3
I0331 18:47:46.162782 134812 net.cpp:606] inception_3b/3x3 <- inception_3b/3x3_reduce
I0331 18:47:46.162791 134812 net.cpp:579] inception_3b/3x3 -> inception_3b/3x3
I0331 18:47:46.162794 134812 net.cpp:582] From AppendTop @cpu: 0
I0331 18:47:46.186183 134812 net.cpp:219] Setting up inception_3b/3x3
I0331 18:47:46.186229 134812 net.cpp:226] Top shape: 28 192 28 28 (4214784)
I0331 18:47:46.186234 134812 net.cpp:234] Memory required for data: 828907968
I0331 18:47:46.186254 134812 net.cpp:154] Setting up Layer of device :0 @cpu 0 Layer : inception_3b/relu_3x3
I0331 18:47:46.186270 134812 layer_factory.hpp:114] Creating layer inception_3b/relu_3x3
I0331 18:47:46.186283 134812 net.cpp:169] Creating Layer inception_3b/relu_3x3
I0331 18:47:46.186292 134812 net.cpp:606] inception_3b/relu_3x3 <- inception_3b/3x3
I0331 18:47:46.186300 134812 net.cpp:566] inception_3b/relu_3x3 -> inception_3b/3x3 (in-place)
I0331 18:47:46.186314 134812 net.cpp:219] Setting up inception_3b/relu_3x3
I0331 18:47:46.186321 134812 net.cpp:226] Top shape: 28 192 28 28 (4214784)
I0331 18:47:46.186323 134812 net.cpp:234] Memory required for data: 845767104
I0331 18:47:46.186328 134812 net.cpp:154] Setting up Layer of device :0 @cpu 0 Layer : inception_3b/5x5_reduce
I0331 18:47:46.186332 134812 layer_factory.hpp:114] Creating layer inception_3b/5x5_reduce
I0331 18:47:46.186348 134812 net.cpp:169] Creating Layer inception_3b/5x5_reduce
I0331 18:47:46.186353 134812 net.cpp:606] inception_3b/5x5_reduce <- inception_3a/output_inception_3a/output_0_split_2
I0331 18:47:46.186364 134812 net.cpp:579] inception_3b/5x5_reduce -> inception_3b/5x5_reduce
I0331 18:47:46.186368 134812 net.cpp:582] From AppendTop @cpu: 0
I0331 18:47:46.191063 134812 net.cpp:219] Setting up inception_3b/5x5_reduce
I0331 18:47:46.191077 134812 net.cpp:226] Top shape: 28 32 28 28 (702464)
I0331 18:47:46.191082 134812 net.cpp:234] Memory required for data: 848576960
I0331 18:47:46.191090 134812 net.cpp:154] Setting up Layer of device :0 @cpu 0 Layer : inception_3b/relu_5x5_reduce
I0331 18:47:46.191094 134812 layer_factory.hpp:114] Creating layer inception_3b/relu_5x5_reduce
I0331 18:47:46.191100 134812 net.cpp:169] Creating Layer inception_3b/relu_5x5_reduce
I0331 18:47:46.191105 134812 net.cpp:606] inception_3b/relu_5x5_reduce <- inception_3b/5x5_reduce
I0331 18:47:46.191110 134812 net.cpp:566] inception_3b/relu_5x5_reduce -> inception_3b/5x5_reduce (in-place)
I0331 18:47:46.191118 134812 net.cpp:219] Setting up inception_3b/relu_5x5_reduce
I0331 18:47:46.191123 134812 net.cpp:226] Top shape: 28 32 28 28 (702464)
I0331 18:47:46.191125 134812 net.cpp:234] Memory required for data: 851386816
I0331 18:47:46.191130 134812 net.cpp:154] Setting up Layer of device :0 @cpu 0 Layer : inception_3b/5x5
I0331 18:47:46.191134 134812 layer_factory.hpp:114] Creating layer inception_3b/5x5
I0331 18:47:46.191144 134812 net.cpp:169] Creating Layer inception_3b/5x5
I0331 18:47:46.191149 134812 net.cpp:606] inception_3b/5x5 <- inception_3b/5x5_reduce
I0331 18:47:46.191157 134812 net.cpp:579] inception_3b/5x5 -> inception_3b/5x5
I0331 18:47:46.191161 134812 net.cpp:582] From AppendTop @cpu: 0
I0331 18:47:46.205469 134812 net.cpp:219] Setting up inception_3b/5x5
I0331 18:47:46.205505 134812 net.cpp:226] Top shape: 28 96 28 28 (2107392)
I0331 18:47:46.205509 134812 net.cpp:234] Memory required for data: 859816384
I0331 18:47:46.205523 134812 net.cpp:154] Setting up Layer of device :0 @cpu 0 Layer : inception_3b/relu_5x5
I0331 18:47:46.205528 134812 layer_factory.hpp:114] Creating layer inception_3b/relu_5x5
I0331 18:47:46.205538 134812 net.cpp:169] Creating Layer inception_3b/relu_5x5
I0331 18:47:46.205544 134812 net.cpp:606] inception_3b/relu_5x5 <- inception_3b/5x5
I0331 18:47:46.205555 134812 net.cpp:566] inception_3b/relu_5x5 -> inception_3b/5x5 (in-place)
I0331 18:47:46.205564 134812 net.cpp:219] Setting up inception_3b/relu_5x5
I0331 18:47:46.205570 134812 net.cpp:226] Top shape: 28 96 28 28 (2107392)
I0331 18:47:46.205574 134812 net.cpp:234] Memory required for data: 868245952
I0331 18:47:46.205579 134812 net.cpp:154] Setting up Layer of device :0 @cpu 0 Layer : inception_3b/pool
I0331 18:47:46.205584 134812 layer_factory.hpp:114] Creating layer inception_3b/pool
I0331 18:47:46.205618 134812 net.cpp:169] Creating Layer inception_3b/pool
I0331 18:47:46.205627 134812 net.cpp:606] inception_3b/pool <- inception_3a/output_inception_3a/output_0_split_3
I0331 18:47:46.205638 134812 net.cpp:579] inception_3b/pool -> inception_3b/pool
I0331 18:47:46.205643 134812 net.cpp:582] From AppendTop @cpu: 0
I0331 18:47:46.205656 134812 net.cpp:219] Setting up inception_3b/pool
I0331 18:47:46.205675 134812 net.cpp:226] Top shape: 28 256 28 28 (5619712)
I0331 18:47:46.205679 134812 net.cpp:234] Memory required for data: 890724800
I0331 18:47:46.205684 134812 net.cpp:154] Setting up Layer of device :0 @cpu 0 Layer : inception_3b/pool_proj
I0331 18:47:46.205688 134812 layer_factory.hpp:114] Creating layer inception_3b/pool_proj
I0331 18:47:46.205703 134812 net.cpp:169] Creating Layer inception_3b/pool_proj
I0331 18:47:46.205708 134812 net.cpp:606] inception_3b/pool_proj <- inception_3b/pool
I0331 18:47:46.205716 134812 net.cpp:579] inception_3b/pool_proj -> inception_3b/pool_proj
I0331 18:47:46.205719 134812 net.cpp:582] From AppendTop @cpu: 0
I0331 18:47:46.210196 134812 net.cpp:219] Setting up inception_3b/pool_proj
I0331 18:47:46.210209 134812 net.cpp:226] Top shape: 28 64 28 28 (1404928)
I0331 18:47:46.210213 134812 net.cpp:234] Memory required for data: 896344512
I0331 18:47:46.210222 134812 net.cpp:154] Setting up Layer of device :0 @cpu 0 Layer : inception_3b/relu_pool_proj
I0331 18:47:46.210227 134812 layer_factory.hpp:114] Creating layer inception_3b/relu_pool_proj
I0331 18:47:46.210232 134812 net.cpp:169] Creating Layer inception_3b/relu_pool_proj
I0331 18:47:46.210237 134812 net.cpp:606] inception_3b/relu_pool_proj <- inception_3b/pool_proj
I0331 18:47:46.210242 134812 net.cpp:566] inception_3b/relu_pool_proj -> inception_3b/pool_proj (in-place)
I0331 18:47:46.210249 134812 net.cpp:219] Setting up inception_3b/relu_pool_proj
I0331 18:47:46.210254 134812 net.cpp:226] Top shape: 28 64 28 28 (1404928)
I0331 18:47:46.210258 134812 net.cpp:234] Memory required for data: 901964224
I0331 18:47:46.210263 134812 net.cpp:154] Setting up Layer of device :0 @cpu 0 Layer : inception_3b/output
I0331 18:47:46.210268 134812 layer_factory.hpp:114] Creating layer inception_3b/output
I0331 18:47:46.210274 134812 net.cpp:169] Creating Layer inception_3b/output
I0331 18:47:46.210279 134812 net.cpp:606] inception_3b/output <- inception_3b/1x1
I0331 18:47:46.210285 134812 net.cpp:606] inception_3b/output <- inception_3b/3x3
I0331 18:47:46.210291 134812 net.cpp:606] inception_3b/output <- inception_3b/5x5
I0331 18:47:46.210295 134812 net.cpp:606] inception_3b/output <- inception_3b/pool_proj
I0331 18:47:46.210304 134812 net.cpp:579] inception_3b/output -> inception_3b/output
I0331 18:47:46.210307 134812 net.cpp:582] From AppendTop @cpu: 0
I0331 18:47:46.210317 134812 net.cpp:219] Setting up inception_3b/output
I0331 18:47:46.210324 134812 net.cpp:226] Top shape: 28 480 28 28 (10536960)
I0331 18:47:46.210326 134812 net.cpp:234] Memory required for data: 944112064
I0331 18:47:46.210350 134812 net.cpp:154] Setting up Layer of device :0 @cpu 0 Layer : pool3/3x3_s2
I0331 18:47:46.210355 134812 layer_factory.hpp:114] Creating layer pool3/3x3_s2
I0331 18:47:46.210377 134812 net.cpp:169] Creating Layer pool3/3x3_s2
I0331 18:47:46.210382 134812 net.cpp:606] pool3/3x3_s2 <- inception_3b/output
I0331 18:47:46.210388 134812 net.cpp:579] pool3/3x3_s2 -> pool3/3x3_s2
I0331 18:47:46.210392 134812 net.cpp:582] From AppendTop @cpu: 0
I0331 18:47:46.210402 134812 net.cpp:219] Setting up pool3/3x3_s2
I0331 18:47:46.210407 134812 net.cpp:226] Top shape: 28 480 14 14 (2634240)
I0331 18:47:46.210410 134812 net.cpp:234] Memory required for data: 954649024
I0331 18:47:46.210415 134812 net.cpp:154] Setting up Layer of device :0 @cpu 0 Layer : pool3/3x3_s2_pool3/3x3_s2_0_split
I0331 18:47:46.210419 134812 layer_factory.hpp:114] Creating layer pool3/3x3_s2_pool3/3x3_s2_0_split
I0331 18:47:46.210429 134812 net.cpp:169] Creating Layer pool3/3x3_s2_pool3/3x3_s2_0_split
I0331 18:47:46.210433 134812 net.cpp:606] pool3/3x3_s2_pool3/3x3_s2_0_split <- pool3/3x3_s2
I0331 18:47:46.210439 134812 net.cpp:579] pool3/3x3_s2_pool3/3x3_s2_0_split -> pool3/3x3_s2_pool3/3x3_s2_0_split_0
I0331 18:47:46.210443 134812 net.cpp:582] From AppendTop @cpu: 0
I0331 18:47:46.210449 134812 net.cpp:579] pool3/3x3_s2_pool3/3x3_s2_0_split -> pool3/3x3_s2_pool3/3x3_s2_0_split_1
I0331 18:47:46.210453 134812 net.cpp:582] From AppendTop @cpu: 0
I0331 18:47:46.210461 134812 net.cpp:579] pool3/3x3_s2_pool3/3x3_s2_0_split -> pool3/3x3_s2_pool3/3x3_s2_0_split_2
I0331 18:47:46.210469 134812 net.cpp:582] From AppendTop @cpu: 0
I0331 18:47:46.210474 134812 net.cpp:579] pool3/3x3_s2_pool3/3x3_s2_0_split -> pool3/3x3_s2_pool3/3x3_s2_0_split_3
I0331 18:47:46.210479 134812 net.cpp:582] From AppendTop @cpu: 0
I0331 18:47:46.210485 134812 net.cpp:219] Setting up pool3/3x3_s2_pool3/3x3_s2_0_split
I0331 18:47:46.210490 134812 net.cpp:226] Top shape: 28 480 14 14 (2634240)
I0331 18:47:46.210495 134812 net.cpp:226] Top shape: 28 480 14 14 (2634240)
I0331 18:47:46.210500 134812 net.cpp:226] Top shape: 28 480 14 14 (2634240)
I0331 18:47:46.210505 134812 net.cpp:226] Top shape: 28 480 14 14 (2634240)
I0331 18:47:46.210508 134812 net.cpp:234] Memory required for data: 996796864
I0331 18:47:46.210512 134812 net.cpp:154] Setting up Layer of device :0 @cpu 0 Layer : inception_4a/1x1
I0331 18:47:46.210516 134812 layer_factory.hpp:114] Creating layer inception_4a/1x1
I0331 18:47:46.210527 134812 net.cpp:169] Creating Layer inception_4a/1x1
I0331 18:47:46.210531 134812 net.cpp:606] inception_4a/1x1 <- pool3/3x3_s2_pool3/3x3_s2_0_split_0
I0331 18:47:46.210541 134812 net.cpp:579] inception_4a/1x1 -> inception_4a/1x1
I0331 18:47:46.210544 134812 net.cpp:582] From AppendTop @cpu: 0
I0331 18:47:46.215925 134812 net.cpp:219] Setting up inception_4a/1x1
I0331 18:47:46.215937 134812 net.cpp:226] Top shape: 28 192 14 14 (1053696)
I0331 18:47:46.215941 134812 net.cpp:234] Memory required for data: 1001011648
I0331 18:47:46.215950 134812 net.cpp:154] Setting up Layer of device :0 @cpu 0 Layer : inception_4a/relu_1x1
I0331 18:47:46.215955 134812 layer_factory.hpp:114] Creating layer inception_4a/relu_1x1
I0331 18:47:46.215962 134812 net.cpp:169] Creating Layer inception_4a/relu_1x1
I0331 18:47:46.215967 134812 net.cpp:606] inception_4a/relu_1x1 <- inception_4a/1x1
I0331 18:47:46.215972 134812 net.cpp:566] inception_4a/relu_1x1 -> inception_4a/1x1 (in-place)
I0331 18:47:46.215981 134812 net.cpp:219] Setting up inception_4a/relu_1x1
I0331 18:47:46.215986 134812 net.cpp:226] Top shape: 28 192 14 14 (1053696)
I0331 18:47:46.215991 134812 net.cpp:234] Memory required for data: 1005226432
I0331 18:47:46.215996 134812 net.cpp:154] Setting up Layer of device :0 @cpu 0 Layer : inception_4a/3x3_reduce
I0331 18:47:46.215999 134812 layer_factory.hpp:114] Creating layer inception_4a/3x3_reduce
I0331 18:47:46.216007 134812 net.cpp:169] Creating Layer inception_4a/3x3_reduce
I0331 18:47:46.216012 134812 net.cpp:606] inception_4a/3x3_reduce <- pool3/3x3_s2_pool3/3x3_s2_0_split_1
I0331 18:47:46.216028 134812 net.cpp:579] inception_4a/3x3_reduce -> inception_4a/3x3_reduce
I0331 18:47:46.216032 134812 net.cpp:582] From AppendTop @cpu: 0
I0331 18:47:46.219936 134812 net.cpp:219] Setting up inception_4a/3x3_reduce
I0331 18:47:46.219947 134812 net.cpp:226] Top shape: 28 96 14 14 (526848)
I0331 18:47:46.219951 134812 net.cpp:234] Memory required for data: 1007333824
I0331 18:47:46.219969 134812 net.cpp:154] Setting up Layer of device :0 @cpu 0 Layer : inception_4a/relu_3x3_reduce
I0331 18:47:46.219974 134812 layer_factory.hpp:114] Creating layer inception_4a/relu_3x3_reduce
I0331 18:47:46.219980 134812 net.cpp:169] Creating Layer inception_4a/relu_3x3_reduce
I0331 18:47:46.219985 134812 net.cpp:606] inception_4a/relu_3x3_reduce <- inception_4a/3x3_reduce
I0331 18:47:46.219992 134812 net.cpp:566] inception_4a/relu_3x3_reduce -> inception_4a/3x3_reduce (in-place)
I0331 18:47:46.220000 134812 net.cpp:219] Setting up inception_4a/relu_3x3_reduce
I0331 18:47:46.220005 134812 net.cpp:226] Top shape: 28 96 14 14 (526848)
I0331 18:47:46.220008 134812 net.cpp:234] Memory required for data: 1009441216
I0331 18:47:46.220012 134812 net.cpp:154] Setting up Layer of device :0 @cpu 0 Layer : inception_4a/3x3
I0331 18:47:46.220016 134812 layer_factory.hpp:114] Creating layer inception_4a/3x3
I0331 18:47:46.220024 134812 net.cpp:169] Creating Layer inception_4a/3x3
I0331 18:47:46.220028 134812 net.cpp:606] inception_4a/3x3 <- inception_4a/3x3_reduce
I0331 18:47:46.220036 134812 net.cpp:579] inception_4a/3x3 -> inception_4a/3x3
I0331 18:47:46.220043 134812 net.cpp:582] From AppendTop @cpu: 0
I0331 18:47:46.229331 134812 net.cpp:219] Setting up inception_4a/3x3
I0331 18:47:46.229344 134812 net.cpp:226] Top shape: 28 208 14 14 (1141504)
I0331 18:47:46.229347 134812 net.cpp:234] Memory required for data: 1014007232
I0331 18:47:46.229357 134812 net.cpp:154] Setting up Layer of device :0 @cpu 0 Layer : inception_4a/relu_3x3
I0331 18:47:46.229362 134812 layer_factory.hpp:114] Creating layer inception_4a/relu_3x3
I0331 18:47:46.229368 134812 net.cpp:169] Creating Layer inception_4a/relu_3x3
I0331 18:47:46.229372 134812 net.cpp:606] inception_4a/relu_3x3 <- inception_4a/3x3
I0331 18:47:46.229378 134812 net.cpp:566] inception_4a/relu_3x3 -> inception_4a/3x3 (in-place)
I0331 18:47:46.229385 134812 net.cpp:219] Setting up inception_4a/relu_3x3
I0331 18:47:46.229392 134812 net.cpp:226] Top shape: 28 208 14 14 (1141504)
I0331 18:47:46.229394 134812 net.cpp:234] Memory required for data: 1018573248
I0331 18:47:46.229399 134812 net.cpp:154] Setting up Layer of device :0 @cpu 0 Layer : inception_4a/5x5_reduce
I0331 18:47:46.229403 134812 layer_factory.hpp:114] Creating layer inception_4a/5x5_reduce
I0331 18:47:46.229414 134812 net.cpp:169] Creating Layer inception_4a/5x5_reduce
I0331 18:47:46.229421 134812 net.cpp:606] inception_4a/5x5_reduce <- pool3/3x3_s2_pool3/3x3_s2_0_split_2
I0331 18:47:46.229429 134812 net.cpp:579] inception_4a/5x5_reduce -> inception_4a/5x5_reduce
I0331 18:47:46.229431 134812 net.cpp:582] From AppendTop @cpu: 0
I0331 18:47:46.231714 134812 net.cpp:219] Setting up inception_4a/5x5_reduce
I0331 18:47:46.231724 134812 net.cpp:226] Top shape: 28 16 14 14 (87808)
I0331 18:47:46.231727 134812 net.cpp:234] Memory required for data: 1018924480
I0331 18:47:46.231736 134812 net.cpp:154] Setting up Layer of device :0 @cpu 0 Layer : inception_4a/relu_5x5_reduce
I0331 18:47:46.231740 134812 layer_factory.hpp:114] Creating layer inception_4a/relu_5x5_reduce
I0331 18:47:46.231746 134812 net.cpp:169] Creating Layer inception_4a/relu_5x5_reduce
I0331 18:47:46.231751 134812 net.cpp:606] inception_4a/relu_5x5_reduce <- inception_4a/5x5_reduce
I0331 18:47:46.231756 134812 net.cpp:566] inception_4a/relu_5x5_reduce -> inception_4a/5x5_reduce (in-place)
I0331 18:47:46.231763 134812 net.cpp:219] Setting up inception_4a/relu_5x5_reduce
I0331 18:47:46.231768 134812 net.cpp:226] Top shape: 28 16 14 14 (87808)
I0331 18:47:46.231771 134812 net.cpp:234] Memory required for data: 1019275712
I0331 18:47:46.231788 134812 net.cpp:154] Setting up Layer of device :0 @cpu 0 Layer : inception_4a/5x5
I0331 18:47:46.231792 134812 layer_factory.hpp:114] Creating layer inception_4a/5x5
I0331 18:47:46.231802 134812 net.cpp:169] Creating Layer inception_4a/5x5
I0331 18:47:46.231806 134812 net.cpp:606] inception_4a/5x5 <- inception_4a/5x5_reduce
I0331 18:47:46.231815 134812 net.cpp:579] inception_4a/5x5 -> inception_4a/5x5
I0331 18:47:46.231819 134812 net.cpp:582] From AppendTop @cpu: 0
I0331 18:47:46.234627 134812 net.cpp:219] Setting up inception_4a/5x5
I0331 18:47:46.234637 134812 net.cpp:226] Top shape: 28 48 14 14 (263424)
I0331 18:47:46.234642 134812 net.cpp:234] Memory required for data: 1020329408
I0331 18:47:46.234649 134812 net.cpp:154] Setting up Layer of device :0 @cpu 0 Layer : inception_4a/relu_5x5
I0331 18:47:46.234653 134812 layer_factory.hpp:114] Creating layer inception_4a/relu_5x5
I0331 18:47:46.234659 134812 net.cpp:169] Creating Layer inception_4a/relu_5x5
I0331 18:47:46.234663 134812 net.cpp:606] inception_4a/relu_5x5 <- inception_4a/5x5
I0331 18:47:46.234671 134812 net.cpp:566] inception_4a/relu_5x5 -> inception_4a/5x5 (in-place)
I0331 18:47:46.234678 134812 net.cpp:219] Setting up inception_4a/relu_5x5
I0331 18:47:46.234683 134812 net.cpp:226] Top shape: 28 48 14 14 (263424)
I0331 18:47:46.234686 134812 net.cpp:234] Memory required for data: 1021383104
I0331 18:47:46.234691 134812 net.cpp:154] Setting up Layer of device :0 @cpu 0 Layer : inception_4a/pool
I0331 18:47:46.234695 134812 layer_factory.hpp:114] Creating layer inception_4a/pool
I0331 18:47:46.234730 134812 net.cpp:169] Creating Layer inception_4a/pool
I0331 18:47:46.234735 134812 net.cpp:606] inception_4a/pool <- pool3/3x3_s2_pool3/3x3_s2_0_split_3
I0331 18:47:46.234743 134812 net.cpp:579] inception_4a/pool -> inception_4a/pool
I0331 18:47:46.234747 134812 net.cpp:582] From AppendTop @cpu: 0
I0331 18:47:46.234757 134812 net.cpp:219] Setting up inception_4a/pool
I0331 18:47:46.234763 134812 net.cpp:226] Top shape: 28 480 14 14 (2634240)
I0331 18:47:46.234766 134812 net.cpp:234] Memory required for data: 1031920064
I0331 18:47:46.234771 134812 net.cpp:154] Setting up Layer of device :0 @cpu 0 Layer : inception_4a/pool_proj
I0331 18:47:46.234776 134812 layer_factory.hpp:114] Creating layer inception_4a/pool_proj
I0331 18:47:46.234786 134812 net.cpp:169] Creating Layer inception_4a/pool_proj
I0331 18:47:46.234791 134812 net.cpp:606] inception_4a/pool_proj <- inception_4a/pool
I0331 18:47:46.234798 134812 net.cpp:579] inception_4a/pool_proj -> inception_4a/pool_proj
I0331 18:47:46.234802 134812 net.cpp:582] From AppendTop @cpu: 0
I0331 18:47:46.238586 134812 net.cpp:219] Setting up inception_4a/pool_proj
I0331 18:47:46.238597 134812 net.cpp:226] Top shape: 28 64 14 14 (351232)
I0331 18:47:46.238600 134812 net.cpp:234] Memory required for data: 1033324992
I0331 18:47:46.238610 134812 net.cpp:154] Setting up Layer of device :0 @cpu 0 Layer : inception_4a/relu_pool_proj
I0331 18:47:46.238613 134812 layer_factory.hpp:114] Creating layer inception_4a/relu_pool_proj
I0331 18:47:46.238620 134812 net.cpp:169] Creating Layer inception_4a/relu_pool_proj
I0331 18:47:46.238628 134812 net.cpp:606] inception_4a/relu_pool_proj <- inception_4a/pool_proj
I0331 18:47:46.238642 134812 net.cpp:566] inception_4a/relu_pool_proj -> inception_4a/pool_proj (in-place)
I0331 18:47:46.238649 134812 net.cpp:219] Setting up inception_4a/relu_pool_proj
I0331 18:47:46.238656 134812 net.cpp:226] Top shape: 28 64 14 14 (351232)
I0331 18:47:46.238658 134812 net.cpp:234] Memory required for data: 1034729920
I0331 18:47:46.238663 134812 net.cpp:154] Setting up Layer of device :0 @cpu 0 Layer : inception_4a/output
I0331 18:47:46.238667 134812 layer_factory.hpp:114] Creating layer inception_4a/output
I0331 18:47:46.238677 134812 net.cpp:169] Creating Layer inception_4a/output
I0331 18:47:46.238682 134812 net.cpp:606] inception_4a/output <- inception_4a/1x1
I0331 18:47:46.238687 134812 net.cpp:606] inception_4a/output <- inception_4a/3x3
I0331 18:47:46.238692 134812 net.cpp:606] inception_4a/output <- inception_4a/5x5
I0331 18:47:46.238704 134812 net.cpp:606] inception_4a/output <- inception_4a/pool_proj
I0331 18:47:46.238710 134812 net.cpp:579] inception_4a/output -> inception_4a/output
I0331 18:47:46.238714 134812 net.cpp:582] From AppendTop @cpu: 0
I0331 18:47:46.238724 134812 net.cpp:219] Setting up inception_4a/output
I0331 18:47:46.238730 134812 net.cpp:226] Top shape: 28 512 14 14 (2809856)
I0331 18:47:46.238734 134812 net.cpp:234] Memory required for data: 1045969344
I0331 18:47:46.238739 134812 net.cpp:154] Setting up Layer of device :0 @cpu 0 Layer : inception_4a/output_inception_4a/output_0_split
I0331 18:47:46.238742 134812 layer_factory.hpp:114] Creating layer inception_4a/output_inception_4a/output_0_split
I0331 18:47:46.238751 134812 net.cpp:169] Creating Layer inception_4a/output_inception_4a/output_0_split
…
I0331 18:47:46.238795 134812 net.cpp:582] From AppendTop @cpu: 0
I0331 18:47:46.238801 134812 net.cpp:579] inception_4a/output_inception_4a/output_0_split -> inception_4a/output_inception_4a/output_0_split_3
I0331 18:47:46.238804 134812 net.cpp:582] From AppendTop @cpu: 0
I0331 18:47:46.238811 134812 net.cpp:579] inception_4a/output_inception_4a/output_0_split -> inception_4a/output_inception_4a/output_0_split_4
I0331 18:47:46.238816 134812 net.cpp:582] From AppendTop @cpu: 0
I0331 18:47:46.238826 134812 net.cpp:219] Setting up inception_4a/output_inception_4a/output_0_split
I0331 18:47:46.238831 134812 net.cpp:226] Top shape: 28 512 14 14 (2809856)
I0331 18:47:46.238836 134812 net.cpp:226] Top shape: 28 512 14 14 (2809856)
I0331 18:47:46.238840 134812 net.cpp:226] Top shape: 28 512 14 14 (2809856)
I0331 18:47:46.238844 134812 net.cpp:226] Top shape: 28 512 14 14 (2809856)
I0331 18:47:46.238849 134812 net.cpp:226] Top shape: 28 512 14 14 (2809856)
I0331 18:47:46.238852 134812 net.cpp:234] Memory required for data: 1102166464
I0331 18:47:46.238857 134812 net.cpp:154] Setting up Layer of device :0 @cpu 0 Layer : loss1/ave_pool
I0331 18:47:46.238860 134812 layer_factory.hpp:114] Creating layer loss1/ave_pool
I0331 18:47:46.238880 134812 net.cpp:169] Creating Layer loss1/ave_pool
I0331 18:47:46.238884 134812 net.cpp:606] loss1/ave_pool <- inception_4a/output_inception_4a/output_0_split_0
I0331 18:47:46.238893 134812 net.cpp:579] loss1/ave_pool -> loss1/ave_pool
I0331 18:47:46.238896 134812 net.cpp:582] From AppendTop @cpu: 0
I0331 18:47:46.238903 134812 net.cpp:219] Setting up loss1/ave_pool
I0331 18:47:46.238909 134812 net.cpp:226] Top shape: 28 512 4 4 (229376)
I0331 18:47:46.238912 134812 net.cpp:234] Memory required for data: 1103083968
I0331 18:47:46.238917 134812 net.cpp:154] Setting up Layer of device :0 @cpu 0 Layer : loss1/conv
I0331 18:47:46.238921 134812 layer_factory.hpp:114] Creating layer loss1/conv
I0331 18:47:46.238934 134812 net.cpp:169] Creating Layer loss1/conv
I0331 18:47:46.238937 134812 net.cpp:606] loss1/conv <- loss1/ave_pool
I0331 18:47:46.238946 134812 net.cpp:579] loss1/conv -> loss1/conv
I0331 18:47:46.238950 134812 net.cpp:582] From AppendTop @cpu: 0
I0331 18:47:46.241473 134812 net.cpp:219] Setting up loss1/conv
I0331 18:47:46.241484 134812 net.cpp:226] Top shape: 28 128 4 4 (57344)
I0331 18:47:46.241488 134812 net.cpp:234] Memory required for data: 1103313344
I0331 18:47:46.241497 134812 net.cpp:154] Setting up Layer of device :0 @cpu 0 Layer : loss1/relu_conv
I0331 18:47:46.241502 134812 layer_factory.hpp:114] Creating layer loss1/relu_conv
I0331 18:47:46.241519 134812 net.cpp:169] Creating Layer loss1/relu_conv
I0331 18:47:46.241523 134812 net.cpp:606] loss1/relu_conv <- loss1/conv
I0331 18:47:46.241529 134812 net.cpp:566] loss1/relu_conv -> loss1/conv (in-place)
I0331 18:47:46.241536 134812 net.cpp:219] Setting up loss1/relu_conv
I0331 18:47:46.241541 134812 net.cpp:226] Top shape: 28 128 4 4 (57344)
I0331 18:47:46.241545 134812 net.cpp:234] Memory required for data: 1103542720
I0331 18:47:46.241550 134812 net.cpp:154] Setting up Layer of device :0 @cpu 0 Layer : loss1/fc
I0331 18:47:46.241554 134812 layer_factory.hpp:114] Creating layer loss1/fc
I0331 18:47:46.241566 134812 net.cpp:169] Creating Layer loss1/fc
I0331 18:47:46.241570 134812 net.cpp:606] loss1/fc <- loss1/conv
I0331 18:47:46.241578 134812 net.cpp:579] loss1/fc -> loss1/fc
I0331 18:47:46.241582 134812 net.cpp:582] From AppendTop @cpu: 0
I0331 18:47:46.261473 134812 net.cpp:219] Setting up loss1/fc
I0331 18:47:46.261484 134812 net.cpp:226] Top shape: 28 1024 (28672)
I0331 18:47:46.261488 134812 net.cpp:234] Memory required for data: 1103657408
I0331 18:47:46.261497 134812 net.cpp:154] Setting up Layer of device :0 @cpu 0 Layer : loss1/relu_fc
I0331 18:47:46.261500 134812 layer_factory.hpp:114] Creating layer loss1/relu_fc
I0331 18:47:46.261507 134812 net.cpp:169] Creating Layer loss1/relu_fc
I0331 18:47:46.261512 134812 net.cpp:606] loss1/relu_fc <- loss1/fc
I0331 18:47:46.261519 134812 net.cpp:566] loss1/relu_fc -> loss1/fc (in-place)
I0331 18:47:46.261530 134812 net.cpp:219] Setting up loss1/relu_fc
I0331 18:47:46.261535 134812 net.cpp:226] Top shape: 28 1024 (28672)
I0331 18:47:46.261538 134812 net.cpp:234] Memory required for data: 1103772096
I0331 18:47:46.261543 134812 net.cpp:154] Setting up Layer of device :0 @cpu 0 Layer : loss1/drop_fc
I0331 18:47:46.261548 134812 layer_factory.hpp:114] Creating layer loss1/drop_fc
I0331 18:47:46.261561 134812 net.cpp:169] Creating Layer loss1/drop_fc
I0331 18:47:46.261566 134812 net.cpp:606] loss1/drop_fc <- loss1/fc
I0331 18:47:46.261571 134812 net.cpp:566] loss1/drop_fc -> loss1/fc (in-place)
I0331 18:47:46.261584 134812 net.cpp:219] Setting up loss1/drop_fc
I0331 18:47:46.261590 134812 net.cpp:226] Top shape: 28 1024 (28672)
I0331 18:47:46.261593 134812 net.cpp:234] Memory required for data: 1103886784
I0331 18:47:46.261598 134812 net.cpp:154] Setting up Layer of device :0 @cpu 0 Layer : loss1/classifier
I0331 18:47:46.261601 134812 layer_factory.hpp:114] Creating layer loss1/classifier
I0331 18:47:46.261612 134812 net.cpp:169] Creating Layer loss1/classifier
I0331 18:47:46.261616 134812 net.cpp:606] loss1/classifier <- loss1/fc
I0331 18:47:46.261626 134812 net.cpp:579] loss1/classifier -> loss1/classifier
I0331 18:47:46.261632 134812 net.cpp:582] From AppendTop @cpu: 0
I0331 18:47:46.271595 134812 net.cpp:219] Setting up loss1/classifier
I0331 18:47:46.271605 134812 net.cpp:226] Top shape: 28 1000 (28000)
I0331 18:47:46.271607 134812 net.cpp:234] Memory required for data: 1103998784
I0331 18:47:46.271616 134812 net.cpp:154] Setting up Layer of device :0 @cpu 0 Layer : loss1/loss
I0331 18:47:46.271620 134812 layer_factory.hpp:114] Creating layer loss1/loss
I0331 18:47:46.271631 134812 net.cpp:169] Creating Layer loss1/loss
I0331 18:47:46.271636 134812 net.cpp:606] loss1/loss <- loss1/classifier
…
I0331 18:47:46.271838 134812 net.cpp:154] Setting up Layer of device :0 @cpu 0 Layer : inception_4b/1x1
I0331 18:47:46.271842 134812 layer_factory.hpp:114] Creating layer inception_4b/1x1
I0331 18:47:46.271870 134812 net.cpp:169] Creating Layer inception_4b/1x1
I0331 18:47:46.271875 134812 net.cpp:606] inception_4b/1x1 <- inception_4a/output_inception_4a/output_0_split_1
I0331 18:47:46.271883 134812 net.cpp:579] inception_4b/1x1 -> inception_4b/1x1
I0331 18:47:46.271888 134812 net.cpp:582] From AppendTop @cpu: 0
I0331 18:47:46.277011 134812 net.cpp:219] Setting up inception_4b/1x1
I0331 18:47:46.277024 134812 net.cpp:226] Top shape: 28 160 14 14 (878080)
I0331 18:47:46.277027 134812 net.cpp:234] Memory required for data: 1107511108
I0331 18:47:46.277036 134812 net.cpp:154] Setting up Layer of device :0 @cpu 0 Layer : inception_4b/relu_1x1
I0331 18:47:46.277040 134812 layer_factory.hpp:114] Creating layer inception_4b/relu_1x1
I0331 18:47:46.277047 134812 net.cpp:169] Creating Layer inception_4b/relu_1x1
I0331 18:47:46.277051 134812 net.cpp:606] inception_4b/relu_1x1 <- inception_4b/1x1
I0331 18:47:46.277057 134812 net.cpp:566] inception_4b/relu_1x1 -> inception_4b/1x1 (in-place)
I0331 18:47:46.277065 134812 net.cpp:219] Setting up inception_4b/relu_1x1
I0331 18:47:46.277070 134812 net.cpp:226] Top shape: 28 160 14 14 (878080)
I0331 18:47:46.277073 134812 net.cpp:234] Memory required for data: 1111023428
I0331 18:47:46.277077 134812 net.cpp:154] Setting up Layer of device :0 @cpu 0 Layer : inception_4b/3x3_reduce
I0331 18:47:46.277081 134812 layer_factory.hpp:114] Creating layer inception_4b/3x3_reduce
I0331 18:47:46.277092 134812 net.cpp:169] Creating Layer inception_4b/3x3_reduce
I0331 18:47:46.277103 134812 net.cpp:606] inception_4b/3x3_reduce <- inception_4a/output_inception_4a/output_0_split_2
I0331 18:47:46.277110 134812 net.cpp:579] inception_4b/3x3_reduce -> inception_4b/3x3_reduce
I0331 18:47:46.277114 134812 net.cpp:582] From AppendTop @cpu: 0
I0331 18:47:46.281710 134812 net.cpp:219] Setting up inception_4b/3x3_reduce
I0331 18:47:46.281721 134812 net.cpp:226] Top shape: 28 112 14 14 (614656)
I0331 18:47:46.281725 134812 net.cpp:234] Memory required for data: 1113482052
I0331 18:47:46.281734 134812 net.cpp:154] Setting up Layer of device :0 @cpu 0 Layer : inception_4b/relu_3x3_reduce
I0331 18:47:46.281738 134812 layer_factory.hpp:114] Creating layer inception_4b/relu_3x3_reduce
I0331 18:47:46.281746 134812 net.cpp:169] Creating Layer inception_4b/relu_3x3_reduce
I0331 18:47:46.281751 134812 net.cpp:606] inception_4b/relu_3x3_reduce <- inception_4b/3x3_reduce
I0331 18:47:46.281759 134812 net.cpp:566] inception_4b/relu_3x3_reduce -> inception_4b/3x3_reduce (in-place)
I0331 18:47:46.281765 134812 net.cpp:219] Setting up inception_4b/relu_3x3_reduce
I0331 18:47:46.281771 134812 net.cpp:226] Top shape: 28 112 14 14 (614656)
I0331 18:47:46.281774 134812 net.cpp:234] Memory required for data: 1115940676
I0331 18:47:46.281779 134812 net.cpp:154] Setting up Layer of device :0 @cpu 0 Layer : inception_4b/3x3
I0331 18:47:46.281782 134812 layer_factory.hpp:114] Creating layer inception_4b/3x3
I0331 18:47:46.281791 134812 net.cpp:169] Creating Layer inception_4b/3x3
I0331 18:47:46.281795 134812 net.cpp:606] inception_4b/3x3 <- inception_4b/3x3_reduce
I0331 18:47:46.281803 134812 net.cpp:579] inception_4b/3x3 -> inception_4b/3x3
I0331 18:47:46.281806 134812 net.cpp:582] From AppendTop @cpu: 0
I0331 18:47:46.292369 134812 net.cpp:219] Setting up inception_4b/3x3
I0331 18:47:46.292384 134812 net.cpp:226] Top shape: 28 224 14 14 (1229312)
I0331 18:47:46.292388 134812 net.cpp:234] Memory required for data: 1120857924
I0331 18:47:46.292397 134812 net.cpp:154] Setting up Layer of device :0 @cpu 0 Layer : inception_4b/relu_3x3
I0331 18:47:46.292402 134812 layer_factory.hpp:114] Creating layer inception_4b/relu_3x3
I0331 18:47:46.292409 134812 net.cpp:169] Creating Layer inception_4b/relu_3x3
I0331 18:47:46.292414 134812 net.cpp:606] inception_4b/relu_3x3 <- inception_4b/3x3
I0331 18:47:46.292423 134812 net.cpp:566] inception_4b/relu_3x3 -> inception_4b/3x3 (in-place)
I0331 18:47:46.292431 134812 net.cpp:219] Setting up inception_4b/relu_3x3
I0331 18:47:46.292436 134812 net.cpp:226] Top shape: 28 224 14 14 (1229312)
I0331 18:47:46.292454 134812 net.cpp:234] Memory required for data: 1125775172
I0331 18:47:46.292459 134812 net.cpp:154] Setting up Layer of device :0 @cpu 0 Layer : inception_4b/5x5_reduce
I0331 18:47:46.292464 134812 layer_factory.hpp:114] Creating layer inception_4b/5x5_reduce
I0331 18:47:46.292474 134812 net.cpp:169] Creating Layer inception_4b/5x5_reduce
I0331 18:47:46.292479 134812 net.cpp:606] inception_4b/5x5_reduce <- inception_4a/output_inception_4a/output_0_split_3
I0331 18:47:46.292486 134812 net.cpp:579] inception_4b/5x5_reduce -> inception_4b/5x5_reduce
I0331 18:47:46.292490 134812 net.cpp:582] From AppendTop @cpu: 0
I0331 18:47:46.295702 134812 net.cpp:219] Setting up inception_4b/5x5_reduce
I0331 18:47:46.295713 134812 net.cpp:226] Top shape: 28 24 14 14 (131712)
I0331 18:47:46.295717 134812 net.cpp:234] Memory required for data: 1126302020
I0331 18:47:46.295727 134812 net.cpp:154] Setting up Layer of device :0 @cpu 0 Layer : inception_4b/relu_5x5_reduce
I0331 18:47:46.295730 134812 layer_factory.hpp:114] Creating layer inception_4b/relu_5x5_reduce
I0331 18:47:46.295737 134812 net.cpp:169] Creating Layer inception_4b/relu_5x5_reduce
I0331 18:47:46.295742 134812 net.cpp:606] inception_4b/relu_5x5_reduce <- inception_4b/5x5_reduce
I0331 18:47:46.295749 134812 net.cpp:566] inception_4b/relu_5x5_reduce -> inception_4b/5x5_reduce (in-place)
I0331 18:47:46.295756 134812 net.cpp:219] Setting up inception_4b/relu_5x5_reduce
I0331 18:47:46.295761 134812 net.cpp:226] Top shape: 28 24 14 14 (131712)
I0331 18:47:46.295769 134812 net.cpp:234] Memory required for data: 1126828868
I0331 18:47:46.295774 134812 net.cpp:154] Setting up Layer of device :0 @cpu 0 Layer : inception_4b/5x5
I0331 18:47:46.295778 134812 layer_factory.hpp:114] Creating layer inception_4b/5x5
I0331 18:47:46.295786 134812 net.cpp:169] Creating Layer inception_4b/5x5
I0331 18:47:46.295790 134812 net.cpp:606] inception_4b/5x5 <- inception_4b/5x5_reduce
I0331 18:47:46.295799 134812 net.cpp:579] inception_4b/5x5 -> inception_4b/5x5
I0331 18:47:46.295802 134812 net.cpp:582] From AppendTop @cpu: 0
I0331 18:47:46.300144 134812 net.cpp:219] Setting up inception_4b/5x5
I0331 18:47:46.300154 134812 net.cpp:226] Top shape: 28 64 14 14 (351232)
I0331 18:47:46.300158 134812 net.cpp:234] Memory required for data: 1128233796
I0331 18:47:46.300168 134812 net.cpp:154] Setting up Layer of device :0 @cpu 0 Layer : inception_4b/relu_5x5
I0331 18:47:46.300171 134812 layer_factory.hpp:114] Creating layer inception_4b/relu_5x5
I0331 18:47:46.300178 134812 net.cpp:169] Creating Layer inception_4b/relu_5x5
I0331 18:47:46.300181 134812 net.cpp:606] inception_4b/relu_5x5 <- inception_4b/5x5
I0331 18:47:46.300189 134812 net.cpp:566] inception_4b/relu_5x5 -> inception_4b/5x5 (in-place)
I0331 18:47:46.300196 134812 net.cpp:219] Setting up inception_4b/relu_5x5
I0331 18:47:46.300201 134812 net.cpp:226] Top shape: 28 64 14 14 (351232)
I0331 18:47:46.300205 134812 net.cpp:234] Memory required for data: 1129638724
I0331 18:47:46.300209 134812 net.cpp:154] Setting up Layer of device :0 @cpu 0 Layer : inception_4b/pool
I0331 18:47:46.300213 134812 layer_factory.hpp:114] Creating layer inception_4b/pool
I0331 18:47:46.300249 134812 net.cpp:169] Creating Layer inception_4b/pool
I0331 18:47:46.300254 134812 net.cpp:606] inception_4b/pool <- inception_4a/output_inception_4a/output_0_split_4
I0331 18:47:46.300261 134812 net.cpp:579] inception_4b/pool -> inception_4b/pool
I0331 18:47:46.300264 134812 net.cpp:582] From AppendTop @cpu: 0
I0331 18:47:46.300283 134812 net.cpp:219] Setting up inception_4b/pool
I0331 18:47:46.300290 134812 net.cpp:226] Top shape: 28 512 14 14 (2809856)
I0331 18:47:46.300294 134812 net.cpp:234] Memory required for data: 1140878148
I0331 18:47:46.300299 134812 net.cpp:154] Setting up Layer of device :0 @cpu 0 Layer : inception_4b/pool_proj
I0331 18:47:46.300303 134812 layer_factory.hpp:114] Creating layer inception_4b/pool_proj
I0331 18:47:46.300314 134812 net.cpp:169] Creating Layer inception_4b/pool_proj
I0331 18:47:46.300319 134812 net.cpp:606] inception_4b/pool_proj <- inception_4b/pool
I0331 18:47:46.300334 134812 net.cpp:579] inception_4b/pool_proj -> inception_4b/pool_proj
I0331 18:47:46.300338 134812 net.cpp:582] From AppendTop @cpu: 0
I0331 18:47:46.303894 134812 net.cpp:219] Setting up inception_4b/pool_proj
I0331 18:47:46.303905 134812 net.cpp:226] Top shape: 28 64 14 14 (351232)
I0331 18:47:46.303907 134812 net.cpp:234] Memory required for data: 1142283076
I0331 18:47:46.303916 134812 net.cpp:154] Setting up Layer of device :0 @cpu 0 Layer : inception_4b/relu_pool_proj
I0331 18:47:46.303920 134812 layer_factory.hpp:114] Creating layer inception_4b/relu_pool_proj
I0331 18:47:46.303927 134812 net.cpp:169] Creating Layer inception_4b/relu_pool_proj
I0331 18:47:46.303932 134812 net.cpp:606] inception_4b/relu_pool_proj <- inception_4b/pool_proj
I0331 18:47:46.303941 134812 net.cpp:566] inception_4b/relu_pool_proj -> inception_4b/pool_proj (in-place)
I0331 18:47:46.303947 134812 net.cpp:219] Setting up inception_4b/relu_pool_proj
I0331 18:47:46.303952 134812 net.cpp:226] Top shape: 28 64 14 14 (351232)
I0331 18:47:46.303956 134812 net.cpp:234] Memory required for data: 1143688004
I0331 18:47:46.303961 134812 net.cpp:154] Setting up Layer of device :0 @cpu 0 Layer : inception_4b/output
I0331 18:47:46.303964 134812 layer_factory.hpp:114] Creating layer inception_4b/output
I0331 18:47:46.303972 134812 net.cpp:169] Creating Layer inception_4b/output
I0331 18:47:46.303977 134812 net.cpp:606] inception_4b/output <- inception_4b/1x1
I0331 18:47:46.303982 134812 net.cpp:606] inception_4b/output <- inception_4b/3x3
I0331 18:47:46.303989 134812 net.cpp:606] inception_4b/output <- inception_4b/5x5
I0331 18:47:46.303994 134812 net.cpp:606] inception_4b/output <- inception_4b/pool_proj
I0331 18:47:46.304003 134812 net.cpp:579] inception_4b/output -> inception_4b/output
I0331 18:47:46.304006 134812 net.cpp:582] From AppendTop @cpu: 0
I0331 18:47:46.304016 134812 net.cpp:219] Setting up inception_4b/output
I0331 18:47:46.304021 134812 net.cpp:226] Top shape: 28 512 14 14 (2809856)
I0331 18:47:46.304025 134812 net.cpp:234] Memory required for data: 1154927428
I0331 18:47:46.304029 134812 net.cpp:154] Setting up Layer of device :0 @cpu 0 Layer : inception_4b/output_inception_4b/output_0_split
I0331 18:47:46.304033 134812 layer_factory.hpp:114] Creating layer inception_4b/output_inception_4b/output_0_split
I0331 18:47:46.304041 134812 net.cpp:169] Creating Layer inception_4b/output_inception_4b/output_0_split
…
I0331 18:47:46.304067 134812 net.cpp:582] From AppendTop @cpu: 0
I0331 18:47:46.304074 134812 net.cpp:579] inception_4b/output_inception_4b/output_0_split -> inception_4b/output_inception_4b/output_0_split_2
I0331 18:47:46.304077 134812 net.cpp:582] From AppendTop @cpu: 0
I0331 18:47:46.304083 134812 net.cpp:579] inception_4b/output_inception_4b/output_0_split -> inception_4b/output_inception_4b/output_0_split_3
I0331 18:47:46.304086 134812 net.cpp:582] From AppendTop @cpu: 0
I0331 18:47:46.304095 134812 net.cpp:219] Setting up inception_4b/output_inception_4b/output_0_split
I0331 18:47:46.304100 134812 net.cpp:226] Top shape: 28 512 14 14 (2809856)
I0331 18:47:46.304105 134812 net.cpp:226] Top shape: 28 512 14 14 (2809856)
I0331 18:47:46.304110 134812 net.cpp:226] Top shape: 28 512 14 14 (2809856)
I0331 18:47:46.304113 134812 net.cpp:226] Top shape: 28 512 14 14 (2809856)
I0331 18:47:46.304117 134812 net.cpp:234] Memory required for data: 1199885124
I0331 18:47:46.304121 134812 net.cpp:154] Setting up Layer of device :0 @cpu 0 Layer : inception_4c/1x1
I0331 18:47:46.304126 134812 layer_factory.hpp:114] Creating layer inception_4c/1x1
I0331 18:47:46.304144 134812 net.cpp:169] Creating Layer inception_4c/1x1
I0331 18:47:46.304149 134812 net.cpp:606] inception_4c/1x1 <- inception_4b/output_inception_4b/output_0_split_0
I0331 18:47:46.304157 134812 net.cpp:579] inception_4c/1x1 -> inception_4c/1x1
I0331 18:47:46.304162 134812 net.cpp:582] From AppendTop @cpu: 0
I0331 18:47:46.309101 134812 net.cpp:219] Setting up inception_4c/1x1
I0331 18:47:46.309113 134812 net.cpp:226] Top shape: 28 128 14 14 (702464)
I0331 18:47:46.309116 134812 net.cpp:234] Memory required for data: 1202694980
I0331 18:47:46.309125 134812 net.cpp:154] Setting up Layer of device :0 @cpu 0 Layer : inception_4c/relu_1x1
I0331 18:47:46.309129 134812 layer_factory.hpp:114] Creating layer inception_4c/relu_1x1
I0331 18:47:46.309135 134812 net.cpp:169] Creating Layer inception_4c/relu_1x1
I0331 18:47:46.309140 134812 net.cpp:606] inception_4c/relu_1x1 <- inception_4c/1x1
I0331 18:47:46.309145 134812 net.cpp:566] inception_4c/relu_1x1 -> inception_4c/1x1 (in-place)
I0331 18:47:46.309152 134812 net.cpp:219] Setting up inception_4c/relu_1x1
I0331 18:47:46.309157 134812 net.cpp:226] Top shape: 28 128 14 14 (702464)
I0331 18:47:46.309161 134812 net.cpp:234] Memory required for data: 1205504836
I0331 18:47:46.309165 134812 net.cpp:154] Setting up Layer of device :0 @cpu 0 Layer : inception_4c/3x3_reduce
I0331 18:47:46.309170 134812 layer_factory.hpp:114] Creating layer inception_4c/3x3_reduce
I0331 18:47:46.309180 134812 net.cpp:169] Creating Layer inception_4c/3x3_reduce
I0331 18:47:46.309191 134812 net.cpp:606] inception_4c/3x3_reduce <- inception_4b/output_inception_4b/output_0_split_1
I0331 18:47:46.309198 134812 net.cpp:579] inception_4c/3x3_reduce -> inception_4c/3x3_reduce
I0331 18:47:46.309202 134812 net.cpp:582] From AppendTop @cpu: 0
I0331 18:47:46.313612 134812 net.cpp:219] Setting up inception_4c/3x3_reduce
I0331 18:47:46.313627 134812 net.cpp:226] Top shape: 28 128 14 14 (702464)
I0331 18:47:46.313632 134812 net.cpp:234] Memory required for data: 1208314692
I0331 18:47:46.313640 134812 net.cpp:154] Setting up Layer of device :0 @cpu 0 Layer : inception_4c/relu_3x3_reduce
I0331 18:47:46.313644 134812 layer_factory.hpp:114] Creating layer inception_4c/relu_3x3_reduce
I0331 18:47:46.313652 134812 net.cpp:169] Creating Layer inception_4c/relu_3x3_reduce
I0331 18:47:46.313657 134812 net.cpp:606] inception_4c/relu_3x3_reduce <- inception_4c/3x3_reduce
I0331 18:47:46.313663 134812 net.cpp:566] inception_4c/relu_3x3_reduce -> inception_4c/3x3_reduce (in-place)
I0331 18:47:46.313669 134812 net.cpp:219] Setting up inception_4c/relu_3x3_reduce
I0331 18:47:46.313674 134812 net.cpp:226] Top shape: 28 128 14 14 (702464)
I0331 18:47:46.313678 134812 net.cpp:234] Memory required for data: 1211124548
I0331 18:47:46.313683 134812 net.cpp:154] Setting up Layer of device :0 @cpu 0 Layer : inception_4c/3x3
I0331 18:47:46.313686 134812 layer_factory.hpp:114] Creating layer inception_4c/3x3
I0331 18:47:46.313695 134812 net.cpp:169] Creating Layer inception_4c/3x3
I0331 18:47:46.313699 134812 net.cpp:606] inception_4c/3x3 <- inception_4c/3x3_reduce
I0331 18:47:46.313707 134812 net.cpp:579] inception_4c/3x3 -> inception_4c/3x3
I0331 18:47:46.313711 134812 net.cpp:582] From AppendTop @cpu: 0
I0331 18:47:46.327034 134812 net.cpp:219] Setting up inception_4c/3x3
I0331 18:47:46.327055 134812 net.cpp:226] Top shape: 28 256 14 14 (1404928)
I0331 18:47:46.327059 134812 net.cpp:234] Memory required for data: 1216744260
I0331 18:47:46.327082 134812 net.cpp:154] Setting up Layer of device :0 @cpu 0 Layer : inception_4c/relu_3x3
I0331 18:47:46.327088 134812 layer_factory.hpp:114] Creating layer inception_4c/relu_3x3
I0331 18:47:46.327096 134812 net.cpp:169] Creating Layer inception_4c/relu_3x3
I0331 18:47:46.327102 134812 net.cpp:606] inception_4c/relu_3x3 <- inception_4c/3x3
I0331 18:47:46.327111 134812 net.cpp:566] inception_4c/relu_3x3 -> inception_4c/3x3 (in-place)
I0331 18:47:46.327119 134812 net.cpp:219] Setting up inception_4c/relu_3x3
I0331 18:47:46.327126 134812 net.cpp:226] Top shape: 28 256 14 14 (1404928)
I0331 18:47:46.327144 134812 net.cpp:234] Memory required for data: 1222363972
I0331 18:47:46.327149 134812 net.cpp:154] Setting up Layer of device :0 @cpu 0 Layer : inception_4c/5x5_reduce
I0331 18:47:46.327153 134812 layer_factory.hpp:114] Creating layer inception_4c/5x5_reduce
I0331 18:47:46.327163 134812 net.cpp:169] Creating Layer inception_4c/5x5_reduce
I0331 18:47:46.327168 134812 net.cpp:606] inception_4c/5x5_reduce <- inception_4b/output_inception_4b/output_0_split_2
I0331 18:47:46.327177 134812 net.cpp:579] inception_4c/5x5_reduce -> inception_4c/5x5_reduce
I0331 18:47:46.327180 134812 net.cpp:582] From AppendTop @cpu: 0
I0331 18:47:46.329864 134812 net.cpp:219] Setting up inception_4c/5x5_reduce
I0331 18:47:46.329874 134812 net.cpp:226] Top shape: 28 24 14 14 (131712)
I0331 18:47:46.329879 134812 net.cpp:234] Memory required for data: 1222890820
I0331 18:47:46.329887 134812 net.cpp:154] Setting up Layer of device :0 @cpu 0 Layer : inception_4c/relu_5x5_reduce
I0331 18:47:46.329891 134812 layer_factory.hpp:114] Creating layer inception_4c/relu_5x5_reduce
I0331 18:47:46.329902 134812 net.cpp:169] Creating Layer inception_4c/relu_5x5_reduce
I0331 18:47:46.329907 134812 net.cpp:606] inception_4c/relu_5x5_reduce <- inception_4c/5x5_reduce
I0331 18:47:46.329916 134812 net.cpp:566] inception_4c/relu_5x5_reduce -> inception_4c/5x5_reduce (in-place)
I0331 18:47:46.329922 134812 net.cpp:219] Setting up inception_4c/relu_5x5_reduce
I0331 18:47:46.329927 134812 net.cpp:226] Top shape: 28 24 14 14 (131712)
I0331 18:47:46.329936 134812 net.cpp:234] Memory required for data: 1223417668
I0331 18:47:46.329941 134812 net.cpp:154] Setting up Layer of device :0 @cpu 0 Layer : inception_4c/5x5
I0331 18:47:46.329946 134812 layer_factory.hpp:114] Creating layer inception_4c/5x5
I0331 18:47:46.329953 134812 net.cpp:169] Creating Layer inception_4c/5x5
I0331 18:47:46.329957 134812 net.cpp:606] inception_4c/5x5 <- inception_4c/5x5_reduce
I0331 18:47:46.329967 134812 net.cpp:579] inception_4c/5x5 -> inception_4c/5x5
I0331 18:47:46.329970 134812 net.cpp:582] From AppendTop @cpu: 0
I0331 18:47:46.334308 134812 net.cpp:219] Setting up inception_4c/5x5
I0331 18:47:46.334318 134812 net.cpp:226] Top shape: 28 64 14 14 (351232)
I0331 18:47:46.334322 134812 net.cpp:234] Memory required for data: 1224822596
I0331 18:47:46.334331 134812 net.cpp:154] Setting up Layer of device :0 @cpu 0 Layer : inception_4c/relu_5x5
I0331 18:47:46.334336 134812 layer_factory.hpp:114] Creating layer inception_4c/relu_5x5
I0331 18:47:46.334343 134812 net.cpp:169] Creating Layer inception_4c/relu_5x5
I0331 18:47:46.334348 134812 net.cpp:606] inception_4c/relu_5x5 <- inception_4c/5x5
I0331 18:47:46.334355 134812 net.cpp:566] inception_4c/relu_5x5 -> inception_4c/5x5 (in-place)
I0331 18:47:46.334362 134812 net.cpp:219] Setting up inception_4c/relu_5x5
I0331 18:47:46.334367 134812 net.cpp:226] Top shape: 28 64 14 14 (351232)
I0331 18:47:46.334370 134812 net.cpp:234] Memory required for data: 1226227524
I0331 18:47:46.334374 134812 net.cpp:154] Setting up Layer of device :0 @cpu 0 Layer : inception_4c/pool
I0331 18:47:46.334379 134812 layer_factory.hpp:114] Creating layer inception_4c/pool
I0331 18:47:46.334414 134812 net.cpp:169] Creating Layer inception_4c/pool
I0331 18:47:46.334419 134812 net.cpp:606] inception_4c/pool <- inception_4b/output_inception_4b/output_0_split_3
I0331 18:47:46.334425 134812 net.cpp:579] inception_4c/pool -> inception_4c/pool
I0331 18:47:46.334429 134812 net.cpp:582] From AppendTop @cpu: 0
I0331 18:47:46.334440 134812 net.cpp:219] Setting up inception_4c/pool
I0331 18:47:46.334445 134812 net.cpp:226] Top shape: 28 512 14 14 (2809856)
I0331 18:47:46.334450 134812 net.cpp:234] Memory required for data: 1237466948
I0331 18:47:46.334453 134812 net.cpp:154] Setting up Layer of device :0 @cpu 0 Layer : inception_4c/pool_proj
I0331 18:47:46.334457 134812 layer_factory.hpp:114] Creating layer inception_4c/pool_proj
I0331 18:47:46.334470 134812 net.cpp:169] Creating Layer inception_4c/pool_proj
I0331 18:47:46.334475 134812 net.cpp:606] inception_4c/pool_proj <- inception_4c/pool
I0331 18:47:46.334489 134812 net.cpp:579] inception_4c/pool_proj -> inception_4c/pool_proj
I0331 18:47:46.334493 134812 net.cpp:582] From AppendTop @cpu: 0
I0331 18:47:46.338052 134812 net.cpp:219] Setting up inception_4c/pool_proj
I0331 18:47:46.338063 134812 net.cpp:226] Top shape: 28 64 14 14 (351232)
I0331 18:47:46.338068 134812 net.cpp:234] Memory required for data: 1238871876
I0331 18:47:46.338076 134812 net.cpp:154] Setting up Layer of device :0 @cpu 0 Layer : inception_4c/relu_pool_proj
I0331 18:47:46.338080 134812 layer_factory.hpp:114] Creating layer inception_4c/relu_pool_proj
I0331 18:47:46.338086 134812 net.cpp:169] Creating Layer inception_4c/relu_pool_proj
I0331 18:47:46.338091 134812 net.cpp:606] inception_4c/relu_pool_proj <- inception_4c/pool_proj
I0331 18:47:46.338099 134812 net.cpp:566] inception_4c/relu_pool_proj -> inception_4c/pool_proj (in-place)
I0331 18:47:46.338106 134812 net.cpp:219] Setting up inception_4c/relu_pool_proj
I0331 18:47:46.338111 134812 net.cpp:226] Top shape: 28 64 14 14 (351232)
I0331 18:47:46.338115 134812 net.cpp:234] Memory required for data: 1240276804
I0331 18:47:46.338119 134812 net.cpp:154] Setting up Layer of device :0 @cpu 0 Layer : inception_4c/output
I0331 18:47:46.338124 134812 layer_factory.hpp:114] Creating layer inception_4c/output
I0331 18:47:46.338131 134812 net.cpp:169] Creating Layer inception_4c/output
I0331 18:47:46.338135 134812 net.cpp:606] inception_4c/output <- inception_4c/1x1
I0331 18:47:46.338145 134812 net.cpp:606] inception_4c/output <- inception_4c/3x3
I0331 18:47:46.338150 134812 net.cpp:606] inception_4c/output <- inception_4c/5x5
I0331 18:47:46.338155 134812 net.cpp:606] inception_4c/output <- inception_4c/pool_proj
I0331 18:47:46.338160 134812 net.cpp:579] inception_4c/output -> inception_4c/output
I0331 18:47:46.338163 134812 net.cpp:582] From AppendTop @cpu: 0
I0331 18:47:46.338173 134812 net.cpp:219] Setting up inception_4c/output
I0331 18:47:46.338178 134812 net.cpp:226] Top shape: 28 512 14 14 (2809856)
I0331 18:47:46.338181 134812 net.cpp:234] Memory required for data: 1251516228
I0331 18:47:46.338186 134812 net.cpp:154] Setting up Layer of device :0 @cpu 0 Layer : inception_4c/output_inception_4c/output_0_split
I0331 18:47:46.338191 134812 layer_factory.hpp:114] Creating layer inception_4c/output_inception_4c/output_0_split
I0331 18:47:46.338201 134812 net.cpp:169] Creating Layer inception_4c/output_inception_4c/output_0_split
…
I0331 18:47:46.338227 134812 net.cpp:582] From AppendTop @cpu: 0
I0331 18:47:46.338233 134812 net.cpp:579] inception_4c/output_inception_4c/output_0_split -> inception_4c/output_inception_4c/output_0_split_2
I0331 18:47:46.338238 134812 net.cpp:582] From AppendTop @cpu: 0
I0331 18:47:46.338243 134812 net.cpp:579] inception_4c/output_inception_4c/output_0_split -> inception_4c/output_inception_4c/output_0_split_3
I0331 18:47:46.338248 134812 net.cpp:582] From AppendTop @cpu: 0
I0331 18:47:46.338255 134812 net.cpp:219] Setting up inception_4c/output_inception_4c/output_0_split
I0331 18:47:46.338260 134812 net.cpp:226] Top shape: 28 512 14 14 (2809856)
I0331 18:47:46.338265 134812 net.cpp:226] Top shape: 28 512 14 14 (2809856)
I0331 18:47:46.338269 134812 net.cpp:226] Top shape: 28 512 14 14 (2809856)
I0331 18:47:46.338274 134812 net.cpp:226] Top shape: 28 512 14 14 (2809856)
I0331 18:47:46.338277 134812 net.cpp:234] Memory required for data: 1296473924
I0331 18:47:46.338282 134812 net.cpp:154] Setting up Layer of device :0 @cpu 0 Layer : inception_4d/1x1
I0331 18:47:46.338286 134812 layer_factory.hpp:114] Creating layer inception_4d/1x1
I0331 18:47:46.338310 134812 net.cpp:169] Creating Layer inception_4d/1x1
I0331 18:47:46.338315 134812 net.cpp:606] inception_4d/1x1 <- inception_4c/output_inception_4c/output_0_split_0
I0331 18:47:46.338323 134812 net.cpp:579] inception_4d/1x1 -> inception_4d/1x1
I0331 18:47:46.338326 134812 net.cpp:582] From AppendTop @cpu: 0
I0331 18:47:46.342916 134812 net.cpp:219] Setting up inception_4d/1x1
I0331 18:47:46.342927 134812 net.cpp:226] Top shape: 28 112 14 14 (614656)
I0331 18:47:46.342931 134812 net.cpp:234] Memory required for data: 1298932548
I0331 18:47:46.342939 134812 net.cpp:154] Setting up Layer of device :0 @cpu 0 Layer : inception_4d/relu_1x1
I0331 18:47:46.342943 134812 layer_factory.hpp:114] Creating layer inception_4d/relu_1x1
I0331 18:47:46.342952 134812 net.cpp:169] Creating Layer inception_4d/relu_1x1
I0331 18:47:46.342957 134812 net.cpp:606] inception_4d/relu_1x1 <- inception_4d/1x1
I0331 18:47:46.342964 134812 net.cpp:566] inception_4d/relu_1x1 -> inception_4d/1x1 (in-place)
I0331 18:47:46.342972 134812 net.cpp:219] Setting up inception_4d/relu_1x1
I0331 18:47:46.342977 134812 net.cpp:226] Top shape: 28 112 14 14 (614656)
I0331 18:47:46.342980 134812 net.cpp:234] Memory required for data: 1301391172
I0331 18:47:46.342985 134812 net.cpp:154] Setting up Layer of device :0 @cpu 0 Layer : inception_4d/3x3_reduce
I0331 18:47:46.342989 134812 layer_factory.hpp:114] Creating layer inception_4d/3x3_reduce
I0331 18:47:46.342998 134812 net.cpp:169] Creating Layer inception_4d/3x3_reduce
I0331 18:47:46.343005 134812 net.cpp:606] inception_4d/3x3_reduce <- inception_4c/output_inception_4c/output_0_split_1
I0331 18:47:46.343014 134812 net.cpp:579] inception_4d/3x3_reduce -> inception_4d/3x3_reduce
I0331 18:47:46.343017 134812 net.cpp:582] From AppendTop @cpu: 0
I0331 18:47:46.347772 134812 net.cpp:219] Setting up inception_4d/3x3_reduce
I0331 18:47:46.347784 134812 net.cpp:226] Top shape: 28 144 14 14 (790272)
I0331 18:47:46.347786 134812 net.cpp:234] Memory required for data: 1304552260
I0331 18:47:46.347795 134812 net.cpp:154] Setting up Layer of device :0 @cpu 0 Layer : inception_4d/relu_3x3_reduce
I0331 18:47:46.347800 134812 layer_factory.hpp:114] Creating layer inception_4d/relu_3x3_reduce
I0331 18:47:46.347805 134812 net.cpp:169] Creating Layer inception_4d/relu_3x3_reduce
I0331 18:47:46.347810 134812 net.cpp:606] inception_4d/relu_3x3_reduce <- inception_4d/3x3_reduce
I0331 18:47:46.347816 134812 net.cpp:566] inception_4d/relu_3x3_reduce -> inception_4d/3x3_reduce (in-place)
I0331 18:47:46.347823 134812 net.cpp:219] Setting up inception_4d/relu_3x3_reduce
I0331 18:47:46.347828 134812 net.cpp:226] Top shape: 28 144 14 14 (790272)
I0331 18:47:46.347832 134812 net.cpp:234] Memory required for data: 1307713348
I0331 18:47:46.347836 134812 net.cpp:154] Setting up Layer of device :0 @cpu 0 Layer : inception_4d/3x3
I0331 18:47:46.347841 134812 layer_factory.hpp:114] Creating layer inception_4d/3x3
I0331 18:47:46.347851 134812 net.cpp:169] Creating Layer inception_4d/3x3
I0331 18:47:46.347856 134812 net.cpp:606] inception_4d/3x3 <- inception_4d/3x3_reduce
I0331 18:47:46.347862 134812 net.cpp:579] inception_4d/3x3 -> inception_4d/3x3
I0331 18:47:46.347864 134812 net.cpp:582] From AppendTop @cpu: 0
I0331 18:47:46.364291 134812 net.cpp:219] Setting up inception_4d/3x3
I0331 18:47:46.364320 134812 net.cpp:226] Top shape: 28 288 14 14 (1580544)
I0331 18:47:46.364323 134812 net.cpp:234] Memory required for data: 1314035524
I0331 18:47:46.364339 134812 net.cpp:154] Setting up Layer of device :0 @cpu 0 Layer : inception_4d/relu_3x3
I0331 18:47:46.364343 134812 layer_factory.hpp:114] Creating layer inception_4d/relu_3x3
I0331 18:47:46.364353 134812 net.cpp:169] Creating Layer inception_4d/relu_3x3
I0331 18:47:46.364361 134812 net.cpp:606] inception_4d/relu_3x3 <- inception_4d/3x3
I0331 18:47:46.364367 134812 net.cpp:566] inception_4d/relu_3x3 -> inception_4d/3x3 (in-place)
I0331 18:47:46.364377 134812 net.cpp:219] Setting up inception_4d/relu_3x3
I0331 18:47:46.364382 134812 net.cpp:226] Top shape: 28 288 14 14 (1580544)
I0331 18:47:46.364403 134812 net.cpp:234] Memory required for data: 1320357700
I0331 18:47:46.364408 134812 net.cpp:154] Setting up Layer of device :0 @cpu 0 Layer : inception_4d/5x5_reduce
I0331 18:47:46.364413 134812 layer_factory.hpp:114] Creating layer inception_4d/5x5_reduce
I0331 18:47:46.364426 134812 net.cpp:169] Creating Layer inception_4d/5x5_reduce
I0331 18:47:46.364431 134812 net.cpp:606] inception_4d/5x5_reduce <- inception_4c/output_inception_4c/output_0_split_2
I0331 18:47:46.364439 134812 net.cpp:579] inception_4d/5x5_reduce -> inception_4d/5x5_reduce
I0331 18:47:46.364444 134812 net.cpp:582] From AppendTop @cpu: 0
I0331 18:47:46.367270 134812 net.cpp:219] Setting up inception_4d/5x5_reduce
I0331 18:47:46.367281 134812 net.cpp:226] Top shape: 28 32 14 14 (175616)
I0331 18:47:46.367285 134812 net.cpp:234] Memory required for data: 1321060164
I0331 18:47:46.367295 134812 net.cpp:154] Setting up Layer of device :0 @cpu 0 Layer : inception_4d/relu_5x5_reduce
I0331 18:47:46.367298 134812 layer_factory.hpp:114] Creating layer inception_4d/relu_5x5_reduce
I0331 18:47:46.367305 134812 net.cpp:169] Creating Layer inception_4d/relu_5x5_reduce
I0331 18:47:46.367308 134812 net.cpp:606] inception_4d/relu_5x5_reduce <- inception_4d/5x5_reduce
I0331 18:47:46.367317 134812 net.cpp:566] inception_4d/relu_5x5_reduce -> inception_4d/5x5_reduce (in-place)
I0331 18:47:46.367323 134812 net.cpp:219] Setting up inception_4d/relu_5x5_reduce
I0331 18:47:46.367329 134812 net.cpp:226] Top shape: 28 32 14 14 (175616)
I0331 18:47:46.367337 134812 net.cpp:234] Memory required for data: 1321762628
I0331 18:47:46.367342 134812 net.cpp:154] Setting up Layer of device :0 @cpu 0 Layer : inception_4d/5x5
I0331 18:47:46.367347 134812 layer_factory.hpp:114] Creating layer inception_4d/5x5
I0331 18:47:46.367357 134812 net.cpp:169] Creating Layer inception_4d/5x5
I0331 18:47:46.367360 134812 net.cpp:606] inception_4d/5x5 <- inception_4d/5x5_reduce
I0331 18:47:46.367367 134812 net.cpp:579] inception_4d/5x5 -> inception_4d/5x5
I0331 18:47:46.367370 134812 net.cpp:582] From AppendTop @cpu: 0
I0331 18:47:46.372910 134812 net.cpp:219] Setting up inception_4d/5x5
I0331 18:47:46.372920 134812 net.cpp:226] Top shape: 28 64 14 14 (351232)
I0331 18:47:46.372923 134812 net.cpp:234] Memory required for data: 1323167556
I0331 18:47:46.372932 134812 net.cpp:154] Setting up Layer of device :0 @cpu 0 Layer : inception_4d/relu_5x5
I0331 18:47:46.372937 134812 layer_factory.hpp:114] Creating layer inception_4d/relu_5x5
I0331 18:47:46.372943 134812 net.cpp:169] Creating Layer inception_4d/relu_5x5
I0331 18:47:46.372948 134812 net.cpp:606] inception_4d/relu_5x5 <- inception_4d/5x5
I0331 18:47:46.372956 134812 net.cpp:566] inception_4d/relu_5x5 -> inception_4d/5x5 (in-place)
I0331 18:47:46.372962 134812 net.cpp:219] Setting up inception_4d/relu_5x5
I0331 18:47:46.372967 134812 net.cpp:226] Top shape: 28 64 14 14 (351232)
I0331 18:47:46.372972 134812 net.cpp:234] Memory required for data: 1324572484
I0331 18:47:46.372975 134812 net.cpp:154] Setting up Layer of device :0 @cpu 0 Layer : inception_4d/pool
I0331 18:47:46.372979 134812 layer_factory.hpp:114] Creating layer inception_4d/pool
I0331 18:47:46.373013 134812 net.cpp:169] Creating Layer inception_4d/pool
I0331 18:47:46.373018 134812 net.cpp:606] inception_4d/pool <- inception_4c/output_inception_4c/output_0_split_3
I0331 18:47:46.373024 134812 net.cpp:579] inception_4d/pool -> inception_4d/pool
I0331 18:47:46.373034 134812 net.cpp:582] From AppendTop @cpu: 0
I0331 18:47:46.373045 134812 net.cpp:219] Setting up inception_4d/pool
I0331 18:47:46.373051 134812 net.cpp:226] Top shape: 28 512 14 14 (2809856)
I0331 18:47:46.373054 134812 net.cpp:234] Memory required for data: 1335811908
I0331 18:47:46.373059 134812 net.cpp:154] Setting up Layer of device :0 @cpu 0 Layer : inception_4d/pool_proj
I0331 18:47:46.373064 134812 layer_factory.hpp:114] Creating layer inception_4d/pool_proj
I0331 18:47:46.373075 134812 net.cpp:169] Creating Layer inception_4d/pool_proj
I0331 18:47:46.373078 134812 net.cpp:606] inception_4d/pool_proj <- inception_4d/pool
I0331 18:47:46.373095 134812 net.cpp:579] inception_4d/pool_proj -> inception_4d/pool_proj
I0331 18:47:46.373100 134812 net.cpp:582] From AppendTop @cpu: 0
I0331 18:47:46.376603 134812 net.cpp:219] Setting up inception_4d/pool_proj
I0331 18:47:46.376615 134812 net.cpp:226] Top shape: 28 64 14 14 (351232)
I0331 18:47:46.376617 134812 net.cpp:234] Memory required for data: 1337216836
I0331 18:47:46.376629 134812 net.cpp:154] Setting up Layer of device :0 @cpu 0 Layer : inception_4d/relu_pool_proj
I0331 18:47:46.376634 134812 layer_factory.hpp:114] Creating layer inception_4d/relu_pool_proj
I0331 18:47:46.376641 134812 net.cpp:169] Creating Layer inception_4d/relu_pool_proj
I0331 18:47:46.376647 134812 net.cpp:606] inception_4d/relu_pool_proj <- inception_4d/pool_proj
I0331 18:47:46.376653 134812 net.cpp:566] inception_4d/relu_pool_proj -> inception_4d/pool_proj (in-place)
I0331 18:47:46.376660 134812 net.cpp:219] Setting up inception_4d/relu_pool_proj
I0331 18:47:46.376665 134812 net.cpp:226] Top shape: 28 64 14 14 (351232)
I0331 18:47:46.376668 134812 net.cpp:234] Memory required for data: 1338621764
I0331 18:47:46.376673 134812 net.cpp:154] Setting up Layer of device :0 @cpu 0 Layer : inception_4d/output
I0331 18:47:46.376677 134812 layer_factory.hpp:114] Creating layer inception_4d/output
I0331 18:47:46.376684 134812 net.cpp:169] Creating Layer inception_4d/output
I0331 18:47:46.376689 134812 net.cpp:606] inception_4d/output <- inception_4d/1x1
I0331 18:47:46.376698 134812 net.cpp:606] inception_4d/output <- inception_4d/3x3
I0331 18:47:46.376703 134812 net.cpp:606] inception_4d/output <- inception_4d/5x5
I0331 18:47:46.376708 134812 net.cpp:606] inception_4d/output <- inception_4d/pool_proj
I0331 18:47:46.376718 134812 net.cpp:579] inception_4d/output -> inception_4d/output
I0331 18:47:46.376721 134812 net.cpp:582] From AppendTop @cpu: 0
I0331 18:47:46.376731 134812 net.cpp:219] Setting up inception_4d/output
I0331 18:47:46.376736 134812 net.cpp:226] Top shape: 28 528 14 14 (2897664)
I0331 18:47:46.376740 134812 net.cpp:234] Memory required for data: 1350212420
I0331 18:47:46.376744 134812 net.cpp:154] Setting up Layer of device :0 @cpu 0 Layer : inception_4d/output_inception_4d/output_0_split
I0331 18:47:46.376749 134812 layer_factory.hpp:114] Creating layer inception_4d/output_inception_4d/output_0_split
I0331 18:47:46.376758 134812 net.cpp:169] Creating Layer inception_4d/output_inception_4d/output_0_split
…
I0331 18:47:46.376794 134812 net.cpp:582] From AppendTop @cpu: 0
I0331 18:47:46.376801 134812 net.cpp:579] inception_4d/output_inception_4d/output_0_split -> inception_4d/output_inception_4d/output_0_split_3
I0331 18:47:46.376804 134812 net.cpp:582] From AppendTop @cpu: 0
I0331 18:47:46.376811 134812 net.cpp:579] inception_4d/output_inception_4d/output_0_split -> inception_4d/output_inception_4d/output_0_split_4
I0331 18:47:46.376814 134812 net.cpp:582] From AppendTop @cpu: 0
I0331 18:47:46.376824 134812 net.cpp:219] Setting up inception_4d/output_inception_4d/output_0_split
I0331 18:47:46.376830 134812 net.cpp:226] Top shape: 28 528 14 14 (2897664)
I0331 18:47:46.376834 134812 net.cpp:226] Top shape: 28 528 14 14 (2897664)
I0331 18:47:46.376839 134812 net.cpp:226] Top shape: 28 528 14 14 (2897664)
I0331 18:47:46.376844 134812 net.cpp:226] Top shape: 28 528 14 14 (2897664)
I0331 18:47:46.376848 134812 net.cpp:226] Top shape: 28 528 14 14 (2897664)
I0331 18:47:46.376859 134812 net.cpp:234] Memory required for data: 1408165700
I0331 18:47:46.376864 134812 net.cpp:154] Setting up Layer of device :0 @cpu 0 Layer : loss2/ave_pool
I0331 18:47:46.376868 134812 layer_factory.hpp:114] Creating layer loss2/ave_pool
I0331 18:47:46.376888 134812 net.cpp:169] Creating Layer loss2/ave_pool
I0331 18:47:46.376893 134812 net.cpp:606] loss2/ave_pool <- inception_4d/output_inception_4d/output_0_split_0
I0331 18:47:46.376901 134812 net.cpp:579] loss2/ave_pool -> loss2/ave_pool
I0331 18:47:46.376905 134812 net.cpp:582] From AppendTop @cpu: 0
I0331 18:47:46.376914 134812 net.cpp:219] Setting up loss2/ave_pool
I0331 18:47:46.376919 134812 net.cpp:226] Top shape: 28 528 4 4 (236544)
I0331 18:47:46.376922 134812 net.cpp:234] Memory required for data: 1409111876
I0331 18:47:46.376926 134812 net.cpp:154] Setting up Layer of device :0 @cpu 0 Layer : loss2/conv
I0331 18:47:46.376931 134812 layer_factory.hpp:114] Creating layer loss2/conv
I0331 18:47:46.376942 134812 net.cpp:169] Creating Layer loss2/conv
I0331 18:47:46.376946 134812 net.cpp:606] loss2/conv <- loss2/ave_pool
I0331 18:47:46.376955 134812 net.cpp:579] loss2/conv -> loss2/conv
I0331 18:47:46.376960 134812 net.cpp:582] From AppendTop @cpu: 0
I0331 18:47:46.379552 134812 net.cpp:219] Setting up loss2/conv
I0331 18:47:46.379564 134812 net.cpp:226] Top shape: 28 128 4 4 (57344)
I0331 18:47:46.379567 134812 net.cpp:234] Memory required for data: 1409341252
I0331 18:47:46.379576 134812 net.cpp:154] Setting up Layer of device :0 @cpu 0 Layer : loss2/relu_conv
I0331 18:47:46.379585 134812 layer_factory.hpp:114] Creating layer loss2/relu_conv
I0331 18:47:46.379590 134812 net.cpp:169] Creating Layer loss2/relu_conv
I0331 18:47:46.379595 134812 net.cpp:606] loss2/relu_conv <- loss2/conv
I0331 18:47:46.379603 134812 net.cpp:566] loss2/relu_conv -> loss2/conv (in-place)
I0331 18:47:46.379611 134812 net.cpp:219] Setting up loss2/relu_conv
I0331 18:47:46.379616 134812 net.cpp:226] Top shape: 28 128 4 4 (57344)
I0331 18:47:46.379618 134812 net.cpp:234] Memory required for data: 1409570628
I0331 18:47:46.379626 134812 net.cpp:154] Setting up Layer of device :0 @cpu 0 Layer : loss2/fc
I0331 18:47:46.379632 134812 layer_factory.hpp:114] Creating layer loss2/fc
I0331 18:47:46.379644 134812 net.cpp:169] Creating Layer loss2/fc
I0331 18:47:46.379648 134812 net.cpp:606] loss2/fc <- loss2/conv
I0331 18:47:46.379657 134812 net.cpp:579] loss2/fc -> loss2/fc
I0331 18:47:46.379662 134812 net.cpp:582] From AppendTop @cpu: 0
I0331 18:47:46.399520 134812 net.cpp:219] Setting up loss2/fc
I0331 18:47:46.399531 134812 net.cpp:226] Top shape: 28 1024 (28672)
I0331 18:47:46.399534 134812 net.cpp:234] Memory required for data: 1409685316
I0331 18:47:46.399544 134812 net.cpp:154] Setting up Layer of device :0 @cpu 0 Layer : loss2/relu_fc
I0331 18:47:46.399547 134812 layer_factory.hpp:114] Creating layer loss2/relu_fc
I0331 18:47:46.399555 134812 net.cpp:169] Creating Layer loss2/relu_fc
I0331 18:47:46.399560 134812 net.cpp:606] loss2/relu_fc <- loss2/fc
I0331 18:47:46.399565 134812 net.cpp:566] loss2/relu_fc -> loss2/fc (in-place)
I0331 18:47:46.399572 134812 net.cpp:219] Setting up loss2/relu_fc
I0331 18:47:46.399577 134812 net.cpp:226] Top shape: 28 1024 (28672)
I0331 18:47:46.399580 134812 net.cpp:234] Memory required for data: 1409800004
I0331 18:47:46.399585 134812 net.cpp:154] Setting up Layer of device :0 @cpu 0 Layer : loss2/drop_fc
I0331 18:47:46.399590 134812 layer_factory.hpp:114] Creating layer loss2/drop_fc
I0331 18:47:46.399596 134812 net.cpp:169] Creating Layer loss2/drop_fc
I0331 18:47:46.399600 134812 net.cpp:606] loss2/drop_fc <- loss2/fc
I0331 18:47:46.399606 134812 net.cpp:566] loss2/drop_fc -> loss2/fc (in-place)
I0331 18:47:46.399615 134812 net.cpp:219] Setting up loss2/drop_fc
I0331 18:47:46.399619 134812 net.cpp:226] Top shape: 28 1024 (28672)
I0331 18:47:46.399622 134812 net.cpp:234] Memory required for data: 1409914692
I0331 18:47:46.399631 134812 net.cpp:154] Setting up Layer of device :0 @cpu 0 Layer : loss2/classifier
I0331 18:47:46.399644 134812 layer_factory.hpp:114] Creating layer loss2/classifier
I0331 18:47:46.399655 134812 net.cpp:169] Creating Layer loss2/classifier
I0331 18:47:46.399659 134812 net.cpp:606] loss2/classifier <- loss2/fc
I0331 18:47:46.399665 134812 net.cpp:579] loss2/classifier -> loss2/classifier
I0331 18:47:46.399669 134812 net.cpp:582] From AppendTop @cpu: 0
I0331 18:47:46.409626 134812 net.cpp:219] Setting up loss2/classifier
I0331 18:47:46.409636 134812 net.cpp:226] Top shape: 28 1000 (28000)
I0331 18:47:46.409639 134812 net.cpp:234] Memory required for data: 1410026692
I0331 18:47:46.409648 134812 net.cpp:154] Setting up Layer of device :0 @cpu 0 Layer : loss2/loss
I0331 18:47:46.409651 134812 layer_factory.hpp:114] Creating layer loss2/loss
I0331 18:47:46.409660 134812 net.cpp:169] Creating Layer loss2/loss
I0331 18:47:46.409665 134812 net.cpp:606] loss2/loss <- loss2/classifier
…
I0331 18:47:46.409826 134812 net.cpp:154] Setting up Layer of device :0 @cpu 0 Layer : inception_4e/1x1
I0331 18:47:46.409833 134812 layer_factory.hpp:114] Creating layer inception_4e/1x1
I0331 18:47:46.409847 134812 net.cpp:169] Creating Layer inception_4e/1x1
I0331 18:47:46.409850 134812 net.cpp:606] inception_4e/1x1 <- inception_4d/output_inception_4d/output_0_split_1
I0331 18:47:46.409859 134812 net.cpp:579] inception_4e/1x1 -> inception_4e/1x1
I0331 18:47:46.409863 134812 net.cpp:582] From AppendTop @cpu: 0
I0331 18:47:46.416725 134812 net.cpp:219] Setting up inception_4e/1x1
I0331 18:47:46.416739 134812 net.cpp:226] Top shape: 28 256 14 14 (1404928)
I0331 18:47:46.416743 134812 net.cpp:234] Memory required for data: 1415646408
I0331 18:47:46.416752 134812 net.cpp:154] Setting up Layer of device :0 @cpu 0 Layer : inception_4e/relu_1x1
I0331 18:47:46.416756 134812 layer_factory.hpp:114] Creating layer inception_4e/relu_1x1
I0331 18:47:46.416762 134812 net.cpp:169] Creating Layer inception_4e/relu_1x1
I0331 18:47:46.416767 134812 net.cpp:606] inception_4e/relu_1x1 <- inception_4e/1x1
I0331 18:47:46.416774 134812 net.cpp:566] inception_4e/relu_1x1 -> inception_4e/1x1 (in-place)
I0331 18:47:46.416781 134812 net.cpp:219] Setting up inception_4e/relu_1x1
I0331 18:47:46.416787 134812 net.cpp:226] Top shape: 28 256 14 14 (1404928)
I0331 18:47:46.416790 134812 net.cpp:234] Memory required for data: 1421266120
I0331 18:47:46.416795 134812 net.cpp:154] Setting up Layer of device :0 @cpu 0 Layer : inception_4e/3x3_reduce
I0331 18:47:46.416800 134812 layer_factory.hpp:114] Creating layer inception_4e/3x3_reduce
I0331 18:47:46.416810 134812 net.cpp:169] Creating Layer inception_4e/3x3_reduce
I0331 18:47:46.416815 134812 net.cpp:606] inception_4e/3x3_reduce <- inception_4d/output_inception_4d/output_0_split_2
I0331 18:47:46.416821 134812 net.cpp:579] inception_4e/3x3_reduce -> inception_4e/3x3_reduce
I0331 18:47:46.416824 134812 net.cpp:582] From AppendTop @cpu: 0
I0331 18:47:46.422061 134812 net.cpp:219] Setting up inception_4e/3x3_reduce
I0331 18:47:46.422073 134812 net.cpp:226] Top shape: 28 160 14 14 (878080)
I0331 18:47:46.422076 134812 net.cpp:234] Memory required for data: 1424778440
I0331 18:47:46.422086 134812 net.cpp:154] Setting up Layer of device :0 @cpu 0 Layer : inception_4e/relu_3x3_reduce
I0331 18:47:46.422091 134812 layer_factory.hpp:114] Creating layer inception_4e/relu_3x3_reduce
I0331 18:47:46.422096 134812 net.cpp:169] Creating Layer inception_4e/relu_3x3_reduce
I0331 18:47:46.422103 134812 net.cpp:606] inception_4e/relu_3x3_reduce <- inception_4e/3x3_reduce
I0331 18:47:46.422122 134812 net.cpp:566] inception_4e/relu_3x3_reduce -> inception_4e/3x3_reduce (in-place)
I0331 18:47:46.422129 134812 net.cpp:219] Setting up inception_4e/relu_3x3_reduce
I0331 18:47:46.422134 134812 net.cpp:226] Top shape: 28 160 14 14 (878080)
I0331 18:47:46.422137 134812 net.cpp:234] Memory required for data: 1428290760
I0331 18:47:46.422142 134812 net.cpp:154] Setting up Layer of device :0 @cpu 0 Layer : inception_4e/3x3
I0331 18:47:46.422147 134812 layer_factory.hpp:114] Creating layer inception_4e/3x3
I0331 18:47:46.422158 134812 net.cpp:169] Creating Layer inception_4e/3x3
I0331 18:47:46.422161 134812 net.cpp:606] inception_4e/3x3 <- inception_4e/3x3_reduce
I0331 18:47:46.422169 134812 net.cpp:579] inception_4e/3x3 -> inception_4e/3x3
I0331 18:47:46.422173 134812 net.cpp:582] From AppendTop @cpu: 0
I0331 18:47:46.441475 134812 net.cpp:219] Setting up inception_4e/3x3
I0331 18:47:46.441506 134812 net.cpp:226] Top shape: 28 320 14 14 (1756160)
I0331 18:47:46.441511 134812 net.cpp:234] Memory required for data: 1435315400
I0331 18:47:46.441525 134812 net.cpp:154] Setting up Layer of device :0 @cpu 0 Layer : inception_4e/relu_3x3
I0331 18:47:46.441530 134812 layer_factory.hpp:114] Creating layer inception_4e/relu_3x3
I0331 18:47:46.441543 134812 net.cpp:169] Creating Layer inception_4e/relu_3x3
I0331 18:47:46.441552 134812 net.cpp:606] inception_4e/relu_3x3 <- inception_4e/3x3
I0331 18:47:46.441560 134812 net.cpp:566] inception_4e/relu_3x3 -> inception_4e/3x3 (in-place)
I0331 18:47:46.441578 134812 net.cpp:219] Setting up inception_4e/relu_3x3
I0331 18:47:46.441583 134812 net.cpp:226] Top shape: 28 320 14 14 (1756160)
I0331 18:47:46.441587 134812 net.cpp:234] Memory required for data: 1442340040
I0331 18:47:46.441592 134812 net.cpp:154] Setting up Layer of device :0 @cpu 0 Layer : inception_4e/5x5_reduce
I0331 18:47:46.441596 134812 layer_factory.hpp:114] Creating layer inception_4e/5x5_reduce
I0331 18:47:46.441606 134812 net.cpp:169] Creating Layer inception_4e/5x5_reduce
I0331 18:47:46.441612 134812 net.cpp:606] inception_4e/5x5_reduce <- inception_4d/output_inception_4d/output_0_split_3
I0331 18:47:46.441622 134812 net.cpp:579] inception_4e/5x5_reduce -> inception_4e/5x5_reduce
I0331 18:47:46.441630 134812 net.cpp:582] From AppendTop @cpu: 0
I0331 18:47:46.444550 134812 net.cpp:219] Setting up inception_4e/5x5_reduce
I0331 18:47:46.444561 134812 net.cpp:226] Top shape: 28 32 14 14 (175616)
I0331 18:47:46.444564 134812 net.cpp:234] Memory required for data: 1443042504
I0331 18:47:46.444572 134812 net.cpp:154] Setting up Layer of device :0 @cpu 0 Layer : inception_4e/relu_5x5_reduce
I0331 18:47:46.444577 134812 layer_factory.hpp:114] Creating layer inception_4e/relu_5x5_reduce
I0331 18:47:46.444586 134812 net.cpp:169] Creating Layer inception_4e/relu_5x5_reduce
I0331 18:47:46.444591 134812 net.cpp:606] inception_4e/relu_5x5_reduce <- inception_4e/5x5_reduce
I0331 18:47:46.444595 134812 net.cpp:566] inception_4e/relu_5x5_reduce -> inception_4e/5x5_reduce (in-place)
I0331 18:47:46.444602 134812 net.cpp:219] Setting up inception_4e/relu_5x5_reduce
I0331 18:47:46.444607 134812 net.cpp:226] Top shape: 28 32 14 14 (175616)
I0331 18:47:46.444612 134812 net.cpp:234] Memory required for data: 1443744968
I0331 18:47:46.444615 134812 net.cpp:154] Setting up Layer of device :0 @cpu 0 Layer : inception_4e/5x5
I0331 18:47:46.444619 134812 layer_factory.hpp:114] Creating layer inception_4e/5x5
I0331 18:47:46.444641 134812 net.cpp:169] Creating Layer inception_4e/5x5
I0331 18:47:46.444648 134812 net.cpp:606] inception_4e/5x5 <- inception_4e/5x5_reduce
I0331 18:47:46.444654 134812 net.cpp:579] inception_4e/5x5 -> inception_4e/5x5
I0331 18:47:46.444658 134812 net.cpp:582] From AppendTop @cpu: 0
I0331 18:47:46.451273 134812 net.cpp:219] Setting up inception_4e/5x5
I0331 18:47:46.451284 134812 net.cpp:226] Top shape: 28 128 14 14 (702464)
I0331 18:47:46.451288 134812 net.cpp:234] Memory required for data: 1446554824
I0331 18:47:46.451298 134812 net.cpp:154] Setting up Layer of device :0 @cpu 0 Layer : inception_4e/relu_5x5
I0331 18:47:46.451320 134812 layer_factory.hpp:114] Creating layer inception_4e/relu_5x5
I0331 18:47:46.451326 134812 net.cpp:169] Creating Layer inception_4e/relu_5x5
I0331 18:47:46.451331 134812 net.cpp:606] inception_4e/relu_5x5 <- inception_4e/5x5
I0331 18:47:46.451339 134812 net.cpp:566] inception_4e/relu_5x5 -> inception_4e/5x5 (in-place)
I0331 18:47:46.451345 134812 net.cpp:219] Setting up inception_4e/relu_5x5
I0331 18:47:46.451350 134812 net.cpp:226] Top shape: 28 128 14 14 (702464)
I0331 18:47:46.451354 134812 net.cpp:234] Memory required for data: 1449364680
I0331 18:47:46.451359 134812 net.cpp:154] Setting up Layer of device :0 @cpu 0 Layer : inception_4e/pool
I0331 18:47:46.451364 134812 layer_factory.hpp:114] Creating layer inception_4e/pool
I0331 18:47:46.451403 134812 net.cpp:169] Creating Layer inception_4e/pool
I0331 18:47:46.451408 134812 net.cpp:606] inception_4e/pool <- inception_4d/output_inception_4d/output_0_split_4
I0331 18:47:46.451417 134812 net.cpp:579] inception_4e/pool -> inception_4e/pool
I0331 18:47:46.451421 134812 net.cpp:582] From AppendTop @cpu: 0
I0331 18:47:46.451431 134812 net.cpp:219] Setting up inception_4e/pool
I0331 18:47:46.451437 134812 net.cpp:226] Top shape: 28 528 14 14 (2897664)
I0331 18:47:46.451442 134812 net.cpp:234] Memory required for data: 1460955336
I0331 18:47:46.451447 134812 net.cpp:154] Setting up Layer of device :0 @cpu 0 Layer : inception_4e/pool_proj
I0331 18:47:46.451450 134812 layer_factory.hpp:114] Creating layer inception_4e/pool_proj
I0331 18:47:46.451464 134812 net.cpp:169] Creating Layer inception_4e/pool_proj
I0331 18:47:46.451468 134812 net.cpp:606] inception_4e/pool_proj <- inception_4e/pool
I0331 18:47:46.451480 134812 net.cpp:579] inception_4e/pool_proj -> inception_4e/pool_proj
I0331 18:47:46.451484 134812 net.cpp:582] From AppendTop @cpu: 0
I0331 18:47:46.456516 134812 net.cpp:219] Setting up inception_4e/pool_proj
I0331 18:47:46.456528 134812 net.cpp:226] Top shape: 28 128 14 14 (702464)
I0331 18:47:46.456532 134812 net.cpp:234] Memory required for data: 1463765192
I0331 18:47:46.456542 134812 net.cpp:154] Setting up Layer of device :0 @cpu 0 Layer : inception_4e/relu_pool_proj
I0331 18:47:46.456545 134812 layer_factory.hpp:114] Creating layer inception_4e/relu_pool_proj
I0331 18:47:46.456552 134812 net.cpp:169] Creating Layer inception_4e/relu_pool_proj
I0331 18:47:46.456557 134812 net.cpp:606] inception_4e/relu_pool_proj <- inception_4e/pool_proj
I0331 18:47:46.456562 134812 net.cpp:566] inception_4e/relu_pool_proj -> inception_4e/pool_proj (in-place)
I0331 18:47:46.456568 134812 net.cpp:219] Setting up inception_4e/relu_pool_proj
I0331 18:47:46.456573 134812 net.cpp:226] Top shape: 28 128 14 14 (702464)
I0331 18:47:46.456576 134812 net.cpp:234] Memory required for data: 1466575048
I0331 18:47:46.456581 134812 net.cpp:154] Setting up Layer of device :0 @cpu 0 Layer : inception_4e/output
I0331 18:47:46.456584 134812 layer_factory.hpp:114] Creating layer inception_4e/output
I0331 18:47:46.456593 134812 net.cpp:169] Creating Layer inception_4e/output
I0331 18:47:46.456596 134812 net.cpp:606] inception_4e/output <- inception_4e/1x1
I0331 18:47:46.456603 134812 net.cpp:606] inception_4e/output <- inception_4e/3x3
I0331 18:47:46.456606 134812 net.cpp:606] inception_4e/output <- inception_4e/5x5
I0331 18:47:46.456611 134812 net.cpp:606] inception_4e/output <- inception_4e/pool_proj
I0331 18:47:46.456620 134812 net.cpp:579] inception_4e/output -> inception_4e/output
I0331 18:47:46.456626 134812 net.cpp:582] From AppendTop @cpu: 0
I0331 18:47:46.456639 134812 net.cpp:219] Setting up inception_4e/output
I0331 18:47:46.456645 134812 net.cpp:226] Top shape: 28 832 14 14 (4566016)
I0331 18:47:46.456648 134812 net.cpp:234] Memory required for data: 1484839112
I0331 18:47:46.456652 134812 net.cpp:154] Setting up Layer of device :0 @cpu 0 Layer : pool4/3x3_s2
I0331 18:47:46.456656 134812 layer_factory.hpp:114] Creating layer pool4/3x3_s2
I0331 18:47:46.456676 134812 net.cpp:169] Creating Layer pool4/3x3_s2
I0331 18:47:46.456681 134812 net.cpp:606] pool4/3x3_s2 <- inception_4e/output
I0331 18:47:46.456699 134812 net.cpp:579] pool4/3x3_s2 -> pool4/3x3_s2
I0331 18:47:46.456703 134812 net.cpp:582] From AppendTop @cpu: 0
I0331 18:47:46.456712 134812 net.cpp:219] Setting up pool4/3x3_s2
I0331 18:47:46.456718 134812 net.cpp:226] Top shape: 28 832 7 7 (1141504)
I0331 18:47:46.456722 134812 net.cpp:234] Memory required for data: 1489405128
I0331 18:47:46.456727 134812 net.cpp:154] Setting up Layer of device :0 @cpu 0 Layer : pool4/3x3_s2_pool4/3x3_s2_0_split
I0331 18:47:46.456730 134812 layer_factory.hpp:114] Creating layer pool4/3x3_s2_pool4/3x3_s2_0_split
I0331 18:47:46.456738 134812 net.cpp:169] Creating Layer pool4/3x3_s2_pool4/3x3_s2_0_split
I0331 18:47:46.456743 134812 net.cpp:606] pool4/3x3_s2_pool4/3x3_s2_0_split <- pool4/3x3_s2
I0331 18:47:46.456750 134812 net.cpp:579] pool4/3x3_s2_pool4/3x3_s2_0_split -> pool4/3x3_s2_pool4/3x3_s2_0_split_0
I0331 18:47:46.456754 134812 net.cpp:582] From AppendTop @cpu: 0
I0331 18:47:46.456760 134812 net.cpp:579] pool4/3x3_s2_pool4/3x3_s2_0_split -> pool4/3x3_s2_pool4/3x3_s2_0_split_1
I0331 18:47:46.456764 134812 net.cpp:582] From AppendTop @cpu: 0
I0331 18:47:46.456770 134812 net.cpp:579] pool4/3x3_s2_pool4/3x3_s2_0_split -> pool4/3x3_s2_pool4/3x3_s2_0_split_2
I0331 18:47:46.456774 134812 net.cpp:582] From AppendTop @cpu: 0
I0331 18:47:46.456780 134812 net.cpp:579] pool4/3x3_s2_pool4/3x3_s2_0_split -> pool4/3x3_s2_pool4/3x3_s2_0_split_3
I0331 18:47:46.456784 134812 net.cpp:582] From AppendTop @cpu: 0
I0331 18:47:46.456795 134812 net.cpp:219] Setting up pool4/3x3_s2_pool4/3x3_s2_0_split
I0331 18:47:46.456800 134812 net.cpp:226] Top shape: 28 832 7 7 (1141504)
I0331 18:47:46.456805 134812 net.cpp:226] Top shape: 28 832 7 7 (1141504)
I0331 18:47:46.456810 134812 net.cpp:226] Top shape: 28 832 7 7 (1141504)
I0331 18:47:46.456815 134812 net.cpp:226] Top shape: 28 832 7 7 (1141504)
I0331 18:47:46.456818 134812 net.cpp:234] Memory required for data: 1507669192
I0331 18:47:46.456822 134812 net.cpp:154] Setting up Layer of device :0 @cpu 0 Layer : inception_5a/1x1
I0331 18:47:46.456826 134812 layer_factory.hpp:114] Creating layer inception_5a/1x1
I0331 18:47:46.456837 134812 net.cpp:169] Creating Layer inception_5a/1x1
I0331 18:47:46.456842 134812 net.cpp:606] inception_5a/1x1 <- pool4/3x3_s2_pool4/3x3_s2_0_split_0
I0331 18:47:46.456848 134812 net.cpp:579] inception_5a/1x1 -> inception_5a/1x1
I0331 18:47:46.456852 134812 net.cpp:582] From AppendTop @cpu: 0
I0331 18:47:46.464413 134812 net.cpp:219] Setting up inception_5a/1x1
I0331 18:47:46.464426 134812 net.cpp:226] Top shape: 28 256 7 7 (351232)
I0331 18:47:46.464429 134812 net.cpp:234] Memory required for data: 1509074120
I0331 18:47:46.464438 134812 net.cpp:154] Setting up Layer of device :0 @cpu 0 Layer : inception_5a/relu_1x1
I0331 18:47:46.464443 134812 layer_factory.hpp:114] Creating layer inception_5a/relu_1x1
I0331 18:47:46.464448 134812 net.cpp:169] Creating Layer inception_5a/relu_1x1
I0331 18:47:46.464453 134812 net.cpp:606] inception_5a/relu_1x1 <- inception_5a/1x1
I0331 18:47:46.464462 134812 net.cpp:566] inception_5a/relu_1x1 -> inception_5a/1x1 (in-place)
I0331 18:47:46.464468 134812 net.cpp:219] Setting up inception_5a/relu_1x1
I0331 18:47:46.464473 134812 net.cpp:226] Top shape: 28 256 7 7 (351232)
I0331 18:47:46.464478 134812 net.cpp:234] Memory required for data: 1510479048
I0331 18:47:46.464481 134812 net.cpp:154] Setting up Layer of device :0 @cpu 0 Layer : inception_5a/3x3_reduce
I0331 18:47:46.464485 134812 layer_factory.hpp:114] Creating layer inception_5a/3x3_reduce
I0331 18:47:46.464495 134812 net.cpp:169] Creating Layer inception_5a/3x3_reduce
I0331 18:47:46.464499 134812 net.cpp:606] inception_5a/3x3_reduce <- pool4/3x3_s2_pool4/3x3_s2_0_split_1
I0331 18:47:46.464509 134812 net.cpp:579] inception_5a/3x3_reduce -> inception_5a/3x3_reduce
I0331 18:47:46.464511 134812 net.cpp:582] From AppendTop @cpu: 0
I0331 18:47:46.470309 134812 net.cpp:219] Setting up inception_5a/3x3_reduce
I0331 18:47:46.470321 134812 net.cpp:226] Top shape: 28 160 7 7 (219520)
I0331 18:47:46.470340 134812 net.cpp:234] Memory required for data: 1511357128
I0331 18:47:46.470348 134812 net.cpp:154] Setting up Layer of device :0 @cpu 0 Layer : inception_5a/relu_3x3_reduce
I0331 18:47:46.470352 134812 layer_factory.hpp:114] Creating layer inception_5a/relu_3x3_reduce
I0331 18:47:46.470358 134812 net.cpp:169] Creating Layer inception_5a/relu_3x3_reduce
I0331 18:47:46.470363 134812 net.cpp:606] inception_5a/relu_3x3_reduce <- inception_5a/3x3_reduce
I0331 18:47:46.470369 134812 net.cpp:566] inception_5a/relu_3x3_reduce -> inception_5a/3x3_reduce (in-place)
I0331 18:47:46.470376 134812 net.cpp:219] Setting up inception_5a/relu_3x3_reduce
I0331 18:47:46.470381 134812 net.cpp:226] Top shape: 28 160 7 7 (219520)
I0331 18:47:46.470384 134812 net.cpp:234] Memory required for data: 1512235208
I0331 18:47:46.470389 134812 net.cpp:154] Setting up Layer of device :0 @cpu 0 Layer : inception_5a/3x3
I0331 18:47:46.470393 134812 layer_factory.hpp:114] Creating layer inception_5a/3x3
I0331 18:47:46.470403 134812 net.cpp:169] Creating Layer inception_5a/3x3
I0331 18:47:46.470407 134812 net.cpp:606] inception_5a/3x3 <- inception_5a/3x3_reduce
I0331 18:47:46.470414 134812 net.cpp:579] inception_5a/3x3 -> inception_5a/3x3
I0331 18:47:46.470417 134812 net.cpp:582] From AppendTop @cpu: 0
I0331 18:47:46.485060 134812 net.cpp:219] Setting up inception_5a/3x3
I0331 18:47:46.485082 134812 net.cpp:226] Top shape: 28 320 7 7 (439040)
I0331 18:47:46.485086 134812 net.cpp:234] Memory required for data: 1513991368
I0331 18:47:46.485102 134812 net.cpp:154] Setting up Layer of device :0 @cpu 0 Layer : inception_5a/relu_3x3
I0331 18:47:46.485107 134812 layer_factory.hpp:114] Creating layer inception_5a/relu_3x3
I0331 18:47:46.485115 134812 net.cpp:169] Creating Layer inception_5a/relu_3x3
I0331 18:47:46.485121 134812 net.cpp:606] inception_5a/relu_3x3 <- inception_5a/3x3
I0331 18:47:46.485131 134812 net.cpp:566] inception_5a/relu_3x3 -> inception_5a/3x3 (in-place)
I0331 18:47:46.485138 134812 net.cpp:219] Setting up inception_5a/relu_3x3
I0331 18:47:46.485143 134812 net.cpp:226] Top shape: 28 320 7 7 (439040)
I0331 18:47:46.485147 134812 net.cpp:234] Memory required for data: 1515747528
I0331 18:47:46.485152 134812 net.cpp:154] Setting up Layer of device :0 @cpu 0 Layer : inception_5a/5x5_reduce
I0331 18:47:46.485157 134812 layer_factory.hpp:114] Creating layer inception_5a/5x5_reduce
I0331 18:47:46.485167 134812 net.cpp:169] Creating Layer inception_5a/5x5_reduce
I0331 18:47:46.485172 134812 net.cpp:606] inception_5a/5x5_reduce <- pool4/3x3_s2_pool4/3x3_s2_0_split_2
I0331 18:47:46.485180 134812 net.cpp:579] inception_5a/5x5_reduce -> inception_5a/5x5_reduce
I0331 18:47:46.485185 134812 net.cpp:582] From AppendTop @cpu: 0
I0331 18:47:46.487601 134812 net.cpp:219] Setting up inception_5a/5x5_reduce
I0331 18:47:46.487612 134812 net.cpp:226] Top shape: 28 32 7 7 (43904)
I0331 18:47:46.487617 134812 net.cpp:234] Memory required for data: 1515923144
I0331 18:47:46.487627 134812 net.cpp:154] Setting up Layer of device :0 @cpu 0 Layer : inception_5a/relu_5x5_reduce
I0331 18:47:46.487633 134812 layer_factory.hpp:114] Creating layer inception_5a/relu_5x5_reduce
I0331 18:47:46.487639 134812 net.cpp:169] Creating Layer inception_5a/relu_5x5_reduce
I0331 18:47:46.487644 134812 net.cpp:606] inception_5a/relu_5x5_reduce <- inception_5a/5x5_reduce
I0331 18:47:46.487651 134812 net.cpp:566] inception_5a/relu_5x5_reduce -> inception_5a/5x5_reduce (in-place)
I0331 18:47:46.487658 134812 net.cpp:219] Setting up inception_5a/relu_5x5_reduce
I0331 18:47:46.487664 134812 net.cpp:226] Top shape: 28 32 7 7 (43904)
I0331 18:47:46.487668 134812 net.cpp:234] Memory required for data: 1516098760
I0331 18:47:46.487673 134812 net.cpp:154] Setting up Layer of device :0 @cpu 0 Layer : inception_5a/5x5
I0331 18:47:46.487676 134812 layer_factory.hpp:114] Creating layer inception_5a/5x5
I0331 18:47:46.487685 134812 net.cpp:169] Creating Layer inception_5a/5x5
I0331 18:47:46.487689 134812 net.cpp:606] inception_5a/5x5 <- inception_5a/5x5_reduce
I0331 18:47:46.487697 134812 net.cpp:579] inception_5a/5x5 -> inception_5a/5x5
I0331 18:47:46.487712 134812 net.cpp:582] From AppendTop @cpu: 0
I0331 18:47:46.492692 134812 net.cpp:219] Setting up inception_5a/5x5
I0331 18:47:46.492705 134812 net.cpp:226] Top shape: 28 128 7 7 (175616)
I0331 18:47:46.492709 134812 net.cpp:234] Memory required for data: 1516801224
I0331 18:47:46.492718 134812 net.cpp:154] Setting up Layer of device :0 @cpu 0 Layer : inception_5a/relu_5x5
I0331 18:47:46.492722 134812 layer_factory.hpp:114] Creating layer inception_5a/relu_5x5
I0331 18:47:46.492727 134812 net.cpp:169] Creating Layer inception_5a/relu_5x5
I0331 18:47:46.492733 134812 net.cpp:606] inception_5a/relu_5x5 <- inception_5a/5x5
I0331 18:47:46.492738 134812 net.cpp:566] inception_5a/relu_5x5 -> inception_5a/5x5 (in-place)
I0331 18:47:46.492744 134812 net.cpp:219] Setting up inception_5a/relu_5x5
I0331 18:47:46.492749 134812 net.cpp:226] Top shape: 28 128 7 7 (175616)
I0331 18:47:46.492753 134812 net.cpp:234] Memory required for data: 1517503688
I0331 18:47:46.492758 134812 net.cpp:154] Setting up Layer of device :0 @cpu 0 Layer : inception_5a/pool
I0331 18:47:46.492761 134812 layer_factory.hpp:114] Creating layer inception_5a/pool
I0331 18:47:46.492805 134812 net.cpp:169] Creating Layer inception_5a/pool
I0331 18:47:46.492810 134812 net.cpp:606] inception_5a/pool <- pool4/3x3_s2_pool4/3x3_s2_0_split_3
I0331 18:47:46.492815 134812 net.cpp:579] inception_5a/pool -> inception_5a/pool
I0331 18:47:46.492820 134812 net.cpp:582] From AppendTop @cpu: 0
I0331 18:47:46.492835 134812 net.cpp:219] Setting up inception_5a/pool
I0331 18:47:46.492842 134812 net.cpp:226] Top shape: 28 832 7 7 (1141504)
I0331 18:47:46.492846 134812 net.cpp:234] Memory required for data: 1522069704
I0331 18:47:46.492851 134812 net.cpp:154] Setting up Layer of device :0 @cpu 0 Layer : inception_5a/pool_proj
I0331 18:47:46.492854 134812 layer_factory.hpp:114] Creating layer inception_5a/pool_proj
I0331 18:47:46.492863 134812 net.cpp:169] Creating Layer inception_5a/pool_proj
I0331 18:47:46.492867 134812 net.cpp:606] inception_5a/pool_proj <- inception_5a/pool
I0331 18:47:46.492877 134812 net.cpp:579] inception_5a/pool_proj -> inception_5a/pool_proj
I0331 18:47:46.492879 134812 net.cpp:582] From AppendTop @cpu: 0
I0331 18:47:46.498090 134812 net.cpp:219] Setting up inception_5a/pool_proj
I0331 18:47:46.498100 134812 net.cpp:226] Top shape: 28 128 7 7 (175616)
I0331 18:47:46.498105 134812 net.cpp:234] Memory required for data: 1522772168
I0331 18:47:46.498113 134812 net.cpp:154] Setting up Layer of device :0 @cpu 0 Layer : inception_5a/relu_pool_proj
I0331 18:47:46.498117 134812 layer_factory.hpp:114] Creating layer inception_5a/relu_pool_proj
I0331 18:47:46.498123 134812 net.cpp:169] Creating Layer inception_5a/relu_pool_proj
I0331 18:47:46.498128 134812 net.cpp:606] inception_5a/relu_pool_proj <- inception_5a/pool_proj
I0331 18:47:46.498133 134812 net.cpp:566] inception_5a/relu_pool_proj -> inception_5a/pool_proj (in-place)
I0331 18:47:46.498141 134812 net.cpp:219] Setting up inception_5a/relu_pool_proj
I0331 18:47:46.498145 134812 net.cpp:226] Top shape: 28 128 7 7 (175616)
I0331 18:47:46.498149 134812 net.cpp:234] Memory required for data: 1523474632
I0331 18:47:46.498154 134812 net.cpp:154] Setting up Layer of device :0 @cpu 0 Layer : inception_5a/output
I0331 18:47:46.498157 134812 layer_factory.hpp:114] Creating layer inception_5a/output
I0331 18:47:46.498167 134812 net.cpp:169] Creating Layer inception_5a/output
I0331 18:47:46.498172 134812 net.cpp:606] inception_5a/output <- inception_5a/1x1
I0331 18:47:46.498178 134812 net.cpp:606] inception_5a/output <- inception_5a/3x3
I0331 18:47:46.498183 134812 net.cpp:606] inception_5a/output <- inception_5a/5x5
I0331 18:47:46.498188 134812 net.cpp:606] inception_5a/output <- inception_5a/pool_proj
I0331 18:47:46.498193 134812 net.cpp:579] inception_5a/output -> inception_5a/output
I0331 18:47:46.498196 134812 net.cpp:582] From AppendTop @cpu: 0
I0331 18:47:46.498205 134812 net.cpp:219] Setting up inception_5a/output
I0331 18:47:46.498210 134812 net.cpp:226] Top shape: 28 832 7 7 (1141504)
I0331 18:47:46.498222 134812 net.cpp:234] Memory required for data: 1528040648
I0331 18:47:46.498227 134812 net.cpp:154] Setting up Layer of device :0 @cpu 0 Layer : inception_5a/output_inception_5a/output_0_split
I0331 18:47:46.498231 134812 layer_factory.hpp:114] Creating layer inception_5a/output_inception_5a/output_0_split
I0331 18:47:46.498239 134812 net.cpp:169] Creating Layer inception_5a/output_inception_5a/output_0_split
…
I0331 18:47:46.498263 134812 net.cpp:582] From AppendTop @cpu: 0
I0331 18:47:46.498270 134812 net.cpp:579] inception_5a/output_inception_5a/output_0_split -> inception_5a/output_inception_5a/output_0_split_2
I0331 18:47:46.498273 134812 net.cpp:582] From AppendTop @cpu: 0
I0331 18:47:46.498280 134812 net.cpp:579] inception_5a/output_inception_5a/output_0_split -> inception_5a/output_inception_5a/output_0_split_3
I0331 18:47:46.498283 134812 net.cpp:582] From AppendTop @cpu: 0
I0331 18:47:46.498293 134812 net.cpp:219] Setting up inception_5a/output_inception_5a/output_0_split
I0331 18:47:46.498301 134812 net.cpp:226] Top shape: 28 832 7 7 (1141504)
I0331 18:47:46.498306 134812 net.cpp:226] Top shape: 28 832 7 7 (1141504)
I0331 18:47:46.498311 134812 net.cpp:226] Top shape: 28 832 7 7 (1141504)
I0331 18:47:46.498316 134812 net.cpp:226] Top shape: 28 832 7 7 (1141504)
I0331 18:47:46.498319 134812 net.cpp:234] Memory required for data: 1546304712
I0331 18:47:46.498323 134812 net.cpp:154] Setting up Layer of device :0 @cpu 0 Layer : inception_5b/1x1
I0331 18:47:46.498327 134812 layer_factory.hpp:114] Creating layer inception_5b/1x1
I0331 18:47:46.498335 134812 net.cpp:169] Creating Layer inception_5b/1x1
I0331 18:47:46.498340 134812 net.cpp:606] inception_5b/1x1 <- inception_5a/output_inception_5a/output_0_split_0
I0331 18:47:46.498348 134812 net.cpp:579] inception_5b/1x1 -> inception_5b/1x1
I0331 18:47:46.498353 134812 net.cpp:582] From AppendTop @cpu: 0
I0331 18:47:46.508771 134812 net.cpp:219] Setting up inception_5b/1x1
I0331 18:47:46.508785 134812 net.cpp:226] Top shape: 28 384 7 7 (526848)
I0331 18:47:46.508790 134812 net.cpp:234] Memory required for data: 1548412104
I0331 18:47:46.508798 134812 net.cpp:154] Setting up Layer of device :0 @cpu 0 Layer : inception_5b/relu_1x1
I0331 18:47:46.508802 134812 layer_factory.hpp:114] Creating layer inception_5b/relu_1x1
I0331 18:47:46.508810 134812 net.cpp:169] Creating Layer inception_5b/relu_1x1
I0331 18:47:46.508815 134812 net.cpp:606] inception_5b/relu_1x1 <- inception_5b/1x1
I0331 18:47:46.508821 134812 net.cpp:566] inception_5b/relu_1x1 -> inception_5b/1x1 (in-place)
I0331 18:47:46.508827 134812 net.cpp:219] Setting up inception_5b/relu_1x1
I0331 18:47:46.508832 134812 net.cpp:226] Top shape: 28 384 7 7 (526848)
I0331 18:47:46.508836 134812 net.cpp:234] Memory required for data: 1550519496
I0331 18:47:46.508841 134812 net.cpp:154] Setting up Layer of device :0 @cpu 0 Layer : inception_5b/3x3_reduce
I0331 18:47:46.508844 134812 layer_factory.hpp:114] Creating layer inception_5b/3x3_reduce
I0331 18:47:46.508857 134812 net.cpp:169] Creating Layer inception_5b/3x3_reduce
I0331 18:47:46.508862 134812 net.cpp:606] inception_5b/3x3_reduce <- inception_5a/output_inception_5a/output_0_split_1
I0331 18:47:46.508868 134812 net.cpp:579] inception_5b/3x3_reduce -> inception_5b/3x3_reduce
I0331 18:47:46.508872 134812 net.cpp:582] From AppendTop @cpu: 0
I0331 18:47:46.515249 134812 net.cpp:219] Setting up inception_5b/3x3_reduce
I0331 18:47:46.515260 134812 net.cpp:226] Top shape: 28 192 7 7 (263424)
I0331 18:47:46.515264 134812 net.cpp:234] Memory required for data: 1551573192
I0331 18:47:46.515286 134812 net.cpp:154] Setting up Layer of device :0 @cpu 0 Layer : inception_5b/relu_3x3_reduce
I0331 18:47:46.515290 134812 layer_factory.hpp:114] Creating layer inception_5b/relu_3x3_reduce
…
I0331 18:47:47.000301 134812 net.cpp:566] inception_4d/relu_5x5 -> inception_4d/5x5 (in-place)
I0331 18:47:47.000308 134812 net.cpp:219] Setting up inception_4d/relu_5x5
I0331 18:47:47.000329 134812 net.cpp:226] Top shape: 50 64 14 14 (627200)
I0331 18:47:47.000332 134812 net.cpp:234] Memory required for data: 2365909212
I0331 18:47:47.000337 134812 net.cpp:154] Setting up Layer of device :0 @cpu 0 Layer : inception_4d/pool
I0331 18:47:47.000342 134812 layer_factory.hpp:114] Creating layer inception_4d/pool
I0331 18:47:47.000380 134812 net.cpp:169] Creating Layer inception_4d/pool
I0331 18:47:47.000385 134812 net.cpp:606] inception_4d/pool <- inception_4c/output_inception_4c/output_0_split_3
I0331 18:47:47.000393 134812 net.cpp:579] inception_4d/pool -> inception_4d/pool
I0331 18:47:47.000397 134812 net.cpp:582] From AppendTop @cpu: 0
I0331 18:47:47.000409 134812 net.cpp:219] Setting up inception_4d/pool
I0331 18:47:47.000414 134812 net.cpp:226] Top shape: 50 512 14 14 (5017600)
I0331 18:47:47.000418 134812 net.cpp:234] Memory required for data: 2385979612
I0331 18:47:47.000422 134812 net.cpp:154] Setting up Layer of device :0 @cpu 0 Layer : inception_4d/pool_proj
I0331 18:47:47.000427 134812 layer_factory.hpp:114] Creating layer inception_4d/pool_proj
I0331 18:47:47.000440 134812 net.cpp:169] Creating Layer inception_4d/pool_proj
I0331 18:47:47.000445 134812 net.cpp:606] inception_4d/pool_proj <- inception_4d/pool
I0331 18:47:47.000452 134812 net.cpp:579] inception_4d/pool_proj -> inception_4d/pool_proj
I0331 18:47:47.000458 134812 net.cpp:582] From AppendTop @cpu: 0
I0331 18:47:47.003942 134812 net.cpp:219] Setting up inception_4d/pool_proj
I0331 18:47:47.003959 134812 net.cpp:226] Top shape: 50 64 14 14 (627200)
I0331 18:47:47.003962 134812 net.cpp:234] Memory required for data: 2388488412
I0331 18:47:47.003973 134812 net.cpp:154] Setting up Layer of device :0 @cpu 0 Layer : inception_4d/relu_pool_proj
I0331 18:47:47.003976 134812 layer_factory.hpp:114] Creating layer inception_4d/relu_pool_proj
I0331 18:47:47.003983 134812 net.cpp:169] Creating Layer inception_4d/relu_pool_proj
I0331 18:47:47.003988 134812 net.cpp:606] inception_4d/relu_pool_proj <- inception_4d/pool_proj
I0331 18:47:47.003994 134812 net.cpp:566] inception_4d/relu_pool_proj -> inception_4d/pool_proj (in-place)
I0331 18:47:47.004001 134812 net.cpp:219] Setting up inception_4d/relu_pool_proj
I0331 18:47:47.004006 134812 net.cpp:226] Top shape: 50 64 14 14 (627200)
I0331 18:47:47.004010 134812 net.cpp:234] Memory required for data: 2390997212
I0331 18:47:47.004015 134812 net.cpp:154] Setting up Layer of device :0 @cpu 0 Layer : inception_4d/output
I0331 18:47:47.004019 134812 layer_factory.hpp:114] Creating layer inception_4d/output
I0331 18:47:47.004027 134812 net.cpp:169] Creating Layer inception_4d/output
I0331 18:47:47.004031 134812 net.cpp:606] inception_4d/output <- inception_4d/1x1
I0331 18:47:47.004036 134812 net.cpp:606] inception_4d/output <- inception_4d/3x3
I0331 18:47:47.004041 134812 net.cpp:606] inception_4d/output <- inception_4d/5x5
I0331 18:47:47.004046 134812 net.cpp:606] inception_4d/output <- inception_4d/pool_proj
I0331 18:47:47.004055 134812 net.cpp:579] inception_4d/output -> inception_4d/output
I0331 18:47:47.004058 134812 net.cpp:582] From AppendTop @cpu: 0
I0331 18:47:47.004067 134812 net.cpp:219] Setting up inception_4d/output
I0331 18:47:47.004073 134812 net.cpp:226] Top shape: 50 528 14 14 (5174400)
I0331 18:47:47.004077 134812 net.cpp:234] Memory required for data: 2411694812
I0331 18:47:47.004081 134812 net.cpp:154] Setting up Layer of device :0 @cpu 0 Layer : inception_4d/output_inception_4d/output_0_split
I0331 18:47:47.004086 134812 layer_factory.hpp:114] Creating layer inception_4d/output_inception_4d/output_0_split
I0331 18:47:47.004094 134812 net.cpp:169] Creating Layer inception_4d/output_inception_4d/output_0_split
…
I0331 18:47:47.004140 134812 net.cpp:582] From AppendTop @cpu: 0
I0331 18:47:47.004148 134812 net.cpp:579] inception_4d/output_inception_4d/output_0_split -> inception_4d/output_inception_4d/output_0_split_3
I0331 18:47:47.004150 134812 net.cpp:582] From AppendTop @cpu: 0
I0331 18:47:47.004156 134812 net.cpp:579] inception_4d/output_inception_4d/output_0_split -> inception_4d/output_inception_4d/output_0_split_4
I0331 18:47:47.004160 134812 net.cpp:582] From AppendTop @cpu: 0
I0331 18:47:47.004171 134812 net.cpp:219] Setting up inception_4d/output_inception_4d/output_0_split
I0331 18:47:47.004176 134812 net.cpp:226] Top shape: 50 528 14 14 (5174400)
I0331 18:47:47.004181 134812 net.cpp:226] Top shape: 50 528 14 14 (5174400)
I0331 18:47:47.004186 134812 net.cpp:226] Top shape: 50 528 14 14 (5174400)
I0331 18:47:47.004191 134812 net.cpp:226] Top shape: 50 528 14 14 (5174400)
I0331 18:47:47.004195 134812 net.cpp:226] Top shape: 50 528 14 14 (5174400)
I0331 18:47:47.004199 134812 net.cpp:234] Memory required for data: 2515182812
I0331 18:47:47.004204 134812 net.cpp:154] Setting up Layer of device :0 @cpu 0 Layer : loss2/ave_pool
I0331 18:47:47.004207 134812 layer_factory.hpp:114] Creating layer loss2/ave_pool
I0331 18:47:47.004233 134812 net.cpp:169] Creating Layer loss2/ave_pool
I0331 18:47:47.004238 134812 net.cpp:606] loss2/ave_pool <- inception_4d/output_inception_4d/output_0_split_0
I0331 18:47:47.004248 134812 net.cpp:579] loss2/ave_pool -> loss2/ave_pool
I0331 18:47:47.004252 134812 net.cpp:582] From AppendTop @cpu: 0
I0331 18:47:47.004261 134812 net.cpp:219] Setting up loss2/ave_pool
I0331 18:47:47.004266 134812 net.cpp:226] Top shape: 50 528 4 4 (422400)
I0331 18:47:47.004271 134812 net.cpp:234] Memory required for data: 2516872412
I0331 18:47:47.004276 134812 net.cpp:154] Setting up Layer of device :0 @cpu 0 Layer : loss2/conv
I0331 18:47:47.004279 134812 layer_factory.hpp:114] Creating layer loss2/conv
I0331 18:47:47.004290 134812 net.cpp:169] Creating Layer loss2/conv
I0331 18:47:47.004294 134812 net.cpp:606] loss2/conv <- loss2/ave_pool
I0331 18:47:47.004302 134812 net.cpp:579] loss2/conv -> loss2/conv
I0331 18:47:47.004307 134812 net.cpp:582] From AppendTop @cpu: 0
I0331 18:47:47.006891 134812 net.cpp:219] Setting up loss2/conv
I0331 18:47:47.006901 134812 net.cpp:226] Top shape: 50 128 4 4 (102400)
I0331 18:47:47.006904 134812 net.cpp:234] Memory required for data: 2517282012
I0331 18:47:47.006914 134812 net.cpp:154] Setting up Layer of device :0 @cpu 0 Layer : loss2/relu_conv
I0331 18:47:47.006918 134812 layer_factory.hpp:114] Creating layer loss2/relu_conv
I0331 18:47:47.006924 134812 net.cpp:169] Creating Layer loss2/relu_conv
I0331 18:47:47.006929 134812 net.cpp:606] loss2/relu_conv <- loss2/conv
I0331 18:47:47.006937 134812 net.cpp:566] loss2/relu_conv -> loss2/conv (in-place)
I0331 18:47:47.006944 134812 net.cpp:219] Setting up loss2/relu_conv
I0331 18:47:47.006949 134812 net.cpp:226] Top shape: 50 128 4 4 (102400)
I0331 18:47:47.006953 134812 net.cpp:234] Memory required for data: 2517691612
I0331 18:47:47.006958 134812 net.cpp:154] Setting up Layer of device :0 @cpu 0 Layer : loss2/fc
I0331 18:47:47.006961 134812 layer_factory.hpp:114] Creating layer loss2/fc
I0331 18:47:47.006974 134812 net.cpp:169] Creating Layer loss2/fc
I0331 18:47:47.006978 134812 net.cpp:606] loss2/fc <- loss2/conv
I0331 18:47:47.006988 134812 net.cpp:579] loss2/fc -> loss2/fc
I0331 18:47:47.006991 134812 net.cpp:582] From AppendTop @cpu: 0
I0331 18:47:47.026794 134812 net.cpp:219] Setting up loss2/fc
I0331 18:47:47.026806 134812 net.cpp:226] Top shape: 50 1024 (51200)
I0331 18:47:47.026809 134812 net.cpp:234] Memory required for data: 2517896412
I0331 18:47:47.026818 134812 net.cpp:154] Setting up Layer of device :0 @cpu 0 Layer : loss2/relu_fc
I0331 18:47:47.026830 134812 layer_factory.hpp:114] Creating layer loss2/relu_fc
I0331 18:47:47.026837 134812 net.cpp:169] Creating Layer loss2/relu_fc
I0331 18:47:47.026842 134812 net.cpp:606] loss2/relu_fc <- loss2/fc
I0331 18:47:47.026847 134812 net.cpp:566] loss2/relu_fc -> loss2/fc (in-place)
I0331 18:47:47.026854 134812 net.cpp:219] Setting up loss2/relu_fc
I0331 18:47:47.026860 134812 net.cpp:226] Top shape: 50 1024 (51200)
I0331 18:47:47.026863 134812 net.cpp:234] Memory required for data: 2518101212
I0331 18:47:47.026868 134812 net.cpp:154] Setting up Layer of device :0 @cpu 0 Layer : loss2/drop_fc
I0331 18:47:47.026872 134812 layer_factory.hpp:114] Creating layer loss2/drop_fc
I0331 18:47:47.026882 134812 net.cpp:169] Creating Layer loss2/drop_fc
I0331 18:47:47.026886 134812 net.cpp:606] loss2/drop_fc <- loss2/fc
I0331 18:47:47.026892 134812 net.cpp:566] loss2/drop_fc -> loss2/fc (in-place)
I0331 18:47:47.026901 134812 net.cpp:219] Setting up loss2/drop_fc
I0331 18:47:47.026906 134812 net.cpp:226] Top shape: 50 1024 (51200)
I0331 18:47:47.026909 134812 net.cpp:234] Memory required for data: 2518306012
I0331 18:47:47.026913 134812 net.cpp:154] Setting up Layer of device :0 @cpu 0 Layer : loss2/classifier
I0331 18:47:47.026917 134812 layer_factory.hpp:114] Creating layer loss2/classifier
I0331 18:47:47.026926 134812 net.cpp:169] Creating Layer loss2/classifier
I0331 18:47:47.026929 134812 net.cpp:606] loss2/classifier <- loss2/fc
I0331 18:47:47.026935 134812 net.cpp:579] loss2/classifier -> loss2/classifier
I0331 18:47:47.026942 134812 net.cpp:582] From AppendTop @cpu: 0
I0331 18:47:47.036857 134812 net.cpp:219] Setting up loss2/classifier
I0331 18:47:47.036867 134812 net.cpp:226] Top shape: 50 1000 (50000)
I0331 18:47:47.036871 134812 net.cpp:234] Memory required for data: 2518506012
I0331 18:47:47.036880 134812 net.cpp:154] Setting up Layer of device :0 @cpu 0 Layer : loss2/classifier_loss2/classifier_0_split
I0331 18:47:47.036885 134812 layer_factory.hpp:114] Creating layer loss2/classifier_loss2/classifier_0_split
I0331 18:47:47.036891 134812 net.cpp:169] Creating Layer loss2/classifier_loss2/classifier_0_split
I0331 18:47:47.036896 134812 net.cpp:606] loss2/classifier_loss2/classifier_0_split <- loss2/classifier
I0331 18:47:47.036902 134812 net.cpp:579] loss2/classifier_loss2/classifier_0_split -> loss2/classifier_loss2/classifier_0_split_0
I0331 18:47:47.036906 134812 net.cpp:582] From AppendTop @cpu: 0
I0331 18:47:47.036913 134812 net.cpp:579] loss2/classifier_loss2/classifier_0_split -> loss2/classifier_loss2/classifier_0_split_1
I0331 18:47:47.036917 134812 net.cpp:582] From AppendTop @cpu: 0
I0331 18:47:47.036923 134812 net.cpp:579] loss2/classifier_loss2/classifier_0_split -> loss2/classifier_loss2/classifier_0_split_2
I0331 18:47:47.036927 134812 net.cpp:582] From AppendTop @cpu: 0
I0331 18:47:47.036934 134812 net.cpp:219] Setting up loss2/classifier_loss2/classifier_0_split
I0331 18:47:47.036939 134812 net.cpp:226] Top shape: 50 1000 (50000)
I0331 18:47:47.036944 134812 net.cpp:226] Top shape: 50 1000 (50000)
I0331 18:47:47.036948 134812 net.cpp:226] Top shape: 50 1000 (50000)
I0331 18:47:47.036952 134812 net.cpp:234] Memory required for data: 2519106012
I0331 18:47:47.036957 134812 net.cpp:154] Setting up Layer of device :0 @cpu 0 Layer : loss2/loss
I0331 18:47:47.036959 134812 layer_factory.hpp:114] Creating layer loss2/loss
I0331 18:47:47.036968 134812 net.cpp:169] Creating Layer loss2/loss
I0331 18:47:47.036973 134812 net.cpp:606] loss2/loss <- loss2/classifier_loss2/classifier_0_split_0
…
I0331 18:47:47.037307 134812 net.cpp:154] Setting up Layer of device :0 @cpu 0 Layer : inception_4e/1x1
I0331 18:47:47.037312 134812 layer_factory.hpp:114] Creating layer inception_4e/1x1
I0331 18:47:47.037323 134812 net.cpp:169] Creating Layer inception_4e/1x1
I0331 18:47:47.037328 134812 net.cpp:606] inception_4e/1x1 <- inception_4d/output_inception_4d/output_0_split_1
I0331 18:47:47.037336 134812 net.cpp:579] inception_4e/1x1 -> inception_4e/1x1
I0331 18:47:47.037340 134812 net.cpp:582] From AppendTop @cpu: 0
I0331 18:47:47.043634 134812 net.cpp:219] Setting up inception_4e/1x1
I0331 18:47:47.043648 134812 net.cpp:226] Top shape: 50 256 14 14 (2508800)
I0331 18:47:47.043651 134812 net.cpp:234] Memory required for data: 2529141224
I0331 18:47:47.043660 134812 net.cpp:154] Setting up Layer of device :0 @cpu 0 Layer : inception_4e/relu_1x1
I0331 18:47:47.043665 134812 layer_factory.hpp:114] Creating layer inception_4e/relu_1x1
I0331 18:47:47.043671 134812 net.cpp:169] Creating Layer inception_4e/relu_1x1
I0331 18:47:47.043676 134812 net.cpp:606] inception_4e/relu_1x1 <- inception_4e/1x1
I0331 18:47:47.043681 134812 net.cpp:566] inception_4e/relu_1x1 -> inception_4e/1x1 (in-place)
I0331 18:47:47.043689 134812 net.cpp:219] Setting up inception_4e/relu_1x1
I0331 18:47:47.043694 134812 net.cpp:226] Top shape: 50 256 14 14 (2508800)
I0331 18:47:47.043697 134812 net.cpp:234] Memory required for data: 2539176424
I0331 18:47:47.043702 134812 net.cpp:154] Setting up Layer of device :0 @cpu 0 Layer : inception_4e/3x3_reduce
I0331 18:47:47.043706 134812 layer_factory.hpp:114] Creating layer inception_4e/3x3_reduce
I0331 18:47:47.043723 134812 net.cpp:169] Creating Layer inception_4e/3x3_reduce
I0331 18:47:47.043727 134812 net.cpp:606] inception_4e/3x3_reduce <- inception_4d/output_inception_4d/output_0_split_2
I0331 18:47:47.043737 134812 net.cpp:579] inception_4e/3x3_reduce -> inception_4e/3x3_reduce
I0331 18:47:47.043740 134812 net.cpp:582] From AppendTop @cpu: 0
I0331 18:47:47.048946 134812 net.cpp:219] Setting up inception_4e/3x3_reduce
I0331 18:47:47.048957 134812 net.cpp:226] Top shape: 50 160 14 14 (1568000)
I0331 18:47:47.048961 134812 net.cpp:234] Memory required for data: 2545448424
I0331 18:47:47.048971 134812 net.cpp:154] Setting up Layer of device :0 @cpu 0 Layer : inception_4e/relu_3x3_reduce
I0331 18:47:47.048975 134812 layer_factory.hpp:114] Creating layer inception_4e/relu_3x3_reduce
I0331 18:47:47.048981 134812 net.cpp:169] Creating Layer inception_4e/relu_3x3_reduce
I0331 18:47:47.048997 134812 net.cpp:606] inception_4e/relu_3x3_reduce <- inception_4e/3x3_reduce
I0331 18:47:47.049006 134812 net.cpp:566] inception_4e/relu_3x3_reduce -> inception_4e/3x3_reduce (in-place)
I0331 18:47:47.049013 134812 net.cpp:219] Setting up inception_4e/relu_3x3_reduce
I0331 18:47:47.049019 134812 net.cpp:226] Top shape: 50 160 14 14 (1568000)
I0331 18:47:47.049022 134812 net.cpp:234] Memory required for data: 2551720424
I0331 18:47:47.049027 134812 net.cpp:154] Setting up Layer of device :0 @cpu 0 Layer : inception_4e/3x3
I0331 18:47:47.049031 134812 layer_factory.hpp:114] Creating layer inception_4e/3x3
I0331 18:47:47.049041 134812 net.cpp:169] Creating Layer inception_4e/3x3
I0331 18:47:47.049044 134812 net.cpp:606] inception_4e/3x3 <- inception_4e/3x3_reduce
I0331 18:47:47.049051 134812 net.cpp:579] inception_4e/3x3 -> inception_4e/3x3
I0331 18:47:47.049057 134812 net.cpp:582] From AppendTop @cpu: 0
I0331 18:47:47.067698 134812 net.cpp:219] Setting up inception_4e/3x3
I0331 18:47:47.067728 134812 net.cpp:226] Top shape: 50 320 14 14 (3136000)
I0331 18:47:47.067733 134812 net.cpp:234] Memory required for data: 2564264424
I0331 18:47:47.067747 134812 net.cpp:154] Setting up Layer of device :0 @cpu 0 Layer : inception_4e/relu_3x3
I0331 18:47:47.067754 134812 layer_factory.hpp:114] Creating layer inception_4e/relu_3x3
I0331 18:47:47.067762 134812 net.cpp:169] Creating Layer inception_4e/relu_3x3
I0331 18:47:47.067770 134812 net.cpp:606] inception_4e/relu_3x3 <- inception_4e/3x3
I0331 18:47:47.067786 134812 net.cpp:566] inception_4e/relu_3x3 -> inception_4e/3x3 (in-place)
I0331 18:47:47.067797 134812 net.cpp:219] Setting up inception_4e/relu_3x3
I0331 18:47:47.067802 134812 net.cpp:226] Top shape: 50 320 14 14 (3136000)
I0331 18:47:47.067806 134812 net.cpp:234] Memory required for data: 2576808424
I0331 18:47:47.067811 134812 net.cpp:154] Setting up Layer of device :0 @cpu 0 Layer : inception_4e/5x5_reduce
I0331 18:47:47.067816 134812 layer_factory.hpp:114] Creating layer inception_4e/5x5_reduce
I0331 18:47:47.067828 134812 net.cpp:169] Creating Layer inception_4e/5x5_reduce
I0331 18:47:47.067833 134812 net.cpp:606] inception_4e/5x5_reduce <- inception_4d/output_inception_4d/output_0_split_3
I0331 18:47:47.067842 134812 net.cpp:579] inception_4e/5x5_reduce -> inception_4e/5x5_reduce
I0331 18:47:47.067845 134812 net.cpp:582] From AppendTop @cpu: 0
I0331 18:47:47.071262 134812 net.cpp:219] Setting up inception_4e/5x5_reduce
I0331 18:47:47.071276 134812 net.cpp:226] Top shape: 50 32 14 14 (313600)
I0331 18:47:47.071280 134812 net.cpp:234] Memory required for data: 2578062824
I0331 18:47:47.071290 134812 net.cpp:154] Setting up Layer of device :0 @cpu 0 Layer : inception_4e/relu_5x5_reduce
I0331 18:47:47.071293 134812 layer_factory.hpp:114] Creating layer inception_4e/relu_5x5_reduce
I0331 18:47:47.071300 134812 net.cpp:169] Creating Layer inception_4e/relu_5x5_reduce
I0331 18:47:47.071305 134812 net.cpp:606] inception_4e/relu_5x5_reduce <- inception_4e/5x5_reduce
I0331 18:47:47.071310 134812 net.cpp:566] inception_4e/relu_5x5_reduce -> inception_4e/5x5_reduce (in-place)
I0331 18:47:47.071316 134812 net.cpp:219] Setting up inception_4e/relu_5x5_reduce
I0331 18:47:47.071321 134812 net.cpp:226] Top shape: 50 32 14 14 (313600)
I0331 18:47:47.071326 134812 net.cpp:234] Memory required for data: 2579317224
I0331 18:47:47.071329 134812 net.cpp:154] Setting up Layer of device :0 @cpu 0 Layer : inception_4e/5x5
I0331 18:47:47.071333 134812 layer_factory.hpp:114] Creating layer inception_4e/5x5
I0331 18:47:47.071344 134812 net.cpp:169] Creating Layer inception_4e/5x5
I0331 18:47:47.071348 134812 net.cpp:606] inception_4e/5x5 <- inception_4e/5x5_reduce
I0331 18:47:47.071357 134812 net.cpp:579] inception_4e/5x5 -> inception_4e/5x5
I0331 18:47:47.071360 134812 net.cpp:582] From AppendTop @cpu: 0
I0331 18:47:47.077937 134812 net.cpp:219] Setting up inception_4e/5x5
I0331 18:47:47.077949 134812 net.cpp:226] Top shape: 50 128 14 14 (1254400)
I0331 18:47:47.077952 134812 net.cpp:234] Memory required for data: 2584334824
I0331 18:47:47.077977 134812 net.cpp:154] Setting up Layer of device :0 @cpu 0 Layer : inception_4e/relu_5x5
I0331 18:47:47.077982 134812 layer_factory.hpp:114] Creating layer inception_4e/relu_5x5
I0331 18:47:47.077991 134812 net.cpp:169] Creating Layer inception_4e/relu_5x5
I0331 18:47:47.077994 134812 net.cpp:606] inception_4e/relu_5x5 <- inception_4e/5x5
I0331 18:47:47.078001 134812 net.cpp:566] inception_4e/relu_5x5 -> inception_4e/5x5 (in-place)
I0331 18:47:47.078006 134812 net.cpp:219] Setting up inception_4e/relu_5x5
I0331 18:47:47.078011 134812 net.cpp:226] Top shape: 50 128 14 14 (1254400)
I0331 18:47:47.078016 134812 net.cpp:234] Memory required for data: 2589352424
I0331 18:47:47.078021 134812 net.cpp:154] Setting up Layer of device :0 @cpu 0 Layer : inception_4e/pool
I0331 18:47:47.078024 134812 layer_factory.hpp:114] Creating layer inception_4e/pool
I0331 18:47:47.078063 134812 net.cpp:169] Creating Layer inception_4e/pool
I0331 18:47:47.078068 134812 net.cpp:606] inception_4e/pool <- inception_4d/output_inception_4d/output_0_split_4
I0331 18:47:47.078074 134812 net.cpp:579] inception_4e/pool -> inception_4e/pool
I0331 18:47:47.078078 134812 net.cpp:582] From AppendTop @cpu: 0
I0331 18:47:47.078088 134812 net.cpp:219] Setting up inception_4e/pool
I0331 18:47:47.078094 134812 net.cpp:226] Top shape: 50 528 14 14 (5174400)
I0331 18:47:47.078097 134812 net.cpp:234] Memory required for data: 2610050024
I0331 18:47:47.078102 134812 net.cpp:154] Setting up Layer of device :0 @cpu 0 Layer : inception_4e/pool_proj
I0331 18:47:47.078111 134812 layer_factory.hpp:114] Creating layer inception_4e/pool_proj
I0331 18:47:47.078125 134812 net.cpp:169] Creating Layer inception_4e/pool_proj
I0331 18:47:47.078128 134812 net.cpp:606] inception_4e/pool_proj <- inception_4e/pool
I0331 18:47:47.078135 134812 net.cpp:579] inception_4e/pool_proj -> inception_4e/pool_proj
I0331 18:47:47.078140 134812 net.cpp:582] From AppendTop @cpu: 0
I0331 18:47:47.082657 134812 net.cpp:219] Setting up inception_4e/pool_proj
I0331 18:47:47.082669 134812 net.cpp:226] Top shape: 50 128 14 14 (1254400)
I0331 18:47:47.082674 134812 net.cpp:234] Memory required for data: 2615067624
I0331 18:47:47.082682 134812 net.cpp:154] Setting up Layer of device :0 @cpu 0 Layer : inception_4e/relu_pool_proj
I0331 18:47:47.082686 134812 layer_factory.hpp:114] Creating layer inception_4e/relu_pool_proj
I0331 18:47:47.082692 134812 net.cpp:169] Creating Layer inception_4e/relu_pool_proj
I0331 18:47:47.082697 134812 net.cpp:606] inception_4e/relu_pool_proj <- inception_4e/pool_proj
I0331 18:47:47.082703 134812 net.cpp:566] inception_4e/relu_pool_proj -> inception_4e/pool_proj (in-place)
I0331 18:47:47.082710 134812 net.cpp:219] Setting up inception_4e/relu_pool_proj
I0331 18:47:47.082715 134812 net.cpp:226] Top shape: 50 128 14 14 (1254400)
I0331 18:47:47.082718 134812 net.cpp:234] Memory required for data: 2620085224
I0331 18:47:47.082723 134812 net.cpp:154] Setting up Layer of device :0 @cpu 0 Layer : inception_4e/output
I0331 18:47:47.082726 134812 layer_factory.hpp:114] Creating layer inception_4e/output
I0331 18:47:47.082734 134812 net.cpp:169] Creating Layer inception_4e/output
I0331 18:47:47.082739 134812 net.cpp:606] inception_4e/output <- inception_4e/1x1
I0331 18:47:47.082744 134812 net.cpp:606] inception_4e/output <- inception_4e/3x3
I0331 18:47:47.082749 134812 net.cpp:606] inception_4e/output <- inception_4e/5x5
I0331 18:47:47.082756 134812 net.cpp:606] inception_4e/output <- inception_4e/pool_proj
I0331 18:47:47.082761 134812 net.cpp:579] inception_4e/output -> inception_4e/output
I0331 18:47:47.082764 134812 net.cpp:582] From AppendTop @cpu: 0
I0331 18:47:47.082774 134812 net.cpp:219] Setting up inception_4e/output
I0331 18:47:47.082779 134812 net.cpp:226] Top shape: 50 832 14 14 (8153600)
I0331 18:47:47.082783 134812 net.cpp:234] Memory required for data: 2652699624
I0331 18:47:47.082787 134812 net.cpp:154] Setting up Layer of device :0 @cpu 0 Layer : pool4/3x3_s2
I0331 18:47:47.082792 134812 layer_factory.hpp:114] Creating layer pool4/3x3_s2
I0331 18:47:47.082818 134812 net.cpp:169] Creating Layer pool4/3x3_s2
I0331 18:47:47.082823 134812 net.cpp:606] pool4/3x3_s2 <- inception_4e/output
I0331 18:47:47.082830 134812 net.cpp:579] pool4/3x3_s2 -> pool4/3x3_s2
I0331 18:47:47.082834 134812 net.cpp:582] From AppendTop @cpu: 0
I0331 18:47:47.082844 134812 net.cpp:219] Setting up pool4/3x3_s2
I0331 18:47:47.082849 134812 net.cpp:226] Top shape: 50 832 7 7 (2038400)
I0331 18:47:47.082852 134812 net.cpp:234] Memory required for data: 2660853224
I0331 18:47:47.082859 134812 net.cpp:154] Setting up Layer of device :0 @cpu 0 Layer : pool4/3x3_s2_pool4/3x3_s2_0_split
I0331 18:47:47.082862 134812 layer_factory.hpp:114] Creating layer pool4/3x3_s2_pool4/3x3_s2_0_split
I0331 18:47:47.082870 134812 net.cpp:169] Creating Layer pool4/3x3_s2_pool4/3x3_s2_0_split
I0331 18:47:47.082873 134812 net.cpp:606] pool4/3x3_s2_pool4/3x3_s2_0_split <- pool4/3x3_s2
I0331 18:47:47.082880 134812 net.cpp:579] pool4/3x3_s2_pool4/3x3_s2_0_split -> pool4/3x3_s2_pool4/3x3_s2_0_split_0
I0331 18:47:47.082886 134812 net.cpp:582] From AppendTop @cpu: 0
I0331 18:47:47.082893 134812 net.cpp:579] pool4/3x3_s2_pool4/3x3_s2_0_split -> pool4/3x3_s2_pool4/3x3_s2_0_split_1
I0331 18:47:47.082896 134812 net.cpp:582] From AppendTop @cpu: 0
I0331 18:47:47.082903 134812 net.cpp:579] pool4/3x3_s2_pool4/3x3_s2_0_split -> pool4/3x3_s2_pool4/3x3_s2_0_split_2
I0331 18:47:47.082906 134812 net.cpp:582] From AppendTop @cpu: 0
I0331 18:47:47.082921 134812 net.cpp:579] pool4/3x3_s2_pool4/3x3_s2_0_split -> pool4/3x3_s2_pool4/3x3_s2_0_split_3
I0331 18:47:47.082927 134812 net.cpp:582] From AppendTop @cpu: 0
I0331 18:47:47.082937 134812 net.cpp:219] Setting up pool4/3x3_s2_pool4/3x3_s2_0_split
I0331 18:47:47.082942 134812 net.cpp:226] Top shape: 50 832 7 7 (2038400)
I0331 18:47:47.082947 134812 net.cpp:226] Top shape: 50 832 7 7 (2038400)
I0331 18:47:47.082953 134812 net.cpp:226] Top shape: 50 832 7 7 (2038400)
I0331 18:47:47.082958 134812 net.cpp:226] Top shape: 50 832 7 7 (2038400)
I0331 18:47:47.082962 134812 net.cpp:234] Memory required for data: 2693467624
I0331 18:47:47.082967 134812 net.cpp:154] Setting up Layer of device :0 @cpu 0 Layer : inception_5a/1x1
I0331 18:47:47.082970 134812 layer_factory.hpp:114] Creating layer inception_5a/1x1
I0331 18:47:47.082979 134812 net.cpp:169] Creating Layer inception_5a/1x1
I0331 18:47:47.082984 134812 net.cpp:606] inception_5a/1x1 <- pool4/3x3_s2_pool4/3x3_s2_0_split_0
I0331 18:47:47.082993 134812 net.cpp:579] inception_5a/1x1 -> inception_5a/1x1
I0331 18:47:47.082996 134812 net.cpp:582] From AppendTop @cpu: 0
I0331 18:47:47.090530 134812 net.cpp:219] Setting up inception_5a/1x1
I0331 18:47:47.090543 134812 net.cpp:226] Top shape: 50 256 7 7 (627200)
I0331 18:47:47.090548 134812 net.cpp:234] Memory required for data: 2695976424
I0331 18:47:47.090556 134812 net.cpp:154] Setting up Layer of device :0 @cpu 0 Layer : inception_5a/relu_1x1
I0331 18:47:47.090561 134812 layer_factory.hpp:114] Creating layer inception_5a/relu_1x1
I0331 18:47:47.090567 134812 net.cpp:169] Creating Layer inception_5a/relu_1x1
I0331 18:47:47.090572 134812 net.cpp:606] inception_5a/relu_1x1 <- inception_5a/1x1
I0331 18:47:47.090579 134812 net.cpp:566] inception_5a/relu_1x1 -> inception_5a/1x1 (in-place)
I0331 18:47:47.090585 134812 net.cpp:219] Setting up inception_5a/relu_1x1
I0331 18:47:47.090590 134812 net.cpp:226] Top shape: 50 256 7 7 (627200)
I0331 18:47:47.090595 134812 net.cpp:234] Memory required for data: 2698485224
I0331 18:47:47.090600 134812 net.cpp:154] Setting up Layer of device :0 @cpu 0 Layer : inception_5a/3x3_reduce
I0331 18:47:47.090603 134812 layer_factory.hpp:114] Creating layer inception_5a/3x3_reduce
I0331 18:47:47.090615 134812 net.cpp:169] Creating Layer inception_5a/3x3_reduce
I0331 18:47:47.090618 134812 net.cpp:606] inception_5a/3x3_reduce <- pool4/3x3_s2_pool4/3x3_s2_0_split_1
I0331 18:47:47.090628 134812 net.cpp:579] inception_5a/3x3_reduce -> inception_5a/3x3_reduce
I0331 18:47:47.090634 134812 net.cpp:582] From AppendTop @cpu: 0
I0331 18:47:47.095894 134812 net.cpp:219] Setting up inception_5a/3x3_reduce
I0331 18:47:47.095916 134812 net.cpp:226] Top shape: 50 160 7 7 (392000)
I0331 18:47:47.095921 134812 net.cpp:234] Memory required for data: 2700053224
I0331 18:47:47.095929 134812 net.cpp:154] Setting up Layer of device :0 @cpu 0 Layer : inception_5a/relu_3x3_reduce
I0331 18:47:47.095933 134812 layer_factory.hpp:114] Creating layer inception_5a/relu_3x3_reduce
I0331 18:47:47.095942 134812 net.cpp:169] Creating Layer inception_5a/relu_3x3_reduce
I0331 18:47:47.095947 134812 net.cpp:606] inception_5a/relu_3x3_reduce <- inception_5a/3x3_reduce
I0331 18:47:47.095952 134812 net.cpp:566] inception_5a/relu_3x3_reduce -> inception_5a/3x3_reduce (in-place)
I0331 18:47:47.095958 134812 net.cpp:219] Setting up inception_5a/relu_3x3_reduce
I0331 18:47:47.095964 134812 net.cpp:226] Top shape: 50 160 7 7 (392000)
I0331 18:47:47.095968 134812 net.cpp:234] Memory required for data: 2701621224
I0331 18:47:47.095973 134812 net.cpp:154] Setting up Layer of device :0 @cpu 0 Layer : inception_5a/3x3
I0331 18:47:47.095975 134812 layer_factory.hpp:114] Creating layer inception_5a/3x3
I0331 18:47:47.095984 134812 net.cpp:169] Creating Layer inception_5a/3x3
I0331 18:47:47.095988 134812 net.cpp:606] inception_5a/3x3 <- inception_5a/3x3_reduce
I0331 18:47:47.095998 134812 net.cpp:579] inception_5a/3x3 -> inception_5a/3x3
I0331 18:47:47.096000 134812 net.cpp:582] From AppendTop @cpu: 0
I0331 18:47:47.111110 134812 net.cpp:219] Setting up inception_5a/3x3
I0331 18:47:47.111135 134812 net.cpp:226] Top shape: 50 320 7 7 (784000)
I0331 18:47:47.111145 134812 net.cpp:234] Memory required for data: 2704757224
I0331 18:47:47.111155 134812 net.cpp:154] Setting up Layer of device :0 @cpu 0 Layer : inception_5a/relu_3x3
I0331 18:47:47.111160 134812 layer_factory.hpp:114] Creating layer inception_5a/relu_3x3
I0331 18:47:47.111167 134812 net.cpp:169] Creating Layer inception_5a/relu_3x3
I0331 18:47:47.111173 134812 net.cpp:606] inception_5a/relu_3x3 <- inception_5a/3x3
I0331 18:47:47.111181 134812 net.cpp:566] inception_5a/relu_3x3 -> inception_5a/3x3 (in-place)
I0331 18:47:47.111188 134812 net.cpp:219] Setting up inception_5a/relu_3x3
I0331 18:47:47.111193 134812 net.cpp:226] Top shape: 50 320 7 7 (784000)
I0331 18:47:47.111197 134812 net.cpp:234] Memory required for data: 2707893224
I0331 18:47:47.111202 134812 net.cpp:154] Setting up Layer of device :0 @cpu 0 Layer : inception_5a/5x5_reduce
I0331 18:47:47.111205 134812 layer_factory.hpp:114] Creating layer inception_5a/5x5_reduce
I0331 18:47:47.111217 134812 net.cpp:169] Creating Layer inception_5a/5x5_reduce
I0331 18:47:47.111222 134812 net.cpp:606] inception_5a/5x5_reduce <- pool4/3x3_s2_pool4/3x3_s2_0_split_2
I0331 18:47:47.111230 134812 net.cpp:579] inception_5a/5x5_reduce -> inception_5a/5x5_reduce
I0331 18:47:47.111233 134812 net.cpp:582] From AppendTop @cpu: 0
I0331 18:47:47.113622 134812 net.cpp:219] Setting up inception_5a/5x5_reduce
I0331 18:47:47.113634 134812 net.cpp:226] Top shape: 50 32 7 7 (78400)
I0331 18:47:47.113637 134812 net.cpp:234] Memory required for data: 2708206824
I0331 18:47:47.113646 134812 net.cpp:154] Setting up Layer of device :0 @cpu 0 Layer : inception_5a/relu_5x5_reduce
I0331 18:47:47.113651 134812 layer_factory.hpp:114] Creating layer inception_5a/relu_5x5_reduce
I0331 18:47:47.113656 134812 net.cpp:169] Creating Layer inception_5a/relu_5x5_reduce
I0331 18:47:47.113662 134812 net.cpp:606] inception_5a/relu_5x5_reduce <- inception_5a/5x5_reduce
I0331 18:47:47.113668 134812 net.cpp:566] inception_5a/relu_5x5_reduce -> inception_5a/5x5_reduce (in-place)
I0331 18:47:47.113675 134812 net.cpp:219] Setting up inception_5a/relu_5x5_reduce
I0331 18:47:47.113680 134812 net.cpp:226] Top shape: 50 32 7 7 (78400)
I0331 18:47:47.113683 134812 net.cpp:234] Memory required for data: 2708520424
I0331 18:47:47.113688 134812 net.cpp:154] Setting up Layer of device :0 @cpu 0 Layer : inception_5a/5x5
I0331 18:47:47.113692 134812 layer_factory.hpp:114] Creating layer inception_5a/5x5
I0331 18:47:47.113703 134812 net.cpp:169] Creating Layer inception_5a/5x5
I0331 18:47:47.113719 134812 net.cpp:606] inception_5a/5x5 <- inception_5a/5x5_reduce
I0331 18:47:47.113726 134812 net.cpp:579] inception_5a/5x5 -> inception_5a/5x5
I0331 18:47:47.113732 134812 net.cpp:582] From AppendTop @cpu: 0
I0331 18:47:47.118206 134812 net.cpp:219] Setting up inception_5a/5x5
I0331 18:47:47.118216 134812 net.cpp:226] Top shape: 50 128 7 7 (313600)
I0331 18:47:47.118219 134812 net.cpp:234] Memory required for data: 2709774824
I0331 18:47:47.118227 134812 net.cpp:154] Setting up Layer of device :0 @cpu 0 Layer : inception_5a/relu_5x5
I0331 18:47:47.118232 134812 layer_factory.hpp:114] Creating layer inception_5a/relu_5x5
I0331 18:47:47.118237 134812 net.cpp:169] Creating Layer inception_5a/relu_5x5
I0331 18:47:47.118242 134812 net.cpp:606] inception_5a/relu_5x5 <- inception_5a/5x5
I0331 18:47:47.118250 134812 net.cpp:566] inception_5a/relu_5x5 -> inception_5a/5x5 (in-place)
I0331 18:47:47.118257 134812 net.cpp:219] Setting up inception_5a/relu_5x5
I0331 18:47:47.118261 134812 net.cpp:226] Top shape: 50 128 7 7 (313600)
I0331 18:47:47.118265 134812 net.cpp:234] Memory required for data: 2711029224
I0331 18:47:47.118269 134812 net.cpp:154] Setting up Layer of device :0 @cpu 0 Layer : inception_5a/pool
I0331 18:47:47.118273 134812 layer_factory.hpp:114] Creating layer inception_5a/pool
I0331 18:47:47.118312 134812 net.cpp:169] Creating Layer inception_5a/pool
I0331 18:47:47.118317 134812 net.cpp:606] inception_5a/pool <- pool4/3x3_s2_pool4/3x3_s2_0_split_3
I0331 18:47:47.118324 134812 net.cpp:579] inception_5a/pool -> inception_5a/pool
I0331 18:47:47.118335 134812 net.cpp:582] From AppendTop @cpu: 0
I0331 18:47:47.118346 134812 net.cpp:219] Setting up inception_5a/pool
I0331 18:47:47.118352 134812 net.cpp:226] Top shape: 50 832 7 7 (2038400)
I0331 18:47:47.118356 134812 net.cpp:234] Memory required for data: 2719182824
I0331 18:47:47.118361 134812 net.cpp:154] Setting up Layer of device :0 @cpu 0 Layer : inception_5a/pool_proj
I0331 18:47:47.118366 134812 layer_factory.hpp:114] Creating layer inception_5a/pool_proj
I0331 18:47:47.118376 134812 net.cpp:169] Creating Layer inception_5a/pool_proj
I0331 18:47:47.118381 134812 net.cpp:606] inception_5a/pool_proj <- inception_5a/pool
I0331 18:47:47.118387 134812 net.cpp:579] inception_5a/pool_proj -> inception_5a/pool_proj
I0331 18:47:47.118391 134812 net.cpp:582] From AppendTop @cpu: 0
I0331 18:47:47.123070 134812 net.cpp:219] Setting up inception_5a/pool_proj
I0331 18:47:47.123081 134812 net.cpp:226] Top shape: 50 128 7 7 (313600)
I0331 18:47:47.123085 134812 net.cpp:234] Memory required for data: 2720437224
I0331 18:47:47.123093 134812 net.cpp:154] Setting up Layer of device :0 @cpu 0 Layer : inception_5a/relu_pool_proj
I0331 18:47:47.123097 134812 layer_factory.hpp:114] Creating layer inception_5a/relu_pool_proj
I0331 18:47:47.123103 134812 net.cpp:169] Creating Layer inception_5a/relu_pool_proj
I0331 18:47:47.123107 134812 net.cpp:606] inception_5a/relu_pool_proj <- inception_5a/pool_proj
I0331 18:47:47.123113 134812 net.cpp:566] inception_5a/relu_pool_proj -> inception_5a/pool_proj (in-place)
I0331 18:47:47.123121 134812 net.cpp:219] Setting up inception_5a/relu_pool_proj
I0331 18:47:47.123126 134812 net.cpp:226] Top shape: 50 128 7 7 (313600)
I0331 18:47:47.123128 134812 net.cpp:234] Memory required for data: 2721691624
I0331 18:47:47.123133 134812 net.cpp:154] Setting up Layer of device :0 @cpu 0 Layer : inception_5a/output
I0331 18:47:47.123137 134812 layer_factory.hpp:114] Creating layer inception_5a/output
I0331 18:47:47.123144 134812 net.cpp:169] Creating Layer inception_5a/output
I0331 18:47:47.123148 134812 net.cpp:606] inception_5a/output <- inception_5a/1x1
I0331 18:47:47.123153 134812 net.cpp:606] inception_5a/output <- inception_5a/3x3
I0331 18:47:47.123158 134812 net.cpp:606] inception_5a/output <- inception_5a/5x5
I0331 18:47:47.123163 134812 net.cpp:606] inception_5a/output <- inception_5a/pool_proj
I0331 18:47:47.123169 134812 net.cpp:579] inception_5a/output -> inception_5a/output
I0331 18:47:47.123173 134812 net.cpp:582] From AppendTop @cpu: 0
I0331 18:47:47.123193 134812 net.cpp:219] Setting up inception_5a/output
I0331 18:47:47.123198 134812 net.cpp:226] Top shape: 50 832 7 7 (2038400)
I0331 18:47:47.123201 134812 net.cpp:234] Memory required for data: 2729845224
I0331 18:47:47.123206 134812 net.cpp:154] Setting up Layer of device :0 @cpu 0 Layer : inception_5a/output_inception_5a/output_0_split
I0331 18:47:47.123210 134812 layer_factory.hpp:114] Creating layer inception_5a/output_inception_5a/output_0_split
I0331 18:47:47.123219 134812 net.cpp:169] Creating Layer inception_5a/output_inception_5a/output_0_split
…
I0331 18:47:47.123244 134812 net.cpp:582] From AppendTop @cpu: 0
I0331 18:47:47.123250 134812 net.cpp:579] inception_5a/output_inception_5a/output_0_split -> inception_5a/output_inception_5a/output_0_split_2
I0331 18:47:47.123253 134812 net.cpp:582] From AppendTop @cpu: 0
I0331 18:47:47.123260 134812 net.cpp:579] inception_5a/output_inception_5a/output_0_split -> inception_5a/output_inception_5a/output_0_split_3
I0331 18:47:47.123263 134812 net.cpp:582] From AppendTop @cpu: 0
I0331 18:47:47.123276 134812 net.cpp:219] Setting up inception_5a/output_inception_5a/output_0_split
I0331 18:47:47.123281 134812 net.cpp:226] Top shape: 50 832 7 7 (2038400)
I0331 18:47:47.123286 134812 net.cpp:226] Top shape: 50 832 7 7 (2038400)
I0331 18:47:47.123291 134812 net.cpp:226] Top shape: 50 832 7 7 (2038400)
I0331 18:47:47.123296 134812 net.cpp:226] Top shape: 50 832 7 7 (2038400)
I0331 18:47:47.123299 134812 net.cpp:234] Memory required for data: 2762459624
I0331 18:47:47.123303 134812 net.cpp:154] Setting up Layer of device :0 @cpu 0 Layer : inception_5b/1x1
I0331 18:47:47.123307 134812 layer_factory.hpp:114] Creating layer inception_5b/1x1
I0331 18:47:47.123318 134812 net.cpp:169] Creating Layer inception_5b/1x1
I0331 18:47:47.123322 134812 net.cpp:606] inception_5b/1x1 <- inception_5a/output_inception_5a/output_0_split_0
I0331 18:47:47.123329 134812 net.cpp:579] inception_5b/1x1 -> inception_5b/1x1
I0331 18:47:47.123332 134812 net.cpp:582] From AppendTop @cpu: 0
I0331 18:47:47.133741 134812 net.cpp:219] Setting up inception_5b/1x1
I0331 18:47:47.133754 134812 net.cpp:226] Top shape: 50 384 7 7 (940800)
I0331 18:47:47.133757 134812 net.cpp:234] Memory required for data: 2766222824
I0331 18:47:47.133766 134812 net.cpp:154] Setting up Layer of device :0 @cpu 0 Layer : inception_5b/relu_1x1
I0331 18:47:47.133770 134812 layer_factory.hpp:114] Creating layer inception_5b/relu_1x1
I0331 18:47:47.133776 134812 net.cpp:169] Creating Layer inception_5b/relu_1x1
I0331 18:47:47.133781 134812 net.cpp:606] inception_5b/relu_1x1 <- inception_5b/1x1
I0331 18:47:47.133788 134812 net.cpp:566] inception_5b/relu_1x1 -> inception_5b/1x1 (in-place)
I0331 18:47:47.133795 134812 net.cpp:219] Setting up inception_5b/relu_1x1
I0331 18:47:47.133801 134812 net.cpp:226] Top shape: 50 384 7 7 (940800)
I0331 18:47:47.133805 134812 net.cpp:234] Memory required for data: 2769986024
I0331 18:47:47.133808 134812 net.cpp:154] Setting up Layer of device :0 @cpu 0 Layer : inception_5b/3x3_reduce
I0331 18:47:47.133812 134812 layer_factory.hpp:114] Creating layer inception_5b/3x3_reduce
I0331 18:47:47.133821 134812 net.cpp:169] Creating Layer inception_5b/3x3_reduce
I0331 18:47:47.133826 134812 net.cpp:606] inception_5b/3x3_reduce <- inception_5a/output_inception_5a/output_0_split_1
I0331 18:47:47.133836 134812 net.cpp:579] inception_5b/3x3_reduce -> inception_5b/3x3_reduce
I0331 18:47:47.133839 134812 net.cpp:582] From AppendTop @cpu: 0
I0331 18:47:47.139708 134812 net.cpp:219] Setting up inception_5b/3x3_reduce
I0331 18:47:47.139719 134812 net.cpp:226] Top shape: 50 192 7 7 (470400)
I0331 18:47:47.139735 134812 net.cpp:234] Memory required for data: 2771867624
I0331 18:47:47.139744 134812 net.cpp:154] Setting up Layer of device :0 @cpu 0 Layer : inception_5b/relu_3x3_reduce
I0331 18:47:47.139749 134812 layer_factory.hpp:114] Creating layer inception_5b/relu_3x3_reduce
I0331 18:47:47.139755 134812 net.cpp:169] Creating Layer inception_5b/relu_3x3_reduce
I0331 18:47:47.139760 134812 net.cpp:606] inception_5b/relu_3x3_reduce <- inception_5b/3x3_reduce
I0331 18:47:47.139765 134812 net.cpp:566] inception_5b/relu_3x3_reduce -> inception_5b/3x3_reduce (in-place)
I0331 18:47:47.139772 134812 net.cpp:219] Setting up inception_5b/relu_3x3_reduce
I0331 18:47:47.139778 134812 net.cpp:226] Top shape: 50 192 7 7 (470400)
I0331 18:47:47.139781 134812 net.cpp:234] Memory required for data: 2773749224
I0331 18:47:47.139786 134812 net.cpp:154] Setting up Layer of device :0 @cpu 0 Layer : inception_5b/3x3
I0331 18:47:47.139791 134812 layer_factory.hpp:114] Creating layer inception_5b/3x3
I0331 18:47:47.139801 134812 net.cpp:169] Creating Layer inception_5b/3x3
I0331 18:47:47.139806 134812 net.cpp:606] inception_5b/3x3 <- inception_5b/3x3_reduce
I0331 18:47:47.139812 134812 net.cpp:579] inception_5b/3x3 -> inception_5b/3x3
I0331 18:47:47.139816 134812 net.cpp:582] From AppendTop @cpu: 0
I0331 18:47:47.160691 134812 net.cpp:219] Setting up inception_5b/3x3
I0331 18:47:47.160725 134812 net.cpp:226] Top shape: 50 384 7 7 (940800)
I0331 18:47:47.160729 134812 net.cpp:234] Memory required for data: 2777512424
I0331 18:47:47.160753 134812 net.cpp:154] Setting up Layer of device :0 @cpu 0 Layer : inception_5b/relu_3x3
I0331 18:47:47.160758 134812 layer_factory.hpp:114] Creating layer inception_5b/relu_3x3
I0331 18:47:47.160769 134812 net.cpp:169] Creating Layer inception_5b/relu_3x3
I0331 18:47:47.160778 134812 net.cpp:606] inception_5b/relu_3x3 <- inception_5b/3x3
I0331 18:47:47.160786 134812 net.cpp:566] inception_5b/relu_3x3 -> inception_5b/3x3 (in-place)
I0331 18:47:47.160796 134812 net.cpp:219] Setting up inception_5b/relu_3x3
I0331 18:47:47.160801 134812 net.cpp:226] Top shape: 50 384 7 7 (940800)
I0331 18:47:47.160805 134812 net.cpp:234] Memory required for data: 2781275624
I0331 18:47:47.160810 134812 net.cpp:154] Setting up Layer of device :0 @cpu 0 Layer : inception_5b/5x5_reduce
I0331 18:47:47.160815 134812 layer_factory.hpp:114] Creating layer inception_5b/5x5_reduce
I0331 18:47:47.160828 134812 net.cpp:169] Creating Layer inception_5b/5x5_reduce
I0331 18:47:47.160833 134812 net.cpp:606] inception_5b/5x5_reduce <- inception_5a/output_inception_5a/output_0_split_2
I0331 18:47:47.160840 134812 net.cpp:579] inception_5b/5x5_reduce -> inception_5b/5x5_reduce
I0331 18:47:47.160845 134812 net.cpp:582] From AppendTop @cpu: 0
I0331 18:47:47.163779 134812 net.cpp:219] Setting up inception_5b/5x5_reduce
I0331 18:47:47.163790 134812 net.cpp:226] Top shape: 50 48 7 7 (117600)
I0331 18:47:47.163794 134812 net.cpp:234] Memory required for data: 2781746024
I0331 18:47:47.163803 134812 net.cpp:154] Setting up Layer of device :0 @cpu 0 Layer : inception_5b/relu_5x5_reduce
I0331 18:47:47.163806 134812 layer_factory.hpp:114] Creating layer inception_5b/relu_5x5_reduce
I0331 18:47:47.163812 134812 net.cpp:169] Creating Layer inception_5b/relu_5x5_reduce
I0331 18:47:47.163817 134812 net.cpp:606] inception_5b/relu_5x5_reduce <- inception_5b/5x5_reduce
I0331 18:47:47.163823 134812 net.cpp:566] inception_5b/relu_5x5_reduce -> inception_5b/5x5_reduce (in-place)
I0331 18:47:47.163830 134812 net.cpp:219] Setting up inception_5b/relu_5x5_reduce
I0331 18:47:47.163836 134812 net.cpp:226] Top shape: 50 48 7 7 (117600)
I0331 18:47:47.163838 134812 net.cpp:234] Memory required for data: 2782216424
I0331 18:47:47.163843 134812 net.cpp:154] Setting up Layer of device :0 @cpu 0 Layer : inception_5b/5x5
I0331 18:47:47.163847 134812 layer_factory.hpp:114] Creating layer inception_5b/5x5
I0331 18:47:47.163857 134812 net.cpp:169] Creating Layer inception_5b/5x5
I0331 18:47:47.163864 134812 net.cpp:606] inception_5b/5x5 <- inception_5b/5x5_reduce
I0331 18:47:47.163885 134812 net.cpp:579] inception_5b/5x5 -> inception_5b/5x5
I0331 18:47:47.163889 134812 net.cpp:582] From AppendTop @cpu: 0
I0331 18:47:47.170053 134812 net.cpp:219] Setting up inception_5b/5x5
I0331 18:47:47.170063 134812 net.cpp:226] Top shape: 50 128 7 7 (313600)
I0331 18:47:47.170066 134812 net.cpp:234] Memory required for data: 2783470824
I0331 18:47:47.170075 134812 net.cpp:154] Setting up Layer of device :0 @cpu 0 Layer : inception_5b/relu_5x5
I0331 18:47:47.170079 134812 layer_factory.hpp:114] Creating layer inception_5b/relu_5x5
I0331 18:47:47.170087 134812 net.cpp:169] Creating Layer inception_5b/relu_5x5
I0331 18:47:47.170092 134812 net.cpp:606] inception_5b/relu_5x5 <- inception_5b/5x5
I0331 18:47:47.170097 134812 net.cpp:566] inception_5b/relu_5x5 -> inception_5b/5x5 (in-place)
I0331 18:47:47.170104 134812 net.cpp:219] Setting up inception_5b/relu_5x5
I0331 18:47:47.170109 134812 net.cpp:226] Top shape: 50 128 7 7 (313600)
I0331 18:47:47.170114 134812 net.cpp:234] Memory required for data: 2784725224
I0331 18:47:47.170117 134812 net.cpp:154] Setting up Layer of device :0 @cpu 0 Layer : inception_5b/pool
I0331 18:47:47.170121 134812 layer_factory.hpp:114] Creating layer inception_5b/pool
I0331 18:47:47.170159 134812 net.cpp:169] Creating Layer inception_5b/pool
I0331 18:47:47.170164 134812 net.cpp:606] inception_5b/pool <- inception_5a/output_inception_5a/output_0_split_3
I0331 18:47:47.170171 134812 net.cpp:579] inception_5b/pool -> inception_5b/pool
I0331 18:47:47.170178 134812 net.cpp:582] From AppendTop @cpu: 0
I0331 18:47:47.170189 134812 net.cpp:219] Setting up inception_5b/pool
I0331 18:47:47.170195 134812 net.cpp:226] Top shape: 50 832 7 7 (2038400)
I0331 18:47:47.170199 134812 net.cpp:234] Memory required for data: 2792878824
I0331 18:47:47.170203 134812 net.cpp:154] Setting up Layer of device :0 @cpu 0 Layer : inception_5b/pool_proj
I0331 18:47:47.170207 134812 layer_factory.hpp:114] Creating layer inception_5b/pool_proj
I0331 18:47:47.170219 134812 net.cpp:169] Creating Layer inception_5b/pool_proj
I0331 18:47:47.170223 134812 net.cpp:606] inception_5b/pool_proj <- inception_5b/pool
I0331 18:47:47.170233 134812 net.cpp:579] inception_5b/pool_proj -> inception_5b/pool_proj
I0331 18:47:47.170236 134812 net.cpp:582] From AppendTop @cpu: 0
I0331 18:47:47.174907 134812 net.cpp:219] Setting up inception_5b/pool_proj
I0331 18:47:47.174918 134812 net.cpp:226] Top shape: 50 128 7 7 (313600)
I0331 18:47:47.174922 134812 net.cpp:234] Memory required for data: 2794133224
I0331 18:47:47.174932 134812 net.cpp:154] Setting up Layer of device :0 @cpu 0 Layer : inception_5b/relu_pool_proj
I0331 18:47:47.174935 134812 layer_factory.hpp:114] Creating layer inception_5b/relu_pool_proj
I0331 18:47:47.174943 134812 net.cpp:169] Creating Layer inception_5b/relu_pool_proj
I0331 18:47:47.174948 134812 net.cpp:606] inception_5b/relu_pool_proj <- inception_5b/pool_proj
I0331 18:47:47.174953 134812 net.cpp:566] inception_5b/relu_pool_proj -> inception_5b/pool_proj (in-place)
I0331 18:47:47.174960 134812 net.cpp:219] Setting up inception_5b/relu_pool_proj
I0331 18:47:47.174965 134812 net.cpp:226] Top shape: 50 128 7 7 (313600)
I0331 18:47:47.174969 134812 net.cpp:234] Memory required for data: 2795387624
I0331 18:47:47.174973 134812 net.cpp:154] Setting up Layer of device :0 @cpu 0 Layer : inception_5b/output
I0331 18:47:47.174978 134812 layer_factory.hpp:114] Creating layer inception_5b/output
I0331 18:47:47.174985 134812 net.cpp:169] Creating Layer inception_5b/output
I0331 18:47:47.174989 134812 net.cpp:606] inception_5b/output <- inception_5b/1x1
I0331 18:47:47.174995 134812 net.cpp:606] inception_5b/output <- inception_5b/3x3
I0331 18:47:47.174999 134812 net.cpp:606] inception_5b/output <- inception_5b/5x5
I0331 18:47:47.175004 134812 net.cpp:606] inception_5b/output <- inception_5b/pool_proj
I0331 18:47:47.175010 134812 net.cpp:579] inception_5b/output -> inception_5b/output
I0331 18:47:47.175014 134812 net.cpp:582] From AppendTop @cpu: 0
I0331 18:47:47.175032 134812 net.cpp:219] Setting up inception_5b/output
I0331 18:47:47.175038 134812 net.cpp:226] Top shape: 50 1024 7 7 (2508800)
I0331 18:47:47.175042 134812 net.cpp:234] Memory required for data: 2805422824
I0331 18:47:47.175046 134812 net.cpp:154] Setting up Layer of device :0 @cpu 0 Layer : pool5/7x7_s1
I0331 18:47:47.175050 134812 layer_factory.hpp:114] Creating layer pool5/7x7_s1
I0331 18:47:47.175070 134812 net.cpp:169] Creating Layer pool5/7x7_s1
I0331 18:47:47.175074 134812 net.cpp:606] pool5/7x7_s1 <- inception_5b/output
I0331 18:47:47.175083 134812 net.cpp:579] pool5/7x7_s1 -> pool5/7x7_s1
I0331 18:47:47.175086 134812 net.cpp:582] From AppendTop @cpu: 0
I0331 18:47:47.175096 134812 net.cpp:219] Setting up pool5/7x7_s1
I0331 18:47:47.175101 134812 net.cpp:226] Top shape: 50 1024 1 1 (51200)
I0331 18:47:47.175104 134812 net.cpp:234] Memory required for data: 2805627624
I0331 18:47:47.175108 134812 net.cpp:154] Setting up Layer of device :0 @cpu 0 Layer : pool5/drop_7x7_s1
I0331 18:47:47.175112 134812 layer_factory.hpp:114] Creating layer pool5/drop_7x7_s1
I0331 18:47:47.175119 134812 net.cpp:169] Creating Layer pool5/drop_7x7_s1
I0331 18:47:47.175124 134812 net.cpp:606] pool5/drop_7x7_s1 <- pool5/7x7_s1
I0331 18:47:47.175130 134812 net.cpp:566] pool5/drop_7x7_s1 -> pool5/7x7_s1 (in-place)
I0331 18:47:47.175139 134812 net.cpp:219] Setting up pool5/drop_7x7_s1
I0331 18:47:47.175144 134812 net.cpp:226] Top shape: 50 1024 1 1 (51200)
I0331 18:47:47.175148 134812 net.cpp:234] Memory required for data: 2805832424
I0331 18:47:47.175156 134812 net.cpp:154] Setting up Layer of device :0 @cpu 0 Layer : loss3/classifier
I0331 18:47:47.175160 134812 layer_factory.hpp:114] Creating layer loss3/classifier
I0331 18:47:47.175174 134812 net.cpp:169] Creating Layer loss3/classifier
I0331 18:47:47.175179 134812 net.cpp:606] loss3/classifier <- pool5/7x7_s1
I0331 18:47:47.175185 134812 net.cpp:579] loss3/classifier -> loss3/classifier
I0331 18:47:47.175189 134812 net.cpp:582] From AppendTop @cpu: 0
I0331 18:47:47.185113 134812 net.cpp:219] Setting up loss3/classifier
I0331 18:47:47.185124 134812 net.cpp:226] Top shape: 50 1000 (50000)
I0331 18:47:47.185127 134812 net.cpp:234] Memory required for data: 2806032424
I0331 18:47:47.185137 134812 net.cpp:154] Setting up Layer of device :0 @cpu 0 Layer : loss3/classifier_loss3/classifier_0_split
I0331 18:47:47.185140 134812 layer_factory.hpp:114] Creating layer loss3/classifier_loss3/classifier_0_split
I0331 18:47:47.185148 134812 net.cpp:169] Creating Layer loss3/classifier_loss3/classifier_0_split
I0331 18:47:47.185153 134812 net.cpp:606] loss3/classifier_loss3/classifier_0_split <- loss3/classifier
I0331 18:47:47.185163 134812 net.cpp:579] loss3/classifier_loss3/classifier_0_split -> loss3/classifier_loss3/classifier_0_split_0
I0331 18:47:47.185166 134812 net.cpp:582] From AppendTop @cpu: 0
I0331 18:47:47.185174 134812 net.cpp:579] loss3/classifier_loss3/classifier_0_split -> loss3/classifier_loss3/classifier_0_split_1
I0331 18:47:47.185178 134812 net.cpp:582] From AppendTop @cpu: 0
I0331 18:47:47.185184 134812 net.cpp:579] loss3/classifier_loss3/classifier_0_split -> loss3/classifier_loss3/classifier_0_split_2
I0331 18:47:47.185187 134812 net.cpp:582] From AppendTop @cpu: 0
I0331 18:47:47.185195 134812 net.cpp:219] Setting up loss3/classifier_loss3/classifier_0_split
I0331 18:47:47.185200 134812 net.cpp:226] Top shape: 50 1000 (50000)
I0331 18:47:47.185205 134812 net.cpp:226] Top shape: 50 1000 (50000)
I0331 18:47:47.185209 134812 net.cpp:226] Top shape: 50 1000 (50000)
I0331 18:47:47.185212 134812 net.cpp:234] Memory required for data: 2806632424
I0331 18:47:47.185217 134812 net.cpp:154] Setting up Layer of device :0 @cpu 0 Layer : loss3/loss3
I0331 18:47:47.185221 134812 layer_factory.hpp:114] Creating layer loss3/loss3
I0331 18:47:47.185227 134812 net.cpp:169] Creating Layer loss3/loss3
I0331 18:47:47.185231 134812 net.cpp:606] loss3/loss3 <- loss3/classifier_loss3/classifier_0_split_0
…
