…
I0331 19:11:44.166884 136241 net.cpp:493] The NetState phase (0) differed from the phase (1) specified by a rule in layer loss3/top-5
I0331 19:11:44.171147 136241 net.cpp:125] Initializing net from parameters: 
name: "GoogleNet"
state {
  phase: TRAIN
  level: 0
  stage: ""
}
layer {
  name: "data"
  type: "Data"
  top: "data"
  top: "label"
  include {
    phase: TRAIN
  }
  transform_param {
    mirror: true
    crop_size: 224
    mean_value: 104
    mean_value: 117
    mean_value: 123
  }
  data_param {
    source: "/home/user/LIBRARIES/caffeLibs/caffe/examples/imagenet/ilsvrc12_train_lmdb"
    batch_size: 112
    backend: LMDB
  }
}
layer {
  name: "label_data_1_split"
  type: "Split"
  bottom: "label"
  top: "label_data_1_split_0"
  top: "label_data_1_split_1"
  top: "label_data_1_split_2"
}
layer {
  name: "conv1/7x7_s2"
  type: "Convolution"
  bottom: "data"
  top: "conv1/7x7_s2"
  param {
    lr_mult: 1
    decay_mult: 1
  }
  param {
    lr_mult: 2
    decay_mult: 0
  }
  convolution_param {
    num_output: 64
    pad: 3
    kernel_size: 7
    stride: 2
    weight_filler {
      type: "xavier"
    }
    bias_filler {
      type: "constant"
      value: 0.2
    }
  }
}
layer {
  name: "conv1/relu_7x7"
  type: "ReLU"
  bottom: "conv1/7x7_s2"
  top: "conv1/7x7_s2"
}
layer {
  name: "pool1/3x3_s2"
  type: "Pooling"
  bottom: "conv1/7x7_s2"
  top: "pool1/3x3_s2"
  pooling_param {
    pool: MAX
    kernel_size: 3
    stride: 2
  }
}
layer {
  name: "pool1/norm1"
  type: "LRN"
  bottom: "pool1/3x3_s2"
  top: "pool1/norm1"
  lrn_param {
    local_size: 5
    alpha: 0.0001
    beta: 0.75
  }
}
layer {
  name: "conv2/3x3_reduce"
  type: "Convolution"
  bottom: "pool1/norm1"
  top: "conv2/3x3_reduce"
  param {
    lr_mult: 1
    decay_mult: 1
  }
  param {
    lr_mult: 2
    decay_mult: 0
  }
  convolution_param {
    num_output: 64
    kernel_size: 1
    weight_filler {
      type: "xavier"
    }
    bias_filler {
      type: "constant"
      value: 0.2
    }
  }
}
layer {
  name: "conv2/relu_3x3_reduce"
  type: "ReLU"
  bottom: "conv2/3x3_reduce"
  top: "conv2/3x3_reduce"
}
layer {
  name: "conv2/3x3"
  type: "Convolution"
  bottom: "conv2/3x3_reduce"
  top: "conv2/3x3"
  param {
    lr_mult: 1
    decay_mult: 1
  }
  param {
    lr_mult: 2
    decay_mult: 0
  }
  convolution_param {
    num_output: 192
    pad: 1
    kernel_size: 3
    weight_filler {
      type: "xavier"
    }
    bias_filler {
      type: "constant"
      value: 0.2
    }
  }
}
layer {
  name: "conv2/relu_3x3"
  type: "ReLU"
  bottom: "conv2/3x3"
  top: "conv2/3x3"
}
layer {
  name: "conv2/norm2"
  type: "LRN"
  bottom: "conv2/3x3"
  top: "conv2/norm2"
  lrn_param {
    local_size: 5
    alpha: 0.0001
    beta: 0.75
  }
}
layer {
  name: "pool2/3x3_s2"
  type: "Pooling"
  bottom: "conv2/norm2"
  top: "pool2/3x3_s2"
  pooling_param {
    pool: MAX
    kernel_size: 3
    stride: 2
  }
}
layer {
  name: "pool2/3x3_s2_pool2/3x3_s2_0_split"
  type: "Split"
  bottom: "pool2/3x3_s2"
  top: "pool2/3x3_s2_pool2/3x3_s2_0_split_0"
  top: "pool2/3x3_s2_pool2/3x3_s2_0_split_1"
  top: "pool2/3x3_s2_pool2/3x3_s2_0_split_2"
  top: "pool2/3x3_s2_pool2/3x3_s2_0_split_3"
}
layer {
  name: "inception_3a/1x1"
  type: "Convolution"
  bottom: "pool2/3x3_s2_pool2/3x3_s2_0_split_0"
  top: "inception_3a/1x1"
  param {
    lr_mult: 1
    decay_mult: 1
  }
  param {
    lr_mult: 2
    decay_mult: 0
  }
  convolution_param {
    num_output: 64
    kernel_size: 1
    weight_filler {
      type: "xavier"
    }
    bias_filler {
      type: "constant"
      value: 0.2
    }
  }
}
layer {
  name: "inception_3a/relu_1x1"
  type: "ReLU"
  bottom: "inception_3a/1x1"
  top: "inception_3a/1x1"
}
layer {
  name: "inception_3a/3x3_reduce"
  type: "Convolution"
  bottom: "pool2/3x3_s2_pool2/3x3_s2_0_split_1"
  top: "inception_3a/3x3_reduce"
  param {
    lr_mult: 1
    decay_mult: 1
  }
  param {
    lr_mult: 2
    decay_mult: 0
  }
  convolution_param {
    num_output: 96
    kernel_size: 1
    weight_filler {
      type: "xavier"
    }
    bias_filler {
      type: "constant"
      value: 0.2
    }
  }
}
layer {
  name: "inception_3a/relu_3x3_reduce"
  type: "ReLU"
  bottom: "inception_3a/3x3_reduce"
  top: "inception_3a/3x3_reduce"
}
layer {
  name: "inception_3a/3x3"
  type: "Convolution"
  bottom: "inception_3a/3x3_reduce"
  top: "inception_3a/3x3"
  param {
    lr_mult: 1
    decay_mult: 1
  }
  param {
    lr_mult: 2
    decay_mult: 0
  }
  convolution_param {
    num_output: 128
    pad: 1
    kernel_size: 3
    weight_filler {
      type: "xavier"
    }
    bias_filler {
      type: "constant"
      value: 0.2
    }
  }
}
layer {
  name: "inception_3a/relu_3x3"
  type: "ReLU"
  bottom: "inception_3a/3x3"
  top: "inception_3a/3x3"
}
layer {
  name: "inception_3a/5x5_reduce"
  type: "Convolution"
  bottom: "pool2/3x3_s2_pool2/3x3_s2_0_split_2"
  top: "inception_3a/5x5_reduce"
  param {
    lr_mult: 1
    decay_mult: 1
  }
  param {
    lr_mult: 2
    decay_mult: 0
  }
  convolution_param {
    num_output: 16
    kernel_size: 1
    weight_filler {
      type: "xavier"
    }
    bias_filler {
      type: "constant"
      value: 0.2
    }
  }
}
layer {
  name: "inception_3a/relu_5x5_reduce"
  type: "ReLU"
  bottom: "inception_3a/5x5_reduce"
  top: "inception_3a/5x5_reduce"
}
layer {
  name: "inception_3a/5x5"
  type: "Convolution"
  bottom: "inception_3a/5x5_reduce"
  top: "inception_3a/5x5"
  param {
    lr_mult: 1
    decay_mult: 1
  }
  param {
    lr_mult: 2
    decay_mult: 0
  }
  convolution_param {
    num_output: 32
    pad: 2
    kernel_size: 5
    weight_filler {
      type: "xavier"
    }
    bias_filler {
      type: "constant"
      value: 0.2
    }
  }
}
layer {
  name: "inception_3a/relu_5x5"
  type: "ReLU"
  bottom: "inception_3a/5x5"
  top: "inception_3a/5x5"
}
layer {
  name: "inception_3a/pool"
  type: "Pooling"
  bottom: "pool2/3x3_s2_pool2/3x3_s2_0_split_3"
  top: "inception_3a/pool"
  pooling_param {
    pool: MAX
    kernel_size: 3
    stride: 1
    pad: 1
  }
}
layer {
  name: "inception_3a/pool_proj"
  type: "Convolution"
  bottom: "inception_3a/pool"
  top: "inception_3a/pool_proj"
  param {
    lr_mult: 1
    decay_mult: 1
  }
  param {
    lr_mult: 2
    decay_mult: 0
  }
  convolution_param {
    num_output: 32
    kernel_size: 1
    weight_filler {
      type: "xavier"
    }
    bias_filler {
      type: "constant"
      value: 0.2
    }
  }
}
layer {
  name: "inception_3a/relu_pool_proj"
  type: "ReLU"
  bottom: "inception_3a/pool_proj"
  top: "inception_3a/pool_proj"
}
layer {
  name: "inception_3a/output"
  type: "Concat"
  bottom: "inception_3a/1x1"
  bottom: "inception_3a/3x3"
  bottom: "inception_3a/5x5"
  bottom: "inception_3a/pool_proj"
  top: "inception_3a/output"
}
layer {
  name: "inception_3a/output_inception_3a/output_0_split"
  type: "Split"
  bottom: "inception_3a/output"
  top: "inception_3a/output_inception_3a/output_0_split_0"
  top: "inception_3a/output_inception_3a/output_0_split_1"
  top: "inception_3a/output_inception_3a/output_0_split_2"
  top: "inception_3a/output_inception_3a/output_0_split_3"
}
layer {
  name: "inception_3b/1x1"
  type: "Convolution"
  bottom: "inception_3a/output_inception_3a/output_0_split_0"
  top: "inception_3b/1x1"
  param {
    lr_mult: 1
    decay_mult: 1
  }
  param {
    lr_mult: 2
    decay_mult: 0
  }
  convolution_param {
    num_output: 128
    kernel_size: 1
    weight_filler {
      type: "xavier"
    }
    bias_filler {
      type: "constant"
      value: 0.2
    }
  }
}
layer {
  name: "inception_3b/relu_1x1"
  type: "ReLU"
  bottom: "inception_3b/1x1"
  top: "inception_3b/1x1"
}
layer {
  name: "inception_3b/3x3_reduce"
  type: "Convolution"
  bottom: "inception_3a/output_inception_3a/output_0_split_1"
  top: "inception_3b/3x3_reduce"
  param {
    lr_mult: 1
    decay_mult: 1
  }
  param {
    lr_mult: 2
    decay_mult: 0
  }
  convolution_param {
    num_output: 128
    kernel_size: 1
    weight_filler {
      type: "xavier"
    }
    bias_filler {
      type: "constant"
      value: 0.2
    }
  }
}
layer {
  name: "inception_3b/relu_3x3_reduce"
  type: "ReLU"
  bottom: "inception_3b/3x3_reduce"
  top: "inception_3b/3x3_reduce"
}
layer {
  name: "inception_3b/3x3"
  type: "Convolution"
  bottom: "inception_3b/3x3_reduce"
  top: "inception_3b/3x3"
  param {
    lr_mult: 1
    decay_mult: 1
  }
  param {
    lr_mult: 2
    decay_mult: 0
  }
  convolution_param {
    num_output: 192
    pad: 1
    kernel_size: 3
    weight_filler {
      type: "xavier"
    }
    bias_filler {
      type: "constant"
      value: 0.2
    }
  }
}
layer {
  name: "inception_3b/relu_3x3"
  type: "ReLU"
  bottom: "inception_3b/3x3"
  top: "inception_3b/3x3"
}
layer {
  name: "inception_3b/5x5_reduce"
  type: "Convolution"
  bottom: "inception_3a/output_inception_3a/output_0_split_2"
  top: "inception_3b/5x5_reduce"
  param {
    lr_mult: 1
    decay_mult: 1
  }
  param {
    lr_mult: 2
    decay_mult: 0
  }
  convolution_param {
    num_output: 32
    kernel_size: 1
    weight_filler {
      type: "xavier"
    }
    bias_filler {
      type: "constant"
      value: 0.2
    }
  }
}
layer {
  name: "inception_3b/relu_5x5_reduce"
  type: "ReLU"
  bottom: "inception_3b/5x5_reduce"
  top: "inception_3b/5x5_reduce"
}
layer {
  name: "inception_3b/5x5"
  type: "Convolution"
  bottom: "inception_3b/5x5_reduce"
  top: "inception_3b/5x5"
  param {
    lr_mult: 1
    decay_mult: 1
  }
  param {
    lr_mult: 2
    decay_mult: 0
  }
  convolution_param {
    num_output: 96
    pad: 2
    kernel_size: 5
    weight_filler {
      type: "xavier"
    }
    bias_filler {
      type: "constant"
      value: 0.2
    }
  }
}
layer {
  name: "inception_3b/relu_5x5"
  type: "ReLU"
  bottom: "inception_3b/5x5"
  top: "inception_3b/5x5"
}
layer {
  name: "inception_3b/pool"
  type: "Pooling"
  bottom: "inception_3a/output_inception_3a/output_0_split_3"
  top: "inception_3b/pool"
  pooling_param {
    pool: MAX
    kernel_size: 3
    stride: 1
    pad: 1
  }
}
layer {
  name: "inception_3b/pool_proj"
  type: "Convolution"
  bottom: "inception_3b/pool"
  top: "inception_3b/pool_proj"
  param {
    lr_mult: 1
    decay_mult: 1
  }
  param {
    lr_mult: 2
    decay_mult: 0
  }
  convolution_param {
    num_output: 64
    kernel_size: 1
    weight_filler {
      type: "xavier"
    }
    bias_filler {
      type: "constant"
      value: 0.2
    }
  }
}
layer {
  name: "inception_3b/relu_pool_proj"
  type: "ReLU"
  bottom: "inception_3b/pool_proj"
  top: "inception_3b/pool_proj"
}
layer {
  name: "inception_3b/output"
  type: "Concat"
  bottom: "inception_3b/1x1"
  bottom: "inception_3b/3x3"
  bottom: "inception_3b/5x5"
  bottom: "inception_3b/pool_proj"
  top: "inception_3b/output"
}
layer {
  name: "pool3/3x3_s2"
  type: "Pooling"
  bottom: "inception_3b/output"
  top: "pool3/3x3_s2"
  pooling_param {
    pool: MAX
    kernel_size: 3
    stride: 2
  }
}
layer {
  name: "pool3/3x3_s2_pool3/3x3_s2_0_split"
  type: "Split"
  bottom: "pool3/3x3_s2"
  top: "pool3/3x3_s2_pool3/3x3_s2_0_split_0"
  top: "pool3/3x3_s2_pool3/3x3_s2_0_split_1"
  top: "pool3/3x3_s2_pool3/3x3_s2_0_split_2"
  top: "pool3/3x3_s2_pool3/3x3_s2_0_split_3"
}
layer {
  name: "inception_4a/1x1"
  type: "Convolution"
  bottom: "pool3/3x3_s2_pool3/3x3_s2_0_split_0"
  top: "inception_4a/1x1"
  param {
    lr_mult: 1
    decay_mult: 1
  }
  param {
    lr_mult: 2
    decay_mult: 0
  }
  convolution_param {
    num_output: 192
    kernel_size: 1
    weight_filler {
      type: "xavier"
    }
    bias_filler {
      type: "constant"
      value: 0.2
    }
  }
}
layer {
  name: "inception_4a/relu_1x1"
  type: "ReLU"
  bottom: "inception_4a/1x1"
  top: "inception_4a/1x1"
}
layer {
  name: "inception_4a/3x3_reduce"
  type: "Convolution"
  bottom: "pool3/3x3_s2_pool3/3x3_s2_0_split_1"
  top: "inception_4a/3x3_reduce"
  param {
    lr_mult: 1
    decay_mult: 1
  }
  param {
    lr_mult: 2
    decay_mult: 0
  }
  convolution_param {
    num_output: 96
    kernel_size: 1
    weight_filler {
      type: "xavier"
    }
    bias_filler {
      type: "constant"
      value: 0.2
    }
  }
}
layer {
  name: "inception_4a/relu_3x3_reduce"
  type: "ReLU"
  bottom: "inception_4a/3x3_reduce"
  top: "inception_4a/3x3_reduce"
}
layer {
  name: "inception_4a/3x3"
  type: "Convolution"
  bottom: "inception_4a/3x3_reduce"
  top: "inception_4a/3x3"
  param {
    lr_mult: 1
    decay_mult: 1
  }
  param {
    lr_mult: 2
    decay_mult: 0
  }
  convolution_param {
    num_output: 208
    pad: 1
    kernel_size: 3
    weight_filler {
      type: "xavier"
    }
    bias_filler {
      type: "constant"
      value: 0.2
    }
  }
}
layer {
  name: "inception_4a/relu_3x3"
  type: "ReLU"
  bottom: "inception_4a/3x3"
  top: "inception_4a/3x3"
}
layer {
  name: "inception_4a/5x5_reduce"
  type: "Convolution"
  bottom: "pool3/3x3_s2_pool3/3x3_s2_0_split_2"
  top: "inception_4a/5x5_reduce"
  param {
    lr_mult: 1
    decay_mult: 1
  }
  param {
    lr_mult: 2
    decay_mult: 0
  }
  convolution_param {
    num_output: 16
    kernel_size: 1
    weight_filler {
      type: "xavier"
    }
    bias_filler {
      type: "constant"
      value: 0.2
    }
  }
}
layer {
  name: "inception_4a/relu_5x5_reduce"
  type: "ReLU"
  bottom: "inception_4a/5x5_reduce"
  top: "inception_4a/5x5_reduce"
}
layer {
  name: "inception_4a/5x5"
  type: "Convolution"
  bottom: "inception_4a/5x5_reduce"
  top: "inception_4a/5x5"
  param {
    lr_mult: 1
    decay_mult: 1
  }
  param {
    lr_mult: 2
    decay_mult: 0
  }
  convolution_param {
    num_output: 48
    pad: 2
    kernel_size: 5
    weight_filler {
      type: "xavier"
    }
    bias_filler {
      type: "constant"
      value: 0.2
    }
  }
}
layer {
  name: "inception_4a/relu_5x5"
  type: "ReLU"
  bottom: "inception_4a/5x5"
  top: "inception_4a/5x5"
}
layer {
  name: "inception_4a/pool"
  type: "Pooling"
  bottom: "pool3/3x3_s2_pool3/3x3_s2_0_split_3"
  top: "inception_4a/pool"
  pooling_param {
    pool: MAX
    kernel_size: 3
    stride: 1
    pad: 1
  }
}
layer {
  name: "inception_4a/pool_proj"
  type: "Convolution"
  bottom: "inception_4a/pool"
  top: "inception_4a/pool_proj"
  param {
    lr_mult: 1
    decay_mult: 1
  }
  param {
    lr_mult: 2
    decay_mult: 0
  }
  convolution_param {
    num_output: 64
    kernel_size: 1
    weight_filler {
      type: "xavier"
    }
    bias_filler {
      type: "constant"
      value: 0.2
    }
  }
}
layer {
  name: "inception_4a/relu_pool_proj"
  type: "ReLU"
  bottom: "inception_4a/pool_proj"
  top: "inception_4a/pool_proj"
}
layer {
  name: "inception_4a/output"
  type: "Concat"
  bottom: "inception_4a/1x1"
  bottom: "inception_4a/3x3"
  bottom: "inception_4a/5x5"
  bottom: "inception_4a/pool_proj"
  top: "inception_4a/output"
}
layer {
  name: "inception_4a/output_inception_4a/output_0_split"
  type: "Split"
  bottom: "inception_4a/output"
  top: "inception_4a/output_inception_4a/output_0_split_0"
  top: "inception_4a/output_inception_4a/output_0_split_1"
  top: "inception_4a/output_inception_4a/output_0_split_2"
  top: "inception_4a/output_inception_4a/output_0_split_3"
  top: "inception_4a/output_inception_4a/output_0_split_4"
}
layer {
  name: "loss1/ave_pool"
  type: "Pooling"
  bottom: "inception_4a/output_inception_4a/output_0_split_0"
  top: "loss1/ave_pool"
  pooling_param {
    pool: AVE
    kernel_size: 5
    stride: 3
  }
}
layer {
  name: "loss1/conv"
  type: "Convolution"
  bottom: "loss1/ave_pool"
  top: "loss1/conv"
  param {
    lr_mult: 1
    decay_mult: 1
  }
  param {
    lr_mult: 2
    decay_mult: 0
  }
  convolution_param {
    num_output: 128
    kernel_size: 1
    weight_filler {
      type: "xavier"
    }
    bias_filler {
      type: "constant"
      value: 0.2
    }
  }
}
layer {
  name: "loss1/relu_conv"
  type: "ReLU"
  bottom: "loss1/conv"
  top: "loss1/conv"
}
layer {
  name: "loss1/fc"
  type: "InnerProduct"
  bottom: "loss1/conv"
  top: "loss1/fc"
  param {
    lr_mult: 1
    decay_mult: 1
  }
  param {
    lr_mult: 2
    decay_mult: 0
  }
  inner_product_param {
    num_output: 1024
    weight_filler {
      type: "xavier"
    }
    bias_filler {
      type: "constant"
      value: 0.2
    }
  }
}
layer {
  name: "loss1/relu_fc"
  type: "ReLU"
  bottom: "loss1/fc"
  top: "loss1/fc"
}
layer {
  name: "loss1/drop_fc"
  type: "Dropout"
  bottom: "loss1/fc"
  top: "loss1/fc"
  dropout_param {
    dropout_ratio: 0.7
  }
}
layer {
  name: "loss1/classifier"
  type: "InnerProduct"
  bottom: "loss1/fc"
  top: "loss1/classifier"
  param {
    lr_mult: 1
    decay_mult: 1
  }
  param {
    lr_mult: 2
    decay_mult: 0
  }
  inner_product_param {
    num_output: 1000
    weight_filler {
      type: "xavier"
    }
    bias_filler {
      type: "constant"
      value: 0
    }
  }
}
layer {
  name: "loss1/loss"
  type: "SoftmaxWithLoss"
  bottom: "loss1/classifier"
  bottom: "label_data_1_split_0"
  top: "loss1/loss1"
  loss_weight: 0.3
}
layer {
  name: "inception_4b/1x1"
  type: "Convolution"
  bottom: "inception_4a/output_inception_4a/output_0_split_1"
  top: "inception_4b/1x1"
  param {
    lr_mult: 1
    decay_mult: 1
  }
  param {
    lr_mult: 2
    decay_mult: 0
  }
  convolution_param {
    num_output: 160
    kernel_size: 1
    weight_filler {
      type: "xavier"
    }
    bias_filler {
      type: "constant"
      value: 0.2
    }
  }
}
layer {
  name: "inception_4b/relu_1x1"
  type: "ReLU"
  bottom: "inception_4b/1x1"
  top: "inception_4b/1x1"
}
layer {
  name: "inception_4b/3x3_reduce"
  type: "Convolution"
  bottom: "inception_4a/output_inception_4a/output_0_split_2"
  top: "inception_4b/3x3_reduce"
  param {
    lr_mult: 1
    decay_mult: 1
  }
  param {
    lr_mult: 2
    decay_mult: 0
  }
  convolution_param {
    num_output: 112
    kernel_size: 1
    weight_filler {
      type: "xavier"
    }
    bias_filler {
      type: "constant"
      value: 0.2
    }
  }
}
layer {
  name: "inception_4b/relu_3x3_reduce"
  type: "ReLU"
  bottom: "inception_4b/3x3_reduce"
  top: "inception_4b/3x3_reduce"
}
layer {
  name: "inception_4b/3x3"
  type: "Convolution"
  bottom: "inception_4b/3x3_reduce"
  top: "inception_4b/3x3"
  param {
    lr_mult: 1
    decay_mult: 1
  }
  param {
    lr_mult: 2
    decay_mult: 0
  }
  convolution_param {
    num_output: 224
    pad: 1
    kernel_size: 3
    weight_filler {
      type: "xavier"
    }
    bias_filler {
      type: "constant"
      value: 0.2
    }
  }
}
layer {
  name: "inception_4b/relu_3x3"
  type: "ReLU"
  bottom: "inception_4b/3x3"
  top: "inception_4b/3x3"
}
layer {
  name: "inception_4b/5x5_reduce"
  type: "Convolution"
  bottom: "inception_4a/output_inception_4a/output_0_split_3"
  top: "inception_4b/5x5_reduce"
  param {
    lr_mult: 1
    decay_mult: 1
  }
  param {
    lr_mult: 2
    decay_mult: 0
  }
  convolution_param {
    num_output: 24
    kernel_size: 1
    weight_filler {
      type: "xavier"
    }
    bias_filler {
      type: "constant"
      value: 0.2
    }
  }
}
layer {
  name: "inception_4b/relu_5x5_reduce"
  type: "ReLU"
  bottom: "inception_4b/5x5_reduce"
  top: "inception_4b/5x5_reduce"
}
layer {
  name: "inception_4b/5x5"
  type: "Convolution"
  bottom: "inception_4b/5x5_reduce"
  top: "inception_4b/5x5"
  param {
    lr_mult: 1
    decay_mult: 1
  }
  param {
    lr_mult: 2
    decay_mult: 0
  }
  convolution_param {
    num_output: 64
    pad: 2
    kernel_size: 5
    weight_filler {
      type: "xavier"
    }
    bias_filler {
      type: "constant"
      value: 0.2
    }
  }
}
layer {
  name: "inception_4b/relu_5x5"
  type: "ReLU"
  bottom: "inception_4b/5x5"
  top: "inception_4b/5x5"
}
layer {
  name: "inception_4b/pool"
  type: "Pooling"
  bottom: "inception_4a/output_inception_4a/output_0_split_4"
  top: "inception_4b/pool"
  pooling_param {
    pool: MAX
    kernel_size: 3
    stride: 1
    pad: 1
  }
}
layer {
  name: "inception_4b/pool_proj"
  type: "Convolution"
  bottom: "inception_4b/pool"
  top: "inception_4b/pool_proj"
  param {
    lr_mult: 1
    decay_mult: 1
  }
  param {
    lr_mult: 2
    decay_mult: 0
  }
  convolution_param {
    num_output: 64
    kernel_size: 1
    weight_filler {
      type: "xavier"
    }
    bias_filler {
      type: "constant"
      value: 0.2
    }
  }
}
layer {
  name: "inception_4b/relu_pool_proj"
  type: "ReLU"
  bottom: "inception_4b/pool_proj"
  top: "inception_4b/pool_proj"
}
layer {
  name: "inception_4b/output"
  type: "Concat"
  bottom: "inception_4b/1x1"
  bottom: "inception_4b/3x3"
  bottom: "inception_4b/5x5"
  bottom: "inception_4b/pool_proj"
  top: "inception_4b/output"
}
layer {
  name: "inception_4b/output_inception_4b/output_0_split"
  type: "Split"
  bottom: "inception_4b/output"
  top: "inception_4b/output_inception_4b/output_0_split_0"
  top: "inception_4b/output_inception_4b/output_0_split_1"
  top: "inception_4b/output_inception_4b/output_0_split_2"
  top: "inception_4b/output_inception_4b/output_0_split_3"
}
layer {
  name: "inception_4c/1x1"
  type: "Convolution"
  bottom: "inception_4b/output_inception_4b/output_0_split_0"
  top: "inception_4c/1x1"
  param {
    lr_mult: 1
    decay_mult: 1
  }
  param {
    lr_mult: 2
    decay_mult: 0
  }
  convolution_param {
    num_output: 128
    kernel_size: 1
    weight_filler {
      type: "xavier"
    }
    bias_filler {
      type: "constant"
      value: 0.2
    }
  }
}
layer {
  name: "inception_4c/relu_1x1"
  type: "ReLU"
  bottom: "inception_4c/1x1"
  top: "inception_4c/1x1"
}
layer {
  name: "inception_4c/3x3_reduce"
  type: "Convolution"
  bottom: "inception_4b/output_inception_4b/output_0_split_1"
  top: "inception_4c/3x3_reduce"
  param {
    lr_mult: 1
    decay_mult: 1
  }
  param {
    lr_mult: 2
    decay_mult: 0
  }
  convolution_param {
    num_output: 128
    kernel_size: 1
    weight_filler {
      type: "xavier"
    }
    bias_filler {
      type: "constant"
      value: 0.2
    }
  }
}
layer {
  name: "inception_4c/relu_3x3_reduce"
  type: "ReLU"
  bottom: "inception_4c/3x3_reduce"
  top: "inception_4c/3x3_reduce"
}
layer {
  name: "inception_4c/3x3"
  type: "Convolution"
  bottom: "inception_4c/3x3_reduce"
  top: "inception_4c/3x3"
  param {
    lr_mult: 1
    decay_mult: 1
  }
  param {
    lr_mult: 2
    decay_mult: 0
  }
  convolution_param {
    num_output: 256
    pad: 1
    kernel_size: 3
    weight_filler {
      type: "xavier"
    }
    bias_filler {
      type: "constant"
      value: 0.2
    }
  }
}
layer {
  name: "inception_4c/relu_3x3"
  type: "ReLU"
  bottom: "inception_4c/3x3"
  top: "inception_4c/3x3"
}
layer {
  name: "inception_4c/5x5_reduce"
  type: "Convolution"
  bottom: "inception_4b/output_inception_4b/output_0_split_2"
  top: "inception_4c/5x5_reduce"
  param {
    lr_mult: 1
    decay_mult: 1
  }
  param {
    lr_mult: 2
    decay_mult: 0
  }
  convolution_param {
    num_output: 24
    kernel_size: 1
    weight_filler {
      type: "xavier"
    }
    bias_filler {
      type: "constant"
      value: 0.2
    }
  }
}
layer {
  name: "inception_4c/relu_5x5_reduce"
  type: "ReLU"
  bottom: "inception_4c/5x5_reduce"
  top: "inception_4c/5x5_reduce"
}
layer {
  name: "inception_4c/5x5"
  type: "Convolution"
  bottom: "inception_4c/5x5_reduce"
  top: "inception_4c/5x5"
  param {
    lr_mult: 1
    decay_mult: 1
  }
  param {
    lr_mult: 2
    decay_mult: 0
  }
  convolution_param {
    num_output: 64
    pad: 2
    kernel_size: 5
    weight_filler {
      type: "xavier"
    }
    bias_filler {
      type: "constant"
      value: 0.2
    }
  }
}
layer {
  name: "inception_4c/relu_5x5"
  type: "ReLU"
  bottom: "inception_4c/5x5"
  top: "inception_4c/5x5"
}
layer {
  name: "inception_4c/pool"
  type: "Pooling"
  bottom: "inception_4b/output_inception_4b/output_0_split_3"
  top: "inception_4c/pool"
  pooling_param {
    pool: MAX
    kernel_size: 3
    stride: 1
    pad: 1
  }
}
layer {
  name: "inception_4c/pool_proj"
  type: "Convolution"
  bottom: "inception_4c/pool"
  top: "inception_4c/pool_proj"
  param {
    lr_mult: 1
    decay_mult: 1
  }
  param {
    lr_mult: 2
    decay_mult: 0
  }
  convolution_param {
    num_output: 64
    kernel_size: 1
    weight_filler {
      type: "xavier"
    }
    bias_filler {
      type: "constant"
      value: 0.2
    }
  }
}
layer {
  name: "inception_4c/relu_pool_proj"
  type: "ReLU"
  bottom: "inception_4c/pool_proj"
  top: "inception_4c/pool_proj"
}
layer {
  name: "inception_4c/output"
  type: "Concat"
  bottom: "inception_4c/1x1"
  bottom: "inception_4c/3x3"
  bottom: "inception_4c/5x5"
  bottom: "inception_4c/pool_proj"
  top: "inception_4c/output"
}
layer {
  name: "inception_4c/output_inception_4c/output_0_split"
  type: "Split"
  bottom: "inception_4c/output"
  top: "inception_4c/output_inception_4c/output_0_split_0"
  top: "inception_4c/output_inception_4c/output_0_split_1"
  top: "inception_4c/output_inception_4c/output_0_split_2"
  top: "inception_4c/output_inception_4c/output_0_split_3"
}
layer {
  name: "inception_4d/1x1"
  type: "Convolution"
  bottom: "inception_4c/output_inception_4c/output_0_split_0"
  top: "inception_4d/1x1"
  param {
    lr_mult: 1
    decay_mult: 1
  }
  param {
    lr_mult: 2
    decay_mult: 0
  }
  convolution_param {
    num_output: 112
    kernel_size: 1
    weight_filler {
      type: "xavier"
    }
    bias_filler {
      type: "constant"
      value: 0.2
    }
  }
}
layer {
  name: "inception_4d/relu_1x1"
  type: "ReLU"
  bottom: "inception_4d/1x1"
  top: "inception_4d/1x1"
}
layer {
  name: "inception_4d/3x3_reduce"
  type: "Convolution"
  bottom: "inception_4c/output_inception_4c/output_0_split_1"
  top: "inception_4d/3x3_reduce"
  param {
    lr_mult: 1
    decay_mult: 1
  }
  param {
    lr_mult: 2
    decay_mult: 0
  }
  convolution_param {
    num_output: 144
    kernel_size: 1
    weight_filler {
      type: "xavier"
    }
    bias_filler {
      type: "constant"
      value: 0.2
    }
  }
}
layer {
  name: "inception_4d/relu_3x3_reduce"
  type: "ReLU"
  bottom: "inception_4d/3x3_reduce"
  top: "inception_4d/3x3_reduce"
}
layer {
  name: "inception_4d/3x3"
  type: "Convolution"
  bottom: "inception_4d/3x3_reduce"
  top: "inception_4d/3x3"
  param {
    lr_mult: 1
    decay_mult: 1
  }
  param {
    lr_mult: 2
    decay_mult: 0
  }
  convolution_param {
    num_output: 288
    pad: 1
    kernel_size: 3
    weight_filler {
      type: "xavier"
    }
    bias_filler {
      type: "constant"
      value: 0.2
    }
  }
}
layer {
  name: "inception_4d/relu_3x3"
  type: "ReLU"
  bottom: "inception_4d/3x3"
  top: "inception_4d/3x3"
}
layer {
  name: "inception_4d/5x5_reduce"
  type: "Convolution"
  bottom: "inception_4c/output_inception_4c/output_0_split_2"
  top: "inception_4d/5x5_reduce"
  param {
    lr_mult: 1
    decay_mult: 1
  }
  param {
    lr_mult: 2
    decay_mult: 0
  }
  convolution_param {
    num_output: 32
    kernel_size: 1
    weight_filler {
      type: "xavier"
    }
    bias_filler {
      type: "constant"
      value: 0.2
    }
  }
}
layer {
  name: "inception_4d/relu_5x5_reduce"
  type: "ReLU"
  bottom: "inception_4d/5x5_reduce"
  top: "inception_4d/5x5_reduce"
}
layer {
  name: "inception_4d/5x5"
  type: "Convolution"
  bottom: "inception_4d/5x5_reduce"
  top: "inception_4d/5x5"
  param {
    lr_mult: 1
    decay_mult: 1
  }
  param {
    lr_mult: 2
    decay_mult: 0
  }
  convolution_param {
    num_output: 64
    pad: 2
    kernel_size: 5
    weight_filler {
      type: "xavier"
    }
    bias_filler {
      type: "constant"
      value: 0.2
    }
  }
}
layer {
  name: "inception_4d/relu_5x5"
  type: "ReLU"
  bottom: "inception_4d/5x5"
  top: "inception_4d/5x5"
}
layer {
  name: "inception_4d/pool"
  type: "Pooling"
  bottom: "inception_4c/output_inception_4c/output_0_split_3"
  top: "inception_4d/pool"
  pooling_param {
    pool: MAX
    kernel_size: 3
    stride: 1
    pad: 1
  }
}
layer {
  name: "inception_4d/pool_proj"
  type: "Convolution"
  bottom: "inception_4d/pool"
  top: "inception_4d/pool_proj"
  param {
    lr_mult: 1
    decay_mult: 1
  }
  param {
    lr_mult: 2
    decay_mult: 0
  }
  convolution_param {
    num_output: 64
    kernel_size: 1
    weight_filler {
      type: "xavier"
    }
    bias_filler {
      type: "constant"
      value: 0.2
    }
  }
}
layer {
  name: "inception_4d/relu_pool_proj"
  type: "ReLU"
  bottom: "inception_4d/pool_proj"
  top: "inception_4d/pool_proj"
}
layer {
  name: "inception_4d/output"
  type: "Concat"
  bottom: "inception_4d/1x1"
  bottom: "inception_4d/3x3"
  bottom: "inception_4d/5x5"
  bottom: "inception_4d/pool_proj"
  top: "inception_4d/output"
}
layer {
  name: "inception_4d/output_inception_4d/output_0_split"
  type: "Split"
  bottom: "inception_4d/output"
  top: "inception_4d/output_inception_4d/output_0_split_0"
  top: "inception_4d/output_inception_4d/output_0_split_1"
  top: "inception_4d/output_inception_4d/output_0_split_2"
  top: "inception_4d/output_inception_4d/output_0_split_3"
  top: "inception_4d/output_inception_4d/output_0_split_4"
}
layer {
  name: "loss2/ave_pool"
  type: "Pooling"
  bottom: "inception_4d/output_inception_4d/output_0_split_0"
  top: "loss2/ave_pool"
  pooling_param {
    pool: AVE
    kernel_size: 5
    stride: 3
  }
}
layer {
  name: "loss2/conv"
  type: "Convolution"
  bottom: "loss2/ave_pool"
  top: "loss2/conv"
  param {
    lr_mult: 1
    decay_mult: 1
  }
  param {
    lr_mult: 2
    decay_mult: 0
  }
  convolution_param {
    num_output: 128
    kernel_size: 1
    weight_filler {
      type: "xavier"
    }
    bias_filler {
      type: "constant"
      value: 0.2
    }
  }
}
layer {
  name: "loss2/relu_conv"
  type: "ReLU"
  bottom: "loss2/conv"
  top: "loss2/conv"
}
layer {
  name: "loss2/fc"
  type: "InnerProduct"
  bottom: "loss2/conv"
  top: "loss2/fc"
  param {
    lr_mult: 1
    decay_mult: 1
  }
  param {
    lr_mult: 2
    decay_mult: 0
  }
  inner_product_param {
    num_output: 1024
    weight_filler {
      type: "xavier"
    }
    bias_filler {
      type: "constant"
      value: 0.2
    }
  }
}
layer {
  name: "loss2/relu_fc"
  type: "ReLU"
  bottom: "loss2/fc"
  top: "loss2/fc"
}
layer {
  name: "l
I0331 19:11:44.171293 136241 net.cpp:154] Setting up Layer of device :0 @cpu 0 Layer : data
I0331 19:11:44.171300 136241 layer_factory.hpp:114] Creating layer data
I0331 19:11:44.171959 136241 net.cpp:169] Creating Layer data
I0331 19:11:44.171975 136241 net.cpp:579] data -> data
I0331 19:11:44.171980 136241 net.cpp:582] From AppendTop @cpu: 0
I0331 19:11:44.172009 136241 net.cpp:579] data -> label
I0331 19:11:44.172014 136241 net.cpp:582] From AppendTop @cpu: 0
I0331 19:11:44.172147 136242 db_lmdb.cpp:72] Opened lmdb /home/user/LIBRARIES/caffeLibs/caffe/examples/imagenet/ilsvrc12_train_lmdb
I0331 19:11:44.172195 136242 virtDev_device.cpp:310] found a CPU core 14 for Data Reader on device 0 thread ID 139799559816960
I0331 19:11:44.172201 136242 data_reader.cpp:128] inside DATAREADER 1
I0331 19:11:44.172792 136241 data_layer.cpp:80] output data size: 112,3,224,224
I0331 19:11:44.272619 136241 base_data_layer.cpp:96] Done cpu data
I0331 19:11:44.272699 136241 net.cpp:219] Setting up data
I0331 19:11:44.272720 136241 net.cpp:226] Top shape: 112 3 224 224 (16859136)
I0331 19:11:44.272727 136241 net.cpp:226] Top shape: 112 (112)
I0331 19:11:44.272732 136241 net.cpp:234] Memory required for data: 67436992
I0331 19:11:44.284651 136241 net.cpp:154] Setting up Layer of device :0 @cpu 0 Layer : label_data_1_split
I0331 19:11:44.284708 136241 layer_factory.hpp:114] Creating layer label_data_1_split
I0331 19:11:44.284739 136241 net.cpp:169] Creating Layer label_data_1_split
I0331 19:11:44.284746 136241 net.cpp:606] label_data_1_split <- label
I0331 19:11:44.284759 136241 net.cpp:579] label_data_1_split -> label_data_1_split_0
I0331 19:11:44.284764 136241 net.cpp:582] From AppendTop @cpu: 0
I0331 19:11:44.284778 136241 net.cpp:579] label_data_1_split -> label_data_1_split_1
I0331 19:11:44.284782 136241 net.cpp:582] From AppendTop @cpu: 0
I0331 19:11:44.284790 136241 net.cpp:579] label_data_1_split -> label_data_1_split_2
I0331 19:11:44.284795 136241 net.cpp:582] From AppendTop @cpu: 0
I0331 19:11:44.284811 136241 net.cpp:219] Setting up label_data_1_split
I0331 19:11:44.284823 136241 net.cpp:226] Top shape: 112 (112)
I0331 19:11:44.284829 136241 net.cpp:226] Top shape: 112 (112)
I0331 19:11:44.284834 136241 net.cpp:226] Top shape: 112 (112)
I0331 19:11:44.284838 136241 net.cpp:234] Memory required for data: 67438336
I0331 19:11:44.284849 136241 net.cpp:154] Setting up Layer of device :0 @cpu 0 Layer : conv1/7x7_s2
I0331 19:11:44.284854 136241 layer_factory.hpp:114] Creating layer conv1/7x7_s2
I0331 19:11:44.284879 136241 net.cpp:169] Creating Layer conv1/7x7_s2
I0331 19:11:44.284884 136241 net.cpp:606] conv1/7x7_s2 <- data
I0331 19:11:44.284893 136241 net.cpp:579] conv1/7x7_s2 -> conv1/7x7_s2
…
OMP: Info #242: KMP_AFFINITY: pid 136241 thread 7 bound to OS proc set {28}
OMP: Info #242: KMP_AFFINITY: pid 136241 thread 8 bound to OS proc set {32}
OMP: Info #242: KMP_AFFINITY: pid 136241 thread 9 bound to OS proc set {36}
OMP: Info #242: KMP_AFFINITY: pid 136241 thread 10 bound to OS proc set {40}
OMP: Info #242: KMP_AFFINITY: pid 136241 thread 11 bound to OS proc set {44}
OMP: Info #242: KMP_AFFINITY: pid 136241 thread 12 bound to OS proc set {48}
OMP: Info #242: KMP_AFFINITY: pid 136241 thread 13 bound to OS proc set {52}
I0331 19:11:44.380686 136241 net.cpp:219] Setting up conv1/7x7_s2
I0331 19:11:44.380748 136241 net.cpp:226] Top shape: 112 64 112 112 (89915392)
I0331 19:11:44.380753 136241 net.cpp:234] Memory required for data: 427099904
I0331 19:11:44.380797 136241 net.cpp:154] Setting up Layer of device :0 @cpu 0 Layer : conv1/relu_7x7
I0331 19:11:44.380805 136241 layer_factory.hpp:114] Creating layer conv1/relu_7x7
I0331 19:11:44.380826 136241 net.cpp:169] Creating Layer conv1/relu_7x7
I0331 19:11:44.380832 136241 net.cpp:606] conv1/relu_7x7 <- conv1/7x7_s2
I0331 19:11:44.380846 136241 net.cpp:566] conv1/relu_7x7 -> conv1/7x7_s2 (in-place)
I0331 19:11:44.380863 136241 net.cpp:219] Setting up conv1/relu_7x7
I0331 19:11:44.380868 136241 net.cpp:226] Top shape: 112 64 112 112 (89915392)
I0331 19:11:44.380872 136241 net.cpp:234] Memory required for data: 786761472
I0331 19:11:44.380877 136241 net.cpp:154] Setting up Layer of device :0 @cpu 0 Layer : pool1/3x3_s2
I0331 19:11:44.380882 136241 layer_factory.hpp:114] Creating layer pool1/3x3_s2
I0331 19:11:44.380949 136241 net.cpp:169] Creating Layer pool1/3x3_s2
I0331 19:11:44.380954 136241 net.cpp:606] pool1/3x3_s2 <- conv1/7x7_s2
I0331 19:11:44.380964 136241 net.cpp:579] pool1/3x3_s2 -> pool1/3x3_s2
I0331 19:11:44.380967 136241 net.cpp:582] From AppendTop @cpu: 0
I0331 19:11:44.380988 136241 net.cpp:219] Setting up pool1/3x3_s2
I0331 19:11:44.380995 136241 net.cpp:226] Top shape: 112 64 56 56 (22478848)
I0331 19:11:44.380998 136241 net.cpp:234] Memory required for data: 876676864
I0331 19:11:44.381003 136241 net.cpp:154] Setting up Layer of device :0 @cpu 0 Layer : pool1/norm1
I0331 19:11:44.381008 136241 layer_factory.hpp:114] Creating layer pool1/norm1
I0331 19:11:44.381017 136241 net.cpp:169] Creating Layer pool1/norm1
I0331 19:11:44.381022 136241 net.cpp:606] pool1/norm1 <- pool1/3x3_s2
I0331 19:11:44.381059 136241 net.cpp:579] pool1/norm1 -> pool1/norm1
I0331 19:11:44.381063 136241 net.cpp:582] From AppendTop @cpu: 0
I0331 19:11:44.381078 136241 net.cpp:219] Setting up pool1/norm1
I0331 19:11:44.381083 136241 net.cpp:226] Top shape: 112 64 56 56 (22478848)
I0331 19:11:44.381088 136241 net.cpp:234] Memory required for data: 966592256
I0331 19:11:44.381093 136241 net.cpp:154] Setting up Layer of device :0 @cpu 0 Layer : conv2/3x3_reduce
I0331 19:11:44.381096 136241 layer_factory.hpp:114] Creating layer conv2/3x3_reduce
I0331 19:11:44.381114 136241 net.cpp:169] Creating Layer conv2/3x3_reduce
I0331 19:11:44.381119 136241 net.cpp:606] conv2/3x3_reduce <- pool1/norm1
I0331 19:11:44.381127 136241 net.cpp:579] conv2/3x3_reduce -> conv2/3x3_reduce
I0331 19:11:44.381131 136241 net.cpp:582] From AppendTop @cpu: 0
I0331 19:11:44.385664 136241 net.cpp:219] Setting up conv2/3x3_reduce
I0331 19:11:44.385677 136241 net.cpp:226] Top shape: 112 64 56 56 (22478848)
I0331 19:11:44.385681 136241 net.cpp:234] Memory required for data: 1056507648
I0331 19:11:44.385694 136241 net.cpp:154] Setting up Layer of device :0 @cpu 0 Layer : conv2/relu_3x3_reduce
I0331 19:11:44.385699 136241 layer_factory.hpp:114] Creating layer conv2/relu_3x3_reduce
I0331 19:11:44.385709 136241 net.cpp:169] Creating Layer conv2/relu_3x3_reduce
I0331 19:11:44.385712 136241 net.cpp:606] conv2/relu_3x3_reduce <- conv2/3x3_reduce
I0331 19:11:44.385718 136241 net.cpp:566] conv2/relu_3x3_reduce -> conv2/3x3_reduce (in-place)
I0331 19:11:44.385732 136241 net.cpp:219] Setting up conv2/relu_3x3_reduce
I0331 19:11:44.385738 136241 net.cpp:226] Top shape: 112 64 56 56 (22478848)
I0331 19:11:44.385741 136241 net.cpp:234] Memory required for data: 1146423040
I0331 19:11:44.385746 136241 net.cpp:154] Setting up Layer of device :0 @cpu 0 Layer : conv2/3x3
I0331 19:11:44.385751 136241 layer_factory.hpp:114] Creating layer conv2/3x3
I0331 19:11:44.385763 136241 net.cpp:169] Creating Layer conv2/3x3
I0331 19:11:44.385768 136241 net.cpp:606] conv2/3x3 <- conv2/3x3_reduce
I0331 19:11:44.385776 136241 net.cpp:579] conv2/3x3 -> conv2/3x3
I0331 19:11:44.385781 136241 net.cpp:582] From AppendTop @cpu: 0
I0331 19:11:44.427954 136241 net.cpp:219] Setting up conv2/3x3
I0331 19:11:44.428007 136241 net.cpp:226] Top shape: 112 192 56 56 (67436544)
I0331 19:11:44.428012 136241 net.cpp:234] Memory required for data: 1416169216
I0331 19:11:44.428042 136241 net.cpp:154] Setting up Layer of device :0 @cpu 0 Layer : conv2/relu_3x3
I0331 19:11:44.428048 136241 layer_factory.hpp:114] Creating layer conv2/relu_3x3
I0331 19:11:44.428069 136241 net.cpp:169] Creating Layer conv2/relu_3x3
I0331 19:11:44.428076 136241 net.cpp:606] conv2/relu_3x3 <- conv2/3x3
I0331 19:11:44.428087 136241 net.cpp:566] conv2/relu_3x3 -> conv2/3x3 (in-place)
I0331 19:11:44.428102 136241 net.cpp:219] Setting up conv2/relu_3x3
I0331 19:11:44.428107 136241 net.cpp:226] Top shape: 112 192 56 56 (67436544)
I0331 19:11:44.428112 136241 net.cpp:234] Memory required for data: 1685915392
I0331 19:11:44.428117 136241 net.cpp:154] Setting up Layer of device :0 @cpu 0 Layer : conv2/norm2
I0331 19:11:44.428120 136241 layer_factory.hpp:114] Creating layer conv2/norm2
I0331 19:11:44.428133 136241 net.cpp:169] Creating Layer conv2/norm2
I0331 19:11:44.428136 136241 net.cpp:606] conv2/norm2 <- conv2/3x3
I0331 19:11:44.428143 136241 net.cpp:579] conv2/norm2 -> conv2/norm2
I0331 19:11:44.428146 136241 net.cpp:582] From AppendTop @cpu: 0
I0331 19:11:44.428160 136241 net.cpp:219] Setting up conv2/norm2
I0331 19:11:44.428165 136241 net.cpp:226] Top shape: 112 192 56 56 (67436544)
I0331 19:11:44.428169 136241 net.cpp:234] Memory required for data: 1955661568
I0331 19:11:44.428174 136241 net.cpp:154] Setting up Layer of device :0 @cpu 0 Layer : pool2/3x3_s2
I0331 19:11:44.428179 136241 layer_factory.hpp:114] Creating layer pool2/3x3_s2
I0331 19:11:44.428213 136241 net.cpp:169] Creating Layer pool2/3x3_s2
I0331 19:11:44.428218 136241 net.cpp:606] pool2/3x3_s2 <- conv2/norm2
I0331 19:11:44.428251 136241 net.cpp:579] pool2/3x3_s2 -> pool2/3x3_s2
I0331 19:11:44.428256 136241 net.cpp:582] From AppendTop @cpu: 0
I0331 19:11:44.428268 136241 net.cpp:219] Setting up pool2/3x3_s2
I0331 19:11:44.428275 136241 net.cpp:226] Top shape: 112 192 28 28 (16859136)
I0331 19:11:44.428279 136241 net.cpp:234] Memory required for data: 2023098112
I0331 19:11:44.428284 136241 net.cpp:154] Setting up Layer of device :0 @cpu 0 Layer : pool2/3x3_s2_pool2/3x3_s2_0_split
I0331 19:11:44.428289 136241 layer_factory.hpp:114] Creating layer pool2/3x3_s2_pool2/3x3_s2_0_split
I0331 19:11:44.428298 136241 net.cpp:169] Creating Layer pool2/3x3_s2_pool2/3x3_s2_0_split
I0331 19:11:44.428303 136241 net.cpp:606] pool2/3x3_s2_pool2/3x3_s2_0_split <- pool2/3x3_s2
I0331 19:11:44.428309 136241 net.cpp:579] pool2/3x3_s2_pool2/3x3_s2_0_split -> pool2/3x3_s2_pool2/3x3_s2_0_split_0
I0331 19:11:44.428314 136241 net.cpp:582] From AppendTop @cpu: 0
I0331 19:11:44.428321 136241 net.cpp:579] pool2/3x3_s2_pool2/3x3_s2_0_split -> pool2/3x3_s2_pool2/3x3_s2_0_split_1
I0331 19:11:44.428325 136241 net.cpp:582] From AppendTop @cpu: 0
I0331 19:11:44.428333 136241 net.cpp:579] pool2/3x3_s2_pool2/3x3_s2_0_split -> pool2/3x3_s2_pool2/3x3_s2_0_split_2
I0331 19:11:44.428336 136241 net.cpp:582] From AppendTop @cpu: 0
I0331 19:11:44.428342 136241 net.cpp:579] pool2/3x3_s2_pool2/3x3_s2_0_split -> pool2/3x3_s2_pool2/3x3_s2_0_split_3
I0331 19:11:44.428345 136241 net.cpp:582] From AppendTop @cpu: 0
I0331 19:11:44.428357 136241 net.cpp:219] Setting up pool2/3x3_s2_pool2/3x3_s2_0_split
I0331 19:11:44.428369 136241 net.cpp:226] Top shape: 112 192 28 28 (16859136)
I0331 19:11:44.428372 136241 net.cpp:226] Top shape: 112 192 28 28 (16859136)
I0331 19:11:44.428377 136241 net.cpp:226] Top shape: 112 192 28 28 (16859136)
I0331 19:11:44.428382 136241 net.cpp:226] Top shape: 112 192 28 28 (16859136)
I0331 19:11:44.428385 136241 net.cpp:234] Memory required for data: 2292844288
I0331 19:11:44.428390 136241 net.cpp:154] Setting up Layer of device :0 @cpu 0 Layer : inception_3a/1x1
I0331 19:11:44.428395 136241 layer_factory.hpp:114] Creating layer inception_3a/1x1
I0331 19:11:44.428411 136241 net.cpp:169] Creating Layer inception_3a/1x1
I0331 19:11:44.428416 136241 net.cpp:606] inception_3a/1x1 <- pool2/3x3_s2_pool2/3x3_s2_0_split_0
I0331 19:11:44.428423 136241 net.cpp:579] inception_3a/1x1 -> inception_3a/1x1
I0331 19:11:44.428427 136241 net.cpp:582] From AppendTop @cpu: 0
I0331 19:11:44.432221 136241 net.cpp:219] Setting up inception_3a/1x1
I0331 19:11:44.432235 136241 net.cpp:226] Top shape: 112 64 28 28 (5619712)
I0331 19:11:44.432238 136241 net.cpp:234] Memory required for data: 2315323136
I0331 19:11:44.432250 136241 net.cpp:154] Setting up Layer of device :0 @cpu 0 Layer : inception_3a/relu_1x1
I0331 19:11:44.432253 136241 layer_factory.hpp:114] Creating layer inception_3a/relu_1x1
I0331 19:11:44.432260 136241 net.cpp:169] Creating Layer inception_3a/relu_1x1
I0331 19:11:44.432265 136241 net.cpp:606] inception_3a/relu_1x1 <- inception_3a/1x1
I0331 19:11:44.432271 136241 net.cpp:566] inception_3a/relu_1x1 -> inception_3a/1x1 (in-place)
I0331 19:11:44.432278 136241 net.cpp:219] Setting up inception_3a/relu_1x1
I0331 19:11:44.432283 136241 net.cpp:226] Top shape: 112 64 28 28 (5619712)
I0331 19:11:44.432286 136241 net.cpp:234] Memory required for data: 2337801984
I0331 19:11:44.432291 136241 net.cpp:154] Setting up Layer of device :0 @cpu 0 Layer : inception_3a/3x3_reduce
I0331 19:11:44.432296 136241 layer_factory.hpp:114] Creating layer inception_3a/3x3_reduce
I0331 19:11:44.432307 136241 net.cpp:169] Creating Layer inception_3a/3x3_reduce
I0331 19:11:44.432312 136241 net.cpp:606] inception_3a/3x3_reduce <- pool2/3x3_s2_pool2/3x3_s2_0_split_1
I0331 19:11:44.432320 136241 net.cpp:579] inception_3a/3x3_reduce -> inception_3a/3x3_reduce
I0331 19:11:44.432324 136241 net.cpp:582] From AppendTop @cpu: 0
I0331 19:11:44.436329 136241 net.cpp:219] Setting up inception_3a/3x3_reduce
I0331 19:11:44.436341 136241 net.cpp:226] Top shape: 112 96 28 28 (8429568)
I0331 19:11:44.436344 136241 net.cpp:234] Memory required for data: 2371520256
I0331 19:11:44.436367 136241 net.cpp:154] Setting up Layer of device :0 @cpu 0 Layer : inception_3a/relu_3x3_reduce
I0331 19:11:44.436370 136241 layer_factory.hpp:114] Creating layer inception_3a/relu_3x3_reduce
I0331 19:11:44.436381 136241 net.cpp:169] Creating Layer inception_3a/relu_3x3_reduce
I0331 19:11:44.436386 136241 net.cpp:606] inception_3a/relu_3x3_reduce <- inception_3a/3x3_reduce
I0331 19:11:44.436393 136241 net.cpp:566] inception_3a/relu_3x3_reduce -> inception_3a/3x3_reduce (in-place)
I0331 19:11:44.436399 136241 net.cpp:219] Setting up inception_3a/relu_3x3_reduce
I0331 19:11:44.436405 136241 net.cpp:226] Top shape: 112 96 28 28 (8429568)
I0331 19:11:44.436408 136241 net.cpp:234] Memory required for data: 2405238528
I0331 19:11:44.436414 136241 net.cpp:154] Setting up Layer of device :0 @cpu 0 Layer : inception_3a/3x3
I0331 19:11:44.436417 136241 layer_factory.hpp:114] Creating layer inception_3a/3x3
I0331 19:11:44.436429 136241 net.cpp:169] Creating Layer inception_3a/3x3
I0331 19:11:44.436432 136241 net.cpp:606] inception_3a/3x3 <- inception_3a/3x3_reduce
I0331 19:11:44.436440 136241 net.cpp:579] inception_3a/3x3 -> inception_3a/3x3
I0331 19:11:44.436444 136241 net.cpp:582] From AppendTop @cpu: 0
I0331 19:11:44.452698 136241 net.cpp:219] Setting up inception_3a/3x3
I0331 19:11:44.452735 136241 net.cpp:226] Top shape: 112 128 28 28 (11239424)
I0331 19:11:44.452739 136241 net.cpp:234] Memory required for data: 2450196224
I0331 19:11:44.452757 136241 net.cpp:154] Setting up Layer of device :0 @cpu 0 Layer : inception_3a/relu_3x3
I0331 19:11:44.452772 136241 layer_factory.hpp:114] Creating layer inception_3a/relu_3x3
I0331 19:11:44.452786 136241 net.cpp:169] Creating Layer inception_3a/relu_3x3
I0331 19:11:44.452793 136241 net.cpp:606] inception_3a/relu_3x3 <- inception_3a/3x3
I0331 19:11:44.452810 136241 net.cpp:566] inception_3a/relu_3x3 -> inception_3a/3x3 (in-place)
I0331 19:11:44.452821 136241 net.cpp:219] Setting up inception_3a/relu_3x3
I0331 19:11:44.452826 136241 net.cpp:226] Top shape: 112 128 28 28 (11239424)
I0331 19:11:44.452829 136241 net.cpp:234] Memory required for data: 2495153920
I0331 19:11:44.452834 136241 net.cpp:154] Setting up Layer of device :0 @cpu 0 Layer : inception_3a/5x5_reduce
I0331 19:11:44.452838 136241 layer_factory.hpp:114] Creating layer inception_3a/5x5_reduce
I0331 19:11:44.452850 136241 net.cpp:169] Creating Layer inception_3a/5x5_reduce
I0331 19:11:44.452855 136241 net.cpp:606] inception_3a/5x5_reduce <- pool2/3x3_s2_pool2/3x3_s2_0_split_2
I0331 19:11:44.452865 136241 net.cpp:579] inception_3a/5x5_reduce -> inception_3a/5x5_reduce
I0331 19:11:44.452869 136241 net.cpp:582] From AppendTop @cpu: 0
I0331 19:11:44.456256 136241 net.cpp:219] Setting up inception_3a/5x5_reduce
I0331 19:11:44.456267 136241 net.cpp:226] Top shape: 112 16 28 28 (1404928)
I0331 19:11:44.456271 136241 net.cpp:234] Memory required for data: 2500773632
I0331 19:11:44.456281 136241 net.cpp:154] Setting up Layer of device :0 @cpu 0 Layer : inception_3a/relu_5x5_reduce
I0331 19:11:44.456285 136241 layer_factory.hpp:114] Creating layer inception_3a/relu_5x5_reduce
I0331 19:11:44.456295 136241 net.cpp:169] Creating Layer inception_3a/relu_5x5_reduce
I0331 19:11:44.456300 136241 net.cpp:606] inception_3a/relu_5x5_reduce <- inception_3a/5x5_reduce
I0331 19:11:44.456305 136241 net.cpp:566] inception_3a/relu_5x5_reduce -> inception_3a/5x5_reduce (in-place)
I0331 19:11:44.456312 136241 net.cpp:219] Setting up inception_3a/relu_5x5_reduce
I0331 19:11:44.456318 136241 net.cpp:226] Top shape: 112 16 28 28 (1404928)
I0331 19:11:44.456322 136241 net.cpp:234] Memory required for data: 2506393344
I0331 19:11:44.456327 136241 net.cpp:154] Setting up Layer of device :0 @cpu 0 Layer : inception_3a/5x5
I0331 19:11:44.456331 136241 layer_factory.hpp:114] Creating layer inception_3a/5x5
I0331 19:11:44.456343 136241 net.cpp:169] Creating Layer inception_3a/5x5
I0331 19:11:44.456347 136241 net.cpp:606] inception_3a/5x5 <- inception_3a/5x5_reduce
I0331 19:11:44.456357 136241 net.cpp:579] inception_3a/5x5 -> inception_3a/5x5
I0331 19:11:44.456377 136241 net.cpp:582] From AppendTop @cpu: 0
I0331 19:11:44.463201 136241 net.cpp:219] Setting up inception_3a/5x5
I0331 19:11:44.463217 136241 net.cpp:226] Top shape: 112 32 28 28 (2809856)
I0331 19:11:44.463220 136241 net.cpp:234] Memory required for data: 2517632768
I0331 19:11:44.463230 136241 net.cpp:154] Setting up Layer of device :0 @cpu 0 Layer : inception_3a/relu_5x5
I0331 19:11:44.463234 136241 layer_factory.hpp:114] Creating layer inception_3a/relu_5x5
I0331 19:11:44.463241 136241 net.cpp:169] Creating Layer inception_3a/relu_5x5
I0331 19:11:44.463245 136241 net.cpp:606] inception_3a/relu_5x5 <- inception_3a/5x5
I0331 19:11:44.463251 136241 net.cpp:566] inception_3a/relu_5x5 -> inception_3a/5x5 (in-place)
I0331 19:11:44.463258 136241 net.cpp:219] Setting up inception_3a/relu_5x5
I0331 19:11:44.463263 136241 net.cpp:226] Top shape: 112 32 28 28 (2809856)
I0331 19:11:44.463268 136241 net.cpp:234] Memory required for data: 2528872192
I0331 19:11:44.463271 136241 net.cpp:154] Setting up Layer of device :0 @cpu 0 Layer : inception_3a/pool
I0331 19:11:44.463275 136241 layer_factory.hpp:114] Creating layer inception_3a/pool
I0331 19:11:44.463316 136241 net.cpp:169] Creating Layer inception_3a/pool
I0331 19:11:44.463321 136241 net.cpp:606] inception_3a/pool <- pool2/3x3_s2_pool2/3x3_s2_0_split_3
I0331 19:11:44.463327 136241 net.cpp:579] inception_3a/pool -> inception_3a/pool
I0331 19:11:44.463331 136241 net.cpp:582] From AppendTop @cpu: 0
I0331 19:11:44.463349 136241 net.cpp:219] Setting up inception_3a/pool
I0331 19:11:44.463357 136241 net.cpp:226] Top shape: 112 192 28 28 (16859136)
I0331 19:11:44.463361 136241 net.cpp:234] Memory required for data: 2596308736
I0331 19:11:44.463366 136241 net.cpp:154] Setting up Layer of device :0 @cpu 0 Layer : inception_3a/pool_proj
I0331 19:11:44.463371 136241 layer_factory.hpp:114] Creating layer inception_3a/pool_proj
I0331 19:11:44.463379 136241 net.cpp:169] Creating Layer inception_3a/pool_proj
I0331 19:11:44.463383 136241 net.cpp:606] inception_3a/pool_proj <- inception_3a/pool
I0331 19:11:44.463392 136241 net.cpp:579] inception_3a/pool_proj -> inception_3a/pool_proj
I0331 19:11:44.463397 136241 net.cpp:582] From AppendTop @cpu: 0
I0331 19:11:44.466886 136241 net.cpp:219] Setting up inception_3a/pool_proj
I0331 19:11:44.466897 136241 net.cpp:226] Top shape: 112 32 28 28 (2809856)
I0331 19:11:44.466900 136241 net.cpp:234] Memory required for data: 2607548160
I0331 19:11:44.466918 136241 net.cpp:154] Setting up Layer of device :0 @cpu 0 Layer : inception_3a/relu_pool_proj
I0331 19:11:44.466923 136241 layer_factory.hpp:114] Creating layer inception_3a/relu_pool_proj
I0331 19:11:44.466929 136241 net.cpp:169] Creating Layer inception_3a/relu_pool_proj
I0331 19:11:44.466933 136241 net.cpp:606] inception_3a/relu_pool_proj <- inception_3a/pool_proj
I0331 19:11:44.466939 136241 net.cpp:566] inception_3a/relu_pool_proj -> inception_3a/pool_proj (in-place)
I0331 19:11:44.466946 136241 net.cpp:219] Setting up inception_3a/relu_pool_proj
I0331 19:11:44.466953 136241 net.cpp:226] Top shape: 112 32 28 28 (2809856)
I0331 19:11:44.466955 136241 net.cpp:234] Memory required for data: 2618787584
I0331 19:11:44.466960 136241 net.cpp:154] Setting up Layer of device :0 @cpu 0 Layer : inception_3a/output
I0331 19:11:44.466964 136241 layer_factory.hpp:114] Creating layer inception_3a/output
I0331 19:11:44.466971 136241 net.cpp:169] Creating Layer inception_3a/output
I0331 19:11:44.466975 136241 net.cpp:606] inception_3a/output <- inception_3a/1x1
I0331 19:11:44.466980 136241 net.cpp:606] inception_3a/output <- inception_3a/3x3
I0331 19:11:44.466985 136241 net.cpp:606] inception_3a/output <- inception_3a/5x5
I0331 19:11:44.466990 136241 net.cpp:606] inception_3a/output <- inception_3a/pool_proj
I0331 19:11:44.466997 136241 net.cpp:579] inception_3a/output -> inception_3a/output
I0331 19:11:44.467001 136241 net.cpp:582] From AppendTop @cpu: 0
I0331 19:11:44.467020 136241 net.cpp:219] Setting up inception_3a/output
I0331 19:11:44.467025 136241 net.cpp:226] Top shape: 112 256 28 28 (22478848)
I0331 19:11:44.467041 136241 net.cpp:234] Memory required for data: 2708702976
I0331 19:11:44.467046 136241 net.cpp:154] Setting up Layer of device :0 @cpu 0 Layer : inception_3a/output_inception_3a/output_0_split
I0331 19:11:44.467051 136241 layer_factory.hpp:114] Creating layer inception_3a/output_inception_3a/output_0_split
I0331 19:11:44.467058 136241 net.cpp:169] Creating Layer inception_3a/output_inception_3a/output_0_split
…
I0331 19:11:44.467085 136241 net.cpp:582] From AppendTop @cpu: 0
I0331 19:11:44.467092 136241 net.cpp:579] inception_3a/output_inception_3a/output_0_split -> inception_3a/output_inception_3a/output_0_split_2
I0331 19:11:44.467095 136241 net.cpp:582] From AppendTop @cpu: 0
I0331 19:11:44.467102 136241 net.cpp:579] inception_3a/output_inception_3a/output_0_split -> inception_3a/output_inception_3a/output_0_split_3
I0331 19:11:44.467104 136241 net.cpp:582] From AppendTop @cpu: 0
I0331 19:11:44.467113 136241 net.cpp:219] Setting up inception_3a/output_inception_3a/output_0_split
I0331 19:11:44.467123 136241 net.cpp:226] Top shape: 112 256 28 28 (22478848)
I0331 19:11:44.467128 136241 net.cpp:226] Top shape: 112 256 28 28 (22478848)
I0331 19:11:44.467131 136241 net.cpp:226] Top shape: 112 256 28 28 (22478848)
I0331 19:11:44.467136 136241 net.cpp:226] Top shape: 112 256 28 28 (22478848)
I0331 19:11:44.467140 136241 net.cpp:234] Memory required for data: 3068364544
I0331 19:11:44.467144 136241 net.cpp:154] Setting up Layer of device :0 @cpu 0 Layer : inception_3b/1x1
I0331 19:11:44.467149 136241 layer_factory.hpp:114] Creating layer inception_3b/1x1
I0331 19:11:44.467162 136241 net.cpp:169] Creating Layer inception_3b/1x1
I0331 19:11:44.467166 136241 net.cpp:606] inception_3b/1x1 <- inception_3a/output_inception_3a/output_0_split_0
I0331 19:11:44.467173 136241 net.cpp:579] inception_3b/1x1 -> inception_3b/1x1
I0331 19:11:44.467176 136241 net.cpp:582] From AppendTop @cpu: 0
I0331 19:11:44.472862 136241 net.cpp:219] Setting up inception_3b/1x1
I0331 19:11:44.472873 136241 net.cpp:226] Top shape: 112 128 28 28 (11239424)
I0331 19:11:44.472877 136241 net.cpp:234] Memory required for data: 3113322240
I0331 19:11:44.472887 136241 net.cpp:154] Setting up Layer of device :0 @cpu 0 Layer : inception_3b/relu_1x1
I0331 19:11:44.472892 136241 layer_factory.hpp:114] Creating layer inception_3b/relu_1x1
I0331 19:11:44.472900 136241 net.cpp:169] Creating Layer inception_3b/relu_1x1
I0331 19:11:44.472905 136241 net.cpp:606] inception_3b/relu_1x1 <- inception_3b/1x1
I0331 19:11:44.472910 136241 net.cpp:566] inception_3b/relu_1x1 -> inception_3b/1x1 (in-place)
I0331 19:11:44.472918 136241 net.cpp:219] Setting up inception_3b/relu_1x1
I0331 19:11:44.472923 136241 net.cpp:226] Top shape: 112 128 28 28 (11239424)
I0331 19:11:44.472926 136241 net.cpp:234] Memory required for data: 3158279936
I0331 19:11:44.472931 136241 net.cpp:154] Setting up Layer of device :0 @cpu 0 Layer : inception_3b/3x3_reduce
I0331 19:11:44.472936 136241 layer_factory.hpp:114] Creating layer inception_3b/3x3_reduce
I0331 19:11:44.472946 136241 net.cpp:169] Creating Layer inception_3b/3x3_reduce
I0331 19:11:44.472951 136241 net.cpp:606] inception_3b/3x3_reduce <- inception_3a/output_inception_3a/output_0_split_1
I0331 19:11:44.472959 136241 net.cpp:579] inception_3b/3x3_reduce -> inception_3b/3x3_reduce
I0331 19:11:44.472964 136241 net.cpp:582] From AppendTop @cpu: 0
I0331 19:11:44.478107 136241 net.cpp:219] Setting up inception_3b/3x3_reduce
I0331 19:11:44.478118 136241 net.cpp:226] Top shape: 112 128 28 28 (11239424)
I0331 19:11:44.478121 136241 net.cpp:234] Memory required for data: 3203237632
I0331 19:11:44.478142 136241 net.cpp:154] Setting up Layer of device :0 @cpu 0 Layer : inception_3b/relu_3x3_reduce
I0331 19:11:44.478147 136241 layer_factory.hpp:114] Creating layer inception_3b/relu_3x3_reduce
I0331 19:11:44.478154 136241 net.cpp:169] Creating Layer inception_3b/relu_3x3_reduce
I0331 19:11:44.478159 136241 net.cpp:606] inception_3b/relu_3x3_reduce <- inception_3b/3x3_reduce
I0331 19:11:44.478165 136241 net.cpp:566] inception_3b/relu_3x3_reduce -> inception_3b/3x3_reduce (in-place)
I0331 19:11:44.478173 136241 net.cpp:219] Setting up inception_3b/relu_3x3_reduce
I0331 19:11:44.478178 136241 net.cpp:226] Top shape: 112 128 28 28 (11239424)
I0331 19:11:44.478181 136241 net.cpp:234] Memory required for data: 3248195328
I0331 19:11:44.478186 136241 net.cpp:154] Setting up Layer of device :0 @cpu 0 Layer : inception_3b/3x3
I0331 19:11:44.478190 136241 layer_factory.hpp:114] Creating layer inception_3b/3x3
I0331 19:11:44.478211 136241 net.cpp:169] Creating Layer inception_3b/3x3
I0331 19:11:44.478215 136241 net.cpp:606] inception_3b/3x3 <- inception_3b/3x3_reduce
I0331 19:11:44.478222 136241 net.cpp:579] inception_3b/3x3 -> inception_3b/3x3
I0331 19:11:44.478226 136241 net.cpp:582] From AppendTop @cpu: 0
I0331 19:11:44.501562 136241 net.cpp:219] Setting up inception_3b/3x3
I0331 19:11:44.501608 136241 net.cpp:226] Top shape: 112 192 28 28 (16859136)
I0331 19:11:44.501612 136241 net.cpp:234] Memory required for data: 3315631872
I0331 19:11:44.501636 136241 net.cpp:154] Setting up Layer of device :0 @cpu 0 Layer : inception_3b/relu_3x3
I0331 19:11:44.501655 136241 layer_factory.hpp:114] Creating layer inception_3b/relu_3x3
I0331 19:11:44.501672 136241 net.cpp:169] Creating Layer inception_3b/relu_3x3
I0331 19:11:44.501679 136241 net.cpp:606] inception_3b/relu_3x3 <- inception_3b/3x3
I0331 19:11:44.501690 136241 net.cpp:566] inception_3b/relu_3x3 -> inception_3b/3x3 (in-place)
I0331 19:11:44.501703 136241 net.cpp:219] Setting up inception_3b/relu_3x3
I0331 19:11:44.501709 136241 net.cpp:226] Top shape: 112 192 28 28 (16859136)
I0331 19:11:44.501713 136241 net.cpp:234] Memory required for data: 3383068416
I0331 19:11:44.501718 136241 net.cpp:154] Setting up Layer of device :0 @cpu 0 Layer : inception_3b/5x5_reduce
I0331 19:11:44.501723 136241 layer_factory.hpp:114] Creating layer inception_3b/5x5_reduce
I0331 19:11:44.501739 136241 net.cpp:169] Creating Layer inception_3b/5x5_reduce
I0331 19:11:44.501742 136241 net.cpp:606] inception_3b/5x5_reduce <- inception_3a/output_inception_3a/output_0_split_2
I0331 19:11:44.501752 136241 net.cpp:579] inception_3b/5x5_reduce -> inception_3b/5x5_reduce
I0331 19:11:44.501756 136241 net.cpp:582] From AppendTop @cpu: 0
I0331 19:11:44.506419 136241 net.cpp:219] Setting up inception_3b/5x5_reduce
I0331 19:11:44.506430 136241 net.cpp:226] Top shape: 112 32 28 28 (2809856)
I0331 19:11:44.506434 136241 net.cpp:234] Memory required for data: 3394307840
I0331 19:11:44.506444 136241 net.cpp:154] Setting up Layer of device :0 @cpu 0 Layer : inception_3b/relu_5x5_reduce
I0331 19:11:44.506448 136241 layer_factory.hpp:114] Creating layer inception_3b/relu_5x5_reduce
I0331 19:11:44.506458 136241 net.cpp:169] Creating Layer inception_3b/relu_5x5_reduce
I0331 19:11:44.506463 136241 net.cpp:606] inception_3b/relu_5x5_reduce <- inception_3b/5x5_reduce
I0331 19:11:44.506469 136241 net.cpp:566] inception_3b/relu_5x5_reduce -> inception_3b/5x5_reduce (in-place)
I0331 19:11:44.506474 136241 net.cpp:219] Setting up inception_3b/relu_5x5_reduce
I0331 19:11:44.506480 136241 net.cpp:226] Top shape: 112 32 28 28 (2809856)
I0331 19:11:44.506484 136241 net.cpp:234] Memory required for data: 3405547264
I0331 19:11:44.506489 136241 net.cpp:154] Setting up Layer of device :0 @cpu 0 Layer : inception_3b/5x5
I0331 19:11:44.506494 136241 layer_factory.hpp:114] Creating layer inception_3b/5x5
I0331 19:11:44.506505 136241 net.cpp:169] Creating Layer inception_3b/5x5
I0331 19:11:44.506508 136241 net.cpp:606] inception_3b/5x5 <- inception_3b/5x5_reduce
I0331 19:11:44.506536 136241 net.cpp:579] inception_3b/5x5 -> inception_3b/5x5
I0331 19:11:44.506539 136241 net.cpp:582] From AppendTop @cpu: 0
I0331 19:11:44.520829 136241 net.cpp:219] Setting up inception_3b/5x5
I0331 19:11:44.520862 136241 net.cpp:226] Top shape: 112 96 28 28 (8429568)
I0331 19:11:44.520866 136241 net.cpp:234] Memory required for data: 3439265536
I0331 19:11:44.520882 136241 net.cpp:154] Setting up Layer of device :0 @cpu 0 Layer : inception_3b/relu_5x5
I0331 19:11:44.520887 136241 layer_factory.hpp:114] Creating layer inception_3b/relu_5x5
I0331 19:11:44.520900 136241 net.cpp:169] Creating Layer inception_3b/relu_5x5
I0331 19:11:44.520906 136241 net.cpp:606] inception_3b/relu_5x5 <- inception_3b/5x5
I0331 19:11:44.520917 136241 net.cpp:566] inception_3b/relu_5x5 -> inception_3b/5x5 (in-place)
I0331 19:11:44.520927 136241 net.cpp:219] Setting up inception_3b/relu_5x5
I0331 19:11:44.520933 136241 net.cpp:226] Top shape: 112 96 28 28 (8429568)
I0331 19:11:44.520937 136241 net.cpp:234] Memory required for data: 3472983808
I0331 19:11:44.520942 136241 net.cpp:154] Setting up Layer of device :0 @cpu 0 Layer : inception_3b/pool
I0331 19:11:44.520947 136241 layer_factory.hpp:114] Creating layer inception_3b/pool
I0331 19:11:44.520982 136241 net.cpp:169] Creating Layer inception_3b/pool
I0331 19:11:44.520987 136241 net.cpp:606] inception_3b/pool <- inception_3a/output_inception_3a/output_0_split_3
I0331 19:11:44.520997 136241 net.cpp:579] inception_3b/pool -> inception_3b/pool
I0331 19:11:44.521000 136241 net.cpp:582] From AppendTop @cpu: 0
I0331 19:11:44.521028 136241 net.cpp:219] Setting up inception_3b/pool
I0331 19:11:44.521034 136241 net.cpp:226] Top shape: 112 256 28 28 (22478848)
I0331 19:11:44.521037 136241 net.cpp:234] Memory required for data: 3562899200
I0331 19:11:44.521042 136241 net.cpp:154] Setting up Layer of device :0 @cpu 0 Layer : inception_3b/pool_proj
I0331 19:11:44.521046 136241 layer_factory.hpp:114] Creating layer inception_3b/pool_proj
I0331 19:11:44.521059 136241 net.cpp:169] Creating Layer inception_3b/pool_proj
I0331 19:11:44.521064 136241 net.cpp:606] inception_3b/pool_proj <- inception_3b/pool
I0331 19:11:44.521072 136241 net.cpp:579] inception_3b/pool_proj -> inception_3b/pool_proj
I0331 19:11:44.521076 136241 net.cpp:582] From AppendTop @cpu: 0
I0331 19:11:44.526058 136241 net.cpp:219] Setting up inception_3b/pool_proj
I0331 19:11:44.526070 136241 net.cpp:226] Top shape: 112 64 28 28 (5619712)
I0331 19:11:44.526074 136241 net.cpp:234] Memory required for data: 3585378048
I0331 19:11:44.526083 136241 net.cpp:154] Setting up Layer of device :0 @cpu 0 Layer : inception_3b/relu_pool_proj
I0331 19:11:44.526087 136241 layer_factory.hpp:114] Creating layer inception_3b/relu_pool_proj
I0331 19:11:44.526096 136241 net.cpp:169] Creating Layer inception_3b/relu_pool_proj
I0331 19:11:44.526101 136241 net.cpp:606] inception_3b/relu_pool_proj <- inception_3b/pool_proj
I0331 19:11:44.526108 136241 net.cpp:566] inception_3b/relu_pool_proj -> inception_3b/pool_proj (in-place)
I0331 19:11:44.526114 136241 net.cpp:219] Setting up inception_3b/relu_pool_proj
I0331 19:11:44.526120 136241 net.cpp:226] Top shape: 112 64 28 28 (5619712)
I0331 19:11:44.526124 136241 net.cpp:234] Memory required for data: 3607856896
I0331 19:11:44.526129 136241 net.cpp:154] Setting up Layer of device :0 @cpu 0 Layer : inception_3b/output
I0331 19:11:44.526134 136241 layer_factory.hpp:114] Creating layer inception_3b/output
I0331 19:11:44.526141 136241 net.cpp:169] Creating Layer inception_3b/output
I0331 19:11:44.526146 136241 net.cpp:606] inception_3b/output <- inception_3b/1x1
I0331 19:11:44.526151 136241 net.cpp:606] inception_3b/output <- inception_3b/3x3
I0331 19:11:44.526156 136241 net.cpp:606] inception_3b/output <- inception_3b/5x5
I0331 19:11:44.526161 136241 net.cpp:606] inception_3b/output <- inception_3b/pool_proj
I0331 19:11:44.526170 136241 net.cpp:579] inception_3b/output -> inception_3b/output
I0331 19:11:44.526173 136241 net.cpp:582] From AppendTop @cpu: 0
I0331 19:11:44.526183 136241 net.cpp:219] Setting up inception_3b/output
I0331 19:11:44.526208 136241 net.cpp:226] Top shape: 112 480 28 28 (42147840)
I0331 19:11:44.526212 136241 net.cpp:234] Memory required for data: 3776448256
I0331 19:11:44.526217 136241 net.cpp:154] Setting up Layer of device :0 @cpu 0 Layer : pool3/3x3_s2
I0331 19:11:44.526221 136241 layer_factory.hpp:114] Creating layer pool3/3x3_s2
I0331 19:11:44.526242 136241 net.cpp:169] Creating Layer pool3/3x3_s2
I0331 19:11:44.526247 136241 net.cpp:606] pool3/3x3_s2 <- inception_3b/output
I0331 19:11:44.526255 136241 net.cpp:579] pool3/3x3_s2 -> pool3/3x3_s2
I0331 19:11:44.526258 136241 net.cpp:582] From AppendTop @cpu: 0
I0331 19:11:44.526268 136241 net.cpp:219] Setting up pool3/3x3_s2
I0331 19:11:44.526273 136241 net.cpp:226] Top shape: 112 480 14 14 (10536960)
I0331 19:11:44.526276 136241 net.cpp:234] Memory required for data: 3818596096
I0331 19:11:44.526281 136241 net.cpp:154] Setting up Layer of device :0 @cpu 0 Layer : pool3/3x3_s2_pool3/3x3_s2_0_split
I0331 19:11:44.526285 136241 layer_factory.hpp:114] Creating layer pool3/3x3_s2_pool3/3x3_s2_0_split
I0331 19:11:44.526293 136241 net.cpp:169] Creating Layer pool3/3x3_s2_pool3/3x3_s2_0_split
I0331 19:11:44.526298 136241 net.cpp:606] pool3/3x3_s2_pool3/3x3_s2_0_split <- pool3/3x3_s2
I0331 19:11:44.526306 136241 net.cpp:579] pool3/3x3_s2_pool3/3x3_s2_0_split -> pool3/3x3_s2_pool3/3x3_s2_0_split_0
I0331 19:11:44.526310 136241 net.cpp:582] From AppendTop @cpu: 0
I0331 19:11:44.526316 136241 net.cpp:579] pool3/3x3_s2_pool3/3x3_s2_0_split -> pool3/3x3_s2_pool3/3x3_s2_0_split_1
I0331 19:11:44.526324 136241 net.cpp:582] From AppendTop @cpu: 0
I0331 19:11:44.526330 136241 net.cpp:579] pool3/3x3_s2_pool3/3x3_s2_0_split -> pool3/3x3_s2_pool3/3x3_s2_0_split_2
I0331 19:11:44.526334 136241 net.cpp:582] From AppendTop @cpu: 0
I0331 19:11:44.526340 136241 net.cpp:579] pool3/3x3_s2_pool3/3x3_s2_0_split -> pool3/3x3_s2_pool3/3x3_s2_0_split_3
I0331 19:11:44.526345 136241 net.cpp:582] From AppendTop @cpu: 0
I0331 19:11:44.526353 136241 net.cpp:219] Setting up pool3/3x3_s2_pool3/3x3_s2_0_split
I0331 19:11:44.526358 136241 net.cpp:226] Top shape: 112 480 14 14 (10536960)
I0331 19:11:44.526363 136241 net.cpp:226] Top shape: 112 480 14 14 (10536960)
I0331 19:11:44.526368 136241 net.cpp:226] Top shape: 112 480 14 14 (10536960)
I0331 19:11:44.526373 136241 net.cpp:226] Top shape: 112 480 14 14 (10536960)
I0331 19:11:44.526376 136241 net.cpp:234] Memory required for data: 3987187456
I0331 19:11:44.526381 136241 net.cpp:154] Setting up Layer of device :0 @cpu 0 Layer : inception_4a/1x1
I0331 19:11:44.526386 136241 layer_factory.hpp:114] Creating layer inception_4a/1x1
I0331 19:11:44.526396 136241 net.cpp:169] Creating Layer inception_4a/1x1
I0331 19:11:44.526401 136241 net.cpp:606] inception_4a/1x1 <- pool3/3x3_s2_pool3/3x3_s2_0_split_0
I0331 19:11:44.526409 136241 net.cpp:579] inception_4a/1x1 -> inception_4a/1x1
I0331 19:11:44.526412 136241 net.cpp:582] From AppendTop @cpu: 0
I0331 19:11:44.531746 136241 net.cpp:219] Setting up inception_4a/1x1
I0331 19:11:44.531759 136241 net.cpp:226] Top shape: 112 192 14 14 (4214784)
I0331 19:11:44.531762 136241 net.cpp:234] Memory required for data: 4004046592
I0331 19:11:44.531771 136241 net.cpp:154] Setting up Layer of device :0 @cpu 0 Layer : inception_4a/relu_1x1
I0331 19:11:44.531775 136241 layer_factory.hpp:114] Creating layer inception_4a/relu_1x1
I0331 19:11:44.531785 136241 net.cpp:169] Creating Layer inception_4a/relu_1x1
I0331 19:11:44.531790 136241 net.cpp:606] inception_4a/relu_1x1 <- inception_4a/1x1
I0331 19:11:44.531795 136241 net.cpp:566] inception_4a/relu_1x1 -> inception_4a/1x1 (in-place)
I0331 19:11:44.531802 136241 net.cpp:219] Setting up inception_4a/relu_1x1
I0331 19:11:44.531807 136241 net.cpp:226] Top shape: 112 192 14 14 (4214784)
I0331 19:11:44.531811 136241 net.cpp:234] Memory required for data: 4020905728
I0331 19:11:44.531816 136241 net.cpp:154] Setting up Layer of device :0 @cpu 0 Layer : inception_4a/3x3_reduce
I0331 19:11:44.531819 136241 layer_factory.hpp:114] Creating layer inception_4a/3x3_reduce
I0331 19:11:44.531841 136241 net.cpp:169] Creating Layer inception_4a/3x3_reduce
I0331 19:11:44.531847 136241 net.cpp:606] inception_4a/3x3_reduce <- pool3/3x3_s2_pool3/3x3_s2_0_split_1
I0331 19:11:44.531855 136241 net.cpp:579] inception_4a/3x3_reduce -> inception_4a/3x3_reduce
I0331 19:11:44.531858 136241 net.cpp:582] From AppendTop @cpu: 0
I0331 19:11:44.535758 136241 net.cpp:219] Setting up inception_4a/3x3_reduce
I0331 19:11:44.535768 136241 net.cpp:226] Top shape: 112 96 14 14 (2107392)
I0331 19:11:44.535771 136241 net.cpp:234] Memory required for data: 4029335296
I0331 19:11:44.535789 136241 net.cpp:154] Setting up Layer of device :0 @cpu 0 Layer : inception_4a/relu_3x3_reduce
I0331 19:11:44.535794 136241 layer_factory.hpp:114] Creating layer inception_4a/relu_3x3_reduce
I0331 19:11:44.535802 136241 net.cpp:169] Creating Layer inception_4a/relu_3x3_reduce
I0331 19:11:44.535806 136241 net.cpp:606] inception_4a/relu_3x3_reduce <- inception_4a/3x3_reduce
I0331 19:11:44.535812 136241 net.cpp:566] inception_4a/relu_3x3_reduce -> inception_4a/3x3_reduce (in-place)
I0331 19:11:44.535820 136241 net.cpp:219] Setting up inception_4a/relu_3x3_reduce
I0331 19:11:44.535825 136241 net.cpp:226] Top shape: 112 96 14 14 (2107392)
I0331 19:11:44.535828 136241 net.cpp:234] Memory required for data: 4037764864
I0331 19:11:44.535833 136241 net.cpp:154] Setting up Layer of device :0 @cpu 0 Layer : inception_4a/3x3
I0331 19:11:44.535837 136241 layer_factory.hpp:114] Creating layer inception_4a/3x3
I0331 19:11:44.535848 136241 net.cpp:169] Creating Layer inception_4a/3x3
I0331 19:11:44.535858 136241 net.cpp:606] inception_4a/3x3 <- inception_4a/3x3_reduce
I0331 19:11:44.535867 136241 net.cpp:579] inception_4a/3x3 -> inception_4a/3x3
I0331 19:11:44.535871 136241 net.cpp:582] From AppendTop @cpu: 0
I0331 19:11:44.545135 136241 net.cpp:219] Setting up inception_4a/3x3
I0331 19:11:44.545151 136241 net.cpp:226] Top shape: 112 208 14 14 (4566016)
I0331 19:11:44.545156 136241 net.cpp:234] Memory required for data: 4056028928
I0331 19:11:44.545166 136241 net.cpp:154] Setting up Layer of device :0 @cpu 0 Layer : inception_4a/relu_3x3
I0331 19:11:44.545169 136241 layer_factory.hpp:114] Creating layer inception_4a/relu_3x3
I0331 19:11:44.545176 136241 net.cpp:169] Creating Layer inception_4a/relu_3x3
I0331 19:11:44.545181 136241 net.cpp:606] inception_4a/relu_3x3 <- inception_4a/3x3
I0331 19:11:44.545186 136241 net.cpp:566] inception_4a/relu_3x3 -> inception_4a/3x3 (in-place)
I0331 19:11:44.545193 136241 net.cpp:219] Setting up inception_4a/relu_3x3
I0331 19:11:44.545198 136241 net.cpp:226] Top shape: 112 208 14 14 (4566016)
I0331 19:11:44.545202 136241 net.cpp:234] Memory required for data: 4074292992
I0331 19:11:44.545207 136241 net.cpp:154] Setting up Layer of device :0 @cpu 0 Layer : inception_4a/5x5_reduce
I0331 19:11:44.545212 136241 layer_factory.hpp:114] Creating layer inception_4a/5x5_reduce
I0331 19:11:44.545222 136241 net.cpp:169] Creating Layer inception_4a/5x5_reduce
I0331 19:11:44.545228 136241 net.cpp:606] inception_4a/5x5_reduce <- pool3/3x3_s2_pool3/3x3_s2_0_split_2
I0331 19:11:44.545236 136241 net.cpp:579] inception_4a/5x5_reduce -> inception_4a/5x5_reduce
I0331 19:11:44.545240 136241 net.cpp:582] From AppendTop @cpu: 0
I0331 19:11:44.547520 136241 net.cpp:219] Setting up inception_4a/5x5_reduce
I0331 19:11:44.547531 136241 net.cpp:226] Top shape: 112 16 14 14 (351232)
I0331 19:11:44.547535 136241 net.cpp:234] Memory required for data: 4075697920
I0331 19:11:44.547544 136241 net.cpp:154] Setting up Layer of device :0 @cpu 0 Layer : inception_4a/relu_5x5_reduce
I0331 19:11:44.547549 136241 layer_factory.hpp:114] Creating layer inception_4a/relu_5x5_reduce
I0331 19:11:44.547557 136241 net.cpp:169] Creating Layer inception_4a/relu_5x5_reduce
I0331 19:11:44.547561 136241 net.cpp:606] inception_4a/relu_5x5_reduce <- inception_4a/5x5_reduce
I0331 19:11:44.547567 136241 net.cpp:566] inception_4a/relu_5x5_reduce -> inception_4a/5x5_reduce (in-place)
I0331 19:11:44.547574 136241 net.cpp:219] Setting up inception_4a/relu_5x5_reduce
I0331 19:11:44.547580 136241 net.cpp:226] Top shape: 112 16 14 14 (351232)
I0331 19:11:44.547595 136241 net.cpp:234] Memory required for data: 4077102848
I0331 19:11:44.547600 136241 net.cpp:154] Setting up Layer of device :0 @cpu 0 Layer : inception_4a/5x5
I0331 19:11:44.547605 136241 layer_factory.hpp:114] Creating layer inception_4a/5x5
I0331 19:11:44.547616 136241 net.cpp:169] Creating Layer inception_4a/5x5
I0331 19:11:44.547619 136241 net.cpp:606] inception_4a/5x5 <- inception_4a/5x5_reduce
I0331 19:11:44.547631 136241 net.cpp:579] inception_4a/5x5 -> inception_4a/5x5
I0331 19:11:44.547637 136241 net.cpp:582] From AppendTop @cpu: 0
I0331 19:11:44.550451 136241 net.cpp:219] Setting up inception_4a/5x5
I0331 19:11:44.550462 136241 net.cpp:226] Top shape: 112 48 14 14 (1053696)
I0331 19:11:44.550465 136241 net.cpp:234] Memory required for data: 4081317632
I0331 19:11:44.550474 136241 net.cpp:154] Setting up Layer of device :0 @cpu 0 Layer : inception_4a/relu_5x5
I0331 19:11:44.550478 136241 layer_factory.hpp:114] Creating layer inception_4a/relu_5x5
I0331 19:11:44.550484 136241 net.cpp:169] Creating Layer inception_4a/relu_5x5
I0331 19:11:44.550489 136241 net.cpp:606] inception_4a/relu_5x5 <- inception_4a/5x5
I0331 19:11:44.550498 136241 net.cpp:566] inception_4a/relu_5x5 -> inception_4a/5x5 (in-place)
I0331 19:11:44.550504 136241 net.cpp:219] Setting up inception_4a/relu_5x5
I0331 19:11:44.550509 136241 net.cpp:226] Top shape: 112 48 14 14 (1053696)
I0331 19:11:44.550513 136241 net.cpp:234] Memory required for data: 4085532416
I0331 19:11:44.550523 136241 net.cpp:154] Setting up Layer of device :0 @cpu 0 Layer : inception_4a/pool
I0331 19:11:44.550526 136241 layer_factory.hpp:114] Creating layer inception_4a/pool
I0331 19:11:44.550562 136241 net.cpp:169] Creating Layer inception_4a/pool
I0331 19:11:44.550567 136241 net.cpp:606] inception_4a/pool <- pool3/3x3_s2_pool3/3x3_s2_0_split_3
I0331 19:11:44.550576 136241 net.cpp:579] inception_4a/pool -> inception_4a/pool
I0331 19:11:44.550580 136241 net.cpp:582] From AppendTop @cpu: 0
I0331 19:11:44.550591 136241 net.cpp:219] Setting up inception_4a/pool
I0331 19:11:44.550597 136241 net.cpp:226] Top shape: 112 480 14 14 (10536960)
I0331 19:11:44.550601 136241 net.cpp:234] Memory required for data: 4127680256
I0331 19:11:44.550606 136241 net.cpp:154] Setting up Layer of device :0 @cpu 0 Layer : inception_4a/pool_proj
I0331 19:11:44.550611 136241 layer_factory.hpp:114] Creating layer inception_4a/pool_proj
I0331 19:11:44.550621 136241 net.cpp:169] Creating Layer inception_4a/pool_proj
I0331 19:11:44.550631 136241 net.cpp:606] inception_4a/pool_proj <- inception_4a/pool
I0331 19:11:44.550640 136241 net.cpp:579] inception_4a/pool_proj -> inception_4a/pool_proj
I0331 19:11:44.550644 136241 net.cpp:582] From AppendTop @cpu: 0
I0331 19:11:44.554422 136241 net.cpp:219] Setting up inception_4a/pool_proj
I0331 19:11:44.554435 136241 net.cpp:226] Top shape: 112 64 14 14 (1404928)
I0331 19:11:44.554438 136241 net.cpp:234] Memory required for data: 4133299968
I0331 19:11:44.554447 136241 net.cpp:154] Setting up Layer of device :0 @cpu 0 Layer : inception_4a/relu_pool_proj
I0331 19:11:44.554451 136241 layer_factory.hpp:114] Creating layer inception_4a/relu_pool_proj
I0331 19:11:44.554457 136241 net.cpp:169] Creating Layer inception_4a/relu_pool_proj
I0331 19:11:44.554462 136241 net.cpp:606] inception_4a/relu_pool_proj <- inception_4a/pool_proj
I0331 19:11:44.554471 136241 net.cpp:566] inception_4a/relu_pool_proj -> inception_4a/pool_proj (in-place)
I0331 19:11:44.554477 136241 net.cpp:219] Setting up inception_4a/relu_pool_proj
I0331 19:11:44.554483 136241 net.cpp:226] Top shape: 112 64 14 14 (1404928)
I0331 19:11:44.554486 136241 net.cpp:234] Memory required for data: 4138919680
I0331 19:11:44.554491 136241 net.cpp:154] Setting up Layer of device :0 @cpu 0 Layer : inception_4a/output
I0331 19:11:44.554496 136241 layer_factory.hpp:114] Creating layer inception_4a/output
I0331 19:11:44.554502 136241 net.cpp:169] Creating Layer inception_4a/output
I0331 19:11:44.554507 136241 net.cpp:606] inception_4a/output <- inception_4a/1x1
I0331 19:11:44.554522 136241 net.cpp:606] inception_4a/output <- inception_4a/3x3
I0331 19:11:44.554527 136241 net.cpp:606] inception_4a/output <- inception_4a/5x5
I0331 19:11:44.554530 136241 net.cpp:606] inception_4a/output <- inception_4a/pool_proj
I0331 19:11:44.554539 136241 net.cpp:579] inception_4a/output -> inception_4a/output
I0331 19:11:44.554543 136241 net.cpp:582] From AppendTop @cpu: 0
I0331 19:11:44.554553 136241 net.cpp:219] Setting up inception_4a/output
I0331 19:11:44.554558 136241 net.cpp:226] Top shape: 112 512 14 14 (11239424)
I0331 19:11:44.554563 136241 net.cpp:234] Memory required for data: 4183877376
I0331 19:11:44.554567 136241 net.cpp:154] Setting up Layer of device :0 @cpu 0 Layer : inception_4a/output_inception_4a/output_0_split
I0331 19:11:44.554571 136241 layer_factory.hpp:114] Creating layer inception_4a/output_inception_4a/output_0_split
I0331 19:11:44.554581 136241 net.cpp:169] Creating Layer inception_4a/output_inception_4a/output_0_split
…
I0331 19:11:44.554626 136241 net.cpp:582] From AppendTop @cpu: 0
I0331 19:11:44.554636 136241 net.cpp:579] inception_4a/output_inception_4a/output_0_split -> inception_4a/output_inception_4a/output_0_split_3
I0331 19:11:44.554638 136241 net.cpp:582] From AppendTop @cpu: 0
I0331 19:11:44.554644 136241 net.cpp:579] inception_4a/output_inception_4a/output_0_split -> inception_4a/output_inception_4a/output_0_split_4
I0331 19:11:44.554648 136241 net.cpp:582] From AppendTop @cpu: 0
I0331 19:11:44.554659 136241 net.cpp:219] Setting up inception_4a/output_inception_4a/output_0_split
I0331 19:11:44.554666 136241 net.cpp:226] Top shape: 112 512 14 14 (11239424)
I0331 19:11:44.554671 136241 net.cpp:226] Top shape: 112 512 14 14 (11239424)
I0331 19:11:44.554675 136241 net.cpp:226] Top shape: 112 512 14 14 (11239424)
I0331 19:11:44.554680 136241 net.cpp:226] Top shape: 112 512 14 14 (11239424)
I0331 19:11:44.554684 136241 net.cpp:226] Top shape: 112 512 14 14 (11239424)
I0331 19:11:44.554688 136241 net.cpp:234] Memory required for data: 4408665856
I0331 19:11:44.554693 136241 net.cpp:154] Setting up Layer of device :0 @cpu 0 Layer : loss1/ave_pool
I0331 19:11:44.554697 136241 layer_factory.hpp:114] Creating layer loss1/ave_pool
I0331 19:11:44.554716 136241 net.cpp:169] Creating Layer loss1/ave_pool
I0331 19:11:44.554721 136241 net.cpp:606] loss1/ave_pool <- inception_4a/output_inception_4a/output_0_split_0
I0331 19:11:44.554729 136241 net.cpp:579] loss1/ave_pool -> loss1/ave_pool
I0331 19:11:44.554733 136241 net.cpp:582] From AppendTop @cpu: 0
I0331 19:11:44.554741 136241 net.cpp:219] Setting up loss1/ave_pool
I0331 19:11:44.554747 136241 net.cpp:226] Top shape: 112 512 4 4 (917504)
I0331 19:11:44.554751 136241 net.cpp:234] Memory required for data: 4412335872
I0331 19:11:44.554756 136241 net.cpp:154] Setting up Layer of device :0 @cpu 0 Layer : loss1/conv
I0331 19:11:44.554760 136241 layer_factory.hpp:114] Creating layer loss1/conv
I0331 19:11:44.554772 136241 net.cpp:169] Creating Layer loss1/conv
I0331 19:11:44.554776 136241 net.cpp:606] loss1/conv <- loss1/ave_pool
I0331 19:11:44.554783 136241 net.cpp:579] loss1/conv -> loss1/conv
I0331 19:11:44.554788 136241 net.cpp:582] From AppendTop @cpu: 0
I0331 19:11:44.557306 136241 net.cpp:219] Setting up loss1/conv
I0331 19:11:44.557317 136241 net.cpp:226] Top shape: 112 128 4 4 (229376)
I0331 19:11:44.557322 136241 net.cpp:234] Memory required for data: 4413253376
I0331 19:11:44.557338 136241 net.cpp:154] Setting up Layer of device :0 @cpu 0 Layer : loss1/relu_conv
I0331 19:11:44.557343 136241 layer_factory.hpp:114] Creating layer loss1/relu_conv
I0331 19:11:44.557349 136241 net.cpp:169] Creating Layer loss1/relu_conv
I0331 19:11:44.557353 136241 net.cpp:606] loss1/relu_conv <- loss1/conv
I0331 19:11:44.557361 136241 net.cpp:566] loss1/relu_conv -> loss1/conv (in-place)
I0331 19:11:44.557369 136241 net.cpp:219] Setting up loss1/relu_conv
I0331 19:11:44.557374 136241 net.cpp:226] Top shape: 112 128 4 4 (229376)
I0331 19:11:44.557379 136241 net.cpp:234] Memory required for data: 4414170880
I0331 19:11:44.557384 136241 net.cpp:154] Setting up Layer of device :0 @cpu 0 Layer : loss1/fc
I0331 19:11:44.557387 136241 layer_factory.hpp:114] Creating layer loss1/fc
I0331 19:11:44.557399 136241 net.cpp:169] Creating Layer loss1/fc
I0331 19:11:44.557404 136241 net.cpp:606] loss1/fc <- loss1/conv
I0331 19:11:44.557412 136241 net.cpp:579] loss1/fc -> loss1/fc
I0331 19:11:44.557415 136241 net.cpp:582] From AppendTop @cpu: 0
I0331 19:11:44.577234 136241 net.cpp:219] Setting up loss1/fc
I0331 19:11:44.577244 136241 net.cpp:226] Top shape: 112 1024 (114688)
I0331 19:11:44.577249 136241 net.cpp:234] Memory required for data: 4414629632
I0331 19:11:44.577257 136241 net.cpp:154] Setting up Layer of device :0 @cpu 0 Layer : loss1/relu_fc
I0331 19:11:44.577261 136241 layer_factory.hpp:114] Creating layer loss1/relu_fc
I0331 19:11:44.577267 136241 net.cpp:169] Creating Layer loss1/relu_fc
I0331 19:11:44.577276 136241 net.cpp:606] loss1/relu_fc <- loss1/fc
I0331 19:11:44.577283 136241 net.cpp:566] loss1/relu_fc -> loss1/fc (in-place)
I0331 19:11:44.577289 136241 net.cpp:219] Setting up loss1/relu_fc
I0331 19:11:44.577296 136241 net.cpp:226] Top shape: 112 1024 (114688)
I0331 19:11:44.577298 136241 net.cpp:234] Memory required for data: 4415088384
I0331 19:11:44.577303 136241 net.cpp:154] Setting up Layer of device :0 @cpu 0 Layer : loss1/drop_fc
I0331 19:11:44.577307 136241 layer_factory.hpp:114] Creating layer loss1/drop_fc
I0331 19:11:44.577327 136241 net.cpp:169] Creating Layer loss1/drop_fc
I0331 19:11:44.577330 136241 net.cpp:606] loss1/drop_fc <- loss1/fc
I0331 19:11:44.577337 136241 net.cpp:566] loss1/drop_fc -> loss1/fc (in-place)
I0331 19:11:44.577349 136241 net.cpp:219] Setting up loss1/drop_fc
I0331 19:11:44.577354 136241 net.cpp:226] Top shape: 112 1024 (114688)
I0331 19:11:44.577358 136241 net.cpp:234] Memory required for data: 4415547136
I0331 19:11:44.577363 136241 net.cpp:154] Setting up Layer of device :0 @cpu 0 Layer : loss1/classifier
I0331 19:11:44.577368 136241 layer_factory.hpp:114] Creating layer loss1/classifier
I0331 19:11:44.577378 136241 net.cpp:169] Creating Layer loss1/classifier
I0331 19:11:44.577383 136241 net.cpp:606] loss1/classifier <- loss1/fc
I0331 19:11:44.577389 136241 net.cpp:579] loss1/classifier -> loss1/classifier
I0331 19:11:44.577392 136241 net.cpp:582] From AppendTop @cpu: 0
I0331 19:11:44.587327 136241 net.cpp:219] Setting up loss1/classifier
I0331 19:11:44.587337 136241 net.cpp:226] Top shape: 112 1000 (112000)
I0331 19:11:44.587340 136241 net.cpp:234] Memory required for data: 4415995136
I0331 19:11:44.587349 136241 net.cpp:154] Setting up Layer of device :0 @cpu 0 Layer : loss1/loss
I0331 19:11:44.587353 136241 layer_factory.hpp:114] Creating layer loss1/loss
I0331 19:11:44.587363 136241 net.cpp:169] Creating Layer loss1/loss
I0331 19:11:44.587368 136241 net.cpp:606] loss1/loss <- loss1/classifier
…
I0331 19:11:44.587805 136241 net.cpp:154] Setting up Layer of device :0 @cpu 0 Layer : inception_4b/1x1
I0331 19:11:44.587810 136241 layer_factory.hpp:114] Creating layer inception_4b/1x1
I0331 19:11:44.587821 136241 net.cpp:169] Creating Layer inception_4b/1x1
I0331 19:11:44.587826 136241 net.cpp:606] inception_4b/1x1 <- inception_4a/output_inception_4a/output_0_split_1
I0331 19:11:44.587833 136241 net.cpp:579] inception_4b/1x1 -> inception_4b/1x1
I0331 19:11:44.587837 136241 net.cpp:582] From AppendTop @cpu: 0
I0331 19:11:44.592927 136241 net.cpp:219] Setting up inception_4b/1x1
I0331 19:11:44.592939 136241 net.cpp:226] Top shape: 112 160 14 14 (3512320)
I0331 19:11:44.592943 136241 net.cpp:234] Memory required for data: 4430044420
I0331 19:11:44.592952 136241 net.cpp:154] Setting up Layer of device :0 @cpu 0 Layer : inception_4b/relu_1x1
I0331 19:11:44.592957 136241 layer_factory.hpp:114] Creating layer inception_4b/relu_1x1
I0331 19:11:44.592963 136241 net.cpp:169] Creating Layer inception_4b/relu_1x1
I0331 19:11:44.592968 136241 net.cpp:606] inception_4b/relu_1x1 <- inception_4b/1x1
I0331 19:11:44.592974 136241 net.cpp:566] inception_4b/relu_1x1 -> inception_4b/1x1 (in-place)
I0331 19:11:44.592981 136241 net.cpp:219] Setting up inception_4b/relu_1x1
I0331 19:11:44.592988 136241 net.cpp:226] Top shape: 112 160 14 14 (3512320)
I0331 19:11:44.592990 136241 net.cpp:234] Memory required for data: 4444093700
I0331 19:11:44.592995 136241 net.cpp:154] Setting up Layer of device :0 @cpu 0 Layer : inception_4b/3x3_reduce
I0331 19:11:44.593004 136241 layer_factory.hpp:114] Creating layer inception_4b/3x3_reduce
I0331 19:11:44.593016 136241 net.cpp:169] Creating Layer inception_4b/3x3_reduce
I0331 19:11:44.593020 136241 net.cpp:606] inception_4b/3x3_reduce <- inception_4a/output_inception_4a/output_0_split_2
I0331 19:11:44.593027 136241 net.cpp:579] inception_4b/3x3_reduce -> inception_4b/3x3_reduce
I0331 19:11:44.593031 136241 net.cpp:582] From AppendTop @cpu: 0
I0331 19:11:44.597105 136241 net.cpp:219] Setting up inception_4b/3x3_reduce
I0331 19:11:44.597116 136241 net.cpp:226] Top shape: 112 112 14 14 (2458624)
I0331 19:11:44.597120 136241 net.cpp:234] Memory required for data: 4453928196
I0331 19:11:44.597129 136241 net.cpp:154] Setting up Layer of device :0 @cpu 0 Layer : inception_4b/relu_3x3_reduce
I0331 19:11:44.597133 136241 layer_factory.hpp:114] Creating layer inception_4b/relu_3x3_reduce
I0331 19:11:44.597139 136241 net.cpp:169] Creating Layer inception_4b/relu_3x3_reduce
I0331 19:11:44.597144 136241 net.cpp:606] inception_4b/relu_3x3_reduce <- inception_4b/3x3_reduce
I0331 19:11:44.597153 136241 net.cpp:566] inception_4b/relu_3x3_reduce -> inception_4b/3x3_reduce (in-place)
I0331 19:11:44.597160 136241 net.cpp:219] Setting up inception_4b/relu_3x3_reduce
I0331 19:11:44.597165 136241 net.cpp:226] Top shape: 112 112 14 14 (2458624)
I0331 19:11:44.597169 136241 net.cpp:234] Memory required for data: 4463762692
I0331 19:11:44.597174 136241 net.cpp:154] Setting up Layer of device :0 @cpu 0 Layer : inception_4b/3x3
I0331 19:11:44.597178 136241 layer_factory.hpp:114] Creating layer inception_4b/3x3
I0331 19:11:44.597187 136241 net.cpp:169] Creating Layer inception_4b/3x3
I0331 19:11:44.597192 136241 net.cpp:606] inception_4b/3x3 <- inception_4b/3x3_reduce
I0331 19:11:44.597198 136241 net.cpp:579] inception_4b/3x3 -> inception_4b/3x3
I0331 19:11:44.597201 136241 net.cpp:582] From AppendTop @cpu: 0
I0331 19:11:44.608242 136241 net.cpp:219] Setting up inception_4b/3x3
I0331 19:11:44.608256 136241 net.cpp:226] Top shape: 112 224 14 14 (4917248)
I0331 19:11:44.608260 136241 net.cpp:234] Memory required for data: 4483431684
I0331 19:11:44.608271 136241 net.cpp:154] Setting up Layer of device :0 @cpu 0 Layer : inception_4b/relu_3x3
I0331 19:11:44.608276 136241 layer_factory.hpp:114] Creating layer inception_4b/relu_3x3
I0331 19:11:44.608283 136241 net.cpp:169] Creating Layer inception_4b/relu_3x3
I0331 19:11:44.608289 136241 net.cpp:606] inception_4b/relu_3x3 <- inception_4b/3x3
I0331 19:11:44.608296 136241 net.cpp:566] inception_4b/relu_3x3 -> inception_4b/3x3 (in-place)
I0331 19:11:44.608325 136241 net.cpp:219] Setting up inception_4b/relu_3x3
I0331 19:11:44.608330 136241 net.cpp:226] Top shape: 112 224 14 14 (4917248)
I0331 19:11:44.608335 136241 net.cpp:234] Memory required for data: 4503100676
I0331 19:11:44.608340 136241 net.cpp:154] Setting up Layer of device :0 @cpu 0 Layer : inception_4b/5x5_reduce
I0331 19:11:44.608343 136241 layer_factory.hpp:114] Creating layer inception_4b/5x5_reduce
I0331 19:11:44.608356 136241 net.cpp:169] Creating Layer inception_4b/5x5_reduce
I0331 19:11:44.608361 136241 net.cpp:606] inception_4b/5x5_reduce <- inception_4a/output_inception_4a/output_0_split_3
I0331 19:11:44.608371 136241 net.cpp:579] inception_4b/5x5_reduce -> inception_4b/5x5_reduce
I0331 19:11:44.608374 136241 net.cpp:582] From AppendTop @cpu: 0
I0331 19:11:44.611066 136241 net.cpp:219] Setting up inception_4b/5x5_reduce
I0331 19:11:44.611078 136241 net.cpp:226] Top shape: 112 24 14 14 (526848)
I0331 19:11:44.611081 136241 net.cpp:234] Memory required for data: 4505208068
I0331 19:11:44.611090 136241 net.cpp:154] Setting up Layer of device :0 @cpu 0 Layer : inception_4b/relu_5x5_reduce
I0331 19:11:44.611094 136241 layer_factory.hpp:114] Creating layer inception_4b/relu_5x5_reduce
I0331 19:11:44.611100 136241 net.cpp:169] Creating Layer inception_4b/relu_5x5_reduce
I0331 19:11:44.611105 136241 net.cpp:606] inception_4b/relu_5x5_reduce <- inception_4b/5x5_reduce
I0331 19:11:44.611114 136241 net.cpp:566] inception_4b/relu_5x5_reduce -> inception_4b/5x5_reduce (in-place)
I0331 19:11:44.611126 136241 net.cpp:219] Setting up inception_4b/relu_5x5_reduce
I0331 19:11:44.611132 136241 net.cpp:226] Top shape: 112 24 14 14 (526848)
I0331 19:11:44.611135 136241 net.cpp:234] Memory required for data: 4507315460
I0331 19:11:44.611140 136241 net.cpp:154] Setting up Layer of device :0 @cpu 0 Layer : inception_4b/5x5
I0331 19:11:44.611145 136241 layer_factory.hpp:114] Creating layer inception_4b/5x5
I0331 19:11:44.611156 136241 net.cpp:169] Creating Layer inception_4b/5x5
I0331 19:11:44.611160 136241 net.cpp:606] inception_4b/5x5 <- inception_4b/5x5_reduce
I0331 19:11:44.611166 136241 net.cpp:579] inception_4b/5x5 -> inception_4b/5x5
I0331 19:11:44.611171 136241 net.cpp:582] From AppendTop @cpu: 0
I0331 19:11:44.615504 136241 net.cpp:219] Setting up inception_4b/5x5
I0331 19:11:44.615515 136241 net.cpp:226] Top shape: 112 64 14 14 (1404928)
I0331 19:11:44.615520 136241 net.cpp:234] Memory required for data: 4512935172
I0331 19:11:44.615528 136241 net.cpp:154] Setting up Layer of device :0 @cpu 0 Layer : inception_4b/relu_5x5
I0331 19:11:44.615532 136241 layer_factory.hpp:114] Creating layer inception_4b/relu_5x5
I0331 19:11:44.615538 136241 net.cpp:169] Creating Layer inception_4b/relu_5x5
I0331 19:11:44.615543 136241 net.cpp:606] inception_4b/relu_5x5 <- inception_4b/5x5
I0331 19:11:44.615551 136241 net.cpp:566] inception_4b/relu_5x5 -> inception_4b/5x5 (in-place)
I0331 19:11:44.615558 136241 net.cpp:219] Setting up inception_4b/relu_5x5
I0331 19:11:44.615563 136241 net.cpp:226] Top shape: 112 64 14 14 (1404928)
I0331 19:11:44.615567 136241 net.cpp:234] Memory required for data: 4518554884
I0331 19:11:44.615572 136241 net.cpp:154] Setting up Layer of device :0 @cpu 0 Layer : inception_4b/pool
I0331 19:11:44.615576 136241 layer_factory.hpp:114] Creating layer inception_4b/pool
I0331 19:11:44.615609 136241 net.cpp:169] Creating Layer inception_4b/pool
I0331 19:11:44.615614 136241 net.cpp:606] inception_4b/pool <- inception_4a/output_inception_4a/output_0_split_4
I0331 19:11:44.615622 136241 net.cpp:579] inception_4b/pool -> inception_4b/pool
I0331 19:11:44.615631 136241 net.cpp:582] From AppendTop @cpu: 0
I0331 19:11:44.615648 136241 net.cpp:219] Setting up inception_4b/pool
I0331 19:11:44.615658 136241 net.cpp:226] Top shape: 112 512 14 14 (11239424)
I0331 19:11:44.615661 136241 net.cpp:234] Memory required for data: 4563512580
I0331 19:11:44.615666 136241 net.cpp:154] Setting up Layer of device :0 @cpu 0 Layer : inception_4b/pool_proj
I0331 19:11:44.615679 136241 layer_factory.hpp:114] Creating layer inception_4b/pool_proj
I0331 19:11:44.615690 136241 net.cpp:169] Creating Layer inception_4b/pool_proj
I0331 19:11:44.615695 136241 net.cpp:606] inception_4b/pool_proj <- inception_4b/pool
I0331 19:11:44.615705 136241 net.cpp:579] inception_4b/pool_proj -> inception_4b/pool_proj
I0331 19:11:44.615707 136241 net.cpp:582] From AppendTop @cpu: 0
I0331 19:11:44.619254 136241 net.cpp:219] Setting up inception_4b/pool_proj
I0331 19:11:44.619266 136241 net.cpp:226] Top shape: 112 64 14 14 (1404928)
I0331 19:11:44.619269 136241 net.cpp:234] Memory required for data: 4569132292
I0331 19:11:44.619278 136241 net.cpp:154] Setting up Layer of device :0 @cpu 0 Layer : inception_4b/relu_pool_proj
I0331 19:11:44.619283 136241 layer_factory.hpp:114] Creating layer inception_4b/relu_pool_proj
I0331 19:11:44.619292 136241 net.cpp:169] Creating Layer inception_4b/relu_pool_proj
I0331 19:11:44.619297 136241 net.cpp:606] inception_4b/relu_pool_proj <- inception_4b/pool_proj
I0331 19:11:44.619302 136241 net.cpp:566] inception_4b/relu_pool_proj -> inception_4b/pool_proj (in-place)
I0331 19:11:44.619309 136241 net.cpp:219] Setting up inception_4b/relu_pool_proj
I0331 19:11:44.619315 136241 net.cpp:226] Top shape: 112 64 14 14 (1404928)
I0331 19:11:44.619318 136241 net.cpp:234] Memory required for data: 4574752004
I0331 19:11:44.619323 136241 net.cpp:154] Setting up Layer of device :0 @cpu 0 Layer : inception_4b/output
I0331 19:11:44.619328 136241 layer_factory.hpp:114] Creating layer inception_4b/output
I0331 19:11:44.619339 136241 net.cpp:169] Creating Layer inception_4b/output
I0331 19:11:44.619343 136241 net.cpp:606] inception_4b/output <- inception_4b/1x1
I0331 19:11:44.619349 136241 net.cpp:606] inception_4b/output <- inception_4b/3x3
I0331 19:11:44.619354 136241 net.cpp:606] inception_4b/output <- inception_4b/5x5
I0331 19:11:44.619359 136241 net.cpp:606] inception_4b/output <- inception_4b/pool_proj
I0331 19:11:44.619366 136241 net.cpp:579] inception_4b/output -> inception_4b/output
I0331 19:11:44.619370 136241 net.cpp:582] From AppendTop @cpu: 0
I0331 19:11:44.619381 136241 net.cpp:219] Setting up inception_4b/output
I0331 19:11:44.619386 136241 net.cpp:226] Top shape: 112 512 14 14 (11239424)
I0331 19:11:44.619390 136241 net.cpp:234] Memory required for data: 4619709700
I0331 19:11:44.619395 136241 net.cpp:154] Setting up Layer of device :0 @cpu 0 Layer : inception_4b/output_inception_4b/output_0_split
I0331 19:11:44.619400 136241 layer_factory.hpp:114] Creating layer inception_4b/output_inception_4b/output_0_split
I0331 19:11:44.619406 136241 net.cpp:169] Creating Layer inception_4b/output_inception_4b/output_0_split
…
I0331 19:11:44.619432 136241 net.cpp:582] From AppendTop @cpu: 0
I0331 19:11:44.619439 136241 net.cpp:579] inception_4b/output_inception_4b/output_0_split -> inception_4b/output_inception_4b/output_0_split_2
I0331 19:11:44.619442 136241 net.cpp:582] From AppendTop @cpu: 0
I0331 19:11:44.619449 136241 net.cpp:579] inception_4b/output_inception_4b/output_0_split -> inception_4b/output_inception_4b/output_0_split_3
I0331 19:11:44.619452 136241 net.cpp:582] From AppendTop @cpu: 0
I0331 19:11:44.619462 136241 net.cpp:219] Setting up inception_4b/output_inception_4b/output_0_split
I0331 19:11:44.619467 136241 net.cpp:226] Top shape: 112 512 14 14 (11239424)
I0331 19:11:44.619472 136241 net.cpp:226] Top shape: 112 512 14 14 (11239424)
I0331 19:11:44.619477 136241 net.cpp:226] Top shape: 112 512 14 14 (11239424)
I0331 19:11:44.619480 136241 net.cpp:226] Top shape: 112 512 14 14 (11239424)
I0331 19:11:44.619484 136241 net.cpp:234] Memory required for data: 4799540484
I0331 19:11:44.619498 136241 net.cpp:154] Setting up Layer of device :0 @cpu 0 Layer : inception_4c/1x1
I0331 19:11:44.619501 136241 layer_factory.hpp:114] Creating layer inception_4c/1x1
I0331 19:11:44.619514 136241 net.cpp:169] Creating Layer inception_4c/1x1
I0331 19:11:44.619519 136241 net.cpp:606] inception_4c/1x1 <- inception_4b/output_inception_4b/output_0_split_0
I0331 19:11:44.619525 136241 net.cpp:579] inception_4c/1x1 -> inception_4c/1x1
I0331 19:11:44.619529 136241 net.cpp:582] From AppendTop @cpu: 0
I0331 19:11:44.623949 136241 net.cpp:219] Setting up inception_4c/1x1
I0331 19:11:44.623960 136241 net.cpp:226] Top shape: 112 128 14 14 (2809856)
I0331 19:11:44.623965 136241 net.cpp:234] Memory required for data: 4810779908
I0331 19:11:44.623973 136241 net.cpp:154] Setting up Layer of device :0 @cpu 0 Layer : inception_4c/relu_1x1
I0331 19:11:44.623977 136241 layer_factory.hpp:114] Creating layer inception_4c/relu_1x1
I0331 19:11:44.623983 136241 net.cpp:169] Creating Layer inception_4c/relu_1x1
I0331 19:11:44.623988 136241 net.cpp:606] inception_4c/relu_1x1 <- inception_4c/1x1
I0331 19:11:44.623996 136241 net.cpp:566] inception_4c/relu_1x1 -> inception_4c/1x1 (in-place)
I0331 19:11:44.624003 136241 net.cpp:219] Setting up inception_4c/relu_1x1
I0331 19:11:44.624009 136241 net.cpp:226] Top shape: 112 128 14 14 (2809856)
I0331 19:11:44.624012 136241 net.cpp:234] Memory required for data: 4822019332
I0331 19:11:44.624017 136241 net.cpp:154] Setting up Layer of device :0 @cpu 0 Layer : inception_4c/3x3_reduce
I0331 19:11:44.624025 136241 layer_factory.hpp:114] Creating layer inception_4c/3x3_reduce
I0331 19:11:44.624037 136241 net.cpp:169] Creating Layer inception_4c/3x3_reduce
I0331 19:11:44.624042 136241 net.cpp:606] inception_4c/3x3_reduce <- inception_4b/output_inception_4b/output_0_split_1
I0331 19:11:44.624055 136241 net.cpp:579] inception_4c/3x3_reduce -> inception_4c/3x3_reduce
I0331 19:11:44.624059 136241 net.cpp:582] From AppendTop @cpu: 0
I0331 19:11:44.628978 136241 net.cpp:219] Setting up inception_4c/3x3_reduce
I0331 19:11:44.628990 136241 net.cpp:226] Top shape: 112 128 14 14 (2809856)
I0331 19:11:44.628994 136241 net.cpp:234] Memory required for data: 4833258756
I0331 19:11:44.629004 136241 net.cpp:154] Setting up Layer of device :0 @cpu 0 Layer : inception_4c/relu_3x3_reduce
I0331 19:11:44.629007 136241 layer_factory.hpp:114] Creating layer inception_4c/relu_3x3_reduce
I0331 19:11:44.629014 136241 net.cpp:169] Creating Layer inception_4c/relu_3x3_reduce
I0331 19:11:44.629019 136241 net.cpp:606] inception_4c/relu_3x3_reduce <- inception_4c/3x3_reduce
I0331 19:11:44.629027 136241 net.cpp:566] inception_4c/relu_3x3_reduce -> inception_4c/3x3_reduce (in-place)
I0331 19:11:44.629034 136241 net.cpp:219] Setting up inception_4c/relu_3x3_reduce
I0331 19:11:44.629040 136241 net.cpp:226] Top shape: 112 128 14 14 (2809856)
I0331 19:11:44.629043 136241 net.cpp:234] Memory required for data: 4844498180
I0331 19:11:44.629047 136241 net.cpp:154] Setting up Layer of device :0 @cpu 0 Layer : inception_4c/3x3
I0331 19:11:44.629052 136241 layer_factory.hpp:114] Creating layer inception_4c/3x3
I0331 19:11:44.629061 136241 net.cpp:169] Creating Layer inception_4c/3x3
I0331 19:11:44.629065 136241 net.cpp:606] inception_4c/3x3 <- inception_4c/3x3_reduce
I0331 19:11:44.629071 136241 net.cpp:579] inception_4c/3x3 -> inception_4c/3x3
I0331 19:11:44.629075 136241 net.cpp:582] From AppendTop @cpu: 0
I0331 19:11:44.642338 136241 net.cpp:219] Setting up inception_4c/3x3
I0331 19:11:44.642359 136241 net.cpp:226] Top shape: 112 256 14 14 (5619712)
I0331 19:11:44.642362 136241 net.cpp:234] Memory required for data: 4866977028
I0331 19:11:44.642388 136241 net.cpp:154] Setting up Layer of device :0 @cpu 0 Layer : inception_4c/relu_3x3
I0331 19:11:44.642395 136241 layer_factory.hpp:114] Creating layer inception_4c/relu_3x3
I0331 19:11:44.642405 136241 net.cpp:169] Creating Layer inception_4c/relu_3x3
I0331 19:11:44.642410 136241 net.cpp:606] inception_4c/relu_3x3 <- inception_4c/3x3
I0331 19:11:44.642434 136241 net.cpp:566] inception_4c/relu_3x3 -> inception_4c/3x3 (in-place)
I0331 19:11:44.642444 136241 net.cpp:219] Setting up inception_4c/relu_3x3
I0331 19:11:44.642449 136241 net.cpp:226] Top shape: 112 256 14 14 (5619712)
I0331 19:11:44.642453 136241 net.cpp:234] Memory required for data: 4889455876
I0331 19:11:44.642458 136241 net.cpp:154] Setting up Layer of device :0 @cpu 0 Layer : inception_4c/5x5_reduce
I0331 19:11:44.642463 136241 layer_factory.hpp:114] Creating layer inception_4c/5x5_reduce
I0331 19:11:44.642475 136241 net.cpp:169] Creating Layer inception_4c/5x5_reduce
I0331 19:11:44.642479 136241 net.cpp:606] inception_4c/5x5_reduce <- inception_4b/output_inception_4b/output_0_split_2
I0331 19:11:44.642488 136241 net.cpp:579] inception_4c/5x5_reduce -> inception_4c/5x5_reduce
I0331 19:11:44.642491 136241 net.cpp:582] From AppendTop @cpu: 0
I0331 19:11:44.645700 136241 net.cpp:219] Setting up inception_4c/5x5_reduce
I0331 19:11:44.645712 136241 net.cpp:226] Top shape: 112 24 14 14 (526848)
I0331 19:11:44.645716 136241 net.cpp:234] Memory required for data: 4891563268
I0331 19:11:44.645725 136241 net.cpp:154] Setting up Layer of device :0 @cpu 0 Layer : inception_4c/relu_5x5_reduce
I0331 19:11:44.645730 136241 layer_factory.hpp:114] Creating layer inception_4c/relu_5x5_reduce
I0331 19:11:44.645736 136241 net.cpp:169] Creating Layer inception_4c/relu_5x5_reduce
I0331 19:11:44.645741 136241 net.cpp:606] inception_4c/relu_5x5_reduce <- inception_4c/5x5_reduce
I0331 19:11:44.645752 136241 net.cpp:566] inception_4c/relu_5x5_reduce -> inception_4c/5x5_reduce (in-place)
I0331 19:11:44.645764 136241 net.cpp:219] Setting up inception_4c/relu_5x5_reduce
I0331 19:11:44.645771 136241 net.cpp:226] Top shape: 112 24 14 14 (526848)
I0331 19:11:44.645774 136241 net.cpp:234] Memory required for data: 4893670660
I0331 19:11:44.645779 136241 net.cpp:154] Setting up Layer of device :0 @cpu 0 Layer : inception_4c/5x5
I0331 19:11:44.645783 136241 layer_factory.hpp:114] Creating layer inception_4c/5x5
I0331 19:11:44.645794 136241 net.cpp:169] Creating Layer inception_4c/5x5
I0331 19:11:44.645799 136241 net.cpp:606] inception_4c/5x5 <- inception_4c/5x5_reduce
I0331 19:11:44.645805 136241 net.cpp:579] inception_4c/5x5 -> inception_4c/5x5
I0331 19:11:44.645809 136241 net.cpp:582] From AppendTop @cpu: 0
I0331 19:11:44.650143 136241 net.cpp:219] Setting up inception_4c/5x5
I0331 19:11:44.650156 136241 net.cpp:226] Top shape: 112 64 14 14 (1404928)
I0331 19:11:44.650159 136241 net.cpp:234] Memory required for data: 4899290372
I0331 19:11:44.650168 136241 net.cpp:154] Setting up Layer of device :0 @cpu 0 Layer : inception_4c/relu_5x5
I0331 19:11:44.650172 136241 layer_factory.hpp:114] Creating layer inception_4c/relu_5x5
I0331 19:11:44.650178 136241 net.cpp:169] Creating Layer inception_4c/relu_5x5
I0331 19:11:44.650183 136241 net.cpp:606] inception_4c/relu_5x5 <- inception_4c/5x5
I0331 19:11:44.650192 136241 net.cpp:566] inception_4c/relu_5x5 -> inception_4c/5x5 (in-place)
I0331 19:11:44.650197 136241 net.cpp:219] Setting up inception_4c/relu_5x5
I0331 19:11:44.650203 136241 net.cpp:226] Top shape: 112 64 14 14 (1404928)
I0331 19:11:44.650207 136241 net.cpp:234] Memory required for data: 4904910084
I0331 19:11:44.650212 136241 net.cpp:154] Setting up Layer of device :0 @cpu 0 Layer : inception_4c/pool
I0331 19:11:44.650215 136241 layer_factory.hpp:114] Creating layer inception_4c/pool
I0331 19:11:44.650249 136241 net.cpp:169] Creating Layer inception_4c/pool
I0331 19:11:44.650254 136241 net.cpp:606] inception_4c/pool <- inception_4b/output_inception_4b/output_0_split_3
I0331 19:11:44.650261 136241 net.cpp:579] inception_4c/pool -> inception_4c/pool
I0331 19:11:44.650265 136241 net.cpp:582] From AppendTop @cpu: 0
I0331 19:11:44.650276 136241 net.cpp:219] Setting up inception_4c/pool
I0331 19:11:44.650282 136241 net.cpp:226] Top shape: 112 512 14 14 (11239424)
I0331 19:11:44.650286 136241 net.cpp:234] Memory required for data: 4949867780
I0331 19:11:44.650291 136241 net.cpp:154] Setting up Layer of device :0 @cpu 0 Layer : inception_4c/pool_proj
I0331 19:11:44.650305 136241 layer_factory.hpp:114] Creating layer inception_4c/pool_proj
I0331 19:11:44.650315 136241 net.cpp:169] Creating Layer inception_4c/pool_proj
I0331 19:11:44.650321 136241 net.cpp:606] inception_4c/pool_proj <- inception_4c/pool
I0331 19:11:44.650331 136241 net.cpp:579] inception_4c/pool_proj -> inception_4c/pool_proj
I0331 19:11:44.650333 136241 net.cpp:582] From AppendTop @cpu: 0
I0331 19:11:44.653892 136241 net.cpp:219] Setting up inception_4c/pool_proj
I0331 19:11:44.653903 136241 net.cpp:226] Top shape: 112 64 14 14 (1404928)
I0331 19:11:44.653908 136241 net.cpp:234] Memory required for data: 4955487492
I0331 19:11:44.653916 136241 net.cpp:154] Setting up Layer of device :0 @cpu 0 Layer : inception_4c/relu_pool_proj
I0331 19:11:44.653920 136241 layer_factory.hpp:114] Creating layer inception_4c/relu_pool_proj
I0331 19:11:44.653926 136241 net.cpp:169] Creating Layer inception_4c/relu_pool_proj
I0331 19:11:44.653931 136241 net.cpp:606] inception_4c/relu_pool_proj <- inception_4c/pool_proj
I0331 19:11:44.653939 136241 net.cpp:566] inception_4c/relu_pool_proj -> inception_4c/pool_proj (in-place)
I0331 19:11:44.653947 136241 net.cpp:219] Setting up inception_4c/relu_pool_proj
I0331 19:11:44.653952 136241 net.cpp:226] Top shape: 112 64 14 14 (1404928)
I0331 19:11:44.653955 136241 net.cpp:234] Memory required for data: 4961107204
I0331 19:11:44.653960 136241 net.cpp:154] Setting up Layer of device :0 @cpu 0 Layer : inception_4c/output
I0331 19:11:44.653965 136241 layer_factory.hpp:114] Creating layer inception_4c/output
I0331 19:11:44.653985 136241 net.cpp:169] Creating Layer inception_4c/output
I0331 19:11:44.653990 136241 net.cpp:606] inception_4c/output <- inception_4c/1x1
I0331 19:11:44.653995 136241 net.cpp:606] inception_4c/output <- inception_4c/3x3
I0331 19:11:44.654000 136241 net.cpp:606] inception_4c/output <- inception_4c/5x5
I0331 19:11:44.654005 136241 net.cpp:606] inception_4c/output <- inception_4c/pool_proj
I0331 19:11:44.654011 136241 net.cpp:579] inception_4c/output -> inception_4c/output
I0331 19:11:44.654014 136241 net.cpp:582] From AppendTop @cpu: 0
I0331 19:11:44.654023 136241 net.cpp:219] Setting up inception_4c/output
I0331 19:11:44.654029 136241 net.cpp:226] Top shape: 112 512 14 14 (11239424)
I0331 19:11:44.654032 136241 net.cpp:234] Memory required for data: 5006064900
I0331 19:11:44.654037 136241 net.cpp:154] Setting up Layer of device :0 @cpu 0 Layer : inception_4c/output_inception_4c/output_0_split
I0331 19:11:44.654042 136241 layer_factory.hpp:114] Creating layer inception_4c/output_inception_4c/output_0_split
I0331 19:11:44.654049 136241 net.cpp:169] Creating Layer inception_4c/output_inception_4c/output_0_split
…
I0331 19:11:44.654075 136241 net.cpp:582] From AppendTop @cpu: 0
I0331 19:11:44.654083 136241 net.cpp:579] inception_4c/output_inception_4c/output_0_split -> inception_4c/output_inception_4c/output_0_split_2
I0331 19:11:44.654085 136241 net.cpp:582] From AppendTop @cpu: 0
I0331 19:11:44.654093 136241 net.cpp:579] inception_4c/output_inception_4c/output_0_split -> inception_4c/output_inception_4c/output_0_split_3
I0331 19:11:44.654095 136241 net.cpp:582] From AppendTop @cpu: 0
I0331 19:11:44.654103 136241 net.cpp:219] Setting up inception_4c/output_inception_4c/output_0_split
I0331 19:11:44.654110 136241 net.cpp:226] Top shape: 112 512 14 14 (11239424)
I0331 19:11:44.654116 136241 net.cpp:226] Top shape: 112 512 14 14 (11239424)
I0331 19:11:44.654120 136241 net.cpp:226] Top shape: 112 512 14 14 (11239424)
I0331 19:11:44.654125 136241 net.cpp:226] Top shape: 112 512 14 14 (11239424)
I0331 19:11:44.654136 136241 net.cpp:234] Memory required for data: 5185895684
I0331 19:11:44.654141 136241 net.cpp:154] Setting up Layer of device :0 @cpu 0 Layer : inception_4d/1x1
I0331 19:11:44.654145 136241 layer_factory.hpp:114] Creating layer inception_4d/1x1
I0331 19:11:44.654157 136241 net.cpp:169] Creating Layer inception_4d/1x1
I0331 19:11:44.654161 136241 net.cpp:606] inception_4d/1x1 <- inception_4c/output_inception_4c/output_0_split_0
I0331 19:11:44.654168 136241 net.cpp:579] inception_4d/1x1 -> inception_4d/1x1
I0331 19:11:44.654171 136241 net.cpp:582] From AppendTop @cpu: 0
I0331 19:11:44.658232 136241 net.cpp:219] Setting up inception_4d/1x1
I0331 19:11:44.658244 136241 net.cpp:226] Top shape: 112 112 14 14 (2458624)
I0331 19:11:44.658247 136241 net.cpp:234] Memory required for data: 5195730180
I0331 19:11:44.658257 136241 net.cpp:154] Setting up Layer of device :0 @cpu 0 Layer : inception_4d/relu_1x1
I0331 19:11:44.658262 136241 layer_factory.hpp:114] Creating layer inception_4d/relu_1x1
I0331 19:11:44.658267 136241 net.cpp:169] Creating Layer inception_4d/relu_1x1
I0331 19:11:44.658272 136241 net.cpp:606] inception_4d/relu_1x1 <- inception_4d/1x1
I0331 19:11:44.658280 136241 net.cpp:566] inception_4d/relu_1x1 -> inception_4d/1x1 (in-place)
I0331 19:11:44.658288 136241 net.cpp:219] Setting up inception_4d/relu_1x1
I0331 19:11:44.658293 136241 net.cpp:226] Top shape: 112 112 14 14 (2458624)
I0331 19:11:44.658296 136241 net.cpp:234] Memory required for data: 5205564676
I0331 19:11:44.658301 136241 net.cpp:154] Setting up Layer of device :0 @cpu 0 Layer : inception_4d/3x3_reduce
I0331 19:11:44.658309 136241 layer_factory.hpp:114] Creating layer inception_4d/3x3_reduce
I0331 19:11:44.658321 136241 net.cpp:169] Creating Layer inception_4d/3x3_reduce
I0331 19:11:44.658326 136241 net.cpp:606] inception_4d/3x3_reduce <- inception_4c/output_inception_4c/output_0_split_1
I0331 19:11:44.658332 136241 net.cpp:579] inception_4d/3x3_reduce -> inception_4d/3x3_reduce
I0331 19:11:44.658335 136241 net.cpp:582] From AppendTop @cpu: 0
I0331 19:11:44.663080 136241 net.cpp:219] Setting up inception_4d/3x3_reduce
I0331 19:11:44.663092 136241 net.cpp:226] Top shape: 112 144 14 14 (3161088)
I0331 19:11:44.663095 136241 net.cpp:234] Memory required for data: 5218209028
I0331 19:11:44.663105 136241 net.cpp:154] Setting up Layer of device :0 @cpu 0 Layer : inception_4d/relu_3x3_reduce
I0331 19:11:44.663108 136241 layer_factory.hpp:114] Creating layer inception_4d/relu_3x3_reduce
I0331 19:11:44.663115 136241 net.cpp:169] Creating Layer inception_4d/relu_3x3_reduce
I0331 19:11:44.663120 136241 net.cpp:606] inception_4d/relu_3x3_reduce <- inception_4d/3x3_reduce
I0331 19:11:44.663126 136241 net.cpp:566] inception_4d/relu_3x3_reduce -> inception_4d/3x3_reduce (in-place)
I0331 19:11:44.663132 136241 net.cpp:219] Setting up inception_4d/relu_3x3_reduce
I0331 19:11:44.663138 136241 net.cpp:226] Top shape: 112 144 14 14 (3161088)
I0331 19:11:44.663141 136241 net.cpp:234] Memory required for data: 5230853380
I0331 19:11:44.663146 136241 net.cpp:154] Setting up Layer of device :0 @cpu 0 Layer : inception_4d/3x3
I0331 19:11:44.663151 136241 layer_factory.hpp:114] Creating layer inception_4d/3x3
I0331 19:11:44.663162 136241 net.cpp:169] Creating Layer inception_4d/3x3
I0331 19:11:44.663166 136241 net.cpp:606] inception_4d/3x3 <- inception_4d/3x3_reduce
I0331 19:11:44.663173 136241 net.cpp:579] inception_4d/3x3 -> inception_4d/3x3
I0331 19:11:44.663177 136241 net.cpp:582] From AppendTop @cpu: 0
I0331 19:11:44.679044 136241 net.cpp:219] Setting up inception_4d/3x3
I0331 19:11:44.679074 136241 net.cpp:226] Top shape: 112 288 14 14 (6322176)
I0331 19:11:44.679077 136241 net.cpp:234] Memory required for data: 5256142084
I0331 19:11:44.679090 136241 net.cpp:154] Setting up Layer of device :0 @cpu 0 Layer : inception_4d/relu_3x3
I0331 19:11:44.679096 136241 layer_factory.hpp:114] Creating layer inception_4d/relu_3x3
I0331 19:11:44.679108 136241 net.cpp:169] Creating Layer inception_4d/relu_3x3
I0331 19:11:44.679114 136241 net.cpp:606] inception_4d/relu_3x3 <- inception_4d/3x3
I0331 19:11:44.679144 136241 net.cpp:566] inception_4d/relu_3x3 -> inception_4d/3x3 (in-place)
I0331 19:11:44.679153 136241 net.cpp:219] Setting up inception_4d/relu_3x3
I0331 19:11:44.679159 136241 net.cpp:226] Top shape: 112 288 14 14 (6322176)
I0331 19:11:44.679162 136241 net.cpp:234] Memory required for data: 5281430788
I0331 19:11:44.679168 136241 net.cpp:154] Setting up Layer of device :0 @cpu 0 Layer : inception_4d/5x5_reduce
I0331 19:11:44.679172 136241 layer_factory.hpp:114] Creating layer inception_4d/5x5_reduce
I0331 19:11:44.679183 136241 net.cpp:169] Creating Layer inception_4d/5x5_reduce
I0331 19:11:44.679188 136241 net.cpp:606] inception_4d/5x5_reduce <- inception_4c/output_inception_4c/output_0_split_2
I0331 19:11:44.679198 136241 net.cpp:579] inception_4d/5x5_reduce -> inception_4d/5x5_reduce
I0331 19:11:44.679203 136241 net.cpp:582] From AppendTop @cpu: 0
I0331 19:11:44.682065 136241 net.cpp:219] Setting up inception_4d/5x5_reduce
I0331 19:11:44.682077 136241 net.cpp:226] Top shape: 112 32 14 14 (702464)
I0331 19:11:44.682080 136241 net.cpp:234] Memory required for data: 5284240644
I0331 19:11:44.682090 136241 net.cpp:154] Setting up Layer of device :0 @cpu 0 Layer : inception_4d/relu_5x5_reduce
I0331 19:11:44.682095 136241 layer_factory.hpp:114] Creating layer inception_4d/relu_5x5_reduce
I0331 19:11:44.682103 136241 net.cpp:169] Creating Layer inception_4d/relu_5x5_reduce
I0331 19:11:44.682108 136241 net.cpp:606] inception_4d/relu_5x5_reduce <- inception_4d/5x5_reduce
I0331 19:11:44.682121 136241 net.cpp:566] inception_4d/relu_5x5_reduce -> inception_4d/5x5_reduce (in-place)
I0331 19:11:44.682127 136241 net.cpp:219] Setting up inception_4d/relu_5x5_reduce
I0331 19:11:44.682132 136241 net.cpp:226] Top shape: 112 32 14 14 (702464)
I0331 19:11:44.682137 136241 net.cpp:234] Memory required for data: 5287050500
I0331 19:11:44.682140 136241 net.cpp:154] Setting up Layer of device :0 @cpu 0 Layer : inception_4d/5x5
I0331 19:11:44.682145 136241 layer_factory.hpp:114] Creating layer inception_4d/5x5
I0331 19:11:44.682162 136241 net.cpp:169] Creating Layer inception_4d/5x5
I0331 19:11:44.682166 136241 net.cpp:606] inception_4d/5x5 <- inception_4d/5x5_reduce
I0331 19:11:44.682174 136241 net.cpp:579] inception_4d/5x5 -> inception_4d/5x5
I0331 19:11:44.682178 136241 net.cpp:582] From AppendTop @cpu: 0
I0331 19:11:44.687242 136241 net.cpp:219] Setting up inception_4d/5x5
I0331 19:11:44.687254 136241 net.cpp:226] Top shape: 112 64 14 14 (1404928)
I0331 19:11:44.687258 136241 net.cpp:234] Memory required for data: 5292670212
I0331 19:11:44.687268 136241 net.cpp:154] Setting up Layer of device :0 @cpu 0 Layer : inception_4d/relu_5x5
I0331 19:11:44.687271 136241 layer_factory.hpp:114] Creating layer inception_4d/relu_5x5
I0331 19:11:44.687278 136241 net.cpp:169] Creating Layer inception_4d/relu_5x5
I0331 19:11:44.687283 136241 net.cpp:606] inception_4d/relu_5x5 <- inception_4d/5x5
I0331 19:11:44.687290 136241 net.cpp:566] inception_4d/relu_5x5 -> inception_4d/5x5 (in-place)
I0331 19:11:44.687297 136241 net.cpp:219] Setting up inception_4d/relu_5x5
I0331 19:11:44.687302 136241 net.cpp:226] Top shape: 112 64 14 14 (1404928)
I0331 19:11:44.687306 136241 net.cpp:234] Memory required for data: 5298289924
I0331 19:11:44.687311 136241 net.cpp:154] Setting up Layer of device :0 @cpu 0 Layer : inception_4d/pool
I0331 19:11:44.687315 136241 layer_factory.hpp:114] Creating layer inception_4d/pool
I0331 19:11:44.687350 136241 net.cpp:169] Creating Layer inception_4d/pool
I0331 19:11:44.687355 136241 net.cpp:606] inception_4d/pool <- inception_4c/output_inception_4c/output_0_split_3
I0331 19:11:44.687364 136241 net.cpp:579] inception_4d/pool -> inception_4d/pool
I0331 19:11:44.687367 136241 net.cpp:582] From AppendTop @cpu: 0
I0331 19:11:44.687381 136241 net.cpp:219] Setting up inception_4d/pool
I0331 19:11:44.687386 136241 net.cpp:226] Top shape: 112 512 14 14 (11239424)
I0331 19:11:44.687389 136241 net.cpp:234] Memory required for data: 5343247620
I0331 19:11:44.687394 136241 net.cpp:154] Setting up Layer of device :0 @cpu 0 Layer : inception_4d/pool_proj
I0331 19:11:44.687407 136241 layer_factory.hpp:114] Creating layer inception_4d/pool_proj
I0331 19:11:44.687422 136241 net.cpp:169] Creating Layer inception_4d/pool_proj
I0331 19:11:44.687427 136241 net.cpp:606] inception_4d/pool_proj <- inception_4d/pool
I0331 19:11:44.687435 136241 net.cpp:579] inception_4d/pool_proj -> inception_4d/pool_proj
I0331 19:11:44.687439 136241 net.cpp:582] From AppendTop @cpu: 0
I0331 19:11:44.691510 136241 net.cpp:219] Setting up inception_4d/pool_proj
I0331 19:11:44.691522 136241 net.cpp:226] Top shape: 112 64 14 14 (1404928)
I0331 19:11:44.691525 136241 net.cpp:234] Memory required for data: 5348867332
I0331 19:11:44.691535 136241 net.cpp:154] Setting up Layer of device :0 @cpu 0 Layer : inception_4d/relu_pool_proj
I0331 19:11:44.691540 136241 layer_factory.hpp:114] Creating layer inception_4d/relu_pool_proj
I0331 19:11:44.691548 136241 net.cpp:169] Creating Layer inception_4d/relu_pool_proj
I0331 19:11:44.691553 136241 net.cpp:606] inception_4d/relu_pool_proj <- inception_4d/pool_proj
I0331 19:11:44.691558 136241 net.cpp:566] inception_4d/relu_pool_proj -> inception_4d/pool_proj (in-place)
I0331 19:11:44.691565 136241 net.cpp:219] Setting up inception_4d/relu_pool_proj
I0331 19:11:44.691571 136241 net.cpp:226] Top shape: 112 64 14 14 (1404928)
I0331 19:11:44.691575 136241 net.cpp:234] Memory required for data: 5354487044
I0331 19:11:44.691579 136241 net.cpp:154] Setting up Layer of device :0 @cpu 0 Layer : inception_4d/output
I0331 19:11:44.691589 136241 layer_factory.hpp:114] Creating layer inception_4d/output
I0331 19:11:44.691599 136241 net.cpp:169] Creating Layer inception_4d/output
I0331 19:11:44.691603 136241 net.cpp:606] inception_4d/output <- inception_4d/1x1
I0331 19:11:44.691608 136241 net.cpp:606] inception_4d/output <- inception_4d/3x3
I0331 19:11:44.691613 136241 net.cpp:606] inception_4d/output <- inception_4d/5x5
I0331 19:11:44.691618 136241 net.cpp:606] inception_4d/output <- inception_4d/pool_proj
I0331 19:11:44.691627 136241 net.cpp:579] inception_4d/output -> inception_4d/output
I0331 19:11:44.691633 136241 net.cpp:582] From AppendTop @cpu: 0
I0331 19:11:44.691643 136241 net.cpp:219] Setting up inception_4d/output
I0331 19:11:44.691649 136241 net.cpp:226] Top shape: 112 528 14 14 (11590656)
I0331 19:11:44.691653 136241 net.cpp:234] Memory required for data: 5400849668
I0331 19:11:44.691658 136241 net.cpp:154] Setting up Layer of device :0 @cpu 0 Layer : inception_4d/output_inception_4d/output_0_split
I0331 19:11:44.691663 136241 layer_factory.hpp:114] Creating layer inception_4d/output_inception_4d/output_0_split
I0331 19:11:44.691673 136241 net.cpp:169] Creating Layer inception_4d/output_inception_4d/output_0_split
…
I0331 19:11:44.691709 136241 net.cpp:582] From AppendTop @cpu: 0
I0331 19:11:44.691718 136241 net.cpp:579] inception_4d/output_inception_4d/output_0_split -> inception_4d/output_inception_4d/output_0_split_3
I0331 19:11:44.691722 136241 net.cpp:582] From AppendTop @cpu: 0
I0331 19:11:44.691728 136241 net.cpp:579] inception_4d/output_inception_4d/output_0_split -> inception_4d/output_inception_4d/output_0_split_4
I0331 19:11:44.691731 136241 net.cpp:582] From AppendTop @cpu: 0
I0331 19:11:44.691740 136241 net.cpp:219] Setting up inception_4d/output_inception_4d/output_0_split
I0331 19:11:44.691745 136241 net.cpp:226] Top shape: 112 528 14 14 (11590656)
I0331 19:11:44.691759 136241 net.cpp:226] Top shape: 112 528 14 14 (11590656)
I0331 19:11:44.691764 136241 net.cpp:226] Top shape: 112 528 14 14 (11590656)
I0331 19:11:44.691768 136241 net.cpp:226] Top shape: 112 528 14 14 (11590656)
I0331 19:11:44.691773 136241 net.cpp:226] Top shape: 112 528 14 14 (11590656)
I0331 19:11:44.691777 136241 net.cpp:234] Memory required for data: 5632662788
I0331 19:11:44.691782 136241 net.cpp:154] Setting up Layer of device :0 @cpu 0 Layer : loss2/ave_pool
I0331 19:11:44.691787 136241 layer_factory.hpp:114] Creating layer loss2/ave_pool
I0331 19:11:44.691807 136241 net.cpp:169] Creating Layer loss2/ave_pool
I0331 19:11:44.691812 136241 net.cpp:606] loss2/ave_pool <- inception_4d/output_inception_4d/output_0_split_0
I0331 19:11:44.691819 136241 net.cpp:579] loss2/ave_pool -> loss2/ave_pool
I0331 19:11:44.691823 136241 net.cpp:582] From AppendTop @cpu: 0
I0331 19:11:44.691831 136241 net.cpp:219] Setting up loss2/ave_pool
I0331 19:11:44.691838 136241 net.cpp:226] Top shape: 112 528 4 4 (946176)
I0331 19:11:44.691840 136241 net.cpp:234] Memory required for data: 5636447492
I0331 19:11:44.691845 136241 net.cpp:154] Setting up Layer of device :0 @cpu 0 Layer : loss2/conv
I0331 19:11:44.691849 136241 layer_factory.hpp:114] Creating layer loss2/conv
I0331 19:11:44.691860 136241 net.cpp:169] Creating Layer loss2/conv
I0331 19:11:44.691865 136241 net.cpp:606] loss2/conv <- loss2/ave_pool
I0331 19:11:44.691874 136241 net.cpp:579] loss2/conv -> loss2/conv
I0331 19:11:44.691877 136241 net.cpp:582] From AppendTop @cpu: 0
I0331 19:11:44.695025 136241 net.cpp:219] Setting up loss2/conv
I0331 19:11:44.695036 136241 net.cpp:226] Top shape: 112 128 4 4 (229376)
I0331 19:11:44.695040 136241 net.cpp:234] Memory required for data: 5637364996
I0331 19:11:44.695050 136241 net.cpp:154] Setting up Layer of device :0 @cpu 0 Layer : loss2/relu_conv
I0331 19:11:44.695055 136241 layer_factory.hpp:114] Creating layer loss2/relu_conv
I0331 19:11:44.695062 136241 net.cpp:169] Creating Layer loss2/relu_conv
I0331 19:11:44.695067 136241 net.cpp:606] loss2/relu_conv <- loss2/conv
I0331 19:11:44.695073 136241 net.cpp:566] loss2/relu_conv -> loss2/conv (in-place)
I0331 19:11:44.695080 136241 net.cpp:219] Setting up loss2/relu_conv
I0331 19:11:44.695086 136241 net.cpp:226] Top shape: 112 128 4 4 (229376)
I0331 19:11:44.695088 136241 net.cpp:234] Memory required for data: 5638282500
I0331 19:11:44.695096 136241 net.cpp:154] Setting up Layer of device :0 @cpu 0 Layer : loss2/fc
I0331 19:11:44.695101 136241 layer_factory.hpp:114] Creating layer loss2/fc
I0331 19:11:44.695116 136241 net.cpp:169] Creating Layer loss2/fc
I0331 19:11:44.695119 136241 net.cpp:606] loss2/fc <- loss2/conv
I0331 19:11:44.695127 136241 net.cpp:579] loss2/fc -> loss2/fc
I0331 19:11:44.695130 136241 net.cpp:582] From AppendTop @cpu: 0
I0331 19:11:44.714936 136241 net.cpp:219] Setting up loss2/fc
I0331 19:11:44.714946 136241 net.cpp:226] Top shape: 112 1024 (114688)
I0331 19:11:44.714951 136241 net.cpp:234] Memory required for data: 5638741252
I0331 19:11:44.714959 136241 net.cpp:154] Setting up Layer of device :0 @cpu 0 Layer : loss2/relu_fc
I0331 19:11:44.714963 136241 layer_factory.hpp:114] Creating layer loss2/relu_fc
I0331 19:11:44.714970 136241 net.cpp:169] Creating Layer loss2/relu_fc
I0331 19:11:44.714974 136241 net.cpp:606] loss2/relu_fc <- loss2/fc
I0331 19:11:44.714982 136241 net.cpp:566] loss2/relu_fc -> loss2/fc (in-place)
I0331 19:11:44.714989 136241 net.cpp:219] Setting up loss2/relu_fc
I0331 19:11:44.714994 136241 net.cpp:226] Top shape: 112 1024 (114688)
I0331 19:11:44.714998 136241 net.cpp:234] Memory required for data: 5639200004
I0331 19:11:44.715003 136241 net.cpp:154] Setting up Layer of device :0 @cpu 0 Layer : loss2/drop_fc
I0331 19:11:44.715006 136241 layer_factory.hpp:114] Creating layer loss2/drop_fc
I0331 19:11:44.715014 136241 net.cpp:169] Creating Layer loss2/drop_fc
I0331 19:11:44.715018 136241 net.cpp:606] loss2/drop_fc <- loss2/fc
I0331 19:11:44.715024 136241 net.cpp:566] loss2/drop_fc -> loss2/fc (in-place)
I0331 19:11:44.715044 136241 net.cpp:219] Setting up loss2/drop_fc
I0331 19:11:44.715049 136241 net.cpp:226] Top shape: 112 1024 (114688)
I0331 19:11:44.715051 136241 net.cpp:234] Memory required for data: 5639658756
I0331 19:11:44.715056 136241 net.cpp:154] Setting up Layer of device :0 @cpu 0 Layer : loss2/classifier
I0331 19:11:44.715060 136241 layer_factory.hpp:114] Creating layer loss2/classifier
I0331 19:11:44.715070 136241 net.cpp:169] Creating Layer loss2/classifier
I0331 19:11:44.715073 136241 net.cpp:606] loss2/classifier <- loss2/fc
I0331 19:11:44.715081 136241 net.cpp:579] loss2/classifier -> loss2/classifier
I0331 19:11:44.715085 136241 net.cpp:582] From AppendTop @cpu: 0
I0331 19:11:44.725014 136241 net.cpp:219] Setting up loss2/classifier
I0331 19:11:44.725025 136241 net.cpp:226] Top shape: 112 1000 (112000)
I0331 19:11:44.725029 136241 net.cpp:234] Memory required for data: 5640106756
I0331 19:11:44.725039 136241 net.cpp:154] Setting up Layer of device :0 @cpu 0 Layer : loss2/loss
I0331 19:11:44.725042 136241 layer_factory.hpp:114] Creating layer loss2/loss
I0331 19:11:44.725050 136241 net.cpp:169] Creating Layer loss2/loss
I0331 19:11:44.725054 136241 net.cpp:606] loss2/loss <- loss2/classifier
…
I0331 19:11:44.725427 136241 net.cpp:154] Setting up Layer of device :0 @cpu 0 Layer : inception_4e/1x1
I0331 19:11:44.725431 136241 layer_factory.hpp:114] Creating layer inception_4e/1x1
I0331 19:11:44.725443 136241 net.cpp:169] Creating Layer inception_4e/1x1
I0331 19:11:44.725448 136241 net.cpp:606] inception_4e/1x1 <- inception_4d/output_inception_4d/output_0_split_1
I0331 19:11:44.725455 136241 net.cpp:579] inception_4e/1x1 -> inception_4e/1x1
I0331 19:11:44.725459 136241 net.cpp:582] From AppendTop @cpu: 0
I0331 19:11:44.732358 136241 net.cpp:219] Setting up inception_4e/1x1
I0331 19:11:44.732372 136241 net.cpp:226] Top shape: 112 256 14 14 (5619712)
I0331 19:11:44.732375 136241 net.cpp:234] Memory required for data: 5662585608
I0331 19:11:44.732385 136241 net.cpp:154] Setting up Layer of device :0 @cpu 0 Layer : inception_4e/relu_1x1
I0331 19:11:44.732389 136241 layer_factory.hpp:114] Creating layer inception_4e/relu_1x1
I0331 19:11:44.732395 136241 net.cpp:169] Creating Layer inception_4e/relu_1x1
I0331 19:11:44.732400 136241 net.cpp:606] inception_4e/relu_1x1 <- inception_4e/1x1
I0331 19:11:44.732406 136241 net.cpp:566] inception_4e/relu_1x1 -> inception_4e/1x1 (in-place)
I0331 19:11:44.732414 136241 net.cpp:219] Setting up inception_4e/relu_1x1
I0331 19:11:44.732419 136241 net.cpp:226] Top shape: 112 256 14 14 (5619712)
I0331 19:11:44.732422 136241 net.cpp:234] Memory required for data: 5685064456
I0331 19:11:44.732429 136241 net.cpp:154] Setting up Layer of device :0 @cpu 0 Layer : inception_4e/3x3_reduce
I0331 19:11:44.732432 136241 layer_factory.hpp:114] Creating layer inception_4e/3x3_reduce
I0331 19:11:44.732445 136241 net.cpp:169] Creating Layer inception_4e/3x3_reduce
I0331 19:11:44.732450 136241 net.cpp:606] inception_4e/3x3_reduce <- inception_4d/output_inception_4d/output_0_split_2
I0331 19:11:44.732456 136241 net.cpp:579] inception_4e/3x3_reduce -> inception_4e/3x3_reduce
I0331 19:11:44.732460 136241 net.cpp:582] From AppendTop @cpu: 0
I0331 19:11:44.737766 136241 net.cpp:219] Setting up inception_4e/3x3_reduce
I0331 19:11:44.737777 136241 net.cpp:226] Top shape: 112 160 14 14 (3512320)
I0331 19:11:44.737782 136241 net.cpp:234] Memory required for data: 5699113736
I0331 19:11:44.737789 136241 net.cpp:154] Setting up Layer of device :0 @cpu 0 Layer : inception_4e/relu_3x3_reduce
I0331 19:11:44.737805 136241 layer_factory.hpp:114] Creating layer inception_4e/relu_3x3_reduce
I0331 19:11:44.737812 136241 net.cpp:169] Creating Layer inception_4e/relu_3x3_reduce
I0331 19:11:44.737818 136241 net.cpp:606] inception_4e/relu_3x3_reduce <- inception_4e/3x3_reduce
I0331 19:11:44.737826 136241 net.cpp:566] inception_4e/relu_3x3_reduce -> inception_4e/3x3_reduce (in-place)
I0331 19:11:44.737833 136241 net.cpp:219] Setting up inception_4e/relu_3x3_reduce
I0331 19:11:44.737839 136241 net.cpp:226] Top shape: 112 160 14 14 (3512320)
I0331 19:11:44.737843 136241 net.cpp:234] Memory required for data: 5713163016
I0331 19:11:44.737848 136241 net.cpp:154] Setting up Layer of device :0 @cpu 0 Layer : inception_4e/3x3
I0331 19:11:44.737853 136241 layer_factory.hpp:114] Creating layer inception_4e/3x3
I0331 19:11:44.737860 136241 net.cpp:169] Creating Layer inception_4e/3x3
I0331 19:11:44.737864 136241 net.cpp:606] inception_4e/3x3 <- inception_4e/3x3_reduce
I0331 19:11:44.737871 136241 net.cpp:579] inception_4e/3x3 -> inception_4e/3x3
I0331 19:11:44.737874 136241 net.cpp:582] From AppendTop @cpu: 0
I0331 19:11:44.756777 136241 net.cpp:219] Setting up inception_4e/3x3
I0331 19:11:44.756809 136241 net.cpp:226] Top shape: 112 320 14 14 (7024640)
I0331 19:11:44.756814 136241 net.cpp:234] Memory required for data: 5741261576
I0331 19:11:44.756830 136241 net.cpp:154] Setting up Layer of device :0 @cpu 0 Layer : inception_4e/relu_3x3
I0331 19:11:44.756836 136241 layer_factory.hpp:114] Creating layer inception_4e/relu_3x3
I0331 19:11:44.756856 136241 net.cpp:169] Creating Layer inception_4e/relu_3x3
I0331 19:11:44.756865 136241 net.cpp:606] inception_4e/relu_3x3 <- inception_4e/3x3
I0331 19:11:44.756875 136241 net.cpp:566] inception_4e/relu_3x3 -> inception_4e/3x3 (in-place)
I0331 19:11:44.756885 136241 net.cpp:219] Setting up inception_4e/relu_3x3
I0331 19:11:44.756891 136241 net.cpp:226] Top shape: 112 320 14 14 (7024640)
I0331 19:11:44.756893 136241 net.cpp:234] Memory required for data: 5769360136
I0331 19:11:44.756898 136241 net.cpp:154] Setting up Layer of device :0 @cpu 0 Layer : inception_4e/5x5_reduce
I0331 19:11:44.756903 136241 layer_factory.hpp:114] Creating layer inception_4e/5x5_reduce
I0331 19:11:44.756917 136241 net.cpp:169] Creating Layer inception_4e/5x5_reduce
I0331 19:11:44.756922 136241 net.cpp:606] inception_4e/5x5_reduce <- inception_4d/output_inception_4d/output_0_split_3
I0331 19:11:44.756932 136241 net.cpp:579] inception_4e/5x5_reduce -> inception_4e/5x5_reduce
I0331 19:11:44.756935 136241 net.cpp:582] From AppendTop @cpu: 0
I0331 19:11:44.759912 136241 net.cpp:219] Setting up inception_4e/5x5_reduce
I0331 19:11:44.759922 136241 net.cpp:226] Top shape: 112 32 14 14 (702464)
I0331 19:11:44.759927 136241 net.cpp:234] Memory required for data: 5772169992
I0331 19:11:44.759935 136241 net.cpp:154] Setting up Layer of device :0 @cpu 0 Layer : inception_4e/relu_5x5_reduce
I0331 19:11:44.759939 136241 layer_factory.hpp:114] Creating layer inception_4e/relu_5x5_reduce
I0331 19:11:44.759948 136241 net.cpp:169] Creating Layer inception_4e/relu_5x5_reduce
I0331 19:11:44.759953 136241 net.cpp:606] inception_4e/relu_5x5_reduce <- inception_4e/5x5_reduce
I0331 19:11:44.759959 136241 net.cpp:566] inception_4e/relu_5x5_reduce -> inception_4e/5x5_reduce (in-place)
I0331 19:11:44.759966 136241 net.cpp:219] Setting up inception_4e/relu_5x5_reduce
I0331 19:11:44.759971 136241 net.cpp:226] Top shape: 112 32 14 14 (702464)
I0331 19:11:44.759975 136241 net.cpp:234] Memory required for data: 5774979848
I0331 19:11:44.759980 136241 net.cpp:154] Setting up Layer of device :0 @cpu 0 Layer : inception_4e/5x5
I0331 19:11:44.759984 136241 layer_factory.hpp:114] Creating layer inception_4e/5x5
I0331 19:11:44.760004 136241 net.cpp:169] Creating Layer inception_4e/5x5
I0331 19:11:44.760007 136241 net.cpp:606] inception_4e/5x5 <- inception_4e/5x5_reduce
I0331 19:11:44.760015 136241 net.cpp:579] inception_4e/5x5 -> inception_4e/5x5
I0331 19:11:44.760018 136241 net.cpp:582] From AppendTop @cpu: 0
I0331 19:11:44.766734 136241 net.cpp:219] Setting up inception_4e/5x5
I0331 19:11:44.766746 136241 net.cpp:226] Top shape: 112 128 14 14 (2809856)
I0331 19:11:44.766749 136241 net.cpp:234] Memory required for data: 5786219272
I0331 19:11:44.766759 136241 net.cpp:154] Setting up Layer of device :0 @cpu 0 Layer : inception_4e/relu_5x5
I0331 19:11:44.766764 136241 layer_factory.hpp:114] Creating layer inception_4e/relu_5x5
I0331 19:11:44.766770 136241 net.cpp:169] Creating Layer inception_4e/relu_5x5
I0331 19:11:44.766775 136241 net.cpp:606] inception_4e/relu_5x5 <- inception_4e/5x5
I0331 19:11:44.766783 136241 net.cpp:566] inception_4e/relu_5x5 -> inception_4e/5x5 (in-place)
I0331 19:11:44.766790 136241 net.cpp:219] Setting up inception_4e/relu_5x5
I0331 19:11:44.766795 136241 net.cpp:226] Top shape: 112 128 14 14 (2809856)
I0331 19:11:44.766799 136241 net.cpp:234] Memory required for data: 5797458696
I0331 19:11:44.766804 136241 net.cpp:154] Setting up Layer of device :0 @cpu 0 Layer : inception_4e/pool
I0331 19:11:44.766809 136241 layer_factory.hpp:114] Creating layer inception_4e/pool
I0331 19:11:44.766846 136241 net.cpp:169] Creating Layer inception_4e/pool
I0331 19:11:44.766850 136241 net.cpp:606] inception_4e/pool <- inception_4d/output_inception_4d/output_0_split_4
I0331 19:11:44.766860 136241 net.cpp:579] inception_4e/pool -> inception_4e/pool
I0331 19:11:44.766865 136241 net.cpp:582] From AppendTop @cpu: 0
I0331 19:11:44.766876 136241 net.cpp:219] Setting up inception_4e/pool
I0331 19:11:44.766882 136241 net.cpp:226] Top shape: 112 528 14 14 (11590656)
I0331 19:11:44.766891 136241 net.cpp:234] Memory required for data: 5843821320
I0331 19:11:44.766896 136241 net.cpp:154] Setting up Layer of device :0 @cpu 0 Layer : inception_4e/pool_proj
I0331 19:11:44.766901 136241 layer_factory.hpp:114] Creating layer inception_4e/pool_proj
I0331 19:11:44.766911 136241 net.cpp:169] Creating Layer inception_4e/pool_proj
I0331 19:11:44.766916 136241 net.cpp:606] inception_4e/pool_proj <- inception_4e/pool
I0331 19:11:44.766924 136241 net.cpp:579] inception_4e/pool_proj -> inception_4e/pool_proj
I0331 19:11:44.766928 136241 net.cpp:582] From AppendTop @cpu: 0
I0331 19:11:44.772042 136241 net.cpp:219] Setting up inception_4e/pool_proj
I0331 19:11:44.772054 136241 net.cpp:226] Top shape: 112 128 14 14 (2809856)
I0331 19:11:44.772058 136241 net.cpp:234] Memory required for data: 5855060744
I0331 19:11:44.772068 136241 net.cpp:154] Setting up Layer of device :0 @cpu 0 Layer : inception_4e/relu_pool_proj
I0331 19:11:44.772073 136241 layer_factory.hpp:114] Creating layer inception_4e/relu_pool_proj
I0331 19:11:44.772078 136241 net.cpp:169] Creating Layer inception_4e/relu_pool_proj
I0331 19:11:44.772083 136241 net.cpp:606] inception_4e/relu_pool_proj <- inception_4e/pool_proj
I0331 19:11:44.772091 136241 net.cpp:566] inception_4e/relu_pool_proj -> inception_4e/pool_proj (in-place)
I0331 19:11:44.772099 136241 net.cpp:219] Setting up inception_4e/relu_pool_proj
I0331 19:11:44.772104 136241 net.cpp:226] Top shape: 112 128 14 14 (2809856)
I0331 19:11:44.772107 136241 net.cpp:234] Memory required for data: 5866300168
I0331 19:11:44.772112 136241 net.cpp:154] Setting up Layer of device :0 @cpu 0 Layer : inception_4e/output
I0331 19:11:44.772116 136241 layer_factory.hpp:114] Creating layer inception_4e/output
I0331 19:11:44.772125 136241 net.cpp:169] Creating Layer inception_4e/output
I0331 19:11:44.772130 136241 net.cpp:606] inception_4e/output <- inception_4e/1x1
I0331 19:11:44.772135 136241 net.cpp:606] inception_4e/output <- inception_4e/3x3
I0331 19:11:44.772140 136241 net.cpp:606] inception_4e/output <- inception_4e/5x5
I0331 19:11:44.772143 136241 net.cpp:606] inception_4e/output <- inception_4e/pool_proj
I0331 19:11:44.772152 136241 net.cpp:579] inception_4e/output -> inception_4e/output
I0331 19:11:44.772156 136241 net.cpp:582] From AppendTop @cpu: 0
I0331 19:11:44.772166 136241 net.cpp:219] Setting up inception_4e/output
I0331 19:11:44.772171 136241 net.cpp:226] Top shape: 112 832 14 14 (18264064)
I0331 19:11:44.772176 136241 net.cpp:234] Memory required for data: 5939356424
I0331 19:11:44.772189 136241 net.cpp:154] Setting up Layer of device :0 @cpu 0 Layer : pool4/3x3_s2
I0331 19:11:44.772193 136241 layer_factory.hpp:114] Creating layer pool4/3x3_s2
I0331 19:11:44.772214 136241 net.cpp:169] Creating Layer pool4/3x3_s2
I0331 19:11:44.772219 136241 net.cpp:606] pool4/3x3_s2 <- inception_4e/output
I0331 19:11:44.772228 136241 net.cpp:579] pool4/3x3_s2 -> pool4/3x3_s2
I0331 19:11:44.772233 136241 net.cpp:582] From AppendTop @cpu: 0
I0331 19:11:44.772241 136241 net.cpp:219] Setting up pool4/3x3_s2
I0331 19:11:44.772248 136241 net.cpp:226] Top shape: 112 832 7 7 (4566016)
I0331 19:11:44.772250 136241 net.cpp:234] Memory required for data: 5957620488
I0331 19:11:44.772255 136241 net.cpp:154] Setting up Layer of device :0 @cpu 0 Layer : pool4/3x3_s2_pool4/3x3_s2_0_split
I0331 19:11:44.772260 136241 layer_factory.hpp:114] Creating layer pool4/3x3_s2_pool4/3x3_s2_0_split
I0331 19:11:44.772269 136241 net.cpp:169] Creating Layer pool4/3x3_s2_pool4/3x3_s2_0_split
I0331 19:11:44.772272 136241 net.cpp:606] pool4/3x3_s2_pool4/3x3_s2_0_split <- pool4/3x3_s2
I0331 19:11:44.772279 136241 net.cpp:579] pool4/3x3_s2_pool4/3x3_s2_0_split -> pool4/3x3_s2_pool4/3x3_s2_0_split_0
I0331 19:11:44.772282 136241 net.cpp:582] From AppendTop @cpu: 0
I0331 19:11:44.772289 136241 net.cpp:579] pool4/3x3_s2_pool4/3x3_s2_0_split -> pool4/3x3_s2_pool4/3x3_s2_0_split_1
I0331 19:11:44.772292 136241 net.cpp:582] From AppendTop @cpu: 0
I0331 19:11:44.772299 136241 net.cpp:579] pool4/3x3_s2_pool4/3x3_s2_0_split -> pool4/3x3_s2_pool4/3x3_s2_0_split_2
I0331 19:11:44.772311 136241 net.cpp:582] From AppendTop @cpu: 0
I0331 19:11:44.772318 136241 net.cpp:579] pool4/3x3_s2_pool4/3x3_s2_0_split -> pool4/3x3_s2_pool4/3x3_s2_0_split_3
I0331 19:11:44.772322 136241 net.cpp:582] From AppendTop @cpu: 0
I0331 19:11:44.772330 136241 net.cpp:219] Setting up pool4/3x3_s2_pool4/3x3_s2_0_split
I0331 19:11:44.772336 136241 net.cpp:226] Top shape: 112 832 7 7 (4566016)
I0331 19:11:44.772341 136241 net.cpp:226] Top shape: 112 832 7 7 (4566016)
I0331 19:11:44.772346 136241 net.cpp:226] Top shape: 112 832 7 7 (4566016)
I0331 19:11:44.772351 136241 net.cpp:226] Top shape: 112 832 7 7 (4566016)
I0331 19:11:44.772353 136241 net.cpp:234] Memory required for data: 6030676744
I0331 19:11:44.772358 136241 net.cpp:154] Setting up Layer of device :0 @cpu 0 Layer : inception_5a/1x1
I0331 19:11:44.772362 136241 layer_factory.hpp:114] Creating layer inception_5a/1x1
I0331 19:11:44.772374 136241 net.cpp:169] Creating Layer inception_5a/1x1
I0331 19:11:44.772378 136241 net.cpp:606] inception_5a/1x1 <- pool4/3x3_s2_pool4/3x3_s2_0_split_0
I0331 19:11:44.772385 136241 net.cpp:579] inception_5a/1x1 -> inception_5a/1x1
I0331 19:11:44.772389 136241 net.cpp:582] From AppendTop @cpu: 0
I0331 19:11:44.780546 136241 net.cpp:219] Setting up inception_5a/1x1
I0331 19:11:44.780560 136241 net.cpp:226] Top shape: 112 256 7 7 (1404928)
I0331 19:11:44.780565 136241 net.cpp:234] Memory required for data: 6036296456
I0331 19:11:44.780575 136241 net.cpp:154] Setting up Layer of device :0 @cpu 0 Layer : inception_5a/relu_1x1
I0331 19:11:44.780578 136241 layer_factory.hpp:114] Creating layer inception_5a/relu_1x1
I0331 19:11:44.780586 136241 net.cpp:169] Creating Layer inception_5a/relu_1x1
I0331 19:11:44.780591 136241 net.cpp:606] inception_5a/relu_1x1 <- inception_5a/1x1
I0331 19:11:44.780596 136241 net.cpp:566] inception_5a/relu_1x1 -> inception_5a/1x1 (in-place)
I0331 19:11:44.780603 136241 net.cpp:219] Setting up inception_5a/relu_1x1
I0331 19:11:44.780608 136241 net.cpp:226] Top shape: 112 256 7 7 (1404928)
I0331 19:11:44.780612 136241 net.cpp:234] Memory required for data: 6041916168
I0331 19:11:44.780617 136241 net.cpp:154] Setting up Layer of device :0 @cpu 0 Layer : inception_5a/3x3_reduce
I0331 19:11:44.780622 136241 layer_factory.hpp:114] Creating layer inception_5a/3x3_reduce
I0331 19:11:44.780635 136241 net.cpp:169] Creating Layer inception_5a/3x3_reduce
I0331 19:11:44.780642 136241 net.cpp:606] inception_5a/3x3_reduce <- pool4/3x3_s2_pool4/3x3_s2_0_split_1
I0331 19:11:44.780659 136241 net.cpp:579] inception_5a/3x3_reduce -> inception_5a/3x3_reduce
I0331 19:11:44.780663 136241 net.cpp:582] From AppendTop @cpu: 0
I0331 19:11:44.786517 136241 net.cpp:219] Setting up inception_5a/3x3_reduce
I0331 19:11:44.786530 136241 net.cpp:226] Top shape: 112 160 7 7 (878080)
I0331 19:11:44.786533 136241 net.cpp:234] Memory required for data: 6045428488
I0331 19:11:44.786542 136241 net.cpp:154] Setting up Layer of device :0 @cpu 0 Layer : inception_5a/relu_3x3_reduce
I0331 19:11:44.786546 136241 layer_factory.hpp:114] Creating layer inception_5a/relu_3x3_reduce
I0331 19:11:44.786553 136241 net.cpp:169] Creating Layer inception_5a/relu_3x3_reduce
I0331 19:11:44.786557 136241 net.cpp:606] inception_5a/relu_3x3_reduce <- inception_5a/3x3_reduce
I0331 19:11:44.786566 136241 net.cpp:566] inception_5a/relu_3x3_reduce -> inception_5a/3x3_reduce (in-place)
I0331 19:11:44.786573 136241 net.cpp:219] Setting up inception_5a/relu_3x3_reduce
I0331 19:11:44.786579 136241 net.cpp:226] Top shape: 112 160 7 7 (878080)
I0331 19:11:44.786582 136241 net.cpp:234] Memory required for data: 6048940808
I0331 19:11:44.786587 136241 net.cpp:154] Setting up Layer of device :0 @cpu 0 Layer : inception_5a/3x3
I0331 19:11:44.786592 136241 layer_factory.hpp:114] Creating layer inception_5a/3x3
I0331 19:11:44.786602 136241 net.cpp:169] Creating Layer inception_5a/3x3
I0331 19:11:44.786605 136241 net.cpp:606] inception_5a/3x3 <- inception_5a/3x3_reduce
I0331 19:11:44.786612 136241 net.cpp:579] inception_5a/3x3 -> inception_5a/3x3
I0331 19:11:44.786619 136241 net.cpp:582] From AppendTop @cpu: 0
I0331 19:11:44.801957 136241 net.cpp:219] Setting up inception_5a/3x3
I0331 19:11:44.801980 136241 net.cpp:226] Top shape: 112 320 7 7 (1756160)
I0331 19:11:44.801985 136241 net.cpp:234] Memory required for data: 6055965448
I0331 19:11:44.801997 136241 net.cpp:154] Setting up Layer of device :0 @cpu 0 Layer : inception_5a/relu_3x3
I0331 19:11:44.802002 136241 layer_factory.hpp:114] Creating layer inception_5a/relu_3x3
I0331 19:11:44.802011 136241 net.cpp:169] Creating Layer inception_5a/relu_3x3
I0331 19:11:44.802016 136241 net.cpp:606] inception_5a/relu_3x3 <- inception_5a/3x3
I0331 19:11:44.802024 136241 net.cpp:566] inception_5a/relu_3x3 -> inception_5a/3x3 (in-place)
I0331 19:11:44.802032 136241 net.cpp:219] Setting up inception_5a/relu_3x3
I0331 19:11:44.802037 136241 net.cpp:226] Top shape: 112 320 7 7 (1756160)
I0331 19:11:44.802042 136241 net.cpp:234] Memory required for data: 6062990088
I0331 19:11:44.802047 136241 net.cpp:154] Setting up Layer of device :0 @cpu 0 Layer : inception_5a/5x5_reduce
I0331 19:11:44.802050 136241 layer_factory.hpp:114] Creating layer inception_5a/5x5_reduce
I0331 19:11:44.802063 136241 net.cpp:169] Creating Layer inception_5a/5x5_reduce
I0331 19:11:44.802069 136241 net.cpp:606] inception_5a/5x5_reduce <- pool4/3x3_s2_pool4/3x3_s2_0_split_2
I0331 19:11:44.802079 136241 net.cpp:579] inception_5a/5x5_reduce -> inception_5a/5x5_reduce
I0331 19:11:44.802083 136241 net.cpp:582] From AppendTop @cpu: 0
I0331 19:11:44.804517 136241 net.cpp:219] Setting up inception_5a/5x5_reduce
I0331 19:11:44.804528 136241 net.cpp:226] Top shape: 112 32 7 7 (175616)
I0331 19:11:44.804533 136241 net.cpp:234] Memory required for data: 6063692552
I0331 19:11:44.804541 136241 net.cpp:154] Setting up Layer of device :0 @cpu 0 Layer : inception_5a/relu_5x5_reduce
I0331 19:11:44.804545 136241 layer_factory.hpp:114] Creating layer inception_5a/relu_5x5_reduce
I0331 19:11:44.804553 136241 net.cpp:169] Creating Layer inception_5a/relu_5x5_reduce
I0331 19:11:44.804558 136241 net.cpp:606] inception_5a/relu_5x5_reduce <- inception_5a/5x5_reduce
I0331 19:11:44.804563 136241 net.cpp:566] inception_5a/relu_5x5_reduce -> inception_5a/5x5_reduce (in-place)
I0331 19:11:44.804570 136241 net.cpp:219] Setting up inception_5a/relu_5x5_reduce
I0331 19:11:44.804575 136241 net.cpp:226] Top shape: 112 32 7 7 (175616)
I0331 19:11:44.804579 136241 net.cpp:234] Memory required for data: 6064395016
I0331 19:11:44.804584 136241 net.cpp:154] Setting up Layer of device :0 @cpu 0 Layer : inception_5a/5x5
I0331 19:11:44.804605 136241 layer_factory.hpp:114] Creating layer inception_5a/5x5
I0331 19:11:44.804616 136241 net.cpp:169] Creating Layer inception_5a/5x5
I0331 19:11:44.804620 136241 net.cpp:606] inception_5a/5x5 <- inception_5a/5x5_reduce
I0331 19:11:44.804632 136241 net.cpp:579] inception_5a/5x5 -> inception_5a/5x5
I0331 19:11:44.804637 136241 net.cpp:582] From AppendTop @cpu: 0
I0331 19:11:44.809170 136241 net.cpp:219] Setting up inception_5a/5x5
I0331 19:11:44.809181 136241 net.cpp:226] Top shape: 112 128 7 7 (702464)
I0331 19:11:44.809185 136241 net.cpp:234] Memory required for data: 6067204872
I0331 19:11:44.809195 136241 net.cpp:154] Setting up Layer of device :0 @cpu 0 Layer : inception_5a/relu_5x5
I0331 19:11:44.809198 136241 layer_factory.hpp:114] Creating layer inception_5a/relu_5x5
I0331 19:11:44.809207 136241 net.cpp:169] Creating Layer inception_5a/relu_5x5
I0331 19:11:44.809212 136241 net.cpp:606] inception_5a/relu_5x5 <- inception_5a/5x5
I0331 19:11:44.809217 136241 net.cpp:566] inception_5a/relu_5x5 -> inception_5a/5x5 (in-place)
I0331 19:11:44.809224 136241 net.cpp:219] Setting up inception_5a/relu_5x5
I0331 19:11:44.809231 136241 net.cpp:226] Top shape: 112 128 7 7 (702464)
I0331 19:11:44.809233 136241 net.cpp:234] Memory required for data: 6070014728
I0331 19:11:44.809238 136241 net.cpp:154] Setting up Layer of device :0 @cpu 0 Layer : inception_5a/pool
I0331 19:11:44.809243 136241 layer_factory.hpp:114] Creating layer inception_5a/pool
I0331 19:11:44.809286 136241 net.cpp:169] Creating Layer inception_5a/pool
I0331 19:11:44.809293 136241 net.cpp:606] inception_5a/pool <- pool4/3x3_s2_pool4/3x3_s2_0_split_3
I0331 19:11:44.809298 136241 net.cpp:579] inception_5a/pool -> inception_5a/pool
I0331 19:11:44.809303 136241 net.cpp:582] From AppendTop @cpu: 0
I0331 19:11:44.809314 136241 net.cpp:219] Setting up inception_5a/pool
I0331 19:11:44.809319 136241 net.cpp:226] Top shape: 112 832 7 7 (4566016)
I0331 19:11:44.809324 136241 net.cpp:234] Memory required for data: 6088278792
I0331 19:11:44.809329 136241 net.cpp:154] Setting up Layer of device :0 @cpu 0 Layer : inception_5a/pool_proj
I0331 19:11:44.809332 136241 layer_factory.hpp:114] Creating layer inception_5a/pool_proj
I0331 19:11:44.809345 136241 net.cpp:169] Creating Layer inception_5a/pool_proj
I0331 19:11:44.809348 136241 net.cpp:606] inception_5a/pool_proj <- inception_5a/pool
I0331 19:11:44.809357 136241 net.cpp:579] inception_5a/pool_proj -> inception_5a/pool_proj
I0331 19:11:44.809361 136241 net.cpp:582] From AppendTop @cpu: 0
I0331 19:11:44.814117 136241 net.cpp:219] Setting up inception_5a/pool_proj
I0331 19:11:44.814129 136241 net.cpp:226] Top shape: 112 128 7 7 (702464)
I0331 19:11:44.814133 136241 net.cpp:234] Memory required for data: 6091088648
I0331 19:11:44.814142 136241 net.cpp:154] Setting up Layer of device :0 @cpu 0 Layer : inception_5a/relu_pool_proj
I0331 19:11:44.814146 136241 layer_factory.hpp:114] Creating layer inception_5a/relu_pool_proj
I0331 19:11:44.814155 136241 net.cpp:169] Creating Layer inception_5a/relu_pool_proj
I0331 19:11:44.814160 136241 net.cpp:606] inception_5a/relu_pool_proj <- inception_5a/pool_proj
I0331 19:11:44.814167 136241 net.cpp:566] inception_5a/relu_pool_proj -> inception_5a/pool_proj (in-place)
I0331 19:11:44.814173 136241 net.cpp:219] Setting up inception_5a/relu_pool_proj
I0331 19:11:44.814178 136241 net.cpp:226] Top shape: 112 128 7 7 (702464)
I0331 19:11:44.814182 136241 net.cpp:234] Memory required for data: 6093898504
I0331 19:11:44.814187 136241 net.cpp:154] Setting up Layer of device :0 @cpu 0 Layer : inception_5a/output
I0331 19:11:44.814190 136241 layer_factory.hpp:114] Creating layer inception_5a/output
I0331 19:11:44.814198 136241 net.cpp:169] Creating Layer inception_5a/output
I0331 19:11:44.814203 136241 net.cpp:606] inception_5a/output <- inception_5a/1x1
I0331 19:11:44.814208 136241 net.cpp:606] inception_5a/output <- inception_5a/3x3
I0331 19:11:44.814213 136241 net.cpp:606] inception_5a/output <- inception_5a/5x5
I0331 19:11:44.814227 136241 net.cpp:606] inception_5a/output <- inception_5a/pool_proj
I0331 19:11:44.814234 136241 net.cpp:579] inception_5a/output -> inception_5a/output
I0331 19:11:44.814237 136241 net.cpp:582] From AppendTop @cpu: 0
I0331 19:11:44.814249 136241 net.cpp:219] Setting up inception_5a/output
I0331 19:11:44.814254 136241 net.cpp:226] Top shape: 112 832 7 7 (4566016)
I0331 19:11:44.814257 136241 net.cpp:234] Memory required for data: 6112162568
I0331 19:11:44.814262 136241 net.cpp:154] Setting up Layer of device :0 @cpu 0 Layer : inception_5a/output_inception_5a/output_0_split
I0331 19:11:44.814266 136241 layer_factory.hpp:114] Creating layer inception_5a/output_inception_5a/output_0_split
I0331 19:11:44.814275 136241 net.cpp:169] Creating Layer inception_5a/output_inception_5a/output_0_split
…
I0331 19:11:44.814301 136241 net.cpp:582] From AppendTop @cpu: 0
I0331 19:11:44.814307 136241 net.cpp:579] inception_5a/output_inception_5a/output_0_split -> inception_5a/output_inception_5a/output_0_split_2
I0331 19:11:44.814311 136241 net.cpp:582] From AppendTop @cpu: 0
I0331 19:11:44.814321 136241 net.cpp:579] inception_5a/output_inception_5a/output_0_split -> inception_5a/output_inception_5a/output_0_split_3
I0331 19:11:44.814324 136241 net.cpp:582] From AppendTop @cpu: 0
I0331 19:11:44.814333 136241 net.cpp:219] Setting up inception_5a/output_inception_5a/output_0_split
I0331 19:11:44.814338 136241 net.cpp:226] Top shape: 112 832 7 7 (4566016)
I0331 19:11:44.814343 136241 net.cpp:226] Top shape: 112 832 7 7 (4566016)
I0331 19:11:44.814348 136241 net.cpp:226] Top shape: 112 832 7 7 (4566016)
I0331 19:11:44.814352 136241 net.cpp:226] Top shape: 112 832 7 7 (4566016)
I0331 19:11:44.814357 136241 net.cpp:234] Memory required for data: 6185218824
I0331 19:11:44.814362 136241 net.cpp:154] Setting up Layer of device :0 @cpu 0 Layer : inception_5b/1x1
I0331 19:11:44.814365 136241 layer_factory.hpp:114] Creating layer inception_5b/1x1
I0331 19:11:44.814375 136241 net.cpp:169] Creating Layer inception_5b/1x1
I0331 19:11:44.814380 136241 net.cpp:606] inception_5b/1x1 <- inception_5a/output_inception_5a/output_0_split_0
I0331 19:11:44.814388 136241 net.cpp:579] inception_5b/1x1 -> inception_5b/1x1
I0331 19:11:44.814390 136241 net.cpp:582] From AppendTop @cpu: 0
I0331 19:11:44.824929 136241 net.cpp:219] Setting up inception_5b/1x1
I0331 19:11:44.824945 136241 net.cpp:226] Top shape: 112 384 7 7 (2107392)
I0331 19:11:44.824949 136241 net.cpp:234] Memory required for data: 6193648392
I0331 19:11:44.824959 136241 net.cpp:154] Setting up Layer of device :0 @cpu 0 Layer : inception_5b/relu_1x1
I0331 19:11:44.824964 136241 layer_factory.hpp:114] Creating layer inception_5b/relu_1x1
I0331 19:11:44.824973 136241 net.cpp:169] Creating Layer inception_5b/relu_1x1
I0331 19:11:44.824978 136241 net.cpp:606] inception_5b/relu_1x1 <- inception_5b/1x1
I0331 19:11:44.824985 136241 net.cpp:566] inception_5b/relu_1x1 -> inception_5b/1x1 (in-place)
I0331 19:11:44.824992 136241 net.cpp:219] Setting up inception_5b/relu_1x1
I0331 19:11:44.824998 136241 net.cpp:226] Top shape: 112 384 7 7 (2107392)
I0331 19:11:44.825002 136241 net.cpp:234] Memory required for data: 6202077960
I0331 19:11:44.825007 136241 net.cpp:154] Setting up Layer of device :0 @cpu 0 Layer : inception_5b/3x3_reduce
I0331 19:11:44.825011 136241 layer_factory.hpp:114] Creating layer inception_5b/3x3_reduce
I0331 19:11:44.825021 136241 net.cpp:169] Creating Layer inception_5b/3x3_reduce
I0331 19:11:44.825024 136241 net.cpp:606] inception_5b/3x3_reduce <- inception_5a/output_inception_5a/output_0_split_1
I0331 19:11:44.825033 136241 net.cpp:579] inception_5b/3x3_reduce -> inception_5b/3x3_reduce
I0331 19:11:44.825047 136241 net.cpp:582] From AppendTop @cpu: 0
I0331 19:11:44.831523 136241 net.cpp:219] Setting up inception_5b/3x3_reduce
I0331 19:11:44.831535 136241 net.cpp:226] Top shape: 112 192 7 7 (1053696)
…
I0331 19:11:45.313349 136241 net.cpp:566] inception_4d/relu_5x5 -> inception_4d/5x5 (in-place)
I0331 19:11:45.313356 136241 net.cpp:219] Setting up inception_4d/relu_5x5
I0331 19:11:45.313362 136241 net.cpp:226] Top shape: 50 64 14 14 (627200)
I0331 19:11:45.313365 136241 net.cpp:234] Memory required for data: 2365909212
I0331 19:11:45.313370 136241 net.cpp:154] Setting up Layer of device :0 @cpu 0 Layer : inception_4d/pool
I0331 19:11:45.313374 136241 layer_factory.hpp:114] Creating layer inception_4d/pool
I0331 19:11:45.313407 136241 net.cpp:169] Creating Layer inception_4d/pool
I0331 19:11:45.313412 136241 net.cpp:606] inception_4d/pool <- inception_4c/output_inception_4c/output_0_split_3
I0331 19:11:45.313421 136241 net.cpp:579] inception_4d/pool -> inception_4d/pool
I0331 19:11:45.313424 136241 net.cpp:582] From AppendTop @cpu: 0
I0331 19:11:45.313436 136241 net.cpp:219] Setting up inception_4d/pool
I0331 19:11:45.313441 136241 net.cpp:226] Top shape: 50 512 14 14 (5017600)
I0331 19:11:45.313444 136241 net.cpp:234] Memory required for data: 2385979612
I0331 19:11:45.313449 136241 net.cpp:154] Setting up Layer of device :0 @cpu 0 Layer : inception_4d/pool_proj
I0331 19:11:45.313453 136241 layer_factory.hpp:114] Creating layer inception_4d/pool_proj
I0331 19:11:45.313464 136241 net.cpp:169] Creating Layer inception_4d/pool_proj
I0331 19:11:45.313473 136241 net.cpp:606] inception_4d/pool_proj <- inception_4d/pool
I0331 19:11:45.313482 136241 net.cpp:579] inception_4d/pool_proj -> inception_4d/pool_proj
I0331 19:11:45.313486 136241 net.cpp:582] From AppendTop @cpu: 0
I0331 19:11:45.316993 136241 net.cpp:219] Setting up inception_4d/pool_proj
I0331 19:11:45.317004 136241 net.cpp:226] Top shape: 50 64 14 14 (627200)
I0331 19:11:45.317008 136241 net.cpp:234] Memory required for data: 2388488412
I0331 19:11:45.317018 136241 net.cpp:154] Setting up Layer of device :0 @cpu 0 Layer : inception_4d/relu_pool_proj
I0331 19:11:45.317021 136241 layer_factory.hpp:114] Creating layer inception_4d/relu_pool_proj
I0331 19:11:45.317028 136241 net.cpp:169] Creating Layer inception_4d/relu_pool_proj
I0331 19:11:45.317032 136241 net.cpp:606] inception_4d/relu_pool_proj <- inception_4d/pool_proj
I0331 19:11:45.317041 136241 net.cpp:566] inception_4d/relu_pool_proj -> inception_4d/pool_proj (in-place)
I0331 19:11:45.317049 136241 net.cpp:219] Setting up inception_4d/relu_pool_proj
I0331 19:11:45.317054 136241 net.cpp:226] Top shape: 50 64 14 14 (627200)
I0331 19:11:45.317057 136241 net.cpp:234] Memory required for data: 2390997212
I0331 19:11:45.317061 136241 net.cpp:154] Setting up Layer of device :0 @cpu 0 Layer : inception_4d/output
I0331 19:11:45.317066 136241 layer_factory.hpp:114] Creating layer inception_4d/output
I0331 19:11:45.317075 136241 net.cpp:169] Creating Layer inception_4d/output
I0331 19:11:45.317080 136241 net.cpp:606] inception_4d/output <- inception_4d/1x1
I0331 19:11:45.317085 136241 net.cpp:606] inception_4d/output <- inception_4d/3x3
I0331 19:11:45.317090 136241 net.cpp:606] inception_4d/output <- inception_4d/5x5
I0331 19:11:45.317095 136241 net.cpp:606] inception_4d/output <- inception_4d/pool_proj
I0331 19:11:45.317101 136241 net.cpp:579] inception_4d/output -> inception_4d/output
I0331 19:11:45.317106 136241 net.cpp:582] From AppendTop @cpu: 0
I0331 19:11:45.317114 136241 net.cpp:219] Setting up inception_4d/output
I0331 19:11:45.317119 136241 net.cpp:226] Top shape: 50 528 14 14 (5174400)
I0331 19:11:45.317123 136241 net.cpp:234] Memory required for data: 2411694812
I0331 19:11:45.317128 136241 net.cpp:154] Setting up Layer of device :0 @cpu 0 Layer : inception_4d/output_inception_4d/output_0_split
I0331 19:11:45.317132 136241 layer_factory.hpp:114] Creating layer inception_4d/output_inception_4d/output_0_split
I0331 19:11:45.317142 136241 net.cpp:169] Creating Layer inception_4d/output_inception_4d/output_0_split
…
I0331 19:11:45.317188 136241 net.cpp:582] From AppendTop @cpu: 0
I0331 19:11:45.317194 136241 net.cpp:579] inception_4d/output_inception_4d/output_0_split -> inception_4d/output_inception_4d/output_0_split_3
I0331 19:11:45.317198 136241 net.cpp:582] From AppendTop @cpu: 0
I0331 19:11:45.317204 136241 net.cpp:579] inception_4d/output_inception_4d/output_0_split -> inception_4d/output_inception_4d/output_0_split_4
I0331 19:11:45.317210 136241 net.cpp:582] From AppendTop @cpu: 0
I0331 19:11:45.317219 136241 net.cpp:219] Setting up inception_4d/output_inception_4d/output_0_split
I0331 19:11:45.317224 136241 net.cpp:226] Top shape: 50 528 14 14 (5174400)
I0331 19:11:45.317229 136241 net.cpp:226] Top shape: 50 528 14 14 (5174400)
I0331 19:11:45.317234 136241 net.cpp:226] Top shape: 50 528 14 14 (5174400)
I0331 19:11:45.317242 136241 net.cpp:226] Top shape: 50 528 14 14 (5174400)
I0331 19:11:45.317247 136241 net.cpp:226] Top shape: 50 528 14 14 (5174400)
I0331 19:11:45.317250 136241 net.cpp:234] Memory required for data: 2515182812
I0331 19:11:45.317255 136241 net.cpp:154] Setting up Layer of device :0 @cpu 0 Layer : loss2/ave_pool
I0331 19:11:45.317260 136241 layer_factory.hpp:114] Creating layer loss2/ave_pool
I0331 19:11:45.317279 136241 net.cpp:169] Creating Layer loss2/ave_pool
I0331 19:11:45.317283 136241 net.cpp:606] loss2/ave_pool <- inception_4d/output_inception_4d/output_0_split_0
I0331 19:11:45.317293 136241 net.cpp:579] loss2/ave_pool -> loss2/ave_pool
I0331 19:11:45.317297 136241 net.cpp:582] From AppendTop @cpu: 0
I0331 19:11:45.317306 136241 net.cpp:219] Setting up loss2/ave_pool
I0331 19:11:45.317312 136241 net.cpp:226] Top shape: 50 528 4 4 (422400)
I0331 19:11:45.317315 136241 net.cpp:234] Memory required for data: 2516872412
I0331 19:11:45.317320 136241 net.cpp:154] Setting up Layer of device :0 @cpu 0 Layer : loss2/conv
I0331 19:11:45.317324 136241 layer_factory.hpp:114] Creating layer loss2/conv
I0331 19:11:45.317335 136241 net.cpp:169] Creating Layer loss2/conv
I0331 19:11:45.317340 136241 net.cpp:606] loss2/conv <- loss2/ave_pool
I0331 19:11:45.317349 136241 net.cpp:579] loss2/conv -> loss2/conv
I0331 19:11:45.317353 136241 net.cpp:582] From AppendTop @cpu: 0
I0331 19:11:45.319938 136241 net.cpp:219] Setting up loss2/conv
I0331 19:11:45.319950 136241 net.cpp:226] Top shape: 50 128 4 4 (102400)
I0331 19:11:45.319954 136241 net.cpp:234] Memory required for data: 2517282012
I0331 19:11:45.319963 136241 net.cpp:154] Setting up Layer of device :0 @cpu 0 Layer : loss2/relu_conv
I0331 19:11:45.319968 136241 layer_factory.hpp:114] Creating layer loss2/relu_conv
I0331 19:11:45.319977 136241 net.cpp:169] Creating Layer loss2/relu_conv
I0331 19:11:45.319980 136241 net.cpp:606] loss2/relu_conv <- loss2/conv
I0331 19:11:45.319986 136241 net.cpp:566] loss2/relu_conv -> loss2/conv (in-place)
I0331 19:11:45.319994 136241 net.cpp:219] Setting up loss2/relu_conv
I0331 19:11:45.319999 136241 net.cpp:226] Top shape: 50 128 4 4 (102400)
I0331 19:11:45.320003 136241 net.cpp:234] Memory required for data: 2517691612
I0331 19:11:45.320008 136241 net.cpp:154] Setting up Layer of device :0 @cpu 0 Layer : loss2/fc
I0331 19:11:45.320013 136241 layer_factory.hpp:114] Creating layer loss2/fc
I0331 19:11:45.320024 136241 net.cpp:169] Creating Layer loss2/fc
I0331 19:11:45.320027 136241 net.cpp:606] loss2/fc <- loss2/conv
I0331 19:11:45.320044 136241 net.cpp:579] loss2/fc -> loss2/fc
I0331 19:11:45.320049 136241 net.cpp:582] From AppendTop @cpu: 0
I0331 19:11:45.339839 136241 net.cpp:219] Setting up loss2/fc
I0331 19:11:45.339850 136241 net.cpp:226] Top shape: 50 1024 (51200)
I0331 19:11:45.339854 136241 net.cpp:234] Memory required for data: 2517896412
I0331 19:11:45.339864 136241 net.cpp:154] Setting up Layer of device :0 @cpu 0 Layer : loss2/relu_fc
I0331 19:11:45.339867 136241 layer_factory.hpp:114] Creating layer loss2/relu_fc
I0331 19:11:45.339874 136241 net.cpp:169] Creating Layer loss2/relu_fc
I0331 19:11:45.339879 136241 net.cpp:606] loss2/relu_fc <- loss2/fc
I0331 19:11:45.339886 136241 net.cpp:566] loss2/relu_fc -> loss2/fc (in-place)
I0331 19:11:45.339895 136241 net.cpp:219] Setting up loss2/relu_fc
I0331 19:11:45.339900 136241 net.cpp:226] Top shape: 50 1024 (51200)
I0331 19:11:45.339903 136241 net.cpp:234] Memory required for data: 2518101212
I0331 19:11:45.339908 136241 net.cpp:154] Setting up Layer of device :0 @cpu 0 Layer : loss2/drop_fc
I0331 19:11:45.339912 136241 layer_factory.hpp:114] Creating layer loss2/drop_fc
I0331 19:11:45.339920 136241 net.cpp:169] Creating Layer loss2/drop_fc
I0331 19:11:45.339925 136241 net.cpp:606] loss2/drop_fc <- loss2/fc
I0331 19:11:45.339931 136241 net.cpp:566] loss2/drop_fc -> loss2/fc (in-place)
I0331 19:11:45.339938 136241 net.cpp:219] Setting up loss2/drop_fc
I0331 19:11:45.339943 136241 net.cpp:226] Top shape: 50 1024 (51200)
I0331 19:11:45.339946 136241 net.cpp:234] Memory required for data: 2518306012
I0331 19:11:45.339956 136241 net.cpp:154] Setting up Layer of device :0 @cpu 0 Layer : loss2/classifier
I0331 19:11:45.339959 136241 layer_factory.hpp:114] Creating layer loss2/classifier
I0331 19:11:45.339968 136241 net.cpp:169] Creating Layer loss2/classifier
I0331 19:11:45.339972 136241 net.cpp:606] loss2/classifier <- loss2/fc
I0331 19:11:45.339982 136241 net.cpp:579] loss2/classifier -> loss2/classifier
I0331 19:11:45.339984 136241 net.cpp:582] From AppendTop @cpu: 0
I0331 19:11:45.349881 136241 net.cpp:219] Setting up loss2/classifier
I0331 19:11:45.349892 136241 net.cpp:226] Top shape: 50 1000 (50000)
I0331 19:11:45.349896 136241 net.cpp:234] Memory required for data: 2518506012
I0331 19:11:45.349905 136241 net.cpp:154] Setting up Layer of device :0 @cpu 0 Layer : loss2/classifier_loss2/classifier_0_split
I0331 19:11:45.349910 136241 layer_factory.hpp:114] Creating layer loss2/classifier_loss2/classifier_0_split
I0331 19:11:45.349916 136241 net.cpp:169] Creating Layer loss2/classifier_loss2/classifier_0_split
I0331 19:11:45.349921 136241 net.cpp:606] loss2/classifier_loss2/classifier_0_split <- loss2/classifier
I0331 19:11:45.349927 136241 net.cpp:579] loss2/classifier_loss2/classifier_0_split -> loss2/classifier_loss2/classifier_0_split_0
I0331 19:11:45.349931 136241 net.cpp:582] From AppendTop @cpu: 0
I0331 19:11:45.349939 136241 net.cpp:579] loss2/classifier_loss2/classifier_0_split -> loss2/classifier_loss2/classifier_0_split_1
I0331 19:11:45.349944 136241 net.cpp:582] From AppendTop @cpu: 0
I0331 19:11:45.349952 136241 net.cpp:579] loss2/classifier_loss2/classifier_0_split -> loss2/classifier_loss2/classifier_0_split_2
I0331 19:11:45.349956 136241 net.cpp:582] From AppendTop @cpu: 0
I0331 19:11:45.349963 136241 net.cpp:219] Setting up loss2/classifier_loss2/classifier_0_split
I0331 19:11:45.349968 136241 net.cpp:226] Top shape: 50 1000 (50000)
I0331 19:11:45.349972 136241 net.cpp:226] Top shape: 50 1000 (50000)
I0331 19:11:45.349977 136241 net.cpp:226] Top shape: 50 1000 (50000)
I0331 19:11:45.349980 136241 net.cpp:234] Memory required for data: 2519106012
I0331 19:11:45.349985 136241 net.cpp:154] Setting up Layer of device :0 @cpu 0 Layer : loss2/loss
I0331 19:11:45.349989 136241 layer_factory.hpp:114] Creating layer loss2/loss
I0331 19:11:45.349997 136241 net.cpp:169] Creating Layer loss2/loss
I0331 19:11:45.350000 136241 net.cpp:606] loss2/loss <- loss2/classifier_loss2/classifier_0_split_0
…
I0331 19:11:45.350337 136241 net.cpp:154] Setting up Layer of device :0 @cpu 0 Layer : inception_4e/1x1
I0331 19:11:45.350340 136241 layer_factory.hpp:114] Creating layer inception_4e/1x1
I0331 19:11:45.350353 136241 net.cpp:169] Creating Layer inception_4e/1x1
I0331 19:11:45.350358 136241 net.cpp:606] inception_4e/1x1 <- inception_4d/output_inception_4d/output_0_split_1
I0331 19:11:45.350366 136241 net.cpp:579] inception_4e/1x1 -> inception_4e/1x1
I0331 19:11:45.350370 136241 net.cpp:582] From AppendTop @cpu: 0
I0331 19:11:45.356753 136241 net.cpp:219] Setting up inception_4e/1x1
I0331 19:11:45.356765 136241 net.cpp:226] Top shape: 50 256 14 14 (2508800)
I0331 19:11:45.356770 136241 net.cpp:234] Memory required for data: 2529141224
I0331 19:11:45.356778 136241 net.cpp:154] Setting up Layer of device :0 @cpu 0 Layer : inception_4e/relu_1x1
I0331 19:11:45.356783 136241 layer_factory.hpp:114] Creating layer inception_4e/relu_1x1
I0331 19:11:45.356789 136241 net.cpp:169] Creating Layer inception_4e/relu_1x1
I0331 19:11:45.356794 136241 net.cpp:606] inception_4e/relu_1x1 <- inception_4e/1x1
I0331 19:11:45.356803 136241 net.cpp:566] inception_4e/relu_1x1 -> inception_4e/1x1 (in-place)
I0331 19:11:45.356811 136241 net.cpp:219] Setting up inception_4e/relu_1x1
I0331 19:11:45.356817 136241 net.cpp:226] Top shape: 50 256 14 14 (2508800)
I0331 19:11:45.356820 136241 net.cpp:234] Memory required for data: 2539176424
I0331 19:11:45.356825 136241 net.cpp:154] Setting up Layer of device :0 @cpu 0 Layer : inception_4e/3x3_reduce
I0331 19:11:45.356829 136241 layer_factory.hpp:114] Creating layer inception_4e/3x3_reduce
I0331 19:11:45.356849 136241 net.cpp:169] Creating Layer inception_4e/3x3_reduce
I0331 19:11:45.356854 136241 net.cpp:606] inception_4e/3x3_reduce <- inception_4d/output_inception_4d/output_0_split_2
I0331 19:11:45.356861 136241 net.cpp:579] inception_4e/3x3_reduce -> inception_4e/3x3_reduce
I0331 19:11:45.356865 136241 net.cpp:582] From AppendTop @cpu: 0
I0331 19:11:45.362129 136241 net.cpp:219] Setting up inception_4e/3x3_reduce
I0331 19:11:45.362141 136241 net.cpp:226] Top shape: 50 160 14 14 (1568000)
I0331 19:11:45.362154 136241 net.cpp:234] Memory required for data: 2545448424
I0331 19:11:45.362164 136241 net.cpp:154] Setting up Layer of device :0 @cpu 0 Layer : inception_4e/relu_3x3_reduce
I0331 19:11:45.362169 136241 layer_factory.hpp:114] Creating layer inception_4e/relu_3x3_reduce
I0331 19:11:45.362177 136241 net.cpp:169] Creating Layer inception_4e/relu_3x3_reduce
I0331 19:11:45.362184 136241 net.cpp:606] inception_4e/relu_3x3_reduce <- inception_4e/3x3_reduce
I0331 19:11:45.362188 136241 net.cpp:566] inception_4e/relu_3x3_reduce -> inception_4e/3x3_reduce (in-place)
I0331 19:11:45.362196 136241 net.cpp:219] Setting up inception_4e/relu_3x3_reduce
I0331 19:11:45.362201 136241 net.cpp:226] Top shape: 50 160 14 14 (1568000)
I0331 19:11:45.362205 136241 net.cpp:234] Memory required for data: 2551720424
I0331 19:11:45.362210 136241 net.cpp:154] Setting up Layer of device :0 @cpu 0 Layer : inception_4e/3x3
I0331 19:11:45.362215 136241 layer_factory.hpp:114] Creating layer inception_4e/3x3
I0331 19:11:45.362223 136241 net.cpp:169] Creating Layer inception_4e/3x3
I0331 19:11:45.362227 136241 net.cpp:606] inception_4e/3x3 <- inception_4e/3x3_reduce
I0331 19:11:45.362236 136241 net.cpp:579] inception_4e/3x3 -> inception_4e/3x3
I0331 19:11:45.362239 136241 net.cpp:582] From AppendTop @cpu: 0
I0331 19:11:45.381135 136241 net.cpp:219] Setting up inception_4e/3x3
I0331 19:11:45.381173 136241 net.cpp:226] Top shape: 50 320 14 14 (3136000)
I0331 19:11:45.381177 136241 net.cpp:234] Memory required for data: 2564264424
I0331 19:11:45.381201 136241 net.cpp:154] Setting up Layer of device :0 @cpu 0 Layer : inception_4e/relu_3x3
I0331 19:11:45.381206 136241 layer_factory.hpp:114] Creating layer inception_4e/relu_3x3
I0331 19:11:45.381217 136241 net.cpp:169] Creating Layer inception_4e/relu_3x3
I0331 19:11:45.381223 136241 net.cpp:606] inception_4e/relu_3x3 <- inception_4e/3x3
I0331 19:11:45.381235 136241 net.cpp:566] inception_4e/relu_3x3 -> inception_4e/3x3 (in-place)
I0331 19:11:45.381247 136241 net.cpp:219] Setting up inception_4e/relu_3x3
I0331 19:11:45.381252 136241 net.cpp:226] Top shape: 50 320 14 14 (3136000)
I0331 19:11:45.381255 136241 net.cpp:234] Memory required for data: 2576808424
I0331 19:11:45.381260 136241 net.cpp:154] Setting up Layer of device :0 @cpu 0 Layer : inception_4e/5x5_reduce
I0331 19:11:45.381264 136241 layer_factory.hpp:114] Creating layer inception_4e/5x5_reduce
I0331 19:11:45.381276 136241 net.cpp:169] Creating Layer inception_4e/5x5_reduce
I0331 19:11:45.381281 136241 net.cpp:606] inception_4e/5x5_reduce <- inception_4d/output_inception_4d/output_0_split_3
I0331 19:11:45.381289 136241 net.cpp:579] inception_4e/5x5_reduce -> inception_4e/5x5_reduce
I0331 19:11:45.381294 136241 net.cpp:582] From AppendTop @cpu: 0
I0331 19:11:45.384738 136241 net.cpp:219] Setting up inception_4e/5x5_reduce
I0331 19:11:45.384750 136241 net.cpp:226] Top shape: 50 32 14 14 (313600)
I0331 19:11:45.384754 136241 net.cpp:234] Memory required for data: 2578062824
I0331 19:11:45.384763 136241 net.cpp:154] Setting up Layer of device :0 @cpu 0 Layer : inception_4e/relu_5x5_reduce
I0331 19:11:45.384768 136241 layer_factory.hpp:114] Creating layer inception_4e/relu_5x5_reduce
I0331 19:11:45.384774 136241 net.cpp:169] Creating Layer inception_4e/relu_5x5_reduce
I0331 19:11:45.384778 136241 net.cpp:606] inception_4e/relu_5x5_reduce <- inception_4e/5x5_reduce
I0331 19:11:45.384788 136241 net.cpp:566] inception_4e/relu_5x5_reduce -> inception_4e/5x5_reduce (in-place)
I0331 19:11:45.384794 136241 net.cpp:219] Setting up inception_4e/relu_5x5_reduce
I0331 19:11:45.384800 136241 net.cpp:226] Top shape: 50 32 14 14 (313600)
I0331 19:11:45.384804 136241 net.cpp:234] Memory required for data: 2579317224
I0331 19:11:45.384809 136241 net.cpp:154] Setting up Layer of device :0 @cpu 0 Layer : inception_4e/5x5
I0331 19:11:45.384814 136241 layer_factory.hpp:114] Creating layer inception_4e/5x5
I0331 19:11:45.384825 136241 net.cpp:169] Creating Layer inception_4e/5x5
I0331 19:11:45.384829 136241 net.cpp:606] inception_4e/5x5 <- inception_4e/5x5_reduce
I0331 19:11:45.384856 136241 net.cpp:579] inception_4e/5x5 -> inception_4e/5x5
I0331 19:11:45.384860 136241 net.cpp:582] From AppendTop @cpu: 0
I0331 19:11:45.391505 136241 net.cpp:219] Setting up inception_4e/5x5
I0331 19:11:45.391517 136241 net.cpp:226] Top shape: 50 128 14 14 (1254400)
I0331 19:11:45.391520 136241 net.cpp:234] Memory required for data: 2584334824
I0331 19:11:45.391530 136241 net.cpp:154] Setting up Layer of device :0 @cpu 0 Layer : inception_4e/relu_5x5
I0331 19:11:45.391533 136241 layer_factory.hpp:114] Creating layer inception_4e/relu_5x5
I0331 19:11:45.391541 136241 net.cpp:169] Creating Layer inception_4e/relu_5x5
I0331 19:11:45.391544 136241 net.cpp:606] inception_4e/relu_5x5 <- inception_4e/5x5
I0331 19:11:45.391553 136241 net.cpp:566] inception_4e/relu_5x5 -> inception_4e/5x5 (in-place)
I0331 19:11:45.391561 136241 net.cpp:219] Setting up inception_4e/relu_5x5
I0331 19:11:45.391566 136241 net.cpp:226] Top shape: 50 128 14 14 (1254400)
I0331 19:11:45.391569 136241 net.cpp:234] Memory required for data: 2589352424
I0331 19:11:45.391574 136241 net.cpp:154] Setting up Layer of device :0 @cpu 0 Layer : inception_4e/pool
I0331 19:11:45.391578 136241 layer_factory.hpp:114] Creating layer inception_4e/pool
I0331 19:11:45.391613 136241 net.cpp:169] Creating Layer inception_4e/pool
I0331 19:11:45.391618 136241 net.cpp:606] inception_4e/pool <- inception_4d/output_inception_4d/output_0_split_4
I0331 19:11:45.391628 136241 net.cpp:579] inception_4e/pool -> inception_4e/pool
I0331 19:11:45.391638 136241 net.cpp:582] From AppendTop @cpu: 0
I0331 19:11:45.391650 136241 net.cpp:219] Setting up inception_4e/pool
I0331 19:11:45.391656 136241 net.cpp:226] Top shape: 50 528 14 14 (5174400)
I0331 19:11:45.391660 136241 net.cpp:234] Memory required for data: 2610050024
I0331 19:11:45.391665 136241 net.cpp:154] Setting up Layer of device :0 @cpu 0 Layer : inception_4e/pool_proj
I0331 19:11:45.391669 136241 layer_factory.hpp:114] Creating layer inception_4e/pool_proj
I0331 19:11:45.391686 136241 net.cpp:169] Creating Layer inception_4e/pool_proj
I0331 19:11:45.391690 136241 net.cpp:606] inception_4e/pool_proj <- inception_4e/pool
I0331 19:11:45.391697 136241 net.cpp:579] inception_4e/pool_proj -> inception_4e/pool_proj
I0331 19:11:45.391701 136241 net.cpp:582] From AppendTop @cpu: 0
I0331 19:11:45.396255 136241 net.cpp:219] Setting up inception_4e/pool_proj
I0331 19:11:45.396266 136241 net.cpp:226] Top shape: 50 128 14 14 (1254400)
I0331 19:11:45.396270 136241 net.cpp:234] Memory required for data: 2615067624
I0331 19:11:45.396281 136241 net.cpp:154] Setting up Layer of device :0 @cpu 0 Layer : inception_4e/relu_pool_proj
I0331 19:11:45.396284 136241 layer_factory.hpp:114] Creating layer inception_4e/relu_pool_proj
I0331 19:11:45.396291 136241 net.cpp:169] Creating Layer inception_4e/relu_pool_proj
I0331 19:11:45.396296 136241 net.cpp:606] inception_4e/relu_pool_proj <- inception_4e/pool_proj
I0331 19:11:45.396301 136241 net.cpp:566] inception_4e/relu_pool_proj -> inception_4e/pool_proj (in-place)
I0331 19:11:45.396308 136241 net.cpp:219] Setting up inception_4e/relu_pool_proj
I0331 19:11:45.396313 136241 net.cpp:226] Top shape: 50 128 14 14 (1254400)
I0331 19:11:45.396317 136241 net.cpp:234] Memory required for data: 2620085224
I0331 19:11:45.396322 136241 net.cpp:154] Setting up Layer of device :0 @cpu 0 Layer : inception_4e/output
I0331 19:11:45.396327 136241 layer_factory.hpp:114] Creating layer inception_4e/output
I0331 19:11:45.396334 136241 net.cpp:169] Creating Layer inception_4e/output
I0331 19:11:45.396338 136241 net.cpp:606] inception_4e/output <- inception_4e/1x1
I0331 19:11:45.396344 136241 net.cpp:606] inception_4e/output <- inception_4e/3x3
I0331 19:11:45.396349 136241 net.cpp:606] inception_4e/output <- inception_4e/5x5
I0331 19:11:45.396355 136241 net.cpp:606] inception_4e/output <- inception_4e/pool_proj
I0331 19:11:45.396363 136241 net.cpp:579] inception_4e/output -> inception_4e/output
I0331 19:11:45.396368 136241 net.cpp:582] From AppendTop @cpu: 0
I0331 19:11:45.396392 136241 net.cpp:219] Setting up inception_4e/output
I0331 19:11:45.396397 136241 net.cpp:226] Top shape: 50 832 14 14 (8153600)
I0331 19:11:45.396401 136241 net.cpp:234] Memory required for data: 2652699624
I0331 19:11:45.396406 136241 net.cpp:154] Setting up Layer of device :0 @cpu 0 Layer : pool4/3x3_s2
I0331 19:11:45.396410 136241 layer_factory.hpp:114] Creating layer pool4/3x3_s2
I0331 19:11:45.396428 136241 net.cpp:169] Creating Layer pool4/3x3_s2
I0331 19:11:45.396433 136241 net.cpp:606] pool4/3x3_s2 <- inception_4e/output
I0331 19:11:45.396440 136241 net.cpp:579] pool4/3x3_s2 -> pool4/3x3_s2
I0331 19:11:45.396443 136241 net.cpp:582] From AppendTop @cpu: 0
I0331 19:11:45.396453 136241 net.cpp:219] Setting up pool4/3x3_s2
I0331 19:11:45.396459 136241 net.cpp:226] Top shape: 50 832 7 7 (2038400)
I0331 19:11:45.396462 136241 net.cpp:234] Memory required for data: 2660853224
I0331 19:11:45.396467 136241 net.cpp:154] Setting up Layer of device :0 @cpu 0 Layer : pool4/3x3_s2_pool4/3x3_s2_0_split
I0331 19:11:45.396471 136241 layer_factory.hpp:114] Creating layer pool4/3x3_s2_pool4/3x3_s2_0_split
I0331 19:11:45.396479 136241 net.cpp:169] Creating Layer pool4/3x3_s2_pool4/3x3_s2_0_split
I0331 19:11:45.396483 136241 net.cpp:606] pool4/3x3_s2_pool4/3x3_s2_0_split <- pool4/3x3_s2
I0331 19:11:45.396492 136241 net.cpp:579] pool4/3x3_s2_pool4/3x3_s2_0_split -> pool4/3x3_s2_pool4/3x3_s2_0_split_0
I0331 19:11:45.396497 136241 net.cpp:582] From AppendTop @cpu: 0
I0331 19:11:45.396502 136241 net.cpp:579] pool4/3x3_s2_pool4/3x3_s2_0_split -> pool4/3x3_s2_pool4/3x3_s2_0_split_1
I0331 19:11:45.396509 136241 net.cpp:582] From AppendTop @cpu: 0
I0331 19:11:45.396517 136241 net.cpp:579] pool4/3x3_s2_pool4/3x3_s2_0_split -> pool4/3x3_s2_pool4/3x3_s2_0_split_2
I0331 19:11:45.396520 136241 net.cpp:582] From AppendTop @cpu: 0
I0331 19:11:45.396534 136241 net.cpp:579] pool4/3x3_s2_pool4/3x3_s2_0_split -> pool4/3x3_s2_pool4/3x3_s2_0_split_3
I0331 19:11:45.396538 136241 net.cpp:582] From AppendTop @cpu: 0
I0331 19:11:45.396546 136241 net.cpp:219] Setting up pool4/3x3_s2_pool4/3x3_s2_0_split
I0331 19:11:45.396553 136241 net.cpp:226] Top shape: 50 832 7 7 (2038400)
I0331 19:11:45.396558 136241 net.cpp:226] Top shape: 50 832 7 7 (2038400)
I0331 19:11:45.396564 136241 net.cpp:226] Top shape: 50 832 7 7 (2038400)
I0331 19:11:45.396569 136241 net.cpp:226] Top shape: 50 832 7 7 (2038400)
I0331 19:11:45.396571 136241 net.cpp:234] Memory required for data: 2693467624
I0331 19:11:45.396576 136241 net.cpp:154] Setting up Layer of device :0 @cpu 0 Layer : inception_5a/1x1
I0331 19:11:45.396580 136241 layer_factory.hpp:114] Creating layer inception_5a/1x1
I0331 19:11:45.396589 136241 net.cpp:169] Creating Layer inception_5a/1x1
I0331 19:11:45.396595 136241 net.cpp:606] inception_5a/1x1 <- pool4/3x3_s2_pool4/3x3_s2_0_split_0
I0331 19:11:45.396603 136241 net.cpp:579] inception_5a/1x1 -> inception_5a/1x1
I0331 19:11:45.396607 136241 net.cpp:582] From AppendTop @cpu: 0
I0331 19:11:45.404204 136241 net.cpp:219] Setting up inception_5a/1x1
I0331 19:11:45.404217 136241 net.cpp:226] Top shape: 50 256 7 7 (627200)
I0331 19:11:45.404220 136241 net.cpp:234] Memory required for data: 2695976424
I0331 19:11:45.404230 136241 net.cpp:154] Setting up Layer of device :0 @cpu 0 Layer : inception_5a/relu_1x1
I0331 19:11:45.404234 136241 layer_factory.hpp:114] Creating layer inception_5a/relu_1x1
I0331 19:11:45.404240 136241 net.cpp:169] Creating Layer inception_5a/relu_1x1
I0331 19:11:45.404245 136241 net.cpp:606] inception_5a/relu_1x1 <- inception_5a/1x1
I0331 19:11:45.404254 136241 net.cpp:566] inception_5a/relu_1x1 -> inception_5a/1x1 (in-place)
I0331 19:11:45.404261 136241 net.cpp:219] Setting up inception_5a/relu_1x1
I0331 19:11:45.404266 136241 net.cpp:226] Top shape: 50 256 7 7 (627200)
I0331 19:11:45.404270 136241 net.cpp:234] Memory required for data: 2698485224
I0331 19:11:45.404275 136241 net.cpp:154] Setting up Layer of device :0 @cpu 0 Layer : inception_5a/3x3_reduce
I0331 19:11:45.404279 136241 layer_factory.hpp:114] Creating layer inception_5a/3x3_reduce
I0331 19:11:45.404299 136241 net.cpp:169] Creating Layer inception_5a/3x3_reduce
I0331 19:11:45.404304 136241 net.cpp:606] inception_5a/3x3_reduce <- pool4/3x3_s2_pool4/3x3_s2_0_split_1
I0331 19:11:45.404310 136241 net.cpp:579] inception_5a/3x3_reduce -> inception_5a/3x3_reduce
I0331 19:11:45.404314 136241 net.cpp:582] From AppendTop @cpu: 0
I0331 19:11:45.409595 136241 net.cpp:219] Setting up inception_5a/3x3_reduce
I0331 19:11:45.409606 136241 net.cpp:226] Top shape: 50 160 7 7 (392000)
I0331 19:11:45.409610 136241 net.cpp:234] Memory required for data: 2700053224
I0331 19:11:45.409618 136241 net.cpp:154] Setting up Layer of device :0 @cpu 0 Layer : inception_5a/relu_3x3_reduce
I0331 19:11:45.409626 136241 layer_factory.hpp:114] Creating layer inception_5a/relu_3x3_reduce
I0331 19:11:45.409636 136241 net.cpp:169] Creating Layer inception_5a/relu_3x3_reduce
I0331 19:11:45.409641 136241 net.cpp:606] inception_5a/relu_3x3_reduce <- inception_5a/3x3_reduce
I0331 19:11:45.409647 136241 net.cpp:566] inception_5a/relu_3x3_reduce -> inception_5a/3x3_reduce (in-place)
I0331 19:11:45.409654 136241 net.cpp:219] Setting up inception_5a/relu_3x3_reduce
I0331 19:11:45.409659 136241 net.cpp:226] Top shape: 50 160 7 7 (392000)
I0331 19:11:45.409663 136241 net.cpp:234] Memory required for data: 2701621224
I0331 19:11:45.409668 136241 net.cpp:154] Setting up Layer of device :0 @cpu 0 Layer : inception_5a/3x3
I0331 19:11:45.409672 136241 layer_factory.hpp:114] Creating layer inception_5a/3x3
I0331 19:11:45.409682 136241 net.cpp:169] Creating Layer inception_5a/3x3
I0331 19:11:45.409690 136241 net.cpp:606] inception_5a/3x3 <- inception_5a/3x3_reduce
I0331 19:11:45.409700 136241 net.cpp:579] inception_5a/3x3 -> inception_5a/3x3
I0331 19:11:45.409703 136241 net.cpp:582] From AppendTop @cpu: 0
I0331 19:11:45.424957 136241 net.cpp:219] Setting up inception_5a/3x3
I0331 19:11:45.424980 136241 net.cpp:226] Top shape: 50 320 7 7 (784000)
I0331 19:11:45.424984 136241 net.cpp:234] Memory required for data: 2704757224
I0331 19:11:45.424998 136241 net.cpp:154] Setting up Layer of device :0 @cpu 0 Layer : inception_5a/relu_3x3
I0331 19:11:45.425002 136241 layer_factory.hpp:114] Creating layer inception_5a/relu_3x3
I0331 19:11:45.425010 136241 net.cpp:169] Creating Layer inception_5a/relu_3x3
I0331 19:11:45.425016 136241 net.cpp:606] inception_5a/relu_3x3 <- inception_5a/3x3
I0331 19:11:45.425026 136241 net.cpp:566] inception_5a/relu_3x3 -> inception_5a/3x3 (in-place)
I0331 19:11:45.425034 136241 net.cpp:219] Setting up inception_5a/relu_3x3
I0331 19:11:45.425040 136241 net.cpp:226] Top shape: 50 320 7 7 (784000)
I0331 19:11:45.425043 136241 net.cpp:234] Memory required for data: 2707893224
I0331 19:11:45.425048 136241 net.cpp:154] Setting up Layer of device :0 @cpu 0 Layer : inception_5a/5x5_reduce
I0331 19:11:45.425053 136241 layer_factory.hpp:114] Creating layer inception_5a/5x5_reduce
I0331 19:11:45.425063 136241 net.cpp:169] Creating Layer inception_5a/5x5_reduce
I0331 19:11:45.425070 136241 net.cpp:606] inception_5a/5x5_reduce <- pool4/3x3_s2_pool4/3x3_s2_0_split_2
I0331 19:11:45.425077 136241 net.cpp:579] inception_5a/5x5_reduce -> inception_5a/5x5_reduce
I0331 19:11:45.425081 136241 net.cpp:582] From AppendTop @cpu: 0
I0331 19:11:45.427465 136241 net.cpp:219] Setting up inception_5a/5x5_reduce
I0331 19:11:45.427477 136241 net.cpp:226] Top shape: 50 32 7 7 (78400)
I0331 19:11:45.427481 136241 net.cpp:234] Memory required for data: 2708206824
I0331 19:11:45.427490 136241 net.cpp:154] Setting up Layer of device :0 @cpu 0 Layer : inception_5a/relu_5x5_reduce
I0331 19:11:45.427495 136241 layer_factory.hpp:114] Creating layer inception_5a/relu_5x5_reduce
I0331 19:11:45.427503 136241 net.cpp:169] Creating Layer inception_5a/relu_5x5_reduce
I0331 19:11:45.427510 136241 net.cpp:606] inception_5a/relu_5x5_reduce <- inception_5a/5x5_reduce
I0331 19:11:45.427515 136241 net.cpp:566] inception_5a/relu_5x5_reduce -> inception_5a/5x5_reduce (in-place)
I0331 19:11:45.427522 136241 net.cpp:219] Setting up inception_5a/relu_5x5_reduce
I0331 19:11:45.427527 136241 net.cpp:226] Top shape: 50 32 7 7 (78400)
I0331 19:11:45.427557 136241 net.cpp:234] Memory required for data: 2708520424
I0331 19:11:45.427563 136241 net.cpp:154] Setting up Layer of device :0 @cpu 0 Layer : inception_5a/5x5
I0331 19:11:45.427567 136241 layer_factory.hpp:114] Creating layer inception_5a/5x5
I0331 19:11:45.427577 136241 net.cpp:169] Creating Layer inception_5a/5x5
I0331 19:11:45.427582 136241 net.cpp:606] inception_5a/5x5 <- inception_5a/5x5_reduce
I0331 19:11:45.427590 136241 net.cpp:579] inception_5a/5x5 -> inception_5a/5x5
I0331 19:11:45.427594 136241 net.cpp:582] From AppendTop @cpu: 0
I0331 19:11:45.432070 136241 net.cpp:219] Setting up inception_5a/5x5
I0331 19:11:45.432080 136241 net.cpp:226] Top shape: 50 128 7 7 (313600)
I0331 19:11:45.432085 136241 net.cpp:234] Memory required for data: 2709774824
I0331 19:11:45.432093 136241 net.cpp:154] Setting up Layer of device :0 @cpu 0 Layer : inception_5a/relu_5x5
I0331 19:11:45.432097 136241 layer_factory.hpp:114] Creating layer inception_5a/relu_5x5
I0331 19:11:45.432106 136241 net.cpp:169] Creating Layer inception_5a/relu_5x5
I0331 19:11:45.432111 136241 net.cpp:606] inception_5a/relu_5x5 <- inception_5a/5x5
I0331 19:11:45.432116 136241 net.cpp:566] inception_5a/relu_5x5 -> inception_5a/5x5 (in-place)
I0331 19:11:45.432123 136241 net.cpp:219] Setting up inception_5a/relu_5x5
I0331 19:11:45.432128 136241 net.cpp:226] Top shape: 50 128 7 7 (313600)
I0331 19:11:45.432132 136241 net.cpp:234] Memory required for data: 2711029224
I0331 19:11:45.432137 136241 net.cpp:154] Setting up Layer of device :0 @cpu 0 Layer : inception_5a/pool
I0331 19:11:45.432147 136241 layer_factory.hpp:114] Creating layer inception_5a/pool
I0331 19:11:45.432181 136241 net.cpp:169] Creating Layer inception_5a/pool
I0331 19:11:45.432186 136241 net.cpp:606] inception_5a/pool <- pool4/3x3_s2_pool4/3x3_s2_0_split_3
I0331 19:11:45.432195 136241 net.cpp:579] inception_5a/pool -> inception_5a/pool
I0331 19:11:45.432199 136241 net.cpp:582] From AppendTop @cpu: 0
I0331 19:11:45.432210 136241 net.cpp:219] Setting up inception_5a/pool
I0331 19:11:45.432216 136241 net.cpp:226] Top shape: 50 832 7 7 (2038400)
I0331 19:11:45.432220 136241 net.cpp:234] Memory required for data: 2719182824
I0331 19:11:45.432225 136241 net.cpp:154] Setting up Layer of device :0 @cpu 0 Layer : inception_5a/pool_proj
I0331 19:11:45.432229 136241 layer_factory.hpp:114] Creating layer inception_5a/pool_proj
I0331 19:11:45.432240 136241 net.cpp:169] Creating Layer inception_5a/pool_proj
I0331 19:11:45.432245 136241 net.cpp:606] inception_5a/pool_proj <- inception_5a/pool
I0331 19:11:45.432255 136241 net.cpp:579] inception_5a/pool_proj -> inception_5a/pool_proj
I0331 19:11:45.432258 136241 net.cpp:582] From AppendTop @cpu: 0
I0331 19:11:45.436956 136241 net.cpp:219] Setting up inception_5a/pool_proj
I0331 19:11:45.436969 136241 net.cpp:226] Top shape: 50 128 7 7 (313600)
I0331 19:11:45.436972 136241 net.cpp:234] Memory required for data: 2720437224
I0331 19:11:45.436980 136241 net.cpp:154] Setting up Layer of device :0 @cpu 0 Layer : inception_5a/relu_pool_proj
I0331 19:11:45.436985 136241 layer_factory.hpp:114] Creating layer inception_5a/relu_pool_proj
I0331 19:11:45.436990 136241 net.cpp:169] Creating Layer inception_5a/relu_pool_proj
I0331 19:11:45.436996 136241 net.cpp:606] inception_5a/relu_pool_proj <- inception_5a/pool_proj
I0331 19:11:45.437001 136241 net.cpp:566] inception_5a/relu_pool_proj -> inception_5a/pool_proj (in-place)
I0331 19:11:45.437008 136241 net.cpp:219] Setting up inception_5a/relu_pool_proj
I0331 19:11:45.437014 136241 net.cpp:226] Top shape: 50 128 7 7 (313600)
I0331 19:11:45.437017 136241 net.cpp:234] Memory required for data: 2721691624
I0331 19:11:45.437022 136241 net.cpp:154] Setting up Layer of device :0 @cpu 0 Layer : inception_5a/output
I0331 19:11:45.437026 136241 layer_factory.hpp:114] Creating layer inception_5a/output
I0331 19:11:45.437034 136241 net.cpp:169] Creating Layer inception_5a/output
I0331 19:11:45.437038 136241 net.cpp:606] inception_5a/output <- inception_5a/1x1
I0331 19:11:45.437052 136241 net.cpp:606] inception_5a/output <- inception_5a/3x3
I0331 19:11:45.437058 136241 net.cpp:606] inception_5a/output <- inception_5a/5x5
I0331 19:11:45.437063 136241 net.cpp:606] inception_5a/output <- inception_5a/pool_proj
I0331 19:11:45.437072 136241 net.cpp:579] inception_5a/output -> inception_5a/output
I0331 19:11:45.437075 136241 net.cpp:582] From AppendTop @cpu: 0
I0331 19:11:45.437085 136241 net.cpp:219] Setting up inception_5a/output
I0331 19:11:45.437091 136241 net.cpp:226] Top shape: 50 832 7 7 (2038400)
I0331 19:11:45.437095 136241 net.cpp:234] Memory required for data: 2729845224
I0331 19:11:45.437100 136241 net.cpp:154] Setting up Layer of device :0 @cpu 0 Layer : inception_5a/output_inception_5a/output_0_split
I0331 19:11:45.437104 136241 layer_factory.hpp:114] Creating layer inception_5a/output_inception_5a/output_0_split
I0331 19:11:45.437113 136241 net.cpp:169] Creating Layer inception_5a/output_inception_5a/output_0_split
…
I0331 19:11:45.437137 136241 net.cpp:582] From AppendTop @cpu: 0
I0331 19:11:45.437144 136241 net.cpp:579] inception_5a/output_inception_5a/output_0_split -> inception_5a/output_inception_5a/output_0_split_2
I0331 19:11:45.437156 136241 net.cpp:582] From AppendTop @cpu: 0
I0331 19:11:45.437163 136241 net.cpp:579] inception_5a/output_inception_5a/output_0_split -> inception_5a/output_inception_5a/output_0_split_3
I0331 19:11:45.437166 136241 net.cpp:582] From AppendTop @cpu: 0
I0331 19:11:45.437175 136241 net.cpp:219] Setting up inception_5a/output_inception_5a/output_0_split
I0331 19:11:45.437180 136241 net.cpp:226] Top shape: 50 832 7 7 (2038400)
I0331 19:11:45.437185 136241 net.cpp:226] Top shape: 50 832 7 7 (2038400)
I0331 19:11:45.437189 136241 net.cpp:226] Top shape: 50 832 7 7 (2038400)
I0331 19:11:45.437194 136241 net.cpp:226] Top shape: 50 832 7 7 (2038400)
I0331 19:11:45.437197 136241 net.cpp:234] Memory required for data: 2762459624
I0331 19:11:45.437202 136241 net.cpp:154] Setting up Layer of device :0 @cpu 0 Layer : inception_5b/1x1
I0331 19:11:45.437206 136241 layer_factory.hpp:114] Creating layer inception_5b/1x1
I0331 19:11:45.437216 136241 net.cpp:169] Creating Layer inception_5b/1x1
I0331 19:11:45.437222 136241 net.cpp:606] inception_5b/1x1 <- inception_5a/output_inception_5a/output_0_split_0
I0331 19:11:45.437227 136241 net.cpp:579] inception_5b/1x1 -> inception_5b/1x1
I0331 19:11:45.437232 136241 net.cpp:582] From AppendTop @cpu: 0
I0331 19:11:45.447717 136241 net.cpp:219] Setting up inception_5b/1x1
I0331 19:11:45.447733 136241 net.cpp:226] Top shape: 50 384 7 7 (940800)
I0331 19:11:45.447737 136241 net.cpp:234] Memory required for data: 2766222824
I0331 19:11:45.447747 136241 net.cpp:154] Setting up Layer of device :0 @cpu 0 Layer : inception_5b/relu_1x1
I0331 19:11:45.447751 136241 layer_factory.hpp:114] Creating layer inception_5b/relu_1x1
I0331 19:11:45.447758 136241 net.cpp:169] Creating Layer inception_5b/relu_1x1
I0331 19:11:45.447763 136241 net.cpp:606] inception_5b/relu_1x1 <- inception_5b/1x1
I0331 19:11:45.447769 136241 net.cpp:566] inception_5b/relu_1x1 -> inception_5b/1x1 (in-place)
I0331 19:11:45.447777 136241 net.cpp:219] Setting up inception_5b/relu_1x1
I0331 19:11:45.447782 136241 net.cpp:226] Top shape: 50 384 7 7 (940800)
I0331 19:11:45.447785 136241 net.cpp:234] Memory required for data: 2769986024
I0331 19:11:45.447790 136241 net.cpp:154] Setting up Layer of device :0 @cpu 0 Layer : inception_5b/3x3_reduce
I0331 19:11:45.447794 136241 layer_factory.hpp:114] Creating layer inception_5b/3x3_reduce
I0331 19:11:45.447808 136241 net.cpp:169] Creating Layer inception_5b/3x3_reduce
I0331 19:11:45.447821 136241 net.cpp:606] inception_5b/3x3_reduce <- inception_5a/output_inception_5a/output_0_split_1
I0331 19:11:45.447829 136241 net.cpp:579] inception_5b/3x3_reduce -> inception_5b/3x3_reduce
I0331 19:11:45.447834 136241 net.cpp:582] From AppendTop @cpu: 0
I0331 19:11:45.453733 136241 net.cpp:219] Setting up inception_5b/3x3_reduce
I0331 19:11:45.453744 136241 net.cpp:226] Top shape: 50 192 7 7 (470400)
I0331 19:11:45.453748 136241 net.cpp:234] Memory required for data: 2771867624
I0331 19:11:45.453758 136241 net.cpp:154] Setting up Layer of device :0 @cpu 0 Layer : inception_5b/relu_3x3_reduce
I0331 19:11:45.453763 136241 layer_factory.hpp:114] Creating layer inception_5b/relu_3x3_reduce
I0331 19:11:45.453768 136241 net.cpp:169] Creating Layer inception_5b/relu_3x3_reduce
I0331 19:11:45.453773 136241 net.cpp:606] inception_5b/relu_3x3_reduce <- inception_5b/3x3_reduce
I0331 19:11:45.453783 136241 net.cpp:566] inception_5b/relu_3x3_reduce -> inception_5b/3x3_reduce (in-place)
I0331 19:11:45.453790 136241 net.cpp:219] Setting up inception_5b/relu_3x3_reduce
I0331 19:11:45.453795 136241 net.cpp:226] Top shape: 50 192 7 7 (470400)
I0331 19:11:45.453799 136241 net.cpp:234] Memory required for data: 2773749224
I0331 19:11:45.453804 136241 net.cpp:154] Setting up Layer of device :0 @cpu 0 Layer : inception_5b/3x3
I0331 19:11:45.453809 136241 layer_factory.hpp:114] Creating layer inception_5b/3x3
I0331 19:11:45.453817 136241 net.cpp:169] Creating Layer inception_5b/3x3
I0331 19:11:45.453821 136241 net.cpp:606] inception_5b/3x3 <- inception_5b/3x3_reduce
I0331 19:11:45.453832 136241 net.cpp:579] inception_5b/3x3 -> inception_5b/3x3
I0331 19:11:45.453836 136241 net.cpp:582] From AppendTop @cpu: 0
I0331 19:11:45.474942 136241 net.cpp:219] Setting up inception_5b/3x3
I0331 19:11:45.474978 136241 net.cpp:226] Top shape: 50 384 7 7 (940800)
I0331 19:11:45.474983 136241 net.cpp:234] Memory required for data: 2777512424
I0331 19:11:45.475000 136241 net.cpp:154] Setting up Layer of device :0 @cpu 0 Layer : inception_5b/relu_3x3
I0331 19:11:45.475005 136241 layer_factory.hpp:114] Creating layer inception_5b/relu_3x3
I0331 19:11:45.475016 136241 net.cpp:169] Creating Layer inception_5b/relu_3x3
I0331 19:11:45.475025 136241 net.cpp:606] inception_5b/relu_3x3 <- inception_5b/3x3
I0331 19:11:45.475035 136241 net.cpp:566] inception_5b/relu_3x3 -> inception_5b/3x3 (in-place)
I0331 19:11:45.475045 136241 net.cpp:219] Setting up inception_5b/relu_3x3
I0331 19:11:45.475050 136241 net.cpp:226] Top shape: 50 384 7 7 (940800)
I0331 19:11:45.475054 136241 net.cpp:234] Memory required for data: 2781275624
I0331 19:11:45.475059 136241 net.cpp:154] Setting up Layer of device :0 @cpu 0 Layer : inception_5b/5x5_reduce
I0331 19:11:45.475064 136241 layer_factory.hpp:114] Creating layer inception_5b/5x5_reduce
I0331 19:11:45.475078 136241 net.cpp:169] Creating Layer inception_5b/5x5_reduce
I0331 19:11:45.475085 136241 net.cpp:606] inception_5b/5x5_reduce <- inception_5a/output_inception_5a/output_0_split_2
I0331 19:11:45.475095 136241 net.cpp:579] inception_5b/5x5_reduce -> inception_5b/5x5_reduce
I0331 19:11:45.475098 136241 net.cpp:582] From AppendTop @cpu: 0
I0331 19:11:45.478045 136241 net.cpp:219] Setting up inception_5b/5x5_reduce
I0331 19:11:45.478056 136241 net.cpp:226] Top shape: 50 48 7 7 (117600)
I0331 19:11:45.478060 136241 net.cpp:234] Memory required for data: 2781746024
I0331 19:11:45.478070 136241 net.cpp:154] Setting up Layer of device :0 @cpu 0 Layer : inception_5b/relu_5x5_reduce
I0331 19:11:45.478075 136241 layer_factory.hpp:114] Creating layer inception_5b/relu_5x5_reduce
I0331 19:11:45.478080 136241 net.cpp:169] Creating Layer inception_5b/relu_5x5_reduce
I0331 19:11:45.478086 136241 net.cpp:606] inception_5b/relu_5x5_reduce <- inception_5b/5x5_reduce
I0331 19:11:45.478094 136241 net.cpp:566] inception_5b/relu_5x5_reduce -> inception_5b/5x5_reduce (in-place)
I0331 19:11:45.478102 136241 net.cpp:219] Setting up inception_5b/relu_5x5_reduce
I0331 19:11:45.478107 136241 net.cpp:226] Top shape: 50 48 7 7 (117600)
I0331 19:11:45.478132 136241 net.cpp:234] Memory required for data: 2782216424
I0331 19:11:45.478138 136241 net.cpp:154] Setting up Layer of device :0 @cpu 0 Layer : inception_5b/5x5
I0331 19:11:45.478142 136241 layer_factory.hpp:114] Creating layer inception_5b/5x5
I0331 19:11:45.478153 136241 net.cpp:169] Creating Layer inception_5b/5x5
I0331 19:11:45.478158 136241 net.cpp:606] inception_5b/5x5 <- inception_5b/5x5_reduce
I0331 19:11:45.478164 136241 net.cpp:579] inception_5b/5x5 -> inception_5b/5x5
I0331 19:11:45.478168 136241 net.cpp:582] From AppendTop @cpu: 0
I0331 19:11:45.484369 136241 net.cpp:219] Setting up inception_5b/5x5
I0331 19:11:45.484380 136241 net.cpp:226] Top shape: 50 128 7 7 (313600)
I0331 19:11:45.484385 136241 net.cpp:234] Memory required for data: 2783470824
I0331 19:11:45.484395 136241 net.cpp:154] Setting up Layer of device :0 @cpu 0 Layer : inception_5b/relu_5x5
I0331 19:11:45.484398 136241 layer_factory.hpp:114] Creating layer inception_5b/relu_5x5
I0331 19:11:45.484407 136241 net.cpp:169] Creating Layer inception_5b/relu_5x5
I0331 19:11:45.484412 136241 net.cpp:606] inception_5b/relu_5x5 <- inception_5b/5x5
I0331 19:11:45.484421 136241 net.cpp:566] inception_5b/relu_5x5 -> inception_5b/5x5 (in-place)
I0331 19:11:45.484428 136241 net.cpp:219] Setting up inception_5b/relu_5x5
I0331 19:11:45.484434 136241 net.cpp:226] Top shape: 50 128 7 7 (313600)
I0331 19:11:45.484437 136241 net.cpp:234] Memory required for data: 2784725224
I0331 19:11:45.484442 136241 net.cpp:154] Setting up Layer of device :0 @cpu 0 Layer : inception_5b/pool
I0331 19:11:45.484452 136241 layer_factory.hpp:114] Creating layer inception_5b/pool
I0331 19:11:45.484485 136241 net.cpp:169] Creating Layer inception_5b/pool
I0331 19:11:45.484490 136241 net.cpp:606] inception_5b/pool <- inception_5a/output_inception_5a/output_0_split_3
I0331 19:11:45.484498 136241 net.cpp:579] inception_5b/pool -> inception_5b/pool
I0331 19:11:45.484500 136241 net.cpp:582] From AppendTop @cpu: 0
I0331 19:11:45.484513 136241 net.cpp:219] Setting up inception_5b/pool
I0331 19:11:45.484518 136241 net.cpp:226] Top shape: 50 832 7 7 (2038400)
I0331 19:11:45.484521 136241 net.cpp:234] Memory required for data: 2792878824
I0331 19:11:45.484526 136241 net.cpp:154] Setting up Layer of device :0 @cpu 0 Layer : inception_5b/pool_proj
I0331 19:11:45.484530 136241 layer_factory.hpp:114] Creating layer inception_5b/pool_proj
I0331 19:11:45.484544 136241 net.cpp:169] Creating Layer inception_5b/pool_proj
I0331 19:11:45.484549 136241 net.cpp:606] inception_5b/pool_proj <- inception_5b/pool
I0331 19:11:45.484555 136241 net.cpp:579] inception_5b/pool_proj -> inception_5b/pool_proj
I0331 19:11:45.484560 136241 net.cpp:582] From AppendTop @cpu: 0
I0331 19:11:45.489266 136241 net.cpp:219] Setting up inception_5b/pool_proj
I0331 19:11:45.489279 136241 net.cpp:226] Top shape: 50 128 7 7 (313600)
I0331 19:11:45.489282 136241 net.cpp:234] Memory required for data: 2794133224
I0331 19:11:45.489290 136241 net.cpp:154] Setting up Layer of device :0 @cpu 0 Layer : inception_5b/relu_pool_proj
I0331 19:11:45.489295 136241 layer_factory.hpp:114] Creating layer inception_5b/relu_pool_proj
I0331 19:11:45.489305 136241 net.cpp:169] Creating Layer inception_5b/relu_pool_proj
I0331 19:11:45.489310 136241 net.cpp:606] inception_5b/relu_pool_proj <- inception_5b/pool_proj
I0331 19:11:45.489316 136241 net.cpp:566] inception_5b/relu_pool_proj -> inception_5b/pool_proj (in-place)
I0331 19:11:45.489323 136241 net.cpp:219] Setting up inception_5b/relu_pool_proj
I0331 19:11:45.489328 136241 net.cpp:226] Top shape: 50 128 7 7 (313600)
I0331 19:11:45.489332 136241 net.cpp:234] Memory required for data: 2795387624
I0331 19:11:45.489337 136241 net.cpp:154] Setting up Layer of device :0 @cpu 0 Layer : inception_5b/output
I0331 19:11:45.489341 136241 layer_factory.hpp:114] Creating layer inception_5b/output
I0331 19:11:45.489349 136241 net.cpp:169] Creating Layer inception_5b/output
I0331 19:11:45.489354 136241 net.cpp:606] inception_5b/output <- inception_5b/1x1
I0331 19:11:45.489359 136241 net.cpp:606] inception_5b/output <- inception_5b/3x3
I0331 19:11:45.489373 136241 net.cpp:606] inception_5b/output <- inception_5b/5x5
I0331 19:11:45.489378 136241 net.cpp:606] inception_5b/output <- inception_5b/pool_proj
I0331 19:11:45.489384 136241 net.cpp:579] inception_5b/output -> inception_5b/output
I0331 19:11:45.489388 136241 net.cpp:582] From AppendTop @cpu: 0
I0331 19:11:45.489398 136241 net.cpp:219] Setting up inception_5b/output
I0331 19:11:45.489403 136241 net.cpp:226] Top shape: 50 1024 7 7 (2508800)
I0331 19:11:45.489408 136241 net.cpp:234] Memory required for data: 2805422824
I0331 19:11:45.489413 136241 net.cpp:154] Setting up Layer of device :0 @cpu 0 Layer : pool5/7x7_s1
I0331 19:11:45.489416 136241 layer_factory.hpp:114] Creating layer pool5/7x7_s1
I0331 19:11:45.489435 136241 net.cpp:169] Creating Layer pool5/7x7_s1
I0331 19:11:45.489440 136241 net.cpp:606] pool5/7x7_s1 <- inception_5b/output
I0331 19:11:45.489447 136241 net.cpp:579] pool5/7x7_s1 -> pool5/7x7_s1
I0331 19:11:45.489450 136241 net.cpp:582] From AppendTop @cpu: 0
I0331 19:11:45.489459 136241 net.cpp:219] Setting up pool5/7x7_s1
I0331 19:11:45.489464 136241 net.cpp:226] Top shape: 50 1024 1 1 (51200)
I0331 19:11:45.489469 136241 net.cpp:234] Memory required for data: 2805627624
I0331 19:11:45.489473 136241 net.cpp:154] Setting up Layer of device :0 @cpu 0 Layer : pool5/drop_7x7_s1
I0331 19:11:45.489477 136241 layer_factory.hpp:114] Creating layer pool5/drop_7x7_s1
I0331 19:11:45.489486 136241 net.cpp:169] Creating Layer pool5/drop_7x7_s1
I0331 19:11:45.489493 136241 net.cpp:606] pool5/drop_7x7_s1 <- pool5/7x7_s1
I0331 19:11:45.489500 136241 net.cpp:566] pool5/drop_7x7_s1 -> pool5/7x7_s1 (in-place)
I0331 19:11:45.489508 136241 net.cpp:219] Setting up pool5/drop_7x7_s1
I0331 19:11:45.489513 136241 net.cpp:226] Top shape: 50 1024 1 1 (51200)
I0331 19:11:45.489517 136241 net.cpp:234] Memory required for data: 2805832424
I0331 19:11:45.489522 136241 net.cpp:154] Setting up Layer of device :0 @cpu 0 Layer : loss3/classifier
I0331 19:11:45.489526 136241 layer_factory.hpp:114] Creating layer loss3/classifier
I0331 19:11:45.489540 136241 net.cpp:169] Creating Layer loss3/classifier
I0331 19:11:45.489544 136241 net.cpp:606] loss3/classifier <- pool5/7x7_s1
I0331 19:11:45.489552 136241 net.cpp:579] loss3/classifier -> loss3/classifier
I0331 19:11:45.489555 136241 net.cpp:582] From AppendTop @cpu: 0
I0331 19:11:45.499469 136241 net.cpp:219] Setting up loss3/classifier
I0331 19:11:45.499480 136241 net.cpp:226] Top shape: 50 1000 (50000)
I0331 19:11:45.499483 136241 net.cpp:234] Memory required for data: 2806032424
I0331 19:11:45.499492 136241 net.cpp:154] Setting up Layer of device :0 @cpu 0 Layer : loss3/classifier_loss3/classifier_0_split
I0331 19:11:45.499496 136241 layer_factory.hpp:114] Creating layer loss3/classifier_loss3/classifier_0_split
I0331 19:11:45.499507 136241 net.cpp:169] Creating Layer loss3/classifier_loss3/classifier_0_split
I0331 19:11:45.499511 136241 net.cpp:606] loss3/classifier_loss3/classifier_0_split <- loss3/classifier
I0331 19:11:45.499518 136241 net.cpp:579] loss3/classifier_loss3/classifier_0_split -> loss3/classifier_loss3/classifier_0_split_0
I0331 19:11:45.499522 136241 net.cpp:582] From AppendTop @cpu: 0
I0331 19:11:45.499531 136241 net.cpp:579] loss3/classifier_loss3/classifier_0_split -> loss3/classifier_loss3/classifier_0_split_1
I0331 19:11:45.499533 136241 net.cpp:582] From AppendTop @cpu: 0
I0331 19:11:45.499541 136241 net.cpp:579] loss3/classifier_loss3/classifier_0_split -> loss3/classifier_loss3/classifier_0_split_2
I0331 19:11:45.499544 136241 net.cpp:582] From AppendTop @cpu: 0
I0331 19:11:45.499552 136241 net.cpp:219] Setting up loss3/classifier_loss3/classifier_0_split
I0331 19:11:45.499557 136241 net.cpp:226] Top shape: 50 1000 (50000)
I0331 19:11:45.499562 136241 net.cpp:226] Top shape: 50 1000 (50000)
I0331 19:11:45.499567 136241 net.cpp:226] Top shape: 50 1000 (50000)
I0331 19:11:45.499569 136241 net.cpp:234] Memory required for data: 2806632424
I0331 19:11:45.499574 136241 net.cpp:154] Setting up Layer of device :0 @cpu 0 Layer : loss3/loss3
I0331 19:11:45.499591 136241 layer_factory.hpp:114] Creating layer loss3/loss3
I0331 19:11:45.499598 136241 net.cpp:169] Creating Layer loss3/loss3
I0331 19:11:45.499603 136241 net.cpp:606] loss3/loss3 <- loss3/classifier_loss3/classifier_0_split_0
…
