…
I0331 18:46:52.918056 134773 net.cpp:493] The NetState phase (0) differed from the phase (1) specified by a rule in layer loss3/top-5
I0331 18:46:52.922415 134773 net.cpp:125] Initializing net from parameters: 
name: "GoogleNet"
state {
  phase: TRAIN
  level: 0
  stage: ""
}
layer {
  name: "data"
  type: "Data"
  top: "data"
  top: "label"
  include {
    phase: TRAIN
  }
  transform_param {
    mirror: true
    crop_size: 224
    mean_value: 104
    mean_value: 117
    mean_value: 123
  }
  data_param {
    source: "/home/user/LIBRARIES/caffeLibs/caffe/examples/imagenet/ilsvrc12_train_lmdb"
    batch_size: 56
    backend: LMDB
  }
}
layer {
  name: "label_data_1_split"
  type: "Split"
  bottom: "label"
  top: "label_data_1_split_0"
  top: "label_data_1_split_1"
  top: "label_data_1_split_2"
}
layer {
  name: "conv1/7x7_s2"
  type: "Convolution"
  bottom: "data"
  top: "conv1/7x7_s2"
  param {
    lr_mult: 1
    decay_mult: 1
  }
  param {
    lr_mult: 2
    decay_mult: 0
  }
  convolution_param {
    num_output: 64
    pad: 3
    kernel_size: 7
    stride: 2
    weight_filler {
      type: "xavier"
    }
    bias_filler {
      type: "constant"
      value: 0.2
    }
  }
}
layer {
  name: "conv1/relu_7x7"
  type: "ReLU"
  bottom: "conv1/7x7_s2"
  top: "conv1/7x7_s2"
}
layer {
  name: "pool1/3x3_s2"
  type: "Pooling"
  bottom: "conv1/7x7_s2"
  top: "pool1/3x3_s2"
  pooling_param {
    pool: MAX
    kernel_size: 3
    stride: 2
  }
}
layer {
  name: "pool1/norm1"
  type: "LRN"
  bottom: "pool1/3x3_s2"
  top: "pool1/norm1"
  lrn_param {
    local_size: 5
    alpha: 0.0001
    beta: 0.75
  }
}
layer {
  name: "conv2/3x3_reduce"
  type: "Convolution"
  bottom: "pool1/norm1"
  top: "conv2/3x3_reduce"
  param {
    lr_mult: 1
    decay_mult: 1
  }
  param {
    lr_mult: 2
    decay_mult: 0
  }
  convolution_param {
    num_output: 64
    kernel_size: 1
    weight_filler {
      type: "xavier"
    }
    bias_filler {
      type: "constant"
      value: 0.2
    }
  }
}
layer {
  name: "conv2/relu_3x3_reduce"
  type: "ReLU"
  bottom: "conv2/3x3_reduce"
  top: "conv2/3x3_reduce"
}
layer {
  name: "conv2/3x3"
  type: "Convolution"
  bottom: "conv2/3x3_reduce"
  top: "conv2/3x3"
  param {
    lr_mult: 1
    decay_mult: 1
  }
  param {
    lr_mult: 2
    decay_mult: 0
  }
  convolution_param {
    num_output: 192
    pad: 1
    kernel_size: 3
    weight_filler {
      type: "xavier"
    }
    bias_filler {
      type: "constant"
      value: 0.2
    }
  }
}
layer {
  name: "conv2/relu_3x3"
  type: "ReLU"
  bottom: "conv2/3x3"
  top: "conv2/3x3"
}
layer {
  name: "conv2/norm2"
  type: "LRN"
  bottom: "conv2/3x3"
  top: "conv2/norm2"
  lrn_param {
    local_size: 5
    alpha: 0.0001
    beta: 0.75
  }
}
layer {
  name: "pool2/3x3_s2"
  type: "Pooling"
  bottom: "conv2/norm2"
  top: "pool2/3x3_s2"
  pooling_param {
    pool: MAX
    kernel_size: 3
    stride: 2
  }
}
layer {
  name: "pool2/3x3_s2_pool2/3x3_s2_0_split"
  type: "Split"
  bottom: "pool2/3x3_s2"
  top: "pool2/3x3_s2_pool2/3x3_s2_0_split_0"
  top: "pool2/3x3_s2_pool2/3x3_s2_0_split_1"
  top: "pool2/3x3_s2_pool2/3x3_s2_0_split_2"
  top: "pool2/3x3_s2_pool2/3x3_s2_0_split_3"
}
layer {
  name: "inception_3a/1x1"
  type: "Convolution"
  bottom: "pool2/3x3_s2_pool2/3x3_s2_0_split_0"
  top: "inception_3a/1x1"
  param {
    lr_mult: 1
    decay_mult: 1
  }
  param {
    lr_mult: 2
    decay_mult: 0
  }
  convolution_param {
    num_output: 64
    kernel_size: 1
    weight_filler {
      type: "xavier"
    }
    bias_filler {
      type: "constant"
      value: 0.2
    }
  }
}
layer {
  name: "inception_3a/relu_1x1"
  type: "ReLU"
  bottom: "inception_3a/1x1"
  top: "inception_3a/1x1"
}
layer {
  name: "inception_3a/3x3_reduce"
  type: "Convolution"
  bottom: "pool2/3x3_s2_pool2/3x3_s2_0_split_1"
  top: "inception_3a/3x3_reduce"
  param {
    lr_mult: 1
    decay_mult: 1
  }
  param {
    lr_mult: 2
    decay_mult: 0
  }
  convolution_param {
    num_output: 96
    kernel_size: 1
    weight_filler {
      type: "xavier"
    }
    bias_filler {
      type: "constant"
      value: 0.2
    }
  }
}
layer {
  name: "inception_3a/relu_3x3_reduce"
  type: "ReLU"
  bottom: "inception_3a/3x3_reduce"
  top: "inception_3a/3x3_reduce"
}
layer {
  name: "inception_3a/3x3"
  type: "Convolution"
  bottom: "inception_3a/3x3_reduce"
  top: "inception_3a/3x3"
  param {
    lr_mult: 1
    decay_mult: 1
  }
  param {
    lr_mult: 2
    decay_mult: 0
  }
  convolution_param {
    num_output: 128
    pad: 1
    kernel_size: 3
    weight_filler {
      type: "xavier"
    }
    bias_filler {
      type: "constant"
      value: 0.2
    }
  }
}
layer {
  name: "inception_3a/relu_3x3"
  type: "ReLU"
  bottom: "inception_3a/3x3"
  top: "inception_3a/3x3"
}
layer {
  name: "inception_3a/5x5_reduce"
  type: "Convolution"
  bottom: "pool2/3x3_s2_pool2/3x3_s2_0_split_2"
  top: "inception_3a/5x5_reduce"
  param {
    lr_mult: 1
    decay_mult: 1
  }
  param {
    lr_mult: 2
    decay_mult: 0
  }
  convolution_param {
    num_output: 16
    kernel_size: 1
    weight_filler {
      type: "xavier"
    }
    bias_filler {
      type: "constant"
      value: 0.2
    }
  }
}
layer {
  name: "inception_3a/relu_5x5_reduce"
  type: "ReLU"
  bottom: "inception_3a/5x5_reduce"
  top: "inception_3a/5x5_reduce"
}
layer {
  name: "inception_3a/5x5"
  type: "Convolution"
  bottom: "inception_3a/5x5_reduce"
  top: "inception_3a/5x5"
  param {
    lr_mult: 1
    decay_mult: 1
  }
  param {
    lr_mult: 2
    decay_mult: 0
  }
  convolution_param {
    num_output: 32
    pad: 2
    kernel_size: 5
    weight_filler {
      type: "xavier"
    }
    bias_filler {
      type: "constant"
      value: 0.2
    }
  }
}
layer {
  name: "inception_3a/relu_5x5"
  type: "ReLU"
  bottom: "inception_3a/5x5"
  top: "inception_3a/5x5"
}
layer {
  name: "inception_3a/pool"
  type: "Pooling"
  bottom: "pool2/3x3_s2_pool2/3x3_s2_0_split_3"
  top: "inception_3a/pool"
  pooling_param {
    pool: MAX
    kernel_size: 3
    stride: 1
    pad: 1
  }
}
layer {
  name: "inception_3a/pool_proj"
  type: "Convolution"
  bottom: "inception_3a/pool"
  top: "inception_3a/pool_proj"
  param {
    lr_mult: 1
    decay_mult: 1
  }
  param {
    lr_mult: 2
    decay_mult: 0
  }
  convolution_param {
    num_output: 32
    kernel_size: 1
    weight_filler {
      type: "xavier"
    }
    bias_filler {
      type: "constant"
      value: 0.2
    }
  }
}
layer {
  name: "inception_3a/relu_pool_proj"
  type: "ReLU"
  bottom: "inception_3a/pool_proj"
  top: "inception_3a/pool_proj"
}
layer {
  name: "inception_3a/output"
  type: "Concat"
  bottom: "inception_3a/1x1"
  bottom: "inception_3a/3x3"
  bottom: "inception_3a/5x5"
  bottom: "inception_3a/pool_proj"
  top: "inception_3a/output"
}
layer {
  name: "inception_3a/output_inception_3a/output_0_split"
  type: "Split"
  bottom: "inception_3a/output"
  top: "inception_3a/output_inception_3a/output_0_split_0"
  top: "inception_3a/output_inception_3a/output_0_split_1"
  top: "inception_3a/output_inception_3a/output_0_split_2"
  top: "inception_3a/output_inception_3a/output_0_split_3"
}
layer {
  name: "inception_3b/1x1"
  type: "Convolution"
  bottom: "inception_3a/output_inception_3a/output_0_split_0"
  top: "inception_3b/1x1"
  param {
    lr_mult: 1
    decay_mult: 1
  }
  param {
    lr_mult: 2
    decay_mult: 0
  }
  convolution_param {
    num_output: 128
    kernel_size: 1
    weight_filler {
      type: "xavier"
    }
    bias_filler {
      type: "constant"
      value: 0.2
    }
  }
}
layer {
  name: "inception_3b/relu_1x1"
  type: "ReLU"
  bottom: "inception_3b/1x1"
  top: "inception_3b/1x1"
}
layer {
  name: "inception_3b/3x3_reduce"
  type: "Convolution"
  bottom: "inception_3a/output_inception_3a/output_0_split_1"
  top: "inception_3b/3x3_reduce"
  param {
    lr_mult: 1
    decay_mult: 1
  }
  param {
    lr_mult: 2
    decay_mult: 0
  }
  convolution_param {
    num_output: 128
    kernel_size: 1
    weight_filler {
      type: "xavier"
    }
    bias_filler {
      type: "constant"
      value: 0.2
    }
  }
}
layer {
  name: "inception_3b/relu_3x3_reduce"
  type: "ReLU"
  bottom: "inception_3b/3x3_reduce"
  top: "inception_3b/3x3_reduce"
}
layer {
  name: "inception_3b/3x3"
  type: "Convolution"
  bottom: "inception_3b/3x3_reduce"
  top: "inception_3b/3x3"
  param {
    lr_mult: 1
    decay_mult: 1
  }
  param {
    lr_mult: 2
    decay_mult: 0
  }
  convolution_param {
    num_output: 192
    pad: 1
    kernel_size: 3
    weight_filler {
      type: "xavier"
    }
    bias_filler {
      type: "constant"
      value: 0.2
    }
  }
}
layer {
  name: "inception_3b/relu_3x3"
  type: "ReLU"
  bottom: "inception_3b/3x3"
  top: "inception_3b/3x3"
}
layer {
  name: "inception_3b/5x5_reduce"
  type: "Convolution"
  bottom: "inception_3a/output_inception_3a/output_0_split_2"
  top: "inception_3b/5x5_reduce"
  param {
    lr_mult: 1
    decay_mult: 1
  }
  param {
    lr_mult: 2
    decay_mult: 0
  }
  convolution_param {
    num_output: 32
    kernel_size: 1
    weight_filler {
      type: "xavier"
    }
    bias_filler {
      type: "constant"
      value: 0.2
    }
  }
}
layer {
  name: "inception_3b/relu_5x5_reduce"
  type: "ReLU"
  bottom: "inception_3b/5x5_reduce"
  top: "inception_3b/5x5_reduce"
}
layer {
  name: "inception_3b/5x5"
  type: "Convolution"
  bottom: "inception_3b/5x5_reduce"
  top: "inception_3b/5x5"
  param {
    lr_mult: 1
    decay_mult: 1
  }
  param {
    lr_mult: 2
    decay_mult: 0
  }
  convolution_param {
    num_output: 96
    pad: 2
    kernel_size: 5
    weight_filler {
      type: "xavier"
    }
    bias_filler {
      type: "constant"
      value: 0.2
    }
  }
}
layer {
  name: "inception_3b/relu_5x5"
  type: "ReLU"
  bottom: "inception_3b/5x5"
  top: "inception_3b/5x5"
}
layer {
  name: "inception_3b/pool"
  type: "Pooling"
  bottom: "inception_3a/output_inception_3a/output_0_split_3"
  top: "inception_3b/pool"
  pooling_param {
    pool: MAX
    kernel_size: 3
    stride: 1
    pad: 1
  }
}
layer {
  name: "inception_3b/pool_proj"
  type: "Convolution"
  bottom: "inception_3b/pool"
  top: "inception_3b/pool_proj"
  param {
    lr_mult: 1
    decay_mult: 1
  }
  param {
    lr_mult: 2
    decay_mult: 0
  }
  convolution_param {
    num_output: 64
    kernel_size: 1
    weight_filler {
      type: "xavier"
    }
    bias_filler {
      type: "constant"
      value: 0.2
    }
  }
}
layer {
  name: "inception_3b/relu_pool_proj"
  type: "ReLU"
  bottom: "inception_3b/pool_proj"
  top: "inception_3b/pool_proj"
}
layer {
  name: "inception_3b/output"
  type: "Concat"
  bottom: "inception_3b/1x1"
  bottom: "inception_3b/3x3"
  bottom: "inception_3b/5x5"
  bottom: "inception_3b/pool_proj"
  top: "inception_3b/output"
}
layer {
  name: "pool3/3x3_s2"
  type: "Pooling"
  bottom: "inception_3b/output"
  top: "pool3/3x3_s2"
  pooling_param {
    pool: MAX
    kernel_size: 3
    stride: 2
  }
}
layer {
  name: "pool3/3x3_s2_pool3/3x3_s2_0_split"
  type: "Split"
  bottom: "pool3/3x3_s2"
  top: "pool3/3x3_s2_pool3/3x3_s2_0_split_0"
  top: "pool3/3x3_s2_pool3/3x3_s2_0_split_1"
  top: "pool3/3x3_s2_pool3/3x3_s2_0_split_2"
  top: "pool3/3x3_s2_pool3/3x3_s2_0_split_3"
}
layer {
  name: "inception_4a/1x1"
  type: "Convolution"
  bottom: "pool3/3x3_s2_pool3/3x3_s2_0_split_0"
  top: "inception_4a/1x1"
  param {
    lr_mult: 1
    decay_mult: 1
  }
  param {
    lr_mult: 2
    decay_mult: 0
  }
  convolution_param {
    num_output: 192
    kernel_size: 1
    weight_filler {
      type: "xavier"
    }
    bias_filler {
      type: "constant"
      value: 0.2
    }
  }
}
layer {
  name: "inception_4a/relu_1x1"
  type: "ReLU"
  bottom: "inception_4a/1x1"
  top: "inception_4a/1x1"
}
layer {
  name: "inception_4a/3x3_reduce"
  type: "Convolution"
  bottom: "pool3/3x3_s2_pool3/3x3_s2_0_split_1"
  top: "inception_4a/3x3_reduce"
  param {
    lr_mult: 1
    decay_mult: 1
  }
  param {
    lr_mult: 2
    decay_mult: 0
  }
  convolution_param {
    num_output: 96
    kernel_size: 1
    weight_filler {
      type: "xavier"
    }
    bias_filler {
      type: "constant"
      value: 0.2
    }
  }
}
layer {
  name: "inception_4a/relu_3x3_reduce"
  type: "ReLU"
  bottom: "inception_4a/3x3_reduce"
  top: "inception_4a/3x3_reduce"
}
layer {
  name: "inception_4a/3x3"
  type: "Convolution"
  bottom: "inception_4a/3x3_reduce"
  top: "inception_4a/3x3"
  param {
    lr_mult: 1
    decay_mult: 1
  }
  param {
    lr_mult: 2
    decay_mult: 0
  }
  convolution_param {
    num_output: 208
    pad: 1
    kernel_size: 3
    weight_filler {
      type: "xavier"
    }
    bias_filler {
      type: "constant"
      value: 0.2
    }
  }
}
layer {
  name: "inception_4a/relu_3x3"
  type: "ReLU"
  bottom: "inception_4a/3x3"
  top: "inception_4a/3x3"
}
layer {
  name: "inception_4a/5x5_reduce"
  type: "Convolution"
  bottom: "pool3/3x3_s2_pool3/3x3_s2_0_split_2"
  top: "inception_4a/5x5_reduce"
  param {
    lr_mult: 1
    decay_mult: 1
  }
  param {
    lr_mult: 2
    decay_mult: 0
  }
  convolution_param {
    num_output: 16
    kernel_size: 1
    weight_filler {
      type: "xavier"
    }
    bias_filler {
      type: "constant"
      value: 0.2
    }
  }
}
layer {
  name: "inception_4a/relu_5x5_reduce"
  type: "ReLU"
  bottom: "inception_4a/5x5_reduce"
  top: "inception_4a/5x5_reduce"
}
layer {
  name: "inception_4a/5x5"
  type: "Convolution"
  bottom: "inception_4a/5x5_reduce"
  top: "inception_4a/5x5"
  param {
    lr_mult: 1
    decay_mult: 1
  }
  param {
    lr_mult: 2
    decay_mult: 0
  }
  convolution_param {
    num_output: 48
    pad: 2
    kernel_size: 5
    weight_filler {
      type: "xavier"
    }
    bias_filler {
      type: "constant"
      value: 0.2
    }
  }
}
layer {
  name: "inception_4a/relu_5x5"
  type: "ReLU"
  bottom: "inception_4a/5x5"
  top: "inception_4a/5x5"
}
layer {
  name: "inception_4a/pool"
  type: "Pooling"
  bottom: "pool3/3x3_s2_pool3/3x3_s2_0_split_3"
  top: "inception_4a/pool"
  pooling_param {
    pool: MAX
    kernel_size: 3
    stride: 1
    pad: 1
  }
}
layer {
  name: "inception_4a/pool_proj"
  type: "Convolution"
  bottom: "inception_4a/pool"
  top: "inception_4a/pool_proj"
  param {
    lr_mult: 1
    decay_mult: 1
  }
  param {
    lr_mult: 2
    decay_mult: 0
  }
  convolution_param {
    num_output: 64
    kernel_size: 1
    weight_filler {
      type: "xavier"
    }
    bias_filler {
      type: "constant"
      value: 0.2
    }
  }
}
layer {
  name: "inception_4a/relu_pool_proj"
  type: "ReLU"
  bottom: "inception_4a/pool_proj"
  top: "inception_4a/pool_proj"
}
layer {
  name: "inception_4a/output"
  type: "Concat"
  bottom: "inception_4a/1x1"
  bottom: "inception_4a/3x3"
  bottom: "inception_4a/5x5"
  bottom: "inception_4a/pool_proj"
  top: "inception_4a/output"
}
layer {
  name: "inception_4a/output_inception_4a/output_0_split"
  type: "Split"
  bottom: "inception_4a/output"
  top: "inception_4a/output_inception_4a/output_0_split_0"
  top: "inception_4a/output_inception_4a/output_0_split_1"
  top: "inception_4a/output_inception_4a/output_0_split_2"
  top: "inception_4a/output_inception_4a/output_0_split_3"
  top: "inception_4a/output_inception_4a/output_0_split_4"
}
layer {
  name: "loss1/ave_pool"
  type: "Pooling"
  bottom: "inception_4a/output_inception_4a/output_0_split_0"
  top: "loss1/ave_pool"
  pooling_param {
    pool: AVE
    kernel_size: 5
    stride: 3
  }
}
layer {
  name: "loss1/conv"
  type: "Convolution"
  bottom: "loss1/ave_pool"
  top: "loss1/conv"
  param {
    lr_mult: 1
    decay_mult: 1
  }
  param {
    lr_mult: 2
    decay_mult: 0
  }
  convolution_param {
    num_output: 128
    kernel_size: 1
    weight_filler {
      type: "xavier"
    }
    bias_filler {
      type: "constant"
      value: 0.2
    }
  }
}
layer {
  name: "loss1/relu_conv"
  type: "ReLU"
  bottom: "loss1/conv"
  top: "loss1/conv"
}
layer {
  name: "loss1/fc"
  type: "InnerProduct"
  bottom: "loss1/conv"
  top: "loss1/fc"
  param {
    lr_mult: 1
    decay_mult: 1
  }
  param {
    lr_mult: 2
    decay_mult: 0
  }
  inner_product_param {
    num_output: 1024
    weight_filler {
      type: "xavier"
    }
    bias_filler {
      type: "constant"
      value: 0.2
    }
  }
}
layer {
  name: "loss1/relu_fc"
  type: "ReLU"
  bottom: "loss1/fc"
  top: "loss1/fc"
}
layer {
  name: "loss1/drop_fc"
  type: "Dropout"
  bottom: "loss1/fc"
  top: "loss1/fc"
  dropout_param {
    dropout_ratio: 0.7
  }
}
layer {
  name: "loss1/classifier"
  type: "InnerProduct"
  bottom: "loss1/fc"
  top: "loss1/classifier"
  param {
    lr_mult: 1
    decay_mult: 1
  }
  param {
    lr_mult: 2
    decay_mult: 0
  }
  inner_product_param {
    num_output: 1000
    weight_filler {
      type: "xavier"
    }
    bias_filler {
      type: "constant"
      value: 0
    }
  }
}
layer {
  name: "loss1/loss"
  type: "SoftmaxWithLoss"
  bottom: "loss1/classifier"
  bottom: "label_data_1_split_0"
  top: "loss1/loss1"
  loss_weight: 0.3
}
layer {
  name: "inception_4b/1x1"
  type: "Convolution"
  bottom: "inception_4a/output_inception_4a/output_0_split_1"
  top: "inception_4b/1x1"
  param {
    lr_mult: 1
    decay_mult: 1
  }
  param {
    lr_mult: 2
    decay_mult: 0
  }
  convolution_param {
    num_output: 160
    kernel_size: 1
    weight_filler {
      type: "xavier"
    }
    bias_filler {
      type: "constant"
      value: 0.2
    }
  }
}
layer {
  name: "inception_4b/relu_1x1"
  type: "ReLU"
  bottom: "inception_4b/1x1"
  top: "inception_4b/1x1"
}
layer {
  name: "inception_4b/3x3_reduce"
  type: "Convolution"
  bottom: "inception_4a/output_inception_4a/output_0_split_2"
  top: "inception_4b/3x3_reduce"
  param {
    lr_mult: 1
    decay_mult: 1
  }
  param {
    lr_mult: 2
    decay_mult: 0
  }
  convolution_param {
    num_output: 112
    kernel_size: 1
    weight_filler {
      type: "xavier"
    }
    bias_filler {
      type: "constant"
      value: 0.2
    }
  }
}
layer {
  name: "inception_4b/relu_3x3_reduce"
  type: "ReLU"
  bottom: "inception_4b/3x3_reduce"
  top: "inception_4b/3x3_reduce"
}
layer {
  name: "inception_4b/3x3"
  type: "Convolution"
  bottom: "inception_4b/3x3_reduce"
  top: "inception_4b/3x3"
  param {
    lr_mult: 1
    decay_mult: 1
  }
  param {
    lr_mult: 2
    decay_mult: 0
  }
  convolution_param {
    num_output: 224
    pad: 1
    kernel_size: 3
    weight_filler {
      type: "xavier"
    }
    bias_filler {
      type: "constant"
      value: 0.2
    }
  }
}
layer {
  name: "inception_4b/relu_3x3"
  type: "ReLU"
  bottom: "inception_4b/3x3"
  top: "inception_4b/3x3"
}
layer {
  name: "inception_4b/5x5_reduce"
  type: "Convolution"
  bottom: "inception_4a/output_inception_4a/output_0_split_3"
  top: "inception_4b/5x5_reduce"
  param {
    lr_mult: 1
    decay_mult: 1
  }
  param {
    lr_mult: 2
    decay_mult: 0
  }
  convolution_param {
    num_output: 24
    kernel_size: 1
    weight_filler {
      type: "xavier"
    }
    bias_filler {
      type: "constant"
      value: 0.2
    }
  }
}
layer {
  name: "inception_4b/relu_5x5_reduce"
  type: "ReLU"
  bottom: "inception_4b/5x5_reduce"
  top: "inception_4b/5x5_reduce"
}
layer {
  name: "inception_4b/5x5"
  type: "Convolution"
  bottom: "inception_4b/5x5_reduce"
  top: "inception_4b/5x5"
  param {
    lr_mult: 1
    decay_mult: 1
  }
  param {
    lr_mult: 2
    decay_mult: 0
  }
  convolution_param {
    num_output: 64
    pad: 2
    kernel_size: 5
    weight_filler {
      type: "xavier"
    }
    bias_filler {
      type: "constant"
      value: 0.2
    }
  }
}
layer {
  name: "inception_4b/relu_5x5"
  type: "ReLU"
  bottom: "inception_4b/5x5"
  top: "inception_4b/5x5"
}
layer {
  name: "inception_4b/pool"
  type: "Pooling"
  bottom: "inception_4a/output_inception_4a/output_0_split_4"
  top: "inception_4b/pool"
  pooling_param {
    pool: MAX
    kernel_size: 3
    stride: 1
    pad: 1
  }
}
layer {
  name: "inception_4b/pool_proj"
  type: "Convolution"
  bottom: "inception_4b/pool"
  top: "inception_4b/pool_proj"
  param {
    lr_mult: 1
    decay_mult: 1
  }
  param {
    lr_mult: 2
    decay_mult: 0
  }
  convolution_param {
    num_output: 64
    kernel_size: 1
    weight_filler {
      type: "xavier"
    }
    bias_filler {
      type: "constant"
      value: 0.2
    }
  }
}
layer {
  name: "inception_4b/relu_pool_proj"
  type: "ReLU"
  bottom: "inception_4b/pool_proj"
  top: "inception_4b/pool_proj"
}
layer {
  name: "inception_4b/output"
  type: "Concat"
  bottom: "inception_4b/1x1"
  bottom: "inception_4b/3x3"
  bottom: "inception_4b/5x5"
  bottom: "inception_4b/pool_proj"
  top: "inception_4b/output"
}
layer {
  name: "inception_4b/output_inception_4b/output_0_split"
  type: "Split"
  bottom: "inception_4b/output"
  top: "inception_4b/output_inception_4b/output_0_split_0"
  top: "inception_4b/output_inception_4b/output_0_split_1"
  top: "inception_4b/output_inception_4b/output_0_split_2"
  top: "inception_4b/output_inception_4b/output_0_split_3"
}
layer {
  name: "inception_4c/1x1"
  type: "Convolution"
  bottom: "inception_4b/output_inception_4b/output_0_split_0"
  top: "inception_4c/1x1"
  param {
    lr_mult: 1
    decay_mult: 1
  }
  param {
    lr_mult: 2
    decay_mult: 0
  }
  convolution_param {
    num_output: 128
    kernel_size: 1
    weight_filler {
      type: "xavier"
    }
    bias_filler {
      type: "constant"
      value: 0.2
    }
  }
}
layer {
  name: "inception_4c/relu_1x1"
  type: "ReLU"
  bottom: "inception_4c/1x1"
  top: "inception_4c/1x1"
}
layer {
  name: "inception_4c/3x3_reduce"
  type: "Convolution"
  bottom: "inception_4b/output_inception_4b/output_0_split_1"
  top: "inception_4c/3x3_reduce"
  param {
    lr_mult: 1
    decay_mult: 1
  }
  param {
    lr_mult: 2
    decay_mult: 0
  }
  convolution_param {
    num_output: 128
    kernel_size: 1
    weight_filler {
      type: "xavier"
    }
    bias_filler {
      type: "constant"
      value: 0.2
    }
  }
}
layer {
  name: "inception_4c/relu_3x3_reduce"
  type: "ReLU"
  bottom: "inception_4c/3x3_reduce"
  top: "inception_4c/3x3_reduce"
}
layer {
  name: "inception_4c/3x3"
  type: "Convolution"
  bottom: "inception_4c/3x3_reduce"
  top: "inception_4c/3x3"
  param {
    lr_mult: 1
    decay_mult: 1
  }
  param {
    lr_mult: 2
    decay_mult: 0
  }
  convolution_param {
    num_output: 256
    pad: 1
    kernel_size: 3
    weight_filler {
      type: "xavier"
    }
    bias_filler {
      type: "constant"
      value: 0.2
    }
  }
}
layer {
  name: "inception_4c/relu_3x3"
  type: "ReLU"
  bottom: "inception_4c/3x3"
  top: "inception_4c/3x3"
}
layer {
  name: "inception_4c/5x5_reduce"
  type: "Convolution"
  bottom: "inception_4b/output_inception_4b/output_0_split_2"
  top: "inception_4c/5x5_reduce"
  param {
    lr_mult: 1
    decay_mult: 1
  }
  param {
    lr_mult: 2
    decay_mult: 0
  }
  convolution_param {
    num_output: 24
    kernel_size: 1
    weight_filler {
      type: "xavier"
    }
    bias_filler {
      type: "constant"
      value: 0.2
    }
  }
}
layer {
  name: "inception_4c/relu_5x5_reduce"
  type: "ReLU"
  bottom: "inception_4c/5x5_reduce"
  top: "inception_4c/5x5_reduce"
}
layer {
  name: "inception_4c/5x5"
  type: "Convolution"
  bottom: "inception_4c/5x5_reduce"
  top: "inception_4c/5x5"
  param {
    lr_mult: 1
    decay_mult: 1
  }
  param {
    lr_mult: 2
    decay_mult: 0
  }
  convolution_param {
    num_output: 64
    pad: 2
    kernel_size: 5
    weight_filler {
      type: "xavier"
    }
    bias_filler {
      type: "constant"
      value: 0.2
    }
  }
}
layer {
  name: "inception_4c/relu_5x5"
  type: "ReLU"
  bottom: "inception_4c/5x5"
  top: "inception_4c/5x5"
}
layer {
  name: "inception_4c/pool"
  type: "Pooling"
  bottom: "inception_4b/output_inception_4b/output_0_split_3"
  top: "inception_4c/pool"
  pooling_param {
    pool: MAX
    kernel_size: 3
    stride: 1
    pad: 1
  }
}
layer {
  name: "inception_4c/pool_proj"
  type: "Convolution"
  bottom: "inception_4c/pool"
  top: "inception_4c/pool_proj"
  param {
    lr_mult: 1
    decay_mult: 1
  }
  param {
    lr_mult: 2
    decay_mult: 0
  }
  convolution_param {
    num_output: 64
    kernel_size: 1
    weight_filler {
      type: "xavier"
    }
    bias_filler {
      type: "constant"
      value: 0.2
    }
  }
}
layer {
  name: "inception_4c/relu_pool_proj"
  type: "ReLU"
  bottom: "inception_4c/pool_proj"
  top: "inception_4c/pool_proj"
}
layer {
  name: "inception_4c/output"
  type: "Concat"
  bottom: "inception_4c/1x1"
  bottom: "inception_4c/3x3"
  bottom: "inception_4c/5x5"
  bottom: "inception_4c/pool_proj"
  top: "inception_4c/output"
}
layer {
  name: "inception_4c/output_inception_4c/output_0_split"
  type: "Split"
  bottom: "inception_4c/output"
  top: "inception_4c/output_inception_4c/output_0_split_0"
  top: "inception_4c/output_inception_4c/output_0_split_1"
  top: "inception_4c/output_inception_4c/output_0_split_2"
  top: "inception_4c/output_inception_4c/output_0_split_3"
}
layer {
  name: "inception_4d/1x1"
  type: "Convolution"
  bottom: "inception_4c/output_inception_4c/output_0_split_0"
  top: "inception_4d/1x1"
  param {
    lr_mult: 1
    decay_mult: 1
  }
  param {
    lr_mult: 2
    decay_mult: 0
  }
  convolution_param {
    num_output: 112
    kernel_size: 1
    weight_filler {
      type: "xavier"
    }
    bias_filler {
      type: "constant"
      value: 0.2
    }
  }
}
layer {
  name: "inception_4d/relu_1x1"
  type: "ReLU"
  bottom: "inception_4d/1x1"
  top: "inception_4d/1x1"
}
layer {
  name: "inception_4d/3x3_reduce"
  type: "Convolution"
  bottom: "inception_4c/output_inception_4c/output_0_split_1"
  top: "inception_4d/3x3_reduce"
  param {
    lr_mult: 1
    decay_mult: 1
  }
  param {
    lr_mult: 2
    decay_mult: 0
  }
  convolution_param {
    num_output: 144
    kernel_size: 1
    weight_filler {
      type: "xavier"
    }
    bias_filler {
      type: "constant"
      value: 0.2
    }
  }
}
layer {
  name: "inception_4d/relu_3x3_reduce"
  type: "ReLU"
  bottom: "inception_4d/3x3_reduce"
  top: "inception_4d/3x3_reduce"
}
layer {
  name: "inception_4d/3x3"
  type: "Convolution"
  bottom: "inception_4d/3x3_reduce"
  top: "inception_4d/3x3"
  param {
    lr_mult: 1
    decay_mult: 1
  }
  param {
    lr_mult: 2
    decay_mult: 0
  }
  convolution_param {
    num_output: 288
    pad: 1
    kernel_size: 3
    weight_filler {
      type: "xavier"
    }
    bias_filler {
      type: "constant"
      value: 0.2
    }
  }
}
layer {
  name: "inception_4d/relu_3x3"
  type: "ReLU"
  bottom: "inception_4d/3x3"
  top: "inception_4d/3x3"
}
layer {
  name: "inception_4d/5x5_reduce"
  type: "Convolution"
  bottom: "inception_4c/output_inception_4c/output_0_split_2"
  top: "inception_4d/5x5_reduce"
  param {
    lr_mult: 1
    decay_mult: 1
  }
  param {
    lr_mult: 2
    decay_mult: 0
  }
  convolution_param {
    num_output: 32
    kernel_size: 1
    weight_filler {
      type: "xavier"
    }
    bias_filler {
      type: "constant"
      value: 0.2
    }
  }
}
layer {
  name: "inception_4d/relu_5x5_reduce"
  type: "ReLU"
  bottom: "inception_4d/5x5_reduce"
  top: "inception_4d/5x5_reduce"
}
layer {
  name: "inception_4d/5x5"
  type: "Convolution"
  bottom: "inception_4d/5x5_reduce"
  top: "inception_4d/5x5"
  param {
    lr_mult: 1
    decay_mult: 1
  }
  param {
    lr_mult: 2
    decay_mult: 0
  }
  convolution_param {
    num_output: 64
    pad: 2
    kernel_size: 5
    weight_filler {
      type: "xavier"
    }
    bias_filler {
      type: "constant"
      value: 0.2
    }
  }
}
layer {
  name: "inception_4d/relu_5x5"
  type: "ReLU"
  bottom: "inception_4d/5x5"
  top: "inception_4d/5x5"
}
layer {
  name: "inception_4d/pool"
  type: "Pooling"
  bottom: "inception_4c/output_inception_4c/output_0_split_3"
  top: "inception_4d/pool"
  pooling_param {
    pool: MAX
    kernel_size: 3
    stride: 1
    pad: 1
  }
}
layer {
  name: "inception_4d/pool_proj"
  type: "Convolution"
  bottom: "inception_4d/pool"
  top: "inception_4d/pool_proj"
  param {
    lr_mult: 1
    decay_mult: 1
  }
  param {
    lr_mult: 2
    decay_mult: 0
  }
  convolution_param {
    num_output: 64
    kernel_size: 1
    weight_filler {
      type: "xavier"
    }
    bias_filler {
      type: "constant"
      value: 0.2
    }
  }
}
layer {
  name: "inception_4d/relu_pool_proj"
  type: "ReLU"
  bottom: "inception_4d/pool_proj"
  top: "inception_4d/pool_proj"
}
layer {
  name: "inception_4d/output"
  type: "Concat"
  bottom: "inception_4d/1x1"
  bottom: "inception_4d/3x3"
  bottom: "inception_4d/5x5"
  bottom: "inception_4d/pool_proj"
  top: "inception_4d/output"
}
layer {
  name: "inception_4d/output_inception_4d/output_0_split"
  type: "Split"
  bottom: "inception_4d/output"
  top: "inception_4d/output_inception_4d/output_0_split_0"
  top: "inception_4d/output_inception_4d/output_0_split_1"
  top: "inception_4d/output_inception_4d/output_0_split_2"
  top: "inception_4d/output_inception_4d/output_0_split_3"
  top: "inception_4d/output_inception_4d/output_0_split_4"
}
layer {
  name: "loss2/ave_pool"
  type: "Pooling"
  bottom: "inception_4d/output_inception_4d/output_0_split_0"
  top: "loss2/ave_pool"
  pooling_param {
    pool: AVE
    kernel_size: 5
    stride: 3
  }
}
layer {
  name: "loss2/conv"
  type: "Convolution"
  bottom: "loss2/ave_pool"
  top: "loss2/conv"
  param {
    lr_mult: 1
    decay_mult: 1
  }
  param {
    lr_mult: 2
    decay_mult: 0
  }
  convolution_param {
    num_output: 128
    kernel_size: 1
    weight_filler {
      type: "xavier"
    }
    bias_filler {
      type: "constant"
      value: 0.2
    }
  }
}
layer {
  name: "loss2/relu_conv"
  type: "ReLU"
  bottom: "loss2/conv"
  top: "loss2/conv"
}
layer {
  name: "loss2/fc"
  type: "InnerProduct"
  bottom: "loss2/conv"
  top: "loss2/fc"
  param {
    lr_mult: 1
    decay_mult: 1
  }
  param {
    lr_mult: 2
    decay_mult: 0
  }
  inner_product_param {
    num_output: 1024
    weight_filler {
      type: "xavier"
    }
    bias_filler {
      type: "constant"
      value: 0.2
    }
  }
}
layer {
  name: "loss2/relu_fc"
  type: "ReLU"
  bottom: "loss2/fc"
  top: "loss2/fc"
}
layer {
  name: "lo
I0331 18:46:52.922556 134773 net.cpp:154] Setting up Layer of device :0 @cpu 0 Layer : data
I0331 18:46:52.922565 134773 layer_factory.hpp:114] Creating layer data
I0331 18:46:52.923207 134773 net.cpp:169] Creating Layer data
I0331 18:46:52.923225 134773 net.cpp:579] data -> data
I0331 18:46:52.923230 134773 net.cpp:582] From AppendTop @cpu: 0
I0331 18:46:52.923254 134773 net.cpp:579] data -> label
I0331 18:46:52.923257 134773 net.cpp:582] From AppendTop @cpu: 0
I0331 18:46:52.923465 134774 db_lmdb.cpp:72] Opened lmdb /home/user/LIBRARIES/caffeLibs/caffe/examples/imagenet/ilsvrc12_train_lmdb
I0331 18:46:52.923517 134774 virtDev_device.cpp:310] found a CPU core 14 for Data Reader on device 0 thread ID 140617839142656
I0331 18:46:52.923523 134774 data_reader.cpp:128] inside DATAREADER 2
I0331 18:46:52.923939 134773 data_layer.cpp:80] output data size: 56,3,224,224
I0331 18:46:52.957309 134773 base_data_layer.cpp:96] Done cpu data
I0331 18:46:52.957377 134773 net.cpp:219] Setting up data
I0331 18:46:52.957399 134773 net.cpp:226] Top shape: 56 3 224 224 (8429568)
I0331 18:46:52.957406 134773 net.cpp:226] Top shape: 56 (56)
I0331 18:46:52.957412 134773 net.cpp:234] Memory required for data: 33718496
I0331 18:46:52.957432 134773 net.cpp:154] Setting up Layer of device :0 @cpu 4 Layer : label_data_1_split
I0331 18:46:52.957437 134773 layer_factory.hpp:114] Creating layer label_data_1_split
I0331 18:46:52.957463 134773 net.cpp:169] Creating Layer label_data_1_split
I0331 18:46:52.957470 134773 net.cpp:606] label_data_1_split <- label
I0331 18:46:52.957481 134773 net.cpp:579] label_data_1_split -> label_data_1_split_0
I0331 18:46:52.957486 134773 net.cpp:582] From AppendTop @cpu: 4
I0331 18:46:52.957501 134773 net.cpp:579] label_data_1_split -> label_data_1_split_1
I0331 18:46:52.957505 134773 net.cpp:582] From AppendTop @cpu: 4
I0331 18:46:52.957512 134773 net.cpp:579] label_data_1_split -> label_data_1_split_2
I0331 18:46:52.957516 134773 net.cpp:582] From AppendTop @cpu: 4
I0331 18:46:52.957531 134773 net.cpp:219] Setting up label_data_1_split
I0331 18:46:52.957540 134773 net.cpp:226] Top shape: 56 (56)
I0331 18:46:52.957545 134773 net.cpp:226] Top shape: 56 (56)
I0331 18:46:52.957551 134773 net.cpp:226] Top shape: 56 (56)
I0331 18:46:52.957554 134773 net.cpp:234] Memory required for data: 33719168
I0331 18:46:52.957559 134773 net.cpp:154] Setting up Layer of device :0 @cpu 4 Layer : conv1/7x7_s2
I0331 18:46:52.957564 134773 layer_factory.hpp:114] Creating layer conv1/7x7_s2
I0331 18:46:52.957586 134773 net.cpp:169] Creating Layer conv1/7x7_s2
I0331 18:46:52.957589 134773 net.cpp:606] conv1/7x7_s2 <- data
I0331 18:46:52.957598 134773 net.cpp:579] conv1/7x7_s2 -> conv1/7x7_s2
…
OMP: Info #242: KMP_AFFINITY: pid 134773 thread 7 bound to OS proc set {28}
OMP: Info #242: KMP_AFFINITY: pid 134773 thread 8 bound to OS proc set {32}
OMP: Info #242: KMP_AFFINITY: pid 134773 thread 9 bound to OS proc set {36}
OMP: Info #242: KMP_AFFINITY: pid 134773 thread 10 bound to OS proc set {40}
OMP: Info #242: KMP_AFFINITY: pid 134773 thread 11 bound to OS proc set {44}
OMP: Info #242: KMP_AFFINITY: pid 134773 thread 12 bound to OS proc set {48}
OMP: Info #242: KMP_AFFINITY: pid 134773 thread 13 bound to OS proc set {52}
I0331 18:46:53.002504 134773 net.cpp:219] Setting up conv1/7x7_s2
I0331 18:46:53.002571 134773 net.cpp:226] Top shape: 56 64 112 112 (44957696)
I0331 18:46:53.002578 134773 net.cpp:234] Memory required for data: 213549952
I0331 18:46:53.002629 134773 net.cpp:154] Setting up Layer of device :0 @cpu 0 Layer : conv1/relu_7x7
I0331 18:46:53.002638 134773 layer_factory.hpp:114] Creating layer conv1/relu_7x7
I0331 18:46:53.002663 134773 net.cpp:169] Creating Layer conv1/relu_7x7
I0331 18:46:53.002671 134773 net.cpp:606] conv1/relu_7x7 <- conv1/7x7_s2
I0331 18:46:53.002686 134773 net.cpp:566] conv1/relu_7x7 -> conv1/7x7_s2 (in-place)
I0331 18:46:53.002704 134773 net.cpp:219] Setting up conv1/relu_7x7
I0331 18:46:53.002712 134773 net.cpp:226] Top shape: 56 64 112 112 (44957696)
I0331 18:46:53.002715 134773 net.cpp:234] Memory required for data: 393380736
I0331 18:46:53.002720 134773 net.cpp:154] Setting up Layer of device :0 @cpu 0 Layer : pool1/3x3_s2
I0331 18:46:53.002725 134773 layer_factory.hpp:114] Creating layer pool1/3x3_s2
I0331 18:46:53.002797 134773 net.cpp:169] Creating Layer pool1/3x3_s2
I0331 18:46:53.002802 134773 net.cpp:606] pool1/3x3_s2 <- conv1/7x7_s2
I0331 18:46:53.002810 134773 net.cpp:579] pool1/3x3_s2 -> pool1/3x3_s2
I0331 18:46:53.002813 134773 net.cpp:582] From AppendTop @cpu: 0
I0331 18:46:53.002832 134773 net.cpp:219] Setting up pool1/3x3_s2
I0331 18:46:53.002840 134773 net.cpp:226] Top shape: 56 64 56 56 (11239424)
I0331 18:46:53.002843 134773 net.cpp:234] Memory required for data: 438338432
I0331 18:46:53.002848 134773 net.cpp:154] Setting up Layer of device :0 @cpu 0 Layer : pool1/norm1
I0331 18:46:53.002853 134773 layer_factory.hpp:114] Creating layer pool1/norm1
I0331 18:46:53.002866 134773 net.cpp:169] Creating Layer pool1/norm1
I0331 18:46:53.002869 134773 net.cpp:606] pool1/norm1 <- pool1/3x3_s2
I0331 18:46:53.002904 134773 net.cpp:579] pool1/norm1 -> pool1/norm1
I0331 18:46:53.002908 134773 net.cpp:582] From AppendTop @cpu: 0
I0331 18:46:53.002921 134773 net.cpp:219] Setting up pool1/norm1
I0331 18:46:53.002928 134773 net.cpp:226] Top shape: 56 64 56 56 (11239424)
I0331 18:46:53.002931 134773 net.cpp:234] Memory required for data: 483296128
I0331 18:46:53.002936 134773 net.cpp:154] Setting up Layer of device :0 @cpu 0 Layer : conv2/3x3_reduce
I0331 18:46:53.002940 134773 layer_factory.hpp:114] Creating layer conv2/3x3_reduce
I0331 18:46:53.002959 134773 net.cpp:169] Creating Layer conv2/3x3_reduce
I0331 18:46:53.002964 134773 net.cpp:606] conv2/3x3_reduce <- pool1/norm1
I0331 18:46:53.002971 134773 net.cpp:579] conv2/3x3_reduce -> conv2/3x3_reduce
I0331 18:46:53.002975 134773 net.cpp:582] From AppendTop @cpu: 0
I0331 18:46:53.007506 134773 net.cpp:219] Setting up conv2/3x3_reduce
I0331 18:46:53.007519 134773 net.cpp:226] Top shape: 56 64 56 56 (11239424)
I0331 18:46:53.007524 134773 net.cpp:234] Memory required for data: 528253824
I0331 18:46:53.007536 134773 net.cpp:154] Setting up Layer of device :0 @cpu 0 Layer : conv2/relu_3x3_reduce
I0331 18:46:53.007541 134773 layer_factory.hpp:114] Creating layer conv2/relu_3x3_reduce
I0331 18:46:53.007551 134773 net.cpp:169] Creating Layer conv2/relu_3x3_reduce
I0331 18:46:53.007556 134773 net.cpp:606] conv2/relu_3x3_reduce <- conv2/3x3_reduce
I0331 18:46:53.007565 134773 net.cpp:566] conv2/relu_3x3_reduce -> conv2/3x3_reduce (in-place)
I0331 18:46:53.007580 134773 net.cpp:219] Setting up conv2/relu_3x3_reduce
I0331 18:46:53.007586 134773 net.cpp:226] Top shape: 56 64 56 56 (11239424)
I0331 18:46:53.007588 134773 net.cpp:234] Memory required for data: 573211520
I0331 18:46:53.007593 134773 net.cpp:154] Setting up Layer of device :0 @cpu 0 Layer : conv2/3x3
I0331 18:46:53.007597 134773 layer_factory.hpp:114] Creating layer conv2/3x3
I0331 18:46:53.007608 134773 net.cpp:169] Creating Layer conv2/3x3
I0331 18:46:53.007612 134773 net.cpp:606] conv2/3x3 <- conv2/3x3_reduce
I0331 18:46:53.007622 134773 net.cpp:579] conv2/3x3 -> conv2/3x3
I0331 18:46:53.007630 134773 net.cpp:582] From AppendTop @cpu: 0
I0331 18:46:53.044047 134773 net.cpp:219] Setting up conv2/3x3
I0331 18:46:53.044095 134773 net.cpp:226] Top shape: 56 192 56 56 (33718272)
I0331 18:46:53.044100 134773 net.cpp:234] Memory required for data: 708084608
I0331 18:46:53.044128 134773 net.cpp:154] Setting up Layer of device :0 @cpu 0 Layer : conv2/relu_3x3
I0331 18:46:53.044134 134773 layer_factory.hpp:114] Creating layer conv2/relu_3x3
I0331 18:46:53.044150 134773 net.cpp:169] Creating Layer conv2/relu_3x3
I0331 18:46:53.044157 134773 net.cpp:606] conv2/relu_3x3 <- conv2/3x3
I0331 18:46:53.044167 134773 net.cpp:566] conv2/relu_3x3 -> conv2/3x3 (in-place)
I0331 18:46:53.044181 134773 net.cpp:219] Setting up conv2/relu_3x3
I0331 18:46:53.044188 134773 net.cpp:226] Top shape: 56 192 56 56 (33718272)
I0331 18:46:53.044193 134773 net.cpp:234] Memory required for data: 842957696
I0331 18:46:53.044198 134773 net.cpp:154] Setting up Layer of device :0 @cpu 0 Layer : conv2/norm2
I0331 18:46:53.044203 134773 layer_factory.hpp:114] Creating layer conv2/norm2
I0331 18:46:53.044214 134773 net.cpp:169] Creating Layer conv2/norm2
I0331 18:46:53.044219 134773 net.cpp:606] conv2/norm2 <- conv2/3x3
I0331 18:46:53.044227 134773 net.cpp:579] conv2/norm2 -> conv2/norm2
I0331 18:46:53.044231 134773 net.cpp:582] From AppendTop @cpu: 0
I0331 18:46:53.044245 134773 net.cpp:219] Setting up conv2/norm2
I0331 18:46:53.044250 134773 net.cpp:226] Top shape: 56 192 56 56 (33718272)
I0331 18:46:53.044255 134773 net.cpp:234] Memory required for data: 977830784
I0331 18:46:53.044260 134773 net.cpp:154] Setting up Layer of device :0 @cpu 0 Layer : pool2/3x3_s2
I0331 18:46:53.044265 134773 layer_factory.hpp:114] Creating layer pool2/3x3_s2
I0331 18:46:53.044302 134773 net.cpp:169] Creating Layer pool2/3x3_s2
I0331 18:46:53.044307 134773 net.cpp:606] pool2/3x3_s2 <- conv2/norm2
I0331 18:46:53.044314 134773 net.cpp:579] pool2/3x3_s2 -> pool2/3x3_s2
I0331 18:46:53.044342 134773 net.cpp:582] From AppendTop @cpu: 0
I0331 18:46:53.044354 134773 net.cpp:219] Setting up pool2/3x3_s2
I0331 18:46:53.044360 134773 net.cpp:226] Top shape: 56 192 28 28 (8429568)
I0331 18:46:53.044363 134773 net.cpp:234] Memory required for data: 1011549056
I0331 18:46:53.044368 134773 net.cpp:154] Setting up Layer of device :0 @cpu 0 Layer : pool2/3x3_s2_pool2/3x3_s2_0_split
I0331 18:46:53.044373 134773 layer_factory.hpp:114] Creating layer pool2/3x3_s2_pool2/3x3_s2_0_split
I0331 18:46:53.044383 134773 net.cpp:169] Creating Layer pool2/3x3_s2_pool2/3x3_s2_0_split
I0331 18:46:53.044386 134773 net.cpp:606] pool2/3x3_s2_pool2/3x3_s2_0_split <- pool2/3x3_s2
I0331 18:46:53.044394 134773 net.cpp:579] pool2/3x3_s2_pool2/3x3_s2_0_split -> pool2/3x3_s2_pool2/3x3_s2_0_split_0
I0331 18:46:53.044397 134773 net.cpp:582] From AppendTop @cpu: 0
I0331 18:46:53.044404 134773 net.cpp:579] pool2/3x3_s2_pool2/3x3_s2_0_split -> pool2/3x3_s2_pool2/3x3_s2_0_split_1
I0331 18:46:53.044409 134773 net.cpp:582] From AppendTop @cpu: 0
I0331 18:46:53.044417 134773 net.cpp:579] pool2/3x3_s2_pool2/3x3_s2_0_split -> pool2/3x3_s2_pool2/3x3_s2_0_split_2
I0331 18:46:53.044421 134773 net.cpp:582] From AppendTop @cpu: 0
I0331 18:46:53.044427 134773 net.cpp:579] pool2/3x3_s2_pool2/3x3_s2_0_split -> pool2/3x3_s2_pool2/3x3_s2_0_split_3
I0331 18:46:53.044431 134773 net.cpp:582] From AppendTop @cpu: 0
I0331 18:46:53.044440 134773 net.cpp:219] Setting up pool2/3x3_s2_pool2/3x3_s2_0_split
I0331 18:46:53.044450 134773 net.cpp:226] Top shape: 56 192 28 28 (8429568)
I0331 18:46:53.044456 134773 net.cpp:226] Top shape: 56 192 28 28 (8429568)
I0331 18:46:53.044461 134773 net.cpp:226] Top shape: 56 192 28 28 (8429568)
I0331 18:46:53.044466 134773 net.cpp:226] Top shape: 56 192 28 28 (8429568)
I0331 18:46:53.044468 134773 net.cpp:234] Memory required for data: 1146422144
I0331 18:46:53.044473 134773 net.cpp:154] Setting up Layer of device :0 @cpu 0 Layer : inception_3a/1x1
I0331 18:46:53.044477 134773 layer_factory.hpp:114] Creating layer inception_3a/1x1
I0331 18:46:53.044493 134773 net.cpp:169] Creating Layer inception_3a/1x1
I0331 18:46:53.044497 134773 net.cpp:606] inception_3a/1x1 <- pool2/3x3_s2_pool2/3x3_s2_0_split_0
I0331 18:46:53.044507 134773 net.cpp:579] inception_3a/1x1 -> inception_3a/1x1
I0331 18:46:53.044510 134773 net.cpp:582] From AppendTop @cpu: 0
I0331 18:46:53.048321 134773 net.cpp:219] Setting up inception_3a/1x1
I0331 18:46:53.048334 134773 net.cpp:226] Top shape: 56 64 28 28 (2809856)
I0331 18:46:53.048337 134773 net.cpp:234] Memory required for data: 1157661568
I0331 18:46:53.048347 134773 net.cpp:154] Setting up Layer of device :0 @cpu 0 Layer : inception_3a/relu_1x1
I0331 18:46:53.048352 134773 layer_factory.hpp:114] Creating layer inception_3a/relu_1x1
I0331 18:46:53.048359 134773 net.cpp:169] Creating Layer inception_3a/relu_1x1
I0331 18:46:53.048363 134773 net.cpp:606] inception_3a/relu_1x1 <- inception_3a/1x1
I0331 18:46:53.048372 134773 net.cpp:566] inception_3a/relu_1x1 -> inception_3a/1x1 (in-place)
I0331 18:46:53.048378 134773 net.cpp:219] Setting up inception_3a/relu_1x1
I0331 18:46:53.048384 134773 net.cpp:226] Top shape: 56 64 28 28 (2809856)
I0331 18:46:53.048388 134773 net.cpp:234] Memory required for data: 1168900992
I0331 18:46:53.048393 134773 net.cpp:154] Setting up Layer of device :0 @cpu 0 Layer : inception_3a/3x3_reduce
I0331 18:46:53.048396 134773 layer_factory.hpp:114] Creating layer inception_3a/3x3_reduce
I0331 18:46:53.048408 134773 net.cpp:169] Creating Layer inception_3a/3x3_reduce
I0331 18:46:53.048411 134773 net.cpp:606] inception_3a/3x3_reduce <- pool2/3x3_s2_pool2/3x3_s2_0_split_1
I0331 18:46:53.048418 134773 net.cpp:579] inception_3a/3x3_reduce -> inception_3a/3x3_reduce
I0331 18:46:53.048422 134773 net.cpp:582] From AppendTop @cpu: 0
I0331 18:46:53.052448 134773 net.cpp:219] Setting up inception_3a/3x3_reduce
I0331 18:46:53.052459 134773 net.cpp:226] Top shape: 56 96 28 28 (4214784)
I0331 18:46:53.052462 134773 net.cpp:234] Memory required for data: 1185760128
I0331 18:46:53.052485 134773 net.cpp:154] Setting up Layer of device :0 @cpu 0 Layer : inception_3a/relu_3x3_reduce
I0331 18:46:53.052489 134773 layer_factory.hpp:114] Creating layer inception_3a/relu_3x3_reduce
I0331 18:46:53.052497 134773 net.cpp:169] Creating Layer inception_3a/relu_3x3_reduce
I0331 18:46:53.052501 134773 net.cpp:606] inception_3a/relu_3x3_reduce <- inception_3a/3x3_reduce
I0331 18:46:53.052508 134773 net.cpp:566] inception_3a/relu_3x3_reduce -> inception_3a/3x3_reduce (in-place)
I0331 18:46:53.052515 134773 net.cpp:219] Setting up inception_3a/relu_3x3_reduce
I0331 18:46:53.052520 134773 net.cpp:226] Top shape: 56 96 28 28 (4214784)
I0331 18:46:53.052523 134773 net.cpp:234] Memory required for data: 1202619264
I0331 18:46:53.052528 134773 net.cpp:154] Setting up Layer of device :0 @cpu 0 Layer : inception_3a/3x3
I0331 18:46:53.052532 134773 layer_factory.hpp:114] Creating layer inception_3a/3x3
I0331 18:46:53.052543 134773 net.cpp:169] Creating Layer inception_3a/3x3
I0331 18:46:53.052547 134773 net.cpp:606] inception_3a/3x3 <- inception_3a/3x3_reduce
I0331 18:46:53.052556 134773 net.cpp:579] inception_3a/3x3 -> inception_3a/3x3
I0331 18:46:53.052559 134773 net.cpp:582] From AppendTop @cpu: 0
I0331 18:46:53.069423 134773 net.cpp:219] Setting up inception_3a/3x3
I0331 18:46:53.069464 134773 net.cpp:226] Top shape: 56 128 28 28 (5619712)
I0331 18:46:53.069468 134773 net.cpp:234] Memory required for data: 1225098112
I0331 18:46:53.069486 134773 net.cpp:154] Setting up Layer of device :0 @cpu 0 Layer : inception_3a/relu_3x3
I0331 18:46:53.069502 134773 layer_factory.hpp:114] Creating layer inception_3a/relu_3x3
I0331 18:46:53.069516 134773 net.cpp:169] Creating Layer inception_3a/relu_3x3
I0331 18:46:53.069524 134773 net.cpp:606] inception_3a/relu_3x3 <- inception_3a/3x3
I0331 18:46:53.069533 134773 net.cpp:566] inception_3a/relu_3x3 -> inception_3a/3x3 (in-place)
I0331 18:46:53.069545 134773 net.cpp:219] Setting up inception_3a/relu_3x3
I0331 18:46:53.069551 134773 net.cpp:226] Top shape: 56 128 28 28 (5619712)
I0331 18:46:53.069555 134773 net.cpp:234] Memory required for data: 1247576960
I0331 18:46:53.069560 134773 net.cpp:154] Setting up Layer of device :0 @cpu 0 Layer : inception_3a/5x5_reduce
I0331 18:46:53.069563 134773 layer_factory.hpp:114] Creating layer inception_3a/5x5_reduce
I0331 18:46:53.069582 134773 net.cpp:169] Creating Layer inception_3a/5x5_reduce
I0331 18:46:53.069588 134773 net.cpp:606] inception_3a/5x5_reduce <- pool2/3x3_s2_pool2/3x3_s2_0_split_2
I0331 18:46:53.069597 134773 net.cpp:579] inception_3a/5x5_reduce -> inception_3a/5x5_reduce
I0331 18:46:53.069600 134773 net.cpp:582] From AppendTop @cpu: 0
I0331 18:46:53.072989 134773 net.cpp:219] Setting up inception_3a/5x5_reduce
I0331 18:46:53.073000 134773 net.cpp:226] Top shape: 56 16 28 28 (702464)
I0331 18:46:53.073004 134773 net.cpp:234] Memory required for data: 1250386816
I0331 18:46:53.073014 134773 net.cpp:154] Setting up Layer of device :0 @cpu 0 Layer : inception_3a/relu_5x5_reduce
I0331 18:46:53.073019 134773 layer_factory.hpp:114] Creating layer inception_3a/relu_5x5_reduce
I0331 18:46:53.073024 134773 net.cpp:169] Creating Layer inception_3a/relu_5x5_reduce
I0331 18:46:53.073029 134773 net.cpp:606] inception_3a/relu_5x5_reduce <- inception_3a/5x5_reduce
I0331 18:46:53.073038 134773 net.cpp:566] inception_3a/relu_5x5_reduce -> inception_3a/5x5_reduce (in-place)
I0331 18:46:53.073046 134773 net.cpp:219] Setting up inception_3a/relu_5x5_reduce
I0331 18:46:53.073051 134773 net.cpp:226] Top shape: 56 16 28 28 (702464)
I0331 18:46:53.073055 134773 net.cpp:234] Memory required for data: 1253196672
I0331 18:46:53.073060 134773 net.cpp:154] Setting up Layer of device :0 @cpu 0 Layer : inception_3a/5x5
I0331 18:46:53.073065 134773 layer_factory.hpp:114] Creating layer inception_3a/5x5
I0331 18:46:53.073076 134773 net.cpp:169] Creating Layer inception_3a/5x5
I0331 18:46:53.073081 134773 net.cpp:606] inception_3a/5x5 <- inception_3a/5x5_reduce
I0331 18:46:53.073087 134773 net.cpp:579] inception_3a/5x5 -> inception_3a/5x5
I0331 18:46:53.073107 134773 net.cpp:582] From AppendTop @cpu: 0
I0331 18:46:53.079968 134773 net.cpp:219] Setting up inception_3a/5x5
I0331 18:46:53.079982 134773 net.cpp:226] Top shape: 56 32 28 28 (1404928)
I0331 18:46:53.079984 134773 net.cpp:234] Memory required for data: 1258816384
I0331 18:46:53.079993 134773 net.cpp:154] Setting up Layer of device :0 @cpu 0 Layer : inception_3a/relu_5x5
I0331 18:46:53.079998 134773 layer_factory.hpp:114] Creating layer inception_3a/relu_5x5
I0331 18:46:53.080004 134773 net.cpp:169] Creating Layer inception_3a/relu_5x5
I0331 18:46:53.080008 134773 net.cpp:606] inception_3a/relu_5x5 <- inception_3a/5x5
I0331 18:46:53.080016 134773 net.cpp:566] inception_3a/relu_5x5 -> inception_3a/5x5 (in-place)
I0331 18:46:53.080024 134773 net.cpp:219] Setting up inception_3a/relu_5x5
I0331 18:46:53.080029 134773 net.cpp:226] Top shape: 56 32 28 28 (1404928)
I0331 18:46:53.080034 134773 net.cpp:234] Memory required for data: 1264436096
I0331 18:46:53.080039 134773 net.cpp:154] Setting up Layer of device :0 @cpu 0 Layer : inception_3a/pool
I0331 18:46:53.080042 134773 layer_factory.hpp:114] Creating layer inception_3a/pool
I0331 18:46:53.080076 134773 net.cpp:169] Creating Layer inception_3a/pool
I0331 18:46:53.080081 134773 net.cpp:606] inception_3a/pool <- pool2/3x3_s2_pool2/3x3_s2_0_split_3
I0331 18:46:53.080087 134773 net.cpp:579] inception_3a/pool -> inception_3a/pool
I0331 18:46:53.080091 134773 net.cpp:582] From AppendTop @cpu: 0
I0331 18:46:53.080103 134773 net.cpp:219] Setting up inception_3a/pool
I0331 18:46:53.080116 134773 net.cpp:226] Top shape: 56 192 28 28 (8429568)
I0331 18:46:53.080119 134773 net.cpp:234] Memory required for data: 1298154368
I0331 18:46:53.080124 134773 net.cpp:154] Setting up Layer of device :0 @cpu 0 Layer : inception_3a/pool_proj
I0331 18:46:53.080128 134773 layer_factory.hpp:114] Creating layer inception_3a/pool_proj
I0331 18:46:53.080142 134773 net.cpp:169] Creating Layer inception_3a/pool_proj
I0331 18:46:53.080147 134773 net.cpp:606] inception_3a/pool_proj <- inception_3a/pool
I0331 18:46:53.080153 134773 net.cpp:579] inception_3a/pool_proj -> inception_3a/pool_proj
I0331 18:46:53.080157 134773 net.cpp:582] From AppendTop @cpu: 0
I0331 18:46:53.083664 134773 net.cpp:219] Setting up inception_3a/pool_proj
I0331 18:46:53.083676 134773 net.cpp:226] Top shape: 56 32 28 28 (1404928)
I0331 18:46:53.083679 134773 net.cpp:234] Memory required for data: 1303774080
I0331 18:46:53.083698 134773 net.cpp:154] Setting up Layer of device :0 @cpu 0 Layer : inception_3a/relu_pool_proj
I0331 18:46:53.083703 134773 layer_factory.hpp:114] Creating layer inception_3a/relu_pool_proj
I0331 18:46:53.083709 134773 net.cpp:169] Creating Layer inception_3a/relu_pool_proj
I0331 18:46:53.083714 134773 net.cpp:606] inception_3a/relu_pool_proj <- inception_3a/pool_proj
I0331 18:46:53.083721 134773 net.cpp:566] inception_3a/relu_pool_proj -> inception_3a/pool_proj (in-place)
I0331 18:46:53.083729 134773 net.cpp:219] Setting up inception_3a/relu_pool_proj
I0331 18:46:53.083734 134773 net.cpp:226] Top shape: 56 32 28 28 (1404928)
I0331 18:46:53.083739 134773 net.cpp:234] Memory required for data: 1309393792
I0331 18:46:53.083742 134773 net.cpp:154] Setting up Layer of device :0 @cpu 0 Layer : inception_3a/output
I0331 18:46:53.083746 134773 layer_factory.hpp:114] Creating layer inception_3a/output
I0331 18:46:53.083755 134773 net.cpp:169] Creating Layer inception_3a/output
I0331 18:46:53.083758 134773 net.cpp:606] inception_3a/output <- inception_3a/1x1
I0331 18:46:53.083763 134773 net.cpp:606] inception_3a/output <- inception_3a/3x3
I0331 18:46:53.083768 134773 net.cpp:606] inception_3a/output <- inception_3a/5x5
I0331 18:46:53.083773 134773 net.cpp:606] inception_3a/output <- inception_3a/pool_proj
I0331 18:46:53.083778 134773 net.cpp:579] inception_3a/output -> inception_3a/output
I0331 18:46:53.083782 134773 net.cpp:582] From AppendTop @cpu: 0
I0331 18:46:53.083799 134773 net.cpp:219] Setting up inception_3a/output
I0331 18:46:53.083806 134773 net.cpp:226] Top shape: 56 256 28 28 (11239424)
I0331 18:46:53.083819 134773 net.cpp:234] Memory required for data: 1354351488
I0331 18:46:53.083824 134773 net.cpp:154] Setting up Layer of device :0 @cpu 0 Layer : inception_3a/output_inception_3a/output_0_split
I0331 18:46:53.083829 134773 layer_factory.hpp:114] Creating layer inception_3a/output_inception_3a/output_0_split
I0331 18:46:53.083840 134773 net.cpp:169] Creating Layer inception_3a/output_inception_3a/output_0_split
…
I0331 18:46:53.083865 134773 net.cpp:582] From AppendTop @cpu: 0
I0331 18:46:53.083873 134773 net.cpp:579] inception_3a/output_inception_3a/output_0_split -> inception_3a/output_inception_3a/output_0_split_2
I0331 18:46:53.083878 134773 net.cpp:582] From AppendTop @cpu: 0
I0331 18:46:53.083884 134773 net.cpp:579] inception_3a/output_inception_3a/output_0_split -> inception_3a/output_inception_3a/output_0_split_3
I0331 18:46:53.083887 134773 net.cpp:582] From AppendTop @cpu: 0
I0331 18:46:53.083895 134773 net.cpp:219] Setting up inception_3a/output_inception_3a/output_0_split
I0331 18:46:53.083901 134773 net.cpp:226] Top shape: 56 256 28 28 (11239424)
I0331 18:46:53.083909 134773 net.cpp:226] Top shape: 56 256 28 28 (11239424)
I0331 18:46:53.083914 134773 net.cpp:226] Top shape: 56 256 28 28 (11239424)
I0331 18:46:53.083920 134773 net.cpp:226] Top shape: 56 256 28 28 (11239424)
I0331 18:46:53.083922 134773 net.cpp:234] Memory required for data: 1534182272
I0331 18:46:53.083927 134773 net.cpp:154] Setting up Layer of device :0 @cpu 0 Layer : inception_3b/1x1
I0331 18:46:53.083931 134773 layer_factory.hpp:114] Creating layer inception_3b/1x1
I0331 18:46:53.083942 134773 net.cpp:169] Creating Layer inception_3b/1x1
I0331 18:46:53.083947 134773 net.cpp:606] inception_3b/1x1 <- inception_3a/output_inception_3a/output_0_split_0
I0331 18:46:53.083956 134773 net.cpp:579] inception_3b/1x1 -> inception_3b/1x1
I0331 18:46:53.083959 134773 net.cpp:582] From AppendTop @cpu: 0
I0331 18:46:53.089671 134773 net.cpp:219] Setting up inception_3b/1x1
I0331 18:46:53.089684 134773 net.cpp:226] Top shape: 56 128 28 28 (5619712)
I0331 18:46:53.089687 134773 net.cpp:234] Memory required for data: 1556661120
I0331 18:46:53.089696 134773 net.cpp:154] Setting up Layer of device :0 @cpu 0 Layer : inception_3b/relu_1x1
I0331 18:46:53.089701 134773 layer_factory.hpp:114] Creating layer inception_3b/relu_1x1
I0331 18:46:53.089709 134773 net.cpp:169] Creating Layer inception_3b/relu_1x1
I0331 18:46:53.089712 134773 net.cpp:606] inception_3b/relu_1x1 <- inception_3b/1x1
I0331 18:46:53.089718 134773 net.cpp:566] inception_3b/relu_1x1 -> inception_3b/1x1 (in-place)
I0331 18:46:53.089725 134773 net.cpp:219] Setting up inception_3b/relu_1x1
I0331 18:46:53.089731 134773 net.cpp:226] Top shape: 56 128 28 28 (5619712)
I0331 18:46:53.089735 134773 net.cpp:234] Memory required for data: 1579139968
I0331 18:46:53.089740 134773 net.cpp:154] Setting up Layer of device :0 @cpu 0 Layer : inception_3b/3x3_reduce
I0331 18:46:53.089743 134773 layer_factory.hpp:114] Creating layer inception_3b/3x3_reduce
I0331 18:46:53.089756 134773 net.cpp:169] Creating Layer inception_3b/3x3_reduce
I0331 18:46:53.089759 134773 net.cpp:606] inception_3b/3x3_reduce <- inception_3a/output_inception_3a/output_0_split_1
I0331 18:46:53.089769 134773 net.cpp:579] inception_3b/3x3_reduce -> inception_3b/3x3_reduce
I0331 18:46:53.089772 134773 net.cpp:582] From AppendTop @cpu: 0
I0331 18:46:53.095485 134773 net.cpp:219] Setting up inception_3b/3x3_reduce
I0331 18:46:53.095499 134773 net.cpp:226] Top shape: 56 128 28 28 (5619712)
I0331 18:46:53.095502 134773 net.cpp:234] Memory required for data: 1601618816
I0331 18:46:53.095523 134773 net.cpp:154] Setting up Layer of device :0 @cpu 0 Layer : inception_3b/relu_3x3_reduce
I0331 18:46:53.095528 134773 layer_factory.hpp:114] Creating layer inception_3b/relu_3x3_reduce
I0331 18:46:53.095535 134773 net.cpp:169] Creating Layer inception_3b/relu_3x3_reduce
I0331 18:46:53.095541 134773 net.cpp:606] inception_3b/relu_3x3_reduce <- inception_3b/3x3_reduce
I0331 18:46:53.095548 134773 net.cpp:566] inception_3b/relu_3x3_reduce -> inception_3b/3x3_reduce (in-place)
I0331 18:46:53.095556 134773 net.cpp:219] Setting up inception_3b/relu_3x3_reduce
I0331 18:46:53.095561 134773 net.cpp:226] Top shape: 56 128 28 28 (5619712)
I0331 18:46:53.095564 134773 net.cpp:234] Memory required for data: 1624097664
I0331 18:46:53.095568 134773 net.cpp:154] Setting up Layer of device :0 @cpu 0 Layer : inception_3b/3x3
I0331 18:46:53.095573 134773 layer_factory.hpp:114] Creating layer inception_3b/3x3
I0331 18:46:53.095587 134773 net.cpp:169] Creating Layer inception_3b/3x3
I0331 18:46:53.095592 134773 net.cpp:606] inception_3b/3x3 <- inception_3b/3x3_reduce
I0331 18:46:53.095599 134773 net.cpp:579] inception_3b/3x3 -> inception_3b/3x3
I0331 18:46:53.095603 134773 net.cpp:582] From AppendTop @cpu: 0
I0331 18:46:53.118979 134773 net.cpp:219] Setting up inception_3b/3x3
I0331 18:46:53.119025 134773 net.cpp:226] Top shape: 56 192 28 28 (8429568)
I0331 18:46:53.119030 134773 net.cpp:234] Memory required for data: 1657815936
I0331 18:46:53.119051 134773 net.cpp:154] Setting up Layer of device :0 @cpu 0 Layer : inception_3b/relu_3x3
I0331 18:46:53.119069 134773 layer_factory.hpp:114] Creating layer inception_3b/relu_3x3
I0331 18:46:53.119087 134773 net.cpp:169] Creating Layer inception_3b/relu_3x3
I0331 18:46:53.119096 134773 net.cpp:606] inception_3b/relu_3x3 <- inception_3b/3x3
I0331 18:46:53.119107 134773 net.cpp:566] inception_3b/relu_3x3 -> inception_3b/3x3 (in-place)
I0331 18:46:53.119120 134773 net.cpp:219] Setting up inception_3b/relu_3x3
I0331 18:46:53.119125 134773 net.cpp:226] Top shape: 56 192 28 28 (8429568)
I0331 18:46:53.119129 134773 net.cpp:234] Memory required for data: 1691534208
I0331 18:46:53.119134 134773 net.cpp:154] Setting up Layer of device :0 @cpu 0 Layer : inception_3b/5x5_reduce
I0331 18:46:53.119139 134773 layer_factory.hpp:114] Creating layer inception_3b/5x5_reduce
I0331 18:46:53.119155 134773 net.cpp:169] Creating Layer inception_3b/5x5_reduce
I0331 18:46:53.119160 134773 net.cpp:606] inception_3b/5x5_reduce <- inception_3a/output_inception_3a/output_0_split_2
I0331 18:46:53.119170 134773 net.cpp:579] inception_3b/5x5_reduce -> inception_3b/5x5_reduce
I0331 18:46:53.119175 134773 net.cpp:582] From AppendTop @cpu: 0
I0331 18:46:53.123869 134773 net.cpp:219] Setting up inception_3b/5x5_reduce
I0331 18:46:53.123881 134773 net.cpp:226] Top shape: 56 32 28 28 (1404928)
I0331 18:46:53.123885 134773 net.cpp:234] Memory required for data: 1697153920
I0331 18:46:53.123894 134773 net.cpp:154] Setting up Layer of device :0 @cpu 0 Layer : inception_3b/relu_5x5_reduce
I0331 18:46:53.123898 134773 layer_factory.hpp:114] Creating layer inception_3b/relu_5x5_reduce
I0331 18:46:53.123908 134773 net.cpp:169] Creating Layer inception_3b/relu_5x5_reduce
I0331 18:46:53.123913 134773 net.cpp:606] inception_3b/relu_5x5_reduce <- inception_3b/5x5_reduce
I0331 18:46:53.123919 134773 net.cpp:566] inception_3b/relu_5x5_reduce -> inception_3b/5x5_reduce (in-place)
I0331 18:46:53.123927 134773 net.cpp:219] Setting up inception_3b/relu_5x5_reduce
I0331 18:46:53.123932 134773 net.cpp:226] Top shape: 56 32 28 28 (1404928)
I0331 18:46:53.123936 134773 net.cpp:234] Memory required for data: 1702773632
I0331 18:46:53.123941 134773 net.cpp:154] Setting up Layer of device :0 @cpu 0 Layer : inception_3b/5x5
I0331 18:46:53.123945 134773 layer_factory.hpp:114] Creating layer inception_3b/5x5
I0331 18:46:53.123953 134773 net.cpp:169] Creating Layer inception_3b/5x5
I0331 18:46:53.123957 134773 net.cpp:606] inception_3b/5x5 <- inception_3b/5x5_reduce
I0331 18:46:53.123966 134773 net.cpp:579] inception_3b/5x5 -> inception_3b/5x5
I0331 18:46:53.123987 134773 net.cpp:582] From AppendTop @cpu: 0
I0331 18:46:53.138278 134773 net.cpp:219] Setting up inception_3b/5x5
I0331 18:46:53.138312 134773 net.cpp:226] Top shape: 56 96 28 28 (4214784)
I0331 18:46:53.138317 134773 net.cpp:234] Memory required for data: 1719632768
I0331 18:46:53.138334 134773 net.cpp:154] Setting up Layer of device :0 @cpu 0 Layer : inception_3b/relu_5x5
I0331 18:46:53.138339 134773 layer_factory.hpp:114] Creating layer inception_3b/relu_5x5
I0331 18:46:53.138355 134773 net.cpp:169] Creating Layer inception_3b/relu_5x5
I0331 18:46:53.138361 134773 net.cpp:606] inception_3b/relu_5x5 <- inception_3b/5x5
I0331 18:46:53.138370 134773 net.cpp:566] inception_3b/relu_5x5 -> inception_3b/5x5 (in-place)
I0331 18:46:53.138380 134773 net.cpp:219] Setting up inception_3b/relu_5x5
I0331 18:46:53.138384 134773 net.cpp:226] Top shape: 56 96 28 28 (4214784)
I0331 18:46:53.138388 134773 net.cpp:234] Memory required for data: 1736491904
I0331 18:46:53.138393 134773 net.cpp:154] Setting up Layer of device :0 @cpu 0 Layer : inception_3b/pool
I0331 18:46:53.138398 134773 layer_factory.hpp:114] Creating layer inception_3b/pool
I0331 18:46:53.138435 134773 net.cpp:169] Creating Layer inception_3b/pool
I0331 18:46:53.138440 134773 net.cpp:606] inception_3b/pool <- inception_3a/output_inception_3a/output_0_split_3
I0331 18:46:53.138449 134773 net.cpp:579] inception_3b/pool -> inception_3b/pool
I0331 18:46:53.138453 134773 net.cpp:582] From AppendTop @cpu: 0
I0331 18:46:53.138468 134773 net.cpp:219] Setting up inception_3b/pool
I0331 18:46:53.138487 134773 net.cpp:226] Top shape: 56 256 28 28 (11239424)
I0331 18:46:53.138491 134773 net.cpp:234] Memory required for data: 1781449600
I0331 18:46:53.138496 134773 net.cpp:154] Setting up Layer of device :0 @cpu 0 Layer : inception_3b/pool_proj
I0331 18:46:53.138500 134773 layer_factory.hpp:114] Creating layer inception_3b/pool_proj
I0331 18:46:53.138514 134773 net.cpp:169] Creating Layer inception_3b/pool_proj
I0331 18:46:53.138519 134773 net.cpp:606] inception_3b/pool_proj <- inception_3b/pool
I0331 18:46:53.138528 134773 net.cpp:579] inception_3b/pool_proj -> inception_3b/pool_proj
I0331 18:46:53.138532 134773 net.cpp:582] From AppendTop @cpu: 0
I0331 18:46:53.142984 134773 net.cpp:219] Setting up inception_3b/pool_proj
I0331 18:46:53.142997 134773 net.cpp:226] Top shape: 56 64 28 28 (2809856)
I0331 18:46:53.143000 134773 net.cpp:234] Memory required for data: 1792689024
I0331 18:46:53.143009 134773 net.cpp:154] Setting up Layer of device :0 @cpu 0 Layer : inception_3b/relu_pool_proj
I0331 18:46:53.143014 134773 layer_factory.hpp:114] Creating layer inception_3b/relu_pool_proj
I0331 18:46:53.143023 134773 net.cpp:169] Creating Layer inception_3b/relu_pool_proj
I0331 18:46:53.143028 134773 net.cpp:606] inception_3b/relu_pool_proj <- inception_3b/pool_proj
I0331 18:46:53.143034 134773 net.cpp:566] inception_3b/relu_pool_proj -> inception_3b/pool_proj (in-place)
I0331 18:46:53.143041 134773 net.cpp:219] Setting up inception_3b/relu_pool_proj
I0331 18:46:53.143048 134773 net.cpp:226] Top shape: 56 64 28 28 (2809856)
I0331 18:46:53.143050 134773 net.cpp:234] Memory required for data: 1803928448
I0331 18:46:53.143055 134773 net.cpp:154] Setting up Layer of device :0 @cpu 0 Layer : inception_3b/output
I0331 18:46:53.143060 134773 layer_factory.hpp:114] Creating layer inception_3b/output
I0331 18:46:53.143070 134773 net.cpp:169] Creating Layer inception_3b/output
I0331 18:46:53.143075 134773 net.cpp:606] inception_3b/output <- inception_3b/1x1
I0331 18:46:53.143081 134773 net.cpp:606] inception_3b/output <- inception_3b/3x3
I0331 18:46:53.143086 134773 net.cpp:606] inception_3b/output <- inception_3b/5x5
I0331 18:46:53.143091 134773 net.cpp:606] inception_3b/output <- inception_3b/pool_proj
I0331 18:46:53.143097 134773 net.cpp:579] inception_3b/output -> inception_3b/output
I0331 18:46:53.143101 134773 net.cpp:582] From AppendTop @cpu: 0
I0331 18:46:53.143111 134773 net.cpp:219] Setting up inception_3b/output
I0331 18:46:53.143117 134773 net.cpp:226] Top shape: 56 480 28 28 (21073920)
I0331 18:46:53.143141 134773 net.cpp:234] Memory required for data: 1888224128
I0331 18:46:53.143146 134773 net.cpp:154] Setting up Layer of device :0 @cpu 0 Layer : pool3/3x3_s2
I0331 18:46:53.143151 134773 layer_factory.hpp:114] Creating layer pool3/3x3_s2
I0331 18:46:53.143170 134773 net.cpp:169] Creating Layer pool3/3x3_s2
I0331 18:46:53.143174 134773 net.cpp:606] pool3/3x3_s2 <- inception_3b/output
I0331 18:46:53.143184 134773 net.cpp:579] pool3/3x3_s2 -> pool3/3x3_s2
I0331 18:46:53.143188 134773 net.cpp:582] From AppendTop @cpu: 0
I0331 18:46:53.143196 134773 net.cpp:219] Setting up pool3/3x3_s2
I0331 18:46:53.143203 134773 net.cpp:226] Top shape: 56 480 14 14 (5268480)
I0331 18:46:53.143205 134773 net.cpp:234] Memory required for data: 1909298048
I0331 18:46:53.143210 134773 net.cpp:154] Setting up Layer of device :0 @cpu 0 Layer : pool3/3x3_s2_pool3/3x3_s2_0_split
I0331 18:46:53.143214 134773 layer_factory.hpp:114] Creating layer pool3/3x3_s2_pool3/3x3_s2_0_split
I0331 18:46:53.143227 134773 net.cpp:169] Creating Layer pool3/3x3_s2_pool3/3x3_s2_0_split
I0331 18:46:53.143231 134773 net.cpp:606] pool3/3x3_s2_pool3/3x3_s2_0_split <- pool3/3x3_s2
I0331 18:46:53.143237 134773 net.cpp:579] pool3/3x3_s2_pool3/3x3_s2_0_split -> pool3/3x3_s2_pool3/3x3_s2_0_split_0
I0331 18:46:53.143241 134773 net.cpp:582] From AppendTop @cpu: 0
I0331 18:46:53.143247 134773 net.cpp:579] pool3/3x3_s2_pool3/3x3_s2_0_split -> pool3/3x3_s2_pool3/3x3_s2_0_split_1
I0331 18:46:53.143251 134773 net.cpp:582] From AppendTop @cpu: 0
I0331 18:46:53.143261 134773 net.cpp:579] pool3/3x3_s2_pool3/3x3_s2_0_split -> pool3/3x3_s2_pool3/3x3_s2_0_split_2
I0331 18:46:53.143265 134773 net.cpp:582] From AppendTop @cpu: 0
I0331 18:46:53.143273 134773 net.cpp:579] pool3/3x3_s2_pool3/3x3_s2_0_split -> pool3/3x3_s2_pool3/3x3_s2_0_split_3
I0331 18:46:53.143276 134773 net.cpp:582] From AppendTop @cpu: 0
I0331 18:46:53.143285 134773 net.cpp:219] Setting up pool3/3x3_s2_pool3/3x3_s2_0_split
I0331 18:46:53.143290 134773 net.cpp:226] Top shape: 56 480 14 14 (5268480)
I0331 18:46:53.143296 134773 net.cpp:226] Top shape: 56 480 14 14 (5268480)
I0331 18:46:53.143299 134773 net.cpp:226] Top shape: 56 480 14 14 (5268480)
I0331 18:46:53.143304 134773 net.cpp:226] Top shape: 56 480 14 14 (5268480)
I0331 18:46:53.143307 134773 net.cpp:234] Memory required for data: 1993593728
I0331 18:46:53.143312 134773 net.cpp:154] Setting up Layer of device :0 @cpu 0 Layer : inception_4a/1x1
I0331 18:46:53.143316 134773 layer_factory.hpp:114] Creating layer inception_4a/1x1
I0331 18:46:53.143327 134773 net.cpp:169] Creating Layer inception_4a/1x1
I0331 18:46:53.143332 134773 net.cpp:606] inception_4a/1x1 <- pool3/3x3_s2_pool3/3x3_s2_0_split_0
I0331 18:46:53.143340 134773 net.cpp:579] inception_4a/1x1 -> inception_4a/1x1
I0331 18:46:53.143344 134773 net.cpp:582] From AppendTop @cpu: 0
I0331 18:46:53.148638 134773 net.cpp:219] Setting up inception_4a/1x1
I0331 18:46:53.148650 134773 net.cpp:226] Top shape: 56 192 14 14 (2107392)
I0331 18:46:53.148654 134773 net.cpp:234] Memory required for data: 2002023296
I0331 18:46:53.148663 134773 net.cpp:154] Setting up Layer of device :0 @cpu 0 Layer : inception_4a/relu_1x1
I0331 18:46:53.148668 134773 layer_factory.hpp:114] Creating layer inception_4a/relu_1x1
I0331 18:46:53.148674 134773 net.cpp:169] Creating Layer inception_4a/relu_1x1
I0331 18:46:53.148679 134773 net.cpp:606] inception_4a/relu_1x1 <- inception_4a/1x1
I0331 18:46:53.148684 134773 net.cpp:566] inception_4a/relu_1x1 -> inception_4a/1x1 (in-place)
I0331 18:46:53.148690 134773 net.cpp:219] Setting up inception_4a/relu_1x1
I0331 18:46:53.148695 134773 net.cpp:226] Top shape: 56 192 14 14 (2107392)
I0331 18:46:53.148699 134773 net.cpp:234] Memory required for data: 2010452864
I0331 18:46:53.148705 134773 net.cpp:154] Setting up Layer of device :0 @cpu 0 Layer : inception_4a/3x3_reduce
I0331 18:46:53.148708 134773 layer_factory.hpp:114] Creating layer inception_4a/3x3_reduce
I0331 18:46:53.148720 134773 net.cpp:169] Creating Layer inception_4a/3x3_reduce
I0331 18:46:53.148723 134773 net.cpp:606] inception_4a/3x3_reduce <- pool3/3x3_s2_pool3/3x3_s2_0_split_1
I0331 18:46:53.148738 134773 net.cpp:579] inception_4a/3x3_reduce -> inception_4a/3x3_reduce
I0331 18:46:53.148742 134773 net.cpp:582] From AppendTop @cpu: 0
I0331 18:46:53.152617 134773 net.cpp:219] Setting up inception_4a/3x3_reduce
I0331 18:46:53.152631 134773 net.cpp:226] Top shape: 56 96 14 14 (1053696)
I0331 18:46:53.152636 134773 net.cpp:234] Memory required for data: 2014667648
I0331 18:46:53.152657 134773 net.cpp:154] Setting up Layer of device :0 @cpu 0 Layer : inception_4a/relu_3x3_reduce
I0331 18:46:53.152660 134773 layer_factory.hpp:114] Creating layer inception_4a/relu_3x3_reduce
I0331 18:46:53.152667 134773 net.cpp:169] Creating Layer inception_4a/relu_3x3_reduce
I0331 18:46:53.152671 134773 net.cpp:606] inception_4a/relu_3x3_reduce <- inception_4a/3x3_reduce
I0331 18:46:53.152678 134773 net.cpp:566] inception_4a/relu_3x3_reduce -> inception_4a/3x3_reduce (in-place)
I0331 18:46:53.152684 134773 net.cpp:219] Setting up inception_4a/relu_3x3_reduce
I0331 18:46:53.152689 134773 net.cpp:226] Top shape: 56 96 14 14 (1053696)
I0331 18:46:53.152693 134773 net.cpp:234] Memory required for data: 2018882432
I0331 18:46:53.152698 134773 net.cpp:154] Setting up Layer of device :0 @cpu 0 Layer : inception_4a/3x3
I0331 18:46:53.152703 134773 layer_factory.hpp:114] Creating layer inception_4a/3x3
I0331 18:46:53.152714 134773 net.cpp:169] Creating Layer inception_4a/3x3
I0331 18:46:53.152717 134773 net.cpp:606] inception_4a/3x3 <- inception_4a/3x3_reduce
I0331 18:46:53.152730 134773 net.cpp:579] inception_4a/3x3 -> inception_4a/3x3
I0331 18:46:53.152734 134773 net.cpp:582] From AppendTop @cpu: 0
I0331 18:46:53.161460 134773 net.cpp:219] Setting up inception_4a/3x3
I0331 18:46:53.161474 134773 net.cpp:226] Top shape: 56 208 14 14 (2283008)
I0331 18:46:53.161478 134773 net.cpp:234] Memory required for data: 2028014464
I0331 18:46:53.161487 134773 net.cpp:154] Setting up Layer of device :0 @cpu 0 Layer : inception_4a/relu_3x3
I0331 18:46:53.161491 134773 layer_factory.hpp:114] Creating layer inception_4a/relu_3x3
I0331 18:46:53.161499 134773 net.cpp:169] Creating Layer inception_4a/relu_3x3
I0331 18:46:53.161504 134773 net.cpp:606] inception_4a/relu_3x3 <- inception_4a/3x3
I0331 18:46:53.161511 134773 net.cpp:566] inception_4a/relu_3x3 -> inception_4a/3x3 (in-place)
I0331 18:46:53.161519 134773 net.cpp:219] Setting up inception_4a/relu_3x3
I0331 18:46:53.161525 134773 net.cpp:226] Top shape: 56 208 14 14 (2283008)
I0331 18:46:53.161527 134773 net.cpp:234] Memory required for data: 2037146496
I0331 18:46:53.161532 134773 net.cpp:154] Setting up Layer of device :0 @cpu 0 Layer : inception_4a/5x5_reduce
I0331 18:46:53.161536 134773 layer_factory.hpp:114] Creating layer inception_4a/5x5_reduce
I0331 18:46:53.161545 134773 net.cpp:169] Creating Layer inception_4a/5x5_reduce
I0331 18:46:53.161550 134773 net.cpp:606] inception_4a/5x5_reduce <- pool3/3x3_s2_pool3/3x3_s2_0_split_2
I0331 18:46:53.161559 134773 net.cpp:579] inception_4a/5x5_reduce -> inception_4a/5x5_reduce
I0331 18:46:53.161562 134773 net.cpp:582] From AppendTop @cpu: 0
I0331 18:46:53.164345 134773 net.cpp:219] Setting up inception_4a/5x5_reduce
I0331 18:46:53.164355 134773 net.cpp:226] Top shape: 56 16 14 14 (175616)
I0331 18:46:53.164360 134773 net.cpp:234] Memory required for data: 2037848960
I0331 18:46:53.164367 134773 net.cpp:154] Setting up Layer of device :0 @cpu 0 Layer : inception_4a/relu_5x5_reduce
I0331 18:46:53.164372 134773 layer_factory.hpp:114] Creating layer inception_4a/relu_5x5_reduce
I0331 18:46:53.164381 134773 net.cpp:169] Creating Layer inception_4a/relu_5x5_reduce
I0331 18:46:53.164386 134773 net.cpp:606] inception_4a/relu_5x5_reduce <- inception_4a/5x5_reduce
I0331 18:46:53.164393 134773 net.cpp:566] inception_4a/relu_5x5_reduce -> inception_4a/5x5_reduce (in-place)
I0331 18:46:53.164400 134773 net.cpp:219] Setting up inception_4a/relu_5x5_reduce
I0331 18:46:53.164405 134773 net.cpp:226] Top shape: 56 16 14 14 (175616)
I0331 18:46:53.164409 134773 net.cpp:234] Memory required for data: 2038551424
I0331 18:46:53.164427 134773 net.cpp:154] Setting up Layer of device :0 @cpu 0 Layer : inception_4a/5x5
I0331 18:46:53.164430 134773 layer_factory.hpp:114] Creating layer inception_4a/5x5
I0331 18:46:53.164439 134773 net.cpp:169] Creating Layer inception_4a/5x5
I0331 18:46:53.164443 134773 net.cpp:606] inception_4a/5x5 <- inception_4a/5x5_reduce
I0331 18:46:53.164453 134773 net.cpp:579] inception_4a/5x5 -> inception_4a/5x5
I0331 18:46:53.164456 134773 net.cpp:582] From AppendTop @cpu: 0
I0331 18:46:53.167260 134773 net.cpp:219] Setting up inception_4a/5x5
I0331 18:46:53.167271 134773 net.cpp:226] Top shape: 56 48 14 14 (526848)
I0331 18:46:53.167275 134773 net.cpp:234] Memory required for data: 2040658816
I0331 18:46:53.167284 134773 net.cpp:154] Setting up Layer of device :0 @cpu 0 Layer : inception_4a/relu_5x5
I0331 18:46:53.167289 134773 layer_factory.hpp:114] Creating layer inception_4a/relu_5x5
I0331 18:46:53.167294 134773 net.cpp:169] Creating Layer inception_4a/relu_5x5
I0331 18:46:53.167301 134773 net.cpp:606] inception_4a/relu_5x5 <- inception_4a/5x5
I0331 18:46:53.167307 134773 net.cpp:566] inception_4a/relu_5x5 -> inception_4a/5x5 (in-place)
I0331 18:46:53.167315 134773 net.cpp:219] Setting up inception_4a/relu_5x5
I0331 18:46:53.167320 134773 net.cpp:226] Top shape: 56 48 14 14 (526848)
I0331 18:46:53.167323 134773 net.cpp:234] Memory required for data: 2042766208
I0331 18:46:53.167327 134773 net.cpp:154] Setting up Layer of device :0 @cpu 0 Layer : inception_4a/pool
I0331 18:46:53.167336 134773 layer_factory.hpp:114] Creating layer inception_4a/pool
I0331 18:46:53.167367 134773 net.cpp:169] Creating Layer inception_4a/pool
I0331 18:46:53.167372 134773 net.cpp:606] inception_4a/pool <- pool3/3x3_s2_pool3/3x3_s2_0_split_3
I0331 18:46:53.167382 134773 net.cpp:579] inception_4a/pool -> inception_4a/pool
I0331 18:46:53.167387 134773 net.cpp:582] From AppendTop @cpu: 0
I0331 18:46:53.167397 134773 net.cpp:219] Setting up inception_4a/pool
I0331 18:46:53.167402 134773 net.cpp:226] Top shape: 56 480 14 14 (5268480)
I0331 18:46:53.167407 134773 net.cpp:234] Memory required for data: 2063840128
I0331 18:46:53.167412 134773 net.cpp:154] Setting up Layer of device :0 @cpu 0 Layer : inception_4a/pool_proj
I0331 18:46:53.167415 134773 layer_factory.hpp:114] Creating layer inception_4a/pool_proj
I0331 18:46:53.167426 134773 net.cpp:169] Creating Layer inception_4a/pool_proj
I0331 18:46:53.167430 134773 net.cpp:606] inception_4a/pool_proj <- inception_4a/pool
I0331 18:46:53.167445 134773 net.cpp:579] inception_4a/pool_proj -> inception_4a/pool_proj
I0331 18:46:53.167448 134773 net.cpp:582] From AppendTop @cpu: 0
I0331 18:46:53.171219 134773 net.cpp:219] Setting up inception_4a/pool_proj
I0331 18:46:53.171231 134773 net.cpp:226] Top shape: 56 64 14 14 (702464)
I0331 18:46:53.171234 134773 net.cpp:234] Memory required for data: 2066649984
I0331 18:46:53.171243 134773 net.cpp:154] Setting up Layer of device :0 @cpu 0 Layer : inception_4a/relu_pool_proj
I0331 18:46:53.171248 134773 layer_factory.hpp:114] Creating layer inception_4a/relu_pool_proj
I0331 18:46:53.171257 134773 net.cpp:169] Creating Layer inception_4a/relu_pool_proj
I0331 18:46:53.171262 134773 net.cpp:606] inception_4a/relu_pool_proj <- inception_4a/pool_proj
I0331 18:46:53.171267 134773 net.cpp:566] inception_4a/relu_pool_proj -> inception_4a/pool_proj (in-place)
I0331 18:46:53.171274 134773 net.cpp:219] Setting up inception_4a/relu_pool_proj
I0331 18:46:53.171279 134773 net.cpp:226] Top shape: 56 64 14 14 (702464)
I0331 18:46:53.171283 134773 net.cpp:234] Memory required for data: 2069459840
I0331 18:46:53.171288 134773 net.cpp:154] Setting up Layer of device :0 @cpu 0 Layer : inception_4a/output
I0331 18:46:53.171291 134773 layer_factory.hpp:114] Creating layer inception_4a/output
I0331 18:46:53.171300 134773 net.cpp:169] Creating Layer inception_4a/output
I0331 18:46:53.171305 134773 net.cpp:606] inception_4a/output <- inception_4a/1x1
I0331 18:46:53.171310 134773 net.cpp:606] inception_4a/output <- inception_4a/3x3
I0331 18:46:53.171324 134773 net.cpp:606] inception_4a/output <- inception_4a/5x5
I0331 18:46:53.171329 134773 net.cpp:606] inception_4a/output <- inception_4a/pool_proj
I0331 18:46:53.171336 134773 net.cpp:579] inception_4a/output -> inception_4a/output
I0331 18:46:53.171340 134773 net.cpp:582] From AppendTop @cpu: 0
I0331 18:46:53.171350 134773 net.cpp:219] Setting up inception_4a/output
I0331 18:46:53.171355 134773 net.cpp:226] Top shape: 56 512 14 14 (5619712)
I0331 18:46:53.171360 134773 net.cpp:234] Memory required for data: 2091938688
I0331 18:46:53.171363 134773 net.cpp:154] Setting up Layer of device :0 @cpu 0 Layer : inception_4a/output_inception_4a/output_0_split
I0331 18:46:53.171367 134773 layer_factory.hpp:114] Creating layer inception_4a/output_inception_4a/output_0_split
I0331 18:46:53.171378 134773 net.cpp:169] Creating Layer inception_4a/output_inception_4a/output_0_split
…
I0331 18:46:53.171418 134773 net.cpp:582] From AppendTop @cpu: 0
I0331 18:46:53.171425 134773 net.cpp:579] inception_4a/output_inception_4a/output_0_split -> inception_4a/output_inception_4a/output_0_split_3
I0331 18:46:53.171428 134773 net.cpp:582] From AppendTop @cpu: 0
I0331 18:46:53.171434 134773 net.cpp:579] inception_4a/output_inception_4a/output_0_split -> inception_4a/output_inception_4a/output_0_split_4
I0331 18:46:53.171438 134773 net.cpp:582] From AppendTop @cpu: 0
I0331 18:46:53.171448 134773 net.cpp:219] Setting up inception_4a/output_inception_4a/output_0_split
I0331 18:46:53.171454 134773 net.cpp:226] Top shape: 56 512 14 14 (5619712)
I0331 18:46:53.171459 134773 net.cpp:226] Top shape: 56 512 14 14 (5619712)
I0331 18:46:53.171463 134773 net.cpp:226] Top shape: 56 512 14 14 (5619712)
I0331 18:46:53.171468 134773 net.cpp:226] Top shape: 56 512 14 14 (5619712)
I0331 18:46:53.171473 134773 net.cpp:226] Top shape: 56 512 14 14 (5619712)
I0331 18:46:53.171476 134773 net.cpp:234] Memory required for data: 2204332928
I0331 18:46:53.171481 134773 net.cpp:154] Setting up Layer of device :0 @cpu 0 Layer : loss1/ave_pool
I0331 18:46:53.171485 134773 layer_factory.hpp:114] Creating layer loss1/ave_pool
I0331 18:46:53.171507 134773 net.cpp:169] Creating Layer loss1/ave_pool
I0331 18:46:53.171512 134773 net.cpp:606] loss1/ave_pool <- inception_4a/output_inception_4a/output_0_split_0
I0331 18:46:53.171519 134773 net.cpp:579] loss1/ave_pool -> loss1/ave_pool
I0331 18:46:53.171522 134773 net.cpp:582] From AppendTop @cpu: 0
I0331 18:46:53.171530 134773 net.cpp:219] Setting up loss1/ave_pool
I0331 18:46:53.171535 134773 net.cpp:226] Top shape: 56 512 4 4 (458752)
I0331 18:46:53.171538 134773 net.cpp:234] Memory required for data: 2206167936
I0331 18:46:53.171543 134773 net.cpp:154] Setting up Layer of device :0 @cpu 0 Layer : loss1/conv
I0331 18:46:53.171547 134773 layer_factory.hpp:114] Creating layer loss1/conv
I0331 18:46:53.171560 134773 net.cpp:169] Creating Layer loss1/conv
I0331 18:46:53.171563 134773 net.cpp:606] loss1/conv <- loss1/ave_pool
I0331 18:46:53.171572 134773 net.cpp:579] loss1/conv -> loss1/conv
I0331 18:46:53.171576 134773 net.cpp:582] From AppendTop @cpu: 0
I0331 18:46:53.174612 134773 net.cpp:219] Setting up loss1/conv
I0331 18:46:53.174623 134773 net.cpp:226] Top shape: 56 128 4 4 (114688)
I0331 18:46:53.174629 134773 net.cpp:234] Memory required for data: 2206626688
I0331 18:46:53.174638 134773 net.cpp:154] Setting up Layer of device :0 @cpu 0 Layer : loss1/relu_conv
I0331 18:46:53.174650 134773 layer_factory.hpp:114] Creating layer loss1/relu_conv
I0331 18:46:53.174657 134773 net.cpp:169] Creating Layer loss1/relu_conv
I0331 18:46:53.174661 134773 net.cpp:606] loss1/relu_conv <- loss1/conv
I0331 18:46:53.174670 134773 net.cpp:566] loss1/relu_conv -> loss1/conv (in-place)
I0331 18:46:53.174677 134773 net.cpp:219] Setting up loss1/relu_conv
I0331 18:46:53.174682 134773 net.cpp:226] Top shape: 56 128 4 4 (114688)
I0331 18:46:53.174686 134773 net.cpp:234] Memory required for data: 2207085440
I0331 18:46:53.174691 134773 net.cpp:154] Setting up Layer of device :0 @cpu 0 Layer : loss1/fc
I0331 18:46:53.174695 134773 layer_factory.hpp:114] Creating layer loss1/fc
I0331 18:46:53.174710 134773 net.cpp:169] Creating Layer loss1/fc
I0331 18:46:53.174715 134773 net.cpp:606] loss1/fc <- loss1/conv
I0331 18:46:53.174721 134773 net.cpp:579] loss1/fc -> loss1/fc
I0331 18:46:53.174724 134773 net.cpp:582] From AppendTop @cpu: 0
I0331 18:46:53.194489 134773 net.cpp:219] Setting up loss1/fc
I0331 18:46:53.194499 134773 net.cpp:226] Top shape: 56 1024 (57344)
I0331 18:46:53.194504 134773 net.cpp:234] Memory required for data: 2207314816
I0331 18:46:53.194511 134773 net.cpp:154] Setting up Layer of device :0 @cpu 0 Layer : loss1/relu_fc
I0331 18:46:53.194515 134773 layer_factory.hpp:114] Creating layer loss1/relu_fc
I0331 18:46:53.194521 134773 net.cpp:169] Creating Layer loss1/relu_fc
I0331 18:46:53.194526 134773 net.cpp:606] loss1/relu_fc <- loss1/fc
I0331 18:46:53.194532 134773 net.cpp:566] loss1/relu_fc -> loss1/fc (in-place)
I0331 18:46:53.194542 134773 net.cpp:219] Setting up loss1/relu_fc
I0331 18:46:53.194548 134773 net.cpp:226] Top shape: 56 1024 (57344)
I0331 18:46:53.194551 134773 net.cpp:234] Memory required for data: 2207544192
I0331 18:46:53.194556 134773 net.cpp:154] Setting up Layer of device :0 @cpu 0 Layer : loss1/drop_fc
I0331 18:46:53.194561 134773 layer_factory.hpp:114] Creating layer loss1/drop_fc
I0331 18:46:53.194578 134773 net.cpp:169] Creating Layer loss1/drop_fc
I0331 18:46:53.194582 134773 net.cpp:606] loss1/drop_fc <- loss1/fc
I0331 18:46:53.194587 134773 net.cpp:566] loss1/drop_fc -> loss1/fc (in-place)
I0331 18:46:53.194602 134773 net.cpp:219] Setting up loss1/drop_fc
I0331 18:46:53.194607 134773 net.cpp:226] Top shape: 56 1024 (57344)
I0331 18:46:53.194610 134773 net.cpp:234] Memory required for data: 2207773568
I0331 18:46:53.194615 134773 net.cpp:154] Setting up Layer of device :0 @cpu 0 Layer : loss1/classifier
I0331 18:46:53.194619 134773 layer_factory.hpp:114] Creating layer loss1/classifier
I0331 18:46:53.194633 134773 net.cpp:169] Creating Layer loss1/classifier
I0331 18:46:53.194638 134773 net.cpp:606] loss1/classifier <- loss1/fc
I0331 18:46:53.194644 134773 net.cpp:579] loss1/classifier -> loss1/classifier
I0331 18:46:53.194650 134773 net.cpp:582] From AppendTop @cpu: 0
I0331 18:46:53.204540 134773 net.cpp:219] Setting up loss1/classifier
I0331 18:46:53.204550 134773 net.cpp:226] Top shape: 56 1000 (56000)
I0331 18:46:53.204555 134773 net.cpp:234] Memory required for data: 2207997568
I0331 18:46:53.204563 134773 net.cpp:154] Setting up Layer of device :0 @cpu 0 Layer : loss1/loss
I0331 18:46:53.204567 134773 layer_factory.hpp:114] Creating layer loss1/loss
I0331 18:46:53.204574 134773 net.cpp:169] Creating Layer loss1/loss
I0331 18:46:53.204579 134773 net.cpp:606] loss1/loss <- loss1/classifier
…
I0331 18:46:53.204872 134773 net.cpp:154] Setting up Layer of device :0 @cpu 0 Layer : inception_4b/1x1
I0331 18:46:53.204888 134773 layer_factory.hpp:114] Creating layer inception_4b/1x1
I0331 18:46:53.204902 134773 net.cpp:169] Creating Layer inception_4b/1x1
I0331 18:46:53.204906 134773 net.cpp:606] inception_4b/1x1 <- inception_4a/output_inception_4a/output_0_split_1
I0331 18:46:53.204915 134773 net.cpp:579] inception_4b/1x1 -> inception_4b/1x1
I0331 18:46:53.204917 134773 net.cpp:582] From AppendTop @cpu: 0
I0331 18:46:53.210003 134773 net.cpp:219] Setting up inception_4b/1x1
I0331 18:46:53.210016 134773 net.cpp:226] Top shape: 56 160 14 14 (1756160)
I0331 18:46:53.210018 134773 net.cpp:234] Memory required for data: 2215022212
I0331 18:46:53.210028 134773 net.cpp:154] Setting up Layer of device :0 @cpu 0 Layer : inception_4b/relu_1x1
I0331 18:46:53.210032 134773 layer_factory.hpp:114] Creating layer inception_4b/relu_1x1
I0331 18:46:53.210038 134773 net.cpp:169] Creating Layer inception_4b/relu_1x1
I0331 18:46:53.210043 134773 net.cpp:606] inception_4b/relu_1x1 <- inception_4b/1x1
I0331 18:46:53.210052 134773 net.cpp:566] inception_4b/relu_1x1 -> inception_4b/1x1 (in-place)
I0331 18:46:53.210059 134773 net.cpp:219] Setting up inception_4b/relu_1x1
I0331 18:46:53.210064 134773 net.cpp:226] Top shape: 56 160 14 14 (1756160)
I0331 18:46:53.210068 134773 net.cpp:234] Memory required for data: 2222046852
I0331 18:46:53.210072 134773 net.cpp:154] Setting up Layer of device :0 @cpu 0 Layer : inception_4b/3x3_reduce
I0331 18:46:53.210077 134773 layer_factory.hpp:114] Creating layer inception_4b/3x3_reduce
I0331 18:46:53.210086 134773 net.cpp:169] Creating Layer inception_4b/3x3_reduce
I0331 18:46:53.210094 134773 net.cpp:606] inception_4b/3x3_reduce <- inception_4a/output_inception_4a/output_0_split_2
I0331 18:46:53.210101 134773 net.cpp:579] inception_4b/3x3_reduce -> inception_4b/3x3_reduce
I0331 18:46:53.210105 134773 net.cpp:582] From AppendTop @cpu: 0
I0331 18:46:53.214174 134773 net.cpp:219] Setting up inception_4b/3x3_reduce
I0331 18:46:53.214186 134773 net.cpp:226] Top shape: 56 112 14 14 (1229312)
I0331 18:46:53.214190 134773 net.cpp:234] Memory required for data: 2226964100
I0331 18:46:53.214198 134773 net.cpp:154] Setting up Layer of device :0 @cpu 0 Layer : inception_4b/relu_3x3_reduce
I0331 18:46:53.214202 134773 layer_factory.hpp:114] Creating layer inception_4b/relu_3x3_reduce
I0331 18:46:53.214210 134773 net.cpp:169] Creating Layer inception_4b/relu_3x3_reduce
I0331 18:46:53.214215 134773 net.cpp:606] inception_4b/relu_3x3_reduce <- inception_4b/3x3_reduce
I0331 18:46:53.214221 134773 net.cpp:566] inception_4b/relu_3x3_reduce -> inception_4b/3x3_reduce (in-place)
I0331 18:46:53.214227 134773 net.cpp:219] Setting up inception_4b/relu_3x3_reduce
I0331 18:46:53.214232 134773 net.cpp:226] Top shape: 56 112 14 14 (1229312)
I0331 18:46:53.214236 134773 net.cpp:234] Memory required for data: 2231881348
I0331 18:46:53.214241 134773 net.cpp:154] Setting up Layer of device :0 @cpu 0 Layer : inception_4b/3x3
I0331 18:46:53.214244 134773 layer_factory.hpp:114] Creating layer inception_4b/3x3
I0331 18:46:53.214256 134773 net.cpp:169] Creating Layer inception_4b/3x3
I0331 18:46:53.214260 134773 net.cpp:606] inception_4b/3x3 <- inception_4b/3x3_reduce
I0331 18:46:53.214268 134773 net.cpp:579] inception_4b/3x3 -> inception_4b/3x3
I0331 18:46:53.214272 134773 net.cpp:582] From AppendTop @cpu: 0
I0331 18:46:53.225293 134773 net.cpp:219] Setting up inception_4b/3x3
I0331 18:46:53.225309 134773 net.cpp:226] Top shape: 56 224 14 14 (2458624)
I0331 18:46:53.225313 134773 net.cpp:234] Memory required for data: 2241715844
I0331 18:46:53.225324 134773 net.cpp:154] Setting up Layer of device :0 @cpu 0 Layer : inception_4b/relu_3x3
I0331 18:46:53.225329 134773 layer_factory.hpp:114] Creating layer inception_4b/relu_3x3
I0331 18:46:53.225338 134773 net.cpp:169] Creating Layer inception_4b/relu_3x3
I0331 18:46:53.225344 134773 net.cpp:606] inception_4b/relu_3x3 <- inception_4b/3x3
I0331 18:46:53.225350 134773 net.cpp:566] inception_4b/relu_3x3 -> inception_4b/3x3 (in-place)
I0331 18:46:53.225358 134773 net.cpp:219] Setting up inception_4b/relu_3x3
I0331 18:46:53.225378 134773 net.cpp:226] Top shape: 56 224 14 14 (2458624)
I0331 18:46:53.225383 134773 net.cpp:234] Memory required for data: 2251550340
I0331 18:46:53.225388 134773 net.cpp:154] Setting up Layer of device :0 @cpu 0 Layer : inception_4b/5x5_reduce
I0331 18:46:53.225391 134773 layer_factory.hpp:114] Creating layer inception_4b/5x5_reduce
I0331 18:46:53.225401 134773 net.cpp:169] Creating Layer inception_4b/5x5_reduce
I0331 18:46:53.225406 134773 net.cpp:606] inception_4b/5x5_reduce <- inception_4a/output_inception_4a/output_0_split_3
I0331 18:46:53.225416 134773 net.cpp:579] inception_4b/5x5_reduce -> inception_4b/5x5_reduce
I0331 18:46:53.225420 134773 net.cpp:582] From AppendTop @cpu: 0
I0331 18:46:53.228106 134773 net.cpp:219] Setting up inception_4b/5x5_reduce
I0331 18:46:53.228118 134773 net.cpp:226] Top shape: 56 24 14 14 (263424)
I0331 18:46:53.228122 134773 net.cpp:234] Memory required for data: 2252604036
I0331 18:46:53.228132 134773 net.cpp:154] Setting up Layer of device :0 @cpu 0 Layer : inception_4b/relu_5x5_reduce
I0331 18:46:53.228135 134773 layer_factory.hpp:114] Creating layer inception_4b/relu_5x5_reduce
I0331 18:46:53.228144 134773 net.cpp:169] Creating Layer inception_4b/relu_5x5_reduce
I0331 18:46:53.228148 134773 net.cpp:606] inception_4b/relu_5x5_reduce <- inception_4b/5x5_reduce
I0331 18:46:53.228154 134773 net.cpp:566] inception_4b/relu_5x5_reduce -> inception_4b/5x5_reduce (in-place)
I0331 18:46:53.228162 134773 net.cpp:219] Setting up inception_4b/relu_5x5_reduce
I0331 18:46:53.228171 134773 net.cpp:226] Top shape: 56 24 14 14 (263424)
I0331 18:46:53.228175 134773 net.cpp:234] Memory required for data: 2253657732
I0331 18:46:53.228179 134773 net.cpp:154] Setting up Layer of device :0 @cpu 0 Layer : inception_4b/5x5
I0331 18:46:53.228183 134773 layer_factory.hpp:114] Creating layer inception_4b/5x5
I0331 18:46:53.228194 134773 net.cpp:169] Creating Layer inception_4b/5x5
I0331 18:46:53.228199 134773 net.cpp:606] inception_4b/5x5 <- inception_4b/5x5_reduce
I0331 18:46:53.228207 134773 net.cpp:579] inception_4b/5x5 -> inception_4b/5x5
I0331 18:46:53.228211 134773 net.cpp:582] From AppendTop @cpu: 0
I0331 18:46:53.232012 134773 net.cpp:219] Setting up inception_4b/5x5
I0331 18:46:53.232023 134773 net.cpp:226] Top shape: 56 64 14 14 (702464)
I0331 18:46:53.232026 134773 net.cpp:234] Memory required for data: 2256467588
I0331 18:46:53.232035 134773 net.cpp:154] Setting up Layer of device :0 @cpu 0 Layer : inception_4b/relu_5x5
I0331 18:46:53.232039 134773 layer_factory.hpp:114] Creating layer inception_4b/relu_5x5
I0331 18:46:53.232048 134773 net.cpp:169] Creating Layer inception_4b/relu_5x5
I0331 18:46:53.232053 134773 net.cpp:606] inception_4b/relu_5x5 <- inception_4b/5x5
I0331 18:46:53.232059 134773 net.cpp:566] inception_4b/relu_5x5 -> inception_4b/5x5 (in-place)
I0331 18:46:53.232065 134773 net.cpp:219] Setting up inception_4b/relu_5x5
I0331 18:46:53.232070 134773 net.cpp:226] Top shape: 56 64 14 14 (702464)
I0331 18:46:53.232074 134773 net.cpp:234] Memory required for data: 2259277444
I0331 18:46:53.232079 134773 net.cpp:154] Setting up Layer of device :0 @cpu 0 Layer : inception_4b/pool
I0331 18:46:53.232082 134773 layer_factory.hpp:114] Creating layer inception_4b/pool
I0331 18:46:53.232117 134773 net.cpp:169] Creating Layer inception_4b/pool
I0331 18:46:53.232122 134773 net.cpp:606] inception_4b/pool <- inception_4a/output_inception_4a/output_0_split_4
I0331 18:46:53.232131 134773 net.cpp:579] inception_4b/pool -> inception_4b/pool
I0331 18:46:53.232136 134773 net.cpp:582] From AppendTop @cpu: 0
I0331 18:46:53.232153 134773 net.cpp:219] Setting up inception_4b/pool
I0331 18:46:53.232161 134773 net.cpp:226] Top shape: 56 512 14 14 (5619712)
I0331 18:46:53.232164 134773 net.cpp:234] Memory required for data: 2281756292
I0331 18:46:53.232169 134773 net.cpp:154] Setting up Layer of device :0 @cpu 0 Layer : inception_4b/pool_proj
I0331 18:46:53.232173 134773 layer_factory.hpp:114] Creating layer inception_4b/pool_proj
I0331 18:46:53.232185 134773 net.cpp:169] Creating Layer inception_4b/pool_proj
I0331 18:46:53.232198 134773 net.cpp:606] inception_4b/pool_proj <- inception_4b/pool
I0331 18:46:53.232208 134773 net.cpp:579] inception_4b/pool_proj -> inception_4b/pool_proj
I0331 18:46:53.232210 134773 net.cpp:582] From AppendTop @cpu: 0
I0331 18:46:53.236250 134773 net.cpp:219] Setting up inception_4b/pool_proj
I0331 18:46:53.236261 134773 net.cpp:226] Top shape: 56 64 14 14 (702464)
I0331 18:46:53.236265 134773 net.cpp:234] Memory required for data: 2284566148
I0331 18:46:53.236274 134773 net.cpp:154] Setting up Layer of device :0 @cpu 0 Layer : inception_4b/relu_pool_proj
I0331 18:46:53.236279 134773 layer_factory.hpp:114] Creating layer inception_4b/relu_pool_proj
I0331 18:46:53.236287 134773 net.cpp:169] Creating Layer inception_4b/relu_pool_proj
I0331 18:46:53.236292 134773 net.cpp:606] inception_4b/relu_pool_proj <- inception_4b/pool_proj
I0331 18:46:53.236299 134773 net.cpp:566] inception_4b/relu_pool_proj -> inception_4b/pool_proj (in-place)
I0331 18:46:53.236305 134773 net.cpp:219] Setting up inception_4b/relu_pool_proj
I0331 18:46:53.236310 134773 net.cpp:226] Top shape: 56 64 14 14 (702464)
I0331 18:46:53.236315 134773 net.cpp:234] Memory required for data: 2287376004
I0331 18:46:53.236318 134773 net.cpp:154] Setting up Layer of device :0 @cpu 0 Layer : inception_4b/output
I0331 18:46:53.236323 134773 layer_factory.hpp:114] Creating layer inception_4b/output
I0331 18:46:53.236333 134773 net.cpp:169] Creating Layer inception_4b/output
I0331 18:46:53.236338 134773 net.cpp:606] inception_4b/output <- inception_4b/1x1
I0331 18:46:53.236347 134773 net.cpp:606] inception_4b/output <- inception_4b/3x3
I0331 18:46:53.236352 134773 net.cpp:606] inception_4b/output <- inception_4b/5x5
I0331 18:46:53.236357 134773 net.cpp:606] inception_4b/output <- inception_4b/pool_proj
I0331 18:46:53.236363 134773 net.cpp:579] inception_4b/output -> inception_4b/output
I0331 18:46:53.236367 134773 net.cpp:582] From AppendTop @cpu: 0
I0331 18:46:53.236377 134773 net.cpp:219] Setting up inception_4b/output
I0331 18:46:53.236382 134773 net.cpp:226] Top shape: 56 512 14 14 (5619712)
I0331 18:46:53.236387 134773 net.cpp:234] Memory required for data: 2309854852
I0331 18:46:53.236392 134773 net.cpp:154] Setting up Layer of device :0 @cpu 0 Layer : inception_4b/output_inception_4b/output_0_split
I0331 18:46:53.236395 134773 layer_factory.hpp:114] Creating layer inception_4b/output_inception_4b/output_0_split
I0331 18:46:53.236403 134773 net.cpp:169] Creating Layer inception_4b/output_inception_4b/output_0_split
…
I0331 18:46:53.236429 134773 net.cpp:582] From AppendTop @cpu: 0
I0331 18:46:53.236435 134773 net.cpp:579] inception_4b/output_inception_4b/output_0_split -> inception_4b/output_inception_4b/output_0_split_2
I0331 18:46:53.236438 134773 net.cpp:582] From AppendTop @cpu: 0
I0331 18:46:53.236445 134773 net.cpp:579] inception_4b/output_inception_4b/output_0_split -> inception_4b/output_inception_4b/output_0_split_3
I0331 18:46:53.236449 134773 net.cpp:582] From AppendTop @cpu: 0
I0331 18:46:53.236459 134773 net.cpp:219] Setting up inception_4b/output_inception_4b/output_0_split
I0331 18:46:53.236464 134773 net.cpp:226] Top shape: 56 512 14 14 (5619712)
I0331 18:46:53.236469 134773 net.cpp:226] Top shape: 56 512 14 14 (5619712)
I0331 18:46:53.236474 134773 net.cpp:226] Top shape: 56 512 14 14 (5619712)
I0331 18:46:53.236477 134773 net.cpp:226] Top shape: 56 512 14 14 (5619712)
I0331 18:46:53.236481 134773 net.cpp:234] Memory required for data: 2399770244
I0331 18:46:53.236485 134773 net.cpp:154] Setting up Layer of device :0 @cpu 0 Layer : inception_4c/1x1
I0331 18:46:53.236497 134773 layer_factory.hpp:114] Creating layer inception_4c/1x1
I0331 18:46:53.236508 134773 net.cpp:169] Creating Layer inception_4c/1x1
I0331 18:46:53.236513 134773 net.cpp:606] inception_4c/1x1 <- inception_4b/output_inception_4b/output_0_split_0
I0331 18:46:53.236523 134773 net.cpp:579] inception_4c/1x1 -> inception_4c/1x1
I0331 18:46:53.236526 134773 net.cpp:582] From AppendTop @cpu: 0
I0331 18:46:53.240917 134773 net.cpp:219] Setting up inception_4c/1x1
I0331 18:46:53.240928 134773 net.cpp:226] Top shape: 56 128 14 14 (1404928)
I0331 18:46:53.240932 134773 net.cpp:234] Memory required for data: 2405389956
I0331 18:46:53.240942 134773 net.cpp:154] Setting up Layer of device :0 @cpu 0 Layer : inception_4c/relu_1x1
I0331 18:46:53.240945 134773 layer_factory.hpp:114] Creating layer inception_4c/relu_1x1
I0331 18:46:53.240952 134773 net.cpp:169] Creating Layer inception_4c/relu_1x1
I0331 18:46:53.240955 134773 net.cpp:606] inception_4c/relu_1x1 <- inception_4c/1x1
I0331 18:46:53.240964 134773 net.cpp:566] inception_4c/relu_1x1 -> inception_4c/1x1 (in-place)
I0331 18:46:53.240972 134773 net.cpp:219] Setting up inception_4c/relu_1x1
I0331 18:46:53.240977 134773 net.cpp:226] Top shape: 56 128 14 14 (1404928)
I0331 18:46:53.240980 134773 net.cpp:234] Memory required for data: 2411009668
I0331 18:46:53.240985 134773 net.cpp:154] Setting up Layer of device :0 @cpu 0 Layer : inception_4c/3x3_reduce
I0331 18:46:53.240989 134773 layer_factory.hpp:114] Creating layer inception_4c/3x3_reduce
I0331 18:46:53.241004 134773 net.cpp:169] Creating Layer inception_4c/3x3_reduce
I0331 18:46:53.241009 134773 net.cpp:606] inception_4c/3x3_reduce <- inception_4b/output_inception_4b/output_0_split_1
I0331 18:46:53.241015 134773 net.cpp:579] inception_4c/3x3_reduce -> inception_4c/3x3_reduce
I0331 18:46:53.241019 134773 net.cpp:582] From AppendTop @cpu: 0
I0331 18:46:53.245919 134773 net.cpp:219] Setting up inception_4c/3x3_reduce
I0331 18:46:53.245930 134773 net.cpp:226] Top shape: 56 128 14 14 (1404928)
I0331 18:46:53.245934 134773 net.cpp:234] Memory required for data: 2416629380
I0331 18:46:53.245944 134773 net.cpp:154] Setting up Layer of device :0 @cpu 0 Layer : inception_4c/relu_3x3_reduce
I0331 18:46:53.245947 134773 layer_factory.hpp:114] Creating layer inception_4c/relu_3x3_reduce
I0331 18:46:53.245954 134773 net.cpp:169] Creating Layer inception_4c/relu_3x3_reduce
I0331 18:46:53.245959 134773 net.cpp:606] inception_4c/relu_3x3_reduce <- inception_4c/3x3_reduce
I0331 18:46:53.245965 134773 net.cpp:566] inception_4c/relu_3x3_reduce -> inception_4c/3x3_reduce (in-place)
I0331 18:46:53.245970 134773 net.cpp:219] Setting up inception_4c/relu_3x3_reduce
I0331 18:46:53.245976 134773 net.cpp:226] Top shape: 56 128 14 14 (1404928)
I0331 18:46:53.245980 134773 net.cpp:234] Memory required for data: 2422249092
I0331 18:46:53.245985 134773 net.cpp:154] Setting up Layer of device :0 @cpu 0 Layer : inception_4c/3x3
I0331 18:46:53.245988 134773 layer_factory.hpp:114] Creating layer inception_4c/3x3
I0331 18:46:53.245998 134773 net.cpp:169] Creating Layer inception_4c/3x3
I0331 18:46:53.246002 134773 net.cpp:606] inception_4c/3x3 <- inception_4c/3x3_reduce
I0331 18:46:53.246009 134773 net.cpp:579] inception_4c/3x3 -> inception_4c/3x3
I0331 18:46:53.246013 134773 net.cpp:582] From AppendTop @cpu: 0
I0331 18:46:53.259239 134773 net.cpp:219] Setting up inception_4c/3x3
I0331 18:46:53.259259 134773 net.cpp:226] Top shape: 56 256 14 14 (2809856)
I0331 18:46:53.259263 134773 net.cpp:234] Memory required for data: 2433488516
I0331 18:46:53.259289 134773 net.cpp:154] Setting up Layer of device :0 @cpu 0 Layer : inception_4c/relu_3x3
I0331 18:46:53.259294 134773 layer_factory.hpp:114] Creating layer inception_4c/relu_3x3
I0331 18:46:53.259305 134773 net.cpp:169] Creating Layer inception_4c/relu_3x3
I0331 18:46:53.259312 134773 net.cpp:606] inception_4c/relu_3x3 <- inception_4c/3x3
I0331 18:46:53.259320 134773 net.cpp:566] inception_4c/relu_3x3 -> inception_4c/3x3 (in-place)
I0331 18:46:53.259330 134773 net.cpp:219] Setting up inception_4c/relu_3x3
I0331 18:46:53.259354 134773 net.cpp:226] Top shape: 56 256 14 14 (2809856)
I0331 18:46:53.259358 134773 net.cpp:234] Memory required for data: 2444727940
I0331 18:46:53.259363 134773 net.cpp:154] Setting up Layer of device :0 @cpu 0 Layer : inception_4c/5x5_reduce
I0331 18:46:53.259368 134773 layer_factory.hpp:114] Creating layer inception_4c/5x5_reduce
I0331 18:46:53.259378 134773 net.cpp:169] Creating Layer inception_4c/5x5_reduce
I0331 18:46:53.259383 134773 net.cpp:606] inception_4c/5x5_reduce <- inception_4b/output_inception_4b/output_0_split_2
I0331 18:46:53.259394 134773 net.cpp:579] inception_4c/5x5_reduce -> inception_4c/5x5_reduce
I0331 18:46:53.259397 134773 net.cpp:582] From AppendTop @cpu: 0
I0331 18:46:53.262569 134773 net.cpp:219] Setting up inception_4c/5x5_reduce
I0331 18:46:53.262581 134773 net.cpp:226] Top shape: 56 24 14 14 (263424)
I0331 18:46:53.262584 134773 net.cpp:234] Memory required for data: 2445781636
I0331 18:46:53.262593 134773 net.cpp:154] Setting up Layer of device :0 @cpu 0 Layer : inception_4c/relu_5x5_reduce
I0331 18:46:53.262598 134773 layer_factory.hpp:114] Creating layer inception_4c/relu_5x5_reduce
I0331 18:46:53.262604 134773 net.cpp:169] Creating Layer inception_4c/relu_5x5_reduce
I0331 18:46:53.262611 134773 net.cpp:606] inception_4c/relu_5x5_reduce <- inception_4c/5x5_reduce
I0331 18:46:53.262617 134773 net.cpp:566] inception_4c/relu_5x5_reduce -> inception_4c/5x5_reduce (in-place)
I0331 18:46:53.262627 134773 net.cpp:219] Setting up inception_4c/relu_5x5_reduce
I0331 18:46:53.262639 134773 net.cpp:226] Top shape: 56 24 14 14 (263424)
I0331 18:46:53.262643 134773 net.cpp:234] Memory required for data: 2446835332
I0331 18:46:53.262648 134773 net.cpp:154] Setting up Layer of device :0 @cpu 0 Layer : inception_4c/5x5
I0331 18:46:53.262652 134773 layer_factory.hpp:114] Creating layer inception_4c/5x5
I0331 18:46:53.262668 134773 net.cpp:169] Creating Layer inception_4c/5x5
I0331 18:46:53.262672 134773 net.cpp:606] inception_4c/5x5 <- inception_4c/5x5_reduce
I0331 18:46:53.262681 134773 net.cpp:579] inception_4c/5x5 -> inception_4c/5x5
I0331 18:46:53.262684 134773 net.cpp:582] From AppendTop @cpu: 0
I0331 18:46:53.266971 134773 net.cpp:219] Setting up inception_4c/5x5
I0331 18:46:53.266983 134773 net.cpp:226] Top shape: 56 64 14 14 (702464)
I0331 18:46:53.266986 134773 net.cpp:234] Memory required for data: 2449645188
I0331 18:46:53.266994 134773 net.cpp:154] Setting up Layer of device :0 @cpu 0 Layer : inception_4c/relu_5x5
I0331 18:46:53.266999 134773 layer_factory.hpp:114] Creating layer inception_4c/relu_5x5
I0331 18:46:53.267005 134773 net.cpp:169] Creating Layer inception_4c/relu_5x5
I0331 18:46:53.267012 134773 net.cpp:606] inception_4c/relu_5x5 <- inception_4c/5x5
I0331 18:46:53.267019 134773 net.cpp:566] inception_4c/relu_5x5 -> inception_4c/5x5 (in-place)
I0331 18:46:53.267025 134773 net.cpp:219] Setting up inception_4c/relu_5x5
I0331 18:46:53.267030 134773 net.cpp:226] Top shape: 56 64 14 14 (702464)
I0331 18:46:53.267035 134773 net.cpp:234] Memory required for data: 2452455044
I0331 18:46:53.267038 134773 net.cpp:154] Setting up Layer of device :0 @cpu 0 Layer : inception_4c/pool
I0331 18:46:53.267043 134773 layer_factory.hpp:114] Creating layer inception_4c/pool
I0331 18:46:53.267076 134773 net.cpp:169] Creating Layer inception_4c/pool
I0331 18:46:53.267081 134773 net.cpp:606] inception_4c/pool <- inception_4b/output_inception_4b/output_0_split_3
I0331 18:46:53.267089 134773 net.cpp:579] inception_4c/pool -> inception_4c/pool
I0331 18:46:53.267093 134773 net.cpp:582] From AppendTop @cpu: 0
I0331 18:46:53.267105 134773 net.cpp:219] Setting up inception_4c/pool
I0331 18:46:53.267110 134773 net.cpp:226] Top shape: 56 512 14 14 (5619712)
I0331 18:46:53.267114 134773 net.cpp:234] Memory required for data: 2474933892
I0331 18:46:53.267119 134773 net.cpp:154] Setting up Layer of device :0 @cpu 0 Layer : inception_4c/pool_proj
I0331 18:46:53.267122 134773 layer_factory.hpp:114] Creating layer inception_4c/pool_proj
I0331 18:46:53.267134 134773 net.cpp:169] Creating Layer inception_4c/pool_proj
I0331 18:46:53.267148 134773 net.cpp:606] inception_4c/pool_proj <- inception_4c/pool
I0331 18:46:53.267163 134773 net.cpp:579] inception_4c/pool_proj -> inception_4c/pool_proj
I0331 18:46:53.267166 134773 net.cpp:582] From AppendTop @cpu: 0
I0331 18:46:53.270678 134773 net.cpp:219] Setting up inception_4c/pool_proj
I0331 18:46:53.270689 134773 net.cpp:226] Top shape: 56 64 14 14 (702464)
I0331 18:46:53.270694 134773 net.cpp:234] Memory required for data: 2477743748
I0331 18:46:53.270702 134773 net.cpp:154] Setting up Layer of device :0 @cpu 0 Layer : inception_4c/relu_pool_proj
I0331 18:46:53.270706 134773 layer_factory.hpp:114] Creating layer inception_4c/relu_pool_proj
I0331 18:46:53.270714 134773 net.cpp:169] Creating Layer inception_4c/relu_pool_proj
I0331 18:46:53.270720 134773 net.cpp:606] inception_4c/relu_pool_proj <- inception_4c/pool_proj
I0331 18:46:53.270725 134773 net.cpp:566] inception_4c/relu_pool_proj -> inception_4c/pool_proj (in-place)
I0331 18:46:53.270732 134773 net.cpp:219] Setting up inception_4c/relu_pool_proj
I0331 18:46:53.270737 134773 net.cpp:226] Top shape: 56 64 14 14 (702464)
I0331 18:46:53.270741 134773 net.cpp:234] Memory required for data: 2480553604
I0331 18:46:53.270745 134773 net.cpp:154] Setting up Layer of device :0 @cpu 0 Layer : inception_4c/output
I0331 18:46:53.270750 134773 layer_factory.hpp:114] Creating layer inception_4c/output
I0331 18:46:53.270758 134773 net.cpp:169] Creating Layer inception_4c/output
I0331 18:46:53.270762 134773 net.cpp:606] inception_4c/output <- inception_4c/1x1
I0331 18:46:53.270772 134773 net.cpp:606] inception_4c/output <- inception_4c/3x3
I0331 18:46:53.270777 134773 net.cpp:606] inception_4c/output <- inception_4c/5x5
I0331 18:46:53.270782 134773 net.cpp:606] inception_4c/output <- inception_4c/pool_proj
I0331 18:46:53.270790 134773 net.cpp:579] inception_4c/output -> inception_4c/output
I0331 18:46:53.270794 134773 net.cpp:582] From AppendTop @cpu: 0
I0331 18:46:53.270803 134773 net.cpp:219] Setting up inception_4c/output
I0331 18:46:53.270809 134773 net.cpp:226] Top shape: 56 512 14 14 (5619712)
I0331 18:46:53.270812 134773 net.cpp:234] Memory required for data: 2503032452
I0331 18:46:53.270817 134773 net.cpp:154] Setting up Layer of device :0 @cpu 0 Layer : inception_4c/output_inception_4c/output_0_split
I0331 18:46:53.270822 134773 layer_factory.hpp:114] Creating layer inception_4c/output_inception_4c/output_0_split
I0331 18:46:53.270829 134773 net.cpp:169] Creating Layer inception_4c/output_inception_4c/output_0_split
…
I0331 18:46:53.270856 134773 net.cpp:582] From AppendTop @cpu: 0
I0331 18:46:53.270862 134773 net.cpp:579] inception_4c/output_inception_4c/output_0_split -> inception_4c/output_inception_4c/output_0_split_2
I0331 18:46:53.270865 134773 net.cpp:582] From AppendTop @cpu: 0
I0331 18:46:53.270871 134773 net.cpp:579] inception_4c/output_inception_4c/output_0_split -> inception_4c/output_inception_4c/output_0_split_3
I0331 18:46:53.270875 134773 net.cpp:582] From AppendTop @cpu: 0
I0331 18:46:53.270884 134773 net.cpp:219] Setting up inception_4c/output_inception_4c/output_0_split
I0331 18:46:53.270889 134773 net.cpp:226] Top shape: 56 512 14 14 (5619712)
I0331 18:46:53.270894 134773 net.cpp:226] Top shape: 56 512 14 14 (5619712)
I0331 18:46:53.270898 134773 net.cpp:226] Top shape: 56 512 14 14 (5619712)
I0331 18:46:53.270902 134773 net.cpp:226] Top shape: 56 512 14 14 (5619712)
I0331 18:46:53.270906 134773 net.cpp:234] Memory required for data: 2592947844
I0331 18:46:53.270910 134773 net.cpp:154] Setting up Layer of device :0 @cpu 0 Layer : inception_4d/1x1
I0331 18:46:53.270922 134773 layer_factory.hpp:114] Creating layer inception_4d/1x1
I0331 18:46:53.270936 134773 net.cpp:169] Creating Layer inception_4d/1x1
I0331 18:46:53.270941 134773 net.cpp:606] inception_4d/1x1 <- inception_4c/output_inception_4c/output_0_split_0
I0331 18:46:53.270946 134773 net.cpp:579] inception_4d/1x1 -> inception_4d/1x1
I0331 18:46:53.270951 134773 net.cpp:582] From AppendTop @cpu: 0
I0331 18:46:53.275488 134773 net.cpp:219] Setting up inception_4d/1x1
I0331 18:46:53.275499 134773 net.cpp:226] Top shape: 56 112 14 14 (1229312)
I0331 18:46:53.275503 134773 net.cpp:234] Memory required for data: 2597865092
I0331 18:46:53.275512 134773 net.cpp:154] Setting up Layer of device :0 @cpu 0 Layer : inception_4d/relu_1x1
I0331 18:46:53.275516 134773 layer_factory.hpp:114] Creating layer inception_4d/relu_1x1
I0331 18:46:53.275522 134773 net.cpp:169] Creating Layer inception_4d/relu_1x1
I0331 18:46:53.275527 134773 net.cpp:606] inception_4d/relu_1x1 <- inception_4d/1x1
I0331 18:46:53.275535 134773 net.cpp:566] inception_4d/relu_1x1 -> inception_4d/1x1 (in-place)
I0331 18:46:53.275543 134773 net.cpp:219] Setting up inception_4d/relu_1x1
I0331 18:46:53.275548 134773 net.cpp:226] Top shape: 56 112 14 14 (1229312)
I0331 18:46:53.275552 134773 net.cpp:234] Memory required for data: 2602782340
I0331 18:46:53.275557 134773 net.cpp:154] Setting up Layer of device :0 @cpu 0 Layer : inception_4d/3x3_reduce
I0331 18:46:53.275560 134773 layer_factory.hpp:114] Creating layer inception_4d/3x3_reduce
I0331 18:46:53.275575 134773 net.cpp:169] Creating Layer inception_4d/3x3_reduce
I0331 18:46:53.275580 134773 net.cpp:606] inception_4d/3x3_reduce <- inception_4c/output_inception_4c/output_0_split_1
I0331 18:46:53.275593 134773 net.cpp:579] inception_4d/3x3_reduce -> inception_4d/3x3_reduce
I0331 18:46:53.275598 134773 net.cpp:582] From AppendTop @cpu: 0
I0331 18:46:53.280310 134773 net.cpp:219] Setting up inception_4d/3x3_reduce
I0331 18:46:53.280323 134773 net.cpp:226] Top shape: 56 144 14 14 (1580544)
I0331 18:46:53.280325 134773 net.cpp:234] Memory required for data: 2609104516
I0331 18:46:53.280334 134773 net.cpp:154] Setting up Layer of device :0 @cpu 0 Layer : inception_4d/relu_3x3_reduce
I0331 18:46:53.280339 134773 layer_factory.hpp:114] Creating layer inception_4d/relu_3x3_reduce
I0331 18:46:53.280345 134773 net.cpp:169] Creating Layer inception_4d/relu_3x3_reduce
I0331 18:46:53.280350 134773 net.cpp:606] inception_4d/relu_3x3_reduce <- inception_4d/3x3_reduce
I0331 18:46:53.280359 134773 net.cpp:566] inception_4d/relu_3x3_reduce -> inception_4d/3x3_reduce (in-place)
I0331 18:46:53.280366 134773 net.cpp:219] Setting up inception_4d/relu_3x3_reduce
I0331 18:46:53.280371 134773 net.cpp:226] Top shape: 56 144 14 14 (1580544)
I0331 18:46:53.280375 134773 net.cpp:234] Memory required for data: 2615426692
I0331 18:46:53.280380 134773 net.cpp:154] Setting up Layer of device :0 @cpu 0 Layer : inception_4d/3x3
I0331 18:46:53.280383 134773 layer_factory.hpp:114] Creating layer inception_4d/3x3
I0331 18:46:53.280391 134773 net.cpp:169] Creating Layer inception_4d/3x3
I0331 18:46:53.280395 134773 net.cpp:606] inception_4d/3x3 <- inception_4d/3x3_reduce
I0331 18:46:53.280401 134773 net.cpp:579] inception_4d/3x3 -> inception_4d/3x3
I0331 18:46:53.280405 134773 net.cpp:582] From AppendTop @cpu: 0
I0331 18:46:53.296262 134773 net.cpp:219] Setting up inception_4d/3x3
I0331 18:46:53.296288 134773 net.cpp:226] Top shape: 56 288 14 14 (3161088)
I0331 18:46:53.296293 134773 net.cpp:234] Memory required for data: 2628071044
I0331 18:46:53.296305 134773 net.cpp:154] Setting up Layer of device :0 @cpu 0 Layer : inception_4d/relu_3x3
I0331 18:46:53.296311 134773 layer_factory.hpp:114] Creating layer inception_4d/relu_3x3
I0331 18:46:53.296321 134773 net.cpp:169] Creating Layer inception_4d/relu_3x3
I0331 18:46:53.296329 134773 net.cpp:606] inception_4d/relu_3x3 <- inception_4d/3x3
I0331 18:46:53.296336 134773 net.cpp:566] inception_4d/relu_3x3 -> inception_4d/3x3 (in-place)
I0331 18:46:53.296346 134773 net.cpp:219] Setting up inception_4d/relu_3x3
I0331 18:46:53.296372 134773 net.cpp:226] Top shape: 56 288 14 14 (3161088)
I0331 18:46:53.296376 134773 net.cpp:234] Memory required for data: 2640715396
I0331 18:46:53.296381 134773 net.cpp:154] Setting up Layer of device :0 @cpu 0 Layer : inception_4d/5x5_reduce
I0331 18:46:53.296386 134773 layer_factory.hpp:114] Creating layer inception_4d/5x5_reduce
I0331 18:46:53.296399 134773 net.cpp:169] Creating Layer inception_4d/5x5_reduce
I0331 18:46:53.296404 134773 net.cpp:606] inception_4d/5x5_reduce <- inception_4c/output_inception_4c/output_0_split_2
I0331 18:46:53.296414 134773 net.cpp:579] inception_4d/5x5_reduce -> inception_4d/5x5_reduce
I0331 18:46:53.296418 134773 net.cpp:582] From AppendTop @cpu: 0
I0331 18:46:53.299257 134773 net.cpp:219] Setting up inception_4d/5x5_reduce
I0331 18:46:53.299268 134773 net.cpp:226] Top shape: 56 32 14 14 (351232)
I0331 18:46:53.299271 134773 net.cpp:234] Memory required for data: 2642120324
I0331 18:46:53.299279 134773 net.cpp:154] Setting up Layer of device :0 @cpu 0 Layer : inception_4d/relu_5x5_reduce
I0331 18:46:53.299284 134773 layer_factory.hpp:114] Creating layer inception_4d/relu_5x5_reduce
I0331 18:46:53.299299 134773 net.cpp:169] Creating Layer inception_4d/relu_5x5_reduce
I0331 18:46:53.299304 134773 net.cpp:606] inception_4d/relu_5x5_reduce <- inception_4d/5x5_reduce
I0331 18:46:53.299309 134773 net.cpp:566] inception_4d/relu_5x5_reduce -> inception_4d/5x5_reduce (in-place)
I0331 18:46:53.299316 134773 net.cpp:219] Setting up inception_4d/relu_5x5_reduce
I0331 18:46:53.299326 134773 net.cpp:226] Top shape: 56 32 14 14 (351232)
I0331 18:46:53.299330 134773 net.cpp:234] Memory required for data: 2643525252
I0331 18:46:53.299335 134773 net.cpp:154] Setting up Layer of device :0 @cpu 0 Layer : inception_4d/5x5
I0331 18:46:53.299340 134773 layer_factory.hpp:114] Creating layer inception_4d/5x5
I0331 18:46:53.299350 134773 net.cpp:169] Creating Layer inception_4d/5x5
I0331 18:46:53.299355 134773 net.cpp:606] inception_4d/5x5 <- inception_4d/5x5_reduce
I0331 18:46:53.299362 134773 net.cpp:579] inception_4d/5x5 -> inception_4d/5x5
I0331 18:46:53.299366 134773 net.cpp:582] From AppendTop @cpu: 0
I0331 18:46:53.304399 134773 net.cpp:219] Setting up inception_4d/5x5
I0331 18:46:53.304409 134773 net.cpp:226] Top shape: 56 64 14 14 (702464)
I0331 18:46:53.304414 134773 net.cpp:234] Memory required for data: 2646335108
I0331 18:46:53.304422 134773 net.cpp:154] Setting up Layer of device :0 @cpu 0 Layer : inception_4d/relu_5x5
I0331 18:46:53.304426 134773 layer_factory.hpp:114] Creating layer inception_4d/relu_5x5
I0331 18:46:53.304435 134773 net.cpp:169] Creating Layer inception_4d/relu_5x5
I0331 18:46:53.304440 134773 net.cpp:606] inception_4d/relu_5x5 <- inception_4d/5x5
I0331 18:46:53.304445 134773 net.cpp:566] inception_4d/relu_5x5 -> inception_4d/5x5 (in-place)
I0331 18:46:53.304452 134773 net.cpp:219] Setting up inception_4d/relu_5x5
I0331 18:46:53.304457 134773 net.cpp:226] Top shape: 56 64 14 14 (702464)
I0331 18:46:53.304461 134773 net.cpp:234] Memory required for data: 2649144964
I0331 18:46:53.304466 134773 net.cpp:154] Setting up Layer of device :0 @cpu 0 Layer : inception_4d/pool
I0331 18:46:53.304471 134773 layer_factory.hpp:114] Creating layer inception_4d/pool
I0331 18:46:53.304505 134773 net.cpp:169] Creating Layer inception_4d/pool
I0331 18:46:53.304510 134773 net.cpp:606] inception_4d/pool <- inception_4c/output_inception_4c/output_0_split_3
I0331 18:46:53.304519 134773 net.cpp:579] inception_4d/pool -> inception_4d/pool
I0331 18:46:53.304522 134773 net.cpp:582] From AppendTop @cpu: 0
I0331 18:46:53.304534 134773 net.cpp:219] Setting up inception_4d/pool
I0331 18:46:53.304539 134773 net.cpp:226] Top shape: 56 512 14 14 (5619712)
I0331 18:46:53.304543 134773 net.cpp:234] Memory required for data: 2671623812
I0331 18:46:53.304548 134773 net.cpp:154] Setting up Layer of device :0 @cpu 0 Layer : inception_4d/pool_proj
I0331 18:46:53.304551 134773 layer_factory.hpp:114] Creating layer inception_4d/pool_proj
I0331 18:46:53.304563 134773 net.cpp:169] Creating Layer inception_4d/pool_proj
I0331 18:46:53.304577 134773 net.cpp:606] inception_4d/pool_proj <- inception_4d/pool
I0331 18:46:53.304590 134773 net.cpp:579] inception_4d/pool_proj -> inception_4d/pool_proj
I0331 18:46:53.304594 134773 net.cpp:582] From AppendTop @cpu: 0
I0331 18:46:53.308096 134773 net.cpp:219] Setting up inception_4d/pool_proj
I0331 18:46:53.308109 134773 net.cpp:226] Top shape: 56 64 14 14 (702464)
I0331 18:46:53.308112 134773 net.cpp:234] Memory required for data: 2674433668
I0331 18:46:53.308122 134773 net.cpp:154] Setting up Layer of device :0 @cpu 0 Layer : inception_4d/relu_pool_proj
I0331 18:46:53.308126 134773 layer_factory.hpp:114] Creating layer inception_4d/relu_pool_proj
I0331 18:46:53.308132 134773 net.cpp:169] Creating Layer inception_4d/relu_pool_proj
I0331 18:46:53.308136 134773 net.cpp:606] inception_4d/relu_pool_proj <- inception_4d/pool_proj
I0331 18:46:53.308142 134773 net.cpp:566] inception_4d/relu_pool_proj -> inception_4d/pool_proj (in-place)
I0331 18:46:53.308149 134773 net.cpp:219] Setting up inception_4d/relu_pool_proj
I0331 18:46:53.308154 134773 net.cpp:226] Top shape: 56 64 14 14 (702464)
I0331 18:46:53.308157 134773 net.cpp:234] Memory required for data: 2677243524
I0331 18:46:53.308162 134773 net.cpp:154] Setting up Layer of device :0 @cpu 0 Layer : inception_4d/output
I0331 18:46:53.308166 134773 layer_factory.hpp:114] Creating layer inception_4d/output
I0331 18:46:53.308174 134773 net.cpp:169] Creating Layer inception_4d/output
I0331 18:46:53.308179 134773 net.cpp:606] inception_4d/output <- inception_4d/1x1
I0331 18:46:53.308188 134773 net.cpp:606] inception_4d/output <- inception_4d/3x3
I0331 18:46:53.308193 134773 net.cpp:606] inception_4d/output <- inception_4d/5x5
I0331 18:46:53.308198 134773 net.cpp:606] inception_4d/output <- inception_4d/pool_proj
I0331 18:46:53.308207 134773 net.cpp:579] inception_4d/output -> inception_4d/output
I0331 18:46:53.308210 134773 net.cpp:582] From AppendTop @cpu: 0
I0331 18:46:53.308221 134773 net.cpp:219] Setting up inception_4d/output
I0331 18:46:53.308226 134773 net.cpp:226] Top shape: 56 528 14 14 (5795328)
I0331 18:46:53.308230 134773 net.cpp:234] Memory required for data: 2700424836
I0331 18:46:53.308234 134773 net.cpp:154] Setting up Layer of device :0 @cpu 0 Layer : inception_4d/output_inception_4d/output_0_split
I0331 18:46:53.308238 134773 layer_factory.hpp:114] Creating layer inception_4d/output_inception_4d/output_0_split
I0331 18:46:53.308250 134773 net.cpp:169] Creating Layer inception_4d/output_inception_4d/output_0_split
…
I0331 18:46:53.308285 134773 net.cpp:582] From AppendTop @cpu: 0
I0331 18:46:53.308292 134773 net.cpp:579] inception_4d/output_inception_4d/output_0_split -> inception_4d/output_inception_4d/output_0_split_3
I0331 18:46:53.308295 134773 net.cpp:582] From AppendTop @cpu: 0
I0331 18:46:53.308303 134773 net.cpp:579] inception_4d/output_inception_4d/output_0_split -> inception_4d/output_inception_4d/output_0_split_4
I0331 18:46:53.308307 134773 net.cpp:582] From AppendTop @cpu: 0
I0331 18:46:53.308316 134773 net.cpp:219] Setting up inception_4d/output_inception_4d/output_0_split
I0331 18:46:53.308321 134773 net.cpp:226] Top shape: 56 528 14 14 (5795328)
I0331 18:46:53.308326 134773 net.cpp:226] Top shape: 56 528 14 14 (5795328)
I0331 18:46:53.308331 134773 net.cpp:226] Top shape: 56 528 14 14 (5795328)
I0331 18:46:53.308336 134773 net.cpp:226] Top shape: 56 528 14 14 (5795328)
I0331 18:46:53.308353 134773 net.cpp:226] Top shape: 56 528 14 14 (5795328)
I0331 18:46:53.308357 134773 net.cpp:234] Memory required for data: 2816331396
I0331 18:46:53.308362 134773 net.cpp:154] Setting up Layer of device :0 @cpu 0 Layer : loss2/ave_pool
I0331 18:46:53.308367 134773 layer_factory.hpp:114] Creating layer loss2/ave_pool
I0331 18:46:53.308387 134773 net.cpp:169] Creating Layer loss2/ave_pool
I0331 18:46:53.308393 134773 net.cpp:606] loss2/ave_pool <- inception_4d/output_inception_4d/output_0_split_0
I0331 18:46:53.308400 134773 net.cpp:579] loss2/ave_pool -> loss2/ave_pool
I0331 18:46:53.308404 134773 net.cpp:582] From AppendTop @cpu: 0
I0331 18:46:53.308413 134773 net.cpp:219] Setting up loss2/ave_pool
I0331 18:46:53.308418 134773 net.cpp:226] Top shape: 56 528 4 4 (473088)
I0331 18:46:53.308421 134773 net.cpp:234] Memory required for data: 2818223748
I0331 18:46:53.308425 134773 net.cpp:154] Setting up Layer of device :0 @cpu 0 Layer : loss2/conv
I0331 18:46:53.308429 134773 layer_factory.hpp:114] Creating layer loss2/conv
I0331 18:46:53.308441 134773 net.cpp:169] Creating Layer loss2/conv
I0331 18:46:53.308445 134773 net.cpp:606] loss2/conv <- loss2/ave_pool
I0331 18:46:53.308454 134773 net.cpp:579] loss2/conv -> loss2/conv
I0331 18:46:53.308459 134773 net.cpp:582] From AppendTop @cpu: 0
I0331 18:46:53.311051 134773 net.cpp:219] Setting up loss2/conv
I0331 18:46:53.311064 134773 net.cpp:226] Top shape: 56 128 4 4 (114688)
I0331 18:46:53.311067 134773 net.cpp:234] Memory required for data: 2818682500
I0331 18:46:53.311080 134773 net.cpp:154] Setting up Layer of device :0 @cpu 0 Layer : loss2/relu_conv
I0331 18:46:53.311084 134773 layer_factory.hpp:114] Creating layer loss2/relu_conv
I0331 18:46:53.311094 134773 net.cpp:169] Creating Layer loss2/relu_conv
I0331 18:46:53.311098 134773 net.cpp:606] loss2/relu_conv <- loss2/conv
I0331 18:46:53.311105 134773 net.cpp:566] loss2/relu_conv -> loss2/conv (in-place)
I0331 18:46:53.311111 134773 net.cpp:219] Setting up loss2/relu_conv
I0331 18:46:53.311116 134773 net.cpp:226] Top shape: 56 128 4 4 (114688)
I0331 18:46:53.311120 134773 net.cpp:234] Memory required for data: 2819141252
I0331 18:46:53.311125 134773 net.cpp:154] Setting up Layer of device :0 @cpu 0 Layer : loss2/fc
I0331 18:46:53.311128 134773 layer_factory.hpp:114] Creating layer loss2/fc
I0331 18:46:53.311146 134773 net.cpp:169] Creating Layer loss2/fc
I0331 18:46:53.311149 134773 net.cpp:606] loss2/fc <- loss2/conv
I0331 18:46:53.311156 134773 net.cpp:579] loss2/fc -> loss2/fc
I0331 18:46:53.311159 134773 net.cpp:582] From AppendTop @cpu: 0
I0331 18:46:53.330909 134773 net.cpp:219] Setting up loss2/fc
I0331 18:46:53.330920 134773 net.cpp:226] Top shape: 56 1024 (57344)
I0331 18:46:53.330924 134773 net.cpp:234] Memory required for data: 2819370628
I0331 18:46:53.330932 134773 net.cpp:154] Setting up Layer of device :0 @cpu 0 Layer : loss2/relu_fc
I0331 18:46:53.330936 134773 layer_factory.hpp:114] Creating layer loss2/relu_fc
I0331 18:46:53.330943 134773 net.cpp:169] Creating Layer loss2/relu_fc
I0331 18:46:53.330947 134773 net.cpp:606] loss2/relu_fc <- loss2/fc
I0331 18:46:53.330953 134773 net.cpp:566] loss2/relu_fc -> loss2/fc (in-place)
I0331 18:46:53.330960 134773 net.cpp:219] Setting up loss2/relu_fc
I0331 18:46:53.330965 134773 net.cpp:226] Top shape: 56 1024 (57344)
I0331 18:46:53.330968 134773 net.cpp:234] Memory required for data: 2819600004
I0331 18:46:53.330973 134773 net.cpp:154] Setting up Layer of device :0 @cpu 0 Layer : loss2/drop_fc
I0331 18:46:53.330977 134773 layer_factory.hpp:114] Creating layer loss2/drop_fc
I0331 18:46:53.330986 134773 net.cpp:169] Creating Layer loss2/drop_fc
I0331 18:46:53.330989 134773 net.cpp:606] loss2/drop_fc <- loss2/fc
I0331 18:46:53.330997 134773 net.cpp:566] loss2/drop_fc -> loss2/fc (in-place)
I0331 18:46:53.331007 134773 net.cpp:219] Setting up loss2/drop_fc
I0331 18:46:53.331012 134773 net.cpp:226] Top shape: 56 1024 (57344)
I0331 18:46:53.331015 134773 net.cpp:234] Memory required for data: 2819829380
I0331 18:46:53.331029 134773 net.cpp:154] Setting up Layer of device :0 @cpu 0 Layer : loss2/classifier
I0331 18:46:53.331033 134773 layer_factory.hpp:114] Creating layer loss2/classifier
I0331 18:46:53.331043 134773 net.cpp:169] Creating Layer loss2/classifier
I0331 18:46:53.331045 134773 net.cpp:606] loss2/classifier <- loss2/fc
I0331 18:46:53.331053 134773 net.cpp:579] loss2/classifier -> loss2/classifier
I0331 18:46:53.331056 134773 net.cpp:582] From AppendTop @cpu: 0
I0331 18:46:53.340947 134773 net.cpp:219] Setting up loss2/classifier
I0331 18:46:53.340958 134773 net.cpp:226] Top shape: 56 1000 (56000)
I0331 18:46:53.340961 134773 net.cpp:234] Memory required for data: 2820053380
I0331 18:46:53.340970 134773 net.cpp:154] Setting up Layer of device :0 @cpu 0 Layer : loss2/loss
I0331 18:46:53.340975 134773 layer_factory.hpp:114] Creating layer loss2/loss
I0331 18:46:53.340981 134773 net.cpp:169] Creating Layer loss2/loss
I0331 18:46:53.340986 134773 net.cpp:606] loss2/loss <- loss2/classifier
…
I0331 18:46:53.341228 134773 net.cpp:154] Setting up Layer of device :0 @cpu 0 Layer : inception_4e/1x1
I0331 18:46:53.341233 134773 layer_factory.hpp:114] Creating layer inception_4e/1x1
I0331 18:46:53.341241 134773 net.cpp:169] Creating Layer inception_4e/1x1
I0331 18:46:53.341246 134773 net.cpp:606] inception_4e/1x1 <- inception_4d/output_inception_4d/output_0_split_1
I0331 18:46:53.341255 134773 net.cpp:579] inception_4e/1x1 -> inception_4e/1x1
I0331 18:46:53.341259 134773 net.cpp:582] From AppendTop @cpu: 0
I0331 18:46:53.348114 134773 net.cpp:219] Setting up inception_4e/1x1
I0331 18:46:53.348126 134773 net.cpp:226] Top shape: 56 256 14 14 (2809856)
I0331 18:46:53.348130 134773 net.cpp:234] Memory required for data: 2831292808
I0331 18:46:53.348140 134773 net.cpp:154] Setting up Layer of device :0 @cpu 0 Layer : inception_4e/relu_1x1
I0331 18:46:53.348145 134773 layer_factory.hpp:114] Creating layer inception_4e/relu_1x1
I0331 18:46:53.348150 134773 net.cpp:169] Creating Layer inception_4e/relu_1x1
I0331 18:46:53.348155 134773 net.cpp:606] inception_4e/relu_1x1 <- inception_4e/1x1
I0331 18:46:53.348161 134773 net.cpp:566] inception_4e/relu_1x1 -> inception_4e/1x1 (in-place)
I0331 18:46:53.348170 134773 net.cpp:219] Setting up inception_4e/relu_1x1
I0331 18:46:53.348175 134773 net.cpp:226] Top shape: 56 256 14 14 (2809856)
I0331 18:46:53.348178 134773 net.cpp:234] Memory required for data: 2842532232
I0331 18:46:53.348182 134773 net.cpp:154] Setting up Layer of device :0 @cpu 0 Layer : inception_4e/3x3_reduce
I0331 18:46:53.348186 134773 layer_factory.hpp:114] Creating layer inception_4e/3x3_reduce
I0331 18:46:53.348198 134773 net.cpp:169] Creating Layer inception_4e/3x3_reduce
I0331 18:46:53.348202 134773 net.cpp:606] inception_4e/3x3_reduce <- inception_4d/output_inception_4d/output_0_split_2
I0331 18:46:53.348211 134773 net.cpp:579] inception_4e/3x3_reduce -> inception_4e/3x3_reduce
I0331 18:46:53.348213 134773 net.cpp:582] From AppendTop @cpu: 0
I0331 18:46:53.353477 134773 net.cpp:219] Setting up inception_4e/3x3_reduce
I0331 18:46:53.353489 134773 net.cpp:226] Top shape: 56 160 14 14 (1756160)
I0331 18:46:53.353493 134773 net.cpp:234] Memory required for data: 2849556872
I0331 18:46:53.353502 134773 net.cpp:154] Setting up Layer of device :0 @cpu 0 Layer : inception_4e/relu_3x3_reduce
I0331 18:46:53.353507 134773 layer_factory.hpp:114] Creating layer inception_4e/relu_3x3_reduce
I0331 18:46:53.353514 134773 net.cpp:169] Creating Layer inception_4e/relu_3x3_reduce
I0331 18:46:53.353519 134773 net.cpp:606] inception_4e/relu_3x3_reduce <- inception_4e/3x3_reduce
I0331 18:46:53.353536 134773 net.cpp:566] inception_4e/relu_3x3_reduce -> inception_4e/3x3_reduce (in-place)
I0331 18:46:53.353543 134773 net.cpp:219] Setting up inception_4e/relu_3x3_reduce
I0331 18:46:53.353549 134773 net.cpp:226] Top shape: 56 160 14 14 (1756160)
I0331 18:46:53.353552 134773 net.cpp:234] Memory required for data: 2856581512
I0331 18:46:53.353557 134773 net.cpp:154] Setting up Layer of device :0 @cpu 0 Layer : inception_4e/3x3
I0331 18:46:53.353561 134773 layer_factory.hpp:114] Creating layer inception_4e/3x3
I0331 18:46:53.353570 134773 net.cpp:169] Creating Layer inception_4e/3x3
I0331 18:46:53.353574 134773 net.cpp:606] inception_4e/3x3 <- inception_4e/3x3_reduce
I0331 18:46:53.353584 134773 net.cpp:579] inception_4e/3x3 -> inception_4e/3x3
I0331 18:46:53.353587 134773 net.cpp:582] From AppendTop @cpu: 0
I0331 18:46:53.372481 134773 net.cpp:219] Setting up inception_4e/3x3
I0331 18:46:53.372516 134773 net.cpp:226] Top shape: 56 320 14 14 (3512320)
I0331 18:46:53.372521 134773 net.cpp:234] Memory required for data: 2870630792
I0331 18:46:53.372536 134773 net.cpp:154] Setting up Layer of device :0 @cpu 0 Layer : inception_4e/relu_3x3
I0331 18:46:53.372541 134773 layer_factory.hpp:114] Creating layer inception_4e/relu_3x3
I0331 18:46:53.372552 134773 net.cpp:169] Creating Layer inception_4e/relu_3x3
I0331 18:46:53.372561 134773 net.cpp:606] inception_4e/relu_3x3 <- inception_4e/3x3
I0331 18:46:53.372577 134773 net.cpp:566] inception_4e/relu_3x3 -> inception_4e/3x3 (in-place)
I0331 18:46:53.372597 134773 net.cpp:219] Setting up inception_4e/relu_3x3
I0331 18:46:53.372603 134773 net.cpp:226] Top shape: 56 320 14 14 (3512320)
I0331 18:46:53.372607 134773 net.cpp:234] Memory required for data: 2884680072
I0331 18:46:53.372612 134773 net.cpp:154] Setting up Layer of device :0 @cpu 0 Layer : inception_4e/5x5_reduce
I0331 18:46:53.372617 134773 layer_factory.hpp:114] Creating layer inception_4e/5x5_reduce
I0331 18:46:53.372632 134773 net.cpp:169] Creating Layer inception_4e/5x5_reduce
I0331 18:46:53.372639 134773 net.cpp:606] inception_4e/5x5_reduce <- inception_4d/output_inception_4d/output_0_split_3
I0331 18:46:53.372651 134773 net.cpp:579] inception_4e/5x5_reduce -> inception_4e/5x5_reduce
I0331 18:46:53.372655 134773 net.cpp:582] From AppendTop @cpu: 0
I0331 18:46:53.375608 134773 net.cpp:219] Setting up inception_4e/5x5_reduce
I0331 18:46:53.375620 134773 net.cpp:226] Top shape: 56 32 14 14 (351232)
I0331 18:46:53.375627 134773 net.cpp:234] Memory required for data: 2886085000
I0331 18:46:53.375636 134773 net.cpp:154] Setting up Layer of device :0 @cpu 0 Layer : inception_4e/relu_5x5_reduce
I0331 18:46:53.375641 134773 layer_factory.hpp:114] Creating layer inception_4e/relu_5x5_reduce
I0331 18:46:53.375648 134773 net.cpp:169] Creating Layer inception_4e/relu_5x5_reduce
I0331 18:46:53.375653 134773 net.cpp:606] inception_4e/relu_5x5_reduce <- inception_4e/5x5_reduce
I0331 18:46:53.375660 134773 net.cpp:566] inception_4e/relu_5x5_reduce -> inception_4e/5x5_reduce (in-place)
I0331 18:46:53.375668 134773 net.cpp:219] Setting up inception_4e/relu_5x5_reduce
I0331 18:46:53.375674 134773 net.cpp:226] Top shape: 56 32 14 14 (351232)
I0331 18:46:53.375676 134773 net.cpp:234] Memory required for data: 2887489928
I0331 18:46:53.375681 134773 net.cpp:154] Setting up Layer of device :0 @cpu 0 Layer : inception_4e/5x5
I0331 18:46:53.375685 134773 layer_factory.hpp:114] Creating layer inception_4e/5x5
I0331 18:46:53.375705 134773 net.cpp:169] Creating Layer inception_4e/5x5
I0331 18:46:53.375710 134773 net.cpp:606] inception_4e/5x5 <- inception_4e/5x5_reduce
I0331 18:46:53.375716 134773 net.cpp:579] inception_4e/5x5 -> inception_4e/5x5
I0331 18:46:53.375720 134773 net.cpp:582] From AppendTop @cpu: 0
I0331 18:46:53.382367 134773 net.cpp:219] Setting up inception_4e/5x5
I0331 18:46:53.382380 134773 net.cpp:226] Top shape: 56 128 14 14 (1404928)
I0331 18:46:53.382383 134773 net.cpp:234] Memory required for data: 2893109640
I0331 18:46:53.382395 134773 net.cpp:154] Setting up Layer of device :0 @cpu 0 Layer : inception_4e/relu_5x5
I0331 18:46:53.382414 134773 layer_factory.hpp:114] Creating layer inception_4e/relu_5x5
I0331 18:46:53.382423 134773 net.cpp:169] Creating Layer inception_4e/relu_5x5
I0331 18:46:53.382428 134773 net.cpp:606] inception_4e/relu_5x5 <- inception_4e/5x5
I0331 18:46:53.382436 134773 net.cpp:566] inception_4e/relu_5x5 -> inception_4e/5x5 (in-place)
I0331 18:46:53.382442 134773 net.cpp:219] Setting up inception_4e/relu_5x5
I0331 18:46:53.382448 134773 net.cpp:226] Top shape: 56 128 14 14 (1404928)
I0331 18:46:53.382452 134773 net.cpp:234] Memory required for data: 2898729352
I0331 18:46:53.382457 134773 net.cpp:154] Setting up Layer of device :0 @cpu 0 Layer : inception_4e/pool
I0331 18:46:53.382460 134773 layer_factory.hpp:114] Creating layer inception_4e/pool
I0331 18:46:53.382498 134773 net.cpp:169] Creating Layer inception_4e/pool
I0331 18:46:53.382503 134773 net.cpp:606] inception_4e/pool <- inception_4d/output_inception_4d/output_0_split_4
I0331 18:46:53.382510 134773 net.cpp:579] inception_4e/pool -> inception_4e/pool
I0331 18:46:53.382513 134773 net.cpp:582] From AppendTop @cpu: 0
I0331 18:46:53.382525 134773 net.cpp:219] Setting up inception_4e/pool
I0331 18:46:53.382530 134773 net.cpp:226] Top shape: 56 528 14 14 (5795328)
I0331 18:46:53.382534 134773 net.cpp:234] Memory required for data: 2921910664
I0331 18:46:53.382539 134773 net.cpp:154] Setting up Layer of device :0 @cpu 0 Layer : inception_4e/pool_proj
I0331 18:46:53.382550 134773 layer_factory.hpp:114] Creating layer inception_4e/pool_proj
I0331 18:46:53.382562 134773 net.cpp:169] Creating Layer inception_4e/pool_proj
I0331 18:46:53.382567 134773 net.cpp:606] inception_4e/pool_proj <- inception_4e/pool
I0331 18:46:53.382575 134773 net.cpp:579] inception_4e/pool_proj -> inception_4e/pool_proj
I0331 18:46:53.382577 134773 net.cpp:582] From AppendTop @cpu: 0
I0331 18:46:53.387626 134773 net.cpp:219] Setting up inception_4e/pool_proj
I0331 18:46:53.387639 134773 net.cpp:226] Top shape: 56 128 14 14 (1404928)
I0331 18:46:53.387643 134773 net.cpp:234] Memory required for data: 2927530376
I0331 18:46:53.387652 134773 net.cpp:154] Setting up Layer of device :0 @cpu 0 Layer : inception_4e/relu_pool_proj
I0331 18:46:53.387656 134773 layer_factory.hpp:114] Creating layer inception_4e/relu_pool_proj
I0331 18:46:53.387663 134773 net.cpp:169] Creating Layer inception_4e/relu_pool_proj
I0331 18:46:53.387668 134773 net.cpp:606] inception_4e/relu_pool_proj <- inception_4e/pool_proj
I0331 18:46:53.387675 134773 net.cpp:566] inception_4e/relu_pool_proj -> inception_4e/pool_proj (in-place)
I0331 18:46:53.387681 134773 net.cpp:219] Setting up inception_4e/relu_pool_proj
I0331 18:46:53.387686 134773 net.cpp:226] Top shape: 56 128 14 14 (1404928)
I0331 18:46:53.387689 134773 net.cpp:234] Memory required for data: 2933150088
I0331 18:46:53.387694 134773 net.cpp:154] Setting up Layer of device :0 @cpu 0 Layer : inception_4e/output
I0331 18:46:53.387698 134773 layer_factory.hpp:114] Creating layer inception_4e/output
I0331 18:46:53.387706 134773 net.cpp:169] Creating Layer inception_4e/output
I0331 18:46:53.387711 134773 net.cpp:606] inception_4e/output <- inception_4e/1x1
I0331 18:46:53.387715 134773 net.cpp:606] inception_4e/output <- inception_4e/3x3
I0331 18:46:53.387720 134773 net.cpp:606] inception_4e/output <- inception_4e/5x5
I0331 18:46:53.387724 134773 net.cpp:606] inception_4e/output <- inception_4e/pool_proj
I0331 18:46:53.387733 134773 net.cpp:579] inception_4e/output -> inception_4e/output
I0331 18:46:53.387737 134773 net.cpp:582] From AppendTop @cpu: 0
I0331 18:46:53.387749 134773 net.cpp:219] Setting up inception_4e/output
I0331 18:46:53.387754 134773 net.cpp:226] Top shape: 56 832 14 14 (9132032)
I0331 18:46:53.387758 134773 net.cpp:234] Memory required for data: 2969678216
I0331 18:46:53.387763 134773 net.cpp:154] Setting up Layer of device :0 @cpu 0 Layer : pool4/3x3_s2
I0331 18:46:53.387766 134773 layer_factory.hpp:114] Creating layer pool4/3x3_s2
I0331 18:46:53.387786 134773 net.cpp:169] Creating Layer pool4/3x3_s2
I0331 18:46:53.387800 134773 net.cpp:606] pool4/3x3_s2 <- inception_4e/output
I0331 18:46:53.387809 134773 net.cpp:579] pool4/3x3_s2 -> pool4/3x3_s2
I0331 18:46:53.387812 134773 net.cpp:582] From AppendTop @cpu: 0
I0331 18:46:53.387820 134773 net.cpp:219] Setting up pool4/3x3_s2
I0331 18:46:53.387826 134773 net.cpp:226] Top shape: 56 832 7 7 (2283008)
I0331 18:46:53.387830 134773 net.cpp:234] Memory required for data: 2978810248
I0331 18:46:53.387835 134773 net.cpp:154] Setting up Layer of device :0 @cpu 0 Layer : pool4/3x3_s2_pool4/3x3_s2_0_split
I0331 18:46:53.387838 134773 layer_factory.hpp:114] Creating layer pool4/3x3_s2_pool4/3x3_s2_0_split
I0331 18:46:53.387846 134773 net.cpp:169] Creating Layer pool4/3x3_s2_pool4/3x3_s2_0_split
I0331 18:46:53.387850 134773 net.cpp:606] pool4/3x3_s2_pool4/3x3_s2_0_split <- pool4/3x3_s2
I0331 18:46:53.387859 134773 net.cpp:579] pool4/3x3_s2_pool4/3x3_s2_0_split -> pool4/3x3_s2_pool4/3x3_s2_0_split_0
I0331 18:46:53.387862 134773 net.cpp:582] From AppendTop @cpu: 0
I0331 18:46:53.387869 134773 net.cpp:579] pool4/3x3_s2_pool4/3x3_s2_0_split -> pool4/3x3_s2_pool4/3x3_s2_0_split_1
I0331 18:46:53.387872 134773 net.cpp:582] From AppendTop @cpu: 0
I0331 18:46:53.387879 134773 net.cpp:579] pool4/3x3_s2_pool4/3x3_s2_0_split -> pool4/3x3_s2_pool4/3x3_s2_0_split_2
I0331 18:46:53.387882 134773 net.cpp:582] From AppendTop @cpu: 0
I0331 18:46:53.387888 134773 net.cpp:579] pool4/3x3_s2_pool4/3x3_s2_0_split -> pool4/3x3_s2_pool4/3x3_s2_0_split_3
I0331 18:46:53.387900 134773 net.cpp:582] From AppendTop @cpu: 0
I0331 18:46:53.387909 134773 net.cpp:219] Setting up pool4/3x3_s2_pool4/3x3_s2_0_split
I0331 18:46:53.387914 134773 net.cpp:226] Top shape: 56 832 7 7 (2283008)
I0331 18:46:53.387919 134773 net.cpp:226] Top shape: 56 832 7 7 (2283008)
I0331 18:46:53.387923 134773 net.cpp:226] Top shape: 56 832 7 7 (2283008)
I0331 18:46:53.387928 134773 net.cpp:226] Top shape: 56 832 7 7 (2283008)
I0331 18:46:53.387931 134773 net.cpp:234] Memory required for data: 3015338376
I0331 18:46:53.387936 134773 net.cpp:154] Setting up Layer of device :0 @cpu 0 Layer : inception_5a/1x1
I0331 18:46:53.387940 134773 layer_factory.hpp:114] Creating layer inception_5a/1x1
I0331 18:46:53.387951 134773 net.cpp:169] Creating Layer inception_5a/1x1
I0331 18:46:53.387955 134773 net.cpp:606] inception_5a/1x1 <- pool4/3x3_s2_pool4/3x3_s2_0_split_0
I0331 18:46:53.387962 134773 net.cpp:579] inception_5a/1x1 -> inception_5a/1x1
I0331 18:46:53.387966 134773 net.cpp:582] From AppendTop @cpu: 0
I0331 18:46:53.396065 134773 net.cpp:219] Setting up inception_5a/1x1
I0331 18:46:53.396077 134773 net.cpp:226] Top shape: 56 256 7 7 (702464)
I0331 18:46:53.396081 134773 net.cpp:234] Memory required for data: 3018148232
I0331 18:46:53.396090 134773 net.cpp:154] Setting up Layer of device :0 @cpu 0 Layer : inception_5a/relu_1x1
I0331 18:46:53.396095 134773 layer_factory.hpp:114] Creating layer inception_5a/relu_1x1
I0331 18:46:53.396101 134773 net.cpp:169] Creating Layer inception_5a/relu_1x1
I0331 18:46:53.396106 134773 net.cpp:606] inception_5a/relu_1x1 <- inception_5a/1x1
I0331 18:46:53.396114 134773 net.cpp:566] inception_5a/relu_1x1 -> inception_5a/1x1 (in-place)
I0331 18:46:53.396122 134773 net.cpp:219] Setting up inception_5a/relu_1x1
I0331 18:46:53.396127 134773 net.cpp:226] Top shape: 56 256 7 7 (702464)
I0331 18:46:53.396131 134773 net.cpp:234] Memory required for data: 3020958088
I0331 18:46:53.396136 134773 net.cpp:154] Setting up Layer of device :0 @cpu 0 Layer : inception_5a/3x3_reduce
I0331 18:46:53.396140 134773 layer_factory.hpp:114] Creating layer inception_5a/3x3_reduce
I0331 18:46:53.396152 134773 net.cpp:169] Creating Layer inception_5a/3x3_reduce
I0331 18:46:53.396157 134773 net.cpp:606] inception_5a/3x3_reduce <- pool4/3x3_s2_pool4/3x3_s2_0_split_1
I0331 18:46:53.396162 134773 net.cpp:579] inception_5a/3x3_reduce -> inception_5a/3x3_reduce
I0331 18:46:53.396167 134773 net.cpp:582] From AppendTop @cpu: 0
I0331 18:46:53.401967 134773 net.cpp:219] Setting up inception_5a/3x3_reduce
I0331 18:46:53.401993 134773 net.cpp:226] Top shape: 56 160 7 7 (439040)
I0331 18:46:53.401996 134773 net.cpp:234] Memory required for data: 3022714248
I0331 18:46:53.402006 134773 net.cpp:154] Setting up Layer of device :0 @cpu 0 Layer : inception_5a/relu_3x3_reduce
I0331 18:46:53.402010 134773 layer_factory.hpp:114] Creating layer inception_5a/relu_3x3_reduce
I0331 18:46:53.402016 134773 net.cpp:169] Creating Layer inception_5a/relu_3x3_reduce
I0331 18:46:53.402021 134773 net.cpp:606] inception_5a/relu_3x3_reduce <- inception_5a/3x3_reduce
I0331 18:46:53.402027 134773 net.cpp:566] inception_5a/relu_3x3_reduce -> inception_5a/3x3_reduce (in-place)
I0331 18:46:53.402034 134773 net.cpp:219] Setting up inception_5a/relu_3x3_reduce
I0331 18:46:53.402040 134773 net.cpp:226] Top shape: 56 160 7 7 (439040)
I0331 18:46:53.402043 134773 net.cpp:234] Memory required for data: 3024470408
I0331 18:46:53.402048 134773 net.cpp:154] Setting up Layer of device :0 @cpu 0 Layer : inception_5a/3x3
I0331 18:46:53.402052 134773 layer_factory.hpp:114] Creating layer inception_5a/3x3
I0331 18:46:53.402061 134773 net.cpp:169] Creating Layer inception_5a/3x3
I0331 18:46:53.402065 134773 net.cpp:606] inception_5a/3x3 <- inception_5a/3x3_reduce
I0331 18:46:53.402074 134773 net.cpp:579] inception_5a/3x3 -> inception_5a/3x3
I0331 18:46:53.402078 134773 net.cpp:582] From AppendTop @cpu: 0
I0331 18:46:53.417332 134773 net.cpp:219] Setting up inception_5a/3x3
I0331 18:46:53.417354 134773 net.cpp:226] Top shape: 56 320 7 7 (878080)
I0331 18:46:53.417358 134773 net.cpp:234] Memory required for data: 3027982728
I0331 18:46:53.417376 134773 net.cpp:154] Setting up Layer of device :0 @cpu 0 Layer : inception_5a/relu_3x3
I0331 18:46:53.417382 134773 layer_factory.hpp:114] Creating layer inception_5a/relu_3x3
I0331 18:46:53.417390 134773 net.cpp:169] Creating Layer inception_5a/relu_3x3
I0331 18:46:53.417397 134773 net.cpp:606] inception_5a/relu_3x3 <- inception_5a/3x3
I0331 18:46:53.417407 134773 net.cpp:566] inception_5a/relu_3x3 -> inception_5a/3x3 (in-place)
I0331 18:46:53.417415 134773 net.cpp:219] Setting up inception_5a/relu_3x3
I0331 18:46:53.417420 134773 net.cpp:226] Top shape: 56 320 7 7 (878080)
I0331 18:46:53.417424 134773 net.cpp:234] Memory required for data: 3031495048
I0331 18:46:53.417429 134773 net.cpp:154] Setting up Layer of device :0 @cpu 0 Layer : inception_5a/5x5_reduce
I0331 18:46:53.417433 134773 layer_factory.hpp:114] Creating layer inception_5a/5x5_reduce
I0331 18:46:53.417443 134773 net.cpp:169] Creating Layer inception_5a/5x5_reduce
I0331 18:46:53.417449 134773 net.cpp:606] inception_5a/5x5_reduce <- pool4/3x3_s2_pool4/3x3_s2_0_split_2
I0331 18:46:53.417457 134773 net.cpp:579] inception_5a/5x5_reduce -> inception_5a/5x5_reduce
I0331 18:46:53.417461 134773 net.cpp:582] From AppendTop @cpu: 0
I0331 18:46:53.419865 134773 net.cpp:219] Setting up inception_5a/5x5_reduce
I0331 18:46:53.419876 134773 net.cpp:226] Top shape: 56 32 7 7 (87808)
I0331 18:46:53.419879 134773 net.cpp:234] Memory required for data: 3031846280
I0331 18:46:53.419888 134773 net.cpp:154] Setting up Layer of device :0 @cpu 0 Layer : inception_5a/relu_5x5_reduce
I0331 18:46:53.419893 134773 layer_factory.hpp:114] Creating layer inception_5a/relu_5x5_reduce
I0331 18:46:53.419901 134773 net.cpp:169] Creating Layer inception_5a/relu_5x5_reduce
I0331 18:46:53.419905 134773 net.cpp:606] inception_5a/relu_5x5_reduce <- inception_5a/5x5_reduce
I0331 18:46:53.419911 134773 net.cpp:566] inception_5a/relu_5x5_reduce -> inception_5a/5x5_reduce (in-place)
I0331 18:46:53.419919 134773 net.cpp:219] Setting up inception_5a/relu_5x5_reduce
I0331 18:46:53.419924 134773 net.cpp:226] Top shape: 56 32 7 7 (87808)
I0331 18:46:53.419927 134773 net.cpp:234] Memory required for data: 3032197512
I0331 18:46:53.419932 134773 net.cpp:154] Setting up Layer of device :0 @cpu 0 Layer : inception_5a/5x5
I0331 18:46:53.419936 134773 layer_factory.hpp:114] Creating layer inception_5a/5x5
I0331 18:46:53.419947 134773 net.cpp:169] Creating Layer inception_5a/5x5
I0331 18:46:53.419951 134773 net.cpp:606] inception_5a/5x5 <- inception_5a/5x5_reduce
I0331 18:46:53.419973 134773 net.cpp:579] inception_5a/5x5 -> inception_5a/5x5
I0331 18:46:53.419976 134773 net.cpp:582] From AppendTop @cpu: 0
I0331 18:46:53.424468 134773 net.cpp:219] Setting up inception_5a/5x5
I0331 18:46:53.424479 134773 net.cpp:226] Top shape: 56 128 7 7 (351232)
I0331 18:46:53.424484 134773 net.cpp:234] Memory required for data: 3033602440
I0331 18:46:53.424492 134773 net.cpp:154] Setting up Layer of device :0 @cpu 0 Layer : inception_5a/relu_5x5
I0331 18:46:53.424496 134773 layer_factory.hpp:114] Creating layer inception_5a/relu_5x5
I0331 18:46:53.424504 134773 net.cpp:169] Creating Layer inception_5a/relu_5x5
I0331 18:46:53.424510 134773 net.cpp:606] inception_5a/relu_5x5 <- inception_5a/5x5
I0331 18:46:53.424515 134773 net.cpp:566] inception_5a/relu_5x5 -> inception_5a/5x5 (in-place)
I0331 18:46:53.424521 134773 net.cpp:219] Setting up inception_5a/relu_5x5
I0331 18:46:53.424527 134773 net.cpp:226] Top shape: 56 128 7 7 (351232)
I0331 18:46:53.424530 134773 net.cpp:234] Memory required for data: 3035007368
I0331 18:46:53.424535 134773 net.cpp:154] Setting up Layer of device :0 @cpu 0 Layer : inception_5a/pool
I0331 18:46:53.424540 134773 layer_factory.hpp:114] Creating layer inception_5a/pool
I0331 18:46:53.424578 134773 net.cpp:169] Creating Layer inception_5a/pool
I0331 18:46:53.424583 134773 net.cpp:606] inception_5a/pool <- pool4/3x3_s2_pool4/3x3_s2_0_split_3
I0331 18:46:53.424592 134773 net.cpp:579] inception_5a/pool -> inception_5a/pool
I0331 18:46:53.424600 134773 net.cpp:582] From AppendTop @cpu: 0
I0331 18:46:53.424612 134773 net.cpp:219] Setting up inception_5a/pool
I0331 18:46:53.424618 134773 net.cpp:226] Top shape: 56 832 7 7 (2283008)
I0331 18:46:53.424623 134773 net.cpp:234] Memory required for data: 3044139400
I0331 18:46:53.424633 134773 net.cpp:154] Setting up Layer of device :0 @cpu 0 Layer : inception_5a/pool_proj
I0331 18:46:53.424638 134773 layer_factory.hpp:114] Creating layer inception_5a/pool_proj
I0331 18:46:53.424649 134773 net.cpp:169] Creating Layer inception_5a/pool_proj
I0331 18:46:53.424654 134773 net.cpp:606] inception_5a/pool_proj <- inception_5a/pool
I0331 18:46:53.424662 134773 net.cpp:579] inception_5a/pool_proj -> inception_5a/pool_proj
I0331 18:46:53.424665 134773 net.cpp:582] From AppendTop @cpu: 0
I0331 18:46:53.429378 134773 net.cpp:219] Setting up inception_5a/pool_proj
I0331 18:46:53.429388 134773 net.cpp:226] Top shape: 56 128 7 7 (351232)
I0331 18:46:53.429392 134773 net.cpp:234] Memory required for data: 3045544328
I0331 18:46:53.429400 134773 net.cpp:154] Setting up Layer of device :0 @cpu 0 Layer : inception_5a/relu_pool_proj
I0331 18:46:53.429405 134773 layer_factory.hpp:114] Creating layer inception_5a/relu_pool_proj
I0331 18:46:53.429411 134773 net.cpp:169] Creating Layer inception_5a/relu_pool_proj
I0331 18:46:53.429415 134773 net.cpp:606] inception_5a/relu_pool_proj <- inception_5a/pool_proj
I0331 18:46:53.429421 134773 net.cpp:566] inception_5a/relu_pool_proj -> inception_5a/pool_proj (in-place)
I0331 18:46:53.429428 134773 net.cpp:219] Setting up inception_5a/relu_pool_proj
I0331 18:46:53.429433 134773 net.cpp:226] Top shape: 56 128 7 7 (351232)
I0331 18:46:53.429437 134773 net.cpp:234] Memory required for data: 3046949256
I0331 18:46:53.429441 134773 net.cpp:154] Setting up Layer of device :0 @cpu 0 Layer : inception_5a/output
I0331 18:46:53.429445 134773 layer_factory.hpp:114] Creating layer inception_5a/output
I0331 18:46:53.429453 134773 net.cpp:169] Creating Layer inception_5a/output
I0331 18:46:53.429458 134773 net.cpp:606] inception_5a/output <- inception_5a/1x1
I0331 18:46:53.429463 134773 net.cpp:606] inception_5a/output <- inception_5a/3x3
I0331 18:46:53.429468 134773 net.cpp:606] inception_5a/output <- inception_5a/5x5
I0331 18:46:53.429473 134773 net.cpp:606] inception_5a/output <- inception_5a/pool_proj
I0331 18:46:53.429481 134773 net.cpp:579] inception_5a/output -> inception_5a/output
I0331 18:46:53.429486 134773 net.cpp:582] From AppendTop @cpu: 0
I0331 18:46:53.429496 134773 net.cpp:219] Setting up inception_5a/output
I0331 18:46:53.429510 134773 net.cpp:226] Top shape: 56 832 7 7 (2283008)
I0331 18:46:53.429513 134773 net.cpp:234] Memory required for data: 3056081288
I0331 18:46:53.429518 134773 net.cpp:154] Setting up Layer of device :0 @cpu 0 Layer : inception_5a/output_inception_5a/output_0_split
I0331 18:46:53.429522 134773 layer_factory.hpp:114] Creating layer inception_5a/output_inception_5a/output_0_split
I0331 18:46:53.429532 134773 net.cpp:169] Creating Layer inception_5a/output_inception_5a/output_0_split
…
I0331 18:46:53.429556 134773 net.cpp:582] From AppendTop @cpu: 0
I0331 18:46:53.429563 134773 net.cpp:579] inception_5a/output_inception_5a/output_0_split -> inception_5a/output_inception_5a/output_0_split_2
I0331 18:46:53.429566 134773 net.cpp:582] From AppendTop @cpu: 0
I0331 18:46:53.429572 134773 net.cpp:579] inception_5a/output_inception_5a/output_0_split -> inception_5a/output_inception_5a/output_0_split_3
I0331 18:46:53.429576 134773 net.cpp:582] From AppendTop @cpu: 0
I0331 18:46:53.429584 134773 net.cpp:219] Setting up inception_5a/output_inception_5a/output_0_split
I0331 18:46:53.429592 134773 net.cpp:226] Top shape: 56 832 7 7 (2283008)
I0331 18:46:53.429597 134773 net.cpp:226] Top shape: 56 832 7 7 (2283008)
I0331 18:46:53.429602 134773 net.cpp:226] Top shape: 56 832 7 7 (2283008)
I0331 18:46:53.429606 134773 net.cpp:226] Top shape: 56 832 7 7 (2283008)
I0331 18:46:53.429610 134773 net.cpp:234] Memory required for data: 3092609416
I0331 18:46:53.429615 134773 net.cpp:154] Setting up Layer of device :0 @cpu 0 Layer : inception_5b/1x1
I0331 18:46:53.429618 134773 layer_factory.hpp:114] Creating layer inception_5b/1x1
I0331 18:46:53.429635 134773 net.cpp:169] Creating Layer inception_5b/1x1
I0331 18:46:53.429641 134773 net.cpp:606] inception_5b/1x1 <- inception_5a/output_inception_5a/output_0_split_0
I0331 18:46:53.429647 134773 net.cpp:579] inception_5b/1x1 -> inception_5b/1x1
I0331 18:46:53.429651 134773 net.cpp:582] From AppendTop @cpu: 0
I0331 18:46:53.440146 134773 net.cpp:219] Setting up inception_5b/1x1
I0331 18:46:53.440161 134773 net.cpp:226] Top shape: 56 384 7 7 (1053696)
I0331 18:46:53.440165 134773 net.cpp:234] Memory required for data: 3096824200
I0331 18:46:53.440176 134773 net.cpp:154] Setting up Layer of device :0 @cpu 0 Layer : inception_5b/relu_1x1
I0331 18:46:53.440179 134773 layer_factory.hpp:114] Creating layer inception_5b/relu_1x1
I0331 18:46:53.440186 134773 net.cpp:169] Creating Layer inception_5b/relu_1x1
I0331 18:46:53.440191 134773 net.cpp:606] inception_5b/relu_1x1 <- inception_5b/1x1
I0331 18:46:53.440196 134773 net.cpp:566] inception_5b/relu_1x1 -> inception_5b/1x1 (in-place)
I0331 18:46:53.440203 134773 net.cpp:219] Setting up inception_5b/relu_1x1
I0331 18:46:53.440208 134773 net.cpp:226] Top shape: 56 384 7 7 (1053696)
I0331 18:46:53.440212 134773 net.cpp:234] Memory required for data: 3101038984
I0331 18:46:53.440217 134773 net.cpp:154] Setting up Layer of device :0 @cpu 0 Layer : inception_5b/3x3_reduce
I0331 18:46:53.440222 134773 layer_factory.hpp:114] Creating layer inception_5b/3x3_reduce
I0331 18:46:53.440233 134773 net.cpp:169] Creating Layer inception_5b/3x3_reduce
I0331 18:46:53.440237 134773 net.cpp:606] inception_5b/3x3_reduce <- inception_5a/output_inception_5a/output_0_split_1
I0331 18:46:53.440244 134773 net.cpp:579] inception_5b/3x3_reduce -> inception_5b/3x3_reduce
I0331 18:46:53.440248 134773 net.cpp:582] From AppendTop @cpu: 0
I0331 18:46:53.446666 134773 net.cpp:219] Setting up inception_5b/3x3_reduce
I0331 18:46:53.446678 134773 net.cpp:226] Top shape: 56 192 7 7 (526848)
I0331 18:46:53.446694 134773 net.cpp:234] Memory required for data: 3103146376
I0331 18:46:53.446704 134773 net.cpp:154] Setting up Layer of device :0 @cpu 0 Layer : inception_5b/relu_3x3_reduce
I0331 18:46:53.446708 134773 layer_factory.hpp:114] Creating layer inception_5b/relu_3x3_reduce
…
I0331 18:46:53.929705 134773 net.cpp:566] inception_4d/relu_5x5 -> inception_4d/5x5 (in-place)
I0331 18:46:53.929729 134773 net.cpp:219] Setting up inception_4d/relu_5x5
I0331 18:46:53.929734 134773 net.cpp:226] Top shape: 50 64 14 14 (627200)
I0331 18:46:53.929738 134773 net.cpp:234] Memory required for data: 2365909212
I0331 18:46:53.929744 134773 net.cpp:154] Setting up Layer of device :0 @cpu 0 Layer : inception_4d/pool
I0331 18:46:53.929747 134773 layer_factory.hpp:114] Creating layer inception_4d/pool
I0331 18:46:53.929786 134773 net.cpp:169] Creating Layer inception_4d/pool
I0331 18:46:53.929791 134773 net.cpp:606] inception_4d/pool <- inception_4c/output_inception_4c/output_0_split_3
I0331 18:46:53.929797 134773 net.cpp:579] inception_4d/pool -> inception_4d/pool
I0331 18:46:53.929801 134773 net.cpp:582] From AppendTop @cpu: 0
I0331 18:46:53.929814 134773 net.cpp:219] Setting up inception_4d/pool
I0331 18:46:53.929821 134773 net.cpp:226] Top shape: 50 512 14 14 (5017600)
I0331 18:46:53.929823 134773 net.cpp:234] Memory required for data: 2385979612
I0331 18:46:53.929828 134773 net.cpp:154] Setting up Layer of device :0 @cpu 0 Layer : inception_4d/pool_proj
I0331 18:46:53.929832 134773 layer_factory.hpp:114] Creating layer inception_4d/pool_proj
I0331 18:46:53.929855 134773 net.cpp:169] Creating Layer inception_4d/pool_proj
I0331 18:46:53.929860 134773 net.cpp:606] inception_4d/pool_proj <- inception_4d/pool
I0331 18:46:53.929867 134773 net.cpp:579] inception_4d/pool_proj -> inception_4d/pool_proj
I0331 18:46:53.929870 134773 net.cpp:582] From AppendTop @cpu: 0
I0331 18:46:53.933398 134773 net.cpp:219] Setting up inception_4d/pool_proj
I0331 18:46:53.933410 134773 net.cpp:226] Top shape: 50 64 14 14 (627200)
I0331 18:46:53.933413 134773 net.cpp:234] Memory required for data: 2388488412
I0331 18:46:53.933423 134773 net.cpp:154] Setting up Layer of device :0 @cpu 0 Layer : inception_4d/relu_pool_proj
I0331 18:46:53.933428 134773 layer_factory.hpp:114] Creating layer inception_4d/relu_pool_proj
I0331 18:46:53.933434 134773 net.cpp:169] Creating Layer inception_4d/relu_pool_proj
I0331 18:46:53.933439 134773 net.cpp:606] inception_4d/relu_pool_proj <- inception_4d/pool_proj
I0331 18:46:53.933449 134773 net.cpp:566] inception_4d/relu_pool_proj -> inception_4d/pool_proj (in-place)
I0331 18:46:53.933456 134773 net.cpp:219] Setting up inception_4d/relu_pool_proj
I0331 18:46:53.933461 134773 net.cpp:226] Top shape: 50 64 14 14 (627200)
I0331 18:46:53.933465 134773 net.cpp:234] Memory required for data: 2390997212
I0331 18:46:53.933470 134773 net.cpp:154] Setting up Layer of device :0 @cpu 0 Layer : inception_4d/output
I0331 18:46:53.933473 134773 layer_factory.hpp:114] Creating layer inception_4d/output
I0331 18:46:53.933481 134773 net.cpp:169] Creating Layer inception_4d/output
I0331 18:46:53.933486 134773 net.cpp:606] inception_4d/output <- inception_4d/1x1
I0331 18:46:53.933491 134773 net.cpp:606] inception_4d/output <- inception_4d/3x3
I0331 18:46:53.933496 134773 net.cpp:606] inception_4d/output <- inception_4d/5x5
I0331 18:46:53.933501 134773 net.cpp:606] inception_4d/output <- inception_4d/pool_proj
I0331 18:46:53.933509 134773 net.cpp:579] inception_4d/output -> inception_4d/output
I0331 18:46:53.933513 134773 net.cpp:582] From AppendTop @cpu: 0
I0331 18:46:53.933523 134773 net.cpp:219] Setting up inception_4d/output
I0331 18:46:53.933531 134773 net.cpp:226] Top shape: 50 528 14 14 (5174400)
I0331 18:46:53.933534 134773 net.cpp:234] Memory required for data: 2411694812
I0331 18:46:53.933538 134773 net.cpp:154] Setting up Layer of device :0 @cpu 0 Layer : inception_4d/output_inception_4d/output_0_split
I0331 18:46:53.933542 134773 layer_factory.hpp:114] Creating layer inception_4d/output_inception_4d/output_0_split
I0331 18:46:53.933553 134773 net.cpp:169] Creating Layer inception_4d/output_inception_4d/output_0_split
…
I0331 18:46:53.933600 134773 net.cpp:582] From AppendTop @cpu: 0
I0331 18:46:53.933607 134773 net.cpp:579] inception_4d/output_inception_4d/output_0_split -> inception_4d/output_inception_4d/output_0_split_3
I0331 18:46:53.933610 134773 net.cpp:582] From AppendTop @cpu: 0
I0331 18:46:53.933616 134773 net.cpp:579] inception_4d/output_inception_4d/output_0_split -> inception_4d/output_inception_4d/output_0_split_4
I0331 18:46:53.933620 134773 net.cpp:582] From AppendTop @cpu: 0
I0331 18:46:53.933632 134773 net.cpp:219] Setting up inception_4d/output_inception_4d/output_0_split
I0331 18:46:53.933640 134773 net.cpp:226] Top shape: 50 528 14 14 (5174400)
I0331 18:46:53.933645 134773 net.cpp:226] Top shape: 50 528 14 14 (5174400)
I0331 18:46:53.933650 134773 net.cpp:226] Top shape: 50 528 14 14 (5174400)
I0331 18:46:53.933655 134773 net.cpp:226] Top shape: 50 528 14 14 (5174400)
I0331 18:46:53.933658 134773 net.cpp:226] Top shape: 50 528 14 14 (5174400)
I0331 18:46:53.933662 134773 net.cpp:234] Memory required for data: 2515182812
I0331 18:46:53.933666 134773 net.cpp:154] Setting up Layer of device :0 @cpu 0 Layer : loss2/ave_pool
I0331 18:46:53.933673 134773 layer_factory.hpp:114] Creating layer loss2/ave_pool
I0331 18:46:53.933697 134773 net.cpp:169] Creating Layer loss2/ave_pool
I0331 18:46:53.933702 134773 net.cpp:606] loss2/ave_pool <- inception_4d/output_inception_4d/output_0_split_0
I0331 18:46:53.933712 134773 net.cpp:579] loss2/ave_pool -> loss2/ave_pool
I0331 18:46:53.933715 134773 net.cpp:582] From AppendTop @cpu: 0
I0331 18:46:53.933724 134773 net.cpp:219] Setting up loss2/ave_pool
I0331 18:46:53.933729 134773 net.cpp:226] Top shape: 50 528 4 4 (422400)
I0331 18:46:53.933733 134773 net.cpp:234] Memory required for data: 2516872412
I0331 18:46:53.933738 134773 net.cpp:154] Setting up Layer of device :0 @cpu 0 Layer : loss2/conv
I0331 18:46:53.933743 134773 layer_factory.hpp:114] Creating layer loss2/conv
I0331 18:46:53.933755 134773 net.cpp:169] Creating Layer loss2/conv
I0331 18:46:53.933759 134773 net.cpp:606] loss2/conv <- loss2/ave_pool
I0331 18:46:53.933769 134773 net.cpp:579] loss2/conv -> loss2/conv
I0331 18:46:53.933773 134773 net.cpp:582] From AppendTop @cpu: 0
I0331 18:46:53.936380 134773 net.cpp:219] Setting up loss2/conv
I0331 18:46:53.936391 134773 net.cpp:226] Top shape: 50 128 4 4 (102400)
I0331 18:46:53.936395 134773 net.cpp:234] Memory required for data: 2517282012
I0331 18:46:53.936404 134773 net.cpp:154] Setting up Layer of device :0 @cpu 0 Layer : loss2/relu_conv
I0331 18:46:53.936408 134773 layer_factory.hpp:114] Creating layer loss2/relu_conv
I0331 18:46:53.936415 134773 net.cpp:169] Creating Layer loss2/relu_conv
I0331 18:46:53.936420 134773 net.cpp:606] loss2/relu_conv <- loss2/conv
I0331 18:46:53.936429 134773 net.cpp:566] loss2/relu_conv -> loss2/conv (in-place)
I0331 18:46:53.936435 134773 net.cpp:219] Setting up loss2/relu_conv
I0331 18:46:53.936440 134773 net.cpp:226] Top shape: 50 128 4 4 (102400)
I0331 18:46:53.936444 134773 net.cpp:234] Memory required for data: 2517691612
I0331 18:46:53.936450 134773 net.cpp:154] Setting up Layer of device :0 @cpu 0 Layer : loss2/fc
I0331 18:46:53.936453 134773 layer_factory.hpp:114] Creating layer loss2/fc
I0331 18:46:53.936467 134773 net.cpp:169] Creating Layer loss2/fc
I0331 18:46:53.936471 134773 net.cpp:606] loss2/fc <- loss2/conv
I0331 18:46:53.936480 134773 net.cpp:579] loss2/fc -> loss2/fc
I0331 18:46:53.936483 134773 net.cpp:582] From AppendTop @cpu: 0
I0331 18:46:53.956261 134773 net.cpp:219] Setting up loss2/fc
I0331 18:46:53.956272 134773 net.cpp:226] Top shape: 50 1024 (51200)
I0331 18:46:53.956276 134773 net.cpp:234] Memory required for data: 2517896412
I0331 18:46:53.956293 134773 net.cpp:154] Setting up Layer of device :0 @cpu 0 Layer : loss2/relu_fc
I0331 18:46:53.956297 134773 layer_factory.hpp:114] Creating layer loss2/relu_fc
I0331 18:46:53.956306 134773 net.cpp:169] Creating Layer loss2/relu_fc
I0331 18:46:53.956311 134773 net.cpp:606] loss2/relu_fc <- loss2/fc
I0331 18:46:53.956317 134773 net.cpp:566] loss2/relu_fc -> loss2/fc (in-place)
I0331 18:46:53.956326 134773 net.cpp:219] Setting up loss2/relu_fc
I0331 18:46:53.956331 134773 net.cpp:226] Top shape: 50 1024 (51200)
I0331 18:46:53.956333 134773 net.cpp:234] Memory required for data: 2518101212
I0331 18:46:53.956338 134773 net.cpp:154] Setting up Layer of device :0 @cpu 0 Layer : loss2/drop_fc
I0331 18:46:53.956342 134773 layer_factory.hpp:114] Creating layer loss2/drop_fc
I0331 18:46:53.956351 134773 net.cpp:169] Creating Layer loss2/drop_fc
I0331 18:46:53.956356 134773 net.cpp:606] loss2/drop_fc <- loss2/fc
I0331 18:46:53.956360 134773 net.cpp:566] loss2/drop_fc -> loss2/fc (in-place)
I0331 18:46:53.956370 134773 net.cpp:219] Setting up loss2/drop_fc
I0331 18:46:53.956375 134773 net.cpp:226] Top shape: 50 1024 (51200)
I0331 18:46:53.956379 134773 net.cpp:234] Memory required for data: 2518306012
I0331 18:46:53.956383 134773 net.cpp:154] Setting up Layer of device :0 @cpu 0 Layer : loss2/classifier
I0331 18:46:53.956387 134773 layer_factory.hpp:114] Creating layer loss2/classifier
I0331 18:46:53.956398 134773 net.cpp:169] Creating Layer loss2/classifier
I0331 18:46:53.956405 134773 net.cpp:606] loss2/classifier <- loss2/fc
I0331 18:46:53.956414 134773 net.cpp:579] loss2/classifier -> loss2/classifier
I0331 18:46:53.956418 134773 net.cpp:582] From AppendTop @cpu: 0
I0331 18:46:53.966341 134773 net.cpp:219] Setting up loss2/classifier
I0331 18:46:53.966352 134773 net.cpp:226] Top shape: 50 1000 (50000)
I0331 18:46:53.966356 134773 net.cpp:234] Memory required for data: 2518506012
I0331 18:46:53.966364 134773 net.cpp:154] Setting up Layer of device :0 @cpu 0 Layer : loss2/classifier_loss2/classifier_0_split
I0331 18:46:53.966369 134773 layer_factory.hpp:114] Creating layer loss2/classifier_loss2/classifier_0_split
I0331 18:46:53.966379 134773 net.cpp:169] Creating Layer loss2/classifier_loss2/classifier_0_split
I0331 18:46:53.966384 134773 net.cpp:606] loss2/classifier_loss2/classifier_0_split <- loss2/classifier
I0331 18:46:53.966392 134773 net.cpp:579] loss2/classifier_loss2/classifier_0_split -> loss2/classifier_loss2/classifier_0_split_0
I0331 18:46:53.966394 134773 net.cpp:582] From AppendTop @cpu: 0
I0331 18:46:53.966403 134773 net.cpp:579] loss2/classifier_loss2/classifier_0_split -> loss2/classifier_loss2/classifier_0_split_1
I0331 18:46:53.966405 134773 net.cpp:582] From AppendTop @cpu: 0
I0331 18:46:53.966413 134773 net.cpp:579] loss2/classifier_loss2/classifier_0_split -> loss2/classifier_loss2/classifier_0_split_2
I0331 18:46:53.966415 134773 net.cpp:582] From AppendTop @cpu: 0
I0331 18:46:53.966423 134773 net.cpp:219] Setting up loss2/classifier_loss2/classifier_0_split
I0331 18:46:53.966428 134773 net.cpp:226] Top shape: 50 1000 (50000)
I0331 18:46:53.966433 134773 net.cpp:226] Top shape: 50 1000 (50000)
I0331 18:46:53.966437 134773 net.cpp:226] Top shape: 50 1000 (50000)
I0331 18:46:53.966440 134773 net.cpp:234] Memory required for data: 2519106012
I0331 18:46:53.966445 134773 net.cpp:154] Setting up Layer of device :0 @cpu 0 Layer : loss2/loss
I0331 18:46:53.966449 134773 layer_factory.hpp:114] Creating layer loss2/loss
I0331 18:46:53.966456 134773 net.cpp:169] Creating Layer loss2/loss
I0331 18:46:53.966460 134773 net.cpp:606] loss2/loss <- loss2/classifier_loss2/classifier_0_split_0
…
I0331 18:46:53.966800 134773 net.cpp:154] Setting up Layer of device :0 @cpu 0 Layer : inception_4e/1x1
I0331 18:46:53.966804 134773 layer_factory.hpp:114] Creating layer inception_4e/1x1
I0331 18:46:53.966816 134773 net.cpp:169] Creating Layer inception_4e/1x1
I0331 18:46:53.966821 134773 net.cpp:606] inception_4e/1x1 <- inception_4d/output_inception_4d/output_0_split_1
I0331 18:46:53.966830 134773 net.cpp:579] inception_4e/1x1 -> inception_4e/1x1
I0331 18:46:53.966835 134773 net.cpp:582] From AppendTop @cpu: 0
I0331 18:46:53.973201 134773 net.cpp:219] Setting up inception_4e/1x1
I0331 18:46:53.973213 134773 net.cpp:226] Top shape: 50 256 14 14 (2508800)
I0331 18:46:53.973217 134773 net.cpp:234] Memory required for data: 2529141224
I0331 18:46:53.973227 134773 net.cpp:154] Setting up Layer of device :0 @cpu 0 Layer : inception_4e/relu_1x1
I0331 18:46:53.973230 134773 layer_factory.hpp:114] Creating layer inception_4e/relu_1x1
I0331 18:46:53.973240 134773 net.cpp:169] Creating Layer inception_4e/relu_1x1
I0331 18:46:53.973245 134773 net.cpp:606] inception_4e/relu_1x1 <- inception_4e/1x1
I0331 18:46:53.973253 134773 net.cpp:566] inception_4e/relu_1x1 -> inception_4e/1x1 (in-place)
I0331 18:46:53.973261 134773 net.cpp:219] Setting up inception_4e/relu_1x1
I0331 18:46:53.973268 134773 net.cpp:226] Top shape: 50 256 14 14 (2508800)
I0331 18:46:53.973270 134773 net.cpp:234] Memory required for data: 2539176424
I0331 18:46:53.973276 134773 net.cpp:154] Setting up Layer of device :0 @cpu 0 Layer : inception_4e/3x3_reduce
I0331 18:46:53.973280 134773 layer_factory.hpp:114] Creating layer inception_4e/3x3_reduce
I0331 18:46:53.973297 134773 net.cpp:169] Creating Layer inception_4e/3x3_reduce
I0331 18:46:53.973302 134773 net.cpp:606] inception_4e/3x3_reduce <- inception_4d/output_inception_4d/output_0_split_2
I0331 18:46:53.973309 134773 net.cpp:579] inception_4e/3x3_reduce -> inception_4e/3x3_reduce
I0331 18:46:53.973314 134773 net.cpp:582] From AppendTop @cpu: 0
I0331 18:46:53.978602 134773 net.cpp:219] Setting up inception_4e/3x3_reduce
I0331 18:46:53.978613 134773 net.cpp:226] Top shape: 50 160 14 14 (1568000)
I0331 18:46:53.978617 134773 net.cpp:234] Memory required for data: 2545448424
I0331 18:46:53.978631 134773 net.cpp:154] Setting up Layer of device :0 @cpu 0 Layer : inception_4e/relu_3x3_reduce
I0331 18:46:53.978636 134773 layer_factory.hpp:114] Creating layer inception_4e/relu_3x3_reduce
I0331 18:46:53.978652 134773 net.cpp:169] Creating Layer inception_4e/relu_3x3_reduce
I0331 18:46:53.978657 134773 net.cpp:606] inception_4e/relu_3x3_reduce <- inception_4e/3x3_reduce
I0331 18:46:53.978663 134773 net.cpp:566] inception_4e/relu_3x3_reduce -> inception_4e/3x3_reduce (in-place)
I0331 18:46:53.978670 134773 net.cpp:219] Setting up inception_4e/relu_3x3_reduce
I0331 18:46:53.978675 134773 net.cpp:226] Top shape: 50 160 14 14 (1568000)
I0331 18:46:53.978678 134773 net.cpp:234] Memory required for data: 2551720424
I0331 18:46:53.978683 134773 net.cpp:154] Setting up Layer of device :0 @cpu 0 Layer : inception_4e/3x3
I0331 18:46:53.978688 134773 layer_factory.hpp:114] Creating layer inception_4e/3x3
I0331 18:46:53.978698 134773 net.cpp:169] Creating Layer inception_4e/3x3
I0331 18:46:53.978703 134773 net.cpp:606] inception_4e/3x3 <- inception_4e/3x3_reduce
I0331 18:46:53.978709 134773 net.cpp:579] inception_4e/3x3 -> inception_4e/3x3
I0331 18:46:53.978713 134773 net.cpp:582] From AppendTop @cpu: 0
I0331 18:46:53.997573 134773 net.cpp:219] Setting up inception_4e/3x3
I0331 18:46:53.997608 134773 net.cpp:226] Top shape: 50 320 14 14 (3136000)
I0331 18:46:53.997613 134773 net.cpp:234] Memory required for data: 2564264424
I0331 18:46:53.997632 134773 net.cpp:154] Setting up Layer of device :0 @cpu 0 Layer : inception_4e/relu_3x3
I0331 18:46:53.997637 134773 layer_factory.hpp:114] Creating layer inception_4e/relu_3x3
I0331 18:46:53.997651 134773 net.cpp:169] Creating Layer inception_4e/relu_3x3
I0331 18:46:53.997668 134773 net.cpp:606] inception_4e/relu_3x3 <- inception_4e/3x3
I0331 18:46:53.997678 134773 net.cpp:566] inception_4e/relu_3x3 -> inception_4e/3x3 (in-place)
I0331 18:46:53.997690 134773 net.cpp:219] Setting up inception_4e/relu_3x3
I0331 18:46:53.997695 134773 net.cpp:226] Top shape: 50 320 14 14 (3136000)
I0331 18:46:53.997699 134773 net.cpp:234] Memory required for data: 2576808424
I0331 18:46:53.997704 134773 net.cpp:154] Setting up Layer of device :0 @cpu 0 Layer : inception_4e/5x5_reduce
I0331 18:46:53.997709 134773 layer_factory.hpp:114] Creating layer inception_4e/5x5_reduce
I0331 18:46:53.997721 134773 net.cpp:169] Creating Layer inception_4e/5x5_reduce
I0331 18:46:53.997726 134773 net.cpp:606] inception_4e/5x5_reduce <- inception_4d/output_inception_4d/output_0_split_3
I0331 18:46:53.997737 134773 net.cpp:579] inception_4e/5x5_reduce -> inception_4e/5x5_reduce
I0331 18:46:53.997742 134773 net.cpp:582] From AppendTop @cpu: 0
I0331 18:46:54.001229 134773 net.cpp:219] Setting up inception_4e/5x5_reduce
I0331 18:46:54.001240 134773 net.cpp:226] Top shape: 50 32 14 14 (313600)
I0331 18:46:54.001245 134773 net.cpp:234] Memory required for data: 2578062824
I0331 18:46:54.001255 134773 net.cpp:154] Setting up Layer of device :0 @cpu 0 Layer : inception_4e/relu_5x5_reduce
I0331 18:46:54.001258 134773 layer_factory.hpp:114] Creating layer inception_4e/relu_5x5_reduce
I0331 18:46:54.001267 134773 net.cpp:169] Creating Layer inception_4e/relu_5x5_reduce
I0331 18:46:54.001273 134773 net.cpp:606] inception_4e/relu_5x5_reduce <- inception_4e/5x5_reduce
I0331 18:46:54.001279 134773 net.cpp:566] inception_4e/relu_5x5_reduce -> inception_4e/5x5_reduce (in-place)
I0331 18:46:54.001286 134773 net.cpp:219] Setting up inception_4e/relu_5x5_reduce
I0331 18:46:54.001291 134773 net.cpp:226] Top shape: 50 32 14 14 (313600)
I0331 18:46:54.001296 134773 net.cpp:234] Memory required for data: 2579317224
I0331 18:46:54.001301 134773 net.cpp:154] Setting up Layer of device :0 @cpu 0 Layer : inception_4e/5x5
I0331 18:46:54.001304 134773 layer_factory.hpp:114] Creating layer inception_4e/5x5
I0331 18:46:54.001315 134773 net.cpp:169] Creating Layer inception_4e/5x5
I0331 18:46:54.001319 134773 net.cpp:606] inception_4e/5x5 <- inception_4e/5x5_reduce
I0331 18:46:54.001329 134773 net.cpp:579] inception_4e/5x5 -> inception_4e/5x5
I0331 18:46:54.001333 134773 net.cpp:582] From AppendTop @cpu: 0
I0331 18:46:54.008005 134773 net.cpp:219] Setting up inception_4e/5x5
I0331 18:46:54.008018 134773 net.cpp:226] Top shape: 50 128 14 14 (1254400)
I0331 18:46:54.008039 134773 net.cpp:234] Memory required for data: 2584334824
I0331 18:46:54.008049 134773 net.cpp:154] Setting up Layer of device :0 @cpu 0 Layer : inception_4e/relu_5x5
I0331 18:46:54.008054 134773 layer_factory.hpp:114] Creating layer inception_4e/relu_5x5
I0331 18:46:54.008060 134773 net.cpp:169] Creating Layer inception_4e/relu_5x5
I0331 18:46:54.008064 134773 net.cpp:606] inception_4e/relu_5x5 <- inception_4e/5x5
I0331 18:46:54.008070 134773 net.cpp:566] inception_4e/relu_5x5 -> inception_4e/5x5 (in-place)
I0331 18:46:54.008077 134773 net.cpp:219] Setting up inception_4e/relu_5x5
I0331 18:46:54.008082 134773 net.cpp:226] Top shape: 50 128 14 14 (1254400)
I0331 18:46:54.008086 134773 net.cpp:234] Memory required for data: 2589352424
I0331 18:46:54.008090 134773 net.cpp:154] Setting up Layer of device :0 @cpu 0 Layer : inception_4e/pool
I0331 18:46:54.008095 134773 layer_factory.hpp:114] Creating layer inception_4e/pool
I0331 18:46:54.008136 134773 net.cpp:169] Creating Layer inception_4e/pool
I0331 18:46:54.008141 134773 net.cpp:606] inception_4e/pool <- inception_4d/output_inception_4d/output_0_split_4
I0331 18:46:54.008147 134773 net.cpp:579] inception_4e/pool -> inception_4e/pool
I0331 18:46:54.008152 134773 net.cpp:582] From AppendTop @cpu: 0
I0331 18:46:54.008163 134773 net.cpp:219] Setting up inception_4e/pool
I0331 18:46:54.008172 134773 net.cpp:226] Top shape: 50 528 14 14 (5174400)
I0331 18:46:54.008175 134773 net.cpp:234] Memory required for data: 2610050024
I0331 18:46:54.008183 134773 net.cpp:154] Setting up Layer of device :0 @cpu 0 Layer : inception_4e/pool_proj
I0331 18:46:54.008188 134773 layer_factory.hpp:114] Creating layer inception_4e/pool_proj
I0331 18:46:54.008198 134773 net.cpp:169] Creating Layer inception_4e/pool_proj
I0331 18:46:54.008201 134773 net.cpp:606] inception_4e/pool_proj <- inception_4e/pool
I0331 18:46:54.008210 134773 net.cpp:579] inception_4e/pool_proj -> inception_4e/pool_proj
I0331 18:46:54.008213 134773 net.cpp:582] From AppendTop @cpu: 0
I0331 18:46:54.012792 134773 net.cpp:219] Setting up inception_4e/pool_proj
I0331 18:46:54.012804 134773 net.cpp:226] Top shape: 50 128 14 14 (1254400)
I0331 18:46:54.012809 134773 net.cpp:234] Memory required for data: 2615067624
I0331 18:46:54.012817 134773 net.cpp:154] Setting up Layer of device :0 @cpu 0 Layer : inception_4e/relu_pool_proj
I0331 18:46:54.012822 134773 layer_factory.hpp:114] Creating layer inception_4e/relu_pool_proj
I0331 18:46:54.012830 134773 net.cpp:169] Creating Layer inception_4e/relu_pool_proj
I0331 18:46:54.012833 134773 net.cpp:606] inception_4e/relu_pool_proj <- inception_4e/pool_proj
I0331 18:46:54.012842 134773 net.cpp:566] inception_4e/relu_pool_proj -> inception_4e/pool_proj (in-place)
I0331 18:46:54.012850 134773 net.cpp:219] Setting up inception_4e/relu_pool_proj
I0331 18:46:54.012856 134773 net.cpp:226] Top shape: 50 128 14 14 (1254400)
I0331 18:46:54.012858 134773 net.cpp:234] Memory required for data: 2620085224
I0331 18:46:54.012863 134773 net.cpp:154] Setting up Layer of device :0 @cpu 0 Layer : inception_4e/output
I0331 18:46:54.012867 134773 layer_factory.hpp:114] Creating layer inception_4e/output
I0331 18:46:54.012876 134773 net.cpp:169] Creating Layer inception_4e/output
I0331 18:46:54.012881 134773 net.cpp:606] inception_4e/output <- inception_4e/1x1
I0331 18:46:54.012886 134773 net.cpp:606] inception_4e/output <- inception_4e/3x3
I0331 18:46:54.012890 134773 net.cpp:606] inception_4e/output <- inception_4e/5x5
I0331 18:46:54.012897 134773 net.cpp:606] inception_4e/output <- inception_4e/pool_proj
I0331 18:46:54.012902 134773 net.cpp:579] inception_4e/output -> inception_4e/output
I0331 18:46:54.012907 134773 net.cpp:582] From AppendTop @cpu: 0
I0331 18:46:54.012917 134773 net.cpp:219] Setting up inception_4e/output
I0331 18:46:54.012923 134773 net.cpp:226] Top shape: 50 832 14 14 (8153600)
I0331 18:46:54.012925 134773 net.cpp:234] Memory required for data: 2652699624
I0331 18:46:54.012930 134773 net.cpp:154] Setting up Layer of device :0 @cpu 0 Layer : pool4/3x3_s2
I0331 18:46:54.012943 134773 layer_factory.hpp:114] Creating layer pool4/3x3_s2
I0331 18:46:54.012964 134773 net.cpp:169] Creating Layer pool4/3x3_s2
I0331 18:46:54.012969 134773 net.cpp:606] pool4/3x3_s2 <- inception_4e/output
I0331 18:46:54.012975 134773 net.cpp:579] pool4/3x3_s2 -> pool4/3x3_s2
I0331 18:46:54.012979 134773 net.cpp:582] From AppendTop @cpu: 0
I0331 18:46:54.012989 134773 net.cpp:219] Setting up pool4/3x3_s2
I0331 18:46:54.012995 134773 net.cpp:226] Top shape: 50 832 7 7 (2038400)
I0331 18:46:54.012998 134773 net.cpp:234] Memory required for data: 2660853224
I0331 18:46:54.013005 134773 net.cpp:154] Setting up Layer of device :0 @cpu 0 Layer : pool4/3x3_s2_pool4/3x3_s2_0_split
I0331 18:46:54.013008 134773 layer_factory.hpp:114] Creating layer pool4/3x3_s2_pool4/3x3_s2_0_split
I0331 18:46:54.013018 134773 net.cpp:169] Creating Layer pool4/3x3_s2_pool4/3x3_s2_0_split
I0331 18:46:54.013022 134773 net.cpp:606] pool4/3x3_s2_pool4/3x3_s2_0_split <- pool4/3x3_s2
I0331 18:46:54.013028 134773 net.cpp:579] pool4/3x3_s2_pool4/3x3_s2_0_split -> pool4/3x3_s2_pool4/3x3_s2_0_split_0
I0331 18:46:54.013032 134773 net.cpp:582] From AppendTop @cpu: 0
I0331 18:46:54.013038 134773 net.cpp:579] pool4/3x3_s2_pool4/3x3_s2_0_split -> pool4/3x3_s2_pool4/3x3_s2_0_split_1
I0331 18:46:54.013042 134773 net.cpp:582] From AppendTop @cpu: 0
I0331 18:46:54.013049 134773 net.cpp:579] pool4/3x3_s2_pool4/3x3_s2_0_split -> pool4/3x3_s2_pool4/3x3_s2_0_split_2
I0331 18:46:54.013052 134773 net.cpp:582] From AppendTop @cpu: 0
I0331 18:46:54.013070 134773 net.cpp:579] pool4/3x3_s2_pool4/3x3_s2_0_split -> pool4/3x3_s2_pool4/3x3_s2_0_split_3
I0331 18:46:54.013074 134773 net.cpp:582] From AppendTop @cpu: 0
I0331 18:46:54.013083 134773 net.cpp:219] Setting up pool4/3x3_s2_pool4/3x3_s2_0_split
I0331 18:46:54.013088 134773 net.cpp:226] Top shape: 50 832 7 7 (2038400)
I0331 18:46:54.013093 134773 net.cpp:226] Top shape: 50 832 7 7 (2038400)
I0331 18:46:54.013099 134773 net.cpp:226] Top shape: 50 832 7 7 (2038400)
I0331 18:46:54.013104 134773 net.cpp:226] Top shape: 50 832 7 7 (2038400)
I0331 18:46:54.013108 134773 net.cpp:234] Memory required for data: 2693467624
I0331 18:46:54.013113 134773 net.cpp:154] Setting up Layer of device :0 @cpu 0 Layer : inception_5a/1x1
I0331 18:46:54.013118 134773 layer_factory.hpp:114] Creating layer inception_5a/1x1
I0331 18:46:54.013128 134773 net.cpp:169] Creating Layer inception_5a/1x1
I0331 18:46:54.013134 134773 net.cpp:606] inception_5a/1x1 <- pool4/3x3_s2_pool4/3x3_s2_0_split_0
I0331 18:46:54.013140 134773 net.cpp:579] inception_5a/1x1 -> inception_5a/1x1
I0331 18:46:54.013144 134773 net.cpp:582] From AppendTop @cpu: 0
I0331 18:46:54.020768 134773 net.cpp:219] Setting up inception_5a/1x1
I0331 18:46:54.020781 134773 net.cpp:226] Top shape: 50 256 7 7 (627200)
I0331 18:46:54.020786 134773 net.cpp:234] Memory required for data: 2695976424
I0331 18:46:54.020794 134773 net.cpp:154] Setting up Layer of device :0 @cpu 0 Layer : inception_5a/relu_1x1
I0331 18:46:54.020799 134773 layer_factory.hpp:114] Creating layer inception_5a/relu_1x1
I0331 18:46:54.020808 134773 net.cpp:169] Creating Layer inception_5a/relu_1x1
I0331 18:46:54.020813 134773 net.cpp:606] inception_5a/relu_1x1 <- inception_5a/1x1
I0331 18:46:54.020819 134773 net.cpp:566] inception_5a/relu_1x1 -> inception_5a/1x1 (in-place)
I0331 18:46:54.020828 134773 net.cpp:219] Setting up inception_5a/relu_1x1
I0331 18:46:54.020833 134773 net.cpp:226] Top shape: 50 256 7 7 (627200)
I0331 18:46:54.020835 134773 net.cpp:234] Memory required for data: 2698485224
I0331 18:46:54.020840 134773 net.cpp:154] Setting up Layer of device :0 @cpu 0 Layer : inception_5a/3x3_reduce
I0331 18:46:54.020845 134773 layer_factory.hpp:114] Creating layer inception_5a/3x3_reduce
I0331 18:46:54.020854 134773 net.cpp:169] Creating Layer inception_5a/3x3_reduce
I0331 18:46:54.020859 134773 net.cpp:606] inception_5a/3x3_reduce <- pool4/3x3_s2_pool4/3x3_s2_0_split_1
I0331 18:46:54.020869 134773 net.cpp:579] inception_5a/3x3_reduce -> inception_5a/3x3_reduce
I0331 18:46:54.020871 134773 net.cpp:582] From AppendTop @cpu: 0
I0331 18:46:54.026208 134773 net.cpp:219] Setting up inception_5a/3x3_reduce
I0331 18:46:54.026221 134773 net.cpp:226] Top shape: 50 160 7 7 (392000)
I0331 18:46:54.026223 134773 net.cpp:234] Memory required for data: 2700053224
I0331 18:46:54.026232 134773 net.cpp:154] Setting up Layer of device :0 @cpu 0 Layer : inception_5a/relu_3x3_reduce
I0331 18:46:54.026237 134773 layer_factory.hpp:114] Creating layer inception_5a/relu_3x3_reduce
I0331 18:46:54.026243 134773 net.cpp:169] Creating Layer inception_5a/relu_3x3_reduce
I0331 18:46:54.026248 134773 net.cpp:606] inception_5a/relu_3x3_reduce <- inception_5a/3x3_reduce
I0331 18:46:54.026254 134773 net.cpp:566] inception_5a/relu_3x3_reduce -> inception_5a/3x3_reduce (in-place)
I0331 18:46:54.026262 134773 net.cpp:219] Setting up inception_5a/relu_3x3_reduce
I0331 18:46:54.026267 134773 net.cpp:226] Top shape: 50 160 7 7 (392000)
I0331 18:46:54.026270 134773 net.cpp:234] Memory required for data: 2701621224
I0331 18:46:54.026275 134773 net.cpp:154] Setting up Layer of device :0 @cpu 0 Layer : inception_5a/3x3
I0331 18:46:54.026279 134773 layer_factory.hpp:114] Creating layer inception_5a/3x3
I0331 18:46:54.026290 134773 net.cpp:169] Creating Layer inception_5a/3x3
I0331 18:46:54.026295 134773 net.cpp:606] inception_5a/3x3 <- inception_5a/3x3_reduce
I0331 18:46:54.026301 134773 net.cpp:579] inception_5a/3x3 -> inception_5a/3x3
I0331 18:46:54.026305 134773 net.cpp:582] From AppendTop @cpu: 0
I0331 18:46:54.041577 134773 net.cpp:219] Setting up inception_5a/3x3
I0331 18:46:54.041607 134773 net.cpp:226] Top shape: 50 320 7 7 (784000)
I0331 18:46:54.041611 134773 net.cpp:234] Memory required for data: 2704757224
I0331 18:46:54.041622 134773 net.cpp:154] Setting up Layer of device :0 @cpu 0 Layer : inception_5a/relu_3x3
I0331 18:46:54.041632 134773 layer_factory.hpp:114] Creating layer inception_5a/relu_3x3
I0331 18:46:54.041648 134773 net.cpp:169] Creating Layer inception_5a/relu_3x3
I0331 18:46:54.041654 134773 net.cpp:606] inception_5a/relu_3x3 <- inception_5a/3x3
I0331 18:46:54.041662 134773 net.cpp:566] inception_5a/relu_3x3 -> inception_5a/3x3 (in-place)
I0331 18:46:54.041671 134773 net.cpp:219] Setting up inception_5a/relu_3x3
I0331 18:46:54.041676 134773 net.cpp:226] Top shape: 50 320 7 7 (784000)
I0331 18:46:54.041681 134773 net.cpp:234] Memory required for data: 2707893224
I0331 18:46:54.041685 134773 net.cpp:154] Setting up Layer of device :0 @cpu 0 Layer : inception_5a/5x5_reduce
I0331 18:46:54.041689 134773 layer_factory.hpp:114] Creating layer inception_5a/5x5_reduce
I0331 18:46:54.041700 134773 net.cpp:169] Creating Layer inception_5a/5x5_reduce
I0331 18:46:54.041707 134773 net.cpp:606] inception_5a/5x5_reduce <- pool4/3x3_s2_pool4/3x3_s2_0_split_2
I0331 18:46:54.041718 134773 net.cpp:579] inception_5a/5x5_reduce -> inception_5a/5x5_reduce
I0331 18:46:54.041721 134773 net.cpp:582] From AppendTop @cpu: 0
I0331 18:46:54.044148 134773 net.cpp:219] Setting up inception_5a/5x5_reduce
I0331 18:46:54.044159 134773 net.cpp:226] Top shape: 50 32 7 7 (78400)
I0331 18:46:54.044163 134773 net.cpp:234] Memory required for data: 2708206824
I0331 18:46:54.044173 134773 net.cpp:154] Setting up Layer of device :0 @cpu 0 Layer : inception_5a/relu_5x5_reduce
I0331 18:46:54.044178 134773 layer_factory.hpp:114] Creating layer inception_5a/relu_5x5_reduce
I0331 18:46:54.044186 134773 net.cpp:169] Creating Layer inception_5a/relu_5x5_reduce
I0331 18:46:54.044191 134773 net.cpp:606] inception_5a/relu_5x5_reduce <- inception_5a/5x5_reduce
I0331 18:46:54.044196 134773 net.cpp:566] inception_5a/relu_5x5_reduce -> inception_5a/5x5_reduce (in-place)
I0331 18:46:54.044203 134773 net.cpp:219] Setting up inception_5a/relu_5x5_reduce
I0331 18:46:54.044209 134773 net.cpp:226] Top shape: 50 32 7 7 (78400)
I0331 18:46:54.044212 134773 net.cpp:234] Memory required for data: 2708520424
I0331 18:46:54.044217 134773 net.cpp:154] Setting up Layer of device :0 @cpu 0 Layer : inception_5a/5x5
I0331 18:46:54.044221 134773 layer_factory.hpp:114] Creating layer inception_5a/5x5
I0331 18:46:54.044247 134773 net.cpp:169] Creating Layer inception_5a/5x5
I0331 18:46:54.044252 134773 net.cpp:606] inception_5a/5x5 <- inception_5a/5x5_reduce
I0331 18:46:54.044260 134773 net.cpp:579] inception_5a/5x5 -> inception_5a/5x5
I0331 18:46:54.044265 134773 net.cpp:582] From AppendTop @cpu: 0
I0331 18:46:54.048784 134773 net.cpp:219] Setting up inception_5a/5x5
I0331 18:46:54.048795 134773 net.cpp:226] Top shape: 50 128 7 7 (313600)
I0331 18:46:54.048799 134773 net.cpp:234] Memory required for data: 2709774824
I0331 18:46:54.048807 134773 net.cpp:154] Setting up Layer of device :0 @cpu 0 Layer : inception_5a/relu_5x5
I0331 18:46:54.048812 134773 layer_factory.hpp:114] Creating layer inception_5a/relu_5x5
I0331 18:46:54.048818 134773 net.cpp:169] Creating Layer inception_5a/relu_5x5
I0331 18:46:54.048823 134773 net.cpp:606] inception_5a/relu_5x5 <- inception_5a/5x5
I0331 18:46:54.048831 134773 net.cpp:566] inception_5a/relu_5x5 -> inception_5a/5x5 (in-place)
I0331 18:46:54.048838 134773 net.cpp:219] Setting up inception_5a/relu_5x5
I0331 18:46:54.048843 134773 net.cpp:226] Top shape: 50 128 7 7 (313600)
I0331 18:46:54.048847 134773 net.cpp:234] Memory required for data: 2711029224
I0331 18:46:54.048852 134773 net.cpp:154] Setting up Layer of device :0 @cpu 0 Layer : inception_5a/pool
I0331 18:46:54.048856 134773 layer_factory.hpp:114] Creating layer inception_5a/pool
I0331 18:46:54.048892 134773 net.cpp:169] Creating Layer inception_5a/pool
I0331 18:46:54.048898 134773 net.cpp:606] inception_5a/pool <- pool4/3x3_s2_pool4/3x3_s2_0_split_3
I0331 18:46:54.048910 134773 net.cpp:579] inception_5a/pool -> inception_5a/pool
I0331 18:46:54.048914 134773 net.cpp:582] From AppendTop @cpu: 0
I0331 18:46:54.048926 134773 net.cpp:219] Setting up inception_5a/pool
I0331 18:46:54.048933 134773 net.cpp:226] Top shape: 50 832 7 7 (2038400)
I0331 18:46:54.048936 134773 net.cpp:234] Memory required for data: 2719182824
I0331 18:46:54.048941 134773 net.cpp:154] Setting up Layer of device :0 @cpu 0 Layer : inception_5a/pool_proj
I0331 18:46:54.048945 134773 layer_factory.hpp:114] Creating layer inception_5a/pool_proj
I0331 18:46:54.048956 134773 net.cpp:169] Creating Layer inception_5a/pool_proj
I0331 18:46:54.048960 134773 net.cpp:606] inception_5a/pool_proj <- inception_5a/pool
I0331 18:46:54.048969 134773 net.cpp:579] inception_5a/pool_proj -> inception_5a/pool_proj
I0331 18:46:54.048974 134773 net.cpp:582] From AppendTop @cpu: 0
I0331 18:46:54.053742 134773 net.cpp:219] Setting up inception_5a/pool_proj
I0331 18:46:54.053755 134773 net.cpp:226] Top shape: 50 128 7 7 (313600)
I0331 18:46:54.053758 134773 net.cpp:234] Memory required for data: 2720437224
I0331 18:46:54.053767 134773 net.cpp:154] Setting up Layer of device :0 @cpu 0 Layer : inception_5a/relu_pool_proj
I0331 18:46:54.053771 134773 layer_factory.hpp:114] Creating layer inception_5a/relu_pool_proj
I0331 18:46:54.053777 134773 net.cpp:169] Creating Layer inception_5a/relu_pool_proj
I0331 18:46:54.053782 134773 net.cpp:606] inception_5a/relu_pool_proj <- inception_5a/pool_proj
I0331 18:46:54.053791 134773 net.cpp:566] inception_5a/relu_pool_proj -> inception_5a/pool_proj (in-place)
I0331 18:46:54.053798 134773 net.cpp:219] Setting up inception_5a/relu_pool_proj
I0331 18:46:54.053803 134773 net.cpp:226] Top shape: 50 128 7 7 (313600)
I0331 18:46:54.053807 134773 net.cpp:234] Memory required for data: 2721691624
I0331 18:46:54.053812 134773 net.cpp:154] Setting up Layer of device :0 @cpu 0 Layer : inception_5a/output
I0331 18:46:54.053817 134773 layer_factory.hpp:114] Creating layer inception_5a/output
I0331 18:46:54.053824 134773 net.cpp:169] Creating Layer inception_5a/output
I0331 18:46:54.053828 134773 net.cpp:606] inception_5a/output <- inception_5a/1x1
I0331 18:46:54.053834 134773 net.cpp:606] inception_5a/output <- inception_5a/3x3
I0331 18:46:54.053839 134773 net.cpp:606] inception_5a/output <- inception_5a/5x5
I0331 18:46:54.053844 134773 net.cpp:606] inception_5a/output <- inception_5a/pool_proj
I0331 18:46:54.053850 134773 net.cpp:579] inception_5a/output -> inception_5a/output
I0331 18:46:54.053864 134773 net.cpp:582] From AppendTop @cpu: 0
I0331 18:46:54.053874 134773 net.cpp:219] Setting up inception_5a/output
I0331 18:46:54.053880 134773 net.cpp:226] Top shape: 50 832 7 7 (2038400)
I0331 18:46:54.053884 134773 net.cpp:234] Memory required for data: 2729845224
I0331 18:46:54.053889 134773 net.cpp:154] Setting up Layer of device :0 @cpu 0 Layer : inception_5a/output_inception_5a/output_0_split
I0331 18:46:54.053894 134773 layer_factory.hpp:114] Creating layer inception_5a/output_inception_5a/output_0_split
I0331 18:46:54.053901 134773 net.cpp:169] Creating Layer inception_5a/output_inception_5a/output_0_split
…
I0331 18:46:54.053930 134773 net.cpp:582] From AppendTop @cpu: 0
I0331 18:46:54.053936 134773 net.cpp:579] inception_5a/output_inception_5a/output_0_split -> inception_5a/output_inception_5a/output_0_split_2
I0331 18:46:54.053939 134773 net.cpp:582] From AppendTop @cpu: 0
I0331 18:46:54.053946 134773 net.cpp:579] inception_5a/output_inception_5a/output_0_split -> inception_5a/output_inception_5a/output_0_split_3
I0331 18:46:54.053952 134773 net.cpp:582] From AppendTop @cpu: 0
I0331 18:46:54.053961 134773 net.cpp:219] Setting up inception_5a/output_inception_5a/output_0_split
I0331 18:46:54.053966 134773 net.cpp:226] Top shape: 50 832 7 7 (2038400)
I0331 18:46:54.053970 134773 net.cpp:226] Top shape: 50 832 7 7 (2038400)
I0331 18:46:54.053975 134773 net.cpp:226] Top shape: 50 832 7 7 (2038400)
I0331 18:46:54.053979 134773 net.cpp:226] Top shape: 50 832 7 7 (2038400)
I0331 18:46:54.053983 134773 net.cpp:234] Memory required for data: 2762459624
I0331 18:46:54.053987 134773 net.cpp:154] Setting up Layer of device :0 @cpu 0 Layer : inception_5b/1x1
I0331 18:46:54.053992 134773 layer_factory.hpp:114] Creating layer inception_5b/1x1
I0331 18:46:54.054000 134773 net.cpp:169] Creating Layer inception_5b/1x1
I0331 18:46:54.054005 134773 net.cpp:606] inception_5b/1x1 <- inception_5a/output_inception_5a/output_0_split_0
I0331 18:46:54.054014 134773 net.cpp:579] inception_5b/1x1 -> inception_5b/1x1
I0331 18:46:54.054018 134773 net.cpp:582] From AppendTop @cpu: 0
I0331 18:46:54.064535 134773 net.cpp:219] Setting up inception_5b/1x1
I0331 18:46:54.064550 134773 net.cpp:226] Top shape: 50 384 7 7 (940800)
I0331 18:46:54.064554 134773 net.cpp:234] Memory required for data: 2766222824
I0331 18:46:54.064564 134773 net.cpp:154] Setting up Layer of device :0 @cpu 0 Layer : inception_5b/relu_1x1
I0331 18:46:54.064568 134773 layer_factory.hpp:114] Creating layer inception_5b/relu_1x1
I0331 18:46:54.064575 134773 net.cpp:169] Creating Layer inception_5b/relu_1x1
I0331 18:46:54.064580 134773 net.cpp:606] inception_5b/relu_1x1 <- inception_5b/1x1
I0331 18:46:54.064591 134773 net.cpp:566] inception_5b/relu_1x1 -> inception_5b/1x1 (in-place)
I0331 18:46:54.064599 134773 net.cpp:219] Setting up inception_5b/relu_1x1
I0331 18:46:54.064604 134773 net.cpp:226] Top shape: 50 384 7 7 (940800)
I0331 18:46:54.064607 134773 net.cpp:234] Memory required for data: 2769986024
I0331 18:46:54.064612 134773 net.cpp:154] Setting up Layer of device :0 @cpu 0 Layer : inception_5b/3x3_reduce
I0331 18:46:54.064616 134773 layer_factory.hpp:114] Creating layer inception_5b/3x3_reduce
I0331 18:46:54.064630 134773 net.cpp:169] Creating Layer inception_5b/3x3_reduce
I0331 18:46:54.064635 134773 net.cpp:606] inception_5b/3x3_reduce <- inception_5a/output_inception_5a/output_0_split_1
I0331 18:46:54.064643 134773 net.cpp:579] inception_5b/3x3_reduce -> inception_5b/3x3_reduce
I0331 18:46:54.064647 134773 net.cpp:582] From AppendTop @cpu: 0
I0331 18:46:54.070578 134773 net.cpp:219] Setting up inception_5b/3x3_reduce
I0331 18:46:54.070590 134773 net.cpp:226] Top shape: 50 192 7 7 (470400)
I0331 18:46:54.070595 134773 net.cpp:234] Memory required for data: 2771867624
I0331 18:46:54.070603 134773 net.cpp:154] Setting up Layer of device :0 @cpu 0 Layer : inception_5b/relu_3x3_reduce
I0331 18:46:54.070607 134773 layer_factory.hpp:114] Creating layer inception_5b/relu_3x3_reduce
I0331 18:46:54.070614 134773 net.cpp:169] Creating Layer inception_5b/relu_3x3_reduce
I0331 18:46:54.070621 134773 net.cpp:606] inception_5b/relu_3x3_reduce <- inception_5b/3x3_reduce
I0331 18:46:54.070629 134773 net.cpp:566] inception_5b/relu_3x3_reduce -> inception_5b/3x3_reduce (in-place)
I0331 18:46:54.070637 134773 net.cpp:219] Setting up inception_5b/relu_3x3_reduce
I0331 18:46:54.070642 134773 net.cpp:226] Top shape: 50 192 7 7 (470400)
I0331 18:46:54.070647 134773 net.cpp:234] Memory required for data: 2773749224
I0331 18:46:54.070652 134773 net.cpp:154] Setting up Layer of device :0 @cpu 0 Layer : inception_5b/3x3
I0331 18:46:54.070655 134773 layer_factory.hpp:114] Creating layer inception_5b/3x3
I0331 18:46:54.070664 134773 net.cpp:169] Creating Layer inception_5b/3x3
I0331 18:46:54.070668 134773 net.cpp:606] inception_5b/3x3 <- inception_5b/3x3_reduce
I0331 18:46:54.070678 134773 net.cpp:579] inception_5b/3x3 -> inception_5b/3x3
I0331 18:46:54.070683 134773 net.cpp:582] From AppendTop @cpu: 0
I0331 18:46:54.091750 134773 net.cpp:219] Setting up inception_5b/3x3
I0331 18:46:54.091786 134773 net.cpp:226] Top shape: 50 384 7 7 (940800)
I0331 18:46:54.091800 134773 net.cpp:234] Memory required for data: 2777512424
I0331 18:46:54.091816 134773 net.cpp:154] Setting up Layer of device :0 @cpu 0 Layer : inception_5b/relu_3x3
I0331 18:46:54.091822 134773 layer_factory.hpp:114] Creating layer inception_5b/relu_3x3
I0331 18:46:54.091835 134773 net.cpp:169] Creating Layer inception_5b/relu_3x3
I0331 18:46:54.091843 134773 net.cpp:606] inception_5b/relu_3x3 <- inception_5b/3x3
I0331 18:46:54.091856 134773 net.cpp:566] inception_5b/relu_3x3 -> inception_5b/3x3 (in-place)
I0331 18:46:54.091867 134773 net.cpp:219] Setting up inception_5b/relu_3x3
I0331 18:46:54.091873 134773 net.cpp:226] Top shape: 50 384 7 7 (940800)
I0331 18:46:54.091877 134773 net.cpp:234] Memory required for data: 2781275624
I0331 18:46:54.091882 134773 net.cpp:154] Setting up Layer of device :0 @cpu 0 Layer : inception_5b/5x5_reduce
I0331 18:46:54.091886 134773 layer_factory.hpp:114] Creating layer inception_5b/5x5_reduce
I0331 18:46:54.091899 134773 net.cpp:169] Creating Layer inception_5b/5x5_reduce
I0331 18:46:54.091905 134773 net.cpp:606] inception_5b/5x5_reduce <- inception_5a/output_inception_5a/output_0_split_2
I0331 18:46:54.091914 134773 net.cpp:579] inception_5b/5x5_reduce -> inception_5b/5x5_reduce
I0331 18:46:54.091918 134773 net.cpp:582] From AppendTop @cpu: 0
I0331 18:46:54.094918 134773 net.cpp:219] Setting up inception_5b/5x5_reduce
I0331 18:46:54.094930 134773 net.cpp:226] Top shape: 50 48 7 7 (117600)
I0331 18:46:54.094933 134773 net.cpp:234] Memory required for data: 2781746024
I0331 18:46:54.094944 134773 net.cpp:154] Setting up Layer of device :0 @cpu 0 Layer : inception_5b/relu_5x5_reduce
I0331 18:46:54.094947 134773 layer_factory.hpp:114] Creating layer inception_5b/relu_5x5_reduce
I0331 18:46:54.094955 134773 net.cpp:169] Creating Layer inception_5b/relu_5x5_reduce
I0331 18:46:54.094960 134773 net.cpp:606] inception_5b/relu_5x5_reduce <- inception_5b/5x5_reduce
I0331 18:46:54.094969 134773 net.cpp:566] inception_5b/relu_5x5_reduce -> inception_5b/5x5_reduce (in-place)
I0331 18:46:54.094976 134773 net.cpp:219] Setting up inception_5b/relu_5x5_reduce
I0331 18:46:54.094981 134773 net.cpp:226] Top shape: 50 48 7 7 (117600)
I0331 18:46:54.094985 134773 net.cpp:234] Memory required for data: 2782216424
I0331 18:46:54.094990 134773 net.cpp:154] Setting up Layer of device :0 @cpu 0 Layer : inception_5b/5x5
I0331 18:46:54.094995 134773 layer_factory.hpp:114] Creating layer inception_5b/5x5
I0331 18:46:54.095003 134773 net.cpp:169] Creating Layer inception_5b/5x5
I0331 18:46:54.095026 134773 net.cpp:606] inception_5b/5x5 <- inception_5b/5x5_reduce
I0331 18:46:54.095036 134773 net.cpp:579] inception_5b/5x5 -> inception_5b/5x5
I0331 18:46:54.095039 134773 net.cpp:582] From AppendTop @cpu: 0
I0331 18:46:54.101269 134773 net.cpp:219] Setting up inception_5b/5x5
I0331 18:46:54.101281 134773 net.cpp:226] Top shape: 50 128 7 7 (313600)
I0331 18:46:54.101285 134773 net.cpp:234] Memory required for data: 2783470824
I0331 18:46:54.101294 134773 net.cpp:154] Setting up Layer of device :0 @cpu 0 Layer : inception_5b/relu_5x5
I0331 18:46:54.101299 134773 layer_factory.hpp:114] Creating layer inception_5b/relu_5x5
I0331 18:46:54.101305 134773 net.cpp:169] Creating Layer inception_5b/relu_5x5
I0331 18:46:54.101310 134773 net.cpp:606] inception_5b/relu_5x5 <- inception_5b/5x5
I0331 18:46:54.101315 134773 net.cpp:566] inception_5b/relu_5x5 -> inception_5b/5x5 (in-place)
I0331 18:46:54.101321 134773 net.cpp:219] Setting up inception_5b/relu_5x5
I0331 18:46:54.101326 134773 net.cpp:226] Top shape: 50 128 7 7 (313600)
I0331 18:46:54.101330 134773 net.cpp:234] Memory required for data: 2784725224
I0331 18:46:54.101335 134773 net.cpp:154] Setting up Layer of device :0 @cpu 0 Layer : inception_5b/pool
I0331 18:46:54.101338 134773 layer_factory.hpp:114] Creating layer inception_5b/pool
I0331 18:46:54.101378 134773 net.cpp:169] Creating Layer inception_5b/pool
I0331 18:46:54.101384 134773 net.cpp:606] inception_5b/pool <- inception_5a/output_inception_5a/output_0_split_3
I0331 18:46:54.101397 134773 net.cpp:579] inception_5b/pool -> inception_5b/pool
I0331 18:46:54.101402 134773 net.cpp:582] From AppendTop @cpu: 0
I0331 18:46:54.101413 134773 net.cpp:219] Setting up inception_5b/pool
I0331 18:46:54.101421 134773 net.cpp:226] Top shape: 50 832 7 7 (2038400)
I0331 18:46:54.101425 134773 net.cpp:234] Memory required for data: 2792878824
I0331 18:46:54.101430 134773 net.cpp:154] Setting up Layer of device :0 @cpu 0 Layer : inception_5b/pool_proj
I0331 18:46:54.101434 134773 layer_factory.hpp:114] Creating layer inception_5b/pool_proj
I0331 18:46:54.101444 134773 net.cpp:169] Creating Layer inception_5b/pool_proj
I0331 18:46:54.101449 134773 net.cpp:606] inception_5b/pool_proj <- inception_5b/pool
I0331 18:46:54.101456 134773 net.cpp:579] inception_5b/pool_proj -> inception_5b/pool_proj
I0331 18:46:54.101460 134773 net.cpp:582] From AppendTop @cpu: 0
I0331 18:46:54.106184 134773 net.cpp:219] Setting up inception_5b/pool_proj
I0331 18:46:54.106194 134773 net.cpp:226] Top shape: 50 128 7 7 (313600)
I0331 18:46:54.106199 134773 net.cpp:234] Memory required for data: 2794133224
I0331 18:46:54.106207 134773 net.cpp:154] Setting up Layer of device :0 @cpu 0 Layer : inception_5b/relu_pool_proj
I0331 18:46:54.106211 134773 layer_factory.hpp:114] Creating layer inception_5b/relu_pool_proj
I0331 18:46:54.106217 134773 net.cpp:169] Creating Layer inception_5b/relu_pool_proj
I0331 18:46:54.106223 134773 net.cpp:606] inception_5b/relu_pool_proj <- inception_5b/pool_proj
I0331 18:46:54.106228 134773 net.cpp:566] inception_5b/relu_pool_proj -> inception_5b/pool_proj (in-place)
I0331 18:46:54.106236 134773 net.cpp:219] Setting up inception_5b/relu_pool_proj
I0331 18:46:54.106241 134773 net.cpp:226] Top shape: 50 128 7 7 (313600)
I0331 18:46:54.106245 134773 net.cpp:234] Memory required for data: 2795387624
I0331 18:46:54.106250 134773 net.cpp:154] Setting up Layer of device :0 @cpu 0 Layer : inception_5b/output
I0331 18:46:54.106253 134773 layer_factory.hpp:114] Creating layer inception_5b/output
I0331 18:46:54.106261 134773 net.cpp:169] Creating Layer inception_5b/output
I0331 18:46:54.106266 134773 net.cpp:606] inception_5b/output <- inception_5b/1x1
I0331 18:46:54.106271 134773 net.cpp:606] inception_5b/output <- inception_5b/3x3
I0331 18:46:54.106276 134773 net.cpp:606] inception_5b/output <- inception_5b/5x5
I0331 18:46:54.106281 134773 net.cpp:606] inception_5b/output <- inception_5b/pool_proj
I0331 18:46:54.106290 134773 net.cpp:579] inception_5b/output -> inception_5b/output
I0331 18:46:54.106303 134773 net.cpp:582] From AppendTop @cpu: 0
I0331 18:46:54.106314 134773 net.cpp:219] Setting up inception_5b/output
I0331 18:46:54.106320 134773 net.cpp:226] Top shape: 50 1024 7 7 (2508800)
I0331 18:46:54.106323 134773 net.cpp:234] Memory required for data: 2805422824
I0331 18:46:54.106328 134773 net.cpp:154] Setting up Layer of device :0 @cpu 0 Layer : pool5/7x7_s1
I0331 18:46:54.106333 134773 layer_factory.hpp:114] Creating layer pool5/7x7_s1
I0331 18:46:54.106353 134773 net.cpp:169] Creating Layer pool5/7x7_s1
I0331 18:46:54.106359 134773 net.cpp:606] pool5/7x7_s1 <- inception_5b/output
I0331 18:46:54.106364 134773 net.cpp:579] pool5/7x7_s1 -> pool5/7x7_s1
I0331 18:46:54.106369 134773 net.cpp:582] From AppendTop @cpu: 0
I0331 18:46:54.106376 134773 net.cpp:219] Setting up pool5/7x7_s1
I0331 18:46:54.106381 134773 net.cpp:226] Top shape: 50 1024 1 1 (51200)
I0331 18:46:54.106385 134773 net.cpp:234] Memory required for data: 2805627624
I0331 18:46:54.106390 134773 net.cpp:154] Setting up Layer of device :0 @cpu 0 Layer : pool5/drop_7x7_s1
I0331 18:46:54.106395 134773 layer_factory.hpp:114] Creating layer pool5/drop_7x7_s1
I0331 18:46:54.106405 134773 net.cpp:169] Creating Layer pool5/drop_7x7_s1
I0331 18:46:54.106410 134773 net.cpp:606] pool5/drop_7x7_s1 <- pool5/7x7_s1
I0331 18:46:54.106415 134773 net.cpp:566] pool5/drop_7x7_s1 -> pool5/7x7_s1 (in-place)
I0331 18:46:54.106426 134773 net.cpp:219] Setting up pool5/drop_7x7_s1
I0331 18:46:54.106431 134773 net.cpp:226] Top shape: 50 1024 1 1 (51200)
I0331 18:46:54.106438 134773 net.cpp:234] Memory required for data: 2805832424
I0331 18:46:54.106443 134773 net.cpp:154] Setting up Layer of device :0 @cpu 0 Layer : loss3/classifier
I0331 18:46:54.106447 134773 layer_factory.hpp:114] Creating layer loss3/classifier
I0331 18:46:54.106461 134773 net.cpp:169] Creating Layer loss3/classifier
I0331 18:46:54.106464 134773 net.cpp:606] loss3/classifier <- pool5/7x7_s1
I0331 18:46:54.106472 134773 net.cpp:579] loss3/classifier -> loss3/classifier
I0331 18:46:54.106475 134773 net.cpp:582] From AppendTop @cpu: 0
I0331 18:46:54.116389 134773 net.cpp:219] Setting up loss3/classifier
I0331 18:46:54.116400 134773 net.cpp:226] Top shape: 50 1000 (50000)
I0331 18:46:54.116405 134773 net.cpp:234] Memory required for data: 2806032424
I0331 18:46:54.116413 134773 net.cpp:154] Setting up Layer of device :0 @cpu 0 Layer : loss3/classifier_loss3/classifier_0_split
I0331 18:46:54.116418 134773 layer_factory.hpp:114] Creating layer loss3/classifier_loss3/classifier_0_split
I0331 18:46:54.116427 134773 net.cpp:169] Creating Layer loss3/classifier_loss3/classifier_0_split
I0331 18:46:54.116431 134773 net.cpp:606] loss3/classifier_loss3/classifier_0_split <- loss3/classifier
I0331 18:46:54.116438 134773 net.cpp:579] loss3/classifier_loss3/classifier_0_split -> loss3/classifier_loss3/classifier_0_split_0
I0331 18:46:54.116441 134773 net.cpp:582] From AppendTop @cpu: 0
I0331 18:46:54.116449 134773 net.cpp:579] loss3/classifier_loss3/classifier_0_split -> loss3/classifier_loss3/classifier_0_split_1
I0331 18:46:54.116452 134773 net.cpp:582] From AppendTop @cpu: 0
I0331 18:46:54.116459 134773 net.cpp:579] loss3/classifier_loss3/classifier_0_split -> loss3/classifier_loss3/classifier_0_split_2
I0331 18:46:54.116463 134773 net.cpp:582] From AppendTop @cpu: 0
I0331 18:46:54.116472 134773 net.cpp:219] Setting up loss3/classifier_loss3/classifier_0_split
I0331 18:46:54.116477 134773 net.cpp:226] Top shape: 50 1000 (50000)
I0331 18:46:54.116480 134773 net.cpp:226] Top shape: 50 1000 (50000)
I0331 18:46:54.116484 134773 net.cpp:226] Top shape: 50 1000 (50000)
I0331 18:46:54.116488 134773 net.cpp:234] Memory required for data: 2806632424
I0331 18:46:54.116493 134773 net.cpp:154] Setting up Layer of device :0 @cpu 0 Layer : loss3/loss3
I0331 18:46:54.116497 134773 layer_factory.hpp:114] Creating layer loss3/loss3
I0331 18:46:54.116506 134773 net.cpp:169] Creating Layer loss3/loss3
I0331 18:46:54.116511 134773 net.cpp:606] loss3/loss3 <- loss3/classifier_loss3/classifier_0_split_0
…
