…
I0117 11:16:25.143405 21921 net.cpp:493] The NetState phase (0) differed from the phase (1) specified by a rule in layer accuracy
I0117 11:16:25.144202 21921 net.cpp:125] Initializing net from parameters: 
name: "CIFAR10_full"
state {
  phase: TRAIN
  level: 0
  stage: ""
}
layer {
  name: "cifar"
  type: "Data"
  top: "data"
  top: "label"
  include {
    phase: TRAIN
  }
  transform_param {
    mean_file: "examples/cifar10/mean.binaryproto"
  }
  data_param {
    source: "examples/cifar10/cifar10_train_lmdb"
    batch_size: 16
    backend: LMDB
  }
}
layer {
  name: "conv1"
  type: "Convolution"
  bottom: "data"
  top: "conv1"
  param {
    lr_mult: 1
  }
  param {
    lr_mult: 2
  }
  convolution_param {
    num_output: 32
    pad: 2
    kernel_size: 5
    stride: 1
    weight_filler {
      type: "gaussian"
      std: 0.0001
    }
    bias_filler {
      type: "constant"
    }
  }
}
layer {
  name: "pool1"
  type: "Pooling"
  bottom: "conv1"
  top: "pool1"
  pooling_param {
    pool: MAX
    kernel_size: 3
    stride: 2
  }
}
layer {
  name: "relu1"
  type: "ReLU"
  bottom: "pool1"
  top: "pool1"
}
layer {
  name: "norm1"
  type: "LRN"
  bottom: "pool1"
  top: "norm1"
  lrn_param {
    local_size: 3
    alpha: 5e-05
    beta: 0.75
    norm_region: WITHIN_CHANNEL
  }
}
layer {
  name: "conv2"
  type: "Convolution"
  bottom: "norm1"
  top: "conv2"
  param {
    lr_mult: 1
  }
  param {
    lr_mult: 2
  }
  convolution_param {
    num_output: 32
    pad: 2
    kernel_size: 5
    stride: 1
    weight_filler {
      type: "gaussian"
      std: 0.01
    }
    bias_filler {
      type: "constant"
    }
  }
}
layer {
  name: "relu2"
  type: "ReLU"
  bottom: "conv2"
  top: "conv2"
}
layer {
  name: "pool2"
  type: "Pooling"
  bottom: "conv2"
  top: "pool2"
  pooling_param {
    pool: AVE
    kernel_size: 3
    stride: 2
  }
}
layer {
  name: "norm2"
  type: "LRN"
  bottom: "pool2"
  top: "norm2"
  lrn_param {
    local_size: 3
    alpha: 5e-05
    beta: 0.75
    norm_region: WITHIN_CHANNEL
  }
}
layer {
  name: "conv3"
  type: "Convolution"
  bottom: "norm2"
  top: "conv3"
  convolution_param {
    num_output: 64
    pad: 2
    kernel_size: 5
    stride: 1
    weight_filler {
      type: "gaussian"
      std: 0.01
    }
    bias_filler {
      type: "constant"
    }
  }
}
layer {
  name: "relu3"
  type: "ReLU"
  bottom: "conv3"
  top: "conv3"
}
layer {
  name: "pool3"
  type: "Pooling"
  bottom: "conv3"
  top: "pool3"
  pooling_param {
    pool: AVE
    kernel_size: 3
    stride: 2
  }
}
layer {
  name: "ip1"
  type: "InnerProduct"
  bottom: "pool3"
  top: "ip1"
  param {
    lr_mult: 1
    decay_mult: 250
  }
  param {
    lr_mult: 2
    decay_mult: 0
  }
  inner_product_param {
    num_output: 10
    weight_filler {
      type: "gaussian"
      std: 0.01
    }
    bias_filler {
      type: "constant"
    }
  }
}
layer {
  name: "loss"
  type: "SoftmaxWithLoss"
  bottom: "ip1"
  bottom: "label"
  top: "loss"
}
I0117 11:16:25.144281 21921 net.cpp:154] Setting up Layer of device :0 @cpu 5 Layer : cifar
I0117 11:16:25.144296 21921 layer_factory.hpp:114] Creating layer cifar
I0117 11:16:25.145038 21921 net.cpp:169] Creating Layer cifar
I0117 11:16:25.145061 21921 net.cpp:579] cifar -> data
I0117 11:16:25.145071 21921 net.cpp:582] From AppendTop @cpu: 5
I0117 11:16:25.145165 21921 net.cpp:579] cifar -> label
I0117 11:16:25.145177 21921 net.cpp:582] From AppendTop @cpu: 5
I0117 11:16:25.145205 21921 data_transformer.cpp:62] Loading mean file from: examples/cifar10/mean.binaryproto
I0117 11:16:25.145403 21922 db_lmdb.cpp:72] Opened lmdb examples/cifar10/cifar10_train_lmdb
I0117 11:16:25.145475 21922 data_reader.cpp:128] inside DATAREADER 8
I0117 11:16:25.145489 21922 data_reader.cpp:139] NUMA DOMAIN 0
I0117 11:16:25.145567 21922 data_reader.cpp:139] NUMA DOMAIN 0
I0117 11:16:25.158128 21921 data_layer.cpp:80] output data size: 16,3,32,32
I0117 11:16:25.158684 21921 base_data_layer.cpp:96] Done cpu data
I0117 11:16:25.158710 21921 net.cpp:219] Setting up cifar
I0117 11:16:25.158737 21921 net.cpp:226] Top shape: 16 3 32 32 (49152)
I0117 11:16:25.158751 21921 net.cpp:226] Top shape: 16 (16)
I0117 11:16:25.158761 21921 net.cpp:234] Memory required for data: 196672
I0117 11:16:25.158781 21921 net.cpp:154] Setting up Layer of device :0 @cpu 5 Layer : conv1
I0117 11:16:25.158792 21921 layer_factory.hpp:114] Creating layer conv1
I0117 11:16:25.158835 21921 net.cpp:169] Creating Layer conv1
I0117 11:16:25.158848 21921 net.cpp:606] conv1 <- data
I0117 11:16:25.158869 21921 net.cpp:579] conv1 -> conv1
I0117 11:16:25.158880 21921 net.cpp:582] From AppendTop @cpu: 5
OMP: Info #242: KMP_AFFINITY: pid 21921 thread 1 bound to OS proc set {0,1,2,3,4,5}
OMP: Info #242: KMP_AFFINITY: pid 21921 thread 2 bound to OS proc set {0,1,2,3,4,5}
OMP: Info #242: KMP_AFFINITY: pid 21921 thread 4 bound to OS proc set {0,1,2,3,4,5}
OMP: Info #242: KMP_AFFINITY: pid 21921 thread 3 bound to OS proc set {0,1,2,3,4,5}
OMP: Info #242: KMP_AFFINITY: pid 21921 thread 5 bound to OS proc set {0,1,2,3,4,5}
I0117 11:16:25.167155 21921 net.cpp:219] Setting up conv1
I0117 11:16:25.167201 21921 net.cpp:226] Top shape: 16 32 32 32 (524288)
I0117 11:16:25.167212 21921 net.cpp:234] Memory required for data: 2293824
I0117 11:16:25.167258 21921 net.cpp:154] Setting up Layer of device :0 @cpu 0 Layer : pool1
I0117 11:16:25.167274 21921 layer_factory.hpp:114] Creating layer pool1
I0117 11:16:25.167353 21921 net.cpp:169] Creating Layer pool1
I0117 11:16:25.167366 21921 net.cpp:606] pool1 <- conv1
I0117 11:16:25.167381 21921 net.cpp:579] pool1 -> pool1
I0117 11:16:25.167410 21921 net.cpp:582] From AppendTop @cpu: 0
I0117 11:16:25.167443 21921 net.cpp:219] Setting up pool1
I0117 11:16:25.167457 21921 net.cpp:226] Top shape: 16 32 16 16 (131072)
I0117 11:16:25.167466 21921 net.cpp:234] Memory required for data: 2818112
I0117 11:16:25.167477 21921 net.cpp:154] Setting up Layer of device :0 @cpu 0 Layer : relu1
I0117 11:16:25.167487 21921 layer_factory.hpp:114] Creating layer relu1
I0117 11:16:25.167500 21921 net.cpp:169] Creating Layer relu1
I0117 11:16:25.167510 21921 net.cpp:606] relu1 <- pool1
I0117 11:16:25.167521 21921 net.cpp:566] relu1 -> pool1 (in-place)
I0117 11:16:25.167538 21921 net.cpp:219] Setting up relu1
I0117 11:16:25.167551 21921 net.cpp:226] Top shape: 16 32 16 16 (131072)
I0117 11:16:25.167559 21921 net.cpp:234] Memory required for data: 3342400
I0117 11:16:25.167569 21921 net.cpp:154] Setting up Layer of device :0 @cpu 0 Layer : norm1
I0117 11:16:25.167579 21921 layer_factory.hpp:114] Creating layer norm1
I0117 11:16:25.167600 21921 net.cpp:169] Creating Layer norm1
I0117 11:16:25.167610 21921 net.cpp:606] norm1 <- pool1
I0117 11:16:25.167623 21921 net.cpp:579] norm1 -> norm1
I0117 11:16:25.167631 21921 net.cpp:582] From AppendTop @cpu: 0
I0117 11:16:25.167703 21921 net.cpp:219] Setting up norm1
I0117 11:16:25.167718 21921 net.cpp:226] Top shape: 16 32 16 16 (131072)
I0117 11:16:25.167727 21921 net.cpp:234] Memory required for data: 3866688
I0117 11:16:25.167738 21921 net.cpp:154] Setting up Layer of device :0 @cpu 0 Layer : conv2
I0117 11:16:25.167747 21921 layer_factory.hpp:114] Creating layer conv2
I0117 11:16:25.167767 21921 net.cpp:169] Creating Layer conv2
I0117 11:16:25.167793 21921 net.cpp:606] conv2 <- norm1
I0117 11:16:25.167806 21921 net.cpp:579] conv2 -> conv2
I0117 11:16:25.167815 21921 net.cpp:582] From AppendTop @cpu: 0
I0117 11:16:25.174551 21921 net.cpp:219] Setting up conv2
I0117 11:16:25.174595 21921 net.cpp:226] Top shape: 16 32 16 16 (131072)
I0117 11:16:25.174605 21921 net.cpp:234] Memory required for data: 4390976
I0117 11:16:25.174631 21921 net.cpp:154] Setting up Layer of device :0 @cpu 0 Layer : relu2
I0117 11:16:25.174643 21921 layer_factory.hpp:114] Creating layer relu2
I0117 11:16:25.174657 21921 net.cpp:169] Creating Layer relu2
I0117 11:16:25.174667 21921 net.cpp:606] relu2 <- conv2
I0117 11:16:25.174680 21921 net.cpp:566] relu2 -> conv2 (in-place)
I0117 11:16:25.174696 21921 net.cpp:219] Setting up relu2
I0117 11:16:25.174708 21921 net.cpp:226] Top shape: 16 32 16 16 (131072)
I0117 11:16:25.174716 21921 net.cpp:234] Memory required for data: 4915264
I0117 11:16:25.174727 21921 net.cpp:154] Setting up Layer of device :0 @cpu 0 Layer : pool2
I0117 11:16:25.174736 21921 layer_factory.hpp:114] Creating layer pool2
I0117 11:16:25.174767 21921 net.cpp:169] Creating Layer pool2
I0117 11:16:25.174777 21921 net.cpp:606] pool2 <- conv2
I0117 11:16:25.174789 21921 net.cpp:579] pool2 -> pool2
I0117 11:16:25.174798 21921 net.cpp:582] From AppendTop @cpu: 0
I0117 11:16:25.174814 21921 net.cpp:219] Setting up pool2
I0117 11:16:25.174826 21921 net.cpp:226] Top shape: 16 32 8 8 (32768)
I0117 11:16:25.174835 21921 net.cpp:234] Memory required for data: 5046336
I0117 11:16:25.174845 21921 net.cpp:154] Setting up Layer of device :0 @cpu 0 Layer : norm2
I0117 11:16:25.174854 21921 layer_factory.hpp:114] Creating layer norm2
I0117 11:16:25.174870 21921 net.cpp:169] Creating Layer norm2
I0117 11:16:25.174880 21921 net.cpp:606] norm2 <- pool2
I0117 11:16:25.174896 21921 net.cpp:579] norm2 -> norm2
I0117 11:16:25.174904 21921 net.cpp:582] From AppendTop @cpu: 0
I0117 11:16:25.174959 21921 net.cpp:219] Setting up norm2
I0117 11:16:25.174973 21921 net.cpp:226] Top shape: 16 32 8 8 (32768)
I0117 11:16:25.174983 21921 net.cpp:234] Memory required for data: 5177408
I0117 11:16:25.174993 21921 net.cpp:154] Setting up Layer of device :0 @cpu 0 Layer : conv3
I0117 11:16:25.175001 21921 layer_factory.hpp:114] Creating layer conv3
I0117 11:16:25.175020 21921 net.cpp:169] Creating Layer conv3
I0117 11:16:25.175030 21921 net.cpp:606] conv3 <- norm2
I0117 11:16:25.175058 21921 net.cpp:579] conv3 -> conv3
I0117 11:16:25.175068 21921 net.cpp:582] From AppendTop @cpu: 0
I0117 11:16:25.181613 21921 net.cpp:219] Setting up conv3
I0117 11:16:25.181651 21921 net.cpp:226] Top shape: 16 64 8 8 (65536)
I0117 11:16:25.181663 21921 net.cpp:234] Memory required for data: 5439552
I0117 11:16:25.181687 21921 net.cpp:154] Setting up Layer of device :0 @cpu 0 Layer : relu3
I0117 11:16:25.181697 21921 layer_factory.hpp:114] Creating layer relu3
I0117 11:16:25.181712 21921 net.cpp:169] Creating Layer relu3
I0117 11:16:25.181722 21921 net.cpp:606] relu3 <- conv3
I0117 11:16:25.181735 21921 net.cpp:566] relu3 -> conv3 (in-place)
I0117 11:16:25.181751 21921 net.cpp:219] Setting up relu3
I0117 11:16:25.181763 21921 net.cpp:226] Top shape: 16 64 8 8 (65536)
I0117 11:16:25.181771 21921 net.cpp:234] Memory required for data: 5701696
I0117 11:16:25.181782 21921 net.cpp:154] Setting up Layer of device :0 @cpu 0 Layer : pool3
I0117 11:16:25.181792 21921 layer_factory.hpp:114] Creating layer pool3
I0117 11:16:25.181829 21921 net.cpp:169] Creating Layer pool3
I0117 11:16:25.181839 21921 net.cpp:606] pool3 <- conv3
I0117 11:16:25.181852 21921 net.cpp:579] pool3 -> pool3
I0117 11:16:25.181861 21921 net.cpp:582] From AppendTop @cpu: 0
I0117 11:16:25.181877 21921 net.cpp:219] Setting up pool3
I0117 11:16:25.181890 21921 net.cpp:226] Top shape: 16 64 4 4 (16384)
I0117 11:16:25.181898 21921 net.cpp:234] Memory required for data: 5767232
I0117 11:16:25.181908 21921 net.cpp:154] Setting up Layer of device :0 @cpu 0 Layer : ip1
I0117 11:16:25.181917 21921 layer_factory.hpp:114] Creating layer ip1
I0117 11:16:25.181959 21921 net.cpp:169] Creating Layer ip1
I0117 11:16:25.181969 21921 net.cpp:606] ip1 <- pool3
I0117 11:16:25.181982 21921 net.cpp:579] ip1 -> ip1
I0117 11:16:25.181994 21921 net.cpp:582] From AppendTop @cpu: 0
I0117 11:16:25.183066 21921 net.cpp:219] Setting up ip1
I0117 11:16:25.183082 21921 net.cpp:226] Top shape: 16 10 (160)
I0117 11:16:25.183090 21921 net.cpp:234] Memory required for data: 5767872
I0117 11:16:25.183106 21921 net.cpp:154] Setting up Layer of device :0 @cpu 0 Layer : loss
I0117 11:16:25.183116 21921 layer_factory.hpp:114] Creating layer loss
I0117 11:16:25.183135 21921 net.cpp:169] Creating Layer loss
I0117 11:16:25.183145 21921 net.cpp:606] loss <- ip1
I0117 11:16:25.183156 21921 net.cpp:606] loss <- label
…
I0117 11:16:25.185247 21921 cpu_info.cpp:473] Number of OpenMP threads: 6
I0117 11:16:25.185328 21921 net.cpp:493] The NetState phase (1) differed from the phase (0) specified by a rule in layer cifar
I0117 11:16:25.186359 21921 net.cpp:125] Initializing net from parameters: 
name: "CIFAR10_full"
state {
  phase: TEST
}
layer {
  name: "cifar"
  type: "Data"
  top: "data"
  top: "label"
  include {
    phase: TEST
  }
  transform_param {
    mean_file: "examples/cifar10/mean.binaryproto"
  }
  data_param {
    source: "examples/cifar10/cifar10_test_lmdb"
    batch_size: 100
    backend: LMDB
  }
}
layer {
  name: "label_cifar_1_split"
  type: "Split"
  bottom: "label"
  top: "label_cifar_1_split_0"
  top: "label_cifar_1_split_1"
}
layer {
  name: "conv1"
  type: "Convolution"
  bottom: "data"
  top: "conv1"
  param {
    lr_mult: 1
  }
  param {
    lr_mult: 2
  }
  convolution_param {
    num_output: 32
    pad: 2
    kernel_size: 5
    stride: 1
    weight_filler {
      type: "gaussian"
      std: 0.0001
    }
    bias_filler {
      type: "constant"
    }
  }
}
layer {
  name: "pool1"
  type: "Pooling"
  bottom: "conv1"
  top: "pool1"
  pooling_param {
    pool: MAX
    kernel_size: 3
    stride: 2
  }
}
layer {
  name: "relu1"
  type: "ReLU"
  bottom: "pool1"
  top: "pool1"
}
layer {
  name: "norm1"
  type: "LRN"
  bottom: "pool1"
  top: "norm1"
  lrn_param {
    local_size: 3
    alpha: 5e-05
    beta: 0.75
    norm_region: WITHIN_CHANNEL
  }
}
layer {
  name: "conv2"
  type: "Convolution"
  bottom: "norm1"
  top: "conv2"
  param {
    lr_mult: 1
  }
  param {
    lr_mult: 2
  }
  convolution_param {
    num_output: 32
    pad: 2
    kernel_size: 5
    stride: 1
    weight_filler {
      type: "gaussian"
      std: 0.01
    }
    bias_filler {
      type: "constant"
    }
  }
}
layer {
  name: "relu2"
  type: "ReLU"
  bottom: "conv2"
  top: "conv2"
}
layer {
  name: "pool2"
  type: "Pooling"
  bottom: "conv2"
  top: "pool2"
  pooling_param {
    pool: AVE
    kernel_size: 3
    stride: 2
  }
}
layer {
  name: "norm2"
  type: "LRN"
  bottom: "pool2"
  top: "norm2"
  lrn_param {
    local_size: 3
    alpha: 5e-05
    beta: 0.75
    norm_region: WITHIN_CHANNEL
  }
}
layer {
  name: "conv3"
  type: "Convolution"
  bottom: "norm2"
  top: "conv3"
  convolution_param {
    num_output: 64
    pad: 2
    kernel_size: 5
    stride: 1
    weight_filler {
      type: "gaussian"
      std: 0.01
    }
    bias_filler {
      type: "constant"
    }
  }
}
layer {
  name: "relu3"
  type: "ReLU"
  bottom: "conv3"
  top: "conv3"
}
layer {
  name: "pool3"
  type: "Pooling"
  bottom: "conv3"
  top: "pool3"
  pooling_param {
    pool: AVE
    kernel_size: 3
    stride: 2
  }
}
layer {
  name: "ip1"
  type: "InnerProduct"
  bottom: "pool3"
  top: "ip1"
  param {
    lr_mult: 1
    decay_mult: 250
  }
  param {
    lr_mult: 2
    decay_mult: 0
  }
  inner_product_param {
    num_output: 10
    weight_filler {
      type: "gaussian"
      std: 0.01
    }
    bias_filler {
      type: "constant"
    }
  }
}
layer {
  name: "ip1_ip1_0_split"
  type: "Split"
  bottom: "ip1"
  top: "ip1_ip1_0_split_0"
  top: "ip1_ip1_0_split_1"
}
layer {
  name: "accuracy"
  type: "Accuracy"
  bottom: "ip1_ip1_0_split_0"
  bottom: "label_cifar_1_split_0"
  top: "accuracy"
  include {
    phase: TEST
  }
}
layer {
  name: "loss"
  type: "SoftmaxWithLoss"
  bottom: "ip1_ip1_0_split_1"
  bottom: "label_cifar_1_split_1"
  top: "loss"
}
I0117 11:16:25.186429 21921 net.cpp:154] Setting up Layer of device :0 @cpu 0 Layer : cifar
I0117 11:16:25.186450 21921 layer_factory.hpp:114] Creating layer cifar
I0117 11:16:25.186735 21921 net.cpp:169] Creating Layer cifar
I0117 11:16:25.186759 21921 net.cpp:579] cifar -> data
I0117 11:16:25.186771 21921 net.cpp:582] From AppendTop @cpu: 0
I0117 11:16:25.186794 21921 net.cpp:579] cifar -> label
I0117 11:16:25.186805 21921 net.cpp:582] From AppendTop @cpu: 0
I0117 11:16:25.186825 21921 data_transformer.cpp:62] Loading mean file from: examples/cifar10/mean.binaryproto
I0117 11:16:25.187187 21928 db_lmdb.cpp:72] Opened lmdb examples/cifar10/cifar10_test_lmdb
I0117 11:16:25.187225 21928 data_reader.cpp:128] inside DATAREADER 1
I0117 11:16:25.187253 21928 data_reader.cpp:139] NUMA DOMAIN 0
I0117 11:16:25.187330 21921 data_layer.cpp:80] output data size: 100,3,32,32
I0117 11:16:25.191112 21921 base_data_layer.cpp:96] Done cpu data
I0117 11:16:25.191150 21921 net.cpp:219] Setting up cifar
I0117 11:16:25.191171 21921 net.cpp:226] Top shape: 100 3 32 32 (307200)
I0117 11:16:25.191186 21921 net.cpp:226] Top shape: 100 (100)
I0117 11:16:25.191198 21921 net.cpp:234] Memory required for data: 1229200
I0117 11:16:25.191217 21921 net.cpp:154] Setting up Layer of device :0 @cpu 0 Layer : label_cifar_1_split
I0117 11:16:25.191229 21921 layer_factory.hpp:114] Creating layer label_cifar_1_split
I0117 11:16:25.191267 21921 net.cpp:169] Creating Layer label_cifar_1_split
I0117 11:16:25.191287 21921 net.cpp:606] label_cifar_1_split <- label
I0117 11:16:25.191309 21921 net.cpp:579] label_cifar_1_split -> label_cifar_1_split_0
I0117 11:16:25.191347 21921 net.cpp:582] From AppendTop @cpu: 0
I0117 11:16:25.191368 21921 net.cpp:579] label_cifar_1_split -> label_cifar_1_split_1
I0117 11:16:25.191380 21921 net.cpp:582] From AppendTop @cpu: 0
I0117 11:16:25.191400 21921 net.cpp:219] Setting up label_cifar_1_split
I0117 11:16:25.191416 21921 net.cpp:226] Top shape: 100 (100)
I0117 11:16:25.191429 21921 net.cpp:226] Top shape: 100 (100)
I0117 11:16:25.191440 21921 net.cpp:234] Memory required for data: 1230000
I0117 11:16:25.191454 21921 net.cpp:154] Setting up Layer of device :0 @cpu 0 Layer : conv1
I0117 11:16:25.191467 21921 layer_factory.hpp:114] Creating layer conv1
I0117 11:16:25.191490 21921 net.cpp:169] Creating Layer conv1
I0117 11:16:25.191503 21921 net.cpp:606] conv1 <- data
I0117 11:16:25.191522 21921 net.cpp:579] conv1 -> conv1
I0117 11:16:25.191534 21921 net.cpp:582] From AppendTop @cpu: 0
I0117 11:16:25.194054 21921 net.cpp:219] Setting up conv1
I0117 11:16:25.194094 21921 net.cpp:226] Top shape: 100 32 32 32 (3276800)
I0117 11:16:25.194105 21921 net.cpp:234] Memory required for data: 14337200
I0117 11:16:25.194139 21921 net.cpp:154] Setting up Layer of device :0 @cpu 0 Layer : pool1
I0117 11:16:25.194151 21921 layer_factory.hpp:114] Creating layer pool1
I0117 11:16:25.194208 21921 net.cpp:169] Creating Layer pool1
I0117 11:16:25.194222 21921 net.cpp:606] pool1 <- conv1
I0117 11:16:25.194248 21921 net.cpp:579] pool1 -> pool1
I0117 11:16:25.194262 21921 net.cpp:582] From AppendTop @cpu: 0
I0117 11:16:25.194293 21921 net.cpp:219] Setting up pool1
I0117 11:16:25.194309 21921 net.cpp:226] Top shape: 100 32 16 16 (819200)
I0117 11:16:25.194320 21921 net.cpp:234] Memory required for data: 17614000
I0117 11:16:25.194334 21921 net.cpp:154] Setting up Layer of device :0 @cpu 0 Layer : relu1
I0117 11:16:25.194345 21921 layer_factory.hpp:114] Creating layer relu1
I0117 11:16:25.194366 21921 net.cpp:169] Creating Layer relu1
I0117 11:16:25.194378 21921 net.cpp:606] relu1 <- pool1
I0117 11:16:25.194392 21921 net.cpp:566] relu1 -> pool1 (in-place)
I0117 11:16:25.194409 21921 net.cpp:219] Setting up relu1
I0117 11:16:25.194424 21921 net.cpp:226] Top shape: 100 32 16 16 (819200)
I0117 11:16:25.194435 21921 net.cpp:234] Memory required for data: 20890800
I0117 11:16:25.194448 21921 net.cpp:154] Setting up Layer of device :0 @cpu 0 Layer : norm1
I0117 11:16:25.194459 21921 layer_factory.hpp:114] Creating layer norm1
I0117 11:16:25.194481 21921 net.cpp:169] Creating Layer norm1
I0117 11:16:25.194505 21921 net.cpp:606] norm1 <- pool1
I0117 11:16:25.194530 21921 net.cpp:579] norm1 -> norm1
I0117 11:16:25.194541 21921 net.cpp:582] From AppendTop @cpu: 0
I0117 11:16:25.194617 21921 net.cpp:219] Setting up norm1
I0117 11:16:25.194635 21921 net.cpp:226] Top shape: 100 32 16 16 (819200)
I0117 11:16:25.194646 21921 net.cpp:234] Memory required for data: 24167600
I0117 11:16:25.194658 21921 net.cpp:154] Setting up Layer of device :0 @cpu 0 Layer : conv2
I0117 11:16:25.194670 21921 layer_factory.hpp:114] Creating layer conv2
I0117 11:16:25.194694 21921 net.cpp:169] Creating Layer conv2
I0117 11:16:25.194706 21921 net.cpp:606] conv2 <- norm1
I0117 11:16:25.194730 21921 net.cpp:579] conv2 -> conv2
I0117 11:16:25.194741 21921 net.cpp:582] From AppendTop @cpu: 0
I0117 11:16:25.205253 21921 net.cpp:219] Setting up conv2
I0117 11:16:25.205298 21921 net.cpp:226] Top shape: 100 32 16 16 (819200)
I0117 11:16:25.205308 21921 net.cpp:234] Memory required for data: 27444400
I0117 11:16:25.205335 21921 net.cpp:154] Setting up Layer of device :0 @cpu 0 Layer : relu2
I0117 11:16:25.205346 21921 layer_factory.hpp:114] Creating layer relu2
I0117 11:16:25.205363 21921 net.cpp:169] Creating Layer relu2
I0117 11:16:25.205374 21921 net.cpp:606] relu2 <- conv2
I0117 11:16:25.205386 21921 net.cpp:566] relu2 -> conv2 (in-place)
I0117 11:16:25.205404 21921 net.cpp:219] Setting up relu2
I0117 11:16:25.205415 21921 net.cpp:226] Top shape: 100 32 16 16 (819200)
I0117 11:16:25.205423 21921 net.cpp:234] Memory required for data: 30721200
I0117 11:16:25.205435 21921 net.cpp:154] Setting up Layer of device :0 @cpu 0 Layer : pool2
I0117 11:16:25.205466 21921 layer_factory.hpp:114] Creating layer pool2
I0117 11:16:25.205512 21921 net.cpp:169] Creating Layer pool2
I0117 11:16:25.205523 21921 net.cpp:606] pool2 <- conv2
I0117 11:16:25.205534 21921 net.cpp:579] pool2 -> pool2
I0117 11:16:25.205544 21921 net.cpp:582] From AppendTop @cpu: 0
I0117 11:16:25.205564 21921 net.cpp:219] Setting up pool2
I0117 11:16:25.205576 21921 net.cpp:226] Top shape: 100 32 8 8 (204800)
I0117 11:16:25.205585 21921 net.cpp:234] Memory required for data: 31540400
I0117 11:16:25.205595 21921 net.cpp:154] Setting up Layer of device :0 @cpu 0 Layer : norm2
I0117 11:16:25.205605 21921 layer_factory.hpp:114] Creating layer norm2
I0117 11:16:25.205618 21921 net.cpp:169] Creating Layer norm2
I0117 11:16:25.205627 21921 net.cpp:606] norm2 <- pool2
I0117 11:16:25.205642 21921 net.cpp:579] norm2 -> norm2
I0117 11:16:25.205651 21921 net.cpp:582] From AppendTop @cpu: 0
I0117 11:16:25.205713 21921 net.cpp:219] Setting up norm2
I0117 11:16:25.205727 21921 net.cpp:226] Top shape: 100 32 8 8 (204800)
I0117 11:16:25.205736 21921 net.cpp:234] Memory required for data: 32359600
I0117 11:16:25.205746 21921 net.cpp:154] Setting up Layer of device :0 @cpu 0 Layer : conv3
I0117 11:16:25.205755 21921 layer_factory.hpp:114] Creating layer conv3
I0117 11:16:25.205775 21921 net.cpp:169] Creating Layer conv3
I0117 11:16:25.205785 21921 net.cpp:606] conv3 <- norm2
I0117 11:16:25.205797 21921 net.cpp:579] conv3 -> conv3
I0117 11:16:25.205806 21921 net.cpp:582] From AppendTop @cpu: 0
I0117 11:16:25.212391 21921 net.cpp:219] Setting up conv3
I0117 11:16:25.212426 21921 net.cpp:226] Top shape: 100 64 8 8 (409600)
I0117 11:16:25.212435 21921 net.cpp:234] Memory required for data: 33998000
I0117 11:16:25.212460 21921 net.cpp:154] Setting up Layer of device :0 @cpu 0 Layer : relu3
I0117 11:16:25.212471 21921 layer_factory.hpp:114] Creating layer relu3
I0117 11:16:25.212484 21921 net.cpp:169] Creating Layer relu3
I0117 11:16:25.212494 21921 net.cpp:606] relu3 <- conv3
I0117 11:16:25.212510 21921 net.cpp:566] relu3 -> conv3 (in-place)
I0117 11:16:25.212527 21921 net.cpp:219] Setting up relu3
I0117 11:16:25.212538 21921 net.cpp:226] Top shape: 100 64 8 8 (409600)
I0117 11:16:25.212546 21921 net.cpp:234] Memory required for data: 35636400
I0117 11:16:25.212556 21921 net.cpp:154] Setting up Layer of device :0 @cpu 0 Layer : pool3
I0117 11:16:25.212565 21921 layer_factory.hpp:114] Creating layer pool3
I0117 11:16:25.212610 21921 net.cpp:169] Creating Layer pool3
I0117 11:16:25.212621 21921 net.cpp:606] pool3 <- conv3
I0117 11:16:25.212633 21921 net.cpp:579] pool3 -> pool3
I0117 11:16:25.212642 21921 net.cpp:582] From AppendTop @cpu: 0
I0117 11:16:25.212657 21921 net.cpp:219] Setting up pool3
I0117 11:16:25.212669 21921 net.cpp:226] Top shape: 100 64 4 4 (102400)
I0117 11:16:25.212678 21921 net.cpp:234] Memory required for data: 36046000
I0117 11:16:25.212688 21921 net.cpp:154] Setting up Layer of device :0 @cpu 0 Layer : ip1
I0117 11:16:25.212697 21921 layer_factory.hpp:114] Creating layer ip1
I0117 11:16:25.212720 21921 net.cpp:169] Creating Layer ip1
I0117 11:16:25.212729 21921 net.cpp:606] ip1 <- pool3
I0117 11:16:25.212743 21921 net.cpp:579] ip1 -> ip1
I0117 11:16:25.212751 21921 net.cpp:582] From AppendTop @cpu: 0
I0117 11:16:25.213812 21921 net.cpp:219] Setting up ip1
I0117 11:16:25.213827 21921 net.cpp:226] Top shape: 100 10 (1000)
I0117 11:16:25.213836 21921 net.cpp:234] Memory required for data: 36050000
I0117 11:16:25.213851 21921 net.cpp:154] Setting up Layer of device :0 @cpu 0 Layer : ip1_ip1_0_split
I0117 11:16:25.213861 21921 layer_factory.hpp:114] Creating layer ip1_ip1_0_split
I0117 11:16:25.213874 21921 net.cpp:169] Creating Layer ip1_ip1_0_split
I0117 11:16:25.213883 21921 net.cpp:606] ip1_ip1_0_split <- ip1
I0117 11:16:25.213898 21921 net.cpp:579] ip1_ip1_0_split -> ip1_ip1_0_split_0
I0117 11:16:25.213907 21921 net.cpp:582] From AppendTop @cpu: 0
I0117 11:16:25.213922 21921 net.cpp:579] ip1_ip1_0_split -> ip1_ip1_0_split_1
I0117 11:16:25.213930 21921 net.cpp:582] From AppendTop @cpu: 0
I0117 11:16:25.213963 21921 net.cpp:219] Setting up ip1_ip1_0_split
I0117 11:16:25.213974 21921 net.cpp:226] Top shape: 100 10 (1000)
I0117 11:16:25.213985 21921 net.cpp:226] Top shape: 100 10 (1000)
I0117 11:16:25.213994 21921 net.cpp:234] Memory required for data: 36058000
I0117 11:16:25.214004 21921 net.cpp:154] Setting up Layer of device :0 @cpu 0 Layer : accuracy
I0117 11:16:25.214013 21921 layer_factory.hpp:114] Creating layer accuracy
I0117 11:16:25.214036 21921 net.cpp:169] Creating Layer accuracy
I0117 11:16:25.214047 21921 net.cpp:606] accuracy <- ip1_ip1_0_split_0
I0117 11:16:25.214057 21921 net.cpp:606] accuracy <- label_cifar_1_split_0
…
