…
I0117 11:14:23.633668 21876 net.cpp:493] The NetState phase (0) differed from the phase (1) specified by a rule in layer accuracy
I0117 11:14:23.634470 21876 net.cpp:125] Initializing net from parameters: 
name: "CIFAR10_full"
state {
  phase: TRAIN
  level: 0
  stage: ""
}
layer {
  name: "cifar"
  type: "Data"
  top: "data"
  top: "label"
  include {
    phase: TRAIN
  }
  transform_param {
    mean_file: "examples/cifar10/mean.binaryproto"
  }
  data_param {
    source: "examples/cifar10/cifar10_train_lmdb"
    batch_size: 32
    backend: LMDB
  }
}
layer {
  name: "conv1"
  type: "Convolution"
  bottom: "data"
  top: "conv1"
  param {
    lr_mult: 1
  }
  param {
    lr_mult: 2
  }
  convolution_param {
    num_output: 32
    pad: 2
    kernel_size: 5
    stride: 1
    weight_filler {
      type: "gaussian"
      std: 0.0001
    }
    bias_filler {
      type: "constant"
    }
  }
}
layer {
  name: "pool1"
  type: "Pooling"
  bottom: "conv1"
  top: "pool1"
  pooling_param {
    pool: MAX
    kernel_size: 3
    stride: 2
  }
}
layer {
  name: "relu1"
  type: "ReLU"
  bottom: "pool1"
  top: "pool1"
}
layer {
  name: "norm1"
  type: "LRN"
  bottom: "pool1"
  top: "norm1"
  lrn_param {
    local_size: 3
    alpha: 5e-05
    beta: 0.75
    norm_region: WITHIN_CHANNEL
  }
}
layer {
  name: "conv2"
  type: "Convolution"
  bottom: "norm1"
  top: "conv2"
  param {
    lr_mult: 1
  }
  param {
    lr_mult: 2
  }
  convolution_param {
    num_output: 32
    pad: 2
    kernel_size: 5
    stride: 1
    weight_filler {
      type: "gaussian"
      std: 0.01
    }
    bias_filler {
      type: "constant"
    }
  }
}
layer {
  name: "relu2"
  type: "ReLU"
  bottom: "conv2"
  top: "conv2"
}
layer {
  name: "pool2"
  type: "Pooling"
  bottom: "conv2"
  top: "pool2"
  pooling_param {
    pool: AVE
    kernel_size: 3
    stride: 2
  }
}
layer {
  name: "norm2"
  type: "LRN"
  bottom: "pool2"
  top: "norm2"
  lrn_param {
    local_size: 3
    alpha: 5e-05
    beta: 0.75
    norm_region: WITHIN_CHANNEL
  }
}
layer {
  name: "conv3"
  type: "Convolution"
  bottom: "norm2"
  top: "conv3"
  convolution_param {
    num_output: 64
    pad: 2
    kernel_size: 5
    stride: 1
    weight_filler {
      type: "gaussian"
      std: 0.01
    }
    bias_filler {
      type: "constant"
    }
  }
}
layer {
  name: "relu3"
  type: "ReLU"
  bottom: "conv3"
  top: "conv3"
}
layer {
  name: "pool3"
  type: "Pooling"
  bottom: "conv3"
  top: "pool3"
  pooling_param {
    pool: AVE
    kernel_size: 3
    stride: 2
  }
}
layer {
  name: "ip1"
  type: "InnerProduct"
  bottom: "pool3"
  top: "ip1"
  param {
    lr_mult: 1
    decay_mult: 250
  }
  param {
    lr_mult: 2
    decay_mult: 0
  }
  inner_product_param {
    num_output: 10
    weight_filler {
      type: "gaussian"
      std: 0.01
    }
    bias_filler {
      type: "constant"
    }
  }
}
layer {
  name: "loss"
  type: "SoftmaxWithLoss"
  bottom: "ip1"
  bottom: "label"
  top: "loss"
}
I0117 11:14:23.634542 21876 net.cpp:154] Setting up Layer of device :0 @cpu 5 Layer : cifar
I0117 11:14:23.634557 21876 layer_factory.hpp:114] Creating layer cifar
I0117 11:14:23.635294 21876 net.cpp:169] Creating Layer cifar
I0117 11:14:23.635318 21876 net.cpp:579] cifar -> data
I0117 11:14:23.635329 21876 net.cpp:582] From AppendTop @cpu: 5
I0117 11:14:23.635411 21876 net.cpp:579] cifar -> label
I0117 11:14:23.635422 21876 net.cpp:582] From AppendTop @cpu: 5
I0117 11:14:23.635450 21876 data_transformer.cpp:62] Loading mean file from: examples/cifar10/mean.binaryproto
I0117 11:14:23.635599 21877 db_lmdb.cpp:72] Opened lmdb examples/cifar10/cifar10_train_lmdb
I0117 11:14:23.635669 21877 data_reader.cpp:128] inside DATAREADER 4
I0117 11:14:23.635684 21877 data_reader.cpp:139] NUMA DOMAIN 0
I0117 11:14:23.635766 21877 data_reader.cpp:139] NUMA DOMAIN 0
I0117 11:14:23.648406 21876 data_layer.cpp:80] output data size: 32,3,32,32
I0117 11:14:23.649431 21876 base_data_layer.cpp:96] Done cpu data
I0117 11:14:23.649457 21876 net.cpp:219] Setting up cifar
I0117 11:14:23.649484 21876 net.cpp:226] Top shape: 32 3 32 32 (98304)
I0117 11:14:23.649497 21876 net.cpp:226] Top shape: 32 (32)
I0117 11:14:23.649507 21876 net.cpp:234] Memory required for data: 393344
I0117 11:14:23.649526 21876 net.cpp:154] Setting up Layer of device :0 @cpu 5 Layer : conv1
I0117 11:14:23.649538 21876 layer_factory.hpp:114] Creating layer conv1
I0117 11:14:23.649581 21876 net.cpp:169] Creating Layer conv1
I0117 11:14:23.649593 21876 net.cpp:606] conv1 <- data
I0117 11:14:23.649616 21876 net.cpp:579] conv1 -> conv1
I0117 11:14:23.649626 21876 net.cpp:582] From AppendTop @cpu: 5
OMP: Info #242: KMP_AFFINITY: pid 21876 thread 1 bound to OS proc set {0,1,2,3,4,5}
OMP: Info #242: KMP_AFFINITY: pid 21876 thread 2 bound to OS proc set {0,1,2,3,4,5}
OMP: Info #242: KMP_AFFINITY: pid 21876 thread 3 bound to OS proc set {0,1,2,3,4,5}
OMP: Info #242: KMP_AFFINITY: pid 21876 thread 5 bound to OS proc set {0,1,2,3,4,5}
OMP: Info #242: KMP_AFFINITY: pid 21876 thread 4 bound to OS proc set {0,1,2,3,4,5}
I0117 11:14:23.652595 21876 net.cpp:219] Setting up conv1
I0117 11:14:23.652647 21876 net.cpp:226] Top shape: 32 32 32 32 (1048576)
I0117 11:14:23.652657 21876 net.cpp:234] Memory required for data: 4587648
I0117 11:14:23.652699 21876 net.cpp:154] Setting up Layer of device :0 @cpu 0 Layer : pool1
I0117 11:14:23.652710 21876 layer_factory.hpp:114] Creating layer pool1
I0117 11:14:23.652796 21876 net.cpp:169] Creating Layer pool1
I0117 11:14:23.652808 21876 net.cpp:606] pool1 <- conv1
I0117 11:14:23.652824 21876 net.cpp:579] pool1 -> pool1
I0117 11:14:23.652853 21876 net.cpp:582] From AppendTop @cpu: 0
I0117 11:14:23.652889 21876 net.cpp:219] Setting up pool1
I0117 11:14:23.652904 21876 net.cpp:226] Top shape: 32 32 16 16 (262144)
I0117 11:14:23.652912 21876 net.cpp:234] Memory required for data: 5636224
I0117 11:14:23.652922 21876 net.cpp:154] Setting up Layer of device :0 @cpu 0 Layer : relu1
I0117 11:14:23.652932 21876 layer_factory.hpp:114] Creating layer relu1
I0117 11:14:23.652945 21876 net.cpp:169] Creating Layer relu1
I0117 11:14:23.652953 21876 net.cpp:606] relu1 <- pool1
I0117 11:14:23.652967 21876 net.cpp:566] relu1 -> pool1 (in-place)
I0117 11:14:23.652986 21876 net.cpp:219] Setting up relu1
I0117 11:14:23.652997 21876 net.cpp:226] Top shape: 32 32 16 16 (262144)
I0117 11:14:23.653005 21876 net.cpp:234] Memory required for data: 6684800
I0117 11:14:23.653017 21876 net.cpp:154] Setting up Layer of device :0 @cpu 0 Layer : norm1
I0117 11:14:23.653025 21876 layer_factory.hpp:114] Creating layer norm1
I0117 11:14:23.653041 21876 net.cpp:169] Creating Layer norm1
I0117 11:14:23.653050 21876 net.cpp:606] norm1 <- pool1
I0117 11:14:23.653062 21876 net.cpp:579] norm1 -> norm1
I0117 11:14:23.653071 21876 net.cpp:582] From AppendTop @cpu: 0
I0117 11:14:23.653142 21876 net.cpp:219] Setting up norm1
I0117 11:14:23.653156 21876 net.cpp:226] Top shape: 32 32 16 16 (262144)
I0117 11:14:23.653165 21876 net.cpp:234] Memory required for data: 7733376
I0117 11:14:23.653177 21876 net.cpp:154] Setting up Layer of device :0 @cpu 0 Layer : conv2
I0117 11:14:23.653185 21876 layer_factory.hpp:114] Creating layer conv2
I0117 11:14:23.653205 21876 net.cpp:169] Creating Layer conv2
I0117 11:14:23.653231 21876 net.cpp:606] conv2 <- norm1
I0117 11:14:23.653256 21876 net.cpp:579] conv2 -> conv2
I0117 11:14:23.653266 21876 net.cpp:582] From AppendTop @cpu: 0
I0117 11:14:23.660136 21876 net.cpp:219] Setting up conv2
I0117 11:14:23.660181 21876 net.cpp:226] Top shape: 32 32 16 16 (262144)
I0117 11:14:23.660192 21876 net.cpp:234] Memory required for data: 8781952
I0117 11:14:23.660218 21876 net.cpp:154] Setting up Layer of device :0 @cpu 0 Layer : relu2
I0117 11:14:23.660228 21876 layer_factory.hpp:114] Creating layer relu2
I0117 11:14:23.660254 21876 net.cpp:169] Creating Layer relu2
I0117 11:14:23.660266 21876 net.cpp:606] relu2 <- conv2
I0117 11:14:23.660279 21876 net.cpp:566] relu2 -> conv2 (in-place)
I0117 11:14:23.660295 21876 net.cpp:219] Setting up relu2
I0117 11:14:23.660307 21876 net.cpp:226] Top shape: 32 32 16 16 (262144)
I0117 11:14:23.660315 21876 net.cpp:234] Memory required for data: 9830528
I0117 11:14:23.660326 21876 net.cpp:154] Setting up Layer of device :0 @cpu 0 Layer : pool2
I0117 11:14:23.660336 21876 layer_factory.hpp:114] Creating layer pool2
I0117 11:14:23.660369 21876 net.cpp:169] Creating Layer pool2
I0117 11:14:23.660379 21876 net.cpp:606] pool2 <- conv2
I0117 11:14:23.660394 21876 net.cpp:579] pool2 -> pool2
I0117 11:14:23.660403 21876 net.cpp:582] From AppendTop @cpu: 0
I0117 11:14:23.660420 21876 net.cpp:219] Setting up pool2
I0117 11:14:23.660432 21876 net.cpp:226] Top shape: 32 32 8 8 (65536)
I0117 11:14:23.660441 21876 net.cpp:234] Memory required for data: 10092672
I0117 11:14:23.660451 21876 net.cpp:154] Setting up Layer of device :0 @cpu 0 Layer : norm2
I0117 11:14:23.660460 21876 layer_factory.hpp:114] Creating layer norm2
I0117 11:14:23.660478 21876 net.cpp:169] Creating Layer norm2
I0117 11:14:23.660487 21876 net.cpp:606] norm2 <- pool2
I0117 11:14:23.660498 21876 net.cpp:579] norm2 -> norm2
I0117 11:14:23.660507 21876 net.cpp:582] From AppendTop @cpu: 0
I0117 11:14:23.660565 21876 net.cpp:219] Setting up norm2
I0117 11:14:23.660579 21876 net.cpp:226] Top shape: 32 32 8 8 (65536)
I0117 11:14:23.660588 21876 net.cpp:234] Memory required for data: 10354816
I0117 11:14:23.660598 21876 net.cpp:154] Setting up Layer of device :0 @cpu 0 Layer : conv3
I0117 11:14:23.660605 21876 layer_factory.hpp:114] Creating layer conv3
I0117 11:14:23.660626 21876 net.cpp:169] Creating Layer conv3
I0117 11:14:23.660635 21876 net.cpp:606] conv3 <- norm2
I0117 11:14:23.660650 21876 net.cpp:579] conv3 -> conv3
I0117 11:14:23.660670 21876 net.cpp:582] From AppendTop @cpu: 0
I0117 11:14:23.667641 21876 net.cpp:219] Setting up conv3
I0117 11:14:23.667676 21876 net.cpp:226] Top shape: 32 64 8 8 (131072)
I0117 11:14:23.667685 21876 net.cpp:234] Memory required for data: 10879104
I0117 11:14:23.667711 21876 net.cpp:154] Setting up Layer of device :0 @cpu 0 Layer : relu3
I0117 11:14:23.667721 21876 layer_factory.hpp:114] Creating layer relu3
I0117 11:14:23.667735 21876 net.cpp:169] Creating Layer relu3
I0117 11:14:23.667744 21876 net.cpp:606] relu3 <- conv3
I0117 11:14:23.667760 21876 net.cpp:566] relu3 -> conv3 (in-place)
I0117 11:14:23.667775 21876 net.cpp:219] Setting up relu3
I0117 11:14:23.667788 21876 net.cpp:226] Top shape: 32 64 8 8 (131072)
I0117 11:14:23.667795 21876 net.cpp:234] Memory required for data: 11403392
I0117 11:14:23.667806 21876 net.cpp:154] Setting up Layer of device :0 @cpu 0 Layer : pool3
I0117 11:14:23.667815 21876 layer_factory.hpp:114] Creating layer pool3
I0117 11:14:23.667850 21876 net.cpp:169] Creating Layer pool3
I0117 11:14:23.667860 21876 net.cpp:606] pool3 <- conv3
I0117 11:14:23.667871 21876 net.cpp:579] pool3 -> pool3
I0117 11:14:23.667879 21876 net.cpp:582] From AppendTop @cpu: 0
I0117 11:14:23.667896 21876 net.cpp:219] Setting up pool3
I0117 11:14:23.667907 21876 net.cpp:226] Top shape: 32 64 4 4 (32768)
I0117 11:14:23.667915 21876 net.cpp:234] Memory required for data: 11534464
I0117 11:14:23.667925 21876 net.cpp:154] Setting up Layer of device :0 @cpu 0 Layer : ip1
I0117 11:14:23.667934 21876 layer_factory.hpp:114] Creating layer ip1
I0117 11:14:23.667979 21876 net.cpp:169] Creating Layer ip1
I0117 11:14:23.667989 21876 net.cpp:606] ip1 <- pool3
I0117 11:14:23.668001 21876 net.cpp:579] ip1 -> ip1
I0117 11:14:23.668009 21876 net.cpp:582] From AppendTop @cpu: 0
I0117 11:14:23.669040 21876 net.cpp:219] Setting up ip1
I0117 11:14:23.669056 21876 net.cpp:226] Top shape: 32 10 (320)
I0117 11:14:23.669064 21876 net.cpp:234] Memory required for data: 11535744
I0117 11:14:23.669080 21876 net.cpp:154] Setting up Layer of device :0 @cpu 0 Layer : loss
I0117 11:14:23.669090 21876 layer_factory.hpp:114] Creating layer loss
I0117 11:14:23.669106 21876 net.cpp:169] Creating Layer loss
I0117 11:14:23.669114 21876 net.cpp:606] loss <- ip1
I0117 11:14:23.669127 21876 net.cpp:606] loss <- label
…
I0117 11:14:23.670789 21876 cpu_info.cpp:473] Number of OpenMP threads: 6
I0117 11:14:23.670850 21876 net.cpp:493] The NetState phase (1) differed from the phase (0) specified by a rule in layer cifar
I0117 11:14:23.671687 21876 net.cpp:125] Initializing net from parameters: 
name: "CIFAR10_full"
state {
  phase: TEST
}
layer {
  name: "cifar"
  type: "Data"
  top: "data"
  top: "label"
  include {
    phase: TEST
  }
  transform_param {
    mean_file: "examples/cifar10/mean.binaryproto"
  }
  data_param {
    source: "examples/cifar10/cifar10_test_lmdb"
    batch_size: 100
    backend: LMDB
  }
}
layer {
  name: "label_cifar_1_split"
  type: "Split"
  bottom: "label"
  top: "label_cifar_1_split_0"
  top: "label_cifar_1_split_1"
}
layer {
  name: "conv1"
  type: "Convolution"
  bottom: "data"
  top: "conv1"
  param {
    lr_mult: 1
  }
  param {
    lr_mult: 2
  }
  convolution_param {
    num_output: 32
    pad: 2
    kernel_size: 5
    stride: 1
    weight_filler {
      type: "gaussian"
      std: 0.0001
    }
    bias_filler {
      type: "constant"
    }
  }
}
layer {
  name: "pool1"
  type: "Pooling"
  bottom: "conv1"
  top: "pool1"
  pooling_param {
    pool: MAX
    kernel_size: 3
    stride: 2
  }
}
layer {
  name: "relu1"
  type: "ReLU"
  bottom: "pool1"
  top: "pool1"
}
layer {
  name: "norm1"
  type: "LRN"
  bottom: "pool1"
  top: "norm1"
  lrn_param {
    local_size: 3
    alpha: 5e-05
    beta: 0.75
    norm_region: WITHIN_CHANNEL
  }
}
layer {
  name: "conv2"
  type: "Convolution"
  bottom: "norm1"
  top: "conv2"
  param {
    lr_mult: 1
  }
  param {
    lr_mult: 2
  }
  convolution_param {
    num_output: 32
    pad: 2
    kernel_size: 5
    stride: 1
    weight_filler {
      type: "gaussian"
      std: 0.01
    }
    bias_filler {
      type: "constant"
    }
  }
}
layer {
  name: "relu2"
  type: "ReLU"
  bottom: "conv2"
  top: "conv2"
}
layer {
  name: "pool2"
  type: "Pooling"
  bottom: "conv2"
  top: "pool2"
  pooling_param {
    pool: AVE
    kernel_size: 3
    stride: 2
  }
}
layer {
  name: "norm2"
  type: "LRN"
  bottom: "pool2"
  top: "norm2"
  lrn_param {
    local_size: 3
    alpha: 5e-05
    beta: 0.75
    norm_region: WITHIN_CHANNEL
  }
}
layer {
  name: "conv3"
  type: "Convolution"
  bottom: "norm2"
  top: "conv3"
  convolution_param {
    num_output: 64
    pad: 2
    kernel_size: 5
    stride: 1
    weight_filler {
      type: "gaussian"
      std: 0.01
    }
    bias_filler {
      type: "constant"
    }
  }
}
layer {
  name: "relu3"
  type: "ReLU"
  bottom: "conv3"
  top: "conv3"
}
layer {
  name: "pool3"
  type: "Pooling"
  bottom: "conv3"
  top: "pool3"
  pooling_param {
    pool: AVE
    kernel_size: 3
    stride: 2
  }
}
layer {
  name: "ip1"
  type: "InnerProduct"
  bottom: "pool3"
  top: "ip1"
  param {
    lr_mult: 1
    decay_mult: 250
  }
  param {
    lr_mult: 2
    decay_mult: 0
  }
  inner_product_param {
    num_output: 10
    weight_filler {
      type: "gaussian"
      std: 0.01
    }
    bias_filler {
      type: "constant"
    }
  }
}
layer {
  name: "ip1_ip1_0_split"
  type: "Split"
  bottom: "ip1"
  top: "ip1_ip1_0_split_0"
  top: "ip1_ip1_0_split_1"
}
layer {
  name: "accuracy"
  type: "Accuracy"
  bottom: "ip1_ip1_0_split_0"
  bottom: "label_cifar_1_split_0"
  top: "accuracy"
  include {
    phase: TEST
  }
}
layer {
  name: "loss"
  type: "SoftmaxWithLoss"
  bottom: "ip1_ip1_0_split_1"
  bottom: "label_cifar_1_split_1"
  top: "loss"
}
I0117 11:14:23.671746 21876 net.cpp:154] Setting up Layer of device :0 @cpu 0 Layer : cifar
I0117 11:14:23.671763 21876 layer_factory.hpp:114] Creating layer cifar
I0117 11:14:23.672005 21876 net.cpp:169] Creating Layer cifar
I0117 11:14:23.672021 21876 net.cpp:579] cifar -> data
I0117 11:14:23.672034 21876 net.cpp:582] From AppendTop @cpu: 0
I0117 11:14:23.672051 21876 net.cpp:579] cifar -> label
I0117 11:14:23.672060 21876 net.cpp:582] From AppendTop @cpu: 0
I0117 11:14:23.672076 21876 data_transformer.cpp:62] Loading mean file from: examples/cifar10/mean.binaryproto
I0117 11:14:23.672391 21883 db_lmdb.cpp:72] Opened lmdb examples/cifar10/cifar10_test_lmdb
I0117 11:14:23.672425 21883 data_reader.cpp:128] inside DATAREADER 1
I0117 11:14:23.672437 21883 data_reader.cpp:139] NUMA DOMAIN 0
I0117 11:14:23.672492 21876 data_layer.cpp:80] output data size: 100,3,32,32
I0117 11:14:23.675673 21876 base_data_layer.cpp:96] Done cpu data
I0117 11:14:23.675704 21876 net.cpp:219] Setting up cifar
I0117 11:14:23.675719 21876 net.cpp:226] Top shape: 100 3 32 32 (307200)
I0117 11:14:23.675731 21876 net.cpp:226] Top shape: 100 (100)
I0117 11:14:23.675740 21876 net.cpp:234] Memory required for data: 1229200
I0117 11:14:23.675755 21876 net.cpp:154] Setting up Layer of device :0 @cpu 0 Layer : label_cifar_1_split
I0117 11:14:23.675765 21876 layer_factory.hpp:114] Creating layer label_cifar_1_split
I0117 11:14:23.675783 21876 net.cpp:169] Creating Layer label_cifar_1_split
I0117 11:14:23.675793 21876 net.cpp:606] label_cifar_1_split <- label
I0117 11:14:23.675806 21876 net.cpp:579] label_cifar_1_split -> label_cifar_1_split_0
I0117 11:14:23.675837 21876 net.cpp:582] From AppendTop @cpu: 0
I0117 11:14:23.675854 21876 net.cpp:579] label_cifar_1_split -> label_cifar_1_split_1
I0117 11:14:23.675863 21876 net.cpp:582] From AppendTop @cpu: 0
I0117 11:14:23.675879 21876 net.cpp:219] Setting up label_cifar_1_split
I0117 11:14:23.675890 21876 net.cpp:226] Top shape: 100 (100)
I0117 11:14:23.675901 21876 net.cpp:226] Top shape: 100 (100)
I0117 11:14:23.675909 21876 net.cpp:234] Memory required for data: 1230000
I0117 11:14:23.675920 21876 net.cpp:154] Setting up Layer of device :0 @cpu 0 Layer : conv1
I0117 11:14:23.675930 21876 layer_factory.hpp:114] Creating layer conv1
I0117 11:14:23.675956 21876 net.cpp:169] Creating Layer conv1
I0117 11:14:23.675966 21876 net.cpp:606] conv1 <- data
I0117 11:14:23.675978 21876 net.cpp:579] conv1 -> conv1
I0117 11:14:23.675987 21876 net.cpp:582] From AppendTop @cpu: 0
I0117 11:14:23.678031 21876 net.cpp:219] Setting up conv1
I0117 11:14:23.678063 21876 net.cpp:226] Top shape: 100 32 32 32 (3276800)
I0117 11:14:23.678072 21876 net.cpp:234] Memory required for data: 14337200
I0117 11:14:23.678098 21876 net.cpp:154] Setting up Layer of device :0 @cpu 0 Layer : pool1
I0117 11:14:23.678108 21876 layer_factory.hpp:114] Creating layer pool1
I0117 11:14:23.678158 21876 net.cpp:169] Creating Layer pool1
I0117 11:14:23.678170 21876 net.cpp:606] pool1 <- conv1
I0117 11:14:23.678182 21876 net.cpp:579] pool1 -> pool1
I0117 11:14:23.678191 21876 net.cpp:582] From AppendTop @cpu: 0
I0117 11:14:23.678210 21876 net.cpp:219] Setting up pool1
I0117 11:14:23.678222 21876 net.cpp:226] Top shape: 100 32 16 16 (819200)
I0117 11:14:23.678231 21876 net.cpp:234] Memory required for data: 17614000
I0117 11:14:23.678251 21876 net.cpp:154] Setting up Layer of device :0 @cpu 0 Layer : relu1
I0117 11:14:23.678261 21876 layer_factory.hpp:114] Creating layer relu1
I0117 11:14:23.678277 21876 net.cpp:169] Creating Layer relu1
I0117 11:14:23.678285 21876 net.cpp:606] relu1 <- pool1
I0117 11:14:23.678297 21876 net.cpp:566] relu1 -> pool1 (in-place)
I0117 11:14:23.678310 21876 net.cpp:219] Setting up relu1
I0117 11:14:23.678321 21876 net.cpp:226] Top shape: 100 32 16 16 (819200)
I0117 11:14:23.678329 21876 net.cpp:234] Memory required for data: 20890800
I0117 11:14:23.678340 21876 net.cpp:154] Setting up Layer of device :0 @cpu 0 Layer : norm1
I0117 11:14:23.678349 21876 layer_factory.hpp:114] Creating layer norm1
I0117 11:14:23.678366 21876 net.cpp:169] Creating Layer norm1
I0117 11:14:23.678386 21876 net.cpp:606] norm1 <- pool1
I0117 11:14:23.678401 21876 net.cpp:579] norm1 -> norm1
I0117 11:14:23.678411 21876 net.cpp:582] From AppendTop @cpu: 0
I0117 11:14:23.678475 21876 net.cpp:219] Setting up norm1
I0117 11:14:23.678489 21876 net.cpp:226] Top shape: 100 32 16 16 (819200)
I0117 11:14:23.678498 21876 net.cpp:234] Memory required for data: 24167600
I0117 11:14:23.678508 21876 net.cpp:154] Setting up Layer of device :0 @cpu 0 Layer : conv2
I0117 11:14:23.678516 21876 layer_factory.hpp:114] Creating layer conv2
I0117 11:14:23.678539 21876 net.cpp:169] Creating Layer conv2
I0117 11:14:23.678549 21876 net.cpp:606] conv2 <- norm1
I0117 11:14:23.678561 21876 net.cpp:579] conv2 -> conv2
I0117 11:14:23.678570 21876 net.cpp:582] From AppendTop @cpu: 0
I0117 11:14:23.685708 21876 net.cpp:219] Setting up conv2
I0117 11:14:23.685744 21876 net.cpp:226] Top shape: 100 32 16 16 (819200)
I0117 11:14:23.685752 21876 net.cpp:234] Memory required for data: 27444400
I0117 11:14:23.685781 21876 net.cpp:154] Setting up Layer of device :0 @cpu 0 Layer : relu2
I0117 11:14:23.685791 21876 layer_factory.hpp:114] Creating layer relu2
I0117 11:14:23.685806 21876 net.cpp:169] Creating Layer relu2
I0117 11:14:23.685817 21876 net.cpp:606] relu2 <- conv2
I0117 11:14:23.685833 21876 net.cpp:566] relu2 -> conv2 (in-place)
I0117 11:14:23.685848 21876 net.cpp:219] Setting up relu2
I0117 11:14:23.685860 21876 net.cpp:226] Top shape: 100 32 16 16 (819200)
I0117 11:14:23.685868 21876 net.cpp:234] Memory required for data: 30721200
I0117 11:14:23.685878 21876 net.cpp:154] Setting up Layer of device :0 @cpu 0 Layer : pool2
I0117 11:14:23.685906 21876 layer_factory.hpp:114] Creating layer pool2
I0117 11:14:23.685950 21876 net.cpp:169] Creating Layer pool2
I0117 11:14:23.685959 21876 net.cpp:606] pool2 <- conv2
I0117 11:14:23.685976 21876 net.cpp:579] pool2 -> pool2
I0117 11:14:23.685984 21876 net.cpp:582] From AppendTop @cpu: 0
I0117 11:14:23.686002 21876 net.cpp:219] Setting up pool2
I0117 11:14:23.686014 21876 net.cpp:226] Top shape: 100 32 8 8 (204800)
I0117 11:14:23.686022 21876 net.cpp:234] Memory required for data: 31540400
I0117 11:14:23.686033 21876 net.cpp:154] Setting up Layer of device :0 @cpu 0 Layer : norm2
I0117 11:14:23.686043 21876 layer_factory.hpp:114] Creating layer norm2
I0117 11:14:23.686059 21876 net.cpp:169] Creating Layer norm2
I0117 11:14:23.686069 21876 net.cpp:606] norm2 <- pool2
I0117 11:14:23.686079 21876 net.cpp:579] norm2 -> norm2
I0117 11:14:23.686089 21876 net.cpp:582] From AppendTop @cpu: 0
I0117 11:14:23.686146 21876 net.cpp:219] Setting up norm2
I0117 11:14:23.686161 21876 net.cpp:226] Top shape: 100 32 8 8 (204800)
I0117 11:14:23.686168 21876 net.cpp:234] Memory required for data: 32359600
I0117 11:14:23.686178 21876 net.cpp:154] Setting up Layer of device :0 @cpu 0 Layer : conv3
I0117 11:14:23.686187 21876 layer_factory.hpp:114] Creating layer conv3
I0117 11:14:23.686206 21876 net.cpp:169] Creating Layer conv3
I0117 11:14:23.686215 21876 net.cpp:606] conv3 <- norm2
I0117 11:14:23.686228 21876 net.cpp:579] conv3 -> conv3
I0117 11:14:23.686245 21876 net.cpp:582] From AppendTop @cpu: 0
I0117 11:14:23.692694 21876 net.cpp:219] Setting up conv3
I0117 11:14:23.692728 21876 net.cpp:226] Top shape: 100 64 8 8 (409600)
I0117 11:14:23.692736 21876 net.cpp:234] Memory required for data: 33998000
I0117 11:14:23.692761 21876 net.cpp:154] Setting up Layer of device :0 @cpu 0 Layer : relu3
I0117 11:14:23.692771 21876 layer_factory.hpp:114] Creating layer relu3
I0117 11:14:23.692785 21876 net.cpp:169] Creating Layer relu3
I0117 11:14:23.692795 21876 net.cpp:606] relu3 <- conv3
I0117 11:14:23.692813 21876 net.cpp:566] relu3 -> conv3 (in-place)
I0117 11:14:23.692828 21876 net.cpp:219] Setting up relu3
I0117 11:14:23.692840 21876 net.cpp:226] Top shape: 100 64 8 8 (409600)
I0117 11:14:23.692848 21876 net.cpp:234] Memory required for data: 35636400
I0117 11:14:23.692859 21876 net.cpp:154] Setting up Layer of device :0 @cpu 0 Layer : pool3
I0117 11:14:23.692867 21876 layer_factory.hpp:114] Creating layer pool3
I0117 11:14:23.692909 21876 net.cpp:169] Creating Layer pool3
I0117 11:14:23.692920 21876 net.cpp:606] pool3 <- conv3
I0117 11:14:23.692932 21876 net.cpp:579] pool3 -> pool3
I0117 11:14:23.692940 21876 net.cpp:582] From AppendTop @cpu: 0
I0117 11:14:23.692956 21876 net.cpp:219] Setting up pool3
I0117 11:14:23.692968 21876 net.cpp:226] Top shape: 100 64 4 4 (102400)
I0117 11:14:23.692976 21876 net.cpp:234] Memory required for data: 36046000
I0117 11:14:23.692987 21876 net.cpp:154] Setting up Layer of device :0 @cpu 0 Layer : ip1
I0117 11:14:23.692996 21876 layer_factory.hpp:114] Creating layer ip1
I0117 11:14:23.693014 21876 net.cpp:169] Creating Layer ip1
I0117 11:14:23.693023 21876 net.cpp:606] ip1 <- pool3
I0117 11:14:23.693039 21876 net.cpp:579] ip1 -> ip1
I0117 11:14:23.693048 21876 net.cpp:582] From AppendTop @cpu: 0
I0117 11:14:23.694072 21876 net.cpp:219] Setting up ip1
I0117 11:14:23.694087 21876 net.cpp:226] Top shape: 100 10 (1000)
I0117 11:14:23.694095 21876 net.cpp:234] Memory required for data: 36050000
I0117 11:14:23.694110 21876 net.cpp:154] Setting up Layer of device :0 @cpu 0 Layer : ip1_ip1_0_split
I0117 11:14:23.694119 21876 layer_factory.hpp:114] Creating layer ip1_ip1_0_split
I0117 11:14:23.694133 21876 net.cpp:169] Creating Layer ip1_ip1_0_split
I0117 11:14:23.694141 21876 net.cpp:606] ip1_ip1_0_split <- ip1
I0117 11:14:23.694157 21876 net.cpp:579] ip1_ip1_0_split -> ip1_ip1_0_split_0
I0117 11:14:23.694166 21876 net.cpp:582] From AppendTop @cpu: 0
I0117 11:14:23.694178 21876 net.cpp:579] ip1_ip1_0_split -> ip1_ip1_0_split_1
I0117 11:14:23.694187 21876 net.cpp:582] From AppendTop @cpu: 0
I0117 11:14:23.694214 21876 net.cpp:219] Setting up ip1_ip1_0_split
I0117 11:14:23.694229 21876 net.cpp:226] Top shape: 100 10 (1000)
I0117 11:14:23.694248 21876 net.cpp:226] Top shape: 100 10 (1000)
I0117 11:14:23.694258 21876 net.cpp:234] Memory required for data: 36058000
I0117 11:14:23.694269 21876 net.cpp:154] Setting up Layer of device :0 @cpu 0 Layer : accuracy
I0117 11:14:23.694278 21876 layer_factory.hpp:114] Creating layer accuracy
I0117 11:14:23.694298 21876 net.cpp:169] Creating Layer accuracy
I0117 11:14:23.694306 21876 net.cpp:606] accuracy <- ip1_ip1_0_split_0
I0117 11:14:23.694316 21876 net.cpp:606] accuracy <- label_cifar_1_split_0
…
