…
I0331 13:21:59.570040  6102 net.cpp:493] The NetState phase (0) differed from the phase (1) specified by a rule in layer accuracy
I0331 13:21:59.573467  6102 net.cpp:125] Initializing net from parameters: 
name: "AlexNet"
state {
  phase: TRAIN
  level: 0
  stage: ""
}
layer {
  name: "data"
  type: "Data"
  top: "data"
  top: "label"
  include {
    phase: TRAIN
  }
  transform_param {
    mirror: true
    crop_size: 227
    mean_file: "/people/usr/CN/caffe/caffe/data/ilsvrc12/imagenet_mean.binaryproto"
  }
  data_param {
    source: "/people/usr/CN/caffe/caffe/examples/imagenet/ilsvrc12_train_lmdb"
    batch_size: 64
    backend: LMDB
  }
}
layer {
  name: "conv1"
  type: "Convolution"
  bottom: "data"
  top: "conv1"
  param {
    lr_mult: 1
    decay_mult: 1
  }
  param {
    lr_mult: 2
    decay_mult: 0
  }
  convolution_param {
    num_output: 96
    kernel_size: 11
    stride: 4
    weight_filler {
      type: "gaussian"
      std: 0.01
    }
    bias_filler {
      type: "constant"
      value: 0
    }
  }
}
layer {
  name: "relu1"
  type: "ReLU"
  bottom: "conv1"
  top: "conv1"
}
layer {
  name: "norm1"
  type: "LRN"
  bottom: "conv1"
  top: "norm1"
  lrn_param {
    local_size: 5
    alpha: 0.0001
    beta: 0.75
  }
}
layer {
  name: "pool1"
  type: "Pooling"
  bottom: "norm1"
  top: "pool1"
  pooling_param {
    pool: MAX
    kernel_size: 3
    stride: 2
  }
}
layer {
  name: "conv2"
  type: "Convolution"
  bottom: "pool1"
  top: "conv2"
  param {
    lr_mult: 1
    decay_mult: 1
  }
  param {
    lr_mult: 2
    decay_mult: 0
  }
  convolution_param {
    num_output: 256
    pad: 2
    kernel_size: 5
    group: 2
    weight_filler {
      type: "gaussian"
      std: 0.01
    }
    bias_filler {
      type: "constant"
      value: 0.1
    }
  }
}
layer {
  name: "relu2"
  type: "ReLU"
  bottom: "conv2"
  top: "conv2"
}
layer {
  name: "norm2"
  type: "LRN"
  bottom: "conv2"
  top: "norm2"
  lrn_param {
    local_size: 5
    alpha: 0.0001
    beta: 0.75
  }
}
layer {
  name: "pool2"
  type: "Pooling"
  bottom: "norm2"
  top: "pool2"
  pooling_param {
    pool: MAX
    kernel_size: 3
    stride: 2
  }
}
layer {
  name: "conv3"
  type: "Convolution"
  bottom: "pool2"
  top: "conv3"
  param {
    lr_mult: 1
    decay_mult: 1
  }
  param {
    lr_mult: 2
    decay_mult: 0
  }
  convolution_param {
    num_output: 384
    pad: 1
    kernel_size: 3
    weight_filler {
      type: "gaussian"
      std: 0.01
    }
    bias_filler {
      type: "constant"
      value: 0
    }
  }
}
layer {
  name: "relu3"
  type: "ReLU"
  bottom: "conv3"
  top: "conv3"
}
layer {
  name: "conv4"
  type: "Convolution"
  bottom: "conv3"
  top: "conv4"
  param {
    lr_mult: 1
    decay_mult: 1
  }
  param {
    lr_mult: 2
    decay_mult: 0
  }
  convolution_param {
    num_output: 384
    pad: 1
    kernel_size: 3
    group: 2
    weight_filler {
      type: "gaussian"
      std: 0.01
    }
    bias_filler {
      type: "constant"
      value: 0.1
    }
  }
}
layer {
  name: "relu4"
  type: "ReLU"
  bottom: "conv4"
  top: "conv4"
}
layer {
  name: "conv5"
  type: "Convolution"
  bottom: "conv4"
  top: "conv5"
  param {
    lr_mult: 1
    decay_mult: 1
  }
  param {
    lr_mult: 2
    decay_mult: 0
  }
  convolution_param {
    num_output: 256
    pad: 1
    kernel_size: 3
    group: 2
    weight_filler {
      type: "gaussian"
      std: 0.01
    }
    bias_filler {
      type: "constant"
      value: 0.1
    }
  }
}
layer {
  name: "relu5"
  type: "ReLU"
  bottom: "conv5"
  top: "conv5"
}
layer {
  name: "pool5"
  type: "Pooling"
  bottom: "conv5"
  top: "pool5"
  pooling_param {
    pool: MAX
    kernel_size: 3
    stride: 2
  }
}
layer {
  name: "fc6"
  type: "InnerProduct"
  bottom: "pool5"
  top: "fc6"
  param {
    lr_mult: 1
    decay_mult: 1
  }
  param {
    lr_mult: 2
    decay_mult: 0
  }
  inner_product_param {
    num_output: 4096
    weight_filler {
      type: "gaussian"
      std: 0.005
    }
    bias_filler {
      type: "constant"
      value: 0.1
    }
  }
}
layer {
  name: "relu6"
  type: "ReLU"
  bottom: "fc6"
  top: "fc6"
}
layer {
  name: "drop6"
  type: "Dropout"
  bottom: "fc6"
  top: "fc6"
  dropout_param {
    dropout_ratio: 0.5
  }
}
layer {
  name: "fc7"
  type: "InnerProduct"
  bottom: "fc6"
  top: "fc7"
  param {
    lr_mult: 1
    decay_mult: 1
  }
  param {
    lr_mult: 2
    decay_mult: 0
  }
  inner_product_param {
    num_output: 4096
    weight_filler {
      type: "gaussian"
      std: 0.005
    }
    bias_filler {
      type: "constant"
      value: 0.1
    }
  }
}
layer {
  name: "relu7"
  type: "ReLU"
  bottom: "fc7"
  top: "fc7"
}
layer {
  name: "drop7"
  type: "Dropout"
  bottom: "fc7"
  top: "fc7"
  dropout_param {
    dropout_ratio: 0.5
  }
}
layer {
  name: "fc8"
  type: "InnerProduct"
  bottom: "fc7"
  top: "fc8"
  param {
    lr_mult: 1
    decay_mult: 1
  }
  param {
    lr_mult: 2
    decay_mult: 0
  }
  inner_product_param {
    num_output: 1000
    weight_filler {
      type: "gaussian"
      std: 0.01
    }
    bias_filler {
      type: "constant"
      value: 0
    }
  }
}
layer {
  name: "loss"
  type: "SoftmaxWithLoss"
  bottom: "fc8"
  bottom: "label"
  top: "loss"
}
I0331 13:21:59.573701  6102 net.cpp:154] Setting up Layer of device :0 @cpu 0 Layer : data
I0331 13:21:59.573750  6102 layer_factory.hpp:114] Creating layer data
I0331 13:21:59.575978  6102 net.cpp:169] Creating Layer data
I0331 13:21:59.576076  6102 net.cpp:579] data -> data
I0331 13:21:59.576110  6102 net.cpp:582] From AppendTop @cpu: 0
I0331 13:21:59.576192  6102 net.cpp:579] data -> label
I0331 13:21:59.576225  6102 net.cpp:582] From AppendTop @cpu: 0
I0331 13:21:59.576287  6102 data_transformer.cpp:62] Loading mean file from: /people/usr/CN/caffe/caffe/data/ilsvrc12/imagenet_mean.binaryproto
I0331 13:21:59.587510  6103 db_lmdb.cpp:72] Opened lmdb /people/usr/CN/caffe/caffe/examples/imagenet/ilsvrc12_train_lmdb
I0331 13:21:59.589059  6103 virtDev_device.cpp:369] found a CPU core 14 for Data Reader on device 0 thread ID 140128810968832
I0331 13:21:59.589150  6103 data_reader.cpp:128] inside DATAREADER 4
I0331 13:21:59.589303  6103 data_reader.cpp:139] NUMA DOMAIN 0
I0331 13:21:59.590183  6103 data_reader.cpp:139] NUMA DOMAIN 0
I0331 13:21:59.702121  6102 data_layer.cpp:80] output data size: 64,3,227,227
I0331 13:21:59.743984  6102 base_data_layer.cpp:96] Done cpu data
I0331 13:21:59.744143  6102 net.cpp:219] Setting up data
I0331 13:21:59.744227  6102 net.cpp:226] Top shape: 64 3 227 227 (9893568)
I0331 13:21:59.744280  6102 net.cpp:226] Top shape: 64 (64)
I0331 13:21:59.744318  6102 net.cpp:234] Memory required for data: 39574528
I0331 13:21:59.744379  6102 net.cpp:154] Setting up Layer of device :0 @cpu 2 Layer : conv1
I0331 13:21:59.744416  6102 layer_factory.hpp:114] Creating layer conv1
I0331 13:21:59.744650  6102 net.cpp:169] Creating Layer conv1
I0331 13:21:59.744724  6102 net.cpp:606] conv1 <- data
I0331 13:21:59.744829  6102 net.cpp:579] conv1 -> conv1
I0331 13:21:59.744875  6102 net.cpp:582] From AppendTop @cpu: 2
I0331 13:21:59.775952  6102 net.cpp:219] Setting up conv1
I0331 13:21:59.776093  6102 net.cpp:226] Top shape: 64 96 55 55 (18585600)
I0331 13:21:59.776147  6102 net.cpp:234] Memory required for data: 113916928
I0331 13:21:59.776291  6102 net.cpp:154] Setting up Layer of device :0 @cpu 2 Layer : relu1
I0331 13:21:59.776353  6102 layer_factory.hpp:114] Creating layer relu1
I0331 13:21:59.776422  6102 net.cpp:169] Creating Layer relu1
I0331 13:21:59.776471  6102 net.cpp:606] relu1 <- conv1
I0331 13:21:59.776528  6102 net.cpp:566] relu1 -> conv1 (in-place)
I0331 13:21:59.776607  6102 net.cpp:219] Setting up relu1
I0331 13:21:59.776665  6102 net.cpp:226] Top shape: 64 96 55 55 (18585600)
I0331 13:21:59.776702  6102 net.cpp:234] Memory required for data: 188259328
I0331 13:21:59.776753  6102 net.cpp:154] Setting up Layer of device :0 @cpu 2 Layer : norm1
I0331 13:21:59.776849  6102 layer_factory.hpp:114] Creating layer norm1
I0331 13:21:59.776919  6102 net.cpp:169] Creating Layer norm1
I0331 13:21:59.776959  6102 net.cpp:606] norm1 <- conv1
I0331 13:21:59.777014  6102 net.cpp:579] norm1 -> norm1
I0331 13:21:59.777047  6102 net.cpp:582] From AppendTop @cpu: 2
I0331 13:21:59.777127  6102 net.cpp:219] Setting up norm1
I0331 13:21:59.777181  6102 net.cpp:226] Top shape: 64 96 55 55 (18585600)
I0331 13:21:59.777215  6102 net.cpp:234] Memory required for data: 262601728
I0331 13:21:59.777261  6102 net.cpp:154] Setting up Layer of device :0 @cpu 2 Layer : pool1
I0331 13:21:59.777295  6102 layer_factory.hpp:114] Creating layer pool1
I0331 13:21:59.777526  6102 net.cpp:169] Creating Layer pool1
I0331 13:21:59.777606  6102 net.cpp:606] pool1 <- norm1
I0331 13:21:59.777663  6102 net.cpp:579] pool1 -> pool1
I0331 13:21:59.777699  6102 net.cpp:582] From AppendTop @cpu: 2
I0331 13:21:59.777842  6102 net.cpp:219] Setting up pool1
I0331 13:21:59.777912  6102 net.cpp:226] Top shape: 64 96 27 27 (4478976)
I0331 13:21:59.777950  6102 net.cpp:234] Memory required for data: 280517632
I0331 13:21:59.777998  6102 net.cpp:154] Setting up Layer of device :0 @cpu 2 Layer : conv2
I0331 13:21:59.778033  6102 layer_factory.hpp:114] Creating layer conv2
I0331 13:21:59.778100  6102 net.cpp:169] Creating Layer conv2
I0331 13:21:59.778137  6102 net.cpp:606] conv2 <- pool1
I0331 13:21:59.778189  6102 net.cpp:579] conv2 -> conv2
I0331 13:21:59.778221  6102 net.cpp:582] From AppendTop @cpu: 2
I0331 13:21:59.845394  6102 net.cpp:219] Setting up conv2
I0331 13:21:59.845523  6102 net.cpp:226] Top shape: 64 256 27 27 (11943936)
I0331 13:21:59.845572  6102 net.cpp:234] Memory required for data: 328293376
I0331 13:21:59.845680  6102 net.cpp:154] Setting up Layer of device :0 @cpu 2 Layer : relu2
I0331 13:21:59.845732  6102 layer_factory.hpp:114] Creating layer relu2
I0331 13:21:59.845834  6102 net.cpp:169] Creating Layer relu2
I0331 13:21:59.845885  6102 net.cpp:606] relu2 <- conv2
I0331 13:21:59.845939  6102 net.cpp:566] relu2 -> conv2 (in-place)
I0331 13:21:59.846001  6102 net.cpp:219] Setting up relu2
I0331 13:21:59.846053  6102 net.cpp:226] Top shape: 64 256 27 27 (11943936)
I0331 13:21:59.846087  6102 net.cpp:234] Memory required for data: 376069120
I0331 13:21:59.846138  6102 net.cpp:154] Setting up Layer of device :0 @cpu 2 Layer : norm2
I0331 13:21:59.846173  6102 layer_factory.hpp:114] Creating layer norm2
I0331 13:21:59.846222  6102 net.cpp:169] Creating Layer norm2
I0331 13:21:59.846259  6102 net.cpp:606] norm2 <- conv2
I0331 13:21:59.846305  6102 net.cpp:579] norm2 -> norm2
I0331 13:21:59.846339  6102 net.cpp:582] From AppendTop @cpu: 2
I0331 13:21:59.846403  6102 net.cpp:219] Setting up norm2
I0331 13:21:59.846453  6102 net.cpp:226] Top shape: 64 256 27 27 (11943936)
I0331 13:21:59.846485  6102 net.cpp:234] Memory required for data: 423844864
I0331 13:21:59.846529  6102 net.cpp:154] Setting up Layer of device :0 @cpu 2 Layer : pool2
I0331 13:21:59.846691  6102 layer_factory.hpp:114] Creating layer pool2
I0331 13:21:59.846876  6102 net.cpp:169] Creating Layer pool2
I0331 13:21:59.846936  6102 net.cpp:606] pool2 <- norm2
I0331 13:21:59.846992  6102 net.cpp:579] pool2 -> pool2
I0331 13:21:59.847026  6102 net.cpp:582] From AppendTop @cpu: 2
I0331 13:21:59.847098  6102 net.cpp:219] Setting up pool2
I0331 13:21:59.847153  6102 net.cpp:226] Top shape: 64 256 13 13 (2768896)
I0331 13:21:59.847187  6102 net.cpp:234] Memory required for data: 434920448
I0331 13:21:59.847235  6102 net.cpp:154] Setting up Layer of device :0 @cpu 2 Layer : conv3
I0331 13:21:59.847268  6102 layer_factory.hpp:114] Creating layer conv3
I0331 13:21:59.847332  6102 net.cpp:169] Creating Layer conv3
I0331 13:21:59.847368  6102 net.cpp:606] conv3 <- pool2
I0331 13:21:59.847416  6102 net.cpp:579] conv3 -> conv3
I0331 13:21:59.847448  6102 net.cpp:582] From AppendTop @cpu: 2
I0331 13:21:59.933830  6102 net.cpp:219] Setting up conv3
I0331 13:21:59.933966  6102 net.cpp:226] Top shape: 64 384 13 13 (4153344)
I0331 13:21:59.934015  6102 net.cpp:234] Memory required for data: 451533824
I0331 13:21:59.934124  6102 net.cpp:154] Setting up Layer of device :0 @cpu 2 Layer : relu3
I0331 13:21:59.934175  6102 layer_factory.hpp:114] Creating layer relu3
I0331 13:21:59.934237  6102 net.cpp:169] Creating Layer relu3
I0331 13:21:59.934278  6102 net.cpp:606] relu3 <- conv3
I0331 13:21:59.934330  6102 net.cpp:566] relu3 -> conv3 (in-place)
I0331 13:21:59.934389  6102 net.cpp:219] Setting up relu3
I0331 13:21:59.934442  6102 net.cpp:226] Top shape: 64 384 13 13 (4153344)
I0331 13:21:59.934474  6102 net.cpp:234] Memory required for data: 468147200
I0331 13:21:59.934522  6102 net.cpp:154] Setting up Layer of device :0 @cpu 2 Layer : conv4
I0331 13:21:59.934587  6102 layer_factory.hpp:114] Creating layer conv4
I0331 13:21:59.934659  6102 net.cpp:169] Creating Layer conv4
I0331 13:21:59.934701  6102 net.cpp:606] conv4 <- conv3
I0331 13:21:59.934752  6102 net.cpp:579] conv4 -> conv4
I0331 13:21:59.934835  6102 net.cpp:582] From AppendTop @cpu: 2
I0331 13:22:00.006273  6102 net.cpp:219] Setting up conv4
I0331 13:22:00.006400  6102 net.cpp:226] Top shape: 64 384 13 13 (4153344)
I0331 13:22:00.006444  6102 net.cpp:234] Memory required for data: 484760576
I0331 13:22:00.006537  6102 net.cpp:154] Setting up Layer of device :0 @cpu 2 Layer : relu4
I0331 13:22:00.006583  6102 layer_factory.hpp:114] Creating layer relu4
I0331 13:22:00.006644  6102 net.cpp:169] Creating Layer relu4
I0331 13:22:00.006686  6102 net.cpp:606] relu4 <- conv4
I0331 13:22:00.006738  6102 net.cpp:566] relu4 -> conv4 (in-place)
I0331 13:22:00.006849  6102 net.cpp:219] Setting up relu4
I0331 13:22:00.006909  6102 net.cpp:226] Top shape: 64 384 13 13 (4153344)
I0331 13:22:00.006943  6102 net.cpp:234] Memory required for data: 501373952
I0331 13:22:00.006991  6102 net.cpp:154] Setting up Layer of device :0 @cpu 2 Layer : conv5
I0331 13:22:00.007025  6102 layer_factory.hpp:114] Creating layer conv5
I0331 13:22:00.007091  6102 net.cpp:169] Creating Layer conv5
I0331 13:22:00.007130  6102 net.cpp:606] conv5 <- conv4
I0331 13:22:00.007180  6102 net.cpp:579] conv5 -> conv5
I0331 13:22:00.007215  6102 net.cpp:582] From AppendTop @cpu: 2
I0331 13:22:00.061735  6102 net.cpp:219] Setting up conv5
I0331 13:22:00.061914  6102 net.cpp:226] Top shape: 64 256 13 13 (2768896)
I0331 13:22:00.061964  6102 net.cpp:234] Memory required for data: 512449536
I0331 13:22:00.062074  6102 net.cpp:154] Setting up Layer of device :0 @cpu 2 Layer : relu5
I0331 13:22:00.062127  6102 layer_factory.hpp:114] Creating layer relu5
I0331 13:22:00.062188  6102 net.cpp:169] Creating Layer relu5
I0331 13:22:00.062232  6102 net.cpp:606] relu5 <- conv5
I0331 13:22:00.062283  6102 net.cpp:566] relu5 -> conv5 (in-place)
I0331 13:22:00.062345  6102 net.cpp:219] Setting up relu5
I0331 13:22:00.062397  6102 net.cpp:226] Top shape: 64 256 13 13 (2768896)
I0331 13:22:00.062432  6102 net.cpp:234] Memory required for data: 523525120
I0331 13:22:00.062479  6102 net.cpp:154] Setting up Layer of device :0 @cpu 2 Layer : pool5
I0331 13:22:00.062644  6102 layer_factory.hpp:114] Creating layer pool5
I0331 13:22:00.062837  6102 net.cpp:169] Creating Layer pool5
I0331 13:22:00.062902  6102 net.cpp:606] pool5 <- conv5
I0331 13:22:00.062960  6102 net.cpp:579] pool5 -> pool5
I0331 13:22:00.062995  6102 net.cpp:582] From AppendTop @cpu: 2
I0331 13:22:00.063072  6102 net.cpp:219] Setting up pool5
I0331 13:22:00.063127  6102 net.cpp:226] Top shape: 64 256 6 6 (589824)
I0331 13:22:00.063163  6102 net.cpp:234] Memory required for data: 525884416
I0331 13:22:00.063210  6102 net.cpp:154] Setting up Layer of device :0 @cpu 2 Layer : fc6
I0331 13:22:00.063243  6102 layer_factory.hpp:114] Creating layer fc6
I0331 13:22:00.063311  6102 net.cpp:169] Creating Layer fc6
I0331 13:22:00.063349  6102 net.cpp:606] fc6 <- pool5
I0331 13:22:00.063400  6102 net.cpp:579] fc6 -> fc6
I0331 13:22:00.063431  6102 net.cpp:582] From AppendTop @cpu: 2
I0331 13:22:02.375036  6102 net.cpp:219] Setting up fc6
I0331 13:22:02.375156  6102 net.cpp:226] Top shape: 64 4096 (262144)
I0331 13:22:02.375193  6102 net.cpp:234] Memory required for data: 526932992
I0331 13:22:02.375272  6102 net.cpp:154] Setting up Layer of device :0 @cpu 2 Layer : relu6
I0331 13:22:02.375309  6102 layer_factory.hpp:114] Creating layer relu6
I0331 13:22:02.375362  6102 net.cpp:169] Creating Layer relu6
I0331 13:22:02.375398  6102 net.cpp:606] relu6 <- fc6
I0331 13:22:02.375445  6102 net.cpp:566] relu6 -> fc6 (in-place)
I0331 13:22:02.375497  6102 net.cpp:219] Setting up relu6
I0331 13:22:02.375541  6102 net.cpp:226] Top shape: 64 4096 (262144)
I0331 13:22:02.375573  6102 net.cpp:234] Memory required for data: 527981568
I0331 13:22:02.375614  6102 net.cpp:154] Setting up Layer of device :0 @cpu 2 Layer : drop6
I0331 13:22:02.375674  6102 layer_factory.hpp:114] Creating layer drop6
I0331 13:22:02.375721  6102 net.cpp:169] Creating Layer drop6
I0331 13:22:02.375795  6102 net.cpp:606] drop6 <- fc6
I0331 13:22:02.375849  6102 net.cpp:566] drop6 -> fc6 (in-place)
I0331 13:22:02.375918  6102 net.cpp:219] Setting up drop6
I0331 13:22:02.375967  6102 net.cpp:226] Top shape: 64 4096 (262144)
I0331 13:22:02.375998  6102 net.cpp:234] Memory required for data: 529030144
I0331 13:22:02.376044  6102 net.cpp:154] Setting up Layer of device :0 @cpu 2 Layer : fc7
I0331 13:22:02.376075  6102 layer_factory.hpp:114] Creating layer fc7
I0331 13:22:02.376134  6102 net.cpp:169] Creating Layer fc7
I0331 13:22:02.376170  6102 net.cpp:606] fc7 <- fc6
I0331 13:22:02.376217  6102 net.cpp:579] fc7 -> fc7
I0331 13:22:02.376250  6102 net.cpp:582] From AppendTop @cpu: 2
I0331 13:22:03.403132  6102 net.cpp:219] Setting up fc7
I0331 13:22:03.403259  6102 net.cpp:226] Top shape: 64 4096 (262144)
I0331 13:22:03.403295  6102 net.cpp:234] Memory required for data: 530078720
I0331 13:22:03.403374  6102 net.cpp:154] Setting up Layer of device :0 @cpu 2 Layer : relu7
I0331 13:22:03.403410  6102 layer_factory.hpp:114] Creating layer relu7
I0331 13:22:03.403463  6102 net.cpp:169] Creating Layer relu7
I0331 13:22:03.403501  6102 net.cpp:606] relu7 <- fc7
I0331 13:22:03.403547  6102 net.cpp:566] relu7 -> fc7 (in-place)
I0331 13:22:03.403599  6102 net.cpp:219] Setting up relu7
I0331 13:22:03.403645  6102 net.cpp:226] Top shape: 64 4096 (262144)
I0331 13:22:03.403676  6102 net.cpp:234] Memory required for data: 531127296
I0331 13:22:03.403717  6102 net.cpp:154] Setting up Layer of device :0 @cpu 2 Layer : drop7
I0331 13:22:03.403748  6102 layer_factory.hpp:114] Creating layer drop7
I0331 13:22:03.403839  6102 net.cpp:169] Creating Layer drop7
I0331 13:22:03.403874  6102 net.cpp:606] drop7 <- fc7
I0331 13:22:03.403918  6102 net.cpp:566] drop7 -> fc7 (in-place)
I0331 13:22:03.403970  6102 net.cpp:219] Setting up drop7
I0331 13:22:03.404014  6102 net.cpp:226] Top shape: 64 4096 (262144)
I0331 13:22:03.404047  6102 net.cpp:234] Memory required for data: 532175872
I0331 13:22:03.404088  6102 net.cpp:154] Setting up Layer of device :0 @cpu 2 Layer : fc8
I0331 13:22:03.404121  6102 layer_factory.hpp:114] Creating layer fc8
I0331 13:22:03.404305  6102 net.cpp:169] Creating Layer fc8
I0331 13:22:03.404352  6102 net.cpp:606] fc8 <- fc7
I0331 13:22:03.404405  6102 net.cpp:579] fc8 -> fc8
I0331 13:22:03.404438  6102 net.cpp:582] From AppendTop @cpu: 2
I0331 13:22:03.655369  6102 net.cpp:219] Setting up fc8
I0331 13:22:03.655488  6102 net.cpp:226] Top shape: 64 1000 (64000)
I0331 13:22:03.655522  6102 net.cpp:234] Memory required for data: 532431872
I0331 13:22:03.655601  6102 net.cpp:154] Setting up Layer of device :0 @cpu 2 Layer : loss
I0331 13:22:03.655635  6102 layer_factory.hpp:114] Creating layer loss
I0331 13:22:03.655706  6102 net.cpp:169] Creating Layer loss
I0331 13:22:03.655745  6102 net.cpp:606] loss <- fc8
I0331 13:22:03.655827  6102 net.cpp:606] loss <- label
…
I0331 13:22:03.673295  6102 net.cpp:493] The NetState phase (1) differed from the phase (0) specified by a rule in layer data
I0331 13:22:03.677037  6102 net.cpp:125] Initializing net from parameters: 
name: "AlexNet"
state {
  phase: TEST
}
layer {
  name: "data"
  type: "Data"
  top: "data"
  top: "label"
  include {
    phase: TEST
  }
  transform_param {
    mirror: false
    crop_size: 227
    mean_file: "/people/usr/CN/caffe/caffe/data/ilsvrc12/imagenet_mean.binaryproto"
  }
  data_param {
    source: "/people/usr/CN/caffe/caffe/examples/imagenet/ilsvrc12_val_lmdb"
    batch_size: 50
    backend: LMDB
  }
}
layer {
  name: "label_data_1_split"
  type: "Split"
  bottom: "label"
  top: "label_data_1_split_0"
  top: "label_data_1_split_1"
}
layer {
  name: "conv1"
  type: "Convolution"
  bottom: "data"
  top: "conv1"
  param {
    lr_mult: 1
    decay_mult: 1
  }
  param {
    lr_mult: 2
    decay_mult: 0
  }
  convolution_param {
    num_output: 96
    kernel_size: 11
    stride: 4
    weight_filler {
      type: "gaussian"
      std: 0.01
    }
    bias_filler {
      type: "constant"
      value: 0
    }
  }
}
layer {
  name: "relu1"
  type: "ReLU"
  bottom: "conv1"
  top: "conv1"
}
layer {
  name: "norm1"
  type: "LRN"
  bottom: "conv1"
  top: "norm1"
  lrn_param {
    local_size: 5
    alpha: 0.0001
    beta: 0.75
  }
}
layer {
  name: "pool1"
  type: "Pooling"
  bottom: "norm1"
  top: "pool1"
  pooling_param {
    pool: MAX
    kernel_size: 3
    stride: 2
  }
}
layer {
  name: "conv2"
  type: "Convolution"
  bottom: "pool1"
  top: "conv2"
  param {
    lr_mult: 1
    decay_mult: 1
  }
  param {
    lr_mult: 2
    decay_mult: 0
  }
  convolution_param {
    num_output: 256
    pad: 2
    kernel_size: 5
    group: 2
    weight_filler {
      type: "gaussian"
      std: 0.01
    }
    bias_filler {
      type: "constant"
      value: 0.1
    }
  }
}
layer {
  name: "relu2"
  type: "ReLU"
  bottom: "conv2"
  top: "conv2"
}
layer {
  name: "norm2"
  type: "LRN"
  bottom: "conv2"
  top: "norm2"
  lrn_param {
    local_size: 5
    alpha: 0.0001
    beta: 0.75
  }
}
layer {
  name: "pool2"
  type: "Pooling"
  bottom: "norm2"
  top: "pool2"
  pooling_param {
    pool: MAX
    kernel_size: 3
    stride: 2
  }
}
layer {
  name: "conv3"
  type: "Convolution"
  bottom: "pool2"
  top: "conv3"
  param {
    lr_mult: 1
    decay_mult: 1
  }
  param {
    lr_mult: 2
    decay_mult: 0
  }
  convolution_param {
    num_output: 384
    pad: 1
    kernel_size: 3
    weight_filler {
      type: "gaussian"
      std: 0.01
    }
    bias_filler {
      type: "constant"
      value: 0
    }
  }
}
layer {
  name: "relu3"
  type: "ReLU"
  bottom: "conv3"
  top: "conv3"
}
layer {
  name: "conv4"
  type: "Convolution"
  bottom: "conv3"
  top: "conv4"
  param {
    lr_mult: 1
    decay_mult: 1
  }
  param {
    lr_mult: 2
    decay_mult: 0
  }
  convolution_param {
    num_output: 384
    pad: 1
    kernel_size: 3
    group: 2
    weight_filler {
      type: "gaussian"
      std: 0.01
    }
    bias_filler {
      type: "constant"
      value: 0.1
    }
  }
}
layer {
  name: "relu4"
  type: "ReLU"
  bottom: "conv4"
  top: "conv4"
}
layer {
  name: "conv5"
  type: "Convolution"
  bottom: "conv4"
  top: "conv5"
  param {
    lr_mult: 1
    decay_mult: 1
  }
  param {
    lr_mult: 2
    decay_mult: 0
  }
  convolution_param {
    num_output: 256
    pad: 1
    kernel_size: 3
    group: 2
    weight_filler {
      type: "gaussian"
      std: 0.01
    }
    bias_filler {
      type: "constant"
      value: 0.1
    }
  }
}
layer {
  name: "relu5"
  type: "ReLU"
  bottom: "conv5"
  top: "conv5"
}
layer {
  name: "pool5"
  type: "Pooling"
  bottom: "conv5"
  top: "pool5"
  pooling_param {
    pool: MAX
    kernel_size: 3
    stride: 2
  }
}
layer {
  name: "fc6"
  type: "InnerProduct"
  bottom: "pool5"
  top: "fc6"
  param {
    lr_mult: 1
    decay_mult: 1
  }
  param {
    lr_mult: 2
    decay_mult: 0
  }
  inner_product_param {
    num_output: 4096
    weight_filler {
      type: "gaussian"
      std: 0.005
    }
    bias_filler {
      type: "constant"
      value: 0.1
    }
  }
}
layer {
  name: "relu6"
  type: "ReLU"
  bottom: "fc6"
  top: "fc6"
}
layer {
  name: "drop6"
  type: "Dropout"
  bottom: "fc6"
  top: "fc6"
  dropout_param {
    dropout_ratio: 0.5
  }
}
layer {
  name: "fc7"
  type: "InnerProduct"
  bottom: "fc6"
  top: "fc7"
  param {
    lr_mult: 1
    decay_mult: 1
  }
  param {
    lr_mult: 2
    decay_mult: 0
  }
  inner_product_param {
    num_output: 4096
    weight_filler {
      type: "gaussian"
      std: 0.005
    }
    bias_filler {
      type: "constant"
      value: 0.1
    }
  }
}
layer {
  name: "relu7"
  type: "ReLU"
  bottom: "fc7"
  top: "fc7"
}
layer {
  name: "drop7"
  type: "Dropout"
  bottom: "fc7"
  top: "fc7"
  dropout_param {
    dropout_ratio: 0.5
  }
}
layer {
  name: "fc8"
  type: "InnerProduct"
  bottom: "fc7"
  top: "fc8"
  param {
    lr_mult: 1
    decay_mult: 1
  }
  param {
    lr_mult: 2
    decay_mult: 0
  }
  inner_product_param {
    num_output: 1000
    weight_filler {
      type: "gaussian"
      std: 0.01
    }
    bias_filler {
      type: "constant"
      value: 0
    }
  }
}
layer {
  name: "fc8_fc8_0_split"
  type: "Split"
  bottom: "fc8"
  top: "fc8_fc8_0_split_0"
  top: "fc8_fc8_0_split_1"
}
layer {
  name: "accuracy"
  type: "Accuracy"
  bottom: "fc8_fc8_0_split_0"
  bottom: "label_data_1_split_0"
  top: "accuracy"
  include {
    phase: TEST
  }
}
layer {
  name: "loss"
  type: "SoftmaxWithLoss"
  bottom: "fc8_fc8_0_split_1"
  bottom: "label_data_1_split_1"
  top: "loss"
}
I0331 13:22:03.677292  6102 net.cpp:154] Setting up Layer of device :0 @cpu 0 Layer : data
I0331 13:22:03.677333  6102 layer_factory.hpp:114] Creating layer data
I0331 13:22:03.678195  6102 net.cpp:169] Creating Layer data
I0331 13:22:03.678319  6102 net.cpp:579] data -> data
I0331 13:22:03.678354  6102 net.cpp:582] From AppendTop @cpu: 0
I0331 13:22:03.678424  6102 net.cpp:579] data -> label
I0331 13:22:03.678457  6102 net.cpp:582] From AppendTop @cpu: 0
I0331 13:22:03.678510  6102 data_transformer.cpp:62] Loading mean file from: /people/usr/CN/caffe/caffe/data/ilsvrc12/imagenet_mean.binaryproto
I0331 13:22:03.696547  6119 db_lmdb.cpp:72] Opened lmdb /people/usr/CN/caffe/caffe/examples/imagenet/ilsvrc12_val_lmdb
I0331 13:22:03.697664  6119 virtDev_device.cpp:369] found a CPU core 12 for Data Reader on device 0 thread ID 139851852674816
I0331 13:22:03.697724  6119 data_reader.cpp:128] inside DATAREADER 1
I0331 13:22:03.697791  6119 data_reader.cpp:139] NUMA DOMAIN 0
I0331 13:22:03.699223  6102 data_layer.cpp:80] output data size: 50,3,227,227
I0331 13:22:03.763610  6102 base_data_layer.cpp:96] Done cpu data
I0331 13:22:03.763715  6102 net.cpp:219] Setting up data
I0331 13:22:03.763800  6102 net.cpp:226] Top shape: 50 3 227 227 (7729350)
I0331 13:22:03.763844  6102 net.cpp:226] Top shape: 50 (50)
I0331 13:22:03.763876  6102 net.cpp:234] Memory required for data: 30917600
I0331 13:22:03.763936  6102 net.cpp:154] Setting up Layer of device :0 @cpu 12 Layer : label_data_1_split
I0331 13:22:03.763970  6102 layer_factory.hpp:114] Creating layer label_data_1_split
I0331 13:22:03.764029  6102 net.cpp:169] Creating Layer label_data_1_split
I0331 13:22:03.764065  6102 net.cpp:606] label_data_1_split <- label
I0331 13:22:03.764109  6102 net.cpp:579] label_data_1_split -> label_data_1_split_0
I0331 13:22:03.764142  6102 net.cpp:582] From AppendTop @cpu: 12
I0331 13:22:03.764194  6102 net.cpp:579] label_data_1_split -> label_data_1_split_1
I0331 13:22:03.764226  6102 net.cpp:582] From AppendTop @cpu: 12
I0331 13:22:03.764293  6102 net.cpp:219] Setting up label_data_1_split
I0331 13:22:03.764335  6102 net.cpp:226] Top shape: 50 (50)
I0331 13:22:03.764375  6102 net.cpp:226] Top shape: 50 (50)
I0331 13:22:03.764405  6102 net.cpp:234] Memory required for data: 30918000
I0331 13:22:03.764446  6102 net.cpp:154] Setting up Layer of device :0 @cpu 12 Layer : conv1
I0331 13:22:03.764480  6102 layer_factory.hpp:114] Creating layer conv1
I0331 13:22:03.764539  6102 net.cpp:169] Creating Layer conv1
I0331 13:22:03.764571  6102 net.cpp:606] conv1 <- data
I0331 13:22:03.764616  6102 net.cpp:579] conv1 -> conv1
I0331 13:22:03.764647  6102 net.cpp:582] From AppendTop @cpu: 12
I0331 13:22:03.827932  6102 net.cpp:219] Setting up conv1
I0331 13:22:03.828197  6102 net.cpp:226] Top shape: 50 96 55 55 (14520000)
I0331 13:22:03.828279  6102 net.cpp:234] Memory required for data: 88998000
I0331 13:22:03.828420  6102 net.cpp:154] Setting up Layer of device :0 @cpu 1 Layer : relu1
I0331 13:22:03.828506  6102 layer_factory.hpp:114] Creating layer relu1
I0331 13:22:03.828580  6102 net.cpp:169] Creating Layer relu1
I0331 13:22:03.828635  6102 net.cpp:606] relu1 <- conv1
I0331 13:22:03.828702  6102 net.cpp:566] relu1 -> conv1 (in-place)
I0331 13:22:03.828835  6102 net.cpp:219] Setting up relu1
I0331 13:22:03.828929  6102 net.cpp:226] Top shape: 50 96 55 55 (14520000)
I0331 13:22:03.828979  6102 net.cpp:234] Memory required for data: 147078000
I0331 13:22:03.829077  6102 net.cpp:154] Setting up Layer of device :0 @cpu 1 Layer : norm1
I0331 13:22:03.829139  6102 layer_factory.hpp:114] Creating layer norm1
I0331 13:22:03.829215  6102 net.cpp:169] Creating Layer norm1
I0331 13:22:03.829267  6102 net.cpp:606] norm1 <- conv1
I0331 13:22:03.829325  6102 net.cpp:579] norm1 -> norm1
I0331 13:22:03.829365  6102 net.cpp:582] From AppendTop @cpu: 1
I0331 13:22:03.829443  6102 net.cpp:219] Setting up norm1
I0331 13:22:03.829520  6102 net.cpp:226] Top shape: 50 96 55 55 (14520000)
I0331 13:22:03.829566  6102 net.cpp:234] Memory required for data: 205158000
I0331 13:22:03.829632  6102 net.cpp:154] Setting up Layer of device :0 @cpu 1 Layer : pool1
I0331 13:22:03.829676  6102 layer_factory.hpp:114] Creating layer pool1
I0331 13:22:03.830432  6102 net.cpp:169] Creating Layer pool1
I0331 13:22:03.830525  6102 net.cpp:606] pool1 <- norm1
I0331 13:22:03.830593  6102 net.cpp:579] pool1 -> pool1
I0331 13:22:03.830632  6102 net.cpp:582] From AppendTop @cpu: 1
I0331 13:22:03.830719  6102 net.cpp:219] Setting up pool1
I0331 13:22:03.830834  6102 net.cpp:226] Top shape: 50 96 27 27 (3499200)
I0331 13:22:03.830888  6102 net.cpp:234] Memory required for data: 219154800
I0331 13:22:03.830947  6102 net.cpp:154] Setting up Layer of device :0 @cpu 1 Layer : conv2
I0331 13:22:03.830983  6102 layer_factory.hpp:114] Creating layer conv2
I0331 13:22:03.831059  6102 net.cpp:169] Creating Layer conv2
I0331 13:22:03.831104  6102 net.cpp:606] conv2 <- pool1
I0331 13:22:03.831163  6102 net.cpp:579] conv2 -> conv2
I0331 13:22:03.831202  6102 net.cpp:582] From AppendTop @cpu: 1
I0331 13:22:03.909677  6102 net.cpp:219] Setting up conv2
I0331 13:22:03.909857  6102 net.cpp:226] Top shape: 50 256 27 27 (9331200)
I0331 13:22:03.909914  6102 net.cpp:234] Memory required for data: 256479600
I0331 13:22:03.910027  6102 net.cpp:154] Setting up Layer of device :0 @cpu 1 Layer : relu2
I0331 13:22:03.910084  6102 layer_factory.hpp:114] Creating layer relu2
I0331 13:22:03.910150  6102 net.cpp:169] Creating Layer relu2
I0331 13:22:03.910193  6102 net.cpp:606] relu2 <- conv2
I0331 13:22:03.910245  6102 net.cpp:566] relu2 -> conv2 (in-place)
I0331 13:22:03.910308  6102 net.cpp:219] Setting up relu2
I0331 13:22:03.910359  6102 net.cpp:226] Top shape: 50 256 27 27 (9331200)
I0331 13:22:03.910395  6102 net.cpp:234] Memory required for data: 293804400
I0331 13:22:03.910444  6102 net.cpp:154] Setting up Layer of device :0 @cpu 1 Layer : norm2
I0331 13:22:03.910478  6102 layer_factory.hpp:114] Creating layer norm2
I0331 13:22:03.910534  6102 net.cpp:169] Creating Layer norm2
I0331 13:22:03.910570  6102 net.cpp:606] norm2 <- conv2
I0331 13:22:03.910619  6102 net.cpp:579] norm2 -> norm2
I0331 13:22:03.910652  6102 net.cpp:582] From AppendTop @cpu: 1
I0331 13:22:03.910722  6102 net.cpp:219] Setting up norm2
I0331 13:22:03.910820  6102 net.cpp:226] Top shape: 50 256 27 27 (9331200)
I0331 13:22:03.910862  6102 net.cpp:234] Memory required for data: 331129200
I0331 13:22:03.910909  6102 net.cpp:154] Setting up Layer of device :0 @cpu 1 Layer : pool2
I0331 13:22:03.910943  6102 layer_factory.hpp:114] Creating layer pool2
I0331 13:22:03.911063  6102 net.cpp:169] Creating Layer pool2
I0331 13:22:03.911113  6102 net.cpp:606] pool2 <- norm2
I0331 13:22:03.911167  6102 net.cpp:579] pool2 -> pool2
I0331 13:22:03.911200  6102 net.cpp:582] From AppendTop @cpu: 1
I0331 13:22:03.911404  6102 net.cpp:219] Setting up pool2
I0331 13:22:03.911473  6102 net.cpp:226] Top shape: 50 256 13 13 (2163200)
I0331 13:22:03.911507  6102 net.cpp:234] Memory required for data: 339782000
I0331 13:22:03.911557  6102 net.cpp:154] Setting up Layer of device :0 @cpu 1 Layer : conv3
I0331 13:22:03.911592  6102 layer_factory.hpp:114] Creating layer conv3
I0331 13:22:03.911659  6102 net.cpp:169] Creating Layer conv3
I0331 13:22:03.911695  6102 net.cpp:606] conv3 <- pool2
I0331 13:22:03.911747  6102 net.cpp:579] conv3 -> conv3
I0331 13:22:03.911820  6102 net.cpp:582] From AppendTop @cpu: 1
I0331 13:22:03.999550  6102 net.cpp:219] Setting up conv3
I0331 13:22:03.999716  6102 net.cpp:226] Top shape: 50 384 13 13 (3244800)
I0331 13:22:03.999825  6102 net.cpp:234] Memory required for data: 352761200
I0331 13:22:03.999950  6102 net.cpp:154] Setting up Layer of device :0 @cpu 1 Layer : relu3
I0331 13:22:04.000002  6102 layer_factory.hpp:114] Creating layer relu3
I0331 13:22:04.000067  6102 net.cpp:169] Creating Layer relu3
I0331 13:22:04.000111  6102 net.cpp:606] relu3 <- conv3
I0331 13:22:04.000164  6102 net.cpp:566] relu3 -> conv3 (in-place)
I0331 13:22:04.000224  6102 net.cpp:219] Setting up relu3
I0331 13:22:04.000279  6102 net.cpp:226] Top shape: 50 384 13 13 (3244800)
I0331 13:22:04.000314  6102 net.cpp:234] Memory required for data: 365740400
I0331 13:22:04.000362  6102 net.cpp:154] Setting up Layer of device :0 @cpu 1 Layer : conv4
I0331 13:22:04.000396  6102 layer_factory.hpp:114] Creating layer conv4
I0331 13:22:04.000459  6102 net.cpp:169] Creating Layer conv4
I0331 13:22:04.000496  6102 net.cpp:606] conv4 <- conv3
I0331 13:22:04.000547  6102 net.cpp:579] conv4 -> conv4
I0331 13:22:04.000581  6102 net.cpp:582] From AppendTop @cpu: 1
I0331 13:22:04.071302  6102 net.cpp:219] Setting up conv4
I0331 13:22:04.071435  6102 net.cpp:226] Top shape: 50 384 13 13 (3244800)
I0331 13:22:04.071477  6102 net.cpp:234] Memory required for data: 378719600
I0331 13:22:04.071568  6102 net.cpp:154] Setting up Layer of device :0 @cpu 1 Layer : relu4
I0331 13:22:04.071614  6102 layer_factory.hpp:114] Creating layer relu4
I0331 13:22:04.071671  6102 net.cpp:169] Creating Layer relu4
I0331 13:22:04.071713  6102 net.cpp:606] relu4 <- conv4
I0331 13:22:04.071804  6102 net.cpp:566] relu4 -> conv4 (in-place)
I0331 13:22:04.071877  6102 net.cpp:219] Setting up relu4
I0331 13:22:04.071930  6102 net.cpp:226] Top shape: 50 384 13 13 (3244800)
I0331 13:22:04.071964  6102 net.cpp:234] Memory required for data: 391698800
I0331 13:22:04.072011  6102 net.cpp:154] Setting up Layer of device :0 @cpu 1 Layer : conv5
I0331 13:22:04.072046  6102 layer_factory.hpp:114] Creating layer conv5
I0331 13:22:04.072111  6102 net.cpp:169] Creating Layer conv5
I0331 13:22:04.072151  6102 net.cpp:606] conv5 <- conv4
I0331 13:22:04.072201  6102 net.cpp:579] conv5 -> conv5
I0331 13:22:04.072235  6102 net.cpp:582] From AppendTop @cpu: 1
I0331 13:22:04.125475  6102 net.cpp:219] Setting up conv5
I0331 13:22:04.125608  6102 net.cpp:226] Top shape: 50 256 13 13 (2163200)
I0331 13:22:04.125655  6102 net.cpp:234] Memory required for data: 400351600
I0331 13:22:04.125818  6102 net.cpp:154] Setting up Layer of device :0 @cpu 1 Layer : relu5
I0331 13:22:04.125903  6102 layer_factory.hpp:114] Creating layer relu5
I0331 13:22:04.125970  6102 net.cpp:169] Creating Layer relu5
I0331 13:22:04.126015  6102 net.cpp:606] relu5 <- conv5
I0331 13:22:04.126068  6102 net.cpp:566] relu5 -> conv5 (in-place)
I0331 13:22:04.126130  6102 net.cpp:219] Setting up relu5
I0331 13:22:04.126184  6102 net.cpp:226] Top shape: 50 256 13 13 (2163200)
I0331 13:22:04.126217  6102 net.cpp:234] Memory required for data: 409004400
I0331 13:22:04.126266  6102 net.cpp:154] Setting up Layer of device :0 @cpu 1 Layer : pool5
I0331 13:22:04.126301  6102 layer_factory.hpp:114] Creating layer pool5
I0331 13:22:04.126427  6102 net.cpp:169] Creating Layer pool5
I0331 13:22:04.126483  6102 net.cpp:606] pool5 <- conv5
I0331 13:22:04.126538  6102 net.cpp:579] pool5 -> pool5
I0331 13:22:04.126711  6102 net.cpp:582] From AppendTop @cpu: 1
I0331 13:22:04.126858  6102 net.cpp:219] Setting up pool5
I0331 13:22:04.126934  6102 net.cpp:226] Top shape: 50 256 6 6 (460800)
I0331 13:22:04.126968  6102 net.cpp:234] Memory required for data: 410847600
I0331 13:22:04.127018  6102 net.cpp:154] Setting up Layer of device :0 @cpu 1 Layer : fc6
I0331 13:22:04.127054  6102 layer_factory.hpp:114] Creating layer fc6
I0331 13:22:04.127122  6102 net.cpp:169] Creating Layer fc6
I0331 13:22:04.127161  6102 net.cpp:606] fc6 <- pool5
I0331 13:22:04.127216  6102 net.cpp:579] fc6 -> fc6
I0331 13:22:04.127250  6102 net.cpp:582] From AppendTop @cpu: 1
I0331 13:22:06.438973  6102 net.cpp:219] Setting up fc6
I0331 13:22:06.439116  6102 net.cpp:226] Top shape: 50 4096 (204800)
I0331 13:22:06.439149  6102 net.cpp:234] Memory required for data: 411666800
I0331 13:22:06.439223  6102 net.cpp:154] Setting up Layer of device :0 @cpu 32 Layer : relu6
I0331 13:22:06.439254  6102 layer_factory.hpp:114] Creating layer relu6
I0331 13:22:06.439302  6102 net.cpp:169] Creating Layer relu6
I0331 13:22:06.439337  6102 net.cpp:606] relu6 <- fc6
I0331 13:22:06.439383  6102 net.cpp:566] relu6 -> fc6 (in-place)
I0331 13:22:06.439431  6102 net.cpp:219] Setting up relu6
I0331 13:22:06.439471  6102 net.cpp:226] Top shape: 50 4096 (204800)
I0331 13:22:06.439502  6102 net.cpp:234] Memory required for data: 412486000
I0331 13:22:06.439540  6102 net.cpp:154] Setting up Layer of device :0 @cpu 32 Layer : drop6
I0331 13:22:06.439573  6102 layer_factory.hpp:114] Creating layer drop6
I0331 13:22:06.439613  6102 net.cpp:169] Creating Layer drop6
I0331 13:22:06.439646  6102 net.cpp:606] drop6 <- fc6
I0331 13:22:06.439687  6102 net.cpp:566] drop6 -> fc6 (in-place)
I0331 13:22:06.439733  6102 net.cpp:219] Setting up drop6
I0331 13:22:06.439810  6102 net.cpp:226] Top shape: 50 4096 (204800)
I0331 13:22:06.439841  6102 net.cpp:234] Memory required for data: 413305200
I0331 13:22:06.439879  6102 net.cpp:154] Setting up Layer of device :0 @cpu 32 Layer : fc7
I0331 13:22:06.439910  6102 layer_factory.hpp:114] Creating layer fc7
I0331 13:22:06.439960  6102 net.cpp:169] Creating Layer fc7
I0331 13:22:06.439992  6102 net.cpp:606] fc7 <- fc6
I0331 13:22:06.440035  6102 net.cpp:579] fc7 -> fc7
I0331 13:22:06.440066  6102 net.cpp:582] From AppendTop @cpu: 32
I0331 13:22:07.463263  6102 net.cpp:219] Setting up fc7
I0331 13:22:07.463384  6102 net.cpp:226] Top shape: 50 4096 (204800)
I0331 13:22:07.463416  6102 net.cpp:234] Memory required for data: 414124400
I0331 13:22:07.463492  6102 net.cpp:154] Setting up Layer of device :0 @cpu 32 Layer : relu7
I0331 13:22:07.463526  6102 layer_factory.hpp:114] Creating layer relu7
I0331 13:22:07.463579  6102 net.cpp:169] Creating Layer relu7
I0331 13:22:07.463615  6102 net.cpp:606] relu7 <- fc7
I0331 13:22:07.463661  6102 net.cpp:566] relu7 -> fc7 (in-place)
I0331 13:22:07.463712  6102 net.cpp:219] Setting up relu7
I0331 13:22:07.463752  6102 net.cpp:226] Top shape: 50 4096 (204800)
I0331 13:22:07.463829  6102 net.cpp:234] Memory required for data: 414943600
I0331 13:22:07.463867  6102 net.cpp:154] Setting up Layer of device :0 @cpu 32 Layer : drop7
I0331 13:22:07.463899  6102 layer_factory.hpp:114] Creating layer drop7
I0331 13:22:07.463943  6102 net.cpp:169] Creating Layer drop7
I0331 13:22:07.463975  6102 net.cpp:606] drop7 <- fc7
I0331 13:22:07.464016  6102 net.cpp:566] drop7 -> fc7 (in-place)
I0331 13:22:07.464064  6102 net.cpp:219] Setting up drop7
I0331 13:22:07.464103  6102 net.cpp:226] Top shape: 50 4096 (204800)
I0331 13:22:07.464133  6102 net.cpp:234] Memory required for data: 415762800
I0331 13:22:07.464171  6102 net.cpp:154] Setting up Layer of device :0 @cpu 32 Layer : fc8
I0331 13:22:07.464202  6102 layer_factory.hpp:114] Creating layer fc8
I0331 13:22:07.464253  6102 net.cpp:169] Creating Layer fc8
I0331 13:22:07.464287  6102 net.cpp:606] fc8 <- fc7
I0331 13:22:07.464329  6102 net.cpp:579] fc8 -> fc8
I0331 13:22:07.464360  6102 net.cpp:582] From AppendTop @cpu: 32
I0331 13:22:07.714644  6102 net.cpp:219] Setting up fc8
I0331 13:22:07.714920  6102 net.cpp:226] Top shape: 50 1000 (50000)
I0331 13:22:07.714957  6102 net.cpp:234] Memory required for data: 415962800
I0331 13:22:07.715036  6102 net.cpp:154] Setting up Layer of device :0 @cpu 32 Layer : fc8_fc8_0_split
I0331 13:22:07.715070  6102 layer_factory.hpp:114] Creating layer fc8_fc8_0_split
I0331 13:22:07.715121  6102 net.cpp:169] Creating Layer fc8_fc8_0_split
I0331 13:22:07.715158  6102 net.cpp:606] fc8_fc8_0_split <- fc8
I0331 13:22:07.715205  6102 net.cpp:579] fc8_fc8_0_split -> fc8_fc8_0_split_0
I0331 13:22:07.715237  6102 net.cpp:582] From AppendTop @cpu: 32
I0331 13:22:07.715291  6102 net.cpp:579] fc8_fc8_0_split -> fc8_fc8_0_split_1
I0331 13:22:07.715337  6102 net.cpp:582] From AppendTop @cpu: 32
I0331 13:22:07.715387  6102 net.cpp:219] Setting up fc8_fc8_0_split
I0331 13:22:07.715428  6102 net.cpp:226] Top shape: 50 1000 (50000)
I0331 13:22:07.715467  6102 net.cpp:226] Top shape: 50 1000 (50000)
I0331 13:22:07.715498  6102 net.cpp:234] Memory required for data: 416362800
I0331 13:22:07.715538  6102 net.cpp:154] Setting up Layer of device :0 @cpu 32 Layer : accuracy
I0331 13:22:07.715569  6102 layer_factory.hpp:114] Creating layer accuracy
I0331 13:22:07.715627  6102 net.cpp:169] Creating Layer accuracy
I0331 13:22:07.715661  6102 net.cpp:606] accuracy <- fc8_fc8_0_split_0
I0331 13:22:07.715698  6102 net.cpp:606] accuracy <- label_data_1_split_0
…
