…
I0328 14:42:47.915222 162117 net.cpp:322] The NetState phase (0) differed from the phase (1) specified by a rule in layer accuracy
I0328 14:42:47.915544 162117 net.cpp:58] Initializing net from parameters: 
name: "CIFAR10_full"
state {
  phase: TRAIN
  level: 0
  stage: ""
}
layer {
  name: "cifar"
  type: "Data"
  top: "data"
  top: "label"
  include {
    phase: TRAIN
  }
  transform_param {
    mean_file: "examples/cifar10/mean.binaryproto"
  }
  data_param {
    source: "examples/cifar10/cifar10_train_lmdb"
    batch_size: 112
    backend: LMDB
  }
}
layer {
  name: "conv1"
  type: "Convolution"
  bottom: "data"
  top: "conv1"
  param {
    lr_mult: 1
  }
  param {
    lr_mult: 2
  }
  convolution_param {
    num_output: 32
    pad: 2
    kernel_size: 5
    stride: 1
    weight_filler {
      type: "gaussian"
      std: 0.0001
    }
    bias_filler {
      type: "constant"
    }
  }
}
layer {
  name: "pool1"
  type: "Pooling"
  bottom: "conv1"
  top: "pool1"
  pooling_param {
    pool: MAX
    kernel_size: 3
    stride: 2
  }
}
layer {
  name: "relu1"
  type: "ReLU"
  bottom: "pool1"
  top: "pool1"
}
layer {
  name: "norm1"
  type: "LRN"
  bottom: "pool1"
  top: "norm1"
  lrn_param {
    local_size: 3
    alpha: 5e-05
    beta: 0.75
    norm_region: WITHIN_CHANNEL
  }
}
layer {
  name: "conv2"
  type: "Convolution"
  bottom: "norm1"
  top: "conv2"
  param {
    lr_mult: 1
  }
  param {
    lr_mult: 2
  }
  convolution_param {
    num_output: 32
    pad: 2
    kernel_size: 5
    stride: 1
    weight_filler {
      type: "gaussian"
      std: 0.01
    }
    bias_filler {
      type: "constant"
    }
  }
}
layer {
  name: "relu2"
  type: "ReLU"
  bottom: "conv2"
  top: "conv2"
}
layer {
  name: "pool2"
  type: "Pooling"
  bottom: "conv2"
  top: "pool2"
  pooling_param {
    pool: AVE
    kernel_size: 3
    stride: 2
  }
}
layer {
  name: "norm2"
  type: "LRN"
  bottom: "pool2"
  top: "norm2"
  lrn_param {
    local_size: 3
    alpha: 5e-05
    beta: 0.75
    norm_region: WITHIN_CHANNEL
  }
}
layer {
  name: "conv3"
  type: "Convolution"
  bottom: "norm2"
  top: "conv3"
  convolution_param {
    num_output: 64
    pad: 2
    kernel_size: 5
    stride: 1
    weight_filler {
      type: "gaussian"
      std: 0.01
    }
    bias_filler {
      type: "constant"
    }
  }
}
layer {
  name: "relu3"
  type: "ReLU"
  bottom: "conv3"
  top: "conv3"
}
layer {
  name: "pool3"
  type: "Pooling"
  bottom: "conv3"
  top: "pool3"
  pooling_param {
    pool: AVE
    kernel_size: 3
    stride: 2
  }
}
layer {
  name: "ip1"
  type: "InnerProduct"
  bottom: "pool3"
  top: "ip1"
  param {
    lr_mult: 1
    decay_mult: 250
  }
  param {
    lr_mult: 2
    decay_mult: 0
  }
  inner_product_param {
    num_output: 10
    weight_filler {
      type: "gaussian"
      std: 0.01
    }
    bias_filler {
      type: "constant"
    }
  }
}
layer {
  name: "loss"
  type: "SoftmaxWithLoss"
  bottom: "ip1"
  bottom: "label"
  top: "loss"
}
I0328 14:42:47.916126 162117 layer_factory.hpp:77] Creating layer cifar
I0328 14:42:47.917294 162117 net.cpp:100] Creating Layer cifar
I0328 14:42:47.917341 162117 net.cpp:408] cifar -> data
I0328 14:42:47.917498 162117 net.cpp:408] cifar -> label
I0328 14:42:47.917554 162117 data_transformer.cpp:25] Loading mean file from: examples/cifar10/mean.binaryproto
I0328 14:42:47.917606 162118 db_lmdb.cpp:35] Opened lmdb examples/cifar10/cifar10_train_lmdb
I0328 14:42:47.917922 162117 data_layer.cpp:41] output data size: 112,3,32,32
I0328 14:42:47.924635 162117 net.cpp:150] Setting up cifar
I0328 14:42:47.924681 162117 net.cpp:157] Top shape: 112 3 32 32 (344064)
I0328 14:42:47.924693 162117 net.cpp:157] Top shape: 112 (112)
I0328 14:42:47.924697 162117 net.cpp:165] Memory required for data: 1376704
I0328 14:42:47.924721 162117 layer_factory.hpp:77] Creating layer conv1
I0328 14:42:47.924774 162117 net.cpp:100] Creating Layer conv1
I0328 14:42:47.924795 162117 net.cpp:434] conv1 <- data
I0328 14:42:47.924840 162117 net.cpp:408] conv1 -> conv1
I0328 14:42:47.925647 162117 net.cpp:150] Setting up conv1
I0328 14:42:47.925669 162117 net.cpp:157] Top shape: 112 32 32 32 (3670016)
I0328 14:42:47.925674 162117 net.cpp:165] Memory required for data: 16056768
I0328 14:42:47.925736 162117 layer_factory.hpp:77] Creating layer pool1
I0328 14:42:47.925771 162117 net.cpp:100] Creating Layer pool1
I0328 14:42:47.925781 162117 net.cpp:434] pool1 <- conv1
I0328 14:42:47.925801 162117 net.cpp:408] pool1 -> pool1
I0328 14:42:47.925850 162117 net.cpp:150] Setting up pool1
I0328 14:42:47.925864 162117 net.cpp:157] Top shape: 112 32 16 16 (917504)
I0328 14:42:47.925869 162117 net.cpp:165] Memory required for data: 19726784
I0328 14:42:47.925876 162117 layer_factory.hpp:77] Creating layer relu1
I0328 14:42:47.925899 162117 net.cpp:100] Creating Layer relu1
I0328 14:42:47.925907 162117 net.cpp:434] relu1 <- pool1
I0328 14:42:47.925925 162117 net.cpp:395] relu1 -> pool1 (in-place)
I0328 14:42:47.925941 162117 net.cpp:150] Setting up relu1
I0328 14:42:47.925950 162117 net.cpp:157] Top shape: 112 32 16 16 (917504)
I0328 14:42:47.925954 162117 net.cpp:165] Memory required for data: 23396800
I0328 14:42:47.925961 162117 layer_factory.hpp:77] Creating layer norm1
I0328 14:42:47.925992 162117 net.cpp:100] Creating Layer norm1
I0328 14:42:47.926000 162117 net.cpp:434] norm1 <- pool1
I0328 14:42:47.926019 162117 net.cpp:408] norm1 -> norm1
I0328 14:42:47.926193 162117 net.cpp:150] Setting up norm1
I0328 14:42:47.926208 162117 net.cpp:157] Top shape: 112 32 16 16 (917504)
I0328 14:42:47.926213 162117 net.cpp:165] Memory required for data: 27066816
I0328 14:42:47.926220 162117 layer_factory.hpp:77] Creating layer conv2
I0328 14:42:47.926252 162117 net.cpp:100] Creating Layer conv2
I0328 14:42:47.926262 162117 net.cpp:434] conv2 <- norm1
I0328 14:42:47.926290 162117 net.cpp:408] conv2 -> conv2
I0328 14:42:47.932675 162117 net.cpp:150] Setting up conv2
I0328 14:42:47.932695 162117 net.cpp:157] Top shape: 112 32 16 16 (917504)
I0328 14:42:47.932703 162117 net.cpp:165] Memory required for data: 30736832
I0328 14:42:47.932734 162117 layer_factory.hpp:77] Creating layer relu2
I0328 14:42:47.932757 162117 net.cpp:100] Creating Layer relu2
I0328 14:42:47.932766 162117 net.cpp:434] relu2 <- conv2
I0328 14:42:47.932783 162117 net.cpp:395] relu2 -> conv2 (in-place)
I0328 14:42:47.932801 162117 net.cpp:150] Setting up relu2
I0328 14:42:47.932809 162117 net.cpp:157] Top shape: 112 32 16 16 (917504)
I0328 14:42:47.932813 162117 net.cpp:165] Memory required for data: 34406848
I0328 14:42:47.932821 162117 layer_factory.hpp:77] Creating layer pool2
I0328 14:42:47.932847 162117 net.cpp:100] Creating Layer pool2
I0328 14:42:47.932855 162117 net.cpp:434] pool2 <- conv2
I0328 14:42:47.932871 162117 net.cpp:408] pool2 -> pool2
I0328 14:42:47.932900 162117 net.cpp:150] Setting up pool2
I0328 14:42:47.932911 162117 net.cpp:157] Top shape: 112 32 8 8 (229376)
I0328 14:42:47.932915 162117 net.cpp:165] Memory required for data: 35324352
I0328 14:42:47.932922 162117 layer_factory.hpp:77] Creating layer norm2
I0328 14:42:47.932950 162117 net.cpp:100] Creating Layer norm2
I0328 14:42:47.932958 162117 net.cpp:434] norm2 <- pool2
I0328 14:42:47.932982 162117 net.cpp:408] norm2 -> norm2
I0328 14:42:47.933075 162117 net.cpp:150] Setting up norm2
I0328 14:42:47.933089 162117 net.cpp:157] Top shape: 112 32 8 8 (229376)
I0328 14:42:47.933094 162117 net.cpp:165] Memory required for data: 36241856
I0328 14:42:47.933109 162117 layer_factory.hpp:77] Creating layer conv3
I0328 14:42:47.933149 162117 net.cpp:100] Creating Layer conv3
I0328 14:42:47.933158 162117 net.cpp:434] conv3 <- norm2
I0328 14:42:47.933182 162117 net.cpp:408] conv3 -> conv3
I0328 14:42:47.945858 162117 net.cpp:150] Setting up conv3
I0328 14:42:47.945878 162117 net.cpp:157] Top shape: 112 64 8 8 (458752)
I0328 14:42:47.945883 162117 net.cpp:165] Memory required for data: 38076864
I0328 14:42:47.945911 162117 layer_factory.hpp:77] Creating layer relu3
I0328 14:42:47.945932 162117 net.cpp:100] Creating Layer relu3
I0328 14:42:47.945941 162117 net.cpp:434] relu3 <- conv3
I0328 14:42:47.945957 162117 net.cpp:395] relu3 -> conv3 (in-place)
I0328 14:42:47.945976 162117 net.cpp:150] Setting up relu3
I0328 14:42:47.945983 162117 net.cpp:157] Top shape: 112 64 8 8 (458752)
I0328 14:42:47.945987 162117 net.cpp:165] Memory required for data: 39911872
I0328 14:42:47.945993 162117 layer_factory.hpp:77] Creating layer pool3
I0328 14:42:47.946008 162117 net.cpp:100] Creating Layer pool3
I0328 14:42:47.946014 162117 net.cpp:434] pool3 <- conv3
I0328 14:42:47.946029 162117 net.cpp:408] pool3 -> pool3
I0328 14:42:47.946056 162117 net.cpp:150] Setting up pool3
I0328 14:42:47.946066 162117 net.cpp:157] Top shape: 112 64 4 4 (114688)
I0328 14:42:47.946070 162117 net.cpp:165] Memory required for data: 40370624
I0328 14:42:47.946077 162117 layer_factory.hpp:77] Creating layer ip1
I0328 14:42:47.946105 162117 net.cpp:100] Creating Layer ip1
I0328 14:42:47.946113 162117 net.cpp:434] ip1 <- pool3
I0328 14:42:47.946132 162117 net.cpp:408] ip1 -> ip1
I0328 14:42:47.948650 162117 net.cpp:150] Setting up ip1
I0328 14:42:47.948668 162117 net.cpp:157] Top shape: 112 10 (1120)
I0328 14:42:47.948671 162117 net.cpp:165] Memory required for data: 40375104
I0328 14:42:47.948688 162117 layer_factory.hpp:77] Creating layer loss
I0328 14:42:47.948714 162117 net.cpp:100] Creating Layer loss
I0328 14:42:47.948721 162117 net.cpp:434] loss <- ip1
I0328 14:42:47.948736 162117 net.cpp:434] loss <- label
I0328 14:42:47.948755 162117 net.cpp:408] loss -> loss
I0328 14:42:47.948779 162117 layer_factory.hpp:77] Creating layer loss
…
I0328 14:42:47.949781 162117 solver.cpp:181] Creating test net (#0) specified by net file: examples/cifar10/cifar10_full_train_test_bsize112.prototxt
I0328 14:42:47.949869 162117 net.cpp:322] The NetState phase (1) differed from the phase (0) specified by a rule in layer cifar
I0328 14:42:47.950207 162117 net.cpp:58] Initializing net from parameters: 
name: "CIFAR10_full"
state {
  phase: TEST
}
layer {
  name: "cifar"
  type: "Data"
  top: "data"
  top: "label"
  include {
    phase: TEST
  }
  transform_param {
    mean_file: "examples/cifar10/mean.binaryproto"
  }
  data_param {
    source: "examples/cifar10/cifar10_test_lmdb"
    batch_size: 100
    backend: LMDB
  }
}
layer {
  name: "conv1"
  type: "Convolution"
  bottom: "data"
  top: "conv1"
  param {
    lr_mult: 1
  }
  param {
    lr_mult: 2
  }
  convolution_param {
    num_output: 32
    pad: 2
    kernel_size: 5
    stride: 1
    weight_filler {
      type: "gaussian"
      std: 0.0001
    }
    bias_filler {
      type: "constant"
    }
  }
}
layer {
  name: "pool1"
  type: "Pooling"
  bottom: "conv1"
  top: "pool1"
  pooling_param {
    pool: MAX
    kernel_size: 3
    stride: 2
  }
}
layer {
  name: "relu1"
  type: "ReLU"
  bottom: "pool1"
  top: "pool1"
}
layer {
  name: "norm1"
  type: "LRN"
  bottom: "pool1"
  top: "norm1"
  lrn_param {
    local_size: 3
    alpha: 5e-05
    beta: 0.75
    norm_region: WITHIN_CHANNEL
  }
}
layer {
  name: "conv2"
  type: "Convolution"
  bottom: "norm1"
  top: "conv2"
  param {
    lr_mult: 1
  }
  param {
    lr_mult: 2
  }
  convolution_param {
    num_output: 32
    pad: 2
    kernel_size: 5
    stride: 1
    weight_filler {
      type: "gaussian"
      std: 0.01
    }
    bias_filler {
      type: "constant"
    }
  }
}
layer {
  name: "relu2"
  type: "ReLU"
  bottom: "conv2"
  top: "conv2"
}
layer {
  name: "pool2"
  type: "Pooling"
  bottom: "conv2"
  top: "pool2"
  pooling_param {
    pool: AVE
    kernel_size: 3
    stride: 2
  }
}
layer {
  name: "norm2"
  type: "LRN"
  bottom: "pool2"
  top: "norm2"
  lrn_param {
    local_size: 3
    alpha: 5e-05
    beta: 0.75
    norm_region: WITHIN_CHANNEL
  }
}
layer {
  name: "conv3"
  type: "Convolution"
  bottom: "norm2"
  top: "conv3"
  convolution_param {
    num_output: 64
    pad: 2
    kernel_size: 5
    stride: 1
    weight_filler {
      type: "gaussian"
      std: 0.01
    }
    bias_filler {
      type: "constant"
    }
  }
}
layer {
  name: "relu3"
  type: "ReLU"
  bottom: "conv3"
  top: "conv3"
}
layer {
  name: "pool3"
  type: "Pooling"
  bottom: "conv3"
  top: "pool3"
  pooling_param {
    pool: AVE
    kernel_size: 3
    stride: 2
  }
}
layer {
  name: "ip1"
  type: "InnerProduct"
  bottom: "pool3"
  top: "ip1"
  param {
    lr_mult: 1
    decay_mult: 250
  }
  param {
    lr_mult: 2
    decay_mult: 0
  }
  inner_product_param {
    num_output: 10
    weight_filler {
      type: "gaussian"
      std: 0.01
    }
    bias_filler {
      type: "constant"
    }
  }
}
layer {
  name: "accuracy"
  type: "Accuracy"
  bottom: "ip1"
  bottom: "label"
  top: "accuracy"
  include {
    phase: TEST
  }
}
layer {
  name: "loss"
  type: "SoftmaxWithLoss"
  bottom: "ip1"
  bottom: "label"
  top: "loss"
}
I0328 14:42:47.950538 162117 layer_factory.hpp:77] Creating layer cifar
I0328 14:42:47.950806 162117 net.cpp:100] Creating Layer cifar
I0328 14:42:47.950834 162117 net.cpp:408] cifar -> data
I0328 14:42:47.950870 162117 net.cpp:408] cifar -> label
I0328 14:42:47.950891 162120 db_lmdb.cpp:35] Opened lmdb examples/cifar10/cifar10_test_lmdb
I0328 14:42:47.950896 162117 data_transformer.cpp:25] Loading mean file from: examples/cifar10/mean.binaryproto
I0328 14:42:47.951187 162117 data_layer.cpp:41] output data size: 100,3,32,32
I0328 14:42:47.957022 162117 net.cpp:150] Setting up cifar
I0328 14:42:47.957046 162117 net.cpp:157] Top shape: 100 3 32 32 (307200)
I0328 14:42:47.957053 162117 net.cpp:157] Top shape: 100 (100)
I0328 14:42:47.957057 162117 net.cpp:165] Memory required for data: 1229200
I0328 14:42:47.957070 162117 layer_factory.hpp:77] Creating layer label_cifar_1_split
I0328 14:42:47.957095 162117 net.cpp:100] Creating Layer label_cifar_1_split
I0328 14:42:47.957105 162117 net.cpp:434] label_cifar_1_split <- label
I0328 14:42:47.957125 162117 net.cpp:408] label_cifar_1_split -> label_cifar_1_split_0
I0328 14:42:47.957159 162117 net.cpp:408] label_cifar_1_split -> label_cifar_1_split_1
I0328 14:42:47.957185 162117 net.cpp:150] Setting up label_cifar_1_split
I0328 14:42:47.957203 162117 net.cpp:157] Top shape: 100 (100)
I0328 14:42:47.957221 162117 net.cpp:157] Top shape: 100 (100)
I0328 14:42:47.957226 162117 net.cpp:165] Memory required for data: 1230000
I0328 14:42:47.957231 162117 layer_factory.hpp:77] Creating layer conv1
I0328 14:42:47.957262 162117 net.cpp:100] Creating Layer conv1
I0328 14:42:47.957270 162117 net.cpp:434] conv1 <- data
I0328 14:42:47.957293 162117 net.cpp:408] conv1 -> conv1
I0328 14:42:47.957972 162117 net.cpp:150] Setting up conv1
I0328 14:42:47.957990 162117 net.cpp:157] Top shape: 100 32 32 32 (3276800)
I0328 14:42:47.957995 162117 net.cpp:165] Memory required for data: 14337200
I0328 14:42:47.958034 162117 layer_factory.hpp:77] Creating layer pool1
I0328 14:42:47.958056 162117 net.cpp:100] Creating Layer pool1
I0328 14:42:47.958065 162117 net.cpp:434] pool1 <- conv1
I0328 14:42:47.958083 162117 net.cpp:408] pool1 -> pool1
I0328 14:42:47.958118 162117 net.cpp:150] Setting up pool1
I0328 14:42:47.958129 162117 net.cpp:157] Top shape: 100 32 16 16 (819200)
I0328 14:42:47.958134 162117 net.cpp:165] Memory required for data: 17614000
I0328 14:42:47.958140 162117 layer_factory.hpp:77] Creating layer relu1
I0328 14:42:47.958159 162117 net.cpp:100] Creating Layer relu1
I0328 14:42:47.958166 162117 net.cpp:434] relu1 <- pool1
I0328 14:42:47.958187 162117 net.cpp:395] relu1 -> pool1 (in-place)
I0328 14:42:47.958204 162117 net.cpp:150] Setting up relu1
I0328 14:42:47.958211 162117 net.cpp:157] Top shape: 100 32 16 16 (819200)
I0328 14:42:47.958215 162117 net.cpp:165] Memory required for data: 20890800
I0328 14:42:47.958221 162117 layer_factory.hpp:77] Creating layer norm1
I0328 14:42:47.958238 162117 net.cpp:100] Creating Layer norm1
I0328 14:42:47.958245 162117 net.cpp:434] norm1 <- pool1
I0328 14:42:47.958259 162117 net.cpp:408] norm1 -> norm1
I0328 14:42:47.958348 162117 net.cpp:150] Setting up norm1
I0328 14:42:47.958360 162117 net.cpp:157] Top shape: 100 32 16 16 (819200)
I0328 14:42:47.958365 162117 net.cpp:165] Memory required for data: 24167600
I0328 14:42:47.958372 162117 layer_factory.hpp:77] Creating layer conv2
I0328 14:42:47.958401 162117 net.cpp:100] Creating Layer conv2
I0328 14:42:47.958410 162117 net.cpp:434] conv2 <- norm1
I0328 14:42:47.958436 162117 net.cpp:408] conv2 -> conv2
I0328 14:42:47.964740 162117 net.cpp:150] Setting up conv2
I0328 14:42:47.964759 162117 net.cpp:157] Top shape: 100 32 16 16 (819200)
I0328 14:42:47.964763 162117 net.cpp:165] Memory required for data: 27444400
I0328 14:42:47.964792 162117 layer_factory.hpp:77] Creating layer relu2
I0328 14:42:47.964814 162117 net.cpp:100] Creating Layer relu2
I0328 14:42:47.964823 162117 net.cpp:434] relu2 <- conv2
I0328 14:42:47.964841 162117 net.cpp:395] relu2 -> conv2 (in-place)
I0328 14:42:47.964859 162117 net.cpp:150] Setting up relu2
I0328 14:42:47.964866 162117 net.cpp:157] Top shape: 100 32 16 16 (819200)
I0328 14:42:47.964870 162117 net.cpp:165] Memory required for data: 30721200
I0328 14:42:47.964876 162117 layer_factory.hpp:77] Creating layer pool2
I0328 14:42:47.964897 162117 net.cpp:100] Creating Layer pool2
I0328 14:42:47.964903 162117 net.cpp:434] pool2 <- conv2
I0328 14:42:47.964923 162117 net.cpp:408] pool2 -> pool2
I0328 14:42:47.964956 162117 net.cpp:150] Setting up pool2
I0328 14:42:47.964969 162117 net.cpp:157] Top shape: 100 32 8 8 (204800)
I0328 14:42:47.964973 162117 net.cpp:165] Memory required for data: 31540400
I0328 14:42:47.964980 162117 layer_factory.hpp:77] Creating layer norm2
I0328 14:42:47.965001 162117 net.cpp:100] Creating Layer norm2
I0328 14:42:47.965009 162117 net.cpp:434] norm2 <- pool2
I0328 14:42:47.965028 162117 net.cpp:408] norm2 -> norm2
I0328 14:42:47.965116 162117 net.cpp:150] Setting up norm2
I0328 14:42:47.965131 162117 net.cpp:157] Top shape: 100 32 8 8 (204800)
I0328 14:42:47.965134 162117 net.cpp:165] Memory required for data: 32359600
I0328 14:42:47.965142 162117 layer_factory.hpp:77] Creating layer conv3
I0328 14:42:47.965168 162117 net.cpp:100] Creating Layer conv3
I0328 14:42:47.965178 162117 net.cpp:434] conv3 <- norm2
I0328 14:42:47.965209 162117 net.cpp:408] conv3 -> conv3
I0328 14:42:47.977712 162117 net.cpp:150] Setting up conv3
I0328 14:42:47.977731 162117 net.cpp:157] Top shape: 100 64 8 8 (409600)
I0328 14:42:47.977735 162117 net.cpp:165] Memory required for data: 33998000
I0328 14:42:47.977764 162117 layer_factory.hpp:77] Creating layer relu3
I0328 14:42:47.977782 162117 net.cpp:100] Creating Layer relu3
I0328 14:42:47.977790 162117 net.cpp:434] relu3 <- conv3
I0328 14:42:47.977810 162117 net.cpp:395] relu3 -> conv3 (in-place)
I0328 14:42:47.977828 162117 net.cpp:150] Setting up relu3
I0328 14:42:47.977836 162117 net.cpp:157] Top shape: 100 64 8 8 (409600)
I0328 14:42:47.977840 162117 net.cpp:165] Memory required for data: 35636400
I0328 14:42:47.977846 162117 layer_factory.hpp:77] Creating layer pool3
I0328 14:42:47.977861 162117 net.cpp:100] Creating Layer pool3
I0328 14:42:47.977869 162117 net.cpp:434] pool3 <- conv3
I0328 14:42:47.977883 162117 net.cpp:408] pool3 -> pool3
I0328 14:42:47.977910 162117 net.cpp:150] Setting up pool3
I0328 14:42:47.977921 162117 net.cpp:157] Top shape: 100 64 4 4 (102400)
I0328 14:42:47.977926 162117 net.cpp:165] Memory required for data: 36046000
I0328 14:42:47.977931 162117 layer_factory.hpp:77] Creating layer ip1
I0328 14:42:47.977955 162117 net.cpp:100] Creating Layer ip1
I0328 14:42:47.977963 162117 net.cpp:434] ip1 <- pool3
I0328 14:42:47.977988 162117 net.cpp:408] ip1 -> ip1
I0328 14:42:47.980511 162117 net.cpp:150] Setting up ip1
I0328 14:42:47.980530 162117 net.cpp:157] Top shape: 100 10 (1000)
I0328 14:42:47.980533 162117 net.cpp:165] Memory required for data: 36050000
I0328 14:42:47.980550 162117 layer_factory.hpp:77] Creating layer ip1_ip1_0_split
I0328 14:42:47.980569 162117 net.cpp:100] Creating Layer ip1_ip1_0_split
I0328 14:42:47.980577 162117 net.cpp:434] ip1_ip1_0_split <- ip1
I0328 14:42:47.980595 162117 net.cpp:408] ip1_ip1_0_split -> ip1_ip1_0_split_0
I0328 14:42:47.980613 162117 net.cpp:408] ip1_ip1_0_split -> ip1_ip1_0_split_1
I0328 14:42:47.980638 162117 net.cpp:150] Setting up ip1_ip1_0_split
I0328 14:42:47.980651 162117 net.cpp:157] Top shape: 100 10 (1000)
I0328 14:42:47.980657 162117 net.cpp:157] Top shape: 100 10 (1000)
I0328 14:42:47.980661 162117 net.cpp:165] Memory required for data: 36058000
I0328 14:42:47.980667 162117 layer_factory.hpp:77] Creating layer accuracy
I0328 14:42:47.980692 162117 net.cpp:100] Creating Layer accuracy
I0328 14:42:47.980700 162117 net.cpp:434] accuracy <- ip1_ip1_0_split_0
I0328 14:42:47.980715 162117 net.cpp:434] accuracy <- label_cifar_1_split_0
I0328 14:42:47.980731 162117 net.cpp:408] accuracy -> accuracy
…
