…
I0328 15:24:17.229830 164472 net.cpp:322] The NetState phase (0) differed from the phase (1) specified by a rule in layer accuracy
I0328 15:24:17.230152 164472 net.cpp:58] Initializing net from parameters: 
name: "CIFAR10_full"
state {
  phase: TRAIN
  level: 0
  stage: ""
}
layer {
  name: "cifar"
  type: "Data"
  top: "data"
  top: "label"
  include {
    phase: TRAIN
  }
  transform_param {
    mean_file: "examples/cifar10/mean.binaryproto"
  }
  data_param {
    source: "examples/cifar10/cifar10_train_lmdb"
    batch_size: 112
    backend: LMDB
  }
}
layer {
  name: "conv1"
  type: "Convolution"
  bottom: "data"
  top: "conv1"
  param {
    lr_mult: 1
  }
  param {
    lr_mult: 2
  }
  convolution_param {
    num_output: 32
    pad: 2
    kernel_size: 5
    stride: 1
    weight_filler {
      type: "gaussian"
      std: 0.0001
    }
    bias_filler {
      type: "constant"
    }
  }
}
layer {
  name: "pool1"
  type: "Pooling"
  bottom: "conv1"
  top: "pool1"
  pooling_param {
    pool: MAX
    kernel_size: 3
    stride: 2
  }
}
layer {
  name: "relu1"
  type: "ReLU"
  bottom: "pool1"
  top: "pool1"
}
layer {
  name: "norm1"
  type: "LRN"
  bottom: "pool1"
  top: "norm1"
  lrn_param {
    local_size: 3
    alpha: 5e-05
    beta: 0.75
    norm_region: WITHIN_CHANNEL
  }
}
layer {
  name: "conv2"
  type: "Convolution"
  bottom: "norm1"
  top: "conv2"
  param {
    lr_mult: 1
  }
  param {
    lr_mult: 2
  }
  convolution_param {
    num_output: 32
    pad: 2
    kernel_size: 5
    stride: 1
    weight_filler {
      type: "gaussian"
      std: 0.01
    }
    bias_filler {
      type: "constant"
    }
  }
}
layer {
  name: "relu2"
  type: "ReLU"
  bottom: "conv2"
  top: "conv2"
}
layer {
  name: "pool2"
  type: "Pooling"
  bottom: "conv2"
  top: "pool2"
  pooling_param {
    pool: AVE
    kernel_size: 3
    stride: 2
  }
}
layer {
  name: "norm2"
  type: "LRN"
  bottom: "pool2"
  top: "norm2"
  lrn_param {
    local_size: 3
    alpha: 5e-05
    beta: 0.75
    norm_region: WITHIN_CHANNEL
  }
}
layer {
  name: "conv3"
  type: "Convolution"
  bottom: "norm2"
  top: "conv3"
  convolution_param {
    num_output: 64
    pad: 2
    kernel_size: 5
    stride: 1
    weight_filler {
      type: "gaussian"
      std: 0.01
    }
    bias_filler {
      type: "constant"
    }
  }
}
layer {
  name: "relu3"
  type: "ReLU"
  bottom: "conv3"
  top: "conv3"
}
layer {
  name: "pool3"
  type: "Pooling"
  bottom: "conv3"
  top: "pool3"
  pooling_param {
    pool: AVE
    kernel_size: 3
    stride: 2
  }
}
layer {
  name: "ip1"
  type: "InnerProduct"
  bottom: "pool3"
  top: "ip1"
  param {
    lr_mult: 1
    decay_mult: 250
  }
  param {
    lr_mult: 2
    decay_mult: 0
  }
  inner_product_param {
    num_output: 10
    weight_filler {
      type: "gaussian"
      std: 0.01
    }
    bias_filler {
      type: "constant"
    }
  }
}
layer {
  name: "loss"
  type: "SoftmaxWithLoss"
  bottom: "ip1"
  bottom: "label"
  top: "loss"
}
I0328 15:24:17.230738 164472 layer_factory.hpp:77] Creating layer cifar
I0328 15:24:17.231961 164472 net.cpp:100] Creating Layer cifar
I0328 15:24:17.232049 164472 net.cpp:408] cifar -> data
I0328 15:24:17.232208 164472 net.cpp:408] cifar -> label
I0328 15:24:17.232261 164472 data_transformer.cpp:25] Loading mean file from: examples/cifar10/mean.binaryproto
I0328 15:24:17.232288 164473 db_lmdb.cpp:35] Opened lmdb examples/cifar10/cifar10_train_lmdb
I0328 15:24:17.232614 164472 data_layer.cpp:41] output data size: 112,3,32,32
I0328 15:24:17.239704 164472 net.cpp:150] Setting up cifar
I0328 15:24:17.239755 164472 net.cpp:157] Top shape: 112 3 32 32 (344064)
I0328 15:24:17.239766 164472 net.cpp:157] Top shape: 112 (112)
I0328 15:24:17.239770 164472 net.cpp:165] Memory required for data: 1376704
I0328 15:24:17.239794 164472 layer_factory.hpp:77] Creating layer conv1
I0328 15:24:17.239846 164472 net.cpp:100] Creating Layer conv1
I0328 15:24:17.239866 164472 net.cpp:434] conv1 <- data
I0328 15:24:17.239912 164472 net.cpp:408] conv1 -> conv1
I0328 15:24:17.240725 164472 net.cpp:150] Setting up conv1
I0328 15:24:17.240746 164472 net.cpp:157] Top shape: 112 32 32 32 (3670016)
I0328 15:24:17.240751 164472 net.cpp:165] Memory required for data: 16056768
I0328 15:24:17.240813 164472 layer_factory.hpp:77] Creating layer pool1
I0328 15:24:17.240847 164472 net.cpp:100] Creating Layer pool1
I0328 15:24:17.240857 164472 net.cpp:434] pool1 <- conv1
I0328 15:24:17.240877 164472 net.cpp:408] pool1 -> pool1
I0328 15:24:17.240926 164472 net.cpp:150] Setting up pool1
I0328 15:24:17.240939 164472 net.cpp:157] Top shape: 112 32 16 16 (917504)
I0328 15:24:17.240944 164472 net.cpp:165] Memory required for data: 19726784
I0328 15:24:17.240952 164472 layer_factory.hpp:77] Creating layer relu1
I0328 15:24:17.240974 164472 net.cpp:100] Creating Layer relu1
I0328 15:24:17.240981 164472 net.cpp:434] relu1 <- pool1
I0328 15:24:17.240998 164472 net.cpp:395] relu1 -> pool1 (in-place)
I0328 15:24:17.241014 164472 net.cpp:150] Setting up relu1
I0328 15:24:17.241022 164472 net.cpp:157] Top shape: 112 32 16 16 (917504)
I0328 15:24:17.241026 164472 net.cpp:165] Memory required for data: 23396800
I0328 15:24:17.241034 164472 layer_factory.hpp:77] Creating layer norm1
I0328 15:24:17.241067 164472 net.cpp:100] Creating Layer norm1
I0328 15:24:17.241075 164472 net.cpp:434] norm1 <- pool1
I0328 15:24:17.241092 164472 net.cpp:408] norm1 -> norm1
I0328 15:24:17.241268 164472 net.cpp:150] Setting up norm1
I0328 15:24:17.241283 164472 net.cpp:157] Top shape: 112 32 16 16 (917504)
I0328 15:24:17.241288 164472 net.cpp:165] Memory required for data: 27066816
I0328 15:24:17.241295 164472 layer_factory.hpp:77] Creating layer conv2
I0328 15:24:17.241327 164472 net.cpp:100] Creating Layer conv2
I0328 15:24:17.241336 164472 net.cpp:434] conv2 <- norm1
I0328 15:24:17.241363 164472 net.cpp:408] conv2 -> conv2
I0328 15:24:17.247692 164472 net.cpp:150] Setting up conv2
I0328 15:24:17.247712 164472 net.cpp:157] Top shape: 112 32 16 16 (917504)
I0328 15:24:17.247717 164472 net.cpp:165] Memory required for data: 30736832
I0328 15:24:17.247748 164472 layer_factory.hpp:77] Creating layer relu2
I0328 15:24:17.247771 164472 net.cpp:100] Creating Layer relu2
I0328 15:24:17.247779 164472 net.cpp:434] relu2 <- conv2
I0328 15:24:17.247797 164472 net.cpp:395] relu2 -> conv2 (in-place)
I0328 15:24:17.247815 164472 net.cpp:150] Setting up relu2
I0328 15:24:17.247823 164472 net.cpp:157] Top shape: 112 32 16 16 (917504)
I0328 15:24:17.247828 164472 net.cpp:165] Memory required for data: 34406848
I0328 15:24:17.247834 164472 layer_factory.hpp:77] Creating layer pool2
I0328 15:24:17.247854 164472 net.cpp:100] Creating Layer pool2
I0328 15:24:17.247861 164472 net.cpp:434] pool2 <- conv2
I0328 15:24:17.247877 164472 net.cpp:408] pool2 -> pool2
I0328 15:24:17.247906 164472 net.cpp:150] Setting up pool2
I0328 15:24:17.247916 164472 net.cpp:157] Top shape: 112 32 8 8 (229376)
I0328 15:24:17.247921 164472 net.cpp:165] Memory required for data: 35324352
I0328 15:24:17.247928 164472 layer_factory.hpp:77] Creating layer norm2
I0328 15:24:17.247954 164472 net.cpp:100] Creating Layer norm2
I0328 15:24:17.247963 164472 net.cpp:434] norm2 <- pool2
I0328 15:24:17.247987 164472 net.cpp:408] norm2 -> norm2
I0328 15:24:17.248077 164472 net.cpp:150] Setting up norm2
I0328 15:24:17.248090 164472 net.cpp:157] Top shape: 112 32 8 8 (229376)
I0328 15:24:17.248095 164472 net.cpp:165] Memory required for data: 36241856
I0328 15:24:17.248111 164472 layer_factory.hpp:77] Creating layer conv3
I0328 15:24:17.248153 164472 net.cpp:100] Creating Layer conv3
I0328 15:24:17.248162 164472 net.cpp:434] conv3 <- norm2
I0328 15:24:17.248188 164472 net.cpp:408] conv3 -> conv3
I0328 15:24:17.260768 164472 net.cpp:150] Setting up conv3
I0328 15:24:17.260787 164472 net.cpp:157] Top shape: 112 64 8 8 (458752)
I0328 15:24:17.260792 164472 net.cpp:165] Memory required for data: 38076864
I0328 15:24:17.260821 164472 layer_factory.hpp:77] Creating layer relu3
I0328 15:24:17.260841 164472 net.cpp:100] Creating Layer relu3
I0328 15:24:17.260849 164472 net.cpp:434] relu3 <- conv3
I0328 15:24:17.260866 164472 net.cpp:395] relu3 -> conv3 (in-place)
I0328 15:24:17.260884 164472 net.cpp:150] Setting up relu3
I0328 15:24:17.260890 164472 net.cpp:157] Top shape: 112 64 8 8 (458752)
I0328 15:24:17.260895 164472 net.cpp:165] Memory required for data: 39911872
I0328 15:24:17.260900 164472 layer_factory.hpp:77] Creating layer pool3
I0328 15:24:17.260916 164472 net.cpp:100] Creating Layer pool3
I0328 15:24:17.260922 164472 net.cpp:434] pool3 <- conv3
I0328 15:24:17.260937 164472 net.cpp:408] pool3 -> pool3
I0328 15:24:17.260963 164472 net.cpp:150] Setting up pool3
I0328 15:24:17.260973 164472 net.cpp:157] Top shape: 112 64 4 4 (114688)
I0328 15:24:17.260977 164472 net.cpp:165] Memory required for data: 40370624
I0328 15:24:17.260984 164472 layer_factory.hpp:77] Creating layer ip1
I0328 15:24:17.261011 164472 net.cpp:100] Creating Layer ip1
I0328 15:24:17.261019 164472 net.cpp:434] ip1 <- pool3
I0328 15:24:17.261039 164472 net.cpp:408] ip1 -> ip1
I0328 15:24:17.263587 164472 net.cpp:150] Setting up ip1
I0328 15:24:17.263604 164472 net.cpp:157] Top shape: 112 10 (1120)
I0328 15:24:17.263608 164472 net.cpp:165] Memory required for data: 40375104
I0328 15:24:17.263628 164472 layer_factory.hpp:77] Creating layer loss
I0328 15:24:17.263655 164472 net.cpp:100] Creating Layer loss
I0328 15:24:17.263664 164472 net.cpp:434] loss <- ip1
I0328 15:24:17.263679 164472 net.cpp:434] loss <- label
I0328 15:24:17.263696 164472 net.cpp:408] loss -> loss
I0328 15:24:17.263720 164472 layer_factory.hpp:77] Creating layer loss
…
I0328 15:24:17.264729 164472 solver.cpp:181] Creating test net (#0) specified by net file: examples/cifar10/cifar10_full_train_test_bsize112.prototxt
I0328 15:24:17.264816 164472 net.cpp:322] The NetState phase (1) differed from the phase (0) specified by a rule in layer cifar
I0328 15:24:17.265152 164472 net.cpp:58] Initializing net from parameters: 
name: "CIFAR10_full"
state {
  phase: TEST
}
layer {
  name: "cifar"
  type: "Data"
  top: "data"
  top: "label"
  include {
    phase: TEST
  }
  transform_param {
    mean_file: "examples/cifar10/mean.binaryproto"
  }
  data_param {
    source: "examples/cifar10/cifar10_test_lmdb"
    batch_size: 100
    backend: LMDB
  }
}
layer {
  name: "conv1"
  type: "Convolution"
  bottom: "data"
  top: "conv1"
  param {
    lr_mult: 1
  }
  param {
    lr_mult: 2
  }
  convolution_param {
    num_output: 32
    pad: 2
    kernel_size: 5
    stride: 1
    weight_filler {
      type: "gaussian"
      std: 0.0001
    }
    bias_filler {
      type: "constant"
    }
  }
}
layer {
  name: "pool1"
  type: "Pooling"
  bottom: "conv1"
  top: "pool1"
  pooling_param {
    pool: MAX
    kernel_size: 3
    stride: 2
  }
}
layer {
  name: "relu1"
  type: "ReLU"
  bottom: "pool1"
  top: "pool1"
}
layer {
  name: "norm1"
  type: "LRN"
  bottom: "pool1"
  top: "norm1"
  lrn_param {
    local_size: 3
    alpha: 5e-05
    beta: 0.75
    norm_region: WITHIN_CHANNEL
  }
}
layer {
  name: "conv2"
  type: "Convolution"
  bottom: "norm1"
  top: "conv2"
  param {
    lr_mult: 1
  }
  param {
    lr_mult: 2
  }
  convolution_param {
    num_output: 32
    pad: 2
    kernel_size: 5
    stride: 1
    weight_filler {
      type: "gaussian"
      std: 0.01
    }
    bias_filler {
      type: "constant"
    }
  }
}
layer {
  name: "relu2"
  type: "ReLU"
  bottom: "conv2"
  top: "conv2"
}
layer {
  name: "pool2"
  type: "Pooling"
  bottom: "conv2"
  top: "pool2"
  pooling_param {
    pool: AVE
    kernel_size: 3
    stride: 2
  }
}
layer {
  name: "norm2"
  type: "LRN"
  bottom: "pool2"
  top: "norm2"
  lrn_param {
    local_size: 3
    alpha: 5e-05
    beta: 0.75
    norm_region: WITHIN_CHANNEL
  }
}
layer {
  name: "conv3"
  type: "Convolution"
  bottom: "norm2"
  top: "conv3"
  convolution_param {
    num_output: 64
    pad: 2
    kernel_size: 5
    stride: 1
    weight_filler {
      type: "gaussian"
      std: 0.01
    }
    bias_filler {
      type: "constant"
    }
  }
}
layer {
  name: "relu3"
  type: "ReLU"
  bottom: "conv3"
  top: "conv3"
}
layer {
  name: "pool3"
  type: "Pooling"
  bottom: "conv3"
  top: "pool3"
  pooling_param {
    pool: AVE
    kernel_size: 3
    stride: 2
  }
}
layer {
  name: "ip1"
  type: "InnerProduct"
  bottom: "pool3"
  top: "ip1"
  param {
    lr_mult: 1
    decay_mult: 250
  }
  param {
    lr_mult: 2
    decay_mult: 0
  }
  inner_product_param {
    num_output: 10
    weight_filler {
      type: "gaussian"
      std: 0.01
    }
    bias_filler {
      type: "constant"
    }
  }
}
layer {
  name: "accuracy"
  type: "Accuracy"
  bottom: "ip1"
  bottom: "label"
  top: "accuracy"
  include {
    phase: TEST
  }
}
layer {
  name: "loss"
  type: "SoftmaxWithLoss"
  bottom: "ip1"
  bottom: "label"
  top: "loss"
}
I0328 15:24:17.265483 164472 layer_factory.hpp:77] Creating layer cifar
I0328 15:24:17.265765 164472 net.cpp:100] Creating Layer cifar
I0328 15:24:17.265794 164472 net.cpp:408] cifar -> data
I0328 15:24:17.265830 164472 net.cpp:408] cifar -> label
I0328 15:24:17.265846 164475 db_lmdb.cpp:35] Opened lmdb examples/cifar10/cifar10_test_lmdb
I0328 15:24:17.265856 164472 data_transformer.cpp:25] Loading mean file from: examples/cifar10/mean.binaryproto
I0328 15:24:17.266119 164472 data_layer.cpp:41] output data size: 100,3,32,32
I0328 15:24:17.273108 164472 net.cpp:150] Setting up cifar
I0328 15:24:17.273131 164472 net.cpp:157] Top shape: 100 3 32 32 (307200)
I0328 15:24:17.273138 164472 net.cpp:157] Top shape: 100 (100)
I0328 15:24:17.273142 164472 net.cpp:165] Memory required for data: 1229200
I0328 15:24:17.273154 164472 layer_factory.hpp:77] Creating layer label_cifar_1_split
I0328 15:24:17.273180 164472 net.cpp:100] Creating Layer label_cifar_1_split
I0328 15:24:17.273190 164472 net.cpp:434] label_cifar_1_split <- label
I0328 15:24:17.273208 164472 net.cpp:408] label_cifar_1_split -> label_cifar_1_split_0
I0328 15:24:17.273237 164472 net.cpp:408] label_cifar_1_split -> label_cifar_1_split_1
I0328 15:24:17.273262 164472 net.cpp:150] Setting up label_cifar_1_split
I0328 15:24:17.273280 164472 net.cpp:157] Top shape: 100 (100)
I0328 15:24:17.273298 164472 net.cpp:157] Top shape: 100 (100)
I0328 15:24:17.273301 164472 net.cpp:165] Memory required for data: 1230000
I0328 15:24:17.273308 164472 layer_factory.hpp:77] Creating layer conv1
I0328 15:24:17.273337 164472 net.cpp:100] Creating Layer conv1
I0328 15:24:17.273345 164472 net.cpp:434] conv1 <- data
I0328 15:24:17.273367 164472 net.cpp:408] conv1 -> conv1
I0328 15:24:17.274050 164472 net.cpp:150] Setting up conv1
I0328 15:24:17.274070 164472 net.cpp:157] Top shape: 100 32 32 32 (3276800)
I0328 15:24:17.274075 164472 net.cpp:165] Memory required for data: 14337200
I0328 15:24:17.274111 164472 layer_factory.hpp:77] Creating layer pool1
I0328 15:24:17.274134 164472 net.cpp:100] Creating Layer pool1
I0328 15:24:17.274142 164472 net.cpp:434] pool1 <- conv1
I0328 15:24:17.274161 164472 net.cpp:408] pool1 -> pool1
I0328 15:24:17.274194 164472 net.cpp:150] Setting up pool1
I0328 15:24:17.274205 164472 net.cpp:157] Top shape: 100 32 16 16 (819200)
I0328 15:24:17.274209 164472 net.cpp:165] Memory required for data: 17614000
I0328 15:24:17.274215 164472 layer_factory.hpp:77] Creating layer relu1
I0328 15:24:17.274235 164472 net.cpp:100] Creating Layer relu1
I0328 15:24:17.274241 164472 net.cpp:434] relu1 <- pool1
I0328 15:24:17.274261 164472 net.cpp:395] relu1 -> pool1 (in-place)
I0328 15:24:17.274277 164472 net.cpp:150] Setting up relu1
I0328 15:24:17.274286 164472 net.cpp:157] Top shape: 100 32 16 16 (819200)
I0328 15:24:17.274289 164472 net.cpp:165] Memory required for data: 20890800
I0328 15:24:17.274296 164472 layer_factory.hpp:77] Creating layer norm1
I0328 15:24:17.274312 164472 net.cpp:100] Creating Layer norm1
I0328 15:24:17.274318 164472 net.cpp:434] norm1 <- pool1
I0328 15:24:17.274333 164472 net.cpp:408] norm1 -> norm1
I0328 15:24:17.274420 164472 net.cpp:150] Setting up norm1
I0328 15:24:17.274435 164472 net.cpp:157] Top shape: 100 32 16 16 (819200)
I0328 15:24:17.274438 164472 net.cpp:165] Memory required for data: 24167600
I0328 15:24:17.274446 164472 layer_factory.hpp:77] Creating layer conv2
I0328 15:24:17.274473 164472 net.cpp:100] Creating Layer conv2
I0328 15:24:17.274482 164472 net.cpp:434] conv2 <- norm1
I0328 15:24:17.274507 164472 net.cpp:408] conv2 -> conv2
I0328 15:24:17.280865 164472 net.cpp:150] Setting up conv2
I0328 15:24:17.280884 164472 net.cpp:157] Top shape: 100 32 16 16 (819200)
I0328 15:24:17.280889 164472 net.cpp:165] Memory required for data: 27444400
I0328 15:24:17.280918 164472 layer_factory.hpp:77] Creating layer relu2
I0328 15:24:17.280941 164472 net.cpp:100] Creating Layer relu2
I0328 15:24:17.280948 164472 net.cpp:434] relu2 <- conv2
I0328 15:24:17.280966 164472 net.cpp:395] relu2 -> conv2 (in-place)
I0328 15:24:17.280983 164472 net.cpp:150] Setting up relu2
I0328 15:24:17.280992 164472 net.cpp:157] Top shape: 100 32 16 16 (819200)
I0328 15:24:17.280995 164472 net.cpp:165] Memory required for data: 30721200
I0328 15:24:17.281002 164472 layer_factory.hpp:77] Creating layer pool2
I0328 15:24:17.281023 164472 net.cpp:100] Creating Layer pool2
I0328 15:24:17.281029 164472 net.cpp:434] pool2 <- conv2
I0328 15:24:17.281049 164472 net.cpp:408] pool2 -> pool2
I0328 15:24:17.281082 164472 net.cpp:150] Setting up pool2
I0328 15:24:17.281095 164472 net.cpp:157] Top shape: 100 32 8 8 (204800)
I0328 15:24:17.281098 164472 net.cpp:165] Memory required for data: 31540400
I0328 15:24:17.281105 164472 layer_factory.hpp:77] Creating layer norm2
I0328 15:24:17.281132 164472 net.cpp:100] Creating Layer norm2
I0328 15:24:17.281141 164472 net.cpp:434] norm2 <- pool2
I0328 15:24:17.281157 164472 net.cpp:408] norm2 -> norm2
I0328 15:24:17.281247 164472 net.cpp:150] Setting up norm2
I0328 15:24:17.281261 164472 net.cpp:157] Top shape: 100 32 8 8 (204800)
I0328 15:24:17.281266 164472 net.cpp:165] Memory required for data: 32359600
I0328 15:24:17.281273 164472 layer_factory.hpp:77] Creating layer conv3
I0328 15:24:17.281298 164472 net.cpp:100] Creating Layer conv3
I0328 15:24:17.281307 164472 net.cpp:434] conv3 <- norm2
I0328 15:24:17.281339 164472 net.cpp:408] conv3 -> conv3
I0328 15:24:17.293931 164472 net.cpp:150] Setting up conv3
I0328 15:24:17.293951 164472 net.cpp:157] Top shape: 100 64 8 8 (409600)
I0328 15:24:17.293954 164472 net.cpp:165] Memory required for data: 33998000
I0328 15:24:17.293983 164472 layer_factory.hpp:77] Creating layer relu3
I0328 15:24:17.294000 164472 net.cpp:100] Creating Layer relu3
I0328 15:24:17.294008 164472 net.cpp:434] relu3 <- conv3
I0328 15:24:17.294028 164472 net.cpp:395] relu3 -> conv3 (in-place)
I0328 15:24:17.294046 164472 net.cpp:150] Setting up relu3
I0328 15:24:17.294054 164472 net.cpp:157] Top shape: 100 64 8 8 (409600)
I0328 15:24:17.294057 164472 net.cpp:165] Memory required for data: 35636400
I0328 15:24:17.294064 164472 layer_factory.hpp:77] Creating layer pool3
I0328 15:24:17.294078 164472 net.cpp:100] Creating Layer pool3
I0328 15:24:17.294085 164472 net.cpp:434] pool3 <- conv3
I0328 15:24:17.294100 164472 net.cpp:408] pool3 -> pool3
I0328 15:24:17.294126 164472 net.cpp:150] Setting up pool3
I0328 15:24:17.294137 164472 net.cpp:157] Top shape: 100 64 4 4 (102400)
I0328 15:24:17.294142 164472 net.cpp:165] Memory required for data: 36046000
I0328 15:24:17.294147 164472 layer_factory.hpp:77] Creating layer ip1
I0328 15:24:17.294172 164472 net.cpp:100] Creating Layer ip1
I0328 15:24:17.294178 164472 net.cpp:434] ip1 <- pool3
I0328 15:24:17.294201 164472 net.cpp:408] ip1 -> ip1
I0328 15:24:17.296761 164472 net.cpp:150] Setting up ip1
I0328 15:24:17.296777 164472 net.cpp:157] Top shape: 100 10 (1000)
I0328 15:24:17.296782 164472 net.cpp:165] Memory required for data: 36050000
I0328 15:24:17.296797 164472 layer_factory.hpp:77] Creating layer ip1_ip1_0_split
I0328 15:24:17.296816 164472 net.cpp:100] Creating Layer ip1_ip1_0_split
I0328 15:24:17.296823 164472 net.cpp:434] ip1_ip1_0_split <- ip1
I0328 15:24:17.296841 164472 net.cpp:408] ip1_ip1_0_split -> ip1_ip1_0_split_0
I0328 15:24:17.296859 164472 net.cpp:408] ip1_ip1_0_split -> ip1_ip1_0_split_1
I0328 15:24:17.296878 164472 net.cpp:150] Setting up ip1_ip1_0_split
I0328 15:24:17.296887 164472 net.cpp:157] Top shape: 100 10 (1000)
I0328 15:24:17.296893 164472 net.cpp:157] Top shape: 100 10 (1000)
I0328 15:24:17.296897 164472 net.cpp:165] Memory required for data: 36058000
I0328 15:24:17.296903 164472 layer_factory.hpp:77] Creating layer accuracy
I0328 15:24:17.296926 164472 net.cpp:100] Creating Layer accuracy
I0328 15:24:17.296934 164472 net.cpp:434] accuracy <- ip1_ip1_0_split_0
I0328 15:24:17.296947 164472 net.cpp:434] accuracy <- label_cifar_1_split_0
I0328 15:24:17.296963 164472 net.cpp:408] accuracy -> accuracy
…
