…
I0331 14:31:52.119706  9021 net.cpp:493] The NetState phase (0) differed from the phase (1) specified by a rule in layer accuracy
I0331 14:31:52.121742  9021 net.cpp:125] Initializing net from parameters: 
name: "CIFAR10_full"
state {
  phase: TRAIN
  level: 0
  stage: ""
}
layer {
  name: "cifar"
  type: "Data"
  top: "data"
  top: "label"
  include {
    phase: TRAIN
  }
  transform_param {
    mean_file: "examples/cifar10/mean.binaryproto"
  }
  data_param {
    source: "examples/cifar10/cifar10_train_lmdb"
    batch_size: 128
    backend: LMDB
  }
}
layer {
  name: "conv1"
  type: "Convolution"
  bottom: "data"
  top: "conv1"
  param {
    lr_mult: 1
  }
  param {
    lr_mult: 2
  }
  convolution_param {
    num_output: 32
    pad: 2
    kernel_size: 5
    stride: 1
    weight_filler {
      type: "gaussian"
      std: 0.0001
    }
    bias_filler {
      type: "constant"
    }
  }
}
layer {
  name: "pool1"
  type: "Pooling"
  bottom: "conv1"
  top: "pool1"
  pooling_param {
    pool: MAX
    kernel_size: 3
    stride: 2
  }
}
layer {
  name: "relu1"
  type: "ReLU"
  bottom: "pool1"
  top: "pool1"
}
layer {
  name: "norm1"
  type: "LRN"
  bottom: "pool1"
  top: "norm1"
  lrn_param {
    local_size: 3
    alpha: 5e-05
    beta: 0.75
    norm_region: WITHIN_CHANNEL
  }
}
layer {
  name: "conv2"
  type: "Convolution"
  bottom: "norm1"
  top: "conv2"
  param {
    lr_mult: 1
  }
  param {
    lr_mult: 2
  }
  convolution_param {
    num_output: 32
    pad: 2
    kernel_size: 5
    stride: 1
    weight_filler {
      type: "gaussian"
      std: 0.01
    }
    bias_filler {
      type: "constant"
    }
  }
}
layer {
  name: "relu2"
  type: "ReLU"
  bottom: "conv2"
  top: "conv2"
}
layer {
  name: "pool2"
  type: "Pooling"
  bottom: "conv2"
  top: "pool2"
  pooling_param {
    pool: AVE
    kernel_size: 3
    stride: 2
  }
}
layer {
  name: "norm2"
  type: "LRN"
  bottom: "pool2"
  top: "norm2"
  lrn_param {
    local_size: 3
    alpha: 5e-05
    beta: 0.75
    norm_region: WITHIN_CHANNEL
  }
}
layer {
  name: "conv3"
  type: "Convolution"
  bottom: "norm2"
  top: "conv3"
  convolution_param {
    num_output: 64
    pad: 2
    kernel_size: 5
    stride: 1
    weight_filler {
      type: "gaussian"
      std: 0.01
    }
    bias_filler {
      type: "constant"
    }
  }
}
layer {
  name: "relu3"
  type: "ReLU"
  bottom: "conv3"
  top: "conv3"
}
layer {
  name: "pool3"
  type: "Pooling"
  bottom: "conv3"
  top: "pool3"
  pooling_param {
    pool: AVE
    kernel_size: 3
    stride: 2
  }
}
layer {
  name: "ip1"
  type: "InnerProduct"
  bottom: "pool3"
  top: "ip1"
  param {
    lr_mult: 1
    decay_mult: 250
  }
  param {
    lr_mult: 2
    decay_mult: 0
  }
  inner_product_param {
    num_output: 10
    weight_filler {
      type: "gaussian"
      std: 0.01
    }
    bias_filler {
      type: "constant"
    }
  }
}
layer {
  name: "loss"
  type: "SoftmaxWithLoss"
  bottom: "ip1"
  bottom: "label"
  top: "loss"
}
I0331 14:31:52.121984  9021 net.cpp:154] Setting up Layer of device :0 @cpu 0 Layer : cifar
I0331 14:31:52.122035  9021 layer_factory.hpp:114] Creating layer cifar
I0331 14:31:52.124369  9021 net.cpp:169] Creating Layer cifar
I0331 14:31:52.124519  9021 net.cpp:579] cifar -> data
I0331 14:31:52.124555  9021 net.cpp:582] From AppendTop @cpu: 0
I0331 14:31:52.124819  9021 net.cpp:579] cifar -> label
I0331 14:31:52.124891  9021 net.cpp:582] From AppendTop @cpu: 0
I0331 14:31:52.124959  9021 data_transformer.cpp:62] Loading mean file from: examples/cifar10/mean.binaryproto
I0331 14:31:52.132732  9022 db_lmdb.cpp:72] Opened lmdb examples/cifar10/cifar10_train_lmdb
I0331 14:31:52.134290  9022 virtDev_device.cpp:369] found a CPU core 14 for Data Reader on device 0 thread ID 140424390813440
I0331 14:31:52.134383  9022 data_reader.cpp:128] inside DATAREADER 2
I0331 14:31:52.134429  9022 data_reader.cpp:139] NUMA DOMAIN 0
I0331 14:31:52.134639  9022 data_reader.cpp:139] NUMA DOMAIN 0
I0331 14:31:52.231691  9021 data_layer.cpp:80] output data size: 128,3,32,32
I0331 14:31:52.233608  9021 base_data_layer.cpp:96] Done cpu data
I0331 14:31:52.233745  9021 net.cpp:219] Setting up cifar
I0331 14:31:52.233899  9021 net.cpp:226] Top shape: 128 3 32 32 (393216)
I0331 14:31:52.233961  9021 net.cpp:226] Top shape: 128 (128)
I0331 14:31:52.234002  9021 net.cpp:234] Memory required for data: 1573376
I0331 14:31:52.234068  9021 net.cpp:154] Setting up Layer of device :0 @cpu 2 Layer : conv1
I0331 14:31:52.234109  9021 layer_factory.hpp:114] Creating layer conv1
I0331 14:31:52.234241  9021 net.cpp:169] Creating Layer conv1
I0331 14:31:52.234309  9021 net.cpp:606] conv1 <- data
I0331 14:31:52.234370  9021 net.cpp:579] conv1 -> conv1
I0331 14:31:52.234407  9021 net.cpp:582] From AppendTop @cpu: 2
I0331 14:31:52.237465  9021 net.cpp:219] Setting up conv1
I0331 14:31:52.237594  9021 net.cpp:226] Top shape: 128 32 32 32 (4194304)
I0331 14:31:52.237634  9021 net.cpp:234] Memory required for data: 18350592
I0331 14:31:52.237802  9021 net.cpp:154] Setting up Layer of device :0 @cpu 2 Layer : pool1
I0331 14:31:52.237869  9021 layer_factory.hpp:114] Creating layer pool1
I0331 14:31:52.238121  9021 net.cpp:169] Creating Layer pool1
I0331 14:31:52.238203  9021 net.cpp:606] pool1 <- conv1
I0331 14:31:52.238265  9021 net.cpp:579] pool1 -> pool1
I0331 14:31:52.238301  9021 net.cpp:582] From AppendTop @cpu: 2
I0331 14:31:52.238394  9021 net.cpp:219] Setting up pool1
I0331 14:31:52.238451  9021 net.cpp:226] Top shape: 128 32 16 16 (1048576)
I0331 14:31:52.238482  9021 net.cpp:234] Memory required for data: 22544896
I0331 14:31:52.238534  9021 net.cpp:154] Setting up Layer of device :0 @cpu 2 Layer : relu1
I0331 14:31:52.238569  9021 layer_factory.hpp:114] Creating layer relu1
I0331 14:31:52.238636  9021 net.cpp:169] Creating Layer relu1
I0331 14:31:52.238677  9021 net.cpp:606] relu1 <- pool1
I0331 14:31:52.238723  9021 net.cpp:566] relu1 -> pool1 (in-place)
I0331 14:31:52.238827  9021 net.cpp:219] Setting up relu1
I0331 14:31:52.238884  9021 net.cpp:226] Top shape: 128 32 16 16 (1048576)
I0331 14:31:52.238916  9021 net.cpp:234] Memory required for data: 26739200
I0331 14:31:52.238962  9021 net.cpp:154] Setting up Layer of device :0 @cpu 2 Layer : norm1
I0331 14:31:52.238996  9021 layer_factory.hpp:114] Creating layer norm1
I0331 14:31:52.239073  9021 net.cpp:169] Creating Layer norm1
I0331 14:31:52.239111  9021 net.cpp:606] norm1 <- pool1
I0331 14:31:52.239158  9021 net.cpp:579] norm1 -> norm1
I0331 14:31:52.239204  9021 net.cpp:582] From AppendTop @cpu: 2
I0331 14:31:52.239490  9021 net.cpp:219] Setting up norm1
I0331 14:31:52.239568  9021 net.cpp:226] Top shape: 128 32 16 16 (1048576)
I0331 14:31:52.239601  9021 net.cpp:234] Memory required for data: 30933504
I0331 14:31:52.239650  9021 net.cpp:154] Setting up Layer of device :0 @cpu 2 Layer : conv2
I0331 14:31:52.239845  9021 layer_factory.hpp:114] Creating layer conv2
I0331 14:31:52.239956  9021 net.cpp:169] Creating Layer conv2
I0331 14:31:52.239998  9021 net.cpp:606] conv2 <- norm1
I0331 14:31:52.240053  9021 net.cpp:579] conv2 -> conv2
I0331 14:31:52.240085  9021 net.cpp:582] From AppendTop @cpu: 2
I0331 14:31:52.250800  9021 net.cpp:219] Setting up conv2
I0331 14:31:52.250937  9021 net.cpp:226] Top shape: 128 32 16 16 (1048576)
I0331 14:31:52.250988  9021 net.cpp:234] Memory required for data: 35127808
I0331 14:31:52.251102  9021 net.cpp:154] Setting up Layer of device :0 @cpu 2 Layer : relu2
I0331 14:31:52.251155  9021 layer_factory.hpp:114] Creating layer relu2
I0331 14:31:52.251216  9021 net.cpp:169] Creating Layer relu2
I0331 14:31:52.251260  9021 net.cpp:606] relu2 <- conv2
I0331 14:31:52.251312  9021 net.cpp:566] relu2 -> conv2 (in-place)
I0331 14:31:52.251372  9021 net.cpp:219] Setting up relu2
I0331 14:31:52.251425  9021 net.cpp:226] Top shape: 128 32 16 16 (1048576)
I0331 14:31:52.251458  9021 net.cpp:234] Memory required for data: 39322112
I0331 14:31:52.251505  9021 net.cpp:154] Setting up Layer of device :0 @cpu 2 Layer : pool2
I0331 14:31:52.251541  9021 layer_factory.hpp:114] Creating layer pool2
I0331 14:31:52.251689  9021 net.cpp:169] Creating Layer pool2
I0331 14:31:52.251793  9021 net.cpp:606] pool2 <- conv2
I0331 14:31:52.251863  9021 net.cpp:579] pool2 -> pool2
I0331 14:31:52.251900  9021 net.cpp:582] From AppendTop @cpu: 2
I0331 14:31:52.251971  9021 net.cpp:219] Setting up pool2
I0331 14:31:52.252027  9021 net.cpp:226] Top shape: 128 32 8 8 (262144)
I0331 14:31:52.252059  9021 net.cpp:234] Memory required for data: 40370688
I0331 14:31:52.252110  9021 net.cpp:154] Setting up Layer of device :0 @cpu 2 Layer : norm2
I0331 14:31:52.252171  9021 layer_factory.hpp:114] Creating layer norm2
I0331 14:31:52.252230  9021 net.cpp:169] Creating Layer norm2
I0331 14:31:52.252269  9021 net.cpp:606] norm2 <- pool2
I0331 14:31:52.252334  9021 net.cpp:579] norm2 -> norm2
I0331 14:31:52.252372  9021 net.cpp:582] From AppendTop @cpu: 2
I0331 14:31:52.252590  9021 net.cpp:219] Setting up norm2
I0331 14:31:52.252671  9021 net.cpp:226] Top shape: 128 32 8 8 (262144)
I0331 14:31:52.252704  9021 net.cpp:234] Memory required for data: 41419264
I0331 14:31:52.252791  9021 net.cpp:154] Setting up Layer of device :0 @cpu 2 Layer : conv3
I0331 14:31:52.252830  9021 layer_factory.hpp:114] Creating layer conv3
I0331 14:31:52.252897  9021 net.cpp:169] Creating Layer conv3
I0331 14:31:52.252936  9021 net.cpp:606] conv3 <- norm2
I0331 14:31:52.252988  9021 net.cpp:579] conv3 -> conv3
I0331 14:31:52.253021  9021 net.cpp:582] From AppendTop @cpu: 2
I0331 14:31:52.262543  9021 net.cpp:219] Setting up conv3
I0331 14:31:52.262686  9021 net.cpp:226] Top shape: 128 64 8 8 (524288)
I0331 14:31:52.262742  9021 net.cpp:234] Memory required for data: 43516416
I0331 14:31:52.262908  9021 net.cpp:154] Setting up Layer of device :0 @cpu 2 Layer : relu3
I0331 14:31:52.262970  9021 layer_factory.hpp:114] Creating layer relu3
I0331 14:31:52.263034  9021 net.cpp:169] Creating Layer relu3
I0331 14:31:52.263077  9021 net.cpp:606] relu3 <- conv3
I0331 14:31:52.263154  9021 net.cpp:566] relu3 -> conv3 (in-place)
I0331 14:31:52.263232  9021 net.cpp:219] Setting up relu3
I0331 14:31:52.263291  9021 net.cpp:226] Top shape: 128 64 8 8 (524288)
I0331 14:31:52.263327  9021 net.cpp:234] Memory required for data: 45613568
I0331 14:31:52.263380  9021 net.cpp:154] Setting up Layer of device :0 @cpu 2 Layer : pool3
I0331 14:31:52.263413  9021 layer_factory.hpp:114] Creating layer pool3
I0331 14:31:52.263564  9021 net.cpp:169] Creating Layer pool3
I0331 14:31:52.263625  9021 net.cpp:606] pool3 <- conv3
I0331 14:31:52.263682  9021 net.cpp:579] pool3 -> pool3
I0331 14:31:52.263717  9021 net.cpp:582] From AppendTop @cpu: 2
I0331 14:31:52.263830  9021 net.cpp:219] Setting up pool3
I0331 14:31:52.263897  9021 net.cpp:226] Top shape: 128 64 4 4 (131072)
I0331 14:31:52.263931  9021 net.cpp:234] Memory required for data: 46137856
I0331 14:31:52.264117  9021 net.cpp:154] Setting up Layer of device :0 @cpu 2 Layer : ip1
I0331 14:31:52.264166  9021 layer_factory.hpp:114] Creating layer ip1
I0331 14:31:52.264259  9021 net.cpp:169] Creating Layer ip1
I0331 14:31:52.264303  9021 net.cpp:606] ip1 <- pool3
I0331 14:31:52.264359  9021 net.cpp:579] ip1 -> ip1
I0331 14:31:52.264392  9021 net.cpp:582] From AppendTop @cpu: 2
I0331 14:31:52.265271  9021 net.cpp:219] Setting up ip1
I0331 14:31:52.265370  9021 net.cpp:226] Top shape: 128 10 (1280)
I0331 14:31:52.265405  9021 net.cpp:234] Memory required for data: 46142976
I0331 14:31:52.265481  9021 net.cpp:154] Setting up Layer of device :0 @cpu 2 Layer : loss
I0331 14:31:52.265516  9021 layer_factory.hpp:114] Creating layer loss
I0331 14:31:52.265578  9021 net.cpp:169] Creating Layer loss
I0331 14:31:52.265614  9021 net.cpp:606] loss <- ip1
I0331 14:31:52.265655  9021 net.cpp:606] loss <- label
…
I0331 14:31:52.271791  9021 cpu_info.cpp:473] Number of OpenMP threads: 16
I0331 14:31:52.271917  9021 net.cpp:493] The NetState phase (1) differed from the phase (0) specified by a rule in layer cifar
I0331 14:31:52.274175  9021 net.cpp:125] Initializing net from parameters: 
name: "CIFAR10_full"
state {
  phase: TEST
}
layer {
  name: "cifar"
  type: "Data"
  top: "data"
  top: "label"
  include {
    phase: TEST
  }
  transform_param {
    mean_file: "examples/cifar10/mean.binaryproto"
  }
  data_param {
    source: "examples/cifar10/cifar10_test_lmdb"
    batch_size: 100
    backend: LMDB
  }
}
layer {
  name: "label_cifar_1_split"
  type: "Split"
  bottom: "label"
  top: "label_cifar_1_split_0"
  top: "label_cifar_1_split_1"
}
layer {
  name: "conv1"
  type: "Convolution"
  bottom: "data"
  top: "conv1"
  param {
    lr_mult: 1
  }
  param {
    lr_mult: 2
  }
  convolution_param {
    num_output: 32
    pad: 2
    kernel_size: 5
    stride: 1
    weight_filler {
      type: "gaussian"
      std: 0.0001
    }
    bias_filler {
      type: "constant"
    }
  }
}
layer {
  name: "pool1"
  type: "Pooling"
  bottom: "conv1"
  top: "pool1"
  pooling_param {
    pool: MAX
    kernel_size: 3
    stride: 2
  }
}
layer {
  name: "relu1"
  type: "ReLU"
  bottom: "pool1"
  top: "pool1"
}
layer {
  name: "norm1"
  type: "LRN"
  bottom: "pool1"
  top: "norm1"
  lrn_param {
    local_size: 3
    alpha: 5e-05
    beta: 0.75
    norm_region: WITHIN_CHANNEL
  }
}
layer {
  name: "conv2"
  type: "Convolution"
  bottom: "norm1"
  top: "conv2"
  param {
    lr_mult: 1
  }
  param {
    lr_mult: 2
  }
  convolution_param {
    num_output: 32
    pad: 2
    kernel_size: 5
    stride: 1
    weight_filler {
      type: "gaussian"
      std: 0.01
    }
    bias_filler {
      type: "constant"
    }
  }
}
layer {
  name: "relu2"
  type: "ReLU"
  bottom: "conv2"
  top: "conv2"
}
layer {
  name: "pool2"
  type: "Pooling"
  bottom: "conv2"
  top: "pool2"
  pooling_param {
    pool: AVE
    kernel_size: 3
    stride: 2
  }
}
layer {
  name: "norm2"
  type: "LRN"
  bottom: "pool2"
  top: "norm2"
  lrn_param {
    local_size: 3
    alpha: 5e-05
    beta: 0.75
    norm_region: WITHIN_CHANNEL
  }
}
layer {
  name: "conv3"
  type: "Convolution"
  bottom: "norm2"
  top: "conv3"
  convolution_param {
    num_output: 64
    pad: 2
    kernel_size: 5
    stride: 1
    weight_filler {
      type: "gaussian"
      std: 0.01
    }
    bias_filler {
      type: "constant"
    }
  }
}
layer {
  name: "relu3"
  type: "ReLU"
  bottom: "conv3"
  top: "conv3"
}
layer {
  name: "pool3"
  type: "Pooling"
  bottom: "conv3"
  top: "pool3"
  pooling_param {
    pool: AVE
    kernel_size: 3
    stride: 2
  }
}
layer {
  name: "ip1"
  type: "InnerProduct"
  bottom: "pool3"
  top: "ip1"
  param {
    lr_mult: 1
    decay_mult: 250
  }
  param {
    lr_mult: 2
    decay_mult: 0
  }
  inner_product_param {
    num_output: 10
    weight_filler {
      type: "gaussian"
      std: 0.01
    }
    bias_filler {
      type: "constant"
    }
  }
}
layer {
  name: "ip1_ip1_0_split"
  type: "Split"
  bottom: "ip1"
  top: "ip1_ip1_0_split_0"
  top: "ip1_ip1_0_split_1"
}
layer {
  name: "accuracy"
  type: "Accuracy"
  bottom: "ip1_ip1_0_split_0"
  bottom: "label_cifar_1_split_0"
  top: "accuracy"
  include {
    phase: TEST
  }
}
layer {
  name: "loss"
  type: "SoftmaxWithLoss"
  bottom: "ip1_ip1_0_split_1"
  bottom: "label_cifar_1_split_1"
  top: "loss"
}
I0331 14:31:52.274382  9021 net.cpp:154] Setting up Layer of device :0 @cpu 2 Layer : cifar
I0331 14:31:52.274422  9021 layer_factory.hpp:114] Creating layer cifar
I0331 14:31:52.274996  9021 net.cpp:169] Creating Layer cifar
I0331 14:31:52.275115  9021 net.cpp:579] cifar -> data
I0331 14:31:52.275149  9021 net.cpp:582] From AppendTop @cpu: 2
I0331 14:31:52.275218  9021 net.cpp:579] cifar -> label
I0331 14:31:52.275249  9021 net.cpp:582] From AppendTop @cpu: 2
I0331 14:31:52.275305  9021 data_transformer.cpp:62] Loading mean file from: examples/cifar10/mean.binaryproto
I0331 14:31:52.281824  9023 db_lmdb.cpp:72] Opened lmdb examples/cifar10/cifar10_test_lmdb
I0331 14:31:52.283424  9023 virtDev_device.cpp:369] found a CPU core 12 for Data Reader on device 0 thread ID 140423910176512
I0331 14:31:52.283516  9023 data_reader.cpp:128] inside DATAREADER 1
I0331 14:31:52.283689  9023 data_reader.cpp:139] NUMA DOMAIN 0
I0331 14:31:52.284101  9021 data_layer.cpp:80] output data size: 100,3,32,32
I0331 14:31:52.286113  9021 base_data_layer.cpp:96] Done cpu data
I0331 14:31:52.286227  9021 net.cpp:219] Setting up cifar
I0331 14:31:52.286284  9021 net.cpp:226] Top shape: 100 3 32 32 (307200)
I0331 14:31:52.286329  9021 net.cpp:226] Top shape: 100 (100)
I0331 14:31:52.286361  9021 net.cpp:234] Memory required for data: 1229200
I0331 14:31:52.286422  9021 net.cpp:154] Setting up Layer of device :0 @cpu 12 Layer : label_cifar_1_split
I0331 14:31:52.286456  9021 layer_factory.hpp:114] Creating layer label_cifar_1_split
I0331 14:31:52.286607  9021 net.cpp:169] Creating Layer label_cifar_1_split
I0331 14:31:52.286648  9021 net.cpp:606] label_cifar_1_split <- label
I0331 14:31:52.286696  9021 net.cpp:579] label_cifar_1_split -> label_cifar_1_split_0
I0331 14:31:52.286730  9021 net.cpp:582] From AppendTop @cpu: 12
I0331 14:31:52.286816  9021 net.cpp:579] label_cifar_1_split -> label_cifar_1_split_1
I0331 14:31:52.286850  9021 net.cpp:582] From AppendTop @cpu: 12
I0331 14:31:52.286905  9021 net.cpp:219] Setting up label_cifar_1_split
I0331 14:31:52.286947  9021 net.cpp:226] Top shape: 100 (100)
I0331 14:31:52.286988  9021 net.cpp:226] Top shape: 100 (100)
I0331 14:31:52.287019  9021 net.cpp:234] Memory required for data: 1230000
I0331 14:31:52.287060  9021 net.cpp:154] Setting up Layer of device :0 @cpu 12 Layer : conv1
I0331 14:31:52.287092  9021 layer_factory.hpp:114] Creating layer conv1
I0331 14:31:52.287151  9021 net.cpp:169] Creating Layer conv1
I0331 14:31:52.287185  9021 net.cpp:606] conv1 <- data
I0331 14:31:52.287231  9021 net.cpp:579] conv1 -> conv1
I0331 14:31:52.287264  9021 net.cpp:582] From AppendTop @cpu: 12
I0331 14:31:52.294893  9021 net.cpp:219] Setting up conv1
I0331 14:31:52.295020  9021 net.cpp:226] Top shape: 100 32 32 32 (3276800)
I0331 14:31:52.295054  9021 net.cpp:234] Memory required for data: 14337200
I0331 14:31:52.295156  9021 net.cpp:154] Setting up Layer of device :0 @cpu 12 Layer : pool1
I0331 14:31:52.295191  9021 layer_factory.hpp:114] Creating layer pool1
I0331 14:31:52.295383  9021 net.cpp:169] Creating Layer pool1
I0331 14:31:52.295423  9021 net.cpp:606] pool1 <- conv1
I0331 14:31:52.295486  9021 net.cpp:579] pool1 -> pool1
I0331 14:31:52.295519  9021 net.cpp:582] From AppendTop @cpu: 12
I0331 14:31:52.295589  9021 net.cpp:219] Setting up pool1
I0331 14:31:52.295651  9021 net.cpp:226] Top shape: 100 32 16 16 (819200)
I0331 14:31:52.295683  9021 net.cpp:234] Memory required for data: 17614000
I0331 14:31:52.295723  9021 net.cpp:154] Setting up Layer of device :0 @cpu 12 Layer : relu1
I0331 14:31:52.295773  9021 layer_factory.hpp:114] Creating layer relu1
I0331 14:31:52.295819  9021 net.cpp:169] Creating Layer relu1
I0331 14:31:52.295852  9021 net.cpp:606] relu1 <- pool1
I0331 14:31:52.295902  9021 net.cpp:566] relu1 -> pool1 (in-place)
I0331 14:31:52.295948  9021 net.cpp:219] Setting up relu1
I0331 14:31:52.295990  9021 net.cpp:226] Top shape: 100 32 16 16 (819200)
I0331 14:31:52.296022  9021 net.cpp:234] Memory required for data: 20890800
I0331 14:31:52.296061  9021 net.cpp:154] Setting up Layer of device :0 @cpu 12 Layer : norm1
I0331 14:31:52.296094  9021 layer_factory.hpp:114] Creating layer norm1
I0331 14:31:52.296139  9021 net.cpp:169] Creating Layer norm1
I0331 14:31:52.296172  9021 net.cpp:606] norm1 <- pool1
I0331 14:31:52.296226  9021 net.cpp:579] norm1 -> norm1
I0331 14:31:52.296257  9021 net.cpp:582] From AppendTop @cpu: 12
I0331 14:31:52.296540  9021 net.cpp:219] Setting up norm1
I0331 14:31:52.296584  9021 net.cpp:226] Top shape: 100 32 16 16 (819200)
I0331 14:31:52.296615  9021 net.cpp:234] Memory required for data: 24167600
I0331 14:31:52.296655  9021 net.cpp:154] Setting up Layer of device :0 @cpu 12 Layer : conv2
I0331 14:31:52.296687  9021 layer_factory.hpp:114] Creating layer conv2
I0331 14:31:52.296752  9021 net.cpp:169] Creating Layer conv2
I0331 14:31:52.296804  9021 net.cpp:606] conv2 <- norm1
I0331 14:31:52.296859  9021 net.cpp:579] conv2 -> conv2
I0331 14:31:52.296895  9021 net.cpp:582] From AppendTop @cpu: 12
I0331 14:31:52.305933  9021 net.cpp:219] Setting up conv2
I0331 14:31:52.306049  9021 net.cpp:226] Top shape: 100 32 16 16 (819200)
I0331 14:31:52.306083  9021 net.cpp:234] Memory required for data: 27444400
I0331 14:31:52.306180  9021 net.cpp:154] Setting up Layer of device :0 @cpu 12 Layer : relu2
I0331 14:31:52.306212  9021 layer_factory.hpp:114] Creating layer relu2
I0331 14:31:52.306280  9021 net.cpp:169] Creating Layer relu2
I0331 14:31:52.306315  9021 net.cpp:606] relu2 <- conv2
I0331 14:31:52.306370  9021 net.cpp:566] relu2 -> conv2 (in-place)
I0331 14:31:52.306525  9021 net.cpp:219] Setting up relu2
I0331 14:31:52.306568  9021 net.cpp:226] Top shape: 100 32 16 16 (819200)
I0331 14:31:52.306603  9021 net.cpp:234] Memory required for data: 30721200
I0331 14:31:52.306644  9021 net.cpp:154] Setting up Layer of device :0 @cpu 12 Layer : pool2
I0331 14:31:52.306676  9021 layer_factory.hpp:114] Creating layer pool2
I0331 14:31:52.306833  9021 net.cpp:169] Creating Layer pool2
I0331 14:31:52.306871  9021 net.cpp:606] pool2 <- conv2
I0331 14:31:52.306917  9021 net.cpp:579] pool2 -> pool2
I0331 14:31:52.306948  9021 net.cpp:582] From AppendTop @cpu: 12
I0331 14:31:52.307008  9021 net.cpp:219] Setting up pool2
I0331 14:31:52.307051  9021 net.cpp:226] Top shape: 100 32 8 8 (204800)
I0331 14:31:52.307082  9021 net.cpp:234] Memory required for data: 31540400
I0331 14:31:52.307122  9021 net.cpp:154] Setting up Layer of device :0 @cpu 12 Layer : norm2
I0331 14:31:52.307154  9021 layer_factory.hpp:114] Creating layer norm2
I0331 14:31:52.307206  9021 net.cpp:169] Creating Layer norm2
I0331 14:31:52.307240  9021 net.cpp:606] norm2 <- pool2
I0331 14:31:52.307281  9021 net.cpp:579] norm2 -> norm2
I0331 14:31:52.307312  9021 net.cpp:582] From AppendTop @cpu: 12
I0331 14:31:52.307469  9021 net.cpp:219] Setting up norm2
I0331 14:31:52.307517  9021 net.cpp:226] Top shape: 100 32 8 8 (204800)
I0331 14:31:52.307548  9021 net.cpp:234] Memory required for data: 32359600
I0331 14:31:52.307586  9021 net.cpp:154] Setting up Layer of device :0 @cpu 12 Layer : conv3
I0331 14:31:52.307617  9021 layer_factory.hpp:114] Creating layer conv3
I0331 14:31:52.307680  9021 net.cpp:169] Creating Layer conv3
I0331 14:31:52.307713  9021 net.cpp:606] conv3 <- norm2
I0331 14:31:52.307778  9021 net.cpp:579] conv3 -> conv3
I0331 14:31:52.307840  9021 net.cpp:582] From AppendTop @cpu: 12
I0331 14:31:52.318840  9021 net.cpp:219] Setting up conv3
I0331 14:31:52.318972  9021 net.cpp:226] Top shape: 100 64 8 8 (409600)
I0331 14:31:52.319015  9021 net.cpp:234] Memory required for data: 33998000
I0331 14:31:52.319128  9021 net.cpp:154] Setting up Layer of device :0 @cpu 12 Layer : relu3
I0331 14:31:52.319182  9021 layer_factory.hpp:114] Creating layer relu3
I0331 14:31:52.319242  9021 net.cpp:169] Creating Layer relu3
I0331 14:31:52.319284  9021 net.cpp:606] relu3 <- conv3
I0331 14:31:52.319334  9021 net.cpp:566] relu3 -> conv3 (in-place)
I0331 14:31:52.319391  9021 net.cpp:219] Setting up relu3
I0331 14:31:52.319439  9021 net.cpp:226] Top shape: 100 64 8 8 (409600)
I0331 14:31:52.319470  9021 net.cpp:234] Memory required for data: 35636400
I0331 14:31:52.319514  9021 net.cpp:154] Setting up Layer of device :0 @cpu 12 Layer : pool3
I0331 14:31:52.319546  9021 layer_factory.hpp:114] Creating layer pool3
I0331 14:31:52.319682  9021 net.cpp:169] Creating Layer pool3
I0331 14:31:52.319736  9021 net.cpp:606] pool3 <- conv3
I0331 14:31:52.319835  9021 net.cpp:579] pool3 -> pool3
I0331 14:31:52.319875  9021 net.cpp:582] From AppendTop @cpu: 12
I0331 14:31:52.319943  9021 net.cpp:219] Setting up pool3
I0331 14:31:52.319995  9021 net.cpp:226] Top shape: 100 64 4 4 (102400)
I0331 14:31:52.320027  9021 net.cpp:234] Memory required for data: 36046000
I0331 14:31:52.320075  9021 net.cpp:154] Setting up Layer of device :0 @cpu 12 Layer : ip1
I0331 14:31:52.320106  9021 layer_factory.hpp:114] Creating layer ip1
I0331 14:31:52.320184  9021 net.cpp:169] Creating Layer ip1
I0331 14:31:52.320226  9021 net.cpp:606] ip1 <- pool3
I0331 14:31:52.320277  9021 net.cpp:579] ip1 -> ip1
I0331 14:31:52.320309  9021 net.cpp:582] From AppendTop @cpu: 12
I0331 14:31:52.321146  9021 net.cpp:219] Setting up ip1
I0331 14:31:52.321233  9021 net.cpp:226] Top shape: 100 10 (1000)
I0331 14:31:52.321267  9021 net.cpp:234] Memory required for data: 36050000
I0331 14:31:52.321342  9021 net.cpp:154] Setting up Layer of device :0 @cpu 12 Layer : ip1_ip1_0_split
I0331 14:31:52.321377  9021 layer_factory.hpp:114] Creating layer ip1_ip1_0_split
I0331 14:31:52.321426  9021 net.cpp:169] Creating Layer ip1_ip1_0_split
I0331 14:31:52.321589  9021 net.cpp:606] ip1_ip1_0_split <- ip1
I0331 14:31:52.321671  9021 net.cpp:579] ip1_ip1_0_split -> ip1_ip1_0_split_0
I0331 14:31:52.321713  9021 net.cpp:582] From AppendTop @cpu: 12
I0331 14:31:52.321815  9021 net.cpp:579] ip1_ip1_0_split -> ip1_ip1_0_split_1
I0331 14:31:52.321853  9021 net.cpp:582] From AppendTop @cpu: 12
I0331 14:31:52.321910  9021 net.cpp:219] Setting up ip1_ip1_0_split
I0331 14:31:52.321959  9021 net.cpp:226] Top shape: 100 10 (1000)
I0331 14:31:52.321998  9021 net.cpp:226] Top shape: 100 10 (1000)
I0331 14:31:52.322028  9021 net.cpp:234] Memory required for data: 36058000
I0331 14:31:52.322073  9021 net.cpp:154] Setting up Layer of device :0 @cpu 12 Layer : accuracy
I0331 14:31:52.322105  9021 layer_factory.hpp:114] Creating layer accuracy
I0331 14:31:52.322163  9021 net.cpp:169] Creating Layer accuracy
I0331 14:31:52.322198  9021 net.cpp:606] accuracy <- ip1_ip1_0_split_0
I0331 14:31:52.322237  9021 net.cpp:606] accuracy <- label_cifar_1_split_0
…
