…
I0331 14:34:22.489239  9085 net.cpp:493] The NetState phase (0) differed from the phase (1) specified by a rule in layer accuracy
I0331 14:34:22.491281  9085 net.cpp:125] Initializing net from parameters: 
name: "CIFAR10_full"
state {
  phase: TRAIN
  level: 0
  stage: ""
}
layer {
  name: "cifar"
  type: "Data"
  top: "data"
  top: "label"
  include {
    phase: TRAIN
  }
  transform_param {
    mean_file: "examples/cifar10/mean.binaryproto"
  }
  data_param {
    source: "examples/cifar10/cifar10_train_lmdb"
    batch_size: 64
    backend: LMDB
  }
}
layer {
  name: "conv1"
  type: "Convolution"
  bottom: "data"
  top: "conv1"
  param {
    lr_mult: 1
  }
  param {
    lr_mult: 2
  }
  convolution_param {
    num_output: 32
    pad: 2
    kernel_size: 5
    stride: 1
    weight_filler {
      type: "gaussian"
      std: 0.0001
    }
    bias_filler {
      type: "constant"
    }
  }
}
layer {
  name: "pool1"
  type: "Pooling"
  bottom: "conv1"
  top: "pool1"
  pooling_param {
    pool: MAX
    kernel_size: 3
    stride: 2
  }
}
layer {
  name: "relu1"
  type: "ReLU"
  bottom: "pool1"
  top: "pool1"
}
layer {
  name: "norm1"
  type: "LRN"
  bottom: "pool1"
  top: "norm1"
  lrn_param {
    local_size: 3
    alpha: 5e-05
    beta: 0.75
    norm_region: WITHIN_CHANNEL
  }
}
layer {
  name: "conv2"
  type: "Convolution"
  bottom: "norm1"
  top: "conv2"
  param {
    lr_mult: 1
  }
  param {
    lr_mult: 2
  }
  convolution_param {
    num_output: 32
    pad: 2
    kernel_size: 5
    stride: 1
    weight_filler {
      type: "gaussian"
      std: 0.01
    }
    bias_filler {
      type: "constant"
    }
  }
}
layer {
  name: "relu2"
  type: "ReLU"
  bottom: "conv2"
  top: "conv2"
}
layer {
  name: "pool2"
  type: "Pooling"
  bottom: "conv2"
  top: "pool2"
  pooling_param {
    pool: AVE
    kernel_size: 3
    stride: 2
  }
}
layer {
  name: "norm2"
  type: "LRN"
  bottom: "pool2"
  top: "norm2"
  lrn_param {
    local_size: 3
    alpha: 5e-05
    beta: 0.75
    norm_region: WITHIN_CHANNEL
  }
}
layer {
  name: "conv3"
  type: "Convolution"
  bottom: "norm2"
  top: "conv3"
  convolution_param {
    num_output: 64
    pad: 2
    kernel_size: 5
    stride: 1
    weight_filler {
      type: "gaussian"
      std: 0.01
    }
    bias_filler {
      type: "constant"
    }
  }
}
layer {
  name: "relu3"
  type: "ReLU"
  bottom: "conv3"
  top: "conv3"
}
layer {
  name: "pool3"
  type: "Pooling"
  bottom: "conv3"
  top: "pool3"
  pooling_param {
    pool: AVE
    kernel_size: 3
    stride: 2
  }
}
layer {
  name: "ip1"
  type: "InnerProduct"
  bottom: "pool3"
  top: "ip1"
  param {
    lr_mult: 1
    decay_mult: 250
  }
  param {
    lr_mult: 2
    decay_mult: 0
  }
  inner_product_param {
    num_output: 10
    weight_filler {
      type: "gaussian"
      std: 0.01
    }
    bias_filler {
      type: "constant"
    }
  }
}
layer {
  name: "loss"
  type: "SoftmaxWithLoss"
  bottom: "ip1"
  bottom: "label"
  top: "loss"
}
I0331 14:34:22.491503  9085 net.cpp:154] Setting up Layer of device :0 @cpu 0 Layer : cifar
I0331 14:34:22.491554  9085 layer_factory.hpp:114] Creating layer cifar
I0331 14:34:22.493803  9085 net.cpp:169] Creating Layer cifar
I0331 14:34:22.493980  9085 net.cpp:579] cifar -> data
I0331 14:34:22.494016  9085 net.cpp:582] From AppendTop @cpu: 0
I0331 14:34:22.494396  9085 net.cpp:579] cifar -> label
I0331 14:34:22.494498  9085 net.cpp:582] From AppendTop @cpu: 0
I0331 14:34:22.494573  9085 data_transformer.cpp:62] Loading mean file from: examples/cifar10/mean.binaryproto
I0331 14:34:22.502909  9086 db_lmdb.cpp:72] Opened lmdb examples/cifar10/cifar10_train_lmdb
I0331 14:34:22.512713  9086 virtDev_device.cpp:369] found a CPU core 14 for Data Reader on device 0 thread ID 140518840420096
I0331 14:34:22.512836  9086 data_reader.cpp:128] inside DATAREADER 4
I0331 14:34:22.512996  9086 data_reader.cpp:139] NUMA DOMAIN 0
I0331 14:34:22.513273  9086 data_reader.cpp:139] NUMA DOMAIN 0
I0331 14:34:22.601701  9085 data_layer.cpp:80] output data size: 64,3,32,32
I0331 14:34:22.602710  9085 base_data_layer.cpp:96] Done cpu data
I0331 14:34:22.602907  9085 net.cpp:219] Setting up cifar
I0331 14:34:22.603016  9085 net.cpp:226] Top shape: 64 3 32 32 (196608)
I0331 14:34:22.603080  9085 net.cpp:226] Top shape: 64 (64)
I0331 14:34:22.603116  9085 net.cpp:234] Memory required for data: 786688
I0331 14:34:22.603179  9085 net.cpp:154] Setting up Layer of device :0 @cpu 3 Layer : conv1
I0331 14:34:22.603219  9085 layer_factory.hpp:114] Creating layer conv1
I0331 14:34:22.603348  9085 net.cpp:169] Creating Layer conv1
I0331 14:34:22.603420  9085 net.cpp:606] conv1 <- data
I0331 14:34:22.603487  9085 net.cpp:579] conv1 -> conv1
I0331 14:34:22.603526  9085 net.cpp:582] From AppendTop @cpu: 3
I0331 14:34:22.606482  9085 net.cpp:219] Setting up conv1
I0331 14:34:22.606611  9085 net.cpp:226] Top shape: 64 32 32 32 (2097152)
I0331 14:34:22.606653  9085 net.cpp:234] Memory required for data: 9175296
I0331 14:34:22.606827  9085 net.cpp:154] Setting up Layer of device :0 @cpu 3 Layer : pool1
I0331 14:34:22.606887  9085 layer_factory.hpp:114] Creating layer pool1
I0331 14:34:22.607144  9085 net.cpp:169] Creating Layer pool1
I0331 14:34:22.607225  9085 net.cpp:606] pool1 <- conv1
I0331 14:34:22.607290  9085 net.cpp:579] pool1 -> pool1
I0331 14:34:22.607324  9085 net.cpp:582] From AppendTop @cpu: 3
I0331 14:34:22.607420  9085 net.cpp:219] Setting up pool1
I0331 14:34:22.607499  9085 net.cpp:226] Top shape: 64 32 16 16 (524288)
I0331 14:34:22.607537  9085 net.cpp:234] Memory required for data: 11272448
I0331 14:34:22.607589  9085 net.cpp:154] Setting up Layer of device :0 @cpu 3 Layer : relu1
I0331 14:34:22.607623  9085 layer_factory.hpp:114] Creating layer relu1
I0331 14:34:22.607671  9085 net.cpp:169] Creating Layer relu1
I0331 14:34:22.607707  9085 net.cpp:606] relu1 <- pool1
I0331 14:34:22.607751  9085 net.cpp:566] relu1 -> pool1 (in-place)
I0331 14:34:22.607870  9085 net.cpp:219] Setting up relu1
I0331 14:34:22.607921  9085 net.cpp:226] Top shape: 64 32 16 16 (524288)
I0331 14:34:22.607954  9085 net.cpp:234] Memory required for data: 13369600
I0331 14:34:22.608001  9085 net.cpp:154] Setting up Layer of device :0 @cpu 3 Layer : norm1
I0331 14:34:22.608033  9085 layer_factory.hpp:114] Creating layer norm1
I0331 14:34:22.608111  9085 net.cpp:169] Creating Layer norm1
I0331 14:34:22.608150  9085 net.cpp:606] norm1 <- pool1
I0331 14:34:22.608211  9085 net.cpp:579] norm1 -> norm1
I0331 14:34:22.608245  9085 net.cpp:582] From AppendTop @cpu: 3
I0331 14:34:22.608505  9085 net.cpp:219] Setting up norm1
I0331 14:34:22.608585  9085 net.cpp:226] Top shape: 64 32 16 16 (524288)
I0331 14:34:22.608618  9085 net.cpp:234] Memory required for data: 15466752
I0331 14:34:22.608664  9085 net.cpp:154] Setting up Layer of device :0 @cpu 3 Layer : conv2
I0331 14:34:22.608863  9085 layer_factory.hpp:114] Creating layer conv2
I0331 14:34:22.608970  9085 net.cpp:169] Creating Layer conv2
I0331 14:34:22.609014  9085 net.cpp:606] conv2 <- norm1
I0331 14:34:22.609081  9085 net.cpp:579] conv2 -> conv2
I0331 14:34:22.609113  9085 net.cpp:582] From AppendTop @cpu: 3
I0331 14:34:22.619505  9085 net.cpp:219] Setting up conv2
I0331 14:34:22.619637  9085 net.cpp:226] Top shape: 64 32 16 16 (524288)
I0331 14:34:22.619689  9085 net.cpp:234] Memory required for data: 17563904
I0331 14:34:22.619855  9085 net.cpp:154] Setting up Layer of device :0 @cpu 3 Layer : relu2
I0331 14:34:22.619923  9085 layer_factory.hpp:114] Creating layer relu2
I0331 14:34:22.620013  9085 net.cpp:169] Creating Layer relu2
I0331 14:34:22.620069  9085 net.cpp:606] relu2 <- conv2
I0331 14:34:22.620126  9085 net.cpp:566] relu2 -> conv2 (in-place)
I0331 14:34:22.620195  9085 net.cpp:219] Setting up relu2
I0331 14:34:22.620250  9085 net.cpp:226] Top shape: 64 32 16 16 (524288)
I0331 14:34:22.620287  9085 net.cpp:234] Memory required for data: 19661056
I0331 14:34:22.620337  9085 net.cpp:154] Setting up Layer of device :0 @cpu 3 Layer : pool2
I0331 14:34:22.620375  9085 layer_factory.hpp:114] Creating layer pool2
I0331 14:34:22.620515  9085 net.cpp:169] Creating Layer pool2
I0331 14:34:22.620575  9085 net.cpp:606] pool2 <- conv2
I0331 14:34:22.620632  9085 net.cpp:579] pool2 -> pool2
I0331 14:34:22.620668  9085 net.cpp:582] From AppendTop @cpu: 3
I0331 14:34:22.620738  9085 net.cpp:219] Setting up pool2
I0331 14:34:22.620837  9085 net.cpp:226] Top shape: 64 32 8 8 (131072)
I0331 14:34:22.620877  9085 net.cpp:234] Memory required for data: 20185344
I0331 14:34:22.620926  9085 net.cpp:154] Setting up Layer of device :0 @cpu 3 Layer : norm2
I0331 14:34:22.620987  9085 layer_factory.hpp:114] Creating layer norm2
I0331 14:34:22.621069  9085 net.cpp:169] Creating Layer norm2
I0331 14:34:22.621111  9085 net.cpp:606] norm2 <- pool2
I0331 14:34:22.621163  9085 net.cpp:579] norm2 -> norm2
I0331 14:34:22.621196  9085 net.cpp:582] From AppendTop @cpu: 3
I0331 14:34:22.621436  9085 net.cpp:219] Setting up norm2
I0331 14:34:22.621517  9085 net.cpp:226] Top shape: 64 32 8 8 (131072)
I0331 14:34:22.621549  9085 net.cpp:234] Memory required for data: 20709632
I0331 14:34:22.621598  9085 net.cpp:154] Setting up Layer of device :0 @cpu 3 Layer : conv3
I0331 14:34:22.621629  9085 layer_factory.hpp:114] Creating layer conv3
I0331 14:34:22.621711  9085 net.cpp:169] Creating Layer conv3
I0331 14:34:22.621750  9085 net.cpp:606] conv3 <- norm2
I0331 14:34:22.621848  9085 net.cpp:579] conv3 -> conv3
I0331 14:34:22.621881  9085 net.cpp:582] From AppendTop @cpu: 3
I0331 14:34:22.631395  9085 net.cpp:219] Setting up conv3
I0331 14:34:22.631536  9085 net.cpp:226] Top shape: 64 64 8 8 (262144)
I0331 14:34:22.631590  9085 net.cpp:234] Memory required for data: 21758208
I0331 14:34:22.631706  9085 net.cpp:154] Setting up Layer of device :0 @cpu 3 Layer : relu3
I0331 14:34:22.631803  9085 layer_factory.hpp:114] Creating layer relu3
I0331 14:34:22.631880  9085 net.cpp:169] Creating Layer relu3
I0331 14:34:22.631923  9085 net.cpp:606] relu3 <- conv3
I0331 14:34:22.631975  9085 net.cpp:566] relu3 -> conv3 (in-place)
I0331 14:34:22.632038  9085 net.cpp:219] Setting up relu3
I0331 14:34:22.632092  9085 net.cpp:226] Top shape: 64 64 8 8 (262144)
I0331 14:34:22.632125  9085 net.cpp:234] Memory required for data: 22806784
I0331 14:34:22.632174  9085 net.cpp:154] Setting up Layer of device :0 @cpu 3 Layer : pool3
I0331 14:34:22.632208  9085 layer_factory.hpp:114] Creating layer pool3
I0331 14:34:22.632354  9085 net.cpp:169] Creating Layer pool3
I0331 14:34:22.632416  9085 net.cpp:606] pool3 <- conv3
I0331 14:34:22.632491  9085 net.cpp:579] pool3 -> pool3
I0331 14:34:22.632531  9085 net.cpp:582] From AppendTop @cpu: 3
I0331 14:34:22.632606  9085 net.cpp:219] Setting up pool3
I0331 14:34:22.632660  9085 net.cpp:226] Top shape: 64 64 4 4 (65536)
I0331 14:34:22.632692  9085 net.cpp:234] Memory required for data: 23068928
I0331 14:34:22.632937  9085 net.cpp:154] Setting up Layer of device :0 @cpu 3 Layer : ip1
I0331 14:34:22.632993  9085 layer_factory.hpp:114] Creating layer ip1
I0331 14:34:22.633069  9085 net.cpp:169] Creating Layer ip1
I0331 14:34:22.633111  9085 net.cpp:606] ip1 <- pool3
I0331 14:34:22.633163  9085 net.cpp:579] ip1 -> ip1
I0331 14:34:22.633194  9085 net.cpp:582] From AppendTop @cpu: 3
I0331 14:34:22.634100  9085 net.cpp:219] Setting up ip1
I0331 14:34:22.634197  9085 net.cpp:226] Top shape: 64 10 (640)
I0331 14:34:22.634232  9085 net.cpp:234] Memory required for data: 23071488
I0331 14:34:22.634310  9085 net.cpp:154] Setting up Layer of device :0 @cpu 3 Layer : loss
I0331 14:34:22.634346  9085 layer_factory.hpp:114] Creating layer loss
I0331 14:34:22.634412  9085 net.cpp:169] Creating Layer loss
I0331 14:34:22.634449  9085 net.cpp:606] loss <- ip1
I0331 14:34:22.634491  9085 net.cpp:606] loss <- label
…
I0331 14:34:22.640652  9085 cpu_info.cpp:473] Number of OpenMP threads: 16
I0331 14:34:22.640805  9085 net.cpp:493] The NetState phase (1) differed from the phase (0) specified by a rule in layer cifar
I0331 14:34:22.643076  9085 net.cpp:125] Initializing net from parameters: 
name: "CIFAR10_full"
state {
  phase: TEST
}
layer {
  name: "cifar"
  type: "Data"
  top: "data"
  top: "label"
  include {
    phase: TEST
  }
  transform_param {
    mean_file: "examples/cifar10/mean.binaryproto"
  }
  data_param {
    source: "examples/cifar10/cifar10_test_lmdb"
    batch_size: 100
    backend: LMDB
  }
}
layer {
  name: "label_cifar_1_split"
  type: "Split"
  bottom: "label"
  top: "label_cifar_1_split_0"
  top: "label_cifar_1_split_1"
}
layer {
  name: "conv1"
  type: "Convolution"
  bottom: "data"
  top: "conv1"
  param {
    lr_mult: 1
  }
  param {
    lr_mult: 2
  }
  convolution_param {
    num_output: 32
    pad: 2
    kernel_size: 5
    stride: 1
    weight_filler {
      type: "gaussian"
      std: 0.0001
    }
    bias_filler {
      type: "constant"
    }
  }
}
layer {
  name: "pool1"
  type: "Pooling"
  bottom: "conv1"
  top: "pool1"
  pooling_param {
    pool: MAX
    kernel_size: 3
    stride: 2
  }
}
layer {
  name: "relu1"
  type: "ReLU"
  bottom: "pool1"
  top: "pool1"
}
layer {
  name: "norm1"
  type: "LRN"
  bottom: "pool1"
  top: "norm1"
  lrn_param {
    local_size: 3
    alpha: 5e-05
    beta: 0.75
    norm_region: WITHIN_CHANNEL
  }
}
layer {
  name: "conv2"
  type: "Convolution"
  bottom: "norm1"
  top: "conv2"
  param {
    lr_mult: 1
  }
  param {
    lr_mult: 2
  }
  convolution_param {
    num_output: 32
    pad: 2
    kernel_size: 5
    stride: 1
    weight_filler {
      type: "gaussian"
      std: 0.01
    }
    bias_filler {
      type: "constant"
    }
  }
}
layer {
  name: "relu2"
  type: "ReLU"
  bottom: "conv2"
  top: "conv2"
}
layer {
  name: "pool2"
  type: "Pooling"
  bottom: "conv2"
  top: "pool2"
  pooling_param {
    pool: AVE
    kernel_size: 3
    stride: 2
  }
}
layer {
  name: "norm2"
  type: "LRN"
  bottom: "pool2"
  top: "norm2"
  lrn_param {
    local_size: 3
    alpha: 5e-05
    beta: 0.75
    norm_region: WITHIN_CHANNEL
  }
}
layer {
  name: "conv3"
  type: "Convolution"
  bottom: "norm2"
  top: "conv3"
  convolution_param {
    num_output: 64
    pad: 2
    kernel_size: 5
    stride: 1
    weight_filler {
      type: "gaussian"
      std: 0.01
    }
    bias_filler {
      type: "constant"
    }
  }
}
layer {
  name: "relu3"
  type: "ReLU"
  bottom: "conv3"
  top: "conv3"
}
layer {
  name: "pool3"
  type: "Pooling"
  bottom: "conv3"
  top: "pool3"
  pooling_param {
    pool: AVE
    kernel_size: 3
    stride: 2
  }
}
layer {
  name: "ip1"
  type: "InnerProduct"
  bottom: "pool3"
  top: "ip1"
  param {
    lr_mult: 1
    decay_mult: 250
  }
  param {
    lr_mult: 2
    decay_mult: 0
  }
  inner_product_param {
    num_output: 10
    weight_filler {
      type: "gaussian"
      std: 0.01
    }
    bias_filler {
      type: "constant"
    }
  }
}
layer {
  name: "ip1_ip1_0_split"
  type: "Split"
  bottom: "ip1"
  top: "ip1_ip1_0_split_0"
  top: "ip1_ip1_0_split_1"
}
layer {
  name: "accuracy"
  type: "Accuracy"
  bottom: "ip1_ip1_0_split_0"
  bottom: "label_cifar_1_split_0"
  top: "accuracy"
  include {
    phase: TEST
  }
}
layer {
  name: "loss"
  type: "SoftmaxWithLoss"
  bottom: "ip1_ip1_0_split_1"
  bottom: "label_cifar_1_split_1"
  top: "loss"
}
I0331 14:34:22.643296  9085 net.cpp:154] Setting up Layer of device :0 @cpu 2 Layer : cifar
I0331 14:34:22.643334  9085 layer_factory.hpp:114] Creating layer cifar
I0331 14:34:22.643872  9085 net.cpp:169] Creating Layer cifar
I0331 14:34:22.643929  9085 net.cpp:579] cifar -> data
I0331 14:34:22.643961  9085 net.cpp:582] From AppendTop @cpu: 2
I0331 14:34:22.644050  9085 net.cpp:579] cifar -> label
I0331 14:34:22.644083  9085 net.cpp:582] From AppendTop @cpu: 2
I0331 14:34:22.644140  9085 data_transformer.cpp:62] Loading mean file from: examples/cifar10/mean.binaryproto
I0331 14:34:22.653110  9087 db_lmdb.cpp:72] Opened lmdb examples/cifar10/cifar10_test_lmdb
I0331 14:34:22.654948  9087 virtDev_device.cpp:369] found a CPU core 12 for Data Reader on device 0 thread ID 140518365902592
I0331 14:34:22.655043  9087 data_reader.cpp:128] inside DATAREADER 1
I0331 14:34:22.655202  9087 data_reader.cpp:139] NUMA DOMAIN 0
I0331 14:34:22.655519  9085 data_layer.cpp:80] output data size: 100,3,32,32
I0331 14:34:22.658504  9085 base_data_layer.cpp:96] Done cpu data
I0331 14:34:22.658608  9085 net.cpp:219] Setting up cifar
I0331 14:34:22.658665  9085 net.cpp:226] Top shape: 100 3 32 32 (307200)
I0331 14:34:22.658710  9085 net.cpp:226] Top shape: 100 (100)
I0331 14:34:22.658743  9085 net.cpp:234] Memory required for data: 1229200
I0331 14:34:22.658846  9085 net.cpp:154] Setting up Layer of device :0 @cpu 12 Layer : label_cifar_1_split
I0331 14:34:22.658881  9085 layer_factory.hpp:114] Creating layer label_cifar_1_split
I0331 14:34:22.659034  9085 net.cpp:169] Creating Layer label_cifar_1_split
I0331 14:34:22.659075  9085 net.cpp:606] label_cifar_1_split <- label
I0331 14:34:22.659124  9085 net.cpp:579] label_cifar_1_split -> label_cifar_1_split_0
I0331 14:34:22.659157  9085 net.cpp:582] From AppendTop @cpu: 12
I0331 14:34:22.659214  9085 net.cpp:579] label_cifar_1_split -> label_cifar_1_split_1
I0331 14:34:22.659245  9085 net.cpp:582] From AppendTop @cpu: 12
I0331 14:34:22.659297  9085 net.cpp:219] Setting up label_cifar_1_split
I0331 14:34:22.659342  9085 net.cpp:226] Top shape: 100 (100)
I0331 14:34:22.659381  9085 net.cpp:226] Top shape: 100 (100)
I0331 14:34:22.659413  9085 net.cpp:234] Memory required for data: 1230000
I0331 14:34:22.659454  9085 net.cpp:154] Setting up Layer of device :0 @cpu 12 Layer : conv1
I0331 14:34:22.659487  9085 layer_factory.hpp:114] Creating layer conv1
I0331 14:34:22.659543  9085 net.cpp:169] Creating Layer conv1
I0331 14:34:22.659577  9085 net.cpp:606] conv1 <- data
I0331 14:34:22.659623  9085 net.cpp:579] conv1 -> conv1
I0331 14:34:22.659656  9085 net.cpp:582] From AppendTop @cpu: 12
I0331 14:34:22.666393  9085 net.cpp:219] Setting up conv1
I0331 14:34:22.666519  9085 net.cpp:226] Top shape: 100 32 32 32 (3276800)
I0331 14:34:22.666553  9085 net.cpp:234] Memory required for data: 14337200
I0331 14:34:22.666652  9085 net.cpp:154] Setting up Layer of device :0 @cpu 12 Layer : pool1
I0331 14:34:22.666687  9085 layer_factory.hpp:114] Creating layer pool1
I0331 14:34:22.667043  9085 net.cpp:169] Creating Layer pool1
I0331 14:34:22.667083  9085 net.cpp:606] pool1 <- conv1
I0331 14:34:22.667135  9085 net.cpp:579] pool1 -> pool1
I0331 14:34:22.667178  9085 net.cpp:582] From AppendTop @cpu: 12
I0331 14:34:22.667251  9085 net.cpp:219] Setting up pool1
I0331 14:34:22.667313  9085 net.cpp:226] Top shape: 100 32 16 16 (819200)
I0331 14:34:22.667346  9085 net.cpp:234] Memory required for data: 17614000
I0331 14:34:22.667387  9085 net.cpp:154] Setting up Layer of device :0 @cpu 12 Layer : relu1
I0331 14:34:22.667419  9085 layer_factory.hpp:114] Creating layer relu1
I0331 14:34:22.667464  9085 net.cpp:169] Creating Layer relu1
I0331 14:34:22.667496  9085 net.cpp:606] relu1 <- pool1
I0331 14:34:22.667546  9085 net.cpp:566] relu1 -> pool1 (in-place)
I0331 14:34:22.667593  9085 net.cpp:219] Setting up relu1
I0331 14:34:22.667634  9085 net.cpp:226] Top shape: 100 32 16 16 (819200)
I0331 14:34:22.667665  9085 net.cpp:234] Memory required for data: 20890800
I0331 14:34:22.667704  9085 net.cpp:154] Setting up Layer of device :0 @cpu 12 Layer : norm1
I0331 14:34:22.667737  9085 layer_factory.hpp:114] Creating layer norm1
I0331 14:34:22.667809  9085 net.cpp:169] Creating Layer norm1
I0331 14:34:22.667843  9085 net.cpp:606] norm1 <- pool1
I0331 14:34:22.667886  9085 net.cpp:579] norm1 -> norm1
I0331 14:34:22.667919  9085 net.cpp:582] From AppendTop @cpu: 12
I0331 14:34:22.668285  9085 net.cpp:219] Setting up norm1
I0331 14:34:22.668335  9085 net.cpp:226] Top shape: 100 32 16 16 (819200)
I0331 14:34:22.668367  9085 net.cpp:234] Memory required for data: 24167600
I0331 14:34:22.668408  9085 net.cpp:154] Setting up Layer of device :0 @cpu 12 Layer : conv2
I0331 14:34:22.668440  9085 layer_factory.hpp:114] Creating layer conv2
I0331 14:34:22.668507  9085 net.cpp:169] Creating Layer conv2
I0331 14:34:22.668542  9085 net.cpp:606] conv2 <- norm1
I0331 14:34:22.668596  9085 net.cpp:579] conv2 -> conv2
I0331 14:34:22.668629  9085 net.cpp:582] From AppendTop @cpu: 12
I0331 14:34:22.679077  9085 net.cpp:219] Setting up conv2
I0331 14:34:22.679198  9085 net.cpp:226] Top shape: 100 32 16 16 (819200)
I0331 14:34:22.679231  9085 net.cpp:234] Memory required for data: 27444400
I0331 14:34:22.679327  9085 net.cpp:154] Setting up Layer of device :0 @cpu 12 Layer : relu2
I0331 14:34:22.679363  9085 layer_factory.hpp:114] Creating layer relu2
I0331 14:34:22.679415  9085 net.cpp:169] Creating Layer relu2
I0331 14:34:22.679450  9085 net.cpp:606] relu2 <- conv2
I0331 14:34:22.679494  9085 net.cpp:566] relu2 -> conv2 (in-place)
I0331 14:34:22.679658  9085 net.cpp:219] Setting up relu2
I0331 14:34:22.679705  9085 net.cpp:226] Top shape: 100 32 16 16 (819200)
I0331 14:34:22.679741  9085 net.cpp:234] Memory required for data: 30721200
I0331 14:34:22.679821  9085 net.cpp:154] Setting up Layer of device :0 @cpu 12 Layer : pool2
I0331 14:34:22.679855  9085 layer_factory.hpp:114] Creating layer pool2
I0331 14:34:22.680002  9085 net.cpp:169] Creating Layer pool2
I0331 14:34:22.680042  9085 net.cpp:606] pool2 <- conv2
I0331 14:34:22.680097  9085 net.cpp:579] pool2 -> pool2
I0331 14:34:22.680130  9085 net.cpp:582] From AppendTop @cpu: 12
I0331 14:34:22.680194  9085 net.cpp:219] Setting up pool2
I0331 14:34:22.680243  9085 net.cpp:226] Top shape: 100 32 8 8 (204800)
I0331 14:34:22.680274  9085 net.cpp:234] Memory required for data: 31540400
I0331 14:34:22.680316  9085 net.cpp:154] Setting up Layer of device :0 @cpu 12 Layer : norm2
I0331 14:34:22.680347  9085 layer_factory.hpp:114] Creating layer norm2
I0331 14:34:22.680392  9085 net.cpp:169] Creating Layer norm2
I0331 14:34:22.680425  9085 net.cpp:606] norm2 <- pool2
I0331 14:34:22.680469  9085 net.cpp:579] norm2 -> norm2
I0331 14:34:22.680500  9085 net.cpp:582] From AppendTop @cpu: 12
I0331 14:34:22.680677  9085 net.cpp:219] Setting up norm2
I0331 14:34:22.680742  9085 net.cpp:226] Top shape: 100 32 8 8 (204800)
I0331 14:34:22.680805  9085 net.cpp:234] Memory required for data: 32359600
I0331 14:34:22.680848  9085 net.cpp:154] Setting up Layer of device :0 @cpu 12 Layer : conv3
I0331 14:34:22.680881  9085 layer_factory.hpp:114] Creating layer conv3
I0331 14:34:22.680938  9085 net.cpp:169] Creating Layer conv3
I0331 14:34:22.680972  9085 net.cpp:606] conv3 <- norm2
I0331 14:34:22.681030  9085 net.cpp:579] conv3 -> conv3
I0331 14:34:22.681062  9085 net.cpp:582] From AppendTop @cpu: 12
I0331 14:34:22.690448  9085 net.cpp:219] Setting up conv3
I0331 14:34:22.690579  9085 net.cpp:226] Top shape: 100 64 8 8 (409600)
I0331 14:34:22.690621  9085 net.cpp:234] Memory required for data: 33998000
I0331 14:34:22.690732  9085 net.cpp:154] Setting up Layer of device :0 @cpu 12 Layer : relu3
I0331 14:34:22.690822  9085 layer_factory.hpp:114] Creating layer relu3
I0331 14:34:22.690886  9085 net.cpp:169] Creating Layer relu3
I0331 14:34:22.690927  9085 net.cpp:606] relu3 <- conv3
I0331 14:34:22.691000  9085 net.cpp:566] relu3 -> conv3 (in-place)
I0331 14:34:22.691071  9085 net.cpp:219] Setting up relu3
I0331 14:34:22.691119  9085 net.cpp:226] Top shape: 100 64 8 8 (409600)
I0331 14:34:22.691151  9085 net.cpp:234] Memory required for data: 35636400
I0331 14:34:22.691197  9085 net.cpp:154] Setting up Layer of device :0 @cpu 12 Layer : pool3
I0331 14:34:22.691229  9085 layer_factory.hpp:114] Creating layer pool3
I0331 14:34:22.691365  9085 net.cpp:169] Creating Layer pool3
I0331 14:34:22.691416  9085 net.cpp:606] pool3 <- conv3
I0331 14:34:22.691469  9085 net.cpp:579] pool3 -> pool3
I0331 14:34:22.691504  9085 net.cpp:582] From AppendTop @cpu: 12
I0331 14:34:22.691568  9085 net.cpp:219] Setting up pool3
I0331 14:34:22.691617  9085 net.cpp:226] Top shape: 100 64 4 4 (102400)
I0331 14:34:22.691648  9085 net.cpp:234] Memory required for data: 36046000
I0331 14:34:22.691692  9085 net.cpp:154] Setting up Layer of device :0 @cpu 12 Layer : ip1
I0331 14:34:22.691725  9085 layer_factory.hpp:114] Creating layer ip1
I0331 14:34:22.691820  9085 net.cpp:169] Creating Layer ip1
I0331 14:34:22.691874  9085 net.cpp:606] ip1 <- pool3
I0331 14:34:22.691927  9085 net.cpp:579] ip1 -> ip1
I0331 14:34:22.691961  9085 net.cpp:582] From AppendTop @cpu: 12
I0331 14:34:22.692795  9085 net.cpp:219] Setting up ip1
I0331 14:34:22.692879  9085 net.cpp:226] Top shape: 100 10 (1000)
I0331 14:34:22.692914  9085 net.cpp:234] Memory required for data: 36050000
I0331 14:34:22.692991  9085 net.cpp:154] Setting up Layer of device :0 @cpu 12 Layer : ip1_ip1_0_split
I0331 14:34:22.693024  9085 layer_factory.hpp:114] Creating layer ip1_ip1_0_split
I0331 14:34:22.693075  9085 net.cpp:169] Creating Layer ip1_ip1_0_split
I0331 14:34:22.693110  9085 net.cpp:606] ip1_ip1_0_split <- ip1
I0331 14:34:22.693280  9085 net.cpp:579] ip1_ip1_0_split -> ip1_ip1_0_split_0
I0331 14:34:22.693326  9085 net.cpp:582] From AppendTop @cpu: 12
I0331 14:34:22.693388  9085 net.cpp:579] ip1_ip1_0_split -> ip1_ip1_0_split_1
I0331 14:34:22.693420  9085 net.cpp:582] From AppendTop @cpu: 12
I0331 14:34:22.693475  9085 net.cpp:219] Setting up ip1_ip1_0_split
I0331 14:34:22.693523  9085 net.cpp:226] Top shape: 100 10 (1000)
I0331 14:34:22.693562  9085 net.cpp:226] Top shape: 100 10 (1000)
I0331 14:34:22.693593  9085 net.cpp:234] Memory required for data: 36058000
I0331 14:34:22.693637  9085 net.cpp:154] Setting up Layer of device :0 @cpu 12 Layer : accuracy
I0331 14:34:22.693670  9085 layer_factory.hpp:114] Creating layer accuracy
I0331 14:34:22.693732  9085 net.cpp:169] Creating Layer accuracy
I0331 14:34:22.693802  9085 net.cpp:606] accuracy <- ip1_ip1_0_split_0
I0331 14:34:22.693845  9085 net.cpp:606] accuracy <- label_cifar_1_split_0
…
