…
I0331 14:27:39.381875  8865 net.cpp:493] The NetState phase (0) differed from the phase (1) specified by a rule in layer accuracy
I0331 14:27:39.383895  8865 net.cpp:125] Initializing net from parameters: 
name: "CIFAR10_full"
state {
  phase: TRAIN
  level: 0
  stage: ""
}
layer {
  name: "cifar"
  type: "Data"
  top: "data"
  top: "label"
  include {
    phase: TRAIN
  }
  transform_param {
    mean_file: "examples/cifar10/mean.binaryproto"
  }
  data_param {
    source: "examples/cifar10/cifar10_train_lmdb"
    batch_size: 256
    backend: LMDB
  }
}
layer {
  name: "conv1"
  type: "Convolution"
  bottom: "data"
  top: "conv1"
  param {
    lr_mult: 1
  }
  param {
    lr_mult: 2
  }
  convolution_param {
    num_output: 32
    pad: 2
    kernel_size: 5
    stride: 1
    weight_filler {
      type: "gaussian"
      std: 0.0001
    }
    bias_filler {
      type: "constant"
    }
  }
}
layer {
  name: "pool1"
  type: "Pooling"
  bottom: "conv1"
  top: "pool1"
  pooling_param {
    pool: MAX
    kernel_size: 3
    stride: 2
  }
}
layer {
  name: "relu1"
  type: "ReLU"
  bottom: "pool1"
  top: "pool1"
}
layer {
  name: "norm1"
  type: "LRN"
  bottom: "pool1"
  top: "norm1"
  lrn_param {
    local_size: 3
    alpha: 5e-05
    beta: 0.75
    norm_region: WITHIN_CHANNEL
  }
}
layer {
  name: "conv2"
  type: "Convolution"
  bottom: "norm1"
  top: "conv2"
  param {
    lr_mult: 1
  }
  param {
    lr_mult: 2
  }
  convolution_param {
    num_output: 32
    pad: 2
    kernel_size: 5
    stride: 1
    weight_filler {
      type: "gaussian"
      std: 0.01
    }
    bias_filler {
      type: "constant"
    }
  }
}
layer {
  name: "relu2"
  type: "ReLU"
  bottom: "conv2"
  top: "conv2"
}
layer {
  name: "pool2"
  type: "Pooling"
  bottom: "conv2"
  top: "pool2"
  pooling_param {
    pool: AVE
    kernel_size: 3
    stride: 2
  }
}
layer {
  name: "norm2"
  type: "LRN"
  bottom: "pool2"
  top: "norm2"
  lrn_param {
    local_size: 3
    alpha: 5e-05
    beta: 0.75
    norm_region: WITHIN_CHANNEL
  }
}
layer {
  name: "conv3"
  type: "Convolution"
  bottom: "norm2"
  top: "conv3"
  convolution_param {
    num_output: 64
    pad: 2
    kernel_size: 5
    stride: 1
    weight_filler {
      type: "gaussian"
      std: 0.01
    }
    bias_filler {
      type: "constant"
    }
  }
}
layer {
  name: "relu3"
  type: "ReLU"
  bottom: "conv3"
  top: "conv3"
}
layer {
  name: "pool3"
  type: "Pooling"
  bottom: "conv3"
  top: "pool3"
  pooling_param {
    pool: AVE
    kernel_size: 3
    stride: 2
  }
}
layer {
  name: "ip1"
  type: "InnerProduct"
  bottom: "pool3"
  top: "ip1"
  param {
    lr_mult: 1
    decay_mult: 250
  }
  param {
    lr_mult: 2
    decay_mult: 0
  }
  inner_product_param {
    num_output: 10
    weight_filler {
      type: "gaussian"
      std: 0.01
    }
    bias_filler {
      type: "constant"
    }
  }
}
layer {
  name: "loss"
  type: "SoftmaxWithLoss"
  bottom: "ip1"
  bottom: "label"
  top: "loss"
}
I0331 14:27:39.384133  8865 net.cpp:154] Setting up Layer of device :0 @cpu 0 Layer : cifar
I0331 14:27:39.384182  8865 layer_factory.hpp:114] Creating layer cifar
I0331 14:27:39.386781  8865 net.cpp:169] Creating Layer cifar
I0331 14:27:39.386888  8865 net.cpp:579] cifar -> data
I0331 14:27:39.386924  8865 net.cpp:582] From AppendTop @cpu: 0
I0331 14:27:39.387009  8865 net.cpp:579] cifar -> label
I0331 14:27:39.387042  8865 net.cpp:582] From AppendTop @cpu: 0
I0331 14:27:39.387105  8865 data_transformer.cpp:62] Loading mean file from: examples/cifar10/mean.binaryproto
I0331 14:27:39.394469  8866 db_lmdb.cpp:72] Opened lmdb examples/cifar10/cifar10_train_lmdb
I0331 14:27:39.395998  8866 virtDev_device.cpp:369] found a CPU core 14 for Data Reader on device 0 thread ID 140242548864768
I0331 14:27:39.396088  8866 data_reader.cpp:128] inside DATAREADER 1
I0331 14:27:39.396133  8866 data_reader.cpp:139] NUMA DOMAIN 0
I0331 14:27:39.503729  8865 data_layer.cpp:80] output data size: 256,3,32,32
I0331 14:27:39.507737  8865 base_data_layer.cpp:96] Done cpu data
I0331 14:27:39.507921  8865 net.cpp:219] Setting up cifar
I0331 14:27:39.508016  8865 net.cpp:226] Top shape: 256 3 32 32 (786432)
I0331 14:27:39.508077  8865 net.cpp:226] Top shape: 256 (256)
I0331 14:27:39.508116  8865 net.cpp:234] Memory required for data: 3146752
I0331 14:27:39.508183  8865 net.cpp:154] Setting up Layer of device :0 @cpu 14 Layer : conv1
I0331 14:27:39.508224  8865 layer_factory.hpp:114] Creating layer conv1
I0331 14:27:39.508322  8865 net.cpp:169] Creating Layer conv1
I0331 14:27:39.508409  8865 net.cpp:606] conv1 <- data
I0331 14:27:39.508479  8865 net.cpp:579] conv1 -> conv1
I0331 14:27:39.508518  8865 net.cpp:582] From AppendTop @cpu: 14
I0331 14:27:39.511648  8865 net.cpp:219] Setting up conv1
I0331 14:27:39.511835  8865 net.cpp:226] Top shape: 256 32 32 32 (8388608)
I0331 14:27:39.511890  8865 net.cpp:234] Memory required for data: 36701184
I0331 14:27:39.512023  8865 net.cpp:154] Setting up Layer of device :0 @cpu 14 Layer : pool1
I0331 14:27:39.512071  8865 layer_factory.hpp:114] Creating layer pool1
I0331 14:27:39.512307  8865 net.cpp:169] Creating Layer pool1
I0331 14:27:39.512385  8865 net.cpp:606] pool1 <- conv1
I0331 14:27:39.512446  8865 net.cpp:579] pool1 -> pool1
I0331 14:27:39.512483  8865 net.cpp:582] From AppendTop @cpu: 14
I0331 14:27:39.512599  8865 net.cpp:219] Setting up pool1
I0331 14:27:39.512676  8865 net.cpp:226] Top shape: 256 32 16 16 (2097152)
I0331 14:27:39.512711  8865 net.cpp:234] Memory required for data: 45089792
I0331 14:27:39.512804  8865 net.cpp:154] Setting up Layer of device :0 @cpu 14 Layer : relu1
I0331 14:27:39.512847  8865 layer_factory.hpp:114] Creating layer relu1
I0331 14:27:39.512923  8865 net.cpp:169] Creating Layer relu1
I0331 14:27:39.512967  8865 net.cpp:606] relu1 <- pool1
I0331 14:27:39.513020  8865 net.cpp:566] relu1 -> pool1 (in-place)
I0331 14:27:39.513087  8865 net.cpp:219] Setting up relu1
I0331 14:27:39.513134  8865 net.cpp:226] Top shape: 256 32 16 16 (2097152)
I0331 14:27:39.513165  8865 net.cpp:234] Memory required for data: 53478400
I0331 14:27:39.513211  8865 net.cpp:154] Setting up Layer of device :0 @cpu 14 Layer : norm1
I0331 14:27:39.513243  8865 layer_factory.hpp:114] Creating layer norm1
I0331 14:27:39.513317  8865 net.cpp:169] Creating Layer norm1
I0331 14:27:39.513356  8865 net.cpp:606] norm1 <- pool1
I0331 14:27:39.513402  8865 net.cpp:579] norm1 -> norm1
I0331 14:27:39.513435  8865 net.cpp:582] From AppendTop @cpu: 14
I0331 14:27:39.513696  8865 net.cpp:219] Setting up norm1
I0331 14:27:39.513839  8865 net.cpp:226] Top shape: 256 32 16 16 (2097152)
I0331 14:27:39.513880  8865 net.cpp:234] Memory required for data: 61867008
I0331 14:27:39.513931  8865 net.cpp:154] Setting up Layer of device :0 @cpu 14 Layer : conv2
I0331 14:27:39.514070  8865 layer_factory.hpp:114] Creating layer conv2
I0331 14:27:39.514153  8865 net.cpp:169] Creating Layer conv2
I0331 14:27:39.514196  8865 net.cpp:606] conv2 <- norm1
I0331 14:27:39.514269  8865 net.cpp:579] conv2 -> conv2
I0331 14:27:39.514305  8865 net.cpp:582] From AppendTop @cpu: 14
I0331 14:27:39.525022  8865 net.cpp:219] Setting up conv2
I0331 14:27:39.525156  8865 net.cpp:226] Top shape: 256 32 16 16 (2097152)
I0331 14:27:39.525205  8865 net.cpp:234] Memory required for data: 70255616
I0331 14:27:39.525315  8865 net.cpp:154] Setting up Layer of device :0 @cpu 14 Layer : relu2
I0331 14:27:39.525367  8865 layer_factory.hpp:114] Creating layer relu2
I0331 14:27:39.525427  8865 net.cpp:169] Creating Layer relu2
I0331 14:27:39.525467  8865 net.cpp:606] relu2 <- conv2
I0331 14:27:39.525547  8865 net.cpp:566] relu2 -> conv2 (in-place)
I0331 14:27:39.525624  8865 net.cpp:219] Setting up relu2
I0331 14:27:39.525678  8865 net.cpp:226] Top shape: 256 32 16 16 (2097152)
I0331 14:27:39.525712  8865 net.cpp:234] Memory required for data: 78644224
I0331 14:27:39.525804  8865 net.cpp:154] Setting up Layer of device :0 @cpu 14 Layer : pool2
I0331 14:27:39.525851  8865 layer_factory.hpp:114] Creating layer pool2
I0331 14:27:39.526005  8865 net.cpp:169] Creating Layer pool2
I0331 14:27:39.526067  8865 net.cpp:606] pool2 <- conv2
I0331 14:27:39.526124  8865 net.cpp:579] pool2 -> pool2
I0331 14:27:39.526159  8865 net.cpp:582] From AppendTop @cpu: 14
I0331 14:27:39.526228  8865 net.cpp:219] Setting up pool2
I0331 14:27:39.526283  8865 net.cpp:226] Top shape: 256 32 8 8 (524288)
I0331 14:27:39.526315  8865 net.cpp:234] Memory required for data: 80741376
I0331 14:27:39.526365  8865 net.cpp:154] Setting up Layer of device :0 @cpu 14 Layer : norm2
I0331 14:27:39.526398  8865 layer_factory.hpp:114] Creating layer norm2
I0331 14:27:39.526482  8865 net.cpp:169] Creating Layer norm2
I0331 14:27:39.526525  8865 net.cpp:606] norm2 <- pool2
I0331 14:27:39.526573  8865 net.cpp:579] norm2 -> norm2
I0331 14:27:39.526607  8865 net.cpp:582] From AppendTop @cpu: 14
I0331 14:27:39.526909  8865 net.cpp:219] Setting up norm2
I0331 14:27:39.527016  8865 net.cpp:226] Top shape: 256 32 8 8 (524288)
I0331 14:27:39.527051  8865 net.cpp:234] Memory required for data: 82838528
I0331 14:27:39.527102  8865 net.cpp:154] Setting up Layer of device :0 @cpu 14 Layer : conv3
I0331 14:27:39.527137  8865 layer_factory.hpp:114] Creating layer conv3
I0331 14:27:39.527204  8865 net.cpp:169] Creating Layer conv3
I0331 14:27:39.527241  8865 net.cpp:606] conv3 <- norm2
I0331 14:27:39.527307  8865 net.cpp:579] conv3 -> conv3
I0331 14:27:39.527341  8865 net.cpp:582] From AppendTop @cpu: 14
I0331 14:27:39.536995  8865 net.cpp:219] Setting up conv3
I0331 14:27:39.537134  8865 net.cpp:226] Top shape: 256 64 8 8 (1048576)
I0331 14:27:39.537186  8865 net.cpp:234] Memory required for data: 87032832
I0331 14:27:39.537303  8865 net.cpp:154] Setting up Layer of device :0 @cpu 14 Layer : relu3
I0331 14:27:39.537358  8865 layer_factory.hpp:114] Creating layer relu3
I0331 14:27:39.537420  8865 net.cpp:169] Creating Layer relu3
I0331 14:27:39.537464  8865 net.cpp:606] relu3 <- conv3
I0331 14:27:39.537544  8865 net.cpp:566] relu3 -> conv3 (in-place)
I0331 14:27:39.537621  8865 net.cpp:219] Setting up relu3
I0331 14:27:39.537678  8865 net.cpp:226] Top shape: 256 64 8 8 (1048576)
I0331 14:27:39.537710  8865 net.cpp:234] Memory required for data: 91227136
I0331 14:27:39.537801  8865 net.cpp:154] Setting up Layer of device :0 @cpu 14 Layer : pool3
I0331 14:27:39.537848  8865 layer_factory.hpp:114] Creating layer pool3
I0331 14:27:39.537997  8865 net.cpp:169] Creating Layer pool3
I0331 14:27:39.538060  8865 net.cpp:606] pool3 <- conv3
I0331 14:27:39.538118  8865 net.cpp:579] pool3 -> pool3
I0331 14:27:39.538152  8865 net.cpp:582] From AppendTop @cpu: 14
I0331 14:27:39.538223  8865 net.cpp:219] Setting up pool3
I0331 14:27:39.538278  8865 net.cpp:226] Top shape: 256 64 4 4 (262144)
I0331 14:27:39.538312  8865 net.cpp:234] Memory required for data: 92275712
I0331 14:27:39.538362  8865 net.cpp:154] Setting up Layer of device :0 @cpu 14 Layer : ip1
I0331 14:27:39.538521  8865 layer_factory.hpp:114] Creating layer ip1
I0331 14:27:39.538600  8865 net.cpp:169] Creating Layer ip1
I0331 14:27:39.538645  8865 net.cpp:606] ip1 <- pool3
I0331 14:27:39.538722  8865 net.cpp:579] ip1 -> ip1
I0331 14:27:39.538800  8865 net.cpp:582] From AppendTop @cpu: 14
I0331 14:27:39.539644  8865 net.cpp:219] Setting up ip1
I0331 14:27:39.539734  8865 net.cpp:226] Top shape: 256 10 (2560)
I0331 14:27:39.539805  8865 net.cpp:234] Memory required for data: 92285952
I0331 14:27:39.539887  8865 net.cpp:154] Setting up Layer of device :0 @cpu 14 Layer : loss
I0331 14:27:39.539923  8865 layer_factory.hpp:114] Creating layer loss
I0331 14:27:39.539988  8865 net.cpp:169] Creating Layer loss
I0331 14:27:39.540027  8865 net.cpp:606] loss <- ip1
I0331 14:27:39.540069  8865 net.cpp:606] loss <- label
…
I0331 14:27:39.545994  8865 cpu_info.cpp:473] Number of OpenMP threads: 16
I0331 14:27:39.546123  8865 net.cpp:493] The NetState phase (1) differed from the phase (0) specified by a rule in layer cifar
I0331 14:27:39.548388  8865 net.cpp:125] Initializing net from parameters: 
name: "CIFAR10_full"
state {
  phase: TEST
}
layer {
  name: "cifar"
  type: "Data"
  top: "data"
  top: "label"
  include {
    phase: TEST
  }
  transform_param {
    mean_file: "examples/cifar10/mean.binaryproto"
  }
  data_param {
    source: "examples/cifar10/cifar10_test_lmdb"
    batch_size: 100
    backend: LMDB
  }
}
layer {
  name: "label_cifar_1_split"
  type: "Split"
  bottom: "label"
  top: "label_cifar_1_split_0"
  top: "label_cifar_1_split_1"
}
layer {
  name: "conv1"
  type: "Convolution"
  bottom: "data"
  top: "conv1"
  param {
    lr_mult: 1
  }
  param {
    lr_mult: 2
  }
  convolution_param {
    num_output: 32
    pad: 2
    kernel_size: 5
    stride: 1
    weight_filler {
      type: "gaussian"
      std: 0.0001
    }
    bias_filler {
      type: "constant"
    }
  }
}
layer {
  name: "pool1"
  type: "Pooling"
  bottom: "conv1"
  top: "pool1"
  pooling_param {
    pool: MAX
    kernel_size: 3
    stride: 2
  }
}
layer {
  name: "relu1"
  type: "ReLU"
  bottom: "pool1"
  top: "pool1"
}
layer {
  name: "norm1"
  type: "LRN"
  bottom: "pool1"
  top: "norm1"
  lrn_param {
    local_size: 3
    alpha: 5e-05
    beta: 0.75
    norm_region: WITHIN_CHANNEL
  }
}
layer {
  name: "conv2"
  type: "Convolution"
  bottom: "norm1"
  top: "conv2"
  param {
    lr_mult: 1
  }
  param {
    lr_mult: 2
  }
  convolution_param {
    num_output: 32
    pad: 2
    kernel_size: 5
    stride: 1
    weight_filler {
      type: "gaussian"
      std: 0.01
    }
    bias_filler {
      type: "constant"
    }
  }
}
layer {
  name: "relu2"
  type: "ReLU"
  bottom: "conv2"
  top: "conv2"
}
layer {
  name: "pool2"
  type: "Pooling"
  bottom: "conv2"
  top: "pool2"
  pooling_param {
    pool: AVE
    kernel_size: 3
    stride: 2
  }
}
layer {
  name: "norm2"
  type: "LRN"
  bottom: "pool2"
  top: "norm2"
  lrn_param {
    local_size: 3
    alpha: 5e-05
    beta: 0.75
    norm_region: WITHIN_CHANNEL
  }
}
layer {
  name: "conv3"
  type: "Convolution"
  bottom: "norm2"
  top: "conv3"
  convolution_param {
    num_output: 64
    pad: 2
    kernel_size: 5
    stride: 1
    weight_filler {
      type: "gaussian"
      std: 0.01
    }
    bias_filler {
      type: "constant"
    }
  }
}
layer {
  name: "relu3"
  type: "ReLU"
  bottom: "conv3"
  top: "conv3"
}
layer {
  name: "pool3"
  type: "Pooling"
  bottom: "conv3"
  top: "pool3"
  pooling_param {
    pool: AVE
    kernel_size: 3
    stride: 2
  }
}
layer {
  name: "ip1"
  type: "InnerProduct"
  bottom: "pool3"
  top: "ip1"
  param {
    lr_mult: 1
    decay_mult: 250
  }
  param {
    lr_mult: 2
    decay_mult: 0
  }
  inner_product_param {
    num_output: 10
    weight_filler {
      type: "gaussian"
      std: 0.01
    }
    bias_filler {
      type: "constant"
    }
  }
}
layer {
  name: "ip1_ip1_0_split"
  type: "Split"
  bottom: "ip1"
  top: "ip1_ip1_0_split_0"
  top: "ip1_ip1_0_split_1"
}
layer {
  name: "accuracy"
  type: "Accuracy"
  bottom: "ip1_ip1_0_split_0"
  bottom: "label_cifar_1_split_0"
  top: "accuracy"
  include {
    phase: TEST
  }
}
layer {
  name: "loss"
  type: "SoftmaxWithLoss"
  bottom: "ip1_ip1_0_split_1"
  bottom: "label_cifar_1_split_1"
  top: "loss"
}
I0331 14:27:39.548585  8865 net.cpp:154] Setting up Layer of device :0 @cpu 2 Layer : cifar
I0331 14:27:39.548622  8865 layer_factory.hpp:114] Creating layer cifar
I0331 14:27:39.549178  8865 net.cpp:169] Creating Layer cifar
I0331 14:27:39.549242  8865 net.cpp:579] cifar -> data
I0331 14:27:39.549276  8865 net.cpp:582] From AppendTop @cpu: 2
I0331 14:27:39.549356  8865 net.cpp:579] cifar -> label
I0331 14:27:39.549391  8865 net.cpp:582] From AppendTop @cpu: 2
I0331 14:27:39.549443  8865 data_transformer.cpp:62] Loading mean file from: examples/cifar10/mean.binaryproto
I0331 14:27:39.556779  8867 db_lmdb.cpp:72] Opened lmdb examples/cifar10/cifar10_test_lmdb
I0331 14:27:39.558475  8867 virtDev_device.cpp:369] found a CPU core 12 for Data Reader on device 0 thread ID 140242061932288
I0331 14:27:39.558565  8867 data_reader.cpp:128] inside DATAREADER 1
I0331 14:27:39.558732  8867 data_reader.cpp:139] NUMA DOMAIN 0
I0331 14:27:39.559108  8865 data_layer.cpp:80] output data size: 100,3,32,32
I0331 14:27:39.561614  8865 base_data_layer.cpp:96] Done cpu data
I0331 14:27:39.561719  8865 net.cpp:219] Setting up cifar
I0331 14:27:39.561826  8865 net.cpp:226] Top shape: 100 3 32 32 (307200)
I0331 14:27:39.561872  8865 net.cpp:226] Top shape: 100 (100)
I0331 14:27:39.561906  8865 net.cpp:234] Memory required for data: 1229200
I0331 14:27:39.561965  8865 net.cpp:154] Setting up Layer of device :0 @cpu 12 Layer : label_cifar_1_split
I0331 14:27:39.562001  8865 layer_factory.hpp:114] Creating layer label_cifar_1_split
I0331 14:27:39.562152  8865 net.cpp:169] Creating Layer label_cifar_1_split
I0331 14:27:39.562191  8865 net.cpp:606] label_cifar_1_split <- label
I0331 14:27:39.562242  8865 net.cpp:579] label_cifar_1_split -> label_cifar_1_split_0
I0331 14:27:39.562274  8865 net.cpp:582] From AppendTop @cpu: 12
I0331 14:27:39.562330  8865 net.cpp:579] label_cifar_1_split -> label_cifar_1_split_1
I0331 14:27:39.562362  8865 net.cpp:582] From AppendTop @cpu: 12
I0331 14:27:39.562413  8865 net.cpp:219] Setting up label_cifar_1_split
I0331 14:27:39.562458  8865 net.cpp:226] Top shape: 100 (100)
I0331 14:27:39.562497  8865 net.cpp:226] Top shape: 100 (100)
I0331 14:27:39.562528  8865 net.cpp:234] Memory required for data: 1230000
I0331 14:27:39.562569  8865 net.cpp:154] Setting up Layer of device :0 @cpu 12 Layer : conv1
I0331 14:27:39.562602  8865 layer_factory.hpp:114] Creating layer conv1
I0331 14:27:39.562661  8865 net.cpp:169] Creating Layer conv1
I0331 14:27:39.562697  8865 net.cpp:606] conv1 <- data
I0331 14:27:39.562744  8865 net.cpp:579] conv1 -> conv1
I0331 14:27:39.562803  8865 net.cpp:582] From AppendTop @cpu: 12
I0331 14:27:39.568248  8865 net.cpp:219] Setting up conv1
I0331 14:27:39.568373  8865 net.cpp:226] Top shape: 100 32 32 32 (3276800)
I0331 14:27:39.568408  8865 net.cpp:234] Memory required for data: 14337200
I0331 14:27:39.568512  8865 net.cpp:154] Setting up Layer of device :0 @cpu 12 Layer : pool1
I0331 14:27:39.568547  8865 layer_factory.hpp:114] Creating layer pool1
I0331 14:27:39.568857  8865 net.cpp:169] Creating Layer pool1
I0331 14:27:39.568897  8865 net.cpp:606] pool1 <- conv1
I0331 14:27:39.568946  8865 net.cpp:579] pool1 -> pool1
I0331 14:27:39.568980  8865 net.cpp:582] From AppendTop @cpu: 12
I0331 14:27:39.569051  8865 net.cpp:219] Setting up pool1
I0331 14:27:39.569114  8865 net.cpp:226] Top shape: 100 32 16 16 (819200)
I0331 14:27:39.569146  8865 net.cpp:234] Memory required for data: 17614000
I0331 14:27:39.569187  8865 net.cpp:154] Setting up Layer of device :0 @cpu 12 Layer : relu1
I0331 14:27:39.569219  8865 layer_factory.hpp:114] Creating layer relu1
I0331 14:27:39.569274  8865 net.cpp:169] Creating Layer relu1
I0331 14:27:39.569309  8865 net.cpp:606] relu1 <- pool1
I0331 14:27:39.569350  8865 net.cpp:566] relu1 -> pool1 (in-place)
I0331 14:27:39.569396  8865 net.cpp:219] Setting up relu1
I0331 14:27:39.569437  8865 net.cpp:226] Top shape: 100 32 16 16 (819200)
I0331 14:27:39.569468  8865 net.cpp:234] Memory required for data: 20890800
I0331 14:27:39.569509  8865 net.cpp:154] Setting up Layer of device :0 @cpu 12 Layer : norm1
I0331 14:27:39.569540  8865 layer_factory.hpp:114] Creating layer norm1
I0331 14:27:39.569594  8865 net.cpp:169] Creating Layer norm1
I0331 14:27:39.569629  8865 net.cpp:606] norm1 <- pool1
I0331 14:27:39.569671  8865 net.cpp:579] norm1 -> norm1
I0331 14:27:39.569703  8865 net.cpp:582] From AppendTop @cpu: 12
I0331 14:27:39.569952  8865 net.cpp:219] Setting up norm1
I0331 14:27:39.570016  8865 net.cpp:226] Top shape: 100 32 16 16 (819200)
I0331 14:27:39.570050  8865 net.cpp:234] Memory required for data: 24167600
I0331 14:27:39.570091  8865 net.cpp:154] Setting up Layer of device :0 @cpu 12 Layer : conv2
I0331 14:27:39.570123  8865 layer_factory.hpp:114] Creating layer conv2
I0331 14:27:39.570181  8865 net.cpp:169] Creating Layer conv2
I0331 14:27:39.570217  8865 net.cpp:606] conv2 <- norm1
I0331 14:27:39.570271  8865 net.cpp:579] conv2 -> conv2
I0331 14:27:39.570304  8865 net.cpp:582] From AppendTop @cpu: 12
I0331 14:27:39.580806  8865 net.cpp:219] Setting up conv2
I0331 14:27:39.580937  8865 net.cpp:226] Top shape: 100 32 16 16 (819200)
I0331 14:27:39.580972  8865 net.cpp:234] Memory required for data: 27444400
I0331 14:27:39.581071  8865 net.cpp:154] Setting up Layer of device :0 @cpu 12 Layer : relu2
I0331 14:27:39.581107  8865 layer_factory.hpp:114] Creating layer relu2
I0331 14:27:39.581161  8865 net.cpp:169] Creating Layer relu2
I0331 14:27:39.581197  8865 net.cpp:606] relu2 <- conv2
I0331 14:27:39.581241  8865 net.cpp:566] relu2 -> conv2 (in-place)
I0331 14:27:39.581403  8865 net.cpp:219] Setting up relu2
I0331 14:27:39.581450  8865 net.cpp:226] Top shape: 100 32 16 16 (819200)
I0331 14:27:39.581487  8865 net.cpp:234] Memory required for data: 30721200
I0331 14:27:39.581531  8865 net.cpp:154] Setting up Layer of device :0 @cpu 12 Layer : pool2
I0331 14:27:39.581562  8865 layer_factory.hpp:114] Creating layer pool2
I0331 14:27:39.581689  8865 net.cpp:169] Creating Layer pool2
I0331 14:27:39.581729  8865 net.cpp:606] pool2 <- conv2
I0331 14:27:39.581843  8865 net.cpp:579] pool2 -> pool2
I0331 14:27:39.581881  8865 net.cpp:582] From AppendTop @cpu: 12
I0331 14:27:39.581946  8865 net.cpp:219] Setting up pool2
I0331 14:27:39.581995  8865 net.cpp:226] Top shape: 100 32 8 8 (204800)
I0331 14:27:39.582026  8865 net.cpp:234] Memory required for data: 31540400
I0331 14:27:39.582068  8865 net.cpp:154] Setting up Layer of device :0 @cpu 12 Layer : norm2
I0331 14:27:39.582099  8865 layer_factory.hpp:114] Creating layer norm2
I0331 14:27:39.582176  8865 net.cpp:169] Creating Layer norm2
I0331 14:27:39.582212  8865 net.cpp:606] norm2 <- pool2
I0331 14:27:39.582257  8865 net.cpp:579] norm2 -> norm2
I0331 14:27:39.582288  8865 net.cpp:582] From AppendTop @cpu: 12
I0331 14:27:39.582490  8865 net.cpp:219] Setting up norm2
I0331 14:27:39.582550  8865 net.cpp:226] Top shape: 100 32 8 8 (204800)
I0331 14:27:39.582581  8865 net.cpp:234] Memory required for data: 32359600
I0331 14:27:39.582625  8865 net.cpp:154] Setting up Layer of device :0 @cpu 12 Layer : conv3
I0331 14:27:39.582657  8865 layer_factory.hpp:114] Creating layer conv3
I0331 14:27:39.582728  8865 net.cpp:169] Creating Layer conv3
I0331 14:27:39.582795  8865 net.cpp:606] conv3 <- norm2
I0331 14:27:39.582856  8865 net.cpp:579] conv3 -> conv3
I0331 14:27:39.582890  8865 net.cpp:582] From AppendTop @cpu: 12
I0331 14:27:39.592352  8865 net.cpp:219] Setting up conv3
I0331 14:27:39.592480  8865 net.cpp:226] Top shape: 100 64 8 8 (409600)
I0331 14:27:39.592525  8865 net.cpp:234] Memory required for data: 33998000
I0331 14:27:39.592638  8865 net.cpp:154] Setting up Layer of device :0 @cpu 12 Layer : relu3
I0331 14:27:39.592686  8865 layer_factory.hpp:114] Creating layer relu3
I0331 14:27:39.592747  8865 net.cpp:169] Creating Layer relu3
I0331 14:27:39.592835  8865 net.cpp:606] relu3 <- conv3
I0331 14:27:39.592891  8865 net.cpp:566] relu3 -> conv3 (in-place)
I0331 14:27:39.592952  8865 net.cpp:219] Setting up relu3
I0331 14:27:39.593003  8865 net.cpp:226] Top shape: 100 64 8 8 (409600)
I0331 14:27:39.593034  8865 net.cpp:234] Memory required for data: 35636400
I0331 14:27:39.593077  8865 net.cpp:154] Setting up Layer of device :0 @cpu 12 Layer : pool3
I0331 14:27:39.593111  8865 layer_factory.hpp:114] Creating layer pool3
I0331 14:27:39.593247  8865 net.cpp:169] Creating Layer pool3
I0331 14:27:39.593302  8865 net.cpp:606] pool3 <- conv3
I0331 14:27:39.593369  8865 net.cpp:579] pool3 -> pool3
I0331 14:27:39.593406  8865 net.cpp:582] From AppendTop @cpu: 12
I0331 14:27:39.593472  8865 net.cpp:219] Setting up pool3
I0331 14:27:39.593523  8865 net.cpp:226] Top shape: 100 64 4 4 (102400)
I0331 14:27:39.593556  8865 net.cpp:234] Memory required for data: 36046000
I0331 14:27:39.593601  8865 net.cpp:154] Setting up Layer of device :0 @cpu 12 Layer : ip1
I0331 14:27:39.593636  8865 layer_factory.hpp:114] Creating layer ip1
I0331 14:27:39.593696  8865 net.cpp:169] Creating Layer ip1
I0331 14:27:39.593739  8865 net.cpp:606] ip1 <- pool3
I0331 14:27:39.593829  8865 net.cpp:579] ip1 -> ip1
I0331 14:27:39.593864  8865 net.cpp:582] From AppendTop @cpu: 12
I0331 14:27:39.594650  8865 net.cpp:219] Setting up ip1
I0331 14:27:39.594724  8865 net.cpp:226] Top shape: 100 10 (1000)
I0331 14:27:39.594789  8865 net.cpp:234] Memory required for data: 36050000
I0331 14:27:39.594866  8865 net.cpp:154] Setting up Layer of device :0 @cpu 12 Layer : ip1_ip1_0_split
I0331 14:27:39.594900  8865 layer_factory.hpp:114] Creating layer ip1_ip1_0_split
I0331 14:27:39.594974  8865 net.cpp:169] Creating Layer ip1_ip1_0_split
I0331 14:27:39.595015  8865 net.cpp:606] ip1_ip1_0_split <- ip1
I0331 14:27:39.595176  8865 net.cpp:579] ip1_ip1_0_split -> ip1_ip1_0_split_0
I0331 14:27:39.595218  8865 net.cpp:582] From AppendTop @cpu: 12
I0331 14:27:39.595279  8865 net.cpp:579] ip1_ip1_0_split -> ip1_ip1_0_split_1
I0331 14:27:39.595311  8865 net.cpp:582] From AppendTop @cpu: 12
I0331 14:27:39.595367  8865 net.cpp:219] Setting up ip1_ip1_0_split
I0331 14:27:39.595415  8865 net.cpp:226] Top shape: 100 10 (1000)
I0331 14:27:39.595454  8865 net.cpp:226] Top shape: 100 10 (1000)
I0331 14:27:39.595484  8865 net.cpp:234] Memory required for data: 36058000
I0331 14:27:39.595530  8865 net.cpp:154] Setting up Layer of device :0 @cpu 12 Layer : accuracy
I0331 14:27:39.595562  8865 layer_factory.hpp:114] Creating layer accuracy
I0331 14:27:39.595623  8865 net.cpp:169] Creating Layer accuracy
I0331 14:27:39.595656  8865 net.cpp:606] accuracy <- ip1_ip1_0_split_0
I0331 14:27:39.595695  8865 net.cpp:606] accuracy <- label_cifar_1_split_0
…
