…
I0116 19:26:34.031432 20811 net.cpp:484] The NetState phase (0) differed from the phase (1) specified by a rule in layer accuracy
I0116 19:26:34.032697 20811 net.cpp:120] Initializing net from parameters: 
name: "AlexNet"
state {
  phase: TRAIN
  level: 0
  stage: ""
}
layer {
  name: "data"
  type: "Data"
  top: "data"
  top: "label"
  include {
    phase: TRAIN
  }
  transform_param {
    mirror: true
    crop_size: 227
    mean_file: "/home/user/caffeOMP/original/caffe/data/ilsvrc12/imagenet_mean.binaryproto"
  }
  data_param {
    source: "/home/user/caffeOMP/original/caffe/examples/imagenet/ilsvrc12_train_lmdb"
    batch_size: 256
    backend: LMDB
  }
}
layer {
  name: "conv1"
  type: "Convolution"
  bottom: "data"
  top: "conv1"
  param {
    lr_mult: 1
    decay_mult: 1
  }
  param {
    lr_mult: 2
    decay_mult: 0
  }
  convolution_param {
    num_output: 96
    kernel_size: 11
    stride: 4
    weight_filler {
      type: "gaussian"
      std: 0.01
    }
    bias_filler {
      type: "constant"
      value: 0
    }
  }
}
layer {
  name: "relu1"
  type: "ReLU"
  bottom: "conv1"
  top: "conv1"
}
layer {
  name: "norm1"
  type: "LRN"
  bottom: "conv1"
  top: "norm1"
  lrn_param {
    local_size: 5
    alpha: 0.0001
    beta: 0.75
  }
}
layer {
  name: "pool1"
  type: "Pooling"
  bottom: "norm1"
  top: "pool1"
  pooling_param {
    pool: MAX
    kernel_size: 3
    stride: 2
  }
}
layer {
  name: "conv2"
  type: "Convolution"
  bottom: "pool1"
  top: "conv2"
  param {
    lr_mult: 1
    decay_mult: 1
  }
  param {
    lr_mult: 2
    decay_mult: 0
  }
  convolution_param {
    num_output: 256
    pad: 2
    kernel_size: 5
    group: 2
    weight_filler {
      type: "gaussian"
      std: 0.01
    }
    bias_filler {
      type: "constant"
      value: 0.1
    }
  }
}
layer {
  name: "relu2"
  type: "ReLU"
  bottom: "conv2"
  top: "conv2"
}
layer {
  name: "norm2"
  type: "LRN"
  bottom: "conv2"
  top: "norm2"
  lrn_param {
    local_size: 5
    alpha: 0.0001
    beta: 0.75
  }
}
layer {
  name: "pool2"
  type: "Pooling"
  bottom: "norm2"
  top: "pool2"
  pooling_param {
    pool: MAX
    kernel_size: 3
    stride: 2
  }
}
layer {
  name: "conv3"
  type: "Convolution"
  bottom: "pool2"
  top: "conv3"
  param {
    lr_mult: 1
    decay_mult: 1
  }
  param {
    lr_mult: 2
    decay_mult: 0
  }
  convolution_param {
    num_output: 384
    pad: 1
    kernel_size: 3
    weight_filler {
      type: "gaussian"
      std: 0.01
    }
    bias_filler {
      type: "constant"
      value: 0
    }
  }
}
layer {
  name: "relu3"
  type: "ReLU"
  bottom: "conv3"
  top: "conv3"
}
layer {
  name: "conv4"
  type: "Convolution"
  bottom: "conv3"
  top: "conv4"
  param {
    lr_mult: 1
    decay_mult: 1
  }
  param {
    lr_mult: 2
    decay_mult: 0
  }
  convolution_param {
    num_output: 384
    pad: 1
    kernel_size: 3
    group: 2
    weight_filler {
      type: "gaussian"
      std: 0.01
    }
    bias_filler {
      type: "constant"
      value: 0.1
    }
  }
}
layer {
  name: "relu4"
  type: "ReLU"
  bottom: "conv4"
  top: "conv4"
}
layer {
  name: "conv5"
  type: "Convolution"
  bottom: "conv4"
  top: "conv5"
  param {
    lr_mult: 1
    decay_mult: 1
  }
  param {
    lr_mult: 2
    decay_mult: 0
  }
  convolution_param {
    num_output: 256
    pad: 1
    kernel_size: 3
    group: 2
    weight_filler {
      type: "gaussian"
      std: 0.01
    }
    bias_filler {
      type: "constant"
      value: 0.1
    }
  }
}
layer {
  name: "relu5"
  type: "ReLU"
  bottom: "conv5"
  top: "conv5"
}
layer {
  name: "pool5"
  type: "Pooling"
  bottom: "conv5"
  top: "pool5"
  pooling_param {
    pool: MAX
    kernel_size: 3
    stride: 2
  }
}
layer {
  name: "fc6"
  type: "InnerProduct"
  bottom: "pool5"
  top: "fc6"
  param {
    lr_mult: 1
    decay_mult: 1
  }
  param {
    lr_mult: 2
    decay_mult: 0
  }
  inner_product_param {
    num_output: 4096
    weight_filler {
      type: "gaussian"
      std: 0.005
    }
    bias_filler {
      type: "constant"
      value: 0.1
    }
  }
}
layer {
  name: "relu6"
  type: "ReLU"
  bottom: "fc6"
  top: "fc6"
}
layer {
  name: "drop6"
  type: "Dropout"
  bottom: "fc6"
  top: "fc6"
  dropout_param {
    dropout_ratio: 0.5
  }
}
layer {
  name: "fc7"
  type: "InnerProduct"
  bottom: "fc6"
  top: "fc7"
  param {
    lr_mult: 1
    decay_mult: 1
  }
  param {
    lr_mult: 2
    decay_mult: 0
  }
  inner_product_param {
    num_output: 4096
    weight_filler {
      type: "gaussian"
      std: 0.005
    }
    bias_filler {
      type: "constant"
      value: 0.1
    }
  }
}
layer {
  name: "relu7"
  type: "ReLU"
  bottom: "fc7"
  top: "fc7"
}
layer {
  name: "drop7"
  type: "Dropout"
  bottom: "fc7"
  top: "fc7"
  dropout_param {
    dropout_ratio: 0.5
  }
}
layer {
  name: "fc8"
  type: "InnerProduct"
  bottom: "fc7"
  top: "fc8"
  param {
    lr_mult: 1
    decay_mult: 1
  }
  param {
    lr_mult: 2
    decay_mult: 0
  }
  inner_product_param {
    num_output: 1000
    weight_filler {
      type: "gaussian"
      std: 0.01
    }
    bias_filler {
      type: "constant"
      value: 0
    }
  }
}
layer {
  name: "loss"
  type: "SoftmaxWithLoss"
  bottom: "fc8"
  bottom: "label"
  top: "loss"
}
I0116 19:26:34.032827 20811 layer_factory.hpp:114] Creating layer data
I0116 19:26:34.034528 20811 net.cpp:160] Creating Layer data
I0116 19:26:34.034605 20811 net.cpp:570] data -> data
I0116 19:26:34.034651 20811 net.cpp:570] data -> label
I0116 19:26:34.034680 20811 data_transformer.cpp:62] Loading mean file from: /home/user/caffeOMP/original/caffe/data/ilsvrc12/imagenet_mean.binaryproto
I0116 19:26:34.034883 20812 db_lmdb.cpp:72] Opened lmdb /home/user/caffeOMP/original/caffe/examples/imagenet/ilsvrc12_train_lmdb
I0116 19:26:34.046103 20811 data_layer.cpp:80] output data size: 256,3,227,227
I0116 19:26:34.312302 20811 net.cpp:210] Setting up data
I0116 19:26:34.312453 20811 net.cpp:217] Top shape: 256 3 227 227 (39574272)
I0116 19:26:34.312474 20811 net.cpp:217] Top shape: 256 (256)
I0116 19:26:34.312486 20811 net.cpp:225] Memory required for data: 158298112
I0116 19:26:34.312518 20811 layer_factory.hpp:114] Creating layer conv1
I0116 19:26:34.312603 20811 net.cpp:160] Creating Layer conv1
I0116 19:26:34.312626 20811 net.cpp:596] conv1 <- data
I0116 19:26:34.312659 20811 net.cpp:570] conv1 -> conv1
I0116 19:26:34.396036 20811 net.cpp:210] Setting up conv1
I0116 19:26:34.396183 20811 net.cpp:217] Top shape: 256 96 55 55 (74342400)
I0116 19:26:34.396199 20811 net.cpp:225] Memory required for data: 455667712
I0116 19:26:34.396275 20811 layer_factory.hpp:114] Creating layer relu1
I0116 19:26:34.396330 20811 net.cpp:160] Creating Layer relu1
I0116 19:26:34.396350 20811 net.cpp:596] relu1 <- conv1
I0116 19:26:34.396375 20811 net.cpp:557] relu1 -> conv1 (in-place)
I0116 19:26:34.396416 20811 net.cpp:210] Setting up relu1
I0116 19:26:34.396432 20811 net.cpp:217] Top shape: 256 96 55 55 (74342400)
I0116 19:26:34.396500 20811 net.cpp:225] Memory required for data: 753037312
I0116 19:26:34.396514 20811 layer_factory.hpp:114] Creating layer norm1
I0116 19:26:34.396545 20811 net.cpp:160] Creating Layer norm1
I0116 19:26:34.396559 20811 net.cpp:596] norm1 <- conv1
I0116 19:26:34.396579 20811 net.cpp:570] norm1 -> norm1
I0116 19:26:34.396623 20811 net.cpp:210] Setting up norm1
I0116 19:26:34.396642 20811 net.cpp:217] Top shape: 256 96 55 55 (74342400)
I0116 19:26:34.396656 20811 net.cpp:225] Memory required for data: 1050406912
I0116 19:26:34.396670 20811 layer_factory.hpp:114] Creating layer pool1
I0116 19:26:34.396848 20811 net.cpp:160] Creating Layer pool1
I0116 19:26:34.396868 20811 net.cpp:596] pool1 <- norm1
I0116 19:26:34.396888 20811 net.cpp:570] pool1 -> pool1
I0116 19:26:34.396930 20811 net.cpp:210] Setting up pool1
I0116 19:26:34.396950 20811 net.cpp:217] Top shape: 256 96 27 27 (17915904)
I0116 19:26:34.396962 20811 net.cpp:225] Memory required for data: 1122070528
I0116 19:26:34.396977 20811 layer_factory.hpp:114] Creating layer conv2
I0116 19:26:34.397032 20811 net.cpp:160] Creating Layer conv2
I0116 19:26:34.397047 20811 net.cpp:596] conv2 <- pool1
I0116 19:26:34.397065 20811 net.cpp:570] conv2 -> conv2
I0116 19:26:34.570845 20811 net.cpp:210] Setting up conv2
I0116 19:26:34.570998 20811 net.cpp:217] Top shape: 256 256 27 27 (47775744)
I0116 19:26:34.571017 20811 net.cpp:225] Memory required for data: 1313173504
I0116 19:26:34.571084 20811 layer_factory.hpp:114] Creating layer relu2
I0116 19:26:34.571130 20811 net.cpp:160] Creating Layer relu2
I0116 19:26:34.571149 20811 net.cpp:596] relu2 <- conv2
I0116 19:26:34.571177 20811 net.cpp:557] relu2 -> conv2 (in-place)
I0116 19:26:34.571215 20811 net.cpp:210] Setting up relu2
I0116 19:26:34.571233 20811 net.cpp:217] Top shape: 256 256 27 27 (47775744)
I0116 19:26:34.571247 20811 net.cpp:225] Memory required for data: 1504276480
I0116 19:26:34.571264 20811 layer_factory.hpp:114] Creating layer norm2
I0116 19:26:34.571291 20811 net.cpp:160] Creating Layer norm2
I0116 19:26:34.571303 20811 net.cpp:596] norm2 <- conv2
I0116 19:26:34.571324 20811 net.cpp:570] norm2 -> norm2
I0116 19:26:34.571370 20811 net.cpp:210] Setting up norm2
I0116 19:26:34.571386 20811 net.cpp:217] Top shape: 256 256 27 27 (47775744)
I0116 19:26:34.571400 20811 net.cpp:225] Memory required for data: 1695379456
I0116 19:26:34.571413 20811 layer_factory.hpp:114] Creating layer pool2
I0116 19:26:34.571547 20811 net.cpp:160] Creating Layer pool2
I0116 19:26:34.571597 20811 net.cpp:596] pool2 <- norm2
I0116 19:26:34.571617 20811 net.cpp:570] pool2 -> pool2
I0116 19:26:34.571652 20811 net.cpp:210] Setting up pool2
I0116 19:26:34.571669 20811 net.cpp:217] Top shape: 256 256 13 13 (11075584)
I0116 19:26:34.571682 20811 net.cpp:225] Memory required for data: 1739681792
I0116 19:26:34.571696 20811 layer_factory.hpp:114] Creating layer conv3
I0116 19:26:34.571740 20811 net.cpp:160] Creating Layer conv3
I0116 19:26:34.571753 20811 net.cpp:596] conv3 <- pool2
I0116 19:26:34.571776 20811 net.cpp:570] conv3 -> conv3
I0116 19:26:34.683426 20811 net.cpp:210] Setting up conv3
I0116 19:26:34.683549 20811 net.cpp:217] Top shape: 256 384 13 13 (16613376)
I0116 19:26:34.683558 20811 net.cpp:225] Memory required for data: 1806135296
I0116 19:26:34.683588 20811 layer_factory.hpp:114] Creating layer relu3
I0116 19:26:34.683617 20811 net.cpp:160] Creating Layer relu3
I0116 19:26:34.683629 20811 net.cpp:596] relu3 <- conv3
I0116 19:26:34.683643 20811 net.cpp:557] relu3 -> conv3 (in-place)
I0116 19:26:34.683665 20811 net.cpp:210] Setting up relu3
I0116 19:26:34.683675 20811 net.cpp:217] Top shape: 256 384 13 13 (16613376)
I0116 19:26:34.683681 20811 net.cpp:225] Memory required for data: 1872588800
I0116 19:26:34.683688 20811 layer_factory.hpp:114] Creating layer conv4
I0116 19:26:34.683714 20811 net.cpp:160] Creating Layer conv4
I0116 19:26:34.683722 20811 net.cpp:596] conv4 <- conv3
I0116 19:26:34.683734 20811 net.cpp:570] conv4 -> conv4
I0116 19:26:34.785997 20811 net.cpp:210] Setting up conv4
I0116 19:26:34.786077 20811 net.cpp:217] Top shape: 256 384 13 13 (16613376)
I0116 19:26:34.786082 20811 net.cpp:225] Memory required for data: 1939042304
I0116 19:26:34.786094 20811 layer_factory.hpp:114] Creating layer relu4
I0116 19:26:34.786105 20811 net.cpp:160] Creating Layer relu4
I0116 19:26:34.786113 20811 net.cpp:596] relu4 <- conv4
I0116 19:26:34.786126 20811 net.cpp:557] relu4 -> conv4 (in-place)
I0116 19:26:34.786136 20811 net.cpp:210] Setting up relu4
I0116 19:26:34.786145 20811 net.cpp:217] Top shape: 256 384 13 13 (16613376)
I0116 19:26:34.786151 20811 net.cpp:225] Memory required for data: 2005495808
I0116 19:26:34.786159 20811 layer_factory.hpp:114] Creating layer conv5
I0116 19:26:34.786171 20811 net.cpp:160] Creating Layer conv5
I0116 19:26:34.786180 20811 net.cpp:596] conv5 <- conv4
I0116 19:26:34.786190 20811 net.cpp:570] conv5 -> conv5
I0116 19:26:34.848734 20811 net.cpp:210] Setting up conv5
I0116 19:26:34.848750 20811 net.cpp:217] Top shape: 256 256 13 13 (11075584)
I0116 19:26:34.848757 20811 net.cpp:225] Memory required for data: 2049798144
I0116 19:26:34.848770 20811 layer_factory.hpp:114] Creating layer relu5
I0116 19:26:34.848783 20811 net.cpp:160] Creating Layer relu5
I0116 19:26:34.848789 20811 net.cpp:596] relu5 <- conv5
I0116 19:26:34.848800 20811 net.cpp:557] relu5 -> conv5 (in-place)
I0116 19:26:34.848810 20811 net.cpp:210] Setting up relu5
I0116 19:26:34.848819 20811 net.cpp:217] Top shape: 256 256 13 13 (11075584)
I0116 19:26:34.848825 20811 net.cpp:225] Memory required for data: 2094100480
I0116 19:26:34.848831 20811 layer_factory.hpp:114] Creating layer pool5
I0116 19:26:34.848884 20811 net.cpp:160] Creating Layer pool5
I0116 19:26:34.848893 20811 net.cpp:596] pool5 <- conv5
I0116 19:26:34.848903 20811 net.cpp:570] pool5 -> pool5
I0116 19:26:34.848923 20811 net.cpp:210] Setting up pool5
I0116 19:26:34.848933 20811 net.cpp:217] Top shape: 256 256 6 6 (2359296)
I0116 19:26:34.848939 20811 net.cpp:225] Memory required for data: 2103537664
I0116 19:26:34.848947 20811 layer_factory.hpp:114] Creating layer fc6
I0116 19:26:34.848970 20811 net.cpp:160] Creating Layer fc6
I0116 19:26:34.848978 20811 net.cpp:596] fc6 <- pool5
I0116 19:26:34.848997 20811 net.cpp:570] fc6 -> fc6
I0116 19:26:36.103194 20811 net.cpp:210] Setting up fc6
I0116 19:26:36.103348 20811 net.cpp:217] Top shape: 256 4096 (1048576)
I0116 19:26:36.103358 20811 net.cpp:225] Memory required for data: 2107731968
I0116 19:26:36.103385 20811 layer_factory.hpp:114] Creating layer relu6
I0116 19:26:36.103446 20811 net.cpp:160] Creating Layer relu6
I0116 19:26:36.103461 20811 net.cpp:596] relu6 <- fc6
I0116 19:26:36.103483 20811 net.cpp:557] relu6 -> fc6 (in-place)
I0116 19:26:36.103507 20811 net.cpp:210] Setting up relu6
I0116 19:26:36.103515 20811 net.cpp:217] Top shape: 256 4096 (1048576)
I0116 19:26:36.103523 20811 net.cpp:225] Memory required for data: 2111926272
I0116 19:26:36.103529 20811 layer_factory.hpp:114] Creating layer drop6
I0116 19:26:36.103554 20811 net.cpp:160] Creating Layer drop6
I0116 19:26:36.103560 20811 net.cpp:596] drop6 <- fc6
I0116 19:26:36.103569 20811 net.cpp:557] drop6 -> fc6 (in-place)
I0116 19:26:36.103590 20811 net.cpp:210] Setting up drop6
I0116 19:26:36.103598 20811 net.cpp:217] Top shape: 256 4096 (1048576)
I0116 19:26:36.103605 20811 net.cpp:225] Memory required for data: 2116120576
I0116 19:26:36.103612 20811 layer_factory.hpp:114] Creating layer fc7
I0116 19:26:36.103634 20811 net.cpp:160] Creating Layer fc7
I0116 19:26:36.103641 20811 net.cpp:596] fc7 <- fc6
I0116 19:26:36.103652 20811 net.cpp:570] fc7 -> fc7
I0116 19:26:36.671231 20811 net.cpp:210] Setting up fc7
I0116 19:26:36.671387 20811 net.cpp:217] Top shape: 256 4096 (1048576)
I0116 19:26:36.671397 20811 net.cpp:225] Memory required for data: 2120314880
I0116 19:26:36.671423 20811 layer_factory.hpp:114] Creating layer relu7
I0116 19:26:36.671458 20811 net.cpp:160] Creating Layer relu7
I0116 19:26:36.671473 20811 net.cpp:596] relu7 <- fc7
I0116 19:26:36.671491 20811 net.cpp:557] relu7 -> fc7 (in-place)
I0116 19:26:36.671514 20811 net.cpp:210] Setting up relu7
I0116 19:26:36.671566 20811 net.cpp:217] Top shape: 256 4096 (1048576)
I0116 19:26:36.671572 20811 net.cpp:225] Memory required for data: 2124509184
I0116 19:26:36.671579 20811 layer_factory.hpp:114] Creating layer drop7
I0116 19:26:36.671597 20811 net.cpp:160] Creating Layer drop7
I0116 19:26:36.671603 20811 net.cpp:596] drop7 <- fc7
I0116 19:26:36.671613 20811 net.cpp:557] drop7 -> fc7 (in-place)
I0116 19:26:36.671630 20811 net.cpp:210] Setting up drop7
I0116 19:26:36.671638 20811 net.cpp:217] Top shape: 256 4096 (1048576)
I0116 19:26:36.671645 20811 net.cpp:225] Memory required for data: 2128703488
I0116 19:26:36.671653 20811 layer_factory.hpp:114] Creating layer fc8
I0116 19:26:36.671679 20811 net.cpp:160] Creating Layer fc8
I0116 19:26:36.671685 20811 net.cpp:596] fc8 <- fc7
I0116 19:26:36.671696 20811 net.cpp:570] fc8 -> fc8
I0116 19:26:36.808321 20811 net.cpp:210] Setting up fc8
I0116 19:26:36.808380 20811 net.cpp:217] Top shape: 256 1000 (256000)
I0116 19:26:36.808387 20811 net.cpp:225] Memory required for data: 2129727488
I0116 19:26:36.808400 20811 layer_factory.hpp:114] Creating layer loss
I0116 19:26:36.808426 20811 net.cpp:160] Creating Layer loss
I0116 19:26:36.808435 20811 net.cpp:596] loss <- fc8
I0116 19:26:36.808444 20811 net.cpp:596] loss <- label
I0116 19:26:36.808455 20811 net.cpp:570] loss -> loss
I0116 19:26:36.808482 20811 layer_factory.hpp:114] Creating layer loss
…
I0116 19:26:36.818220 20811 net.cpp:484] The NetState phase (1) differed from the phase (0) specified by a rule in layer data
I0116 19:26:36.819125 20811 net.cpp:120] Initializing net from parameters: 
name: "AlexNet"
state {
  phase: TEST
}
layer {
  name: "data"
  type: "Data"
  top: "data"
  top: "label"
  include {
    phase: TEST
  }
  transform_param {
    mirror: false
    crop_size: 227
    mean_file: "/home/user/caffeOMP/original/caffe/data/ilsvrc12/imagenet_mean.binaryproto"
  }
  data_param {
    source: "/home/user/caffeOMP/original/caffe/examples/imagenet/ilsvrc12_val_lmdb"
    batch_size: 50
    backend: LMDB
  }
}
layer {
  name: "label_data_1_split"
  type: "Split"
  bottom: "label"
  top: "label_data_1_split_0"
  top: "label_data_1_split_1"
}
layer {
  name: "conv1"
  type: "Convolution"
  bottom: "data"
  top: "conv1"
  param {
    lr_mult: 1
    decay_mult: 1
  }
  param {
    lr_mult: 2
    decay_mult: 0
  }
  convolution_param {
    num_output: 96
    kernel_size: 11
    stride: 4
    weight_filler {
      type: "gaussian"
      std: 0.01
    }
    bias_filler {
      type: "constant"
      value: 0
    }
  }
}
layer {
  name: "relu1"
  type: "ReLU"
  bottom: "conv1"
  top: "conv1"
}
layer {
  name: "norm1"
  type: "LRN"
  bottom: "conv1"
  top: "norm1"
  lrn_param {
    local_size: 5
    alpha: 0.0001
    beta: 0.75
  }
}
layer {
  name: "pool1"
  type: "Pooling"
  bottom: "norm1"
  top: "pool1"
  pooling_param {
    pool: MAX
    kernel_size: 3
    stride: 2
  }
}
layer {
  name: "conv2"
  type: "Convolution"
  bottom: "pool1"
  top: "conv2"
  param {
    lr_mult: 1
    decay_mult: 1
  }
  param {
    lr_mult: 2
    decay_mult: 0
  }
  convolution_param {
    num_output: 256
    pad: 2
    kernel_size: 5
    group: 2
    weight_filler {
      type: "gaussian"
      std: 0.01
    }
    bias_filler {
      type: "constant"
      value: 0.1
    }
  }
}
layer {
  name: "relu2"
  type: "ReLU"
  bottom: "conv2"
  top: "conv2"
}
layer {
  name: "norm2"
  type: "LRN"
  bottom: "conv2"
  top: "norm2"
  lrn_param {
    local_size: 5
    alpha: 0.0001
    beta: 0.75
  }
}
layer {
  name: "pool2"
  type: "Pooling"
  bottom: "norm2"
  top: "pool2"
  pooling_param {
    pool: MAX
    kernel_size: 3
    stride: 2
  }
}
layer {
  name: "conv3"
  type: "Convolution"
  bottom: "pool2"
  top: "conv3"
  param {
    lr_mult: 1
    decay_mult: 1
  }
  param {
    lr_mult: 2
    decay_mult: 0
  }
  convolution_param {
    num_output: 384
    pad: 1
    kernel_size: 3
    weight_filler {
      type: "gaussian"
      std: 0.01
    }
    bias_filler {
      type: "constant"
      value: 0
    }
  }
}
layer {
  name: "relu3"
  type: "ReLU"
  bottom: "conv3"
  top: "conv3"
}
layer {
  name: "conv4"
  type: "Convolution"
  bottom: "conv3"
  top: "conv4"
  param {
    lr_mult: 1
    decay_mult: 1
  }
  param {
    lr_mult: 2
    decay_mult: 0
  }
  convolution_param {
    num_output: 384
    pad: 1
    kernel_size: 3
    group: 2
    weight_filler {
      type: "gaussian"
      std: 0.01
    }
    bias_filler {
      type: "constant"
      value: 0.1
    }
  }
}
layer {
  name: "relu4"
  type: "ReLU"
  bottom: "conv4"
  top: "conv4"
}
layer {
  name: "conv5"
  type: "Convolution"
  bottom: "conv4"
  top: "conv5"
  param {
    lr_mult: 1
    decay_mult: 1
  }
  param {
    lr_mult: 2
    decay_mult: 0
  }
  convolution_param {
    num_output: 256
    pad: 1
    kernel_size: 3
    group: 2
    weight_filler {
      type: "gaussian"
      std: 0.01
    }
    bias_filler {
      type: "constant"
      value: 0.1
    }
  }
}
layer {
  name: "relu5"
  type: "ReLU"
  bottom: "conv5"
  top: "conv5"
}
layer {
  name: "pool5"
  type: "Pooling"
  bottom: "conv5"
  top: "pool5"
  pooling_param {
    pool: MAX
    kernel_size: 3
    stride: 2
  }
}
layer {
  name: "fc6"
  type: "InnerProduct"
  bottom: "pool5"
  top: "fc6"
  param {
    lr_mult: 1
    decay_mult: 1
  }
  param {
    lr_mult: 2
    decay_mult: 0
  }
  inner_product_param {
    num_output: 4096
    weight_filler {
      type: "gaussian"
      std: 0.005
    }
    bias_filler {
      type: "constant"
      value: 0.1
    }
  }
}
layer {
  name: "relu6"
  type: "ReLU"
  bottom: "fc6"
  top: "fc6"
}
layer {
  name: "drop6"
  type: "Dropout"
  bottom: "fc6"
  top: "fc6"
  dropout_param {
    dropout_ratio: 0.5
  }
}
layer {
  name: "fc7"
  type: "InnerProduct"
  bottom: "fc6"
  top: "fc7"
  param {
    lr_mult: 1
    decay_mult: 1
  }
  param {
    lr_mult: 2
    decay_mult: 0
  }
  inner_product_param {
    num_output: 4096
    weight_filler {
      type: "gaussian"
      std: 0.005
    }
    bias_filler {
      type: "constant"
      value: 0.1
    }
  }
}
layer {
  name: "relu7"
  type: "ReLU"
  bottom: "fc7"
  top: "fc7"
}
layer {
  name: "drop7"
  type: "Dropout"
  bottom: "fc7"
  top: "fc7"
  dropout_param {
    dropout_ratio: 0.5
  }
}
layer {
  name: "fc8"
  type: "InnerProduct"
  bottom: "fc7"
  top: "fc8"
  param {
    lr_mult: 1
    decay_mult: 1
  }
  param {
    lr_mult: 2
    decay_mult: 0
  }
  inner_product_param {
    num_output: 1000
    weight_filler {
      type: "gaussian"
      std: 0.01
    }
    bias_filler {
      type: "constant"
      value: 0
    }
  }
}
layer {
  name: "fc8_fc8_0_split"
  type: "Split"
  bottom: "fc8"
  top: "fc8_fc8_0_split_0"
  top: "fc8_fc8_0_split_1"
}
layer {
  name: "accuracy"
  type: "Accuracy"
  bottom: "fc8_fc8_0_split_0"
  bottom: "label_data_1_split_0"
  top: "accuracy"
  include {
    phase: TEST
  }
}
layer {
  name: "loss"
  type: "SoftmaxWithLoss"
  bottom: "fc8_fc8_0_split_1"
  bottom: "label_data_1_split_1"
  top: "loss"
}
I0116 19:26:36.819167 20811 layer_factory.hpp:114] Creating layer data
I0116 19:26:36.819298 20811 net.cpp:160] Creating Layer data
I0116 19:26:36.819319 20811 net.cpp:570] data -> data
I0116 19:26:36.819345 20811 net.cpp:570] data -> label
I0116 19:26:36.819370 20811 data_transformer.cpp:62] Loading mean file from: /home/user/caffeOMP/original/caffe/data/ilsvrc12/imagenet_mean.binaryproto
I0116 19:26:36.819509 20845 db_lmdb.cpp:72] Opened lmdb /home/user/caffeOMP/original/caffe/examples/imagenet/ilsvrc12_val_lmdb
I0116 19:26:36.825213 20811 data_layer.cpp:80] output data size: 50,3,227,227
I0116 19:26:36.867110 20811 net.cpp:210] Setting up data
I0116 19:26:36.867233 20811 net.cpp:217] Top shape: 50 3 227 227 (7729350)
I0116 19:26:36.867252 20811 net.cpp:217] Top shape: 50 (50)
I0116 19:26:36.867265 20811 net.cpp:225] Memory required for data: 30917600
I0116 19:26:36.867293 20811 layer_factory.hpp:114] Creating layer label_data_1_split
I0116 19:26:36.867342 20811 net.cpp:160] Creating Layer label_data_1_split
I0116 19:26:36.867360 20811 net.cpp:596] label_data_1_split <- label
I0116 19:26:36.867386 20811 net.cpp:570] label_data_1_split -> label_data_1_split_0
I0116 19:26:36.867419 20811 net.cpp:570] label_data_1_split -> label_data_1_split_1
I0116 19:26:36.867456 20811 net.cpp:210] Setting up label_data_1_split
I0116 19:26:36.867471 20811 net.cpp:217] Top shape: 50 (50)
I0116 19:26:36.867487 20811 net.cpp:217] Top shape: 50 (50)
I0116 19:26:36.867498 20811 net.cpp:225] Memory required for data: 30918000
I0116 19:26:36.867511 20811 layer_factory.hpp:114] Creating layer conv1
I0116 19:26:36.867553 20811 net.cpp:160] Creating Layer conv1
I0116 19:26:36.867565 20811 net.cpp:596] conv1 <- data
I0116 19:26:36.867583 20811 net.cpp:570] conv1 -> conv1
I0116 19:26:36.924597 20811 net.cpp:210] Setting up conv1
I0116 19:26:36.924728 20811 net.cpp:217] Top shape: 50 96 55 55 (14520000)
I0116 19:26:36.924737 20811 net.cpp:225] Memory required for data: 88998000
I0116 19:26:36.924779 20811 layer_factory.hpp:114] Creating layer relu1
I0116 19:26:36.924809 20811 net.cpp:160] Creating Layer relu1
I0116 19:26:36.924819 20811 net.cpp:596] relu1 <- conv1
I0116 19:26:36.924834 20811 net.cpp:557] relu1 -> conv1 (in-place)
I0116 19:26:36.924859 20811 net.cpp:210] Setting up relu1
I0116 19:26:36.924909 20811 net.cpp:217] Top shape: 50 96 55 55 (14520000)
I0116 19:26:36.924922 20811 net.cpp:225] Memory required for data: 147078000
I0116 19:26:36.924929 20811 layer_factory.hpp:114] Creating layer norm1
I0116 19:26:36.924952 20811 net.cpp:160] Creating Layer norm1
I0116 19:26:36.924959 20811 net.cpp:596] norm1 <- conv1
I0116 19:26:36.925062 20811 net.cpp:570] norm1 -> norm1
I0116 19:26:36.925092 20811 net.cpp:210] Setting up norm1
I0116 19:26:36.925102 20811 net.cpp:217] Top shape: 50 96 55 55 (14520000)
I0116 19:26:36.925109 20811 net.cpp:225] Memory required for data: 205158000
I0116 19:26:36.925117 20811 layer_factory.hpp:114] Creating layer pool1
I0116 19:26:36.925161 20811 net.cpp:160] Creating Layer pool1
I0116 19:26:36.925169 20811 net.cpp:596] pool1 <- norm1
I0116 19:26:36.925179 20811 net.cpp:570] pool1 -> pool1
I0116 19:26:36.925199 20811 net.cpp:210] Setting up pool1
I0116 19:26:36.925209 20811 net.cpp:217] Top shape: 50 96 27 27 (3499200)
I0116 19:26:36.925215 20811 net.cpp:225] Memory required for data: 219154800
I0116 19:26:36.925221 20811 layer_factory.hpp:114] Creating layer conv2
I0116 19:26:36.925248 20811 net.cpp:160] Creating Layer conv2
I0116 19:26:36.925256 20811 net.cpp:596] conv2 <- pool1
I0116 19:26:36.925266 20811 net.cpp:570] conv2 -> conv2
I0116 19:26:37.023705 20811 net.cpp:210] Setting up conv2
I0116 19:26:37.023725 20811 net.cpp:217] Top shape: 50 256 27 27 (9331200)
I0116 19:26:37.023732 20811 net.cpp:225] Memory required for data: 256479600
I0116 19:26:37.023746 20811 layer_factory.hpp:114] Creating layer relu2
I0116 19:26:37.023758 20811 net.cpp:160] Creating Layer relu2
I0116 19:26:37.023766 20811 net.cpp:596] relu2 <- conv2
I0116 19:26:37.023774 20811 net.cpp:557] relu2 -> conv2 (in-place)
I0116 19:26:37.023785 20811 net.cpp:210] Setting up relu2
I0116 19:26:37.023793 20811 net.cpp:217] Top shape: 50 256 27 27 (9331200)
I0116 19:26:37.023800 20811 net.cpp:225] Memory required for data: 293804400
I0116 19:26:37.023808 20811 layer_factory.hpp:114] Creating layer norm2
I0116 19:26:37.023819 20811 net.cpp:160] Creating Layer norm2
I0116 19:26:37.023826 20811 net.cpp:596] norm2 <- conv2
I0116 19:26:37.023836 20811 net.cpp:570] norm2 -> norm2
I0116 19:26:37.023850 20811 net.cpp:210] Setting up norm2
I0116 19:26:37.023859 20811 net.cpp:217] Top shape: 50 256 27 27 (9331200)
I0116 19:26:37.023866 20811 net.cpp:225] Memory required for data: 331129200
I0116 19:26:37.023874 20811 layer_factory.hpp:114] Creating layer pool2
I0116 19:26:37.023895 20811 net.cpp:160] Creating Layer pool2
I0116 19:26:37.023902 20811 net.cpp:596] pool2 <- norm2
I0116 19:26:37.023911 20811 net.cpp:570] pool2 -> pool2
I0116 19:26:37.023922 20811 net.cpp:210] Setting up pool2
I0116 19:26:37.023931 20811 net.cpp:217] Top shape: 50 256 13 13 (2163200)
I0116 19:26:37.023938 20811 net.cpp:225] Memory required for data: 339782000
I0116 19:26:37.023946 20811 layer_factory.hpp:114] Creating layer conv3
I0116 19:26:37.023958 20811 net.cpp:160] Creating Layer conv3
I0116 19:26:37.023967 20811 net.cpp:596] conv3 <- pool2
I0116 19:26:37.024070 20811 net.cpp:570] conv3 -> conv3
I0116 19:26:37.111428 20811 net.cpp:210] Setting up conv3
I0116 19:26:37.111479 20811 net.cpp:217] Top shape: 50 384 13 13 (3244800)
I0116 19:26:37.111486 20811 net.cpp:225] Memory required for data: 352761200
I0116 19:26:37.111508 20811 layer_factory.hpp:114] Creating layer relu3
I0116 19:26:37.111526 20811 net.cpp:160] Creating Layer relu3
I0116 19:26:37.111536 20811 net.cpp:596] relu3 <- conv3
I0116 19:26:37.111552 20811 net.cpp:557] relu3 -> conv3 (in-place)
I0116 19:26:37.111568 20811 net.cpp:210] Setting up relu3
I0116 19:26:37.111577 20811 net.cpp:217] Top shape: 50 384 13 13 (3244800)
I0116 19:26:37.111583 20811 net.cpp:225] Memory required for data: 365740400
I0116 19:26:37.111590 20811 layer_factory.hpp:114] Creating layer conv4
I0116 19:26:37.111608 20811 net.cpp:160] Creating Layer conv4
I0116 19:26:37.111615 20811 net.cpp:596] conv4 <- conv3
I0116 19:26:37.111627 20811 net.cpp:570] conv4 -> conv4
I0116 19:26:37.189667 20811 net.cpp:210] Setting up conv4
I0116 19:26:37.189718 20811 net.cpp:217] Top shape: 50 384 13 13 (3244800)
I0116 19:26:37.189724 20811 net.cpp:225] Memory required for data: 378719600
I0116 19:26:37.189735 20811 layer_factory.hpp:114] Creating layer relu4
I0116 19:26:37.189749 20811 net.cpp:160] Creating Layer relu4
I0116 19:26:37.189756 20811 net.cpp:596] relu4 <- conv4
I0116 19:26:37.189766 20811 net.cpp:557] relu4 -> conv4 (in-place)
I0116 19:26:37.189777 20811 net.cpp:210] Setting up relu4
I0116 19:26:37.189785 20811 net.cpp:217] Top shape: 50 384 13 13 (3244800)
I0116 19:26:37.189791 20811 net.cpp:225] Memory required for data: 391698800
I0116 19:26:37.189798 20811 layer_factory.hpp:114] Creating layer conv5
I0116 19:26:37.189813 20811 net.cpp:160] Creating Layer conv5
I0116 19:26:37.189821 20811 net.cpp:596] conv5 <- conv4
I0116 19:26:37.189831 20811 net.cpp:570] conv5 -> conv5
I0116 19:26:37.247366 20811 net.cpp:210] Setting up conv5
I0116 19:26:37.247419 20811 net.cpp:217] Top shape: 50 256 13 13 (2163200)
I0116 19:26:37.247434 20811 net.cpp:225] Memory required for data: 400351600
I0116 19:26:37.247452 20811 layer_factory.hpp:114] Creating layer relu5
I0116 19:26:37.247464 20811 net.cpp:160] Creating Layer relu5
I0116 19:26:37.247473 20811 net.cpp:596] relu5 <- conv5
I0116 19:26:37.247481 20811 net.cpp:557] relu5 -> conv5 (in-place)
I0116 19:26:37.247493 20811 net.cpp:210] Setting up relu5
I0116 19:26:37.247501 20811 net.cpp:217] Top shape: 50 256 13 13 (2163200)
I0116 19:26:37.247508 20811 net.cpp:225] Memory required for data: 409004400
I0116 19:26:37.247514 20811 layer_factory.hpp:114] Creating layer pool5
I0116 19:26:37.247560 20811 net.cpp:160] Creating Layer pool5
I0116 19:26:37.247570 20811 net.cpp:596] pool5 <- conv5
I0116 19:26:37.247580 20811 net.cpp:570] pool5 -> pool5
I0116 19:26:37.247598 20811 net.cpp:210] Setting up pool5
I0116 19:26:37.247608 20811 net.cpp:217] Top shape: 50 256 6 6 (460800)
I0116 19:26:37.247614 20811 net.cpp:225] Memory required for data: 410847600
I0116 19:26:37.247622 20811 layer_factory.hpp:114] Creating layer fc6
I0116 19:26:37.247643 20811 net.cpp:160] Creating Layer fc6
I0116 19:26:37.247650 20811 net.cpp:596] fc6 <- pool5
I0116 19:26:37.247661 20811 net.cpp:570] fc6 -> fc6
I0116 19:26:38.502480 20811 net.cpp:210] Setting up fc6
I0116 19:26:38.502626 20811 net.cpp:217] Top shape: 50 4096 (204800)
I0116 19:26:38.502635 20811 net.cpp:225] Memory required for data: 411666800
I0116 19:26:38.502661 20811 layer_factory.hpp:114] Creating layer relu6
I0116 19:26:38.502693 20811 net.cpp:160] Creating Layer relu6
I0116 19:26:38.502707 20811 net.cpp:596] relu6 <- fc6
I0116 19:26:38.502724 20811 net.cpp:557] relu6 -> fc6 (in-place)
I0116 19:26:38.502748 20811 net.cpp:210] Setting up relu6
I0116 19:26:38.502756 20811 net.cpp:217] Top shape: 50 4096 (204800)
I0116 19:26:38.502763 20811 net.cpp:225] Memory required for data: 412486000
I0116 19:26:38.502770 20811 layer_factory.hpp:114] Creating layer drop6
I0116 19:26:38.502796 20811 net.cpp:160] Creating Layer drop6
I0116 19:26:38.502804 20811 net.cpp:596] drop6 <- fc6
I0116 19:26:38.502812 20811 net.cpp:557] drop6 -> fc6 (in-place)
I0116 19:26:38.502828 20811 net.cpp:210] Setting up drop6
I0116 19:26:38.502836 20811 net.cpp:217] Top shape: 50 4096 (204800)
I0116 19:26:38.502843 20811 net.cpp:225] Memory required for data: 413305200
I0116 19:26:38.502851 20811 layer_factory.hpp:114] Creating layer fc7
I0116 19:26:38.502874 20811 net.cpp:160] Creating Layer fc7
I0116 19:26:38.502882 20811 net.cpp:596] fc7 <- fc6
I0116 19:26:38.502892 20811 net.cpp:570] fc7 -> fc7
I0116 19:26:39.062782 20811 net.cpp:210] Setting up fc7
I0116 19:26:39.062945 20811 net.cpp:217] Top shape: 50 4096 (204800)
I0116 19:26:39.062954 20811 net.cpp:225] Memory required for data: 414124400
I0116 19:26:39.062979 20811 layer_factory.hpp:114] Creating layer relu7
I0116 19:26:39.063022 20811 net.cpp:160] Creating Layer relu7
I0116 19:26:39.063036 20811 net.cpp:596] relu7 <- fc7
I0116 19:26:39.063055 20811 net.cpp:557] relu7 -> fc7 (in-place)
I0116 19:26:39.063122 20811 net.cpp:210] Setting up relu7
I0116 19:26:39.063132 20811 net.cpp:217] Top shape: 50 4096 (204800)
I0116 19:26:39.063144 20811 net.cpp:225] Memory required for data: 414943600
I0116 19:26:39.063151 20811 layer_factory.hpp:114] Creating layer drop7
I0116 19:26:39.063170 20811 net.cpp:160] Creating Layer drop7
I0116 19:26:39.063177 20811 net.cpp:596] drop7 <- fc7
I0116 19:26:39.063189 20811 net.cpp:557] drop7 -> fc7 (in-place)
I0116 19:26:39.063205 20811 net.cpp:210] Setting up drop7
I0116 19:26:39.063213 20811 net.cpp:217] Top shape: 50 4096 (204800)
I0116 19:26:39.063220 20811 net.cpp:225] Memory required for data: 415762800
I0116 19:26:39.063227 20811 layer_factory.hpp:114] Creating layer fc8
I0116 19:26:39.063249 20811 net.cpp:160] Creating Layer fc8
I0116 19:26:39.063256 20811 net.cpp:596] fc8 <- fc7
I0116 19:26:39.063266 20811 net.cpp:570] fc8 -> fc8
I0116 19:26:39.200623 20811 net.cpp:210] Setting up fc8
I0116 19:26:39.200685 20811 net.cpp:217] Top shape: 50 1000 (50000)
I0116 19:26:39.200693 20811 net.cpp:225] Memory required for data: 415962800
I0116 19:26:39.200706 20811 layer_factory.hpp:114] Creating layer fc8_fc8_0_split
I0116 19:26:39.200724 20811 net.cpp:160] Creating Layer fc8_fc8_0_split
I0116 19:26:39.200732 20811 net.cpp:596] fc8_fc8_0_split <- fc8
I0116 19:26:39.200744 20811 net.cpp:570] fc8_fc8_0_split -> fc8_fc8_0_split_0
I0116 19:26:39.200757 20811 net.cpp:570] fc8_fc8_0_split -> fc8_fc8_0_split_1
I0116 19:26:39.200772 20811 net.cpp:210] Setting up fc8_fc8_0_split
I0116 19:26:39.200781 20811 net.cpp:217] Top shape: 50 1000 (50000)
I0116 19:26:39.200789 20811 net.cpp:217] Top shape: 50 1000 (50000)
I0116 19:26:39.200795 20811 net.cpp:225] Memory required for data: 416362800
I0116 19:26:39.200803 20811 layer_factory.hpp:114] Creating layer accuracy
I0116 19:26:39.200827 20811 net.cpp:160] Creating Layer accuracy
I0116 19:26:39.200835 20811 net.cpp:596] accuracy <- fc8_fc8_0_split_0
I0116 19:26:39.200844 20811 net.cpp:596] accuracy <- label_data_1_split_0
I0116 19:26:39.200852 20811 net.cpp:570] accuracy -> accuracy
…
