…
I0116 19:32:25.645347 21425 net.cpp:484] The NetState phase (0) differed from the phase (1) specified by a rule in layer accuracy
I0116 19:32:25.646968 21425 net.cpp:120] Initializing net from parameters: 
name: "AlexNet"
state {
  phase: TRAIN
  level: 0
  stage: ""
}
layer {
  name: "data"
  type: "Data"
  top: "data"
  top: "label"
  include {
    phase: TRAIN
  }
  transform_param {
    mirror: true
    crop_size: 227
    mean_file: "/home/user/caffeOMP/original/caffe/data/ilsvrc12/imagenet_mean.binaryproto"
  }
  data_param {
    source: "/home/user/caffeOMP/original/caffe/examples/imagenet/ilsvrc12_train_lmdb"
    batch_size: 256
    backend: LMDB
  }
}
layer {
  name: "conv1"
  type: "Convolution"
  bottom: "data"
  top: "conv1"
  param {
    lr_mult: 1
    decay_mult: 1
  }
  param {
    lr_mult: 2
    decay_mult: 0
  }
  convolution_param {
    num_output: 96
    kernel_size: 11
    stride: 4
    weight_filler {
      type: "gaussian"
      std: 0.01
    }
    bias_filler {
      type: "constant"
      value: 0
    }
  }
}
layer {
  name: "relu1"
  type: "ReLU"
  bottom: "conv1"
  top: "conv1"
}
layer {
  name: "norm1"
  type: "LRN"
  bottom: "conv1"
  top: "norm1"
  lrn_param {
    local_size: 5
    alpha: 0.0001
    beta: 0.75
  }
}
layer {
  name: "pool1"
  type: "Pooling"
  bottom: "norm1"
  top: "pool1"
  pooling_param {
    pool: MAX
    kernel_size: 3
    stride: 2
  }
}
layer {
  name: "conv2"
  type: "Convolution"
  bottom: "pool1"
  top: "conv2"
  param {
    lr_mult: 1
    decay_mult: 1
  }
  param {
    lr_mult: 2
    decay_mult: 0
  }
  convolution_param {
    num_output: 256
    pad: 2
    kernel_size: 5
    group: 2
    weight_filler {
      type: "gaussian"
      std: 0.01
    }
    bias_filler {
      type: "constant"
      value: 0.1
    }
  }
}
layer {
  name: "relu2"
  type: "ReLU"
  bottom: "conv2"
  top: "conv2"
}
layer {
  name: "norm2"
  type: "LRN"
  bottom: "conv2"
  top: "norm2"
  lrn_param {
    local_size: 5
    alpha: 0.0001
    beta: 0.75
  }
}
layer {
  name: "pool2"
  type: "Pooling"
  bottom: "norm2"
  top: "pool2"
  pooling_param {
    pool: MAX
    kernel_size: 3
    stride: 2
  }
}
layer {
  name: "conv3"
  type: "Convolution"
  bottom: "pool2"
  top: "conv3"
  param {
    lr_mult: 1
    decay_mult: 1
  }
  param {
    lr_mult: 2
    decay_mult: 0
  }
  convolution_param {
    num_output: 384
    pad: 1
    kernel_size: 3
    weight_filler {
      type: "gaussian"
      std: 0.01
    }
    bias_filler {
      type: "constant"
      value: 0
    }
  }
}
layer {
  name: "relu3"
  type: "ReLU"
  bottom: "conv3"
  top: "conv3"
}
layer {
  name: "conv4"
  type: "Convolution"
  bottom: "conv3"
  top: "conv4"
  param {
    lr_mult: 1
    decay_mult: 1
  }
  param {
    lr_mult: 2
    decay_mult: 0
  }
  convolution_param {
    num_output: 384
    pad: 1
    kernel_size: 3
    group: 2
    weight_filler {
      type: "gaussian"
      std: 0.01
    }
    bias_filler {
      type: "constant"
      value: 0.1
    }
  }
}
layer {
  name: "relu4"
  type: "ReLU"
  bottom: "conv4"
  top: "conv4"
}
layer {
  name: "conv5"
  type: "Convolution"
  bottom: "conv4"
  top: "conv5"
  param {
    lr_mult: 1
    decay_mult: 1
  }
  param {
    lr_mult: 2
    decay_mult: 0
  }
  convolution_param {
    num_output: 256
    pad: 1
    kernel_size: 3
    group: 2
    weight_filler {
      type: "gaussian"
      std: 0.01
    }
    bias_filler {
      type: "constant"
      value: 0.1
    }
  }
}
layer {
  name: "relu5"
  type: "ReLU"
  bottom: "conv5"
  top: "conv5"
}
layer {
  name: "pool5"
  type: "Pooling"
  bottom: "conv5"
  top: "pool5"
  pooling_param {
    pool: MAX
    kernel_size: 3
    stride: 2
  }
}
layer {
  name: "fc6"
  type: "InnerProduct"
  bottom: "pool5"
  top: "fc6"
  param {
    lr_mult: 1
    decay_mult: 1
  }
  param {
    lr_mult: 2
    decay_mult: 0
  }
  inner_product_param {
    num_output: 4096
    weight_filler {
      type: "gaussian"
      std: 0.005
    }
    bias_filler {
      type: "constant"
      value: 0.1
    }
  }
}
layer {
  name: "relu6"
  type: "ReLU"
  bottom: "fc6"
  top: "fc6"
}
layer {
  name: "drop6"
  type: "Dropout"
  bottom: "fc6"
  top: "fc6"
  dropout_param {
    dropout_ratio: 0.5
  }
}
layer {
  name: "fc7"
  type: "InnerProduct"
  bottom: "fc6"
  top: "fc7"
  param {
    lr_mult: 1
    decay_mult: 1
  }
  param {
    lr_mult: 2
    decay_mult: 0
  }
  inner_product_param {
    num_output: 4096
    weight_filler {
      type: "gaussian"
      std: 0.005
    }
    bias_filler {
      type: "constant"
      value: 0.1
    }
  }
}
layer {
  name: "relu7"
  type: "ReLU"
  bottom: "fc7"
  top: "fc7"
}
layer {
  name: "drop7"
  type: "Dropout"
  bottom: "fc7"
  top: "fc7"
  dropout_param {
    dropout_ratio: 0.5
  }
}
layer {
  name: "fc8"
  type: "InnerProduct"
  bottom: "fc7"
  top: "fc8"
  param {
    lr_mult: 1
    decay_mult: 1
  }
  param {
    lr_mult: 2
    decay_mult: 0
  }
  inner_product_param {
    num_output: 1000
    weight_filler {
      type: "gaussian"
      std: 0.01
    }
    bias_filler {
      type: "constant"
      value: 0
    }
  }
}
layer {
  name: "loss"
  type: "SoftmaxWithLoss"
  bottom: "fc8"
  bottom: "label"
  top: "loss"
}
I0116 19:32:25.647130 21425 layer_factory.hpp:114] Creating layer data
I0116 19:32:25.648739 21425 net.cpp:160] Creating Layer data
I0116 19:32:25.648813 21425 net.cpp:570] data -> data
I0116 19:32:25.648864 21425 net.cpp:570] data -> label
I0116 19:32:25.648897 21425 data_transformer.cpp:62] Loading mean file from: /home/user/caffeOMP/original/caffe/data/ilsvrc12/imagenet_mean.binaryproto
I0116 19:32:25.649118 21426 db_lmdb.cpp:72] Opened lmdb /home/user/caffeOMP/original/caffe/examples/imagenet/ilsvrc12_train_lmdb
I0116 19:32:25.660171 21425 data_layer.cpp:80] output data size: 256,3,227,227
I0116 19:32:25.870282 21425 net.cpp:210] Setting up data
I0116 19:32:25.870436 21425 net.cpp:217] Top shape: 256 3 227 227 (39574272)
I0116 19:32:25.870457 21425 net.cpp:217] Top shape: 256 (256)
I0116 19:32:25.870471 21425 net.cpp:225] Memory required for data: 158298112
I0116 19:32:25.870502 21425 layer_factory.hpp:114] Creating layer conv1
I0116 19:32:25.870584 21425 net.cpp:160] Creating Layer conv1
I0116 19:32:25.870605 21425 net.cpp:596] conv1 <- data
I0116 19:32:25.870637 21425 net.cpp:570] conv1 -> conv1
I0116 19:32:25.902184 21425 net.cpp:210] Setting up conv1
I0116 19:32:25.902326 21425 net.cpp:217] Top shape: 256 96 55 55 (74342400)
I0116 19:32:25.902340 21425 net.cpp:225] Memory required for data: 455667712
I0116 19:32:25.902415 21425 layer_factory.hpp:114] Creating layer relu1
I0116 19:32:25.902467 21425 net.cpp:160] Creating Layer relu1
I0116 19:32:25.902484 21425 net.cpp:596] relu1 <- conv1
I0116 19:32:25.902508 21425 net.cpp:557] relu1 -> conv1 (in-place)
I0116 19:32:25.902544 21425 net.cpp:210] Setting up relu1
I0116 19:32:25.902561 21425 net.cpp:217] Top shape: 256 96 55 55 (74342400)
I0116 19:32:25.902627 21425 net.cpp:225] Memory required for data: 753037312
I0116 19:32:25.902640 21425 layer_factory.hpp:114] Creating layer norm1
I0116 19:32:25.902669 21425 net.cpp:160] Creating Layer norm1
I0116 19:32:25.902683 21425 net.cpp:596] norm1 <- conv1
I0116 19:32:25.902701 21425 net.cpp:570] norm1 -> norm1
I0116 19:32:25.902747 21425 net.cpp:210] Setting up norm1
I0116 19:32:25.902765 21425 net.cpp:217] Top shape: 256 96 55 55 (74342400)
I0116 19:32:25.902776 21425 net.cpp:225] Memory required for data: 1050406912
I0116 19:32:25.902789 21425 layer_factory.hpp:114] Creating layer pool1
I0116 19:32:25.902963 21425 net.cpp:160] Creating Layer pool1
I0116 19:32:25.902990 21425 net.cpp:596] pool1 <- norm1
I0116 19:32:25.903012 21425 net.cpp:570] pool1 -> pool1
I0116 19:32:25.903053 21425 net.cpp:210] Setting up pool1
I0116 19:32:25.903071 21425 net.cpp:217] Top shape: 256 96 27 27 (17915904)
I0116 19:32:25.903093 21425 net.cpp:225] Memory required for data: 1122070528
I0116 19:32:25.903106 21425 layer_factory.hpp:114] Creating layer conv2
I0116 19:32:25.903148 21425 net.cpp:160] Creating Layer conv2
I0116 19:32:25.903162 21425 net.cpp:596] conv2 <- pool1
I0116 19:32:25.903180 21425 net.cpp:570] conv2 -> conv2
I0116 19:32:25.972537 21425 net.cpp:210] Setting up conv2
I0116 19:32:25.972683 21425 net.cpp:217] Top shape: 256 256 27 27 (47775744)
I0116 19:32:25.972700 21425 net.cpp:225] Memory required for data: 1313173504
I0116 19:32:25.972764 21425 layer_factory.hpp:114] Creating layer relu2
I0116 19:32:25.972810 21425 net.cpp:160] Creating Layer relu2
I0116 19:32:25.972829 21425 net.cpp:596] relu2 <- conv2
I0116 19:32:25.972857 21425 net.cpp:557] relu2 -> conv2 (in-place)
I0116 19:32:25.972895 21425 net.cpp:210] Setting up relu2
I0116 19:32:25.972910 21425 net.cpp:217] Top shape: 256 256 27 27 (47775744)
I0116 19:32:25.972923 21425 net.cpp:225] Memory required for data: 1504276480
I0116 19:32:25.972935 21425 layer_factory.hpp:114] Creating layer norm2
I0116 19:32:25.972961 21425 net.cpp:160] Creating Layer norm2
I0116 19:32:25.972975 21425 net.cpp:596] norm2 <- conv2
I0116 19:32:25.973003 21425 net.cpp:570] norm2 -> norm2
I0116 19:32:25.973047 21425 net.cpp:210] Setting up norm2
I0116 19:32:25.973063 21425 net.cpp:217] Top shape: 256 256 27 27 (47775744)
I0116 19:32:25.973075 21425 net.cpp:225] Memory required for data: 1695379456
I0116 19:32:25.973088 21425 layer_factory.hpp:114] Creating layer pool2
I0116 19:32:25.973201 21425 net.cpp:160] Creating Layer pool2
I0116 19:32:25.973217 21425 net.cpp:596] pool2 <- norm2
I0116 19:32:25.973235 21425 net.cpp:570] pool2 -> pool2
I0116 19:32:25.973268 21425 net.cpp:210] Setting up pool2
I0116 19:32:25.973285 21425 net.cpp:217] Top shape: 256 256 13 13 (11075584)
I0116 19:32:25.973297 21425 net.cpp:225] Memory required for data: 1739681792
I0116 19:32:25.973310 21425 layer_factory.hpp:114] Creating layer conv3
I0116 19:32:25.973356 21425 net.cpp:160] Creating Layer conv3
I0116 19:32:25.973369 21425 net.cpp:596] conv3 <- pool2
I0116 19:32:25.973387 21425 net.cpp:570] conv3 -> conv3
I0116 19:32:26.044931 21425 net.cpp:210] Setting up conv3
I0116 19:32:26.045091 21425 net.cpp:217] Top shape: 256 384 13 13 (16613376)
I0116 19:32:26.045100 21425 net.cpp:225] Memory required for data: 1806135296
I0116 19:32:26.045135 21425 layer_factory.hpp:114] Creating layer relu3
I0116 19:32:26.045168 21425 net.cpp:160] Creating Layer relu3
I0116 19:32:26.045182 21425 net.cpp:596] relu3 <- conv3
I0116 19:32:26.045200 21425 net.cpp:557] relu3 -> conv3 (in-place)
I0116 19:32:26.045223 21425 net.cpp:210] Setting up relu3
I0116 19:32:26.045231 21425 net.cpp:217] Top shape: 256 384 13 13 (16613376)
I0116 19:32:26.045238 21425 net.cpp:225] Memory required for data: 1872588800
I0116 19:32:26.045245 21425 layer_factory.hpp:114] Creating layer conv4
I0116 19:32:26.045274 21425 net.cpp:160] Creating Layer conv4
I0116 19:32:26.045281 21425 net.cpp:596] conv4 <- conv3
I0116 19:32:26.045294 21425 net.cpp:570] conv4 -> conv4
I0116 19:32:26.092308 21425 net.cpp:210] Setting up conv4
I0116 19:32:26.092388 21425 net.cpp:217] Top shape: 256 384 13 13 (16613376)
I0116 19:32:26.092396 21425 net.cpp:225] Memory required for data: 1939042304
I0116 19:32:26.092406 21425 layer_factory.hpp:114] Creating layer relu4
I0116 19:32:26.092417 21425 net.cpp:160] Creating Layer relu4
I0116 19:32:26.092424 21425 net.cpp:596] relu4 <- conv4
I0116 19:32:26.092437 21425 net.cpp:557] relu4 -> conv4 (in-place)
I0116 19:32:26.092447 21425 net.cpp:210] Setting up relu4
I0116 19:32:26.092455 21425 net.cpp:217] Top shape: 256 384 13 13 (16613376)
I0116 19:32:26.092461 21425 net.cpp:225] Memory required for data: 2005495808
I0116 19:32:26.092468 21425 layer_factory.hpp:114] Creating layer conv5
I0116 19:32:26.092484 21425 net.cpp:160] Creating Layer conv5
I0116 19:32:26.092491 21425 net.cpp:596] conv5 <- conv4
I0116 19:32:26.092501 21425 net.cpp:570] conv5 -> conv5
I0116 19:32:26.128697 21425 net.cpp:210] Setting up conv5
I0116 19:32:26.128741 21425 net.cpp:217] Top shape: 256 256 13 13 (11075584)
I0116 19:32:26.128747 21425 net.cpp:225] Memory required for data: 2049798144
I0116 19:32:26.128767 21425 layer_factory.hpp:114] Creating layer relu5
I0116 19:32:26.128779 21425 net.cpp:160] Creating Layer relu5
I0116 19:32:26.128787 21425 net.cpp:596] relu5 <- conv5
I0116 19:32:26.128796 21425 net.cpp:557] relu5 -> conv5 (in-place)
I0116 19:32:26.128808 21425 net.cpp:210] Setting up relu5
I0116 19:32:26.128815 21425 net.cpp:217] Top shape: 256 256 13 13 (11075584)
I0116 19:32:26.128823 21425 net.cpp:225] Memory required for data: 2094100480
I0116 19:32:26.128829 21425 layer_factory.hpp:114] Creating layer pool5
I0116 19:32:26.128885 21425 net.cpp:160] Creating Layer pool5
I0116 19:32:26.128892 21425 net.cpp:596] pool5 <- conv5
I0116 19:32:26.128903 21425 net.cpp:570] pool5 -> pool5
I0116 19:32:26.128923 21425 net.cpp:210] Setting up pool5
I0116 19:32:26.128932 21425 net.cpp:217] Top shape: 256 256 6 6 (2359296)
I0116 19:32:26.128939 21425 net.cpp:225] Memory required for data: 2103537664
I0116 19:32:26.128947 21425 layer_factory.hpp:114] Creating layer fc6
I0116 19:32:26.128973 21425 net.cpp:160] Creating Layer fc6
I0116 19:32:26.128980 21425 net.cpp:596] fc6 <- pool5
I0116 19:32:26.128999 21425 net.cpp:570] fc6 -> fc6
I0116 19:32:27.383666 21425 net.cpp:210] Setting up fc6
I0116 19:32:27.383827 21425 net.cpp:217] Top shape: 256 4096 (1048576)
I0116 19:32:27.383836 21425 net.cpp:225] Memory required for data: 2107731968
I0116 19:32:27.383864 21425 layer_factory.hpp:114] Creating layer relu6
I0116 19:32:27.383898 21425 net.cpp:160] Creating Layer relu6
I0116 19:32:27.383910 21425 net.cpp:596] relu6 <- fc6
I0116 19:32:27.383932 21425 net.cpp:557] relu6 -> fc6 (in-place)
I0116 19:32:27.383956 21425 net.cpp:210] Setting up relu6
I0116 19:32:27.383965 21425 net.cpp:217] Top shape: 256 4096 (1048576)
I0116 19:32:27.383971 21425 net.cpp:225] Memory required for data: 2111926272
I0116 19:32:27.383978 21425 layer_factory.hpp:114] Creating layer drop6
I0116 19:32:27.384011 21425 net.cpp:160] Creating Layer drop6
I0116 19:32:27.384018 21425 net.cpp:596] drop6 <- fc6
I0116 19:32:27.384028 21425 net.cpp:557] drop6 -> fc6 (in-place)
I0116 19:32:27.384050 21425 net.cpp:210] Setting up drop6
I0116 19:32:27.384059 21425 net.cpp:217] Top shape: 256 4096 (1048576)
I0116 19:32:27.384065 21425 net.cpp:225] Memory required for data: 2116120576
I0116 19:32:27.384073 21425 layer_factory.hpp:114] Creating layer fc7
I0116 19:32:27.384096 21425 net.cpp:160] Creating Layer fc7
I0116 19:32:27.384104 21425 net.cpp:596] fc7 <- fc6
I0116 19:32:27.384116 21425 net.cpp:570] fc7 -> fc7
I0116 19:32:27.941943 21425 net.cpp:210] Setting up fc7
I0116 19:32:27.942093 21425 net.cpp:217] Top shape: 256 4096 (1048576)
I0116 19:32:27.942102 21425 net.cpp:225] Memory required for data: 2120314880
I0116 19:32:27.942128 21425 layer_factory.hpp:114] Creating layer relu7
I0116 19:32:27.942164 21425 net.cpp:160] Creating Layer relu7
I0116 19:32:27.942176 21425 net.cpp:596] relu7 <- fc7
I0116 19:32:27.942196 21425 net.cpp:557] relu7 -> fc7 (in-place)
I0116 19:32:27.942219 21425 net.cpp:210] Setting up relu7
I0116 19:32:27.942270 21425 net.cpp:217] Top shape: 256 4096 (1048576)
I0116 19:32:27.942276 21425 net.cpp:225] Memory required for data: 2124509184
I0116 19:32:27.942283 21425 layer_factory.hpp:114] Creating layer drop7
I0116 19:32:27.942301 21425 net.cpp:160] Creating Layer drop7
I0116 19:32:27.942308 21425 net.cpp:596] drop7 <- fc7
I0116 19:32:27.942319 21425 net.cpp:557] drop7 -> fc7 (in-place)
I0116 19:32:27.942335 21425 net.cpp:210] Setting up drop7
I0116 19:32:27.942343 21425 net.cpp:217] Top shape: 256 4096 (1048576)
I0116 19:32:27.942350 21425 net.cpp:225] Memory required for data: 2128703488
I0116 19:32:27.942358 21425 layer_factory.hpp:114] Creating layer fc8
I0116 19:32:27.942379 21425 net.cpp:160] Creating Layer fc8
I0116 19:32:27.942386 21425 net.cpp:596] fc8 <- fc7
I0116 19:32:27.942397 21425 net.cpp:570] fc8 -> fc8
I0116 19:32:28.078903 21425 net.cpp:210] Setting up fc8
I0116 19:32:28.078960 21425 net.cpp:217] Top shape: 256 1000 (256000)
I0116 19:32:28.078968 21425 net.cpp:225] Memory required for data: 2129727488
I0116 19:32:28.078989 21425 layer_factory.hpp:114] Creating layer loss
I0116 19:32:28.079015 21425 net.cpp:160] Creating Layer loss
I0116 19:32:28.079025 21425 net.cpp:596] loss <- fc8
I0116 19:32:28.079032 21425 net.cpp:596] loss <- label
I0116 19:32:28.079044 21425 net.cpp:570] loss -> loss
I0116 19:32:28.079071 21425 layer_factory.hpp:114] Creating layer loss
…
I0116 19:32:28.087112 21425 net.cpp:484] The NetState phase (1) differed from the phase (0) specified by a rule in layer data
I0116 19:32:28.087934 21425 net.cpp:120] Initializing net from parameters: 
name: "AlexNet"
state {
  phase: TEST
}
layer {
  name: "data"
  type: "Data"
  top: "data"
  top: "label"
  include {
    phase: TEST
  }
  transform_param {
    mirror: false
    crop_size: 227
    mean_file: "/home/user/caffeOMP/original/caffe/data/ilsvrc12/imagenet_mean.binaryproto"
  }
  data_param {
    source: "/home/user/caffeOMP/original/caffe/examples/imagenet/ilsvrc12_val_lmdb"
    batch_size: 50
    backend: LMDB
  }
}
layer {
  name: "label_data_1_split"
  type: "Split"
  bottom: "label"
  top: "label_data_1_split_0"
  top: "label_data_1_split_1"
}
layer {
  name: "conv1"
  type: "Convolution"
  bottom: "data"
  top: "conv1"
  param {
    lr_mult: 1
    decay_mult: 1
  }
  param {
    lr_mult: 2
    decay_mult: 0
  }
  convolution_param {
    num_output: 96
    kernel_size: 11
    stride: 4
    weight_filler {
      type: "gaussian"
      std: 0.01
    }
    bias_filler {
      type: "constant"
      value: 0
    }
  }
}
layer {
  name: "relu1"
  type: "ReLU"
  bottom: "conv1"
  top: "conv1"
}
layer {
  name: "norm1"
  type: "LRN"
  bottom: "conv1"
  top: "norm1"
  lrn_param {
    local_size: 5
    alpha: 0.0001
    beta: 0.75
  }
}
layer {
  name: "pool1"
  type: "Pooling"
  bottom: "norm1"
  top: "pool1"
  pooling_param {
    pool: MAX
    kernel_size: 3
    stride: 2
  }
}
layer {
  name: "conv2"
  type: "Convolution"
  bottom: "pool1"
  top: "conv2"
  param {
    lr_mult: 1
    decay_mult: 1
  }
  param {
    lr_mult: 2
    decay_mult: 0
  }
  convolution_param {
    num_output: 256
    pad: 2
    kernel_size: 5
    group: 2
    weight_filler {
      type: "gaussian"
      std: 0.01
    }
    bias_filler {
      type: "constant"
      value: 0.1
    }
  }
}
layer {
  name: "relu2"
  type: "ReLU"
  bottom: "conv2"
  top: "conv2"
}
layer {
  name: "norm2"
  type: "LRN"
  bottom: "conv2"
  top: "norm2"
  lrn_param {
    local_size: 5
    alpha: 0.0001
    beta: 0.75
  }
}
layer {
  name: "pool2"
  type: "Pooling"
  bottom: "norm2"
  top: "pool2"
  pooling_param {
    pool: MAX
    kernel_size: 3
    stride: 2
  }
}
layer {
  name: "conv3"
  type: "Convolution"
  bottom: "pool2"
  top: "conv3"
  param {
    lr_mult: 1
    decay_mult: 1
  }
  param {
    lr_mult: 2
    decay_mult: 0
  }
  convolution_param {
    num_output: 384
    pad: 1
    kernel_size: 3
    weight_filler {
      type: "gaussian"
      std: 0.01
    }
    bias_filler {
      type: "constant"
      value: 0
    }
  }
}
layer {
  name: "relu3"
  type: "ReLU"
  bottom: "conv3"
  top: "conv3"
}
layer {
  name: "conv4"
  type: "Convolution"
  bottom: "conv3"
  top: "conv4"
  param {
    lr_mult: 1
    decay_mult: 1
  }
  param {
    lr_mult: 2
    decay_mult: 0
  }
  convolution_param {
    num_output: 384
    pad: 1
    kernel_size: 3
    group: 2
    weight_filler {
      type: "gaussian"
      std: 0.01
    }
    bias_filler {
      type: "constant"
      value: 0.1
    }
  }
}
layer {
  name: "relu4"
  type: "ReLU"
  bottom: "conv4"
  top: "conv4"
}
layer {
  name: "conv5"
  type: "Convolution"
  bottom: "conv4"
  top: "conv5"
  param {
    lr_mult: 1
    decay_mult: 1
  }
  param {
    lr_mult: 2
    decay_mult: 0
  }
  convolution_param {
    num_output: 256
    pad: 1
    kernel_size: 3
    group: 2
    weight_filler {
      type: "gaussian"
      std: 0.01
    }
    bias_filler {
      type: "constant"
      value: 0.1
    }
  }
}
layer {
  name: "relu5"
  type: "ReLU"
  bottom: "conv5"
  top: "conv5"
}
layer {
  name: "pool5"
  type: "Pooling"
  bottom: "conv5"
  top: "pool5"
  pooling_param {
    pool: MAX
    kernel_size: 3
    stride: 2
  }
}
layer {
  name: "fc6"
  type: "InnerProduct"
  bottom: "pool5"
  top: "fc6"
  param {
    lr_mult: 1
    decay_mult: 1
  }
  param {
    lr_mult: 2
    decay_mult: 0
  }
  inner_product_param {
    num_output: 4096
    weight_filler {
      type: "gaussian"
      std: 0.005
    }
    bias_filler {
      type: "constant"
      value: 0.1
    }
  }
}
layer {
  name: "relu6"
  type: "ReLU"
  bottom: "fc6"
  top: "fc6"
}
layer {
  name: "drop6"
  type: "Dropout"
  bottom: "fc6"
  top: "fc6"
  dropout_param {
    dropout_ratio: 0.5
  }
}
layer {
  name: "fc7"
  type: "InnerProduct"
  bottom: "fc6"
  top: "fc7"
  param {
    lr_mult: 1
    decay_mult: 1
  }
  param {
    lr_mult: 2
    decay_mult: 0
  }
  inner_product_param {
    num_output: 4096
    weight_filler {
      type: "gaussian"
      std: 0.005
    }
    bias_filler {
      type: "constant"
      value: 0.1
    }
  }
}
layer {
  name: "relu7"
  type: "ReLU"
  bottom: "fc7"
  top: "fc7"
}
layer {
  name: "drop7"
  type: "Dropout"
  bottom: "fc7"
  top: "fc7"
  dropout_param {
    dropout_ratio: 0.5
  }
}
layer {
  name: "fc8"
  type: "InnerProduct"
  bottom: "fc7"
  top: "fc8"
  param {
    lr_mult: 1
    decay_mult: 1
  }
  param {
    lr_mult: 2
    decay_mult: 0
  }
  inner_product_param {
    num_output: 1000
    weight_filler {
      type: "gaussian"
      std: 0.01
    }
    bias_filler {
      type: "constant"
      value: 0
    }
  }
}
layer {
  name: "fc8_fc8_0_split"
  type: "Split"
  bottom: "fc8"
  top: "fc8_fc8_0_split_0"
  top: "fc8_fc8_0_split_1"
}
layer {
  name: "accuracy"
  type: "Accuracy"
  bottom: "fc8_fc8_0_split_0"
  bottom: "label_data_1_split_0"
  top: "accuracy"
  include {
    phase: TEST
  }
}
layer {
  name: "loss"
  type: "SoftmaxWithLoss"
  bottom: "fc8_fc8_0_split_1"
  bottom: "label_data_1_split_1"
  top: "loss"
}
I0116 19:32:28.087973 21425 layer_factory.hpp:114] Creating layer data
I0116 19:32:28.088136 21425 net.cpp:160] Creating Layer data
I0116 19:32:28.088157 21425 net.cpp:570] data -> data
I0116 19:32:28.088179 21425 net.cpp:570] data -> label
I0116 19:32:28.088202 21425 data_transformer.cpp:62] Loading mean file from: /home/user/caffeOMP/original/caffe/data/ilsvrc12/imagenet_mean.binaryproto
I0116 19:32:28.088315 21443 db_lmdb.cpp:72] Opened lmdb /home/user/caffeOMP/original/caffe/examples/imagenet/ilsvrc12_val_lmdb
I0116 19:32:28.093919 21425 data_layer.cpp:80] output data size: 50,3,227,227
I0116 19:32:28.133807 21425 net.cpp:210] Setting up data
I0116 19:32:28.133954 21425 net.cpp:217] Top shape: 50 3 227 227 (7729350)
I0116 19:32:28.133975 21425 net.cpp:217] Top shape: 50 (50)
I0116 19:32:28.134038 21425 net.cpp:225] Memory required for data: 30917600
I0116 19:32:28.134066 21425 layer_factory.hpp:114] Creating layer label_data_1_split
I0116 19:32:28.134117 21425 net.cpp:160] Creating Layer label_data_1_split
I0116 19:32:28.134135 21425 net.cpp:596] label_data_1_split <- label
I0116 19:32:28.134162 21425 net.cpp:570] label_data_1_split -> label_data_1_split_0
I0116 19:32:28.134196 21425 net.cpp:570] label_data_1_split -> label_data_1_split_1
I0116 19:32:28.134234 21425 net.cpp:210] Setting up label_data_1_split
I0116 19:32:28.134253 21425 net.cpp:217] Top shape: 50 (50)
I0116 19:32:28.134268 21425 net.cpp:217] Top shape: 50 (50)
I0116 19:32:28.134281 21425 net.cpp:225] Memory required for data: 30918000
I0116 19:32:28.134294 21425 layer_factory.hpp:114] Creating layer conv1
I0116 19:32:28.134337 21425 net.cpp:160] Creating Layer conv1
I0116 19:32:28.134351 21425 net.cpp:596] conv1 <- data
I0116 19:32:28.134371 21425 net.cpp:570] conv1 -> conv1
I0116 19:32:28.166486 21425 net.cpp:210] Setting up conv1
I0116 19:32:28.166628 21425 net.cpp:217] Top shape: 50 96 55 55 (14520000)
I0116 19:32:28.166636 21425 net.cpp:225] Memory required for data: 88998000
I0116 19:32:28.166679 21425 layer_factory.hpp:114] Creating layer relu1
I0116 19:32:28.166743 21425 net.cpp:160] Creating Layer relu1
I0116 19:32:28.166754 21425 net.cpp:596] relu1 <- conv1
I0116 19:32:28.166770 21425 net.cpp:557] relu1 -> conv1 (in-place)
I0116 19:32:28.166793 21425 net.cpp:210] Setting up relu1
I0116 19:32:28.166823 21425 net.cpp:217] Top shape: 50 96 55 55 (14520000)
I0116 19:32:28.166829 21425 net.cpp:225] Memory required for data: 147078000
I0116 19:32:28.166837 21425 layer_factory.hpp:114] Creating layer norm1
I0116 19:32:28.166859 21425 net.cpp:160] Creating Layer norm1
I0116 19:32:28.166867 21425 net.cpp:596] norm1 <- conv1
I0116 19:32:28.166878 21425 net.cpp:570] norm1 -> norm1
I0116 19:32:28.166905 21425 net.cpp:210] Setting up norm1
I0116 19:32:28.166915 21425 net.cpp:217] Top shape: 50 96 55 55 (14520000)
I0116 19:32:28.166923 21425 net.cpp:225] Memory required for data: 205158000
I0116 19:32:28.166929 21425 layer_factory.hpp:114] Creating layer pool1
I0116 19:32:28.167024 21425 net.cpp:160] Creating Layer pool1
I0116 19:32:28.167034 21425 net.cpp:596] pool1 <- norm1
I0116 19:32:28.167044 21425 net.cpp:570] pool1 -> pool1
I0116 19:32:28.167065 21425 net.cpp:210] Setting up pool1
I0116 19:32:28.167074 21425 net.cpp:217] Top shape: 50 96 27 27 (3499200)
I0116 19:32:28.167081 21425 net.cpp:225] Memory required for data: 219154800
I0116 19:32:28.167088 21425 layer_factory.hpp:114] Creating layer conv2
I0116 19:32:28.167115 21425 net.cpp:160] Creating Layer conv2
I0116 19:32:28.167124 21425 net.cpp:596] conv2 <- pool1
I0116 19:32:28.167132 21425 net.cpp:570] conv2 -> conv2
I0116 19:32:28.219843 21425 net.cpp:210] Setting up conv2
I0116 19:32:28.219859 21425 net.cpp:217] Top shape: 50 256 27 27 (9331200)
I0116 19:32:28.219866 21425 net.cpp:225] Memory required for data: 256479600
I0116 19:32:28.219879 21425 layer_factory.hpp:114] Creating layer relu2
I0116 19:32:28.219892 21425 net.cpp:160] Creating Layer relu2
I0116 19:32:28.219898 21425 net.cpp:596] relu2 <- conv2
I0116 19:32:28.219907 21425 net.cpp:557] relu2 -> conv2 (in-place)
I0116 19:32:28.219918 21425 net.cpp:210] Setting up relu2
I0116 19:32:28.219926 21425 net.cpp:217] Top shape: 50 256 27 27 (9331200)
I0116 19:32:28.219933 21425 net.cpp:225] Memory required for data: 293804400
I0116 19:32:28.219940 21425 layer_factory.hpp:114] Creating layer norm2
I0116 19:32:28.219952 21425 net.cpp:160] Creating Layer norm2
I0116 19:32:28.219959 21425 net.cpp:596] norm2 <- conv2
I0116 19:32:28.219969 21425 net.cpp:570] norm2 -> norm2
I0116 19:32:28.220028 21425 net.cpp:210] Setting up norm2
I0116 19:32:28.220039 21425 net.cpp:217] Top shape: 50 256 27 27 (9331200)
I0116 19:32:28.220046 21425 net.cpp:225] Memory required for data: 331129200
I0116 19:32:28.220054 21425 layer_factory.hpp:114] Creating layer pool2
I0116 19:32:28.220075 21425 net.cpp:160] Creating Layer pool2
I0116 19:32:28.220083 21425 net.cpp:596] pool2 <- norm2
I0116 19:32:28.220093 21425 net.cpp:570] pool2 -> pool2
I0116 19:32:28.220105 21425 net.cpp:210] Setting up pool2
I0116 19:32:28.220114 21425 net.cpp:217] Top shape: 50 256 13 13 (2163200)
I0116 19:32:28.220120 21425 net.cpp:225] Memory required for data: 339782000
I0116 19:32:28.220127 21425 layer_factory.hpp:114] Creating layer conv3
I0116 19:32:28.220142 21425 net.cpp:160] Creating Layer conv3
I0116 19:32:28.220149 21425 net.cpp:596] conv3 <- pool2
I0116 19:32:28.220158 21425 net.cpp:570] conv3 -> conv3
I0116 19:32:28.277624 21425 net.cpp:210] Setting up conv3
I0116 19:32:28.277647 21425 net.cpp:217] Top shape: 50 384 13 13 (3244800)
I0116 19:32:28.277654 21425 net.cpp:225] Memory required for data: 352761200
I0116 19:32:28.277674 21425 layer_factory.hpp:114] Creating layer relu3
I0116 19:32:28.277684 21425 net.cpp:160] Creating Layer relu3
I0116 19:32:28.277691 21425 net.cpp:596] relu3 <- conv3
I0116 19:32:28.277703 21425 net.cpp:557] relu3 -> conv3 (in-place)
I0116 19:32:28.277714 21425 net.cpp:210] Setting up relu3
I0116 19:32:28.277721 21425 net.cpp:217] Top shape: 50 384 13 13 (3244800)
I0116 19:32:28.277727 21425 net.cpp:225] Memory required for data: 365740400
I0116 19:32:28.277740 21425 layer_factory.hpp:114] Creating layer conv4
I0116 19:32:28.277757 21425 net.cpp:160] Creating Layer conv4
I0116 19:32:28.277765 21425 net.cpp:596] conv4 <- conv3
I0116 19:32:28.277775 21425 net.cpp:570] conv4 -> conv4
I0116 19:32:28.326478 21425 net.cpp:210] Setting up conv4
I0116 19:32:28.326540 21425 net.cpp:217] Top shape: 50 384 13 13 (3244800)
I0116 19:32:28.326547 21425 net.cpp:225] Memory required for data: 378719600
I0116 19:32:28.326558 21425 layer_factory.hpp:114] Creating layer relu4
I0116 19:32:28.326571 21425 net.cpp:160] Creating Layer relu4
I0116 19:32:28.326580 21425 net.cpp:596] relu4 <- conv4
I0116 19:32:28.326587 21425 net.cpp:557] relu4 -> conv4 (in-place)
I0116 19:32:28.326597 21425 net.cpp:210] Setting up relu4
I0116 19:32:28.326606 21425 net.cpp:217] Top shape: 50 384 13 13 (3244800)
I0116 19:32:28.326612 21425 net.cpp:225] Memory required for data: 391698800
I0116 19:32:28.326618 21425 layer_factory.hpp:114] Creating layer conv5
I0116 19:32:28.326634 21425 net.cpp:160] Creating Layer conv5
I0116 19:32:28.326642 21425 net.cpp:596] conv5 <- conv4
I0116 19:32:28.326653 21425 net.cpp:570] conv5 -> conv5
I0116 19:32:28.363811 21425 net.cpp:210] Setting up conv5
I0116 19:32:28.363864 21425 net.cpp:217] Top shape: 50 256 13 13 (2163200)
I0116 19:32:28.363872 21425 net.cpp:225] Memory required for data: 400351600
I0116 19:32:28.363888 21425 layer_factory.hpp:114] Creating layer relu5
I0116 19:32:28.363899 21425 net.cpp:160] Creating Layer relu5
I0116 19:32:28.363907 21425 net.cpp:596] relu5 <- conv5
I0116 19:32:28.363917 21425 net.cpp:557] relu5 -> conv5 (in-place)
I0116 19:32:28.363927 21425 net.cpp:210] Setting up relu5
I0116 19:32:28.363936 21425 net.cpp:217] Top shape: 50 256 13 13 (2163200)
I0116 19:32:28.363942 21425 net.cpp:225] Memory required for data: 409004400
I0116 19:32:28.363948 21425 layer_factory.hpp:114] Creating layer pool5
I0116 19:32:28.364037 21425 net.cpp:160] Creating Layer pool5
I0116 19:32:28.364047 21425 net.cpp:596] pool5 <- conv5
I0116 19:32:28.364055 21425 net.cpp:570] pool5 -> pool5
I0116 19:32:28.364070 21425 net.cpp:210] Setting up pool5
I0116 19:32:28.364079 21425 net.cpp:217] Top shape: 50 256 6 6 (460800)
I0116 19:32:28.364085 21425 net.cpp:225] Memory required for data: 410847600
I0116 19:32:28.364092 21425 layer_factory.hpp:114] Creating layer fc6
I0116 19:32:28.364110 21425 net.cpp:160] Creating Layer fc6
I0116 19:32:28.364117 21425 net.cpp:596] fc6 <- pool5
I0116 19:32:28.364128 21425 net.cpp:570] fc6 -> fc6
I0116 19:32:29.622514 21425 net.cpp:210] Setting up fc6
I0116 19:32:29.622666 21425 net.cpp:217] Top shape: 50 4096 (204800)
I0116 19:32:29.622678 21425 net.cpp:225] Memory required for data: 411666800
I0116 19:32:29.622702 21425 layer_factory.hpp:114] Creating layer relu6
I0116 19:32:29.622735 21425 net.cpp:160] Creating Layer relu6
I0116 19:32:29.622748 21425 net.cpp:596] relu6 <- fc6
I0116 19:32:29.622771 21425 net.cpp:557] relu6 -> fc6 (in-place)
I0116 19:32:29.622793 21425 net.cpp:210] Setting up relu6
I0116 19:32:29.622802 21425 net.cpp:217] Top shape: 50 4096 (204800)
I0116 19:32:29.622809 21425 net.cpp:225] Memory required for data: 412486000
I0116 19:32:29.622817 21425 layer_factory.hpp:114] Creating layer drop6
I0116 19:32:29.622834 21425 net.cpp:160] Creating Layer drop6
I0116 19:32:29.622841 21425 net.cpp:596] drop6 <- fc6
I0116 19:32:29.622853 21425 net.cpp:557] drop6 -> fc6 (in-place)
I0116 19:32:29.622867 21425 net.cpp:210] Setting up drop6
I0116 19:32:29.622876 21425 net.cpp:217] Top shape: 50 4096 (204800)
I0116 19:32:29.622882 21425 net.cpp:225] Memory required for data: 413305200
I0116 19:32:29.622890 21425 layer_factory.hpp:114] Creating layer fc7
I0116 19:32:29.622912 21425 net.cpp:160] Creating Layer fc7
I0116 19:32:29.622920 21425 net.cpp:596] fc7 <- fc6
I0116 19:32:29.622932 21425 net.cpp:570] fc7 -> fc7
I0116 19:32:30.180680 21425 net.cpp:210] Setting up fc7
I0116 19:32:30.180840 21425 net.cpp:217] Top shape: 50 4096 (204800)
I0116 19:32:30.180848 21425 net.cpp:225] Memory required for data: 414124400
I0116 19:32:30.180872 21425 layer_factory.hpp:114] Creating layer relu7
I0116 19:32:30.180935 21425 net.cpp:160] Creating Layer relu7
I0116 19:32:30.180948 21425 net.cpp:596] relu7 <- fc7
I0116 19:32:30.180968 21425 net.cpp:557] relu7 -> fc7 (in-place)
I0116 19:32:30.181020 21425 net.cpp:210] Setting up relu7
I0116 19:32:30.181030 21425 net.cpp:217] Top shape: 50 4096 (204800)
I0116 19:32:30.181036 21425 net.cpp:225] Memory required for data: 414943600
I0116 19:32:30.181043 21425 layer_factory.hpp:114] Creating layer drop7
I0116 19:32:30.181061 21425 net.cpp:160] Creating Layer drop7
I0116 19:32:30.181068 21425 net.cpp:596] drop7 <- fc7
I0116 19:32:30.181079 21425 net.cpp:557] drop7 -> fc7 (in-place)
I0116 19:32:30.181094 21425 net.cpp:210] Setting up drop7
I0116 19:32:30.181102 21425 net.cpp:217] Top shape: 50 4096 (204800)
I0116 19:32:30.181109 21425 net.cpp:225] Memory required for data: 415762800
I0116 19:32:30.181115 21425 layer_factory.hpp:114] Creating layer fc8
I0116 19:32:30.181138 21425 net.cpp:160] Creating Layer fc8
I0116 19:32:30.181145 21425 net.cpp:596] fc8 <- fc7
I0116 19:32:30.181155 21425 net.cpp:570] fc8 -> fc8
I0116 19:32:30.318516 21425 net.cpp:210] Setting up fc8
I0116 19:32:30.318567 21425 net.cpp:217] Top shape: 50 1000 (50000)
I0116 19:32:30.318574 21425 net.cpp:225] Memory required for data: 415962800
I0116 19:32:30.318588 21425 layer_factory.hpp:114] Creating layer fc8_fc8_0_split
I0116 19:32:30.318603 21425 net.cpp:160] Creating Layer fc8_fc8_0_split
I0116 19:32:30.318610 21425 net.cpp:596] fc8_fc8_0_split <- fc8
I0116 19:32:30.318620 21425 net.cpp:570] fc8_fc8_0_split -> fc8_fc8_0_split_0
I0116 19:32:30.318631 21425 net.cpp:570] fc8_fc8_0_split -> fc8_fc8_0_split_1
I0116 19:32:30.318646 21425 net.cpp:210] Setting up fc8_fc8_0_split
I0116 19:32:30.318655 21425 net.cpp:217] Top shape: 50 1000 (50000)
I0116 19:32:30.318663 21425 net.cpp:217] Top shape: 50 1000 (50000)
I0116 19:32:30.318670 21425 net.cpp:225] Memory required for data: 416362800
I0116 19:32:30.318676 21425 layer_factory.hpp:114] Creating layer accuracy
I0116 19:32:30.318702 21425 net.cpp:160] Creating Layer accuracy
I0116 19:32:30.318711 21425 net.cpp:596] accuracy <- fc8_fc8_0_split_0
I0116 19:32:30.318717 21425 net.cpp:596] accuracy <- label_data_1_split_0
I0116 19:32:30.318729 21425 net.cpp:570] accuracy -> accuracy
…
