…
I0123 12:53:05.896586 39704 net.cpp:493] The NetState phase (0) differed from the phase (1) specified by a rule in layer loss3/top-5
I0123 12:53:05.905838 39704 net.cpp:125] Initializing net from parameters: 
name: "GoogleNet"
state {
  phase: TRAIN
  level: 0
  stage: ""
}
layer {
  name: "data"
  type: "Data"
  top: "data"
  top: "label"
  include {
    phase: TRAIN
  }
  transform_param {
    mirror: true
    crop_size: 224
    mean_value: 104
    mean_value: 117
    mean_value: 123
  }
  data_param {
    source: "/home/user/caffeOMP/original/caffe/examples/imagenet/ilsvrc12_train_lmdb"
    batch_size: 32
    backend: LMDB
  }
}
layer {
  name: "label_data_1_split"
  type: "Split"
  bottom: "label"
  top: "label_data_1_split_0"
  top: "label_data_1_split_1"
  top: "label_data_1_split_2"
}
layer {
  name: "conv1/7x7_s2"
  type: "Convolution"
  bottom: "data"
  top: "conv1/7x7_s2"
  param {
    lr_mult: 1
    decay_mult: 1
  }
  param {
    lr_mult: 2
    decay_mult: 0
  }
  convolution_param {
    num_output: 64
    pad: 3
    kernel_size: 7
    stride: 2
    weight_filler {
      type: "xavier"
    }
    bias_filler {
      type: "constant"
      value: 0.2
    }
  }
}
layer {
  name: "conv1/relu_7x7"
  type: "ReLU"
  bottom: "conv1/7x7_s2"
  top: "conv1/7x7_s2"
}
layer {
  name: "pool1/3x3_s2"
  type: "Pooling"
  bottom: "conv1/7x7_s2"
  top: "pool1/3x3_s2"
  pooling_param {
    pool: MAX
    kernel_size: 3
    stride: 2
  }
}
layer {
  name: "pool1/norm1"
  type: "LRN"
  bottom: "pool1/3x3_s2"
  top: "pool1/norm1"
  lrn_param {
    local_size: 5
    alpha: 0.0001
    beta: 0.75
  }
}
layer {
  name: "conv2/3x3_reduce"
  type: "Convolution"
  bottom: "pool1/norm1"
  top: "conv2/3x3_reduce"
  param {
    lr_mult: 1
    decay_mult: 1
  }
  param {
    lr_mult: 2
    decay_mult: 0
  }
  convolution_param {
    num_output: 64
    kernel_size: 1
    weight_filler {
      type: "xavier"
    }
    bias_filler {
      type: "constant"
      value: 0.2
    }
  }
}
layer {
  name: "conv2/relu_3x3_reduce"
  type: "ReLU"
  bottom: "conv2/3x3_reduce"
  top: "conv2/3x3_reduce"
}
layer {
  name: "conv2/3x3"
  type: "Convolution"
  bottom: "conv2/3x3_reduce"
  top: "conv2/3x3"
  param {
    lr_mult: 1
    decay_mult: 1
  }
  param {
    lr_mult: 2
    decay_mult: 0
  }
  convolution_param {
    num_output: 192
    pad: 1
    kernel_size: 3
    weight_filler {
      type: "xavier"
    }
    bias_filler {
      type: "constant"
      value: 0.2
    }
  }
}
layer {
  name: "conv2/relu_3x3"
  type: "ReLU"
  bottom: "conv2/3x3"
  top: "conv2/3x3"
}
layer {
  name: "conv2/norm2"
  type: "LRN"
  bottom: "conv2/3x3"
  top: "conv2/norm2"
  lrn_param {
    local_size: 5
    alpha: 0.0001
    beta: 0.75
  }
}
layer {
  name: "pool2/3x3_s2"
  type: "Pooling"
  bottom: "conv2/norm2"
  top: "pool2/3x3_s2"
  pooling_param {
    pool: MAX
    kernel_size: 3
    stride: 2
  }
}
layer {
  name: "pool2/3x3_s2_pool2/3x3_s2_0_split"
  type: "Split"
  bottom: "pool2/3x3_s2"
  top: "pool2/3x3_s2_pool2/3x3_s2_0_split_0"
  top: "pool2/3x3_s2_pool2/3x3_s2_0_split_1"
  top: "pool2/3x3_s2_pool2/3x3_s2_0_split_2"
  top: "pool2/3x3_s2_pool2/3x3_s2_0_split_3"
}
layer {
  name: "inception_3a/1x1"
  type: "Convolution"
  bottom: "pool2/3x3_s2_pool2/3x3_s2_0_split_0"
  top: "inception_3a/1x1"
  param {
    lr_mult: 1
    decay_mult: 1
  }
  param {
    lr_mult: 2
    decay_mult: 0
  }
  convolution_param {
    num_output: 64
    kernel_size: 1
    weight_filler {
      type: "xavier"
    }
    bias_filler {
      type: "constant"
      value: 0.2
    }
  }
}
layer {
  name: "inception_3a/relu_1x1"
  type: "ReLU"
  bottom: "inception_3a/1x1"
  top: "inception_3a/1x1"
}
layer {
  name: "inception_3a/3x3_reduce"
  type: "Convolution"
  bottom: "pool2/3x3_s2_pool2/3x3_s2_0_split_1"
  top: "inception_3a/3x3_reduce"
  param {
    lr_mult: 1
    decay_mult: 1
  }
  param {
    lr_mult: 2
    decay_mult: 0
  }
  convolution_param {
    num_output: 96
    kernel_size: 1
    weight_filler {
      type: "xavier"
    }
    bias_filler {
      type: "constant"
      value: 0.2
    }
  }
}
layer {
  name: "inception_3a/relu_3x3_reduce"
  type: "ReLU"
  bottom: "inception_3a/3x3_reduce"
  top: "inception_3a/3x3_reduce"
}
layer {
  name: "inception_3a/3x3"
  type: "Convolution"
  bottom: "inception_3a/3x3_reduce"
  top: "inception_3a/3x3"
  param {
    lr_mult: 1
    decay_mult: 1
  }
  param {
    lr_mult: 2
    decay_mult: 0
  }
  convolution_param {
    num_output: 128
    pad: 1
    kernel_size: 3
    weight_filler {
      type: "xavier"
    }
    bias_filler {
      type: "constant"
      value: 0.2
    }
  }
}
layer {
  name: "inception_3a/relu_3x3"
  type: "ReLU"
  bottom: "inception_3a/3x3"
  top: "inception_3a/3x3"
}
layer {
  name: "inception_3a/5x5_reduce"
  type: "Convolution"
  bottom: "pool2/3x3_s2_pool2/3x3_s2_0_split_2"
  top: "inception_3a/5x5_reduce"
  param {
    lr_mult: 1
    decay_mult: 1
  }
  param {
    lr_mult: 2
    decay_mult: 0
  }
  convolution_param {
    num_output: 16
    kernel_size: 1
    weight_filler {
      type: "xavier"
    }
    bias_filler {
      type: "constant"
      value: 0.2
    }
  }
}
layer {
  name: "inception_3a/relu_5x5_reduce"
  type: "ReLU"
  bottom: "inception_3a/5x5_reduce"
  top: "inception_3a/5x5_reduce"
}
layer {
  name: "inception_3a/5x5"
  type: "Convolution"
  bottom: "inception_3a/5x5_reduce"
  top: "inception_3a/5x5"
  param {
    lr_mult: 1
    decay_mult: 1
  }
  param {
    lr_mult: 2
    decay_mult: 0
  }
  convolution_param {
    num_output: 32
    pad: 2
    kernel_size: 5
    weight_filler {
      type: "xavier"
    }
    bias_filler {
      type: "constant"
      value: 0.2
    }
  }
}
layer {
  name: "inception_3a/relu_5x5"
  type: "ReLU"
  bottom: "inception_3a/5x5"
  top: "inception_3a/5x5"
}
layer {
  name: "inception_3a/pool"
  type: "Pooling"
  bottom: "pool2/3x3_s2_pool2/3x3_s2_0_split_3"
  top: "inception_3a/pool"
  pooling_param {
    pool: MAX
    kernel_size: 3
    stride: 1
    pad: 1
  }
}
layer {
  name: "inception_3a/pool_proj"
  type: "Convolution"
  bottom: "inception_3a/pool"
  top: "inception_3a/pool_proj"
  param {
    lr_mult: 1
    decay_mult: 1
  }
  param {
    lr_mult: 2
    decay_mult: 0
  }
  convolution_param {
    num_output: 32
    kernel_size: 1
    weight_filler {
      type: "xavier"
    }
    bias_filler {
      type: "constant"
      value: 0.2
    }
  }
}
layer {
  name: "inception_3a/relu_pool_proj"
  type: "ReLU"
  bottom: "inception_3a/pool_proj"
  top: "inception_3a/pool_proj"
}
layer {
  name: "inception_3a/output"
  type: "Concat"
  bottom: "inception_3a/1x1"
  bottom: "inception_3a/3x3"
  bottom: "inception_3a/5x5"
  bottom: "inception_3a/pool_proj"
  top: "inception_3a/output"
}
layer {
  name: "inception_3a/output_inception_3a/output_0_split"
  type: "Split"
  bottom: "inception_3a/output"
  top: "inception_3a/output_inception_3a/output_0_split_0"
  top: "inception_3a/output_inception_3a/output_0_split_1"
  top: "inception_3a/output_inception_3a/output_0_split_2"
  top: "inception_3a/output_inception_3a/output_0_split_3"
}
layer {
  name: "inception_3b/1x1"
  type: "Convolution"
  bottom: "inception_3a/output_inception_3a/output_0_split_0"
  top: "inception_3b/1x1"
  param {
    lr_mult: 1
    decay_mult: 1
  }
  param {
    lr_mult: 2
    decay_mult: 0
  }
  convolution_param {
    num_output: 128
    kernel_size: 1
    weight_filler {
      type: "xavier"
    }
    bias_filler {
      type: "constant"
      value: 0.2
    }
  }
}
layer {
  name: "inception_3b/relu_1x1"
  type: "ReLU"
  bottom: "inception_3b/1x1"
  top: "inception_3b/1x1"
}
layer {
  name: "inception_3b/3x3_reduce"
  type: "Convolution"
  bottom: "inception_3a/output_inception_3a/output_0_split_1"
  top: "inception_3b/3x3_reduce"
  param {
    lr_mult: 1
    decay_mult: 1
  }
  param {
    lr_mult: 2
    decay_mult: 0
  }
  convolution_param {
    num_output: 128
    kernel_size: 1
    weight_filler {
      type: "xavier"
    }
    bias_filler {
      type: "constant"
      value: 0.2
    }
  }
}
layer {
  name: "inception_3b/relu_3x3_reduce"
  type: "ReLU"
  bottom: "inception_3b/3x3_reduce"
  top: "inception_3b/3x3_reduce"
}
layer {
  name: "inception_3b/3x3"
  type: "Convolution"
  bottom: "inception_3b/3x3_reduce"
  top: "inception_3b/3x3"
  param {
    lr_mult: 1
    decay_mult: 1
  }
  param {
    lr_mult: 2
    decay_mult: 0
  }
  convolution_param {
    num_output: 192
    pad: 1
    kernel_size: 3
    weight_filler {
      type: "xavier"
    }
    bias_filler {
      type: "constant"
      value: 0.2
    }
  }
}
layer {
  name: "inception_3b/relu_3x3"
  type: "ReLU"
  bottom: "inception_3b/3x3"
  top: "inception_3b/3x3"
}
layer {
  name: "inception_3b/5x5_reduce"
  type: "Convolution"
  bottom: "inception_3a/output_inception_3a/output_0_split_2"
  top: "inception_3b/5x5_reduce"
  param {
    lr_mult: 1
    decay_mult: 1
  }
  param {
    lr_mult: 2
    decay_mult: 0
  }
  convolution_param {
    num_output: 32
    kernel_size: 1
    weight_filler {
      type: "xavier"
    }
    bias_filler {
      type: "constant"
      value: 0.2
    }
  }
}
layer {
  name: "inception_3b/relu_5x5_reduce"
  type: "ReLU"
  bottom: "inception_3b/5x5_reduce"
  top: "inception_3b/5x5_reduce"
}
layer {
  name: "inception_3b/5x5"
  type: "Convolution"
  bottom: "inception_3b/5x5_reduce"
  top: "inception_3b/5x5"
  param {
    lr_mult: 1
    decay_mult: 1
  }
  param {
    lr_mult: 2
    decay_mult: 0
  }
  convolution_param {
    num_output: 96
    pad: 2
    kernel_size: 5
    weight_filler {
      type: "xavier"
    }
    bias_filler {
      type: "constant"
      value: 0.2
    }
  }
}
layer {
  name: "inception_3b/relu_5x5"
  type: "ReLU"
  bottom: "inception_3b/5x5"
  top: "inception_3b/5x5"
}
layer {
  name: "inception_3b/pool"
  type: "Pooling"
  bottom: "inception_3a/output_inception_3a/output_0_split_3"
  top: "inception_3b/pool"
  pooling_param {
    pool: MAX
    kernel_size: 3
    stride: 1
    pad: 1
  }
}
layer {
  name: "inception_3b/pool_proj"
  type: "Convolution"
  bottom: "inception_3b/pool"
  top: "inception_3b/pool_proj"
  param {
    lr_mult: 1
    decay_mult: 1
  }
  param {
    lr_mult: 2
    decay_mult: 0
  }
  convolution_param {
    num_output: 64
    kernel_size: 1
    weight_filler {
      type: "xavier"
    }
    bias_filler {
      type: "constant"
      value: 0.2
    }
  }
}
layer {
  name: "inception_3b/relu_pool_proj"
  type: "ReLU"
  bottom: "inception_3b/pool_proj"
  top: "inception_3b/pool_proj"
}
layer {
  name: "inception_3b/output"
  type: "Concat"
  bottom: "inception_3b/1x1"
  bottom: "inception_3b/3x3"
  bottom: "inception_3b/5x5"
  bottom: "inception_3b/pool_proj"
  top: "inception_3b/output"
}
layer {
  name: "pool3/3x3_s2"
  type: "Pooling"
  bottom: "inception_3b/output"
  top: "pool3/3x3_s2"
  pooling_param {
    pool: MAX
    kernel_size: 3
    stride: 2
  }
}
layer {
  name: "pool3/3x3_s2_pool3/3x3_s2_0_split"
  type: "Split"
  bottom: "pool3/3x3_s2"
  top: "pool3/3x3_s2_pool3/3x3_s2_0_split_0"
  top: "pool3/3x3_s2_pool3/3x3_s2_0_split_1"
  top: "pool3/3x3_s2_pool3/3x3_s2_0_split_2"
  top: "pool3/3x3_s2_pool3/3x3_s2_0_split_3"
}
layer {
  name: "inception_4a/1x1"
  type: "Convolution"
  bottom: "pool3/3x3_s2_pool3/3x3_s2_0_split_0"
  top: "inception_4a/1x1"
  param {
    lr_mult: 1
    decay_mult: 1
  }
  param {
    lr_mult: 2
    decay_mult: 0
  }
  convolution_param {
    num_output: 192
    kernel_size: 1
    weight_filler {
      type: "xavier"
    }
    bias_filler {
      type: "constant"
      value: 0.2
    }
  }
}
layer {
  name: "inception_4a/relu_1x1"
  type: "ReLU"
  bottom: "inception_4a/1x1"
  top: "inception_4a/1x1"
}
layer {
  name: "inception_4a/3x3_reduce"
  type: "Convolution"
  bottom: "pool3/3x3_s2_pool3/3x3_s2_0_split_1"
  top: "inception_4a/3x3_reduce"
  param {
    lr_mult: 1
    decay_mult: 1
  }
  param {
    lr_mult: 2
    decay_mult: 0
  }
  convolution_param {
    num_output: 96
    kernel_size: 1
    weight_filler {
      type: "xavier"
    }
    bias_filler {
      type: "constant"
      value: 0.2
    }
  }
}
layer {
  name: "inception_4a/relu_3x3_reduce"
  type: "ReLU"
  bottom: "inception_4a/3x3_reduce"
  top: "inception_4a/3x3_reduce"
}
layer {
  name: "inception_4a/3x3"
  type: "Convolution"
  bottom: "inception_4a/3x3_reduce"
  top: "inception_4a/3x3"
  param {
    lr_mult: 1
    decay_mult: 1
  }
  param {
    lr_mult: 2
    decay_mult: 0
  }
  convolution_param {
    num_output: 208
    pad: 1
    kernel_size: 3
    weight_filler {
      type: "xavier"
    }
    bias_filler {
      type: "constant"
      value: 0.2
    }
  }
}
layer {
  name: "inception_4a/relu_3x3"
  type: "ReLU"
  bottom: "inception_4a/3x3"
  top: "inception_4a/3x3"
}
layer {
  name: "inception_4a/5x5_reduce"
  type: "Convolution"
  bottom: "pool3/3x3_s2_pool3/3x3_s2_0_split_2"
  top: "inception_4a/5x5_reduce"
  param {
    lr_mult: 1
    decay_mult: 1
  }
  param {
    lr_mult: 2
    decay_mult: 0
  }
  convolution_param {
    num_output: 16
    kernel_size: 1
    weight_filler {
      type: "xavier"
    }
    bias_filler {
      type: "constant"
      value: 0.2
    }
  }
}
layer {
  name: "inception_4a/relu_5x5_reduce"
  type: "ReLU"
  bottom: "inception_4a/5x5_reduce"
  top: "inception_4a/5x5_reduce"
}
layer {
  name: "inception_4a/5x5"
  type: "Convolution"
  bottom: "inception_4a/5x5_reduce"
  top: "inception_4a/5x5"
  param {
    lr_mult: 1
    decay_mult: 1
  }
  param {
    lr_mult: 2
    decay_mult: 0
  }
  convolution_param {
    num_output: 48
    pad: 2
    kernel_size: 5
    weight_filler {
      type: "xavier"
    }
    bias_filler {
      type: "constant"
      value: 0.2
    }
  }
}
layer {
  name: "inception_4a/relu_5x5"
  type: "ReLU"
  bottom: "inception_4a/5x5"
  top: "inception_4a/5x5"
}
layer {
  name: "inception_4a/pool"
  type: "Pooling"
  bottom: "pool3/3x3_s2_pool3/3x3_s2_0_split_3"
  top: "inception_4a/pool"
  pooling_param {
    pool: MAX
    kernel_size: 3
    stride: 1
    pad: 1
  }
}
layer {
  name: "inception_4a/pool_proj"
  type: "Convolution"
  bottom: "inception_4a/pool"
  top: "inception_4a/pool_proj"
  param {
    lr_mult: 1
    decay_mult: 1
  }
  param {
    lr_mult: 2
    decay_mult: 0
  }
  convolution_param {
    num_output: 64
    kernel_size: 1
    weight_filler {
      type: "xavier"
    }
    bias_filler {
      type: "constant"
      value: 0.2
    }
  }
}
layer {
  name: "inception_4a/relu_pool_proj"
  type: "ReLU"
  bottom: "inception_4a/pool_proj"
  top: "inception_4a/pool_proj"
}
layer {
  name: "inception_4a/output"
  type: "Concat"
  bottom: "inception_4a/1x1"
  bottom: "inception_4a/3x3"
  bottom: "inception_4a/5x5"
  bottom: "inception_4a/pool_proj"
  top: "inception_4a/output"
}
layer {
  name: "inception_4a/output_inception_4a/output_0_split"
  type: "Split"
  bottom: "inception_4a/output"
  top: "inception_4a/output_inception_4a/output_0_split_0"
  top: "inception_4a/output_inception_4a/output_0_split_1"
  top: "inception_4a/output_inception_4a/output_0_split_2"
  top: "inception_4a/output_inception_4a/output_0_split_3"
  top: "inception_4a/output_inception_4a/output_0_split_4"
}
layer {
  name: "loss1/ave_pool"
  type: "Pooling"
  bottom: "inception_4a/output_inception_4a/output_0_split_0"
  top: "loss1/ave_pool"
  pooling_param {
    pool: AVE
    kernel_size: 5
    stride: 3
  }
}
layer {
  name: "loss1/conv"
  type: "Convolution"
  bottom: "loss1/ave_pool"
  top: "loss1/conv"
  param {
    lr_mult: 1
    decay_mult: 1
  }
  param {
    lr_mult: 2
    decay_mult: 0
  }
  convolution_param {
    num_output: 128
    kernel_size: 1
    weight_filler {
      type: "xavier"
    }
    bias_filler {
      type: "constant"
      value: 0.2
    }
  }
}
layer {
  name: "loss1/relu_conv"
  type: "ReLU"
  bottom: "loss1/conv"
  top: "loss1/conv"
}
layer {
  name: "loss1/fc"
  type: "InnerProduct"
  bottom: "loss1/conv"
  top: "loss1/fc"
  param {
    lr_mult: 1
    decay_mult: 1
  }
  param {
    lr_mult: 2
    decay_mult: 0
  }
  inner_product_param {
    num_output: 1024
    weight_filler {
      type: "xavier"
    }
    bias_filler {
      type: "constant"
      value: 0.2
    }
  }
}
layer {
  name: "loss1/relu_fc"
  type: "ReLU"
  bottom: "loss1/fc"
  top: "loss1/fc"
}
layer {
  name: "loss1/drop_fc"
  type: "Dropout"
  bottom: "loss1/fc"
  top: "loss1/fc"
  dropout_param {
    dropout_ratio: 0.7
  }
}
layer {
  name: "loss1/classifier"
  type: "InnerProduct"
  bottom: "loss1/fc"
  top: "loss1/classifier"
  param {
    lr_mult: 1
    decay_mult: 1
  }
  param {
    lr_mult: 2
    decay_mult: 0
  }
  inner_product_param {
    num_output: 1000
    weight_filler {
      type: "xavier"
    }
    bias_filler {
      type: "constant"
      value: 0
    }
  }
}
layer {
  name: "loss1/loss"
  type: "SoftmaxWithLoss"
  bottom: "loss1/classifier"
  bottom: "label_data_1_split_0"
  top: "loss1/loss1"
  loss_weight: 0.3
}
layer {
  name: "inception_4b/1x1"
  type: "Convolution"
  bottom: "inception_4a/output_inception_4a/output_0_split_1"
  top: "inception_4b/1x1"
  param {
    lr_mult: 1
    decay_mult: 1
  }
  param {
    lr_mult: 2
    decay_mult: 0
  }
  convolution_param {
    num_output: 160
    kernel_size: 1
    weight_filler {
      type: "xavier"
    }
    bias_filler {
      type: "constant"
      value: 0.2
    }
  }
}
layer {
  name: "inception_4b/relu_1x1"
  type: "ReLU"
  bottom: "inception_4b/1x1"
  top: "inception_4b/1x1"
}
layer {
  name: "inception_4b/3x3_reduce"
  type: "Convolution"
  bottom: "inception_4a/output_inception_4a/output_0_split_2"
  top: "inception_4b/3x3_reduce"
  param {
    lr_mult: 1
    decay_mult: 1
  }
  param {
    lr_mult: 2
    decay_mult: 0
  }
  convolution_param {
    num_output: 112
    kernel_size: 1
    weight_filler {
      type: "xavier"
    }
    bias_filler {
      type: "constant"
      value: 0.2
    }
  }
}
layer {
  name: "inception_4b/relu_3x3_reduce"
  type: "ReLU"
  bottom: "inception_4b/3x3_reduce"
  top: "inception_4b/3x3_reduce"
}
layer {
  name: "inception_4b/3x3"
  type: "Convolution"
  bottom: "inception_4b/3x3_reduce"
  top: "inception_4b/3x3"
  param {
    lr_mult: 1
    decay_mult: 1
  }
  param {
    lr_mult: 2
    decay_mult: 0
  }
  convolution_param {
    num_output: 224
    pad: 1
    kernel_size: 3
    weight_filler {
      type: "xavier"
    }
    bias_filler {
      type: "constant"
      value: 0.2
    }
  }
}
layer {
  name: "inception_4b/relu_3x3"
  type: "ReLU"
  bottom: "inception_4b/3x3"
  top: "inception_4b/3x3"
}
layer {
  name: "inception_4b/5x5_reduce"
  type: "Convolution"
  bottom: "inception_4a/output_inception_4a/output_0_split_3"
  top: "inception_4b/5x5_reduce"
  param {
    lr_mult: 1
    decay_mult: 1
  }
  param {
    lr_mult: 2
    decay_mult: 0
  }
  convolution_param {
    num_output: 24
    kernel_size: 1
    weight_filler {
      type: "xavier"
    }
    bias_filler {
      type: "constant"
      value: 0.2
    }
  }
}
layer {
  name: "inception_4b/relu_5x5_reduce"
  type: "ReLU"
  bottom: "inception_4b/5x5_reduce"
  top: "inception_4b/5x5_reduce"
}
layer {
  name: "inception_4b/5x5"
  type: "Convolution"
  bottom: "inception_4b/5x5_reduce"
  top: "inception_4b/5x5"
  param {
    lr_mult: 1
    decay_mult: 1
  }
  param {
    lr_mult: 2
    decay_mult: 0
  }
  convolution_param {
    num_output: 64
    pad: 2
    kernel_size: 5
    weight_filler {
      type: "xavier"
    }
    bias_filler {
      type: "constant"
      value: 0.2
    }
  }
}
layer {
  name: "inception_4b/relu_5x5"
  type: "ReLU"
  bottom: "inception_4b/5x5"
  top: "inception_4b/5x5"
}
layer {
  name: "inception_4b/pool"
  type: "Pooling"
  bottom: "inception_4a/output_inception_4a/output_0_split_4"
  top: "inception_4b/pool"
  pooling_param {
    pool: MAX
    kernel_size: 3
    stride: 1
    pad: 1
  }
}
layer {
  name: "inception_4b/pool_proj"
  type: "Convolution"
  bottom: "inception_4b/pool"
  top: "inception_4b/pool_proj"
  param {
    lr_mult: 1
    decay_mult: 1
  }
  param {
    lr_mult: 2
    decay_mult: 0
  }
  convolution_param {
    num_output: 64
    kernel_size: 1
    weight_filler {
      type: "xavier"
    }
    bias_filler {
      type: "constant"
      value: 0.2
    }
  }
}
layer {
  name: "inception_4b/relu_pool_proj"
  type: "ReLU"
  bottom: "inception_4b/pool_proj"
  top: "inception_4b/pool_proj"
}
layer {
  name: "inception_4b/output"
  type: "Concat"
  bottom: "inception_4b/1x1"
  bottom: "inception_4b/3x3"
  bottom: "inception_4b/5x5"
  bottom: "inception_4b/pool_proj"
  top: "inception_4b/output"
}
layer {
  name: "inception_4b/output_inception_4b/output_0_split"
  type: "Split"
  bottom: "inception_4b/output"
  top: "inception_4b/output_inception_4b/output_0_split_0"
  top: "inception_4b/output_inception_4b/output_0_split_1"
  top: "inception_4b/output_inception_4b/output_0_split_2"
  top: "inception_4b/output_inception_4b/output_0_split_3"
}
layer {
  name: "inception_4c/1x1"
  type: "Convolution"
  bottom: "inception_4b/output_inception_4b/output_0_split_0"
  top: "inception_4c/1x1"
  param {
    lr_mult: 1
    decay_mult: 1
  }
  param {
    lr_mult: 2
    decay_mult: 0
  }
  convolution_param {
    num_output: 128
    kernel_size: 1
    weight_filler {
      type: "xavier"
    }
    bias_filler {
      type: "constant"
      value: 0.2
    }
  }
}
layer {
  name: "inception_4c/relu_1x1"
  type: "ReLU"
  bottom: "inception_4c/1x1"
  top: "inception_4c/1x1"
}
layer {
  name: "inception_4c/3x3_reduce"
  type: "Convolution"
  bottom: "inception_4b/output_inception_4b/output_0_split_1"
  top: "inception_4c/3x3_reduce"
  param {
    lr_mult: 1
    decay_mult: 1
  }
  param {
    lr_mult: 2
    decay_mult: 0
  }
  convolution_param {
    num_output: 128
    kernel_size: 1
    weight_filler {
      type: "xavier"
    }
    bias_filler {
      type: "constant"
      value: 0.2
    }
  }
}
layer {
  name: "inception_4c/relu_3x3_reduce"
  type: "ReLU"
  bottom: "inception_4c/3x3_reduce"
  top: "inception_4c/3x3_reduce"
}
layer {
  name: "inception_4c/3x3"
  type: "Convolution"
  bottom: "inception_4c/3x3_reduce"
  top: "inception_4c/3x3"
  param {
    lr_mult: 1
    decay_mult: 1
  }
  param {
    lr_mult: 2
    decay_mult: 0
  }
  convolution_param {
    num_output: 256
    pad: 1
    kernel_size: 3
    weight_filler {
      type: "xavier"
    }
    bias_filler {
      type: "constant"
      value: 0.2
    }
  }
}
layer {
  name: "inception_4c/relu_3x3"
  type: "ReLU"
  bottom: "inception_4c/3x3"
  top: "inception_4c/3x3"
}
layer {
  name: "inception_4c/5x5_reduce"
  type: "Convolution"
  bottom: "inception_4b/output_inception_4b/output_0_split_2"
  top: "inception_4c/5x5_reduce"
  param {
    lr_mult: 1
    decay_mult: 1
  }
  param {
    lr_mult: 2
    decay_mult: 0
  }
  convolution_param {
    num_output: 24
    kernel_size: 1
    weight_filler {
      type: "xavier"
    }
    bias_filler {
      type: "constant"
      value: 0.2
    }
  }
}
layer {
  name: "inception_4c/relu_5x5_reduce"
  type: "ReLU"
  bottom: "inception_4c/5x5_reduce"
  top: "inception_4c/5x5_reduce"
}
layer {
  name: "inception_4c/5x5"
  type: "Convolution"
  bottom: "inception_4c/5x5_reduce"
  top: "inception_4c/5x5"
  param {
    lr_mult: 1
    decay_mult: 1
  }
  param {
    lr_mult: 2
    decay_mult: 0
  }
  convolution_param {
    num_output: 64
    pad: 2
    kernel_size: 5
    weight_filler {
      type: "xavier"
    }
    bias_filler {
      type: "constant"
      value: 0.2
    }
  }
}
layer {
  name: "inception_4c/relu_5x5"
  type: "ReLU"
  bottom: "inception_4c/5x5"
  top: "inception_4c/5x5"
}
layer {
  name: "inception_4c/pool"
  type: "Pooling"
  bottom: "inception_4b/output_inception_4b/output_0_split_3"
  top: "inception_4c/pool"
  pooling_param {
    pool: MAX
    kernel_size: 3
    stride: 1
    pad: 1
  }
}
layer {
  name: "inception_4c/pool_proj"
  type: "Convolution"
  bottom: "inception_4c/pool"
  top: "inception_4c/pool_proj"
  param {
    lr_mult: 1
    decay_mult: 1
  }
  param {
    lr_mult: 2
    decay_mult: 0
  }
  convolution_param {
    num_output: 64
    kernel_size: 1
    weight_filler {
      type: "xavier"
    }
    bias_filler {
      type: "constant"
      value: 0.2
    }
  }
}
layer {
  name: "inception_4c/relu_pool_proj"
  type: "ReLU"
  bottom: "inception_4c/pool_proj"
  top: "inception_4c/pool_proj"
}
layer {
  name: "inception_4c/output"
  type: "Concat"
  bottom: "inception_4c/1x1"
  bottom: "inception_4c/3x3"
  bottom: "inception_4c/5x5"
  bottom: "inception_4c/pool_proj"
  top: "inception_4c/output"
}
layer {
  name: "inception_4c/output_inception_4c/output_0_split"
  type: "Split"
  bottom: "inception_4c/output"
  top: "inception_4c/output_inception_4c/output_0_split_0"
  top: "inception_4c/output_inception_4c/output_0_split_1"
  top: "inception_4c/output_inception_4c/output_0_split_2"
  top: "inception_4c/output_inception_4c/output_0_split_3"
}
layer {
  name: "inception_4d/1x1"
  type: "Convolution"
  bottom: "inception_4c/output_inception_4c/output_0_split_0"
  top: "inception_4d/1x1"
  param {
    lr_mult: 1
    decay_mult: 1
  }
  param {
    lr_mult: 2
    decay_mult: 0
  }
  convolution_param {
    num_output: 112
    kernel_size: 1
    weight_filler {
      type: "xavier"
    }
    bias_filler {
      type: "constant"
      value: 0.2
    }
  }
}
layer {
  name: "inception_4d/relu_1x1"
  type: "ReLU"
  bottom: "inception_4d/1x1"
  top: "inception_4d/1x1"
}
layer {
  name: "inception_4d/3x3_reduce"
  type: "Convolution"
  bottom: "inception_4c/output_inception_4c/output_0_split_1"
  top: "inception_4d/3x3_reduce"
  param {
    lr_mult: 1
    decay_mult: 1
  }
  param {
    lr_mult: 2
    decay_mult: 0
  }
  convolution_param {
    num_output: 144
    kernel_size: 1
    weight_filler {
      type: "xavier"
    }
    bias_filler {
      type: "constant"
      value: 0.2
    }
  }
}
layer {
  name: "inception_4d/relu_3x3_reduce"
  type: "ReLU"
  bottom: "inception_4d/3x3_reduce"
  top: "inception_4d/3x3_reduce"
}
layer {
  name: "inception_4d/3x3"
  type: "Convolution"
  bottom: "inception_4d/3x3_reduce"
  top: "inception_4d/3x3"
  param {
    lr_mult: 1
    decay_mult: 1
  }
  param {
    lr_mult: 2
    decay_mult: 0
  }
  convolution_param {
    num_output: 288
    pad: 1
    kernel_size: 3
    weight_filler {
      type: "xavier"
    }
    bias_filler {
      type: "constant"
      value: 0.2
    }
  }
}
layer {
  name: "inception_4d/relu_3x3"
  type: "ReLU"
  bottom: "inception_4d/3x3"
  top: "inception_4d/3x3"
}
layer {
  name: "inception_4d/5x5_reduce"
  type: "Convolution"
  bottom: "inception_4c/output_inception_4c/output_0_split_2"
  top: "inception_4d/5x5_reduce"
  param {
    lr_mult: 1
    decay_mult: 1
  }
  param {
    lr_mult: 2
    decay_mult: 0
  }
  convolution_param {
    num_output: 32
    kernel_size: 1
    weight_filler {
      type: "xavier"
    }
    bias_filler {
      type: "constant"
      value: 0.2
    }
  }
}
layer {
  name: "inception_4d/relu_5x5_reduce"
  type: "ReLU"
  bottom: "inception_4d/5x5_reduce"
  top: "inception_4d/5x5_reduce"
}
layer {
  name: "inception_4d/5x5"
  type: "Convolution"
  bottom: "inception_4d/5x5_reduce"
  top: "inception_4d/5x5"
  param {
    lr_mult: 1
    decay_mult: 1
  }
  param {
    lr_mult: 2
    decay_mult: 0
  }
  convolution_param {
    num_output: 64
    pad: 2
    kernel_size: 5
    weight_filler {
      type: "xavier"
    }
    bias_filler {
      type: "constant"
      value: 0.2
    }
  }
}
layer {
  name: "inception_4d/relu_5x5"
  type: "ReLU"
  bottom: "inception_4d/5x5"
  top: "inception_4d/5x5"
}
layer {
  name: "inception_4d/pool"
  type: "Pooling"
  bottom: "inception_4c/output_inception_4c/output_0_split_3"
  top: "inception_4d/pool"
  pooling_param {
    pool: MAX
    kernel_size: 3
    stride: 1
    pad: 1
  }
}
layer {
  name: "inception_4d/pool_proj"
  type: "Convolution"
  bottom: "inception_4d/pool"
  top: "inception_4d/pool_proj"
  param {
    lr_mult: 1
    decay_mult: 1
  }
  param {
    lr_mult: 2
    decay_mult: 0
  }
  convolution_param {
    num_output: 64
    kernel_size: 1
    weight_filler {
      type: "xavier"
    }
    bias_filler {
      type: "constant"
      value: 0.2
    }
  }
}
layer {
  name: "inception_4d/relu_pool_proj"
  type: "ReLU"
  bottom: "inception_4d/pool_proj"
  top: "inception_4d/pool_proj"
}
layer {
  name: "inception_4d/output"
  type: "Concat"
  bottom: "inception_4d/1x1"
  bottom: "inception_4d/3x3"
  bottom: "inception_4d/5x5"
  bottom: "inception_4d/pool_proj"
  top: "inception_4d/output"
}
layer {
  name: "inception_4d/output_inception_4d/output_0_split"
  type: "Split"
  bottom: "inception_4d/output"
  top: "inception_4d/output_inception_4d/output_0_split_0"
  top: "inception_4d/output_inception_4d/output_0_split_1"
  top: "inception_4d/output_inception_4d/output_0_split_2"
  top: "inception_4d/output_inception_4d/output_0_split_3"
  top: "inception_4d/output_inception_4d/output_0_split_4"
}
layer {
  name: "loss2/ave_pool"
  type: "Pooling"
  bottom: "inception_4d/output_inception_4d/output_0_split_0"
  top: "loss2/ave_pool"
  pooling_param {
    pool: AVE
    kernel_size: 5
    stride: 3
  }
}
layer {
  name: "loss2/conv"
  type: "Convolution"
  bottom: "loss2/ave_pool"
  top: "loss2/conv"
  param {
    lr_mult: 1
    decay_mult: 1
  }
  param {
    lr_mult: 2
    decay_mult: 0
  }
  convolution_param {
    num_output: 128
    kernel_size: 1
    weight_filler {
      type: "xavier"
    }
    bias_filler {
      type: "constant"
      value: 0.2
    }
  }
}
layer {
  name: "loss2/relu_conv"
  type: "ReLU"
  bottom: "loss2/conv"
  top: "loss2/conv"
}
layer {
  name: "loss2/fc"
  type: "InnerProduct"
  bottom: "loss2/conv"
  top: "loss2/fc"
  param {
    lr_mult: 1
    decay_mult: 1
  }
  param {
    lr_mult: 2
    decay_mult: 0
  }
  inner_product_param {
    num_output: 1024
    weight_filler {
      type: "xavier"
    }
    bias_filler {
      type: "constant"
      value: 0.2
    }
  }
}
layer {
  name: "loss2/relu_fc"
  type: "ReLU"
  bottom: "loss2/fc"
  top: "loss2/fc"
}
layer {
  name: "loss2
I0123 12:53:05.906160 39704 net.cpp:154] Setting up Layer of device :0 @cpu 0 Layer : data
I0123 12:53:05.906203 39704 layer_factory.hpp:114] Creating layer data
I0123 12:53:05.907318 39704 net.cpp:169] Creating Layer data
I0123 12:53:05.907371 39704 net.cpp:579] data -> data
I0123 12:53:05.907382 39704 net.cpp:582] From AppendTop @cpu: 0
I0123 12:53:05.907403 39704 net.cpp:579] data -> label
I0123 12:53:05.907410 39704 net.cpp:582] From AppendTop @cpu: 0
I0123 12:53:05.907676 39705 db_lmdb.cpp:72] Opened lmdb /home/user/caffeOMP/original/caffe/examples/imagenet/ilsvrc12_train_lmdb
I0123 12:53:05.907778 39705 virtDev_device.cpp:310] found a CPU core 14 for Data Reader on device 0 thread ID 140498992748288
I0123 12:53:05.907799 39705 data_reader.cpp:128] inside DATAREADER 1
I0123 12:53:05.907815 39705 data_reader.cpp:139] NUMA DOMAIN 0
I0123 12:53:05.908565 39704 data_layer.cpp:80] output data size: 32,3,224,224
I0123 12:53:05.965337 39704 base_data_layer.cpp:96] Done cpu data
I0123 12:53:05.965389 39704 net.cpp:219] Setting up data
I0123 12:53:05.965423 39704 net.cpp:226] Top shape: 32 3 224 224 (4816896)
I0123 12:53:05.965440 39704 net.cpp:226] Top shape: 32 (32)
I0123 12:53:05.965451 39704 net.cpp:234] Memory required for data: 19267712
I0123 12:53:05.966388 39704 net.cpp:154] Setting up Layer of device :0 @cpu 0 Layer : label_data_1_split
I0123 12:53:05.966493 39704 layer_factory.hpp:114] Creating layer label_data_1_split
I0123 12:53:05.966528 39704 net.cpp:169] Creating Layer label_data_1_split
I0123 12:53:05.966542 39704 net.cpp:606] label_data_1_split <- label
I0123 12:53:05.966573 39704 net.cpp:579] label_data_1_split -> label_data_1_split_0
I0123 12:53:05.966586 39704 net.cpp:582] From AppendTop @cpu: 0
I0123 12:53:05.966619 39704 net.cpp:579] label_data_1_split -> label_data_1_split_1
I0123 12:53:05.966632 39704 net.cpp:582] From AppendTop @cpu: 0
I0123 12:53:05.966651 39704 net.cpp:579] label_data_1_split -> label_data_1_split_2
I0123 12:53:05.966662 39704 net.cpp:582] From AppendTop @cpu: 0
I0123 12:53:05.966696 39704 net.cpp:219] Setting up label_data_1_split
I0123 12:53:05.966722 39704 net.cpp:226] Top shape: 32 (32)
I0123 12:53:05.966737 39704 net.cpp:226] Top shape: 32 (32)
I0123 12:53:05.966761 39704 net.cpp:226] Top shape: 32 (32)
I0123 12:53:05.966773 39704 net.cpp:234] Memory required for data: 19268096
I0123 12:53:05.966795 39704 net.cpp:154] Setting up Layer of device :0 @cpu 0 Layer : conv1/7x7_s2
I0123 12:53:05.966807 39704 layer_factory.hpp:114] Creating layer conv1/7x7_s2
I0123 12:53:05.966845 39704 net.cpp:169] Creating Layer conv1/7x7_s2
I0123 12:53:05.966858 39704 net.cpp:606] conv1/7x7_s2 <- data
I0123 12:53:05.966879 39704 net.cpp:579] conv1/7x7_s2 -> conv1/7x7_s2
I0123 12:53:05.966892 39704 net.cpp:582] From AppendTop @cpu: 0
OMP: Info #242: KMP_AFFINITY: pid 39704 thread 1 bound to OS proc set {1}
OMP: Info #242: KMP_AFFINITY: pid 39704 thread 2 bound to OS proc set {2}
OMP: Info #242: KMP_AFFINITY: pid 39704 thread 3 bound to OS proc set {3}
OMP: Info #242: KMP_AFFINITY: pid 39704 thread 4 bound to OS proc set {4}
OMP: Info #242: KMP_AFFINITY: pid 39704 thread 5 bound to OS proc set {5}
OMP: Info #242: KMP_AFFINITY: pid 39704 thread 6 bound to OS proc set {6}
OMP: Info #242: KMP_AFFINITY: pid 39704 thread 7 bound to OS proc set {7}
I0123 12:53:06.000088 39704 net.cpp:219] Setting up conv1/7x7_s2
I0123 12:53:06.000107 39704 net.cpp:226] Top shape: 32 64 112 112 (25690112)
I0123 12:53:06.000114 39704 net.cpp:234] Memory required for data: 122028544
I0123 12:53:06.000160 39704 net.cpp:154] Setting up Layer of device :0 @cpu 0 Layer : conv1/relu_7x7
I0123 12:53:06.000197 39704 layer_factory.hpp:114] Creating layer conv1/relu_7x7
I0123 12:53:06.000212 39704 net.cpp:169] Creating Layer conv1/relu_7x7
I0123 12:53:06.000221 39704 net.cpp:606] conv1/relu_7x7 <- conv1/7x7_s2
I0123 12:53:06.000232 39704 net.cpp:566] conv1/relu_7x7 -> conv1/7x7_s2 (in-place)
I0123 12:53:06.000246 39704 net.cpp:219] Setting up conv1/relu_7x7
I0123 12:53:06.000254 39704 net.cpp:226] Top shape: 32 64 112 112 (25690112)
I0123 12:53:06.000262 39704 net.cpp:234] Memory required for data: 224788992
I0123 12:53:06.000269 39704 net.cpp:154] Setting up Layer of device :0 @cpu 0 Layer : pool1/3x3_s2
I0123 12:53:06.000277 39704 layer_factory.hpp:114] Creating layer pool1/3x3_s2
I0123 12:53:06.000330 39704 net.cpp:169] Creating Layer pool1/3x3_s2
I0123 12:53:06.000340 39704 net.cpp:606] pool1/3x3_s2 <- conv1/7x7_s2
I0123 12:53:06.000349 39704 net.cpp:579] pool1/3x3_s2 -> pool1/3x3_s2
I0123 12:53:06.000356 39704 net.cpp:582] From AppendTop @cpu: 0
I0123 12:53:06.000375 39704 net.cpp:219] Setting up pool1/3x3_s2
I0123 12:53:06.000383 39704 net.cpp:226] Top shape: 32 64 56 56 (6422528)
I0123 12:53:06.000391 39704 net.cpp:234] Memory required for data: 250479104
I0123 12:53:06.000399 39704 net.cpp:154] Setting up Layer of device :0 @cpu 0 Layer : pool1/norm1
I0123 12:53:06.000406 39704 layer_factory.hpp:114] Creating layer pool1/norm1
I0123 12:53:06.000421 39704 net.cpp:169] Creating Layer pool1/norm1
I0123 12:53:06.000428 39704 net.cpp:606] pool1/norm1 <- pool1/3x3_s2
I0123 12:53:06.000458 39704 net.cpp:579] pool1/norm1 -> pool1/norm1
I0123 12:53:06.000465 39704 net.cpp:582] From AppendTop @cpu: 0
I0123 12:53:06.000479 39704 net.cpp:219] Setting up pool1/norm1
I0123 12:53:06.000488 39704 net.cpp:226] Top shape: 32 64 56 56 (6422528)
I0123 12:53:06.000495 39704 net.cpp:234] Memory required for data: 276169216
I0123 12:53:06.000504 39704 net.cpp:154] Setting up Layer of device :0 @cpu 0 Layer : conv2/3x3_reduce
I0123 12:53:06.000510 39704 layer_factory.hpp:114] Creating layer conv2/3x3_reduce
I0123 12:53:06.000524 39704 net.cpp:169] Creating Layer conv2/3x3_reduce
I0123 12:53:06.000531 39704 net.cpp:606] conv2/3x3_reduce <- pool1/norm1
I0123 12:53:06.000543 39704 net.cpp:579] conv2/3x3_reduce -> conv2/3x3_reduce
I0123 12:53:06.000550 39704 net.cpp:582] From AppendTop @cpu: 0
I0123 12:53:06.003165 39704 net.cpp:219] Setting up conv2/3x3_reduce
I0123 12:53:06.003212 39704 net.cpp:226] Top shape: 32 64 56 56 (6422528)
I0123 12:53:06.003221 39704 net.cpp:234] Memory required for data: 301859328
I0123 12:53:06.003237 39704 net.cpp:154] Setting up Layer of device :0 @cpu 0 Layer : conv2/relu_3x3_reduce
I0123 12:53:06.003244 39704 layer_factory.hpp:114] Creating layer conv2/relu_3x3_reduce
I0123 12:53:06.003254 39704 net.cpp:169] Creating Layer conv2/relu_3x3_reduce
I0123 12:53:06.003262 39704 net.cpp:606] conv2/relu_3x3_reduce <- conv2/3x3_reduce
I0123 12:53:06.003270 39704 net.cpp:566] conv2/relu_3x3_reduce -> conv2/3x3_reduce (in-place)
I0123 12:53:06.003281 39704 net.cpp:219] Setting up conv2/relu_3x3_reduce
I0123 12:53:06.003290 39704 net.cpp:226] Top shape: 32 64 56 56 (6422528)
I0123 12:53:06.003298 39704 net.cpp:234] Memory required for data: 327549440
I0123 12:53:06.003306 39704 net.cpp:154] Setting up Layer of device :0 @cpu 0 Layer : conv2/3x3
I0123 12:53:06.003314 39704 layer_factory.hpp:114] Creating layer conv2/3x3
I0123 12:53:06.003330 39704 net.cpp:169] Creating Layer conv2/3x3
I0123 12:53:06.003338 39704 net.cpp:606] conv2/3x3 <- conv2/3x3_reduce
I0123 12:53:06.003350 39704 net.cpp:579] conv2/3x3 -> conv2/3x3
I0123 12:53:06.003356 39704 net.cpp:582] From AppendTop @cpu: 0
I0123 12:53:06.025149 39704 net.cpp:219] Setting up conv2/3x3
I0123 12:53:06.025199 39704 net.cpp:226] Top shape: 32 192 56 56 (19267584)
I0123 12:53:06.025207 39704 net.cpp:234] Memory required for data: 404619776
I0123 12:53:06.025224 39704 net.cpp:154] Setting up Layer of device :0 @cpu 0 Layer : conv2/relu_3x3
I0123 12:53:06.025244 39704 layer_factory.hpp:114] Creating layer conv2/relu_3x3
I0123 12:53:06.025254 39704 net.cpp:169] Creating Layer conv2/relu_3x3
I0123 12:53:06.025262 39704 net.cpp:606] conv2/relu_3x3 <- conv2/3x3
I0123 12:53:06.025274 39704 net.cpp:566] conv2/relu_3x3 -> conv2/3x3 (in-place)
I0123 12:53:06.025285 39704 net.cpp:219] Setting up conv2/relu_3x3
I0123 12:53:06.025293 39704 net.cpp:226] Top shape: 32 192 56 56 (19267584)
I0123 12:53:06.025300 39704 net.cpp:234] Memory required for data: 481690112
I0123 12:53:06.025308 39704 net.cpp:154] Setting up Layer of device :0 @cpu 0 Layer : conv2/norm2
I0123 12:53:06.025344 39704 layer_factory.hpp:114] Creating layer conv2/norm2
I0123 12:53:06.025357 39704 net.cpp:169] Creating Layer conv2/norm2
I0123 12:53:06.025364 39704 net.cpp:606] conv2/norm2 <- conv2/3x3
I0123 12:53:06.025377 39704 net.cpp:579] conv2/norm2 -> conv2/norm2
I0123 12:53:06.025384 39704 net.cpp:582] From AppendTop @cpu: 0
I0123 12:53:06.025398 39704 net.cpp:219] Setting up conv2/norm2
I0123 12:53:06.025406 39704 net.cpp:226] Top shape: 32 192 56 56 (19267584)
I0123 12:53:06.025413 39704 net.cpp:234] Memory required for data: 558760448
I0123 12:53:06.025421 39704 net.cpp:154] Setting up Layer of device :0 @cpu 0 Layer : pool2/3x3_s2
I0123 12:53:06.025429 39704 layer_factory.hpp:114] Creating layer pool2/3x3_s2
I0123 12:53:06.025451 39704 net.cpp:169] Creating Layer pool2/3x3_s2
I0123 12:53:06.025460 39704 net.cpp:606] pool2/3x3_s2 <- conv2/norm2
I0123 12:53:06.025470 39704 net.cpp:579] pool2/3x3_s2 -> pool2/3x3_s2
I0123 12:53:06.025476 39704 net.cpp:582] From AppendTop @cpu: 0
I0123 12:53:06.025497 39704 net.cpp:219] Setting up pool2/3x3_s2
I0123 12:53:06.025507 39704 net.cpp:226] Top shape: 32 192 28 28 (4816896)
I0123 12:53:06.025514 39704 net.cpp:234] Memory required for data: 578028032
I0123 12:53:06.025522 39704 net.cpp:154] Setting up Layer of device :0 @cpu 0 Layer : pool2/3x3_s2_pool2/3x3_s2_0_split
I0123 12:53:06.025529 39704 layer_factory.hpp:114] Creating layer pool2/3x3_s2_pool2/3x3_s2_0_split
I0123 12:53:06.025544 39704 net.cpp:169] Creating Layer pool2/3x3_s2_pool2/3x3_s2_0_split
I0123 12:53:06.025552 39704 net.cpp:606] pool2/3x3_s2_pool2/3x3_s2_0_split <- pool2/3x3_s2
I0123 12:53:06.025563 39704 net.cpp:579] pool2/3x3_s2_pool2/3x3_s2_0_split -> pool2/3x3_s2_pool2/3x3_s2_0_split_0
I0123 12:53:06.025570 39704 net.cpp:582] From AppendTop @cpu: 0
I0123 12:53:06.025580 39704 net.cpp:579] pool2/3x3_s2_pool2/3x3_s2_0_split -> pool2/3x3_s2_pool2/3x3_s2_0_split_1
I0123 12:53:06.025588 39704 net.cpp:582] From AppendTop @cpu: 0
I0123 12:53:06.025598 39704 net.cpp:579] pool2/3x3_s2_pool2/3x3_s2_0_split -> pool2/3x3_s2_pool2/3x3_s2_0_split_2
I0123 12:53:06.025604 39704 net.cpp:582] From AppendTop @cpu: 0
I0123 12:53:06.025614 39704 net.cpp:579] pool2/3x3_s2_pool2/3x3_s2_0_split -> pool2/3x3_s2_pool2/3x3_s2_0_split_3
I0123 12:53:06.025619 39704 net.cpp:582] From AppendTop @cpu: 0
I0123 12:53:06.025630 39704 net.cpp:219] Setting up pool2/3x3_s2_pool2/3x3_s2_0_split
I0123 12:53:06.025638 39704 net.cpp:226] Top shape: 32 192 28 28 (4816896)
I0123 12:53:06.025647 39704 net.cpp:226] Top shape: 32 192 28 28 (4816896)
I0123 12:53:06.025655 39704 net.cpp:226] Top shape: 32 192 28 28 (4816896)
I0123 12:53:06.025662 39704 net.cpp:226] Top shape: 32 192 28 28 (4816896)
I0123 12:53:06.025668 39704 net.cpp:234] Memory required for data: 655098368
I0123 12:53:06.025676 39704 net.cpp:154] Setting up Layer of device :0 @cpu 0 Layer : inception_3a/1x1
I0123 12:53:06.025683 39704 layer_factory.hpp:114] Creating layer inception_3a/1x1
I0123 12:53:06.025697 39704 net.cpp:169] Creating Layer inception_3a/1x1
I0123 12:53:06.025707 39704 net.cpp:606] inception_3a/1x1 <- pool2/3x3_s2_pool2/3x3_s2_0_split_0
I0123 12:53:06.025717 39704 net.cpp:579] inception_3a/1x1 -> inception_3a/1x1
I0123 12:53:06.025724 39704 net.cpp:582] From AppendTop @cpu: 0
I0123 12:53:06.027647 39704 net.cpp:219] Setting up inception_3a/1x1
I0123 12:53:06.027669 39704 net.cpp:226] Top shape: 32 64 28 28 (1605632)
I0123 12:53:06.027676 39704 net.cpp:234] Memory required for data: 661520896
I0123 12:53:06.027693 39704 net.cpp:154] Setting up Layer of device :0 @cpu 0 Layer : inception_3a/relu_1x1
I0123 12:53:06.027701 39704 layer_factory.hpp:114] Creating layer inception_3a/relu_1x1
I0123 12:53:06.027710 39704 net.cpp:169] Creating Layer inception_3a/relu_1x1
I0123 12:53:06.027717 39704 net.cpp:606] inception_3a/relu_1x1 <- inception_3a/1x1
I0123 12:53:06.027729 39704 net.cpp:566] inception_3a/relu_1x1 -> inception_3a/1x1 (in-place)
I0123 12:53:06.027740 39704 net.cpp:219] Setting up inception_3a/relu_1x1
I0123 12:53:06.027748 39704 net.cpp:226] Top shape: 32 64 28 28 (1605632)
I0123 12:53:06.027755 39704 net.cpp:234] Memory required for data: 667943424
I0123 12:53:06.027762 39704 net.cpp:154] Setting up Layer of device :0 @cpu 0 Layer : inception_3a/3x3_reduce
I0123 12:53:06.027770 39704 layer_factory.hpp:114] Creating layer inception_3a/3x3_reduce
I0123 12:53:06.027783 39704 net.cpp:169] Creating Layer inception_3a/3x3_reduce
I0123 12:53:06.027791 39704 net.cpp:606] inception_3a/3x3_reduce <- pool2/3x3_s2_pool2/3x3_s2_0_split_1
I0123 12:53:06.027801 39704 net.cpp:579] inception_3a/3x3_reduce -> inception_3a/3x3_reduce
I0123 12:53:06.027807 39704 net.cpp:582] From AppendTop @cpu: 0
I0123 12:53:06.030352 39704 net.cpp:219] Setting up inception_3a/3x3_reduce
I0123 12:53:06.030367 39704 net.cpp:226] Top shape: 32 96 28 28 (2408448)
I0123 12:53:06.030375 39704 net.cpp:234] Memory required for data: 677577216
I0123 12:53:06.030388 39704 net.cpp:154] Setting up Layer of device :0 @cpu 0 Layer : inception_3a/relu_3x3_reduce
I0123 12:53:06.030395 39704 layer_factory.hpp:114] Creating layer inception_3a/relu_3x3_reduce
I0123 12:53:06.030416 39704 net.cpp:169] Creating Layer inception_3a/relu_3x3_reduce
I0123 12:53:06.030431 39704 net.cpp:606] inception_3a/relu_3x3_reduce <- inception_3a/3x3_reduce
I0123 12:53:06.030441 39704 net.cpp:566] inception_3a/relu_3x3_reduce -> inception_3a/3x3_reduce (in-place)
I0123 12:53:06.030452 39704 net.cpp:219] Setting up inception_3a/relu_3x3_reduce
I0123 12:53:06.030462 39704 net.cpp:226] Top shape: 32 96 28 28 (2408448)
I0123 12:53:06.030467 39704 net.cpp:234] Memory required for data: 687211008
I0123 12:53:06.030475 39704 net.cpp:154] Setting up Layer of device :0 @cpu 0 Layer : inception_3a/3x3
I0123 12:53:06.030483 39704 layer_factory.hpp:114] Creating layer inception_3a/3x3
I0123 12:53:06.030493 39704 net.cpp:169] Creating Layer inception_3a/3x3
I0123 12:53:06.030501 39704 net.cpp:606] inception_3a/3x3 <- inception_3a/3x3_reduce
I0123 12:53:06.030514 39704 net.cpp:579] inception_3a/3x3 -> inception_3a/3x3
I0123 12:53:06.030520 39704 net.cpp:582] From AppendTop @cpu: 0
I0123 12:53:06.040254 39704 net.cpp:219] Setting up inception_3a/3x3
I0123 12:53:06.040271 39704 net.cpp:226] Top shape: 32 128 28 28 (3211264)
I0123 12:53:06.040277 39704 net.cpp:234] Memory required for data: 700056064
I0123 12:53:06.040289 39704 net.cpp:154] Setting up Layer of device :0 @cpu 0 Layer : inception_3a/relu_3x3
I0123 12:53:06.040297 39704 layer_factory.hpp:114] Creating layer inception_3a/relu_3x3
I0123 12:53:06.040305 39704 net.cpp:169] Creating Layer inception_3a/relu_3x3
I0123 12:53:06.040313 39704 net.cpp:606] inception_3a/relu_3x3 <- inception_3a/3x3
I0123 12:53:06.040324 39704 net.cpp:566] inception_3a/relu_3x3 -> inception_3a/3x3 (in-place)
I0123 12:53:06.040335 39704 net.cpp:219] Setting up inception_3a/relu_3x3
I0123 12:53:06.040343 39704 net.cpp:226] Top shape: 32 128 28 28 (3211264)
I0123 12:53:06.040350 39704 net.cpp:234] Memory required for data: 712901120
I0123 12:53:06.040359 39704 net.cpp:154] Setting up Layer of device :0 @cpu 0 Layer : inception_3a/5x5_reduce
I0123 12:53:06.040365 39704 layer_factory.hpp:114] Creating layer inception_3a/5x5_reduce
I0123 12:53:06.040380 39704 net.cpp:169] Creating Layer inception_3a/5x5_reduce
I0123 12:53:06.040386 39704 net.cpp:606] inception_3a/5x5_reduce <- pool2/3x3_s2_pool2/3x3_s2_0_split_2
I0123 12:53:06.040396 39704 net.cpp:579] inception_3a/5x5_reduce -> inception_3a/5x5_reduce
I0123 12:53:06.040416 39704 net.cpp:582] From AppendTop @cpu: 0
I0123 12:53:06.042119 39704 net.cpp:219] Setting up inception_3a/5x5_reduce
I0123 12:53:06.042135 39704 net.cpp:226] Top shape: 32 16 28 28 (401408)
I0123 12:53:06.042141 39704 net.cpp:234] Memory required for data: 714506752
I0123 12:53:06.042153 39704 net.cpp:154] Setting up Layer of device :0 @cpu 0 Layer : inception_3a/relu_5x5_reduce
I0123 12:53:06.042160 39704 layer_factory.hpp:114] Creating layer inception_3a/relu_5x5_reduce
I0123 12:53:06.042170 39704 net.cpp:169] Creating Layer inception_3a/relu_5x5_reduce
I0123 12:53:06.042202 39704 net.cpp:606] inception_3a/relu_5x5_reduce <- inception_3a/5x5_reduce
I0123 12:53:06.042214 39704 net.cpp:566] inception_3a/relu_5x5_reduce -> inception_3a/5x5_reduce (in-place)
I0123 12:53:06.042225 39704 net.cpp:219] Setting up inception_3a/relu_5x5_reduce
I0123 12:53:06.042234 39704 net.cpp:226] Top shape: 32 16 28 28 (401408)
I0123 12:53:06.042240 39704 net.cpp:234] Memory required for data: 716112384
I0123 12:53:06.042248 39704 net.cpp:154] Setting up Layer of device :0 @cpu 0 Layer : inception_3a/5x5
I0123 12:53:06.042255 39704 layer_factory.hpp:114] Creating layer inception_3a/5x5
I0123 12:53:06.042269 39704 net.cpp:169] Creating Layer inception_3a/5x5
I0123 12:53:06.042278 39704 net.cpp:606] inception_3a/5x5 <- inception_3a/5x5_reduce
I0123 12:53:06.042286 39704 net.cpp:579] inception_3a/5x5 -> inception_3a/5x5
I0123 12:53:06.042294 39704 net.cpp:582] From AppendTop @cpu: 0
I0123 12:53:06.046509 39704 net.cpp:219] Setting up inception_3a/5x5
I0123 12:53:06.046525 39704 net.cpp:226] Top shape: 32 32 28 28 (802816)
I0123 12:53:06.046540 39704 net.cpp:234] Memory required for data: 719323648
I0123 12:53:06.046553 39704 net.cpp:154] Setting up Layer of device :0 @cpu 0 Layer : inception_3a/relu_5x5
I0123 12:53:06.046561 39704 layer_factory.hpp:114] Creating layer inception_3a/relu_5x5
I0123 12:53:06.046569 39704 net.cpp:169] Creating Layer inception_3a/relu_5x5
I0123 12:53:06.046577 39704 net.cpp:606] inception_3a/relu_5x5 <- inception_3a/5x5
I0123 12:53:06.046588 39704 net.cpp:566] inception_3a/relu_5x5 -> inception_3a/5x5 (in-place)
I0123 12:53:06.046598 39704 net.cpp:219] Setting up inception_3a/relu_5x5
I0123 12:53:06.046607 39704 net.cpp:226] Top shape: 32 32 28 28 (802816)
I0123 12:53:06.046614 39704 net.cpp:234] Memory required for data: 722534912
I0123 12:53:06.046622 39704 net.cpp:154] Setting up Layer of device :0 @cpu 0 Layer : inception_3a/pool
I0123 12:53:06.046629 39704 layer_factory.hpp:114] Creating layer inception_3a/pool
I0123 12:53:06.046658 39704 net.cpp:169] Creating Layer inception_3a/pool
I0123 12:53:06.046667 39704 net.cpp:606] inception_3a/pool <- pool2/3x3_s2_pool2/3x3_s2_0_split_3
I0123 12:53:06.046679 39704 net.cpp:579] inception_3a/pool -> inception_3a/pool
I0123 12:53:06.046685 39704 net.cpp:582] From AppendTop @cpu: 0
I0123 12:53:06.046697 39704 net.cpp:219] Setting up inception_3a/pool
I0123 12:53:06.046707 39704 net.cpp:226] Top shape: 32 192 28 28 (4816896)
I0123 12:53:06.046713 39704 net.cpp:234] Memory required for data: 741802496
I0123 12:53:06.046721 39704 net.cpp:154] Setting up Layer of device :0 @cpu 0 Layer : inception_3a/pool_proj
I0123 12:53:06.046728 39704 layer_factory.hpp:114] Creating layer inception_3a/pool_proj
I0123 12:53:06.046742 39704 net.cpp:169] Creating Layer inception_3a/pool_proj
I0123 12:53:06.046751 39704 net.cpp:606] inception_3a/pool_proj <- inception_3a/pool
I0123 12:53:06.046762 39704 net.cpp:579] inception_3a/pool_proj -> inception_3a/pool_proj
I0123 12:53:06.046769 39704 net.cpp:582] From AppendTop @cpu: 0
I0123 12:53:06.048565 39704 net.cpp:219] Setting up inception_3a/pool_proj
I0123 12:53:06.048580 39704 net.cpp:226] Top shape: 32 32 28 28 (802816)
I0123 12:53:06.048588 39704 net.cpp:234] Memory required for data: 745013760
I0123 12:53:06.048604 39704 net.cpp:154] Setting up Layer of device :0 @cpu 0 Layer : inception_3a/relu_pool_proj
I0123 12:53:06.048612 39704 layer_factory.hpp:114] Creating layer inception_3a/relu_pool_proj
I0123 12:53:06.048621 39704 net.cpp:169] Creating Layer inception_3a/relu_pool_proj
I0123 12:53:06.048650 39704 net.cpp:606] inception_3a/relu_pool_proj <- inception_3a/pool_proj
I0123 12:53:06.048661 39704 net.cpp:566] inception_3a/relu_pool_proj -> inception_3a/pool_proj (in-place)
I0123 12:53:06.048672 39704 net.cpp:219] Setting up inception_3a/relu_pool_proj
I0123 12:53:06.048681 39704 net.cpp:226] Top shape: 32 32 28 28 (802816)
I0123 12:53:06.048687 39704 net.cpp:234] Memory required for data: 748225024
I0123 12:53:06.048696 39704 net.cpp:154] Setting up Layer of device :0 @cpu 0 Layer : inception_3a/output
I0123 12:53:06.048702 39704 layer_factory.hpp:114] Creating layer inception_3a/output
I0123 12:53:06.048712 39704 net.cpp:169] Creating Layer inception_3a/output
I0123 12:53:06.048719 39704 net.cpp:606] inception_3a/output <- inception_3a/1x1
I0123 12:53:06.048727 39704 net.cpp:606] inception_3a/output <- inception_3a/3x3
I0123 12:53:06.048734 39704 net.cpp:606] inception_3a/output <- inception_3a/5x5
I0123 12:53:06.048743 39704 net.cpp:606] inception_3a/output <- inception_3a/pool_proj
I0123 12:53:06.048750 39704 net.cpp:579] inception_3a/output -> inception_3a/output
I0123 12:53:06.048758 39704 net.cpp:582] From AppendTop @cpu: 0
I0123 12:53:06.048774 39704 net.cpp:219] Setting up inception_3a/output
I0123 12:53:06.048782 39704 net.cpp:226] Top shape: 32 256 28 28 (6422528)
I0123 12:53:06.048789 39704 net.cpp:234] Memory required for data: 773915136
I0123 12:53:06.048797 39704 net.cpp:154] Setting up Layer of device :0 @cpu 0 Layer : inception_3a/output_inception_3a/output_0_split
I0123 12:53:06.048804 39704 layer_factory.hpp:114] Creating layer inception_3a/output_inception_3a/output_0_split
I0123 12:53:06.048823 39704 net.cpp:169] Creating Layer inception_3a/output_inception_3a/output_0_split
…
I0123 12:53:06.048864 39704 net.cpp:582] From AppendTop @cpu: 0
I0123 12:53:06.048874 39704 net.cpp:579] inception_3a/output_inception_3a/output_0_split -> inception_3a/output_inception_3a/output_0_split_2
I0123 12:53:06.048882 39704 net.cpp:582] From AppendTop @cpu: 0
I0123 12:53:06.048892 39704 net.cpp:579] inception_3a/output_inception_3a/output_0_split -> inception_3a/output_inception_3a/output_0_split_3
I0123 12:53:06.048899 39704 net.cpp:582] From AppendTop @cpu: 0
I0123 12:53:06.048909 39704 net.cpp:219] Setting up inception_3a/output_inception_3a/output_0_split
I0123 12:53:06.048918 39704 net.cpp:226] Top shape: 32 256 28 28 (6422528)
I0123 12:53:06.048926 39704 net.cpp:226] Top shape: 32 256 28 28 (6422528)
I0123 12:53:06.048934 39704 net.cpp:226] Top shape: 32 256 28 28 (6422528)
I0123 12:53:06.048941 39704 net.cpp:226] Top shape: 32 256 28 28 (6422528)
I0123 12:53:06.048949 39704 net.cpp:234] Memory required for data: 876675584
I0123 12:53:06.048956 39704 net.cpp:154] Setting up Layer of device :0 @cpu 0 Layer : inception_3b/1x1
I0123 12:53:06.048964 39704 layer_factory.hpp:114] Creating layer inception_3b/1x1
I0123 12:53:06.048976 39704 net.cpp:169] Creating Layer inception_3b/1x1
I0123 12:53:06.048985 39704 net.cpp:606] inception_3b/1x1 <- inception_3a/output_inception_3a/output_0_split_0
I0123 12:53:06.048995 39704 net.cpp:579] inception_3b/1x1 -> inception_3b/1x1
I0123 12:53:06.049003 39704 net.cpp:582] From AppendTop @cpu: 0
I0123 12:53:06.052217 39704 net.cpp:219] Setting up inception_3b/1x1
I0123 12:53:06.052232 39704 net.cpp:226] Top shape: 32 128 28 28 (3211264)
I0123 12:53:06.052238 39704 net.cpp:234] Memory required for data: 889520640
I0123 12:53:06.052250 39704 net.cpp:154] Setting up Layer of device :0 @cpu 0 Layer : inception_3b/relu_1x1
I0123 12:53:06.052258 39704 layer_factory.hpp:114] Creating layer inception_3b/relu_1x1
I0123 12:53:06.052273 39704 net.cpp:169] Creating Layer inception_3b/relu_1x1
I0123 12:53:06.052280 39704 net.cpp:606] inception_3b/relu_1x1 <- inception_3b/1x1
I0123 12:53:06.052291 39704 net.cpp:566] inception_3b/relu_1x1 -> inception_3b/1x1 (in-place)
I0123 12:53:06.052302 39704 net.cpp:219] Setting up inception_3b/relu_1x1
I0123 12:53:06.052311 39704 net.cpp:226] Top shape: 32 128 28 28 (3211264)
I0123 12:53:06.052319 39704 net.cpp:234] Memory required for data: 902365696
I0123 12:53:06.052326 39704 net.cpp:154] Setting up Layer of device :0 @cpu 0 Layer : inception_3b/3x3_reduce
I0123 12:53:06.052333 39704 layer_factory.hpp:114] Creating layer inception_3b/3x3_reduce
I0123 12:53:06.052345 39704 net.cpp:169] Creating Layer inception_3b/3x3_reduce
I0123 12:53:06.052352 39704 net.cpp:606] inception_3b/3x3_reduce <- inception_3a/output_inception_3a/output_0_split_1
I0123 12:53:06.052364 39704 net.cpp:579] inception_3b/3x3_reduce -> inception_3b/3x3_reduce
I0123 12:53:06.052371 39704 net.cpp:582] From AppendTop @cpu: 0
I0123 12:53:06.055586 39704 net.cpp:219] Setting up inception_3b/3x3_reduce
I0123 12:53:06.055603 39704 net.cpp:226] Top shape: 32 128 28 28 (3211264)
I0123 12:53:06.055609 39704 net.cpp:234] Memory required for data: 915210752
I0123 12:53:06.055621 39704 net.cpp:154] Setting up Layer of device :0 @cpu 0 Layer : inception_3b/relu_3x3_reduce
I0123 12:53:06.055629 39704 layer_factory.hpp:114] Creating layer inception_3b/relu_3x3_reduce
I0123 12:53:06.055639 39704 net.cpp:169] Creating Layer inception_3b/relu_3x3_reduce
I0123 12:53:06.055645 39704 net.cpp:606] inception_3b/relu_3x3_reduce <- inception_3b/3x3_reduce
I0123 12:53:06.055666 39704 net.cpp:566] inception_3b/relu_3x3_reduce -> inception_3b/3x3_reduce (in-place)
I0123 12:53:06.055677 39704 net.cpp:219] Setting up inception_3b/relu_3x3_reduce
I0123 12:53:06.055686 39704 net.cpp:226] Top shape: 32 128 28 28 (3211264)
I0123 12:53:06.055692 39704 net.cpp:234] Memory required for data: 928055808
I0123 12:53:06.055701 39704 net.cpp:154] Setting up Layer of device :0 @cpu 0 Layer : inception_3b/3x3
I0123 12:53:06.055707 39704 layer_factory.hpp:114] Creating layer inception_3b/3x3
I0123 12:53:06.055722 39704 net.cpp:169] Creating Layer inception_3b/3x3
I0123 12:53:06.055730 39704 net.cpp:606] inception_3b/3x3 <- inception_3b/3x3_reduce
I0123 12:53:06.055745 39704 net.cpp:579] inception_3b/3x3 -> inception_3b/3x3
I0123 12:53:06.055752 39704 net.cpp:582] From AppendTop @cpu: 0
I0123 12:53:06.069800 39704 net.cpp:219] Setting up inception_3b/3x3
I0123 12:53:06.069838 39704 net.cpp:226] Top shape: 32 192 28 28 (4816896)
I0123 12:53:06.069844 39704 net.cpp:234] Memory required for data: 947323392
I0123 12:53:06.069857 39704 net.cpp:154] Setting up Layer of device :0 @cpu 0 Layer : inception_3b/relu_3x3
I0123 12:53:06.069864 39704 layer_factory.hpp:114] Creating layer inception_3b/relu_3x3
I0123 12:53:06.069874 39704 net.cpp:169] Creating Layer inception_3b/relu_3x3
I0123 12:53:06.069881 39704 net.cpp:606] inception_3b/relu_3x3 <- inception_3b/3x3
I0123 12:53:06.069890 39704 net.cpp:566] inception_3b/relu_3x3 -> inception_3b/3x3 (in-place)
I0123 12:53:06.069900 39704 net.cpp:219] Setting up inception_3b/relu_3x3
I0123 12:53:06.069910 39704 net.cpp:226] Top shape: 32 192 28 28 (4816896)
I0123 12:53:06.069916 39704 net.cpp:234] Memory required for data: 966590976
I0123 12:53:06.069923 39704 net.cpp:154] Setting up Layer of device :0 @cpu 0 Layer : inception_3b/5x5_reduce
I0123 12:53:06.069931 39704 layer_factory.hpp:114] Creating layer inception_3b/5x5_reduce
I0123 12:53:06.069944 39704 net.cpp:169] Creating Layer inception_3b/5x5_reduce
I0123 12:53:06.069953 39704 net.cpp:606] inception_3b/5x5_reduce <- inception_3a/output_inception_3a/output_0_split_2
I0123 12:53:06.069963 39704 net.cpp:579] inception_3b/5x5_reduce -> inception_3b/5x5_reduce
I0123 12:53:06.069970 39704 net.cpp:582] From AppendTop @cpu: 0
I0123 12:53:06.072655 39704 net.cpp:219] Setting up inception_3b/5x5_reduce
I0123 12:53:06.072670 39704 net.cpp:226] Top shape: 32 32 28 28 (802816)
I0123 12:53:06.072697 39704 net.cpp:234] Memory required for data: 969802240
I0123 12:53:06.072710 39704 net.cpp:154] Setting up Layer of device :0 @cpu 0 Layer : inception_3b/relu_5x5_reduce
I0123 12:53:06.072716 39704 layer_factory.hpp:114] Creating layer inception_3b/relu_5x5_reduce
I0123 12:53:06.072726 39704 net.cpp:169] Creating Layer inception_3b/relu_5x5_reduce
I0123 12:53:06.072733 39704 net.cpp:606] inception_3b/relu_5x5_reduce <- inception_3b/5x5_reduce
I0123 12:53:06.072742 39704 net.cpp:566] inception_3b/relu_5x5_reduce -> inception_3b/5x5_reduce (in-place)
I0123 12:53:06.072752 39704 net.cpp:219] Setting up inception_3b/relu_5x5_reduce
I0123 12:53:06.072762 39704 net.cpp:226] Top shape: 32 32 28 28 (802816)
I0123 12:53:06.072768 39704 net.cpp:234] Memory required for data: 973013504
I0123 12:53:06.072777 39704 net.cpp:154] Setting up Layer of device :0 @cpu 0 Layer : inception_3b/5x5
I0123 12:53:06.072782 39704 layer_factory.hpp:114] Creating layer inception_3b/5x5
I0123 12:53:06.072798 39704 net.cpp:169] Creating Layer inception_3b/5x5
I0123 12:53:06.072805 39704 net.cpp:606] inception_3b/5x5 <- inception_3b/5x5_reduce
I0123 12:53:06.072815 39704 net.cpp:579] inception_3b/5x5 -> inception_3b/5x5
I0123 12:53:06.072823 39704 net.cpp:582] From AppendTop @cpu: 0
I0123 12:53:06.081269 39704 net.cpp:219] Setting up inception_3b/5x5
I0123 12:53:06.081290 39704 net.cpp:226] Top shape: 32 96 28 28 (2408448)
I0123 12:53:06.081298 39704 net.cpp:234] Memory required for data: 982647296
I0123 12:53:06.081310 39704 net.cpp:154] Setting up Layer of device :0 @cpu 0 Layer : inception_3b/relu_5x5
I0123 12:53:06.081326 39704 layer_factory.hpp:114] Creating layer inception_3b/relu_5x5
I0123 12:53:06.081337 39704 net.cpp:169] Creating Layer inception_3b/relu_5x5
I0123 12:53:06.081346 39704 net.cpp:606] inception_3b/relu_5x5 <- inception_3b/5x5
I0123 12:53:06.081356 39704 net.cpp:566] inception_3b/relu_5x5 -> inception_3b/5x5 (in-place)
I0123 12:53:06.081365 39704 net.cpp:219] Setting up inception_3b/relu_5x5
I0123 12:53:06.081374 39704 net.cpp:226] Top shape: 32 96 28 28 (2408448)
I0123 12:53:06.081380 39704 net.cpp:234] Memory required for data: 992281088
I0123 12:53:06.081389 39704 net.cpp:154] Setting up Layer of device :0 @cpu 0 Layer : inception_3b/pool
I0123 12:53:06.081395 39704 layer_factory.hpp:114] Creating layer inception_3b/pool
I0123 12:53:06.081421 39704 net.cpp:169] Creating Layer inception_3b/pool
I0123 12:53:06.081431 39704 net.cpp:606] inception_3b/pool <- inception_3a/output_inception_3a/output_0_split_3
I0123 12:53:06.081441 39704 net.cpp:579] inception_3b/pool -> inception_3b/pool
I0123 12:53:06.081449 39704 net.cpp:582] From AppendTop @cpu: 0
I0123 12:53:06.081460 39704 net.cpp:219] Setting up inception_3b/pool
I0123 12:53:06.081470 39704 net.cpp:226] Top shape: 32 256 28 28 (6422528)
I0123 12:53:06.081476 39704 net.cpp:234] Memory required for data: 1017971200
I0123 12:53:06.081485 39704 net.cpp:154] Setting up Layer of device :0 @cpu 0 Layer : inception_3b/pool_proj
I0123 12:53:06.081490 39704 layer_factory.hpp:114] Creating layer inception_3b/pool_proj
I0123 12:53:06.081504 39704 net.cpp:169] Creating Layer inception_3b/pool_proj
I0123 12:53:06.081512 39704 net.cpp:606] inception_3b/pool_proj <- inception_3b/pool
I0123 12:53:06.081523 39704 net.cpp:579] inception_3b/pool_proj -> inception_3b/pool_proj
I0123 12:53:06.081531 39704 net.cpp:582] From AppendTop @cpu: 0
I0123 12:53:06.084383 39704 net.cpp:219] Setting up inception_3b/pool_proj
I0123 12:53:06.084398 39704 net.cpp:226] Top shape: 32 64 28 28 (1605632)
I0123 12:53:06.084404 39704 net.cpp:234] Memory required for data: 1024393728
I0123 12:53:06.084416 39704 net.cpp:154] Setting up Layer of device :0 @cpu 0 Layer : inception_3b/relu_pool_proj
I0123 12:53:06.084424 39704 layer_factory.hpp:114] Creating layer inception_3b/relu_pool_proj
I0123 12:53:06.084432 39704 net.cpp:169] Creating Layer inception_3b/relu_pool_proj
I0123 12:53:06.084440 39704 net.cpp:606] inception_3b/relu_pool_proj <- inception_3b/pool_proj
I0123 12:53:06.084455 39704 net.cpp:566] inception_3b/relu_pool_proj -> inception_3b/pool_proj (in-place)
I0123 12:53:06.084465 39704 net.cpp:219] Setting up inception_3b/relu_pool_proj
I0123 12:53:06.084475 39704 net.cpp:226] Top shape: 32 64 28 28 (1605632)
I0123 12:53:06.084481 39704 net.cpp:234] Memory required for data: 1030816256
I0123 12:53:06.084489 39704 net.cpp:154] Setting up Layer of device :0 @cpu 0 Layer : inception_3b/output
I0123 12:53:06.084496 39704 layer_factory.hpp:114] Creating layer inception_3b/output
I0123 12:53:06.084507 39704 net.cpp:169] Creating Layer inception_3b/output
I0123 12:53:06.084516 39704 net.cpp:606] inception_3b/output <- inception_3b/1x1
I0123 12:53:06.084523 39704 net.cpp:606] inception_3b/output <- inception_3b/3x3
I0123 12:53:06.084532 39704 net.cpp:606] inception_3b/output <- inception_3b/5x5
I0123 12:53:06.084539 39704 net.cpp:606] inception_3b/output <- inception_3b/pool_proj
I0123 12:53:06.084547 39704 net.cpp:579] inception_3b/output -> inception_3b/output
I0123 12:53:06.084554 39704 net.cpp:582] From AppendTop @cpu: 0
I0123 12:53:06.084565 39704 net.cpp:219] Setting up inception_3b/output
I0123 12:53:06.084574 39704 net.cpp:226] Top shape: 32 480 28 28 (12042240)
I0123 12:53:06.084581 39704 net.cpp:234] Memory required for data: 1078985216
I0123 12:53:06.084589 39704 net.cpp:154] Setting up Layer of device :0 @cpu 0 Layer : pool3/3x3_s2
I0123 12:53:06.084596 39704 layer_factory.hpp:114] Creating layer pool3/3x3_s2
I0123 12:53:06.084620 39704 net.cpp:169] Creating Layer pool3/3x3_s2
I0123 12:53:06.084630 39704 net.cpp:606] pool3/3x3_s2 <- inception_3b/output
I0123 12:53:06.084647 39704 net.cpp:579] pool3/3x3_s2 -> pool3/3x3_s2
I0123 12:53:06.084656 39704 net.cpp:582] From AppendTop @cpu: 0
I0123 12:53:06.084667 39704 net.cpp:219] Setting up pool3/3x3_s2
I0123 12:53:06.084676 39704 net.cpp:226] Top shape: 32 480 14 14 (3010560)
I0123 12:53:06.084683 39704 net.cpp:234] Memory required for data: 1091027456
I0123 12:53:06.084692 39704 net.cpp:154] Setting up Layer of device :0 @cpu 0 Layer : pool3/3x3_s2_pool3/3x3_s2_0_split
I0123 12:53:06.084698 39704 layer_factory.hpp:114] Creating layer pool3/3x3_s2_pool3/3x3_s2_0_split
I0123 12:53:06.084709 39704 net.cpp:169] Creating Layer pool3/3x3_s2_pool3/3x3_s2_0_split
I0123 12:53:06.084717 39704 net.cpp:606] pool3/3x3_s2_pool3/3x3_s2_0_split <- pool3/3x3_s2
I0123 12:53:06.084727 39704 net.cpp:579] pool3/3x3_s2_pool3/3x3_s2_0_split -> pool3/3x3_s2_pool3/3x3_s2_0_split_0
I0123 12:53:06.084735 39704 net.cpp:582] From AppendTop @cpu: 0
I0123 12:53:06.084745 39704 net.cpp:579] pool3/3x3_s2_pool3/3x3_s2_0_split -> pool3/3x3_s2_pool3/3x3_s2_0_split_1
I0123 12:53:06.084753 39704 net.cpp:582] From AppendTop @cpu: 0
I0123 12:53:06.084763 39704 net.cpp:579] pool3/3x3_s2_pool3/3x3_s2_0_split -> pool3/3x3_s2_pool3/3x3_s2_0_split_2
I0123 12:53:06.084769 39704 net.cpp:582] From AppendTop @cpu: 0
I0123 12:53:06.084779 39704 net.cpp:579] pool3/3x3_s2_pool3/3x3_s2_0_split -> pool3/3x3_s2_pool3/3x3_s2_0_split_3
I0123 12:53:06.084785 39704 net.cpp:582] From AppendTop @cpu: 0
I0123 12:53:06.084794 39704 net.cpp:219] Setting up pool3/3x3_s2_pool3/3x3_s2_0_split
I0123 12:53:06.084803 39704 net.cpp:226] Top shape: 32 480 14 14 (3010560)
I0123 12:53:06.084811 39704 net.cpp:226] Top shape: 32 480 14 14 (3010560)
I0123 12:53:06.084820 39704 net.cpp:226] Top shape: 32 480 14 14 (3010560)
I0123 12:53:06.084826 39704 net.cpp:226] Top shape: 32 480 14 14 (3010560)
I0123 12:53:06.084833 39704 net.cpp:234] Memory required for data: 1139196416
I0123 12:53:06.084841 39704 net.cpp:154] Setting up Layer of device :0 @cpu 0 Layer : inception_4a/1x1
I0123 12:53:06.084848 39704 layer_factory.hpp:114] Creating layer inception_4a/1x1
I0123 12:53:06.084861 39704 net.cpp:169] Creating Layer inception_4a/1x1
I0123 12:53:06.084869 39704 net.cpp:606] inception_4a/1x1 <- pool3/3x3_s2_pool3/3x3_s2_0_split_0
I0123 12:53:06.084882 39704 net.cpp:579] inception_4a/1x1 -> inception_4a/1x1
I0123 12:53:06.084888 39704 net.cpp:582] From AppendTop @cpu: 0
I0123 12:53:06.088451 39704 net.cpp:219] Setting up inception_4a/1x1
I0123 12:53:06.088475 39704 net.cpp:226] Top shape: 32 192 14 14 (1204224)
I0123 12:53:06.088482 39704 net.cpp:234] Memory required for data: 1144013312
I0123 12:53:06.088495 39704 net.cpp:154] Setting up Layer of device :0 @cpu 0 Layer : inception_4a/relu_1x1
I0123 12:53:06.088502 39704 layer_factory.hpp:114] Creating layer inception_4a/relu_1x1
I0123 12:53:06.088511 39704 net.cpp:169] Creating Layer inception_4a/relu_1x1
I0123 12:53:06.088520 39704 net.cpp:606] inception_4a/relu_1x1 <- inception_4a/1x1
I0123 12:53:06.088531 39704 net.cpp:566] inception_4a/relu_1x1 -> inception_4a/1x1 (in-place)
I0123 12:53:06.088541 39704 net.cpp:219] Setting up inception_4a/relu_1x1
I0123 12:53:06.088549 39704 net.cpp:226] Top shape: 32 192 14 14 (1204224)
I0123 12:53:06.088557 39704 net.cpp:234] Memory required for data: 1148830208
I0123 12:53:06.088564 39704 net.cpp:154] Setting up Layer of device :0 @cpu 0 Layer : inception_4a/3x3_reduce
I0123 12:53:06.088572 39704 layer_factory.hpp:114] Creating layer inception_4a/3x3_reduce
I0123 12:53:06.088583 39704 net.cpp:169] Creating Layer inception_4a/3x3_reduce
I0123 12:53:06.088591 39704 net.cpp:606] inception_4a/3x3_reduce <- pool3/3x3_s2_pool3/3x3_s2_0_split_1
I0123 12:53:06.088603 39704 net.cpp:579] inception_4a/3x3_reduce -> inception_4a/3x3_reduce
I0123 12:53:06.088610 39704 net.cpp:582] From AppendTop @cpu: 0
I0123 12:53:06.090956 39704 net.cpp:219] Setting up inception_4a/3x3_reduce
I0123 12:53:06.090971 39704 net.cpp:226] Top shape: 32 96 14 14 (602112)
I0123 12:53:06.090978 39704 net.cpp:234] Memory required for data: 1151238656
I0123 12:53:06.091004 39704 net.cpp:154] Setting up Layer of device :0 @cpu 0 Layer : inception_4a/relu_3x3_reduce
I0123 12:53:06.091012 39704 layer_factory.hpp:114] Creating layer inception_4a/relu_3x3_reduce
I0123 12:53:06.091022 39704 net.cpp:169] Creating Layer inception_4a/relu_3x3_reduce
I0123 12:53:06.091029 39704 net.cpp:606] inception_4a/relu_3x3_reduce <- inception_4a/3x3_reduce
I0123 12:53:06.091039 39704 net.cpp:566] inception_4a/relu_3x3_reduce -> inception_4a/3x3_reduce (in-place)
I0123 12:53:06.091050 39704 net.cpp:219] Setting up inception_4a/relu_3x3_reduce
I0123 12:53:06.091059 39704 net.cpp:226] Top shape: 32 96 14 14 (602112)
I0123 12:53:06.091065 39704 net.cpp:234] Memory required for data: 1153647104
I0123 12:53:06.091073 39704 net.cpp:154] Setting up Layer of device :0 @cpu 0 Layer : inception_4a/3x3
I0123 12:53:06.091080 39704 layer_factory.hpp:114] Creating layer inception_4a/3x3
I0123 12:53:06.091091 39704 net.cpp:169] Creating Layer inception_4a/3x3
I0123 12:53:06.091099 39704 net.cpp:606] inception_4a/3x3 <- inception_4a/3x3_reduce
I0123 12:53:06.091110 39704 net.cpp:579] inception_4a/3x3 -> inception_4a/3x3
I0123 12:53:06.091117 39704 net.cpp:582] From AppendTop @cpu: 0
I0123 12:53:06.097286 39704 net.cpp:219] Setting up inception_4a/3x3
I0123 12:53:06.097301 39704 net.cpp:226] Top shape: 32 208 14 14 (1304576)
I0123 12:53:06.097308 39704 net.cpp:234] Memory required for data: 1158865408
I0123 12:53:06.097321 39704 net.cpp:154] Setting up Layer of device :0 @cpu 0 Layer : inception_4a/relu_3x3
I0123 12:53:06.097328 39704 layer_factory.hpp:114] Creating layer inception_4a/relu_3x3
I0123 12:53:06.097337 39704 net.cpp:169] Creating Layer inception_4a/relu_3x3
I0123 12:53:06.097345 39704 net.cpp:606] inception_4a/relu_3x3 <- inception_4a/3x3
I0123 12:53:06.097357 39704 net.cpp:566] inception_4a/relu_3x3 -> inception_4a/3x3 (in-place)
I0123 12:53:06.097367 39704 net.cpp:219] Setting up inception_4a/relu_3x3
I0123 12:53:06.097375 39704 net.cpp:226] Top shape: 32 208 14 14 (1304576)
I0123 12:53:06.097383 39704 net.cpp:234] Memory required for data: 1164083712
I0123 12:53:06.097390 39704 net.cpp:154] Setting up Layer of device :0 @cpu 0 Layer : inception_4a/5x5_reduce
I0123 12:53:06.097396 39704 layer_factory.hpp:114] Creating layer inception_4a/5x5_reduce
I0123 12:53:06.097410 39704 net.cpp:169] Creating Layer inception_4a/5x5_reduce
I0123 12:53:06.097419 39704 net.cpp:606] inception_4a/5x5_reduce <- pool3/3x3_s2_pool3/3x3_s2_0_split_2
I0123 12:53:06.097434 39704 net.cpp:579] inception_4a/5x5_reduce -> inception_4a/5x5_reduce
I0123 12:53:06.097440 39704 net.cpp:582] From AppendTop @cpu: 0
I0123 12:53:06.099221 39704 net.cpp:219] Setting up inception_4a/5x5_reduce
I0123 12:53:06.099236 39704 net.cpp:226] Top shape: 32 16 14 14 (100352)
I0123 12:53:06.099243 39704 net.cpp:234] Memory required for data: 1164485120
I0123 12:53:06.099256 39704 net.cpp:154] Setting up Layer of device :0 @cpu 0 Layer : inception_4a/relu_5x5_reduce
I0123 12:53:06.099262 39704 layer_factory.hpp:114] Creating layer inception_4a/relu_5x5_reduce
I0123 12:53:06.099272 39704 net.cpp:169] Creating Layer inception_4a/relu_5x5_reduce
I0123 12:53:06.099279 39704 net.cpp:606] inception_4a/relu_5x5_reduce <- inception_4a/5x5_reduce
I0123 12:53:06.099290 39704 net.cpp:566] inception_4a/relu_5x5_reduce -> inception_4a/5x5_reduce (in-place)
I0123 12:53:06.099300 39704 net.cpp:219] Setting up inception_4a/relu_5x5_reduce
I0123 12:53:06.099309 39704 net.cpp:226] Top shape: 32 16 14 14 (100352)
I0123 12:53:06.099315 39704 net.cpp:234] Memory required for data: 1164886528
I0123 12:53:06.099323 39704 net.cpp:154] Setting up Layer of device :0 @cpu 0 Layer : inception_4a/5x5
I0123 12:53:06.099330 39704 layer_factory.hpp:114] Creating layer inception_4a/5x5
I0123 12:53:06.099344 39704 net.cpp:169] Creating Layer inception_4a/5x5
I0123 12:53:06.099351 39704 net.cpp:606] inception_4a/5x5 <- inception_4a/5x5_reduce
I0123 12:53:06.099360 39704 net.cpp:579] inception_4a/5x5 -> inception_4a/5x5
I0123 12:53:06.099367 39704 net.cpp:582] From AppendTop @cpu: 0
I0123 12:53:06.100700 39704 net.cpp:219] Setting up inception_4a/5x5
I0123 12:53:06.100716 39704 net.cpp:226] Top shape: 32 48 14 14 (301056)
I0123 12:53:06.100723 39704 net.cpp:234] Memory required for data: 1166090752
I0123 12:53:06.100734 39704 net.cpp:154] Setting up Layer of device :0 @cpu 0 Layer : inception_4a/relu_5x5
I0123 12:53:06.100741 39704 layer_factory.hpp:114] Creating layer inception_4a/relu_5x5
I0123 12:53:06.100750 39704 net.cpp:169] Creating Layer inception_4a/relu_5x5
I0123 12:53:06.100759 39704 net.cpp:606] inception_4a/relu_5x5 <- inception_4a/5x5
I0123 12:53:06.100769 39704 net.cpp:566] inception_4a/relu_5x5 -> inception_4a/5x5 (in-place)
I0123 12:53:06.100780 39704 net.cpp:219] Setting up inception_4a/relu_5x5
I0123 12:53:06.100788 39704 net.cpp:226] Top shape: 32 48 14 14 (301056)
I0123 12:53:06.100795 39704 net.cpp:234] Memory required for data: 1167294976
I0123 12:53:06.100802 39704 net.cpp:154] Setting up Layer of device :0 @cpu 0 Layer : inception_4a/pool
I0123 12:53:06.100810 39704 layer_factory.hpp:114] Creating layer inception_4a/pool
I0123 12:53:06.100832 39704 net.cpp:169] Creating Layer inception_4a/pool
I0123 12:53:06.100841 39704 net.cpp:606] inception_4a/pool <- pool3/3x3_s2_pool3/3x3_s2_0_split_3
I0123 12:53:06.100855 39704 net.cpp:579] inception_4a/pool -> inception_4a/pool
I0123 12:53:06.100862 39704 net.cpp:582] From AppendTop @cpu: 0
I0123 12:53:06.100874 39704 net.cpp:219] Setting up inception_4a/pool
I0123 12:53:06.100884 39704 net.cpp:226] Top shape: 32 480 14 14 (3010560)
I0123 12:53:06.100890 39704 net.cpp:234] Memory required for data: 1179337216
I0123 12:53:06.100898 39704 net.cpp:154] Setting up Layer of device :0 @cpu 0 Layer : inception_4a/pool_proj
I0123 12:53:06.100905 39704 layer_factory.hpp:114] Creating layer inception_4a/pool_proj
I0123 12:53:06.100919 39704 net.cpp:169] Creating Layer inception_4a/pool_proj
I0123 12:53:06.100926 39704 net.cpp:606] inception_4a/pool_proj <- inception_4a/pool
I0123 12:53:06.100939 39704 net.cpp:579] inception_4a/pool_proj -> inception_4a/pool_proj
I0123 12:53:06.100945 39704 net.cpp:582] From AppendTop @cpu: 0
I0123 12:53:06.103238 39704 net.cpp:219] Setting up inception_4a/pool_proj
I0123 12:53:06.103253 39704 net.cpp:226] Top shape: 32 64 14 14 (401408)
I0123 12:53:06.103260 39704 net.cpp:234] Memory required for data: 1180942848
I0123 12:53:06.103272 39704 net.cpp:154] Setting up Layer of device :0 @cpu 0 Layer : inception_4a/relu_pool_proj
I0123 12:53:06.103284 39704 layer_factory.hpp:114] Creating layer inception_4a/relu_pool_proj
I0123 12:53:06.103296 39704 net.cpp:169] Creating Layer inception_4a/relu_pool_proj
I0123 12:53:06.103304 39704 net.cpp:606] inception_4a/relu_pool_proj <- inception_4a/pool_proj
I0123 12:53:06.103313 39704 net.cpp:566] inception_4a/relu_pool_proj -> inception_4a/pool_proj (in-place)
I0123 12:53:06.103323 39704 net.cpp:219] Setting up inception_4a/relu_pool_proj
I0123 12:53:06.103332 39704 net.cpp:226] Top shape: 32 64 14 14 (401408)
I0123 12:53:06.103339 39704 net.cpp:234] Memory required for data: 1182548480
I0123 12:53:06.103348 39704 net.cpp:154] Setting up Layer of device :0 @cpu 0 Layer : inception_4a/output
I0123 12:53:06.103353 39704 layer_factory.hpp:114] Creating layer inception_4a/output
I0123 12:53:06.103365 39704 net.cpp:169] Creating Layer inception_4a/output
I0123 12:53:06.103373 39704 net.cpp:606] inception_4a/output <- inception_4a/1x1
I0123 12:53:06.103380 39704 net.cpp:606] inception_4a/output <- inception_4a/3x3
I0123 12:53:06.103389 39704 net.cpp:606] inception_4a/output <- inception_4a/5x5
I0123 12:53:06.103396 39704 net.cpp:606] inception_4a/output <- inception_4a/pool_proj
I0123 12:53:06.103405 39704 net.cpp:579] inception_4a/output -> inception_4a/output
I0123 12:53:06.103411 39704 net.cpp:582] From AppendTop @cpu: 0
I0123 12:53:06.103423 39704 net.cpp:219] Setting up inception_4a/output
I0123 12:53:06.103432 39704 net.cpp:226] Top shape: 32 512 14 14 (3211264)
I0123 12:53:06.103438 39704 net.cpp:234] Memory required for data: 1195393536
I0123 12:53:06.103446 39704 net.cpp:154] Setting up Layer of device :0 @cpu 0 Layer : inception_4a/output_inception_4a/output_0_split
I0123 12:53:06.103461 39704 layer_factory.hpp:114] Creating layer inception_4a/output_inception_4a/output_0_split
I0123 12:53:06.103487 39704 net.cpp:169] Creating Layer inception_4a/output_inception_4a/output_0_split
…
I0123 12:53:06.103549 39704 net.cpp:582] From AppendTop @cpu: 0
I0123 12:53:06.103559 39704 net.cpp:579] inception_4a/output_inception_4a/output_0_split -> inception_4a/output_inception_4a/output_0_split_3
I0123 12:53:06.103566 39704 net.cpp:582] From AppendTop @cpu: 0
I0123 12:53:06.103575 39704 net.cpp:579] inception_4a/output_inception_4a/output_0_split -> inception_4a/output_inception_4a/output_0_split_4
I0123 12:53:06.103581 39704 net.cpp:582] From AppendTop @cpu: 0
I0123 12:53:06.103593 39704 net.cpp:219] Setting up inception_4a/output_inception_4a/output_0_split
I0123 12:53:06.103602 39704 net.cpp:226] Top shape: 32 512 14 14 (3211264)
I0123 12:53:06.103610 39704 net.cpp:226] Top shape: 32 512 14 14 (3211264)
I0123 12:53:06.103618 39704 net.cpp:226] Top shape: 32 512 14 14 (3211264)
I0123 12:53:06.103626 39704 net.cpp:226] Top shape: 32 512 14 14 (3211264)
I0123 12:53:06.103633 39704 net.cpp:226] Top shape: 32 512 14 14 (3211264)
I0123 12:53:06.103639 39704 net.cpp:234] Memory required for data: 1259618816
I0123 12:53:06.103648 39704 net.cpp:154] Setting up Layer of device :0 @cpu 0 Layer : loss1/ave_pool
I0123 12:53:06.103654 39704 layer_factory.hpp:114] Creating layer loss1/ave_pool
I0123 12:53:06.103679 39704 net.cpp:169] Creating Layer loss1/ave_pool
I0123 12:53:06.103688 39704 net.cpp:606] loss1/ave_pool <- inception_4a/output_inception_4a/output_0_split_0
I0123 12:53:06.103698 39704 net.cpp:579] loss1/ave_pool -> loss1/ave_pool
I0123 12:53:06.103709 39704 net.cpp:582] From AppendTop @cpu: 0
I0123 12:53:06.103723 39704 net.cpp:219] Setting up loss1/ave_pool
I0123 12:53:06.103731 39704 net.cpp:226] Top shape: 32 512 4 4 (262144)
I0123 12:53:06.103739 39704 net.cpp:234] Memory required for data: 1260667392
I0123 12:53:06.103746 39704 net.cpp:154] Setting up Layer of device :0 @cpu 0 Layer : loss1/conv
I0123 12:53:06.103754 39704 layer_factory.hpp:114] Creating layer loss1/conv
I0123 12:53:06.103767 39704 net.cpp:169] Creating Layer loss1/conv
I0123 12:53:06.103775 39704 net.cpp:606] loss1/conv <- loss1/ave_pool
I0123 12:53:06.103786 39704 net.cpp:579] loss1/conv -> loss1/conv
I0123 12:53:06.103795 39704 net.cpp:582] From AppendTop @cpu: 0
I0123 12:53:06.105654 39704 net.cpp:219] Setting up loss1/conv
I0123 12:53:06.105670 39704 net.cpp:226] Top shape: 32 128 4 4 (65536)
I0123 12:53:06.105676 39704 net.cpp:234] Memory required for data: 1260929536
I0123 12:53:06.105689 39704 net.cpp:154] Setting up Layer of device :0 @cpu 0 Layer : loss1/relu_conv
I0123 12:53:06.105696 39704 layer_factory.hpp:114] Creating layer loss1/relu_conv
I0123 12:53:06.105707 39704 net.cpp:169] Creating Layer loss1/relu_conv
I0123 12:53:06.105715 39704 net.cpp:606] loss1/relu_conv <- loss1/conv
I0123 12:53:06.105725 39704 net.cpp:566] loss1/relu_conv -> loss1/conv (in-place)
I0123 12:53:06.105734 39704 net.cpp:219] Setting up loss1/relu_conv
I0123 12:53:06.105742 39704 net.cpp:226] Top shape: 32 128 4 4 (65536)
I0123 12:53:06.105749 39704 net.cpp:234] Memory required for data: 1261191680
I0123 12:53:06.105757 39704 net.cpp:154] Setting up Layer of device :0 @cpu 0 Layer : loss1/fc
I0123 12:53:06.105773 39704 layer_factory.hpp:114] Creating layer loss1/fc
I0123 12:53:06.105789 39704 net.cpp:169] Creating Layer loss1/fc
I0123 12:53:06.105796 39704 net.cpp:606] loss1/fc <- loss1/conv
I0123 12:53:06.105806 39704 net.cpp:579] loss1/fc -> loss1/fc
I0123 12:53:06.105813 39704 net.cpp:582] From AppendTop @cpu: 0
I0123 12:53:06.124236 39704 net.cpp:219] Setting up loss1/fc
I0123 12:53:06.124294 39704 net.cpp:226] Top shape: 32 1024 (32768)
I0123 12:53:06.124300 39704 net.cpp:234] Memory required for data: 1261322752
I0123 12:53:06.124313 39704 net.cpp:154] Setting up Layer of device :0 @cpu 0 Layer : loss1/relu_fc
I0123 12:53:06.124321 39704 layer_factory.hpp:114] Creating layer loss1/relu_fc
I0123 12:53:06.124331 39704 net.cpp:169] Creating Layer loss1/relu_fc
I0123 12:53:06.124338 39704 net.cpp:606] loss1/relu_fc <- loss1/fc
I0123 12:53:06.124351 39704 net.cpp:566] loss1/relu_fc -> loss1/fc (in-place)
I0123 12:53:06.124361 39704 net.cpp:219] Setting up loss1/relu_fc
I0123 12:53:06.124371 39704 net.cpp:226] Top shape: 32 1024 (32768)
I0123 12:53:06.124377 39704 net.cpp:234] Memory required for data: 1261453824
I0123 12:53:06.124384 39704 net.cpp:154] Setting up Layer of device :0 @cpu 0 Layer : loss1/drop_fc
I0123 12:53:06.124392 39704 layer_factory.hpp:114] Creating layer loss1/drop_fc
I0123 12:53:06.124406 39704 net.cpp:169] Creating Layer loss1/drop_fc
I0123 12:53:06.124414 39704 net.cpp:606] loss1/drop_fc <- loss1/fc
I0123 12:53:06.124424 39704 net.cpp:566] loss1/drop_fc -> loss1/fc (in-place)
I0123 12:53:06.124439 39704 net.cpp:219] Setting up loss1/drop_fc
I0123 12:53:06.124449 39704 net.cpp:226] Top shape: 32 1024 (32768)
I0123 12:53:06.124455 39704 net.cpp:234] Memory required for data: 1261584896
I0123 12:53:06.124464 39704 net.cpp:154] Setting up Layer of device :0 @cpu 0 Layer : loss1/classifier
I0123 12:53:06.124470 39704 layer_factory.hpp:114] Creating layer loss1/classifier
I0123 12:53:06.124482 39704 net.cpp:169] Creating Layer loss1/classifier
I0123 12:53:06.124490 39704 net.cpp:606] loss1/classifier <- loss1/fc
I0123 12:53:06.124498 39704 net.cpp:579] loss1/classifier -> loss1/classifier
I0123 12:53:06.124505 39704 net.cpp:582] From AppendTop @cpu: 0
I0123 12:53:06.133815 39704 net.cpp:219] Setting up loss1/classifier
I0123 12:53:06.133839 39704 net.cpp:226] Top shape: 32 1000 (32000)
I0123 12:53:06.133846 39704 net.cpp:234] Memory required for data: 1261712896
I0123 12:53:06.133873 39704 net.cpp:154] Setting up Layer of device :0 @cpu 0 Layer : loss1/loss
I0123 12:53:06.133882 39704 layer_factory.hpp:114] Creating layer loss1/loss
I0123 12:53:06.133896 39704 net.cpp:169] Creating Layer loss1/loss
I0123 12:53:06.133905 39704 net.cpp:606] loss1/loss <- loss1/classifier
…
I0123 12:53:06.134133 39704 net.cpp:154] Setting up Layer of device :0 @cpu 0 Layer : inception_4b/1x1
I0123 12:53:06.134140 39704 layer_factory.hpp:114] Creating layer inception_4b/1x1
I0123 12:53:06.134156 39704 net.cpp:169] Creating Layer inception_4b/1x1
I0123 12:53:06.134166 39704 net.cpp:606] inception_4b/1x1 <- inception_4a/output_inception_4a/output_0_split_1
I0123 12:53:06.134204 39704 net.cpp:579] inception_4b/1x1 -> inception_4b/1x1
I0123 12:53:06.134212 39704 net.cpp:582] From AppendTop @cpu: 0
I0123 12:53:06.137702 39704 net.cpp:219] Setting up inception_4b/1x1
I0123 12:53:06.137739 39704 net.cpp:226] Top shape: 32 160 14 14 (1003520)
I0123 12:53:06.137747 39704 net.cpp:234] Memory required for data: 1265726980
I0123 12:53:06.137759 39704 net.cpp:154] Setting up Layer of device :0 @cpu 0 Layer : inception_4b/relu_1x1
I0123 12:53:06.137809 39704 layer_factory.hpp:114] Creating layer inception_4b/relu_1x1
I0123 12:53:06.137820 39704 net.cpp:169] Creating Layer inception_4b/relu_1x1
I0123 12:53:06.137827 39704 net.cpp:606] inception_4b/relu_1x1 <- inception_4b/1x1
I0123 12:53:06.137836 39704 net.cpp:566] inception_4b/relu_1x1 -> inception_4b/1x1 (in-place)
I0123 12:53:06.137847 39704 net.cpp:219] Setting up inception_4b/relu_1x1
I0123 12:53:06.137856 39704 net.cpp:226] Top shape: 32 160 14 14 (1003520)
I0123 12:53:06.137862 39704 net.cpp:234] Memory required for data: 1269741060
I0123 12:53:06.137871 39704 net.cpp:154] Setting up Layer of device :0 @cpu 0 Layer : inception_4b/3x3_reduce
I0123 12:53:06.137877 39704 layer_factory.hpp:114] Creating layer inception_4b/3x3_reduce
I0123 12:53:06.137892 39704 net.cpp:169] Creating Layer inception_4b/3x3_reduce
I0123 12:53:06.137900 39704 net.cpp:606] inception_4b/3x3_reduce <- inception_4a/output_inception_4a/output_0_split_2
I0123 12:53:06.137910 39704 net.cpp:579] inception_4b/3x3_reduce -> inception_4b/3x3_reduce
I0123 12:53:06.137917 39704 net.cpp:582] From AppendTop @cpu: 0
I0123 12:53:06.140677 39704 net.cpp:219] Setting up inception_4b/3x3_reduce
I0123 12:53:06.140699 39704 net.cpp:226] Top shape: 32 112 14 14 (702464)
I0123 12:53:06.140705 39704 net.cpp:234] Memory required for data: 1272550916
I0123 12:53:06.140718 39704 net.cpp:154] Setting up Layer of device :0 @cpu 0 Layer : inception_4b/relu_3x3_reduce
I0123 12:53:06.140725 39704 layer_factory.hpp:114] Creating layer inception_4b/relu_3x3_reduce
I0123 12:53:06.140734 39704 net.cpp:169] Creating Layer inception_4b/relu_3x3_reduce
I0123 12:53:06.140743 39704 net.cpp:606] inception_4b/relu_3x3_reduce <- inception_4b/3x3_reduce
I0123 12:53:06.140753 39704 net.cpp:566] inception_4b/relu_3x3_reduce -> inception_4b/3x3_reduce (in-place)
I0123 12:53:06.140764 39704 net.cpp:219] Setting up inception_4b/relu_3x3_reduce
I0123 12:53:06.140774 39704 net.cpp:226] Top shape: 32 112 14 14 (702464)
I0123 12:53:06.140779 39704 net.cpp:234] Memory required for data: 1275360772
I0123 12:53:06.140787 39704 net.cpp:154] Setting up Layer of device :0 @cpu 0 Layer : inception_4b/3x3
I0123 12:53:06.140794 39704 layer_factory.hpp:114] Creating layer inception_4b/3x3
I0123 12:53:06.140805 39704 net.cpp:169] Creating Layer inception_4b/3x3
I0123 12:53:06.140813 39704 net.cpp:606] inception_4b/3x3 <- inception_4b/3x3_reduce
I0123 12:53:06.140830 39704 net.cpp:579] inception_4b/3x3 -> inception_4b/3x3
I0123 12:53:06.140838 39704 net.cpp:582] From AppendTop @cpu: 0
I0123 12:53:06.148125 39704 net.cpp:219] Setting up inception_4b/3x3
I0123 12:53:06.148141 39704 net.cpp:226] Top shape: 32 224 14 14 (1404928)
I0123 12:53:06.148147 39704 net.cpp:234] Memory required for data: 1280980484
I0123 12:53:06.148167 39704 net.cpp:154] Setting up Layer of device :0 @cpu 0 Layer : inception_4b/relu_3x3
I0123 12:53:06.148203 39704 layer_factory.hpp:114] Creating layer inception_4b/relu_3x3
I0123 12:53:06.148212 39704 net.cpp:169] Creating Layer inception_4b/relu_3x3
I0123 12:53:06.148221 39704 net.cpp:606] inception_4b/relu_3x3 <- inception_4b/3x3
I0123 12:53:06.148232 39704 net.cpp:566] inception_4b/relu_3x3 -> inception_4b/3x3 (in-place)
I0123 12:53:06.148243 39704 net.cpp:219] Setting up inception_4b/relu_3x3
I0123 12:53:06.148252 39704 net.cpp:226] Top shape: 32 224 14 14 (1404928)
I0123 12:53:06.148258 39704 net.cpp:234] Memory required for data: 1286600196
I0123 12:53:06.148267 39704 net.cpp:154] Setting up Layer of device :0 @cpu 0 Layer : inception_4b/5x5_reduce
I0123 12:53:06.148273 39704 layer_factory.hpp:114] Creating layer inception_4b/5x5_reduce
I0123 12:53:06.148284 39704 net.cpp:169] Creating Layer inception_4b/5x5_reduce
I0123 12:53:06.148293 39704 net.cpp:606] inception_4b/5x5_reduce <- inception_4a/output_inception_4a/output_0_split_3
I0123 12:53:06.148301 39704 net.cpp:579] inception_4b/5x5_reduce -> inception_4b/5x5_reduce
I0123 12:53:06.148308 39704 net.cpp:582] From AppendTop @cpu: 0
I0123 12:53:06.149857 39704 net.cpp:219] Setting up inception_4b/5x5_reduce
I0123 12:53:06.149870 39704 net.cpp:226] Top shape: 32 24 14 14 (150528)
I0123 12:53:06.149878 39704 net.cpp:234] Memory required for data: 1287202308
I0123 12:53:06.149889 39704 net.cpp:154] Setting up Layer of device :0 @cpu 0 Layer : inception_4b/relu_5x5_reduce
I0123 12:53:06.149896 39704 layer_factory.hpp:114] Creating layer inception_4b/relu_5x5_reduce
I0123 12:53:06.149905 39704 net.cpp:169] Creating Layer inception_4b/relu_5x5_reduce
I0123 12:53:06.149914 39704 net.cpp:606] inception_4b/relu_5x5_reduce <- inception_4b/5x5_reduce
I0123 12:53:06.149924 39704 net.cpp:566] inception_4b/relu_5x5_reduce -> inception_4b/5x5_reduce (in-place)
I0123 12:53:06.149935 39704 net.cpp:219] Setting up inception_4b/relu_5x5_reduce
I0123 12:53:06.149943 39704 net.cpp:226] Top shape: 32 24 14 14 (150528)
I0123 12:53:06.149950 39704 net.cpp:234] Memory required for data: 1287804420
I0123 12:53:06.149958 39704 net.cpp:154] Setting up Layer of device :0 @cpu 0 Layer : inception_4b/5x5
I0123 12:53:06.149966 39704 layer_factory.hpp:114] Creating layer inception_4b/5x5
I0123 12:53:06.149976 39704 net.cpp:169] Creating Layer inception_4b/5x5
I0123 12:53:06.149983 39704 net.cpp:606] inception_4b/5x5 <- inception_4b/5x5_reduce
I0123 12:53:06.149997 39704 net.cpp:579] inception_4b/5x5 -> inception_4b/5x5
I0123 12:53:06.150004 39704 net.cpp:582] From AppendTop @cpu: 0
I0123 12:53:06.152413 39704 net.cpp:219] Setting up inception_4b/5x5
I0123 12:53:06.152428 39704 net.cpp:226] Top shape: 32 64 14 14 (401408)
I0123 12:53:06.152436 39704 net.cpp:234] Memory required for data: 1289410052
I0123 12:53:06.152447 39704 net.cpp:154] Setting up Layer of device :0 @cpu 0 Layer : inception_4b/relu_5x5
I0123 12:53:06.152454 39704 layer_factory.hpp:114] Creating layer inception_4b/relu_5x5
I0123 12:53:06.152463 39704 net.cpp:169] Creating Layer inception_4b/relu_5x5
I0123 12:53:06.152472 39704 net.cpp:606] inception_4b/relu_5x5 <- inception_4b/5x5
I0123 12:53:06.152482 39704 net.cpp:566] inception_4b/relu_5x5 -> inception_4b/5x5 (in-place)
I0123 12:53:06.152493 39704 net.cpp:219] Setting up inception_4b/relu_5x5
I0123 12:53:06.152501 39704 net.cpp:226] Top shape: 32 64 14 14 (401408)
I0123 12:53:06.152508 39704 net.cpp:234] Memory required for data: 1291015684
I0123 12:53:06.152516 39704 net.cpp:154] Setting up Layer of device :0 @cpu 0 Layer : inception_4b/pool
I0123 12:53:06.152523 39704 layer_factory.hpp:114] Creating layer inception_4b/pool
I0123 12:53:06.152570 39704 net.cpp:169] Creating Layer inception_4b/pool
I0123 12:53:06.152580 39704 net.cpp:606] inception_4b/pool <- inception_4a/output_inception_4a/output_0_split_4
I0123 12:53:06.152590 39704 net.cpp:579] inception_4b/pool -> inception_4b/pool
I0123 12:53:06.152597 39704 net.cpp:582] From AppendTop @cpu: 0
I0123 12:53:06.152617 39704 net.cpp:219] Setting up inception_4b/pool
I0123 12:53:06.152627 39704 net.cpp:226] Top shape: 32 512 14 14 (3211264)
I0123 12:53:06.152634 39704 net.cpp:234] Memory required for data: 1303860740
I0123 12:53:06.152642 39704 net.cpp:154] Setting up Layer of device :0 @cpu 0 Layer : inception_4b/pool_proj
I0123 12:53:06.152649 39704 layer_factory.hpp:114] Creating layer inception_4b/pool_proj
I0123 12:53:06.152663 39704 net.cpp:169] Creating Layer inception_4b/pool_proj
I0123 12:53:06.152671 39704 net.cpp:606] inception_4b/pool_proj <- inception_4b/pool
I0123 12:53:06.152681 39704 net.cpp:579] inception_4b/pool_proj -> inception_4b/pool_proj
I0123 12:53:06.152690 39704 net.cpp:582] From AppendTop @cpu: 0
I0123 12:53:06.155133 39704 net.cpp:219] Setting up inception_4b/pool_proj
I0123 12:53:06.155148 39704 net.cpp:226] Top shape: 32 64 14 14 (401408)
I0123 12:53:06.155154 39704 net.cpp:234] Memory required for data: 1305466372
I0123 12:53:06.155166 39704 net.cpp:154] Setting up Layer of device :0 @cpu 0 Layer : inception_4b/relu_pool_proj
I0123 12:53:06.155207 39704 layer_factory.hpp:114] Creating layer inception_4b/relu_pool_proj
I0123 12:53:06.155216 39704 net.cpp:169] Creating Layer inception_4b/relu_pool_proj
I0123 12:53:06.155233 39704 net.cpp:606] inception_4b/relu_pool_proj <- inception_4b/pool_proj
I0123 12:53:06.155246 39704 net.cpp:566] inception_4b/relu_pool_proj -> inception_4b/pool_proj (in-place)
I0123 12:53:06.155256 39704 net.cpp:219] Setting up inception_4b/relu_pool_proj
I0123 12:53:06.155264 39704 net.cpp:226] Top shape: 32 64 14 14 (401408)
I0123 12:53:06.155272 39704 net.cpp:234] Memory required for data: 1307072004
I0123 12:53:06.155279 39704 net.cpp:154] Setting up Layer of device :0 @cpu 0 Layer : inception_4b/output
I0123 12:53:06.155287 39704 layer_factory.hpp:114] Creating layer inception_4b/output
I0123 12:53:06.155297 39704 net.cpp:169] Creating Layer inception_4b/output
I0123 12:53:06.155303 39704 net.cpp:606] inception_4b/output <- inception_4b/1x1
I0123 12:53:06.155311 39704 net.cpp:606] inception_4b/output <- inception_4b/3x3
I0123 12:53:06.155319 39704 net.cpp:606] inception_4b/output <- inception_4b/5x5
I0123 12:53:06.155328 39704 net.cpp:606] inception_4b/output <- inception_4b/pool_proj
I0123 12:53:06.155338 39704 net.cpp:579] inception_4b/output -> inception_4b/output
I0123 12:53:06.155345 39704 net.cpp:582] From AppendTop @cpu: 0
I0123 12:53:06.155356 39704 net.cpp:219] Setting up inception_4b/output
I0123 12:53:06.155365 39704 net.cpp:226] Top shape: 32 512 14 14 (3211264)
I0123 12:53:06.155372 39704 net.cpp:234] Memory required for data: 1319917060
I0123 12:53:06.155380 39704 net.cpp:154] Setting up Layer of device :0 @cpu 0 Layer : inception_4b/output_inception_4b/output_0_split
I0123 12:53:06.155387 39704 layer_factory.hpp:114] Creating layer inception_4b/output_inception_4b/output_0_split
I0123 12:53:06.155396 39704 net.cpp:169] Creating Layer inception_4b/output_inception_4b/output_0_split
…
I0123 12:53:06.155439 39704 net.cpp:582] From AppendTop @cpu: 0
I0123 12:53:06.155449 39704 net.cpp:579] inception_4b/output_inception_4b/output_0_split -> inception_4b/output_inception_4b/output_0_split_2
I0123 12:53:06.155457 39704 net.cpp:582] From AppendTop @cpu: 0
I0123 12:53:06.155477 39704 net.cpp:579] inception_4b/output_inception_4b/output_0_split -> inception_4b/output_inception_4b/output_0_split_3
I0123 12:53:06.155483 39704 net.cpp:582] From AppendTop @cpu: 0
I0123 12:53:06.155494 39704 net.cpp:219] Setting up inception_4b/output_inception_4b/output_0_split
I0123 12:53:06.155503 39704 net.cpp:226] Top shape: 32 512 14 14 (3211264)
I0123 12:53:06.155513 39704 net.cpp:226] Top shape: 32 512 14 14 (3211264)
I0123 12:53:06.155519 39704 net.cpp:226] Top shape: 32 512 14 14 (3211264)
I0123 12:53:06.155527 39704 net.cpp:226] Top shape: 32 512 14 14 (3211264)
I0123 12:53:06.155534 39704 net.cpp:234] Memory required for data: 1371297284
I0123 12:53:06.155542 39704 net.cpp:154] Setting up Layer of device :0 @cpu 0 Layer : inception_4c/1x1
I0123 12:53:06.155549 39704 layer_factory.hpp:114] Creating layer inception_4c/1x1
I0123 12:53:06.155562 39704 net.cpp:169] Creating Layer inception_4c/1x1
I0123 12:53:06.155570 39704 net.cpp:606] inception_4c/1x1 <- inception_4b/output_inception_4b/output_0_split_0
I0123 12:53:06.155582 39704 net.cpp:579] inception_4c/1x1 -> inception_4c/1x1
I0123 12:53:06.155589 39704 net.cpp:582] From AppendTop @cpu: 0
I0123 12:53:06.159019 39704 net.cpp:219] Setting up inception_4c/1x1
I0123 12:53:06.159035 39704 net.cpp:226] Top shape: 32 128 14 14 (802816)
I0123 12:53:06.159041 39704 net.cpp:234] Memory required for data: 1374508548
I0123 12:53:06.159054 39704 net.cpp:154] Setting up Layer of device :0 @cpu 0 Layer : inception_4c/relu_1x1
I0123 12:53:06.159060 39704 layer_factory.hpp:114] Creating layer inception_4c/relu_1x1
I0123 12:53:06.159078 39704 net.cpp:169] Creating Layer inception_4c/relu_1x1
I0123 12:53:06.159086 39704 net.cpp:606] inception_4c/relu_1x1 <- inception_4c/1x1
I0123 12:53:06.159096 39704 net.cpp:566] inception_4c/relu_1x1 -> inception_4c/1x1 (in-place)
I0123 12:53:06.159106 39704 net.cpp:219] Setting up inception_4c/relu_1x1
I0123 12:53:06.159114 39704 net.cpp:226] Top shape: 32 128 14 14 (802816)
I0123 12:53:06.159121 39704 net.cpp:234] Memory required for data: 1377719812
I0123 12:53:06.159129 39704 net.cpp:154] Setting up Layer of device :0 @cpu 0 Layer : inception_4c/3x3_reduce
I0123 12:53:06.159137 39704 layer_factory.hpp:114] Creating layer inception_4c/3x3_reduce
I0123 12:53:06.159152 39704 net.cpp:169] Creating Layer inception_4c/3x3_reduce
I0123 12:53:06.159160 39704 net.cpp:606] inception_4c/3x3_reduce <- inception_4b/output_inception_4b/output_0_split_1
I0123 12:53:06.159170 39704 net.cpp:579] inception_4c/3x3_reduce -> inception_4c/3x3_reduce
I0123 12:53:06.159196 39704 net.cpp:582] From AppendTop @cpu: 0
I0123 12:53:06.162152 39704 net.cpp:219] Setting up inception_4c/3x3_reduce
I0123 12:53:06.162201 39704 net.cpp:226] Top shape: 32 128 14 14 (802816)
I0123 12:53:06.162209 39704 net.cpp:234] Memory required for data: 1380931076
I0123 12:53:06.162221 39704 net.cpp:154] Setting up Layer of device :0 @cpu 0 Layer : inception_4c/relu_3x3_reduce
I0123 12:53:06.162228 39704 layer_factory.hpp:114] Creating layer inception_4c/relu_3x3_reduce
I0123 12:53:06.162238 39704 net.cpp:169] Creating Layer inception_4c/relu_3x3_reduce
I0123 12:53:06.162245 39704 net.cpp:606] inception_4c/relu_3x3_reduce <- inception_4c/3x3_reduce
I0123 12:53:06.162255 39704 net.cpp:566] inception_4c/relu_3x3_reduce -> inception_4c/3x3_reduce (in-place)
I0123 12:53:06.162264 39704 net.cpp:219] Setting up inception_4c/relu_3x3_reduce
I0123 12:53:06.162273 39704 net.cpp:226] Top shape: 32 128 14 14 (802816)
I0123 12:53:06.162281 39704 net.cpp:234] Memory required for data: 1384142340
I0123 12:53:06.162288 39704 net.cpp:154] Setting up Layer of device :0 @cpu 0 Layer : inception_4c/3x3
I0123 12:53:06.162295 39704 layer_factory.hpp:114] Creating layer inception_4c/3x3
I0123 12:53:06.162307 39704 net.cpp:169] Creating Layer inception_4c/3x3
I0123 12:53:06.162314 39704 net.cpp:606] inception_4c/3x3 <- inception_4c/3x3_reduce
I0123 12:53:06.162327 39704 net.cpp:579] inception_4c/3x3 -> inception_4c/3x3
I0123 12:53:06.162333 39704 net.cpp:582] From AppendTop @cpu: 0
I0123 12:53:06.170979 39704 net.cpp:219] Setting up inception_4c/3x3
I0123 12:53:06.170995 39704 net.cpp:226] Top shape: 32 256 14 14 (1605632)
I0123 12:53:06.171002 39704 net.cpp:234] Memory required for data: 1390564868
I0123 12:53:06.171030 39704 net.cpp:154] Setting up Layer of device :0 @cpu 0 Layer : inception_4c/relu_3x3
I0123 12:53:06.171037 39704 layer_factory.hpp:114] Creating layer inception_4c/relu_3x3
I0123 12:53:06.171046 39704 net.cpp:169] Creating Layer inception_4c/relu_3x3
I0123 12:53:06.171054 39704 net.cpp:606] inception_4c/relu_3x3 <- inception_4c/3x3
I0123 12:53:06.171072 39704 net.cpp:566] inception_4c/relu_3x3 -> inception_4c/3x3 (in-place)
I0123 12:53:06.171083 39704 net.cpp:219] Setting up inception_4c/relu_3x3
I0123 12:53:06.171092 39704 net.cpp:226] Top shape: 32 256 14 14 (1605632)
I0123 12:53:06.171099 39704 net.cpp:234] Memory required for data: 1396987396
I0123 12:53:06.171108 39704 net.cpp:154] Setting up Layer of device :0 @cpu 0 Layer : inception_4c/5x5_reduce
I0123 12:53:06.171113 39704 layer_factory.hpp:114] Creating layer inception_4c/5x5_reduce
I0123 12:53:06.171125 39704 net.cpp:169] Creating Layer inception_4c/5x5_reduce
I0123 12:53:06.171133 39704 net.cpp:606] inception_4c/5x5_reduce <- inception_4b/output_inception_4b/output_0_split_2
I0123 12:53:06.171142 39704 net.cpp:579] inception_4c/5x5_reduce -> inception_4c/5x5_reduce
I0123 12:53:06.171149 39704 net.cpp:582] From AppendTop @cpu: 0
I0123 12:53:06.172672 39704 net.cpp:219] Setting up inception_4c/5x5_reduce
I0123 12:53:06.172686 39704 net.cpp:226] Top shape: 32 24 14 14 (150528)
I0123 12:53:06.172703 39704 net.cpp:234] Memory required for data: 1397589508
I0123 12:53:06.172715 39704 net.cpp:154] Setting up Layer of device :0 @cpu 0 Layer : inception_4c/relu_5x5_reduce
I0123 12:53:06.172722 39704 layer_factory.hpp:114] Creating layer inception_4c/relu_5x5_reduce
I0123 12:53:06.172735 39704 net.cpp:169] Creating Layer inception_4c/relu_5x5_reduce
I0123 12:53:06.172744 39704 net.cpp:606] inception_4c/relu_5x5_reduce <- inception_4c/5x5_reduce
I0123 12:53:06.172756 39704 net.cpp:566] inception_4c/relu_5x5_reduce -> inception_4c/5x5_reduce (in-place)
I0123 12:53:06.172766 39704 net.cpp:219] Setting up inception_4c/relu_5x5_reduce
I0123 12:53:06.172775 39704 net.cpp:226] Top shape: 32 24 14 14 (150528)
I0123 12:53:06.172782 39704 net.cpp:234] Memory required for data: 1398191620
I0123 12:53:06.172791 39704 net.cpp:154] Setting up Layer of device :0 @cpu 0 Layer : inception_4c/5x5
I0123 12:53:06.172797 39704 layer_factory.hpp:114] Creating layer inception_4c/5x5
I0123 12:53:06.172809 39704 net.cpp:169] Creating Layer inception_4c/5x5
I0123 12:53:06.172816 39704 net.cpp:606] inception_4c/5x5 <- inception_4c/5x5_reduce
I0123 12:53:06.172828 39704 net.cpp:579] inception_4c/5x5 -> inception_4c/5x5
I0123 12:53:06.172835 39704 net.cpp:582] From AppendTop @cpu: 0
I0123 12:53:06.175241 39704 net.cpp:219] Setting up inception_4c/5x5
I0123 12:53:06.175256 39704 net.cpp:226] Top shape: 32 64 14 14 (401408)
I0123 12:53:06.175263 39704 net.cpp:234] Memory required for data: 1399797252
I0123 12:53:06.175276 39704 net.cpp:154] Setting up Layer of device :0 @cpu 0 Layer : inception_4c/relu_5x5
I0123 12:53:06.175282 39704 layer_factory.hpp:114] Creating layer inception_4c/relu_5x5
I0123 12:53:06.175294 39704 net.cpp:169] Creating Layer inception_4c/relu_5x5
I0123 12:53:06.175302 39704 net.cpp:606] inception_4c/relu_5x5 <- inception_4c/5x5
I0123 12:53:06.175312 39704 net.cpp:566] inception_4c/relu_5x5 -> inception_4c/5x5 (in-place)
I0123 12:53:06.175323 39704 net.cpp:219] Setting up inception_4c/relu_5x5
I0123 12:53:06.175331 39704 net.cpp:226] Top shape: 32 64 14 14 (401408)
I0123 12:53:06.175338 39704 net.cpp:234] Memory required for data: 1401402884
I0123 12:53:06.175346 39704 net.cpp:154] Setting up Layer of device :0 @cpu 0 Layer : inception_4c/pool
I0123 12:53:06.175354 39704 layer_factory.hpp:114] Creating layer inception_4c/pool
I0123 12:53:06.175376 39704 net.cpp:169] Creating Layer inception_4c/pool
I0123 12:53:06.175390 39704 net.cpp:606] inception_4c/pool <- inception_4b/output_inception_4b/output_0_split_3
I0123 12:53:06.175400 39704 net.cpp:579] inception_4c/pool -> inception_4c/pool
I0123 12:53:06.175407 39704 net.cpp:582] From AppendTop @cpu: 0
I0123 12:53:06.175420 39704 net.cpp:219] Setting up inception_4c/pool
I0123 12:53:06.175429 39704 net.cpp:226] Top shape: 32 512 14 14 (3211264)
I0123 12:53:06.175436 39704 net.cpp:234] Memory required for data: 1414247940
I0123 12:53:06.175444 39704 net.cpp:154] Setting up Layer of device :0 @cpu 0 Layer : inception_4c/pool_proj
I0123 12:53:06.175451 39704 layer_factory.hpp:114] Creating layer inception_4c/pool_proj
I0123 12:53:06.175467 39704 net.cpp:169] Creating Layer inception_4c/pool_proj
I0123 12:53:06.175474 39704 net.cpp:606] inception_4c/pool_proj <- inception_4c/pool
I0123 12:53:06.175484 39704 net.cpp:579] inception_4c/pool_proj -> inception_4c/pool_proj
I0123 12:53:06.175492 39704 net.cpp:582] From AppendTop @cpu: 0
I0123 12:53:06.177899 39704 net.cpp:219] Setting up inception_4c/pool_proj
I0123 12:53:06.177914 39704 net.cpp:226] Top shape: 32 64 14 14 (401408)
I0123 12:53:06.177922 39704 net.cpp:234] Memory required for data: 1415853572
I0123 12:53:06.177933 39704 net.cpp:154] Setting up Layer of device :0 @cpu 0 Layer : inception_4c/relu_pool_proj
I0123 12:53:06.177940 39704 layer_factory.hpp:114] Creating layer inception_4c/relu_pool_proj
I0123 12:53:06.177949 39704 net.cpp:169] Creating Layer inception_4c/relu_pool_proj
I0123 12:53:06.177958 39704 net.cpp:606] inception_4c/relu_pool_proj <- inception_4c/pool_proj
I0123 12:53:06.177968 39704 net.cpp:566] inception_4c/relu_pool_proj -> inception_4c/pool_proj (in-place)
I0123 12:53:06.177989 39704 net.cpp:219] Setting up inception_4c/relu_pool_proj
I0123 12:53:06.177997 39704 net.cpp:226] Top shape: 32 64 14 14 (401408)
I0123 12:53:06.178004 39704 net.cpp:234] Memory required for data: 1417459204
I0123 12:53:06.178011 39704 net.cpp:154] Setting up Layer of device :0 @cpu 0 Layer : inception_4c/output
I0123 12:53:06.178019 39704 layer_factory.hpp:114] Creating layer inception_4c/output
I0123 12:53:06.178028 39704 net.cpp:169] Creating Layer inception_4c/output
I0123 12:53:06.178035 39704 net.cpp:606] inception_4c/output <- inception_4c/1x1
I0123 12:53:06.178043 39704 net.cpp:606] inception_4c/output <- inception_4c/3x3
I0123 12:53:06.178051 39704 net.cpp:606] inception_4c/output <- inception_4c/5x5
I0123 12:53:06.178059 39704 net.cpp:606] inception_4c/output <- inception_4c/pool_proj
I0123 12:53:06.178068 39704 net.cpp:579] inception_4c/output -> inception_4c/output
I0123 12:53:06.178076 39704 net.cpp:582] From AppendTop @cpu: 0
I0123 12:53:06.178086 39704 net.cpp:219] Setting up inception_4c/output
I0123 12:53:06.178095 39704 net.cpp:226] Top shape: 32 512 14 14 (3211264)
I0123 12:53:06.178102 39704 net.cpp:234] Memory required for data: 1430304260
I0123 12:53:06.178109 39704 net.cpp:154] Setting up Layer of device :0 @cpu 0 Layer : inception_4c/output_inception_4c/output_0_split
I0123 12:53:06.178117 39704 layer_factory.hpp:114] Creating layer inception_4c/output_inception_4c/output_0_split
I0123 12:53:06.178128 39704 net.cpp:169] Creating Layer inception_4c/output_inception_4c/output_0_split
…
I0123 12:53:06.178198 39704 net.cpp:582] From AppendTop @cpu: 0
I0123 12:53:06.178210 39704 net.cpp:579] inception_4c/output_inception_4c/output_0_split -> inception_4c/output_inception_4c/output_0_split_2
I0123 12:53:06.178217 39704 net.cpp:582] From AppendTop @cpu: 0
I0123 12:53:06.178227 39704 net.cpp:579] inception_4c/output_inception_4c/output_0_split -> inception_4c/output_inception_4c/output_0_split_3
I0123 12:53:06.178238 39704 net.cpp:582] From AppendTop @cpu: 0
I0123 12:53:06.178249 39704 net.cpp:219] Setting up inception_4c/output_inception_4c/output_0_split
I0123 12:53:06.178258 39704 net.cpp:226] Top shape: 32 512 14 14 (3211264)
I0123 12:53:06.178267 39704 net.cpp:226] Top shape: 32 512 14 14 (3211264)
I0123 12:53:06.178274 39704 net.cpp:226] Top shape: 32 512 14 14 (3211264)
I0123 12:53:06.178282 39704 net.cpp:226] Top shape: 32 512 14 14 (3211264)
I0123 12:53:06.178288 39704 net.cpp:234] Memory required for data: 1481684484
I0123 12:53:06.178297 39704 net.cpp:154] Setting up Layer of device :0 @cpu 0 Layer : inception_4d/1x1
I0123 12:53:06.178303 39704 layer_factory.hpp:114] Creating layer inception_4d/1x1
I0123 12:53:06.178318 39704 net.cpp:169] Creating Layer inception_4d/1x1
I0123 12:53:06.178325 39704 net.cpp:606] inception_4d/1x1 <- inception_4c/output_inception_4c/output_0_split_0
I0123 12:53:06.178339 39704 net.cpp:579] inception_4d/1x1 -> inception_4d/1x1
I0123 12:53:06.178345 39704 net.cpp:582] From AppendTop @cpu: 0
I0123 12:53:06.181571 39704 net.cpp:219] Setting up inception_4d/1x1
I0123 12:53:06.181586 39704 net.cpp:226] Top shape: 32 112 14 14 (702464)
I0123 12:53:06.181592 39704 net.cpp:234] Memory required for data: 1484494340
I0123 12:53:06.181604 39704 net.cpp:154] Setting up Layer of device :0 @cpu 0 Layer : inception_4d/relu_1x1
I0123 12:53:06.181612 39704 layer_factory.hpp:114] Creating layer inception_4d/relu_1x1
I0123 12:53:06.181623 39704 net.cpp:169] Creating Layer inception_4d/relu_1x1
I0123 12:53:06.181632 39704 net.cpp:606] inception_4d/relu_1x1 <- inception_4d/1x1
I0123 12:53:06.181658 39704 net.cpp:566] inception_4d/relu_1x1 -> inception_4d/1x1 (in-place)
I0123 12:53:06.181668 39704 net.cpp:219] Setting up inception_4d/relu_1x1
I0123 12:53:06.181677 39704 net.cpp:226] Top shape: 32 112 14 14 (702464)
I0123 12:53:06.181684 39704 net.cpp:234] Memory required for data: 1487304196
I0123 12:53:06.181692 39704 net.cpp:154] Setting up Layer of device :0 @cpu 0 Layer : inception_4d/3x3_reduce
I0123 12:53:06.181699 39704 layer_factory.hpp:114] Creating layer inception_4d/3x3_reduce
I0123 12:53:06.181710 39704 net.cpp:169] Creating Layer inception_4d/3x3_reduce
I0123 12:53:06.181718 39704 net.cpp:606] inception_4d/3x3_reduce <- inception_4c/output_inception_4c/output_0_split_1
I0123 12:53:06.181730 39704 net.cpp:579] inception_4d/3x3_reduce -> inception_4d/3x3_reduce
I0123 12:53:06.181737 39704 net.cpp:582] From AppendTop @cpu: 0
I0123 12:53:06.184906 39704 net.cpp:219] Setting up inception_4d/3x3_reduce
I0123 12:53:06.184921 39704 net.cpp:226] Top shape: 32 144 14 14 (903168)
I0123 12:53:06.184928 39704 net.cpp:234] Memory required for data: 1490916868
I0123 12:53:06.184940 39704 net.cpp:154] Setting up Layer of device :0 @cpu 0 Layer : inception_4d/relu_3x3_reduce
I0123 12:53:06.184947 39704 layer_factory.hpp:114] Creating layer inception_4d/relu_3x3_reduce
I0123 12:53:06.184957 39704 net.cpp:169] Creating Layer inception_4d/relu_3x3_reduce
I0123 12:53:06.184964 39704 net.cpp:606] inception_4d/relu_3x3_reduce <- inception_4d/3x3_reduce
I0123 12:53:06.184973 39704 net.cpp:566] inception_4d/relu_3x3_reduce -> inception_4d/3x3_reduce (in-place)
I0123 12:53:06.184983 39704 net.cpp:219] Setting up inception_4d/relu_3x3_reduce
I0123 12:53:06.184991 39704 net.cpp:226] Top shape: 32 144 14 14 (903168)
I0123 12:53:06.184998 39704 net.cpp:234] Memory required for data: 1494529540
I0123 12:53:06.185006 39704 net.cpp:154] Setting up Layer of device :0 @cpu 0 Layer : inception_4d/3x3
I0123 12:53:06.185012 39704 layer_factory.hpp:114] Creating layer inception_4d/3x3
I0123 12:53:06.185026 39704 net.cpp:169] Creating Layer inception_4d/3x3
I0123 12:53:06.185034 39704 net.cpp:606] inception_4d/3x3 <- inception_4d/3x3_reduce
I0123 12:53:06.185045 39704 net.cpp:579] inception_4d/3x3 -> inception_4d/3x3
I0123 12:53:06.185051 39704 net.cpp:582] From AppendTop @cpu: 0
I0123 12:53:06.197199 39704 net.cpp:219] Setting up inception_4d/3x3
I0123 12:53:06.197216 39704 net.cpp:226] Top shape: 32 288 14 14 (1806336)
I0123 12:53:06.197227 39704 net.cpp:234] Memory required for data: 1501754884
I0123 12:53:06.197239 39704 net.cpp:154] Setting up Layer of device :0 @cpu 0 Layer : inception_4d/relu_3x3
I0123 12:53:06.197247 39704 layer_factory.hpp:114] Creating layer inception_4d/relu_3x3
I0123 12:53:06.197257 39704 net.cpp:169] Creating Layer inception_4d/relu_3x3
I0123 12:53:06.197264 39704 net.cpp:606] inception_4d/relu_3x3 <- inception_4d/3x3
I0123 12:53:06.197273 39704 net.cpp:566] inception_4d/relu_3x3 -> inception_4d/3x3 (in-place)
I0123 12:53:06.197283 39704 net.cpp:219] Setting up inception_4d/relu_3x3
I0123 12:53:06.197291 39704 net.cpp:226] Top shape: 32 288 14 14 (1806336)
I0123 12:53:06.197299 39704 net.cpp:234] Memory required for data: 1508980228
I0123 12:53:06.197305 39704 net.cpp:154] Setting up Layer of device :0 @cpu 0 Layer : inception_4d/5x5_reduce
I0123 12:53:06.197312 39704 layer_factory.hpp:114] Creating layer inception_4d/5x5_reduce
I0123 12:53:06.197326 39704 net.cpp:169] Creating Layer inception_4d/5x5_reduce
I0123 12:53:06.197335 39704 net.cpp:606] inception_4d/5x5_reduce <- inception_4c/output_inception_4c/output_0_split_2
I0123 12:53:06.197345 39704 net.cpp:579] inception_4d/5x5_reduce -> inception_4d/5x5_reduce
I0123 12:53:06.197350 39704 net.cpp:582] From AppendTop @cpu: 0
I0123 12:53:06.198933 39704 net.cpp:219] Setting up inception_4d/5x5_reduce
I0123 12:53:06.198948 39704 net.cpp:226] Top shape: 32 32 14 14 (200704)
I0123 12:53:06.198956 39704 net.cpp:234] Memory required for data: 1509783044
I0123 12:53:06.198967 39704 net.cpp:154] Setting up Layer of device :0 @cpu 0 Layer : inception_4d/relu_5x5_reduce
I0123 12:53:06.198982 39704 layer_factory.hpp:114] Creating layer inception_4d/relu_5x5_reduce
I0123 12:53:06.198992 39704 net.cpp:169] Creating Layer inception_4d/relu_5x5_reduce
I0123 12:53:06.198999 39704 net.cpp:606] inception_4d/relu_5x5_reduce <- inception_4d/5x5_reduce
I0123 12:53:06.199010 39704 net.cpp:566] inception_4d/relu_5x5_reduce -> inception_4d/5x5_reduce (in-place)
I0123 12:53:06.199021 39704 net.cpp:219] Setting up inception_4d/relu_5x5_reduce
I0123 12:53:06.199029 39704 net.cpp:226] Top shape: 32 32 14 14 (200704)
I0123 12:53:06.199036 39704 net.cpp:234] Memory required for data: 1510585860
I0123 12:53:06.199044 39704 net.cpp:154] Setting up Layer of device :0 @cpu 0 Layer : inception_4d/5x5
I0123 12:53:06.199051 39704 layer_factory.hpp:114] Creating layer inception_4d/5x5
I0123 12:53:06.199064 39704 net.cpp:169] Creating Layer inception_4d/5x5
I0123 12:53:06.199072 39704 net.cpp:606] inception_4d/5x5 <- inception_4d/5x5_reduce
I0123 12:53:06.199082 39704 net.cpp:579] inception_4d/5x5 -> inception_4d/5x5
I0123 12:53:06.199089 39704 net.cpp:582] From AppendTop @cpu: 0
I0123 12:53:06.202659 39704 net.cpp:219] Setting up inception_4d/5x5
I0123 12:53:06.202674 39704 net.cpp:226] Top shape: 32 64 14 14 (401408)
I0123 12:53:06.202682 39704 net.cpp:234] Memory required for data: 1512191492
I0123 12:53:06.202693 39704 net.cpp:154] Setting up Layer of device :0 @cpu 0 Layer : inception_4d/relu_5x5
I0123 12:53:06.202700 39704 layer_factory.hpp:114] Creating layer inception_4d/relu_5x5
I0123 12:53:06.202709 39704 net.cpp:169] Creating Layer inception_4d/relu_5x5
I0123 12:53:06.202718 39704 net.cpp:606] inception_4d/relu_5x5 <- inception_4d/5x5
I0123 12:53:06.202728 39704 net.cpp:566] inception_4d/relu_5x5 -> inception_4d/5x5 (in-place)
I0123 12:53:06.202739 39704 net.cpp:219] Setting up inception_4d/relu_5x5
I0123 12:53:06.202747 39704 net.cpp:226] Top shape: 32 64 14 14 (401408)
I0123 12:53:06.202754 39704 net.cpp:234] Memory required for data: 1513797124
I0123 12:53:06.202761 39704 net.cpp:154] Setting up Layer of device :0 @cpu 0 Layer : inception_4d/pool
I0123 12:53:06.202769 39704 layer_factory.hpp:114] Creating layer inception_4d/pool
I0123 12:53:06.202798 39704 net.cpp:169] Creating Layer inception_4d/pool
I0123 12:53:06.202807 39704 net.cpp:606] inception_4d/pool <- inception_4c/output_inception_4c/output_0_split_3
I0123 12:53:06.202817 39704 net.cpp:579] inception_4d/pool -> inception_4d/pool
I0123 12:53:06.202832 39704 net.cpp:582] From AppendTop @cpu: 0
I0123 12:53:06.202847 39704 net.cpp:219] Setting up inception_4d/pool
I0123 12:53:06.202855 39704 net.cpp:226] Top shape: 32 512 14 14 (3211264)
I0123 12:53:06.202862 39704 net.cpp:234] Memory required for data: 1526642180
I0123 12:53:06.202870 39704 net.cpp:154] Setting up Layer of device :0 @cpu 0 Layer : inception_4d/pool_proj
I0123 12:53:06.202877 39704 layer_factory.hpp:114] Creating layer inception_4d/pool_proj
I0123 12:53:06.202893 39704 net.cpp:169] Creating Layer inception_4d/pool_proj
I0123 12:53:06.202901 39704 net.cpp:606] inception_4d/pool_proj <- inception_4d/pool
I0123 12:53:06.202911 39704 net.cpp:579] inception_4d/pool_proj -> inception_4d/pool_proj
I0123 12:53:06.202922 39704 net.cpp:582] From AppendTop @cpu: 0
I0123 12:53:06.204875 39704 net.cpp:219] Setting up inception_4d/pool_proj
I0123 12:53:06.204890 39704 net.cpp:226] Top shape: 32 64 14 14 (401408)
I0123 12:53:06.204897 39704 net.cpp:234] Memory required for data: 1528247812
I0123 12:53:06.204916 39704 net.cpp:154] Setting up Layer of device :0 @cpu 0 Layer : inception_4d/relu_pool_proj
I0123 12:53:06.204923 39704 layer_factory.hpp:114] Creating layer inception_4d/relu_pool_proj
I0123 12:53:06.204934 39704 net.cpp:169] Creating Layer inception_4d/relu_pool_proj
I0123 12:53:06.204943 39704 net.cpp:606] inception_4d/relu_pool_proj <- inception_4d/pool_proj
I0123 12:53:06.204952 39704 net.cpp:566] inception_4d/relu_pool_proj -> inception_4d/pool_proj (in-place)
I0123 12:53:06.204962 39704 net.cpp:219] Setting up inception_4d/relu_pool_proj
I0123 12:53:06.204987 39704 net.cpp:226] Top shape: 32 64 14 14 (401408)
I0123 12:53:06.204993 39704 net.cpp:234] Memory required for data: 1529853444
I0123 12:53:06.205001 39704 net.cpp:154] Setting up Layer of device :0 @cpu 0 Layer : inception_4d/output
I0123 12:53:06.205008 39704 layer_factory.hpp:114] Creating layer inception_4d/output
I0123 12:53:06.205018 39704 net.cpp:169] Creating Layer inception_4d/output
I0123 12:53:06.205025 39704 net.cpp:606] inception_4d/output <- inception_4d/1x1
I0123 12:53:06.205034 39704 net.cpp:606] inception_4d/output <- inception_4d/3x3
I0123 12:53:06.205041 39704 net.cpp:606] inception_4d/output <- inception_4d/5x5
I0123 12:53:06.205049 39704 net.cpp:606] inception_4d/output <- inception_4d/pool_proj
I0123 12:53:06.205063 39704 net.cpp:579] inception_4d/output -> inception_4d/output
I0123 12:53:06.205070 39704 net.cpp:582] From AppendTop @cpu: 0
I0123 12:53:06.205082 39704 net.cpp:219] Setting up inception_4d/output
I0123 12:53:06.205091 39704 net.cpp:226] Top shape: 32 528 14 14 (3311616)
I0123 12:53:06.205097 39704 net.cpp:234] Memory required for data: 1543099908
I0123 12:53:06.205106 39704 net.cpp:154] Setting up Layer of device :0 @cpu 0 Layer : inception_4d/output_inception_4d/output_0_split
I0123 12:53:06.205112 39704 layer_factory.hpp:114] Creating layer inception_4d/output_inception_4d/output_0_split
I0123 12:53:06.205132 39704 net.cpp:169] Creating Layer inception_4d/output_inception_4d/output_0_split
…
I0123 12:53:06.205219 39704 net.cpp:582] From AppendTop @cpu: 0
I0123 12:53:06.205229 39704 net.cpp:579] inception_4d/output_inception_4d/output_0_split -> inception_4d/output_inception_4d/output_0_split_3
I0123 12:53:06.205236 39704 net.cpp:582] From AppendTop @cpu: 0
I0123 12:53:06.205245 39704 net.cpp:579] inception_4d/output_inception_4d/output_0_split -> inception_4d/output_inception_4d/output_0_split_4
I0123 12:53:06.205257 39704 net.cpp:582] From AppendTop @cpu: 0
I0123 12:53:06.205272 39704 net.cpp:219] Setting up inception_4d/output_inception_4d/output_0_split
I0123 12:53:06.205282 39704 net.cpp:226] Top shape: 32 528 14 14 (3311616)
I0123 12:53:06.205291 39704 net.cpp:226] Top shape: 32 528 14 14 (3311616)
I0123 12:53:06.205298 39704 net.cpp:226] Top shape: 32 528 14 14 (3311616)
I0123 12:53:06.205307 39704 net.cpp:226] Top shape: 32 528 14 14 (3311616)
I0123 12:53:06.205313 39704 net.cpp:226] Top shape: 32 528 14 14 (3311616)
I0123 12:53:06.205320 39704 net.cpp:234] Memory required for data: 1609332228
I0123 12:53:06.205328 39704 net.cpp:154] Setting up Layer of device :0 @cpu 0 Layer : loss2/ave_pool
I0123 12:53:06.205335 39704 layer_factory.hpp:114] Creating layer loss2/ave_pool
I0123 12:53:06.205358 39704 net.cpp:169] Creating Layer loss2/ave_pool
I0123 12:53:06.205366 39704 net.cpp:606] loss2/ave_pool <- inception_4d/output_inception_4d/output_0_split_0
I0123 12:53:06.205379 39704 net.cpp:579] loss2/ave_pool -> loss2/ave_pool
I0123 12:53:06.205385 39704 net.cpp:582] From AppendTop @cpu: 0
I0123 12:53:06.205397 39704 net.cpp:219] Setting up loss2/ave_pool
I0123 12:53:06.205406 39704 net.cpp:226] Top shape: 32 528 4 4 (270336)
I0123 12:53:06.205413 39704 net.cpp:234] Memory required for data: 1610413572
I0123 12:53:06.205421 39704 net.cpp:154] Setting up Layer of device :0 @cpu 0 Layer : loss2/conv
I0123 12:53:06.205427 39704 layer_factory.hpp:114] Creating layer loss2/conv
I0123 12:53:06.205442 39704 net.cpp:169] Creating Layer loss2/conv
I0123 12:53:06.205458 39704 net.cpp:606] loss2/conv <- loss2/ave_pool
I0123 12:53:06.205471 39704 net.cpp:579] loss2/conv -> loss2/conv
I0123 12:53:06.205478 39704 net.cpp:582] From AppendTop @cpu: 0
I0123 12:53:06.207370 39704 net.cpp:219] Setting up loss2/conv
I0123 12:53:06.207386 39704 net.cpp:226] Top shape: 32 128 4 4 (65536)
I0123 12:53:06.207392 39704 net.cpp:234] Memory required for data: 1610675716
I0123 12:53:06.207404 39704 net.cpp:154] Setting up Layer of device :0 @cpu 0 Layer : loss2/relu_conv
I0123 12:53:06.207412 39704 layer_factory.hpp:114] Creating layer loss2/relu_conv
I0123 12:53:06.207420 39704 net.cpp:169] Creating Layer loss2/relu_conv
I0123 12:53:06.207428 39704 net.cpp:606] loss2/relu_conv <- loss2/conv
I0123 12:53:06.207440 39704 net.cpp:566] loss2/relu_conv -> loss2/conv (in-place)
I0123 12:53:06.207450 39704 net.cpp:219] Setting up loss2/relu_conv
I0123 12:53:06.207459 39704 net.cpp:226] Top shape: 32 128 4 4 (65536)
I0123 12:53:06.207466 39704 net.cpp:234] Memory required for data: 1610937860
I0123 12:53:06.207474 39704 net.cpp:154] Setting up Layer of device :0 @cpu 0 Layer : loss2/fc
I0123 12:53:06.207481 39704 layer_factory.hpp:114] Creating layer loss2/fc
I0123 12:53:06.207494 39704 net.cpp:169] Creating Layer loss2/fc
I0123 12:53:06.207500 39704 net.cpp:606] loss2/fc <- loss2/conv
I0123 12:53:06.207516 39704 net.cpp:579] loss2/fc -> loss2/fc
I0123 12:53:06.207523 39704 net.cpp:582] From AppendTop @cpu: 0
I0123 12:53:06.225919 39704 net.cpp:219] Setting up loss2/fc
I0123 12:53:06.225976 39704 net.cpp:226] Top shape: 32 1024 (32768)
I0123 12:53:06.225983 39704 net.cpp:234] Memory required for data: 1611068932
I0123 12:53:06.225996 39704 net.cpp:154] Setting up Layer of device :0 @cpu 0 Layer : loss2/relu_fc
I0123 12:53:06.226003 39704 layer_factory.hpp:114] Creating layer loss2/relu_fc
I0123 12:53:06.226016 39704 net.cpp:169] Creating Layer loss2/relu_fc
I0123 12:53:06.226023 39704 net.cpp:606] loss2/relu_fc <- loss2/fc
I0123 12:53:06.226032 39704 net.cpp:566] loss2/relu_fc -> loss2/fc (in-place)
I0123 12:53:06.226042 39704 net.cpp:219] Setting up loss2/relu_fc
I0123 12:53:06.226050 39704 net.cpp:226] Top shape: 32 1024 (32768)
I0123 12:53:06.226058 39704 net.cpp:234] Memory required for data: 1611200004
I0123 12:53:06.226065 39704 net.cpp:154] Setting up Layer of device :0 @cpu 0 Layer : loss2/drop_fc
I0123 12:53:06.226073 39704 layer_factory.hpp:114] Creating layer loss2/drop_fc
I0123 12:53:06.226090 39704 net.cpp:169] Creating Layer loss2/drop_fc
I0123 12:53:06.226099 39704 net.cpp:606] loss2/drop_fc <- loss2/fc
I0123 12:53:06.226107 39704 net.cpp:566] loss2/drop_fc -> loss2/fc (in-place)
I0123 12:53:06.226119 39704 net.cpp:219] Setting up loss2/drop_fc
I0123 12:53:06.226127 39704 net.cpp:226] Top shape: 32 1024 (32768)
I0123 12:53:06.226135 39704 net.cpp:234] Memory required for data: 1611331076
I0123 12:53:06.226141 39704 net.cpp:154] Setting up Layer of device :0 @cpu 0 Layer : loss2/classifier
I0123 12:53:06.226148 39704 layer_factory.hpp:114] Creating layer loss2/classifier
I0123 12:53:06.226166 39704 net.cpp:169] Creating Layer loss2/classifier
I0123 12:53:06.226205 39704 net.cpp:606] loss2/classifier <- loss2/fc
I0123 12:53:06.226215 39704 net.cpp:579] loss2/classifier -> loss2/classifier
I0123 12:53:06.226222 39704 net.cpp:582] From AppendTop @cpu: 0
I0123 12:53:06.235519 39704 net.cpp:219] Setting up loss2/classifier
I0123 12:53:06.235548 39704 net.cpp:226] Top shape: 32 1000 (32000)
I0123 12:53:06.235554 39704 net.cpp:234] Memory required for data: 1611459076
I0123 12:53:06.235566 39704 net.cpp:154] Setting up Layer of device :0 @cpu 0 Layer : loss2/loss
I0123 12:53:06.235574 39704 layer_factory.hpp:114] Creating layer loss2/loss
I0123 12:53:06.235585 39704 net.cpp:169] Creating Layer loss2/loss
I0123 12:53:06.235594 39704 net.cpp:606] loss2/loss <- loss2/classifier
…
I0123 12:53:06.235796 39704 net.cpp:154] Setting up Layer of device :0 @cpu 0 Layer : inception_4e/1x1
I0123 12:53:06.235803 39704 layer_factory.hpp:114] Creating layer inception_4e/1x1
I0123 12:53:06.235818 39704 net.cpp:169] Creating Layer inception_4e/1x1
I0123 12:53:06.235827 39704 net.cpp:606] inception_4e/1x1 <- inception_4d/output_inception_4d/output_0_split_1
I0123 12:53:06.235839 39704 net.cpp:579] inception_4e/1x1 -> inception_4e/1x1
I0123 12:53:06.235846 39704 net.cpp:582] From AppendTop @cpu: 0
I0123 12:53:06.240667 39704 net.cpp:219] Setting up inception_4e/1x1
I0123 12:53:06.240698 39704 net.cpp:226] Top shape: 32 256 14 14 (1605632)
I0123 12:53:06.240705 39704 net.cpp:234] Memory required for data: 1617881608
I0123 12:53:06.240717 39704 net.cpp:154] Setting up Layer of device :0 @cpu 0 Layer : inception_4e/relu_1x1
I0123 12:53:06.240725 39704 layer_factory.hpp:114] Creating layer inception_4e/relu_1x1
I0123 12:53:06.240734 39704 net.cpp:169] Creating Layer inception_4e/relu_1x1
I0123 12:53:06.240742 39704 net.cpp:606] inception_4e/relu_1x1 <- inception_4e/1x1
I0123 12:53:06.240754 39704 net.cpp:566] inception_4e/relu_1x1 -> inception_4e/1x1 (in-place)
I0123 12:53:06.240766 39704 net.cpp:219] Setting up inception_4e/relu_1x1
I0123 12:53:06.240774 39704 net.cpp:226] Top shape: 32 256 14 14 (1605632)
I0123 12:53:06.240780 39704 net.cpp:234] Memory required for data: 1624304136
I0123 12:53:06.240788 39704 net.cpp:154] Setting up Layer of device :0 @cpu 0 Layer : inception_4e/3x3_reduce
I0123 12:53:06.240795 39704 layer_factory.hpp:114] Creating layer inception_4e/3x3_reduce
I0123 12:53:06.240810 39704 net.cpp:169] Creating Layer inception_4e/3x3_reduce
I0123 12:53:06.240818 39704 net.cpp:606] inception_4e/3x3_reduce <- inception_4d/output_inception_4d/output_0_split_2
I0123 12:53:06.240828 39704 net.cpp:579] inception_4e/3x3_reduce -> inception_4e/3x3_reduce
I0123 12:53:06.240835 39704 net.cpp:582] From AppendTop @cpu: 0
I0123 12:53:06.244325 39704 net.cpp:219] Setting up inception_4e/3x3_reduce
I0123 12:53:06.244348 39704 net.cpp:226] Top shape: 32 160 14 14 (1003520)
I0123 12:53:06.244366 39704 net.cpp:234] Memory required for data: 1628318216
I0123 12:53:06.244379 39704 net.cpp:154] Setting up Layer of device :0 @cpu 0 Layer : inception_4e/relu_3x3_reduce
I0123 12:53:06.244386 39704 layer_factory.hpp:114] Creating layer inception_4e/relu_3x3_reduce
I0123 12:53:06.244395 39704 net.cpp:169] Creating Layer inception_4e/relu_3x3_reduce
I0123 12:53:06.244403 39704 net.cpp:606] inception_4e/relu_3x3_reduce <- inception_4e/3x3_reduce
I0123 12:53:06.244418 39704 net.cpp:566] inception_4e/relu_3x3_reduce -> inception_4e/3x3_reduce (in-place)
I0123 12:53:06.244429 39704 net.cpp:219] Setting up inception_4e/relu_3x3_reduce
I0123 12:53:06.244438 39704 net.cpp:226] Top shape: 32 160 14 14 (1003520)
I0123 12:53:06.244446 39704 net.cpp:234] Memory required for data: 1632332296
I0123 12:53:06.244453 39704 net.cpp:154] Setting up Layer of device :0 @cpu 0 Layer : inception_4e/3x3
I0123 12:53:06.244460 39704 layer_factory.hpp:114] Creating layer inception_4e/3x3
I0123 12:53:06.244473 39704 net.cpp:169] Creating Layer inception_4e/3x3
I0123 12:53:06.244482 39704 net.cpp:606] inception_4e/3x3 <- inception_4e/3x3_reduce
I0123 12:53:06.244491 39704 net.cpp:579] inception_4e/3x3 -> inception_4e/3x3
I0123 12:53:06.244498 39704 net.cpp:582] From AppendTop @cpu: 0
I0123 12:53:06.256897 39704 net.cpp:219] Setting up inception_4e/3x3
I0123 12:53:06.256920 39704 net.cpp:226] Top shape: 32 320 14 14 (2007040)
I0123 12:53:06.256927 39704 net.cpp:234] Memory required for data: 1640360456
I0123 12:53:06.256939 39704 net.cpp:154] Setting up Layer of device :0 @cpu 0 Layer : inception_4e/relu_3x3
I0123 12:53:06.256983 39704 layer_factory.hpp:114] Creating layer inception_4e/relu_3x3
I0123 12:53:06.256994 39704 net.cpp:169] Creating Layer inception_4e/relu_3x3
I0123 12:53:06.257002 39704 net.cpp:606] inception_4e/relu_3x3 <- inception_4e/3x3
I0123 12:53:06.257011 39704 net.cpp:566] inception_4e/relu_3x3 -> inception_4e/3x3 (in-place)
I0123 12:53:06.257022 39704 net.cpp:219] Setting up inception_4e/relu_3x3
I0123 12:53:06.257031 39704 net.cpp:226] Top shape: 32 320 14 14 (2007040)
I0123 12:53:06.257037 39704 net.cpp:234] Memory required for data: 1648388616
I0123 12:53:06.257045 39704 net.cpp:154] Setting up Layer of device :0 @cpu 0 Layer : inception_4e/5x5_reduce
I0123 12:53:06.257052 39704 layer_factory.hpp:114] Creating layer inception_4e/5x5_reduce
I0123 12:53:06.257064 39704 net.cpp:169] Creating Layer inception_4e/5x5_reduce
I0123 12:53:06.257071 39704 net.cpp:606] inception_4e/5x5_reduce <- inception_4d/output_inception_4d/output_0_split_3
I0123 12:53:06.257083 39704 net.cpp:579] inception_4e/5x5_reduce -> inception_4e/5x5_reduce
I0123 12:53:06.257091 39704 net.cpp:582] From AppendTop @cpu: 0
I0123 12:53:06.259228 39704 net.cpp:219] Setting up inception_4e/5x5_reduce
I0123 12:53:06.259244 39704 net.cpp:226] Top shape: 32 32 14 14 (200704)
I0123 12:53:06.259250 39704 net.cpp:234] Memory required for data: 1649191432
I0123 12:53:06.259263 39704 net.cpp:154] Setting up Layer of device :0 @cpu 0 Layer : inception_4e/relu_5x5_reduce
I0123 12:53:06.259269 39704 layer_factory.hpp:114] Creating layer inception_4e/relu_5x5_reduce
I0123 12:53:06.259281 39704 net.cpp:169] Creating Layer inception_4e/relu_5x5_reduce
I0123 12:53:06.259289 39704 net.cpp:606] inception_4e/relu_5x5_reduce <- inception_4e/5x5_reduce
I0123 12:53:06.259299 39704 net.cpp:566] inception_4e/relu_5x5_reduce -> inception_4e/5x5_reduce (in-place)
I0123 12:53:06.259310 39704 net.cpp:219] Setting up inception_4e/relu_5x5_reduce
I0123 12:53:06.259317 39704 net.cpp:226] Top shape: 32 32 14 14 (200704)
I0123 12:53:06.259325 39704 net.cpp:234] Memory required for data: 1649994248
I0123 12:53:06.259332 39704 net.cpp:154] Setting up Layer of device :0 @cpu 0 Layer : inception_4e/5x5
I0123 12:53:06.259340 39704 layer_factory.hpp:114] Creating layer inception_4e/5x5
I0123 12:53:06.259358 39704 net.cpp:169] Creating Layer inception_4e/5x5
I0123 12:53:06.259366 39704 net.cpp:606] inception_4e/5x5 <- inception_4e/5x5_reduce
I0123 12:53:06.259382 39704 net.cpp:579] inception_4e/5x5 -> inception_4e/5x5
I0123 12:53:06.259389 39704 net.cpp:582] From AppendTop @cpu: 0
I0123 12:53:06.263793 39704 net.cpp:219] Setting up inception_4e/5x5
I0123 12:53:06.263816 39704 net.cpp:226] Top shape: 32 128 14 14 (802816)
I0123 12:53:06.263823 39704 net.cpp:234] Memory required for data: 1653205512
I0123 12:53:06.263836 39704 net.cpp:154] Setting up Layer of device :0 @cpu 0 Layer : inception_4e/relu_5x5
I0123 12:53:06.263844 39704 layer_factory.hpp:114] Creating layer inception_4e/relu_5x5
I0123 12:53:06.263852 39704 net.cpp:169] Creating Layer inception_4e/relu_5x5
I0123 12:53:06.263860 39704 net.cpp:606] inception_4e/relu_5x5 <- inception_4e/5x5
I0123 12:53:06.263872 39704 net.cpp:566] inception_4e/relu_5x5 -> inception_4e/5x5 (in-place)
I0123 12:53:06.263882 39704 net.cpp:219] Setting up inception_4e/relu_5x5
I0123 12:53:06.263891 39704 net.cpp:226] Top shape: 32 128 14 14 (802816)
I0123 12:53:06.263897 39704 net.cpp:234] Memory required for data: 1656416776
I0123 12:53:06.263906 39704 net.cpp:154] Setting up Layer of device :0 @cpu 0 Layer : inception_4e/pool
I0123 12:53:06.263912 39704 layer_factory.hpp:114] Creating layer inception_4e/pool
I0123 12:53:06.263950 39704 net.cpp:169] Creating Layer inception_4e/pool
I0123 12:53:06.263959 39704 net.cpp:606] inception_4e/pool <- inception_4d/output_inception_4d/output_0_split_4
I0123 12:53:06.263968 39704 net.cpp:579] inception_4e/pool -> inception_4e/pool
I0123 12:53:06.263975 39704 net.cpp:582] From AppendTop @cpu: 0
I0123 12:53:06.263988 39704 net.cpp:219] Setting up inception_4e/pool
I0123 12:53:06.263998 39704 net.cpp:226] Top shape: 32 528 14 14 (3311616)
I0123 12:53:06.264020 39704 net.cpp:234] Memory required for data: 1669663240
I0123 12:53:06.264029 39704 net.cpp:154] Setting up Layer of device :0 @cpu 0 Layer : inception_4e/pool_proj
I0123 12:53:06.264036 39704 layer_factory.hpp:114] Creating layer inception_4e/pool_proj
I0123 12:53:06.264051 39704 net.cpp:169] Creating Layer inception_4e/pool_proj
I0123 12:53:06.264060 39704 net.cpp:606] inception_4e/pool_proj <- inception_4e/pool
I0123 12:53:06.264070 39704 net.cpp:579] inception_4e/pool_proj -> inception_4e/pool_proj
I0123 12:53:06.264076 39704 net.cpp:582] From AppendTop @cpu: 0
I0123 12:53:06.267580 39704 net.cpp:219] Setting up inception_4e/pool_proj
I0123 12:53:06.267594 39704 net.cpp:226] Top shape: 32 128 14 14 (802816)
I0123 12:53:06.267601 39704 net.cpp:234] Memory required for data: 1672874504
I0123 12:53:06.267613 39704 net.cpp:154] Setting up Layer of device :0 @cpu 0 Layer : inception_4e/relu_pool_proj
I0123 12:53:06.267621 39704 layer_factory.hpp:114] Creating layer inception_4e/relu_pool_proj
I0123 12:53:06.267629 39704 net.cpp:169] Creating Layer inception_4e/relu_pool_proj
I0123 12:53:06.267637 39704 net.cpp:606] inception_4e/relu_pool_proj <- inception_4e/pool_proj
I0123 12:53:06.267647 39704 net.cpp:566] inception_4e/relu_pool_proj -> inception_4e/pool_proj (in-place)
I0123 12:53:06.267657 39704 net.cpp:219] Setting up inception_4e/relu_pool_proj
I0123 12:53:06.267665 39704 net.cpp:226] Top shape: 32 128 14 14 (802816)
I0123 12:53:06.267673 39704 net.cpp:234] Memory required for data: 1676085768
I0123 12:53:06.267679 39704 net.cpp:154] Setting up Layer of device :0 @cpu 0 Layer : inception_4e/output
I0123 12:53:06.267686 39704 layer_factory.hpp:114] Creating layer inception_4e/output
I0123 12:53:06.267696 39704 net.cpp:169] Creating Layer inception_4e/output
I0123 12:53:06.267704 39704 net.cpp:606] inception_4e/output <- inception_4e/1x1
I0123 12:53:06.267711 39704 net.cpp:606] inception_4e/output <- inception_4e/3x3
I0123 12:53:06.267719 39704 net.cpp:606] inception_4e/output <- inception_4e/5x5
I0123 12:53:06.267727 39704 net.cpp:606] inception_4e/output <- inception_4e/pool_proj
I0123 12:53:06.267738 39704 net.cpp:579] inception_4e/output -> inception_4e/output
I0123 12:53:06.267745 39704 net.cpp:582] From AppendTop @cpu: 0
I0123 12:53:06.267757 39704 net.cpp:219] Setting up inception_4e/output
I0123 12:53:06.267766 39704 net.cpp:226] Top shape: 32 832 14 14 (5218304)
I0123 12:53:06.267778 39704 net.cpp:234] Memory required for data: 1696958984
I0123 12:53:06.267787 39704 net.cpp:154] Setting up Layer of device :0 @cpu 0 Layer : pool4/3x3_s2
I0123 12:53:06.267793 39704 layer_factory.hpp:114] Creating layer pool4/3x3_s2
I0123 12:53:06.267817 39704 net.cpp:169] Creating Layer pool4/3x3_s2
I0123 12:53:06.267825 39704 net.cpp:606] pool4/3x3_s2 <- inception_4e/output
I0123 12:53:06.267835 39704 net.cpp:579] pool4/3x3_s2 -> pool4/3x3_s2
I0123 12:53:06.267843 39704 net.cpp:582] From AppendTop @cpu: 0
I0123 12:53:06.267854 39704 net.cpp:219] Setting up pool4/3x3_s2
I0123 12:53:06.267863 39704 net.cpp:226] Top shape: 32 832 7 7 (1304576)
I0123 12:53:06.267870 39704 net.cpp:234] Memory required for data: 1702177288
I0123 12:53:06.267879 39704 net.cpp:154] Setting up Layer of device :0 @cpu 0 Layer : pool4/3x3_s2_pool4/3x3_s2_0_split
I0123 12:53:06.267885 39704 layer_factory.hpp:114] Creating layer pool4/3x3_s2_pool4/3x3_s2_0_split
I0123 12:53:06.267894 39704 net.cpp:169] Creating Layer pool4/3x3_s2_pool4/3x3_s2_0_split
I0123 12:53:06.267902 39704 net.cpp:606] pool4/3x3_s2_pool4/3x3_s2_0_split <- pool4/3x3_s2
I0123 12:53:06.267913 39704 net.cpp:579] pool4/3x3_s2_pool4/3x3_s2_0_split -> pool4/3x3_s2_pool4/3x3_s2_0_split_0
I0123 12:53:06.267920 39704 net.cpp:582] From AppendTop @cpu: 0
I0123 12:53:06.267930 39704 net.cpp:579] pool4/3x3_s2_pool4/3x3_s2_0_split -> pool4/3x3_s2_pool4/3x3_s2_0_split_1
I0123 12:53:06.267936 39704 net.cpp:582] From AppendTop @cpu: 0
I0123 12:53:06.267946 39704 net.cpp:579] pool4/3x3_s2_pool4/3x3_s2_0_split -> pool4/3x3_s2_pool4/3x3_s2_0_split_2
I0123 12:53:06.267961 39704 net.cpp:582] From AppendTop @cpu: 0
I0123 12:53:06.267972 39704 net.cpp:579] pool4/3x3_s2_pool4/3x3_s2_0_split -> pool4/3x3_s2_pool4/3x3_s2_0_split_3
I0123 12:53:06.267978 39704 net.cpp:582] From AppendTop @cpu: 0
I0123 12:53:06.267989 39704 net.cpp:219] Setting up pool4/3x3_s2_pool4/3x3_s2_0_split
I0123 12:53:06.267998 39704 net.cpp:226] Top shape: 32 832 7 7 (1304576)
I0123 12:53:06.268007 39704 net.cpp:226] Top shape: 32 832 7 7 (1304576)
I0123 12:53:06.268014 39704 net.cpp:226] Top shape: 32 832 7 7 (1304576)
I0123 12:53:06.268021 39704 net.cpp:226] Top shape: 32 832 7 7 (1304576)
I0123 12:53:06.268028 39704 net.cpp:234] Memory required for data: 1723050504
I0123 12:53:06.268036 39704 net.cpp:154] Setting up Layer of device :0 @cpu 0 Layer : inception_5a/1x1
I0123 12:53:06.268043 39704 layer_factory.hpp:114] Creating layer inception_5a/1x1
I0123 12:53:06.268056 39704 net.cpp:169] Creating Layer inception_5a/1x1
I0123 12:53:06.268065 39704 net.cpp:606] inception_5a/1x1 <- pool4/3x3_s2_pool4/3x3_s2_0_split_0
I0123 12:53:06.268075 39704 net.cpp:579] inception_5a/1x1 -> inception_5a/1x1
I0123 12:53:06.268082 39704 net.cpp:582] From AppendTop @cpu: 0
I0123 12:53:06.272774 39704 net.cpp:219] Setting up inception_5a/1x1
I0123 12:53:06.272789 39704 net.cpp:226] Top shape: 32 256 7 7 (401408)
I0123 12:53:06.272796 39704 net.cpp:234] Memory required for data: 1724656136
I0123 12:53:06.272809 39704 net.cpp:154] Setting up Layer of device :0 @cpu 0 Layer : inception_5a/relu_1x1
I0123 12:53:06.272815 39704 layer_factory.hpp:114] Creating layer inception_5a/relu_1x1
I0123 12:53:06.272825 39704 net.cpp:169] Creating Layer inception_5a/relu_1x1
I0123 12:53:06.272832 39704 net.cpp:606] inception_5a/relu_1x1 <- inception_5a/1x1
I0123 12:53:06.272845 39704 net.cpp:566] inception_5a/relu_1x1 -> inception_5a/1x1 (in-place)
I0123 12:53:06.272855 39704 net.cpp:219] Setting up inception_5a/relu_1x1
I0123 12:53:06.272863 39704 net.cpp:226] Top shape: 32 256 7 7 (401408)
I0123 12:53:06.272871 39704 net.cpp:234] Memory required for data: 1726261768
I0123 12:53:06.272878 39704 net.cpp:154] Setting up Layer of device :0 @cpu 0 Layer : inception_5a/3x3_reduce
I0123 12:53:06.272884 39704 layer_factory.hpp:114] Creating layer inception_5a/3x3_reduce
I0123 12:53:06.272902 39704 net.cpp:169] Creating Layer inception_5a/3x3_reduce
I0123 12:53:06.272910 39704 net.cpp:606] inception_5a/3x3_reduce <- pool4/3x3_s2_pool4/3x3_s2_0_split_1
I0123 12:53:06.272925 39704 net.cpp:579] inception_5a/3x3_reduce -> inception_5a/3x3_reduce
I0123 12:53:06.272933 39704 net.cpp:582] From AppendTop @cpu: 0
I0123 12:53:06.275995 39704 net.cpp:219] Setting up inception_5a/3x3_reduce
I0123 12:53:06.276010 39704 net.cpp:226] Top shape: 32 160 7 7 (250880)
I0123 12:53:06.276017 39704 net.cpp:234] Memory required for data: 1727265288
I0123 12:53:06.276029 39704 net.cpp:154] Setting up Layer of device :0 @cpu 0 Layer : inception_5a/relu_3x3_reduce
I0123 12:53:06.276036 39704 layer_factory.hpp:114] Creating layer inception_5a/relu_3x3_reduce
I0123 12:53:06.276046 39704 net.cpp:169] Creating Layer inception_5a/relu_3x3_reduce
I0123 12:53:06.276053 39704 net.cpp:606] inception_5a/relu_3x3_reduce <- inception_5a/3x3_reduce
I0123 12:53:06.276062 39704 net.cpp:566] inception_5a/relu_3x3_reduce -> inception_5a/3x3_reduce (in-place)
I0123 12:53:06.276073 39704 net.cpp:219] Setting up inception_5a/relu_3x3_reduce
I0123 12:53:06.276082 39704 net.cpp:226] Top shape: 32 160 7 7 (250880)
I0123 12:53:06.276088 39704 net.cpp:234] Memory required for data: 1728268808
I0123 12:53:06.276096 39704 net.cpp:154] Setting up Layer of device :0 @cpu 0 Layer : inception_5a/3x3
I0123 12:53:06.276103 39704 layer_factory.hpp:114] Creating layer inception_5a/3x3
I0123 12:53:06.276114 39704 net.cpp:169] Creating Layer inception_5a/3x3
I0123 12:53:06.276121 39704 net.cpp:606] inception_5a/3x3 <- inception_5a/3x3_reduce
I0123 12:53:06.276134 39704 net.cpp:579] inception_5a/3x3 -> inception_5a/3x3
I0123 12:53:06.276140 39704 net.cpp:582] From AppendTop @cpu: 0
I0123 12:53:06.286334 39704 net.cpp:219] Setting up inception_5a/3x3
I0123 12:53:06.286350 39704 net.cpp:226] Top shape: 32 320 7 7 (501760)
I0123 12:53:06.286356 39704 net.cpp:234] Memory required for data: 1730275848
I0123 12:53:06.286370 39704 net.cpp:154] Setting up Layer of device :0 @cpu 0 Layer : inception_5a/relu_3x3
I0123 12:53:06.286376 39704 layer_factory.hpp:114] Creating layer inception_5a/relu_3x3
I0123 12:53:06.286386 39704 net.cpp:169] Creating Layer inception_5a/relu_3x3
I0123 12:53:06.286393 39704 net.cpp:606] inception_5a/relu_3x3 <- inception_5a/3x3
I0123 12:53:06.286404 39704 net.cpp:566] inception_5a/relu_3x3 -> inception_5a/3x3 (in-place)
I0123 12:53:06.286415 39704 net.cpp:219] Setting up inception_5a/relu_3x3
I0123 12:53:06.286423 39704 net.cpp:226] Top shape: 32 320 7 7 (501760)
I0123 12:53:06.286430 39704 net.cpp:234] Memory required for data: 1732282888
I0123 12:53:06.286438 39704 net.cpp:154] Setting up Layer of device :0 @cpu 0 Layer : inception_5a/5x5_reduce
I0123 12:53:06.286445 39704 layer_factory.hpp:114] Creating layer inception_5a/5x5_reduce
I0123 12:53:06.286456 39704 net.cpp:169] Creating Layer inception_5a/5x5_reduce
I0123 12:53:06.286464 39704 net.cpp:606] inception_5a/5x5_reduce <- pool4/3x3_s2_pool4/3x3_s2_0_split_2
I0123 12:53:06.286474 39704 net.cpp:579] inception_5a/5x5_reduce -> inception_5a/5x5_reduce
I0123 12:53:06.286481 39704 net.cpp:582] From AppendTop @cpu: 0
I0123 12:53:06.287578 39704 net.cpp:219] Setting up inception_5a/5x5_reduce
I0123 12:53:06.287593 39704 net.cpp:226] Top shape: 32 32 7 7 (50176)
I0123 12:53:06.287600 39704 net.cpp:234] Memory required for data: 1732483592
I0123 12:53:06.287611 39704 net.cpp:154] Setting up Layer of device :0 @cpu 0 Layer : inception_5a/relu_5x5_reduce
I0123 12:53:06.287618 39704 layer_factory.hpp:114] Creating layer inception_5a/relu_5x5_reduce
I0123 12:53:06.287631 39704 net.cpp:169] Creating Layer inception_5a/relu_5x5_reduce
I0123 12:53:06.287638 39704 net.cpp:606] inception_5a/relu_5x5_reduce <- inception_5a/5x5_reduce
I0123 12:53:06.287649 39704 net.cpp:566] inception_5a/relu_5x5_reduce -> inception_5a/5x5_reduce (in-place)
I0123 12:53:06.287660 39704 net.cpp:219] Setting up inception_5a/relu_5x5_reduce
I0123 12:53:06.287668 39704 net.cpp:226] Top shape: 32 32 7 7 (50176)
I0123 12:53:06.287675 39704 net.cpp:234] Memory required for data: 1732684296
I0123 12:53:06.287683 39704 net.cpp:154] Setting up Layer of device :0 @cpu 0 Layer : inception_5a/5x5
I0123 12:53:06.287695 39704 layer_factory.hpp:114] Creating layer inception_5a/5x5
I0123 12:53:06.287708 39704 net.cpp:169] Creating Layer inception_5a/5x5
I0123 12:53:06.287715 39704 net.cpp:606] inception_5a/5x5 <- inception_5a/5x5_reduce
I0123 12:53:06.287726 39704 net.cpp:579] inception_5a/5x5 -> inception_5a/5x5
I0123 12:53:06.287734 39704 net.cpp:582] From AppendTop @cpu: 0
I0123 12:53:06.290511 39704 net.cpp:219] Setting up inception_5a/5x5
I0123 12:53:06.290563 39704 net.cpp:226] Top shape: 32 128 7 7 (200704)
I0123 12:53:06.290570 39704 net.cpp:234] Memory required for data: 1733487112
I0123 12:53:06.290582 39704 net.cpp:154] Setting up Layer of device :0 @cpu 0 Layer : inception_5a/relu_5x5
I0123 12:53:06.290590 39704 layer_factory.hpp:114] Creating layer inception_5a/relu_5x5
I0123 12:53:06.290608 39704 net.cpp:169] Creating Layer inception_5a/relu_5x5
I0123 12:53:06.290616 39704 net.cpp:606] inception_5a/relu_5x5 <- inception_5a/5x5
I0123 12:53:06.290626 39704 net.cpp:566] inception_5a/relu_5x5 -> inception_5a/5x5 (in-place)
I0123 12:53:06.290635 39704 net.cpp:219] Setting up inception_5a/relu_5x5
I0123 12:53:06.290644 39704 net.cpp:226] Top shape: 32 128 7 7 (200704)
I0123 12:53:06.290650 39704 net.cpp:234] Memory required for data: 1734289928
I0123 12:53:06.290658 39704 net.cpp:154] Setting up Layer of device :0 @cpu 0 Layer : inception_5a/pool
I0123 12:53:06.290665 39704 layer_factory.hpp:114] Creating layer inception_5a/pool
I0123 12:53:06.290693 39704 net.cpp:169] Creating Layer inception_5a/pool
I0123 12:53:06.290701 39704 net.cpp:606] inception_5a/pool <- pool4/3x3_s2_pool4/3x3_s2_0_split_3
I0123 12:53:06.290722 39704 net.cpp:579] inception_5a/pool -> inception_5a/pool
I0123 12:53:06.290730 39704 net.cpp:582] From AppendTop @cpu: 0
I0123 12:53:06.290742 39704 net.cpp:219] Setting up inception_5a/pool
I0123 12:53:06.290752 39704 net.cpp:226] Top shape: 32 832 7 7 (1304576)
I0123 12:53:06.290760 39704 net.cpp:234] Memory required for data: 1739508232
I0123 12:53:06.290767 39704 net.cpp:154] Setting up Layer of device :0 @cpu 0 Layer : inception_5a/pool_proj
I0123 12:53:06.290773 39704 layer_factory.hpp:114] Creating layer inception_5a/pool_proj
I0123 12:53:06.290787 39704 net.cpp:169] Creating Layer inception_5a/pool_proj
I0123 12:53:06.290796 39704 net.cpp:606] inception_5a/pool_proj <- inception_5a/pool
I0123 12:53:06.290807 39704 net.cpp:579] inception_5a/pool_proj -> inception_5a/pool_proj
I0123 12:53:06.290814 39704 net.cpp:582] From AppendTop @cpu: 0
I0123 12:53:06.294064 39704 net.cpp:219] Setting up inception_5a/pool_proj
I0123 12:53:06.294080 39704 net.cpp:226] Top shape: 32 128 7 7 (200704)
I0123 12:53:06.294086 39704 net.cpp:234] Memory required for data: 1740311048
I0123 12:53:06.294098 39704 net.cpp:154] Setting up Layer of device :0 @cpu 0 Layer : inception_5a/relu_pool_proj
I0123 12:53:06.294106 39704 layer_factory.hpp:114] Creating layer inception_5a/relu_pool_proj
I0123 12:53:06.294116 39704 net.cpp:169] Creating Layer inception_5a/relu_pool_proj
I0123 12:53:06.294123 39704 net.cpp:606] inception_5a/relu_pool_proj <- inception_5a/pool_proj
I0123 12:53:06.294132 39704 net.cpp:566] inception_5a/relu_pool_proj -> inception_5a/pool_proj (in-place)
I0123 12:53:06.294142 39704 net.cpp:219] Setting up inception_5a/relu_pool_proj
I0123 12:53:06.294152 39704 net.cpp:226] Top shape: 32 128 7 7 (200704)
I0123 12:53:06.294157 39704 net.cpp:234] Memory required for data: 1741113864
I0123 12:53:06.294165 39704 net.cpp:154] Setting up Layer of device :0 @cpu 0 Layer : inception_5a/output
I0123 12:53:06.294200 39704 layer_factory.hpp:114] Creating layer inception_5a/output
I0123 12:53:06.294210 39704 net.cpp:169] Creating Layer inception_5a/output
I0123 12:53:06.294219 39704 net.cpp:606] inception_5a/output <- inception_5a/1x1
I0123 12:53:06.294226 39704 net.cpp:606] inception_5a/output <- inception_5a/3x3
I0123 12:53:06.294234 39704 net.cpp:606] inception_5a/output <- inception_5a/5x5
I0123 12:53:06.294242 39704 net.cpp:606] inception_5a/output <- inception_5a/pool_proj
I0123 12:53:06.294260 39704 net.cpp:579] inception_5a/output -> inception_5a/output
I0123 12:53:06.294267 39704 net.cpp:582] From AppendTop @cpu: 0
I0123 12:53:06.294279 39704 net.cpp:219] Setting up inception_5a/output
I0123 12:53:06.294289 39704 net.cpp:226] Top shape: 32 832 7 7 (1304576)
I0123 12:53:06.294296 39704 net.cpp:234] Memory required for data: 1746332168
I0123 12:53:06.294306 39704 net.cpp:154] Setting up Layer of device :0 @cpu 0 Layer : inception_5a/output_inception_5a/output_0_split
I0123 12:53:06.294313 39704 layer_factory.hpp:114] Creating layer inception_5a/output_inception_5a/output_0_split
I0123 12:53:06.294322 39704 net.cpp:169] Creating Layer inception_5a/output_inception_5a/output_0_split
…
I0123 12:53:06.294363 39704 net.cpp:582] From AppendTop @cpu: 0
I0123 12:53:06.294373 39704 net.cpp:579] inception_5a/output_inception_5a/output_0_split -> inception_5a/output_inception_5a/output_0_split_2
I0123 12:53:06.294379 39704 net.cpp:582] From AppendTop @cpu: 0
I0123 12:53:06.294389 39704 net.cpp:579] inception_5a/output_inception_5a/output_0_split -> inception_5a/output_inception_5a/output_0_split_3
I0123 12:53:06.294396 39704 net.cpp:582] From AppendTop @cpu: 0
I0123 12:53:06.294415 39704 net.cpp:219] Setting up inception_5a/output_inception_5a/output_0_split
I0123 12:53:06.294425 39704 net.cpp:226] Top shape: 32 832 7 7 (1304576)
I0123 12:53:06.294432 39704 net.cpp:226] Top shape: 32 832 7 7 (1304576)
I0123 12:53:06.294440 39704 net.cpp:226] Top shape: 32 832 7 7 (1304576)
I0123 12:53:06.294448 39704 net.cpp:226] Top shape: 32 832 7 7 (1304576)
I0123 12:53:06.294455 39704 net.cpp:234] Memory required for data: 1767205384
I0123 12:53:06.294462 39704 net.cpp:154] Setting up Layer of device :0 @cpu 0 Layer : inception_5b/1x1
I0123 12:53:06.294469 39704 layer_factory.hpp:114] Creating layer inception_5b/1x1
I0123 12:53:06.294483 39704 net.cpp:169] Creating Layer inception_5b/1x1
I0123 12:53:06.294492 39704 net.cpp:606] inception_5b/1x1 <- inception_5a/output_inception_5a/output_0_split_0
I0123 12:53:06.294502 39704 net.cpp:579] inception_5b/1x1 -> inception_5b/1x1
I0123 12:53:06.294509 39704 net.cpp:582] From AppendTop @cpu: 0
I0123 12:53:06.302163 39704 net.cpp:219] Setting up inception_5b/1x1
I0123 12:53:06.302214 39704 net.cpp:226] Top shape: 32 384 7 7 (602112)
I0123 12:53:06.302222 39704 net.cpp:234] Memory required for data: 1769613832
I0123 12:53:06.302233 39704 net.cpp:154] Setting up Layer of device :0 @cpu 0 Layer : inception_5b/relu_1x1
I0123 12:53:06.302242 39704 layer_factory.hpp:114] Creating layer inception_5b/relu_1x1
I0123 12:53:06.302250 39704 net.cpp:169] Creating Layer inception_5b/relu_1x1
I0123 12:53:06.302258 39704 net.cpp:606] inception_5b/relu_1x1 <- inception_5b/1x1
I0123 12:53:06.302268 39704 net.cpp:566] inception_5b/relu_1x1 -> inception_5b/1x1 (in-place)
I0123 12:53:06.302278 39704 net.cpp:219] Setting up inception_5b/relu_1x1
I0123 12:53:06.302286 39704 net.cpp:226] Top shape: 32 384 7 7 (602112)
I0123 12:53:06.302292 39704 net.cpp:234] Memory required for data: 1772022280
I0123 12:53:06.302300 39704 net.cpp:154] Setting up Layer of device :0 @cpu 0 Layer : inception_5b/3x3_reduce
I0123 12:53:06.302307 39704 layer_factory.hpp:114] Creating layer inception_5b/3x3_reduce
I0123 12:53:06.302321 39704 net.cpp:169] Creating Layer inception_5b/3x3_reduce
I0123 12:53:06.302330 39704 net.cpp:606] inception_5b/3x3_reduce <- inception_5a/output_inception_5a/output_0_split_1
I0123 12:53:06.302340 39704 net.cpp:579] inception_5b/3x3_reduce -> inception_5b/3x3_reduce
I0123 12:53:06.302346 39704 net.cpp:582] From AppendTop @cpu: 0
I0123 12:53:06.306083 39704 net.cpp:219] Setting up inception_5b/3x3_reduce
I0123 12:53:06.306098 39704 net.cpp:226] Top shape: 32 192 7 7 (301056)
I0123 12:53:06.306105 39704 net.cpp:234] Memory required for data: 1773226504
I0123 12:53:06.306118 39704 net.cpp:154] Setting up Layer of device :0 @cpu 0 Layer : inception_5b/relu_3x3_reduce
I0123 12:53:06.306125 39704 layer_factory.hpp:114] Creating layer inception_5b/relu_3x3_reduce
I0123 12:53:06.306138 39704 net.cpp:169] Creating Layer inception_5b/relu_3x3_reduce
I0123 12:53:06.306145 39704 net.cpp:606] inception_5b/relu_3x3_reduce <- inception_5b/3x3_reduce
I0123 12:53:06.306154 39704 net.cpp:566] inception_5b/relu_3x3_reduce -> inception_5b/3x3_reduce (in-place)
I0123 12:53:06.306165 39704 net.cpp:219] Setting up inception_5b/relu_3x3_reduce
I0123 12:53:06.306202 39704 net.cpp:226] Top shape: 32 192 7 7 (301056)
I0123 12:53:06.306210 39704 net.cpp:234] Memory required for data: 1774430728
I0123 12:53:06.306217 39704 net.cpp:154] Setting up Layer of device :0 @cpu 0 Layer : inception_5b/3x3
I0123 12:53:06.306224 39704 layer_factory.hpp:114] Creating layer inception_5b/3x3
I0123 12:53:06.306236 39704 net.cpp:169] Creating Layer inception_5b/3x3
I0123 12:53:06.306244 39704 net.cpp:606] inception_5b/3x3 <- inception_5b/3x3_reduce
I0123 12:53:06.306255 39704 net.cpp:579] inception_5b/3x3 -> inception_5b/3x3
I0123 12:53:06.306262 39704 net.cpp:582] From AppendTop @cpu: 0
I0123 12:53:06.321091 39704 net.cpp:219] Setting up inception_5b/3x3
I0123 12:53:06.321110 39704 net.cpp:226] Top shape: 32 384 7 7 (602112)
I0123 12:53:06.321116 39704 net.cpp:234] Memory required for data: 1776839176
I0123 12:53:06.321161 39704 net.cpp:154] Setting up Layer of device :0 @cpu 0 Layer : inception_5b/relu_3x3
…
I0123 12:53:06.661118 39704 net.cpp:226] Top shape: 50 64 14 14 (627200)
I0123 12:53:06.661125 39704 net.cpp:234] Memory required for data: 2363400412
I0123 12:53:06.661137 39704 net.cpp:154] Setting up Layer of device :0 @cpu 0 Layer : inception_4d/relu_5x5
I0123 12:53:06.661144 39704 layer_factory.hpp:114] Creating layer inception_4d/relu_5x5
I0123 12:53:06.661156 39704 net.cpp:169] Creating Layer inception_4d/relu_5x5
I0123 12:53:06.661164 39704 net.cpp:606] inception_4d/relu_5x5 <- inception_4d/5x5
I0123 12:53:06.661197 39704 net.cpp:566] inception_4d/relu_5x5 -> inception_4d/5x5 (in-place)
I0123 12:53:06.661209 39704 net.cpp:219] Setting up inception_4d/relu_5x5
I0123 12:53:06.661218 39704 net.cpp:226] Top shape: 50 64 14 14 (627200)
I0123 12:53:06.661224 39704 net.cpp:234] Memory required for data: 2365909212
I0123 12:53:06.661232 39704 net.cpp:154] Setting up Layer of device :0 @cpu 0 Layer : inception_4d/pool
I0123 12:53:06.661239 39704 layer_factory.hpp:114] Creating layer inception_4d/pool
I0123 12:53:06.661281 39704 net.cpp:169] Creating Layer inception_4d/pool
I0123 12:53:06.661291 39704 net.cpp:606] inception_4d/pool <- inception_4c/output_inception_4c/output_0_split_3
I0123 12:53:06.661303 39704 net.cpp:579] inception_4d/pool -> inception_4d/pool
I0123 12:53:06.661309 39704 net.cpp:582] From AppendTop @cpu: 0
I0123 12:53:06.661322 39704 net.cpp:219] Setting up inception_4d/pool
I0123 12:53:06.661331 39704 net.cpp:226] Top shape: 50 512 14 14 (5017600)
I0123 12:53:06.661339 39704 net.cpp:234] Memory required for data: 2385979612
I0123 12:53:06.661346 39704 net.cpp:154] Setting up Layer of device :0 @cpu 0 Layer : inception_4d/pool_proj
I0123 12:53:06.661352 39704 layer_factory.hpp:114] Creating layer inception_4d/pool_proj
I0123 12:53:06.661375 39704 net.cpp:169] Creating Layer inception_4d/pool_proj
I0123 12:53:06.661383 39704 net.cpp:606] inception_4d/pool_proj <- inception_4d/pool
I0123 12:53:06.661397 39704 net.cpp:579] inception_4d/pool_proj -> inception_4d/pool_proj
I0123 12:53:06.661406 39704 net.cpp:582] From AppendTop @cpu: 0
I0123 12:53:06.663763 39704 net.cpp:219] Setting up inception_4d/pool_proj
I0123 12:53:06.663780 39704 net.cpp:226] Top shape: 50 64 14 14 (627200)
I0123 12:53:06.663787 39704 net.cpp:234] Memory required for data: 2388488412
I0123 12:53:06.663800 39704 net.cpp:154] Setting up Layer of device :0 @cpu 0 Layer : inception_4d/relu_pool_proj
I0123 12:53:06.663806 39704 layer_factory.hpp:114] Creating layer inception_4d/relu_pool_proj
I0123 12:53:06.663815 39704 net.cpp:169] Creating Layer inception_4d/relu_pool_proj
I0123 12:53:06.663823 39704 net.cpp:606] inception_4d/relu_pool_proj <- inception_4d/pool_proj
I0123 12:53:06.663832 39704 net.cpp:566] inception_4d/relu_pool_proj -> inception_4d/pool_proj (in-place)
I0123 12:53:06.663842 39704 net.cpp:219] Setting up inception_4d/relu_pool_proj
I0123 12:53:06.663851 39704 net.cpp:226] Top shape: 50 64 14 14 (627200)
I0123 12:53:06.663858 39704 net.cpp:234] Memory required for data: 2390997212
I0123 12:53:06.663866 39704 net.cpp:154] Setting up Layer of device :0 @cpu 0 Layer : inception_4d/output
I0123 12:53:06.663872 39704 layer_factory.hpp:114] Creating layer inception_4d/output
I0123 12:53:06.663882 39704 net.cpp:169] Creating Layer inception_4d/output
I0123 12:53:06.663889 39704 net.cpp:606] inception_4d/output <- inception_4d/1x1
I0123 12:53:06.663907 39704 net.cpp:606] inception_4d/output <- inception_4d/3x3
I0123 12:53:06.663914 39704 net.cpp:606] inception_4d/output <- inception_4d/5x5
I0123 12:53:06.663923 39704 net.cpp:606] inception_4d/output <- inception_4d/pool_proj
I0123 12:53:06.663933 39704 net.cpp:579] inception_4d/output -> inception_4d/output
I0123 12:53:06.663940 39704 net.cpp:582] From AppendTop @cpu: 0
I0123 12:53:06.663952 39704 net.cpp:219] Setting up inception_4d/output
I0123 12:53:06.663961 39704 net.cpp:226] Top shape: 50 528 14 14 (5174400)
I0123 12:53:06.663969 39704 net.cpp:234] Memory required for data: 2411694812
I0123 12:53:06.663976 39704 net.cpp:154] Setting up Layer of device :0 @cpu 0 Layer : inception_4d/output_inception_4d/output_0_split
I0123 12:53:06.663983 39704 layer_factory.hpp:114] Creating layer inception_4d/output_inception_4d/output_0_split
I0123 12:53:06.664014 39704 net.cpp:169] Creating Layer inception_4d/output_inception_4d/output_0_split
…
I0123 12:53:06.664072 39704 net.cpp:582] From AppendTop @cpu: 0
I0123 12:53:06.664082 39704 net.cpp:579] inception_4d/output_inception_4d/output_0_split -> inception_4d/output_inception_4d/output_0_split_3
I0123 12:53:06.664088 39704 net.cpp:582] From AppendTop @cpu: 0
I0123 12:53:06.664099 39704 net.cpp:579] inception_4d/output_inception_4d/output_0_split -> inception_4d/output_inception_4d/output_0_split_4
I0123 12:53:06.664106 39704 net.cpp:582] From AppendTop @cpu: 0
I0123 12:53:06.664119 39704 net.cpp:219] Setting up inception_4d/output_inception_4d/output_0_split
I0123 12:53:06.664127 39704 net.cpp:226] Top shape: 50 528 14 14 (5174400)
I0123 12:53:06.664134 39704 net.cpp:226] Top shape: 50 528 14 14 (5174400)
I0123 12:53:06.664142 39704 net.cpp:226] Top shape: 50 528 14 14 (5174400)
I0123 12:53:06.664150 39704 net.cpp:226] Top shape: 50 528 14 14 (5174400)
I0123 12:53:06.664163 39704 net.cpp:226] Top shape: 50 528 14 14 (5174400)
I0123 12:53:06.664192 39704 net.cpp:234] Memory required for data: 2515182812
I0123 12:53:06.664202 39704 net.cpp:154] Setting up Layer of device :0 @cpu 0 Layer : loss2/ave_pool
I0123 12:53:06.664209 39704 layer_factory.hpp:114] Creating layer loss2/ave_pool
I0123 12:53:06.664234 39704 net.cpp:169] Creating Layer loss2/ave_pool
I0123 12:53:06.664244 39704 net.cpp:606] loss2/ave_pool <- inception_4d/output_inception_4d/output_0_split_0
I0123 12:53:06.664254 39704 net.cpp:579] loss2/ave_pool -> loss2/ave_pool
I0123 12:53:06.664261 39704 net.cpp:582] From AppendTop @cpu: 0
I0123 12:53:06.664273 39704 net.cpp:219] Setting up loss2/ave_pool
I0123 12:53:06.664283 39704 net.cpp:226] Top shape: 50 528 4 4 (422400)
I0123 12:53:06.664289 39704 net.cpp:234] Memory required for data: 2516872412
I0123 12:53:06.664297 39704 net.cpp:154] Setting up Layer of device :0 @cpu 0 Layer : loss2/conv
I0123 12:53:06.664304 39704 layer_factory.hpp:114] Creating layer loss2/conv
I0123 12:53:06.664319 39704 net.cpp:169] Creating Layer loss2/conv
I0123 12:53:06.664327 39704 net.cpp:606] loss2/conv <- loss2/ave_pool
I0123 12:53:06.664338 39704 net.cpp:579] loss2/conv -> loss2/conv
I0123 12:53:06.664345 39704 net.cpp:582] From AppendTop @cpu: 0
I0123 12:53:06.666239 39704 net.cpp:219] Setting up loss2/conv
I0123 12:53:06.666254 39704 net.cpp:226] Top shape: 50 128 4 4 (102400)
I0123 12:53:06.666261 39704 net.cpp:234] Memory required for data: 2517282012
I0123 12:53:06.666273 39704 net.cpp:154] Setting up Layer of device :0 @cpu 0 Layer : loss2/relu_conv
I0123 12:53:06.666290 39704 layer_factory.hpp:114] Creating layer loss2/relu_conv
I0123 12:53:06.666301 39704 net.cpp:169] Creating Layer loss2/relu_conv
I0123 12:53:06.666309 39704 net.cpp:606] loss2/relu_conv <- loss2/conv
I0123 12:53:06.666318 39704 net.cpp:566] loss2/relu_conv -> loss2/conv (in-place)
I0123 12:53:06.666328 39704 net.cpp:219] Setting up loss2/relu_conv
I0123 12:53:06.666337 39704 net.cpp:226] Top shape: 50 128 4 4 (102400)
I0123 12:53:06.666344 39704 net.cpp:234] Memory required for data: 2517691612
I0123 12:53:06.666352 39704 net.cpp:154] Setting up Layer of device :0 @cpu 0 Layer : loss2/fc
I0123 12:53:06.666359 39704 layer_factory.hpp:114] Creating layer loss2/fc
I0123 12:53:06.666374 39704 net.cpp:169] Creating Layer loss2/fc
I0123 12:53:06.666381 39704 net.cpp:606] loss2/fc <- loss2/conv
I0123 12:53:06.666391 39704 net.cpp:579] loss2/fc -> loss2/fc
I0123 12:53:06.666399 39704 net.cpp:582] From AppendTop @cpu: 0
I0123 12:53:06.684769 39704 net.cpp:219] Setting up loss2/fc
I0123 12:53:06.684823 39704 net.cpp:226] Top shape: 50 1024 (51200)
I0123 12:53:06.684830 39704 net.cpp:234] Memory required for data: 2517896412
I0123 12:53:06.684844 39704 net.cpp:154] Setting up Layer of device :0 @cpu 0 Layer : loss2/relu_fc
I0123 12:53:06.684851 39704 layer_factory.hpp:114] Creating layer loss2/relu_fc
I0123 12:53:06.684860 39704 net.cpp:169] Creating Layer loss2/relu_fc
I0123 12:53:06.684869 39704 net.cpp:606] loss2/relu_fc <- loss2/fc
I0123 12:53:06.684877 39704 net.cpp:566] loss2/relu_fc -> loss2/fc (in-place)
I0123 12:53:06.684888 39704 net.cpp:219] Setting up loss2/relu_fc
I0123 12:53:06.684896 39704 net.cpp:226] Top shape: 50 1024 (51200)
I0123 12:53:06.684903 39704 net.cpp:234] Memory required for data: 2518101212
I0123 12:53:06.684911 39704 net.cpp:154] Setting up Layer of device :0 @cpu 0 Layer : loss2/drop_fc
I0123 12:53:06.684918 39704 layer_factory.hpp:114] Creating layer loss2/drop_fc
I0123 12:53:06.684928 39704 net.cpp:169] Creating Layer loss2/drop_fc
I0123 12:53:06.684936 39704 net.cpp:606] loss2/drop_fc <- loss2/fc
I0123 12:53:06.684947 39704 net.cpp:566] loss2/drop_fc -> loss2/fc (in-place)
I0123 12:53:06.684958 39704 net.cpp:219] Setting up loss2/drop_fc
I0123 12:53:06.684967 39704 net.cpp:226] Top shape: 50 1024 (51200)
I0123 12:53:06.684973 39704 net.cpp:234] Memory required for data: 2518306012
I0123 12:53:06.684981 39704 net.cpp:154] Setting up Layer of device :0 @cpu 0 Layer : loss2/classifier
I0123 12:53:06.684996 39704 layer_factory.hpp:114] Creating layer loss2/classifier
I0123 12:53:06.685009 39704 net.cpp:169] Creating Layer loss2/classifier
I0123 12:53:06.685016 39704 net.cpp:606] loss2/classifier <- loss2/fc
I0123 12:53:06.685025 39704 net.cpp:579] loss2/classifier -> loss2/classifier
I0123 12:53:06.685032 39704 net.cpp:582] From AppendTop @cpu: 0
I0123 12:53:06.694327 39704 net.cpp:219] Setting up loss2/classifier
I0123 12:53:06.694350 39704 net.cpp:226] Top shape: 50 1000 (50000)
I0123 12:53:06.694356 39704 net.cpp:234] Memory required for data: 2518506012
I0123 12:53:06.694368 39704 net.cpp:154] Setting up Layer of device :0 @cpu 0 Layer : loss2/classifier_loss2/classifier_0_split
I0123 12:53:06.694376 39704 layer_factory.hpp:114] Creating layer loss2/classifier_loss2/classifier_0_split
I0123 12:53:06.694388 39704 net.cpp:169] Creating Layer loss2/classifier_loss2/classifier_0_split
I0123 12:53:06.694396 39704 net.cpp:606] loss2/classifier_loss2/classifier_0_split <- loss2/classifier
I0123 12:53:06.694406 39704 net.cpp:579] loss2/classifier_loss2/classifier_0_split -> loss2/classifier_loss2/classifier_0_split_0
I0123 12:53:06.694413 39704 net.cpp:582] From AppendTop @cpu: 0
I0123 12:53:06.694423 39704 net.cpp:579] loss2/classifier_loss2/classifier_0_split -> loss2/classifier_loss2/classifier_0_split_1
I0123 12:53:06.694430 39704 net.cpp:582] From AppendTop @cpu: 0
I0123 12:53:06.694442 39704 net.cpp:579] loss2/classifier_loss2/classifier_0_split -> loss2/classifier_loss2/classifier_0_split_2
I0123 12:53:06.694447 39704 net.cpp:582] From AppendTop @cpu: 0
I0123 12:53:06.694478 39704 net.cpp:219] Setting up loss2/classifier_loss2/classifier_0_split
I0123 12:53:06.694488 39704 net.cpp:226] Top shape: 50 1000 (50000)
I0123 12:53:06.694495 39704 net.cpp:226] Top shape: 50 1000 (50000)
I0123 12:53:06.694502 39704 net.cpp:226] Top shape: 50 1000 (50000)
I0123 12:53:06.694509 39704 net.cpp:234] Memory required for data: 2519106012
I0123 12:53:06.694517 39704 net.cpp:154] Setting up Layer of device :0 @cpu 0 Layer : loss2/loss
I0123 12:53:06.694525 39704 layer_factory.hpp:114] Creating layer loss2/loss
I0123 12:53:06.694535 39704 net.cpp:169] Creating Layer loss2/loss
I0123 12:53:06.694543 39704 net.cpp:606] loss2/loss <- loss2/classifier_loss2/classifier_0_split_0
…
I0123 12:53:06.694941 39704 net.cpp:154] Setting up Layer of device :0 @cpu 0 Layer : inception_4e/1x1
I0123 12:53:06.694948 39704 layer_factory.hpp:114] Creating layer inception_4e/1x1
I0123 12:53:06.694964 39704 net.cpp:169] Creating Layer inception_4e/1x1
I0123 12:53:06.694972 39704 net.cpp:606] inception_4e/1x1 <- inception_4d/output_inception_4d/output_0_split_1
I0123 12:53:06.694983 39704 net.cpp:579] inception_4e/1x1 -> inception_4e/1x1
I0123 12:53:06.694990 39704 net.cpp:582] From AppendTop @cpu: 0
I0123 12:53:06.699990 39704 net.cpp:219] Setting up inception_4e/1x1
I0123 12:53:06.700004 39704 net.cpp:226] Top shape: 50 256 14 14 (2508800)
I0123 12:53:06.700011 39704 net.cpp:234] Memory required for data: 2529141224
I0123 12:53:06.700023 39704 net.cpp:154] Setting up Layer of device :0 @cpu 0 Layer : inception_4e/relu_1x1
I0123 12:53:06.700031 39704 layer_factory.hpp:114] Creating layer inception_4e/relu_1x1
I0123 12:53:06.700040 39704 net.cpp:169] Creating Layer inception_4e/relu_1x1
I0123 12:53:06.700050 39704 net.cpp:606] inception_4e/relu_1x1 <- inception_4e/1x1
I0123 12:53:06.700059 39704 net.cpp:566] inception_4e/relu_1x1 -> inception_4e/1x1 (in-place)
I0123 12:53:06.700070 39704 net.cpp:219] Setting up inception_4e/relu_1x1
I0123 12:53:06.700078 39704 net.cpp:226] Top shape: 50 256 14 14 (2508800)
I0123 12:53:06.700094 39704 net.cpp:234] Memory required for data: 2539176424
I0123 12:53:06.700103 39704 net.cpp:154] Setting up Layer of device :0 @cpu 0 Layer : inception_4e/3x3_reduce
I0123 12:53:06.700109 39704 layer_factory.hpp:114] Creating layer inception_4e/3x3_reduce
I0123 12:53:06.700129 39704 net.cpp:169] Creating Layer inception_4e/3x3_reduce
I0123 12:53:06.700137 39704 net.cpp:606] inception_4e/3x3_reduce <- inception_4d/output_inception_4d/output_0_split_2
I0123 12:53:06.700150 39704 net.cpp:579] inception_4e/3x3_reduce -> inception_4e/3x3_reduce
I0123 12:53:06.700157 39704 net.cpp:582] From AppendTop @cpu: 0
I0123 12:53:06.703663 39704 net.cpp:219] Setting up inception_4e/3x3_reduce
I0123 12:53:06.703680 39704 net.cpp:226] Top shape: 50 160 14 14 (1568000)
I0123 12:53:06.703686 39704 net.cpp:234] Memory required for data: 2545448424
I0123 12:53:06.703698 39704 net.cpp:154] Setting up Layer of device :0 @cpu 0 Layer : inception_4e/relu_3x3_reduce
I0123 12:53:06.703706 39704 layer_factory.hpp:114] Creating layer inception_4e/relu_3x3_reduce
I0123 12:53:06.703716 39704 net.cpp:169] Creating Layer inception_4e/relu_3x3_reduce
I0123 12:53:06.703723 39704 net.cpp:606] inception_4e/relu_3x3_reduce <- inception_4e/3x3_reduce
I0123 12:53:06.703732 39704 net.cpp:566] inception_4e/relu_3x3_reduce -> inception_4e/3x3_reduce (in-place)
I0123 12:53:06.703742 39704 net.cpp:219] Setting up inception_4e/relu_3x3_reduce
I0123 12:53:06.703752 39704 net.cpp:226] Top shape: 50 160 14 14 (1568000)
I0123 12:53:06.703758 39704 net.cpp:234] Memory required for data: 2551720424
I0123 12:53:06.703766 39704 net.cpp:154] Setting up Layer of device :0 @cpu 0 Layer : inception_4e/3x3
I0123 12:53:06.703773 39704 layer_factory.hpp:114] Creating layer inception_4e/3x3
I0123 12:53:06.703786 39704 net.cpp:169] Creating Layer inception_4e/3x3
I0123 12:53:06.703795 39704 net.cpp:606] inception_4e/3x3 <- inception_4e/3x3_reduce
I0123 12:53:06.703804 39704 net.cpp:579] inception_4e/3x3 -> inception_4e/3x3
I0123 12:53:06.703811 39704 net.cpp:582] From AppendTop @cpu: 0
I0123 12:53:06.716719 39704 net.cpp:219] Setting up inception_4e/3x3
I0123 12:53:06.716758 39704 net.cpp:226] Top shape: 50 320 14 14 (3136000)
I0123 12:53:06.716764 39704 net.cpp:234] Memory required for data: 2564264424
I0123 12:53:06.716776 39704 net.cpp:154] Setting up Layer of device :0 @cpu 0 Layer : inception_4e/relu_3x3
I0123 12:53:06.716784 39704 layer_factory.hpp:114] Creating layer inception_4e/relu_3x3
I0123 12:53:06.716799 39704 net.cpp:169] Creating Layer inception_4e/relu_3x3
I0123 12:53:06.716811 39704 net.cpp:606] inception_4e/relu_3x3 <- inception_4e/3x3
I0123 12:53:06.716821 39704 net.cpp:566] inception_4e/relu_3x3 -> inception_4e/3x3 (in-place)
I0123 12:53:06.716831 39704 net.cpp:219] Setting up inception_4e/relu_3x3
I0123 12:53:06.716840 39704 net.cpp:226] Top shape: 50 320 14 14 (3136000)
I0123 12:53:06.716847 39704 net.cpp:234] Memory required for data: 2576808424
I0123 12:53:06.716856 39704 net.cpp:154] Setting up Layer of device :0 @cpu 0 Layer : inception_4e/5x5_reduce
I0123 12:53:06.716862 39704 layer_factory.hpp:114] Creating layer inception_4e/5x5_reduce
I0123 12:53:06.716876 39704 net.cpp:169] Creating Layer inception_4e/5x5_reduce
I0123 12:53:06.716884 39704 net.cpp:606] inception_4e/5x5_reduce <- inception_4d/output_inception_4d/output_0_split_3
I0123 12:53:06.716894 39704 net.cpp:579] inception_4e/5x5_reduce -> inception_4e/5x5_reduce
I0123 12:53:06.716902 39704 net.cpp:582] From AppendTop @cpu: 0
I0123 12:53:06.718683 39704 net.cpp:219] Setting up inception_4e/5x5_reduce
I0123 12:53:06.718698 39704 net.cpp:226] Top shape: 50 32 14 14 (313600)
I0123 12:53:06.718703 39704 net.cpp:234] Memory required for data: 2578062824
I0123 12:53:06.718715 39704 net.cpp:154] Setting up Layer of device :0 @cpu 0 Layer : inception_4e/relu_5x5_reduce
I0123 12:53:06.718722 39704 layer_factory.hpp:114] Creating layer inception_4e/relu_5x5_reduce
I0123 12:53:06.718732 39704 net.cpp:169] Creating Layer inception_4e/relu_5x5_reduce
I0123 12:53:06.718740 39704 net.cpp:606] inception_4e/relu_5x5_reduce <- inception_4e/5x5_reduce
I0123 12:53:06.718760 39704 net.cpp:566] inception_4e/relu_5x5_reduce -> inception_4e/5x5_reduce (in-place)
I0123 12:53:06.718772 39704 net.cpp:219] Setting up inception_4e/relu_5x5_reduce
I0123 12:53:06.718781 39704 net.cpp:226] Top shape: 50 32 14 14 (313600)
I0123 12:53:06.718787 39704 net.cpp:234] Memory required for data: 2579317224
I0123 12:53:06.718796 39704 net.cpp:154] Setting up Layer of device :0 @cpu 0 Layer : inception_4e/5x5
I0123 12:53:06.718802 39704 layer_factory.hpp:114] Creating layer inception_4e/5x5
I0123 12:53:06.718816 39704 net.cpp:169] Creating Layer inception_4e/5x5
I0123 12:53:06.718824 39704 net.cpp:606] inception_4e/5x5 <- inception_4e/5x5_reduce
I0123 12:53:06.718834 39704 net.cpp:579] inception_4e/5x5 -> inception_4e/5x5
I0123 12:53:06.718842 39704 net.cpp:582] From AppendTop @cpu: 0
I0123 12:53:06.723248 39704 net.cpp:219] Setting up inception_4e/5x5
I0123 12:53:06.723263 39704 net.cpp:226] Top shape: 50 128 14 14 (1254400)
I0123 12:53:06.723270 39704 net.cpp:234] Memory required for data: 2584334824
I0123 12:53:06.723282 39704 net.cpp:154] Setting up Layer of device :0 @cpu 0 Layer : inception_4e/relu_5x5
I0123 12:53:06.723289 39704 layer_factory.hpp:114] Creating layer inception_4e/relu_5x5
I0123 12:53:06.723299 39704 net.cpp:169] Creating Layer inception_4e/relu_5x5
I0123 12:53:06.723306 39704 net.cpp:606] inception_4e/relu_5x5 <- inception_4e/5x5
I0123 12:53:06.723318 39704 net.cpp:566] inception_4e/relu_5x5 -> inception_4e/5x5 (in-place)
I0123 12:53:06.723330 39704 net.cpp:219] Setting up inception_4e/relu_5x5
I0123 12:53:06.723338 39704 net.cpp:226] Top shape: 50 128 14 14 (1254400)
I0123 12:53:06.723345 39704 net.cpp:234] Memory required for data: 2589352424
I0123 12:53:06.723352 39704 net.cpp:154] Setting up Layer of device :0 @cpu 0 Layer : inception_4e/pool
I0123 12:53:06.723359 39704 layer_factory.hpp:114] Creating layer inception_4e/pool
I0123 12:53:06.723440 39704 net.cpp:169] Creating Layer inception_4e/pool
I0123 12:53:06.723450 39704 net.cpp:606] inception_4e/pool <- inception_4d/output_inception_4d/output_0_split_4
I0123 12:53:06.723462 39704 net.cpp:579] inception_4e/pool -> inception_4e/pool
I0123 12:53:06.723469 39704 net.cpp:582] From AppendTop @cpu: 0
I0123 12:53:06.723482 39704 net.cpp:219] Setting up inception_4e/pool
I0123 12:53:06.723491 39704 net.cpp:226] Top shape: 50 528 14 14 (5174400)
I0123 12:53:06.723503 39704 net.cpp:234] Memory required for data: 2610050024
I0123 12:53:06.723512 39704 net.cpp:154] Setting up Layer of device :0 @cpu 0 Layer : inception_4e/pool_proj
I0123 12:53:06.723520 39704 layer_factory.hpp:114] Creating layer inception_4e/pool_proj
I0123 12:53:06.723533 39704 net.cpp:169] Creating Layer inception_4e/pool_proj
I0123 12:53:06.723541 39704 net.cpp:606] inception_4e/pool_proj <- inception_4e/pool
I0123 12:53:06.723553 39704 net.cpp:579] inception_4e/pool_proj -> inception_4e/pool_proj
I0123 12:53:06.723561 39704 net.cpp:582] From AppendTop @cpu: 0
I0123 12:53:06.726608 39704 net.cpp:219] Setting up inception_4e/pool_proj
I0123 12:53:06.726622 39704 net.cpp:226] Top shape: 50 128 14 14 (1254400)
I0123 12:53:06.726629 39704 net.cpp:234] Memory required for data: 2615067624
I0123 12:53:06.726641 39704 net.cpp:154] Setting up Layer of device :0 @cpu 0 Layer : inception_4e/relu_pool_proj
I0123 12:53:06.726649 39704 layer_factory.hpp:114] Creating layer inception_4e/relu_pool_proj
I0123 12:53:06.726660 39704 net.cpp:169] Creating Layer inception_4e/relu_pool_proj
I0123 12:53:06.726668 39704 net.cpp:606] inception_4e/relu_pool_proj <- inception_4e/pool_proj
I0123 12:53:06.726677 39704 net.cpp:566] inception_4e/relu_pool_proj -> inception_4e/pool_proj (in-place)
I0123 12:53:06.726687 39704 net.cpp:219] Setting up inception_4e/relu_pool_proj
I0123 12:53:06.726696 39704 net.cpp:226] Top shape: 50 128 14 14 (1254400)
I0123 12:53:06.726702 39704 net.cpp:234] Memory required for data: 2620085224
I0123 12:53:06.726711 39704 net.cpp:154] Setting up Layer of device :0 @cpu 0 Layer : inception_4e/output
I0123 12:53:06.726727 39704 layer_factory.hpp:114] Creating layer inception_4e/output
I0123 12:53:06.726737 39704 net.cpp:169] Creating Layer inception_4e/output
I0123 12:53:06.726744 39704 net.cpp:606] inception_4e/output <- inception_4e/1x1
I0123 12:53:06.726753 39704 net.cpp:606] inception_4e/output <- inception_4e/3x3
I0123 12:53:06.726761 39704 net.cpp:606] inception_4e/output <- inception_4e/5x5
I0123 12:53:06.726769 39704 net.cpp:606] inception_4e/output <- inception_4e/pool_proj
I0123 12:53:06.726778 39704 net.cpp:579] inception_4e/output -> inception_4e/output
I0123 12:53:06.726785 39704 net.cpp:582] From AppendTop @cpu: 0
I0123 12:53:06.726797 39704 net.cpp:219] Setting up inception_4e/output
I0123 12:53:06.726806 39704 net.cpp:226] Top shape: 50 832 14 14 (8153600)
I0123 12:53:06.726812 39704 net.cpp:234] Memory required for data: 2652699624
I0123 12:53:06.726820 39704 net.cpp:154] Setting up Layer of device :0 @cpu 0 Layer : pool4/3x3_s2
I0123 12:53:06.726827 39704 layer_factory.hpp:114] Creating layer pool4/3x3_s2
I0123 12:53:06.726856 39704 net.cpp:169] Creating Layer pool4/3x3_s2
I0123 12:53:06.726866 39704 net.cpp:606] pool4/3x3_s2 <- inception_4e/output
I0123 12:53:06.726877 39704 net.cpp:579] pool4/3x3_s2 -> pool4/3x3_s2
I0123 12:53:06.726884 39704 net.cpp:582] From AppendTop @cpu: 0
I0123 12:53:06.726897 39704 net.cpp:219] Setting up pool4/3x3_s2
I0123 12:53:06.726905 39704 net.cpp:226] Top shape: 50 832 7 7 (2038400)
I0123 12:53:06.726912 39704 net.cpp:234] Memory required for data: 2660853224
I0123 12:53:06.726920 39704 net.cpp:154] Setting up Layer of device :0 @cpu 0 Layer : pool4/3x3_s2_pool4/3x3_s2_0_split
I0123 12:53:06.726927 39704 layer_factory.hpp:114] Creating layer pool4/3x3_s2_pool4/3x3_s2_0_split
I0123 12:53:06.726936 39704 net.cpp:169] Creating Layer pool4/3x3_s2_pool4/3x3_s2_0_split
I0123 12:53:06.726944 39704 net.cpp:606] pool4/3x3_s2_pool4/3x3_s2_0_split <- pool4/3x3_s2
I0123 12:53:06.726953 39704 net.cpp:579] pool4/3x3_s2_pool4/3x3_s2_0_split -> pool4/3x3_s2_pool4/3x3_s2_0_split_0
I0123 12:53:06.726959 39704 net.cpp:582] From AppendTop @cpu: 0
I0123 12:53:06.726969 39704 net.cpp:579] pool4/3x3_s2_pool4/3x3_s2_0_split -> pool4/3x3_s2_pool4/3x3_s2_0_split_1
I0123 12:53:06.726975 39704 net.cpp:582] From AppendTop @cpu: 0
I0123 12:53:06.726985 39704 net.cpp:579] pool4/3x3_s2_pool4/3x3_s2_0_split -> pool4/3x3_s2_pool4/3x3_s2_0_split_2
I0123 12:53:06.726992 39704 net.cpp:582] From AppendTop @cpu: 0
I0123 12:53:06.727020 39704 net.cpp:579] pool4/3x3_s2_pool4/3x3_s2_0_split -> pool4/3x3_s2_pool4/3x3_s2_0_split_3
I0123 12:53:06.727027 39704 net.cpp:582] From AppendTop @cpu: 0
I0123 12:53:06.727038 39704 net.cpp:219] Setting up pool4/3x3_s2_pool4/3x3_s2_0_split
I0123 12:53:06.727047 39704 net.cpp:226] Top shape: 50 832 7 7 (2038400)
I0123 12:53:06.727056 39704 net.cpp:226] Top shape: 50 832 7 7 (2038400)
I0123 12:53:06.727067 39704 net.cpp:226] Top shape: 50 832 7 7 (2038400)
I0123 12:53:06.727075 39704 net.cpp:226] Top shape: 50 832 7 7 (2038400)
I0123 12:53:06.727082 39704 net.cpp:234] Memory required for data: 2693467624
I0123 12:53:06.727090 39704 net.cpp:154] Setting up Layer of device :0 @cpu 0 Layer : inception_5a/1x1
I0123 12:53:06.727097 39704 layer_factory.hpp:114] Creating layer inception_5a/1x1
I0123 12:53:06.727109 39704 net.cpp:169] Creating Layer inception_5a/1x1
I0123 12:53:06.727118 39704 net.cpp:606] inception_5a/1x1 <- pool4/3x3_s2_pool4/3x3_s2_0_split_0
I0123 12:53:06.727128 39704 net.cpp:579] inception_5a/1x1 -> inception_5a/1x1
I0123 12:53:06.727134 39704 net.cpp:582] From AppendTop @cpu: 0
I0123 12:53:06.732239 39704 net.cpp:219] Setting up inception_5a/1x1
I0123 12:53:06.732254 39704 net.cpp:226] Top shape: 50 256 7 7 (627200)
I0123 12:53:06.732260 39704 net.cpp:234] Memory required for data: 2695976424
I0123 12:53:06.732273 39704 net.cpp:154] Setting up Layer of device :0 @cpu 0 Layer : inception_5a/relu_1x1
I0123 12:53:06.732280 39704 layer_factory.hpp:114] Creating layer inception_5a/relu_1x1
I0123 12:53:06.732290 39704 net.cpp:169] Creating Layer inception_5a/relu_1x1
I0123 12:53:06.732306 39704 net.cpp:606] inception_5a/relu_1x1 <- inception_5a/1x1
I0123 12:53:06.732316 39704 net.cpp:566] inception_5a/relu_1x1 -> inception_5a/1x1 (in-place)
I0123 12:53:06.732326 39704 net.cpp:219] Setting up inception_5a/relu_1x1
I0123 12:53:06.732336 39704 net.cpp:226] Top shape: 50 256 7 7 (627200)
I0123 12:53:06.732342 39704 net.cpp:234] Memory required for data: 2698485224
I0123 12:53:06.732349 39704 net.cpp:154] Setting up Layer of device :0 @cpu 0 Layer : inception_5a/3x3_reduce
I0123 12:53:06.732357 39704 layer_factory.hpp:114] Creating layer inception_5a/3x3_reduce
I0123 12:53:06.732370 39704 net.cpp:169] Creating Layer inception_5a/3x3_reduce
I0123 12:53:06.732378 39704 net.cpp:606] inception_5a/3x3_reduce <- pool4/3x3_s2_pool4/3x3_s2_0_split_1
I0123 12:53:06.732389 39704 net.cpp:579] inception_5a/3x3_reduce -> inception_5a/3x3_reduce
I0123 12:53:06.732396 39704 net.cpp:582] From AppendTop @cpu: 0
I0123 12:53:06.735880 39704 net.cpp:219] Setting up inception_5a/3x3_reduce
I0123 12:53:06.735896 39704 net.cpp:226] Top shape: 50 160 7 7 (392000)
I0123 12:53:06.735903 39704 net.cpp:234] Memory required for data: 2700053224
I0123 12:53:06.735914 39704 net.cpp:154] Setting up Layer of device :0 @cpu 0 Layer : inception_5a/relu_3x3_reduce
I0123 12:53:06.735923 39704 layer_factory.hpp:114] Creating layer inception_5a/relu_3x3_reduce
I0123 12:53:06.735931 39704 net.cpp:169] Creating Layer inception_5a/relu_3x3_reduce
I0123 12:53:06.735939 39704 net.cpp:606] inception_5a/relu_3x3_reduce <- inception_5a/3x3_reduce
I0123 12:53:06.735950 39704 net.cpp:566] inception_5a/relu_3x3_reduce -> inception_5a/3x3_reduce (in-place)
I0123 12:53:06.735961 39704 net.cpp:219] Setting up inception_5a/relu_3x3_reduce
I0123 12:53:06.735970 39704 net.cpp:226] Top shape: 50 160 7 7 (392000)
I0123 12:53:06.735976 39704 net.cpp:234] Memory required for data: 2701621224
I0123 12:53:06.735985 39704 net.cpp:154] Setting up Layer of device :0 @cpu 0 Layer : inception_5a/3x3
I0123 12:53:06.735991 39704 layer_factory.hpp:114] Creating layer inception_5a/3x3
I0123 12:53:06.736002 39704 net.cpp:169] Creating Layer inception_5a/3x3
I0123 12:53:06.736011 39704 net.cpp:606] inception_5a/3x3 <- inception_5a/3x3_reduce
I0123 12:53:06.736021 39704 net.cpp:579] inception_5a/3x3 -> inception_5a/3x3
I0123 12:53:06.736027 39704 net.cpp:582] From AppendTop @cpu: 0
I0123 12:53:06.746639 39704 net.cpp:219] Setting up inception_5a/3x3
I0123 12:53:06.746660 39704 net.cpp:226] Top shape: 50 320 7 7 (784000)
I0123 12:53:06.746667 39704 net.cpp:234] Memory required for data: 2704757224
I0123 12:53:06.746680 39704 net.cpp:154] Setting up Layer of device :0 @cpu 0 Layer : inception_5a/relu_3x3
I0123 12:53:06.746686 39704 layer_factory.hpp:114] Creating layer inception_5a/relu_3x3
I0123 12:53:06.746696 39704 net.cpp:169] Creating Layer inception_5a/relu_3x3
I0123 12:53:06.746704 39704 net.cpp:606] inception_5a/relu_3x3 <- inception_5a/3x3
I0123 12:53:06.746713 39704 net.cpp:566] inception_5a/relu_3x3 -> inception_5a/3x3 (in-place)
I0123 12:53:06.746723 39704 net.cpp:219] Setting up inception_5a/relu_3x3
I0123 12:53:06.746732 39704 net.cpp:226] Top shape: 50 320 7 7 (784000)
I0123 12:53:06.746738 39704 net.cpp:234] Memory required for data: 2707893224
I0123 12:53:06.746747 39704 net.cpp:154] Setting up Layer of device :0 @cpu 0 Layer : inception_5a/5x5_reduce
I0123 12:53:06.746753 39704 layer_factory.hpp:114] Creating layer inception_5a/5x5_reduce
I0123 12:53:06.746768 39704 net.cpp:169] Creating Layer inception_5a/5x5_reduce
I0123 12:53:06.746778 39704 net.cpp:606] inception_5a/5x5_reduce <- pool4/3x3_s2_pool4/3x3_s2_0_split_2
I0123 12:53:06.746786 39704 net.cpp:579] inception_5a/5x5_reduce -> inception_5a/5x5_reduce
I0123 12:53:06.746795 39704 net.cpp:582] From AppendTop @cpu: 0
I0123 12:53:06.747886 39704 net.cpp:219] Setting up inception_5a/5x5_reduce
I0123 12:53:06.747901 39704 net.cpp:226] Top shape: 50 32 7 7 (78400)
I0123 12:53:06.747908 39704 net.cpp:234] Memory required for data: 2708206824
I0123 12:53:06.747920 39704 net.cpp:154] Setting up Layer of device :0 @cpu 0 Layer : inception_5a/relu_5x5_reduce
I0123 12:53:06.747936 39704 layer_factory.hpp:114] Creating layer inception_5a/relu_5x5_reduce
I0123 12:53:06.747946 39704 net.cpp:169] Creating Layer inception_5a/relu_5x5_reduce
I0123 12:53:06.747953 39704 net.cpp:606] inception_5a/relu_5x5_reduce <- inception_5a/5x5_reduce
I0123 12:53:06.747962 39704 net.cpp:566] inception_5a/relu_5x5_reduce -> inception_5a/5x5_reduce (in-place)
I0123 12:53:06.747972 39704 net.cpp:219] Setting up inception_5a/relu_5x5_reduce
I0123 12:53:06.747982 39704 net.cpp:226] Top shape: 50 32 7 7 (78400)
I0123 12:53:06.747988 39704 net.cpp:234] Memory required for data: 2708520424
I0123 12:53:06.747997 39704 net.cpp:154] Setting up Layer of device :0 @cpu 0 Layer : inception_5a/5x5
I0123 12:53:06.748003 39704 layer_factory.hpp:114] Creating layer inception_5a/5x5
I0123 12:53:06.748018 39704 net.cpp:169] Creating Layer inception_5a/5x5
I0123 12:53:06.748025 39704 net.cpp:606] inception_5a/5x5 <- inception_5a/5x5_reduce
I0123 12:53:06.748037 39704 net.cpp:579] inception_5a/5x5 -> inception_5a/5x5
I0123 12:53:06.748044 39704 net.cpp:582] From AppendTop @cpu: 0
I0123 12:53:06.750813 39704 net.cpp:219] Setting up inception_5a/5x5
I0123 12:53:06.750844 39704 net.cpp:226] Top shape: 50 128 7 7 (313600)
I0123 12:53:06.750850 39704 net.cpp:234] Memory required for data: 2709774824
I0123 12:53:06.750862 39704 net.cpp:154] Setting up Layer of device :0 @cpu 0 Layer : inception_5a/relu_5x5
I0123 12:53:06.750870 39704 layer_factory.hpp:114] Creating layer inception_5a/relu_5x5
I0123 12:53:06.750882 39704 net.cpp:169] Creating Layer inception_5a/relu_5x5
I0123 12:53:06.750890 39704 net.cpp:606] inception_5a/relu_5x5 <- inception_5a/5x5
I0123 12:53:06.750900 39704 net.cpp:566] inception_5a/relu_5x5 -> inception_5a/5x5 (in-place)
I0123 12:53:06.750910 39704 net.cpp:219] Setting up inception_5a/relu_5x5
I0123 12:53:06.750918 39704 net.cpp:226] Top shape: 50 128 7 7 (313600)
I0123 12:53:06.750924 39704 net.cpp:234] Memory required for data: 2711029224
I0123 12:53:06.750932 39704 net.cpp:154] Setting up Layer of device :0 @cpu 0 Layer : inception_5a/pool
I0123 12:53:06.750939 39704 layer_factory.hpp:114] Creating layer inception_5a/pool
I0123 12:53:06.750977 39704 net.cpp:169] Creating Layer inception_5a/pool
I0123 12:53:06.750988 39704 net.cpp:606] inception_5a/pool <- pool4/3x3_s2_pool4/3x3_s2_0_split_3
I0123 12:53:06.751003 39704 net.cpp:579] inception_5a/pool -> inception_5a/pool
I0123 12:53:06.751010 39704 net.cpp:582] From AppendTop @cpu: 0
I0123 12:53:06.751022 39704 net.cpp:219] Setting up inception_5a/pool
I0123 12:53:06.751032 39704 net.cpp:226] Top shape: 50 832 7 7 (2038400)
I0123 12:53:06.751039 39704 net.cpp:234] Memory required for data: 2719182824
I0123 12:53:06.751047 39704 net.cpp:154] Setting up Layer of device :0 @cpu 0 Layer : inception_5a/pool_proj
I0123 12:53:06.751054 39704 layer_factory.hpp:114] Creating layer inception_5a/pool_proj
I0123 12:53:06.751068 39704 net.cpp:169] Creating Layer inception_5a/pool_proj
I0123 12:53:06.751077 39704 net.cpp:606] inception_5a/pool_proj <- inception_5a/pool
I0123 12:53:06.751090 39704 net.cpp:579] inception_5a/pool_proj -> inception_5a/pool_proj
I0123 12:53:06.751096 39704 net.cpp:582] From AppendTop @cpu: 0
I0123 12:53:06.753929 39704 net.cpp:219] Setting up inception_5a/pool_proj
I0123 12:53:06.753952 39704 net.cpp:226] Top shape: 50 128 7 7 (313600)
I0123 12:53:06.753958 39704 net.cpp:234] Memory required for data: 2720437224
I0123 12:53:06.753970 39704 net.cpp:154] Setting up Layer of device :0 @cpu 0 Layer : inception_5a/relu_pool_proj
I0123 12:53:06.753978 39704 layer_factory.hpp:114] Creating layer inception_5a/relu_pool_proj
I0123 12:53:06.753988 39704 net.cpp:169] Creating Layer inception_5a/relu_pool_proj
I0123 12:53:06.753996 39704 net.cpp:606] inception_5a/relu_pool_proj <- inception_5a/pool_proj
I0123 12:53:06.754005 39704 net.cpp:566] inception_5a/relu_pool_proj -> inception_5a/pool_proj (in-place)
I0123 12:53:06.754016 39704 net.cpp:219] Setting up inception_5a/relu_pool_proj
I0123 12:53:06.754040 39704 net.cpp:226] Top shape: 50 128 7 7 (313600)
I0123 12:53:06.754047 39704 net.cpp:234] Memory required for data: 2721691624
I0123 12:53:06.754055 39704 net.cpp:154] Setting up Layer of device :0 @cpu 0 Layer : inception_5a/output
I0123 12:53:06.754062 39704 layer_factory.hpp:114] Creating layer inception_5a/output
I0123 12:53:06.754071 39704 net.cpp:169] Creating Layer inception_5a/output
I0123 12:53:06.754079 39704 net.cpp:606] inception_5a/output <- inception_5a/1x1
I0123 12:53:06.754087 39704 net.cpp:606] inception_5a/output <- inception_5a/3x3
I0123 12:53:06.754096 39704 net.cpp:606] inception_5a/output <- inception_5a/5x5
I0123 12:53:06.754103 39704 net.cpp:606] inception_5a/output <- inception_5a/pool_proj
I0123 12:53:06.754112 39704 net.cpp:579] inception_5a/output -> inception_5a/output
I0123 12:53:06.754119 39704 net.cpp:582] From AppendTop @cpu: 0
I0123 12:53:06.754130 39704 net.cpp:219] Setting up inception_5a/output
I0123 12:53:06.754139 39704 net.cpp:226] Top shape: 50 832 7 7 (2038400)
I0123 12:53:06.754146 39704 net.cpp:234] Memory required for data: 2729845224
I0123 12:53:06.754154 39704 net.cpp:154] Setting up Layer of device :0 @cpu 0 Layer : inception_5a/output_inception_5a/output_0_split
I0123 12:53:06.754160 39704 layer_factory.hpp:114] Creating layer inception_5a/output_inception_5a/output_0_split
I0123 12:53:06.754169 39704 net.cpp:169] Creating Layer inception_5a/output_inception_5a/output_0_split
…
I0123 12:53:06.754238 39704 net.cpp:582] From AppendTop @cpu: 0
I0123 12:53:06.754248 39704 net.cpp:579] inception_5a/output_inception_5a/output_0_split -> inception_5a/output_inception_5a/output_0_split_2
I0123 12:53:06.754256 39704 net.cpp:582] From AppendTop @cpu: 0
I0123 12:53:06.754266 39704 net.cpp:579] inception_5a/output_inception_5a/output_0_split -> inception_5a/output_inception_5a/output_0_split_3
I0123 12:53:06.754272 39704 net.cpp:582] From AppendTop @cpu: 0
I0123 12:53:06.754282 39704 net.cpp:219] Setting up inception_5a/output_inception_5a/output_0_split
I0123 12:53:06.754297 39704 net.cpp:226] Top shape: 50 832 7 7 (2038400)
I0123 12:53:06.754304 39704 net.cpp:226] Top shape: 50 832 7 7 (2038400)
I0123 12:53:06.754312 39704 net.cpp:226] Top shape: 50 832 7 7 (2038400)
I0123 12:53:06.754320 39704 net.cpp:226] Top shape: 50 832 7 7 (2038400)
I0123 12:53:06.754326 39704 net.cpp:234] Memory required for data: 2762459624
I0123 12:53:06.754334 39704 net.cpp:154] Setting up Layer of device :0 @cpu 0 Layer : inception_5b/1x1
I0123 12:53:06.754341 39704 layer_factory.hpp:114] Creating layer inception_5b/1x1
I0123 12:53:06.754355 39704 net.cpp:169] Creating Layer inception_5b/1x1
I0123 12:53:06.754364 39704 net.cpp:606] inception_5b/1x1 <- inception_5a/output_inception_5a/output_0_split_0
I0123 12:53:06.754374 39704 net.cpp:579] inception_5b/1x1 -> inception_5b/1x1
I0123 12:53:06.754381 39704 net.cpp:582] From AppendTop @cpu: 0
I0123 12:53:06.761286 39704 net.cpp:219] Setting up inception_5b/1x1
I0123 12:53:06.761307 39704 net.cpp:226] Top shape: 50 384 7 7 (940800)
I0123 12:53:06.761313 39704 net.cpp:234] Memory required for data: 2766222824
I0123 12:53:06.761325 39704 net.cpp:154] Setting up Layer of device :0 @cpu 0 Layer : inception_5b/relu_1x1
I0123 12:53:06.761332 39704 layer_factory.hpp:114] Creating layer inception_5b/relu_1x1
I0123 12:53:06.761343 39704 net.cpp:169] Creating Layer inception_5b/relu_1x1
I0123 12:53:06.761353 39704 net.cpp:606] inception_5b/relu_1x1 <- inception_5b/1x1
I0123 12:53:06.761361 39704 net.cpp:566] inception_5b/relu_1x1 -> inception_5b/1x1 (in-place)
I0123 12:53:06.761380 39704 net.cpp:219] Setting up inception_5b/relu_1x1
I0123 12:53:06.761389 39704 net.cpp:226] Top shape: 50 384 7 7 (940800)
I0123 12:53:06.761396 39704 net.cpp:234] Memory required for data: 2769986024
I0123 12:53:06.761404 39704 net.cpp:154] Setting up Layer of device :0 @cpu 0 Layer : inception_5b/3x3_reduce
I0123 12:53:06.761411 39704 layer_factory.hpp:114] Creating layer inception_5b/3x3_reduce
I0123 12:53:06.761423 39704 net.cpp:169] Creating Layer inception_5b/3x3_reduce
I0123 12:53:06.761431 39704 net.cpp:606] inception_5b/3x3_reduce <- inception_5a/output_inception_5a/output_0_split_1
I0123 12:53:06.761443 39704 net.cpp:579] inception_5b/3x3_reduce -> inception_5b/3x3_reduce
I0123 12:53:06.761451 39704 net.cpp:582] From AppendTop @cpu: 0
I0123 12:53:06.765151 39704 net.cpp:219] Setting up inception_5b/3x3_reduce
I0123 12:53:06.765166 39704 net.cpp:226] Top shape: 50 192 7 7 (470400)
I0123 12:53:06.765202 39704 net.cpp:234] Memory required for data: 2771867624
I0123 12:53:06.765214 39704 net.cpp:154] Setting up Layer of device :0 @cpu 0 Layer : inception_5b/relu_3x3_reduce
I0123 12:53:06.765221 39704 layer_factory.hpp:114] Creating layer inception_5b/relu_3x3_reduce
I0123 12:53:06.765231 39704 net.cpp:169] Creating Layer inception_5b/relu_3x3_reduce
I0123 12:53:06.765239 39704 net.cpp:606] inception_5b/relu_3x3_reduce <- inception_5b/3x3_reduce
I0123 12:53:06.765247 39704 net.cpp:566] inception_5b/relu_3x3_reduce -> inception_5b/3x3_reduce (in-place)
I0123 12:53:06.765259 39704 net.cpp:219] Setting up inception_5b/relu_3x3_reduce
I0123 12:53:06.765266 39704 net.cpp:226] Top shape: 50 192 7 7 (470400)
I0123 12:53:06.765274 39704 net.cpp:234] Memory required for data: 2773749224
I0123 12:53:06.765281 39704 net.cpp:154] Setting up Layer of device :0 @cpu 0 Layer : inception_5b/3x3
I0123 12:53:06.765288 39704 layer_factory.hpp:114] Creating layer inception_5b/3x3
I0123 12:53:06.765303 39704 net.cpp:169] Creating Layer inception_5b/3x3
I0123 12:53:06.765311 39704 net.cpp:606] inception_5b/3x3 <- inception_5b/3x3_reduce
I0123 12:53:06.765321 39704 net.cpp:579] inception_5b/3x3 -> inception_5b/3x3
I0123 12:53:06.765327 39704 net.cpp:582] From AppendTop @cpu: 0
I0123 12:53:06.780104 39704 net.cpp:219] Setting up inception_5b/3x3
I0123 12:53:06.780119 39704 net.cpp:226] Top shape: 50 384 7 7 (940800)
I0123 12:53:06.780127 39704 net.cpp:234] Memory required for data: 2777512424
I0123 12:53:06.780138 39704 net.cpp:154] Setting up Layer of device :0 @cpu 0 Layer : inception_5b/relu_3x3
I0123 12:53:06.780160 39704 layer_factory.hpp:114] Creating layer inception_5b/relu_3x3
I0123 12:53:06.780192 39704 net.cpp:169] Creating Layer inception_5b/relu_3x3
I0123 12:53:06.780202 39704 net.cpp:606] inception_5b/relu_3x3 <- inception_5b/3x3
I0123 12:53:06.780211 39704 net.cpp:566] inception_5b/relu_3x3 -> inception_5b/3x3 (in-place)
I0123 12:53:06.780221 39704 net.cpp:219] Setting up inception_5b/relu_3x3
I0123 12:53:06.780230 39704 net.cpp:226] Top shape: 50 384 7 7 (940800)
I0123 12:53:06.780237 39704 net.cpp:234] Memory required for data: 2781275624
I0123 12:53:06.780246 39704 net.cpp:154] Setting up Layer of device :0 @cpu 0 Layer : inception_5b/5x5_reduce
I0123 12:53:06.780252 39704 layer_factory.hpp:114] Creating layer inception_5b/5x5_reduce
I0123 12:53:06.780263 39704 net.cpp:169] Creating Layer inception_5b/5x5_reduce
I0123 12:53:06.780272 39704 net.cpp:606] inception_5b/5x5_reduce <- inception_5a/output_inception_5a/output_0_split_2
I0123 12:53:06.780283 39704 net.cpp:579] inception_5b/5x5_reduce -> inception_5b/5x5_reduce
I0123 12:53:06.780292 39704 net.cpp:582] From AppendTop @cpu: 0
I0123 12:53:06.781930 39704 net.cpp:219] Setting up inception_5b/5x5_reduce
I0123 12:53:06.781945 39704 net.cpp:226] Top shape: 50 48 7 7 (117600)
I0123 12:53:06.781952 39704 net.cpp:234] Memory required for data: 2781746024
I0123 12:53:06.781963 39704 net.cpp:154] Setting up Layer of device :0 @cpu 0 Layer : inception_5b/relu_5x5_reduce
I0123 12:53:06.781971 39704 layer_factory.hpp:114] Creating layer inception_5b/relu_5x5_reduce
I0123 12:53:06.781991 39704 net.cpp:169] Creating Layer inception_5b/relu_5x5_reduce
I0123 12:53:06.781999 39704 net.cpp:606] inception_5b/relu_5x5_reduce <- inception_5b/5x5_reduce
I0123 12:53:06.782008 39704 net.cpp:566] inception_5b/relu_5x5_reduce -> inception_5b/5x5_reduce (in-place)
I0123 12:53:06.782018 39704 net.cpp:219] Setting up inception_5b/relu_5x5_reduce
I0123 12:53:06.782027 39704 net.cpp:226] Top shape: 50 48 7 7 (117600)
I0123 12:53:06.782034 39704 net.cpp:234] Memory required for data: 2782216424
I0123 12:53:06.782042 39704 net.cpp:154] Setting up Layer of device :0 @cpu 0 Layer : inception_5b/5x5
I0123 12:53:06.782048 39704 layer_factory.hpp:114] Creating layer inception_5b/5x5
I0123 12:53:06.782063 39704 net.cpp:169] Creating Layer inception_5b/5x5
I0123 12:53:06.782070 39704 net.cpp:606] inception_5b/5x5 <- inception_5b/5x5_reduce
I0123 12:53:06.782083 39704 net.cpp:579] inception_5b/5x5 -> inception_5b/5x5
I0123 12:53:06.782089 39704 net.cpp:582] From AppendTop @cpu: 0
I0123 12:53:06.786646 39704 net.cpp:219] Setting up inception_5b/5x5
I0123 12:53:06.786661 39704 net.cpp:226] Top shape: 50 128 7 7 (313600)
I0123 12:53:06.786669 39704 net.cpp:234] Memory required for data: 2783470824
I0123 12:53:06.786680 39704 net.cpp:154] Setting up Layer of device :0 @cpu 0 Layer : inception_5b/relu_5x5
I0123 12:53:06.786687 39704 layer_factory.hpp:114] Creating layer inception_5b/relu_5x5
I0123 12:53:06.786696 39704 net.cpp:169] Creating Layer inception_5b/relu_5x5
I0123 12:53:06.786705 39704 net.cpp:606] inception_5b/relu_5x5 <- inception_5b/5x5
I0123 12:53:06.786716 39704 net.cpp:566] inception_5b/relu_5x5 -> inception_5b/5x5 (in-place)
I0123 12:53:06.786726 39704 net.cpp:219] Setting up inception_5b/relu_5x5
I0123 12:53:06.786736 39704 net.cpp:226] Top shape: 50 128 7 7 (313600)
I0123 12:53:06.786742 39704 net.cpp:234] Memory required for data: 2784725224
I0123 12:53:06.786749 39704 net.cpp:154] Setting up Layer of device :0 @cpu 0 Layer : inception_5b/pool
I0123 12:53:06.786756 39704 layer_factory.hpp:114] Creating layer inception_5b/pool
I0123 12:53:06.786784 39704 net.cpp:169] Creating Layer inception_5b/pool
I0123 12:53:06.786793 39704 net.cpp:606] inception_5b/pool <- inception_5a/output_inception_5a/output_0_split_3
I0123 12:53:06.786805 39704 net.cpp:579] inception_5b/pool -> inception_5b/pool
I0123 12:53:06.786813 39704 net.cpp:582] From AppendTop @cpu: 0
I0123 12:53:06.786824 39704 net.cpp:219] Setting up inception_5b/pool
I0123 12:53:06.786839 39704 net.cpp:226] Top shape: 50 832 7 7 (2038400)
I0123 12:53:06.786846 39704 net.cpp:234] Memory required for data: 2792878824
I0123 12:53:06.786855 39704 net.cpp:154] Setting up Layer of device :0 @cpu 0 Layer : inception_5b/pool_proj
I0123 12:53:06.786862 39704 layer_factory.hpp:114] Creating layer inception_5b/pool_proj
I0123 12:53:06.786876 39704 net.cpp:169] Creating Layer inception_5b/pool_proj
I0123 12:53:06.786885 39704 net.cpp:606] inception_5b/pool_proj <- inception_5b/pool
I0123 12:53:06.786896 39704 net.cpp:579] inception_5b/pool_proj -> inception_5b/pool_proj
I0123 12:53:06.786903 39704 net.cpp:582] From AppendTop @cpu: 0
I0123 12:53:06.790133 39704 net.cpp:219] Setting up inception_5b/pool_proj
I0123 12:53:06.790148 39704 net.cpp:226] Top shape: 50 128 7 7 (313600)
I0123 12:53:06.790155 39704 net.cpp:234] Memory required for data: 2794133224
I0123 12:53:06.790168 39704 net.cpp:154] Setting up Layer of device :0 @cpu 0 Layer : inception_5b/relu_pool_proj
I0123 12:53:06.790200 39704 layer_factory.hpp:114] Creating layer inception_5b/relu_pool_proj
I0123 12:53:06.790210 39704 net.cpp:169] Creating Layer inception_5b/relu_pool_proj
I0123 12:53:06.790218 39704 net.cpp:606] inception_5b/relu_pool_proj <- inception_5b/pool_proj
I0123 12:53:06.790230 39704 net.cpp:566] inception_5b/relu_pool_proj -> inception_5b/pool_proj (in-place)
I0123 12:53:06.790241 39704 net.cpp:219] Setting up inception_5b/relu_pool_proj
I0123 12:53:06.790249 39704 net.cpp:226] Top shape: 50 128 7 7 (313600)
I0123 12:53:06.790256 39704 net.cpp:234] Memory required for data: 2795387624
I0123 12:53:06.790272 39704 net.cpp:154] Setting up Layer of device :0 @cpu 0 Layer : inception_5b/output
I0123 12:53:06.790279 39704 layer_factory.hpp:114] Creating layer inception_5b/output
I0123 12:53:06.790289 39704 net.cpp:169] Creating Layer inception_5b/output
I0123 12:53:06.790297 39704 net.cpp:606] inception_5b/output <- inception_5b/1x1
I0123 12:53:06.790305 39704 net.cpp:606] inception_5b/output <- inception_5b/3x3
I0123 12:53:06.790313 39704 net.cpp:606] inception_5b/output <- inception_5b/5x5
I0123 12:53:06.790321 39704 net.cpp:606] inception_5b/output <- inception_5b/pool_proj
I0123 12:53:06.790329 39704 net.cpp:579] inception_5b/output -> inception_5b/output
I0123 12:53:06.790336 39704 net.cpp:582] From AppendTop @cpu: 0
I0123 12:53:06.790349 39704 net.cpp:219] Setting up inception_5b/output
I0123 12:53:06.790357 39704 net.cpp:226] Top shape: 50 1024 7 7 (2508800)
I0123 12:53:06.790364 39704 net.cpp:234] Memory required for data: 2805422824
I0123 12:53:06.790371 39704 net.cpp:154] Setting up Layer of device :0 @cpu 0 Layer : pool5/7x7_s1
I0123 12:53:06.790379 39704 layer_factory.hpp:114] Creating layer pool5/7x7_s1
I0123 12:53:06.790405 39704 net.cpp:169] Creating Layer pool5/7x7_s1
I0123 12:53:06.790413 39704 net.cpp:606] pool5/7x7_s1 <- inception_5b/output
I0123 12:53:06.790423 39704 net.cpp:579] pool5/7x7_s1 -> pool5/7x7_s1
I0123 12:53:06.790431 39704 net.cpp:582] From AppendTop @cpu: 0
I0123 12:53:06.790442 39704 net.cpp:219] Setting up pool5/7x7_s1
I0123 12:53:06.790452 39704 net.cpp:226] Top shape: 50 1024 1 1 (51200)
I0123 12:53:06.790458 39704 net.cpp:234] Memory required for data: 2805627624
I0123 12:53:06.790467 39704 net.cpp:154] Setting up Layer of device :0 @cpu 0 Layer : pool5/drop_7x7_s1
I0123 12:53:06.790473 39704 layer_factory.hpp:114] Creating layer pool5/drop_7x7_s1
I0123 12:53:06.790485 39704 net.cpp:169] Creating Layer pool5/drop_7x7_s1
I0123 12:53:06.790493 39704 net.cpp:606] pool5/drop_7x7_s1 <- pool5/7x7_s1
I0123 12:53:06.790503 39704 net.cpp:566] pool5/drop_7x7_s1 -> pool5/7x7_s1 (in-place)
I0123 12:53:06.790513 39704 net.cpp:219] Setting up pool5/drop_7x7_s1
I0123 12:53:06.790522 39704 net.cpp:226] Top shape: 50 1024 1 1 (51200)
I0123 12:53:06.790529 39704 net.cpp:234] Memory required for data: 2805832424
I0123 12:53:06.790537 39704 net.cpp:154] Setting up Layer of device :0 @cpu 0 Layer : loss3/classifier
I0123 12:53:06.790544 39704 layer_factory.hpp:114] Creating layer loss3/classifier
I0123 12:53:06.790562 39704 net.cpp:169] Creating Layer loss3/classifier
I0123 12:53:06.790570 39704 net.cpp:606] loss3/classifier <- pool5/7x7_s1
I0123 12:53:06.790582 39704 net.cpp:579] loss3/classifier -> loss3/classifier
I0123 12:53:06.790590 39704 net.cpp:582] From AppendTop @cpu: 0
I0123 12:53:06.799976 39704 net.cpp:219] Setting up loss3/classifier
I0123 12:53:06.799993 39704 net.cpp:226] Top shape: 50 1000 (50000)
I0123 12:53:06.799999 39704 net.cpp:234] Memory required for data: 2806032424
I0123 12:53:06.800011 39704 net.cpp:154] Setting up Layer of device :0 @cpu 0 Layer : loss3/classifier_loss3/classifier_0_split
I0123 12:53:06.800019 39704 layer_factory.hpp:114] Creating layer loss3/classifier_loss3/classifier_0_split
I0123 12:53:06.800029 39704 net.cpp:169] Creating Layer loss3/classifier_loss3/classifier_0_split
I0123 12:53:06.800036 39704 net.cpp:606] loss3/classifier_loss3/classifier_0_split <- loss3/classifier
I0123 12:53:06.800045 39704 net.cpp:579] loss3/classifier_loss3/classifier_0_split -> loss3/classifier_loss3/classifier_0_split_0
I0123 12:53:06.800052 39704 net.cpp:582] From AppendTop @cpu: 0
I0123 12:53:06.800065 39704 net.cpp:579] loss3/classifier_loss3/classifier_0_split -> loss3/classifier_loss3/classifier_0_split_1
I0123 12:53:06.800072 39704 net.cpp:582] From AppendTop @cpu: 0
I0123 12:53:06.800083 39704 net.cpp:579] loss3/classifier_loss3/classifier_0_split -> loss3/classifier_loss3/classifier_0_split_2
I0123 12:53:06.800089 39704 net.cpp:582] From AppendTop @cpu: 0
I0123 12:53:06.800101 39704 net.cpp:219] Setting up loss3/classifier_loss3/classifier_0_split
I0123 12:53:06.800117 39704 net.cpp:226] Top shape: 50 1000 (50000)
I0123 12:53:06.800125 39704 net.cpp:226] Top shape: 50 1000 (50000)
I0123 12:53:06.800133 39704 net.cpp:226] Top shape: 50 1000 (50000)
I0123 12:53:06.800139 39704 net.cpp:234] Memory required for data: 2806632424
I0123 12:53:06.800148 39704 net.cpp:154] Setting up Layer of device :0 @cpu 0 Layer : loss3/loss3
I0123 12:53:06.800154 39704 layer_factory.hpp:114] Creating layer loss3/loss3
I0123 12:53:06.800164 39704 net.cpp:169] Creating Layer loss3/loss3
I0123 12:53:06.800199 39704 net.cpp:606] loss3/loss3 <- loss3/classifier_loss3/classifier_0_split_0
…
