…
I0123 12:52:19.285887 39646 net.cpp:493] The NetState phase (0) differed from the phase (1) specified by a rule in layer loss3/top-5
I0123 12:52:19.295356 39646 net.cpp:125] Initializing net from parameters: 
name: "GoogleNet"
state {
  phase: TRAIN
  level: 0
  stage: ""
}
layer {
  name: "data"
  type: "Data"
  top: "data"
  top: "label"
  include {
    phase: TRAIN
  }
  transform_param {
    mirror: true
    crop_size: 224
    mean_value: 104
    mean_value: 117
    mean_value: 123
  }
  data_param {
    source: "/home/user/caffeOMP/original/caffe/examples/imagenet/ilsvrc12_train_lmdb"
    batch_size: 8
    backend: LMDB
  }
}
layer {
  name: "label_data_1_split"
  type: "Split"
  bottom: "label"
  top: "label_data_1_split_0"
  top: "label_data_1_split_1"
  top: "label_data_1_split_2"
}
layer {
  name: "conv1/7x7_s2"
  type: "Convolution"
  bottom: "data"
  top: "conv1/7x7_s2"
  param {
    lr_mult: 1
    decay_mult: 1
  }
  param {
    lr_mult: 2
    decay_mult: 0
  }
  convolution_param {
    num_output: 64
    pad: 3
    kernel_size: 7
    stride: 2
    weight_filler {
      type: "xavier"
    }
    bias_filler {
      type: "constant"
      value: 0.2
    }
  }
}
layer {
  name: "conv1/relu_7x7"
  type: "ReLU"
  bottom: "conv1/7x7_s2"
  top: "conv1/7x7_s2"
}
layer {
  name: "pool1/3x3_s2"
  type: "Pooling"
  bottom: "conv1/7x7_s2"
  top: "pool1/3x3_s2"
  pooling_param {
    pool: MAX
    kernel_size: 3
    stride: 2
  }
}
layer {
  name: "pool1/norm1"
  type: "LRN"
  bottom: "pool1/3x3_s2"
  top: "pool1/norm1"
  lrn_param {
    local_size: 5
    alpha: 0.0001
    beta: 0.75
  }
}
layer {
  name: "conv2/3x3_reduce"
  type: "Convolution"
  bottom: "pool1/norm1"
  top: "conv2/3x3_reduce"
  param {
    lr_mult: 1
    decay_mult: 1
  }
  param {
    lr_mult: 2
    decay_mult: 0
  }
  convolution_param {
    num_output: 64
    kernel_size: 1
    weight_filler {
      type: "xavier"
    }
    bias_filler {
      type: "constant"
      value: 0.2
    }
  }
}
layer {
  name: "conv2/relu_3x3_reduce"
  type: "ReLU"
  bottom: "conv2/3x3_reduce"
  top: "conv2/3x3_reduce"
}
layer {
  name: "conv2/3x3"
  type: "Convolution"
  bottom: "conv2/3x3_reduce"
  top: "conv2/3x3"
  param {
    lr_mult: 1
    decay_mult: 1
  }
  param {
    lr_mult: 2
    decay_mult: 0
  }
  convolution_param {
    num_output: 192
    pad: 1
    kernel_size: 3
    weight_filler {
      type: "xavier"
    }
    bias_filler {
      type: "constant"
      value: 0.2
    }
  }
}
layer {
  name: "conv2/relu_3x3"
  type: "ReLU"
  bottom: "conv2/3x3"
  top: "conv2/3x3"
}
layer {
  name: "conv2/norm2"
  type: "LRN"
  bottom: "conv2/3x3"
  top: "conv2/norm2"
  lrn_param {
    local_size: 5
    alpha: 0.0001
    beta: 0.75
  }
}
layer {
  name: "pool2/3x3_s2"
  type: "Pooling"
  bottom: "conv2/norm2"
  top: "pool2/3x3_s2"
  pooling_param {
    pool: MAX
    kernel_size: 3
    stride: 2
  }
}
layer {
  name: "pool2/3x3_s2_pool2/3x3_s2_0_split"
  type: "Split"
  bottom: "pool2/3x3_s2"
  top: "pool2/3x3_s2_pool2/3x3_s2_0_split_0"
  top: "pool2/3x3_s2_pool2/3x3_s2_0_split_1"
  top: "pool2/3x3_s2_pool2/3x3_s2_0_split_2"
  top: "pool2/3x3_s2_pool2/3x3_s2_0_split_3"
}
layer {
  name: "inception_3a/1x1"
  type: "Convolution"
  bottom: "pool2/3x3_s2_pool2/3x3_s2_0_split_0"
  top: "inception_3a/1x1"
  param {
    lr_mult: 1
    decay_mult: 1
  }
  param {
    lr_mult: 2
    decay_mult: 0
  }
  convolution_param {
    num_output: 64
    kernel_size: 1
    weight_filler {
      type: "xavier"
    }
    bias_filler {
      type: "constant"
      value: 0.2
    }
  }
}
layer {
  name: "inception_3a/relu_1x1"
  type: "ReLU"
  bottom: "inception_3a/1x1"
  top: "inception_3a/1x1"
}
layer {
  name: "inception_3a/3x3_reduce"
  type: "Convolution"
  bottom: "pool2/3x3_s2_pool2/3x3_s2_0_split_1"
  top: "inception_3a/3x3_reduce"
  param {
    lr_mult: 1
    decay_mult: 1
  }
  param {
    lr_mult: 2
    decay_mult: 0
  }
  convolution_param {
    num_output: 96
    kernel_size: 1
    weight_filler {
      type: "xavier"
    }
    bias_filler {
      type: "constant"
      value: 0.2
    }
  }
}
layer {
  name: "inception_3a/relu_3x3_reduce"
  type: "ReLU"
  bottom: "inception_3a/3x3_reduce"
  top: "inception_3a/3x3_reduce"
}
layer {
  name: "inception_3a/3x3"
  type: "Convolution"
  bottom: "inception_3a/3x3_reduce"
  top: "inception_3a/3x3"
  param {
    lr_mult: 1
    decay_mult: 1
  }
  param {
    lr_mult: 2
    decay_mult: 0
  }
  convolution_param {
    num_output: 128
    pad: 1
    kernel_size: 3
    weight_filler {
      type: "xavier"
    }
    bias_filler {
      type: "constant"
      value: 0.2
    }
  }
}
layer {
  name: "inception_3a/relu_3x3"
  type: "ReLU"
  bottom: "inception_3a/3x3"
  top: "inception_3a/3x3"
}
layer {
  name: "inception_3a/5x5_reduce"
  type: "Convolution"
  bottom: "pool2/3x3_s2_pool2/3x3_s2_0_split_2"
  top: "inception_3a/5x5_reduce"
  param {
    lr_mult: 1
    decay_mult: 1
  }
  param {
    lr_mult: 2
    decay_mult: 0
  }
  convolution_param {
    num_output: 16
    kernel_size: 1
    weight_filler {
      type: "xavier"
    }
    bias_filler {
      type: "constant"
      value: 0.2
    }
  }
}
layer {
  name: "inception_3a/relu_5x5_reduce"
  type: "ReLU"
  bottom: "inception_3a/5x5_reduce"
  top: "inception_3a/5x5_reduce"
}
layer {
  name: "inception_3a/5x5"
  type: "Convolution"
  bottom: "inception_3a/5x5_reduce"
  top: "inception_3a/5x5"
  param {
    lr_mult: 1
    decay_mult: 1
  }
  param {
    lr_mult: 2
    decay_mult: 0
  }
  convolution_param {
    num_output: 32
    pad: 2
    kernel_size: 5
    weight_filler {
      type: "xavier"
    }
    bias_filler {
      type: "constant"
      value: 0.2
    }
  }
}
layer {
  name: "inception_3a/relu_5x5"
  type: "ReLU"
  bottom: "inception_3a/5x5"
  top: "inception_3a/5x5"
}
layer {
  name: "inception_3a/pool"
  type: "Pooling"
  bottom: "pool2/3x3_s2_pool2/3x3_s2_0_split_3"
  top: "inception_3a/pool"
  pooling_param {
    pool: MAX
    kernel_size: 3
    stride: 1
    pad: 1
  }
}
layer {
  name: "inception_3a/pool_proj"
  type: "Convolution"
  bottom: "inception_3a/pool"
  top: "inception_3a/pool_proj"
  param {
    lr_mult: 1
    decay_mult: 1
  }
  param {
    lr_mult: 2
    decay_mult: 0
  }
  convolution_param {
    num_output: 32
    kernel_size: 1
    weight_filler {
      type: "xavier"
    }
    bias_filler {
      type: "constant"
      value: 0.2
    }
  }
}
layer {
  name: "inception_3a/relu_pool_proj"
  type: "ReLU"
  bottom: "inception_3a/pool_proj"
  top: "inception_3a/pool_proj"
}
layer {
  name: "inception_3a/output"
  type: "Concat"
  bottom: "inception_3a/1x1"
  bottom: "inception_3a/3x3"
  bottom: "inception_3a/5x5"
  bottom: "inception_3a/pool_proj"
  top: "inception_3a/output"
}
layer {
  name: "inception_3a/output_inception_3a/output_0_split"
  type: "Split"
  bottom: "inception_3a/output"
  top: "inception_3a/output_inception_3a/output_0_split_0"
  top: "inception_3a/output_inception_3a/output_0_split_1"
  top: "inception_3a/output_inception_3a/output_0_split_2"
  top: "inception_3a/output_inception_3a/output_0_split_3"
}
layer {
  name: "inception_3b/1x1"
  type: "Convolution"
  bottom: "inception_3a/output_inception_3a/output_0_split_0"
  top: "inception_3b/1x1"
  param {
    lr_mult: 1
    decay_mult: 1
  }
  param {
    lr_mult: 2
    decay_mult: 0
  }
  convolution_param {
    num_output: 128
    kernel_size: 1
    weight_filler {
      type: "xavier"
    }
    bias_filler {
      type: "constant"
      value: 0.2
    }
  }
}
layer {
  name: "inception_3b/relu_1x1"
  type: "ReLU"
  bottom: "inception_3b/1x1"
  top: "inception_3b/1x1"
}
layer {
  name: "inception_3b/3x3_reduce"
  type: "Convolution"
  bottom: "inception_3a/output_inception_3a/output_0_split_1"
  top: "inception_3b/3x3_reduce"
  param {
    lr_mult: 1
    decay_mult: 1
  }
  param {
    lr_mult: 2
    decay_mult: 0
  }
  convolution_param {
    num_output: 128
    kernel_size: 1
    weight_filler {
      type: "xavier"
    }
    bias_filler {
      type: "constant"
      value: 0.2
    }
  }
}
layer {
  name: "inception_3b/relu_3x3_reduce"
  type: "ReLU"
  bottom: "inception_3b/3x3_reduce"
  top: "inception_3b/3x3_reduce"
}
layer {
  name: "inception_3b/3x3"
  type: "Convolution"
  bottom: "inception_3b/3x3_reduce"
  top: "inception_3b/3x3"
  param {
    lr_mult: 1
    decay_mult: 1
  }
  param {
    lr_mult: 2
    decay_mult: 0
  }
  convolution_param {
    num_output: 192
    pad: 1
    kernel_size: 3
    weight_filler {
      type: "xavier"
    }
    bias_filler {
      type: "constant"
      value: 0.2
    }
  }
}
layer {
  name: "inception_3b/relu_3x3"
  type: "ReLU"
  bottom: "inception_3b/3x3"
  top: "inception_3b/3x3"
}
layer {
  name: "inception_3b/5x5_reduce"
  type: "Convolution"
  bottom: "inception_3a/output_inception_3a/output_0_split_2"
  top: "inception_3b/5x5_reduce"
  param {
    lr_mult: 1
    decay_mult: 1
  }
  param {
    lr_mult: 2
    decay_mult: 0
  }
  convolution_param {
    num_output: 32
    kernel_size: 1
    weight_filler {
      type: "xavier"
    }
    bias_filler {
      type: "constant"
      value: 0.2
    }
  }
}
layer {
  name: "inception_3b/relu_5x5_reduce"
  type: "ReLU"
  bottom: "inception_3b/5x5_reduce"
  top: "inception_3b/5x5_reduce"
}
layer {
  name: "inception_3b/5x5"
  type: "Convolution"
  bottom: "inception_3b/5x5_reduce"
  top: "inception_3b/5x5"
  param {
    lr_mult: 1
    decay_mult: 1
  }
  param {
    lr_mult: 2
    decay_mult: 0
  }
  convolution_param {
    num_output: 96
    pad: 2
    kernel_size: 5
    weight_filler {
      type: "xavier"
    }
    bias_filler {
      type: "constant"
      value: 0.2
    }
  }
}
layer {
  name: "inception_3b/relu_5x5"
  type: "ReLU"
  bottom: "inception_3b/5x5"
  top: "inception_3b/5x5"
}
layer {
  name: "inception_3b/pool"
  type: "Pooling"
  bottom: "inception_3a/output_inception_3a/output_0_split_3"
  top: "inception_3b/pool"
  pooling_param {
    pool: MAX
    kernel_size: 3
    stride: 1
    pad: 1
  }
}
layer {
  name: "inception_3b/pool_proj"
  type: "Convolution"
  bottom: "inception_3b/pool"
  top: "inception_3b/pool_proj"
  param {
    lr_mult: 1
    decay_mult: 1
  }
  param {
    lr_mult: 2
    decay_mult: 0
  }
  convolution_param {
    num_output: 64
    kernel_size: 1
    weight_filler {
      type: "xavier"
    }
    bias_filler {
      type: "constant"
      value: 0.2
    }
  }
}
layer {
  name: "inception_3b/relu_pool_proj"
  type: "ReLU"
  bottom: "inception_3b/pool_proj"
  top: "inception_3b/pool_proj"
}
layer {
  name: "inception_3b/output"
  type: "Concat"
  bottom: "inception_3b/1x1"
  bottom: "inception_3b/3x3"
  bottom: "inception_3b/5x5"
  bottom: "inception_3b/pool_proj"
  top: "inception_3b/output"
}
layer {
  name: "pool3/3x3_s2"
  type: "Pooling"
  bottom: "inception_3b/output"
  top: "pool3/3x3_s2"
  pooling_param {
    pool: MAX
    kernel_size: 3
    stride: 2
  }
}
layer {
  name: "pool3/3x3_s2_pool3/3x3_s2_0_split"
  type: "Split"
  bottom: "pool3/3x3_s2"
  top: "pool3/3x3_s2_pool3/3x3_s2_0_split_0"
  top: "pool3/3x3_s2_pool3/3x3_s2_0_split_1"
  top: "pool3/3x3_s2_pool3/3x3_s2_0_split_2"
  top: "pool3/3x3_s2_pool3/3x3_s2_0_split_3"
}
layer {
  name: "inception_4a/1x1"
  type: "Convolution"
  bottom: "pool3/3x3_s2_pool3/3x3_s2_0_split_0"
  top: "inception_4a/1x1"
  param {
    lr_mult: 1
    decay_mult: 1
  }
  param {
    lr_mult: 2
    decay_mult: 0
  }
  convolution_param {
    num_output: 192
    kernel_size: 1
    weight_filler {
      type: "xavier"
    }
    bias_filler {
      type: "constant"
      value: 0.2
    }
  }
}
layer {
  name: "inception_4a/relu_1x1"
  type: "ReLU"
  bottom: "inception_4a/1x1"
  top: "inception_4a/1x1"
}
layer {
  name: "inception_4a/3x3_reduce"
  type: "Convolution"
  bottom: "pool3/3x3_s2_pool3/3x3_s2_0_split_1"
  top: "inception_4a/3x3_reduce"
  param {
    lr_mult: 1
    decay_mult: 1
  }
  param {
    lr_mult: 2
    decay_mult: 0
  }
  convolution_param {
    num_output: 96
    kernel_size: 1
    weight_filler {
      type: "xavier"
    }
    bias_filler {
      type: "constant"
      value: 0.2
    }
  }
}
layer {
  name: "inception_4a/relu_3x3_reduce"
  type: "ReLU"
  bottom: "inception_4a/3x3_reduce"
  top: "inception_4a/3x3_reduce"
}
layer {
  name: "inception_4a/3x3"
  type: "Convolution"
  bottom: "inception_4a/3x3_reduce"
  top: "inception_4a/3x3"
  param {
    lr_mult: 1
    decay_mult: 1
  }
  param {
    lr_mult: 2
    decay_mult: 0
  }
  convolution_param {
    num_output: 208
    pad: 1
    kernel_size: 3
    weight_filler {
      type: "xavier"
    }
    bias_filler {
      type: "constant"
      value: 0.2
    }
  }
}
layer {
  name: "inception_4a/relu_3x3"
  type: "ReLU"
  bottom: "inception_4a/3x3"
  top: "inception_4a/3x3"
}
layer {
  name: "inception_4a/5x5_reduce"
  type: "Convolution"
  bottom: "pool3/3x3_s2_pool3/3x3_s2_0_split_2"
  top: "inception_4a/5x5_reduce"
  param {
    lr_mult: 1
    decay_mult: 1
  }
  param {
    lr_mult: 2
    decay_mult: 0
  }
  convolution_param {
    num_output: 16
    kernel_size: 1
    weight_filler {
      type: "xavier"
    }
    bias_filler {
      type: "constant"
      value: 0.2
    }
  }
}
layer {
  name: "inception_4a/relu_5x5_reduce"
  type: "ReLU"
  bottom: "inception_4a/5x5_reduce"
  top: "inception_4a/5x5_reduce"
}
layer {
  name: "inception_4a/5x5"
  type: "Convolution"
  bottom: "inception_4a/5x5_reduce"
  top: "inception_4a/5x5"
  param {
    lr_mult: 1
    decay_mult: 1
  }
  param {
    lr_mult: 2
    decay_mult: 0
  }
  convolution_param {
    num_output: 48
    pad: 2
    kernel_size: 5
    weight_filler {
      type: "xavier"
    }
    bias_filler {
      type: "constant"
      value: 0.2
    }
  }
}
layer {
  name: "inception_4a/relu_5x5"
  type: "ReLU"
  bottom: "inception_4a/5x5"
  top: "inception_4a/5x5"
}
layer {
  name: "inception_4a/pool"
  type: "Pooling"
  bottom: "pool3/3x3_s2_pool3/3x3_s2_0_split_3"
  top: "inception_4a/pool"
  pooling_param {
    pool: MAX
    kernel_size: 3
    stride: 1
    pad: 1
  }
}
layer {
  name: "inception_4a/pool_proj"
  type: "Convolution"
  bottom: "inception_4a/pool"
  top: "inception_4a/pool_proj"
  param {
    lr_mult: 1
    decay_mult: 1
  }
  param {
    lr_mult: 2
    decay_mult: 0
  }
  convolution_param {
    num_output: 64
    kernel_size: 1
    weight_filler {
      type: "xavier"
    }
    bias_filler {
      type: "constant"
      value: 0.2
    }
  }
}
layer {
  name: "inception_4a/relu_pool_proj"
  type: "ReLU"
  bottom: "inception_4a/pool_proj"
  top: "inception_4a/pool_proj"
}
layer {
  name: "inception_4a/output"
  type: "Concat"
  bottom: "inception_4a/1x1"
  bottom: "inception_4a/3x3"
  bottom: "inception_4a/5x5"
  bottom: "inception_4a/pool_proj"
  top: "inception_4a/output"
}
layer {
  name: "inception_4a/output_inception_4a/output_0_split"
  type: "Split"
  bottom: "inception_4a/output"
  top: "inception_4a/output_inception_4a/output_0_split_0"
  top: "inception_4a/output_inception_4a/output_0_split_1"
  top: "inception_4a/output_inception_4a/output_0_split_2"
  top: "inception_4a/output_inception_4a/output_0_split_3"
  top: "inception_4a/output_inception_4a/output_0_split_4"
}
layer {
  name: "loss1/ave_pool"
  type: "Pooling"
  bottom: "inception_4a/output_inception_4a/output_0_split_0"
  top: "loss1/ave_pool"
  pooling_param {
    pool: AVE
    kernel_size: 5
    stride: 3
  }
}
layer {
  name: "loss1/conv"
  type: "Convolution"
  bottom: "loss1/ave_pool"
  top: "loss1/conv"
  param {
    lr_mult: 1
    decay_mult: 1
  }
  param {
    lr_mult: 2
    decay_mult: 0
  }
  convolution_param {
    num_output: 128
    kernel_size: 1
    weight_filler {
      type: "xavier"
    }
    bias_filler {
      type: "constant"
      value: 0.2
    }
  }
}
layer {
  name: "loss1/relu_conv"
  type: "ReLU"
  bottom: "loss1/conv"
  top: "loss1/conv"
}
layer {
  name: "loss1/fc"
  type: "InnerProduct"
  bottom: "loss1/conv"
  top: "loss1/fc"
  param {
    lr_mult: 1
    decay_mult: 1
  }
  param {
    lr_mult: 2
    decay_mult: 0
  }
  inner_product_param {
    num_output: 1024
    weight_filler {
      type: "xavier"
    }
    bias_filler {
      type: "constant"
      value: 0.2
    }
  }
}
layer {
  name: "loss1/relu_fc"
  type: "ReLU"
  bottom: "loss1/fc"
  top: "loss1/fc"
}
layer {
  name: "loss1/drop_fc"
  type: "Dropout"
  bottom: "loss1/fc"
  top: "loss1/fc"
  dropout_param {
    dropout_ratio: 0.7
  }
}
layer {
  name: "loss1/classifier"
  type: "InnerProduct"
  bottom: "loss1/fc"
  top: "loss1/classifier"
  param {
    lr_mult: 1
    decay_mult: 1
  }
  param {
    lr_mult: 2
    decay_mult: 0
  }
  inner_product_param {
    num_output: 1000
    weight_filler {
      type: "xavier"
    }
    bias_filler {
      type: "constant"
      value: 0
    }
  }
}
layer {
  name: "loss1/loss"
  type: "SoftmaxWithLoss"
  bottom: "loss1/classifier"
  bottom: "label_data_1_split_0"
  top: "loss1/loss1"
  loss_weight: 0.3
}
layer {
  name: "inception_4b/1x1"
  type: "Convolution"
  bottom: "inception_4a/output_inception_4a/output_0_split_1"
  top: "inception_4b/1x1"
  param {
    lr_mult: 1
    decay_mult: 1
  }
  param {
    lr_mult: 2
    decay_mult: 0
  }
  convolution_param {
    num_output: 160
    kernel_size: 1
    weight_filler {
      type: "xavier"
    }
    bias_filler {
      type: "constant"
      value: 0.2
    }
  }
}
layer {
  name: "inception_4b/relu_1x1"
  type: "ReLU"
  bottom: "inception_4b/1x1"
  top: "inception_4b/1x1"
}
layer {
  name: "inception_4b/3x3_reduce"
  type: "Convolution"
  bottom: "inception_4a/output_inception_4a/output_0_split_2"
  top: "inception_4b/3x3_reduce"
  param {
    lr_mult: 1
    decay_mult: 1
  }
  param {
    lr_mult: 2
    decay_mult: 0
  }
  convolution_param {
    num_output: 112
    kernel_size: 1
    weight_filler {
      type: "xavier"
    }
    bias_filler {
      type: "constant"
      value: 0.2
    }
  }
}
layer {
  name: "inception_4b/relu_3x3_reduce"
  type: "ReLU"
  bottom: "inception_4b/3x3_reduce"
  top: "inception_4b/3x3_reduce"
}
layer {
  name: "inception_4b/3x3"
  type: "Convolution"
  bottom: "inception_4b/3x3_reduce"
  top: "inception_4b/3x3"
  param {
    lr_mult: 1
    decay_mult: 1
  }
  param {
    lr_mult: 2
    decay_mult: 0
  }
  convolution_param {
    num_output: 224
    pad: 1
    kernel_size: 3
    weight_filler {
      type: "xavier"
    }
    bias_filler {
      type: "constant"
      value: 0.2
    }
  }
}
layer {
  name: "inception_4b/relu_3x3"
  type: "ReLU"
  bottom: "inception_4b/3x3"
  top: "inception_4b/3x3"
}
layer {
  name: "inception_4b/5x5_reduce"
  type: "Convolution"
  bottom: "inception_4a/output_inception_4a/output_0_split_3"
  top: "inception_4b/5x5_reduce"
  param {
    lr_mult: 1
    decay_mult: 1
  }
  param {
    lr_mult: 2
    decay_mult: 0
  }
  convolution_param {
    num_output: 24
    kernel_size: 1
    weight_filler {
      type: "xavier"
    }
    bias_filler {
      type: "constant"
      value: 0.2
    }
  }
}
layer {
  name: "inception_4b/relu_5x5_reduce"
  type: "ReLU"
  bottom: "inception_4b/5x5_reduce"
  top: "inception_4b/5x5_reduce"
}
layer {
  name: "inception_4b/5x5"
  type: "Convolution"
  bottom: "inception_4b/5x5_reduce"
  top: "inception_4b/5x5"
  param {
    lr_mult: 1
    decay_mult: 1
  }
  param {
    lr_mult: 2
    decay_mult: 0
  }
  convolution_param {
    num_output: 64
    pad: 2
    kernel_size: 5
    weight_filler {
      type: "xavier"
    }
    bias_filler {
      type: "constant"
      value: 0.2
    }
  }
}
layer {
  name: "inception_4b/relu_5x5"
  type: "ReLU"
  bottom: "inception_4b/5x5"
  top: "inception_4b/5x5"
}
layer {
  name: "inception_4b/pool"
  type: "Pooling"
  bottom: "inception_4a/output_inception_4a/output_0_split_4"
  top: "inception_4b/pool"
  pooling_param {
    pool: MAX
    kernel_size: 3
    stride: 1
    pad: 1
  }
}
layer {
  name: "inception_4b/pool_proj"
  type: "Convolution"
  bottom: "inception_4b/pool"
  top: "inception_4b/pool_proj"
  param {
    lr_mult: 1
    decay_mult: 1
  }
  param {
    lr_mult: 2
    decay_mult: 0
  }
  convolution_param {
    num_output: 64
    kernel_size: 1
    weight_filler {
      type: "xavier"
    }
    bias_filler {
      type: "constant"
      value: 0.2
    }
  }
}
layer {
  name: "inception_4b/relu_pool_proj"
  type: "ReLU"
  bottom: "inception_4b/pool_proj"
  top: "inception_4b/pool_proj"
}
layer {
  name: "inception_4b/output"
  type: "Concat"
  bottom: "inception_4b/1x1"
  bottom: "inception_4b/3x3"
  bottom: "inception_4b/5x5"
  bottom: "inception_4b/pool_proj"
  top: "inception_4b/output"
}
layer {
  name: "inception_4b/output_inception_4b/output_0_split"
  type: "Split"
  bottom: "inception_4b/output"
  top: "inception_4b/output_inception_4b/output_0_split_0"
  top: "inception_4b/output_inception_4b/output_0_split_1"
  top: "inception_4b/output_inception_4b/output_0_split_2"
  top: "inception_4b/output_inception_4b/output_0_split_3"
}
layer {
  name: "inception_4c/1x1"
  type: "Convolution"
  bottom: "inception_4b/output_inception_4b/output_0_split_0"
  top: "inception_4c/1x1"
  param {
    lr_mult: 1
    decay_mult: 1
  }
  param {
    lr_mult: 2
    decay_mult: 0
  }
  convolution_param {
    num_output: 128
    kernel_size: 1
    weight_filler {
      type: "xavier"
    }
    bias_filler {
      type: "constant"
      value: 0.2
    }
  }
}
layer {
  name: "inception_4c/relu_1x1"
  type: "ReLU"
  bottom: "inception_4c/1x1"
  top: "inception_4c/1x1"
}
layer {
  name: "inception_4c/3x3_reduce"
  type: "Convolution"
  bottom: "inception_4b/output_inception_4b/output_0_split_1"
  top: "inception_4c/3x3_reduce"
  param {
    lr_mult: 1
    decay_mult: 1
  }
  param {
    lr_mult: 2
    decay_mult: 0
  }
  convolution_param {
    num_output: 128
    kernel_size: 1
    weight_filler {
      type: "xavier"
    }
    bias_filler {
      type: "constant"
      value: 0.2
    }
  }
}
layer {
  name: "inception_4c/relu_3x3_reduce"
  type: "ReLU"
  bottom: "inception_4c/3x3_reduce"
  top: "inception_4c/3x3_reduce"
}
layer {
  name: "inception_4c/3x3"
  type: "Convolution"
  bottom: "inception_4c/3x3_reduce"
  top: "inception_4c/3x3"
  param {
    lr_mult: 1
    decay_mult: 1
  }
  param {
    lr_mult: 2
    decay_mult: 0
  }
  convolution_param {
    num_output: 256
    pad: 1
    kernel_size: 3
    weight_filler {
      type: "xavier"
    }
    bias_filler {
      type: "constant"
      value: 0.2
    }
  }
}
layer {
  name: "inception_4c/relu_3x3"
  type: "ReLU"
  bottom: "inception_4c/3x3"
  top: "inception_4c/3x3"
}
layer {
  name: "inception_4c/5x5_reduce"
  type: "Convolution"
  bottom: "inception_4b/output_inception_4b/output_0_split_2"
  top: "inception_4c/5x5_reduce"
  param {
    lr_mult: 1
    decay_mult: 1
  }
  param {
    lr_mult: 2
    decay_mult: 0
  }
  convolution_param {
    num_output: 24
    kernel_size: 1
    weight_filler {
      type: "xavier"
    }
    bias_filler {
      type: "constant"
      value: 0.2
    }
  }
}
layer {
  name: "inception_4c/relu_5x5_reduce"
  type: "ReLU"
  bottom: "inception_4c/5x5_reduce"
  top: "inception_4c/5x5_reduce"
}
layer {
  name: "inception_4c/5x5"
  type: "Convolution"
  bottom: "inception_4c/5x5_reduce"
  top: "inception_4c/5x5"
  param {
    lr_mult: 1
    decay_mult: 1
  }
  param {
    lr_mult: 2
    decay_mult: 0
  }
  convolution_param {
    num_output: 64
    pad: 2
    kernel_size: 5
    weight_filler {
      type: "xavier"
    }
    bias_filler {
      type: "constant"
      value: 0.2
    }
  }
}
layer {
  name: "inception_4c/relu_5x5"
  type: "ReLU"
  bottom: "inception_4c/5x5"
  top: "inception_4c/5x5"
}
layer {
  name: "inception_4c/pool"
  type: "Pooling"
  bottom: "inception_4b/output_inception_4b/output_0_split_3"
  top: "inception_4c/pool"
  pooling_param {
    pool: MAX
    kernel_size: 3
    stride: 1
    pad: 1
  }
}
layer {
  name: "inception_4c/pool_proj"
  type: "Convolution"
  bottom: "inception_4c/pool"
  top: "inception_4c/pool_proj"
  param {
    lr_mult: 1
    decay_mult: 1
  }
  param {
    lr_mult: 2
    decay_mult: 0
  }
  convolution_param {
    num_output: 64
    kernel_size: 1
    weight_filler {
      type: "xavier"
    }
    bias_filler {
      type: "constant"
      value: 0.2
    }
  }
}
layer {
  name: "inception_4c/relu_pool_proj"
  type: "ReLU"
  bottom: "inception_4c/pool_proj"
  top: "inception_4c/pool_proj"
}
layer {
  name: "inception_4c/output"
  type: "Concat"
  bottom: "inception_4c/1x1"
  bottom: "inception_4c/3x3"
  bottom: "inception_4c/5x5"
  bottom: "inception_4c/pool_proj"
  top: "inception_4c/output"
}
layer {
  name: "inception_4c/output_inception_4c/output_0_split"
  type: "Split"
  bottom: "inception_4c/output"
  top: "inception_4c/output_inception_4c/output_0_split_0"
  top: "inception_4c/output_inception_4c/output_0_split_1"
  top: "inception_4c/output_inception_4c/output_0_split_2"
  top: "inception_4c/output_inception_4c/output_0_split_3"
}
layer {
  name: "inception_4d/1x1"
  type: "Convolution"
  bottom: "inception_4c/output_inception_4c/output_0_split_0"
  top: "inception_4d/1x1"
  param {
    lr_mult: 1
    decay_mult: 1
  }
  param {
    lr_mult: 2
    decay_mult: 0
  }
  convolution_param {
    num_output: 112
    kernel_size: 1
    weight_filler {
      type: "xavier"
    }
    bias_filler {
      type: "constant"
      value: 0.2
    }
  }
}
layer {
  name: "inception_4d/relu_1x1"
  type: "ReLU"
  bottom: "inception_4d/1x1"
  top: "inception_4d/1x1"
}
layer {
  name: "inception_4d/3x3_reduce"
  type: "Convolution"
  bottom: "inception_4c/output_inception_4c/output_0_split_1"
  top: "inception_4d/3x3_reduce"
  param {
    lr_mult: 1
    decay_mult: 1
  }
  param {
    lr_mult: 2
    decay_mult: 0
  }
  convolution_param {
    num_output: 144
    kernel_size: 1
    weight_filler {
      type: "xavier"
    }
    bias_filler {
      type: "constant"
      value: 0.2
    }
  }
}
layer {
  name: "inception_4d/relu_3x3_reduce"
  type: "ReLU"
  bottom: "inception_4d/3x3_reduce"
  top: "inception_4d/3x3_reduce"
}
layer {
  name: "inception_4d/3x3"
  type: "Convolution"
  bottom: "inception_4d/3x3_reduce"
  top: "inception_4d/3x3"
  param {
    lr_mult: 1
    decay_mult: 1
  }
  param {
    lr_mult: 2
    decay_mult: 0
  }
  convolution_param {
    num_output: 288
    pad: 1
    kernel_size: 3
    weight_filler {
      type: "xavier"
    }
    bias_filler {
      type: "constant"
      value: 0.2
    }
  }
}
layer {
  name: "inception_4d/relu_3x3"
  type: "ReLU"
  bottom: "inception_4d/3x3"
  top: "inception_4d/3x3"
}
layer {
  name: "inception_4d/5x5_reduce"
  type: "Convolution"
  bottom: "inception_4c/output_inception_4c/output_0_split_2"
  top: "inception_4d/5x5_reduce"
  param {
    lr_mult: 1
    decay_mult: 1
  }
  param {
    lr_mult: 2
    decay_mult: 0
  }
  convolution_param {
    num_output: 32
    kernel_size: 1
    weight_filler {
      type: "xavier"
    }
    bias_filler {
      type: "constant"
      value: 0.2
    }
  }
}
layer {
  name: "inception_4d/relu_5x5_reduce"
  type: "ReLU"
  bottom: "inception_4d/5x5_reduce"
  top: "inception_4d/5x5_reduce"
}
layer {
  name: "inception_4d/5x5"
  type: "Convolution"
  bottom: "inception_4d/5x5_reduce"
  top: "inception_4d/5x5"
  param {
    lr_mult: 1
    decay_mult: 1
  }
  param {
    lr_mult: 2
    decay_mult: 0
  }
  convolution_param {
    num_output: 64
    pad: 2
    kernel_size: 5
    weight_filler {
      type: "xavier"
    }
    bias_filler {
      type: "constant"
      value: 0.2
    }
  }
}
layer {
  name: "inception_4d/relu_5x5"
  type: "ReLU"
  bottom: "inception_4d/5x5"
  top: "inception_4d/5x5"
}
layer {
  name: "inception_4d/pool"
  type: "Pooling"
  bottom: "inception_4c/output_inception_4c/output_0_split_3"
  top: "inception_4d/pool"
  pooling_param {
    pool: MAX
    kernel_size: 3
    stride: 1
    pad: 1
  }
}
layer {
  name: "inception_4d/pool_proj"
  type: "Convolution"
  bottom: "inception_4d/pool"
  top: "inception_4d/pool_proj"
  param {
    lr_mult: 1
    decay_mult: 1
  }
  param {
    lr_mult: 2
    decay_mult: 0
  }
  convolution_param {
    num_output: 64
    kernel_size: 1
    weight_filler {
      type: "xavier"
    }
    bias_filler {
      type: "constant"
      value: 0.2
    }
  }
}
layer {
  name: "inception_4d/relu_pool_proj"
  type: "ReLU"
  bottom: "inception_4d/pool_proj"
  top: "inception_4d/pool_proj"
}
layer {
  name: "inception_4d/output"
  type: "Concat"
  bottom: "inception_4d/1x1"
  bottom: "inception_4d/3x3"
  bottom: "inception_4d/5x5"
  bottom: "inception_4d/pool_proj"
  top: "inception_4d/output"
}
layer {
  name: "inception_4d/output_inception_4d/output_0_split"
  type: "Split"
  bottom: "inception_4d/output"
  top: "inception_4d/output_inception_4d/output_0_split_0"
  top: "inception_4d/output_inception_4d/output_0_split_1"
  top: "inception_4d/output_inception_4d/output_0_split_2"
  top: "inception_4d/output_inception_4d/output_0_split_3"
  top: "inception_4d/output_inception_4d/output_0_split_4"
}
layer {
  name: "loss2/ave_pool"
  type: "Pooling"
  bottom: "inception_4d/output_inception_4d/output_0_split_0"
  top: "loss2/ave_pool"
  pooling_param {
    pool: AVE
    kernel_size: 5
    stride: 3
  }
}
layer {
  name: "loss2/conv"
  type: "Convolution"
  bottom: "loss2/ave_pool"
  top: "loss2/conv"
  param {
    lr_mult: 1
    decay_mult: 1
  }
  param {
    lr_mult: 2
    decay_mult: 0
  }
  convolution_param {
    num_output: 128
    kernel_size: 1
    weight_filler {
      type: "xavier"
    }
    bias_filler {
      type: "constant"
      value: 0.2
    }
  }
}
layer {
  name: "loss2/relu_conv"
  type: "ReLU"
  bottom: "loss2/conv"
  top: "loss2/conv"
}
layer {
  name: "loss2/fc"
  type: "InnerProduct"
  bottom: "loss2/conv"
  top: "loss2/fc"
  param {
    lr_mult: 1
    decay_mult: 1
  }
  param {
    lr_mult: 2
    decay_mult: 0
  }
  inner_product_param {
    num_output: 1024
    weight_filler {
      type: "xavier"
    }
    bias_filler {
      type: "constant"
      value: 0.2
    }
  }
}
layer {
  name: "loss2/relu_fc"
  type: "ReLU"
  bottom: "loss2/fc"
  top: "loss2/fc"
}
layer {
  name: "loss2/
I0123 12:52:19.295687 39646 net.cpp:154] Setting up Layer of device :0 @cpu 0 Layer : data
I0123 12:52:19.295713 39646 layer_factory.hpp:114] Creating layer data
I0123 12:52:19.296820 39646 net.cpp:169] Creating Layer data
I0123 12:52:19.296891 39646 net.cpp:579] data -> data
I0123 12:52:19.296911 39646 net.cpp:582] From AppendTop @cpu: 0
I0123 12:52:19.296955 39646 net.cpp:579] data -> label
I0123 12:52:19.296970 39646 net.cpp:582] From AppendTop @cpu: 0
I0123 12:52:19.297324 39647 db_lmdb.cpp:72] Opened lmdb /home/user/caffeOMP/original/caffe/examples/imagenet/ilsvrc12_train_lmdb
I0123 12:52:19.297436 39647 virtDev_device.cpp:310] found a CPU core 14 for Data Reader on device 0 thread ID 140267358664448
I0123 12:52:19.297456 39647 data_reader.cpp:128] inside DATAREADER 4
I0123 12:52:19.297472 39647 data_reader.cpp:139] NUMA DOMAIN 0
I0123 12:52:19.297917 39647 data_reader.cpp:139] NUMA DOMAIN 0
I0123 12:52:19.298126 39646 data_layer.cpp:80] output data size: 8,3,224,224
I0123 12:52:19.325821 39646 base_data_layer.cpp:96] Done cpu data
I0123 12:52:19.335626 39646 net.cpp:219] Setting up data
I0123 12:52:19.335666 39646 net.cpp:226] Top shape: 8 3 224 224 (1204224)
I0123 12:52:19.335683 39646 net.cpp:226] Top shape: 8 (8)
I0123 12:52:19.335696 39646 net.cpp:234] Memory required for data: 4816928
I0123 12:52:19.335716 39646 net.cpp:154] Setting up Layer of device :0 @cpu 0 Layer : label_data_1_split
I0123 12:52:19.335727 39646 layer_factory.hpp:114] Creating layer label_data_1_split
I0123 12:52:19.335754 39646 net.cpp:169] Creating Layer label_data_1_split
I0123 12:52:19.335770 39646 net.cpp:606] label_data_1_split <- label
I0123 12:52:19.335788 39646 net.cpp:579] label_data_1_split -> label_data_1_split_0
I0123 12:52:19.335800 39646 net.cpp:582] From AppendTop @cpu: 0
I0123 12:52:19.335820 39646 net.cpp:579] label_data_1_split -> label_data_1_split_1
I0123 12:52:19.335832 39646 net.cpp:582] From AppendTop @cpu: 0
I0123 12:52:19.335849 39646 net.cpp:579] label_data_1_split -> label_data_1_split_2
I0123 12:52:19.335860 39646 net.cpp:582] From AppendTop @cpu: 0
I0123 12:52:19.335887 39646 net.cpp:219] Setting up label_data_1_split
I0123 12:52:19.335904 39646 net.cpp:226] Top shape: 8 (8)
I0123 12:52:19.335918 39646 net.cpp:226] Top shape: 8 (8)
I0123 12:52:19.335932 39646 net.cpp:226] Top shape: 8 (8)
I0123 12:52:19.335943 39646 net.cpp:234] Memory required for data: 4817024
I0123 12:52:19.335958 39646 net.cpp:154] Setting up Layer of device :0 @cpu 0 Layer : conv1/7x7_s2
I0123 12:52:19.335968 39646 layer_factory.hpp:114] Creating layer conv1/7x7_s2
I0123 12:52:19.336009 39646 net.cpp:169] Creating Layer conv1/7x7_s2
I0123 12:52:19.336024 39646 net.cpp:606] conv1/7x7_s2 <- data
I0123 12:52:19.336042 39646 net.cpp:579] conv1/7x7_s2 -> conv1/7x7_s2
I0123 12:52:19.336055 39646 net.cpp:582] From AppendTop @cpu: 0
OMP: Info #242: KMP_AFFINITY: pid 39646 thread 1 bound to OS proc set {1}
OMP: Info #242: KMP_AFFINITY: pid 39646 thread 2 bound to OS proc set {2}
OMP: Info #242: KMP_AFFINITY: pid 39646 thread 3 bound to OS proc set {3}
OMP: Info #242: KMP_AFFINITY: pid 39646 thread 4 bound to OS proc set {4}
OMP: Info #242: KMP_AFFINITY: pid 39646 thread 5 bound to OS proc set {5}
OMP: Info #242: KMP_AFFINITY: pid 39646 thread 6 bound to OS proc set {6}
OMP: Info #242: KMP_AFFINITY: pid 39646 thread 7 bound to OS proc set {7}
I0123 12:52:19.369616 39646 net.cpp:219] Setting up conv1/7x7_s2
I0123 12:52:19.369639 39646 net.cpp:226] Top shape: 8 64 112 112 (6422528)
I0123 12:52:19.369657 39646 net.cpp:234] Memory required for data: 30507136
I0123 12:52:19.369681 39646 net.cpp:154] Setting up Layer of device :0 @cpu 0 Layer : conv1/relu_7x7
I0123 12:52:19.369691 39646 layer_factory.hpp:114] Creating layer conv1/relu_7x7
I0123 12:52:19.369704 39646 net.cpp:169] Creating Layer conv1/relu_7x7
I0123 12:52:19.369714 39646 net.cpp:606] conv1/relu_7x7 <- conv1/7x7_s2
I0123 12:52:19.369727 39646 net.cpp:566] conv1/relu_7x7 -> conv1/7x7_s2 (in-place)
I0123 12:52:19.369743 39646 net.cpp:219] Setting up conv1/relu_7x7
I0123 12:52:19.369753 39646 net.cpp:226] Top shape: 8 64 112 112 (6422528)
I0123 12:52:19.369761 39646 net.cpp:234] Memory required for data: 56197248
I0123 12:52:19.369771 39646 net.cpp:154] Setting up Layer of device :0 @cpu 0 Layer : pool1/3x3_s2
I0123 12:52:19.369778 39646 layer_factory.hpp:114] Creating layer pool1/3x3_s2
I0123 12:52:19.369841 39646 net.cpp:169] Creating Layer pool1/3x3_s2
I0123 12:52:19.369854 39646 net.cpp:606] pool1/3x3_s2 <- conv1/7x7_s2
I0123 12:52:19.369869 39646 net.cpp:579] pool1/3x3_s2 -> pool1/3x3_s2
I0123 12:52:19.369877 39646 net.cpp:582] From AppendTop @cpu: 0
I0123 12:52:19.369897 39646 net.cpp:219] Setting up pool1/3x3_s2
I0123 12:52:19.369910 39646 net.cpp:226] Top shape: 8 64 56 56 (1605632)
I0123 12:52:19.369917 39646 net.cpp:234] Memory required for data: 62619776
I0123 12:52:19.369927 39646 net.cpp:154] Setting up Layer of device :0 @cpu 0 Layer : pool1/norm1
I0123 12:52:19.369935 39646 layer_factory.hpp:114] Creating layer pool1/norm1
I0123 12:52:19.369952 39646 net.cpp:169] Creating Layer pool1/norm1
I0123 12:52:19.369961 39646 net.cpp:606] pool1/norm1 <- pool1/3x3_s2
I0123 12:52:19.369985 39646 net.cpp:579] pool1/norm1 -> pool1/norm1
I0123 12:52:19.369993 39646 net.cpp:582] From AppendTop @cpu: 0
I0123 12:52:19.370014 39646 net.cpp:219] Setting up pool1/norm1
I0123 12:52:19.370025 39646 net.cpp:226] Top shape: 8 64 56 56 (1605632)
I0123 12:52:19.370033 39646 net.cpp:234] Memory required for data: 69042304
I0123 12:52:19.370043 39646 net.cpp:154] Setting up Layer of device :0 @cpu 0 Layer : conv2/3x3_reduce
I0123 12:52:19.370050 39646 layer_factory.hpp:114] Creating layer conv2/3x3_reduce
I0123 12:52:19.370072 39646 net.cpp:169] Creating Layer conv2/3x3_reduce
I0123 12:52:19.370082 39646 net.cpp:606] conv2/3x3_reduce <- pool1/norm1
I0123 12:52:19.370096 39646 net.cpp:579] conv2/3x3_reduce -> conv2/3x3_reduce
I0123 12:52:19.370105 39646 net.cpp:582] From AppendTop @cpu: 0
I0123 12:52:19.373986 39646 net.cpp:219] Setting up conv2/3x3_reduce
I0123 12:52:19.374006 39646 net.cpp:226] Top shape: 8 64 56 56 (1605632)
I0123 12:52:19.374013 39646 net.cpp:234] Memory required for data: 75464832
I0123 12:52:19.374029 39646 net.cpp:154] Setting up Layer of device :0 @cpu 0 Layer : conv2/relu_3x3_reduce
I0123 12:52:19.374038 39646 layer_factory.hpp:114] Creating layer conv2/relu_3x3_reduce
I0123 12:52:19.374049 39646 net.cpp:169] Creating Layer conv2/relu_3x3_reduce
I0123 12:52:19.374058 39646 net.cpp:606] conv2/relu_3x3_reduce <- conv2/3x3_reduce
I0123 12:52:19.374071 39646 net.cpp:566] conv2/relu_3x3_reduce -> conv2/3x3_reduce (in-place)
I0123 12:52:19.374084 39646 net.cpp:219] Setting up conv2/relu_3x3_reduce
I0123 12:52:19.374094 39646 net.cpp:226] Top shape: 8 64 56 56 (1605632)
I0123 12:52:19.374102 39646 net.cpp:234] Memory required for data: 81887360
I0123 12:52:19.374111 39646 net.cpp:154] Setting up Layer of device :0 @cpu 0 Layer : conv2/3x3
I0123 12:52:19.374119 39646 layer_factory.hpp:114] Creating layer conv2/3x3
I0123 12:52:19.374136 39646 net.cpp:169] Creating Layer conv2/3x3
I0123 12:52:19.374145 39646 net.cpp:606] conv2/3x3 <- conv2/3x3_reduce
I0123 12:52:19.374160 39646 net.cpp:579] conv2/3x3 -> conv2/3x3
I0123 12:52:19.374198 39646 net.cpp:582] From AppendTop @cpu: 0
I0123 12:52:19.400957 39646 net.cpp:219] Setting up conv2/3x3
I0123 12:52:19.400982 39646 net.cpp:226] Top shape: 8 192 56 56 (4816896)
I0123 12:52:19.400990 39646 net.cpp:234] Memory required for data: 101154944
I0123 12:52:19.401005 39646 net.cpp:154] Setting up Layer of device :0 @cpu 0 Layer : conv2/relu_3x3
I0123 12:52:19.401021 39646 layer_factory.hpp:114] Creating layer conv2/relu_3x3
I0123 12:52:19.401034 39646 net.cpp:169] Creating Layer conv2/relu_3x3
I0123 12:52:19.401042 39646 net.cpp:606] conv2/relu_3x3 <- conv2/3x3
I0123 12:52:19.401052 39646 net.cpp:566] conv2/relu_3x3 -> conv2/3x3 (in-place)
I0123 12:52:19.401063 39646 net.cpp:219] Setting up conv2/relu_3x3
I0123 12:52:19.401072 39646 net.cpp:226] Top shape: 8 192 56 56 (4816896)
I0123 12:52:19.401079 39646 net.cpp:234] Memory required for data: 120422528
I0123 12:52:19.401089 39646 net.cpp:154] Setting up Layer of device :0 @cpu 0 Layer : conv2/norm2
I0123 12:52:19.401096 39646 layer_factory.hpp:114] Creating layer conv2/norm2
I0123 12:52:19.401108 39646 net.cpp:169] Creating Layer conv2/norm2
I0123 12:52:19.401116 39646 net.cpp:606] conv2/norm2 <- conv2/3x3
I0123 12:52:19.401126 39646 net.cpp:579] conv2/norm2 -> conv2/norm2
I0123 12:52:19.401134 39646 net.cpp:582] From AppendTop @cpu: 0
I0123 12:52:19.401146 39646 net.cpp:219] Setting up conv2/norm2
I0123 12:52:19.401155 39646 net.cpp:226] Top shape: 8 192 56 56 (4816896)
I0123 12:52:19.401162 39646 net.cpp:234] Memory required for data: 139690112
I0123 12:52:19.401195 39646 net.cpp:154] Setting up Layer of device :0 @cpu 0 Layer : pool2/3x3_s2
I0123 12:52:19.401203 39646 layer_factory.hpp:114] Creating layer pool2/3x3_s2
I0123 12:52:19.401228 39646 net.cpp:169] Creating Layer pool2/3x3_s2
I0123 12:52:19.401238 39646 net.cpp:606] pool2/3x3_s2 <- conv2/norm2
I0123 12:52:19.401252 39646 net.cpp:579] pool2/3x3_s2 -> pool2/3x3_s2
I0123 12:52:19.401258 39646 net.cpp:582] From AppendTop @cpu: 0
I0123 12:52:19.401283 39646 net.cpp:219] Setting up pool2/3x3_s2
I0123 12:52:19.401293 39646 net.cpp:226] Top shape: 8 192 28 28 (1204224)
I0123 12:52:19.401300 39646 net.cpp:234] Memory required for data: 144507008
I0123 12:52:19.401309 39646 net.cpp:154] Setting up Layer of device :0 @cpu 0 Layer : pool2/3x3_s2_pool2/3x3_s2_0_split
I0123 12:52:19.401315 39646 layer_factory.hpp:114] Creating layer pool2/3x3_s2_pool2/3x3_s2_0_split
I0123 12:52:19.401325 39646 net.cpp:169] Creating Layer pool2/3x3_s2_pool2/3x3_s2_0_split
I0123 12:52:19.401334 39646 net.cpp:606] pool2/3x3_s2_pool2/3x3_s2_0_split <- pool2/3x3_s2
I0123 12:52:19.401343 39646 net.cpp:579] pool2/3x3_s2_pool2/3x3_s2_0_split -> pool2/3x3_s2_pool2/3x3_s2_0_split_0
I0123 12:52:19.401350 39646 net.cpp:582] From AppendTop @cpu: 0
I0123 12:52:19.401361 39646 net.cpp:579] pool2/3x3_s2_pool2/3x3_s2_0_split -> pool2/3x3_s2_pool2/3x3_s2_0_split_1
I0123 12:52:19.401368 39646 net.cpp:582] From AppendTop @cpu: 0
I0123 12:52:19.401378 39646 net.cpp:579] pool2/3x3_s2_pool2/3x3_s2_0_split -> pool2/3x3_s2_pool2/3x3_s2_0_split_2
I0123 12:52:19.401386 39646 net.cpp:582] From AppendTop @cpu: 0
I0123 12:52:19.401396 39646 net.cpp:579] pool2/3x3_s2_pool2/3x3_s2_0_split -> pool2/3x3_s2_pool2/3x3_s2_0_split_3
I0123 12:52:19.401402 39646 net.cpp:582] From AppendTop @cpu: 0
I0123 12:52:19.401412 39646 net.cpp:219] Setting up pool2/3x3_s2_pool2/3x3_s2_0_split
I0123 12:52:19.401422 39646 net.cpp:226] Top shape: 8 192 28 28 (1204224)
I0123 12:52:19.401430 39646 net.cpp:226] Top shape: 8 192 28 28 (1204224)
I0123 12:52:19.401439 39646 net.cpp:226] Top shape: 8 192 28 28 (1204224)
I0123 12:52:19.401448 39646 net.cpp:226] Top shape: 8 192 28 28 (1204224)
I0123 12:52:19.401454 39646 net.cpp:234] Memory required for data: 163774592
I0123 12:52:19.401463 39646 net.cpp:154] Setting up Layer of device :0 @cpu 0 Layer : inception_3a/1x1
I0123 12:52:19.401469 39646 layer_factory.hpp:114] Creating layer inception_3a/1x1
I0123 12:52:19.401486 39646 net.cpp:169] Creating Layer inception_3a/1x1
I0123 12:52:19.401494 39646 net.cpp:606] inception_3a/1x1 <- pool2/3x3_s2_pool2/3x3_s2_0_split_0
I0123 12:52:19.401505 39646 net.cpp:579] inception_3a/1x1 -> inception_3a/1x1
I0123 12:52:19.401512 39646 net.cpp:582] From AppendTop @cpu: 0
I0123 12:52:19.404840 39646 net.cpp:219] Setting up inception_3a/1x1
I0123 12:52:19.404857 39646 net.cpp:226] Top shape: 8 64 28 28 (401408)
I0123 12:52:19.404871 39646 net.cpp:234] Memory required for data: 165380224
I0123 12:52:19.404884 39646 net.cpp:154] Setting up Layer of device :0 @cpu 0 Layer : inception_3a/relu_1x1
I0123 12:52:19.404891 39646 layer_factory.hpp:114] Creating layer inception_3a/relu_1x1
I0123 12:52:19.404906 39646 net.cpp:169] Creating Layer inception_3a/relu_1x1
I0123 12:52:19.404913 39646 net.cpp:606] inception_3a/relu_1x1 <- inception_3a/1x1
I0123 12:52:19.404922 39646 net.cpp:566] inception_3a/relu_1x1 -> inception_3a/1x1 (in-place)
I0123 12:52:19.404933 39646 net.cpp:219] Setting up inception_3a/relu_1x1
I0123 12:52:19.404942 39646 net.cpp:226] Top shape: 8 64 28 28 (401408)
I0123 12:52:19.404948 39646 net.cpp:234] Memory required for data: 166985856
I0123 12:52:19.404958 39646 net.cpp:154] Setting up Layer of device :0 @cpu 0 Layer : inception_3a/3x3_reduce
I0123 12:52:19.404964 39646 layer_factory.hpp:114] Creating layer inception_3a/3x3_reduce
I0123 12:52:19.404985 39646 net.cpp:169] Creating Layer inception_3a/3x3_reduce
I0123 12:52:19.404994 39646 net.cpp:606] inception_3a/3x3_reduce <- pool2/3x3_s2_pool2/3x3_s2_0_split_1
I0123 12:52:19.405010 39646 net.cpp:579] inception_3a/3x3_reduce -> inception_3a/3x3_reduce
I0123 12:52:19.405017 39646 net.cpp:582] From AppendTop @cpu: 0
I0123 12:52:19.408411 39646 net.cpp:219] Setting up inception_3a/3x3_reduce
I0123 12:52:19.408427 39646 net.cpp:226] Top shape: 8 96 28 28 (602112)
I0123 12:52:19.408433 39646 net.cpp:234] Memory required for data: 169394304
I0123 12:52:19.408450 39646 net.cpp:154] Setting up Layer of device :0 @cpu 0 Layer : inception_3a/relu_3x3_reduce
I0123 12:52:19.408469 39646 layer_factory.hpp:114] Creating layer inception_3a/relu_3x3_reduce
I0123 12:52:19.408483 39646 net.cpp:169] Creating Layer inception_3a/relu_3x3_reduce
I0123 12:52:19.408491 39646 net.cpp:606] inception_3a/relu_3x3_reduce <- inception_3a/3x3_reduce
I0123 12:52:19.408500 39646 net.cpp:566] inception_3a/relu_3x3_reduce -> inception_3a/3x3_reduce (in-place)
I0123 12:52:19.408511 39646 net.cpp:219] Setting up inception_3a/relu_3x3_reduce
I0123 12:52:19.408520 39646 net.cpp:226] Top shape: 8 96 28 28 (602112)
I0123 12:52:19.408527 39646 net.cpp:234] Memory required for data: 171802752
I0123 12:52:19.408535 39646 net.cpp:154] Setting up Layer of device :0 @cpu 0 Layer : inception_3a/3x3
I0123 12:52:19.408542 39646 layer_factory.hpp:114] Creating layer inception_3a/3x3
I0123 12:52:19.408556 39646 net.cpp:169] Creating Layer inception_3a/3x3
I0123 12:52:19.408565 39646 net.cpp:606] inception_3a/3x3 <- inception_3a/3x3_reduce
I0123 12:52:19.408577 39646 net.cpp:579] inception_3a/3x3 -> inception_3a/3x3
I0123 12:52:19.408584 39646 net.cpp:582] From AppendTop @cpu: 0
I0123 12:52:19.422300 39646 net.cpp:219] Setting up inception_3a/3x3
I0123 12:52:19.422324 39646 net.cpp:226] Top shape: 8 128 28 28 (802816)
I0123 12:52:19.422332 39646 net.cpp:234] Memory required for data: 175014016
I0123 12:52:19.422344 39646 net.cpp:154] Setting up Layer of device :0 @cpu 0 Layer : inception_3a/relu_3x3
I0123 12:52:19.422353 39646 layer_factory.hpp:114] Creating layer inception_3a/relu_3x3
I0123 12:52:19.422369 39646 net.cpp:169] Creating Layer inception_3a/relu_3x3
I0123 12:52:19.422377 39646 net.cpp:606] inception_3a/relu_3x3 <- inception_3a/3x3
I0123 12:52:19.422386 39646 net.cpp:566] inception_3a/relu_3x3 -> inception_3a/3x3 (in-place)
I0123 12:52:19.422396 39646 net.cpp:219] Setting up inception_3a/relu_3x3
I0123 12:52:19.422405 39646 net.cpp:226] Top shape: 8 128 28 28 (802816)
I0123 12:52:19.422412 39646 net.cpp:234] Memory required for data: 178225280
I0123 12:52:19.422421 39646 net.cpp:154] Setting up Layer of device :0 @cpu 0 Layer : inception_3a/5x5_reduce
I0123 12:52:19.422428 39646 layer_factory.hpp:114] Creating layer inception_3a/5x5_reduce
I0123 12:52:19.422444 39646 net.cpp:169] Creating Layer inception_3a/5x5_reduce
I0123 12:52:19.422452 39646 net.cpp:606] inception_3a/5x5_reduce <- pool2/3x3_s2_pool2/3x3_s2_0_split_2
I0123 12:52:19.422466 39646 net.cpp:579] inception_3a/5x5_reduce -> inception_3a/5x5_reduce
I0123 12:52:19.422479 39646 net.cpp:582] From AppendTop @cpu: 0
I0123 12:52:19.424738 39646 net.cpp:219] Setting up inception_3a/5x5_reduce
I0123 12:52:19.424753 39646 net.cpp:226] Top shape: 8 16 28 28 (100352)
I0123 12:52:19.424760 39646 net.cpp:234] Memory required for data: 178626688
I0123 12:52:19.424772 39646 net.cpp:154] Setting up Layer of device :0 @cpu 0 Layer : inception_3a/relu_5x5_reduce
I0123 12:52:19.424779 39646 layer_factory.hpp:114] Creating layer inception_3a/relu_5x5_reduce
I0123 12:52:19.424793 39646 net.cpp:169] Creating Layer inception_3a/relu_5x5_reduce
I0123 12:52:19.424800 39646 net.cpp:606] inception_3a/relu_5x5_reduce <- inception_3a/5x5_reduce
I0123 12:52:19.424809 39646 net.cpp:566] inception_3a/relu_5x5_reduce -> inception_3a/5x5_reduce (in-place)
I0123 12:52:19.424820 39646 net.cpp:219] Setting up inception_3a/relu_5x5_reduce
I0123 12:52:19.424829 39646 net.cpp:226] Top shape: 8 16 28 28 (100352)
I0123 12:52:19.424836 39646 net.cpp:234] Memory required for data: 179028096
I0123 12:52:19.424844 39646 net.cpp:154] Setting up Layer of device :0 @cpu 0 Layer : inception_3a/5x5
I0123 12:52:19.424851 39646 layer_factory.hpp:114] Creating layer inception_3a/5x5
I0123 12:52:19.424866 39646 net.cpp:169] Creating Layer inception_3a/5x5
I0123 12:52:19.424875 39646 net.cpp:606] inception_3a/5x5 <- inception_3a/5x5_reduce
I0123 12:52:19.424887 39646 net.cpp:579] inception_3a/5x5 -> inception_3a/5x5
I0123 12:52:19.424896 39646 net.cpp:582] From AppendTop @cpu: 0
I0123 12:52:19.430332 39646 net.cpp:219] Setting up inception_3a/5x5
I0123 12:52:19.430348 39646 net.cpp:226] Top shape: 8 32 28 28 (200704)
I0123 12:52:19.430366 39646 net.cpp:234] Memory required for data: 179830912
I0123 12:52:19.430379 39646 net.cpp:154] Setting up Layer of device :0 @cpu 0 Layer : inception_3a/relu_5x5
I0123 12:52:19.430387 39646 layer_factory.hpp:114] Creating layer inception_3a/relu_5x5
I0123 12:52:19.430400 39646 net.cpp:169] Creating Layer inception_3a/relu_5x5
I0123 12:52:19.430408 39646 net.cpp:606] inception_3a/relu_5x5 <- inception_3a/5x5
I0123 12:52:19.430418 39646 net.cpp:566] inception_3a/relu_5x5 -> inception_3a/5x5 (in-place)
I0123 12:52:19.430428 39646 net.cpp:219] Setting up inception_3a/relu_5x5
I0123 12:52:19.430436 39646 net.cpp:226] Top shape: 8 32 28 28 (200704)
I0123 12:52:19.430444 39646 net.cpp:234] Memory required for data: 180633728
I0123 12:52:19.430451 39646 net.cpp:154] Setting up Layer of device :0 @cpu 0 Layer : inception_3a/pool
I0123 12:52:19.430459 39646 layer_factory.hpp:114] Creating layer inception_3a/pool
I0123 12:52:19.430490 39646 net.cpp:169] Creating Layer inception_3a/pool
I0123 12:52:19.430500 39646 net.cpp:606] inception_3a/pool <- pool2/3x3_s2_pool2/3x3_s2_0_split_3
I0123 12:52:19.430510 39646 net.cpp:579] inception_3a/pool -> inception_3a/pool
I0123 12:52:19.430516 39646 net.cpp:582] From AppendTop @cpu: 0
I0123 12:52:19.430529 39646 net.cpp:219] Setting up inception_3a/pool
I0123 12:52:19.430539 39646 net.cpp:226] Top shape: 8 192 28 28 (1204224)
I0123 12:52:19.430546 39646 net.cpp:234] Memory required for data: 185450624
I0123 12:52:19.430554 39646 net.cpp:154] Setting up Layer of device :0 @cpu 0 Layer : inception_3a/pool_proj
I0123 12:52:19.430562 39646 layer_factory.hpp:114] Creating layer inception_3a/pool_proj
I0123 12:52:19.430577 39646 net.cpp:169] Creating Layer inception_3a/pool_proj
I0123 12:52:19.430584 39646 net.cpp:606] inception_3a/pool_proj <- inception_3a/pool
I0123 12:52:19.430598 39646 net.cpp:579] inception_3a/pool_proj -> inception_3a/pool_proj
I0123 12:52:19.430605 39646 net.cpp:582] From AppendTop @cpu: 0
I0123 12:52:19.433467 39646 net.cpp:219] Setting up inception_3a/pool_proj
I0123 12:52:19.433483 39646 net.cpp:226] Top shape: 8 32 28 28 (200704)
I0123 12:52:19.433490 39646 net.cpp:234] Memory required for data: 186253440
I0123 12:52:19.433512 39646 net.cpp:154] Setting up Layer of device :0 @cpu 0 Layer : inception_3a/relu_pool_proj
I0123 12:52:19.433521 39646 layer_factory.hpp:114] Creating layer inception_3a/relu_pool_proj
I0123 12:52:19.433540 39646 net.cpp:169] Creating Layer inception_3a/relu_pool_proj
I0123 12:52:19.433549 39646 net.cpp:606] inception_3a/relu_pool_proj <- inception_3a/pool_proj
I0123 12:52:19.433558 39646 net.cpp:566] inception_3a/relu_pool_proj -> inception_3a/pool_proj (in-place)
I0123 12:52:19.433569 39646 net.cpp:219] Setting up inception_3a/relu_pool_proj
I0123 12:52:19.433578 39646 net.cpp:226] Top shape: 8 32 28 28 (200704)
I0123 12:52:19.433585 39646 net.cpp:234] Memory required for data: 187056256
I0123 12:52:19.433593 39646 net.cpp:154] Setting up Layer of device :0 @cpu 0 Layer : inception_3a/output
I0123 12:52:19.433600 39646 layer_factory.hpp:114] Creating layer inception_3a/output
I0123 12:52:19.433610 39646 net.cpp:169] Creating Layer inception_3a/output
I0123 12:52:19.433617 39646 net.cpp:606] inception_3a/output <- inception_3a/1x1
I0123 12:52:19.433625 39646 net.cpp:606] inception_3a/output <- inception_3a/3x3
I0123 12:52:19.433634 39646 net.cpp:606] inception_3a/output <- inception_3a/5x5
I0123 12:52:19.433641 39646 net.cpp:606] inception_3a/output <- inception_3a/pool_proj
I0123 12:52:19.433657 39646 net.cpp:579] inception_3a/output -> inception_3a/output
I0123 12:52:19.433665 39646 net.cpp:582] From AppendTop @cpu: 0
I0123 12:52:19.439204 39646 net.cpp:219] Setting up inception_3a/output
I0123 12:52:19.439221 39646 net.cpp:226] Top shape: 8 256 28 28 (1605632)
I0123 12:52:19.439229 39646 net.cpp:234] Memory required for data: 193478784
I0123 12:52:19.439239 39646 net.cpp:154] Setting up Layer of device :0 @cpu 0 Layer : inception_3a/output_inception_3a/output_0_split
I0123 12:52:19.439245 39646 layer_factory.hpp:114] Creating layer inception_3a/output_inception_3a/output_0_split
I0123 12:52:19.439267 39646 net.cpp:169] Creating Layer inception_3a/output_inception_3a/output_0_split
…
I0123 12:52:19.439314 39646 net.cpp:582] From AppendTop @cpu: 0
I0123 12:52:19.439324 39646 net.cpp:579] inception_3a/output_inception_3a/output_0_split -> inception_3a/output_inception_3a/output_0_split_2
I0123 12:52:19.439332 39646 net.cpp:582] From AppendTop @cpu: 0
I0123 12:52:19.439342 39646 net.cpp:579] inception_3a/output_inception_3a/output_0_split -> inception_3a/output_inception_3a/output_0_split_3
I0123 12:52:19.439348 39646 net.cpp:582] From AppendTop @cpu: 0
I0123 12:52:19.439358 39646 net.cpp:219] Setting up inception_3a/output_inception_3a/output_0_split
I0123 12:52:19.439370 39646 net.cpp:226] Top shape: 8 256 28 28 (1605632)
I0123 12:52:19.439379 39646 net.cpp:226] Top shape: 8 256 28 28 (1605632)
I0123 12:52:19.439388 39646 net.cpp:226] Top shape: 8 256 28 28 (1605632)
I0123 12:52:19.439395 39646 net.cpp:226] Top shape: 8 256 28 28 (1605632)
I0123 12:52:19.439402 39646 net.cpp:234] Memory required for data: 219168896
I0123 12:52:19.439410 39646 net.cpp:154] Setting up Layer of device :0 @cpu 0 Layer : inception_3b/1x1
I0123 12:52:19.439417 39646 layer_factory.hpp:114] Creating layer inception_3b/1x1
I0123 12:52:19.439429 39646 net.cpp:169] Creating Layer inception_3b/1x1
I0123 12:52:19.439437 39646 net.cpp:606] inception_3b/1x1 <- inception_3a/output_inception_3a/output_0_split_0
I0123 12:52:19.439450 39646 net.cpp:579] inception_3b/1x1 -> inception_3b/1x1
I0123 12:52:19.439458 39646 net.cpp:582] From AppendTop @cpu: 0
I0123 12:52:19.443819 39646 net.cpp:219] Setting up inception_3b/1x1
I0123 12:52:19.443835 39646 net.cpp:226] Top shape: 8 128 28 28 (802816)
I0123 12:52:19.443842 39646 net.cpp:234] Memory required for data: 222380160
I0123 12:52:19.443856 39646 net.cpp:154] Setting up Layer of device :0 @cpu 0 Layer : inception_3b/relu_1x1
I0123 12:52:19.443863 39646 layer_factory.hpp:114] Creating layer inception_3b/relu_1x1
I0123 12:52:19.443889 39646 net.cpp:169] Creating Layer inception_3b/relu_1x1
I0123 12:52:19.443898 39646 net.cpp:606] inception_3b/relu_1x1 <- inception_3b/1x1
I0123 12:52:19.443909 39646 net.cpp:566] inception_3b/relu_1x1 -> inception_3b/1x1 (in-place)
I0123 12:52:19.443920 39646 net.cpp:219] Setting up inception_3b/relu_1x1
I0123 12:52:19.443929 39646 net.cpp:226] Top shape: 8 128 28 28 (802816)
I0123 12:52:19.443936 39646 net.cpp:234] Memory required for data: 225591424
I0123 12:52:19.443944 39646 net.cpp:154] Setting up Layer of device :0 @cpu 0 Layer : inception_3b/3x3_reduce
I0123 12:52:19.443951 39646 layer_factory.hpp:114] Creating layer inception_3b/3x3_reduce
I0123 12:52:19.443967 39646 net.cpp:169] Creating Layer inception_3b/3x3_reduce
I0123 12:52:19.443975 39646 net.cpp:606] inception_3b/3x3_reduce <- inception_3a/output_inception_3a/output_0_split_1
I0123 12:52:19.443989 39646 net.cpp:579] inception_3b/3x3_reduce -> inception_3b/3x3_reduce
I0123 12:52:19.443996 39646 net.cpp:582] From AppendTop @cpu: 0
I0123 12:52:19.447650 39646 net.cpp:219] Setting up inception_3b/3x3_reduce
I0123 12:52:19.447666 39646 net.cpp:226] Top shape: 8 128 28 28 (802816)
I0123 12:52:19.447674 39646 net.cpp:234] Memory required for data: 228802688
I0123 12:52:19.447687 39646 net.cpp:154] Setting up Layer of device :0 @cpu 0 Layer : inception_3b/relu_3x3_reduce
I0123 12:52:19.447695 39646 layer_factory.hpp:114] Creating layer inception_3b/relu_3x3_reduce
I0123 12:52:19.447707 39646 net.cpp:169] Creating Layer inception_3b/relu_3x3_reduce
I0123 12:52:19.447715 39646 net.cpp:606] inception_3b/relu_3x3_reduce <- inception_3b/3x3_reduce
I0123 12:52:19.447736 39646 net.cpp:566] inception_3b/relu_3x3_reduce -> inception_3b/3x3_reduce (in-place)
I0123 12:52:19.447748 39646 net.cpp:219] Setting up inception_3b/relu_3x3_reduce
I0123 12:52:19.447757 39646 net.cpp:226] Top shape: 8 128 28 28 (802816)
I0123 12:52:19.447764 39646 net.cpp:234] Memory required for data: 232013952
I0123 12:52:19.447772 39646 net.cpp:154] Setting up Layer of device :0 @cpu 0 Layer : inception_3b/3x3
I0123 12:52:19.447779 39646 layer_factory.hpp:114] Creating layer inception_3b/3x3
I0123 12:52:19.447798 39646 net.cpp:169] Creating Layer inception_3b/3x3
I0123 12:52:19.447808 39646 net.cpp:606] inception_3b/3x3 <- inception_3b/3x3_reduce
I0123 12:52:19.447818 39646 net.cpp:579] inception_3b/3x3 -> inception_3b/3x3
I0123 12:52:19.447824 39646 net.cpp:582] From AppendTop @cpu: 0
I0123 12:52:19.466056 39646 net.cpp:219] Setting up inception_3b/3x3
I0123 12:52:19.466110 39646 net.cpp:226] Top shape: 8 192 28 28 (1204224)
I0123 12:52:19.466119 39646 net.cpp:234] Memory required for data: 236830848
I0123 12:52:19.466131 39646 net.cpp:154] Setting up Layer of device :0 @cpu 0 Layer : inception_3b/relu_3x3
I0123 12:52:19.466138 39646 layer_factory.hpp:114] Creating layer inception_3b/relu_3x3
I0123 12:52:19.466148 39646 net.cpp:169] Creating Layer inception_3b/relu_3x3
I0123 12:52:19.466156 39646 net.cpp:606] inception_3b/relu_3x3 <- inception_3b/3x3
I0123 12:52:19.466168 39646 net.cpp:566] inception_3b/relu_3x3 -> inception_3b/3x3 (in-place)
I0123 12:52:19.466207 39646 net.cpp:219] Setting up inception_3b/relu_3x3
I0123 12:52:19.466217 39646 net.cpp:226] Top shape: 8 192 28 28 (1204224)
I0123 12:52:19.466223 39646 net.cpp:234] Memory required for data: 241647744
I0123 12:52:19.466231 39646 net.cpp:154] Setting up Layer of device :0 @cpu 0 Layer : inception_3b/5x5_reduce
I0123 12:52:19.466238 39646 layer_factory.hpp:114] Creating layer inception_3b/5x5_reduce
I0123 12:52:19.466254 39646 net.cpp:169] Creating Layer inception_3b/5x5_reduce
I0123 12:52:19.466262 39646 net.cpp:606] inception_3b/5x5_reduce <- inception_3a/output_inception_3a/output_0_split_2
I0123 12:52:19.466272 39646 net.cpp:579] inception_3b/5x5_reduce -> inception_3b/5x5_reduce
I0123 12:52:19.466279 39646 net.cpp:582] From AppendTop @cpu: 0
I0123 12:52:19.470296 39646 net.cpp:219] Setting up inception_3b/5x5_reduce
I0123 12:52:19.470312 39646 net.cpp:226] Top shape: 8 32 28 28 (200704)
I0123 12:52:19.470325 39646 net.cpp:234] Memory required for data: 242450560
I0123 12:52:19.470338 39646 net.cpp:154] Setting up Layer of device :0 @cpu 0 Layer : inception_3b/relu_5x5_reduce
I0123 12:52:19.470346 39646 layer_factory.hpp:114] Creating layer inception_3b/relu_5x5_reduce
I0123 12:52:19.470356 39646 net.cpp:169] Creating Layer inception_3b/relu_5x5_reduce
I0123 12:52:19.470365 39646 net.cpp:606] inception_3b/relu_5x5_reduce <- inception_3b/5x5_reduce
I0123 12:52:19.470376 39646 net.cpp:566] inception_3b/relu_5x5_reduce -> inception_3b/5x5_reduce (in-place)
I0123 12:52:19.470387 39646 net.cpp:219] Setting up inception_3b/relu_5x5_reduce
I0123 12:52:19.470396 39646 net.cpp:226] Top shape: 8 32 28 28 (200704)
I0123 12:52:19.470403 39646 net.cpp:234] Memory required for data: 243253376
I0123 12:52:19.470412 39646 net.cpp:154] Setting up Layer of device :0 @cpu 0 Layer : inception_3b/5x5
I0123 12:52:19.470418 39646 layer_factory.hpp:114] Creating layer inception_3b/5x5
I0123 12:52:19.470435 39646 net.cpp:169] Creating Layer inception_3b/5x5
I0123 12:52:19.470444 39646 net.cpp:606] inception_3b/5x5 <- inception_3b/5x5_reduce
I0123 12:52:19.470454 39646 net.cpp:579] inception_3b/5x5 -> inception_3b/5x5
I0123 12:52:19.470461 39646 net.cpp:582] From AppendTop @cpu: 0
I0123 12:52:19.482372 39646 net.cpp:219] Setting up inception_3b/5x5
I0123 12:52:19.482391 39646 net.cpp:226] Top shape: 8 96 28 28 (602112)
I0123 12:52:19.482399 39646 net.cpp:234] Memory required for data: 245661824
I0123 12:52:19.482412 39646 net.cpp:154] Setting up Layer of device :0 @cpu 0 Layer : inception_3b/relu_5x5
I0123 12:52:19.482444 39646 layer_factory.hpp:114] Creating layer inception_3b/relu_5x5
I0123 12:52:19.482453 39646 net.cpp:169] Creating Layer inception_3b/relu_5x5
I0123 12:52:19.482461 39646 net.cpp:606] inception_3b/relu_5x5 <- inception_3b/5x5
I0123 12:52:19.482473 39646 net.cpp:566] inception_3b/relu_5x5 -> inception_3b/5x5 (in-place)
I0123 12:52:19.482486 39646 net.cpp:219] Setting up inception_3b/relu_5x5
I0123 12:52:19.482494 39646 net.cpp:226] Top shape: 8 96 28 28 (602112)
I0123 12:52:19.482501 39646 net.cpp:234] Memory required for data: 248070272
I0123 12:52:19.482509 39646 net.cpp:154] Setting up Layer of device :0 @cpu 0 Layer : inception_3b/pool
I0123 12:52:19.482517 39646 layer_factory.hpp:114] Creating layer inception_3b/pool
I0123 12:52:19.482556 39646 net.cpp:169] Creating Layer inception_3b/pool
I0123 12:52:19.482566 39646 net.cpp:606] inception_3b/pool <- inception_3a/output_inception_3a/output_0_split_3
I0123 12:52:19.482576 39646 net.cpp:579] inception_3b/pool -> inception_3b/pool
I0123 12:52:19.482583 39646 net.cpp:582] From AppendTop @cpu: 0
I0123 12:52:19.482597 39646 net.cpp:219] Setting up inception_3b/pool
I0123 12:52:19.482607 39646 net.cpp:226] Top shape: 8 256 28 28 (1605632)
I0123 12:52:19.482614 39646 net.cpp:234] Memory required for data: 254492800
I0123 12:52:19.482622 39646 net.cpp:154] Setting up Layer of device :0 @cpu 0 Layer : inception_3b/pool_proj
I0123 12:52:19.482630 39646 layer_factory.hpp:114] Creating layer inception_3b/pool_proj
I0123 12:52:19.482645 39646 net.cpp:169] Creating Layer inception_3b/pool_proj
I0123 12:52:19.482655 39646 net.cpp:606] inception_3b/pool_proj <- inception_3b/pool
I0123 12:52:19.482664 39646 net.cpp:579] inception_3b/pool_proj -> inception_3b/pool_proj
I0123 12:52:19.482671 39646 net.cpp:582] From AppendTop @cpu: 0
I0123 12:52:19.486207 39646 net.cpp:219] Setting up inception_3b/pool_proj
I0123 12:52:19.486222 39646 net.cpp:226] Top shape: 8 64 28 28 (401408)
I0123 12:52:19.486229 39646 net.cpp:234] Memory required for data: 256098432
I0123 12:52:19.486241 39646 net.cpp:154] Setting up Layer of device :0 @cpu 0 Layer : inception_3b/relu_pool_proj
I0123 12:52:19.486249 39646 layer_factory.hpp:114] Creating layer inception_3b/relu_pool_proj
I0123 12:52:19.486259 39646 net.cpp:169] Creating Layer inception_3b/relu_pool_proj
I0123 12:52:19.486268 39646 net.cpp:606] inception_3b/relu_pool_proj <- inception_3b/pool_proj
I0123 12:52:19.486287 39646 net.cpp:566] inception_3b/relu_pool_proj -> inception_3b/pool_proj (in-place)
I0123 12:52:19.486299 39646 net.cpp:219] Setting up inception_3b/relu_pool_proj
I0123 12:52:19.486309 39646 net.cpp:226] Top shape: 8 64 28 28 (401408)
I0123 12:52:19.486315 39646 net.cpp:234] Memory required for data: 257704064
I0123 12:52:19.486323 39646 net.cpp:154] Setting up Layer of device :0 @cpu 0 Layer : inception_3b/output
I0123 12:52:19.486330 39646 layer_factory.hpp:114] Creating layer inception_3b/output
I0123 12:52:19.486341 39646 net.cpp:169] Creating Layer inception_3b/output
I0123 12:52:19.486349 39646 net.cpp:606] inception_3b/output <- inception_3b/1x1
I0123 12:52:19.486357 39646 net.cpp:606] inception_3b/output <- inception_3b/3x3
I0123 12:52:19.486366 39646 net.cpp:606] inception_3b/output <- inception_3b/5x5
I0123 12:52:19.486373 39646 net.cpp:606] inception_3b/output <- inception_3b/pool_proj
I0123 12:52:19.486387 39646 net.cpp:579] inception_3b/output -> inception_3b/output
I0123 12:52:19.486393 39646 net.cpp:582] From AppendTop @cpu: 0
I0123 12:52:19.486405 39646 net.cpp:219] Setting up inception_3b/output
I0123 12:52:19.486414 39646 net.cpp:226] Top shape: 8 480 28 28 (3010560)
I0123 12:52:19.486421 39646 net.cpp:234] Memory required for data: 269746304
I0123 12:52:19.486429 39646 net.cpp:154] Setting up Layer of device :0 @cpu 0 Layer : pool3/3x3_s2
I0123 12:52:19.486436 39646 layer_factory.hpp:114] Creating layer pool3/3x3_s2
I0123 12:52:19.486464 39646 net.cpp:169] Creating Layer pool3/3x3_s2
I0123 12:52:19.486474 39646 net.cpp:606] pool3/3x3_s2 <- inception_3b/output
I0123 12:52:19.486487 39646 net.cpp:579] pool3/3x3_s2 -> pool3/3x3_s2
I0123 12:52:19.486505 39646 net.cpp:582] From AppendTop @cpu: 0
I0123 12:52:19.486518 39646 net.cpp:219] Setting up pool3/3x3_s2
I0123 12:52:19.486527 39646 net.cpp:226] Top shape: 8 480 14 14 (752640)
I0123 12:52:19.486534 39646 net.cpp:234] Memory required for data: 272756864
I0123 12:52:19.486543 39646 net.cpp:154] Setting up Layer of device :0 @cpu 0 Layer : pool3/3x3_s2_pool3/3x3_s2_0_split
I0123 12:52:19.486551 39646 layer_factory.hpp:114] Creating layer pool3/3x3_s2_pool3/3x3_s2_0_split
I0123 12:52:19.486559 39646 net.cpp:169] Creating Layer pool3/3x3_s2_pool3/3x3_s2_0_split
I0123 12:52:19.486567 39646 net.cpp:606] pool3/3x3_s2_pool3/3x3_s2_0_split <- pool3/3x3_s2
I0123 12:52:19.486579 39646 net.cpp:579] pool3/3x3_s2_pool3/3x3_s2_0_split -> pool3/3x3_s2_pool3/3x3_s2_0_split_0
I0123 12:52:19.486588 39646 net.cpp:582] From AppendTop @cpu: 0
I0123 12:52:19.486598 39646 net.cpp:579] pool3/3x3_s2_pool3/3x3_s2_0_split -> pool3/3x3_s2_pool3/3x3_s2_0_split_1
I0123 12:52:19.486604 39646 net.cpp:582] From AppendTop @cpu: 0
I0123 12:52:19.486614 39646 net.cpp:579] pool3/3x3_s2_pool3/3x3_s2_0_split -> pool3/3x3_s2_pool3/3x3_s2_0_split_2
I0123 12:52:19.486621 39646 net.cpp:582] From AppendTop @cpu: 0
I0123 12:52:19.486630 39646 net.cpp:579] pool3/3x3_s2_pool3/3x3_s2_0_split -> pool3/3x3_s2_pool3/3x3_s2_0_split_3
I0123 12:52:19.486637 39646 net.cpp:582] From AppendTop @cpu: 0
I0123 12:52:19.486647 39646 net.cpp:219] Setting up pool3/3x3_s2_pool3/3x3_s2_0_split
I0123 12:52:19.486656 39646 net.cpp:226] Top shape: 8 480 14 14 (752640)
I0123 12:52:19.486665 39646 net.cpp:226] Top shape: 8 480 14 14 (752640)
I0123 12:52:19.486673 39646 net.cpp:226] Top shape: 8 480 14 14 (752640)
I0123 12:52:19.486681 39646 net.cpp:226] Top shape: 8 480 14 14 (752640)
I0123 12:52:19.486687 39646 net.cpp:234] Memory required for data: 284799104
I0123 12:52:19.486696 39646 net.cpp:154] Setting up Layer of device :0 @cpu 0 Layer : inception_4a/1x1
I0123 12:52:19.486703 39646 layer_factory.hpp:114] Creating layer inception_4a/1x1
I0123 12:52:19.486721 39646 net.cpp:169] Creating Layer inception_4a/1x1
I0123 12:52:19.486730 39646 net.cpp:606] inception_4a/1x1 <- pool3/3x3_s2_pool3/3x3_s2_0_split_0
I0123 12:52:19.486740 39646 net.cpp:579] inception_4a/1x1 -> inception_4a/1x1
I0123 12:52:19.486747 39646 net.cpp:582] From AppendTop @cpu: 0
I0123 12:52:19.490896 39646 net.cpp:219] Setting up inception_4a/1x1
I0123 12:52:19.490926 39646 net.cpp:226] Top shape: 8 192 14 14 (301056)
I0123 12:52:19.490933 39646 net.cpp:234] Memory required for data: 286003328
I0123 12:52:19.490947 39646 net.cpp:154] Setting up Layer of device :0 @cpu 0 Layer : inception_4a/relu_1x1
I0123 12:52:19.490960 39646 layer_factory.hpp:114] Creating layer inception_4a/relu_1x1
I0123 12:52:19.490973 39646 net.cpp:169] Creating Layer inception_4a/relu_1x1
I0123 12:52:19.490983 39646 net.cpp:606] inception_4a/relu_1x1 <- inception_4a/1x1
I0123 12:52:19.490991 39646 net.cpp:566] inception_4a/relu_1x1 -> inception_4a/1x1 (in-place)
I0123 12:52:19.491003 39646 net.cpp:219] Setting up inception_4a/relu_1x1
I0123 12:52:19.491011 39646 net.cpp:226] Top shape: 8 192 14 14 (301056)
I0123 12:52:19.491017 39646 net.cpp:234] Memory required for data: 287207552
I0123 12:52:19.491026 39646 net.cpp:154] Setting up Layer of device :0 @cpu 0 Layer : inception_4a/3x3_reduce
I0123 12:52:19.491034 39646 layer_factory.hpp:114] Creating layer inception_4a/3x3_reduce
I0123 12:52:19.491050 39646 net.cpp:169] Creating Layer inception_4a/3x3_reduce
I0123 12:52:19.491058 39646 net.cpp:606] inception_4a/3x3_reduce <- pool3/3x3_s2_pool3/3x3_s2_0_split_1
I0123 12:52:19.491068 39646 net.cpp:579] inception_4a/3x3_reduce -> inception_4a/3x3_reduce
I0123 12:52:19.491075 39646 net.cpp:582] From AppendTop @cpu: 0
I0123 12:52:19.494201 39646 net.cpp:219] Setting up inception_4a/3x3_reduce
I0123 12:52:19.494217 39646 net.cpp:226] Top shape: 8 96 14 14 (150528)
I0123 12:52:19.494225 39646 net.cpp:234] Memory required for data: 287809664
I0123 12:52:19.494257 39646 net.cpp:154] Setting up Layer of device :0 @cpu 0 Layer : inception_4a/relu_3x3_reduce
I0123 12:52:19.494274 39646 layer_factory.hpp:114] Creating layer inception_4a/relu_3x3_reduce
I0123 12:52:19.494287 39646 net.cpp:169] Creating Layer inception_4a/relu_3x3_reduce
I0123 12:52:19.494295 39646 net.cpp:606] inception_4a/relu_3x3_reduce <- inception_4a/3x3_reduce
I0123 12:52:19.494304 39646 net.cpp:566] inception_4a/relu_3x3_reduce -> inception_4a/3x3_reduce (in-place)
I0123 12:52:19.494315 39646 net.cpp:219] Setting up inception_4a/relu_3x3_reduce
I0123 12:52:19.494324 39646 net.cpp:226] Top shape: 8 96 14 14 (150528)
I0123 12:52:19.494330 39646 net.cpp:234] Memory required for data: 288411776
I0123 12:52:19.494339 39646 net.cpp:154] Setting up Layer of device :0 @cpu 0 Layer : inception_4a/3x3
I0123 12:52:19.494345 39646 layer_factory.hpp:114] Creating layer inception_4a/3x3
I0123 12:52:19.494360 39646 net.cpp:169] Creating Layer inception_4a/3x3
I0123 12:52:19.494369 39646 net.cpp:606] inception_4a/3x3 <- inception_4a/3x3_reduce
I0123 12:52:19.494381 39646 net.cpp:579] inception_4a/3x3 -> inception_4a/3x3
I0123 12:52:19.494388 39646 net.cpp:582] From AppendTop @cpu: 0
I0123 12:52:19.501385 39646 net.cpp:219] Setting up inception_4a/3x3
I0123 12:52:19.501410 39646 net.cpp:226] Top shape: 8 208 14 14 (326144)
I0123 12:52:19.501416 39646 net.cpp:234] Memory required for data: 289716352
I0123 12:52:19.501428 39646 net.cpp:154] Setting up Layer of device :0 @cpu 0 Layer : inception_4a/relu_3x3
I0123 12:52:19.501443 39646 layer_factory.hpp:114] Creating layer inception_4a/relu_3x3
I0123 12:52:19.501462 39646 net.cpp:169] Creating Layer inception_4a/relu_3x3
I0123 12:52:19.501471 39646 net.cpp:606] inception_4a/relu_3x3 <- inception_4a/3x3
I0123 12:52:19.501480 39646 net.cpp:566] inception_4a/relu_3x3 -> inception_4a/3x3 (in-place)
I0123 12:52:19.501492 39646 net.cpp:219] Setting up inception_4a/relu_3x3
I0123 12:52:19.501500 39646 net.cpp:226] Top shape: 8 208 14 14 (326144)
I0123 12:52:19.501507 39646 net.cpp:234] Memory required for data: 291020928
I0123 12:52:19.501515 39646 net.cpp:154] Setting up Layer of device :0 @cpu 0 Layer : inception_4a/5x5_reduce
I0123 12:52:19.501523 39646 layer_factory.hpp:114] Creating layer inception_4a/5x5_reduce
I0123 12:52:19.501538 39646 net.cpp:169] Creating Layer inception_4a/5x5_reduce
I0123 12:52:19.501546 39646 net.cpp:606] inception_4a/5x5_reduce <- pool3/3x3_s2_pool3/3x3_s2_0_split_2
I0123 12:52:19.501565 39646 net.cpp:579] inception_4a/5x5_reduce -> inception_4a/5x5_reduce
I0123 12:52:19.501574 39646 net.cpp:582] From AppendTop @cpu: 0
I0123 12:52:19.503554 39646 net.cpp:219] Setting up inception_4a/5x5_reduce
I0123 12:52:19.503569 39646 net.cpp:226] Top shape: 8 16 14 14 (25088)
I0123 12:52:19.503576 39646 net.cpp:234] Memory required for data: 291121280
I0123 12:52:19.503588 39646 net.cpp:154] Setting up Layer of device :0 @cpu 0 Layer : inception_4a/relu_5x5_reduce
I0123 12:52:19.503610 39646 layer_factory.hpp:114] Creating layer inception_4a/relu_5x5_reduce
I0123 12:52:19.503628 39646 net.cpp:169] Creating Layer inception_4a/relu_5x5_reduce
I0123 12:52:19.503643 39646 net.cpp:606] inception_4a/relu_5x5_reduce <- inception_4a/5x5_reduce
I0123 12:52:19.503654 39646 net.cpp:566] inception_4a/relu_5x5_reduce -> inception_4a/5x5_reduce (in-place)
I0123 12:52:19.503665 39646 net.cpp:219] Setting up inception_4a/relu_5x5_reduce
I0123 12:52:19.503674 39646 net.cpp:226] Top shape: 8 16 14 14 (25088)
I0123 12:52:19.503681 39646 net.cpp:234] Memory required for data: 291221632
I0123 12:52:19.503690 39646 net.cpp:154] Setting up Layer of device :0 @cpu 0 Layer : inception_4a/5x5
I0123 12:52:19.503696 39646 layer_factory.hpp:114] Creating layer inception_4a/5x5
I0123 12:52:19.503711 39646 net.cpp:169] Creating Layer inception_4a/5x5
I0123 12:52:19.503720 39646 net.cpp:606] inception_4a/5x5 <- inception_4a/5x5_reduce
I0123 12:52:19.503731 39646 net.cpp:579] inception_4a/5x5 -> inception_4a/5x5
I0123 12:52:19.503739 39646 net.cpp:582] From AppendTop @cpu: 0
I0123 12:52:19.505465 39646 net.cpp:219] Setting up inception_4a/5x5
I0123 12:52:19.505491 39646 net.cpp:226] Top shape: 8 48 14 14 (75264)
I0123 12:52:19.505498 39646 net.cpp:234] Memory required for data: 291522688
I0123 12:52:19.505511 39646 net.cpp:154] Setting up Layer of device :0 @cpu 0 Layer : inception_4a/relu_5x5
I0123 12:52:19.505519 39646 layer_factory.hpp:114] Creating layer inception_4a/relu_5x5
I0123 12:52:19.505532 39646 net.cpp:169] Creating Layer inception_4a/relu_5x5
I0123 12:52:19.505540 39646 net.cpp:606] inception_4a/relu_5x5 <- inception_4a/5x5
I0123 12:52:19.505549 39646 net.cpp:566] inception_4a/relu_5x5 -> inception_4a/5x5 (in-place)
I0123 12:52:19.505563 39646 net.cpp:219] Setting up inception_4a/relu_5x5
I0123 12:52:19.505571 39646 net.cpp:226] Top shape: 8 48 14 14 (75264)
I0123 12:52:19.505578 39646 net.cpp:234] Memory required for data: 291823744
I0123 12:52:19.505586 39646 net.cpp:154] Setting up Layer of device :0 @cpu 0 Layer : inception_4a/pool
I0123 12:52:19.505594 39646 layer_factory.hpp:114] Creating layer inception_4a/pool
I0123 12:52:19.505620 39646 net.cpp:169] Creating Layer inception_4a/pool
I0123 12:52:19.505628 39646 net.cpp:606] inception_4a/pool <- pool3/3x3_s2_pool3/3x3_s2_0_split_3
I0123 12:52:19.505640 39646 net.cpp:579] inception_4a/pool -> inception_4a/pool
I0123 12:52:19.505646 39646 net.cpp:582] From AppendTop @cpu: 0
I0123 12:52:19.505658 39646 net.cpp:219] Setting up inception_4a/pool
I0123 12:52:19.505668 39646 net.cpp:226] Top shape: 8 480 14 14 (752640)
I0123 12:52:19.505674 39646 net.cpp:234] Memory required for data: 294834304
I0123 12:52:19.505683 39646 net.cpp:154] Setting up Layer of device :0 @cpu 0 Layer : inception_4a/pool_proj
I0123 12:52:19.505691 39646 layer_factory.hpp:114] Creating layer inception_4a/pool_proj
I0123 12:52:19.505707 39646 net.cpp:169] Creating Layer inception_4a/pool_proj
I0123 12:52:19.505715 39646 net.cpp:606] inception_4a/pool_proj <- inception_4a/pool
I0123 12:52:19.505726 39646 net.cpp:579] inception_4a/pool_proj -> inception_4a/pool_proj
I0123 12:52:19.505733 39646 net.cpp:582] From AppendTop @cpu: 0
I0123 12:52:19.508465 39646 net.cpp:219] Setting up inception_4a/pool_proj
I0123 12:52:19.508481 39646 net.cpp:226] Top shape: 8 64 14 14 (100352)
I0123 12:52:19.508487 39646 net.cpp:234] Memory required for data: 295235712
I0123 12:52:19.508499 39646 net.cpp:154] Setting up Layer of device :0 @cpu 0 Layer : inception_4a/relu_pool_proj
I0123 12:52:19.508507 39646 layer_factory.hpp:114] Creating layer inception_4a/relu_pool_proj
I0123 12:52:19.508530 39646 net.cpp:169] Creating Layer inception_4a/relu_pool_proj
I0123 12:52:19.508538 39646 net.cpp:606] inception_4a/relu_pool_proj <- inception_4a/pool_proj
I0123 12:52:19.508551 39646 net.cpp:566] inception_4a/relu_pool_proj -> inception_4a/pool_proj (in-place)
I0123 12:52:19.508563 39646 net.cpp:219] Setting up inception_4a/relu_pool_proj
I0123 12:52:19.508571 39646 net.cpp:226] Top shape: 8 64 14 14 (100352)
I0123 12:52:19.508579 39646 net.cpp:234] Memory required for data: 295637120
I0123 12:52:19.508586 39646 net.cpp:154] Setting up Layer of device :0 @cpu 0 Layer : inception_4a/output
I0123 12:52:19.508594 39646 layer_factory.hpp:114] Creating layer inception_4a/output
I0123 12:52:19.508605 39646 net.cpp:169] Creating Layer inception_4a/output
I0123 12:52:19.508611 39646 net.cpp:606] inception_4a/output <- inception_4a/1x1
I0123 12:52:19.508620 39646 net.cpp:606] inception_4a/output <- inception_4a/3x3
I0123 12:52:19.508628 39646 net.cpp:606] inception_4a/output <- inception_4a/5x5
I0123 12:52:19.508636 39646 net.cpp:606] inception_4a/output <- inception_4a/pool_proj
I0123 12:52:19.508646 39646 net.cpp:579] inception_4a/output -> inception_4a/output
I0123 12:52:19.508652 39646 net.cpp:582] From AppendTop @cpu: 0
I0123 12:52:19.508663 39646 net.cpp:219] Setting up inception_4a/output
I0123 12:52:19.508672 39646 net.cpp:226] Top shape: 8 512 14 14 (802816)
I0123 12:52:19.508679 39646 net.cpp:234] Memory required for data: 298848384
I0123 12:52:19.508688 39646 net.cpp:154] Setting up Layer of device :0 @cpu 0 Layer : inception_4a/output_inception_4a/output_0_split
I0123 12:52:19.508704 39646 layer_factory.hpp:114] Creating layer inception_4a/output_inception_4a/output_0_split
I0123 12:52:19.508719 39646 net.cpp:169] Creating Layer inception_4a/output_inception_4a/output_0_split
…
I0123 12:52:19.508781 39646 net.cpp:582] From AppendTop @cpu: 0
I0123 12:52:19.508792 39646 net.cpp:579] inception_4a/output_inception_4a/output_0_split -> inception_4a/output_inception_4a/output_0_split_3
I0123 12:52:19.508800 39646 net.cpp:582] From AppendTop @cpu: 0
I0123 12:52:19.508808 39646 net.cpp:579] inception_4a/output_inception_4a/output_0_split -> inception_4a/output_inception_4a/output_0_split_4
I0123 12:52:19.508816 39646 net.cpp:582] From AppendTop @cpu: 0
I0123 12:52:19.508827 39646 net.cpp:219] Setting up inception_4a/output_inception_4a/output_0_split
I0123 12:52:19.508836 39646 net.cpp:226] Top shape: 8 512 14 14 (802816)
I0123 12:52:19.508844 39646 net.cpp:226] Top shape: 8 512 14 14 (802816)
I0123 12:52:19.508853 39646 net.cpp:226] Top shape: 8 512 14 14 (802816)
I0123 12:52:19.508860 39646 net.cpp:226] Top shape: 8 512 14 14 (802816)
I0123 12:52:19.508868 39646 net.cpp:226] Top shape: 8 512 14 14 (802816)
I0123 12:52:19.508875 39646 net.cpp:234] Memory required for data: 314904704
I0123 12:52:19.508883 39646 net.cpp:154] Setting up Layer of device :0 @cpu 0 Layer : loss1/ave_pool
I0123 12:52:19.508891 39646 layer_factory.hpp:114] Creating layer loss1/ave_pool
I0123 12:52:19.508915 39646 net.cpp:169] Creating Layer loss1/ave_pool
I0123 12:52:19.508924 39646 net.cpp:606] loss1/ave_pool <- inception_4a/output_inception_4a/output_0_split_0
I0123 12:52:19.508937 39646 net.cpp:579] loss1/ave_pool -> loss1/ave_pool
I0123 12:52:19.508944 39646 net.cpp:582] From AppendTop @cpu: 0
I0123 12:52:19.508961 39646 net.cpp:219] Setting up loss1/ave_pool
I0123 12:52:19.508972 39646 net.cpp:226] Top shape: 8 512 4 4 (65536)
I0123 12:52:19.508978 39646 net.cpp:234] Memory required for data: 315166848
I0123 12:52:19.508987 39646 net.cpp:154] Setting up Layer of device :0 @cpu 0 Layer : loss1/conv
I0123 12:52:19.508994 39646 layer_factory.hpp:114] Creating layer loss1/conv
I0123 12:52:19.509009 39646 net.cpp:169] Creating Layer loss1/conv
I0123 12:52:19.509017 39646 net.cpp:606] loss1/conv <- loss1/ave_pool
I0123 12:52:19.509028 39646 net.cpp:579] loss1/conv -> loss1/conv
I0123 12:52:19.509038 39646 net.cpp:582] From AppendTop @cpu: 0
I0123 12:52:19.511073 39646 net.cpp:219] Setting up loss1/conv
I0123 12:52:19.511090 39646 net.cpp:226] Top shape: 8 128 4 4 (16384)
I0123 12:52:19.511096 39646 net.cpp:234] Memory required for data: 315232384
I0123 12:52:19.511108 39646 net.cpp:154] Setting up Layer of device :0 @cpu 0 Layer : loss1/relu_conv
I0123 12:52:19.511116 39646 layer_factory.hpp:114] Creating layer loss1/relu_conv
I0123 12:52:19.511126 39646 net.cpp:169] Creating Layer loss1/relu_conv
I0123 12:52:19.511133 39646 net.cpp:606] loss1/relu_conv <- loss1/conv
I0123 12:52:19.511142 39646 net.cpp:566] loss1/relu_conv -> loss1/conv (in-place)
I0123 12:52:19.511153 39646 net.cpp:219] Setting up loss1/relu_conv
I0123 12:52:19.511162 39646 net.cpp:226] Top shape: 8 128 4 4 (16384)
I0123 12:52:19.511168 39646 net.cpp:234] Memory required for data: 315297920
I0123 12:52:19.511203 39646 net.cpp:154] Setting up Layer of device :0 @cpu 0 Layer : loss1/fc
I0123 12:52:19.511217 39646 layer_factory.hpp:114] Creating layer loss1/fc
I0123 12:52:19.511245 39646 net.cpp:169] Creating Layer loss1/fc
I0123 12:52:19.511255 39646 net.cpp:606] loss1/fc <- loss1/conv
I0123 12:52:19.511265 39646 net.cpp:579] loss1/fc -> loss1/fc
I0123 12:52:19.511271 39646 net.cpp:582] From AppendTop @cpu: 0
I0123 12:52:19.531999 39646 net.cpp:219] Setting up loss1/fc
I0123 12:52:19.532028 39646 net.cpp:226] Top shape: 8 1024 (8192)
I0123 12:52:19.532037 39646 net.cpp:234] Memory required for data: 315330688
I0123 12:52:19.532052 39646 net.cpp:154] Setting up Layer of device :0 @cpu 0 Layer : loss1/relu_fc
I0123 12:52:19.532058 39646 layer_factory.hpp:114] Creating layer loss1/relu_fc
I0123 12:52:19.532073 39646 net.cpp:169] Creating Layer loss1/relu_fc
I0123 12:52:19.532081 39646 net.cpp:606] loss1/relu_fc <- loss1/fc
I0123 12:52:19.532091 39646 net.cpp:566] loss1/relu_fc -> loss1/fc (in-place)
I0123 12:52:19.532104 39646 net.cpp:219] Setting up loss1/relu_fc
I0123 12:52:19.532112 39646 net.cpp:226] Top shape: 8 1024 (8192)
I0123 12:52:19.532119 39646 net.cpp:234] Memory required for data: 315363456
I0123 12:52:19.532127 39646 net.cpp:154] Setting up Layer of device :0 @cpu 0 Layer : loss1/drop_fc
I0123 12:52:19.532135 39646 layer_factory.hpp:114] Creating layer loss1/drop_fc
I0123 12:52:19.532151 39646 net.cpp:169] Creating Layer loss1/drop_fc
I0123 12:52:19.532160 39646 net.cpp:606] loss1/drop_fc <- loss1/fc
I0123 12:52:19.532197 39646 net.cpp:566] loss1/drop_fc -> loss1/fc (in-place)
I0123 12:52:19.532217 39646 net.cpp:219] Setting up loss1/drop_fc
I0123 12:52:19.532225 39646 net.cpp:226] Top shape: 8 1024 (8192)
I0123 12:52:19.532232 39646 net.cpp:234] Memory required for data: 315396224
I0123 12:52:19.532241 39646 net.cpp:154] Setting up Layer of device :0 @cpu 0 Layer : loss1/classifier
I0123 12:52:19.532249 39646 layer_factory.hpp:114] Creating layer loss1/classifier
I0123 12:52:19.532263 39646 net.cpp:169] Creating Layer loss1/classifier
I0123 12:52:19.532269 39646 net.cpp:606] loss1/classifier <- loss1/fc
I0123 12:52:19.532282 39646 net.cpp:579] loss1/classifier -> loss1/classifier
I0123 12:52:19.532289 39646 net.cpp:582] From AppendTop @cpu: 0
I0123 12:52:19.542750 39646 net.cpp:219] Setting up loss1/classifier
I0123 12:52:19.542770 39646 net.cpp:226] Top shape: 8 1000 (8000)
I0123 12:52:19.542778 39646 net.cpp:234] Memory required for data: 315428224
I0123 12:52:19.542790 39646 net.cpp:154] Setting up Layer of device :0 @cpu 0 Layer : loss1/loss
I0123 12:52:19.542816 39646 layer_factory.hpp:114] Creating layer loss1/loss
I0123 12:52:19.542834 39646 net.cpp:169] Creating Layer loss1/loss
I0123 12:52:19.542843 39646 net.cpp:606] loss1/loss <- loss1/classifier
…
I0123 12:52:19.543062 39646 net.cpp:154] Setting up Layer of device :0 @cpu 0 Layer : inception_4b/1x1
I0123 12:52:19.543071 39646 layer_factory.hpp:114] Creating layer inception_4b/1x1
I0123 12:52:19.543089 39646 net.cpp:169] Creating Layer inception_4b/1x1
I0123 12:52:19.543098 39646 net.cpp:606] inception_4b/1x1 <- inception_4a/output_inception_4a/output_0_split_1
I0123 12:52:19.543109 39646 net.cpp:579] inception_4b/1x1 -> inception_4b/1x1
I0123 12:52:19.543117 39646 net.cpp:582] From AppendTop @cpu: 0
I0123 12:52:19.547241 39646 net.cpp:219] Setting up inception_4b/1x1
I0123 12:52:19.547264 39646 net.cpp:226] Top shape: 8 160 14 14 (250880)
I0123 12:52:19.547271 39646 net.cpp:234] Memory required for data: 316431748
I0123 12:52:19.547292 39646 net.cpp:154] Setting up Layer of device :0 @cpu 0 Layer : inception_4b/relu_1x1
I0123 12:52:19.547299 39646 layer_factory.hpp:114] Creating layer inception_4b/relu_1x1
I0123 12:52:19.547349 39646 net.cpp:169] Creating Layer inception_4b/relu_1x1
I0123 12:52:19.547358 39646 net.cpp:606] inception_4b/relu_1x1 <- inception_4b/1x1
I0123 12:52:19.547369 39646 net.cpp:566] inception_4b/relu_1x1 -> inception_4b/1x1 (in-place)
I0123 12:52:19.547379 39646 net.cpp:219] Setting up inception_4b/relu_1x1
I0123 12:52:19.547389 39646 net.cpp:226] Top shape: 8 160 14 14 (250880)
I0123 12:52:19.547395 39646 net.cpp:234] Memory required for data: 317435268
I0123 12:52:19.547404 39646 net.cpp:154] Setting up Layer of device :0 @cpu 0 Layer : inception_4b/3x3_reduce
I0123 12:52:19.547411 39646 layer_factory.hpp:114] Creating layer inception_4b/3x3_reduce
I0123 12:52:19.547431 39646 net.cpp:169] Creating Layer inception_4b/3x3_reduce
I0123 12:52:19.547441 39646 net.cpp:606] inception_4b/3x3_reduce <- inception_4a/output_inception_4a/output_0_split_2
I0123 12:52:19.547453 39646 net.cpp:579] inception_4b/3x3_reduce -> inception_4b/3x3_reduce
I0123 12:52:19.547461 39646 net.cpp:582] From AppendTop @cpu: 0
I0123 12:52:19.550638 39646 net.cpp:219] Setting up inception_4b/3x3_reduce
I0123 12:52:19.550654 39646 net.cpp:226] Top shape: 8 112 14 14 (175616)
I0123 12:52:19.550662 39646 net.cpp:234] Memory required for data: 318137732
I0123 12:52:19.550674 39646 net.cpp:154] Setting up Layer of device :0 @cpu 0 Layer : inception_4b/relu_3x3_reduce
I0123 12:52:19.550681 39646 layer_factory.hpp:114] Creating layer inception_4b/relu_3x3_reduce
I0123 12:52:19.550691 39646 net.cpp:169] Creating Layer inception_4b/relu_3x3_reduce
I0123 12:52:19.550700 39646 net.cpp:606] inception_4b/relu_3x3_reduce <- inception_4b/3x3_reduce
I0123 12:52:19.550712 39646 net.cpp:566] inception_4b/relu_3x3_reduce -> inception_4b/3x3_reduce (in-place)
I0123 12:52:19.550724 39646 net.cpp:219] Setting up inception_4b/relu_3x3_reduce
I0123 12:52:19.550732 39646 net.cpp:226] Top shape: 8 112 14 14 (175616)
I0123 12:52:19.550739 39646 net.cpp:234] Memory required for data: 318840196
I0123 12:52:19.550747 39646 net.cpp:154] Setting up Layer of device :0 @cpu 0 Layer : inception_4b/3x3
I0123 12:52:19.550755 39646 layer_factory.hpp:114] Creating layer inception_4b/3x3
I0123 12:52:19.550770 39646 net.cpp:169] Creating Layer inception_4b/3x3
I0123 12:52:19.550777 39646 net.cpp:606] inception_4b/3x3 <- inception_4b/3x3_reduce
I0123 12:52:19.550787 39646 net.cpp:579] inception_4b/3x3 -> inception_4b/3x3
I0123 12:52:19.550802 39646 net.cpp:582] From AppendTop @cpu: 0
I0123 12:52:19.559588 39646 net.cpp:219] Setting up inception_4b/3x3
I0123 12:52:19.559605 39646 net.cpp:226] Top shape: 8 224 14 14 (351232)
I0123 12:52:19.559612 39646 net.cpp:234] Memory required for data: 320245124
I0123 12:52:19.559625 39646 net.cpp:154] Setting up Layer of device :0 @cpu 0 Layer : inception_4b/relu_3x3
I0123 12:52:19.559639 39646 layer_factory.hpp:114] Creating layer inception_4b/relu_3x3
I0123 12:52:19.559649 39646 net.cpp:169] Creating Layer inception_4b/relu_3x3
I0123 12:52:19.559658 39646 net.cpp:606] inception_4b/relu_3x3 <- inception_4b/3x3
I0123 12:52:19.559666 39646 net.cpp:566] inception_4b/relu_3x3 -> inception_4b/3x3 (in-place)
I0123 12:52:19.559677 39646 net.cpp:219] Setting up inception_4b/relu_3x3
I0123 12:52:19.559686 39646 net.cpp:226] Top shape: 8 224 14 14 (351232)
I0123 12:52:19.559692 39646 net.cpp:234] Memory required for data: 321650052
I0123 12:52:19.559701 39646 net.cpp:154] Setting up Layer of device :0 @cpu 0 Layer : inception_4b/5x5_reduce
I0123 12:52:19.559708 39646 layer_factory.hpp:114] Creating layer inception_4b/5x5_reduce
I0123 12:52:19.559723 39646 net.cpp:169] Creating Layer inception_4b/5x5_reduce
I0123 12:52:19.559731 39646 net.cpp:606] inception_4b/5x5_reduce <- inception_4a/output_inception_4a/output_0_split_3
I0123 12:52:19.559746 39646 net.cpp:579] inception_4b/5x5_reduce -> inception_4b/5x5_reduce
I0123 12:52:19.559752 39646 net.cpp:582] From AppendTop @cpu: 0
I0123 12:52:19.561717 39646 net.cpp:219] Setting up inception_4b/5x5_reduce
I0123 12:52:19.561733 39646 net.cpp:226] Top shape: 8 24 14 14 (37632)
I0123 12:52:19.561748 39646 net.cpp:234] Memory required for data: 321800580
I0123 12:52:19.561761 39646 net.cpp:154] Setting up Layer of device :0 @cpu 0 Layer : inception_4b/relu_5x5_reduce
I0123 12:52:19.561769 39646 layer_factory.hpp:114] Creating layer inception_4b/relu_5x5_reduce
I0123 12:52:19.561784 39646 net.cpp:169] Creating Layer inception_4b/relu_5x5_reduce
I0123 12:52:19.561794 39646 net.cpp:606] inception_4b/relu_5x5_reduce <- inception_4b/5x5_reduce
I0123 12:52:19.561802 39646 net.cpp:566] inception_4b/relu_5x5_reduce -> inception_4b/5x5_reduce (in-place)
I0123 12:52:19.561813 39646 net.cpp:219] Setting up inception_4b/relu_5x5_reduce
I0123 12:52:19.561821 39646 net.cpp:226] Top shape: 8 24 14 14 (37632)
I0123 12:52:19.561828 39646 net.cpp:234] Memory required for data: 321951108
I0123 12:52:19.561837 39646 net.cpp:154] Setting up Layer of device :0 @cpu 0 Layer : inception_4b/5x5
I0123 12:52:19.561844 39646 layer_factory.hpp:114] Creating layer inception_4b/5x5
I0123 12:52:19.561861 39646 net.cpp:169] Creating Layer inception_4b/5x5
I0123 12:52:19.561868 39646 net.cpp:606] inception_4b/5x5 <- inception_4b/5x5_reduce
I0123 12:52:19.561882 39646 net.cpp:579] inception_4b/5x5 -> inception_4b/5x5
I0123 12:52:19.561889 39646 net.cpp:582] From AppendTop @cpu: 0
I0123 12:52:19.564946 39646 net.cpp:219] Setting up inception_4b/5x5
I0123 12:52:19.564962 39646 net.cpp:226] Top shape: 8 64 14 14 (100352)
I0123 12:52:19.564970 39646 net.cpp:234] Memory required for data: 322352516
I0123 12:52:19.564981 39646 net.cpp:154] Setting up Layer of device :0 @cpu 0 Layer : inception_4b/relu_5x5
I0123 12:52:19.564990 39646 layer_factory.hpp:114] Creating layer inception_4b/relu_5x5
I0123 12:52:19.564999 39646 net.cpp:169] Creating Layer inception_4b/relu_5x5
I0123 12:52:19.565007 39646 net.cpp:606] inception_4b/relu_5x5 <- inception_4b/5x5
I0123 12:52:19.565019 39646 net.cpp:566] inception_4b/relu_5x5 -> inception_4b/5x5 (in-place)
I0123 12:52:19.565031 39646 net.cpp:219] Setting up inception_4b/relu_5x5
I0123 12:52:19.565038 39646 net.cpp:226] Top shape: 8 64 14 14 (100352)
I0123 12:52:19.565045 39646 net.cpp:234] Memory required for data: 322753924
I0123 12:52:19.565054 39646 net.cpp:154] Setting up Layer of device :0 @cpu 0 Layer : inception_4b/pool
I0123 12:52:19.565062 39646 layer_factory.hpp:114] Creating layer inception_4b/pool
I0123 12:52:19.565104 39646 net.cpp:169] Creating Layer inception_4b/pool
I0123 12:52:19.565120 39646 net.cpp:606] inception_4b/pool <- inception_4a/output_inception_4a/output_0_split_4
I0123 12:52:19.565135 39646 net.cpp:579] inception_4b/pool -> inception_4b/pool
I0123 12:52:19.565142 39646 net.cpp:582] From AppendTop @cpu: 0
I0123 12:52:19.565165 39646 net.cpp:219] Setting up inception_4b/pool
I0123 12:52:19.565207 39646 net.cpp:226] Top shape: 8 512 14 14 (802816)
I0123 12:52:19.565213 39646 net.cpp:234] Memory required for data: 325965188
I0123 12:52:19.565222 39646 net.cpp:154] Setting up Layer of device :0 @cpu 0 Layer : inception_4b/pool_proj
I0123 12:52:19.565230 39646 layer_factory.hpp:114] Creating layer inception_4b/pool_proj
I0123 12:52:19.565248 39646 net.cpp:169] Creating Layer inception_4b/pool_proj
I0123 12:52:19.565255 39646 net.cpp:606] inception_4b/pool_proj <- inception_4b/pool
I0123 12:52:19.565269 39646 net.cpp:579] inception_4b/pool_proj -> inception_4b/pool_proj
I0123 12:52:19.565276 39646 net.cpp:582] From AppendTop @cpu: 0
I0123 12:52:19.567653 39646 net.cpp:219] Setting up inception_4b/pool_proj
I0123 12:52:19.567669 39646 net.cpp:226] Top shape: 8 64 14 14 (100352)
I0123 12:52:19.567677 39646 net.cpp:234] Memory required for data: 326366596
I0123 12:52:19.567688 39646 net.cpp:154] Setting up Layer of device :0 @cpu 0 Layer : inception_4b/relu_pool_proj
I0123 12:52:19.567703 39646 layer_factory.hpp:114] Creating layer inception_4b/relu_pool_proj
I0123 12:52:19.567723 39646 net.cpp:169] Creating Layer inception_4b/relu_pool_proj
I0123 12:52:19.567739 39646 net.cpp:606] inception_4b/relu_pool_proj <- inception_4b/pool_proj
I0123 12:52:19.567747 39646 net.cpp:566] inception_4b/relu_pool_proj -> inception_4b/pool_proj (in-place)
I0123 12:52:19.567769 39646 net.cpp:219] Setting up inception_4b/relu_pool_proj
I0123 12:52:19.567778 39646 net.cpp:226] Top shape: 8 64 14 14 (100352)
I0123 12:52:19.567785 39646 net.cpp:234] Memory required for data: 326768004
I0123 12:52:19.567793 39646 net.cpp:154] Setting up Layer of device :0 @cpu 0 Layer : inception_4b/output
I0123 12:52:19.567800 39646 layer_factory.hpp:114] Creating layer inception_4b/output
I0123 12:52:19.567812 39646 net.cpp:169] Creating Layer inception_4b/output
I0123 12:52:19.567819 39646 net.cpp:606] inception_4b/output <- inception_4b/1x1
I0123 12:52:19.567827 39646 net.cpp:606] inception_4b/output <- inception_4b/3x3
I0123 12:52:19.567836 39646 net.cpp:606] inception_4b/output <- inception_4b/5x5
I0123 12:52:19.567843 39646 net.cpp:606] inception_4b/output <- inception_4b/pool_proj
I0123 12:52:19.567855 39646 net.cpp:579] inception_4b/output -> inception_4b/output
I0123 12:52:19.567863 39646 net.cpp:582] From AppendTop @cpu: 0
I0123 12:52:19.567876 39646 net.cpp:219] Setting up inception_4b/output
I0123 12:52:19.567885 39646 net.cpp:226] Top shape: 8 512 14 14 (802816)
I0123 12:52:19.567893 39646 net.cpp:234] Memory required for data: 329979268
I0123 12:52:19.567901 39646 net.cpp:154] Setting up Layer of device :0 @cpu 0 Layer : inception_4b/output_inception_4b/output_0_split
I0123 12:52:19.567909 39646 layer_factory.hpp:114] Creating layer inception_4b/output_inception_4b/output_0_split
I0123 12:52:19.567919 39646 net.cpp:169] Creating Layer inception_4b/output_inception_4b/output_0_split
…
I0123 12:52:19.567962 39646 net.cpp:582] From AppendTop @cpu: 0
I0123 12:52:19.567972 39646 net.cpp:579] inception_4b/output_inception_4b/output_0_split -> inception_4b/output_inception_4b/output_0_split_2
I0123 12:52:19.567978 39646 net.cpp:582] From AppendTop @cpu: 0
I0123 12:52:19.567988 39646 net.cpp:579] inception_4b/output_inception_4b/output_0_split -> inception_4b/output_inception_4b/output_0_split_3
I0123 12:52:19.568001 39646 net.cpp:582] From AppendTop @cpu: 0
I0123 12:52:19.568011 39646 net.cpp:219] Setting up inception_4b/output_inception_4b/output_0_split
I0123 12:52:19.568020 39646 net.cpp:226] Top shape: 8 512 14 14 (802816)
I0123 12:52:19.568029 39646 net.cpp:226] Top shape: 8 512 14 14 (802816)
I0123 12:52:19.568037 39646 net.cpp:226] Top shape: 8 512 14 14 (802816)
I0123 12:52:19.568045 39646 net.cpp:226] Top shape: 8 512 14 14 (802816)
I0123 12:52:19.568053 39646 net.cpp:234] Memory required for data: 342824324
I0123 12:52:19.568060 39646 net.cpp:154] Setting up Layer of device :0 @cpu 0 Layer : inception_4c/1x1
I0123 12:52:19.568068 39646 layer_factory.hpp:114] Creating layer inception_4c/1x1
I0123 12:52:19.568084 39646 net.cpp:169] Creating Layer inception_4c/1x1
I0123 12:52:19.568094 39646 net.cpp:606] inception_4c/1x1 <- inception_4b/output_inception_4b/output_0_split_0
I0123 12:52:19.568104 39646 net.cpp:579] inception_4c/1x1 -> inception_4c/1x1
I0123 12:52:19.568110 39646 net.cpp:582] From AppendTop @cpu: 0
I0123 12:52:19.572196 39646 net.cpp:219] Setting up inception_4c/1x1
I0123 12:52:19.572212 39646 net.cpp:226] Top shape: 8 128 14 14 (200704)
I0123 12:52:19.572219 39646 net.cpp:234] Memory required for data: 343627140
I0123 12:52:19.572232 39646 net.cpp:154] Setting up Layer of device :0 @cpu 0 Layer : inception_4c/relu_1x1
I0123 12:52:19.572254 39646 layer_factory.hpp:114] Creating layer inception_4c/relu_1x1
I0123 12:52:19.572280 39646 net.cpp:169] Creating Layer inception_4c/relu_1x1
I0123 12:52:19.572289 39646 net.cpp:606] inception_4c/relu_1x1 <- inception_4c/1x1
I0123 12:52:19.572309 39646 net.cpp:566] inception_4c/relu_1x1 -> inception_4c/1x1 (in-place)
I0123 12:52:19.572320 39646 net.cpp:219] Setting up inception_4c/relu_1x1
I0123 12:52:19.572329 39646 net.cpp:226] Top shape: 8 128 14 14 (200704)
I0123 12:52:19.572335 39646 net.cpp:234] Memory required for data: 344429956
I0123 12:52:19.572345 39646 net.cpp:154] Setting up Layer of device :0 @cpu 0 Layer : inception_4c/3x3_reduce
I0123 12:52:19.572351 39646 layer_factory.hpp:114] Creating layer inception_4c/3x3_reduce
I0123 12:52:19.572366 39646 net.cpp:169] Creating Layer inception_4c/3x3_reduce
I0123 12:52:19.572374 39646 net.cpp:606] inception_4c/3x3_reduce <- inception_4b/output_inception_4b/output_0_split_1
I0123 12:52:19.572387 39646 net.cpp:579] inception_4c/3x3_reduce -> inception_4c/3x3_reduce
I0123 12:52:19.572394 39646 net.cpp:582] From AppendTop @cpu: 0
I0123 12:52:19.576074 39646 net.cpp:219] Setting up inception_4c/3x3_reduce
I0123 12:52:19.576091 39646 net.cpp:226] Top shape: 8 128 14 14 (200704)
I0123 12:52:19.576097 39646 net.cpp:234] Memory required for data: 345232772
I0123 12:52:19.576109 39646 net.cpp:154] Setting up Layer of device :0 @cpu 0 Layer : inception_4c/relu_3x3_reduce
I0123 12:52:19.576123 39646 layer_factory.hpp:114] Creating layer inception_4c/relu_3x3_reduce
I0123 12:52:19.576140 39646 net.cpp:169] Creating Layer inception_4c/relu_3x3_reduce
I0123 12:52:19.576155 39646 net.cpp:606] inception_4c/relu_3x3_reduce <- inception_4c/3x3_reduce
I0123 12:52:19.576169 39646 net.cpp:566] inception_4c/relu_3x3_reduce -> inception_4c/3x3_reduce (in-place)
I0123 12:52:19.576206 39646 net.cpp:219] Setting up inception_4c/relu_3x3_reduce
I0123 12:52:19.576215 39646 net.cpp:226] Top shape: 8 128 14 14 (200704)
I0123 12:52:19.576222 39646 net.cpp:234] Memory required for data: 346035588
I0123 12:52:19.576231 39646 net.cpp:154] Setting up Layer of device :0 @cpu 0 Layer : inception_4c/3x3
I0123 12:52:19.576238 39646 layer_factory.hpp:114] Creating layer inception_4c/3x3
I0123 12:52:19.576251 39646 net.cpp:169] Creating Layer inception_4c/3x3
I0123 12:52:19.576259 39646 net.cpp:606] inception_4c/3x3 <- inception_4c/3x3_reduce
I0123 12:52:19.576269 39646 net.cpp:579] inception_4c/3x3 -> inception_4c/3x3
I0123 12:52:19.576279 39646 net.cpp:582] From AppendTop @cpu: 0
I0123 12:52:19.586683 39646 net.cpp:219] Setting up inception_4c/3x3
I0123 12:52:19.586699 39646 net.cpp:226] Top shape: 8 256 14 14 (401408)
I0123 12:52:19.586719 39646 net.cpp:234] Memory required for data: 347641220
I0123 12:52:19.586768 39646 net.cpp:154] Setting up Layer of device :0 @cpu 0 Layer : inception_4c/relu_3x3
I0123 12:52:19.586776 39646 layer_factory.hpp:114] Creating layer inception_4c/relu_3x3
I0123 12:52:19.586794 39646 net.cpp:169] Creating Layer inception_4c/relu_3x3
I0123 12:52:19.586802 39646 net.cpp:606] inception_4c/relu_3x3 <- inception_4c/3x3
I0123 12:52:19.586812 39646 net.cpp:566] inception_4c/relu_3x3 -> inception_4c/3x3 (in-place)
I0123 12:52:19.586823 39646 net.cpp:219] Setting up inception_4c/relu_3x3
I0123 12:52:19.586833 39646 net.cpp:226] Top shape: 8 256 14 14 (401408)
I0123 12:52:19.586839 39646 net.cpp:234] Memory required for data: 349246852
I0123 12:52:19.586848 39646 net.cpp:154] Setting up Layer of device :0 @cpu 0 Layer : inception_4c/5x5_reduce
I0123 12:52:19.586855 39646 layer_factory.hpp:114] Creating layer inception_4c/5x5_reduce
I0123 12:52:19.586870 39646 net.cpp:169] Creating Layer inception_4c/5x5_reduce
I0123 12:52:19.586879 39646 net.cpp:606] inception_4c/5x5_reduce <- inception_4b/output_inception_4b/output_0_split_2
I0123 12:52:19.586889 39646 net.cpp:579] inception_4c/5x5_reduce -> inception_4c/5x5_reduce
I0123 12:52:19.586896 39646 net.cpp:582] From AppendTop @cpu: 0
I0123 12:52:19.588665 39646 net.cpp:219] Setting up inception_4c/5x5_reduce
I0123 12:52:19.588680 39646 net.cpp:226] Top shape: 8 24 14 14 (37632)
I0123 12:52:19.588687 39646 net.cpp:234] Memory required for data: 349397380
I0123 12:52:19.588699 39646 net.cpp:154] Setting up Layer of device :0 @cpu 0 Layer : inception_4c/relu_5x5_reduce
I0123 12:52:19.588726 39646 layer_factory.hpp:114] Creating layer inception_4c/relu_5x5_reduce
I0123 12:52:19.588735 39646 net.cpp:169] Creating Layer inception_4c/relu_5x5_reduce
I0123 12:52:19.588743 39646 net.cpp:606] inception_4c/relu_5x5_reduce <- inception_4c/5x5_reduce
I0123 12:52:19.588758 39646 net.cpp:566] inception_4c/relu_5x5_reduce -> inception_4c/5x5_reduce (in-place)
I0123 12:52:19.588769 39646 net.cpp:219] Setting up inception_4c/relu_5x5_reduce
I0123 12:52:19.588778 39646 net.cpp:226] Top shape: 8 24 14 14 (37632)
I0123 12:52:19.588785 39646 net.cpp:234] Memory required for data: 349547908
I0123 12:52:19.588793 39646 net.cpp:154] Setting up Layer of device :0 @cpu 0 Layer : inception_4c/5x5
I0123 12:52:19.588800 39646 layer_factory.hpp:114] Creating layer inception_4c/5x5
I0123 12:52:19.588819 39646 net.cpp:169] Creating Layer inception_4c/5x5
I0123 12:52:19.588826 39646 net.cpp:606] inception_4c/5x5 <- inception_4c/5x5_reduce
I0123 12:52:19.588836 39646 net.cpp:579] inception_4c/5x5 -> inception_4c/5x5
I0123 12:52:19.588843 39646 net.cpp:582] From AppendTop @cpu: 0
I0123 12:52:19.591509 39646 net.cpp:219] Setting up inception_4c/5x5
I0123 12:52:19.591526 39646 net.cpp:226] Top shape: 8 64 14 14 (100352)
I0123 12:52:19.591532 39646 net.cpp:234] Memory required for data: 349949316
I0123 12:52:19.591544 39646 net.cpp:154] Setting up Layer of device :0 @cpu 0 Layer : inception_4c/relu_5x5
I0123 12:52:19.591559 39646 layer_factory.hpp:114] Creating layer inception_4c/relu_5x5
I0123 12:52:19.591569 39646 net.cpp:169] Creating Layer inception_4c/relu_5x5
I0123 12:52:19.591578 39646 net.cpp:606] inception_4c/relu_5x5 <- inception_4c/5x5
I0123 12:52:19.591596 39646 net.cpp:566] inception_4c/relu_5x5 -> inception_4c/5x5 (in-place)
I0123 12:52:19.591608 39646 net.cpp:219] Setting up inception_4c/relu_5x5
I0123 12:52:19.591616 39646 net.cpp:226] Top shape: 8 64 14 14 (100352)
I0123 12:52:19.591624 39646 net.cpp:234] Memory required for data: 350350724
I0123 12:52:19.591631 39646 net.cpp:154] Setting up Layer of device :0 @cpu 0 Layer : inception_4c/pool
I0123 12:52:19.591639 39646 layer_factory.hpp:114] Creating layer inception_4c/pool
I0123 12:52:19.591666 39646 net.cpp:169] Creating Layer inception_4c/pool
I0123 12:52:19.591675 39646 net.cpp:606] inception_4c/pool <- inception_4b/output_inception_4b/output_0_split_3
I0123 12:52:19.591687 39646 net.cpp:579] inception_4c/pool -> inception_4c/pool
I0123 12:52:19.591701 39646 net.cpp:582] From AppendTop @cpu: 0
I0123 12:52:19.591714 39646 net.cpp:219] Setting up inception_4c/pool
I0123 12:52:19.591724 39646 net.cpp:226] Top shape: 8 512 14 14 (802816)
I0123 12:52:19.591732 39646 net.cpp:234] Memory required for data: 353561988
I0123 12:52:19.591740 39646 net.cpp:154] Setting up Layer of device :0 @cpu 0 Layer : inception_4c/pool_proj
I0123 12:52:19.591747 39646 layer_factory.hpp:114] Creating layer inception_4c/pool_proj
I0123 12:52:19.591763 39646 net.cpp:169] Creating Layer inception_4c/pool_proj
I0123 12:52:19.591773 39646 net.cpp:606] inception_4c/pool_proj <- inception_4c/pool
I0123 12:52:19.591785 39646 net.cpp:579] inception_4c/pool_proj -> inception_4c/pool_proj
I0123 12:52:19.591792 39646 net.cpp:582] From AppendTop @cpu: 0
I0123 12:52:19.594029 39646 net.cpp:219] Setting up inception_4c/pool_proj
I0123 12:52:19.594053 39646 net.cpp:226] Top shape: 8 64 14 14 (100352)
I0123 12:52:19.594059 39646 net.cpp:234] Memory required for data: 353963396
I0123 12:52:19.594072 39646 net.cpp:154] Setting up Layer of device :0 @cpu 0 Layer : inception_4c/relu_pool_proj
I0123 12:52:19.594079 39646 layer_factory.hpp:114] Creating layer inception_4c/relu_pool_proj
I0123 12:52:19.594092 39646 net.cpp:169] Creating Layer inception_4c/relu_pool_proj
I0123 12:52:19.594100 39646 net.cpp:606] inception_4c/relu_pool_proj <- inception_4c/pool_proj
I0123 12:52:19.594110 39646 net.cpp:566] inception_4c/relu_pool_proj -> inception_4c/pool_proj (in-place)
I0123 12:52:19.594120 39646 net.cpp:219] Setting up inception_4c/relu_pool_proj
I0123 12:52:19.594130 39646 net.cpp:226] Top shape: 8 64 14 14 (100352)
I0123 12:52:19.594146 39646 net.cpp:234] Memory required for data: 354364804
I0123 12:52:19.594154 39646 net.cpp:154] Setting up Layer of device :0 @cpu 0 Layer : inception_4c/output
I0123 12:52:19.594162 39646 layer_factory.hpp:114] Creating layer inception_4c/output
I0123 12:52:19.594197 39646 net.cpp:169] Creating Layer inception_4c/output
I0123 12:52:19.594205 39646 net.cpp:606] inception_4c/output <- inception_4c/1x1
I0123 12:52:19.594214 39646 net.cpp:606] inception_4c/output <- inception_4c/3x3
I0123 12:52:19.594223 39646 net.cpp:606] inception_4c/output <- inception_4c/5x5
I0123 12:52:19.594231 39646 net.cpp:606] inception_4c/output <- inception_4c/pool_proj
I0123 12:52:19.594240 39646 net.cpp:579] inception_4c/output -> inception_4c/output
I0123 12:52:19.594247 39646 net.cpp:582] From AppendTop @cpu: 0
I0123 12:52:19.594259 39646 net.cpp:219] Setting up inception_4c/output
I0123 12:52:19.594269 39646 net.cpp:226] Top shape: 8 512 14 14 (802816)
I0123 12:52:19.594276 39646 net.cpp:234] Memory required for data: 357576068
I0123 12:52:19.594285 39646 net.cpp:154] Setting up Layer of device :0 @cpu 0 Layer : inception_4c/output_inception_4c/output_0_split
I0123 12:52:19.594291 39646 layer_factory.hpp:114] Creating layer inception_4c/output_inception_4c/output_0_split
I0123 12:52:19.594300 39646 net.cpp:169] Creating Layer inception_4c/output_inception_4c/output_0_split
…
I0123 12:52:19.594344 39646 net.cpp:582] From AppendTop @cpu: 0
I0123 12:52:19.594354 39646 net.cpp:579] inception_4c/output_inception_4c/output_0_split -> inception_4c/output_inception_4c/output_0_split_2
I0123 12:52:19.594362 39646 net.cpp:582] From AppendTop @cpu: 0
I0123 12:52:19.594372 39646 net.cpp:579] inception_4c/output_inception_4c/output_0_split -> inception_4c/output_inception_4c/output_0_split_3
I0123 12:52:19.594379 39646 net.cpp:582] From AppendTop @cpu: 0
I0123 12:52:19.594391 39646 net.cpp:219] Setting up inception_4c/output_inception_4c/output_0_split
I0123 12:52:19.594406 39646 net.cpp:226] Top shape: 8 512 14 14 (802816)
I0123 12:52:19.594414 39646 net.cpp:226] Top shape: 8 512 14 14 (802816)
I0123 12:52:19.594424 39646 net.cpp:226] Top shape: 8 512 14 14 (802816)
I0123 12:52:19.594430 39646 net.cpp:226] Top shape: 8 512 14 14 (802816)
I0123 12:52:19.594437 39646 net.cpp:234] Memory required for data: 370421124
I0123 12:52:19.594445 39646 net.cpp:154] Setting up Layer of device :0 @cpu 0 Layer : inception_4d/1x1
I0123 12:52:19.594454 39646 layer_factory.hpp:114] Creating layer inception_4d/1x1
I0123 12:52:19.594468 39646 net.cpp:169] Creating Layer inception_4d/1x1
I0123 12:52:19.594477 39646 net.cpp:606] inception_4d/1x1 <- inception_4c/output_inception_4c/output_0_split_0
I0123 12:52:19.594491 39646 net.cpp:579] inception_4d/1x1 -> inception_4d/1x1
I0123 12:52:19.594498 39646 net.cpp:582] From AppendTop @cpu: 0
I0123 12:52:19.597932 39646 net.cpp:219] Setting up inception_4d/1x1
I0123 12:52:19.597947 39646 net.cpp:226] Top shape: 8 112 14 14 (175616)
I0123 12:52:19.597954 39646 net.cpp:234] Memory required for data: 371123588
I0123 12:52:19.597967 39646 net.cpp:154] Setting up Layer of device :0 @cpu 0 Layer : inception_4d/relu_1x1
I0123 12:52:19.597990 39646 layer_factory.hpp:114] Creating layer inception_4d/relu_1x1
I0123 12:52:19.598006 39646 net.cpp:169] Creating Layer inception_4d/relu_1x1
I0123 12:52:19.598021 39646 net.cpp:606] inception_4d/relu_1x1 <- inception_4d/1x1
I0123 12:52:19.598033 39646 net.cpp:566] inception_4d/relu_1x1 -> inception_4d/1x1 (in-place)
I0123 12:52:19.598045 39646 net.cpp:219] Setting up inception_4d/relu_1x1
I0123 12:52:19.598063 39646 net.cpp:226] Top shape: 8 112 14 14 (175616)
I0123 12:52:19.598070 39646 net.cpp:234] Memory required for data: 371826052
I0123 12:52:19.598079 39646 net.cpp:154] Setting up Layer of device :0 @cpu 0 Layer : inception_4d/3x3_reduce
I0123 12:52:19.598086 39646 layer_factory.hpp:114] Creating layer inception_4d/3x3_reduce
I0123 12:52:19.598101 39646 net.cpp:169] Creating Layer inception_4d/3x3_reduce
I0123 12:52:19.598110 39646 net.cpp:606] inception_4d/3x3_reduce <- inception_4c/output_inception_4c/output_0_split_1
I0123 12:52:19.598120 39646 net.cpp:579] inception_4d/3x3_reduce -> inception_4d/3x3_reduce
I0123 12:52:19.598127 39646 net.cpp:582] From AppendTop @cpu: 0
I0123 12:52:19.601675 39646 net.cpp:219] Setting up inception_4d/3x3_reduce
I0123 12:52:19.601691 39646 net.cpp:226] Top shape: 8 144 14 14 (225792)
I0123 12:52:19.601698 39646 net.cpp:234] Memory required for data: 372729220
I0123 12:52:19.601711 39646 net.cpp:154] Setting up Layer of device :0 @cpu 0 Layer : inception_4d/relu_3x3_reduce
I0123 12:52:19.601725 39646 layer_factory.hpp:114] Creating layer inception_4d/relu_3x3_reduce
I0123 12:52:19.601750 39646 net.cpp:169] Creating Layer inception_4d/relu_3x3_reduce
I0123 12:52:19.601758 39646 net.cpp:606] inception_4d/relu_3x3_reduce <- inception_4d/3x3_reduce
I0123 12:52:19.601768 39646 net.cpp:566] inception_4d/relu_3x3_reduce -> inception_4d/3x3_reduce (in-place)
I0123 12:52:19.601778 39646 net.cpp:219] Setting up inception_4d/relu_3x3_reduce
I0123 12:52:19.601788 39646 net.cpp:226] Top shape: 8 144 14 14 (225792)
I0123 12:52:19.601794 39646 net.cpp:234] Memory required for data: 373632388
I0123 12:52:19.601801 39646 net.cpp:154] Setting up Layer of device :0 @cpu 0 Layer : inception_4d/3x3
I0123 12:52:19.601809 39646 layer_factory.hpp:114] Creating layer inception_4d/3x3
I0123 12:52:19.601826 39646 net.cpp:169] Creating Layer inception_4d/3x3
I0123 12:52:19.601835 39646 net.cpp:606] inception_4d/3x3 <- inception_4d/3x3_reduce
I0123 12:52:19.601845 39646 net.cpp:579] inception_4d/3x3 -> inception_4d/3x3
I0123 12:52:19.601852 39646 net.cpp:582] From AppendTop @cpu: 0
I0123 12:52:19.615046 39646 net.cpp:219] Setting up inception_4d/3x3
I0123 12:52:19.615061 39646 net.cpp:226] Top shape: 8 288 14 14 (451584)
I0123 12:52:19.615069 39646 net.cpp:234] Memory required for data: 375438724
I0123 12:52:19.615082 39646 net.cpp:154] Setting up Layer of device :0 @cpu 0 Layer : inception_4d/relu_3x3
I0123 12:52:19.615097 39646 layer_factory.hpp:114] Creating layer inception_4d/relu_3x3
I0123 12:52:19.615108 39646 net.cpp:169] Creating Layer inception_4d/relu_3x3
I0123 12:52:19.615118 39646 net.cpp:606] inception_4d/relu_3x3 <- inception_4d/3x3
I0123 12:52:19.615126 39646 net.cpp:566] inception_4d/relu_3x3 -> inception_4d/3x3 (in-place)
I0123 12:52:19.615137 39646 net.cpp:219] Setting up inception_4d/relu_3x3
I0123 12:52:19.615146 39646 net.cpp:226] Top shape: 8 288 14 14 (451584)
I0123 12:52:19.615154 39646 net.cpp:234] Memory required for data: 377245060
I0123 12:52:19.615161 39646 net.cpp:154] Setting up Layer of device :0 @cpu 0 Layer : inception_4d/5x5_reduce
I0123 12:52:19.615171 39646 layer_factory.hpp:114] Creating layer inception_4d/5x5_reduce
I0123 12:52:19.615205 39646 net.cpp:169] Creating Layer inception_4d/5x5_reduce
I0123 12:52:19.615212 39646 net.cpp:606] inception_4d/5x5_reduce <- inception_4c/output_inception_4c/output_0_split_2
I0123 12:52:19.615226 39646 net.cpp:579] inception_4d/5x5_reduce -> inception_4d/5x5_reduce
I0123 12:52:19.615232 39646 net.cpp:582] From AppendTop @cpu: 0
I0123 12:52:19.617004 39646 net.cpp:219] Setting up inception_4d/5x5_reduce
I0123 12:52:19.617019 39646 net.cpp:226] Top shape: 8 32 14 14 (50176)
I0123 12:52:19.617027 39646 net.cpp:234] Memory required for data: 377445764
I0123 12:52:19.617038 39646 net.cpp:154] Setting up Layer of device :0 @cpu 0 Layer : inception_4d/relu_5x5_reduce
I0123 12:52:19.617046 39646 layer_factory.hpp:114] Creating layer inception_4d/relu_5x5_reduce
I0123 12:52:19.617066 39646 net.cpp:169] Creating Layer inception_4d/relu_5x5_reduce
I0123 12:52:19.617085 39646 net.cpp:606] inception_4d/relu_5x5_reduce <- inception_4d/5x5_reduce
I0123 12:52:19.617095 39646 net.cpp:566] inception_4d/relu_5x5_reduce -> inception_4d/5x5_reduce (in-place)
I0123 12:52:19.617106 39646 net.cpp:219] Setting up inception_4d/relu_5x5_reduce
I0123 12:52:19.617115 39646 net.cpp:226] Top shape: 8 32 14 14 (50176)
I0123 12:52:19.617122 39646 net.cpp:234] Memory required for data: 377646468
I0123 12:52:19.617130 39646 net.cpp:154] Setting up Layer of device :0 @cpu 0 Layer : inception_4d/5x5
I0123 12:52:19.617137 39646 layer_factory.hpp:114] Creating layer inception_4d/5x5
I0123 12:52:19.617153 39646 net.cpp:169] Creating Layer inception_4d/5x5
I0123 12:52:19.617161 39646 net.cpp:606] inception_4d/5x5 <- inception_4d/5x5_reduce
I0123 12:52:19.617197 39646 net.cpp:579] inception_4d/5x5 -> inception_4d/5x5
I0123 12:52:19.617205 39646 net.cpp:582] From AppendTop @cpu: 0
I0123 12:52:19.621273 39646 net.cpp:219] Setting up inception_4d/5x5
I0123 12:52:19.621289 39646 net.cpp:226] Top shape: 8 64 14 14 (100352)
I0123 12:52:19.621296 39646 net.cpp:234] Memory required for data: 378047876
I0123 12:52:19.621309 39646 net.cpp:154] Setting up Layer of device :0 @cpu 0 Layer : inception_4d/relu_5x5
I0123 12:52:19.621315 39646 layer_factory.hpp:114] Creating layer inception_4d/relu_5x5
I0123 12:52:19.621350 39646 net.cpp:169] Creating Layer inception_4d/relu_5x5
I0123 12:52:19.621357 39646 net.cpp:606] inception_4d/relu_5x5 <- inception_4d/5x5
I0123 12:52:19.621366 39646 net.cpp:566] inception_4d/relu_5x5 -> inception_4d/5x5 (in-place)
I0123 12:52:19.621377 39646 net.cpp:219] Setting up inception_4d/relu_5x5
I0123 12:52:19.621386 39646 net.cpp:226] Top shape: 8 64 14 14 (100352)
I0123 12:52:19.621392 39646 net.cpp:234] Memory required for data: 378449284
I0123 12:52:19.621400 39646 net.cpp:154] Setting up Layer of device :0 @cpu 0 Layer : inception_4d/pool
I0123 12:52:19.621408 39646 layer_factory.hpp:114] Creating layer inception_4d/pool
I0123 12:52:19.621434 39646 net.cpp:169] Creating Layer inception_4d/pool
I0123 12:52:19.621445 39646 net.cpp:606] inception_4d/pool <- inception_4c/output_inception_4c/output_0_split_3
I0123 12:52:19.621455 39646 net.cpp:579] inception_4d/pool -> inception_4d/pool
I0123 12:52:19.621462 39646 net.cpp:582] From AppendTop @cpu: 0
I0123 12:52:19.621474 39646 net.cpp:219] Setting up inception_4d/pool
I0123 12:52:19.621484 39646 net.cpp:226] Top shape: 8 512 14 14 (802816)
I0123 12:52:19.621500 39646 net.cpp:234] Memory required for data: 381660548
I0123 12:52:19.621510 39646 net.cpp:154] Setting up Layer of device :0 @cpu 0 Layer : inception_4d/pool_proj
I0123 12:52:19.621517 39646 layer_factory.hpp:114] Creating layer inception_4d/pool_proj
I0123 12:52:19.621536 39646 net.cpp:169] Creating Layer inception_4d/pool_proj
I0123 12:52:19.621544 39646 net.cpp:606] inception_4d/pool_proj <- inception_4d/pool
I0123 12:52:19.621557 39646 net.cpp:579] inception_4d/pool_proj -> inception_4d/pool_proj
I0123 12:52:19.621564 39646 net.cpp:582] From AppendTop @cpu: 0
I0123 12:52:19.623679 39646 net.cpp:219] Setting up inception_4d/pool_proj
I0123 12:52:19.623695 39646 net.cpp:226] Top shape: 8 64 14 14 (100352)
I0123 12:52:19.623703 39646 net.cpp:234] Memory required for data: 382061956
I0123 12:52:19.623714 39646 net.cpp:154] Setting up Layer of device :0 @cpu 0 Layer : inception_4d/relu_pool_proj
I0123 12:52:19.623729 39646 layer_factory.hpp:114] Creating layer inception_4d/relu_pool_proj
I0123 12:52:19.623749 39646 net.cpp:169] Creating Layer inception_4d/relu_pool_proj
I0123 12:52:19.623757 39646 net.cpp:606] inception_4d/relu_pool_proj <- inception_4d/pool_proj
I0123 12:52:19.623766 39646 net.cpp:566] inception_4d/relu_pool_proj -> inception_4d/pool_proj (in-place)
I0123 12:52:19.623776 39646 net.cpp:219] Setting up inception_4d/relu_pool_proj
I0123 12:52:19.623785 39646 net.cpp:226] Top shape: 8 64 14 14 (100352)
I0123 12:52:19.623792 39646 net.cpp:234] Memory required for data: 382463364
I0123 12:52:19.623801 39646 net.cpp:154] Setting up Layer of device :0 @cpu 0 Layer : inception_4d/output
I0123 12:52:19.623818 39646 layer_factory.hpp:114] Creating layer inception_4d/output
I0123 12:52:19.623831 39646 net.cpp:169] Creating Layer inception_4d/output
I0123 12:52:19.623839 39646 net.cpp:606] inception_4d/output <- inception_4d/1x1
I0123 12:52:19.623848 39646 net.cpp:606] inception_4d/output <- inception_4d/3x3
I0123 12:52:19.623857 39646 net.cpp:606] inception_4d/output <- inception_4d/5x5
I0123 12:52:19.623864 39646 net.cpp:606] inception_4d/output <- inception_4d/pool_proj
I0123 12:52:19.623873 39646 net.cpp:579] inception_4d/output -> inception_4d/output
I0123 12:52:19.623886 39646 net.cpp:582] From AppendTop @cpu: 0
I0123 12:52:19.623898 39646 net.cpp:219] Setting up inception_4d/output
I0123 12:52:19.623908 39646 net.cpp:226] Top shape: 8 528 14 14 (827904)
I0123 12:52:19.623914 39646 net.cpp:234] Memory required for data: 385774980
I0123 12:52:19.623924 39646 net.cpp:154] Setting up Layer of device :0 @cpu 0 Layer : inception_4d/output_inception_4d/output_0_split
I0123 12:52:19.623930 39646 layer_factory.hpp:114] Creating layer inception_4d/output_inception_4d/output_0_split
I0123 12:52:19.623950 39646 net.cpp:169] Creating Layer inception_4d/output_inception_4d/output_0_split
…
I0123 12:52:19.624014 39646 net.cpp:582] From AppendTop @cpu: 0
I0123 12:52:19.624025 39646 net.cpp:579] inception_4d/output_inception_4d/output_0_split -> inception_4d/output_inception_4d/output_0_split_3
I0123 12:52:19.624032 39646 net.cpp:582] From AppendTop @cpu: 0
I0123 12:52:19.624042 39646 net.cpp:579] inception_4d/output_inception_4d/output_0_split -> inception_4d/output_inception_4d/output_0_split_4
I0123 12:52:19.624049 39646 net.cpp:582] From AppendTop @cpu: 0
I0123 12:52:19.624060 39646 net.cpp:219] Setting up inception_4d/output_inception_4d/output_0_split
I0123 12:52:19.624080 39646 net.cpp:226] Top shape: 8 528 14 14 (827904)
I0123 12:52:19.624089 39646 net.cpp:226] Top shape: 8 528 14 14 (827904)
I0123 12:52:19.624097 39646 net.cpp:226] Top shape: 8 528 14 14 (827904)
I0123 12:52:19.624105 39646 net.cpp:226] Top shape: 8 528 14 14 (827904)
I0123 12:52:19.624114 39646 net.cpp:226] Top shape: 8 528 14 14 (827904)
I0123 12:52:19.624120 39646 net.cpp:234] Memory required for data: 402333060
I0123 12:52:19.624128 39646 net.cpp:154] Setting up Layer of device :0 @cpu 0 Layer : loss2/ave_pool
I0123 12:52:19.624136 39646 layer_factory.hpp:114] Creating layer loss2/ave_pool
I0123 12:52:19.624161 39646 net.cpp:169] Creating Layer loss2/ave_pool
I0123 12:52:19.624198 39646 net.cpp:606] loss2/ave_pool <- inception_4d/output_inception_4d/output_0_split_0
I0123 12:52:19.624210 39646 net.cpp:579] loss2/ave_pool -> loss2/ave_pool
I0123 12:52:19.624217 39646 net.cpp:582] From AppendTop @cpu: 0
I0123 12:52:19.624229 39646 net.cpp:219] Setting up loss2/ave_pool
I0123 12:52:19.624239 39646 net.cpp:226] Top shape: 8 528 4 4 (67584)
I0123 12:52:19.624246 39646 net.cpp:234] Memory required for data: 402603396
I0123 12:52:19.624255 39646 net.cpp:154] Setting up Layer of device :0 @cpu 0 Layer : loss2/conv
I0123 12:52:19.624263 39646 layer_factory.hpp:114] Creating layer loss2/conv
I0123 12:52:19.624279 39646 net.cpp:169] Creating Layer loss2/conv
I0123 12:52:19.624287 39646 net.cpp:606] loss2/conv <- loss2/ave_pool
I0123 12:52:19.624300 39646 net.cpp:579] loss2/conv -> loss2/conv
I0123 12:52:19.624307 39646 net.cpp:582] From AppendTop @cpu: 0
I0123 12:52:19.626333 39646 net.cpp:219] Setting up loss2/conv
I0123 12:52:19.626358 39646 net.cpp:226] Top shape: 8 128 4 4 (16384)
I0123 12:52:19.626364 39646 net.cpp:234] Memory required for data: 402668932
I0123 12:52:19.626382 39646 net.cpp:154] Setting up Layer of device :0 @cpu 0 Layer : loss2/relu_conv
I0123 12:52:19.626397 39646 layer_factory.hpp:114] Creating layer loss2/relu_conv
I0123 12:52:19.626418 39646 net.cpp:169] Creating Layer loss2/relu_conv
I0123 12:52:19.626435 39646 net.cpp:606] loss2/relu_conv <- loss2/conv
I0123 12:52:19.626443 39646 net.cpp:566] loss2/relu_conv -> loss2/conv (in-place)
I0123 12:52:19.626453 39646 net.cpp:219] Setting up loss2/relu_conv
I0123 12:52:19.626462 39646 net.cpp:226] Top shape: 8 128 4 4 (16384)
I0123 12:52:19.626469 39646 net.cpp:234] Memory required for data: 402734468
I0123 12:52:19.626477 39646 net.cpp:154] Setting up Layer of device :0 @cpu 0 Layer : loss2/fc
I0123 12:52:19.626485 39646 layer_factory.hpp:114] Creating layer loss2/fc
I0123 12:52:19.626504 39646 net.cpp:169] Creating Layer loss2/fc
I0123 12:52:19.626513 39646 net.cpp:606] loss2/fc <- loss2/conv
I0123 12:52:19.626523 39646 net.cpp:579] loss2/fc -> loss2/fc
I0123 12:52:19.626529 39646 net.cpp:582] From AppendTop @cpu: 0
I0123 12:52:19.646734 39646 net.cpp:219] Setting up loss2/fc
I0123 12:52:19.646788 39646 net.cpp:226] Top shape: 8 1024 (8192)
I0123 12:52:19.646795 39646 net.cpp:234] Memory required for data: 402767236
I0123 12:52:19.646811 39646 net.cpp:154] Setting up Layer of device :0 @cpu 0 Layer : loss2/relu_fc
I0123 12:52:19.646817 39646 layer_factory.hpp:114] Creating layer loss2/relu_fc
I0123 12:52:19.646829 39646 net.cpp:169] Creating Layer loss2/relu_fc
I0123 12:52:19.646837 39646 net.cpp:606] loss2/relu_fc <- loss2/fc
I0123 12:52:19.646849 39646 net.cpp:566] loss2/relu_fc -> loss2/fc (in-place)
I0123 12:52:19.646862 39646 net.cpp:219] Setting up loss2/relu_fc
I0123 12:52:19.646870 39646 net.cpp:226] Top shape: 8 1024 (8192)
I0123 12:52:19.646878 39646 net.cpp:234] Memory required for data: 402800004
I0123 12:52:19.646885 39646 net.cpp:154] Setting up Layer of device :0 @cpu 0 Layer : loss2/drop_fc
I0123 12:52:19.646893 39646 layer_factory.hpp:114] Creating layer loss2/drop_fc
I0123 12:52:19.646904 39646 net.cpp:169] Creating Layer loss2/drop_fc
I0123 12:52:19.646911 39646 net.cpp:606] loss2/drop_fc <- loss2/fc
I0123 12:52:19.646921 39646 net.cpp:566] loss2/drop_fc -> loss2/fc (in-place)
I0123 12:52:19.646941 39646 net.cpp:219] Setting up loss2/drop_fc
I0123 12:52:19.646950 39646 net.cpp:226] Top shape: 8 1024 (8192)
I0123 12:52:19.646957 39646 net.cpp:234] Memory required for data: 402832772
I0123 12:52:19.646966 39646 net.cpp:154] Setting up Layer of device :0 @cpu 0 Layer : loss2/classifier
I0123 12:52:19.646973 39646 layer_factory.hpp:114] Creating layer loss2/classifier
I0123 12:52:19.646986 39646 net.cpp:169] Creating Layer loss2/classifier
I0123 12:52:19.646993 39646 net.cpp:606] loss2/classifier <- loss2/fc
I0123 12:52:19.647006 39646 net.cpp:579] loss2/classifier -> loss2/classifier
I0123 12:52:19.647012 39646 net.cpp:582] From AppendTop @cpu: 0
I0123 12:52:19.657198 39646 net.cpp:219] Setting up loss2/classifier
I0123 12:52:19.657232 39646 net.cpp:226] Top shape: 8 1000 (8000)
I0123 12:52:19.657239 39646 net.cpp:234] Memory required for data: 402864772
I0123 12:52:19.657253 39646 net.cpp:154] Setting up Layer of device :0 @cpu 0 Layer : loss2/loss
I0123 12:52:19.657260 39646 layer_factory.hpp:114] Creating layer loss2/loss
I0123 12:52:19.657274 39646 net.cpp:169] Creating Layer loss2/loss
I0123 12:52:19.657281 39646 net.cpp:606] loss2/loss <- loss2/classifier
…
I0123 12:52:19.657459 39646 net.cpp:154] Setting up Layer of device :0 @cpu 0 Layer : inception_4e/1x1
I0123 12:52:19.657465 39646 layer_factory.hpp:114] Creating layer inception_4e/1x1
I0123 12:52:19.657483 39646 net.cpp:169] Creating Layer inception_4e/1x1
I0123 12:52:19.657492 39646 net.cpp:606] inception_4e/1x1 <- inception_4d/output_inception_4d/output_0_split_1
I0123 12:52:19.657503 39646 net.cpp:579] inception_4e/1x1 -> inception_4e/1x1
I0123 12:52:19.657512 39646 net.cpp:582] From AppendTop @cpu: 0
I0123 12:52:19.662760 39646 net.cpp:219] Setting up inception_4e/1x1
I0123 12:52:19.662783 39646 net.cpp:226] Top shape: 8 256 14 14 (401408)
I0123 12:52:19.662791 39646 net.cpp:234] Memory required for data: 404470408
I0123 12:52:19.662803 39646 net.cpp:154] Setting up Layer of device :0 @cpu 0 Layer : inception_4e/relu_1x1
I0123 12:52:19.662818 39646 layer_factory.hpp:114] Creating layer inception_4e/relu_1x1
I0123 12:52:19.662830 39646 net.cpp:169] Creating Layer inception_4e/relu_1x1
I0123 12:52:19.662847 39646 net.cpp:606] inception_4e/relu_1x1 <- inception_4e/1x1
I0123 12:52:19.662855 39646 net.cpp:566] inception_4e/relu_1x1 -> inception_4e/1x1 (in-place)
I0123 12:52:19.662865 39646 net.cpp:219] Setting up inception_4e/relu_1x1
I0123 12:52:19.662874 39646 net.cpp:226] Top shape: 8 256 14 14 (401408)
I0123 12:52:19.662881 39646 net.cpp:234] Memory required for data: 406076040
I0123 12:52:19.662890 39646 net.cpp:154] Setting up Layer of device :0 @cpu 0 Layer : inception_4e/3x3_reduce
I0123 12:52:19.662897 39646 layer_factory.hpp:114] Creating layer inception_4e/3x3_reduce
I0123 12:52:19.662914 39646 net.cpp:169] Creating Layer inception_4e/3x3_reduce
I0123 12:52:19.662921 39646 net.cpp:606] inception_4e/3x3_reduce <- inception_4d/output_inception_4d/output_0_split_2
I0123 12:52:19.662935 39646 net.cpp:579] inception_4e/3x3_reduce -> inception_4e/3x3_reduce
I0123 12:52:19.662941 39646 net.cpp:582] From AppendTop @cpu: 0
I0123 12:52:19.666745 39646 net.cpp:219] Setting up inception_4e/3x3_reduce
I0123 12:52:19.666761 39646 net.cpp:226] Top shape: 8 160 14 14 (250880)
I0123 12:52:19.666769 39646 net.cpp:234] Memory required for data: 407079560
I0123 12:52:19.666780 39646 net.cpp:154] Setting up Layer of device :0 @cpu 0 Layer : inception_4e/relu_3x3_reduce
I0123 12:52:19.666795 39646 layer_factory.hpp:114] Creating layer inception_4e/relu_3x3_reduce
I0123 12:52:19.666827 39646 net.cpp:169] Creating Layer inception_4e/relu_3x3_reduce
I0123 12:52:19.666836 39646 net.cpp:606] inception_4e/relu_3x3_reduce <- inception_4e/3x3_reduce
I0123 12:52:19.666846 39646 net.cpp:566] inception_4e/relu_3x3_reduce -> inception_4e/3x3_reduce (in-place)
I0123 12:52:19.666857 39646 net.cpp:219] Setting up inception_4e/relu_3x3_reduce
I0123 12:52:19.666867 39646 net.cpp:226] Top shape: 8 160 14 14 (250880)
I0123 12:52:19.666873 39646 net.cpp:234] Memory required for data: 408083080
I0123 12:52:19.666882 39646 net.cpp:154] Setting up Layer of device :0 @cpu 0 Layer : inception_4e/3x3
I0123 12:52:19.666889 39646 layer_factory.hpp:114] Creating layer inception_4e/3x3
I0123 12:52:19.666904 39646 net.cpp:169] Creating Layer inception_4e/3x3
I0123 12:52:19.666913 39646 net.cpp:606] inception_4e/3x3 <- inception_4e/3x3_reduce
I0123 12:52:19.666925 39646 net.cpp:579] inception_4e/3x3 -> inception_4e/3x3
I0123 12:52:19.666932 39646 net.cpp:582] From AppendTop @cpu: 0
I0123 12:52:19.681432 39646 net.cpp:219] Setting up inception_4e/3x3
I0123 12:52:19.681470 39646 net.cpp:226] Top shape: 8 320 14 14 (501760)
I0123 12:52:19.681478 39646 net.cpp:234] Memory required for data: 410090120
I0123 12:52:19.681490 39646 net.cpp:154] Setting up Layer of device :0 @cpu 0 Layer : inception_4e/relu_3x3
I0123 12:52:19.681504 39646 layer_factory.hpp:114] Creating layer inception_4e/relu_3x3
I0123 12:52:19.681514 39646 net.cpp:169] Creating Layer inception_4e/relu_3x3
I0123 12:52:19.681524 39646 net.cpp:606] inception_4e/relu_3x3 <- inception_4e/3x3
I0123 12:52:19.681542 39646 net.cpp:566] inception_4e/relu_3x3 -> inception_4e/3x3 (in-place)
I0123 12:52:19.681553 39646 net.cpp:219] Setting up inception_4e/relu_3x3
I0123 12:52:19.681562 39646 net.cpp:226] Top shape: 8 320 14 14 (501760)
I0123 12:52:19.681569 39646 net.cpp:234] Memory required for data: 412097160
I0123 12:52:19.681577 39646 net.cpp:154] Setting up Layer of device :0 @cpu 0 Layer : inception_4e/5x5_reduce
I0123 12:52:19.681586 39646 layer_factory.hpp:114] Creating layer inception_4e/5x5_reduce
I0123 12:52:19.681598 39646 net.cpp:169] Creating Layer inception_4e/5x5_reduce
I0123 12:52:19.681607 39646 net.cpp:606] inception_4e/5x5_reduce <- inception_4d/output_inception_4d/output_0_split_3
I0123 12:52:19.681620 39646 net.cpp:579] inception_4e/5x5_reduce -> inception_4e/5x5_reduce
I0123 12:52:19.681628 39646 net.cpp:582] From AppendTop @cpu: 0
I0123 12:52:19.684044 39646 net.cpp:219] Setting up inception_4e/5x5_reduce
I0123 12:52:19.684061 39646 net.cpp:226] Top shape: 8 32 14 14 (50176)
I0123 12:52:19.684067 39646 net.cpp:234] Memory required for data: 412297864
I0123 12:52:19.684080 39646 net.cpp:154] Setting up Layer of device :0 @cpu 0 Layer : inception_4e/relu_5x5_reduce
I0123 12:52:19.684103 39646 layer_factory.hpp:114] Creating layer inception_4e/relu_5x5_reduce
I0123 12:52:19.684121 39646 net.cpp:169] Creating Layer inception_4e/relu_5x5_reduce
I0123 12:52:19.684130 39646 net.cpp:606] inception_4e/relu_5x5_reduce <- inception_4e/5x5_reduce
I0123 12:52:19.684142 39646 net.cpp:566] inception_4e/relu_5x5_reduce -> inception_4e/5x5_reduce (in-place)
I0123 12:52:19.684154 39646 net.cpp:219] Setting up inception_4e/relu_5x5_reduce
I0123 12:52:19.684162 39646 net.cpp:226] Top shape: 8 32 14 14 (50176)
I0123 12:52:19.684168 39646 net.cpp:234] Memory required for data: 412498568
I0123 12:52:19.684206 39646 net.cpp:154] Setting up Layer of device :0 @cpu 0 Layer : inception_4e/5x5
I0123 12:52:19.684213 39646 layer_factory.hpp:114] Creating layer inception_4e/5x5
I0123 12:52:19.684236 39646 net.cpp:169] Creating Layer inception_4e/5x5
I0123 12:52:19.684244 39646 net.cpp:606] inception_4e/5x5 <- inception_4e/5x5_reduce
I0123 12:52:19.684258 39646 net.cpp:579] inception_4e/5x5 -> inception_4e/5x5
I0123 12:52:19.684265 39646 net.cpp:582] From AppendTop @cpu: 0
I0123 12:52:19.689556 39646 net.cpp:219] Setting up inception_4e/5x5
I0123 12:52:19.689573 39646 net.cpp:226] Top shape: 8 128 14 14 (200704)
I0123 12:52:19.689586 39646 net.cpp:234] Memory required for data: 413301384
I0123 12:52:19.689600 39646 net.cpp:154] Setting up Layer of device :0 @cpu 0 Layer : inception_4e/relu_5x5
I0123 12:52:19.689609 39646 layer_factory.hpp:114] Creating layer inception_4e/relu_5x5
I0123 12:52:19.689627 39646 net.cpp:169] Creating Layer inception_4e/relu_5x5
I0123 12:52:19.689636 39646 net.cpp:606] inception_4e/relu_5x5 <- inception_4e/5x5
I0123 12:52:19.689646 39646 net.cpp:566] inception_4e/relu_5x5 -> inception_4e/5x5 (in-place)
I0123 12:52:19.689656 39646 net.cpp:219] Setting up inception_4e/relu_5x5
I0123 12:52:19.689664 39646 net.cpp:226] Top shape: 8 128 14 14 (200704)
I0123 12:52:19.689671 39646 net.cpp:234] Memory required for data: 414104200
I0123 12:52:19.689679 39646 net.cpp:154] Setting up Layer of device :0 @cpu 0 Layer : inception_4e/pool
I0123 12:52:19.689687 39646 layer_factory.hpp:114] Creating layer inception_4e/pool
I0123 12:52:19.689728 39646 net.cpp:169] Creating Layer inception_4e/pool
I0123 12:52:19.689738 39646 net.cpp:606] inception_4e/pool <- inception_4d/output_inception_4d/output_0_split_4
I0123 12:52:19.689751 39646 net.cpp:579] inception_4e/pool -> inception_4e/pool
I0123 12:52:19.689759 39646 net.cpp:582] From AppendTop @cpu: 0
I0123 12:52:19.689774 39646 net.cpp:219] Setting up inception_4e/pool
I0123 12:52:19.689785 39646 net.cpp:226] Top shape: 8 528 14 14 (827904)
I0123 12:52:19.689790 39646 net.cpp:234] Memory required for data: 417415816
I0123 12:52:19.689800 39646 net.cpp:154] Setting up Layer of device :0 @cpu 0 Layer : inception_4e/pool_proj
I0123 12:52:19.689806 39646 layer_factory.hpp:114] Creating layer inception_4e/pool_proj
I0123 12:52:19.689831 39646 net.cpp:169] Creating Layer inception_4e/pool_proj
I0123 12:52:19.689841 39646 net.cpp:606] inception_4e/pool_proj <- inception_4e/pool
I0123 12:52:19.689853 39646 net.cpp:579] inception_4e/pool_proj -> inception_4e/pool_proj
I0123 12:52:19.689860 39646 net.cpp:582] From AppendTop @cpu: 0
I0123 12:52:19.693758 39646 net.cpp:219] Setting up inception_4e/pool_proj
I0123 12:52:19.693773 39646 net.cpp:226] Top shape: 8 128 14 14 (200704)
I0123 12:52:19.693780 39646 net.cpp:234] Memory required for data: 418218632
I0123 12:52:19.693794 39646 net.cpp:154] Setting up Layer of device :0 @cpu 0 Layer : inception_4e/relu_pool_proj
I0123 12:52:19.693809 39646 layer_factory.hpp:114] Creating layer inception_4e/relu_pool_proj
I0123 12:52:19.693819 39646 net.cpp:169] Creating Layer inception_4e/relu_pool_proj
I0123 12:52:19.693835 39646 net.cpp:606] inception_4e/relu_pool_proj <- inception_4e/pool_proj
I0123 12:52:19.693843 39646 net.cpp:566] inception_4e/relu_pool_proj -> inception_4e/pool_proj (in-place)
I0123 12:52:19.693853 39646 net.cpp:219] Setting up inception_4e/relu_pool_proj
I0123 12:52:19.693862 39646 net.cpp:226] Top shape: 8 128 14 14 (200704)
I0123 12:52:19.693869 39646 net.cpp:234] Memory required for data: 419021448
I0123 12:52:19.693877 39646 net.cpp:154] Setting up Layer of device :0 @cpu 0 Layer : inception_4e/output
I0123 12:52:19.693886 39646 layer_factory.hpp:114] Creating layer inception_4e/output
I0123 12:52:19.693897 39646 net.cpp:169] Creating Layer inception_4e/output
I0123 12:52:19.693904 39646 net.cpp:606] inception_4e/output <- inception_4e/1x1
I0123 12:52:19.693912 39646 net.cpp:606] inception_4e/output <- inception_4e/3x3
I0123 12:52:19.693922 39646 net.cpp:606] inception_4e/output <- inception_4e/5x5
I0123 12:52:19.693929 39646 net.cpp:606] inception_4e/output <- inception_4e/pool_proj
I0123 12:52:19.693943 39646 net.cpp:579] inception_4e/output -> inception_4e/output
I0123 12:52:19.693949 39646 net.cpp:582] From AppendTop @cpu: 0
I0123 12:52:19.693963 39646 net.cpp:219] Setting up inception_4e/output
I0123 12:52:19.693971 39646 net.cpp:226] Top shape: 8 832 14 14 (1304576)
I0123 12:52:19.693979 39646 net.cpp:234] Memory required for data: 424239752
I0123 12:52:19.693986 39646 net.cpp:154] Setting up Layer of device :0 @cpu 0 Layer : pool4/3x3_s2
I0123 12:52:19.693994 39646 layer_factory.hpp:114] Creating layer pool4/3x3_s2
I0123 12:52:19.694037 39646 net.cpp:169] Creating Layer pool4/3x3_s2
I0123 12:52:19.694047 39646 net.cpp:606] pool4/3x3_s2 <- inception_4e/output
I0123 12:52:19.694058 39646 net.cpp:579] pool4/3x3_s2 -> pool4/3x3_s2
I0123 12:52:19.694066 39646 net.cpp:582] From AppendTop @cpu: 0
I0123 12:52:19.694079 39646 net.cpp:219] Setting up pool4/3x3_s2
I0123 12:52:19.694088 39646 net.cpp:226] Top shape: 8 832 7 7 (326144)
I0123 12:52:19.694095 39646 net.cpp:234] Memory required for data: 425544328
I0123 12:52:19.694104 39646 net.cpp:154] Setting up Layer of device :0 @cpu 0 Layer : pool4/3x3_s2_pool4/3x3_s2_0_split
I0123 12:52:19.694111 39646 layer_factory.hpp:114] Creating layer pool4/3x3_s2_pool4/3x3_s2_0_split
I0123 12:52:19.694123 39646 net.cpp:169] Creating Layer pool4/3x3_s2_pool4/3x3_s2_0_split
I0123 12:52:19.694131 39646 net.cpp:606] pool4/3x3_s2_pool4/3x3_s2_0_split <- pool4/3x3_s2
I0123 12:52:19.694140 39646 net.cpp:579] pool4/3x3_s2_pool4/3x3_s2_0_split -> pool4/3x3_s2_pool4/3x3_s2_0_split_0
I0123 12:52:19.694147 39646 net.cpp:582] From AppendTop @cpu: 0
I0123 12:52:19.694157 39646 net.cpp:579] pool4/3x3_s2_pool4/3x3_s2_0_split -> pool4/3x3_s2_pool4/3x3_s2_0_split_1
I0123 12:52:19.694164 39646 net.cpp:582] From AppendTop @cpu: 0
I0123 12:52:19.694201 39646 net.cpp:579] pool4/3x3_s2_pool4/3x3_s2_0_split -> pool4/3x3_s2_pool4/3x3_s2_0_split_2
I0123 12:52:19.694209 39646 net.cpp:582] From AppendTop @cpu: 0
I0123 12:52:19.694219 39646 net.cpp:579] pool4/3x3_s2_pool4/3x3_s2_0_split -> pool4/3x3_s2_pool4/3x3_s2_0_split_3
I0123 12:52:19.694226 39646 net.cpp:582] From AppendTop @cpu: 0
I0123 12:52:19.694237 39646 net.cpp:219] Setting up pool4/3x3_s2_pool4/3x3_s2_0_split
I0123 12:52:19.694257 39646 net.cpp:226] Top shape: 8 832 7 7 (326144)
I0123 12:52:19.694265 39646 net.cpp:226] Top shape: 8 832 7 7 (326144)
I0123 12:52:19.694273 39646 net.cpp:226] Top shape: 8 832 7 7 (326144)
I0123 12:52:19.694281 39646 net.cpp:226] Top shape: 8 832 7 7 (326144)
I0123 12:52:19.694288 39646 net.cpp:234] Memory required for data: 430762632
I0123 12:52:19.694296 39646 net.cpp:154] Setting up Layer of device :0 @cpu 0 Layer : inception_5a/1x1
I0123 12:52:19.694303 39646 layer_factory.hpp:114] Creating layer inception_5a/1x1
I0123 12:52:19.694319 39646 net.cpp:169] Creating Layer inception_5a/1x1
I0123 12:52:19.694327 39646 net.cpp:606] inception_5a/1x1 <- pool4/3x3_s2_pool4/3x3_s2_0_split_0
I0123 12:52:19.694339 39646 net.cpp:579] inception_5a/1x1 -> inception_5a/1x1
I0123 12:52:19.694345 39646 net.cpp:582] From AppendTop @cpu: 0
I0123 12:52:19.699832 39646 net.cpp:219] Setting up inception_5a/1x1
I0123 12:52:19.699848 39646 net.cpp:226] Top shape: 8 256 7 7 (100352)
I0123 12:52:19.699856 39646 net.cpp:234] Memory required for data: 431164040
I0123 12:52:19.699868 39646 net.cpp:154] Setting up Layer of device :0 @cpu 0 Layer : inception_5a/relu_1x1
I0123 12:52:19.699877 39646 layer_factory.hpp:114] Creating layer inception_5a/relu_1x1
I0123 12:52:19.699889 39646 net.cpp:169] Creating Layer inception_5a/relu_1x1
I0123 12:52:19.699898 39646 net.cpp:606] inception_5a/relu_1x1 <- inception_5a/1x1
I0123 12:52:19.699908 39646 net.cpp:566] inception_5a/relu_1x1 -> inception_5a/1x1 (in-place)
I0123 12:52:19.699918 39646 net.cpp:219] Setting up inception_5a/relu_1x1
I0123 12:52:19.699926 39646 net.cpp:226] Top shape: 8 256 7 7 (100352)
I0123 12:52:19.699934 39646 net.cpp:234] Memory required for data: 431565448
I0123 12:52:19.699941 39646 net.cpp:154] Setting up Layer of device :0 @cpu 0 Layer : inception_5a/3x3_reduce
I0123 12:52:19.699949 39646 layer_factory.hpp:114] Creating layer inception_5a/3x3_reduce
I0123 12:52:19.699962 39646 net.cpp:169] Creating Layer inception_5a/3x3_reduce
I0123 12:52:19.699971 39646 net.cpp:606] inception_5a/3x3_reduce <- pool4/3x3_s2_pool4/3x3_s2_0_split_1
I0123 12:52:19.699985 39646 net.cpp:579] inception_5a/3x3_reduce -> inception_5a/3x3_reduce
I0123 12:52:19.699991 39646 net.cpp:582] From AppendTop @cpu: 0
I0123 12:52:19.703990 39646 net.cpp:219] Setting up inception_5a/3x3_reduce
I0123 12:52:19.704006 39646 net.cpp:226] Top shape: 8 160 7 7 (62720)
I0123 12:52:19.704035 39646 net.cpp:234] Memory required for data: 431816328
I0123 12:52:19.704048 39646 net.cpp:154] Setting up Layer of device :0 @cpu 0 Layer : inception_5a/relu_3x3_reduce
I0123 12:52:19.704056 39646 layer_factory.hpp:114] Creating layer inception_5a/relu_3x3_reduce
I0123 12:52:19.704074 39646 net.cpp:169] Creating Layer inception_5a/relu_3x3_reduce
I0123 12:52:19.704082 39646 net.cpp:606] inception_5a/relu_3x3_reduce <- inception_5a/3x3_reduce
I0123 12:52:19.704092 39646 net.cpp:566] inception_5a/relu_3x3_reduce -> inception_5a/3x3_reduce (in-place)
I0123 12:52:19.704103 39646 net.cpp:219] Setting up inception_5a/relu_3x3_reduce
I0123 12:52:19.704113 39646 net.cpp:226] Top shape: 8 160 7 7 (62720)
I0123 12:52:19.704119 39646 net.cpp:234] Memory required for data: 432067208
I0123 12:52:19.704128 39646 net.cpp:154] Setting up Layer of device :0 @cpu 0 Layer : inception_5a/3x3
I0123 12:52:19.704135 39646 layer_factory.hpp:114] Creating layer inception_5a/3x3
I0123 12:52:19.704149 39646 net.cpp:169] Creating Layer inception_5a/3x3
I0123 12:52:19.704159 39646 net.cpp:606] inception_5a/3x3 <- inception_5a/3x3_reduce
I0123 12:52:19.704169 39646 net.cpp:579] inception_5a/3x3 -> inception_5a/3x3
I0123 12:52:19.704205 39646 net.cpp:582] From AppendTop @cpu: 0
I0123 12:52:19.716111 39646 net.cpp:219] Setting up inception_5a/3x3
I0123 12:52:19.716135 39646 net.cpp:226] Top shape: 8 320 7 7 (125440)
I0123 12:52:19.716142 39646 net.cpp:234] Memory required for data: 432568968
I0123 12:52:19.716156 39646 net.cpp:154] Setting up Layer of device :0 @cpu 0 Layer : inception_5a/relu_3x3
I0123 12:52:19.716203 39646 layer_factory.hpp:114] Creating layer inception_5a/relu_3x3
I0123 12:52:19.716217 39646 net.cpp:169] Creating Layer inception_5a/relu_3x3
I0123 12:52:19.716225 39646 net.cpp:606] inception_5a/relu_3x3 <- inception_5a/3x3
I0123 12:52:19.716234 39646 net.cpp:566] inception_5a/relu_3x3 -> inception_5a/3x3 (in-place)
I0123 12:52:19.716245 39646 net.cpp:219] Setting up inception_5a/relu_3x3
I0123 12:52:19.716254 39646 net.cpp:226] Top shape: 8 320 7 7 (125440)
I0123 12:52:19.716261 39646 net.cpp:234] Memory required for data: 433070728
I0123 12:52:19.716270 39646 net.cpp:154] Setting up Layer of device :0 @cpu 0 Layer : inception_5a/5x5_reduce
I0123 12:52:19.716277 39646 layer_factory.hpp:114] Creating layer inception_5a/5x5_reduce
I0123 12:52:19.716290 39646 net.cpp:169] Creating Layer inception_5a/5x5_reduce
I0123 12:52:19.716298 39646 net.cpp:606] inception_5a/5x5_reduce <- pool4/3x3_s2_pool4/3x3_s2_0_split_2
I0123 12:52:19.716311 39646 net.cpp:579] inception_5a/5x5_reduce -> inception_5a/5x5_reduce
I0123 12:52:19.716320 39646 net.cpp:582] From AppendTop @cpu: 0
I0123 12:52:19.717524 39646 net.cpp:219] Setting up inception_5a/5x5_reduce
I0123 12:52:19.717540 39646 net.cpp:226] Top shape: 8 32 7 7 (12544)
I0123 12:52:19.717546 39646 net.cpp:234] Memory required for data: 433120904
I0123 12:52:19.717558 39646 net.cpp:154] Setting up Layer of device :0 @cpu 0 Layer : inception_5a/relu_5x5_reduce
I0123 12:52:19.717566 39646 layer_factory.hpp:114] Creating layer inception_5a/relu_5x5_reduce
I0123 12:52:19.717576 39646 net.cpp:169] Creating Layer inception_5a/relu_5x5_reduce
I0123 12:52:19.717586 39646 net.cpp:606] inception_5a/relu_5x5_reduce <- inception_5a/5x5_reduce
I0123 12:52:19.717597 39646 net.cpp:566] inception_5a/relu_5x5_reduce -> inception_5a/5x5_reduce (in-place)
I0123 12:52:19.717607 39646 net.cpp:219] Setting up inception_5a/relu_5x5_reduce
I0123 12:52:19.717615 39646 net.cpp:226] Top shape: 8 32 7 7 (12544)
I0123 12:52:19.717622 39646 net.cpp:234] Memory required for data: 433171080
I0123 12:52:19.717631 39646 net.cpp:154] Setting up Layer of device :0 @cpu 0 Layer : inception_5a/5x5
I0123 12:52:19.717638 39646 layer_factory.hpp:114] Creating layer inception_5a/5x5
I0123 12:52:19.717653 39646 net.cpp:169] Creating Layer inception_5a/5x5
I0123 12:52:19.717661 39646 net.cpp:606] inception_5a/5x5 <- inception_5a/5x5_reduce
I0123 12:52:19.717674 39646 net.cpp:579] inception_5a/5x5 -> inception_5a/5x5
I0123 12:52:19.717686 39646 net.cpp:582] From AppendTop @cpu: 0
I0123 12:52:19.720912 39646 net.cpp:219] Setting up inception_5a/5x5
I0123 12:52:19.720950 39646 net.cpp:226] Top shape: 8 128 7 7 (50176)
I0123 12:52:19.720957 39646 net.cpp:234] Memory required for data: 433371784
I0123 12:52:19.720971 39646 net.cpp:154] Setting up Layer of device :0 @cpu 0 Layer : inception_5a/relu_5x5
I0123 12:52:19.720979 39646 layer_factory.hpp:114] Creating layer inception_5a/relu_5x5
I0123 12:52:19.720996 39646 net.cpp:169] Creating Layer inception_5a/relu_5x5
I0123 12:52:19.721004 39646 net.cpp:606] inception_5a/relu_5x5 <- inception_5a/5x5
I0123 12:52:19.721016 39646 net.cpp:566] inception_5a/relu_5x5 -> inception_5a/5x5 (in-place)
I0123 12:52:19.721027 39646 net.cpp:219] Setting up inception_5a/relu_5x5
I0123 12:52:19.721036 39646 net.cpp:226] Top shape: 8 128 7 7 (50176)
I0123 12:52:19.721043 39646 net.cpp:234] Memory required for data: 433572488
I0123 12:52:19.721051 39646 net.cpp:154] Setting up Layer of device :0 @cpu 0 Layer : inception_5a/pool
I0123 12:52:19.721058 39646 layer_factory.hpp:114] Creating layer inception_5a/pool
I0123 12:52:19.721091 39646 net.cpp:169] Creating Layer inception_5a/pool
I0123 12:52:19.721101 39646 net.cpp:606] inception_5a/pool <- pool4/3x3_s2_pool4/3x3_s2_0_split_3
I0123 12:52:19.721113 39646 net.cpp:579] inception_5a/pool -> inception_5a/pool
I0123 12:52:19.721120 39646 net.cpp:582] From AppendTop @cpu: 0
I0123 12:52:19.721135 39646 net.cpp:219] Setting up inception_5a/pool
I0123 12:52:19.721144 39646 net.cpp:226] Top shape: 8 832 7 7 (326144)
I0123 12:52:19.721151 39646 net.cpp:234] Memory required for data: 434877064
I0123 12:52:19.721194 39646 net.cpp:154] Setting up Layer of device :0 @cpu 0 Layer : inception_5a/pool_proj
I0123 12:52:19.721204 39646 layer_factory.hpp:114] Creating layer inception_5a/pool_proj
I0123 12:52:19.721220 39646 net.cpp:169] Creating Layer inception_5a/pool_proj
I0123 12:52:19.721230 39646 net.cpp:606] inception_5a/pool_proj <- inception_5a/pool
I0123 12:52:19.721242 39646 net.cpp:579] inception_5a/pool_proj -> inception_5a/pool_proj
I0123 12:52:19.721249 39646 net.cpp:582] From AppendTop @cpu: 0
I0123 12:52:19.724750 39646 net.cpp:219] Setting up inception_5a/pool_proj
I0123 12:52:19.724771 39646 net.cpp:226] Top shape: 8 128 7 7 (50176)
I0123 12:52:19.724777 39646 net.cpp:234] Memory required for data: 435077768
I0123 12:52:19.724791 39646 net.cpp:154] Setting up Layer of device :0 @cpu 0 Layer : inception_5a/relu_pool_proj
I0123 12:52:19.724812 39646 layer_factory.hpp:114] Creating layer inception_5a/relu_pool_proj
I0123 12:52:19.724828 39646 net.cpp:169] Creating Layer inception_5a/relu_pool_proj
I0123 12:52:19.724838 39646 net.cpp:606] inception_5a/relu_pool_proj <- inception_5a/pool_proj
I0123 12:52:19.724853 39646 net.cpp:566] inception_5a/relu_pool_proj -> inception_5a/pool_proj (in-place)
I0123 12:52:19.724864 39646 net.cpp:219] Setting up inception_5a/relu_pool_proj
I0123 12:52:19.724874 39646 net.cpp:226] Top shape: 8 128 7 7 (50176)
I0123 12:52:19.724879 39646 net.cpp:234] Memory required for data: 435278472
I0123 12:52:19.724889 39646 net.cpp:154] Setting up Layer of device :0 @cpu 0 Layer : inception_5a/output
I0123 12:52:19.724895 39646 layer_factory.hpp:114] Creating layer inception_5a/output
I0123 12:52:19.724906 39646 net.cpp:169] Creating Layer inception_5a/output
I0123 12:52:19.724915 39646 net.cpp:606] inception_5a/output <- inception_5a/1x1
I0123 12:52:19.724923 39646 net.cpp:606] inception_5a/output <- inception_5a/3x3
I0123 12:52:19.724931 39646 net.cpp:606] inception_5a/output <- inception_5a/5x5
I0123 12:52:19.724939 39646 net.cpp:606] inception_5a/output <- inception_5a/pool_proj
I0123 12:52:19.724948 39646 net.cpp:579] inception_5a/output -> inception_5a/output
I0123 12:52:19.724956 39646 net.cpp:582] From AppendTop @cpu: 0
I0123 12:52:19.724967 39646 net.cpp:219] Setting up inception_5a/output
I0123 12:52:19.724977 39646 net.cpp:226] Top shape: 8 832 7 7 (326144)
I0123 12:52:19.724983 39646 net.cpp:234] Memory required for data: 436583048
I0123 12:52:19.724998 39646 net.cpp:154] Setting up Layer of device :0 @cpu 0 Layer : inception_5a/output_inception_5a/output_0_split
I0123 12:52:19.725006 39646 layer_factory.hpp:114] Creating layer inception_5a/output_inception_5a/output_0_split
I0123 12:52:19.725016 39646 net.cpp:169] Creating Layer inception_5a/output_inception_5a/output_0_split
…
I0123 12:52:19.725057 39646 net.cpp:582] From AppendTop @cpu: 0
I0123 12:52:19.725069 39646 net.cpp:579] inception_5a/output_inception_5a/output_0_split -> inception_5a/output_inception_5a/output_0_split_2
I0123 12:52:19.725076 39646 net.cpp:582] From AppendTop @cpu: 0
I0123 12:52:19.725087 39646 net.cpp:579] inception_5a/output_inception_5a/output_0_split -> inception_5a/output_inception_5a/output_0_split_3
I0123 12:52:19.725095 39646 net.cpp:582] From AppendTop @cpu: 0
I0123 12:52:19.725106 39646 net.cpp:219] Setting up inception_5a/output_inception_5a/output_0_split
I0123 12:52:19.725114 39646 net.cpp:226] Top shape: 8 832 7 7 (326144)
I0123 12:52:19.725122 39646 net.cpp:226] Top shape: 8 832 7 7 (326144)
I0123 12:52:19.725131 39646 net.cpp:226] Top shape: 8 832 7 7 (326144)
I0123 12:52:19.725147 39646 net.cpp:226] Top shape: 8 832 7 7 (326144)
I0123 12:52:19.725154 39646 net.cpp:234] Memory required for data: 441801352
I0123 12:52:19.725162 39646 net.cpp:154] Setting up Layer of device :0 @cpu 0 Layer : inception_5b/1x1
I0123 12:52:19.725170 39646 layer_factory.hpp:114] Creating layer inception_5b/1x1
I0123 12:52:19.725208 39646 net.cpp:169] Creating Layer inception_5b/1x1
I0123 12:52:19.725216 39646 net.cpp:606] inception_5b/1x1 <- inception_5a/output_inception_5a/output_0_split_0
I0123 12:52:19.725229 39646 net.cpp:579] inception_5b/1x1 -> inception_5b/1x1
I0123 12:52:19.725237 39646 net.cpp:582] From AppendTop @cpu: 0
I0123 12:52:19.733587 39646 net.cpp:219] Setting up inception_5b/1x1
I0123 12:52:19.733618 39646 net.cpp:226] Top shape: 8 384 7 7 (150528)
I0123 12:52:19.733624 39646 net.cpp:234] Memory required for data: 442403464
I0123 12:52:19.733639 39646 net.cpp:154] Setting up Layer of device :0 @cpu 0 Layer : inception_5b/relu_1x1
I0123 12:52:19.733645 39646 layer_factory.hpp:114] Creating layer inception_5b/relu_1x1
I0123 12:52:19.733655 39646 net.cpp:169] Creating Layer inception_5b/relu_1x1
I0123 12:52:19.733664 39646 net.cpp:606] inception_5b/relu_1x1 <- inception_5b/1x1
I0123 12:52:19.733676 39646 net.cpp:566] inception_5b/relu_1x1 -> inception_5b/1x1 (in-place)
I0123 12:52:19.733687 39646 net.cpp:219] Setting up inception_5b/relu_1x1
I0123 12:52:19.733696 39646 net.cpp:226] Top shape: 8 384 7 7 (150528)
I0123 12:52:19.733703 39646 net.cpp:234] Memory required for data: 443005576
I0123 12:52:19.733712 39646 net.cpp:154] Setting up Layer of device :0 @cpu 0 Layer : inception_5b/3x3_reduce
I0123 12:52:19.733719 39646 layer_factory.hpp:114] Creating layer inception_5b/3x3_reduce
I0123 12:52:19.733732 39646 net.cpp:169] Creating Layer inception_5b/3x3_reduce
I0123 12:52:19.733741 39646 net.cpp:606] inception_5b/3x3_reduce <- inception_5a/output_inception_5a/output_0_split_1
I0123 12:52:19.733750 39646 net.cpp:579] inception_5b/3x3_reduce -> inception_5b/3x3_reduce
I0123 12:52:19.733757 39646 net.cpp:582] From AppendTop @cpu: 0
I0123 12:52:19.738085 39646 net.cpp:219] Setting up inception_5b/3x3_reduce
I0123 12:52:19.738101 39646 net.cpp:226] Top shape: 8 192 7 7 (75264)
I0123 12:52:19.738109 39646 net.cpp:234] Memory required for data: 443306632
I0123 12:52:19.738121 39646 net.cpp:154] Setting up Layer of device :0 @cpu 0 Layer : inception_5b/relu_3x3_reduce
I0123 12:52:19.738137 39646 layer_factory.hpp:114] Creating layer inception_5b/relu_3x3_reduce
I0123 12:52:19.738148 39646 net.cpp:169] Creating Layer inception_5b/relu_3x3_reduce
I0123 12:52:19.738157 39646 net.cpp:606] inception_5b/relu_3x3_reduce <- inception_5b/3x3_reduce
I0123 12:52:19.738168 39646 net.cpp:566] inception_5b/relu_3x3_reduce -> inception_5b/3x3_reduce (in-place)
I0123 12:52:19.738205 39646 net.cpp:219] Setting up inception_5b/relu_3x3_reduce
I0123 12:52:19.738214 39646 net.cpp:226] Top shape: 8 192 7 7 (75264)
I0123 12:52:19.738221 39646 net.cpp:234] Memory required for data: 443607688
I0123 12:52:19.738234 39646 net.cpp:154] Setting up Layer of device :0 @cpu 0 Layer : inception_5b/3x3
I0123 12:52:19.738240 39646 layer_factory.hpp:114] Creating layer inception_5b/3x3
I0123 12:52:19.738253 39646 net.cpp:169] Creating Layer inception_5b/3x3
I0123 12:52:19.738261 39646 net.cpp:606] inception_5b/3x3 <- inception_5b/3x3_reduce
I0123 12:52:19.738273 39646 net.cpp:579] inception_5b/3x3 -> inception_5b/3x3
I0123 12:52:19.738281 39646 net.cpp:582] From AppendTop @cpu: 0
I0123 12:52:19.754277 39646 net.cpp:219] Setting up inception_5b/3x3
I0123 12:52:19.754309 39646 net.cpp:226] Top shape: 8 384 7 7 (150528)
I0123 12:52:19.754317 39646 net.cpp:234] Memory required for data: 444209800
I0123 12:52:19.754328 39646 net.cpp:154] Setting up Layer of device :0 @cpu 0 Layer : inception_5b/relu_3x3
I0123 12:52:19.754335 39646 layer_factory.hpp:114] Creating layer inception_5b/relu_3x3
I0123 12:52:19.754353 39646 net.cpp:169] Creating Layer inception_5b/relu_3x3
I0123 12:52:19.754360 39646 net.cpp:606] inception_5b/relu_3x3 <- inception_5b/3x3
I0123 12:52:19.754396 39646 net.cpp:566] inception_5b/relu_3x3 -> inception_5b/3x3 (in-place)
…
I0123 12:52:20.099139 39646 net.cpp:226] Top shape: 50 64 14 14 (627200)
I0123 12:52:20.099146 39646 net.cpp:234] Memory required for data: 2363400412
I0123 12:52:20.099158 39646 net.cpp:154] Setting up Layer of device :0 @cpu 0 Layer : inception_4d/relu_5x5
I0123 12:52:20.099196 39646 layer_factory.hpp:114] Creating layer inception_4d/relu_5x5
I0123 12:52:20.099207 39646 net.cpp:169] Creating Layer inception_4d/relu_5x5
I0123 12:52:20.099215 39646 net.cpp:606] inception_4d/relu_5x5 <- inception_4d/5x5
I0123 12:52:20.099226 39646 net.cpp:566] inception_4d/relu_5x5 -> inception_4d/5x5 (in-place)
I0123 12:52:20.099236 39646 net.cpp:219] Setting up inception_4d/relu_5x5
I0123 12:52:20.099246 39646 net.cpp:226] Top shape: 50 64 14 14 (627200)
I0123 12:52:20.099251 39646 net.cpp:234] Memory required for data: 2365909212
I0123 12:52:20.099259 39646 net.cpp:154] Setting up Layer of device :0 @cpu 0 Layer : inception_4d/pool
I0123 12:52:20.099265 39646 layer_factory.hpp:114] Creating layer inception_4d/pool
I0123 12:52:20.099290 39646 net.cpp:169] Creating Layer inception_4d/pool
I0123 12:52:20.099299 39646 net.cpp:606] inception_4d/pool <- inception_4c/output_inception_4c/output_0_split_3
I0123 12:52:20.099309 39646 net.cpp:579] inception_4d/pool -> inception_4d/pool
I0123 12:52:20.099318 39646 net.cpp:582] From AppendTop @cpu: 0
I0123 12:52:20.099329 39646 net.cpp:219] Setting up inception_4d/pool
I0123 12:52:20.099339 39646 net.cpp:226] Top shape: 50 512 14 14 (5017600)
I0123 12:52:20.099344 39646 net.cpp:234] Memory required for data: 2385979612
I0123 12:52:20.099352 39646 net.cpp:154] Setting up Layer of device :0 @cpu 0 Layer : inception_4d/pool_proj
I0123 12:52:20.099360 39646 layer_factory.hpp:114] Creating layer inception_4d/pool_proj
I0123 12:52:20.099376 39646 net.cpp:169] Creating Layer inception_4d/pool_proj
I0123 12:52:20.099385 39646 net.cpp:606] inception_4d/pool_proj <- inception_4d/pool
I0123 12:52:20.099395 39646 net.cpp:579] inception_4d/pool_proj -> inception_4d/pool_proj
I0123 12:52:20.099401 39646 net.cpp:582] From AppendTop @cpu: 0
I0123 12:52:20.102314 39646 net.cpp:219] Setting up inception_4d/pool_proj
I0123 12:52:20.102344 39646 net.cpp:226] Top shape: 50 64 14 14 (627200)
I0123 12:52:20.102350 39646 net.cpp:234] Memory required for data: 2388488412
I0123 12:52:20.102362 39646 net.cpp:154] Setting up Layer of device :0 @cpu 0 Layer : inception_4d/relu_pool_proj
I0123 12:52:20.102376 39646 layer_factory.hpp:114] Creating layer inception_4d/relu_pool_proj
I0123 12:52:20.102385 39646 net.cpp:169] Creating Layer inception_4d/relu_pool_proj
I0123 12:52:20.102396 39646 net.cpp:606] inception_4d/relu_pool_proj <- inception_4d/pool_proj
I0123 12:52:20.102404 39646 net.cpp:566] inception_4d/relu_pool_proj -> inception_4d/pool_proj (in-place)
I0123 12:52:20.102414 39646 net.cpp:219] Setting up inception_4d/relu_pool_proj
I0123 12:52:20.102422 39646 net.cpp:226] Top shape: 50 64 14 14 (627200)
I0123 12:52:20.102429 39646 net.cpp:234] Memory required for data: 2390997212
I0123 12:52:20.102437 39646 net.cpp:154] Setting up Layer of device :0 @cpu 0 Layer : inception_4d/output
I0123 12:52:20.102443 39646 layer_factory.hpp:114] Creating layer inception_4d/output
I0123 12:52:20.102453 39646 net.cpp:169] Creating Layer inception_4d/output
I0123 12:52:20.102460 39646 net.cpp:606] inception_4d/output <- inception_4d/1x1
I0123 12:52:20.102468 39646 net.cpp:606] inception_4d/output <- inception_4d/3x3
I0123 12:52:20.102475 39646 net.cpp:606] inception_4d/output <- inception_4d/5x5
I0123 12:52:20.102483 39646 net.cpp:606] inception_4d/output <- inception_4d/pool_proj
I0123 12:52:20.102494 39646 net.cpp:579] inception_4d/output -> inception_4d/output
I0123 12:52:20.102500 39646 net.cpp:582] From AppendTop @cpu: 0
I0123 12:52:20.102511 39646 net.cpp:219] Setting up inception_4d/output
I0123 12:52:20.102529 39646 net.cpp:226] Top shape: 50 528 14 14 (5174400)
I0123 12:52:20.102535 39646 net.cpp:234] Memory required for data: 2411694812
I0123 12:52:20.102542 39646 net.cpp:154] Setting up Layer of device :0 @cpu 0 Layer : inception_4d/output_inception_4d/output_0_split
I0123 12:52:20.102550 39646 layer_factory.hpp:114] Creating layer inception_4d/output_inception_4d/output_0_split
I0123 12:52:20.102566 39646 net.cpp:169] Creating Layer inception_4d/output_inception_4d/output_0_split
…
I0123 12:52:20.102624 39646 net.cpp:582] From AppendTop @cpu: 0
I0123 12:52:20.102634 39646 net.cpp:579] inception_4d/output_inception_4d/output_0_split -> inception_4d/output_inception_4d/output_0_split_3
I0123 12:52:20.102640 39646 net.cpp:582] From AppendTop @cpu: 0
I0123 12:52:20.102650 39646 net.cpp:579] inception_4d/output_inception_4d/output_0_split -> inception_4d/output_inception_4d/output_0_split_4
I0123 12:52:20.102656 39646 net.cpp:582] From AppendTop @cpu: 0
I0123 12:52:20.102669 39646 net.cpp:219] Setting up inception_4d/output_inception_4d/output_0_split
I0123 12:52:20.102679 39646 net.cpp:226] Top shape: 50 528 14 14 (5174400)
I0123 12:52:20.102686 39646 net.cpp:226] Top shape: 50 528 14 14 (5174400)
I0123 12:52:20.102694 39646 net.cpp:226] Top shape: 50 528 14 14 (5174400)
I0123 12:52:20.102701 39646 net.cpp:226] Top shape: 50 528 14 14 (5174400)
I0123 12:52:20.102708 39646 net.cpp:226] Top shape: 50 528 14 14 (5174400)
I0123 12:52:20.102715 39646 net.cpp:234] Memory required for data: 2515182812
I0123 12:52:20.102722 39646 net.cpp:154] Setting up Layer of device :0 @cpu 0 Layer : loss2/ave_pool
I0123 12:52:20.102728 39646 layer_factory.hpp:114] Creating layer loss2/ave_pool
I0123 12:52:20.102757 39646 net.cpp:169] Creating Layer loss2/ave_pool
I0123 12:52:20.102766 39646 net.cpp:606] loss2/ave_pool <- inception_4d/output_inception_4d/output_0_split_0
I0123 12:52:20.102779 39646 net.cpp:579] loss2/ave_pool -> loss2/ave_pool
I0123 12:52:20.102787 39646 net.cpp:582] From AppendTop @cpu: 0
I0123 12:52:20.102797 39646 net.cpp:219] Setting up loss2/ave_pool
I0123 12:52:20.102807 39646 net.cpp:226] Top shape: 50 528 4 4 (422400)
I0123 12:52:20.102813 39646 net.cpp:234] Memory required for data: 2516872412
I0123 12:52:20.102820 39646 net.cpp:154] Setting up Layer of device :0 @cpu 0 Layer : loss2/conv
I0123 12:52:20.102828 39646 layer_factory.hpp:114] Creating layer loss2/conv
I0123 12:52:20.102843 39646 net.cpp:169] Creating Layer loss2/conv
I0123 12:52:20.102851 39646 net.cpp:606] loss2/conv <- loss2/ave_pool
I0123 12:52:20.102864 39646 net.cpp:579] loss2/conv -> loss2/conv
I0123 12:52:20.102870 39646 net.cpp:582] From AppendTop @cpu: 0
I0123 12:52:20.105013 39646 net.cpp:219] Setting up loss2/conv
I0123 12:52:20.105027 39646 net.cpp:226] Top shape: 50 128 4 4 (102400)
I0123 12:52:20.105034 39646 net.cpp:234] Memory required for data: 2517282012
I0123 12:52:20.105046 39646 net.cpp:154] Setting up Layer of device :0 @cpu 0 Layer : loss2/relu_conv
I0123 12:52:20.105052 39646 layer_factory.hpp:114] Creating layer loss2/relu_conv
I0123 12:52:20.105062 39646 net.cpp:169] Creating Layer loss2/relu_conv
I0123 12:52:20.105077 39646 net.cpp:606] loss2/relu_conv <- loss2/conv
I0123 12:52:20.105087 39646 net.cpp:566] loss2/relu_conv -> loss2/conv (in-place)
I0123 12:52:20.105098 39646 net.cpp:219] Setting up loss2/relu_conv
I0123 12:52:20.105115 39646 net.cpp:226] Top shape: 50 128 4 4 (102400)
I0123 12:52:20.105123 39646 net.cpp:234] Memory required for data: 2517691612
I0123 12:52:20.105130 39646 net.cpp:154] Setting up Layer of device :0 @cpu 0 Layer : loss2/fc
I0123 12:52:20.105137 39646 layer_factory.hpp:114] Creating layer loss2/fc
I0123 12:52:20.105166 39646 net.cpp:169] Creating Layer loss2/fc
I0123 12:52:20.105203 39646 net.cpp:606] loss2/fc <- loss2/conv
I0123 12:52:20.105217 39646 net.cpp:579] loss2/fc -> loss2/fc
I0123 12:52:20.105224 39646 net.cpp:582] From AppendTop @cpu: 0
I0123 12:52:20.124657 39646 net.cpp:219] Setting up loss2/fc
I0123 12:52:20.124687 39646 net.cpp:226] Top shape: 50 1024 (51200)
I0123 12:52:20.124694 39646 net.cpp:234] Memory required for data: 2517896412
I0123 12:52:20.124707 39646 net.cpp:154] Setting up Layer of device :0 @cpu 0 Layer : loss2/relu_fc
I0123 12:52:20.124714 39646 layer_factory.hpp:114] Creating layer loss2/relu_fc
I0123 12:52:20.124727 39646 net.cpp:169] Creating Layer loss2/relu_fc
I0123 12:52:20.124735 39646 net.cpp:606] loss2/relu_fc <- loss2/fc
I0123 12:52:20.124743 39646 net.cpp:566] loss2/relu_fc -> loss2/fc (in-place)
I0123 12:52:20.124753 39646 net.cpp:219] Setting up loss2/relu_fc
I0123 12:52:20.124761 39646 net.cpp:226] Top shape: 50 1024 (51200)
I0123 12:52:20.124768 39646 net.cpp:234] Memory required for data: 2518101212
I0123 12:52:20.124775 39646 net.cpp:154] Setting up Layer of device :0 @cpu 0 Layer : loss2/drop_fc
I0123 12:52:20.124783 39646 layer_factory.hpp:114] Creating layer loss2/drop_fc
I0123 12:52:20.124794 39646 net.cpp:169] Creating Layer loss2/drop_fc
I0123 12:52:20.124801 39646 net.cpp:606] loss2/drop_fc <- loss2/fc
I0123 12:52:20.124809 39646 net.cpp:566] loss2/drop_fc -> loss2/fc (in-place)
I0123 12:52:20.124822 39646 net.cpp:219] Setting up loss2/drop_fc
I0123 12:52:20.124830 39646 net.cpp:226] Top shape: 50 1024 (51200)
I0123 12:52:20.124836 39646 net.cpp:234] Memory required for data: 2518306012
I0123 12:52:20.124843 39646 net.cpp:154] Setting up Layer of device :0 @cpu 0 Layer : loss2/classifier
I0123 12:52:20.124850 39646 layer_factory.hpp:114] Creating layer loss2/classifier
I0123 12:52:20.124866 39646 net.cpp:169] Creating Layer loss2/classifier
I0123 12:52:20.124873 39646 net.cpp:606] loss2/classifier <- loss2/fc
I0123 12:52:20.124883 39646 net.cpp:579] loss2/classifier -> loss2/classifier
I0123 12:52:20.124889 39646 net.cpp:582] From AppendTop @cpu: 0
I0123 12:52:20.134379 39646 net.cpp:219] Setting up loss2/classifier
I0123 12:52:20.134395 39646 net.cpp:226] Top shape: 50 1000 (50000)
I0123 12:52:20.134402 39646 net.cpp:234] Memory required for data: 2518506012
I0123 12:52:20.134413 39646 net.cpp:154] Setting up Layer of device :0 @cpu 0 Layer : loss2/classifier_loss2/classifier_0_split
I0123 12:52:20.134428 39646 layer_factory.hpp:114] Creating layer loss2/classifier_loss2/classifier_0_split
I0123 12:52:20.134440 39646 net.cpp:169] Creating Layer loss2/classifier_loss2/classifier_0_split
I0123 12:52:20.134449 39646 net.cpp:606] loss2/classifier_loss2/classifier_0_split <- loss2/classifier
I0123 12:52:20.134460 39646 net.cpp:579] loss2/classifier_loss2/classifier_0_split -> loss2/classifier_loss2/classifier_0_split_0
I0123 12:52:20.134467 39646 net.cpp:582] From AppendTop @cpu: 0
I0123 12:52:20.134477 39646 net.cpp:579] loss2/classifier_loss2/classifier_0_split -> loss2/classifier_loss2/classifier_0_split_1
I0123 12:52:20.134483 39646 net.cpp:582] From AppendTop @cpu: 0
I0123 12:52:20.134493 39646 net.cpp:579] loss2/classifier_loss2/classifier_0_split -> loss2/classifier_loss2/classifier_0_split_2
I0123 12:52:20.134500 39646 net.cpp:582] From AppendTop @cpu: 0
I0123 12:52:20.134510 39646 net.cpp:219] Setting up loss2/classifier_loss2/classifier_0_split
I0123 12:52:20.134518 39646 net.cpp:226] Top shape: 50 1000 (50000)
I0123 12:52:20.134526 39646 net.cpp:226] Top shape: 50 1000 (50000)
I0123 12:52:20.134533 39646 net.cpp:226] Top shape: 50 1000 (50000)
I0123 12:52:20.134541 39646 net.cpp:234] Memory required for data: 2519106012
I0123 12:52:20.134559 39646 net.cpp:154] Setting up Layer of device :0 @cpu 0 Layer : loss2/loss
I0123 12:52:20.134565 39646 layer_factory.hpp:114] Creating layer loss2/loss
I0123 12:52:20.134577 39646 net.cpp:169] Creating Layer loss2/loss
I0123 12:52:20.134583 39646 net.cpp:606] loss2/loss <- loss2/classifier_loss2/classifier_0_split_0
…
I0123 12:52:20.135000 39646 net.cpp:154] Setting up Layer of device :0 @cpu 0 Layer : inception_4e/1x1
I0123 12:52:20.135012 39646 layer_factory.hpp:114] Creating layer inception_4e/1x1
I0123 12:52:20.135028 39646 net.cpp:169] Creating Layer inception_4e/1x1
I0123 12:52:20.135036 39646 net.cpp:606] inception_4e/1x1 <- inception_4d/output_inception_4d/output_0_split_1
I0123 12:52:20.135048 39646 net.cpp:579] inception_4e/1x1 -> inception_4e/1x1
I0123 12:52:20.135054 39646 net.cpp:582] From AppendTop @cpu: 0
I0123 12:52:20.140015 39646 net.cpp:219] Setting up inception_4e/1x1
I0123 12:52:20.140033 39646 net.cpp:226] Top shape: 50 256 14 14 (2508800)
I0123 12:52:20.140039 39646 net.cpp:234] Memory required for data: 2529141224
I0123 12:52:20.140051 39646 net.cpp:154] Setting up Layer of device :0 @cpu 0 Layer : inception_4e/relu_1x1
I0123 12:52:20.140058 39646 layer_factory.hpp:114] Creating layer inception_4e/relu_1x1
I0123 12:52:20.140071 39646 net.cpp:169] Creating Layer inception_4e/relu_1x1
I0123 12:52:20.140079 39646 net.cpp:606] inception_4e/relu_1x1 <- inception_4e/1x1
I0123 12:52:20.140090 39646 net.cpp:566] inception_4e/relu_1x1 -> inception_4e/1x1 (in-place)
I0123 12:52:20.140101 39646 net.cpp:219] Setting up inception_4e/relu_1x1
I0123 12:52:20.140110 39646 net.cpp:226] Top shape: 50 256 14 14 (2508800)
I0123 12:52:20.140116 39646 net.cpp:234] Memory required for data: 2539176424
I0123 12:52:20.140123 39646 net.cpp:154] Setting up Layer of device :0 @cpu 0 Layer : inception_4e/3x3_reduce
I0123 12:52:20.140130 39646 layer_factory.hpp:114] Creating layer inception_4e/3x3_reduce
I0123 12:52:20.140153 39646 net.cpp:169] Creating Layer inception_4e/3x3_reduce
I0123 12:52:20.140161 39646 net.cpp:606] inception_4e/3x3_reduce <- inception_4d/output_inception_4d/output_0_split_2
I0123 12:52:20.140214 39646 net.cpp:579] inception_4e/3x3_reduce -> inception_4e/3x3_reduce
I0123 12:52:20.140221 39646 net.cpp:582] From AppendTop @cpu: 0
I0123 12:52:20.144098 39646 net.cpp:219] Setting up inception_4e/3x3_reduce
I0123 12:52:20.144120 39646 net.cpp:226] Top shape: 50 160 14 14 (1568000)
I0123 12:52:20.144126 39646 net.cpp:234] Memory required for data: 2545448424
I0123 12:52:20.144139 39646 net.cpp:154] Setting up Layer of device :0 @cpu 0 Layer : inception_4e/relu_3x3_reduce
I0123 12:52:20.144145 39646 layer_factory.hpp:114] Creating layer inception_4e/relu_3x3_reduce
I0123 12:52:20.144160 39646 net.cpp:169] Creating Layer inception_4e/relu_3x3_reduce
I0123 12:52:20.144166 39646 net.cpp:606] inception_4e/relu_3x3_reduce <- inception_4e/3x3_reduce
I0123 12:52:20.144208 39646 net.cpp:566] inception_4e/relu_3x3_reduce -> inception_4e/3x3_reduce (in-place)
I0123 12:52:20.144218 39646 net.cpp:219] Setting up inception_4e/relu_3x3_reduce
I0123 12:52:20.144227 39646 net.cpp:226] Top shape: 50 160 14 14 (1568000)
I0123 12:52:20.144233 39646 net.cpp:234] Memory required for data: 2551720424
I0123 12:52:20.144242 39646 net.cpp:154] Setting up Layer of device :0 @cpu 0 Layer : inception_4e/3x3
I0123 12:52:20.144248 39646 layer_factory.hpp:114] Creating layer inception_4e/3x3
I0123 12:52:20.144263 39646 net.cpp:169] Creating Layer inception_4e/3x3
I0123 12:52:20.144270 39646 net.cpp:606] inception_4e/3x3 <- inception_4e/3x3_reduce
I0123 12:52:20.144279 39646 net.cpp:579] inception_4e/3x3 -> inception_4e/3x3
I0123 12:52:20.144286 39646 net.cpp:582] From AppendTop @cpu: 0
I0123 12:52:20.159745 39646 net.cpp:219] Setting up inception_4e/3x3
I0123 12:52:20.159760 39646 net.cpp:226] Top shape: 50 320 14 14 (3136000)
I0123 12:52:20.159767 39646 net.cpp:234] Memory required for data: 2564264424
I0123 12:52:20.159780 39646 net.cpp:154] Setting up Layer of device :0 @cpu 0 Layer : inception_4e/relu_3x3
I0123 12:52:20.159785 39646 layer_factory.hpp:114] Creating layer inception_4e/relu_3x3
I0123 12:52:20.159798 39646 net.cpp:169] Creating Layer inception_4e/relu_3x3
I0123 12:52:20.159806 39646 net.cpp:606] inception_4e/relu_3x3 <- inception_4e/3x3
I0123 12:52:20.159816 39646 net.cpp:566] inception_4e/relu_3x3 -> inception_4e/3x3 (in-place)
I0123 12:52:20.159824 39646 net.cpp:219] Setting up inception_4e/relu_3x3
I0123 12:52:20.159845 39646 net.cpp:226] Top shape: 50 320 14 14 (3136000)
I0123 12:52:20.159852 39646 net.cpp:234] Memory required for data: 2576808424
I0123 12:52:20.159868 39646 net.cpp:154] Setting up Layer of device :0 @cpu 0 Layer : inception_4e/5x5_reduce
I0123 12:52:20.159874 39646 layer_factory.hpp:114] Creating layer inception_4e/5x5_reduce
I0123 12:52:20.159885 39646 net.cpp:169] Creating Layer inception_4e/5x5_reduce
I0123 12:52:20.159893 39646 net.cpp:606] inception_4e/5x5_reduce <- inception_4d/output_inception_4d/output_0_split_3
I0123 12:52:20.159904 39646 net.cpp:579] inception_4e/5x5_reduce -> inception_4e/5x5_reduce
I0123 12:52:20.159911 39646 net.cpp:582] From AppendTop @cpu: 0
I0123 12:52:20.161856 39646 net.cpp:219] Setting up inception_4e/5x5_reduce
I0123 12:52:20.161871 39646 net.cpp:226] Top shape: 50 32 14 14 (313600)
I0123 12:52:20.161877 39646 net.cpp:234] Memory required for data: 2578062824
I0123 12:52:20.161888 39646 net.cpp:154] Setting up Layer of device :0 @cpu 0 Layer : inception_4e/relu_5x5_reduce
I0123 12:52:20.161895 39646 layer_factory.hpp:114] Creating layer inception_4e/relu_5x5_reduce
I0123 12:52:20.161906 39646 net.cpp:169] Creating Layer inception_4e/relu_5x5_reduce
I0123 12:52:20.161914 39646 net.cpp:606] inception_4e/relu_5x5_reduce <- inception_4e/5x5_reduce
I0123 12:52:20.161923 39646 net.cpp:566] inception_4e/relu_5x5_reduce -> inception_4e/5x5_reduce (in-place)
I0123 12:52:20.161934 39646 net.cpp:219] Setting up inception_4e/relu_5x5_reduce
I0123 12:52:20.161943 39646 net.cpp:226] Top shape: 50 32 14 14 (313600)
I0123 12:52:20.161949 39646 net.cpp:234] Memory required for data: 2579317224
I0123 12:52:20.161998 39646 net.cpp:154] Setting up Layer of device :0 @cpu 0 Layer : inception_4e/5x5
I0123 12:52:20.162005 39646 layer_factory.hpp:114] Creating layer inception_4e/5x5
I0123 12:52:20.162016 39646 net.cpp:169] Creating Layer inception_4e/5x5
I0123 12:52:20.162024 39646 net.cpp:606] inception_4e/5x5 <- inception_4e/5x5_reduce
I0123 12:52:20.162035 39646 net.cpp:579] inception_4e/5x5 -> inception_4e/5x5
I0123 12:52:20.162042 39646 net.cpp:582] From AppendTop @cpu: 0
I0123 12:52:20.167244 39646 net.cpp:219] Setting up inception_4e/5x5
I0123 12:52:20.167259 39646 net.cpp:226] Top shape: 50 128 14 14 (1254400)
I0123 12:52:20.167266 39646 net.cpp:234] Memory required for data: 2584334824
I0123 12:52:20.167279 39646 net.cpp:154] Setting up Layer of device :0 @cpu 0 Layer : inception_4e/relu_5x5
I0123 12:52:20.167285 39646 layer_factory.hpp:114] Creating layer inception_4e/relu_5x5
I0123 12:52:20.167294 39646 net.cpp:169] Creating Layer inception_4e/relu_5x5
I0123 12:52:20.167301 39646 net.cpp:606] inception_4e/relu_5x5 <- inception_4e/5x5
I0123 12:52:20.167309 39646 net.cpp:566] inception_4e/relu_5x5 -> inception_4e/5x5 (in-place)
I0123 12:52:20.167320 39646 net.cpp:219] Setting up inception_4e/relu_5x5
I0123 12:52:20.167327 39646 net.cpp:226] Top shape: 50 128 14 14 (1254400)
I0123 12:52:20.167333 39646 net.cpp:234] Memory required for data: 2589352424
I0123 12:52:20.167341 39646 net.cpp:154] Setting up Layer of device :0 @cpu 0 Layer : inception_4e/pool
I0123 12:52:20.167348 39646 layer_factory.hpp:114] Creating layer inception_4e/pool
I0123 12:52:20.167388 39646 net.cpp:169] Creating Layer inception_4e/pool
I0123 12:52:20.167398 39646 net.cpp:606] inception_4e/pool <- inception_4d/output_inception_4d/output_0_split_4
I0123 12:52:20.167408 39646 net.cpp:579] inception_4e/pool -> inception_4e/pool
I0123 12:52:20.167414 39646 net.cpp:582] From AppendTop @cpu: 0
I0123 12:52:20.167428 39646 net.cpp:219] Setting up inception_4e/pool
I0123 12:52:20.167439 39646 net.cpp:226] Top shape: 50 528 14 14 (5174400)
I0123 12:52:20.167446 39646 net.cpp:234] Memory required for data: 2610050024
I0123 12:52:20.167454 39646 net.cpp:154] Setting up Layer of device :0 @cpu 0 Layer : inception_4e/pool_proj
I0123 12:52:20.167461 39646 layer_factory.hpp:114] Creating layer inception_4e/pool_proj
I0123 12:52:20.167474 39646 net.cpp:169] Creating Layer inception_4e/pool_proj
I0123 12:52:20.167480 39646 net.cpp:606] inception_4e/pool_proj <- inception_4e/pool
I0123 12:52:20.167497 39646 net.cpp:579] inception_4e/pool_proj -> inception_4e/pool_proj
I0123 12:52:20.167505 39646 net.cpp:582] From AppendTop @cpu: 0
I0123 12:52:20.170990 39646 net.cpp:219] Setting up inception_4e/pool_proj
I0123 12:52:20.171005 39646 net.cpp:226] Top shape: 50 128 14 14 (1254400)
I0123 12:52:20.171012 39646 net.cpp:234] Memory required for data: 2615067624
I0123 12:52:20.171025 39646 net.cpp:154] Setting up Layer of device :0 @cpu 0 Layer : inception_4e/relu_pool_proj
I0123 12:52:20.171031 39646 layer_factory.hpp:114] Creating layer inception_4e/relu_pool_proj
I0123 12:52:20.171039 39646 net.cpp:169] Creating Layer inception_4e/relu_pool_proj
I0123 12:52:20.171047 39646 net.cpp:606] inception_4e/relu_pool_proj <- inception_4e/pool_proj
I0123 12:52:20.171059 39646 net.cpp:566] inception_4e/relu_pool_proj -> inception_4e/pool_proj (in-place)
I0123 12:52:20.171069 39646 net.cpp:219] Setting up inception_4e/relu_pool_proj
I0123 12:52:20.171077 39646 net.cpp:226] Top shape: 50 128 14 14 (1254400)
I0123 12:52:20.171084 39646 net.cpp:234] Memory required for data: 2620085224
I0123 12:52:20.171092 39646 net.cpp:154] Setting up Layer of device :0 @cpu 0 Layer : inception_4e/output
I0123 12:52:20.171098 39646 layer_factory.hpp:114] Creating layer inception_4e/output
I0123 12:52:20.171108 39646 net.cpp:169] Creating Layer inception_4e/output
I0123 12:52:20.171115 39646 net.cpp:606] inception_4e/output <- inception_4e/1x1
I0123 12:52:20.171123 39646 net.cpp:606] inception_4e/output <- inception_4e/3x3
I0123 12:52:20.171130 39646 net.cpp:606] inception_4e/output <- inception_4e/5x5
I0123 12:52:20.171149 39646 net.cpp:606] inception_4e/output <- inception_4e/pool_proj
I0123 12:52:20.171157 39646 net.cpp:579] inception_4e/output -> inception_4e/output
I0123 12:52:20.171164 39646 net.cpp:582] From AppendTop @cpu: 0
I0123 12:52:20.171201 39646 net.cpp:219] Setting up inception_4e/output
I0123 12:52:20.171211 39646 net.cpp:226] Top shape: 50 832 14 14 (8153600)
I0123 12:52:20.171217 39646 net.cpp:234] Memory required for data: 2652699624
I0123 12:52:20.171226 39646 net.cpp:154] Setting up Layer of device :0 @cpu 0 Layer : pool4/3x3_s2
I0123 12:52:20.171232 39646 layer_factory.hpp:114] Creating layer pool4/3x3_s2
I0123 12:52:20.171254 39646 net.cpp:169] Creating Layer pool4/3x3_s2
I0123 12:52:20.171263 39646 net.cpp:606] pool4/3x3_s2 <- inception_4e/output
I0123 12:52:20.171273 39646 net.cpp:579] pool4/3x3_s2 -> pool4/3x3_s2
I0123 12:52:20.171279 39646 net.cpp:582] From AppendTop @cpu: 0
I0123 12:52:20.171291 39646 net.cpp:219] Setting up pool4/3x3_s2
I0123 12:52:20.171300 39646 net.cpp:226] Top shape: 50 832 7 7 (2038400)
I0123 12:52:20.171308 39646 net.cpp:234] Memory required for data: 2660853224
I0123 12:52:20.171315 39646 net.cpp:154] Setting up Layer of device :0 @cpu 0 Layer : pool4/3x3_s2_pool4/3x3_s2_0_split
I0123 12:52:20.171321 39646 layer_factory.hpp:114] Creating layer pool4/3x3_s2_pool4/3x3_s2_0_split
I0123 12:52:20.171335 39646 net.cpp:169] Creating Layer pool4/3x3_s2_pool4/3x3_s2_0_split
I0123 12:52:20.171344 39646 net.cpp:606] pool4/3x3_s2_pool4/3x3_s2_0_split <- pool4/3x3_s2
I0123 12:52:20.171352 39646 net.cpp:579] pool4/3x3_s2_pool4/3x3_s2_0_split -> pool4/3x3_s2_pool4/3x3_s2_0_split_0
I0123 12:52:20.171358 39646 net.cpp:582] From AppendTop @cpu: 0
I0123 12:52:20.171368 39646 net.cpp:579] pool4/3x3_s2_pool4/3x3_s2_0_split -> pool4/3x3_s2_pool4/3x3_s2_0_split_1
I0123 12:52:20.171375 39646 net.cpp:582] From AppendTop @cpu: 0
I0123 12:52:20.171385 39646 net.cpp:579] pool4/3x3_s2_pool4/3x3_s2_0_split -> pool4/3x3_s2_pool4/3x3_s2_0_split_2
I0123 12:52:20.171391 39646 net.cpp:582] From AppendTop @cpu: 0
I0123 12:52:20.171406 39646 net.cpp:579] pool4/3x3_s2_pool4/3x3_s2_0_split -> pool4/3x3_s2_pool4/3x3_s2_0_split_3
I0123 12:52:20.171414 39646 net.cpp:582] From AppendTop @cpu: 0
I0123 12:52:20.171424 39646 net.cpp:219] Setting up pool4/3x3_s2_pool4/3x3_s2_0_split
I0123 12:52:20.171433 39646 net.cpp:226] Top shape: 50 832 7 7 (2038400)
I0123 12:52:20.171447 39646 net.cpp:226] Top shape: 50 832 7 7 (2038400)
I0123 12:52:20.171455 39646 net.cpp:226] Top shape: 50 832 7 7 (2038400)
I0123 12:52:20.171463 39646 net.cpp:226] Top shape: 50 832 7 7 (2038400)
I0123 12:52:20.171469 39646 net.cpp:234] Memory required for data: 2693467624
I0123 12:52:20.171478 39646 net.cpp:154] Setting up Layer of device :0 @cpu 0 Layer : inception_5a/1x1
I0123 12:52:20.171484 39646 layer_factory.hpp:114] Creating layer inception_5a/1x1
I0123 12:52:20.171499 39646 net.cpp:169] Creating Layer inception_5a/1x1
I0123 12:52:20.171507 39646 net.cpp:606] inception_5a/1x1 <- pool4/3x3_s2_pool4/3x3_s2_0_split_0
I0123 12:52:20.171517 39646 net.cpp:579] inception_5a/1x1 -> inception_5a/1x1
I0123 12:52:20.171525 39646 net.cpp:582] From AppendTop @cpu: 0
I0123 12:52:20.177119 39646 net.cpp:219] Setting up inception_5a/1x1
I0123 12:52:20.177140 39646 net.cpp:226] Top shape: 50 256 7 7 (627200)
I0123 12:52:20.177147 39646 net.cpp:234] Memory required for data: 2695976424
I0123 12:52:20.177160 39646 net.cpp:154] Setting up Layer of device :0 @cpu 0 Layer : inception_5a/relu_1x1
I0123 12:52:20.177202 39646 layer_factory.hpp:114] Creating layer inception_5a/relu_1x1
I0123 12:52:20.177214 39646 net.cpp:169] Creating Layer inception_5a/relu_1x1
I0123 12:52:20.177222 39646 net.cpp:606] inception_5a/relu_1x1 <- inception_5a/1x1
I0123 12:52:20.177232 39646 net.cpp:566] inception_5a/relu_1x1 -> inception_5a/1x1 (in-place)
I0123 12:52:20.177242 39646 net.cpp:219] Setting up inception_5a/relu_1x1
I0123 12:52:20.177250 39646 net.cpp:226] Top shape: 50 256 7 7 (627200)
I0123 12:52:20.177256 39646 net.cpp:234] Memory required for data: 2698485224
I0123 12:52:20.177275 39646 net.cpp:154] Setting up Layer of device :0 @cpu 0 Layer : inception_5a/3x3_reduce
I0123 12:52:20.177283 39646 layer_factory.hpp:114] Creating layer inception_5a/3x3_reduce
I0123 12:52:20.177294 39646 net.cpp:169] Creating Layer inception_5a/3x3_reduce
I0123 12:52:20.177301 39646 net.cpp:606] inception_5a/3x3_reduce <- pool4/3x3_s2_pool4/3x3_s2_0_split_1
I0123 12:52:20.177314 39646 net.cpp:579] inception_5a/3x3_reduce -> inception_5a/3x3_reduce
I0123 12:52:20.177320 39646 net.cpp:582] From AppendTop @cpu: 0
I0123 12:52:20.181124 39646 net.cpp:219] Setting up inception_5a/3x3_reduce
I0123 12:52:20.181139 39646 net.cpp:226] Top shape: 50 160 7 7 (392000)
I0123 12:52:20.181145 39646 net.cpp:234] Memory required for data: 2700053224
I0123 12:52:20.181157 39646 net.cpp:154] Setting up Layer of device :0 @cpu 0 Layer : inception_5a/relu_3x3_reduce
I0123 12:52:20.181164 39646 layer_factory.hpp:114] Creating layer inception_5a/relu_3x3_reduce
I0123 12:52:20.181198 39646 net.cpp:169] Creating Layer inception_5a/relu_3x3_reduce
I0123 12:52:20.181207 39646 net.cpp:606] inception_5a/relu_3x3_reduce <- inception_5a/3x3_reduce
I0123 12:52:20.181216 39646 net.cpp:566] inception_5a/relu_3x3_reduce -> inception_5a/3x3_reduce (in-place)
I0123 12:52:20.181226 39646 net.cpp:219] Setting up inception_5a/relu_3x3_reduce
I0123 12:52:20.181234 39646 net.cpp:226] Top shape: 50 160 7 7 (392000)
I0123 12:52:20.181241 39646 net.cpp:234] Memory required for data: 2701621224
I0123 12:52:20.181248 39646 net.cpp:154] Setting up Layer of device :0 @cpu 0 Layer : inception_5a/3x3
I0123 12:52:20.181255 39646 layer_factory.hpp:114] Creating layer inception_5a/3x3
I0123 12:52:20.181269 39646 net.cpp:169] Creating Layer inception_5a/3x3
I0123 12:52:20.181277 39646 net.cpp:606] inception_5a/3x3 <- inception_5a/3x3_reduce
I0123 12:52:20.181288 39646 net.cpp:579] inception_5a/3x3 -> inception_5a/3x3
I0123 12:52:20.181293 39646 net.cpp:582] From AppendTop @cpu: 0
I0123 12:52:20.192821 39646 net.cpp:219] Setting up inception_5a/3x3
I0123 12:52:20.192836 39646 net.cpp:226] Top shape: 50 320 7 7 (784000)
I0123 12:52:20.192842 39646 net.cpp:234] Memory required for data: 2704757224
I0123 12:52:20.192853 39646 net.cpp:154] Setting up Layer of device :0 @cpu 0 Layer : inception_5a/relu_3x3
I0123 12:52:20.192860 39646 layer_factory.hpp:114] Creating layer inception_5a/relu_3x3
I0123 12:52:20.192878 39646 net.cpp:169] Creating Layer inception_5a/relu_3x3
I0123 12:52:20.192898 39646 net.cpp:606] inception_5a/relu_3x3 <- inception_5a/3x3
I0123 12:52:20.192906 39646 net.cpp:566] inception_5a/relu_3x3 -> inception_5a/3x3 (in-place)
I0123 12:52:20.192916 39646 net.cpp:219] Setting up inception_5a/relu_3x3
I0123 12:52:20.192924 39646 net.cpp:226] Top shape: 50 320 7 7 (784000)
I0123 12:52:20.192931 39646 net.cpp:234] Memory required for data: 2707893224
I0123 12:52:20.192939 39646 net.cpp:154] Setting up Layer of device :0 @cpu 0 Layer : inception_5a/5x5_reduce
I0123 12:52:20.192946 39646 layer_factory.hpp:114] Creating layer inception_5a/5x5_reduce
I0123 12:52:20.192957 39646 net.cpp:169] Creating Layer inception_5a/5x5_reduce
I0123 12:52:20.192965 39646 net.cpp:606] inception_5a/5x5_reduce <- pool4/3x3_s2_pool4/3x3_s2_0_split_2
I0123 12:52:20.192976 39646 net.cpp:579] inception_5a/5x5_reduce -> inception_5a/5x5_reduce
I0123 12:52:20.192983 39646 net.cpp:582] From AppendTop @cpu: 0
I0123 12:52:20.194085 39646 net.cpp:219] Setting up inception_5a/5x5_reduce
I0123 12:52:20.194099 39646 net.cpp:226] Top shape: 50 32 7 7 (78400)
I0123 12:52:20.194105 39646 net.cpp:234] Memory required for data: 2708206824
I0123 12:52:20.194118 39646 net.cpp:154] Setting up Layer of device :0 @cpu 0 Layer : inception_5a/relu_5x5_reduce
I0123 12:52:20.194124 39646 layer_factory.hpp:114] Creating layer inception_5a/relu_5x5_reduce
I0123 12:52:20.194149 39646 net.cpp:169] Creating Layer inception_5a/relu_5x5_reduce
I0123 12:52:20.194157 39646 net.cpp:606] inception_5a/relu_5x5_reduce <- inception_5a/5x5_reduce
I0123 12:52:20.194166 39646 net.cpp:566] inception_5a/relu_5x5_reduce -> inception_5a/5x5_reduce (in-place)
I0123 12:52:20.194214 39646 net.cpp:219] Setting up inception_5a/relu_5x5_reduce
I0123 12:52:20.194223 39646 net.cpp:226] Top shape: 50 32 7 7 (78400)
I0123 12:52:20.194229 39646 net.cpp:234] Memory required for data: 2708520424
I0123 12:52:20.194237 39646 net.cpp:154] Setting up Layer of device :0 @cpu 0 Layer : inception_5a/5x5
I0123 12:52:20.194244 39646 layer_factory.hpp:114] Creating layer inception_5a/5x5
I0123 12:52:20.194258 39646 net.cpp:169] Creating Layer inception_5a/5x5
I0123 12:52:20.194267 39646 net.cpp:606] inception_5a/5x5 <- inception_5a/5x5_reduce
I0123 12:52:20.194278 39646 net.cpp:579] inception_5a/5x5 -> inception_5a/5x5
I0123 12:52:20.194284 39646 net.cpp:582] From AppendTop @cpu: 0
I0123 12:52:20.197027 39646 net.cpp:219] Setting up inception_5a/5x5
I0123 12:52:20.197057 39646 net.cpp:226] Top shape: 50 128 7 7 (313600)
I0123 12:52:20.197063 39646 net.cpp:234] Memory required for data: 2709774824
I0123 12:52:20.197074 39646 net.cpp:154] Setting up Layer of device :0 @cpu 0 Layer : inception_5a/relu_5x5
I0123 12:52:20.197082 39646 layer_factory.hpp:114] Creating layer inception_5a/relu_5x5
I0123 12:52:20.197091 39646 net.cpp:169] Creating Layer inception_5a/relu_5x5
I0123 12:52:20.197098 39646 net.cpp:606] inception_5a/relu_5x5 <- inception_5a/5x5
I0123 12:52:20.197109 39646 net.cpp:566] inception_5a/relu_5x5 -> inception_5a/5x5 (in-place)
I0123 12:52:20.197119 39646 net.cpp:219] Setting up inception_5a/relu_5x5
I0123 12:52:20.197127 39646 net.cpp:226] Top shape: 50 128 7 7 (313600)
I0123 12:52:20.197134 39646 net.cpp:234] Memory required for data: 2711029224
I0123 12:52:20.197141 39646 net.cpp:154] Setting up Layer of device :0 @cpu 0 Layer : inception_5a/pool
I0123 12:52:20.197149 39646 layer_factory.hpp:114] Creating layer inception_5a/pool
I0123 12:52:20.197196 39646 net.cpp:169] Creating Layer inception_5a/pool
I0123 12:52:20.197206 39646 net.cpp:606] inception_5a/pool <- pool4/3x3_s2_pool4/3x3_s2_0_split_3
I0123 12:52:20.197218 39646 net.cpp:579] inception_5a/pool -> inception_5a/pool
I0123 12:52:20.197226 39646 net.cpp:582] From AppendTop @cpu: 0
I0123 12:52:20.197237 39646 net.cpp:219] Setting up inception_5a/pool
I0123 12:52:20.197247 39646 net.cpp:226] Top shape: 50 832 7 7 (2038400)
I0123 12:52:20.197253 39646 net.cpp:234] Memory required for data: 2719182824
I0123 12:52:20.197260 39646 net.cpp:154] Setting up Layer of device :0 @cpu 0 Layer : inception_5a/pool_proj
I0123 12:52:20.197275 39646 layer_factory.hpp:114] Creating layer inception_5a/pool_proj
I0123 12:52:20.197289 39646 net.cpp:169] Creating Layer inception_5a/pool_proj
I0123 12:52:20.197299 39646 net.cpp:606] inception_5a/pool_proj <- inception_5a/pool
I0123 12:52:20.197309 39646 net.cpp:579] inception_5a/pool_proj -> inception_5a/pool_proj
I0123 12:52:20.197316 39646 net.cpp:582] From AppendTop @cpu: 0
I0123 12:52:20.200423 39646 net.cpp:219] Setting up inception_5a/pool_proj
I0123 12:52:20.200438 39646 net.cpp:226] Top shape: 50 128 7 7 (313600)
I0123 12:52:20.200444 39646 net.cpp:234] Memory required for data: 2720437224
I0123 12:52:20.200456 39646 net.cpp:154] Setting up Layer of device :0 @cpu 0 Layer : inception_5a/relu_pool_proj
I0123 12:52:20.200477 39646 layer_factory.hpp:114] Creating layer inception_5a/relu_pool_proj
I0123 12:52:20.200494 39646 net.cpp:169] Creating Layer inception_5a/relu_pool_proj
I0123 12:52:20.200501 39646 net.cpp:606] inception_5a/relu_pool_proj <- inception_5a/pool_proj
I0123 12:52:20.200511 39646 net.cpp:566] inception_5a/relu_pool_proj -> inception_5a/pool_proj (in-place)
I0123 12:52:20.200522 39646 net.cpp:219] Setting up inception_5a/relu_pool_proj
I0123 12:52:20.200531 39646 net.cpp:226] Top shape: 50 128 7 7 (313600)
I0123 12:52:20.200536 39646 net.cpp:234] Memory required for data: 2721691624
I0123 12:52:20.200544 39646 net.cpp:154] Setting up Layer of device :0 @cpu 0 Layer : inception_5a/output
I0123 12:52:20.200551 39646 layer_factory.hpp:114] Creating layer inception_5a/output
I0123 12:52:20.200561 39646 net.cpp:169] Creating Layer inception_5a/output
I0123 12:52:20.200577 39646 net.cpp:606] inception_5a/output <- inception_5a/1x1
I0123 12:52:20.200584 39646 net.cpp:606] inception_5a/output <- inception_5a/3x3
I0123 12:52:20.200592 39646 net.cpp:606] inception_5a/output <- inception_5a/5x5
I0123 12:52:20.200600 39646 net.cpp:606] inception_5a/output <- inception_5a/pool_proj
I0123 12:52:20.200608 39646 net.cpp:579] inception_5a/output -> inception_5a/output
I0123 12:52:20.200615 39646 net.cpp:582] From AppendTop @cpu: 0
I0123 12:52:20.200626 39646 net.cpp:219] Setting up inception_5a/output
I0123 12:52:20.200635 39646 net.cpp:226] Top shape: 50 832 7 7 (2038400)
I0123 12:52:20.200641 39646 net.cpp:234] Memory required for data: 2729845224
I0123 12:52:20.200649 39646 net.cpp:154] Setting up Layer of device :0 @cpu 0 Layer : inception_5a/output_inception_5a/output_0_split
I0123 12:52:20.200655 39646 layer_factory.hpp:114] Creating layer inception_5a/output_inception_5a/output_0_split
I0123 12:52:20.200665 39646 net.cpp:169] Creating Layer inception_5a/output_inception_5a/output_0_split
…
I0123 12:52:20.200711 39646 net.cpp:582] From AppendTop @cpu: 0
I0123 12:52:20.200721 39646 net.cpp:579] inception_5a/output_inception_5a/output_0_split -> inception_5a/output_inception_5a/output_0_split_2
I0123 12:52:20.200727 39646 net.cpp:582] From AppendTop @cpu: 0
I0123 12:52:20.200736 39646 net.cpp:579] inception_5a/output_inception_5a/output_0_split -> inception_5a/output_inception_5a/output_0_split_3
I0123 12:52:20.200743 39646 net.cpp:582] From AppendTop @cpu: 0
I0123 12:52:20.200753 39646 net.cpp:219] Setting up inception_5a/output_inception_5a/output_0_split
I0123 12:52:20.200762 39646 net.cpp:226] Top shape: 50 832 7 7 (2038400)
I0123 12:52:20.200769 39646 net.cpp:226] Top shape: 50 832 7 7 (2038400)
I0123 12:52:20.200778 39646 net.cpp:226] Top shape: 50 832 7 7 (2038400)
I0123 12:52:20.200784 39646 net.cpp:226] Top shape: 50 832 7 7 (2038400)
I0123 12:52:20.200790 39646 net.cpp:234] Memory required for data: 2762459624
I0123 12:52:20.200803 39646 net.cpp:154] Setting up Layer of device :0 @cpu 0 Layer : inception_5b/1x1
I0123 12:52:20.200809 39646 layer_factory.hpp:114] Creating layer inception_5b/1x1
I0123 12:52:20.200821 39646 net.cpp:169] Creating Layer inception_5b/1x1
I0123 12:52:20.200829 39646 net.cpp:606] inception_5b/1x1 <- inception_5a/output_inception_5a/output_0_split_0
I0123 12:52:20.200841 39646 net.cpp:579] inception_5b/1x1 -> inception_5b/1x1
I0123 12:52:20.200848 39646 net.cpp:582] From AppendTop @cpu: 0
I0123 12:52:20.208694 39646 net.cpp:219] Setting up inception_5b/1x1
I0123 12:52:20.208724 39646 net.cpp:226] Top shape: 50 384 7 7 (940800)
I0123 12:52:20.208729 39646 net.cpp:234] Memory required for data: 2766222824
I0123 12:52:20.208741 39646 net.cpp:154] Setting up Layer of device :0 @cpu 0 Layer : inception_5b/relu_1x1
I0123 12:52:20.208748 39646 layer_factory.hpp:114] Creating layer inception_5b/relu_1x1
I0123 12:52:20.208757 39646 net.cpp:169] Creating Layer inception_5b/relu_1x1
I0123 12:52:20.208765 39646 net.cpp:606] inception_5b/relu_1x1 <- inception_5b/1x1
I0123 12:52:20.208778 39646 net.cpp:566] inception_5b/relu_1x1 -> inception_5b/1x1 (in-place)
I0123 12:52:20.208789 39646 net.cpp:219] Setting up inception_5b/relu_1x1
I0123 12:52:20.208797 39646 net.cpp:226] Top shape: 50 384 7 7 (940800)
I0123 12:52:20.208804 39646 net.cpp:234] Memory required for data: 2769986024
I0123 12:52:20.208811 39646 net.cpp:154] Setting up Layer of device :0 @cpu 0 Layer : inception_5b/3x3_reduce
I0123 12:52:20.208818 39646 layer_factory.hpp:114] Creating layer inception_5b/3x3_reduce
I0123 12:52:20.208839 39646 net.cpp:169] Creating Layer inception_5b/3x3_reduce
I0123 12:52:20.208847 39646 net.cpp:606] inception_5b/3x3_reduce <- inception_5a/output_inception_5a/output_0_split_1
I0123 12:52:20.208858 39646 net.cpp:579] inception_5b/3x3_reduce -> inception_5b/3x3_reduce
I0123 12:52:20.208864 39646 net.cpp:582] From AppendTop @cpu: 0
I0123 12:52:20.213239 39646 net.cpp:219] Setting up inception_5b/3x3_reduce
I0123 12:52:20.213254 39646 net.cpp:226] Top shape: 50 192 7 7 (470400)
I0123 12:52:20.213261 39646 net.cpp:234] Memory required for data: 2771867624
I0123 12:52:20.213274 39646 net.cpp:154] Setting up Layer of device :0 @cpu 0 Layer : inception_5b/relu_3x3_reduce
I0123 12:52:20.213279 39646 layer_factory.hpp:114] Creating layer inception_5b/relu_3x3_reduce
I0123 12:52:20.213310 39646 net.cpp:169] Creating Layer inception_5b/relu_3x3_reduce
I0123 12:52:20.213325 39646 net.cpp:606] inception_5b/relu_3x3_reduce <- inception_5b/3x3_reduce
I0123 12:52:20.213333 39646 net.cpp:566] inception_5b/relu_3x3_reduce -> inception_5b/3x3_reduce (in-place)
I0123 12:52:20.213343 39646 net.cpp:219] Setting up inception_5b/relu_3x3_reduce
I0123 12:52:20.213351 39646 net.cpp:226] Top shape: 50 192 7 7 (470400)
I0123 12:52:20.213357 39646 net.cpp:234] Memory required for data: 2773749224
I0123 12:52:20.213366 39646 net.cpp:154] Setting up Layer of device :0 @cpu 0 Layer : inception_5b/3x3
I0123 12:52:20.213372 39646 layer_factory.hpp:114] Creating layer inception_5b/3x3
I0123 12:52:20.213383 39646 net.cpp:169] Creating Layer inception_5b/3x3
I0123 12:52:20.213392 39646 net.cpp:606] inception_5b/3x3 <- inception_5b/3x3_reduce
I0123 12:52:20.213402 39646 net.cpp:579] inception_5b/3x3 -> inception_5b/3x3
I0123 12:52:20.213410 39646 net.cpp:582] From AppendTop @cpu: 0
I0123 12:52:20.229205 39646 net.cpp:219] Setting up inception_5b/3x3
I0123 12:52:20.229223 39646 net.cpp:226] Top shape: 50 384 7 7 (940800)
I0123 12:52:20.229230 39646 net.cpp:234] Memory required for data: 2777512424
I0123 12:52:20.229241 39646 net.cpp:154] Setting up Layer of device :0 @cpu 0 Layer : inception_5b/relu_3x3
I0123 12:52:20.229249 39646 layer_factory.hpp:114] Creating layer inception_5b/relu_3x3
I0123 12:52:20.229264 39646 net.cpp:169] Creating Layer inception_5b/relu_3x3
I0123 12:52:20.229271 39646 net.cpp:606] inception_5b/relu_3x3 <- inception_5b/3x3
I0123 12:52:20.229282 39646 net.cpp:566] inception_5b/relu_3x3 -> inception_5b/3x3 (in-place)
I0123 12:52:20.229305 39646 net.cpp:219] Setting up inception_5b/relu_3x3
I0123 12:52:20.229315 39646 net.cpp:226] Top shape: 50 384 7 7 (940800)
I0123 12:52:20.229321 39646 net.cpp:234] Memory required for data: 2781275624
I0123 12:52:20.229328 39646 net.cpp:154] Setting up Layer of device :0 @cpu 0 Layer : inception_5b/5x5_reduce
I0123 12:52:20.229336 39646 layer_factory.hpp:114] Creating layer inception_5b/5x5_reduce
I0123 12:52:20.229346 39646 net.cpp:169] Creating Layer inception_5b/5x5_reduce
I0123 12:52:20.229354 39646 net.cpp:606] inception_5b/5x5_reduce <- inception_5a/output_inception_5a/output_0_split_2
I0123 12:52:20.229363 39646 net.cpp:579] inception_5b/5x5_reduce -> inception_5b/5x5_reduce
I0123 12:52:20.229372 39646 net.cpp:582] From AppendTop @cpu: 0
I0123 12:52:20.230912 39646 net.cpp:219] Setting up inception_5b/5x5_reduce
I0123 12:52:20.230926 39646 net.cpp:226] Top shape: 50 48 7 7 (117600)
I0123 12:52:20.230933 39646 net.cpp:234] Memory required for data: 2781746024
I0123 12:52:20.230945 39646 net.cpp:154] Setting up Layer of device :0 @cpu 0 Layer : inception_5b/relu_5x5_reduce
I0123 12:52:20.230952 39646 layer_factory.hpp:114] Creating layer inception_5b/relu_5x5_reduce
I0123 12:52:20.230960 39646 net.cpp:169] Creating Layer inception_5b/relu_5x5_reduce
I0123 12:52:20.230968 39646 net.cpp:606] inception_5b/relu_5x5_reduce <- inception_5b/5x5_reduce
I0123 12:52:20.230980 39646 net.cpp:566] inception_5b/relu_5x5_reduce -> inception_5b/5x5_reduce (in-place)
I0123 12:52:20.230990 39646 net.cpp:219] Setting up inception_5b/relu_5x5_reduce
I0123 12:52:20.230998 39646 net.cpp:226] Top shape: 50 48 7 7 (117600)
I0123 12:52:20.231020 39646 net.cpp:234] Memory required for data: 2782216424
I0123 12:52:20.231029 39646 net.cpp:154] Setting up Layer of device :0 @cpu 0 Layer : inception_5b/5x5
I0123 12:52:20.231035 39646 layer_factory.hpp:114] Creating layer inception_5b/5x5
I0123 12:52:20.231047 39646 net.cpp:169] Creating Layer inception_5b/5x5
I0123 12:52:20.231055 39646 net.cpp:606] inception_5b/5x5 <- inception_5b/5x5_reduce
I0123 12:52:20.231067 39646 net.cpp:579] inception_5b/5x5 -> inception_5b/5x5
I0123 12:52:20.231076 39646 net.cpp:582] From AppendTop @cpu: 0
I0123 12:52:20.236508 39646 net.cpp:219] Setting up inception_5b/5x5
I0123 12:52:20.236532 39646 net.cpp:226] Top shape: 50 128 7 7 (313600)
I0123 12:52:20.236539 39646 net.cpp:234] Memory required for data: 2783470824
I0123 12:52:20.236552 39646 net.cpp:154] Setting up Layer of device :0 @cpu 0 Layer : inception_5b/relu_5x5
I0123 12:52:20.236565 39646 layer_factory.hpp:114] Creating layer inception_5b/relu_5x5
I0123 12:52:20.236574 39646 net.cpp:169] Creating Layer inception_5b/relu_5x5
I0123 12:52:20.236582 39646 net.cpp:606] inception_5b/relu_5x5 <- inception_5b/5x5
I0123 12:52:20.236590 39646 net.cpp:566] inception_5b/relu_5x5 -> inception_5b/5x5 (in-place)
I0123 12:52:20.236599 39646 net.cpp:219] Setting up inception_5b/relu_5x5
I0123 12:52:20.236608 39646 net.cpp:226] Top shape: 50 128 7 7 (313600)
I0123 12:52:20.236614 39646 net.cpp:234] Memory required for data: 2784725224
I0123 12:52:20.236621 39646 net.cpp:154] Setting up Layer of device :0 @cpu 0 Layer : inception_5b/pool
I0123 12:52:20.236629 39646 layer_factory.hpp:114] Creating layer inception_5b/pool
I0123 12:52:20.236671 39646 net.cpp:169] Creating Layer inception_5b/pool
I0123 12:52:20.236681 39646 net.cpp:606] inception_5b/pool <- inception_5a/output_inception_5a/output_0_split_3
I0123 12:52:20.236690 39646 net.cpp:579] inception_5b/pool -> inception_5b/pool
I0123 12:52:20.236697 39646 net.cpp:582] From AppendTop @cpu: 0
I0123 12:52:20.236709 39646 net.cpp:219] Setting up inception_5b/pool
I0123 12:52:20.236721 39646 net.cpp:226] Top shape: 50 832 7 7 (2038400)
I0123 12:52:20.236728 39646 net.cpp:234] Memory required for data: 2792878824
I0123 12:52:20.236737 39646 net.cpp:154] Setting up Layer of device :0 @cpu 0 Layer : inception_5b/pool_proj
I0123 12:52:20.236743 39646 layer_factory.hpp:114] Creating layer inception_5b/pool_proj
I0123 12:52:20.236762 39646 net.cpp:169] Creating Layer inception_5b/pool_proj
I0123 12:52:20.236769 39646 net.cpp:606] inception_5b/pool_proj <- inception_5b/pool
I0123 12:52:20.236783 39646 net.cpp:579] inception_5b/pool_proj -> inception_5b/pool_proj
I0123 12:52:20.236789 39646 net.cpp:582] From AppendTop @cpu: 0
I0123 12:52:20.240736 39646 net.cpp:219] Setting up inception_5b/pool_proj
I0123 12:52:20.240758 39646 net.cpp:226] Top shape: 50 128 7 7 (313600)
I0123 12:52:20.240764 39646 net.cpp:234] Memory required for data: 2794133224
I0123 12:52:20.240777 39646 net.cpp:154] Setting up Layer of device :0 @cpu 0 Layer : inception_5b/relu_pool_proj
I0123 12:52:20.240797 39646 layer_factory.hpp:114] Creating layer inception_5b/relu_pool_proj
I0123 12:52:20.240806 39646 net.cpp:169] Creating Layer inception_5b/relu_pool_proj
I0123 12:52:20.240814 39646 net.cpp:606] inception_5b/relu_pool_proj <- inception_5b/pool_proj
I0123 12:52:20.240823 39646 net.cpp:566] inception_5b/relu_pool_proj -> inception_5b/pool_proj (in-place)
I0123 12:52:20.240833 39646 net.cpp:219] Setting up inception_5b/relu_pool_proj
I0123 12:52:20.240841 39646 net.cpp:226] Top shape: 50 128 7 7 (313600)
I0123 12:52:20.240847 39646 net.cpp:234] Memory required for data: 2795387624
I0123 12:52:20.240855 39646 net.cpp:154] Setting up Layer of device :0 @cpu 0 Layer : inception_5b/output
I0123 12:52:20.240862 39646 layer_factory.hpp:114] Creating layer inception_5b/output
I0123 12:52:20.240875 39646 net.cpp:169] Creating Layer inception_5b/output
I0123 12:52:20.240883 39646 net.cpp:606] inception_5b/output <- inception_5b/1x1
I0123 12:52:20.240890 39646 net.cpp:606] inception_5b/output <- inception_5b/3x3
I0123 12:52:20.240908 39646 net.cpp:606] inception_5b/output <- inception_5b/5x5
I0123 12:52:20.240916 39646 net.cpp:606] inception_5b/output <- inception_5b/pool_proj
I0123 12:52:20.240926 39646 net.cpp:579] inception_5b/output -> inception_5b/output
I0123 12:52:20.240931 39646 net.cpp:582] From AppendTop @cpu: 0
I0123 12:52:20.240943 39646 net.cpp:219] Setting up inception_5b/output
I0123 12:52:20.240952 39646 net.cpp:226] Top shape: 50 1024 7 7 (2508800)
I0123 12:52:20.240958 39646 net.cpp:234] Memory required for data: 2805422824
I0123 12:52:20.240967 39646 net.cpp:154] Setting up Layer of device :0 @cpu 0 Layer : pool5/7x7_s1
I0123 12:52:20.240972 39646 layer_factory.hpp:114] Creating layer pool5/7x7_s1
I0123 12:52:20.240994 39646 net.cpp:169] Creating Layer pool5/7x7_s1
I0123 12:52:20.241004 39646 net.cpp:606] pool5/7x7_s1 <- inception_5b/output
I0123 12:52:20.241014 39646 net.cpp:579] pool5/7x7_s1 -> pool5/7x7_s1
I0123 12:52:20.241020 39646 net.cpp:582] From AppendTop @cpu: 0
I0123 12:52:20.241031 39646 net.cpp:219] Setting up pool5/7x7_s1
I0123 12:52:20.241040 39646 net.cpp:226] Top shape: 50 1024 1 1 (51200)
I0123 12:52:20.241047 39646 net.cpp:234] Memory required for data: 2805627624
I0123 12:52:20.241055 39646 net.cpp:154] Setting up Layer of device :0 @cpu 0 Layer : pool5/drop_7x7_s1
I0123 12:52:20.241061 39646 layer_factory.hpp:114] Creating layer pool5/drop_7x7_s1
I0123 12:52:20.241076 39646 net.cpp:169] Creating Layer pool5/drop_7x7_s1
I0123 12:52:20.241083 39646 net.cpp:606] pool5/drop_7x7_s1 <- pool5/7x7_s1
I0123 12:52:20.241092 39646 net.cpp:566] pool5/drop_7x7_s1 -> pool5/7x7_s1 (in-place)
I0123 12:52:20.241106 39646 net.cpp:219] Setting up pool5/drop_7x7_s1
I0123 12:52:20.241113 39646 net.cpp:226] Top shape: 50 1024 1 1 (51200)
I0123 12:52:20.241120 39646 net.cpp:234] Memory required for data: 2805832424
I0123 12:52:20.241127 39646 net.cpp:154] Setting up Layer of device :0 @cpu 0 Layer : loss3/classifier
I0123 12:52:20.241134 39646 layer_factory.hpp:114] Creating layer loss3/classifier
I0123 12:52:20.241150 39646 net.cpp:169] Creating Layer loss3/classifier
I0123 12:52:20.241158 39646 net.cpp:606] loss3/classifier <- pool5/7x7_s1
I0123 12:52:20.241168 39646 net.cpp:579] loss3/classifier -> loss3/classifier
I0123 12:52:20.241199 39646 net.cpp:582] From AppendTop @cpu: 0
I0123 12:52:20.250905 39646 net.cpp:219] Setting up loss3/classifier
I0123 12:52:20.250924 39646 net.cpp:226] Top shape: 50 1000 (50000)
I0123 12:52:20.250931 39646 net.cpp:234] Memory required for data: 2806032424
I0123 12:52:20.250943 39646 net.cpp:154] Setting up Layer of device :0 @cpu 0 Layer : loss3/classifier_loss3/classifier_0_split
I0123 12:52:20.250951 39646 layer_factory.hpp:114] Creating layer loss3/classifier_loss3/classifier_0_split
I0123 12:52:20.250959 39646 net.cpp:169] Creating Layer loss3/classifier_loss3/classifier_0_split
I0123 12:52:20.250967 39646 net.cpp:606] loss3/classifier_loss3/classifier_0_split <- loss3/classifier
I0123 12:52:20.250977 39646 net.cpp:579] loss3/classifier_loss3/classifier_0_split -> loss3/classifier_loss3/classifier_0_split_0
I0123 12:52:20.250982 39646 net.cpp:582] From AppendTop @cpu: 0
I0123 12:52:20.250993 39646 net.cpp:579] loss3/classifier_loss3/classifier_0_split -> loss3/classifier_loss3/classifier_0_split_1
I0123 12:52:20.250999 39646 net.cpp:582] From AppendTop @cpu: 0
I0123 12:52:20.251009 39646 net.cpp:579] loss3/classifier_loss3/classifier_0_split -> loss3/classifier_loss3/classifier_0_split_2
I0123 12:52:20.251015 39646 net.cpp:582] From AppendTop @cpu: 0
I0123 12:52:20.251026 39646 net.cpp:219] Setting up loss3/classifier_loss3/classifier_0_split
I0123 12:52:20.251034 39646 net.cpp:226] Top shape: 50 1000 (50000)
I0123 12:52:20.251041 39646 net.cpp:226] Top shape: 50 1000 (50000)
I0123 12:52:20.251049 39646 net.cpp:226] Top shape: 50 1000 (50000)
I0123 12:52:20.251055 39646 net.cpp:234] Memory required for data: 2806632424
I0123 12:52:20.251062 39646 net.cpp:154] Setting up Layer of device :0 @cpu 0 Layer : loss3/loss3
I0123 12:52:20.251070 39646 layer_factory.hpp:114] Creating layer loss3/loss3
I0123 12:52:20.251091 39646 net.cpp:169] Creating Layer loss3/loss3
I0123 12:52:20.251098 39646 net.cpp:606] loss3/loss3 <- loss3/classifier_loss3/classifier_0_split_0
…
