…
I0123 12:52:38.790586 39683 net.cpp:493] The NetState phase (0) differed from the phase (1) specified by a rule in layer loss3/top-5
I0123 12:52:38.799903 39683 net.cpp:125] Initializing net from parameters: 
name: "GoogleNet"
state {
  phase: TRAIN
  level: 0
  stage: ""
}
layer {
  name: "data"
  type: "Data"
  top: "data"
  top: "label"
  include {
    phase: TRAIN
  }
  transform_param {
    mirror: true
    crop_size: 224
    mean_value: 104
    mean_value: 117
    mean_value: 123
  }
  data_param {
    source: "/home/user/caffeOMP/original/caffe/examples/imagenet/ilsvrc12_train_lmdb"
    batch_size: 16
    backend: LMDB
  }
}
layer {
  name: "label_data_1_split"
  type: "Split"
  bottom: "label"
  top: "label_data_1_split_0"
  top: "label_data_1_split_1"
  top: "label_data_1_split_2"
}
layer {
  name: "conv1/7x7_s2"
  type: "Convolution"
  bottom: "data"
  top: "conv1/7x7_s2"
  param {
    lr_mult: 1
    decay_mult: 1
  }
  param {
    lr_mult: 2
    decay_mult: 0
  }
  convolution_param {
    num_output: 64
    pad: 3
    kernel_size: 7
    stride: 2
    weight_filler {
      type: "xavier"
    }
    bias_filler {
      type: "constant"
      value: 0.2
    }
  }
}
layer {
  name: "conv1/relu_7x7"
  type: "ReLU"
  bottom: "conv1/7x7_s2"
  top: "conv1/7x7_s2"
}
layer {
  name: "pool1/3x3_s2"
  type: "Pooling"
  bottom: "conv1/7x7_s2"
  top: "pool1/3x3_s2"
  pooling_param {
    pool: MAX
    kernel_size: 3
    stride: 2
  }
}
layer {
  name: "pool1/norm1"
  type: "LRN"
  bottom: "pool1/3x3_s2"
  top: "pool1/norm1"
  lrn_param {
    local_size: 5
    alpha: 0.0001
    beta: 0.75
  }
}
layer {
  name: "conv2/3x3_reduce"
  type: "Convolution"
  bottom: "pool1/norm1"
  top: "conv2/3x3_reduce"
  param {
    lr_mult: 1
    decay_mult: 1
  }
  param {
    lr_mult: 2
    decay_mult: 0
  }
  convolution_param {
    num_output: 64
    kernel_size: 1
    weight_filler {
      type: "xavier"
    }
    bias_filler {
      type: "constant"
      value: 0.2
    }
  }
}
layer {
  name: "conv2/relu_3x3_reduce"
  type: "ReLU"
  bottom: "conv2/3x3_reduce"
  top: "conv2/3x3_reduce"
}
layer {
  name: "conv2/3x3"
  type: "Convolution"
  bottom: "conv2/3x3_reduce"
  top: "conv2/3x3"
  param {
    lr_mult: 1
    decay_mult: 1
  }
  param {
    lr_mult: 2
    decay_mult: 0
  }
  convolution_param {
    num_output: 192
    pad: 1
    kernel_size: 3
    weight_filler {
      type: "xavier"
    }
    bias_filler {
      type: "constant"
      value: 0.2
    }
  }
}
layer {
  name: "conv2/relu_3x3"
  type: "ReLU"
  bottom: "conv2/3x3"
  top: "conv2/3x3"
}
layer {
  name: "conv2/norm2"
  type: "LRN"
  bottom: "conv2/3x3"
  top: "conv2/norm2"
  lrn_param {
    local_size: 5
    alpha: 0.0001
    beta: 0.75
  }
}
layer {
  name: "pool2/3x3_s2"
  type: "Pooling"
  bottom: "conv2/norm2"
  top: "pool2/3x3_s2"
  pooling_param {
    pool: MAX
    kernel_size: 3
    stride: 2
  }
}
layer {
  name: "pool2/3x3_s2_pool2/3x3_s2_0_split"
  type: "Split"
  bottom: "pool2/3x3_s2"
  top: "pool2/3x3_s2_pool2/3x3_s2_0_split_0"
  top: "pool2/3x3_s2_pool2/3x3_s2_0_split_1"
  top: "pool2/3x3_s2_pool2/3x3_s2_0_split_2"
  top: "pool2/3x3_s2_pool2/3x3_s2_0_split_3"
}
layer {
  name: "inception_3a/1x1"
  type: "Convolution"
  bottom: "pool2/3x3_s2_pool2/3x3_s2_0_split_0"
  top: "inception_3a/1x1"
  param {
    lr_mult: 1
    decay_mult: 1
  }
  param {
    lr_mult: 2
    decay_mult: 0
  }
  convolution_param {
    num_output: 64
    kernel_size: 1
    weight_filler {
      type: "xavier"
    }
    bias_filler {
      type: "constant"
      value: 0.2
    }
  }
}
layer {
  name: "inception_3a/relu_1x1"
  type: "ReLU"
  bottom: "inception_3a/1x1"
  top: "inception_3a/1x1"
}
layer {
  name: "inception_3a/3x3_reduce"
  type: "Convolution"
  bottom: "pool2/3x3_s2_pool2/3x3_s2_0_split_1"
  top: "inception_3a/3x3_reduce"
  param {
    lr_mult: 1
    decay_mult: 1
  }
  param {
    lr_mult: 2
    decay_mult: 0
  }
  convolution_param {
    num_output: 96
    kernel_size: 1
    weight_filler {
      type: "xavier"
    }
    bias_filler {
      type: "constant"
      value: 0.2
    }
  }
}
layer {
  name: "inception_3a/relu_3x3_reduce"
  type: "ReLU"
  bottom: "inception_3a/3x3_reduce"
  top: "inception_3a/3x3_reduce"
}
layer {
  name: "inception_3a/3x3"
  type: "Convolution"
  bottom: "inception_3a/3x3_reduce"
  top: "inception_3a/3x3"
  param {
    lr_mult: 1
    decay_mult: 1
  }
  param {
    lr_mult: 2
    decay_mult: 0
  }
  convolution_param {
    num_output: 128
    pad: 1
    kernel_size: 3
    weight_filler {
      type: "xavier"
    }
    bias_filler {
      type: "constant"
      value: 0.2
    }
  }
}
layer {
  name: "inception_3a/relu_3x3"
  type: "ReLU"
  bottom: "inception_3a/3x3"
  top: "inception_3a/3x3"
}
layer {
  name: "inception_3a/5x5_reduce"
  type: "Convolution"
  bottom: "pool2/3x3_s2_pool2/3x3_s2_0_split_2"
  top: "inception_3a/5x5_reduce"
  param {
    lr_mult: 1
    decay_mult: 1
  }
  param {
    lr_mult: 2
    decay_mult: 0
  }
  convolution_param {
    num_output: 16
    kernel_size: 1
    weight_filler {
      type: "xavier"
    }
    bias_filler {
      type: "constant"
      value: 0.2
    }
  }
}
layer {
  name: "inception_3a/relu_5x5_reduce"
  type: "ReLU"
  bottom: "inception_3a/5x5_reduce"
  top: "inception_3a/5x5_reduce"
}
layer {
  name: "inception_3a/5x5"
  type: "Convolution"
  bottom: "inception_3a/5x5_reduce"
  top: "inception_3a/5x5"
  param {
    lr_mult: 1
    decay_mult: 1
  }
  param {
    lr_mult: 2
    decay_mult: 0
  }
  convolution_param {
    num_output: 32
    pad: 2
    kernel_size: 5
    weight_filler {
      type: "xavier"
    }
    bias_filler {
      type: "constant"
      value: 0.2
    }
  }
}
layer {
  name: "inception_3a/relu_5x5"
  type: "ReLU"
  bottom: "inception_3a/5x5"
  top: "inception_3a/5x5"
}
layer {
  name: "inception_3a/pool"
  type: "Pooling"
  bottom: "pool2/3x3_s2_pool2/3x3_s2_0_split_3"
  top: "inception_3a/pool"
  pooling_param {
    pool: MAX
    kernel_size: 3
    stride: 1
    pad: 1
  }
}
layer {
  name: "inception_3a/pool_proj"
  type: "Convolution"
  bottom: "inception_3a/pool"
  top: "inception_3a/pool_proj"
  param {
    lr_mult: 1
    decay_mult: 1
  }
  param {
    lr_mult: 2
    decay_mult: 0
  }
  convolution_param {
    num_output: 32
    kernel_size: 1
    weight_filler {
      type: "xavier"
    }
    bias_filler {
      type: "constant"
      value: 0.2
    }
  }
}
layer {
  name: "inception_3a/relu_pool_proj"
  type: "ReLU"
  bottom: "inception_3a/pool_proj"
  top: "inception_3a/pool_proj"
}
layer {
  name: "inception_3a/output"
  type: "Concat"
  bottom: "inception_3a/1x1"
  bottom: "inception_3a/3x3"
  bottom: "inception_3a/5x5"
  bottom: "inception_3a/pool_proj"
  top: "inception_3a/output"
}
layer {
  name: "inception_3a/output_inception_3a/output_0_split"
  type: "Split"
  bottom: "inception_3a/output"
  top: "inception_3a/output_inception_3a/output_0_split_0"
  top: "inception_3a/output_inception_3a/output_0_split_1"
  top: "inception_3a/output_inception_3a/output_0_split_2"
  top: "inception_3a/output_inception_3a/output_0_split_3"
}
layer {
  name: "inception_3b/1x1"
  type: "Convolution"
  bottom: "inception_3a/output_inception_3a/output_0_split_0"
  top: "inception_3b/1x1"
  param {
    lr_mult: 1
    decay_mult: 1
  }
  param {
    lr_mult: 2
    decay_mult: 0
  }
  convolution_param {
    num_output: 128
    kernel_size: 1
    weight_filler {
      type: "xavier"
    }
    bias_filler {
      type: "constant"
      value: 0.2
    }
  }
}
layer {
  name: "inception_3b/relu_1x1"
  type: "ReLU"
  bottom: "inception_3b/1x1"
  top: "inception_3b/1x1"
}
layer {
  name: "inception_3b/3x3_reduce"
  type: "Convolution"
  bottom: "inception_3a/output_inception_3a/output_0_split_1"
  top: "inception_3b/3x3_reduce"
  param {
    lr_mult: 1
    decay_mult: 1
  }
  param {
    lr_mult: 2
    decay_mult: 0
  }
  convolution_param {
    num_output: 128
    kernel_size: 1
    weight_filler {
      type: "xavier"
    }
    bias_filler {
      type: "constant"
      value: 0.2
    }
  }
}
layer {
  name: "inception_3b/relu_3x3_reduce"
  type: "ReLU"
  bottom: "inception_3b/3x3_reduce"
  top: "inception_3b/3x3_reduce"
}
layer {
  name: "inception_3b/3x3"
  type: "Convolution"
  bottom: "inception_3b/3x3_reduce"
  top: "inception_3b/3x3"
  param {
    lr_mult: 1
    decay_mult: 1
  }
  param {
    lr_mult: 2
    decay_mult: 0
  }
  convolution_param {
    num_output: 192
    pad: 1
    kernel_size: 3
    weight_filler {
      type: "xavier"
    }
    bias_filler {
      type: "constant"
      value: 0.2
    }
  }
}
layer {
  name: "inception_3b/relu_3x3"
  type: "ReLU"
  bottom: "inception_3b/3x3"
  top: "inception_3b/3x3"
}
layer {
  name: "inception_3b/5x5_reduce"
  type: "Convolution"
  bottom: "inception_3a/output_inception_3a/output_0_split_2"
  top: "inception_3b/5x5_reduce"
  param {
    lr_mult: 1
    decay_mult: 1
  }
  param {
    lr_mult: 2
    decay_mult: 0
  }
  convolution_param {
    num_output: 32
    kernel_size: 1
    weight_filler {
      type: "xavier"
    }
    bias_filler {
      type: "constant"
      value: 0.2
    }
  }
}
layer {
  name: "inception_3b/relu_5x5_reduce"
  type: "ReLU"
  bottom: "inception_3b/5x5_reduce"
  top: "inception_3b/5x5_reduce"
}
layer {
  name: "inception_3b/5x5"
  type: "Convolution"
  bottom: "inception_3b/5x5_reduce"
  top: "inception_3b/5x5"
  param {
    lr_mult: 1
    decay_mult: 1
  }
  param {
    lr_mult: 2
    decay_mult: 0
  }
  convolution_param {
    num_output: 96
    pad: 2
    kernel_size: 5
    weight_filler {
      type: "xavier"
    }
    bias_filler {
      type: "constant"
      value: 0.2
    }
  }
}
layer {
  name: "inception_3b/relu_5x5"
  type: "ReLU"
  bottom: "inception_3b/5x5"
  top: "inception_3b/5x5"
}
layer {
  name: "inception_3b/pool"
  type: "Pooling"
  bottom: "inception_3a/output_inception_3a/output_0_split_3"
  top: "inception_3b/pool"
  pooling_param {
    pool: MAX
    kernel_size: 3
    stride: 1
    pad: 1
  }
}
layer {
  name: "inception_3b/pool_proj"
  type: "Convolution"
  bottom: "inception_3b/pool"
  top: "inception_3b/pool_proj"
  param {
    lr_mult: 1
    decay_mult: 1
  }
  param {
    lr_mult: 2
    decay_mult: 0
  }
  convolution_param {
    num_output: 64
    kernel_size: 1
    weight_filler {
      type: "xavier"
    }
    bias_filler {
      type: "constant"
      value: 0.2
    }
  }
}
layer {
  name: "inception_3b/relu_pool_proj"
  type: "ReLU"
  bottom: "inception_3b/pool_proj"
  top: "inception_3b/pool_proj"
}
layer {
  name: "inception_3b/output"
  type: "Concat"
  bottom: "inception_3b/1x1"
  bottom: "inception_3b/3x3"
  bottom: "inception_3b/5x5"
  bottom: "inception_3b/pool_proj"
  top: "inception_3b/output"
}
layer {
  name: "pool3/3x3_s2"
  type: "Pooling"
  bottom: "inception_3b/output"
  top: "pool3/3x3_s2"
  pooling_param {
    pool: MAX
    kernel_size: 3
    stride: 2
  }
}
layer {
  name: "pool3/3x3_s2_pool3/3x3_s2_0_split"
  type: "Split"
  bottom: "pool3/3x3_s2"
  top: "pool3/3x3_s2_pool3/3x3_s2_0_split_0"
  top: "pool3/3x3_s2_pool3/3x3_s2_0_split_1"
  top: "pool3/3x3_s2_pool3/3x3_s2_0_split_2"
  top: "pool3/3x3_s2_pool3/3x3_s2_0_split_3"
}
layer {
  name: "inception_4a/1x1"
  type: "Convolution"
  bottom: "pool3/3x3_s2_pool3/3x3_s2_0_split_0"
  top: "inception_4a/1x1"
  param {
    lr_mult: 1
    decay_mult: 1
  }
  param {
    lr_mult: 2
    decay_mult: 0
  }
  convolution_param {
    num_output: 192
    kernel_size: 1
    weight_filler {
      type: "xavier"
    }
    bias_filler {
      type: "constant"
      value: 0.2
    }
  }
}
layer {
  name: "inception_4a/relu_1x1"
  type: "ReLU"
  bottom: "inception_4a/1x1"
  top: "inception_4a/1x1"
}
layer {
  name: "inception_4a/3x3_reduce"
  type: "Convolution"
  bottom: "pool3/3x3_s2_pool3/3x3_s2_0_split_1"
  top: "inception_4a/3x3_reduce"
  param {
    lr_mult: 1
    decay_mult: 1
  }
  param {
    lr_mult: 2
    decay_mult: 0
  }
  convolution_param {
    num_output: 96
    kernel_size: 1
    weight_filler {
      type: "xavier"
    }
    bias_filler {
      type: "constant"
      value: 0.2
    }
  }
}
layer {
  name: "inception_4a/relu_3x3_reduce"
  type: "ReLU"
  bottom: "inception_4a/3x3_reduce"
  top: "inception_4a/3x3_reduce"
}
layer {
  name: "inception_4a/3x3"
  type: "Convolution"
  bottom: "inception_4a/3x3_reduce"
  top: "inception_4a/3x3"
  param {
    lr_mult: 1
    decay_mult: 1
  }
  param {
    lr_mult: 2
    decay_mult: 0
  }
  convolution_param {
    num_output: 208
    pad: 1
    kernel_size: 3
    weight_filler {
      type: "xavier"
    }
    bias_filler {
      type: "constant"
      value: 0.2
    }
  }
}
layer {
  name: "inception_4a/relu_3x3"
  type: "ReLU"
  bottom: "inception_4a/3x3"
  top: "inception_4a/3x3"
}
layer {
  name: "inception_4a/5x5_reduce"
  type: "Convolution"
  bottom: "pool3/3x3_s2_pool3/3x3_s2_0_split_2"
  top: "inception_4a/5x5_reduce"
  param {
    lr_mult: 1
    decay_mult: 1
  }
  param {
    lr_mult: 2
    decay_mult: 0
  }
  convolution_param {
    num_output: 16
    kernel_size: 1
    weight_filler {
      type: "xavier"
    }
    bias_filler {
      type: "constant"
      value: 0.2
    }
  }
}
layer {
  name: "inception_4a/relu_5x5_reduce"
  type: "ReLU"
  bottom: "inception_4a/5x5_reduce"
  top: "inception_4a/5x5_reduce"
}
layer {
  name: "inception_4a/5x5"
  type: "Convolution"
  bottom: "inception_4a/5x5_reduce"
  top: "inception_4a/5x5"
  param {
    lr_mult: 1
    decay_mult: 1
  }
  param {
    lr_mult: 2
    decay_mult: 0
  }
  convolution_param {
    num_output: 48
    pad: 2
    kernel_size: 5
    weight_filler {
      type: "xavier"
    }
    bias_filler {
      type: "constant"
      value: 0.2
    }
  }
}
layer {
  name: "inception_4a/relu_5x5"
  type: "ReLU"
  bottom: "inception_4a/5x5"
  top: "inception_4a/5x5"
}
layer {
  name: "inception_4a/pool"
  type: "Pooling"
  bottom: "pool3/3x3_s2_pool3/3x3_s2_0_split_3"
  top: "inception_4a/pool"
  pooling_param {
    pool: MAX
    kernel_size: 3
    stride: 1
    pad: 1
  }
}
layer {
  name: "inception_4a/pool_proj"
  type: "Convolution"
  bottom: "inception_4a/pool"
  top: "inception_4a/pool_proj"
  param {
    lr_mult: 1
    decay_mult: 1
  }
  param {
    lr_mult: 2
    decay_mult: 0
  }
  convolution_param {
    num_output: 64
    kernel_size: 1
    weight_filler {
      type: "xavier"
    }
    bias_filler {
      type: "constant"
      value: 0.2
    }
  }
}
layer {
  name: "inception_4a/relu_pool_proj"
  type: "ReLU"
  bottom: "inception_4a/pool_proj"
  top: "inception_4a/pool_proj"
}
layer {
  name: "inception_4a/output"
  type: "Concat"
  bottom: "inception_4a/1x1"
  bottom: "inception_4a/3x3"
  bottom: "inception_4a/5x5"
  bottom: "inception_4a/pool_proj"
  top: "inception_4a/output"
}
layer {
  name: "inception_4a/output_inception_4a/output_0_split"
  type: "Split"
  bottom: "inception_4a/output"
  top: "inception_4a/output_inception_4a/output_0_split_0"
  top: "inception_4a/output_inception_4a/output_0_split_1"
  top: "inception_4a/output_inception_4a/output_0_split_2"
  top: "inception_4a/output_inception_4a/output_0_split_3"
  top: "inception_4a/output_inception_4a/output_0_split_4"
}
layer {
  name: "loss1/ave_pool"
  type: "Pooling"
  bottom: "inception_4a/output_inception_4a/output_0_split_0"
  top: "loss1/ave_pool"
  pooling_param {
    pool: AVE
    kernel_size: 5
    stride: 3
  }
}
layer {
  name: "loss1/conv"
  type: "Convolution"
  bottom: "loss1/ave_pool"
  top: "loss1/conv"
  param {
    lr_mult: 1
    decay_mult: 1
  }
  param {
    lr_mult: 2
    decay_mult: 0
  }
  convolution_param {
    num_output: 128
    kernel_size: 1
    weight_filler {
      type: "xavier"
    }
    bias_filler {
      type: "constant"
      value: 0.2
    }
  }
}
layer {
  name: "loss1/relu_conv"
  type: "ReLU"
  bottom: "loss1/conv"
  top: "loss1/conv"
}
layer {
  name: "loss1/fc"
  type: "InnerProduct"
  bottom: "loss1/conv"
  top: "loss1/fc"
  param {
    lr_mult: 1
    decay_mult: 1
  }
  param {
    lr_mult: 2
    decay_mult: 0
  }
  inner_product_param {
    num_output: 1024
    weight_filler {
      type: "xavier"
    }
    bias_filler {
      type: "constant"
      value: 0.2
    }
  }
}
layer {
  name: "loss1/relu_fc"
  type: "ReLU"
  bottom: "loss1/fc"
  top: "loss1/fc"
}
layer {
  name: "loss1/drop_fc"
  type: "Dropout"
  bottom: "loss1/fc"
  top: "loss1/fc"
  dropout_param {
    dropout_ratio: 0.7
  }
}
layer {
  name: "loss1/classifier"
  type: "InnerProduct"
  bottom: "loss1/fc"
  top: "loss1/classifier"
  param {
    lr_mult: 1
    decay_mult: 1
  }
  param {
    lr_mult: 2
    decay_mult: 0
  }
  inner_product_param {
    num_output: 1000
    weight_filler {
      type: "xavier"
    }
    bias_filler {
      type: "constant"
      value: 0
    }
  }
}
layer {
  name: "loss1/loss"
  type: "SoftmaxWithLoss"
  bottom: "loss1/classifier"
  bottom: "label_data_1_split_0"
  top: "loss1/loss1"
  loss_weight: 0.3
}
layer {
  name: "inception_4b/1x1"
  type: "Convolution"
  bottom: "inception_4a/output_inception_4a/output_0_split_1"
  top: "inception_4b/1x1"
  param {
    lr_mult: 1
    decay_mult: 1
  }
  param {
    lr_mult: 2
    decay_mult: 0
  }
  convolution_param {
    num_output: 160
    kernel_size: 1
    weight_filler {
      type: "xavier"
    }
    bias_filler {
      type: "constant"
      value: 0.2
    }
  }
}
layer {
  name: "inception_4b/relu_1x1"
  type: "ReLU"
  bottom: "inception_4b/1x1"
  top: "inception_4b/1x1"
}
layer {
  name: "inception_4b/3x3_reduce"
  type: "Convolution"
  bottom: "inception_4a/output_inception_4a/output_0_split_2"
  top: "inception_4b/3x3_reduce"
  param {
    lr_mult: 1
    decay_mult: 1
  }
  param {
    lr_mult: 2
    decay_mult: 0
  }
  convolution_param {
    num_output: 112
    kernel_size: 1
    weight_filler {
      type: "xavier"
    }
    bias_filler {
      type: "constant"
      value: 0.2
    }
  }
}
layer {
  name: "inception_4b/relu_3x3_reduce"
  type: "ReLU"
  bottom: "inception_4b/3x3_reduce"
  top: "inception_4b/3x3_reduce"
}
layer {
  name: "inception_4b/3x3"
  type: "Convolution"
  bottom: "inception_4b/3x3_reduce"
  top: "inception_4b/3x3"
  param {
    lr_mult: 1
    decay_mult: 1
  }
  param {
    lr_mult: 2
    decay_mult: 0
  }
  convolution_param {
    num_output: 224
    pad: 1
    kernel_size: 3
    weight_filler {
      type: "xavier"
    }
    bias_filler {
      type: "constant"
      value: 0.2
    }
  }
}
layer {
  name: "inception_4b/relu_3x3"
  type: "ReLU"
  bottom: "inception_4b/3x3"
  top: "inception_4b/3x3"
}
layer {
  name: "inception_4b/5x5_reduce"
  type: "Convolution"
  bottom: "inception_4a/output_inception_4a/output_0_split_3"
  top: "inception_4b/5x5_reduce"
  param {
    lr_mult: 1
    decay_mult: 1
  }
  param {
    lr_mult: 2
    decay_mult: 0
  }
  convolution_param {
    num_output: 24
    kernel_size: 1
    weight_filler {
      type: "xavier"
    }
    bias_filler {
      type: "constant"
      value: 0.2
    }
  }
}
layer {
  name: "inception_4b/relu_5x5_reduce"
  type: "ReLU"
  bottom: "inception_4b/5x5_reduce"
  top: "inception_4b/5x5_reduce"
}
layer {
  name: "inception_4b/5x5"
  type: "Convolution"
  bottom: "inception_4b/5x5_reduce"
  top: "inception_4b/5x5"
  param {
    lr_mult: 1
    decay_mult: 1
  }
  param {
    lr_mult: 2
    decay_mult: 0
  }
  convolution_param {
    num_output: 64
    pad: 2
    kernel_size: 5
    weight_filler {
      type: "xavier"
    }
    bias_filler {
      type: "constant"
      value: 0.2
    }
  }
}
layer {
  name: "inception_4b/relu_5x5"
  type: "ReLU"
  bottom: "inception_4b/5x5"
  top: "inception_4b/5x5"
}
layer {
  name: "inception_4b/pool"
  type: "Pooling"
  bottom: "inception_4a/output_inception_4a/output_0_split_4"
  top: "inception_4b/pool"
  pooling_param {
    pool: MAX
    kernel_size: 3
    stride: 1
    pad: 1
  }
}
layer {
  name: "inception_4b/pool_proj"
  type: "Convolution"
  bottom: "inception_4b/pool"
  top: "inception_4b/pool_proj"
  param {
    lr_mult: 1
    decay_mult: 1
  }
  param {
    lr_mult: 2
    decay_mult: 0
  }
  convolution_param {
    num_output: 64
    kernel_size: 1
    weight_filler {
      type: "xavier"
    }
    bias_filler {
      type: "constant"
      value: 0.2
    }
  }
}
layer {
  name: "inception_4b/relu_pool_proj"
  type: "ReLU"
  bottom: "inception_4b/pool_proj"
  top: "inception_4b/pool_proj"
}
layer {
  name: "inception_4b/output"
  type: "Concat"
  bottom: "inception_4b/1x1"
  bottom: "inception_4b/3x3"
  bottom: "inception_4b/5x5"
  bottom: "inception_4b/pool_proj"
  top: "inception_4b/output"
}
layer {
  name: "inception_4b/output_inception_4b/output_0_split"
  type: "Split"
  bottom: "inception_4b/output"
  top: "inception_4b/output_inception_4b/output_0_split_0"
  top: "inception_4b/output_inception_4b/output_0_split_1"
  top: "inception_4b/output_inception_4b/output_0_split_2"
  top: "inception_4b/output_inception_4b/output_0_split_3"
}
layer {
  name: "inception_4c/1x1"
  type: "Convolution"
  bottom: "inception_4b/output_inception_4b/output_0_split_0"
  top: "inception_4c/1x1"
  param {
    lr_mult: 1
    decay_mult: 1
  }
  param {
    lr_mult: 2
    decay_mult: 0
  }
  convolution_param {
    num_output: 128
    kernel_size: 1
    weight_filler {
      type: "xavier"
    }
    bias_filler {
      type: "constant"
      value: 0.2
    }
  }
}
layer {
  name: "inception_4c/relu_1x1"
  type: "ReLU"
  bottom: "inception_4c/1x1"
  top: "inception_4c/1x1"
}
layer {
  name: "inception_4c/3x3_reduce"
  type: "Convolution"
  bottom: "inception_4b/output_inception_4b/output_0_split_1"
  top: "inception_4c/3x3_reduce"
  param {
    lr_mult: 1
    decay_mult: 1
  }
  param {
    lr_mult: 2
    decay_mult: 0
  }
  convolution_param {
    num_output: 128
    kernel_size: 1
    weight_filler {
      type: "xavier"
    }
    bias_filler {
      type: "constant"
      value: 0.2
    }
  }
}
layer {
  name: "inception_4c/relu_3x3_reduce"
  type: "ReLU"
  bottom: "inception_4c/3x3_reduce"
  top: "inception_4c/3x3_reduce"
}
layer {
  name: "inception_4c/3x3"
  type: "Convolution"
  bottom: "inception_4c/3x3_reduce"
  top: "inception_4c/3x3"
  param {
    lr_mult: 1
    decay_mult: 1
  }
  param {
    lr_mult: 2
    decay_mult: 0
  }
  convolution_param {
    num_output: 256
    pad: 1
    kernel_size: 3
    weight_filler {
      type: "xavier"
    }
    bias_filler {
      type: "constant"
      value: 0.2
    }
  }
}
layer {
  name: "inception_4c/relu_3x3"
  type: "ReLU"
  bottom: "inception_4c/3x3"
  top: "inception_4c/3x3"
}
layer {
  name: "inception_4c/5x5_reduce"
  type: "Convolution"
  bottom: "inception_4b/output_inception_4b/output_0_split_2"
  top: "inception_4c/5x5_reduce"
  param {
    lr_mult: 1
    decay_mult: 1
  }
  param {
    lr_mult: 2
    decay_mult: 0
  }
  convolution_param {
    num_output: 24
    kernel_size: 1
    weight_filler {
      type: "xavier"
    }
    bias_filler {
      type: "constant"
      value: 0.2
    }
  }
}
layer {
  name: "inception_4c/relu_5x5_reduce"
  type: "ReLU"
  bottom: "inception_4c/5x5_reduce"
  top: "inception_4c/5x5_reduce"
}
layer {
  name: "inception_4c/5x5"
  type: "Convolution"
  bottom: "inception_4c/5x5_reduce"
  top: "inception_4c/5x5"
  param {
    lr_mult: 1
    decay_mult: 1
  }
  param {
    lr_mult: 2
    decay_mult: 0
  }
  convolution_param {
    num_output: 64
    pad: 2
    kernel_size: 5
    weight_filler {
      type: "xavier"
    }
    bias_filler {
      type: "constant"
      value: 0.2
    }
  }
}
layer {
  name: "inception_4c/relu_5x5"
  type: "ReLU"
  bottom: "inception_4c/5x5"
  top: "inception_4c/5x5"
}
layer {
  name: "inception_4c/pool"
  type: "Pooling"
  bottom: "inception_4b/output_inception_4b/output_0_split_3"
  top: "inception_4c/pool"
  pooling_param {
    pool: MAX
    kernel_size: 3
    stride: 1
    pad: 1
  }
}
layer {
  name: "inception_4c/pool_proj"
  type: "Convolution"
  bottom: "inception_4c/pool"
  top: "inception_4c/pool_proj"
  param {
    lr_mult: 1
    decay_mult: 1
  }
  param {
    lr_mult: 2
    decay_mult: 0
  }
  convolution_param {
    num_output: 64
    kernel_size: 1
    weight_filler {
      type: "xavier"
    }
    bias_filler {
      type: "constant"
      value: 0.2
    }
  }
}
layer {
  name: "inception_4c/relu_pool_proj"
  type: "ReLU"
  bottom: "inception_4c/pool_proj"
  top: "inception_4c/pool_proj"
}
layer {
  name: "inception_4c/output"
  type: "Concat"
  bottom: "inception_4c/1x1"
  bottom: "inception_4c/3x3"
  bottom: "inception_4c/5x5"
  bottom: "inception_4c/pool_proj"
  top: "inception_4c/output"
}
layer {
  name: "inception_4c/output_inception_4c/output_0_split"
  type: "Split"
  bottom: "inception_4c/output"
  top: "inception_4c/output_inception_4c/output_0_split_0"
  top: "inception_4c/output_inception_4c/output_0_split_1"
  top: "inception_4c/output_inception_4c/output_0_split_2"
  top: "inception_4c/output_inception_4c/output_0_split_3"
}
layer {
  name: "inception_4d/1x1"
  type: "Convolution"
  bottom: "inception_4c/output_inception_4c/output_0_split_0"
  top: "inception_4d/1x1"
  param {
    lr_mult: 1
    decay_mult: 1
  }
  param {
    lr_mult: 2
    decay_mult: 0
  }
  convolution_param {
    num_output: 112
    kernel_size: 1
    weight_filler {
      type: "xavier"
    }
    bias_filler {
      type: "constant"
      value: 0.2
    }
  }
}
layer {
  name: "inception_4d/relu_1x1"
  type: "ReLU"
  bottom: "inception_4d/1x1"
  top: "inception_4d/1x1"
}
layer {
  name: "inception_4d/3x3_reduce"
  type: "Convolution"
  bottom: "inception_4c/output_inception_4c/output_0_split_1"
  top: "inception_4d/3x3_reduce"
  param {
    lr_mult: 1
    decay_mult: 1
  }
  param {
    lr_mult: 2
    decay_mult: 0
  }
  convolution_param {
    num_output: 144
    kernel_size: 1
    weight_filler {
      type: "xavier"
    }
    bias_filler {
      type: "constant"
      value: 0.2
    }
  }
}
layer {
  name: "inception_4d/relu_3x3_reduce"
  type: "ReLU"
  bottom: "inception_4d/3x3_reduce"
  top: "inception_4d/3x3_reduce"
}
layer {
  name: "inception_4d/3x3"
  type: "Convolution"
  bottom: "inception_4d/3x3_reduce"
  top: "inception_4d/3x3"
  param {
    lr_mult: 1
    decay_mult: 1
  }
  param {
    lr_mult: 2
    decay_mult: 0
  }
  convolution_param {
    num_output: 288
    pad: 1
    kernel_size: 3
    weight_filler {
      type: "xavier"
    }
    bias_filler {
      type: "constant"
      value: 0.2
    }
  }
}
layer {
  name: "inception_4d/relu_3x3"
  type: "ReLU"
  bottom: "inception_4d/3x3"
  top: "inception_4d/3x3"
}
layer {
  name: "inception_4d/5x5_reduce"
  type: "Convolution"
  bottom: "inception_4c/output_inception_4c/output_0_split_2"
  top: "inception_4d/5x5_reduce"
  param {
    lr_mult: 1
    decay_mult: 1
  }
  param {
    lr_mult: 2
    decay_mult: 0
  }
  convolution_param {
    num_output: 32
    kernel_size: 1
    weight_filler {
      type: "xavier"
    }
    bias_filler {
      type: "constant"
      value: 0.2
    }
  }
}
layer {
  name: "inception_4d/relu_5x5_reduce"
  type: "ReLU"
  bottom: "inception_4d/5x5_reduce"
  top: "inception_4d/5x5_reduce"
}
layer {
  name: "inception_4d/5x5"
  type: "Convolution"
  bottom: "inception_4d/5x5_reduce"
  top: "inception_4d/5x5"
  param {
    lr_mult: 1
    decay_mult: 1
  }
  param {
    lr_mult: 2
    decay_mult: 0
  }
  convolution_param {
    num_output: 64
    pad: 2
    kernel_size: 5
    weight_filler {
      type: "xavier"
    }
    bias_filler {
      type: "constant"
      value: 0.2
    }
  }
}
layer {
  name: "inception_4d/relu_5x5"
  type: "ReLU"
  bottom: "inception_4d/5x5"
  top: "inception_4d/5x5"
}
layer {
  name: "inception_4d/pool"
  type: "Pooling"
  bottom: "inception_4c/output_inception_4c/output_0_split_3"
  top: "inception_4d/pool"
  pooling_param {
    pool: MAX
    kernel_size: 3
    stride: 1
    pad: 1
  }
}
layer {
  name: "inception_4d/pool_proj"
  type: "Convolution"
  bottom: "inception_4d/pool"
  top: "inception_4d/pool_proj"
  param {
    lr_mult: 1
    decay_mult: 1
  }
  param {
    lr_mult: 2
    decay_mult: 0
  }
  convolution_param {
    num_output: 64
    kernel_size: 1
    weight_filler {
      type: "xavier"
    }
    bias_filler {
      type: "constant"
      value: 0.2
    }
  }
}
layer {
  name: "inception_4d/relu_pool_proj"
  type: "ReLU"
  bottom: "inception_4d/pool_proj"
  top: "inception_4d/pool_proj"
}
layer {
  name: "inception_4d/output"
  type: "Concat"
  bottom: "inception_4d/1x1"
  bottom: "inception_4d/3x3"
  bottom: "inception_4d/5x5"
  bottom: "inception_4d/pool_proj"
  top: "inception_4d/output"
}
layer {
  name: "inception_4d/output_inception_4d/output_0_split"
  type: "Split"
  bottom: "inception_4d/output"
  top: "inception_4d/output_inception_4d/output_0_split_0"
  top: "inception_4d/output_inception_4d/output_0_split_1"
  top: "inception_4d/output_inception_4d/output_0_split_2"
  top: "inception_4d/output_inception_4d/output_0_split_3"
  top: "inception_4d/output_inception_4d/output_0_split_4"
}
layer {
  name: "loss2/ave_pool"
  type: "Pooling"
  bottom: "inception_4d/output_inception_4d/output_0_split_0"
  top: "loss2/ave_pool"
  pooling_param {
    pool: AVE
    kernel_size: 5
    stride: 3
  }
}
layer {
  name: "loss2/conv"
  type: "Convolution"
  bottom: "loss2/ave_pool"
  top: "loss2/conv"
  param {
    lr_mult: 1
    decay_mult: 1
  }
  param {
    lr_mult: 2
    decay_mult: 0
  }
  convolution_param {
    num_output: 128
    kernel_size: 1
    weight_filler {
      type: "xavier"
    }
    bias_filler {
      type: "constant"
      value: 0.2
    }
  }
}
layer {
  name: "loss2/relu_conv"
  type: "ReLU"
  bottom: "loss2/conv"
  top: "loss2/conv"
}
layer {
  name: "loss2/fc"
  type: "InnerProduct"
  bottom: "loss2/conv"
  top: "loss2/fc"
  param {
    lr_mult: 1
    decay_mult: 1
  }
  param {
    lr_mult: 2
    decay_mult: 0
  }
  inner_product_param {
    num_output: 1024
    weight_filler {
      type: "xavier"
    }
    bias_filler {
      type: "constant"
      value: 0.2
    }
  }
}
layer {
  name: "loss2/relu_fc"
  type: "ReLU"
  bottom: "loss2/fc"
  top: "loss2/fc"
}
layer {
  name: "loss2
I0123 12:52:38.800227 39683 net.cpp:154] Setting up Layer of device :0 @cpu 0 Layer : data
I0123 12:52:38.800241 39683 layer_factory.hpp:114] Creating layer data
I0123 12:52:38.801352 39683 net.cpp:169] Creating Layer data
I0123 12:52:38.801409 39683 net.cpp:579] data -> data
I0123 12:52:38.801419 39683 net.cpp:582] From AppendTop @cpu: 0
I0123 12:52:38.801441 39683 net.cpp:579] data -> label
I0123 12:52:38.801450 39683 net.cpp:582] From AppendTop @cpu: 0
I0123 12:52:38.801714 39684 db_lmdb.cpp:72] Opened lmdb /home/user/caffeOMP/original/caffe/examples/imagenet/ilsvrc12_train_lmdb
I0123 12:52:38.801815 39684 virtDev_device.cpp:310] found a CPU core 14 for Data Reader on device 0 thread ID 140387734165248
I0123 12:52:38.801834 39684 data_reader.cpp:128] inside DATAREADER 2
I0123 12:52:38.801852 39684 data_reader.cpp:139] NUMA DOMAIN 0
I0123 12:52:38.802336 39684 data_reader.cpp:139] NUMA DOMAIN 0
I0123 12:52:38.802440 39683 data_layer.cpp:80] output data size: 16,3,224,224
I0123 12:52:38.823262 39683 base_data_layer.cpp:96] Done cpu data
I0123 12:52:38.823318 39683 net.cpp:219] Setting up data
I0123 12:52:38.823348 39683 net.cpp:226] Top shape: 16 3 224 224 (2408448)
I0123 12:52:38.823364 39683 net.cpp:226] Top shape: 16 (16)
I0123 12:52:38.823379 39683 net.cpp:234] Memory required for data: 9633856
I0123 12:52:38.823398 39683 net.cpp:154] Setting up Layer of device :0 @cpu 1 Layer : label_data_1_split
I0123 12:52:38.823411 39683 layer_factory.hpp:114] Creating layer label_data_1_split
I0123 12:52:38.823438 39683 net.cpp:169] Creating Layer label_data_1_split
I0123 12:52:38.823456 39683 net.cpp:606] label_data_1_split <- label
I0123 12:52:38.823477 39683 net.cpp:579] label_data_1_split -> label_data_1_split_0
I0123 12:52:38.823489 39683 net.cpp:582] From AppendTop @cpu: 1
I0123 12:52:38.823513 39683 net.cpp:579] label_data_1_split -> label_data_1_split_1
I0123 12:52:38.823526 39683 net.cpp:582] From AppendTop @cpu: 1
I0123 12:52:38.823544 39683 net.cpp:579] label_data_1_split -> label_data_1_split_2
I0123 12:52:38.823557 39683 net.cpp:582] From AppendTop @cpu: 1
I0123 12:52:38.823583 39683 net.cpp:219] Setting up label_data_1_split
I0123 12:52:38.823601 39683 net.cpp:226] Top shape: 16 (16)
I0123 12:52:38.823617 39683 net.cpp:226] Top shape: 16 (16)
I0123 12:52:38.823632 39683 net.cpp:226] Top shape: 16 (16)
I0123 12:52:38.823644 39683 net.cpp:234] Memory required for data: 9634048
I0123 12:52:38.823659 39683 net.cpp:154] Setting up Layer of device :0 @cpu 1 Layer : conv1/7x7_s2
I0123 12:52:38.823673 39683 layer_factory.hpp:114] Creating layer conv1/7x7_s2
I0123 12:52:38.823706 39683 net.cpp:169] Creating Layer conv1/7x7_s2
I0123 12:52:38.823722 39683 net.cpp:606] conv1/7x7_s2 <- data
I0123 12:52:38.823741 39683 net.cpp:579] conv1/7x7_s2 -> conv1/7x7_s2
I0123 12:52:38.823755 39683 net.cpp:582] From AppendTop @cpu: 1
OMP: Info #242: KMP_AFFINITY: pid 39683 thread 1 bound to OS proc set {1}
OMP: Info #242: KMP_AFFINITY: pid 39683 thread 2 bound to OS proc set {2}
OMP: Info #242: KMP_AFFINITY: pid 39683 thread 3 bound to OS proc set {3}
OMP: Info #242: KMP_AFFINITY: pid 39683 thread 4 bound to OS proc set {4}
OMP: Info #242: KMP_AFFINITY: pid 39683 thread 5 bound to OS proc set {5}
OMP: Info #242: KMP_AFFINITY: pid 39683 thread 6 bound to OS proc set {6}
OMP: Info #242: KMP_AFFINITY: pid 39683 thread 7 bound to OS proc set {7}
I0123 12:52:38.856534 39683 net.cpp:219] Setting up conv1/7x7_s2
I0123 12:52:38.856559 39683 net.cpp:226] Top shape: 16 64 112 112 (12845056)
I0123 12:52:38.856591 39683 net.cpp:234] Memory required for data: 61014272
I0123 12:52:38.856629 39683 net.cpp:154] Setting up Layer of device :0 @cpu 0 Layer : conv1/relu_7x7
I0123 12:52:38.856642 39683 layer_factory.hpp:114] Creating layer conv1/relu_7x7
I0123 12:52:38.856655 39683 net.cpp:169] Creating Layer conv1/relu_7x7
I0123 12:52:38.856667 39683 net.cpp:606] conv1/relu_7x7 <- conv1/7x7_s2
I0123 12:52:38.856679 39683 net.cpp:566] conv1/relu_7x7 -> conv1/7x7_s2 (in-place)
I0123 12:52:38.856696 39683 net.cpp:219] Setting up conv1/relu_7x7
I0123 12:52:38.856709 39683 net.cpp:226] Top shape: 16 64 112 112 (12845056)
I0123 12:52:38.856719 39683 net.cpp:234] Memory required for data: 112394496
I0123 12:52:38.856729 39683 net.cpp:154] Setting up Layer of device :0 @cpu 0 Layer : pool1/3x3_s2
I0123 12:52:38.856739 39683 layer_factory.hpp:114] Creating layer pool1/3x3_s2
I0123 12:52:38.856798 39683 net.cpp:169] Creating Layer pool1/3x3_s2
I0123 12:52:38.856813 39683 net.cpp:606] pool1/3x3_s2 <- conv1/7x7_s2
I0123 12:52:38.856827 39683 net.cpp:579] pool1/3x3_s2 -> pool1/3x3_s2
I0123 12:52:38.856837 39683 net.cpp:582] From AppendTop @cpu: 0
I0123 12:52:38.856859 39683 net.cpp:219] Setting up pool1/3x3_s2
I0123 12:52:38.856875 39683 net.cpp:226] Top shape: 16 64 56 56 (3211264)
I0123 12:52:38.856885 39683 net.cpp:234] Memory required for data: 125239552
I0123 12:52:38.856896 39683 net.cpp:154] Setting up Layer of device :0 @cpu 0 Layer : pool1/norm1
I0123 12:52:38.856905 39683 layer_factory.hpp:114] Creating layer pool1/norm1
I0123 12:52:38.856922 39683 net.cpp:169] Creating Layer pool1/norm1
I0123 12:52:38.856945 39683 net.cpp:606] pool1/norm1 <- pool1/3x3_s2
I0123 12:52:38.856963 39683 net.cpp:579] pool1/norm1 -> pool1/norm1
I0123 12:52:38.856972 39683 net.cpp:582] From AppendTop @cpu: 0
I0123 12:52:38.856992 39683 net.cpp:219] Setting up pool1/norm1
I0123 12:52:38.857004 39683 net.cpp:226] Top shape: 16 64 56 56 (3211264)
I0123 12:52:38.857013 39683 net.cpp:234] Memory required for data: 138084608
I0123 12:52:38.857024 39683 net.cpp:154] Setting up Layer of device :0 @cpu 0 Layer : conv2/3x3_reduce
I0123 12:52:38.857033 39683 layer_factory.hpp:114] Creating layer conv2/3x3_reduce
I0123 12:52:38.857054 39683 net.cpp:169] Creating Layer conv2/3x3_reduce
I0123 12:52:38.857065 39683 net.cpp:606] conv2/3x3_reduce <- pool1/norm1
I0123 12:52:38.857084 39683 net.cpp:579] conv2/3x3_reduce -> conv2/3x3_reduce
I0123 12:52:38.857094 39683 net.cpp:582] From AppendTop @cpu: 0
I0123 12:52:38.860682 39683 net.cpp:219] Setting up conv2/3x3_reduce
I0123 12:52:38.860707 39683 net.cpp:226] Top shape: 16 64 56 56 (3211264)
I0123 12:52:38.860718 39683 net.cpp:234] Memory required for data: 150929664
I0123 12:52:38.860738 39683 net.cpp:154] Setting up Layer of device :0 @cpu 0 Layer : conv2/relu_3x3_reduce
I0123 12:52:38.860747 39683 layer_factory.hpp:114] Creating layer conv2/relu_3x3_reduce
I0123 12:52:38.860760 39683 net.cpp:169] Creating Layer conv2/relu_3x3_reduce
I0123 12:52:38.860770 39683 net.cpp:606] conv2/relu_3x3_reduce <- conv2/3x3_reduce
I0123 12:52:38.860783 39683 net.cpp:566] conv2/relu_3x3_reduce -> conv2/3x3_reduce (in-place)
I0123 12:52:38.860797 39683 net.cpp:219] Setting up conv2/relu_3x3_reduce
I0123 12:52:38.860810 39683 net.cpp:226] Top shape: 16 64 56 56 (3211264)
I0123 12:52:38.860818 39683 net.cpp:234] Memory required for data: 163774720
I0123 12:52:38.860829 39683 net.cpp:154] Setting up Layer of device :0 @cpu 0 Layer : conv2/3x3
I0123 12:52:38.860838 39683 layer_factory.hpp:114] Creating layer conv2/3x3
I0123 12:52:38.860858 39683 net.cpp:169] Creating Layer conv2/3x3
I0123 12:52:38.860872 39683 net.cpp:606] conv2/3x3 <- conv2/3x3_reduce
I0123 12:52:38.860885 39683 net.cpp:579] conv2/3x3 -> conv2/3x3
I0123 12:52:38.860894 39683 net.cpp:582] From AppendTop @cpu: 0
I0123 12:52:38.887140 39683 net.cpp:219] Setting up conv2/3x3
I0123 12:52:38.887159 39683 net.cpp:226] Top shape: 16 192 56 56 (9633792)
I0123 12:52:38.887197 39683 net.cpp:234] Memory required for data: 202309888
I0123 12:52:38.887217 39683 net.cpp:154] Setting up Layer of device :0 @cpu 0 Layer : conv2/relu_3x3
I0123 12:52:38.887233 39683 layer_factory.hpp:114] Creating layer conv2/relu_3x3
I0123 12:52:38.887249 39683 net.cpp:169] Creating Layer conv2/relu_3x3
I0123 12:52:38.887259 39683 net.cpp:606] conv2/relu_3x3 <- conv2/3x3
I0123 12:52:38.887272 39683 net.cpp:566] conv2/relu_3x3 -> conv2/3x3 (in-place)
I0123 12:52:38.887285 39683 net.cpp:219] Setting up conv2/relu_3x3
I0123 12:52:38.887296 39683 net.cpp:226] Top shape: 16 192 56 56 (9633792)
I0123 12:52:38.887305 39683 net.cpp:234] Memory required for data: 240845056
I0123 12:52:38.887315 39683 net.cpp:154] Setting up Layer of device :0 @cpu 0 Layer : conv2/norm2
I0123 12:52:38.887322 39683 layer_factory.hpp:114] Creating layer conv2/norm2
I0123 12:52:38.887333 39683 net.cpp:169] Creating Layer conv2/norm2
I0123 12:52:38.887342 39683 net.cpp:606] conv2/norm2 <- conv2/3x3
I0123 12:52:38.887356 39683 net.cpp:579] conv2/norm2 -> conv2/norm2
I0123 12:52:38.887364 39683 net.cpp:582] From AppendTop @cpu: 0
I0123 12:52:38.887379 39683 net.cpp:219] Setting up conv2/norm2
I0123 12:52:38.887390 39683 net.cpp:226] Top shape: 16 192 56 56 (9633792)
I0123 12:52:38.887398 39683 net.cpp:234] Memory required for data: 279380224
I0123 12:52:38.887408 39683 net.cpp:154] Setting up Layer of device :0 @cpu 0 Layer : pool2/3x3_s2
I0123 12:52:38.887415 39683 layer_factory.hpp:114] Creating layer pool2/3x3_s2
I0123 12:52:38.887444 39683 net.cpp:169] Creating Layer pool2/3x3_s2
I0123 12:52:38.887455 39683 net.cpp:606] pool2/3x3_s2 <- conv2/norm2
I0123 12:52:38.887466 39683 net.cpp:579] pool2/3x3_s2 -> pool2/3x3_s2
I0123 12:52:38.887486 39683 net.cpp:582] From AppendTop @cpu: 0
I0123 12:52:38.887501 39683 net.cpp:219] Setting up pool2/3x3_s2
I0123 12:52:38.887513 39683 net.cpp:226] Top shape: 16 192 28 28 (2408448)
I0123 12:52:38.887521 39683 net.cpp:234] Memory required for data: 289014016
I0123 12:52:38.887531 39683 net.cpp:154] Setting up Layer of device :0 @cpu 0 Layer : pool2/3x3_s2_pool2/3x3_s2_0_split
I0123 12:52:38.887539 39683 layer_factory.hpp:114] Creating layer pool2/3x3_s2_pool2/3x3_s2_0_split
I0123 12:52:38.887552 39683 net.cpp:169] Creating Layer pool2/3x3_s2_pool2/3x3_s2_0_split
I0123 12:52:38.887562 39683 net.cpp:606] pool2/3x3_s2_pool2/3x3_s2_0_split <- pool2/3x3_s2
I0123 12:52:38.887573 39683 net.cpp:579] pool2/3x3_s2_pool2/3x3_s2_0_split -> pool2/3x3_s2_pool2/3x3_s2_0_split_0
I0123 12:52:38.887584 39683 net.cpp:582] From AppendTop @cpu: 0
I0123 12:52:38.887596 39683 net.cpp:579] pool2/3x3_s2_pool2/3x3_s2_0_split -> pool2/3x3_s2_pool2/3x3_s2_0_split_1
I0123 12:52:38.887604 39683 net.cpp:582] From AppendTop @cpu: 0
I0123 12:52:38.887616 39683 net.cpp:579] pool2/3x3_s2_pool2/3x3_s2_0_split -> pool2/3x3_s2_pool2/3x3_s2_0_split_2
I0123 12:52:38.887624 39683 net.cpp:582] From AppendTop @cpu: 0
I0123 12:52:38.887635 39683 net.cpp:579] pool2/3x3_s2_pool2/3x3_s2_0_split -> pool2/3x3_s2_pool2/3x3_s2_0_split_3
I0123 12:52:38.887643 39683 net.cpp:582] From AppendTop @cpu: 0
I0123 12:52:38.887656 39683 net.cpp:219] Setting up pool2/3x3_s2_pool2/3x3_s2_0_split
I0123 12:52:38.887666 39683 net.cpp:226] Top shape: 16 192 28 28 (2408448)
I0123 12:52:38.887676 39683 net.cpp:226] Top shape: 16 192 28 28 (2408448)
I0123 12:52:38.887686 39683 net.cpp:226] Top shape: 16 192 28 28 (2408448)
I0123 12:52:38.887696 39683 net.cpp:226] Top shape: 16 192 28 28 (2408448)
I0123 12:52:38.887703 39683 net.cpp:234] Memory required for data: 327549184
I0123 12:52:38.887712 39683 net.cpp:154] Setting up Layer of device :0 @cpu 0 Layer : inception_3a/1x1
I0123 12:52:38.887720 39683 layer_factory.hpp:114] Creating layer inception_3a/1x1
I0123 12:52:38.887737 39683 net.cpp:169] Creating Layer inception_3a/1x1
I0123 12:52:38.887748 39683 net.cpp:606] inception_3a/1x1 <- pool2/3x3_s2_pool2/3x3_s2_0_split_0
I0123 12:52:38.887763 39683 net.cpp:579] inception_3a/1x1 -> inception_3a/1x1
I0123 12:52:38.887771 39683 net.cpp:582] From AppendTop @cpu: 0
I0123 12:52:38.890688 39683 net.cpp:219] Setting up inception_3a/1x1
I0123 12:52:38.890707 39683 net.cpp:226] Top shape: 16 64 28 28 (802816)
I0123 12:52:38.890722 39683 net.cpp:234] Memory required for data: 330760448
I0123 12:52:38.890738 39683 net.cpp:154] Setting up Layer of device :0 @cpu 0 Layer : inception_3a/relu_1x1
I0123 12:52:38.890746 39683 layer_factory.hpp:114] Creating layer inception_3a/relu_1x1
I0123 12:52:38.890758 39683 net.cpp:169] Creating Layer inception_3a/relu_1x1
I0123 12:52:38.890768 39683 net.cpp:606] inception_3a/relu_1x1 <- inception_3a/1x1
I0123 12:52:38.890784 39683 net.cpp:566] inception_3a/relu_1x1 -> inception_3a/1x1 (in-place)
I0123 12:52:38.890797 39683 net.cpp:219] Setting up inception_3a/relu_1x1
I0123 12:52:38.890808 39683 net.cpp:226] Top shape: 16 64 28 28 (802816)
I0123 12:52:38.890816 39683 net.cpp:234] Memory required for data: 333971712
I0123 12:52:38.890826 39683 net.cpp:154] Setting up Layer of device :0 @cpu 0 Layer : inception_3a/3x3_reduce
I0123 12:52:38.890835 39683 layer_factory.hpp:114] Creating layer inception_3a/3x3_reduce
I0123 12:52:38.890851 39683 net.cpp:169] Creating Layer inception_3a/3x3_reduce
I0123 12:52:38.890861 39683 net.cpp:606] inception_3a/3x3_reduce <- pool2/3x3_s2_pool2/3x3_s2_0_split_1
I0123 12:52:38.890873 39683 net.cpp:579] inception_3a/3x3_reduce -> inception_3a/3x3_reduce
I0123 12:52:38.890882 39683 net.cpp:582] From AppendTop @cpu: 0
I0123 12:52:38.893951 39683 net.cpp:219] Setting up inception_3a/3x3_reduce
I0123 12:52:38.893970 39683 net.cpp:226] Top shape: 16 96 28 28 (1204224)
I0123 12:52:38.893977 39683 net.cpp:234] Memory required for data: 338788608
I0123 12:52:38.893995 39683 net.cpp:154] Setting up Layer of device :0 @cpu 0 Layer : inception_3a/relu_3x3_reduce
I0123 12:52:38.894013 39683 layer_factory.hpp:114] Creating layer inception_3a/relu_3x3_reduce
I0123 12:52:38.894028 39683 net.cpp:169] Creating Layer inception_3a/relu_3x3_reduce
I0123 12:52:38.894038 39683 net.cpp:606] inception_3a/relu_3x3_reduce <- inception_3a/3x3_reduce
I0123 12:52:38.894052 39683 net.cpp:566] inception_3a/relu_3x3_reduce -> inception_3a/3x3_reduce (in-place)
I0123 12:52:38.894064 39683 net.cpp:219] Setting up inception_3a/relu_3x3_reduce
I0123 12:52:38.894074 39683 net.cpp:226] Top shape: 16 96 28 28 (1204224)
I0123 12:52:38.894083 39683 net.cpp:234] Memory required for data: 343605504
I0123 12:52:38.894091 39683 net.cpp:154] Setting up Layer of device :0 @cpu 0 Layer : inception_3a/3x3
I0123 12:52:38.894099 39683 layer_factory.hpp:114] Creating layer inception_3a/3x3
I0123 12:52:38.894112 39683 net.cpp:169] Creating Layer inception_3a/3x3
I0123 12:52:38.894121 39683 net.cpp:606] inception_3a/3x3 <- inception_3a/3x3_reduce
I0123 12:52:38.894135 39683 net.cpp:579] inception_3a/3x3 -> inception_3a/3x3
I0123 12:52:38.894143 39683 net.cpp:582] From AppendTop @cpu: 0
I0123 12:52:38.905681 39683 net.cpp:219] Setting up inception_3a/3x3
I0123 12:52:38.905700 39683 net.cpp:226] Top shape: 16 128 28 28 (1605632)
I0123 12:52:38.905709 39683 net.cpp:234] Memory required for data: 350028032
I0123 12:52:38.905724 39683 net.cpp:154] Setting up Layer of device :0 @cpu 0 Layer : inception_3a/relu_3x3
I0123 12:52:38.905731 39683 layer_factory.hpp:114] Creating layer inception_3a/relu_3x3
I0123 12:52:38.905742 39683 net.cpp:169] Creating Layer inception_3a/relu_3x3
I0123 12:52:38.905750 39683 net.cpp:606] inception_3a/relu_3x3 <- inception_3a/3x3
I0123 12:52:38.905764 39683 net.cpp:566] inception_3a/relu_3x3 -> inception_3a/3x3 (in-place)
I0123 12:52:38.905776 39683 net.cpp:219] Setting up inception_3a/relu_3x3
I0123 12:52:38.905787 39683 net.cpp:226] Top shape: 16 128 28 28 (1605632)
I0123 12:52:38.905794 39683 net.cpp:234] Memory required for data: 356450560
I0123 12:52:38.905803 39683 net.cpp:154] Setting up Layer of device :0 @cpu 0 Layer : inception_3a/5x5_reduce
I0123 12:52:38.905812 39683 layer_factory.hpp:114] Creating layer inception_3a/5x5_reduce
I0123 12:52:38.905824 39683 net.cpp:169] Creating Layer inception_3a/5x5_reduce
I0123 12:52:38.905833 39683 net.cpp:606] inception_3a/5x5_reduce <- pool2/3x3_s2_pool2/3x3_s2_0_split_2
I0123 12:52:38.905848 39683 net.cpp:579] inception_3a/5x5_reduce -> inception_3a/5x5_reduce
I0123 12:52:38.905863 39683 net.cpp:582] From AppendTop @cpu: 0
I0123 12:52:38.908375 39683 net.cpp:219] Setting up inception_3a/5x5_reduce
I0123 12:52:38.908392 39683 net.cpp:226] Top shape: 16 16 28 28 (200704)
I0123 12:52:38.908401 39683 net.cpp:234] Memory required for data: 357253376
I0123 12:52:38.908413 39683 net.cpp:154] Setting up Layer of device :0 @cpu 0 Layer : inception_3a/relu_5x5_reduce
I0123 12:52:38.908421 39683 layer_factory.hpp:114] Creating layer inception_3a/relu_5x5_reduce
I0123 12:52:38.908432 39683 net.cpp:169] Creating Layer inception_3a/relu_5x5_reduce
I0123 12:52:38.908440 39683 net.cpp:606] inception_3a/relu_5x5_reduce <- inception_3a/5x5_reduce
I0123 12:52:38.908454 39683 net.cpp:566] inception_3a/relu_5x5_reduce -> inception_3a/5x5_reduce (in-place)
I0123 12:52:38.908466 39683 net.cpp:219] Setting up inception_3a/relu_5x5_reduce
I0123 12:52:38.908476 39683 net.cpp:226] Top shape: 16 16 28 28 (200704)
I0123 12:52:38.908526 39683 net.cpp:234] Memory required for data: 358056192
I0123 12:52:38.908536 39683 net.cpp:154] Setting up Layer of device :0 @cpu 0 Layer : inception_3a/5x5
I0123 12:52:38.908543 39683 layer_factory.hpp:114] Creating layer inception_3a/5x5
I0123 12:52:38.908557 39683 net.cpp:169] Creating Layer inception_3a/5x5
I0123 12:52:38.908565 39683 net.cpp:606] inception_3a/5x5 <- inception_3a/5x5_reduce
I0123 12:52:38.908581 39683 net.cpp:579] inception_3a/5x5 -> inception_3a/5x5
I0123 12:52:38.908588 39683 net.cpp:582] From AppendTop @cpu: 0
I0123 12:52:38.912866 39683 net.cpp:219] Setting up inception_3a/5x5
I0123 12:52:38.912894 39683 net.cpp:226] Top shape: 16 32 28 28 (401408)
I0123 12:52:38.912902 39683 net.cpp:234] Memory required for data: 359661824
I0123 12:52:38.912916 39683 net.cpp:154] Setting up Layer of device :0 @cpu 0 Layer : inception_3a/relu_5x5
I0123 12:52:38.912925 39683 layer_factory.hpp:114] Creating layer inception_3a/relu_5x5
I0123 12:52:38.912935 39683 net.cpp:169] Creating Layer inception_3a/relu_5x5
I0123 12:52:38.912942 39683 net.cpp:606] inception_3a/relu_5x5 <- inception_3a/5x5
I0123 12:52:38.912956 39683 net.cpp:566] inception_3a/relu_5x5 -> inception_3a/5x5 (in-place)
I0123 12:52:38.912968 39683 net.cpp:219] Setting up inception_3a/relu_5x5
I0123 12:52:38.912978 39683 net.cpp:226] Top shape: 16 32 28 28 (401408)
I0123 12:52:38.912986 39683 net.cpp:234] Memory required for data: 361267456
I0123 12:52:38.912994 39683 net.cpp:154] Setting up Layer of device :0 @cpu 0 Layer : inception_3a/pool
I0123 12:52:38.913002 39683 layer_factory.hpp:114] Creating layer inception_3a/pool
I0123 12:52:38.913067 39683 net.cpp:169] Creating Layer inception_3a/pool
I0123 12:52:38.913079 39683 net.cpp:606] inception_3a/pool <- pool2/3x3_s2_pool2/3x3_s2_0_split_3
I0123 12:52:38.913138 39683 net.cpp:579] inception_3a/pool -> inception_3a/pool
I0123 12:52:38.913151 39683 net.cpp:582] From AppendTop @cpu: 0
I0123 12:52:38.913166 39683 net.cpp:219] Setting up inception_3a/pool
I0123 12:52:38.913204 39683 net.cpp:226] Top shape: 16 192 28 28 (2408448)
I0123 12:52:38.913211 39683 net.cpp:234] Memory required for data: 370901248
I0123 12:52:38.913240 39683 net.cpp:154] Setting up Layer of device :0 @cpu 0 Layer : inception_3a/pool_proj
I0123 12:52:38.913249 39683 layer_factory.hpp:114] Creating layer inception_3a/pool_proj
I0123 12:52:38.913269 39683 net.cpp:169] Creating Layer inception_3a/pool_proj
I0123 12:52:38.913278 39683 net.cpp:606] inception_3a/pool_proj <- inception_3a/pool
I0123 12:52:38.913292 39683 net.cpp:579] inception_3a/pool_proj -> inception_3a/pool_proj
I0123 12:52:38.913300 39683 net.cpp:582] From AppendTop @cpu: 0
I0123 12:52:38.915818 39683 net.cpp:219] Setting up inception_3a/pool_proj
I0123 12:52:38.915834 39683 net.cpp:226] Top shape: 16 32 28 28 (401408)
I0123 12:52:38.915843 39683 net.cpp:234] Memory required for data: 372506880
I0123 12:52:38.915861 39683 net.cpp:154] Setting up Layer of device :0 @cpu 0 Layer : inception_3a/relu_pool_proj
I0123 12:52:38.915869 39683 layer_factory.hpp:114] Creating layer inception_3a/relu_pool_proj
I0123 12:52:38.915886 39683 net.cpp:169] Creating Layer inception_3a/relu_pool_proj
I0123 12:52:38.915894 39683 net.cpp:606] inception_3a/relu_pool_proj <- inception_3a/pool_proj
I0123 12:52:38.915904 39683 net.cpp:566] inception_3a/relu_pool_proj -> inception_3a/pool_proj (in-place)
I0123 12:52:38.915916 39683 net.cpp:219] Setting up inception_3a/relu_pool_proj
I0123 12:52:38.915925 39683 net.cpp:226] Top shape: 16 32 28 28 (401408)
I0123 12:52:38.915932 39683 net.cpp:234] Memory required for data: 374112512
I0123 12:52:38.915940 39683 net.cpp:154] Setting up Layer of device :0 @cpu 0 Layer : inception_3a/output
I0123 12:52:38.915948 39683 layer_factory.hpp:114] Creating layer inception_3a/output
I0123 12:52:38.915961 39683 net.cpp:169] Creating Layer inception_3a/output
I0123 12:52:38.915968 39683 net.cpp:606] inception_3a/output <- inception_3a/1x1
I0123 12:52:38.915977 39683 net.cpp:606] inception_3a/output <- inception_3a/3x3
I0123 12:52:38.915985 39683 net.cpp:606] inception_3a/output <- inception_3a/5x5
I0123 12:52:38.915994 39683 net.cpp:606] inception_3a/output <- inception_3a/pool_proj
I0123 12:52:38.916003 39683 net.cpp:579] inception_3a/output -> inception_3a/output
I0123 12:52:38.916010 39683 net.cpp:582] From AppendTop @cpu: 0
I0123 12:52:38.916028 39683 net.cpp:219] Setting up inception_3a/output
I0123 12:52:38.916038 39683 net.cpp:226] Top shape: 16 256 28 28 (3211264)
I0123 12:52:38.916045 39683 net.cpp:234] Memory required for data: 386957568
I0123 12:52:38.916054 39683 net.cpp:154] Setting up Layer of device :0 @cpu 0 Layer : inception_3a/output_inception_3a/output_0_split
I0123 12:52:38.916069 39683 layer_factory.hpp:114] Creating layer inception_3a/output_inception_3a/output_0_split
I0123 12:52:38.916082 39683 net.cpp:169] Creating Layer inception_3a/output_inception_3a/output_0_split
…
I0123 12:52:38.916127 39683 net.cpp:582] From AppendTop @cpu: 0
I0123 12:52:38.916138 39683 net.cpp:579] inception_3a/output_inception_3a/output_0_split -> inception_3a/output_inception_3a/output_0_split_2
I0123 12:52:38.916146 39683 net.cpp:582] From AppendTop @cpu: 0
I0123 12:52:38.916157 39683 net.cpp:579] inception_3a/output_inception_3a/output_0_split -> inception_3a/output_inception_3a/output_0_split_3
I0123 12:52:38.916165 39683 net.cpp:582] From AppendTop @cpu: 0
I0123 12:52:38.916208 39683 net.cpp:219] Setting up inception_3a/output_inception_3a/output_0_split
I0123 12:52:38.916218 39683 net.cpp:226] Top shape: 16 256 28 28 (3211264)
I0123 12:52:38.916227 39683 net.cpp:226] Top shape: 16 256 28 28 (3211264)
I0123 12:52:38.916235 39683 net.cpp:226] Top shape: 16 256 28 28 (3211264)
I0123 12:52:38.916244 39683 net.cpp:226] Top shape: 16 256 28 28 (3211264)
I0123 12:52:38.916251 39683 net.cpp:234] Memory required for data: 438337792
I0123 12:52:38.916260 39683 net.cpp:154] Setting up Layer of device :0 @cpu 0 Layer : inception_3b/1x1
I0123 12:52:38.916267 39683 layer_factory.hpp:114] Creating layer inception_3b/1x1
I0123 12:52:38.916282 39683 net.cpp:169] Creating Layer inception_3b/1x1
I0123 12:52:38.916291 39683 net.cpp:606] inception_3b/1x1 <- inception_3a/output_inception_3a/output_0_split_0
I0123 12:52:38.916304 39683 net.cpp:579] inception_3b/1x1 -> inception_3b/1x1
I0123 12:52:38.916312 39683 net.cpp:582] From AppendTop @cpu: 0
I0123 12:52:38.919368 39683 net.cpp:219] Setting up inception_3b/1x1
I0123 12:52:38.919384 39683 net.cpp:226] Top shape: 16 128 28 28 (1605632)
I0123 12:52:38.919392 39683 net.cpp:234] Memory required for data: 444760320
I0123 12:52:38.919405 39683 net.cpp:154] Setting up Layer of device :0 @cpu 0 Layer : inception_3b/relu_1x1
I0123 12:52:38.919425 39683 layer_factory.hpp:114] Creating layer inception_3b/relu_1x1
I0123 12:52:38.919440 39683 net.cpp:169] Creating Layer inception_3b/relu_1x1
I0123 12:52:38.919447 39683 net.cpp:606] inception_3b/relu_1x1 <- inception_3b/1x1
I0123 12:52:38.919461 39683 net.cpp:566] inception_3b/relu_1x1 -> inception_3b/1x1 (in-place)
I0123 12:52:38.919471 39683 net.cpp:219] Setting up inception_3b/relu_1x1
I0123 12:52:38.919481 39683 net.cpp:226] Top shape: 16 128 28 28 (1605632)
I0123 12:52:38.919488 39683 net.cpp:234] Memory required for data: 451182848
I0123 12:52:38.919497 39683 net.cpp:154] Setting up Layer of device :0 @cpu 0 Layer : inception_3b/3x3_reduce
I0123 12:52:38.919504 39683 layer_factory.hpp:114] Creating layer inception_3b/3x3_reduce
I0123 12:52:38.919517 39683 net.cpp:169] Creating Layer inception_3b/3x3_reduce
I0123 12:52:38.919525 39683 net.cpp:606] inception_3b/3x3_reduce <- inception_3a/output_inception_3a/output_0_split_1
I0123 12:52:38.919539 39683 net.cpp:579] inception_3b/3x3_reduce -> inception_3b/3x3_reduce
I0123 12:52:38.919546 39683 net.cpp:582] From AppendTop @cpu: 0
I0123 12:52:38.923116 39683 net.cpp:219] Setting up inception_3b/3x3_reduce
I0123 12:52:38.923135 39683 net.cpp:226] Top shape: 16 128 28 28 (1605632)
I0123 12:52:38.923142 39683 net.cpp:234] Memory required for data: 457605376
I0123 12:52:38.923156 39683 net.cpp:154] Setting up Layer of device :0 @cpu 0 Layer : inception_3b/relu_3x3_reduce
I0123 12:52:38.923163 39683 layer_factory.hpp:114] Creating layer inception_3b/relu_3x3_reduce
I0123 12:52:38.923195 39683 net.cpp:169] Creating Layer inception_3b/relu_3x3_reduce
I0123 12:52:38.923216 39683 net.cpp:606] inception_3b/relu_3x3_reduce <- inception_3b/3x3_reduce
I0123 12:52:38.923243 39683 net.cpp:566] inception_3b/relu_3x3_reduce -> inception_3b/3x3_reduce (in-place)
I0123 12:52:38.923256 39683 net.cpp:219] Setting up inception_3b/relu_3x3_reduce
I0123 12:52:38.923265 39683 net.cpp:226] Top shape: 16 128 28 28 (1605632)
I0123 12:52:38.923272 39683 net.cpp:234] Memory required for data: 464027904
I0123 12:52:38.923281 39683 net.cpp:154] Setting up Layer of device :0 @cpu 0 Layer : inception_3b/3x3
I0123 12:52:38.923288 39683 layer_factory.hpp:114] Creating layer inception_3b/3x3
I0123 12:52:38.923305 39683 net.cpp:169] Creating Layer inception_3b/3x3
I0123 12:52:38.923312 39683 net.cpp:606] inception_3b/3x3 <- inception_3b/3x3_reduce
I0123 12:52:38.923326 39683 net.cpp:579] inception_3b/3x3 -> inception_3b/3x3
I0123 12:52:38.923333 39683 net.cpp:582] From AppendTop @cpu: 0
I0123 12:52:38.938369 39683 net.cpp:219] Setting up inception_3b/3x3
I0123 12:52:38.938406 39683 net.cpp:226] Top shape: 16 192 28 28 (2408448)
I0123 12:52:38.938415 39683 net.cpp:234] Memory required for data: 473661696
I0123 12:52:38.938427 39683 net.cpp:154] Setting up Layer of device :0 @cpu 0 Layer : inception_3b/relu_3x3
I0123 12:52:38.938436 39683 layer_factory.hpp:114] Creating layer inception_3b/relu_3x3
I0123 12:52:38.938446 39683 net.cpp:169] Creating Layer inception_3b/relu_3x3
I0123 12:52:38.938453 39683 net.cpp:606] inception_3b/relu_3x3 <- inception_3b/3x3
I0123 12:52:38.938462 39683 net.cpp:566] inception_3b/relu_3x3 -> inception_3b/3x3 (in-place)
I0123 12:52:38.938473 39683 net.cpp:219] Setting up inception_3b/relu_3x3
I0123 12:52:38.938483 39683 net.cpp:226] Top shape: 16 192 28 28 (2408448)
I0123 12:52:38.938490 39683 net.cpp:234] Memory required for data: 483295488
I0123 12:52:38.938498 39683 net.cpp:154] Setting up Layer of device :0 @cpu 0 Layer : inception_3b/5x5_reduce
I0123 12:52:38.938505 39683 layer_factory.hpp:114] Creating layer inception_3b/5x5_reduce
I0123 12:52:38.938521 39683 net.cpp:169] Creating Layer inception_3b/5x5_reduce
I0123 12:52:38.938529 39683 net.cpp:606] inception_3b/5x5_reduce <- inception_3a/output_inception_3a/output_0_split_2
I0123 12:52:38.938544 39683 net.cpp:579] inception_3b/5x5_reduce -> inception_3b/5x5_reduce
I0123 12:52:38.938551 39683 net.cpp:582] From AppendTop @cpu: 0
I0123 12:52:38.941457 39683 net.cpp:219] Setting up inception_3b/5x5_reduce
I0123 12:52:38.941494 39683 net.cpp:226] Top shape: 16 32 28 28 (401408)
I0123 12:52:38.941501 39683 net.cpp:234] Memory required for data: 484901120
I0123 12:52:38.941514 39683 net.cpp:154] Setting up Layer of device :0 @cpu 0 Layer : inception_3b/relu_5x5_reduce
I0123 12:52:38.941522 39683 layer_factory.hpp:114] Creating layer inception_3b/relu_5x5_reduce
I0123 12:52:38.941531 39683 net.cpp:169] Creating Layer inception_3b/relu_5x5_reduce
I0123 12:52:38.941540 39683 net.cpp:606] inception_3b/relu_5x5_reduce <- inception_3b/5x5_reduce
I0123 12:52:38.941550 39683 net.cpp:566] inception_3b/relu_5x5_reduce -> inception_3b/5x5_reduce (in-place)
I0123 12:52:38.941560 39683 net.cpp:219] Setting up inception_3b/relu_5x5_reduce
I0123 12:52:38.941570 39683 net.cpp:226] Top shape: 16 32 28 28 (401408)
I0123 12:52:38.941576 39683 net.cpp:234] Memory required for data: 486506752
I0123 12:52:38.941584 39683 net.cpp:154] Setting up Layer of device :0 @cpu 0 Layer : inception_3b/5x5
I0123 12:52:38.941592 39683 layer_factory.hpp:114] Creating layer inception_3b/5x5
I0123 12:52:38.941607 39683 net.cpp:169] Creating Layer inception_3b/5x5
I0123 12:52:38.941615 39683 net.cpp:606] inception_3b/5x5 <- inception_3b/5x5_reduce
I0123 12:52:38.941628 39683 net.cpp:579] inception_3b/5x5 -> inception_3b/5x5
I0123 12:52:38.941637 39683 net.cpp:582] From AppendTop @cpu: 0
I0123 12:52:38.950670 39683 net.cpp:219] Setting up inception_3b/5x5
I0123 12:52:38.950695 39683 net.cpp:226] Top shape: 16 96 28 28 (1204224)
I0123 12:52:38.950703 39683 net.cpp:234] Memory required for data: 491323648
I0123 12:52:38.950716 39683 net.cpp:154] Setting up Layer of device :0 @cpu 0 Layer : inception_3b/relu_5x5
I0123 12:52:38.950733 39683 layer_factory.hpp:114] Creating layer inception_3b/relu_5x5
I0123 12:52:38.950745 39683 net.cpp:169] Creating Layer inception_3b/relu_5x5
I0123 12:52:38.950753 39683 net.cpp:606] inception_3b/relu_5x5 <- inception_3b/5x5
I0123 12:52:38.950763 39683 net.cpp:566] inception_3b/relu_5x5 -> inception_3b/5x5 (in-place)
I0123 12:52:38.950774 39683 net.cpp:219] Setting up inception_3b/relu_5x5
I0123 12:52:38.950783 39683 net.cpp:226] Top shape: 16 96 28 28 (1204224)
I0123 12:52:38.950790 39683 net.cpp:234] Memory required for data: 496140544
I0123 12:52:38.950799 39683 net.cpp:154] Setting up Layer of device :0 @cpu 0 Layer : inception_3b/pool
I0123 12:52:38.950806 39683 layer_factory.hpp:114] Creating layer inception_3b/pool
I0123 12:52:38.950841 39683 net.cpp:169] Creating Layer inception_3b/pool
I0123 12:52:38.950851 39683 net.cpp:606] inception_3b/pool <- inception_3a/output_inception_3a/output_0_split_3
I0123 12:52:38.950865 39683 net.cpp:579] inception_3b/pool -> inception_3b/pool
I0123 12:52:38.950872 39683 net.cpp:582] From AppendTop @cpu: 0
I0123 12:52:38.950886 39683 net.cpp:219] Setting up inception_3b/pool
I0123 12:52:38.950896 39683 net.cpp:226] Top shape: 16 256 28 28 (3211264)
I0123 12:52:38.950903 39683 net.cpp:234] Memory required for data: 508985600
I0123 12:52:38.950911 39683 net.cpp:154] Setting up Layer of device :0 @cpu 0 Layer : inception_3b/pool_proj
I0123 12:52:38.950918 39683 layer_factory.hpp:114] Creating layer inception_3b/pool_proj
I0123 12:52:38.950933 39683 net.cpp:169] Creating Layer inception_3b/pool_proj
I0123 12:52:38.950942 39683 net.cpp:606] inception_3b/pool_proj <- inception_3b/pool
I0123 12:52:38.950955 39683 net.cpp:579] inception_3b/pool_proj -> inception_3b/pool_proj
I0123 12:52:38.950963 39683 net.cpp:582] From AppendTop @cpu: 0
I0123 12:52:38.954017 39683 net.cpp:219] Setting up inception_3b/pool_proj
I0123 12:52:38.954035 39683 net.cpp:226] Top shape: 16 64 28 28 (802816)
I0123 12:52:38.954042 39683 net.cpp:234] Memory required for data: 512196864
I0123 12:52:38.954056 39683 net.cpp:154] Setting up Layer of device :0 @cpu 0 Layer : inception_3b/relu_pool_proj
I0123 12:52:38.954062 39683 layer_factory.hpp:114] Creating layer inception_3b/relu_pool_proj
I0123 12:52:38.954072 39683 net.cpp:169] Creating Layer inception_3b/relu_pool_proj
I0123 12:52:38.954080 39683 net.cpp:606] inception_3b/relu_pool_proj <- inception_3b/pool_proj
I0123 12:52:38.954097 39683 net.cpp:566] inception_3b/relu_pool_proj -> inception_3b/pool_proj (in-place)
I0123 12:52:38.954108 39683 net.cpp:219] Setting up inception_3b/relu_pool_proj
I0123 12:52:38.954118 39683 net.cpp:226] Top shape: 16 64 28 28 (802816)
I0123 12:52:38.954124 39683 net.cpp:234] Memory required for data: 515408128
I0123 12:52:38.954133 39683 net.cpp:154] Setting up Layer of device :0 @cpu 0 Layer : inception_3b/output
I0123 12:52:38.954139 39683 layer_factory.hpp:114] Creating layer inception_3b/output
I0123 12:52:38.954152 39683 net.cpp:169] Creating Layer inception_3b/output
I0123 12:52:38.954160 39683 net.cpp:606] inception_3b/output <- inception_3b/1x1
I0123 12:52:38.954195 39683 net.cpp:606] inception_3b/output <- inception_3b/3x3
I0123 12:52:38.954205 39683 net.cpp:606] inception_3b/output <- inception_3b/5x5
I0123 12:52:38.954221 39683 net.cpp:606] inception_3b/output <- inception_3b/pool_proj
I0123 12:52:38.954231 39683 net.cpp:579] inception_3b/output -> inception_3b/output
I0123 12:52:38.954237 39683 net.cpp:582] From AppendTop @cpu: 0
I0123 12:52:38.954251 39683 net.cpp:219] Setting up inception_3b/output
I0123 12:52:38.954259 39683 net.cpp:226] Top shape: 16 480 28 28 (6021120)
I0123 12:52:38.954267 39683 net.cpp:234] Memory required for data: 539492608
I0123 12:52:38.954275 39683 net.cpp:154] Setting up Layer of device :0 @cpu 0 Layer : pool3/3x3_s2
I0123 12:52:38.954282 39683 layer_factory.hpp:114] Creating layer pool3/3x3_s2
I0123 12:52:38.954308 39683 net.cpp:169] Creating Layer pool3/3x3_s2
I0123 12:52:38.954319 39683 net.cpp:606] pool3/3x3_s2 <- inception_3b/output
I0123 12:52:38.954339 39683 net.cpp:579] pool3/3x3_s2 -> pool3/3x3_s2
I0123 12:52:38.954345 39683 net.cpp:582] From AppendTop @cpu: 0
I0123 12:52:38.954358 39683 net.cpp:219] Setting up pool3/3x3_s2
I0123 12:52:38.954368 39683 net.cpp:226] Top shape: 16 480 14 14 (1505280)
I0123 12:52:38.954375 39683 net.cpp:234] Memory required for data: 545513728
I0123 12:52:38.954383 39683 net.cpp:154] Setting up Layer of device :0 @cpu 0 Layer : pool3/3x3_s2_pool3/3x3_s2_0_split
I0123 12:52:38.954391 39683 layer_factory.hpp:114] Creating layer pool3/3x3_s2_pool3/3x3_s2_0_split
I0123 12:52:38.954402 39683 net.cpp:169] Creating Layer pool3/3x3_s2_pool3/3x3_s2_0_split
I0123 12:52:38.954411 39683 net.cpp:606] pool3/3x3_s2_pool3/3x3_s2_0_split <- pool3/3x3_s2
I0123 12:52:38.954421 39683 net.cpp:579] pool3/3x3_s2_pool3/3x3_s2_0_split -> pool3/3x3_s2_pool3/3x3_s2_0_split_0
I0123 12:52:38.954428 39683 net.cpp:582] From AppendTop @cpu: 0
I0123 12:52:38.954442 39683 net.cpp:579] pool3/3x3_s2_pool3/3x3_s2_0_split -> pool3/3x3_s2_pool3/3x3_s2_0_split_1
I0123 12:52:38.954448 39683 net.cpp:582] From AppendTop @cpu: 0
I0123 12:52:38.954459 39683 net.cpp:579] pool3/3x3_s2_pool3/3x3_s2_0_split -> pool3/3x3_s2_pool3/3x3_s2_0_split_2
I0123 12:52:38.954466 39683 net.cpp:582] From AppendTop @cpu: 0
I0123 12:52:38.954476 39683 net.cpp:579] pool3/3x3_s2_pool3/3x3_s2_0_split -> pool3/3x3_s2_pool3/3x3_s2_0_split_3
I0123 12:52:38.954483 39683 net.cpp:582] From AppendTop @cpu: 0
I0123 12:52:38.954494 39683 net.cpp:219] Setting up pool3/3x3_s2_pool3/3x3_s2_0_split
I0123 12:52:38.954504 39683 net.cpp:226] Top shape: 16 480 14 14 (1505280)
I0123 12:52:38.954512 39683 net.cpp:226] Top shape: 16 480 14 14 (1505280)
I0123 12:52:38.954520 39683 net.cpp:226] Top shape: 16 480 14 14 (1505280)
I0123 12:52:38.954529 39683 net.cpp:226] Top shape: 16 480 14 14 (1505280)
I0123 12:52:38.954535 39683 net.cpp:234] Memory required for data: 569598208
I0123 12:52:38.954543 39683 net.cpp:154] Setting up Layer of device :0 @cpu 0 Layer : inception_4a/1x1
I0123 12:52:38.954550 39683 layer_factory.hpp:114] Creating layer inception_4a/1x1
I0123 12:52:38.954566 39683 net.cpp:169] Creating Layer inception_4a/1x1
I0123 12:52:38.954576 39683 net.cpp:606] inception_4a/1x1 <- pool3/3x3_s2_pool3/3x3_s2_0_split_0
I0123 12:52:38.954588 39683 net.cpp:579] inception_4a/1x1 -> inception_4a/1x1
I0123 12:52:38.954596 39683 net.cpp:582] From AppendTop @cpu: 0
I0123 12:52:38.958848 39683 net.cpp:219] Setting up inception_4a/1x1
I0123 12:52:38.958865 39683 net.cpp:226] Top shape: 16 192 14 14 (602112)
I0123 12:52:38.958873 39683 net.cpp:234] Memory required for data: 572006656
I0123 12:52:38.958885 39683 net.cpp:154] Setting up Layer of device :0 @cpu 0 Layer : inception_4a/relu_1x1
I0123 12:52:38.958894 39683 layer_factory.hpp:114] Creating layer inception_4a/relu_1x1
I0123 12:52:38.958909 39683 net.cpp:169] Creating Layer inception_4a/relu_1x1
I0123 12:52:38.958917 39683 net.cpp:606] inception_4a/relu_1x1 <- inception_4a/1x1
I0123 12:52:38.958931 39683 net.cpp:566] inception_4a/relu_1x1 -> inception_4a/1x1 (in-place)
I0123 12:52:38.958942 39683 net.cpp:219] Setting up inception_4a/relu_1x1
I0123 12:52:38.958952 39683 net.cpp:226] Top shape: 16 192 14 14 (602112)
I0123 12:52:38.958961 39683 net.cpp:234] Memory required for data: 574415104
I0123 12:52:38.958968 39683 net.cpp:154] Setting up Layer of device :0 @cpu 0 Layer : inception_4a/3x3_reduce
I0123 12:52:38.958976 39683 layer_factory.hpp:114] Creating layer inception_4a/3x3_reduce
I0123 12:52:38.958988 39683 net.cpp:169] Creating Layer inception_4a/3x3_reduce
I0123 12:52:38.958997 39683 net.cpp:606] inception_4a/3x3_reduce <- pool3/3x3_s2_pool3/3x3_s2_0_split_1
I0123 12:52:38.959012 39683 net.cpp:579] inception_4a/3x3_reduce -> inception_4a/3x3_reduce
I0123 12:52:38.959018 39683 net.cpp:582] From AppendTop @cpu: 0
I0123 12:52:38.961544 39683 net.cpp:219] Setting up inception_4a/3x3_reduce
I0123 12:52:38.961560 39683 net.cpp:226] Top shape: 16 96 14 14 (301056)
I0123 12:52:38.961567 39683 net.cpp:234] Memory required for data: 575619328
I0123 12:52:38.961599 39683 net.cpp:154] Setting up Layer of device :0 @cpu 0 Layer : inception_4a/relu_3x3_reduce
I0123 12:52:38.961608 39683 layer_factory.hpp:114] Creating layer inception_4a/relu_3x3_reduce
I0123 12:52:38.961618 39683 net.cpp:169] Creating Layer inception_4a/relu_3x3_reduce
I0123 12:52:38.961627 39683 net.cpp:606] inception_4a/relu_3x3_reduce <- inception_4a/3x3_reduce
I0123 12:52:38.961640 39683 net.cpp:566] inception_4a/relu_3x3_reduce -> inception_4a/3x3_reduce (in-place)
I0123 12:52:38.961652 39683 net.cpp:219] Setting up inception_4a/relu_3x3_reduce
I0123 12:52:38.961660 39683 net.cpp:226] Top shape: 16 96 14 14 (301056)
I0123 12:52:38.961668 39683 net.cpp:234] Memory required for data: 576823552
I0123 12:52:38.961676 39683 net.cpp:154] Setting up Layer of device :0 @cpu 0 Layer : inception_4a/3x3
I0123 12:52:38.961683 39683 layer_factory.hpp:114] Creating layer inception_4a/3x3
I0123 12:52:38.961696 39683 net.cpp:169] Creating Layer inception_4a/3x3
I0123 12:52:38.961704 39683 net.cpp:606] inception_4a/3x3 <- inception_4a/3x3_reduce
I0123 12:52:38.961716 39683 net.cpp:579] inception_4a/3x3 -> inception_4a/3x3
I0123 12:52:38.961724 39683 net.cpp:582] From AppendTop @cpu: 0
I0123 12:52:38.968277 39683 net.cpp:219] Setting up inception_4a/3x3
I0123 12:52:38.968293 39683 net.cpp:226] Top shape: 16 208 14 14 (652288)
I0123 12:52:38.968300 39683 net.cpp:234] Memory required for data: 579432704
I0123 12:52:38.968313 39683 net.cpp:154] Setting up Layer of device :0 @cpu 0 Layer : inception_4a/relu_3x3
I0123 12:52:38.968322 39683 layer_factory.hpp:114] Creating layer inception_4a/relu_3x3
I0123 12:52:38.968331 39683 net.cpp:169] Creating Layer inception_4a/relu_3x3
I0123 12:52:38.968339 39683 net.cpp:606] inception_4a/relu_3x3 <- inception_4a/3x3
I0123 12:52:38.968351 39683 net.cpp:566] inception_4a/relu_3x3 -> inception_4a/3x3 (in-place)
I0123 12:52:38.968363 39683 net.cpp:219] Setting up inception_4a/relu_3x3
I0123 12:52:38.968371 39683 net.cpp:226] Top shape: 16 208 14 14 (652288)
I0123 12:52:38.968379 39683 net.cpp:234] Memory required for data: 582041856
I0123 12:52:38.968387 39683 net.cpp:154] Setting up Layer of device :0 @cpu 0 Layer : inception_4a/5x5_reduce
I0123 12:52:38.968394 39683 layer_factory.hpp:114] Creating layer inception_4a/5x5_reduce
I0123 12:52:38.968410 39683 net.cpp:169] Creating Layer inception_4a/5x5_reduce
I0123 12:52:38.968423 39683 net.cpp:606] inception_4a/5x5_reduce <- pool3/3x3_s2_pool3/3x3_s2_0_split_2
I0123 12:52:38.968435 39683 net.cpp:579] inception_4a/5x5_reduce -> inception_4a/5x5_reduce
I0123 12:52:38.968441 39683 net.cpp:582] From AppendTop @cpu: 0
I0123 12:52:38.969841 39683 net.cpp:219] Setting up inception_4a/5x5_reduce
I0123 12:52:38.969856 39683 net.cpp:226] Top shape: 16 16 14 14 (50176)
I0123 12:52:38.969863 39683 net.cpp:234] Memory required for data: 582242560
I0123 12:52:38.969877 39683 net.cpp:154] Setting up Layer of device :0 @cpu 0 Layer : inception_4a/relu_5x5_reduce
I0123 12:52:38.969883 39683 layer_factory.hpp:114] Creating layer inception_4a/relu_5x5_reduce
I0123 12:52:38.969893 39683 net.cpp:169] Creating Layer inception_4a/relu_5x5_reduce
I0123 12:52:38.969902 39683 net.cpp:606] inception_4a/relu_5x5_reduce <- inception_4a/5x5_reduce
I0123 12:52:38.969910 39683 net.cpp:566] inception_4a/relu_5x5_reduce -> inception_4a/5x5_reduce (in-place)
I0123 12:52:38.969921 39683 net.cpp:219] Setting up inception_4a/relu_5x5_reduce
I0123 12:52:38.969930 39683 net.cpp:226] Top shape: 16 16 14 14 (50176)
I0123 12:52:38.969938 39683 net.cpp:234] Memory required for data: 582443264
I0123 12:52:38.969946 39683 net.cpp:154] Setting up Layer of device :0 @cpu 0 Layer : inception_4a/5x5
I0123 12:52:38.969954 39683 layer_factory.hpp:114] Creating layer inception_4a/5x5
I0123 12:52:38.969969 39683 net.cpp:169] Creating Layer inception_4a/5x5
I0123 12:52:38.969979 39683 net.cpp:606] inception_4a/5x5 <- inception_4a/5x5_reduce
I0123 12:52:38.969990 39683 net.cpp:579] inception_4a/5x5 -> inception_4a/5x5
I0123 12:52:38.969996 39683 net.cpp:582] From AppendTop @cpu: 0
I0123 12:52:38.971891 39683 net.cpp:219] Setting up inception_4a/5x5
I0123 12:52:38.971907 39683 net.cpp:226] Top shape: 16 48 14 14 (150528)
I0123 12:52:38.971915 39683 net.cpp:234] Memory required for data: 583045376
I0123 12:52:38.971927 39683 net.cpp:154] Setting up Layer of device :0 @cpu 0 Layer : inception_4a/relu_5x5
I0123 12:52:38.971935 39683 layer_factory.hpp:114] Creating layer inception_4a/relu_5x5
I0123 12:52:38.971946 39683 net.cpp:169] Creating Layer inception_4a/relu_5x5
I0123 12:52:38.971953 39683 net.cpp:606] inception_4a/relu_5x5 <- inception_4a/5x5
I0123 12:52:38.971966 39683 net.cpp:566] inception_4a/relu_5x5 -> inception_4a/5x5 (in-place)
I0123 12:52:38.971977 39683 net.cpp:219] Setting up inception_4a/relu_5x5
I0123 12:52:38.971987 39683 net.cpp:226] Top shape: 16 48 14 14 (150528)
I0123 12:52:38.971993 39683 net.cpp:234] Memory required for data: 583647488
I0123 12:52:38.972002 39683 net.cpp:154] Setting up Layer of device :0 @cpu 0 Layer : inception_4a/pool
I0123 12:52:38.972008 39683 layer_factory.hpp:114] Creating layer inception_4a/pool
I0123 12:52:38.972034 39683 net.cpp:169] Creating Layer inception_4a/pool
I0123 12:52:38.972044 39683 net.cpp:606] inception_4a/pool <- pool3/3x3_s2_pool3/3x3_s2_0_split_3
I0123 12:52:38.972056 39683 net.cpp:579] inception_4a/pool -> inception_4a/pool
I0123 12:52:38.972064 39683 net.cpp:582] From AppendTop @cpu: 0
I0123 12:52:38.972077 39683 net.cpp:219] Setting up inception_4a/pool
I0123 12:52:38.972087 39683 net.cpp:226] Top shape: 16 480 14 14 (1505280)
I0123 12:52:38.972095 39683 net.cpp:234] Memory required for data: 589668608
I0123 12:52:38.972103 39683 net.cpp:154] Setting up Layer of device :0 @cpu 0 Layer : inception_4a/pool_proj
I0123 12:52:38.972110 39683 layer_factory.hpp:114] Creating layer inception_4a/pool_proj
I0123 12:52:38.972126 39683 net.cpp:169] Creating Layer inception_4a/pool_proj
I0123 12:52:38.972133 39683 net.cpp:606] inception_4a/pool_proj <- inception_4a/pool
I0123 12:52:38.972146 39683 net.cpp:579] inception_4a/pool_proj -> inception_4a/pool_proj
I0123 12:52:38.972154 39683 net.cpp:582] From AppendTop @cpu: 0
I0123 12:52:38.974119 39683 net.cpp:219] Setting up inception_4a/pool_proj
I0123 12:52:38.974135 39683 net.cpp:226] Top shape: 16 64 14 14 (200704)
I0123 12:52:38.974143 39683 net.cpp:234] Memory required for data: 590471424
I0123 12:52:38.974156 39683 net.cpp:154] Setting up Layer of device :0 @cpu 0 Layer : inception_4a/relu_pool_proj
I0123 12:52:38.974169 39683 layer_factory.hpp:114] Creating layer inception_4a/relu_pool_proj
I0123 12:52:38.974206 39683 net.cpp:169] Creating Layer inception_4a/relu_pool_proj
I0123 12:52:38.974215 39683 net.cpp:606] inception_4a/relu_pool_proj <- inception_4a/pool_proj
I0123 12:52:38.974225 39683 net.cpp:566] inception_4a/relu_pool_proj -> inception_4a/pool_proj (in-place)
I0123 12:52:38.974236 39683 net.cpp:219] Setting up inception_4a/relu_pool_proj
I0123 12:52:38.974244 39683 net.cpp:226] Top shape: 16 64 14 14 (200704)
I0123 12:52:38.974251 39683 net.cpp:234] Memory required for data: 591274240
I0123 12:52:38.974261 39683 net.cpp:154] Setting up Layer of device :0 @cpu 0 Layer : inception_4a/output
I0123 12:52:38.974267 39683 layer_factory.hpp:114] Creating layer inception_4a/output
I0123 12:52:38.974279 39683 net.cpp:169] Creating Layer inception_4a/output
I0123 12:52:38.974287 39683 net.cpp:606] inception_4a/output <- inception_4a/1x1
I0123 12:52:38.974297 39683 net.cpp:606] inception_4a/output <- inception_4a/3x3
I0123 12:52:38.974304 39683 net.cpp:606] inception_4a/output <- inception_4a/5x5
I0123 12:52:38.974313 39683 net.cpp:606] inception_4a/output <- inception_4a/pool_proj
I0123 12:52:38.974323 39683 net.cpp:579] inception_4a/output -> inception_4a/output
I0123 12:52:38.974329 39683 net.cpp:582] From AppendTop @cpu: 0
I0123 12:52:38.974341 39683 net.cpp:219] Setting up inception_4a/output
I0123 12:52:38.974350 39683 net.cpp:226] Top shape: 16 512 14 14 (1605632)
I0123 12:52:38.974357 39683 net.cpp:234] Memory required for data: 597696768
I0123 12:52:38.974375 39683 net.cpp:154] Setting up Layer of device :0 @cpu 0 Layer : inception_4a/output_inception_4a/output_0_split
I0123 12:52:38.974383 39683 layer_factory.hpp:114] Creating layer inception_4a/output_inception_4a/output_0_split
I0123 12:52:38.974401 39683 net.cpp:169] Creating Layer inception_4a/output_inception_4a/output_0_split
…
I0123 12:52:38.974465 39683 net.cpp:582] From AppendTop @cpu: 0
I0123 12:52:38.974476 39683 net.cpp:579] inception_4a/output_inception_4a/output_0_split -> inception_4a/output_inception_4a/output_0_split_3
I0123 12:52:38.974485 39683 net.cpp:582] From AppendTop @cpu: 0
I0123 12:52:38.974496 39683 net.cpp:579] inception_4a/output_inception_4a/output_0_split -> inception_4a/output_inception_4a/output_0_split_4
I0123 12:52:38.974503 39683 net.cpp:582] From AppendTop @cpu: 0
I0123 12:52:38.974515 39683 net.cpp:219] Setting up inception_4a/output_inception_4a/output_0_split
I0123 12:52:38.974524 39683 net.cpp:226] Top shape: 16 512 14 14 (1605632)
I0123 12:52:38.974534 39683 net.cpp:226] Top shape: 16 512 14 14 (1605632)
I0123 12:52:38.974541 39683 net.cpp:226] Top shape: 16 512 14 14 (1605632)
I0123 12:52:38.974550 39683 net.cpp:226] Top shape: 16 512 14 14 (1605632)
I0123 12:52:38.974558 39683 net.cpp:226] Top shape: 16 512 14 14 (1605632)
I0123 12:52:38.974565 39683 net.cpp:234] Memory required for data: 629809408
I0123 12:52:38.974573 39683 net.cpp:154] Setting up Layer of device :0 @cpu 0 Layer : loss1/ave_pool
I0123 12:52:38.974581 39683 layer_factory.hpp:114] Creating layer loss1/ave_pool
I0123 12:52:38.974606 39683 net.cpp:169] Creating Layer loss1/ave_pool
I0123 12:52:38.974617 39683 net.cpp:606] loss1/ave_pool <- inception_4a/output_inception_4a/output_0_split_0
I0123 12:52:38.974632 39683 net.cpp:579] loss1/ave_pool -> loss1/ave_pool
I0123 12:52:38.974645 39683 net.cpp:582] From AppendTop @cpu: 0
I0123 12:52:38.974658 39683 net.cpp:219] Setting up loss1/ave_pool
I0123 12:52:38.974668 39683 net.cpp:226] Top shape: 16 512 4 4 (131072)
I0123 12:52:38.974675 39683 net.cpp:234] Memory required for data: 630333696
I0123 12:52:38.974684 39683 net.cpp:154] Setting up Layer of device :0 @cpu 0 Layer : loss1/conv
I0123 12:52:38.974690 39683 layer_factory.hpp:114] Creating layer loss1/conv
I0123 12:52:38.974706 39683 net.cpp:169] Creating Layer loss1/conv
I0123 12:52:38.974714 39683 net.cpp:606] loss1/conv <- loss1/ave_pool
I0123 12:52:38.974728 39683 net.cpp:579] loss1/conv -> loss1/conv
I0123 12:52:38.974736 39683 net.cpp:582] From AppendTop @cpu: 0
I0123 12:52:38.976697 39683 net.cpp:219] Setting up loss1/conv
I0123 12:52:38.976713 39683 net.cpp:226] Top shape: 16 128 4 4 (32768)
I0123 12:52:38.976721 39683 net.cpp:234] Memory required for data: 630464768
I0123 12:52:38.976733 39683 net.cpp:154] Setting up Layer of device :0 @cpu 0 Layer : loss1/relu_conv
I0123 12:52:38.976742 39683 layer_factory.hpp:114] Creating layer loss1/relu_conv
I0123 12:52:38.976753 39683 net.cpp:169] Creating Layer loss1/relu_conv
I0123 12:52:38.976763 39683 net.cpp:606] loss1/relu_conv <- loss1/conv
I0123 12:52:38.976771 39683 net.cpp:566] loss1/relu_conv -> loss1/conv (in-place)
I0123 12:52:38.976783 39683 net.cpp:219] Setting up loss1/relu_conv
I0123 12:52:38.976791 39683 net.cpp:226] Top shape: 16 128 4 4 (32768)
I0123 12:52:38.976799 39683 net.cpp:234] Memory required for data: 630595840
I0123 12:52:38.976806 39683 net.cpp:154] Setting up Layer of device :0 @cpu 0 Layer : loss1/fc
I0123 12:52:38.976824 39683 layer_factory.hpp:114] Creating layer loss1/fc
I0123 12:52:38.976838 39683 net.cpp:169] Creating Layer loss1/fc
I0123 12:52:38.976846 39683 net.cpp:606] loss1/fc <- loss1/conv
I0123 12:52:38.976860 39683 net.cpp:579] loss1/fc -> loss1/fc
I0123 12:52:38.976866 39683 net.cpp:582] From AppendTop @cpu: 0
I0123 12:52:38.996708 39683 net.cpp:219] Setting up loss1/fc
I0123 12:52:38.996742 39683 net.cpp:226] Top shape: 16 1024 (16384)
I0123 12:52:38.996749 39683 net.cpp:234] Memory required for data: 630661376
I0123 12:52:38.996763 39683 net.cpp:154] Setting up Layer of device :0 @cpu 0 Layer : loss1/relu_fc
I0123 12:52:38.996772 39683 layer_factory.hpp:114] Creating layer loss1/relu_fc
I0123 12:52:38.996781 39683 net.cpp:169] Creating Layer loss1/relu_fc
I0123 12:52:38.996790 39683 net.cpp:606] loss1/relu_fc <- loss1/fc
I0123 12:52:38.996803 39683 net.cpp:566] loss1/relu_fc -> loss1/fc (in-place)
I0123 12:52:38.996814 39683 net.cpp:219] Setting up loss1/relu_fc
I0123 12:52:38.996824 39683 net.cpp:226] Top shape: 16 1024 (16384)
I0123 12:52:38.996830 39683 net.cpp:234] Memory required for data: 630726912
I0123 12:52:38.996840 39683 net.cpp:154] Setting up Layer of device :0 @cpu 0 Layer : loss1/drop_fc
I0123 12:52:38.996847 39683 layer_factory.hpp:114] Creating layer loss1/drop_fc
I0123 12:52:38.996863 39683 net.cpp:169] Creating Layer loss1/drop_fc
I0123 12:52:38.996871 39683 net.cpp:606] loss1/drop_fc <- loss1/fc
I0123 12:52:38.996881 39683 net.cpp:566] loss1/drop_fc -> loss1/fc (in-place)
I0123 12:52:38.996896 39683 net.cpp:219] Setting up loss1/drop_fc
I0123 12:52:38.996906 39683 net.cpp:226] Top shape: 16 1024 (16384)
I0123 12:52:38.996912 39683 net.cpp:234] Memory required for data: 630792448
I0123 12:52:38.996922 39683 net.cpp:154] Setting up Layer of device :0 @cpu 0 Layer : loss1/classifier
I0123 12:52:38.996929 39683 layer_factory.hpp:114] Creating layer loss1/classifier
I0123 12:52:38.996944 39683 net.cpp:169] Creating Layer loss1/classifier
I0123 12:52:38.996953 39683 net.cpp:606] loss1/classifier <- loss1/fc
I0123 12:52:38.996963 39683 net.cpp:579] loss1/classifier -> loss1/classifier
I0123 12:52:38.996969 39683 net.cpp:582] From AppendTop @cpu: 0
I0123 12:52:39.007002 39683 net.cpp:219] Setting up loss1/classifier
I0123 12:52:39.007030 39683 net.cpp:226] Top shape: 16 1000 (16000)
I0123 12:52:39.007038 39683 net.cpp:234] Memory required for data: 630856448
I0123 12:52:39.007062 39683 net.cpp:154] Setting up Layer of device :0 @cpu 0 Layer : loss1/loss
I0123 12:52:39.007071 39683 layer_factory.hpp:114] Creating layer loss1/loss
I0123 12:52:39.007091 39683 net.cpp:169] Creating Layer loss1/loss
I0123 12:52:39.007099 39683 net.cpp:606] loss1/loss <- loss1/classifier
…
I0123 12:52:39.007334 39683 net.cpp:154] Setting up Layer of device :0 @cpu 0 Layer : inception_4b/1x1
I0123 12:52:39.007341 39683 layer_factory.hpp:114] Creating layer inception_4b/1x1
I0123 12:52:39.007359 39683 net.cpp:169] Creating Layer inception_4b/1x1
I0123 12:52:39.007369 39683 net.cpp:606] inception_4b/1x1 <- inception_4a/output_inception_4a/output_0_split_1
I0123 12:52:39.007381 39683 net.cpp:579] inception_4b/1x1 -> inception_4b/1x1
I0123 12:52:39.007390 39683 net.cpp:582] From AppendTop @cpu: 0
I0123 12:52:39.011528 39683 net.cpp:219] Setting up inception_4b/1x1
I0123 12:52:39.011545 39683 net.cpp:226] Top shape: 16 160 14 14 (501760)
I0123 12:52:39.011553 39683 net.cpp:234] Memory required for data: 632863492
I0123 12:52:39.011565 39683 net.cpp:154] Setting up Layer of device :0 @cpu 0 Layer : inception_4b/relu_1x1
I0123 12:52:39.011600 39683 layer_factory.hpp:114] Creating layer inception_4b/relu_1x1
I0123 12:52:39.011611 39683 net.cpp:169] Creating Layer inception_4b/relu_1x1
I0123 12:52:39.011620 39683 net.cpp:606] inception_4b/relu_1x1 <- inception_4b/1x1
I0123 12:52:39.011631 39683 net.cpp:566] inception_4b/relu_1x1 -> inception_4b/1x1 (in-place)
I0123 12:52:39.011641 39683 net.cpp:219] Setting up inception_4b/relu_1x1
I0123 12:52:39.011651 39683 net.cpp:226] Top shape: 16 160 14 14 (501760)
I0123 12:52:39.011657 39683 net.cpp:234] Memory required for data: 634870532
I0123 12:52:39.011667 39683 net.cpp:154] Setting up Layer of device :0 @cpu 0 Layer : inception_4b/3x3_reduce
I0123 12:52:39.011673 39683 layer_factory.hpp:114] Creating layer inception_4b/3x3_reduce
I0123 12:52:39.011688 39683 net.cpp:169] Creating Layer inception_4b/3x3_reduce
I0123 12:52:39.011698 39683 net.cpp:606] inception_4b/3x3_reduce <- inception_4a/output_inception_4a/output_0_split_2
I0123 12:52:39.011709 39683 net.cpp:579] inception_4b/3x3_reduce -> inception_4b/3x3_reduce
I0123 12:52:39.011718 39683 net.cpp:582] From AppendTop @cpu: 0
I0123 12:52:39.014683 39683 net.cpp:219] Setting up inception_4b/3x3_reduce
I0123 12:52:39.014706 39683 net.cpp:226] Top shape: 16 112 14 14 (351232)
I0123 12:52:39.014714 39683 net.cpp:234] Memory required for data: 636275460
I0123 12:52:39.014727 39683 net.cpp:154] Setting up Layer of device :0 @cpu 0 Layer : inception_4b/relu_3x3_reduce
I0123 12:52:39.014734 39683 layer_factory.hpp:114] Creating layer inception_4b/relu_3x3_reduce
I0123 12:52:39.014747 39683 net.cpp:169] Creating Layer inception_4b/relu_3x3_reduce
I0123 12:52:39.014756 39683 net.cpp:606] inception_4b/relu_3x3_reduce <- inception_4b/3x3_reduce
I0123 12:52:39.014765 39683 net.cpp:566] inception_4b/relu_3x3_reduce -> inception_4b/3x3_reduce (in-place)
I0123 12:52:39.014776 39683 net.cpp:219] Setting up inception_4b/relu_3x3_reduce
I0123 12:52:39.014786 39683 net.cpp:226] Top shape: 16 112 14 14 (351232)
I0123 12:52:39.014792 39683 net.cpp:234] Memory required for data: 637680388
I0123 12:52:39.014801 39683 net.cpp:154] Setting up Layer of device :0 @cpu 0 Layer : inception_4b/3x3
I0123 12:52:39.014807 39683 layer_factory.hpp:114] Creating layer inception_4b/3x3
I0123 12:52:39.014822 39683 net.cpp:169] Creating Layer inception_4b/3x3
I0123 12:52:39.014830 39683 net.cpp:606] inception_4b/3x3 <- inception_4b/3x3_reduce
I0123 12:52:39.014854 39683 net.cpp:579] inception_4b/3x3 -> inception_4b/3x3
I0123 12:52:39.014863 39683 net.cpp:582] From AppendTop @cpu: 0
I0123 12:52:39.022243 39683 net.cpp:219] Setting up inception_4b/3x3
I0123 12:52:39.022266 39683 net.cpp:226] Top shape: 16 224 14 14 (702464)
I0123 12:52:39.022274 39683 net.cpp:234] Memory required for data: 640490244
I0123 12:52:39.022286 39683 net.cpp:154] Setting up Layer of device :0 @cpu 0 Layer : inception_4b/relu_3x3
I0123 12:52:39.022294 39683 layer_factory.hpp:114] Creating layer inception_4b/relu_3x3
I0123 12:52:39.022307 39683 net.cpp:169] Creating Layer inception_4b/relu_3x3
I0123 12:52:39.022315 39683 net.cpp:606] inception_4b/relu_3x3 <- inception_4b/3x3
I0123 12:52:39.022325 39683 net.cpp:566] inception_4b/relu_3x3 -> inception_4b/3x3 (in-place)
I0123 12:52:39.022336 39683 net.cpp:219] Setting up inception_4b/relu_3x3
I0123 12:52:39.022344 39683 net.cpp:226] Top shape: 16 224 14 14 (702464)
I0123 12:52:39.022351 39683 net.cpp:234] Memory required for data: 643300100
I0123 12:52:39.022361 39683 net.cpp:154] Setting up Layer of device :0 @cpu 0 Layer : inception_4b/5x5_reduce
I0123 12:52:39.022367 39683 layer_factory.hpp:114] Creating layer inception_4b/5x5_reduce
I0123 12:52:39.022380 39683 net.cpp:169] Creating Layer inception_4b/5x5_reduce
I0123 12:52:39.022388 39683 net.cpp:606] inception_4b/5x5_reduce <- inception_4a/output_inception_4a/output_0_split_3
I0123 12:52:39.022406 39683 net.cpp:579] inception_4b/5x5_reduce -> inception_4b/5x5_reduce
I0123 12:52:39.022413 39683 net.cpp:582] From AppendTop @cpu: 0
I0123 12:52:39.024538 39683 net.cpp:219] Setting up inception_4b/5x5_reduce
I0123 12:52:39.024556 39683 net.cpp:226] Top shape: 16 24 14 14 (75264)
I0123 12:52:39.024564 39683 net.cpp:234] Memory required for data: 643601156
I0123 12:52:39.024576 39683 net.cpp:154] Setting up Layer of device :0 @cpu 0 Layer : inception_4b/relu_5x5_reduce
I0123 12:52:39.024585 39683 layer_factory.hpp:114] Creating layer inception_4b/relu_5x5_reduce
I0123 12:52:39.024595 39683 net.cpp:169] Creating Layer inception_4b/relu_5x5_reduce
I0123 12:52:39.024602 39683 net.cpp:606] inception_4b/relu_5x5_reduce <- inception_4b/5x5_reduce
I0123 12:52:39.024611 39683 net.cpp:566] inception_4b/relu_5x5_reduce -> inception_4b/5x5_reduce (in-place)
I0123 12:52:39.024622 39683 net.cpp:219] Setting up inception_4b/relu_5x5_reduce
I0123 12:52:39.024631 39683 net.cpp:226] Top shape: 16 24 14 14 (75264)
I0123 12:52:39.024638 39683 net.cpp:234] Memory required for data: 643902212
I0123 12:52:39.024646 39683 net.cpp:154] Setting up Layer of device :0 @cpu 0 Layer : inception_4b/5x5
I0123 12:52:39.024653 39683 layer_factory.hpp:114] Creating layer inception_4b/5x5
I0123 12:52:39.024668 39683 net.cpp:169] Creating Layer inception_4b/5x5
I0123 12:52:39.024677 39683 net.cpp:606] inception_4b/5x5 <- inception_4b/5x5_reduce
I0123 12:52:39.024690 39683 net.cpp:579] inception_4b/5x5 -> inception_4b/5x5
I0123 12:52:39.024698 39683 net.cpp:582] From AppendTop @cpu: 0
I0123 12:52:39.027272 39683 net.cpp:219] Setting up inception_4b/5x5
I0123 12:52:39.027292 39683 net.cpp:226] Top shape: 16 64 14 14 (200704)
I0123 12:52:39.027298 39683 net.cpp:234] Memory required for data: 644705028
I0123 12:52:39.027312 39683 net.cpp:154] Setting up Layer of device :0 @cpu 0 Layer : inception_4b/relu_5x5
I0123 12:52:39.027319 39683 layer_factory.hpp:114] Creating layer inception_4b/relu_5x5
I0123 12:52:39.027329 39683 net.cpp:169] Creating Layer inception_4b/relu_5x5
I0123 12:52:39.027338 39683 net.cpp:606] inception_4b/relu_5x5 <- inception_4b/5x5
I0123 12:52:39.027348 39683 net.cpp:566] inception_4b/relu_5x5 -> inception_4b/5x5 (in-place)
I0123 12:52:39.027357 39683 net.cpp:219] Setting up inception_4b/relu_5x5
I0123 12:52:39.027366 39683 net.cpp:226] Top shape: 16 64 14 14 (200704)
I0123 12:52:39.027374 39683 net.cpp:234] Memory required for data: 645507844
I0123 12:52:39.027381 39683 net.cpp:154] Setting up Layer of device :0 @cpu 0 Layer : inception_4b/pool
I0123 12:52:39.027390 39683 layer_factory.hpp:114] Creating layer inception_4b/pool
I0123 12:52:39.027439 39683 net.cpp:169] Creating Layer inception_4b/pool
I0123 12:52:39.027451 39683 net.cpp:606] inception_4b/pool <- inception_4a/output_inception_4a/output_0_split_4
I0123 12:52:39.027463 39683 net.cpp:579] inception_4b/pool -> inception_4b/pool
I0123 12:52:39.027472 39683 net.cpp:582] From AppendTop @cpu: 0
I0123 12:52:39.027492 39683 net.cpp:219] Setting up inception_4b/pool
I0123 12:52:39.027503 39683 net.cpp:226] Top shape: 16 512 14 14 (1605632)
I0123 12:52:39.027510 39683 net.cpp:234] Memory required for data: 651930372
I0123 12:52:39.027518 39683 net.cpp:154] Setting up Layer of device :0 @cpu 0 Layer : inception_4b/pool_proj
I0123 12:52:39.027526 39683 layer_factory.hpp:114] Creating layer inception_4b/pool_proj
I0123 12:52:39.027542 39683 net.cpp:169] Creating Layer inception_4b/pool_proj
I0123 12:52:39.027551 39683 net.cpp:606] inception_4b/pool_proj <- inception_4b/pool
I0123 12:52:39.027565 39683 net.cpp:579] inception_4b/pool_proj -> inception_4b/pool_proj
I0123 12:52:39.027571 39683 net.cpp:582] From AppendTop @cpu: 0
I0123 12:52:39.030167 39683 net.cpp:219] Setting up inception_4b/pool_proj
I0123 12:52:39.030210 39683 net.cpp:226] Top shape: 16 64 14 14 (200704)
I0123 12:52:39.030216 39683 net.cpp:234] Memory required for data: 652733188
I0123 12:52:39.030230 39683 net.cpp:154] Setting up Layer of device :0 @cpu 0 Layer : inception_4b/relu_pool_proj
I0123 12:52:39.030237 39683 layer_factory.hpp:114] Creating layer inception_4b/relu_pool_proj
I0123 12:52:39.030249 39683 net.cpp:169] Creating Layer inception_4b/relu_pool_proj
I0123 12:52:39.030268 39683 net.cpp:606] inception_4b/relu_pool_proj <- inception_4b/pool_proj
I0123 12:52:39.030278 39683 net.cpp:566] inception_4b/relu_pool_proj -> inception_4b/pool_proj (in-place)
I0123 12:52:39.030289 39683 net.cpp:219] Setting up inception_4b/relu_pool_proj
I0123 12:52:39.030298 39683 net.cpp:226] Top shape: 16 64 14 14 (200704)
I0123 12:52:39.030305 39683 net.cpp:234] Memory required for data: 653536004
I0123 12:52:39.030314 39683 net.cpp:154] Setting up Layer of device :0 @cpu 0 Layer : inception_4b/output
I0123 12:52:39.030321 39683 layer_factory.hpp:114] Creating layer inception_4b/output
I0123 12:52:39.030334 39683 net.cpp:169] Creating Layer inception_4b/output
I0123 12:52:39.030344 39683 net.cpp:606] inception_4b/output <- inception_4b/1x1
I0123 12:52:39.030351 39683 net.cpp:606] inception_4b/output <- inception_4b/3x3
I0123 12:52:39.030359 39683 net.cpp:606] inception_4b/output <- inception_4b/5x5
I0123 12:52:39.030367 39683 net.cpp:606] inception_4b/output <- inception_4b/pool_proj
I0123 12:52:39.030376 39683 net.cpp:579] inception_4b/output -> inception_4b/output
I0123 12:52:39.030383 39683 net.cpp:582] From AppendTop @cpu: 0
I0123 12:52:39.030396 39683 net.cpp:219] Setting up inception_4b/output
I0123 12:52:39.030406 39683 net.cpp:226] Top shape: 16 512 14 14 (1605632)
I0123 12:52:39.030413 39683 net.cpp:234] Memory required for data: 659958532
I0123 12:52:39.030421 39683 net.cpp:154] Setting up Layer of device :0 @cpu 0 Layer : inception_4b/output_inception_4b/output_0_split
I0123 12:52:39.030429 39683 layer_factory.hpp:114] Creating layer inception_4b/output_inception_4b/output_0_split
I0123 12:52:39.030439 39683 net.cpp:169] Creating Layer inception_4b/output_inception_4b/output_0_split
…
I0123 12:52:39.030485 39683 net.cpp:582] From AppendTop @cpu: 0
I0123 12:52:39.030496 39683 net.cpp:579] inception_4b/output_inception_4b/output_0_split -> inception_4b/output_inception_4b/output_0_split_2
I0123 12:52:39.030503 39683 net.cpp:582] From AppendTop @cpu: 0
I0123 12:52:39.030521 39683 net.cpp:579] inception_4b/output_inception_4b/output_0_split -> inception_4b/output_inception_4b/output_0_split_3
I0123 12:52:39.030529 39683 net.cpp:582] From AppendTop @cpu: 0
I0123 12:52:39.030541 39683 net.cpp:219] Setting up inception_4b/output_inception_4b/output_0_split
I0123 12:52:39.030550 39683 net.cpp:226] Top shape: 16 512 14 14 (1605632)
I0123 12:52:39.030560 39683 net.cpp:226] Top shape: 16 512 14 14 (1605632)
I0123 12:52:39.030567 39683 net.cpp:226] Top shape: 16 512 14 14 (1605632)
I0123 12:52:39.030575 39683 net.cpp:226] Top shape: 16 512 14 14 (1605632)
I0123 12:52:39.030582 39683 net.cpp:234] Memory required for data: 685648644
I0123 12:52:39.030591 39683 net.cpp:154] Setting up Layer of device :0 @cpu 0 Layer : inception_4c/1x1
I0123 12:52:39.030598 39683 layer_factory.hpp:114] Creating layer inception_4c/1x1
I0123 12:52:39.030613 39683 net.cpp:169] Creating Layer inception_4c/1x1
I0123 12:52:39.030622 39683 net.cpp:606] inception_4c/1x1 <- inception_4b/output_inception_4b/output_0_split_0
I0123 12:52:39.030635 39683 net.cpp:579] inception_4c/1x1 -> inception_4c/1x1
I0123 12:52:39.030642 39683 net.cpp:582] From AppendTop @cpu: 0
I0123 12:52:39.033846 39683 net.cpp:219] Setting up inception_4c/1x1
I0123 12:52:39.033864 39683 net.cpp:226] Top shape: 16 128 14 14 (401408)
I0123 12:52:39.033870 39683 net.cpp:234] Memory required for data: 687254276
I0123 12:52:39.033884 39683 net.cpp:154] Setting up Layer of device :0 @cpu 0 Layer : inception_4c/relu_1x1
I0123 12:52:39.033891 39683 layer_factory.hpp:114] Creating layer inception_4c/relu_1x1
I0123 12:52:39.033928 39683 net.cpp:169] Creating Layer inception_4c/relu_1x1
I0123 12:52:39.033937 39683 net.cpp:606] inception_4c/relu_1x1 <- inception_4c/1x1
I0123 12:52:39.033946 39683 net.cpp:566] inception_4c/relu_1x1 -> inception_4c/1x1 (in-place)
I0123 12:52:39.033958 39683 net.cpp:219] Setting up inception_4c/relu_1x1
I0123 12:52:39.033967 39683 net.cpp:226] Top shape: 16 128 14 14 (401408)
I0123 12:52:39.033974 39683 net.cpp:234] Memory required for data: 688859908
I0123 12:52:39.033983 39683 net.cpp:154] Setting up Layer of device :0 @cpu 0 Layer : inception_4c/3x3_reduce
I0123 12:52:39.033990 39683 layer_factory.hpp:114] Creating layer inception_4c/3x3_reduce
I0123 12:52:39.034005 39683 net.cpp:169] Creating Layer inception_4c/3x3_reduce
I0123 12:52:39.034013 39683 net.cpp:606] inception_4c/3x3_reduce <- inception_4b/output_inception_4b/output_0_split_1
I0123 12:52:39.034026 39683 net.cpp:579] inception_4c/3x3_reduce -> inception_4c/3x3_reduce
I0123 12:52:39.034034 39683 net.cpp:582] From AppendTop @cpu: 0
I0123 12:52:39.037681 39683 net.cpp:219] Setting up inception_4c/3x3_reduce
I0123 12:52:39.037698 39683 net.cpp:226] Top shape: 16 128 14 14 (401408)
I0123 12:52:39.037704 39683 net.cpp:234] Memory required for data: 690465540
I0123 12:52:39.037717 39683 net.cpp:154] Setting up Layer of device :0 @cpu 0 Layer : inception_4c/relu_3x3_reduce
I0123 12:52:39.037724 39683 layer_factory.hpp:114] Creating layer inception_4c/relu_3x3_reduce
I0123 12:52:39.037734 39683 net.cpp:169] Creating Layer inception_4c/relu_3x3_reduce
I0123 12:52:39.037744 39683 net.cpp:606] inception_4c/relu_3x3_reduce <- inception_4c/3x3_reduce
I0123 12:52:39.037752 39683 net.cpp:566] inception_4c/relu_3x3_reduce -> inception_4c/3x3_reduce (in-place)
I0123 12:52:39.037763 39683 net.cpp:219] Setting up inception_4c/relu_3x3_reduce
I0123 12:52:39.037772 39683 net.cpp:226] Top shape: 16 128 14 14 (401408)
I0123 12:52:39.037780 39683 net.cpp:234] Memory required for data: 692071172
I0123 12:52:39.037787 39683 net.cpp:154] Setting up Layer of device :0 @cpu 0 Layer : inception_4c/3x3
I0123 12:52:39.037796 39683 layer_factory.hpp:114] Creating layer inception_4c/3x3
I0123 12:52:39.037811 39683 net.cpp:169] Creating Layer inception_4c/3x3
I0123 12:52:39.037819 39683 net.cpp:606] inception_4c/3x3 <- inception_4c/3x3_reduce
I0123 12:52:39.037830 39683 net.cpp:579] inception_4c/3x3 -> inception_4c/3x3
I0123 12:52:39.037837 39683 net.cpp:582] From AppendTop @cpu: 0
I0123 12:52:39.047144 39683 net.cpp:219] Setting up inception_4c/3x3
I0123 12:52:39.047166 39683 net.cpp:226] Top shape: 16 256 14 14 (802816)
I0123 12:52:39.047202 39683 net.cpp:234] Memory required for data: 695282436
I0123 12:52:39.047236 39683 net.cpp:154] Setting up Layer of device :0 @cpu 0 Layer : inception_4c/relu_3x3
I0123 12:52:39.047245 39683 layer_factory.hpp:114] Creating layer inception_4c/relu_3x3
I0123 12:52:39.047260 39683 net.cpp:169] Creating Layer inception_4c/relu_3x3
I0123 12:52:39.047267 39683 net.cpp:606] inception_4c/relu_3x3 <- inception_4c/3x3
I0123 12:52:39.047277 39683 net.cpp:566] inception_4c/relu_3x3 -> inception_4c/3x3 (in-place)
I0123 12:52:39.047289 39683 net.cpp:219] Setting up inception_4c/relu_3x3
I0123 12:52:39.047298 39683 net.cpp:226] Top shape: 16 256 14 14 (802816)
I0123 12:52:39.047305 39683 net.cpp:234] Memory required for data: 698493700
I0123 12:52:39.047315 39683 net.cpp:154] Setting up Layer of device :0 @cpu 0 Layer : inception_4c/5x5_reduce
I0123 12:52:39.047322 39683 layer_factory.hpp:114] Creating layer inception_4c/5x5_reduce
I0123 12:52:39.047335 39683 net.cpp:169] Creating Layer inception_4c/5x5_reduce
I0123 12:52:39.047343 39683 net.cpp:606] inception_4c/5x5_reduce <- inception_4b/output_inception_4b/output_0_split_2
I0123 12:52:39.047358 39683 net.cpp:579] inception_4c/5x5_reduce -> inception_4c/5x5_reduce
I0123 12:52:39.047364 39683 net.cpp:582] From AppendTop @cpu: 0
I0123 12:52:39.049476 39683 net.cpp:219] Setting up inception_4c/5x5_reduce
I0123 12:52:39.049492 39683 net.cpp:226] Top shape: 16 24 14 14 (75264)
I0123 12:52:39.049500 39683 net.cpp:234] Memory required for data: 698794756
I0123 12:52:39.049522 39683 net.cpp:154] Setting up Layer of device :0 @cpu 0 Layer : inception_4c/relu_5x5_reduce
I0123 12:52:39.049537 39683 layer_factory.hpp:114] Creating layer inception_4c/relu_5x5_reduce
I0123 12:52:39.049554 39683 net.cpp:169] Creating Layer inception_4c/relu_5x5_reduce
I0123 12:52:39.049563 39683 net.cpp:606] inception_4c/relu_5x5_reduce <- inception_4c/5x5_reduce
I0123 12:52:39.049572 39683 net.cpp:566] inception_4c/relu_5x5_reduce -> inception_4c/5x5_reduce (in-place)
I0123 12:52:39.049583 39683 net.cpp:219] Setting up inception_4c/relu_5x5_reduce
I0123 12:52:39.049592 39683 net.cpp:226] Top shape: 16 24 14 14 (75264)
I0123 12:52:39.049599 39683 net.cpp:234] Memory required for data: 699095812
I0123 12:52:39.049608 39683 net.cpp:154] Setting up Layer of device :0 @cpu 0 Layer : inception_4c/5x5
I0123 12:52:39.049615 39683 layer_factory.hpp:114] Creating layer inception_4c/5x5
I0123 12:52:39.049630 39683 net.cpp:169] Creating Layer inception_4c/5x5
I0123 12:52:39.049639 39683 net.cpp:606] inception_4c/5x5 <- inception_4c/5x5_reduce
I0123 12:52:39.049652 39683 net.cpp:579] inception_4c/5x5 -> inception_4c/5x5
I0123 12:52:39.049659 39683 net.cpp:582] From AppendTop @cpu: 0
I0123 12:52:39.052220 39683 net.cpp:219] Setting up inception_4c/5x5
I0123 12:52:39.052237 39683 net.cpp:226] Top shape: 16 64 14 14 (200704)
I0123 12:52:39.052244 39683 net.cpp:234] Memory required for data: 699898628
I0123 12:52:39.052256 39683 net.cpp:154] Setting up Layer of device :0 @cpu 0 Layer : inception_4c/relu_5x5
I0123 12:52:39.052264 39683 layer_factory.hpp:114] Creating layer inception_4c/relu_5x5
I0123 12:52:39.052278 39683 net.cpp:169] Creating Layer inception_4c/relu_5x5
I0123 12:52:39.052286 39683 net.cpp:606] inception_4c/relu_5x5 <- inception_4c/5x5
I0123 12:52:39.052295 39683 net.cpp:566] inception_4c/relu_5x5 -> inception_4c/5x5 (in-place)
I0123 12:52:39.052306 39683 net.cpp:219] Setting up inception_4c/relu_5x5
I0123 12:52:39.052315 39683 net.cpp:226] Top shape: 16 64 14 14 (200704)
I0123 12:52:39.052322 39683 net.cpp:234] Memory required for data: 700701444
I0123 12:52:39.052331 39683 net.cpp:154] Setting up Layer of device :0 @cpu 0 Layer : inception_4c/pool
I0123 12:52:39.052338 39683 layer_factory.hpp:114] Creating layer inception_4c/pool
I0123 12:52:39.052366 39683 net.cpp:169] Creating Layer inception_4c/pool
I0123 12:52:39.052407 39683 net.cpp:606] inception_4c/pool <- inception_4b/output_inception_4b/output_0_split_3
I0123 12:52:39.052422 39683 net.cpp:579] inception_4c/pool -> inception_4c/pool
I0123 12:52:39.052428 39683 net.cpp:582] From AppendTop @cpu: 0
I0123 12:52:39.052443 39683 net.cpp:219] Setting up inception_4c/pool
I0123 12:52:39.052453 39683 net.cpp:226] Top shape: 16 512 14 14 (1605632)
I0123 12:52:39.052459 39683 net.cpp:234] Memory required for data: 707123972
I0123 12:52:39.052469 39683 net.cpp:154] Setting up Layer of device :0 @cpu 0 Layer : inception_4c/pool_proj
I0123 12:52:39.052475 39683 layer_factory.hpp:114] Creating layer inception_4c/pool_proj
I0123 12:52:39.052490 39683 net.cpp:169] Creating Layer inception_4c/pool_proj
I0123 12:52:39.052500 39683 net.cpp:606] inception_4c/pool_proj <- inception_4c/pool
I0123 12:52:39.052512 39683 net.cpp:579] inception_4c/pool_proj -> inception_4c/pool_proj
I0123 12:52:39.052520 39683 net.cpp:582] From AppendTop @cpu: 0
I0123 12:52:39.055099 39683 net.cpp:219] Setting up inception_4c/pool_proj
I0123 12:52:39.055117 39683 net.cpp:226] Top shape: 16 64 14 14 (200704)
I0123 12:52:39.055125 39683 net.cpp:234] Memory required for data: 707926788
I0123 12:52:39.055145 39683 net.cpp:154] Setting up Layer of device :0 @cpu 0 Layer : inception_4c/relu_pool_proj
I0123 12:52:39.055153 39683 layer_factory.hpp:114] Creating layer inception_4c/relu_pool_proj
I0123 12:52:39.055163 39683 net.cpp:169] Creating Layer inception_4c/relu_pool_proj
I0123 12:52:39.055198 39683 net.cpp:606] inception_4c/relu_pool_proj <- inception_4c/pool_proj
I0123 12:52:39.055209 39683 net.cpp:566] inception_4c/relu_pool_proj -> inception_4c/pool_proj (in-place)
I0123 12:52:39.055230 39683 net.cpp:219] Setting up inception_4c/relu_pool_proj
I0123 12:52:39.055240 39683 net.cpp:226] Top shape: 16 64 14 14 (200704)
I0123 12:52:39.055248 39683 net.cpp:234] Memory required for data: 708729604
I0123 12:52:39.055256 39683 net.cpp:154] Setting up Layer of device :0 @cpu 0 Layer : inception_4c/output
I0123 12:52:39.055263 39683 layer_factory.hpp:114] Creating layer inception_4c/output
I0123 12:52:39.055274 39683 net.cpp:169] Creating Layer inception_4c/output
I0123 12:52:39.055281 39683 net.cpp:606] inception_4c/output <- inception_4c/1x1
I0123 12:52:39.055290 39683 net.cpp:606] inception_4c/output <- inception_4c/3x3
I0123 12:52:39.055299 39683 net.cpp:606] inception_4c/output <- inception_4c/5x5
I0123 12:52:39.055307 39683 net.cpp:606] inception_4c/output <- inception_4c/pool_proj
I0123 12:52:39.055320 39683 net.cpp:579] inception_4c/output -> inception_4c/output
I0123 12:52:39.055326 39683 net.cpp:582] From AppendTop @cpu: 0
I0123 12:52:39.055338 39683 net.cpp:219] Setting up inception_4c/output
I0123 12:52:39.055348 39683 net.cpp:226] Top shape: 16 512 14 14 (1605632)
I0123 12:52:39.055356 39683 net.cpp:234] Memory required for data: 715152132
I0123 12:52:39.055364 39683 net.cpp:154] Setting up Layer of device :0 @cpu 0 Layer : inception_4c/output_inception_4c/output_0_split
I0123 12:52:39.055371 39683 layer_factory.hpp:114] Creating layer inception_4c/output_inception_4c/output_0_split
I0123 12:52:39.055383 39683 net.cpp:169] Creating Layer inception_4c/output_inception_4c/output_0_split
…
I0123 12:52:39.055426 39683 net.cpp:582] From AppendTop @cpu: 0
I0123 12:52:39.055438 39683 net.cpp:579] inception_4c/output_inception_4c/output_0_split -> inception_4c/output_inception_4c/output_0_split_2
I0123 12:52:39.055444 39683 net.cpp:582] From AppendTop @cpu: 0
I0123 12:52:39.055455 39683 net.cpp:579] inception_4c/output_inception_4c/output_0_split -> inception_4c/output_inception_4c/output_0_split_3
I0123 12:52:39.055467 39683 net.cpp:582] From AppendTop @cpu: 0
I0123 12:52:39.055481 39683 net.cpp:219] Setting up inception_4c/output_inception_4c/output_0_split
I0123 12:52:39.055491 39683 net.cpp:226] Top shape: 16 512 14 14 (1605632)
I0123 12:52:39.055500 39683 net.cpp:226] Top shape: 16 512 14 14 (1605632)
I0123 12:52:39.055508 39683 net.cpp:226] Top shape: 16 512 14 14 (1605632)
I0123 12:52:39.055516 39683 net.cpp:226] Top shape: 16 512 14 14 (1605632)
I0123 12:52:39.055523 39683 net.cpp:234] Memory required for data: 740842244
I0123 12:52:39.055532 39683 net.cpp:154] Setting up Layer of device :0 @cpu 0 Layer : inception_4d/1x1
I0123 12:52:39.055539 39683 layer_factory.hpp:114] Creating layer inception_4d/1x1
I0123 12:52:39.055554 39683 net.cpp:169] Creating Layer inception_4d/1x1
I0123 12:52:39.055563 39683 net.cpp:606] inception_4d/1x1 <- inception_4c/output_inception_4c/output_0_split_0
I0123 12:52:39.055575 39683 net.cpp:579] inception_4d/1x1 -> inception_4d/1x1
I0123 12:52:39.055583 39683 net.cpp:582] From AppendTop @cpu: 0
I0123 12:52:39.059007 39683 net.cpp:219] Setting up inception_4d/1x1
I0123 12:52:39.059022 39683 net.cpp:226] Top shape: 16 112 14 14 (351232)
I0123 12:52:39.059031 39683 net.cpp:234] Memory required for data: 742247172
I0123 12:52:39.059043 39683 net.cpp:154] Setting up Layer of device :0 @cpu 0 Layer : inception_4d/relu_1x1
I0123 12:52:39.059051 39683 layer_factory.hpp:114] Creating layer inception_4d/relu_1x1
I0123 12:52:39.059063 39683 net.cpp:169] Creating Layer inception_4d/relu_1x1
I0123 12:52:39.059072 39683 net.cpp:606] inception_4d/relu_1x1 <- inception_4d/1x1
I0123 12:52:39.059092 39683 net.cpp:566] inception_4d/relu_1x1 -> inception_4d/1x1 (in-place)
I0123 12:52:39.059104 39683 net.cpp:219] Setting up inception_4d/relu_1x1
I0123 12:52:39.059113 39683 net.cpp:226] Top shape: 16 112 14 14 (351232)
I0123 12:52:39.059120 39683 net.cpp:234] Memory required for data: 743652100
I0123 12:52:39.059129 39683 net.cpp:154] Setting up Layer of device :0 @cpu 0 Layer : inception_4d/3x3_reduce
I0123 12:52:39.059137 39683 layer_factory.hpp:114] Creating layer inception_4d/3x3_reduce
I0123 12:52:39.059151 39683 net.cpp:169] Creating Layer inception_4d/3x3_reduce
I0123 12:52:39.059160 39683 net.cpp:606] inception_4d/3x3_reduce <- inception_4c/output_inception_4c/output_0_split_1
I0123 12:52:39.059195 39683 net.cpp:579] inception_4d/3x3_reduce -> inception_4d/3x3_reduce
I0123 12:52:39.059204 39683 net.cpp:582] From AppendTop @cpu: 0
I0123 12:52:39.063633 39683 net.cpp:219] Setting up inception_4d/3x3_reduce
I0123 12:52:39.063660 39683 net.cpp:226] Top shape: 16 144 14 14 (451584)
I0123 12:52:39.063673 39683 net.cpp:234] Memory required for data: 745458436
I0123 12:52:39.063697 39683 net.cpp:154] Setting up Layer of device :0 @cpu 0 Layer : inception_4d/relu_3x3_reduce
I0123 12:52:39.063711 39683 layer_factory.hpp:114] Creating layer inception_4d/relu_3x3_reduce
I0123 12:52:39.063732 39683 net.cpp:169] Creating Layer inception_4d/relu_3x3_reduce
I0123 12:52:39.063747 39683 net.cpp:606] inception_4d/relu_3x3_reduce <- inception_4d/3x3_reduce
I0123 12:52:39.063765 39683 net.cpp:566] inception_4d/relu_3x3_reduce -> inception_4d/3x3_reduce (in-place)
I0123 12:52:39.063786 39683 net.cpp:219] Setting up inception_4d/relu_3x3_reduce
I0123 12:52:39.063802 39683 net.cpp:226] Top shape: 16 144 14 14 (451584)
I0123 12:52:39.063814 39683 net.cpp:234] Memory required for data: 747264772
I0123 12:52:39.063829 39683 net.cpp:154] Setting up Layer of device :0 @cpu 0 Layer : inception_4d/3x3
I0123 12:52:39.063843 39683 layer_factory.hpp:114] Creating layer inception_4d/3x3
I0123 12:52:39.063865 39683 net.cpp:169] Creating Layer inception_4d/3x3
I0123 12:52:39.063880 39683 net.cpp:606] inception_4d/3x3 <- inception_4d/3x3_reduce
I0123 12:52:39.063904 39683 net.cpp:579] inception_4d/3x3 -> inception_4d/3x3
I0123 12:52:39.063917 39683 net.cpp:582] From AppendTop @cpu: 0
I0123 12:52:39.079537 39683 net.cpp:219] Setting up inception_4d/3x3
I0123 12:52:39.079567 39683 net.cpp:226] Top shape: 16 288 14 14 (903168)
I0123 12:52:39.079593 39683 net.cpp:234] Memory required for data: 750877444
I0123 12:52:39.079619 39683 net.cpp:154] Setting up Layer of device :0 @cpu 0 Layer : inception_4d/relu_3x3
I0123 12:52:39.079633 39683 layer_factory.hpp:114] Creating layer inception_4d/relu_3x3
I0123 12:52:39.079650 39683 net.cpp:169] Creating Layer inception_4d/relu_3x3
I0123 12:52:39.079665 39683 net.cpp:606] inception_4d/relu_3x3 <- inception_4d/3x3
I0123 12:52:39.079682 39683 net.cpp:566] inception_4d/relu_3x3 -> inception_4d/3x3 (in-place)
I0123 12:52:39.079702 39683 net.cpp:219] Setting up inception_4d/relu_3x3
I0123 12:52:39.079720 39683 net.cpp:226] Top shape: 16 288 14 14 (903168)
I0123 12:52:39.079733 39683 net.cpp:234] Memory required for data: 754490116
I0123 12:52:39.079747 39683 net.cpp:154] Setting up Layer of device :0 @cpu 0 Layer : inception_4d/5x5_reduce
I0123 12:52:39.079761 39683 layer_factory.hpp:114] Creating layer inception_4d/5x5_reduce
I0123 12:52:39.079787 39683 net.cpp:169] Creating Layer inception_4d/5x5_reduce
I0123 12:52:39.079802 39683 net.cpp:606] inception_4d/5x5_reduce <- inception_4c/output_inception_4c/output_0_split_2
I0123 12:52:39.079823 39683 net.cpp:579] inception_4d/5x5_reduce -> inception_4d/5x5_reduce
I0123 12:52:39.079834 39683 net.cpp:582] From AppendTop @cpu: 0
I0123 12:52:39.081918 39683 net.cpp:219] Setting up inception_4d/5x5_reduce
I0123 12:52:39.081940 39683 net.cpp:226] Top shape: 16 32 14 14 (100352)
I0123 12:52:39.081950 39683 net.cpp:234] Memory required for data: 754891524
I0123 12:52:39.081969 39683 net.cpp:154] Setting up Layer of device :0 @cpu 0 Layer : inception_4d/relu_5x5_reduce
I0123 12:52:39.081995 39683 layer_factory.hpp:114] Creating layer inception_4d/relu_5x5_reduce
I0123 12:52:39.082011 39683 net.cpp:169] Creating Layer inception_4d/relu_5x5_reduce
I0123 12:52:39.082023 39683 net.cpp:606] inception_4d/relu_5x5_reduce <- inception_4d/5x5_reduce
I0123 12:52:39.082037 39683 net.cpp:566] inception_4d/relu_5x5_reduce -> inception_4d/5x5_reduce (in-place)
I0123 12:52:39.082056 39683 net.cpp:219] Setting up inception_4d/relu_5x5_reduce
I0123 12:52:39.082069 39683 net.cpp:226] Top shape: 16 32 14 14 (100352)
I0123 12:52:39.082078 39683 net.cpp:234] Memory required for data: 755292932
I0123 12:52:39.082090 39683 net.cpp:154] Setting up Layer of device :0 @cpu 0 Layer : inception_4d/5x5
I0123 12:52:39.082100 39683 layer_factory.hpp:114] Creating layer inception_4d/5x5
I0123 12:52:39.082118 39683 net.cpp:169] Creating Layer inception_4d/5x5
I0123 12:52:39.082129 39683 net.cpp:606] inception_4d/5x5 <- inception_4d/5x5_reduce
I0123 12:52:39.082146 39683 net.cpp:579] inception_4d/5x5 -> inception_4d/5x5
I0123 12:52:39.082157 39683 net.cpp:582] From AppendTop @cpu: 0
I0123 12:52:39.085925 39683 net.cpp:219] Setting up inception_4d/5x5
I0123 12:52:39.085947 39683 net.cpp:226] Top shape: 16 64 14 14 (200704)
I0123 12:52:39.085955 39683 net.cpp:234] Memory required for data: 756095748
I0123 12:52:39.085969 39683 net.cpp:154] Setting up Layer of device :0 @cpu 0 Layer : inception_4d/relu_5x5
I0123 12:52:39.085978 39683 layer_factory.hpp:114] Creating layer inception_4d/relu_5x5
I0123 12:52:39.085988 39683 net.cpp:169] Creating Layer inception_4d/relu_5x5
I0123 12:52:39.085996 39683 net.cpp:606] inception_4d/relu_5x5 <- inception_4d/5x5
I0123 12:52:39.086005 39683 net.cpp:566] inception_4d/relu_5x5 -> inception_4d/5x5 (in-place)
I0123 12:52:39.086017 39683 net.cpp:219] Setting up inception_4d/relu_5x5
I0123 12:52:39.086027 39683 net.cpp:226] Top shape: 16 64 14 14 (200704)
I0123 12:52:39.086035 39683 net.cpp:234] Memory required for data: 756898564
I0123 12:52:39.086042 39683 net.cpp:154] Setting up Layer of device :0 @cpu 0 Layer : inception_4d/pool
I0123 12:52:39.086050 39683 layer_factory.hpp:114] Creating layer inception_4d/pool
I0123 12:52:39.086081 39683 net.cpp:169] Creating Layer inception_4d/pool
I0123 12:52:39.086091 39683 net.cpp:606] inception_4d/pool <- inception_4c/output_inception_4c/output_0_split_3
I0123 12:52:39.086102 39683 net.cpp:579] inception_4d/pool -> inception_4d/pool
I0123 12:52:39.086115 39683 net.cpp:582] From AppendTop @cpu: 0
I0123 12:52:39.086132 39683 net.cpp:219] Setting up inception_4d/pool
I0123 12:52:39.086144 39683 net.cpp:226] Top shape: 16 512 14 14 (1605632)
I0123 12:52:39.086151 39683 net.cpp:234] Memory required for data: 763321092
I0123 12:52:39.086160 39683 net.cpp:154] Setting up Layer of device :0 @cpu 0 Layer : inception_4d/pool_proj
I0123 12:52:39.086197 39683 layer_factory.hpp:114] Creating layer inception_4d/pool_proj
I0123 12:52:39.086213 39683 net.cpp:169] Creating Layer inception_4d/pool_proj
I0123 12:52:39.086221 39683 net.cpp:606] inception_4d/pool_proj <- inception_4d/pool
I0123 12:52:39.086238 39683 net.cpp:579] inception_4d/pool_proj -> inception_4d/pool_proj
I0123 12:52:39.086246 39683 net.cpp:582] From AppendTop @cpu: 0
I0123 12:52:39.088809 39683 net.cpp:219] Setting up inception_4d/pool_proj
I0123 12:52:39.088825 39683 net.cpp:226] Top shape: 16 64 14 14 (200704)
I0123 12:52:39.088832 39683 net.cpp:234] Memory required for data: 764123908
I0123 12:52:39.088845 39683 net.cpp:154] Setting up Layer of device :0 @cpu 0 Layer : inception_4d/relu_pool_proj
I0123 12:52:39.088853 39683 layer_factory.hpp:114] Creating layer inception_4d/relu_pool_proj
I0123 12:52:39.088863 39683 net.cpp:169] Creating Layer inception_4d/relu_pool_proj
I0123 12:52:39.088872 39683 net.cpp:606] inception_4d/relu_pool_proj <- inception_4d/pool_proj
I0123 12:52:39.088881 39683 net.cpp:566] inception_4d/relu_pool_proj -> inception_4d/pool_proj (in-place)
I0123 12:52:39.088893 39683 net.cpp:219] Setting up inception_4d/relu_pool_proj
I0123 12:52:39.088902 39683 net.cpp:226] Top shape: 16 64 14 14 (200704)
I0123 12:52:39.088919 39683 net.cpp:234] Memory required for data: 764926724
I0123 12:52:39.088928 39683 net.cpp:154] Setting up Layer of device :0 @cpu 0 Layer : inception_4d/output
I0123 12:52:39.088937 39683 layer_factory.hpp:114] Creating layer inception_4d/output
I0123 12:52:39.088949 39683 net.cpp:169] Creating Layer inception_4d/output
I0123 12:52:39.088958 39683 net.cpp:606] inception_4d/output <- inception_4d/1x1
I0123 12:52:39.088966 39683 net.cpp:606] inception_4d/output <- inception_4d/3x3
I0123 12:52:39.088975 39683 net.cpp:606] inception_4d/output <- inception_4d/5x5
I0123 12:52:39.088984 39683 net.cpp:606] inception_4d/output <- inception_4d/pool_proj
I0123 12:52:39.088992 39683 net.cpp:579] inception_4d/output -> inception_4d/output
I0123 12:52:39.089000 39683 net.cpp:582] From AppendTop @cpu: 0
I0123 12:52:39.089013 39683 net.cpp:219] Setting up inception_4d/output
I0123 12:52:39.089022 39683 net.cpp:226] Top shape: 16 528 14 14 (1655808)
I0123 12:52:39.089030 39683 net.cpp:234] Memory required for data: 771549956
I0123 12:52:39.089038 39683 net.cpp:154] Setting up Layer of device :0 @cpu 0 Layer : inception_4d/output_inception_4d/output_0_split
I0123 12:52:39.089046 39683 layer_factory.hpp:114] Creating layer inception_4d/output_inception_4d/output_0_split
I0123 12:52:39.089061 39683 net.cpp:169] Creating Layer inception_4d/output_inception_4d/output_0_split
…
I0123 12:52:39.089126 39683 net.cpp:582] From AppendTop @cpu: 0
I0123 12:52:39.089138 39683 net.cpp:579] inception_4d/output_inception_4d/output_0_split -> inception_4d/output_inception_4d/output_0_split_3
I0123 12:52:39.089144 39683 net.cpp:582] From AppendTop @cpu: 0
I0123 12:52:39.089154 39683 net.cpp:579] inception_4d/output_inception_4d/output_0_split -> inception_4d/output_inception_4d/output_0_split_4
I0123 12:52:39.089170 39683 net.cpp:582] From AppendTop @cpu: 0
I0123 12:52:39.089208 39683 net.cpp:219] Setting up inception_4d/output_inception_4d/output_0_split
I0123 12:52:39.089220 39683 net.cpp:226] Top shape: 16 528 14 14 (1655808)
I0123 12:52:39.089231 39683 net.cpp:226] Top shape: 16 528 14 14 (1655808)
I0123 12:52:39.089239 39683 net.cpp:226] Top shape: 16 528 14 14 (1655808)
I0123 12:52:39.089247 39683 net.cpp:226] Top shape: 16 528 14 14 (1655808)
I0123 12:52:39.089256 39683 net.cpp:226] Top shape: 16 528 14 14 (1655808)
I0123 12:52:39.089262 39683 net.cpp:234] Memory required for data: 804666116
I0123 12:52:39.089272 39683 net.cpp:154] Setting up Layer of device :0 @cpu 0 Layer : loss2/ave_pool
I0123 12:52:39.089278 39683 layer_factory.hpp:114] Creating layer loss2/ave_pool
I0123 12:52:39.089304 39683 net.cpp:169] Creating Layer loss2/ave_pool
I0123 12:52:39.089314 39683 net.cpp:606] loss2/ave_pool <- inception_4d/output_inception_4d/output_0_split_0
I0123 12:52:39.089325 39683 net.cpp:579] loss2/ave_pool -> loss2/ave_pool
I0123 12:52:39.089334 39683 net.cpp:582] From AppendTop @cpu: 0
I0123 12:52:39.089346 39683 net.cpp:219] Setting up loss2/ave_pool
I0123 12:52:39.089356 39683 net.cpp:226] Top shape: 16 528 4 4 (135168)
I0123 12:52:39.089364 39683 net.cpp:234] Memory required for data: 805206788
I0123 12:52:39.089371 39683 net.cpp:154] Setting up Layer of device :0 @cpu 0 Layer : loss2/conv
I0123 12:52:39.089380 39683 layer_factory.hpp:114] Creating layer loss2/conv
I0123 12:52:39.089396 39683 net.cpp:169] Creating Layer loss2/conv
I0123 12:52:39.089414 39683 net.cpp:606] loss2/conv <- loss2/ave_pool
I0123 12:52:39.089426 39683 net.cpp:579] loss2/conv -> loss2/conv
I0123 12:52:39.089432 39683 net.cpp:582] From AppendTop @cpu: 0
I0123 12:52:39.091460 39683 net.cpp:219] Setting up loss2/conv
I0123 12:52:39.091476 39683 net.cpp:226] Top shape: 16 128 4 4 (32768)
I0123 12:52:39.091485 39683 net.cpp:234] Memory required for data: 805337860
I0123 12:52:39.091497 39683 net.cpp:154] Setting up Layer of device :0 @cpu 0 Layer : loss2/relu_conv
I0123 12:52:39.091505 39683 layer_factory.hpp:114] Creating layer loss2/relu_conv
I0123 12:52:39.091517 39683 net.cpp:169] Creating Layer loss2/relu_conv
I0123 12:52:39.091526 39683 net.cpp:606] loss2/relu_conv <- loss2/conv
I0123 12:52:39.091536 39683 net.cpp:566] loss2/relu_conv -> loss2/conv (in-place)
I0123 12:52:39.091547 39683 net.cpp:219] Setting up loss2/relu_conv
I0123 12:52:39.091557 39683 net.cpp:226] Top shape: 16 128 4 4 (32768)
I0123 12:52:39.091563 39683 net.cpp:234] Memory required for data: 805468932
I0123 12:52:39.091572 39683 net.cpp:154] Setting up Layer of device :0 @cpu 0 Layer : loss2/fc
I0123 12:52:39.091579 39683 layer_factory.hpp:114] Creating layer loss2/fc
I0123 12:52:39.091596 39683 net.cpp:169] Creating Layer loss2/fc
I0123 12:52:39.091604 39683 net.cpp:606] loss2/fc <- loss2/conv
I0123 12:52:39.091615 39683 net.cpp:579] loss2/fc -> loss2/fc
I0123 12:52:39.091622 39683 net.cpp:582] From AppendTop @cpu: 0
I0123 12:52:39.111449 39683 net.cpp:219] Setting up loss2/fc
I0123 12:52:39.111474 39683 net.cpp:226] Top shape: 16 1024 (16384)
I0123 12:52:39.111481 39683 net.cpp:234] Memory required for data: 805534468
I0123 12:52:39.111495 39683 net.cpp:154] Setting up Layer of device :0 @cpu 0 Layer : loss2/relu_fc
I0123 12:52:39.111502 39683 layer_factory.hpp:114] Creating layer loss2/relu_fc
I0123 12:52:39.111512 39683 net.cpp:169] Creating Layer loss2/relu_fc
I0123 12:52:39.111521 39683 net.cpp:606] loss2/relu_fc <- loss2/fc
I0123 12:52:39.111531 39683 net.cpp:566] loss2/relu_fc -> loss2/fc (in-place)
I0123 12:52:39.111542 39683 net.cpp:219] Setting up loss2/relu_fc
I0123 12:52:39.111552 39683 net.cpp:226] Top shape: 16 1024 (16384)
I0123 12:52:39.111558 39683 net.cpp:234] Memory required for data: 805600004
I0123 12:52:39.111567 39683 net.cpp:154] Setting up Layer of device :0 @cpu 0 Layer : loss2/drop_fc
I0123 12:52:39.111574 39683 layer_factory.hpp:114] Creating layer loss2/drop_fc
I0123 12:52:39.111593 39683 net.cpp:169] Creating Layer loss2/drop_fc
I0123 12:52:39.111600 39683 net.cpp:606] loss2/drop_fc <- loss2/fc
I0123 12:52:39.111613 39683 net.cpp:566] loss2/drop_fc -> loss2/fc (in-place)
I0123 12:52:39.111626 39683 net.cpp:219] Setting up loss2/drop_fc
I0123 12:52:39.111635 39683 net.cpp:226] Top shape: 16 1024 (16384)
I0123 12:52:39.111642 39683 net.cpp:234] Memory required for data: 805665540
I0123 12:52:39.111650 39683 net.cpp:154] Setting up Layer of device :0 @cpu 0 Layer : loss2/classifier
I0123 12:52:39.111657 39683 layer_factory.hpp:114] Creating layer loss2/classifier
I0123 12:52:39.111670 39683 net.cpp:169] Creating Layer loss2/classifier
I0123 12:52:39.111677 39683 net.cpp:606] loss2/classifier <- loss2/fc
I0123 12:52:39.111687 39683 net.cpp:579] loss2/classifier -> loss2/classifier
I0123 12:52:39.111696 39683 net.cpp:582] From AppendTop @cpu: 0
I0123 12:52:39.121680 39683 net.cpp:219] Setting up loss2/classifier
I0123 12:52:39.121698 39683 net.cpp:226] Top shape: 16 1000 (16000)
I0123 12:52:39.121706 39683 net.cpp:234] Memory required for data: 805729540
I0123 12:52:39.121718 39683 net.cpp:154] Setting up Layer of device :0 @cpu 0 Layer : loss2/loss
I0123 12:52:39.121726 39683 layer_factory.hpp:114] Creating layer loss2/loss
I0123 12:52:39.121737 39683 net.cpp:169] Creating Layer loss2/loss
I0123 12:52:39.121747 39683 net.cpp:606] loss2/loss <- loss2/classifier
…
I0123 12:52:39.121923 39683 net.cpp:154] Setting up Layer of device :0 @cpu 0 Layer : inception_4e/1x1
I0123 12:52:39.121930 39683 layer_factory.hpp:114] Creating layer inception_4e/1x1
I0123 12:52:39.121949 39683 net.cpp:169] Creating Layer inception_4e/1x1
I0123 12:52:39.121958 39683 net.cpp:606] inception_4e/1x1 <- inception_4d/output_inception_4d/output_0_split_1
I0123 12:52:39.121969 39683 net.cpp:579] inception_4e/1x1 -> inception_4e/1x1
I0123 12:52:39.121978 39683 net.cpp:582] From AppendTop @cpu: 0
I0123 12:52:39.126658 39683 net.cpp:219] Setting up inception_4e/1x1
I0123 12:52:39.126683 39683 net.cpp:226] Top shape: 16 256 14 14 (802816)
I0123 12:52:39.126690 39683 net.cpp:234] Memory required for data: 808940808
I0123 12:52:39.126703 39683 net.cpp:154] Setting up Layer of device :0 @cpu 0 Layer : inception_4e/relu_1x1
I0123 12:52:39.126711 39683 layer_factory.hpp:114] Creating layer inception_4e/relu_1x1
I0123 12:52:39.126724 39683 net.cpp:169] Creating Layer inception_4e/relu_1x1
I0123 12:52:39.126732 39683 net.cpp:606] inception_4e/relu_1x1 <- inception_4e/1x1
I0123 12:52:39.126742 39683 net.cpp:566] inception_4e/relu_1x1 -> inception_4e/1x1 (in-place)
I0123 12:52:39.126754 39683 net.cpp:219] Setting up inception_4e/relu_1x1
I0123 12:52:39.126762 39683 net.cpp:226] Top shape: 16 256 14 14 (802816)
I0123 12:52:39.126770 39683 net.cpp:234] Memory required for data: 812152072
I0123 12:52:39.126778 39683 net.cpp:154] Setting up Layer of device :0 @cpu 0 Layer : inception_4e/3x3_reduce
I0123 12:52:39.126785 39683 layer_factory.hpp:114] Creating layer inception_4e/3x3_reduce
I0123 12:52:39.126801 39683 net.cpp:169] Creating Layer inception_4e/3x3_reduce
I0123 12:52:39.126809 39683 net.cpp:606] inception_4e/3x3_reduce <- inception_4d/output_inception_4d/output_0_split_2
I0123 12:52:39.126824 39683 net.cpp:579] inception_4e/3x3_reduce -> inception_4e/3x3_reduce
I0123 12:52:39.126832 39683 net.cpp:582] From AppendTop @cpu: 0
I0123 12:52:39.130556 39683 net.cpp:219] Setting up inception_4e/3x3_reduce
I0123 12:52:39.130573 39683 net.cpp:226] Top shape: 16 160 14 14 (501760)
I0123 12:52:39.130585 39683 net.cpp:234] Memory required for data: 814159112
I0123 12:52:39.130599 39683 net.cpp:154] Setting up Layer of device :0 @cpu 0 Layer : inception_4e/relu_3x3_reduce
I0123 12:52:39.130607 39683 layer_factory.hpp:114] Creating layer inception_4e/relu_3x3_reduce
I0123 12:52:39.130617 39683 net.cpp:169] Creating Layer inception_4e/relu_3x3_reduce
I0123 12:52:39.130626 39683 net.cpp:606] inception_4e/relu_3x3_reduce <- inception_4e/3x3_reduce
I0123 12:52:39.130638 39683 net.cpp:566] inception_4e/relu_3x3_reduce -> inception_4e/3x3_reduce (in-place)
I0123 12:52:39.130650 39683 net.cpp:219] Setting up inception_4e/relu_3x3_reduce
I0123 12:52:39.130658 39683 net.cpp:226] Top shape: 16 160 14 14 (501760)
I0123 12:52:39.130666 39683 net.cpp:234] Memory required for data: 816166152
I0123 12:52:39.130674 39683 net.cpp:154] Setting up Layer of device :0 @cpu 0 Layer : inception_4e/3x3
I0123 12:52:39.130681 39683 layer_factory.hpp:114] Creating layer inception_4e/3x3
I0123 12:52:39.130697 39683 net.cpp:169] Creating Layer inception_4e/3x3
I0123 12:52:39.130705 39683 net.cpp:606] inception_4e/3x3 <- inception_4e/3x3_reduce
I0123 12:52:39.130718 39683 net.cpp:579] inception_4e/3x3 -> inception_4e/3x3
I0123 12:52:39.130725 39683 net.cpp:582] From AppendTop @cpu: 0
I0123 12:52:39.144441 39683 net.cpp:219] Setting up inception_4e/3x3
I0123 12:52:39.144465 39683 net.cpp:226] Top shape: 16 320 14 14 (1003520)
I0123 12:52:39.144472 39683 net.cpp:234] Memory required for data: 820180232
I0123 12:52:39.144485 39683 net.cpp:154] Setting up Layer of device :0 @cpu 0 Layer : inception_4e/relu_3x3
I0123 12:52:39.144493 39683 layer_factory.hpp:114] Creating layer inception_4e/relu_3x3
I0123 12:52:39.144520 39683 net.cpp:169] Creating Layer inception_4e/relu_3x3
I0123 12:52:39.144529 39683 net.cpp:606] inception_4e/relu_3x3 <- inception_4e/3x3
I0123 12:52:39.144539 39683 net.cpp:566] inception_4e/relu_3x3 -> inception_4e/3x3 (in-place)
I0123 12:52:39.144551 39683 net.cpp:219] Setting up inception_4e/relu_3x3
I0123 12:52:39.144559 39683 net.cpp:226] Top shape: 16 320 14 14 (1003520)
I0123 12:52:39.144567 39683 net.cpp:234] Memory required for data: 824194312
I0123 12:52:39.144574 39683 net.cpp:154] Setting up Layer of device :0 @cpu 0 Layer : inception_4e/5x5_reduce
I0123 12:52:39.144582 39683 layer_factory.hpp:114] Creating layer inception_4e/5x5_reduce
I0123 12:52:39.144600 39683 net.cpp:169] Creating Layer inception_4e/5x5_reduce
I0123 12:52:39.144609 39683 net.cpp:606] inception_4e/5x5_reduce <- inception_4d/output_inception_4d/output_0_split_3
I0123 12:52:39.144623 39683 net.cpp:579] inception_4e/5x5_reduce -> inception_4e/5x5_reduce
I0123 12:52:39.144630 39683 net.cpp:582] From AppendTop @cpu: 0
I0123 12:52:39.146409 39683 net.cpp:219] Setting up inception_4e/5x5_reduce
I0123 12:52:39.146427 39683 net.cpp:226] Top shape: 16 32 14 14 (100352)
I0123 12:52:39.146435 39683 net.cpp:234] Memory required for data: 824595720
I0123 12:52:39.146447 39683 net.cpp:154] Setting up Layer of device :0 @cpu 0 Layer : inception_4e/relu_5x5_reduce
I0123 12:52:39.146456 39683 layer_factory.hpp:114] Creating layer inception_4e/relu_5x5_reduce
I0123 12:52:39.146466 39683 net.cpp:169] Creating Layer inception_4e/relu_5x5_reduce
I0123 12:52:39.146473 39683 net.cpp:606] inception_4e/relu_5x5_reduce <- inception_4e/5x5_reduce
I0123 12:52:39.146483 39683 net.cpp:566] inception_4e/relu_5x5_reduce -> inception_4e/5x5_reduce (in-place)
I0123 12:52:39.146493 39683 net.cpp:219] Setting up inception_4e/relu_5x5_reduce
I0123 12:52:39.146502 39683 net.cpp:226] Top shape: 16 32 14 14 (100352)
I0123 12:52:39.146509 39683 net.cpp:234] Memory required for data: 824997128
I0123 12:52:39.146518 39683 net.cpp:154] Setting up Layer of device :0 @cpu 0 Layer : inception_4e/5x5
I0123 12:52:39.146525 39683 layer_factory.hpp:114] Creating layer inception_4e/5x5
I0123 12:52:39.146553 39683 net.cpp:169] Creating Layer inception_4e/5x5
I0123 12:52:39.146561 39683 net.cpp:606] inception_4e/5x5 <- inception_4e/5x5_reduce
I0123 12:52:39.146574 39683 net.cpp:579] inception_4e/5x5 -> inception_4e/5x5
I0123 12:52:39.146587 39683 net.cpp:582] From AppendTop @cpu: 0
I0123 12:52:39.151302 39683 net.cpp:219] Setting up inception_4e/5x5
I0123 12:52:39.151319 39683 net.cpp:226] Top shape: 16 128 14 14 (401408)
I0123 12:52:39.151326 39683 net.cpp:234] Memory required for data: 826602760
I0123 12:52:39.151340 39683 net.cpp:154] Setting up Layer of device :0 @cpu 0 Layer : inception_4e/relu_5x5
I0123 12:52:39.151347 39683 layer_factory.hpp:114] Creating layer inception_4e/relu_5x5
I0123 12:52:39.151357 39683 net.cpp:169] Creating Layer inception_4e/relu_5x5
I0123 12:52:39.151365 39683 net.cpp:606] inception_4e/relu_5x5 <- inception_4e/5x5
I0123 12:52:39.151377 39683 net.cpp:566] inception_4e/relu_5x5 -> inception_4e/5x5 (in-place)
I0123 12:52:39.151388 39683 net.cpp:219] Setting up inception_4e/relu_5x5
I0123 12:52:39.151398 39683 net.cpp:226] Top shape: 16 128 14 14 (401408)
I0123 12:52:39.151404 39683 net.cpp:234] Memory required for data: 828208392
I0123 12:52:39.151413 39683 net.cpp:154] Setting up Layer of device :0 @cpu 0 Layer : inception_4e/pool
I0123 12:52:39.151420 39683 layer_factory.hpp:114] Creating layer inception_4e/pool
I0123 12:52:39.151474 39683 net.cpp:169] Creating Layer inception_4e/pool
I0123 12:52:39.151484 39683 net.cpp:606] inception_4e/pool <- inception_4d/output_inception_4d/output_0_split_4
I0123 12:52:39.151499 39683 net.cpp:579] inception_4e/pool -> inception_4e/pool
I0123 12:52:39.151506 39683 net.cpp:582] From AppendTop @cpu: 0
I0123 12:52:39.151520 39683 net.cpp:219] Setting up inception_4e/pool
I0123 12:52:39.151530 39683 net.cpp:226] Top shape: 16 528 14 14 (1655808)
I0123 12:52:39.151547 39683 net.cpp:234] Memory required for data: 834831624
I0123 12:52:39.151556 39683 net.cpp:154] Setting up Layer of device :0 @cpu 0 Layer : inception_4e/pool_proj
I0123 12:52:39.151563 39683 layer_factory.hpp:114] Creating layer inception_4e/pool_proj
I0123 12:52:39.151582 39683 net.cpp:169] Creating Layer inception_4e/pool_proj
I0123 12:52:39.151592 39683 net.cpp:606] inception_4e/pool_proj <- inception_4e/pool
I0123 12:52:39.151604 39683 net.cpp:579] inception_4e/pool_proj -> inception_4e/pool_proj
I0123 12:52:39.151612 39683 net.cpp:582] From AppendTop @cpu: 0
I0123 12:52:39.154866 39683 net.cpp:219] Setting up inception_4e/pool_proj
I0123 12:52:39.154882 39683 net.cpp:226] Top shape: 16 128 14 14 (401408)
I0123 12:52:39.154891 39683 net.cpp:234] Memory required for data: 836437256
I0123 12:52:39.154902 39683 net.cpp:154] Setting up Layer of device :0 @cpu 0 Layer : inception_4e/relu_pool_proj
I0123 12:52:39.154911 39683 layer_factory.hpp:114] Creating layer inception_4e/relu_pool_proj
I0123 12:52:39.154923 39683 net.cpp:169] Creating Layer inception_4e/relu_pool_proj
I0123 12:52:39.154932 39683 net.cpp:606] inception_4e/relu_pool_proj <- inception_4e/pool_proj
I0123 12:52:39.154942 39683 net.cpp:566] inception_4e/relu_pool_proj -> inception_4e/pool_proj (in-place)
I0123 12:52:39.154953 39683 net.cpp:219] Setting up inception_4e/relu_pool_proj
I0123 12:52:39.154963 39683 net.cpp:226] Top shape: 16 128 14 14 (401408)
I0123 12:52:39.154968 39683 net.cpp:234] Memory required for data: 838042888
I0123 12:52:39.154978 39683 net.cpp:154] Setting up Layer of device :0 @cpu 0 Layer : inception_4e/output
I0123 12:52:39.154984 39683 layer_factory.hpp:114] Creating layer inception_4e/output
I0123 12:52:39.154997 39683 net.cpp:169] Creating Layer inception_4e/output
I0123 12:52:39.155006 39683 net.cpp:606] inception_4e/output <- inception_4e/1x1
I0123 12:52:39.155014 39683 net.cpp:606] inception_4e/output <- inception_4e/3x3
I0123 12:52:39.155024 39683 net.cpp:606] inception_4e/output <- inception_4e/5x5
I0123 12:52:39.155031 39683 net.cpp:606] inception_4e/output <- inception_4e/pool_proj
I0123 12:52:39.155040 39683 net.cpp:579] inception_4e/output -> inception_4e/output
I0123 12:52:39.155048 39683 net.cpp:582] From AppendTop @cpu: 0
I0123 12:52:39.155061 39683 net.cpp:219] Setting up inception_4e/output
I0123 12:52:39.155071 39683 net.cpp:226] Top shape: 16 832 14 14 (2609152)
I0123 12:52:39.155084 39683 net.cpp:234] Memory required for data: 848479496
I0123 12:52:39.155093 39683 net.cpp:154] Setting up Layer of device :0 @cpu 0 Layer : pool4/3x3_s2
I0123 12:52:39.155100 39683 layer_factory.hpp:114] Creating layer pool4/3x3_s2
I0123 12:52:39.155151 39683 net.cpp:169] Creating Layer pool4/3x3_s2
I0123 12:52:39.155161 39683 net.cpp:606] pool4/3x3_s2 <- inception_4e/output
I0123 12:52:39.155201 39683 net.cpp:579] pool4/3x3_s2 -> pool4/3x3_s2
I0123 12:52:39.155210 39683 net.cpp:582] From AppendTop @cpu: 0
I0123 12:52:39.155225 39683 net.cpp:219] Setting up pool4/3x3_s2
I0123 12:52:39.155234 39683 net.cpp:226] Top shape: 16 832 7 7 (652288)
I0123 12:52:39.155241 39683 net.cpp:234] Memory required for data: 851088648
I0123 12:52:39.155249 39683 net.cpp:154] Setting up Layer of device :0 @cpu 0 Layer : pool4/3x3_s2_pool4/3x3_s2_0_split
I0123 12:52:39.155257 39683 layer_factory.hpp:114] Creating layer pool4/3x3_s2_pool4/3x3_s2_0_split
I0123 12:52:39.155267 39683 net.cpp:169] Creating Layer pool4/3x3_s2_pool4/3x3_s2_0_split
I0123 12:52:39.155275 39683 net.cpp:606] pool4/3x3_s2_pool4/3x3_s2_0_split <- pool4/3x3_s2
I0123 12:52:39.155284 39683 net.cpp:579] pool4/3x3_s2_pool4/3x3_s2_0_split -> pool4/3x3_s2_pool4/3x3_s2_0_split_0
I0123 12:52:39.155292 39683 net.cpp:582] From AppendTop @cpu: 0
I0123 12:52:39.155303 39683 net.cpp:579] pool4/3x3_s2_pool4/3x3_s2_0_split -> pool4/3x3_s2_pool4/3x3_s2_0_split_1
I0123 12:52:39.155309 39683 net.cpp:582] From AppendTop @cpu: 0
I0123 12:52:39.155319 39683 net.cpp:579] pool4/3x3_s2_pool4/3x3_s2_0_split -> pool4/3x3_s2_pool4/3x3_s2_0_split_2
I0123 12:52:39.155328 39683 net.cpp:582] From AppendTop @cpu: 0
I0123 12:52:39.155347 39683 net.cpp:579] pool4/3x3_s2_pool4/3x3_s2_0_split -> pool4/3x3_s2_pool4/3x3_s2_0_split_3
I0123 12:52:39.155355 39683 net.cpp:582] From AppendTop @cpu: 0
I0123 12:52:39.155371 39683 net.cpp:219] Setting up pool4/3x3_s2_pool4/3x3_s2_0_split
I0123 12:52:39.155381 39683 net.cpp:226] Top shape: 16 832 7 7 (652288)
I0123 12:52:39.155390 39683 net.cpp:226] Top shape: 16 832 7 7 (652288)
I0123 12:52:39.155398 39683 net.cpp:226] Top shape: 16 832 7 7 (652288)
I0123 12:52:39.155406 39683 net.cpp:226] Top shape: 16 832 7 7 (652288)
I0123 12:52:39.155413 39683 net.cpp:234] Memory required for data: 861525256
I0123 12:52:39.155422 39683 net.cpp:154] Setting up Layer of device :0 @cpu 0 Layer : inception_5a/1x1
I0123 12:52:39.155429 39683 layer_factory.hpp:114] Creating layer inception_5a/1x1
I0123 12:52:39.155442 39683 net.cpp:169] Creating Layer inception_5a/1x1
I0123 12:52:39.155450 39683 net.cpp:606] inception_5a/1x1 <- pool4/3x3_s2_pool4/3x3_s2_0_split_0
I0123 12:52:39.155463 39683 net.cpp:579] inception_5a/1x1 -> inception_5a/1x1
I0123 12:52:39.155472 39683 net.cpp:582] From AppendTop @cpu: 0
I0123 12:52:39.160954 39683 net.cpp:219] Setting up inception_5a/1x1
I0123 12:52:39.160970 39683 net.cpp:226] Top shape: 16 256 7 7 (200704)
I0123 12:52:39.160979 39683 net.cpp:234] Memory required for data: 862328072
I0123 12:52:39.160991 39683 net.cpp:154] Setting up Layer of device :0 @cpu 0 Layer : inception_5a/relu_1x1
I0123 12:52:39.160998 39683 layer_factory.hpp:114] Creating layer inception_5a/relu_1x1
I0123 12:52:39.161010 39683 net.cpp:169] Creating Layer inception_5a/relu_1x1
I0123 12:52:39.161017 39683 net.cpp:606] inception_5a/relu_1x1 <- inception_5a/1x1
I0123 12:52:39.161026 39683 net.cpp:566] inception_5a/relu_1x1 -> inception_5a/1x1 (in-place)
I0123 12:52:39.161037 39683 net.cpp:219] Setting up inception_5a/relu_1x1
I0123 12:52:39.161046 39683 net.cpp:226] Top shape: 16 256 7 7 (200704)
I0123 12:52:39.161053 39683 net.cpp:234] Memory required for data: 863130888
I0123 12:52:39.161062 39683 net.cpp:154] Setting up Layer of device :0 @cpu 0 Layer : inception_5a/3x3_reduce
I0123 12:52:39.161069 39683 layer_factory.hpp:114] Creating layer inception_5a/3x3_reduce
I0123 12:52:39.161084 39683 net.cpp:169] Creating Layer inception_5a/3x3_reduce
I0123 12:52:39.161093 39683 net.cpp:606] inception_5a/3x3_reduce <- pool4/3x3_s2_pool4/3x3_s2_0_split_1
I0123 12:52:39.161103 39683 net.cpp:579] inception_5a/3x3_reduce -> inception_5a/3x3_reduce
I0123 12:52:39.161118 39683 net.cpp:582] From AppendTop @cpu: 0
I0123 12:52:39.164913 39683 net.cpp:219] Setting up inception_5a/3x3_reduce
I0123 12:52:39.164930 39683 net.cpp:226] Top shape: 16 160 7 7 (125440)
I0123 12:52:39.164937 39683 net.cpp:234] Memory required for data: 863632648
I0123 12:52:39.164950 39683 net.cpp:154] Setting up Layer of device :0 @cpu 0 Layer : inception_5a/relu_3x3_reduce
I0123 12:52:39.164958 39683 layer_factory.hpp:114] Creating layer inception_5a/relu_3x3_reduce
I0123 12:52:39.164968 39683 net.cpp:169] Creating Layer inception_5a/relu_3x3_reduce
I0123 12:52:39.164976 39683 net.cpp:606] inception_5a/relu_3x3_reduce <- inception_5a/3x3_reduce
I0123 12:52:39.164988 39683 net.cpp:566] inception_5a/relu_3x3_reduce -> inception_5a/3x3_reduce (in-place)
I0123 12:52:39.165000 39683 net.cpp:219] Setting up inception_5a/relu_3x3_reduce
I0123 12:52:39.165009 39683 net.cpp:226] Top shape: 16 160 7 7 (125440)
I0123 12:52:39.165016 39683 net.cpp:234] Memory required for data: 864134408
I0123 12:52:39.165024 39683 net.cpp:154] Setting up Layer of device :0 @cpu 0 Layer : inception_5a/3x3
I0123 12:52:39.165032 39683 layer_factory.hpp:114] Creating layer inception_5a/3x3
I0123 12:52:39.165045 39683 net.cpp:169] Creating Layer inception_5a/3x3
I0123 12:52:39.165053 39683 net.cpp:606] inception_5a/3x3 <- inception_5a/3x3_reduce
I0123 12:52:39.165063 39683 net.cpp:579] inception_5a/3x3 -> inception_5a/3x3
I0123 12:52:39.165071 39683 net.cpp:582] From AppendTop @cpu: 0
I0123 12:52:39.176447 39683 net.cpp:219] Setting up inception_5a/3x3
I0123 12:52:39.176481 39683 net.cpp:226] Top shape: 16 320 7 7 (250880)
I0123 12:52:39.176487 39683 net.cpp:234] Memory required for data: 865137928
I0123 12:52:39.176501 39683 net.cpp:154] Setting up Layer of device :0 @cpu 0 Layer : inception_5a/relu_3x3
I0123 12:52:39.176508 39683 layer_factory.hpp:114] Creating layer inception_5a/relu_3x3
I0123 12:52:39.176519 39683 net.cpp:169] Creating Layer inception_5a/relu_3x3
I0123 12:52:39.176527 39683 net.cpp:606] inception_5a/relu_3x3 <- inception_5a/3x3
I0123 12:52:39.176537 39683 net.cpp:566] inception_5a/relu_3x3 -> inception_5a/3x3 (in-place)
I0123 12:52:39.176548 39683 net.cpp:219] Setting up inception_5a/relu_3x3
I0123 12:52:39.176556 39683 net.cpp:226] Top shape: 16 320 7 7 (250880)
I0123 12:52:39.176563 39683 net.cpp:234] Memory required for data: 866141448
I0123 12:52:39.176573 39683 net.cpp:154] Setting up Layer of device :0 @cpu 0 Layer : inception_5a/5x5_reduce
I0123 12:52:39.176579 39683 layer_factory.hpp:114] Creating layer inception_5a/5x5_reduce
I0123 12:52:39.176595 39683 net.cpp:169] Creating Layer inception_5a/5x5_reduce
I0123 12:52:39.176604 39683 net.cpp:606] inception_5a/5x5_reduce <- pool4/3x3_s2_pool4/3x3_s2_0_split_2
I0123 12:52:39.176615 39683 net.cpp:579] inception_5a/5x5_reduce -> inception_5a/5x5_reduce
I0123 12:52:39.176622 39683 net.cpp:582] From AppendTop @cpu: 0
I0123 12:52:39.177803 39683 net.cpp:219] Setting up inception_5a/5x5_reduce
I0123 12:52:39.177819 39683 net.cpp:226] Top shape: 16 32 7 7 (25088)
I0123 12:52:39.177826 39683 net.cpp:234] Memory required for data: 866241800
I0123 12:52:39.177839 39683 net.cpp:154] Setting up Layer of device :0 @cpu 0 Layer : inception_5a/relu_5x5_reduce
I0123 12:52:39.177846 39683 layer_factory.hpp:114] Creating layer inception_5a/relu_5x5_reduce
I0123 12:52:39.177856 39683 net.cpp:169] Creating Layer inception_5a/relu_5x5_reduce
I0123 12:52:39.177865 39683 net.cpp:606] inception_5a/relu_5x5_reduce <- inception_5a/5x5_reduce
I0123 12:52:39.177877 39683 net.cpp:566] inception_5a/relu_5x5_reduce -> inception_5a/5x5_reduce (in-place)
I0123 12:52:39.177888 39683 net.cpp:219] Setting up inception_5a/relu_5x5_reduce
I0123 12:52:39.177897 39683 net.cpp:226] Top shape: 16 32 7 7 (25088)
I0123 12:52:39.177904 39683 net.cpp:234] Memory required for data: 866342152
I0123 12:52:39.177913 39683 net.cpp:154] Setting up Layer of device :0 @cpu 0 Layer : inception_5a/5x5
I0123 12:52:39.177920 39683 layer_factory.hpp:114] Creating layer inception_5a/5x5
I0123 12:52:39.177940 39683 net.cpp:169] Creating Layer inception_5a/5x5
I0123 12:52:39.177949 39683 net.cpp:606] inception_5a/5x5 <- inception_5a/5x5_reduce
I0123 12:52:39.177960 39683 net.cpp:579] inception_5a/5x5 -> inception_5a/5x5
I0123 12:52:39.177968 39683 net.cpp:582] From AppendTop @cpu: 0
I0123 12:52:39.181380 39683 net.cpp:219] Setting up inception_5a/5x5
I0123 12:52:39.181396 39683 net.cpp:226] Top shape: 16 128 7 7 (100352)
I0123 12:52:39.181402 39683 net.cpp:234] Memory required for data: 866743560
I0123 12:52:39.181416 39683 net.cpp:154] Setting up Layer of device :0 @cpu 0 Layer : inception_5a/relu_5x5
I0123 12:52:39.181422 39683 layer_factory.hpp:114] Creating layer inception_5a/relu_5x5
I0123 12:52:39.181437 39683 net.cpp:169] Creating Layer inception_5a/relu_5x5
I0123 12:52:39.181445 39683 net.cpp:606] inception_5a/relu_5x5 <- inception_5a/5x5
I0123 12:52:39.181457 39683 net.cpp:566] inception_5a/relu_5x5 -> inception_5a/5x5 (in-place)
I0123 12:52:39.181468 39683 net.cpp:219] Setting up inception_5a/relu_5x5
I0123 12:52:39.181478 39683 net.cpp:226] Top shape: 16 128 7 7 (100352)
I0123 12:52:39.181484 39683 net.cpp:234] Memory required for data: 867144968
I0123 12:52:39.181493 39683 net.cpp:154] Setting up Layer of device :0 @cpu 0 Layer : inception_5a/pool
I0123 12:52:39.181500 39683 layer_factory.hpp:114] Creating layer inception_5a/pool
I0123 12:52:39.181587 39683 net.cpp:169] Creating Layer inception_5a/pool
I0123 12:52:39.181598 39683 net.cpp:606] inception_5a/pool <- pool4/3x3_s2_pool4/3x3_s2_0_split_3
I0123 12:52:39.181609 39683 net.cpp:579] inception_5a/pool -> inception_5a/pool
I0123 12:52:39.181625 39683 net.cpp:582] From AppendTop @cpu: 0
I0123 12:52:39.181640 39683 net.cpp:219] Setting up inception_5a/pool
I0123 12:52:39.181650 39683 net.cpp:226] Top shape: 16 832 7 7 (652288)
I0123 12:52:39.181658 39683 net.cpp:234] Memory required for data: 869754120
I0123 12:52:39.181666 39683 net.cpp:154] Setting up Layer of device :0 @cpu 0 Layer : inception_5a/pool_proj
I0123 12:52:39.181674 39683 layer_factory.hpp:114] Creating layer inception_5a/pool_proj
I0123 12:52:39.181690 39683 net.cpp:169] Creating Layer inception_5a/pool_proj
I0123 12:52:39.181699 39683 net.cpp:606] inception_5a/pool_proj <- inception_5a/pool
I0123 12:52:39.181710 39683 net.cpp:579] inception_5a/pool_proj -> inception_5a/pool_proj
I0123 12:52:39.181717 39683 net.cpp:582] From AppendTop @cpu: 0
I0123 12:52:39.184870 39683 net.cpp:219] Setting up inception_5a/pool_proj
I0123 12:52:39.184885 39683 net.cpp:226] Top shape: 16 128 7 7 (100352)
I0123 12:52:39.184892 39683 net.cpp:234] Memory required for data: 870155528
I0123 12:52:39.184906 39683 net.cpp:154] Setting up Layer of device :0 @cpu 0 Layer : inception_5a/relu_pool_proj
I0123 12:52:39.184913 39683 layer_factory.hpp:114] Creating layer inception_5a/relu_pool_proj
I0123 12:52:39.184927 39683 net.cpp:169] Creating Layer inception_5a/relu_pool_proj
I0123 12:52:39.184936 39683 net.cpp:606] inception_5a/relu_pool_proj <- inception_5a/pool_proj
I0123 12:52:39.184945 39683 net.cpp:566] inception_5a/relu_pool_proj -> inception_5a/pool_proj (in-place)
I0123 12:52:39.184957 39683 net.cpp:219] Setting up inception_5a/relu_pool_proj
I0123 12:52:39.184965 39683 net.cpp:226] Top shape: 16 128 7 7 (100352)
I0123 12:52:39.184973 39683 net.cpp:234] Memory required for data: 870556936
I0123 12:52:39.184980 39683 net.cpp:154] Setting up Layer of device :0 @cpu 0 Layer : inception_5a/output
I0123 12:52:39.184988 39683 layer_factory.hpp:114] Creating layer inception_5a/output
I0123 12:52:39.184998 39683 net.cpp:169] Creating Layer inception_5a/output
I0123 12:52:39.185006 39683 net.cpp:606] inception_5a/output <- inception_5a/1x1
I0123 12:52:39.185014 39683 net.cpp:606] inception_5a/output <- inception_5a/3x3
I0123 12:52:39.185024 39683 net.cpp:606] inception_5a/output <- inception_5a/5x5
I0123 12:52:39.185031 39683 net.cpp:606] inception_5a/output <- inception_5a/pool_proj
I0123 12:52:39.185040 39683 net.cpp:579] inception_5a/output -> inception_5a/output
I0123 12:52:39.185060 39683 net.cpp:582] From AppendTop @cpu: 0
I0123 12:52:39.185072 39683 net.cpp:219] Setting up inception_5a/output
I0123 12:52:39.185082 39683 net.cpp:226] Top shape: 16 832 7 7 (652288)
I0123 12:52:39.185089 39683 net.cpp:234] Memory required for data: 873166088
I0123 12:52:39.185097 39683 net.cpp:154] Setting up Layer of device :0 @cpu 0 Layer : inception_5a/output_inception_5a/output_0_split
I0123 12:52:39.185106 39683 layer_factory.hpp:114] Creating layer inception_5a/output_inception_5a/output_0_split
I0123 12:52:39.185115 39683 net.cpp:169] Creating Layer inception_5a/output_inception_5a/output_0_split
…
I0123 12:52:39.185163 39683 net.cpp:582] From AppendTop @cpu: 0
I0123 12:52:39.185202 39683 net.cpp:579] inception_5a/output_inception_5a/output_0_split -> inception_5a/output_inception_5a/output_0_split_2
I0123 12:52:39.185211 39683 net.cpp:582] From AppendTop @cpu: 0
I0123 12:52:39.185222 39683 net.cpp:579] inception_5a/output_inception_5a/output_0_split -> inception_5a/output_inception_5a/output_0_split_3
I0123 12:52:39.185230 39683 net.cpp:582] From AppendTop @cpu: 0
I0123 12:52:39.185240 39683 net.cpp:219] Setting up inception_5a/output_inception_5a/output_0_split
I0123 12:52:39.185262 39683 net.cpp:226] Top shape: 16 832 7 7 (652288)
I0123 12:52:39.185271 39683 net.cpp:226] Top shape: 16 832 7 7 (652288)
I0123 12:52:39.185278 39683 net.cpp:226] Top shape: 16 832 7 7 (652288)
I0123 12:52:39.185286 39683 net.cpp:226] Top shape: 16 832 7 7 (652288)
I0123 12:52:39.185293 39683 net.cpp:234] Memory required for data: 883602696
I0123 12:52:39.185302 39683 net.cpp:154] Setting up Layer of device :0 @cpu 0 Layer : inception_5b/1x1
I0123 12:52:39.185310 39683 layer_factory.hpp:114] Creating layer inception_5b/1x1
I0123 12:52:39.185326 39683 net.cpp:169] Creating Layer inception_5b/1x1
I0123 12:52:39.185335 39683 net.cpp:606] inception_5b/1x1 <- inception_5a/output_inception_5a/output_0_split_0
I0123 12:52:39.185345 39683 net.cpp:579] inception_5b/1x1 -> inception_5b/1x1
I0123 12:52:39.185353 39683 net.cpp:582] From AppendTop @cpu: 0
I0123 12:52:39.193516 39683 net.cpp:219] Setting up inception_5b/1x1
I0123 12:52:39.193536 39683 net.cpp:226] Top shape: 16 384 7 7 (301056)
I0123 12:52:39.193543 39683 net.cpp:234] Memory required for data: 884806920
I0123 12:52:39.193564 39683 net.cpp:154] Setting up Layer of device :0 @cpu 0 Layer : inception_5b/relu_1x1
I0123 12:52:39.193572 39683 layer_factory.hpp:114] Creating layer inception_5b/relu_1x1
I0123 12:52:39.193585 39683 net.cpp:169] Creating Layer inception_5b/relu_1x1
I0123 12:52:39.193593 39683 net.cpp:606] inception_5b/relu_1x1 <- inception_5b/1x1
I0123 12:52:39.193603 39683 net.cpp:566] inception_5b/relu_1x1 -> inception_5b/1x1 (in-place)
I0123 12:52:39.193614 39683 net.cpp:219] Setting up inception_5b/relu_1x1
I0123 12:52:39.193624 39683 net.cpp:226] Top shape: 16 384 7 7 (301056)
I0123 12:52:39.193630 39683 net.cpp:234] Memory required for data: 886011144
I0123 12:52:39.193639 39683 net.cpp:154] Setting up Layer of device :0 @cpu 0 Layer : inception_5b/3x3_reduce
I0123 12:52:39.193646 39683 layer_factory.hpp:114] Creating layer inception_5b/3x3_reduce
I0123 12:52:39.193660 39683 net.cpp:169] Creating Layer inception_5b/3x3_reduce
I0123 12:52:39.193667 39683 net.cpp:606] inception_5b/3x3_reduce <- inception_5a/output_inception_5a/output_0_split_1
I0123 12:52:39.193681 39683 net.cpp:579] inception_5b/3x3_reduce -> inception_5b/3x3_reduce
I0123 12:52:39.193688 39683 net.cpp:582] From AppendTop @cpu: 0
I0123 12:52:39.198155 39683 net.cpp:219] Setting up inception_5b/3x3_reduce
I0123 12:52:39.198205 39683 net.cpp:226] Top shape: 16 192 7 7 (150528)
I0123 12:52:39.198215 39683 net.cpp:234] Memory required for data: 886613256
I0123 12:52:39.198227 39683 net.cpp:154] Setting up Layer of device :0 @cpu 0 Layer : inception_5b/relu_3x3_reduce
I0123 12:52:39.198235 39683 layer_factory.hpp:114] Creating layer inception_5b/relu_3x3_reduce
I0123 12:52:39.198246 39683 net.cpp:169] Creating Layer inception_5b/relu_3x3_reduce
I0123 12:52:39.198253 39683 net.cpp:606] inception_5b/relu_3x3_reduce <- inception_5b/3x3_reduce
I0123 12:52:39.198262 39683 net.cpp:566] inception_5b/relu_3x3_reduce -> inception_5b/3x3_reduce (in-place)
I0123 12:52:39.198274 39683 net.cpp:219] Setting up inception_5b/relu_3x3_reduce
I0123 12:52:39.198283 39683 net.cpp:226] Top shape: 16 192 7 7 (150528)
I0123 12:52:39.198290 39683 net.cpp:234] Memory required for data: 887215368
I0123 12:52:39.198298 39683 net.cpp:154] Setting up Layer of device :0 @cpu 0 Layer : inception_5b/3x3
I0123 12:52:39.198307 39683 layer_factory.hpp:114] Creating layer inception_5b/3x3
I0123 12:52:39.198321 39683 net.cpp:169] Creating Layer inception_5b/3x3
I0123 12:52:39.198329 39683 net.cpp:606] inception_5b/3x3 <- inception_5b/3x3_reduce
I0123 12:52:39.198340 39683 net.cpp:579] inception_5b/3x3 -> inception_5b/3x3
I0123 12:52:39.198348 39683 net.cpp:582] From AppendTop @cpu: 0
I0123 12:52:39.214825 39683 net.cpp:219] Setting up inception_5b/3x3
I0123 12:52:39.214871 39683 net.cpp:226] Top shape: 16 384 7 7 (301056)
I0123 12:52:39.214879 39683 net.cpp:234] Memory required for data: 888419592
I0123 12:52:39.214892 39683 net.cpp:154] Setting up Layer of device :0 @cpu 0 Layer : inception_5b/relu_3x3
I0123 12:52:39.214910 39683 layer_factory.hpp:114] Creating layer inception_5b/relu_3x3
…
I0123 12:52:39.547596 39683 net.cpp:226] Top shape: 50 64 14 14 (627200)
I0123 12:52:39.547603 39683 net.cpp:234] Memory required for data: 2363400412
I0123 12:52:39.547616 39683 net.cpp:154] Setting up Layer of device :0 @cpu 0 Layer : inception_4d/relu_5x5
I0123 12:52:39.547622 39683 layer_factory.hpp:114] Creating layer inception_4d/relu_5x5
I0123 12:52:39.547637 39683 net.cpp:169] Creating Layer inception_4d/relu_5x5
I0123 12:52:39.547646 39683 net.cpp:606] inception_4d/relu_5x5 <- inception_4d/5x5
I0123 12:52:39.547654 39683 net.cpp:566] inception_4d/relu_5x5 -> inception_4d/5x5 (in-place)
I0123 12:52:39.547664 39683 net.cpp:219] Setting up inception_4d/relu_5x5
I0123 12:52:39.547672 39683 net.cpp:226] Top shape: 50 64 14 14 (627200)
I0123 12:52:39.547679 39683 net.cpp:234] Memory required for data: 2365909212
I0123 12:52:39.547688 39683 net.cpp:154] Setting up Layer of device :0 @cpu 0 Layer : inception_4d/pool
I0123 12:52:39.547693 39683 layer_factory.hpp:114] Creating layer inception_4d/pool
I0123 12:52:39.547724 39683 net.cpp:169] Creating Layer inception_4d/pool
I0123 12:52:39.547732 39683 net.cpp:606] inception_4d/pool <- inception_4c/output_inception_4c/output_0_split_3
I0123 12:52:39.547744 39683 net.cpp:579] inception_4d/pool -> inception_4d/pool
I0123 12:52:39.547751 39683 net.cpp:582] From AppendTop @cpu: 0
I0123 12:52:39.547765 39683 net.cpp:219] Setting up inception_4d/pool
I0123 12:52:39.547773 39683 net.cpp:226] Top shape: 50 512 14 14 (5017600)
I0123 12:52:39.547780 39683 net.cpp:234] Memory required for data: 2385979612
I0123 12:52:39.547787 39683 net.cpp:154] Setting up Layer of device :0 @cpu 0 Layer : inception_4d/pool_proj
I0123 12:52:39.547794 39683 layer_factory.hpp:114] Creating layer inception_4d/pool_proj
I0123 12:52:39.547808 39683 net.cpp:169] Creating Layer inception_4d/pool_proj
I0123 12:52:39.547821 39683 net.cpp:606] inception_4d/pool_proj <- inception_4d/pool
I0123 12:52:39.547837 39683 net.cpp:579] inception_4d/pool_proj -> inception_4d/pool_proj
I0123 12:52:39.547843 39683 net.cpp:582] From AppendTop @cpu: 0
I0123 12:52:39.549772 39683 net.cpp:219] Setting up inception_4d/pool_proj
I0123 12:52:39.549788 39683 net.cpp:226] Top shape: 50 64 14 14 (627200)
I0123 12:52:39.549795 39683 net.cpp:234] Memory required for data: 2388488412
I0123 12:52:39.549808 39683 net.cpp:154] Setting up Layer of device :0 @cpu 0 Layer : inception_4d/relu_pool_proj
I0123 12:52:39.549815 39683 layer_factory.hpp:114] Creating layer inception_4d/relu_pool_proj
I0123 12:52:39.549824 39683 net.cpp:169] Creating Layer inception_4d/relu_pool_proj
I0123 12:52:39.549832 39683 net.cpp:606] inception_4d/relu_pool_proj <- inception_4d/pool_proj
I0123 12:52:39.549841 39683 net.cpp:566] inception_4d/relu_pool_proj -> inception_4d/pool_proj (in-place)
I0123 12:52:39.549851 39683 net.cpp:219] Setting up inception_4d/relu_pool_proj
I0123 12:52:39.549860 39683 net.cpp:226] Top shape: 50 64 14 14 (627200)
I0123 12:52:39.549866 39683 net.cpp:234] Memory required for data: 2390997212
I0123 12:52:39.549875 39683 net.cpp:154] Setting up Layer of device :0 @cpu 0 Layer : inception_4d/output
I0123 12:52:39.549881 39683 layer_factory.hpp:114] Creating layer inception_4d/output
I0123 12:52:39.549890 39683 net.cpp:169] Creating Layer inception_4d/output
I0123 12:52:39.549898 39683 net.cpp:606] inception_4d/output <- inception_4d/1x1
I0123 12:52:39.549906 39683 net.cpp:606] inception_4d/output <- inception_4d/3x3
I0123 12:52:39.549913 39683 net.cpp:606] inception_4d/output <- inception_4d/5x5
I0123 12:52:39.549937 39683 net.cpp:606] inception_4d/output <- inception_4d/pool_proj
I0123 12:52:39.549950 39683 net.cpp:579] inception_4d/output -> inception_4d/output
I0123 12:52:39.549957 39683 net.cpp:582] From AppendTop @cpu: 0
I0123 12:52:39.549969 39683 net.cpp:219] Setting up inception_4d/output
I0123 12:52:39.549978 39683 net.cpp:226] Top shape: 50 528 14 14 (5174400)
I0123 12:52:39.549985 39683 net.cpp:234] Memory required for data: 2411694812
I0123 12:52:39.549993 39683 net.cpp:154] Setting up Layer of device :0 @cpu 0 Layer : inception_4d/output_inception_4d/output_0_split
I0123 12:52:39.549999 39683 layer_factory.hpp:114] Creating layer inception_4d/output_inception_4d/output_0_split
I0123 12:52:39.550026 39683 net.cpp:169] Creating Layer inception_4d/output_inception_4d/output_0_split
…
I0123 12:52:39.550086 39683 net.cpp:582] From AppendTop @cpu: 0
I0123 12:52:39.550096 39683 net.cpp:579] inception_4d/output_inception_4d/output_0_split -> inception_4d/output_inception_4d/output_0_split_3
I0123 12:52:39.550101 39683 net.cpp:582] From AppendTop @cpu: 0
I0123 12:52:39.550113 39683 net.cpp:579] inception_4d/output_inception_4d/output_0_split -> inception_4d/output_inception_4d/output_0_split_4
I0123 12:52:39.550120 39683 net.cpp:582] From AppendTop @cpu: 0
I0123 12:52:39.550132 39683 net.cpp:219] Setting up inception_4d/output_inception_4d/output_0_split
I0123 12:52:39.550140 39683 net.cpp:226] Top shape: 50 528 14 14 (5174400)
I0123 12:52:39.550148 39683 net.cpp:226] Top shape: 50 528 14 14 (5174400)
I0123 12:52:39.550156 39683 net.cpp:226] Top shape: 50 528 14 14 (5174400)
I0123 12:52:39.550163 39683 net.cpp:226] Top shape: 50 528 14 14 (5174400)
I0123 12:52:39.550196 39683 net.cpp:226] Top shape: 50 528 14 14 (5174400)
I0123 12:52:39.550209 39683 net.cpp:234] Memory required for data: 2515182812
I0123 12:52:39.550217 39683 net.cpp:154] Setting up Layer of device :0 @cpu 0 Layer : loss2/ave_pool
I0123 12:52:39.550225 39683 layer_factory.hpp:114] Creating layer loss2/ave_pool
I0123 12:52:39.550249 39683 net.cpp:169] Creating Layer loss2/ave_pool
I0123 12:52:39.550258 39683 net.cpp:606] loss2/ave_pool <- inception_4d/output_inception_4d/output_0_split_0
I0123 12:52:39.550268 39683 net.cpp:579] loss2/ave_pool -> loss2/ave_pool
I0123 12:52:39.550276 39683 net.cpp:582] From AppendTop @cpu: 0
I0123 12:52:39.550287 39683 net.cpp:219] Setting up loss2/ave_pool
I0123 12:52:39.550297 39683 net.cpp:226] Top shape: 50 528 4 4 (422400)
I0123 12:52:39.550303 39683 net.cpp:234] Memory required for data: 2516872412
I0123 12:52:39.550312 39683 net.cpp:154] Setting up Layer of device :0 @cpu 0 Layer : loss2/conv
I0123 12:52:39.550318 39683 layer_factory.hpp:114] Creating layer loss2/conv
I0123 12:52:39.550333 39683 net.cpp:169] Creating Layer loss2/conv
I0123 12:52:39.550341 39683 net.cpp:606] loss2/conv <- loss2/ave_pool
I0123 12:52:39.550353 39683 net.cpp:579] loss2/conv -> loss2/conv
I0123 12:52:39.550359 39683 net.cpp:582] From AppendTop @cpu: 0
I0123 12:52:39.551807 39683 net.cpp:219] Setting up loss2/conv
I0123 12:52:39.551822 39683 net.cpp:226] Top shape: 50 128 4 4 (102400)
I0123 12:52:39.551829 39683 net.cpp:234] Memory required for data: 2517282012
I0123 12:52:39.551841 39683 net.cpp:154] Setting up Layer of device :0 @cpu 0 Layer : loss2/relu_conv
I0123 12:52:39.551848 39683 layer_factory.hpp:114] Creating layer loss2/relu_conv
I0123 12:52:39.551867 39683 net.cpp:169] Creating Layer loss2/relu_conv
I0123 12:52:39.551875 39683 net.cpp:606] loss2/relu_conv <- loss2/conv
I0123 12:52:39.551884 39683 net.cpp:566] loss2/relu_conv -> loss2/conv (in-place)
I0123 12:52:39.551894 39683 net.cpp:219] Setting up loss2/relu_conv
I0123 12:52:39.551903 39683 net.cpp:226] Top shape: 50 128 4 4 (102400)
I0123 12:52:39.551910 39683 net.cpp:234] Memory required for data: 2517691612
I0123 12:52:39.551918 39683 net.cpp:154] Setting up Layer of device :0 @cpu 0 Layer : loss2/fc
I0123 12:52:39.551924 39683 layer_factory.hpp:114] Creating layer loss2/fc
I0123 12:52:39.551942 39683 net.cpp:169] Creating Layer loss2/fc
I0123 12:52:39.551949 39683 net.cpp:606] loss2/fc <- loss2/conv
I0123 12:52:39.551959 39683 net.cpp:579] loss2/fc -> loss2/fc
I0123 12:52:39.551966 39683 net.cpp:582] From AppendTop @cpu: 0
I0123 12:52:39.570353 39683 net.cpp:219] Setting up loss2/fc
I0123 12:52:39.570380 39683 net.cpp:226] Top shape: 50 1024 (51200)
I0123 12:52:39.570387 39683 net.cpp:234] Memory required for data: 2517896412
I0123 12:52:39.570400 39683 net.cpp:154] Setting up Layer of device :0 @cpu 0 Layer : loss2/relu_fc
I0123 12:52:39.570408 39683 layer_factory.hpp:114] Creating layer loss2/relu_fc
I0123 12:52:39.570417 39683 net.cpp:169] Creating Layer loss2/relu_fc
I0123 12:52:39.570425 39683 net.cpp:606] loss2/relu_fc <- loss2/fc
I0123 12:52:39.570435 39683 net.cpp:566] loss2/relu_fc -> loss2/fc (in-place)
I0123 12:52:39.570444 39683 net.cpp:219] Setting up loss2/relu_fc
I0123 12:52:39.570453 39683 net.cpp:226] Top shape: 50 1024 (51200)
I0123 12:52:39.570459 39683 net.cpp:234] Memory required for data: 2518101212
I0123 12:52:39.570467 39683 net.cpp:154] Setting up Layer of device :0 @cpu 0 Layer : loss2/drop_fc
I0123 12:52:39.570474 39683 layer_factory.hpp:114] Creating layer loss2/drop_fc
I0123 12:52:39.570484 39683 net.cpp:169] Creating Layer loss2/drop_fc
I0123 12:52:39.570492 39683 net.cpp:606] loss2/drop_fc <- loss2/fc
I0123 12:52:39.570502 39683 net.cpp:566] loss2/drop_fc -> loss2/fc (in-place)
I0123 12:52:39.570514 39683 net.cpp:219] Setting up loss2/drop_fc
I0123 12:52:39.570523 39683 net.cpp:226] Top shape: 50 1024 (51200)
I0123 12:52:39.570529 39683 net.cpp:234] Memory required for data: 2518306012
I0123 12:52:39.570538 39683 net.cpp:154] Setting up Layer of device :0 @cpu 0 Layer : loss2/classifier
I0123 12:52:39.570544 39683 layer_factory.hpp:114] Creating layer loss2/classifier
I0123 12:52:39.570564 39683 net.cpp:169] Creating Layer loss2/classifier
I0123 12:52:39.570571 39683 net.cpp:606] loss2/classifier <- loss2/fc
I0123 12:52:39.570581 39683 net.cpp:579] loss2/classifier -> loss2/classifier
I0123 12:52:39.570588 39683 net.cpp:582] From AppendTop @cpu: 0
I0123 12:52:39.580281 39683 net.cpp:219] Setting up loss2/classifier
I0123 12:52:39.580312 39683 net.cpp:226] Top shape: 50 1000 (50000)
I0123 12:52:39.580317 39683 net.cpp:234] Memory required for data: 2518506012
I0123 12:52:39.580329 39683 net.cpp:154] Setting up Layer of device :0 @cpu 0 Layer : loss2/classifier_loss2/classifier_0_split
I0123 12:52:39.580337 39683 layer_factory.hpp:114] Creating layer loss2/classifier_loss2/classifier_0_split
I0123 12:52:39.580349 39683 net.cpp:169] Creating Layer loss2/classifier_loss2/classifier_0_split
I0123 12:52:39.580358 39683 net.cpp:606] loss2/classifier_loss2/classifier_0_split <- loss2/classifier
I0123 12:52:39.580368 39683 net.cpp:579] loss2/classifier_loss2/classifier_0_split -> loss2/classifier_loss2/classifier_0_split_0
I0123 12:52:39.580374 39683 net.cpp:582] From AppendTop @cpu: 0
I0123 12:52:39.580384 39683 net.cpp:579] loss2/classifier_loss2/classifier_0_split -> loss2/classifier_loss2/classifier_0_split_1
I0123 12:52:39.580391 39683 net.cpp:582] From AppendTop @cpu: 0
I0123 12:52:39.580401 39683 net.cpp:579] loss2/classifier_loss2/classifier_0_split -> loss2/classifier_loss2/classifier_0_split_2
I0123 12:52:39.580409 39683 net.cpp:582] From AppendTop @cpu: 0
I0123 12:52:39.580420 39683 net.cpp:219] Setting up loss2/classifier_loss2/classifier_0_split
I0123 12:52:39.580445 39683 net.cpp:226] Top shape: 50 1000 (50000)
I0123 12:52:39.580452 39683 net.cpp:226] Top shape: 50 1000 (50000)
I0123 12:52:39.580459 39683 net.cpp:226] Top shape: 50 1000 (50000)
I0123 12:52:39.580466 39683 net.cpp:234] Memory required for data: 2519106012
I0123 12:52:39.580473 39683 net.cpp:154] Setting up Layer of device :0 @cpu 0 Layer : loss2/loss
I0123 12:52:39.580480 39683 layer_factory.hpp:114] Creating layer loss2/loss
I0123 12:52:39.580492 39683 net.cpp:169] Creating Layer loss2/loss
I0123 12:52:39.580500 39683 net.cpp:606] loss2/loss <- loss2/classifier_loss2/classifier_0_split_0
…
I0123 12:52:39.580890 39683 net.cpp:154] Setting up Layer of device :0 @cpu 0 Layer : inception_4e/1x1
I0123 12:52:39.580898 39683 layer_factory.hpp:114] Creating layer inception_4e/1x1
I0123 12:52:39.580914 39683 net.cpp:169] Creating Layer inception_4e/1x1
I0123 12:52:39.580921 39683 net.cpp:606] inception_4e/1x1 <- inception_4d/output_inception_4d/output_0_split_1
I0123 12:52:39.580932 39683 net.cpp:579] inception_4e/1x1 -> inception_4e/1x1
I0123 12:52:39.580940 39683 net.cpp:582] From AppendTop @cpu: 0
I0123 12:52:39.585845 39683 net.cpp:219] Setting up inception_4e/1x1
I0123 12:52:39.585875 39683 net.cpp:226] Top shape: 50 256 14 14 (2508800)
I0123 12:52:39.585882 39683 net.cpp:234] Memory required for data: 2529141224
I0123 12:52:39.585894 39683 net.cpp:154] Setting up Layer of device :0 @cpu 0 Layer : inception_4e/relu_1x1
I0123 12:52:39.585901 39683 layer_factory.hpp:114] Creating layer inception_4e/relu_1x1
I0123 12:52:39.585911 39683 net.cpp:169] Creating Layer inception_4e/relu_1x1
I0123 12:52:39.585918 39683 net.cpp:606] inception_4e/relu_1x1 <- inception_4e/1x1
I0123 12:52:39.585930 39683 net.cpp:566] inception_4e/relu_1x1 -> inception_4e/1x1 (in-place)
I0123 12:52:39.585942 39683 net.cpp:219] Setting up inception_4e/relu_1x1
I0123 12:52:39.585949 39683 net.cpp:226] Top shape: 50 256 14 14 (2508800)
I0123 12:52:39.585957 39683 net.cpp:234] Memory required for data: 2539176424
I0123 12:52:39.585964 39683 net.cpp:154] Setting up Layer of device :0 @cpu 0 Layer : inception_4e/3x3_reduce
I0123 12:52:39.585979 39683 layer_factory.hpp:114] Creating layer inception_4e/3x3_reduce
I0123 12:52:39.585999 39683 net.cpp:169] Creating Layer inception_4e/3x3_reduce
I0123 12:52:39.586007 39683 net.cpp:606] inception_4e/3x3_reduce <- inception_4d/output_inception_4d/output_0_split_2
I0123 12:52:39.586020 39683 net.cpp:579] inception_4e/3x3_reduce -> inception_4e/3x3_reduce
I0123 12:52:39.586027 39683 net.cpp:582] From AppendTop @cpu: 0
I0123 12:52:39.590193 39683 net.cpp:219] Setting up inception_4e/3x3_reduce
I0123 12:52:39.590209 39683 net.cpp:226] Top shape: 50 160 14 14 (1568000)
I0123 12:52:39.590215 39683 net.cpp:234] Memory required for data: 2545448424
I0123 12:52:39.590229 39683 net.cpp:154] Setting up Layer of device :0 @cpu 0 Layer : inception_4e/relu_3x3_reduce
I0123 12:52:39.590235 39683 layer_factory.hpp:114] Creating layer inception_4e/relu_3x3_reduce
I0123 12:52:39.590245 39683 net.cpp:169] Creating Layer inception_4e/relu_3x3_reduce
I0123 12:52:39.590252 39683 net.cpp:606] inception_4e/relu_3x3_reduce <- inception_4e/3x3_reduce
I0123 12:52:39.590261 39683 net.cpp:566] inception_4e/relu_3x3_reduce -> inception_4e/3x3_reduce (in-place)
I0123 12:52:39.590271 39683 net.cpp:219] Setting up inception_4e/relu_3x3_reduce
I0123 12:52:39.590281 39683 net.cpp:226] Top shape: 50 160 14 14 (1568000)
I0123 12:52:39.590286 39683 net.cpp:234] Memory required for data: 2551720424
I0123 12:52:39.590294 39683 net.cpp:154] Setting up Layer of device :0 @cpu 0 Layer : inception_4e/3x3
I0123 12:52:39.590301 39683 layer_factory.hpp:114] Creating layer inception_4e/3x3
I0123 12:52:39.590315 39683 net.cpp:169] Creating Layer inception_4e/3x3
I0123 12:52:39.590323 39683 net.cpp:606] inception_4e/3x3 <- inception_4e/3x3_reduce
I0123 12:52:39.590333 39683 net.cpp:579] inception_4e/3x3 -> inception_4e/3x3
I0123 12:52:39.590340 39683 net.cpp:582] From AppendTop @cpu: 0
I0123 12:52:39.602702 39683 net.cpp:219] Setting up inception_4e/3x3
I0123 12:52:39.602725 39683 net.cpp:226] Top shape: 50 320 14 14 (3136000)
I0123 12:52:39.602731 39683 net.cpp:234] Memory required for data: 2564264424
I0123 12:52:39.602743 39683 net.cpp:154] Setting up Layer of device :0 @cpu 0 Layer : inception_4e/relu_3x3
I0123 12:52:39.602751 39683 layer_factory.hpp:114] Creating layer inception_4e/relu_3x3
I0123 12:52:39.602759 39683 net.cpp:169] Creating Layer inception_4e/relu_3x3
I0123 12:52:39.602783 39683 net.cpp:606] inception_4e/relu_3x3 <- inception_4e/3x3
I0123 12:52:39.602793 39683 net.cpp:566] inception_4e/relu_3x3 -> inception_4e/3x3 (in-place)
I0123 12:52:39.602807 39683 net.cpp:219] Setting up inception_4e/relu_3x3
I0123 12:52:39.602816 39683 net.cpp:226] Top shape: 50 320 14 14 (3136000)
I0123 12:52:39.602823 39683 net.cpp:234] Memory required for data: 2576808424
I0123 12:52:39.602830 39683 net.cpp:154] Setting up Layer of device :0 @cpu 0 Layer : inception_4e/5x5_reduce
I0123 12:52:39.602838 39683 layer_factory.hpp:114] Creating layer inception_4e/5x5_reduce
I0123 12:52:39.602851 39683 net.cpp:169] Creating Layer inception_4e/5x5_reduce
I0123 12:52:39.602859 39683 net.cpp:606] inception_4e/5x5_reduce <- inception_4d/output_inception_4d/output_0_split_3
I0123 12:52:39.602869 39683 net.cpp:579] inception_4e/5x5_reduce -> inception_4e/5x5_reduce
I0123 12:52:39.602876 39683 net.cpp:582] From AppendTop @cpu: 0
I0123 12:52:39.604976 39683 net.cpp:219] Setting up inception_4e/5x5_reduce
I0123 12:52:39.604991 39683 net.cpp:226] Top shape: 50 32 14 14 (313600)
I0123 12:52:39.604998 39683 net.cpp:234] Memory required for data: 2578062824
I0123 12:52:39.605010 39683 net.cpp:154] Setting up Layer of device :0 @cpu 0 Layer : inception_4e/relu_5x5_reduce
I0123 12:52:39.605017 39683 layer_factory.hpp:114] Creating layer inception_4e/relu_5x5_reduce
I0123 12:52:39.605027 39683 net.cpp:169] Creating Layer inception_4e/relu_5x5_reduce
I0123 12:52:39.605034 39683 net.cpp:606] inception_4e/relu_5x5_reduce <- inception_4e/5x5_reduce
I0123 12:52:39.605046 39683 net.cpp:566] inception_4e/relu_5x5_reduce -> inception_4e/5x5_reduce (in-place)
I0123 12:52:39.605065 39683 net.cpp:219] Setting up inception_4e/relu_5x5_reduce
I0123 12:52:39.605074 39683 net.cpp:226] Top shape: 50 32 14 14 (313600)
I0123 12:52:39.605080 39683 net.cpp:234] Memory required for data: 2579317224
I0123 12:52:39.605088 39683 net.cpp:154] Setting up Layer of device :0 @cpu 0 Layer : inception_4e/5x5
I0123 12:52:39.605095 39683 layer_factory.hpp:114] Creating layer inception_4e/5x5
I0123 12:52:39.605109 39683 net.cpp:169] Creating Layer inception_4e/5x5
I0123 12:52:39.605118 39683 net.cpp:606] inception_4e/5x5 <- inception_4e/5x5_reduce
I0123 12:52:39.605128 39683 net.cpp:579] inception_4e/5x5 -> inception_4e/5x5
I0123 12:52:39.605136 39683 net.cpp:582] From AppendTop @cpu: 0
I0123 12:52:39.609522 39683 net.cpp:219] Setting up inception_4e/5x5
I0123 12:52:39.609537 39683 net.cpp:226] Top shape: 50 128 14 14 (1254400)
I0123 12:52:39.609544 39683 net.cpp:234] Memory required for data: 2584334824
I0123 12:52:39.609556 39683 net.cpp:154] Setting up Layer of device :0 @cpu 0 Layer : inception_4e/relu_5x5
I0123 12:52:39.609563 39683 layer_factory.hpp:114] Creating layer inception_4e/relu_5x5
I0123 12:52:39.609572 39683 net.cpp:169] Creating Layer inception_4e/relu_5x5
I0123 12:52:39.609580 39683 net.cpp:606] inception_4e/relu_5x5 <- inception_4e/5x5
I0123 12:52:39.609591 39683 net.cpp:566] inception_4e/relu_5x5 -> inception_4e/5x5 (in-place)
I0123 12:52:39.609602 39683 net.cpp:219] Setting up inception_4e/relu_5x5
I0123 12:52:39.609611 39683 net.cpp:226] Top shape: 50 128 14 14 (1254400)
I0123 12:52:39.609617 39683 net.cpp:234] Memory required for data: 2589352424
I0123 12:52:39.609625 39683 net.cpp:154] Setting up Layer of device :0 @cpu 0 Layer : inception_4e/pool
I0123 12:52:39.609632 39683 layer_factory.hpp:114] Creating layer inception_4e/pool
I0123 12:52:39.609688 39683 net.cpp:169] Creating Layer inception_4e/pool
I0123 12:52:39.609699 39683 net.cpp:606] inception_4e/pool <- inception_4d/output_inception_4d/output_0_split_4
I0123 12:52:39.609709 39683 net.cpp:579] inception_4e/pool -> inception_4e/pool
I0123 12:52:39.609717 39683 net.cpp:582] From AppendTop @cpu: 0
I0123 12:52:39.609730 39683 net.cpp:219] Setting up inception_4e/pool
I0123 12:52:39.609740 39683 net.cpp:226] Top shape: 50 528 14 14 (5174400)
I0123 12:52:39.609746 39683 net.cpp:234] Memory required for data: 2610050024
I0123 12:52:39.609755 39683 net.cpp:154] Setting up Layer of device :0 @cpu 0 Layer : inception_4e/pool_proj
I0123 12:52:39.609767 39683 layer_factory.hpp:114] Creating layer inception_4e/pool_proj
I0123 12:52:39.609781 39683 net.cpp:169] Creating Layer inception_4e/pool_proj
I0123 12:52:39.609789 39683 net.cpp:606] inception_4e/pool_proj <- inception_4e/pool
I0123 12:52:39.609802 39683 net.cpp:579] inception_4e/pool_proj -> inception_4e/pool_proj
I0123 12:52:39.609808 39683 net.cpp:582] From AppendTop @cpu: 0
I0123 12:52:39.613262 39683 net.cpp:219] Setting up inception_4e/pool_proj
I0123 12:52:39.613277 39683 net.cpp:226] Top shape: 50 128 14 14 (1254400)
I0123 12:52:39.613283 39683 net.cpp:234] Memory required for data: 2615067624
I0123 12:52:39.613296 39683 net.cpp:154] Setting up Layer of device :0 @cpu 0 Layer : inception_4e/relu_pool_proj
I0123 12:52:39.613303 39683 layer_factory.hpp:114] Creating layer inception_4e/relu_pool_proj
I0123 12:52:39.613314 39683 net.cpp:169] Creating Layer inception_4e/relu_pool_proj
I0123 12:52:39.613322 39683 net.cpp:606] inception_4e/relu_pool_proj <- inception_4e/pool_proj
I0123 12:52:39.613332 39683 net.cpp:566] inception_4e/relu_pool_proj -> inception_4e/pool_proj (in-place)
I0123 12:52:39.613342 39683 net.cpp:219] Setting up inception_4e/relu_pool_proj
I0123 12:52:39.613350 39683 net.cpp:226] Top shape: 50 128 14 14 (1254400)
I0123 12:52:39.613356 39683 net.cpp:234] Memory required for data: 2620085224
I0123 12:52:39.613364 39683 net.cpp:154] Setting up Layer of device :0 @cpu 0 Layer : inception_4e/output
I0123 12:52:39.613371 39683 layer_factory.hpp:114] Creating layer inception_4e/output
I0123 12:52:39.613389 39683 net.cpp:169] Creating Layer inception_4e/output
I0123 12:52:39.613397 39683 net.cpp:606] inception_4e/output <- inception_4e/1x1
I0123 12:52:39.613405 39683 net.cpp:606] inception_4e/output <- inception_4e/3x3
I0123 12:52:39.613414 39683 net.cpp:606] inception_4e/output <- inception_4e/5x5
I0123 12:52:39.613421 39683 net.cpp:606] inception_4e/output <- inception_4e/pool_proj
I0123 12:52:39.613430 39683 net.cpp:579] inception_4e/output -> inception_4e/output
I0123 12:52:39.613437 39683 net.cpp:582] From AppendTop @cpu: 0
I0123 12:52:39.613450 39683 net.cpp:219] Setting up inception_4e/output
I0123 12:52:39.613458 39683 net.cpp:226] Top shape: 50 832 14 14 (8153600)
I0123 12:52:39.613464 39683 net.cpp:234] Memory required for data: 2652699624
I0123 12:52:39.613472 39683 net.cpp:154] Setting up Layer of device :0 @cpu 0 Layer : pool4/3x3_s2
I0123 12:52:39.613479 39683 layer_factory.hpp:114] Creating layer pool4/3x3_s2
I0123 12:52:39.613499 39683 net.cpp:169] Creating Layer pool4/3x3_s2
I0123 12:52:39.613509 39683 net.cpp:606] pool4/3x3_s2 <- inception_4e/output
I0123 12:52:39.613520 39683 net.cpp:579] pool4/3x3_s2 -> pool4/3x3_s2
I0123 12:52:39.613528 39683 net.cpp:582] From AppendTop @cpu: 0
I0123 12:52:39.613540 39683 net.cpp:219] Setting up pool4/3x3_s2
I0123 12:52:39.613549 39683 net.cpp:226] Top shape: 50 832 7 7 (2038400)
I0123 12:52:39.613555 39683 net.cpp:234] Memory required for data: 2660853224
I0123 12:52:39.613564 39683 net.cpp:154] Setting up Layer of device :0 @cpu 0 Layer : pool4/3x3_s2_pool4/3x3_s2_0_split
I0123 12:52:39.613570 39683 layer_factory.hpp:114] Creating layer pool4/3x3_s2_pool4/3x3_s2_0_split
I0123 12:52:39.613579 39683 net.cpp:169] Creating Layer pool4/3x3_s2_pool4/3x3_s2_0_split
I0123 12:52:39.613586 39683 net.cpp:606] pool4/3x3_s2_pool4/3x3_s2_0_split <- pool4/3x3_s2
I0123 12:52:39.613595 39683 net.cpp:579] pool4/3x3_s2_pool4/3x3_s2_0_split -> pool4/3x3_s2_pool4/3x3_s2_0_split_0
I0123 12:52:39.613602 39683 net.cpp:582] From AppendTop @cpu: 0
I0123 12:52:39.613611 39683 net.cpp:579] pool4/3x3_s2_pool4/3x3_s2_0_split -> pool4/3x3_s2_pool4/3x3_s2_0_split_1
I0123 12:52:39.613618 39683 net.cpp:582] From AppendTop @cpu: 0
I0123 12:52:39.613628 39683 net.cpp:579] pool4/3x3_s2_pool4/3x3_s2_0_split -> pool4/3x3_s2_pool4/3x3_s2_0_split_2
I0123 12:52:39.613636 39683 net.cpp:582] From AppendTop @cpu: 0
I0123 12:52:39.613651 39683 net.cpp:579] pool4/3x3_s2_pool4/3x3_s2_0_split -> pool4/3x3_s2_pool4/3x3_s2_0_split_3
I0123 12:52:39.613663 39683 net.cpp:582] From AppendTop @cpu: 0
I0123 12:52:39.613674 39683 net.cpp:219] Setting up pool4/3x3_s2_pool4/3x3_s2_0_split
I0123 12:52:39.613683 39683 net.cpp:226] Top shape: 50 832 7 7 (2038400)
I0123 12:52:39.613692 39683 net.cpp:226] Top shape: 50 832 7 7 (2038400)
I0123 12:52:39.613703 39683 net.cpp:226] Top shape: 50 832 7 7 (2038400)
I0123 12:52:39.613710 39683 net.cpp:226] Top shape: 50 832 7 7 (2038400)
I0123 12:52:39.613718 39683 net.cpp:234] Memory required for data: 2693467624
I0123 12:52:39.613725 39683 net.cpp:154] Setting up Layer of device :0 @cpu 0 Layer : inception_5a/1x1
I0123 12:52:39.613732 39683 layer_factory.hpp:114] Creating layer inception_5a/1x1
I0123 12:52:39.613744 39683 net.cpp:169] Creating Layer inception_5a/1x1
I0123 12:52:39.613752 39683 net.cpp:606] inception_5a/1x1 <- pool4/3x3_s2_pool4/3x3_s2_0_split_0
I0123 12:52:39.613762 39683 net.cpp:579] inception_5a/1x1 -> inception_5a/1x1
I0123 12:52:39.613770 39683 net.cpp:582] From AppendTop @cpu: 0
I0123 12:52:39.618432 39683 net.cpp:219] Setting up inception_5a/1x1
I0123 12:52:39.618446 39683 net.cpp:226] Top shape: 50 256 7 7 (627200)
I0123 12:52:39.618453 39683 net.cpp:234] Memory required for data: 2695976424
I0123 12:52:39.618465 39683 net.cpp:154] Setting up Layer of device :0 @cpu 0 Layer : inception_5a/relu_1x1
I0123 12:52:39.618472 39683 layer_factory.hpp:114] Creating layer inception_5a/relu_1x1
I0123 12:52:39.618481 39683 net.cpp:169] Creating Layer inception_5a/relu_1x1
I0123 12:52:39.618489 39683 net.cpp:606] inception_5a/relu_1x1 <- inception_5a/1x1
I0123 12:52:39.618507 39683 net.cpp:566] inception_5a/relu_1x1 -> inception_5a/1x1 (in-place)
I0123 12:52:39.618518 39683 net.cpp:219] Setting up inception_5a/relu_1x1
I0123 12:52:39.618526 39683 net.cpp:226] Top shape: 50 256 7 7 (627200)
I0123 12:52:39.618533 39683 net.cpp:234] Memory required for data: 2698485224
I0123 12:52:39.618541 39683 net.cpp:154] Setting up Layer of device :0 @cpu 0 Layer : inception_5a/3x3_reduce
I0123 12:52:39.618548 39683 layer_factory.hpp:114] Creating layer inception_5a/3x3_reduce
I0123 12:52:39.618562 39683 net.cpp:169] Creating Layer inception_5a/3x3_reduce
I0123 12:52:39.618571 39683 net.cpp:606] inception_5a/3x3_reduce <- pool4/3x3_s2_pool4/3x3_s2_0_split_1
I0123 12:52:39.618580 39683 net.cpp:579] inception_5a/3x3_reduce -> inception_5a/3x3_reduce
I0123 12:52:39.618587 39683 net.cpp:582] From AppendTop @cpu: 0
I0123 12:52:39.622063 39683 net.cpp:219] Setting up inception_5a/3x3_reduce
I0123 12:52:39.622078 39683 net.cpp:226] Top shape: 50 160 7 7 (392000)
I0123 12:52:39.622086 39683 net.cpp:234] Memory required for data: 2700053224
I0123 12:52:39.622097 39683 net.cpp:154] Setting up Layer of device :0 @cpu 0 Layer : inception_5a/relu_3x3_reduce
I0123 12:52:39.622104 39683 layer_factory.hpp:114] Creating layer inception_5a/relu_3x3_reduce
I0123 12:52:39.622113 39683 net.cpp:169] Creating Layer inception_5a/relu_3x3_reduce
I0123 12:52:39.622122 39683 net.cpp:606] inception_5a/relu_3x3_reduce <- inception_5a/3x3_reduce
I0123 12:52:39.622133 39683 net.cpp:566] inception_5a/relu_3x3_reduce -> inception_5a/3x3_reduce (in-place)
I0123 12:52:39.622143 39683 net.cpp:219] Setting up inception_5a/relu_3x3_reduce
I0123 12:52:39.622153 39683 net.cpp:226] Top shape: 50 160 7 7 (392000)
I0123 12:52:39.622159 39683 net.cpp:234] Memory required for data: 2701621224
I0123 12:52:39.622166 39683 net.cpp:154] Setting up Layer of device :0 @cpu 0 Layer : inception_5a/3x3
I0123 12:52:39.622200 39683 layer_factory.hpp:114] Creating layer inception_5a/3x3
I0123 12:52:39.622210 39683 net.cpp:169] Creating Layer inception_5a/3x3
I0123 12:52:39.622218 39683 net.cpp:606] inception_5a/3x3 <- inception_5a/3x3_reduce
I0123 12:52:39.622228 39683 net.cpp:579] inception_5a/3x3 -> inception_5a/3x3
I0123 12:52:39.622236 39683 net.cpp:582] From AppendTop @cpu: 0
I0123 12:52:39.632380 39683 net.cpp:219] Setting up inception_5a/3x3
I0123 12:52:39.632395 39683 net.cpp:226] Top shape: 50 320 7 7 (784000)
I0123 12:52:39.632407 39683 net.cpp:234] Memory required for data: 2704757224
I0123 12:52:39.632421 39683 net.cpp:154] Setting up Layer of device :0 @cpu 0 Layer : inception_5a/relu_3x3
I0123 12:52:39.632427 39683 layer_factory.hpp:114] Creating layer inception_5a/relu_3x3
I0123 12:52:39.632436 39683 net.cpp:169] Creating Layer inception_5a/relu_3x3
I0123 12:52:39.632444 39683 net.cpp:606] inception_5a/relu_3x3 <- inception_5a/3x3
I0123 12:52:39.632453 39683 net.cpp:566] inception_5a/relu_3x3 -> inception_5a/3x3 (in-place)
I0123 12:52:39.632463 39683 net.cpp:219] Setting up inception_5a/relu_3x3
I0123 12:52:39.632472 39683 net.cpp:226] Top shape: 50 320 7 7 (784000)
I0123 12:52:39.632478 39683 net.cpp:234] Memory required for data: 2707893224
I0123 12:52:39.632486 39683 net.cpp:154] Setting up Layer of device :0 @cpu 0 Layer : inception_5a/5x5_reduce
I0123 12:52:39.632493 39683 layer_factory.hpp:114] Creating layer inception_5a/5x5_reduce
I0123 12:52:39.632508 39683 net.cpp:169] Creating Layer inception_5a/5x5_reduce
I0123 12:52:39.632515 39683 net.cpp:606] inception_5a/5x5_reduce <- pool4/3x3_s2_pool4/3x3_s2_0_split_2
I0123 12:52:39.632525 39683 net.cpp:579] inception_5a/5x5_reduce -> inception_5a/5x5_reduce
I0123 12:52:39.632534 39683 net.cpp:582] From AppendTop @cpu: 0
I0123 12:52:39.633628 39683 net.cpp:219] Setting up inception_5a/5x5_reduce
I0123 12:52:39.633643 39683 net.cpp:226] Top shape: 50 32 7 7 (78400)
I0123 12:52:39.633649 39683 net.cpp:234] Memory required for data: 2708206824
I0123 12:52:39.633661 39683 net.cpp:154] Setting up Layer of device :0 @cpu 0 Layer : inception_5a/relu_5x5_reduce
I0123 12:52:39.633668 39683 layer_factory.hpp:114] Creating layer inception_5a/relu_5x5_reduce
I0123 12:52:39.633697 39683 net.cpp:169] Creating Layer inception_5a/relu_5x5_reduce
I0123 12:52:39.633705 39683 net.cpp:606] inception_5a/relu_5x5_reduce <- inception_5a/5x5_reduce
I0123 12:52:39.633714 39683 net.cpp:566] inception_5a/relu_5x5_reduce -> inception_5a/5x5_reduce (in-place)
I0123 12:52:39.633724 39683 net.cpp:219] Setting up inception_5a/relu_5x5_reduce
I0123 12:52:39.633733 39683 net.cpp:226] Top shape: 50 32 7 7 (78400)
I0123 12:52:39.633739 39683 net.cpp:234] Memory required for data: 2708520424
I0123 12:52:39.633747 39683 net.cpp:154] Setting up Layer of device :0 @cpu 0 Layer : inception_5a/5x5
I0123 12:52:39.633754 39683 layer_factory.hpp:114] Creating layer inception_5a/5x5
I0123 12:52:39.633769 39683 net.cpp:169] Creating Layer inception_5a/5x5
I0123 12:52:39.633777 39683 net.cpp:606] inception_5a/5x5 <- inception_5a/5x5_reduce
I0123 12:52:39.633788 39683 net.cpp:579] inception_5a/5x5 -> inception_5a/5x5
I0123 12:52:39.633795 39683 net.cpp:582] From AppendTop @cpu: 0
I0123 12:52:39.636538 39683 net.cpp:219] Setting up inception_5a/5x5
I0123 12:52:39.636575 39683 net.cpp:226] Top shape: 50 128 7 7 (313600)
I0123 12:52:39.636582 39683 net.cpp:234] Memory required for data: 2709774824
I0123 12:52:39.636595 39683 net.cpp:154] Setting up Layer of device :0 @cpu 0 Layer : inception_5a/relu_5x5
I0123 12:52:39.636601 39683 layer_factory.hpp:114] Creating layer inception_5a/relu_5x5
I0123 12:52:39.636612 39683 net.cpp:169] Creating Layer inception_5a/relu_5x5
I0123 12:52:39.636621 39683 net.cpp:606] inception_5a/relu_5x5 <- inception_5a/5x5
I0123 12:52:39.636629 39683 net.cpp:566] inception_5a/relu_5x5 -> inception_5a/5x5 (in-place)
I0123 12:52:39.636641 39683 net.cpp:219] Setting up inception_5a/relu_5x5
I0123 12:52:39.636648 39683 net.cpp:226] Top shape: 50 128 7 7 (313600)
I0123 12:52:39.636656 39683 net.cpp:234] Memory required for data: 2711029224
I0123 12:52:39.636662 39683 net.cpp:154] Setting up Layer of device :0 @cpu 0 Layer : inception_5a/pool
I0123 12:52:39.636669 39683 layer_factory.hpp:114] Creating layer inception_5a/pool
I0123 12:52:39.636701 39683 net.cpp:169] Creating Layer inception_5a/pool
I0123 12:52:39.636711 39683 net.cpp:606] inception_5a/pool <- pool4/3x3_s2_pool4/3x3_s2_0_split_3
I0123 12:52:39.636720 39683 net.cpp:579] inception_5a/pool -> inception_5a/pool
I0123 12:52:39.636728 39683 net.cpp:582] From AppendTop @cpu: 0
I0123 12:52:39.636749 39683 net.cpp:219] Setting up inception_5a/pool
I0123 12:52:39.636757 39683 net.cpp:226] Top shape: 50 832 7 7 (2038400)
I0123 12:52:39.636765 39683 net.cpp:234] Memory required for data: 2719182824
I0123 12:52:39.636772 39683 net.cpp:154] Setting up Layer of device :0 @cpu 0 Layer : inception_5a/pool_proj
I0123 12:52:39.636780 39683 layer_factory.hpp:114] Creating layer inception_5a/pool_proj
I0123 12:52:39.636793 39683 net.cpp:169] Creating Layer inception_5a/pool_proj
I0123 12:52:39.636801 39683 net.cpp:606] inception_5a/pool_proj <- inception_5a/pool
I0123 12:52:39.636813 39683 net.cpp:579] inception_5a/pool_proj -> inception_5a/pool_proj
I0123 12:52:39.636821 39683 net.cpp:582] From AppendTop @cpu: 0
I0123 12:52:39.640038 39683 net.cpp:219] Setting up inception_5a/pool_proj
I0123 12:52:39.640060 39683 net.cpp:226] Top shape: 50 128 7 7 (313600)
I0123 12:52:39.640067 39683 net.cpp:234] Memory required for data: 2720437224
I0123 12:52:39.640079 39683 net.cpp:154] Setting up Layer of device :0 @cpu 0 Layer : inception_5a/relu_pool_proj
I0123 12:52:39.640086 39683 layer_factory.hpp:114] Creating layer inception_5a/relu_pool_proj
I0123 12:52:39.640097 39683 net.cpp:169] Creating Layer inception_5a/relu_pool_proj
I0123 12:52:39.640106 39683 net.cpp:606] inception_5a/relu_pool_proj <- inception_5a/pool_proj
I0123 12:52:39.640115 39683 net.cpp:566] inception_5a/relu_pool_proj -> inception_5a/pool_proj (in-place)
I0123 12:52:39.640125 39683 net.cpp:219] Setting up inception_5a/relu_pool_proj
I0123 12:52:39.640135 39683 net.cpp:226] Top shape: 50 128 7 7 (313600)
I0123 12:52:39.640141 39683 net.cpp:234] Memory required for data: 2721691624
I0123 12:52:39.640158 39683 net.cpp:154] Setting up Layer of device :0 @cpu 0 Layer : inception_5a/output
I0123 12:52:39.640166 39683 layer_factory.hpp:114] Creating layer inception_5a/output
I0123 12:52:39.640202 39683 net.cpp:169] Creating Layer inception_5a/output
I0123 12:52:39.640210 39683 net.cpp:606] inception_5a/output <- inception_5a/1x1
I0123 12:52:39.640218 39683 net.cpp:606] inception_5a/output <- inception_5a/3x3
I0123 12:52:39.640226 39683 net.cpp:606] inception_5a/output <- inception_5a/5x5
I0123 12:52:39.640233 39683 net.cpp:606] inception_5a/output <- inception_5a/pool_proj
I0123 12:52:39.640242 39683 net.cpp:579] inception_5a/output -> inception_5a/output
I0123 12:52:39.640249 39683 net.cpp:582] From AppendTop @cpu: 0
I0123 12:52:39.640261 39683 net.cpp:219] Setting up inception_5a/output
I0123 12:52:39.640270 39683 net.cpp:226] Top shape: 50 832 7 7 (2038400)
I0123 12:52:39.640277 39683 net.cpp:234] Memory required for data: 2729845224
I0123 12:52:39.640285 39683 net.cpp:154] Setting up Layer of device :0 @cpu 0 Layer : inception_5a/output_inception_5a/output_0_split
I0123 12:52:39.640291 39683 layer_factory.hpp:114] Creating layer inception_5a/output_inception_5a/output_0_split
I0123 12:52:39.640300 39683 net.cpp:169] Creating Layer inception_5a/output_inception_5a/output_0_split
…
I0123 12:52:39.640344 39683 net.cpp:582] From AppendTop @cpu: 0
I0123 12:52:39.640354 39683 net.cpp:579] inception_5a/output_inception_5a/output_0_split -> inception_5a/output_inception_5a/output_0_split_2
I0123 12:52:39.640362 39683 net.cpp:582] From AppendTop @cpu: 0
I0123 12:52:39.640370 39683 net.cpp:579] inception_5a/output_inception_5a/output_0_split -> inception_5a/output_inception_5a/output_0_split_3
I0123 12:52:39.640377 39683 net.cpp:582] From AppendTop @cpu: 0
I0123 12:52:39.640388 39683 net.cpp:219] Setting up inception_5a/output_inception_5a/output_0_split
I0123 12:52:39.640396 39683 net.cpp:226] Top shape: 50 832 7 7 (2038400)
I0123 12:52:39.640409 39683 net.cpp:226] Top shape: 50 832 7 7 (2038400)
I0123 12:52:39.640417 39683 net.cpp:226] Top shape: 50 832 7 7 (2038400)
I0123 12:52:39.640425 39683 net.cpp:226] Top shape: 50 832 7 7 (2038400)
I0123 12:52:39.640431 39683 net.cpp:234] Memory required for data: 2762459624
I0123 12:52:39.640439 39683 net.cpp:154] Setting up Layer of device :0 @cpu 0 Layer : inception_5b/1x1
I0123 12:52:39.640446 39683 layer_factory.hpp:114] Creating layer inception_5b/1x1
I0123 12:52:39.640460 39683 net.cpp:169] Creating Layer inception_5b/1x1
I0123 12:52:39.640468 39683 net.cpp:606] inception_5b/1x1 <- inception_5a/output_inception_5a/output_0_split_0
I0123 12:52:39.640478 39683 net.cpp:579] inception_5b/1x1 -> inception_5b/1x1
I0123 12:52:39.640486 39683 net.cpp:582] From AppendTop @cpu: 0
I0123 12:52:39.647404 39683 net.cpp:219] Setting up inception_5b/1x1
I0123 12:52:39.647421 39683 net.cpp:226] Top shape: 50 384 7 7 (940800)
I0123 12:52:39.647428 39683 net.cpp:234] Memory required for data: 2766222824
I0123 12:52:39.647440 39683 net.cpp:154] Setting up Layer of device :0 @cpu 0 Layer : inception_5b/relu_1x1
I0123 12:52:39.647447 39683 layer_factory.hpp:114] Creating layer inception_5b/relu_1x1
I0123 12:52:39.647459 39683 net.cpp:169] Creating Layer inception_5b/relu_1x1
I0123 12:52:39.647466 39683 net.cpp:606] inception_5b/relu_1x1 <- inception_5b/1x1
I0123 12:52:39.647475 39683 net.cpp:566] inception_5b/relu_1x1 -> inception_5b/1x1 (in-place)
I0123 12:52:39.647486 39683 net.cpp:219] Setting up inception_5b/relu_1x1
I0123 12:52:39.647495 39683 net.cpp:226] Top shape: 50 384 7 7 (940800)
I0123 12:52:39.647511 39683 net.cpp:234] Memory required for data: 2769986024
I0123 12:52:39.647519 39683 net.cpp:154] Setting up Layer of device :0 @cpu 0 Layer : inception_5b/3x3_reduce
I0123 12:52:39.647526 39683 layer_factory.hpp:114] Creating layer inception_5b/3x3_reduce
I0123 12:52:39.647538 39683 net.cpp:169] Creating Layer inception_5b/3x3_reduce
I0123 12:52:39.647547 39683 net.cpp:606] inception_5b/3x3_reduce <- inception_5a/output_inception_5a/output_0_split_1
I0123 12:52:39.647558 39683 net.cpp:579] inception_5b/3x3_reduce -> inception_5b/3x3_reduce
I0123 12:52:39.647565 39683 net.cpp:582] From AppendTop @cpu: 0
I0123 12:52:39.651309 39683 net.cpp:219] Setting up inception_5b/3x3_reduce
I0123 12:52:39.651324 39683 net.cpp:226] Top shape: 50 192 7 7 (470400)
I0123 12:52:39.651330 39683 net.cpp:234] Memory required for data: 2771867624
I0123 12:52:39.651342 39683 net.cpp:154] Setting up Layer of device :0 @cpu 0 Layer : inception_5b/relu_3x3_reduce
I0123 12:52:39.651350 39683 layer_factory.hpp:114] Creating layer inception_5b/relu_3x3_reduce
I0123 12:52:39.651360 39683 net.cpp:169] Creating Layer inception_5b/relu_3x3_reduce
I0123 12:52:39.651367 39683 net.cpp:606] inception_5b/relu_3x3_reduce <- inception_5b/3x3_reduce
I0123 12:52:39.651376 39683 net.cpp:566] inception_5b/relu_3x3_reduce -> inception_5b/3x3_reduce (in-place)
I0123 12:52:39.651386 39683 net.cpp:219] Setting up inception_5b/relu_3x3_reduce
I0123 12:52:39.651394 39683 net.cpp:226] Top shape: 50 192 7 7 (470400)
I0123 12:52:39.651401 39683 net.cpp:234] Memory required for data: 2773749224
I0123 12:52:39.651409 39683 net.cpp:154] Setting up Layer of device :0 @cpu 0 Layer : inception_5b/3x3
I0123 12:52:39.651415 39683 layer_factory.hpp:114] Creating layer inception_5b/3x3
I0123 12:52:39.651429 39683 net.cpp:169] Creating Layer inception_5b/3x3
I0123 12:52:39.651437 39683 net.cpp:606] inception_5b/3x3 <- inception_5b/3x3_reduce
I0123 12:52:39.651448 39683 net.cpp:579] inception_5b/3x3 -> inception_5b/3x3
I0123 12:52:39.651454 39683 net.cpp:582] From AppendTop @cpu: 0
I0123 12:52:39.666251 39683 net.cpp:219] Setting up inception_5b/3x3
I0123 12:52:39.666281 39683 net.cpp:226] Top shape: 50 384 7 7 (940800)
I0123 12:52:39.666288 39683 net.cpp:234] Memory required for data: 2777512424
I0123 12:52:39.666301 39683 net.cpp:154] Setting up Layer of device :0 @cpu 0 Layer : inception_5b/relu_3x3
I0123 12:52:39.666307 39683 layer_factory.hpp:114] Creating layer inception_5b/relu_3x3
I0123 12:52:39.666332 39683 net.cpp:169] Creating Layer inception_5b/relu_3x3
I0123 12:52:39.666340 39683 net.cpp:606] inception_5b/relu_3x3 <- inception_5b/3x3
I0123 12:52:39.666349 39683 net.cpp:566] inception_5b/relu_3x3 -> inception_5b/3x3 (in-place)
I0123 12:52:39.666359 39683 net.cpp:219] Setting up inception_5b/relu_3x3
I0123 12:52:39.666368 39683 net.cpp:226] Top shape: 50 384 7 7 (940800)
I0123 12:52:39.666375 39683 net.cpp:234] Memory required for data: 2781275624
I0123 12:52:39.666383 39683 net.cpp:154] Setting up Layer of device :0 @cpu 0 Layer : inception_5b/5x5_reduce
I0123 12:52:39.666389 39683 layer_factory.hpp:114] Creating layer inception_5b/5x5_reduce
I0123 12:52:39.666401 39683 net.cpp:169] Creating Layer inception_5b/5x5_reduce
I0123 12:52:39.666409 39683 net.cpp:606] inception_5b/5x5_reduce <- inception_5a/output_inception_5a/output_0_split_2
I0123 12:52:39.666421 39683 net.cpp:579] inception_5b/5x5_reduce -> inception_5b/5x5_reduce
I0123 12:52:39.666429 39683 net.cpp:582] From AppendTop @cpu: 0
I0123 12:52:39.667801 39683 net.cpp:219] Setting up inception_5b/5x5_reduce
I0123 12:52:39.667816 39683 net.cpp:226] Top shape: 50 48 7 7 (117600)
I0123 12:52:39.667830 39683 net.cpp:234] Memory required for data: 2781746024
I0123 12:52:39.667842 39683 net.cpp:154] Setting up Layer of device :0 @cpu 0 Layer : inception_5b/relu_5x5_reduce
I0123 12:52:39.667850 39683 layer_factory.hpp:114] Creating layer inception_5b/relu_5x5_reduce
I0123 12:52:39.667861 39683 net.cpp:169] Creating Layer inception_5b/relu_5x5_reduce
I0123 12:52:39.667870 39683 net.cpp:606] inception_5b/relu_5x5_reduce <- inception_5b/5x5_reduce
I0123 12:52:39.667887 39683 net.cpp:566] inception_5b/relu_5x5_reduce -> inception_5b/5x5_reduce (in-place)
I0123 12:52:39.667898 39683 net.cpp:219] Setting up inception_5b/relu_5x5_reduce
I0123 12:52:39.667907 39683 net.cpp:226] Top shape: 50 48 7 7 (117600)
I0123 12:52:39.667914 39683 net.cpp:234] Memory required for data: 2782216424
I0123 12:52:39.667922 39683 net.cpp:154] Setting up Layer of device :0 @cpu 0 Layer : inception_5b/5x5
I0123 12:52:39.667928 39683 layer_factory.hpp:114] Creating layer inception_5b/5x5
I0123 12:52:39.667943 39683 net.cpp:169] Creating Layer inception_5b/5x5
I0123 12:52:39.667950 39683 net.cpp:606] inception_5b/5x5 <- inception_5b/5x5_reduce
I0123 12:52:39.667963 39683 net.cpp:579] inception_5b/5x5 -> inception_5b/5x5
I0123 12:52:39.667969 39683 net.cpp:582] From AppendTop @cpu: 0
I0123 12:52:39.672469 39683 net.cpp:219] Setting up inception_5b/5x5
I0123 12:52:39.672484 39683 net.cpp:226] Top shape: 50 128 7 7 (313600)
I0123 12:52:39.672492 39683 net.cpp:234] Memory required for data: 2783470824
I0123 12:52:39.672503 39683 net.cpp:154] Setting up Layer of device :0 @cpu 0 Layer : inception_5b/relu_5x5
I0123 12:52:39.672510 39683 layer_factory.hpp:114] Creating layer inception_5b/relu_5x5
I0123 12:52:39.672519 39683 net.cpp:169] Creating Layer inception_5b/relu_5x5
I0123 12:52:39.672528 39683 net.cpp:606] inception_5b/relu_5x5 <- inception_5b/5x5
I0123 12:52:39.672538 39683 net.cpp:566] inception_5b/relu_5x5 -> inception_5b/5x5 (in-place)
I0123 12:52:39.672549 39683 net.cpp:219] Setting up inception_5b/relu_5x5
I0123 12:52:39.672557 39683 net.cpp:226] Top shape: 50 128 7 7 (313600)
I0123 12:52:39.672564 39683 net.cpp:234] Memory required for data: 2784725224
I0123 12:52:39.672572 39683 net.cpp:154] Setting up Layer of device :0 @cpu 0 Layer : inception_5b/pool
I0123 12:52:39.672580 39683 layer_factory.hpp:114] Creating layer inception_5b/pool
I0123 12:52:39.672626 39683 net.cpp:169] Creating Layer inception_5b/pool
I0123 12:52:39.672636 39683 net.cpp:606] inception_5b/pool <- inception_5a/output_inception_5a/output_0_split_3
I0123 12:52:39.672648 39683 net.cpp:579] inception_5b/pool -> inception_5b/pool
I0123 12:52:39.672657 39683 net.cpp:582] From AppendTop @cpu: 0
I0123 12:52:39.672668 39683 net.cpp:219] Setting up inception_5b/pool
I0123 12:52:39.672677 39683 net.cpp:226] Top shape: 50 832 7 7 (2038400)
I0123 12:52:39.672689 39683 net.cpp:234] Memory required for data: 2792878824
I0123 12:52:39.672698 39683 net.cpp:154] Setting up Layer of device :0 @cpu 0 Layer : inception_5b/pool_proj
I0123 12:52:39.672705 39683 layer_factory.hpp:114] Creating layer inception_5b/pool_proj
I0123 12:52:39.672719 39683 net.cpp:169] Creating Layer inception_5b/pool_proj
I0123 12:52:39.672729 39683 net.cpp:606] inception_5b/pool_proj <- inception_5b/pool
I0123 12:52:39.672740 39683 net.cpp:579] inception_5b/pool_proj -> inception_5b/pool_proj
I0123 12:52:39.672747 39683 net.cpp:582] From AppendTop @cpu: 0
I0123 12:52:39.675616 39683 net.cpp:219] Setting up inception_5b/pool_proj
I0123 12:52:39.675631 39683 net.cpp:226] Top shape: 50 128 7 7 (313600)
I0123 12:52:39.675637 39683 net.cpp:234] Memory required for data: 2794133224
I0123 12:52:39.675649 39683 net.cpp:154] Setting up Layer of device :0 @cpu 0 Layer : inception_5b/relu_pool_proj
I0123 12:52:39.675657 39683 layer_factory.hpp:114] Creating layer inception_5b/relu_pool_proj
I0123 12:52:39.675667 39683 net.cpp:169] Creating Layer inception_5b/relu_pool_proj
I0123 12:52:39.675674 39683 net.cpp:606] inception_5b/relu_pool_proj <- inception_5b/pool_proj
I0123 12:52:39.675684 39683 net.cpp:566] inception_5b/relu_pool_proj -> inception_5b/pool_proj (in-place)
I0123 12:52:39.675695 39683 net.cpp:219] Setting up inception_5b/relu_pool_proj
I0123 12:52:39.675704 39683 net.cpp:226] Top shape: 50 128 7 7 (313600)
I0123 12:52:39.675710 39683 net.cpp:234] Memory required for data: 2795387624
I0123 12:52:39.675719 39683 net.cpp:154] Setting up Layer of device :0 @cpu 0 Layer : inception_5b/output
I0123 12:52:39.675753 39683 layer_factory.hpp:114] Creating layer inception_5b/output
I0123 12:52:39.675763 39683 net.cpp:169] Creating Layer inception_5b/output
I0123 12:52:39.675770 39683 net.cpp:606] inception_5b/output <- inception_5b/1x1
I0123 12:52:39.675779 39683 net.cpp:606] inception_5b/output <- inception_5b/3x3
I0123 12:52:39.675786 39683 net.cpp:606] inception_5b/output <- inception_5b/5x5
I0123 12:52:39.675794 39683 net.cpp:606] inception_5b/output <- inception_5b/pool_proj
I0123 12:52:39.675803 39683 net.cpp:579] inception_5b/output -> inception_5b/output
I0123 12:52:39.675810 39683 net.cpp:582] From AppendTop @cpu: 0
I0123 12:52:39.675822 39683 net.cpp:219] Setting up inception_5b/output
I0123 12:52:39.675832 39683 net.cpp:226] Top shape: 50 1024 7 7 (2508800)
I0123 12:52:39.675837 39683 net.cpp:234] Memory required for data: 2805422824
I0123 12:52:39.675845 39683 net.cpp:154] Setting up Layer of device :0 @cpu 0 Layer : pool5/7x7_s1
I0123 12:52:39.675853 39683 layer_factory.hpp:114] Creating layer pool5/7x7_s1
I0123 12:52:39.675874 39683 net.cpp:169] Creating Layer pool5/7x7_s1
I0123 12:52:39.675884 39683 net.cpp:606] pool5/7x7_s1 <- inception_5b/output
I0123 12:52:39.675894 39683 net.cpp:579] pool5/7x7_s1 -> pool5/7x7_s1
I0123 12:52:39.675901 39683 net.cpp:582] From AppendTop @cpu: 0
I0123 12:52:39.675914 39683 net.cpp:219] Setting up pool5/7x7_s1
I0123 12:52:39.675922 39683 net.cpp:226] Top shape: 50 1024 1 1 (51200)
I0123 12:52:39.675930 39683 net.cpp:234] Memory required for data: 2805627624
I0123 12:52:39.675936 39683 net.cpp:154] Setting up Layer of device :0 @cpu 0 Layer : pool5/drop_7x7_s1
I0123 12:52:39.675943 39683 layer_factory.hpp:114] Creating layer pool5/drop_7x7_s1
I0123 12:52:39.675956 39683 net.cpp:169] Creating Layer pool5/drop_7x7_s1
I0123 12:52:39.675964 39683 net.cpp:606] pool5/drop_7x7_s1 <- pool5/7x7_s1
I0123 12:52:39.675972 39683 net.cpp:566] pool5/drop_7x7_s1 -> pool5/7x7_s1 (in-place)
I0123 12:52:39.675984 39683 net.cpp:219] Setting up pool5/drop_7x7_s1
I0123 12:52:39.675993 39683 net.cpp:226] Top shape: 50 1024 1 1 (51200)
I0123 12:52:39.675999 39683 net.cpp:234] Memory required for data: 2805832424
I0123 12:52:39.676007 39683 net.cpp:154] Setting up Layer of device :0 @cpu 0 Layer : loss3/classifier
I0123 12:52:39.676014 39683 layer_factory.hpp:114] Creating layer loss3/classifier
I0123 12:52:39.676028 39683 net.cpp:169] Creating Layer loss3/classifier
I0123 12:52:39.676039 39683 net.cpp:606] loss3/classifier <- pool5/7x7_s1
I0123 12:52:39.676053 39683 net.cpp:579] loss3/classifier -> loss3/classifier
I0123 12:52:39.676059 39683 net.cpp:582] From AppendTop @cpu: 0
I0123 12:52:39.685284 39683 net.cpp:219] Setting up loss3/classifier
I0123 12:52:39.685313 39683 net.cpp:226] Top shape: 50 1000 (50000)
I0123 12:52:39.685320 39683 net.cpp:234] Memory required for data: 2806032424
I0123 12:52:39.685331 39683 net.cpp:154] Setting up Layer of device :0 @cpu 0 Layer : loss3/classifier_loss3/classifier_0_split
I0123 12:52:39.685338 39683 layer_factory.hpp:114] Creating layer loss3/classifier_loss3/classifier_0_split
I0123 12:52:39.685348 39683 net.cpp:169] Creating Layer loss3/classifier_loss3/classifier_0_split
I0123 12:52:39.685356 39683 net.cpp:606] loss3/classifier_loss3/classifier_0_split <- loss3/classifier
I0123 12:52:39.685365 39683 net.cpp:579] loss3/classifier_loss3/classifier_0_split -> loss3/classifier_loss3/classifier_0_split_0
I0123 12:52:39.685372 39683 net.cpp:582] From AppendTop @cpu: 0
I0123 12:52:39.685384 39683 net.cpp:579] loss3/classifier_loss3/classifier_0_split -> loss3/classifier_loss3/classifier_0_split_1
I0123 12:52:39.685392 39683 net.cpp:582] From AppendTop @cpu: 0
I0123 12:52:39.685403 39683 net.cpp:579] loss3/classifier_loss3/classifier_0_split -> loss3/classifier_loss3/classifier_0_split_2
I0123 12:52:39.685410 39683 net.cpp:582] From AppendTop @cpu: 0
I0123 12:52:39.685420 39683 net.cpp:219] Setting up loss3/classifier_loss3/classifier_0_split
I0123 12:52:39.685428 39683 net.cpp:226] Top shape: 50 1000 (50000)
I0123 12:52:39.685436 39683 net.cpp:226] Top shape: 50 1000 (50000)
I0123 12:52:39.685459 39683 net.cpp:226] Top shape: 50 1000 (50000)
I0123 12:52:39.685466 39683 net.cpp:234] Memory required for data: 2806632424
I0123 12:52:39.685474 39683 net.cpp:154] Setting up Layer of device :0 @cpu 0 Layer : loss3/loss3
I0123 12:52:39.685480 39683 layer_factory.hpp:114] Creating layer loss3/loss3
I0123 12:52:39.685490 39683 net.cpp:169] Creating Layer loss3/loss3
I0123 12:52:39.685497 39683 net.cpp:606] loss3/loss3 <- loss3/classifier_loss3/classifier_0_split_0
…
