…
I0123 12:20:03.214277 38191 net.cpp:484] The NetState phase (0) differed from the phase (1) specified by a rule in layer loss3/top-5
I0123 12:20:03.223433 38191 net.cpp:120] Initializing net from parameters: 
name: "GoogleNet"
state {
  phase: TRAIN
  level: 0
  stage: ""
}
layer {
  name: "data"
  type: "Data"
  top: "data"
  top: "label"
  include {
    phase: TRAIN
  }
  transform_param {
    mirror: true
    crop_size: 224
    mean_value: 104
    mean_value: 117
    mean_value: 123
  }
  data_param {
    source: "/home/user/caffeOMP/original/caffe/examples/imagenet/ilsvrc12_train_lmdb"
    batch_size: 32
    backend: LMDB
  }
}
layer {
  name: "label_data_1_split"
  type: "Split"
  bottom: "label"
  top: "label_data_1_split_0"
  top: "label_data_1_split_1"
  top: "label_data_1_split_2"
}
layer {
  name: "conv1/7x7_s2"
  type: "Convolution"
  bottom: "data"
  top: "conv1/7x7_s2"
  param {
    lr_mult: 1
    decay_mult: 1
  }
  param {
    lr_mult: 2
    decay_mult: 0
  }
  convolution_param {
    num_output: 64
    pad: 3
    kernel_size: 7
    stride: 2
    weight_filler {
      type: "xavier"
    }
    bias_filler {
      type: "constant"
      value: 0.2
    }
  }
}
layer {
  name: "conv1/relu_7x7"
  type: "ReLU"
  bottom: "conv1/7x7_s2"
  top: "conv1/7x7_s2"
}
layer {
  name: "pool1/3x3_s2"
  type: "Pooling"
  bottom: "conv1/7x7_s2"
  top: "pool1/3x3_s2"
  pooling_param {
    pool: MAX
    kernel_size: 3
    stride: 2
  }
}
layer {
  name: "pool1/norm1"
  type: "LRN"
  bottom: "pool1/3x3_s2"
  top: "pool1/norm1"
  lrn_param {
    local_size: 5
    alpha: 0.0001
    beta: 0.75
  }
}
layer {
  name: "conv2/3x3_reduce"
  type: "Convolution"
  bottom: "pool1/norm1"
  top: "conv2/3x3_reduce"
  param {
    lr_mult: 1
    decay_mult: 1
  }
  param {
    lr_mult: 2
    decay_mult: 0
  }
  convolution_param {
    num_output: 64
    kernel_size: 1
    weight_filler {
      type: "xavier"
    }
    bias_filler {
      type: "constant"
      value: 0.2
    }
  }
}
layer {
  name: "conv2/relu_3x3_reduce"
  type: "ReLU"
  bottom: "conv2/3x3_reduce"
  top: "conv2/3x3_reduce"
}
layer {
  name: "conv2/3x3"
  type: "Convolution"
  bottom: "conv2/3x3_reduce"
  top: "conv2/3x3"
  param {
    lr_mult: 1
    decay_mult: 1
  }
  param {
    lr_mult: 2
    decay_mult: 0
  }
  convolution_param {
    num_output: 192
    pad: 1
    kernel_size: 3
    weight_filler {
      type: "xavier"
    }
    bias_filler {
      type: "constant"
      value: 0.2
    }
  }
}
layer {
  name: "conv2/relu_3x3"
  type: "ReLU"
  bottom: "conv2/3x3"
  top: "conv2/3x3"
}
layer {
  name: "conv2/norm2"
  type: "LRN"
  bottom: "conv2/3x3"
  top: "conv2/norm2"
  lrn_param {
    local_size: 5
    alpha: 0.0001
    beta: 0.75
  }
}
layer {
  name: "pool2/3x3_s2"
  type: "Pooling"
  bottom: "conv2/norm2"
  top: "pool2/3x3_s2"
  pooling_param {
    pool: MAX
    kernel_size: 3
    stride: 2
  }
}
layer {
  name: "pool2/3x3_s2_pool2/3x3_s2_0_split"
  type: "Split"
  bottom: "pool2/3x3_s2"
  top: "pool2/3x3_s2_pool2/3x3_s2_0_split_0"
  top: "pool2/3x3_s2_pool2/3x3_s2_0_split_1"
  top: "pool2/3x3_s2_pool2/3x3_s2_0_split_2"
  top: "pool2/3x3_s2_pool2/3x3_s2_0_split_3"
}
layer {
  name: "inception_3a/1x1"
  type: "Convolution"
  bottom: "pool2/3x3_s2_pool2/3x3_s2_0_split_0"
  top: "inception_3a/1x1"
  param {
    lr_mult: 1
    decay_mult: 1
  }
  param {
    lr_mult: 2
    decay_mult: 0
  }
  convolution_param {
    num_output: 64
    kernel_size: 1
    weight_filler {
      type: "xavier"
    }
    bias_filler {
      type: "constant"
      value: 0.2
    }
  }
}
layer {
  name: "inception_3a/relu_1x1"
  type: "ReLU"
  bottom: "inception_3a/1x1"
  top: "inception_3a/1x1"
}
layer {
  name: "inception_3a/3x3_reduce"
  type: "Convolution"
  bottom: "pool2/3x3_s2_pool2/3x3_s2_0_split_1"
  top: "inception_3a/3x3_reduce"
  param {
    lr_mult: 1
    decay_mult: 1
  }
  param {
    lr_mult: 2
    decay_mult: 0
  }
  convolution_param {
    num_output: 96
    kernel_size: 1
    weight_filler {
      type: "xavier"
    }
    bias_filler {
      type: "constant"
      value: 0.2
    }
  }
}
layer {
  name: "inception_3a/relu_3x3_reduce"
  type: "ReLU"
  bottom: "inception_3a/3x3_reduce"
  top: "inception_3a/3x3_reduce"
}
layer {
  name: "inception_3a/3x3"
  type: "Convolution"
  bottom: "inception_3a/3x3_reduce"
  top: "inception_3a/3x3"
  param {
    lr_mult: 1
    decay_mult: 1
  }
  param {
    lr_mult: 2
    decay_mult: 0
  }
  convolution_param {
    num_output: 128
    pad: 1
    kernel_size: 3
    weight_filler {
      type: "xavier"
    }
    bias_filler {
      type: "constant"
      value: 0.2
    }
  }
}
layer {
  name: "inception_3a/relu_3x3"
  type: "ReLU"
  bottom: "inception_3a/3x3"
  top: "inception_3a/3x3"
}
layer {
  name: "inception_3a/5x5_reduce"
  type: "Convolution"
  bottom: "pool2/3x3_s2_pool2/3x3_s2_0_split_2"
  top: "inception_3a/5x5_reduce"
  param {
    lr_mult: 1
    decay_mult: 1
  }
  param {
    lr_mult: 2
    decay_mult: 0
  }
  convolution_param {
    num_output: 16
    kernel_size: 1
    weight_filler {
      type: "xavier"
    }
    bias_filler {
      type: "constant"
      value: 0.2
    }
  }
}
layer {
  name: "inception_3a/relu_5x5_reduce"
  type: "ReLU"
  bottom: "inception_3a/5x5_reduce"
  top: "inception_3a/5x5_reduce"
}
layer {
  name: "inception_3a/5x5"
  type: "Convolution"
  bottom: "inception_3a/5x5_reduce"
  top: "inception_3a/5x5"
  param {
    lr_mult: 1
    decay_mult: 1
  }
  param {
    lr_mult: 2
    decay_mult: 0
  }
  convolution_param {
    num_output: 32
    pad: 2
    kernel_size: 5
    weight_filler {
      type: "xavier"
    }
    bias_filler {
      type: "constant"
      value: 0.2
    }
  }
}
layer {
  name: "inception_3a/relu_5x5"
  type: "ReLU"
  bottom: "inception_3a/5x5"
  top: "inception_3a/5x5"
}
layer {
  name: "inception_3a/pool"
  type: "Pooling"
  bottom: "pool2/3x3_s2_pool2/3x3_s2_0_split_3"
  top: "inception_3a/pool"
  pooling_param {
    pool: MAX
    kernel_size: 3
    stride: 1
    pad: 1
  }
}
layer {
  name: "inception_3a/pool_proj"
  type: "Convolution"
  bottom: "inception_3a/pool"
  top: "inception_3a/pool_proj"
  param {
    lr_mult: 1
    decay_mult: 1
  }
  param {
    lr_mult: 2
    decay_mult: 0
  }
  convolution_param {
    num_output: 32
    kernel_size: 1
    weight_filler {
      type: "xavier"
    }
    bias_filler {
      type: "constant"
      value: 0.2
    }
  }
}
layer {
  name: "inception_3a/relu_pool_proj"
  type: "ReLU"
  bottom: "inception_3a/pool_proj"
  top: "inception_3a/pool_proj"
}
layer {
  name: "inception_3a/output"
  type: "Concat"
  bottom: "inception_3a/1x1"
  bottom: "inception_3a/3x3"
  bottom: "inception_3a/5x5"
  bottom: "inception_3a/pool_proj"
  top: "inception_3a/output"
}
layer {
  name: "inception_3a/output_inception_3a/output_0_split"
  type: "Split"
  bottom: "inception_3a/output"
  top: "inception_3a/output_inception_3a/output_0_split_0"
  top: "inception_3a/output_inception_3a/output_0_split_1"
  top: "inception_3a/output_inception_3a/output_0_split_2"
  top: "inception_3a/output_inception_3a/output_0_split_3"
}
layer {
  name: "inception_3b/1x1"
  type: "Convolution"
  bottom: "inception_3a/output_inception_3a/output_0_split_0"
  top: "inception_3b/1x1"
  param {
    lr_mult: 1
    decay_mult: 1
  }
  param {
    lr_mult: 2
    decay_mult: 0
  }
  convolution_param {
    num_output: 128
    kernel_size: 1
    weight_filler {
      type: "xavier"
    }
    bias_filler {
      type: "constant"
      value: 0.2
    }
  }
}
layer {
  name: "inception_3b/relu_1x1"
  type: "ReLU"
  bottom: "inception_3b/1x1"
  top: "inception_3b/1x1"
}
layer {
  name: "inception_3b/3x3_reduce"
  type: "Convolution"
  bottom: "inception_3a/output_inception_3a/output_0_split_1"
  top: "inception_3b/3x3_reduce"
  param {
    lr_mult: 1
    decay_mult: 1
  }
  param {
    lr_mult: 2
    decay_mult: 0
  }
  convolution_param {
    num_output: 128
    kernel_size: 1
    weight_filler {
      type: "xavier"
    }
    bias_filler {
      type: "constant"
      value: 0.2
    }
  }
}
layer {
  name: "inception_3b/relu_3x3_reduce"
  type: "ReLU"
  bottom: "inception_3b/3x3_reduce"
  top: "inception_3b/3x3_reduce"
}
layer {
  name: "inception_3b/3x3"
  type: "Convolution"
  bottom: "inception_3b/3x3_reduce"
  top: "inception_3b/3x3"
  param {
    lr_mult: 1
    decay_mult: 1
  }
  param {
    lr_mult: 2
    decay_mult: 0
  }
  convolution_param {
    num_output: 192
    pad: 1
    kernel_size: 3
    weight_filler {
      type: "xavier"
    }
    bias_filler {
      type: "constant"
      value: 0.2
    }
  }
}
layer {
  name: "inception_3b/relu_3x3"
  type: "ReLU"
  bottom: "inception_3b/3x3"
  top: "inception_3b/3x3"
}
layer {
  name: "inception_3b/5x5_reduce"
  type: "Convolution"
  bottom: "inception_3a/output_inception_3a/output_0_split_2"
  top: "inception_3b/5x5_reduce"
  param {
    lr_mult: 1
    decay_mult: 1
  }
  param {
    lr_mult: 2
    decay_mult: 0
  }
  convolution_param {
    num_output: 32
    kernel_size: 1
    weight_filler {
      type: "xavier"
    }
    bias_filler {
      type: "constant"
      value: 0.2
    }
  }
}
layer {
  name: "inception_3b/relu_5x5_reduce"
  type: "ReLU"
  bottom: "inception_3b/5x5_reduce"
  top: "inception_3b/5x5_reduce"
}
layer {
  name: "inception_3b/5x5"
  type: "Convolution"
  bottom: "inception_3b/5x5_reduce"
  top: "inception_3b/5x5"
  param {
    lr_mult: 1
    decay_mult: 1
  }
  param {
    lr_mult: 2
    decay_mult: 0
  }
  convolution_param {
    num_output: 96
    pad: 2
    kernel_size: 5
    weight_filler {
      type: "xavier"
    }
    bias_filler {
      type: "constant"
      value: 0.2
    }
  }
}
layer {
  name: "inception_3b/relu_5x5"
  type: "ReLU"
  bottom: "inception_3b/5x5"
  top: "inception_3b/5x5"
}
layer {
  name: "inception_3b/pool"
  type: "Pooling"
  bottom: "inception_3a/output_inception_3a/output_0_split_3"
  top: "inception_3b/pool"
  pooling_param {
    pool: MAX
    kernel_size: 3
    stride: 1
    pad: 1
  }
}
layer {
  name: "inception_3b/pool_proj"
  type: "Convolution"
  bottom: "inception_3b/pool"
  top: "inception_3b/pool_proj"
  param {
    lr_mult: 1
    decay_mult: 1
  }
  param {
    lr_mult: 2
    decay_mult: 0
  }
  convolution_param {
    num_output: 64
    kernel_size: 1
    weight_filler {
      type: "xavier"
    }
    bias_filler {
      type: "constant"
      value: 0.2
    }
  }
}
layer {
  name: "inception_3b/relu_pool_proj"
  type: "ReLU"
  bottom: "inception_3b/pool_proj"
  top: "inception_3b/pool_proj"
}
layer {
  name: "inception_3b/output"
  type: "Concat"
  bottom: "inception_3b/1x1"
  bottom: "inception_3b/3x3"
  bottom: "inception_3b/5x5"
  bottom: "inception_3b/pool_proj"
  top: "inception_3b/output"
}
layer {
  name: "pool3/3x3_s2"
  type: "Pooling"
  bottom: "inception_3b/output"
  top: "pool3/3x3_s2"
  pooling_param {
    pool: MAX
    kernel_size: 3
    stride: 2
  }
}
layer {
  name: "pool3/3x3_s2_pool3/3x3_s2_0_split"
  type: "Split"
  bottom: "pool3/3x3_s2"
  top: "pool3/3x3_s2_pool3/3x3_s2_0_split_0"
  top: "pool3/3x3_s2_pool3/3x3_s2_0_split_1"
  top: "pool3/3x3_s2_pool3/3x3_s2_0_split_2"
  top: "pool3/3x3_s2_pool3/3x3_s2_0_split_3"
}
layer {
  name: "inception_4a/1x1"
  type: "Convolution"
  bottom: "pool3/3x3_s2_pool3/3x3_s2_0_split_0"
  top: "inception_4a/1x1"
  param {
    lr_mult: 1
    decay_mult: 1
  }
  param {
    lr_mult: 2
    decay_mult: 0
  }
  convolution_param {
    num_output: 192
    kernel_size: 1
    weight_filler {
      type: "xavier"
    }
    bias_filler {
      type: "constant"
      value: 0.2
    }
  }
}
layer {
  name: "inception_4a/relu_1x1"
  type: "ReLU"
  bottom: "inception_4a/1x1"
  top: "inception_4a/1x1"
}
layer {
  name: "inception_4a/3x3_reduce"
  type: "Convolution"
  bottom: "pool3/3x3_s2_pool3/3x3_s2_0_split_1"
  top: "inception_4a/3x3_reduce"
  param {
    lr_mult: 1
    decay_mult: 1
  }
  param {
    lr_mult: 2
    decay_mult: 0
  }
  convolution_param {
    num_output: 96
    kernel_size: 1
    weight_filler {
      type: "xavier"
    }
    bias_filler {
      type: "constant"
      value: 0.2
    }
  }
}
layer {
  name: "inception_4a/relu_3x3_reduce"
  type: "ReLU"
  bottom: "inception_4a/3x3_reduce"
  top: "inception_4a/3x3_reduce"
}
layer {
  name: "inception_4a/3x3"
  type: "Convolution"
  bottom: "inception_4a/3x3_reduce"
  top: "inception_4a/3x3"
  param {
    lr_mult: 1
    decay_mult: 1
  }
  param {
    lr_mult: 2
    decay_mult: 0
  }
  convolution_param {
    num_output: 208
    pad: 1
    kernel_size: 3
    weight_filler {
      type: "xavier"
    }
    bias_filler {
      type: "constant"
      value: 0.2
    }
  }
}
layer {
  name: "inception_4a/relu_3x3"
  type: "ReLU"
  bottom: "inception_4a/3x3"
  top: "inception_4a/3x3"
}
layer {
  name: "inception_4a/5x5_reduce"
  type: "Convolution"
  bottom: "pool3/3x3_s2_pool3/3x3_s2_0_split_2"
  top: "inception_4a/5x5_reduce"
  param {
    lr_mult: 1
    decay_mult: 1
  }
  param {
    lr_mult: 2
    decay_mult: 0
  }
  convolution_param {
    num_output: 16
    kernel_size: 1
    weight_filler {
      type: "xavier"
    }
    bias_filler {
      type: "constant"
      value: 0.2
    }
  }
}
layer {
  name: "inception_4a/relu_5x5_reduce"
  type: "ReLU"
  bottom: "inception_4a/5x5_reduce"
  top: "inception_4a/5x5_reduce"
}
layer {
  name: "inception_4a/5x5"
  type: "Convolution"
  bottom: "inception_4a/5x5_reduce"
  top: "inception_4a/5x5"
  param {
    lr_mult: 1
    decay_mult: 1
  }
  param {
    lr_mult: 2
    decay_mult: 0
  }
  convolution_param {
    num_output: 48
    pad: 2
    kernel_size: 5
    weight_filler {
      type: "xavier"
    }
    bias_filler {
      type: "constant"
      value: 0.2
    }
  }
}
layer {
  name: "inception_4a/relu_5x5"
  type: "ReLU"
  bottom: "inception_4a/5x5"
  top: "inception_4a/5x5"
}
layer {
  name: "inception_4a/pool"
  type: "Pooling"
  bottom: "pool3/3x3_s2_pool3/3x3_s2_0_split_3"
  top: "inception_4a/pool"
  pooling_param {
    pool: MAX
    kernel_size: 3
    stride: 1
    pad: 1
  }
}
layer {
  name: "inception_4a/pool_proj"
  type: "Convolution"
  bottom: "inception_4a/pool"
  top: "inception_4a/pool_proj"
  param {
    lr_mult: 1
    decay_mult: 1
  }
  param {
    lr_mult: 2
    decay_mult: 0
  }
  convolution_param {
    num_output: 64
    kernel_size: 1
    weight_filler {
      type: "xavier"
    }
    bias_filler {
      type: "constant"
      value: 0.2
    }
  }
}
layer {
  name: "inception_4a/relu_pool_proj"
  type: "ReLU"
  bottom: "inception_4a/pool_proj"
  top: "inception_4a/pool_proj"
}
layer {
  name: "inception_4a/output"
  type: "Concat"
  bottom: "inception_4a/1x1"
  bottom: "inception_4a/3x3"
  bottom: "inception_4a/5x5"
  bottom: "inception_4a/pool_proj"
  top: "inception_4a/output"
}
layer {
  name: "inception_4a/output_inception_4a/output_0_split"
  type: "Split"
  bottom: "inception_4a/output"
  top: "inception_4a/output_inception_4a/output_0_split_0"
  top: "inception_4a/output_inception_4a/output_0_split_1"
  top: "inception_4a/output_inception_4a/output_0_split_2"
  top: "inception_4a/output_inception_4a/output_0_split_3"
  top: "inception_4a/output_inception_4a/output_0_split_4"
}
layer {
  name: "loss1/ave_pool"
  type: "Pooling"
  bottom: "inception_4a/output_inception_4a/output_0_split_0"
  top: "loss1/ave_pool"
  pooling_param {
    pool: AVE
    kernel_size: 5
    stride: 3
  }
}
layer {
  name: "loss1/conv"
  type: "Convolution"
  bottom: "loss1/ave_pool"
  top: "loss1/conv"
  param {
    lr_mult: 1
    decay_mult: 1
  }
  param {
    lr_mult: 2
    decay_mult: 0
  }
  convolution_param {
    num_output: 128
    kernel_size: 1
    weight_filler {
      type: "xavier"
    }
    bias_filler {
      type: "constant"
      value: 0.2
    }
  }
}
layer {
  name: "loss1/relu_conv"
  type: "ReLU"
  bottom: "loss1/conv"
  top: "loss1/conv"
}
layer {
  name: "loss1/fc"
  type: "InnerProduct"
  bottom: "loss1/conv"
  top: "loss1/fc"
  param {
    lr_mult: 1
    decay_mult: 1
  }
  param {
    lr_mult: 2
    decay_mult: 0
  }
  inner_product_param {
    num_output: 1024
    weight_filler {
      type: "xavier"
    }
    bias_filler {
      type: "constant"
      value: 0.2
    }
  }
}
layer {
  name: "loss1/relu_fc"
  type: "ReLU"
  bottom: "loss1/fc"
  top: "loss1/fc"
}
layer {
  name: "loss1/drop_fc"
  type: "Dropout"
  bottom: "loss1/fc"
  top: "loss1/fc"
  dropout_param {
    dropout_ratio: 0.7
  }
}
layer {
  name: "loss1/classifier"
  type: "InnerProduct"
  bottom: "loss1/fc"
  top: "loss1/classifier"
  param {
    lr_mult: 1
    decay_mult: 1
  }
  param {
    lr_mult: 2
    decay_mult: 0
  }
  inner_product_param {
    num_output: 1000
    weight_filler {
      type: "xavier"
    }
    bias_filler {
      type: "constant"
      value: 0
    }
  }
}
layer {
  name: "loss1/loss"
  type: "SoftmaxWithLoss"
  bottom: "loss1/classifier"
  bottom: "label_data_1_split_0"
  top: "loss1/loss1"
  loss_weight: 0.3
}
layer {
  name: "inception_4b/1x1"
  type: "Convolution"
  bottom: "inception_4a/output_inception_4a/output_0_split_1"
  top: "inception_4b/1x1"
  param {
    lr_mult: 1
    decay_mult: 1
  }
  param {
    lr_mult: 2
    decay_mult: 0
  }
  convolution_param {
    num_output: 160
    kernel_size: 1
    weight_filler {
      type: "xavier"
    }
    bias_filler {
      type: "constant"
      value: 0.2
    }
  }
}
layer {
  name: "inception_4b/relu_1x1"
  type: "ReLU"
  bottom: "inception_4b/1x1"
  top: "inception_4b/1x1"
}
layer {
  name: "inception_4b/3x3_reduce"
  type: "Convolution"
  bottom: "inception_4a/output_inception_4a/output_0_split_2"
  top: "inception_4b/3x3_reduce"
  param {
    lr_mult: 1
    decay_mult: 1
  }
  param {
    lr_mult: 2
    decay_mult: 0
  }
  convolution_param {
    num_output: 112
    kernel_size: 1
    weight_filler {
      type: "xavier"
    }
    bias_filler {
      type: "constant"
      value: 0.2
    }
  }
}
layer {
  name: "inception_4b/relu_3x3_reduce"
  type: "ReLU"
  bottom: "inception_4b/3x3_reduce"
  top: "inception_4b/3x3_reduce"
}
layer {
  name: "inception_4b/3x3"
  type: "Convolution"
  bottom: "inception_4b/3x3_reduce"
  top: "inception_4b/3x3"
  param {
    lr_mult: 1
    decay_mult: 1
  }
  param {
    lr_mult: 2
    decay_mult: 0
  }
  convolution_param {
    num_output: 224
    pad: 1
    kernel_size: 3
    weight_filler {
      type: "xavier"
    }
    bias_filler {
      type: "constant"
      value: 0.2
    }
  }
}
layer {
  name: "inception_4b/relu_3x3"
  type: "ReLU"
  bottom: "inception_4b/3x3"
  top: "inception_4b/3x3"
}
layer {
  name: "inception_4b/5x5_reduce"
  type: "Convolution"
  bottom: "inception_4a/output_inception_4a/output_0_split_3"
  top: "inception_4b/5x5_reduce"
  param {
    lr_mult: 1
    decay_mult: 1
  }
  param {
    lr_mult: 2
    decay_mult: 0
  }
  convolution_param {
    num_output: 24
    kernel_size: 1
    weight_filler {
      type: "xavier"
    }
    bias_filler {
      type: "constant"
      value: 0.2
    }
  }
}
layer {
  name: "inception_4b/relu_5x5_reduce"
  type: "ReLU"
  bottom: "inception_4b/5x5_reduce"
  top: "inception_4b/5x5_reduce"
}
layer {
  name: "inception_4b/5x5"
  type: "Convolution"
  bottom: "inception_4b/5x5_reduce"
  top: "inception_4b/5x5"
  param {
    lr_mult: 1
    decay_mult: 1
  }
  param {
    lr_mult: 2
    decay_mult: 0
  }
  convolution_param {
    num_output: 64
    pad: 2
    kernel_size: 5
    weight_filler {
      type: "xavier"
    }
    bias_filler {
      type: "constant"
      value: 0.2
    }
  }
}
layer {
  name: "inception_4b/relu_5x5"
  type: "ReLU"
  bottom: "inception_4b/5x5"
  top: "inception_4b/5x5"
}
layer {
  name: "inception_4b/pool"
  type: "Pooling"
  bottom: "inception_4a/output_inception_4a/output_0_split_4"
  top: "inception_4b/pool"
  pooling_param {
    pool: MAX
    kernel_size: 3
    stride: 1
    pad: 1
  }
}
layer {
  name: "inception_4b/pool_proj"
  type: "Convolution"
  bottom: "inception_4b/pool"
  top: "inception_4b/pool_proj"
  param {
    lr_mult: 1
    decay_mult: 1
  }
  param {
    lr_mult: 2
    decay_mult: 0
  }
  convolution_param {
    num_output: 64
    kernel_size: 1
    weight_filler {
      type: "xavier"
    }
    bias_filler {
      type: "constant"
      value: 0.2
    }
  }
}
layer {
  name: "inception_4b/relu_pool_proj"
  type: "ReLU"
  bottom: "inception_4b/pool_proj"
  top: "inception_4b/pool_proj"
}
layer {
  name: "inception_4b/output"
  type: "Concat"
  bottom: "inception_4b/1x1"
  bottom: "inception_4b/3x3"
  bottom: "inception_4b/5x5"
  bottom: "inception_4b/pool_proj"
  top: "inception_4b/output"
}
layer {
  name: "inception_4b/output_inception_4b/output_0_split"
  type: "Split"
  bottom: "inception_4b/output"
  top: "inception_4b/output_inception_4b/output_0_split_0"
  top: "inception_4b/output_inception_4b/output_0_split_1"
  top: "inception_4b/output_inception_4b/output_0_split_2"
  top: "inception_4b/output_inception_4b/output_0_split_3"
}
layer {
  name: "inception_4c/1x1"
  type: "Convolution"
  bottom: "inception_4b/output_inception_4b/output_0_split_0"
  top: "inception_4c/1x1"
  param {
    lr_mult: 1
    decay_mult: 1
  }
  param {
    lr_mult: 2
    decay_mult: 0
  }
  convolution_param {
    num_output: 128
    kernel_size: 1
    weight_filler {
      type: "xavier"
    }
    bias_filler {
      type: "constant"
      value: 0.2
    }
  }
}
layer {
  name: "inception_4c/relu_1x1"
  type: "ReLU"
  bottom: "inception_4c/1x1"
  top: "inception_4c/1x1"
}
layer {
  name: "inception_4c/3x3_reduce"
  type: "Convolution"
  bottom: "inception_4b/output_inception_4b/output_0_split_1"
  top: "inception_4c/3x3_reduce"
  param {
    lr_mult: 1
    decay_mult: 1
  }
  param {
    lr_mult: 2
    decay_mult: 0
  }
  convolution_param {
    num_output: 128
    kernel_size: 1
    weight_filler {
      type: "xavier"
    }
    bias_filler {
      type: "constant"
      value: 0.2
    }
  }
}
layer {
  name: "inception_4c/relu_3x3_reduce"
  type: "ReLU"
  bottom: "inception_4c/3x3_reduce"
  top: "inception_4c/3x3_reduce"
}
layer {
  name: "inception_4c/3x3"
  type: "Convolution"
  bottom: "inception_4c/3x3_reduce"
  top: "inception_4c/3x3"
  param {
    lr_mult: 1
    decay_mult: 1
  }
  param {
    lr_mult: 2
    decay_mult: 0
  }
  convolution_param {
    num_output: 256
    pad: 1
    kernel_size: 3
    weight_filler {
      type: "xavier"
    }
    bias_filler {
      type: "constant"
      value: 0.2
    }
  }
}
layer {
  name: "inception_4c/relu_3x3"
  type: "ReLU"
  bottom: "inception_4c/3x3"
  top: "inception_4c/3x3"
}
layer {
  name: "inception_4c/5x5_reduce"
  type: "Convolution"
  bottom: "inception_4b/output_inception_4b/output_0_split_2"
  top: "inception_4c/5x5_reduce"
  param {
    lr_mult: 1
    decay_mult: 1
  }
  param {
    lr_mult: 2
    decay_mult: 0
  }
  convolution_param {
    num_output: 24
    kernel_size: 1
    weight_filler {
      type: "xavier"
    }
    bias_filler {
      type: "constant"
      value: 0.2
    }
  }
}
layer {
  name: "inception_4c/relu_5x5_reduce"
  type: "ReLU"
  bottom: "inception_4c/5x5_reduce"
  top: "inception_4c/5x5_reduce"
}
layer {
  name: "inception_4c/5x5"
  type: "Convolution"
  bottom: "inception_4c/5x5_reduce"
  top: "inception_4c/5x5"
  param {
    lr_mult: 1
    decay_mult: 1
  }
  param {
    lr_mult: 2
    decay_mult: 0
  }
  convolution_param {
    num_output: 64
    pad: 2
    kernel_size: 5
    weight_filler {
      type: "xavier"
    }
    bias_filler {
      type: "constant"
      value: 0.2
    }
  }
}
layer {
  name: "inception_4c/relu_5x5"
  type: "ReLU"
  bottom: "inception_4c/5x5"
  top: "inception_4c/5x5"
}
layer {
  name: "inception_4c/pool"
  type: "Pooling"
  bottom: "inception_4b/output_inception_4b/output_0_split_3"
  top: "inception_4c/pool"
  pooling_param {
    pool: MAX
    kernel_size: 3
    stride: 1
    pad: 1
  }
}
layer {
  name: "inception_4c/pool_proj"
  type: "Convolution"
  bottom: "inception_4c/pool"
  top: "inception_4c/pool_proj"
  param {
    lr_mult: 1
    decay_mult: 1
  }
  param {
    lr_mult: 2
    decay_mult: 0
  }
  convolution_param {
    num_output: 64
    kernel_size: 1
    weight_filler {
      type: "xavier"
    }
    bias_filler {
      type: "constant"
      value: 0.2
    }
  }
}
layer {
  name: "inception_4c/relu_pool_proj"
  type: "ReLU"
  bottom: "inception_4c/pool_proj"
  top: "inception_4c/pool_proj"
}
layer {
  name: "inception_4c/output"
  type: "Concat"
  bottom: "inception_4c/1x1"
  bottom: "inception_4c/3x3"
  bottom: "inception_4c/5x5"
  bottom: "inception_4c/pool_proj"
  top: "inception_4c/output"
}
layer {
  name: "inception_4c/output_inception_4c/output_0_split"
  type: "Split"
  bottom: "inception_4c/output"
  top: "inception_4c/output_inception_4c/output_0_split_0"
  top: "inception_4c/output_inception_4c/output_0_split_1"
  top: "inception_4c/output_inception_4c/output_0_split_2"
  top: "inception_4c/output_inception_4c/output_0_split_3"
}
layer {
  name: "inception_4d/1x1"
  type: "Convolution"
  bottom: "inception_4c/output_inception_4c/output_0_split_0"
  top: "inception_4d/1x1"
  param {
    lr_mult: 1
    decay_mult: 1
  }
  param {
    lr_mult: 2
    decay_mult: 0
  }
  convolution_param {
    num_output: 112
    kernel_size: 1
    weight_filler {
      type: "xavier"
    }
    bias_filler {
      type: "constant"
      value: 0.2
    }
  }
}
layer {
  name: "inception_4d/relu_1x1"
  type: "ReLU"
  bottom: "inception_4d/1x1"
  top: "inception_4d/1x1"
}
layer {
  name: "inception_4d/3x3_reduce"
  type: "Convolution"
  bottom: "inception_4c/output_inception_4c/output_0_split_1"
  top: "inception_4d/3x3_reduce"
  param {
    lr_mult: 1
    decay_mult: 1
  }
  param {
    lr_mult: 2
    decay_mult: 0
  }
  convolution_param {
    num_output: 144
    kernel_size: 1
    weight_filler {
      type: "xavier"
    }
    bias_filler {
      type: "constant"
      value: 0.2
    }
  }
}
layer {
  name: "inception_4d/relu_3x3_reduce"
  type: "ReLU"
  bottom: "inception_4d/3x3_reduce"
  top: "inception_4d/3x3_reduce"
}
layer {
  name: "inception_4d/3x3"
  type: "Convolution"
  bottom: "inception_4d/3x3_reduce"
  top: "inception_4d/3x3"
  param {
    lr_mult: 1
    decay_mult: 1
  }
  param {
    lr_mult: 2
    decay_mult: 0
  }
  convolution_param {
    num_output: 288
    pad: 1
    kernel_size: 3
    weight_filler {
      type: "xavier"
    }
    bias_filler {
      type: "constant"
      value: 0.2
    }
  }
}
layer {
  name: "inception_4d/relu_3x3"
  type: "ReLU"
  bottom: "inception_4d/3x3"
  top: "inception_4d/3x3"
}
layer {
  name: "inception_4d/5x5_reduce"
  type: "Convolution"
  bottom: "inception_4c/output_inception_4c/output_0_split_2"
  top: "inception_4d/5x5_reduce"
  param {
    lr_mult: 1
    decay_mult: 1
  }
  param {
    lr_mult: 2
    decay_mult: 0
  }
  convolution_param {
    num_output: 32
    kernel_size: 1
    weight_filler {
      type: "xavier"
    }
    bias_filler {
      type: "constant"
      value: 0.2
    }
  }
}
layer {
  name: "inception_4d/relu_5x5_reduce"
  type: "ReLU"
  bottom: "inception_4d/5x5_reduce"
  top: "inception_4d/5x5_reduce"
}
layer {
  name: "inception_4d/5x5"
  type: "Convolution"
  bottom: "inception_4d/5x5_reduce"
  top: "inception_4d/5x5"
  param {
    lr_mult: 1
    decay_mult: 1
  }
  param {
    lr_mult: 2
    decay_mult: 0
  }
  convolution_param {
    num_output: 64
    pad: 2
    kernel_size: 5
    weight_filler {
      type: "xavier"
    }
    bias_filler {
      type: "constant"
      value: 0.2
    }
  }
}
layer {
  name: "inception_4d/relu_5x5"
  type: "ReLU"
  bottom: "inception_4d/5x5"
  top: "inception_4d/5x5"
}
layer {
  name: "inception_4d/pool"
  type: "Pooling"
  bottom: "inception_4c/output_inception_4c/output_0_split_3"
  top: "inception_4d/pool"
  pooling_param {
    pool: MAX
    kernel_size: 3
    stride: 1
    pad: 1
  }
}
layer {
  name: "inception_4d/pool_proj"
  type: "Convolution"
  bottom: "inception_4d/pool"
  top: "inception_4d/pool_proj"
  param {
    lr_mult: 1
    decay_mult: 1
  }
  param {
    lr_mult: 2
    decay_mult: 0
  }
  convolution_param {
    num_output: 64
    kernel_size: 1
    weight_filler {
      type: "xavier"
    }
    bias_filler {
      type: "constant"
      value: 0.2
    }
  }
}
layer {
  name: "inception_4d/relu_pool_proj"
  type: "ReLU"
  bottom: "inception_4d/pool_proj"
  top: "inception_4d/pool_proj"
}
layer {
  name: "inception_4d/output"
  type: "Concat"
  bottom: "inception_4d/1x1"
  bottom: "inception_4d/3x3"
  bottom: "inception_4d/5x5"
  bottom: "inception_4d/pool_proj"
  top: "inception_4d/output"
}
layer {
  name: "inception_4d/output_inception_4d/output_0_split"
  type: "Split"
  bottom: "inception_4d/output"
  top: "inception_4d/output_inception_4d/output_0_split_0"
  top: "inception_4d/output_inception_4d/output_0_split_1"
  top: "inception_4d/output_inception_4d/output_0_split_2"
  top: "inception_4d/output_inception_4d/output_0_split_3"
  top: "inception_4d/output_inception_4d/output_0_split_4"
}
layer {
  name: "loss2/ave_pool"
  type: "Pooling"
  bottom: "inception_4d/output_inception_4d/output_0_split_0"
  top: "loss2/ave_pool"
  pooling_param {
    pool: AVE
    kernel_size: 5
    stride: 3
  }
}
layer {
  name: "loss2/conv"
  type: "Convolution"
  bottom: "loss2/ave_pool"
  top: "loss2/conv"
  param {
    lr_mult: 1
    decay_mult: 1
  }
  param {
    lr_mult: 2
    decay_mult: 0
  }
  convolution_param {
    num_output: 128
    kernel_size: 1
    weight_filler {
      type: "xavier"
    }
    bias_filler {
      type: "constant"
      value: 0.2
    }
  }
}
layer {
  name: "loss2/relu_conv"
  type: "ReLU"
  bottom: "loss2/conv"
  top: "loss2/conv"
}
layer {
  name: "loss2/fc"
  type: "InnerProduct"
  bottom: "loss2/conv"
  top: "loss2/fc"
  param {
    lr_mult: 1
    decay_mult: 1
  }
  param {
    lr_mult: 2
    decay_mult: 0
  }
  inner_product_param {
    num_output: 1024
    weight_filler {
      type: "xavier"
    }
    bias_filler {
      type: "constant"
      value: 0.2
    }
  }
}
layer {
  name: "loss2/relu_fc"
  type: "ReLU"
  bottom: "loss2/fc"
  top: "loss2/fc"
}
layer {
  name: "loss2
I0123 12:20:03.223801 38191 layer_factory.hpp:114] Creating layer data
I0123 12:20:03.224932 38191 net.cpp:160] Creating Layer data
I0123 12:20:03.225042 38191 net.cpp:570] data -> data
I0123 12:20:03.225116 38191 net.cpp:570] data -> label
I0123 12:20:03.225352 38192 db_lmdb.cpp:72] Opened lmdb /home/user/caffeOMP/original/caffe/examples/imagenet/ilsvrc12_train_lmdb
I0123 12:20:03.226197 38191 data_layer.cpp:80] output data size: 32,3,224,224
I0123 12:20:03.263377 38191 net.cpp:210] Setting up data
I0123 12:20:03.263531 38191 net.cpp:217] Top shape: 32 3 224 224 (4816896)
I0123 12:20:03.263557 38191 net.cpp:217] Top shape: 32 (32)
I0123 12:20:03.263631 38191 net.cpp:225] Memory required for data: 19267712
I0123 12:20:03.263664 38191 layer_factory.hpp:114] Creating layer label_data_1_split
I0123 12:20:03.263730 38191 net.cpp:160] Creating Layer label_data_1_split
I0123 12:20:03.263756 38191 net.cpp:596] label_data_1_split <- label
I0123 12:20:03.263788 38191 net.cpp:570] label_data_1_split -> label_data_1_split_0
I0123 12:20:03.263829 38191 net.cpp:570] label_data_1_split -> label_data_1_split_1
I0123 12:20:03.263855 38191 net.cpp:570] label_data_1_split -> label_data_1_split_2
I0123 12:20:03.263896 38191 net.cpp:210] Setting up label_data_1_split
I0123 12:20:03.263918 38191 net.cpp:217] Top shape: 32 (32)
I0123 12:20:03.263938 38191 net.cpp:217] Top shape: 32 (32)
I0123 12:20:03.263958 38191 net.cpp:217] Top shape: 32 (32)
I0123 12:20:03.263972 38191 net.cpp:225] Memory required for data: 19268096
I0123 12:20:03.263990 38191 layer_factory.hpp:114] Creating layer conv1/7x7_s2
I0123 12:20:03.264060 38191 net.cpp:160] Creating Layer conv1/7x7_s2
I0123 12:20:03.264080 38191 net.cpp:596] conv1/7x7_s2 <- data
I0123 12:20:03.264108 38191 net.cpp:570] conv1/7x7_s2 -> conv1/7x7_s2
I0123 12:20:03.316349 38191 net.cpp:210] Setting up conv1/7x7_s2
I0123 12:20:03.316458 38191 net.cpp:217] Top shape: 32 64 112 112 (25690112)
I0123 12:20:03.316468 38191 net.cpp:225] Memory required for data: 122028544
I0123 12:20:03.316515 38191 layer_factory.hpp:114] Creating layer conv1/relu_7x7
I0123 12:20:03.316553 38191 net.cpp:160] Creating Layer conv1/relu_7x7
I0123 12:20:03.316567 38191 net.cpp:596] conv1/relu_7x7 <- conv1/7x7_s2
I0123 12:20:03.316582 38191 net.cpp:557] conv1/relu_7x7 -> conv1/7x7_s2 (in-place)
I0123 12:20:03.316612 38191 net.cpp:210] Setting up conv1/relu_7x7
I0123 12:20:03.316622 38191 net.cpp:217] Top shape: 32 64 112 112 (25690112)
I0123 12:20:03.316630 38191 net.cpp:225] Memory required for data: 224788992
I0123 12:20:03.316639 38191 layer_factory.hpp:114] Creating layer pool1/3x3_s2
I0123 12:20:03.316747 38191 net.cpp:160] Creating Layer pool1/3x3_s2
I0123 12:20:03.316759 38191 net.cpp:596] pool1/3x3_s2 <- conv1/7x7_s2
I0123 12:20:03.316771 38191 net.cpp:570] pool1/3x3_s2 -> pool1/3x3_s2
I0123 12:20:03.316805 38191 net.cpp:210] Setting up pool1/3x3_s2
I0123 12:20:03.316817 38191 net.cpp:217] Top shape: 32 64 56 56 (6422528)
I0123 12:20:03.316825 38191 net.cpp:225] Memory required for data: 250479104
I0123 12:20:03.316834 38191 layer_factory.hpp:114] Creating layer pool1/norm1
I0123 12:20:03.316854 38191 net.cpp:160] Creating Layer pool1/norm1
I0123 12:20:03.316862 38191 net.cpp:596] pool1/norm1 <- pool1/3x3_s2
I0123 12:20:03.316875 38191 net.cpp:570] pool1/norm1 -> pool1/norm1
I0123 12:20:03.316902 38191 net.cpp:210] Setting up pool1/norm1
I0123 12:20:03.316913 38191 net.cpp:217] Top shape: 32 64 56 56 (6422528)
I0123 12:20:03.316920 38191 net.cpp:225] Memory required for data: 276169216
I0123 12:20:03.316929 38191 layer_factory.hpp:114] Creating layer conv2/3x3_reduce
I0123 12:20:03.316961 38191 net.cpp:160] Creating Layer conv2/3x3_reduce
I0123 12:20:03.316969 38191 net.cpp:596] conv2/3x3_reduce <- pool1/norm1
I0123 12:20:03.316983 38191 net.cpp:570] conv2/3x3_reduce -> conv2/3x3_reduce
I0123 12:20:03.321786 38191 net.cpp:210] Setting up conv2/3x3_reduce
I0123 12:20:03.321812 38191 net.cpp:217] Top shape: 32 64 56 56 (6422528)
I0123 12:20:03.321821 38191 net.cpp:225] Memory required for data: 301859328
I0123 12:20:03.321837 38191 layer_factory.hpp:114] Creating layer conv2/relu_3x3_reduce
I0123 12:20:03.321849 38191 net.cpp:160] Creating Layer conv2/relu_3x3_reduce
I0123 12:20:03.321858 38191 net.cpp:596] conv2/relu_3x3_reduce <- conv2/3x3_reduce
I0123 12:20:03.321871 38191 net.cpp:557] conv2/relu_3x3_reduce -> conv2/3x3_reduce (in-place)
I0123 12:20:03.321884 38191 net.cpp:210] Setting up conv2/relu_3x3_reduce
I0123 12:20:03.321895 38191 net.cpp:217] Top shape: 32 64 56 56 (6422528)
I0123 12:20:03.321903 38191 net.cpp:225] Memory required for data: 327549440
I0123 12:20:03.321912 38191 layer_factory.hpp:114] Creating layer conv2/3x3
I0123 12:20:03.321929 38191 net.cpp:160] Creating Layer conv2/3x3
I0123 12:20:03.321979 38191 net.cpp:596] conv2/3x3 <- conv2/3x3_reduce
I0123 12:20:03.321991 38191 net.cpp:570] conv2/3x3 -> conv2/3x3
I0123 12:20:03.364233 38191 net.cpp:210] Setting up conv2/3x3
I0123 12:20:03.364253 38191 net.cpp:217] Top shape: 32 192 56 56 (19267584)
I0123 12:20:03.364260 38191 net.cpp:225] Memory required for data: 404619776
I0123 12:20:03.364274 38191 layer_factory.hpp:114] Creating layer conv2/relu_3x3
I0123 12:20:03.364291 38191 net.cpp:160] Creating Layer conv2/relu_3x3
I0123 12:20:03.364298 38191 net.cpp:596] conv2/relu_3x3 <- conv2/3x3
I0123 12:20:03.364310 38191 net.cpp:557] conv2/relu_3x3 -> conv2/3x3 (in-place)
I0123 12:20:03.364320 38191 net.cpp:210] Setting up conv2/relu_3x3
I0123 12:20:03.364329 38191 net.cpp:217] Top shape: 32 192 56 56 (19267584)
I0123 12:20:03.364336 38191 net.cpp:225] Memory required for data: 481690112
I0123 12:20:03.364351 38191 layer_factory.hpp:114] Creating layer conv2/norm2
I0123 12:20:03.364362 38191 net.cpp:160] Creating Layer conv2/norm2
I0123 12:20:03.364369 38191 net.cpp:596] conv2/norm2 <- conv2/3x3
I0123 12:20:03.364384 38191 net.cpp:570] conv2/norm2 -> conv2/norm2
I0123 12:20:03.364398 38191 net.cpp:210] Setting up conv2/norm2
I0123 12:20:03.364406 38191 net.cpp:217] Top shape: 32 192 56 56 (19267584)
I0123 12:20:03.364413 38191 net.cpp:225] Memory required for data: 558760448
I0123 12:20:03.364419 38191 layer_factory.hpp:114] Creating layer pool2/3x3_s2
I0123 12:20:03.364444 38191 net.cpp:160] Creating Layer pool2/3x3_s2
I0123 12:20:03.364452 38191 net.cpp:596] pool2/3x3_s2 <- conv2/norm2
I0123 12:20:03.364461 38191 net.cpp:570] pool2/3x3_s2 -> pool2/3x3_s2
I0123 12:20:03.364473 38191 net.cpp:210] Setting up pool2/3x3_s2
I0123 12:20:03.364482 38191 net.cpp:217] Top shape: 32 192 28 28 (4816896)
I0123 12:20:03.364490 38191 net.cpp:225] Memory required for data: 578028032
I0123 12:20:03.364496 38191 layer_factory.hpp:114] Creating layer pool2/3x3_s2_pool2/3x3_s2_0_split
I0123 12:20:03.364509 38191 net.cpp:160] Creating Layer pool2/3x3_s2_pool2/3x3_s2_0_split
I0123 12:20:03.364517 38191 net.cpp:596] pool2/3x3_s2_pool2/3x3_s2_0_split <- pool2/3x3_s2
I0123 12:20:03.364528 38191 net.cpp:570] pool2/3x3_s2_pool2/3x3_s2_0_split -> pool2/3x3_s2_pool2/3x3_s2_0_split_0
I0123 12:20:03.364539 38191 net.cpp:570] pool2/3x3_s2_pool2/3x3_s2_0_split -> pool2/3x3_s2_pool2/3x3_s2_0_split_1
I0123 12:20:03.364549 38191 net.cpp:570] pool2/3x3_s2_pool2/3x3_s2_0_split -> pool2/3x3_s2_pool2/3x3_s2_0_split_2
I0123 12:20:03.364559 38191 net.cpp:570] pool2/3x3_s2_pool2/3x3_s2_0_split -> pool2/3x3_s2_pool2/3x3_s2_0_split_3
I0123 12:20:03.364572 38191 net.cpp:210] Setting up pool2/3x3_s2_pool2/3x3_s2_0_split
I0123 12:20:03.364579 38191 net.cpp:217] Top shape: 32 192 28 28 (4816896)
I0123 12:20:03.364588 38191 net.cpp:217] Top shape: 32 192 28 28 (4816896)
I0123 12:20:03.364595 38191 net.cpp:217] Top shape: 32 192 28 28 (4816896)
I0123 12:20:03.364603 38191 net.cpp:217] Top shape: 32 192 28 28 (4816896)
I0123 12:20:03.364609 38191 net.cpp:225] Memory required for data: 655098368
I0123 12:20:03.364615 38191 layer_factory.hpp:114] Creating layer inception_3a/1x1
I0123 12:20:03.364631 38191 net.cpp:160] Creating Layer inception_3a/1x1
I0123 12:20:03.364639 38191 net.cpp:596] inception_3a/1x1 <- pool2/3x3_s2_pool2/3x3_s2_0_split_0
I0123 12:20:03.364650 38191 net.cpp:570] inception_3a/1x1 -> inception_3a/1x1
I0123 12:20:03.368407 38191 net.cpp:210] Setting up inception_3a/1x1
I0123 12:20:03.368423 38191 net.cpp:217] Top shape: 32 64 28 28 (1605632)
I0123 12:20:03.368430 38191 net.cpp:225] Memory required for data: 661520896
I0123 12:20:03.368441 38191 layer_factory.hpp:114] Creating layer inception_3a/relu_1x1
I0123 12:20:03.368451 38191 net.cpp:160] Creating Layer inception_3a/relu_1x1
I0123 12:20:03.368459 38191 net.cpp:596] inception_3a/relu_1x1 <- inception_3a/1x1
I0123 12:20:03.368470 38191 net.cpp:557] inception_3a/relu_1x1 -> inception_3a/1x1 (in-place)
I0123 12:20:03.368481 38191 net.cpp:210] Setting up inception_3a/relu_1x1
I0123 12:20:03.368499 38191 net.cpp:217] Top shape: 32 64 28 28 (1605632)
I0123 12:20:03.368505 38191 net.cpp:225] Memory required for data: 667943424
I0123 12:20:03.368512 38191 layer_factory.hpp:114] Creating layer inception_3a/3x3_reduce
I0123 12:20:03.368532 38191 net.cpp:160] Creating Layer inception_3a/3x3_reduce
I0123 12:20:03.368541 38191 net.cpp:596] inception_3a/3x3_reduce <- pool2/3x3_s2_pool2/3x3_s2_0_split_1
I0123 12:20:03.368551 38191 net.cpp:570] inception_3a/3x3_reduce -> inception_3a/3x3_reduce
I0123 12:20:03.372396 38191 net.cpp:210] Setting up inception_3a/3x3_reduce
I0123 12:20:03.372411 38191 net.cpp:217] Top shape: 32 96 28 28 (2408448)
I0123 12:20:03.372417 38191 net.cpp:225] Memory required for data: 677577216
I0123 12:20:03.372431 38191 layer_factory.hpp:114] Creating layer inception_3a/relu_3x3_reduce
I0123 12:20:03.372450 38191 net.cpp:160] Creating Layer inception_3a/relu_3x3_reduce
I0123 12:20:03.372464 38191 net.cpp:596] inception_3a/relu_3x3_reduce <- inception_3a/3x3_reduce
I0123 12:20:03.372474 38191 net.cpp:557] inception_3a/relu_3x3_reduce -> inception_3a/3x3_reduce (in-place)
I0123 12:20:03.372486 38191 net.cpp:210] Setting up inception_3a/relu_3x3_reduce
I0123 12:20:03.372495 38191 net.cpp:217] Top shape: 32 96 28 28 (2408448)
I0123 12:20:03.372501 38191 net.cpp:225] Memory required for data: 687211008
I0123 12:20:03.372509 38191 layer_factory.hpp:114] Creating layer inception_3a/3x3
I0123 12:20:03.372521 38191 net.cpp:160] Creating Layer inception_3a/3x3
I0123 12:20:03.372529 38191 net.cpp:596] inception_3a/3x3 <- inception_3a/3x3_reduce
I0123 12:20:03.372541 38191 net.cpp:570] inception_3a/3x3 -> inception_3a/3x3
I0123 12:20:03.389688 38191 net.cpp:210] Setting up inception_3a/3x3
I0123 12:20:03.389704 38191 net.cpp:217] Top shape: 32 128 28 28 (3211264)
I0123 12:20:03.389710 38191 net.cpp:225] Memory required for data: 700056064
I0123 12:20:03.389721 38191 layer_factory.hpp:114] Creating layer inception_3a/relu_3x3
I0123 12:20:03.389765 38191 net.cpp:160] Creating Layer inception_3a/relu_3x3
I0123 12:20:03.389773 38191 net.cpp:596] inception_3a/relu_3x3 <- inception_3a/3x3
I0123 12:20:03.389782 38191 net.cpp:557] inception_3a/relu_3x3 -> inception_3a/3x3 (in-place)
I0123 12:20:03.389796 38191 net.cpp:210] Setting up inception_3a/relu_3x3
I0123 12:20:03.389804 38191 net.cpp:217] Top shape: 32 128 28 28 (3211264)
I0123 12:20:03.389811 38191 net.cpp:225] Memory required for data: 712901120
I0123 12:20:03.389817 38191 layer_factory.hpp:114] Creating layer inception_3a/5x5_reduce
I0123 12:20:03.389830 38191 net.cpp:160] Creating Layer inception_3a/5x5_reduce
I0123 12:20:03.389838 38191 net.cpp:596] inception_3a/5x5_reduce <- pool2/3x3_s2_pool2/3x3_s2_0_split_2
I0123 12:20:03.389850 38191 net.cpp:570] inception_3a/5x5_reduce -> inception_3a/5x5_reduce
I0123 12:20:03.393601 38191 net.cpp:210] Setting up inception_3a/5x5_reduce
I0123 12:20:03.393616 38191 net.cpp:217] Top shape: 32 16 28 28 (401408)
I0123 12:20:03.393623 38191 net.cpp:225] Memory required for data: 714506752
I0123 12:20:03.393633 38191 layer_factory.hpp:114] Creating layer inception_3a/relu_5x5_reduce
I0123 12:20:03.393647 38191 net.cpp:160] Creating Layer inception_3a/relu_5x5_reduce
I0123 12:20:03.393656 38191 net.cpp:596] inception_3a/relu_5x5_reduce <- inception_3a/5x5_reduce
I0123 12:20:03.393664 38191 net.cpp:557] inception_3a/relu_5x5_reduce -> inception_3a/5x5_reduce (in-place)
I0123 12:20:03.393676 38191 net.cpp:210] Setting up inception_3a/relu_5x5_reduce
I0123 12:20:03.393684 38191 net.cpp:217] Top shape: 32 16 28 28 (401408)
I0123 12:20:03.393692 38191 net.cpp:225] Memory required for data: 716112384
I0123 12:20:03.393698 38191 layer_factory.hpp:114] Creating layer inception_3a/5x5
I0123 12:20:03.393710 38191 net.cpp:160] Creating Layer inception_3a/5x5
I0123 12:20:03.393718 38191 net.cpp:596] inception_3a/5x5 <- inception_3a/5x5_reduce
I0123 12:20:03.393735 38191 net.cpp:570] inception_3a/5x5 -> inception_3a/5x5
I0123 12:20:03.400499 38191 net.cpp:210] Setting up inception_3a/5x5
I0123 12:20:03.400516 38191 net.cpp:217] Top shape: 32 32 28 28 (802816)
I0123 12:20:03.400532 38191 net.cpp:225] Memory required for data: 719323648
I0123 12:20:03.400542 38191 layer_factory.hpp:114] Creating layer inception_3a/relu_5x5
I0123 12:20:03.400552 38191 net.cpp:160] Creating Layer inception_3a/relu_5x5
I0123 12:20:03.400559 38191 net.cpp:596] inception_3a/relu_5x5 <- inception_3a/5x5
I0123 12:20:03.400568 38191 net.cpp:557] inception_3a/relu_5x5 -> inception_3a/5x5 (in-place)
I0123 12:20:03.400578 38191 net.cpp:210] Setting up inception_3a/relu_5x5
I0123 12:20:03.400588 38191 net.cpp:217] Top shape: 32 32 28 28 (802816)
I0123 12:20:03.400593 38191 net.cpp:225] Memory required for data: 722534912
I0123 12:20:03.400600 38191 layer_factory.hpp:114] Creating layer inception_3a/pool
I0123 12:20:03.400626 38191 net.cpp:160] Creating Layer inception_3a/pool
I0123 12:20:03.400635 38191 net.cpp:596] inception_3a/pool <- pool2/3x3_s2_pool2/3x3_s2_0_split_3
I0123 12:20:03.400650 38191 net.cpp:570] inception_3a/pool -> inception_3a/pool
I0123 12:20:03.400671 38191 net.cpp:210] Setting up inception_3a/pool
I0123 12:20:03.400681 38191 net.cpp:217] Top shape: 32 192 28 28 (4816896)
I0123 12:20:03.400688 38191 net.cpp:225] Memory required for data: 741802496
I0123 12:20:03.400696 38191 layer_factory.hpp:114] Creating layer inception_3a/pool_proj
I0123 12:20:03.400707 38191 net.cpp:160] Creating Layer inception_3a/pool_proj
I0123 12:20:03.400715 38191 net.cpp:596] inception_3a/pool_proj <- inception_3a/pool
I0123 12:20:03.400727 38191 net.cpp:570] inception_3a/pool_proj -> inception_3a/pool_proj
I0123 12:20:03.404610 38191 net.cpp:210] Setting up inception_3a/pool_proj
I0123 12:20:03.404625 38191 net.cpp:217] Top shape: 32 32 28 28 (802816)
I0123 12:20:03.404633 38191 net.cpp:225] Memory required for data: 745013760
I0123 12:20:03.404660 38191 layer_factory.hpp:114] Creating layer inception_3a/relu_pool_proj
I0123 12:20:03.404672 38191 net.cpp:160] Creating Layer inception_3a/relu_pool_proj
I0123 12:20:03.404680 38191 net.cpp:596] inception_3a/relu_pool_proj <- inception_3a/pool_proj
I0123 12:20:03.404690 38191 net.cpp:557] inception_3a/relu_pool_proj -> inception_3a/pool_proj (in-place)
I0123 12:20:03.404700 38191 net.cpp:210] Setting up inception_3a/relu_pool_proj
I0123 12:20:03.404708 38191 net.cpp:217] Top shape: 32 32 28 28 (802816)
I0123 12:20:03.404714 38191 net.cpp:225] Memory required for data: 748225024
I0123 12:20:03.404721 38191 layer_factory.hpp:114] Creating layer inception_3a/output
I0123 12:20:03.404732 38191 net.cpp:160] Creating Layer inception_3a/output
I0123 12:20:03.404739 38191 net.cpp:596] inception_3a/output <- inception_3a/1x1
I0123 12:20:03.404747 38191 net.cpp:596] inception_3a/output <- inception_3a/3x3
I0123 12:20:03.404754 38191 net.cpp:596] inception_3a/output <- inception_3a/5x5
I0123 12:20:03.404762 38191 net.cpp:596] inception_3a/output <- inception_3a/pool_proj
I0123 12:20:03.404772 38191 net.cpp:570] inception_3a/output -> inception_3a/output
I0123 12:20:03.404793 38191 net.cpp:210] Setting up inception_3a/output
I0123 12:20:03.404803 38191 net.cpp:217] Top shape: 32 256 28 28 (6422528)
I0123 12:20:03.404808 38191 net.cpp:225] Memory required for data: 773915136
I0123 12:20:03.404815 38191 layer_factory.hpp:114] Creating layer inception_3a/output_inception_3a/output_0_split
I0123 12:20:03.404825 38191 net.cpp:160] Creating Layer inception_3a/output_inception_3a/output_0_split
I0123 12:20:03.404832 38191 net.cpp:596] inception_3a/output_inception_3a/output_0_split <- inception_3a/output
I0123 12:20:03.404844 38191 net.cpp:570] inception_3a/output_inception_3a/output_0_split -> inception_3a/output_inception_3a/output_0_split_0
I0123 12:20:03.404855 38191 net.cpp:570] inception_3a/output_inception_3a/output_0_split -> inception_3a/output_inception_3a/output_0_split_1
I0123 12:20:03.404865 38191 net.cpp:570] inception_3a/output_inception_3a/output_0_split -> inception_3a/output_inception_3a/output_0_split_2
I0123 12:20:03.404875 38191 net.cpp:570] inception_3a/output_inception_3a/output_0_split -> inception_3a/output_inception_3a/output_0_split_3
I0123 12:20:03.404893 38191 net.cpp:210] Setting up inception_3a/output_inception_3a/output_0_split
I0123 12:20:03.404902 38191 net.cpp:217] Top shape: 32 256 28 28 (6422528)
I0123 12:20:03.404911 38191 net.cpp:217] Top shape: 32 256 28 28 (6422528)
I0123 12:20:03.404918 38191 net.cpp:217] Top shape: 32 256 28 28 (6422528)
I0123 12:20:03.404927 38191 net.cpp:217] Top shape: 32 256 28 28 (6422528)
I0123 12:20:03.404932 38191 net.cpp:225] Memory required for data: 876675584
I0123 12:20:03.404939 38191 layer_factory.hpp:114] Creating layer inception_3b/1x1
I0123 12:20:03.404955 38191 net.cpp:160] Creating Layer inception_3b/1x1
I0123 12:20:03.404963 38191 net.cpp:596] inception_3b/1x1 <- inception_3a/output_inception_3a/output_0_split_0
I0123 12:20:03.404973 38191 net.cpp:570] inception_3b/1x1 -> inception_3b/1x1
I0123 12:20:03.410306 38191 net.cpp:210] Setting up inception_3b/1x1
I0123 12:20:03.410321 38191 net.cpp:217] Top shape: 32 128 28 28 (3211264)
I0123 12:20:03.410333 38191 net.cpp:225] Memory required for data: 889520640
I0123 12:20:03.410344 38191 layer_factory.hpp:114] Creating layer inception_3b/relu_1x1
I0123 12:20:03.410362 38191 net.cpp:160] Creating Layer inception_3b/relu_1x1
I0123 12:20:03.410368 38191 net.cpp:596] inception_3b/relu_1x1 <- inception_3b/1x1
I0123 12:20:03.410379 38191 net.cpp:557] inception_3b/relu_1x1 -> inception_3b/1x1 (in-place)
I0123 12:20:03.410390 38191 net.cpp:210] Setting up inception_3b/relu_1x1
I0123 12:20:03.410398 38191 net.cpp:217] Top shape: 32 128 28 28 (3211264)
I0123 12:20:03.410405 38191 net.cpp:225] Memory required for data: 902365696
I0123 12:20:03.410413 38191 layer_factory.hpp:114] Creating layer inception_3b/3x3_reduce
I0123 12:20:03.410428 38191 net.cpp:160] Creating Layer inception_3b/3x3_reduce
I0123 12:20:03.410435 38191 net.cpp:596] inception_3b/3x3_reduce <- inception_3a/output_inception_3a/output_0_split_1
I0123 12:20:03.410445 38191 net.cpp:570] inception_3b/3x3_reduce -> inception_3b/3x3_reduce
I0123 12:20:03.416209 38191 net.cpp:210] Setting up inception_3b/3x3_reduce
I0123 12:20:03.416224 38191 net.cpp:217] Top shape: 32 128 28 28 (3211264)
I0123 12:20:03.416230 38191 net.cpp:225] Memory required for data: 915210752
I0123 12:20:03.416240 38191 layer_factory.hpp:114] Creating layer inception_3b/relu_3x3_reduce
I0123 12:20:03.416265 38191 net.cpp:160] Creating Layer inception_3b/relu_3x3_reduce
I0123 12:20:03.416272 38191 net.cpp:596] inception_3b/relu_3x3_reduce <- inception_3b/3x3_reduce
I0123 12:20:03.416283 38191 net.cpp:557] inception_3b/relu_3x3_reduce -> inception_3b/3x3_reduce (in-place)
I0123 12:20:03.416295 38191 net.cpp:210] Setting up inception_3b/relu_3x3_reduce
I0123 12:20:03.416302 38191 net.cpp:217] Top shape: 32 128 28 28 (3211264)
I0123 12:20:03.416309 38191 net.cpp:225] Memory required for data: 928055808
I0123 12:20:03.416316 38191 layer_factory.hpp:114] Creating layer inception_3b/3x3
I0123 12:20:03.416332 38191 net.cpp:160] Creating Layer inception_3b/3x3
I0123 12:20:03.416339 38191 net.cpp:596] inception_3b/3x3 <- inception_3b/3x3_reduce
I0123 12:20:03.416352 38191 net.cpp:570] inception_3b/3x3 -> inception_3b/3x3
I0123 12:20:03.441042 38191 net.cpp:210] Setting up inception_3b/3x3
I0123 12:20:03.441066 38191 net.cpp:217] Top shape: 32 192 28 28 (4816896)
I0123 12:20:03.441073 38191 net.cpp:225] Memory required for data: 947323392
I0123 12:20:03.441083 38191 layer_factory.hpp:114] Creating layer inception_3b/relu_3x3
I0123 12:20:03.441094 38191 net.cpp:160] Creating Layer inception_3b/relu_3x3
I0123 12:20:03.441102 38191 net.cpp:596] inception_3b/relu_3x3 <- inception_3b/3x3
I0123 12:20:03.441113 38191 net.cpp:557] inception_3b/relu_3x3 -> inception_3b/3x3 (in-place)
I0123 12:20:03.441123 38191 net.cpp:210] Setting up inception_3b/relu_3x3
I0123 12:20:03.441131 38191 net.cpp:217] Top shape: 32 192 28 28 (4816896)
I0123 12:20:03.441138 38191 net.cpp:225] Memory required for data: 966590976
I0123 12:20:03.441145 38191 layer_factory.hpp:114] Creating layer inception_3b/5x5_reduce
I0123 12:20:03.441159 38191 net.cpp:160] Creating Layer inception_3b/5x5_reduce
I0123 12:20:03.441190 38191 net.cpp:596] inception_3b/5x5_reduce <- inception_3a/output_inception_3a/output_0_split_2
I0123 12:20:03.441205 38191 net.cpp:570] inception_3b/5x5_reduce -> inception_3b/5x5_reduce
I0123 12:20:03.445443 38191 net.cpp:210] Setting up inception_3b/5x5_reduce
I0123 12:20:03.445458 38191 net.cpp:217] Top shape: 32 32 28 28 (802816)
I0123 12:20:03.445466 38191 net.cpp:225] Memory required for data: 969802240
I0123 12:20:03.445475 38191 layer_factory.hpp:114] Creating layer inception_3b/relu_5x5_reduce
I0123 12:20:03.445492 38191 net.cpp:160] Creating Layer inception_3b/relu_5x5_reduce
I0123 12:20:03.445500 38191 net.cpp:596] inception_3b/relu_5x5_reduce <- inception_3b/5x5_reduce
I0123 12:20:03.445511 38191 net.cpp:557] inception_3b/relu_5x5_reduce -> inception_3b/5x5_reduce (in-place)
I0123 12:20:03.445521 38191 net.cpp:210] Setting up inception_3b/relu_5x5_reduce
I0123 12:20:03.445535 38191 net.cpp:217] Top shape: 32 32 28 28 (802816)
I0123 12:20:03.445543 38191 net.cpp:225] Memory required for data: 973013504
I0123 12:20:03.445549 38191 layer_factory.hpp:114] Creating layer inception_3b/5x5
I0123 12:20:03.445561 38191 net.cpp:160] Creating Layer inception_3b/5x5
I0123 12:20:03.445569 38191 net.cpp:596] inception_3b/5x5 <- inception_3b/5x5_reduce
I0123 12:20:03.445581 38191 net.cpp:570] inception_3b/5x5 -> inception_3b/5x5
I0123 12:20:03.460981 38191 net.cpp:210] Setting up inception_3b/5x5
I0123 12:20:03.461012 38191 net.cpp:217] Top shape: 32 96 28 28 (2408448)
I0123 12:20:03.461019 38191 net.cpp:225] Memory required for data: 982647296
I0123 12:20:03.461037 38191 layer_factory.hpp:114] Creating layer inception_3b/relu_5x5
I0123 12:20:03.461055 38191 net.cpp:160] Creating Layer inception_3b/relu_5x5
I0123 12:20:03.461061 38191 net.cpp:596] inception_3b/relu_5x5 <- inception_3b/5x5
I0123 12:20:03.461071 38191 net.cpp:557] inception_3b/relu_5x5 -> inception_3b/5x5 (in-place)
I0123 12:20:03.461081 38191 net.cpp:210] Setting up inception_3b/relu_5x5
I0123 12:20:03.461089 38191 net.cpp:217] Top shape: 32 96 28 28 (2408448)
I0123 12:20:03.461096 38191 net.cpp:225] Memory required for data: 992281088
I0123 12:20:03.461102 38191 layer_factory.hpp:114] Creating layer inception_3b/pool
I0123 12:20:03.461128 38191 net.cpp:160] Creating Layer inception_3b/pool
I0123 12:20:03.461138 38191 net.cpp:596] inception_3b/pool <- inception_3a/output_inception_3a/output_0_split_3
I0123 12:20:03.461150 38191 net.cpp:570] inception_3b/pool -> inception_3b/pool
I0123 12:20:03.461164 38191 net.cpp:210] Setting up inception_3b/pool
I0123 12:20:03.461180 38191 net.cpp:217] Top shape: 32 256 28 28 (6422528)
I0123 12:20:03.461189 38191 net.cpp:225] Memory required for data: 1017971200
I0123 12:20:03.461195 38191 layer_factory.hpp:114] Creating layer inception_3b/pool_proj
I0123 12:20:03.461210 38191 net.cpp:160] Creating Layer inception_3b/pool_proj
I0123 12:20:03.461218 38191 net.cpp:596] inception_3b/pool_proj <- inception_3b/pool
I0123 12:20:03.461230 38191 net.cpp:570] inception_3b/pool_proj -> inception_3b/pool_proj
I0123 12:20:03.466159 38191 net.cpp:210] Setting up inception_3b/pool_proj
I0123 12:20:03.466182 38191 net.cpp:217] Top shape: 32 64 28 28 (1605632)
I0123 12:20:03.466192 38191 net.cpp:225] Memory required for data: 1024393728
I0123 12:20:03.466202 38191 layer_factory.hpp:114] Creating layer inception_3b/relu_pool_proj
I0123 12:20:03.466215 38191 net.cpp:160] Creating Layer inception_3b/relu_pool_proj
I0123 12:20:03.466223 38191 net.cpp:596] inception_3b/relu_pool_proj <- inception_3b/pool_proj
I0123 12:20:03.466233 38191 net.cpp:557] inception_3b/relu_pool_proj -> inception_3b/pool_proj (in-place)
I0123 12:20:03.466245 38191 net.cpp:210] Setting up inception_3b/relu_pool_proj
I0123 12:20:03.466254 38191 net.cpp:217] Top shape: 32 64 28 28 (1605632)
I0123 12:20:03.466260 38191 net.cpp:225] Memory required for data: 1030816256
I0123 12:20:03.466267 38191 layer_factory.hpp:114] Creating layer inception_3b/output
I0123 12:20:03.466277 38191 net.cpp:160] Creating Layer inception_3b/output
I0123 12:20:03.466300 38191 net.cpp:596] inception_3b/output <- inception_3b/1x1
I0123 12:20:03.466308 38191 net.cpp:596] inception_3b/output <- inception_3b/3x3
I0123 12:20:03.466316 38191 net.cpp:596] inception_3b/output <- inception_3b/5x5
I0123 12:20:03.466325 38191 net.cpp:596] inception_3b/output <- inception_3b/pool_proj
I0123 12:20:03.466333 38191 net.cpp:570] inception_3b/output -> inception_3b/output
I0123 12:20:03.466344 38191 net.cpp:210] Setting up inception_3b/output
I0123 12:20:03.466353 38191 net.cpp:217] Top shape: 32 480 28 28 (12042240)
I0123 12:20:03.466361 38191 net.cpp:225] Memory required for data: 1078985216
I0123 12:20:03.466367 38191 layer_factory.hpp:114] Creating layer pool3/3x3_s2
I0123 12:20:03.466390 38191 net.cpp:160] Creating Layer pool3/3x3_s2
I0123 12:20:03.466399 38191 net.cpp:596] pool3/3x3_s2 <- inception_3b/output
I0123 12:20:03.466411 38191 net.cpp:570] pool3/3x3_s2 -> pool3/3x3_s2
I0123 12:20:03.466428 38191 net.cpp:210] Setting up pool3/3x3_s2
I0123 12:20:03.466440 38191 net.cpp:217] Top shape: 32 480 14 14 (3010560)
I0123 12:20:03.466446 38191 net.cpp:225] Memory required for data: 1091027456
I0123 12:20:03.466541 38191 layer_factory.hpp:114] Creating layer pool3/3x3_s2_pool3/3x3_s2_0_split
I0123 12:20:03.466552 38191 net.cpp:160] Creating Layer pool3/3x3_s2_pool3/3x3_s2_0_split
I0123 12:20:03.466558 38191 net.cpp:596] pool3/3x3_s2_pool3/3x3_s2_0_split <- pool3/3x3_s2
I0123 12:20:03.466568 38191 net.cpp:570] pool3/3x3_s2_pool3/3x3_s2_0_split -> pool3/3x3_s2_pool3/3x3_s2_0_split_0
I0123 12:20:03.466578 38191 net.cpp:570] pool3/3x3_s2_pool3/3x3_s2_0_split -> pool3/3x3_s2_pool3/3x3_s2_0_split_1
I0123 12:20:03.466588 38191 net.cpp:570] pool3/3x3_s2_pool3/3x3_s2_0_split -> pool3/3x3_s2_pool3/3x3_s2_0_split_2
I0123 12:20:03.466609 38191 net.cpp:570] pool3/3x3_s2_pool3/3x3_s2_0_split -> pool3/3x3_s2_pool3/3x3_s2_0_split_3
I0123 12:20:03.466620 38191 net.cpp:210] Setting up pool3/3x3_s2_pool3/3x3_s2_0_split
I0123 12:20:03.466629 38191 net.cpp:217] Top shape: 32 480 14 14 (3010560)
I0123 12:20:03.466637 38191 net.cpp:217] Top shape: 32 480 14 14 (3010560)
I0123 12:20:03.466650 38191 net.cpp:217] Top shape: 32 480 14 14 (3010560)
I0123 12:20:03.466658 38191 net.cpp:217] Top shape: 32 480 14 14 (3010560)
I0123 12:20:03.466665 38191 net.cpp:225] Memory required for data: 1139196416
I0123 12:20:03.466671 38191 layer_factory.hpp:114] Creating layer inception_4a/1x1
I0123 12:20:03.466686 38191 net.cpp:160] Creating Layer inception_4a/1x1
I0123 12:20:03.466693 38191 net.cpp:596] inception_4a/1x1 <- pool3/3x3_s2_pool3/3x3_s2_0_split_0
I0123 12:20:03.466708 38191 net.cpp:570] inception_4a/1x1 -> inception_4a/1x1
I0123 12:20:03.471931 38191 net.cpp:210] Setting up inception_4a/1x1
I0123 12:20:03.471956 38191 net.cpp:217] Top shape: 32 192 14 14 (1204224)
I0123 12:20:03.471962 38191 net.cpp:225] Memory required for data: 1144013312
I0123 12:20:03.471972 38191 layer_factory.hpp:114] Creating layer inception_4a/relu_1x1
I0123 12:20:03.471982 38191 net.cpp:160] Creating Layer inception_4a/relu_1x1
I0123 12:20:03.471989 38191 net.cpp:596] inception_4a/relu_1x1 <- inception_4a/1x1
I0123 12:20:03.472003 38191 net.cpp:557] inception_4a/relu_1x1 -> inception_4a/1x1 (in-place)
I0123 12:20:03.472013 38191 net.cpp:210] Setting up inception_4a/relu_1x1
I0123 12:20:03.472023 38191 net.cpp:217] Top shape: 32 192 14 14 (1204224)
I0123 12:20:03.472028 38191 net.cpp:225] Memory required for data: 1148830208
I0123 12:20:03.472035 38191 layer_factory.hpp:114] Creating layer inception_4a/3x3_reduce
I0123 12:20:03.472051 38191 net.cpp:160] Creating Layer inception_4a/3x3_reduce
I0123 12:20:03.472059 38191 net.cpp:596] inception_4a/3x3_reduce <- pool3/3x3_s2_pool3/3x3_s2_0_split_1
I0123 12:20:03.472069 38191 net.cpp:570] inception_4a/3x3_reduce -> inception_4a/3x3_reduce
I0123 12:20:03.476215 38191 net.cpp:210] Setting up inception_4a/3x3_reduce
I0123 12:20:03.476230 38191 net.cpp:217] Top shape: 32 96 14 14 (602112)
I0123 12:20:03.476236 38191 net.cpp:225] Memory required for data: 1151238656
I0123 12:20:03.495637 38191 layer_factory.hpp:114] Creating layer inception_4a/relu_3x3_reduce
I0123 12:20:03.495651 38191 net.cpp:160] Creating Layer inception_4a/relu_3x3_reduce
I0123 12:20:03.495659 38191 net.cpp:596] inception_4a/relu_3x3_reduce <- inception_4a/3x3_reduce
I0123 12:20:03.495668 38191 net.cpp:557] inception_4a/relu_3x3_reduce -> inception_4a/3x3_reduce (in-place)
I0123 12:20:03.495679 38191 net.cpp:210] Setting up inception_4a/relu_3x3_reduce
I0123 12:20:03.495688 38191 net.cpp:217] Top shape: 32 96 14 14 (602112)
I0123 12:20:03.495694 38191 net.cpp:225] Memory required for data: 1153647104
I0123 12:20:03.495702 38191 layer_factory.hpp:114] Creating layer inception_4a/3x3
I0123 12:20:03.495715 38191 net.cpp:160] Creating Layer inception_4a/3x3
I0123 12:20:03.495723 38191 net.cpp:596] inception_4a/3x3 <- inception_4a/3x3_reduce
I0123 12:20:03.495735 38191 net.cpp:570] inception_4a/3x3 -> inception_4a/3x3
I0123 12:20:03.505497 38191 net.cpp:210] Setting up inception_4a/3x3
I0123 12:20:03.505522 38191 net.cpp:217] Top shape: 32 208 14 14 (1304576)
I0123 12:20:03.505529 38191 net.cpp:225] Memory required for data: 1158865408
I0123 12:20:03.505540 38191 layer_factory.hpp:114] Creating layer inception_4a/relu_3x3
I0123 12:20:03.505560 38191 net.cpp:160] Creating Layer inception_4a/relu_3x3
I0123 12:20:03.505569 38191 net.cpp:596] inception_4a/relu_3x3 <- inception_4a/3x3
I0123 12:20:03.505578 38191 net.cpp:557] inception_4a/relu_3x3 -> inception_4a/3x3 (in-place)
I0123 12:20:03.505590 38191 net.cpp:210] Setting up inception_4a/relu_3x3
I0123 12:20:03.505599 38191 net.cpp:217] Top shape: 32 208 14 14 (1304576)
I0123 12:20:03.505606 38191 net.cpp:225] Memory required for data: 1164083712
I0123 12:20:03.505614 38191 layer_factory.hpp:114] Creating layer inception_4a/5x5_reduce
I0123 12:20:03.505631 38191 net.cpp:160] Creating Layer inception_4a/5x5_reduce
I0123 12:20:03.505640 38191 net.cpp:596] inception_4a/5x5_reduce <- pool3/3x3_s2_pool3/3x3_s2_0_split_2
I0123 12:20:03.505652 38191 net.cpp:570] inception_4a/5x5_reduce -> inception_4a/5x5_reduce
I0123 12:20:03.508260 38191 net.cpp:210] Setting up inception_4a/5x5_reduce
I0123 12:20:03.508275 38191 net.cpp:217] Top shape: 32 16 14 14 (100352)
I0123 12:20:03.508282 38191 net.cpp:225] Memory required for data: 1164485120
I0123 12:20:03.508292 38191 layer_factory.hpp:114] Creating layer inception_4a/relu_5x5_reduce
I0123 12:20:03.508306 38191 net.cpp:160] Creating Layer inception_4a/relu_5x5_reduce
I0123 12:20:03.508313 38191 net.cpp:596] inception_4a/relu_5x5_reduce <- inception_4a/5x5_reduce
I0123 12:20:03.508330 38191 net.cpp:557] inception_4a/relu_5x5_reduce -> inception_4a/5x5_reduce (in-place)
I0123 12:20:03.508340 38191 net.cpp:210] Setting up inception_4a/relu_5x5_reduce
I0123 12:20:03.508349 38191 net.cpp:217] Top shape: 32 16 14 14 (100352)
I0123 12:20:03.508355 38191 net.cpp:225] Memory required for data: 1164886528
I0123 12:20:03.508363 38191 layer_factory.hpp:114] Creating layer inception_4a/5x5
I0123 12:20:03.508378 38191 net.cpp:160] Creating Layer inception_4a/5x5
I0123 12:20:03.508386 38191 net.cpp:596] inception_4a/5x5 <- inception_4a/5x5_reduce
I0123 12:20:03.508397 38191 net.cpp:570] inception_4a/5x5 -> inception_4a/5x5
I0123 12:20:03.510834 38191 net.cpp:210] Setting up inception_4a/5x5
I0123 12:20:03.510849 38191 net.cpp:217] Top shape: 32 48 14 14 (301056)
I0123 12:20:03.510856 38191 net.cpp:225] Memory required for data: 1166090752
I0123 12:20:03.510866 38191 layer_factory.hpp:114] Creating layer inception_4a/relu_5x5
I0123 12:20:03.510900 38191 net.cpp:160] Creating Layer inception_4a/relu_5x5
I0123 12:20:03.510908 38191 net.cpp:596] inception_4a/relu_5x5 <- inception_4a/5x5
I0123 12:20:03.510920 38191 net.cpp:557] inception_4a/relu_5x5 -> inception_4a/5x5 (in-place)
I0123 12:20:03.510929 38191 net.cpp:210] Setting up inception_4a/relu_5x5
I0123 12:20:03.510938 38191 net.cpp:217] Top shape: 32 48 14 14 (301056)
I0123 12:20:03.510946 38191 net.cpp:225] Memory required for data: 1167294976
I0123 12:20:03.510952 38191 layer_factory.hpp:114] Creating layer inception_4a/pool
I0123 12:20:03.511006 38191 net.cpp:160] Creating Layer inception_4a/pool
I0123 12:20:03.511015 38191 net.cpp:596] inception_4a/pool <- pool3/3x3_s2_pool3/3x3_s2_0_split_3
I0123 12:20:03.511025 38191 net.cpp:570] inception_4a/pool -> inception_4a/pool
I0123 12:20:03.511039 38191 net.cpp:210] Setting up inception_4a/pool
I0123 12:20:03.511049 38191 net.cpp:217] Top shape: 32 480 14 14 (3010560)
I0123 12:20:03.511055 38191 net.cpp:225] Memory required for data: 1179337216
I0123 12:20:03.511062 38191 layer_factory.hpp:114] Creating layer inception_4a/pool_proj
I0123 12:20:03.511080 38191 net.cpp:160] Creating Layer inception_4a/pool_proj
I0123 12:20:03.511087 38191 net.cpp:596] inception_4a/pool_proj <- inception_4a/pool
I0123 12:20:03.511097 38191 net.cpp:570] inception_4a/pool_proj -> inception_4a/pool_proj
I0123 12:20:03.514883 38191 net.cpp:210] Setting up inception_4a/pool_proj
I0123 12:20:03.514905 38191 net.cpp:217] Top shape: 32 64 14 14 (401408)
I0123 12:20:03.514912 38191 net.cpp:225] Memory required for data: 1180942848
I0123 12:20:03.514924 38191 layer_factory.hpp:114] Creating layer inception_4a/relu_pool_proj
I0123 12:20:03.514955 38191 net.cpp:160] Creating Layer inception_4a/relu_pool_proj
I0123 12:20:03.514962 38191 net.cpp:596] inception_4a/relu_pool_proj <- inception_4a/pool_proj
I0123 12:20:03.514978 38191 net.cpp:557] inception_4a/relu_pool_proj -> inception_4a/pool_proj (in-place)
I0123 12:20:03.514997 38191 net.cpp:210] Setting up inception_4a/relu_pool_proj
I0123 12:20:03.515007 38191 net.cpp:217] Top shape: 32 64 14 14 (401408)
I0123 12:20:03.515012 38191 net.cpp:225] Memory required for data: 1182548480
I0123 12:20:03.515020 38191 layer_factory.hpp:114] Creating layer inception_4a/output
I0123 12:20:03.515030 38191 net.cpp:160] Creating Layer inception_4a/output
I0123 12:20:03.515038 38191 net.cpp:596] inception_4a/output <- inception_4a/1x1
I0123 12:20:03.515045 38191 net.cpp:596] inception_4a/output <- inception_4a/3x3
I0123 12:20:03.515053 38191 net.cpp:596] inception_4a/output <- inception_4a/5x5
I0123 12:20:03.515061 38191 net.cpp:596] inception_4a/output <- inception_4a/pool_proj
I0123 12:20:03.515070 38191 net.cpp:570] inception_4a/output -> inception_4a/output
I0123 12:20:03.515081 38191 net.cpp:210] Setting up inception_4a/output
I0123 12:20:03.515090 38191 net.cpp:217] Top shape: 32 512 14 14 (3211264)
I0123 12:20:03.515097 38191 net.cpp:225] Memory required for data: 1195393536
I0123 12:20:03.515105 38191 layer_factory.hpp:114] Creating layer inception_4a/output_inception_4a/output_0_split
I0123 12:20:03.515120 38191 net.cpp:160] Creating Layer inception_4a/output_inception_4a/output_0_split
I0123 12:20:03.515126 38191 net.cpp:596] inception_4a/output_inception_4a/output_0_split <- inception_4a/output
I0123 12:20:03.515138 38191 net.cpp:570] inception_4a/output_inception_4a/output_0_split -> inception_4a/output_inception_4a/output_0_split_0
I0123 12:20:03.515149 38191 net.cpp:570] inception_4a/output_inception_4a/output_0_split -> inception_4a/output_inception_4a/output_0_split_1
I0123 12:20:03.515161 38191 net.cpp:570] inception_4a/output_inception_4a/output_0_split -> inception_4a/output_inception_4a/output_0_split_2
I0123 12:20:03.515172 38191 net.cpp:570] inception_4a/output_inception_4a/output_0_split -> inception_4a/output_inception_4a/output_0_split_3
I0123 12:20:03.515189 38191 net.cpp:570] inception_4a/output_inception_4a/output_0_split -> inception_4a/output_inception_4a/output_0_split_4
I0123 12:20:03.515202 38191 net.cpp:210] Setting up inception_4a/output_inception_4a/output_0_split
I0123 12:20:03.515210 38191 net.cpp:217] Top shape: 32 512 14 14 (3211264)
I0123 12:20:03.515218 38191 net.cpp:217] Top shape: 32 512 14 14 (3211264)
I0123 12:20:03.515226 38191 net.cpp:217] Top shape: 32 512 14 14 (3211264)
I0123 12:20:03.515234 38191 net.cpp:217] Top shape: 32 512 14 14 (3211264)
I0123 12:20:03.515242 38191 net.cpp:217] Top shape: 32 512 14 14 (3211264)
I0123 12:20:03.515249 38191 net.cpp:225] Memory required for data: 1259618816
I0123 12:20:03.515255 38191 layer_factory.hpp:114] Creating layer loss1/ave_pool
I0123 12:20:03.515295 38191 net.cpp:160] Creating Layer loss1/ave_pool
I0123 12:20:03.515305 38191 net.cpp:596] loss1/ave_pool <- inception_4a/output_inception_4a/output_0_split_0
I0123 12:20:03.515317 38191 net.cpp:570] loss1/ave_pool -> loss1/ave_pool
I0123 12:20:03.515329 38191 net.cpp:210] Setting up loss1/ave_pool
I0123 12:20:03.515339 38191 net.cpp:217] Top shape: 32 512 4 4 (262144)
I0123 12:20:03.515347 38191 net.cpp:225] Memory required for data: 1260667392
I0123 12:20:03.515353 38191 layer_factory.hpp:114] Creating layer loss1/conv
I0123 12:20:03.515367 38191 net.cpp:160] Creating Layer loss1/conv
I0123 12:20:03.515374 38191 net.cpp:596] loss1/conv <- loss1/ave_pool
I0123 12:20:03.515386 38191 net.cpp:570] loss1/conv -> loss1/conv
I0123 12:20:03.517976 38191 net.cpp:210] Setting up loss1/conv
I0123 12:20:03.518002 38191 net.cpp:217] Top shape: 32 128 4 4 (65536)
I0123 12:20:03.518028 38191 net.cpp:225] Memory required for data: 1260929536
I0123 12:20:03.518039 38191 layer_factory.hpp:114] Creating layer loss1/relu_conv
I0123 12:20:03.518056 38191 net.cpp:160] Creating Layer loss1/relu_conv
I0123 12:20:03.518064 38191 net.cpp:596] loss1/relu_conv <- loss1/conv
I0123 12:20:03.518074 38191 net.cpp:557] loss1/relu_conv -> loss1/conv (in-place)
I0123 12:20:03.518084 38191 net.cpp:210] Setting up loss1/relu_conv
I0123 12:20:03.518091 38191 net.cpp:217] Top shape: 32 128 4 4 (65536)
I0123 12:20:03.518098 38191 net.cpp:225] Memory required for data: 1261191680
I0123 12:20:03.518105 38191 layer_factory.hpp:114] Creating layer loss1/fc
I0123 12:20:03.518148 38191 net.cpp:160] Creating Layer loss1/fc
I0123 12:20:03.518156 38191 net.cpp:596] loss1/fc <- loss1/conv
I0123 12:20:03.518165 38191 net.cpp:570] loss1/fc -> loss1/fc
I0123 12:20:03.536264 38191 net.cpp:210] Setting up loss1/fc
I0123 12:20:03.536284 38191 net.cpp:217] Top shape: 32 1024 (32768)
I0123 12:20:03.536298 38191 net.cpp:225] Memory required for data: 1261322752
I0123 12:20:03.536309 38191 layer_factory.hpp:114] Creating layer loss1/relu_fc
I0123 12:20:03.536319 38191 net.cpp:160] Creating Layer loss1/relu_fc
I0123 12:20:03.536327 38191 net.cpp:596] loss1/relu_fc <- loss1/fc
I0123 12:20:03.536339 38191 net.cpp:557] loss1/relu_fc -> loss1/fc (in-place)
I0123 12:20:03.536350 38191 net.cpp:210] Setting up loss1/relu_fc
I0123 12:20:03.536358 38191 net.cpp:217] Top shape: 32 1024 (32768)
I0123 12:20:03.536365 38191 net.cpp:225] Memory required for data: 1261453824
I0123 12:20:03.536371 38191 layer_factory.hpp:114] Creating layer loss1/drop_fc
I0123 12:20:03.536391 38191 net.cpp:160] Creating Layer loss1/drop_fc
I0123 12:20:03.536399 38191 net.cpp:596] loss1/drop_fc <- loss1/fc
I0123 12:20:03.536411 38191 net.cpp:557] loss1/drop_fc -> loss1/fc (in-place)
I0123 12:20:03.536430 38191 net.cpp:210] Setting up loss1/drop_fc
I0123 12:20:03.536439 38191 net.cpp:217] Top shape: 32 1024 (32768)
I0123 12:20:03.536445 38191 net.cpp:225] Memory required for data: 1261584896
I0123 12:20:03.536453 38191 layer_factory.hpp:114] Creating layer loss1/classifier
I0123 12:20:03.536465 38191 net.cpp:160] Creating Layer loss1/classifier
I0123 12:20:03.536473 38191 net.cpp:596] loss1/classifier <- loss1/fc
I0123 12:20:03.536484 38191 net.cpp:570] loss1/classifier -> loss1/classifier
I0123 12:20:03.545598 38191 net.cpp:210] Setting up loss1/classifier
I0123 12:20:03.545626 38191 net.cpp:217] Top shape: 32 1000 (32000)
I0123 12:20:03.545632 38191 net.cpp:225] Memory required for data: 1261712896
I0123 12:20:03.545644 38191 layer_factory.hpp:114] Creating layer loss1/loss
I0123 12:20:03.545663 38191 net.cpp:160] Creating Layer loss1/loss
I0123 12:20:03.545671 38191 net.cpp:596] loss1/loss <- loss1/classifier
I0123 12:20:03.545680 38191 net.cpp:596] loss1/loss <- label_data_1_split_0
I0123 12:20:03.545689 38191 net.cpp:570] loss1/loss -> loss1/loss1
…
I0123 12:20:03.549664 38191 net.cpp:217] Top shape: (1)
I0123 12:20:03.549690 38191 net.cpp:220]     with loss weight 0.3
I0123 12:20:03.549743 38191 net.cpp:225] Memory required for data: 1261712900
I0123 12:20:03.549751 38191 layer_factory.hpp:114] Creating layer inception_4b/1x1
I0123 12:20:03.549773 38191 net.cpp:160] Creating Layer inception_4b/1x1
I0123 12:20:03.549783 38191 net.cpp:596] inception_4b/1x1 <- inception_4a/output_inception_4a/output_0_split_1
I0123 12:20:03.549796 38191 net.cpp:570] inception_4b/1x1 -> inception_4b/1x1
I0123 12:20:03.555063 38191 net.cpp:210] Setting up inception_4b/1x1
I0123 12:20:03.555095 38191 net.cpp:217] Top shape: 32 160 14 14 (1003520)
I0123 12:20:03.555102 38191 net.cpp:225] Memory required for data: 1265726980
I0123 12:20:03.555126 38191 layer_factory.hpp:114] Creating layer inception_4b/relu_1x1
I0123 12:20:03.555145 38191 net.cpp:160] Creating Layer inception_4b/relu_1x1
I0123 12:20:03.555152 38191 net.cpp:596] inception_4b/relu_1x1 <- inception_4b/1x1
I0123 12:20:03.555162 38191 net.cpp:557] inception_4b/relu_1x1 -> inception_4b/1x1 (in-place)
I0123 12:20:03.555214 38191 net.cpp:210] Setting up inception_4b/relu_1x1
I0123 12:20:03.555227 38191 net.cpp:217] Top shape: 32 160 14 14 (1003520)
I0123 12:20:03.555233 38191 net.cpp:225] Memory required for data: 1269741060
I0123 12:20:03.555240 38191 layer_factory.hpp:114] Creating layer inception_4b/3x3_reduce
I0123 12:20:03.555255 38191 net.cpp:160] Creating Layer inception_4b/3x3_reduce
I0123 12:20:03.555264 38191 net.cpp:596] inception_4b/3x3_reduce <- inception_4a/output_inception_4a/output_0_split_2
I0123 12:20:03.555276 38191 net.cpp:570] inception_4b/3x3_reduce -> inception_4b/3x3_reduce
I0123 12:20:03.559825 38191 net.cpp:210] Setting up inception_4b/3x3_reduce
I0123 12:20:03.559847 38191 net.cpp:217] Top shape: 32 112 14 14 (702464)
I0123 12:20:03.559854 38191 net.cpp:225] Memory required for data: 1272550916
I0123 12:20:03.559871 38191 layer_factory.hpp:114] Creating layer inception_4b/relu_3x3_reduce
I0123 12:20:03.559891 38191 net.cpp:160] Creating Layer inception_4b/relu_3x3_reduce
I0123 12:20:03.559900 38191 net.cpp:596] inception_4b/relu_3x3_reduce <- inception_4b/3x3_reduce
I0123 12:20:03.559909 38191 net.cpp:557] inception_4b/relu_3x3_reduce -> inception_4b/3x3_reduce (in-place)
I0123 12:20:03.559927 38191 net.cpp:210] Setting up inception_4b/relu_3x3_reduce
I0123 12:20:03.559936 38191 net.cpp:217] Top shape: 32 112 14 14 (702464)
I0123 12:20:03.559942 38191 net.cpp:225] Memory required for data: 1275360772
I0123 12:20:03.559949 38191 layer_factory.hpp:114] Creating layer inception_4b/3x3
I0123 12:20:03.559963 38191 net.cpp:160] Creating Layer inception_4b/3x3
I0123 12:20:03.559972 38191 net.cpp:596] inception_4b/3x3 <- inception_4b/3x3_reduce
I0123 12:20:03.559983 38191 net.cpp:570] inception_4b/3x3 -> inception_4b/3x3
I0123 12:20:03.571472 38191 net.cpp:210] Setting up inception_4b/3x3
I0123 12:20:03.571488 38191 net.cpp:217] Top shape: 32 224 14 14 (1404928)
I0123 12:20:03.571494 38191 net.cpp:225] Memory required for data: 1280980484
I0123 12:20:03.571506 38191 layer_factory.hpp:114] Creating layer inception_4b/relu_3x3
I0123 12:20:03.571516 38191 net.cpp:160] Creating Layer inception_4b/relu_3x3
I0123 12:20:03.571522 38191 net.cpp:596] inception_4b/relu_3x3 <- inception_4b/3x3
I0123 12:20:03.571532 38191 net.cpp:557] inception_4b/relu_3x3 -> inception_4b/3x3 (in-place)
I0123 12:20:03.571542 38191 net.cpp:210] Setting up inception_4b/relu_3x3
I0123 12:20:03.571550 38191 net.cpp:217] Top shape: 32 224 14 14 (1404928)
I0123 12:20:03.571557 38191 net.cpp:225] Memory required for data: 1286600196
I0123 12:20:03.571564 38191 layer_factory.hpp:114] Creating layer inception_4b/5x5_reduce
I0123 12:20:03.571578 38191 net.cpp:160] Creating Layer inception_4b/5x5_reduce
I0123 12:20:03.571588 38191 net.cpp:596] inception_4b/5x5_reduce <- inception_4a/output_inception_4a/output_0_split_3
I0123 12:20:03.571612 38191 net.cpp:570] inception_4b/5x5_reduce -> inception_4b/5x5_reduce
I0123 12:20:03.574576 38191 net.cpp:210] Setting up inception_4b/5x5_reduce
I0123 12:20:03.574601 38191 net.cpp:217] Top shape: 32 24 14 14 (150528)
I0123 12:20:03.574609 38191 net.cpp:225] Memory required for data: 1287202308
I0123 12:20:03.574620 38191 layer_factory.hpp:114] Creating layer inception_4b/relu_5x5_reduce
I0123 12:20:03.574635 38191 net.cpp:160] Creating Layer inception_4b/relu_5x5_reduce
I0123 12:20:03.574645 38191 net.cpp:596] inception_4b/relu_5x5_reduce <- inception_4b/5x5_reduce
I0123 12:20:03.574653 38191 net.cpp:557] inception_4b/relu_5x5_reduce -> inception_4b/5x5_reduce (in-place)
I0123 12:20:03.574663 38191 net.cpp:210] Setting up inception_4b/relu_5x5_reduce
I0123 12:20:03.574671 38191 net.cpp:217] Top shape: 32 24 14 14 (150528)
I0123 12:20:03.574678 38191 net.cpp:225] Memory required for data: 1287804420
I0123 12:20:03.574684 38191 layer_factory.hpp:114] Creating layer inception_4b/5x5
I0123 12:20:03.574699 38191 net.cpp:160] Creating Layer inception_4b/5x5
I0123 12:20:03.574707 38191 net.cpp:596] inception_4b/5x5 <- inception_4b/5x5_reduce
I0123 12:20:03.574719 38191 net.cpp:570] inception_4b/5x5 -> inception_4b/5x5
I0123 12:20:03.579073 38191 net.cpp:210] Setting up inception_4b/5x5
I0123 12:20:03.579087 38191 net.cpp:217] Top shape: 32 64 14 14 (401408)
I0123 12:20:03.579094 38191 net.cpp:225] Memory required for data: 1289410052
I0123 12:20:03.579104 38191 layer_factory.hpp:114] Creating layer inception_4b/relu_5x5
I0123 12:20:03.579121 38191 net.cpp:160] Creating Layer inception_4b/relu_5x5
I0123 12:20:03.579129 38191 net.cpp:596] inception_4b/relu_5x5 <- inception_4b/5x5
I0123 12:20:03.579140 38191 net.cpp:557] inception_4b/relu_5x5 -> inception_4b/5x5 (in-place)
I0123 12:20:03.579150 38191 net.cpp:210] Setting up inception_4b/relu_5x5
I0123 12:20:03.579159 38191 net.cpp:217] Top shape: 32 64 14 14 (401408)
I0123 12:20:03.579166 38191 net.cpp:225] Memory required for data: 1291015684
I0123 12:20:03.579210 38191 layer_factory.hpp:114] Creating layer inception_4b/pool
I0123 12:20:03.579267 38191 net.cpp:160] Creating Layer inception_4b/pool
I0123 12:20:03.579275 38191 net.cpp:596] inception_4b/pool <- inception_4a/output_inception_4a/output_0_split_4
I0123 12:20:03.579288 38191 net.cpp:570] inception_4b/pool -> inception_4b/pool
I0123 12:20:03.579309 38191 net.cpp:210] Setting up inception_4b/pool
I0123 12:20:03.579319 38191 net.cpp:217] Top shape: 32 512 14 14 (3211264)
I0123 12:20:03.579326 38191 net.cpp:225] Memory required for data: 1303860740
I0123 12:20:03.579334 38191 layer_factory.hpp:114] Creating layer inception_4b/pool_proj
I0123 12:20:03.579347 38191 net.cpp:160] Creating Layer inception_4b/pool_proj
I0123 12:20:03.579355 38191 net.cpp:596] inception_4b/pool_proj <- inception_4b/pool
I0123 12:20:03.579367 38191 net.cpp:570] inception_4b/pool_proj -> inception_4b/pool_proj
I0123 12:20:03.583308 38191 net.cpp:210] Setting up inception_4b/pool_proj
I0123 12:20:03.583323 38191 net.cpp:217] Top shape: 32 64 14 14 (401408)
I0123 12:20:03.583330 38191 net.cpp:225] Memory required for data: 1305466372
I0123 12:20:03.583340 38191 layer_factory.hpp:114] Creating layer inception_4b/relu_pool_proj
I0123 12:20:03.583353 38191 net.cpp:160] Creating Layer inception_4b/relu_pool_proj
I0123 12:20:03.583361 38191 net.cpp:596] inception_4b/relu_pool_proj <- inception_4b/pool_proj
I0123 12:20:03.583370 38191 net.cpp:557] inception_4b/relu_pool_proj -> inception_4b/pool_proj (in-place)
I0123 12:20:03.583380 38191 net.cpp:210] Setting up inception_4b/relu_pool_proj
I0123 12:20:03.583389 38191 net.cpp:217] Top shape: 32 64 14 14 (401408)
I0123 12:20:03.583395 38191 net.cpp:225] Memory required for data: 1307072004
I0123 12:20:03.583402 38191 layer_factory.hpp:114] Creating layer inception_4b/output
I0123 12:20:03.583415 38191 net.cpp:160] Creating Layer inception_4b/output
I0123 12:20:03.583421 38191 net.cpp:596] inception_4b/output <- inception_4b/1x1
I0123 12:20:03.583436 38191 net.cpp:596] inception_4b/output <- inception_4b/3x3
I0123 12:20:03.583443 38191 net.cpp:596] inception_4b/output <- inception_4b/5x5
I0123 12:20:03.583451 38191 net.cpp:596] inception_4b/output <- inception_4b/pool_proj
I0123 12:20:03.583470 38191 net.cpp:570] inception_4b/output -> inception_4b/output
I0123 12:20:03.583492 38191 net.cpp:210] Setting up inception_4b/output
I0123 12:20:03.583500 38191 net.cpp:217] Top shape: 32 512 14 14 (3211264)
I0123 12:20:03.583506 38191 net.cpp:225] Memory required for data: 1319917060
I0123 12:20:03.583513 38191 layer_factory.hpp:114] Creating layer inception_4b/output_inception_4b/output_0_split
I0123 12:20:03.583524 38191 net.cpp:160] Creating Layer inception_4b/output_inception_4b/output_0_split
I0123 12:20:03.583531 38191 net.cpp:596] inception_4b/output_inception_4b/output_0_split <- inception_4b/output
I0123 12:20:03.583544 38191 net.cpp:570] inception_4b/output_inception_4b/output_0_split -> inception_4b/output_inception_4b/output_0_split_0
I0123 12:20:03.583554 38191 net.cpp:570] inception_4b/output_inception_4b/output_0_split -> inception_4b/output_inception_4b/output_0_split_1
I0123 12:20:03.583564 38191 net.cpp:570] inception_4b/output_inception_4b/output_0_split -> inception_4b/output_inception_4b/output_0_split_2
I0123 12:20:03.583575 38191 net.cpp:570] inception_4b/output_inception_4b/output_0_split -> inception_4b/output_inception_4b/output_0_split_3
I0123 12:20:03.583586 38191 net.cpp:210] Setting up inception_4b/output_inception_4b/output_0_split
I0123 12:20:03.583595 38191 net.cpp:217] Top shape: 32 512 14 14 (3211264)
I0123 12:20:03.583602 38191 net.cpp:217] Top shape: 32 512 14 14 (3211264)
I0123 12:20:03.583609 38191 net.cpp:217] Top shape: 32 512 14 14 (3211264)
I0123 12:20:03.583617 38191 net.cpp:217] Top shape: 32 512 14 14 (3211264)
I0123 12:20:03.583623 38191 net.cpp:225] Memory required for data: 1371297284
I0123 12:20:03.583631 38191 layer_factory.hpp:114] Creating layer inception_4c/1x1
I0123 12:20:03.583645 38191 net.cpp:160] Creating Layer inception_4c/1x1
I0123 12:20:03.583653 38191 net.cpp:596] inception_4c/1x1 <- inception_4b/output_inception_4b/output_0_split_0
I0123 12:20:03.583663 38191 net.cpp:570] inception_4c/1x1 -> inception_4c/1x1
I0123 12:20:03.588591 38191 net.cpp:210] Setting up inception_4c/1x1
I0123 12:20:03.588613 38191 net.cpp:217] Top shape: 32 128 14 14 (802816)
I0123 12:20:03.588619 38191 net.cpp:225] Memory required for data: 1374508548
I0123 12:20:03.588629 38191 layer_factory.hpp:114] Creating layer inception_4c/relu_1x1
I0123 12:20:03.588639 38191 net.cpp:160] Creating Layer inception_4c/relu_1x1
I0123 12:20:03.588654 38191 net.cpp:596] inception_4c/relu_1x1 <- inception_4c/1x1
I0123 12:20:03.588666 38191 net.cpp:557] inception_4c/relu_1x1 -> inception_4c/1x1 (in-place)
I0123 12:20:03.588676 38191 net.cpp:210] Setting up inception_4c/relu_1x1
I0123 12:20:03.588685 38191 net.cpp:217] Top shape: 32 128 14 14 (802816)
I0123 12:20:03.588691 38191 net.cpp:225] Memory required for data: 1377719812
I0123 12:20:03.588698 38191 layer_factory.hpp:114] Creating layer inception_4c/3x3_reduce
I0123 12:20:03.588711 38191 net.cpp:160] Creating Layer inception_4c/3x3_reduce
I0123 12:20:03.588718 38191 net.cpp:596] inception_4c/3x3_reduce <- inception_4b/output_inception_4b/output_0_split_1
I0123 12:20:03.588731 38191 net.cpp:570] inception_4c/3x3_reduce -> inception_4c/3x3_reduce
I0123 12:20:03.593652 38191 net.cpp:210] Setting up inception_4c/3x3_reduce
I0123 12:20:03.593667 38191 net.cpp:217] Top shape: 32 128 14 14 (802816)
I0123 12:20:03.593673 38191 net.cpp:225] Memory required for data: 1380931076
I0123 12:20:03.593683 38191 layer_factory.hpp:114] Creating layer inception_4c/relu_3x3_reduce
I0123 12:20:03.593701 38191 net.cpp:160] Creating Layer inception_4c/relu_3x3_reduce
I0123 12:20:03.593709 38191 net.cpp:596] inception_4c/relu_3x3_reduce <- inception_4c/3x3_reduce
I0123 12:20:03.593720 38191 net.cpp:557] inception_4c/relu_3x3_reduce -> inception_4c/3x3_reduce (in-place)
I0123 12:20:03.593730 38191 net.cpp:210] Setting up inception_4c/relu_3x3_reduce
I0123 12:20:03.593744 38191 net.cpp:217] Top shape: 32 128 14 14 (802816)
I0123 12:20:03.593751 38191 net.cpp:225] Memory required for data: 1384142340
I0123 12:20:03.593758 38191 layer_factory.hpp:114] Creating layer inception_4c/3x3
I0123 12:20:03.593778 38191 net.cpp:160] Creating Layer inception_4c/3x3
I0123 12:20:03.593786 38191 net.cpp:596] inception_4c/3x3 <- inception_4c/3x3_reduce
I0123 12:20:03.593796 38191 net.cpp:570] inception_4c/3x3 -> inception_4c/3x3
I0123 12:20:03.607786 38191 net.cpp:210] Setting up inception_4c/3x3
I0123 12:20:03.607802 38191 net.cpp:217] Top shape: 32 256 14 14 (1605632)
I0123 12:20:03.607810 38191 net.cpp:225] Memory required for data: 1390564868
I0123 12:20:03.607848 38191 layer_factory.hpp:114] Creating layer inception_4c/relu_3x3
I0123 12:20:03.607861 38191 net.cpp:160] Creating Layer inception_4c/relu_3x3
I0123 12:20:03.607868 38191 net.cpp:596] inception_4c/relu_3x3 <- inception_4c/3x3
I0123 12:20:03.607877 38191 net.cpp:557] inception_4c/relu_3x3 -> inception_4c/3x3 (in-place)
I0123 12:20:03.607888 38191 net.cpp:210] Setting up inception_4c/relu_3x3
I0123 12:20:03.607897 38191 net.cpp:217] Top shape: 32 256 14 14 (1605632)
I0123 12:20:03.607903 38191 net.cpp:225] Memory required for data: 1396987396
I0123 12:20:03.607910 38191 layer_factory.hpp:114] Creating layer inception_4c/5x5_reduce
I0123 12:20:03.607923 38191 net.cpp:160] Creating Layer inception_4c/5x5_reduce
I0123 12:20:03.607929 38191 net.cpp:596] inception_4c/5x5_reduce <- inception_4b/output_inception_4b/output_0_split_2
I0123 12:20:03.607941 38191 net.cpp:570] inception_4c/5x5_reduce -> inception_4c/5x5_reduce
I0123 12:20:03.610896 38191 net.cpp:210] Setting up inception_4c/5x5_reduce
I0123 12:20:03.610911 38191 net.cpp:217] Top shape: 32 24 14 14 (150528)
I0123 12:20:03.610918 38191 net.cpp:225] Memory required for data: 1397589508
I0123 12:20:03.610929 38191 layer_factory.hpp:114] Creating layer inception_4c/relu_5x5_reduce
I0123 12:20:03.610954 38191 net.cpp:160] Creating Layer inception_4c/relu_5x5_reduce
I0123 12:20:03.610961 38191 net.cpp:596] inception_4c/relu_5x5_reduce <- inception_4c/5x5_reduce
I0123 12:20:03.610970 38191 net.cpp:557] inception_4c/relu_5x5_reduce -> inception_4c/5x5_reduce (in-place)
I0123 12:20:03.610980 38191 net.cpp:210] Setting up inception_4c/relu_5x5_reduce
I0123 12:20:03.610988 38191 net.cpp:217] Top shape: 32 24 14 14 (150528)
I0123 12:20:03.610996 38191 net.cpp:225] Memory required for data: 1398191620
I0123 12:20:03.611002 38191 layer_factory.hpp:114] Creating layer inception_4c/5x5
I0123 12:20:03.611016 38191 net.cpp:160] Creating Layer inception_4c/5x5
I0123 12:20:03.611023 38191 net.cpp:596] inception_4c/5x5 <- inception_4c/5x5_reduce
I0123 12:20:03.611035 38191 net.cpp:570] inception_4c/5x5 -> inception_4c/5x5
I0123 12:20:03.615407 38191 net.cpp:210] Setting up inception_4c/5x5
I0123 12:20:03.615424 38191 net.cpp:217] Top shape: 32 64 14 14 (401408)
I0123 12:20:03.615432 38191 net.cpp:225] Memory required for data: 1399797252
I0123 12:20:03.615442 38191 layer_factory.hpp:114] Creating layer inception_4c/relu_5x5
I0123 12:20:03.615452 38191 net.cpp:160] Creating Layer inception_4c/relu_5x5
I0123 12:20:03.615459 38191 net.cpp:596] inception_4c/relu_5x5 <- inception_4c/5x5
I0123 12:20:03.615468 38191 net.cpp:557] inception_4c/relu_5x5 -> inception_4c/5x5 (in-place)
I0123 12:20:03.615478 38191 net.cpp:210] Setting up inception_4c/relu_5x5
I0123 12:20:03.615486 38191 net.cpp:217] Top shape: 32 64 14 14 (401408)
I0123 12:20:03.615492 38191 net.cpp:225] Memory required for data: 1401402884
I0123 12:20:03.615499 38191 layer_factory.hpp:114] Creating layer inception_4c/pool
I0123 12:20:03.615527 38191 net.cpp:160] Creating Layer inception_4c/pool
I0123 12:20:03.615536 38191 net.cpp:596] inception_4c/pool <- inception_4b/output_inception_4b/output_0_split_3
I0123 12:20:03.615545 38191 net.cpp:570] inception_4c/pool -> inception_4c/pool
I0123 12:20:03.615558 38191 net.cpp:210] Setting up inception_4c/pool
I0123 12:20:03.615569 38191 net.cpp:217] Top shape: 32 512 14 14 (3211264)
I0123 12:20:03.615581 38191 net.cpp:225] Memory required for data: 1414247940
I0123 12:20:03.615588 38191 layer_factory.hpp:114] Creating layer inception_4c/pool_proj
I0123 12:20:03.615602 38191 net.cpp:160] Creating Layer inception_4c/pool_proj
I0123 12:20:03.615617 38191 net.cpp:596] inception_4c/pool_proj <- inception_4c/pool
I0123 12:20:03.615629 38191 net.cpp:570] inception_4c/pool_proj -> inception_4c/pool_proj
I0123 12:20:03.619596 38191 net.cpp:210] Setting up inception_4c/pool_proj
I0123 12:20:03.619611 38191 net.cpp:217] Top shape: 32 64 14 14 (401408)
I0123 12:20:03.619618 38191 net.cpp:225] Memory required for data: 1415853572
I0123 12:20:03.619628 38191 layer_factory.hpp:114] Creating layer inception_4c/relu_pool_proj
I0123 12:20:03.619658 38191 net.cpp:160] Creating Layer inception_4c/relu_pool_proj
I0123 12:20:03.619666 38191 net.cpp:596] inception_4c/relu_pool_proj <- inception_4c/pool_proj
I0123 12:20:03.619675 38191 net.cpp:557] inception_4c/relu_pool_proj -> inception_4c/pool_proj (in-place)
I0123 12:20:03.619685 38191 net.cpp:210] Setting up inception_4c/relu_pool_proj
I0123 12:20:03.619693 38191 net.cpp:217] Top shape: 32 64 14 14 (401408)
I0123 12:20:03.619700 38191 net.cpp:225] Memory required for data: 1417459204
I0123 12:20:03.619707 38191 layer_factory.hpp:114] Creating layer inception_4c/output
I0123 12:20:03.619719 38191 net.cpp:160] Creating Layer inception_4c/output
I0123 12:20:03.619727 38191 net.cpp:596] inception_4c/output <- inception_4c/1x1
I0123 12:20:03.619735 38191 net.cpp:596] inception_4c/output <- inception_4c/3x3
I0123 12:20:03.619742 38191 net.cpp:596] inception_4c/output <- inception_4c/5x5
I0123 12:20:03.619750 38191 net.cpp:596] inception_4c/output <- inception_4c/pool_proj
I0123 12:20:03.619760 38191 net.cpp:570] inception_4c/output -> inception_4c/output
I0123 12:20:03.619771 38191 net.cpp:210] Setting up inception_4c/output
I0123 12:20:03.619779 38191 net.cpp:217] Top shape: 32 512 14 14 (3211264)
I0123 12:20:03.619786 38191 net.cpp:225] Memory required for data: 1430304260
I0123 12:20:03.619792 38191 layer_factory.hpp:114] Creating layer inception_4c/output_inception_4c/output_0_split
I0123 12:20:03.619803 38191 net.cpp:160] Creating Layer inception_4c/output_inception_4c/output_0_split
I0123 12:20:03.619812 38191 net.cpp:596] inception_4c/output_inception_4c/output_0_split <- inception_4c/output
I0123 12:20:03.619819 38191 net.cpp:570] inception_4c/output_inception_4c/output_0_split -> inception_4c/output_inception_4c/output_0_split_0
I0123 12:20:03.619830 38191 net.cpp:570] inception_4c/output_inception_4c/output_0_split -> inception_4c/output_inception_4c/output_0_split_1
I0123 12:20:03.619840 38191 net.cpp:570] inception_4c/output_inception_4c/output_0_split -> inception_4c/output_inception_4c/output_0_split_2
I0123 12:20:03.619851 38191 net.cpp:570] inception_4c/output_inception_4c/output_0_split -> inception_4c/output_inception_4c/output_0_split_3
I0123 12:20:03.619863 38191 net.cpp:210] Setting up inception_4c/output_inception_4c/output_0_split
I0123 12:20:03.619873 38191 net.cpp:217] Top shape: 32 512 14 14 (3211264)
I0123 12:20:03.619880 38191 net.cpp:217] Top shape: 32 512 14 14 (3211264)
I0123 12:20:03.619889 38191 net.cpp:217] Top shape: 32 512 14 14 (3211264)
I0123 12:20:03.619895 38191 net.cpp:217] Top shape: 32 512 14 14 (3211264)
I0123 12:20:03.619901 38191 net.cpp:225] Memory required for data: 1481684484
I0123 12:20:03.619909 38191 layer_factory.hpp:114] Creating layer inception_4d/1x1
I0123 12:20:03.619922 38191 net.cpp:160] Creating Layer inception_4d/1x1
I0123 12:20:03.619930 38191 net.cpp:596] inception_4d/1x1 <- inception_4c/output_inception_4c/output_0_split_0
I0123 12:20:03.619941 38191 net.cpp:570] inception_4d/1x1 -> inception_4d/1x1
I0123 12:20:03.624521 38191 net.cpp:210] Setting up inception_4d/1x1
I0123 12:20:03.624536 38191 net.cpp:217] Top shape: 32 112 14 14 (702464)
I0123 12:20:03.624542 38191 net.cpp:225] Memory required for data: 1484494340
I0123 12:20:03.624552 38191 layer_factory.hpp:114] Creating layer inception_4d/relu_1x1
I0123 12:20:03.624584 38191 net.cpp:160] Creating Layer inception_4d/relu_1x1
I0123 12:20:03.624593 38191 net.cpp:596] inception_4d/relu_1x1 <- inception_4d/1x1
I0123 12:20:03.624603 38191 net.cpp:557] inception_4d/relu_1x1 -> inception_4d/1x1 (in-place)
I0123 12:20:03.624620 38191 net.cpp:210] Setting up inception_4d/relu_1x1
I0123 12:20:03.624629 38191 net.cpp:217] Top shape: 32 112 14 14 (702464)
I0123 12:20:03.624636 38191 net.cpp:225] Memory required for data: 1487304196
I0123 12:20:03.624642 38191 layer_factory.hpp:114] Creating layer inception_4d/3x3_reduce
I0123 12:20:03.624657 38191 net.cpp:160] Creating Layer inception_4d/3x3_reduce
I0123 12:20:03.624665 38191 net.cpp:596] inception_4d/3x3_reduce <- inception_4c/output_inception_4c/output_0_split_1
I0123 12:20:03.624677 38191 net.cpp:570] inception_4d/3x3_reduce -> inception_4d/3x3_reduce
I0123 12:20:03.629948 38191 net.cpp:210] Setting up inception_4d/3x3_reduce
I0123 12:20:03.629963 38191 net.cpp:217] Top shape: 32 144 14 14 (903168)
I0123 12:20:03.629971 38191 net.cpp:225] Memory required for data: 1490916868
I0123 12:20:03.629981 38191 layer_factory.hpp:114] Creating layer inception_4d/relu_3x3_reduce
I0123 12:20:03.630004 38191 net.cpp:160] Creating Layer inception_4d/relu_3x3_reduce
I0123 12:20:03.630019 38191 net.cpp:596] inception_4d/relu_3x3_reduce <- inception_4d/3x3_reduce
I0123 12:20:03.630030 38191 net.cpp:557] inception_4d/relu_3x3_reduce -> inception_4d/3x3_reduce (in-place)
I0123 12:20:03.630041 38191 net.cpp:210] Setting up inception_4d/relu_3x3_reduce
I0123 12:20:03.630049 38191 net.cpp:217] Top shape: 32 144 14 14 (903168)
I0123 12:20:03.630056 38191 net.cpp:225] Memory required for data: 1494529540
I0123 12:20:03.630062 38191 layer_factory.hpp:114] Creating layer inception_4d/3x3
I0123 12:20:03.630075 38191 net.cpp:160] Creating Layer inception_4d/3x3
I0123 12:20:03.630082 38191 net.cpp:596] inception_4d/3x3 <- inception_4d/3x3_reduce
I0123 12:20:03.630095 38191 net.cpp:570] inception_4d/3x3 -> inception_4d/3x3
I0123 12:20:03.647390 38191 net.cpp:210] Setting up inception_4d/3x3
I0123 12:20:03.647414 38191 net.cpp:217] Top shape: 32 288 14 14 (1806336)
I0123 12:20:03.647420 38191 net.cpp:225] Memory required for data: 1501754884
I0123 12:20:03.647430 38191 layer_factory.hpp:114] Creating layer inception_4d/relu_3x3
I0123 12:20:03.647445 38191 net.cpp:160] Creating Layer inception_4d/relu_3x3
I0123 12:20:03.647454 38191 net.cpp:596] inception_4d/relu_3x3 <- inception_4d/3x3
I0123 12:20:03.647462 38191 net.cpp:557] inception_4d/relu_3x3 -> inception_4d/3x3 (in-place)
I0123 12:20:03.647480 38191 net.cpp:210] Setting up inception_4d/relu_3x3
I0123 12:20:03.647487 38191 net.cpp:217] Top shape: 32 288 14 14 (1806336)
I0123 12:20:03.647495 38191 net.cpp:225] Memory required for data: 1508980228
I0123 12:20:03.647500 38191 layer_factory.hpp:114] Creating layer inception_4d/5x5_reduce
I0123 12:20:03.647514 38191 net.cpp:160] Creating Layer inception_4d/5x5_reduce
I0123 12:20:03.647522 38191 net.cpp:596] inception_4d/5x5_reduce <- inception_4c/output_inception_4c/output_0_split_2
I0123 12:20:03.647532 38191 net.cpp:570] inception_4d/5x5_reduce -> inception_4d/5x5_reduce
I0123 12:20:03.650614 38191 net.cpp:210] Setting up inception_4d/5x5_reduce
I0123 12:20:03.650629 38191 net.cpp:217] Top shape: 32 32 14 14 (200704)
I0123 12:20:03.650635 38191 net.cpp:225] Memory required for data: 1509783044
I0123 12:20:03.650645 38191 layer_factory.hpp:114] Creating layer inception_4d/relu_5x5_reduce
I0123 12:20:03.650658 38191 net.cpp:160] Creating Layer inception_4d/relu_5x5_reduce
I0123 12:20:03.650673 38191 net.cpp:596] inception_4d/relu_5x5_reduce <- inception_4d/5x5_reduce
I0123 12:20:03.650682 38191 net.cpp:557] inception_4d/relu_5x5_reduce -> inception_4d/5x5_reduce (in-place)
I0123 12:20:03.650692 38191 net.cpp:210] Setting up inception_4d/relu_5x5_reduce
I0123 12:20:03.650701 38191 net.cpp:217] Top shape: 32 32 14 14 (200704)
I0123 12:20:03.650707 38191 net.cpp:225] Memory required for data: 1510585860
I0123 12:20:03.650713 38191 layer_factory.hpp:114] Creating layer inception_4d/5x5
I0123 12:20:03.650732 38191 net.cpp:160] Creating Layer inception_4d/5x5
I0123 12:20:03.650740 38191 net.cpp:596] inception_4d/5x5 <- inception_4d/5x5_reduce
I0123 12:20:03.650753 38191 net.cpp:570] inception_4d/5x5 -> inception_4d/5x5
I0123 12:20:03.656553 38191 net.cpp:210] Setting up inception_4d/5x5
I0123 12:20:03.656574 38191 net.cpp:217] Top shape: 32 64 14 14 (401408)
I0123 12:20:03.656581 38191 net.cpp:225] Memory required for data: 1512191492
I0123 12:20:03.656591 38191 layer_factory.hpp:114] Creating layer inception_4d/relu_5x5
I0123 12:20:03.656605 38191 net.cpp:160] Creating Layer inception_4d/relu_5x5
I0123 12:20:03.656620 38191 net.cpp:596] inception_4d/relu_5x5 <- inception_4d/5x5
I0123 12:20:03.656630 38191 net.cpp:557] inception_4d/relu_5x5 -> inception_4d/5x5 (in-place)
I0123 12:20:03.656639 38191 net.cpp:210] Setting up inception_4d/relu_5x5
I0123 12:20:03.656647 38191 net.cpp:217] Top shape: 32 64 14 14 (401408)
I0123 12:20:03.656654 38191 net.cpp:225] Memory required for data: 1513797124
I0123 12:20:03.656661 38191 layer_factory.hpp:114] Creating layer inception_4d/pool
I0123 12:20:03.656692 38191 net.cpp:160] Creating Layer inception_4d/pool
I0123 12:20:03.656702 38191 net.cpp:596] inception_4d/pool <- inception_4c/output_inception_4c/output_0_split_3
I0123 12:20:03.656713 38191 net.cpp:570] inception_4d/pool -> inception_4d/pool
I0123 12:20:03.656725 38191 net.cpp:210] Setting up inception_4d/pool
I0123 12:20:03.656734 38191 net.cpp:217] Top shape: 32 512 14 14 (3211264)
I0123 12:20:03.656741 38191 net.cpp:225] Memory required for data: 1526642180
I0123 12:20:03.656749 38191 layer_factory.hpp:114] Creating layer inception_4d/pool_proj
I0123 12:20:03.656762 38191 net.cpp:160] Creating Layer inception_4d/pool_proj
I0123 12:20:03.656770 38191 net.cpp:596] inception_4d/pool_proj <- inception_4d/pool
I0123 12:20:03.656781 38191 net.cpp:570] inception_4d/pool_proj -> inception_4d/pool_proj
I0123 12:20:03.660832 38191 net.cpp:210] Setting up inception_4d/pool_proj
I0123 12:20:03.660847 38191 net.cpp:217] Top shape: 32 64 14 14 (401408)
I0123 12:20:03.660853 38191 net.cpp:225] Memory required for data: 1528247812
I0123 12:20:03.660863 38191 layer_factory.hpp:114] Creating layer inception_4d/relu_pool_proj
I0123 12:20:03.660882 38191 net.cpp:160] Creating Layer inception_4d/relu_pool_proj
I0123 12:20:03.660892 38191 net.cpp:596] inception_4d/relu_pool_proj <- inception_4d/pool_proj
I0123 12:20:03.660900 38191 net.cpp:557] inception_4d/relu_pool_proj -> inception_4d/pool_proj (in-place)
I0123 12:20:03.660910 38191 net.cpp:210] Setting up inception_4d/relu_pool_proj
I0123 12:20:03.660919 38191 net.cpp:217] Top shape: 32 64 14 14 (401408)
I0123 12:20:03.660925 38191 net.cpp:225] Memory required for data: 1529853444
I0123 12:20:03.660933 38191 layer_factory.hpp:114] Creating layer inception_4d/output
I0123 12:20:03.660943 38191 net.cpp:160] Creating Layer inception_4d/output
I0123 12:20:03.660950 38191 net.cpp:596] inception_4d/output <- inception_4d/1x1
I0123 12:20:03.660958 38191 net.cpp:596] inception_4d/output <- inception_4d/3x3
I0123 12:20:03.660965 38191 net.cpp:596] inception_4d/output <- inception_4d/5x5
I0123 12:20:03.660974 38191 net.cpp:596] inception_4d/output <- inception_4d/pool_proj
I0123 12:20:03.660986 38191 net.cpp:570] inception_4d/output -> inception_4d/output
I0123 12:20:03.660998 38191 net.cpp:210] Setting up inception_4d/output
I0123 12:20:03.661007 38191 net.cpp:217] Top shape: 32 528 14 14 (3311616)
I0123 12:20:03.661013 38191 net.cpp:225] Memory required for data: 1543099908
I0123 12:20:03.661020 38191 layer_factory.hpp:114] Creating layer inception_4d/output_inception_4d/output_0_split
I0123 12:20:03.661032 38191 net.cpp:160] Creating Layer inception_4d/output_inception_4d/output_0_split
I0123 12:20:03.661039 38191 net.cpp:596] inception_4d/output_inception_4d/output_0_split <- inception_4d/output
I0123 12:20:03.661051 38191 net.cpp:570] inception_4d/output_inception_4d/output_0_split -> inception_4d/output_inception_4d/output_0_split_0
I0123 12:20:03.661068 38191 net.cpp:570] inception_4d/output_inception_4d/output_0_split -> inception_4d/output_inception_4d/output_0_split_1
I0123 12:20:03.661079 38191 net.cpp:570] inception_4d/output_inception_4d/output_0_split -> inception_4d/output_inception_4d/output_0_split_2
I0123 12:20:03.661099 38191 net.cpp:570] inception_4d/output_inception_4d/output_0_split -> inception_4d/output_inception_4d/output_0_split_3
I0123 12:20:03.661109 38191 net.cpp:570] inception_4d/output_inception_4d/output_0_split -> inception_4d/output_inception_4d/output_0_split_4
I0123 12:20:03.661130 38191 net.cpp:210] Setting up inception_4d/output_inception_4d/output_0_split
I0123 12:20:03.661139 38191 net.cpp:217] Top shape: 32 528 14 14 (3311616)
I0123 12:20:03.661147 38191 net.cpp:217] Top shape: 32 528 14 14 (3311616)
I0123 12:20:03.661155 38191 net.cpp:217] Top shape: 32 528 14 14 (3311616)
I0123 12:20:03.661164 38191 net.cpp:217] Top shape: 32 528 14 14 (3311616)
I0123 12:20:03.661212 38191 net.cpp:217] Top shape: 32 528 14 14 (3311616)
I0123 12:20:03.661221 38191 net.cpp:225] Memory required for data: 1609332228
I0123 12:20:03.661227 38191 layer_factory.hpp:114] Creating layer loss2/ave_pool
I0123 12:20:03.661252 38191 net.cpp:160] Creating Layer loss2/ave_pool
I0123 12:20:03.661262 38191 net.cpp:596] loss2/ave_pool <- inception_4d/output_inception_4d/output_0_split_0
I0123 12:20:03.661272 38191 net.cpp:570] loss2/ave_pool -> loss2/ave_pool
I0123 12:20:03.661283 38191 net.cpp:210] Setting up loss2/ave_pool
I0123 12:20:03.661293 38191 net.cpp:217] Top shape: 32 528 4 4 (270336)
I0123 12:20:03.661299 38191 net.cpp:225] Memory required for data: 1610413572
I0123 12:20:03.661306 38191 layer_factory.hpp:114] Creating layer loss2/conv
I0123 12:20:03.661321 38191 net.cpp:160] Creating Layer loss2/conv
I0123 12:20:03.661329 38191 net.cpp:596] loss2/conv <- loss2/ave_pool
I0123 12:20:03.661340 38191 net.cpp:570] loss2/conv -> loss2/conv
I0123 12:20:03.664027 38191 net.cpp:210] Setting up loss2/conv
I0123 12:20:03.664042 38191 net.cpp:217] Top shape: 32 128 4 4 (65536)
I0123 12:20:03.664049 38191 net.cpp:225] Memory required for data: 1610675716
I0123 12:20:03.664059 38191 layer_factory.hpp:114] Creating layer loss2/relu_conv
I0123 12:20:03.664077 38191 net.cpp:160] Creating Layer loss2/relu_conv
I0123 12:20:03.664084 38191 net.cpp:596] loss2/relu_conv <- loss2/conv
I0123 12:20:03.664096 38191 net.cpp:557] loss2/relu_conv -> loss2/conv (in-place)
I0123 12:20:03.664113 38191 net.cpp:210] Setting up loss2/relu_conv
I0123 12:20:03.664122 38191 net.cpp:217] Top shape: 32 128 4 4 (65536)
I0123 12:20:03.664129 38191 net.cpp:225] Memory required for data: 1610937860
I0123 12:20:03.664136 38191 layer_factory.hpp:114] Creating layer loss2/fc
I0123 12:20:03.664160 38191 net.cpp:160] Creating Layer loss2/fc
I0123 12:20:03.664209 38191 net.cpp:596] loss2/fc <- loss2/conv
I0123 12:20:03.664222 38191 net.cpp:570] loss2/fc -> loss2/fc
I0123 12:20:03.682947 38191 net.cpp:210] Setting up loss2/fc
I0123 12:20:03.682974 38191 net.cpp:217] Top shape: 32 1024 (32768)
I0123 12:20:03.682981 38191 net.cpp:225] Memory required for data: 1611068932
I0123 12:20:03.682998 38191 layer_factory.hpp:114] Creating layer loss2/relu_fc
I0123 12:20:03.683012 38191 net.cpp:160] Creating Layer loss2/relu_fc
I0123 12:20:03.683020 38191 net.cpp:596] loss2/relu_fc <- loss2/fc
I0123 12:20:03.683029 38191 net.cpp:557] loss2/relu_fc -> loss2/fc (in-place)
I0123 12:20:03.683040 38191 net.cpp:210] Setting up loss2/relu_fc
I0123 12:20:03.683048 38191 net.cpp:217] Top shape: 32 1024 (32768)
I0123 12:20:03.683055 38191 net.cpp:225] Memory required for data: 1611200004
I0123 12:20:03.683063 38191 layer_factory.hpp:114] Creating layer loss2/drop_fc
I0123 12:20:03.683076 38191 net.cpp:160] Creating Layer loss2/drop_fc
I0123 12:20:03.683084 38191 net.cpp:596] loss2/drop_fc <- loss2/fc
I0123 12:20:03.683092 38191 net.cpp:557] loss2/drop_fc -> loss2/fc (in-place)
I0123 12:20:03.683105 38191 net.cpp:210] Setting up loss2/drop_fc
I0123 12:20:03.683115 38191 net.cpp:217] Top shape: 32 1024 (32768)
I0123 12:20:03.683127 38191 net.cpp:225] Memory required for data: 1611331076
I0123 12:20:03.683135 38191 layer_factory.hpp:114] Creating layer loss2/classifier
I0123 12:20:03.683148 38191 net.cpp:160] Creating Layer loss2/classifier
I0123 12:20:03.683164 38191 net.cpp:596] loss2/classifier <- loss2/fc
I0123 12:20:03.683219 38191 net.cpp:570] loss2/classifier -> loss2/classifier
I0123 12:20:03.692703 38191 net.cpp:210] Setting up loss2/classifier
I0123 12:20:03.692726 38191 net.cpp:217] Top shape: 32 1000 (32000)
I0123 12:20:03.692734 38191 net.cpp:225] Memory required for data: 1611459076
I0123 12:20:03.692744 38191 layer_factory.hpp:114] Creating layer loss2/loss
I0123 12:20:03.692762 38191 net.cpp:160] Creating Layer loss2/loss
I0123 12:20:03.692770 38191 net.cpp:596] loss2/loss <- loss2/classifier
I0123 12:20:03.692780 38191 net.cpp:596] loss2/loss <- label_data_1_split_1
I0123 12:20:03.692790 38191 net.cpp:570] loss2/loss -> loss2/loss1
I0123 12:20:03.692811 38191 layer_factory.hpp:114] Creating layer loss2/loss
I0123 12:20:03.692930 38191 net.cpp:210] Setting up loss2/loss
I0123 12:20:03.692942 38191 net.cpp:217] Top shape: (1)
I0123 12:20:03.692948 38191 net.cpp:220]     with loss weight 0.3
I0123 12:20:03.692982 38191 net.cpp:225] Memory required for data: 1611459080
I0123 12:20:03.692989 38191 layer_factory.hpp:114] Creating layer inception_4e/1x1
I0123 12:20:03.693006 38191 net.cpp:160] Creating Layer inception_4e/1x1
I0123 12:20:03.693014 38191 net.cpp:596] inception_4e/1x1 <- inception_4d/output_inception_4d/output_0_split_1
I0123 12:20:03.693027 38191 net.cpp:570] inception_4e/1x1 -> inception_4e/1x1
I0123 12:20:03.700232 38191 net.cpp:210] Setting up inception_4e/1x1
I0123 12:20:03.700248 38191 net.cpp:217] Top shape: 32 256 14 14 (1605632)
I0123 12:20:03.700254 38191 net.cpp:225] Memory required for data: 1617881608
I0123 12:20:03.700265 38191 layer_factory.hpp:114] Creating layer inception_4e/relu_1x1
I0123 12:20:03.700275 38191 net.cpp:160] Creating Layer inception_4e/relu_1x1
I0123 12:20:03.700284 38191 net.cpp:596] inception_4e/relu_1x1 <- inception_4e/1x1
I0123 12:20:03.700292 38191 net.cpp:557] inception_4e/relu_1x1 -> inception_4e/1x1 (in-place)
I0123 12:20:03.700302 38191 net.cpp:210] Setting up inception_4e/relu_1x1
I0123 12:20:03.700311 38191 net.cpp:217] Top shape: 32 256 14 14 (1605632)
I0123 12:20:03.700317 38191 net.cpp:225] Memory required for data: 1624304136
I0123 12:20:03.700325 38191 layer_factory.hpp:114] Creating layer inception_4e/3x3_reduce
I0123 12:20:03.700340 38191 net.cpp:160] Creating Layer inception_4e/3x3_reduce
I0123 12:20:03.700347 38191 net.cpp:596] inception_4e/3x3_reduce <- inception_4d/output_inception_4d/output_0_split_2
I0123 12:20:03.700359 38191 net.cpp:570] inception_4e/3x3_reduce -> inception_4e/3x3_reduce
I0123 12:20:03.705716 38191 net.cpp:210] Setting up inception_4e/3x3_reduce
I0123 12:20:03.705731 38191 net.cpp:217] Top shape: 32 160 14 14 (1003520)
I0123 12:20:03.705745 38191 net.cpp:225] Memory required for data: 1628318216
I0123 12:20:03.705755 38191 layer_factory.hpp:114] Creating layer inception_4e/relu_3x3_reduce
I0123 12:20:03.705775 38191 net.cpp:160] Creating Layer inception_4e/relu_3x3_reduce
I0123 12:20:03.705783 38191 net.cpp:596] inception_4e/relu_3x3_reduce <- inception_4e/3x3_reduce
I0123 12:20:03.705793 38191 net.cpp:557] inception_4e/relu_3x3_reduce -> inception_4e/3x3_reduce (in-place)
I0123 12:20:03.705804 38191 net.cpp:210] Setting up inception_4e/relu_3x3_reduce
I0123 12:20:03.705812 38191 net.cpp:217] Top shape: 32 160 14 14 (1003520)
I0123 12:20:03.705819 38191 net.cpp:225] Memory required for data: 1632332296
I0123 12:20:03.705826 38191 layer_factory.hpp:114] Creating layer inception_4e/3x3
I0123 12:20:03.705838 38191 net.cpp:160] Creating Layer inception_4e/3x3
I0123 12:20:03.705847 38191 net.cpp:596] inception_4e/3x3 <- inception_4e/3x3_reduce
I0123 12:20:03.705858 38191 net.cpp:570] inception_4e/3x3 -> inception_4e/3x3
I0123 12:20:03.726486 38191 net.cpp:210] Setting up inception_4e/3x3
I0123 12:20:03.726510 38191 net.cpp:217] Top shape: 32 320 14 14 (2007040)
I0123 12:20:03.726531 38191 net.cpp:225] Memory required for data: 1640360456
I0123 12:20:03.726542 38191 layer_factory.hpp:114] Creating layer inception_4e/relu_3x3
I0123 12:20:03.726553 38191 net.cpp:160] Creating Layer inception_4e/relu_3x3
I0123 12:20:03.726570 38191 net.cpp:596] inception_4e/relu_3x3 <- inception_4e/3x3
I0123 12:20:03.726584 38191 net.cpp:557] inception_4e/relu_3x3 -> inception_4e/3x3 (in-place)
I0123 12:20:03.726595 38191 net.cpp:210] Setting up inception_4e/relu_3x3
I0123 12:20:03.726604 38191 net.cpp:217] Top shape: 32 320 14 14 (2007040)
I0123 12:20:03.726610 38191 net.cpp:225] Memory required for data: 1648388616
I0123 12:20:03.726618 38191 layer_factory.hpp:114] Creating layer inception_4e/5x5_reduce
I0123 12:20:03.726629 38191 net.cpp:160] Creating Layer inception_4e/5x5_reduce
I0123 12:20:03.726637 38191 net.cpp:596] inception_4e/5x5_reduce <- inception_4d/output_inception_4d/output_0_split_3
I0123 12:20:03.726647 38191 net.cpp:570] inception_4e/5x5_reduce -> inception_4e/5x5_reduce
I0123 12:20:03.729980 38191 net.cpp:210] Setting up inception_4e/5x5_reduce
I0123 12:20:03.729995 38191 net.cpp:217] Top shape: 32 32 14 14 (200704)
I0123 12:20:03.730002 38191 net.cpp:225] Memory required for data: 1649191432
I0123 12:20:03.730012 38191 layer_factory.hpp:114] Creating layer inception_4e/relu_5x5_reduce
I0123 12:20:03.730022 38191 net.cpp:160] Creating Layer inception_4e/relu_5x5_reduce
I0123 12:20:03.730031 38191 net.cpp:596] inception_4e/relu_5x5_reduce <- inception_4e/5x5_reduce
I0123 12:20:03.730042 38191 net.cpp:557] inception_4e/relu_5x5_reduce -> inception_4e/5x5_reduce (in-place)
I0123 12:20:03.730053 38191 net.cpp:210] Setting up inception_4e/relu_5x5_reduce
I0123 12:20:03.730062 38191 net.cpp:217] Top shape: 32 32 14 14 (200704)
I0123 12:20:03.730068 38191 net.cpp:225] Memory required for data: 1649994248
I0123 12:20:03.730075 38191 layer_factory.hpp:114] Creating layer inception_4e/5x5
I0123 12:20:03.730096 38191 net.cpp:160] Creating Layer inception_4e/5x5
I0123 12:20:03.730104 38191 net.cpp:596] inception_4e/5x5 <- inception_4e/5x5_reduce
I0123 12:20:03.730114 38191 net.cpp:570] inception_4e/5x5 -> inception_4e/5x5
I0123 12:20:03.737666 38191 net.cpp:210] Setting up inception_4e/5x5
I0123 12:20:03.737681 38191 net.cpp:217] Top shape: 32 128 14 14 (802816)
I0123 12:20:03.737689 38191 net.cpp:225] Memory required for data: 1653205512
I0123 12:20:03.737699 38191 layer_factory.hpp:114] Creating layer inception_4e/relu_5x5
I0123 12:20:03.737727 38191 net.cpp:160] Creating Layer inception_4e/relu_5x5
I0123 12:20:03.737736 38191 net.cpp:596] inception_4e/relu_5x5 <- inception_4e/5x5
I0123 12:20:03.737746 38191 net.cpp:557] inception_4e/relu_5x5 -> inception_4e/5x5 (in-place)
I0123 12:20:03.737754 38191 net.cpp:210] Setting up inception_4e/relu_5x5
I0123 12:20:03.737763 38191 net.cpp:217] Top shape: 32 128 14 14 (802816)
I0123 12:20:03.737769 38191 net.cpp:225] Memory required for data: 1656416776
I0123 12:20:03.737776 38191 layer_factory.hpp:114] Creating layer inception_4e/pool
I0123 12:20:03.737838 38191 net.cpp:160] Creating Layer inception_4e/pool
I0123 12:20:03.737848 38191 net.cpp:596] inception_4e/pool <- inception_4d/output_inception_4d/output_0_split_4
I0123 12:20:03.737857 38191 net.cpp:570] inception_4e/pool -> inception_4e/pool
I0123 12:20:03.737872 38191 net.cpp:210] Setting up inception_4e/pool
I0123 12:20:03.737881 38191 net.cpp:217] Top shape: 32 528 14 14 (3311616)
I0123 12:20:03.737889 38191 net.cpp:225] Memory required for data: 1669663240
I0123 12:20:03.737895 38191 layer_factory.hpp:114] Creating layer inception_4e/pool_proj
I0123 12:20:03.737910 38191 net.cpp:160] Creating Layer inception_4e/pool_proj
I0123 12:20:03.737917 38191 net.cpp:596] inception_4e/pool_proj <- inception_4e/pool
I0123 12:20:03.737929 38191 net.cpp:570] inception_4e/pool_proj -> inception_4e/pool_proj
I0123 12:20:03.743029 38191 net.cpp:210] Setting up inception_4e/pool_proj
I0123 12:20:03.743044 38191 net.cpp:217] Top shape: 32 128 14 14 (802816)
I0123 12:20:03.743057 38191 net.cpp:225] Memory required for data: 1672874504
I0123 12:20:03.743067 38191 layer_factory.hpp:114] Creating layer inception_4e/relu_pool_proj
I0123 12:20:03.743080 38191 net.cpp:160] Creating Layer inception_4e/relu_pool_proj
I0123 12:20:03.743096 38191 net.cpp:596] inception_4e/relu_pool_proj <- inception_4e/pool_proj
I0123 12:20:03.743105 38191 net.cpp:557] inception_4e/relu_pool_proj -> inception_4e/pool_proj (in-place)
I0123 12:20:03.743116 38191 net.cpp:210] Setting up inception_4e/relu_pool_proj
I0123 12:20:03.743125 38191 net.cpp:217] Top shape: 32 128 14 14 (802816)
I0123 12:20:03.743131 38191 net.cpp:225] Memory required for data: 1676085768
I0123 12:20:03.743139 38191 layer_factory.hpp:114] Creating layer inception_4e/output
I0123 12:20:03.743149 38191 net.cpp:160] Creating Layer inception_4e/output
I0123 12:20:03.743157 38191 net.cpp:596] inception_4e/output <- inception_4e/1x1
I0123 12:20:03.743165 38191 net.cpp:596] inception_4e/output <- inception_4e/3x3
I0123 12:20:03.743211 38191 net.cpp:596] inception_4e/output <- inception_4e/5x5
I0123 12:20:03.743221 38191 net.cpp:596] inception_4e/output <- inception_4e/pool_proj
I0123 12:20:03.743229 38191 net.cpp:570] inception_4e/output -> inception_4e/output
I0123 12:20:03.743244 38191 net.cpp:210] Setting up inception_4e/output
I0123 12:20:03.743252 38191 net.cpp:217] Top shape: 32 832 14 14 (5218304)
I0123 12:20:03.743259 38191 net.cpp:225] Memory required for data: 1696958984
I0123 12:20:03.743266 38191 layer_factory.hpp:114] Creating layer pool4/3x3_s2
I0123 12:20:03.743288 38191 net.cpp:160] Creating Layer pool4/3x3_s2
I0123 12:20:03.743296 38191 net.cpp:596] pool4/3x3_s2 <- inception_4e/output
I0123 12:20:03.743309 38191 net.cpp:570] pool4/3x3_s2 -> pool4/3x3_s2
I0123 12:20:03.743320 38191 net.cpp:210] Setting up pool4/3x3_s2
I0123 12:20:03.743330 38191 net.cpp:217] Top shape: 32 832 7 7 (1304576)
I0123 12:20:03.743336 38191 net.cpp:225] Memory required for data: 1702177288
I0123 12:20:03.743342 38191 layer_factory.hpp:114] Creating layer pool4/3x3_s2_pool4/3x3_s2_0_split
I0123 12:20:03.743352 38191 net.cpp:160] Creating Layer pool4/3x3_s2_pool4/3x3_s2_0_split
I0123 12:20:03.743360 38191 net.cpp:596] pool4/3x3_s2_pool4/3x3_s2_0_split <- pool4/3x3_s2
I0123 12:20:03.743369 38191 net.cpp:570] pool4/3x3_s2_pool4/3x3_s2_0_split -> pool4/3x3_s2_pool4/3x3_s2_0_split_0
I0123 12:20:03.743379 38191 net.cpp:570] pool4/3x3_s2_pool4/3x3_s2_0_split -> pool4/3x3_s2_pool4/3x3_s2_0_split_1
I0123 12:20:03.743391 38191 net.cpp:570] pool4/3x3_s2_pool4/3x3_s2_0_split -> pool4/3x3_s2_pool4/3x3_s2_0_split_2
I0123 12:20:03.743402 38191 net.cpp:570] pool4/3x3_s2_pool4/3x3_s2_0_split -> pool4/3x3_s2_pool4/3x3_s2_0_split_3
I0123 12:20:03.743414 38191 net.cpp:210] Setting up pool4/3x3_s2_pool4/3x3_s2_0_split
I0123 12:20:03.743422 38191 net.cpp:217] Top shape: 32 832 7 7 (1304576)
I0123 12:20:03.743430 38191 net.cpp:217] Top shape: 32 832 7 7 (1304576)
I0123 12:20:03.743438 38191 net.cpp:217] Top shape: 32 832 7 7 (1304576)
I0123 12:20:03.743445 38191 net.cpp:217] Top shape: 32 832 7 7 (1304576)
I0123 12:20:03.743451 38191 net.cpp:225] Memory required for data: 1723050504
I0123 12:20:03.743458 38191 layer_factory.hpp:114] Creating layer inception_5a/1x1
I0123 12:20:03.743470 38191 net.cpp:160] Creating Layer inception_5a/1x1
I0123 12:20:03.743479 38191 net.cpp:596] inception_5a/1x1 <- pool4/3x3_s2_pool4/3x3_s2_0_split_0
I0123 12:20:03.743490 38191 net.cpp:570] inception_5a/1x1 -> inception_5a/1x1
I0123 12:20:03.751344 38191 net.cpp:210] Setting up inception_5a/1x1
I0123 12:20:03.751359 38191 net.cpp:217] Top shape: 32 256 7 7 (401408)
I0123 12:20:03.751366 38191 net.cpp:225] Memory required for data: 1724656136
I0123 12:20:03.751376 38191 layer_factory.hpp:114] Creating layer inception_5a/relu_1x1
I0123 12:20:03.751394 38191 net.cpp:160] Creating Layer inception_5a/relu_1x1
I0123 12:20:03.751400 38191 net.cpp:596] inception_5a/relu_1x1 <- inception_5a/1x1
I0123 12:20:03.751410 38191 net.cpp:557] inception_5a/relu_1x1 -> inception_5a/1x1 (in-place)
I0123 12:20:03.751420 38191 net.cpp:210] Setting up inception_5a/relu_1x1
I0123 12:20:03.751433 38191 net.cpp:217] Top shape: 32 256 7 7 (401408)
I0123 12:20:03.751441 38191 net.cpp:225] Memory required for data: 1726261768
I0123 12:20:03.751447 38191 layer_factory.hpp:114] Creating layer inception_5a/3x3_reduce
I0123 12:20:03.751472 38191 net.cpp:160] Creating Layer inception_5a/3x3_reduce
I0123 12:20:03.751480 38191 net.cpp:596] inception_5a/3x3_reduce <- pool4/3x3_s2_pool4/3x3_s2_0_split_1
I0123 12:20:03.751492 38191 net.cpp:570] inception_5a/3x3_reduce -> inception_5a/3x3_reduce
I0123 12:20:03.756819 38191 net.cpp:210] Setting up inception_5a/3x3_reduce
I0123 12:20:03.756834 38191 net.cpp:217] Top shape: 32 160 7 7 (250880)
I0123 12:20:03.756840 38191 net.cpp:225] Memory required for data: 1727265288
I0123 12:20:03.756851 38191 layer_factory.hpp:114] Creating layer inception_5a/relu_3x3_reduce
I0123 12:20:03.756875 38191 net.cpp:160] Creating Layer inception_5a/relu_3x3_reduce
I0123 12:20:03.756883 38191 net.cpp:596] inception_5a/relu_3x3_reduce <- inception_5a/3x3_reduce
I0123 12:20:03.756894 38191 net.cpp:557] inception_5a/relu_3x3_reduce -> inception_5a/3x3_reduce (in-place)
I0123 12:20:03.756906 38191 net.cpp:210] Setting up inception_5a/relu_3x3_reduce
I0123 12:20:03.756913 38191 net.cpp:217] Top shape: 32 160 7 7 (250880)
I0123 12:20:03.756920 38191 net.cpp:225] Memory required for data: 1728268808
I0123 12:20:03.756927 38191 layer_factory.hpp:114] Creating layer inception_5a/3x3
I0123 12:20:03.756939 38191 net.cpp:160] Creating Layer inception_5a/3x3
I0123 12:20:03.756947 38191 net.cpp:596] inception_5a/3x3 <- inception_5a/3x3_reduce
I0123 12:20:03.756956 38191 net.cpp:570] inception_5a/3x3 -> inception_5a/3x3
I0123 12:20:03.772816 38191 net.cpp:210] Setting up inception_5a/3x3
I0123 12:20:03.772840 38191 net.cpp:217] Top shape: 32 320 7 7 (501760)
I0123 12:20:03.772845 38191 net.cpp:225] Memory required for data: 1730275848
I0123 12:20:03.772856 38191 layer_factory.hpp:114] Creating layer inception_5a/relu_3x3
I0123 12:20:03.772872 38191 net.cpp:160] Creating Layer inception_5a/relu_3x3
I0123 12:20:03.772881 38191 net.cpp:596] inception_5a/relu_3x3 <- inception_5a/3x3
I0123 12:20:03.772889 38191 net.cpp:557] inception_5a/relu_3x3 -> inception_5a/3x3 (in-place)
I0123 12:20:03.772899 38191 net.cpp:210] Setting up inception_5a/relu_3x3
I0123 12:20:03.772908 38191 net.cpp:217] Top shape: 32 320 7 7 (501760)
I0123 12:20:03.772914 38191 net.cpp:225] Memory required for data: 1732282888
I0123 12:20:03.772922 38191 layer_factory.hpp:114] Creating layer inception_5a/5x5_reduce
I0123 12:20:03.772935 38191 net.cpp:160] Creating Layer inception_5a/5x5_reduce
I0123 12:20:03.772943 38191 net.cpp:596] inception_5a/5x5_reduce <- pool4/3x3_s2_pool4/3x3_s2_0_split_2
I0123 12:20:03.772953 38191 net.cpp:570] inception_5a/5x5_reduce -> inception_5a/5x5_reduce
I0123 12:20:03.775614 38191 net.cpp:210] Setting up inception_5a/5x5_reduce
I0123 12:20:03.775629 38191 net.cpp:217] Top shape: 32 32 7 7 (50176)
I0123 12:20:03.775635 38191 net.cpp:225] Memory required for data: 1732483592
I0123 12:20:03.775645 38191 layer_factory.hpp:114] Creating layer inception_5a/relu_5x5_reduce
I0123 12:20:03.775676 38191 net.cpp:160] Creating Layer inception_5a/relu_5x5_reduce
I0123 12:20:03.775684 38191 net.cpp:596] inception_5a/relu_5x5_reduce <- inception_5a/5x5_reduce
I0123 12:20:03.775693 38191 net.cpp:557] inception_5a/relu_5x5_reduce -> inception_5a/5x5_reduce (in-place)
I0123 12:20:03.775703 38191 net.cpp:210] Setting up inception_5a/relu_5x5_reduce
I0123 12:20:03.775712 38191 net.cpp:217] Top shape: 32 32 7 7 (50176)
I0123 12:20:03.775718 38191 net.cpp:225] Memory required for data: 1732684296
I0123 12:20:03.775725 38191 layer_factory.hpp:114] Creating layer inception_5a/5x5
I0123 12:20:03.775739 38191 net.cpp:160] Creating Layer inception_5a/5x5
I0123 12:20:03.775748 38191 net.cpp:596] inception_5a/5x5 <- inception_5a/5x5_reduce
I0123 12:20:03.775759 38191 net.cpp:570] inception_5a/5x5 -> inception_5a/5x5
I0123 12:20:03.780637 38191 net.cpp:210] Setting up inception_5a/5x5
I0123 12:20:03.780658 38191 net.cpp:217] Top shape: 32 128 7 7 (200704)
I0123 12:20:03.780664 38191 net.cpp:225] Memory required for data: 1733487112
I0123 12:20:03.780674 38191 layer_factory.hpp:114] Creating layer inception_5a/relu_5x5
I0123 12:20:03.780694 38191 net.cpp:160] Creating Layer inception_5a/relu_5x5
I0123 12:20:03.780710 38191 net.cpp:596] inception_5a/relu_5x5 <- inception_5a/5x5
I0123 12:20:03.780719 38191 net.cpp:557] inception_5a/relu_5x5 -> inception_5a/5x5 (in-place)
I0123 12:20:03.780730 38191 net.cpp:210] Setting up inception_5a/relu_5x5
I0123 12:20:03.780737 38191 net.cpp:217] Top shape: 32 128 7 7 (200704)
I0123 12:20:03.780745 38191 net.cpp:225] Memory required for data: 1734289928
I0123 12:20:03.780751 38191 layer_factory.hpp:114] Creating layer inception_5a/pool
I0123 12:20:03.780776 38191 net.cpp:160] Creating Layer inception_5a/pool
I0123 12:20:03.780786 38191 net.cpp:596] inception_5a/pool <- pool4/3x3_s2_pool4/3x3_s2_0_split_3
I0123 12:20:03.780796 38191 net.cpp:570] inception_5a/pool -> inception_5a/pool
I0123 12:20:03.780807 38191 net.cpp:210] Setting up inception_5a/pool
I0123 12:20:03.780817 38191 net.cpp:217] Top shape: 32 832 7 7 (1304576)
I0123 12:20:03.780823 38191 net.cpp:225] Memory required for data: 1739508232
I0123 12:20:03.780830 38191 layer_factory.hpp:114] Creating layer inception_5a/pool_proj
I0123 12:20:03.780844 38191 net.cpp:160] Creating Layer inception_5a/pool_proj
I0123 12:20:03.780853 38191 net.cpp:596] inception_5a/pool_proj <- inception_5a/pool
I0123 12:20:03.780864 38191 net.cpp:570] inception_5a/pool_proj -> inception_5a/pool_proj
I0123 12:20:03.785533 38191 net.cpp:210] Setting up inception_5a/pool_proj
I0123 12:20:03.785547 38191 net.cpp:217] Top shape: 32 128 7 7 (200704)
I0123 12:20:03.785554 38191 net.cpp:225] Memory required for data: 1740311048
I0123 12:20:03.785564 38191 layer_factory.hpp:114] Creating layer inception_5a/relu_pool_proj
I0123 12:20:03.785583 38191 net.cpp:160] Creating Layer inception_5a/relu_pool_proj
I0123 12:20:03.785593 38191 net.cpp:596] inception_5a/relu_pool_proj <- inception_5a/pool_proj
I0123 12:20:03.785601 38191 net.cpp:557] inception_5a/relu_pool_proj -> inception_5a/pool_proj (in-place)
I0123 12:20:03.785611 38191 net.cpp:210] Setting up inception_5a/relu_pool_proj
I0123 12:20:03.785620 38191 net.cpp:217] Top shape: 32 128 7 7 (200704)
I0123 12:20:03.785626 38191 net.cpp:225] Memory required for data: 1741113864
I0123 12:20:03.785634 38191 layer_factory.hpp:114] Creating layer inception_5a/output
I0123 12:20:03.785643 38191 net.cpp:160] Creating Layer inception_5a/output
I0123 12:20:03.785650 38191 net.cpp:596] inception_5a/output <- inception_5a/1x1
I0123 12:20:03.785660 38191 net.cpp:596] inception_5a/output <- inception_5a/3x3
I0123 12:20:03.785666 38191 net.cpp:596] inception_5a/output <- inception_5a/5x5
I0123 12:20:03.785675 38191 net.cpp:596] inception_5a/output <- inception_5a/pool_proj
I0123 12:20:03.785683 38191 net.cpp:570] inception_5a/output -> inception_5a/output
I0123 12:20:03.785694 38191 net.cpp:210] Setting up inception_5a/output
I0123 12:20:03.785703 38191 net.cpp:217] Top shape: 32 832 7 7 (1304576)
I0123 12:20:03.785709 38191 net.cpp:225] Memory required for data: 1746332168
I0123 12:20:03.785717 38191 layer_factory.hpp:114] Creating layer inception_5a/output_inception_5a/output_0_split
I0123 12:20:03.785725 38191 net.cpp:160] Creating Layer inception_5a/output_inception_5a/output_0_split
I0123 12:20:03.785732 38191 net.cpp:596] inception_5a/output_inception_5a/output_0_split <- inception_5a/output
I0123 12:20:03.785744 38191 net.cpp:570] inception_5a/output_inception_5a/output_0_split -> inception_5a/output_inception_5a/output_0_split_0
I0123 12:20:03.785755 38191 net.cpp:570] inception_5a/output_inception_5a/output_0_split -> inception_5a/output_inception_5a/output_0_split_1
I0123 12:20:03.785765 38191 net.cpp:570] inception_5a/output_inception_5a/output_0_split -> inception_5a/output_inception_5a/output_0_split_2
I0123 12:20:03.785775 38191 net.cpp:570] inception_5a/output_inception_5a/output_0_split -> inception_5a/output_inception_5a/output_0_split_3
I0123 12:20:03.785792 38191 net.cpp:210] Setting up inception_5a/output_inception_5a/output_0_split
I0123 12:20:03.785801 38191 net.cpp:217] Top shape: 32 832 7 7 (1304576)
I0123 12:20:03.785817 38191 net.cpp:217] Top shape: 32 832 7 7 (1304576)
I0123 12:20:03.785825 38191 net.cpp:217] Top shape: 32 832 7 7 (1304576)
I0123 12:20:03.785832 38191 net.cpp:217] Top shape: 32 832 7 7 (1304576)
I0123 12:20:03.785838 38191 net.cpp:225] Memory required for data: 1767205384
I0123 12:20:03.785845 38191 layer_factory.hpp:114] Creating layer inception_5b/1x1
I0123 12:20:03.785861 38191 net.cpp:160] Creating Layer inception_5b/1x1
I0123 12:20:03.785868 38191 net.cpp:596] inception_5b/1x1 <- inception_5a/output_inception_5a/output_0_split_0
I0123 12:20:03.785878 38191 net.cpp:570] inception_5b/1x1 -> inception_5b/1x1
I0123 12:20:03.796913 38191 net.cpp:210] Setting up inception_5b/1x1
I0123 12:20:03.796928 38191 net.cpp:217] Top shape: 32 384 7 7 (602112)
I0123 12:20:03.796934 38191 net.cpp:225] Memory required for data: 1769613832
I0123 12:20:03.796946 38191 layer_factory.hpp:114] Creating layer inception_5b/relu_1x1
I0123 12:20:03.796962 38191 net.cpp:160] Creating Layer inception_5b/relu_1x1
I0123 12:20:03.796969 38191 net.cpp:596] inception_5b/relu_1x1 <- inception_5b/1x1
I0123 12:20:03.796982 38191 net.cpp:557] inception_5b/relu_1x1 -> inception_5b/1x1 (in-place)
I0123 12:20:03.796991 38191 net.cpp:210] Setting up inception_5b/relu_1x1
I0123 12:20:03.797000 38191 net.cpp:217] Top shape: 32 384 7 7 (602112)
I0123 12:20:03.797006 38191 net.cpp:225] Memory required for data: 1772022280
I0123 12:20:03.797013 38191 layer_factory.hpp:114] Creating layer inception_5b/3x3_reduce
I0123 12:20:03.797025 38191 net.cpp:160] Creating Layer inception_5b/3x3_reduce
I0123 12:20:03.797032 38191 net.cpp:596] inception_5b/3x3_reduce <- inception_5a/output_inception_5a/output_0_split_1
I0123 12:20:03.797042 38191 net.cpp:570] inception_5b/3x3_reduce -> inception_5b/3x3_reduce
I0123 12:20:03.803474 38191 net.cpp:210] Setting up inception_5b/3x3_reduce
I0123 12:20:03.803489 38191 net.cpp:217] Top shape: 32 192 7 7 (301056)
I0123 12:20:03.803496 38191 net.cpp:225] Memory required for data: 1773226504
I0123 12:20:03.803506 38191 layer_factory.hpp:114] Creating layer inception_5b/relu_3x3_reduce
I0123 12:20:03.803515 38191 net.cpp:160] Creating Layer inception_5b/relu_3x3_reduce
I0123 12:20:03.803524 38191 net.cpp:596] inception_5b/relu_3x3_reduce <- inception_5b/3x3_reduce
I0123 12:20:03.803532 38191 net.cpp:557] inception_5b/relu_3x3_reduce -> inception_5b/3x3_reduce (in-place)
I0123 12:20:03.803544 38191 net.cpp:210] Setting up inception_5b/relu_3x3_reduce
I0123 12:20:03.803551 38191 net.cpp:217] Top shape: 32 192 7 7 (301056)
I0123 12:20:03.803558 38191 net.cpp:225] Memory required for data: 1774430728
I0123 12:20:03.803565 38191 layer_factory.hpp:114] Creating layer inception_5b/3x3
I0123 12:20:03.803584 38191 net.cpp:160] Creating Layer inception_5b/3x3
I0123 12:20:03.803592 38191 net.cpp:596] inception_5b/3x3 <- inception_5b/3x3_reduce
I0123 12:20:03.803602 38191 net.cpp:570] inception_5b/3x3 -> inception_5b/3x3
I0123 12:20:03.825927 38191 net.cpp:210] Setting up inception_5b/3x3
I0123 12:20:03.825959 38191 net.cpp:217] Top shape: 32 384 7 7 (602112)
I0123 12:20:03.825966 38191 net.cpp:225] Memory required for data: 1776839176
I0123 12:20:03.825978 38191 layer_factory.hpp:114] Creating layer inception_5b/relu_3x3
I0123 12:20:03.825986 38191 net.cpp:160] Creating Layer inception_5b/relu_3x3
I0123 12:20:03.825995 38191 net.cpp:596] inception_5b/relu_3x3 <- inception_5b/3x3
I0123 12:20:03.826007 38191 net.cpp:557] inception_5b/relu_3x3 -> inception_5b/3x3 (in-place)
I0123 12:20:03.826019 38191 net.cpp:210] Setting up inception_5b/relu_3x3
I0123 12:20:03.826026 38191 net.cpp:217] Top shape: 32 384 7 7 (602112)
I0123 12:20:03.826033 38191 net.cpp:225] Memory required for data: 1779247624
I0123 12:20:03.826040 38191 layer_factory.hpp:114] Creating layer inception_5b/5x5_reduce
I0123 12:20:03.826057 38191 net.cpp:160] Creating Layer inception_5b/5x5_reduce
I0123 12:20:03.826066 38191 net.cpp:596] inception_5b/5x5_reduce <- inception_5a/output_inception_5a/output_0_split_2
I0123 12:20:03.826076 38191 net.cpp:570] inception_5b/5x5_reduce -> inception_5b/5x5_reduce
I0123 12:20:03.828776 38191 net.cpp:210] Setting up inception_5b/5x5_reduce
I0123 12:20:03.828793 38191 net.cpp:217] Top shape: 32 48 7 7 (75264)
I0123 12:20:03.828799 38191 net.cpp:225] Memory required for data: 1779548680
I0123 12:20:03.828809 38191 layer_factory.hpp:114] Creating layer inception_5b/relu_5x5_reduce
I0123 12:20:03.828835 38191 net.cpp:160] Creating Layer inception_5b/relu_5x5_reduce
I0123 12:20:03.828843 38191 net.cpp:596] inception_5b/relu_5x5_reduce <- inception_5b/5x5_reduce
I0123 12:20:03.828852 38191 net.cpp:557] inception_5b/relu_5x5_reduce -> inception_5b/5x5_reduce (in-place)
I0123 12:20:03.828862 38191 net.cpp:210] Setting up inception_5b/relu_5x5_reduce
I0123 12:20:03.828871 38191 net.cpp:217] Top shape: 32 48 7 7 (75264)
I0123 12:20:03.828877 38191 net.cpp:225] Memory required for data: 1779849736
I0123 12:20:03.828884 38191 layer_factory.hpp:114] Creating layer inception_5b/5x5
I0123 12:20:03.828898 38191 net.cpp:160] Creating Layer inception_5b/5x5
I0123 12:20:03.828907 38191 net.cpp:596] inception_5b/5x5 <- inception_5b/5x5_reduce
I0123 12:20:03.828918 38191 net.cpp:570] inception_5b/5x5 -> inception_5b/5x5
I0123 12:20:03.835757 38191 net.cpp:210] Setting up inception_5b/5x5
I0123 12:20:03.835772 38191 net.cpp:217] Top shape: 32 128 7 7 (200704)
I0123 12:20:03.835779 38191 net.cpp:225] Memory required for data: 1780652552
I0123 12:20:03.835789 38191 layer_factory.hpp:114] Creating layer inception_5b/relu_5x5
I0123 12:20:03.835827 38191 net.cpp:160] Creating Layer inception_5b/relu_5x5
I0123 12:20:03.835835 38191 net.cpp:596] inception_5b/relu_5x5 <- inception_5b/5x5
I0123 12:20:03.835844 38191 net.cpp:557] inception_5b/relu_5x5 -> inception_5b/5x5 (in-place)
I0123 12:20:03.835855 38191 net.cpp:210] Setting up inception_5b/relu_5x5
I0123 12:20:03.835862 38191 net.cpp:217] Top shape: 32 128 7 7 (200704)
I0123 12:20:03.835868 38191 net.cpp:225] Memory required for data: 1781455368
I0123 12:20:03.835875 38191 layer_factory.hpp:114] Creating layer inception_5b/pool
I0123 12:20:03.835914 38191 net.cpp:160] Creating Layer inception_5b/pool
I0123 12:20:03.835923 38191 net.cpp:596] inception_5b/pool <- inception_5a/output_inception_5a/output_0_split_3
I0123 12:20:03.835935 38191 net.cpp:570] inception_5b/pool -> inception_5b/pool
I0123 12:20:03.835947 38191 net.cpp:210] Setting up inception_5b/pool
I0123 12:20:03.835957 38191 net.cpp:217] Top shape: 32 832 7 7 (1304576)
I0123 12:20:03.835963 38191 net.cpp:225] Memory required for data: 1786673672
I0123 12:20:03.835970 38191 layer_factory.hpp:114] Creating layer inception_5b/pool_proj
I0123 12:20:03.835985 38191 net.cpp:160] Creating Layer inception_5b/pool_proj
I0123 12:20:03.835994 38191 net.cpp:596] inception_5b/pool_proj <- inception_5b/pool
I0123 12:20:03.836005 38191 net.cpp:570] inception_5b/pool_proj -> inception_5b/pool_proj
I0123 12:20:03.840668 38191 net.cpp:210] Setting up inception_5b/pool_proj
I0123 12:20:03.840683 38191 net.cpp:217] Top shape: 32 128 7 7 (200704)
I0123 12:20:03.840690 38191 net.cpp:225] Memory required for data: 1787476488
I0123 12:20:03.840700 38191 layer_factory.hpp:114] Creating layer inception_5b/relu_pool_proj
I0123 12:20:03.840710 38191 net.cpp:160] Creating Layer inception_5b/relu_pool_proj
I0123 12:20:03.840718 38191 net.cpp:596] inception_5b/relu_pool_proj <- inception_5b/pool_proj
I0123 12:20:03.840728 38191 net.cpp:557] inception_5b/relu_pool_proj -> inception_5b/pool_proj (in-place)
I0123 12:20:03.840737 38191 net.cpp:210] Setting up inception_5b/relu_pool_proj
I0123 12:20:03.840746 38191 net.cpp:217] Top shape: 32 128 7 7 (200704)
I0123 12:20:03.840752 38191 net.cpp:225] Memory required for data: 1788279304
I0123 12:20:03.840759 38191 layer_factory.hpp:114] Creating layer inception_5b/output
I0123 12:20:03.840768 38191 net.cpp:160] Creating Layer inception_5b/output
I0123 12:20:03.840782 38191 net.cpp:596] inception_5b/output <- inception_5b/1x1
I0123 12:20:03.840790 38191 net.cpp:596] inception_5b/output <- inception_5b/3x3
I0123 12:20:03.840798 38191 net.cpp:596] inception_5b/output <- inception_5b/5x5
I0123 12:20:03.840821 38191 net.cpp:596] inception_5b/output <- inception_5b/pool_proj
I0123 12:20:03.840833 38191 net.cpp:570] inception_5b/output -> inception_5b/output
I0123 12:20:03.840845 38191 net.cpp:210] Setting up inception_5b/output
I0123 12:20:03.840854 38191 net.cpp:217] Top shape: 32 1024 7 7 (1605632)
I0123 12:20:03.840862 38191 net.cpp:225] Memory required for data: 1794701832
I0123 12:20:03.840868 38191 layer_factory.hpp:114] Creating layer pool5/7x7_s1
I0123 12:20:03.840888 38191 net.cpp:160] Creating Layer pool5/7x7_s1
I0123 12:20:03.840898 38191 net.cpp:596] pool5/7x7_s1 <- inception_5b/output
I0123 12:20:03.840906 38191 net.cpp:570] pool5/7x7_s1 -> pool5/7x7_s1
I0123 12:20:03.840917 38191 net.cpp:210] Setting up pool5/7x7_s1
I0123 12:20:03.840927 38191 net.cpp:217] Top shape: 32 1024 1 1 (32768)
I0123 12:20:03.840934 38191 net.cpp:225] Memory required for data: 1794832904
I0123 12:20:03.840940 38191 layer_factory.hpp:114] Creating layer pool5/drop_7x7_s1
I0123 12:20:03.840967 38191 net.cpp:160] Creating Layer pool5/drop_7x7_s1
I0123 12:20:03.840975 38191 net.cpp:596] pool5/drop_7x7_s1 <- pool5/7x7_s1
I0123 12:20:03.840986 38191 net.cpp:557] pool5/drop_7x7_s1 -> pool5/7x7_s1 (in-place)
I0123 12:20:03.841001 38191 net.cpp:210] Setting up pool5/drop_7x7_s1
I0123 12:20:03.841009 38191 net.cpp:217] Top shape: 32 1024 1 1 (32768)
I0123 12:20:03.841015 38191 net.cpp:225] Memory required for data: 1794963976
I0123 12:20:03.841022 38191 layer_factory.hpp:114] Creating layer loss3/classifier
I0123 12:20:03.841040 38191 net.cpp:160] Creating Layer loss3/classifier
I0123 12:20:03.841048 38191 net.cpp:596] loss3/classifier <- pool5/7x7_s1
I0123 12:20:03.841058 38191 net.cpp:570] loss3/classifier -> loss3/classifier
I0123 12:20:03.850500 38191 net.cpp:210] Setting up loss3/classifier
I0123 12:20:03.850522 38191 net.cpp:217] Top shape: 32 1000 (32000)
I0123 12:20:03.850529 38191 net.cpp:225] Memory required for data: 1795091976
I0123 12:20:03.850539 38191 layer_factory.hpp:114] Creating layer loss3/loss3
I0123 12:20:03.850569 38191 net.cpp:160] Creating Layer loss3/loss3
I0123 12:20:03.850576 38191 net.cpp:596] loss3/loss3 <- loss3/classifier
I0123 12:20:03.850584 38191 net.cpp:596] loss3/loss3 <- label_data_1_split_2
I0123 12:20:03.850594 38191 net.cpp:570] loss3/loss3 -> loss3/loss3
…
I0123 12:20:03.858535 38191 net.cpp:484] The NetState phase (1) differed from the phase (0) specified by a rule in layer data
I0123 12:20:03.862912 38191 net.cpp:120] Initializing net from parameters: 
name: "GoogleNet"
state {
  phase: TEST
}
layer {
  name: "data"
  type: "Data"
  top: "data"
  top: "label"
  include {
    phase: TEST
  }
  transform_param {
    mirror: false
    crop_size: 224
    mean_value: 104
    mean_value: 117
    mean_value: 123
  }
  data_param {
    source: "/home/user/caffeOMP/original/caffe/examples/imagenet/ilsvrc12_val_lmdb"
    batch_size: 50
    backend: LMDB
  }
}
layer {
  name: "label_data_1_split"
  type: "Split"
  bottom: "label"
  top: "label_data_1_split_0"
  top: "label_data_1_split_1"
  top: "label_data_1_split_2"
  top: "label_data_1_split_3"
  top: "label_data_1_split_4"
  top: "label_data_1_split_5"
  top: "label_data_1_split_6"
  top: "label_data_1_split_7"
  top: "label_data_1_split_8"
}
layer {
  name: "conv1/7x7_s2"
  type: "Convolution"
  bottom: "data"
  top: "conv1/7x7_s2"
  param {
    lr_mult: 1
    decay_mult: 1
  }
  param {
    lr_mult: 2
    decay_mult: 0
  }
  convolution_param {
    num_output: 64
    pad: 3
    kernel_size: 7
    stride: 2
    weight_filler {
      type: "xavier"
    }
    bias_filler {
      type: "constant"
      value: 0.2
    }
  }
}
layer {
  name: "conv1/relu_7x7"
  type: "ReLU"
  bottom: "conv1/7x7_s2"
  top: "conv1/7x7_s2"
}
layer {
  name: "pool1/3x3_s2"
  type: "Pooling"
  bottom: "conv1/7x7_s2"
  top: "pool1/3x3_s2"
  pooling_param {
    pool: MAX
    kernel_size: 3
    stride: 2
  }
}
layer {
  name: "pool1/norm1"
  type: "LRN"
  bottom: "pool1/3x3_s2"
  top: "pool1/norm1"
  lrn_param {
    local_size: 5
    alpha: 0.0001
    beta: 0.75
  }
}
layer {
  name: "conv2/3x3_reduce"
  type: "Convolution"
  bottom: "pool1/norm1"
  top: "conv2/3x3_reduce"
  param {
    lr_mult: 1
    decay_mult: 1
  }
  param {
    lr_mult: 2
    decay_mult: 0
  }
  convolution_param {
    num_output: 64
    kernel_size: 1
    weight_filler {
      type: "xavier"
    }
    bias_filler {
      type: "constant"
      value: 0.2
    }
  }
}
layer {
  name: "conv2/relu_3x3_reduce"
  type: "ReLU"
  bottom: "conv2/3x3_reduce"
  top: "conv2/3x3_reduce"
}
layer {
  name: "conv2/3x3"
  type: "Convolution"
  bottom: "conv2/3x3_reduce"
  top: "conv2/3x3"
  param {
    lr_mult: 1
    decay_mult: 1
  }
  param {
    lr_mult: 2
    decay_mult: 0
  }
  convolution_param {
    num_output: 192
    pad: 1
    kernel_size: 3
    weight_filler {
      type: "xavier"
    }
    bias_filler {
      type: "constant"
      value: 0.2
    }
  }
}
layer {
  name: "conv2/relu_3x3"
  type: "ReLU"
  bottom: "conv2/3x3"
  top: "conv2/3x3"
}
layer {
  name: "conv2/norm2"
  type: "LRN"
  bottom: "conv2/3x3"
  top: "conv2/norm2"
  lrn_param {
    local_size: 5
    alpha: 0.0001
    beta: 0.75
  }
}
layer {
  name: "pool2/3x3_s2"
  type: "Pooling"
  bottom: "conv2/norm2"
  top: "pool2/3x3_s2"
  pooling_param {
    pool: MAX
    kernel_size: 3
    stride: 2
  }
}
layer {
  name: "pool2/3x3_s2_pool2/3x3_s2_0_split"
  type: "Split"
  bottom: "pool2/3x3_s2"
  top: "pool2/3x3_s2_pool2/3x3_s2_0_split_0"
  top: "pool2/3x3_s2_pool2/3x3_s2_0_split_1"
  top: "pool2/3x3_s2_pool2/3x3_s2_0_split_2"
  top: "pool2/3x3_s2_pool2/3x3_s2_0_split_3"
}
layer {
  name: "inception_3a/1x1"
  type: "Convolution"
  bottom: "pool2/3x3_s2_pool2/3x3_s2_0_split_0"
  top: "inception_3a/1x1"
  param {
    lr_mult: 1
    decay_mult: 1
  }
  param {
    lr_mult: 2
    decay_mult: 0
  }
  convolution_param {
    num_output: 64
    kernel_size: 1
    weight_filler {
      type: "xavier"
    }
    bias_filler {
      type: "constant"
      value: 0.2
    }
  }
}
layer {
  name: "inception_3a/relu_1x1"
  type: "ReLU"
  bottom: "inception_3a/1x1"
  top: "inception_3a/1x1"
}
layer {
  name: "inception_3a/3x3_reduce"
  type: "Convolution"
  bottom: "pool2/3x3_s2_pool2/3x3_s2_0_split_1"
  top: "inception_3a/3x3_reduce"
  param {
    lr_mult: 1
    decay_mult: 1
  }
  param {
    lr_mult: 2
    decay_mult: 0
  }
  convolution_param {
    num_output: 96
    kernel_size: 1
    weight_filler {
      type: "xavier"
    }
    bias_filler {
      type: "constant"
      value: 0.2
    }
  }
}
layer {
  name: "inception_3a/relu_3x3_reduce"
  type: "ReLU"
  bottom: "inception_3a/3x3_reduce"
  top: "inception_3a/3x3_reduce"
}
layer {
  name: "inception_3a/3x3"
  type: "Convolution"
  bottom: "inception_3a/3x3_reduce"
  top: "inception_3a/3x3"
  param {
    lr_mult: 1
    decay_mult: 1
  }
  param {
    lr_mult: 2
    decay_mult: 0
  }
  convolution_param {
    num_output: 128
    pad: 1
    kernel_size: 3
    weight_filler {
      type: "xavier"
    }
    bias_filler {
      type: "constant"
      value: 0.2
    }
  }
}
layer {
  name: "inception_3a/relu_3x3"
  type: "ReLU"
  bottom: "inception_3a/3x3"
  top: "inception_3a/3x3"
}
layer {
  name: "inception_3a/5x5_reduce"
  type: "Convolution"
  bottom: "pool2/3x3_s2_pool2/3x3_s2_0_split_2"
  top: "inception_3a/5x5_reduce"
  param {
    lr_mult: 1
    decay_mult: 1
  }
  param {
    lr_mult: 2
    decay_mult: 0
  }
  convolution_param {
    num_output: 16
    kernel_size: 1
    weight_filler {
      type: "xavier"
    }
    bias_filler {
      type: "constant"
      value: 0.2
    }
  }
}
layer {
  name: "inception_3a/relu_5x5_reduce"
  type: "ReLU"
  bottom: "inception_3a/5x5_reduce"
  top: "inception_3a/5x5_reduce"
}
layer {
  name: "inception_3a/5x5"
  type: "Convolution"
  bottom: "inception_3a/5x5_reduce"
  top: "inception_3a/5x5"
  param {
    lr_mult: 1
    decay_mult: 1
  }
  param {
    lr_mult: 2
    decay_mult: 0
  }
  convolution_param {
    num_output: 32
    pad: 2
    kernel_size: 5
    weight_filler {
      type: "xavier"
    }
    bias_filler {
      type: "constant"
      value: 0.2
    }
  }
}
layer {
  name: "inception_3a/relu_5x5"
  type: "ReLU"
  bottom: "inception_3a/5x5"
  top: "inception_3a/5x5"
}
layer {
  name: "inception_3a/pool"
  type: "Pooling"
  bottom: "pool2/3x3_s2_pool2/3x3_s2_0_split_3"
  top: "inception_3a/pool"
  pooling_param {
    pool: MAX
    kernel_size: 3
    stride: 1
    pad: 1
  }
}
layer {
  name: "inception_3a/pool_proj"
  type: "Convolution"
  bottom: "inception_3a/pool"
  top: "inception_3a/pool_proj"
  param {
    lr_mult: 1
    decay_mult: 1
  }
  param {
    lr_mult: 2
    decay_mult: 0
  }
  convolution_param {
    num_output: 32
    kernel_size: 1
    weight_filler {
      type: "xavier"
    }
    bias_filler {
      type: "constant"
      value: 0.2
    }
  }
}
layer {
  name: "inception_3a/relu_pool_proj"
  type: "ReLU"
  bottom: "inception_3a/pool_proj"
  top: "inception_3a/pool_proj"
}
layer {
  name: "inception_3a/output"
  type: "Concat"
  bottom: "inception_3a/1x1"
  bottom: "inception_3a/3x3"
  bottom: "inception_3a/5x5"
  bottom: "inception_3a/pool_proj"
  top: "inception_3a/output"
}
layer {
  name: "inception_3a/output_inception_3a/output_0_split"
  type: "Split"
  bottom: "inception_3a/output"
  top: "inception_3a/output_inception_3a/output_0_split_0"
  top: "inception_3a/output_inception_3a/output_0_split_1"
  top: "inception_3a/output_inception_3a/output_0_split_2"
  top: "inception_3a/output_inception_3a/output_0_split_3"
}
layer {
  name: "inception_3b/1x1"
  type: "Convolution"
  bottom: "inception_3a/output_inception_3a/output_0_split_0"
  top: "inception_3b/1x1"
  param {
    lr_mult: 1
    decay_mult: 1
  }
  param {
    lr_mult: 2
    decay_mult: 0
  }
  convolution_param {
    num_output: 128
    kernel_size: 1
    weight_filler {
      type: "xavier"
    }
    bias_filler {
      type: "constant"
      value: 0.2
    }
  }
}
layer {
  name: "inception_3b/relu_1x1"
  type: "ReLU"
  bottom: "inception_3b/1x1"
  top: "inception_3b/1x1"
}
layer {
  name: "inception_3b/3x3_reduce"
  type: "Convolution"
  bottom: "inception_3a/output_inception_3a/output_0_split_1"
  top: "inception_3b/3x3_reduce"
  param {
    lr_mult: 1
    decay_mult: 1
  }
  param {
    lr_mult: 2
    decay_mult: 0
  }
  convolution_param {
    num_output: 128
    kernel_size: 1
    weight_filler {
      type: "xavier"
    }
    bias_filler {
      type: "constant"
      value: 0.2
    }
  }
}
layer {
  name: "inception_3b/relu_3x3_reduce"
  type: "ReLU"
  bottom: "inception_3b/3x3_reduce"
  top: "inception_3b/3x3_reduce"
}
layer {
  name: "inception_3b/3x3"
  type: "Convolution"
  bottom: "inception_3b/3x3_reduce"
  top: "inception_3b/3x3"
  param {
    lr_mult: 1
    decay_mult: 1
  }
  param {
    lr_mult: 2
    decay_mult: 0
  }
  convolution_param {
    num_output: 192
    pad: 1
    kernel_size: 3
    weight_filler {
      type: "xavier"
    }
    bias_filler {
      type: "constant"
      value: 0.2
    }
  }
}
layer {
  name: "inception_3b/relu_3x3"
  type: "ReLU"
  bottom: "inception_3b/3x3"
  top: "inception_3b/3x3"
}
layer {
  name: "inception_3b/5x5_reduce"
  type: "Convolution"
  bottom: "inception_3a/output_inception_3a/output_0_split_2"
  top: "inception_3b/5x5_reduce"
  param {
    lr_mult: 1
    decay_mult: 1
  }
  param {
    lr_mult: 2
    decay_mult: 0
  }
  convolution_param {
    num_output: 32
    kernel_size: 1
    weight_filler {
      type: "xavier"
    }
    bias_filler {
      type: "constant"
      value: 0.2
    }
  }
}
layer {
  name: "inception_3b/relu_5x5_reduce"
  type: "ReLU"
  bottom: "inception_3b/5x5_reduce"
  top: "inception_3b/5x5_reduce"
}
layer {
  name: "inception_3b/5x5"
  type: "Convolution"
  bottom: "inception_3b/5x5_reduce"
  top: "inception_3b/5x5"
  param {
    lr_mult: 1
    decay_mult: 1
  }
  param {
    lr_mult: 2
    decay_mult: 0
  }
  convolution_param {
    num_output: 96
    pad: 2
    kernel_size: 5
    weight_filler {
      type: "xavier"
    }
    bias_filler {
      type: "constant"
      value: 0.2
    }
  }
}
layer {
  name: "inception_3b/relu_5x5"
  type: "ReLU"
  bottom: "inception_3b/5x5"
  top: "inception_3b/5x5"
}
layer {
  name: "inception_3b/pool"
  type: "Pooling"
  bottom: "inception_3a/output_inception_3a/output_0_split_3"
  top: "inception_3b/pool"
  pooling_param {
    pool: MAX
    kernel_size: 3
    stride: 1
    pad: 1
  }
}
layer {
  name: "inception_3b/pool_proj"
  type: "Convolution"
  bottom: "inception_3b/pool"
  top: "inception_3b/pool_proj"
  param {
    lr_mult: 1
    decay_mult: 1
  }
  param {
    lr_mult: 2
    decay_mult: 0
  }
  convolution_param {
    num_output: 64
    kernel_size: 1
    weight_filler {
      type: "xavier"
    }
    bias_filler {
      type: "constant"
      value: 0.2
    }
  }
}
layer {
  name: "inception_3b/relu_pool_proj"
  type: "ReLU"
  bottom: "inception_3b/pool_proj"
  top: "inception_3b/pool_proj"
}
layer {
  name: "inception_3b/output"
  type: "Concat"
  bottom: "inception_3b/1x1"
  bottom: "inception_3b/3x3"
  bottom: "inception_3b/5x5"
  bottom: "inception_3b/pool_proj"
  top: "inception_3b/output"
}
layer {
  name: "pool3/3x3_s2"
  type: "Pooling"
  bottom: "inception_3b/output"
  top: "pool3/3x3_s2"
  pooling_param {
    pool: MAX
    kernel_size: 3
    stride: 2
  }
}
layer {
  name: "pool3/3x3_s2_pool3/3x3_s2_0_split"
  type: "Split"
  bottom: "pool3/3x3_s2"
  top: "pool3/3x3_s2_pool3/3x3_s2_0_split_0"
  top: "pool3/3x3_s2_pool3/3x3_s2_0_split_1"
  top: "pool3/3x3_s2_pool3/3x3_s2_0_split_2"
  top: "pool3/3x3_s2_pool3/3x3_s2_0_split_3"
}
layer {
  name: "inception_4a/1x1"
  type: "Convolution"
  bottom: "pool3/3x3_s2_pool3/3x3_s2_0_split_0"
  top: "inception_4a/1x1"
  param {
    lr_mult: 1
    decay_mult: 1
  }
  param {
    lr_mult: 2
    decay_mult: 0
  }
  convolution_param {
    num_output: 192
    kernel_size: 1
    weight_filler {
      type: "xavier"
    }
    bias_filler {
      type: "constant"
      value: 0.2
    }
  }
}
layer {
  name: "inception_4a/relu_1x1"
  type: "ReLU"
  bottom: "inception_4a/1x1"
  top: "inception_4a/1x1"
}
layer {
  name: "inception_4a/3x3_reduce"
  type: "Convolution"
  bottom: "pool3/3x3_s2_pool3/3x3_s2_0_split_1"
  top: "inception_4a/3x3_reduce"
  param {
    lr_mult: 1
    decay_mult: 1
  }
  param {
    lr_mult: 2
    decay_mult: 0
  }
  convolution_param {
    num_output: 96
    kernel_size: 1
    weight_filler {
      type: "xavier"
    }
    bias_filler {
      type: "constant"
      value: 0.2
    }
  }
}
layer {
  name: "inception_4a/relu_3x3_reduce"
  type: "ReLU"
  bottom: "inception_4a/3x3_reduce"
  top: "inception_4a/3x3_reduce"
}
layer {
  name: "inception_4a/3x3"
  type: "Convolution"
  bottom: "inception_4a/3x3_reduce"
  top: "inception_4a/3x3"
  param {
    lr_mult: 1
    decay_mult: 1
  }
  param {
    lr_mult: 2
    decay_mult: 0
  }
  convolution_param {
    num_output: 208
    pad: 1
    kernel_size: 3
    weight_filler {
      type: "xavier"
    }
    bias_filler {
      type: "constant"
      value: 0.2
    }
  }
}
layer {
  name: "inception_4a/relu_3x3"
  type: "ReLU"
  bottom: "inception_4a/3x3"
  top: "inception_4a/3x3"
}
layer {
  name: "inception_4a/5x5_reduce"
  type: "Convolution"
  bottom: "pool3/3x3_s2_pool3/3x3_s2_0_split_2"
  top: "inception_4a/5x5_reduce"
  param {
    lr_mult: 1
    decay_mult: 1
  }
  param {
    lr_mult: 2
    decay_mult: 0
  }
  convolution_param {
    num_output: 16
    kernel_size: 1
    weight_filler {
      type: "xavier"
    }
    bias_filler {
      type: "constant"
      value: 0.2
    }
  }
}
layer {
  name: "inception_4a/relu_5x5_reduce"
  type: "ReLU"
  bottom: "inception_4a/5x5_reduce"
  top: "inception_4a/5x5_reduce"
}
layer {
  name: "inception_4a/5x5"
  type: "Convolution"
  bottom: "inception_4a/5x5_reduce"
  top: "inception_4a/5x5"
  param {
    lr_mult: 1
    decay_mult: 1
  }
  param {
    lr_mult: 2
    decay_mult: 0
  }
  convolution_param {
    num_output: 48
    pad: 2
    kernel_size: 5
    weight_filler {
      type: "xavier"
    }
    bias_filler {
      type: "constant"
      value: 0.2
    }
  }
}
layer {
  name: "inception_4a/relu_5x5"
  type: "ReLU"
  bottom: "inception_4a/5x5"
  top: "inception_4a/5x5"
}
layer {
  name: "inception_4a/pool"
  type: "Pooling"
  bottom: "pool3/3x3_s2_pool3/3x3_s2_0_split_3"
  top: "inception_4a/pool"
  pooling_param {
    pool: MAX
    kernel_size: 3
    stride: 1
    pad: 1
  }
}
layer {
  name: "inception_4a/pool_proj"
  type: "Convolution"
  bottom: "inception_4a/pool"
  top: "inception_4a/pool_proj"
  param {
    lr_mult: 1
    decay_mult: 1
  }
  param {
    lr_mult: 2
    decay_mult: 0
  }
  convolution_param {
    num_output: 64
    kernel_size: 1
    weight_filler {
      type: "xavier"
    }
    bias_filler {
      type: "constant"
…
I0123 12:20:04.228510 38191 layer_factory.hpp:114] Creating layer inception_4c/pool
I0123 12:20:04.228535 38191 net.cpp:160] Creating Layer inception_4c/pool
I0123 12:20:04.228544 38191 net.cpp:596] inception_4c/pool <- inception_4b/output_inception_4b/output_0_split_3
I0123 12:20:04.228556 38191 net.cpp:570] inception_4c/pool -> inception_4c/pool
I0123 12:20:04.228569 38191 net.cpp:210] Setting up inception_4c/pool
I0123 12:20:04.228579 38191 net.cpp:217] Top shape: 50 512 14 14 (5017600)
I0123 12:20:04.228585 38191 net.cpp:225] Memory required for data: 2210363612
I0123 12:20:04.228592 38191 layer_factory.hpp:114] Creating layer inception_4c/pool_proj
I0123 12:20:04.228618 38191 net.cpp:160] Creating Layer inception_4c/pool_proj
I0123 12:20:04.228627 38191 net.cpp:596] inception_4c/pool_proj <- inception_4c/pool
I0123 12:20:04.228639 38191 net.cpp:570] inception_4c/pool_proj -> inception_4c/pool_proj
I0123 12:20:04.232550 38191 net.cpp:210] Setting up inception_4c/pool_proj
I0123 12:20:04.232565 38191 net.cpp:217] Top shape: 50 64 14 14 (627200)
I0123 12:20:04.232573 38191 net.cpp:225] Memory required for data: 2212872412
I0123 12:20:04.232583 38191 layer_factory.hpp:114] Creating layer inception_4c/relu_pool_proj
I0123 12:20:04.232592 38191 net.cpp:160] Creating Layer inception_4c/relu_pool_proj
I0123 12:20:04.232600 38191 net.cpp:596] inception_4c/relu_pool_proj <- inception_4c/pool_proj
I0123 12:20:04.232611 38191 net.cpp:557] inception_4c/relu_pool_proj -> inception_4c/pool_proj (in-place)
I0123 12:20:04.232621 38191 net.cpp:210] Setting up inception_4c/relu_pool_proj
I0123 12:20:04.232630 38191 net.cpp:217] Top shape: 50 64 14 14 (627200)
I0123 12:20:04.232636 38191 net.cpp:225] Memory required for data: 2215381212
I0123 12:20:04.232643 38191 layer_factory.hpp:114] Creating layer inception_4c/output
I0123 12:20:04.232655 38191 net.cpp:160] Creating Layer inception_4c/output
I0123 12:20:04.232662 38191 net.cpp:596] inception_4c/output <- inception_4c/1x1
I0123 12:20:04.232671 38191 net.cpp:596] inception_4c/output <- inception_4c/3x3
I0123 12:20:04.232678 38191 net.cpp:596] inception_4c/output <- inception_4c/5x5
I0123 12:20:04.232693 38191 net.cpp:596] inception_4c/output <- inception_4c/pool_proj
I0123 12:20:04.232702 38191 net.cpp:570] inception_4c/output -> inception_4c/output
I0123 12:20:04.232713 38191 net.cpp:210] Setting up inception_4c/output
I0123 12:20:04.232722 38191 net.cpp:217] Top shape: 50 512 14 14 (5017600)
I0123 12:20:04.232729 38191 net.cpp:225] Memory required for data: 2235451612
I0123 12:20:04.232736 38191 layer_factory.hpp:114] Creating layer inception_4c/output_inception_4c/output_0_split
I0123 12:20:04.232745 38191 net.cpp:160] Creating Layer inception_4c/output_inception_4c/output_0_split
I0123 12:20:04.232753 38191 net.cpp:596] inception_4c/output_inception_4c/output_0_split <- inception_4c/output
I0123 12:20:04.232764 38191 net.cpp:570] inception_4c/output_inception_4c/output_0_split -> inception_4c/output_inception_4c/output_0_split_0
I0123 12:20:04.232774 38191 net.cpp:570] inception_4c/output_inception_4c/output_0_split -> inception_4c/output_inception_4c/output_0_split_1
I0123 12:20:04.232784 38191 net.cpp:570] inception_4c/output_inception_4c/output_0_split -> inception_4c/output_inception_4c/output_0_split_2
I0123 12:20:04.232795 38191 net.cpp:570] inception_4c/output_inception_4c/output_0_split -> inception_4c/output_inception_4c/output_0_split_3
I0123 12:20:04.232805 38191 net.cpp:210] Setting up inception_4c/output_inception_4c/output_0_split
I0123 12:20:04.232815 38191 net.cpp:217] Top shape: 50 512 14 14 (5017600)
I0123 12:20:04.232823 38191 net.cpp:217] Top shape: 50 512 14 14 (5017600)
I0123 12:20:04.232831 38191 net.cpp:217] Top shape: 50 512 14 14 (5017600)
I0123 12:20:04.232839 38191 net.cpp:217] Top shape: 50 512 14 14 (5017600)
I0123 12:20:04.232846 38191 net.cpp:225] Memory required for data: 2315733212
I0123 12:20:04.232852 38191 layer_factory.hpp:114] Creating layer inception_4d/1x1
I0123 12:20:04.232863 38191 net.cpp:160] Creating Layer inception_4d/1x1
I0123 12:20:04.232872 38191 net.cpp:596] inception_4d/1x1 <- inception_4c/output_inception_4c/output_0_split_0
I0123 12:20:04.232882 38191 net.cpp:570] inception_4d/1x1 -> inception_4d/1x1
I0123 12:20:04.237498 38191 net.cpp:210] Setting up inception_4d/1x1
I0123 12:20:04.237512 38191 net.cpp:217] Top shape: 50 112 14 14 (1097600)
I0123 12:20:04.237519 38191 net.cpp:225] Memory required for data: 2320123612
I0123 12:20:04.237529 38191 layer_factory.hpp:114] Creating layer inception_4d/relu_1x1
I0123 12:20:04.237540 38191 net.cpp:160] Creating Layer inception_4d/relu_1x1
I0123 12:20:04.237546 38191 net.cpp:596] inception_4d/relu_1x1 <- inception_4d/1x1
I0123 12:20:04.237566 38191 net.cpp:557] inception_4d/relu_1x1 -> inception_4d/1x1 (in-place)
I0123 12:20:04.237577 38191 net.cpp:210] Setting up inception_4d/relu_1x1
I0123 12:20:04.237586 38191 net.cpp:217] Top shape: 50 112 14 14 (1097600)
I0123 12:20:04.237601 38191 net.cpp:225] Memory required for data: 2324514012
I0123 12:20:04.237608 38191 layer_factory.hpp:114] Creating layer inception_4d/3x3_reduce
I0123 12:20:04.237624 38191 net.cpp:160] Creating Layer inception_4d/3x3_reduce
I0123 12:20:04.237632 38191 net.cpp:596] inception_4d/3x3_reduce <- inception_4c/output_inception_4c/output_0_split_1
I0123 12:20:04.237643 38191 net.cpp:570] inception_4d/3x3_reduce -> inception_4d/3x3_reduce
I0123 12:20:04.243121 38191 net.cpp:210] Setting up inception_4d/3x3_reduce
I0123 12:20:04.243136 38191 net.cpp:217] Top shape: 50 144 14 14 (1411200)
I0123 12:20:04.243144 38191 net.cpp:225] Memory required for data: 2330158812
I0123 12:20:04.243154 38191 layer_factory.hpp:114] Creating layer inception_4d/relu_3x3_reduce
I0123 12:20:04.243165 38191 net.cpp:160] Creating Layer inception_4d/relu_3x3_reduce
I0123 12:20:04.243217 38191 net.cpp:596] inception_4d/relu_3x3_reduce <- inception_4d/3x3_reduce
I0123 12:20:04.243227 38191 net.cpp:557] inception_4d/relu_3x3_reduce -> inception_4d/3x3_reduce (in-place)
I0123 12:20:04.243237 38191 net.cpp:210] Setting up inception_4d/relu_3x3_reduce
I0123 12:20:04.243245 38191 net.cpp:217] Top shape: 50 144 14 14 (1411200)
I0123 12:20:04.243252 38191 net.cpp:225] Memory required for data: 2335803612
I0123 12:20:04.243258 38191 layer_factory.hpp:114] Creating layer inception_4d/3x3
I0123 12:20:04.243270 38191 net.cpp:160] Creating Layer inception_4d/3x3
I0123 12:20:04.243278 38191 net.cpp:596] inception_4d/3x3 <- inception_4d/3x3_reduce
I0123 12:20:04.243289 38191 net.cpp:570] inception_4d/3x3 -> inception_4d/3x3
I0123 12:20:04.260478 38191 net.cpp:210] Setting up inception_4d/3x3
I0123 12:20:04.260500 38191 net.cpp:217] Top shape: 50 288 14 14 (2822400)
I0123 12:20:04.260507 38191 net.cpp:225] Memory required for data: 2347093212
I0123 12:20:04.260517 38191 layer_factory.hpp:114] Creating layer inception_4d/relu_3x3
I0123 12:20:04.260527 38191 net.cpp:160] Creating Layer inception_4d/relu_3x3
I0123 12:20:04.260535 38191 net.cpp:596] inception_4d/relu_3x3 <- inception_4d/3x3
I0123 12:20:04.260546 38191 net.cpp:557] inception_4d/relu_3x3 -> inception_4d/3x3 (in-place)
I0123 12:20:04.260556 38191 net.cpp:210] Setting up inception_4d/relu_3x3
I0123 12:20:04.260565 38191 net.cpp:217] Top shape: 50 288 14 14 (2822400)
I0123 12:20:04.260572 38191 net.cpp:225] Memory required for data: 2358382812
I0123 12:20:04.260578 38191 layer_factory.hpp:114] Creating layer inception_4d/5x5_reduce
I0123 12:20:04.260591 38191 net.cpp:160] Creating Layer inception_4d/5x5_reduce
I0123 12:20:04.260597 38191 net.cpp:596] inception_4d/5x5_reduce <- inception_4c/output_inception_4c/output_0_split_2
I0123 12:20:04.260607 38191 net.cpp:570] inception_4d/5x5_reduce -> inception_4d/5x5_reduce
I0123 12:20:04.263676 38191 net.cpp:210] Setting up inception_4d/5x5_reduce
I0123 12:20:04.263691 38191 net.cpp:217] Top shape: 50 32 14 14 (313600)
I0123 12:20:04.263697 38191 net.cpp:225] Memory required for data: 2359637212
I0123 12:20:04.263707 38191 layer_factory.hpp:114] Creating layer inception_4d/relu_5x5_reduce
I0123 12:20:04.263731 38191 net.cpp:160] Creating Layer inception_4d/relu_5x5_reduce
I0123 12:20:04.263737 38191 net.cpp:596] inception_4d/relu_5x5_reduce <- inception_4d/5x5_reduce
I0123 12:20:04.263749 38191 net.cpp:557] inception_4d/relu_5x5_reduce -> inception_4d/5x5_reduce (in-place)
I0123 12:20:04.263759 38191 net.cpp:210] Setting up inception_4d/relu_5x5_reduce
I0123 12:20:04.263768 38191 net.cpp:217] Top shape: 50 32 14 14 (313600)
I0123 12:20:04.263774 38191 net.cpp:225] Memory required for data: 2360891612
I0123 12:20:04.263782 38191 layer_factory.hpp:114] Creating layer inception_4d/5x5
I0123 12:20:04.263792 38191 net.cpp:160] Creating Layer inception_4d/5x5
I0123 12:20:04.263800 38191 net.cpp:596] inception_4d/5x5 <- inception_4d/5x5_reduce
I0123 12:20:04.263818 38191 net.cpp:570] inception_4d/5x5 -> inception_4d/5x5
I0123 12:20:04.269593 38191 net.cpp:210] Setting up inception_4d/5x5
I0123 12:20:04.269608 38191 net.cpp:217] Top shape: 50 64 14 14 (627200)
I0123 12:20:04.269639 38191 net.cpp:225] Memory required for data: 2363400412
I0123 12:20:04.269649 38191 layer_factory.hpp:114] Creating layer inception_4d/relu_5x5
I0123 12:20:04.269659 38191 net.cpp:160] Creating Layer inception_4d/relu_5x5
I0123 12:20:04.269666 38191 net.cpp:596] inception_4d/relu_5x5 <- inception_4d/5x5
I0123 12:20:04.269682 38191 net.cpp:557] inception_4d/relu_5x5 -> inception_4d/5x5 (in-place)
I0123 12:20:04.269692 38191 net.cpp:210] Setting up inception_4d/relu_5x5
I0123 12:20:04.269701 38191 net.cpp:217] Top shape: 50 64 14 14 (627200)
I0123 12:20:04.269707 38191 net.cpp:225] Memory required for data: 2365909212
I0123 12:20:04.269713 38191 layer_factory.hpp:114] Creating layer inception_4d/pool
I0123 12:20:04.269737 38191 net.cpp:160] Creating Layer inception_4d/pool
I0123 12:20:04.269747 38191 net.cpp:596] inception_4d/pool <- inception_4c/output_inception_4c/output_0_split_3
I0123 12:20:04.269757 38191 net.cpp:570] inception_4d/pool -> inception_4d/pool
I0123 12:20:04.269770 38191 net.cpp:210] Setting up inception_4d/pool
I0123 12:20:04.269780 38191 net.cpp:217] Top shape: 50 512 14 14 (5017600)
I0123 12:20:04.269786 38191 net.cpp:225] Memory required for data: 2385979612
I0123 12:20:04.269793 38191 layer_factory.hpp:114] Creating layer inception_4d/pool_proj
I0123 12:20:04.269810 38191 net.cpp:160] Creating Layer inception_4d/pool_proj
I0123 12:20:04.269819 38191 net.cpp:596] inception_4d/pool_proj <- inception_4d/pool
I0123 12:20:04.269829 38191 net.cpp:570] inception_4d/pool_proj -> inception_4d/pool_proj
I0123 12:20:04.273836 38191 net.cpp:210] Setting up inception_4d/pool_proj
I0123 12:20:04.273851 38191 net.cpp:217] Top shape: 50 64 14 14 (627200)
I0123 12:20:04.273857 38191 net.cpp:225] Memory required for data: 2388488412
I0123 12:20:04.273869 38191 layer_factory.hpp:114] Creating layer inception_4d/relu_pool_proj
I0123 12:20:04.273877 38191 net.cpp:160] Creating Layer inception_4d/relu_pool_proj
I0123 12:20:04.273885 38191 net.cpp:596] inception_4d/relu_pool_proj <- inception_4d/pool_proj
I0123 12:20:04.273896 38191 net.cpp:557] inception_4d/relu_pool_proj -> inception_4d/pool_proj (in-place)
I0123 12:20:04.273907 38191 net.cpp:210] Setting up inception_4d/relu_pool_proj
I0123 12:20:04.273916 38191 net.cpp:217] Top shape: 50 64 14 14 (627200)
I0123 12:20:04.273921 38191 net.cpp:225] Memory required for data: 2390997212
I0123 12:20:04.273928 38191 layer_factory.hpp:114] Creating layer inception_4d/output
I0123 12:20:04.273938 38191 net.cpp:160] Creating Layer inception_4d/output
I0123 12:20:04.273946 38191 net.cpp:596] inception_4d/output <- inception_4d/1x1
I0123 12:20:04.273953 38191 net.cpp:596] inception_4d/output <- inception_4d/3x3
I0123 12:20:04.273962 38191 net.cpp:596] inception_4d/output <- inception_4d/5x5
I0123 12:20:04.273969 38191 net.cpp:596] inception_4d/output <- inception_4d/pool_proj
I0123 12:20:04.273980 38191 net.cpp:570] inception_4d/output -> inception_4d/output
I0123 12:20:04.273993 38191 net.cpp:210] Setting up inception_4d/output
I0123 12:20:04.274001 38191 net.cpp:217] Top shape: 50 528 14 14 (5174400)
I0123 12:20:04.274008 38191 net.cpp:225] Memory required for data: 2411694812
I0123 12:20:04.274014 38191 layer_factory.hpp:114] Creating layer inception_4d/output_inception_4d/output_0_split
I0123 12:20:04.274025 38191 net.cpp:160] Creating Layer inception_4d/output_inception_4d/output_0_split
I0123 12:20:04.274032 38191 net.cpp:596] inception_4d/output_inception_4d/output_0_split <- inception_4d/output
I0123 12:20:04.274041 38191 net.cpp:570] inception_4d/output_inception_4d/output_0_split -> inception_4d/output_inception_4d/output_0_split_0
I0123 12:20:04.274055 38191 net.cpp:570] inception_4d/output_inception_4d/output_0_split -> inception_4d/output_inception_4d/output_0_split_1
I0123 12:20:04.274082 38191 net.cpp:570] inception_4d/output_inception_4d/output_0_split -> inception_4d/output_inception_4d/output_0_split_2
I0123 12:20:04.274093 38191 net.cpp:570] inception_4d/output_inception_4d/output_0_split -> inception_4d/output_inception_4d/output_0_split_3
I0123 12:20:04.274113 38191 net.cpp:570] inception_4d/output_inception_4d/output_0_split -> inception_4d/output_inception_4d/output_0_split_4
I0123 12:20:04.274125 38191 net.cpp:210] Setting up inception_4d/output_inception_4d/output_0_split
I0123 12:20:04.274138 38191 net.cpp:217] Top shape: 50 528 14 14 (5174400)
I0123 12:20:04.274147 38191 net.cpp:217] Top shape: 50 528 14 14 (5174400)
I0123 12:20:04.274154 38191 net.cpp:217] Top shape: 50 528 14 14 (5174400)
I0123 12:20:04.274163 38191 net.cpp:217] Top shape: 50 528 14 14 (5174400)
I0123 12:20:04.274219 38191 net.cpp:217] Top shape: 50 528 14 14 (5174400)
I0123 12:20:04.274231 38191 net.cpp:225] Memory required for data: 2515182812
I0123 12:20:04.274238 38191 layer_factory.hpp:114] Creating layer loss2/ave_pool
I0123 12:20:04.274262 38191 net.cpp:160] Creating Layer loss2/ave_pool
I0123 12:20:04.274271 38191 net.cpp:596] loss2/ave_pool <- inception_4d/output_inception_4d/output_0_split_0
I0123 12:20:04.274281 38191 net.cpp:570] loss2/ave_pool -> loss2/ave_pool
I0123 12:20:04.274293 38191 net.cpp:210] Setting up loss2/ave_pool
I0123 12:20:04.274302 38191 net.cpp:217] Top shape: 50 528 4 4 (422400)
I0123 12:20:04.274309 38191 net.cpp:225] Memory required for data: 2516872412
I0123 12:20:04.274315 38191 layer_factory.hpp:114] Creating layer loss2/conv
I0123 12:20:04.274333 38191 net.cpp:160] Creating Layer loss2/conv
I0123 12:20:04.274340 38191 net.cpp:596] loss2/conv <- loss2/ave_pool
I0123 12:20:04.274350 38191 net.cpp:570] loss2/conv -> loss2/conv
I0123 12:20:04.276604 38191 net.cpp:210] Setting up loss2/conv
I0123 12:20:04.276618 38191 net.cpp:217] Top shape: 50 128 4 4 (102400)
I0123 12:20:04.276625 38191 net.cpp:225] Memory required for data: 2517282012
I0123 12:20:04.276635 38191 layer_factory.hpp:114] Creating layer loss2/relu_conv
I0123 12:20:04.276646 38191 net.cpp:160] Creating Layer loss2/relu_conv
I0123 12:20:04.276654 38191 net.cpp:596] loss2/relu_conv <- loss2/conv
I0123 12:20:04.276664 38191 net.cpp:557] loss2/relu_conv -> loss2/conv (in-place)
I0123 12:20:04.276675 38191 net.cpp:210] Setting up loss2/relu_conv
I0123 12:20:04.276684 38191 net.cpp:217] Top shape: 50 128 4 4 (102400)
I0123 12:20:04.276690 38191 net.cpp:225] Memory required for data: 2517691612
I0123 12:20:04.276697 38191 layer_factory.hpp:114] Creating layer loss2/fc
I0123 12:20:04.276723 38191 net.cpp:160] Creating Layer loss2/fc
I0123 12:20:04.276731 38191 net.cpp:596] loss2/fc <- loss2/conv
I0123 12:20:04.276741 38191 net.cpp:570] loss2/fc -> loss2/fc
I0123 12:20:04.295513 38191 net.cpp:210] Setting up loss2/fc
I0123 12:20:04.295537 38191 net.cpp:217] Top shape: 50 1024 (51200)
I0123 12:20:04.295544 38191 net.cpp:225] Memory required for data: 2517896412
I0123 12:20:04.295555 38191 layer_factory.hpp:114] Creating layer loss2/relu_fc
I0123 12:20:04.295567 38191 net.cpp:160] Creating Layer loss2/relu_fc
I0123 12:20:04.295574 38191 net.cpp:596] loss2/relu_fc <- loss2/fc
I0123 12:20:04.295583 38191 net.cpp:557] loss2/relu_fc -> loss2/fc (in-place)
I0123 12:20:04.295594 38191 net.cpp:210] Setting up loss2/relu_fc
I0123 12:20:04.295603 38191 net.cpp:217] Top shape: 50 1024 (51200)
I0123 12:20:04.295609 38191 net.cpp:225] Memory required for data: 2518101212
I0123 12:20:04.295616 38191 layer_factory.hpp:114] Creating layer loss2/drop_fc
I0123 12:20:04.295629 38191 net.cpp:160] Creating Layer loss2/drop_fc
I0123 12:20:04.295635 38191 net.cpp:596] loss2/drop_fc <- loss2/fc
I0123 12:20:04.295649 38191 net.cpp:557] loss2/drop_fc -> loss2/fc (in-place)
I0123 12:20:04.295663 38191 net.cpp:210] Setting up loss2/drop_fc
I0123 12:20:04.295671 38191 net.cpp:217] Top shape: 50 1024 (51200)
I0123 12:20:04.295677 38191 net.cpp:225] Memory required for data: 2518306012
I0123 12:20:04.295684 38191 layer_factory.hpp:114] Creating layer loss2/classifier
I0123 12:20:04.295703 38191 net.cpp:160] Creating Layer loss2/classifier
I0123 12:20:04.295711 38191 net.cpp:596] loss2/classifier <- loss2/fc
I0123 12:20:04.295722 38191 net.cpp:570] loss2/classifier -> loss2/classifier
I0123 12:20:04.305605 38191 net.cpp:210] Setting up loss2/classifier
I0123 12:20:04.305621 38191 net.cpp:217] Top shape: 50 1000 (50000)
I0123 12:20:04.305629 38191 net.cpp:225] Memory required for data: 2518506012
I0123 12:20:04.305639 38191 layer_factory.hpp:114] Creating layer loss2/classifier_loss2/classifier_0_split
I0123 12:20:04.305656 38191 net.cpp:160] Creating Layer loss2/classifier_loss2/classifier_0_split
I0123 12:20:04.305665 38191 net.cpp:596] loss2/classifier_loss2/classifier_0_split <- loss2/classifier
I0123 12:20:04.305673 38191 net.cpp:570] loss2/classifier_loss2/classifier_0_split -> loss2/classifier_loss2/classifier_0_split_0
I0123 12:20:04.305685 38191 net.cpp:570] loss2/classifier_loss2/classifier_0_split -> loss2/classifier_loss2/classifier_0_split_1
I0123 12:20:04.305701 38191 net.cpp:570] loss2/classifier_loss2/classifier_0_split -> loss2/classifier_loss2/classifier_0_split_2
I0123 12:20:04.305712 38191 net.cpp:210] Setting up loss2/classifier_loss2/classifier_0_split
I0123 12:20:04.305721 38191 net.cpp:217] Top shape: 50 1000 (50000)
I0123 12:20:04.305729 38191 net.cpp:217] Top shape: 50 1000 (50000)
I0123 12:20:04.305737 38191 net.cpp:217] Top shape: 50 1000 (50000)
I0123 12:20:04.305742 38191 net.cpp:225] Memory required for data: 2519106012
I0123 12:20:04.305749 38191 layer_factory.hpp:114] Creating layer loss2/loss
I0123 12:20:04.305763 38191 net.cpp:160] Creating Layer loss2/loss
I0123 12:20:04.305770 38191 net.cpp:596] loss2/loss <- loss2/classifier_loss2/classifier_0_split_0
I0123 12:20:04.305778 38191 net.cpp:596] loss2/loss <- label_data_1_split_3
…
I0123 12:20:04.306126 38191 net.cpp:210] Setting up loss2/top-5
I0123 12:20:04.306134 38191 net.cpp:217] Top shape: (1)
I0123 12:20:04.306140 38191 net.cpp:225] Memory required for data: 2519106024
I0123 12:20:04.306147 38191 layer_factory.hpp:114] Creating layer inception_4e/1x1
I0123 12:20:04.306212 38191 net.cpp:160] Creating Layer inception_4e/1x1
I0123 12:20:04.306223 38191 net.cpp:596] inception_4e/1x1 <- inception_4d/output_inception_4d/output_0_split_1
I0123 12:20:04.306233 38191 net.cpp:570] inception_4e/1x1 -> inception_4e/1x1
I0123 12:20:04.313294 38191 net.cpp:210] Setting up inception_4e/1x1
I0123 12:20:04.313318 38191 net.cpp:217] Top shape: 50 256 14 14 (2508800)
I0123 12:20:04.313324 38191 net.cpp:225] Memory required for data: 2529141224
I0123 12:20:04.313334 38191 layer_factory.hpp:114] Creating layer inception_4e/relu_1x1
I0123 12:20:04.313352 38191 net.cpp:160] Creating Layer inception_4e/relu_1x1
I0123 12:20:04.313377 38191 net.cpp:596] inception_4e/relu_1x1 <- inception_4e/1x1
I0123 12:20:04.313387 38191 net.cpp:557] inception_4e/relu_1x1 -> inception_4e/1x1 (in-place)
I0123 12:20:04.313408 38191 net.cpp:210] Setting up inception_4e/relu_1x1
I0123 12:20:04.313417 38191 net.cpp:217] Top shape: 50 256 14 14 (2508800)
I0123 12:20:04.313424 38191 net.cpp:225] Memory required for data: 2539176424
I0123 12:20:04.313431 38191 layer_factory.hpp:114] Creating layer inception_4e/3x3_reduce
I0123 12:20:04.313454 38191 net.cpp:160] Creating Layer inception_4e/3x3_reduce
I0123 12:20:04.313462 38191 net.cpp:596] inception_4e/3x3_reduce <- inception_4d/output_inception_4d/output_0_split_2
I0123 12:20:04.313474 38191 net.cpp:570] inception_4e/3x3_reduce -> inception_4e/3x3_reduce
I0123 12:20:04.318791 38191 net.cpp:210] Setting up inception_4e/3x3_reduce
I0123 12:20:04.318814 38191 net.cpp:217] Top shape: 50 160 14 14 (1568000)
I0123 12:20:04.318820 38191 net.cpp:225] Memory required for data: 2545448424
I0123 12:20:04.318838 38191 layer_factory.hpp:114] Creating layer inception_4e/relu_3x3_reduce
I0123 12:20:04.318847 38191 net.cpp:160] Creating Layer inception_4e/relu_3x3_reduce
I0123 12:20:04.318856 38191 net.cpp:596] inception_4e/relu_3x3_reduce <- inception_4e/3x3_reduce
I0123 12:20:04.318864 38191 net.cpp:557] inception_4e/relu_3x3_reduce -> inception_4e/3x3_reduce (in-place)
I0123 12:20:04.318874 38191 net.cpp:210] Setting up inception_4e/relu_3x3_reduce
I0123 12:20:04.318882 38191 net.cpp:217] Top shape: 50 160 14 14 (1568000)
I0123 12:20:04.318889 38191 net.cpp:225] Memory required for data: 2551720424
I0123 12:20:04.318897 38191 layer_factory.hpp:114] Creating layer inception_4e/3x3
I0123 12:20:04.318910 38191 net.cpp:160] Creating Layer inception_4e/3x3
I0123 12:20:04.318917 38191 net.cpp:596] inception_4e/3x3 <- inception_4e/3x3_reduce
I0123 12:20:04.318928 38191 net.cpp:570] inception_4e/3x3 -> inception_4e/3x3
I0123 12:20:04.339094 38191 net.cpp:210] Setting up inception_4e/3x3
I0123 12:20:04.339124 38191 net.cpp:217] Top shape: 50 320 14 14 (3136000)
I0123 12:20:04.339131 38191 net.cpp:225] Memory required for data: 2564264424
I0123 12:20:04.339141 38191 layer_factory.hpp:114] Creating layer inception_4e/relu_3x3
I0123 12:20:04.339151 38191 net.cpp:160] Creating Layer inception_4e/relu_3x3
I0123 12:20:04.339159 38191 net.cpp:596] inception_4e/relu_3x3 <- inception_4e/3x3
I0123 12:20:04.339208 38191 net.cpp:557] inception_4e/relu_3x3 -> inception_4e/3x3 (in-place)
I0123 12:20:04.339221 38191 net.cpp:210] Setting up inception_4e/relu_3x3
I0123 12:20:04.339229 38191 net.cpp:217] Top shape: 50 320 14 14 (3136000)
I0123 12:20:04.339236 38191 net.cpp:225] Memory required for data: 2576808424
I0123 12:20:04.339243 38191 layer_factory.hpp:114] Creating layer inception_4e/5x5_reduce
I0123 12:20:04.339264 38191 net.cpp:160] Creating Layer inception_4e/5x5_reduce
I0123 12:20:04.339272 38191 net.cpp:596] inception_4e/5x5_reduce <- inception_4d/output_inception_4d/output_0_split_3
I0123 12:20:04.339282 38191 net.cpp:570] inception_4e/5x5_reduce -> inception_4e/5x5_reduce
I0123 12:20:04.342463 38191 net.cpp:210] Setting up inception_4e/5x5_reduce
I0123 12:20:04.342476 38191 net.cpp:217] Top shape: 50 32 14 14 (313600)
I0123 12:20:04.342483 38191 net.cpp:225] Memory required for data: 2578062824
I0123 12:20:04.342494 38191 layer_factory.hpp:114] Creating layer inception_4e/relu_5x5_reduce
I0123 12:20:04.342504 38191 net.cpp:160] Creating Layer inception_4e/relu_5x5_reduce
I0123 12:20:04.342511 38191 net.cpp:596] inception_4e/relu_5x5_reduce <- inception_4e/5x5_reduce
I0123 12:20:04.342524 38191 net.cpp:557] inception_4e/relu_5x5_reduce -> inception_4e/5x5_reduce (in-place)
I0123 12:20:04.342533 38191 net.cpp:210] Setting up inception_4e/relu_5x5_reduce
I0123 12:20:04.342542 38191 net.cpp:217] Top shape: 50 32 14 14 (313600)
I0123 12:20:04.342550 38191 net.cpp:225] Memory required for data: 2579317224
I0123 12:20:04.342555 38191 layer_factory.hpp:114] Creating layer inception_4e/5x5
I0123 12:20:04.342573 38191 net.cpp:160] Creating Layer inception_4e/5x5
I0123 12:20:04.342581 38191 net.cpp:596] inception_4e/5x5 <- inception_4e/5x5_reduce
I0123 12:20:04.342592 38191 net.cpp:570] inception_4e/5x5 -> inception_4e/5x5
I0123 12:20:04.349653 38191 net.cpp:210] Setting up inception_4e/5x5
I0123 12:20:04.349668 38191 net.cpp:217] Top shape: 50 128 14 14 (1254400)
I0123 12:20:04.349675 38191 net.cpp:225] Memory required for data: 2584334824
I0123 12:20:04.349685 38191 layer_factory.hpp:114] Creating layer inception_4e/relu_5x5
I0123 12:20:04.349694 38191 net.cpp:160] Creating Layer inception_4e/relu_5x5
I0123 12:20:04.349702 38191 net.cpp:596] inception_4e/relu_5x5 <- inception_4e/5x5
I0123 12:20:04.349711 38191 net.cpp:557] inception_4e/relu_5x5 -> inception_4e/5x5 (in-place)
I0123 12:20:04.349721 38191 net.cpp:210] Setting up inception_4e/relu_5x5
I0123 12:20:04.349730 38191 net.cpp:217] Top shape: 50 128 14 14 (1254400)
I0123 12:20:04.349736 38191 net.cpp:225] Memory required for data: 2589352424
I0123 12:20:04.349743 38191 layer_factory.hpp:114] Creating layer inception_4e/pool
I0123 12:20:04.349793 38191 net.cpp:160] Creating Layer inception_4e/pool
I0123 12:20:04.349802 38191 net.cpp:596] inception_4e/pool <- inception_4d/output_inception_4d/output_0_split_4
I0123 12:20:04.349812 38191 net.cpp:570] inception_4e/pool -> inception_4e/pool
I0123 12:20:04.349828 38191 net.cpp:210] Setting up inception_4e/pool
I0123 12:20:04.349838 38191 net.cpp:217] Top shape: 50 528 14 14 (5174400)
I0123 12:20:04.349845 38191 net.cpp:225] Memory required for data: 2610050024
I0123 12:20:04.349853 38191 layer_factory.hpp:114] Creating layer inception_4e/pool_proj
I0123 12:20:04.349864 38191 net.cpp:160] Creating Layer inception_4e/pool_proj
I0123 12:20:04.349871 38191 net.cpp:596] inception_4e/pool_proj <- inception_4e/pool
I0123 12:20:04.349884 38191 net.cpp:570] inception_4e/pool_proj -> inception_4e/pool_proj
I0123 12:20:04.354519 38191 net.cpp:210] Setting up inception_4e/pool_proj
I0123 12:20:04.354534 38191 net.cpp:217] Top shape: 50 128 14 14 (1254400)
I0123 12:20:04.354542 38191 net.cpp:225] Memory required for data: 2615067624
I0123 12:20:04.354552 38191 layer_factory.hpp:114] Creating layer inception_4e/relu_pool_proj
I0123 12:20:04.354568 38191 net.cpp:160] Creating Layer inception_4e/relu_pool_proj
I0123 12:20:04.354575 38191 net.cpp:596] inception_4e/relu_pool_proj <- inception_4e/pool_proj
I0123 12:20:04.354588 38191 net.cpp:557] inception_4e/relu_pool_proj -> inception_4e/pool_proj (in-place)
I0123 12:20:04.354598 38191 net.cpp:210] Setting up inception_4e/relu_pool_proj
I0123 12:20:04.354606 38191 net.cpp:217] Top shape: 50 128 14 14 (1254400)
I0123 12:20:04.354612 38191 net.cpp:225] Memory required for data: 2620085224
I0123 12:20:04.354619 38191 layer_factory.hpp:114] Creating layer inception_4e/output
I0123 12:20:04.354630 38191 net.cpp:160] Creating Layer inception_4e/output
I0123 12:20:04.354637 38191 net.cpp:596] inception_4e/output <- inception_4e/1x1
I0123 12:20:04.354645 38191 net.cpp:596] inception_4e/output <- inception_4e/3x3
I0123 12:20:04.354653 38191 net.cpp:596] inception_4e/output <- inception_4e/5x5
I0123 12:20:04.354661 38191 net.cpp:596] inception_4e/output <- inception_4e/pool_proj
I0123 12:20:04.354671 38191 net.cpp:570] inception_4e/output -> inception_4e/output
I0123 12:20:04.354683 38191 net.cpp:210] Setting up inception_4e/output
I0123 12:20:04.354691 38191 net.cpp:217] Top shape: 50 832 14 14 (8153600)
I0123 12:20:04.354698 38191 net.cpp:225] Memory required for data: 2652699624
I0123 12:20:04.354706 38191 layer_factory.hpp:114] Creating layer pool4/3x3_s2
I0123 12:20:04.354727 38191 net.cpp:160] Creating Layer pool4/3x3_s2
I0123 12:20:04.354735 38191 net.cpp:596] pool4/3x3_s2 <- inception_4e/output
I0123 12:20:04.354745 38191 net.cpp:570] pool4/3x3_s2 -> pool4/3x3_s2
I0123 12:20:04.354758 38191 net.cpp:210] Setting up pool4/3x3_s2
I0123 12:20:04.354766 38191 net.cpp:217] Top shape: 50 832 7 7 (2038400)
I0123 12:20:04.354773 38191 net.cpp:225] Memory required for data: 2660853224
I0123 12:20:04.354785 38191 layer_factory.hpp:114] Creating layer pool4/3x3_s2_pool4/3x3_s2_0_split
I0123 12:20:04.354797 38191 net.cpp:160] Creating Layer pool4/3x3_s2_pool4/3x3_s2_0_split
I0123 12:20:04.354805 38191 net.cpp:596] pool4/3x3_s2_pool4/3x3_s2_0_split <- pool4/3x3_s2
I0123 12:20:04.354826 38191 net.cpp:570] pool4/3x3_s2_pool4/3x3_s2_0_split -> pool4/3x3_s2_pool4/3x3_s2_0_split_0
I0123 12:20:04.354837 38191 net.cpp:570] pool4/3x3_s2_pool4/3x3_s2_0_split -> pool4/3x3_s2_pool4/3x3_s2_0_split_1
I0123 12:20:04.354847 38191 net.cpp:570] pool4/3x3_s2_pool4/3x3_s2_0_split -> pool4/3x3_s2_pool4/3x3_s2_0_split_2
I0123 12:20:04.354867 38191 net.cpp:570] pool4/3x3_s2_pool4/3x3_s2_0_split -> pool4/3x3_s2_pool4/3x3_s2_0_split_3
I0123 12:20:04.354878 38191 net.cpp:210] Setting up pool4/3x3_s2_pool4/3x3_s2_0_split
I0123 12:20:04.354887 38191 net.cpp:217] Top shape: 50 832 7 7 (2038400)
I0123 12:20:04.354895 38191 net.cpp:217] Top shape: 50 832 7 7 (2038400)
I0123 12:20:04.354905 38191 net.cpp:217] Top shape: 50 832 7 7 (2038400)
I0123 12:20:04.354912 38191 net.cpp:217] Top shape: 50 832 7 7 (2038400)
I0123 12:20:04.354919 38191 net.cpp:225] Memory required for data: 2693467624
I0123 12:20:04.354926 38191 layer_factory.hpp:114] Creating layer inception_5a/1x1
I0123 12:20:04.354940 38191 net.cpp:160] Creating Layer inception_5a/1x1
I0123 12:20:04.354948 38191 net.cpp:596] inception_5a/1x1 <- pool4/3x3_s2_pool4/3x3_s2_0_split_0
I0123 12:20:04.354959 38191 net.cpp:570] inception_5a/1x1 -> inception_5a/1x1
I0123 12:20:04.362771 38191 net.cpp:210] Setting up inception_5a/1x1
I0123 12:20:04.362787 38191 net.cpp:217] Top shape: 50 256 7 7 (627200)
I0123 12:20:04.362792 38191 net.cpp:225] Memory required for data: 2695976424
I0123 12:20:04.362802 38191 layer_factory.hpp:114] Creating layer inception_5a/relu_1x1
I0123 12:20:04.362818 38191 net.cpp:160] Creating Layer inception_5a/relu_1x1
I0123 12:20:04.362825 38191 net.cpp:596] inception_5a/relu_1x1 <- inception_5a/1x1
I0123 12:20:04.362834 38191 net.cpp:557] inception_5a/relu_1x1 -> inception_5a/1x1 (in-place)
I0123 12:20:04.362844 38191 net.cpp:210] Setting up inception_5a/relu_1x1
I0123 12:20:04.362854 38191 net.cpp:217] Top shape: 50 256 7 7 (627200)
I0123 12:20:04.362860 38191 net.cpp:225] Memory required for data: 2698485224
I0123 12:20:04.362867 38191 layer_factory.hpp:114] Creating layer inception_5a/3x3_reduce
I0123 12:20:04.362879 38191 net.cpp:160] Creating Layer inception_5a/3x3_reduce
I0123 12:20:04.362886 38191 net.cpp:596] inception_5a/3x3_reduce <- pool4/3x3_s2_pool4/3x3_s2_0_split_1
I0123 12:20:04.362898 38191 net.cpp:570] inception_5a/3x3_reduce -> inception_5a/3x3_reduce
I0123 12:20:04.368643 38191 net.cpp:210] Setting up inception_5a/3x3_reduce
I0123 12:20:04.368659 38191 net.cpp:217] Top shape: 50 160 7 7 (392000)
I0123 12:20:04.368664 38191 net.cpp:225] Memory required for data: 2700053224
I0123 12:20:04.368675 38191 layer_factory.hpp:114] Creating layer inception_5a/relu_3x3_reduce
I0123 12:20:04.368691 38191 net.cpp:160] Creating Layer inception_5a/relu_3x3_reduce
I0123 12:20:04.368706 38191 net.cpp:596] inception_5a/relu_3x3_reduce <- inception_5a/3x3_reduce
I0123 12:20:04.368716 38191 net.cpp:557] inception_5a/relu_3x3_reduce -> inception_5a/3x3_reduce (in-place)
I0123 12:20:04.368726 38191 net.cpp:210] Setting up inception_5a/relu_3x3_reduce
I0123 12:20:04.368733 38191 net.cpp:217] Top shape: 50 160 7 7 (392000)
I0123 12:20:04.368741 38191 net.cpp:225] Memory required for data: 2701621224
I0123 12:20:04.368747 38191 layer_factory.hpp:114] Creating layer inception_5a/3x3
I0123 12:20:04.368760 38191 net.cpp:160] Creating Layer inception_5a/3x3
I0123 12:20:04.368768 38191 net.cpp:596] inception_5a/3x3 <- inception_5a/3x3_reduce
I0123 12:20:04.368778 38191 net.cpp:570] inception_5a/3x3 -> inception_5a/3x3
I0123 12:20:04.385025 38191 net.cpp:210] Setting up inception_5a/3x3
I0123 12:20:04.385040 38191 net.cpp:217] Top shape: 50 320 7 7 (784000)
I0123 12:20:04.385047 38191 net.cpp:225] Memory required for data: 2704757224
I0123 12:20:04.385057 38191 layer_factory.hpp:114] Creating layer inception_5a/relu_3x3
I0123 12:20:04.385074 38191 net.cpp:160] Creating Layer inception_5a/relu_3x3
I0123 12:20:04.385083 38191 net.cpp:596] inception_5a/relu_3x3 <- inception_5a/3x3
I0123 12:20:04.385092 38191 net.cpp:557] inception_5a/relu_3x3 -> inception_5a/3x3 (in-place)
I0123 12:20:04.385110 38191 net.cpp:210] Setting up inception_5a/relu_3x3
I0123 12:20:04.385119 38191 net.cpp:217] Top shape: 50 320 7 7 (784000)
I0123 12:20:04.385125 38191 net.cpp:225] Memory required for data: 2707893224
I0123 12:20:04.385133 38191 layer_factory.hpp:114] Creating layer inception_5a/5x5_reduce
I0123 12:20:04.385144 38191 net.cpp:160] Creating Layer inception_5a/5x5_reduce
I0123 12:20:04.385152 38191 net.cpp:596] inception_5a/5x5_reduce <- pool4/3x3_s2_pool4/3x3_s2_0_split_2
I0123 12:20:04.385211 38191 net.cpp:570] inception_5a/5x5_reduce -> inception_5a/5x5_reduce
I0123 12:20:04.387311 38191 net.cpp:210] Setting up inception_5a/5x5_reduce
I0123 12:20:04.387326 38191 net.cpp:217] Top shape: 50 32 7 7 (78400)
I0123 12:20:04.387333 38191 net.cpp:225] Memory required for data: 2708206824
I0123 12:20:04.387342 38191 layer_factory.hpp:114] Creating layer inception_5a/relu_5x5_reduce
I0123 12:20:04.387352 38191 net.cpp:160] Creating Layer inception_5a/relu_5x5_reduce
I0123 12:20:04.387361 38191 net.cpp:596] inception_5a/relu_5x5_reduce <- inception_5a/5x5_reduce
I0123 12:20:04.387372 38191 net.cpp:557] inception_5a/relu_5x5_reduce -> inception_5a/5x5_reduce (in-place)
I0123 12:20:04.387382 38191 net.cpp:210] Setting up inception_5a/relu_5x5_reduce
I0123 12:20:04.387390 38191 net.cpp:217] Top shape: 50 32 7 7 (78400)
I0123 12:20:04.387398 38191 net.cpp:225] Memory required for data: 2708520424
I0123 12:20:04.387403 38191 layer_factory.hpp:114] Creating layer inception_5a/5x5
I0123 12:20:04.387415 38191 net.cpp:160] Creating Layer inception_5a/5x5
I0123 12:20:04.387423 38191 net.cpp:596] inception_5a/5x5 <- inception_5a/5x5_reduce
I0123 12:20:04.387434 38191 net.cpp:570] inception_5a/5x5 -> inception_5a/5x5
I0123 12:20:04.392249 38191 net.cpp:210] Setting up inception_5a/5x5
I0123 12:20:04.392266 38191 net.cpp:217] Top shape: 50 128 7 7 (313600)
I0123 12:20:04.392273 38191 net.cpp:225] Memory required for data: 2709774824
I0123 12:20:04.392283 38191 layer_factory.hpp:114] Creating layer inception_5a/relu_5x5
I0123 12:20:04.392292 38191 net.cpp:160] Creating Layer inception_5a/relu_5x5
I0123 12:20:04.392300 38191 net.cpp:596] inception_5a/relu_5x5 <- inception_5a/5x5
I0123 12:20:04.392309 38191 net.cpp:557] inception_5a/relu_5x5 -> inception_5a/5x5 (in-place)
I0123 12:20:04.392319 38191 net.cpp:210] Setting up inception_5a/relu_5x5
I0123 12:20:04.392328 38191 net.cpp:217] Top shape: 50 128 7 7 (313600)
I0123 12:20:04.392334 38191 net.cpp:225] Memory required for data: 2711029224
I0123 12:20:04.392340 38191 layer_factory.hpp:114] Creating layer inception_5a/pool
I0123 12:20:04.392365 38191 net.cpp:160] Creating Layer inception_5a/pool
I0123 12:20:04.392375 38191 net.cpp:596] inception_5a/pool <- pool4/3x3_s2_pool4/3x3_s2_0_split_3
I0123 12:20:04.392385 38191 net.cpp:570] inception_5a/pool -> inception_5a/pool
I0123 12:20:04.392396 38191 net.cpp:210] Setting up inception_5a/pool
I0123 12:20:04.392407 38191 net.cpp:217] Top shape: 50 832 7 7 (2038400)
I0123 12:20:04.392415 38191 net.cpp:225] Memory required for data: 2719182824
I0123 12:20:04.392421 38191 layer_factory.hpp:114] Creating layer inception_5a/pool_proj
I0123 12:20:04.392433 38191 net.cpp:160] Creating Layer inception_5a/pool_proj
I0123 12:20:04.392441 38191 net.cpp:596] inception_5a/pool_proj <- inception_5a/pool
I0123 12:20:04.392452 38191 net.cpp:570] inception_5a/pool_proj -> inception_5a/pool_proj
I0123 12:20:04.397047 38191 net.cpp:210] Setting up inception_5a/pool_proj
I0123 12:20:04.397068 38191 net.cpp:217] Top shape: 50 128 7 7 (313600)
I0123 12:20:04.397075 38191 net.cpp:225] Memory required for data: 2720437224
I0123 12:20:04.397085 38191 layer_factory.hpp:114] Creating layer inception_5a/relu_pool_proj
I0123 12:20:04.397102 38191 net.cpp:160] Creating Layer inception_5a/relu_pool_proj
I0123 12:20:04.397115 38191 net.cpp:596] inception_5a/relu_pool_proj <- inception_5a/pool_proj
I0123 12:20:04.397125 38191 net.cpp:557] inception_5a/relu_pool_proj -> inception_5a/pool_proj (in-place)
I0123 12:20:04.397143 38191 net.cpp:210] Setting up inception_5a/relu_pool_proj
I0123 12:20:04.397152 38191 net.cpp:217] Top shape: 50 128 7 7 (313600)
I0123 12:20:04.397158 38191 net.cpp:225] Memory required for data: 2721691624
I0123 12:20:04.397167 38191 layer_factory.hpp:114] Creating layer inception_5a/output
I0123 12:20:04.397218 38191 net.cpp:160] Creating Layer inception_5a/output
I0123 12:20:04.397225 38191 net.cpp:596] inception_5a/output <- inception_5a/1x1
I0123 12:20:04.397233 38191 net.cpp:596] inception_5a/output <- inception_5a/3x3
I0123 12:20:04.397241 38191 net.cpp:596] inception_5a/output <- inception_5a/5x5
I0123 12:20:04.397249 38191 net.cpp:596] inception_5a/output <- inception_5a/pool_proj
I0123 12:20:04.397260 38191 net.cpp:570] inception_5a/output -> inception_5a/output
I0123 12:20:04.397272 38191 net.cpp:210] Setting up inception_5a/output
I0123 12:20:04.397281 38191 net.cpp:217] Top shape: 50 832 7 7 (2038400)
I0123 12:20:04.397289 38191 net.cpp:225] Memory required for data: 2729845224
I0123 12:20:04.397294 38191 layer_factory.hpp:114] Creating layer inception_5a/output_inception_5a/output_0_split
I0123 12:20:04.397305 38191 net.cpp:160] Creating Layer inception_5a/output_inception_5a/output_0_split
I0123 12:20:04.397311 38191 net.cpp:596] inception_5a/output_inception_5a/output_0_split <- inception_5a/output
I0123 12:20:04.397320 38191 net.cpp:570] inception_5a/output_inception_5a/output_0_split -> inception_5a/output_inception_5a/output_0_split_0
I0123 12:20:04.397331 38191 net.cpp:570] inception_5a/output_inception_5a/output_0_split -> inception_5a/output_inception_5a/output_0_split_1
I0123 12:20:04.397341 38191 net.cpp:570] inception_5a/output_inception_5a/output_0_split -> inception_5a/output_inception_5a/output_0_split_2
I0123 12:20:04.397351 38191 net.cpp:570] inception_5a/output_inception_5a/output_0_split -> inception_5a/output_inception_5a/output_0_split_3
I0123 12:20:04.397362 38191 net.cpp:210] Setting up inception_5a/output_inception_5a/output_0_split
I0123 12:20:04.397370 38191 net.cpp:217] Top shape: 50 832 7 7 (2038400)
I0123 12:20:04.397378 38191 net.cpp:217] Top shape: 50 832 7 7 (2038400)
I0123 12:20:04.397387 38191 net.cpp:217] Top shape: 50 832 7 7 (2038400)
I0123 12:20:04.397393 38191 net.cpp:217] Top shape: 50 832 7 7 (2038400)
I0123 12:20:04.397400 38191 net.cpp:225] Memory required for data: 2762459624
I0123 12:20:04.397406 38191 layer_factory.hpp:114] Creating layer inception_5b/1x1
I0123 12:20:04.397420 38191 net.cpp:160] Creating Layer inception_5b/1x1
I0123 12:20:04.397429 38191 net.cpp:596] inception_5b/1x1 <- inception_5a/output_inception_5a/output_0_split_0
I0123 12:20:04.397439 38191 net.cpp:570] inception_5b/1x1 -> inception_5b/1x1
I0123 12:20:04.408432 38191 net.cpp:210] Setting up inception_5b/1x1
I0123 12:20:04.408448 38191 net.cpp:217] Top shape: 50 384 7 7 (940800)
I0123 12:20:04.408454 38191 net.cpp:225] Memory required for data: 2766222824
I0123 12:20:04.408464 38191 layer_factory.hpp:114] Creating layer inception_5b/relu_1x1
I0123 12:20:04.408475 38191 net.cpp:160] Creating Layer inception_5b/relu_1x1
I0123 12:20:04.408483 38191 net.cpp:596] inception_5b/relu_1x1 <- inception_5b/1x1
I0123 12:20:04.408491 38191 net.cpp:557] inception_5b/relu_1x1 -> inception_5b/1x1 (in-place)
I0123 12:20:04.408501 38191 net.cpp:210] Setting up inception_5b/relu_1x1
I0123 12:20:04.408510 38191 net.cpp:217] Top shape: 50 384 7 7 (940800)
I0123 12:20:04.408516 38191 net.cpp:225] Memory required for data: 2769986024
I0123 12:20:04.408524 38191 layer_factory.hpp:114] Creating layer inception_5b/3x3_reduce
I0123 12:20:04.408538 38191 net.cpp:160] Creating Layer inception_5b/3x3_reduce
I0123 12:20:04.408546 38191 net.cpp:596] inception_5b/3x3_reduce <- inception_5a/output_inception_5a/output_0_split_1
I0123 12:20:04.408556 38191 net.cpp:570] inception_5b/3x3_reduce -> inception_5b/3x3_reduce
I0123 12:20:04.414952 38191 net.cpp:210] Setting up inception_5b/3x3_reduce
I0123 12:20:04.414968 38191 net.cpp:217] Top shape: 50 192 7 7 (470400)
I0123 12:20:04.414973 38191 net.cpp:225] Memory required for data: 2771867624
I0123 12:20:04.414993 38191 layer_factory.hpp:114] Creating layer inception_5b/relu_3x3_reduce
I0123 12:20:04.415002 38191 net.cpp:160] Creating Layer inception_5b/relu_3x3_reduce
I0123 12:20:04.415010 38191 net.cpp:596] inception_5b/relu_3x3_reduce <- inception_5b/3x3_reduce
I0123 12:20:04.415021 38191 net.cpp:557] inception_5b/relu_3x3_reduce -> inception_5b/3x3_reduce (in-place)
I0123 12:20:04.415032 38191 net.cpp:210] Setting up inception_5b/relu_3x3_reduce
I0123 12:20:04.415041 38191 net.cpp:217] Top shape: 50 192 7 7 (470400)
I0123 12:20:04.415047 38191 net.cpp:225] Memory required for data: 2773749224
I0123 12:20:04.415055 38191 layer_factory.hpp:114] Creating layer inception_5b/3x3
I0123 12:20:04.415066 38191 net.cpp:160] Creating Layer inception_5b/3x3
I0123 12:20:04.415073 38191 net.cpp:596] inception_5b/3x3 <- inception_5b/3x3_reduce
I0123 12:20:04.415082 38191 net.cpp:570] inception_5b/3x3 -> inception_5b/3x3
I0123 12:20:04.437361 38191 net.cpp:210] Setting up inception_5b/3x3
I0123 12:20:04.437376 38191 net.cpp:217] Top shape: 50 384 7 7 (940800)
I0123 12:20:04.437383 38191 net.cpp:225] Memory required for data: 2777512424
I0123 12:20:04.437397 38191 layer_factory.hpp:114] Creating layer inception_5b/relu_3x3
I0123 12:20:04.437414 38191 net.cpp:160] Creating Layer inception_5b/relu_3x3
I0123 12:20:04.437422 38191 net.cpp:596] inception_5b/relu_3x3 <- inception_5b/3x3
I0123 12:20:04.437432 38191 net.cpp:557] inception_5b/relu_3x3 -> inception_5b/3x3 (in-place)
I0123 12:20:04.437443 38191 net.cpp:210] Setting up inception_5b/relu_3x3
I0123 12:20:04.437451 38191 net.cpp:217] Top shape: 50 384 7 7 (940800)
I0123 12:20:04.437458 38191 net.cpp:225] Memory required for data: 2781275624
I0123 12:20:04.437464 38191 layer_factory.hpp:114] Creating layer inception_5b/5x5_reduce
I0123 12:20:04.437479 38191 net.cpp:160] Creating Layer inception_5b/5x5_reduce
I0123 12:20:04.437486 38191 net.cpp:596] inception_5b/5x5_reduce <- inception_5a/output_inception_5a/output_0_split_2
I0123 12:20:04.437499 38191 net.cpp:570] inception_5b/5x5_reduce -> inception_5b/5x5_reduce
I0123 12:20:04.440585 38191 net.cpp:210] Setting up inception_5b/5x5_reduce
I0123 12:20:04.440608 38191 net.cpp:217] Top shape: 50 48 7 7 (117600)
I0123 12:20:04.440613 38191 net.cpp:225] Memory required for data: 2781746024
I0123 12:20:04.440623 38191 layer_factory.hpp:114] Creating layer inception_5b/relu_5x5_reduce
I0123 12:20:04.440640 38191 net.cpp:160] Creating Layer inception_5b/relu_5x5_reduce
I0123 12:20:04.440649 38191 net.cpp:596] inception_5b/relu_5x5_reduce <- inception_5b/5x5_reduce
I0123 12:20:04.440659 38191 net.cpp:557] inception_5b/relu_5x5_reduce -> inception_5b/5x5_reduce (in-place)
I0123 12:20:04.440670 38191 net.cpp:210] Setting up inception_5b/relu_5x5_reduce
I0123 12:20:04.440678 38191 net.cpp:217] Top shape: 50 48 7 7 (117600)
I0123 12:20:04.440685 38191 net.cpp:225] Memory required for data: 2782216424
I0123 12:20:04.440691 38191 layer_factory.hpp:114] Creating layer inception_5b/5x5
I0123 12:20:04.440706 38191 net.cpp:160] Creating Layer inception_5b/5x5
I0123 12:20:04.440714 38191 net.cpp:596] inception_5b/5x5 <- inception_5b/5x5_reduce
I0123 12:20:04.440724 38191 net.cpp:570] inception_5b/5x5 -> inception_5b/5x5
I0123 12:20:04.447499 38191 net.cpp:210] Setting up inception_5b/5x5
I0123 12:20:04.447515 38191 net.cpp:217] Top shape: 50 128 7 7 (313600)
I0123 12:20:04.447520 38191 net.cpp:225] Memory required for data: 2783470824
I0123 12:20:04.447531 38191 layer_factory.hpp:114] Creating layer inception_5b/relu_5x5
I0123 12:20:04.447543 38191 net.cpp:160] Creating Layer inception_5b/relu_5x5
I0123 12:20:04.447551 38191 net.cpp:596] inception_5b/relu_5x5 <- inception_5b/5x5
I0123 12:20:04.447561 38191 net.cpp:557] inception_5b/relu_5x5 -> inception_5b/5x5 (in-place)
I0123 12:20:04.447576 38191 net.cpp:210] Setting up inception_5b/relu_5x5
I0123 12:20:04.447583 38191 net.cpp:217] Top shape: 50 128 7 7 (313600)
I0123 12:20:04.447590 38191 net.cpp:225] Memory required for data: 2784725224
I0123 12:20:04.447613 38191 layer_factory.hpp:114] Creating layer inception_5b/pool
I0123 12:20:04.447651 38191 net.cpp:160] Creating Layer inception_5b/pool
I0123 12:20:04.447661 38191 net.cpp:596] inception_5b/pool <- inception_5a/output_inception_5a/output_0_split_3
I0123 12:20:04.447671 38191 net.cpp:570] inception_5b/pool -> inception_5b/pool
I0123 12:20:04.447684 38191 net.cpp:210] Setting up inception_5b/pool
I0123 12:20:04.447692 38191 net.cpp:217] Top shape: 50 832 7 7 (2038400)
I0123 12:20:04.447700 38191 net.cpp:225] Memory required for data: 2792878824
I0123 12:20:04.447706 38191 layer_factory.hpp:114] Creating layer inception_5b/pool_proj
I0123 12:20:04.447721 38191 net.cpp:160] Creating Layer inception_5b/pool_proj
I0123 12:20:04.447731 38191 net.cpp:596] inception_5b/pool_proj <- inception_5b/pool
I0123 12:20:04.447741 38191 net.cpp:570] inception_5b/pool_proj -> inception_5b/pool_proj
I0123 12:20:04.452354 38191 net.cpp:210] Setting up inception_5b/pool_proj
I0123 12:20:04.452369 38191 net.cpp:217] Top shape: 50 128 7 7 (313600)
I0123 12:20:04.452376 38191 net.cpp:225] Memory required for data: 2794133224
I0123 12:20:04.452386 38191 layer_factory.hpp:114] Creating layer inception_5b/relu_pool_proj
I0123 12:20:04.452399 38191 net.cpp:160] Creating Layer inception_5b/relu_pool_proj
I0123 12:20:04.452406 38191 net.cpp:596] inception_5b/relu_pool_proj <- inception_5b/pool_proj
I0123 12:20:04.452415 38191 net.cpp:557] inception_5b/relu_pool_proj -> inception_5b/pool_proj (in-place)
I0123 12:20:04.452425 38191 net.cpp:210] Setting up inception_5b/relu_pool_proj
I0123 12:20:04.452435 38191 net.cpp:217] Top shape: 50 128 7 7 (313600)
I0123 12:20:04.452440 38191 net.cpp:225] Memory required for data: 2795387624
I0123 12:20:04.452447 38191 layer_factory.hpp:114] Creating layer inception_5b/output
I0123 12:20:04.452456 38191 net.cpp:160] Creating Layer inception_5b/output
I0123 12:20:04.452463 38191 net.cpp:596] inception_5b/output <- inception_5b/1x1
I0123 12:20:04.452471 38191 net.cpp:596] inception_5b/output <- inception_5b/3x3
I0123 12:20:04.452479 38191 net.cpp:596] inception_5b/output <- inception_5b/5x5
I0123 12:20:04.452487 38191 net.cpp:596] inception_5b/output <- inception_5b/pool_proj
I0123 12:20:04.452497 38191 net.cpp:570] inception_5b/output -> inception_5b/output
I0123 12:20:04.452507 38191 net.cpp:210] Setting up inception_5b/output
I0123 12:20:04.452517 38191 net.cpp:217] Top shape: 50 1024 7 7 (2508800)
I0123 12:20:04.452522 38191 net.cpp:225] Memory required for data: 2805422824
I0123 12:20:04.452529 38191 layer_factory.hpp:114] Creating layer pool5/7x7_s1
I0123 12:20:04.452550 38191 net.cpp:160] Creating Layer pool5/7x7_s1
I0123 12:20:04.452559 38191 net.cpp:596] pool5/7x7_s1 <- inception_5b/output
I0123 12:20:04.452571 38191 net.cpp:570] pool5/7x7_s1 -> pool5/7x7_s1
I0123 12:20:04.452584 38191 net.cpp:210] Setting up pool5/7x7_s1
I0123 12:20:04.452594 38191 net.cpp:217] Top shape: 50 1024 1 1 (51200)
I0123 12:20:04.452600 38191 net.cpp:225] Memory required for data: 2805627624
I0123 12:20:04.452606 38191 layer_factory.hpp:114] Creating layer pool5/drop_7x7_s1
I0123 12:20:04.452620 38191 net.cpp:160] Creating Layer pool5/drop_7x7_s1
I0123 12:20:04.452627 38191 net.cpp:596] pool5/drop_7x7_s1 <- pool5/7x7_s1
I0123 12:20:04.452636 38191 net.cpp:557] pool5/drop_7x7_s1 -> pool5/7x7_s1 (in-place)
I0123 12:20:04.452649 38191 net.cpp:210] Setting up pool5/drop_7x7_s1
I0123 12:20:04.452658 38191 net.cpp:217] Top shape: 50 1024 1 1 (51200)
I0123 12:20:04.452664 38191 net.cpp:225] Memory required for data: 2805832424
I0123 12:20:04.452672 38191 layer_factory.hpp:114] Creating layer loss3/classifier
I0123 12:20:04.452688 38191 net.cpp:160] Creating Layer loss3/classifier
I0123 12:20:04.452697 38191 net.cpp:596] loss3/classifier <- pool5/7x7_s1
I0123 12:20:04.452706 38191 net.cpp:570] loss3/classifier -> loss3/classifier
I0123 12:20:04.462074 38191 net.cpp:210] Setting up loss3/classifier
I0123 12:20:04.462088 38191 net.cpp:217] Top shape: 50 1000 (50000)
I0123 12:20:04.462095 38191 net.cpp:225] Memory required for data: 2806032424
I0123 12:20:04.462116 38191 layer_factory.hpp:114] Creating layer loss3/classifier_loss3/classifier_0_split
I0123 12:20:04.462127 38191 net.cpp:160] Creating Layer loss3/classifier_loss3/classifier_0_split
I0123 12:20:04.462136 38191 net.cpp:596] loss3/classifier_loss3/classifier_0_split <- loss3/classifier
I0123 12:20:04.462146 38191 net.cpp:570] loss3/classifier_loss3/classifier_0_split -> loss3/classifier_loss3/classifier_0_split_0
I0123 12:20:04.462158 38191 net.cpp:570] loss3/classifier_loss3/classifier_0_split -> loss3/classifier_loss3/classifier_0_split_1
I0123 12:20:04.462211 38191 net.cpp:570] loss3/classifier_loss3/classifier_0_split -> loss3/classifier_loss3/classifier_0_split_2
I0123 12:20:04.462230 38191 net.cpp:210] Setting up loss3/classifier_loss3/classifier_0_split
I0123 12:20:04.462239 38191 net.cpp:217] Top shape: 50 1000 (50000)
I0123 12:20:04.462247 38191 net.cpp:217] Top shape: 50 1000 (50000)
I0123 12:20:04.462255 38191 net.cpp:217] Top shape: 50 1000 (50000)
I0123 12:20:04.462261 38191 net.cpp:225] Memory required for data: 2806632424
I0123 12:20:04.462267 38191 layer_factory.hpp:114] Creating layer loss3/loss3
I0123 12:20:04.462280 38191 net.cpp:160] Creating Layer loss3/loss3
I0123 12:20:04.462286 38191 net.cpp:596] loss3/loss3 <- loss3/classifier_loss3/classifier_0_split_0
I0123 12:20:04.462294 38191 net.cpp:596] loss3/loss3 <- label_data_1_split_6
…
