…
I0123 12:18:03.442271 38124 net.cpp:484] The NetState phase (0) differed from the phase (1) specified by a rule in layer loss3/top-5
I0123 12:18:03.452128 38124 net.cpp:120] Initializing net from parameters: 
name: "GoogleNet"
state {
  phase: TRAIN
  level: 0
  stage: ""
}
layer {
  name: "data"
  type: "Data"
  top: "data"
  top: "label"
  include {
    phase: TRAIN
  }
  transform_param {
    mirror: true
    crop_size: 224
    mean_value: 104
    mean_value: 117
    mean_value: 123
  }
  data_param {
    source: "/home/user/caffeOMP/original/caffe/examples/imagenet/ilsvrc12_train_lmdb"
    batch_size: 32
    backend: LMDB
  }
}
layer {
  name: "label_data_1_split"
  type: "Split"
  bottom: "label"
  top: "label_data_1_split_0"
  top: "label_data_1_split_1"
  top: "label_data_1_split_2"
}
layer {
  name: "conv1/7x7_s2"
  type: "Convolution"
  bottom: "data"
  top: "conv1/7x7_s2"
  param {
    lr_mult: 1
    decay_mult: 1
  }
  param {
    lr_mult: 2
    decay_mult: 0
  }
  convolution_param {
    num_output: 64
    pad: 3
    kernel_size: 7
    stride: 2
    weight_filler {
      type: "xavier"
    }
    bias_filler {
      type: "constant"
      value: 0.2
    }
  }
}
layer {
  name: "conv1/relu_7x7"
  type: "ReLU"
  bottom: "conv1/7x7_s2"
  top: "conv1/7x7_s2"
}
layer {
  name: "pool1/3x3_s2"
  type: "Pooling"
  bottom: "conv1/7x7_s2"
  top: "pool1/3x3_s2"
  pooling_param {
    pool: MAX
    kernel_size: 3
    stride: 2
  }
}
layer {
  name: "pool1/norm1"
  type: "LRN"
  bottom: "pool1/3x3_s2"
  top: "pool1/norm1"
  lrn_param {
    local_size: 5
    alpha: 0.0001
    beta: 0.75
  }
}
layer {
  name: "conv2/3x3_reduce"
  type: "Convolution"
  bottom: "pool1/norm1"
  top: "conv2/3x3_reduce"
  param {
    lr_mult: 1
    decay_mult: 1
  }
  param {
    lr_mult: 2
    decay_mult: 0
  }
  convolution_param {
    num_output: 64
    kernel_size: 1
    weight_filler {
      type: "xavier"
    }
    bias_filler {
      type: "constant"
      value: 0.2
    }
  }
}
layer {
  name: "conv2/relu_3x3_reduce"
  type: "ReLU"
  bottom: "conv2/3x3_reduce"
  top: "conv2/3x3_reduce"
}
layer {
  name: "conv2/3x3"
  type: "Convolution"
  bottom: "conv2/3x3_reduce"
  top: "conv2/3x3"
  param {
    lr_mult: 1
    decay_mult: 1
  }
  param {
    lr_mult: 2
    decay_mult: 0
  }
  convolution_param {
    num_output: 192
    pad: 1
    kernel_size: 3
    weight_filler {
      type: "xavier"
    }
    bias_filler {
      type: "constant"
      value: 0.2
    }
  }
}
layer {
  name: "conv2/relu_3x3"
  type: "ReLU"
  bottom: "conv2/3x3"
  top: "conv2/3x3"
}
layer {
  name: "conv2/norm2"
  type: "LRN"
  bottom: "conv2/3x3"
  top: "conv2/norm2"
  lrn_param {
    local_size: 5
    alpha: 0.0001
    beta: 0.75
  }
}
layer {
  name: "pool2/3x3_s2"
  type: "Pooling"
  bottom: "conv2/norm2"
  top: "pool2/3x3_s2"
  pooling_param {
    pool: MAX
    kernel_size: 3
    stride: 2
  }
}
layer {
  name: "pool2/3x3_s2_pool2/3x3_s2_0_split"
  type: "Split"
  bottom: "pool2/3x3_s2"
  top: "pool2/3x3_s2_pool2/3x3_s2_0_split_0"
  top: "pool2/3x3_s2_pool2/3x3_s2_0_split_1"
  top: "pool2/3x3_s2_pool2/3x3_s2_0_split_2"
  top: "pool2/3x3_s2_pool2/3x3_s2_0_split_3"
}
layer {
  name: "inception_3a/1x1"
  type: "Convolution"
  bottom: "pool2/3x3_s2_pool2/3x3_s2_0_split_0"
  top: "inception_3a/1x1"
  param {
    lr_mult: 1
    decay_mult: 1
  }
  param {
    lr_mult: 2
    decay_mult: 0
  }
  convolution_param {
    num_output: 64
    kernel_size: 1
    weight_filler {
      type: "xavier"
    }
    bias_filler {
      type: "constant"
      value: 0.2
    }
  }
}
layer {
  name: "inception_3a/relu_1x1"
  type: "ReLU"
  bottom: "inception_3a/1x1"
  top: "inception_3a/1x1"
}
layer {
  name: "inception_3a/3x3_reduce"
  type: "Convolution"
  bottom: "pool2/3x3_s2_pool2/3x3_s2_0_split_1"
  top: "inception_3a/3x3_reduce"
  param {
    lr_mult: 1
    decay_mult: 1
  }
  param {
    lr_mult: 2
    decay_mult: 0
  }
  convolution_param {
    num_output: 96
    kernel_size: 1
    weight_filler {
      type: "xavier"
    }
    bias_filler {
      type: "constant"
      value: 0.2
    }
  }
}
layer {
  name: "inception_3a/relu_3x3_reduce"
  type: "ReLU"
  bottom: "inception_3a/3x3_reduce"
  top: "inception_3a/3x3_reduce"
}
layer {
  name: "inception_3a/3x3"
  type: "Convolution"
  bottom: "inception_3a/3x3_reduce"
  top: "inception_3a/3x3"
  param {
    lr_mult: 1
    decay_mult: 1
  }
  param {
    lr_mult: 2
    decay_mult: 0
  }
  convolution_param {
    num_output: 128
    pad: 1
    kernel_size: 3
    weight_filler {
      type: "xavier"
    }
    bias_filler {
      type: "constant"
      value: 0.2
    }
  }
}
layer {
  name: "inception_3a/relu_3x3"
  type: "ReLU"
  bottom: "inception_3a/3x3"
  top: "inception_3a/3x3"
}
layer {
  name: "inception_3a/5x5_reduce"
  type: "Convolution"
  bottom: "pool2/3x3_s2_pool2/3x3_s2_0_split_2"
  top: "inception_3a/5x5_reduce"
  param {
    lr_mult: 1
    decay_mult: 1
  }
  param {
    lr_mult: 2
    decay_mult: 0
  }
  convolution_param {
    num_output: 16
    kernel_size: 1
    weight_filler {
      type: "xavier"
    }
    bias_filler {
      type: "constant"
      value: 0.2
    }
  }
}
layer {
  name: "inception_3a/relu_5x5_reduce"
  type: "ReLU"
  bottom: "inception_3a/5x5_reduce"
  top: "inception_3a/5x5_reduce"
}
layer {
  name: "inception_3a/5x5"
  type: "Convolution"
  bottom: "inception_3a/5x5_reduce"
  top: "inception_3a/5x5"
  param {
    lr_mult: 1
    decay_mult: 1
  }
  param {
    lr_mult: 2
    decay_mult: 0
  }
  convolution_param {
    num_output: 32
    pad: 2
    kernel_size: 5
    weight_filler {
      type: "xavier"
    }
    bias_filler {
      type: "constant"
      value: 0.2
    }
  }
}
layer {
  name: "inception_3a/relu_5x5"
  type: "ReLU"
  bottom: "inception_3a/5x5"
  top: "inception_3a/5x5"
}
layer {
  name: "inception_3a/pool"
  type: "Pooling"
  bottom: "pool2/3x3_s2_pool2/3x3_s2_0_split_3"
  top: "inception_3a/pool"
  pooling_param {
    pool: MAX
    kernel_size: 3
    stride: 1
    pad: 1
  }
}
layer {
  name: "inception_3a/pool_proj"
  type: "Convolution"
  bottom: "inception_3a/pool"
  top: "inception_3a/pool_proj"
  param {
    lr_mult: 1
    decay_mult: 1
  }
  param {
    lr_mult: 2
    decay_mult: 0
  }
  convolution_param {
    num_output: 32
    kernel_size: 1
    weight_filler {
      type: "xavier"
    }
    bias_filler {
      type: "constant"
      value: 0.2
    }
  }
}
layer {
  name: "inception_3a/relu_pool_proj"
  type: "ReLU"
  bottom: "inception_3a/pool_proj"
  top: "inception_3a/pool_proj"
}
layer {
  name: "inception_3a/output"
  type: "Concat"
  bottom: "inception_3a/1x1"
  bottom: "inception_3a/3x3"
  bottom: "inception_3a/5x5"
  bottom: "inception_3a/pool_proj"
  top: "inception_3a/output"
}
layer {
  name: "inception_3a/output_inception_3a/output_0_split"
  type: "Split"
  bottom: "inception_3a/output"
  top: "inception_3a/output_inception_3a/output_0_split_0"
  top: "inception_3a/output_inception_3a/output_0_split_1"
  top: "inception_3a/output_inception_3a/output_0_split_2"
  top: "inception_3a/output_inception_3a/output_0_split_3"
}
layer {
  name: "inception_3b/1x1"
  type: "Convolution"
  bottom: "inception_3a/output_inception_3a/output_0_split_0"
  top: "inception_3b/1x1"
  param {
    lr_mult: 1
    decay_mult: 1
  }
  param {
    lr_mult: 2
    decay_mult: 0
  }
  convolution_param {
    num_output: 128
    kernel_size: 1
    weight_filler {
      type: "xavier"
    }
    bias_filler {
      type: "constant"
      value: 0.2
    }
  }
}
layer {
  name: "inception_3b/relu_1x1"
  type: "ReLU"
  bottom: "inception_3b/1x1"
  top: "inception_3b/1x1"
}
layer {
  name: "inception_3b/3x3_reduce"
  type: "Convolution"
  bottom: "inception_3a/output_inception_3a/output_0_split_1"
  top: "inception_3b/3x3_reduce"
  param {
    lr_mult: 1
    decay_mult: 1
  }
  param {
    lr_mult: 2
    decay_mult: 0
  }
  convolution_param {
    num_output: 128
    kernel_size: 1
    weight_filler {
      type: "xavier"
    }
    bias_filler {
      type: "constant"
      value: 0.2
    }
  }
}
layer {
  name: "inception_3b/relu_3x3_reduce"
  type: "ReLU"
  bottom: "inception_3b/3x3_reduce"
  top: "inception_3b/3x3_reduce"
}
layer {
  name: "inception_3b/3x3"
  type: "Convolution"
  bottom: "inception_3b/3x3_reduce"
  top: "inception_3b/3x3"
  param {
    lr_mult: 1
    decay_mult: 1
  }
  param {
    lr_mult: 2
    decay_mult: 0
  }
  convolution_param {
    num_output: 192
    pad: 1
    kernel_size: 3
    weight_filler {
      type: "xavier"
    }
    bias_filler {
      type: "constant"
      value: 0.2
    }
  }
}
layer {
  name: "inception_3b/relu_3x3"
  type: "ReLU"
  bottom: "inception_3b/3x3"
  top: "inception_3b/3x3"
}
layer {
  name: "inception_3b/5x5_reduce"
  type: "Convolution"
  bottom: "inception_3a/output_inception_3a/output_0_split_2"
  top: "inception_3b/5x5_reduce"
  param {
    lr_mult: 1
    decay_mult: 1
  }
  param {
    lr_mult: 2
    decay_mult: 0
  }
  convolution_param {
    num_output: 32
    kernel_size: 1
    weight_filler {
      type: "xavier"
    }
    bias_filler {
      type: "constant"
      value: 0.2
    }
  }
}
layer {
  name: "inception_3b/relu_5x5_reduce"
  type: "ReLU"
  bottom: "inception_3b/5x5_reduce"
  top: "inception_3b/5x5_reduce"
}
layer {
  name: "inception_3b/5x5"
  type: "Convolution"
  bottom: "inception_3b/5x5_reduce"
  top: "inception_3b/5x5"
  param {
    lr_mult: 1
    decay_mult: 1
  }
  param {
    lr_mult: 2
    decay_mult: 0
  }
  convolution_param {
    num_output: 96
    pad: 2
    kernel_size: 5
    weight_filler {
      type: "xavier"
    }
    bias_filler {
      type: "constant"
      value: 0.2
    }
  }
}
layer {
  name: "inception_3b/relu_5x5"
  type: "ReLU"
  bottom: "inception_3b/5x5"
  top: "inception_3b/5x5"
}
layer {
  name: "inception_3b/pool"
  type: "Pooling"
  bottom: "inception_3a/output_inception_3a/output_0_split_3"
  top: "inception_3b/pool"
  pooling_param {
    pool: MAX
    kernel_size: 3
    stride: 1
    pad: 1
  }
}
layer {
  name: "inception_3b/pool_proj"
  type: "Convolution"
  bottom: "inception_3b/pool"
  top: "inception_3b/pool_proj"
  param {
    lr_mult: 1
    decay_mult: 1
  }
  param {
    lr_mult: 2
    decay_mult: 0
  }
  convolution_param {
    num_output: 64
    kernel_size: 1
    weight_filler {
      type: "xavier"
    }
    bias_filler {
      type: "constant"
      value: 0.2
    }
  }
}
layer {
  name: "inception_3b/relu_pool_proj"
  type: "ReLU"
  bottom: "inception_3b/pool_proj"
  top: "inception_3b/pool_proj"
}
layer {
  name: "inception_3b/output"
  type: "Concat"
  bottom: "inception_3b/1x1"
  bottom: "inception_3b/3x3"
  bottom: "inception_3b/5x5"
  bottom: "inception_3b/pool_proj"
  top: "inception_3b/output"
}
layer {
  name: "pool3/3x3_s2"
  type: "Pooling"
  bottom: "inception_3b/output"
  top: "pool3/3x3_s2"
  pooling_param {
    pool: MAX
    kernel_size: 3
    stride: 2
  }
}
layer {
  name: "pool3/3x3_s2_pool3/3x3_s2_0_split"
  type: "Split"
  bottom: "pool3/3x3_s2"
  top: "pool3/3x3_s2_pool3/3x3_s2_0_split_0"
  top: "pool3/3x3_s2_pool3/3x3_s2_0_split_1"
  top: "pool3/3x3_s2_pool3/3x3_s2_0_split_2"
  top: "pool3/3x3_s2_pool3/3x3_s2_0_split_3"
}
layer {
  name: "inception_4a/1x1"
  type: "Convolution"
  bottom: "pool3/3x3_s2_pool3/3x3_s2_0_split_0"
  top: "inception_4a/1x1"
  param {
    lr_mult: 1
    decay_mult: 1
  }
  param {
    lr_mult: 2
    decay_mult: 0
  }
  convolution_param {
    num_output: 192
    kernel_size: 1
    weight_filler {
      type: "xavier"
    }
    bias_filler {
      type: "constant"
      value: 0.2
    }
  }
}
layer {
  name: "inception_4a/relu_1x1"
  type: "ReLU"
  bottom: "inception_4a/1x1"
  top: "inception_4a/1x1"
}
layer {
  name: "inception_4a/3x3_reduce"
  type: "Convolution"
  bottom: "pool3/3x3_s2_pool3/3x3_s2_0_split_1"
  top: "inception_4a/3x3_reduce"
  param {
    lr_mult: 1
    decay_mult: 1
  }
  param {
    lr_mult: 2
    decay_mult: 0
  }
  convolution_param {
    num_output: 96
    kernel_size: 1
    weight_filler {
      type: "xavier"
    }
    bias_filler {
      type: "constant"
      value: 0.2
    }
  }
}
layer {
  name: "inception_4a/relu_3x3_reduce"
  type: "ReLU"
  bottom: "inception_4a/3x3_reduce"
  top: "inception_4a/3x3_reduce"
}
layer {
  name: "inception_4a/3x3"
  type: "Convolution"
  bottom: "inception_4a/3x3_reduce"
  top: "inception_4a/3x3"
  param {
    lr_mult: 1
    decay_mult: 1
  }
  param {
    lr_mult: 2
    decay_mult: 0
  }
  convolution_param {
    num_output: 208
    pad: 1
    kernel_size: 3
    weight_filler {
      type: "xavier"
    }
    bias_filler {
      type: "constant"
      value: 0.2
    }
  }
}
layer {
  name: "inception_4a/relu_3x3"
  type: "ReLU"
  bottom: "inception_4a/3x3"
  top: "inception_4a/3x3"
}
layer {
  name: "inception_4a/5x5_reduce"
  type: "Convolution"
  bottom: "pool3/3x3_s2_pool3/3x3_s2_0_split_2"
  top: "inception_4a/5x5_reduce"
  param {
    lr_mult: 1
    decay_mult: 1
  }
  param {
    lr_mult: 2
    decay_mult: 0
  }
  convolution_param {
    num_output: 16
    kernel_size: 1
    weight_filler {
      type: "xavier"
    }
    bias_filler {
      type: "constant"
      value: 0.2
    }
  }
}
layer {
  name: "inception_4a/relu_5x5_reduce"
  type: "ReLU"
  bottom: "inception_4a/5x5_reduce"
  top: "inception_4a/5x5_reduce"
}
layer {
  name: "inception_4a/5x5"
  type: "Convolution"
  bottom: "inception_4a/5x5_reduce"
  top: "inception_4a/5x5"
  param {
    lr_mult: 1
    decay_mult: 1
  }
  param {
    lr_mult: 2
    decay_mult: 0
  }
  convolution_param {
    num_output: 48
    pad: 2
    kernel_size: 5
    weight_filler {
      type: "xavier"
    }
    bias_filler {
      type: "constant"
      value: 0.2
    }
  }
}
layer {
  name: "inception_4a/relu_5x5"
  type: "ReLU"
  bottom: "inception_4a/5x5"
  top: "inception_4a/5x5"
}
layer {
  name: "inception_4a/pool"
  type: "Pooling"
  bottom: "pool3/3x3_s2_pool3/3x3_s2_0_split_3"
  top: "inception_4a/pool"
  pooling_param {
    pool: MAX
    kernel_size: 3
    stride: 1
    pad: 1
  }
}
layer {
  name: "inception_4a/pool_proj"
  type: "Convolution"
  bottom: "inception_4a/pool"
  top: "inception_4a/pool_proj"
  param {
    lr_mult: 1
    decay_mult: 1
  }
  param {
    lr_mult: 2
    decay_mult: 0
  }
  convolution_param {
    num_output: 64
    kernel_size: 1
    weight_filler {
      type: "xavier"
    }
    bias_filler {
      type: "constant"
      value: 0.2
    }
  }
}
layer {
  name: "inception_4a/relu_pool_proj"
  type: "ReLU"
  bottom: "inception_4a/pool_proj"
  top: "inception_4a/pool_proj"
}
layer {
  name: "inception_4a/output"
  type: "Concat"
  bottom: "inception_4a/1x1"
  bottom: "inception_4a/3x3"
  bottom: "inception_4a/5x5"
  bottom: "inception_4a/pool_proj"
  top: "inception_4a/output"
}
layer {
  name: "inception_4a/output_inception_4a/output_0_split"
  type: "Split"
  bottom: "inception_4a/output"
  top: "inception_4a/output_inception_4a/output_0_split_0"
  top: "inception_4a/output_inception_4a/output_0_split_1"
  top: "inception_4a/output_inception_4a/output_0_split_2"
  top: "inception_4a/output_inception_4a/output_0_split_3"
  top: "inception_4a/output_inception_4a/output_0_split_4"
}
layer {
  name: "loss1/ave_pool"
  type: "Pooling"
  bottom: "inception_4a/output_inception_4a/output_0_split_0"
  top: "loss1/ave_pool"
  pooling_param {
    pool: AVE
    kernel_size: 5
    stride: 3
  }
}
layer {
  name: "loss1/conv"
  type: "Convolution"
  bottom: "loss1/ave_pool"
  top: "loss1/conv"
  param {
    lr_mult: 1
    decay_mult: 1
  }
  param {
    lr_mult: 2
    decay_mult: 0
  }
  convolution_param {
    num_output: 128
    kernel_size: 1
    weight_filler {
      type: "xavier"
    }
    bias_filler {
      type: "constant"
      value: 0.2
    }
  }
}
layer {
  name: "loss1/relu_conv"
  type: "ReLU"
  bottom: "loss1/conv"
  top: "loss1/conv"
}
layer {
  name: "loss1/fc"
  type: "InnerProduct"
  bottom: "loss1/conv"
  top: "loss1/fc"
  param {
    lr_mult: 1
    decay_mult: 1
  }
  param {
    lr_mult: 2
    decay_mult: 0
  }
  inner_product_param {
    num_output: 1024
    weight_filler {
      type: "xavier"
    }
    bias_filler {
      type: "constant"
      value: 0.2
    }
  }
}
layer {
  name: "loss1/relu_fc"
  type: "ReLU"
  bottom: "loss1/fc"
  top: "loss1/fc"
}
layer {
  name: "loss1/drop_fc"
  type: "Dropout"
  bottom: "loss1/fc"
  top: "loss1/fc"
  dropout_param {
    dropout_ratio: 0.7
  }
}
layer {
  name: "loss1/classifier"
  type: "InnerProduct"
  bottom: "loss1/fc"
  top: "loss1/classifier"
  param {
    lr_mult: 1
    decay_mult: 1
  }
  param {
    lr_mult: 2
    decay_mult: 0
  }
  inner_product_param {
    num_output: 1000
    weight_filler {
      type: "xavier"
    }
    bias_filler {
      type: "constant"
      value: 0
    }
  }
}
layer {
  name: "loss1/loss"
  type: "SoftmaxWithLoss"
  bottom: "loss1/classifier"
  bottom: "label_data_1_split_0"
  top: "loss1/loss1"
  loss_weight: 0.3
}
layer {
  name: "inception_4b/1x1"
  type: "Convolution"
  bottom: "inception_4a/output_inception_4a/output_0_split_1"
  top: "inception_4b/1x1"
  param {
    lr_mult: 1
    decay_mult: 1
  }
  param {
    lr_mult: 2
    decay_mult: 0
  }
  convolution_param {
    num_output: 160
    kernel_size: 1
    weight_filler {
      type: "xavier"
    }
    bias_filler {
      type: "constant"
      value: 0.2
    }
  }
}
layer {
  name: "inception_4b/relu_1x1"
  type: "ReLU"
  bottom: "inception_4b/1x1"
  top: "inception_4b/1x1"
}
layer {
  name: "inception_4b/3x3_reduce"
  type: "Convolution"
  bottom: "inception_4a/output_inception_4a/output_0_split_2"
  top: "inception_4b/3x3_reduce"
  param {
    lr_mult: 1
    decay_mult: 1
  }
  param {
    lr_mult: 2
    decay_mult: 0
  }
  convolution_param {
    num_output: 112
    kernel_size: 1
    weight_filler {
      type: "xavier"
    }
    bias_filler {
      type: "constant"
      value: 0.2
    }
  }
}
layer {
  name: "inception_4b/relu_3x3_reduce"
  type: "ReLU"
  bottom: "inception_4b/3x3_reduce"
  top: "inception_4b/3x3_reduce"
}
layer {
  name: "inception_4b/3x3"
  type: "Convolution"
  bottom: "inception_4b/3x3_reduce"
  top: "inception_4b/3x3"
  param {
    lr_mult: 1
    decay_mult: 1
  }
  param {
    lr_mult: 2
    decay_mult: 0
  }
  convolution_param {
    num_output: 224
    pad: 1
    kernel_size: 3
    weight_filler {
      type: "xavier"
    }
    bias_filler {
      type: "constant"
      value: 0.2
    }
  }
}
layer {
  name: "inception_4b/relu_3x3"
  type: "ReLU"
  bottom: "inception_4b/3x3"
  top: "inception_4b/3x3"
}
layer {
  name: "inception_4b/5x5_reduce"
  type: "Convolution"
  bottom: "inception_4a/output_inception_4a/output_0_split_3"
  top: "inception_4b/5x5_reduce"
  param {
    lr_mult: 1
    decay_mult: 1
  }
  param {
    lr_mult: 2
    decay_mult: 0
  }
  convolution_param {
    num_output: 24
    kernel_size: 1
    weight_filler {
      type: "xavier"
    }
    bias_filler {
      type: "constant"
      value: 0.2
    }
  }
}
layer {
  name: "inception_4b/relu_5x5_reduce"
  type: "ReLU"
  bottom: "inception_4b/5x5_reduce"
  top: "inception_4b/5x5_reduce"
}
layer {
  name: "inception_4b/5x5"
  type: "Convolution"
  bottom: "inception_4b/5x5_reduce"
  top: "inception_4b/5x5"
  param {
    lr_mult: 1
    decay_mult: 1
  }
  param {
    lr_mult: 2
    decay_mult: 0
  }
  convolution_param {
    num_output: 64
    pad: 2
    kernel_size: 5
    weight_filler {
      type: "xavier"
    }
    bias_filler {
      type: "constant"
      value: 0.2
    }
  }
}
layer {
  name: "inception_4b/relu_5x5"
  type: "ReLU"
  bottom: "inception_4b/5x5"
  top: "inception_4b/5x5"
}
layer {
  name: "inception_4b/pool"
  type: "Pooling"
  bottom: "inception_4a/output_inception_4a/output_0_split_4"
  top: "inception_4b/pool"
  pooling_param {
    pool: MAX
    kernel_size: 3
    stride: 1
    pad: 1
  }
}
layer {
  name: "inception_4b/pool_proj"
  type: "Convolution"
  bottom: "inception_4b/pool"
  top: "inception_4b/pool_proj"
  param {
    lr_mult: 1
    decay_mult: 1
  }
  param {
    lr_mult: 2
    decay_mult: 0
  }
  convolution_param {
    num_output: 64
    kernel_size: 1
    weight_filler {
      type: "xavier"
    }
    bias_filler {
      type: "constant"
      value: 0.2
    }
  }
}
layer {
  name: "inception_4b/relu_pool_proj"
  type: "ReLU"
  bottom: "inception_4b/pool_proj"
  top: "inception_4b/pool_proj"
}
layer {
  name: "inception_4b/output"
  type: "Concat"
  bottom: "inception_4b/1x1"
  bottom: "inception_4b/3x3"
  bottom: "inception_4b/5x5"
  bottom: "inception_4b/pool_proj"
  top: "inception_4b/output"
}
layer {
  name: "inception_4b/output_inception_4b/output_0_split"
  type: "Split"
  bottom: "inception_4b/output"
  top: "inception_4b/output_inception_4b/output_0_split_0"
  top: "inception_4b/output_inception_4b/output_0_split_1"
  top: "inception_4b/output_inception_4b/output_0_split_2"
  top: "inception_4b/output_inception_4b/output_0_split_3"
}
layer {
  name: "inception_4c/1x1"
  type: "Convolution"
  bottom: "inception_4b/output_inception_4b/output_0_split_0"
  top: "inception_4c/1x1"
  param {
    lr_mult: 1
    decay_mult: 1
  }
  param {
    lr_mult: 2
    decay_mult: 0
  }
  convolution_param {
    num_output: 128
    kernel_size: 1
    weight_filler {
      type: "xavier"
    }
    bias_filler {
      type: "constant"
      value: 0.2
    }
  }
}
layer {
  name: "inception_4c/relu_1x1"
  type: "ReLU"
  bottom: "inception_4c/1x1"
  top: "inception_4c/1x1"
}
layer {
  name: "inception_4c/3x3_reduce"
  type: "Convolution"
  bottom: "inception_4b/output_inception_4b/output_0_split_1"
  top: "inception_4c/3x3_reduce"
  param {
    lr_mult: 1
    decay_mult: 1
  }
  param {
    lr_mult: 2
    decay_mult: 0
  }
  convolution_param {
    num_output: 128
    kernel_size: 1
    weight_filler {
      type: "xavier"
    }
    bias_filler {
      type: "constant"
      value: 0.2
    }
  }
}
layer {
  name: "inception_4c/relu_3x3_reduce"
  type: "ReLU"
  bottom: "inception_4c/3x3_reduce"
  top: "inception_4c/3x3_reduce"
}
layer {
  name: "inception_4c/3x3"
  type: "Convolution"
  bottom: "inception_4c/3x3_reduce"
  top: "inception_4c/3x3"
  param {
    lr_mult: 1
    decay_mult: 1
  }
  param {
    lr_mult: 2
    decay_mult: 0
  }
  convolution_param {
    num_output: 256
    pad: 1
    kernel_size: 3
    weight_filler {
      type: "xavier"
    }
    bias_filler {
      type: "constant"
      value: 0.2
    }
  }
}
layer {
  name: "inception_4c/relu_3x3"
  type: "ReLU"
  bottom: "inception_4c/3x3"
  top: "inception_4c/3x3"
}
layer {
  name: "inception_4c/5x5_reduce"
  type: "Convolution"
  bottom: "inception_4b/output_inception_4b/output_0_split_2"
  top: "inception_4c/5x5_reduce"
  param {
    lr_mult: 1
    decay_mult: 1
  }
  param {
    lr_mult: 2
    decay_mult: 0
  }
  convolution_param {
    num_output: 24
    kernel_size: 1
    weight_filler {
      type: "xavier"
    }
    bias_filler {
      type: "constant"
      value: 0.2
    }
  }
}
layer {
  name: "inception_4c/relu_5x5_reduce"
  type: "ReLU"
  bottom: "inception_4c/5x5_reduce"
  top: "inception_4c/5x5_reduce"
}
layer {
  name: "inception_4c/5x5"
  type: "Convolution"
  bottom: "inception_4c/5x5_reduce"
  top: "inception_4c/5x5"
  param {
    lr_mult: 1
    decay_mult: 1
  }
  param {
    lr_mult: 2
    decay_mult: 0
  }
  convolution_param {
    num_output: 64
    pad: 2
    kernel_size: 5
    weight_filler {
      type: "xavier"
    }
    bias_filler {
      type: "constant"
      value: 0.2
    }
  }
}
layer {
  name: "inception_4c/relu_5x5"
  type: "ReLU"
  bottom: "inception_4c/5x5"
  top: "inception_4c/5x5"
}
layer {
  name: "inception_4c/pool"
  type: "Pooling"
  bottom: "inception_4b/output_inception_4b/output_0_split_3"
  top: "inception_4c/pool"
  pooling_param {
    pool: MAX
    kernel_size: 3
    stride: 1
    pad: 1
  }
}
layer {
  name: "inception_4c/pool_proj"
  type: "Convolution"
  bottom: "inception_4c/pool"
  top: "inception_4c/pool_proj"
  param {
    lr_mult: 1
    decay_mult: 1
  }
  param {
    lr_mult: 2
    decay_mult: 0
  }
  convolution_param {
    num_output: 64
    kernel_size: 1
    weight_filler {
      type: "xavier"
    }
    bias_filler {
      type: "constant"
      value: 0.2
    }
  }
}
layer {
  name: "inception_4c/relu_pool_proj"
  type: "ReLU"
  bottom: "inception_4c/pool_proj"
  top: "inception_4c/pool_proj"
}
layer {
  name: "inception_4c/output"
  type: "Concat"
  bottom: "inception_4c/1x1"
  bottom: "inception_4c/3x3"
  bottom: "inception_4c/5x5"
  bottom: "inception_4c/pool_proj"
  top: "inception_4c/output"
}
layer {
  name: "inception_4c/output_inception_4c/output_0_split"
  type: "Split"
  bottom: "inception_4c/output"
  top: "inception_4c/output_inception_4c/output_0_split_0"
  top: "inception_4c/output_inception_4c/output_0_split_1"
  top: "inception_4c/output_inception_4c/output_0_split_2"
  top: "inception_4c/output_inception_4c/output_0_split_3"
}
layer {
  name: "inception_4d/1x1"
  type: "Convolution"
  bottom: "inception_4c/output_inception_4c/output_0_split_0"
  top: "inception_4d/1x1"
  param {
    lr_mult: 1
    decay_mult: 1
  }
  param {
    lr_mult: 2
    decay_mult: 0
  }
  convolution_param {
    num_output: 112
    kernel_size: 1
    weight_filler {
      type: "xavier"
    }
    bias_filler {
      type: "constant"
      value: 0.2
    }
  }
}
layer {
  name: "inception_4d/relu_1x1"
  type: "ReLU"
  bottom: "inception_4d/1x1"
  top: "inception_4d/1x1"
}
layer {
  name: "inception_4d/3x3_reduce"
  type: "Convolution"
  bottom: "inception_4c/output_inception_4c/output_0_split_1"
  top: "inception_4d/3x3_reduce"
  param {
    lr_mult: 1
    decay_mult: 1
  }
  param {
    lr_mult: 2
    decay_mult: 0
  }
  convolution_param {
    num_output: 144
    kernel_size: 1
    weight_filler {
      type: "xavier"
    }
    bias_filler {
      type: "constant"
      value: 0.2
    }
  }
}
layer {
  name: "inception_4d/relu_3x3_reduce"
  type: "ReLU"
  bottom: "inception_4d/3x3_reduce"
  top: "inception_4d/3x3_reduce"
}
layer {
  name: "inception_4d/3x3"
  type: "Convolution"
  bottom: "inception_4d/3x3_reduce"
  top: "inception_4d/3x3"
  param {
    lr_mult: 1
    decay_mult: 1
  }
  param {
    lr_mult: 2
    decay_mult: 0
  }
  convolution_param {
    num_output: 288
    pad: 1
    kernel_size: 3
    weight_filler {
      type: "xavier"
    }
    bias_filler {
      type: "constant"
      value: 0.2
    }
  }
}
layer {
  name: "inception_4d/relu_3x3"
  type: "ReLU"
  bottom: "inception_4d/3x3"
  top: "inception_4d/3x3"
}
layer {
  name: "inception_4d/5x5_reduce"
  type: "Convolution"
  bottom: "inception_4c/output_inception_4c/output_0_split_2"
  top: "inception_4d/5x5_reduce"
  param {
    lr_mult: 1
    decay_mult: 1
  }
  param {
    lr_mult: 2
    decay_mult: 0
  }
  convolution_param {
    num_output: 32
    kernel_size: 1
    weight_filler {
      type: "xavier"
    }
    bias_filler {
      type: "constant"
      value: 0.2
    }
  }
}
layer {
  name: "inception_4d/relu_5x5_reduce"
  type: "ReLU"
  bottom: "inception_4d/5x5_reduce"
  top: "inception_4d/5x5_reduce"
}
layer {
  name: "inception_4d/5x5"
  type: "Convolution"
  bottom: "inception_4d/5x5_reduce"
  top: "inception_4d/5x5"
  param {
    lr_mult: 1
    decay_mult: 1
  }
  param {
    lr_mult: 2
    decay_mult: 0
  }
  convolution_param {
    num_output: 64
    pad: 2
    kernel_size: 5
    weight_filler {
      type: "xavier"
    }
    bias_filler {
      type: "constant"
      value: 0.2
    }
  }
}
layer {
  name: "inception_4d/relu_5x5"
  type: "ReLU"
  bottom: "inception_4d/5x5"
  top: "inception_4d/5x5"
}
layer {
  name: "inception_4d/pool"
  type: "Pooling"
  bottom: "inception_4c/output_inception_4c/output_0_split_3"
  top: "inception_4d/pool"
  pooling_param {
    pool: MAX
    kernel_size: 3
    stride: 1
    pad: 1
  }
}
layer {
  name: "inception_4d/pool_proj"
  type: "Convolution"
  bottom: "inception_4d/pool"
  top: "inception_4d/pool_proj"
  param {
    lr_mult: 1
    decay_mult: 1
  }
  param {
    lr_mult: 2
    decay_mult: 0
  }
  convolution_param {
    num_output: 64
    kernel_size: 1
    weight_filler {
      type: "xavier"
    }
    bias_filler {
      type: "constant"
      value: 0.2
    }
  }
}
layer {
  name: "inception_4d/relu_pool_proj"
  type: "ReLU"
  bottom: "inception_4d/pool_proj"
  top: "inception_4d/pool_proj"
}
layer {
  name: "inception_4d/output"
  type: "Concat"
  bottom: "inception_4d/1x1"
  bottom: "inception_4d/3x3"
  bottom: "inception_4d/5x5"
  bottom: "inception_4d/pool_proj"
  top: "inception_4d/output"
}
layer {
  name: "inception_4d/output_inception_4d/output_0_split"
  type: "Split"
  bottom: "inception_4d/output"
  top: "inception_4d/output_inception_4d/output_0_split_0"
  top: "inception_4d/output_inception_4d/output_0_split_1"
  top: "inception_4d/output_inception_4d/output_0_split_2"
  top: "inception_4d/output_inception_4d/output_0_split_3"
  top: "inception_4d/output_inception_4d/output_0_split_4"
}
layer {
  name: "loss2/ave_pool"
  type: "Pooling"
  bottom: "inception_4d/output_inception_4d/output_0_split_0"
  top: "loss2/ave_pool"
  pooling_param {
    pool: AVE
    kernel_size: 5
    stride: 3
  }
}
layer {
  name: "loss2/conv"
  type: "Convolution"
  bottom: "loss2/ave_pool"
  top: "loss2/conv"
  param {
    lr_mult: 1
    decay_mult: 1
  }
  param {
    lr_mult: 2
    decay_mult: 0
  }
  convolution_param {
    num_output: 128
    kernel_size: 1
    weight_filler {
      type: "xavier"
    }
    bias_filler {
      type: "constant"
      value: 0.2
    }
  }
}
layer {
  name: "loss2/relu_conv"
  type: "ReLU"
  bottom: "loss2/conv"
  top: "loss2/conv"
}
layer {
  name: "loss2/fc"
  type: "InnerProduct"
  bottom: "loss2/conv"
  top: "loss2/fc"
  param {
    lr_mult: 1
    decay_mult: 1
  }
  param {
    lr_mult: 2
    decay_mult: 0
  }
  inner_product_param {
    num_output: 1024
    weight_filler {
      type: "xavier"
    }
    bias_filler {
      type: "constant"
      value: 0.2
    }
  }
}
layer {
  name: "loss2/relu_fc"
  type: "ReLU"
  bottom: "loss2/fc"
  top: "loss2/fc"
}
layer {
  name: "loss2
I0123 12:18:03.452611 38124 layer_factory.hpp:114] Creating layer data
I0123 12:18:03.454681 38124 net.cpp:160] Creating Layer data
I0123 12:18:03.454746 38124 net.cpp:570] data -> data
I0123 12:18:03.454790 38124 net.cpp:570] data -> label
I0123 12:18:03.454993 38125 db_lmdb.cpp:72] Opened lmdb /home/user/caffeOMP/original/caffe/examples/imagenet/ilsvrc12_train_lmdb
I0123 12:18:03.455718 38124 data_layer.cpp:80] output data size: 32,3,224,224
I0123 12:18:03.500951 38124 net.cpp:210] Setting up data
I0123 12:18:03.501111 38124 net.cpp:217] Top shape: 32 3 224 224 (4816896)
I0123 12:18:03.501139 38124 net.cpp:217] Top shape: 32 (32)
I0123 12:18:03.501226 38124 net.cpp:225] Memory required for data: 19267712
I0123 12:18:03.501260 38124 layer_factory.hpp:114] Creating layer label_data_1_split
I0123 12:18:03.501325 38124 net.cpp:160] Creating Layer label_data_1_split
I0123 12:18:03.501353 38124 net.cpp:596] label_data_1_split <- label
I0123 12:18:03.501389 38124 net.cpp:570] label_data_1_split -> label_data_1_split_0
I0123 12:18:03.501432 38124 net.cpp:570] label_data_1_split -> label_data_1_split_1
I0123 12:18:03.501461 38124 net.cpp:570] label_data_1_split -> label_data_1_split_2
I0123 12:18:03.501503 38124 net.cpp:210] Setting up label_data_1_split
I0123 12:18:03.501528 38124 net.cpp:217] Top shape: 32 (32)
I0123 12:18:03.501552 38124 net.cpp:217] Top shape: 32 (32)
I0123 12:18:03.501574 38124 net.cpp:217] Top shape: 32 (32)
I0123 12:18:03.501590 38124 net.cpp:225] Memory required for data: 19268096
I0123 12:18:03.501610 38124 layer_factory.hpp:114] Creating layer conv1/7x7_s2
I0123 12:18:03.501667 38124 net.cpp:160] Creating Layer conv1/7x7_s2
I0123 12:18:03.501688 38124 net.cpp:596] conv1/7x7_s2 <- data
I0123 12:18:03.501718 38124 net.cpp:570] conv1/7x7_s2 -> conv1/7x7_s2
I0123 12:18:03.605875 38124 net.cpp:210] Setting up conv1/7x7_s2
I0123 12:18:03.605988 38124 net.cpp:217] Top shape: 32 64 112 112 (25690112)
I0123 12:18:03.605998 38124 net.cpp:225] Memory required for data: 122028544
I0123 12:18:03.606046 38124 layer_factory.hpp:114] Creating layer conv1/relu_7x7
I0123 12:18:03.606082 38124 net.cpp:160] Creating Layer conv1/relu_7x7
I0123 12:18:03.606094 38124 net.cpp:596] conv1/relu_7x7 <- conv1/7x7_s2
I0123 12:18:03.606108 38124 net.cpp:557] conv1/relu_7x7 -> conv1/7x7_s2 (in-place)
I0123 12:18:03.606138 38124 net.cpp:210] Setting up conv1/relu_7x7
I0123 12:18:03.606148 38124 net.cpp:217] Top shape: 32 64 112 112 (25690112)
I0123 12:18:03.606155 38124 net.cpp:225] Memory required for data: 224788992
I0123 12:18:03.606163 38124 layer_factory.hpp:114] Creating layer pool1/3x3_s2
I0123 12:18:03.606271 38124 net.cpp:160] Creating Layer pool1/3x3_s2
I0123 12:18:03.606282 38124 net.cpp:596] pool1/3x3_s2 <- conv1/7x7_s2
I0123 12:18:03.606294 38124 net.cpp:570] pool1/3x3_s2 -> pool1/3x3_s2
I0123 12:18:03.606328 38124 net.cpp:210] Setting up pool1/3x3_s2
I0123 12:18:03.606338 38124 net.cpp:217] Top shape: 32 64 56 56 (6422528)
I0123 12:18:03.606345 38124 net.cpp:225] Memory required for data: 250479104
I0123 12:18:03.606353 38124 layer_factory.hpp:114] Creating layer pool1/norm1
I0123 12:18:03.606397 38124 net.cpp:160] Creating Layer pool1/norm1
I0123 12:18:03.606406 38124 net.cpp:596] pool1/norm1 <- pool1/3x3_s2
I0123 12:18:03.606418 38124 net.cpp:570] pool1/norm1 -> pool1/norm1
I0123 12:18:03.606442 38124 net.cpp:210] Setting up pool1/norm1
I0123 12:18:03.606452 38124 net.cpp:217] Top shape: 32 64 56 56 (6422528)
I0123 12:18:03.606459 38124 net.cpp:225] Memory required for data: 276169216
I0123 12:18:03.606467 38124 layer_factory.hpp:114] Creating layer conv2/3x3_reduce
I0123 12:18:03.606498 38124 net.cpp:160] Creating Layer conv2/3x3_reduce
I0123 12:18:03.606506 38124 net.cpp:596] conv2/3x3_reduce <- pool1/norm1
I0123 12:18:03.606520 38124 net.cpp:570] conv2/3x3_reduce -> conv2/3x3_reduce
I0123 12:18:03.615912 38124 net.cpp:210] Setting up conv2/3x3_reduce
I0123 12:18:03.615937 38124 net.cpp:217] Top shape: 32 64 56 56 (6422528)
I0123 12:18:03.615944 38124 net.cpp:225] Memory required for data: 301859328
I0123 12:18:03.615958 38124 layer_factory.hpp:114] Creating layer conv2/relu_3x3_reduce
I0123 12:18:03.615969 38124 net.cpp:160] Creating Layer conv2/relu_3x3_reduce
I0123 12:18:03.615978 38124 net.cpp:596] conv2/relu_3x3_reduce <- conv2/3x3_reduce
I0123 12:18:03.615990 38124 net.cpp:557] conv2/relu_3x3_reduce -> conv2/3x3_reduce (in-place)
I0123 12:18:03.616001 38124 net.cpp:210] Setting up conv2/relu_3x3_reduce
I0123 12:18:03.616011 38124 net.cpp:217] Top shape: 32 64 56 56 (6422528)
I0123 12:18:03.616019 38124 net.cpp:225] Memory required for data: 327549440
I0123 12:18:03.616025 38124 layer_factory.hpp:114] Creating layer conv2/3x3
I0123 12:18:03.616041 38124 net.cpp:160] Creating Layer conv2/3x3
I0123 12:18:03.616070 38124 net.cpp:596] conv2/3x3 <- conv2/3x3_reduce
I0123 12:18:03.616080 38124 net.cpp:570] conv2/3x3 -> conv2/3x3
I0123 12:18:03.708984 38124 net.cpp:210] Setting up conv2/3x3
I0123 12:18:03.709000 38124 net.cpp:217] Top shape: 32 192 56 56 (19267584)
I0123 12:18:03.709008 38124 net.cpp:225] Memory required for data: 404619776
I0123 12:18:03.709022 38124 layer_factory.hpp:114] Creating layer conv2/relu_3x3
I0123 12:18:03.709031 38124 net.cpp:160] Creating Layer conv2/relu_3x3
I0123 12:18:03.709039 38124 net.cpp:596] conv2/relu_3x3 <- conv2/3x3
I0123 12:18:03.709051 38124 net.cpp:557] conv2/relu_3x3 -> conv2/3x3 (in-place)
I0123 12:18:03.709061 38124 net.cpp:210] Setting up conv2/relu_3x3
I0123 12:18:03.709070 38124 net.cpp:217] Top shape: 32 192 56 56 (19267584)
I0123 12:18:03.709077 38124 net.cpp:225] Memory required for data: 481690112
I0123 12:18:03.709085 38124 layer_factory.hpp:114] Creating layer conv2/norm2
I0123 12:18:03.709095 38124 net.cpp:160] Creating Layer conv2/norm2
I0123 12:18:03.709102 38124 net.cpp:596] conv2/norm2 <- conv2/3x3
I0123 12:18:03.709113 38124 net.cpp:570] conv2/norm2 -> conv2/norm2
I0123 12:18:03.709126 38124 net.cpp:210] Setting up conv2/norm2
I0123 12:18:03.709136 38124 net.cpp:217] Top shape: 32 192 56 56 (19267584)
I0123 12:18:03.709142 38124 net.cpp:225] Memory required for data: 558760448
I0123 12:18:03.709151 38124 layer_factory.hpp:114] Creating layer pool2/3x3_s2
I0123 12:18:03.709178 38124 net.cpp:160] Creating Layer pool2/3x3_s2
I0123 12:18:03.709189 38124 net.cpp:596] pool2/3x3_s2 <- conv2/norm2
I0123 12:18:03.709199 38124 net.cpp:570] pool2/3x3_s2 -> pool2/3x3_s2
I0123 12:18:03.709211 38124 net.cpp:210] Setting up pool2/3x3_s2
I0123 12:18:03.709221 38124 net.cpp:217] Top shape: 32 192 28 28 (4816896)
I0123 12:18:03.709228 38124 net.cpp:225] Memory required for data: 578028032
I0123 12:18:03.709235 38124 layer_factory.hpp:114] Creating layer pool2/3x3_s2_pool2/3x3_s2_0_split
I0123 12:18:03.709250 38124 net.cpp:160] Creating Layer pool2/3x3_s2_pool2/3x3_s2_0_split
I0123 12:18:03.709259 38124 net.cpp:596] pool2/3x3_s2_pool2/3x3_s2_0_split <- pool2/3x3_s2
I0123 12:18:03.709270 38124 net.cpp:570] pool2/3x3_s2_pool2/3x3_s2_0_split -> pool2/3x3_s2_pool2/3x3_s2_0_split_0
I0123 12:18:03.709281 38124 net.cpp:570] pool2/3x3_s2_pool2/3x3_s2_0_split -> pool2/3x3_s2_pool2/3x3_s2_0_split_1
I0123 12:18:03.709292 38124 net.cpp:570] pool2/3x3_s2_pool2/3x3_s2_0_split -> pool2/3x3_s2_pool2/3x3_s2_0_split_2
I0123 12:18:03.709312 38124 net.cpp:570] pool2/3x3_s2_pool2/3x3_s2_0_split -> pool2/3x3_s2_pool2/3x3_s2_0_split_3
I0123 12:18:03.709326 38124 net.cpp:210] Setting up pool2/3x3_s2_pool2/3x3_s2_0_split
I0123 12:18:03.709336 38124 net.cpp:217] Top shape: 32 192 28 28 (4816896)
I0123 12:18:03.709343 38124 net.cpp:217] Top shape: 32 192 28 28 (4816896)
I0123 12:18:03.709352 38124 net.cpp:217] Top shape: 32 192 28 28 (4816896)
I0123 12:18:03.709359 38124 net.cpp:217] Top shape: 32 192 28 28 (4816896)
I0123 12:18:03.709365 38124 net.cpp:225] Memory required for data: 655098368
I0123 12:18:03.709372 38124 layer_factory.hpp:114] Creating layer inception_3a/1x1
I0123 12:18:03.709388 38124 net.cpp:160] Creating Layer inception_3a/1x1
I0123 12:18:03.709396 38124 net.cpp:596] inception_3a/1x1 <- pool2/3x3_s2_pool2/3x3_s2_0_split_0
I0123 12:18:03.709409 38124 net.cpp:570] inception_3a/1x1 -> inception_3a/1x1
I0123 12:18:03.720366 38124 net.cpp:210] Setting up inception_3a/1x1
I0123 12:18:03.720382 38124 net.cpp:217] Top shape: 32 64 28 28 (1605632)
I0123 12:18:03.720389 38124 net.cpp:225] Memory required for data: 661520896
I0123 12:18:03.720401 38124 layer_factory.hpp:114] Creating layer inception_3a/relu_1x1
I0123 12:18:03.720412 38124 net.cpp:160] Creating Layer inception_3a/relu_1x1
I0123 12:18:03.720419 38124 net.cpp:596] inception_3a/relu_1x1 <- inception_3a/1x1
I0123 12:18:03.720430 38124 net.cpp:557] inception_3a/relu_1x1 -> inception_3a/1x1 (in-place)
I0123 12:18:03.720441 38124 net.cpp:210] Setting up inception_3a/relu_1x1
I0123 12:18:03.720459 38124 net.cpp:217] Top shape: 32 64 28 28 (1605632)
I0123 12:18:03.720466 38124 net.cpp:225] Memory required for data: 667943424
I0123 12:18:03.720474 38124 layer_factory.hpp:114] Creating layer inception_3a/3x3_reduce
I0123 12:18:03.720489 38124 net.cpp:160] Creating Layer inception_3a/3x3_reduce
I0123 12:18:03.720497 38124 net.cpp:596] inception_3a/3x3_reduce <- pool2/3x3_s2_pool2/3x3_s2_0_split_1
I0123 12:18:03.720507 38124 net.cpp:570] inception_3a/3x3_reduce -> inception_3a/3x3_reduce
I0123 12:18:03.731902 38124 net.cpp:210] Setting up inception_3a/3x3_reduce
I0123 12:18:03.731919 38124 net.cpp:217] Top shape: 32 96 28 28 (2408448)
I0123 12:18:03.731925 38124 net.cpp:225] Memory required for data: 677577216
I0123 12:18:03.731938 38124 layer_factory.hpp:114] Creating layer inception_3a/relu_3x3_reduce
I0123 12:18:03.731955 38124 net.cpp:160] Creating Layer inception_3a/relu_3x3_reduce
I0123 12:18:03.731963 38124 net.cpp:596] inception_3a/relu_3x3_reduce <- inception_3a/3x3_reduce
I0123 12:18:03.731972 38124 net.cpp:557] inception_3a/relu_3x3_reduce -> inception_3a/3x3_reduce (in-place)
I0123 12:18:03.731986 38124 net.cpp:210] Setting up inception_3a/relu_3x3_reduce
I0123 12:18:03.731994 38124 net.cpp:217] Top shape: 32 96 28 28 (2408448)
I0123 12:18:03.732000 38124 net.cpp:225] Memory required for data: 687211008
I0123 12:18:03.732007 38124 layer_factory.hpp:114] Creating layer inception_3a/3x3
I0123 12:18:03.732022 38124 net.cpp:160] Creating Layer inception_3a/3x3
I0123 12:18:03.732028 38124 net.cpp:596] inception_3a/3x3 <- inception_3a/3x3_reduce
I0123 12:18:03.732040 38124 net.cpp:570] inception_3a/3x3 -> inception_3a/3x3
I0123 12:18:03.778146 38124 net.cpp:210] Setting up inception_3a/3x3
I0123 12:18:03.778188 38124 net.cpp:217] Top shape: 32 128 28 28 (3211264)
I0123 12:18:03.778197 38124 net.cpp:225] Memory required for data: 700056064
I0123 12:18:03.778208 38124 layer_factory.hpp:114] Creating layer inception_3a/relu_3x3
I0123 12:18:03.778228 38124 net.cpp:160] Creating Layer inception_3a/relu_3x3
I0123 12:18:03.778237 38124 net.cpp:596] inception_3a/relu_3x3 <- inception_3a/3x3
I0123 12:18:03.778246 38124 net.cpp:557] inception_3a/relu_3x3 -> inception_3a/3x3 (in-place)
I0123 12:18:03.778259 38124 net.cpp:210] Setting up inception_3a/relu_3x3
I0123 12:18:03.778268 38124 net.cpp:217] Top shape: 32 128 28 28 (3211264)
I0123 12:18:03.778275 38124 net.cpp:225] Memory required for data: 712901120
I0123 12:18:03.778282 38124 layer_factory.hpp:114] Creating layer inception_3a/5x5_reduce
I0123 12:18:03.778302 38124 net.cpp:160] Creating Layer inception_3a/5x5_reduce
I0123 12:18:03.778311 38124 net.cpp:596] inception_3a/5x5_reduce <- pool2/3x3_s2_pool2/3x3_s2_0_split_2
I0123 12:18:03.778324 38124 net.cpp:570] inception_3a/5x5_reduce -> inception_3a/5x5_reduce
I0123 12:18:03.788161 38124 net.cpp:210] Setting up inception_3a/5x5_reduce
I0123 12:18:03.788182 38124 net.cpp:217] Top shape: 32 16 28 28 (401408)
I0123 12:18:03.788190 38124 net.cpp:225] Memory required for data: 714506752
I0123 12:18:03.788202 38124 layer_factory.hpp:114] Creating layer inception_3a/relu_5x5_reduce
I0123 12:18:03.788215 38124 net.cpp:160] Creating Layer inception_3a/relu_5x5_reduce
I0123 12:18:03.788224 38124 net.cpp:596] inception_3a/relu_5x5_reduce <- inception_3a/5x5_reduce
I0123 12:18:03.788233 38124 net.cpp:557] inception_3a/relu_5x5_reduce -> inception_3a/5x5_reduce (in-place)
I0123 12:18:03.788244 38124 net.cpp:210] Setting up inception_3a/relu_5x5_reduce
I0123 12:18:03.788252 38124 net.cpp:217] Top shape: 32 16 28 28 (401408)
I0123 12:18:03.788259 38124 net.cpp:225] Memory required for data: 716112384
I0123 12:18:03.788267 38124 layer_factory.hpp:114] Creating layer inception_3a/5x5
I0123 12:18:03.788280 38124 net.cpp:160] Creating Layer inception_3a/5x5
I0123 12:18:03.788287 38124 net.cpp:596] inception_3a/5x5 <- inception_3a/5x5_reduce
I0123 12:18:03.788300 38124 net.cpp:570] inception_3a/5x5 -> inception_3a/5x5
I0123 12:18:03.806684 38124 net.cpp:210] Setting up inception_3a/5x5
I0123 12:18:03.806701 38124 net.cpp:217] Top shape: 32 32 28 28 (802816)
I0123 12:18:03.806725 38124 net.cpp:225] Memory required for data: 719323648
I0123 12:18:03.806735 38124 layer_factory.hpp:114] Creating layer inception_3a/relu_5x5
I0123 12:18:03.806753 38124 net.cpp:160] Creating Layer inception_3a/relu_5x5
I0123 12:18:03.806761 38124 net.cpp:596] inception_3a/relu_5x5 <- inception_3a/5x5
I0123 12:18:03.806771 38124 net.cpp:557] inception_3a/relu_5x5 -> inception_3a/5x5 (in-place)
I0123 12:18:03.806780 38124 net.cpp:210] Setting up inception_3a/relu_5x5
I0123 12:18:03.806789 38124 net.cpp:217] Top shape: 32 32 28 28 (802816)
I0123 12:18:03.806797 38124 net.cpp:225] Memory required for data: 722534912
I0123 12:18:03.806803 38124 layer_factory.hpp:114] Creating layer inception_3a/pool
I0123 12:18:03.806836 38124 net.cpp:160] Creating Layer inception_3a/pool
I0123 12:18:03.806845 38124 net.cpp:596] inception_3a/pool <- pool2/3x3_s2_pool2/3x3_s2_0_split_3
I0123 12:18:03.806855 38124 net.cpp:570] inception_3a/pool -> inception_3a/pool
I0123 12:18:03.806869 38124 net.cpp:210] Setting up inception_3a/pool
I0123 12:18:03.806881 38124 net.cpp:217] Top shape: 32 192 28 28 (4816896)
I0123 12:18:03.806888 38124 net.cpp:225] Memory required for data: 741802496
I0123 12:18:03.806895 38124 layer_factory.hpp:114] Creating layer inception_3a/pool_proj
I0123 12:18:03.806908 38124 net.cpp:160] Creating Layer inception_3a/pool_proj
I0123 12:18:03.806916 38124 net.cpp:596] inception_3a/pool_proj <- inception_3a/pool
I0123 12:18:03.806929 38124 net.cpp:570] inception_3a/pool_proj -> inception_3a/pool_proj
I0123 12:18:03.814829 38124 net.cpp:210] Setting up inception_3a/pool_proj
I0123 12:18:03.814844 38124 net.cpp:217] Top shape: 32 32 28 28 (802816)
I0123 12:18:03.814851 38124 net.cpp:225] Memory required for data: 745013760
I0123 12:18:03.814864 38124 layer_factory.hpp:114] Creating layer inception_3a/relu_pool_proj
I0123 12:18:03.814889 38124 net.cpp:160] Creating Layer inception_3a/relu_pool_proj
I0123 12:18:03.814898 38124 net.cpp:596] inception_3a/relu_pool_proj <- inception_3a/pool_proj
I0123 12:18:03.814908 38124 net.cpp:557] inception_3a/relu_pool_proj -> inception_3a/pool_proj (in-place)
I0123 12:18:03.814918 38124 net.cpp:210] Setting up inception_3a/relu_pool_proj
I0123 12:18:03.814926 38124 net.cpp:217] Top shape: 32 32 28 28 (802816)
I0123 12:18:03.814932 38124 net.cpp:225] Memory required for data: 748225024
I0123 12:18:03.814940 38124 layer_factory.hpp:114] Creating layer inception_3a/output
I0123 12:18:03.814961 38124 net.cpp:160] Creating Layer inception_3a/output
I0123 12:18:03.814970 38124 net.cpp:596] inception_3a/output <- inception_3a/1x1
I0123 12:18:03.814978 38124 net.cpp:596] inception_3a/output <- inception_3a/3x3
I0123 12:18:03.814986 38124 net.cpp:596] inception_3a/output <- inception_3a/5x5
I0123 12:18:03.814995 38124 net.cpp:596] inception_3a/output <- inception_3a/pool_proj
I0123 12:18:03.815006 38124 net.cpp:570] inception_3a/output -> inception_3a/output
I0123 12:18:03.815026 38124 net.cpp:210] Setting up inception_3a/output
I0123 12:18:03.815037 38124 net.cpp:217] Top shape: 32 256 28 28 (6422528)
I0123 12:18:03.815043 38124 net.cpp:225] Memory required for data: 773915136
I0123 12:18:03.815050 38124 layer_factory.hpp:114] Creating layer inception_3a/output_inception_3a/output_0_split
I0123 12:18:03.815060 38124 net.cpp:160] Creating Layer inception_3a/output_inception_3a/output_0_split
I0123 12:18:03.815068 38124 net.cpp:596] inception_3a/output_inception_3a/output_0_split <- inception_3a/output
I0123 12:18:03.815080 38124 net.cpp:570] inception_3a/output_inception_3a/output_0_split -> inception_3a/output_inception_3a/output_0_split_0
I0123 12:18:03.815091 38124 net.cpp:570] inception_3a/output_inception_3a/output_0_split -> inception_3a/output_inception_3a/output_0_split_1
I0123 12:18:03.815102 38124 net.cpp:570] inception_3a/output_inception_3a/output_0_split -> inception_3a/output_inception_3a/output_0_split_2
I0123 12:18:03.815112 38124 net.cpp:570] inception_3a/output_inception_3a/output_0_split -> inception_3a/output_inception_3a/output_0_split_3
I0123 12:18:03.815132 38124 net.cpp:210] Setting up inception_3a/output_inception_3a/output_0_split
I0123 12:18:03.815142 38124 net.cpp:217] Top shape: 32 256 28 28 (6422528)
I0123 12:18:03.815150 38124 net.cpp:217] Top shape: 32 256 28 28 (6422528)
I0123 12:18:03.815158 38124 net.cpp:217] Top shape: 32 256 28 28 (6422528)
I0123 12:18:03.815166 38124 net.cpp:217] Top shape: 32 256 28 28 (6422528)
I0123 12:18:03.815179 38124 net.cpp:225] Memory required for data: 876675584
I0123 12:18:03.815188 38124 layer_factory.hpp:114] Creating layer inception_3b/1x1
I0123 12:18:03.815206 38124 net.cpp:160] Creating Layer inception_3b/1x1
I0123 12:18:03.815213 38124 net.cpp:596] inception_3b/1x1 <- inception_3a/output_inception_3a/output_0_split_0
I0123 12:18:03.815224 38124 net.cpp:570] inception_3b/1x1 -> inception_3b/1x1
I0123 12:18:03.828995 38124 net.cpp:210] Setting up inception_3b/1x1
I0123 12:18:03.829011 38124 net.cpp:217] Top shape: 32 128 28 28 (3211264)
I0123 12:18:03.829018 38124 net.cpp:225] Memory required for data: 889520640
I0123 12:18:03.829028 38124 layer_factory.hpp:114] Creating layer inception_3b/relu_1x1
I0123 12:18:03.829046 38124 net.cpp:160] Creating Layer inception_3b/relu_1x1
I0123 12:18:03.829054 38124 net.cpp:596] inception_3b/relu_1x1 <- inception_3b/1x1
I0123 12:18:03.829066 38124 net.cpp:557] inception_3b/relu_1x1 -> inception_3b/1x1 (in-place)
I0123 12:18:03.829077 38124 net.cpp:210] Setting up inception_3b/relu_1x1
I0123 12:18:03.829085 38124 net.cpp:217] Top shape: 32 128 28 28 (3211264)
I0123 12:18:03.829092 38124 net.cpp:225] Memory required for data: 902365696
I0123 12:18:03.829099 38124 layer_factory.hpp:114] Creating layer inception_3b/3x3_reduce
I0123 12:18:03.829118 38124 net.cpp:160] Creating Layer inception_3b/3x3_reduce
I0123 12:18:03.829128 38124 net.cpp:596] inception_3b/3x3_reduce <- inception_3a/output_inception_3a/output_0_split_1
I0123 12:18:03.829138 38124 net.cpp:570] inception_3b/3x3_reduce -> inception_3b/3x3_reduce
I0123 12:18:03.841869 38124 net.cpp:210] Setting up inception_3b/3x3_reduce
I0123 12:18:03.841892 38124 net.cpp:217] Top shape: 32 128 28 28 (3211264)
I0123 12:18:03.841899 38124 net.cpp:225] Memory required for data: 915210752
I0123 12:18:03.841909 38124 layer_factory.hpp:114] Creating layer inception_3b/relu_3x3_reduce
I0123 12:18:03.841933 38124 net.cpp:160] Creating Layer inception_3b/relu_3x3_reduce
I0123 12:18:03.841941 38124 net.cpp:596] inception_3b/relu_3x3_reduce <- inception_3b/3x3_reduce
I0123 12:18:03.841959 38124 net.cpp:557] inception_3b/relu_3x3_reduce -> inception_3b/3x3_reduce (in-place)
I0123 12:18:03.841970 38124 net.cpp:210] Setting up inception_3b/relu_3x3_reduce
I0123 12:18:03.841980 38124 net.cpp:217] Top shape: 32 128 28 28 (3211264)
I0123 12:18:03.841987 38124 net.cpp:225] Memory required for data: 928055808
I0123 12:18:03.841995 38124 layer_factory.hpp:114] Creating layer inception_3b/3x3
I0123 12:18:03.842011 38124 net.cpp:160] Creating Layer inception_3b/3x3
I0123 12:18:03.842020 38124 net.cpp:596] inception_3b/3x3 <- inception_3b/3x3_reduce
I0123 12:18:03.842032 38124 net.cpp:570] inception_3b/3x3 -> inception_3b/3x3
I0123 12:18:03.901695 38124 net.cpp:210] Setting up inception_3b/3x3
I0123 12:18:03.901721 38124 net.cpp:217] Top shape: 32 192 28 28 (4816896)
I0123 12:18:03.901727 38124 net.cpp:225] Memory required for data: 947323392
I0123 12:18:03.901738 38124 layer_factory.hpp:114] Creating layer inception_3b/relu_3x3
I0123 12:18:03.901757 38124 net.cpp:160] Creating Layer inception_3b/relu_3x3
I0123 12:18:03.901764 38124 net.cpp:596] inception_3b/relu_3x3 <- inception_3b/3x3
I0123 12:18:03.901777 38124 net.cpp:557] inception_3b/relu_3x3 -> inception_3b/3x3 (in-place)
I0123 12:18:03.901787 38124 net.cpp:210] Setting up inception_3b/relu_3x3
I0123 12:18:03.901796 38124 net.cpp:217] Top shape: 32 192 28 28 (4816896)
I0123 12:18:03.901803 38124 net.cpp:225] Memory required for data: 966590976
I0123 12:18:03.901810 38124 layer_factory.hpp:114] Creating layer inception_3b/5x5_reduce
I0123 12:18:03.901823 38124 net.cpp:160] Creating Layer inception_3b/5x5_reduce
I0123 12:18:03.901841 38124 net.cpp:596] inception_3b/5x5_reduce <- inception_3a/output_inception_3a/output_0_split_2
I0123 12:18:03.901854 38124 net.cpp:570] inception_3b/5x5_reduce -> inception_3b/5x5_reduce
I0123 12:18:03.913837 38124 net.cpp:210] Setting up inception_3b/5x5_reduce
I0123 12:18:03.913853 38124 net.cpp:217] Top shape: 32 32 28 28 (802816)
I0123 12:18:03.913861 38124 net.cpp:225] Memory required for data: 969802240
I0123 12:18:03.913872 38124 layer_factory.hpp:114] Creating layer inception_3b/relu_5x5_reduce
I0123 12:18:03.913889 38124 net.cpp:160] Creating Layer inception_3b/relu_5x5_reduce
I0123 12:18:03.913897 38124 net.cpp:596] inception_3b/relu_5x5_reduce <- inception_3b/5x5_reduce
I0123 12:18:03.913913 38124 net.cpp:557] inception_3b/relu_5x5_reduce -> inception_3b/5x5_reduce (in-place)
I0123 12:18:03.913923 38124 net.cpp:210] Setting up inception_3b/relu_5x5_reduce
I0123 12:18:03.913933 38124 net.cpp:217] Top shape: 32 32 28 28 (802816)
I0123 12:18:03.913939 38124 net.cpp:225] Memory required for data: 973013504
I0123 12:18:03.913946 38124 layer_factory.hpp:114] Creating layer inception_3b/5x5
I0123 12:18:03.913959 38124 net.cpp:160] Creating Layer inception_3b/5x5
I0123 12:18:03.913967 38124 net.cpp:596] inception_3b/5x5 <- inception_3b/5x5_reduce
I0123 12:18:03.913980 38124 net.cpp:570] inception_3b/5x5 -> inception_3b/5x5
I0123 12:18:03.951617 38124 net.cpp:210] Setting up inception_3b/5x5
I0123 12:18:03.951648 38124 net.cpp:217] Top shape: 32 96 28 28 (2408448)
I0123 12:18:03.951655 38124 net.cpp:225] Memory required for data: 982647296
I0123 12:18:03.951666 38124 layer_factory.hpp:114] Creating layer inception_3b/relu_5x5
I0123 12:18:03.951679 38124 net.cpp:160] Creating Layer inception_3b/relu_5x5
I0123 12:18:03.951688 38124 net.cpp:596] inception_3b/relu_5x5 <- inception_3b/5x5
I0123 12:18:03.951697 38124 net.cpp:557] inception_3b/relu_5x5 -> inception_3b/5x5 (in-place)
I0123 12:18:03.951714 38124 net.cpp:210] Setting up inception_3b/relu_5x5
I0123 12:18:03.951723 38124 net.cpp:217] Top shape: 32 96 28 28 (2408448)
I0123 12:18:03.951730 38124 net.cpp:225] Memory required for data: 992281088
I0123 12:18:03.951737 38124 layer_factory.hpp:114] Creating layer inception_3b/pool
I0123 12:18:03.951771 38124 net.cpp:160] Creating Layer inception_3b/pool
I0123 12:18:03.951781 38124 net.cpp:596] inception_3b/pool <- inception_3a/output_inception_3a/output_0_split_3
I0123 12:18:03.951797 38124 net.cpp:570] inception_3b/pool -> inception_3b/pool
I0123 12:18:03.951817 38124 net.cpp:210] Setting up inception_3b/pool
I0123 12:18:03.951828 38124 net.cpp:217] Top shape: 32 256 28 28 (6422528)
I0123 12:18:03.951834 38124 net.cpp:225] Memory required for data: 1017971200
I0123 12:18:03.951843 38124 layer_factory.hpp:114] Creating layer inception_3b/pool_proj
I0123 12:18:03.951858 38124 net.cpp:160] Creating Layer inception_3b/pool_proj
I0123 12:18:03.951866 38124 net.cpp:596] inception_3b/pool_proj <- inception_3b/pool
I0123 12:18:03.951879 38124 net.cpp:570] inception_3b/pool_proj -> inception_3b/pool_proj
I0123 12:18:03.965149 38124 net.cpp:210] Setting up inception_3b/pool_proj
I0123 12:18:03.965178 38124 net.cpp:217] Top shape: 32 64 28 28 (1605632)
I0123 12:18:03.965186 38124 net.cpp:225] Memory required for data: 1024393728
I0123 12:18:03.965196 38124 layer_factory.hpp:114] Creating layer inception_3b/relu_pool_proj
I0123 12:18:03.965217 38124 net.cpp:160] Creating Layer inception_3b/relu_pool_proj
I0123 12:18:03.965226 38124 net.cpp:596] inception_3b/relu_pool_proj <- inception_3b/pool_proj
I0123 12:18:03.965235 38124 net.cpp:557] inception_3b/relu_pool_proj -> inception_3b/pool_proj (in-place)
I0123 12:18:03.965248 38124 net.cpp:210] Setting up inception_3b/relu_pool_proj
I0123 12:18:03.965257 38124 net.cpp:217] Top shape: 32 64 28 28 (1605632)
I0123 12:18:03.965265 38124 net.cpp:225] Memory required for data: 1030816256
I0123 12:18:03.965271 38124 layer_factory.hpp:114] Creating layer inception_3b/output
I0123 12:18:03.965282 38124 net.cpp:160] Creating Layer inception_3b/output
I0123 12:18:03.965306 38124 net.cpp:596] inception_3b/output <- inception_3b/1x1
I0123 12:18:03.965315 38124 net.cpp:596] inception_3b/output <- inception_3b/3x3
I0123 12:18:03.965324 38124 net.cpp:596] inception_3b/output <- inception_3b/5x5
I0123 12:18:03.965332 38124 net.cpp:596] inception_3b/output <- inception_3b/pool_proj
I0123 12:18:03.965342 38124 net.cpp:570] inception_3b/output -> inception_3b/output
I0123 12:18:03.965353 38124 net.cpp:210] Setting up inception_3b/output
I0123 12:18:03.965363 38124 net.cpp:217] Top shape: 32 480 28 28 (12042240)
I0123 12:18:03.965370 38124 net.cpp:225] Memory required for data: 1078985216
I0123 12:18:03.965378 38124 layer_factory.hpp:114] Creating layer pool3/3x3_s2
I0123 12:18:03.965400 38124 net.cpp:160] Creating Layer pool3/3x3_s2
I0123 12:18:03.965410 38124 net.cpp:596] pool3/3x3_s2 <- inception_3b/output
I0123 12:18:03.965422 38124 net.cpp:570] pool3/3x3_s2 -> pool3/3x3_s2
I0123 12:18:03.965435 38124 net.cpp:210] Setting up pool3/3x3_s2
I0123 12:18:03.965446 38124 net.cpp:217] Top shape: 32 480 14 14 (3010560)
I0123 12:18:03.965453 38124 net.cpp:225] Memory required for data: 1091027456
I0123 12:18:03.965461 38124 layer_factory.hpp:114] Creating layer pool3/3x3_s2_pool3/3x3_s2_0_split
I0123 12:18:03.965471 38124 net.cpp:160] Creating Layer pool3/3x3_s2_pool3/3x3_s2_0_split
I0123 12:18:03.965479 38124 net.cpp:596] pool3/3x3_s2_pool3/3x3_s2_0_split <- pool3/3x3_s2
I0123 12:18:03.965488 38124 net.cpp:570] pool3/3x3_s2_pool3/3x3_s2_0_split -> pool3/3x3_s2_pool3/3x3_s2_0_split_0
I0123 12:18:03.965499 38124 net.cpp:570] pool3/3x3_s2_pool3/3x3_s2_0_split -> pool3/3x3_s2_pool3/3x3_s2_0_split_1
I0123 12:18:03.965510 38124 net.cpp:570] pool3/3x3_s2_pool3/3x3_s2_0_split -> pool3/3x3_s2_pool3/3x3_s2_0_split_2
I0123 12:18:03.965522 38124 net.cpp:570] pool3/3x3_s2_pool3/3x3_s2_0_split -> pool3/3x3_s2_pool3/3x3_s2_0_split_3
I0123 12:18:03.965533 38124 net.cpp:210] Setting up pool3/3x3_s2_pool3/3x3_s2_0_split
I0123 12:18:03.965543 38124 net.cpp:217] Top shape: 32 480 14 14 (3010560)
I0123 12:18:03.965550 38124 net.cpp:217] Top shape: 32 480 14 14 (3010560)
I0123 12:18:03.965559 38124 net.cpp:217] Top shape: 32 480 14 14 (3010560)
I0123 12:18:03.965566 38124 net.cpp:217] Top shape: 32 480 14 14 (3010560)
I0123 12:18:03.965574 38124 net.cpp:225] Memory required for data: 1139196416
I0123 12:18:03.965580 38124 layer_factory.hpp:114] Creating layer inception_4a/1x1
I0123 12:18:03.965598 38124 net.cpp:160] Creating Layer inception_4a/1x1
I0123 12:18:03.965611 38124 net.cpp:596] inception_4a/1x1 <- pool3/3x3_s2_pool3/3x3_s2_0_split_0
I0123 12:18:03.965625 38124 net.cpp:570] inception_4a/1x1 -> inception_4a/1x1
I0123 12:18:03.977319 38124 net.cpp:210] Setting up inception_4a/1x1
I0123 12:18:03.977344 38124 net.cpp:217] Top shape: 32 192 14 14 (1204224)
I0123 12:18:03.977351 38124 net.cpp:225] Memory required for data: 1144013312
I0123 12:18:03.977361 38124 layer_factory.hpp:114] Creating layer inception_4a/relu_1x1
I0123 12:18:03.977386 38124 net.cpp:160] Creating Layer inception_4a/relu_1x1
I0123 12:18:03.977393 38124 net.cpp:596] inception_4a/relu_1x1 <- inception_4a/1x1
I0123 12:18:03.977411 38124 net.cpp:557] inception_4a/relu_1x1 -> inception_4a/1x1 (in-place)
I0123 12:18:03.977421 38124 net.cpp:210] Setting up inception_4a/relu_1x1
I0123 12:18:03.977429 38124 net.cpp:217] Top shape: 32 192 14 14 (1204224)
I0123 12:18:03.977437 38124 net.cpp:225] Memory required for data: 1148830208
I0123 12:18:03.977443 38124 layer_factory.hpp:114] Creating layer inception_4a/3x3_reduce
I0123 12:18:03.977458 38124 net.cpp:160] Creating Layer inception_4a/3x3_reduce
I0123 12:18:03.977466 38124 net.cpp:596] inception_4a/3x3_reduce <- pool3/3x3_s2_pool3/3x3_s2_0_split_1
I0123 12:18:03.977476 38124 net.cpp:570] inception_4a/3x3_reduce -> inception_4a/3x3_reduce
I0123 12:18:03.986366 38124 net.cpp:210] Setting up inception_4a/3x3_reduce
I0123 12:18:03.986382 38124 net.cpp:217] Top shape: 32 96 14 14 (602112)
I0123 12:18:03.986388 38124 net.cpp:225] Memory required for data: 1151238656
I0123 12:18:03.986430 38124 layer_factory.hpp:114] Creating layer inception_4a/relu_3x3_reduce
I0123 12:18:03.986441 38124 net.cpp:160] Creating Layer inception_4a/relu_3x3_reduce
I0123 12:18:03.986450 38124 net.cpp:596] inception_4a/relu_3x3_reduce <- inception_4a/3x3_reduce
I0123 12:18:03.986459 38124 net.cpp:557] inception_4a/relu_3x3_reduce -> inception_4a/3x3_reduce (in-place)
I0123 12:18:03.986470 38124 net.cpp:210] Setting up inception_4a/relu_3x3_reduce
I0123 12:18:03.986479 38124 net.cpp:217] Top shape: 32 96 14 14 (602112)
I0123 12:18:03.986486 38124 net.cpp:225] Memory required for data: 1153647104
I0123 12:18:03.986493 38124 layer_factory.hpp:114] Creating layer inception_4a/3x3
I0123 12:18:03.986508 38124 net.cpp:160] Creating Layer inception_4a/3x3
I0123 12:18:03.986516 38124 net.cpp:596] inception_4a/3x3 <- inception_4a/3x3_reduce
I0123 12:18:03.986528 38124 net.cpp:570] inception_4a/3x3 -> inception_4a/3x3
I0123 12:18:04.007664 38124 net.cpp:210] Setting up inception_4a/3x3
I0123 12:18:04.007694 38124 net.cpp:217] Top shape: 32 208 14 14 (1304576)
I0123 12:18:04.007700 38124 net.cpp:225] Memory required for data: 1158865408
I0123 12:18:04.007711 38124 layer_factory.hpp:114] Creating layer inception_4a/relu_3x3
I0123 12:18:04.007740 38124 net.cpp:160] Creating Layer inception_4a/relu_3x3
I0123 12:18:04.007747 38124 net.cpp:596] inception_4a/relu_3x3 <- inception_4a/3x3
I0123 12:18:04.007757 38124 net.cpp:557] inception_4a/relu_3x3 -> inception_4a/3x3 (in-place)
I0123 12:18:04.007767 38124 net.cpp:210] Setting up inception_4a/relu_3x3
I0123 12:18:04.007776 38124 net.cpp:217] Top shape: 32 208 14 14 (1304576)
I0123 12:18:04.007783 38124 net.cpp:225] Memory required for data: 1164083712
I0123 12:18:04.007791 38124 layer_factory.hpp:114] Creating layer inception_4a/5x5_reduce
I0123 12:18:04.007807 38124 net.cpp:160] Creating Layer inception_4a/5x5_reduce
I0123 12:18:04.007814 38124 net.cpp:596] inception_4a/5x5_reduce <- pool3/3x3_s2_pool3/3x3_s2_0_split_2
I0123 12:18:04.007827 38124 net.cpp:570] inception_4a/5x5_reduce -> inception_4a/5x5_reduce
I0123 12:18:04.014055 38124 net.cpp:210] Setting up inception_4a/5x5_reduce
I0123 12:18:04.014071 38124 net.cpp:217] Top shape: 32 16 14 14 (100352)
I0123 12:18:04.014078 38124 net.cpp:225] Memory required for data: 1164485120
I0123 12:18:04.014094 38124 layer_factory.hpp:114] Creating layer inception_4a/relu_5x5_reduce
I0123 12:18:04.014122 38124 net.cpp:160] Creating Layer inception_4a/relu_5x5_reduce
I0123 12:18:04.014134 38124 net.cpp:596] inception_4a/relu_5x5_reduce <- inception_4a/5x5_reduce
I0123 12:18:04.014153 38124 net.cpp:557] inception_4a/relu_5x5_reduce -> inception_4a/5x5_reduce (in-place)
I0123 12:18:04.014163 38124 net.cpp:210] Setting up inception_4a/relu_5x5_reduce
I0123 12:18:04.014178 38124 net.cpp:217] Top shape: 32 16 14 14 (100352)
I0123 12:18:04.014186 38124 net.cpp:225] Memory required for data: 1164886528
I0123 12:18:04.014194 38124 layer_factory.hpp:114] Creating layer inception_4a/5x5
I0123 12:18:04.014209 38124 net.cpp:160] Creating Layer inception_4a/5x5
I0123 12:18:04.014217 38124 net.cpp:596] inception_4a/5x5 <- inception_4a/5x5_reduce
I0123 12:18:04.014230 38124 net.cpp:570] inception_4a/5x5 -> inception_4a/5x5
I0123 12:18:04.020134 38124 net.cpp:210] Setting up inception_4a/5x5
I0123 12:18:04.020150 38124 net.cpp:217] Top shape: 32 48 14 14 (301056)
I0123 12:18:04.020157 38124 net.cpp:225] Memory required for data: 1166090752
I0123 12:18:04.020167 38124 layer_factory.hpp:114] Creating layer inception_4a/relu_5x5
I0123 12:18:04.020201 38124 net.cpp:160] Creating Layer inception_4a/relu_5x5
I0123 12:18:04.020210 38124 net.cpp:596] inception_4a/relu_5x5 <- inception_4a/5x5
I0123 12:18:04.020226 38124 net.cpp:557] inception_4a/relu_5x5 -> inception_4a/5x5 (in-place)
I0123 12:18:04.020236 38124 net.cpp:210] Setting up inception_4a/relu_5x5
I0123 12:18:04.020246 38124 net.cpp:217] Top shape: 32 48 14 14 (301056)
I0123 12:18:04.020252 38124 net.cpp:225] Memory required for data: 1167294976
I0123 12:18:04.020261 38124 layer_factory.hpp:114] Creating layer inception_4a/pool
I0123 12:18:04.020298 38124 net.cpp:160] Creating Layer inception_4a/pool
I0123 12:18:04.020308 38124 net.cpp:596] inception_4a/pool <- pool3/3x3_s2_pool3/3x3_s2_0_split_3
I0123 12:18:04.020318 38124 net.cpp:570] inception_4a/pool -> inception_4a/pool
I0123 12:18:04.020331 38124 net.cpp:210] Setting up inception_4a/pool
I0123 12:18:04.020340 38124 net.cpp:217] Top shape: 32 480 14 14 (3010560)
I0123 12:18:04.020349 38124 net.cpp:225] Memory required for data: 1179337216
I0123 12:18:04.020355 38124 layer_factory.hpp:114] Creating layer inception_4a/pool_proj
I0123 12:18:04.020371 38124 net.cpp:160] Creating Layer inception_4a/pool_proj
I0123 12:18:04.020380 38124 net.cpp:596] inception_4a/pool_proj <- inception_4a/pool
I0123 12:18:04.020390 38124 net.cpp:570] inception_4a/pool_proj -> inception_4a/pool_proj
I0123 12:18:04.028373 38124 net.cpp:210] Setting up inception_4a/pool_proj
I0123 12:18:04.028388 38124 net.cpp:217] Top shape: 32 64 14 14 (401408)
I0123 12:18:04.028395 38124 net.cpp:225] Memory required for data: 1180942848
I0123 12:18:04.028405 38124 layer_factory.hpp:114] Creating layer inception_4a/relu_pool_proj
I0123 12:18:04.028424 38124 net.cpp:160] Creating Layer inception_4a/relu_pool_proj
I0123 12:18:04.028431 38124 net.cpp:596] inception_4a/relu_pool_proj <- inception_4a/pool_proj
I0123 12:18:04.028444 38124 net.cpp:557] inception_4a/relu_pool_proj -> inception_4a/pool_proj (in-place)
I0123 12:18:04.028455 38124 net.cpp:210] Setting up inception_4a/relu_pool_proj
I0123 12:18:04.028462 38124 net.cpp:217] Top shape: 32 64 14 14 (401408)
I0123 12:18:04.028470 38124 net.cpp:225] Memory required for data: 1182548480
I0123 12:18:04.028477 38124 layer_factory.hpp:114] Creating layer inception_4a/output
I0123 12:18:04.028487 38124 net.cpp:160] Creating Layer inception_4a/output
I0123 12:18:04.028496 38124 net.cpp:596] inception_4a/output <- inception_4a/1x1
I0123 12:18:04.028504 38124 net.cpp:596] inception_4a/output <- inception_4a/3x3
I0123 12:18:04.028512 38124 net.cpp:596] inception_4a/output <- inception_4a/5x5
I0123 12:18:04.028520 38124 net.cpp:596] inception_4a/output <- inception_4a/pool_proj
I0123 12:18:04.028529 38124 net.cpp:570] inception_4a/output -> inception_4a/output
I0123 12:18:04.028542 38124 net.cpp:210] Setting up inception_4a/output
I0123 12:18:04.028550 38124 net.cpp:217] Top shape: 32 512 14 14 (3211264)
I0123 12:18:04.028558 38124 net.cpp:225] Memory required for data: 1195393536
I0123 12:18:04.028564 38124 layer_factory.hpp:114] Creating layer inception_4a/output_inception_4a/output_0_split
I0123 12:18:04.028584 38124 net.cpp:160] Creating Layer inception_4a/output_inception_4a/output_0_split
I0123 12:18:04.028594 38124 net.cpp:596] inception_4a/output_inception_4a/output_0_split <- inception_4a/output
I0123 12:18:04.028605 38124 net.cpp:570] inception_4a/output_inception_4a/output_0_split -> inception_4a/output_inception_4a/output_0_split_0
I0123 12:18:04.028616 38124 net.cpp:570] inception_4a/output_inception_4a/output_0_split -> inception_4a/output_inception_4a/output_0_split_1
I0123 12:18:04.028628 38124 net.cpp:570] inception_4a/output_inception_4a/output_0_split -> inception_4a/output_inception_4a/output_0_split_2
I0123 12:18:04.028638 38124 net.cpp:570] inception_4a/output_inception_4a/output_0_split -> inception_4a/output_inception_4a/output_0_split_3
I0123 12:18:04.028650 38124 net.cpp:570] inception_4a/output_inception_4a/output_0_split -> inception_4a/output_inception_4a/output_0_split_4
I0123 12:18:04.028661 38124 net.cpp:210] Setting up inception_4a/output_inception_4a/output_0_split
I0123 12:18:04.028671 38124 net.cpp:217] Top shape: 32 512 14 14 (3211264)
I0123 12:18:04.028681 38124 net.cpp:217] Top shape: 32 512 14 14 (3211264)
I0123 12:18:04.028688 38124 net.cpp:217] Top shape: 32 512 14 14 (3211264)
I0123 12:18:04.028697 38124 net.cpp:217] Top shape: 32 512 14 14 (3211264)
I0123 12:18:04.028704 38124 net.cpp:217] Top shape: 32 512 14 14 (3211264)
I0123 12:18:04.028712 38124 net.cpp:225] Memory required for data: 1259618816
I0123 12:18:04.028718 38124 layer_factory.hpp:114] Creating layer loss1/ave_pool
I0123 12:18:04.028750 38124 net.cpp:160] Creating Layer loss1/ave_pool
I0123 12:18:04.028760 38124 net.cpp:596] loss1/ave_pool <- inception_4a/output_inception_4a/output_0_split_0
I0123 12:18:04.028771 38124 net.cpp:570] loss1/ave_pool -> loss1/ave_pool
I0123 12:18:04.028784 38124 net.cpp:210] Setting up loss1/ave_pool
I0123 12:18:04.028794 38124 net.cpp:217] Top shape: 32 512 4 4 (262144)
I0123 12:18:04.028801 38124 net.cpp:225] Memory required for data: 1260667392
I0123 12:18:04.028808 38124 layer_factory.hpp:114] Creating layer loss1/conv
I0123 12:18:04.028821 38124 net.cpp:160] Creating Layer loss1/conv
I0123 12:18:04.028830 38124 net.cpp:596] loss1/conv <- loss1/ave_pool
I0123 12:18:04.028841 38124 net.cpp:570] loss1/conv -> loss1/conv
I0123 12:18:04.033388 38124 net.cpp:210] Setting up loss1/conv
I0123 12:18:04.033414 38124 net.cpp:217] Top shape: 32 128 4 4 (65536)
I0123 12:18:04.033421 38124 net.cpp:225] Memory required for data: 1260929536
I0123 12:18:04.033432 38124 layer_factory.hpp:114] Creating layer loss1/relu_conv
I0123 12:18:04.033449 38124 net.cpp:160] Creating Layer loss1/relu_conv
I0123 12:18:04.033457 38124 net.cpp:596] loss1/relu_conv <- loss1/conv
I0123 12:18:04.033466 38124 net.cpp:557] loss1/relu_conv -> loss1/conv (in-place)
I0123 12:18:04.033478 38124 net.cpp:210] Setting up loss1/relu_conv
I0123 12:18:04.033486 38124 net.cpp:217] Top shape: 32 128 4 4 (65536)
I0123 12:18:04.033493 38124 net.cpp:225] Memory required for data: 1261191680
I0123 12:18:04.033500 38124 layer_factory.hpp:114] Creating layer loss1/fc
I0123 12:18:04.033527 38124 net.cpp:160] Creating Layer loss1/fc
I0123 12:18:04.033535 38124 net.cpp:596] loss1/fc <- loss1/conv
I0123 12:18:04.033546 38124 net.cpp:570] loss1/fc -> loss1/fc
I0123 12:18:04.051604 38124 net.cpp:210] Setting up loss1/fc
I0123 12:18:04.051630 38124 net.cpp:217] Top shape: 32 1024 (32768)
I0123 12:18:04.051637 38124 net.cpp:225] Memory required for data: 1261322752
I0123 12:18:04.051650 38124 layer_factory.hpp:114] Creating layer loss1/relu_fc
I0123 12:18:04.051662 38124 net.cpp:160] Creating Layer loss1/relu_fc
I0123 12:18:04.051671 38124 net.cpp:596] loss1/relu_fc <- loss1/fc
I0123 12:18:04.051682 38124 net.cpp:557] loss1/relu_fc -> loss1/fc (in-place)
I0123 12:18:04.051694 38124 net.cpp:210] Setting up loss1/relu_fc
I0123 12:18:04.051703 38124 net.cpp:217] Top shape: 32 1024 (32768)
I0123 12:18:04.051710 38124 net.cpp:225] Memory required for data: 1261453824
I0123 12:18:04.051725 38124 layer_factory.hpp:114] Creating layer loss1/drop_fc
I0123 12:18:04.051746 38124 net.cpp:160] Creating Layer loss1/drop_fc
I0123 12:18:04.051754 38124 net.cpp:596] loss1/drop_fc <- loss1/fc
I0123 12:18:04.051766 38124 net.cpp:557] loss1/drop_fc -> loss1/fc (in-place)
I0123 12:18:04.051786 38124 net.cpp:210] Setting up loss1/drop_fc
I0123 12:18:04.051795 38124 net.cpp:217] Top shape: 32 1024 (32768)
I0123 12:18:04.051802 38124 net.cpp:225] Memory required for data: 1261584896
I0123 12:18:04.051810 38124 layer_factory.hpp:114] Creating layer loss1/classifier
I0123 12:18:04.051823 38124 net.cpp:160] Creating Layer loss1/classifier
I0123 12:18:04.051831 38124 net.cpp:596] loss1/classifier <- loss1/fc
I0123 12:18:04.051843 38124 net.cpp:570] loss1/classifier -> loss1/classifier
I0123 12:18:04.060964 38124 net.cpp:210] Setting up loss1/classifier
I0123 12:18:04.060989 38124 net.cpp:217] Top shape: 32 1000 (32000)
I0123 12:18:04.061002 38124 net.cpp:225] Memory required for data: 1261712896
I0123 12:18:04.061013 38124 layer_factory.hpp:114] Creating layer loss1/loss
I0123 12:18:04.061040 38124 net.cpp:160] Creating Layer loss1/loss
I0123 12:18:04.061048 38124 net.cpp:596] loss1/loss <- loss1/classifier
I0123 12:18:04.061058 38124 net.cpp:596] loss1/loss <- label_data_1_split_0
I0123 12:18:04.061069 38124 net.cpp:570] loss1/loss -> loss1/loss1
…
I0123 12:18:04.068862 38124 net.cpp:217] Top shape: (1)
I0123 12:18:04.068886 38124 net.cpp:220]     with loss weight 0.3
I0123 12:18:04.068938 38124 net.cpp:225] Memory required for data: 1261712900
I0123 12:18:04.068946 38124 layer_factory.hpp:114] Creating layer inception_4b/1x1
I0123 12:18:04.068970 38124 net.cpp:160] Creating Layer inception_4b/1x1
I0123 12:18:04.068980 38124 net.cpp:596] inception_4b/1x1 <- inception_4a/output_inception_4a/output_0_split_1
I0123 12:18:04.068992 38124 net.cpp:570] inception_4b/1x1 -> inception_4b/1x1
I0123 12:18:04.078101 38124 net.cpp:210] Setting up inception_4b/1x1
I0123 12:18:04.078125 38124 net.cpp:217] Top shape: 32 160 14 14 (1003520)
I0123 12:18:04.078132 38124 net.cpp:225] Memory required for data: 1265726980
I0123 12:18:04.078151 38124 layer_factory.hpp:114] Creating layer inception_4b/relu_1x1
I0123 12:18:04.078171 38124 net.cpp:160] Creating Layer inception_4b/relu_1x1
I0123 12:18:04.078268 38124 net.cpp:596] inception_4b/relu_1x1 <- inception_4b/1x1
I0123 12:18:04.078284 38124 net.cpp:557] inception_4b/relu_1x1 -> inception_4b/1x1 (in-place)
I0123 12:18:04.078294 38124 net.cpp:210] Setting up inception_4b/relu_1x1
I0123 12:18:04.078303 38124 net.cpp:217] Top shape: 32 160 14 14 (1003520)
I0123 12:18:04.078310 38124 net.cpp:225] Memory required for data: 1269741060
I0123 12:18:04.078318 38124 layer_factory.hpp:114] Creating layer inception_4b/3x3_reduce
I0123 12:18:04.078332 38124 net.cpp:160] Creating Layer inception_4b/3x3_reduce
I0123 12:18:04.078341 38124 net.cpp:596] inception_4b/3x3_reduce <- inception_4a/output_inception_4a/output_0_split_2
I0123 12:18:04.078351 38124 net.cpp:570] inception_4b/3x3_reduce -> inception_4b/3x3_reduce
I0123 12:18:04.086863 38124 net.cpp:210] Setting up inception_4b/3x3_reduce
I0123 12:18:04.086877 38124 net.cpp:217] Top shape: 32 112 14 14 (702464)
I0123 12:18:04.086884 38124 net.cpp:225] Memory required for data: 1272550916
I0123 12:18:04.086895 38124 layer_factory.hpp:114] Creating layer inception_4b/relu_3x3_reduce
I0123 12:18:04.086920 38124 net.cpp:160] Creating Layer inception_4b/relu_3x3_reduce
I0123 12:18:04.086928 38124 net.cpp:596] inception_4b/relu_3x3_reduce <- inception_4b/3x3_reduce
I0123 12:18:04.086942 38124 net.cpp:557] inception_4b/relu_3x3_reduce -> inception_4b/3x3_reduce (in-place)
I0123 12:18:04.086953 38124 net.cpp:210] Setting up inception_4b/relu_3x3_reduce
I0123 12:18:04.086962 38124 net.cpp:217] Top shape: 32 112 14 14 (702464)
I0123 12:18:04.086969 38124 net.cpp:225] Memory required for data: 1275360772
I0123 12:18:04.086977 38124 layer_factory.hpp:114] Creating layer inception_4b/3x3
I0123 12:18:04.086993 38124 net.cpp:160] Creating Layer inception_4b/3x3
I0123 12:18:04.087002 38124 net.cpp:596] inception_4b/3x3 <- inception_4b/3x3_reduce
I0123 12:18:04.087011 38124 net.cpp:570] inception_4b/3x3 -> inception_4b/3x3
I0123 12:18:04.107884 38124 net.cpp:210] Setting up inception_4b/3x3
I0123 12:18:04.107900 38124 net.cpp:217] Top shape: 32 224 14 14 (1404928)
I0123 12:18:04.107908 38124 net.cpp:225] Memory required for data: 1280980484
I0123 12:18:04.107918 38124 layer_factory.hpp:114] Creating layer inception_4b/relu_3x3
I0123 12:18:04.107929 38124 net.cpp:160] Creating Layer inception_4b/relu_3x3
I0123 12:18:04.107938 38124 net.cpp:596] inception_4b/relu_3x3 <- inception_4b/3x3
I0123 12:18:04.107946 38124 net.cpp:557] inception_4b/relu_3x3 -> inception_4b/3x3 (in-place)
I0123 12:18:04.107957 38124 net.cpp:210] Setting up inception_4b/relu_3x3
I0123 12:18:04.107966 38124 net.cpp:217] Top shape: 32 224 14 14 (1404928)
I0123 12:18:04.107972 38124 net.cpp:225] Memory required for data: 1286600196
I0123 12:18:04.107980 38124 layer_factory.hpp:114] Creating layer inception_4b/5x5_reduce
I0123 12:18:04.107995 38124 net.cpp:160] Creating Layer inception_4b/5x5_reduce
I0123 12:18:04.108003 38124 net.cpp:596] inception_4b/5x5_reduce <- inception_4a/output_inception_4a/output_0_split_3
I0123 12:18:04.108016 38124 net.cpp:570] inception_4b/5x5_reduce -> inception_4b/5x5_reduce
I0123 12:18:04.113926 38124 net.cpp:210] Setting up inception_4b/5x5_reduce
I0123 12:18:04.113960 38124 net.cpp:217] Top shape: 32 24 14 14 (150528)
I0123 12:18:04.113975 38124 net.cpp:225] Memory required for data: 1287202308
I0123 12:18:04.113986 38124 layer_factory.hpp:114] Creating layer inception_4b/relu_5x5_reduce
I0123 12:18:04.113997 38124 net.cpp:160] Creating Layer inception_4b/relu_5x5_reduce
I0123 12:18:04.114006 38124 net.cpp:596] inception_4b/relu_5x5_reduce <- inception_4b/5x5_reduce
I0123 12:18:04.114017 38124 net.cpp:557] inception_4b/relu_5x5_reduce -> inception_4b/5x5_reduce (in-place)
I0123 12:18:04.114027 38124 net.cpp:210] Setting up inception_4b/relu_5x5_reduce
I0123 12:18:04.114037 38124 net.cpp:217] Top shape: 32 24 14 14 (150528)
I0123 12:18:04.114043 38124 net.cpp:225] Memory required for data: 1287804420
I0123 12:18:04.114050 38124 layer_factory.hpp:114] Creating layer inception_4b/5x5
I0123 12:18:04.114066 38124 net.cpp:160] Creating Layer inception_4b/5x5
I0123 12:18:04.114074 38124 net.cpp:596] inception_4b/5x5 <- inception_4b/5x5_reduce
I0123 12:18:04.114084 38124 net.cpp:570] inception_4b/5x5 -> inception_4b/5x5
I0123 12:18:04.121868 38124 net.cpp:210] Setting up inception_4b/5x5
I0123 12:18:04.121883 38124 net.cpp:217] Top shape: 32 64 14 14 (401408)
I0123 12:18:04.121891 38124 net.cpp:225] Memory required for data: 1289410052
I0123 12:18:04.121901 38124 layer_factory.hpp:114] Creating layer inception_4b/relu_5x5
I0123 12:18:04.121925 38124 net.cpp:160] Creating Layer inception_4b/relu_5x5
I0123 12:18:04.121932 38124 net.cpp:596] inception_4b/relu_5x5 <- inception_4b/5x5
I0123 12:18:04.121944 38124 net.cpp:557] inception_4b/relu_5x5 -> inception_4b/5x5 (in-place)
I0123 12:18:04.121954 38124 net.cpp:210] Setting up inception_4b/relu_5x5
I0123 12:18:04.121963 38124 net.cpp:217] Top shape: 32 64 14 14 (401408)
I0123 12:18:04.121970 38124 net.cpp:225] Memory required for data: 1291015684
I0123 12:18:04.121978 38124 layer_factory.hpp:114] Creating layer inception_4b/pool
I0123 12:18:04.122043 38124 net.cpp:160] Creating Layer inception_4b/pool
I0123 12:18:04.122052 38124 net.cpp:596] inception_4b/pool <- inception_4a/output_inception_4a/output_0_split_4
I0123 12:18:04.122064 38124 net.cpp:570] inception_4b/pool -> inception_4b/pool
I0123 12:18:04.122087 38124 net.cpp:210] Setting up inception_4b/pool
I0123 12:18:04.122097 38124 net.cpp:217] Top shape: 32 512 14 14 (3211264)
I0123 12:18:04.122104 38124 net.cpp:225] Memory required for data: 1303860740
I0123 12:18:04.122112 38124 layer_factory.hpp:114] Creating layer inception_4b/pool_proj
I0123 12:18:04.122129 38124 net.cpp:160] Creating Layer inception_4b/pool_proj
I0123 12:18:04.122138 38124 net.cpp:596] inception_4b/pool_proj <- inception_4b/pool
I0123 12:18:04.122148 38124 net.cpp:570] inception_4b/pool_proj -> inception_4b/pool_proj
I0123 12:18:04.129266 38124 net.cpp:210] Setting up inception_4b/pool_proj
I0123 12:18:04.129281 38124 net.cpp:217] Top shape: 32 64 14 14 (401408)
I0123 12:18:04.129287 38124 net.cpp:225] Memory required for data: 1305466372
I0123 12:18:04.129298 38124 layer_factory.hpp:114] Creating layer inception_4b/relu_pool_proj
I0123 12:18:04.129317 38124 net.cpp:160] Creating Layer inception_4b/relu_pool_proj
I0123 12:18:04.129331 38124 net.cpp:596] inception_4b/relu_pool_proj <- inception_4b/pool_proj
I0123 12:18:04.129343 38124 net.cpp:557] inception_4b/relu_pool_proj -> inception_4b/pool_proj (in-place)
I0123 12:18:04.129354 38124 net.cpp:210] Setting up inception_4b/relu_pool_proj
I0123 12:18:04.129362 38124 net.cpp:217] Top shape: 32 64 14 14 (401408)
I0123 12:18:04.129369 38124 net.cpp:225] Memory required for data: 1307072004
I0123 12:18:04.129376 38124 layer_factory.hpp:114] Creating layer inception_4b/output
I0123 12:18:04.129389 38124 net.cpp:160] Creating Layer inception_4b/output
I0123 12:18:04.129396 38124 net.cpp:596] inception_4b/output <- inception_4b/1x1
I0123 12:18:04.129405 38124 net.cpp:596] inception_4b/output <- inception_4b/3x3
I0123 12:18:04.129412 38124 net.cpp:596] inception_4b/output <- inception_4b/5x5
I0123 12:18:04.129421 38124 net.cpp:596] inception_4b/output <- inception_4b/pool_proj
I0123 12:18:04.129439 38124 net.cpp:570] inception_4b/output -> inception_4b/output
I0123 12:18:04.129459 38124 net.cpp:210] Setting up inception_4b/output
I0123 12:18:04.129469 38124 net.cpp:217] Top shape: 32 512 14 14 (3211264)
I0123 12:18:04.129477 38124 net.cpp:225] Memory required for data: 1319917060
I0123 12:18:04.129483 38124 layer_factory.hpp:114] Creating layer inception_4b/output_inception_4b/output_0_split
I0123 12:18:04.129495 38124 net.cpp:160] Creating Layer inception_4b/output_inception_4b/output_0_split
I0123 12:18:04.129504 38124 net.cpp:596] inception_4b/output_inception_4b/output_0_split <- inception_4b/output
I0123 12:18:04.129513 38124 net.cpp:570] inception_4b/output_inception_4b/output_0_split -> inception_4b/output_inception_4b/output_0_split_0
I0123 12:18:04.129529 38124 net.cpp:570] inception_4b/output_inception_4b/output_0_split -> inception_4b/output_inception_4b/output_0_split_1
I0123 12:18:04.129540 38124 net.cpp:570] inception_4b/output_inception_4b/output_0_split -> inception_4b/output_inception_4b/output_0_split_2
I0123 12:18:04.129551 38124 net.cpp:570] inception_4b/output_inception_4b/output_0_split -> inception_4b/output_inception_4b/output_0_split_3
I0123 12:18:04.129564 38124 net.cpp:210] Setting up inception_4b/output_inception_4b/output_0_split
I0123 12:18:04.129572 38124 net.cpp:217] Top shape: 32 512 14 14 (3211264)
I0123 12:18:04.129581 38124 net.cpp:217] Top shape: 32 512 14 14 (3211264)
I0123 12:18:04.129590 38124 net.cpp:217] Top shape: 32 512 14 14 (3211264)
I0123 12:18:04.129596 38124 net.cpp:217] Top shape: 32 512 14 14 (3211264)
I0123 12:18:04.129603 38124 net.cpp:225] Memory required for data: 1371297284
I0123 12:18:04.129611 38124 layer_factory.hpp:114] Creating layer inception_4c/1x1
I0123 12:18:04.129626 38124 net.cpp:160] Creating Layer inception_4c/1x1
I0123 12:18:04.129633 38124 net.cpp:596] inception_4c/1x1 <- inception_4b/output_inception_4b/output_0_split_0
I0123 12:18:04.129647 38124 net.cpp:570] inception_4c/1x1 -> inception_4c/1x1
I0123 12:18:04.138386 38124 net.cpp:210] Setting up inception_4c/1x1
I0123 12:18:04.138401 38124 net.cpp:217] Top shape: 32 128 14 14 (802816)
I0123 12:18:04.138408 38124 net.cpp:225] Memory required for data: 1374508548
I0123 12:18:04.138418 38124 layer_factory.hpp:114] Creating layer inception_4c/relu_1x1
I0123 12:18:04.138438 38124 net.cpp:160] Creating Layer inception_4c/relu_1x1
I0123 12:18:04.138447 38124 net.cpp:596] inception_4c/relu_1x1 <- inception_4c/1x1
I0123 12:18:04.138456 38124 net.cpp:557] inception_4c/relu_1x1 -> inception_4c/1x1 (in-place)
I0123 12:18:04.138466 38124 net.cpp:210] Setting up inception_4c/relu_1x1
I0123 12:18:04.138475 38124 net.cpp:217] Top shape: 32 128 14 14 (802816)
I0123 12:18:04.138483 38124 net.cpp:225] Memory required for data: 1377719812
I0123 12:18:04.138490 38124 layer_factory.hpp:114] Creating layer inception_4c/3x3_reduce
I0123 12:18:04.138506 38124 net.cpp:160] Creating Layer inception_4c/3x3_reduce
I0123 12:18:04.138514 38124 net.cpp:596] inception_4c/3x3_reduce <- inception_4b/output_inception_4b/output_0_split_1
I0123 12:18:04.138526 38124 net.cpp:570] inception_4c/3x3_reduce -> inception_4c/3x3_reduce
I0123 12:18:04.147305 38124 net.cpp:210] Setting up inception_4c/3x3_reduce
I0123 12:18:04.147320 38124 net.cpp:217] Top shape: 32 128 14 14 (802816)
I0123 12:18:04.147327 38124 net.cpp:225] Memory required for data: 1380931076
I0123 12:18:04.147337 38124 layer_factory.hpp:114] Creating layer inception_4c/relu_3x3_reduce
I0123 12:18:04.147348 38124 net.cpp:160] Creating Layer inception_4c/relu_3x3_reduce
I0123 12:18:04.147357 38124 net.cpp:596] inception_4c/relu_3x3_reduce <- inception_4c/3x3_reduce
I0123 12:18:04.147367 38124 net.cpp:557] inception_4c/relu_3x3_reduce -> inception_4c/3x3_reduce (in-place)
I0123 12:18:04.147377 38124 net.cpp:210] Setting up inception_4c/relu_3x3_reduce
I0123 12:18:04.147385 38124 net.cpp:217] Top shape: 32 128 14 14 (802816)
I0123 12:18:04.147392 38124 net.cpp:225] Memory required for data: 1384142340
I0123 12:18:04.147399 38124 layer_factory.hpp:114] Creating layer inception_4c/3x3
I0123 12:18:04.147424 38124 net.cpp:160] Creating Layer inception_4c/3x3
I0123 12:18:04.147436 38124 net.cpp:596] inception_4c/3x3 <- inception_4c/3x3_reduce
I0123 12:18:04.147447 38124 net.cpp:570] inception_4c/3x3 -> inception_4c/3x3
I0123 12:18:04.173379 38124 net.cpp:210] Setting up inception_4c/3x3
I0123 12:18:04.173394 38124 net.cpp:217] Top shape: 32 256 14 14 (1605632)
I0123 12:18:04.173403 38124 net.cpp:225] Memory required for data: 1390564868
I0123 12:18:04.173457 38124 layer_factory.hpp:114] Creating layer inception_4c/relu_3x3
I0123 12:18:04.173471 38124 net.cpp:160] Creating Layer inception_4c/relu_3x3
I0123 12:18:04.173480 38124 net.cpp:596] inception_4c/relu_3x3 <- inception_4c/3x3
I0123 12:18:04.173488 38124 net.cpp:557] inception_4c/relu_3x3 -> inception_4c/3x3 (in-place)
I0123 12:18:04.173499 38124 net.cpp:210] Setting up inception_4c/relu_3x3
I0123 12:18:04.173508 38124 net.cpp:217] Top shape: 32 256 14 14 (1605632)
I0123 12:18:04.173516 38124 net.cpp:225] Memory required for data: 1396987396
I0123 12:18:04.173523 38124 layer_factory.hpp:114] Creating layer inception_4c/5x5_reduce
I0123 12:18:04.173537 38124 net.cpp:160] Creating Layer inception_4c/5x5_reduce
I0123 12:18:04.173544 38124 net.cpp:596] inception_4c/5x5_reduce <- inception_4b/output_inception_4b/output_0_split_2
I0123 12:18:04.173557 38124 net.cpp:570] inception_4c/5x5_reduce -> inception_4c/5x5_reduce
I0123 12:18:04.179693 38124 net.cpp:210] Setting up inception_4c/5x5_reduce
I0123 12:18:04.179708 38124 net.cpp:217] Top shape: 32 24 14 14 (150528)
I0123 12:18:04.179715 38124 net.cpp:225] Memory required for data: 1397589508
I0123 12:18:04.179726 38124 layer_factory.hpp:114] Creating layer inception_4c/relu_5x5_reduce
I0123 12:18:04.179752 38124 net.cpp:160] Creating Layer inception_4c/relu_5x5_reduce
I0123 12:18:04.179761 38124 net.cpp:596] inception_4c/relu_5x5_reduce <- inception_4c/5x5_reduce
I0123 12:18:04.179770 38124 net.cpp:557] inception_4c/relu_5x5_reduce -> inception_4c/5x5_reduce (in-place)
I0123 12:18:04.179781 38124 net.cpp:210] Setting up inception_4c/relu_5x5_reduce
I0123 12:18:04.179790 38124 net.cpp:217] Top shape: 32 24 14 14 (150528)
I0123 12:18:04.179797 38124 net.cpp:225] Memory required for data: 1398191620
I0123 12:18:04.179805 38124 layer_factory.hpp:114] Creating layer inception_4c/5x5
I0123 12:18:04.179819 38124 net.cpp:160] Creating Layer inception_4c/5x5
I0123 12:18:04.179827 38124 net.cpp:596] inception_4c/5x5 <- inception_4c/5x5_reduce
I0123 12:18:04.179839 38124 net.cpp:570] inception_4c/5x5 -> inception_4c/5x5
I0123 12:18:04.188275 38124 net.cpp:210] Setting up inception_4c/5x5
I0123 12:18:04.188292 38124 net.cpp:217] Top shape: 32 64 14 14 (401408)
I0123 12:18:04.188298 38124 net.cpp:225] Memory required for data: 1399797252
I0123 12:18:04.188308 38124 layer_factory.hpp:114] Creating layer inception_4c/relu_5x5
I0123 12:18:04.188321 38124 net.cpp:160] Creating Layer inception_4c/relu_5x5
I0123 12:18:04.188329 38124 net.cpp:596] inception_4c/relu_5x5 <- inception_4c/5x5
I0123 12:18:04.188339 38124 net.cpp:557] inception_4c/relu_5x5 -> inception_4c/5x5 (in-place)
I0123 12:18:04.188349 38124 net.cpp:210] Setting up inception_4c/relu_5x5
I0123 12:18:04.188359 38124 net.cpp:217] Top shape: 32 64 14 14 (401408)
I0123 12:18:04.188365 38124 net.cpp:225] Memory required for data: 1401402884
I0123 12:18:04.188372 38124 layer_factory.hpp:114] Creating layer inception_4c/pool
I0123 12:18:04.188400 38124 net.cpp:160] Creating Layer inception_4c/pool
I0123 12:18:04.188410 38124 net.cpp:596] inception_4c/pool <- inception_4b/output_inception_4b/output_0_split_3
I0123 12:18:04.188421 38124 net.cpp:570] inception_4c/pool -> inception_4c/pool
I0123 12:18:04.188434 38124 net.cpp:210] Setting up inception_4c/pool
I0123 12:18:04.188444 38124 net.cpp:217] Top shape: 32 512 14 14 (3211264)
I0123 12:18:04.188452 38124 net.cpp:225] Memory required for data: 1414247940
I0123 12:18:04.188458 38124 layer_factory.hpp:114] Creating layer inception_4c/pool_proj
I0123 12:18:04.188473 38124 net.cpp:160] Creating Layer inception_4c/pool_proj
I0123 12:18:04.188491 38124 net.cpp:596] inception_4c/pool_proj <- inception_4c/pool
I0123 12:18:04.188508 38124 net.cpp:570] inception_4c/pool_proj -> inception_4c/pool_proj
I0123 12:18:04.195533 38124 net.cpp:210] Setting up inception_4c/pool_proj
I0123 12:18:04.195549 38124 net.cpp:217] Top shape: 32 64 14 14 (401408)
I0123 12:18:04.195555 38124 net.cpp:225] Memory required for data: 1415853572
I0123 12:18:04.195566 38124 layer_factory.hpp:114] Creating layer inception_4c/relu_pool_proj
I0123 12:18:04.195585 38124 net.cpp:160] Creating Layer inception_4c/relu_pool_proj
I0123 12:18:04.195595 38124 net.cpp:596] inception_4c/relu_pool_proj <- inception_4c/pool_proj
I0123 12:18:04.195603 38124 net.cpp:557] inception_4c/relu_pool_proj -> inception_4c/pool_proj (in-place)
I0123 12:18:04.195614 38124 net.cpp:210] Setting up inception_4c/relu_pool_proj
I0123 12:18:04.195623 38124 net.cpp:217] Top shape: 32 64 14 14 (401408)
I0123 12:18:04.195631 38124 net.cpp:225] Memory required for data: 1417459204
I0123 12:18:04.195637 38124 layer_factory.hpp:114] Creating layer inception_4c/output
I0123 12:18:04.195648 38124 net.cpp:160] Creating Layer inception_4c/output
I0123 12:18:04.195655 38124 net.cpp:596] inception_4c/output <- inception_4c/1x1
I0123 12:18:04.195664 38124 net.cpp:596] inception_4c/output <- inception_4c/3x3
I0123 12:18:04.195673 38124 net.cpp:596] inception_4c/output <- inception_4c/5x5
I0123 12:18:04.195683 38124 net.cpp:596] inception_4c/output <- inception_4c/pool_proj
I0123 12:18:04.195693 38124 net.cpp:570] inception_4c/output -> inception_4c/output
I0123 12:18:04.195713 38124 net.cpp:210] Setting up inception_4c/output
I0123 12:18:04.195722 38124 net.cpp:217] Top shape: 32 512 14 14 (3211264)
I0123 12:18:04.195729 38124 net.cpp:225] Memory required for data: 1430304260
I0123 12:18:04.195736 38124 layer_factory.hpp:114] Creating layer inception_4c/output_inception_4c/output_0_split
I0123 12:18:04.195746 38124 net.cpp:160] Creating Layer inception_4c/output_inception_4c/output_0_split
I0123 12:18:04.195754 38124 net.cpp:596] inception_4c/output_inception_4c/output_0_split <- inception_4c/output
I0123 12:18:04.195768 38124 net.cpp:570] inception_4c/output_inception_4c/output_0_split -> inception_4c/output_inception_4c/output_0_split_0
I0123 12:18:04.195780 38124 net.cpp:570] inception_4c/output_inception_4c/output_0_split -> inception_4c/output_inception_4c/output_0_split_1
I0123 12:18:04.195791 38124 net.cpp:570] inception_4c/output_inception_4c/output_0_split -> inception_4c/output_inception_4c/output_0_split_2
I0123 12:18:04.195801 38124 net.cpp:570] inception_4c/output_inception_4c/output_0_split -> inception_4c/output_inception_4c/output_0_split_3
I0123 12:18:04.195811 38124 net.cpp:210] Setting up inception_4c/output_inception_4c/output_0_split
I0123 12:18:04.195821 38124 net.cpp:217] Top shape: 32 512 14 14 (3211264)
I0123 12:18:04.195828 38124 net.cpp:217] Top shape: 32 512 14 14 (3211264)
I0123 12:18:04.195837 38124 net.cpp:217] Top shape: 32 512 14 14 (3211264)
I0123 12:18:04.195844 38124 net.cpp:217] Top shape: 32 512 14 14 (3211264)
I0123 12:18:04.195852 38124 net.cpp:225] Memory required for data: 1481684484
I0123 12:18:04.195858 38124 layer_factory.hpp:114] Creating layer inception_4d/1x1
I0123 12:18:04.195874 38124 net.cpp:160] Creating Layer inception_4d/1x1
I0123 12:18:04.195883 38124 net.cpp:596] inception_4d/1x1 <- inception_4c/output_inception_4c/output_0_split_0
I0123 12:18:04.195894 38124 net.cpp:570] inception_4d/1x1 -> inception_4d/1x1
I0123 12:18:04.203972 38124 net.cpp:210] Setting up inception_4d/1x1
I0123 12:18:04.203987 38124 net.cpp:217] Top shape: 32 112 14 14 (702464)
I0123 12:18:04.203995 38124 net.cpp:225] Memory required for data: 1484494340
I0123 12:18:04.204005 38124 layer_factory.hpp:114] Creating layer inception_4d/relu_1x1
I0123 12:18:04.204037 38124 net.cpp:160] Creating Layer inception_4d/relu_1x1
I0123 12:18:04.204046 38124 net.cpp:596] inception_4d/relu_1x1 <- inception_4d/1x1
I0123 12:18:04.204057 38124 net.cpp:557] inception_4d/relu_1x1 -> inception_4d/1x1 (in-place)
I0123 12:18:04.204077 38124 net.cpp:210] Setting up inception_4d/relu_1x1
I0123 12:18:04.204111 38124 net.cpp:217] Top shape: 32 112 14 14 (702464)
I0123 12:18:04.204118 38124 net.cpp:225] Memory required for data: 1487304196
I0123 12:18:04.204125 38124 layer_factory.hpp:114] Creating layer inception_4d/3x3_reduce
I0123 12:18:04.204139 38124 net.cpp:160] Creating Layer inception_4d/3x3_reduce
I0123 12:18:04.204147 38124 net.cpp:596] inception_4d/3x3_reduce <- inception_4c/output_inception_4c/output_0_split_1
I0123 12:18:04.204162 38124 net.cpp:570] inception_4d/3x3_reduce -> inception_4d/3x3_reduce
I0123 12:18:04.213557 38124 net.cpp:210] Setting up inception_4d/3x3_reduce
I0123 12:18:04.213572 38124 net.cpp:217] Top shape: 32 144 14 14 (903168)
I0123 12:18:04.213579 38124 net.cpp:225] Memory required for data: 1490916868
I0123 12:18:04.213590 38124 layer_factory.hpp:114] Creating layer inception_4d/relu_3x3_reduce
I0123 12:18:04.213614 38124 net.cpp:160] Creating Layer inception_4d/relu_3x3_reduce
I0123 12:18:04.213630 38124 net.cpp:596] inception_4d/relu_3x3_reduce <- inception_4d/3x3_reduce
I0123 12:18:04.213641 38124 net.cpp:557] inception_4d/relu_3x3_reduce -> inception_4d/3x3_reduce (in-place)
I0123 12:18:04.213652 38124 net.cpp:210] Setting up inception_4d/relu_3x3_reduce
I0123 12:18:04.213661 38124 net.cpp:217] Top shape: 32 144 14 14 (903168)
I0123 12:18:04.213668 38124 net.cpp:225] Memory required for data: 1494529540
I0123 12:18:04.213675 38124 layer_factory.hpp:114] Creating layer inception_4d/3x3
I0123 12:18:04.213690 38124 net.cpp:160] Creating Layer inception_4d/3x3
I0123 12:18:04.213697 38124 net.cpp:596] inception_4d/3x3 <- inception_4d/3x3_reduce
I0123 12:18:04.213707 38124 net.cpp:570] inception_4d/3x3 -> inception_4d/3x3
I0123 12:18:04.245367 38124 net.cpp:210] Setting up inception_4d/3x3
I0123 12:18:04.245391 38124 net.cpp:217] Top shape: 32 288 14 14 (1806336)
I0123 12:18:04.245398 38124 net.cpp:225] Memory required for data: 1501754884
I0123 12:18:04.245409 38124 layer_factory.hpp:114] Creating layer inception_4d/relu_3x3
I0123 12:18:04.245420 38124 net.cpp:160] Creating Layer inception_4d/relu_3x3
I0123 12:18:04.245429 38124 net.cpp:596] inception_4d/relu_3x3 <- inception_4d/3x3
I0123 12:18:04.245437 38124 net.cpp:557] inception_4d/relu_3x3 -> inception_4d/3x3 (in-place)
I0123 12:18:04.245456 38124 net.cpp:210] Setting up inception_4d/relu_3x3
I0123 12:18:04.245465 38124 net.cpp:217] Top shape: 32 288 14 14 (1806336)
I0123 12:18:04.245472 38124 net.cpp:225] Memory required for data: 1508980228
I0123 12:18:04.245479 38124 layer_factory.hpp:114] Creating layer inception_4d/5x5_reduce
I0123 12:18:04.245494 38124 net.cpp:160] Creating Layer inception_4d/5x5_reduce
I0123 12:18:04.245503 38124 net.cpp:596] inception_4d/5x5_reduce <- inception_4c/output_inception_4c/output_0_split_2
I0123 12:18:04.245514 38124 net.cpp:570] inception_4d/5x5_reduce -> inception_4d/5x5_reduce
I0123 12:18:04.251971 38124 net.cpp:210] Setting up inception_4d/5x5_reduce
I0123 12:18:04.251986 38124 net.cpp:217] Top shape: 32 32 14 14 (200704)
I0123 12:18:04.251992 38124 net.cpp:225] Memory required for data: 1509783044
I0123 12:18:04.252003 38124 layer_factory.hpp:114] Creating layer inception_4d/relu_5x5_reduce
I0123 12:18:04.252020 38124 net.cpp:160] Creating Layer inception_4d/relu_5x5_reduce
I0123 12:18:04.252037 38124 net.cpp:596] inception_4d/relu_5x5_reduce <- inception_4d/5x5_reduce
I0123 12:18:04.252053 38124 net.cpp:557] inception_4d/relu_5x5_reduce -> inception_4d/5x5_reduce (in-place)
I0123 12:18:04.252063 38124 net.cpp:210] Setting up inception_4d/relu_5x5_reduce
I0123 12:18:04.252073 38124 net.cpp:217] Top shape: 32 32 14 14 (200704)
I0123 12:18:04.252079 38124 net.cpp:225] Memory required for data: 1510585860
I0123 12:18:04.252086 38124 layer_factory.hpp:114] Creating layer inception_4d/5x5
I0123 12:18:04.252102 38124 net.cpp:160] Creating Layer inception_4d/5x5
I0123 12:18:04.252110 38124 net.cpp:596] inception_4d/5x5 <- inception_4d/5x5_reduce
I0123 12:18:04.252120 38124 net.cpp:570] inception_4d/5x5 -> inception_4d/5x5
I0123 12:18:04.262552 38124 net.cpp:210] Setting up inception_4d/5x5
I0123 12:18:04.262568 38124 net.cpp:217] Top shape: 32 64 14 14 (401408)
I0123 12:18:04.262575 38124 net.cpp:225] Memory required for data: 1512191492
I0123 12:18:04.262586 38124 layer_factory.hpp:114] Creating layer inception_4d/relu_5x5
I0123 12:18:04.262598 38124 net.cpp:160] Creating Layer inception_4d/relu_5x5
I0123 12:18:04.262612 38124 net.cpp:596] inception_4d/relu_5x5 <- inception_4d/5x5
I0123 12:18:04.262624 38124 net.cpp:557] inception_4d/relu_5x5 -> inception_4d/5x5 (in-place)
I0123 12:18:04.262634 38124 net.cpp:210] Setting up inception_4d/relu_5x5
I0123 12:18:04.262643 38124 net.cpp:217] Top shape: 32 64 14 14 (401408)
I0123 12:18:04.262650 38124 net.cpp:225] Memory required for data: 1513797124
I0123 12:18:04.262658 38124 layer_factory.hpp:114] Creating layer inception_4d/pool
I0123 12:18:04.262712 38124 net.cpp:160] Creating Layer inception_4d/pool
I0123 12:18:04.262722 38124 net.cpp:596] inception_4d/pool <- inception_4c/output_inception_4c/output_0_split_3
I0123 12:18:04.262732 38124 net.cpp:570] inception_4d/pool -> inception_4d/pool
I0123 12:18:04.262744 38124 net.cpp:210] Setting up inception_4d/pool
I0123 12:18:04.262754 38124 net.cpp:217] Top shape: 32 512 14 14 (3211264)
I0123 12:18:04.262761 38124 net.cpp:225] Memory required for data: 1526642180
I0123 12:18:04.262768 38124 layer_factory.hpp:114] Creating layer inception_4d/pool_proj
I0123 12:18:04.262785 38124 net.cpp:160] Creating Layer inception_4d/pool_proj
I0123 12:18:04.262794 38124 net.cpp:596] inception_4d/pool_proj <- inception_4d/pool
I0123 12:18:04.262805 38124 net.cpp:570] inception_4d/pool_proj -> inception_4d/pool_proj
I0123 12:18:04.270254 38124 net.cpp:210] Setting up inception_4d/pool_proj
I0123 12:18:04.270269 38124 net.cpp:217] Top shape: 32 64 14 14 (401408)
I0123 12:18:04.270278 38124 net.cpp:225] Memory required for data: 1528247812
I0123 12:18:04.270288 38124 layer_factory.hpp:114] Creating layer inception_4d/relu_pool_proj
I0123 12:18:04.270299 38124 net.cpp:160] Creating Layer inception_4d/relu_pool_proj
I0123 12:18:04.270308 38124 net.cpp:596] inception_4d/relu_pool_proj <- inception_4d/pool_proj
I0123 12:18:04.270319 38124 net.cpp:557] inception_4d/relu_pool_proj -> inception_4d/pool_proj (in-place)
I0123 12:18:04.270330 38124 net.cpp:210] Setting up inception_4d/relu_pool_proj
I0123 12:18:04.270339 38124 net.cpp:217] Top shape: 32 64 14 14 (401408)
I0123 12:18:04.270346 38124 net.cpp:225] Memory required for data: 1529853444
I0123 12:18:04.270354 38124 layer_factory.hpp:114] Creating layer inception_4d/output
I0123 12:18:04.270364 38124 net.cpp:160] Creating Layer inception_4d/output
I0123 12:18:04.270372 38124 net.cpp:596] inception_4d/output <- inception_4d/1x1
I0123 12:18:04.270380 38124 net.cpp:596] inception_4d/output <- inception_4d/3x3
I0123 12:18:04.270388 38124 net.cpp:596] inception_4d/output <- inception_4d/5x5
I0123 12:18:04.270396 38124 net.cpp:596] inception_4d/output <- inception_4d/pool_proj
I0123 12:18:04.270411 38124 net.cpp:570] inception_4d/output -> inception_4d/output
I0123 12:18:04.270423 38124 net.cpp:210] Setting up inception_4d/output
I0123 12:18:04.270432 38124 net.cpp:217] Top shape: 32 528 14 14 (3311616)
I0123 12:18:04.270439 38124 net.cpp:225] Memory required for data: 1543099908
I0123 12:18:04.270447 38124 layer_factory.hpp:114] Creating layer inception_4d/output_inception_4d/output_0_split
I0123 12:18:04.270463 38124 net.cpp:160] Creating Layer inception_4d/output_inception_4d/output_0_split
I0123 12:18:04.270472 38124 net.cpp:596] inception_4d/output_inception_4d/output_0_split <- inception_4d/output
I0123 12:18:04.270483 38124 net.cpp:570] inception_4d/output_inception_4d/output_0_split -> inception_4d/output_inception_4d/output_0_split_0
I0123 12:18:04.270494 38124 net.cpp:570] inception_4d/output_inception_4d/output_0_split -> inception_4d/output_inception_4d/output_0_split_1
I0123 12:18:04.270505 38124 net.cpp:570] inception_4d/output_inception_4d/output_0_split -> inception_4d/output_inception_4d/output_0_split_2
I0123 12:18:04.270529 38124 net.cpp:570] inception_4d/output_inception_4d/output_0_split -> inception_4d/output_inception_4d/output_0_split_3
I0123 12:18:04.270539 38124 net.cpp:570] inception_4d/output_inception_4d/output_0_split -> inception_4d/output_inception_4d/output_0_split_4
I0123 12:18:04.270551 38124 net.cpp:210] Setting up inception_4d/output_inception_4d/output_0_split
I0123 12:18:04.270561 38124 net.cpp:217] Top shape: 32 528 14 14 (3311616)
I0123 12:18:04.270570 38124 net.cpp:217] Top shape: 32 528 14 14 (3311616)
I0123 12:18:04.270577 38124 net.cpp:217] Top shape: 32 528 14 14 (3311616)
I0123 12:18:04.270586 38124 net.cpp:217] Top shape: 32 528 14 14 (3311616)
I0123 12:18:04.270593 38124 net.cpp:217] Top shape: 32 528 14 14 (3311616)
I0123 12:18:04.270601 38124 net.cpp:225] Memory required for data: 1609332228
I0123 12:18:04.270608 38124 layer_factory.hpp:114] Creating layer loss2/ave_pool
I0123 12:18:04.270630 38124 net.cpp:160] Creating Layer loss2/ave_pool
I0123 12:18:04.270640 38124 net.cpp:596] loss2/ave_pool <- inception_4d/output_inception_4d/output_0_split_0
I0123 12:18:04.270653 38124 net.cpp:570] loss2/ave_pool -> loss2/ave_pool
I0123 12:18:04.270665 38124 net.cpp:210] Setting up loss2/ave_pool
I0123 12:18:04.270675 38124 net.cpp:217] Top shape: 32 528 4 4 (270336)
I0123 12:18:04.270683 38124 net.cpp:225] Memory required for data: 1610413572
I0123 12:18:04.270689 38124 layer_factory.hpp:114] Creating layer loss2/conv
I0123 12:18:04.270704 38124 net.cpp:160] Creating Layer loss2/conv
I0123 12:18:04.270714 38124 net.cpp:596] loss2/conv <- loss2/ave_pool
I0123 12:18:04.270723 38124 net.cpp:570] loss2/conv -> loss2/conv
I0123 12:18:04.275660 38124 net.cpp:210] Setting up loss2/conv
I0123 12:18:04.275676 38124 net.cpp:217] Top shape: 32 128 4 4 (65536)
I0123 12:18:04.275682 38124 net.cpp:225] Memory required for data: 1610675716
I0123 12:18:04.275693 38124 layer_factory.hpp:114] Creating layer loss2/relu_conv
I0123 12:18:04.275710 38124 net.cpp:160] Creating Layer loss2/relu_conv
I0123 12:18:04.275718 38124 net.cpp:596] loss2/relu_conv <- loss2/conv
I0123 12:18:04.275728 38124 net.cpp:557] loss2/relu_conv -> loss2/conv (in-place)
I0123 12:18:04.275738 38124 net.cpp:210] Setting up loss2/relu_conv
I0123 12:18:04.275748 38124 net.cpp:217] Top shape: 32 128 4 4 (65536)
I0123 12:18:04.275754 38124 net.cpp:225] Memory required for data: 1610937860
I0123 12:18:04.275761 38124 layer_factory.hpp:114] Creating layer loss2/fc
I0123 12:18:04.275804 38124 net.cpp:160] Creating Layer loss2/fc
I0123 12:18:04.275812 38124 net.cpp:596] loss2/fc <- loss2/conv
I0123 12:18:04.275825 38124 net.cpp:570] loss2/fc -> loss2/fc
I0123 12:18:04.295713 38124 net.cpp:210] Setting up loss2/fc
I0123 12:18:04.295740 38124 net.cpp:217] Top shape: 32 1024 (32768)
I0123 12:18:04.295748 38124 net.cpp:225] Memory required for data: 1611068932
I0123 12:18:04.295759 38124 layer_factory.hpp:114] Creating layer loss2/relu_fc
I0123 12:18:04.295773 38124 net.cpp:160] Creating Layer loss2/relu_fc
I0123 12:18:04.295780 38124 net.cpp:596] loss2/relu_fc <- loss2/fc
I0123 12:18:04.295791 38124 net.cpp:557] loss2/relu_fc -> loss2/fc (in-place)
I0123 12:18:04.295802 38124 net.cpp:210] Setting up loss2/relu_fc
I0123 12:18:04.295811 38124 net.cpp:217] Top shape: 32 1024 (32768)
I0123 12:18:04.295817 38124 net.cpp:225] Memory required for data: 1611200004
I0123 12:18:04.295825 38124 layer_factory.hpp:114] Creating layer loss2/drop_fc
I0123 12:18:04.295840 38124 net.cpp:160] Creating Layer loss2/drop_fc
I0123 12:18:04.295846 38124 net.cpp:596] loss2/drop_fc <- loss2/fc
I0123 12:18:04.295856 38124 net.cpp:557] loss2/drop_fc -> loss2/fc (in-place)
I0123 12:18:04.295871 38124 net.cpp:210] Setting up loss2/drop_fc
I0123 12:18:04.295879 38124 net.cpp:217] Top shape: 32 1024 (32768)
I0123 12:18:04.295886 38124 net.cpp:225] Memory required for data: 1611331076
I0123 12:18:04.295892 38124 layer_factory.hpp:114] Creating layer loss2/classifier
I0123 12:18:04.295904 38124 net.cpp:160] Creating Layer loss2/classifier
I0123 12:18:04.295924 38124 net.cpp:596] loss2/classifier <- loss2/fc
I0123 12:18:04.295941 38124 net.cpp:570] loss2/classifier -> loss2/classifier
I0123 12:18:04.305953 38124 net.cpp:210] Setting up loss2/classifier
I0123 12:18:04.305976 38124 net.cpp:217] Top shape: 32 1000 (32000)
I0123 12:18:04.305984 38124 net.cpp:225] Memory required for data: 1611459076
I0123 12:18:04.306001 38124 layer_factory.hpp:114] Creating layer loss2/loss
I0123 12:18:04.306015 38124 net.cpp:160] Creating Layer loss2/loss
I0123 12:18:04.306022 38124 net.cpp:596] loss2/loss <- loss2/classifier
I0123 12:18:04.306031 38124 net.cpp:596] loss2/loss <- label_data_1_split_1
I0123 12:18:04.306044 38124 net.cpp:570] loss2/loss -> loss2/loss1
I0123 12:18:04.306059 38124 layer_factory.hpp:114] Creating layer loss2/loss
I0123 12:18:04.306270 38124 net.cpp:210] Setting up loss2/loss
I0123 12:18:04.306283 38124 net.cpp:217] Top shape: (1)
I0123 12:18:04.306290 38124 net.cpp:220]     with loss weight 0.3
I0123 12:18:04.306320 38124 net.cpp:225] Memory required for data: 1611459080
I0123 12:18:04.306327 38124 layer_factory.hpp:114] Creating layer inception_4e/1x1
I0123 12:18:04.306347 38124 net.cpp:160] Creating Layer inception_4e/1x1
I0123 12:18:04.306356 38124 net.cpp:596] inception_4e/1x1 <- inception_4d/output_inception_4d/output_0_split_1
I0123 12:18:04.306366 38124 net.cpp:570] inception_4e/1x1 -> inception_4e/1x1
I0123 12:18:04.319592 38124 net.cpp:210] Setting up inception_4e/1x1
I0123 12:18:04.319615 38124 net.cpp:217] Top shape: 32 256 14 14 (1605632)
I0123 12:18:04.319623 38124 net.cpp:225] Memory required for data: 1617881608
I0123 12:18:04.319633 38124 layer_factory.hpp:114] Creating layer inception_4e/relu_1x1
I0123 12:18:04.319646 38124 net.cpp:160] Creating Layer inception_4e/relu_1x1
I0123 12:18:04.319655 38124 net.cpp:596] inception_4e/relu_1x1 <- inception_4e/1x1
I0123 12:18:04.319664 38124 net.cpp:557] inception_4e/relu_1x1 -> inception_4e/1x1 (in-place)
I0123 12:18:04.319675 38124 net.cpp:210] Setting up inception_4e/relu_1x1
I0123 12:18:04.319684 38124 net.cpp:217] Top shape: 32 256 14 14 (1605632)
I0123 12:18:04.319691 38124 net.cpp:225] Memory required for data: 1624304136
I0123 12:18:04.319699 38124 layer_factory.hpp:114] Creating layer inception_4e/3x3_reduce
I0123 12:18:04.319721 38124 net.cpp:160] Creating Layer inception_4e/3x3_reduce
I0123 12:18:04.319730 38124 net.cpp:596] inception_4e/3x3_reduce <- inception_4d/output_inception_4d/output_0_split_2
I0123 12:18:04.319742 38124 net.cpp:570] inception_4e/3x3_reduce -> inception_4e/3x3_reduce
I0123 12:18:04.329586 38124 net.cpp:210] Setting up inception_4e/3x3_reduce
I0123 12:18:04.329602 38124 net.cpp:217] Top shape: 32 160 14 14 (1003520)
I0123 12:18:04.329608 38124 net.cpp:225] Memory required for data: 1628318216
I0123 12:18:04.329618 38124 layer_factory.hpp:114] Creating layer inception_4e/relu_3x3_reduce
I0123 12:18:04.329639 38124 net.cpp:160] Creating Layer inception_4e/relu_3x3_reduce
I0123 12:18:04.329648 38124 net.cpp:596] inception_4e/relu_3x3_reduce <- inception_4e/3x3_reduce
I0123 12:18:04.329658 38124 net.cpp:557] inception_4e/relu_3x3_reduce -> inception_4e/3x3_reduce (in-place)
I0123 12:18:04.329669 38124 net.cpp:210] Setting up inception_4e/relu_3x3_reduce
I0123 12:18:04.329679 38124 net.cpp:217] Top shape: 32 160 14 14 (1003520)
I0123 12:18:04.329685 38124 net.cpp:225] Memory required for data: 1632332296
I0123 12:18:04.329692 38124 layer_factory.hpp:114] Creating layer inception_4e/3x3
I0123 12:18:04.329707 38124 net.cpp:160] Creating Layer inception_4e/3x3
I0123 12:18:04.329715 38124 net.cpp:596] inception_4e/3x3 <- inception_4e/3x3_reduce
I0123 12:18:04.329727 38124 net.cpp:570] inception_4e/3x3 -> inception_4e/3x3
I0123 12:18:04.367530 38124 net.cpp:210] Setting up inception_4e/3x3
I0123 12:18:04.367547 38124 net.cpp:217] Top shape: 32 320 14 14 (2007040)
I0123 12:18:04.367553 38124 net.cpp:225] Memory required for data: 1640360456
I0123 12:18:04.367563 38124 layer_factory.hpp:114] Creating layer inception_4e/relu_3x3
I0123 12:18:04.367581 38124 net.cpp:160] Creating Layer inception_4e/relu_3x3
I0123 12:18:04.367630 38124 net.cpp:596] inception_4e/relu_3x3 <- inception_4e/3x3
I0123 12:18:04.367645 38124 net.cpp:557] inception_4e/relu_3x3 -> inception_4e/3x3 (in-place)
I0123 12:18:04.367655 38124 net.cpp:210] Setting up inception_4e/relu_3x3
I0123 12:18:04.367664 38124 net.cpp:217] Top shape: 32 320 14 14 (2007040)
I0123 12:18:04.367671 38124 net.cpp:225] Memory required for data: 1648388616
I0123 12:18:04.367678 38124 layer_factory.hpp:114] Creating layer inception_4e/5x5_reduce
I0123 12:18:04.367694 38124 net.cpp:160] Creating Layer inception_4e/5x5_reduce
I0123 12:18:04.367703 38124 net.cpp:596] inception_4e/5x5_reduce <- inception_4d/output_inception_4d/output_0_split_3
I0123 12:18:04.367717 38124 net.cpp:570] inception_4e/5x5_reduce -> inception_4e/5x5_reduce
I0123 12:18:04.374619 38124 net.cpp:210] Setting up inception_4e/5x5_reduce
I0123 12:18:04.374637 38124 net.cpp:217] Top shape: 32 32 14 14 (200704)
I0123 12:18:04.374644 38124 net.cpp:225] Memory required for data: 1649191432
I0123 12:18:04.374655 38124 layer_factory.hpp:114] Creating layer inception_4e/relu_5x5_reduce
I0123 12:18:04.374672 38124 net.cpp:160] Creating Layer inception_4e/relu_5x5_reduce
I0123 12:18:04.374680 38124 net.cpp:596] inception_4e/relu_5x5_reduce <- inception_4e/5x5_reduce
I0123 12:18:04.374691 38124 net.cpp:557] inception_4e/relu_5x5_reduce -> inception_4e/5x5_reduce (in-place)
I0123 12:18:04.374701 38124 net.cpp:210] Setting up inception_4e/relu_5x5_reduce
I0123 12:18:04.374709 38124 net.cpp:217] Top shape: 32 32 14 14 (200704)
I0123 12:18:04.374716 38124 net.cpp:225] Memory required for data: 1649994248
I0123 12:18:04.374723 38124 layer_factory.hpp:114] Creating layer inception_4e/5x5
I0123 12:18:04.374743 38124 net.cpp:160] Creating Layer inception_4e/5x5
I0123 12:18:04.374752 38124 net.cpp:596] inception_4e/5x5 <- inception_4e/5x5_reduce
I0123 12:18:04.374763 38124 net.cpp:570] inception_4e/5x5 -> inception_4e/5x5
I0123 12:18:04.389364 38124 net.cpp:210] Setting up inception_4e/5x5
I0123 12:18:04.389380 38124 net.cpp:217] Top shape: 32 128 14 14 (802816)
I0123 12:18:04.389387 38124 net.cpp:225] Memory required for data: 1653205512
I0123 12:18:04.389401 38124 layer_factory.hpp:114] Creating layer inception_4e/relu_5x5
I0123 12:18:04.389412 38124 net.cpp:160] Creating Layer inception_4e/relu_5x5
I0123 12:18:04.389420 38124 net.cpp:596] inception_4e/relu_5x5 <- inception_4e/5x5
I0123 12:18:04.389432 38124 net.cpp:557] inception_4e/relu_5x5 -> inception_4e/5x5 (in-place)
I0123 12:18:04.389443 38124 net.cpp:210] Setting up inception_4e/relu_5x5
I0123 12:18:04.389451 38124 net.cpp:217] Top shape: 32 128 14 14 (802816)
I0123 12:18:04.389458 38124 net.cpp:225] Memory required for data: 1656416776
I0123 12:18:04.389467 38124 layer_factory.hpp:114] Creating layer inception_4e/pool
I0123 12:18:04.389526 38124 net.cpp:160] Creating Layer inception_4e/pool
I0123 12:18:04.389535 38124 net.cpp:596] inception_4e/pool <- inception_4d/output_inception_4d/output_0_split_4
I0123 12:18:04.389549 38124 net.cpp:570] inception_4e/pool -> inception_4e/pool
I0123 12:18:04.389565 38124 net.cpp:210] Setting up inception_4e/pool
I0123 12:18:04.389575 38124 net.cpp:217] Top shape: 32 528 14 14 (3311616)
I0123 12:18:04.389582 38124 net.cpp:225] Memory required for data: 1669663240
I0123 12:18:04.389590 38124 layer_factory.hpp:114] Creating layer inception_4e/pool_proj
I0123 12:18:04.389605 38124 net.cpp:160] Creating Layer inception_4e/pool_proj
I0123 12:18:04.389614 38124 net.cpp:596] inception_4e/pool_proj <- inception_4e/pool
I0123 12:18:04.389629 38124 net.cpp:570] inception_4e/pool_proj -> inception_4e/pool_proj
I0123 12:18:04.399524 38124 net.cpp:210] Setting up inception_4e/pool_proj
I0123 12:18:04.399540 38124 net.cpp:217] Top shape: 32 128 14 14 (802816)
I0123 12:18:04.399547 38124 net.cpp:225] Memory required for data: 1672874504
I0123 12:18:04.399557 38124 layer_factory.hpp:114] Creating layer inception_4e/relu_pool_proj
I0123 12:18:04.399569 38124 net.cpp:160] Creating Layer inception_4e/relu_pool_proj
I0123 12:18:04.399586 38124 net.cpp:596] inception_4e/relu_pool_proj <- inception_4e/pool_proj
I0123 12:18:04.399601 38124 net.cpp:557] inception_4e/relu_pool_proj -> inception_4e/pool_proj (in-place)
I0123 12:18:04.399613 38124 net.cpp:210] Setting up inception_4e/relu_pool_proj
I0123 12:18:04.399622 38124 net.cpp:217] Top shape: 32 128 14 14 (802816)
I0123 12:18:04.399629 38124 net.cpp:225] Memory required for data: 1676085768
I0123 12:18:04.399636 38124 layer_factory.hpp:114] Creating layer inception_4e/output
I0123 12:18:04.399647 38124 net.cpp:160] Creating Layer inception_4e/output
I0123 12:18:04.399657 38124 net.cpp:596] inception_4e/output <- inception_4e/1x1
I0123 12:18:04.399667 38124 net.cpp:596] inception_4e/output <- inception_4e/3x3
I0123 12:18:04.399674 38124 net.cpp:596] inception_4e/output <- inception_4e/5x5
I0123 12:18:04.399682 38124 net.cpp:596] inception_4e/output <- inception_4e/pool_proj
I0123 12:18:04.399693 38124 net.cpp:570] inception_4e/output -> inception_4e/output
I0123 12:18:04.399706 38124 net.cpp:210] Setting up inception_4e/output
I0123 12:18:04.399716 38124 net.cpp:217] Top shape: 32 832 14 14 (5218304)
I0123 12:18:04.399724 38124 net.cpp:225] Memory required for data: 1696958984
I0123 12:18:04.399730 38124 layer_factory.hpp:114] Creating layer pool4/3x3_s2
I0123 12:18:04.399751 38124 net.cpp:160] Creating Layer pool4/3x3_s2
I0123 12:18:04.399761 38124 net.cpp:596] pool4/3x3_s2 <- inception_4e/output
I0123 12:18:04.399772 38124 net.cpp:570] pool4/3x3_s2 -> pool4/3x3_s2
I0123 12:18:04.399785 38124 net.cpp:210] Setting up pool4/3x3_s2
I0123 12:18:04.399794 38124 net.cpp:217] Top shape: 32 832 7 7 (1304576)
I0123 12:18:04.399801 38124 net.cpp:225] Memory required for data: 1702177288
I0123 12:18:04.399809 38124 layer_factory.hpp:114] Creating layer pool4/3x3_s2_pool4/3x3_s2_0_split
I0123 12:18:04.399819 38124 net.cpp:160] Creating Layer pool4/3x3_s2_pool4/3x3_s2_0_split
I0123 12:18:04.399827 38124 net.cpp:596] pool4/3x3_s2_pool4/3x3_s2_0_split <- pool4/3x3_s2
I0123 12:18:04.399837 38124 net.cpp:570] pool4/3x3_s2_pool4/3x3_s2_0_split -> pool4/3x3_s2_pool4/3x3_s2_0_split_0
I0123 12:18:04.399847 38124 net.cpp:570] pool4/3x3_s2_pool4/3x3_s2_0_split -> pool4/3x3_s2_pool4/3x3_s2_0_split_1
I0123 12:18:04.399858 38124 net.cpp:570] pool4/3x3_s2_pool4/3x3_s2_0_split -> pool4/3x3_s2_pool4/3x3_s2_0_split_2
I0123 12:18:04.399868 38124 net.cpp:570] pool4/3x3_s2_pool4/3x3_s2_0_split -> pool4/3x3_s2_pool4/3x3_s2_0_split_3
I0123 12:18:04.399880 38124 net.cpp:210] Setting up pool4/3x3_s2_pool4/3x3_s2_0_split
I0123 12:18:04.399889 38124 net.cpp:217] Top shape: 32 832 7 7 (1304576)
I0123 12:18:04.399897 38124 net.cpp:217] Top shape: 32 832 7 7 (1304576)
I0123 12:18:04.399905 38124 net.cpp:217] Top shape: 32 832 7 7 (1304576)
I0123 12:18:04.399914 38124 net.cpp:217] Top shape: 32 832 7 7 (1304576)
I0123 12:18:04.399920 38124 net.cpp:225] Memory required for data: 1723050504
I0123 12:18:04.399927 38124 layer_factory.hpp:114] Creating layer inception_5a/1x1
I0123 12:18:04.399942 38124 net.cpp:160] Creating Layer inception_5a/1x1
I0123 12:18:04.399950 38124 net.cpp:596] inception_5a/1x1 <- pool4/3x3_s2_pool4/3x3_s2_0_split_0
I0123 12:18:04.399960 38124 net.cpp:570] inception_5a/1x1 -> inception_5a/1x1
I0123 12:18:04.414453 38124 net.cpp:210] Setting up inception_5a/1x1
I0123 12:18:04.414469 38124 net.cpp:217] Top shape: 32 256 7 7 (401408)
I0123 12:18:04.414477 38124 net.cpp:225] Memory required for data: 1724656136
I0123 12:18:04.414487 38124 layer_factory.hpp:114] Creating layer inception_5a/relu_1x1
I0123 12:18:04.414497 38124 net.cpp:160] Creating Layer inception_5a/relu_1x1
I0123 12:18:04.414506 38124 net.cpp:596] inception_5a/relu_1x1 <- inception_5a/1x1
I0123 12:18:04.414515 38124 net.cpp:557] inception_5a/relu_1x1 -> inception_5a/1x1 (in-place)
I0123 12:18:04.414525 38124 net.cpp:210] Setting up inception_5a/relu_1x1
I0123 12:18:04.414535 38124 net.cpp:217] Top shape: 32 256 7 7 (401408)
I0123 12:18:04.414541 38124 net.cpp:225] Memory required for data: 1726261768
I0123 12:18:04.414548 38124 layer_factory.hpp:114] Creating layer inception_5a/3x3_reduce
I0123 12:18:04.414582 38124 net.cpp:160] Creating Layer inception_5a/3x3_reduce
I0123 12:18:04.414590 38124 net.cpp:596] inception_5a/3x3_reduce <- pool4/3x3_s2_pool4/3x3_s2_0_split_1
I0123 12:18:04.414602 38124 net.cpp:570] inception_5a/3x3_reduce -> inception_5a/3x3_reduce
I0123 12:18:04.424751 38124 net.cpp:210] Setting up inception_5a/3x3_reduce
I0123 12:18:04.424767 38124 net.cpp:217] Top shape: 32 160 7 7 (250880)
I0123 12:18:04.424773 38124 net.cpp:225] Memory required for data: 1727265288
I0123 12:18:04.424783 38124 layer_factory.hpp:114] Creating layer inception_5a/relu_3x3_reduce
I0123 12:18:04.424794 38124 net.cpp:160] Creating Layer inception_5a/relu_3x3_reduce
I0123 12:18:04.424803 38124 net.cpp:596] inception_5a/relu_3x3_reduce <- inception_5a/3x3_reduce
I0123 12:18:04.424813 38124 net.cpp:557] inception_5a/relu_3x3_reduce -> inception_5a/3x3_reduce (in-place)
I0123 12:18:04.424823 38124 net.cpp:210] Setting up inception_5a/relu_3x3_reduce
I0123 12:18:04.424831 38124 net.cpp:217] Top shape: 32 160 7 7 (250880)
I0123 12:18:04.424839 38124 net.cpp:225] Memory required for data: 1728268808
I0123 12:18:04.424845 38124 layer_factory.hpp:114] Creating layer inception_5a/3x3
I0123 12:18:04.424861 38124 net.cpp:160] Creating Layer inception_5a/3x3
I0123 12:18:04.424870 38124 net.cpp:596] inception_5a/3x3 <- inception_5a/3x3_reduce
I0123 12:18:04.424880 38124 net.cpp:570] inception_5a/3x3 -> inception_5a/3x3
I0123 12:18:04.455446 38124 net.cpp:210] Setting up inception_5a/3x3
I0123 12:18:04.455461 38124 net.cpp:217] Top shape: 32 320 7 7 (501760)
I0123 12:18:04.455469 38124 net.cpp:225] Memory required for data: 1730275848
I0123 12:18:04.455479 38124 layer_factory.hpp:114] Creating layer inception_5a/relu_3x3
I0123 12:18:04.455502 38124 net.cpp:160] Creating Layer inception_5a/relu_3x3
I0123 12:18:04.455512 38124 net.cpp:596] inception_5a/relu_3x3 <- inception_5a/3x3
I0123 12:18:04.455520 38124 net.cpp:557] inception_5a/relu_3x3 -> inception_5a/3x3 (in-place)
I0123 12:18:04.455530 38124 net.cpp:210] Setting up inception_5a/relu_3x3
I0123 12:18:04.455539 38124 net.cpp:217] Top shape: 32 320 7 7 (501760)
I0123 12:18:04.455546 38124 net.cpp:225] Memory required for data: 1732282888
I0123 12:18:04.455554 38124 layer_factory.hpp:114] Creating layer inception_5a/5x5_reduce
I0123 12:18:04.455566 38124 net.cpp:160] Creating Layer inception_5a/5x5_reduce
I0123 12:18:04.455575 38124 net.cpp:596] inception_5a/5x5_reduce <- pool4/3x3_s2_pool4/3x3_s2_0_split_2
I0123 12:18:04.455587 38124 net.cpp:570] inception_5a/5x5_reduce -> inception_5a/5x5_reduce
I0123 12:18:04.460422 38124 net.cpp:210] Setting up inception_5a/5x5_reduce
I0123 12:18:04.460436 38124 net.cpp:217] Top shape: 32 32 7 7 (50176)
I0123 12:18:04.460443 38124 net.cpp:225] Memory required for data: 1732483592
I0123 12:18:04.460454 38124 layer_factory.hpp:114] Creating layer inception_5a/relu_5x5_reduce
I0123 12:18:04.460481 38124 net.cpp:160] Creating Layer inception_5a/relu_5x5_reduce
I0123 12:18:04.460490 38124 net.cpp:596] inception_5a/relu_5x5_reduce <- inception_5a/5x5_reduce
I0123 12:18:04.460500 38124 net.cpp:557] inception_5a/relu_5x5_reduce -> inception_5a/5x5_reduce (in-place)
I0123 12:18:04.460510 38124 net.cpp:210] Setting up inception_5a/relu_5x5_reduce
I0123 12:18:04.460520 38124 net.cpp:217] Top shape: 32 32 7 7 (50176)
I0123 12:18:04.460526 38124 net.cpp:225] Memory required for data: 1732684296
I0123 12:18:04.460533 38124 layer_factory.hpp:114] Creating layer inception_5a/5x5
I0123 12:18:04.460548 38124 net.cpp:160] Creating Layer inception_5a/5x5
I0123 12:18:04.460557 38124 net.cpp:596] inception_5a/5x5 <- inception_5a/5x5_reduce
I0123 12:18:04.460569 38124 net.cpp:570] inception_5a/5x5 -> inception_5a/5x5
I0123 12:18:04.469095 38124 net.cpp:210] Setting up inception_5a/5x5
I0123 12:18:04.469110 38124 net.cpp:217] Top shape: 32 128 7 7 (200704)
I0123 12:18:04.469117 38124 net.cpp:225] Memory required for data: 1733487112
I0123 12:18:04.469128 38124 layer_factory.hpp:114] Creating layer inception_5a/relu_5x5
I0123 12:18:04.469269 38124 net.cpp:160] Creating Layer inception_5a/relu_5x5
I0123 12:18:04.469290 38124 net.cpp:596] inception_5a/relu_5x5 <- inception_5a/5x5
I0123 12:18:04.469300 38124 net.cpp:557] inception_5a/relu_5x5 -> inception_5a/5x5 (in-place)
I0123 12:18:04.469311 38124 net.cpp:210] Setting up inception_5a/relu_5x5
I0123 12:18:04.469321 38124 net.cpp:217] Top shape: 32 128 7 7 (200704)
I0123 12:18:04.469327 38124 net.cpp:225] Memory required for data: 1734289928
I0123 12:18:04.469336 38124 layer_factory.hpp:114] Creating layer inception_5a/pool
I0123 12:18:04.469372 38124 net.cpp:160] Creating Layer inception_5a/pool
I0123 12:18:04.469382 38124 net.cpp:596] inception_5a/pool <- pool4/3x3_s2_pool4/3x3_s2_0_split_3
I0123 12:18:04.469393 38124 net.cpp:570] inception_5a/pool -> inception_5a/pool
I0123 12:18:04.469406 38124 net.cpp:210] Setting up inception_5a/pool
I0123 12:18:04.469416 38124 net.cpp:217] Top shape: 32 832 7 7 (1304576)
I0123 12:18:04.469424 38124 net.cpp:225] Memory required for data: 1739508232
I0123 12:18:04.469430 38124 layer_factory.hpp:114] Creating layer inception_5a/pool_proj
I0123 12:18:04.469445 38124 net.cpp:160] Creating Layer inception_5a/pool_proj
I0123 12:18:04.469455 38124 net.cpp:596] inception_5a/pool_proj <- inception_5a/pool
I0123 12:18:04.469466 38124 net.cpp:570] inception_5a/pool_proj -> inception_5a/pool_proj
I0123 12:18:04.478319 38124 net.cpp:210] Setting up inception_5a/pool_proj
I0123 12:18:04.478335 38124 net.cpp:217] Top shape: 32 128 7 7 (200704)
I0123 12:18:04.478343 38124 net.cpp:225] Memory required for data: 1740311048
I0123 12:18:04.478353 38124 layer_factory.hpp:114] Creating layer inception_5a/relu_pool_proj
I0123 12:18:04.478370 38124 net.cpp:160] Creating Layer inception_5a/relu_pool_proj
I0123 12:18:04.478379 38124 net.cpp:596] inception_5a/relu_pool_proj <- inception_5a/pool_proj
I0123 12:18:04.478390 38124 net.cpp:557] inception_5a/relu_pool_proj -> inception_5a/pool_proj (in-place)
I0123 12:18:04.478401 38124 net.cpp:210] Setting up inception_5a/relu_pool_proj
I0123 12:18:04.478410 38124 net.cpp:217] Top shape: 32 128 7 7 (200704)
I0123 12:18:04.478417 38124 net.cpp:225] Memory required for data: 1741113864
I0123 12:18:04.478425 38124 layer_factory.hpp:114] Creating layer inception_5a/output
I0123 12:18:04.478435 38124 net.cpp:160] Creating Layer inception_5a/output
I0123 12:18:04.478443 38124 net.cpp:596] inception_5a/output <- inception_5a/1x1
I0123 12:18:04.478452 38124 net.cpp:596] inception_5a/output <- inception_5a/3x3
I0123 12:18:04.478461 38124 net.cpp:596] inception_5a/output <- inception_5a/5x5
I0123 12:18:04.478468 38124 net.cpp:596] inception_5a/output <- inception_5a/pool_proj
I0123 12:18:04.478477 38124 net.cpp:570] inception_5a/output -> inception_5a/output
I0123 12:18:04.478489 38124 net.cpp:210] Setting up inception_5a/output
I0123 12:18:04.478498 38124 net.cpp:217] Top shape: 32 832 7 7 (1304576)
I0123 12:18:04.478505 38124 net.cpp:225] Memory required for data: 1746332168
I0123 12:18:04.478513 38124 layer_factory.hpp:114] Creating layer inception_5a/output_inception_5a/output_0_split
I0123 12:18:04.478523 38124 net.cpp:160] Creating Layer inception_5a/output_inception_5a/output_0_split
I0123 12:18:04.478529 38124 net.cpp:596] inception_5a/output_inception_5a/output_0_split <- inception_5a/output
I0123 12:18:04.478539 38124 net.cpp:570] inception_5a/output_inception_5a/output_0_split -> inception_5a/output_inception_5a/output_0_split_0
I0123 12:18:04.478550 38124 net.cpp:570] inception_5a/output_inception_5a/output_0_split -> inception_5a/output_inception_5a/output_0_split_1
I0123 12:18:04.478564 38124 net.cpp:570] inception_5a/output_inception_5a/output_0_split -> inception_5a/output_inception_5a/output_0_split_2
I0123 12:18:04.478574 38124 net.cpp:570] inception_5a/output_inception_5a/output_0_split -> inception_5a/output_inception_5a/output_0_split_3
I0123 12:18:04.478585 38124 net.cpp:210] Setting up inception_5a/output_inception_5a/output_0_split
I0123 12:18:04.478595 38124 net.cpp:217] Top shape: 32 832 7 7 (1304576)
I0123 12:18:04.478611 38124 net.cpp:217] Top shape: 32 832 7 7 (1304576)
I0123 12:18:04.478623 38124 net.cpp:217] Top shape: 32 832 7 7 (1304576)
I0123 12:18:04.478632 38124 net.cpp:217] Top shape: 32 832 7 7 (1304576)
I0123 12:18:04.478639 38124 net.cpp:225] Memory required for data: 1767205384
I0123 12:18:04.478646 38124 layer_factory.hpp:114] Creating layer inception_5b/1x1
I0123 12:18:04.478658 38124 net.cpp:160] Creating Layer inception_5b/1x1
I0123 12:18:04.478667 38124 net.cpp:596] inception_5b/1x1 <- inception_5a/output_inception_5a/output_0_split_0
I0123 12:18:04.478679 38124 net.cpp:570] inception_5b/1x1 -> inception_5b/1x1
I0123 12:18:04.499119 38124 net.cpp:210] Setting up inception_5b/1x1
I0123 12:18:04.499140 38124 net.cpp:217] Top shape: 32 384 7 7 (602112)
I0123 12:18:04.499147 38124 net.cpp:225] Memory required for data: 1769613832
I0123 12:18:04.499253 38124 layer_factory.hpp:114] Creating layer inception_5b/relu_1x1
I0123 12:18:04.499279 38124 net.cpp:160] Creating Layer inception_5b/relu_1x1
I0123 12:18:04.499287 38124 net.cpp:596] inception_5b/relu_1x1 <- inception_5b/1x1
I0123 12:18:04.499300 38124 net.cpp:557] inception_5b/relu_1x1 -> inception_5b/1x1 (in-place)
I0123 12:18:04.499310 38124 net.cpp:210] Setting up inception_5b/relu_1x1
I0123 12:18:04.499320 38124 net.cpp:217] Top shape: 32 384 7 7 (602112)
I0123 12:18:04.499326 38124 net.cpp:225] Memory required for data: 1772022280
I0123 12:18:04.499333 38124 layer_factory.hpp:114] Creating layer inception_5b/3x3_reduce
I0123 12:18:04.499346 38124 net.cpp:160] Creating Layer inception_5b/3x3_reduce
I0123 12:18:04.499354 38124 net.cpp:596] inception_5b/3x3_reduce <- inception_5a/output_inception_5a/output_0_split_1
I0123 12:18:04.499366 38124 net.cpp:570] inception_5b/3x3_reduce -> inception_5b/3x3_reduce
I0123 12:18:04.511011 38124 net.cpp:210] Setting up inception_5b/3x3_reduce
I0123 12:18:04.511034 38124 net.cpp:217] Top shape: 32 192 7 7 (301056)
I0123 12:18:04.511041 38124 net.cpp:225] Memory required for data: 1773226504
I0123 12:18:04.511052 38124 layer_factory.hpp:114] Creating layer inception_5b/relu_3x3_reduce
I0123 12:18:04.511072 38124 net.cpp:160] Creating Layer inception_5b/relu_3x3_reduce
I0123 12:18:04.511081 38124 net.cpp:596] inception_5b/relu_3x3_reduce <- inception_5b/3x3_reduce
I0123 12:18:04.511090 38124 net.cpp:557] inception_5b/relu_3x3_reduce -> inception_5b/3x3_reduce (in-place)
I0123 12:18:04.511101 38124 net.cpp:210] Setting up inception_5b/relu_3x3_reduce
I0123 12:18:04.511109 38124 net.cpp:217] Top shape: 32 192 7 7 (301056)
I0123 12:18:04.511116 38124 net.cpp:225] Memory required for data: 1774430728
I0123 12:18:04.511123 38124 layer_factory.hpp:114] Creating layer inception_5b/3x3
I0123 12:18:04.511137 38124 net.cpp:160] Creating Layer inception_5b/3x3
I0123 12:18:04.511144 38124 net.cpp:596] inception_5b/3x3 <- inception_5b/3x3_reduce
I0123 12:18:04.511157 38124 net.cpp:570] inception_5b/3x3 -> inception_5b/3x3
I0123 12:18:04.552417 38124 net.cpp:210] Setting up inception_5b/3x3
I0123 12:18:04.552448 38124 net.cpp:217] Top shape: 32 384 7 7 (602112)
I0123 12:18:04.552456 38124 net.cpp:225] Memory required for data: 1776839176
I0123 12:18:04.552467 38124 layer_factory.hpp:114] Creating layer inception_5b/relu_3x3
I0123 12:18:04.552477 38124 net.cpp:160] Creating Layer inception_5b/relu_3x3
I0123 12:18:04.552486 38124 net.cpp:596] inception_5b/relu_3x3 <- inception_5b/3x3
I0123 12:18:04.552495 38124 net.cpp:557] inception_5b/relu_3x3 -> inception_5b/3x3 (in-place)
I0123 12:18:04.552506 38124 net.cpp:210] Setting up inception_5b/relu_3x3
I0123 12:18:04.552515 38124 net.cpp:217] Top shape: 32 384 7 7 (602112)
I0123 12:18:04.552522 38124 net.cpp:225] Memory required for data: 1779247624
I0123 12:18:04.552530 38124 layer_factory.hpp:114] Creating layer inception_5b/5x5_reduce
I0123 12:18:04.552544 38124 net.cpp:160] Creating Layer inception_5b/5x5_reduce
I0123 12:18:04.552552 38124 net.cpp:596] inception_5b/5x5_reduce <- inception_5a/output_inception_5a/output_0_split_2
I0123 12:18:04.552563 38124 net.cpp:570] inception_5b/5x5_reduce -> inception_5b/5x5_reduce
I0123 12:18:04.557577 38124 net.cpp:210] Setting up inception_5b/5x5_reduce
I0123 12:18:04.557613 38124 net.cpp:217] Top shape: 32 48 7 7 (75264)
I0123 12:18:04.557621 38124 net.cpp:225] Memory required for data: 1779548680
I0123 12:18:04.557631 38124 layer_factory.hpp:114] Creating layer inception_5b/relu_5x5_reduce
I0123 12:18:04.557657 38124 net.cpp:160] Creating Layer inception_5b/relu_5x5_reduce
I0123 12:18:04.557664 38124 net.cpp:596] inception_5b/relu_5x5_reduce <- inception_5b/5x5_reduce
I0123 12:18:04.557677 38124 net.cpp:557] inception_5b/relu_5x5_reduce -> inception_5b/5x5_reduce (in-place)
I0123 12:18:04.557687 38124 net.cpp:210] Setting up inception_5b/relu_5x5_reduce
I0123 12:18:04.557696 38124 net.cpp:217] Top shape: 32 48 7 7 (75264)
I0123 12:18:04.557703 38124 net.cpp:225] Memory required for data: 1779849736
I0123 12:18:04.557710 38124 layer_factory.hpp:114] Creating layer inception_5b/5x5
I0123 12:18:04.557726 38124 net.cpp:160] Creating Layer inception_5b/5x5
I0123 12:18:04.557734 38124 net.cpp:596] inception_5b/5x5 <- inception_5b/5x5_reduce
I0123 12:18:04.557744 38124 net.cpp:570] inception_5b/5x5 -> inception_5b/5x5
I0123 12:18:04.569702 38124 net.cpp:210] Setting up inception_5b/5x5
I0123 12:18:04.569717 38124 net.cpp:217] Top shape: 32 128 7 7 (200704)
I0123 12:18:04.569725 38124 net.cpp:225] Memory required for data: 1780652552
I0123 12:18:04.569736 38124 layer_factory.hpp:114] Creating layer inception_5b/relu_5x5
I0123 12:18:04.569761 38124 net.cpp:160] Creating Layer inception_5b/relu_5x5
I0123 12:18:04.569768 38124 net.cpp:596] inception_5b/relu_5x5 <- inception_5b/5x5
I0123 12:18:04.569784 38124 net.cpp:557] inception_5b/relu_5x5 -> inception_5b/5x5 (in-place)
I0123 12:18:04.569794 38124 net.cpp:210] Setting up inception_5b/relu_5x5
I0123 12:18:04.569803 38124 net.cpp:217] Top shape: 32 128 7 7 (200704)
I0123 12:18:04.569810 38124 net.cpp:225] Memory required for data: 1781455368
I0123 12:18:04.569818 38124 layer_factory.hpp:114] Creating layer inception_5b/pool
I0123 12:18:04.569869 38124 net.cpp:160] Creating Layer inception_5b/pool
I0123 12:18:04.569880 38124 net.cpp:596] inception_5b/pool <- inception_5a/output_inception_5a/output_0_split_3
I0123 12:18:04.569890 38124 net.cpp:570] inception_5b/pool -> inception_5b/pool
I0123 12:18:04.569903 38124 net.cpp:210] Setting up inception_5b/pool
I0123 12:18:04.569913 38124 net.cpp:217] Top shape: 32 832 7 7 (1304576)
I0123 12:18:04.569921 38124 net.cpp:225] Memory required for data: 1786673672
I0123 12:18:04.569927 38124 layer_factory.hpp:114] Creating layer inception_5b/pool_proj
I0123 12:18:04.569943 38124 net.cpp:160] Creating Layer inception_5b/pool_proj
I0123 12:18:04.569952 38124 net.cpp:596] inception_5b/pool_proj <- inception_5b/pool
I0123 12:18:04.569962 38124 net.cpp:570] inception_5b/pool_proj -> inception_5b/pool_proj
I0123 12:18:04.578629 38124 net.cpp:210] Setting up inception_5b/pool_proj
I0123 12:18:04.578644 38124 net.cpp:217] Top shape: 32 128 7 7 (200704)
I0123 12:18:04.578651 38124 net.cpp:225] Memory required for data: 1787476488
I0123 12:18:04.578662 38124 layer_factory.hpp:114] Creating layer inception_5b/relu_pool_proj
I0123 12:18:04.578675 38124 net.cpp:160] Creating Layer inception_5b/relu_pool_proj
I0123 12:18:04.578685 38124 net.cpp:596] inception_5b/relu_pool_proj <- inception_5b/pool_proj
I0123 12:18:04.578693 38124 net.cpp:557] inception_5b/relu_pool_proj -> inception_5b/pool_proj (in-place)
I0123 12:18:04.578703 38124 net.cpp:210] Setting up inception_5b/relu_pool_proj
I0123 12:18:04.578712 38124 net.cpp:217] Top shape: 32 128 7 7 (200704)
I0123 12:18:04.578719 38124 net.cpp:225] Memory required for data: 1788279304
I0123 12:18:04.578727 38124 layer_factory.hpp:114] Creating layer inception_5b/output
I0123 12:18:04.578737 38124 net.cpp:160] Creating Layer inception_5b/output
I0123 12:18:04.578745 38124 net.cpp:596] inception_5b/output <- inception_5b/1x1
I0123 12:18:04.578754 38124 net.cpp:596] inception_5b/output <- inception_5b/3x3
I0123 12:18:04.578763 38124 net.cpp:596] inception_5b/output <- inception_5b/5x5
I0123 12:18:04.578781 38124 net.cpp:596] inception_5b/output <- inception_5b/pool_proj
I0123 12:18:04.578794 38124 net.cpp:570] inception_5b/output -> inception_5b/output
I0123 12:18:04.578815 38124 net.cpp:210] Setting up inception_5b/output
I0123 12:18:04.578824 38124 net.cpp:217] Top shape: 32 1024 7 7 (1605632)
I0123 12:18:04.578831 38124 net.cpp:225] Memory required for data: 1794701832
I0123 12:18:04.578838 38124 layer_factory.hpp:114] Creating layer pool5/7x7_s1
I0123 12:18:04.578862 38124 net.cpp:160] Creating Layer pool5/7x7_s1
I0123 12:18:04.578872 38124 net.cpp:596] pool5/7x7_s1 <- inception_5b/output
I0123 12:18:04.578882 38124 net.cpp:570] pool5/7x7_s1 -> pool5/7x7_s1
I0123 12:18:04.578894 38124 net.cpp:210] Setting up pool5/7x7_s1
I0123 12:18:04.578904 38124 net.cpp:217] Top shape: 32 1024 1 1 (32768)
I0123 12:18:04.578912 38124 net.cpp:225] Memory required for data: 1794832904
I0123 12:18:04.578918 38124 layer_factory.hpp:114] Creating layer pool5/drop_7x7_s1
I0123 12:18:04.578939 38124 net.cpp:160] Creating Layer pool5/drop_7x7_s1
I0123 12:18:04.578948 38124 net.cpp:596] pool5/drop_7x7_s1 <- pool5/7x7_s1
I0123 12:18:04.578956 38124 net.cpp:557] pool5/drop_7x7_s1 -> pool5/7x7_s1 (in-place)
I0123 12:18:04.578971 38124 net.cpp:210] Setting up pool5/drop_7x7_s1
I0123 12:18:04.578980 38124 net.cpp:217] Top shape: 32 1024 1 1 (32768)
I0123 12:18:04.578987 38124 net.cpp:225] Memory required for data: 1794963976
I0123 12:18:04.578994 38124 layer_factory.hpp:114] Creating layer loss3/classifier
I0123 12:18:04.579015 38124 net.cpp:160] Creating Layer loss3/classifier
I0123 12:18:04.579023 38124 net.cpp:596] loss3/classifier <- pool5/7x7_s1
I0123 12:18:04.579033 38124 net.cpp:570] loss3/classifier -> loss3/classifier
I0123 12:18:04.588953 38124 net.cpp:210] Setting up loss3/classifier
I0123 12:18:04.588968 38124 net.cpp:217] Top shape: 32 1000 (32000)
I0123 12:18:04.588974 38124 net.cpp:225] Memory required for data: 1795091976
I0123 12:18:04.588984 38124 layer_factory.hpp:114] Creating layer loss3/loss3
I0123 12:18:04.589015 38124 net.cpp:160] Creating Layer loss3/loss3
I0123 12:18:04.589022 38124 net.cpp:596] loss3/loss3 <- loss3/classifier
I0123 12:18:04.589031 38124 net.cpp:596] loss3/loss3 <- label_data_1_split_2
I0123 12:18:04.589040 38124 net.cpp:570] loss3/loss3 -> loss3/loss3
…
I0123 12:18:04.597549 38124 net.cpp:484] The NetState phase (1) differed from the phase (0) specified by a rule in layer data
I0123 12:18:04.602104 38124 net.cpp:120] Initializing net from parameters: 
name: "GoogleNet"
state {
  phase: TEST
}
layer {
  name: "data"
  type: "Data"
  top: "data"
  top: "label"
  include {
    phase: TEST
  }
  transform_param {
    mirror: false
    crop_size: 224
    mean_value: 104
    mean_value: 117
    mean_value: 123
  }
  data_param {
    source: "/home/user/caffeOMP/original/caffe/examples/imagenet/ilsvrc12_val_lmdb"
    batch_size: 50
    backend: LMDB
  }
}
layer {
  name: "label_data_1_split"
  type: "Split"
  bottom: "label"
  top: "label_data_1_split_0"
  top: "label_data_1_split_1"
  top: "label_data_1_split_2"
  top: "label_data_1_split_3"
  top: "label_data_1_split_4"
  top: "label_data_1_split_5"
  top: "label_data_1_split_6"
  top: "label_data_1_split_7"
  top: "label_data_1_split_8"
}
layer {
  name: "conv1/7x7_s2"
  type: "Convolution"
  bottom: "data"
  top: "conv1/7x7_s2"
  param {
    lr_mult: 1
    decay_mult: 1
  }
  param {
    lr_mult: 2
    decay_mult: 0
  }
  convolution_param {
    num_output: 64
    pad: 3
    kernel_size: 7
    stride: 2
    weight_filler {
      type: "xavier"
    }
    bias_filler {
      type: "constant"
      value: 0.2
    }
  }
}
layer {
  name: "conv1/relu_7x7"
  type: "ReLU"
  bottom: "conv1/7x7_s2"
  top: "conv1/7x7_s2"
}
layer {
  name: "pool1/3x3_s2"
  type: "Pooling"
  bottom: "conv1/7x7_s2"
  top: "pool1/3x3_s2"
  pooling_param {
    pool: MAX
    kernel_size: 3
    stride: 2
  }
}
layer {
  name: "pool1/norm1"
  type: "LRN"
  bottom: "pool1/3x3_s2"
  top: "pool1/norm1"
  lrn_param {
    local_size: 5
    alpha: 0.0001
    beta: 0.75
  }
}
layer {
  name: "conv2/3x3_reduce"
  type: "Convolution"
  bottom: "pool1/norm1"
  top: "conv2/3x3_reduce"
  param {
    lr_mult: 1
    decay_mult: 1
  }
  param {
    lr_mult: 2
    decay_mult: 0
  }
  convolution_param {
    num_output: 64
    kernel_size: 1
    weight_filler {
      type: "xavier"
    }
    bias_filler {
      type: "constant"
      value: 0.2
    }
  }
}
layer {
  name: "conv2/relu_3x3_reduce"
  type: "ReLU"
  bottom: "conv2/3x3_reduce"
  top: "conv2/3x3_reduce"
}
layer {
  name: "conv2/3x3"
  type: "Convolution"
  bottom: "conv2/3x3_reduce"
  top: "conv2/3x3"
  param {
    lr_mult: 1
    decay_mult: 1
  }
  param {
    lr_mult: 2
    decay_mult: 0
  }
  convolution_param {
    num_output: 192
    pad: 1
    kernel_size: 3
    weight_filler {
      type: "xavier"
    }
    bias_filler {
      type: "constant"
      value: 0.2
    }
  }
}
layer {
  name: "conv2/relu_3x3"
  type: "ReLU"
  bottom: "conv2/3x3"
  top: "conv2/3x3"
}
layer {
  name: "conv2/norm2"
  type: "LRN"
  bottom: "conv2/3x3"
  top: "conv2/norm2"
  lrn_param {
    local_size: 5
    alpha: 0.0001
    beta: 0.75
  }
}
layer {
  name: "pool2/3x3_s2"
  type: "Pooling"
  bottom: "conv2/norm2"
  top: "pool2/3x3_s2"
  pooling_param {
    pool: MAX
    kernel_size: 3
    stride: 2
  }
}
layer {
  name: "pool2/3x3_s2_pool2/3x3_s2_0_split"
  type: "Split"
  bottom: "pool2/3x3_s2"
  top: "pool2/3x3_s2_pool2/3x3_s2_0_split_0"
  top: "pool2/3x3_s2_pool2/3x3_s2_0_split_1"
  top: "pool2/3x3_s2_pool2/3x3_s2_0_split_2"
  top: "pool2/3x3_s2_pool2/3x3_s2_0_split_3"
}
layer {
  name: "inception_3a/1x1"
  type: "Convolution"
  bottom: "pool2/3x3_s2_pool2/3x3_s2_0_split_0"
  top: "inception_3a/1x1"
  param {
    lr_mult: 1
    decay_mult: 1
  }
  param {
    lr_mult: 2
    decay_mult: 0
  }
  convolution_param {
    num_output: 64
    kernel_size: 1
    weight_filler {
      type: "xavier"
    }
    bias_filler {
      type: "constant"
      value: 0.2
    }
  }
}
layer {
  name: "inception_3a/relu_1x1"
  type: "ReLU"
  bottom: "inception_3a/1x1"
  top: "inception_3a/1x1"
}
layer {
  name: "inception_3a/3x3_reduce"
  type: "Convolution"
  bottom: "pool2/3x3_s2_pool2/3x3_s2_0_split_1"
  top: "inception_3a/3x3_reduce"
  param {
    lr_mult: 1
    decay_mult: 1
  }
  param {
    lr_mult: 2
    decay_mult: 0
  }
  convolution_param {
    num_output: 96
    kernel_size: 1
    weight_filler {
      type: "xavier"
    }
    bias_filler {
      type: "constant"
      value: 0.2
    }
  }
}
layer {
  name: "inception_3a/relu_3x3_reduce"
  type: "ReLU"
  bottom: "inception_3a/3x3_reduce"
  top: "inception_3a/3x3_reduce"
}
layer {
  name: "inception_3a/3x3"
  type: "Convolution"
  bottom: "inception_3a/3x3_reduce"
  top: "inception_3a/3x3"
  param {
    lr_mult: 1
    decay_mult: 1
  }
  param {
    lr_mult: 2
    decay_mult: 0
  }
  convolution_param {
    num_output: 128
    pad: 1
    kernel_size: 3
    weight_filler {
      type: "xavier"
    }
    bias_filler {
      type: "constant"
      value: 0.2
    }
  }
}
layer {
  name: "inception_3a/relu_3x3"
  type: "ReLU"
  bottom: "inception_3a/3x3"
  top: "inception_3a/3x3"
}
layer {
  name: "inception_3a/5x5_reduce"
  type: "Convolution"
  bottom: "pool2/3x3_s2_pool2/3x3_s2_0_split_2"
  top: "inception_3a/5x5_reduce"
  param {
    lr_mult: 1
    decay_mult: 1
  }
  param {
    lr_mult: 2
    decay_mult: 0
  }
  convolution_param {
    num_output: 16
    kernel_size: 1
    weight_filler {
      type: "xavier"
    }
    bias_filler {
      type: "constant"
      value: 0.2
    }
  }
}
layer {
  name: "inception_3a/relu_5x5_reduce"
  type: "ReLU"
  bottom: "inception_3a/5x5_reduce"
  top: "inception_3a/5x5_reduce"
}
layer {
  name: "inception_3a/5x5"
  type: "Convolution"
  bottom: "inception_3a/5x5_reduce"
  top: "inception_3a/5x5"
  param {
    lr_mult: 1
    decay_mult: 1
  }
  param {
    lr_mult: 2
    decay_mult: 0
  }
  convolution_param {
    num_output: 32
    pad: 2
    kernel_size: 5
    weight_filler {
      type: "xavier"
    }
    bias_filler {
      type: "constant"
      value: 0.2
    }
  }
}
layer {
  name: "inception_3a/relu_5x5"
  type: "ReLU"
  bottom: "inception_3a/5x5"
  top: "inception_3a/5x5"
}
layer {
  name: "inception_3a/pool"
  type: "Pooling"
  bottom: "pool2/3x3_s2_pool2/3x3_s2_0_split_3"
  top: "inception_3a/pool"
  pooling_param {
    pool: MAX
    kernel_size: 3
    stride: 1
    pad: 1
  }
}
layer {
  name: "inception_3a/pool_proj"
  type: "Convolution"
  bottom: "inception_3a/pool"
  top: "inception_3a/pool_proj"
  param {
    lr_mult: 1
    decay_mult: 1
  }
  param {
    lr_mult: 2
    decay_mult: 0
  }
  convolution_param {
    num_output: 32
    kernel_size: 1
    weight_filler {
      type: "xavier"
    }
    bias_filler {
      type: "constant"
      value: 0.2
    }
  }
}
layer {
  name: "inception_3a/relu_pool_proj"
  type: "ReLU"
  bottom: "inception_3a/pool_proj"
  top: "inception_3a/pool_proj"
}
layer {
  name: "inception_3a/output"
  type: "Concat"
  bottom: "inception_3a/1x1"
  bottom: "inception_3a/3x3"
  bottom: "inception_3a/5x5"
  bottom: "inception_3a/pool_proj"
  top: "inception_3a/output"
}
layer {
  name: "inception_3a/output_inception_3a/output_0_split"
  type: "Split"
  bottom: "inception_3a/output"
  top: "inception_3a/output_inception_3a/output_0_split_0"
  top: "inception_3a/output_inception_3a/output_0_split_1"
  top: "inception_3a/output_inception_3a/output_0_split_2"
  top: "inception_3a/output_inception_3a/output_0_split_3"
}
layer {
  name: "inception_3b/1x1"
  type: "Convolution"
  bottom: "inception_3a/output_inception_3a/output_0_split_0"
  top: "inception_3b/1x1"
  param {
    lr_mult: 1
    decay_mult: 1
  }
  param {
    lr_mult: 2
    decay_mult: 0
  }
  convolution_param {
    num_output: 128
    kernel_size: 1
    weight_filler {
      type: "xavier"
    }
    bias_filler {
      type: "constant"
      value: 0.2
    }
  }
}
layer {
  name: "inception_3b/relu_1x1"
  type: "ReLU"
  bottom: "inception_3b/1x1"
  top: "inception_3b/1x1"
}
layer {
  name: "inception_3b/3x3_reduce"
  type: "Convolution"
  bottom: "inception_3a/output_inception_3a/output_0_split_1"
  top: "inception_3b/3x3_reduce"
  param {
    lr_mult: 1
    decay_mult: 1
  }
  param {
    lr_mult: 2
    decay_mult: 0
  }
  convolution_param {
    num_output: 128
    kernel_size: 1
    weight_filler {
      type: "xavier"
    }
    bias_filler {
      type: "constant"
      value: 0.2
    }
  }
}
layer {
  name: "inception_3b/relu_3x3_reduce"
  type: "ReLU"
  bottom: "inception_3b/3x3_reduce"
  top: "inception_3b/3x3_reduce"
}
layer {
  name: "inception_3b/3x3"
  type: "Convolution"
  bottom: "inception_3b/3x3_reduce"
  top: "inception_3b/3x3"
  param {
    lr_mult: 1
    decay_mult: 1
  }
  param {
    lr_mult: 2
    decay_mult: 0
  }
  convolution_param {
    num_output: 192
    pad: 1
    kernel_size: 3
    weight_filler {
      type: "xavier"
    }
    bias_filler {
      type: "constant"
      value: 0.2
    }
  }
}
layer {
  name: "inception_3b/relu_3x3"
  type: "ReLU"
  bottom: "inception_3b/3x3"
  top: "inception_3b/3x3"
}
layer {
  name: "inception_3b/5x5_reduce"
  type: "Convolution"
  bottom: "inception_3a/output_inception_3a/output_0_split_2"
  top: "inception_3b/5x5_reduce"
  param {
    lr_mult: 1
    decay_mult: 1
  }
  param {
    lr_mult: 2
    decay_mult: 0
  }
  convolution_param {
    num_output: 32
    kernel_size: 1
    weight_filler {
      type: "xavier"
    }
    bias_filler {
      type: "constant"
      value: 0.2
    }
  }
}
layer {
  name: "inception_3b/relu_5x5_reduce"
  type: "ReLU"
  bottom: "inception_3b/5x5_reduce"
  top: "inception_3b/5x5_reduce"
}
layer {
  name: "inception_3b/5x5"
  type: "Convolution"
  bottom: "inception_3b/5x5_reduce"
  top: "inception_3b/5x5"
  param {
    lr_mult: 1
    decay_mult: 1
  }
  param {
    lr_mult: 2
    decay_mult: 0
  }
  convolution_param {
    num_output: 96
    pad: 2
    kernel_size: 5
    weight_filler {
      type: "xavier"
    }
    bias_filler {
      type: "constant"
      value: 0.2
    }
  }
}
layer {
  name: "inception_3b/relu_5x5"
  type: "ReLU"
  bottom: "inception_3b/5x5"
  top: "inception_3b/5x5"
}
layer {
  name: "inception_3b/pool"
  type: "Pooling"
  bottom: "inception_3a/output_inception_3a/output_0_split_3"
  top: "inception_3b/pool"
  pooling_param {
    pool: MAX
    kernel_size: 3
    stride: 1
    pad: 1
  }
}
layer {
  name: "inception_3b/pool_proj"
  type: "Convolution"
  bottom: "inception_3b/pool"
  top: "inception_3b/pool_proj"
  param {
    lr_mult: 1
    decay_mult: 1
  }
  param {
    lr_mult: 2
    decay_mult: 0
  }
  convolution_param {
    num_output: 64
    kernel_size: 1
    weight_filler {
      type: "xavier"
    }
    bias_filler {
      type: "constant"
      value: 0.2
    }
  }
}
layer {
  name: "inception_3b/relu_pool_proj"
  type: "ReLU"
  bottom: "inception_3b/pool_proj"
  top: "inception_3b/pool_proj"
}
layer {
  name: "inception_3b/output"
  type: "Concat"
  bottom: "inception_3b/1x1"
  bottom: "inception_3b/3x3"
  bottom: "inception_3b/5x5"
  bottom: "inception_3b/pool_proj"
  top: "inception_3b/output"
}
layer {
  name: "pool3/3x3_s2"
  type: "Pooling"
  bottom: "inception_3b/output"
  top: "pool3/3x3_s2"
  pooling_param {
    pool: MAX
    kernel_size: 3
    stride: 2
  }
}
layer {
  name: "pool3/3x3_s2_pool3/3x3_s2_0_split"
  type: "Split"
  bottom: "pool3/3x3_s2"
  top: "pool3/3x3_s2_pool3/3x3_s2_0_split_0"
  top: "pool3/3x3_s2_pool3/3x3_s2_0_split_1"
  top: "pool3/3x3_s2_pool3/3x3_s2_0_split_2"
  top: "pool3/3x3_s2_pool3/3x3_s2_0_split_3"
}
layer {
  name: "inception_4a/1x1"
  type: "Convolution"
  bottom: "pool3/3x3_s2_pool3/3x3_s2_0_split_0"
  top: "inception_4a/1x1"
  param {
    lr_mult: 1
    decay_mult: 1
  }
  param {
    lr_mult: 2
    decay_mult: 0
  }
  convolution_param {
    num_output: 192
    kernel_size: 1
    weight_filler {
      type: "xavier"
    }
    bias_filler {
      type: "constant"
      value: 0.2
    }
  }
}
layer {
  name: "inception_4a/relu_1x1"
  type: "ReLU"
  bottom: "inception_4a/1x1"
  top: "inception_4a/1x1"
}
layer {
  name: "inception_4a/3x3_reduce"
  type: "Convolution"
  bottom: "pool3/3x3_s2_pool3/3x3_s2_0_split_1"
  top: "inception_4a/3x3_reduce"
  param {
    lr_mult: 1
    decay_mult: 1
  }
  param {
    lr_mult: 2
    decay_mult: 0
  }
  convolution_param {
    num_output: 96
    kernel_size: 1
    weight_filler {
      type: "xavier"
    }
    bias_filler {
      type: "constant"
      value: 0.2
    }
  }
}
layer {
  name: "inception_4a/relu_3x3_reduce"
  type: "ReLU"
  bottom: "inception_4a/3x3_reduce"
  top: "inception_4a/3x3_reduce"
}
layer {
  name: "inception_4a/3x3"
  type: "Convolution"
  bottom: "inception_4a/3x3_reduce"
  top: "inception_4a/3x3"
  param {
    lr_mult: 1
    decay_mult: 1
  }
  param {
    lr_mult: 2
    decay_mult: 0
  }
  convolution_param {
    num_output: 208
    pad: 1
    kernel_size: 3
    weight_filler {
      type: "xavier"
    }
    bias_filler {
      type: "constant"
      value: 0.2
    }
  }
}
layer {
  name: "inception_4a/relu_3x3"
  type: "ReLU"
  bottom: "inception_4a/3x3"
  top: "inception_4a/3x3"
}
layer {
  name: "inception_4a/5x5_reduce"
  type: "Convolution"
  bottom: "pool3/3x3_s2_pool3/3x3_s2_0_split_2"
  top: "inception_4a/5x5_reduce"
  param {
    lr_mult: 1
    decay_mult: 1
  }
  param {
    lr_mult: 2
    decay_mult: 0
  }
  convolution_param {
    num_output: 16
    kernel_size: 1
    weight_filler {
      type: "xavier"
    }
    bias_filler {
      type: "constant"
      value: 0.2
    }
  }
}
layer {
  name: "inception_4a/relu_5x5_reduce"
  type: "ReLU"
  bottom: "inception_4a/5x5_reduce"
  top: "inception_4a/5x5_reduce"
}
layer {
  name: "inception_4a/5x5"
  type: "Convolution"
  bottom: "inception_4a/5x5_reduce"
  top: "inception_4a/5x5"
  param {
    lr_mult: 1
    decay_mult: 1
  }
  param {
    lr_mult: 2
    decay_mult: 0
  }
  convolution_param {
    num_output: 48
    pad: 2
    kernel_size: 5
    weight_filler {
      type: "xavier"
    }
    bias_filler {
      type: "constant"
      value: 0.2
    }
  }
}
layer {
  name: "inception_4a/relu_5x5"
  type: "ReLU"
  bottom: "inception_4a/5x5"
  top: "inception_4a/5x5"
}
layer {
  name: "inception_4a/pool"
  type: "Pooling"
  bottom: "pool3/3x3_s2_pool3/3x3_s2_0_split_3"
  top: "inception_4a/pool"
  pooling_param {
    pool: MAX
    kernel_size: 3
    stride: 1
    pad: 1
  }
}
layer {
  name: "inception_4a/pool_proj"
  type: "Convolution"
  bottom: "inception_4a/pool"
  top: "inception_4a/pool_proj"
  param {
    lr_mult: 1
    decay_mult: 1
  }
  param {
    lr_mult: 2
    decay_mult: 0
  }
  convolution_param {
    num_output: 64
    kernel_size: 1
    weight_filler {
      type: "xavier"
    }
    bias_filler {
      type: "constant"
…
I0123 12:18:05.255305 38124 layer_factory.hpp:114] Creating layer inception_4c/pool
I0123 12:18:05.255331 38124 net.cpp:160] Creating Layer inception_4c/pool
I0123 12:18:05.255342 38124 net.cpp:596] inception_4c/pool <- inception_4b/output_inception_4b/output_0_split_3
I0123 12:18:05.255350 38124 net.cpp:570] inception_4c/pool -> inception_4c/pool
I0123 12:18:05.255363 38124 net.cpp:210] Setting up inception_4c/pool
I0123 12:18:05.255375 38124 net.cpp:217] Top shape: 50 512 14 14 (5017600)
I0123 12:18:05.255383 38124 net.cpp:225] Memory required for data: 2210363612
I0123 12:18:05.255390 38124 layer_factory.hpp:114] Creating layer inception_4c/pool_proj
I0123 12:18:05.255403 38124 net.cpp:160] Creating Layer inception_4c/pool_proj
I0123 12:18:05.255411 38124 net.cpp:596] inception_4c/pool_proj <- inception_4c/pool
I0123 12:18:05.255426 38124 net.cpp:570] inception_4c/pool_proj -> inception_4c/pool_proj
I0123 12:18:05.262715 38124 net.cpp:210] Setting up inception_4c/pool_proj
I0123 12:18:05.262737 38124 net.cpp:217] Top shape: 50 64 14 14 (627200)
I0123 12:18:05.262743 38124 net.cpp:225] Memory required for data: 2212872412
I0123 12:18:05.262754 38124 layer_factory.hpp:114] Creating layer inception_4c/relu_pool_proj
I0123 12:18:05.262765 38124 net.cpp:160] Creating Layer inception_4c/relu_pool_proj
I0123 12:18:05.262773 38124 net.cpp:596] inception_4c/relu_pool_proj <- inception_4c/pool_proj
I0123 12:18:05.262784 38124 net.cpp:557] inception_4c/relu_pool_proj -> inception_4c/pool_proj (in-place)
I0123 12:18:05.262796 38124 net.cpp:210] Setting up inception_4c/relu_pool_proj
I0123 12:18:05.262805 38124 net.cpp:217] Top shape: 50 64 14 14 (627200)
I0123 12:18:05.262811 38124 net.cpp:225] Memory required for data: 2215381212
I0123 12:18:05.262820 38124 layer_factory.hpp:114] Creating layer inception_4c/output
I0123 12:18:05.262836 38124 net.cpp:160] Creating Layer inception_4c/output
I0123 12:18:05.262845 38124 net.cpp:596] inception_4c/output <- inception_4c/1x1
I0123 12:18:05.262853 38124 net.cpp:596] inception_4c/output <- inception_4c/3x3
I0123 12:18:05.262861 38124 net.cpp:596] inception_4c/output <- inception_4c/5x5
I0123 12:18:05.262871 38124 net.cpp:596] inception_4c/output <- inception_4c/pool_proj
I0123 12:18:05.262881 38124 net.cpp:570] inception_4c/output -> inception_4c/output
I0123 12:18:05.262893 38124 net.cpp:210] Setting up inception_4c/output
I0123 12:18:05.262903 38124 net.cpp:217] Top shape: 50 512 14 14 (5017600)
I0123 12:18:05.262909 38124 net.cpp:225] Memory required for data: 2235451612
I0123 12:18:05.262917 38124 layer_factory.hpp:114] Creating layer inception_4c/output_inception_4c/output_0_split
I0123 12:18:05.262926 38124 net.cpp:160] Creating Layer inception_4c/output_inception_4c/output_0_split
I0123 12:18:05.262934 38124 net.cpp:596] inception_4c/output_inception_4c/output_0_split <- inception_4c/output
I0123 12:18:05.262943 38124 net.cpp:570] inception_4c/output_inception_4c/output_0_split -> inception_4c/output_inception_4c/output_0_split_0
I0123 12:18:05.262954 38124 net.cpp:570] inception_4c/output_inception_4c/output_0_split -> inception_4c/output_inception_4c/output_0_split_1
I0123 12:18:05.262965 38124 net.cpp:570] inception_4c/output_inception_4c/output_0_split -> inception_4c/output_inception_4c/output_0_split_2
I0123 12:18:05.262977 38124 net.cpp:570] inception_4c/output_inception_4c/output_0_split -> inception_4c/output_inception_4c/output_0_split_3
I0123 12:18:05.262989 38124 net.cpp:210] Setting up inception_4c/output_inception_4c/output_0_split
I0123 12:18:05.262997 38124 net.cpp:217] Top shape: 50 512 14 14 (5017600)
I0123 12:18:05.263006 38124 net.cpp:217] Top shape: 50 512 14 14 (5017600)
I0123 12:18:05.263015 38124 net.cpp:217] Top shape: 50 512 14 14 (5017600)
I0123 12:18:05.263022 38124 net.cpp:217] Top shape: 50 512 14 14 (5017600)
I0123 12:18:05.263028 38124 net.cpp:225] Memory required for data: 2315733212
I0123 12:18:05.263036 38124 layer_factory.hpp:114] Creating layer inception_4d/1x1
I0123 12:18:05.263051 38124 net.cpp:160] Creating Layer inception_4d/1x1
I0123 12:18:05.263058 38124 net.cpp:596] inception_4d/1x1 <- inception_4c/output_inception_4c/output_0_split_0
I0123 12:18:05.263070 38124 net.cpp:570] inception_4d/1x1 -> inception_4d/1x1
I0123 12:18:05.271596 38124 net.cpp:210] Setting up inception_4d/1x1
I0123 12:18:05.271615 38124 net.cpp:217] Top shape: 50 112 14 14 (1097600)
I0123 12:18:05.271621 38124 net.cpp:225] Memory required for data: 2320123612
I0123 12:18:05.271632 38124 layer_factory.hpp:114] Creating layer inception_4d/relu_1x1
I0123 12:18:05.271656 38124 net.cpp:160] Creating Layer inception_4d/relu_1x1
I0123 12:18:05.271666 38124 net.cpp:596] inception_4d/relu_1x1 <- inception_4d/1x1
I0123 12:18:05.271674 38124 net.cpp:557] inception_4d/relu_1x1 -> inception_4d/1x1 (in-place)
I0123 12:18:05.271685 38124 net.cpp:210] Setting up inception_4d/relu_1x1
I0123 12:18:05.271694 38124 net.cpp:217] Top shape: 50 112 14 14 (1097600)
I0123 12:18:05.271710 38124 net.cpp:225] Memory required for data: 2324514012
I0123 12:18:05.271729 38124 layer_factory.hpp:114] Creating layer inception_4d/3x3_reduce
I0123 12:18:05.271746 38124 net.cpp:160] Creating Layer inception_4d/3x3_reduce
I0123 12:18:05.271754 38124 net.cpp:596] inception_4d/3x3_reduce <- inception_4c/output_inception_4c/output_0_split_1
I0123 12:18:05.271767 38124 net.cpp:570] inception_4d/3x3_reduce -> inception_4d/3x3_reduce
I0123 12:18:05.281158 38124 net.cpp:210] Setting up inception_4d/3x3_reduce
I0123 12:18:05.281260 38124 net.cpp:217] Top shape: 50 144 14 14 (1411200)
I0123 12:18:05.281267 38124 net.cpp:225] Memory required for data: 2330158812
I0123 12:18:05.281278 38124 layer_factory.hpp:114] Creating layer inception_4d/relu_3x3_reduce
I0123 12:18:05.281298 38124 net.cpp:160] Creating Layer inception_4d/relu_3x3_reduce
I0123 12:18:05.281306 38124 net.cpp:596] inception_4d/relu_3x3_reduce <- inception_4d/3x3_reduce
I0123 12:18:05.281316 38124 net.cpp:557] inception_4d/relu_3x3_reduce -> inception_4d/3x3_reduce (in-place)
I0123 12:18:05.281327 38124 net.cpp:210] Setting up inception_4d/relu_3x3_reduce
I0123 12:18:05.281335 38124 net.cpp:217] Top shape: 50 144 14 14 (1411200)
I0123 12:18:05.281342 38124 net.cpp:225] Memory required for data: 2335803612
I0123 12:18:05.281349 38124 layer_factory.hpp:114] Creating layer inception_4d/3x3
I0123 12:18:05.281361 38124 net.cpp:160] Creating Layer inception_4d/3x3
I0123 12:18:05.281369 38124 net.cpp:596] inception_4d/3x3 <- inception_4d/3x3_reduce
I0123 12:18:05.281381 38124 net.cpp:570] inception_4d/3x3 -> inception_4d/3x3
I0123 12:18:05.314154 38124 net.cpp:210] Setting up inception_4d/3x3
I0123 12:18:05.314285 38124 net.cpp:217] Top shape: 50 288 14 14 (2822400)
I0123 12:18:05.314292 38124 net.cpp:225] Memory required for data: 2347093212
I0123 12:18:05.314303 38124 layer_factory.hpp:114] Creating layer inception_4d/relu_3x3
I0123 12:18:05.314313 38124 net.cpp:160] Creating Layer inception_4d/relu_3x3
I0123 12:18:05.314321 38124 net.cpp:596] inception_4d/relu_3x3 <- inception_4d/3x3
I0123 12:18:05.314332 38124 net.cpp:557] inception_4d/relu_3x3 -> inception_4d/3x3 (in-place)
I0123 12:18:05.314342 38124 net.cpp:210] Setting up inception_4d/relu_3x3
I0123 12:18:05.314350 38124 net.cpp:217] Top shape: 50 288 14 14 (2822400)
I0123 12:18:05.314357 38124 net.cpp:225] Memory required for data: 2358382812
I0123 12:18:05.314365 38124 layer_factory.hpp:114] Creating layer inception_4d/5x5_reduce
I0123 12:18:05.314381 38124 net.cpp:160] Creating Layer inception_4d/5x5_reduce
I0123 12:18:05.314389 38124 net.cpp:596] inception_4d/5x5_reduce <- inception_4c/output_inception_4c/output_0_split_2
I0123 12:18:05.314400 38124 net.cpp:570] inception_4d/5x5_reduce -> inception_4d/5x5_reduce
I0123 12:18:05.320799 38124 net.cpp:210] Setting up inception_4d/5x5_reduce
I0123 12:18:05.320816 38124 net.cpp:217] Top shape: 50 32 14 14 (313600)
I0123 12:18:05.320822 38124 net.cpp:225] Memory required for data: 2359637212
I0123 12:18:05.320832 38124 layer_factory.hpp:114] Creating layer inception_4d/relu_5x5_reduce
I0123 12:18:05.320866 38124 net.cpp:160] Creating Layer inception_4d/relu_5x5_reduce
I0123 12:18:05.320874 38124 net.cpp:596] inception_4d/relu_5x5_reduce <- inception_4d/5x5_reduce
I0123 12:18:05.320884 38124 net.cpp:557] inception_4d/relu_5x5_reduce -> inception_4d/5x5_reduce (in-place)
I0123 12:18:05.320894 38124 net.cpp:210] Setting up inception_4d/relu_5x5_reduce
I0123 12:18:05.320904 38124 net.cpp:217] Top shape: 50 32 14 14 (313600)
I0123 12:18:05.320910 38124 net.cpp:225] Memory required for data: 2360891612
I0123 12:18:05.320917 38124 layer_factory.hpp:114] Creating layer inception_4d/5x5
I0123 12:18:05.320931 38124 net.cpp:160] Creating Layer inception_4d/5x5
I0123 12:18:05.320940 38124 net.cpp:596] inception_4d/5x5 <- inception_4d/5x5_reduce
I0123 12:18:05.320951 38124 net.cpp:570] inception_4d/5x5 -> inception_4d/5x5
I0123 12:18:05.331861 38124 net.cpp:210] Setting up inception_4d/5x5
I0123 12:18:05.331892 38124 net.cpp:217] Top shape: 50 64 14 14 (627200)
I0123 12:18:05.331908 38124 net.cpp:225] Memory required for data: 2363400412
I0123 12:18:05.331943 38124 layer_factory.hpp:114] Creating layer inception_4d/relu_5x5
I0123 12:18:05.331957 38124 net.cpp:160] Creating Layer inception_4d/relu_5x5
I0123 12:18:05.331966 38124 net.cpp:596] inception_4d/relu_5x5 <- inception_4d/5x5
I0123 12:18:05.331976 38124 net.cpp:557] inception_4d/relu_5x5 -> inception_4d/5x5 (in-place)
I0123 12:18:05.331987 38124 net.cpp:210] Setting up inception_4d/relu_5x5
I0123 12:18:05.331996 38124 net.cpp:217] Top shape: 50 64 14 14 (627200)
I0123 12:18:05.332003 38124 net.cpp:225] Memory required for data: 2365909212
I0123 12:18:05.332017 38124 layer_factory.hpp:114] Creating layer inception_4d/pool
I0123 12:18:05.332042 38124 net.cpp:160] Creating Layer inception_4d/pool
I0123 12:18:05.332052 38124 net.cpp:596] inception_4d/pool <- inception_4c/output_inception_4c/output_0_split_3
I0123 12:18:05.332063 38124 net.cpp:570] inception_4d/pool -> inception_4d/pool
I0123 12:18:05.332077 38124 net.cpp:210] Setting up inception_4d/pool
I0123 12:18:05.332087 38124 net.cpp:217] Top shape: 50 512 14 14 (5017600)
I0123 12:18:05.332094 38124 net.cpp:225] Memory required for data: 2385979612
I0123 12:18:05.332101 38124 layer_factory.hpp:114] Creating layer inception_4d/pool_proj
I0123 12:18:05.332116 38124 net.cpp:160] Creating Layer inception_4d/pool_proj
I0123 12:18:05.332125 38124 net.cpp:596] inception_4d/pool_proj <- inception_4d/pool
I0123 12:18:05.332142 38124 net.cpp:570] inception_4d/pool_proj -> inception_4d/pool_proj
I0123 12:18:05.339535 38124 net.cpp:210] Setting up inception_4d/pool_proj
I0123 12:18:05.339557 38124 net.cpp:217] Top shape: 50 64 14 14 (627200)
I0123 12:18:05.339565 38124 net.cpp:225] Memory required for data: 2388488412
I0123 12:18:05.339576 38124 layer_factory.hpp:114] Creating layer inception_4d/relu_pool_proj
I0123 12:18:05.339601 38124 net.cpp:160] Creating Layer inception_4d/relu_pool_proj
I0123 12:18:05.339608 38124 net.cpp:596] inception_4d/relu_pool_proj <- inception_4d/pool_proj
I0123 12:18:05.339618 38124 net.cpp:557] inception_4d/relu_pool_proj -> inception_4d/pool_proj (in-place)
I0123 12:18:05.339629 38124 net.cpp:210] Setting up inception_4d/relu_pool_proj
I0123 12:18:05.339638 38124 net.cpp:217] Top shape: 50 64 14 14 (627200)
I0123 12:18:05.339645 38124 net.cpp:225] Memory required for data: 2390997212
I0123 12:18:05.339653 38124 layer_factory.hpp:114] Creating layer inception_4d/output
I0123 12:18:05.339663 38124 net.cpp:160] Creating Layer inception_4d/output
I0123 12:18:05.339670 38124 net.cpp:596] inception_4d/output <- inception_4d/1x1
I0123 12:18:05.339679 38124 net.cpp:596] inception_4d/output <- inception_4d/3x3
I0123 12:18:05.339687 38124 net.cpp:596] inception_4d/output <- inception_4d/5x5
I0123 12:18:05.339696 38124 net.cpp:596] inception_4d/output <- inception_4d/pool_proj
I0123 12:18:05.339707 38124 net.cpp:570] inception_4d/output -> inception_4d/output
I0123 12:18:05.339720 38124 net.cpp:210] Setting up inception_4d/output
I0123 12:18:05.339730 38124 net.cpp:217] Top shape: 50 528 14 14 (5174400)
I0123 12:18:05.339736 38124 net.cpp:225] Memory required for data: 2411694812
I0123 12:18:05.339743 38124 layer_factory.hpp:114] Creating layer inception_4d/output_inception_4d/output_0_split
I0123 12:18:05.339766 38124 net.cpp:160] Creating Layer inception_4d/output_inception_4d/output_0_split
I0123 12:18:05.339773 38124 net.cpp:596] inception_4d/output_inception_4d/output_0_split <- inception_4d/output
I0123 12:18:05.339783 38124 net.cpp:570] inception_4d/output_inception_4d/output_0_split -> inception_4d/output_inception_4d/output_0_split_0
I0123 12:18:05.339794 38124 net.cpp:570] inception_4d/output_inception_4d/output_0_split -> inception_4d/output_inception_4d/output_0_split_1
I0123 12:18:05.339805 38124 net.cpp:570] inception_4d/output_inception_4d/output_0_split -> inception_4d/output_inception_4d/output_0_split_2
I0123 12:18:05.339817 38124 net.cpp:570] inception_4d/output_inception_4d/output_0_split -> inception_4d/output_inception_4d/output_0_split_3
I0123 12:18:05.339838 38124 net.cpp:570] inception_4d/output_inception_4d/output_0_split -> inception_4d/output_inception_4d/output_0_split_4
I0123 12:18:05.339856 38124 net.cpp:210] Setting up inception_4d/output_inception_4d/output_0_split
I0123 12:18:05.339866 38124 net.cpp:217] Top shape: 50 528 14 14 (5174400)
I0123 12:18:05.339875 38124 net.cpp:217] Top shape: 50 528 14 14 (5174400)
I0123 12:18:05.339884 38124 net.cpp:217] Top shape: 50 528 14 14 (5174400)
I0123 12:18:05.339891 38124 net.cpp:217] Top shape: 50 528 14 14 (5174400)
I0123 12:18:05.339900 38124 net.cpp:217] Top shape: 50 528 14 14 (5174400)
I0123 12:18:05.339906 38124 net.cpp:225] Memory required for data: 2515182812
I0123 12:18:05.339913 38124 layer_factory.hpp:114] Creating layer loss2/ave_pool
I0123 12:18:05.339941 38124 net.cpp:160] Creating Layer loss2/ave_pool
I0123 12:18:05.339951 38124 net.cpp:596] loss2/ave_pool <- inception_4d/output_inception_4d/output_0_split_0
I0123 12:18:05.339961 38124 net.cpp:570] loss2/ave_pool -> loss2/ave_pool
I0123 12:18:05.339972 38124 net.cpp:210] Setting up loss2/ave_pool
I0123 12:18:05.339982 38124 net.cpp:217] Top shape: 50 528 4 4 (422400)
I0123 12:18:05.339989 38124 net.cpp:225] Memory required for data: 2516872412
I0123 12:18:05.339998 38124 layer_factory.hpp:114] Creating layer loss2/conv
I0123 12:18:05.340013 38124 net.cpp:160] Creating Layer loss2/conv
I0123 12:18:05.340021 38124 net.cpp:596] loss2/conv <- loss2/ave_pool
I0123 12:18:05.340034 38124 net.cpp:570] loss2/conv -> loss2/conv
I0123 12:18:05.344475 38124 net.cpp:210] Setting up loss2/conv
I0123 12:18:05.344491 38124 net.cpp:217] Top shape: 50 128 4 4 (102400)
I0123 12:18:05.344498 38124 net.cpp:225] Memory required for data: 2517282012
I0123 12:18:05.344508 38124 layer_factory.hpp:114] Creating layer loss2/relu_conv
I0123 12:18:05.344518 38124 net.cpp:160] Creating Layer loss2/relu_conv
I0123 12:18:05.344527 38124 net.cpp:596] loss2/relu_conv <- loss2/conv
I0123 12:18:05.344543 38124 net.cpp:557] loss2/relu_conv -> loss2/conv (in-place)
I0123 12:18:05.344554 38124 net.cpp:210] Setting up loss2/relu_conv
I0123 12:18:05.344563 38124 net.cpp:217] Top shape: 50 128 4 4 (102400)
I0123 12:18:05.344570 38124 net.cpp:225] Memory required for data: 2517691612
I0123 12:18:05.344578 38124 layer_factory.hpp:114] Creating layer loss2/fc
I0123 12:18:05.344624 38124 net.cpp:160] Creating Layer loss2/fc
I0123 12:18:05.344632 38124 net.cpp:596] loss2/fc <- loss2/conv
I0123 12:18:05.344642 38124 net.cpp:570] loss2/fc -> loss2/fc
I0123 12:18:05.364608 38124 net.cpp:210] Setting up loss2/fc
I0123 12:18:05.364630 38124 net.cpp:217] Top shape: 50 1024 (51200)
I0123 12:18:05.364639 38124 net.cpp:225] Memory required for data: 2517896412
I0123 12:18:05.364648 38124 layer_factory.hpp:114] Creating layer loss2/relu_fc
I0123 12:18:05.364660 38124 net.cpp:160] Creating Layer loss2/relu_fc
I0123 12:18:05.364668 38124 net.cpp:596] loss2/relu_fc <- loss2/fc
I0123 12:18:05.364677 38124 net.cpp:557] loss2/relu_fc -> loss2/fc (in-place)
I0123 12:18:05.364688 38124 net.cpp:210] Setting up loss2/relu_fc
I0123 12:18:05.364697 38124 net.cpp:217] Top shape: 50 1024 (51200)
I0123 12:18:05.364704 38124 net.cpp:225] Memory required for data: 2518101212
I0123 12:18:05.364711 38124 layer_factory.hpp:114] Creating layer loss2/drop_fc
I0123 12:18:05.364724 38124 net.cpp:160] Creating Layer loss2/drop_fc
I0123 12:18:05.364732 38124 net.cpp:596] loss2/drop_fc <- loss2/fc
I0123 12:18:05.364742 38124 net.cpp:557] loss2/drop_fc -> loss2/fc (in-place)
I0123 12:18:05.364758 38124 net.cpp:210] Setting up loss2/drop_fc
I0123 12:18:05.364766 38124 net.cpp:217] Top shape: 50 1024 (51200)
I0123 12:18:05.364773 38124 net.cpp:225] Memory required for data: 2518306012
I0123 12:18:05.364780 38124 layer_factory.hpp:114] Creating layer loss2/classifier
I0123 12:18:05.364794 38124 net.cpp:160] Creating Layer loss2/classifier
I0123 12:18:05.364801 38124 net.cpp:596] loss2/classifier <- loss2/fc
I0123 12:18:05.364811 38124 net.cpp:570] loss2/classifier -> loss2/classifier
I0123 12:18:05.374969 38124 net.cpp:210] Setting up loss2/classifier
I0123 12:18:05.375010 38124 net.cpp:217] Top shape: 50 1000 (50000)
I0123 12:18:05.375017 38124 net.cpp:225] Memory required for data: 2518506012
I0123 12:18:05.375027 38124 layer_factory.hpp:114] Creating layer loss2/classifier_loss2/classifier_0_split
I0123 12:18:05.375048 38124 net.cpp:160] Creating Layer loss2/classifier_loss2/classifier_0_split
I0123 12:18:05.375057 38124 net.cpp:596] loss2/classifier_loss2/classifier_0_split <- loss2/classifier
I0123 12:18:05.375067 38124 net.cpp:570] loss2/classifier_loss2/classifier_0_split -> loss2/classifier_loss2/classifier_0_split_0
I0123 12:18:05.375079 38124 net.cpp:570] loss2/classifier_loss2/classifier_0_split -> loss2/classifier_loss2/classifier_0_split_1
I0123 12:18:05.375090 38124 net.cpp:570] loss2/classifier_loss2/classifier_0_split -> loss2/classifier_loss2/classifier_0_split_2
I0123 12:18:05.375102 38124 net.cpp:210] Setting up loss2/classifier_loss2/classifier_0_split
I0123 12:18:05.375111 38124 net.cpp:217] Top shape: 50 1000 (50000)
I0123 12:18:05.375119 38124 net.cpp:217] Top shape: 50 1000 (50000)
I0123 12:18:05.375128 38124 net.cpp:217] Top shape: 50 1000 (50000)
I0123 12:18:05.375133 38124 net.cpp:225] Memory required for data: 2519106012
I0123 12:18:05.375141 38124 layer_factory.hpp:114] Creating layer loss2/loss
I0123 12:18:05.375154 38124 net.cpp:160] Creating Layer loss2/loss
I0123 12:18:05.375243 38124 net.cpp:596] loss2/loss <- loss2/classifier_loss2/classifier_0_split_0
I0123 12:18:05.375254 38124 net.cpp:596] loss2/loss <- label_data_1_split_3
…
I0123 12:18:05.375623 38124 net.cpp:210] Setting up loss2/top-5
I0123 12:18:05.375633 38124 net.cpp:217] Top shape: (1)
I0123 12:18:05.375639 38124 net.cpp:225] Memory required for data: 2519106024
I0123 12:18:05.375646 38124 layer_factory.hpp:114] Creating layer inception_4e/1x1
I0123 12:18:05.375663 38124 net.cpp:160] Creating Layer inception_4e/1x1
I0123 12:18:05.375670 38124 net.cpp:596] inception_4e/1x1 <- inception_4d/output_inception_4d/output_0_split_1
I0123 12:18:05.375682 38124 net.cpp:570] inception_4e/1x1 -> inception_4e/1x1
I0123 12:18:05.389011 38124 net.cpp:210] Setting up inception_4e/1x1
I0123 12:18:05.389046 38124 net.cpp:217] Top shape: 50 256 14 14 (2508800)
I0123 12:18:05.389053 38124 net.cpp:225] Memory required for data: 2529141224
I0123 12:18:05.389065 38124 layer_factory.hpp:114] Creating layer inception_4e/relu_1x1
I0123 12:18:05.389077 38124 net.cpp:160] Creating Layer inception_4e/relu_1x1
I0123 12:18:05.389086 38124 net.cpp:596] inception_4e/relu_1x1 <- inception_4e/1x1
I0123 12:18:05.389097 38124 net.cpp:557] inception_4e/relu_1x1 -> inception_4e/1x1 (in-place)
I0123 12:18:05.389118 38124 net.cpp:210] Setting up inception_4e/relu_1x1
I0123 12:18:05.389132 38124 net.cpp:217] Top shape: 50 256 14 14 (2508800)
I0123 12:18:05.389138 38124 net.cpp:225] Memory required for data: 2539176424
I0123 12:18:05.389147 38124 layer_factory.hpp:114] Creating layer inception_4e/3x3_reduce
I0123 12:18:05.389251 38124 net.cpp:160] Creating Layer inception_4e/3x3_reduce
I0123 12:18:05.389261 38124 net.cpp:596] inception_4e/3x3_reduce <- inception_4d/output_inception_4d/output_0_split_2
I0123 12:18:05.389273 38124 net.cpp:570] inception_4e/3x3_reduce -> inception_4e/3x3_reduce
I0123 12:18:05.399776 38124 net.cpp:210] Setting up inception_4e/3x3_reduce
I0123 12:18:05.399796 38124 net.cpp:217] Top shape: 50 160 14 14 (1568000)
I0123 12:18:05.399803 38124 net.cpp:225] Memory required for data: 2545448424
I0123 12:18:05.399814 38124 layer_factory.hpp:114] Creating layer inception_4e/relu_3x3_reduce
I0123 12:18:05.399824 38124 net.cpp:160] Creating Layer inception_4e/relu_3x3_reduce
I0123 12:18:05.399833 38124 net.cpp:596] inception_4e/relu_3x3_reduce <- inception_4e/3x3_reduce
I0123 12:18:05.399842 38124 net.cpp:557] inception_4e/relu_3x3_reduce -> inception_4e/3x3_reduce (in-place)
I0123 12:18:05.399853 38124 net.cpp:210] Setting up inception_4e/relu_3x3_reduce
I0123 12:18:05.399863 38124 net.cpp:217] Top shape: 50 160 14 14 (1568000)
I0123 12:18:05.399869 38124 net.cpp:225] Memory required for data: 2551720424
I0123 12:18:05.399876 38124 layer_factory.hpp:114] Creating layer inception_4e/3x3
I0123 12:18:05.399890 38124 net.cpp:160] Creating Layer inception_4e/3x3
I0123 12:18:05.399899 38124 net.cpp:596] inception_4e/3x3 <- inception_4e/3x3_reduce
I0123 12:18:05.399909 38124 net.cpp:570] inception_4e/3x3 -> inception_4e/3x3
I0123 12:18:05.439513 38124 net.cpp:210] Setting up inception_4e/3x3
I0123 12:18:05.439528 38124 net.cpp:217] Top shape: 50 320 14 14 (3136000)
I0123 12:18:05.439535 38124 net.cpp:225] Memory required for data: 2564264424
I0123 12:18:05.439546 38124 layer_factory.hpp:114] Creating layer inception_4e/relu_3x3
I0123 12:18:05.439570 38124 net.cpp:160] Creating Layer inception_4e/relu_3x3
I0123 12:18:05.439579 38124 net.cpp:596] inception_4e/relu_3x3 <- inception_4e/3x3
I0123 12:18:05.439589 38124 net.cpp:557] inception_4e/relu_3x3 -> inception_4e/3x3 (in-place)
I0123 12:18:05.439599 38124 net.cpp:210] Setting up inception_4e/relu_3x3
I0123 12:18:05.439607 38124 net.cpp:217] Top shape: 50 320 14 14 (3136000)
I0123 12:18:05.439615 38124 net.cpp:225] Memory required for data: 2576808424
I0123 12:18:05.439621 38124 layer_factory.hpp:114] Creating layer inception_4e/5x5_reduce
I0123 12:18:05.439633 38124 net.cpp:160] Creating Layer inception_4e/5x5_reduce
I0123 12:18:05.439641 38124 net.cpp:596] inception_4e/5x5_reduce <- inception_4d/output_inception_4d/output_0_split_3
I0123 12:18:05.439653 38124 net.cpp:570] inception_4e/5x5_reduce -> inception_4e/5x5_reduce
I0123 12:18:05.445853 38124 net.cpp:210] Setting up inception_4e/5x5_reduce
I0123 12:18:05.445868 38124 net.cpp:217] Top shape: 50 32 14 14 (313600)
I0123 12:18:05.445875 38124 net.cpp:225] Memory required for data: 2578062824
I0123 12:18:05.445886 38124 layer_factory.hpp:114] Creating layer inception_4e/relu_5x5_reduce
I0123 12:18:05.445897 38124 net.cpp:160] Creating Layer inception_4e/relu_5x5_reduce
I0123 12:18:05.445906 38124 net.cpp:596] inception_4e/relu_5x5_reduce <- inception_4e/5x5_reduce
I0123 12:18:05.445915 38124 net.cpp:557] inception_4e/relu_5x5_reduce -> inception_4e/5x5_reduce (in-place)
I0123 12:18:05.445926 38124 net.cpp:210] Setting up inception_4e/relu_5x5_reduce
I0123 12:18:05.445935 38124 net.cpp:217] Top shape: 50 32 14 14 (313600)
I0123 12:18:05.445941 38124 net.cpp:225] Memory required for data: 2579317224
I0123 12:18:05.445950 38124 layer_factory.hpp:114] Creating layer inception_4e/5x5
I0123 12:18:05.445967 38124 net.cpp:160] Creating Layer inception_4e/5x5
I0123 12:18:05.445976 38124 net.cpp:596] inception_4e/5x5 <- inception_4e/5x5_reduce
I0123 12:18:05.445987 38124 net.cpp:570] inception_4e/5x5 -> inception_4e/5x5
I0123 12:18:05.459653 38124 net.cpp:210] Setting up inception_4e/5x5
I0123 12:18:05.459673 38124 net.cpp:217] Top shape: 50 128 14 14 (1254400)
I0123 12:18:05.459681 38124 net.cpp:225] Memory required for data: 2584334824
I0123 12:18:05.459692 38124 layer_factory.hpp:114] Creating layer inception_4e/relu_5x5
I0123 12:18:05.459704 38124 net.cpp:160] Creating Layer inception_4e/relu_5x5
I0123 12:18:05.459712 38124 net.cpp:596] inception_4e/relu_5x5 <- inception_4e/5x5
I0123 12:18:05.459722 38124 net.cpp:557] inception_4e/relu_5x5 -> inception_4e/5x5 (in-place)
I0123 12:18:05.459731 38124 net.cpp:210] Setting up inception_4e/relu_5x5
I0123 12:18:05.459740 38124 net.cpp:217] Top shape: 50 128 14 14 (1254400)
I0123 12:18:05.459748 38124 net.cpp:225] Memory required for data: 2589352424
I0123 12:18:05.459755 38124 layer_factory.hpp:114] Creating layer inception_4e/pool
I0123 12:18:05.459808 38124 net.cpp:160] Creating Layer inception_4e/pool
I0123 12:18:05.459818 38124 net.cpp:596] inception_4e/pool <- inception_4d/output_inception_4d/output_0_split_4
I0123 12:18:05.459830 38124 net.cpp:570] inception_4e/pool -> inception_4e/pool
I0123 12:18:05.459846 38124 net.cpp:210] Setting up inception_4e/pool
I0123 12:18:05.459856 38124 net.cpp:217] Top shape: 50 528 14 14 (5174400)
I0123 12:18:05.459862 38124 net.cpp:225] Memory required for data: 2610050024
I0123 12:18:05.459869 38124 layer_factory.hpp:114] Creating layer inception_4e/pool_proj
I0123 12:18:05.459884 38124 net.cpp:160] Creating Layer inception_4e/pool_proj
I0123 12:18:05.459892 38124 net.cpp:596] inception_4e/pool_proj <- inception_4e/pool
I0123 12:18:05.459904 38124 net.cpp:570] inception_4e/pool_proj -> inception_4e/pool_proj
I0123 12:18:05.469509 38124 net.cpp:210] Setting up inception_4e/pool_proj
I0123 12:18:05.469525 38124 net.cpp:217] Top shape: 50 128 14 14 (1254400)
I0123 12:18:05.469532 38124 net.cpp:225] Memory required for data: 2615067624
I0123 12:18:05.469543 38124 layer_factory.hpp:114] Creating layer inception_4e/relu_pool_proj
I0123 12:18:05.469560 38124 net.cpp:160] Creating Layer inception_4e/relu_pool_proj
I0123 12:18:05.469568 38124 net.cpp:596] inception_4e/relu_pool_proj <- inception_4e/pool_proj
I0123 12:18:05.469578 38124 net.cpp:557] inception_4e/relu_pool_proj -> inception_4e/pool_proj (in-place)
I0123 12:18:05.469588 38124 net.cpp:210] Setting up inception_4e/relu_pool_proj
I0123 12:18:05.469597 38124 net.cpp:217] Top shape: 50 128 14 14 (1254400)
I0123 12:18:05.469604 38124 net.cpp:225] Memory required for data: 2620085224
I0123 12:18:05.469611 38124 layer_factory.hpp:114] Creating layer inception_4e/output
I0123 12:18:05.469632 38124 net.cpp:160] Creating Layer inception_4e/output
I0123 12:18:05.469640 38124 net.cpp:596] inception_4e/output <- inception_4e/1x1
I0123 12:18:05.469650 38124 net.cpp:596] inception_4e/output <- inception_4e/3x3
I0123 12:18:05.469657 38124 net.cpp:596] inception_4e/output <- inception_4e/5x5
I0123 12:18:05.469666 38124 net.cpp:596] inception_4e/output <- inception_4e/pool_proj
I0123 12:18:05.469676 38124 net.cpp:570] inception_4e/output -> inception_4e/output
I0123 12:18:05.469702 38124 net.cpp:210] Setting up inception_4e/output
I0123 12:18:05.469712 38124 net.cpp:217] Top shape: 50 832 14 14 (8153600)
I0123 12:18:05.469718 38124 net.cpp:225] Memory required for data: 2652699624
I0123 12:18:05.469727 38124 layer_factory.hpp:114] Creating layer pool4/3x3_s2
I0123 12:18:05.469748 38124 net.cpp:160] Creating Layer pool4/3x3_s2
I0123 12:18:05.469758 38124 net.cpp:596] pool4/3x3_s2 <- inception_4e/output
I0123 12:18:05.469769 38124 net.cpp:570] pool4/3x3_s2 -> pool4/3x3_s2
I0123 12:18:05.469781 38124 net.cpp:210] Setting up pool4/3x3_s2
I0123 12:18:05.469790 38124 net.cpp:217] Top shape: 50 832 7 7 (2038400)
I0123 12:18:05.469797 38124 net.cpp:225] Memory required for data: 2660853224
I0123 12:18:05.469805 38124 layer_factory.hpp:114] Creating layer pool4/3x3_s2_pool4/3x3_s2_0_split
I0123 12:18:05.469817 38124 net.cpp:160] Creating Layer pool4/3x3_s2_pool4/3x3_s2_0_split
I0123 12:18:05.469825 38124 net.cpp:596] pool4/3x3_s2_pool4/3x3_s2_0_split <- pool4/3x3_s2
I0123 12:18:05.469848 38124 net.cpp:570] pool4/3x3_s2_pool4/3x3_s2_0_split -> pool4/3x3_s2_pool4/3x3_s2_0_split_0
I0123 12:18:05.469861 38124 net.cpp:570] pool4/3x3_s2_pool4/3x3_s2_0_split -> pool4/3x3_s2_pool4/3x3_s2_0_split_1
I0123 12:18:05.469871 38124 net.cpp:570] pool4/3x3_s2_pool4/3x3_s2_0_split -> pool4/3x3_s2_pool4/3x3_s2_0_split_2
I0123 12:18:05.469887 38124 net.cpp:570] pool4/3x3_s2_pool4/3x3_s2_0_split -> pool4/3x3_s2_pool4/3x3_s2_0_split_3
I0123 12:18:05.469900 38124 net.cpp:210] Setting up pool4/3x3_s2_pool4/3x3_s2_0_split
I0123 12:18:05.469909 38124 net.cpp:217] Top shape: 50 832 7 7 (2038400)
I0123 12:18:05.469918 38124 net.cpp:217] Top shape: 50 832 7 7 (2038400)
I0123 12:18:05.469928 38124 net.cpp:217] Top shape: 50 832 7 7 (2038400)
I0123 12:18:05.469935 38124 net.cpp:217] Top shape: 50 832 7 7 (2038400)
I0123 12:18:05.469943 38124 net.cpp:225] Memory required for data: 2693467624
I0123 12:18:05.469949 38124 layer_factory.hpp:114] Creating layer inception_5a/1x1
I0123 12:18:05.469964 38124 net.cpp:160] Creating Layer inception_5a/1x1
I0123 12:18:05.469972 38124 net.cpp:596] inception_5a/1x1 <- pool4/3x3_s2_pool4/3x3_s2_0_split_0
I0123 12:18:05.469982 38124 net.cpp:570] inception_5a/1x1 -> inception_5a/1x1
I0123 12:18:05.484737 38124 net.cpp:210] Setting up inception_5a/1x1
I0123 12:18:05.484752 38124 net.cpp:217] Top shape: 50 256 7 7 (627200)
I0123 12:18:05.484760 38124 net.cpp:225] Memory required for data: 2695976424
I0123 12:18:05.484771 38124 layer_factory.hpp:114] Creating layer inception_5a/relu_1x1
I0123 12:18:05.484788 38124 net.cpp:160] Creating Layer inception_5a/relu_1x1
I0123 12:18:05.484797 38124 net.cpp:596] inception_5a/relu_1x1 <- inception_5a/1x1
I0123 12:18:05.484812 38124 net.cpp:557] inception_5a/relu_1x1 -> inception_5a/1x1 (in-place)
I0123 12:18:05.484823 38124 net.cpp:210] Setting up inception_5a/relu_1x1
I0123 12:18:05.484833 38124 net.cpp:217] Top shape: 50 256 7 7 (627200)
I0123 12:18:05.484839 38124 net.cpp:225] Memory required for data: 2698485224
I0123 12:18:05.484846 38124 layer_factory.hpp:114] Creating layer inception_5a/3x3_reduce
I0123 12:18:05.484858 38124 net.cpp:160] Creating Layer inception_5a/3x3_reduce
I0123 12:18:05.484868 38124 net.cpp:596] inception_5a/3x3_reduce <- pool4/3x3_s2_pool4/3x3_s2_0_split_1
I0123 12:18:05.484877 38124 net.cpp:570] inception_5a/3x3_reduce -> inception_5a/3x3_reduce
I0123 12:18:05.494899 38124 net.cpp:210] Setting up inception_5a/3x3_reduce
I0123 12:18:05.494915 38124 net.cpp:217] Top shape: 50 160 7 7 (392000)
I0123 12:18:05.494921 38124 net.cpp:225] Memory required for data: 2700053224
I0123 12:18:05.494931 38124 layer_factory.hpp:114] Creating layer inception_5a/relu_3x3_reduce
I0123 12:18:05.494956 38124 net.cpp:160] Creating Layer inception_5a/relu_3x3_reduce
I0123 12:18:05.494971 38124 net.cpp:596] inception_5a/relu_3x3_reduce <- inception_5a/3x3_reduce
I0123 12:18:05.494982 38124 net.cpp:557] inception_5a/relu_3x3_reduce -> inception_5a/3x3_reduce (in-place)
I0123 12:18:05.494992 38124 net.cpp:210] Setting up inception_5a/relu_3x3_reduce
I0123 12:18:05.495000 38124 net.cpp:217] Top shape: 50 160 7 7 (392000)
I0123 12:18:05.495007 38124 net.cpp:225] Memory required for data: 2701621224
I0123 12:18:05.495014 38124 layer_factory.hpp:114] Creating layer inception_5a/3x3
I0123 12:18:05.495028 38124 net.cpp:160] Creating Layer inception_5a/3x3
I0123 12:18:05.495035 38124 net.cpp:596] inception_5a/3x3 <- inception_5a/3x3_reduce
I0123 12:18:05.495048 38124 net.cpp:570] inception_5a/3x3 -> inception_5a/3x3
I0123 12:18:05.525096 38124 net.cpp:210] Setting up inception_5a/3x3
I0123 12:18:05.525120 38124 net.cpp:217] Top shape: 50 320 7 7 (784000)
I0123 12:18:05.525127 38124 net.cpp:225] Memory required for data: 2704757224
I0123 12:18:05.525137 38124 layer_factory.hpp:114] Creating layer inception_5a/relu_3x3
I0123 12:18:05.525156 38124 net.cpp:160] Creating Layer inception_5a/relu_3x3
I0123 12:18:05.525255 38124 net.cpp:596] inception_5a/relu_3x3 <- inception_5a/3x3
I0123 12:18:05.525269 38124 net.cpp:557] inception_5a/relu_3x3 -> inception_5a/3x3 (in-place)
I0123 12:18:05.525306 38124 net.cpp:210] Setting up inception_5a/relu_3x3
I0123 12:18:05.525316 38124 net.cpp:217] Top shape: 50 320 7 7 (784000)
I0123 12:18:05.525323 38124 net.cpp:225] Memory required for data: 2707893224
I0123 12:18:05.525331 38124 layer_factory.hpp:114] Creating layer inception_5a/5x5_reduce
I0123 12:18:05.525344 38124 net.cpp:160] Creating Layer inception_5a/5x5_reduce
I0123 12:18:05.525352 38124 net.cpp:596] inception_5a/5x5_reduce <- pool4/3x3_s2_pool4/3x3_s2_0_split_2
I0123 12:18:05.525362 38124 net.cpp:570] inception_5a/5x5_reduce -> inception_5a/5x5_reduce
I0123 12:18:05.529621 38124 net.cpp:210] Setting up inception_5a/5x5_reduce
I0123 12:18:05.529636 38124 net.cpp:217] Top shape: 50 32 7 7 (78400)
I0123 12:18:05.529644 38124 net.cpp:225] Memory required for data: 2708206824
I0123 12:18:05.529654 38124 layer_factory.hpp:114] Creating layer inception_5a/relu_5x5_reduce
I0123 12:18:05.529681 38124 net.cpp:160] Creating Layer inception_5a/relu_5x5_reduce
I0123 12:18:05.529690 38124 net.cpp:596] inception_5a/relu_5x5_reduce <- inception_5a/5x5_reduce
I0123 12:18:05.529700 38124 net.cpp:557] inception_5a/relu_5x5_reduce -> inception_5a/5x5_reduce (in-place)
I0123 12:18:05.529709 38124 net.cpp:210] Setting up inception_5a/relu_5x5_reduce
I0123 12:18:05.529718 38124 net.cpp:217] Top shape: 50 32 7 7 (78400)
I0123 12:18:05.529726 38124 net.cpp:225] Memory required for data: 2708520424
I0123 12:18:05.529733 38124 layer_factory.hpp:114] Creating layer inception_5a/5x5
I0123 12:18:05.529749 38124 net.cpp:160] Creating Layer inception_5a/5x5
I0123 12:18:05.529757 38124 net.cpp:596] inception_5a/5x5 <- inception_5a/5x5_reduce
I0123 12:18:05.529769 38124 net.cpp:570] inception_5a/5x5 -> inception_5a/5x5
I0123 12:18:05.538481 38124 net.cpp:210] Setting up inception_5a/5x5
I0123 12:18:05.538496 38124 net.cpp:217] Top shape: 50 128 7 7 (313600)
I0123 12:18:05.538504 38124 net.cpp:225] Memory required for data: 2709774824
I0123 12:18:05.538514 38124 layer_factory.hpp:114] Creating layer inception_5a/relu_5x5
I0123 12:18:05.538527 38124 net.cpp:160] Creating Layer inception_5a/relu_5x5
I0123 12:18:05.538535 38124 net.cpp:596] inception_5a/relu_5x5 <- inception_5a/5x5
I0123 12:18:05.538544 38124 net.cpp:557] inception_5a/relu_5x5 -> inception_5a/5x5 (in-place)
I0123 12:18:05.538554 38124 net.cpp:210] Setting up inception_5a/relu_5x5
I0123 12:18:05.538563 38124 net.cpp:217] Top shape: 50 128 7 7 (313600)
I0123 12:18:05.538570 38124 net.cpp:225] Memory required for data: 2711029224
I0123 12:18:05.538578 38124 layer_factory.hpp:114] Creating layer inception_5a/pool
I0123 12:18:05.538602 38124 net.cpp:160] Creating Layer inception_5a/pool
I0123 12:18:05.538611 38124 net.cpp:596] inception_5a/pool <- pool4/3x3_s2_pool4/3x3_s2_0_split_3
I0123 12:18:05.538624 38124 net.cpp:570] inception_5a/pool -> inception_5a/pool
I0123 12:18:05.538636 38124 net.cpp:210] Setting up inception_5a/pool
I0123 12:18:05.538646 38124 net.cpp:217] Top shape: 50 832 7 7 (2038400)
I0123 12:18:05.538653 38124 net.cpp:225] Memory required for data: 2719182824
I0123 12:18:05.538661 38124 layer_factory.hpp:114] Creating layer inception_5a/pool_proj
I0123 12:18:05.538676 38124 net.cpp:160] Creating Layer inception_5a/pool_proj
I0123 12:18:05.538686 38124 net.cpp:596] inception_5a/pool_proj <- inception_5a/pool
I0123 12:18:05.538698 38124 net.cpp:570] inception_5a/pool_proj -> inception_5a/pool_proj
I0123 12:18:05.547408 38124 net.cpp:210] Setting up inception_5a/pool_proj
I0123 12:18:05.547423 38124 net.cpp:217] Top shape: 50 128 7 7 (313600)
I0123 12:18:05.547430 38124 net.cpp:225] Memory required for data: 2720437224
I0123 12:18:05.547441 38124 layer_factory.hpp:114] Creating layer inception_5a/relu_pool_proj
I0123 12:18:05.547459 38124 net.cpp:160] Creating Layer inception_5a/relu_pool_proj
I0123 12:18:05.547467 38124 net.cpp:596] inception_5a/relu_pool_proj <- inception_5a/pool_proj
I0123 12:18:05.547477 38124 net.cpp:557] inception_5a/relu_pool_proj -> inception_5a/pool_proj (in-place)
I0123 12:18:05.547497 38124 net.cpp:210] Setting up inception_5a/relu_pool_proj
I0123 12:18:05.547509 38124 net.cpp:217] Top shape: 50 128 7 7 (313600)
I0123 12:18:05.547518 38124 net.cpp:225] Memory required for data: 2721691624
I0123 12:18:05.547524 38124 layer_factory.hpp:114] Creating layer inception_5a/output
I0123 12:18:05.547535 38124 net.cpp:160] Creating Layer inception_5a/output
I0123 12:18:05.547544 38124 net.cpp:596] inception_5a/output <- inception_5a/1x1
I0123 12:18:05.547551 38124 net.cpp:596] inception_5a/output <- inception_5a/3x3
I0123 12:18:05.547559 38124 net.cpp:596] inception_5a/output <- inception_5a/5x5
I0123 12:18:05.547569 38124 net.cpp:596] inception_5a/output <- inception_5a/pool_proj
I0123 12:18:05.547580 38124 net.cpp:570] inception_5a/output -> inception_5a/output
I0123 12:18:05.547592 38124 net.cpp:210] Setting up inception_5a/output
I0123 12:18:05.547601 38124 net.cpp:217] Top shape: 50 832 7 7 (2038400)
I0123 12:18:05.547608 38124 net.cpp:225] Memory required for data: 2729845224
I0123 12:18:05.547616 38124 layer_factory.hpp:114] Creating layer inception_5a/output_inception_5a/output_0_split
I0123 12:18:05.547626 38124 net.cpp:160] Creating Layer inception_5a/output_inception_5a/output_0_split
I0123 12:18:05.547633 38124 net.cpp:596] inception_5a/output_inception_5a/output_0_split <- inception_5a/output
I0123 12:18:05.547643 38124 net.cpp:570] inception_5a/output_inception_5a/output_0_split -> inception_5a/output_inception_5a/output_0_split_0
I0123 12:18:05.547653 38124 net.cpp:570] inception_5a/output_inception_5a/output_0_split -> inception_5a/output_inception_5a/output_0_split_1
I0123 12:18:05.547664 38124 net.cpp:570] inception_5a/output_inception_5a/output_0_split -> inception_5a/output_inception_5a/output_0_split_2
I0123 12:18:05.547675 38124 net.cpp:570] inception_5a/output_inception_5a/output_0_split -> inception_5a/output_inception_5a/output_0_split_3
I0123 12:18:05.547685 38124 net.cpp:210] Setting up inception_5a/output_inception_5a/output_0_split
I0123 12:18:05.547694 38124 net.cpp:217] Top shape: 50 832 7 7 (2038400)
I0123 12:18:05.547703 38124 net.cpp:217] Top shape: 50 832 7 7 (2038400)
I0123 12:18:05.547710 38124 net.cpp:217] Top shape: 50 832 7 7 (2038400)
I0123 12:18:05.547719 38124 net.cpp:217] Top shape: 50 832 7 7 (2038400)
I0123 12:18:05.547725 38124 net.cpp:225] Memory required for data: 2762459624
I0123 12:18:05.547732 38124 layer_factory.hpp:114] Creating layer inception_5b/1x1
I0123 12:18:05.547747 38124 net.cpp:160] Creating Layer inception_5b/1x1
I0123 12:18:05.547755 38124 net.cpp:596] inception_5b/1x1 <- inception_5a/output_inception_5a/output_0_split_0
I0123 12:18:05.547766 38124 net.cpp:570] inception_5b/1x1 -> inception_5b/1x1
I0123 12:18:05.567888 38124 net.cpp:210] Setting up inception_5b/1x1
I0123 12:18:05.567910 38124 net.cpp:217] Top shape: 50 384 7 7 (940800)
I0123 12:18:05.567917 38124 net.cpp:225] Memory required for data: 2766222824
I0123 12:18:05.567929 38124 layer_factory.hpp:114] Creating layer inception_5b/relu_1x1
I0123 12:18:05.567945 38124 net.cpp:160] Creating Layer inception_5b/relu_1x1
I0123 12:18:05.567953 38124 net.cpp:596] inception_5b/relu_1x1 <- inception_5b/1x1
I0123 12:18:05.567963 38124 net.cpp:557] inception_5b/relu_1x1 -> inception_5b/1x1 (in-place)
I0123 12:18:05.567973 38124 net.cpp:210] Setting up inception_5b/relu_1x1
I0123 12:18:05.567982 38124 net.cpp:217] Top shape: 50 384 7 7 (940800)
I0123 12:18:05.567989 38124 net.cpp:225] Memory required for data: 2769986024
I0123 12:18:05.567996 38124 layer_factory.hpp:114] Creating layer inception_5b/3x3_reduce
I0123 12:18:05.568009 38124 net.cpp:160] Creating Layer inception_5b/3x3_reduce
I0123 12:18:05.568017 38124 net.cpp:596] inception_5b/3x3_reduce <- inception_5a/output_inception_5a/output_0_split_1
I0123 12:18:05.568030 38124 net.cpp:570] inception_5b/3x3_reduce -> inception_5b/3x3_reduce
I0123 12:18:05.579324 38124 net.cpp:210] Setting up inception_5b/3x3_reduce
I0123 12:18:05.579339 38124 net.cpp:217] Top shape: 50 192 7 7 (470400)
I0123 12:18:05.579346 38124 net.cpp:225] Memory required for data: 2771867624
I0123 12:18:05.579376 38124 layer_factory.hpp:114] Creating layer inception_5b/relu_3x3_reduce
I0123 12:18:05.579387 38124 net.cpp:160] Creating Layer inception_5b/relu_3x3_reduce
I0123 12:18:05.579396 38124 net.cpp:596] inception_5b/relu_3x3_reduce <- inception_5b/3x3_reduce
I0123 12:18:05.579406 38124 net.cpp:557] inception_5b/relu_3x3_reduce -> inception_5b/3x3_reduce (in-place)
I0123 12:18:05.579416 38124 net.cpp:210] Setting up inception_5b/relu_3x3_reduce
I0123 12:18:05.579426 38124 net.cpp:217] Top shape: 50 192 7 7 (470400)
I0123 12:18:05.579432 38124 net.cpp:225] Memory required for data: 2773749224
I0123 12:18:05.579439 38124 layer_factory.hpp:114] Creating layer inception_5b/3x3
I0123 12:18:05.579454 38124 net.cpp:160] Creating Layer inception_5b/3x3
I0123 12:18:05.579463 38124 net.cpp:596] inception_5b/3x3 <- inception_5b/3x3_reduce
I0123 12:18:05.579473 38124 net.cpp:570] inception_5b/3x3 -> inception_5b/3x3
I0123 12:18:05.620924 38124 net.cpp:210] Setting up inception_5b/3x3
I0123 12:18:05.620940 38124 net.cpp:217] Top shape: 50 384 7 7 (940800)
I0123 12:18:05.620947 38124 net.cpp:225] Memory required for data: 2777512424
I0123 12:18:05.620959 38124 layer_factory.hpp:114] Creating layer inception_5b/relu_3x3
I0123 12:18:05.620975 38124 net.cpp:160] Creating Layer inception_5b/relu_3x3
I0123 12:18:05.620983 38124 net.cpp:596] inception_5b/relu_3x3 <- inception_5b/3x3
I0123 12:18:05.620992 38124 net.cpp:557] inception_5b/relu_3x3 -> inception_5b/3x3 (in-place)
I0123 12:18:05.621003 38124 net.cpp:210] Setting up inception_5b/relu_3x3
I0123 12:18:05.621012 38124 net.cpp:217] Top shape: 50 384 7 7 (940800)
I0123 12:18:05.621019 38124 net.cpp:225] Memory required for data: 2781275624
I0123 12:18:05.621026 38124 layer_factory.hpp:114] Creating layer inception_5b/5x5_reduce
I0123 12:18:05.621040 38124 net.cpp:160] Creating Layer inception_5b/5x5_reduce
I0123 12:18:05.621048 38124 net.cpp:596] inception_5b/5x5_reduce <- inception_5a/output_inception_5a/output_0_split_2
I0123 12:18:05.621062 38124 net.cpp:570] inception_5b/5x5_reduce -> inception_5b/5x5_reduce
I0123 12:18:05.626579 38124 net.cpp:210] Setting up inception_5b/5x5_reduce
I0123 12:18:05.626595 38124 net.cpp:217] Top shape: 50 48 7 7 (117600)
I0123 12:18:05.626603 38124 net.cpp:225] Memory required for data: 2781746024
I0123 12:18:05.626613 38124 layer_factory.hpp:114] Creating layer inception_5b/relu_5x5_reduce
I0123 12:18:05.626624 38124 net.cpp:160] Creating Layer inception_5b/relu_5x5_reduce
I0123 12:18:05.626632 38124 net.cpp:596] inception_5b/relu_5x5_reduce <- inception_5b/5x5_reduce
I0123 12:18:05.626641 38124 net.cpp:557] inception_5b/relu_5x5_reduce -> inception_5b/5x5_reduce (in-place)
I0123 12:18:05.626652 38124 net.cpp:210] Setting up inception_5b/relu_5x5_reduce
I0123 12:18:05.626660 38124 net.cpp:217] Top shape: 50 48 7 7 (117600)
I0123 12:18:05.626667 38124 net.cpp:225] Memory required for data: 2782216424
I0123 12:18:05.626675 38124 layer_factory.hpp:114] Creating layer inception_5b/5x5
I0123 12:18:05.626689 38124 net.cpp:160] Creating Layer inception_5b/5x5
I0123 12:18:05.626698 38124 net.cpp:596] inception_5b/5x5 <- inception_5b/5x5_reduce
I0123 12:18:05.626709 38124 net.cpp:570] inception_5b/5x5 -> inception_5b/5x5
I0123 12:18:05.638844 38124 net.cpp:210] Setting up inception_5b/5x5
I0123 12:18:05.638859 38124 net.cpp:217] Top shape: 50 128 7 7 (313600)
I0123 12:18:05.638866 38124 net.cpp:225] Memory required for data: 2783470824
I0123 12:18:05.638877 38124 layer_factory.hpp:114] Creating layer inception_5b/relu_5x5
I0123 12:18:05.638897 38124 net.cpp:160] Creating Layer inception_5b/relu_5x5
I0123 12:18:05.638906 38124 net.cpp:596] inception_5b/relu_5x5 <- inception_5b/5x5
I0123 12:18:05.638921 38124 net.cpp:557] inception_5b/relu_5x5 -> inception_5b/5x5 (in-place)
I0123 12:18:05.638931 38124 net.cpp:210] Setting up inception_5b/relu_5x5
I0123 12:18:05.638941 38124 net.cpp:217] Top shape: 50 128 7 7 (313600)
I0123 12:18:05.638947 38124 net.cpp:225] Memory required for data: 2784725224
I0123 12:18:05.638972 38124 layer_factory.hpp:114] Creating layer inception_5b/pool
I0123 12:18:05.639019 38124 net.cpp:160] Creating Layer inception_5b/pool
I0123 12:18:05.639029 38124 net.cpp:596] inception_5b/pool <- inception_5a/output_inception_5a/output_0_split_3
I0123 12:18:05.639041 38124 net.cpp:570] inception_5b/pool -> inception_5b/pool
I0123 12:18:05.639055 38124 net.cpp:210] Setting up inception_5b/pool
I0123 12:18:05.639065 38124 net.cpp:217] Top shape: 50 832 7 7 (2038400)
I0123 12:18:05.639072 38124 net.cpp:225] Memory required for data: 2792878824
I0123 12:18:05.639080 38124 layer_factory.hpp:114] Creating layer inception_5b/pool_proj
I0123 12:18:05.639094 38124 net.cpp:160] Creating Layer inception_5b/pool_proj
I0123 12:18:05.639102 38124 net.cpp:596] inception_5b/pool_proj <- inception_5b/pool
I0123 12:18:05.639117 38124 net.cpp:570] inception_5b/pool_proj -> inception_5b/pool_proj
I0123 12:18:05.647858 38124 net.cpp:210] Setting up inception_5b/pool_proj
I0123 12:18:05.647873 38124 net.cpp:217] Top shape: 50 128 7 7 (313600)
I0123 12:18:05.647881 38124 net.cpp:225] Memory required for data: 2794133224
I0123 12:18:05.647891 38124 layer_factory.hpp:114] Creating layer inception_5b/relu_pool_proj
I0123 12:18:05.647908 38124 net.cpp:160] Creating Layer inception_5b/relu_pool_proj
I0123 12:18:05.647917 38124 net.cpp:596] inception_5b/relu_pool_proj <- inception_5b/pool_proj
I0123 12:18:05.647929 38124 net.cpp:557] inception_5b/relu_pool_proj -> inception_5b/pool_proj (in-place)
I0123 12:18:05.647940 38124 net.cpp:210] Setting up inception_5b/relu_pool_proj
I0123 12:18:05.647949 38124 net.cpp:217] Top shape: 50 128 7 7 (313600)
I0123 12:18:05.647956 38124 net.cpp:225] Memory required for data: 2795387624
I0123 12:18:05.647964 38124 layer_factory.hpp:114] Creating layer inception_5b/output
I0123 12:18:05.647974 38124 net.cpp:160] Creating Layer inception_5b/output
I0123 12:18:05.647982 38124 net.cpp:596] inception_5b/output <- inception_5b/1x1
I0123 12:18:05.647991 38124 net.cpp:596] inception_5b/output <- inception_5b/3x3
I0123 12:18:05.648000 38124 net.cpp:596] inception_5b/output <- inception_5b/5x5
I0123 12:18:05.648007 38124 net.cpp:596] inception_5b/output <- inception_5b/pool_proj
I0123 12:18:05.648016 38124 net.cpp:570] inception_5b/output -> inception_5b/output
I0123 12:18:05.648030 38124 net.cpp:210] Setting up inception_5b/output
I0123 12:18:05.648038 38124 net.cpp:217] Top shape: 50 1024 7 7 (2508800)
I0123 12:18:05.648046 38124 net.cpp:225] Memory required for data: 2805422824
I0123 12:18:05.648052 38124 layer_factory.hpp:114] Creating layer pool5/7x7_s1
I0123 12:18:05.648075 38124 net.cpp:160] Creating Layer pool5/7x7_s1
I0123 12:18:05.648085 38124 net.cpp:596] pool5/7x7_s1 <- inception_5b/output
I0123 12:18:05.648098 38124 net.cpp:570] pool5/7x7_s1 -> pool5/7x7_s1
I0123 12:18:05.648110 38124 net.cpp:210] Setting up pool5/7x7_s1
I0123 12:18:05.648120 38124 net.cpp:217] Top shape: 50 1024 1 1 (51200)
I0123 12:18:05.648128 38124 net.cpp:225] Memory required for data: 2805627624
I0123 12:18:05.648134 38124 layer_factory.hpp:114] Creating layer pool5/drop_7x7_s1
I0123 12:18:05.648147 38124 net.cpp:160] Creating Layer pool5/drop_7x7_s1
I0123 12:18:05.648156 38124 net.cpp:596] pool5/drop_7x7_s1 <- pool5/7x7_s1
I0123 12:18:05.648246 38124 net.cpp:557] pool5/drop_7x7_s1 -> pool5/7x7_s1 (in-place)
I0123 12:18:05.648264 38124 net.cpp:210] Setting up pool5/drop_7x7_s1
I0123 12:18:05.648273 38124 net.cpp:217] Top shape: 50 1024 1 1 (51200)
I0123 12:18:05.648280 38124 net.cpp:225] Memory required for data: 2805832424
I0123 12:18:05.648288 38124 layer_factory.hpp:114] Creating layer loss3/classifier
I0123 12:18:05.648305 38124 net.cpp:160] Creating Layer loss3/classifier
I0123 12:18:05.648313 38124 net.cpp:596] loss3/classifier <- pool5/7x7_s1
I0123 12:18:05.648329 38124 net.cpp:570] loss3/classifier -> loss3/classifier
I0123 12:18:05.658294 38124 net.cpp:210] Setting up loss3/classifier
I0123 12:18:05.658309 38124 net.cpp:217] Top shape: 50 1000 (50000)
I0123 12:18:05.658316 38124 net.cpp:225] Memory required for data: 2806032424
I0123 12:18:05.658336 38124 layer_factory.hpp:114] Creating layer loss3/classifier_loss3/classifier_0_split
I0123 12:18:05.658351 38124 net.cpp:160] Creating Layer loss3/classifier_loss3/classifier_0_split
I0123 12:18:05.658360 38124 net.cpp:596] loss3/classifier_loss3/classifier_0_split <- loss3/classifier
I0123 12:18:05.658370 38124 net.cpp:570] loss3/classifier_loss3/classifier_0_split -> loss3/classifier_loss3/classifier_0_split_0
I0123 12:18:05.658386 38124 net.cpp:570] loss3/classifier_loss3/classifier_0_split -> loss3/classifier_loss3/classifier_0_split_1
I0123 12:18:05.658398 38124 net.cpp:570] loss3/classifier_loss3/classifier_0_split -> loss3/classifier_loss3/classifier_0_split_2
I0123 12:18:05.658411 38124 net.cpp:210] Setting up loss3/classifier_loss3/classifier_0_split
I0123 12:18:05.658419 38124 net.cpp:217] Top shape: 50 1000 (50000)
I0123 12:18:05.658427 38124 net.cpp:217] Top shape: 50 1000 (50000)
I0123 12:18:05.658435 38124 net.cpp:217] Top shape: 50 1000 (50000)
I0123 12:18:05.658442 38124 net.cpp:225] Memory required for data: 2806632424
I0123 12:18:05.658449 38124 layer_factory.hpp:114] Creating layer loss3/loss3
I0123 12:18:05.658462 38124 net.cpp:160] Creating Layer loss3/loss3
I0123 12:18:05.658468 38124 net.cpp:596] loss3/loss3 <- loss3/classifier_loss3/classifier_0_split_0
I0123 12:18:05.658478 38124 net.cpp:596] loss3/loss3 <- label_data_1_split_6
…
