…
I0123 12:19:23.479951 38174 net.cpp:484] The NetState phase (0) differed from the phase (1) specified by a rule in layer loss3/top-5
I0123 12:19:23.488226 38174 net.cpp:120] Initializing net from parameters: 
name: "GoogleNet"
state {
  phase: TRAIN
  level: 0
  stage: ""
}
layer {
  name: "data"
  type: "Data"
  top: "data"
  top: "label"
  include {
    phase: TRAIN
  }
  transform_param {
    mirror: true
    crop_size: 224
    mean_value: 104
    mean_value: 117
    mean_value: 123
  }
  data_param {
    source: "/home/user/caffeOMP/original/caffe/examples/imagenet/ilsvrc12_train_lmdb"
    batch_size: 32
    backend: LMDB
  }
}
layer {
  name: "label_data_1_split"
  type: "Split"
  bottom: "label"
  top: "label_data_1_split_0"
  top: "label_data_1_split_1"
  top: "label_data_1_split_2"
}
layer {
  name: "conv1/7x7_s2"
  type: "Convolution"
  bottom: "data"
  top: "conv1/7x7_s2"
  param {
    lr_mult: 1
    decay_mult: 1
  }
  param {
    lr_mult: 2
    decay_mult: 0
  }
  convolution_param {
    num_output: 64
    pad: 3
    kernel_size: 7
    stride: 2
    weight_filler {
      type: "xavier"
    }
    bias_filler {
      type: "constant"
      value: 0.2
    }
  }
}
layer {
  name: "conv1/relu_7x7"
  type: "ReLU"
  bottom: "conv1/7x7_s2"
  top: "conv1/7x7_s2"
}
layer {
  name: "pool1/3x3_s2"
  type: "Pooling"
  bottom: "conv1/7x7_s2"
  top: "pool1/3x3_s2"
  pooling_param {
    pool: MAX
    kernel_size: 3
    stride: 2
  }
}
layer {
  name: "pool1/norm1"
  type: "LRN"
  bottom: "pool1/3x3_s2"
  top: "pool1/norm1"
  lrn_param {
    local_size: 5
    alpha: 0.0001
    beta: 0.75
  }
}
layer {
  name: "conv2/3x3_reduce"
  type: "Convolution"
  bottom: "pool1/norm1"
  top: "conv2/3x3_reduce"
  param {
    lr_mult: 1
    decay_mult: 1
  }
  param {
    lr_mult: 2
    decay_mult: 0
  }
  convolution_param {
    num_output: 64
    kernel_size: 1
    weight_filler {
      type: "xavier"
    }
    bias_filler {
      type: "constant"
      value: 0.2
    }
  }
}
layer {
  name: "conv2/relu_3x3_reduce"
  type: "ReLU"
  bottom: "conv2/3x3_reduce"
  top: "conv2/3x3_reduce"
}
layer {
  name: "conv2/3x3"
  type: "Convolution"
  bottom: "conv2/3x3_reduce"
  top: "conv2/3x3"
  param {
    lr_mult: 1
    decay_mult: 1
  }
  param {
    lr_mult: 2
    decay_mult: 0
  }
  convolution_param {
    num_output: 192
    pad: 1
    kernel_size: 3
    weight_filler {
      type: "xavier"
    }
    bias_filler {
      type: "constant"
      value: 0.2
    }
  }
}
layer {
  name: "conv2/relu_3x3"
  type: "ReLU"
  bottom: "conv2/3x3"
  top: "conv2/3x3"
}
layer {
  name: "conv2/norm2"
  type: "LRN"
  bottom: "conv2/3x3"
  top: "conv2/norm2"
  lrn_param {
    local_size: 5
    alpha: 0.0001
    beta: 0.75
  }
}
layer {
  name: "pool2/3x3_s2"
  type: "Pooling"
  bottom: "conv2/norm2"
  top: "pool2/3x3_s2"
  pooling_param {
    pool: MAX
    kernel_size: 3
    stride: 2
  }
}
layer {
  name: "pool2/3x3_s2_pool2/3x3_s2_0_split"
  type: "Split"
  bottom: "pool2/3x3_s2"
  top: "pool2/3x3_s2_pool2/3x3_s2_0_split_0"
  top: "pool2/3x3_s2_pool2/3x3_s2_0_split_1"
  top: "pool2/3x3_s2_pool2/3x3_s2_0_split_2"
  top: "pool2/3x3_s2_pool2/3x3_s2_0_split_3"
}
layer {
  name: "inception_3a/1x1"
  type: "Convolution"
  bottom: "pool2/3x3_s2_pool2/3x3_s2_0_split_0"
  top: "inception_3a/1x1"
  param {
    lr_mult: 1
    decay_mult: 1
  }
  param {
    lr_mult: 2
    decay_mult: 0
  }
  convolution_param {
    num_output: 64
    kernel_size: 1
    weight_filler {
      type: "xavier"
    }
    bias_filler {
      type: "constant"
      value: 0.2
    }
  }
}
layer {
  name: "inception_3a/relu_1x1"
  type: "ReLU"
  bottom: "inception_3a/1x1"
  top: "inception_3a/1x1"
}
layer {
  name: "inception_3a/3x3_reduce"
  type: "Convolution"
  bottom: "pool2/3x3_s2_pool2/3x3_s2_0_split_1"
  top: "inception_3a/3x3_reduce"
  param {
    lr_mult: 1
    decay_mult: 1
  }
  param {
    lr_mult: 2
    decay_mult: 0
  }
  convolution_param {
    num_output: 96
    kernel_size: 1
    weight_filler {
      type: "xavier"
    }
    bias_filler {
      type: "constant"
      value: 0.2
    }
  }
}
layer {
  name: "inception_3a/relu_3x3_reduce"
  type: "ReLU"
  bottom: "inception_3a/3x3_reduce"
  top: "inception_3a/3x3_reduce"
}
layer {
  name: "inception_3a/3x3"
  type: "Convolution"
  bottom: "inception_3a/3x3_reduce"
  top: "inception_3a/3x3"
  param {
    lr_mult: 1
    decay_mult: 1
  }
  param {
    lr_mult: 2
    decay_mult: 0
  }
  convolution_param {
    num_output: 128
    pad: 1
    kernel_size: 3
    weight_filler {
      type: "xavier"
    }
    bias_filler {
      type: "constant"
      value: 0.2
    }
  }
}
layer {
  name: "inception_3a/relu_3x3"
  type: "ReLU"
  bottom: "inception_3a/3x3"
  top: "inception_3a/3x3"
}
layer {
  name: "inception_3a/5x5_reduce"
  type: "Convolution"
  bottom: "pool2/3x3_s2_pool2/3x3_s2_0_split_2"
  top: "inception_3a/5x5_reduce"
  param {
    lr_mult: 1
    decay_mult: 1
  }
  param {
    lr_mult: 2
    decay_mult: 0
  }
  convolution_param {
    num_output: 16
    kernel_size: 1
    weight_filler {
      type: "xavier"
    }
    bias_filler {
      type: "constant"
      value: 0.2
    }
  }
}
layer {
  name: "inception_3a/relu_5x5_reduce"
  type: "ReLU"
  bottom: "inception_3a/5x5_reduce"
  top: "inception_3a/5x5_reduce"
}
layer {
  name: "inception_3a/5x5"
  type: "Convolution"
  bottom: "inception_3a/5x5_reduce"
  top: "inception_3a/5x5"
  param {
    lr_mult: 1
    decay_mult: 1
  }
  param {
    lr_mult: 2
    decay_mult: 0
  }
  convolution_param {
    num_output: 32
    pad: 2
    kernel_size: 5
    weight_filler {
      type: "xavier"
    }
    bias_filler {
      type: "constant"
      value: 0.2
    }
  }
}
layer {
  name: "inception_3a/relu_5x5"
  type: "ReLU"
  bottom: "inception_3a/5x5"
  top: "inception_3a/5x5"
}
layer {
  name: "inception_3a/pool"
  type: "Pooling"
  bottom: "pool2/3x3_s2_pool2/3x3_s2_0_split_3"
  top: "inception_3a/pool"
  pooling_param {
    pool: MAX
    kernel_size: 3
    stride: 1
    pad: 1
  }
}
layer {
  name: "inception_3a/pool_proj"
  type: "Convolution"
  bottom: "inception_3a/pool"
  top: "inception_3a/pool_proj"
  param {
    lr_mult: 1
    decay_mult: 1
  }
  param {
    lr_mult: 2
    decay_mult: 0
  }
  convolution_param {
    num_output: 32
    kernel_size: 1
    weight_filler {
      type: "xavier"
    }
    bias_filler {
      type: "constant"
      value: 0.2
    }
  }
}
layer {
  name: "inception_3a/relu_pool_proj"
  type: "ReLU"
  bottom: "inception_3a/pool_proj"
  top: "inception_3a/pool_proj"
}
layer {
  name: "inception_3a/output"
  type: "Concat"
  bottom: "inception_3a/1x1"
  bottom: "inception_3a/3x3"
  bottom: "inception_3a/5x5"
  bottom: "inception_3a/pool_proj"
  top: "inception_3a/output"
}
layer {
  name: "inception_3a/output_inception_3a/output_0_split"
  type: "Split"
  bottom: "inception_3a/output"
  top: "inception_3a/output_inception_3a/output_0_split_0"
  top: "inception_3a/output_inception_3a/output_0_split_1"
  top: "inception_3a/output_inception_3a/output_0_split_2"
  top: "inception_3a/output_inception_3a/output_0_split_3"
}
layer {
  name: "inception_3b/1x1"
  type: "Convolution"
  bottom: "inception_3a/output_inception_3a/output_0_split_0"
  top: "inception_3b/1x1"
  param {
    lr_mult: 1
    decay_mult: 1
  }
  param {
    lr_mult: 2
    decay_mult: 0
  }
  convolution_param {
    num_output: 128
    kernel_size: 1
    weight_filler {
      type: "xavier"
    }
    bias_filler {
      type: "constant"
      value: 0.2
    }
  }
}
layer {
  name: "inception_3b/relu_1x1"
  type: "ReLU"
  bottom: "inception_3b/1x1"
  top: "inception_3b/1x1"
}
layer {
  name: "inception_3b/3x3_reduce"
  type: "Convolution"
  bottom: "inception_3a/output_inception_3a/output_0_split_1"
  top: "inception_3b/3x3_reduce"
  param {
    lr_mult: 1
    decay_mult: 1
  }
  param {
    lr_mult: 2
    decay_mult: 0
  }
  convolution_param {
    num_output: 128
    kernel_size: 1
    weight_filler {
      type: "xavier"
    }
    bias_filler {
      type: "constant"
      value: 0.2
    }
  }
}
layer {
  name: "inception_3b/relu_3x3_reduce"
  type: "ReLU"
  bottom: "inception_3b/3x3_reduce"
  top: "inception_3b/3x3_reduce"
}
layer {
  name: "inception_3b/3x3"
  type: "Convolution"
  bottom: "inception_3b/3x3_reduce"
  top: "inception_3b/3x3"
  param {
    lr_mult: 1
    decay_mult: 1
  }
  param {
    lr_mult: 2
    decay_mult: 0
  }
  convolution_param {
    num_output: 192
    pad: 1
    kernel_size: 3
    weight_filler {
      type: "xavier"
    }
    bias_filler {
      type: "constant"
      value: 0.2
    }
  }
}
layer {
  name: "inception_3b/relu_3x3"
  type: "ReLU"
  bottom: "inception_3b/3x3"
  top: "inception_3b/3x3"
}
layer {
  name: "inception_3b/5x5_reduce"
  type: "Convolution"
  bottom: "inception_3a/output_inception_3a/output_0_split_2"
  top: "inception_3b/5x5_reduce"
  param {
    lr_mult: 1
    decay_mult: 1
  }
  param {
    lr_mult: 2
    decay_mult: 0
  }
  convolution_param {
    num_output: 32
    kernel_size: 1
    weight_filler {
      type: "xavier"
    }
    bias_filler {
      type: "constant"
      value: 0.2
    }
  }
}
layer {
  name: "inception_3b/relu_5x5_reduce"
  type: "ReLU"
  bottom: "inception_3b/5x5_reduce"
  top: "inception_3b/5x5_reduce"
}
layer {
  name: "inception_3b/5x5"
  type: "Convolution"
  bottom: "inception_3b/5x5_reduce"
  top: "inception_3b/5x5"
  param {
    lr_mult: 1
    decay_mult: 1
  }
  param {
    lr_mult: 2
    decay_mult: 0
  }
  convolution_param {
    num_output: 96
    pad: 2
    kernel_size: 5
    weight_filler {
      type: "xavier"
    }
    bias_filler {
      type: "constant"
      value: 0.2
    }
  }
}
layer {
  name: "inception_3b/relu_5x5"
  type: "ReLU"
  bottom: "inception_3b/5x5"
  top: "inception_3b/5x5"
}
layer {
  name: "inception_3b/pool"
  type: "Pooling"
  bottom: "inception_3a/output_inception_3a/output_0_split_3"
  top: "inception_3b/pool"
  pooling_param {
    pool: MAX
    kernel_size: 3
    stride: 1
    pad: 1
  }
}
layer {
  name: "inception_3b/pool_proj"
  type: "Convolution"
  bottom: "inception_3b/pool"
  top: "inception_3b/pool_proj"
  param {
    lr_mult: 1
    decay_mult: 1
  }
  param {
    lr_mult: 2
    decay_mult: 0
  }
  convolution_param {
    num_output: 64
    kernel_size: 1
    weight_filler {
      type: "xavier"
    }
    bias_filler {
      type: "constant"
      value: 0.2
    }
  }
}
layer {
  name: "inception_3b/relu_pool_proj"
  type: "ReLU"
  bottom: "inception_3b/pool_proj"
  top: "inception_3b/pool_proj"
}
layer {
  name: "inception_3b/output"
  type: "Concat"
  bottom: "inception_3b/1x1"
  bottom: "inception_3b/3x3"
  bottom: "inception_3b/5x5"
  bottom: "inception_3b/pool_proj"
  top: "inception_3b/output"
}
layer {
  name: "pool3/3x3_s2"
  type: "Pooling"
  bottom: "inception_3b/output"
  top: "pool3/3x3_s2"
  pooling_param {
    pool: MAX
    kernel_size: 3
    stride: 2
  }
}
layer {
  name: "pool3/3x3_s2_pool3/3x3_s2_0_split"
  type: "Split"
  bottom: "pool3/3x3_s2"
  top: "pool3/3x3_s2_pool3/3x3_s2_0_split_0"
  top: "pool3/3x3_s2_pool3/3x3_s2_0_split_1"
  top: "pool3/3x3_s2_pool3/3x3_s2_0_split_2"
  top: "pool3/3x3_s2_pool3/3x3_s2_0_split_3"
}
layer {
  name: "inception_4a/1x1"
  type: "Convolution"
  bottom: "pool3/3x3_s2_pool3/3x3_s2_0_split_0"
  top: "inception_4a/1x1"
  param {
    lr_mult: 1
    decay_mult: 1
  }
  param {
    lr_mult: 2
    decay_mult: 0
  }
  convolution_param {
    num_output: 192
    kernel_size: 1
    weight_filler {
      type: "xavier"
    }
    bias_filler {
      type: "constant"
      value: 0.2
    }
  }
}
layer {
  name: "inception_4a/relu_1x1"
  type: "ReLU"
  bottom: "inception_4a/1x1"
  top: "inception_4a/1x1"
}
layer {
  name: "inception_4a/3x3_reduce"
  type: "Convolution"
  bottom: "pool3/3x3_s2_pool3/3x3_s2_0_split_1"
  top: "inception_4a/3x3_reduce"
  param {
    lr_mult: 1
    decay_mult: 1
  }
  param {
    lr_mult: 2
    decay_mult: 0
  }
  convolution_param {
    num_output: 96
    kernel_size: 1
    weight_filler {
      type: "xavier"
    }
    bias_filler {
      type: "constant"
      value: 0.2
    }
  }
}
layer {
  name: "inception_4a/relu_3x3_reduce"
  type: "ReLU"
  bottom: "inception_4a/3x3_reduce"
  top: "inception_4a/3x3_reduce"
}
layer {
  name: "inception_4a/3x3"
  type: "Convolution"
  bottom: "inception_4a/3x3_reduce"
  top: "inception_4a/3x3"
  param {
    lr_mult: 1
    decay_mult: 1
  }
  param {
    lr_mult: 2
    decay_mult: 0
  }
  convolution_param {
    num_output: 208
    pad: 1
    kernel_size: 3
    weight_filler {
      type: "xavier"
    }
    bias_filler {
      type: "constant"
      value: 0.2
    }
  }
}
layer {
  name: "inception_4a/relu_3x3"
  type: "ReLU"
  bottom: "inception_4a/3x3"
  top: "inception_4a/3x3"
}
layer {
  name: "inception_4a/5x5_reduce"
  type: "Convolution"
  bottom: "pool3/3x3_s2_pool3/3x3_s2_0_split_2"
  top: "inception_4a/5x5_reduce"
  param {
    lr_mult: 1
    decay_mult: 1
  }
  param {
    lr_mult: 2
    decay_mult: 0
  }
  convolution_param {
    num_output: 16
    kernel_size: 1
    weight_filler {
      type: "xavier"
    }
    bias_filler {
      type: "constant"
      value: 0.2
    }
  }
}
layer {
  name: "inception_4a/relu_5x5_reduce"
  type: "ReLU"
  bottom: "inception_4a/5x5_reduce"
  top: "inception_4a/5x5_reduce"
}
layer {
  name: "inception_4a/5x5"
  type: "Convolution"
  bottom: "inception_4a/5x5_reduce"
  top: "inception_4a/5x5"
  param {
    lr_mult: 1
    decay_mult: 1
  }
  param {
    lr_mult: 2
    decay_mult: 0
  }
  convolution_param {
    num_output: 48
    pad: 2
    kernel_size: 5
    weight_filler {
      type: "xavier"
    }
    bias_filler {
      type: "constant"
      value: 0.2
    }
  }
}
layer {
  name: "inception_4a/relu_5x5"
  type: "ReLU"
  bottom: "inception_4a/5x5"
  top: "inception_4a/5x5"
}
layer {
  name: "inception_4a/pool"
  type: "Pooling"
  bottom: "pool3/3x3_s2_pool3/3x3_s2_0_split_3"
  top: "inception_4a/pool"
  pooling_param {
    pool: MAX
    kernel_size: 3
    stride: 1
    pad: 1
  }
}
layer {
  name: "inception_4a/pool_proj"
  type: "Convolution"
  bottom: "inception_4a/pool"
  top: "inception_4a/pool_proj"
  param {
    lr_mult: 1
    decay_mult: 1
  }
  param {
    lr_mult: 2
    decay_mult: 0
  }
  convolution_param {
    num_output: 64
    kernel_size: 1
    weight_filler {
      type: "xavier"
    }
    bias_filler {
      type: "constant"
      value: 0.2
    }
  }
}
layer {
  name: "inception_4a/relu_pool_proj"
  type: "ReLU"
  bottom: "inception_4a/pool_proj"
  top: "inception_4a/pool_proj"
}
layer {
  name: "inception_4a/output"
  type: "Concat"
  bottom: "inception_4a/1x1"
  bottom: "inception_4a/3x3"
  bottom: "inception_4a/5x5"
  bottom: "inception_4a/pool_proj"
  top: "inception_4a/output"
}
layer {
  name: "inception_4a/output_inception_4a/output_0_split"
  type: "Split"
  bottom: "inception_4a/output"
  top: "inception_4a/output_inception_4a/output_0_split_0"
  top: "inception_4a/output_inception_4a/output_0_split_1"
  top: "inception_4a/output_inception_4a/output_0_split_2"
  top: "inception_4a/output_inception_4a/output_0_split_3"
  top: "inception_4a/output_inception_4a/output_0_split_4"
}
layer {
  name: "loss1/ave_pool"
  type: "Pooling"
  bottom: "inception_4a/output_inception_4a/output_0_split_0"
  top: "loss1/ave_pool"
  pooling_param {
    pool: AVE
    kernel_size: 5
    stride: 3
  }
}
layer {
  name: "loss1/conv"
  type: "Convolution"
  bottom: "loss1/ave_pool"
  top: "loss1/conv"
  param {
    lr_mult: 1
    decay_mult: 1
  }
  param {
    lr_mult: 2
    decay_mult: 0
  }
  convolution_param {
    num_output: 128
    kernel_size: 1
    weight_filler {
      type: "xavier"
    }
    bias_filler {
      type: "constant"
      value: 0.2
    }
  }
}
layer {
  name: "loss1/relu_conv"
  type: "ReLU"
  bottom: "loss1/conv"
  top: "loss1/conv"
}
layer {
  name: "loss1/fc"
  type: "InnerProduct"
  bottom: "loss1/conv"
  top: "loss1/fc"
  param {
    lr_mult: 1
    decay_mult: 1
  }
  param {
    lr_mult: 2
    decay_mult: 0
  }
  inner_product_param {
    num_output: 1024
    weight_filler {
      type: "xavier"
    }
    bias_filler {
      type: "constant"
      value: 0.2
    }
  }
}
layer {
  name: "loss1/relu_fc"
  type: "ReLU"
  bottom: "loss1/fc"
  top: "loss1/fc"
}
layer {
  name: "loss1/drop_fc"
  type: "Dropout"
  bottom: "loss1/fc"
  top: "loss1/fc"
  dropout_param {
    dropout_ratio: 0.7
  }
}
layer {
  name: "loss1/classifier"
  type: "InnerProduct"
  bottom: "loss1/fc"
  top: "loss1/classifier"
  param {
    lr_mult: 1
    decay_mult: 1
  }
  param {
    lr_mult: 2
    decay_mult: 0
  }
  inner_product_param {
    num_output: 1000
    weight_filler {
      type: "xavier"
    }
    bias_filler {
      type: "constant"
      value: 0
    }
  }
}
layer {
  name: "loss1/loss"
  type: "SoftmaxWithLoss"
  bottom: "loss1/classifier"
  bottom: "label_data_1_split_0"
  top: "loss1/loss1"
  loss_weight: 0.3
}
layer {
  name: "inception_4b/1x1"
  type: "Convolution"
  bottom: "inception_4a/output_inception_4a/output_0_split_1"
  top: "inception_4b/1x1"
  param {
    lr_mult: 1
    decay_mult: 1
  }
  param {
    lr_mult: 2
    decay_mult: 0
  }
  convolution_param {
    num_output: 160
    kernel_size: 1
    weight_filler {
      type: "xavier"
    }
    bias_filler {
      type: "constant"
      value: 0.2
    }
  }
}
layer {
  name: "inception_4b/relu_1x1"
  type: "ReLU"
  bottom: "inception_4b/1x1"
  top: "inception_4b/1x1"
}
layer {
  name: "inception_4b/3x3_reduce"
  type: "Convolution"
  bottom: "inception_4a/output_inception_4a/output_0_split_2"
  top: "inception_4b/3x3_reduce"
  param {
    lr_mult: 1
    decay_mult: 1
  }
  param {
    lr_mult: 2
    decay_mult: 0
  }
  convolution_param {
    num_output: 112
    kernel_size: 1
    weight_filler {
      type: "xavier"
    }
    bias_filler {
      type: "constant"
      value: 0.2
    }
  }
}
layer {
  name: "inception_4b/relu_3x3_reduce"
  type: "ReLU"
  bottom: "inception_4b/3x3_reduce"
  top: "inception_4b/3x3_reduce"
}
layer {
  name: "inception_4b/3x3"
  type: "Convolution"
  bottom: "inception_4b/3x3_reduce"
  top: "inception_4b/3x3"
  param {
    lr_mult: 1
    decay_mult: 1
  }
  param {
    lr_mult: 2
    decay_mult: 0
  }
  convolution_param {
    num_output: 224
    pad: 1
    kernel_size: 3
    weight_filler {
      type: "xavier"
    }
    bias_filler {
      type: "constant"
      value: 0.2
    }
  }
}
layer {
  name: "inception_4b/relu_3x3"
  type: "ReLU"
  bottom: "inception_4b/3x3"
  top: "inception_4b/3x3"
}
layer {
  name: "inception_4b/5x5_reduce"
  type: "Convolution"
  bottom: "inception_4a/output_inception_4a/output_0_split_3"
  top: "inception_4b/5x5_reduce"
  param {
    lr_mult: 1
    decay_mult: 1
  }
  param {
    lr_mult: 2
    decay_mult: 0
  }
  convolution_param {
    num_output: 24
    kernel_size: 1
    weight_filler {
      type: "xavier"
    }
    bias_filler {
      type: "constant"
      value: 0.2
    }
  }
}
layer {
  name: "inception_4b/relu_5x5_reduce"
  type: "ReLU"
  bottom: "inception_4b/5x5_reduce"
  top: "inception_4b/5x5_reduce"
}
layer {
  name: "inception_4b/5x5"
  type: "Convolution"
  bottom: "inception_4b/5x5_reduce"
  top: "inception_4b/5x5"
  param {
    lr_mult: 1
    decay_mult: 1
  }
  param {
    lr_mult: 2
    decay_mult: 0
  }
  convolution_param {
    num_output: 64
    pad: 2
    kernel_size: 5
    weight_filler {
      type: "xavier"
    }
    bias_filler {
      type: "constant"
      value: 0.2
    }
  }
}
layer {
  name: "inception_4b/relu_5x5"
  type: "ReLU"
  bottom: "inception_4b/5x5"
  top: "inception_4b/5x5"
}
layer {
  name: "inception_4b/pool"
  type: "Pooling"
  bottom: "inception_4a/output_inception_4a/output_0_split_4"
  top: "inception_4b/pool"
  pooling_param {
    pool: MAX
    kernel_size: 3
    stride: 1
    pad: 1
  }
}
layer {
  name: "inception_4b/pool_proj"
  type: "Convolution"
  bottom: "inception_4b/pool"
  top: "inception_4b/pool_proj"
  param {
    lr_mult: 1
    decay_mult: 1
  }
  param {
    lr_mult: 2
    decay_mult: 0
  }
  convolution_param {
    num_output: 64
    kernel_size: 1
    weight_filler {
      type: "xavier"
    }
    bias_filler {
      type: "constant"
      value: 0.2
    }
  }
}
layer {
  name: "inception_4b/relu_pool_proj"
  type: "ReLU"
  bottom: "inception_4b/pool_proj"
  top: "inception_4b/pool_proj"
}
layer {
  name: "inception_4b/output"
  type: "Concat"
  bottom: "inception_4b/1x1"
  bottom: "inception_4b/3x3"
  bottom: "inception_4b/5x5"
  bottom: "inception_4b/pool_proj"
  top: "inception_4b/output"
}
layer {
  name: "inception_4b/output_inception_4b/output_0_split"
  type: "Split"
  bottom: "inception_4b/output"
  top: "inception_4b/output_inception_4b/output_0_split_0"
  top: "inception_4b/output_inception_4b/output_0_split_1"
  top: "inception_4b/output_inception_4b/output_0_split_2"
  top: "inception_4b/output_inception_4b/output_0_split_3"
}
layer {
  name: "inception_4c/1x1"
  type: "Convolution"
  bottom: "inception_4b/output_inception_4b/output_0_split_0"
  top: "inception_4c/1x1"
  param {
    lr_mult: 1
    decay_mult: 1
  }
  param {
    lr_mult: 2
    decay_mult: 0
  }
  convolution_param {
    num_output: 128
    kernel_size: 1
    weight_filler {
      type: "xavier"
    }
    bias_filler {
      type: "constant"
      value: 0.2
    }
  }
}
layer {
  name: "inception_4c/relu_1x1"
  type: "ReLU"
  bottom: "inception_4c/1x1"
  top: "inception_4c/1x1"
}
layer {
  name: "inception_4c/3x3_reduce"
  type: "Convolution"
  bottom: "inception_4b/output_inception_4b/output_0_split_1"
  top: "inception_4c/3x3_reduce"
  param {
    lr_mult: 1
    decay_mult: 1
  }
  param {
    lr_mult: 2
    decay_mult: 0
  }
  convolution_param {
    num_output: 128
    kernel_size: 1
    weight_filler {
      type: "xavier"
    }
    bias_filler {
      type: "constant"
      value: 0.2
    }
  }
}
layer {
  name: "inception_4c/relu_3x3_reduce"
  type: "ReLU"
  bottom: "inception_4c/3x3_reduce"
  top: "inception_4c/3x3_reduce"
}
layer {
  name: "inception_4c/3x3"
  type: "Convolution"
  bottom: "inception_4c/3x3_reduce"
  top: "inception_4c/3x3"
  param {
    lr_mult: 1
    decay_mult: 1
  }
  param {
    lr_mult: 2
    decay_mult: 0
  }
  convolution_param {
    num_output: 256
    pad: 1
    kernel_size: 3
    weight_filler {
      type: "xavier"
    }
    bias_filler {
      type: "constant"
      value: 0.2
    }
  }
}
layer {
  name: "inception_4c/relu_3x3"
  type: "ReLU"
  bottom: "inception_4c/3x3"
  top: "inception_4c/3x3"
}
layer {
  name: "inception_4c/5x5_reduce"
  type: "Convolution"
  bottom: "inception_4b/output_inception_4b/output_0_split_2"
  top: "inception_4c/5x5_reduce"
  param {
    lr_mult: 1
    decay_mult: 1
  }
  param {
    lr_mult: 2
    decay_mult: 0
  }
  convolution_param {
    num_output: 24
    kernel_size: 1
    weight_filler {
      type: "xavier"
    }
    bias_filler {
      type: "constant"
      value: 0.2
    }
  }
}
layer {
  name: "inception_4c/relu_5x5_reduce"
  type: "ReLU"
  bottom: "inception_4c/5x5_reduce"
  top: "inception_4c/5x5_reduce"
}
layer {
  name: "inception_4c/5x5"
  type: "Convolution"
  bottom: "inception_4c/5x5_reduce"
  top: "inception_4c/5x5"
  param {
    lr_mult: 1
    decay_mult: 1
  }
  param {
    lr_mult: 2
    decay_mult: 0
  }
  convolution_param {
    num_output: 64
    pad: 2
    kernel_size: 5
    weight_filler {
      type: "xavier"
    }
    bias_filler {
      type: "constant"
      value: 0.2
    }
  }
}
layer {
  name: "inception_4c/relu_5x5"
  type: "ReLU"
  bottom: "inception_4c/5x5"
  top: "inception_4c/5x5"
}
layer {
  name: "inception_4c/pool"
  type: "Pooling"
  bottom: "inception_4b/output_inception_4b/output_0_split_3"
  top: "inception_4c/pool"
  pooling_param {
    pool: MAX
    kernel_size: 3
    stride: 1
    pad: 1
  }
}
layer {
  name: "inception_4c/pool_proj"
  type: "Convolution"
  bottom: "inception_4c/pool"
  top: "inception_4c/pool_proj"
  param {
    lr_mult: 1
    decay_mult: 1
  }
  param {
    lr_mult: 2
    decay_mult: 0
  }
  convolution_param {
    num_output: 64
    kernel_size: 1
    weight_filler {
      type: "xavier"
    }
    bias_filler {
      type: "constant"
      value: 0.2
    }
  }
}
layer {
  name: "inception_4c/relu_pool_proj"
  type: "ReLU"
  bottom: "inception_4c/pool_proj"
  top: "inception_4c/pool_proj"
}
layer {
  name: "inception_4c/output"
  type: "Concat"
  bottom: "inception_4c/1x1"
  bottom: "inception_4c/3x3"
  bottom: "inception_4c/5x5"
  bottom: "inception_4c/pool_proj"
  top: "inception_4c/output"
}
layer {
  name: "inception_4c/output_inception_4c/output_0_split"
  type: "Split"
  bottom: "inception_4c/output"
  top: "inception_4c/output_inception_4c/output_0_split_0"
  top: "inception_4c/output_inception_4c/output_0_split_1"
  top: "inception_4c/output_inception_4c/output_0_split_2"
  top: "inception_4c/output_inception_4c/output_0_split_3"
}
layer {
  name: "inception_4d/1x1"
  type: "Convolution"
  bottom: "inception_4c/output_inception_4c/output_0_split_0"
  top: "inception_4d/1x1"
  param {
    lr_mult: 1
    decay_mult: 1
  }
  param {
    lr_mult: 2
    decay_mult: 0
  }
  convolution_param {
    num_output: 112
    kernel_size: 1
    weight_filler {
      type: "xavier"
    }
    bias_filler {
      type: "constant"
      value: 0.2
    }
  }
}
layer {
  name: "inception_4d/relu_1x1"
  type: "ReLU"
  bottom: "inception_4d/1x1"
  top: "inception_4d/1x1"
}
layer {
  name: "inception_4d/3x3_reduce"
  type: "Convolution"
  bottom: "inception_4c/output_inception_4c/output_0_split_1"
  top: "inception_4d/3x3_reduce"
  param {
    lr_mult: 1
    decay_mult: 1
  }
  param {
    lr_mult: 2
    decay_mult: 0
  }
  convolution_param {
    num_output: 144
    kernel_size: 1
    weight_filler {
      type: "xavier"
    }
    bias_filler {
      type: "constant"
      value: 0.2
    }
  }
}
layer {
  name: "inception_4d/relu_3x3_reduce"
  type: "ReLU"
  bottom: "inception_4d/3x3_reduce"
  top: "inception_4d/3x3_reduce"
}
layer {
  name: "inception_4d/3x3"
  type: "Convolution"
  bottom: "inception_4d/3x3_reduce"
  top: "inception_4d/3x3"
  param {
    lr_mult: 1
    decay_mult: 1
  }
  param {
    lr_mult: 2
    decay_mult: 0
  }
  convolution_param {
    num_output: 288
    pad: 1
    kernel_size: 3
    weight_filler {
      type: "xavier"
    }
    bias_filler {
      type: "constant"
      value: 0.2
    }
  }
}
layer {
  name: "inception_4d/relu_3x3"
  type: "ReLU"
  bottom: "inception_4d/3x3"
  top: "inception_4d/3x3"
}
layer {
  name: "inception_4d/5x5_reduce"
  type: "Convolution"
  bottom: "inception_4c/output_inception_4c/output_0_split_2"
  top: "inception_4d/5x5_reduce"
  param {
    lr_mult: 1
    decay_mult: 1
  }
  param {
    lr_mult: 2
    decay_mult: 0
  }
  convolution_param {
    num_output: 32
    kernel_size: 1
    weight_filler {
      type: "xavier"
    }
    bias_filler {
      type: "constant"
      value: 0.2
    }
  }
}
layer {
  name: "inception_4d/relu_5x5_reduce"
  type: "ReLU"
  bottom: "inception_4d/5x5_reduce"
  top: "inception_4d/5x5_reduce"
}
layer {
  name: "inception_4d/5x5"
  type: "Convolution"
  bottom: "inception_4d/5x5_reduce"
  top: "inception_4d/5x5"
  param {
    lr_mult: 1
    decay_mult: 1
  }
  param {
    lr_mult: 2
    decay_mult: 0
  }
  convolution_param {
    num_output: 64
    pad: 2
    kernel_size: 5
    weight_filler {
      type: "xavier"
    }
    bias_filler {
      type: "constant"
      value: 0.2
    }
  }
}
layer {
  name: "inception_4d/relu_5x5"
  type: "ReLU"
  bottom: "inception_4d/5x5"
  top: "inception_4d/5x5"
}
layer {
  name: "inception_4d/pool"
  type: "Pooling"
  bottom: "inception_4c/output_inception_4c/output_0_split_3"
  top: "inception_4d/pool"
  pooling_param {
    pool: MAX
    kernel_size: 3
    stride: 1
    pad: 1
  }
}
layer {
  name: "inception_4d/pool_proj"
  type: "Convolution"
  bottom: "inception_4d/pool"
  top: "inception_4d/pool_proj"
  param {
    lr_mult: 1
    decay_mult: 1
  }
  param {
    lr_mult: 2
    decay_mult: 0
  }
  convolution_param {
    num_output: 64
    kernel_size: 1
    weight_filler {
      type: "xavier"
    }
    bias_filler {
      type: "constant"
      value: 0.2
    }
  }
}
layer {
  name: "inception_4d/relu_pool_proj"
  type: "ReLU"
  bottom: "inception_4d/pool_proj"
  top: "inception_4d/pool_proj"
}
layer {
  name: "inception_4d/output"
  type: "Concat"
  bottom: "inception_4d/1x1"
  bottom: "inception_4d/3x3"
  bottom: "inception_4d/5x5"
  bottom: "inception_4d/pool_proj"
  top: "inception_4d/output"
}
layer {
  name: "inception_4d/output_inception_4d/output_0_split"
  type: "Split"
  bottom: "inception_4d/output"
  top: "inception_4d/output_inception_4d/output_0_split_0"
  top: "inception_4d/output_inception_4d/output_0_split_1"
  top: "inception_4d/output_inception_4d/output_0_split_2"
  top: "inception_4d/output_inception_4d/output_0_split_3"
  top: "inception_4d/output_inception_4d/output_0_split_4"
}
layer {
  name: "loss2/ave_pool"
  type: "Pooling"
  bottom: "inception_4d/output_inception_4d/output_0_split_0"
  top: "loss2/ave_pool"
  pooling_param {
    pool: AVE
    kernel_size: 5
    stride: 3
  }
}
layer {
  name: "loss2/conv"
  type: "Convolution"
  bottom: "loss2/ave_pool"
  top: "loss2/conv"
  param {
    lr_mult: 1
    decay_mult: 1
  }
  param {
    lr_mult: 2
    decay_mult: 0
  }
  convolution_param {
    num_output: 128
    kernel_size: 1
    weight_filler {
      type: "xavier"
    }
    bias_filler {
      type: "constant"
      value: 0.2
    }
  }
}
layer {
  name: "loss2/relu_conv"
  type: "ReLU"
  bottom: "loss2/conv"
  top: "loss2/conv"
}
layer {
  name: "loss2/fc"
  type: "InnerProduct"
  bottom: "loss2/conv"
  top: "loss2/fc"
  param {
    lr_mult: 1
    decay_mult: 1
  }
  param {
    lr_mult: 2
    decay_mult: 0
  }
  inner_product_param {
    num_output: 1024
    weight_filler {
      type: "xavier"
    }
    bias_filler {
      type: "constant"
      value: 0.2
    }
  }
}
layer {
  name: "loss2/relu_fc"
  type: "ReLU"
  bottom: "loss2/fc"
  top: "loss2/fc"
}
layer {
  name: "loss2
I0123 12:19:23.488490 38174 layer_factory.hpp:114] Creating layer data
I0123 12:19:23.489557 38174 net.cpp:160] Creating Layer data
I0123 12:19:23.489657 38174 net.cpp:570] data -> data
I0123 12:19:23.489722 38174 net.cpp:570] data -> label
I0123 12:19:23.489934 38175 db_lmdb.cpp:72] Opened lmdb /home/user/caffeOMP/original/caffe/examples/imagenet/ilsvrc12_train_lmdb
I0123 12:19:23.490764 38174 data_layer.cpp:80] output data size: 32,3,224,224
I0123 12:19:23.526638 38174 net.cpp:210] Setting up data
I0123 12:19:23.526764 38174 net.cpp:217] Top shape: 32 3 224 224 (4816896)
I0123 12:19:23.526787 38174 net.cpp:217] Top shape: 32 (32)
I0123 12:19:23.526855 38174 net.cpp:225] Memory required for data: 19267712
I0123 12:19:23.526880 38174 layer_factory.hpp:114] Creating layer label_data_1_split
I0123 12:19:23.526933 38174 net.cpp:160] Creating Layer label_data_1_split
I0123 12:19:23.526957 38174 net.cpp:596] label_data_1_split <- label
I0123 12:19:23.526988 38174 net.cpp:570] label_data_1_split -> label_data_1_split_0
I0123 12:19:23.527024 38174 net.cpp:570] label_data_1_split -> label_data_1_split_1
I0123 12:19:23.527047 38174 net.cpp:570] label_data_1_split -> label_data_1_split_2
I0123 12:19:23.527087 38174 net.cpp:210] Setting up label_data_1_split
I0123 12:19:23.527107 38174 net.cpp:217] Top shape: 32 (32)
I0123 12:19:23.527127 38174 net.cpp:217] Top shape: 32 (32)
I0123 12:19:23.527146 38174 net.cpp:217] Top shape: 32 (32)
I0123 12:19:23.527161 38174 net.cpp:225] Memory required for data: 19268096
I0123 12:19:23.527189 38174 layer_factory.hpp:114] Creating layer conv1/7x7_s2
I0123 12:19:23.527242 38174 net.cpp:160] Creating Layer conv1/7x7_s2
I0123 12:19:23.527261 38174 net.cpp:596] conv1/7x7_s2 <- data
I0123 12:19:23.527288 38174 net.cpp:570] conv1/7x7_s2 -> conv1/7x7_s2
OMP: Info #242: KMP_AFFINITY: pid 38174 thread 1 bound to OS proc set {1,33}
OMP: Info #242: KMP_AFFINITY: pid 38174 thread 2 bound to OS proc set {2,34}
OMP: Info #242: KMP_AFFINITY: pid 38174 thread 3 bound to OS proc set {3,35}
OMP: Info #242: KMP_AFFINITY: pid 38174 thread 4 bound to OS proc set {4,36}
OMP: Info #242: KMP_AFFINITY: pid 38174 thread 5 bound to OS proc set {5,37}
OMP: Info #242: KMP_AFFINITY: pid 38174 thread 6 bound to OS proc set {6,38}
OMP: Info #242: KMP_AFFINITY: pid 38174 thread 7 bound to OS proc set {7,39}
I0123 12:19:23.555007 38174 net.cpp:210] Setting up conv1/7x7_s2
I0123 12:19:23.555096 38174 net.cpp:217] Top shape: 32 64 112 112 (25690112)
I0123 12:19:23.555104 38174 net.cpp:225] Memory required for data: 122028544
I0123 12:19:23.555142 38174 layer_factory.hpp:114] Creating layer conv1/relu_7x7
I0123 12:19:23.555169 38174 net.cpp:160] Creating Layer conv1/relu_7x7
I0123 12:19:23.555202 38174 net.cpp:596] conv1/relu_7x7 <- conv1/7x7_s2
I0123 12:19:23.555218 38174 net.cpp:557] conv1/relu_7x7 -> conv1/7x7_s2 (in-place)
I0123 12:19:23.555269 38174 net.cpp:210] Setting up conv1/relu_7x7
I0123 12:19:23.555277 38174 net.cpp:217] Top shape: 32 64 112 112 (25690112)
I0123 12:19:23.555284 38174 net.cpp:225] Memory required for data: 224788992
I0123 12:19:23.555290 38174 layer_factory.hpp:114] Creating layer pool1/3x3_s2
I0123 12:19:23.555363 38174 net.cpp:160] Creating Layer pool1/3x3_s2
I0123 12:19:23.555373 38174 net.cpp:596] pool1/3x3_s2 <- conv1/7x7_s2
I0123 12:19:23.555385 38174 net.cpp:570] pool1/3x3_s2 -> pool1/3x3_s2
I0123 12:19:23.555414 38174 net.cpp:210] Setting up pool1/3x3_s2
I0123 12:19:23.555424 38174 net.cpp:217] Top shape: 32 64 56 56 (6422528)
I0123 12:19:23.555430 38174 net.cpp:225] Memory required for data: 250479104
I0123 12:19:23.555438 38174 layer_factory.hpp:114] Creating layer pool1/norm1
I0123 12:19:23.555452 38174 net.cpp:160] Creating Layer pool1/norm1
I0123 12:19:23.555459 38174 net.cpp:596] pool1/norm1 <- pool1/3x3_s2
I0123 12:19:23.555469 38174 net.cpp:570] pool1/norm1 -> pool1/norm1
I0123 12:19:23.555488 38174 net.cpp:210] Setting up pool1/norm1
I0123 12:19:23.555496 38174 net.cpp:217] Top shape: 32 64 56 56 (6422528)
I0123 12:19:23.555503 38174 net.cpp:225] Memory required for data: 276169216
I0123 12:19:23.555510 38174 layer_factory.hpp:114] Creating layer conv2/3x3_reduce
I0123 12:19:23.555539 38174 net.cpp:160] Creating Layer conv2/3x3_reduce
I0123 12:19:23.555547 38174 net.cpp:596] conv2/3x3_reduce <- pool1/norm1
I0123 12:19:23.555557 38174 net.cpp:570] conv2/3x3_reduce -> conv2/3x3_reduce
I0123 12:19:23.558223 38174 net.cpp:210] Setting up conv2/3x3_reduce
I0123 12:19:23.558248 38174 net.cpp:217] Top shape: 32 64 56 56 (6422528)
I0123 12:19:23.558254 38174 net.cpp:225] Memory required for data: 301859328
I0123 12:19:23.558267 38174 layer_factory.hpp:114] Creating layer conv2/relu_3x3_reduce
I0123 12:19:23.558279 38174 net.cpp:160] Creating Layer conv2/relu_3x3_reduce
I0123 12:19:23.558286 38174 net.cpp:596] conv2/relu_3x3_reduce <- conv2/3x3_reduce
I0123 12:19:23.558297 38174 net.cpp:557] conv2/relu_3x3_reduce -> conv2/3x3_reduce (in-place)
I0123 12:19:23.558307 38174 net.cpp:210] Setting up conv2/relu_3x3_reduce
I0123 12:19:23.558316 38174 net.cpp:217] Top shape: 32 64 56 56 (6422528)
I0123 12:19:23.558322 38174 net.cpp:225] Memory required for data: 327549440
I0123 12:19:23.558329 38174 layer_factory.hpp:114] Creating layer conv2/3x3
I0123 12:19:23.558341 38174 net.cpp:160] Creating Layer conv2/3x3
I0123 12:19:23.558368 38174 net.cpp:596] conv2/3x3 <- conv2/3x3_reduce
I0123 12:19:23.558380 38174 net.cpp:570] conv2/3x3 -> conv2/3x3
I0123 12:19:23.579306 38174 net.cpp:210] Setting up conv2/3x3
I0123 12:19:23.579321 38174 net.cpp:217] Top shape: 32 192 56 56 (19267584)
I0123 12:19:23.579329 38174 net.cpp:225] Memory required for data: 404619776
I0123 12:19:23.579347 38174 layer_factory.hpp:114] Creating layer conv2/relu_3x3
I0123 12:19:23.579365 38174 net.cpp:160] Creating Layer conv2/relu_3x3
I0123 12:19:23.579371 38174 net.cpp:596] conv2/relu_3x3 <- conv2/3x3
I0123 12:19:23.579380 38174 net.cpp:557] conv2/relu_3x3 -> conv2/3x3 (in-place)
I0123 12:19:23.579390 38174 net.cpp:210] Setting up conv2/relu_3x3
I0123 12:19:23.579397 38174 net.cpp:217] Top shape: 32 192 56 56 (19267584)
I0123 12:19:23.579403 38174 net.cpp:225] Memory required for data: 481690112
I0123 12:19:23.579411 38174 layer_factory.hpp:114] Creating layer conv2/norm2
I0123 12:19:23.579422 38174 net.cpp:160] Creating Layer conv2/norm2
I0123 12:19:23.579429 38174 net.cpp:596] conv2/norm2 <- conv2/3x3
I0123 12:19:23.579438 38174 net.cpp:570] conv2/norm2 -> conv2/norm2
I0123 12:19:23.579450 38174 net.cpp:210] Setting up conv2/norm2
I0123 12:19:23.579459 38174 net.cpp:217] Top shape: 32 192 56 56 (19267584)
I0123 12:19:23.579465 38174 net.cpp:225] Memory required for data: 558760448
I0123 12:19:23.579473 38174 layer_factory.hpp:114] Creating layer pool2/3x3_s2
I0123 12:19:23.579493 38174 net.cpp:160] Creating Layer pool2/3x3_s2
I0123 12:19:23.579502 38174 net.cpp:596] pool2/3x3_s2 <- conv2/norm2
I0123 12:19:23.579512 38174 net.cpp:570] pool2/3x3_s2 -> pool2/3x3_s2
I0123 12:19:23.579530 38174 net.cpp:210] Setting up pool2/3x3_s2
I0123 12:19:23.579540 38174 net.cpp:217] Top shape: 32 192 28 28 (4816896)
I0123 12:19:23.579546 38174 net.cpp:225] Memory required for data: 578028032
I0123 12:19:23.579553 38174 layer_factory.hpp:114] Creating layer pool2/3x3_s2_pool2/3x3_s2_0_split
I0123 12:19:23.579565 38174 net.cpp:160] Creating Layer pool2/3x3_s2_pool2/3x3_s2_0_split
I0123 12:19:23.579571 38174 net.cpp:596] pool2/3x3_s2_pool2/3x3_s2_0_split <- pool2/3x3_s2
I0123 12:19:23.579581 38174 net.cpp:570] pool2/3x3_s2_pool2/3x3_s2_0_split -> pool2/3x3_s2_pool2/3x3_s2_0_split_0
I0123 12:19:23.579591 38174 net.cpp:570] pool2/3x3_s2_pool2/3x3_s2_0_split -> pool2/3x3_s2_pool2/3x3_s2_0_split_1
I0123 12:19:23.579601 38174 net.cpp:570] pool2/3x3_s2_pool2/3x3_s2_0_split -> pool2/3x3_s2_pool2/3x3_s2_0_split_2
I0123 12:19:23.579612 38174 net.cpp:570] pool2/3x3_s2_pool2/3x3_s2_0_split -> pool2/3x3_s2_pool2/3x3_s2_0_split_3
I0123 12:19:23.579622 38174 net.cpp:210] Setting up pool2/3x3_s2_pool2/3x3_s2_0_split
I0123 12:19:23.579632 38174 net.cpp:217] Top shape: 32 192 28 28 (4816896)
I0123 12:19:23.579638 38174 net.cpp:217] Top shape: 32 192 28 28 (4816896)
I0123 12:19:23.579646 38174 net.cpp:217] Top shape: 32 192 28 28 (4816896)
I0123 12:19:23.579653 38174 net.cpp:217] Top shape: 32 192 28 28 (4816896)
I0123 12:19:23.579659 38174 net.cpp:225] Memory required for data: 655098368
I0123 12:19:23.579666 38174 layer_factory.hpp:114] Creating layer inception_3a/1x1
I0123 12:19:23.579679 38174 net.cpp:160] Creating Layer inception_3a/1x1
I0123 12:19:23.579687 38174 net.cpp:596] inception_3a/1x1 <- pool2/3x3_s2_pool2/3x3_s2_0_split_0
I0123 12:19:23.579699 38174 net.cpp:570] inception_3a/1x1 -> inception_3a/1x1
I0123 12:19:23.582072 38174 net.cpp:210] Setting up inception_3a/1x1
I0123 12:19:23.582098 38174 net.cpp:217] Top shape: 32 64 28 28 (1605632)
I0123 12:19:23.582103 38174 net.cpp:225] Memory required for data: 661520896
I0123 12:19:23.582114 38174 layer_factory.hpp:114] Creating layer inception_3a/relu_1x1
I0123 12:19:23.582123 38174 net.cpp:160] Creating Layer inception_3a/relu_1x1
I0123 12:19:23.582130 38174 net.cpp:596] inception_3a/relu_1x1 <- inception_3a/1x1
I0123 12:19:23.582141 38174 net.cpp:557] inception_3a/relu_1x1 -> inception_3a/1x1 (in-place)
I0123 12:19:23.582151 38174 net.cpp:210] Setting up inception_3a/relu_1x1
I0123 12:19:23.582168 38174 net.cpp:217] Top shape: 32 64 28 28 (1605632)
I0123 12:19:23.582200 38174 net.cpp:225] Memory required for data: 667943424
I0123 12:19:23.582207 38174 layer_factory.hpp:114] Creating layer inception_3a/3x3_reduce
I0123 12:19:23.582219 38174 net.cpp:160] Creating Layer inception_3a/3x3_reduce
I0123 12:19:23.582226 38174 net.cpp:596] inception_3a/3x3_reduce <- pool2/3x3_s2_pool2/3x3_s2_0_split_1
I0123 12:19:23.582242 38174 net.cpp:570] inception_3a/3x3_reduce -> inception_3a/3x3_reduce
I0123 12:19:23.584779 38174 net.cpp:210] Setting up inception_3a/3x3_reduce
I0123 12:19:23.584794 38174 net.cpp:217] Top shape: 32 96 28 28 (2408448)
I0123 12:19:23.584800 38174 net.cpp:225] Memory required for data: 677577216
I0123 12:19:23.584812 38174 layer_factory.hpp:114] Creating layer inception_3a/relu_3x3_reduce
I0123 12:19:23.584825 38174 net.cpp:160] Creating Layer inception_3a/relu_3x3_reduce
I0123 12:19:23.584832 38174 net.cpp:596] inception_3a/relu_3x3_reduce <- inception_3a/3x3_reduce
I0123 12:19:23.584841 38174 net.cpp:557] inception_3a/relu_3x3_reduce -> inception_3a/3x3_reduce (in-place)
I0123 12:19:23.584851 38174 net.cpp:210] Setting up inception_3a/relu_3x3_reduce
I0123 12:19:23.584859 38174 net.cpp:217] Top shape: 32 96 28 28 (2408448)
I0123 12:19:23.584866 38174 net.cpp:225] Memory required for data: 687211008
I0123 12:19:23.584872 38174 layer_factory.hpp:114] Creating layer inception_3a/3x3
I0123 12:19:23.584885 38174 net.cpp:160] Creating Layer inception_3a/3x3
I0123 12:19:23.584892 38174 net.cpp:596] inception_3a/3x3 <- inception_3a/3x3_reduce
I0123 12:19:23.584903 38174 net.cpp:570] inception_3a/3x3 -> inception_3a/3x3
I0123 12:19:23.595026 38174 net.cpp:210] Setting up inception_3a/3x3
I0123 12:19:23.595046 38174 net.cpp:217] Top shape: 32 128 28 28 (3211264)
I0123 12:19:23.595052 38174 net.cpp:225] Memory required for data: 700056064
I0123 12:19:23.595062 38174 layer_factory.hpp:114] Creating layer inception_3a/relu_3x3
I0123 12:19:23.595072 38174 net.cpp:160] Creating Layer inception_3a/relu_3x3
I0123 12:19:23.595079 38174 net.cpp:596] inception_3a/relu_3x3 <- inception_3a/3x3
I0123 12:19:23.595088 38174 net.cpp:557] inception_3a/relu_3x3 -> inception_3a/3x3 (in-place)
I0123 12:19:23.595103 38174 net.cpp:210] Setting up inception_3a/relu_3x3
I0123 12:19:23.595113 38174 net.cpp:217] Top shape: 32 128 28 28 (3211264)
I0123 12:19:23.595118 38174 net.cpp:225] Memory required for data: 712901120
I0123 12:19:23.595125 38174 layer_factory.hpp:114] Creating layer inception_3a/5x5_reduce
I0123 12:19:23.595144 38174 net.cpp:160] Creating Layer inception_3a/5x5_reduce
I0123 12:19:23.595151 38174 net.cpp:596] inception_3a/5x5_reduce <- pool2/3x3_s2_pool2/3x3_s2_0_split_2
I0123 12:19:23.595163 38174 net.cpp:570] inception_3a/5x5_reduce -> inception_3a/5x5_reduce
I0123 12:19:23.596891 38174 net.cpp:210] Setting up inception_3a/5x5_reduce
I0123 12:19:23.596905 38174 net.cpp:217] Top shape: 32 16 28 28 (401408)
I0123 12:19:23.596912 38174 net.cpp:225] Memory required for data: 714506752
I0123 12:19:23.596921 38174 layer_factory.hpp:114] Creating layer inception_3a/relu_5x5_reduce
I0123 12:19:23.596935 38174 net.cpp:160] Creating Layer inception_3a/relu_5x5_reduce
I0123 12:19:23.596941 38174 net.cpp:596] inception_3a/relu_5x5_reduce <- inception_3a/5x5_reduce
I0123 12:19:23.596951 38174 net.cpp:557] inception_3a/relu_5x5_reduce -> inception_3a/5x5_reduce (in-place)
I0123 12:19:23.596961 38174 net.cpp:210] Setting up inception_3a/relu_5x5_reduce
I0123 12:19:23.596971 38174 net.cpp:217] Top shape: 32 16 28 28 (401408)
I0123 12:19:23.596976 38174 net.cpp:225] Memory required for data: 716112384
I0123 12:19:23.596983 38174 layer_factory.hpp:114] Creating layer inception_3a/5x5
I0123 12:19:23.596997 38174 net.cpp:160] Creating Layer inception_3a/5x5
I0123 12:19:23.597003 38174 net.cpp:596] inception_3a/5x5 <- inception_3a/5x5_reduce
I0123 12:19:23.597015 38174 net.cpp:570] inception_3a/5x5 -> inception_3a/5x5
I0123 12:19:23.600767 38174 net.cpp:210] Setting up inception_3a/5x5
I0123 12:19:23.600782 38174 net.cpp:217] Top shape: 32 32 28 28 (802816)
I0123 12:19:23.600797 38174 net.cpp:225] Memory required for data: 719323648
I0123 12:19:23.600808 38174 layer_factory.hpp:114] Creating layer inception_3a/relu_5x5
I0123 12:19:23.600819 38174 net.cpp:160] Creating Layer inception_3a/relu_5x5
I0123 12:19:23.600826 38174 net.cpp:596] inception_3a/relu_5x5 <- inception_3a/5x5
I0123 12:19:23.600836 38174 net.cpp:557] inception_3a/relu_5x5 -> inception_3a/5x5 (in-place)
I0123 12:19:23.600845 38174 net.cpp:210] Setting up inception_3a/relu_5x5
I0123 12:19:23.600853 38174 net.cpp:217] Top shape: 32 32 28 28 (802816)
I0123 12:19:23.600859 38174 net.cpp:225] Memory required for data: 722534912
I0123 12:19:23.600867 38174 layer_factory.hpp:114] Creating layer inception_3a/pool
I0123 12:19:23.600898 38174 net.cpp:160] Creating Layer inception_3a/pool
I0123 12:19:23.600908 38174 net.cpp:596] inception_3a/pool <- pool2/3x3_s2_pool2/3x3_s2_0_split_3
I0123 12:19:23.600916 38174 net.cpp:570] inception_3a/pool -> inception_3a/pool
I0123 12:19:23.600929 38174 net.cpp:210] Setting up inception_3a/pool
I0123 12:19:23.600937 38174 net.cpp:217] Top shape: 32 192 28 28 (4816896)
I0123 12:19:23.600944 38174 net.cpp:225] Memory required for data: 741802496
I0123 12:19:23.600951 38174 layer_factory.hpp:114] Creating layer inception_3a/pool_proj
I0123 12:19:23.600965 38174 net.cpp:160] Creating Layer inception_3a/pool_proj
I0123 12:19:23.600971 38174 net.cpp:596] inception_3a/pool_proj <- inception_3a/pool
I0123 12:19:23.600986 38174 net.cpp:570] inception_3a/pool_proj -> inception_3a/pool_proj
I0123 12:19:23.603379 38174 net.cpp:210] Setting up inception_3a/pool_proj
I0123 12:19:23.603399 38174 net.cpp:217] Top shape: 32 32 28 28 (802816)
I0123 12:19:23.603405 38174 net.cpp:225] Memory required for data: 745013760
I0123 12:19:23.603418 38174 layer_factory.hpp:114] Creating layer inception_3a/relu_pool_proj
I0123 12:19:23.603428 38174 net.cpp:160] Creating Layer inception_3a/relu_pool_proj
I0123 12:19:23.603435 38174 net.cpp:596] inception_3a/relu_pool_proj <- inception_3a/pool_proj
I0123 12:19:23.603446 38174 net.cpp:557] inception_3a/relu_pool_proj -> inception_3a/pool_proj (in-place)
I0123 12:19:23.603457 38174 net.cpp:210] Setting up inception_3a/relu_pool_proj
I0123 12:19:23.603466 38174 net.cpp:217] Top shape: 32 32 28 28 (802816)
I0123 12:19:23.603471 38174 net.cpp:225] Memory required for data: 748225024
I0123 12:19:23.603478 38174 layer_factory.hpp:114] Creating layer inception_3a/output
I0123 12:19:23.603487 38174 net.cpp:160] Creating Layer inception_3a/output
I0123 12:19:23.603494 38174 net.cpp:596] inception_3a/output <- inception_3a/1x1
I0123 12:19:23.603502 38174 net.cpp:596] inception_3a/output <- inception_3a/3x3
I0123 12:19:23.603509 38174 net.cpp:596] inception_3a/output <- inception_3a/5x5
I0123 12:19:23.603518 38174 net.cpp:596] inception_3a/output <- inception_3a/pool_proj
I0123 12:19:23.603530 38174 net.cpp:570] inception_3a/output -> inception_3a/output
I0123 12:19:23.603549 38174 net.cpp:210] Setting up inception_3a/output
I0123 12:19:23.603559 38174 net.cpp:217] Top shape: 32 256 28 28 (6422528)
I0123 12:19:23.603565 38174 net.cpp:225] Memory required for data: 773915136
I0123 12:19:23.603572 38174 layer_factory.hpp:114] Creating layer inception_3a/output_inception_3a/output_0_split
I0123 12:19:23.603581 38174 net.cpp:160] Creating Layer inception_3a/output_inception_3a/output_0_split
I0123 12:19:23.603588 38174 net.cpp:596] inception_3a/output_inception_3a/output_0_split <- inception_3a/output
I0123 12:19:23.603600 38174 net.cpp:570] inception_3a/output_inception_3a/output_0_split -> inception_3a/output_inception_3a/output_0_split_0
I0123 12:19:23.603610 38174 net.cpp:570] inception_3a/output_inception_3a/output_0_split -> inception_3a/output_inception_3a/output_0_split_1
I0123 12:19:23.603619 38174 net.cpp:570] inception_3a/output_inception_3a/output_0_split -> inception_3a/output_inception_3a/output_0_split_2
I0123 12:19:23.603629 38174 net.cpp:570] inception_3a/output_inception_3a/output_0_split -> inception_3a/output_inception_3a/output_0_split_3
I0123 12:19:23.603649 38174 net.cpp:210] Setting up inception_3a/output_inception_3a/output_0_split
I0123 12:19:23.603658 38174 net.cpp:217] Top shape: 32 256 28 28 (6422528)
I0123 12:19:23.603667 38174 net.cpp:217] Top shape: 32 256 28 28 (6422528)
I0123 12:19:23.603673 38174 net.cpp:217] Top shape: 32 256 28 28 (6422528)
I0123 12:19:23.603680 38174 net.cpp:217] Top shape: 32 256 28 28 (6422528)
I0123 12:19:23.603688 38174 net.cpp:225] Memory required for data: 876675584
I0123 12:19:23.603693 38174 layer_factory.hpp:114] Creating layer inception_3b/1x1
I0123 12:19:23.603708 38174 net.cpp:160] Creating Layer inception_3b/1x1
I0123 12:19:23.603715 38174 net.cpp:596] inception_3b/1x1 <- inception_3a/output_inception_3a/output_0_split_0
I0123 12:19:23.603726 38174 net.cpp:570] inception_3b/1x1 -> inception_3b/1x1
I0123 12:19:23.606906 38174 net.cpp:210] Setting up inception_3b/1x1
I0123 12:19:23.606921 38174 net.cpp:217] Top shape: 32 128 28 28 (3211264)
I0123 12:19:23.606927 38174 net.cpp:225] Memory required for data: 889520640
I0123 12:19:23.606937 38174 layer_factory.hpp:114] Creating layer inception_3b/relu_1x1
I0123 12:19:23.606946 38174 net.cpp:160] Creating Layer inception_3b/relu_1x1
I0123 12:19:23.606955 38174 net.cpp:596] inception_3b/relu_1x1 <- inception_3b/1x1
I0123 12:19:23.606966 38174 net.cpp:557] inception_3b/relu_1x1 -> inception_3b/1x1 (in-place)
I0123 12:19:23.606976 38174 net.cpp:210] Setting up inception_3b/relu_1x1
I0123 12:19:23.606983 38174 net.cpp:217] Top shape: 32 128 28 28 (3211264)
I0123 12:19:23.606989 38174 net.cpp:225] Memory required for data: 902365696
I0123 12:19:23.606997 38174 layer_factory.hpp:114] Creating layer inception_3b/3x3_reduce
I0123 12:19:23.607013 38174 net.cpp:160] Creating Layer inception_3b/3x3_reduce
I0123 12:19:23.607022 38174 net.cpp:596] inception_3b/3x3_reduce <- inception_3a/output_inception_3a/output_0_split_1
I0123 12:19:23.607033 38174 net.cpp:570] inception_3b/3x3_reduce -> inception_3b/3x3_reduce
I0123 12:19:23.610263 38174 net.cpp:210] Setting up inception_3b/3x3_reduce
I0123 12:19:23.610277 38174 net.cpp:217] Top shape: 32 128 28 28 (3211264)
I0123 12:19:23.610285 38174 net.cpp:225] Memory required for data: 915210752
I0123 12:19:23.610294 38174 layer_factory.hpp:114] Creating layer inception_3b/relu_3x3_reduce
I0123 12:19:23.610303 38174 net.cpp:160] Creating Layer inception_3b/relu_3x3_reduce
I0123 12:19:23.610313 38174 net.cpp:596] inception_3b/relu_3x3_reduce <- inception_3b/3x3_reduce
I0123 12:19:23.610322 38174 net.cpp:557] inception_3b/relu_3x3_reduce -> inception_3b/3x3_reduce (in-place)
I0123 12:19:23.610332 38174 net.cpp:210] Setting up inception_3b/relu_3x3_reduce
I0123 12:19:23.610340 38174 net.cpp:217] Top shape: 32 128 28 28 (3211264)
I0123 12:19:23.610347 38174 net.cpp:225] Memory required for data: 928055808
I0123 12:19:23.610353 38174 layer_factory.hpp:114] Creating layer inception_3b/3x3
I0123 12:19:23.610368 38174 net.cpp:160] Creating Layer inception_3b/3x3
I0123 12:19:23.610375 38174 net.cpp:596] inception_3b/3x3 <- inception_3b/3x3_reduce
I0123 12:19:23.610386 38174 net.cpp:570] inception_3b/3x3 -> inception_3b/3x3
I0123 12:19:23.624390 38174 net.cpp:210] Setting up inception_3b/3x3
I0123 12:19:23.624433 38174 net.cpp:217] Top shape: 32 192 28 28 (4816896)
I0123 12:19:23.624439 38174 net.cpp:225] Memory required for data: 947323392
I0123 12:19:23.624464 38174 layer_factory.hpp:114] Creating layer inception_3b/relu_3x3
I0123 12:19:23.624472 38174 net.cpp:160] Creating Layer inception_3b/relu_3x3
I0123 12:19:23.624480 38174 net.cpp:596] inception_3b/relu_3x3 <- inception_3b/3x3
I0123 12:19:23.624488 38174 net.cpp:557] inception_3b/relu_3x3 -> inception_3b/3x3 (in-place)
I0123 12:19:23.624498 38174 net.cpp:210] Setting up inception_3b/relu_3x3
I0123 12:19:23.624506 38174 net.cpp:217] Top shape: 32 192 28 28 (4816896)
I0123 12:19:23.624513 38174 net.cpp:225] Memory required for data: 966590976
I0123 12:19:23.624519 38174 layer_factory.hpp:114] Creating layer inception_3b/5x5_reduce
I0123 12:19:23.624533 38174 net.cpp:160] Creating Layer inception_3b/5x5_reduce
I0123 12:19:23.624558 38174 net.cpp:596] inception_3b/5x5_reduce <- inception_3a/output_inception_3a/output_0_split_2
I0123 12:19:23.624569 38174 net.cpp:570] inception_3b/5x5_reduce -> inception_3b/5x5_reduce
I0123 12:19:23.627244 38174 net.cpp:210] Setting up inception_3b/5x5_reduce
I0123 12:19:23.627259 38174 net.cpp:217] Top shape: 32 32 28 28 (802816)
I0123 12:19:23.627264 38174 net.cpp:225] Memory required for data: 969802240
I0123 12:19:23.627274 38174 layer_factory.hpp:114] Creating layer inception_3b/relu_5x5_reduce
I0123 12:19:23.627285 38174 net.cpp:160] Creating Layer inception_3b/relu_5x5_reduce
I0123 12:19:23.627292 38174 net.cpp:596] inception_3b/relu_5x5_reduce <- inception_3b/5x5_reduce
I0123 12:19:23.627300 38174 net.cpp:557] inception_3b/relu_5x5_reduce -> inception_3b/5x5_reduce (in-place)
I0123 12:19:23.627310 38174 net.cpp:210] Setting up inception_3b/relu_5x5_reduce
I0123 12:19:23.627318 38174 net.cpp:217] Top shape: 32 32 28 28 (802816)
I0123 12:19:23.627324 38174 net.cpp:225] Memory required for data: 973013504
I0123 12:19:23.627331 38174 layer_factory.hpp:114] Creating layer inception_3b/5x5
I0123 12:19:23.627344 38174 net.cpp:160] Creating Layer inception_3b/5x5
I0123 12:19:23.627351 38174 net.cpp:596] inception_3b/5x5 <- inception_3b/5x5_reduce
I0123 12:19:23.627363 38174 net.cpp:570] inception_3b/5x5 -> inception_3b/5x5
I0123 12:19:23.635793 38174 net.cpp:210] Setting up inception_3b/5x5
I0123 12:19:23.635828 38174 net.cpp:217] Top shape: 32 96 28 28 (2408448)
I0123 12:19:23.635834 38174 net.cpp:225] Memory required for data: 982647296
I0123 12:19:23.635843 38174 layer_factory.hpp:114] Creating layer inception_3b/relu_5x5
I0123 12:19:23.635859 38174 net.cpp:160] Creating Layer inception_3b/relu_5x5
I0123 12:19:23.635867 38174 net.cpp:596] inception_3b/relu_5x5 <- inception_3b/5x5
I0123 12:19:23.635877 38174 net.cpp:557] inception_3b/relu_5x5 -> inception_3b/5x5 (in-place)
I0123 12:19:23.635888 38174 net.cpp:210] Setting up inception_3b/relu_5x5
I0123 12:19:23.635896 38174 net.cpp:217] Top shape: 32 96 28 28 (2408448)
I0123 12:19:23.635902 38174 net.cpp:225] Memory required for data: 992281088
I0123 12:19:23.635910 38174 layer_factory.hpp:114] Creating layer inception_3b/pool
I0123 12:19:23.635936 38174 net.cpp:160] Creating Layer inception_3b/pool
I0123 12:19:23.635944 38174 net.cpp:596] inception_3b/pool <- inception_3a/output_inception_3a/output_0_split_3
I0123 12:19:23.635956 38174 net.cpp:570] inception_3b/pool -> inception_3b/pool
I0123 12:19:23.635968 38174 net.cpp:210] Setting up inception_3b/pool
I0123 12:19:23.635977 38174 net.cpp:217] Top shape: 32 256 28 28 (6422528)
I0123 12:19:23.635983 38174 net.cpp:225] Memory required for data: 1017971200
I0123 12:19:23.635990 38174 layer_factory.hpp:114] Creating layer inception_3b/pool_proj
I0123 12:19:23.636004 38174 net.cpp:160] Creating Layer inception_3b/pool_proj
I0123 12:19:23.636011 38174 net.cpp:596] inception_3b/pool_proj <- inception_3b/pool
I0123 12:19:23.636023 38174 net.cpp:570] inception_3b/pool_proj -> inception_3b/pool_proj
I0123 12:19:23.638870 38174 net.cpp:210] Setting up inception_3b/pool_proj
I0123 12:19:23.638887 38174 net.cpp:217] Top shape: 32 64 28 28 (1605632)
I0123 12:19:23.638893 38174 net.cpp:225] Memory required for data: 1024393728
I0123 12:19:23.638903 38174 layer_factory.hpp:114] Creating layer inception_3b/relu_pool_proj
I0123 12:19:23.638913 38174 net.cpp:160] Creating Layer inception_3b/relu_pool_proj
I0123 12:19:23.638921 38174 net.cpp:596] inception_3b/relu_pool_proj <- inception_3b/pool_proj
I0123 12:19:23.638929 38174 net.cpp:557] inception_3b/relu_pool_proj -> inception_3b/pool_proj (in-place)
I0123 12:19:23.638938 38174 net.cpp:210] Setting up inception_3b/relu_pool_proj
I0123 12:19:23.638947 38174 net.cpp:217] Top shape: 32 64 28 28 (1605632)
I0123 12:19:23.638953 38174 net.cpp:225] Memory required for data: 1030816256
I0123 12:19:23.638959 38174 layer_factory.hpp:114] Creating layer inception_3b/output
I0123 12:19:23.638972 38174 net.cpp:160] Creating Layer inception_3b/output
I0123 12:19:23.638994 38174 net.cpp:596] inception_3b/output <- inception_3b/1x1
I0123 12:19:23.639003 38174 net.cpp:596] inception_3b/output <- inception_3b/3x3
I0123 12:19:23.639010 38174 net.cpp:596] inception_3b/output <- inception_3b/5x5
I0123 12:19:23.639017 38174 net.cpp:596] inception_3b/output <- inception_3b/pool_proj
I0123 12:19:23.639029 38174 net.cpp:570] inception_3b/output -> inception_3b/output
I0123 12:19:23.639040 38174 net.cpp:210] Setting up inception_3b/output
I0123 12:19:23.639048 38174 net.cpp:217] Top shape: 32 480 28 28 (12042240)
I0123 12:19:23.639055 38174 net.cpp:225] Memory required for data: 1078985216
I0123 12:19:23.639061 38174 layer_factory.hpp:114] Creating layer pool3/3x3_s2
I0123 12:19:23.639083 38174 net.cpp:160] Creating Layer pool3/3x3_s2
I0123 12:19:23.639094 38174 net.cpp:596] pool3/3x3_s2 <- inception_3b/output
I0123 12:19:23.639103 38174 net.cpp:570] pool3/3x3_s2 -> pool3/3x3_s2
I0123 12:19:23.639116 38174 net.cpp:210] Setting up pool3/3x3_s2
I0123 12:19:23.639124 38174 net.cpp:217] Top shape: 32 480 14 14 (3010560)
I0123 12:19:23.639130 38174 net.cpp:225] Memory required for data: 1091027456
I0123 12:19:23.639137 38174 layer_factory.hpp:114] Creating layer pool3/3x3_s2_pool3/3x3_s2_0_split
I0123 12:19:23.639147 38174 net.cpp:160] Creating Layer pool3/3x3_s2_pool3/3x3_s2_0_split
I0123 12:19:23.639153 38174 net.cpp:596] pool3/3x3_s2_pool3/3x3_s2_0_split <- pool3/3x3_s2
I0123 12:19:23.639163 38174 net.cpp:570] pool3/3x3_s2_pool3/3x3_s2_0_split -> pool3/3x3_s2_pool3/3x3_s2_0_split_0
I0123 12:19:23.639195 38174 net.cpp:570] pool3/3x3_s2_pool3/3x3_s2_0_split -> pool3/3x3_s2_pool3/3x3_s2_0_split_1
I0123 12:19:23.639211 38174 net.cpp:570] pool3/3x3_s2_pool3/3x3_s2_0_split -> pool3/3x3_s2_pool3/3x3_s2_0_split_2
I0123 12:19:23.639225 38174 net.cpp:570] pool3/3x3_s2_pool3/3x3_s2_0_split -> pool3/3x3_s2_pool3/3x3_s2_0_split_3
I0123 12:19:23.639235 38174 net.cpp:210] Setting up pool3/3x3_s2_pool3/3x3_s2_0_split
I0123 12:19:23.639242 38174 net.cpp:217] Top shape: 32 480 14 14 (3010560)
I0123 12:19:23.639250 38174 net.cpp:217] Top shape: 32 480 14 14 (3010560)
I0123 12:19:23.639258 38174 net.cpp:217] Top shape: 32 480 14 14 (3010560)
I0123 12:19:23.639266 38174 net.cpp:217] Top shape: 32 480 14 14 (3010560)
I0123 12:19:23.639271 38174 net.cpp:225] Memory required for data: 1139196416
I0123 12:19:23.639278 38174 layer_factory.hpp:114] Creating layer inception_4a/1x1
I0123 12:19:23.639292 38174 net.cpp:160] Creating Layer inception_4a/1x1
I0123 12:19:23.639298 38174 net.cpp:596] inception_4a/1x1 <- pool3/3x3_s2_pool3/3x3_s2_0_split_0
I0123 12:19:23.639310 38174 net.cpp:570] inception_4a/1x1 -> inception_4a/1x1
I0123 12:19:23.642843 38174 net.cpp:210] Setting up inception_4a/1x1
I0123 12:19:23.642856 38174 net.cpp:217] Top shape: 32 192 14 14 (1204224)
I0123 12:19:23.642863 38174 net.cpp:225] Memory required for data: 1144013312
I0123 12:19:23.642874 38174 layer_factory.hpp:114] Creating layer inception_4a/relu_1x1
I0123 12:19:23.642889 38174 net.cpp:160] Creating Layer inception_4a/relu_1x1
I0123 12:19:23.642896 38174 net.cpp:596] inception_4a/relu_1x1 <- inception_4a/1x1
I0123 12:19:23.642905 38174 net.cpp:557] inception_4a/relu_1x1 -> inception_4a/1x1 (in-place)
I0123 12:19:23.642915 38174 net.cpp:210] Setting up inception_4a/relu_1x1
I0123 12:19:23.642923 38174 net.cpp:217] Top shape: 32 192 14 14 (1204224)
I0123 12:19:23.642930 38174 net.cpp:225] Memory required for data: 1148830208
I0123 12:19:23.642937 38174 layer_factory.hpp:114] Creating layer inception_4a/3x3_reduce
I0123 12:19:23.642951 38174 net.cpp:160] Creating Layer inception_4a/3x3_reduce
I0123 12:19:23.642958 38174 net.cpp:596] inception_4a/3x3_reduce <- pool3/3x3_s2_pool3/3x3_s2_0_split_1
I0123 12:19:23.642969 38174 net.cpp:570] inception_4a/3x3_reduce -> inception_4a/3x3_reduce
I0123 12:19:23.645764 38174 net.cpp:210] Setting up inception_4a/3x3_reduce
I0123 12:19:23.645779 38174 net.cpp:217] Top shape: 32 96 14 14 (602112)
I0123 12:19:23.645786 38174 net.cpp:225] Memory required for data: 1151238656
I0123 12:19:23.645830 38174 layer_factory.hpp:114] Creating layer inception_4a/relu_3x3_reduce
I0123 12:19:23.645843 38174 net.cpp:160] Creating Layer inception_4a/relu_3x3_reduce
I0123 12:19:23.645850 38174 net.cpp:596] inception_4a/relu_3x3_reduce <- inception_4a/3x3_reduce
I0123 12:19:23.645859 38174 net.cpp:557] inception_4a/relu_3x3_reduce -> inception_4a/3x3_reduce (in-place)
I0123 12:19:23.645869 38174 net.cpp:210] Setting up inception_4a/relu_3x3_reduce
I0123 12:19:23.645877 38174 net.cpp:217] Top shape: 32 96 14 14 (602112)
I0123 12:19:23.645884 38174 net.cpp:225] Memory required for data: 1153647104
I0123 12:19:23.645890 38174 layer_factory.hpp:114] Creating layer inception_4a/3x3
I0123 12:19:23.645905 38174 net.cpp:160] Creating Layer inception_4a/3x3
I0123 12:19:23.645911 38174 net.cpp:596] inception_4a/3x3 <- inception_4a/3x3_reduce
I0123 12:19:23.645922 38174 net.cpp:570] inception_4a/3x3 -> inception_4a/3x3
I0123 12:19:23.651612 38174 net.cpp:210] Setting up inception_4a/3x3
I0123 12:19:23.651641 38174 net.cpp:217] Top shape: 32 208 14 14 (1304576)
I0123 12:19:23.651648 38174 net.cpp:225] Memory required for data: 1158865408
I0123 12:19:23.651657 38174 layer_factory.hpp:114] Creating layer inception_4a/relu_3x3
I0123 12:19:23.651670 38174 net.cpp:160] Creating Layer inception_4a/relu_3x3
I0123 12:19:23.651677 38174 net.cpp:596] inception_4a/relu_3x3 <- inception_4a/3x3
I0123 12:19:23.651686 38174 net.cpp:557] inception_4a/relu_3x3 -> inception_4a/3x3 (in-place)
I0123 12:19:23.651695 38174 net.cpp:210] Setting up inception_4a/relu_3x3
I0123 12:19:23.651705 38174 net.cpp:217] Top shape: 32 208 14 14 (1304576)
I0123 12:19:23.651715 38174 net.cpp:225] Memory required for data: 1164083712
I0123 12:19:23.651722 38174 layer_factory.hpp:114] Creating layer inception_4a/5x5_reduce
I0123 12:19:23.651736 38174 net.cpp:160] Creating Layer inception_4a/5x5_reduce
I0123 12:19:23.651744 38174 net.cpp:596] inception_4a/5x5_reduce <- pool3/3x3_s2_pool3/3x3_s2_0_split_2
I0123 12:19:23.651756 38174 net.cpp:570] inception_4a/5x5_reduce -> inception_4a/5x5_reduce
I0123 12:19:23.653524 38174 net.cpp:210] Setting up inception_4a/5x5_reduce
I0123 12:19:23.653537 38174 net.cpp:217] Top shape: 32 16 14 14 (100352)
I0123 12:19:23.653544 38174 net.cpp:225] Memory required for data: 1164485120
I0123 12:19:23.653553 38174 layer_factory.hpp:114] Creating layer inception_4a/relu_5x5_reduce
I0123 12:19:23.653565 38174 net.cpp:160] Creating Layer inception_4a/relu_5x5_reduce
I0123 12:19:23.653573 38174 net.cpp:596] inception_4a/relu_5x5_reduce <- inception_4a/5x5_reduce
I0123 12:19:23.653581 38174 net.cpp:557] inception_4a/relu_5x5_reduce -> inception_4a/5x5_reduce (in-place)
I0123 12:19:23.653591 38174 net.cpp:210] Setting up inception_4a/relu_5x5_reduce
I0123 12:19:23.653599 38174 net.cpp:217] Top shape: 32 16 14 14 (100352)
I0123 12:19:23.653605 38174 net.cpp:225] Memory required for data: 1164886528
I0123 12:19:23.653612 38174 layer_factory.hpp:114] Creating layer inception_4a/5x5
I0123 12:19:23.653625 38174 net.cpp:160] Creating Layer inception_4a/5x5
I0123 12:19:23.653633 38174 net.cpp:596] inception_4a/5x5 <- inception_4a/5x5_reduce
I0123 12:19:23.653645 38174 net.cpp:570] inception_4a/5x5 -> inception_4a/5x5
I0123 12:19:23.655416 38174 net.cpp:210] Setting up inception_4a/5x5
I0123 12:19:23.655431 38174 net.cpp:217] Top shape: 32 48 14 14 (301056)
I0123 12:19:23.655438 38174 net.cpp:225] Memory required for data: 1166090752
I0123 12:19:23.655448 38174 layer_factory.hpp:114] Creating layer inception_4a/relu_5x5
I0123 12:19:23.655457 38174 net.cpp:160] Creating Layer inception_4a/relu_5x5
I0123 12:19:23.655464 38174 net.cpp:596] inception_4a/relu_5x5 <- inception_4a/5x5
I0123 12:19:23.655473 38174 net.cpp:557] inception_4a/relu_5x5 -> inception_4a/5x5 (in-place)
I0123 12:19:23.655483 38174 net.cpp:210] Setting up inception_4a/relu_5x5
I0123 12:19:23.655490 38174 net.cpp:217] Top shape: 32 48 14 14 (301056)
I0123 12:19:23.655498 38174 net.cpp:225] Memory required for data: 1167294976
I0123 12:19:23.655503 38174 layer_factory.hpp:114] Creating layer inception_4a/pool
I0123 12:19:23.655544 38174 net.cpp:160] Creating Layer inception_4a/pool
I0123 12:19:23.655551 38174 net.cpp:596] inception_4a/pool <- pool3/3x3_s2_pool3/3x3_s2_0_split_3
I0123 12:19:23.655560 38174 net.cpp:570] inception_4a/pool -> inception_4a/pool
I0123 12:19:23.655573 38174 net.cpp:210] Setting up inception_4a/pool
I0123 12:19:23.655585 38174 net.cpp:217] Top shape: 32 480 14 14 (3010560)
I0123 12:19:23.655591 38174 net.cpp:225] Memory required for data: 1179337216
I0123 12:19:23.655597 38174 layer_factory.hpp:114] Creating layer inception_4a/pool_proj
I0123 12:19:23.655609 38174 net.cpp:160] Creating Layer inception_4a/pool_proj
I0123 12:19:23.655616 38174 net.cpp:596] inception_4a/pool_proj <- inception_4a/pool
I0123 12:19:23.655629 38174 net.cpp:570] inception_4a/pool_proj -> inception_4a/pool_proj
I0123 12:19:23.657905 38174 net.cpp:210] Setting up inception_4a/pool_proj
I0123 12:19:23.657920 38174 net.cpp:217] Top shape: 32 64 14 14 (401408)
I0123 12:19:23.657927 38174 net.cpp:225] Memory required for data: 1180942848
I0123 12:19:23.657935 38174 layer_factory.hpp:114] Creating layer inception_4a/relu_pool_proj
I0123 12:19:23.657945 38174 net.cpp:160] Creating Layer inception_4a/relu_pool_proj
I0123 12:19:23.657953 38174 net.cpp:596] inception_4a/relu_pool_proj <- inception_4a/pool_proj
I0123 12:19:23.657961 38174 net.cpp:557] inception_4a/relu_pool_proj -> inception_4a/pool_proj (in-place)
I0123 12:19:23.657971 38174 net.cpp:210] Setting up inception_4a/relu_pool_proj
I0123 12:19:23.657979 38174 net.cpp:217] Top shape: 32 64 14 14 (401408)
I0123 12:19:23.657985 38174 net.cpp:225] Memory required for data: 1182548480
I0123 12:19:23.657997 38174 layer_factory.hpp:114] Creating layer inception_4a/output
I0123 12:19:23.658010 38174 net.cpp:160] Creating Layer inception_4a/output
I0123 12:19:23.658018 38174 net.cpp:596] inception_4a/output <- inception_4a/1x1
I0123 12:19:23.658026 38174 net.cpp:596] inception_4a/output <- inception_4a/3x3
I0123 12:19:23.658033 38174 net.cpp:596] inception_4a/output <- inception_4a/5x5
I0123 12:19:23.658041 38174 net.cpp:596] inception_4a/output <- inception_4a/pool_proj
I0123 12:19:23.658049 38174 net.cpp:570] inception_4a/output -> inception_4a/output
I0123 12:19:23.658061 38174 net.cpp:210] Setting up inception_4a/output
I0123 12:19:23.658069 38174 net.cpp:217] Top shape: 32 512 14 14 (3211264)
I0123 12:19:23.658077 38174 net.cpp:225] Memory required for data: 1195393536
I0123 12:19:23.658082 38174 layer_factory.hpp:114] Creating layer inception_4a/output_inception_4a/output_0_split
I0123 12:19:23.658098 38174 net.cpp:160] Creating Layer inception_4a/output_inception_4a/output_0_split
I0123 12:19:23.658105 38174 net.cpp:596] inception_4a/output_inception_4a/output_0_split <- inception_4a/output
I0123 12:19:23.658115 38174 net.cpp:570] inception_4a/output_inception_4a/output_0_split -> inception_4a/output_inception_4a/output_0_split_0
I0123 12:19:23.658125 38174 net.cpp:570] inception_4a/output_inception_4a/output_0_split -> inception_4a/output_inception_4a/output_0_split_1
I0123 12:19:23.658135 38174 net.cpp:570] inception_4a/output_inception_4a/output_0_split -> inception_4a/output_inception_4a/output_0_split_2
I0123 12:19:23.658150 38174 net.cpp:570] inception_4a/output_inception_4a/output_0_split -> inception_4a/output_inception_4a/output_0_split_3
I0123 12:19:23.658160 38174 net.cpp:570] inception_4a/output_inception_4a/output_0_split -> inception_4a/output_inception_4a/output_0_split_4
I0123 12:19:23.658200 38174 net.cpp:210] Setting up inception_4a/output_inception_4a/output_0_split
I0123 12:19:23.658210 38174 net.cpp:217] Top shape: 32 512 14 14 (3211264)
I0123 12:19:23.658217 38174 net.cpp:217] Top shape: 32 512 14 14 (3211264)
I0123 12:19:23.658226 38174 net.cpp:217] Top shape: 32 512 14 14 (3211264)
I0123 12:19:23.658232 38174 net.cpp:217] Top shape: 32 512 14 14 (3211264)
I0123 12:19:23.658239 38174 net.cpp:217] Top shape: 32 512 14 14 (3211264)
I0123 12:19:23.658246 38174 net.cpp:225] Memory required for data: 1259618816
I0123 12:19:23.658252 38174 layer_factory.hpp:114] Creating layer loss1/ave_pool
I0123 12:19:23.658284 38174 net.cpp:160] Creating Layer loss1/ave_pool
I0123 12:19:23.658293 38174 net.cpp:596] loss1/ave_pool <- inception_4a/output_inception_4a/output_0_split_0
I0123 12:19:23.658303 38174 net.cpp:570] loss1/ave_pool -> loss1/ave_pool
I0123 12:19:23.658313 38174 net.cpp:210] Setting up loss1/ave_pool
I0123 12:19:23.658323 38174 net.cpp:217] Top shape: 32 512 4 4 (262144)
I0123 12:19:23.658329 38174 net.cpp:225] Memory required for data: 1260667392
I0123 12:19:23.658336 38174 layer_factory.hpp:114] Creating layer loss1/conv
I0123 12:19:23.658350 38174 net.cpp:160] Creating Layer loss1/conv
I0123 12:19:23.658357 38174 net.cpp:596] loss1/conv <- loss1/ave_pool
I0123 12:19:23.658368 38174 net.cpp:570] loss1/conv -> loss1/conv
I0123 12:19:23.660207 38174 net.cpp:210] Setting up loss1/conv
I0123 12:19:23.660221 38174 net.cpp:217] Top shape: 32 128 4 4 (65536)
I0123 12:19:23.660228 38174 net.cpp:225] Memory required for data: 1260929536
I0123 12:19:23.660238 38174 layer_factory.hpp:114] Creating layer loss1/relu_conv
I0123 12:19:23.660248 38174 net.cpp:160] Creating Layer loss1/relu_conv
I0123 12:19:23.660256 38174 net.cpp:596] loss1/relu_conv <- loss1/conv
I0123 12:19:23.660265 38174 net.cpp:557] loss1/relu_conv -> loss1/conv (in-place)
I0123 12:19:23.660274 38174 net.cpp:210] Setting up loss1/relu_conv
I0123 12:19:23.660284 38174 net.cpp:217] Top shape: 32 128 4 4 (65536)
I0123 12:19:23.660290 38174 net.cpp:225] Memory required for data: 1261191680
I0123 12:19:23.660296 38174 layer_factory.hpp:114] Creating layer loss1/fc
I0123 12:19:23.660334 38174 net.cpp:160] Creating Layer loss1/fc
I0123 12:19:23.660346 38174 net.cpp:596] loss1/fc <- loss1/conv
I0123 12:19:23.660356 38174 net.cpp:570] loss1/fc -> loss1/fc
I0123 12:19:23.678735 38174 net.cpp:210] Setting up loss1/fc
I0123 12:19:23.678756 38174 net.cpp:217] Top shape: 32 1024 (32768)
I0123 12:19:23.678763 38174 net.cpp:225] Memory required for data: 1261322752
I0123 12:19:23.678776 38174 layer_factory.hpp:114] Creating layer loss1/relu_fc
I0123 12:19:23.678786 38174 net.cpp:160] Creating Layer loss1/relu_fc
I0123 12:19:23.678794 38174 net.cpp:596] loss1/relu_fc <- loss1/fc
I0123 12:19:23.678804 38174 net.cpp:557] loss1/relu_fc -> loss1/fc (in-place)
I0123 12:19:23.678817 38174 net.cpp:210] Setting up loss1/relu_fc
I0123 12:19:23.678824 38174 net.cpp:217] Top shape: 32 1024 (32768)
I0123 12:19:23.678830 38174 net.cpp:225] Memory required for data: 1261453824
I0123 12:19:23.678838 38174 layer_factory.hpp:114] Creating layer loss1/drop_fc
I0123 12:19:23.678858 38174 net.cpp:160] Creating Layer loss1/drop_fc
I0123 12:19:23.678864 38174 net.cpp:596] loss1/drop_fc <- loss1/fc
I0123 12:19:23.678874 38174 net.cpp:557] loss1/drop_fc -> loss1/fc (in-place)
I0123 12:19:23.678891 38174 net.cpp:210] Setting up loss1/drop_fc
I0123 12:19:23.678900 38174 net.cpp:217] Top shape: 32 1024 (32768)
I0123 12:19:23.678906 38174 net.cpp:225] Memory required for data: 1261584896
I0123 12:19:23.678913 38174 layer_factory.hpp:114] Creating layer loss1/classifier
I0123 12:19:23.678925 38174 net.cpp:160] Creating Layer loss1/classifier
I0123 12:19:23.678931 38174 net.cpp:596] loss1/classifier <- loss1/fc
I0123 12:19:23.678943 38174 net.cpp:570] loss1/classifier -> loss1/classifier
I0123 12:19:23.688216 38174 net.cpp:210] Setting up loss1/classifier
I0123 12:19:23.688244 38174 net.cpp:217] Top shape: 32 1000 (32000)
I0123 12:19:23.688251 38174 net.cpp:225] Memory required for data: 1261712896
I0123 12:19:23.688268 38174 layer_factory.hpp:114] Creating layer loss1/loss
I0123 12:19:23.688285 38174 net.cpp:160] Creating Layer loss1/loss
I0123 12:19:23.688292 38174 net.cpp:596] loss1/loss <- loss1/classifier
I0123 12:19:23.688300 38174 net.cpp:596] loss1/loss <- label_data_1_split_0
I0123 12:19:23.688310 38174 net.cpp:570] loss1/loss -> loss1/loss1
I0123 12:19:23.688338 38174 layer_factory.hpp:114] Creating layer loss1/loss
I0123 12:19:23.688448 38174 net.cpp:210] Setting up loss1/loss
I0123 12:19:23.688459 38174 net.cpp:217] Top shape: (1)
I0123 12:19:23.688482 38174 net.cpp:220]     with loss weight 0.3
I0123 12:19:23.688544 38174 net.cpp:225] Memory required for data: 1261712900
I0123 12:19:23.688551 38174 layer_factory.hpp:114] Creating layer inception_4b/1x1
I0123 12:19:23.688568 38174 net.cpp:160] Creating Layer inception_4b/1x1
I0123 12:19:23.688576 38174 net.cpp:596] inception_4b/1x1 <- inception_4a/output_inception_4a/output_0_split_1
I0123 12:19:23.688588 38174 net.cpp:570] inception_4b/1x1 -> inception_4b/1x1
I0123 12:19:23.692026 38174 net.cpp:210] Setting up inception_4b/1x1
I0123 12:19:23.692068 38174 net.cpp:217] Top shape: 32 160 14 14 (1003520)
I0123 12:19:23.692075 38174 net.cpp:225] Memory required for data: 1265726980
I0123 12:19:23.692085 38174 layer_factory.hpp:114] Creating layer inception_4b/relu_1x1
I0123 12:19:23.692103 38174 net.cpp:160] Creating Layer inception_4b/relu_1x1
I0123 12:19:23.692111 38174 net.cpp:596] inception_4b/relu_1x1 <- inception_4b/1x1
I0123 12:19:23.692121 38174 net.cpp:557] inception_4b/relu_1x1 -> inception_4b/1x1 (in-place)
I0123 12:19:23.692132 38174 net.cpp:210] Setting up inception_4b/relu_1x1
I0123 12:19:23.692140 38174 net.cpp:217] Top shape: 32 160 14 14 (1003520)
I0123 12:19:23.692147 38174 net.cpp:225] Memory required for data: 1269741060
I0123 12:19:23.692153 38174 layer_factory.hpp:114] Creating layer inception_4b/3x3_reduce
I0123 12:19:23.692167 38174 net.cpp:160] Creating Layer inception_4b/3x3_reduce
I0123 12:19:23.692195 38174 net.cpp:596] inception_4b/3x3_reduce <- inception_4a/output_inception_4a/output_0_split_2
I0123 12:19:23.692209 38174 net.cpp:570] inception_4b/3x3_reduce -> inception_4b/3x3_reduce
I0123 12:19:23.695377 38174 net.cpp:210] Setting up inception_4b/3x3_reduce
I0123 12:19:23.695394 38174 net.cpp:217] Top shape: 32 112 14 14 (702464)
I0123 12:19:23.695401 38174 net.cpp:225] Memory required for data: 1272550916
I0123 12:19:23.695413 38174 layer_factory.hpp:114] Creating layer inception_4b/relu_3x3_reduce
I0123 12:19:23.695423 38174 net.cpp:160] Creating Layer inception_4b/relu_3x3_reduce
I0123 12:19:23.695430 38174 net.cpp:596] inception_4b/relu_3x3_reduce <- inception_4b/3x3_reduce
I0123 12:19:23.695439 38174 net.cpp:557] inception_4b/relu_3x3_reduce -> inception_4b/3x3_reduce (in-place)
I0123 12:19:23.695449 38174 net.cpp:210] Setting up inception_4b/relu_3x3_reduce
I0123 12:19:23.695458 38174 net.cpp:217] Top shape: 32 112 14 14 (702464)
I0123 12:19:23.695464 38174 net.cpp:225] Memory required for data: 1275360772
I0123 12:19:23.695472 38174 layer_factory.hpp:114] Creating layer inception_4b/3x3
I0123 12:19:23.695489 38174 net.cpp:160] Creating Layer inception_4b/3x3
I0123 12:19:23.695497 38174 net.cpp:596] inception_4b/3x3 <- inception_4b/3x3_reduce
I0123 12:19:23.695508 38174 net.cpp:570] inception_4b/3x3 -> inception_4b/3x3
I0123 12:19:23.702800 38174 net.cpp:210] Setting up inception_4b/3x3
I0123 12:19:23.702821 38174 net.cpp:217] Top shape: 32 224 14 14 (1404928)
I0123 12:19:23.702828 38174 net.cpp:225] Memory required for data: 1280980484
I0123 12:19:23.702838 38174 layer_factory.hpp:114] Creating layer inception_4b/relu_3x3
I0123 12:19:23.702850 38174 net.cpp:160] Creating Layer inception_4b/relu_3x3
I0123 12:19:23.702864 38174 net.cpp:596] inception_4b/relu_3x3 <- inception_4b/3x3
I0123 12:19:23.702873 38174 net.cpp:557] inception_4b/relu_3x3 -> inception_4b/3x3 (in-place)
I0123 12:19:23.702883 38174 net.cpp:210] Setting up inception_4b/relu_3x3
I0123 12:19:23.702890 38174 net.cpp:217] Top shape: 32 224 14 14 (1404928)
I0123 12:19:23.702896 38174 net.cpp:225] Memory required for data: 1286600196
I0123 12:19:23.702903 38174 layer_factory.hpp:114] Creating layer inception_4b/5x5_reduce
I0123 12:19:23.702922 38174 net.cpp:160] Creating Layer inception_4b/5x5_reduce
I0123 12:19:23.702929 38174 net.cpp:596] inception_4b/5x5_reduce <- inception_4a/output_inception_4a/output_0_split_3
I0123 12:19:23.702941 38174 net.cpp:570] inception_4b/5x5_reduce -> inception_4b/5x5_reduce
I0123 12:19:23.704469 38174 net.cpp:210] Setting up inception_4b/5x5_reduce
I0123 12:19:23.704509 38174 net.cpp:217] Top shape: 32 24 14 14 (150528)
I0123 12:19:23.704515 38174 net.cpp:225] Memory required for data: 1287202308
I0123 12:19:23.704525 38174 layer_factory.hpp:114] Creating layer inception_4b/relu_5x5_reduce
I0123 12:19:23.704535 38174 net.cpp:160] Creating Layer inception_4b/relu_5x5_reduce
I0123 12:19:23.704542 38174 net.cpp:596] inception_4b/relu_5x5_reduce <- inception_4b/5x5_reduce
I0123 12:19:23.704551 38174 net.cpp:557] inception_4b/relu_5x5_reduce -> inception_4b/5x5_reduce (in-place)
I0123 12:19:23.704560 38174 net.cpp:210] Setting up inception_4b/relu_5x5_reduce
I0123 12:19:23.704568 38174 net.cpp:217] Top shape: 32 24 14 14 (150528)
I0123 12:19:23.704576 38174 net.cpp:225] Memory required for data: 1287804420
I0123 12:19:23.704581 38174 layer_factory.hpp:114] Creating layer inception_4b/5x5
I0123 12:19:23.704594 38174 net.cpp:160] Creating Layer inception_4b/5x5
I0123 12:19:23.704602 38174 net.cpp:596] inception_4b/5x5 <- inception_4b/5x5_reduce
I0123 12:19:23.704613 38174 net.cpp:570] inception_4b/5x5 -> inception_4b/5x5
I0123 12:19:23.706975 38174 net.cpp:210] Setting up inception_4b/5x5
I0123 12:19:23.707007 38174 net.cpp:217] Top shape: 32 64 14 14 (401408)
I0123 12:19:23.707015 38174 net.cpp:225] Memory required for data: 1289410052
I0123 12:19:23.707025 38174 layer_factory.hpp:114] Creating layer inception_4b/relu_5x5
I0123 12:19:23.707033 38174 net.cpp:160] Creating Layer inception_4b/relu_5x5
I0123 12:19:23.707041 38174 net.cpp:596] inception_4b/relu_5x5 <- inception_4b/5x5
I0123 12:19:23.707049 38174 net.cpp:557] inception_4b/relu_5x5 -> inception_4b/5x5 (in-place)
I0123 12:19:23.707063 38174 net.cpp:210] Setting up inception_4b/relu_5x5
I0123 12:19:23.707072 38174 net.cpp:217] Top shape: 32 64 14 14 (401408)
I0123 12:19:23.707078 38174 net.cpp:225] Memory required for data: 1291015684
I0123 12:19:23.707085 38174 layer_factory.hpp:114] Creating layer inception_4b/pool
I0123 12:19:23.707141 38174 net.cpp:160] Creating Layer inception_4b/pool
I0123 12:19:23.707150 38174 net.cpp:596] inception_4b/pool <- inception_4a/output_inception_4a/output_0_split_4
I0123 12:19:23.707161 38174 net.cpp:570] inception_4b/pool -> inception_4b/pool
I0123 12:19:23.707211 38174 net.cpp:210] Setting up inception_4b/pool
I0123 12:19:23.707222 38174 net.cpp:217] Top shape: 32 512 14 14 (3211264)
I0123 12:19:23.707228 38174 net.cpp:225] Memory required for data: 1303860740
I0123 12:19:23.707236 38174 layer_factory.hpp:114] Creating layer inception_4b/pool_proj
I0123 12:19:23.707248 38174 net.cpp:160] Creating Layer inception_4b/pool_proj
I0123 12:19:23.707257 38174 net.cpp:596] inception_4b/pool_proj <- inception_4b/pool
I0123 12:19:23.707268 38174 net.cpp:570] inception_4b/pool_proj -> inception_4b/pool_proj
I0123 12:19:23.709261 38174 net.cpp:210] Setting up inception_4b/pool_proj
I0123 12:19:23.709276 38174 net.cpp:217] Top shape: 32 64 14 14 (401408)
I0123 12:19:23.709282 38174 net.cpp:225] Memory required for data: 1305466372
I0123 12:19:23.709298 38174 layer_factory.hpp:114] Creating layer inception_4b/relu_pool_proj
I0123 12:19:23.709309 38174 net.cpp:160] Creating Layer inception_4b/relu_pool_proj
I0123 12:19:23.709317 38174 net.cpp:596] inception_4b/relu_pool_proj <- inception_4b/pool_proj
I0123 12:19:23.709326 38174 net.cpp:557] inception_4b/relu_pool_proj -> inception_4b/pool_proj (in-place)
I0123 12:19:23.709336 38174 net.cpp:210] Setting up inception_4b/relu_pool_proj
I0123 12:19:23.709343 38174 net.cpp:217] Top shape: 32 64 14 14 (401408)
I0123 12:19:23.709349 38174 net.cpp:225] Memory required for data: 1307072004
I0123 12:19:23.709357 38174 layer_factory.hpp:114] Creating layer inception_4b/output
I0123 12:19:23.709372 38174 net.cpp:160] Creating Layer inception_4b/output
I0123 12:19:23.709380 38174 net.cpp:596] inception_4b/output <- inception_4b/1x1
I0123 12:19:23.709388 38174 net.cpp:596] inception_4b/output <- inception_4b/3x3
I0123 12:19:23.709395 38174 net.cpp:596] inception_4b/output <- inception_4b/5x5
I0123 12:19:23.709403 38174 net.cpp:596] inception_4b/output <- inception_4b/pool_proj
I0123 12:19:23.709422 38174 net.cpp:570] inception_4b/output -> inception_4b/output
I0123 12:19:23.709444 38174 net.cpp:210] Setting up inception_4b/output
I0123 12:19:23.709452 38174 net.cpp:217] Top shape: 32 512 14 14 (3211264)
I0123 12:19:23.709458 38174 net.cpp:225] Memory required for data: 1319917060
I0123 12:19:23.709465 38174 layer_factory.hpp:114] Creating layer inception_4b/output_inception_4b/output_0_split
I0123 12:19:23.709475 38174 net.cpp:160] Creating Layer inception_4b/output_inception_4b/output_0_split
I0123 12:19:23.709481 38174 net.cpp:596] inception_4b/output_inception_4b/output_0_split <- inception_4b/output
I0123 12:19:23.709492 38174 net.cpp:570] inception_4b/output_inception_4b/output_0_split -> inception_4b/output_inception_4b/output_0_split_0
I0123 12:19:23.709502 38174 net.cpp:570] inception_4b/output_inception_4b/output_0_split -> inception_4b/output_inception_4b/output_0_split_1
I0123 12:19:23.709512 38174 net.cpp:570] inception_4b/output_inception_4b/output_0_split -> inception_4b/output_inception_4b/output_0_split_2
I0123 12:19:23.709522 38174 net.cpp:570] inception_4b/output_inception_4b/output_0_split -> inception_4b/output_inception_4b/output_0_split_3
I0123 12:19:23.709538 38174 net.cpp:210] Setting up inception_4b/output_inception_4b/output_0_split
I0123 12:19:23.709547 38174 net.cpp:217] Top shape: 32 512 14 14 (3211264)
I0123 12:19:23.709554 38174 net.cpp:217] Top shape: 32 512 14 14 (3211264)
I0123 12:19:23.709563 38174 net.cpp:217] Top shape: 32 512 14 14 (3211264)
I0123 12:19:23.709569 38174 net.cpp:217] Top shape: 32 512 14 14 (3211264)
I0123 12:19:23.709575 38174 net.cpp:225] Memory required for data: 1371297284
I0123 12:19:23.709586 38174 layer_factory.hpp:114] Creating layer inception_4c/1x1
I0123 12:19:23.709604 38174 net.cpp:160] Creating Layer inception_4c/1x1
I0123 12:19:23.709611 38174 net.cpp:596] inception_4c/1x1 <- inception_4b/output_inception_4b/output_0_split_0
I0123 12:19:23.709622 38174 net.cpp:570] inception_4c/1x1 -> inception_4c/1x1
I0123 12:19:23.712612 38174 net.cpp:210] Setting up inception_4c/1x1
I0123 12:19:23.712626 38174 net.cpp:217] Top shape: 32 128 14 14 (802816)
I0123 12:19:23.712633 38174 net.cpp:225] Memory required for data: 1374508548
I0123 12:19:23.712643 38174 layer_factory.hpp:114] Creating layer inception_4c/relu_1x1
I0123 12:19:23.712652 38174 net.cpp:160] Creating Layer inception_4c/relu_1x1
I0123 12:19:23.712661 38174 net.cpp:596] inception_4c/relu_1x1 <- inception_4c/1x1
I0123 12:19:23.712671 38174 net.cpp:557] inception_4c/relu_1x1 -> inception_4c/1x1 (in-place)
I0123 12:19:23.712682 38174 net.cpp:210] Setting up inception_4c/relu_1x1
I0123 12:19:23.712689 38174 net.cpp:217] Top shape: 32 128 14 14 (802816)
I0123 12:19:23.712695 38174 net.cpp:225] Memory required for data: 1377719812
I0123 12:19:23.712702 38174 layer_factory.hpp:114] Creating layer inception_4c/3x3_reduce
I0123 12:19:23.712715 38174 net.cpp:160] Creating Layer inception_4c/3x3_reduce
I0123 12:19:23.712723 38174 net.cpp:596] inception_4c/3x3_reduce <- inception_4b/output_inception_4b/output_0_split_1
I0123 12:19:23.712733 38174 net.cpp:570] inception_4c/3x3_reduce -> inception_4c/3x3_reduce
I0123 12:19:23.715675 38174 net.cpp:210] Setting up inception_4c/3x3_reduce
I0123 12:19:23.715689 38174 net.cpp:217] Top shape: 32 128 14 14 (802816)
I0123 12:19:23.715697 38174 net.cpp:225] Memory required for data: 1380931076
I0123 12:19:23.715706 38174 layer_factory.hpp:114] Creating layer inception_4c/relu_3x3_reduce
I0123 12:19:23.715715 38174 net.cpp:160] Creating Layer inception_4c/relu_3x3_reduce
I0123 12:19:23.715723 38174 net.cpp:596] inception_4c/relu_3x3_reduce <- inception_4c/3x3_reduce
I0123 12:19:23.715733 38174 net.cpp:557] inception_4c/relu_3x3_reduce -> inception_4c/3x3_reduce (in-place)
I0123 12:19:23.715741 38174 net.cpp:210] Setting up inception_4c/relu_3x3_reduce
I0123 12:19:23.715750 38174 net.cpp:217] Top shape: 32 128 14 14 (802816)
I0123 12:19:23.715756 38174 net.cpp:225] Memory required for data: 1384142340
I0123 12:19:23.715764 38174 layer_factory.hpp:114] Creating layer inception_4c/3x3
I0123 12:19:23.715791 38174 net.cpp:160] Creating Layer inception_4c/3x3
I0123 12:19:23.715800 38174 net.cpp:596] inception_4c/3x3 <- inception_4c/3x3_reduce
I0123 12:19:23.715808 38174 net.cpp:570] inception_4c/3x3 -> inception_4c/3x3
I0123 12:19:23.724452 38174 net.cpp:210] Setting up inception_4c/3x3
I0123 12:19:23.724467 38174 net.cpp:217] Top shape: 32 256 14 14 (1605632)
I0123 12:19:23.724474 38174 net.cpp:225] Memory required for data: 1390564868
I0123 12:19:23.724508 38174 layer_factory.hpp:114] Creating layer inception_4c/relu_3x3
I0123 12:19:23.724517 38174 net.cpp:160] Creating Layer inception_4c/relu_3x3
I0123 12:19:23.724524 38174 net.cpp:596] inception_4c/relu_3x3 <- inception_4c/3x3
I0123 12:19:23.724535 38174 net.cpp:557] inception_4c/relu_3x3 -> inception_4c/3x3 (in-place)
I0123 12:19:23.724545 38174 net.cpp:210] Setting up inception_4c/relu_3x3
I0123 12:19:23.724555 38174 net.cpp:217] Top shape: 32 256 14 14 (1605632)
I0123 12:19:23.724560 38174 net.cpp:225] Memory required for data: 1396987396
I0123 12:19:23.724567 38174 layer_factory.hpp:114] Creating layer inception_4c/5x5_reduce
I0123 12:19:23.724578 38174 net.cpp:160] Creating Layer inception_4c/5x5_reduce
I0123 12:19:23.724586 38174 net.cpp:596] inception_4c/5x5_reduce <- inception_4b/output_inception_4b/output_0_split_2
I0123 12:19:23.724596 38174 net.cpp:570] inception_4c/5x5_reduce -> inception_4c/5x5_reduce
I0123 12:19:23.726104 38174 net.cpp:210] Setting up inception_4c/5x5_reduce
I0123 12:19:23.726119 38174 net.cpp:217] Top shape: 32 24 14 14 (150528)
I0123 12:19:23.726125 38174 net.cpp:225] Memory required for data: 1397589508
I0123 12:19:23.726140 38174 layer_factory.hpp:114] Creating layer inception_4c/relu_5x5_reduce
I0123 12:19:23.726150 38174 net.cpp:160] Creating Layer inception_4c/relu_5x5_reduce
I0123 12:19:23.726157 38174 net.cpp:596] inception_4c/relu_5x5_reduce <- inception_4c/5x5_reduce
I0123 12:19:23.726168 38174 net.cpp:557] inception_4c/relu_5x5_reduce -> inception_4c/5x5_reduce (in-place)
I0123 12:19:23.726212 38174 net.cpp:210] Setting up inception_4c/relu_5x5_reduce
I0123 12:19:23.726220 38174 net.cpp:217] Top shape: 32 24 14 14 (150528)
I0123 12:19:23.726227 38174 net.cpp:225] Memory required for data: 1398191620
I0123 12:19:23.726233 38174 layer_factory.hpp:114] Creating layer inception_4c/5x5
I0123 12:19:23.726244 38174 net.cpp:160] Creating Layer inception_4c/5x5
I0123 12:19:23.726253 38174 net.cpp:596] inception_4c/5x5 <- inception_4c/5x5_reduce
I0123 12:19:23.726263 38174 net.cpp:570] inception_4c/5x5 -> inception_4c/5x5
I0123 12:19:23.728628 38174 net.cpp:210] Setting up inception_4c/5x5
I0123 12:19:23.728643 38174 net.cpp:217] Top shape: 32 64 14 14 (401408)
I0123 12:19:23.728649 38174 net.cpp:225] Memory required for data: 1399797252
I0123 12:19:23.728659 38174 layer_factory.hpp:114] Creating layer inception_4c/relu_5x5
I0123 12:19:23.728672 38174 net.cpp:160] Creating Layer inception_4c/relu_5x5
I0123 12:19:23.728679 38174 net.cpp:596] inception_4c/relu_5x5 <- inception_4c/5x5
I0123 12:19:23.728689 38174 net.cpp:557] inception_4c/relu_5x5 -> inception_4c/5x5 (in-place)
I0123 12:19:23.728699 38174 net.cpp:210] Setting up inception_4c/relu_5x5
I0123 12:19:23.728708 38174 net.cpp:217] Top shape: 32 64 14 14 (401408)
I0123 12:19:23.728714 38174 net.cpp:225] Memory required for data: 1401402884
I0123 12:19:23.728720 38174 layer_factory.hpp:114] Creating layer inception_4c/pool
I0123 12:19:23.728757 38174 net.cpp:160] Creating Layer inception_4c/pool
I0123 12:19:23.728765 38174 net.cpp:596] inception_4c/pool <- inception_4b/output_inception_4b/output_0_split_3
I0123 12:19:23.728775 38174 net.cpp:570] inception_4c/pool -> inception_4c/pool
I0123 12:19:23.728787 38174 net.cpp:210] Setting up inception_4c/pool
I0123 12:19:23.728796 38174 net.cpp:217] Top shape: 32 512 14 14 (3211264)
I0123 12:19:23.728802 38174 net.cpp:225] Memory required for data: 1414247940
I0123 12:19:23.728809 38174 layer_factory.hpp:114] Creating layer inception_4c/pool_proj
I0123 12:19:23.728824 38174 net.cpp:160] Creating Layer inception_4c/pool_proj
I0123 12:19:23.728842 38174 net.cpp:596] inception_4c/pool_proj <- inception_4c/pool
I0123 12:19:23.728852 38174 net.cpp:570] inception_4c/pool_proj -> inception_4c/pool_proj
I0123 12:19:23.730860 38174 net.cpp:210] Setting up inception_4c/pool_proj
I0123 12:19:23.730875 38174 net.cpp:217] Top shape: 32 64 14 14 (401408)
I0123 12:19:23.730880 38174 net.cpp:225] Memory required for data: 1415853572
I0123 12:19:23.730897 38174 layer_factory.hpp:114] Creating layer inception_4c/relu_pool_proj
I0123 12:19:23.730907 38174 net.cpp:160] Creating Layer inception_4c/relu_pool_proj
I0123 12:19:23.730914 38174 net.cpp:596] inception_4c/relu_pool_proj <- inception_4c/pool_proj
I0123 12:19:23.730926 38174 net.cpp:557] inception_4c/relu_pool_proj -> inception_4c/pool_proj (in-place)
I0123 12:19:23.730937 38174 net.cpp:210] Setting up inception_4c/relu_pool_proj
I0123 12:19:23.730944 38174 net.cpp:217] Top shape: 32 64 14 14 (401408)
I0123 12:19:23.730950 38174 net.cpp:225] Memory required for data: 1417459204
I0123 12:19:23.730957 38174 layer_factory.hpp:114] Creating layer inception_4c/output
I0123 12:19:23.730967 38174 net.cpp:160] Creating Layer inception_4c/output
I0123 12:19:23.730973 38174 net.cpp:596] inception_4c/output <- inception_4c/1x1
I0123 12:19:23.730981 38174 net.cpp:596] inception_4c/output <- inception_4c/3x3
I0123 12:19:23.730988 38174 net.cpp:596] inception_4c/output <- inception_4c/5x5
I0123 12:19:23.730996 38174 net.cpp:596] inception_4c/output <- inception_4c/pool_proj
I0123 12:19:23.731005 38174 net.cpp:570] inception_4c/output -> inception_4c/output
I0123 12:19:23.731016 38174 net.cpp:210] Setting up inception_4c/output
I0123 12:19:23.731029 38174 net.cpp:217] Top shape: 32 512 14 14 (3211264)
I0123 12:19:23.731036 38174 net.cpp:225] Memory required for data: 1430304260
I0123 12:19:23.731043 38174 layer_factory.hpp:114] Creating layer inception_4c/output_inception_4c/output_0_split
I0123 12:19:23.731055 38174 net.cpp:160] Creating Layer inception_4c/output_inception_4c/output_0_split
I0123 12:19:23.731061 38174 net.cpp:596] inception_4c/output_inception_4c/output_0_split <- inception_4c/output
I0123 12:19:23.731070 38174 net.cpp:570] inception_4c/output_inception_4c/output_0_split -> inception_4c/output_inception_4c/output_0_split_0
I0123 12:19:23.731083 38174 net.cpp:570] inception_4c/output_inception_4c/output_0_split -> inception_4c/output_inception_4c/output_0_split_1
I0123 12:19:23.731093 38174 net.cpp:570] inception_4c/output_inception_4c/output_0_split -> inception_4c/output_inception_4c/output_0_split_2
I0123 12:19:23.731103 38174 net.cpp:570] inception_4c/output_inception_4c/output_0_split -> inception_4c/output_inception_4c/output_0_split_3
I0123 12:19:23.731113 38174 net.cpp:210] Setting up inception_4c/output_inception_4c/output_0_split
I0123 12:19:23.731122 38174 net.cpp:217] Top shape: 32 512 14 14 (3211264)
I0123 12:19:23.731129 38174 net.cpp:217] Top shape: 32 512 14 14 (3211264)
I0123 12:19:23.731137 38174 net.cpp:217] Top shape: 32 512 14 14 (3211264)
I0123 12:19:23.731144 38174 net.cpp:217] Top shape: 32 512 14 14 (3211264)
I0123 12:19:23.731150 38174 net.cpp:225] Memory required for data: 1481684484
I0123 12:19:23.731158 38174 layer_factory.hpp:114] Creating layer inception_4d/1x1
I0123 12:19:23.731197 38174 net.cpp:160] Creating Layer inception_4d/1x1
I0123 12:19:23.731206 38174 net.cpp:596] inception_4d/1x1 <- inception_4c/output_inception_4c/output_0_split_0
I0123 12:19:23.731220 38174 net.cpp:570] inception_4d/1x1 -> inception_4d/1x1
I0123 12:19:23.733973 38174 net.cpp:210] Setting up inception_4d/1x1
I0123 12:19:23.733988 38174 net.cpp:217] Top shape: 32 112 14 14 (702464)
I0123 12:19:23.733994 38174 net.cpp:225] Memory required for data: 1484494340
I0123 12:19:23.734004 38174 layer_factory.hpp:114] Creating layer inception_4d/relu_1x1
I0123 12:19:23.734015 38174 net.cpp:160] Creating Layer inception_4d/relu_1x1
I0123 12:19:23.734024 38174 net.cpp:596] inception_4d/relu_1x1 <- inception_4d/1x1
I0123 12:19:23.734031 38174 net.cpp:557] inception_4d/relu_1x1 -> inception_4d/1x1 (in-place)
I0123 12:19:23.734052 38174 net.cpp:210] Setting up inception_4d/relu_1x1
I0123 12:19:23.734061 38174 net.cpp:217] Top shape: 32 112 14 14 (702464)
I0123 12:19:23.734067 38174 net.cpp:225] Memory required for data: 1487304196
I0123 12:19:23.734073 38174 layer_factory.hpp:114] Creating layer inception_4d/3x3_reduce
I0123 12:19:23.734087 38174 net.cpp:160] Creating Layer inception_4d/3x3_reduce
I0123 12:19:23.734096 38174 net.cpp:596] inception_4d/3x3_reduce <- inception_4c/output_inception_4c/output_0_split_1
I0123 12:19:23.734107 38174 net.cpp:570] inception_4d/3x3_reduce -> inception_4d/3x3_reduce
I0123 12:19:23.737278 38174 net.cpp:210] Setting up inception_4d/3x3_reduce
I0123 12:19:23.737293 38174 net.cpp:217] Top shape: 32 144 14 14 (903168)
I0123 12:19:23.737298 38174 net.cpp:225] Memory required for data: 1490916868
I0123 12:19:23.737308 38174 layer_factory.hpp:114] Creating layer inception_4d/relu_3x3_reduce
I0123 12:19:23.737318 38174 net.cpp:160] Creating Layer inception_4d/relu_3x3_reduce
I0123 12:19:23.737325 38174 net.cpp:596] inception_4d/relu_3x3_reduce <- inception_4d/3x3_reduce
I0123 12:19:23.737334 38174 net.cpp:557] inception_4d/relu_3x3_reduce -> inception_4d/3x3_reduce (in-place)
I0123 12:19:23.737344 38174 net.cpp:210] Setting up inception_4d/relu_3x3_reduce
I0123 12:19:23.737352 38174 net.cpp:217] Top shape: 32 144 14 14 (903168)
I0123 12:19:23.737359 38174 net.cpp:225] Memory required for data: 1494529540
I0123 12:19:23.737365 38174 layer_factory.hpp:114] Creating layer inception_4d/3x3
I0123 12:19:23.737382 38174 net.cpp:160] Creating Layer inception_4d/3x3
I0123 12:19:23.737396 38174 net.cpp:596] inception_4d/3x3 <- inception_4d/3x3_reduce
I0123 12:19:23.737406 38174 net.cpp:570] inception_4d/3x3 -> inception_4d/3x3
I0123 12:19:23.747884 38174 net.cpp:210] Setting up inception_4d/3x3
I0123 12:19:23.747906 38174 net.cpp:217] Top shape: 32 288 14 14 (1806336)
I0123 12:19:23.747912 38174 net.cpp:225] Memory required for data: 1501754884
I0123 12:19:23.747922 38174 layer_factory.hpp:114] Creating layer inception_4d/relu_3x3
I0123 12:19:23.747933 38174 net.cpp:160] Creating Layer inception_4d/relu_3x3
I0123 12:19:23.747948 38174 net.cpp:596] inception_4d/relu_3x3 <- inception_4d/3x3
I0123 12:19:23.747956 38174 net.cpp:557] inception_4d/relu_3x3 -> inception_4d/3x3 (in-place)
I0123 12:19:23.747967 38174 net.cpp:210] Setting up inception_4d/relu_3x3
I0123 12:19:23.747974 38174 net.cpp:217] Top shape: 32 288 14 14 (1806336)
I0123 12:19:23.747980 38174 net.cpp:225] Memory required for data: 1508980228
I0123 12:19:23.747987 38174 layer_factory.hpp:114] Creating layer inception_4d/5x5_reduce
I0123 12:19:23.747998 38174 net.cpp:160] Creating Layer inception_4d/5x5_reduce
I0123 12:19:23.748006 38174 net.cpp:596] inception_4d/5x5_reduce <- inception_4c/output_inception_4c/output_0_split_2
I0123 12:19:23.748018 38174 net.cpp:570] inception_4d/5x5_reduce -> inception_4d/5x5_reduce
I0123 12:19:23.750066 38174 net.cpp:210] Setting up inception_4d/5x5_reduce
I0123 12:19:23.750082 38174 net.cpp:217] Top shape: 32 32 14 14 (200704)
I0123 12:19:23.750089 38174 net.cpp:225] Memory required for data: 1509783044
I0123 12:19:23.750099 38174 layer_factory.hpp:114] Creating layer inception_4d/relu_5x5_reduce
I0123 12:19:23.750108 38174 net.cpp:160] Creating Layer inception_4d/relu_5x5_reduce
I0123 12:19:23.750116 38174 net.cpp:596] inception_4d/relu_5x5_reduce <- inception_4d/5x5_reduce
I0123 12:19:23.750124 38174 net.cpp:557] inception_4d/relu_5x5_reduce -> inception_4d/5x5_reduce (in-place)
I0123 12:19:23.750134 38174 net.cpp:210] Setting up inception_4d/relu_5x5_reduce
I0123 12:19:23.750143 38174 net.cpp:217] Top shape: 32 32 14 14 (200704)
I0123 12:19:23.750149 38174 net.cpp:225] Memory required for data: 1510585860
I0123 12:19:23.750155 38174 layer_factory.hpp:114] Creating layer inception_4d/5x5
I0123 12:19:23.750169 38174 net.cpp:160] Creating Layer inception_4d/5x5
I0123 12:19:23.750201 38174 net.cpp:596] inception_4d/5x5 <- inception_4d/5x5_reduce
I0123 12:19:23.750213 38174 net.cpp:570] inception_4d/5x5 -> inception_4d/5x5
I0123 12:19:23.753742 38174 net.cpp:210] Setting up inception_4d/5x5
I0123 12:19:23.753757 38174 net.cpp:217] Top shape: 32 64 14 14 (401408)
I0123 12:19:23.753763 38174 net.cpp:225] Memory required for data: 1512191492
I0123 12:19:23.753773 38174 layer_factory.hpp:114] Creating layer inception_4d/relu_5x5
I0123 12:19:23.753785 38174 net.cpp:160] Creating Layer inception_4d/relu_5x5
I0123 12:19:23.753793 38174 net.cpp:596] inception_4d/relu_5x5 <- inception_4d/5x5
I0123 12:19:23.753801 38174 net.cpp:557] inception_4d/relu_5x5 -> inception_4d/5x5 (in-place)
I0123 12:19:23.753811 38174 net.cpp:210] Setting up inception_4d/relu_5x5
I0123 12:19:23.753819 38174 net.cpp:217] Top shape: 32 64 14 14 (401408)
I0123 12:19:23.753825 38174 net.cpp:225] Memory required for data: 1513797124
I0123 12:19:23.753832 38174 layer_factory.hpp:114] Creating layer inception_4d/pool
I0123 12:19:23.753867 38174 net.cpp:160] Creating Layer inception_4d/pool
I0123 12:19:23.753876 38174 net.cpp:596] inception_4d/pool <- inception_4c/output_inception_4c/output_0_split_3
I0123 12:19:23.753885 38174 net.cpp:570] inception_4d/pool -> inception_4d/pool
I0123 12:19:23.753897 38174 net.cpp:210] Setting up inception_4d/pool
I0123 12:19:23.753906 38174 net.cpp:217] Top shape: 32 512 14 14 (3211264)
I0123 12:19:23.753912 38174 net.cpp:225] Memory required for data: 1526642180
I0123 12:19:23.753919 38174 layer_factory.hpp:114] Creating layer inception_4d/pool_proj
I0123 12:19:23.753935 38174 net.cpp:160] Creating Layer inception_4d/pool_proj
I0123 12:19:23.753943 38174 net.cpp:596] inception_4d/pool_proj <- inception_4d/pool
I0123 12:19:23.753960 38174 net.cpp:570] inception_4d/pool_proj -> inception_4d/pool_proj
I0123 12:19:23.756367 38174 net.cpp:210] Setting up inception_4d/pool_proj
I0123 12:19:23.756382 38174 net.cpp:217] Top shape: 32 64 14 14 (401408)
I0123 12:19:23.756388 38174 net.cpp:225] Memory required for data: 1528247812
I0123 12:19:23.756398 38174 layer_factory.hpp:114] Creating layer inception_4d/relu_pool_proj
I0123 12:19:23.756409 38174 net.cpp:160] Creating Layer inception_4d/relu_pool_proj
I0123 12:19:23.756417 38174 net.cpp:596] inception_4d/relu_pool_proj <- inception_4d/pool_proj
I0123 12:19:23.756425 38174 net.cpp:557] inception_4d/relu_pool_proj -> inception_4d/pool_proj (in-place)
I0123 12:19:23.756435 38174 net.cpp:210] Setting up inception_4d/relu_pool_proj
I0123 12:19:23.756443 38174 net.cpp:217] Top shape: 32 64 14 14 (401408)
I0123 12:19:23.756449 38174 net.cpp:225] Memory required for data: 1529853444
I0123 12:19:23.756456 38174 layer_factory.hpp:114] Creating layer inception_4d/output
I0123 12:19:23.756471 38174 net.cpp:160] Creating Layer inception_4d/output
I0123 12:19:23.756479 38174 net.cpp:596] inception_4d/output <- inception_4d/1x1
I0123 12:19:23.756486 38174 net.cpp:596] inception_4d/output <- inception_4d/3x3
I0123 12:19:23.756494 38174 net.cpp:596] inception_4d/output <- inception_4d/5x5
I0123 12:19:23.756501 38174 net.cpp:596] inception_4d/output <- inception_4d/pool_proj
I0123 12:19:23.756510 38174 net.cpp:570] inception_4d/output -> inception_4d/output
I0123 12:19:23.756520 38174 net.cpp:210] Setting up inception_4d/output
I0123 12:19:23.756530 38174 net.cpp:217] Top shape: 32 528 14 14 (3311616)
I0123 12:19:23.756536 38174 net.cpp:225] Memory required for data: 1543099908
I0123 12:19:23.756542 38174 layer_factory.hpp:114] Creating layer inception_4d/output_inception_4d/output_0_split
I0123 12:19:23.756553 38174 net.cpp:160] Creating Layer inception_4d/output_inception_4d/output_0_split
I0123 12:19:23.756559 38174 net.cpp:596] inception_4d/output_inception_4d/output_0_split <- inception_4d/output
I0123 12:19:23.756573 38174 net.cpp:570] inception_4d/output_inception_4d/output_0_split -> inception_4d/output_inception_4d/output_0_split_0
I0123 12:19:23.756584 38174 net.cpp:570] inception_4d/output_inception_4d/output_0_split -> inception_4d/output_inception_4d/output_0_split_1
I0123 12:19:23.756594 38174 net.cpp:570] inception_4d/output_inception_4d/output_0_split -> inception_4d/output_inception_4d/output_0_split_2
I0123 12:19:23.756615 38174 net.cpp:570] inception_4d/output_inception_4d/output_0_split -> inception_4d/output_inception_4d/output_0_split_3
I0123 12:19:23.756625 38174 net.cpp:570] inception_4d/output_inception_4d/output_0_split -> inception_4d/output_inception_4d/output_0_split_4
I0123 12:19:23.756638 38174 net.cpp:210] Setting up inception_4d/output_inception_4d/output_0_split
I0123 12:19:23.756646 38174 net.cpp:217] Top shape: 32 528 14 14 (3311616)
I0123 12:19:23.756654 38174 net.cpp:217] Top shape: 32 528 14 14 (3311616)
I0123 12:19:23.756661 38174 net.cpp:217] Top shape: 32 528 14 14 (3311616)
I0123 12:19:23.756669 38174 net.cpp:217] Top shape: 32 528 14 14 (3311616)
I0123 12:19:23.756676 38174 net.cpp:217] Top shape: 32 528 14 14 (3311616)
I0123 12:19:23.756682 38174 net.cpp:225] Memory required for data: 1609332228
I0123 12:19:23.756690 38174 layer_factory.hpp:114] Creating layer loss2/ave_pool
I0123 12:19:23.756713 38174 net.cpp:160] Creating Layer loss2/ave_pool
I0123 12:19:23.756722 38174 net.cpp:596] loss2/ave_pool <- inception_4d/output_inception_4d/output_0_split_0
I0123 12:19:23.756731 38174 net.cpp:570] loss2/ave_pool -> loss2/ave_pool
I0123 12:19:23.756742 38174 net.cpp:210] Setting up loss2/ave_pool
I0123 12:19:23.756752 38174 net.cpp:217] Top shape: 32 528 4 4 (270336)
I0123 12:19:23.756758 38174 net.cpp:225] Memory required for data: 1610413572
I0123 12:19:23.756765 38174 layer_factory.hpp:114] Creating layer loss2/conv
I0123 12:19:23.756778 38174 net.cpp:160] Creating Layer loss2/conv
I0123 12:19:23.756786 38174 net.cpp:596] loss2/conv <- loss2/ave_pool
I0123 12:19:23.756803 38174 net.cpp:570] loss2/conv -> loss2/conv
I0123 12:19:23.758757 38174 net.cpp:210] Setting up loss2/conv
I0123 12:19:23.758772 38174 net.cpp:217] Top shape: 32 128 4 4 (65536)
I0123 12:19:23.758779 38174 net.cpp:225] Memory required for data: 1610675716
I0123 12:19:23.758788 38174 layer_factory.hpp:114] Creating layer loss2/relu_conv
I0123 12:19:23.758801 38174 net.cpp:160] Creating Layer loss2/relu_conv
I0123 12:19:23.758810 38174 net.cpp:596] loss2/relu_conv <- loss2/conv
I0123 12:19:23.758817 38174 net.cpp:557] loss2/relu_conv -> loss2/conv (in-place)
I0123 12:19:23.758827 38174 net.cpp:210] Setting up loss2/relu_conv
I0123 12:19:23.758836 38174 net.cpp:217] Top shape: 32 128 4 4 (65536)
I0123 12:19:23.758842 38174 net.cpp:225] Memory required for data: 1610937860
I0123 12:19:23.758848 38174 layer_factory.hpp:114] Creating layer loss2/fc
I0123 12:19:23.758882 38174 net.cpp:160] Creating Layer loss2/fc
I0123 12:19:23.758888 38174 net.cpp:596] loss2/fc <- loss2/conv
I0123 12:19:23.758898 38174 net.cpp:570] loss2/fc -> loss2/fc
I0123 12:19:23.777323 38174 net.cpp:210] Setting up loss2/fc
I0123 12:19:23.777354 38174 net.cpp:217] Top shape: 32 1024 (32768)
I0123 12:19:23.777359 38174 net.cpp:225] Memory required for data: 1611068932
I0123 12:19:23.777369 38174 layer_factory.hpp:114] Creating layer loss2/relu_fc
I0123 12:19:23.777379 38174 net.cpp:160] Creating Layer loss2/relu_fc
I0123 12:19:23.777386 38174 net.cpp:596] loss2/relu_fc <- loss2/fc
I0123 12:19:23.777398 38174 net.cpp:557] loss2/relu_fc -> loss2/fc (in-place)
I0123 12:19:23.777410 38174 net.cpp:210] Setting up loss2/relu_fc
I0123 12:19:23.777418 38174 net.cpp:217] Top shape: 32 1024 (32768)
I0123 12:19:23.777425 38174 net.cpp:225] Memory required for data: 1611200004
I0123 12:19:23.777431 38174 layer_factory.hpp:114] Creating layer loss2/drop_fc
I0123 12:19:23.777443 38174 net.cpp:160] Creating Layer loss2/drop_fc
I0123 12:19:23.777451 38174 net.cpp:596] loss2/drop_fc <- loss2/fc
I0123 12:19:23.777458 38174 net.cpp:557] loss2/drop_fc -> loss2/fc (in-place)
I0123 12:19:23.777472 38174 net.cpp:210] Setting up loss2/drop_fc
I0123 12:19:23.777479 38174 net.cpp:217] Top shape: 32 1024 (32768)
I0123 12:19:23.777485 38174 net.cpp:225] Memory required for data: 1611331076
I0123 12:19:23.777492 38174 layer_factory.hpp:114] Creating layer loss2/classifier
I0123 12:19:23.777503 38174 net.cpp:160] Creating Layer loss2/classifier
I0123 12:19:23.777520 38174 net.cpp:596] loss2/classifier <- loss2/fc
I0123 12:19:23.777534 38174 net.cpp:570] loss2/classifier -> loss2/classifier
I0123 12:19:23.786765 38174 net.cpp:210] Setting up loss2/classifier
I0123 12:19:23.786795 38174 net.cpp:217] Top shape: 32 1000 (32000)
I0123 12:19:23.786801 38174 net.cpp:225] Memory required for data: 1611459076
I0123 12:19:23.786811 38174 layer_factory.hpp:114] Creating layer loss2/loss
I0123 12:19:23.786823 38174 net.cpp:160] Creating Layer loss2/loss
I0123 12:19:23.786831 38174 net.cpp:596] loss2/loss <- loss2/classifier
I0123 12:19:23.786840 38174 net.cpp:596] loss2/loss <- label_data_1_split_1
I0123 12:19:23.786849 38174 net.cpp:570] loss2/loss -> loss2/loss1
I0123 12:19:23.786864 38174 layer_factory.hpp:114] Creating layer loss2/loss
I0123 12:19:23.786963 38174 net.cpp:210] Setting up loss2/loss
I0123 12:19:23.786974 38174 net.cpp:217] Top shape: (1)
I0123 12:19:23.786981 38174 net.cpp:220]     with loss weight 0.3
I0123 12:19:23.787014 38174 net.cpp:225] Memory required for data: 1611459080
I0123 12:19:23.787020 38174 layer_factory.hpp:114] Creating layer inception_4e/1x1
I0123 12:19:23.787039 38174 net.cpp:160] Creating Layer inception_4e/1x1
I0123 12:19:23.787047 38174 net.cpp:596] inception_4e/1x1 <- inception_4d/output_inception_4d/output_0_split_1
I0123 12:19:23.787062 38174 net.cpp:570] inception_4e/1x1 -> inception_4e/1x1
I0123 12:19:23.791482 38174 net.cpp:210] Setting up inception_4e/1x1
I0123 12:19:23.791517 38174 net.cpp:217] Top shape: 32 256 14 14 (1605632)
I0123 12:19:23.791524 38174 net.cpp:225] Memory required for data: 1617881608
I0123 12:19:23.791548 38174 layer_factory.hpp:114] Creating layer inception_4e/relu_1x1
I0123 12:19:23.791571 38174 net.cpp:160] Creating Layer inception_4e/relu_1x1
I0123 12:19:23.791579 38174 net.cpp:596] inception_4e/relu_1x1 <- inception_4e/1x1
I0123 12:19:23.791589 38174 net.cpp:557] inception_4e/relu_1x1 -> inception_4e/1x1 (in-place)
I0123 12:19:23.791599 38174 net.cpp:210] Setting up inception_4e/relu_1x1
I0123 12:19:23.791609 38174 net.cpp:217] Top shape: 32 256 14 14 (1605632)
I0123 12:19:23.791615 38174 net.cpp:225] Memory required for data: 1624304136
I0123 12:19:23.791621 38174 layer_factory.hpp:114] Creating layer inception_4e/3x3_reduce
I0123 12:19:23.791633 38174 net.cpp:160] Creating Layer inception_4e/3x3_reduce
I0123 12:19:23.791640 38174 net.cpp:596] inception_4e/3x3_reduce <- inception_4d/output_inception_4d/output_0_split_2
I0123 12:19:23.791652 38174 net.cpp:570] inception_4e/3x3_reduce -> inception_4e/3x3_reduce
I0123 12:19:23.795114 38174 net.cpp:210] Setting up inception_4e/3x3_reduce
I0123 12:19:23.795130 38174 net.cpp:217] Top shape: 32 160 14 14 (1003520)
I0123 12:19:23.795135 38174 net.cpp:225] Memory required for data: 1628318216
I0123 12:19:23.795145 38174 layer_factory.hpp:114] Creating layer inception_4e/relu_3x3_reduce
I0123 12:19:23.795155 38174 net.cpp:160] Creating Layer inception_4e/relu_3x3_reduce
I0123 12:19:23.795163 38174 net.cpp:596] inception_4e/relu_3x3_reduce <- inception_4e/3x3_reduce
I0123 12:19:23.795207 38174 net.cpp:557] inception_4e/relu_3x3_reduce -> inception_4e/3x3_reduce (in-place)
I0123 12:19:23.795218 38174 net.cpp:210] Setting up inception_4e/relu_3x3_reduce
I0123 12:19:23.795227 38174 net.cpp:217] Top shape: 32 160 14 14 (1003520)
I0123 12:19:23.795233 38174 net.cpp:225] Memory required for data: 1632332296
I0123 12:19:23.795239 38174 layer_factory.hpp:114] Creating layer inception_4e/3x3
I0123 12:19:23.795253 38174 net.cpp:160] Creating Layer inception_4e/3x3
I0123 12:19:23.795261 38174 net.cpp:596] inception_4e/3x3 <- inception_4e/3x3_reduce
I0123 12:19:23.795270 38174 net.cpp:570] inception_4e/3x3 -> inception_4e/3x3
I0123 12:19:23.808040 38174 net.cpp:210] Setting up inception_4e/3x3
I0123 12:19:23.808074 38174 net.cpp:217] Top shape: 32 320 14 14 (2007040)
I0123 12:19:23.808081 38174 net.cpp:225] Memory required for data: 1640360456
I0123 12:19:23.808091 38174 layer_factory.hpp:114] Creating layer inception_4e/relu_3x3
I0123 12:19:23.808100 38174 net.cpp:160] Creating Layer inception_4e/relu_3x3
I0123 12:19:23.808118 38174 net.cpp:596] inception_4e/relu_3x3 <- inception_4e/3x3
I0123 12:19:23.808127 38174 net.cpp:557] inception_4e/relu_3x3 -> inception_4e/3x3 (in-place)
I0123 12:19:23.808137 38174 net.cpp:210] Setting up inception_4e/relu_3x3
I0123 12:19:23.808145 38174 net.cpp:217] Top shape: 32 320 14 14 (2007040)
I0123 12:19:23.808152 38174 net.cpp:225] Memory required for data: 1648388616
I0123 12:19:23.808159 38174 layer_factory.hpp:114] Creating layer inception_4e/5x5_reduce
I0123 12:19:23.808198 38174 net.cpp:160] Creating Layer inception_4e/5x5_reduce
I0123 12:19:23.808207 38174 net.cpp:596] inception_4e/5x5_reduce <- inception_4d/output_inception_4d/output_0_split_3
I0123 12:19:23.808218 38174 net.cpp:570] inception_4e/5x5_reduce -> inception_4e/5x5_reduce
I0123 12:19:23.809860 38174 net.cpp:210] Setting up inception_4e/5x5_reduce
I0123 12:19:23.809875 38174 net.cpp:217] Top shape: 32 32 14 14 (200704)
I0123 12:19:23.809881 38174 net.cpp:225] Memory required for data: 1649191432
I0123 12:19:23.809890 38174 layer_factory.hpp:114] Creating layer inception_4e/relu_5x5_reduce
I0123 12:19:23.809900 38174 net.cpp:160] Creating Layer inception_4e/relu_5x5_reduce
I0123 12:19:23.809911 38174 net.cpp:596] inception_4e/relu_5x5_reduce <- inception_4e/5x5_reduce
I0123 12:19:23.809919 38174 net.cpp:557] inception_4e/relu_5x5_reduce -> inception_4e/5x5_reduce (in-place)
I0123 12:19:23.809928 38174 net.cpp:210] Setting up inception_4e/relu_5x5_reduce
I0123 12:19:23.809937 38174 net.cpp:217] Top shape: 32 32 14 14 (200704)
I0123 12:19:23.809943 38174 net.cpp:225] Memory required for data: 1649994248
I0123 12:19:23.809955 38174 layer_factory.hpp:114] Creating layer inception_4e/5x5
I0123 12:19:23.809973 38174 net.cpp:160] Creating Layer inception_4e/5x5
I0123 12:19:23.809981 38174 net.cpp:596] inception_4e/5x5 <- inception_4e/5x5_reduce
I0123 12:19:23.809993 38174 net.cpp:570] inception_4e/5x5 -> inception_4e/5x5
I0123 12:19:23.814388 38174 net.cpp:210] Setting up inception_4e/5x5
I0123 12:19:23.814404 38174 net.cpp:217] Top shape: 32 128 14 14 (802816)
I0123 12:19:23.814410 38174 net.cpp:225] Memory required for data: 1653205512
I0123 12:19:23.814421 38174 layer_factory.hpp:114] Creating layer inception_4e/relu_5x5
I0123 12:19:23.814430 38174 net.cpp:160] Creating Layer inception_4e/relu_5x5
I0123 12:19:23.814437 38174 net.cpp:596] inception_4e/relu_5x5 <- inception_4e/5x5
I0123 12:19:23.814446 38174 net.cpp:557] inception_4e/relu_5x5 -> inception_4e/5x5 (in-place)
I0123 12:19:23.814455 38174 net.cpp:210] Setting up inception_4e/relu_5x5
I0123 12:19:23.814465 38174 net.cpp:217] Top shape: 32 128 14 14 (802816)
I0123 12:19:23.814471 38174 net.cpp:225] Memory required for data: 1656416776
I0123 12:19:23.814477 38174 layer_factory.hpp:114] Creating layer inception_4e/pool
I0123 12:19:23.814538 38174 net.cpp:160] Creating Layer inception_4e/pool
I0123 12:19:23.814546 38174 net.cpp:596] inception_4e/pool <- inception_4d/output_inception_4d/output_0_split_4
I0123 12:19:23.814555 38174 net.cpp:570] inception_4e/pool -> inception_4e/pool
I0123 12:19:23.814571 38174 net.cpp:210] Setting up inception_4e/pool
I0123 12:19:23.814584 38174 net.cpp:217] Top shape: 32 528 14 14 (3311616)
I0123 12:19:23.814589 38174 net.cpp:225] Memory required for data: 1669663240
I0123 12:19:23.814596 38174 layer_factory.hpp:114] Creating layer inception_4e/pool_proj
I0123 12:19:23.814609 38174 net.cpp:160] Creating Layer inception_4e/pool_proj
I0123 12:19:23.814615 38174 net.cpp:596] inception_4e/pool_proj <- inception_4e/pool
I0123 12:19:23.814626 38174 net.cpp:570] inception_4e/pool_proj -> inception_4e/pool_proj
I0123 12:19:23.817656 38174 net.cpp:210] Setting up inception_4e/pool_proj
I0123 12:19:23.817670 38174 net.cpp:217] Top shape: 32 128 14 14 (802816)
I0123 12:19:23.817677 38174 net.cpp:225] Memory required for data: 1672874504
I0123 12:19:23.817687 38174 layer_factory.hpp:114] Creating layer inception_4e/relu_pool_proj
I0123 12:19:23.817697 38174 net.cpp:160] Creating Layer inception_4e/relu_pool_proj
I0123 12:19:23.817713 38174 net.cpp:596] inception_4e/relu_pool_proj <- inception_4e/pool_proj
I0123 12:19:23.817723 38174 net.cpp:557] inception_4e/relu_pool_proj -> inception_4e/pool_proj (in-place)
I0123 12:19:23.817733 38174 net.cpp:210] Setting up inception_4e/relu_pool_proj
I0123 12:19:23.817740 38174 net.cpp:217] Top shape: 32 128 14 14 (802816)
I0123 12:19:23.817746 38174 net.cpp:225] Memory required for data: 1676085768
I0123 12:19:23.817754 38174 layer_factory.hpp:114] Creating layer inception_4e/output
I0123 12:19:23.817765 38174 net.cpp:160] Creating Layer inception_4e/output
I0123 12:19:23.817773 38174 net.cpp:596] inception_4e/output <- inception_4e/1x1
I0123 12:19:23.817780 38174 net.cpp:596] inception_4e/output <- inception_4e/3x3
I0123 12:19:23.817788 38174 net.cpp:596] inception_4e/output <- inception_4e/5x5
I0123 12:19:23.817795 38174 net.cpp:596] inception_4e/output <- inception_4e/pool_proj
I0123 12:19:23.817805 38174 net.cpp:570] inception_4e/output -> inception_4e/output
I0123 12:19:23.817816 38174 net.cpp:210] Setting up inception_4e/output
I0123 12:19:23.817826 38174 net.cpp:217] Top shape: 32 832 14 14 (5218304)
I0123 12:19:23.817831 38174 net.cpp:225] Memory required for data: 1696958984
I0123 12:19:23.817837 38174 layer_factory.hpp:114] Creating layer pool4/3x3_s2
I0123 12:19:23.817857 38174 net.cpp:160] Creating Layer pool4/3x3_s2
I0123 12:19:23.817867 38174 net.cpp:596] pool4/3x3_s2 <- inception_4e/output
I0123 12:19:23.817875 38174 net.cpp:570] pool4/3x3_s2 -> pool4/3x3_s2
I0123 12:19:23.817888 38174 net.cpp:210] Setting up pool4/3x3_s2
I0123 12:19:23.817896 38174 net.cpp:217] Top shape: 32 832 7 7 (1304576)
I0123 12:19:23.817908 38174 net.cpp:225] Memory required for data: 1702177288
I0123 12:19:23.817914 38174 layer_factory.hpp:114] Creating layer pool4/3x3_s2_pool4/3x3_s2_0_split
I0123 12:19:23.817926 38174 net.cpp:160] Creating Layer pool4/3x3_s2_pool4/3x3_s2_0_split
I0123 12:19:23.817934 38174 net.cpp:596] pool4/3x3_s2_pool4/3x3_s2_0_split <- pool4/3x3_s2
I0123 12:19:23.817944 38174 net.cpp:570] pool4/3x3_s2_pool4/3x3_s2_0_split -> pool4/3x3_s2_pool4/3x3_s2_0_split_0
I0123 12:19:23.817953 38174 net.cpp:570] pool4/3x3_s2_pool4/3x3_s2_0_split -> pool4/3x3_s2_pool4/3x3_s2_0_split_1
I0123 12:19:23.817963 38174 net.cpp:570] pool4/3x3_s2_pool4/3x3_s2_0_split -> pool4/3x3_s2_pool4/3x3_s2_0_split_2
I0123 12:19:23.817973 38174 net.cpp:570] pool4/3x3_s2_pool4/3x3_s2_0_split -> pool4/3x3_s2_pool4/3x3_s2_0_split_3
I0123 12:19:23.817983 38174 net.cpp:210] Setting up pool4/3x3_s2_pool4/3x3_s2_0_split
I0123 12:19:23.817992 38174 net.cpp:217] Top shape: 32 832 7 7 (1304576)
I0123 12:19:23.817999 38174 net.cpp:217] Top shape: 32 832 7 7 (1304576)
I0123 12:19:23.818007 38174 net.cpp:217] Top shape: 32 832 7 7 (1304576)
I0123 12:19:23.818014 38174 net.cpp:217] Top shape: 32 832 7 7 (1304576)
I0123 12:19:23.818020 38174 net.cpp:225] Memory required for data: 1723050504
I0123 12:19:23.818027 38174 layer_factory.hpp:114] Creating layer inception_5a/1x1
I0123 12:19:23.818042 38174 net.cpp:160] Creating Layer inception_5a/1x1
I0123 12:19:23.818049 38174 net.cpp:596] inception_5a/1x1 <- pool4/3x3_s2_pool4/3x3_s2_0_split_0
I0123 12:19:23.818059 38174 net.cpp:570] inception_5a/1x1 -> inception_5a/1x1
I0123 12:19:23.823197 38174 net.cpp:210] Setting up inception_5a/1x1
I0123 12:19:23.823220 38174 net.cpp:217] Top shape: 32 256 7 7 (401408)
I0123 12:19:23.823226 38174 net.cpp:225] Memory required for data: 1724656136
I0123 12:19:23.823236 38174 layer_factory.hpp:114] Creating layer inception_5a/relu_1x1
I0123 12:19:23.823247 38174 net.cpp:160] Creating Layer inception_5a/relu_1x1
I0123 12:19:23.823256 38174 net.cpp:596] inception_5a/relu_1x1 <- inception_5a/1x1
I0123 12:19:23.823264 38174 net.cpp:557] inception_5a/relu_1x1 -> inception_5a/1x1 (in-place)
I0123 12:19:23.823274 38174 net.cpp:210] Setting up inception_5a/relu_1x1
I0123 12:19:23.823282 38174 net.cpp:217] Top shape: 32 256 7 7 (401408)
I0123 12:19:23.823288 38174 net.cpp:225] Memory required for data: 1726261768
I0123 12:19:23.823295 38174 layer_factory.hpp:114] Creating layer inception_5a/3x3_reduce
I0123 12:19:23.823315 38174 net.cpp:160] Creating Layer inception_5a/3x3_reduce
I0123 12:19:23.823323 38174 net.cpp:596] inception_5a/3x3_reduce <- pool4/3x3_s2_pool4/3x3_s2_0_split_1
I0123 12:19:23.823335 38174 net.cpp:570] inception_5a/3x3_reduce -> inception_5a/3x3_reduce
I0123 12:19:23.826841 38174 net.cpp:210] Setting up inception_5a/3x3_reduce
I0123 12:19:23.826855 38174 net.cpp:217] Top shape: 32 160 7 7 (250880)
I0123 12:19:23.826861 38174 net.cpp:225] Memory required for data: 1727265288
I0123 12:19:23.826871 38174 layer_factory.hpp:114] Creating layer inception_5a/relu_3x3_reduce
I0123 12:19:23.826881 38174 net.cpp:160] Creating Layer inception_5a/relu_3x3_reduce
I0123 12:19:23.826889 38174 net.cpp:596] inception_5a/relu_3x3_reduce <- inception_5a/3x3_reduce
I0123 12:19:23.826897 38174 net.cpp:557] inception_5a/relu_3x3_reduce -> inception_5a/3x3_reduce (in-place)
I0123 12:19:23.826907 38174 net.cpp:210] Setting up inception_5a/relu_3x3_reduce
I0123 12:19:23.826915 38174 net.cpp:217] Top shape: 32 160 7 7 (250880)
I0123 12:19:23.826921 38174 net.cpp:225] Memory required for data: 1728268808
I0123 12:19:23.826928 38174 layer_factory.hpp:114] Creating layer inception_5a/3x3
I0123 12:19:23.826941 38174 net.cpp:160] Creating Layer inception_5a/3x3
I0123 12:19:23.826949 38174 net.cpp:596] inception_5a/3x3 <- inception_5a/3x3_reduce
I0123 12:19:23.826958 38174 net.cpp:570] inception_5a/3x3 -> inception_5a/3x3
I0123 12:19:23.837529 38174 net.cpp:210] Setting up inception_5a/3x3
I0123 12:19:23.837551 38174 net.cpp:217] Top shape: 32 320 7 7 (501760)
I0123 12:19:23.837569 38174 net.cpp:225] Memory required for data: 1730275848
I0123 12:19:23.837580 38174 layer_factory.hpp:114] Creating layer inception_5a/relu_3x3
I0123 12:19:23.837596 38174 net.cpp:160] Creating Layer inception_5a/relu_3x3
I0123 12:19:23.837604 38174 net.cpp:596] inception_5a/relu_3x3 <- inception_5a/3x3
I0123 12:19:23.837613 38174 net.cpp:557] inception_5a/relu_3x3 -> inception_5a/3x3 (in-place)
I0123 12:19:23.837623 38174 net.cpp:210] Setting up inception_5a/relu_3x3
I0123 12:19:23.837631 38174 net.cpp:217] Top shape: 32 320 7 7 (501760)
I0123 12:19:23.837637 38174 net.cpp:225] Memory required for data: 1732282888
I0123 12:19:23.837644 38174 layer_factory.hpp:114] Creating layer inception_5a/5x5_reduce
I0123 12:19:23.837656 38174 net.cpp:160] Creating Layer inception_5a/5x5_reduce
I0123 12:19:23.837662 38174 net.cpp:596] inception_5a/5x5_reduce <- pool4/3x3_s2_pool4/3x3_s2_0_split_2
I0123 12:19:23.837673 38174 net.cpp:570] inception_5a/5x5_reduce -> inception_5a/5x5_reduce
I0123 12:19:23.838760 38174 net.cpp:210] Setting up inception_5a/5x5_reduce
I0123 12:19:23.838774 38174 net.cpp:217] Top shape: 32 32 7 7 (50176)
I0123 12:19:23.838780 38174 net.cpp:225] Memory required for data: 1732483592
I0123 12:19:23.838790 38174 layer_factory.hpp:114] Creating layer inception_5a/relu_5x5_reduce
I0123 12:19:23.838799 38174 net.cpp:160] Creating Layer inception_5a/relu_5x5_reduce
I0123 12:19:23.838807 38174 net.cpp:596] inception_5a/relu_5x5_reduce <- inception_5a/5x5_reduce
I0123 12:19:23.838819 38174 net.cpp:557] inception_5a/relu_5x5_reduce -> inception_5a/5x5_reduce (in-place)
I0123 12:19:23.838829 38174 net.cpp:210] Setting up inception_5a/relu_5x5_reduce
I0123 12:19:23.838836 38174 net.cpp:217] Top shape: 32 32 7 7 (50176)
I0123 12:19:23.838842 38174 net.cpp:225] Memory required for data: 1732684296
I0123 12:19:23.838850 38174 layer_factory.hpp:114] Creating layer inception_5a/5x5
I0123 12:19:23.838860 38174 net.cpp:160] Creating Layer inception_5a/5x5
I0123 12:19:23.838867 38174 net.cpp:596] inception_5a/5x5 <- inception_5a/5x5_reduce
I0123 12:19:23.838879 38174 net.cpp:570] inception_5a/5x5 -> inception_5a/5x5
I0123 12:19:23.841653 38174 net.cpp:210] Setting up inception_5a/5x5
I0123 12:19:23.841675 38174 net.cpp:217] Top shape: 32 128 7 7 (200704)
I0123 12:19:23.841681 38174 net.cpp:225] Memory required for data: 1733487112
I0123 12:19:23.841691 38174 layer_factory.hpp:114] Creating layer inception_5a/relu_5x5
I0123 12:19:23.841732 38174 net.cpp:160] Creating Layer inception_5a/relu_5x5
I0123 12:19:23.841739 38174 net.cpp:596] inception_5a/relu_5x5 <- inception_5a/5x5
I0123 12:19:23.841748 38174 net.cpp:557] inception_5a/relu_5x5 -> inception_5a/5x5 (in-place)
I0123 12:19:23.841758 38174 net.cpp:210] Setting up inception_5a/relu_5x5
I0123 12:19:23.841766 38174 net.cpp:217] Top shape: 32 128 7 7 (200704)
I0123 12:19:23.841773 38174 net.cpp:225] Memory required for data: 1734289928
I0123 12:19:23.841779 38174 layer_factory.hpp:114] Creating layer inception_5a/pool
I0123 12:19:23.841804 38174 net.cpp:160] Creating Layer inception_5a/pool
I0123 12:19:23.841812 38174 net.cpp:596] inception_5a/pool <- pool4/3x3_s2_pool4/3x3_s2_0_split_3
I0123 12:19:23.841821 38174 net.cpp:570] inception_5a/pool -> inception_5a/pool
I0123 12:19:23.841835 38174 net.cpp:210] Setting up inception_5a/pool
I0123 12:19:23.841846 38174 net.cpp:217] Top shape: 32 832 7 7 (1304576)
I0123 12:19:23.841853 38174 net.cpp:225] Memory required for data: 1739508232
I0123 12:19:23.841861 38174 layer_factory.hpp:114] Creating layer inception_5a/pool_proj
I0123 12:19:23.841872 38174 net.cpp:160] Creating Layer inception_5a/pool_proj
I0123 12:19:23.841879 38174 net.cpp:596] inception_5a/pool_proj <- inception_5a/pool
I0123 12:19:23.841892 38174 net.cpp:570] inception_5a/pool_proj -> inception_5a/pool_proj
I0123 12:19:23.844722 38174 net.cpp:210] Setting up inception_5a/pool_proj
I0123 12:19:23.844750 38174 net.cpp:217] Top shape: 32 128 7 7 (200704)
I0123 12:19:23.844756 38174 net.cpp:225] Memory required for data: 1740311048
I0123 12:19:23.844766 38174 layer_factory.hpp:114] Creating layer inception_5a/relu_pool_proj
I0123 12:19:23.844780 38174 net.cpp:160] Creating Layer inception_5a/relu_pool_proj
I0123 12:19:23.844789 38174 net.cpp:596] inception_5a/relu_pool_proj <- inception_5a/pool_proj
I0123 12:19:23.844799 38174 net.cpp:557] inception_5a/relu_pool_proj -> inception_5a/pool_proj (in-place)
I0123 12:19:23.844808 38174 net.cpp:210] Setting up inception_5a/relu_pool_proj
I0123 12:19:23.844816 38174 net.cpp:217] Top shape: 32 128 7 7 (200704)
I0123 12:19:23.844822 38174 net.cpp:225] Memory required for data: 1741113864
I0123 12:19:23.844830 38174 layer_factory.hpp:114] Creating layer inception_5a/output
I0123 12:19:23.844838 38174 net.cpp:160] Creating Layer inception_5a/output
I0123 12:19:23.844846 38174 net.cpp:596] inception_5a/output <- inception_5a/1x1
I0123 12:19:23.844853 38174 net.cpp:596] inception_5a/output <- inception_5a/3x3
I0123 12:19:23.844861 38174 net.cpp:596] inception_5a/output <- inception_5a/5x5
I0123 12:19:23.844868 38174 net.cpp:596] inception_5a/output <- inception_5a/pool_proj
I0123 12:19:23.844879 38174 net.cpp:570] inception_5a/output -> inception_5a/output
I0123 12:19:23.844898 38174 net.cpp:210] Setting up inception_5a/output
I0123 12:19:23.844907 38174 net.cpp:217] Top shape: 32 832 7 7 (1304576)
I0123 12:19:23.844913 38174 net.cpp:225] Memory required for data: 1746332168
I0123 12:19:23.844920 38174 layer_factory.hpp:114] Creating layer inception_5a/output_inception_5a/output_0_split
I0123 12:19:23.844928 38174 net.cpp:160] Creating Layer inception_5a/output_inception_5a/output_0_split
I0123 12:19:23.844935 38174 net.cpp:596] inception_5a/output_inception_5a/output_0_split <- inception_5a/output
I0123 12:19:23.844944 38174 net.cpp:570] inception_5a/output_inception_5a/output_0_split -> inception_5a/output_inception_5a/output_0_split_0
I0123 12:19:23.844954 38174 net.cpp:570] inception_5a/output_inception_5a/output_0_split -> inception_5a/output_inception_5a/output_0_split_1
I0123 12:19:23.844964 38174 net.cpp:570] inception_5a/output_inception_5a/output_0_split -> inception_5a/output_inception_5a/output_0_split_2
I0123 12:19:23.844974 38174 net.cpp:570] inception_5a/output_inception_5a/output_0_split -> inception_5a/output_inception_5a/output_0_split_3
I0123 12:19:23.844985 38174 net.cpp:210] Setting up inception_5a/output_inception_5a/output_0_split
I0123 12:19:23.844995 38174 net.cpp:217] Top shape: 32 832 7 7 (1304576)
I0123 12:19:23.845011 38174 net.cpp:217] Top shape: 32 832 7 7 (1304576)
I0123 12:19:23.845018 38174 net.cpp:217] Top shape: 32 832 7 7 (1304576)
I0123 12:19:23.845026 38174 net.cpp:217] Top shape: 32 832 7 7 (1304576)
I0123 12:19:23.845032 38174 net.cpp:225] Memory required for data: 1767205384
I0123 12:19:23.845038 38174 layer_factory.hpp:114] Creating layer inception_5b/1x1
I0123 12:19:23.845051 38174 net.cpp:160] Creating Layer inception_5b/1x1
I0123 12:19:23.845057 38174 net.cpp:596] inception_5b/1x1 <- inception_5a/output_inception_5a/output_0_split_0
I0123 12:19:23.845067 38174 net.cpp:570] inception_5b/1x1 -> inception_5b/1x1
I0123 12:19:23.851995 38174 net.cpp:210] Setting up inception_5b/1x1
I0123 12:19:23.852016 38174 net.cpp:217] Top shape: 32 384 7 7 (602112)
I0123 12:19:23.852022 38174 net.cpp:225] Memory required for data: 1769613832
I0123 12:19:23.852032 38174 layer_factory.hpp:114] Creating layer inception_5b/relu_1x1
I0123 12:19:23.852049 38174 net.cpp:160] Creating Layer inception_5b/relu_1x1
I0123 12:19:23.852056 38174 net.cpp:596] inception_5b/relu_1x1 <- inception_5b/1x1
I0123 12:19:23.852066 38174 net.cpp:557] inception_5b/relu_1x1 -> inception_5b/1x1 (in-place)
I0123 12:19:23.852075 38174 net.cpp:210] Setting up inception_5b/relu_1x1
I0123 12:19:23.852083 38174 net.cpp:217] Top shape: 32 384 7 7 (602112)
I0123 12:19:23.852089 38174 net.cpp:225] Memory required for data: 1772022280
I0123 12:19:23.852097 38174 layer_factory.hpp:114] Creating layer inception_5b/3x3_reduce
I0123 12:19:23.852113 38174 net.cpp:160] Creating Layer inception_5b/3x3_reduce
I0123 12:19:23.852121 38174 net.cpp:596] inception_5b/3x3_reduce <- inception_5a/output_inception_5a/output_0_split_1
I0123 12:19:23.852136 38174 net.cpp:570] inception_5b/3x3_reduce -> inception_5b/3x3_reduce
I0123 12:19:23.855919 38174 net.cpp:210] Setting up inception_5b/3x3_reduce
I0123 12:19:23.855948 38174 net.cpp:217] Top shape: 32 192 7 7 (301056)
I0123 12:19:23.855954 38174 net.cpp:225] Memory required for data: 1773226504
I0123 12:19:23.855964 38174 layer_factory.hpp:114] Creating layer inception_5b/relu_3x3_reduce
I0123 12:19:23.855973 38174 net.cpp:160] Creating Layer inception_5b/relu_3x3_reduce
I0123 12:19:23.855981 38174 net.cpp:596] inception_5b/relu_3x3_reduce <- inception_5b/3x3_reduce
I0123 12:19:23.855991 38174 net.cpp:557] inception_5b/relu_3x3_reduce -> inception_5b/3x3_reduce (in-place)
I0123 12:19:23.856003 38174 net.cpp:210] Setting up inception_5b/relu_3x3_reduce
I0123 12:19:23.856010 38174 net.cpp:217] Top shape: 32 192 7 7 (301056)
I0123 12:19:23.856016 38174 net.cpp:225] Memory required for data: 1774430728
I0123 12:19:23.856024 38174 layer_factory.hpp:114] Creating layer inception_5b/3x3
I0123 12:19:23.856034 38174 net.cpp:160] Creating Layer inception_5b/3x3
I0123 12:19:23.856041 38174 net.cpp:596] inception_5b/3x3 <- inception_5b/3x3_reduce
I0123 12:19:23.856050 38174 net.cpp:570] inception_5b/3x3 -> inception_5b/3x3
I0123 12:19:23.870828 38174 net.cpp:210] Setting up inception_5b/3x3
I0123 12:19:23.870887 38174 net.cpp:217] Top shape: 32 384 7 7 (602112)
I0123 12:19:23.870893 38174 net.cpp:225] Memory required for data: 1776839176
I0123 12:19:23.870904 38174 layer_factory.hpp:114] Creating layer inception_5b/relu_3x3
I0123 12:19:23.870915 38174 net.cpp:160] Creating Layer inception_5b/relu_3x3
I0123 12:19:23.870923 38174 net.cpp:596] inception_5b/relu_3x3 <- inception_5b/3x3
I0123 12:19:23.870932 38174 net.cpp:557] inception_5b/relu_3x3 -> inception_5b/3x3 (in-place)
I0123 12:19:23.870942 38174 net.cpp:210] Setting up inception_5b/relu_3x3
I0123 12:19:23.870950 38174 net.cpp:217] Top shape: 32 384 7 7 (602112)
I0123 12:19:23.870956 38174 net.cpp:225] Memory required for data: 1779247624
I0123 12:19:23.870964 38174 layer_factory.hpp:114] Creating layer inception_5b/5x5_reduce
I0123 12:19:23.870976 38174 net.cpp:160] Creating Layer inception_5b/5x5_reduce
I0123 12:19:23.870985 38174 net.cpp:596] inception_5b/5x5_reduce <- inception_5a/output_inception_5a/output_0_split_2
I0123 12:19:23.870993 38174 net.cpp:570] inception_5b/5x5_reduce -> inception_5b/5x5_reduce
I0123 12:19:23.872385 38174 net.cpp:210] Setting up inception_5b/5x5_reduce
I0123 12:19:23.872406 38174 net.cpp:217] Top shape: 32 48 7 7 (75264)
I0123 12:19:23.872413 38174 net.cpp:225] Memory required for data: 1779548680
I0123 12:19:23.872422 38174 layer_factory.hpp:114] Creating layer inception_5b/relu_5x5_reduce
I0123 12:19:23.872432 38174 net.cpp:160] Creating Layer inception_5b/relu_5x5_reduce
I0123 12:19:23.872440 38174 net.cpp:596] inception_5b/relu_5x5_reduce <- inception_5b/5x5_reduce
I0123 12:19:23.872448 38174 net.cpp:557] inception_5b/relu_5x5_reduce -> inception_5b/5x5_reduce (in-place)
I0123 12:19:23.872458 38174 net.cpp:210] Setting up inception_5b/relu_5x5_reduce
I0123 12:19:23.872467 38174 net.cpp:217] Top shape: 32 48 7 7 (75264)
I0123 12:19:23.872473 38174 net.cpp:225] Memory required for data: 1779849736
I0123 12:19:23.872480 38174 layer_factory.hpp:114] Creating layer inception_5b/5x5
I0123 12:19:23.872494 38174 net.cpp:160] Creating Layer inception_5b/5x5
I0123 12:19:23.872503 38174 net.cpp:596] inception_5b/5x5 <- inception_5b/5x5_reduce
I0123 12:19:23.872514 38174 net.cpp:570] inception_5b/5x5 -> inception_5b/5x5
I0123 12:19:23.877017 38174 net.cpp:210] Setting up inception_5b/5x5
I0123 12:19:23.877048 38174 net.cpp:217] Top shape: 32 128 7 7 (200704)
I0123 12:19:23.877053 38174 net.cpp:225] Memory required for data: 1780652552
I0123 12:19:23.877063 38174 layer_factory.hpp:114] Creating layer inception_5b/relu_5x5
I0123 12:19:23.877079 38174 net.cpp:160] Creating Layer inception_5b/relu_5x5
I0123 12:19:23.877087 38174 net.cpp:596] inception_5b/relu_5x5 <- inception_5b/5x5
I0123 12:19:23.877101 38174 net.cpp:557] inception_5b/relu_5x5 -> inception_5b/5x5 (in-place)
I0123 12:19:23.877111 38174 net.cpp:210] Setting up inception_5b/relu_5x5
I0123 12:19:23.877120 38174 net.cpp:217] Top shape: 32 128 7 7 (200704)
I0123 12:19:23.877126 38174 net.cpp:225] Memory required for data: 1781455368
I0123 12:19:23.877133 38174 layer_factory.hpp:114] Creating layer inception_5b/pool
I0123 12:19:23.877171 38174 net.cpp:160] Creating Layer inception_5b/pool
I0123 12:19:23.877208 38174 net.cpp:596] inception_5b/pool <- inception_5a/output_inception_5a/output_0_split_3
I0123 12:19:23.877218 38174 net.cpp:570] inception_5b/pool -> inception_5b/pool
I0123 12:19:23.877230 38174 net.cpp:210] Setting up inception_5b/pool
I0123 12:19:23.877239 38174 net.cpp:217] Top shape: 32 832 7 7 (1304576)
I0123 12:19:23.877245 38174 net.cpp:225] Memory required for data: 1786673672
I0123 12:19:23.877252 38174 layer_factory.hpp:114] Creating layer inception_5b/pool_proj
I0123 12:19:23.877267 38174 net.cpp:160] Creating Layer inception_5b/pool_proj
I0123 12:19:23.877274 38174 net.cpp:596] inception_5b/pool_proj <- inception_5b/pool
I0123 12:19:23.877286 38174 net.cpp:570] inception_5b/pool_proj -> inception_5b/pool_proj
I0123 12:19:23.880087 38174 net.cpp:210] Setting up inception_5b/pool_proj
I0123 12:19:23.880102 38174 net.cpp:217] Top shape: 32 128 7 7 (200704)
I0123 12:19:23.880108 38174 net.cpp:225] Memory required for data: 1787476488
I0123 12:19:23.880118 38174 layer_factory.hpp:114] Creating layer inception_5b/relu_pool_proj
I0123 12:19:23.880131 38174 net.cpp:160] Creating Layer inception_5b/relu_pool_proj
I0123 12:19:23.880138 38174 net.cpp:596] inception_5b/relu_pool_proj <- inception_5b/pool_proj
I0123 12:19:23.880146 38174 net.cpp:557] inception_5b/relu_pool_proj -> inception_5b/pool_proj (in-place)
I0123 12:19:23.880156 38174 net.cpp:210] Setting up inception_5b/relu_pool_proj
I0123 12:19:23.880164 38174 net.cpp:217] Top shape: 32 128 7 7 (200704)
I0123 12:19:23.880199 38174 net.cpp:225] Memory required for data: 1788279304
I0123 12:19:23.880208 38174 layer_factory.hpp:114] Creating layer inception_5b/output
I0123 12:19:23.880218 38174 net.cpp:160] Creating Layer inception_5b/output
I0123 12:19:23.880224 38174 net.cpp:596] inception_5b/output <- inception_5b/1x1
I0123 12:19:23.880234 38174 net.cpp:596] inception_5b/output <- inception_5b/3x3
I0123 12:19:23.880240 38174 net.cpp:596] inception_5b/output <- inception_5b/5x5
I0123 12:19:23.880259 38174 net.cpp:596] inception_5b/output <- inception_5b/pool_proj
I0123 12:19:23.880269 38174 net.cpp:570] inception_5b/output -> inception_5b/output
I0123 12:19:23.880287 38174 net.cpp:210] Setting up inception_5b/output
I0123 12:19:23.880296 38174 net.cpp:217] Top shape: 32 1024 7 7 (1605632)
I0123 12:19:23.880302 38174 net.cpp:225] Memory required for data: 1794701832
I0123 12:19:23.880309 38174 layer_factory.hpp:114] Creating layer pool5/7x7_s1
I0123 12:19:23.880329 38174 net.cpp:160] Creating Layer pool5/7x7_s1
I0123 12:19:23.880337 38174 net.cpp:596] pool5/7x7_s1 <- inception_5b/output
I0123 12:19:23.880349 38174 net.cpp:570] pool5/7x7_s1 -> pool5/7x7_s1
I0123 12:19:23.880360 38174 net.cpp:210] Setting up pool5/7x7_s1
I0123 12:19:23.880369 38174 net.cpp:217] Top shape: 32 1024 1 1 (32768)
I0123 12:19:23.880376 38174 net.cpp:225] Memory required for data: 1794832904
I0123 12:19:23.880383 38174 layer_factory.hpp:114] Creating layer pool5/drop_7x7_s1
I0123 12:19:23.880395 38174 net.cpp:160] Creating Layer pool5/drop_7x7_s1
I0123 12:19:23.880403 38174 net.cpp:596] pool5/drop_7x7_s1 <- pool5/7x7_s1
I0123 12:19:23.880410 38174 net.cpp:557] pool5/drop_7x7_s1 -> pool5/7x7_s1 (in-place)
I0123 12:19:23.880424 38174 net.cpp:210] Setting up pool5/drop_7x7_s1
I0123 12:19:23.880434 38174 net.cpp:217] Top shape: 32 1024 1 1 (32768)
I0123 12:19:23.880439 38174 net.cpp:225] Memory required for data: 1794963976
I0123 12:19:23.880445 38174 layer_factory.hpp:114] Creating layer loss3/classifier
I0123 12:19:23.880461 38174 net.cpp:160] Creating Layer loss3/classifier
I0123 12:19:23.880473 38174 net.cpp:596] loss3/classifier <- pool5/7x7_s1
I0123 12:19:23.880486 38174 net.cpp:570] loss3/classifier -> loss3/classifier
I0123 12:19:23.890103 38174 net.cpp:210] Setting up loss3/classifier
I0123 12:19:23.890131 38174 net.cpp:217] Top shape: 32 1000 (32000)
I0123 12:19:23.890138 38174 net.cpp:225] Memory required for data: 1795091976
I0123 12:19:23.890148 38174 layer_factory.hpp:114] Creating layer loss3/loss3
I0123 12:19:23.890159 38174 net.cpp:160] Creating Layer loss3/loss3
I0123 12:19:23.890167 38174 net.cpp:596] loss3/loss3 <- loss3/classifier
I0123 12:19:23.890204 38174 net.cpp:596] loss3/loss3 <- label_data_1_split_2
I0123 12:19:23.890216 38174 net.cpp:570] loss3/loss3 -> loss3/loss3
…
I0123 12:19:23.897760 38174 net.cpp:484] The NetState phase (1) differed from the phase (0) specified by a rule in layer data
I0123 12:19:23.902060 38174 net.cpp:120] Initializing net from parameters: 
name: "GoogleNet"
state {
  phase: TEST
}
layer {
  name: "data"
  type: "Data"
  top: "data"
  top: "label"
  include {
    phase: TEST
  }
  transform_param {
    mirror: false
    crop_size: 224
    mean_value: 104
    mean_value: 117
    mean_value: 123
  }
  data_param {
    source: "/home/user/caffeOMP/original/caffe/examples/imagenet/ilsvrc12_val_lmdb"
    batch_size: 50
    backend: LMDB
  }
}
layer {
  name: "label_data_1_split"
  type: "Split"
  bottom: "label"
  top: "label_data_1_split_0"
  top: "label_data_1_split_1"
  top: "label_data_1_split_2"
  top: "label_data_1_split_3"
  top: "label_data_1_split_4"
  top: "label_data_1_split_5"
  top: "label_data_1_split_6"
  top: "label_data_1_split_7"
  top: "label_data_1_split_8"
}
layer {
  name: "conv1/7x7_s2"
  type: "Convolution"
  bottom: "data"
  top: "conv1/7x7_s2"
  param {
    lr_mult: 1
    decay_mult: 1
  }
  param {
    lr_mult: 2
    decay_mult: 0
  }
  convolution_param {
    num_output: 64
    pad: 3
    kernel_size: 7
    stride: 2
    weight_filler {
      type: "xavier"
    }
    bias_filler {
      type: "constant"
      value: 0.2
    }
  }
}
layer {
  name: "conv1/relu_7x7"
  type: "ReLU"
  bottom: "conv1/7x7_s2"
  top: "conv1/7x7_s2"
}
layer {
  name: "pool1/3x3_s2"
  type: "Pooling"
  bottom: "conv1/7x7_s2"
  top: "pool1/3x3_s2"
  pooling_param {
    pool: MAX
    kernel_size: 3
    stride: 2
  }
}
layer {
  name: "pool1/norm1"
  type: "LRN"
  bottom: "pool1/3x3_s2"
  top: "pool1/norm1"
  lrn_param {
    local_size: 5
    alpha: 0.0001
    beta: 0.75
  }
}
layer {
  name: "conv2/3x3_reduce"
  type: "Convolution"
  bottom: "pool1/norm1"
  top: "conv2/3x3_reduce"
  param {
    lr_mult: 1
    decay_mult: 1
  }
  param {
    lr_mult: 2
    decay_mult: 0
  }
  convolution_param {
    num_output: 64
    kernel_size: 1
    weight_filler {
      type: "xavier"
    }
    bias_filler {
      type: "constant"
      value: 0.2
    }
  }
}
layer {
  name: "conv2/relu_3x3_reduce"
  type: "ReLU"
  bottom: "conv2/3x3_reduce"
  top: "conv2/3x3_reduce"
}
layer {
  name: "conv2/3x3"
  type: "Convolution"
  bottom: "conv2/3x3_reduce"
  top: "conv2/3x3"
  param {
    lr_mult: 1
    decay_mult: 1
  }
  param {
    lr_mult: 2
    decay_mult: 0
  }
  convolution_param {
    num_output: 192
    pad: 1
    kernel_size: 3
    weight_filler {
      type: "xavier"
    }
    bias_filler {
      type: "constant"
      value: 0.2
    }
  }
}
layer {
  name: "conv2/relu_3x3"
  type: "ReLU"
  bottom: "conv2/3x3"
  top: "conv2/3x3"
}
layer {
  name: "conv2/norm2"
  type: "LRN"
  bottom: "conv2/3x3"
  top: "conv2/norm2"
  lrn_param {
    local_size: 5
    alpha: 0.0001
    beta: 0.75
  }
}
layer {
  name: "pool2/3x3_s2"
  type: "Pooling"
  bottom: "conv2/norm2"
  top: "pool2/3x3_s2"
  pooling_param {
    pool: MAX
    kernel_size: 3
    stride: 2
  }
}
layer {
  name: "pool2/3x3_s2_pool2/3x3_s2_0_split"
  type: "Split"
  bottom: "pool2/3x3_s2"
  top: "pool2/3x3_s2_pool2/3x3_s2_0_split_0"
  top: "pool2/3x3_s2_pool2/3x3_s2_0_split_1"
  top: "pool2/3x3_s2_pool2/3x3_s2_0_split_2"
  top: "pool2/3x3_s2_pool2/3x3_s2_0_split_3"
}
layer {
  name: "inception_3a/1x1"
  type: "Convolution"
  bottom: "pool2/3x3_s2_pool2/3x3_s2_0_split_0"
  top: "inception_3a/1x1"
  param {
    lr_mult: 1
    decay_mult: 1
  }
  param {
    lr_mult: 2
    decay_mult: 0
  }
  convolution_param {
    num_output: 64
    kernel_size: 1
    weight_filler {
      type: "xavier"
    }
    bias_filler {
      type: "constant"
      value: 0.2
    }
  }
}
layer {
  name: "inception_3a/relu_1x1"
  type: "ReLU"
  bottom: "inception_3a/1x1"
  top: "inception_3a/1x1"
}
layer {
  name: "inception_3a/3x3_reduce"
  type: "Convolution"
  bottom: "pool2/3x3_s2_pool2/3x3_s2_0_split_1"
  top: "inception_3a/3x3_reduce"
  param {
    lr_mult: 1
    decay_mult: 1
  }
  param {
    lr_mult: 2
    decay_mult: 0
  }
  convolution_param {
    num_output: 96
    kernel_size: 1
    weight_filler {
      type: "xavier"
    }
    bias_filler {
      type: "constant"
      value: 0.2
    }
  }
}
layer {
  name: "inception_3a/relu_3x3_reduce"
  type: "ReLU"
  bottom: "inception_3a/3x3_reduce"
  top: "inception_3a/3x3_reduce"
}
layer {
  name: "inception_3a/3x3"
  type: "Convolution"
  bottom: "inception_3a/3x3_reduce"
  top: "inception_3a/3x3"
  param {
    lr_mult: 1
    decay_mult: 1
  }
  param {
    lr_mult: 2
    decay_mult: 0
  }
  convolution_param {
    num_output: 128
    pad: 1
    kernel_size: 3
    weight_filler {
      type: "xavier"
    }
    bias_filler {
      type: "constant"
      value: 0.2
    }
  }
}
layer {
  name: "inception_3a/relu_3x3"
  type: "ReLU"
  bottom: "inception_3a/3x3"
  top: "inception_3a/3x3"
}
layer {
  name: "inception_3a/5x5_reduce"
  type: "Convolution"
  bottom: "pool2/3x3_s2_pool2/3x3_s2_0_split_2"
  top: "inception_3a/5x5_reduce"
  param {
    lr_mult: 1
    decay_mult: 1
  }
  param {
    lr_mult: 2
    decay_mult: 0
  }
  convolution_param {
    num_output: 16
    kernel_size: 1
    weight_filler {
      type: "xavier"
    }
    bias_filler {
      type: "constant"
      value: 0.2
    }
  }
}
layer {
  name: "inception_3a/relu_5x5_reduce"
  type: "ReLU"
  bottom: "inception_3a/5x5_reduce"
  top: "inception_3a/5x5_reduce"
}
layer {
  name: "inception_3a/5x5"
  type: "Convolution"
  bottom: "inception_3a/5x5_reduce"
  top: "inception_3a/5x5"
  param {
    lr_mult: 1
    decay_mult: 1
  }
  param {
    lr_mult: 2
    decay_mult: 0
  }
  convolution_param {
    num_output: 32
    pad: 2
    kernel_size: 5
    weight_filler {
      type: "xavier"
    }
    bias_filler {
      type: "constant"
      value: 0.2
    }
  }
}
layer {
  name: "inception_3a/relu_5x5"
  type: "ReLU"
  bottom: "inception_3a/5x5"
  top: "inception_3a/5x5"
}
layer {
  name: "inception_3a/pool"
  type: "Pooling"
  bottom: "pool2/3x3_s2_pool2/3x3_s2_0_split_3"
  top: "inception_3a/pool"
  pooling_param {
    pool: MAX
    kernel_size: 3
    stride: 1
    pad: 1
  }
}
layer {
  name: "inception_3a/pool_proj"
  type: "Convolution"
  bottom: "inception_3a/pool"
  top: "inception_3a/pool_proj"
  param {
    lr_mult: 1
    decay_mult: 1
  }
  param {
    lr_mult: 2
    decay_mult: 0
  }
  convolution_param {
    num_output: 32
    kernel_size: 1
    weight_filler {
      type: "xavier"
    }
    bias_filler {
      type: "constant"
      value: 0.2
    }
  }
}
layer {
  name: "inception_3a/relu_pool_proj"
  type: "ReLU"
  bottom: "inception_3a/pool_proj"
  top: "inception_3a/pool_proj"
}
layer {
  name: "inception_3a/output"
  type: "Concat"
  bottom: "inception_3a/1x1"
  bottom: "inception_3a/3x3"
  bottom: "inception_3a/5x5"
  bottom: "inception_3a/pool_proj"
  top: "inception_3a/output"
}
layer {
  name: "inception_3a/output_inception_3a/output_0_split"
  type: "Split"
  bottom: "inception_3a/output"
  top: "inception_3a/output_inception_3a/output_0_split_0"
  top: "inception_3a/output_inception_3a/output_0_split_1"
  top: "inception_3a/output_inception_3a/output_0_split_2"
  top: "inception_3a/output_inception_3a/output_0_split_3"
}
layer {
  name: "inception_3b/1x1"
  type: "Convolution"
  bottom: "inception_3a/output_inception_3a/output_0_split_0"
  top: "inception_3b/1x1"
  param {
    lr_mult: 1
    decay_mult: 1
  }
  param {
    lr_mult: 2
    decay_mult: 0
  }
  convolution_param {
    num_output: 128
    kernel_size: 1
    weight_filler {
      type: "xavier"
    }
    bias_filler {
      type: "constant"
      value: 0.2
    }
  }
}
layer {
  name: "inception_3b/relu_1x1"
  type: "ReLU"
  bottom: "inception_3b/1x1"
  top: "inception_3b/1x1"
}
layer {
  name: "inception_3b/3x3_reduce"
  type: "Convolution"
  bottom: "inception_3a/output_inception_3a/output_0_split_1"
  top: "inception_3b/3x3_reduce"
  param {
    lr_mult: 1
    decay_mult: 1
  }
  param {
    lr_mult: 2
    decay_mult: 0
  }
  convolution_param {
    num_output: 128
    kernel_size: 1
    weight_filler {
      type: "xavier"
    }
    bias_filler {
      type: "constant"
      value: 0.2
    }
  }
}
layer {
  name: "inception_3b/relu_3x3_reduce"
  type: "ReLU"
  bottom: "inception_3b/3x3_reduce"
  top: "inception_3b/3x3_reduce"
}
layer {
  name: "inception_3b/3x3"
  type: "Convolution"
  bottom: "inception_3b/3x3_reduce"
  top: "inception_3b/3x3"
  param {
    lr_mult: 1
    decay_mult: 1
  }
  param {
    lr_mult: 2
    decay_mult: 0
  }
  convolution_param {
    num_output: 192
    pad: 1
    kernel_size: 3
    weight_filler {
      type: "xavier"
    }
    bias_filler {
      type: "constant"
      value: 0.2
    }
  }
}
layer {
  name: "inception_3b/relu_3x3"
  type: "ReLU"
  bottom: "inception_3b/3x3"
  top: "inception_3b/3x3"
}
layer {
  name: "inception_3b/5x5_reduce"
  type: "Convolution"
  bottom: "inception_3a/output_inception_3a/output_0_split_2"
  top: "inception_3b/5x5_reduce"
  param {
    lr_mult: 1
    decay_mult: 1
  }
  param {
    lr_mult: 2
    decay_mult: 0
  }
  convolution_param {
    num_output: 32
    kernel_size: 1
    weight_filler {
      type: "xavier"
    }
    bias_filler {
      type: "constant"
      value: 0.2
    }
  }
}
layer {
  name: "inception_3b/relu_5x5_reduce"
  type: "ReLU"
  bottom: "inception_3b/5x5_reduce"
  top: "inception_3b/5x5_reduce"
}
layer {
  name: "inception_3b/5x5"
  type: "Convolution"
  bottom: "inception_3b/5x5_reduce"
  top: "inception_3b/5x5"
  param {
    lr_mult: 1
    decay_mult: 1
  }
  param {
    lr_mult: 2
    decay_mult: 0
  }
  convolution_param {
    num_output: 96
    pad: 2
    kernel_size: 5
    weight_filler {
      type: "xavier"
    }
    bias_filler {
      type: "constant"
      value: 0.2
    }
  }
}
layer {
  name: "inception_3b/relu_5x5"
  type: "ReLU"
  bottom: "inception_3b/5x5"
  top: "inception_3b/5x5"
}
layer {
  name: "inception_3b/pool"
  type: "Pooling"
  bottom: "inception_3a/output_inception_3a/output_0_split_3"
  top: "inception_3b/pool"
  pooling_param {
    pool: MAX
    kernel_size: 3
    stride: 1
    pad: 1
  }
}
layer {
  name: "inception_3b/pool_proj"
  type: "Convolution"
  bottom: "inception_3b/pool"
  top: "inception_3b/pool_proj"
  param {
    lr_mult: 1
    decay_mult: 1
  }
  param {
    lr_mult: 2
    decay_mult: 0
  }
  convolution_param {
    num_output: 64
    kernel_size: 1
    weight_filler {
      type: "xavier"
    }
    bias_filler {
      type: "constant"
      value: 0.2
    }
  }
}
layer {
  name: "inception_3b/relu_pool_proj"
  type: "ReLU"
  bottom: "inception_3b/pool_proj"
  top: "inception_3b/pool_proj"
}
layer {
  name: "inception_3b/output"
  type: "Concat"
  bottom: "inception_3b/1x1"
  bottom: "inception_3b/3x3"
  bottom: "inception_3b/5x5"
  bottom: "inception_3b/pool_proj"
  top: "inception_3b/output"
}
layer {
  name: "pool3/3x3_s2"
  type: "Pooling"
  bottom: "inception_3b/output"
  top: "pool3/3x3_s2"
  pooling_param {
    pool: MAX
    kernel_size: 3
    stride: 2
  }
}
layer {
  name: "pool3/3x3_s2_pool3/3x3_s2_0_split"
  type: "Split"
  bottom: "pool3/3x3_s2"
  top: "pool3/3x3_s2_pool3/3x3_s2_0_split_0"
  top: "pool3/3x3_s2_pool3/3x3_s2_0_split_1"
  top: "pool3/3x3_s2_pool3/3x3_s2_0_split_2"
  top: "pool3/3x3_s2_pool3/3x3_s2_0_split_3"
}
layer {
  name: "inception_4a/1x1"
  type: "Convolution"
  bottom: "pool3/3x3_s2_pool3/3x3_s2_0_split_0"
  top: "inception_4a/1x1"
  param {
    lr_mult: 1
    decay_mult: 1
  }
  param {
    lr_mult: 2
    decay_mult: 0
  }
  convolution_param {
    num_output: 192
    kernel_size: 1
    weight_filler {
      type: "xavier"
    }
    bias_filler {
      type: "constant"
      value: 0.2
    }
  }
}
layer {
  name: "inception_4a/relu_1x1"
  type: "ReLU"
  bottom: "inception_4a/1x1"
  top: "inception_4a/1x1"
}
layer {
  name: "inception_4a/3x3_reduce"
  type: "Convolution"
  bottom: "pool3/3x3_s2_pool3/3x3_s2_0_split_1"
  top: "inception_4a/3x3_reduce"
  param {
    lr_mult: 1
    decay_mult: 1
  }
  param {
    lr_mult: 2
    decay_mult: 0
  }
  convolution_param {
    num_output: 96
    kernel_size: 1
    weight_filler {
      type: "xavier"
    }
    bias_filler {
      type: "constant"
      value: 0.2
    }
  }
}
layer {
  name: "inception_4a/relu_3x3_reduce"
  type: "ReLU"
  bottom: "inception_4a/3x3_reduce"
  top: "inception_4a/3x3_reduce"
}
layer {
  name: "inception_4a/3x3"
  type: "Convolution"
  bottom: "inception_4a/3x3_reduce"
  top: "inception_4a/3x3"
  param {
    lr_mult: 1
    decay_mult: 1
  }
  param {
    lr_mult: 2
    decay_mult: 0
  }
  convolution_param {
    num_output: 208
    pad: 1
    kernel_size: 3
    weight_filler {
      type: "xavier"
    }
    bias_filler {
      type: "constant"
      value: 0.2
    }
  }
}
layer {
  name: "inception_4a/relu_3x3"
  type: "ReLU"
  bottom: "inception_4a/3x3"
  top: "inception_4a/3x3"
}
layer {
  name: "inception_4a/5x5_reduce"
  type: "Convolution"
  bottom: "pool3/3x3_s2_pool3/3x3_s2_0_split_2"
  top: "inception_4a/5x5_reduce"
  param {
    lr_mult: 1
    decay_mult: 1
  }
  param {
    lr_mult: 2
    decay_mult: 0
  }
  convolution_param {
    num_output: 16
    kernel_size: 1
    weight_filler {
      type: "xavier"
    }
    bias_filler {
      type: "constant"
      value: 0.2
    }
  }
}
layer {
  name: "inception_4a/relu_5x5_reduce"
  type: "ReLU"
  bottom: "inception_4a/5x5_reduce"
  top: "inception_4a/5x5_reduce"
}
layer {
  name: "inception_4a/5x5"
  type: "Convolution"
  bottom: "inception_4a/5x5_reduce"
  top: "inception_4a/5x5"
  param {
    lr_mult: 1
    decay_mult: 1
  }
  param {
    lr_mult: 2
    decay_mult: 0
  }
  convolution_param {
    num_output: 48
    pad: 2
    kernel_size: 5
    weight_filler {
      type: "xavier"
    }
    bias_filler {
      type: "constant"
      value: 0.2
    }
  }
}
layer {
…
I0123 12:19:24.143621 38174 layer_factory.hpp:114] Creating layer inception_4c/pool
I0123 12:19:24.143654 38174 net.cpp:160] Creating Layer inception_4c/pool
I0123 12:19:24.143663 38174 net.cpp:596] inception_4c/pool <- inception_4b/output_inception_4b/output_0_split_3
I0123 12:19:24.143674 38174 net.cpp:570] inception_4c/pool -> inception_4c/pool
I0123 12:19:24.143687 38174 net.cpp:210] Setting up inception_4c/pool
I0123 12:19:24.143697 38174 net.cpp:217] Top shape: 50 512 14 14 (5017600)
I0123 12:19:24.143702 38174 net.cpp:225] Memory required for data: 2210363612
I0123 12:19:24.143709 38174 layer_factory.hpp:114] Creating layer inception_4c/pool_proj
I0123 12:19:24.143723 38174 net.cpp:160] Creating Layer inception_4c/pool_proj
I0123 12:19:24.143730 38174 net.cpp:596] inception_4c/pool_proj <- inception_4c/pool
I0123 12:19:24.143743 38174 net.cpp:570] inception_4c/pool_proj -> inception_4c/pool_proj
I0123 12:19:24.146132 38174 net.cpp:210] Setting up inception_4c/pool_proj
I0123 12:19:24.146147 38174 net.cpp:217] Top shape: 50 64 14 14 (627200)
I0123 12:19:24.146152 38174 net.cpp:225] Memory required for data: 2212872412
I0123 12:19:24.146162 38174 layer_factory.hpp:114] Creating layer inception_4c/relu_pool_proj
I0123 12:19:24.146198 38174 net.cpp:160] Creating Layer inception_4c/relu_pool_proj
I0123 12:19:24.146206 38174 net.cpp:596] inception_4c/relu_pool_proj <- inception_4c/pool_proj
I0123 12:19:24.146215 38174 net.cpp:557] inception_4c/relu_pool_proj -> inception_4c/pool_proj (in-place)
I0123 12:19:24.146224 38174 net.cpp:210] Setting up inception_4c/relu_pool_proj
I0123 12:19:24.146234 38174 net.cpp:217] Top shape: 50 64 14 14 (627200)
I0123 12:19:24.146239 38174 net.cpp:225] Memory required for data: 2215381212
I0123 12:19:24.146246 38174 layer_factory.hpp:114] Creating layer inception_4c/output
I0123 12:19:24.146255 38174 net.cpp:160] Creating Layer inception_4c/output
I0123 12:19:24.146262 38174 net.cpp:596] inception_4c/output <- inception_4c/1x1
I0123 12:19:24.146270 38174 net.cpp:596] inception_4c/output <- inception_4c/3x3
I0123 12:19:24.146277 38174 net.cpp:596] inception_4c/output <- inception_4c/5x5
I0123 12:19:24.146286 38174 net.cpp:596] inception_4c/output <- inception_4c/pool_proj
I0123 12:19:24.146296 38174 net.cpp:570] inception_4c/output -> inception_4c/output
I0123 12:19:24.146307 38174 net.cpp:210] Setting up inception_4c/output
I0123 12:19:24.146317 38174 net.cpp:217] Top shape: 50 512 14 14 (5017600)
I0123 12:19:24.146322 38174 net.cpp:225] Memory required for data: 2235451612
I0123 12:19:24.146334 38174 layer_factory.hpp:114] Creating layer inception_4c/output_inception_4c/output_0_split
I0123 12:19:24.146343 38174 net.cpp:160] Creating Layer inception_4c/output_inception_4c/output_0_split
I0123 12:19:24.146350 38174 net.cpp:596] inception_4c/output_inception_4c/output_0_split <- inception_4c/output
I0123 12:19:24.146361 38174 net.cpp:570] inception_4c/output_inception_4c/output_0_split -> inception_4c/output_inception_4c/output_0_split_0
I0123 12:19:24.146373 38174 net.cpp:570] inception_4c/output_inception_4c/output_0_split -> inception_4c/output_inception_4c/output_0_split_1
I0123 12:19:24.146383 38174 net.cpp:570] inception_4c/output_inception_4c/output_0_split -> inception_4c/output_inception_4c/output_0_split_2
I0123 12:19:24.146392 38174 net.cpp:570] inception_4c/output_inception_4c/output_0_split -> inception_4c/output_inception_4c/output_0_split_3
I0123 12:19:24.146402 38174 net.cpp:210] Setting up inception_4c/output_inception_4c/output_0_split
I0123 12:19:24.146410 38174 net.cpp:217] Top shape: 50 512 14 14 (5017600)
I0123 12:19:24.146419 38174 net.cpp:217] Top shape: 50 512 14 14 (5017600)
I0123 12:19:24.146425 38174 net.cpp:217] Top shape: 50 512 14 14 (5017600)
I0123 12:19:24.146433 38174 net.cpp:217] Top shape: 50 512 14 14 (5017600)
I0123 12:19:24.146440 38174 net.cpp:225] Memory required for data: 2315733212
I0123 12:19:24.146446 38174 layer_factory.hpp:114] Creating layer inception_4d/1x1
I0123 12:19:24.146461 38174 net.cpp:160] Creating Layer inception_4d/1x1
I0123 12:19:24.146468 38174 net.cpp:596] inception_4d/1x1 <- inception_4c/output_inception_4c/output_0_split_0
I0123 12:19:24.146478 38174 net.cpp:570] inception_4d/1x1 -> inception_4d/1x1
I0123 12:19:24.149262 38174 net.cpp:210] Setting up inception_4d/1x1
I0123 12:19:24.149276 38174 net.cpp:217] Top shape: 50 112 14 14 (1097600)
I0123 12:19:24.149282 38174 net.cpp:225] Memory required for data: 2320123612
I0123 12:19:24.149292 38174 layer_factory.hpp:114] Creating layer inception_4d/relu_1x1
I0123 12:19:24.149302 38174 net.cpp:160] Creating Layer inception_4d/relu_1x1
I0123 12:19:24.149309 38174 net.cpp:596] inception_4d/relu_1x1 <- inception_4d/1x1
I0123 12:19:24.149319 38174 net.cpp:557] inception_4d/relu_1x1 -> inception_4d/1x1 (in-place)
I0123 12:19:24.149329 38174 net.cpp:210] Setting up inception_4d/relu_1x1
I0123 12:19:24.149338 38174 net.cpp:217] Top shape: 50 112 14 14 (1097600)
I0123 12:19:24.149353 38174 net.cpp:225] Memory required for data: 2324514012
I0123 12:19:24.149359 38174 layer_factory.hpp:114] Creating layer inception_4d/3x3_reduce
I0123 12:19:24.149372 38174 net.cpp:160] Creating Layer inception_4d/3x3_reduce
I0123 12:19:24.149380 38174 net.cpp:596] inception_4d/3x3_reduce <- inception_4c/output_inception_4c/output_0_split_1
I0123 12:19:24.149390 38174 net.cpp:570] inception_4d/3x3_reduce -> inception_4d/3x3_reduce
I0123 12:19:24.153128 38174 net.cpp:210] Setting up inception_4d/3x3_reduce
I0123 12:19:24.153142 38174 net.cpp:217] Top shape: 50 144 14 14 (1411200)
I0123 12:19:24.153149 38174 net.cpp:225] Memory required for data: 2330158812
I0123 12:19:24.153159 38174 layer_factory.hpp:114] Creating layer inception_4d/relu_3x3_reduce
I0123 12:19:24.153195 38174 net.cpp:160] Creating Layer inception_4d/relu_3x3_reduce
I0123 12:19:24.153204 38174 net.cpp:596] inception_4d/relu_3x3_reduce <- inception_4d/3x3_reduce
I0123 12:19:24.153215 38174 net.cpp:557] inception_4d/relu_3x3_reduce -> inception_4d/3x3_reduce (in-place)
I0123 12:19:24.153225 38174 net.cpp:210] Setting up inception_4d/relu_3x3_reduce
I0123 12:19:24.153234 38174 net.cpp:217] Top shape: 50 144 14 14 (1411200)
I0123 12:19:24.153240 38174 net.cpp:225] Memory required for data: 2335803612
I0123 12:19:24.153247 38174 layer_factory.hpp:114] Creating layer inception_4d/3x3
I0123 12:19:24.153259 38174 net.cpp:160] Creating Layer inception_4d/3x3
I0123 12:19:24.153265 38174 net.cpp:596] inception_4d/3x3 <- inception_4d/3x3_reduce
I0123 12:19:24.153275 38174 net.cpp:570] inception_4d/3x3 -> inception_4d/3x3
I0123 12:19:24.164258 38174 net.cpp:210] Setting up inception_4d/3x3
I0123 12:19:24.164273 38174 net.cpp:217] Top shape: 50 288 14 14 (2822400)
I0123 12:19:24.164279 38174 net.cpp:225] Memory required for data: 2347093212
I0123 12:19:24.164289 38174 layer_factory.hpp:114] Creating layer inception_4d/relu_3x3
I0123 12:19:24.164305 38174 net.cpp:160] Creating Layer inception_4d/relu_3x3
I0123 12:19:24.164314 38174 net.cpp:596] inception_4d/relu_3x3 <- inception_4d/3x3
I0123 12:19:24.164321 38174 net.cpp:557] inception_4d/relu_3x3 -> inception_4d/3x3 (in-place)
I0123 12:19:24.164331 38174 net.cpp:210] Setting up inception_4d/relu_3x3
I0123 12:19:24.164340 38174 net.cpp:217] Top shape: 50 288 14 14 (2822400)
I0123 12:19:24.164345 38174 net.cpp:225] Memory required for data: 2358382812
I0123 12:19:24.164352 38174 layer_factory.hpp:114] Creating layer inception_4d/5x5_reduce
I0123 12:19:24.164366 38174 net.cpp:160] Creating Layer inception_4d/5x5_reduce
I0123 12:19:24.164373 38174 net.cpp:596] inception_4d/5x5_reduce <- inception_4c/output_inception_4c/output_0_split_2
I0123 12:19:24.164384 38174 net.cpp:570] inception_4d/5x5_reduce -> inception_4d/5x5_reduce
I0123 12:19:24.165961 38174 net.cpp:210] Setting up inception_4d/5x5_reduce
I0123 12:19:24.165976 38174 net.cpp:217] Top shape: 50 32 14 14 (313600)
I0123 12:19:24.165982 38174 net.cpp:225] Memory required for data: 2359637212
I0123 12:19:24.165992 38174 layer_factory.hpp:114] Creating layer inception_4d/relu_5x5_reduce
I0123 12:19:24.166002 38174 net.cpp:160] Creating Layer inception_4d/relu_5x5_reduce
I0123 12:19:24.166009 38174 net.cpp:596] inception_4d/relu_5x5_reduce <- inception_4d/5x5_reduce
I0123 12:19:24.166020 38174 net.cpp:557] inception_4d/relu_5x5_reduce -> inception_4d/5x5_reduce (in-place)
I0123 12:19:24.166030 38174 net.cpp:210] Setting up inception_4d/relu_5x5_reduce
I0123 12:19:24.166038 38174 net.cpp:217] Top shape: 50 32 14 14 (313600)
I0123 12:19:24.166044 38174 net.cpp:225] Memory required for data: 2360891612
I0123 12:19:24.166051 38174 layer_factory.hpp:114] Creating layer inception_4d/5x5
I0123 12:19:24.166064 38174 net.cpp:160] Creating Layer inception_4d/5x5
I0123 12:19:24.166071 38174 net.cpp:596] inception_4d/5x5 <- inception_4d/5x5_reduce
I0123 12:19:24.166081 38174 net.cpp:570] inception_4d/5x5 -> inception_4d/5x5
I0123 12:19:24.169144 38174 net.cpp:210] Setting up inception_4d/5x5
I0123 12:19:24.169158 38174 net.cpp:217] Top shape: 50 64 14 14 (627200)
I0123 12:19:24.169244 38174 net.cpp:225] Memory required for data: 2363400412
I0123 12:19:24.169255 38174 layer_factory.hpp:114] Creating layer inception_4d/relu_5x5
I0123 12:19:24.169263 38174 net.cpp:160] Creating Layer inception_4d/relu_5x5
I0123 12:19:24.169270 38174 net.cpp:596] inception_4d/relu_5x5 <- inception_4d/5x5
I0123 12:19:24.169281 38174 net.cpp:557] inception_4d/relu_5x5 -> inception_4d/5x5 (in-place)
I0123 12:19:24.169291 38174 net.cpp:210] Setting up inception_4d/relu_5x5
I0123 12:19:24.169301 38174 net.cpp:217] Top shape: 50 64 14 14 (627200)
I0123 12:19:24.169306 38174 net.cpp:225] Memory required for data: 2365909212
I0123 12:19:24.169312 38174 layer_factory.hpp:114] Creating layer inception_4d/pool
I0123 12:19:24.169342 38174 net.cpp:160] Creating Layer inception_4d/pool
I0123 12:19:24.169351 38174 net.cpp:596] inception_4d/pool <- inception_4c/output_inception_4c/output_0_split_3
I0123 12:19:24.169363 38174 net.cpp:570] inception_4d/pool -> inception_4d/pool
I0123 12:19:24.169374 38174 net.cpp:210] Setting up inception_4d/pool
I0123 12:19:24.169384 38174 net.cpp:217] Top shape: 50 512 14 14 (5017600)
I0123 12:19:24.169389 38174 net.cpp:225] Memory required for data: 2385979612
I0123 12:19:24.169396 38174 layer_factory.hpp:114] Creating layer inception_4d/pool_proj
I0123 12:19:24.169410 38174 net.cpp:160] Creating Layer inception_4d/pool_proj
I0123 12:19:24.169419 38174 net.cpp:596] inception_4d/pool_proj <- inception_4d/pool
I0123 12:19:24.169428 38174 net.cpp:570] inception_4d/pool_proj -> inception_4d/pool_proj
I0123 12:19:24.171792 38174 net.cpp:210] Setting up inception_4d/pool_proj
I0123 12:19:24.171813 38174 net.cpp:217] Top shape: 50 64 14 14 (627200)
I0123 12:19:24.171819 38174 net.cpp:225] Memory required for data: 2388488412
I0123 12:19:24.171829 38174 layer_factory.hpp:114] Creating layer inception_4d/relu_pool_proj
I0123 12:19:24.171838 38174 net.cpp:160] Creating Layer inception_4d/relu_pool_proj
I0123 12:19:24.171850 38174 net.cpp:596] inception_4d/relu_pool_proj <- inception_4d/pool_proj
I0123 12:19:24.171861 38174 net.cpp:557] inception_4d/relu_pool_proj -> inception_4d/pool_proj (in-place)
I0123 12:19:24.171871 38174 net.cpp:210] Setting up inception_4d/relu_pool_proj
I0123 12:19:24.171880 38174 net.cpp:217] Top shape: 50 64 14 14 (627200)
I0123 12:19:24.171886 38174 net.cpp:225] Memory required for data: 2390997212
I0123 12:19:24.171893 38174 layer_factory.hpp:114] Creating layer inception_4d/output
I0123 12:19:24.171902 38174 net.cpp:160] Creating Layer inception_4d/output
I0123 12:19:24.171910 38174 net.cpp:596] inception_4d/output <- inception_4d/1x1
I0123 12:19:24.171916 38174 net.cpp:596] inception_4d/output <- inception_4d/3x3
I0123 12:19:24.171924 38174 net.cpp:596] inception_4d/output <- inception_4d/5x5
I0123 12:19:24.171931 38174 net.cpp:596] inception_4d/output <- inception_4d/pool_proj
I0123 12:19:24.171946 38174 net.cpp:570] inception_4d/output -> inception_4d/output
I0123 12:19:24.171957 38174 net.cpp:210] Setting up inception_4d/output
I0123 12:19:24.171967 38174 net.cpp:217] Top shape: 50 528 14 14 (5174400)
I0123 12:19:24.171972 38174 net.cpp:225] Memory required for data: 2411694812
I0123 12:19:24.171979 38174 layer_factory.hpp:114] Creating layer inception_4d/output_inception_4d/output_0_split
I0123 12:19:24.171998 38174 net.cpp:160] Creating Layer inception_4d/output_inception_4d/output_0_split
I0123 12:19:24.172004 38174 net.cpp:596] inception_4d/output_inception_4d/output_0_split <- inception_4d/output
I0123 12:19:24.172015 38174 net.cpp:570] inception_4d/output_inception_4d/output_0_split -> inception_4d/output_inception_4d/output_0_split_0
I0123 12:19:24.172026 38174 net.cpp:570] inception_4d/output_inception_4d/output_0_split -> inception_4d/output_inception_4d/output_0_split_1
I0123 12:19:24.172036 38174 net.cpp:570] inception_4d/output_inception_4d/output_0_split -> inception_4d/output_inception_4d/output_0_split_2
I0123 12:19:24.172046 38174 net.cpp:570] inception_4d/output_inception_4d/output_0_split -> inception_4d/output_inception_4d/output_0_split_3
I0123 12:19:24.172065 38174 net.cpp:570] inception_4d/output_inception_4d/output_0_split -> inception_4d/output_inception_4d/output_0_split_4
I0123 12:19:24.172076 38174 net.cpp:210] Setting up inception_4d/output_inception_4d/output_0_split
I0123 12:19:24.172085 38174 net.cpp:217] Top shape: 50 528 14 14 (5174400)
I0123 12:19:24.172092 38174 net.cpp:217] Top shape: 50 528 14 14 (5174400)
I0123 12:19:24.172101 38174 net.cpp:217] Top shape: 50 528 14 14 (5174400)
I0123 12:19:24.172107 38174 net.cpp:217] Top shape: 50 528 14 14 (5174400)
I0123 12:19:24.172114 38174 net.cpp:217] Top shape: 50 528 14 14 (5174400)
I0123 12:19:24.172121 38174 net.cpp:225] Memory required for data: 2515182812
I0123 12:19:24.172127 38174 layer_factory.hpp:114] Creating layer loss2/ave_pool
I0123 12:19:24.172149 38174 net.cpp:160] Creating Layer loss2/ave_pool
I0123 12:19:24.172158 38174 net.cpp:596] loss2/ave_pool <- inception_4d/output_inception_4d/output_0_split_0
I0123 12:19:24.172199 38174 net.cpp:570] loss2/ave_pool -> loss2/ave_pool
I0123 12:19:24.172214 38174 net.cpp:210] Setting up loss2/ave_pool
I0123 12:19:24.172224 38174 net.cpp:217] Top shape: 50 528 4 4 (422400)
I0123 12:19:24.172230 38174 net.cpp:225] Memory required for data: 2516872412
I0123 12:19:24.172236 38174 layer_factory.hpp:114] Creating layer loss2/conv
I0123 12:19:24.172251 38174 net.cpp:160] Creating Layer loss2/conv
I0123 12:19:24.172258 38174 net.cpp:596] loss2/conv <- loss2/ave_pool
I0123 12:19:24.172271 38174 net.cpp:570] loss2/conv -> loss2/conv
I0123 12:19:24.174131 38174 net.cpp:210] Setting up loss2/conv
I0123 12:19:24.174146 38174 net.cpp:217] Top shape: 50 128 4 4 (102400)
I0123 12:19:24.174196 38174 net.cpp:225] Memory required for data: 2517282012
I0123 12:19:24.174208 38174 layer_factory.hpp:114] Creating layer loss2/relu_conv
I0123 12:19:24.174217 38174 net.cpp:160] Creating Layer loss2/relu_conv
I0123 12:19:24.174224 38174 net.cpp:596] loss2/relu_conv <- loss2/conv
I0123 12:19:24.174235 38174 net.cpp:557] loss2/relu_conv -> loss2/conv (in-place)
I0123 12:19:24.174247 38174 net.cpp:210] Setting up loss2/relu_conv
I0123 12:19:24.174254 38174 net.cpp:217] Top shape: 50 128 4 4 (102400)
I0123 12:19:24.174260 38174 net.cpp:225] Memory required for data: 2517691612
I0123 12:19:24.174268 38174 layer_factory.hpp:114] Creating layer loss2/fc
I0123 12:19:24.174295 38174 net.cpp:160] Creating Layer loss2/fc
I0123 12:19:24.174304 38174 net.cpp:596] loss2/fc <- loss2/conv
I0123 12:19:24.174314 38174 net.cpp:570] loss2/fc -> loss2/fc
I0123 12:19:24.192703 38174 net.cpp:210] Setting up loss2/fc
I0123 12:19:24.192737 38174 net.cpp:217] Top shape: 50 1024 (51200)
I0123 12:19:24.192744 38174 net.cpp:225] Memory required for data: 2517896412
I0123 12:19:24.192755 38174 layer_factory.hpp:114] Creating layer loss2/relu_fc
I0123 12:19:24.192767 38174 net.cpp:160] Creating Layer loss2/relu_fc
I0123 12:19:24.192775 38174 net.cpp:596] loss2/relu_fc <- loss2/fc
I0123 12:19:24.192785 38174 net.cpp:557] loss2/relu_fc -> loss2/fc (in-place)
I0123 12:19:24.192796 38174 net.cpp:210] Setting up loss2/relu_fc
I0123 12:19:24.192805 38174 net.cpp:217] Top shape: 50 1024 (51200)
I0123 12:19:24.192811 38174 net.cpp:225] Memory required for data: 2518101212
I0123 12:19:24.192817 38174 layer_factory.hpp:114] Creating layer loss2/drop_fc
I0123 12:19:24.192829 38174 net.cpp:160] Creating Layer loss2/drop_fc
I0123 12:19:24.192836 38174 net.cpp:596] loss2/drop_fc <- loss2/fc
I0123 12:19:24.192845 38174 net.cpp:557] loss2/drop_fc -> loss2/fc (in-place)
I0123 12:19:24.192859 38174 net.cpp:210] Setting up loss2/drop_fc
I0123 12:19:24.192867 38174 net.cpp:217] Top shape: 50 1024 (51200)
I0123 12:19:24.192873 38174 net.cpp:225] Memory required for data: 2518306012
I0123 12:19:24.192880 38174 layer_factory.hpp:114] Creating layer loss2/classifier
I0123 12:19:24.192894 38174 net.cpp:160] Creating Layer loss2/classifier
I0123 12:19:24.192901 38174 net.cpp:596] loss2/classifier <- loss2/fc
I0123 12:19:24.192911 38174 net.cpp:570] loss2/classifier -> loss2/classifier
I0123 12:19:24.202246 38174 net.cpp:210] Setting up loss2/classifier
I0123 12:19:24.202280 38174 net.cpp:217] Top shape: 50 1000 (50000)
I0123 12:19:24.202286 38174 net.cpp:225] Memory required for data: 2518506012
I0123 12:19:24.202296 38174 layer_factory.hpp:114] Creating layer loss2/classifier_loss2/classifier_0_split
I0123 12:19:24.202306 38174 net.cpp:160] Creating Layer loss2/classifier_loss2/classifier_0_split
I0123 12:19:24.202322 38174 net.cpp:596] loss2/classifier_loss2/classifier_0_split <- loss2/classifier
I0123 12:19:24.202333 38174 net.cpp:570] loss2/classifier_loss2/classifier_0_split -> loss2/classifier_loss2/classifier_0_split_0
I0123 12:19:24.202344 38174 net.cpp:570] loss2/classifier_loss2/classifier_0_split -> loss2/classifier_loss2/classifier_0_split_1
I0123 12:19:24.202355 38174 net.cpp:570] loss2/classifier_loss2/classifier_0_split -> loss2/classifier_loss2/classifier_0_split_2
I0123 12:19:24.202366 38174 net.cpp:210] Setting up loss2/classifier_loss2/classifier_0_split
I0123 12:19:24.202374 38174 net.cpp:217] Top shape: 50 1000 (50000)
I0123 12:19:24.202381 38174 net.cpp:217] Top shape: 50 1000 (50000)
I0123 12:19:24.202389 38174 net.cpp:217] Top shape: 50 1000 (50000)
I0123 12:19:24.202394 38174 net.cpp:225] Memory required for data: 2519106012
I0123 12:19:24.202401 38174 layer_factory.hpp:114] Creating layer loss2/loss
I0123 12:19:24.202411 38174 net.cpp:160] Creating Layer loss2/loss
I0123 12:19:24.202419 38174 net.cpp:596] loss2/loss <- loss2/classifier_loss2/classifier_0_split_0
I0123 12:19:24.202427 38174 net.cpp:596] loss2/loss <- label_data_1_split_3
…
I0123 12:19:24.202769 38174 net.cpp:210] Setting up loss2/top-5
I0123 12:19:24.202776 38174 net.cpp:217] Top shape: (1)
I0123 12:19:24.202782 38174 net.cpp:225] Memory required for data: 2519106024
I0123 12:19:24.202790 38174 layer_factory.hpp:114] Creating layer inception_4e/1x1
I0123 12:19:24.202805 38174 net.cpp:160] Creating Layer inception_4e/1x1
I0123 12:19:24.202813 38174 net.cpp:596] inception_4e/1x1 <- inception_4d/output_inception_4d/output_0_split_1
I0123 12:19:24.202823 38174 net.cpp:570] inception_4e/1x1 -> inception_4e/1x1
I0123 12:19:24.207216 38174 net.cpp:210] Setting up inception_4e/1x1
I0123 12:19:24.207231 38174 net.cpp:217] Top shape: 50 256 14 14 (2508800)
I0123 12:19:24.207237 38174 net.cpp:225] Memory required for data: 2529141224
I0123 12:19:24.207254 38174 layer_factory.hpp:114] Creating layer inception_4e/relu_1x1
I0123 12:19:24.207267 38174 net.cpp:160] Creating Layer inception_4e/relu_1x1
I0123 12:19:24.207273 38174 net.cpp:596] inception_4e/relu_1x1 <- inception_4e/1x1
I0123 12:19:24.207283 38174 net.cpp:557] inception_4e/relu_1x1 -> inception_4e/1x1 (in-place)
I0123 12:19:24.207316 38174 net.cpp:210] Setting up inception_4e/relu_1x1
I0123 12:19:24.207324 38174 net.cpp:217] Top shape: 50 256 14 14 (2508800)
I0123 12:19:24.207331 38174 net.cpp:225] Memory required for data: 2539176424
I0123 12:19:24.207337 38174 layer_factory.hpp:114] Creating layer inception_4e/3x3_reduce
I0123 12:19:24.207357 38174 net.cpp:160] Creating Layer inception_4e/3x3_reduce
I0123 12:19:24.207365 38174 net.cpp:596] inception_4e/3x3_reduce <- inception_4d/output_inception_4d/output_0_split_2
I0123 12:19:24.207376 38174 net.cpp:570] inception_4e/3x3_reduce -> inception_4e/3x3_reduce
I0123 12:19:24.210816 38174 net.cpp:210] Setting up inception_4e/3x3_reduce
I0123 12:19:24.210830 38174 net.cpp:217] Top shape: 50 160 14 14 (1568000)
I0123 12:19:24.210836 38174 net.cpp:225] Memory required for data: 2545448424
I0123 12:19:24.210847 38174 layer_factory.hpp:114] Creating layer inception_4e/relu_3x3_reduce
I0123 12:19:24.210863 38174 net.cpp:160] Creating Layer inception_4e/relu_3x3_reduce
I0123 12:19:24.210870 38174 net.cpp:596] inception_4e/relu_3x3_reduce <- inception_4e/3x3_reduce
I0123 12:19:24.210880 38174 net.cpp:557] inception_4e/relu_3x3_reduce -> inception_4e/3x3_reduce (in-place)
I0123 12:19:24.210889 38174 net.cpp:210] Setting up inception_4e/relu_3x3_reduce
I0123 12:19:24.210897 38174 net.cpp:217] Top shape: 50 160 14 14 (1568000)
I0123 12:19:24.210903 38174 net.cpp:225] Memory required for data: 2551720424
I0123 12:19:24.210911 38174 layer_factory.hpp:114] Creating layer inception_4e/3x3
I0123 12:19:24.210922 38174 net.cpp:160] Creating Layer inception_4e/3x3
I0123 12:19:24.210928 38174 net.cpp:596] inception_4e/3x3 <- inception_4e/3x3_reduce
I0123 12:19:24.210947 38174 net.cpp:570] inception_4e/3x3 -> inception_4e/3x3
I0123 12:19:24.223727 38174 net.cpp:210] Setting up inception_4e/3x3
I0123 12:19:24.223742 38174 net.cpp:217] Top shape: 50 320 14 14 (3136000)
I0123 12:19:24.223748 38174 net.cpp:225] Memory required for data: 2564264424
I0123 12:19:24.223758 38174 layer_factory.hpp:114] Creating layer inception_4e/relu_3x3
I0123 12:19:24.223767 38174 net.cpp:160] Creating Layer inception_4e/relu_3x3
I0123 12:19:24.223775 38174 net.cpp:596] inception_4e/relu_3x3 <- inception_4e/3x3
I0123 12:19:24.223786 38174 net.cpp:557] inception_4e/relu_3x3 -> inception_4e/3x3 (in-place)
I0123 12:19:24.223796 38174 net.cpp:210] Setting up inception_4e/relu_3x3
I0123 12:19:24.223805 38174 net.cpp:217] Top shape: 50 320 14 14 (3136000)
I0123 12:19:24.223811 38174 net.cpp:225] Memory required for data: 2576808424
I0123 12:19:24.223819 38174 layer_factory.hpp:114] Creating layer inception_4e/5x5_reduce
I0123 12:19:24.223829 38174 net.cpp:160] Creating Layer inception_4e/5x5_reduce
I0123 12:19:24.223836 38174 net.cpp:596] inception_4e/5x5_reduce <- inception_4d/output_inception_4d/output_0_split_3
I0123 12:19:24.223846 38174 net.cpp:570] inception_4e/5x5_reduce -> inception_4e/5x5_reduce
I0123 12:19:24.225514 38174 net.cpp:210] Setting up inception_4e/5x5_reduce
I0123 12:19:24.225528 38174 net.cpp:217] Top shape: 50 32 14 14 (313600)
I0123 12:19:24.225535 38174 net.cpp:225] Memory required for data: 2578062824
I0123 12:19:24.225545 38174 layer_factory.hpp:114] Creating layer inception_4e/relu_5x5_reduce
I0123 12:19:24.225554 38174 net.cpp:160] Creating Layer inception_4e/relu_5x5_reduce
I0123 12:19:24.225561 38174 net.cpp:596] inception_4e/relu_5x5_reduce <- inception_4e/5x5_reduce
I0123 12:19:24.225571 38174 net.cpp:557] inception_4e/relu_5x5_reduce -> inception_4e/5x5_reduce (in-place)
I0123 12:19:24.225582 38174 net.cpp:210] Setting up inception_4e/relu_5x5_reduce
I0123 12:19:24.225590 38174 net.cpp:217] Top shape: 50 32 14 14 (313600)
I0123 12:19:24.225596 38174 net.cpp:225] Memory required for data: 2579317224
I0123 12:19:24.225603 38174 layer_factory.hpp:114] Creating layer inception_4e/5x5
I0123 12:19:24.225620 38174 net.cpp:160] Creating Layer inception_4e/5x5
I0123 12:19:24.225627 38174 net.cpp:596] inception_4e/5x5 <- inception_4e/5x5_reduce
I0123 12:19:24.225636 38174 net.cpp:570] inception_4e/5x5 -> inception_4e/5x5
I0123 12:19:24.230012 38174 net.cpp:210] Setting up inception_4e/5x5
I0123 12:19:24.230027 38174 net.cpp:217] Top shape: 50 128 14 14 (1254400)
I0123 12:19:24.230033 38174 net.cpp:225] Memory required for data: 2584334824
I0123 12:19:24.230051 38174 layer_factory.hpp:114] Creating layer inception_4e/relu_5x5
I0123 12:19:24.230060 38174 net.cpp:160] Creating Layer inception_4e/relu_5x5
I0123 12:19:24.230067 38174 net.cpp:596] inception_4e/relu_5x5 <- inception_4e/5x5
I0123 12:19:24.230078 38174 net.cpp:557] inception_4e/relu_5x5 -> inception_4e/5x5 (in-place)
I0123 12:19:24.230088 38174 net.cpp:210] Setting up inception_4e/relu_5x5
I0123 12:19:24.230096 38174 net.cpp:217] Top shape: 50 128 14 14 (1254400)
I0123 12:19:24.230103 38174 net.cpp:225] Memory required for data: 2589352424
I0123 12:19:24.230109 38174 layer_factory.hpp:114] Creating layer inception_4e/pool
I0123 12:19:24.230196 38174 net.cpp:160] Creating Layer inception_4e/pool
I0123 12:19:24.230207 38174 net.cpp:596] inception_4e/pool <- inception_4d/output_inception_4d/output_0_split_4
I0123 12:19:24.230216 38174 net.cpp:570] inception_4e/pool -> inception_4e/pool
I0123 12:19:24.230235 38174 net.cpp:210] Setting up inception_4e/pool
I0123 12:19:24.230244 38174 net.cpp:217] Top shape: 50 528 14 14 (5174400)
I0123 12:19:24.230252 38174 net.cpp:225] Memory required for data: 2610050024
I0123 12:19:24.230258 38174 layer_factory.hpp:114] Creating layer inception_4e/pool_proj
I0123 12:19:24.230273 38174 net.cpp:160] Creating Layer inception_4e/pool_proj
I0123 12:19:24.230279 38174 net.cpp:596] inception_4e/pool_proj <- inception_4e/pool
I0123 12:19:24.230289 38174 net.cpp:570] inception_4e/pool_proj -> inception_4e/pool_proj
I0123 12:19:24.233316 38174 net.cpp:210] Setting up inception_4e/pool_proj
I0123 12:19:24.233331 38174 net.cpp:217] Top shape: 50 128 14 14 (1254400)
I0123 12:19:24.233338 38174 net.cpp:225] Memory required for data: 2615067624
I0123 12:19:24.233348 38174 layer_factory.hpp:114] Creating layer inception_4e/relu_pool_proj
I0123 12:19:24.233357 38174 net.cpp:160] Creating Layer inception_4e/relu_pool_proj
I0123 12:19:24.233366 38174 net.cpp:596] inception_4e/relu_pool_proj <- inception_4e/pool_proj
I0123 12:19:24.233374 38174 net.cpp:557] inception_4e/relu_pool_proj -> inception_4e/pool_proj (in-place)
I0123 12:19:24.233383 38174 net.cpp:210] Setting up inception_4e/relu_pool_proj
I0123 12:19:24.233392 38174 net.cpp:217] Top shape: 50 128 14 14 (1254400)
I0123 12:19:24.233398 38174 net.cpp:225] Memory required for data: 2620085224
I0123 12:19:24.233405 38174 layer_factory.hpp:114] Creating layer inception_4e/output
I0123 12:19:24.233414 38174 net.cpp:160] Creating Layer inception_4e/output
I0123 12:19:24.233422 38174 net.cpp:596] inception_4e/output <- inception_4e/1x1
I0123 12:19:24.233429 38174 net.cpp:596] inception_4e/output <- inception_4e/3x3
I0123 12:19:24.233438 38174 net.cpp:596] inception_4e/output <- inception_4e/5x5
I0123 12:19:24.233444 38174 net.cpp:596] inception_4e/output <- inception_4e/pool_proj
I0123 12:19:24.233455 38174 net.cpp:570] inception_4e/output -> inception_4e/output
I0123 12:19:24.233476 38174 net.cpp:210] Setting up inception_4e/output
I0123 12:19:24.233485 38174 net.cpp:217] Top shape: 50 832 14 14 (8153600)
I0123 12:19:24.233491 38174 net.cpp:225] Memory required for data: 2652699624
I0123 12:19:24.233499 38174 layer_factory.hpp:114] Creating layer pool4/3x3_s2
I0123 12:19:24.233520 38174 net.cpp:160] Creating Layer pool4/3x3_s2
I0123 12:19:24.233527 38174 net.cpp:596] pool4/3x3_s2 <- inception_4e/output
I0123 12:19:24.233539 38174 net.cpp:570] pool4/3x3_s2 -> pool4/3x3_s2
I0123 12:19:24.233551 38174 net.cpp:210] Setting up pool4/3x3_s2
I0123 12:19:24.233561 38174 net.cpp:217] Top shape: 50 832 7 7 (2038400)
I0123 12:19:24.233567 38174 net.cpp:225] Memory required for data: 2660853224
I0123 12:19:24.233574 38174 layer_factory.hpp:114] Creating layer pool4/3x3_s2_pool4/3x3_s2_0_split
I0123 12:19:24.233583 38174 net.cpp:160] Creating Layer pool4/3x3_s2_pool4/3x3_s2_0_split
I0123 12:19:24.233590 38174 net.cpp:596] pool4/3x3_s2_pool4/3x3_s2_0_split <- pool4/3x3_s2
I0123 12:19:24.233613 38174 net.cpp:570] pool4/3x3_s2_pool4/3x3_s2_0_split -> pool4/3x3_s2_pool4/3x3_s2_0_split_0
I0123 12:19:24.233623 38174 net.cpp:570] pool4/3x3_s2_pool4/3x3_s2_0_split -> pool4/3x3_s2_pool4/3x3_s2_0_split_1
I0123 12:19:24.233633 38174 net.cpp:570] pool4/3x3_s2_pool4/3x3_s2_0_split -> pool4/3x3_s2_pool4/3x3_s2_0_split_2
I0123 12:19:24.233650 38174 net.cpp:570] pool4/3x3_s2_pool4/3x3_s2_0_split -> pool4/3x3_s2_pool4/3x3_s2_0_split_3
I0123 12:19:24.233661 38174 net.cpp:210] Setting up pool4/3x3_s2_pool4/3x3_s2_0_split
I0123 12:19:24.233669 38174 net.cpp:217] Top shape: 50 832 7 7 (2038400)
I0123 12:19:24.233677 38174 net.cpp:217] Top shape: 50 832 7 7 (2038400)
I0123 12:19:24.233686 38174 net.cpp:217] Top shape: 50 832 7 7 (2038400)
I0123 12:19:24.233695 38174 net.cpp:217] Top shape: 50 832 7 7 (2038400)
I0123 12:19:24.233700 38174 net.cpp:225] Memory required for data: 2693467624
I0123 12:19:24.233707 38174 layer_factory.hpp:114] Creating layer inception_5a/1x1
I0123 12:19:24.233719 38174 net.cpp:160] Creating Layer inception_5a/1x1
I0123 12:19:24.233726 38174 net.cpp:596] inception_5a/1x1 <- pool4/3x3_s2_pool4/3x3_s2_0_split_0
I0123 12:19:24.233739 38174 net.cpp:570] inception_5a/1x1 -> inception_5a/1x1
I0123 12:19:24.238827 38174 net.cpp:210] Setting up inception_5a/1x1
I0123 12:19:24.238842 38174 net.cpp:217] Top shape: 50 256 7 7 (627200)
I0123 12:19:24.238848 38174 net.cpp:225] Memory required for data: 2695976424
I0123 12:19:24.238858 38174 layer_factory.hpp:114] Creating layer inception_5a/relu_1x1
I0123 12:19:24.238867 38174 net.cpp:160] Creating Layer inception_5a/relu_1x1
I0123 12:19:24.238888 38174 net.cpp:596] inception_5a/relu_1x1 <- inception_5a/1x1
I0123 12:19:24.238896 38174 net.cpp:557] inception_5a/relu_1x1 -> inception_5a/1x1 (in-place)
I0123 12:19:24.238906 38174 net.cpp:210] Setting up inception_5a/relu_1x1
I0123 12:19:24.238915 38174 net.cpp:217] Top shape: 50 256 7 7 (627200)
I0123 12:19:24.238921 38174 net.cpp:225] Memory required for data: 2698485224
I0123 12:19:24.238929 38174 layer_factory.hpp:114] Creating layer inception_5a/3x3_reduce
I0123 12:19:24.238946 38174 net.cpp:160] Creating Layer inception_5a/3x3_reduce
I0123 12:19:24.238955 38174 net.cpp:596] inception_5a/3x3_reduce <- pool4/3x3_s2_pool4/3x3_s2_0_split_1
I0123 12:19:24.238963 38174 net.cpp:570] inception_5a/3x3_reduce -> inception_5a/3x3_reduce
I0123 12:19:24.242486 38174 net.cpp:210] Setting up inception_5a/3x3_reduce
I0123 12:19:24.242499 38174 net.cpp:217] Top shape: 50 160 7 7 (392000)
I0123 12:19:24.242506 38174 net.cpp:225] Memory required for data: 2700053224
I0123 12:19:24.242516 38174 layer_factory.hpp:114] Creating layer inception_5a/relu_3x3_reduce
I0123 12:19:24.242527 38174 net.cpp:160] Creating Layer inception_5a/relu_3x3_reduce
I0123 12:19:24.242534 38174 net.cpp:596] inception_5a/relu_3x3_reduce <- inception_5a/3x3_reduce
I0123 12:19:24.242543 38174 net.cpp:557] inception_5a/relu_3x3_reduce -> inception_5a/3x3_reduce (in-place)
I0123 12:19:24.242553 38174 net.cpp:210] Setting up inception_5a/relu_3x3_reduce
I0123 12:19:24.242561 38174 net.cpp:217] Top shape: 50 160 7 7 (392000)
I0123 12:19:24.242568 38174 net.cpp:225] Memory required for data: 2701621224
I0123 12:19:24.242574 38174 layer_factory.hpp:114] Creating layer inception_5a/3x3
I0123 12:19:24.242585 38174 net.cpp:160] Creating Layer inception_5a/3x3
I0123 12:19:24.242593 38174 net.cpp:596] inception_5a/3x3 <- inception_5a/3x3_reduce
I0123 12:19:24.242604 38174 net.cpp:570] inception_5a/3x3 -> inception_5a/3x3
I0123 12:19:24.253218 38174 net.cpp:210] Setting up inception_5a/3x3
I0123 12:19:24.253232 38174 net.cpp:217] Top shape: 50 320 7 7 (784000)
I0123 12:19:24.253239 38174 net.cpp:225] Memory required for data: 2704757224
I0123 12:19:24.253249 38174 layer_factory.hpp:114] Creating layer inception_5a/relu_3x3
I0123 12:19:24.253258 38174 net.cpp:160] Creating Layer inception_5a/relu_3x3
I0123 12:19:24.253267 38174 net.cpp:596] inception_5a/relu_3x3 <- inception_5a/3x3
I0123 12:19:24.253274 38174 net.cpp:557] inception_5a/relu_3x3 -> inception_5a/3x3 (in-place)
I0123 12:19:24.253301 38174 net.cpp:210] Setting up inception_5a/relu_3x3
I0123 12:19:24.253310 38174 net.cpp:217] Top shape: 50 320 7 7 (784000)
I0123 12:19:24.253316 38174 net.cpp:225] Memory required for data: 2707893224
I0123 12:19:24.253324 38174 layer_factory.hpp:114] Creating layer inception_5a/5x5_reduce
I0123 12:19:24.253337 38174 net.cpp:160] Creating Layer inception_5a/5x5_reduce
I0123 12:19:24.253345 38174 net.cpp:596] inception_5a/5x5_reduce <- pool4/3x3_s2_pool4/3x3_s2_0_split_2
I0123 12:19:24.253355 38174 net.cpp:570] inception_5a/5x5_reduce -> inception_5a/5x5_reduce
I0123 12:19:24.254434 38174 net.cpp:210] Setting up inception_5a/5x5_reduce
I0123 12:19:24.254448 38174 net.cpp:217] Top shape: 50 32 7 7 (78400)
I0123 12:19:24.254456 38174 net.cpp:225] Memory required for data: 2708206824
I0123 12:19:24.254464 38174 layer_factory.hpp:114] Creating layer inception_5a/relu_5x5_reduce
I0123 12:19:24.254474 38174 net.cpp:160] Creating Layer inception_5a/relu_5x5_reduce
I0123 12:19:24.254482 38174 net.cpp:596] inception_5a/relu_5x5_reduce <- inception_5a/5x5_reduce
I0123 12:19:24.254492 38174 net.cpp:557] inception_5a/relu_5x5_reduce -> inception_5a/5x5_reduce (in-place)
I0123 12:19:24.254503 38174 net.cpp:210] Setting up inception_5a/relu_5x5_reduce
I0123 12:19:24.254510 38174 net.cpp:217] Top shape: 50 32 7 7 (78400)
I0123 12:19:24.254516 38174 net.cpp:225] Memory required for data: 2708520424
I0123 12:19:24.254523 38174 layer_factory.hpp:114] Creating layer inception_5a/5x5
I0123 12:19:24.254536 38174 net.cpp:160] Creating Layer inception_5a/5x5
I0123 12:19:24.254549 38174 net.cpp:596] inception_5a/5x5 <- inception_5a/5x5_reduce
I0123 12:19:24.254559 38174 net.cpp:570] inception_5a/5x5 -> inception_5a/5x5
I0123 12:19:24.257705 38174 net.cpp:210] Setting up inception_5a/5x5
I0123 12:19:24.257720 38174 net.cpp:217] Top shape: 50 128 7 7 (313600)
I0123 12:19:24.257726 38174 net.cpp:225] Memory required for data: 2709774824
I0123 12:19:24.257736 38174 layer_factory.hpp:114] Creating layer inception_5a/relu_5x5
I0123 12:19:24.257748 38174 net.cpp:160] Creating Layer inception_5a/relu_5x5
I0123 12:19:24.257762 38174 net.cpp:596] inception_5a/relu_5x5 <- inception_5a/5x5
I0123 12:19:24.257773 38174 net.cpp:557] inception_5a/relu_5x5 -> inception_5a/5x5 (in-place)
I0123 12:19:24.257783 38174 net.cpp:210] Setting up inception_5a/relu_5x5
I0123 12:19:24.257791 38174 net.cpp:217] Top shape: 50 128 7 7 (313600)
I0123 12:19:24.257797 38174 net.cpp:225] Memory required for data: 2711029224
I0123 12:19:24.257804 38174 layer_factory.hpp:114] Creating layer inception_5a/pool
I0123 12:19:24.257829 38174 net.cpp:160] Creating Layer inception_5a/pool
I0123 12:19:24.257838 38174 net.cpp:596] inception_5a/pool <- pool4/3x3_s2_pool4/3x3_s2_0_split_3
I0123 12:19:24.257848 38174 net.cpp:570] inception_5a/pool -> inception_5a/pool
I0123 12:19:24.257861 38174 net.cpp:210] Setting up inception_5a/pool
I0123 12:19:24.257872 38174 net.cpp:217] Top shape: 50 832 7 7 (2038400)
I0123 12:19:24.257879 38174 net.cpp:225] Memory required for data: 2719182824
I0123 12:19:24.257885 38174 layer_factory.hpp:114] Creating layer inception_5a/pool_proj
I0123 12:19:24.257900 38174 net.cpp:160] Creating Layer inception_5a/pool_proj
I0123 12:19:24.257908 38174 net.cpp:596] inception_5a/pool_proj <- inception_5a/pool
I0123 12:19:24.257918 38174 net.cpp:570] inception_5a/pool_proj -> inception_5a/pool_proj
I0123 12:19:24.260793 38174 net.cpp:210] Setting up inception_5a/pool_proj
I0123 12:19:24.260808 38174 net.cpp:217] Top shape: 50 128 7 7 (313600)
I0123 12:19:24.260814 38174 net.cpp:225] Memory required for data: 2720437224
I0123 12:19:24.260824 38174 layer_factory.hpp:114] Creating layer inception_5a/relu_pool_proj
I0123 12:19:24.260835 38174 net.cpp:160] Creating Layer inception_5a/relu_pool_proj
I0123 12:19:24.260843 38174 net.cpp:596] inception_5a/relu_pool_proj <- inception_5a/pool_proj
I0123 12:19:24.260852 38174 net.cpp:557] inception_5a/relu_pool_proj -> inception_5a/pool_proj (in-place)
I0123 12:19:24.260879 38174 net.cpp:210] Setting up inception_5a/relu_pool_proj
I0123 12:19:24.260888 38174 net.cpp:217] Top shape: 50 128 7 7 (313600)
I0123 12:19:24.260895 38174 net.cpp:225] Memory required for data: 2721691624
I0123 12:19:24.260901 38174 layer_factory.hpp:114] Creating layer inception_5a/output
I0123 12:19:24.260910 38174 net.cpp:160] Creating Layer inception_5a/output
I0123 12:19:24.260917 38174 net.cpp:596] inception_5a/output <- inception_5a/1x1
I0123 12:19:24.260926 38174 net.cpp:596] inception_5a/output <- inception_5a/3x3
I0123 12:19:24.260932 38174 net.cpp:596] inception_5a/output <- inception_5a/5x5
I0123 12:19:24.260941 38174 net.cpp:596] inception_5a/output <- inception_5a/pool_proj
I0123 12:19:24.260948 38174 net.cpp:570] inception_5a/output -> inception_5a/output
I0123 12:19:24.260967 38174 net.cpp:210] Setting up inception_5a/output
I0123 12:19:24.260977 38174 net.cpp:217] Top shape: 50 832 7 7 (2038400)
I0123 12:19:24.260982 38174 net.cpp:225] Memory required for data: 2729845224
I0123 12:19:24.260989 38174 layer_factory.hpp:114] Creating layer inception_5a/output_inception_5a/output_0_split
I0123 12:19:24.260998 38174 net.cpp:160] Creating Layer inception_5a/output_inception_5a/output_0_split
I0123 12:19:24.261005 38174 net.cpp:596] inception_5a/output_inception_5a/output_0_split <- inception_5a/output
I0123 12:19:24.261016 38174 net.cpp:570] inception_5a/output_inception_5a/output_0_split -> inception_5a/output_inception_5a/output_0_split_0
I0123 12:19:24.261028 38174 net.cpp:570] inception_5a/output_inception_5a/output_0_split -> inception_5a/output_inception_5a/output_0_split_1
I0123 12:19:24.261041 38174 net.cpp:570] inception_5a/output_inception_5a/output_0_split -> inception_5a/output_inception_5a/output_0_split_2
I0123 12:19:24.261052 38174 net.cpp:570] inception_5a/output_inception_5a/output_0_split -> inception_5a/output_inception_5a/output_0_split_3
I0123 12:19:24.261063 38174 net.cpp:210] Setting up inception_5a/output_inception_5a/output_0_split
I0123 12:19:24.261071 38174 net.cpp:217] Top shape: 50 832 7 7 (2038400)
I0123 12:19:24.261080 38174 net.cpp:217] Top shape: 50 832 7 7 (2038400)
I0123 12:19:24.261086 38174 net.cpp:217] Top shape: 50 832 7 7 (2038400)
I0123 12:19:24.261093 38174 net.cpp:217] Top shape: 50 832 7 7 (2038400)
I0123 12:19:24.261101 38174 net.cpp:225] Memory required for data: 2762459624
I0123 12:19:24.261106 38174 layer_factory.hpp:114] Creating layer inception_5b/1x1
I0123 12:19:24.261119 38174 net.cpp:160] Creating Layer inception_5b/1x1
I0123 12:19:24.261127 38174 net.cpp:596] inception_5b/1x1 <- inception_5a/output_inception_5a/output_0_split_0
I0123 12:19:24.261137 38174 net.cpp:570] inception_5b/1x1 -> inception_5b/1x1
I0123 12:19:24.268020 38174 net.cpp:210] Setting up inception_5b/1x1
I0123 12:19:24.268043 38174 net.cpp:217] Top shape: 50 384 7 7 (940800)
I0123 12:19:24.268049 38174 net.cpp:225] Memory required for data: 2766222824
I0123 12:19:24.268065 38174 layer_factory.hpp:114] Creating layer inception_5b/relu_1x1
I0123 12:19:24.268077 38174 net.cpp:160] Creating Layer inception_5b/relu_1x1
I0123 12:19:24.268085 38174 net.cpp:596] inception_5b/relu_1x1 <- inception_5b/1x1
I0123 12:19:24.268095 38174 net.cpp:557] inception_5b/relu_1x1 -> inception_5b/1x1 (in-place)
I0123 12:19:24.268105 38174 net.cpp:210] Setting up inception_5b/relu_1x1
I0123 12:19:24.268112 38174 net.cpp:217] Top shape: 50 384 7 7 (940800)
I0123 12:19:24.268118 38174 net.cpp:225] Memory required for data: 2769986024
I0123 12:19:24.268126 38174 layer_factory.hpp:114] Creating layer inception_5b/3x3_reduce
I0123 12:19:24.268136 38174 net.cpp:160] Creating Layer inception_5b/3x3_reduce
I0123 12:19:24.268143 38174 net.cpp:596] inception_5b/3x3_reduce <- inception_5a/output_inception_5a/output_0_split_1
I0123 12:19:24.268160 38174 net.cpp:570] inception_5b/3x3_reduce -> inception_5b/3x3_reduce
I0123 12:19:24.272362 38174 net.cpp:210] Setting up inception_5b/3x3_reduce
I0123 12:19:24.272382 38174 net.cpp:217] Top shape: 50 192 7 7 (470400)
I0123 12:19:24.272387 38174 net.cpp:225] Memory required for data: 2771867624
I0123 12:19:24.272413 38174 layer_factory.hpp:114] Creating layer inception_5b/relu_3x3_reduce
I0123 12:19:24.272423 38174 net.cpp:160] Creating Layer inception_5b/relu_3x3_reduce
I0123 12:19:24.272430 38174 net.cpp:596] inception_5b/relu_3x3_reduce <- inception_5b/3x3_reduce
I0123 12:19:24.272439 38174 net.cpp:557] inception_5b/relu_3x3_reduce -> inception_5b/3x3_reduce (in-place)
I0123 12:19:24.272449 38174 net.cpp:210] Setting up inception_5b/relu_3x3_reduce
I0123 12:19:24.272457 38174 net.cpp:217] Top shape: 50 192 7 7 (470400)
I0123 12:19:24.272464 38174 net.cpp:225] Memory required for data: 2773749224
I0123 12:19:24.272470 38174 layer_factory.hpp:114] Creating layer inception_5b/3x3
I0123 12:19:24.272488 38174 net.cpp:160] Creating Layer inception_5b/3x3
I0123 12:19:24.272496 38174 net.cpp:596] inception_5b/3x3 <- inception_5b/3x3_reduce
I0123 12:19:24.272506 38174 net.cpp:570] inception_5b/3x3 -> inception_5b/3x3
I0123 12:19:24.286800 38174 net.cpp:210] Setting up inception_5b/3x3
I0123 12:19:24.286815 38174 net.cpp:217] Top shape: 50 384 7 7 (940800)
I0123 12:19:24.286821 38174 net.cpp:225] Memory required for data: 2777512424
I0123 12:19:24.286831 38174 layer_factory.hpp:114] Creating layer inception_5b/relu_3x3
I0123 12:19:24.286844 38174 net.cpp:160] Creating Layer inception_5b/relu_3x3
I0123 12:19:24.286851 38174 net.cpp:596] inception_5b/relu_3x3 <- inception_5b/3x3
I0123 12:19:24.286859 38174 net.cpp:557] inception_5b/relu_3x3 -> inception_5b/3x3 (in-place)
I0123 12:19:24.286870 38174 net.cpp:210] Setting up inception_5b/relu_3x3
I0123 12:19:24.286877 38174 net.cpp:217] Top shape: 50 384 7 7 (940800)
I0123 12:19:24.286895 38174 net.cpp:225] Memory required for data: 2781275624
I0123 12:19:24.286903 38174 layer_factory.hpp:114] Creating layer inception_5b/5x5_reduce
I0123 12:19:24.286914 38174 net.cpp:160] Creating Layer inception_5b/5x5_reduce
I0123 12:19:24.286922 38174 net.cpp:596] inception_5b/5x5_reduce <- inception_5a/output_inception_5a/output_0_split_2
I0123 12:19:24.286933 38174 net.cpp:570] inception_5b/5x5_reduce -> inception_5b/5x5_reduce
I0123 12:19:24.288321 38174 net.cpp:210] Setting up inception_5b/5x5_reduce
I0123 12:19:24.288336 38174 net.cpp:217] Top shape: 50 48 7 7 (117600)
I0123 12:19:24.288349 38174 net.cpp:225] Memory required for data: 2781746024
I0123 12:19:24.288358 38174 layer_factory.hpp:114] Creating layer inception_5b/relu_5x5_reduce
I0123 12:19:24.288368 38174 net.cpp:160] Creating Layer inception_5b/relu_5x5_reduce
I0123 12:19:24.288378 38174 net.cpp:596] inception_5b/relu_5x5_reduce <- inception_5b/5x5_reduce
I0123 12:19:24.288386 38174 net.cpp:557] inception_5b/relu_5x5_reduce -> inception_5b/5x5_reduce (in-place)
I0123 12:19:24.288396 38174 net.cpp:210] Setting up inception_5b/relu_5x5_reduce
I0123 12:19:24.288404 38174 net.cpp:217] Top shape: 50 48 7 7 (117600)
I0123 12:19:24.288411 38174 net.cpp:225] Memory required for data: 2782216424
I0123 12:19:24.288419 38174 layer_factory.hpp:114] Creating layer inception_5b/5x5
I0123 12:19:24.288431 38174 net.cpp:160] Creating Layer inception_5b/5x5
I0123 12:19:24.288439 38174 net.cpp:596] inception_5b/5x5 <- inception_5b/5x5_reduce
I0123 12:19:24.288450 38174 net.cpp:570] inception_5b/5x5 -> inception_5b/5x5
I0123 12:19:24.292528 38174 net.cpp:210] Setting up inception_5b/5x5
I0123 12:19:24.292542 38174 net.cpp:217] Top shape: 50 128 7 7 (313600)
I0123 12:19:24.292549 38174 net.cpp:225] Memory required for data: 2783470824
I0123 12:19:24.292559 38174 layer_factory.hpp:114] Creating layer inception_5b/relu_5x5
I0123 12:19:24.292568 38174 net.cpp:160] Creating Layer inception_5b/relu_5x5
I0123 12:19:24.292577 38174 net.cpp:596] inception_5b/relu_5x5 <- inception_5b/5x5
I0123 12:19:24.292585 38174 net.cpp:557] inception_5b/relu_5x5 -> inception_5b/5x5 (in-place)
I0123 12:19:24.292594 38174 net.cpp:210] Setting up inception_5b/relu_5x5
I0123 12:19:24.292603 38174 net.cpp:217] Top shape: 50 128 7 7 (313600)
I0123 12:19:24.292608 38174 net.cpp:225] Memory required for data: 2784725224
I0123 12:19:24.292639 38174 layer_factory.hpp:114] Creating layer inception_5b/pool
I0123 12:19:24.292678 38174 net.cpp:160] Creating Layer inception_5b/pool
I0123 12:19:24.292687 38174 net.cpp:596] inception_5b/pool <- inception_5a/output_inception_5a/output_0_split_3
I0123 12:19:24.292697 38174 net.cpp:570] inception_5b/pool -> inception_5b/pool
I0123 12:19:24.292712 38174 net.cpp:210] Setting up inception_5b/pool
I0123 12:19:24.292722 38174 net.cpp:217] Top shape: 50 832 7 7 (2038400)
I0123 12:19:24.292728 38174 net.cpp:225] Memory required for data: 2792878824
I0123 12:19:24.292735 38174 layer_factory.hpp:114] Creating layer inception_5b/pool_proj
I0123 12:19:24.292749 38174 net.cpp:160] Creating Layer inception_5b/pool_proj
I0123 12:19:24.292757 38174 net.cpp:596] inception_5b/pool_proj <- inception_5b/pool
I0123 12:19:24.292767 38174 net.cpp:570] inception_5b/pool_proj -> inception_5b/pool_proj
I0123 12:19:24.295995 38174 net.cpp:210] Setting up inception_5b/pool_proj
I0123 12:19:24.296010 38174 net.cpp:217] Top shape: 50 128 7 7 (313600)
I0123 12:19:24.296016 38174 net.cpp:225] Memory required for data: 2794133224
I0123 12:19:24.296026 38174 layer_factory.hpp:114] Creating layer inception_5b/relu_pool_proj
I0123 12:19:24.296036 38174 net.cpp:160] Creating Layer inception_5b/relu_pool_proj
I0123 12:19:24.296043 38174 net.cpp:596] inception_5b/relu_pool_proj <- inception_5b/pool_proj
I0123 12:19:24.296052 38174 net.cpp:557] inception_5b/relu_pool_proj -> inception_5b/pool_proj (in-place)
I0123 12:19:24.296061 38174 net.cpp:210] Setting up inception_5b/relu_pool_proj
I0123 12:19:24.296069 38174 net.cpp:217] Top shape: 50 128 7 7 (313600)
I0123 12:19:24.296082 38174 net.cpp:225] Memory required for data: 2795387624
I0123 12:19:24.296088 38174 layer_factory.hpp:114] Creating layer inception_5b/output
I0123 12:19:24.296099 38174 net.cpp:160] Creating Layer inception_5b/output
I0123 12:19:24.296108 38174 net.cpp:596] inception_5b/output <- inception_5b/1x1
I0123 12:19:24.296115 38174 net.cpp:596] inception_5b/output <- inception_5b/3x3
I0123 12:19:24.296123 38174 net.cpp:596] inception_5b/output <- inception_5b/5x5
I0123 12:19:24.296130 38174 net.cpp:596] inception_5b/output <- inception_5b/pool_proj
I0123 12:19:24.296139 38174 net.cpp:570] inception_5b/output -> inception_5b/output
I0123 12:19:24.296151 38174 net.cpp:210] Setting up inception_5b/output
I0123 12:19:24.296159 38174 net.cpp:217] Top shape: 50 1024 7 7 (2508800)
I0123 12:19:24.296166 38174 net.cpp:225] Memory required for data: 2805422824
I0123 12:19:24.296202 38174 layer_factory.hpp:114] Creating layer pool5/7x7_s1
I0123 12:19:24.296223 38174 net.cpp:160] Creating Layer pool5/7x7_s1
I0123 12:19:24.296232 38174 net.cpp:596] pool5/7x7_s1 <- inception_5b/output
I0123 12:19:24.296242 38174 net.cpp:570] pool5/7x7_s1 -> pool5/7x7_s1
I0123 12:19:24.296253 38174 net.cpp:210] Setting up pool5/7x7_s1
I0123 12:19:24.296263 38174 net.cpp:217] Top shape: 50 1024 1 1 (51200)
I0123 12:19:24.296269 38174 net.cpp:225] Memory required for data: 2805627624
I0123 12:19:24.296277 38174 layer_factory.hpp:114] Creating layer pool5/drop_7x7_s1
I0123 12:19:24.296291 38174 net.cpp:160] Creating Layer pool5/drop_7x7_s1
I0123 12:19:24.296298 38174 net.cpp:596] pool5/drop_7x7_s1 <- pool5/7x7_s1
I0123 12:19:24.296308 38174 net.cpp:557] pool5/drop_7x7_s1 -> pool5/7x7_s1 (in-place)
I0123 12:19:24.296320 38174 net.cpp:210] Setting up pool5/drop_7x7_s1
I0123 12:19:24.296329 38174 net.cpp:217] Top shape: 50 1024 1 1 (51200)
I0123 12:19:24.296335 38174 net.cpp:225] Memory required for data: 2805832424
I0123 12:19:24.296341 38174 layer_factory.hpp:114] Creating layer loss3/classifier
I0123 12:19:24.296358 38174 net.cpp:160] Creating Layer loss3/classifier
I0123 12:19:24.296365 38174 net.cpp:596] loss3/classifier <- pool5/7x7_s1
I0123 12:19:24.296375 38174 net.cpp:570] loss3/classifier -> loss3/classifier
I0123 12:19:24.305630 38174 net.cpp:210] Setting up loss3/classifier
I0123 12:19:24.305644 38174 net.cpp:217] Top shape: 50 1000 (50000)
I0123 12:19:24.305650 38174 net.cpp:225] Memory required for data: 2806032424
I0123 12:19:24.305670 38174 layer_factory.hpp:114] Creating layer loss3/classifier_loss3/classifier_0_split
I0123 12:19:24.305694 38174 net.cpp:160] Creating Layer loss3/classifier_loss3/classifier_0_split
I0123 12:19:24.305702 38174 net.cpp:596] loss3/classifier_loss3/classifier_0_split <- loss3/classifier
I0123 12:19:24.305711 38174 net.cpp:570] loss3/classifier_loss3/classifier_0_split -> loss3/classifier_loss3/classifier_0_split_0
I0123 12:19:24.305722 38174 net.cpp:570] loss3/classifier_loss3/classifier_0_split -> loss3/classifier_loss3/classifier_0_split_1
I0123 12:19:24.305732 38174 net.cpp:570] loss3/classifier_loss3/classifier_0_split -> loss3/classifier_loss3/classifier_0_split_2
I0123 12:19:24.305743 38174 net.cpp:210] Setting up loss3/classifier_loss3/classifier_0_split
I0123 12:19:24.305752 38174 net.cpp:217] Top shape: 50 1000 (50000)
I0123 12:19:24.305759 38174 net.cpp:217] Top shape: 50 1000 (50000)
I0123 12:19:24.305766 38174 net.cpp:217] Top shape: 50 1000 (50000)
I0123 12:19:24.305773 38174 net.cpp:225] Memory required for data: 2806632424
I0123 12:19:24.305779 38174 layer_factory.hpp:114] Creating layer loss3/loss3
I0123 12:19:24.305793 38174 net.cpp:160] Creating Layer loss3/loss3
I0123 12:19:24.305799 38174 net.cpp:596] loss3/loss3 <- loss3/classifier_loss3/classifier_0_split_0
I0123 12:19:24.305807 38174 net.cpp:596] loss3/loss3 <- label_data_1_split_6
…
